…
I0505 13:14:49.364037 19153 net.cpp:294] The NetState phase (0) differed from the phase (1) specified by a rule in layer loss3/top-5
I0505 13:14:49.365433 19153 net.cpp:51] Initializing net from parameters:
state {
phase: TRAIN
level: 0
stage: ""
}
layer {
name: "train-data"
type: "Data"
top: "data"
top: "label"
include {
phase: TRAIN
}
transform_param {
mirror: true
crop_size: 224
mean_file: "/mnt/bigdisk/MANDIG2/digits/jobs/20200428-132136-11fe/mean.binaryproto"
}
data_param {
source: "/mnt/bigdisk/MANDIG2/digits/jobs/20200428-132136-11fe/train_db"
batch_size: 32
backend: LMDB
}
}
layer {
name: "conv1/7x7_s2"
type: "Convolution"
bottom: "data"
top: "conv1/7x7_s2"
param {
lr_mult: 1
decay_mult: 1
}
param {
lr_mult: 2
decay_mult: 0
}
convolution_param {
num_output: 64
pad: 3
kernel_size: 7
stride: 2
weight_filler {
type: "xavier"
std: 0.1
}
bias_filler {
type: "constant"
value: 0.2
}
}
}
layer {
name: "conv1/relu_7x7"
type: "ReLU"
bottom: "conv1/7x7_s2"
top: "conv1/7x7_s2"
}
layer {
name: "pool1/3x3_s2"
type: "Pooling"
bottom: "conv1/7x7_s2"
top: "pool1/3x3_s2"
pooling_param {
pool: MAX
kernel_size: 3
stride: 2
}
}
layer {
name: "pool1/norm1"
type: "LRN"
bottom: "pool1/3x3_s2"
top: "pool1/norm1"
lrn_param {
local_size: 5
alpha: 0.0001
beta: 0.75
}
}
layer {
name: "conv2/3x3_reduce"
type: "Convolution"
bottom: "pool1/norm1"
top: "conv2/3x3_reduce"
param {
lr_mult: 1
decay_mult: 1
}
param {
lr_mult: 2
decay_mult: 0
}
convolution_param {
num_output: 64
kernel_size: 1
weight_filler {
type: "xavier"
std: 0.1
}
bias_filler {
type: "constant"
value: 0.2
}
}
}
layer {
name: "conv2/relu_3x3_reduce"
type: "ReLU"
bottom: "conv2/3x3_reduce"
top: "conv2/3x3_reduce"
}
layer {
name: "conv2/3x3"
type: "Convolution"
bottom: "conv2/3x3_reduce"
top: "conv2/3x3"
param {
lr_mult: 1
decay_mult: 1
}
param {
lr_mult: 2
decay_mult: 0
}
convolution_param {
num_output: 192
pad: 1
kernel_size: 3
weight_filler {
type: "xavier"
std: 0.03
}
bias_filler {
type: "constant"
value: 0.2
}
}
}
layer {
name: "conv2/relu_3x3"
type: "ReLU"
bottom: "conv2/3x3"
top: "conv2/3x3"
}
layer {
name: "conv2/norm2"
type: "LRN"
bottom: "conv2/3x3"
top: "conv2/norm2"
lrn_param {
local_size: 5
alpha: 0.0001
beta: 0.75
}
}
layer {
name: "pool2/3x3_s2"
type: "Pooling"
bottom: "conv2/norm2"
top: "pool2/3x3_s2"
pooling_param {
pool: MAX
kernel_size: 3
stride: 2
}
}
layer {
name: "inception_3a/1x1"
type: "Convolution"
bottom: "pool2/3x3_s2"
top: "inception_3a/1x1"
param {
lr_mult: 1
decay_mult: 1
}
param {
lr_mult: 2
decay_mult: 0
}
convolution_param {
num_output: 64
kernel_size: 1
weight_filler {
type: "xavier"
std: 0.03
}
bias_filler {
type: "constant"
value: 0.2
}
}
}
layer {
name: "inception_3a/relu_1x1"
type: "ReLU"
bottom: "inception_3a/1x1"
top: "inception_3a/1x1"
}
layer {
name: "inception_3a/3x3_reduce"
type: "Convolution"
bottom: "pool2/3x3_s2"
top: "inception_3a/3x3_reduce"
param {
lr_mult: 1
decay_mult: 1
}
param {
lr_mult: 2
decay_mult: 0
}
convolution_param {
num_output: 96
kernel_size: 1
weight_filler {
type: "xavier"
std: 0.09
}
bias_filler {
type: "constant"
value: 0.2
}
}
}
layer {
name: "inception_3a/relu_3x3_reduce"
type: "ReLU"
bottom: "inception_3a/3x3_reduce"
top: "inception_3a/3x3_reduce"
}
layer {
name: "inception_3a/3x3"
type: "Convolution"
bottom: "inception_3a/3x3_reduce"
top: "inception_3a/3x3"
param {
lr_mult: 1
decay_mult: 1
}
param {
lr_mult: 2
decay_mult: 0
}
convolution_param {
num_output: 128
pad: 1
kernel_size: 3
weight_filler {
type: "xavier"
std: 0.03
}
bias_filler {
type: "constant"
value: 0.2
}
}
}
layer {
name: "inception_3a/relu_3x3"
type: "ReLU"
bottom: "inception_3a/3x3"
top: "inception_3a/3x3"
}
layer {
name: "inception_3a/5x5_reduce"
type: "Convolution"
bottom: "pool2/3x3_s2"
top: "inception_3a/5x5_reduce"
param {
lr_mult: 1
decay_mult: 1
}
param {
lr_mult: 2
decay_mult: 0
}
convolution_param {
num_output: 16
kernel_size: 1
weight_filler {
type: "xavier"
std: 0.2
}
bias_filler {
type: "constant"
value: 0.2
}
}
}
layer {
name: "inception_3a/relu_5x5_reduce"
type: "ReLU"
bottom: "inception_3a/5x5_reduce"
top: "inception_3a/5x5_reduce"
}
layer {
name: "inception_3a/5x5"
type: "Convolution"
bottom: "inception_3a/5x5_reduce"
top: "inception_3a/5x5"
param {
lr_mult: 1
decay_mult: 1
}
param {
lr_mult: 2
decay_mult: 0
}
convolution_param {
num_output: 32
pad: 2
kernel_size: 5
weight_filler {
type: "xavier"
std: 0.03
}
bias_filler {
type: "constant"
value: 0.2
}
}
}
layer {
name: "inception_3a/relu_5x5"
type: "ReLU"
bottom: "inception_3a/5x5"
top: "inception_3a/5x5"
}
layer {
name: "inception_3a/pool"
type: "Pooling"
bottom: "pool2/3x3_s2"
top: "inception_3a/pool"
pooling_param {
pool: MAX
kernel_size: 3
stride: 1
pad: 1
}
}
layer {
name: "inception_3a/pool_proj"
type: "Convolution"
bottom: "inception_3a/pool"
top: "inception_3a/pool_proj"
param {
lr_mult: 1
decay_mult: 1
}
param {
lr_mult: 2
decay_mult: 0
}
convolution_param {
num_output: 32
kernel_size: 1
weight_filler {
type: "xavier"
std: 0.1
}
bias_filler {
type: "constant"
value: 0.2
}
}
}
layer {
name: "inception_3a/relu_pool_proj"
type: "ReLU"
bottom: "inception_3a/pool_proj"
top: "inception_3a/pool_proj"
}
layer {
name: "inception_3a/output"
type: "Concat"
bottom: "inception_3a/1x1"
bottom: "inception_3a/3x3"
bottom: "inception_3a/5x5"
bottom: "inception_3a/pool_proj"
top: "inception_3a/output"
}
layer {
name: "inception_3b/1x1"
type: "Convolution"
bottom: "inception_3a/output"
top: "inception_3b/1x1"
param {
lr_mult: 1
decay_mult: 1
}
param {
lr_mult: 2
decay_mult: 0
}
convolution_param {
num_output: 128
kernel_size: 1
weight_filler {
type: "xavier"
std: 0.03
}
bias_filler {
type: "constant"
value: 0.2
}
}
}
layer {
name: "inception_3b/relu_1x1"
type: "ReLU"
bottom: "inception_3b/1x1"
top: "inception_3b/1x1"
}
layer {
name: "inception_3b/3x3_reduce"
type: "Convolution"
bottom: "inception_3a/output"
top: "inception_3b/3x3_reduce"
param {
lr_mult: 1
decay_mult: 1
}
param {
lr_mult: 2
decay_mult: 0
}
convolution_param {
num_output: 128
kernel_size: 1
weight_filler {
type: "xavier"
std: 0.09
}
bias_filler {
type: "constant"
value: 0.2
}
}
}
layer {
name: "inception_3b/relu_3x3_reduce"
type: "ReLU"
bottom: "inception_3b/3x3_reduce"
top: "inception_3b/3x3_reduce"
}
layer {
name: "inception_3b/3x3"
type: "Convolution"
bottom: "inception_3b/3x3_reduce"
top: "inception_3b/3x3"
param {
lr_mult: 1
decay_mult: 1
}
param {
lr_mult: 2
decay_mult: 0
}
convolution_param {
num_output: 192
pad: 1
kernel_size: 3
weight_filler {
type: "xavier"
std: 0.03
}
bias_filler {
type: "constant"
value: 0.2
}
}
}
layer {
name: "inception_3b/relu_3x3"
type: "ReLU"
bottom: "inception_3b/3x3"
top: "inception_3b/3x3"
}
layer {
name: "inception_3b/5x5_reduce"
type: "Convolution"
bottom: "inception_3a/output"
top: "inception_3b/5x5_reduce"
param {
lr_mult: 1
decay_mult: 1
}
param {
lr_mult: 2
decay_mult: 0
}
convolution_param {
num_output: 32
kernel_size: 1
weight_filler {
type: "xavier"
std: 0.2
}
bias_filler {
type: "constant"
value: 0.2
}
}
}
layer {
name: "inception_3b/relu_5x5_reduce"
type: "ReLU"
bottom: "inception_3b/5x5_reduce"
top: "inception_3b/5x5_reduce"
}
layer {
name: "inception_3b/5x5"
type: "Convolution"
bottom: "inception_3b/5x5_reduce"
top: "inception_3b/5x5"
param {
lr_mult: 1
decay_mult: 1
}
param {
lr_mult: 2
decay_mult: 0
}
convolution_param {
num_output: 96
pad: 2
kernel_size: 5
weight_filler {
type: "xavier"
std: 0.03
}
bias_filler {
type: "constant"
value: 0.2
}
}
}
layer {
name: "inception_3b/relu_5x5"
type: "ReLU"
bottom: "inception_3b/5x5"
top: "inception_3b/5x5"
}
layer {
name: "inception_3b/pool"
type: "Pooling"
bottom: "inception_3a/output"
top: "inception_3b/pool"
pooling_param {
pool: MAX
kernel_size: 3
stride: 1
pad: 1
}
}
layer {
name: "inception_3b/pool_proj"
type: "Convolution"
bottom: "inception_3b/pool"
top: "inception_3b/pool_proj"
param {
lr_mult: 1
decay_mult: 1
}
param {
lr_mult: 2
decay_mult: 0
}
convolution_param {
num_output: 64
kernel_size: 1
weight_filler {
type: "xavier"
std: 0.1
}
bias_filler {
type: "constant"
value: 0.2
}
}
}
layer {
name: "inception_3b/relu_pool_proj"
type: "ReLU"
bottom: "inception_3b/pool_proj"
top: "inception_3b/pool_proj"
}
layer {
name: "inception_3b/output"
type: "Concat"
bottom: "inception_3b/1x1"
bottom: "inception_3b/3x3"
bottom: "inception_3b/5x5"
bottom: "inception_3b/pool_proj"
top: "inception_3b/output"
}
layer {
name: "pool3/3x3_s2"
type: "Pooling"
bottom: "inception_3b/output"
top: "pool3/3x3_s2"
pooling_param {
pool: MAX
kernel_size: 3
stride: 2
}
}
layer {
name: "inception_4a/1x1"
type: "Convolution"
bottom: "pool3/3x3_s2"
top: "inception_4a/1x1"
param {
lr_mult: 1
decay_mult: 1
}
param {
lr_mult: 2
decay_mult: 0
}
convolution_param {
num_output: 192
kernel_size: 1
weight_filler {
type: "xavier"
std: 0.03
}
bias_filler {
type: "constant"
value: 0.2
}
}
}
layer {
name: "inception_4a/relu_1x1"
type: "ReLU"
bottom: "inception_4a/1x1"
top: "inception_4a/1x1"
}
layer {
name: "inception_4a/3x3_reduce"
type: "Convolution"
bottom: "pool3/3x3_s2"
top: "inception_4a/3x3_reduce"
param {
lr_mult: 1
decay_mult: 1
}
param {
lr_mult: 2
decay_mult: 0
}
convolution_param {
num_output: 96
kernel_size: 1
weight_filler {
type: "xavier"
std: 0.09
}
bias_filler {
type: "constant"
value: 0.2
}
}
}
layer {
name: "inception_4a/relu_3x3_reduce"
type: "ReLU"
bottom: "inception_4a/3x3_reduce"
top: "inception_4a/3x3_reduce"
}
layer {
name: "inception_4a/3x3"
type: "Convolution"
bottom: "inception_4a/3x3_reduce"
top: "inception_4a/3x3"
param {
lr_mult: 1
decay_mult: 1
}
param {
lr_mult: 2
decay_mult: 0
}
convolution_param {
num_output: 208
pad: 1
kernel_size: 3
weight_filler {
type: "xavier"
std: 0.03
}
bias_filler {
type: "constant"
value: 0.2
}
}
}
layer {
name: "inception_4a/relu_3x3"
type: "ReLU"
bottom: "inception_4a/3x3"
top: "inception_4a/3x3"
}
layer {
name: "inception_4a/5x5_reduce"
type: "Convolution"
bottom: "pool3/3x3_s2"
top: "inception_4a/5x5_reduce"
param {
lr_mult: 1
decay_mult: 1
}
param {
lr_mult: 2
decay_mult: 0
}
convolution_param {
num_output: 16
kernel_size: 1
weight_filler {
type: "xavier"
std: 0.2
}
bias_filler {
type: "constant"
value: 0.2
}
}
}
layer {
name: "inception_4a/relu_5x5_reduce"
type: "ReLU"
bottom: "inception_4a/5x5_reduce"
top: "inception_4a/5x5_reduce"
}
layer {
name: "inception_4a/5x5"
type: "Convolution"
bottom: "inception_4a/5x5_reduce"
top: "inception_4a/5x5"
param {
lr_mult: 1
decay_mult: 1
}
param {
lr_mult: 2
decay_mult: 0
}
convolution_param {
num_output: 48
pad: 2
kernel_size: 5
weight_filler {
type: "xavier"
std: 0.03
}
bias_filler {
type: "constant"
value: 0.2
}
}
}
layer {
name: "inception_4a/relu_5x5"
type: "ReLU"
bottom: "inception_4a/5x5"
top: "inception_4a/5x5"
}
layer {
name: "inception_4a/pool"
type: "Pooling"
bottom: "pool3/3x3_s2"
top: "inception_4a/pool"
pooling_param {
pool: MAX
kernel_size: 3
stride: 1
pad: 1
}
}
layer {
name: "inception_4a/pool_proj"
type: "Convolution"
bottom: "inception_4a/pool"
top: "inception_4a/pool_proj"
param {
lr_mult: 1
decay_mult: 1
}
param {
lr_mult: 2
decay_mult: 0
}
convolution_param {
num_output: 64
kernel_size: 1
weight_filler {
type: "xavier"
std: 0.1
}
bias_filler {
type: "constant"
value: 0.2
}
}
}
layer {
name: "inception_4a/relu_pool_proj"
type: "ReLU"
bottom: "inception_4a/pool_proj"
top: "inception_4a/pool_proj"
}
layer {
name: "inception_4a/output"
type: "Concat"
bottom: "inception_4a/1x1"
bottom: "inception_4a/3x3"
bottom: "inception_4a/5x5"
bottom: "inception_4a/pool_proj"
top: "inception_4a/output"
}
layer {
name: "loss1/ave_pool"
type: "Pooling"
bottom: "inception_4a/output"
top: "loss1/ave_pool"
pooling_param {
pool: AVE
kernel_size: 5
stride: 3
}
}
layer {
name: "loss1/conv"
type: "Convolution"
bottom: "loss1/ave_pool"
top: "loss1/conv"
param {
lr_mult: 1
decay_mult: 1
}
param {
lr_mult: 2
decay_mult: 0
}
convolution_param {
num_output: 128
kernel_size: 1
weight_filler {
type: "xavier"
std: 0.08
}
bias_filler {
type: "constant"
value: 0.2
}
}
}
layer {
name: "loss1/relu_conv"
type: "ReLU"
bottom: "loss1/conv"
top: "loss1/conv"
}
layer {
name: "loss1/fc"
type: "InnerProduct"
bottom: "loss1/conv"
top: "loss1/fc"
param {
lr_mult: 1
decay_mult: 1
}
param {
lr_mult: 2
decay_mult: 0
}
inner_product_param {
num_output: 1024
weight_filler {
type: "xavier"
std: 0.02
}
bias_filler {
type: "constant"
value: 0.2
}
}
}
layer {
name: "loss1/relu_fc"
type: "ReLU"
bottom: "loss1/fc"
top: "loss1/fc"
}
layer {
name: "loss1/drop_fc"
type: "Dropout"
bottom: "loss1/fc"
top: "loss1/fc"
dropout_param {
dropout_ratio: 0.7
}
}
layer {
name: "loss1/classifier"
type: "InnerProduct"
bottom: "loss1/fc"
top: "loss1/classifier"
param {
lr_mult: 1
decay_mult: 1
}
param {
lr_mult: 2
decay_mult: 0
}
inner_product_param {
num_output: 196
weight_filler {
type: "xavier"
std: 0.0009765625
}
bias_filler {
type: "constant"
value: 0
}
}
}
layer {
name: "loss1/loss"
type: "SoftmaxWithLoss"
bottom: "loss1/classifier"
bottom: "label"
top: "loss1/loss"
loss_weight: 0.3
}
layer {
name: "inception_4b/1x1"
type: "Convolution"
bottom: "inception_4a/output"
top: "inception_4b/1x1"
param {
lr_mult: 1
decay_mult: 1
}
param {
lr_mult: 2
decay_mult: 0
}
convolution_param {
num_output: 160
kernel_size: 1
weight_filler {
type: "xavier"
std: 0.03
}
bias_filler {
type: "constant"
value: 0.2
}
}
}
layer {
name: "inception_4b/relu_1x1"
type: "ReLU"
bottom: "inception_4b/1x1"
top: "inception_4b/1x1"
}
layer {
name: "inception_4b/3x3_reduce"
type: "Convolution"
bottom: "inception_4a/output"
top: "inception_4b/3x3_reduce"
param {
lr_mult: 1
decay_mult: 1
}
param {
lr_mult: 2
decay_mult: 0
}
convolution_param {
num_output: 112
kernel_size: 1
weight_filler {
type: "xavier"
std: 0.09
}
bias_filler {
type: "constant"
value: 0.2
}
}
}
layer {
name: "inception_4b/relu_3x3_reduce"
type: "ReLU"
bottom: "inception_4b/3x3_reduce"
top: "inception_4b/3x3_reduce"
}
layer {
name: "inception_4b/3x3"
type: "Convolution"
bottom: "inception_4b/3x3_reduce"
top: "inception_4b/3x3"
param {
lr_mult: 1
decay_mult: 1
}
param {
lr_mult: 2
decay_mult: 0
}
convolution_param {
num_output: 224
pad: 1
kernel_size: 3
weight_filler {
type: "xavier"
std: 0.03
}
bias_filler {
type: "constant"
value: 0.2
}
}
}
layer {
name: "inception_4b/relu_3x3"
type: "ReLU"
bottom: "inception_4b/3x3"
top: "inception_4b/3x3"
}
layer {
name: "inception_4b/5x5_reduce"
type: "Convolution"
bottom: "inception_4a/output"
top: "inception_4b/5x5_reduce"
param {
lr_mult: 1
decay_mult: 1
}
param {
lr_mult: 2
decay_mult: 0
}
convolution_param {
num_output: 24
kernel_size: 1
weight_filler {
type: "xavier"
std: 0.2
}
bias_filler {
type: "constant"
value: 0.2
}
}
}
layer {
name: "inception_4b/relu_5x5_reduce"
type: "ReLU"
bottom: "inception_4b/5x5_reduce"
top: "inception_4b/5x5_reduce"
}
layer {
name: "inception_4b/5x5"
type: "Convolution"
bottom: "inception_4b/5x5_reduce"
top: "inception_4b/5x5"
param {
lr_mult: 1
decay_mult: 1
}
param {
lr_mult: 2
decay_mult: 0
}
convolution_param {
num_output: 64
pad: 2
kernel_size: 5
weight_filler {
type: "xavier"
std: 0.03
}
bias_filler {
type: "constant"
value: 0.2
}
}
}
layer {
name: "inception_4b/relu_5x5"
type: "ReLU"
bottom: "inception_4b/5x5"
top: "inception_4b/5x5"
}
layer {
name: "inception_4b/pool"
type: "Pooling"
bottom: "inception_4a/output"
top: "inception_4b/pool"
pooling_param {
pool: MAX
kernel_size: 3
stride: 1
pad: 1
}
}
layer {
name: "inception_4b/pool_proj"
type: "Convolution"
bottom: "inception_4b/pool"
top: "inception_4b/pool_proj"
param {
lr_mult: 1
decay_mult: 1
}
param {
lr_mult: 2
decay_mult: 0
}
convolution_param {
num_output: 64
kernel_size: 1
weight_filler {
type: "xavier"
std: 0.1
}
bias_filler {
type: "constant"
value: 0.2
}
}
}
layer {
name: "inception_4b/relu_pool_proj"
type: "ReLU"
bottom: "inception_4b/pool_proj"
top: "inception_4b/pool_proj"
}
layer {
name: "inception_4b/output"
type: "Concat"
bottom: "inception_4b/1x1"
bottom: "inception_4b/3x3"
bottom: "inception_4b/5x5"
bottom: "inception_4b/pool_proj"
top: "inception_4b/output"
}
layer {
name: "inception_4c/1x1"
type: "Convolution"
bottom: "inception_4b/output"
top: "inception_4c/1x1"
param {
lr_mult: 1
decay_mult: 1
}
param {
lr_mult: 2
decay_mult: 0
}
convolution_param {
num_output: 128
kernel_size: 1
weight_filler {
type: "xavier"
std: 0.03
}
bias_filler {
type: "constant"
value: 0.2
}
}
}
layer {
name: "inception_4c/relu_1x1"
type: "ReLU"
bottom: "inception_4c/1x1"
top: "inception_4c/1x1"
}
layer {
name: "inception_4c/3x3_reduce"
type: "Convolution"
bottom: "inception_4b/output"
top: "inception_4c/3x3_reduce"
param {
lr_mult: 1
decay_mult: 1
}
param {
lr_mult: 2
decay_mult: 0
}
convolution_param {
num_output: 128
kernel_size: 1
weight_filler {
type: "xavier"
std: 0.09
}
bias_filler {
type: "constant"
value: 0.2
}
}
}
layer {
name: "inception_4c/relu_3x3_reduce"
type: "ReLU"
bottom: "inception_4c/3x3_reduce"
top: "inception_4c/3x3_reduce"
}
layer {
name: "inception_4c/3x3"
type: "Convolution"
bottom: "inception_4c/3x3_reduce"
top: "inception_4c/3x3"
param {
lr_mult: 1
decay_mult: 1
}
param {
lr_mult: 2
decay_mult: 0
}
convolution_param {
num_output: 256
pad: 1
kernel_size: 3
weight_filler {
type: "xavier"
std: 0.03
}
bias_filler {
type: "constant"
value: 0.2
}
}
}
layer {
name: "inception_4c/relu_3x3"
type: "ReLU"
bottom: "inception_4c/3x3"
top: "inception_4c/3x3"
}
layer {
name: "inception_4c/5x5_reduce"
type: "Convolution"
bottom: "inception_4b/output"
top: "inception_4c/5x5_reduce"
param {
lr_mult: 1
decay_mult: 1
}
param {
lr_mult: 2
decay_mult: 0
}
convolution_param {
num_output: 24
kernel_size: 1
weight_filler {
type: "xavier"
std: 0.2
}
bias_filler {
type: "constant"
value: 0.2
}
}
}
layer {
name: "inception_4c/relu_5x5_reduce"
type: "ReLU"
bottom: "inception_4c/5x5_reduce"
top: "inception_4c/5x5_reduce"
}
layer {
name: "inception_4c/5x5"
type: "Convolution"
bottom: "inception_4c/5x5_reduce"
top: "inception_4c/5x5"
param {
lr_mult: 1
decay_mult: 1
}
param {
lr_mult: 2
decay_mult: 0
}
convolution_param {
num_output: 64
pad: 2
kernel_size: 5
weight_filler {
type: "xavier"
std: 0.03
}
bias_filler {
type: "constant"
value: 0.2
}
}
}
layer {
name: "inception_4c/relu_5x5"
type: "ReLU"
bottom: "inception_4c/5x5"
top: "inception_4c/5x5"
}
layer {
name: "inception_4c/pool"
type: "Pooling"
bottom: "inception_4b/output"
top: "inception_4c/pool"
pooling_param {
pool: MAX
kernel_size: 3
stride: 1
pad: 1
}
}
layer {
name: "inception_4c/pool_proj"
type: "Convolution"
bottom: "inception_4c/pool"
top: "inception_4c/pool_proj"
param {
lr_mult: 1
decay_mult: 1
}
param {
lr_mult: 2
decay_mult: 0
}
convolution_param {
num_output: 64
kernel_size: 1
weight_filler {
type: "xavier"
std: 0.1
}
bias_filler {
type: "constant"
value: 0.2
}
}
}
layer {
name: "inception_4c/relu_pool_proj"
type: "ReLU"
bottom: "inception_4c/pool_proj"
top: "inception_4c/pool_proj"
}
layer {
name: "inception_4c/output"
type: "Concat"
bottom: "inception_4c/1x1"
bottom: "inception_4c/3x3"
bottom: "inception_4c/5x5"
bottom: "inception_4c/pool_proj"
top: "inception_4c/output"
}
layer {
name: "inception_4d/1x1"
type: "Convolution"
bottom: "inception_4c/output"
top: "inception_4d/1x1"
param {
lr_mult: 1
decay_mult: 1
}
param {
lr_mult: 2
decay_mult: 0
}
convolution_param {
num_output: 112
kernel_size: 1
weight_filler {
type: "xavier"
std: 0.03
}
bias_filler {
type: "constant"
value: 0.2
}
}
}
layer {
name: "inception_4d/relu_1x1"
type: "ReLU"
bottom: "inception_4d/1x1"
top: "inception_4d/1x1"
}
layer {
name: "inception_4d/3x3_reduce"
type: "Convolution"
bottom: "inception_4c/output"
top: "inception_4d/3x3_reduce"
param {
lr_mult: 1
decay_mult: 1
}
param {
lr_mult: 2
decay_mult: 0
}
convolution_param {
num_output: 144
kernel_size: 1
weight_filler {
type: "xavier"
std: 0.09
}
bias_filler {
type: "constant"
value: 0.2
}
}
}
layer {
name: "inception_4d/relu_3x3_reduce"
type: "ReLU"
bottom: "inception_4d/3x3_reduce"
top: "inception_4d/3x3_reduce"
}
layer {
name: "inception_4d/3x3"
type: "Convolution"
bottom: "inception_4d/3x3_reduce"
top: "inception_4d/3x3"
param {
lr_mult: 1
decay_mult: 1
}
param {
lr_mult: 2
decay_mult: 0
}
convolution_param {
num_output: 288
pad: 1
kernel_size: 3
weight_filler {
type: "xavier"
std: 0.03
}
bias_filler {
type: "constant"
value: 0.2
}
}
}
layer {
name: "inception_4d/relu_3x3"
type: "ReLU"
bottom: "inception_4d/3x3"
top: "inception_4d/3x3"
}
layer {
name: "inception_4d/5x5_reduce"
type: "Convolution"
bottom: "inception_4c/output"
top: "inception_4d/5x5_reduce"
param {
lr_mult: 1
decay_mult: 1
}
param {
lr_mult: 2
decay_mult: 0
}
convolution_param {
num_output: 32
kernel_size: 1
weight_filler {
type: "xavier"
std: 0.2
}
bias_filler {
type: "constant"
value: 0.2
}
}
}
layer {
name: "inception_4d/relu_5x5_reduce"
type: "ReLU"
bottom: "inception_4d/5x5_reduce"
top: "inception_4d/5x5_reduce"
}
layer {
name: "inception_4d/5x5"
type: "Convolution"
bottom: "inception_4d/5x5_reduce"
top: "inception_4d/5x5"
param {
lr_mult: 1
decay_mult: 1
}
param {
lr_mult: 2
decay_mult: 0
}
convolution_param {
num_output: 64
pad: 2
kernel_size: 5
weight_filler {
type: "xavier"
std: 0.03
}
bias_filler {
type: "constant"
value: 0.2
}
}
}
layer {
name: "inception_4d/relu_5x5"
type: "ReLU"
bottom: "inception_4d/5x5"
top: "inception_4d/5x5"
}
layer {
name: "inception_4d/pool"
type: "Pooling"
bottom: "inception_4c/output"
top: "inception_4d/pool"
pooling_param {
pool: MAX
kernel_size: 3
stride: 1
pad: 1
}
}
layer {
name: "inception_4d/pool_proj"
type: "Convolution"
bottom: "inception_4d/pool"
top: "inception_4d/pool_proj"
param {
lr_mult: 1
decay_mult: 1
}
param {
lr_mult: 2
decay_mult: 0
}
convolution_param {
num_output: 64
kernel_size: 1
weight_filler {
type: "xavier"
std: 0.1
}
bias_filler {
type: "constant"
value: 0.2
}
}
}
layer {
name: "inception_4d/relu_pool_proj"
type: "ReLU"
bottom: "inception_4d/pool_proj"
top: "inception_4d/pool_proj"
}
layer {
name: "inception_4d/output"
type: "Concat"
bottom: "inception_4d/1x1"
bottom: "inception_4d/3x3"
bottom: "inception_4d/5x5"
bottom: "inception_4d/pool_proj"
top: "inception_4d/output"
}
layer {
name: "loss2/ave_pool"
type: "Pooling"
bottom: "inception_4d/output"
top: "loss2/ave_pool"
pooling_param {
pool: AVE
kernel_size: 5
stride: 3
}
}
layer {
name: "loss2/conv"
type: "Convolution"
bottom: "loss2/ave_pool"
top: "loss2/conv"
param {
lr_mult: 1
decay_mult: 1
}
param {
lr_mult: 2
decay_mult: 0
}
convolution_param {
num_output: 128
kernel_size: 1
weight_filler {
type: "xavier"
std: 0.08
}
bias_filler {
type: "constant"
value: 0.2
}
}
}
layer {
name: "loss2/relu_conv"
type: "ReLU"
bottom: "loss2/conv"
top: "loss2/conv"
}
layer {
name: "loss2/fc"
type: "InnerProduct"
bottom: "loss2/conv"
top: "loss2/fc"
param {
lr_mult: 1
decay_mult: 1
}
param {
lr_mult: 2
decay_mult: 0
}
inner_product_param {
num_output: 1024
weight_filler {
type: "xavier"
std: 0.02
}
bias_filler {
type: "constant"
value: 0.2
}
}
}
layer {
name: "loss2/relu_fc"
type: "ReLU"
bottom: "loss2/fc"
top: "loss2/fc"
}
layer {
name: "loss2/drop_fc"
type: "Dropout"
bottom: "loss2/fc"
top: "loss2/fc"
dropout_param {
dropout_ratio: 0.7
}
}
layer {
name: "loss2/classifier"
type: "InnerProduct"
bottom: "loss2/fc"
top: "loss2/classifier"
param {
lr_mult: 1
decay_mult: 1
}
param {
lr_mult: 2
decay_mult: 0
}
inner_product_param {
num_output: 196
weight_filler {
type: "xavier"
std: 0.0009765625
}
bias_filler {
type: "constant"
value: 0
}
}
}
layer {
name: "loss2/loss"
type: "SoftmaxWithLoss"
bottom: "loss2/classifier"
bottom: "label"
top: "loss2/loss"
loss_weight: 0.3
}
layer {
name: "inception_4e/1x1"
type: "Convolution"
bottom: "inception_4d/output"
top: "inception_4e/1x1"
param {
lr_mult: 1
decay_mult: 1
}
param {
lr_mult: 2
decay_mult: 0
}
convolution_param {
num_output: 256
kernel_size: 1
weight_filler {
type: "xavier"
std: 0.03
}
bias_filler {
type: "constant"
value: 0.2
}
}
}
layer {
name: "inception_4e/relu_1x1"
type: "ReLU"
bottom: "inception_4e/1x1"
top: "inception_4e/1x1"
}
layer {
name: "inception_4e/3x3_reduce"
type: "Convolution"
bottom: "inception_4d/output"
top: "inception_4e/3x3_reduce"
param {
lr_mult: 1
decay_mult: 1
}
param {
lr_mult: 2
decay_mult: 0
}
convolution_param {
num_output: 160
kernel_size: 1
weight_filler {
type: "xavier"
std: 0.09
}
bias_filler {
type: "constant"
value: 0.2
}
}
}
layer {
name: "inception_4e/relu_3x3_reduce"
type: "ReLU"
bottom: "inception_4e/3x3_reduce"
top: "inception_4e/3x3_reduce"
}
layer {
name: "inception_4e/3x3"
type: "Convolution"
bottom: "inception_4e/3x3_reduce"
top: "inception_4e/3x3"
param {
lr_mult: 1
decay_mult: 1
}
param {
lr_mult: 2
decay_mult: 0
}
convolution_param {
num_output: 320
pad: 1
kernel_size: 3
weight_filler {
type: "xavier"
std: 0.03
}
bias_filler {
type: "constant"
value: 0.2
}
}
}
layer {
name: "inception_4e/relu_3x3"
type: "ReLU"
bottom: "inception_4e/3x3"
top: "inception_4e/3x3"
}
layer {
name: "inception_4e/5x5_reduce"
type: "Convolution"
bottom: "inception_4d/output"
top: "inception_4e/5x5_reduce"
param {
lr_mult: 1
decay_mult: 1
}
param {
lr_mult: 2
decay_mult: 0
}
convolution_param {
num_output: 32
kernel_size: 1
weight_filler {
type: "xavier"
std: 0.2
}
bias_filler {
type: "constant"
val
I0505 13:14:49.366238 19153 layer_factory.hpp:77] Creating layer train-data
I0505 13:14:49.411770 19153 db_lmdb.cpp:35] Opened lmdb /mnt/bigdisk/MANDIG2/digits/jobs/20200428-132136-11fe/train_db
I0505 13:14:49.453366 19153 net.cpp:84] Creating Layer train-data
I0505 13:14:49.453392 19153 net.cpp:380] train-data -> data
I0505 13:14:49.453421 19153 net.cpp:380] train-data -> label
I0505 13:14:49.453442 19153 data_transformer.cpp:25] Loading mean file from: /mnt/bigdisk/MANDIG2/digits/jobs/20200428-132136-11fe/mean.binaryproto
I0505 13:14:49.461068 19153 data_layer.cpp:45] output data size: 32,3,224,224
I0505 13:14:49.509143 19153 net.cpp:122] Setting up train-data
I0505 13:14:49.509171 19153 net.cpp:129] Top shape: 32 3 224 224 (4816896)
I0505 13:14:49.509179 19153 net.cpp:129] Top shape: 32 (32)
I0505 13:14:49.509183 19153 net.cpp:137] Memory required for data: 19267712
I0505 13:14:49.509196 19153 layer_factory.hpp:77] Creating layer label_train-data_1_split
I0505 13:14:49.509238 19153 net.cpp:84] Creating Layer label_train-data_1_split
I0505 13:14:49.509248 19153 net.cpp:406] label_train-data_1_split <- label
I0505 13:14:49.509265 19153 net.cpp:380] label_train-data_1_split -> label_train-data_1_split_0
I0505 13:14:49.509279 19153 net.cpp:380] label_train-data_1_split -> label_train-data_1_split_1
I0505 13:14:49.509289 19153 net.cpp:380] label_train-data_1_split -> label_train-data_1_split_2
I0505 13:14:49.509351 19153 net.cpp:122] Setting up label_train-data_1_split
I0505 13:14:49.509358 19153 net.cpp:129] Top shape: 32 (32)
I0505 13:14:49.509364 19153 net.cpp:129] Top shape: 32 (32)
I0505 13:14:49.509371 19153 net.cpp:129] Top shape: 32 (32)
I0505 13:14:49.509375 19153 net.cpp:137] Memory required for data: 19268096
I0505 13:14:49.509380 19153 layer_factory.hpp:77] Creating layer conv1/7x7_s2
I0505 13:14:49.509402 19153 net.cpp:84] Creating Layer conv1/7x7_s2
I0505 13:14:49.509407 19153 net.cpp:406] conv1/7x7_s2 <- data
I0505 13:14:49.509416 19153 net.cpp:380] conv1/7x7_s2 -> conv1/7x7_s2
I0505 13:14:50.753628 19153 net.cpp:122] Setting up conv1/7x7_s2
I0505 13:14:50.753648 19153 net.cpp:129] Top shape: 32 64 112 112 (25690112)
I0505 13:14:50.753652 19153 net.cpp:137] Memory required for data: 122028544
I0505 13:14:50.753674 19153 layer_factory.hpp:77] Creating layer conv1/relu_7x7
I0505 13:14:50.753684 19153 net.cpp:84] Creating Layer conv1/relu_7x7
I0505 13:14:50.753688 19153 net.cpp:406] conv1/relu_7x7 <- conv1/7x7_s2
I0505 13:14:50.753695 19153 net.cpp:367] conv1/relu_7x7 -> conv1/7x7_s2 (in-place)
I0505 13:14:50.753970 19153 net.cpp:122] Setting up conv1/relu_7x7
I0505 13:14:50.753978 19153 net.cpp:129] Top shape: 32 64 112 112 (25690112)
I0505 13:14:50.753983 19153 net.cpp:137] Memory required for data: 224788992
I0505 13:14:50.753986 19153 layer_factory.hpp:77] Creating layer pool1/3x3_s2
I0505 13:14:50.753995 19153 net.cpp:84] Creating Layer pool1/3x3_s2
I0505 13:14:50.753999 19153 net.cpp:406] pool1/3x3_s2 <- conv1/7x7_s2
I0505 13:14:50.754004 19153 net.cpp:380] pool1/3x3_s2 -> pool1/3x3_s2
I0505 13:14:50.754045 19153 net.cpp:122] Setting up pool1/3x3_s2
I0505 13:14:50.754051 19153 net.cpp:129] Top shape: 32 64 56 56 (6422528)
I0505 13:14:50.754055 19153 net.cpp:137] Memory required for data: 250479104
I0505 13:14:50.754058 19153 layer_factory.hpp:77] Creating layer pool1/norm1
I0505 13:14:50.754066 19153 net.cpp:84] Creating Layer pool1/norm1
I0505 13:14:50.754070 19153 net.cpp:406] pool1/norm1 <- pool1/3x3_s2
I0505 13:14:50.754076 19153 net.cpp:380] pool1/norm1 -> pool1/norm1
I0505 13:14:50.756973 19153 net.cpp:122] Setting up pool1/norm1
I0505 13:14:50.756989 19153 net.cpp:129] Top shape: 32 64 56 56 (6422528)
I0505 13:14:50.756992 19153 net.cpp:137] Memory required for data: 276169216
I0505 13:14:50.756997 19153 layer_factory.hpp:77] Creating layer conv2/3x3_reduce
I0505 13:14:50.757010 19153 net.cpp:84] Creating Layer conv2/3x3_reduce
I0505 13:14:50.757015 19153 net.cpp:406] conv2/3x3_reduce <- pool1/norm1
I0505 13:14:50.757022 19153 net.cpp:380] conv2/3x3_reduce -> conv2/3x3_reduce
I0505 13:14:50.764467 19153 net.cpp:122] Setting up conv2/3x3_reduce
I0505 13:14:50.764487 19153 net.cpp:129] Top shape: 32 64 56 56 (6422528)
I0505 13:14:50.764492 19153 net.cpp:137] Memory required for data: 301859328
I0505 13:14:50.764504 19153 layer_factory.hpp:77] Creating layer conv2/relu_3x3_reduce
I0505 13:14:50.764515 19153 net.cpp:84] Creating Layer conv2/relu_3x3_reduce
I0505 13:14:50.764519 19153 net.cpp:406] conv2/relu_3x3_reduce <- conv2/3x3_reduce
I0505 13:14:50.764526 19153 net.cpp:367] conv2/relu_3x3_reduce -> conv2/3x3_reduce (in-place)
I0505 13:14:50.764814 19153 net.cpp:122] Setting up conv2/relu_3x3_reduce
I0505 13:14:50.764823 19153 net.cpp:129] Top shape: 32 64 56 56 (6422528)
I0505 13:14:50.764827 19153 net.cpp:137] Memory required for data: 327549440
I0505 13:14:50.764832 19153 layer_factory.hpp:77] Creating layer conv2/3x3
I0505 13:14:50.764844 19153 net.cpp:84] Creating Layer conv2/3x3
I0505 13:14:50.764848 19153 net.cpp:406] conv2/3x3 <- conv2/3x3_reduce
I0505 13:14:50.764875 19153 net.cpp:380] conv2/3x3 -> conv2/3x3
I0505 13:14:50.769441 19153 net.cpp:122] Setting up conv2/3x3
I0505 13:14:50.769460 19153 net.cpp:129] Top shape: 32 192 56 56 (19267584)
I0505 13:14:50.769464 19153 net.cpp:137] Memory required for data: 404619776
I0505 13:14:50.769479 19153 layer_factory.hpp:77] Creating layer conv2/relu_3x3
I0505 13:14:50.769486 19153 net.cpp:84] Creating Layer conv2/relu_3x3
I0505 13:14:50.769492 19153 net.cpp:406] conv2/relu_3x3 <- conv2/3x3
I0505 13:14:50.769497 19153 net.cpp:367] conv2/relu_3x3 -> conv2/3x3 (in-place)
I0505 13:14:50.769771 19153 net.cpp:122] Setting up conv2/relu_3x3
I0505 13:14:50.769780 19153 net.cpp:129] Top shape: 32 192 56 56 (19267584)
I0505 13:14:50.769783 19153 net.cpp:137] Memory required for data: 481690112
I0505 13:14:50.769788 19153 layer_factory.hpp:77] Creating layer conv2/norm2
I0505 13:14:50.769795 19153 net.cpp:84] Creating Layer conv2/norm2
I0505 13:14:50.769799 19153 net.cpp:406] conv2/norm2 <- conv2/3x3
I0505 13:14:50.769805 19153 net.cpp:380] conv2/norm2 -> conv2/norm2
I0505 13:14:50.770273 19153 net.cpp:122] Setting up conv2/norm2
I0505 13:14:50.770284 19153 net.cpp:129] Top shape: 32 192 56 56 (19267584)
I0505 13:14:50.770288 19153 net.cpp:137] Memory required for data: 558760448
I0505 13:14:50.770292 19153 layer_factory.hpp:77] Creating layer pool2/3x3_s2
I0505 13:14:50.770300 19153 net.cpp:84] Creating Layer pool2/3x3_s2
I0505 13:14:50.770304 19153 net.cpp:406] pool2/3x3_s2 <- conv2/norm2
I0505 13:14:50.770309 19153 net.cpp:380] pool2/3x3_s2 -> pool2/3x3_s2
I0505 13:14:50.770337 19153 net.cpp:122] Setting up pool2/3x3_s2
I0505 13:14:50.770344 19153 net.cpp:129] Top shape: 32 192 28 28 (4816896)
I0505 13:14:50.770349 19153 net.cpp:137] Memory required for data: 578028032
I0505 13:14:50.770351 19153 layer_factory.hpp:77] Creating layer pool2/3x3_s2_pool2/3x3_s2_0_split
I0505 13:14:50.770357 19153 net.cpp:84] Creating Layer pool2/3x3_s2_pool2/3x3_s2_0_split
I0505 13:14:50.770361 19153 net.cpp:406] pool2/3x3_s2_pool2/3x3_s2_0_split <- pool2/3x3_s2
I0505 13:14:50.770367 19153 net.cpp:380] pool2/3x3_s2_pool2/3x3_s2_0_split -> pool2/3x3_s2_pool2/3x3_s2_0_split_0
I0505 13:14:50.770372 19153 net.cpp:380] pool2/3x3_s2_pool2/3x3_s2_0_split -> pool2/3x3_s2_pool2/3x3_s2_0_split_1
I0505 13:14:50.770378 19153 net.cpp:380] pool2/3x3_s2_pool2/3x3_s2_0_split -> pool2/3x3_s2_pool2/3x3_s2_0_split_2
I0505 13:14:50.770383 19153 net.cpp:380] pool2/3x3_s2_pool2/3x3_s2_0_split -> pool2/3x3_s2_pool2/3x3_s2_0_split_3
I0505 13:14:50.770423 19153 net.cpp:122] Setting up pool2/3x3_s2_pool2/3x3_s2_0_split
I0505 13:14:50.770429 19153 net.cpp:129] Top shape: 32 192 28 28 (4816896)
I0505 13:14:50.770433 19153 net.cpp:129] Top shape: 32 192 28 28 (4816896)
I0505 13:14:50.770437 19153 net.cpp:129] Top shape: 32 192 28 28 (4816896)
I0505 13:14:50.770442 19153 net.cpp:129] Top shape: 32 192 28 28 (4816896)
I0505 13:14:50.770444 19153 net.cpp:137] Memory required for data: 655098368
I0505 13:14:50.770447 19153 layer_factory.hpp:77] Creating layer inception_3a/1x1
I0505 13:14:50.770457 19153 net.cpp:84] Creating Layer inception_3a/1x1
I0505 13:14:50.770462 19153 net.cpp:406] inception_3a/1x1 <- pool2/3x3_s2_pool2/3x3_s2_0_split_0
I0505 13:14:50.770467 19153 net.cpp:380] inception_3a/1x1 -> inception_3a/1x1
I0505 13:14:50.772037 19153 net.cpp:122] Setting up inception_3a/1x1
I0505 13:14:50.772048 19153 net.cpp:129] Top shape: 32 64 28 28 (1605632)
I0505 13:14:50.772053 19153 net.cpp:137] Memory required for data: 661520896
I0505 13:14:50.772059 19153 layer_factory.hpp:77] Creating layer inception_3a/relu_1x1
I0505 13:14:50.772065 19153 net.cpp:84] Creating Layer inception_3a/relu_1x1
I0505 13:14:50.772069 19153 net.cpp:406] inception_3a/relu_1x1 <- inception_3a/1x1
I0505 13:14:50.772075 19153 net.cpp:367] inception_3a/relu_1x1 -> inception_3a/1x1 (in-place)
I0505 13:14:50.772428 19153 net.cpp:122] Setting up inception_3a/relu_1x1
I0505 13:14:50.772440 19153 net.cpp:129] Top shape: 32 64 28 28 (1605632)
I0505 13:14:50.772446 19153 net.cpp:137] Memory required for data: 667943424
I0505 13:14:50.772480 19153 layer_factory.hpp:77] Creating layer inception_3a/3x3_reduce
I0505 13:14:50.772495 19153 net.cpp:84] Creating Layer inception_3a/3x3_reduce
I0505 13:14:50.772500 19153 net.cpp:406] inception_3a/3x3_reduce <- pool2/3x3_s2_pool2/3x3_s2_0_split_1
I0505 13:14:50.772505 19153 net.cpp:380] inception_3a/3x3_reduce -> inception_3a/3x3_reduce
I0505 13:14:50.776039 19153 net.cpp:122] Setting up inception_3a/3x3_reduce
I0505 13:14:50.776055 19153 net.cpp:129] Top shape: 32 96 28 28 (2408448)
I0505 13:14:50.776058 19153 net.cpp:137] Memory required for data: 677577216
I0505 13:14:50.776070 19153 layer_factory.hpp:77] Creating layer inception_3a/relu_3x3_reduce
I0505 13:14:50.776087 19153 net.cpp:84] Creating Layer inception_3a/relu_3x3_reduce
I0505 13:14:50.776093 19153 net.cpp:406] inception_3a/relu_3x3_reduce <- inception_3a/3x3_reduce
I0505 13:14:50.776103 19153 net.cpp:367] inception_3a/relu_3x3_reduce -> inception_3a/3x3_reduce (in-place)
I0505 13:14:50.776787 19153 net.cpp:122] Setting up inception_3a/relu_3x3_reduce
I0505 13:14:50.776800 19153 net.cpp:129] Top shape: 32 96 28 28 (2408448)
I0505 13:14:50.776806 19153 net.cpp:137] Memory required for data: 687211008
I0505 13:14:50.776810 19153 layer_factory.hpp:77] Creating layer inception_3a/3x3
I0505 13:14:50.776823 19153 net.cpp:84] Creating Layer inception_3a/3x3
I0505 13:14:50.776829 19153 net.cpp:406] inception_3a/3x3 <- inception_3a/3x3_reduce
I0505 13:14:50.776834 19153 net.cpp:380] inception_3a/3x3 -> inception_3a/3x3
I0505 13:14:50.779762 19153 net.cpp:122] Setting up inception_3a/3x3
I0505 13:14:50.779774 19153 net.cpp:129] Top shape: 32 128 28 28 (3211264)
I0505 13:14:50.779778 19153 net.cpp:137] Memory required for data: 700056064
I0505 13:14:50.779785 19153 layer_factory.hpp:77] Creating layer inception_3a/relu_3x3
I0505 13:14:50.779794 19153 net.cpp:84] Creating Layer inception_3a/relu_3x3
I0505 13:14:50.779798 19153 net.cpp:406] inception_3a/relu_3x3 <- inception_3a/3x3
I0505 13:14:50.779804 19153 net.cpp:367] inception_3a/relu_3x3 -> inception_3a/3x3 (in-place)
I0505 13:14:50.780375 19153 net.cpp:122] Setting up inception_3a/relu_3x3
I0505 13:14:50.780390 19153 net.cpp:129] Top shape: 32 128 28 28 (3211264)
I0505 13:14:50.780397 19153 net.cpp:137] Memory required for data: 712901120
I0505 13:14:50.780405 19153 layer_factory.hpp:77] Creating layer inception_3a/5x5_reduce
I0505 13:14:50.780421 19153 net.cpp:84] Creating Layer inception_3a/5x5_reduce
I0505 13:14:50.780428 19153 net.cpp:406] inception_3a/5x5_reduce <- pool2/3x3_s2_pool2/3x3_s2_0_split_2
I0505 13:14:50.780439 19153 net.cpp:380] inception_3a/5x5_reduce -> inception_3a/5x5_reduce
I0505 13:14:50.782282 19153 net.cpp:122] Setting up inception_3a/5x5_reduce
I0505 13:14:50.782294 19153 net.cpp:129] Top shape: 32 16 28 28 (401408)
I0505 13:14:50.782299 19153 net.cpp:137] Memory required for data: 714506752
I0505 13:14:50.782306 19153 layer_factory.hpp:77] Creating layer inception_3a/relu_5x5_reduce
I0505 13:14:50.782313 19153 net.cpp:84] Creating Layer inception_3a/relu_5x5_reduce
I0505 13:14:50.782318 19153 net.cpp:406] inception_3a/relu_5x5_reduce <- inception_3a/5x5_reduce
I0505 13:14:50.782326 19153 net.cpp:367] inception_3a/relu_5x5_reduce -> inception_3a/5x5_reduce (in-place)
I0505 13:14:50.784344 19153 net.cpp:122] Setting up inception_3a/relu_5x5_reduce
I0505 13:14:50.784358 19153 net.cpp:129] Top shape: 32 16 28 28 (401408)
I0505 13:14:50.784363 19153 net.cpp:137] Memory required for data: 716112384
I0505 13:14:50.784369 19153 layer_factory.hpp:77] Creating layer inception_3a/5x5
I0505 13:14:50.784384 19153 net.cpp:84] Creating Layer inception_3a/5x5
I0505 13:14:50.784389 19153 net.cpp:406] inception_3a/5x5 <- inception_3a/5x5_reduce
I0505 13:14:50.784400 19153 net.cpp:380] inception_3a/5x5 -> inception_3a/5x5
I0505 13:14:50.788005 19153 net.cpp:122] Setting up inception_3a/5x5
I0505 13:14:50.788019 19153 net.cpp:129] Top shape: 32 32 28 28 (802816)
I0505 13:14:50.788024 19153 net.cpp:137] Memory required for data: 719323648
I0505 13:14:50.788058 19153 layer_factory.hpp:77] Creating layer inception_3a/relu_5x5
I0505 13:14:50.788067 19153 net.cpp:84] Creating Layer inception_3a/relu_5x5
I0505 13:14:50.788075 19153 net.cpp:406] inception_3a/relu_5x5 <- inception_3a/5x5
I0505 13:14:50.788084 19153 net.cpp:367] inception_3a/relu_5x5 -> inception_3a/5x5 (in-place)
I0505 13:14:50.790026 19153 net.cpp:122] Setting up inception_3a/relu_5x5
I0505 13:14:50.790038 19153 net.cpp:129] Top shape: 32 32 28 28 (802816)
I0505 13:14:50.790042 19153 net.cpp:137] Memory required for data: 722534912
I0505 13:14:50.790046 19153 layer_factory.hpp:77] Creating layer inception_3a/pool
I0505 13:14:50.790055 19153 net.cpp:84] Creating Layer inception_3a/pool
I0505 13:14:50.790060 19153 net.cpp:406] inception_3a/pool <- pool2/3x3_s2_pool2/3x3_s2_0_split_3
I0505 13:14:50.790067 19153 net.cpp:380] inception_3a/pool -> inception_3a/pool
I0505 13:14:50.790108 19153 net.cpp:122] Setting up inception_3a/pool
I0505 13:14:50.790115 19153 net.cpp:129] Top shape: 32 192 28 28 (4816896)
I0505 13:14:50.790119 19153 net.cpp:137] Memory required for data: 741802496
I0505 13:14:50.790123 19153 layer_factory.hpp:77] Creating layer inception_3a/pool_proj
I0505 13:14:50.790135 19153 net.cpp:84] Creating Layer inception_3a/pool_proj
I0505 13:14:50.790140 19153 net.cpp:406] inception_3a/pool_proj <- inception_3a/pool
I0505 13:14:50.790148 19153 net.cpp:380] inception_3a/pool_proj -> inception_3a/pool_proj
I0505 13:14:50.792145 19153 net.cpp:122] Setting up inception_3a/pool_proj
I0505 13:14:50.792158 19153 net.cpp:129] Top shape: 32 32 28 28 (802816)
I0505 13:14:50.792163 19153 net.cpp:137] Memory required for data: 745013760
I0505 13:14:50.792177 19153 layer_factory.hpp:77] Creating layer inception_3a/relu_pool_proj
I0505 13:14:50.792188 19153 net.cpp:84] Creating Layer inception_3a/relu_pool_proj
I0505 13:14:50.792196 19153 net.cpp:406] inception_3a/relu_pool_proj <- inception_3a/pool_proj
I0505 13:14:50.792207 19153 net.cpp:367] inception_3a/relu_pool_proj -> inception_3a/pool_proj (in-place)
I0505 13:14:50.792652 19153 net.cpp:122] Setting up inception_3a/relu_pool_proj
I0505 13:14:50.792663 19153 net.cpp:129] Top shape: 32 32 28 28 (802816)
I0505 13:14:50.792668 19153 net.cpp:137] Memory required for data: 748225024
I0505 13:14:50.792673 19153 layer_factory.hpp:77] Creating layer inception_3a/output
I0505 13:14:50.792682 19153 net.cpp:84] Creating Layer inception_3a/output
I0505 13:14:50.792687 19153 net.cpp:406] inception_3a/output <- inception_3a/1x1
I0505 13:14:50.792693 19153 net.cpp:406] inception_3a/output <- inception_3a/3x3
I0505 13:14:50.792698 19153 net.cpp:406] inception_3a/output <- inception_3a/5x5
I0505 13:14:50.792703 19153 net.cpp:406] inception_3a/output <- inception_3a/pool_proj
I0505 13:14:50.792708 19153 net.cpp:380] inception_3a/output -> inception_3a/output
I0505 13:14:50.792737 19153 net.cpp:122] Setting up inception_3a/output
I0505 13:14:50.792742 19153 net.cpp:129] Top shape: 32 256 28 28 (6422528)
I0505 13:14:50.792747 19153 net.cpp:137] Memory required for data: 773915136
I0505 13:14:50.792752 19153 layer_factory.hpp:77] Creating layer inception_3a/output_inception_3a/output_0_split
I0505 13:14:50.792766 19153 net.cpp:84] Creating Layer inception_3a/output_inception_3a/output_0_split
I0505 13:14:50.792773 19153 net.cpp:406] inception_3a/output_inception_3a/output_0_split <- inception_3a/output
I0505 13:14:50.792780 19153 net.cpp:380] inception_3a/output_inception_3a/output_0_split -> inception_3a/output_inception_3a/output_0_split_0
I0505 13:14:50.792788 19153 net.cpp:380] inception_3a/output_inception_3a/output_0_split -> inception_3a/output_inception_3a/output_0_split_1
I0505 13:14:50.792795 19153 net.cpp:380] inception_3a/output_inception_3a/output_0_split -> inception_3a/output_inception_3a/output_0_split_2
I0505 13:14:50.792801 19153 net.cpp:380] inception_3a/output_inception_3a/output_0_split -> inception_3a/output_inception_3a/output_0_split_3
I0505 13:14:50.792851 19153 net.cpp:122] Setting up inception_3a/output_inception_3a/output_0_split
I0505 13:14:50.792870 19153 net.cpp:129] Top shape: 32 256 28 28 (6422528)
I0505 13:14:50.792876 19153 net.cpp:129] Top shape: 32 256 28 28 (6422528)
I0505 13:14:50.792879 19153 net.cpp:129] Top shape: 32 256 28 28 (6422528)
I0505 13:14:50.792883 19153 net.cpp:129] Top shape: 32 256 28 28 (6422528)
I0505 13:14:50.792886 19153 net.cpp:137] Memory required for data: 876675584
I0505 13:14:50.792891 19153 layer_factory.hpp:77] Creating layer inception_3b/1x1
I0505 13:14:50.792901 19153 net.cpp:84] Creating Layer inception_3b/1x1
I0505 13:14:50.792908 19153 net.cpp:406] inception_3b/1x1 <- inception_3a/output_inception_3a/output_0_split_0
I0505 13:14:50.792922 19153 net.cpp:380] inception_3b/1x1 -> inception_3b/1x1
I0505 13:14:50.803176 19153 net.cpp:122] Setting up inception_3b/1x1
I0505 13:14:50.803200 19153 net.cpp:129] Top shape: 32 128 28 28 (3211264)
I0505 13:14:50.803205 19153 net.cpp:137] Memory required for data: 889520640
I0505 13:14:50.803217 19153 layer_factory.hpp:77] Creating layer inception_3b/relu_1x1
I0505 13:14:50.803231 19153 net.cpp:84] Creating Layer inception_3b/relu_1x1
I0505 13:14:50.803238 19153 net.cpp:406] inception_3b/relu_1x1 <- inception_3b/1x1
I0505 13:14:50.803246 19153 net.cpp:367] inception_3b/relu_1x1 -> inception_3b/1x1 (in-place)
I0505 13:14:50.808318 19153 net.cpp:122] Setting up inception_3b/relu_1x1
I0505 13:14:50.808339 19153 net.cpp:129] Top shape: 32 128 28 28 (3211264)
I0505 13:14:50.808343 19153 net.cpp:137] Memory required for data: 902365696
I0505 13:14:50.808351 19153 layer_factory.hpp:77] Creating layer inception_3b/3x3_reduce
I0505 13:14:50.808369 19153 net.cpp:84] Creating Layer inception_3b/3x3_reduce
I0505 13:14:50.808375 19153 net.cpp:406] inception_3b/3x3_reduce <- inception_3a/output_inception_3a/output_0_split_1
I0505 13:14:50.808385 19153 net.cpp:380] inception_3b/3x3_reduce -> inception_3b/3x3_reduce
I0505 13:14:50.810282 19153 net.cpp:122] Setting up inception_3b/3x3_reduce
I0505 13:14:50.810295 19153 net.cpp:129] Top shape: 32 128 28 28 (3211264)
I0505 13:14:50.810299 19153 net.cpp:137] Memory required for data: 915210752
I0505 13:14:50.810308 19153 layer_factory.hpp:77] Creating layer inception_3b/relu_3x3_reduce
I0505 13:14:50.810317 19153 net.cpp:84] Creating Layer inception_3b/relu_3x3_reduce
I0505 13:14:50.810323 19153 net.cpp:406] inception_3b/relu_3x3_reduce <- inception_3b/3x3_reduce
I0505 13:14:50.810330 19153 net.cpp:367] inception_3b/relu_3x3_reduce -> inception_3b/3x3_reduce (in-place)
I0505 13:14:50.810911 19153 net.cpp:122] Setting up inception_3b/relu_3x3_reduce
I0505 13:14:50.810925 19153 net.cpp:129] Top shape: 32 128 28 28 (3211264)
I0505 13:14:50.810933 19153 net.cpp:137] Memory required for data: 928055808
I0505 13:14:50.810941 19153 layer_factory.hpp:77] Creating layer inception_3b/3x3
I0505 13:14:50.810967 19153 net.cpp:84] Creating Layer inception_3b/3x3
I0505 13:14:50.810976 19153 net.cpp:406] inception_3b/3x3 <- inception_3b/3x3_reduce
I0505 13:14:50.810987 19153 net.cpp:380] inception_3b/3x3 -> inception_3b/3x3
I0505 13:14:50.813988 19153 net.cpp:122] Setting up inception_3b/3x3
I0505 13:14:50.814004 19153 net.cpp:129] Top shape: 32 192 28 28 (4816896)
I0505 13:14:50.814008 19153 net.cpp:137] Memory required for data: 947323392
I0505 13:14:50.814016 19153 layer_factory.hpp:77] Creating layer inception_3b/relu_3x3
I0505 13:14:50.814023 19153 net.cpp:84] Creating Layer inception_3b/relu_3x3
I0505 13:14:50.814028 19153 net.cpp:406] inception_3b/relu_3x3 <- inception_3b/3x3
I0505 13:14:50.814035 19153 net.cpp:367] inception_3b/relu_3x3 -> inception_3b/3x3 (in-place)
I0505 13:14:50.818305 19153 net.cpp:122] Setting up inception_3b/relu_3x3
I0505 13:14:50.818320 19153 net.cpp:129] Top shape: 32 192 28 28 (4816896)
I0505 13:14:50.818325 19153 net.cpp:137] Memory required for data: 966590976
I0505 13:14:50.818331 19153 layer_factory.hpp:77] Creating layer inception_3b/5x5_reduce
I0505 13:14:50.818344 19153 net.cpp:84] Creating Layer inception_3b/5x5_reduce
I0505 13:14:50.818349 19153 net.cpp:406] inception_3b/5x5_reduce <- inception_3a/output_inception_3a/output_0_split_2
I0505 13:14:50.818377 19153 net.cpp:380] inception_3b/5x5_reduce -> inception_3b/5x5_reduce
I0505 13:14:50.820096 19153 net.cpp:122] Setting up inception_3b/5x5_reduce
I0505 13:14:50.820107 19153 net.cpp:129] Top shape: 32 32 28 28 (802816)
I0505 13:14:50.820112 19153 net.cpp:137] Memory required for data: 969802240
I0505 13:14:50.820120 19153 layer_factory.hpp:77] Creating layer inception_3b/relu_5x5_reduce
I0505 13:14:50.820129 19153 net.cpp:84] Creating Layer inception_3b/relu_5x5_reduce
I0505 13:14:50.820133 19153 net.cpp:406] inception_3b/relu_5x5_reduce <- inception_3b/5x5_reduce
I0505 13:14:50.820139 19153 net.cpp:367] inception_3b/relu_5x5_reduce -> inception_3b/5x5_reduce (in-place)
I0505 13:14:50.820668 19153 net.cpp:122] Setting up inception_3b/relu_5x5_reduce
I0505 13:14:50.820678 19153 net.cpp:129] Top shape: 32 32 28 28 (802816)
I0505 13:14:50.820681 19153 net.cpp:137] Memory required for data: 973013504
I0505 13:14:50.820686 19153 layer_factory.hpp:77] Creating layer inception_3b/5x5
I0505 13:14:50.820699 19153 net.cpp:84] Creating Layer inception_3b/5x5
I0505 13:14:50.820704 19153 net.cpp:406] inception_3b/5x5 <- inception_3b/5x5_reduce
I0505 13:14:50.820711 19153 net.cpp:380] inception_3b/5x5 -> inception_3b/5x5
I0505 13:14:50.822883 19153 net.cpp:122] Setting up inception_3b/5x5
I0505 13:14:50.822896 19153 net.cpp:129] Top shape: 32 96 28 28 (2408448)
I0505 13:14:50.822899 19153 net.cpp:137] Memory required for data: 982647296
I0505 13:14:50.822906 19153 layer_factory.hpp:77] Creating layer inception_3b/relu_5x5
I0505 13:14:50.822916 19153 net.cpp:84] Creating Layer inception_3b/relu_5x5
I0505 13:14:50.822919 19153 net.cpp:406] inception_3b/relu_5x5 <- inception_3b/5x5
I0505 13:14:50.822926 19153 net.cpp:367] inception_3b/relu_5x5 -> inception_3b/5x5 (in-place)
I0505 13:14:50.823264 19153 net.cpp:122] Setting up inception_3b/relu_5x5
I0505 13:14:50.823276 19153 net.cpp:129] Top shape: 32 96 28 28 (2408448)
I0505 13:14:50.823282 19153 net.cpp:137] Memory required for data: 992281088
I0505 13:14:50.823285 19153 layer_factory.hpp:77] Creating layer inception_3b/pool
I0505 13:14:50.823293 19153 net.cpp:84] Creating Layer inception_3b/pool
I0505 13:14:50.823298 19153 net.cpp:406] inception_3b/pool <- inception_3a/output_inception_3a/output_0_split_3
I0505 13:14:50.823305 19153 net.cpp:380] inception_3b/pool -> inception_3b/pool
I0505 13:14:50.823343 19153 net.cpp:122] Setting up inception_3b/pool
I0505 13:14:50.823349 19153 net.cpp:129] Top shape: 32 256 28 28 (6422528)
I0505 13:14:50.823355 19153 net.cpp:137] Memory required for data: 1017971200
I0505 13:14:50.823359 19153 layer_factory.hpp:77] Creating layer inception_3b/pool_proj
I0505 13:14:50.823369 19153 net.cpp:84] Creating Layer inception_3b/pool_proj
I0505 13:14:50.823374 19153 net.cpp:406] inception_3b/pool_proj <- inception_3b/pool
I0505 13:14:50.823382 19153 net.cpp:380] inception_3b/pool_proj -> inception_3b/pool_proj
I0505 13:14:50.827988 19153 net.cpp:122] Setting up inception_3b/pool_proj
I0505 13:14:50.828003 19153 net.cpp:129] Top shape: 32 64 28 28 (1605632)
I0505 13:14:50.828008 19153 net.cpp:137] Memory required for data: 1024393728
I0505 13:14:50.828016 19153 layer_factory.hpp:77] Creating layer inception_3b/relu_pool_proj
I0505 13:14:50.828024 19153 net.cpp:84] Creating Layer inception_3b/relu_pool_proj
I0505 13:14:50.828030 19153 net.cpp:406] inception_3b/relu_pool_proj <- inception_3b/pool_proj
I0505 13:14:50.828037 19153 net.cpp:367] inception_3b/relu_pool_proj -> inception_3b/pool_proj (in-place)
I0505 13:14:50.828385 19153 net.cpp:122] Setting up inception_3b/relu_pool_proj
I0505 13:14:50.828394 19153 net.cpp:129] Top shape: 32 64 28 28 (1605632)
I0505 13:14:50.828399 19153 net.cpp:137] Memory required for data: 1030816256
I0505 13:14:50.828404 19153 layer_factory.hpp:77] Creating layer inception_3b/output
I0505 13:14:50.828413 19153 net.cpp:84] Creating Layer inception_3b/output
I0505 13:14:50.828418 19153 net.cpp:406] inception_3b/output <- inception_3b/1x1
I0505 13:14:50.828424 19153 net.cpp:406] inception_3b/output <- inception_3b/3x3
I0505 13:14:50.828449 19153 net.cpp:406] inception_3b/output <- inception_3b/5x5
I0505 13:14:50.828454 19153 net.cpp:406] inception_3b/output <- inception_3b/pool_proj
I0505 13:14:50.828460 19153 net.cpp:380] inception_3b/output -> inception_3b/output
I0505 13:14:50.828490 19153 net.cpp:122] Setting up inception_3b/output
I0505 13:14:50.828496 19153 net.cpp:129] Top shape: 32 480 28 28 (12042240)
I0505 13:14:50.828500 19153 net.cpp:137] Memory required for data: 1078985216
I0505 13:14:50.828505 19153 layer_factory.hpp:77] Creating layer pool3/3x3_s2
I0505 13:14:50.828511 19153 net.cpp:84] Creating Layer pool3/3x3_s2
I0505 13:14:50.828516 19153 net.cpp:406] pool3/3x3_s2 <- inception_3b/output
I0505 13:14:50.828524 19153 net.cpp:380] pool3/3x3_s2 -> pool3/3x3_s2
I0505 13:14:50.828555 19153 net.cpp:122] Setting up pool3/3x3_s2
I0505 13:14:50.828560 19153 net.cpp:129] Top shape: 32 480 14 14 (3010560)
I0505 13:14:50.828565 19153 net.cpp:137] Memory required for data: 1091027456
I0505 13:14:50.828569 19153 layer_factory.hpp:77] Creating layer pool3/3x3_s2_pool3/3x3_s2_0_split
I0505 13:14:50.828577 19153 net.cpp:84] Creating Layer pool3/3x3_s2_pool3/3x3_s2_0_split
I0505 13:14:50.828583 19153 net.cpp:406] pool3/3x3_s2_pool3/3x3_s2_0_split <- pool3/3x3_s2
I0505 13:14:50.828588 19153 net.cpp:380] pool3/3x3_s2_pool3/3x3_s2_0_split -> pool3/3x3_s2_pool3/3x3_s2_0_split_0
I0505 13:14:50.828596 19153 net.cpp:380] pool3/3x3_s2_pool3/3x3_s2_0_split -> pool3/3x3_s2_pool3/3x3_s2_0_split_1
I0505 13:14:50.828603 19153 net.cpp:380] pool3/3x3_s2_pool3/3x3_s2_0_split -> pool3/3x3_s2_pool3/3x3_s2_0_split_2
I0505 13:14:50.828610 19153 net.cpp:380] pool3/3x3_s2_pool3/3x3_s2_0_split -> pool3/3x3_s2_pool3/3x3_s2_0_split_3
I0505 13:14:50.828653 19153 net.cpp:122] Setting up pool3/3x3_s2_pool3/3x3_s2_0_split
I0505 13:14:50.828658 19153 net.cpp:129] Top shape: 32 480 14 14 (3010560)
I0505 13:14:50.828665 19153 net.cpp:129] Top shape: 32 480 14 14 (3010560)
I0505 13:14:50.828668 19153 net.cpp:129] Top shape: 32 480 14 14 (3010560)
I0505 13:14:50.828675 19153 net.cpp:129] Top shape: 32 480 14 14 (3010560)
I0505 13:14:50.828680 19153 net.cpp:137] Memory required for data: 1139196416
I0505 13:14:50.828683 19153 layer_factory.hpp:77] Creating layer inception_4a/1x1
I0505 13:14:50.828696 19153 net.cpp:84] Creating Layer inception_4a/1x1
I0505 13:14:50.828699 19153 net.cpp:406] inception_4a/1x1 <- pool3/3x3_s2_pool3/3x3_s2_0_split_0
I0505 13:14:50.828707 19153 net.cpp:380] inception_4a/1x1 -> inception_4a/1x1
I0505 13:14:50.831174 19153 net.cpp:122] Setting up inception_4a/1x1
I0505 13:14:50.831187 19153 net.cpp:129] Top shape: 32 192 14 14 (1204224)
I0505 13:14:50.831192 19153 net.cpp:137] Memory required for data: 1144013312
I0505 13:14:50.831199 19153 layer_factory.hpp:77] Creating layer inception_4a/relu_1x1
I0505 13:14:50.831207 19153 net.cpp:84] Creating Layer inception_4a/relu_1x1
I0505 13:14:50.831210 19153 net.cpp:406] inception_4a/relu_1x1 <- inception_4a/1x1
I0505 13:14:50.831218 19153 net.cpp:367] inception_4a/relu_1x1 -> inception_4a/1x1 (in-place)
I0505 13:14:50.831974 19153 net.cpp:122] Setting up inception_4a/relu_1x1
I0505 13:14:50.831988 19153 net.cpp:129] Top shape: 32 192 14 14 (1204224)
I0505 13:14:50.831995 19153 net.cpp:137] Memory required for data: 1148830208
I0505 13:14:50.832000 19153 layer_factory.hpp:77] Creating layer inception_4a/3x3_reduce
I0505 13:14:50.832020 19153 net.cpp:84] Creating Layer inception_4a/3x3_reduce
I0505 13:14:50.832026 19153 net.cpp:406] inception_4a/3x3_reduce <- pool3/3x3_s2_pool3/3x3_s2_0_split_1
I0505 13:14:50.832038 19153 net.cpp:380] inception_4a/3x3_reduce -> inception_4a/3x3_reduce
I0505 13:14:50.834765 19153 net.cpp:122] Setting up inception_4a/3x3_reduce
I0505 13:14:50.834779 19153 net.cpp:129] Top shape: 32 96 14 14 (602112)
I0505 13:14:50.834782 19153 net.cpp:137] Memory required for data: 1151238656
I0505 13:14:50.834797 19153 layer_factory.hpp:77] Creating layer inception_4a/relu_3x3_reduce
I0505 13:14:50.834806 19153 net.cpp:84] Creating Layer inception_4a/relu_3x3_reduce
I0505 13:14:50.834825 19153 net.cpp:406] inception_4a/relu_3x3_reduce <- inception_4a/3x3_reduce
I0505 13:14:50.834832 19153 net.cpp:367] inception_4a/relu_3x3_reduce -> inception_4a/3x3_reduce (in-place)
I0505 13:14:50.837186 19153 net.cpp:122] Setting up inception_4a/relu_3x3_reduce
I0505 13:14:50.837199 19153 net.cpp:129] Top shape: 32 96 14 14 (602112)
I0505 13:14:50.837205 19153 net.cpp:137] Memory required for data: 1153647104
I0505 13:14:50.837210 19153 layer_factory.hpp:77] Creating layer inception_4a/3x3
I0505 13:14:50.837224 19153 net.cpp:84] Creating Layer inception_4a/3x3
I0505 13:14:50.837229 19153 net.cpp:406] inception_4a/3x3 <- inception_4a/3x3_reduce
I0505 13:14:50.837237 19153 net.cpp:380] inception_4a/3x3 -> inception_4a/3x3
I0505 13:14:50.847074 19153 net.cpp:122] Setting up inception_4a/3x3
I0505 13:14:50.847097 19153 net.cpp:129] Top shape: 32 208 14 14 (1304576)
I0505 13:14:50.847103 19153 net.cpp:137] Memory required for data: 1158865408
I0505 13:14:50.847116 19153 layer_factory.hpp:77] Creating layer inception_4a/relu_3x3
I0505 13:14:50.847129 19153 net.cpp:84] Creating Layer inception_4a/relu_3x3
I0505 13:14:50.847136 19153 net.cpp:406] inception_4a/relu_3x3 <- inception_4a/3x3
I0505 13:14:50.847149 19153 net.cpp:367] inception_4a/relu_3x3 -> inception_4a/3x3 (in-place)
I0505 13:14:50.847827 19153 net.cpp:122] Setting up inception_4a/relu_3x3
I0505 13:14:50.847838 19153 net.cpp:129] Top shape: 32 208 14 14 (1304576)
I0505 13:14:50.847842 19153 net.cpp:137] Memory required for data: 1164083712
I0505 13:14:50.847846 19153 layer_factory.hpp:77] Creating layer inception_4a/5x5_reduce
I0505 13:14:50.847858 19153 net.cpp:84] Creating Layer inception_4a/5x5_reduce
I0505 13:14:50.847863 19153 net.cpp:406] inception_4a/5x5_reduce <- pool3/3x3_s2_pool3/3x3_s2_0_split_2
I0505 13:14:50.847870 19153 net.cpp:380] inception_4a/5x5_reduce -> inception_4a/5x5_reduce
I0505 13:14:50.849545 19153 net.cpp:122] Setting up inception_4a/5x5_reduce
I0505 13:14:50.849556 19153 net.cpp:129] Top shape: 32 16 14 14 (100352)
I0505 13:14:50.849560 19153 net.cpp:137] Memory required for data: 1164485120
I0505 13:14:50.849566 19153 layer_factory.hpp:77] Creating layer inception_4a/relu_5x5_reduce
I0505 13:14:50.849575 19153 net.cpp:84] Creating Layer inception_4a/relu_5x5_reduce
I0505 13:14:50.849578 19153 net.cpp:406] inception_4a/relu_5x5_reduce <- inception_4a/5x5_reduce
I0505 13:14:50.849586 19153 net.cpp:367] inception_4a/relu_5x5_reduce -> inception_4a/5x5_reduce (in-place)
I0505 13:14:50.850116 19153 net.cpp:122] Setting up inception_4a/relu_5x5_reduce
I0505 13:14:50.850126 19153 net.cpp:129] Top shape: 32 16 14 14 (100352)
I0505 13:14:50.850129 19153 net.cpp:137] Memory required for data: 1164886528
I0505 13:14:50.850133 19153 layer_factory.hpp:77] Creating layer inception_4a/5x5
I0505 13:14:50.850144 19153 net.cpp:84] Creating Layer inception_4a/5x5
I0505 13:14:50.850148 19153 net.cpp:406] inception_4a/5x5 <- inception_4a/5x5_reduce
I0505 13:14:50.850154 19153 net.cpp:380] inception_4a/5x5 -> inception_4a/5x5
I0505 13:14:50.853528 19153 net.cpp:122] Setting up inception_4a/5x5
I0505 13:14:50.853544 19153 net.cpp:129] Top shape: 32 48 14 14 (301056)
I0505 13:14:50.853547 19153 net.cpp:137] Memory required for data: 1166090752
I0505 13:14:50.853556 19153 layer_factory.hpp:77] Creating layer inception_4a/relu_5x5
I0505 13:14:50.853565 19153 net.cpp:84] Creating Layer inception_4a/relu_5x5
I0505 13:14:50.853570 19153 net.cpp:406] inception_4a/relu_5x5 <- inception_4a/5x5
I0505 13:14:50.853577 19153 net.cpp:367] inception_4a/relu_5x5 -> inception_4a/5x5 (in-place)
I0505 13:14:50.853943 19153 net.cpp:122] Setting up inception_4a/relu_5x5
I0505 13:14:50.853955 19153 net.cpp:129] Top shape: 32 48 14 14 (301056)
I0505 13:14:50.853958 19153 net.cpp:137] Memory required for data: 1167294976
I0505 13:14:50.853962 19153 layer_factory.hpp:77] Creating layer inception_4a/pool
I0505 13:14:50.853971 19153 net.cpp:84] Creating Layer inception_4a/pool
I0505 13:14:50.853976 19153 net.cpp:406] inception_4a/pool <- pool3/3x3_s2_pool3/3x3_s2_0_split_3
I0505 13:14:50.854001 19153 net.cpp:380] inception_4a/pool -> inception_4a/pool
I0505 13:14:50.854043 19153 net.cpp:122] Setting up inception_4a/pool
I0505 13:14:50.854049 19153 net.cpp:129] Top shape: 32 480 14 14 (3010560)
I0505 13:14:50.854053 19153 net.cpp:137] Memory required for data: 1179337216
I0505 13:14:50.854055 19153 layer_factory.hpp:77] Creating layer inception_4a/pool_proj
I0505 13:14:50.854066 19153 net.cpp:84] Creating Layer inception_4a/pool_proj
I0505 13:14:50.854070 19153 net.cpp:406] inception_4a/pool_proj <- inception_4a/pool
I0505 13:14:50.854077 19153 net.cpp:380] inception_4a/pool_proj -> inception_4a/pool_proj
I0505 13:14:50.856040 19153 net.cpp:122] Setting up inception_4a/pool_proj
I0505 13:14:50.856050 19153 net.cpp:129] Top shape: 32 64 14 14 (401408)
I0505 13:14:50.856053 19153 net.cpp:137] Memory required for data: 1180942848
I0505 13:14:50.856060 19153 layer_factory.hpp:77] Creating layer inception_4a/relu_pool_proj
I0505 13:14:50.856068 19153 net.cpp:84] Creating Layer inception_4a/relu_pool_proj
I0505 13:14:50.856073 19153 net.cpp:406] inception_4a/relu_pool_proj <- inception_4a/pool_proj
I0505 13:14:50.856079 19153 net.cpp:367] inception_4a/relu_pool_proj -> inception_4a/pool_proj (in-place)
I0505 13:14:50.856669 19153 net.cpp:122] Setting up inception_4a/relu_pool_proj
I0505 13:14:50.856685 19153 net.cpp:129] Top shape: 32 64 14 14 (401408)
I0505 13:14:50.856691 19153 net.cpp:137] Memory required for data: 1182548480
I0505 13:14:50.856698 19153 layer_factory.hpp:77] Creating layer inception_4a/output
I0505 13:14:50.856707 19153 net.cpp:84] Creating Layer inception_4a/output
I0505 13:14:50.856714 19153 net.cpp:406] inception_4a/output <- inception_4a/1x1
I0505 13:14:50.856720 19153 net.cpp:406] inception_4a/output <- inception_4a/3x3
I0505 13:14:50.856726 19153 net.cpp:406] inception_4a/output <- inception_4a/5x5
I0505 13:14:50.856734 19153 net.cpp:406] inception_4a/output <- inception_4a/pool_proj
I0505 13:14:50.856745 19153 net.cpp:380] inception_4a/output -> inception_4a/output
I0505 13:14:50.856784 19153 net.cpp:122] Setting up inception_4a/output
I0505 13:14:50.856796 19153 net.cpp:129] Top shape: 32 512 14 14 (3211264)
I0505 13:14:50.856801 19153 net.cpp:137] Memory required for data: 1195393536
I0505 13:14:50.856806 19153 layer_factory.hpp:77] Creating layer inception_4a/output_inception_4a/output_0_split
I0505 13:14:50.856820 19153 net.cpp:84] Creating Layer inception_4a/output_inception_4a/output_0_split
I0505 13:14:50.856827 19153 net.cpp:406] inception_4a/output_inception_4a/output_0_split <- inception_4a/output
I0505 13:14:50.856838 19153 net.cpp:380] inception_4a/output_inception_4a/output_0_split -> inception_4a/output_inception_4a/output_0_split_0
I0505 13:14:50.856850 19153 net.cpp:380] inception_4a/output_inception_4a/output_0_split -> inception_4a/output_inception_4a/output_0_split_1
I0505 13:14:50.856860 19153 net.cpp:380] inception_4a/output_inception_4a/output_0_split -> inception_4a/output_inception_4a/output_0_split_2
I0505 13:14:50.856870 19153 net.cpp:380] inception_4a/output_inception_4a/output_0_split -> inception_4a/output_inception_4a/output_0_split_3
I0505 13:14:50.856881 19153 net.cpp:380] inception_4a/output_inception_4a/output_0_split -> inception_4a/output_inception_4a/output_0_split_4
I0505 13:14:50.856950 19153 net.cpp:122] Setting up inception_4a/output_inception_4a/output_0_split
I0505 13:14:50.856957 19153 net.cpp:129] Top shape: 32 512 14 14 (3211264)
I0505 13:14:50.856961 19153 net.cpp:129] Top shape: 32 512 14 14 (3211264)
I0505 13:14:50.856966 19153 net.cpp:129] Top shape: 32 512 14 14 (3211264)
I0505 13:14:50.856969 19153 net.cpp:129] Top shape: 32 512 14 14 (3211264)
I0505 13:14:50.856973 19153 net.cpp:129] Top shape: 32 512 14 14 (3211264)
I0505 13:14:50.856976 19153 net.cpp:137] Memory required for data: 1259618816
I0505 13:14:50.856981 19153 layer_factory.hpp:77] Creating layer loss1/ave_pool
I0505 13:14:50.856986 19153 net.cpp:84] Creating Layer loss1/ave_pool
I0505 13:14:50.856989 19153 net.cpp:406] loss1/ave_pool <- inception_4a/output_inception_4a/output_0_split_0
I0505 13:14:50.857008 19153 net.cpp:380] loss1/ave_pool -> loss1/ave_pool
I0505 13:14:50.857524 19153 net.cpp:122] Setting up loss1/ave_pool
I0505 13:14:50.857537 19153 net.cpp:129] Top shape: 32 512 4 4 (262144)
I0505 13:14:50.857542 19153 net.cpp:137] Memory required for data: 1260667392
I0505 13:14:50.857548 19153 layer_factory.hpp:77] Creating layer loss1/conv
I0505 13:14:50.857563 19153 net.cpp:84] Creating Layer loss1/conv
I0505 13:14:50.857569 19153 net.cpp:406] loss1/conv <- loss1/ave_pool
I0505 13:14:50.857580 19153 net.cpp:380] loss1/conv -> loss1/conv
I0505 13:14:50.861600 19153 net.cpp:122] Setting up loss1/conv
I0505 13:14:50.861618 19153 net.cpp:129] Top shape: 32 128 4 4 (65536)
I0505 13:14:50.861622 19153 net.cpp:137] Memory required for data: 1260929536
I0505 13:14:50.861631 19153 layer_factory.hpp:77] Creating layer loss1/relu_conv
I0505 13:14:50.861640 19153 net.cpp:84] Creating Layer loss1/relu_conv
I0505 13:14:50.861645 19153 net.cpp:406] loss1/relu_conv <- loss1/conv
I0505 13:14:50.861652 19153 net.cpp:367] loss1/relu_conv -> loss1/conv (in-place)
I0505 13:14:50.862254 19153 net.cpp:122] Setting up loss1/relu_conv
I0505 13:14:50.862267 19153 net.cpp:129] Top shape: 32 128 4 4 (65536)
I0505 13:14:50.862273 19153 net.cpp:137] Memory required for data: 1261191680
I0505 13:14:50.862279 19153 layer_factory.hpp:77] Creating layer loss1/fc
I0505 13:14:50.862289 19153 net.cpp:84] Creating Layer loss1/fc
I0505 13:14:50.862293 19153 net.cpp:406] loss1/fc <- loss1/conv
I0505 13:14:50.862299 19153 net.cpp:380] loss1/fc -> loss1/fc
I0505 13:14:50.875793 19153 net.cpp:122] Setting up loss1/fc
I0505 13:14:50.875813 19153 net.cpp:129] Top shape: 32 1024 (32768)
I0505 13:14:50.875819 19153 net.cpp:137] Memory required for data: 1261322752
I0505 13:14:50.875829 19153 layer_factory.hpp:77] Creating layer loss1/relu_fc
I0505 13:14:50.875844 19153 net.cpp:84] Creating Layer loss1/relu_fc
I0505 13:14:50.875850 19153 net.cpp:406] loss1/relu_fc <- loss1/fc
I0505 13:14:50.875856 19153 net.cpp:367] loss1/relu_fc -> loss1/fc (in-place)
I0505 13:14:50.876262 19153 net.cpp:122] Setting up loss1/relu_fc
I0505 13:14:50.876271 19153 net.cpp:129] Top shape: 32 1024 (32768)
I0505 13:14:50.876273 19153 net.cpp:137] Memory required for data: 1261453824
I0505 13:14:50.876277 19153 layer_factory.hpp:77] Creating layer loss1/drop_fc
I0505 13:14:50.876302 19153 net.cpp:84] Creating Layer loss1/drop_fc
I0505 13:14:50.876305 19153 net.cpp:406] loss1/drop_fc <- loss1/fc
I0505 13:14:50.876310 19153 net.cpp:367] loss1/drop_fc -> loss1/fc (in-place)
I0505 13:14:50.876338 19153 net.cpp:122] Setting up loss1/drop_fc
I0505 13:14:50.876343 19153 net.cpp:129] Top shape: 32 1024 (32768)
I0505 13:14:50.876345 19153 net.cpp:137] Memory required for data: 1261584896
I0505 13:14:50.876349 19153 layer_factory.hpp:77] Creating layer loss1/classifier
I0505 13:14:50.876358 19153 net.cpp:84] Creating Layer loss1/classifier
I0505 13:14:50.876361 19153 net.cpp:406] loss1/classifier <- loss1/fc
I0505 13:14:50.876369 19153 net.cpp:380] loss1/classifier -> loss1/classifier
I0505 13:14:50.878216 19153 net.cpp:122] Setting up loss1/classifier
I0505 13:14:50.878226 19153 net.cpp:129] Top shape: 32 196 (6272)
I0505 13:14:50.878230 19153 net.cpp:137] Memory required for data: 1261609984
I0505 13:14:50.878237 19153 layer_factory.hpp:77] Creating layer loss1/loss
I0505 13:14:50.878245 19153 net.cpp:84] Creating Layer loss1/loss
I0505 13:14:50.878249 19153 net.cpp:406] loss1/loss <- loss1/classifier
I0505 13:14:50.878255 19153 net.cpp:406] loss1/loss <- label_train-data_1_split_0
I0505 13:14:50.878260 19153 net.cpp:380] loss1/loss -> loss1/loss
I0505 13:14:50.878269 19153 layer_factory.hpp:77] Creating layer loss1/loss
I0505 13:14:50.886029 19153 net.cpp:122] Setting up loss1/loss
I0505 13:14:50.886051 19153 net.cpp:129] Top shape: (1)
I0505 13:14:50.886059 19153 net.cpp:132]     with loss weight 0.3
I0505 13:14:50.886083 19153 net.cpp:137] Memory required for data: 1261609988
I0505 13:14:50.886091 19153 layer_factory.hpp:77] Creating layer inception_4b/1x1
I0505 13:14:50.886135 19153 net.cpp:84] Creating Layer inception_4b/1x1
I0505 13:14:50.886147 19153 net.cpp:406] inception_4b/1x1 <- inception_4a/output_inception_4a/output_0_split_1
I0505 13:14:50.886163 19153 net.cpp:380] inception_4b/1x1 -> inception_4b/1x1
I0505 13:14:50.888970 19153 net.cpp:122] Setting up inception_4b/1x1
I0505 13:14:50.888985 19153 net.cpp:129] Top shape: 32 160 14 14 (1003520)
I0505 13:14:50.888990 19153 net.cpp:137] Memory required for data: 1265624068
I0505 13:14:50.889001 19153 layer_factory.hpp:77] Creating layer inception_4b/relu_1x1
I0505 13:14:50.889011 19153 net.cpp:84] Creating Layer inception_4b/relu_1x1
I0505 13:14:50.889017 19153 net.cpp:406] inception_4b/relu_1x1 <- inception_4b/1x1
I0505 13:14:50.889029 19153 net.cpp:367] inception_4b/relu_1x1 -> inception_4b/1x1 (in-place)
I0505 13:14:50.889712 19153 net.cpp:122] Setting up inception_4b/relu_1x1
I0505 13:14:50.889727 19153 net.cpp:129] Top shape: 32 160 14 14 (1003520)
I0505 13:14:50.889734 19153 net.cpp:137] Memory required for data: 1269638148
I0505 13:14:50.889742 19153 layer_factory.hpp:77] Creating layer inception_4b/3x3_reduce
I0505 13:14:50.889760 19153 net.cpp:84] Creating Layer inception_4b/3x3_reduce
I0505 13:14:50.889766 19153 net.cpp:406] inception_4b/3x3_reduce <- inception_4a/output_inception_4a/output_0_split_2
I0505 13:14:50.889781 19153 net.cpp:380] inception_4b/3x3_reduce -> inception_4b/3x3_reduce
I0505 13:14:50.894925 19153 net.cpp:122] Setting up inception_4b/3x3_reduce
I0505 13:14:50.894946 19153 net.cpp:129] Top shape: 32 112 14 14 (702464)
I0505 13:14:50.894953 19153 net.cpp:137] Memory required for data: 1272448004
I0505 13:14:50.894963 19153 layer_factory.hpp:77] Creating layer inception_4b/relu_3x3_reduce
I0505 13:14:50.894974 19153 net.cpp:84] Creating Layer inception_4b/relu_3x3_reduce
I0505 13:14:50.894981 19153 net.cpp:406] inception_4b/relu_3x3_reduce <- inception_4b/3x3_reduce
I0505 13:14:50.894991 19153 net.cpp:367] inception_4b/relu_3x3_reduce -> inception_4b/3x3_reduce (in-place)
I0505 13:14:50.895479 19153 net.cpp:122] Setting up inception_4b/relu_3x3_reduce
I0505 13:14:50.895490 19153 net.cpp:129] Top shape: 32 112 14 14 (702464)
I0505 13:14:50.895495 19153 net.cpp:137] Memory required for data: 1275257860
I0505 13:14:50.895500 19153 layer_factory.hpp:77] Creating layer inception_4b/3x3
I0505 13:14:50.895515 19153 net.cpp:84] Creating Layer inception_4b/3x3
I0505 13:14:50.895520 19153 net.cpp:406] inception_4b/3x3 <- inception_4b/3x3_reduce
I0505 13:14:50.895530 19153 net.cpp:380] inception_4b/3x3 -> inception_4b/3x3
I0505 13:14:50.899827 19153 net.cpp:122] Setting up inception_4b/3x3
I0505 13:14:50.899844 19153 net.cpp:129] Top shape: 32 224 14 14 (1404928)
I0505 13:14:50.899849 19153 net.cpp:137] Memory required for data: 1280877572
I0505 13:14:50.899857 19153 layer_factory.hpp:77] Creating layer inception_4b/relu_3x3
I0505 13:14:50.899868 19153 net.cpp:84] Creating Layer inception_4b/relu_3x3
I0505 13:14:50.899874 19153 net.cpp:406] inception_4b/relu_3x3 <- inception_4b/3x3
I0505 13:14:50.899881 19153 net.cpp:367] inception_4b/relu_3x3 -> inception_4b/3x3 (in-place)
I0505 13:14:50.900444 19153 net.cpp:122] Setting up inception_4b/relu_3x3
I0505 13:14:50.900455 19153 net.cpp:129] Top shape: 32 224 14 14 (1404928)
I0505 13:14:50.900460 19153 net.cpp:137] Memory required for data: 1286497284
I0505 13:14:50.900465 19153 layer_factory.hpp:77] Creating layer inception_4b/5x5_reduce
I0505 13:14:50.900476 19153 net.cpp:84] Creating Layer inception_4b/5x5_reduce
I0505 13:14:50.900481 19153 net.cpp:406] inception_4b/5x5_reduce <- inception_4a/output_inception_4a/output_0_split_3
I0505 13:14:50.900491 19153 net.cpp:380] inception_4b/5x5_reduce -> inception_4b/5x5_reduce
I0505 13:14:50.902729 19153 net.cpp:122] Setting up inception_4b/5x5_reduce
I0505 13:14:50.902741 19153 net.cpp:129] Top shape: 32 24 14 14 (150528)
I0505 13:14:50.902746 19153 net.cpp:137] Memory required for data: 1287099396
I0505 13:14:50.902753 19153 layer_factory.hpp:77] Creating layer inception_4b/relu_5x5_reduce
I0505 13:14:50.902777 19153 net.cpp:84] Creating Layer inception_4b/relu_5x5_reduce
I0505 13:14:50.902782 19153 net.cpp:406] inception_4b/relu_5x5_reduce <- inception_4b/5x5_reduce
I0505 13:14:50.902789 19153 net.cpp:367] inception_4b/relu_5x5_reduce -> inception_4b/5x5_reduce (in-place)
I0505 13:14:50.904177 19153 net.cpp:122] Setting up inception_4b/relu_5x5_reduce
I0505 13:14:50.904186 19153 net.cpp:129] Top shape: 32 24 14 14 (150528)
I0505 13:14:50.904191 19153 net.cpp:137] Memory required for data: 1287701508
I0505 13:14:50.904196 19153 layer_factory.hpp:77] Creating layer inception_4b/5x5
I0505 13:14:50.904207 19153 net.cpp:84] Creating Layer inception_4b/5x5
I0505 13:14:50.904212 19153 net.cpp:406] inception_4b/5x5 <- inception_4b/5x5_reduce
I0505 13:14:50.904219 19153 net.cpp:380] inception_4b/5x5 -> inception_4b/5x5
I0505 13:14:50.907994 19153 net.cpp:122] Setting up inception_4b/5x5
I0505 13:14:50.908010 19153 net.cpp:129] Top shape: 32 64 14 14 (401408)
I0505 13:14:50.908015 19153 net.cpp:137] Memory required for data: 1289307140
I0505 13:14:50.908023 19153 layer_factory.hpp:77] Creating layer inception_4b/relu_5x5
I0505 13:14:50.908032 19153 net.cpp:84] Creating Layer inception_4b/relu_5x5
I0505 13:14:50.908038 19153 net.cpp:406] inception_4b/relu_5x5 <- inception_4b/5x5
I0505 13:14:50.908046 19153 net.cpp:367] inception_4b/relu_5x5 -> inception_4b/5x5 (in-place)
I0505 13:14:50.908582 19153 net.cpp:122] Setting up inception_4b/relu_5x5
I0505 13:14:50.908593 19153 net.cpp:129] Top shape: 32 64 14 14 (401408)
I0505 13:14:50.908597 19153 net.cpp:137] Memory required for data: 1290912772
I0505 13:14:50.908601 19153 layer_factory.hpp:77] Creating layer inception_4b/pool
I0505 13:14:50.908609 19153 net.cpp:84] Creating Layer inception_4b/pool
I0505 13:14:50.908614 19153 net.cpp:406] inception_4b/pool <- inception_4a/output_inception_4a/output_0_split_4
I0505 13:14:50.908623 19153 net.cpp:380] inception_4b/pool -> inception_4b/pool
I0505 13:14:50.908677 19153 net.cpp:122] Setting up inception_4b/pool
I0505 13:14:50.908684 19153 net.cpp:129] Top shape: 32 512 14 14 (3211264)
I0505 13:14:50.908689 19153 net.cpp:137] Memory required for data: 1303757828
I0505 13:14:50.908694 19153 layer_factory.hpp:77] Creating layer inception_4b/pool_proj
I0505 13:14:50.908704 19153 net.cpp:84] Creating Layer inception_4b/pool_proj
I0505 13:14:50.908710 19153 net.cpp:406] inception_4b/pool_proj <- inception_4b/pool
I0505 13:14:50.908716 19153 net.cpp:380] inception_4b/pool_proj -> inception_4b/pool_proj
I0505 13:14:50.910452 19153 net.cpp:122] Setting up inception_4b/pool_proj
I0505 13:14:50.910462 19153 net.cpp:129] Top shape: 32 64 14 14 (401408)
I0505 13:14:50.910467 19153 net.cpp:137] Memory required for data: 1305363460
I0505 13:14:50.910475 19153 layer_factory.hpp:77] Creating layer inception_4b/relu_pool_proj
I0505 13:14:50.910528 19153 net.cpp:84] Creating Layer inception_4b/relu_pool_proj
I0505 13:14:50.910537 19153 net.cpp:406] inception_4b/relu_pool_proj <- inception_4b/pool_proj
I0505 13:14:50.910544 19153 net.cpp:367] inception_4b/relu_pool_proj -> inception_4b/pool_proj (in-place)
I0505 13:14:50.911082 19153 net.cpp:122] Setting up inception_4b/relu_pool_proj
I0505 13:14:50.911092 19153 net.cpp:129] Top shape: 32 64 14 14 (401408)
I0505 13:14:50.911096 19153 net.cpp:137] Memory required for data: 1306969092
I0505 13:14:50.911101 19153 layer_factory.hpp:77] Creating layer inception_4b/output
I0505 13:14:50.911108 19153 net.cpp:84] Creating Layer inception_4b/output
I0505 13:14:50.911114 19153 net.cpp:406] inception_4b/output <- inception_4b/1x1
I0505 13:14:50.911123 19153 net.cpp:406] inception_4b/output <- inception_4b/3x3
I0505 13:14:50.911128 19153 net.cpp:406] inception_4b/output <- inception_4b/5x5
I0505 13:14:50.911132 19153 net.cpp:406] inception_4b/output <- inception_4b/pool_proj
I0505 13:14:50.911139 19153 net.cpp:380] inception_4b/output -> inception_4b/output
I0505 13:14:50.911166 19153 net.cpp:122] Setting up inception_4b/output
I0505 13:14:50.911172 19153 net.cpp:129] Top shape: 32 512 14 14 (3211264)
I0505 13:14:50.911195 19153 net.cpp:137] Memory required for data: 1319814148
I0505 13:14:50.911200 19153 layer_factory.hpp:77] Creating layer inception_4b/output_inception_4b/output_0_split
I0505 13:14:50.911207 19153 net.cpp:84] Creating Layer inception_4b/output_inception_4b/output_0_split
I0505 13:14:50.911212 19153 net.cpp:406] inception_4b/output_inception_4b/output_0_split <- inception_4b/output
I0505 13:14:50.911219 19153 net.cpp:380] inception_4b/output_inception_4b/output_0_split -> inception_4b/output_inception_4b/output_0_split_0
I0505 13:14:50.911227 19153 net.cpp:380] inception_4b/output_inception_4b/output_0_split -> inception_4b/output_inception_4b/output_0_split_1
I0505 13:14:50.911237 19153 net.cpp:380] inception_4b/output_inception_4b/output_0_split -> inception_4b/output_inception_4b/output_0_split_2
I0505 13:14:50.911242 19153 net.cpp:380] inception_4b/output_inception_4b/output_0_split -> inception_4b/output_inception_4b/output_0_split_3
I0505 13:14:50.911293 19153 net.cpp:122] Setting up inception_4b/output_inception_4b/output_0_split
I0505 13:14:50.911300 19153 net.cpp:129] Top shape: 32 512 14 14 (3211264)
I0505 13:14:50.911305 19153 net.cpp:129] Top shape: 32 512 14 14 (3211264)
I0505 13:14:50.911310 19153 net.cpp:129] Top shape: 32 512 14 14 (3211264)
I0505 13:14:50.911315 19153 net.cpp:129] Top shape: 32 512 14 14 (3211264)
I0505 13:14:50.911320 19153 net.cpp:137] Memory required for data: 1371194372
I0505 13:14:50.911324 19153 layer_factory.hpp:77] Creating layer inception_4c/1x1
I0505 13:14:50.911334 19153 net.cpp:84] Creating Layer inception_4c/1x1
I0505 13:14:50.911339 19153 net.cpp:406] inception_4c/1x1 <- inception_4b/output_inception_4b/output_0_split_0
I0505 13:14:50.911345 19153 net.cpp:380] inception_4c/1x1 -> inception_4c/1x1
I0505 13:14:50.925709 19153 net.cpp:122] Setting up inception_4c/1x1
I0505 13:14:50.925729 19153 net.cpp:129] Top shape: 32 128 14 14 (802816)
I0505 13:14:50.925734 19153 net.cpp:137] Memory required for data: 1374405636
I0505 13:14:50.925745 19153 layer_factory.hpp:77] Creating layer inception_4c/relu_1x1
I0505 13:14:50.925756 19153 net.cpp:84] Creating Layer inception_4c/relu_1x1
I0505 13:14:50.925765 19153 net.cpp:406] inception_4c/relu_1x1 <- inception_4c/1x1
I0505 13:14:50.925774 19153 net.cpp:367] inception_4c/relu_1x1 -> inception_4c/1x1 (in-place)
I0505 13:14:50.926148 19153 net.cpp:122] Setting up inception_4c/relu_1x1
I0505 13:14:50.926157 19153 net.cpp:129] Top shape: 32 128 14 14 (802816)
I0505 13:14:50.926162 19153 net.cpp:137] Memory required for data: 1377616900
I0505 13:14:50.926167 19153 layer_factory.hpp:77] Creating layer inception_4c/3x3_reduce
I0505 13:14:50.926179 19153 net.cpp:84] Creating Layer inception_4c/3x3_reduce
I0505 13:14:50.926185 19153 net.cpp:406] inception_4c/3x3_reduce <- inception_4b/output_inception_4b/output_0_split_1
I0505 13:14:50.926192 19153 net.cpp:380] inception_4c/3x3_reduce -> inception_4c/3x3_reduce
I0505 13:14:50.929563 19153 net.cpp:122] Setting up inception_4c/3x3_reduce
I0505 13:14:50.929575 19153 net.cpp:129] Top shape: 32 128 14 14 (802816)
I0505 13:14:50.929580 19153 net.cpp:137] Memory required for data: 1380828164
I0505 13:14:50.929589 19153 layer_factory.hpp:77] Creating layer inception_4c/relu_3x3_reduce
I0505 13:14:50.929596 19153 net.cpp:84] Creating Layer inception_4c/relu_3x3_reduce
I0505 13:14:50.929602 19153 net.cpp:406] inception_4c/relu_3x3_reduce <- inception_4c/3x3_reduce
I0505 13:14:50.929608 19153 net.cpp:367] inception_4c/relu_3x3_reduce -> inception_4c/3x3_reduce (in-place)
I0505 13:14:50.930141 19153 net.cpp:122] Setting up inception_4c/relu_3x3_reduce
I0505 13:14:50.930152 19153 net.cpp:129] Top shape: 32 128 14 14 (802816)
I0505 13:14:50.930157 19153 net.cpp:137] Memory required for data: 1384039428
I0505 13:14:50.930164 19153 layer_factory.hpp:77] Creating layer inception_4c/3x3
I0505 13:14:50.930178 19153 net.cpp:84] Creating Layer inception_4c/3x3
I0505 13:14:50.930183 19153 net.cpp:406] inception_4c/3x3 <- inception_4c/3x3_reduce
I0505 13:14:50.930192 19153 net.cpp:380] inception_4c/3x3 -> inception_4c/3x3
I0505 13:14:50.933446 19153 net.cpp:122] Setting up inception_4c/3x3
I0505 13:14:50.933457 19153 net.cpp:129] Top shape: 32 256 14 14 (1605632)
I0505 13:14:50.933463 19153 net.cpp:137] Memory required for data: 1390461956
I0505 13:14:50.933481 19153 layer_factory.hpp:77] Creating layer inception_4c/relu_3x3
I0505 13:14:50.933490 19153 net.cpp:84] Creating Layer inception_4c/relu_3x3
I0505 13:14:50.933495 19153 net.cpp:406] inception_4c/relu_3x3 <- inception_4c/3x3
I0505 13:14:50.933501 19153 net.cpp:367] inception_4c/relu_3x3 -> inception_4c/3x3 (in-place)
I0505 13:14:50.934078 19153 net.cpp:122] Setting up inception_4c/relu_3x3
I0505 13:14:50.934094 19153 net.cpp:129] Top shape: 32 256 14 14 (1605632)
I0505 13:14:50.934100 19153 net.cpp:137] Memory required for data: 1396884484
I0505 13:14:50.934106 19153 layer_factory.hpp:77] Creating layer inception_4c/5x5_reduce
I0505 13:14:50.934119 19153 net.cpp:84] Creating Layer inception_4c/5x5_reduce
I0505 13:14:50.934125 19153 net.cpp:406] inception_4c/5x5_reduce <- inception_4b/output_inception_4b/output_0_split_2
I0505 13:14:50.934134 19153 net.cpp:380] inception_4c/5x5_reduce -> inception_4c/5x5_reduce
I0505 13:14:50.937569 19153 net.cpp:122] Setting up inception_4c/5x5_reduce
I0505 13:14:50.937585 19153 net.cpp:129] Top shape: 32 24 14 14 (150528)
I0505 13:14:50.937589 19153 net.cpp:137] Memory required for data: 1397486596
I0505 13:14:50.937598 19153 layer_factory.hpp:77] Creating layer inception_4c/relu_5x5_reduce
I0505 13:14:50.937608 19153 net.cpp:84] Creating Layer inception_4c/relu_5x5_reduce
I0505 13:14:50.937614 19153 net.cpp:406] inception_4c/relu_5x5_reduce <- inception_4c/5x5_reduce
I0505 13:14:50.937621 19153 net.cpp:367] inception_4c/relu_5x5_reduce -> inception_4c/5x5_reduce (in-place)
I0505 13:14:50.938251 19153 net.cpp:122] Setting up inception_4c/relu_5x5_reduce
I0505 13:14:50.938261 19153 net.cpp:129] Top shape: 32 24 14 14 (150528)
I0505 13:14:50.938266 19153 net.cpp:137] Memory required for data: 1398088708
I0505 13:14:50.938269 19153 layer_factory.hpp:77] Creating layer inception_4c/5x5
I0505 13:14:50.938280 19153 net.cpp:84] Creating Layer inception_4c/5x5
I0505 13:14:50.938285 19153 net.cpp:406] inception_4c/5x5 <- inception_4c/5x5_reduce
I0505 13:14:50.938293 19153 net.cpp:380] inception_4c/5x5 -> inception_4c/5x5
I0505 13:14:50.940500 19153 net.cpp:122] Setting up inception_4c/5x5
I0505 13:14:50.940510 19153 net.cpp:129] Top shape: 32 64 14 14 (401408)
I0505 13:14:50.940515 19153 net.cpp:137] Memory required for data: 1399694340
I0505 13:14:50.940521 19153 layer_factory.hpp:77] Creating layer inception_4c/relu_5x5
I0505 13:14:50.940531 19153 net.cpp:84] Creating Layer inception_4c/relu_5x5
I0505 13:14:50.940536 19153 net.cpp:406] inception_4c/relu_5x5 <- inception_4c/5x5
I0505 13:14:50.940542 19153 net.cpp:367] inception_4c/relu_5x5 -> inception_4c/5x5 (in-place)
I0505 13:14:50.941097 19153 net.cpp:122] Setting up inception_4c/relu_5x5
I0505 13:14:50.941107 19153 net.cpp:129] Top shape: 32 64 14 14 (401408)
I0505 13:14:50.941110 19153 net.cpp:137] Memory required for data: 1401299972
I0505 13:14:50.941114 19153 layer_factory.hpp:77] Creating layer inception_4c/pool
I0505 13:14:50.941121 19153 net.cpp:84] Creating Layer inception_4c/pool
I0505 13:14:50.941126 19153 net.cpp:406] inception_4c/pool <- inception_4b/output_inception_4b/output_0_split_3
I0505 13:14:50.941133 19153 net.cpp:380] inception_4c/pool -> inception_4c/pool
I0505 13:14:50.941174 19153 net.cpp:122] Setting up inception_4c/pool
I0505 13:14:50.941181 19153 net.cpp:129] Top shape: 32 512 14 14 (3211264)
I0505 13:14:50.941184 19153 net.cpp:137] Memory required for data: 1414145028
I0505 13:14:50.941188 19153 layer_factory.hpp:77] Creating layer inception_4c/pool_proj
I0505 13:14:50.941198 19153 net.cpp:84] Creating Layer inception_4c/pool_proj
I0505 13:14:50.941201 19153 net.cpp:406] inception_4c/pool_proj <- inception_4c/pool
I0505 13:14:50.941208 19153 net.cpp:380] inception_4c/pool_proj -> inception_4c/pool_proj
I0505 13:14:50.947628 19153 net.cpp:122] Setting up inception_4c/pool_proj
I0505 13:14:50.947664 19153 net.cpp:129] Top shape: 32 64 14 14 (401408)
I0505 13:14:50.947667 19153 net.cpp:137] Memory required for data: 1415750660
I0505 13:14:50.947677 19153 layer_factory.hpp:77] Creating layer inception_4c/relu_pool_proj
I0505 13:14:50.947690 19153 net.cpp:84] Creating Layer inception_4c/relu_pool_proj
I0505 13:14:50.947695 19153 net.cpp:406] inception_4c/relu_pool_proj <- inception_4c/pool_proj
I0505 13:14:50.947701 19153 net.cpp:367] inception_4c/relu_pool_proj -> inception_4c/pool_proj (in-place)
I0505 13:14:50.948076 19153 net.cpp:122] Setting up inception_4c/relu_pool_proj
I0505 13:14:50.948083 19153 net.cpp:129] Top shape: 32 64 14 14 (401408)
I0505 13:14:50.948087 19153 net.cpp:137] Memory required for data: 1417356292
I0505 13:14:50.948091 19153 layer_factory.hpp:77] Creating layer inception_4c/output
I0505 13:14:50.948098 19153 net.cpp:84] Creating Layer inception_4c/output
I0505 13:14:50.948102 19153 net.cpp:406] inception_4c/output <- inception_4c/1x1
I0505 13:14:50.948107 19153 net.cpp:406] inception_4c/output <- inception_4c/3x3
I0505 13:14:50.948112 19153 net.cpp:406] inception_4c/output <- inception_4c/5x5
I0505 13:14:50.948115 19153 net.cpp:406] inception_4c/output <- inception_4c/pool_proj
I0505 13:14:50.948122 19153 net.cpp:380] inception_4c/output -> inception_4c/output
I0505 13:14:50.948149 19153 net.cpp:122] Setting up inception_4c/output
I0505 13:14:50.948155 19153 net.cpp:129] Top shape: 32 512 14 14 (3211264)
I0505 13:14:50.948158 19153 net.cpp:137] Memory required for data: 1430201348
I0505 13:14:50.948163 19153 layer_factory.hpp:77] Creating layer inception_4c/output_inception_4c/output_0_split
I0505 13:14:50.948168 19153 net.cpp:84] Creating Layer inception_4c/output_inception_4c/output_0_split
I0505 13:14:50.948173 19153 net.cpp:406] inception_4c/output_inception_4c/output_0_split <- inception_4c/output
I0505 13:14:50.948179 19153 net.cpp:380] inception_4c/output_inception_4c/output_0_split -> inception_4c/output_inception_4c/output_0_split_0
I0505 13:14:50.948185 19153 net.cpp:380] inception_4c/output_inception_4c/output_0_split -> inception_4c/output_inception_4c/output_0_split_1
I0505 13:14:50.948191 19153 net.cpp:380] inception_4c/output_inception_4c/output_0_split -> inception_4c/output_inception_4c/output_0_split_2
I0505 13:14:50.948196 19153 net.cpp:380] inception_4c/output_inception_4c/output_0_split -> inception_4c/output_inception_4c/output_0_split_3
I0505 13:14:50.948247 19153 net.cpp:122] Setting up inception_4c/output_inception_4c/output_0_split
I0505 13:14:50.948253 19153 net.cpp:129] Top shape: 32 512 14 14 (3211264)
I0505 13:14:50.948257 19153 net.cpp:129] Top shape: 32 512 14 14 (3211264)
I0505 13:14:50.948261 19153 net.cpp:129] Top shape: 32 512 14 14 (3211264)
I0505 13:14:50.948266 19153 net.cpp:129] Top shape: 32 512 14 14 (3211264)
I0505 13:14:50.948268 19153 net.cpp:137] Memory required for data: 1481581572
I0505 13:14:50.948271 19153 layer_factory.hpp:77] Creating layer inception_4d/1x1
I0505 13:14:50.948282 19153 net.cpp:84] Creating Layer inception_4d/1x1
I0505 13:14:50.948287 19153 net.cpp:406] inception_4d/1x1 <- inception_4c/output_inception_4c/output_0_split_0
I0505 13:14:50.948292 19153 net.cpp:380] inception_4d/1x1 -> inception_4d/1x1
I0505 13:14:50.964807 19153 net.cpp:122] Setting up inception_4d/1x1
I0505 13:14:50.964829 19153 net.cpp:129] Top shape: 32 112 14 14 (702464)
I0505 13:14:50.964833 19153 net.cpp:137] Memory required for data: 1484391428
I0505 13:14:50.964843 19153 layer_factory.hpp:77] Creating layer inception_4d/relu_1x1
I0505 13:14:50.964854 19153 net.cpp:84] Creating Layer inception_4d/relu_1x1
I0505 13:14:50.964860 19153 net.cpp:406] inception_4d/relu_1x1 <- inception_4d/1x1
I0505 13:14:50.964869 19153 net.cpp:367] inception_4d/relu_1x1 -> inception_4d/1x1 (in-place)
I0505 13:14:50.965234 19153 net.cpp:122] Setting up inception_4d/relu_1x1
I0505 13:14:50.965242 19153 net.cpp:129] Top shape: 32 112 14 14 (702464)
I0505 13:14:50.965245 19153 net.cpp:137] Memory required for data: 1487201284
I0505 13:14:50.965267 19153 layer_factory.hpp:77] Creating layer inception_4d/3x3_reduce
I0505 13:14:50.965281 19153 net.cpp:84] Creating Layer inception_4d/3x3_reduce
I0505 13:14:50.965284 19153 net.cpp:406] inception_4d/3x3_reduce <- inception_4c/output_inception_4c/output_0_split_1
I0505 13:14:50.965292 19153 net.cpp:380] inception_4d/3x3_reduce -> inception_4d/3x3_reduce
I0505 13:14:50.972646 19153 net.cpp:122] Setting up inception_4d/3x3_reduce
I0505 13:14:50.972673 19153 net.cpp:129] Top shape: 32 144 14 14 (903168)
I0505 13:14:50.972681 19153 net.cpp:137] Memory required for data: 1490813956
I0505 13:14:50.972695 19153 layer_factory.hpp:77] Creating layer inception_4d/relu_3x3_reduce
I0505 13:14:50.972710 19153 net.cpp:84] Creating Layer inception_4d/relu_3x3_reduce
I0505 13:14:50.972719 19153 net.cpp:406] inception_4d/relu_3x3_reduce <- inception_4d/3x3_reduce
I0505 13:14:50.972733 19153 net.cpp:367] inception_4d/relu_3x3_reduce -> inception_4d/3x3_reduce (in-place)
I0505 13:14:50.973752 19153 net.cpp:122] Setting up inception_4d/relu_3x3_reduce
I0505 13:14:50.973767 19153 net.cpp:129] Top shape: 32 144 14 14 (903168)
I0505 13:14:50.973773 19153 net.cpp:137] Memory required for data: 1494426628
I0505 13:14:50.973779 19153 layer_factory.hpp:77] Creating layer inception_4d/3x3
I0505 13:14:50.973798 19153 net.cpp:84] Creating Layer inception_4d/3x3
I0505 13:14:50.973807 19153 net.cpp:406] inception_4d/3x3 <- inception_4d/3x3_reduce
I0505 13:14:50.973819 19153 net.cpp:380] inception_4d/3x3 -> inception_4d/3x3
I0505 13:14:50.981313 19153 net.cpp:122] Setting up inception_4d/3x3
I0505 13:14:50.981338 19153 net.cpp:129] Top shape: 32 288 14 14 (1806336)
I0505 13:14:50.981343 19153 net.cpp:137] Memory required for data: 1501651972
I0505 13:14:50.981357 19153 layer_factory.hpp:77] Creating layer inception_4d/relu_3x3
I0505 13:14:50.981369 19153 net.cpp:84] Creating Layer inception_4d/relu_3x3
I0505 13:14:50.981375 19153 net.cpp:406] inception_4d/relu_3x3 <- inception_4d/3x3
I0505 13:14:50.981387 19153 net.cpp:367] inception_4d/relu_3x3 -> inception_4d/3x3 (in-place)
I0505 13:14:50.982163 19153 net.cpp:122] Setting up inception_4d/relu_3x3
I0505 13:14:50.982180 19153 net.cpp:129] Top shape: 32 288 14 14 (1806336)
I0505 13:14:50.982187 19153 net.cpp:137] Memory required for data: 1508877316
I0505 13:14:50.982192 19153 layer_factory.hpp:77] Creating layer inception_4d/5x5_reduce
I0505 13:14:50.982210 19153 net.cpp:84] Creating Layer inception_4d/5x5_reduce
I0505 13:14:50.982218 19153 net.cpp:406] inception_4d/5x5_reduce <- inception_4c/output_inception_4c/output_0_split_2
I0505 13:14:50.982230 19153 net.cpp:380] inception_4d/5x5_reduce -> inception_4d/5x5_reduce
I0505 13:14:50.987960 19153 net.cpp:122] Setting up inception_4d/5x5_reduce
I0505 13:14:50.987980 19153 net.cpp:129] Top shape: 32 32 14 14 (200704)
I0505 13:14:50.987984 19153 net.cpp:137] Memory required for data: 1509680132
I0505 13:14:50.987994 19153 layer_factory.hpp:77] Creating layer inception_4d/relu_5x5_reduce
I0505 13:14:50.988004 19153 net.cpp:84] Creating Layer inception_4d/relu_5x5_reduce
I0505 13:14:50.988009 19153 net.cpp:406] inception_4d/relu_5x5_reduce <- inception_4d/5x5_reduce
I0505 13:14:50.988018 19153 net.cpp:367] inception_4d/relu_5x5_reduce -> inception_4d/5x5_reduce (in-place)
I0505 13:14:50.988677 19153 net.cpp:122] Setting up inception_4d/relu_5x5_reduce
I0505 13:14:50.988692 19153 net.cpp:129] Top shape: 32 32 14 14 (200704)
I0505 13:14:50.988698 19153 net.cpp:137] Memory required for data: 1510482948
I0505 13:14:50.988704 19153 layer_factory.hpp:77] Creating layer inception_4d/5x5
I0505 13:14:50.988723 19153 net.cpp:84] Creating Layer inception_4d/5x5
I0505 13:14:50.988730 19153 net.cpp:406] inception_4d/5x5 <- inception_4d/5x5_reduce
I0505 13:14:50.988742 19153 net.cpp:380] inception_4d/5x5 -> inception_4d/5x5
I0505 13:14:50.990937 19153 net.cpp:122] Setting up inception_4d/5x5
I0505 13:14:50.990949 19153 net.cpp:129] Top shape: 32 64 14 14 (401408)
I0505 13:14:50.990954 19153 net.cpp:137] Memory required for data: 1512088580
I0505 13:14:50.990980 19153 layer_factory.hpp:77] Creating layer inception_4d/relu_5x5
I0505 13:14:50.990989 19153 net.cpp:84] Creating Layer inception_4d/relu_5x5
I0505 13:14:50.990994 19153 net.cpp:406] inception_4d/relu_5x5 <- inception_4d/5x5
I0505 13:14:50.991000 19153 net.cpp:367] inception_4d/relu_5x5 -> inception_4d/5x5 (in-place)
I0505 13:14:50.993293 19153 net.cpp:122] Setting up inception_4d/relu_5x5
I0505 13:14:50.993307 19153 net.cpp:129] Top shape: 32 64 14 14 (401408)
I0505 13:14:51.054425 19153 net.cpp:137] Memory required for data: 1513694212
I0505 13:14:51.054448 19153 layer_factory.hpp:77] Creating layer inception_4d/pool
I0505 13:14:51.054473 19153 net.cpp:84] Creating Layer inception_4d/pool
I0505 13:14:51.054524 19153 net.cpp:406] inception_4d/pool <- inception_4c/output_inception_4c/output_0_split_3
I0505 13:14:51.054541 19153 net.cpp:380] inception_4d/pool -> inception_4d/pool
I0505 13:14:51.054668 19153 net.cpp:122] Setting up inception_4d/pool
I0505 13:14:51.054683 19153 net.cpp:129] Top shape: 32 512 14 14 (3211264)
I0505 13:14:51.054692 19153 net.cpp:137] Memory required for data: 1526539268
I0505 13:14:51.054698 19153 layer_factory.hpp:77] Creating layer inception_4d/pool_proj
I0505 13:14:51.054719 19153 net.cpp:84] Creating Layer inception_4d/pool_proj
I0505 13:14:51.054728 19153 net.cpp:406] inception_4d/pool_proj <- inception_4d/pool
I0505 13:14:51.054744 19153 net.cpp:380] inception_4d/pool_proj -> inception_4d/pool_proj
I0505 13:14:51.059445 19153 net.cpp:122] Setting up inception_4d/pool_proj
I0505 13:14:51.059463 19153 net.cpp:129] Top shape: 32 64 14 14 (401408)
I0505 13:14:51.059470 19153 net.cpp:137] Memory required for data: 1528144900
I0505 13:14:51.059485 19153 layer_factory.hpp:77] Creating layer inception_4d/relu_pool_proj
I0505 13:14:51.059500 19153 net.cpp:84] Creating Layer inception_4d/relu_pool_proj
I0505 13:14:51.059510 19153 net.cpp:406] inception_4d/relu_pool_proj <- inception_4d/pool_proj
I0505 13:14:51.059521 19153 net.cpp:367] inception_4d/relu_pool_proj -> inception_4d/pool_proj (in-place)
I0505 13:14:51.060060 19153 net.cpp:122] Setting up inception_4d/relu_pool_proj
I0505 13:14:51.060076 19153 net.cpp:129] Top shape: 32 64 14 14 (401408)
I0505 13:14:51.060084 19153 net.cpp:137] Memory required for data: 1529750532
I0505 13:14:51.060091 19153 layer_factory.hpp:77] Creating layer inception_4d/output
I0505 13:14:51.060103 19153 net.cpp:84] Creating Layer inception_4d/output
I0505 13:14:51.060112 19153 net.cpp:406] inception_4d/output <- inception_4d/1x1
I0505 13:14:51.060122 19153 net.cpp:406] inception_4d/output <- inception_4d/3x3
I0505 13:14:51.060130 19153 net.cpp:406] inception_4d/output <- inception_4d/5x5
I0505 13:14:51.060137 19153 net.cpp:406] inception_4d/output <- inception_4d/pool_proj
I0505 13:14:51.060150 19153 net.cpp:380] inception_4d/output -> inception_4d/output
I0505 13:14:51.060192 19153 net.cpp:122] Setting up inception_4d/output
I0505 13:14:51.060204 19153 net.cpp:129] Top shape: 32 528 14 14 (3311616)
I0505 13:14:51.060211 19153 net.cpp:137] Memory required for data: 1542996996
I0505 13:14:51.060216 19153 layer_factory.hpp:77] Creating layer inception_4d/output_inception_4d/output_0_split
I0505 13:14:51.060228 19153 net.cpp:84] Creating Layer inception_4d/output_inception_4d/output_0_split
I0505 13:14:51.060235 19153 net.cpp:406] inception_4d/output_inception_4d/output_0_split <- inception_4d/output
I0505 13:14:51.060247 19153 net.cpp:380] inception_4d/output_inception_4d/output_0_split -> inception_4d/output_inception_4d/output_0_split_0
I0505 13:14:51.060261 19153 net.cpp:380] inception_4d/output_inception_4d/output_0_split -> inception_4d/output_inception_4d/output_0_split_1
I0505 13:14:51.060272 19153 net.cpp:380] inception_4d/output_inception_4d/output_0_split -> inception_4d/output_inception_4d/output_0_split_2
I0505 13:14:51.060282 19153 net.cpp:380] inception_4d/output_inception_4d/output_0_split -> inception_4d/output_inception_4d/output_0_split_3
I0505 13:14:51.060295 19153 net.cpp:380] inception_4d/output_inception_4d/output_0_split -> inception_4d/output_inception_4d/output_0_split_4
I0505 13:14:51.060425 19153 net.cpp:122] Setting up inception_4d/output_inception_4d/output_0_split
I0505 13:14:51.060438 19153 net.cpp:129] Top shape: 32 528 14 14 (3311616)
I0505 13:14:51.060448 19153 net.cpp:129] Top shape: 32 528 14 14 (3311616)
I0505 13:14:51.060456 19153 net.cpp:129] Top shape: 32 528 14 14 (3311616)
I0505 13:14:51.060465 19153 net.cpp:129] Top shape: 32 528 14 14 (3311616)
I0505 13:14:51.060474 19153 net.cpp:129] Top shape: 32 528 14 14 (3311616)
I0505 13:14:51.060482 19153 net.cpp:137] Memory required for data: 1609229316
I0505 13:14:51.060490 19153 layer_factory.hpp:77] Creating layer loss2/ave_pool
I0505 13:14:51.060500 19153 net.cpp:84] Creating Layer loss2/ave_pool
I0505 13:14:51.060510 19153 net.cpp:406] loss2/ave_pool <- inception_4d/output_inception_4d/output_0_split_0
I0505 13:14:51.060523 19153 net.cpp:380] loss2/ave_pool -> loss2/ave_pool
I0505 13:14:51.061342 19153 net.cpp:122] Setting up loss2/ave_pool
I0505 13:14:51.061358 19153 net.cpp:129] Top shape: 32 528 4 4 (270336)
I0505 13:14:51.061367 19153 net.cpp:137] Memory required for data: 1610310660
I0505 13:14:51.061375 19153 layer_factory.hpp:77] Creating layer loss2/conv
I0505 13:14:51.061391 19153 net.cpp:84] Creating Layer loss2/conv
I0505 13:14:51.061399 19153 net.cpp:406] loss2/conv <- loss2/ave_pool
I0505 13:14:51.061415 19153 net.cpp:380] loss2/conv -> loss2/conv
I0505 13:14:51.064767 19153 net.cpp:122] Setting up loss2/conv
I0505 13:14:51.064779 19153 net.cpp:129] Top shape: 32 128 4 4 (65536)
I0505 13:14:51.064785 19153 net.cpp:137] Memory required for data: 1610572804
I0505 13:14:51.064795 19153 layer_factory.hpp:77] Creating layer loss2/relu_conv
I0505 13:14:51.064807 19153 net.cpp:84] Creating Layer loss2/relu_conv
I0505 13:14:51.064815 19153 net.cpp:406] loss2/relu_conv <- loss2/conv
I0505 13:14:51.064822 19153 net.cpp:367] loss2/relu_conv -> loss2/conv (in-place)
I0505 13:14:51.065353 19153 net.cpp:122] Setting up loss2/relu_conv
I0505 13:14:51.065367 19153 net.cpp:129] Top shape: 32 128 4 4 (65536)
I0505 13:14:51.065374 19153 net.cpp:137] Memory required for data: 1610834948
I0505 13:14:51.065379 19153 layer_factory.hpp:77] Creating layer loss2/fc
I0505 13:14:51.065390 19153 net.cpp:84] Creating Layer loss2/fc
I0505 13:14:51.065398 19153 net.cpp:406] loss2/fc <- loss2/conv
I0505 13:14:51.065410 19153 net.cpp:380] loss2/fc -> loss2/fc
I0505 13:14:51.080927 19153 net.cpp:122] Setting up loss2/fc
I0505 13:14:51.080947 19153 net.cpp:129] Top shape: 32 1024 (32768)
I0505 13:14:51.080951 19153 net.cpp:137] Memory required for data: 1610966020
I0505 13:14:51.080962 19153 layer_factory.hpp:77] Creating layer loss2/relu_fc
I0505 13:14:51.080971 19153 net.cpp:84] Creating Layer loss2/relu_fc
I0505 13:14:51.080978 19153 net.cpp:406] loss2/relu_fc <- loss2/fc
I0505 13:14:51.080986 19153 net.cpp:367] loss2/relu_fc -> loss2/fc (in-place)
I0505 13:14:51.088948 19153 net.cpp:122] Setting up loss2/relu_fc
I0505 13:14:51.088965 19153 net.cpp:129] Top shape: 32 1024 (32768)
I0505 13:14:51.088969 19153 net.cpp:137] Memory required for data: 1611097092
I0505 13:14:51.088976 19153 layer_factory.hpp:77] Creating layer loss2/drop_fc
I0505 13:14:51.088989 19153 net.cpp:84] Creating Layer loss2/drop_fc
I0505 13:14:51.088995 19153 net.cpp:406] loss2/drop_fc <- loss2/fc
I0505 13:14:51.089004 19153 net.cpp:367] loss2/drop_fc -> loss2/fc (in-place)
I0505 13:14:51.089038 19153 net.cpp:122] Setting up loss2/drop_fc
I0505 13:14:51.089044 19153 net.cpp:129] Top shape: 32 1024 (32768)
I0505 13:14:51.089047 19153 net.cpp:137] Memory required for data: 1611228164
I0505 13:14:51.089051 19153 layer_factory.hpp:77] Creating layer loss2/classifier
I0505 13:14:51.089061 19153 net.cpp:84] Creating Layer loss2/classifier
I0505 13:14:51.089064 19153 net.cpp:406] loss2/classifier <- loss2/fc
I0505 13:14:51.089072 19153 net.cpp:380] loss2/classifier -> loss2/classifier
I0505 13:14:51.090303 19153 net.cpp:122] Setting up loss2/classifier
I0505 13:14:51.090315 19153 net.cpp:129] Top shape: 32 196 (6272)
I0505 13:14:51.090337 19153 net.cpp:137] Memory required for data: 1611253252
I0505 13:14:51.090345 19153 layer_factory.hpp:77] Creating layer loss2/loss
I0505 13:14:51.090353 19153 net.cpp:84] Creating Layer loss2/loss
I0505 13:14:51.090358 19153 net.cpp:406] loss2/loss <- loss2/classifier
I0505 13:14:51.090364 19153 net.cpp:406] loss2/loss <- label_train-data_1_split_1
I0505 13:14:51.090370 19153 net.cpp:380] loss2/loss -> loss2/loss
I0505 13:14:51.090379 19153 layer_factory.hpp:77] Creating layer loss2/loss
I0505 13:14:51.091064 19153 net.cpp:122] Setting up loss2/loss
I0505 13:14:51.091073 19153 net.cpp:129] Top shape: (1)
I0505 13:14:51.091078 19153 net.cpp:132]     with loss weight 0.3
I0505 13:14:51.091087 19153 net.cpp:137] Memory required for data: 1611253256
I0505 13:14:51.091091 19153 layer_factory.hpp:77] Creating layer inception_4e/1x1
I0505 13:14:51.091104 19153 net.cpp:84] Creating Layer inception_4e/1x1
I0505 13:14:51.091109 19153 net.cpp:406] inception_4e/1x1 <- inception_4d/output_inception_4d/output_0_split_1
I0505 13:14:51.091114 19153 net.cpp:380] inception_4e/1x1 -> inception_4e/1x1
I0505 13:14:51.093526 19153 net.cpp:122] Setting up inception_4e/1x1
I0505 13:14:51.093538 19153 net.cpp:129] Top shape: 32 256 14 14 (1605632)
I0505 13:14:51.093541 19153 net.cpp:137] Memory required for data: 1617675784
I0505 13:14:51.093549 19153 layer_factory.hpp:77] Creating layer inception_4e/relu_1x1
I0505 13:14:51.093555 19153 net.cpp:84] Creating Layer inception_4e/relu_1x1
I0505 13:14:51.093560 19153 net.cpp:406] inception_4e/relu_1x1 <- inception_4e/1x1
I0505 13:14:51.093567 19153 net.cpp:367] inception_4e/relu_1x1 -> inception_4e/1x1 (in-place)
I0505 13:14:51.094461 19153 net.cpp:122] Setting up inception_4e/relu_1x1
I0505 13:14:51.094475 19153 net.cpp:129] Top shape: 32 256 14 14 (1605632)
I0505 13:14:51.094522 19153 net.cpp:137] Memory required for data: 1624098312
I0505 13:14:51.094532 19153 layer_factory.hpp:77] Creating layer inception_4e/3x3_reduce
I0505 13:14:51.094547 19153 net.cpp:84] Creating Layer inception_4e/3x3_reduce
I0505 13:14:51.094553 19153 net.cpp:406] inception_4e/3x3_reduce <- inception_4d/output_inception_4d/output_0_split_2
I0505 13:14:51.094564 19153 net.cpp:380] inception_4e/3x3_reduce -> inception_4e/3x3_reduce
I0505 13:14:51.097265 19153 net.cpp:122] Setting up inception_4e/3x3_reduce
I0505 13:14:51.097278 19153 net.cpp:129] Top shape: 32 160 14 14 (1003520)
I0505 13:14:51.097282 19153 net.cpp:137] Memory required for data: 1628112392
I0505 13:14:51.097290 19153 layer_factory.hpp:77] Creating layer inception_4e/relu_3x3_reduce
I0505 13:14:51.097299 19153 net.cpp:84] Creating Layer inception_4e/relu_3x3_reduce
I0505 13:14:51.097306 19153 net.cpp:406] inception_4e/relu_3x3_reduce <- inception_4e/3x3_reduce
I0505 13:14:51.097312 19153 net.cpp:367] inception_4e/relu_3x3_reduce -> inception_4e/3x3_reduce (in-place)
I0505 13:14:51.097851 19153 net.cpp:122] Setting up inception_4e/relu_3x3_reduce
I0505 13:14:51.097860 19153 net.cpp:129] Top shape: 32 160 14 14 (1003520)
I0505 13:14:51.097863 19153 net.cpp:137] Memory required for data: 1632126472
I0505 13:14:51.097867 19153 layer_factory.hpp:77] Creating layer inception_4e/3x3
I0505 13:14:51.097878 19153 net.cpp:84] Creating Layer inception_4e/3x3
I0505 13:14:51.097882 19153 net.cpp:406] inception_4e/3x3 <- inception_4e/3x3_reduce
I0505 13:14:51.097890 19153 net.cpp:380] inception_4e/3x3 -> inception_4e/3x3
I0505 13:14:51.107173 19153 net.cpp:122] Setting up inception_4e/3x3
I0505 13:14:51.107197 19153 net.cpp:129] Top shape: 32 320 14 14 (2007040)
I0505 13:14:51.107204 19153 net.cpp:137] Memory required for data: 1640154632
I0505 13:14:51.107219 19153 layer_factory.hpp:77] Creating layer inception_4e/relu_3x3
I0505 13:14:51.107232 19153 net.cpp:84] Creating Layer inception_4e/relu_3x3
I0505 13:14:51.107240 19153 net.cpp:406] inception_4e/relu_3x3 <- inception_4e/3x3
I0505 13:14:51.107252 19153 net.cpp:367] inception_4e/relu_3x3 -> inception_4e/3x3 (in-place)
I0505 13:14:51.107740 19153 net.cpp:122] Setting up inception_4e/relu_3x3
I0505 13:14:51.107774 19153 net.cpp:129] Top shape: 32 320 14 14 (2007040)
I0505 13:14:51.107780 19153 net.cpp:137] Memory required for data: 1648182792
I0505 13:14:51.107785 19153 layer_factory.hpp:77] Creating layer inception_4e/5x5_reduce
I0505 13:14:51.107802 19153 net.cpp:84] Creating Layer inception_4e/5x5_reduce
I0505 13:14:51.107810 19153 net.cpp:406] inception_4e/5x5_reduce <- inception_4d/output_inception_4d/output_0_split_3
I0505 13:14:51.107823 19153 net.cpp:380] inception_4e/5x5_reduce -> inception_4e/5x5_reduce
I0505 13:14:51.131630 19153 net.cpp:122] Setting up inception_4e/5x5_reduce
I0505 13:14:51.131655 19153 net.cpp:129] Top shape: 32 32 14 14 (200704)
I0505 13:14:51.131660 19153 net.cpp:137] Memory required for data: 1648985608
I0505 13:14:51.131675 19153 layer_factory.hpp:77] Creating layer inception_4e/relu_5x5_reduce
I0505 13:14:51.131691 19153 net.cpp:84] Creating Layer inception_4e/relu_5x5_reduce
I0505 13:14:51.131700 19153 net.cpp:406] inception_4e/relu_5x5_reduce <- inception_4e/5x5_reduce
I0505 13:14:51.131711 19153 net.cpp:367] inception_4e/relu_5x5_reduce -> inception_4e/5x5_reduce (in-place)
I0505 13:14:51.168690 19153 net.cpp:122] Setting up inception_4e/relu_5x5_reduce
I0505 13:14:51.168711 19153 net.cpp:129] Top shape: 32 32 14 14 (200704)
I0505 13:14:51.168716 19153 net.cpp:137] Memory required for data: 1649788424
I0505 13:14:51.168725 19153 layer_factory.hpp:77] Creating layer inception_4e/5x5
I0505 13:14:51.168776 19153 net.cpp:84] Creating Layer inception_4e/5x5
I0505 13:14:51.168783 19153 net.cpp:406] inception_4e/5x5 <- inception_4e/5x5_reduce
I0505 13:14:51.168794 19153 net.cpp:380] inception_4e/5x5 -> inception_4e/5x5
I0505 13:14:51.176740 19153 net.cpp:122] Setting up inception_4e/5x5
I0505 13:14:51.176761 19153 net.cpp:129] Top shape: 32 128 14 14 (802816)
I0505 13:14:51.176766 19153 net.cpp:137] Memory required for data: 1652999688
I0505 13:14:51.176780 19153 layer_factory.hpp:77] Creating layer inception_4e/relu_5x5
I0505 13:14:51.176792 19153 net.cpp:84] Creating Layer inception_4e/relu_5x5
I0505 13:14:51.176800 19153 net.cpp:406] inception_4e/relu_5x5 <- inception_4e/5x5
I0505 13:14:51.176810 19153 net.cpp:367] inception_4e/relu_5x5 -> inception_4e/5x5 (in-place)
I0505 13:14:51.197487 19153 net.cpp:122] Setting up inception_4e/relu_5x5
I0505 13:14:51.197515 19153 net.cpp:129] Top shape: 32 128 14 14 (802816)
I0505 13:14:51.197520 19153 net.cpp:137] Memory required for data: 1656210952
I0505 13:14:51.197527 19153 layer_factory.hpp:77] Creating layer inception_4e/pool
I0505 13:14:51.197540 19153 net.cpp:84] Creating Layer inception_4e/pool
I0505 13:14:51.197548 19153 net.cpp:406] inception_4e/pool <- inception_4d/output_inception_4d/output_0_split_4
I0505 13:14:51.197561 19153 net.cpp:380] inception_4e/pool -> inception_4e/pool
I0505 13:14:51.197629 19153 net.cpp:122] Setting up inception_4e/pool
I0505 13:14:51.197639 19153 net.cpp:129] Top shape: 32 528 14 14 (3311616)
I0505 13:14:51.197644 19153 net.cpp:137] Memory required for data: 1669457416
I0505 13:14:51.197649 19153 layer_factory.hpp:77] Creating layer inception_4e/pool_proj
I0505 13:14:51.197666 19153 net.cpp:84] Creating Layer inception_4e/pool_proj
I0505 13:14:51.197671 19153 net.cpp:406] inception_4e/pool_proj <- inception_4e/pool
I0505 13:14:51.197679 19153 net.cpp:380] inception_4e/pool_proj -> inception_4e/pool_proj
I0505 13:14:51.214782 19153 net.cpp:122] Setting up inception_4e/pool_proj
I0505 13:14:51.214804 19153 net.cpp:129] Top shape: 32 128 14 14 (802816)
I0505 13:14:51.214808 19153 net.cpp:137] Memory required for data: 1672668680
I0505 13:14:51.214818 19153 layer_factory.hpp:77] Creating layer inception_4e/relu_pool_proj
I0505 13:14:51.214828 19153 net.cpp:84] Creating Layer inception_4e/relu_pool_proj
I0505 13:14:51.214833 19153 net.cpp:406] inception_4e/relu_pool_proj <- inception_4e/pool_proj
I0505 13:14:51.214840 19153 net.cpp:367] inception_4e/relu_pool_proj -> inception_4e/pool_proj (in-place)
I0505 13:14:51.215457 19153 net.cpp:122] Setting up inception_4e/relu_pool_proj
I0505 13:14:51.215468 19153 net.cpp:129] Top shape: 32 128 14 14 (802816)
I0505 13:14:51.215492 19153 net.cpp:137] Memory required for data: 1675879944
I0505 13:14:51.215495 19153 layer_factory.hpp:77] Creating layer inception_4e/output
I0505 13:14:51.215503 19153 net.cpp:84] Creating Layer inception_4e/output
I0505 13:14:51.215507 19153 net.cpp:406] inception_4e/output <- inception_4e/1x1
I0505 13:14:51.215512 19153 net.cpp:406] inception_4e/output <- inception_4e/3x3
I0505 13:14:51.215517 19153 net.cpp:406] inception_4e/output <- inception_4e/5x5
I0505 13:14:51.215521 19153 net.cpp:406] inception_4e/output <- inception_4e/pool_proj
I0505 13:14:51.215526 19153 net.cpp:380] inception_4e/output -> inception_4e/output
I0505 13:14:51.215556 19153 net.cpp:122] Setting up inception_4e/output
I0505 13:14:51.215561 19153 net.cpp:129] Top shape: 32 832 14 14 (5218304)
I0505 13:14:51.215565 19153 net.cpp:137] Memory required for data: 1696753160
I0505 13:14:51.215569 19153 layer_factory.hpp:77] Creating layer pool4/3x3_s2
I0505 13:14:51.215576 19153 net.cpp:84] Creating Layer pool4/3x3_s2
I0505 13:14:51.215580 19153 net.cpp:406] pool4/3x3_s2 <- inception_4e/output
I0505 13:14:51.215586 19153 net.cpp:380] pool4/3x3_s2 -> pool4/3x3_s2
I0505 13:14:51.215622 19153 net.cpp:122] Setting up pool4/3x3_s2
I0505 13:14:51.215627 19153 net.cpp:129] Top shape: 32 832 7 7 (1304576)
I0505 13:14:51.215631 19153 net.cpp:137] Memory required for data: 1701971464
I0505 13:14:51.215634 19153 layer_factory.hpp:77] Creating layer pool4/3x3_s2_pool4/3x3_s2_0_split
I0505 13:14:51.215639 19153 net.cpp:84] Creating Layer pool4/3x3_s2_pool4/3x3_s2_0_split
I0505 13:14:51.215643 19153 net.cpp:406] pool4/3x3_s2_pool4/3x3_s2_0_split <- pool4/3x3_s2
I0505 13:14:51.215649 19153 net.cpp:380] pool4/3x3_s2_pool4/3x3_s2_0_split -> pool4/3x3_s2_pool4/3x3_s2_0_split_0
I0505 13:14:51.215656 19153 net.cpp:380] pool4/3x3_s2_pool4/3x3_s2_0_split -> pool4/3x3_s2_pool4/3x3_s2_0_split_1
I0505 13:14:51.215662 19153 net.cpp:380] pool4/3x3_s2_pool4/3x3_s2_0_split -> pool4/3x3_s2_pool4/3x3_s2_0_split_2
I0505 13:14:51.215669 19153 net.cpp:380] pool4/3x3_s2_pool4/3x3_s2_0_split -> pool4/3x3_s2_pool4/3x3_s2_0_split_3
I0505 13:14:51.215714 19153 net.cpp:122] Setting up pool4/3x3_s2_pool4/3x3_s2_0_split
I0505 13:14:51.215719 19153 net.cpp:129] Top shape: 32 832 7 7 (1304576)
I0505 13:14:51.215723 19153 net.cpp:129] Top shape: 32 832 7 7 (1304576)
I0505 13:14:51.215728 19153 net.cpp:129] Top shape: 32 832 7 7 (1304576)
I0505 13:14:51.215731 19153 net.cpp:129] Top shape: 32 832 7 7 (1304576)
I0505 13:14:51.215734 19153 net.cpp:137] Memory required for data: 1722844680
I0505 13:14:51.215737 19153 layer_factory.hpp:77] Creating layer inception_5a/1x1
I0505 13:14:51.215749 19153 net.cpp:84] Creating Layer inception_5a/1x1
I0505 13:14:51.215752 19153 net.cpp:406] inception_5a/1x1 <- pool4/3x3_s2_pool4/3x3_s2_0_split_0
I0505 13:14:51.215759 19153 net.cpp:380] inception_5a/1x1 -> inception_5a/1x1
I0505 13:14:51.221976 19153 net.cpp:122] Setting up inception_5a/1x1
I0505 13:14:51.221994 19153 net.cpp:129] Top shape: 32 256 7 7 (401408)
I0505 13:14:51.221998 19153 net.cpp:137] Memory required for data: 1724450312
I0505 13:14:51.222007 19153 layer_factory.hpp:77] Creating layer inception_5a/relu_1x1
I0505 13:14:51.222015 19153 net.cpp:84] Creating Layer inception_5a/relu_1x1
I0505 13:14:51.222021 19153 net.cpp:406] inception_5a/relu_1x1 <- inception_5a/1x1
I0505 13:14:51.222029 19153 net.cpp:367] inception_5a/relu_1x1 -> inception_5a/1x1 (in-place)
I0505 13:14:51.222754 19153 net.cpp:122] Setting up inception_5a/relu_1x1
I0505 13:14:51.222762 19153 net.cpp:129] Top shape: 32 256 7 7 (401408)
I0505 13:14:51.222766 19153 net.cpp:137] Memory required for data: 1726055944
I0505 13:14:51.222770 19153 layer_factory.hpp:77] Creating layer inception_5a/3x3_reduce
I0505 13:14:51.222781 19153 net.cpp:84] Creating Layer inception_5a/3x3_reduce
I0505 13:14:51.222786 19153 net.cpp:406] inception_5a/3x3_reduce <- pool4/3x3_s2_pool4/3x3_s2_0_split_1
I0505 13:14:51.222795 19153 net.cpp:380] inception_5a/3x3_reduce -> inception_5a/3x3_reduce
I0505 13:14:51.229401 19153 net.cpp:122] Setting up inception_5a/3x3_reduce
I0505 13:14:51.229418 19153 net.cpp:129] Top shape: 32 160 7 7 (250880)
I0505 13:14:51.229423 19153 net.cpp:137] Memory required for data: 1727059464
I0505 13:14:51.229431 19153 layer_factory.hpp:77] Creating layer inception_5a/relu_3x3_reduce
I0505 13:14:51.229441 19153 net.cpp:84] Creating Layer inception_5a/relu_3x3_reduce
I0505 13:14:51.229447 19153 net.cpp:406] inception_5a/relu_3x3_reduce <- inception_5a/3x3_reduce
I0505 13:14:51.229454 19153 net.cpp:367] inception_5a/relu_3x3_reduce -> inception_5a/3x3_reduce (in-place)
I0505 13:14:51.229811 19153 net.cpp:122] Setting up inception_5a/relu_3x3_reduce
I0505 13:14:51.229820 19153 net.cpp:129] Top shape: 32 160 7 7 (250880)
I0505 13:14:51.229823 19153 net.cpp:137] Memory required for data: 1728062984
I0505 13:14:51.229827 19153 layer_factory.hpp:77] Creating layer inception_5a/3x3
I0505 13:14:51.229838 19153 net.cpp:84] Creating Layer inception_5a/3x3
I0505 13:14:51.229842 19153 net.cpp:406] inception_5a/3x3 <- inception_5a/3x3_reduce
I0505 13:14:51.229851 19153 net.cpp:380] inception_5a/3x3 -> inception_5a/3x3
I0505 13:14:51.234880 19153 net.cpp:122] Setting up inception_5a/3x3
I0505 13:14:51.234895 19153 net.cpp:129] Top shape: 32 320 7 7 (501760)
I0505 13:14:51.234899 19153 net.cpp:137] Memory required for data: 1730070024
I0505 13:14:51.234908 19153 layer_factory.hpp:77] Creating layer inception_5a/relu_3x3
I0505 13:14:51.234915 19153 net.cpp:84] Creating Layer inception_5a/relu_3x3
I0505 13:14:51.234920 19153 net.cpp:406] inception_5a/relu_3x3 <- inception_5a/3x3
I0505 13:14:51.234928 19153 net.cpp:367] inception_5a/relu_3x3 -> inception_5a/3x3 (in-place)
I0505 13:14:51.235458 19153 net.cpp:122] Setting up inception_5a/relu_3x3
I0505 13:14:51.235468 19153 net.cpp:129] Top shape: 32 320 7 7 (501760)
I0505 13:14:51.235472 19153 net.cpp:137] Memory required for data: 1732077064
I0505 13:14:51.235476 19153 layer_factory.hpp:77] Creating layer inception_5a/5x5_reduce
I0505 13:14:51.235489 19153 net.cpp:84] Creating Layer inception_5a/5x5_reduce
I0505 13:14:51.235496 19153 net.cpp:406] inception_5a/5x5_reduce <- pool4/3x3_s2_pool4/3x3_s2_0_split_2
I0505 13:14:51.235503 19153 net.cpp:380] inception_5a/5x5_reduce -> inception_5a/5x5_reduce
I0505 13:14:51.241127 19153 net.cpp:122] Setting up inception_5a/5x5_reduce
I0505 13:14:51.241142 19153 net.cpp:129] Top shape: 32 32 7 7 (50176)
I0505 13:14:51.241147 19153 net.cpp:137] Memory required for data: 1732277768
I0505 13:14:51.241155 19153 layer_factory.hpp:77] Creating layer inception_5a/relu_5x5_reduce
I0505 13:14:51.241166 19153 net.cpp:84] Creating Layer inception_5a/relu_5x5_reduce
I0505 13:14:51.241173 19153 net.cpp:406] inception_5a/relu_5x5_reduce <- inception_5a/5x5_reduce
I0505 13:14:51.241179 19153 net.cpp:367] inception_5a/relu_5x5_reduce -> inception_5a/5x5_reduce (in-place)
I0505 13:14:51.241726 19153 net.cpp:122] Setting up inception_5a/relu_5x5_reduce
I0505 13:14:51.241736 19153 net.cpp:129] Top shape: 32 32 7 7 (50176)
I0505 13:14:51.241740 19153 net.cpp:137] Memory required for data: 1732478472
I0505 13:14:51.241745 19153 layer_factory.hpp:77] Creating layer inception_5a/5x5
I0505 13:14:51.241758 19153 net.cpp:84] Creating Layer inception_5a/5x5
I0505 13:14:51.241763 19153 net.cpp:406] inception_5a/5x5 <- inception_5a/5x5_reduce
I0505 13:14:51.241770 19153 net.cpp:380] inception_5a/5x5 -> inception_5a/5x5
I0505 13:14:51.243901 19153 net.cpp:122] Setting up inception_5a/5x5
I0505 13:14:51.243911 19153 net.cpp:129] Top shape: 32 128 7 7 (200704)
I0505 13:14:51.243916 19153 net.cpp:137] Memory required for data: 1733281288
I0505 13:14:51.243923 19153 layer_factory.hpp:77] Creating layer inception_5a/relu_5x5
I0505 13:14:51.243932 19153 net.cpp:84] Creating Layer inception_5a/relu_5x5
I0505 13:14:51.243937 19153 net.cpp:406] inception_5a/relu_5x5 <- inception_5a/5x5
I0505 13:14:51.243942 19153 net.cpp:367] inception_5a/relu_5x5 -> inception_5a/5x5 (in-place)
I0505 13:14:51.244493 19153 net.cpp:122] Setting up inception_5a/relu_5x5
I0505 13:14:51.244524 19153 net.cpp:129] Top shape: 32 128 7 7 (200704)
I0505 13:14:51.244527 19153 net.cpp:137] Memory required for data: 1734084104
I0505 13:14:51.244532 19153 layer_factory.hpp:77] Creating layer inception_5a/pool
I0505 13:14:51.244541 19153 net.cpp:84] Creating Layer inception_5a/pool
I0505 13:14:51.244546 19153 net.cpp:406] inception_5a/pool <- pool4/3x3_s2_pool4/3x3_s2_0_split_3
I0505 13:14:51.244554 19153 net.cpp:380] inception_5a/pool -> inception_5a/pool
I0505 13:14:51.244597 19153 net.cpp:122] Setting up inception_5a/pool
I0505 13:14:51.244603 19153 net.cpp:129] Top shape: 32 832 7 7 (1304576)
I0505 13:14:51.244608 19153 net.cpp:137] Memory required for data: 1739302408
I0505 13:14:51.244614 19153 layer_factory.hpp:77] Creating layer inception_5a/pool_proj
I0505 13:14:51.244626 19153 net.cpp:84] Creating Layer inception_5a/pool_proj
I0505 13:14:51.244632 19153 net.cpp:406] inception_5a/pool_proj <- inception_5a/pool
I0505 13:14:51.244638 19153 net.cpp:380] inception_5a/pool_proj -> inception_5a/pool_proj
I0505 13:14:51.248888 19153 net.cpp:122] Setting up inception_5a/pool_proj
I0505 13:14:51.248903 19153 net.cpp:129] Top shape: 32 128 7 7 (200704)
I0505 13:14:51.248908 19153 net.cpp:137] Memory required for data: 1740105224
I0505 13:14:51.248917 19153 layer_factory.hpp:77] Creating layer inception_5a/relu_pool_proj
I0505 13:14:51.248929 19153 net.cpp:84] Creating Layer inception_5a/relu_pool_proj
I0505 13:14:51.248935 19153 net.cpp:406] inception_5a/relu_pool_proj <- inception_5a/pool_proj
I0505 13:14:51.248944 19153 net.cpp:367] inception_5a/relu_pool_proj -> inception_5a/pool_proj (in-place)
I0505 13:14:51.254827 19153 net.cpp:122] Setting up inception_5a/relu_pool_proj
I0505 13:14:51.254850 19153 net.cpp:129] Top shape: 32 128 7 7 (200704)
I0505 13:14:51.254856 19153 net.cpp:137] Memory required for data: 1740908040
I0505 13:14:51.254863 19153 layer_factory.hpp:77] Creating layer inception_5a/output
I0505 13:14:51.254876 19153 net.cpp:84] Creating Layer inception_5a/output
I0505 13:14:51.254885 19153 net.cpp:406] inception_5a/output <- inception_5a/1x1
I0505 13:14:51.254897 19153 net.cpp:406] inception_5a/output <- inception_5a/3x3
I0505 13:14:51.254904 19153 net.cpp:406] inception_5a/output <- inception_5a/5x5
I0505 13:14:51.254909 19153 net.cpp:406] inception_5a/output <- inception_5a/pool_proj
I0505 13:14:51.254918 19153 net.cpp:380] inception_5a/output -> inception_5a/output
I0505 13:14:51.254978 19153 net.cpp:122] Setting up inception_5a/output
I0505 13:14:51.254989 19153 net.cpp:129] Top shape: 32 832 7 7 (1304576)
I0505 13:14:51.254995 19153 net.cpp:137] Memory required for data: 1746126344
I0505 13:14:51.255002 19153 layer_factory.hpp:77] Creating layer inception_5a/output_inception_5a/output_0_split
I0505 13:14:51.255012 19153 net.cpp:84] Creating Layer inception_5a/output_inception_5a/output_0_split
I0505 13:14:51.255018 19153 net.cpp:406] inception_5a/output_inception_5a/output_0_split <- inception_5a/output
I0505 13:14:51.255030 19153 net.cpp:380] inception_5a/output_inception_5a/output_0_split -> inception_5a/output_inception_5a/output_0_split_0
I0505 13:14:51.255041 19153 net.cpp:380] inception_5a/output_inception_5a/output_0_split -> inception_5a/output_inception_5a/output_0_split_1
I0505 13:14:51.255053 19153 net.cpp:380] inception_5a/output_inception_5a/output_0_split -> inception_5a/output_inception_5a/output_0_split_2
I0505 13:14:51.255061 19153 net.cpp:380] inception_5a/output_inception_5a/output_0_split -> inception_5a/output_inception_5a/output_0_split_3
I0505 13:14:51.255146 19153 net.cpp:122] Setting up inception_5a/output_inception_5a/output_0_split
I0505 13:14:51.255157 19153 net.cpp:129] Top shape: 32 832 7 7 (1304576)
I0505 13:14:51.255165 19153 net.cpp:129] Top shape: 32 832 7 7 (1304576)
I0505 13:14:51.255173 19153 net.cpp:129] Top shape: 32 832 7 7 (1304576)
I0505 13:14:51.255182 19153 net.cpp:129] Top shape: 32 832 7 7 (1304576)
I0505 13:14:51.255187 19153 net.cpp:137] Memory required for data: 1766999560
I0505 13:14:51.255195 19153 layer_factory.hpp:77] Creating layer inception_5b/1x1
I0505 13:14:51.255247 19153 net.cpp:84] Creating Layer inception_5b/1x1
I0505 13:14:51.255255 19153 net.cpp:406] inception_5b/1x1 <- inception_5a/output_inception_5a/output_0_split_0
I0505 13:14:51.255270 19153 net.cpp:380] inception_5b/1x1 -> inception_5b/1x1
I0505 13:14:51.269757 19153 net.cpp:122] Setting up inception_5b/1x1
I0505 13:14:51.269779 19153 net.cpp:129] Top shape: 32 384 7 7 (602112)
I0505 13:14:51.269783 19153 net.cpp:137] Memory required for data: 1769408008
I0505 13:14:51.269793 19153 layer_factory.hpp:77] Creating layer inception_5b/relu_1x1
I0505 13:14:51.269806 19153 net.cpp:84] Creating Layer inception_5b/relu_1x1
I0505 13:14:51.269814 19153 net.cpp:406] inception_5b/relu_1x1 <- inception_5b/1x1
I0505 13:14:51.269822 19153 net.cpp:367] inception_5b/relu_1x1 -> inception_5b/1x1 (in-place)
I0505 13:14:51.270192 19153 net.cpp:122] Setting up inception_5b/relu_1x1
I0505 13:14:51.270203 19153 net.cpp:129] Top shape: 32 384 7 7 (602112)
I0505 13:14:51.270210 19153 net.cpp:137] Memory required for data: 1771816456
I0505 13:14:51.270215 19153 layer_factory.hpp:77] Creating layer inception_5b/3x3_reduce
I0505 13:14:51.270227 19153 net.cpp:84] Creating Layer inception_5b/3x3_reduce
I0505 13:14:51.270234 19153 net.cpp:406] inception_5b/3x3_reduce <- inception_5a/output_inception_5a/output_0_split_1
I0505 13:14:51.270241 19153 net.cpp:380] inception_5b/3x3_reduce -> inception_5b/3x3_reduce
I0505 13:14:51.274379 19153 net.cpp:122] Setting up inception_5b/3x3_reduce
I0505 13:14:51.274392 19153 net.cpp:129] Top shape: 32 192 7 7 (301056)
I0505 13:14:51.274396 19153 net.cpp:137] Memory required for data: 1773020680
I0505 13:14:51.274405 19153 layer_factory.hpp:77] Creating layer inception_5b/relu_3x3_reduce
I0505 13:14:51.274412 19153 net.cpp:84] Creating Layer inception_5b/relu_3x3_reduce
I0505 13:14:51.274420 19153 net.cpp:406] inception_5b/relu_3x3_reduce <- inception_5b/3x3_reduce
I0505 13:14:51.274428 19153 net.cpp:367] inception_5b/relu_3x3_reduce -> inception_5b/3x3_reduce (in-place)
I0505 13:14:51.274824 19153 net.cpp:122] Setting up inception_5b/relu_3x3_reduce
I0505 13:14:51.274834 19153 net.cpp:129] Top shape: 32 192 7 7 (301056)
I0505 13:14:51.274839 19153 net.cpp:137] Memory required for data: 1774224904
I0505 13:14:51.274844 19153 layer_factory.hpp:77] Creating layer inception_5b/3x3
I0505 13:14:51.274857 19153 net.cpp:84] Creating Layer inception_5b/3x3
I0505 13:14:51.274863 19153 net.cpp:406] inception_5b/3x3 <- inception_5b/3x3_reduce
I0505 13:14:51.274871 19153 net.cpp:380] inception_5b/3x3 -> inception_5b/3x3
I0505 13:14:51.282347 19153 net.cpp:122] Setting up inception_5b/3x3
I0505 13:14:51.282366 19153 net.cpp:129] Top shape: 32 384 7 7 (602112)
I0505 13:14:51.282371 19153 net.cpp:137] Memory required for data: 1776633352
I0505 13:14:51.282382 19153 layer_factory.hpp:77] Creating layer inception_5b/relu_3x3
I0505 13:14:51.282392 19153 net.cpp:84] Creating Layer inception_5b/relu_3x3
I0505 13:14:51.282398 19153 net.cpp:406] inception_5b/relu_3x3 <- inception_5b/3x3
I0505 13:14:51.282405 19153 net.cpp:367] inception_5b/relu_3x3 -> inception_5b/3x3 (in-place)
I0505 13:14:51.282979 19153 net.cpp:122] Setting up inception_5b/relu_3x3
I0505 13:14:51.282991 19153 net.cpp:129] Top shape: 32 384 7 7 (602112)
I0505 13:14:51.282997 19153 net.cpp:137] Memory required for data: 1779041800
I0505 13:14:51.283004 19153 layer_factory.hpp:77] Creating layer inception_5b/5x5_reduce
I0505 13:14:51.283017 19153 net.cpp:84] Creating Layer inception_5b/5x5_reduce
I0505 13:14:51.283023 19153 net.cpp:406] inception_5b/5x5_reduce <- inception_5a/output_inception_5a/output_0_split_2
I0505 13:14:51.283032 19153 net.cpp:380] inception_5b/5x5_reduce -> inception_5b/5x5_reduce
I0505 13:14:51.284864 19153 net.cpp:122] Setting up inception_5b/5x5_reduce
I0505 13:14:51.284875 19153 net.cpp:129] Top shape: 32 48 7 7 (75264)
I0505 13:14:51.284883 19153 net.cpp:137] Memory required for data: 1779342856
I0505 13:14:51.284891 19153 layer_factory.hpp:77] Creating layer inception_5b/relu_5x5_reduce
I0505 13:14:51.284917 19153 net.cpp:84] Creating Layer inception_5b/relu_5x5_reduce
I0505 13:14:51.284924 19153 net.cpp:406] inception_5b/relu_5x5_reduce <- inception_5b/5x5_reduce
I0505 13:14:51.284934 19153 net.cpp:367] inception_5b/relu_5x5_reduce -> inception_5b/5x5_reduce (in-place)
I0505 13:14:51.285617 19153 net.cpp:122] Setting up inception_5b/relu_5x5_reduce
I0505 13:14:51.285629 19153 net.cpp:129] Top shape: 32 48 7 7 (75264)
I0505 13:14:51.285634 19153 net.cpp:137] Memory required for data: 1779643912
I0505 13:14:51.285640 19153 layer_factory.hpp:77] Creating layer inception_5b/5x5
I0505 13:14:51.285652 19153 net.cpp:84] Creating Layer inception_5b/5x5
I0505 13:14:51.285660 19153 net.cpp:406] inception_5b/5x5 <- inception_5b/5x5_reduce
I0505 13:14:51.285666 19153 net.cpp:380] inception_5b/5x5 -> inception_5b/5x5
I0505 13:14:51.299228 19153 net.cpp:122] Setting up inception_5b/5x5
I0505 13:14:51.299247 19153 net.cpp:129] Top shape: 32 128 7 7 (200704)
I0505 13:14:51.299250 19153 net.cpp:137] Memory required for data: 1780446728
I0505 13:14:51.299262 19153 layer_factory.hpp:77] Creating layer inception_5b/relu_5x5
I0505 13:14:51.299270 19153 net.cpp:84] Creating Layer inception_5b/relu_5x5
I0505 13:14:51.299276 19153 net.cpp:406] inception_5b/relu_5x5 <- inception_5b/5x5
I0505 13:14:51.299284 19153 net.cpp:367] inception_5b/relu_5x5 -> inception_5b/5x5 (in-place)
I0505 13:14:51.299957 19153 net.cpp:122] Setting up inception_5b/relu_5x5
I0505 13:14:51.299968 19153 net.cpp:129] Top shape: 32 128 7 7 (200704)
I0505 13:14:51.299970 19153 net.cpp:137] Memory required for data: 1781249544
I0505 13:14:51.299974 19153 layer_factory.hpp:77] Creating layer inception_5b/pool
I0505 13:14:51.299983 19153 net.cpp:84] Creating Layer inception_5b/pool
I0505 13:14:51.299986 19153 net.cpp:406] inception_5b/pool <- inception_5a/output_inception_5a/output_0_split_3
I0505 13:14:51.299994 19153 net.cpp:380] inception_5b/pool -> inception_5b/pool
I0505 13:14:51.300035 19153 net.cpp:122] Setting up inception_5b/pool
I0505 13:14:51.300041 19153 net.cpp:129] Top shape: 32 832 7 7 (1304576)
I0505 13:14:51.300045 19153 net.cpp:137] Memory required for data: 1786467848
I0505 13:14:51.300048 19153 layer_factory.hpp:77] Creating layer inception_5b/pool_proj
I0505 13:14:51.300060 19153 net.cpp:84] Creating Layer inception_5b/pool_proj
I0505 13:14:51.300065 19153 net.cpp:406] inception_5b/pool_proj <- inception_5b/pool
I0505 13:14:51.300071 19153 net.cpp:380] inception_5b/pool_proj -> inception_5b/pool_proj
I0505 13:14:51.306619 19153 net.cpp:122] Setting up inception_5b/pool_proj
I0505 13:14:51.306638 19153 net.cpp:129] Top shape: 32 128 7 7 (200704)
I0505 13:14:51.306641 19153 net.cpp:137] Memory required for data: 1787270664
I0505 13:14:51.306651 19153 layer_factory.hpp:77] Creating layer inception_5b/relu_pool_proj
I0505 13:14:51.306663 19153 net.cpp:84] Creating Layer inception_5b/relu_pool_proj
I0505 13:14:51.306668 19153 net.cpp:406] inception_5b/relu_pool_proj <- inception_5b/pool_proj
I0505 13:14:51.306674 19153 net.cpp:367] inception_5b/relu_pool_proj -> inception_5b/pool_proj (in-place)
I0505 13:14:51.307240 19153 net.cpp:122] Setting up inception_5b/relu_pool_proj
I0505 13:14:51.307250 19153 net.cpp:129] Top shape: 32 128 7 7 (200704)
I0505 13:14:51.307253 19153 net.cpp:137] Memory required for data: 1788073480
I0505 13:14:51.307257 19153 layer_factory.hpp:77] Creating layer inception_5b/output
I0505 13:14:51.307266 19153 net.cpp:84] Creating Layer inception_5b/output
I0505 13:14:51.307271 19153 net.cpp:406] inception_5b/output <- inception_5b/1x1
I0505 13:14:51.307276 19153 net.cpp:406] inception_5b/output <- inception_5b/3x3
I0505 13:14:51.307281 19153 net.cpp:406] inception_5b/output <- inception_5b/5x5
I0505 13:14:51.307284 19153 net.cpp:406] inception_5b/output <- inception_5b/pool_proj
I0505 13:14:51.307289 19153 net.cpp:380] inception_5b/output -> inception_5b/output
I0505 13:14:51.307319 19153 net.cpp:122] Setting up inception_5b/output
I0505 13:14:51.307325 19153 net.cpp:129] Top shape: 32 1024 7 7 (1605632)
I0505 13:14:51.307328 19153 net.cpp:137] Memory required for data: 1794496008
I0505 13:14:51.307349 19153 layer_factory.hpp:77] Creating layer pool5/7x7_s1
I0505 13:14:51.307358 19153 net.cpp:84] Creating Layer pool5/7x7_s1
I0505 13:14:51.307361 19153 net.cpp:406] pool5/7x7_s1 <- inception_5b/output
I0505 13:14:51.307368 19153 net.cpp:380] pool5/7x7_s1 -> pool5/7x7_s1
I0505 13:14:51.307909 19153 net.cpp:122] Setting up pool5/7x7_s1
I0505 13:14:51.307920 19153 net.cpp:129] Top shape: 32 1024 1 1 (32768)
I0505 13:14:51.307924 19153 net.cpp:137] Memory required for data: 1794627080
I0505 13:14:51.307927 19153 layer_factory.hpp:77] Creating layer pool5/drop_7x7_s1
I0505 13:14:51.307934 19153 net.cpp:84] Creating Layer pool5/drop_7x7_s1
I0505 13:14:51.307938 19153 net.cpp:406] pool5/drop_7x7_s1 <- pool5/7x7_s1
I0505 13:14:51.307945 19153 net.cpp:367] pool5/drop_7x7_s1 -> pool5/7x7_s1 (in-place)
I0505 13:14:51.307967 19153 net.cpp:122] Setting up pool5/drop_7x7_s1
I0505 13:14:51.307972 19153 net.cpp:129] Top shape: 32 1024 1 1 (32768)
I0505 13:14:51.307976 19153 net.cpp:137] Memory required for data: 1794758152
I0505 13:14:51.307978 19153 layer_factory.hpp:77] Creating layer loss3/classifier
I0505 13:14:51.307987 19153 net.cpp:84] Creating Layer loss3/classifier
I0505 13:14:51.307991 19153 net.cpp:406] loss3/classifier <- pool5/7x7_s1
I0505 13:14:51.307997 19153 net.cpp:380] loss3/classifier -> loss3/classifier
I0505 13:14:51.309073 19153 net.cpp:122] Setting up loss3/classifier
I0505 13:14:51.309082 19153 net.cpp:129] Top shape: 32 196 (6272)
I0505 13:14:51.309084 19153 net.cpp:137] Memory required for data: 1794783240
I0505 13:14:51.309092 19153 layer_factory.hpp:77] Creating layer loss3/loss
I0505 13:14:51.309099 19153 net.cpp:84] Creating Layer loss3/loss
I0505 13:14:51.309105 19153 net.cpp:406] loss3/loss <- loss3/classifier
I0505 13:14:51.309110 19153 net.cpp:406] loss3/loss <- label_train-data_1_split_2
I0505 13:14:51.309118 19153 net.cpp:380] loss3/loss -> loss
…
I0505 13:14:51.312542 19153 net.cpp:294] The NetState phase (1) differed from the phase (0) specified by a rule in layer train-data
I0505 13:14:51.313429 19153 net.cpp:51] Initializing net from parameters:
state {
phase: TEST
}
layer {
name: "val-data"
type: "Data"
top: "data"
top: "label"
include {
phase: TEST
}
transform_param {
mirror: false
crop_size: 224
mean_file: "/mnt/bigdisk/MANDIG2/digits/jobs/20200428-132136-11fe/mean.binaryproto"
}
data_param {
source: "/mnt/bigdisk/MANDIG2/digits/jobs/20200428-132136-11fe/val_db"
batch_size: 16
backend: LMDB
}
}
layer {
name: "conv1/7x7_s2"
type: "Convolution"
bottom: "data"
top: "conv1/7x7_s2"
param {
lr_mult: 1
decay_mult: 1
}
param {
lr_mult: 2
decay_mult: 0
}
convolution_param {
num_output: 64
pad: 3
kernel_size: 7
stride: 2
weight_filler {
type: "xavier"
std: 0.1
}
bias_filler {
type: "constant"
value: 0.2
}
}
}
layer {
name: "conv1/relu_7x7"
type: "ReLU"
bottom: "conv1/7x7_s2"
top: "conv1/7x7_s2"
}
layer {
name: "pool1/3x3_s2"
type: "Pooling"
bottom: "conv1/7x7_s2"
top: "pool1/3x3_s2"
pooling_param {
pool: MAX
kernel_size: 3
stride: 2
}
}
layer {
name: "pool1/norm1"
type: "LRN"
bottom: "pool1/3x3_s2"
top: "pool1/norm1"
lrn_param {
local_size: 5
alpha: 0.0001
beta: 0.75
}
}
layer {
name: "conv2/3x3_reduce"
type: "Convolution"
bottom: "pool1/norm1"
top: "conv2/3x3_reduce"
param {
lr_mult: 1
decay_mult: 1
}
param {
lr_mult: 2
decay_mult: 0
}
convolution_param {
num_output: 64
kernel_size: 1
weight_filler {
type: "xavier"
std: 0.1
}
bias_filler {
type: "constant"
value: 0.2
}
}
}
layer {
name: "conv2/relu_3x3_reduce"
type: "ReLU"
bottom: "conv2/3x3_reduce"
top: "conv2/3x3_reduce"
}
layer {
name: "conv2/3x3"
type: "Convolution"
bottom: "conv2/3x3_reduce"
top: "conv2/3x3"
param {
lr_mult: 1
decay_mult: 1
}
param {
lr_mult: 2
decay_mult: 0
}
convolution_param {
num_output: 192
pad: 1
kernel_size: 3
weight_filler {
type: "xavier"
std: 0.03
}
bias_filler {
type: "constant"
value: 0.2
}
}
}
layer {
name: "conv2/relu_3x3"
type: "ReLU"
bottom: "conv2/3x3"
top: "conv2/3x3"
}
layer {
name: "conv2/norm2"
type: "LRN"
bottom: "conv2/3x3"
top: "conv2/norm2"
lrn_param {
local_size: 5
alpha: 0.0001
beta: 0.75
}
}
layer {
name: "pool2/3x3_s2"
type: "Pooling"
bottom: "conv2/norm2"
top: "pool2/3x3_s2"
pooling_param {
pool: MAX
kernel_size: 3
stride: 2
}
}
layer {
name: "inception_3a/1x1"
type: "Convolution"
bottom: "pool2/3x3_s2"
top: "inception_3a/1x1"
param {
lr_mult: 1
decay_mult: 1
}
param {
lr_mult: 2
decay_mult: 0
}
convolution_param {
num_output: 64
kernel_size: 1
weight_filler {
type: "xavier"
std: 0.03
}
bias_filler {
type: "constant"
value: 0.2
}
}
}
layer {
name: "inception_3a/relu_1x1"
type: "ReLU"
bottom: "inception_3a/1x1"
top: "inception_3a/1x1"
}
layer {
name: "inception_3a/3x3_reduce"
type: "Convolution"
bottom: "pool2/3x3_s2"
top: "inception_3a/3x3_reduce"
param {
lr_mult: 1
decay_mult: 1
}
param {
lr_mult: 2
decay_mult: 0
}
convolution_param {
num_output: 96
kernel_size: 1
weight_filler {
type: "xavier"
std: 0.09
}
bias_filler {
type: "constant"
value: 0.2
}
}
}
layer {
name: "inception_3a/relu_3x3_reduce"
type: "ReLU"
bottom: "inception_3a/3x3_reduce"
top: "inception_3a/3x3_reduce"
}
layer {
name: "inception_3a/3x3"
type: "Convolution"
bottom: "inception_3a/3x3_reduce"
top: "inception_3a/3x3"
param {
lr_mult: 1
decay_mult: 1
}
param {
lr_mult: 2
decay_mult: 0
}
convolution_param {
num_output: 128
pad: 1
kernel_size: 3
weight_filler {
type: "xavier"
std: 0.03
}
bias_filler {
type: "constant"
value: 0.2
}
}
}
layer {
name: "inception_3a/relu_3x3"
type: "ReLU"
bottom: "inception_3a/3x3"
top: "inception_3a/3x3"
}
layer {
name: "inception_3a/5x5_reduce"
type: "Convolution"
bottom: "pool2/3x3_s2"
top: "inception_3a/5x5_reduce"
param {
lr_mult: 1
decay_mult: 1
}
param {
lr_mult: 2
decay_mult: 0
}
convolution_param {
num_output: 16
kernel_size: 1
weight_filler {
type: "xavier"
std: 0.2
}
bias_filler {
type: "constant"
value: 0.2
}
}
}
layer {
name: "inception_3a/relu_5x5_reduce"
type: "ReLU"
bottom: "inception_3a/5x5_reduce"
top: "inception_3a/5x5_reduce"
}
layer {
name: "inception_3a/5x5"
type: "Convolution"
bottom: "inception_3a/5x5_reduce"
top: "inception_3a/5x5"
param {
lr_mult: 1
decay_mult: 1
}
param {
lr_mult: 2
decay_mult: 0
}
convolution_param {
num_output: 32
pad: 2
kernel_size: 5
weight_filler {
type: "xavier"
std: 0.03
}
bias_filler {
type: "constant"
value: 0.2
}
}
}
layer {
name: "inception_3a/relu_5x5"
type: "ReLU"
bottom: "inception_3a/5x5"
top: "inception_3a/5x5"
}
layer {
name: "inception_3a/pool"
type: "Pooling"
bottom: "pool2/3x3_s2"
top: "inception_3a/pool"
pooling_param {
pool: MAX
kernel_size: 3
stride: 1
pad: 1
}
}
layer {
name: "inception_3a/pool_proj"
type: "Convolution"
bottom: "inception_3a/pool"
top: "inception_3a/pool_proj"
param {
lr_mult: 1
decay_mult: 1
}
param {
lr_mult: 2
decay_mult: 0
}
convolution_param {
num_output: 32
kernel_size: 1
weight_filler {
type: "xavier"
std: 0.1
}
bias_filler {
type: "constant"
value: 0.2
}
}
}
layer {
name: "inception_3a/relu_pool_proj"
type: "ReLU"
bottom: "inception_3a/pool_proj"
top: "inception_3a/pool_proj"
}
layer {
name: "inception_3a/output"
type: "Concat"
bottom: "inception_3a/1x1"
bottom: "inception_3a/3x3"
bottom: "inception_3a/5x5"
bottom: "inception_3a/pool_proj"
top: "inception_3a/output"
}
layer {
name: "inception_3b/1x1"
type: "Convolution"
bottom: "inception_3a/output"
top: "inception_3b/1x1"
param {
lr_mult: 1
decay_mult: 1
}
param {
lr_mult: 2
decay_mult: 0
}
convolution_param {
num_output: 128
kernel_size: 1
weight_filler {
type: "xavier"
std: 0.03
}
bias_filler {
type: "constant"
value: 0.2
}
}
}
layer {
name: "inception_3b/relu_1x1"
type: "ReLU"
bottom: "inception_3b/1x1"
top: "inception_3b/1x1"
}
layer {
name: "inception_3b/3x3_reduce"
type: "Convolution"
bottom: "inception_3a/output"
top: "inception_3b/3x3_reduce"
param {
lr_mult: 1
decay_mult: 1
}
param {
lr_mult: 2
decay_mult: 0
}
convolution_param {
num_output: 128
kernel_size: 1
weight_filler {
type: "xavier"
std: 0.09
}
bias_filler {
type: "constant"
value: 0.2
}
}
}
layer {
name: "inception_3b/relu_3x3_reduce"
type: "ReLU"
bottom: "inception_3b/3x3_reduce"
top: "inception_3b/3x3_reduce"
}
layer {
name: "inception_3b/3x3"
type: "Convolution"
bottom: "inception_3b/3x3_reduce"
top: "inception_3b/3x3"
param {
lr_mult: 1
decay_mult: 1
}
param {
lr_mult: 2
decay_mult: 0
}
convolution_param {
num_output: 192
pad: 1
kernel_size: 3
weight_filler {
type: "xavier"
std: 0.03
}
bias_filler {
type: "constant"
value: 0.2
}
}
}
layer {
name: "inception_3b/relu_3x3"
type: "ReLU"
bottom: "inception_3b/3x3"
top: "inception_3b/3x3"
}
layer {
name: "inception_3b/5x5_reduce"
type: "Convolution"
bottom: "inception_3a/output"
top: "inception_3b/5x5_reduce"
param {
lr_mult: 1
decay_mult: 1
}
param {
lr_mult: 2
decay_mult: 0
}
convolution_param {
num_output: 32
kernel_size: 1
weight_filler {
type: "xavier"
std: 0.2
}
bias_filler {
type: "constant"
value: 0.2
}
}
}
layer {
name: "inception_3b/relu_5x5_reduce"
type: "ReLU"
bottom: "inception_3b/5x5_reduce"
top: "inception_3b/5x5_reduce"
}
layer {
name: "inception_3b/5x5"
type: "Convolution"
bottom: "inception_3b/5x5_reduce"
top: "inception_3b/5x5"
param {
lr_mult: 1
decay_mult: 1
}
param {
lr_mult: 2
decay_mult: 0
}
convolution_param {
num_output: 96
pad: 2
kernel_size: 5
weight_filler {
type: "xavier"
std: 0.03
}
bias_filler {
type: "constant"
value: 0.2
}
}
}
layer {
name: "inception_3b/relu_5x5"
type: "ReLU"
bottom: "inception_3b/5x5"
top: "inception_3b/5x5"
}
layer {
name: "inception_3b/pool"
type: "Pooling"
bottom: "inception_3a/output"
top: "inception_3b/pool"
pooling_param {
pool: MAX
kernel_size: 3
stride: 1
pad: 1
}
}
layer {
name: "inception_3b/pool_proj"
type: "Convolution"
bottom: "inception_3b/pool"
top: "inception_3b/pool_proj"
param {
lr_mult: 1
decay_mult: 1
}
param {
lr_mult: 2
decay_mult: 0
}
convolution_param {
num_output: 64
kernel_size: 1
weight_filler {
type: "xavier"
std: 0.1
}
bias_filler {
type: "constant"
value: 0.2
}
}
}
layer {
name: "inception_3b/relu_pool_proj"
type: "ReLU"
bottom: "inception_3b/pool_proj"
top: "inception_3b/pool_proj"
}
layer {
name: "inception_3b/output"
type: "Concat"
bottom: "inception_3b/1x1"
bottom: "inception_3b/3x3"
bottom: "inception_3b/5x5"
bottom: "inception_3b/pool_proj"
top: "inception_3b/output"
}
layer {
name: "pool3/3x3_s2"
type: "Pooling"
bottom: "inception_3b/output"
top: "pool3/3x3_s2"
pooling_param {
pool: MAX
kernel_size: 3
stride: 2
}
}
layer {
name: "inception_4a/1x1"
type: "Convolution"
bottom: "pool3/3x3_s2"
top: "inception_4a/1x1"
param {
lr_mult: 1
decay_mult: 1
}
param {
lr_mult: 2
decay_mult: 0
}
convolution_param {
num_output: 192
kernel_size: 1
weight_filler {
type: "xavier"
std: 0.03
}
bias_filler {
type: "constant"
value: 0.2
}
}
}
layer {
name: "inception_4a/relu_1x1"
type: "ReLU"
bottom: "inception_4a/1x1"
top: "inception_4a/1x1"
}
layer {
name: "inception_4a/3x3_reduce"
type: "Convolution"
bottom: "pool3/3x3_s2"
top: "inception_4a/3x3_reduce"
param {
lr_mult: 1
decay_mult: 1
}
param {
lr_mult: 2
decay_mult: 0
}
convolution_param {
num_output: 96
kernel_size: 1
weight_filler {
type: "xavier"
std: 0.09
}
bias_filler {
type: "constant"
value: 0.2
}
}
}
layer {
name: "inception_4a/relu_3x3_reduce"
type: "ReLU"
bottom: "inception_4a/3x3_reduce"
top: "inception_4a/3x3_reduce"
}
layer {
name: "inception_4a/3x3"
type: "Convolution"
bottom: "inception_4a/3x3_reduce"
top: "inception_4a/3x3"
param {
lr_mult: 1
decay_mult: 1
}
param {
lr_mult: 2
decay_mult: 0
}
convolution_param {
num_output: 208
pad: 1
kernel_size: 3
weight_filler {
type: "xavier"
std: 0.03
}
bias_filler {
type: "constant"
value: 0.2
}
}
}
layer {
name: "inception_4a/relu_3x3"
type: "ReLU"
bottom: "inception_4a/3x3"
top: "inception_4a/3x3"
}
layer {
name: "inception_4a/5x5_reduce"
type: "Convolution"
bottom: "pool3/3x3_s2"
top: "inception_4a/5x5_reduce"
param {
lr_mult: 1
decay_mult: 1
}
param {
lr_mult: 2
decay_mult: 0
}
convolution_param {
num_output: 16
kernel_size: 1
weight_filler {
type: "xavier"
std: 0.2
}
bias_filler {
type: "constant"
value: 0.2
}
}
}
layer {
name: "inception_4a/relu_5x5_reduce"
type: "ReLU"
bottom: "inception_4a/5x5_reduce"
top: "inception_4a/5x5_reduce"
}
layer {
name: "inception_4a/5x5"
type: "Convolution"
bottom: "inception_4a/5x5_reduce"
top: "inception_4a/5x5"
param {
lr_mult: 1
decay_mult: 1
}
param {
lr_mult: 2
decay_mult: 0
}
convolution_param {
num_output: 48
pad: 2
kernel_size: 5
weight_filler {
type: "xavier"
std: 0.03
}
bias_filler {
type: "constant"
value: 0.2
}
}
}
layer {
name: "inception_4a/relu_5x5"
type: "ReLU"
bottom: "inception_4a/5x5"
top: "inception_4a/5x5"
}
layer {
name: "inception_4a/pool"
type: "Pooling"
bottom: "pool3/3x3_s2"
top: "inception_4a/pool"
pooling_param {
pool: MAX
kernel_size: 3
stride: 1
pad: 1
}
}
layer {
name: "inception_4a/pool_proj"
type: "Convolution"
bottom: "inception_4a/pool"
top: "inception_4a/pool_proj"
param {
lr_mult: 1
decay_mult: 1
}
param {
lr_mult: 2
decay_mult: 0
}
convolution_param {
num_output: 64
kernel_size: 1
weight_filler {
type: "xavier"
std: 0.1
}
bias_filler {
type: "constant"
value: 0.2
}
}
}
layer {
name: "inception_4a/relu_pool_proj"
type: "ReLU"
bottom: "inception_4a/pool_proj"
top: "inception_4a/pool_proj"
}
layer {
name: "inception_4a/output"
type: "Concat"
bottom: "inception_4a/1x1"
bottom: "inception_4a/3x3"
bottom: "inception_4a/5x5"
bottom: "inception_4a/pool_proj"
top: "inception_4a/output"
}
layer {
name: "loss1/ave_pool"
type: "Pooling"
bottom: "inception_4a/output"
top: "loss1/ave_pool"
pooling_param {
pool: AVE
kernel_size: 5
stride: 3
}
}
layer {
name: "loss1/conv"
type: "Convolution"
bottom: "loss1/ave_pool"
top: "loss1/conv"
param {
lr_mult: 1
decay_mult: 1
}
param {
lr_mult: 2
decay_mult: 0
}
convolution_param {
num_output: 128
kernel_size: 1
weight_filler {
type: "xavier"
std: 0.08
}
bias_filler {
type: "constant"
value: 0.2
}
}
}
layer {
name: "loss1/relu_conv"
type: "ReLU"
bottom: "loss1/conv"
top: "loss1/conv"
}
layer {
name: "loss1/fc"
type: "InnerProduct"
bottom: "loss1/conv"
top: "loss1/fc"
param {
lr_mult: 1
decay_mult: 1
}
param {
lr_mult: 2
decay_mult: 0
}
inner_product_param {
num_output: 1024
weight_filler {
type: "xavier"
std: 0.02
}
bias_filler {
type: "constant"
value: 0.2
}
}
}
layer {
name: "loss1/relu_fc"
type: "ReLU"
bottom: "loss1/fc"
top: "loss1/fc"
}
layer {
name: "loss1/drop_fc"
type: "Dropout"
bottom: "loss1/fc"
top: "loss1/fc"
dropout_param {
dropout_ratio: 0.7
}
}
layer {
name: "loss1/classifier"
type: "InnerProduct"
bottom: "loss1/fc"
top: "loss1/classifier"
param {
lr_mult: 1
decay_mult: 1
}
param {
lr_mult: 2
decay_mult: 0
}
inner_product_param {
num_output: 196
weight_filler {
type: "xavier"
std: 0.0009765625
}
bias_filler {
type: "constant"
value: 0
}
}
}
layer {
name: "loss1/loss"
type: "SoftmaxWithLoss"
bottom: "loss1/classifier"
bottom: "label"
top: "loss1/loss"
loss_weight: 0.3
}
layer {
name: "loss1/top-1"
type: "Accuracy"
bottom: "loss1/classifier"
bottom: "label"
top: "loss1/accuracy"
include {
phase: TEST
}
}
layer {
name: "loss1/top-5"
type: "Accuracy"
bottom: "loss1/classifier"
bottom: "label"
top: "loss1/accuracy-top5"
include {
phase: TEST
}
accuracy_param {
top_k: 5
}
}
layer {
name: "inception_4b/1x1"
type: "Convolution"
bottom: "inception_4a/output"
top: "inception_4b/1x1"
param {
lr_mult: 1
decay_mult: 1
}
param {
lr_mult: 2
decay_mult: 0
}
convolution_param {
num_output: 160
kernel_size: 1
weight_filler {
type: "xavier"
std: 0.03
}
bias_filler {
type: "constant"
value: 0.2
}
}
}
layer {
name: "inception_4b/relu_1x1"
type: "ReLU"
bottom: "inception_4b/1x1"
top: "inception_4b/1x1"
}
layer {
name: "inception_4b/3x3_reduce"
type: "Convolution"
bottom: "inception_4a/output"
top: "inception_4b/3x3_reduce"
param {
lr_mult: 1
decay_mult: 1
}
param {
lr_mult: 2
decay_mult: 0
}
convolution_param {
num_output: 112
kernel_size: 1
weight_filler {
type: "xavier"
std: 0.09
}
bias_filler {
type: "constant"
value: 0.2
}
}
}
layer {
name: "inception_4b/relu_3x3_reduce"
type: "ReLU"
bottom: "inception_4b/3x3_reduce"
top: "inception_4b/3x3_reduce"
}
layer {
name: "inception_4b/3x3"
type: "Convolution"
bottom: "inception_4b/3x3_reduce"
top: "inception_4b/3x3"
param {
lr_mult: 1
decay_mult: 1
}
param {
lr_mult: 2
decay_mult: 0
}
convolution_param {
num_output: 224
pad: 1
kernel_size: 3
weight_filler {
type: "xavier"
std: 0.03
}
bias_filler {
type: "constant"
value: 0.2
}
}
}
layer {
name: "inception_4b/relu_3x3"
type: "ReLU"
bottom: "inception_4b/3x3"
top: "inception_4b/3x3"
}
layer {
name: "inception_4b/5x5_reduce"
type: "Convolution"
bottom: "inception_4a/output"
top: "inception_4b/5x5_reduce"
param {
lr_mult: 1
decay_mult: 1
}
param {
lr_mult: 2
decay_mult: 0
}
convolution_param {
num_output: 24
kernel_size: 1
weight_filler {
type: "xavier"
std: 0.2
}
bias_filler {
type: "constant"
value: 0.2
}
}
}
layer {
name: "inception_4b/relu_5x5_reduce"
type: "ReLU"
bottom: "inception_4b/5x5_reduce"
top: "inception_4b/5x5_reduce"
}
layer {
name: "inception_4b/5x5"
type: "Convolution"
bottom: "inception_4b/5x5_reduce"
top: "inception_4b/5x5"
param {
lr_mult: 1
decay_mult: 1
}
param {
lr_mult: 2
decay_mult: 0
}
convolution_param {
num_output: 64
pad: 2
kernel_size: 5
weight_filler {
type: "xavier"
std: 0.03
}
bias_filler {
type: "constant"
value: 0.2
}
}
}
layer {
name: "inception_4b/relu_5x5"
type: "ReLU"
bottom: "inception_4b/5x5"
top: "inception_4b/5x5"
}
layer {
name: "inception_4b/pool"
type: "Pooling"
bottom: "inception_4a/output"
top: "inception_4b/pool"
pooling_param {
pool: MAX
kernel_size: 3
stride: 1
pad: 1
}
}
layer {
name: "inception_4b/pool_proj"
type: "Convolution"
bottom: "inception_4b/pool"
top: "inception_4b/pool_proj"
param {
lr_mult: 1
decay_mult: 1
}
param {
lr_mult: 2
decay_mult: 0
}
convolution_param {
num_output: 64
kernel_size: 1
weight_filler {
type: "xavier"
std: 0.1
}
bias_filler {
type: "constant"
value: 0.2
}
}
}
layer {
name: "inception_4b/relu_pool_proj"
type: "ReLU"
bottom: "inception_4b/pool_proj"
top: "inception_4b/pool_proj"
}
layer {
name: "inception_4b/output"
type: "Concat"
bottom: "inception_4b/1x1"
bottom: "inception_4b/3x3"
bottom: "inception_4b/5x5"
bottom: "inception_4b/pool_proj"
top: "inception_4b/output"
}
layer {
name: "inception_4c/1x1"
type: "Convolution"
bottom: "inception_4b/output"
top: "inception_4c/1x1"
param {
lr_mult: 1
decay_mult: 1
}
param {
lr_mult: 2
decay_mult: 0
}
convolution_param {
num_output: 128
kernel_size: 1
weight_filler {
type: "xavier"
std: 0.03
}
bias_filler {
type: "constant"
value: 0.2
}
}
}
layer {
name: "inception_4c/relu_1x1"
type: "ReLU"
bottom: "inception_4c/1x1"
top: "inception_4c/1x1"
}
layer {
name: "inception_4c/3x3_reduce"
type: "Convolution"
bottom: "inception_4b/output"
top: "inception_4c/3x3_reduce"
param {
lr_mult: 1
decay_mult: 1
}
param {
lr_mult: 2
decay_mult: 0
}
convolution_param {
num_output: 128
kernel_size: 1
weight_filler {
type: "xavier"
std: 0.09
}
bias_filler {
type: "constant"
value: 0.2
}
}
}
layer {
name: "inception_4c/relu_3x3_reduce"
type: "ReLU"
bottom: "inception_4c/3x3_reduce"
top: "inception_4c/3x3_reduce"
}
layer {
name: "inception_4c/3x3"
type: "Convolution"
bottom: "inception_4c/3x3_reduce"
top: "inception_4c/3x3"
param {
lr_mult: 1
decay_mult: 1
}
param {
lr_mult: 2
decay_mult: 0
}
convolution_param {
num_output: 256
pad: 1
kernel_size: 3
weight_filler {
type: "xavier"
std: 0.03
}
bias_filler {
type: "constant"
value: 0.2
}
}
}
layer {
name: "inception_4c/relu_3x3"
type: "ReLU"
bottom: "inception_4c/3x3"
top: "inception_4c/3x3"
}
layer {
name: "inception_4c/5x5_reduce"
type: "Convolution"
bottom: "inception_4b/output"
top: "inception_4c/5x5_reduce"
param {
lr_mult: 1
decay_mult: 1
}
param {
lr_mult: 2
decay_mult: 0
}
convolution_param {
num_output: 24
kernel_size: 1
weight_filler {
type: "xavier"
std: 0.2
}
bias_filler {
type: "constant"
value: 0.2
}
}
}
layer {
name: "inception_4c/relu_5x5_reduce"
type: "ReLU"
bottom: "inception_4c/5x5_reduce"
top: "inception_4c/5x5_reduce"
}
layer {
name: "inception_4c/5x5"
type: "Convolution"
bottom: "inception_4c/5x5_reduce"
top: "inception_4c/5x5"
param {
lr_mult: 1
decay_mult: 1
}
param {
lr_mult: 2
decay_mult: 0
}
convolution_param {
num_output: 64
pad: 2
kernel_size: 5
weight_filler {
type: "xavier"
std: 0.03
}
bias_filler {
type: "constant"
value: 0.2
}
}
}
layer {
name: "inception_4c/relu_5x5"
type: "ReLU"
bottom: "inception_4c/5x5"
top: "inception_4c/5x5"
}
layer {
name: "inception_4c/pool"
type: "Pooling"
bottom: "inception_4b/output"
top: "inception_4c/pool"
pooling_param {
pool: MAX
kernel_size: 3
stride: 1
pad: 1
}
}
layer {
name: "inception_4c/pool_proj"
type: "Convolution"
bottom: "inception_4c/pool"
top: "inception_4c/pool_proj"
param {
lr_mult: 1
decay_mult: 1
}
param {
lr_mult: 2
decay_mult: 0
}
convolution_param {
num_output: 64
kernel_size: 1
weight_filler {
type: "xavier"
std: 0.1
}
bias_filler {
type: "constant"
value: 0.2
}
}
}
layer {
name: "inception_4c/relu_pool_proj"
type: "ReLU"
bottom: "inception_4c/pool_proj"
top: "inception_4c/pool_proj"
}
layer {
name: "inception_4c/output"
type: "Concat"
bottom: "inception_4c/1x1"
bottom: "inception_4c/3x3"
bottom: "inception_4c/5x5"
bottom: "inception_4c/pool_proj"
top: "inception_4c/output"
}
layer {
name: "inception_4d/1x1"
type: "Convolution"
bottom: "inception_4c/output"
top: "inception_4d/1x1"
param {
lr_mult: 1
decay_mult: 1
}
param {
lr_mult: 2
decay_mult: 0
}
convolution_param {
num_output: 112
kernel_size: 1
weight_filler {
type: "xavier"
std: 0.03
}
bias_filler {
type: "constant"
value: 0.2
}
}
}
layer {
name: "inception_4d/relu_1x1"
…
I0505 13:14:52.363590 19153 net.cpp:122] Setting up inception_4c/relu_5x5
I0505 13:14:52.363608 19153 net.cpp:129] Top shape: 16 64 14 14 (200704)
I0505 13:14:52.363612 19153 net.cpp:137] Memory required for data: 700688012
I0505 13:14:52.363620 19153 layer_factory.hpp:77] Creating layer inception_4c/pool
I0505 13:14:52.363633 19153 net.cpp:84] Creating Layer inception_4c/pool
I0505 13:14:52.363641 19153 net.cpp:406] inception_4c/pool <- inception_4b/output_inception_4b/output_0_split_3
I0505 13:14:52.363651 19153 net.cpp:380] inception_4c/pool -> inception_4c/pool
I0505 13:14:52.363710 19153 net.cpp:122] Setting up inception_4c/pool
I0505 13:14:52.363718 19153 net.cpp:129] Top shape: 16 512 14 14 (1605632)
I0505 13:14:52.363723 19153 net.cpp:137] Memory required for data: 707110540
I0505 13:14:52.363726 19153 layer_factory.hpp:77] Creating layer inception_4c/pool_proj
I0505 13:14:52.363739 19153 net.cpp:84] Creating Layer inception_4c/pool_proj
I0505 13:14:52.363745 19153 net.cpp:406] inception_4c/pool_proj <- inception_4c/pool
I0505 13:14:52.363754 19153 net.cpp:380] inception_4c/pool_proj -> inception_4c/pool_proj
I0505 13:14:52.365831 19153 net.cpp:122] Setting up inception_4c/pool_proj
I0505 13:14:52.365844 19153 net.cpp:129] Top shape: 16 64 14 14 (200704)
I0505 13:14:52.365847 19153 net.cpp:137] Memory required for data: 707913356
I0505 13:14:52.365856 19153 layer_factory.hpp:77] Creating layer inception_4c/relu_pool_proj
I0505 13:14:52.365864 19153 net.cpp:84] Creating Layer inception_4c/relu_pool_proj
I0505 13:14:52.365870 19153 net.cpp:406] inception_4c/relu_pool_proj <- inception_4c/pool_proj
I0505 13:14:52.365878 19153 net.cpp:367] inception_4c/relu_pool_proj -> inception_4c/pool_proj (in-place)
I0505 13:14:52.366431 19153 net.cpp:122] Setting up inception_4c/relu_pool_proj
I0505 13:14:52.366444 19153 net.cpp:129] Top shape: 16 64 14 14 (200704)
I0505 13:14:52.366449 19153 net.cpp:137] Memory required for data: 708716172
I0505 13:14:52.366456 19153 layer_factory.hpp:77] Creating layer inception_4c/output
I0505 13:14:52.366466 19153 net.cpp:84] Creating Layer inception_4c/output
I0505 13:14:52.366475 19153 net.cpp:406] inception_4c/output <- inception_4c/1x1
I0505 13:14:52.366539 19153 net.cpp:406] inception_4c/output <- inception_4c/3x3
I0505 13:14:52.366546 19153 net.cpp:406] inception_4c/output <- inception_4c/5x5
I0505 13:14:52.366551 19153 net.cpp:406] inception_4c/output <- inception_4c/pool_proj
I0505 13:14:52.366560 19153 net.cpp:380] inception_4c/output -> inception_4c/output
I0505 13:14:52.366607 19153 net.cpp:122] Setting up inception_4c/output
I0505 13:14:52.366617 19153 net.cpp:129] Top shape: 16 512 14 14 (1605632)
I0505 13:14:52.366622 19153 net.cpp:137] Memory required for data: 715138700
I0505 13:14:52.366628 19153 layer_factory.hpp:77] Creating layer inception_4c/output_inception_4c/output_0_split
I0505 13:14:52.366641 19153 net.cpp:84] Creating Layer inception_4c/output_inception_4c/output_0_split
I0505 13:14:52.366649 19153 net.cpp:406] inception_4c/output_inception_4c/output_0_split <- inception_4c/output
I0505 13:14:52.366658 19153 net.cpp:380] inception_4c/output_inception_4c/output_0_split -> inception_4c/output_inception_4c/output_0_split_0
I0505 13:14:52.366672 19153 net.cpp:380] inception_4c/output_inception_4c/output_0_split -> inception_4c/output_inception_4c/output_0_split_1
I0505 13:14:52.366683 19153 net.cpp:380] inception_4c/output_inception_4c/output_0_split -> inception_4c/output_inception_4c/output_0_split_2
I0505 13:14:52.366693 19153 net.cpp:380] inception_4c/output_inception_4c/output_0_split -> inception_4c/output_inception_4c/output_0_split_3
I0505 13:14:52.366755 19153 net.cpp:122] Setting up inception_4c/output_inception_4c/output_0_split
I0505 13:14:52.366763 19153 net.cpp:129] Top shape: 16 512 14 14 (1605632)
I0505 13:14:52.366768 19153 net.cpp:129] Top shape: 16 512 14 14 (1605632)
I0505 13:14:52.366772 19153 net.cpp:129] Top shape: 16 512 14 14 (1605632)
I0505 13:14:52.366776 19153 net.cpp:129] Top shape: 16 512 14 14 (1605632)
I0505 13:14:52.366780 19153 net.cpp:137] Memory required for data: 740828812
I0505 13:14:52.366784 19153 layer_factory.hpp:77] Creating layer inception_4d/1x1
I0505 13:14:52.366794 19153 net.cpp:84] Creating Layer inception_4d/1x1
I0505 13:14:52.366798 19153 net.cpp:406] inception_4d/1x1 <- inception_4c/output_inception_4c/output_0_split_0
I0505 13:14:52.366806 19153 net.cpp:380] inception_4d/1x1 -> inception_4d/1x1
I0505 13:14:52.368774 19153 net.cpp:122] Setting up inception_4d/1x1
I0505 13:14:52.368785 19153 net.cpp:129] Top shape: 16 112 14 14 (351232)
I0505 13:14:52.368789 19153 net.cpp:137] Memory required for data: 742233740
I0505 13:14:52.368798 19153 layer_factory.hpp:77] Creating layer inception_4d/relu_1x1
I0505 13:14:52.368803 19153 net.cpp:84] Creating Layer inception_4d/relu_1x1
I0505 13:14:52.710171 19153 net.cpp:406] inception_4d/relu_1x1 <- inception_4d/1x1
I0505 13:14:52.710206 19153 net.cpp:367] inception_4d/relu_1x1 -> inception_4d/1x1 (in-place)
I0505 13:14:52.711246 19153 net.cpp:122] Setting up inception_4d/relu_1x1
I0505 13:14:52.711266 19153 net.cpp:129] Top shape: 16 112 14 14 (351232)
I0505 13:14:52.711272 19153 net.cpp:137] Memory required for data: 743638668
I0505 13:14:52.711278 19153 layer_factory.hpp:77] Creating layer inception_4d/3x3_reduce
I0505 13:14:52.711298 19153 net.cpp:84] Creating Layer inception_4d/3x3_reduce
I0505 13:14:52.711306 19153 net.cpp:406] inception_4d/3x3_reduce <- inception_4c/output_inception_4c/output_0_split_1
I0505 13:14:52.711319 19153 net.cpp:380] inception_4d/3x3_reduce -> inception_4d/3x3_reduce
I0505 13:14:52.715772 19153 net.cpp:122] Setting up inception_4d/3x3_reduce
I0505 13:14:52.715790 19153 net.cpp:129] Top shape: 16 144 14 14 (451584)
I0505 13:14:52.715795 19153 net.cpp:137] Memory required for data: 745445004
I0505 13:14:52.715806 19153 layer_factory.hpp:77] Creating layer inception_4d/relu_3x3_reduce
I0505 13:14:52.715816 19153 net.cpp:84] Creating Layer inception_4d/relu_3x3_reduce
I0505 13:14:52.715823 19153 net.cpp:406] inception_4d/relu_3x3_reduce <- inception_4d/3x3_reduce
I0505 13:14:52.715829 19153 net.cpp:367] inception_4d/relu_3x3_reduce -> inception_4d/3x3_reduce (in-place)
I0505 13:14:52.716207 19153 net.cpp:122] Setting up inception_4d/relu_3x3_reduce
I0505 13:14:52.716239 19153 net.cpp:129] Top shape: 16 144 14 14 (451584)
I0505 13:14:52.716244 19153 net.cpp:137] Memory required for data: 747251340
I0505 13:14:52.716249 19153 layer_factory.hpp:77] Creating layer inception_4d/3x3
I0505 13:14:52.716261 19153 net.cpp:84] Creating Layer inception_4d/3x3
I0505 13:14:52.716266 19153 net.cpp:406] inception_4d/3x3 <- inception_4d/3x3_reduce
I0505 13:14:52.716274 19153 net.cpp:380] inception_4d/3x3 -> inception_4d/3x3
I0505 13:14:52.722084 19153 net.cpp:122] Setting up inception_4d/3x3
I0505 13:14:52.722102 19153 net.cpp:129] Top shape: 16 288 14 14 (903168)
I0505 13:14:52.722106 19153 net.cpp:137] Memory required for data: 750864012
I0505 13:14:52.722116 19153 layer_factory.hpp:77] Creating layer inception_4d/relu_3x3
I0505 13:14:52.722126 19153 net.cpp:84] Creating Layer inception_4d/relu_3x3
I0505 13:14:52.722132 19153 net.cpp:406] inception_4d/relu_3x3 <- inception_4d/3x3
I0505 13:14:52.722139 19153 net.cpp:367] inception_4d/relu_3x3 -> inception_4d/3x3 (in-place)
I0505 13:14:52.722596 19153 net.cpp:122] Setting up inception_4d/relu_3x3
I0505 13:14:52.722609 19153 net.cpp:129] Top shape: 16 288 14 14 (903168)
I0505 13:14:52.722615 19153 net.cpp:137] Memory required for data: 754476684
I0505 13:14:52.722620 19153 layer_factory.hpp:77] Creating layer inception_4d/5x5_reduce
I0505 13:14:52.722635 19153 net.cpp:84] Creating Layer inception_4d/5x5_reduce
I0505 13:14:52.722642 19153 net.cpp:406] inception_4d/5x5_reduce <- inception_4c/output_inception_4c/output_0_split_2
I0505 13:14:52.722653 19153 net.cpp:380] inception_4d/5x5_reduce -> inception_4d/5x5_reduce
I0505 13:14:52.729070 19153 net.cpp:122] Setting up inception_4d/5x5_reduce
I0505 13:14:52.729095 19153 net.cpp:129] Top shape: 16 32 14 14 (100352)
I0505 13:14:52.729101 19153 net.cpp:137] Memory required for data: 754878092
I0505 13:14:52.729115 19153 layer_factory.hpp:77] Creating layer inception_4d/relu_5x5_reduce
I0505 13:14:52.729128 19153 net.cpp:84] Creating Layer inception_4d/relu_5x5_reduce
I0505 13:14:52.729137 19153 net.cpp:406] inception_4d/relu_5x5_reduce <- inception_4d/5x5_reduce
I0505 13:14:52.729149 19153 net.cpp:367] inception_4d/relu_5x5_reduce -> inception_4d/5x5_reduce (in-place)
I0505 13:14:52.730428 19153 net.cpp:122] Setting up inception_4d/relu_5x5_reduce
I0505 13:14:52.730443 19153 net.cpp:129] Top shape: 16 32 14 14 (100352)
I0505 13:14:52.730448 19153 net.cpp:137] Memory required for data: 755279500
I0505 13:14:52.730455 19153 layer_factory.hpp:77] Creating layer inception_4d/5x5
I0505 13:14:52.730474 19153 net.cpp:84] Creating Layer inception_4d/5x5
I0505 13:14:52.730530 19153 net.cpp:406] inception_4d/5x5 <- inception_4d/5x5_reduce
I0505 13:14:52.730548 19153 net.cpp:380] inception_4d/5x5 -> inception_4d/5x5
I0505 13:14:52.732844 19153 net.cpp:122] Setting up inception_4d/5x5
I0505 13:14:52.732856 19153 net.cpp:129] Top shape: 16 64 14 14 (200704)
I0505 13:14:52.732859 19153 net.cpp:137] Memory required for data: 756082316
I0505 13:14:52.732867 19153 layer_factory.hpp:77] Creating layer inception_4d/relu_5x5
I0505 13:14:52.732875 19153 net.cpp:84] Creating Layer inception_4d/relu_5x5
I0505 13:14:52.732880 19153 net.cpp:406] inception_4d/relu_5x5 <- inception_4d/5x5
I0505 13:14:52.732885 19153 net.cpp:367] inception_4d/relu_5x5 -> inception_4d/5x5 (in-place)
I0505 13:14:52.733431 19153 net.cpp:122] Setting up inception_4d/relu_5x5
I0505 13:14:52.733441 19153 net.cpp:129] Top shape: 16 64 14 14 (200704)
I0505 13:14:52.733444 19153 net.cpp:137] Memory required for data: 756885132
I0505 13:14:52.733449 19153 layer_factory.hpp:77] Creating layer inception_4d/pool
I0505 13:14:52.733458 19153 net.cpp:84] Creating Layer inception_4d/pool
I0505 13:14:52.733464 19153 net.cpp:406] inception_4d/pool <- inception_4c/output_inception_4c/output_0_split_3
I0505 13:14:52.733469 19153 net.cpp:380] inception_4d/pool -> inception_4d/pool
I0505 13:14:52.733515 19153 net.cpp:122] Setting up inception_4d/pool
I0505 13:14:52.733520 19153 net.cpp:129] Top shape: 16 512 14 14 (1605632)
I0505 13:14:52.733546 19153 net.cpp:137] Memory required for data: 763307660
I0505 13:14:52.733549 19153 layer_factory.hpp:77] Creating layer inception_4d/pool_proj
I0505 13:14:52.733559 19153 net.cpp:84] Creating Layer inception_4d/pool_proj
I0505 13:14:52.733564 19153 net.cpp:406] inception_4d/pool_proj <- inception_4d/pool
I0505 13:14:52.733572 19153 net.cpp:380] inception_4d/pool_proj -> inception_4d/pool_proj
I0505 13:14:52.735553 19153 net.cpp:122] Setting up inception_4d/pool_proj
I0505 13:14:52.735564 19153 net.cpp:129] Top shape: 16 64 14 14 (200704)
I0505 13:14:52.735568 19153 net.cpp:137] Memory required for data: 764110476
I0505 13:14:52.735575 19153 layer_factory.hpp:77] Creating layer inception_4d/relu_pool_proj
I0505 13:14:52.735584 19153 net.cpp:84] Creating Layer inception_4d/relu_pool_proj
I0505 13:14:52.735589 19153 net.cpp:406] inception_4d/relu_pool_proj <- inception_4d/pool_proj
I0505 13:14:52.735594 19153 net.cpp:367] inception_4d/relu_pool_proj -> inception_4d/pool_proj (in-place)
I0505 13:14:52.736148 19153 net.cpp:122] Setting up inception_4d/relu_pool_proj
I0505 13:14:52.736158 19153 net.cpp:129] Top shape: 16 64 14 14 (200704)
I0505 13:14:52.736161 19153 net.cpp:137] Memory required for data: 764913292
I0505 13:14:52.736166 19153 layer_factory.hpp:77] Creating layer inception_4d/output
I0505 13:14:52.736172 19153 net.cpp:84] Creating Layer inception_4d/output
I0505 13:14:52.736176 19153 net.cpp:406] inception_4d/output <- inception_4d/1x1
I0505 13:14:52.736181 19153 net.cpp:406] inception_4d/output <- inception_4d/3x3
I0505 13:14:52.736186 19153 net.cpp:406] inception_4d/output <- inception_4d/5x5
I0505 13:14:52.736191 19153 net.cpp:406] inception_4d/output <- inception_4d/pool_proj
I0505 13:14:52.736196 19153 net.cpp:380] inception_4d/output -> inception_4d/output
I0505 13:14:52.736227 19153 net.cpp:122] Setting up inception_4d/output
I0505 13:14:52.736232 19153 net.cpp:129] Top shape: 16 528 14 14 (1655808)
I0505 13:14:52.736236 19153 net.cpp:137] Memory required for data: 771536524
I0505 13:14:52.736239 19153 layer_factory.hpp:77] Creating layer inception_4d/output_inception_4d/output_0_split
I0505 13:14:52.736246 19153 net.cpp:84] Creating Layer inception_4d/output_inception_4d/output_0_split
I0505 13:14:52.736250 19153 net.cpp:406] inception_4d/output_inception_4d/output_0_split <- inception_4d/output
I0505 13:14:52.736256 19153 net.cpp:380] inception_4d/output_inception_4d/output_0_split -> inception_4d/output_inception_4d/output_0_split_0
I0505 13:14:52.736263 19153 net.cpp:380] inception_4d/output_inception_4d/output_0_split -> inception_4d/output_inception_4d/output_0_split_1
I0505 13:14:52.736269 19153 net.cpp:380] inception_4d/output_inception_4d/output_0_split -> inception_4d/output_inception_4d/output_0_split_2
I0505 13:14:52.736276 19153 net.cpp:380] inception_4d/output_inception_4d/output_0_split -> inception_4d/output_inception_4d/output_0_split_3
I0505 13:14:52.736282 19153 net.cpp:380] inception_4d/output_inception_4d/output_0_split -> inception_4d/output_inception_4d/output_0_split_4
I0505 13:14:52.736342 19153 net.cpp:122] Setting up inception_4d/output_inception_4d/output_0_split
I0505 13:14:52.736348 19153 net.cpp:129] Top shape: 16 528 14 14 (1655808)
I0505 13:14:52.736352 19153 net.cpp:129] Top shape: 16 528 14 14 (1655808)
I0505 13:14:52.736356 19153 net.cpp:129] Top shape: 16 528 14 14 (1655808)
I0505 13:14:52.736361 19153 net.cpp:129] Top shape: 16 528 14 14 (1655808)
I0505 13:14:52.736363 19153 net.cpp:129] Top shape: 16 528 14 14 (1655808)
I0505 13:14:52.736367 19153 net.cpp:137] Memory required for data: 804652684
I0505 13:14:52.736371 19153 layer_factory.hpp:77] Creating layer loss2/ave_pool
I0505 13:14:52.736377 19153 net.cpp:84] Creating Layer loss2/ave_pool
I0505 13:14:52.736380 19153 net.cpp:406] loss2/ave_pool <- inception_4d/output_inception_4d/output_0_split_0
I0505 13:14:52.736387 19153 net.cpp:380] loss2/ave_pool -> loss2/ave_pool
I0505 13:14:52.738780 19153 net.cpp:122] Setting up loss2/ave_pool
I0505 13:14:52.738795 19153 net.cpp:129] Top shape: 16 528 4 4 (135168)
I0505 13:14:52.738814 19153 net.cpp:137] Memory required for data: 805193356
I0505 13:14:52.738821 19153 layer_factory.hpp:77] Creating layer loss2/conv
I0505 13:14:52.738833 19153 net.cpp:84] Creating Layer loss2/conv
I0505 13:14:52.738838 19153 net.cpp:406] loss2/conv <- loss2/ave_pool
I0505 13:14:52.738847 19153 net.cpp:380] loss2/conv -> loss2/conv
I0505 13:14:52.741263 19153 net.cpp:122] Setting up loss2/conv
I0505 13:14:52.741276 19153 net.cpp:129] Top shape: 16 128 4 4 (32768)
I0505 13:14:52.741279 19153 net.cpp:137] Memory required for data: 805324428
I0505 13:14:52.741288 19153 layer_factory.hpp:77] Creating layer loss2/relu_conv
I0505 13:14:52.741295 19153 net.cpp:84] Creating Layer loss2/relu_conv
I0505 13:14:52.741299 19153 net.cpp:406] loss2/relu_conv <- loss2/conv
I0505 13:14:52.741307 19153 net.cpp:367] loss2/relu_conv -> loss2/conv (in-place)
I0505 13:14:52.741979 19153 net.cpp:122] Setting up loss2/relu_conv
I0505 13:14:52.741993 19153 net.cpp:129] Top shape: 16 128 4 4 (32768)
I0505 13:14:52.741998 19153 net.cpp:137] Memory required for data: 805455500
I0505 13:14:52.742003 19153 layer_factory.hpp:77] Creating layer loss2/fc
I0505 13:14:52.742013 19153 net.cpp:84] Creating Layer loss2/fc
I0505 13:14:52.742018 19153 net.cpp:406] loss2/fc <- loss2/conv
I0505 13:14:52.742029 19153 net.cpp:380] loss2/fc -> loss2/fc
I0505 13:14:52.762292 19153 net.cpp:122] Setting up loss2/fc
I0505 13:14:52.762311 19153 net.cpp:129] Top shape: 16 1024 (16384)
I0505 13:14:52.762315 19153 net.cpp:137] Memory required for data: 805521036
I0505 13:14:52.762324 19153 layer_factory.hpp:77] Creating layer loss2/relu_fc
I0505 13:14:52.762333 19153 net.cpp:84] Creating Layer loss2/relu_fc
I0505 13:14:52.762339 19153 net.cpp:406] loss2/relu_fc <- loss2/fc
I0505 13:14:52.762346 19153 net.cpp:367] loss2/relu_fc -> loss2/fc (in-place)
I0505 13:14:52.763061 19153 net.cpp:122] Setting up loss2/relu_fc
I0505 13:14:52.763069 19153 net.cpp:129] Top shape: 16 1024 (16384)
I0505 13:14:52.763073 19153 net.cpp:137] Memory required for data: 805586572
I0505 13:14:52.763077 19153 layer_factory.hpp:77] Creating layer loss2/drop_fc
I0505 13:14:52.763084 19153 net.cpp:84] Creating Layer loss2/drop_fc
I0505 13:14:52.763088 19153 net.cpp:406] loss2/drop_fc <- loss2/fc
I0505 13:14:52.763094 19153 net.cpp:367] loss2/drop_fc -> loss2/fc (in-place)
I0505 13:14:52.763120 19153 net.cpp:122] Setting up loss2/drop_fc
I0505 13:14:52.763125 19153 net.cpp:129] Top shape: 16 1024 (16384)
I0505 13:14:52.763128 19153 net.cpp:137] Memory required for data: 805652108
I0505 13:14:52.763131 19153 layer_factory.hpp:77] Creating layer loss2/classifier
I0505 13:14:52.763141 19153 net.cpp:84] Creating Layer loss2/classifier
I0505 13:14:52.763144 19153 net.cpp:406] loss2/classifier <- loss2/fc
I0505 13:14:52.763151 19153 net.cpp:380] loss2/classifier -> loss2/classifier
I0505 13:14:52.765532 19153 net.cpp:122] Setting up loss2/classifier
I0505 13:14:52.765544 19153 net.cpp:129] Top shape: 16 196 (3136)
I0505 13:14:52.765547 19153 net.cpp:137] Memory required for data: 805664652
I0505 13:14:52.765554 19153 layer_factory.hpp:77] Creating layer loss2/classifier_loss2/classifier_0_split
I0505 13:14:52.765563 19153 net.cpp:84] Creating Layer loss2/classifier_loss2/classifier_0_split
I0505 13:14:52.765568 19153 net.cpp:406] loss2/classifier_loss2/classifier_0_split <- loss2/classifier
I0505 13:14:52.765574 19153 net.cpp:380] loss2/classifier_loss2/classifier_0_split -> loss2/classifier_loss2/classifier_0_split_0
I0505 13:14:52.765583 19153 net.cpp:380] loss2/classifier_loss2/classifier_0_split -> loss2/classifier_loss2/classifier_0_split_1
I0505 13:14:52.765589 19153 net.cpp:380] loss2/classifier_loss2/classifier_0_split -> loss2/classifier_loss2/classifier_0_split_2
I0505 13:14:52.765642 19153 net.cpp:122] Setting up loss2/classifier_loss2/classifier_0_split
I0505 13:14:52.765651 19153 net.cpp:129] Top shape: 16 196 (3136)
I0505 13:14:52.765657 19153 net.cpp:129] Top shape: 16 196 (3136)
I0505 13:14:52.765662 19153 net.cpp:129] Top shape: 16 196 (3136)
I0505 13:14:52.765691 19153 net.cpp:137] Memory required for data: 805702284
I0505 13:14:52.765697 19153 layer_factory.hpp:77] Creating layer loss2/loss
I0505 13:14:52.765707 19153 net.cpp:84] Creating Layer loss2/loss
I0505 13:14:52.765713 19153 net.cpp:406] loss2/loss <- loss2/classifier_loss2/classifier_0_split_0
I0505 13:14:52.765723 19153 net.cpp:406] loss2/loss <- label_val-data_1_split_3
…
I0505 13:14:52.766464 19153 net.cpp:122] Setting up loss2/top-5
I0505 13:14:52.766471 19153 net.cpp:129] Top shape: (1)
I0505 13:14:52.766476 19153 net.cpp:137] Memory required for data: 805702296
I0505 13:14:52.766530 19153 layer_factory.hpp:77] Creating layer inception_4e/1x1
I0505 13:14:52.766551 19153 net.cpp:84] Creating Layer inception_4e/1x1
I0505 13:14:52.766557 19153 net.cpp:406] inception_4e/1x1 <- inception_4d/output_inception_4d/output_0_split_1
I0505 13:14:52.766571 19153 net.cpp:380] inception_4e/1x1 -> inception_4e/1x1
I0505 13:14:52.770563 19153 net.cpp:122] Setting up inception_4e/1x1
I0505 13:14:52.770579 19153 net.cpp:129] Top shape: 16 256 14 14 (802816)
I0505 13:14:52.770582 19153 net.cpp:137] Memory required for data: 808913560
I0505 13:14:52.770591 19153 layer_factory.hpp:77] Creating layer inception_4e/relu_1x1
I0505 13:14:52.770601 19153 net.cpp:84] Creating Layer inception_4e/relu_1x1
I0505 13:14:52.770606 19153 net.cpp:406] inception_4e/relu_1x1 <- inception_4e/1x1
I0505 13:14:52.770612 19153 net.cpp:367] inception_4e/relu_1x1 -> inception_4e/1x1 (in-place)
I0505 13:14:52.773780 19153 net.cpp:122] Setting up inception_4e/relu_1x1
I0505 13:14:52.773797 19153 net.cpp:129] Top shape: 16 256 14 14 (802816)
I0505 13:14:52.773802 19153 net.cpp:137] Memory required for data: 812124824
I0505 13:14:52.773808 19153 layer_factory.hpp:77] Creating layer inception_4e/3x3_reduce
I0505 13:14:52.773851 19153 net.cpp:84] Creating Layer inception_4e/3x3_reduce
I0505 13:14:52.773857 19153 net.cpp:406] inception_4e/3x3_reduce <- inception_4d/output_inception_4d/output_0_split_2
I0505 13:14:52.773865 19153 net.cpp:380] inception_4e/3x3_reduce -> inception_4e/3x3_reduce
I0505 13:14:52.776682 19153 net.cpp:122] Setting up inception_4e/3x3_reduce
I0505 13:14:52.776696 19153 net.cpp:129] Top shape: 16 160 14 14 (501760)
I0505 13:14:52.776700 19153 net.cpp:137] Memory required for data: 814131864
I0505 13:14:52.776707 19153 layer_factory.hpp:77] Creating layer inception_4e/relu_3x3_reduce
I0505 13:14:52.776718 19153 net.cpp:84] Creating Layer inception_4e/relu_3x3_reduce
I0505 13:14:52.776723 19153 net.cpp:406] inception_4e/relu_3x3_reduce <- inception_4e/3x3_reduce
I0505 13:14:52.776729 19153 net.cpp:367] inception_4e/relu_3x3_reduce -> inception_4e/3x3_reduce (in-place)
I0505 13:14:52.788251 19153 net.cpp:122] Setting up inception_4e/relu_3x3_reduce
I0505 13:14:52.788271 19153 net.cpp:129] Top shape: 16 160 14 14 (501760)
I0505 13:14:52.788277 19153 net.cpp:137] Memory required for data: 816138904
I0505 13:14:52.788285 19153 layer_factory.hpp:77] Creating layer inception_4e/3x3
I0505 13:14:52.788305 19153 net.cpp:84] Creating Layer inception_4e/3x3
I0505 13:14:52.788311 19153 net.cpp:406] inception_4e/3x3 <- inception_4e/3x3_reduce
I0505 13:14:52.788321 19153 net.cpp:380] inception_4e/3x3 -> inception_4e/3x3
I0505 13:14:52.794466 19153 net.cpp:122] Setting up inception_4e/3x3
I0505 13:14:52.794534 19153 net.cpp:129] Top shape: 16 320 14 14 (1003520)
I0505 13:14:52.794543 19153 net.cpp:137] Memory required for data: 820152984
I0505 13:14:52.794555 19153 layer_factory.hpp:77] Creating layer inception_4e/relu_3x3
I0505 13:14:52.794566 19153 net.cpp:84] Creating Layer inception_4e/relu_3x3
I0505 13:14:52.794574 19153 net.cpp:406] inception_4e/relu_3x3 <- inception_4e/3x3
I0505 13:14:52.794586 19153 net.cpp:367] inception_4e/relu_3x3 -> inception_4e/3x3 (in-place)
I0505 13:14:52.795167 19153 net.cpp:122] Setting up inception_4e/relu_3x3
I0505 13:14:52.795178 19153 net.cpp:129] Top shape: 16 320 14 14 (1003520)
I0505 13:14:52.795182 19153 net.cpp:137] Memory required for data: 824167064
I0505 13:14:52.795187 19153 layer_factory.hpp:77] Creating layer inception_4e/5x5_reduce
I0505 13:14:52.795202 19153 net.cpp:84] Creating Layer inception_4e/5x5_reduce
I0505 13:14:52.795207 19153 net.cpp:406] inception_4e/5x5_reduce <- inception_4d/output_inception_4d/output_0_split_3
I0505 13:14:52.795214 19153 net.cpp:380] inception_4e/5x5_reduce -> inception_4e/5x5_reduce
I0505 13:14:52.798907 19153 net.cpp:122] Setting up inception_4e/5x5_reduce
I0505 13:14:52.798925 19153 net.cpp:129] Top shape: 16 32 14 14 (100352)
I0505 13:14:52.798930 19153 net.cpp:137] Memory required for data: 824568472
I0505 13:14:52.798940 19153 layer_factory.hpp:77] Creating layer inception_4e/relu_5x5_reduce
I0505 13:14:52.798951 19153 net.cpp:84] Creating Layer inception_4e/relu_5x5_reduce
I0505 13:14:52.798957 19153 net.cpp:406] inception_4e/relu_5x5_reduce <- inception_4e/5x5_reduce
I0505 13:14:52.798965 19153 net.cpp:367] inception_4e/relu_5x5_reduce -> inception_4e/5x5_reduce (in-place)
I0505 13:14:52.799571 19153 net.cpp:122] Setting up inception_4e/relu_5x5_reduce
I0505 13:14:52.799582 19153 net.cpp:129] Top shape: 16 32 14 14 (100352)
I0505 13:14:52.799587 19153 net.cpp:137] Memory required for data: 824969880
I0505 13:14:52.799592 19153 layer_factory.hpp:77] Creating layer inception_4e/5x5
I0505 13:14:52.799609 19153 net.cpp:84] Creating Layer inception_4e/5x5
I0505 13:14:52.799615 19153 net.cpp:406] inception_4e/5x5 <- inception_4e/5x5_reduce
I0505 13:14:52.799626 19153 net.cpp:380] inception_4e/5x5 -> inception_4e/5x5
I0505 13:14:52.804670 19153 net.cpp:122] Setting up inception_4e/5x5
I0505 13:14:52.804687 19153 net.cpp:129] Top shape: 16 128 14 14 (401408)
I0505 13:14:52.804690 19153 net.cpp:137] Memory required for data: 826575512
I0505 13:14:52.804699 19153 layer_factory.hpp:77] Creating layer inception_4e/relu_5x5
I0505 13:14:52.804708 19153 net.cpp:84] Creating Layer inception_4e/relu_5x5
I0505 13:14:52.804713 19153 net.cpp:406] inception_4e/relu_5x5 <- inception_4e/5x5
I0505 13:14:52.804719 19153 net.cpp:367] inception_4e/relu_5x5 -> inception_4e/5x5 (in-place)
I0505 13:14:52.805085 19153 net.cpp:122] Setting up inception_4e/relu_5x5
I0505 13:14:52.805094 19153 net.cpp:129] Top shape: 16 128 14 14 (401408)
I0505 13:14:52.805099 19153 net.cpp:137] Memory required for data: 828181144
I0505 13:14:52.805104 19153 layer_factory.hpp:77] Creating layer inception_4e/pool
I0505 13:14:52.805111 19153 net.cpp:84] Creating Layer inception_4e/pool
I0505 13:14:52.805117 19153 net.cpp:406] inception_4e/pool <- inception_4d/output_inception_4d/output_0_split_4
I0505 13:14:52.805125 19153 net.cpp:380] inception_4e/pool -> inception_4e/pool
I0505 13:14:52.805168 19153 net.cpp:122] Setting up inception_4e/pool
I0505 13:14:52.805192 19153 net.cpp:129] Top shape: 16 528 14 14 (1655808)
I0505 13:14:52.805197 19153 net.cpp:137] Memory required for data: 834804376
I0505 13:14:52.805203 19153 layer_factory.hpp:77] Creating layer inception_4e/pool_proj
I0505 13:14:52.805215 19153 net.cpp:84] Creating Layer inception_4e/pool_proj
I0505 13:14:52.805220 19153 net.cpp:406] inception_4e/pool_proj <- inception_4e/pool
I0505 13:14:52.805228 19153 net.cpp:380] inception_4e/pool_proj -> inception_4e/pool_proj
I0505 13:14:52.807844 19153 net.cpp:122] Setting up inception_4e/pool_proj
I0505 13:14:52.807862 19153 net.cpp:129] Top shape: 16 128 14 14 (401408)
I0505 13:14:52.807866 19153 net.cpp:137] Memory required for data: 836410008
I0505 13:14:52.807878 19153 layer_factory.hpp:77] Creating layer inception_4e/relu_pool_proj
I0505 13:14:52.807893 19153 net.cpp:84] Creating Layer inception_4e/relu_pool_proj
I0505 13:14:52.807904 19153 net.cpp:406] inception_4e/relu_pool_proj <- inception_4e/pool_proj
I0505 13:14:52.807911 19153 net.cpp:367] inception_4e/relu_pool_proj -> inception_4e/pool_proj (in-place)
I0505 13:14:52.812255 19153 net.cpp:122] Setting up inception_4e/relu_pool_proj
I0505 13:14:52.812273 19153 net.cpp:129] Top shape: 16 128 14 14 (401408)
I0505 13:14:52.812278 19153 net.cpp:137] Memory required for data: 838015640
I0505 13:14:52.812285 19153 layer_factory.hpp:77] Creating layer inception_4e/output
I0505 13:14:52.812295 19153 net.cpp:84] Creating Layer inception_4e/output
I0505 13:14:52.812302 19153 net.cpp:406] inception_4e/output <- inception_4e/1x1
I0505 13:14:52.812309 19153 net.cpp:406] inception_4e/output <- inception_4e/3x3
I0505 13:14:52.812314 19153 net.cpp:406] inception_4e/output <- inception_4e/5x5
I0505 13:14:52.812319 19153 net.cpp:406] inception_4e/output <- inception_4e/pool_proj
I0505 13:14:52.812324 19153 net.cpp:380] inception_4e/output -> inception_4e/output
I0505 13:14:52.812362 19153 net.cpp:122] Setting up inception_4e/output
I0505 13:14:52.812368 19153 net.cpp:129] Top shape: 16 832 14 14 (2609152)
I0505 13:14:52.812371 19153 net.cpp:137] Memory required for data: 848452248
I0505 13:14:52.812376 19153 layer_factory.hpp:77] Creating layer pool4/3x3_s2
I0505 13:14:52.812383 19153 net.cpp:84] Creating Layer pool4/3x3_s2
I0505 13:14:52.812387 19153 net.cpp:406] pool4/3x3_s2 <- inception_4e/output
I0505 13:14:52.812394 19153 net.cpp:380] pool4/3x3_s2 -> pool4/3x3_s2
I0505 13:14:52.812434 19153 net.cpp:122] Setting up pool4/3x3_s2
I0505 13:14:52.812440 19153 net.cpp:129] Top shape: 16 832 7 7 (652288)
I0505 13:14:52.812443 19153 net.cpp:137] Memory required for data: 851061400
I0505 13:14:52.812446 19153 layer_factory.hpp:77] Creating layer pool4/3x3_s2_pool4/3x3_s2_0_split
I0505 13:14:52.812453 19153 net.cpp:84] Creating Layer pool4/3x3_s2_pool4/3x3_s2_0_split
I0505 13:14:52.812458 19153 net.cpp:406] pool4/3x3_s2_pool4/3x3_s2_0_split <- pool4/3x3_s2
I0505 13:14:52.812465 19153 net.cpp:380] pool4/3x3_s2_pool4/3x3_s2_0_split -> pool4/3x3_s2_pool4/3x3_s2_0_split_0
I0505 13:14:52.812471 19153 net.cpp:380] pool4/3x3_s2_pool4/3x3_s2_0_split -> pool4/3x3_s2_pool4/3x3_s2_0_split_1
I0505 13:14:52.812477 19153 net.cpp:380] pool4/3x3_s2_pool4/3x3_s2_0_split -> pool4/3x3_s2_pool4/3x3_s2_0_split_2
I0505 13:14:52.812510 19153 net.cpp:380] pool4/3x3_s2_pool4/3x3_s2_0_split -> pool4/3x3_s2_pool4/3x3_s2_0_split_3
I0505 13:14:52.812558 19153 net.cpp:122] Setting up pool4/3x3_s2_pool4/3x3_s2_0_split
I0505 13:14:52.812564 19153 net.cpp:129] Top shape: 16 832 7 7 (652288)
I0505 13:14:52.812569 19153 net.cpp:129] Top shape: 16 832 7 7 (652288)
I0505 13:14:52.812575 19153 net.cpp:129] Top shape: 16 832 7 7 (652288)
I0505 13:14:52.812580 19153 net.cpp:129] Top shape: 16 832 7 7 (652288)
I0505 13:14:52.812585 19153 net.cpp:137] Memory required for data: 861498008
I0505 13:14:52.812589 19153 layer_factory.hpp:77] Creating layer inception_5a/1x1
I0505 13:14:52.812600 19153 net.cpp:84] Creating Layer inception_5a/1x1
I0505 13:14:52.812605 19153 net.cpp:406] inception_5a/1x1 <- pool4/3x3_s2_pool4/3x3_s2_0_split_0
I0505 13:14:52.812611 19153 net.cpp:380] inception_5a/1x1 -> inception_5a/1x1
I0505 13:14:52.818749 19153 net.cpp:122] Setting up inception_5a/1x1
I0505 13:14:52.818769 19153 net.cpp:129] Top shape: 16 256 7 7 (200704)
I0505 13:14:52.818776 19153 net.cpp:137] Memory required for data: 862300824
I0505 13:14:52.818787 19153 layer_factory.hpp:77] Creating layer inception_5a/relu_1x1
I0505 13:14:52.818802 19153 net.cpp:84] Creating Layer inception_5a/relu_1x1
I0505 13:14:52.818810 19153 net.cpp:406] inception_5a/relu_1x1 <- inception_5a/1x1
I0505 13:14:52.818819 19153 net.cpp:367] inception_5a/relu_1x1 -> inception_5a/1x1 (in-place)
I0505 13:14:52.825295 19153 net.cpp:122] Setting up inception_5a/relu_1x1
I0505 13:14:52.825320 19153 net.cpp:129] Top shape: 16 256 7 7 (200704)
I0505 13:14:52.825325 19153 net.cpp:137] Memory required for data: 863103640
I0505 13:14:52.825331 19153 layer_factory.hpp:77] Creating layer inception_5a/3x3_reduce
I0505 13:14:52.825348 19153 net.cpp:84] Creating Layer inception_5a/3x3_reduce
I0505 13:14:52.825357 19153 net.cpp:406] inception_5a/3x3_reduce <- pool4/3x3_s2_pool4/3x3_s2_0_split_1
I0505 13:14:52.825371 19153 net.cpp:380] inception_5a/3x3_reduce -> inception_5a/3x3_reduce
I0505 13:14:52.828263 19153 net.cpp:122] Setting up inception_5a/3x3_reduce
I0505 13:14:52.828277 19153 net.cpp:129] Top shape: 16 160 7 7 (125440)
I0505 13:14:52.828286 19153 net.cpp:137] Memory required for data: 863605400
I0505 13:14:52.828297 19153 layer_factory.hpp:77] Creating layer inception_5a/relu_3x3_reduce
I0505 13:14:52.828306 19153 net.cpp:84] Creating Layer inception_5a/relu_3x3_reduce
I0505 13:14:52.828315 19153 net.cpp:406] inception_5a/relu_3x3_reduce <- inception_5a/3x3_reduce
I0505 13:14:52.828326 19153 net.cpp:367] inception_5a/relu_3x3_reduce -> inception_5a/3x3_reduce (in-place)
I0505 13:14:52.828904 19153 net.cpp:122] Setting up inception_5a/relu_3x3_reduce
I0505 13:14:52.828915 19153 net.cpp:129] Top shape: 16 160 7 7 (125440)
I0505 13:14:52.828922 19153 net.cpp:137] Memory required for data: 864107160
I0505 13:14:52.828927 19153 layer_factory.hpp:77] Creating layer inception_5a/3x3
I0505 13:14:52.828941 19153 net.cpp:84] Creating Layer inception_5a/3x3
I0505 13:14:52.828950 19153 net.cpp:406] inception_5a/3x3 <- inception_5a/3x3_reduce
I0505 13:14:52.828961 19153 net.cpp:380] inception_5a/3x3 -> inception_5a/3x3
I0505 13:14:52.836119 19153 net.cpp:122] Setting up inception_5a/3x3
I0505 13:14:52.836143 19153 net.cpp:129] Top shape: 16 320 7 7 (250880)
I0505 13:14:52.836148 19153 net.cpp:137] Memory required for data: 865110680
I0505 13:14:52.836159 19153 layer_factory.hpp:77] Creating layer inception_5a/relu_3x3
I0505 13:14:52.836174 19153 net.cpp:84] Creating Layer inception_5a/relu_3x3
I0505 13:14:52.836181 19153 net.cpp:406] inception_5a/relu_3x3 <- inception_5a/3x3
I0505 13:14:52.836190 19153 net.cpp:367] inception_5a/relu_3x3 -> inception_5a/3x3 (in-place)
I0505 13:14:52.836735 19153 net.cpp:122] Setting up inception_5a/relu_3x3
I0505 13:14:52.836750 19153 net.cpp:129] Top shape: 16 320 7 7 (250880)
I0505 13:14:52.836755 19153 net.cpp:137] Memory required for data: 866114200
I0505 13:14:52.836762 19153 layer_factory.hpp:77] Creating layer inception_5a/5x5_reduce
I0505 13:14:52.836779 19153 net.cpp:84] Creating Layer inception_5a/5x5_reduce
I0505 13:14:52.836789 19153 net.cpp:406] inception_5a/5x5_reduce <- pool4/3x3_s2_pool4/3x3_s2_0_split_2
I0505 13:14:52.836800 19153 net.cpp:380] inception_5a/5x5_reduce -> inception_5a/5x5_reduce
I0505 13:14:52.839345 19153 net.cpp:122] Setting up inception_5a/5x5_reduce
I0505 13:14:52.839359 19153 net.cpp:129] Top shape: 16 32 7 7 (25088)
I0505 13:14:52.839366 19153 net.cpp:137] Memory required for data: 866214552
I0505 13:14:52.839376 19153 layer_factory.hpp:77] Creating layer inception_5a/relu_5x5_reduce
I0505 13:14:52.839386 19153 net.cpp:84] Creating Layer inception_5a/relu_5x5_reduce
I0505 13:14:52.839402 19153 net.cpp:406] inception_5a/relu_5x5_reduce <- inception_5a/5x5_reduce
I0505 13:14:52.839413 19153 net.cpp:367] inception_5a/relu_5x5_reduce -> inception_5a/5x5_reduce (in-place)
I0505 13:14:52.839951 19153 net.cpp:122] Setting up inception_5a/relu_5x5_reduce
I0505 13:14:52.839967 19153 net.cpp:129] Top shape: 16 32 7 7 (25088)
I0505 13:14:52.839978 19153 net.cpp:137] Memory required for data: 866314904
I0505 13:14:52.839985 19153 layer_factory.hpp:77] Creating layer inception_5a/5x5
I0505 13:14:52.840004 19153 net.cpp:84] Creating Layer inception_5a/5x5
I0505 13:14:52.840015 19153 net.cpp:406] inception_5a/5x5 <- inception_5a/5x5_reduce
I0505 13:14:52.840030 19153 net.cpp:380] inception_5a/5x5 -> inception_5a/5x5
I0505 13:14:52.842712 19153 net.cpp:122] Setting up inception_5a/5x5
I0505 13:14:52.842726 19153 net.cpp:129] Top shape: 16 128 7 7 (100352)
I0505 13:14:52.842732 19153 net.cpp:137] Memory required for data: 866716312
I0505 13:14:52.842743 19153 layer_factory.hpp:77] Creating layer inception_5a/relu_5x5
I0505 13:14:52.842752 19153 net.cpp:84] Creating Layer inception_5a/relu_5x5
I0505 13:14:52.842759 19153 net.cpp:406] inception_5a/relu_5x5 <- inception_5a/5x5
I0505 13:14:52.842767 19153 net.cpp:367] inception_5a/relu_5x5 -> inception_5a/5x5 (in-place)
I0505 13:14:52.845248 19153 net.cpp:122] Setting up inception_5a/relu_5x5
I0505 13:14:52.845264 19153 net.cpp:129] Top shape: 16 128 7 7 (100352)
I0505 13:14:52.845273 19153 net.cpp:137] Memory required for data: 867117720
I0505 13:14:52.845283 19153 layer_factory.hpp:77] Creating layer inception_5a/pool
I0505 13:14:52.845295 19153 net.cpp:84] Creating Layer inception_5a/pool
I0505 13:14:52.845304 19153 net.cpp:406] inception_5a/pool <- pool4/3x3_s2_pool4/3x3_s2_0_split_3
I0505 13:14:52.845315 19153 net.cpp:380] inception_5a/pool -> inception_5a/pool
I0505 13:14:52.845372 19153 net.cpp:122] Setting up inception_5a/pool
I0505 13:14:52.845381 19153 net.cpp:129] Top shape: 16 832 7 7 (652288)
I0505 13:14:52.845386 19153 net.cpp:137] Memory required for data: 869726872
I0505 13:14:52.845391 19153 layer_factory.hpp:77] Creating layer inception_5a/pool_proj
I0505 13:14:52.845402 19153 net.cpp:84] Creating Layer inception_5a/pool_proj
I0505 13:14:52.845408 19153 net.cpp:406] inception_5a/pool_proj <- inception_5a/pool
I0505 13:14:52.845417 19153 net.cpp:380] inception_5a/pool_proj -> inception_5a/pool_proj
I0505 13:14:52.848526 19153 net.cpp:122] Setting up inception_5a/pool_proj
I0505 13:14:52.848541 19153 net.cpp:129] Top shape: 16 128 7 7 (100352)
I0505 13:14:52.848544 19153 net.cpp:137] Memory required for data: 870128280
I0505 13:14:52.848553 19153 layer_factory.hpp:77] Creating layer inception_5a/relu_pool_proj
I0505 13:14:52.848564 19153 net.cpp:84] Creating Layer inception_5a/relu_pool_proj
I0505 13:14:52.848572 19153 net.cpp:406] inception_5a/relu_pool_proj <- inception_5a/pool_proj
I0505 13:14:52.848582 19153 net.cpp:367] inception_5a/relu_pool_proj -> inception_5a/pool_proj (in-place)
I0505 13:14:52.850610 19153 net.cpp:122] Setting up inception_5a/relu_pool_proj
I0505 13:14:52.850625 19153 net.cpp:129] Top shape: 16 128 7 7 (100352)
I0505 13:14:52.850632 19153 net.cpp:137] Memory required for data: 870529688
I0505 13:14:52.850641 19153 layer_factory.hpp:77] Creating layer inception_5a/output
I0505 13:14:52.850656 19153 net.cpp:84] Creating Layer inception_5a/output
I0505 13:14:52.850664 19153 net.cpp:406] inception_5a/output <- inception_5a/1x1
I0505 13:14:52.850674 19153 net.cpp:406] inception_5a/output <- inception_5a/3x3
I0505 13:14:52.850685 19153 net.cpp:406] inception_5a/output <- inception_5a/5x5
I0505 13:14:52.850697 19153 net.cpp:406] inception_5a/output <- inception_5a/pool_proj
I0505 13:14:52.850708 19153 net.cpp:380] inception_5a/output -> inception_5a/output
I0505 13:14:52.850747 19153 net.cpp:122] Setting up inception_5a/output
I0505 13:14:52.850756 19153 net.cpp:129] Top shape: 16 832 7 7 (652288)
I0505 13:14:52.850761 19153 net.cpp:137] Memory required for data: 873138840
I0505 13:14:52.850769 19153 layer_factory.hpp:77] Creating layer inception_5a/output_inception_5a/output_0_split
I0505 13:14:52.850780 19153 net.cpp:84] Creating Layer inception_5a/output_inception_5a/output_0_split
I0505 13:14:52.850785 19153 net.cpp:406] inception_5a/output_inception_5a/output_0_split <- inception_5a/output
I0505 13:14:52.850811 19153 net.cpp:380] inception_5a/output_inception_5a/output_0_split -> inception_5a/output_inception_5a/output_0_split_0
I0505 13:14:52.850824 19153 net.cpp:380] inception_5a/output_inception_5a/output_0_split -> inception_5a/output_inception_5a/output_0_split_1
I0505 13:14:52.850832 19153 net.cpp:380] inception_5a/output_inception_5a/output_0_split -> inception_5a/output_inception_5a/output_0_split_2
I0505 13:14:52.850842 19153 net.cpp:380] inception_5a/output_inception_5a/output_0_split -> inception_5a/output_inception_5a/output_0_split_3
I0505 13:14:52.850919 19153 net.cpp:122] Setting up inception_5a/output_inception_5a/output_0_split
I0505 13:14:52.850930 19153 net.cpp:129] Top shape: 16 832 7 7 (652288)
I0505 13:14:52.850937 19153 net.cpp:129] Top shape: 16 832 7 7 (652288)
I0505 13:14:52.850944 19153 net.cpp:129] Top shape: 16 832 7 7 (652288)
I0505 13:14:52.850950 19153 net.cpp:129] Top shape: 16 832 7 7 (652288)
I0505 13:14:52.850955 19153 net.cpp:137] Memory required for data: 883575448
I0505 13:14:52.850960 19153 layer_factory.hpp:77] Creating layer inception_5b/1x1
I0505 13:14:52.850973 19153 net.cpp:84] Creating Layer inception_5b/1x1
I0505 13:14:52.850981 19153 net.cpp:406] inception_5b/1x1 <- inception_5a/output_inception_5a/output_0_split_0
I0505 13:14:52.850991 19153 net.cpp:380] inception_5b/1x1 -> inception_5b/1x1
I0505 13:14:52.858777 19153 net.cpp:122] Setting up inception_5b/1x1
I0505 13:14:52.858795 19153 net.cpp:129] Top shape: 16 384 7 7 (301056)
I0505 13:14:52.858799 19153 net.cpp:137] Memory required for data: 884779672
I0505 13:14:52.858809 19153 layer_factory.hpp:77] Creating layer inception_5b/relu_1x1
I0505 13:14:52.858820 19153 net.cpp:84] Creating Layer inception_5b/relu_1x1
I0505 13:14:52.858827 19153 net.cpp:406] inception_5b/relu_1x1 <- inception_5b/1x1
I0505 13:14:52.858835 19153 net.cpp:367] inception_5b/relu_1x1 -> inception_5b/1x1 (in-place)
I0505 13:14:52.859519 19153 net.cpp:122] Setting up inception_5b/relu_1x1
I0505 13:14:52.859529 19153 net.cpp:129] Top shape: 16 384 7 7 (301056)
I0505 13:14:52.859534 19153 net.cpp:137] Memory required for data: 885983896
I0505 13:14:52.859537 19153 layer_factory.hpp:77] Creating layer inception_5b/3x3_reduce
I0505 13:14:52.859551 19153 net.cpp:84] Creating Layer inception_5b/3x3_reduce
I0505 13:14:52.859556 19153 net.cpp:406] inception_5b/3x3_reduce <- inception_5a/output_inception_5a/output_0_split_1
I0505 13:14:52.859565 19153 net.cpp:380] inception_5b/3x3_reduce -> inception_5b/3x3_reduce
I0505 13:14:52.864773 19153 net.cpp:122] Setting up inception_5b/3x3_reduce
I0505 13:14:52.864791 19153 net.cpp:129] Top shape: 16 192 7 7 (150528)
I0505 13:14:52.864795 19153 net.cpp:137] Memory required for data: 886586008
I0505 13:14:52.864804 19153 layer_factory.hpp:77] Creating layer inception_5b/relu_3x3_reduce
I0505 13:14:52.864816 19153 net.cpp:84] Creating Layer inception_5b/relu_3x3_reduce
I0505 13:14:52.864823 19153 net.cpp:406] inception_5b/relu_3x3_reduce <- inception_5b/3x3_reduce
I0505 13:14:52.864830 19153 net.cpp:367] inception_5b/relu_3x3_reduce -> inception_5b/3x3_reduce (in-place)
I0505 13:14:52.865470 19153 net.cpp:122] Setting up inception_5b/relu_3x3_reduce
I0505 13:14:52.865480 19153 net.cpp:129] Top shape: 16 192 7 7 (150528)
I0505 13:14:52.865484 19153 net.cpp:137] Memory required for data: 887188120
I0505 13:14:52.865489 19153 layer_factory.hpp:77] Creating layer inception_5b/3x3
I0505 13:14:52.865504 19153 net.cpp:84] Creating Layer inception_5b/3x3
I0505 13:14:52.865509 19153 net.cpp:406] inception_5b/3x3 <- inception_5b/3x3_reduce
I0505 13:14:52.865516 19153 net.cpp:380] inception_5b/3x3 -> inception_5b/3x3
I0505 13:14:52.871750 19153 net.cpp:122] Setting up inception_5b/3x3
I0505 13:14:52.871765 19153 net.cpp:129] Top shape: 16 384 7 7 (301056)
I0505 13:14:52.871770 19153 net.cpp:137] Memory required for data: 888392344
I0505 13:14:52.871778 19153 layer_factory.hpp:77] Creating layer inception_5b/relu_3x3
I0505 13:14:52.871807 19153 net.cpp:84] Creating Layer inception_5b/relu_3x3
I0505 13:14:52.871812 19153 net.cpp:406] inception_5b/relu_3x3 <- inception_5b/3x3
I0505 13:14:52.871819 19153 net.cpp:367] inception_5b/relu_3x3 -> inception_5b/3x3 (in-place)
I0505 13:14:52.872177 19153 net.cpp:122] Setting up inception_5b/relu_3x3
I0505 13:14:52.872186 19153 net.cpp:129] Top shape: 16 384 7 7 (301056)
I0505 13:14:52.872190 19153 net.cpp:137] Memory required for data: 889596568
I0505 13:14:52.872195 19153 layer_factory.hpp:77] Creating layer inception_5b/5x5_reduce
I0505 13:14:52.872205 19153 net.cpp:84] Creating Layer inception_5b/5x5_reduce
I0505 13:14:52.872210 19153 net.cpp:406] inception_5b/5x5_reduce <- inception_5a/output_inception_5a/output_0_split_2
I0505 13:14:52.872216 19153 net.cpp:380] inception_5b/5x5_reduce -> inception_5b/5x5_reduce
I0505 13:14:52.875952 19153 net.cpp:122] Setting up inception_5b/5x5_reduce
I0505 13:14:52.875972 19153 net.cpp:129] Top shape: 16 48 7 7 (37632)
I0505 13:14:52.875978 19153 net.cpp:137] Memory required for data: 889747096
I0505 13:14:52.875990 19153 layer_factory.hpp:77] Creating layer inception_5b/relu_5x5_reduce
I0505 13:14:52.876003 19153 net.cpp:84] Creating Layer inception_5b/relu_5x5_reduce
I0505 13:14:52.876010 19153 net.cpp:406] inception_5b/relu_5x5_reduce <- inception_5b/5x5_reduce
I0505 13:14:52.876021 19153 net.cpp:367] inception_5b/relu_5x5_reduce -> inception_5b/5x5_reduce (in-place)
I0505 13:14:52.876551 19153 net.cpp:122] Setting up inception_5b/relu_5x5_reduce
I0505 13:14:52.876566 19153 net.cpp:129] Top shape: 16 48 7 7 (37632)
I0505 13:14:52.876571 19153 net.cpp:137] Memory required for data: 889897624
I0505 13:14:52.876577 19153 layer_factory.hpp:77] Creating layer inception_5b/5x5
I0505 13:14:52.876591 19153 net.cpp:84] Creating Layer inception_5b/5x5
I0505 13:14:52.876597 19153 net.cpp:406] inception_5b/5x5 <- inception_5b/5x5_reduce
I0505 13:14:52.876607 19153 net.cpp:380] inception_5b/5x5 -> inception_5b/5x5
I0505 13:14:52.882012 19153 net.cpp:122] Setting up inception_5b/5x5
I0505 13:14:52.882036 19153 net.cpp:129] Top shape: 16 128 7 7 (100352)
I0505 13:14:52.882041 19153 net.cpp:137] Memory required for data: 890299032
I0505 13:14:52.882055 19153 layer_factory.hpp:77] Creating layer inception_5b/relu_5x5
I0505 13:14:52.882067 19153 net.cpp:84] Creating Layer inception_5b/relu_5x5
I0505 13:14:52.882076 19153 net.cpp:406] inception_5b/relu_5x5 <- inception_5b/5x5
I0505 13:14:52.882088 19153 net.cpp:367] inception_5b/relu_5x5 -> inception_5b/5x5 (in-place)
I0505 13:14:52.882962 19153 net.cpp:122] Setting up inception_5b/relu_5x5
I0505 13:14:52.882977 19153 net.cpp:129] Top shape: 16 128 7 7 (100352)
I0505 13:14:52.882982 19153 net.cpp:137] Memory required for data: 890700440
I0505 13:14:52.882988 19153 layer_factory.hpp:77] Creating layer inception_5b/pool
I0505 13:14:52.883000 19153 net.cpp:84] Creating Layer inception_5b/pool
I0505 13:14:52.883008 19153 net.cpp:406] inception_5b/pool <- inception_5a/output_inception_5a/output_0_split_3
I0505 13:14:52.883018 19153 net.cpp:380] inception_5b/pool -> inception_5b/pool
I0505 13:14:52.883082 19153 net.cpp:122] Setting up inception_5b/pool
I0505 13:14:52.883092 19153 net.cpp:129] Top shape: 16 832 7 7 (652288)
I0505 13:14:52.883097 19153 net.cpp:137] Memory required for data: 893309592
I0505 13:14:52.883102 19153 layer_factory.hpp:77] Creating layer inception_5b/pool_proj
I0505 13:14:52.883118 19153 net.cpp:84] Creating Layer inception_5b/pool_proj
I0505 13:14:52.883124 19153 net.cpp:406] inception_5b/pool_proj <- inception_5b/pool
I0505 13:14:52.883133 19153 net.cpp:380] inception_5b/pool_proj -> inception_5b/pool_proj
I0505 13:14:52.891880 19153 net.cpp:122] Setting up inception_5b/pool_proj
I0505 13:14:52.891906 19153 net.cpp:129] Top shape: 16 128 7 7 (100352)
I0505 13:14:52.891911 19153 net.cpp:137] Memory required for data: 893711000
I0505 13:14:52.891925 19153 layer_factory.hpp:77] Creating layer inception_5b/relu_pool_proj
I0505 13:14:52.891942 19153 net.cpp:84] Creating Layer inception_5b/relu_pool_proj
I0505 13:14:52.891973 19153 net.cpp:406] inception_5b/relu_pool_proj <- inception_5b/pool_proj
I0505 13:14:52.891986 19153 net.cpp:367] inception_5b/relu_pool_proj -> inception_5b/pool_proj (in-place)
I0505 13:14:52.892778 19153 net.cpp:122] Setting up inception_5b/relu_pool_proj
I0505 13:14:52.892788 19153 net.cpp:129] Top shape: 16 128 7 7 (100352)
I0505 13:14:52.892792 19153 net.cpp:137] Memory required for data: 894112408
I0505 13:14:52.892796 19153 layer_factory.hpp:77] Creating layer inception_5b/output
I0505 13:14:52.892804 19153 net.cpp:84] Creating Layer inception_5b/output
I0505 13:14:52.892809 19153 net.cpp:406] inception_5b/output <- inception_5b/1x1
I0505 13:14:52.892814 19153 net.cpp:406] inception_5b/output <- inception_5b/3x3
I0505 13:14:52.892819 19153 net.cpp:406] inception_5b/output <- inception_5b/5x5
I0505 13:14:52.892823 19153 net.cpp:406] inception_5b/output <- inception_5b/pool_proj
I0505 13:14:52.892829 19153 net.cpp:380] inception_5b/output -> inception_5b/output
I0505 13:14:52.892861 19153 net.cpp:122] Setting up inception_5b/output
I0505 13:14:52.892868 19153 net.cpp:129] Top shape: 16 1024 7 7 (802816)
I0505 13:14:52.892871 19153 net.cpp:137] Memory required for data: 897323672
I0505 13:14:52.892875 19153 layer_factory.hpp:77] Creating layer pool5/7x7_s1
I0505 13:14:52.892882 19153 net.cpp:84] Creating Layer pool5/7x7_s1
I0505 13:14:52.892886 19153 net.cpp:406] pool5/7x7_s1 <- inception_5b/output
I0505 13:14:52.892892 19153 net.cpp:380] pool5/7x7_s1 -> pool5/7x7_s1
I0505 13:14:52.893527 19153 net.cpp:122] Setting up pool5/7x7_s1
I0505 13:14:52.893537 19153 net.cpp:129] Top shape: 16 1024 1 1 (16384)
I0505 13:14:52.893540 19153 net.cpp:137] Memory required for data: 897389208
I0505 13:14:52.893544 19153 layer_factory.hpp:77] Creating layer pool5/drop_7x7_s1
I0505 13:14:52.893553 19153 net.cpp:84] Creating Layer pool5/drop_7x7_s1
I0505 13:14:52.893558 19153 net.cpp:406] pool5/drop_7x7_s1 <- pool5/7x7_s1
I0505 13:14:52.893564 19153 net.cpp:367] pool5/drop_7x7_s1 -> pool5/7x7_s1 (in-place)
I0505 13:14:52.893587 19153 net.cpp:122] Setting up pool5/drop_7x7_s1
I0505 13:14:52.893592 19153 net.cpp:129] Top shape: 16 1024 1 1 (16384)
I0505 13:14:52.893596 19153 net.cpp:137] Memory required for data: 897454744
I0505 13:14:52.893599 19153 layer_factory.hpp:77] Creating layer loss3/classifier
I0505 13:14:52.893609 19153 net.cpp:84] Creating Layer loss3/classifier
I0505 13:14:52.893612 19153 net.cpp:406] loss3/classifier <- pool5/7x7_s1
I0505 13:14:52.893620 19153 net.cpp:380] loss3/classifier -> loss3/classifier
I0505 13:14:52.895395 19153 net.cpp:122] Setting up loss3/classifier
I0505 13:14:52.895406 19153 net.cpp:129] Top shape: 16 196 (3136)
I0505 13:14:52.895409 19153 net.cpp:137] Memory required for data: 897467288
I0505 13:14:52.895416 19153 layer_factory.hpp:77] Creating layer loss3/classifier_loss3/classifier_0_split
I0505 13:14:52.895423 19153 net.cpp:84] Creating Layer loss3/classifier_loss3/classifier_0_split
I0505 13:14:52.895428 19153 net.cpp:406] loss3/classifier_loss3/classifier_0_split <- loss3/classifier
I0505 13:14:52.895437 19153 net.cpp:380] loss3/classifier_loss3/classifier_0_split -> loss3/classifier_loss3/classifier_0_split_0
I0505 13:14:52.895443 19153 net.cpp:380] loss3/classifier_loss3/classifier_0_split -> loss3/classifier_loss3/classifier_0_split_1
I0505 13:14:52.895449 19153 net.cpp:380] loss3/classifier_loss3/classifier_0_split -> loss3/classifier_loss3/classifier_0_split_2
I0505 13:14:52.895496 19153 net.cpp:122] Setting up loss3/classifier_loss3/classifier_0_split
I0505 13:14:52.895501 19153 net.cpp:129] Top shape: 16 196 (3136)
I0505 13:14:52.895505 19153 net.cpp:129] Top shape: 16 196 (3136)
I0505 13:14:52.895509 19153 net.cpp:129] Top shape: 16 196 (3136)
I0505 13:14:52.895512 19153 net.cpp:137] Memory required for data: 897504920
I0505 13:14:52.895515 19153 layer_factory.hpp:77] Creating layer loss3/loss
I0505 13:14:52.895521 19153 net.cpp:84] Creating Layer loss3/loss
I0505 13:14:52.895525 19153 net.cpp:406] loss3/loss <- loss3/classifier_loss3/classifier_0_split_0
I0505 13:14:52.895565 19153 net.cpp:406] loss3/loss <- label_val-data_1_split_6
…
