…
I0506 13:00:07.312492  5822 net.cpp:294] The NetState phase (0) differed from the phase (1) specified by a rule in layer loss3/top-5
I0506 13:00:07.313326  5822 net.cpp:51] Initializing net from parameters:
state {
phase: TRAIN
level: 0
stage: ""
}
layer {
name: "train-data"
type: "Data"
top: "data"
top: "label"
include {
phase: TRAIN
}
transform_param {
mirror: true
crop_size: 224
mean_file: "/mnt/bigdisk/MANDIG3/digits/jobs/20200506-122814-755d/mean.binaryproto"
}
data_param {
source: "/mnt/bigdisk/MANDIG3/digits/jobs/20200506-122814-755d/train_db"
batch_size: 32
backend: LMDB
}
}
layer {
name: "conv1/7x7_s2"
type: "Convolution"
bottom: "data"
top: "conv1/7x7_s2"
param {
lr_mult: 1
decay_mult: 1
}
param {
lr_mult: 2
decay_mult: 0
}
convolution_param {
num_output: 64
pad: 3
kernel_size: 7
stride: 2
weight_filler {
type: "xavier"
std: 0.1
}
bias_filler {
type: "constant"
value: 0.2
}
}
}
layer {
name: "conv1/relu_7x7"
type: "ReLU"
bottom: "conv1/7x7_s2"
top: "conv1/7x7_s2"
}
layer {
name: "pool1/3x3_s2"
type: "Pooling"
bottom: "conv1/7x7_s2"
top: "pool1/3x3_s2"
pooling_param {
pool: MAX
kernel_size: 3
stride: 2
}
}
layer {
name: "pool1/norm1"
type: "LRN"
bottom: "pool1/3x3_s2"
top: "pool1/norm1"
lrn_param {
local_size: 5
alpha: 0.0001
beta: 0.75
}
}
layer {
name: "conv2/3x3_reduce"
type: "Convolution"
bottom: "pool1/norm1"
top: "conv2/3x3_reduce"
param {
lr_mult: 1
decay_mult: 1
}
param {
lr_mult: 2
decay_mult: 0
}
convolution_param {
num_output: 64
kernel_size: 1
weight_filler {
type: "xavier"
std: 0.1
}
bias_filler {
type: "constant"
value: 0.2
}
}
}
layer {
name: "conv2/relu_3x3_reduce"
type: "ReLU"
bottom: "conv2/3x3_reduce"
top: "conv2/3x3_reduce"
}
layer {
name: "conv2/3x3"
type: "Convolution"
bottom: "conv2/3x3_reduce"
top: "conv2/3x3"
param {
lr_mult: 1
decay_mult: 1
}
param {
lr_mult: 2
decay_mult: 0
}
convolution_param {
num_output: 192
pad: 1
kernel_size: 3
weight_filler {
type: "xavier"
std: 0.03
}
bias_filler {
type: "constant"
value: 0.2
}
}
}
layer {
name: "conv2/relu_3x3"
type: "ReLU"
bottom: "conv2/3x3"
top: "conv2/3x3"
}
layer {
name: "conv2/norm2"
type: "LRN"
bottom: "conv2/3x3"
top: "conv2/norm2"
lrn_param {
local_size: 5
alpha: 0.0001
beta: 0.75
}
}
layer {
name: "pool2/3x3_s2"
type: "Pooling"
bottom: "conv2/norm2"
top: "pool2/3x3_s2"
pooling_param {
pool: MAX
kernel_size: 3
stride: 2
}
}
layer {
name: "inception_3a/1x1"
type: "Convolution"
bottom: "pool2/3x3_s2"
top: "inception_3a/1x1"
param {
lr_mult: 1
decay_mult: 1
}
param {
lr_mult: 2
decay_mult: 0
}
convolution_param {
num_output: 64
kernel_size: 1
weight_filler {
type: "xavier"
std: 0.03
}
bias_filler {
type: "constant"
value: 0.2
}
}
}
layer {
name: "inception_3a/relu_1x1"
type: "ReLU"
bottom: "inception_3a/1x1"
top: "inception_3a/1x1"
}
layer {
name: "inception_3a/3x3_reduce"
type: "Convolution"
bottom: "pool2/3x3_s2"
top: "inception_3a/3x3_reduce"
param {
lr_mult: 1
decay_mult: 1
}
param {
lr_mult: 2
decay_mult: 0
}
convolution_param {
num_output: 96
kernel_size: 1
weight_filler {
type: "xavier"
std: 0.09
}
bias_filler {
type: "constant"
value: 0.2
}
}
}
layer {
name: "inception_3a/relu_3x3_reduce"
type: "ReLU"
bottom: "inception_3a/3x3_reduce"
top: "inception_3a/3x3_reduce"
}
layer {
name: "inception_3a/3x3"
type: "Convolution"
bottom: "inception_3a/3x3_reduce"
top: "inception_3a/3x3"
param {
lr_mult: 1
decay_mult: 1
}
param {
lr_mult: 2
decay_mult: 0
}
convolution_param {
num_output: 128
pad: 1
kernel_size: 3
weight_filler {
type: "xavier"
std: 0.03
}
bias_filler {
type: "constant"
value: 0.2
}
}
}
layer {
name: "inception_3a/relu_3x3"
type: "ReLU"
bottom: "inception_3a/3x3"
top: "inception_3a/3x3"
}
layer {
name: "inception_3a/5x5_reduce"
type: "Convolution"
bottom: "pool2/3x3_s2"
top: "inception_3a/5x5_reduce"
param {
lr_mult: 1
decay_mult: 1
}
param {
lr_mult: 2
decay_mult: 0
}
convolution_param {
num_output: 16
kernel_size: 1
weight_filler {
type: "xavier"
std: 0.2
}
bias_filler {
type: "constant"
value: 0.2
}
}
}
layer {
name: "inception_3a/relu_5x5_reduce"
type: "ReLU"
bottom: "inception_3a/5x5_reduce"
top: "inception_3a/5x5_reduce"
}
layer {
name: "inception_3a/5x5"
type: "Convolution"
bottom: "inception_3a/5x5_reduce"
top: "inception_3a/5x5"
param {
lr_mult: 1
decay_mult: 1
}
param {
lr_mult: 2
decay_mult: 0
}
convolution_param {
num_output: 32
pad: 2
kernel_size: 5
weight_filler {
type: "xavier"
std: 0.03
}
bias_filler {
type: "constant"
value: 0.2
}
}
}
layer {
name: "inception_3a/relu_5x5"
type: "ReLU"
bottom: "inception_3a/5x5"
top: "inception_3a/5x5"
}
layer {
name: "inception_3a/pool"
type: "Pooling"
bottom: "pool2/3x3_s2"
top: "inception_3a/pool"
pooling_param {
pool: MAX
kernel_size: 3
stride: 1
pad: 1
}
}
layer {
name: "inception_3a/pool_proj"
type: "Convolution"
bottom: "inception_3a/pool"
top: "inception_3a/pool_proj"
param {
lr_mult: 1
decay_mult: 1
}
param {
lr_mult: 2
decay_mult: 0
}
convolution_param {
num_output: 32
kernel_size: 1
weight_filler {
type: "xavier"
std: 0.1
}
bias_filler {
type: "constant"
value: 0.2
}
}
}
layer {
name: "inception_3a/relu_pool_proj"
type: "ReLU"
bottom: "inception_3a/pool_proj"
top: "inception_3a/pool_proj"
}
layer {
name: "inception_3a/output"
type: "Concat"
bottom: "inception_3a/1x1"
bottom: "inception_3a/3x3"
bottom: "inception_3a/5x5"
bottom: "inception_3a/pool_proj"
top: "inception_3a/output"
}
layer {
name: "inception_3b/1x1"
type: "Convolution"
bottom: "inception_3a/output"
top: "inception_3b/1x1"
param {
lr_mult: 1
decay_mult: 1
}
param {
lr_mult: 2
decay_mult: 0
}
convolution_param {
num_output: 128
kernel_size: 1
weight_filler {
type: "xavier"
std: 0.03
}
bias_filler {
type: "constant"
value: 0.2
}
}
}
layer {
name: "inception_3b/relu_1x1"
type: "ReLU"
bottom: "inception_3b/1x1"
top: "inception_3b/1x1"
}
layer {
name: "inception_3b/3x3_reduce"
type: "Convolution"
bottom: "inception_3a/output"
top: "inception_3b/3x3_reduce"
param {
lr_mult: 1
decay_mult: 1
}
param {
lr_mult: 2
decay_mult: 0
}
convolution_param {
num_output: 128
kernel_size: 1
weight_filler {
type: "xavier"
std: 0.09
}
bias_filler {
type: "constant"
value: 0.2
}
}
}
layer {
name: "inception_3b/relu_3x3_reduce"
type: "ReLU"
bottom: "inception_3b/3x3_reduce"
top: "inception_3b/3x3_reduce"
}
layer {
name: "inception_3b/3x3"
type: "Convolution"
bottom: "inception_3b/3x3_reduce"
top: "inception_3b/3x3"
param {
lr_mult: 1
decay_mult: 1
}
param {
lr_mult: 2
decay_mult: 0
}
convolution_param {
num_output: 192
pad: 1
kernel_size: 3
weight_filler {
type: "xavier"
std: 0.03
}
bias_filler {
type: "constant"
value: 0.2
}
}
}
layer {
name: "inception_3b/relu_3x3"
type: "ReLU"
bottom: "inception_3b/3x3"
top: "inception_3b/3x3"
}
layer {
name: "inception_3b/5x5_reduce"
type: "Convolution"
bottom: "inception_3a/output"
top: "inception_3b/5x5_reduce"
param {
lr_mult: 1
decay_mult: 1
}
param {
lr_mult: 2
decay_mult: 0
}
convolution_param {
num_output: 32
kernel_size: 1
weight_filler {
type: "xavier"
std: 0.2
}
bias_filler {
type: "constant"
value: 0.2
}
}
}
layer {
name: "inception_3b/relu_5x5_reduce"
type: "ReLU"
bottom: "inception_3b/5x5_reduce"
top: "inception_3b/5x5_reduce"
}
layer {
name: "inception_3b/5x5"
type: "Convolution"
bottom: "inception_3b/5x5_reduce"
top: "inception_3b/5x5"
param {
lr_mult: 1
decay_mult: 1
}
param {
lr_mult: 2
decay_mult: 0
}
convolution_param {
num_output: 96
pad: 2
kernel_size: 5
weight_filler {
type: "xavier"
std: 0.03
}
bias_filler {
type: "constant"
value: 0.2
}
}
}
layer {
name: "inception_3b/relu_5x5"
type: "ReLU"
bottom: "inception_3b/5x5"
top: "inception_3b/5x5"
}
layer {
name: "inception_3b/pool"
type: "Pooling"
bottom: "inception_3a/output"
top: "inception_3b/pool"
pooling_param {
pool: MAX
kernel_size: 3
stride: 1
pad: 1
}
}
layer {
name: "inception_3b/pool_proj"
type: "Convolution"
bottom: "inception_3b/pool"
top: "inception_3b/pool_proj"
param {
lr_mult: 1
decay_mult: 1
}
param {
lr_mult: 2
decay_mult: 0
}
convolution_param {
num_output: 64
kernel_size: 1
weight_filler {
type: "xavier"
std: 0.1
}
bias_filler {
type: "constant"
value: 0.2
}
}
}
layer {
name: "inception_3b/relu_pool_proj"
type: "ReLU"
bottom: "inception_3b/pool_proj"
top: "inception_3b/pool_proj"
}
layer {
name: "inception_3b/output"
type: "Concat"
bottom: "inception_3b/1x1"
bottom: "inception_3b/3x3"
bottom: "inception_3b/5x5"
bottom: "inception_3b/pool_proj"
top: "inception_3b/output"
}
layer {
name: "pool3/3x3_s2"
type: "Pooling"
bottom: "inception_3b/output"
top: "pool3/3x3_s2"
pooling_param {
pool: MAX
kernel_size: 3
stride: 2
}
}
layer {
name: "inception_4a/1x1"
type: "Convolution"
bottom: "pool3/3x3_s2"
top: "inception_4a/1x1"
param {
lr_mult: 1
decay_mult: 1
}
param {
lr_mult: 2
decay_mult: 0
}
convolution_param {
num_output: 192
kernel_size: 1
weight_filler {
type: "xavier"
std: 0.03
}
bias_filler {
type: "constant"
value: 0.2
}
}
}
layer {
name: "inception_4a/relu_1x1"
type: "ReLU"
bottom: "inception_4a/1x1"
top: "inception_4a/1x1"
}
layer {
name: "inception_4a/3x3_reduce"
type: "Convolution"
bottom: "pool3/3x3_s2"
top: "inception_4a/3x3_reduce"
param {
lr_mult: 1
decay_mult: 1
}
param {
lr_mult: 2
decay_mult: 0
}
convolution_param {
num_output: 96
kernel_size: 1
weight_filler {
type: "xavier"
std: 0.09
}
bias_filler {
type: "constant"
value: 0.2
}
}
}
layer {
name: "inception_4a/relu_3x3_reduce"
type: "ReLU"
bottom: "inception_4a/3x3_reduce"
top: "inception_4a/3x3_reduce"
}
layer {
name: "inception_4a/3x3"
type: "Convolution"
bottom: "inception_4a/3x3_reduce"
top: "inception_4a/3x3"
param {
lr_mult: 1
decay_mult: 1
}
param {
lr_mult: 2
decay_mult: 0
}
convolution_param {
num_output: 208
pad: 1
kernel_size: 3
weight_filler {
type: "xavier"
std: 0.03
}
bias_filler {
type: "constant"
value: 0.2
}
}
}
layer {
name: "inception_4a/relu_3x3"
type: "ReLU"
bottom: "inception_4a/3x3"
top: "inception_4a/3x3"
}
layer {
name: "inception_4a/5x5_reduce"
type: "Convolution"
bottom: "pool3/3x3_s2"
top: "inception_4a/5x5_reduce"
param {
lr_mult: 1
decay_mult: 1
}
param {
lr_mult: 2
decay_mult: 0
}
convolution_param {
num_output: 16
kernel_size: 1
weight_filler {
type: "xavier"
std: 0.2
}
bias_filler {
type: "constant"
value: 0.2
}
}
}
layer {
name: "inception_4a/relu_5x5_reduce"
type: "ReLU"
bottom: "inception_4a/5x5_reduce"
top: "inception_4a/5x5_reduce"
}
layer {
name: "inception_4a/5x5"
type: "Convolution"
bottom: "inception_4a/5x5_reduce"
top: "inception_4a/5x5"
param {
lr_mult: 1
decay_mult: 1
}
param {
lr_mult: 2
decay_mult: 0
}
convolution_param {
num_output: 48
pad: 2
kernel_size: 5
weight_filler {
type: "xavier"
std: 0.03
}
bias_filler {
type: "constant"
value: 0.2
}
}
}
layer {
name: "inception_4a/relu_5x5"
type: "ReLU"
bottom: "inception_4a/5x5"
top: "inception_4a/5x5"
}
layer {
name: "inception_4a/pool"
type: "Pooling"
bottom: "pool3/3x3_s2"
top: "inception_4a/pool"
pooling_param {
pool: MAX
kernel_size: 3
stride: 1
pad: 1
}
}
layer {
name: "inception_4a/pool_proj"
type: "Convolution"
bottom: "inception_4a/pool"
top: "inception_4a/pool_proj"
param {
lr_mult: 1
decay_mult: 1
}
param {
lr_mult: 2
decay_mult: 0
}
convolution_param {
num_output: 64
kernel_size: 1
weight_filler {
type: "xavier"
std: 0.1
}
bias_filler {
type: "constant"
value: 0.2
}
}
}
layer {
name: "inception_4a/relu_pool_proj"
type: "ReLU"
bottom: "inception_4a/pool_proj"
top: "inception_4a/pool_proj"
}
layer {
name: "inception_4a/output"
type: "Concat"
bottom: "inception_4a/1x1"
bottom: "inception_4a/3x3"
bottom: "inception_4a/5x5"
bottom: "inception_4a/pool_proj"
top: "inception_4a/output"
}
layer {
name: "loss1/ave_pool"
type: "Pooling"
bottom: "inception_4a/output"
top: "loss1/ave_pool"
pooling_param {
pool: AVE
kernel_size: 5
stride: 3
}
}
layer {
name: "loss1/conv"
type: "Convolution"
bottom: "loss1/ave_pool"
top: "loss1/conv"
param {
lr_mult: 1
decay_mult: 1
}
param {
lr_mult: 2
decay_mult: 0
}
convolution_param {
num_output: 128
kernel_size: 1
weight_filler {
type: "xavier"
std: 0.08
}
bias_filler {
type: "constant"
value: 0.2
}
}
}
layer {
name: "loss1/relu_conv"
type: "ReLU"
bottom: "loss1/conv"
top: "loss1/conv"
}
layer {
name: "loss1/fc"
type: "InnerProduct"
bottom: "loss1/conv"
top: "loss1/fc"
param {
lr_mult: 1
decay_mult: 1
}
param {
lr_mult: 2
decay_mult: 0
}
inner_product_param {
num_output: 1024
weight_filler {
type: "xavier"
std: 0.02
}
bias_filler {
type: "constant"
value: 0.2
}
}
}
layer {
name: "loss1/relu_fc"
type: "ReLU"
bottom: "loss1/fc"
top: "loss1/fc"
}
layer {
name: "loss1/drop_fc"
type: "Dropout"
bottom: "loss1/fc"
top: "loss1/fc"
dropout_param {
dropout_ratio: 0.7
}
}
layer {
name: "loss1/classifier"
type: "InnerProduct"
bottom: "loss1/fc"
top: "loss1/classifier"
param {
lr_mult: 1
decay_mult: 1
}
param {
lr_mult: 2
decay_mult: 0
}
inner_product_param {
num_output: 196
weight_filler {
type: "xavier"
std: 0.0009765625
}
bias_filler {
type: "constant"
value: 0
}
}
}
layer {
name: "loss1/loss"
type: "SoftmaxWithLoss"
bottom: "loss1/classifier"
bottom: "label"
top: "loss1/loss"
loss_weight: 0.3
}
layer {
name: "inception_4b/1x1"
type: "Convolution"
bottom: "inception_4a/output"
top: "inception_4b/1x1"
param {
lr_mult: 1
decay_mult: 1
}
param {
lr_mult: 2
decay_mult: 0
}
convolution_param {
num_output: 160
kernel_size: 1
weight_filler {
type: "xavier"
std: 0.03
}
bias_filler {
type: "constant"
value: 0.2
}
}
}
layer {
name: "inception_4b/relu_1x1"
type: "ReLU"
bottom: "inception_4b/1x1"
top: "inception_4b/1x1"
}
layer {
name: "inception_4b/3x3_reduce"
type: "Convolution"
bottom: "inception_4a/output"
top: "inception_4b/3x3_reduce"
param {
lr_mult: 1
decay_mult: 1
}
param {
lr_mult: 2
decay_mult: 0
}
convolution_param {
num_output: 112
kernel_size: 1
weight_filler {
type: "xavier"
std: 0.09
}
bias_filler {
type: "constant"
value: 0.2
}
}
}
layer {
name: "inception_4b/relu_3x3_reduce"
type: "ReLU"
bottom: "inception_4b/3x3_reduce"
top: "inception_4b/3x3_reduce"
}
layer {
name: "inception_4b/3x3"
type: "Convolution"
bottom: "inception_4b/3x3_reduce"
top: "inception_4b/3x3"
param {
lr_mult: 1
decay_mult: 1
}
param {
lr_mult: 2
decay_mult: 0
}
convolution_param {
num_output: 224
pad: 1
kernel_size: 3
weight_filler {
type: "xavier"
std: 0.03
}
bias_filler {
type: "constant"
value: 0.2
}
}
}
layer {
name: "inception_4b/relu_3x3"
type: "ReLU"
bottom: "inception_4b/3x3"
top: "inception_4b/3x3"
}
layer {
name: "inception_4b/5x5_reduce"
type: "Convolution"
bottom: "inception_4a/output"
top: "inception_4b/5x5_reduce"
param {
lr_mult: 1
decay_mult: 1
}
param {
lr_mult: 2
decay_mult: 0
}
convolution_param {
num_output: 24
kernel_size: 1
weight_filler {
type: "xavier"
std: 0.2
}
bias_filler {
type: "constant"
value: 0.2
}
}
}
layer {
name: "inception_4b/relu_5x5_reduce"
type: "ReLU"
bottom: "inception_4b/5x5_reduce"
top: "inception_4b/5x5_reduce"
}
layer {
name: "inception_4b/5x5"
type: "Convolution"
bottom: "inception_4b/5x5_reduce"
top: "inception_4b/5x5"
param {
lr_mult: 1
decay_mult: 1
}
param {
lr_mult: 2
decay_mult: 0
}
convolution_param {
num_output: 64
pad: 2
kernel_size: 5
weight_filler {
type: "xavier"
std: 0.03
}
bias_filler {
type: "constant"
value: 0.2
}
}
}
layer {
name: "inception_4b/relu_5x5"
type: "ReLU"
bottom: "inception_4b/5x5"
top: "inception_4b/5x5"
}
layer {
name: "inception_4b/pool"
type: "Pooling"
bottom: "inception_4a/output"
top: "inception_4b/pool"
pooling_param {
pool: MAX
kernel_size: 3
stride: 1
pad: 1
}
}
layer {
name: "inception_4b/pool_proj"
type: "Convolution"
bottom: "inception_4b/pool"
top: "inception_4b/pool_proj"
param {
lr_mult: 1
decay_mult: 1
}
param {
lr_mult: 2
decay_mult: 0
}
convolution_param {
num_output: 64
kernel_size: 1
weight_filler {
type: "xavier"
std: 0.1
}
bias_filler {
type: "constant"
value: 0.2
}
}
}
layer {
name: "inception_4b/relu_pool_proj"
type: "ReLU"
bottom: "inception_4b/pool_proj"
top: "inception_4b/pool_proj"
}
layer {
name: "inception_4b/output"
type: "Concat"
bottom: "inception_4b/1x1"
bottom: "inception_4b/3x3"
bottom: "inception_4b/5x5"
bottom: "inception_4b/pool_proj"
top: "inception_4b/output"
}
layer {
name: "inception_4c/1x1"
type: "Convolution"
bottom: "inception_4b/output"
top: "inception_4c/1x1"
param {
lr_mult: 1
decay_mult: 1
}
param {
lr_mult: 2
decay_mult: 0
}
convolution_param {
num_output: 128
kernel_size: 1
weight_filler {
type: "xavier"
std: 0.03
}
bias_filler {
type: "constant"
value: 0.2
}
}
}
layer {
name: "inception_4c/relu_1x1"
type: "ReLU"
bottom: "inception_4c/1x1"
top: "inception_4c/1x1"
}
layer {
name: "inception_4c/3x3_reduce"
type: "Convolution"
bottom: "inception_4b/output"
top: "inception_4c/3x3_reduce"
param {
lr_mult: 1
decay_mult: 1
}
param {
lr_mult: 2
decay_mult: 0
}
convolution_param {
num_output: 128
kernel_size: 1
weight_filler {
type: "xavier"
std: 0.09
}
bias_filler {
type: "constant"
value: 0.2
}
}
}
layer {
name: "inception_4c/relu_3x3_reduce"
type: "ReLU"
bottom: "inception_4c/3x3_reduce"
top: "inception_4c/3x3_reduce"
}
layer {
name: "inception_4c/3x3"
type: "Convolution"
bottom: "inception_4c/3x3_reduce"
top: "inception_4c/3x3"
param {
lr_mult: 1
decay_mult: 1
}
param {
lr_mult: 2
decay_mult: 0
}
convolution_param {
num_output: 256
pad: 1
kernel_size: 3
weight_filler {
type: "xavier"
std: 0.03
}
bias_filler {
type: "constant"
value: 0.2
}
}
}
layer {
name: "inception_4c/relu_3x3"
type: "ReLU"
bottom: "inception_4c/3x3"
top: "inception_4c/3x3"
}
layer {
name: "inception_4c/5x5_reduce"
type: "Convolution"
bottom: "inception_4b/output"
top: "inception_4c/5x5_reduce"
param {
lr_mult: 1
decay_mult: 1
}
param {
lr_mult: 2
decay_mult: 0
}
convolution_param {
num_output: 24
kernel_size: 1
weight_filler {
type: "xavier"
std: 0.2
}
bias_filler {
type: "constant"
value: 0.2
}
}
}
layer {
name: "inception_4c/relu_5x5_reduce"
type: "ReLU"
bottom: "inception_4c/5x5_reduce"
top: "inception_4c/5x5_reduce"
}
layer {
name: "inception_4c/5x5"
type: "Convolution"
bottom: "inception_4c/5x5_reduce"
top: "inception_4c/5x5"
param {
lr_mult: 1
decay_mult: 1
}
param {
lr_mult: 2
decay_mult: 0
}
convolution_param {
num_output: 64
pad: 2
kernel_size: 5
weight_filler {
type: "xavier"
std: 0.03
}
bias_filler {
type: "constant"
value: 0.2
}
}
}
layer {
name: "inception_4c/relu_5x5"
type: "ReLU"
bottom: "inception_4c/5x5"
top: "inception_4c/5x5"
}
layer {
name: "inception_4c/pool"
type: "Pooling"
bottom: "inception_4b/output"
top: "inception_4c/pool"
pooling_param {
pool: MAX
kernel_size: 3
stride: 1
pad: 1
}
}
layer {
name: "inception_4c/pool_proj"
type: "Convolution"
bottom: "inception_4c/pool"
top: "inception_4c/pool_proj"
param {
lr_mult: 1
decay_mult: 1
}
param {
lr_mult: 2
decay_mult: 0
}
convolution_param {
num_output: 64
kernel_size: 1
weight_filler {
type: "xavier"
std: 0.1
}
bias_filler {
type: "constant"
value: 0.2
}
}
}
layer {
name: "inception_4c/relu_pool_proj"
type: "ReLU"
bottom: "inception_4c/pool_proj"
top: "inception_4c/pool_proj"
}
layer {
name: "inception_4c/output"
type: "Concat"
bottom: "inception_4c/1x1"
bottom: "inception_4c/3x3"
bottom: "inception_4c/5x5"
bottom: "inception_4c/pool_proj"
top: "inception_4c/output"
}
layer {
name: "inception_4d/1x1"
type: "Convolution"
bottom: "inception_4c/output"
top: "inception_4d/1x1"
param {
lr_mult: 1
decay_mult: 1
}
param {
lr_mult: 2
decay_mult: 0
}
convolution_param {
num_output: 112
kernel_size: 1
weight_filler {
type: "xavier"
std: 0.03
}
bias_filler {
type: "constant"
value: 0.2
}
}
}
layer {
name: "inception_4d/relu_1x1"
type: "ReLU"
bottom: "inception_4d/1x1"
top: "inception_4d/1x1"
}
layer {
name: "inception_4d/3x3_reduce"
type: "Convolution"
bottom: "inception_4c/output"
top: "inception_4d/3x3_reduce"
param {
lr_mult: 1
decay_mult: 1
}
param {
lr_mult: 2
decay_mult: 0
}
convolution_param {
num_output: 144
kernel_size: 1
weight_filler {
type: "xavier"
std: 0.09
}
bias_filler {
type: "constant"
value: 0.2
}
}
}
layer {
name: "inception_4d/relu_3x3_reduce"
type: "ReLU"
bottom: "inception_4d/3x3_reduce"
top: "inception_4d/3x3_reduce"
}
layer {
name: "inception_4d/3x3"
type: "Convolution"
bottom: "inception_4d/3x3_reduce"
top: "inception_4d/3x3"
param {
lr_mult: 1
decay_mult: 1
}
param {
lr_mult: 2
decay_mult: 0
}
convolution_param {
num_output: 288
pad: 1
kernel_size: 3
weight_filler {
type: "xavier"
std: 0.03
}
bias_filler {
type: "constant"
value: 0.2
}
}
}
layer {
name: "inception_4d/relu_3x3"
type: "ReLU"
bottom: "inception_4d/3x3"
top: "inception_4d/3x3"
}
layer {
name: "inception_4d/5x5_reduce"
type: "Convolution"
bottom: "inception_4c/output"
top: "inception_4d/5x5_reduce"
param {
lr_mult: 1
decay_mult: 1
}
param {
lr_mult: 2
decay_mult: 0
}
convolution_param {
num_output: 32
kernel_size: 1
weight_filler {
type: "xavier"
std: 0.2
}
bias_filler {
type: "constant"
value: 0.2
}
}
}
layer {
name: "inception_4d/relu_5x5_reduce"
type: "ReLU"
bottom: "inception_4d/5x5_reduce"
top: "inception_4d/5x5_reduce"
}
layer {
name: "inception_4d/5x5"
type: "Convolution"
bottom: "inception_4d/5x5_reduce"
top: "inception_4d/5x5"
param {
lr_mult: 1
decay_mult: 1
}
param {
lr_mult: 2
decay_mult: 0
}
convolution_param {
num_output: 64
pad: 2
kernel_size: 5
weight_filler {
type: "xavier"
std: 0.03
}
bias_filler {
type: "constant"
value: 0.2
}
}
}
layer {
name: "inception_4d/relu_5x5"
type: "ReLU"
bottom: "inception_4d/5x5"
top: "inception_4d/5x5"
}
layer {
name: "inception_4d/pool"
type: "Pooling"
bottom: "inception_4c/output"
top: "inception_4d/pool"
pooling_param {
pool: MAX
kernel_size: 3
stride: 1
pad: 1
}
}
layer {
name: "inception_4d/pool_proj"
type: "Convolution"
bottom: "inception_4d/pool"
top: "inception_4d/pool_proj"
param {
lr_mult: 1
decay_mult: 1
}
param {
lr_mult: 2
decay_mult: 0
}
convolution_param {
num_output: 64
kernel_size: 1
weight_filler {
type: "xavier"
std: 0.1
}
bias_filler {
type: "constant"
value: 0.2
}
}
}
layer {
name: "inception_4d/relu_pool_proj"
type: "ReLU"
bottom: "inception_4d/pool_proj"
top: "inception_4d/pool_proj"
}
layer {
name: "inception_4d/output"
type: "Concat"
bottom: "inception_4d/1x1"
bottom: "inception_4d/3x3"
bottom: "inception_4d/5x5"
bottom: "inception_4d/pool_proj"
top: "inception_4d/output"
}
layer {
name: "loss2/ave_pool"
type: "Pooling"
bottom: "inception_4d/output"
top: "loss2/ave_pool"
pooling_param {
pool: AVE
kernel_size: 5
stride: 3
}
}
layer {
name: "loss2/conv"
type: "Convolution"
bottom: "loss2/ave_pool"
top: "loss2/conv"
param {
lr_mult: 1
decay_mult: 1
}
param {
lr_mult: 2
decay_mult: 0
}
convolution_param {
num_output: 128
kernel_size: 1
weight_filler {
type: "xavier"
std: 0.08
}
bias_filler {
type: "constant"
value: 0.2
}
}
}
layer {
name: "loss2/relu_conv"
type: "ReLU"
bottom: "loss2/conv"
top: "loss2/conv"
}
layer {
name: "loss2/fc"
type: "InnerProduct"
bottom: "loss2/conv"
top: "loss2/fc"
param {
lr_mult: 1
decay_mult: 1
}
param {
lr_mult: 2
decay_mult: 0
}
inner_product_param {
num_output: 1024
weight_filler {
type: "xavier"
std: 0.02
}
bias_filler {
type: "constant"
value: 0.2
}
}
}
layer {
name: "loss2/relu_fc"
type: "ReLU"
bottom: "loss2/fc"
top: "loss2/fc"
}
layer {
name: "loss2/drop_fc"
type: "Dropout"
bottom: "loss2/fc"
top: "loss2/fc"
dropout_param {
dropout_ratio: 0.7
}
}
layer {
name: "loss2/classifier"
type: "InnerProduct"
bottom: "loss2/fc"
top: "loss2/classifier"
param {
lr_mult: 1
decay_mult: 1
}
param {
lr_mult: 2
decay_mult: 0
}
inner_product_param {
num_output: 196
weight_filler {
type: "xavier"
std: 0.0009765625
}
bias_filler {
type: "constant"
value: 0
}
}
}
layer {
name: "loss2/loss"
type: "SoftmaxWithLoss"
bottom: "loss2/classifier"
bottom: "label"
top: "loss2/loss"
loss_weight: 0.3
}
layer {
name: "inception_4e/1x1"
type: "Convolution"
bottom: "inception_4d/output"
top: "inception_4e/1x1"
param {
lr_mult: 1
decay_mult: 1
}
param {
lr_mult: 2
decay_mult: 0
}
convolution_param {
num_output: 256
kernel_size: 1
weight_filler {
type: "xavier"
std: 0.03
}
bias_filler {
type: "constant"
value: 0.2
}
}
}
layer {
name: "inception_4e/relu_1x1"
type: "ReLU"
bottom: "inception_4e/1x1"
top: "inception_4e/1x1"
}
layer {
name: "inception_4e/3x3_reduce"
type: "Convolution"
bottom: "inception_4d/output"
top: "inception_4e/3x3_reduce"
param {
lr_mult: 1
decay_mult: 1
}
param {
lr_mult: 2
decay_mult: 0
}
convolution_param {
num_output: 160
kernel_size: 1
weight_filler {
type: "xavier"
std: 0.09
}
bias_filler {
type: "constant"
value: 0.2
}
}
}
layer {
name: "inception_4e/relu_3x3_reduce"
type: "ReLU"
bottom: "inception_4e/3x3_reduce"
top: "inception_4e/3x3_reduce"
}
layer {
name: "inception_4e/3x3"
type: "Convolution"
bottom: "inception_4e/3x3_reduce"
top: "inception_4e/3x3"
param {
lr_mult: 1
decay_mult: 1
}
param {
lr_mult: 2
decay_mult: 0
}
convolution_param {
num_output: 320
pad: 1
kernel_size: 3
weight_filler {
type: "xavier"
std: 0.03
}
bias_filler {
type: "constant"
value: 0.2
}
}
}
layer {
name: "inception_4e/relu_3x3"
type: "ReLU"
bottom: "inception_4e/3x3"
top: "inception_4e/3x3"
}
layer {
name: "inception_4e/5x5_reduce"
type: "Convolution"
bottom: "inception_4d/output"
top: "inception_4e/5x5_reduce"
param {
lr_mult: 1
decay_mult: 1
}
param {
lr_mult: 2
decay_mult: 0
}
convolution_param {
num_output: 32
kernel_size: 1
weight_filler {
type: "xavier"
std: 0.2
}
bias_filler {
type: "constant"
val
I0506 13:00:07.313920  5822 layer_factory.hpp:77] Creating layer train-data
I0506 13:00:07.317348  5822 db_lmdb.cpp:35] Opened lmdb /mnt/bigdisk/MANDIG3/digits/jobs/20200506-122814-755d/train_db
I0506 13:00:07.343066  5822 net.cpp:84] Creating Layer train-data
I0506 13:00:07.343094  5822 net.cpp:380] train-data -> data
I0506 13:00:07.343119  5822 net.cpp:380] train-data -> label
I0506 13:00:07.343133  5822 data_transformer.cpp:25] Loading mean file from: /mnt/bigdisk/MANDIG3/digits/jobs/20200506-122814-755d/mean.binaryproto
I0506 13:00:07.349661  5822 data_layer.cpp:45] output data size: 32,3,224,224
I0506 13:00:07.386659  5822 net.cpp:122] Setting up train-data
I0506 13:00:07.386684  5822 net.cpp:129] Top shape: 32 3 224 224 (4816896)
I0506 13:00:07.386689  5822 net.cpp:129] Top shape: 32 (32)
I0506 13:00:07.386693  5822 net.cpp:137] Memory required for data: 19267712
I0506 13:00:07.386703  5822 layer_factory.hpp:77] Creating layer label_train-data_1_split
I0506 13:00:07.386737  5822 net.cpp:84] Creating Layer label_train-data_1_split
I0506 13:00:07.386744  5822 net.cpp:406] label_train-data_1_split <- label
I0506 13:00:07.386756  5822 net.cpp:380] label_train-data_1_split -> label_train-data_1_split_0
I0506 13:00:07.386766  5822 net.cpp:380] label_train-data_1_split -> label_train-data_1_split_1
I0506 13:00:07.386773  5822 net.cpp:380] label_train-data_1_split -> label_train-data_1_split_2
I0506 13:00:07.386819  5822 net.cpp:122] Setting up label_train-data_1_split
I0506 13:00:07.386826  5822 net.cpp:129] Top shape: 32 (32)
I0506 13:00:07.386829  5822 net.cpp:129] Top shape: 32 (32)
I0506 13:00:07.386833  5822 net.cpp:129] Top shape: 32 (32)
I0506 13:00:07.386837  5822 net.cpp:137] Memory required for data: 19268096
I0506 13:00:07.386840  5822 layer_factory.hpp:77] Creating layer conv1/7x7_s2
I0506 13:00:07.386855  5822 net.cpp:84] Creating Layer conv1/7x7_s2
I0506 13:00:07.386859  5822 net.cpp:406] conv1/7x7_s2 <- data
I0506 13:00:07.386867  5822 net.cpp:380] conv1/7x7_s2 -> conv1/7x7_s2
I0506 13:00:08.633150  5822 net.cpp:122] Setting up conv1/7x7_s2
I0506 13:00:08.633173  5822 net.cpp:129] Top shape: 32 64 112 112 (25690112)
I0506 13:00:08.633177  5822 net.cpp:137] Memory required for data: 122028544
I0506 13:00:08.633200  5822 layer_factory.hpp:77] Creating layer conv1/relu_7x7
I0506 13:00:08.633211  5822 net.cpp:84] Creating Layer conv1/relu_7x7
I0506 13:00:08.633217  5822 net.cpp:406] conv1/relu_7x7 <- conv1/7x7_s2
I0506 13:00:08.633224  5822 net.cpp:367] conv1/relu_7x7 -> conv1/7x7_s2 (in-place)
I0506 13:00:08.633530  5822 net.cpp:122] Setting up conv1/relu_7x7
I0506 13:00:08.633539  5822 net.cpp:129] Top shape: 32 64 112 112 (25690112)
I0506 13:00:08.633543  5822 net.cpp:137] Memory required for data: 224788992
I0506 13:00:08.633546  5822 layer_factory.hpp:77] Creating layer pool1/3x3_s2
I0506 13:00:08.633558  5822 net.cpp:84] Creating Layer pool1/3x3_s2
I0506 13:00:08.633561  5822 net.cpp:406] pool1/3x3_s2 <- conv1/7x7_s2
I0506 13:00:08.633567  5822 net.cpp:380] pool1/3x3_s2 -> pool1/3x3_s2
I0506 13:00:08.633612  5822 net.cpp:122] Setting up pool1/3x3_s2
I0506 13:00:08.633618  5822 net.cpp:129] Top shape: 32 64 56 56 (6422528)
I0506 13:00:08.633621  5822 net.cpp:137] Memory required for data: 250479104
I0506 13:00:08.633625  5822 layer_factory.hpp:77] Creating layer pool1/norm1
I0506 13:00:08.633633  5822 net.cpp:84] Creating Layer pool1/norm1
I0506 13:00:08.633637  5822 net.cpp:406] pool1/norm1 <- pool1/3x3_s2
I0506 13:00:08.633643  5822 net.cpp:380] pool1/norm1 -> pool1/norm1
I0506 13:00:08.634176  5822 net.cpp:122] Setting up pool1/norm1
I0506 13:00:08.634187  5822 net.cpp:129] Top shape: 32 64 56 56 (6422528)
I0506 13:00:08.634191  5822 net.cpp:137] Memory required for data: 276169216
I0506 13:00:08.634194  5822 layer_factory.hpp:77] Creating layer conv2/3x3_reduce
I0506 13:00:08.634207  5822 net.cpp:84] Creating Layer conv2/3x3_reduce
I0506 13:00:08.634212  5822 net.cpp:406] conv2/3x3_reduce <- pool1/norm1
I0506 13:00:08.634217  5822 net.cpp:380] conv2/3x3_reduce -> conv2/3x3_reduce
I0506 13:00:08.636027  5822 net.cpp:122] Setting up conv2/3x3_reduce
I0506 13:00:08.636041  5822 net.cpp:129] Top shape: 32 64 56 56 (6422528)
I0506 13:00:08.636045  5822 net.cpp:137] Memory required for data: 301859328
I0506 13:00:08.636055  5822 layer_factory.hpp:77] Creating layer conv2/relu_3x3_reduce
I0506 13:00:08.636065  5822 net.cpp:84] Creating Layer conv2/relu_3x3_reduce
I0506 13:00:08.636070  5822 net.cpp:406] conv2/relu_3x3_reduce <- conv2/3x3_reduce
I0506 13:00:08.636076  5822 net.cpp:367] conv2/relu_3x3_reduce -> conv2/3x3_reduce (in-place)
I0506 13:00:08.636432  5822 net.cpp:122] Setting up conv2/relu_3x3_reduce
I0506 13:00:08.636441  5822 net.cpp:129] Top shape: 32 64 56 56 (6422528)
I0506 13:00:08.636445  5822 net.cpp:137] Memory required for data: 327549440
I0506 13:00:08.636448  5822 layer_factory.hpp:77] Creating layer conv2/3x3
I0506 13:00:08.636462  5822 net.cpp:84] Creating Layer conv2/3x3
I0506 13:00:08.636466  5822 net.cpp:406] conv2/3x3 <- conv2/3x3_reduce
I0506 13:00:08.636494  5822 net.cpp:380] conv2/3x3 -> conv2/3x3
I0506 13:00:08.640060  5822 net.cpp:122] Setting up conv2/3x3
I0506 13:00:08.640079  5822 net.cpp:129] Top shape: 32 192 56 56 (19267584)
I0506 13:00:08.640082  5822 net.cpp:137] Memory required for data: 404619776
I0506 13:00:08.640095  5822 layer_factory.hpp:77] Creating layer conv2/relu_3x3
I0506 13:00:08.640103  5822 net.cpp:84] Creating Layer conv2/relu_3x3
I0506 13:00:08.640107  5822 net.cpp:406] conv2/relu_3x3 <- conv2/3x3
I0506 13:00:08.640113  5822 net.cpp:367] conv2/relu_3x3 -> conv2/3x3 (in-place)
I0506 13:00:08.640455  5822 net.cpp:122] Setting up conv2/relu_3x3
I0506 13:00:08.640465  5822 net.cpp:129] Top shape: 32 192 56 56 (19267584)
I0506 13:00:08.640468  5822 net.cpp:137] Memory required for data: 481690112
I0506 13:00:08.640471  5822 layer_factory.hpp:77] Creating layer conv2/norm2
I0506 13:00:08.640480  5822 net.cpp:84] Creating Layer conv2/norm2
I0506 13:00:08.640484  5822 net.cpp:406] conv2/norm2 <- conv2/3x3
I0506 13:00:08.640491  5822 net.cpp:380] conv2/norm2 -> conv2/norm2
I0506 13:00:08.641023  5822 net.cpp:122] Setting up conv2/norm2
I0506 13:00:08.641033  5822 net.cpp:129] Top shape: 32 192 56 56 (19267584)
I0506 13:00:08.641037  5822 net.cpp:137] Memory required for data: 558760448
I0506 13:00:08.641041  5822 layer_factory.hpp:77] Creating layer pool2/3x3_s2
I0506 13:00:08.641048  5822 net.cpp:84] Creating Layer pool2/3x3_s2
I0506 13:00:08.641052  5822 net.cpp:406] pool2/3x3_s2 <- conv2/norm2
I0506 13:00:08.641058  5822 net.cpp:380] pool2/3x3_s2 -> pool2/3x3_s2
I0506 13:00:08.641098  5822 net.cpp:122] Setting up pool2/3x3_s2
I0506 13:00:08.641104  5822 net.cpp:129] Top shape: 32 192 28 28 (4816896)
I0506 13:00:08.641108  5822 net.cpp:137] Memory required for data: 578028032
I0506 13:00:08.641111  5822 layer_factory.hpp:77] Creating layer pool2/3x3_s2_pool2/3x3_s2_0_split
I0506 13:00:08.641121  5822 net.cpp:84] Creating Layer pool2/3x3_s2_pool2/3x3_s2_0_split
I0506 13:00:08.641125  5822 net.cpp:406] pool2/3x3_s2_pool2/3x3_s2_0_split <- pool2/3x3_s2
I0506 13:00:08.641132  5822 net.cpp:380] pool2/3x3_s2_pool2/3x3_s2_0_split -> pool2/3x3_s2_pool2/3x3_s2_0_split_0
I0506 13:00:08.641139  5822 net.cpp:380] pool2/3x3_s2_pool2/3x3_s2_0_split -> pool2/3x3_s2_pool2/3x3_s2_0_split_1
I0506 13:00:08.641145  5822 net.cpp:380] pool2/3x3_s2_pool2/3x3_s2_0_split -> pool2/3x3_s2_pool2/3x3_s2_0_split_2
I0506 13:00:08.641151  5822 net.cpp:380] pool2/3x3_s2_pool2/3x3_s2_0_split -> pool2/3x3_s2_pool2/3x3_s2_0_split_3
I0506 13:00:08.641192  5822 net.cpp:122] Setting up pool2/3x3_s2_pool2/3x3_s2_0_split
I0506 13:00:08.641199  5822 net.cpp:129] Top shape: 32 192 28 28 (4816896)
I0506 13:00:08.641203  5822 net.cpp:129] Top shape: 32 192 28 28 (4816896)
I0506 13:00:08.641207  5822 net.cpp:129] Top shape: 32 192 28 28 (4816896)
I0506 13:00:08.641211  5822 net.cpp:129] Top shape: 32 192 28 28 (4816896)
I0506 13:00:08.641214  5822 net.cpp:137] Memory required for data: 655098368
I0506 13:00:08.641217  5822 layer_factory.hpp:77] Creating layer inception_3a/1x1
I0506 13:00:08.641227  5822 net.cpp:84] Creating Layer inception_3a/1x1
I0506 13:00:08.641232  5822 net.cpp:406] inception_3a/1x1 <- pool2/3x3_s2_pool2/3x3_s2_0_split_0
I0506 13:00:08.641237  5822 net.cpp:380] inception_3a/1x1 -> inception_3a/1x1
I0506 13:00:08.643025  5822 net.cpp:122] Setting up inception_3a/1x1
I0506 13:00:08.643043  5822 net.cpp:129] Top shape: 32 64 28 28 (1605632)
I0506 13:00:08.643046  5822 net.cpp:137] Memory required for data: 661520896
I0506 13:00:08.643054  5822 layer_factory.hpp:77] Creating layer inception_3a/relu_1x1
I0506 13:00:08.643061  5822 net.cpp:84] Creating Layer inception_3a/relu_1x1
I0506 13:00:08.643065  5822 net.cpp:406] inception_3a/relu_1x1 <- inception_3a/1x1
I0506 13:00:08.643072  5822 net.cpp:367] inception_3a/relu_1x1 -> inception_3a/1x1 (in-place)
I0506 13:00:08.643420  5822 net.cpp:122] Setting up inception_3a/relu_1x1
I0506 13:00:08.643429  5822 net.cpp:129] Top shape: 32 64 28 28 (1605632)
I0506 13:00:08.643451  5822 net.cpp:137] Memory required for data: 667943424
I0506 13:00:08.643455  5822 layer_factory.hpp:77] Creating layer inception_3a/3x3_reduce
I0506 13:00:08.643467  5822 net.cpp:84] Creating Layer inception_3a/3x3_reduce
I0506 13:00:08.643471  5822 net.cpp:406] inception_3a/3x3_reduce <- pool2/3x3_s2_pool2/3x3_s2_0_split_1
I0506 13:00:08.643479  5822 net.cpp:380] inception_3a/3x3_reduce -> inception_3a/3x3_reduce
I0506 13:00:08.653614  5822 net.cpp:122] Setting up inception_3a/3x3_reduce
I0506 13:00:08.653636  5822 net.cpp:129] Top shape: 32 96 28 28 (2408448)
I0506 13:00:08.653641  5822 net.cpp:137] Memory required for data: 677577216
I0506 13:00:08.653659  5822 layer_factory.hpp:77] Creating layer inception_3a/relu_3x3_reduce
I0506 13:00:08.653677  5822 net.cpp:84] Creating Layer inception_3a/relu_3x3_reduce
I0506 13:00:08.653684  5822 net.cpp:406] inception_3a/relu_3x3_reduce <- inception_3a/3x3_reduce
I0506 13:00:08.653692  5822 net.cpp:367] inception_3a/relu_3x3_reduce -> inception_3a/3x3_reduce (in-place)
I0506 13:00:08.654346  5822 net.cpp:122] Setting up inception_3a/relu_3x3_reduce
I0506 13:00:08.654359  5822 net.cpp:129] Top shape: 32 96 28 28 (2408448)
I0506 13:00:08.654364  5822 net.cpp:137] Memory required for data: 687211008
I0506 13:00:08.654369  5822 layer_factory.hpp:77] Creating layer inception_3a/3x3
I0506 13:00:08.654386  5822 net.cpp:84] Creating Layer inception_3a/3x3
I0506 13:00:08.654390  5822 net.cpp:406] inception_3a/3x3 <- inception_3a/3x3_reduce
I0506 13:00:08.654402  5822 net.cpp:380] inception_3a/3x3 -> inception_3a/3x3
I0506 13:00:08.657454  5822 net.cpp:122] Setting up inception_3a/3x3
I0506 13:00:08.657467  5822 net.cpp:129] Top shape: 32 128 28 28 (3211264)
I0506 13:00:08.657472  5822 net.cpp:137] Memory required for data: 700056064
I0506 13:00:08.657481  5822 layer_factory.hpp:77] Creating layer inception_3a/relu_3x3
I0506 13:00:08.657490  5822 net.cpp:84] Creating Layer inception_3a/relu_3x3
I0506 13:00:08.657495  5822 net.cpp:406] inception_3a/relu_3x3 <- inception_3a/3x3
I0506 13:00:08.657505  5822 net.cpp:367] inception_3a/relu_3x3 -> inception_3a/3x3 (in-place)
I0506 13:00:08.658285  5822 net.cpp:122] Setting up inception_3a/relu_3x3
I0506 13:00:08.658298  5822 net.cpp:129] Top shape: 32 128 28 28 (3211264)
I0506 13:00:08.658303  5822 net.cpp:137] Memory required for data: 712901120
I0506 13:00:08.658308  5822 layer_factory.hpp:77] Creating layer inception_3a/5x5_reduce
I0506 13:00:08.658320  5822 net.cpp:84] Creating Layer inception_3a/5x5_reduce
I0506 13:00:08.658326  5822 net.cpp:406] inception_3a/5x5_reduce <- pool2/3x3_s2_pool2/3x3_s2_0_split_2
I0506 13:00:08.658336  5822 net.cpp:380] inception_3a/5x5_reduce -> inception_3a/5x5_reduce
I0506 13:00:08.660305  5822 net.cpp:122] Setting up inception_3a/5x5_reduce
I0506 13:00:08.660316  5822 net.cpp:129] Top shape: 32 16 28 28 (401408)
I0506 13:00:08.660321  5822 net.cpp:137] Memory required for data: 714506752
I0506 13:00:08.660329  5822 layer_factory.hpp:77] Creating layer inception_3a/relu_5x5_reduce
I0506 13:00:08.660341  5822 net.cpp:84] Creating Layer inception_3a/relu_5x5_reduce
I0506 13:00:08.660346  5822 net.cpp:406] inception_3a/relu_5x5_reduce <- inception_3a/5x5_reduce
I0506 13:00:08.660353  5822 net.cpp:367] inception_3a/relu_5x5_reduce -> inception_3a/5x5_reduce (in-place)
I0506 13:00:08.662763  5822 net.cpp:122] Setting up inception_3a/relu_5x5_reduce
I0506 13:00:08.662777  5822 net.cpp:129] Top shape: 32 16 28 28 (401408)
I0506 13:00:08.662781  5822 net.cpp:137] Memory required for data: 716112384
I0506 13:00:08.662787  5822 layer_factory.hpp:77] Creating layer inception_3a/5x5
I0506 13:00:08.662801  5822 net.cpp:84] Creating Layer inception_3a/5x5
I0506 13:00:08.662806  5822 net.cpp:406] inception_3a/5x5 <- inception_3a/5x5_reduce
I0506 13:00:08.662817  5822 net.cpp:380] inception_3a/5x5 -> inception_3a/5x5
I0506 13:00:08.677033  5822 net.cpp:122] Setting up inception_3a/5x5
I0506 13:00:08.677057  5822 net.cpp:129] Top shape: 32 32 28 28 (802816)
I0506 13:00:08.677062  5822 net.cpp:137] Memory required for data: 719323648
I0506 13:00:08.677096  5822 layer_factory.hpp:77] Creating layer inception_3a/relu_5x5
I0506 13:00:08.677109  5822 net.cpp:84] Creating Layer inception_3a/relu_5x5
I0506 13:00:08.677115  5822 net.cpp:406] inception_3a/relu_5x5 <- inception_3a/5x5
I0506 13:00:08.677125  5822 net.cpp:367] inception_3a/relu_5x5 -> inception_3a/5x5 (in-place)
I0506 13:00:08.677796  5822 net.cpp:122] Setting up inception_3a/relu_5x5
I0506 13:00:08.677809  5822 net.cpp:129] Top shape: 32 32 28 28 (802816)
I0506 13:00:08.677814  5822 net.cpp:137] Memory required for data: 722534912
I0506 13:00:08.677819  5822 layer_factory.hpp:77] Creating layer inception_3a/pool
I0506 13:00:08.677829  5822 net.cpp:84] Creating Layer inception_3a/pool
I0506 13:00:08.677834  5822 net.cpp:406] inception_3a/pool <- pool2/3x3_s2_pool2/3x3_s2_0_split_3
I0506 13:00:08.677843  5822 net.cpp:380] inception_3a/pool -> inception_3a/pool
I0506 13:00:08.677891  5822 net.cpp:122] Setting up inception_3a/pool
I0506 13:00:08.677898  5822 net.cpp:129] Top shape: 32 192 28 28 (4816896)
I0506 13:00:08.677903  5822 net.cpp:137] Memory required for data: 741802496
I0506 13:00:08.677908  5822 layer_factory.hpp:77] Creating layer inception_3a/pool_proj
I0506 13:00:08.677923  5822 net.cpp:84] Creating Layer inception_3a/pool_proj
I0506 13:00:08.677929  5822 net.cpp:406] inception_3a/pool_proj <- inception_3a/pool
I0506 13:00:08.677937  5822 net.cpp:380] inception_3a/pool_proj -> inception_3a/pool_proj
I0506 13:00:08.680209  5822 net.cpp:122] Setting up inception_3a/pool_proj
I0506 13:00:08.680222  5822 net.cpp:129] Top shape: 32 32 28 28 (802816)
I0506 13:00:08.680227  5822 net.cpp:137] Memory required for data: 745013760
I0506 13:00:08.680240  5822 layer_factory.hpp:77] Creating layer inception_3a/relu_pool_proj
I0506 13:00:08.680250  5822 net.cpp:84] Creating Layer inception_3a/relu_pool_proj
I0506 13:00:08.680255  5822 net.cpp:406] inception_3a/relu_pool_proj <- inception_3a/pool_proj
I0506 13:00:08.680263  5822 net.cpp:367] inception_3a/relu_pool_proj -> inception_3a/pool_proj (in-place)
I0506 13:00:08.680701  5822 net.cpp:122] Setting up inception_3a/relu_pool_proj
I0506 13:00:08.680712  5822 net.cpp:129] Top shape: 32 32 28 28 (802816)
I0506 13:00:08.680717  5822 net.cpp:137] Memory required for data: 748225024
I0506 13:00:08.680722  5822 layer_factory.hpp:77] Creating layer inception_3a/output
I0506 13:00:08.680730  5822 net.cpp:84] Creating Layer inception_3a/output
I0506 13:00:08.680735  5822 net.cpp:406] inception_3a/output <- inception_3a/1x1
I0506 13:00:08.680742  5822 net.cpp:406] inception_3a/output <- inception_3a/3x3
I0506 13:00:08.680747  5822 net.cpp:406] inception_3a/output <- inception_3a/5x5
I0506 13:00:08.680753  5822 net.cpp:406] inception_3a/output <- inception_3a/pool_proj
I0506 13:00:08.680760  5822 net.cpp:380] inception_3a/output -> inception_3a/output
I0506 13:00:08.680789  5822 net.cpp:122] Setting up inception_3a/output
I0506 13:00:08.680796  5822 net.cpp:129] Top shape: 32 256 28 28 (6422528)
I0506 13:00:08.680801  5822 net.cpp:137] Memory required for data: 773915136
I0506 13:00:08.680806  5822 layer_factory.hpp:77] Creating layer inception_3a/output_inception_3a/output_0_split
I0506 13:00:08.680816  5822 net.cpp:84] Creating Layer inception_3a/output_inception_3a/output_0_split
I0506 13:00:08.680821  5822 net.cpp:406] inception_3a/output_inception_3a/output_0_split <- inception_3a/output
I0506 13:00:08.680830  5822 net.cpp:380] inception_3a/output_inception_3a/output_0_split -> inception_3a/output_inception_3a/output_0_split_0
I0506 13:00:08.680838  5822 net.cpp:380] inception_3a/output_inception_3a/output_0_split -> inception_3a/output_inception_3a/output_0_split_1
I0506 13:00:08.680846  5822 net.cpp:380] inception_3a/output_inception_3a/output_0_split -> inception_3a/output_inception_3a/output_0_split_2
I0506 13:00:08.680853  5822 net.cpp:380] inception_3a/output_inception_3a/output_0_split -> inception_3a/output_inception_3a/output_0_split_3
I0506 13:00:08.680907  5822 net.cpp:122] Setting up inception_3a/output_inception_3a/output_0_split
I0506 13:00:08.680932  5822 net.cpp:129] Top shape: 32 256 28 28 (6422528)
I0506 13:00:08.680938  5822 net.cpp:129] Top shape: 32 256 28 28 (6422528)
I0506 13:00:08.680943  5822 net.cpp:129] Top shape: 32 256 28 28 (6422528)
I0506 13:00:08.680949  5822 net.cpp:129] Top shape: 32 256 28 28 (6422528)
I0506 13:00:08.680953  5822 net.cpp:137] Memory required for data: 876675584
I0506 13:00:08.680958  5822 layer_factory.hpp:77] Creating layer inception_3b/1x1
I0506 13:00:08.680971  5822 net.cpp:84] Creating Layer inception_3b/1x1
I0506 13:00:08.680976  5822 net.cpp:406] inception_3b/1x1 <- inception_3a/output_inception_3a/output_0_split_0
I0506 13:00:08.680986  5822 net.cpp:380] inception_3b/1x1 -> inception_3b/1x1
I0506 13:00:08.686450  5822 net.cpp:122] Setting up inception_3b/1x1
I0506 13:00:08.686466  5822 net.cpp:129] Top shape: 32 128 28 28 (3211264)
I0506 13:00:08.686471  5822 net.cpp:137] Memory required for data: 889520640
I0506 13:00:08.686506  5822 layer_factory.hpp:77] Creating layer inception_3b/relu_1x1
I0506 13:00:08.686522  5822 net.cpp:84] Creating Layer inception_3b/relu_1x1
I0506 13:00:08.686528  5822 net.cpp:406] inception_3b/relu_1x1 <- inception_3b/1x1
I0506 13:00:08.686537  5822 net.cpp:367] inception_3b/relu_1x1 -> inception_3b/1x1 (in-place)
I0506 13:00:08.687172  5822 net.cpp:122] Setting up inception_3b/relu_1x1
I0506 13:00:08.687186  5822 net.cpp:129] Top shape: 32 128 28 28 (3211264)
I0506 13:00:08.687191  5822 net.cpp:137] Memory required for data: 902365696
I0506 13:00:08.687196  5822 layer_factory.hpp:77] Creating layer inception_3b/3x3_reduce
I0506 13:00:08.687208  5822 net.cpp:84] Creating Layer inception_3b/3x3_reduce
I0506 13:00:08.687214  5822 net.cpp:406] inception_3b/3x3_reduce <- inception_3a/output_inception_3a/output_0_split_1
I0506 13:00:08.687223  5822 net.cpp:380] inception_3b/3x3_reduce -> inception_3b/3x3_reduce
I0506 13:00:08.689525  5822 net.cpp:122] Setting up inception_3b/3x3_reduce
I0506 13:00:08.689538  5822 net.cpp:129] Top shape: 32 128 28 28 (3211264)
I0506 13:00:08.689543  5822 net.cpp:137] Memory required for data: 915210752
I0506 13:00:08.689553  5822 layer_factory.hpp:77] Creating layer inception_3b/relu_3x3_reduce
I0506 13:00:08.689561  5822 net.cpp:84] Creating Layer inception_3b/relu_3x3_reduce
I0506 13:00:08.689568  5822 net.cpp:406] inception_3b/relu_3x3_reduce <- inception_3b/3x3_reduce
I0506 13:00:08.689574  5822 net.cpp:367] inception_3b/relu_3x3_reduce -> inception_3b/3x3_reduce (in-place)
I0506 13:00:08.690209  5822 net.cpp:122] Setting up inception_3b/relu_3x3_reduce
I0506 13:00:08.690220  5822 net.cpp:129] Top shape: 32 128 28 28 (3211264)
I0506 13:00:08.690225  5822 net.cpp:137] Memory required for data: 928055808
I0506 13:00:08.690232  5822 layer_factory.hpp:77] Creating layer inception_3b/3x3
I0506 13:00:08.690255  5822 net.cpp:84] Creating Layer inception_3b/3x3
I0506 13:00:08.690261  5822 net.cpp:406] inception_3b/3x3 <- inception_3b/3x3_reduce
I0506 13:00:08.690269  5822 net.cpp:380] inception_3b/3x3 -> inception_3b/3x3
I0506 13:00:08.700023  5822 net.cpp:122] Setting up inception_3b/3x3
I0506 13:00:08.700042  5822 net.cpp:129] Top shape: 32 192 28 28 (4816896)
I0506 13:00:08.700047  5822 net.cpp:137] Memory required for data: 947323392
I0506 13:00:08.700058  5822 layer_factory.hpp:77] Creating layer inception_3b/relu_3x3
I0506 13:00:08.700067  5822 net.cpp:84] Creating Layer inception_3b/relu_3x3
I0506 13:00:08.700074  5822 net.cpp:406] inception_3b/relu_3x3 <- inception_3b/3x3
I0506 13:00:08.700083  5822 net.cpp:367] inception_3b/relu_3x3 -> inception_3b/3x3 (in-place)
I0506 13:00:08.702090  5822 net.cpp:122] Setting up inception_3b/relu_3x3
I0506 13:00:08.702105  5822 net.cpp:129] Top shape: 32 192 28 28 (4816896)
I0506 13:00:08.702111  5822 net.cpp:137] Memory required for data: 966590976
I0506 13:00:08.702116  5822 layer_factory.hpp:77] Creating layer inception_3b/5x5_reduce
I0506 13:00:08.702131  5822 net.cpp:84] Creating Layer inception_3b/5x5_reduce
I0506 13:00:08.702136  5822 net.cpp:406] inception_3b/5x5_reduce <- inception_3a/output_inception_3a/output_0_split_2
I0506 13:00:08.702169  5822 net.cpp:380] inception_3b/5x5_reduce -> inception_3b/5x5_reduce
I0506 13:00:08.704201  5822 net.cpp:122] Setting up inception_3b/5x5_reduce
I0506 13:00:08.704214  5822 net.cpp:129] Top shape: 32 32 28 28 (802816)
I0506 13:00:08.704219  5822 net.cpp:137] Memory required for data: 969802240
I0506 13:00:08.704228  5822 layer_factory.hpp:77] Creating layer inception_3b/relu_5x5_reduce
I0506 13:00:08.704237  5822 net.cpp:84] Creating Layer inception_3b/relu_5x5_reduce
I0506 13:00:08.704242  5822 net.cpp:406] inception_3b/relu_5x5_reduce <- inception_3b/5x5_reduce
I0506 13:00:08.704252  5822 net.cpp:367] inception_3b/relu_5x5_reduce -> inception_3b/5x5_reduce (in-place)
I0506 13:00:08.705200  5822 net.cpp:122] Setting up inception_3b/relu_5x5_reduce
I0506 13:00:08.705212  5822 net.cpp:129] Top shape: 32 32 28 28 (802816)
I0506 13:00:08.705217  5822 net.cpp:137] Memory required for data: 973013504
I0506 13:00:08.705222  5822 layer_factory.hpp:77] Creating layer inception_3b/5x5
I0506 13:00:08.705235  5822 net.cpp:84] Creating Layer inception_3b/5x5
I0506 13:00:08.705241  5822 net.cpp:406] inception_3b/5x5 <- inception_3b/5x5_reduce
I0506 13:00:08.705251  5822 net.cpp:380] inception_3b/5x5 -> inception_3b/5x5
I0506 13:00:08.708034  5822 net.cpp:122] Setting up inception_3b/5x5
I0506 13:00:08.708047  5822 net.cpp:129] Top shape: 32 96 28 28 (2408448)
I0506 13:00:08.708052  5822 net.cpp:137] Memory required for data: 982647296
I0506 13:00:08.708061  5822 layer_factory.hpp:77] Creating layer inception_3b/relu_5x5
I0506 13:00:08.708071  5822 net.cpp:84] Creating Layer inception_3b/relu_5x5
I0506 13:00:08.708077  5822 net.cpp:406] inception_3b/relu_5x5 <- inception_3b/5x5
I0506 13:00:08.708084  5822 net.cpp:367] inception_3b/relu_5x5 -> inception_3b/5x5 (in-place)
I0506 13:00:08.708534  5822 net.cpp:122] Setting up inception_3b/relu_5x5
I0506 13:00:08.708545  5822 net.cpp:129] Top shape: 32 96 28 28 (2408448)
I0506 13:00:08.708550  5822 net.cpp:137] Memory required for data: 992281088
I0506 13:00:08.708557  5822 layer_factory.hpp:77] Creating layer inception_3b/pool
I0506 13:00:08.708565  5822 net.cpp:84] Creating Layer inception_3b/pool
I0506 13:00:08.708571  5822 net.cpp:406] inception_3b/pool <- inception_3a/output_inception_3a/output_0_split_3
I0506 13:00:08.708581  5822 net.cpp:380] inception_3b/pool -> inception_3b/pool
I0506 13:00:08.708626  5822 net.cpp:122] Setting up inception_3b/pool
I0506 13:00:08.708633  5822 net.cpp:129] Top shape: 32 256 28 28 (6422528)
I0506 13:00:08.708638  5822 net.cpp:137] Memory required for data: 1017971200
I0506 13:00:08.708643  5822 layer_factory.hpp:77] Creating layer inception_3b/pool_proj
I0506 13:00:08.708654  5822 net.cpp:84] Creating Layer inception_3b/pool_proj
I0506 13:00:08.708660  5822 net.cpp:406] inception_3b/pool_proj <- inception_3b/pool
I0506 13:00:08.708670  5822 net.cpp:380] inception_3b/pool_proj -> inception_3b/pool_proj
I0506 13:00:08.717582  5822 net.cpp:122] Setting up inception_3b/pool_proj
I0506 13:00:08.717603  5822 net.cpp:129] Top shape: 32 64 28 28 (1605632)
I0506 13:00:08.717608  5822 net.cpp:137] Memory required for data: 1024393728
I0506 13:00:08.717619  5822 layer_factory.hpp:77] Creating layer inception_3b/relu_pool_proj
I0506 13:00:08.717631  5822 net.cpp:84] Creating Layer inception_3b/relu_pool_proj
I0506 13:00:08.717638  5822 net.cpp:406] inception_3b/relu_pool_proj <- inception_3b/pool_proj
I0506 13:00:08.717648  5822 net.cpp:367] inception_3b/relu_pool_proj -> inception_3b/pool_proj (in-place)
I0506 13:00:08.718122  5822 net.cpp:122] Setting up inception_3b/relu_pool_proj
I0506 13:00:08.718132  5822 net.cpp:129] Top shape: 32 64 28 28 (1605632)
I0506 13:00:08.718137  5822 net.cpp:137] Memory required for data: 1030816256
I0506 13:00:08.718142  5822 layer_factory.hpp:77] Creating layer inception_3b/output
I0506 13:00:08.718152  5822 net.cpp:84] Creating Layer inception_3b/output
I0506 13:00:08.718158  5822 net.cpp:406] inception_3b/output <- inception_3b/1x1
I0506 13:00:08.718165  5822 net.cpp:406] inception_3b/output <- inception_3b/3x3
I0506 13:00:08.718194  5822 net.cpp:406] inception_3b/output <- inception_3b/5x5
I0506 13:00:08.718200  5822 net.cpp:406] inception_3b/output <- inception_3b/pool_proj
I0506 13:00:08.718207  5822 net.cpp:380] inception_3b/output -> inception_3b/output
I0506 13:00:08.718243  5822 net.cpp:122] Setting up inception_3b/output
I0506 13:00:08.718251  5822 net.cpp:129] Top shape: 32 480 28 28 (12042240)
I0506 13:00:08.718255  5822 net.cpp:137] Memory required for data: 1078985216
I0506 13:00:08.718261  5822 layer_factory.hpp:77] Creating layer pool3/3x3_s2
I0506 13:00:08.718268  5822 net.cpp:84] Creating Layer pool3/3x3_s2
I0506 13:00:08.718273  5822 net.cpp:406] pool3/3x3_s2 <- inception_3b/output
I0506 13:00:08.718283  5822 net.cpp:380] pool3/3x3_s2 -> pool3/3x3_s2
I0506 13:00:08.718322  5822 net.cpp:122] Setting up pool3/3x3_s2
I0506 13:00:08.718330  5822 net.cpp:129] Top shape: 32 480 14 14 (3010560)
I0506 13:00:08.718334  5822 net.cpp:137] Memory required for data: 1091027456
I0506 13:00:08.718339  5822 layer_factory.hpp:77] Creating layer pool3/3x3_s2_pool3/3x3_s2_0_split
I0506 13:00:08.718348  5822 net.cpp:84] Creating Layer pool3/3x3_s2_pool3/3x3_s2_0_split
I0506 13:00:08.718353  5822 net.cpp:406] pool3/3x3_s2_pool3/3x3_s2_0_split <- pool3/3x3_s2
I0506 13:00:08.718360  5822 net.cpp:380] pool3/3x3_s2_pool3/3x3_s2_0_split -> pool3/3x3_s2_pool3/3x3_s2_0_split_0
I0506 13:00:08.718369  5822 net.cpp:380] pool3/3x3_s2_pool3/3x3_s2_0_split -> pool3/3x3_s2_pool3/3x3_s2_0_split_1
I0506 13:00:08.718379  5822 net.cpp:380] pool3/3x3_s2_pool3/3x3_s2_0_split -> pool3/3x3_s2_pool3/3x3_s2_0_split_2
I0506 13:00:08.718386  5822 net.cpp:380] pool3/3x3_s2_pool3/3x3_s2_0_split -> pool3/3x3_s2_pool3/3x3_s2_0_split_3
I0506 13:00:08.718446  5822 net.cpp:122] Setting up pool3/3x3_s2_pool3/3x3_s2_0_split
I0506 13:00:08.718457  5822 net.cpp:129] Top shape: 32 480 14 14 (3010560)
I0506 13:00:08.718463  5822 net.cpp:129] Top shape: 32 480 14 14 (3010560)
I0506 13:00:08.718468  5822 net.cpp:129] Top shape: 32 480 14 14 (3010560)
I0506 13:00:08.718474  5822 net.cpp:129] Top shape: 32 480 14 14 (3010560)
I0506 13:00:08.718478  5822 net.cpp:137] Memory required for data: 1139196416
I0506 13:00:08.718506  5822 layer_factory.hpp:77] Creating layer inception_4a/1x1
I0506 13:00:08.718520  5822 net.cpp:84] Creating Layer inception_4a/1x1
I0506 13:00:08.718529  5822 net.cpp:406] inception_4a/1x1 <- pool3/3x3_s2_pool3/3x3_s2_0_split_0
I0506 13:00:08.718538  5822 net.cpp:380] inception_4a/1x1 -> inception_4a/1x1
I0506 13:00:08.724375  5822 net.cpp:122] Setting up inception_4a/1x1
I0506 13:00:08.724390  5822 net.cpp:129] Top shape: 32 192 14 14 (1204224)
I0506 13:00:08.724395  5822 net.cpp:137] Memory required for data: 1144013312
I0506 13:00:08.724404  5822 layer_factory.hpp:77] Creating layer inception_4a/relu_1x1
I0506 13:00:08.724416  5822 net.cpp:84] Creating Layer inception_4a/relu_1x1
I0506 13:00:08.724421  5822 net.cpp:406] inception_4a/relu_1x1 <- inception_4a/1x1
I0506 13:00:08.724429  5822 net.cpp:367] inception_4a/relu_1x1 -> inception_4a/1x1 (in-place)
I0506 13:00:08.725409  5822 net.cpp:122] Setting up inception_4a/relu_1x1
I0506 13:00:08.725421  5822 net.cpp:129] Top shape: 32 192 14 14 (1204224)
I0506 13:00:08.725426  5822 net.cpp:137] Memory required for data: 1148830208
I0506 13:00:08.725431  5822 layer_factory.hpp:77] Creating layer inception_4a/3x3_reduce
I0506 13:00:08.725445  5822 net.cpp:84] Creating Layer inception_4a/3x3_reduce
I0506 13:00:08.725450  5822 net.cpp:406] inception_4a/3x3_reduce <- pool3/3x3_s2_pool3/3x3_s2_0_split_1
I0506 13:00:08.725462  5822 net.cpp:380] inception_4a/3x3_reduce -> inception_4a/3x3_reduce
I0506 13:00:08.728600  5822 net.cpp:122] Setting up inception_4a/3x3_reduce
I0506 13:00:08.728612  5822 net.cpp:129] Top shape: 32 96 14 14 (602112)
I0506 13:00:08.728617  5822 net.cpp:137] Memory required for data: 1151238656
I0506 13:00:08.728634  5822 layer_factory.hpp:77] Creating layer inception_4a/relu_3x3_reduce
I0506 13:00:08.728643  5822 net.cpp:84] Creating Layer inception_4a/relu_3x3_reduce
I0506 13:00:08.728670  5822 net.cpp:406] inception_4a/relu_3x3_reduce <- inception_4a/3x3_reduce
I0506 13:00:08.728678  5822 net.cpp:367] inception_4a/relu_3x3_reduce -> inception_4a/3x3_reduce (in-place)
I0506 13:00:08.730815  5822 net.cpp:122] Setting up inception_4a/relu_3x3_reduce
I0506 13:00:08.730829  5822 net.cpp:129] Top shape: 32 96 14 14 (602112)
I0506 13:00:08.730834  5822 net.cpp:137] Memory required for data: 1153647104
I0506 13:00:08.730840  5822 layer_factory.hpp:77] Creating layer inception_4a/3x3
I0506 13:00:08.730856  5822 net.cpp:84] Creating Layer inception_4a/3x3
I0506 13:00:08.730862  5822 net.cpp:406] inception_4a/3x3 <- inception_4a/3x3_reduce
I0506 13:00:08.730872  5822 net.cpp:380] inception_4a/3x3 -> inception_4a/3x3
I0506 13:00:08.734375  5822 net.cpp:122] Setting up inception_4a/3x3
I0506 13:00:08.734391  5822 net.cpp:129] Top shape: 32 208 14 14 (1304576)
I0506 13:00:08.734396  5822 net.cpp:137] Memory required for data: 1158865408
I0506 13:00:08.734405  5822 layer_factory.hpp:77] Creating layer inception_4a/relu_3x3
I0506 13:00:08.734412  5822 net.cpp:84] Creating Layer inception_4a/relu_3x3
I0506 13:00:08.734417  5822 net.cpp:406] inception_4a/relu_3x3 <- inception_4a/3x3
I0506 13:00:08.734426  5822 net.cpp:367] inception_4a/relu_3x3 -> inception_4a/3x3 (in-place)
I0506 13:00:08.735061  5822 net.cpp:122] Setting up inception_4a/relu_3x3
I0506 13:00:08.735075  5822 net.cpp:129] Top shape: 32 208 14 14 (1304576)
I0506 13:00:08.735080  5822 net.cpp:137] Memory required for data: 1164083712
I0506 13:00:08.735085  5822 layer_factory.hpp:77] Creating layer inception_4a/5x5_reduce
I0506 13:00:08.735097  5822 net.cpp:84] Creating Layer inception_4a/5x5_reduce
I0506 13:00:08.735102  5822 net.cpp:406] inception_4a/5x5_reduce <- pool3/3x3_s2_pool3/3x3_s2_0_split_2
I0506 13:00:08.735111  5822 net.cpp:380] inception_4a/5x5_reduce -> inception_4a/5x5_reduce
I0506 13:00:08.737133  5822 net.cpp:122] Setting up inception_4a/5x5_reduce
I0506 13:00:08.737144  5822 net.cpp:129] Top shape: 32 16 14 14 (100352)
I0506 13:00:08.737149  5822 net.cpp:137] Memory required for data: 1164485120
I0506 13:00:08.737159  5822 layer_factory.hpp:77] Creating layer inception_4a/relu_5x5_reduce
I0506 13:00:08.737166  5822 net.cpp:84] Creating Layer inception_4a/relu_5x5_reduce
I0506 13:00:08.737172  5822 net.cpp:406] inception_4a/relu_5x5_reduce <- inception_4a/5x5_reduce
I0506 13:00:08.737181  5822 net.cpp:367] inception_4a/relu_5x5_reduce -> inception_4a/5x5_reduce (in-place)
I0506 13:00:08.743849  5822 net.cpp:122] Setting up inception_4a/relu_5x5_reduce
I0506 13:00:08.743861  5822 net.cpp:129] Top shape: 32 16 14 14 (100352)
I0506 13:00:08.743865  5822 net.cpp:137] Memory required for data: 1164886528
I0506 13:00:08.743868  5822 layer_factory.hpp:77] Creating layer inception_4a/5x5
I0506 13:00:08.743880  5822 net.cpp:84] Creating Layer inception_4a/5x5
I0506 13:00:08.743885  5822 net.cpp:406] inception_4a/5x5 <- inception_4a/5x5_reduce
I0506 13:00:08.743892  5822 net.cpp:380] inception_4a/5x5 -> inception_4a/5x5
I0506 13:00:08.746942  5822 net.cpp:122] Setting up inception_4a/5x5
I0506 13:00:08.746955  5822 net.cpp:129] Top shape: 32 48 14 14 (301056)
I0506 13:00:08.746958  5822 net.cpp:137] Memory required for data: 1166090752
I0506 13:00:08.746965  5822 layer_factory.hpp:77] Creating layer inception_4a/relu_5x5
I0506 13:00:08.746973  5822 net.cpp:84] Creating Layer inception_4a/relu_5x5
I0506 13:00:08.746978  5822 net.cpp:406] inception_4a/relu_5x5 <- inception_4a/5x5
I0506 13:00:08.746984  5822 net.cpp:367] inception_4a/relu_5x5 -> inception_4a/5x5 (in-place)
I0506 13:00:08.747331  5822 net.cpp:122] Setting up inception_4a/relu_5x5
I0506 13:00:08.747339  5822 net.cpp:129] Top shape: 32 48 14 14 (301056)
I0506 13:00:08.747344  5822 net.cpp:137] Memory required for data: 1167294976
I0506 13:00:08.747346  5822 layer_factory.hpp:77] Creating layer inception_4a/pool
I0506 13:00:08.747355  5822 net.cpp:84] Creating Layer inception_4a/pool
I0506 13:00:08.747359  5822 net.cpp:406] inception_4a/pool <- pool3/3x3_s2_pool3/3x3_s2_0_split_3
I0506 13:00:08.747385  5822 net.cpp:380] inception_4a/pool -> inception_4a/pool
I0506 13:00:08.747422  5822 net.cpp:122] Setting up inception_4a/pool
I0506 13:00:08.747428  5822 net.cpp:129] Top shape: 32 480 14 14 (3010560)
I0506 13:00:08.747431  5822 net.cpp:137] Memory required for data: 1179337216
I0506 13:00:08.747434  5822 layer_factory.hpp:77] Creating layer inception_4a/pool_proj
I0506 13:00:08.747444  5822 net.cpp:84] Creating Layer inception_4a/pool_proj
I0506 13:00:08.747448  5822 net.cpp:406] inception_4a/pool_proj <- inception_4a/pool
I0506 13:00:08.747454  5822 net.cpp:380] inception_4a/pool_proj -> inception_4a/pool_proj
I0506 13:00:08.749290  5822 net.cpp:122] Setting up inception_4a/pool_proj
I0506 13:00:08.749300  5822 net.cpp:129] Top shape: 32 64 14 14 (401408)
I0506 13:00:08.749303  5822 net.cpp:137] Memory required for data: 1180942848
I0506 13:00:08.749310  5822 layer_factory.hpp:77] Creating layer inception_4a/relu_pool_proj
I0506 13:00:08.749316  5822 net.cpp:84] Creating Layer inception_4a/relu_pool_proj
I0506 13:00:08.749321  5822 net.cpp:406] inception_4a/relu_pool_proj <- inception_4a/pool_proj
I0506 13:00:08.749326  5822 net.cpp:367] inception_4a/relu_pool_proj -> inception_4a/pool_proj (in-place)
I0506 13:00:08.749835  5822 net.cpp:122] Setting up inception_4a/relu_pool_proj
I0506 13:00:08.749845  5822 net.cpp:129] Top shape: 32 64 14 14 (401408)
I0506 13:00:08.749848  5822 net.cpp:137] Memory required for data: 1182548480
I0506 13:00:08.749851  5822 layer_factory.hpp:77] Creating layer inception_4a/output
I0506 13:00:08.749857  5822 net.cpp:84] Creating Layer inception_4a/output
I0506 13:00:08.749861  5822 net.cpp:406] inception_4a/output <- inception_4a/1x1
I0506 13:00:08.749866  5822 net.cpp:406] inception_4a/output <- inception_4a/3x3
I0506 13:00:08.749871  5822 net.cpp:406] inception_4a/output <- inception_4a/5x5
I0506 13:00:08.749874  5822 net.cpp:406] inception_4a/output <- inception_4a/pool_proj
I0506 13:00:08.749881  5822 net.cpp:380] inception_4a/output -> inception_4a/output
I0506 13:00:08.749907  5822 net.cpp:122] Setting up inception_4a/output
I0506 13:00:08.749912  5822 net.cpp:129] Top shape: 32 512 14 14 (3211264)
I0506 13:00:08.749915  5822 net.cpp:137] Memory required for data: 1195393536
I0506 13:00:08.749918  5822 layer_factory.hpp:77] Creating layer inception_4a/output_inception_4a/output_0_split
I0506 13:00:08.749925  5822 net.cpp:84] Creating Layer inception_4a/output_inception_4a/output_0_split
I0506 13:00:08.749928  5822 net.cpp:406] inception_4a/output_inception_4a/output_0_split <- inception_4a/output
I0506 13:00:08.749935  5822 net.cpp:380] inception_4a/output_inception_4a/output_0_split -> inception_4a/output_inception_4a/output_0_split_0
I0506 13:00:08.749941  5822 net.cpp:380] inception_4a/output_inception_4a/output_0_split -> inception_4a/output_inception_4a/output_0_split_1
I0506 13:00:08.749948  5822 net.cpp:380] inception_4a/output_inception_4a/output_0_split -> inception_4a/output_inception_4a/output_0_split_2
I0506 13:00:08.749954  5822 net.cpp:380] inception_4a/output_inception_4a/output_0_split -> inception_4a/output_inception_4a/output_0_split_3
I0506 13:00:08.749960  5822 net.cpp:380] inception_4a/output_inception_4a/output_0_split -> inception_4a/output_inception_4a/output_0_split_4
I0506 13:00:08.750015  5822 net.cpp:122] Setting up inception_4a/output_inception_4a/output_0_split
I0506 13:00:08.750020  5822 net.cpp:129] Top shape: 32 512 14 14 (3211264)
I0506 13:00:08.750025  5822 net.cpp:129] Top shape: 32 512 14 14 (3211264)
I0506 13:00:08.750027  5822 net.cpp:129] Top shape: 32 512 14 14 (3211264)
I0506 13:00:08.750031  5822 net.cpp:129] Top shape: 32 512 14 14 (3211264)
I0506 13:00:08.750036  5822 net.cpp:129] Top shape: 32 512 14 14 (3211264)
I0506 13:00:08.750038  5822 net.cpp:137] Memory required for data: 1259618816
I0506 13:00:08.750041  5822 layer_factory.hpp:77] Creating layer loss1/ave_pool
I0506 13:00:08.750048  5822 net.cpp:84] Creating Layer loss1/ave_pool
I0506 13:00:08.750052  5822 net.cpp:406] loss1/ave_pool <- inception_4a/output_inception_4a/output_0_split_0
I0506 13:00:08.750067  5822 net.cpp:380] loss1/ave_pool -> loss1/ave_pool
I0506 13:00:08.750428  5822 net.cpp:122] Setting up loss1/ave_pool
I0506 13:00:08.750437  5822 net.cpp:129] Top shape: 32 512 4 4 (262144)
I0506 13:00:08.750440  5822 net.cpp:137] Memory required for data: 1260667392
I0506 13:00:08.750444  5822 layer_factory.hpp:77] Creating layer loss1/conv
I0506 13:00:08.750453  5822 net.cpp:84] Creating Layer loss1/conv
I0506 13:00:08.750458  5822 net.cpp:406] loss1/conv <- loss1/ave_pool
I0506 13:00:08.750464  5822 net.cpp:380] loss1/conv -> loss1/conv
I0506 13:00:08.753684  5822 net.cpp:122] Setting up loss1/conv
I0506 13:00:08.753695  5822 net.cpp:129] Top shape: 32 128 4 4 (65536)
I0506 13:00:08.753698  5822 net.cpp:137] Memory required for data: 1260929536
I0506 13:00:08.753705  5822 layer_factory.hpp:77] Creating layer loss1/relu_conv
I0506 13:00:08.753713  5822 net.cpp:84] Creating Layer loss1/relu_conv
I0506 13:00:08.753717  5822 net.cpp:406] loss1/relu_conv <- loss1/conv
I0506 13:00:08.753722  5822 net.cpp:367] loss1/relu_conv -> loss1/conv (in-place)
I0506 13:00:08.754240  5822 net.cpp:122] Setting up loss1/relu_conv
I0506 13:00:08.754249  5822 net.cpp:129] Top shape: 32 128 4 4 (65536)
I0506 13:00:08.754252  5822 net.cpp:137] Memory required for data: 1261191680
I0506 13:00:08.754256  5822 layer_factory.hpp:77] Creating layer loss1/fc
I0506 13:00:08.754264  5822 net.cpp:84] Creating Layer loss1/fc
I0506 13:00:08.754268  5822 net.cpp:406] loss1/fc <- loss1/conv
I0506 13:00:08.754274  5822 net.cpp:380] loss1/fc -> loss1/fc
I0506 13:00:08.766301  5822 net.cpp:122] Setting up loss1/fc
I0506 13:00:08.766321  5822 net.cpp:129] Top shape: 32 1024 (32768)
I0506 13:00:08.766324  5822 net.cpp:137] Memory required for data: 1261322752
I0506 13:00:08.766333  5822 layer_factory.hpp:77] Creating layer loss1/relu_fc
I0506 13:00:08.766342  5822 net.cpp:84] Creating Layer loss1/relu_fc
I0506 13:00:08.766347  5822 net.cpp:406] loss1/relu_fc <- loss1/fc
I0506 13:00:08.766355  5822 net.cpp:367] loss1/relu_fc -> loss1/fc (in-place)
I0506 13:00:08.766769  5822 net.cpp:122] Setting up loss1/relu_fc
I0506 13:00:08.766777  5822 net.cpp:129] Top shape: 32 1024 (32768)
I0506 13:00:08.766780  5822 net.cpp:137] Memory required for data: 1261453824
I0506 13:00:08.766784  5822 layer_factory.hpp:77] Creating layer loss1/drop_fc
I0506 13:00:08.766806  5822 net.cpp:84] Creating Layer loss1/drop_fc
I0506 13:00:08.766810  5822 net.cpp:406] loss1/drop_fc <- loss1/fc
I0506 13:00:08.766815  5822 net.cpp:367] loss1/drop_fc -> loss1/fc (in-place)
I0506 13:00:08.766841  5822 net.cpp:122] Setting up loss1/drop_fc
I0506 13:00:08.766845  5822 net.cpp:129] Top shape: 32 1024 (32768)
I0506 13:00:08.766849  5822 net.cpp:137] Memory required for data: 1261584896
I0506 13:00:08.766852  5822 layer_factory.hpp:77] Creating layer loss1/classifier
I0506 13:00:08.766860  5822 net.cpp:84] Creating Layer loss1/classifier
I0506 13:00:08.766862  5822 net.cpp:406] loss1/classifier <- loss1/fc
I0506 13:00:08.766868  5822 net.cpp:380] loss1/classifier -> loss1/classifier
I0506 13:00:08.769876  5822 net.cpp:122] Setting up loss1/classifier
I0506 13:00:08.769886  5822 net.cpp:129] Top shape: 32 196 (6272)
I0506 13:00:08.769889  5822 net.cpp:137] Memory required for data: 1261609984
I0506 13:00:08.769896  5822 layer_factory.hpp:77] Creating layer loss1/loss
I0506 13:00:08.769903  5822 net.cpp:84] Creating Layer loss1/loss
I0506 13:00:08.769907  5822 net.cpp:406] loss1/loss <- loss1/classifier
I0506 13:00:08.769912  5822 net.cpp:406] loss1/loss <- label_train-data_1_split_0
I0506 13:00:08.769917  5822 net.cpp:380] loss1/loss -> loss1/loss
I0506 13:00:08.769930  5822 layer_factory.hpp:77] Creating layer loss1/loss
I0506 13:00:08.770562  5822 net.cpp:122] Setting up loss1/loss
I0506 13:00:08.770571  5822 net.cpp:129] Top shape: (1)
I0506 13:00:08.770575  5822 net.cpp:132]     with loss weight 0.3
I0506 13:00:08.770592  5822 net.cpp:137] Memory required for data: 1261609988
I0506 13:00:08.770596  5822 layer_factory.hpp:77] Creating layer inception_4b/1x1
I0506 13:00:08.770627  5822 net.cpp:84] Creating Layer inception_4b/1x1
I0506 13:00:08.770632  5822 net.cpp:406] inception_4b/1x1 <- inception_4a/output_inception_4a/output_0_split_1
I0506 13:00:08.770639  5822 net.cpp:380] inception_4b/1x1 -> inception_4b/1x1
I0506 13:00:08.772609  5822 net.cpp:122] Setting up inception_4b/1x1
I0506 13:00:08.772620  5822 net.cpp:129] Top shape: 32 160 14 14 (1003520)
I0506 13:00:08.772624  5822 net.cpp:137] Memory required for data: 1265624068
I0506 13:00:08.772630  5822 layer_factory.hpp:77] Creating layer inception_4b/relu_1x1
I0506 13:00:08.772637  5822 net.cpp:84] Creating Layer inception_4b/relu_1x1
I0506 13:00:08.772641  5822 net.cpp:406] inception_4b/relu_1x1 <- inception_4b/1x1
I0506 13:00:08.772646  5822 net.cpp:367] inception_4b/relu_1x1 -> inception_4b/1x1 (in-place)
I0506 13:00:08.773159  5822 net.cpp:122] Setting up inception_4b/relu_1x1
I0506 13:00:08.773167  5822 net.cpp:129] Top shape: 32 160 14 14 (1003520)
I0506 13:00:08.773171  5822 net.cpp:137] Memory required for data: 1269638148
I0506 13:00:08.773175  5822 layer_factory.hpp:77] Creating layer inception_4b/3x3_reduce
I0506 13:00:08.773185  5822 net.cpp:84] Creating Layer inception_4b/3x3_reduce
I0506 13:00:08.773188  5822 net.cpp:406] inception_4b/3x3_reduce <- inception_4a/output_inception_4a/output_0_split_2
I0506 13:00:08.773195  5822 net.cpp:380] inception_4b/3x3_reduce -> inception_4b/3x3_reduce
I0506 13:00:08.776711  5822 net.cpp:122] Setting up inception_4b/3x3_reduce
I0506 13:00:08.776723  5822 net.cpp:129] Top shape: 32 112 14 14 (702464)
I0506 13:00:08.776727  5822 net.cpp:137] Memory required for data: 1272448004
I0506 13:00:08.776733  5822 layer_factory.hpp:77] Creating layer inception_4b/relu_3x3_reduce
I0506 13:00:08.776741  5822 net.cpp:84] Creating Layer inception_4b/relu_3x3_reduce
I0506 13:00:08.776746  5822 net.cpp:406] inception_4b/relu_3x3_reduce <- inception_4b/3x3_reduce
I0506 13:00:08.776752  5822 net.cpp:367] inception_4b/relu_3x3_reduce -> inception_4b/3x3_reduce (in-place)
I0506 13:00:08.777112  5822 net.cpp:122] Setting up inception_4b/relu_3x3_reduce
I0506 13:00:08.777119  5822 net.cpp:129] Top shape: 32 112 14 14 (702464)
I0506 13:00:08.777122  5822 net.cpp:137] Memory required for data: 1275257860
I0506 13:00:08.777127  5822 layer_factory.hpp:77] Creating layer inception_4b/3x3
I0506 13:00:08.777137  5822 net.cpp:84] Creating Layer inception_4b/3x3
I0506 13:00:08.777140  5822 net.cpp:406] inception_4b/3x3 <- inception_4b/3x3_reduce
I0506 13:00:08.777148  5822 net.cpp:380] inception_4b/3x3 -> inception_4b/3x3
I0506 13:00:08.789227  5822 net.cpp:122] Setting up inception_4b/3x3
I0506 13:00:08.789243  5822 net.cpp:129] Top shape: 32 224 14 14 (1404928)
I0506 13:00:08.789247  5822 net.cpp:137] Memory required for data: 1280877572
I0506 13:00:08.789256  5822 layer_factory.hpp:77] Creating layer inception_4b/relu_3x3
I0506 13:00:08.789264  5822 net.cpp:84] Creating Layer inception_4b/relu_3x3
I0506 13:00:08.789269  5822 net.cpp:406] inception_4b/relu_3x3 <- inception_4b/3x3
I0506 13:00:08.789278  5822 net.cpp:367] inception_4b/relu_3x3 -> inception_4b/3x3 (in-place)
I0506 13:00:08.789805  5822 net.cpp:122] Setting up inception_4b/relu_3x3
I0506 13:00:08.789814  5822 net.cpp:129] Top shape: 32 224 14 14 (1404928)
I0506 13:00:08.789819  5822 net.cpp:137] Memory required for data: 1286497284
I0506 13:00:08.789824  5822 layer_factory.hpp:77] Creating layer inception_4b/5x5_reduce
I0506 13:00:08.789835  5822 net.cpp:84] Creating Layer inception_4b/5x5_reduce
I0506 13:00:08.789840  5822 net.cpp:406] inception_4b/5x5_reduce <- inception_4a/output_inception_4a/output_0_split_3
I0506 13:00:08.789849  5822 net.cpp:380] inception_4b/5x5_reduce -> inception_4b/5x5_reduce
I0506 13:00:08.791563  5822 net.cpp:122] Setting up inception_4b/5x5_reduce
I0506 13:00:08.791574  5822 net.cpp:129] Top shape: 32 24 14 14 (150528)
I0506 13:00:08.791579  5822 net.cpp:137] Memory required for data: 1287099396
I0506 13:00:08.791586  5822 layer_factory.hpp:77] Creating layer inception_4b/relu_5x5_reduce
I0506 13:00:08.791613  5822 net.cpp:84] Creating Layer inception_4b/relu_5x5_reduce
I0506 13:00:08.791618  5822 net.cpp:406] inception_4b/relu_5x5_reduce <- inception_4b/5x5_reduce
I0506 13:00:08.791625  5822 net.cpp:367] inception_4b/relu_5x5_reduce -> inception_4b/5x5_reduce (in-place)
I0506 13:00:08.792138  5822 net.cpp:122] Setting up inception_4b/relu_5x5_reduce
I0506 13:00:08.792150  5822 net.cpp:129] Top shape: 32 24 14 14 (150528)
I0506 13:00:08.792153  5822 net.cpp:137] Memory required for data: 1287701508
I0506 13:00:08.792158  5822 layer_factory.hpp:77] Creating layer inception_4b/5x5
I0506 13:00:08.792169  5822 net.cpp:84] Creating Layer inception_4b/5x5
I0506 13:00:08.792174  5822 net.cpp:406] inception_4b/5x5 <- inception_4b/5x5_reduce
I0506 13:00:08.792182  5822 net.cpp:380] inception_4b/5x5 -> inception_4b/5x5
I0506 13:00:08.795255  5822 net.cpp:122] Setting up inception_4b/5x5
I0506 13:00:08.795266  5822 net.cpp:129] Top shape: 32 64 14 14 (401408)
I0506 13:00:08.795270  5822 net.cpp:137] Memory required for data: 1289307140
I0506 13:00:08.795277  5822 layer_factory.hpp:77] Creating layer inception_4b/relu_5x5
I0506 13:00:08.795284  5822 net.cpp:84] Creating Layer inception_4b/relu_5x5
I0506 13:00:08.795289  5822 net.cpp:406] inception_4b/relu_5x5 <- inception_4b/5x5
I0506 13:00:08.795298  5822 net.cpp:367] inception_4b/relu_5x5 -> inception_4b/5x5 (in-place)
I0506 13:00:08.795822  5822 net.cpp:122] Setting up inception_4b/relu_5x5
I0506 13:00:08.795833  5822 net.cpp:129] Top shape: 32 64 14 14 (401408)
I0506 13:00:08.795837  5822 net.cpp:137] Memory required for data: 1290912772
I0506 13:00:08.795841  5822 layer_factory.hpp:77] Creating layer inception_4b/pool
I0506 13:00:08.795850  5822 net.cpp:84] Creating Layer inception_4b/pool
I0506 13:00:08.795855  5822 net.cpp:406] inception_4b/pool <- inception_4a/output_inception_4a/output_0_split_4
I0506 13:00:08.795862  5822 net.cpp:380] inception_4b/pool -> inception_4b/pool
I0506 13:00:08.795919  5822 net.cpp:122] Setting up inception_4b/pool
I0506 13:00:08.795925  5822 net.cpp:129] Top shape: 32 512 14 14 (3211264)
I0506 13:00:08.795929  5822 net.cpp:137] Memory required for data: 1303757828
I0506 13:00:08.795933  5822 layer_factory.hpp:77] Creating layer inception_4b/pool_proj
I0506 13:00:08.795943  5822 net.cpp:84] Creating Layer inception_4b/pool_proj
I0506 13:00:08.795948  5822 net.cpp:406] inception_4b/pool_proj <- inception_4b/pool
I0506 13:00:08.795954  5822 net.cpp:380] inception_4b/pool_proj -> inception_4b/pool_proj
I0506 13:00:08.797662  5822 net.cpp:122] Setting up inception_4b/pool_proj
I0506 13:00:08.797674  5822 net.cpp:129] Top shape: 32 64 14 14 (401408)
I0506 13:00:08.797679  5822 net.cpp:137] Memory required for data: 1305363460
I0506 13:00:08.797686  5822 layer_factory.hpp:77] Creating layer inception_4b/relu_pool_proj
I0506 13:00:08.797693  5822 net.cpp:84] Creating Layer inception_4b/relu_pool_proj
I0506 13:00:08.797698  5822 net.cpp:406] inception_4b/relu_pool_proj <- inception_4b/pool_proj
I0506 13:00:08.797704  5822 net.cpp:367] inception_4b/relu_pool_proj -> inception_4b/pool_proj (in-place)
I0506 13:00:08.798221  5822 net.cpp:122] Setting up inception_4b/relu_pool_proj
I0506 13:00:08.798231  5822 net.cpp:129] Top shape: 32 64 14 14 (401408)
I0506 13:00:08.798236  5822 net.cpp:137] Memory required for data: 1306969092
I0506 13:00:08.798240  5822 layer_factory.hpp:77] Creating layer inception_4b/output
I0506 13:00:08.798249  5822 net.cpp:84] Creating Layer inception_4b/output
I0506 13:00:08.798254  5822 net.cpp:406] inception_4b/output <- inception_4b/1x1
I0506 13:00:08.798259  5822 net.cpp:406] inception_4b/output <- inception_4b/3x3
I0506 13:00:08.798264  5822 net.cpp:406] inception_4b/output <- inception_4b/5x5
I0506 13:00:08.798267  5822 net.cpp:406] inception_4b/output <- inception_4b/pool_proj
I0506 13:00:08.798272  5822 net.cpp:380] inception_4b/output -> inception_4b/output
I0506 13:00:08.798300  5822 net.cpp:122] Setting up inception_4b/output
I0506 13:00:08.798307  5822 net.cpp:129] Top shape: 32 512 14 14 (3211264)
I0506 13:00:08.798321  5822 net.cpp:137] Memory required for data: 1319814148
I0506 13:00:08.798326  5822 layer_factory.hpp:77] Creating layer inception_4b/output_inception_4b/output_0_split
I0506 13:00:08.798336  5822 net.cpp:84] Creating Layer inception_4b/output_inception_4b/output_0_split
I0506 13:00:08.798341  5822 net.cpp:406] inception_4b/output_inception_4b/output_0_split <- inception_4b/output
I0506 13:00:08.798346  5822 net.cpp:380] inception_4b/output_inception_4b/output_0_split -> inception_4b/output_inception_4b/output_0_split_0
I0506 13:00:08.798353  5822 net.cpp:380] inception_4b/output_inception_4b/output_0_split -> inception_4b/output_inception_4b/output_0_split_1
I0506 13:00:08.798362  5822 net.cpp:380] inception_4b/output_inception_4b/output_0_split -> inception_4b/output_inception_4b/output_0_split_2
I0506 13:00:08.798368  5822 net.cpp:380] inception_4b/output_inception_4b/output_0_split -> inception_4b/output_inception_4b/output_0_split_3
I0506 13:00:08.798419  5822 net.cpp:122] Setting up inception_4b/output_inception_4b/output_0_split
I0506 13:00:08.798424  5822 net.cpp:129] Top shape: 32 512 14 14 (3211264)
I0506 13:00:08.798429  5822 net.cpp:129] Top shape: 32 512 14 14 (3211264)
I0506 13:00:08.798434  5822 net.cpp:129] Top shape: 32 512 14 14 (3211264)
I0506 13:00:08.798437  5822 net.cpp:129] Top shape: 32 512 14 14 (3211264)
I0506 13:00:08.798440  5822 net.cpp:137] Memory required for data: 1371194372
I0506 13:00:08.798444  5822 layer_factory.hpp:77] Creating layer inception_4c/1x1
I0506 13:00:08.798454  5822 net.cpp:84] Creating Layer inception_4c/1x1
I0506 13:00:08.798458  5822 net.cpp:406] inception_4c/1x1 <- inception_4b/output_inception_4b/output_0_split_0
I0506 13:00:08.798466  5822 net.cpp:380] inception_4c/1x1 -> inception_4c/1x1
I0506 13:00:08.802351  5822 net.cpp:122] Setting up inception_4c/1x1
I0506 13:00:08.802363  5822 net.cpp:129] Top shape: 32 128 14 14 (802816)
I0506 13:00:08.802368  5822 net.cpp:137] Memory required for data: 1374405636
I0506 13:00:08.802376  5822 layer_factory.hpp:77] Creating layer inception_4c/relu_1x1
I0506 13:00:08.802383  5822 net.cpp:84] Creating Layer inception_4c/relu_1x1
I0506 13:00:08.802388  5822 net.cpp:406] inception_4c/relu_1x1 <- inception_4c/1x1
I0506 13:00:08.802393  5822 net.cpp:367] inception_4c/relu_1x1 -> inception_4c/1x1 (in-place)
I0506 13:00:08.802785  5822 net.cpp:122] Setting up inception_4c/relu_1x1
I0506 13:00:08.802794  5822 net.cpp:129] Top shape: 32 128 14 14 (802816)
I0506 13:00:08.802798  5822 net.cpp:137] Memory required for data: 1377616900
I0506 13:00:08.802803  5822 layer_factory.hpp:77] Creating layer inception_4c/3x3_reduce
I0506 13:00:08.802814  5822 net.cpp:84] Creating Layer inception_4c/3x3_reduce
I0506 13:00:08.802819  5822 net.cpp:406] inception_4c/3x3_reduce <- inception_4b/output_inception_4b/output_0_split_1
I0506 13:00:08.802829  5822 net.cpp:380] inception_4c/3x3_reduce -> inception_4c/3x3_reduce
I0506 13:00:08.804862  5822 net.cpp:122] Setting up inception_4c/3x3_reduce
I0506 13:00:08.804872  5822 net.cpp:129] Top shape: 32 128 14 14 (802816)
I0506 13:00:08.804877  5822 net.cpp:137] Memory required for data: 1380828164
I0506 13:00:08.804883  5822 layer_factory.hpp:77] Creating layer inception_4c/relu_3x3_reduce
I0506 13:00:08.804891  5822 net.cpp:84] Creating Layer inception_4c/relu_3x3_reduce
I0506 13:00:08.804895  5822 net.cpp:406] inception_4c/relu_3x3_reduce <- inception_4c/3x3_reduce
I0506 13:00:08.804903  5822 net.cpp:367] inception_4c/relu_3x3_reduce -> inception_4c/3x3_reduce (in-place)
I0506 13:00:08.806802  5822 net.cpp:122] Setting up inception_4c/relu_3x3_reduce
I0506 13:00:08.806813  5822 net.cpp:129] Top shape: 32 128 14 14 (802816)
I0506 13:00:08.806816  5822 net.cpp:137] Memory required for data: 1384039428
I0506 13:00:08.806820  5822 layer_factory.hpp:77] Creating layer inception_4c/3x3
I0506 13:00:08.806831  5822 net.cpp:84] Creating Layer inception_4c/3x3
I0506 13:00:08.806838  5822 net.cpp:406] inception_4c/3x3 <- inception_4c/3x3_reduce
I0506 13:00:08.806845  5822 net.cpp:380] inception_4c/3x3 -> inception_4c/3x3
I0506 13:00:08.809942  5822 net.cpp:122] Setting up inception_4c/3x3
I0506 13:00:08.809953  5822 net.cpp:129] Top shape: 32 256 14 14 (1605632)
I0506 13:00:08.809957  5822 net.cpp:137] Memory required for data: 1390461956
I0506 13:00:08.809978  5822 layer_factory.hpp:77] Creating layer inception_4c/relu_3x3
I0506 13:00:08.809984  5822 net.cpp:84] Creating Layer inception_4c/relu_3x3
I0506 13:00:08.809989  5822 net.cpp:406] inception_4c/relu_3x3 <- inception_4c/3x3
I0506 13:00:08.809995  5822 net.cpp:367] inception_4c/relu_3x3 -> inception_4c/3x3 (in-place)
I0506 13:00:08.810539  5822 net.cpp:122] Setting up inception_4c/relu_3x3
I0506 13:00:08.810549  5822 net.cpp:129] Top shape: 32 256 14 14 (1605632)
I0506 13:00:08.810554  5822 net.cpp:137] Memory required for data: 1396884484
I0506 13:00:08.810559  5822 layer_factory.hpp:77] Creating layer inception_4c/5x5_reduce
I0506 13:00:08.810570  5822 net.cpp:84] Creating Layer inception_4c/5x5_reduce
I0506 13:00:08.810575  5822 net.cpp:406] inception_4c/5x5_reduce <- inception_4b/output_inception_4b/output_0_split_2
I0506 13:00:08.810583  5822 net.cpp:380] inception_4c/5x5_reduce -> inception_4c/5x5_reduce
I0506 13:00:08.813364  5822 net.cpp:122] Setting up inception_4c/5x5_reduce
I0506 13:00:08.813375  5822 net.cpp:129] Top shape: 32 24 14 14 (150528)
I0506 13:00:08.813380  5822 net.cpp:137] Memory required for data: 1397486596
I0506 13:00:08.813386  5822 layer_factory.hpp:77] Creating layer inception_4c/relu_5x5_reduce
I0506 13:00:08.813393  5822 net.cpp:84] Creating Layer inception_4c/relu_5x5_reduce
I0506 13:00:08.813398  5822 net.cpp:406] inception_4c/relu_5x5_reduce <- inception_4c/5x5_reduce
I0506 13:00:08.813406  5822 net.cpp:367] inception_4c/relu_5x5_reduce -> inception_4c/5x5_reduce (in-place)
I0506 13:00:08.813926  5822 net.cpp:122] Setting up inception_4c/relu_5x5_reduce
I0506 13:00:08.813937  5822 net.cpp:129] Top shape: 32 24 14 14 (150528)
I0506 13:00:08.813942  5822 net.cpp:137] Memory required for data: 1398088708
I0506 13:00:08.813947  5822 layer_factory.hpp:77] Creating layer inception_4c/5x5
I0506 13:00:08.813958  5822 net.cpp:84] Creating Layer inception_4c/5x5
I0506 13:00:08.813963  5822 net.cpp:406] inception_4c/5x5 <- inception_4c/5x5_reduce
I0506 13:00:08.813971  5822 net.cpp:380] inception_4c/5x5 -> inception_4c/5x5
I0506 13:00:08.815901  5822 net.cpp:122] Setting up inception_4c/5x5
I0506 13:00:08.815912  5822 net.cpp:129] Top shape: 32 64 14 14 (401408)
I0506 13:00:08.815915  5822 net.cpp:137] Memory required for data: 1399694340
I0506 13:00:08.815922  5822 layer_factory.hpp:77] Creating layer inception_4c/relu_5x5
I0506 13:00:08.815929  5822 net.cpp:84] Creating Layer inception_4c/relu_5x5
I0506 13:00:08.815934  5822 net.cpp:406] inception_4c/relu_5x5 <- inception_4c/5x5
I0506 13:00:08.815943  5822 net.cpp:367] inception_4c/relu_5x5 -> inception_4c/5x5 (in-place)
I0506 13:00:08.816470  5822 net.cpp:122] Setting up inception_4c/relu_5x5
I0506 13:00:08.816479  5822 net.cpp:129] Top shape: 32 64 14 14 (401408)
I0506 13:00:08.816484  5822 net.cpp:137] Memory required for data: 1401299972
I0506 13:00:08.816489  5822 layer_factory.hpp:77] Creating layer inception_4c/pool
I0506 13:00:08.816498  5822 net.cpp:84] Creating Layer inception_4c/pool
I0506 13:00:08.816501  5822 net.cpp:406] inception_4c/pool <- inception_4b/output_inception_4b/output_0_split_3
I0506 13:00:08.816510  5822 net.cpp:380] inception_4c/pool -> inception_4c/pool
I0506 13:00:08.816550  5822 net.cpp:122] Setting up inception_4c/pool
I0506 13:00:08.816555  5822 net.cpp:129] Top shape: 32 512 14 14 (3211264)
I0506 13:00:08.816560  5822 net.cpp:137] Memory required for data: 1414145028
I0506 13:00:08.816563  5822 layer_factory.hpp:77] Creating layer inception_4c/pool_proj
I0506 13:00:08.816573  5822 net.cpp:84] Creating Layer inception_4c/pool_proj
I0506 13:00:08.816577  5822 net.cpp:406] inception_4c/pool_proj <- inception_4c/pool
I0506 13:00:08.816586  5822 net.cpp:380] inception_4c/pool_proj -> inception_4c/pool_proj
I0506 13:00:08.823258  5822 net.cpp:122] Setting up inception_4c/pool_proj
I0506 13:00:08.823271  5822 net.cpp:129] Top shape: 32 64 14 14 (401408)
I0506 13:00:08.823276  5822 net.cpp:137] Memory required for data: 1415750660
I0506 13:00:08.823282  5822 layer_factory.hpp:77] Creating layer inception_4c/relu_pool_proj
I0506 13:00:08.823290  5822 net.cpp:84] Creating Layer inception_4c/relu_pool_proj
I0506 13:00:08.823295  5822 net.cpp:406] inception_4c/relu_pool_proj <- inception_4c/pool_proj
I0506 13:00:08.823303  5822 net.cpp:367] inception_4c/relu_pool_proj -> inception_4c/pool_proj (in-place)
I0506 13:00:08.823653  5822 net.cpp:122] Setting up inception_4c/relu_pool_proj
I0506 13:00:08.823662  5822 net.cpp:129] Top shape: 32 64 14 14 (401408)
I0506 13:00:08.823668  5822 net.cpp:137] Memory required for data: 1417356292
I0506 13:00:08.823671  5822 layer_factory.hpp:77] Creating layer inception_4c/output
I0506 13:00:08.823679  5822 net.cpp:84] Creating Layer inception_4c/output
I0506 13:00:08.823684  5822 net.cpp:406] inception_4c/output <- inception_4c/1x1
I0506 13:00:08.823690  5822 net.cpp:406] inception_4c/output <- inception_4c/3x3
I0506 13:00:08.823694  5822 net.cpp:406] inception_4c/output <- inception_4c/5x5
I0506 13:00:08.823698  5822 net.cpp:406] inception_4c/output <- inception_4c/pool_proj
I0506 13:00:08.823704  5822 net.cpp:380] inception_4c/output -> inception_4c/output
I0506 13:00:08.823731  5822 net.cpp:122] Setting up inception_4c/output
I0506 13:00:08.823736  5822 net.cpp:129] Top shape: 32 512 14 14 (3211264)
I0506 13:00:08.823740  5822 net.cpp:137] Memory required for data: 1430201348
I0506 13:00:08.823745  5822 layer_factory.hpp:77] Creating layer inception_4c/output_inception_4c/output_0_split
I0506 13:00:08.823752  5822 net.cpp:84] Creating Layer inception_4c/output_inception_4c/output_0_split
I0506 13:00:08.823756  5822 net.cpp:406] inception_4c/output_inception_4c/output_0_split <- inception_4c/output
I0506 13:00:08.823763  5822 net.cpp:380] inception_4c/output_inception_4c/output_0_split -> inception_4c/output_inception_4c/output_0_split_0
I0506 13:00:08.823770  5822 net.cpp:380] inception_4c/output_inception_4c/output_0_split -> inception_4c/output_inception_4c/output_0_split_1
I0506 13:00:08.823781  5822 net.cpp:380] inception_4c/output_inception_4c/output_0_split -> inception_4c/output_inception_4c/output_0_split_2
I0506 13:00:08.823787  5822 net.cpp:380] inception_4c/output_inception_4c/output_0_split -> inception_4c/output_inception_4c/output_0_split_3
I0506 13:00:08.823835  5822 net.cpp:122] Setting up inception_4c/output_inception_4c/output_0_split
I0506 13:00:08.823840  5822 net.cpp:129] Top shape: 32 512 14 14 (3211264)
I0506 13:00:08.823844  5822 net.cpp:129] Top shape: 32 512 14 14 (3211264)
I0506 13:00:08.823849  5822 net.cpp:129] Top shape: 32 512 14 14 (3211264)
I0506 13:00:08.823853  5822 net.cpp:129] Top shape: 32 512 14 14 (3211264)
I0506 13:00:08.823856  5822 net.cpp:137] Memory required for data: 1481581572
I0506 13:00:08.823860  5822 layer_factory.hpp:77] Creating layer inception_4d/1x1
I0506 13:00:08.823871  5822 net.cpp:84] Creating Layer inception_4d/1x1
I0506 13:00:08.823877  5822 net.cpp:406] inception_4d/1x1 <- inception_4c/output_inception_4c/output_0_split_0
I0506 13:00:08.823884  5822 net.cpp:380] inception_4d/1x1 -> inception_4d/1x1
I0506 13:00:08.826630  5822 net.cpp:122] Setting up inception_4d/1x1
I0506 13:00:08.826642  5822 net.cpp:129] Top shape: 32 112 14 14 (702464)
I0506 13:00:08.826647  5822 net.cpp:137] Memory required for data: 1484391428
I0506 13:00:08.826654  5822 layer_factory.hpp:77] Creating layer inception_4d/relu_1x1
I0506 13:00:08.826663  5822 net.cpp:84] Creating Layer inception_4d/relu_1x1
I0506 13:00:08.826668  5822 net.cpp:406] inception_4d/relu_1x1 <- inception_4d/1x1
I0506 13:00:08.826674  5822 net.cpp:367] inception_4d/relu_1x1 -> inception_4d/1x1 (in-place)
I0506 13:00:08.827033  5822 net.cpp:122] Setting up inception_4d/relu_1x1
I0506 13:00:08.827041  5822 net.cpp:129] Top shape: 32 112 14 14 (702464)
I0506 13:00:08.827046  5822 net.cpp:137] Memory required for data: 1487201284
I0506 13:00:08.827065  5822 layer_factory.hpp:77] Creating layer inception_4d/3x3_reduce
I0506 13:00:08.827077  5822 net.cpp:84] Creating Layer inception_4d/3x3_reduce
I0506 13:00:08.827082  5822 net.cpp:406] inception_4d/3x3_reduce <- inception_4c/output_inception_4c/output_0_split_1
I0506 13:00:08.827090  5822 net.cpp:380] inception_4d/3x3_reduce -> inception_4d/3x3_reduce
I0506 13:00:08.829313  5822 net.cpp:122] Setting up inception_4d/3x3_reduce
I0506 13:00:08.829324  5822 net.cpp:129] Top shape: 32 144 14 14 (903168)
I0506 13:00:08.829329  5822 net.cpp:137] Memory required for data: 1490813956
I0506 13:00:08.829335  5822 layer_factory.hpp:77] Creating layer inception_4d/relu_3x3_reduce
I0506 13:00:08.829344  5822 net.cpp:84] Creating Layer inception_4d/relu_3x3_reduce
I0506 13:00:08.829350  5822 net.cpp:406] inception_4d/relu_3x3_reduce <- inception_4d/3x3_reduce
I0506 13:00:08.829357  5822 net.cpp:367] inception_4d/relu_3x3_reduce -> inception_4d/3x3_reduce (in-place)
I0506 13:00:08.830037  5822 net.cpp:122] Setting up inception_4d/relu_3x3_reduce
I0506 13:00:08.830049  5822 net.cpp:129] Top shape: 32 144 14 14 (903168)
I0506 13:00:08.830054  5822 net.cpp:137] Memory required for data: 1494426628
I0506 13:00:08.830060  5822 layer_factory.hpp:77] Creating layer inception_4d/3x3
I0506 13:00:08.830071  5822 net.cpp:84] Creating Layer inception_4d/3x3
I0506 13:00:08.830078  5822 net.cpp:406] inception_4d/3x3 <- inception_4d/3x3_reduce
I0506 13:00:08.830086  5822 net.cpp:380] inception_4d/3x3 -> inception_4d/3x3
I0506 13:00:08.835110  5822 net.cpp:122] Setting up inception_4d/3x3
I0506 13:00:08.835130  5822 net.cpp:129] Top shape: 32 288 14 14 (1806336)
I0506 13:00:08.835135  5822 net.cpp:137] Memory required for data: 1501651972
I0506 13:00:08.835146  5822 layer_factory.hpp:77] Creating layer inception_4d/relu_3x3
I0506 13:00:08.835155  5822 net.cpp:84] Creating Layer inception_4d/relu_3x3
I0506 13:00:08.835162  5822 net.cpp:406] inception_4d/relu_3x3 <- inception_4d/3x3
I0506 13:00:08.835170  5822 net.cpp:367] inception_4d/relu_3x3 -> inception_4d/3x3 (in-place)
I0506 13:00:08.835734  5822 net.cpp:122] Setting up inception_4d/relu_3x3
I0506 13:00:08.835747  5822 net.cpp:129] Top shape: 32 288 14 14 (1806336)
I0506 13:00:08.835753  5822 net.cpp:137] Memory required for data: 1508877316
I0506 13:00:08.835757  5822 layer_factory.hpp:77] Creating layer inception_4d/5x5_reduce
I0506 13:00:08.835770  5822 net.cpp:84] Creating Layer inception_4d/5x5_reduce
I0506 13:00:08.835777  5822 net.cpp:406] inception_4d/5x5_reduce <- inception_4c/output_inception_4c/output_0_split_2
I0506 13:00:08.835785  5822 net.cpp:380] inception_4d/5x5_reduce -> inception_4d/5x5_reduce
I0506 13:00:08.838238  5822 net.cpp:122] Setting up inception_4d/5x5_reduce
I0506 13:00:08.838250  5822 net.cpp:129] Top shape: 32 32 14 14 (200704)
I0506 13:00:08.838254  5822 net.cpp:137] Memory required for data: 1509680132
I0506 13:00:08.838264  5822 layer_factory.hpp:77] Creating layer inception_4d/relu_5x5_reduce
I0506 13:00:08.838271  5822 net.cpp:84] Creating Layer inception_4d/relu_5x5_reduce
I0506 13:00:08.838279  5822 net.cpp:406] inception_4d/relu_5x5_reduce <- inception_4d/5x5_reduce
I0506 13:00:08.838286  5822 net.cpp:367] inception_4d/relu_5x5_reduce -> inception_4d/5x5_reduce (in-place)
I0506 13:00:08.838856  5822 net.cpp:122] Setting up inception_4d/relu_5x5_reduce
I0506 13:00:08.838865  5822 net.cpp:129] Top shape: 32 32 14 14 (200704)
I0506 13:00:08.838869  5822 net.cpp:137] Memory required for data: 1510482948
I0506 13:00:08.838874  5822 layer_factory.hpp:77] Creating layer inception_4d/5x5
I0506 13:00:08.838886  5822 net.cpp:84] Creating Layer inception_4d/5x5
I0506 13:00:08.838891  5822 net.cpp:406] inception_4d/5x5 <- inception_4d/5x5_reduce
I0506 13:00:08.838901  5822 net.cpp:380] inception_4d/5x5 -> inception_4d/5x5
I0506 13:00:08.840713  5822 net.cpp:122] Setting up inception_4d/5x5
I0506 13:00:08.840724  5822 net.cpp:129] Top shape: 32 64 14 14 (401408)
I0506 13:00:08.840729  5822 net.cpp:137] Memory required for data: 1512088580
I0506 13:00:08.840754  5822 layer_factory.hpp:77] Creating layer inception_4d/relu_5x5
I0506 13:00:08.840762  5822 net.cpp:84] Creating Layer inception_4d/relu_5x5
I0506 13:00:08.840770  5822 net.cpp:406] inception_4d/relu_5x5 <- inception_4d/5x5
I0506 13:00:08.840777  5822 net.cpp:367] inception_4d/relu_5x5 -> inception_4d/5x5 (in-place)
I0506 13:00:08.843084  5822 net.cpp:122] Setting up inception_4d/relu_5x5
I0506 13:00:08.843101  5822 net.cpp:129] Top shape: 32 64 14 14 (401408)
I0506 13:00:08.843108  5822 net.cpp:137] Memory required for data: 1513694212
I0506 13:00:08.843113  5822 layer_factory.hpp:77] Creating layer inception_4d/pool
I0506 13:00:08.843123  5822 net.cpp:84] Creating Layer inception_4d/pool
I0506 13:00:08.843130  5822 net.cpp:406] inception_4d/pool <- inception_4c/output_inception_4c/output_0_split_3
I0506 13:00:08.843139  5822 net.cpp:380] inception_4d/pool -> inception_4d/pool
I0506 13:00:08.843183  5822 net.cpp:122] Setting up inception_4d/pool
I0506 13:00:08.843191  5822 net.cpp:129] Top shape: 32 512 14 14 (3211264)
I0506 13:00:08.843195  5822 net.cpp:137] Memory required for data: 1526539268
I0506 13:00:08.843200  5822 layer_factory.hpp:77] Creating layer inception_4d/pool_proj
I0506 13:00:08.843212  5822 net.cpp:84] Creating Layer inception_4d/pool_proj
I0506 13:00:08.843217  5822 net.cpp:406] inception_4d/pool_proj <- inception_4d/pool
I0506 13:00:08.843226  5822 net.cpp:380] inception_4d/pool_proj -> inception_4d/pool_proj
I0506 13:00:08.845144  5822 net.cpp:122] Setting up inception_4d/pool_proj
I0506 13:00:08.845156  5822 net.cpp:129] Top shape: 32 64 14 14 (401408)
I0506 13:00:08.845162  5822 net.cpp:137] Memory required for data: 1528144900
I0506 13:00:08.845170  5822 layer_factory.hpp:77] Creating layer inception_4d/relu_pool_proj
I0506 13:00:08.845181  5822 net.cpp:84] Creating Layer inception_4d/relu_pool_proj
I0506 13:00:08.845187  5822 net.cpp:406] inception_4d/relu_pool_proj <- inception_4d/pool_proj
I0506 13:00:08.845196  5822 net.cpp:367] inception_4d/relu_pool_proj -> inception_4d/pool_proj (in-place)
I0506 13:00:08.845551  5822 net.cpp:122] Setting up inception_4d/relu_pool_proj
I0506 13:00:08.845563  5822 net.cpp:129] Top shape: 32 64 14 14 (401408)
I0506 13:00:08.845567  5822 net.cpp:137] Memory required for data: 1529750532
I0506 13:00:08.845574  5822 layer_factory.hpp:77] Creating layer inception_4d/output
I0506 13:00:08.845580  5822 net.cpp:84] Creating Layer inception_4d/output
I0506 13:00:08.845587  5822 net.cpp:406] inception_4d/output <- inception_4d/1x1
I0506 13:00:08.845594  5822 net.cpp:406] inception_4d/output <- inception_4d/3x3
I0506 13:00:08.845602  5822 net.cpp:406] inception_4d/output <- inception_4d/5x5
I0506 13:00:08.845605  5822 net.cpp:406] inception_4d/output <- inception_4d/pool_proj
I0506 13:00:08.845613  5822 net.cpp:380] inception_4d/output -> inception_4d/output
I0506 13:00:08.845638  5822 net.cpp:122] Setting up inception_4d/output
I0506 13:00:08.845643  5822 net.cpp:129] Top shape: 32 528 14 14 (3311616)
I0506 13:00:08.845647  5822 net.cpp:137] Memory required for data: 1542996996
I0506 13:00:08.845654  5822 layer_factory.hpp:77] Creating layer inception_4d/output_inception_4d/output_0_split
I0506 13:00:08.845662  5822 net.cpp:84] Creating Layer inception_4d/output_inception_4d/output_0_split
I0506 13:00:08.845667  5822 net.cpp:406] inception_4d/output_inception_4d/output_0_split <- inception_4d/output
I0506 13:00:08.845685  5822 net.cpp:380] inception_4d/output_inception_4d/output_0_split -> inception_4d/output_inception_4d/output_0_split_0
I0506 13:00:08.845693  5822 net.cpp:380] inception_4d/output_inception_4d/output_0_split -> inception_4d/output_inception_4d/output_0_split_1
I0506 13:00:08.845700  5822 net.cpp:380] inception_4d/output_inception_4d/output_0_split -> inception_4d/output_inception_4d/output_0_split_2
I0506 13:00:08.845710  5822 net.cpp:380] inception_4d/output_inception_4d/output_0_split -> inception_4d/output_inception_4d/output_0_split_3
I0506 13:00:08.845719  5822 net.cpp:380] inception_4d/output_inception_4d/output_0_split -> inception_4d/output_inception_4d/output_0_split_4
I0506 13:00:08.845803  5822 net.cpp:122] Setting up inception_4d/output_inception_4d/output_0_split
I0506 13:00:08.845808  5822 net.cpp:129] Top shape: 32 528 14 14 (3311616)
I0506 13:00:08.845814  5822 net.cpp:129] Top shape: 32 528 14 14 (3311616)
I0506 13:00:08.845822  5822 net.cpp:129] Top shape: 32 528 14 14 (3311616)
I0506 13:00:08.845829  5822 net.cpp:129] Top shape: 32 528 14 14 (3311616)
I0506 13:00:08.845834  5822 net.cpp:129] Top shape: 32 528 14 14 (3311616)
I0506 13:00:08.845839  5822 net.cpp:137] Memory required for data: 1609229316
I0506 13:00:08.845842  5822 layer_factory.hpp:77] Creating layer loss2/ave_pool
I0506 13:00:08.845849  5822 net.cpp:84] Creating Layer loss2/ave_pool
I0506 13:00:08.845854  5822 net.cpp:406] loss2/ave_pool <- inception_4d/output_inception_4d/output_0_split_0
I0506 13:00:08.845862  5822 net.cpp:380] loss2/ave_pool -> loss2/ave_pool
I0506 13:00:08.846416  5822 net.cpp:122] Setting up loss2/ave_pool
I0506 13:00:08.846427  5822 net.cpp:129] Top shape: 32 528 4 4 (270336)
I0506 13:00:08.846436  5822 net.cpp:137] Memory required for data: 1610310660
I0506 13:00:08.846442  5822 layer_factory.hpp:77] Creating layer loss2/conv
I0506 13:00:08.846457  5822 net.cpp:84] Creating Layer loss2/conv
I0506 13:00:08.846463  5822 net.cpp:406] loss2/conv <- loss2/ave_pool
I0506 13:00:08.846472  5822 net.cpp:380] loss2/conv -> loss2/conv
I0506 13:00:08.848654  5822 net.cpp:122] Setting up loss2/conv
I0506 13:00:08.848670  5822 net.cpp:129] Top shape: 32 128 4 4 (65536)
I0506 13:00:08.848675  5822 net.cpp:137] Memory required for data: 1610572804
I0506 13:00:08.848682  5822 layer_factory.hpp:77] Creating layer loss2/relu_conv
I0506 13:00:08.848690  5822 net.cpp:84] Creating Layer loss2/relu_conv
I0506 13:00:08.848696  5822 net.cpp:406] loss2/relu_conv <- loss2/conv
I0506 13:00:08.848703  5822 net.cpp:367] loss2/relu_conv -> loss2/conv (in-place)
I0506 13:00:08.849068  5822 net.cpp:122] Setting up loss2/relu_conv
I0506 13:00:08.849079  5822 net.cpp:129] Top shape: 32 128 4 4 (65536)
I0506 13:00:08.849084  5822 net.cpp:137] Memory required for data: 1610834948
I0506 13:00:08.849090  5822 layer_factory.hpp:77] Creating layer loss2/fc
I0506 13:00:08.849099  5822 net.cpp:84] Creating Layer loss2/fc
I0506 13:00:08.849107  5822 net.cpp:406] loss2/fc <- loss2/conv
I0506 13:00:08.849117  5822 net.cpp:380] loss2/fc -> loss2/fc
I0506 13:00:08.861454  5822 net.cpp:122] Setting up loss2/fc
I0506 13:00:08.861474  5822 net.cpp:129] Top shape: 32 1024 (32768)
I0506 13:00:08.861479  5822 net.cpp:137] Memory required for data: 1610966020
I0506 13:00:08.861488  5822 layer_factory.hpp:77] Creating layer loss2/relu_fc
I0506 13:00:08.861497  5822 net.cpp:84] Creating Layer loss2/relu_fc
I0506 13:00:08.861503  5822 net.cpp:406] loss2/relu_fc <- loss2/fc
I0506 13:00:08.861510  5822 net.cpp:367] loss2/relu_fc -> loss2/fc (in-place)
I0506 13:00:08.864759  5822 net.cpp:122] Setting up loss2/relu_fc
I0506 13:00:08.864778  5822 net.cpp:129] Top shape: 32 1024 (32768)
I0506 13:00:08.864781  5822 net.cpp:137] Memory required for data: 1611097092
I0506 13:00:08.864787  5822 layer_factory.hpp:77] Creating layer loss2/drop_fc
I0506 13:00:08.864797  5822 net.cpp:84] Creating Layer loss2/drop_fc
I0506 13:00:08.864804  5822 net.cpp:406] loss2/drop_fc <- loss2/fc
I0506 13:00:08.864811  5822 net.cpp:367] loss2/drop_fc -> loss2/fc (in-place)
I0506 13:00:08.864848  5822 net.cpp:122] Setting up loss2/drop_fc
I0506 13:00:08.864854  5822 net.cpp:129] Top shape: 32 1024 (32768)
I0506 13:00:08.864857  5822 net.cpp:137] Memory required for data: 1611228164
I0506 13:00:08.864861  5822 layer_factory.hpp:77] Creating layer loss2/classifier
I0506 13:00:08.864871  5822 net.cpp:84] Creating Layer loss2/classifier
I0506 13:00:08.864874  5822 net.cpp:406] loss2/classifier <- loss2/fc
I0506 13:00:08.864881  5822 net.cpp:380] loss2/classifier -> loss2/classifier
I0506 13:00:08.866060  5822 net.cpp:122] Setting up loss2/classifier
I0506 13:00:08.866071  5822 net.cpp:129] Top shape: 32 196 (6272)
I0506 13:00:08.866093  5822 net.cpp:137] Memory required for data: 1611253252
I0506 13:00:08.866102  5822 layer_factory.hpp:77] Creating layer loss2/loss
I0506 13:00:08.866111  5822 net.cpp:84] Creating Layer loss2/loss
I0506 13:00:08.866117  5822 net.cpp:406] loss2/loss <- loss2/classifier
I0506 13:00:08.866122  5822 net.cpp:406] loss2/loss <- label_train-data_1_split_1
I0506 13:00:08.866127  5822 net.cpp:380] loss2/loss -> loss2/loss
I0506 13:00:08.866137  5822 layer_factory.hpp:77] Creating layer loss2/loss
I0506 13:00:08.870832  5822 net.cpp:122] Setting up loss2/loss
I0506 13:00:08.870857  5822 net.cpp:129] Top shape: (1)
I0506 13:00:08.870862  5822 net.cpp:132]     with loss weight 0.3
I0506 13:00:08.870877  5822 net.cpp:137] Memory required for data: 1611253256
I0506 13:00:08.870884  5822 layer_factory.hpp:77] Creating layer inception_4e/1x1
I0506 13:00:08.870906  5822 net.cpp:84] Creating Layer inception_4e/1x1
I0506 13:00:08.870914  5822 net.cpp:406] inception_4e/1x1 <- inception_4d/output_inception_4d/output_0_split_1
I0506 13:00:08.870926  5822 net.cpp:380] inception_4e/1x1 -> inception_4e/1x1
I0506 13:00:08.874846  5822 net.cpp:122] Setting up inception_4e/1x1
I0506 13:00:08.874871  5822 net.cpp:129] Top shape: 32 256 14 14 (1605632)
I0506 13:00:08.874876  5822 net.cpp:137] Memory required for data: 1617675784
I0506 13:00:08.874891  5822 layer_factory.hpp:77] Creating layer inception_4e/relu_1x1
I0506 13:00:08.874903  5822 net.cpp:84] Creating Layer inception_4e/relu_1x1
I0506 13:00:08.874912  5822 net.cpp:406] inception_4e/relu_1x1 <- inception_4e/1x1
I0506 13:00:08.874924  5822 net.cpp:367] inception_4e/relu_1x1 -> inception_4e/1x1 (in-place)
I0506 13:00:08.875715  5822 net.cpp:122] Setting up inception_4e/relu_1x1
I0506 13:00:08.875730  5822 net.cpp:129] Top shape: 32 256 14 14 (1605632)
I0506 13:00:08.875736  5822 net.cpp:137] Memory required for data: 1624098312
I0506 13:00:08.875742  5822 layer_factory.hpp:77] Creating layer inception_4e/3x3_reduce
I0506 13:00:08.875761  5822 net.cpp:84] Creating Layer inception_4e/3x3_reduce
I0506 13:00:08.875767  5822 net.cpp:406] inception_4e/3x3_reduce <- inception_4d/output_inception_4d/output_0_split_2
I0506 13:00:08.875777  5822 net.cpp:380] inception_4e/3x3_reduce -> inception_4e/3x3_reduce
I0506 13:00:08.879964  5822 net.cpp:122] Setting up inception_4e/3x3_reduce
I0506 13:00:08.879989  5822 net.cpp:129] Top shape: 32 160 14 14 (1003520)
I0506 13:00:08.879997  5822 net.cpp:137] Memory required for data: 1628112392
I0506 13:00:08.880009  5822 layer_factory.hpp:77] Creating layer inception_4e/relu_3x3_reduce
I0506 13:00:08.880028  5822 net.cpp:84] Creating Layer inception_4e/relu_3x3_reduce
I0506 13:00:08.880039  5822 net.cpp:406] inception_4e/relu_3x3_reduce <- inception_4e/3x3_reduce
I0506 13:00:08.880053  5822 net.cpp:367] inception_4e/relu_3x3_reduce -> inception_4e/3x3_reduce (in-place)
I0506 13:00:08.880872  5822 net.cpp:122] Setting up inception_4e/relu_3x3_reduce
I0506 13:00:08.880894  5822 net.cpp:129] Top shape: 32 160 14 14 (1003520)
I0506 13:00:08.880904  5822 net.cpp:137] Memory required for data: 1632126472
I0506 13:00:08.880913  5822 layer_factory.hpp:77] Creating layer inception_4e/3x3
I0506 13:00:08.880931  5822 net.cpp:84] Creating Layer inception_4e/3x3
I0506 13:00:08.880939  5822 net.cpp:406] inception_4e/3x3 <- inception_4e/3x3_reduce
I0506 13:00:08.880952  5822 net.cpp:380] inception_4e/3x3 -> inception_4e/3x3
I0506 13:00:08.893121  5822 net.cpp:122] Setting up inception_4e/3x3
I0506 13:00:08.893148  5822 net.cpp:129] Top shape: 32 320 14 14 (2007040)
I0506 13:00:08.893154  5822 net.cpp:137] Memory required for data: 1640154632
I0506 13:00:08.893168  5822 layer_factory.hpp:77] Creating layer inception_4e/relu_3x3
I0506 13:00:08.893182  5822 net.cpp:84] Creating Layer inception_4e/relu_3x3
I0506 13:00:08.893189  5822 net.cpp:406] inception_4e/relu_3x3 <- inception_4e/3x3
I0506 13:00:08.893201  5822 net.cpp:367] inception_4e/relu_3x3 -> inception_4e/3x3 (in-place)
I0506 13:00:08.893743  5822 net.cpp:122] Setting up inception_4e/relu_3x3
I0506 13:00:08.893787  5822 net.cpp:129] Top shape: 32 320 14 14 (2007040)
I0506 13:00:08.893793  5822 net.cpp:137] Memory required for data: 1648182792
I0506 13:00:08.893800  5822 layer_factory.hpp:77] Creating layer inception_4e/5x5_reduce
I0506 13:00:08.893821  5822 net.cpp:84] Creating Layer inception_4e/5x5_reduce
I0506 13:00:08.893827  5822 net.cpp:406] inception_4e/5x5_reduce <- inception_4d/output_inception_4d/output_0_split_3
I0506 13:00:08.893841  5822 net.cpp:380] inception_4e/5x5_reduce -> inception_4e/5x5_reduce
I0506 13:00:08.896697  5822 net.cpp:122] Setting up inception_4e/5x5_reduce
I0506 13:00:08.896713  5822 net.cpp:129] Top shape: 32 32 14 14 (200704)
I0506 13:00:08.896718  5822 net.cpp:137] Memory required for data: 1648985608
I0506 13:00:08.896728  5822 layer_factory.hpp:77] Creating layer inception_4e/relu_5x5_reduce
I0506 13:00:08.896739  5822 net.cpp:84] Creating Layer inception_4e/relu_5x5_reduce
I0506 13:00:08.896745  5822 net.cpp:406] inception_4e/relu_5x5_reduce <- inception_4e/5x5_reduce
I0506 13:00:08.896754  5822 net.cpp:367] inception_4e/relu_5x5_reduce -> inception_4e/5x5_reduce (in-place)
I0506 13:00:08.897521  5822 net.cpp:122] Setting up inception_4e/relu_5x5_reduce
I0506 13:00:08.897536  5822 net.cpp:129] Top shape: 32 32 14 14 (200704)
I0506 13:00:08.897542  5822 net.cpp:137] Memory required for data: 1649788424
I0506 13:00:08.897548  5822 layer_factory.hpp:77] Creating layer inception_4e/5x5
I0506 13:00:08.897600  5822 net.cpp:84] Creating Layer inception_4e/5x5
I0506 13:00:08.897608  5822 net.cpp:406] inception_4e/5x5 <- inception_4e/5x5_reduce
I0506 13:00:08.897617  5822 net.cpp:380] inception_4e/5x5 -> inception_4e/5x5
I0506 13:00:08.902884  5822 net.cpp:122] Setting up inception_4e/5x5
I0506 13:00:08.902909  5822 net.cpp:129] Top shape: 32 128 14 14 (802816)
I0506 13:00:08.902915  5822 net.cpp:137] Memory required for data: 1652999688
I0506 13:00:08.902928  5822 layer_factory.hpp:77] Creating layer inception_4e/relu_5x5
I0506 13:00:08.902940  5822 net.cpp:84] Creating Layer inception_4e/relu_5x5
I0506 13:00:08.902947  5822 net.cpp:406] inception_4e/relu_5x5 <- inception_4e/5x5
I0506 13:00:08.902956  5822 net.cpp:367] inception_4e/relu_5x5 -> inception_4e/5x5 (in-place)
I0506 13:00:08.903771  5822 net.cpp:122] Setting up inception_4e/relu_5x5
I0506 13:00:08.903791  5822 net.cpp:129] Top shape: 32 128 14 14 (802816)
I0506 13:00:08.903798  5822 net.cpp:137] Memory required for data: 1656210952
I0506 13:00:08.903805  5822 layer_factory.hpp:77] Creating layer inception_4e/pool
I0506 13:00:08.903816  5822 net.cpp:84] Creating Layer inception_4e/pool
I0506 13:00:08.903823  5822 net.cpp:406] inception_4e/pool <- inception_4d/output_inception_4d/output_0_split_4
I0506 13:00:08.903833  5822 net.cpp:380] inception_4e/pool -> inception_4e/pool
I0506 13:00:08.903903  5822 net.cpp:122] Setting up inception_4e/pool
I0506 13:00:08.903913  5822 net.cpp:129] Top shape: 32 528 14 14 (3311616)
I0506 13:00:08.903918  5822 net.cpp:137] Memory required for data: 1669457416
I0506 13:00:08.903924  5822 layer_factory.hpp:77] Creating layer inception_4e/pool_proj
I0506 13:00:08.903941  5822 net.cpp:84] Creating Layer inception_4e/pool_proj
I0506 13:00:08.903949  5822 net.cpp:406] inception_4e/pool_proj <- inception_4e/pool
I0506 13:00:08.903960  5822 net.cpp:380] inception_4e/pool_proj -> inception_4e/pool_proj
I0506 13:00:08.908403  5822 net.cpp:122] Setting up inception_4e/pool_proj
I0506 13:00:08.908419  5822 net.cpp:129] Top shape: 32 128 14 14 (802816)
I0506 13:00:08.908426  5822 net.cpp:137] Memory required for data: 1672668680
I0506 13:00:08.908435  5822 layer_factory.hpp:77] Creating layer inception_4e/relu_pool_proj
I0506 13:00:08.908447  5822 net.cpp:84] Creating Layer inception_4e/relu_pool_proj
I0506 13:00:08.908452  5822 net.cpp:406] inception_4e/relu_pool_proj <- inception_4e/pool_proj
I0506 13:00:08.908460  5822 net.cpp:367] inception_4e/relu_pool_proj -> inception_4e/pool_proj (in-place)
I0506 13:00:08.909211  5822 net.cpp:122] Setting up inception_4e/relu_pool_proj
I0506 13:00:08.909224  5822 net.cpp:129] Top shape: 32 128 14 14 (802816)
I0506 13:00:08.909255  5822 net.cpp:137] Memory required for data: 1675879944
I0506 13:00:08.909262  5822 layer_factory.hpp:77] Creating layer inception_4e/output
I0506 13:00:08.909273  5822 net.cpp:84] Creating Layer inception_4e/output
I0506 13:00:08.909279  5822 net.cpp:406] inception_4e/output <- inception_4e/1x1
I0506 13:00:08.909286  5822 net.cpp:406] inception_4e/output <- inception_4e/3x3
I0506 13:00:08.909293  5822 net.cpp:406] inception_4e/output <- inception_4e/5x5
I0506 13:00:08.909299  5822 net.cpp:406] inception_4e/output <- inception_4e/pool_proj
I0506 13:00:08.909307  5822 net.cpp:380] inception_4e/output -> inception_4e/output
I0506 13:00:08.909344  5822 net.cpp:122] Setting up inception_4e/output
I0506 13:00:08.909353  5822 net.cpp:129] Top shape: 32 832 14 14 (5218304)
I0506 13:00:08.909358  5822 net.cpp:137] Memory required for data: 1696753160
I0506 13:00:08.909363  5822 layer_factory.hpp:77] Creating layer pool4/3x3_s2
I0506 13:00:08.909371  5822 net.cpp:84] Creating Layer pool4/3x3_s2
I0506 13:00:08.909376  5822 net.cpp:406] pool4/3x3_s2 <- inception_4e/output
I0506 13:00:08.909386  5822 net.cpp:380] pool4/3x3_s2 -> pool4/3x3_s2
I0506 13:00:08.909430  5822 net.cpp:122] Setting up pool4/3x3_s2
I0506 13:00:08.909438  5822 net.cpp:129] Top shape: 32 832 7 7 (1304576)
I0506 13:00:08.909443  5822 net.cpp:137] Memory required for data: 1701971464
I0506 13:00:08.909448  5822 layer_factory.hpp:77] Creating layer pool4/3x3_s2_pool4/3x3_s2_0_split
I0506 13:00:08.909458  5822 net.cpp:84] Creating Layer pool4/3x3_s2_pool4/3x3_s2_0_split
I0506 13:00:08.909463  5822 net.cpp:406] pool4/3x3_s2_pool4/3x3_s2_0_split <- pool4/3x3_s2
I0506 13:00:08.909471  5822 net.cpp:380] pool4/3x3_s2_pool4/3x3_s2_0_split -> pool4/3x3_s2_pool4/3x3_s2_0_split_0
I0506 13:00:08.909482  5822 net.cpp:380] pool4/3x3_s2_pool4/3x3_s2_0_split -> pool4/3x3_s2_pool4/3x3_s2_0_split_1
I0506 13:00:08.909492  5822 net.cpp:380] pool4/3x3_s2_pool4/3x3_s2_0_split -> pool4/3x3_s2_pool4/3x3_s2_0_split_2
I0506 13:00:08.909500  5822 net.cpp:380] pool4/3x3_s2_pool4/3x3_s2_0_split -> pool4/3x3_s2_pool4/3x3_s2_0_split_3
I0506 13:00:08.909564  5822 net.cpp:122] Setting up pool4/3x3_s2_pool4/3x3_s2_0_split
I0506 13:00:08.909574  5822 net.cpp:129] Top shape: 32 832 7 7 (1304576)
I0506 13:00:08.909579  5822 net.cpp:129] Top shape: 32 832 7 7 (1304576)
I0506 13:00:08.909586  5822 net.cpp:129] Top shape: 32 832 7 7 (1304576)
I0506 13:00:08.909592  5822 net.cpp:129] Top shape: 32 832 7 7 (1304576)
I0506 13:00:08.909597  5822 net.cpp:137] Memory required for data: 1722844680
I0506 13:00:08.909602  5822 layer_factory.hpp:77] Creating layer inception_5a/1x1
I0506 13:00:08.909618  5822 net.cpp:84] Creating Layer inception_5a/1x1
I0506 13:00:08.909624  5822 net.cpp:406] inception_5a/1x1 <- pool4/3x3_s2_pool4/3x3_s2_0_split_0
I0506 13:00:08.909633  5822 net.cpp:380] inception_5a/1x1 -> inception_5a/1x1
I0506 13:00:08.912880  5822 net.cpp:122] Setting up inception_5a/1x1
I0506 13:00:08.912894  5822 net.cpp:129] Top shape: 32 256 7 7 (401408)
I0506 13:00:08.912897  5822 net.cpp:137] Memory required for data: 1724450312
I0506 13:00:08.912904  5822 layer_factory.hpp:77] Creating layer inception_5a/relu_1x1
I0506 13:00:08.912912  5822 net.cpp:84] Creating Layer inception_5a/relu_1x1
I0506 13:00:08.912916  5822 net.cpp:406] inception_5a/relu_1x1 <- inception_5a/1x1
I0506 13:00:08.912925  5822 net.cpp:367] inception_5a/relu_1x1 -> inception_5a/1x1 (in-place)
I0506 13:00:08.913456  5822 net.cpp:122] Setting up inception_5a/relu_1x1
I0506 13:00:08.913467  5822 net.cpp:129] Top shape: 32 256 7 7 (401408)
I0506 13:00:08.913472  5822 net.cpp:137] Memory required for data: 1726055944
I0506 13:00:08.913477  5822 layer_factory.hpp:77] Creating layer inception_5a/3x3_reduce
I0506 13:00:08.913488  5822 net.cpp:84] Creating Layer inception_5a/3x3_reduce
I0506 13:00:08.913494  5822 net.cpp:406] inception_5a/3x3_reduce <- pool4/3x3_s2_pool4/3x3_s2_0_split_1
I0506 13:00:08.913501  5822 net.cpp:380] inception_5a/3x3_reduce -> inception_5a/3x3_reduce
I0506 13:00:08.918082  5822 net.cpp:122] Setting up inception_5a/3x3_reduce
I0506 13:00:08.918099  5822 net.cpp:129] Top shape: 32 160 7 7 (250880)
I0506 13:00:08.918103  5822 net.cpp:137] Memory required for data: 1727059464
I0506 13:00:08.918112  5822 layer_factory.hpp:77] Creating layer inception_5a/relu_3x3_reduce
I0506 13:00:08.918120  5822 net.cpp:84] Creating Layer inception_5a/relu_3x3_reduce
I0506 13:00:08.918125  5822 net.cpp:406] inception_5a/relu_3x3_reduce <- inception_5a/3x3_reduce
I0506 13:00:08.918133  5822 net.cpp:367] inception_5a/relu_3x3_reduce -> inception_5a/3x3_reduce (in-place)
I0506 13:00:08.918524  5822 net.cpp:122] Setting up inception_5a/relu_3x3_reduce
I0506 13:00:08.918531  5822 net.cpp:129] Top shape: 32 160 7 7 (250880)
I0506 13:00:08.918536  5822 net.cpp:137] Memory required for data: 1728062984
I0506 13:00:08.918540  5822 layer_factory.hpp:77] Creating layer inception_5a/3x3
I0506 13:00:08.918553  5822 net.cpp:84] Creating Layer inception_5a/3x3
I0506 13:00:08.918557  5822 net.cpp:406] inception_5a/3x3 <- inception_5a/3x3_reduce
I0506 13:00:08.918565  5822 net.cpp:380] inception_5a/3x3 -> inception_5a/3x3
I0506 13:00:08.927273  5822 net.cpp:122] Setting up inception_5a/3x3
I0506 13:00:08.927286  5822 net.cpp:129] Top shape: 32 320 7 7 (501760)
I0506 13:00:08.927290  5822 net.cpp:137] Memory required for data: 1730070024
I0506 13:00:08.927299  5822 layer_factory.hpp:77] Creating layer inception_5a/relu_3x3
I0506 13:00:08.927307  5822 net.cpp:84] Creating Layer inception_5a/relu_3x3
I0506 13:00:08.927312  5822 net.cpp:406] inception_5a/relu_3x3 <- inception_5a/3x3
I0506 13:00:08.927320  5822 net.cpp:367] inception_5a/relu_3x3 -> inception_5a/3x3 (in-place)
I0506 13:00:08.927847  5822 net.cpp:122] Setting up inception_5a/relu_3x3
I0506 13:00:08.927858  5822 net.cpp:129] Top shape: 32 320 7 7 (501760)
I0506 13:00:08.927862  5822 net.cpp:137] Memory required for data: 1732077064
I0506 13:00:08.927866  5822 layer_factory.hpp:77] Creating layer inception_5a/5x5_reduce
I0506 13:00:08.927877  5822 net.cpp:84] Creating Layer inception_5a/5x5_reduce
I0506 13:00:08.927883  5822 net.cpp:406] inception_5a/5x5_reduce <- pool4/3x3_s2_pool4/3x3_s2_0_split_2
I0506 13:00:08.927891  5822 net.cpp:380] inception_5a/5x5_reduce -> inception_5a/5x5_reduce
I0506 13:00:08.931099  5822 net.cpp:122] Setting up inception_5a/5x5_reduce
I0506 13:00:08.931111  5822 net.cpp:129] Top shape: 32 32 7 7 (50176)
I0506 13:00:08.931116  5822 net.cpp:137] Memory required for data: 1732277768
I0506 13:00:08.931124  5822 layer_factory.hpp:77] Creating layer inception_5a/relu_5x5_reduce
I0506 13:00:08.931131  5822 net.cpp:84] Creating Layer inception_5a/relu_5x5_reduce
I0506 13:00:08.931138  5822 net.cpp:406] inception_5a/relu_5x5_reduce <- inception_5a/5x5_reduce
I0506 13:00:08.931144  5822 net.cpp:367] inception_5a/relu_5x5_reduce -> inception_5a/5x5_reduce (in-place)
I0506 13:00:08.931680  5822 net.cpp:122] Setting up inception_5a/relu_5x5_reduce
I0506 13:00:08.931690  5822 net.cpp:129] Top shape: 32 32 7 7 (50176)
I0506 13:00:08.931694  5822 net.cpp:137] Memory required for data: 1732478472
I0506 13:00:08.931699  5822 layer_factory.hpp:77] Creating layer inception_5a/5x5
I0506 13:00:08.931711  5822 net.cpp:84] Creating Layer inception_5a/5x5
I0506 13:00:08.931716  5822 net.cpp:406] inception_5a/5x5 <- inception_5a/5x5_reduce
I0506 13:00:08.931730  5822 net.cpp:380] inception_5a/5x5 -> inception_5a/5x5
I0506 13:00:08.933789  5822 net.cpp:122] Setting up inception_5a/5x5
I0506 13:00:08.933799  5822 net.cpp:129] Top shape: 32 128 7 7 (200704)
I0506 13:00:08.933804  5822 net.cpp:137] Memory required for data: 1733281288
I0506 13:00:08.933810  5822 layer_factory.hpp:77] Creating layer inception_5a/relu_5x5
I0506 13:00:08.933816  5822 net.cpp:84] Creating Layer inception_5a/relu_5x5
I0506 13:00:08.933821  5822 net.cpp:406] inception_5a/relu_5x5 <- inception_5a/5x5
I0506 13:00:08.933828  5822 net.cpp:367] inception_5a/relu_5x5 -> inception_5a/5x5 (in-place)
I0506 13:00:08.938128  5822 net.cpp:122] Setting up inception_5a/relu_5x5
I0506 13:00:08.938155  5822 net.cpp:129] Top shape: 32 128 7 7 (200704)
I0506 13:00:08.938159  5822 net.cpp:137] Memory required for data: 1734084104
I0506 13:00:08.938164  5822 layer_factory.hpp:77] Creating layer inception_5a/pool
I0506 13:00:08.938174  5822 net.cpp:84] Creating Layer inception_5a/pool
I0506 13:00:08.938179  5822 net.cpp:406] inception_5a/pool <- pool4/3x3_s2_pool4/3x3_s2_0_split_3
I0506 13:00:08.938185  5822 net.cpp:380] inception_5a/pool -> inception_5a/pool
I0506 13:00:08.938228  5822 net.cpp:122] Setting up inception_5a/pool
I0506 13:00:08.938235  5822 net.cpp:129] Top shape: 32 832 7 7 (1304576)
I0506 13:00:08.938237  5822 net.cpp:137] Memory required for data: 1739302408
I0506 13:00:08.938241  5822 layer_factory.hpp:77] Creating layer inception_5a/pool_proj
I0506 13:00:08.938251  5822 net.cpp:84] Creating Layer inception_5a/pool_proj
I0506 13:00:08.938256  5822 net.cpp:406] inception_5a/pool_proj <- inception_5a/pool
I0506 13:00:08.938262  5822 net.cpp:380] inception_5a/pool_proj -> inception_5a/pool_proj
I0506 13:00:08.940418  5822 net.cpp:122] Setting up inception_5a/pool_proj
I0506 13:00:08.940428  5822 net.cpp:129] Top shape: 32 128 7 7 (200704)
I0506 13:00:08.940431  5822 net.cpp:137] Memory required for data: 1740105224
I0506 13:00:08.940439  5822 layer_factory.hpp:77] Creating layer inception_5a/relu_pool_proj
I0506 13:00:08.940446  5822 net.cpp:84] Creating Layer inception_5a/relu_pool_proj
I0506 13:00:08.940450  5822 net.cpp:406] inception_5a/relu_pool_proj <- inception_5a/pool_proj
I0506 13:00:08.940457  5822 net.cpp:367] inception_5a/relu_pool_proj -> inception_5a/pool_proj (in-place)
I0506 13:00:08.940987  5822 net.cpp:122] Setting up inception_5a/relu_pool_proj
I0506 13:00:08.940999  5822 net.cpp:129] Top shape: 32 128 7 7 (200704)
I0506 13:00:08.941002  5822 net.cpp:137] Memory required for data: 1740908040
I0506 13:00:08.941006  5822 layer_factory.hpp:77] Creating layer inception_5a/output
I0506 13:00:08.941013  5822 net.cpp:84] Creating Layer inception_5a/output
I0506 13:00:08.941017  5822 net.cpp:406] inception_5a/output <- inception_5a/1x1
I0506 13:00:08.941023  5822 net.cpp:406] inception_5a/output <- inception_5a/3x3
I0506 13:00:08.941027  5822 net.cpp:406] inception_5a/output <- inception_5a/5x5
I0506 13:00:08.941030  5822 net.cpp:406] inception_5a/output <- inception_5a/pool_proj
I0506 13:00:08.941036  5822 net.cpp:380] inception_5a/output -> inception_5a/output
I0506 13:00:08.941066  5822 net.cpp:122] Setting up inception_5a/output
I0506 13:00:08.941071  5822 net.cpp:129] Top shape: 32 832 7 7 (1304576)
I0506 13:00:08.941074  5822 net.cpp:137] Memory required for data: 1746126344
I0506 13:00:08.941078  5822 layer_factory.hpp:77] Creating layer inception_5a/output_inception_5a/output_0_split
I0506 13:00:08.941084  5822 net.cpp:84] Creating Layer inception_5a/output_inception_5a/output_0_split
I0506 13:00:08.941088  5822 net.cpp:406] inception_5a/output_inception_5a/output_0_split <- inception_5a/output
I0506 13:00:08.941095  5822 net.cpp:380] inception_5a/output_inception_5a/output_0_split -> inception_5a/output_inception_5a/output_0_split_0
I0506 13:00:08.941102  5822 net.cpp:380] inception_5a/output_inception_5a/output_0_split -> inception_5a/output_inception_5a/output_0_split_1
I0506 13:00:08.941108  5822 net.cpp:380] inception_5a/output_inception_5a/output_0_split -> inception_5a/output_inception_5a/output_0_split_2
I0506 13:00:08.941114  5822 net.cpp:380] inception_5a/output_inception_5a/output_0_split -> inception_5a/output_inception_5a/output_0_split_3
I0506 13:00:08.941164  5822 net.cpp:122] Setting up inception_5a/output_inception_5a/output_0_split
I0506 13:00:08.941169  5822 net.cpp:129] Top shape: 32 832 7 7 (1304576)
I0506 13:00:08.941172  5822 net.cpp:129] Top shape: 32 832 7 7 (1304576)
I0506 13:00:08.941176  5822 net.cpp:129] Top shape: 32 832 7 7 (1304576)
I0506 13:00:08.941180  5822 net.cpp:129] Top shape: 32 832 7 7 (1304576)
I0506 13:00:08.941184  5822 net.cpp:137] Memory required for data: 1766999560
I0506 13:00:08.941187  5822 layer_factory.hpp:77] Creating layer inception_5b/1x1
I0506 13:00:08.941210  5822 net.cpp:84] Creating Layer inception_5b/1x1
I0506 13:00:08.941213  5822 net.cpp:406] inception_5b/1x1 <- inception_5a/output_inception_5a/output_0_split_0
I0506 13:00:08.941220  5822 net.cpp:380] inception_5b/1x1 -> inception_5b/1x1
I0506 13:00:08.948616  5822 net.cpp:122] Setting up inception_5b/1x1
I0506 13:00:08.948632  5822 net.cpp:129] Top shape: 32 384 7 7 (602112)
I0506 13:00:08.948637  5822 net.cpp:137] Memory required for data: 1769408008
I0506 13:00:08.948644  5822 layer_factory.hpp:77] Creating layer inception_5b/relu_1x1
I0506 13:00:08.948653  5822 net.cpp:84] Creating Layer inception_5b/relu_1x1
I0506 13:00:08.948659  5822 net.cpp:406] inception_5b/relu_1x1 <- inception_5b/1x1
I0506 13:00:08.948668  5822 net.cpp:367] inception_5b/relu_1x1 -> inception_5b/1x1 (in-place)
I0506 13:00:08.949030  5822 net.cpp:122] Setting up inception_5b/relu_1x1
I0506 13:00:08.949038  5822 net.cpp:129] Top shape: 32 384 7 7 (602112)
I0506 13:00:08.949043  5822 net.cpp:137] Memory required for data: 1771816456
I0506 13:00:08.949048  5822 layer_factory.hpp:77] Creating layer inception_5b/3x3_reduce
I0506 13:00:08.949059  5822 net.cpp:84] Creating Layer inception_5b/3x3_reduce
I0506 13:00:08.949064  5822 net.cpp:406] inception_5b/3x3_reduce <- inception_5a/output_inception_5a/output_0_split_1
I0506 13:00:08.949071  5822 net.cpp:380] inception_5b/3x3_reduce -> inception_5b/3x3_reduce
I0506 13:00:08.951694  5822 net.cpp:122] Setting up inception_5b/3x3_reduce
I0506 13:00:08.951705  5822 net.cpp:129] Top shape: 32 192 7 7 (301056)
I0506 13:00:08.951709  5822 net.cpp:137] Memory required for data: 1773020680
I0506 13:00:08.951716  5822 layer_factory.hpp:77] Creating layer inception_5b/relu_3x3_reduce
I0506 13:00:08.951725  5822 net.cpp:84] Creating Layer inception_5b/relu_3x3_reduce
I0506 13:00:08.951730  5822 net.cpp:406] inception_5b/relu_3x3_reduce <- inception_5b/3x3_reduce
I0506 13:00:08.951735  5822 net.cpp:367] inception_5b/relu_3x3_reduce -> inception_5b/3x3_reduce (in-place)
I0506 13:00:08.952092  5822 net.cpp:122] Setting up inception_5b/relu_3x3_reduce
I0506 13:00:08.952102  5822 net.cpp:129] Top shape: 32 192 7 7 (301056)
I0506 13:00:08.952106  5822 net.cpp:137] Memory required for data: 1774224904
I0506 13:00:08.952111  5822 layer_factory.hpp:77] Creating layer inception_5b/3x3
I0506 13:00:08.952121  5822 net.cpp:84] Creating Layer inception_5b/3x3
I0506 13:00:08.952126  5822 net.cpp:406] inception_5b/3x3 <- inception_5b/3x3_reduce
I0506 13:00:08.952132  5822 net.cpp:380] inception_5b/3x3 -> inception_5b/3x3
I0506 13:00:08.959542  5822 net.cpp:122] Setting up inception_5b/3x3
I0506 13:00:08.959563  5822 net.cpp:129] Top shape: 32 384 7 7 (602112)
I0506 13:00:08.959566  5822 net.cpp:137] Memory required for data: 1776633352
I0506 13:00:08.959575  5822 layer_factory.hpp:77] Creating layer inception_5b/relu_3x3
I0506 13:00:08.959584  5822 net.cpp:84] Creating Layer inception_5b/relu_3x3
I0506 13:00:08.959589  5822 net.cpp:406] inception_5b/relu_3x3 <- inception_5b/3x3
I0506 13:00:08.959596  5822 net.cpp:367] inception_5b/relu_3x3 -> inception_5b/3x3 (in-place)
I0506 13:00:08.960119  5822 net.cpp:122] Setting up inception_5b/relu_3x3
I0506 13:00:08.960129  5822 net.cpp:129] Top shape: 32 384 7 7 (602112)
I0506 13:00:08.960132  5822 net.cpp:137] Memory required for data: 1779041800
I0506 13:00:08.960136  5822 layer_factory.hpp:77] Creating layer inception_5b/5x5_reduce
I0506 13:00:08.960147  5822 net.cpp:84] Creating Layer inception_5b/5x5_reduce
I0506 13:00:08.960152  5822 net.cpp:406] inception_5b/5x5_reduce <- inception_5a/output_inception_5a/output_0_split_2
I0506 13:00:08.960160  5822 net.cpp:380] inception_5b/5x5_reduce -> inception_5b/5x5_reduce
I0506 13:00:08.961995  5822 net.cpp:122] Setting up inception_5b/5x5_reduce
I0506 13:00:08.962005  5822 net.cpp:129] Top shape: 32 48 7 7 (75264)
I0506 13:00:08.962008  5822 net.cpp:137] Memory required for data: 1779342856
I0506 13:00:08.962015  5822 layer_factory.hpp:77] Creating layer inception_5b/relu_5x5_reduce
I0506 13:00:08.962043  5822 net.cpp:84] Creating Layer inception_5b/relu_5x5_reduce
I0506 13:00:08.962046  5822 net.cpp:406] inception_5b/relu_5x5_reduce <- inception_5b/5x5_reduce
I0506 13:00:08.962052  5822 net.cpp:367] inception_5b/relu_5x5_reduce -> inception_5b/5x5_reduce (in-place)
I0506 13:00:08.962601  5822 net.cpp:122] Setting up inception_5b/relu_5x5_reduce
I0506 13:00:08.962611  5822 net.cpp:129] Top shape: 32 48 7 7 (75264)
I0506 13:00:08.962615  5822 net.cpp:137] Memory required for data: 1779643912
I0506 13:00:08.962620  5822 layer_factory.hpp:77] Creating layer inception_5b/5x5
I0506 13:00:08.962630  5822 net.cpp:84] Creating Layer inception_5b/5x5
I0506 13:00:08.962635  5822 net.cpp:406] inception_5b/5x5 <- inception_5b/5x5_reduce
I0506 13:00:08.962641  5822 net.cpp:380] inception_5b/5x5 -> inception_5b/5x5
I0506 13:00:08.965051  5822 net.cpp:122] Setting up inception_5b/5x5
I0506 13:00:08.965061  5822 net.cpp:129] Top shape: 32 128 7 7 (200704)
I0506 13:00:08.965065  5822 net.cpp:137] Memory required for data: 1780446728
I0506 13:00:08.965071  5822 layer_factory.hpp:77] Creating layer inception_5b/relu_5x5
I0506 13:00:08.965078  5822 net.cpp:84] Creating Layer inception_5b/relu_5x5
I0506 13:00:08.965082  5822 net.cpp:406] inception_5b/relu_5x5 <- inception_5b/5x5
I0506 13:00:08.965091  5822 net.cpp:367] inception_5b/relu_5x5 -> inception_5b/5x5 (in-place)
I0506 13:00:08.967015  5822 net.cpp:122] Setting up inception_5b/relu_5x5
I0506 13:00:08.967028  5822 net.cpp:129] Top shape: 32 128 7 7 (200704)
I0506 13:00:08.967031  5822 net.cpp:137] Memory required for data: 1781249544
I0506 13:00:08.967036  5822 layer_factory.hpp:77] Creating layer inception_5b/pool
I0506 13:00:08.967042  5822 net.cpp:84] Creating Layer inception_5b/pool
I0506 13:00:08.967047  5822 net.cpp:406] inception_5b/pool <- inception_5a/output_inception_5a/output_0_split_3
I0506 13:00:08.967052  5822 net.cpp:380] inception_5b/pool -> inception_5b/pool
I0506 13:00:08.967094  5822 net.cpp:122] Setting up inception_5b/pool
I0506 13:00:08.967100  5822 net.cpp:129] Top shape: 32 832 7 7 (1304576)
I0506 13:00:08.967103  5822 net.cpp:137] Memory required for data: 1786467848
I0506 13:00:08.967106  5822 layer_factory.hpp:77] Creating layer inception_5b/pool_proj
I0506 13:00:08.967115  5822 net.cpp:84] Creating Layer inception_5b/pool_proj
I0506 13:00:08.967118  5822 net.cpp:406] inception_5b/pool_proj <- inception_5b/pool
I0506 13:00:08.967125  5822 net.cpp:380] inception_5b/pool_proj -> inception_5b/pool_proj
I0506 13:00:08.971558  5822 net.cpp:122] Setting up inception_5b/pool_proj
I0506 13:00:08.971575  5822 net.cpp:129] Top shape: 32 128 7 7 (200704)
I0506 13:00:08.971578  5822 net.cpp:137] Memory required for data: 1787270664
I0506 13:00:08.971586  5822 layer_factory.hpp:77] Creating layer inception_5b/relu_pool_proj
I0506 13:00:08.971594  5822 net.cpp:84] Creating Layer inception_5b/relu_pool_proj
I0506 13:00:08.971599  5822 net.cpp:406] inception_5b/relu_pool_proj <- inception_5b/pool_proj
I0506 13:00:08.971606  5822 net.cpp:367] inception_5b/relu_pool_proj -> inception_5b/pool_proj (in-place)
I0506 13:00:08.972158  5822 net.cpp:122] Setting up inception_5b/relu_pool_proj
I0506 13:00:08.972168  5822 net.cpp:129] Top shape: 32 128 7 7 (200704)
I0506 13:00:08.972172  5822 net.cpp:137] Memory required for data: 1788073480
I0506 13:00:08.972175  5822 layer_factory.hpp:77] Creating layer inception_5b/output
I0506 13:00:08.972182  5822 net.cpp:84] Creating Layer inception_5b/output
I0506 13:00:08.972185  5822 net.cpp:406] inception_5b/output <- inception_5b/1x1
I0506 13:00:08.972190  5822 net.cpp:406] inception_5b/output <- inception_5b/3x3
I0506 13:00:08.972195  5822 net.cpp:406] inception_5b/output <- inception_5b/5x5
I0506 13:00:08.972198  5822 net.cpp:406] inception_5b/output <- inception_5b/pool_proj
I0506 13:00:08.972205  5822 net.cpp:380] inception_5b/output -> inception_5b/output
I0506 13:00:08.972234  5822 net.cpp:122] Setting up inception_5b/output
I0506 13:00:08.972240  5822 net.cpp:129] Top shape: 32 1024 7 7 (1605632)
I0506 13:00:08.972262  5822 net.cpp:137] Memory required for data: 1794496008
I0506 13:00:08.972265  5822 layer_factory.hpp:77] Creating layer pool5/7x7_s1
I0506 13:00:08.972271  5822 net.cpp:84] Creating Layer pool5/7x7_s1
I0506 13:00:08.972275  5822 net.cpp:406] pool5/7x7_s1 <- inception_5b/output
I0506 13:00:08.972283  5822 net.cpp:380] pool5/7x7_s1 -> pool5/7x7_s1
I0506 13:00:08.972824  5822 net.cpp:122] Setting up pool5/7x7_s1
I0506 13:00:08.972833  5822 net.cpp:129] Top shape: 32 1024 1 1 (32768)
I0506 13:00:08.972837  5822 net.cpp:137] Memory required for data: 1794627080
I0506 13:00:08.972841  5822 layer_factory.hpp:77] Creating layer pool5/drop_7x7_s1
I0506 13:00:08.972849  5822 net.cpp:84] Creating Layer pool5/drop_7x7_s1
I0506 13:00:08.972853  5822 net.cpp:406] pool5/drop_7x7_s1 <- pool5/7x7_s1
I0506 13:00:08.972858  5822 net.cpp:367] pool5/drop_7x7_s1 -> pool5/7x7_s1 (in-place)
I0506 13:00:08.972882  5822 net.cpp:122] Setting up pool5/drop_7x7_s1
I0506 13:00:08.972887  5822 net.cpp:129] Top shape: 32 1024 1 1 (32768)
I0506 13:00:08.972889  5822 net.cpp:137] Memory required for data: 1794758152
I0506 13:00:08.972893  5822 layer_factory.hpp:77] Creating layer loss3/classifier
I0506 13:00:08.972900  5822 net.cpp:84] Creating Layer loss3/classifier
I0506 13:00:08.972904  5822 net.cpp:406] loss3/classifier <- pool5/7x7_s1
I0506 13:00:08.972910  5822 net.cpp:380] loss3/classifier -> loss3/classifier
I0506 13:00:08.973950  5822 net.cpp:122] Setting up loss3/classifier
I0506 13:00:08.973958  5822 net.cpp:129] Top shape: 32 196 (6272)
I0506 13:00:08.973961  5822 net.cpp:137] Memory required for data: 1794783240
I0506 13:00:08.973968  5822 layer_factory.hpp:77] Creating layer loss3/loss
I0506 13:00:08.973973  5822 net.cpp:84] Creating Layer loss3/loss
I0506 13:00:08.973978  5822 net.cpp:406] loss3/loss <- loss3/classifier
I0506 13:00:08.973982  5822 net.cpp:406] loss3/loss <- label_train-data_1_split_2
I0506 13:00:08.973986  5822 net.cpp:380] loss3/loss -> loss
…
I0506 13:00:08.977334  5822 net.cpp:294] The NetState phase (1) differed from the phase (0) specified by a rule in layer train-data
I0506 13:00:08.978211  5822 net.cpp:51] Initializing net from parameters:
state {
phase: TEST
}
layer {
name: "val-data"
type: "Data"
top: "data"
top: "label"
include {
phase: TEST
}
transform_param {
mirror: false
crop_size: 224
mean_file: "/mnt/bigdisk/MANDIG3/digits/jobs/20200506-122814-755d/mean.binaryproto"
}
data_param {
source: "/mnt/bigdisk/MANDIG3/digits/jobs/20200506-122814-755d/val_db"
batch_size: 16
backend: LMDB
}
}
layer {
name: "conv1/7x7_s2"
type: "Convolution"
bottom: "data"
top: "conv1/7x7_s2"
param {
lr_mult: 1
decay_mult: 1
}
param {
lr_mult: 2
decay_mult: 0
}
convolution_param {
num_output: 64
pad: 3
kernel_size: 7
stride: 2
weight_filler {
type: "xavier"
std: 0.1
}
bias_filler {
type: "constant"
value: 0.2
}
}
}
layer {
name: "conv1/relu_7x7"
type: "ReLU"
bottom: "conv1/7x7_s2"
top: "conv1/7x7_s2"
}
layer {
name: "pool1/3x3_s2"
type: "Pooling"
bottom: "conv1/7x7_s2"
top: "pool1/3x3_s2"
pooling_param {
pool: MAX
kernel_size: 3
stride: 2
}
}
layer {
name: "pool1/norm1"
type: "LRN"
bottom: "pool1/3x3_s2"
top: "pool1/norm1"
lrn_param {
local_size: 5
alpha: 0.0001
beta: 0.75
}
}
layer {
name: "conv2/3x3_reduce"
type: "Convolution"
bottom: "pool1/norm1"
top: "conv2/3x3_reduce"
param {
lr_mult: 1
decay_mult: 1
}
param {
lr_mult: 2
decay_mult: 0
}
convolution_param {
num_output: 64
kernel_size: 1
weight_filler {
type: "xavier"
std: 0.1
}
bias_filler {
type: "constant"
value: 0.2
}
}
}
layer {
name: "conv2/relu_3x3_reduce"
type: "ReLU"
bottom: "conv2/3x3_reduce"
top: "conv2/3x3_reduce"
}
layer {
name: "conv2/3x3"
type: "Convolution"
bottom: "conv2/3x3_reduce"
top: "conv2/3x3"
param {
lr_mult: 1
decay_mult: 1
}
param {
lr_mult: 2
decay_mult: 0
}
convolution_param {
num_output: 192
pad: 1
kernel_size: 3
weight_filler {
type: "xavier"
std: 0.03
}
bias_filler {
type: "constant"
value: 0.2
}
}
}
layer {
name: "conv2/relu_3x3"
type: "ReLU"
bottom: "conv2/3x3"
top: "conv2/3x3"
}
layer {
name: "conv2/norm2"
type: "LRN"
bottom: "conv2/3x3"
top: "conv2/norm2"
lrn_param {
local_size: 5
alpha: 0.0001
beta: 0.75
}
}
layer {
name: "pool2/3x3_s2"
type: "Pooling"
bottom: "conv2/norm2"
top: "pool2/3x3_s2"
pooling_param {
pool: MAX
kernel_size: 3
stride: 2
}
}
layer {
name: "inception_3a/1x1"
type: "Convolution"
bottom: "pool2/3x3_s2"
top: "inception_3a/1x1"
param {
lr_mult: 1
decay_mult: 1
}
param {
lr_mult: 2
decay_mult: 0
}
convolution_param {
num_output: 64
kernel_size: 1
weight_filler {
type: "xavier"
std: 0.03
}
bias_filler {
type: "constant"
value: 0.2
}
}
}
layer {
name: "inception_3a/relu_1x1"
type: "ReLU"
bottom: "inception_3a/1x1"
top: "inception_3a/1x1"
}
layer {
name: "inception_3a/3x3_reduce"
type: "Convolution"
bottom: "pool2/3x3_s2"
top: "inception_3a/3x3_reduce"
param {
lr_mult: 1
decay_mult: 1
}
param {
lr_mult: 2
decay_mult: 0
}
convolution_param {
num_output: 96
kernel_size: 1
weight_filler {
type: "xavier"
std: 0.09
}
bias_filler {
type: "constant"
value: 0.2
}
}
}
layer {
name: "inception_3a/relu_3x3_reduce"
type: "ReLU"
bottom: "inception_3a/3x3_reduce"
top: "inception_3a/3x3_reduce"
}
layer {
name: "inception_3a/3x3"
type: "Convolution"
bottom: "inception_3a/3x3_reduce"
top: "inception_3a/3x3"
param {
lr_mult: 1
decay_mult: 1
}
param {
lr_mult: 2
decay_mult: 0
}
convolution_param {
num_output: 128
pad: 1
kernel_size: 3
weight_filler {
type: "xavier"
std: 0.03
}
bias_filler {
type: "constant"
value: 0.2
}
}
}
layer {
name: "inception_3a/relu_3x3"
type: "ReLU"
bottom: "inception_3a/3x3"
top: "inception_3a/3x3"
}
layer {
name: "inception_3a/5x5_reduce"
type: "Convolution"
bottom: "pool2/3x3_s2"
top: "inception_3a/5x5_reduce"
param {
lr_mult: 1
decay_mult: 1
}
param {
lr_mult: 2
decay_mult: 0
}
convolution_param {
num_output: 16
kernel_size: 1
weight_filler {
type: "xavier"
std: 0.2
}
bias_filler {
type: "constant"
value: 0.2
}
}
}
layer {
name: "inception_3a/relu_5x5_reduce"
type: "ReLU"
bottom: "inception_3a/5x5_reduce"
top: "inception_3a/5x5_reduce"
}
layer {
name: "inception_3a/5x5"
type: "Convolution"
bottom: "inception_3a/5x5_reduce"
top: "inception_3a/5x5"
param {
lr_mult: 1
decay_mult: 1
}
param {
lr_mult: 2
decay_mult: 0
}
convolution_param {
num_output: 32
pad: 2
kernel_size: 5
weight_filler {
type: "xavier"
std: 0.03
}
bias_filler {
type: "constant"
value: 0.2
}
}
}
layer {
name: "inception_3a/relu_5x5"
type: "ReLU"
bottom: "inception_3a/5x5"
top: "inception_3a/5x5"
}
layer {
name: "inception_3a/pool"
type: "Pooling"
bottom: "pool2/3x3_s2"
top: "inception_3a/pool"
pooling_param {
pool: MAX
kernel_size: 3
stride: 1
pad: 1
}
}
layer {
name: "inception_3a/pool_proj"
type: "Convolution"
bottom: "inception_3a/pool"
top: "inception_3a/pool_proj"
param {
lr_mult: 1
decay_mult: 1
}
param {
lr_mult: 2
decay_mult: 0
}
convolution_param {
num_output: 32
kernel_size: 1
weight_filler {
type: "xavier"
std: 0.1
}
bias_filler {
type: "constant"
value: 0.2
}
}
}
layer {
name: "inception_3a/relu_pool_proj"
type: "ReLU"
bottom: "inception_3a/pool_proj"
top: "inception_3a/pool_proj"
}
layer {
name: "inception_3a/output"
type: "Concat"
bottom: "inception_3a/1x1"
bottom: "inception_3a/3x3"
bottom: "inception_3a/5x5"
bottom: "inception_3a/pool_proj"
top: "inception_3a/output"
}
layer {
name: "inception_3b/1x1"
type: "Convolution"
bottom: "inception_3a/output"
top: "inception_3b/1x1"
param {
lr_mult: 1
decay_mult: 1
}
param {
lr_mult: 2
decay_mult: 0
}
convolution_param {
num_output: 128
kernel_size: 1
weight_filler {
type: "xavier"
std: 0.03
}
bias_filler {
type: "constant"
value: 0.2
}
}
}
layer {
name: "inception_3b/relu_1x1"
type: "ReLU"
bottom: "inception_3b/1x1"
top: "inception_3b/1x1"
}
layer {
name: "inception_3b/3x3_reduce"
type: "Convolution"
bottom: "inception_3a/output"
top: "inception_3b/3x3_reduce"
param {
lr_mult: 1
decay_mult: 1
}
param {
lr_mult: 2
decay_mult: 0
}
convolution_param {
num_output: 128
kernel_size: 1
weight_filler {
type: "xavier"
std: 0.09
}
bias_filler {
type: "constant"
value: 0.2
}
}
}
layer {
name: "inception_3b/relu_3x3_reduce"
type: "ReLU"
bottom: "inception_3b/3x3_reduce"
top: "inception_3b/3x3_reduce"
}
layer {
name: "inception_3b/3x3"
type: "Convolution"
bottom: "inception_3b/3x3_reduce"
top: "inception_3b/3x3"
param {
lr_mult: 1
decay_mult: 1
}
param {
lr_mult: 2
decay_mult: 0
}
convolution_param {
num_output: 192
pad: 1
kernel_size: 3
weight_filler {
type: "xavier"
std: 0.03
}
bias_filler {
type: "constant"
value: 0.2
}
}
}
layer {
name: "inception_3b/relu_3x3"
type: "ReLU"
bottom: "inception_3b/3x3"
top: "inception_3b/3x3"
}
layer {
name: "inception_3b/5x5_reduce"
type: "Convolution"
bottom: "inception_3a/output"
top: "inception_3b/5x5_reduce"
param {
lr_mult: 1
decay_mult: 1
}
param {
lr_mult: 2
decay_mult: 0
}
convolution_param {
num_output: 32
kernel_size: 1
weight_filler {
type: "xavier"
std: 0.2
}
bias_filler {
type: "constant"
value: 0.2
}
}
}
layer {
name: "inception_3b/relu_5x5_reduce"
type: "ReLU"
bottom: "inception_3b/5x5_reduce"
top: "inception_3b/5x5_reduce"
}
layer {
name: "inception_3b/5x5"
type: "Convolution"
bottom: "inception_3b/5x5_reduce"
top: "inception_3b/5x5"
param {
lr_mult: 1
decay_mult: 1
}
param {
lr_mult: 2
decay_mult: 0
}
convolution_param {
num_output: 96
pad: 2
kernel_size: 5
weight_filler {
type: "xavier"
std: 0.03
}
bias_filler {
type: "constant"
value: 0.2
}
}
}
layer {
name: "inception_3b/relu_5x5"
type: "ReLU"
bottom: "inception_3b/5x5"
top: "inception_3b/5x5"
}
layer {
name: "inception_3b/pool"
type: "Pooling"
bottom: "inception_3a/output"
top: "inception_3b/pool"
pooling_param {
pool: MAX
kernel_size: 3
stride: 1
pad: 1
}
}
layer {
name: "inception_3b/pool_proj"
type: "Convolution"
bottom: "inception_3b/pool"
top: "inception_3b/pool_proj"
param {
lr_mult: 1
decay_mult: 1
}
param {
lr_mult: 2
decay_mult: 0
}
convolution_param {
num_output: 64
kernel_size: 1
weight_filler {
type: "xavier"
std: 0.1
}
bias_filler {
type: "constant"
value: 0.2
}
}
}
layer {
name: "inception_3b/relu_pool_proj"
type: "ReLU"
bottom: "inception_3b/pool_proj"
top: "inception_3b/pool_proj"
}
layer {
name: "inception_3b/output"
type: "Concat"
bottom: "inception_3b/1x1"
bottom: "inception_3b/3x3"
bottom: "inception_3b/5x5"
bottom: "inception_3b/pool_proj"
top: "inception_3b/output"
}
layer {
name: "pool3/3x3_s2"
type: "Pooling"
bottom: "inception_3b/output"
top: "pool3/3x3_s2"
pooling_param {
pool: MAX
kernel_size: 3
stride: 2
}
}
layer {
name: "inception_4a/1x1"
type: "Convolution"
bottom: "pool3/3x3_s2"
top: "inception_4a/1x1"
param {
lr_mult: 1
decay_mult: 1
}
param {
lr_mult: 2
decay_mult: 0
}
convolution_param {
num_output: 192
kernel_size: 1
weight_filler {
type: "xavier"
std: 0.03
}
bias_filler {
type: "constant"
value: 0.2
}
}
}
layer {
name: "inception_4a/relu_1x1"
type: "ReLU"
bottom: "inception_4a/1x1"
top: "inception_4a/1x1"
}
layer {
name: "inception_4a/3x3_reduce"
type: "Convolution"
bottom: "pool3/3x3_s2"
top: "inception_4a/3x3_reduce"
param {
lr_mult: 1
decay_mult: 1
}
param {
lr_mult: 2
decay_mult: 0
}
convolution_param {
num_output: 96
kernel_size: 1
weight_filler {
type: "xavier"
std: 0.09
}
bias_filler {
type: "constant"
value: 0.2
}
}
}
layer {
name: "inception_4a/relu_3x3_reduce"
type: "ReLU"
bottom: "inception_4a/3x3_reduce"
top: "inception_4a/3x3_reduce"
}
layer {
name: "inception_4a/3x3"
type: "Convolution"
bottom: "inception_4a/3x3_reduce"
top: "inception_4a/3x3"
param {
lr_mult: 1
decay_mult: 1
}
param {
lr_mult: 2
decay_mult: 0
}
convolution_param {
num_output: 208
pad: 1
kernel_size: 3
weight_filler {
type: "xavier"
std: 0.03
}
bias_filler {
type: "constant"
value: 0.2
}
}
}
layer {
name: "inception_4a/relu_3x3"
type: "ReLU"
bottom: "inception_4a/3x3"
top: "inception_4a/3x3"
}
layer {
name: "inception_4a/5x5_reduce"
type: "Convolution"
bottom: "pool3/3x3_s2"
top: "inception_4a/5x5_reduce"
param {
lr_mult: 1
decay_mult: 1
}
param {
lr_mult: 2
decay_mult: 0
}
convolution_param {
num_output: 16
kernel_size: 1
weight_filler {
type: "xavier"
std: 0.2
}
bias_filler {
type: "constant"
value: 0.2
}
}
}
layer {
name: "inception_4a/relu_5x5_reduce"
type: "ReLU"
bottom: "inception_4a/5x5_reduce"
top: "inception_4a/5x5_reduce"
}
layer {
name: "inception_4a/5x5"
type: "Convolution"
bottom: "inception_4a/5x5_reduce"
top: "inception_4a/5x5"
param {
lr_mult: 1
decay_mult: 1
}
param {
lr_mult: 2
decay_mult: 0
}
convolution_param {
num_output: 48
pad: 2
kernel_size: 5
weight_filler {
type: "xavier"
std: 0.03
}
bias_filler {
type: "constant"
value: 0.2
}
}
}
layer {
name: "inception_4a/relu_5x5"
type: "ReLU"
bottom: "inception_4a/5x5"
top: "inception_4a/5x5"
}
layer {
name: "inception_4a/pool"
type: "Pooling"
bottom: "pool3/3x3_s2"
top: "inception_4a/pool"
pooling_param {
pool: MAX
kernel_size: 3
stride: 1
pad: 1
}
}
layer {
name: "inception_4a/pool_proj"
type: "Convolution"
bottom: "inception_4a/pool"
top: "inception_4a/pool_proj"
param {
lr_mult: 1
decay_mult: 1
}
param {
lr_mult: 2
decay_mult: 0
}
convolution_param {
num_output: 64
kernel_size: 1
weight_filler {
type: "xavier"
std: 0.1
}
bias_filler {
type: "constant"
value: 0.2
}
}
}
layer {
name: "inception_4a/relu_pool_proj"
type: "ReLU"
bottom: "inception_4a/pool_proj"
top: "inception_4a/pool_proj"
}
layer {
name: "inception_4a/output"
type: "Concat"
bottom: "inception_4a/1x1"
bottom: "inception_4a/3x3"
bottom: "inception_4a/5x5"
bottom: "inception_4a/pool_proj"
top: "inception_4a/output"
}
layer {
name: "loss1/ave_pool"
type: "Pooling"
bottom: "inception_4a/output"
top: "loss1/ave_pool"
pooling_param {
pool: AVE
kernel_size: 5
stride: 3
}
}
layer {
name: "loss1/conv"
type: "Convolution"
bottom: "loss1/ave_pool"
top: "loss1/conv"
param {
lr_mult: 1
decay_mult: 1
}
param {
lr_mult: 2
decay_mult: 0
}
convolution_param {
num_output: 128
kernel_size: 1
weight_filler {
type: "xavier"
std: 0.08
}
bias_filler {
type: "constant"
value: 0.2
}
}
}
layer {
name: "loss1/relu_conv"
type: "ReLU"
bottom: "loss1/conv"
top: "loss1/conv"
}
layer {
name: "loss1/fc"
type: "InnerProduct"
bottom: "loss1/conv"
top: "loss1/fc"
param {
lr_mult: 1
decay_mult: 1
}
param {
lr_mult: 2
decay_mult: 0
}
inner_product_param {
num_output: 1024
weight_filler {
type: "xavier"
std: 0.02
}
bias_filler {
type: "constant"
value: 0.2
}
}
}
layer {
name: "loss1/relu_fc"
type: "ReLU"
bottom: "loss1/fc"
top: "loss1/fc"
}
layer {
name: "loss1/drop_fc"
type: "Dropout"
bottom: "loss1/fc"
top: "loss1/fc"
dropout_param {
dropout_ratio: 0.7
}
}
layer {
name: "loss1/classifier"
type: "InnerProduct"
bottom: "loss1/fc"
top: "loss1/classifier"
param {
lr_mult: 1
decay_mult: 1
}
param {
lr_mult: 2
decay_mult: 0
}
inner_product_param {
num_output: 196
weight_filler {
type: "xavier"
std: 0.0009765625
}
bias_filler {
type: "constant"
value: 0
}
}
}
layer {
name: "loss1/loss"
type: "SoftmaxWithLoss"
bottom: "loss1/classifier"
bottom: "label"
top: "loss1/loss"
loss_weight: 0.3
}
layer {
name: "loss1/top-1"
type: "Accuracy"
bottom: "loss1/classifier"
bottom: "label"
top: "loss1/accuracy"
include {
phase: TEST
}
}
layer {
name: "loss1/top-5"
type: "Accuracy"
bottom: "loss1/classifier"
bottom: "label"
top: "loss1/accuracy-top5"
include {
phase: TEST
}
accuracy_param {
top_k: 5
}
}
layer {
name: "inception_4b/1x1"
type: "Convolution"
bottom: "inception_4a/output"
top: "inception_4b/1x1"
param {
lr_mult: 1
decay_mult: 1
}
param {
lr_mult: 2
decay_mult: 0
}
convolution_param {
num_output: 160
kernel_size: 1
weight_filler {
type: "xavier"
std: 0.03
}
bias_filler {
type: "constant"
value: 0.2
}
}
}
layer {
name: "inception_4b/relu_1x1"
type: "ReLU"
bottom: "inception_4b/1x1"
top: "inception_4b/1x1"
}
layer {
name: "inception_4b/3x3_reduce"
type: "Convolution"
bottom: "inception_4a/output"
top: "inception_4b/3x3_reduce"
param {
lr_mult: 1
decay_mult: 1
}
param {
lr_mult: 2
decay_mult: 0
}
convolution_param {
num_output: 112
kernel_size: 1
weight_filler {
type: "xavier"
std: 0.09
}
bias_filler {
type: "constant"
value: 0.2
}
}
}
layer {
name: "inception_4b/relu_3x3_reduce"
type: "ReLU"
bottom: "inception_4b/3x3_reduce"
top: "inception_4b/3x3_reduce"
}
layer {
name: "inception_4b/3x3"
type: "Convolution"
bottom: "inception_4b/3x3_reduce"
top: "inception_4b/3x3"
param {
lr_mult: 1
decay_mult: 1
}
param {
lr_mult: 2
decay_mult: 0
}
convolution_param {
num_output: 224
pad: 1
kernel_size: 3
weight_filler {
type: "xavier"
std: 0.03
}
bias_filler {
type: "constant"
value: 0.2
}
}
}
layer {
name: "inception_4b/relu_3x3"
type: "ReLU"
bottom: "inception_4b/3x3"
top: "inception_4b/3x3"
}
layer {
name: "inception_4b/5x5_reduce"
type: "Convolution"
bottom: "inception_4a/output"
top: "inception_4b/5x5_reduce"
param {
lr_mult: 1
decay_mult: 1
}
param {
lr_mult: 2
decay_mult: 0
}
convolution_param {
num_output: 24
kernel_size: 1
weight_filler {
type: "xavier"
std: 0.2
}
bias_filler {
type: "constant"
value: 0.2
}
}
}
layer {
name: "inception_4b/relu_5x5_reduce"
type: "ReLU"
bottom: "inception_4b/5x5_reduce"
top: "inception_4b/5x5_reduce"
}
layer {
name: "inception_4b/5x5"
type: "Convolution"
bottom: "inception_4b/5x5_reduce"
top: "inception_4b/5x5"
param {
lr_mult: 1
decay_mult: 1
}
param {
lr_mult: 2
decay_mult: 0
}
convolution_param {
num_output: 64
pad: 2
kernel_size: 5
weight_filler {
type: "xavier"
std: 0.03
}
bias_filler {
type: "constant"
value: 0.2
}
}
}
layer {
name: "inception_4b/relu_5x5"
type: "ReLU"
bottom: "inception_4b/5x5"
top: "inception_4b/5x5"
}
layer {
name: "inception_4b/pool"
type: "Pooling"
bottom: "inception_4a/output"
top: "inception_4b/pool"
pooling_param {
pool: MAX
kernel_size: 3
stride: 1
pad: 1
}
}
layer {
name: "inception_4b/pool_proj"
type: "Convolution"
bottom: "inception_4b/pool"
top: "inception_4b/pool_proj"
param {
lr_mult: 1
decay_mult: 1
}
param {
lr_mult: 2
decay_mult: 0
}
convolution_param {
num_output: 64
kernel_size: 1
weight_filler {
type: "xavier"
std: 0.1
}
bias_filler {
type: "constant"
value: 0.2
}
}
}
layer {
name: "inception_4b/relu_pool_proj"
type: "ReLU"
bottom: "inception_4b/pool_proj"
top: "inception_4b/pool_proj"
}
layer {
name: "inception_4b/output"
type: "Concat"
bottom: "inception_4b/1x1"
bottom: "inception_4b/3x3"
bottom: "inception_4b/5x5"
bottom: "inception_4b/pool_proj"
top: "inception_4b/output"
}
layer {
name: "inception_4c/1x1"
type: "Convolution"
bottom: "inception_4b/output"
top: "inception_4c/1x1"
param {
lr_mult: 1
decay_mult: 1
}
param {
lr_mult: 2
decay_mult: 0
}
convolution_param {
num_output: 128
kernel_size: 1
weight_filler {
type: "xavier"
std: 0.03
}
bias_filler {
type: "constant"
value: 0.2
}
}
}
layer {
name: "inception_4c/relu_1x1"
type: "ReLU"
bottom: "inception_4c/1x1"
top: "inception_4c/1x1"
}
layer {
name: "inception_4c/3x3_reduce"
type: "Convolution"
bottom: "inception_4b/output"
top: "inception_4c/3x3_reduce"
param {
lr_mult: 1
decay_mult: 1
}
param {
lr_mult: 2
decay_mult: 0
}
convolution_param {
num_output: 128
kernel_size: 1
weight_filler {
type: "xavier"
std: 0.09
}
bias_filler {
type: "constant"
value: 0.2
}
}
}
layer {
name: "inception_4c/relu_3x3_reduce"
type: "ReLU"
bottom: "inception_4c/3x3_reduce"
top: "inception_4c/3x3_reduce"
}
layer {
name: "inception_4c/3x3"
type: "Convolution"
bottom: "inception_4c/3x3_reduce"
top: "inception_4c/3x3"
param {
lr_mult: 1
decay_mult: 1
}
param {
lr_mult: 2
decay_mult: 0
}
convolution_param {
num_output: 256
pad: 1
kernel_size: 3
weight_filler {
type: "xavier"
std: 0.03
}
bias_filler {
type: "constant"
value: 0.2
}
}
}
layer {
name: "inception_4c/relu_3x3"
type: "ReLU"
bottom: "inception_4c/3x3"
top: "inception_4c/3x3"
}
layer {
name: "inception_4c/5x5_reduce"
type: "Convolution"
bottom: "inception_4b/output"
top: "inception_4c/5x5_reduce"
param {
lr_mult: 1
decay_mult: 1
}
param {
lr_mult: 2
decay_mult: 0
}
convolution_param {
num_output: 24
kernel_size: 1
weight_filler {
type: "xavier"
std: 0.2
}
bias_filler {
type: "constant"
value: 0.2
}
}
}
layer {
name: "inception_4c/relu_5x5_reduce"
type: "ReLU"
bottom: "inception_4c/5x5_reduce"
top: "inception_4c/5x5_reduce"
}
layer {
name: "inception_4c/5x5"
type: "Convolution"
bottom: "inception_4c/5x5_reduce"
top: "inception_4c/5x5"
param {
lr_mult: 1
decay_mult: 1
}
param {
lr_mult: 2
decay_mult: 0
}
convolution_param {
num_output: 64
pad: 2
kernel_size: 5
weight_filler {
type: "xavier"
std: 0.03
}
bias_filler {
type: "constant"
value: 0.2
}
}
}
layer {
name: "inception_4c/relu_5x5"
type: "ReLU"
bottom: "inception_4c/5x5"
top: "inception_4c/5x5"
}
layer {
name: "inception_4c/pool"
type: "Pooling"
bottom: "inception_4b/output"
top: "inception_4c/pool"
pooling_param {
pool: MAX
kernel_size: 3
stride: 1
pad: 1
}
}
layer {
name: "inception_4c/pool_proj"
type: "Convolution"
bottom: "inception_4c/pool"
top: "inception_4c/pool_proj"
param {
lr_mult: 1
decay_mult: 1
}
param {
lr_mult: 2
decay_mult: 0
}
convolution_param {
num_output: 64
kernel_size: 1
weight_filler {
type: "xavier"
std: 0.1
}
bias_filler {
type: "constant"
value: 0.2
}
}
}
layer {
name: "inception_4c/relu_pool_proj"
type: "ReLU"
bottom: "inception_4c/pool_proj"
top: "inception_4c/pool_proj"
}
layer {
name: "inception_4c/output"
type: "Concat"
bottom: "inception_4c/1x1"
bottom: "inception_4c/3x3"
bottom: "inception_4c/5x5"
bottom: "inception_4c/pool_proj"
top: "inception_4c/output"
}
layer {
name: "inception_4d/1x1"
type: "Convolution"
bottom: "inception_4c/output"
top: "inception_4d/1x1"
param {
lr_mult: 1
decay_mult: 1
}
param {
lr_mult: 2
decay_mult: 0
}
convolution_param {
num_output: 112
kernel_size: 1
weight_filler {
type: "xavier"
std: 0.03
}
bias_filler {
type: "constant"
value: 0.2
}
}
}
layer {
name: "inception_4d/relu_1x1"
…
I0506 13:00:09.369381  5822 net.cpp:122] Setting up inception_4c/relu_5x5
I0506 13:00:09.369391  5822 net.cpp:129] Top shape: 16 64 14 14 (200704)
I0506 13:00:09.369395  5822 net.cpp:137] Memory required for data: 700688012
I0506 13:00:09.369400  5822 layer_factory.hpp:77] Creating layer inception_4c/pool
I0506 13:00:09.369407  5822 net.cpp:84] Creating Layer inception_4c/pool
I0506 13:00:09.369413  5822 net.cpp:406] inception_4c/pool <- inception_4b/output_inception_4b/output_0_split_3
I0506 13:00:09.369421  5822 net.cpp:380] inception_4c/pool -> inception_4c/pool
I0506 13:00:09.369465  5822 net.cpp:122] Setting up inception_4c/pool
I0506 13:00:09.369470  5822 net.cpp:129] Top shape: 16 512 14 14 (1605632)
I0506 13:00:09.369474  5822 net.cpp:137] Memory required for data: 707110540
I0506 13:00:09.369478  5822 layer_factory.hpp:77] Creating layer inception_4c/pool_proj
I0506 13:00:09.369489  5822 net.cpp:84] Creating Layer inception_4c/pool_proj
I0506 13:00:09.369493  5822 net.cpp:406] inception_4c/pool_proj <- inception_4c/pool
I0506 13:00:09.369501  5822 net.cpp:380] inception_4c/pool_proj -> inception_4c/pool_proj
I0506 13:00:09.371312  5822 net.cpp:122] Setting up inception_4c/pool_proj
I0506 13:00:09.371323  5822 net.cpp:129] Top shape: 16 64 14 14 (200704)
I0506 13:00:09.371327  5822 net.cpp:137] Memory required for data: 707913356
I0506 13:00:09.371335  5822 layer_factory.hpp:77] Creating layer inception_4c/relu_pool_proj
I0506 13:00:09.371342  5822 net.cpp:84] Creating Layer inception_4c/relu_pool_proj
I0506 13:00:09.371347  5822 net.cpp:406] inception_4c/relu_pool_proj <- inception_4c/pool_proj
I0506 13:00:09.371353  5822 net.cpp:367] inception_4c/relu_pool_proj -> inception_4c/pool_proj (in-place)
I0506 13:00:09.379842  5822 net.cpp:122] Setting up inception_4c/relu_pool_proj
I0506 13:00:09.379853  5822 net.cpp:129] Top shape: 16 64 14 14 (200704)
I0506 13:00:09.379858  5822 net.cpp:137] Memory required for data: 708716172
I0506 13:00:09.379863  5822 layer_factory.hpp:77] Creating layer inception_4c/output
I0506 13:00:09.379870  5822 net.cpp:84] Creating Layer inception_4c/output
I0506 13:00:09.379875  5822 net.cpp:406] inception_4c/output <- inception_4c/1x1
I0506 13:00:09.379900  5822 net.cpp:406] inception_4c/output <- inception_4c/3x3
I0506 13:00:09.379906  5822 net.cpp:406] inception_4c/output <- inception_4c/5x5
I0506 13:00:09.379911  5822 net.cpp:406] inception_4c/output <- inception_4c/pool_proj
I0506 13:00:09.379920  5822 net.cpp:380] inception_4c/output -> inception_4c/output
I0506 13:00:09.379952  5822 net.cpp:122] Setting up inception_4c/output
I0506 13:00:09.379958  5822 net.cpp:129] Top shape: 16 512 14 14 (1605632)
I0506 13:00:09.379961  5822 net.cpp:137] Memory required for data: 715138700
I0506 13:00:09.379966  5822 layer_factory.hpp:77] Creating layer inception_4c/output_inception_4c/output_0_split
I0506 13:00:09.379972  5822 net.cpp:84] Creating Layer inception_4c/output_inception_4c/output_0_split
I0506 13:00:09.379976  5822 net.cpp:406] inception_4c/output_inception_4c/output_0_split <- inception_4c/output
I0506 13:00:09.379984  5822 net.cpp:380] inception_4c/output_inception_4c/output_0_split -> inception_4c/output_inception_4c/output_0_split_0
I0506 13:00:09.379995  5822 net.cpp:380] inception_4c/output_inception_4c/output_0_split -> inception_4c/output_inception_4c/output_0_split_1
I0506 13:00:09.380007  5822 net.cpp:380] inception_4c/output_inception_4c/output_0_split -> inception_4c/output_inception_4c/output_0_split_2
I0506 13:00:09.380013  5822 net.cpp:380] inception_4c/output_inception_4c/output_0_split -> inception_4c/output_inception_4c/output_0_split_3
I0506 13:00:09.380071  5822 net.cpp:122] Setting up inception_4c/output_inception_4c/output_0_split
I0506 13:00:09.380077  5822 net.cpp:129] Top shape: 16 512 14 14 (1605632)
I0506 13:00:09.380082  5822 net.cpp:129] Top shape: 16 512 14 14 (1605632)
I0506 13:00:09.380086  5822 net.cpp:129] Top shape: 16 512 14 14 (1605632)
I0506 13:00:09.380090  5822 net.cpp:129] Top shape: 16 512 14 14 (1605632)
I0506 13:00:09.380093  5822 net.cpp:137] Memory required for data: 740828812
I0506 13:00:09.380097  5822 layer_factory.hpp:77] Creating layer inception_4d/1x1
I0506 13:00:09.380107  5822 net.cpp:84] Creating Layer inception_4d/1x1
I0506 13:00:09.380111  5822 net.cpp:406] inception_4d/1x1 <- inception_4c/output_inception_4c/output_0_split_0
I0506 13:00:09.380118  5822 net.cpp:380] inception_4d/1x1 -> inception_4d/1x1
I0506 13:00:09.382881  5822 net.cpp:122] Setting up inception_4d/1x1
I0506 13:00:09.382894  5822 net.cpp:129] Top shape: 16 112 14 14 (351232)
I0506 13:00:09.382897  5822 net.cpp:137] Memory required for data: 742233740
I0506 13:00:09.382905  5822 layer_factory.hpp:77] Creating layer inception_4d/relu_1x1
I0506 13:00:09.382913  5822 net.cpp:84] Creating Layer inception_4d/relu_1x1
I0506 13:00:09.382917  5822 net.cpp:406] inception_4d/relu_1x1 <- inception_4d/1x1
I0506 13:00:09.382925  5822 net.cpp:367] inception_4d/relu_1x1 -> inception_4d/1x1 (in-place)
I0506 13:00:09.383461  5822 net.cpp:122] Setting up inception_4d/relu_1x1
I0506 13:00:09.383471  5822 net.cpp:129] Top shape: 16 112 14 14 (351232)
I0506 13:00:09.383476  5822 net.cpp:137] Memory required for data: 743638668
I0506 13:00:09.383479  5822 layer_factory.hpp:77] Creating layer inception_4d/3x3_reduce
I0506 13:00:09.383491  5822 net.cpp:84] Creating Layer inception_4d/3x3_reduce
I0506 13:00:09.383496  5822 net.cpp:406] inception_4d/3x3_reduce <- inception_4c/output_inception_4c/output_0_split_1
I0506 13:00:09.383503  5822 net.cpp:380] inception_4d/3x3_reduce -> inception_4d/3x3_reduce
I0506 13:00:09.388459  5822 net.cpp:122] Setting up inception_4d/3x3_reduce
I0506 13:00:09.388475  5822 net.cpp:129] Top shape: 16 144 14 14 (451584)
I0506 13:00:09.388479  5822 net.cpp:137] Memory required for data: 745445004
I0506 13:00:09.388489  5822 layer_factory.hpp:77] Creating layer inception_4d/relu_3x3_reduce
I0506 13:00:09.388496  5822 net.cpp:84] Creating Layer inception_4d/relu_3x3_reduce
I0506 13:00:09.388502  5822 net.cpp:406] inception_4d/relu_3x3_reduce <- inception_4d/3x3_reduce
I0506 13:00:09.388509  5822 net.cpp:367] inception_4d/relu_3x3_reduce -> inception_4d/3x3_reduce (in-place)
I0506 13:00:09.388870  5822 net.cpp:122] Setting up inception_4d/relu_3x3_reduce
I0506 13:00:09.388898  5822 net.cpp:129] Top shape: 16 144 14 14 (451584)
I0506 13:00:09.388902  5822 net.cpp:137] Memory required for data: 747251340
I0506 13:00:09.388906  5822 layer_factory.hpp:77] Creating layer inception_4d/3x3
I0506 13:00:09.388917  5822 net.cpp:84] Creating Layer inception_4d/3x3
I0506 13:00:09.388922  5822 net.cpp:406] inception_4d/3x3 <- inception_4d/3x3_reduce
I0506 13:00:09.388932  5822 net.cpp:380] inception_4d/3x3 -> inception_4d/3x3
I0506 13:00:09.393374  5822 net.cpp:122] Setting up inception_4d/3x3
I0506 13:00:09.393388  5822 net.cpp:129] Top shape: 16 288 14 14 (903168)
I0506 13:00:09.393393  5822 net.cpp:137] Memory required for data: 750864012
I0506 13:00:09.393400  5822 layer_factory.hpp:77] Creating layer inception_4d/relu_3x3
I0506 13:00:09.393407  5822 net.cpp:84] Creating Layer inception_4d/relu_3x3
I0506 13:00:09.393412  5822 net.cpp:406] inception_4d/relu_3x3 <- inception_4d/3x3
I0506 13:00:09.393419  5822 net.cpp:367] inception_4d/relu_3x3 -> inception_4d/3x3 (in-place)
I0506 13:00:09.393779  5822 net.cpp:122] Setting up inception_4d/relu_3x3
I0506 13:00:09.393787  5822 net.cpp:129] Top shape: 16 288 14 14 (903168)
I0506 13:00:09.393791  5822 net.cpp:137] Memory required for data: 754476684
I0506 13:00:09.393795  5822 layer_factory.hpp:77] Creating layer inception_4d/5x5_reduce
I0506 13:00:09.393806  5822 net.cpp:84] Creating Layer inception_4d/5x5_reduce
I0506 13:00:09.393811  5822 net.cpp:406] inception_4d/5x5_reduce <- inception_4c/output_inception_4c/output_0_split_2
I0506 13:00:09.393819  5822 net.cpp:380] inception_4d/5x5_reduce -> inception_4d/5x5_reduce
I0506 13:00:09.397526  5822 net.cpp:122] Setting up inception_4d/5x5_reduce
I0506 13:00:09.397542  5822 net.cpp:129] Top shape: 16 32 14 14 (100352)
I0506 13:00:09.397547  5822 net.cpp:137] Memory required for data: 754878092
I0506 13:00:09.397554  5822 layer_factory.hpp:77] Creating layer inception_4d/relu_5x5_reduce
I0506 13:00:09.397562  5822 net.cpp:84] Creating Layer inception_4d/relu_5x5_reduce
I0506 13:00:09.397567  5822 net.cpp:406] inception_4d/relu_5x5_reduce <- inception_4d/5x5_reduce
I0506 13:00:09.397573  5822 net.cpp:367] inception_4d/relu_5x5_reduce -> inception_4d/5x5_reduce (in-place)
I0506 13:00:09.398115  5822 net.cpp:122] Setting up inception_4d/relu_5x5_reduce
I0506 13:00:09.398125  5822 net.cpp:129] Top shape: 16 32 14 14 (100352)
I0506 13:00:09.398129  5822 net.cpp:137] Memory required for data: 755279500
I0506 13:00:09.398133  5822 layer_factory.hpp:77] Creating layer inception_4d/5x5
I0506 13:00:09.398145  5822 net.cpp:84] Creating Layer inception_4d/5x5
I0506 13:00:09.398149  5822 net.cpp:406] inception_4d/5x5 <- inception_4d/5x5_reduce
I0506 13:00:09.398157  5822 net.cpp:380] inception_4d/5x5 -> inception_4d/5x5
I0506 13:00:09.400061  5822 net.cpp:122] Setting up inception_4d/5x5
I0506 13:00:09.400072  5822 net.cpp:129] Top shape: 16 64 14 14 (200704)
I0506 13:00:09.400076  5822 net.cpp:137] Memory required for data: 756082316
I0506 13:00:09.400084  5822 layer_factory.hpp:77] Creating layer inception_4d/relu_5x5
I0506 13:00:09.400089  5822 net.cpp:84] Creating Layer inception_4d/relu_5x5
I0506 13:00:09.400094  5822 net.cpp:406] inception_4d/relu_5x5 <- inception_4d/5x5
I0506 13:00:09.400101  5822 net.cpp:367] inception_4d/relu_5x5 -> inception_4d/5x5 (in-place)
I0506 13:00:09.400635  5822 net.cpp:122] Setting up inception_4d/relu_5x5
I0506 13:00:09.400645  5822 net.cpp:129] Top shape: 16 64 14 14 (200704)
I0506 13:00:09.400650  5822 net.cpp:137] Memory required for data: 756885132
I0506 13:00:09.400655  5822 layer_factory.hpp:77] Creating layer inception_4d/pool
I0506 13:00:09.400662  5822 net.cpp:84] Creating Layer inception_4d/pool
I0506 13:00:09.400667  5822 net.cpp:406] inception_4d/pool <- inception_4c/output_inception_4c/output_0_split_3
I0506 13:00:09.400674  5822 net.cpp:380] inception_4d/pool -> inception_4d/pool
I0506 13:00:09.400718  5822 net.cpp:122] Setting up inception_4d/pool
I0506 13:00:09.400725  5822 net.cpp:129] Top shape: 16 512 14 14 (1605632)
I0506 13:00:09.400748  5822 net.cpp:137] Memory required for data: 763307660
I0506 13:00:09.400753  5822 layer_factory.hpp:77] Creating layer inception_4d/pool_proj
I0506 13:00:09.400761  5822 net.cpp:84] Creating Layer inception_4d/pool_proj
I0506 13:00:09.400766  5822 net.cpp:406] inception_4d/pool_proj <- inception_4d/pool
I0506 13:00:09.400772  5822 net.cpp:380] inception_4d/pool_proj -> inception_4d/pool_proj
I0506 13:00:09.402557  5822 net.cpp:122] Setting up inception_4d/pool_proj
I0506 13:00:09.402567  5822 net.cpp:129] Top shape: 16 64 14 14 (200704)
I0506 13:00:09.402572  5822 net.cpp:137] Memory required for data: 764110476
I0506 13:00:09.402578  5822 layer_factory.hpp:77] Creating layer inception_4d/relu_pool_proj
I0506 13:00:09.402586  5822 net.cpp:84] Creating Layer inception_4d/relu_pool_proj
I0506 13:00:09.402590  5822 net.cpp:406] inception_4d/relu_pool_proj <- inception_4d/pool_proj
I0506 13:00:09.402598  5822 net.cpp:367] inception_4d/relu_pool_proj -> inception_4d/pool_proj (in-place)
I0506 13:00:09.403127  5822 net.cpp:122] Setting up inception_4d/relu_pool_proj
I0506 13:00:09.403136  5822 net.cpp:129] Top shape: 16 64 14 14 (200704)
I0506 13:00:09.403139  5822 net.cpp:137] Memory required for data: 764913292
I0506 13:00:09.403144  5822 layer_factory.hpp:77] Creating layer inception_4d/output
I0506 13:00:09.403152  5822 net.cpp:84] Creating Layer inception_4d/output
I0506 13:00:09.403157  5822 net.cpp:406] inception_4d/output <- inception_4d/1x1
I0506 13:00:09.403163  5822 net.cpp:406] inception_4d/output <- inception_4d/3x3
I0506 13:00:09.403168  5822 net.cpp:406] inception_4d/output <- inception_4d/5x5
I0506 13:00:09.403172  5822 net.cpp:406] inception_4d/output <- inception_4d/pool_proj
I0506 13:00:09.403178  5822 net.cpp:380] inception_4d/output -> inception_4d/output
I0506 13:00:09.403206  5822 net.cpp:122] Setting up inception_4d/output
I0506 13:00:09.403211  5822 net.cpp:129] Top shape: 16 528 14 14 (1655808)
I0506 13:00:09.403214  5822 net.cpp:137] Memory required for data: 771536524
I0506 13:00:09.403218  5822 layer_factory.hpp:77] Creating layer inception_4d/output_inception_4d/output_0_split
I0506 13:00:09.403228  5822 net.cpp:84] Creating Layer inception_4d/output_inception_4d/output_0_split
I0506 13:00:09.403231  5822 net.cpp:406] inception_4d/output_inception_4d/output_0_split <- inception_4d/output
I0506 13:00:09.403239  5822 net.cpp:380] inception_4d/output_inception_4d/output_0_split -> inception_4d/output_inception_4d/output_0_split_0
I0506 13:00:09.403246  5822 net.cpp:380] inception_4d/output_inception_4d/output_0_split -> inception_4d/output_inception_4d/output_0_split_1
I0506 13:00:09.403252  5822 net.cpp:380] inception_4d/output_inception_4d/output_0_split -> inception_4d/output_inception_4d/output_0_split_2
I0506 13:00:09.403259  5822 net.cpp:380] inception_4d/output_inception_4d/output_0_split -> inception_4d/output_inception_4d/output_0_split_3
I0506 13:00:09.403265  5822 net.cpp:380] inception_4d/output_inception_4d/output_0_split -> inception_4d/output_inception_4d/output_0_split_4
I0506 13:00:09.403324  5822 net.cpp:122] Setting up inception_4d/output_inception_4d/output_0_split
I0506 13:00:09.403329  5822 net.cpp:129] Top shape: 16 528 14 14 (1655808)
I0506 13:00:09.403333  5822 net.cpp:129] Top shape: 16 528 14 14 (1655808)
I0506 13:00:09.403337  5822 net.cpp:129] Top shape: 16 528 14 14 (1655808)
I0506 13:00:09.403342  5822 net.cpp:129] Top shape: 16 528 14 14 (1655808)
I0506 13:00:09.403344  5822 net.cpp:129] Top shape: 16 528 14 14 (1655808)
I0506 13:00:09.403347  5822 net.cpp:137] Memory required for data: 804652684
I0506 13:00:09.403352  5822 layer_factory.hpp:77] Creating layer loss2/ave_pool
I0506 13:00:09.403359  5822 net.cpp:84] Creating Layer loss2/ave_pool
I0506 13:00:09.403363  5822 net.cpp:406] loss2/ave_pool <- inception_4d/output_inception_4d/output_0_split_0
I0506 13:00:09.403371  5822 net.cpp:380] loss2/ave_pool -> loss2/ave_pool
I0506 13:00:09.405709  5822 net.cpp:122] Setting up loss2/ave_pool
I0506 13:00:09.405722  5822 net.cpp:129] Top shape: 16 528 4 4 (135168)
I0506 13:00:09.405743  5822 net.cpp:137] Memory required for data: 805193356
I0506 13:00:09.405748  5822 layer_factory.hpp:77] Creating layer loss2/conv
I0506 13:00:09.405762  5822 net.cpp:84] Creating Layer loss2/conv
I0506 13:00:09.405767  5822 net.cpp:406] loss2/conv <- loss2/ave_pool
I0506 13:00:09.405774  5822 net.cpp:380] loss2/conv -> loss2/conv
I0506 13:00:09.409039  5822 net.cpp:122] Setting up loss2/conv
I0506 13:00:09.409049  5822 net.cpp:129] Top shape: 16 128 4 4 (32768)
I0506 13:00:09.409054  5822 net.cpp:137] Memory required for data: 805324428
I0506 13:00:09.409061  5822 layer_factory.hpp:77] Creating layer loss2/relu_conv
I0506 13:00:09.409070  5822 net.cpp:84] Creating Layer loss2/relu_conv
I0506 13:00:09.409075  5822 net.cpp:406] loss2/relu_conv <- loss2/conv
I0506 13:00:09.409080  5822 net.cpp:367] loss2/relu_conv -> loss2/conv (in-place)
I0506 13:00:09.409620  5822 net.cpp:122] Setting up loss2/relu_conv
I0506 13:00:09.409628  5822 net.cpp:129] Top shape: 16 128 4 4 (32768)
I0506 13:00:09.409632  5822 net.cpp:137] Memory required for data: 805455500
I0506 13:00:09.409637  5822 layer_factory.hpp:77] Creating layer loss2/fc
I0506 13:00:09.409646  5822 net.cpp:84] Creating Layer loss2/fc
I0506 13:00:09.409651  5822 net.cpp:406] loss2/fc <- loss2/conv
I0506 13:00:09.409659  5822 net.cpp:380] loss2/fc -> loss2/fc
I0506 13:00:09.421661  5822 net.cpp:122] Setting up loss2/fc
I0506 13:00:09.421690  5822 net.cpp:129] Top shape: 16 1024 (16384)
I0506 13:00:09.421697  5822 net.cpp:137] Memory required for data: 805521036
I0506 13:00:09.421710  5822 layer_factory.hpp:77] Creating layer loss2/relu_fc
I0506 13:00:09.421722  5822 net.cpp:84] Creating Layer loss2/relu_fc
I0506 13:00:09.421730  5822 net.cpp:406] loss2/relu_fc <- loss2/fc
I0506 13:00:09.421737  5822 net.cpp:367] loss2/relu_fc -> loss2/fc (in-place)
I0506 13:00:09.422534  5822 net.cpp:122] Setting up loss2/relu_fc
I0506 13:00:09.422545  5822 net.cpp:129] Top shape: 16 1024 (16384)
I0506 13:00:09.422549  5822 net.cpp:137] Memory required for data: 805586572
I0506 13:00:09.422552  5822 layer_factory.hpp:77] Creating layer loss2/drop_fc
I0506 13:00:09.422562  5822 net.cpp:84] Creating Layer loss2/drop_fc
I0506 13:00:09.422567  5822 net.cpp:406] loss2/drop_fc <- loss2/fc
I0506 13:00:09.422574  5822 net.cpp:367] loss2/drop_fc -> loss2/fc (in-place)
I0506 13:00:09.422602  5822 net.cpp:122] Setting up loss2/drop_fc
I0506 13:00:09.422607  5822 net.cpp:129] Top shape: 16 1024 (16384)
I0506 13:00:09.422610  5822 net.cpp:137] Memory required for data: 805652108
I0506 13:00:09.422614  5822 layer_factory.hpp:77] Creating layer loss2/classifier
I0506 13:00:09.422624  5822 net.cpp:84] Creating Layer loss2/classifier
I0506 13:00:09.422629  5822 net.cpp:406] loss2/classifier <- loss2/fc
I0506 13:00:09.422636  5822 net.cpp:380] loss2/classifier -> loss2/classifier
I0506 13:00:09.424325  5822 net.cpp:122] Setting up loss2/classifier
I0506 13:00:09.424335  5822 net.cpp:129] Top shape: 16 196 (3136)
I0506 13:00:09.424338  5822 net.cpp:137] Memory required for data: 805664652
I0506 13:00:09.424345  5822 layer_factory.hpp:77] Creating layer loss2/classifier_loss2/classifier_0_split
I0506 13:00:09.424352  5822 net.cpp:84] Creating Layer loss2/classifier_loss2/classifier_0_split
I0506 13:00:09.424356  5822 net.cpp:406] loss2/classifier_loss2/classifier_0_split <- loss2/classifier
I0506 13:00:09.424365  5822 net.cpp:380] loss2/classifier_loss2/classifier_0_split -> loss2/classifier_loss2/classifier_0_split_0
I0506 13:00:09.424372  5822 net.cpp:380] loss2/classifier_loss2/classifier_0_split -> loss2/classifier_loss2/classifier_0_split_1
I0506 13:00:09.424379  5822 net.cpp:380] loss2/classifier_loss2/classifier_0_split -> loss2/classifier_loss2/classifier_0_split_2
I0506 13:00:09.424422  5822 net.cpp:122] Setting up loss2/classifier_loss2/classifier_0_split
I0506 13:00:09.424427  5822 net.cpp:129] Top shape: 16 196 (3136)
I0506 13:00:09.424430  5822 net.cpp:129] Top shape: 16 196 (3136)
I0506 13:00:09.424434  5822 net.cpp:129] Top shape: 16 196 (3136)
I0506 13:00:09.424454  5822 net.cpp:137] Memory required for data: 805702284
I0506 13:00:09.424459  5822 layer_factory.hpp:77] Creating layer loss2/loss
I0506 13:00:09.424466  5822 net.cpp:84] Creating Layer loss2/loss
I0506 13:00:09.424470  5822 net.cpp:406] loss2/loss <- loss2/classifier_loss2/classifier_0_split_0
I0506 13:00:09.424476  5822 net.cpp:406] loss2/loss <- label_val-data_1_split_3
…
I0506 13:00:09.425032  5822 net.cpp:122] Setting up loss2/top-5
I0506 13:00:09.425036  5822 net.cpp:129] Top shape: (1)
I0506 13:00:09.425040  5822 net.cpp:137] Memory required for data: 805702296
I0506 13:00:09.425042  5822 layer_factory.hpp:77] Creating layer inception_4e/1x1
I0506 13:00:09.425053  5822 net.cpp:84] Creating Layer inception_4e/1x1
I0506 13:00:09.425057  5822 net.cpp:406] inception_4e/1x1 <- inception_4d/output_inception_4d/output_0_split_1
I0506 13:00:09.425065  5822 net.cpp:380] inception_4e/1x1 -> inception_4e/1x1
I0506 13:00:09.428555  5822 net.cpp:122] Setting up inception_4e/1x1
I0506 13:00:09.428567  5822 net.cpp:129] Top shape: 16 256 14 14 (802816)
I0506 13:00:09.428571  5822 net.cpp:137] Memory required for data: 808913560
I0506 13:00:09.428578  5822 layer_factory.hpp:77] Creating layer inception_4e/relu_1x1
I0506 13:00:09.428588  5822 net.cpp:84] Creating Layer inception_4e/relu_1x1
I0506 13:00:09.428592  5822 net.cpp:406] inception_4e/relu_1x1 <- inception_4e/1x1
I0506 13:00:09.428598  5822 net.cpp:367] inception_4e/relu_1x1 -> inception_4e/1x1 (in-place)
I0506 13:00:09.430945  5822 net.cpp:122] Setting up inception_4e/relu_1x1
I0506 13:00:09.430959  5822 net.cpp:129] Top shape: 16 256 14 14 (802816)
I0506 13:00:09.430963  5822 net.cpp:137] Memory required for data: 812124824
I0506 13:00:09.430968  5822 layer_factory.hpp:77] Creating layer inception_4e/3x3_reduce
I0506 13:00:09.431012  5822 net.cpp:84] Creating Layer inception_4e/3x3_reduce
I0506 13:00:09.431018  5822 net.cpp:406] inception_4e/3x3_reduce <- inception_4d/output_inception_4d/output_0_split_2
I0506 13:00:09.431025  5822 net.cpp:380] inception_4e/3x3_reduce -> inception_4e/3x3_reduce
I0506 13:00:09.433084  5822 net.cpp:122] Setting up inception_4e/3x3_reduce
I0506 13:00:09.433095  5822 net.cpp:129] Top shape: 16 160 14 14 (501760)
I0506 13:00:09.433099  5822 net.cpp:137] Memory required for data: 814131864
I0506 13:00:09.433107  5822 layer_factory.hpp:77] Creating layer inception_4e/relu_3x3_reduce
I0506 13:00:09.433115  5822 net.cpp:84] Creating Layer inception_4e/relu_3x3_reduce
I0506 13:00:09.433120  5822 net.cpp:406] inception_4e/relu_3x3_reduce <- inception_4e/3x3_reduce
I0506 13:00:09.433126  5822 net.cpp:367] inception_4e/relu_3x3_reduce -> inception_4e/3x3_reduce (in-place)
I0506 13:00:09.433677  5822 net.cpp:122] Setting up inception_4e/relu_3x3_reduce
I0506 13:00:09.433686  5822 net.cpp:129] Top shape: 16 160 14 14 (501760)
I0506 13:00:09.433691  5822 net.cpp:137] Memory required for data: 816138904
I0506 13:00:09.433696  5822 layer_factory.hpp:77] Creating layer inception_4e/3x3
I0506 13:00:09.433706  5822 net.cpp:84] Creating Layer inception_4e/3x3
I0506 13:00:09.433710  5822 net.cpp:406] inception_4e/3x3 <- inception_4e/3x3_reduce
I0506 13:00:09.433720  5822 net.cpp:380] inception_4e/3x3 -> inception_4e/3x3
I0506 13:00:09.438333  5822 net.cpp:122] Setting up inception_4e/3x3
I0506 13:00:09.438346  5822 net.cpp:129] Top shape: 16 320 14 14 (1003520)
I0506 13:00:09.438351  5822 net.cpp:137] Memory required for data: 820152984
I0506 13:00:09.438359  5822 layer_factory.hpp:77] Creating layer inception_4e/relu_3x3
I0506 13:00:09.438365  5822 net.cpp:84] Creating Layer inception_4e/relu_3x3
I0506 13:00:09.438370  5822 net.cpp:406] inception_4e/relu_3x3 <- inception_4e/3x3
I0506 13:00:09.438375  5822 net.cpp:367] inception_4e/relu_3x3 -> inception_4e/3x3 (in-place)
I0506 13:00:09.438925  5822 net.cpp:122] Setting up inception_4e/relu_3x3
I0506 13:00:09.438935  5822 net.cpp:129] Top shape: 16 320 14 14 (1003520)
I0506 13:00:09.438938  5822 net.cpp:137] Memory required for data: 824167064
I0506 13:00:09.438942  5822 layer_factory.hpp:77] Creating layer inception_4e/5x5_reduce
I0506 13:00:09.438953  5822 net.cpp:84] Creating Layer inception_4e/5x5_reduce
I0506 13:00:09.438958  5822 net.cpp:406] inception_4e/5x5_reduce <- inception_4d/output_inception_4d/output_0_split_3
I0506 13:00:09.438966  5822 net.cpp:380] inception_4e/5x5_reduce -> inception_4e/5x5_reduce
I0506 13:00:09.442453  5822 net.cpp:122] Setting up inception_4e/5x5_reduce
I0506 13:00:09.442466  5822 net.cpp:129] Top shape: 16 32 14 14 (100352)
I0506 13:00:09.442471  5822 net.cpp:137] Memory required for data: 824568472
I0506 13:00:09.442478  5822 layer_factory.hpp:77] Creating layer inception_4e/relu_5x5_reduce
I0506 13:00:09.442512  5822 net.cpp:84] Creating Layer inception_4e/relu_5x5_reduce
I0506 13:00:09.442517  5822 net.cpp:406] inception_4e/relu_5x5_reduce <- inception_4e/5x5_reduce
I0506 13:00:09.442523  5822 net.cpp:367] inception_4e/relu_5x5_reduce -> inception_4e/5x5_reduce (in-place)
I0506 13:00:09.443066  5822 net.cpp:122] Setting up inception_4e/relu_5x5_reduce
I0506 13:00:09.443075  5822 net.cpp:129] Top shape: 16 32 14 14 (100352)
I0506 13:00:09.443079  5822 net.cpp:137] Memory required for data: 824969880
I0506 13:00:09.443084  5822 layer_factory.hpp:77] Creating layer inception_4e/5x5
I0506 13:00:09.443096  5822 net.cpp:84] Creating Layer inception_4e/5x5
I0506 13:00:09.443101  5822 net.cpp:406] inception_4e/5x5 <- inception_4e/5x5_reduce
I0506 13:00:09.443109  5822 net.cpp:380] inception_4e/5x5 -> inception_4e/5x5
I0506 13:00:09.450906  5822 net.cpp:122] Setting up inception_4e/5x5
I0506 13:00:09.450918  5822 net.cpp:129] Top shape: 16 128 14 14 (401408)
I0506 13:00:09.450922  5822 net.cpp:137] Memory required for data: 826575512
I0506 13:00:09.450928  5822 layer_factory.hpp:77] Creating layer inception_4e/relu_5x5
I0506 13:00:09.450937  5822 net.cpp:84] Creating Layer inception_4e/relu_5x5
I0506 13:00:09.450942  5822 net.cpp:406] inception_4e/relu_5x5 <- inception_4e/5x5
I0506 13:00:09.450947  5822 net.cpp:367] inception_4e/relu_5x5 -> inception_4e/5x5 (in-place)
I0506 13:00:09.451308  5822 net.cpp:122] Setting up inception_4e/relu_5x5
I0506 13:00:09.451316  5822 net.cpp:129] Top shape: 16 128 14 14 (401408)
I0506 13:00:09.451320  5822 net.cpp:137] Memory required for data: 828181144
I0506 13:00:09.451324  5822 layer_factory.hpp:77] Creating layer inception_4e/pool
I0506 13:00:09.451331  5822 net.cpp:84] Creating Layer inception_4e/pool
I0506 13:00:09.451335  5822 net.cpp:406] inception_4e/pool <- inception_4d/output_inception_4d/output_0_split_4
I0506 13:00:09.451341  5822 net.cpp:380] inception_4e/pool -> inception_4e/pool
I0506 13:00:09.451382  5822 net.cpp:122] Setting up inception_4e/pool
I0506 13:00:09.451403  5822 net.cpp:129] Top shape: 16 528 14 14 (1655808)
I0506 13:00:09.451406  5822 net.cpp:137] Memory required for data: 834804376
I0506 13:00:09.451411  5822 layer_factory.hpp:77] Creating layer inception_4e/pool_proj
I0506 13:00:09.451421  5822 net.cpp:84] Creating Layer inception_4e/pool_proj
I0506 13:00:09.451424  5822 net.cpp:406] inception_4e/pool_proj <- inception_4e/pool
I0506 13:00:09.451431  5822 net.cpp:380] inception_4e/pool_proj -> inception_4e/pool_proj
I0506 13:00:09.453563  5822 net.cpp:122] Setting up inception_4e/pool_proj
I0506 13:00:09.453573  5822 net.cpp:129] Top shape: 16 128 14 14 (401408)
I0506 13:00:09.453577  5822 net.cpp:137] Memory required for data: 836410008
I0506 13:00:09.453583  5822 layer_factory.hpp:77] Creating layer inception_4e/relu_pool_proj
I0506 13:00:09.453590  5822 net.cpp:84] Creating Layer inception_4e/relu_pool_proj
I0506 13:00:09.453594  5822 net.cpp:406] inception_4e/relu_pool_proj <- inception_4e/pool_proj
I0506 13:00:09.453600  5822 net.cpp:367] inception_4e/relu_pool_proj -> inception_4e/pool_proj (in-place)
I0506 13:00:09.455919  5822 net.cpp:122] Setting up inception_4e/relu_pool_proj
I0506 13:00:09.455931  5822 net.cpp:129] Top shape: 16 128 14 14 (401408)
I0506 13:00:09.455935  5822 net.cpp:137] Memory required for data: 838015640
I0506 13:00:09.455938  5822 layer_factory.hpp:77] Creating layer inception_4e/output
I0506 13:00:09.455945  5822 net.cpp:84] Creating Layer inception_4e/output
I0506 13:00:09.455950  5822 net.cpp:406] inception_4e/output <- inception_4e/1x1
I0506 13:00:09.455955  5822 net.cpp:406] inception_4e/output <- inception_4e/3x3
I0506 13:00:09.455960  5822 net.cpp:406] inception_4e/output <- inception_4e/5x5
I0506 13:00:09.455963  5822 net.cpp:406] inception_4e/output <- inception_4e/pool_proj
I0506 13:00:09.455969  5822 net.cpp:380] inception_4e/output -> inception_4e/output
I0506 13:00:09.456001  5822 net.cpp:122] Setting up inception_4e/output
I0506 13:00:09.456007  5822 net.cpp:129] Top shape: 16 832 14 14 (2609152)
I0506 13:00:09.456010  5822 net.cpp:137] Memory required for data: 848452248
I0506 13:00:09.456013  5822 layer_factory.hpp:77] Creating layer pool4/3x3_s2
I0506 13:00:09.456019  5822 net.cpp:84] Creating Layer pool4/3x3_s2
I0506 13:00:09.456023  5822 net.cpp:406] pool4/3x3_s2 <- inception_4e/output
I0506 13:00:09.456028  5822 net.cpp:380] pool4/3x3_s2 -> pool4/3x3_s2
I0506 13:00:09.456064  5822 net.cpp:122] Setting up pool4/3x3_s2
I0506 13:00:09.456069  5822 net.cpp:129] Top shape: 16 832 7 7 (652288)
I0506 13:00:09.456073  5822 net.cpp:137] Memory required for data: 851061400
I0506 13:00:09.456075  5822 layer_factory.hpp:77] Creating layer pool4/3x3_s2_pool4/3x3_s2_0_split
I0506 13:00:09.456082  5822 net.cpp:84] Creating Layer pool4/3x3_s2_pool4/3x3_s2_0_split
I0506 13:00:09.456086  5822 net.cpp:406] pool4/3x3_s2_pool4/3x3_s2_0_split <- pool4/3x3_s2
I0506 13:00:09.456091  5822 net.cpp:380] pool4/3x3_s2_pool4/3x3_s2_0_split -> pool4/3x3_s2_pool4/3x3_s2_0_split_0
I0506 13:00:09.456099  5822 net.cpp:380] pool4/3x3_s2_pool4/3x3_s2_0_split -> pool4/3x3_s2_pool4/3x3_s2_0_split_1
I0506 13:00:09.456104  5822 net.cpp:380] pool4/3x3_s2_pool4/3x3_s2_0_split -> pool4/3x3_s2_pool4/3x3_s2_0_split_2
I0506 13:00:09.456135  5822 net.cpp:380] pool4/3x3_s2_pool4/3x3_s2_0_split -> pool4/3x3_s2_pool4/3x3_s2_0_split_3
I0506 13:00:09.456182  5822 net.cpp:122] Setting up pool4/3x3_s2_pool4/3x3_s2_0_split
I0506 13:00:09.456187  5822 net.cpp:129] Top shape: 16 832 7 7 (652288)
I0506 13:00:09.456190  5822 net.cpp:129] Top shape: 16 832 7 7 (652288)
I0506 13:00:09.456194  5822 net.cpp:129] Top shape: 16 832 7 7 (652288)
I0506 13:00:09.456198  5822 net.cpp:129] Top shape: 16 832 7 7 (652288)
I0506 13:00:09.456202  5822 net.cpp:137] Memory required for data: 861498008
I0506 13:00:09.456204  5822 layer_factory.hpp:77] Creating layer inception_5a/1x1
I0506 13:00:09.456213  5822 net.cpp:84] Creating Layer inception_5a/1x1
I0506 13:00:09.456216  5822 net.cpp:406] inception_5a/1x1 <- pool4/3x3_s2_pool4/3x3_s2_0_split_0
I0506 13:00:09.456240  5822 net.cpp:380] inception_5a/1x1 -> inception_5a/1x1
I0506 13:00:09.459558  5822 net.cpp:122] Setting up inception_5a/1x1
I0506 13:00:09.459568  5822 net.cpp:129] Top shape: 16 256 7 7 (200704)
I0506 13:00:09.459573  5822 net.cpp:137] Memory required for data: 862300824
I0506 13:00:09.459579  5822 layer_factory.hpp:77] Creating layer inception_5a/relu_1x1
I0506 13:00:09.459585  5822 net.cpp:84] Creating Layer inception_5a/relu_1x1
I0506 13:00:09.459589  5822 net.cpp:406] inception_5a/relu_1x1 <- inception_5a/1x1
I0506 13:00:09.459596  5822 net.cpp:367] inception_5a/relu_1x1 -> inception_5a/1x1 (in-place)
I0506 13:00:09.460135  5822 net.cpp:122] Setting up inception_5a/relu_1x1
I0506 13:00:09.460145  5822 net.cpp:129] Top shape: 16 256 7 7 (200704)
I0506 13:00:09.460148  5822 net.cpp:137] Memory required for data: 863103640
I0506 13:00:09.460152  5822 layer_factory.hpp:77] Creating layer inception_5a/3x3_reduce
I0506 13:00:09.460162  5822 net.cpp:84] Creating Layer inception_5a/3x3_reduce
I0506 13:00:09.460167  5822 net.cpp:406] inception_5a/3x3_reduce <- pool4/3x3_s2_pool4/3x3_s2_0_split_1
I0506 13:00:09.460175  5822 net.cpp:380] inception_5a/3x3_reduce -> inception_5a/3x3_reduce
I0506 13:00:09.462616  5822 net.cpp:122] Setting up inception_5a/3x3_reduce
I0506 13:00:09.462627  5822 net.cpp:129] Top shape: 16 160 7 7 (125440)
I0506 13:00:09.462630  5822 net.cpp:137] Memory required for data: 863605400
I0506 13:00:09.462636  5822 layer_factory.hpp:77] Creating layer inception_5a/relu_3x3_reduce
I0506 13:00:09.462644  5822 net.cpp:84] Creating Layer inception_5a/relu_3x3_reduce
I0506 13:00:09.462649  5822 net.cpp:406] inception_5a/relu_3x3_reduce <- inception_5a/3x3_reduce
I0506 13:00:09.462654  5822 net.cpp:367] inception_5a/relu_3x3_reduce -> inception_5a/3x3_reduce (in-place)
I0506 13:00:09.463207  5822 net.cpp:122] Setting up inception_5a/relu_3x3_reduce
I0506 13:00:09.463215  5822 net.cpp:129] Top shape: 16 160 7 7 (125440)
I0506 13:00:09.463220  5822 net.cpp:137] Memory required for data: 864107160
I0506 13:00:09.463224  5822 layer_factory.hpp:77] Creating layer inception_5a/3x3
I0506 13:00:09.463233  5822 net.cpp:84] Creating Layer inception_5a/3x3
I0506 13:00:09.463238  5822 net.cpp:406] inception_5a/3x3 <- inception_5a/3x3_reduce
I0506 13:00:09.463244  5822 net.cpp:380] inception_5a/3x3 -> inception_5a/3x3
I0506 13:00:09.470592  5822 net.cpp:122] Setting up inception_5a/3x3
I0506 13:00:09.470607  5822 net.cpp:129] Top shape: 16 320 7 7 (250880)
I0506 13:00:09.470611  5822 net.cpp:137] Memory required for data: 865110680
I0506 13:00:09.470619  5822 layer_factory.hpp:77] Creating layer inception_5a/relu_3x3
I0506 13:00:09.470628  5822 net.cpp:84] Creating Layer inception_5a/relu_3x3
I0506 13:00:09.470633  5822 net.cpp:406] inception_5a/relu_3x3 <- inception_5a/3x3
I0506 13:00:09.470640  5822 net.cpp:367] inception_5a/relu_3x3 -> inception_5a/3x3 (in-place)
I0506 13:00:09.471176  5822 net.cpp:122] Setting up inception_5a/relu_3x3
I0506 13:00:09.471185  5822 net.cpp:129] Top shape: 16 320 7 7 (250880)
I0506 13:00:09.471189  5822 net.cpp:137] Memory required for data: 866114200
I0506 13:00:09.471194  5822 layer_factory.hpp:77] Creating layer inception_5a/5x5_reduce
I0506 13:00:09.471205  5822 net.cpp:84] Creating Layer inception_5a/5x5_reduce
I0506 13:00:09.471210  5822 net.cpp:406] inception_5a/5x5_reduce <- pool4/3x3_s2_pool4/3x3_s2_0_split_2
I0506 13:00:09.471218  5822 net.cpp:380] inception_5a/5x5_reduce -> inception_5a/5x5_reduce
I0506 13:00:09.473256  5822 net.cpp:122] Setting up inception_5a/5x5_reduce
I0506 13:00:09.473266  5822 net.cpp:129] Top shape: 16 32 7 7 (25088)
I0506 13:00:09.473269  5822 net.cpp:137] Memory required for data: 866214552
I0506 13:00:09.473276  5822 layer_factory.hpp:77] Creating layer inception_5a/relu_5x5_reduce
I0506 13:00:09.473284  5822 net.cpp:84] Creating Layer inception_5a/relu_5x5_reduce
I0506 13:00:09.473289  5822 net.cpp:406] inception_5a/relu_5x5_reduce <- inception_5a/5x5_reduce
I0506 13:00:09.473294  5822 net.cpp:367] inception_5a/relu_5x5_reduce -> inception_5a/5x5_reduce (in-place)
I0506 13:00:09.473671  5822 net.cpp:122] Setting up inception_5a/relu_5x5_reduce
I0506 13:00:09.473680  5822 net.cpp:129] Top shape: 16 32 7 7 (25088)
I0506 13:00:09.473683  5822 net.cpp:137] Memory required for data: 866314904
I0506 13:00:09.473686  5822 layer_factory.hpp:77] Creating layer inception_5a/5x5
I0506 13:00:09.473696  5822 net.cpp:84] Creating Layer inception_5a/5x5
I0506 13:00:09.473701  5822 net.cpp:406] inception_5a/5x5 <- inception_5a/5x5_reduce
I0506 13:00:09.473708  5822 net.cpp:380] inception_5a/5x5 -> inception_5a/5x5
I0506 13:00:09.475989  5822 net.cpp:122] Setting up inception_5a/5x5
I0506 13:00:09.475999  5822 net.cpp:129] Top shape: 16 128 7 7 (100352)
I0506 13:00:09.476003  5822 net.cpp:137] Memory required for data: 866716312
I0506 13:00:09.476009  5822 layer_factory.hpp:77] Creating layer inception_5a/relu_5x5
I0506 13:00:09.476016  5822 net.cpp:84] Creating Layer inception_5a/relu_5x5
I0506 13:00:09.476019  5822 net.cpp:406] inception_5a/relu_5x5 <- inception_5a/5x5
I0506 13:00:09.476027  5822 net.cpp:367] inception_5a/relu_5x5 -> inception_5a/5x5 (in-place)
I0506 13:00:09.478348  5822 net.cpp:122] Setting up inception_5a/relu_5x5
I0506 13:00:09.478361  5822 net.cpp:129] Top shape: 16 128 7 7 (100352)
I0506 13:00:09.478364  5822 net.cpp:137] Memory required for data: 867117720
I0506 13:00:09.478368  5822 layer_factory.hpp:77] Creating layer inception_5a/pool
I0506 13:00:09.478376  5822 net.cpp:84] Creating Layer inception_5a/pool
I0506 13:00:09.478382  5822 net.cpp:406] inception_5a/pool <- pool4/3x3_s2_pool4/3x3_s2_0_split_3
I0506 13:00:09.478390  5822 net.cpp:380] inception_5a/pool -> inception_5a/pool
I0506 13:00:09.478435  5822 net.cpp:122] Setting up inception_5a/pool
I0506 13:00:09.478441  5822 net.cpp:129] Top shape: 16 832 7 7 (652288)
I0506 13:00:09.478444  5822 net.cpp:137] Memory required for data: 869726872
I0506 13:00:09.478448  5822 layer_factory.hpp:77] Creating layer inception_5a/pool_proj
I0506 13:00:09.478457  5822 net.cpp:84] Creating Layer inception_5a/pool_proj
I0506 13:00:09.478461  5822 net.cpp:406] inception_5a/pool_proj <- inception_5a/pool
I0506 13:00:09.478468  5822 net.cpp:380] inception_5a/pool_proj -> inception_5a/pool_proj
I0506 13:00:09.481317  5822 net.cpp:122] Setting up inception_5a/pool_proj
I0506 13:00:09.481329  5822 net.cpp:129] Top shape: 16 128 7 7 (100352)
I0506 13:00:09.481333  5822 net.cpp:137] Memory required for data: 870128280
I0506 13:00:09.481339  5822 layer_factory.hpp:77] Creating layer inception_5a/relu_pool_proj
I0506 13:00:09.481348  5822 net.cpp:84] Creating Layer inception_5a/relu_pool_proj
I0506 13:00:09.481351  5822 net.cpp:406] inception_5a/relu_pool_proj <- inception_5a/pool_proj
I0506 13:00:09.481357  5822 net.cpp:367] inception_5a/relu_pool_proj -> inception_5a/pool_proj (in-place)
I0506 13:00:09.481902  5822 net.cpp:122] Setting up inception_5a/relu_pool_proj
I0506 13:00:09.481912  5822 net.cpp:129] Top shape: 16 128 7 7 (100352)
I0506 13:00:09.481915  5822 net.cpp:137] Memory required for data: 870529688
I0506 13:00:09.481920  5822 layer_factory.hpp:77] Creating layer inception_5a/output
I0506 13:00:09.481927  5822 net.cpp:84] Creating Layer inception_5a/output
I0506 13:00:09.481931  5822 net.cpp:406] inception_5a/output <- inception_5a/1x1
I0506 13:00:09.481936  5822 net.cpp:406] inception_5a/output <- inception_5a/3x3
I0506 13:00:09.481940  5822 net.cpp:406] inception_5a/output <- inception_5a/5x5
I0506 13:00:09.481945  5822 net.cpp:406] inception_5a/output <- inception_5a/pool_proj
I0506 13:00:09.481950  5822 net.cpp:380] inception_5a/output -> inception_5a/output
I0506 13:00:09.481978  5822 net.cpp:122] Setting up inception_5a/output
I0506 13:00:09.481984  5822 net.cpp:129] Top shape: 16 832 7 7 (652288)
I0506 13:00:09.481987  5822 net.cpp:137] Memory required for data: 873138840
I0506 13:00:09.481990  5822 layer_factory.hpp:77] Creating layer inception_5a/output_inception_5a/output_0_split
I0506 13:00:09.481997  5822 net.cpp:84] Creating Layer inception_5a/output_inception_5a/output_0_split
I0506 13:00:09.482019  5822 net.cpp:406] inception_5a/output_inception_5a/output_0_split <- inception_5a/output
I0506 13:00:09.482028  5822 net.cpp:380] inception_5a/output_inception_5a/output_0_split -> inception_5a/output_inception_5a/output_0_split_0
I0506 13:00:09.482034  5822 net.cpp:380] inception_5a/output_inception_5a/output_0_split -> inception_5a/output_inception_5a/output_0_split_1
I0506 13:00:09.482041  5822 net.cpp:380] inception_5a/output_inception_5a/output_0_split -> inception_5a/output_inception_5a/output_0_split_2
I0506 13:00:09.482048  5822 net.cpp:380] inception_5a/output_inception_5a/output_0_split -> inception_5a/output_inception_5a/output_0_split_3
I0506 13:00:09.482098  5822 net.cpp:122] Setting up inception_5a/output_inception_5a/output_0_split
I0506 13:00:09.482103  5822 net.cpp:129] Top shape: 16 832 7 7 (652288)
I0506 13:00:09.482107  5822 net.cpp:129] Top shape: 16 832 7 7 (652288)
I0506 13:00:09.482111  5822 net.cpp:129] Top shape: 16 832 7 7 (652288)
I0506 13:00:09.482115  5822 net.cpp:129] Top shape: 16 832 7 7 (652288)
I0506 13:00:09.482118  5822 net.cpp:137] Memory required for data: 883575448
I0506 13:00:09.482121  5822 layer_factory.hpp:77] Creating layer inception_5b/1x1
I0506 13:00:09.482131  5822 net.cpp:84] Creating Layer inception_5b/1x1
I0506 13:00:09.482134  5822 net.cpp:406] inception_5b/1x1 <- inception_5a/output_inception_5a/output_0_split_0
I0506 13:00:09.482141  5822 net.cpp:380] inception_5b/1x1 -> inception_5b/1x1
I0506 13:00:09.485234  5822 net.cpp:122] Setting up inception_5b/1x1
I0506 13:00:09.485244  5822 net.cpp:129] Top shape: 16 384 7 7 (301056)
I0506 13:00:09.485247  5822 net.cpp:137] Memory required for data: 884779672
I0506 13:00:09.485255  5822 layer_factory.hpp:77] Creating layer inception_5b/relu_1x1
I0506 13:00:09.485263  5822 net.cpp:84] Creating Layer inception_5b/relu_1x1
I0506 13:00:09.485267  5822 net.cpp:406] inception_5b/relu_1x1 <- inception_5b/1x1
I0506 13:00:09.485272  5822 net.cpp:367] inception_5b/relu_1x1 -> inception_5b/1x1 (in-place)
I0506 13:00:09.485925  5822 net.cpp:122] Setting up inception_5b/relu_1x1
I0506 13:00:09.485939  5822 net.cpp:129] Top shape: 16 384 7 7 (301056)
I0506 13:00:09.485944  5822 net.cpp:137] Memory required for data: 885983896
I0506 13:00:09.485949  5822 layer_factory.hpp:77] Creating layer inception_5b/3x3_reduce
I0506 13:00:09.485962  5822 net.cpp:84] Creating Layer inception_5b/3x3_reduce
I0506 13:00:09.485970  5822 net.cpp:406] inception_5b/3x3_reduce <- inception_5a/output_inception_5a/output_0_split_1
I0506 13:00:09.485978  5822 net.cpp:380] inception_5b/3x3_reduce -> inception_5b/3x3_reduce
I0506 13:00:09.496937  5822 net.cpp:122] Setting up inception_5b/3x3_reduce
I0506 13:00:09.496956  5822 net.cpp:129] Top shape: 16 192 7 7 (150528)
I0506 13:00:09.496960  5822 net.cpp:137] Memory required for data: 886586008
I0506 13:00:09.496969  5822 layer_factory.hpp:77] Creating layer inception_5b/relu_3x3_reduce
I0506 13:00:09.496981  5822 net.cpp:84] Creating Layer inception_5b/relu_3x3_reduce
I0506 13:00:09.496989  5822 net.cpp:406] inception_5b/relu_3x3_reduce <- inception_5b/3x3_reduce
I0506 13:00:09.496995  5822 net.cpp:367] inception_5b/relu_3x3_reduce -> inception_5b/3x3_reduce (in-place)
I0506 13:00:09.497550  5822 net.cpp:122] Setting up inception_5b/relu_3x3_reduce
I0506 13:00:09.497560  5822 net.cpp:129] Top shape: 16 192 7 7 (150528)
I0506 13:00:09.497565  5822 net.cpp:137] Memory required for data: 887188120
I0506 13:00:09.497568  5822 layer_factory.hpp:77] Creating layer inception_5b/3x3
I0506 13:00:09.497581  5822 net.cpp:84] Creating Layer inception_5b/3x3
I0506 13:00:09.497586  5822 net.cpp:406] inception_5b/3x3 <- inception_5b/3x3_reduce
I0506 13:00:09.497594  5822 net.cpp:380] inception_5b/3x3 -> inception_5b/3x3
I0506 13:00:09.504086  5822 net.cpp:122] Setting up inception_5b/3x3
I0506 13:00:09.504102  5822 net.cpp:129] Top shape: 16 384 7 7 (301056)
I0506 13:00:09.504106  5822 net.cpp:137] Memory required for data: 888392344
I0506 13:00:09.504115  5822 layer_factory.hpp:77] Creating layer inception_5b/relu_3x3
I0506 13:00:09.504142  5822 net.cpp:84] Creating Layer inception_5b/relu_3x3
I0506 13:00:09.504146  5822 net.cpp:406] inception_5b/relu_3x3 <- inception_5b/3x3
I0506 13:00:09.504154  5822 net.cpp:367] inception_5b/relu_3x3 -> inception_5b/3x3 (in-place)
I0506 13:00:09.504514  5822 net.cpp:122] Setting up inception_5b/relu_3x3
I0506 13:00:09.504523  5822 net.cpp:129] Top shape: 16 384 7 7 (301056)
I0506 13:00:09.504528  5822 net.cpp:137] Memory required for data: 889596568
I0506 13:00:09.504530  5822 layer_factory.hpp:77] Creating layer inception_5b/5x5_reduce
I0506 13:00:09.504542  5822 net.cpp:84] Creating Layer inception_5b/5x5_reduce
I0506 13:00:09.504549  5822 net.cpp:406] inception_5b/5x5_reduce <- inception_5a/output_inception_5a/output_0_split_2
I0506 13:00:09.504556  5822 net.cpp:380] inception_5b/5x5_reduce -> inception_5b/5x5_reduce
I0506 13:00:09.511333  5822 net.cpp:122] Setting up inception_5b/5x5_reduce
I0506 13:00:09.511346  5822 net.cpp:129] Top shape: 16 48 7 7 (37632)
I0506 13:00:09.511350  5822 net.cpp:137] Memory required for data: 889747096
I0506 13:00:09.511358  5822 layer_factory.hpp:77] Creating layer inception_5b/relu_5x5_reduce
I0506 13:00:09.511366  5822 net.cpp:84] Creating Layer inception_5b/relu_5x5_reduce
I0506 13:00:09.511373  5822 net.cpp:406] inception_5b/relu_5x5_reduce <- inception_5b/5x5_reduce
I0506 13:00:09.511379  5822 net.cpp:367] inception_5b/relu_5x5_reduce -> inception_5b/5x5_reduce (in-place)
I0506 13:00:09.511744  5822 net.cpp:122] Setting up inception_5b/relu_5x5_reduce
I0506 13:00:09.511752  5822 net.cpp:129] Top shape: 16 48 7 7 (37632)
I0506 13:00:09.511756  5822 net.cpp:137] Memory required for data: 889897624
I0506 13:00:09.511760  5822 layer_factory.hpp:77] Creating layer inception_5b/5x5
I0506 13:00:09.511772  5822 net.cpp:84] Creating Layer inception_5b/5x5
I0506 13:00:09.511777  5822 net.cpp:406] inception_5b/5x5 <- inception_5b/5x5_reduce
I0506 13:00:09.511783  5822 net.cpp:380] inception_5b/5x5 -> inception_5b/5x5
I0506 13:00:09.518337  5822 net.cpp:122] Setting up inception_5b/5x5
I0506 13:00:09.518355  5822 net.cpp:129] Top shape: 16 128 7 7 (100352)
I0506 13:00:09.518359  5822 net.cpp:137] Memory required for data: 890299032
I0506 13:00:09.518368  5822 layer_factory.hpp:77] Creating layer inception_5b/relu_5x5
I0506 13:00:09.518379  5822 net.cpp:84] Creating Layer inception_5b/relu_5x5
I0506 13:00:09.518386  5822 net.cpp:406] inception_5b/relu_5x5 <- inception_5b/5x5
I0506 13:00:09.518393  5822 net.cpp:367] inception_5b/relu_5x5 -> inception_5b/5x5 (in-place)
I0506 13:00:09.518968  5822 net.cpp:122] Setting up inception_5b/relu_5x5
I0506 13:00:09.518978  5822 net.cpp:129] Top shape: 16 128 7 7 (100352)
I0506 13:00:09.518982  5822 net.cpp:137] Memory required for data: 890700440
I0506 13:00:09.518986  5822 layer_factory.hpp:77] Creating layer inception_5b/pool
I0506 13:00:09.518996  5822 net.cpp:84] Creating Layer inception_5b/pool
I0506 13:00:09.519001  5822 net.cpp:406] inception_5b/pool <- inception_5a/output_inception_5a/output_0_split_3
I0506 13:00:09.519007  5822 net.cpp:380] inception_5b/pool -> inception_5b/pool
I0506 13:00:09.519053  5822 net.cpp:122] Setting up inception_5b/pool
I0506 13:00:09.519059  5822 net.cpp:129] Top shape: 16 832 7 7 (652288)
I0506 13:00:09.519062  5822 net.cpp:137] Memory required for data: 893309592
I0506 13:00:09.519066  5822 layer_factory.hpp:77] Creating layer inception_5b/pool_proj
I0506 13:00:09.519078  5822 net.cpp:84] Creating Layer inception_5b/pool_proj
I0506 13:00:09.519081  5822 net.cpp:406] inception_5b/pool_proj <- inception_5b/pool
I0506 13:00:09.519089  5822 net.cpp:380] inception_5b/pool_proj -> inception_5b/pool_proj
I0506 13:00:09.521227  5822 net.cpp:122] Setting up inception_5b/pool_proj
I0506 13:00:09.521237  5822 net.cpp:129] Top shape: 16 128 7 7 (100352)
I0506 13:00:09.521242  5822 net.cpp:137] Memory required for data: 893711000
I0506 13:00:09.521250  5822 layer_factory.hpp:77] Creating layer inception_5b/relu_pool_proj
I0506 13:00:09.521257  5822 net.cpp:84] Creating Layer inception_5b/relu_pool_proj
I0506 13:00:09.521282  5822 net.cpp:406] inception_5b/relu_pool_proj <- inception_5b/pool_proj
I0506 13:00:09.521288  5822 net.cpp:367] inception_5b/relu_pool_proj -> inception_5b/pool_proj (in-place)
I0506 13:00:09.521857  5822 net.cpp:122] Setting up inception_5b/relu_pool_proj
I0506 13:00:09.521867  5822 net.cpp:129] Top shape: 16 128 7 7 (100352)
I0506 13:00:09.521872  5822 net.cpp:137] Memory required for data: 894112408
I0506 13:00:09.521875  5822 layer_factory.hpp:77] Creating layer inception_5b/output
I0506 13:00:09.521883  5822 net.cpp:84] Creating Layer inception_5b/output
I0506 13:00:09.521886  5822 net.cpp:406] inception_5b/output <- inception_5b/1x1
I0506 13:00:09.521893  5822 net.cpp:406] inception_5b/output <- inception_5b/3x3
I0506 13:00:09.521899  5822 net.cpp:406] inception_5b/output <- inception_5b/5x5
I0506 13:00:09.521903  5822 net.cpp:406] inception_5b/output <- inception_5b/pool_proj
I0506 13:00:09.521908  5822 net.cpp:380] inception_5b/output -> inception_5b/output
I0506 13:00:09.521937  5822 net.cpp:122] Setting up inception_5b/output
I0506 13:00:09.521944  5822 net.cpp:129] Top shape: 16 1024 7 7 (802816)
I0506 13:00:09.521946  5822 net.cpp:137] Memory required for data: 897323672
I0506 13:00:09.521950  5822 layer_factory.hpp:77] Creating layer pool5/7x7_s1
I0506 13:00:09.521956  5822 net.cpp:84] Creating Layer pool5/7x7_s1
I0506 13:00:09.521960  5822 net.cpp:406] pool5/7x7_s1 <- inception_5b/output
I0506 13:00:09.521967  5822 net.cpp:380] pool5/7x7_s1 -> pool5/7x7_s1
I0506 13:00:09.522548  5822 net.cpp:122] Setting up pool5/7x7_s1
I0506 13:00:09.522559  5822 net.cpp:129] Top shape: 16 1024 1 1 (16384)
I0506 13:00:09.522563  5822 net.cpp:137] Memory required for data: 897389208
I0506 13:00:09.522567  5822 layer_factory.hpp:77] Creating layer pool5/drop_7x7_s1
I0506 13:00:09.522576  5822 net.cpp:84] Creating Layer pool5/drop_7x7_s1
I0506 13:00:09.522580  5822 net.cpp:406] pool5/drop_7x7_s1 <- pool5/7x7_s1
I0506 13:00:09.522586  5822 net.cpp:367] pool5/drop_7x7_s1 -> pool5/7x7_s1 (in-place)
I0506 13:00:09.522610  5822 net.cpp:122] Setting up pool5/drop_7x7_s1
I0506 13:00:09.522615  5822 net.cpp:129] Top shape: 16 1024 1 1 (16384)
I0506 13:00:09.522619  5822 net.cpp:137] Memory required for data: 897454744
I0506 13:00:09.522622  5822 layer_factory.hpp:77] Creating layer loss3/classifier
I0506 13:00:09.522630  5822 net.cpp:84] Creating Layer loss3/classifier
I0506 13:00:09.522634  5822 net.cpp:406] loss3/classifier <- pool5/7x7_s1
I0506 13:00:09.522640  5822 net.cpp:380] loss3/classifier -> loss3/classifier
I0506 13:00:09.524349  5822 net.cpp:122] Setting up loss3/classifier
I0506 13:00:09.524360  5822 net.cpp:129] Top shape: 16 196 (3136)
I0506 13:00:09.524364  5822 net.cpp:137] Memory required for data: 897467288
I0506 13:00:09.524371  5822 layer_factory.hpp:77] Creating layer loss3/classifier_loss3/classifier_0_split
I0506 13:00:09.524379  5822 net.cpp:84] Creating Layer loss3/classifier_loss3/classifier_0_split
I0506 13:00:09.524384  5822 net.cpp:406] loss3/classifier_loss3/classifier_0_split <- loss3/classifier
I0506 13:00:09.524392  5822 net.cpp:380] loss3/classifier_loss3/classifier_0_split -> loss3/classifier_loss3/classifier_0_split_0
I0506 13:00:09.524400  5822 net.cpp:380] loss3/classifier_loss3/classifier_0_split -> loss3/classifier_loss3/classifier_0_split_1
I0506 13:00:09.524407  5822 net.cpp:380] loss3/classifier_loss3/classifier_0_split -> loss3/classifier_loss3/classifier_0_split_2
I0506 13:00:09.524453  5822 net.cpp:122] Setting up loss3/classifier_loss3/classifier_0_split
I0506 13:00:09.524458  5822 net.cpp:129] Top shape: 16 196 (3136)
I0506 13:00:09.524462  5822 net.cpp:129] Top shape: 16 196 (3136)
I0506 13:00:09.524466  5822 net.cpp:129] Top shape: 16 196 (3136)
I0506 13:00:09.524469  5822 net.cpp:137] Memory required for data: 897504920
I0506 13:00:09.524472  5822 layer_factory.hpp:77] Creating layer loss3/loss
I0506 13:00:09.524479  5822 net.cpp:84] Creating Layer loss3/loss
I0506 13:00:09.524483  5822 net.cpp:406] loss3/loss <- loss3/classifier_loss3/classifier_0_split_0
I0506 13:00:09.524502  5822 net.cpp:406] loss3/loss <- label_val-data_1_split_6
…
