…
I0509 11:20:18.482045  9215 net.cpp:294] The NetState phase (0) differed from the phase (1) specified by a rule in layer loss3/top-5
I0509 11:20:18.482822  9215 net.cpp:51] Initializing net from parameters:
state {
phase: TRAIN
level: 0
stage: ""
}
layer {
name: "train-data"
type: "Data"
top: "data"
top: "label"
include {
phase: TRAIN
}
transform_param {
mirror: true
crop_size: 224
mean_file: "/mnt/bigdisk/AINDIG4/digits/jobs/20200509-095611-5492/mean.binaryproto"
}
data_param {
source: "/mnt/bigdisk/AINDIG4/digits/jobs/20200509-095611-5492/train_db"
batch_size: 50
backend: LMDB
}
}
layer {
name: "conv1/7x7_s2"
type: "Convolution"
bottom: "data"
top: "conv1/7x7_s2"
param {
lr_mult: 1
decay_mult: 1
}
param {
lr_mult: 2
decay_mult: 0
}
convolution_param {
num_output: 64
pad: 3
kernel_size: 7
stride: 2
weight_filler {
type: "xavier"
std: 0.1
}
bias_filler {
type: "constant"
value: 0.2
}
}
}
layer {
name: "conv1/relu_7x7"
type: "ReLU"
bottom: "conv1/7x7_s2"
top: "conv1/7x7_s2"
}
layer {
name: "pool1/3x3_s2"
type: "Pooling"
bottom: "conv1/7x7_s2"
top: "pool1/3x3_s2"
pooling_param {
pool: MAX
kernel_size: 3
stride: 2
}
}
layer {
name: "pool1/norm1"
type: "LRN"
bottom: "pool1/3x3_s2"
top: "pool1/norm1"
lrn_param {
local_size: 5
alpha: 0.0001
beta: 0.75
}
}
layer {
name: "conv2/3x3_reduce"
type: "Convolution"
bottom: "pool1/norm1"
top: "conv2/3x3_reduce"
param {
lr_mult: 1
decay_mult: 1
}
param {
lr_mult: 2
decay_mult: 0
}
convolution_param {
num_output: 64
kernel_size: 1
weight_filler {
type: "xavier"
std: 0.1
}
bias_filler {
type: "constant"
value: 0.2
}
}
}
layer {
name: "conv2/relu_3x3_reduce"
type: "ReLU"
bottom: "conv2/3x3_reduce"
top: "conv2/3x3_reduce"
}
layer {
name: "conv2/3x3"
type: "Convolution"
bottom: "conv2/3x3_reduce"
top: "conv2/3x3"
param {
lr_mult: 1
decay_mult: 1
}
param {
lr_mult: 2
decay_mult: 0
}
convolution_param {
num_output: 192
pad: 1
kernel_size: 3
weight_filler {
type: "xavier"
std: 0.03
}
bias_filler {
type: "constant"
value: 0.2
}
}
}
layer {
name: "conv2/relu_3x3"
type: "ReLU"
bottom: "conv2/3x3"
top: "conv2/3x3"
}
layer {
name: "conv2/norm2"
type: "LRN"
bottom: "conv2/3x3"
top: "conv2/norm2"
lrn_param {
local_size: 5
alpha: 0.0001
beta: 0.75
}
}
layer {
name: "pool2/3x3_s2"
type: "Pooling"
bottom: "conv2/norm2"
top: "pool2/3x3_s2"
pooling_param {
pool: MAX
kernel_size: 3
stride: 2
}
}
layer {
name: "inception_3a/1x1"
type: "Convolution"
bottom: "pool2/3x3_s2"
top: "inception_3a/1x1"
param {
lr_mult: 1
decay_mult: 1
}
param {
lr_mult: 2
decay_mult: 0
}
convolution_param {
num_output: 64
kernel_size: 1
weight_filler {
type: "xavier"
std: 0.03
}
bias_filler {
type: "constant"
value: 0.2
}
}
}
layer {
name: "inception_3a/relu_1x1"
type: "ReLU"
bottom: "inception_3a/1x1"
top: "inception_3a/1x1"
}
layer {
name: "inception_3a/3x3_reduce"
type: "Convolution"
bottom: "pool2/3x3_s2"
top: "inception_3a/3x3_reduce"
param {
lr_mult: 1
decay_mult: 1
}
param {
lr_mult: 2
decay_mult: 0
}
convolution_param {
num_output: 96
kernel_size: 1
weight_filler {
type: "xavier"
std: 0.09
}
bias_filler {
type: "constant"
value: 0.2
}
}
}
layer {
name: "inception_3a/relu_3x3_reduce"
type: "ReLU"
bottom: "inception_3a/3x3_reduce"
top: "inception_3a/3x3_reduce"
}
layer {
name: "inception_3a/3x3"
type: "Convolution"
bottom: "inception_3a/3x3_reduce"
top: "inception_3a/3x3"
param {
lr_mult: 1
decay_mult: 1
}
param {
lr_mult: 2
decay_mult: 0
}
convolution_param {
num_output: 128
pad: 1
kernel_size: 3
weight_filler {
type: "xavier"
std: 0.03
}
bias_filler {
type: "constant"
value: 0.2
}
}
}
layer {
name: "inception_3a/relu_3x3"
type: "ReLU"
bottom: "inception_3a/3x3"
top: "inception_3a/3x3"
}
layer {
name: "inception_3a/5x5_reduce"
type: "Convolution"
bottom: "pool2/3x3_s2"
top: "inception_3a/5x5_reduce"
param {
lr_mult: 1
decay_mult: 1
}
param {
lr_mult: 2
decay_mult: 0
}
convolution_param {
num_output: 16
kernel_size: 1
weight_filler {
type: "xavier"
std: 0.2
}
bias_filler {
type: "constant"
value: 0.2
}
}
}
layer {
name: "inception_3a/relu_5x5_reduce"
type: "ReLU"
bottom: "inception_3a/5x5_reduce"
top: "inception_3a/5x5_reduce"
}
layer {
name: "inception_3a/5x5"
type: "Convolution"
bottom: "inception_3a/5x5_reduce"
top: "inception_3a/5x5"
param {
lr_mult: 1
decay_mult: 1
}
param {
lr_mult: 2
decay_mult: 0
}
convolution_param {
num_output: 32
pad: 2
kernel_size: 5
weight_filler {
type: "xavier"
std: 0.03
}
bias_filler {
type: "constant"
value: 0.2
}
}
}
layer {
name: "inception_3a/relu_5x5"
type: "ReLU"
bottom: "inception_3a/5x5"
top: "inception_3a/5x5"
}
layer {
name: "inception_3a/pool"
type: "Pooling"
bottom: "pool2/3x3_s2"
top: "inception_3a/pool"
pooling_param {
pool: MAX
kernel_size: 3
stride: 1
pad: 1
}
}
layer {
name: "inception_3a/pool_proj"
type: "Convolution"
bottom: "inception_3a/pool"
top: "inception_3a/pool_proj"
param {
lr_mult: 1
decay_mult: 1
}
param {
lr_mult: 2
decay_mult: 0
}
convolution_param {
num_output: 32
kernel_size: 1
weight_filler {
type: "xavier"
std: 0.1
}
bias_filler {
type: "constant"
value: 0.2
}
}
}
layer {
name: "inception_3a/relu_pool_proj"
type: "ReLU"
bottom: "inception_3a/pool_proj"
top: "inception_3a/pool_proj"
}
layer {
name: "inception_3a/output"
type: "Concat"
bottom: "inception_3a/1x1"
bottom: "inception_3a/3x3"
bottom: "inception_3a/5x5"
bottom: "inception_3a/pool_proj"
top: "inception_3a/output"
}
layer {
name: "inception_3b/1x1"
type: "Convolution"
bottom: "inception_3a/output"
top: "inception_3b/1x1"
param {
lr_mult: 1
decay_mult: 1
}
param {
lr_mult: 2
decay_mult: 0
}
convolution_param {
num_output: 128
kernel_size: 1
weight_filler {
type: "xavier"
std: 0.03
}
bias_filler {
type: "constant"
value: 0.2
}
}
}
layer {
name: "inception_3b/relu_1x1"
type: "ReLU"
bottom: "inception_3b/1x1"
top: "inception_3b/1x1"
}
layer {
name: "inception_3b/3x3_reduce"
type: "Convolution"
bottom: "inception_3a/output"
top: "inception_3b/3x3_reduce"
param {
lr_mult: 1
decay_mult: 1
}
param {
lr_mult: 2
decay_mult: 0
}
convolution_param {
num_output: 128
kernel_size: 1
weight_filler {
type: "xavier"
std: 0.09
}
bias_filler {
type: "constant"
value: 0.2
}
}
}
layer {
name: "inception_3b/relu_3x3_reduce"
type: "ReLU"
bottom: "inception_3b/3x3_reduce"
top: "inception_3b/3x3_reduce"
}
layer {
name: "inception_3b/3x3"
type: "Convolution"
bottom: "inception_3b/3x3_reduce"
top: "inception_3b/3x3"
param {
lr_mult: 1
decay_mult: 1
}
param {
lr_mult: 2
decay_mult: 0
}
convolution_param {
num_output: 192
pad: 1
kernel_size: 3
weight_filler {
type: "xavier"
std: 0.03
}
bias_filler {
type: "constant"
value: 0.2
}
}
}
layer {
name: "inception_3b/relu_3x3"
type: "ReLU"
bottom: "inception_3b/3x3"
top: "inception_3b/3x3"
}
layer {
name: "inception_3b/5x5_reduce"
type: "Convolution"
bottom: "inception_3a/output"
top: "inception_3b/5x5_reduce"
param {
lr_mult: 1
decay_mult: 1
}
param {
lr_mult: 2
decay_mult: 0
}
convolution_param {
num_output: 32
kernel_size: 1
weight_filler {
type: "xavier"
std: 0.2
}
bias_filler {
type: "constant"
value: 0.2
}
}
}
layer {
name: "inception_3b/relu_5x5_reduce"
type: "ReLU"
bottom: "inception_3b/5x5_reduce"
top: "inception_3b/5x5_reduce"
}
layer {
name: "inception_3b/5x5"
type: "Convolution"
bottom: "inception_3b/5x5_reduce"
top: "inception_3b/5x5"
param {
lr_mult: 1
decay_mult: 1
}
param {
lr_mult: 2
decay_mult: 0
}
convolution_param {
num_output: 96
pad: 2
kernel_size: 5
weight_filler {
type: "xavier"
std: 0.03
}
bias_filler {
type: "constant"
value: 0.2
}
}
}
layer {
name: "inception_3b/relu_5x5"
type: "ReLU"
bottom: "inception_3b/5x5"
top: "inception_3b/5x5"
}
layer {
name: "inception_3b/pool"
type: "Pooling"
bottom: "inception_3a/output"
top: "inception_3b/pool"
pooling_param {
pool: MAX
kernel_size: 3
stride: 1
pad: 1
}
}
layer {
name: "inception_3b/pool_proj"
type: "Convolution"
bottom: "inception_3b/pool"
top: "inception_3b/pool_proj"
param {
lr_mult: 1
decay_mult: 1
}
param {
lr_mult: 2
decay_mult: 0
}
convolution_param {
num_output: 64
kernel_size: 1
weight_filler {
type: "xavier"
std: 0.1
}
bias_filler {
type: "constant"
value: 0.2
}
}
}
layer {
name: "inception_3b/relu_pool_proj"
type: "ReLU"
bottom: "inception_3b/pool_proj"
top: "inception_3b/pool_proj"
}
layer {
name: "inception_3b/output"
type: "Concat"
bottom: "inception_3b/1x1"
bottom: "inception_3b/3x3"
bottom: "inception_3b/5x5"
bottom: "inception_3b/pool_proj"
top: "inception_3b/output"
}
layer {
name: "pool3/3x3_s2"
type: "Pooling"
bottom: "inception_3b/output"
top: "pool3/3x3_s2"
pooling_param {
pool: MAX
kernel_size: 3
stride: 2
}
}
layer {
name: "inception_4a/1x1"
type: "Convolution"
bottom: "pool3/3x3_s2"
top: "inception_4a/1x1"
param {
lr_mult: 1
decay_mult: 1
}
param {
lr_mult: 2
decay_mult: 0
}
convolution_param {
num_output: 192
kernel_size: 1
weight_filler {
type: "xavier"
std: 0.03
}
bias_filler {
type: "constant"
value: 0.2
}
}
}
layer {
name: "inception_4a/relu_1x1"
type: "ReLU"
bottom: "inception_4a/1x1"
top: "inception_4a/1x1"
}
layer {
name: "inception_4a/3x3_reduce"
type: "Convolution"
bottom: "pool3/3x3_s2"
top: "inception_4a/3x3_reduce"
param {
lr_mult: 1
decay_mult: 1
}
param {
lr_mult: 2
decay_mult: 0
}
convolution_param {
num_output: 96
kernel_size: 1
weight_filler {
type: "xavier"
std: 0.09
}
bias_filler {
type: "constant"
value: 0.2
}
}
}
layer {
name: "inception_4a/relu_3x3_reduce"
type: "ReLU"
bottom: "inception_4a/3x3_reduce"
top: "inception_4a/3x3_reduce"
}
layer {
name: "inception_4a/3x3"
type: "Convolution"
bottom: "inception_4a/3x3_reduce"
top: "inception_4a/3x3"
param {
lr_mult: 1
decay_mult: 1
}
param {
lr_mult: 2
decay_mult: 0
}
convolution_param {
num_output: 208
pad: 1
kernel_size: 3
weight_filler {
type: "xavier"
std: 0.03
}
bias_filler {
type: "constant"
value: 0.2
}
}
}
layer {
name: "inception_4a/relu_3x3"
type: "ReLU"
bottom: "inception_4a/3x3"
top: "inception_4a/3x3"
}
layer {
name: "inception_4a/5x5_reduce"
type: "Convolution"
bottom: "pool3/3x3_s2"
top: "inception_4a/5x5_reduce"
param {
lr_mult: 1
decay_mult: 1
}
param {
lr_mult: 2
decay_mult: 0
}
convolution_param {
num_output: 16
kernel_size: 1
weight_filler {
type: "xavier"
std: 0.2
}
bias_filler {
type: "constant"
value: 0.2
}
}
}
layer {
name: "inception_4a/relu_5x5_reduce"
type: "ReLU"
bottom: "inception_4a/5x5_reduce"
top: "inception_4a/5x5_reduce"
}
layer {
name: "inception_4a/5x5"
type: "Convolution"
bottom: "inception_4a/5x5_reduce"
top: "inception_4a/5x5"
param {
lr_mult: 1
decay_mult: 1
}
param {
lr_mult: 2
decay_mult: 0
}
convolution_param {
num_output: 48
pad: 2
kernel_size: 5
weight_filler {
type: "xavier"
std: 0.03
}
bias_filler {
type: "constant"
value: 0.2
}
}
}
layer {
name: "inception_4a/relu_5x5"
type: "ReLU"
bottom: "inception_4a/5x5"
top: "inception_4a/5x5"
}
layer {
name: "inception_4a/pool"
type: "Pooling"
bottom: "pool3/3x3_s2"
top: "inception_4a/pool"
pooling_param {
pool: MAX
kernel_size: 3
stride: 1
pad: 1
}
}
layer {
name: "inception_4a/pool_proj"
type: "Convolution"
bottom: "inception_4a/pool"
top: "inception_4a/pool_proj"
param {
lr_mult: 1
decay_mult: 1
}
param {
lr_mult: 2
decay_mult: 0
}
convolution_param {
num_output: 64
kernel_size: 1
weight_filler {
type: "xavier"
std: 0.1
}
bias_filler {
type: "constant"
value: 0.2
}
}
}
layer {
name: "inception_4a/relu_pool_proj"
type: "ReLU"
bottom: "inception_4a/pool_proj"
top: "inception_4a/pool_proj"
}
layer {
name: "inception_4a/output"
type: "Concat"
bottom: "inception_4a/1x1"
bottom: "inception_4a/3x3"
bottom: "inception_4a/5x5"
bottom: "inception_4a/pool_proj"
top: "inception_4a/output"
}
layer {
name: "loss1/ave_pool"
type: "Pooling"
bottom: "inception_4a/output"
top: "loss1/ave_pool"
pooling_param {
pool: AVE
kernel_size: 5
stride: 3
}
}
layer {
name: "loss1/conv"
type: "Convolution"
bottom: "loss1/ave_pool"
top: "loss1/conv"
param {
lr_mult: 1
decay_mult: 1
}
param {
lr_mult: 2
decay_mult: 0
}
convolution_param {
num_output: 128
kernel_size: 1
weight_filler {
type: "xavier"
std: 0.08
}
bias_filler {
type: "constant"
value: 0.2
}
}
}
layer {
name: "loss1/relu_conv"
type: "ReLU"
bottom: "loss1/conv"
top: "loss1/conv"
}
layer {
name: "loss1/fc"
type: "InnerProduct"
bottom: "loss1/conv"
top: "loss1/fc"
param {
lr_mult: 1
decay_mult: 1
}
param {
lr_mult: 2
decay_mult: 0
}
inner_product_param {
num_output: 1024
weight_filler {
type: "xavier"
std: 0.02
}
bias_filler {
type: "constant"
value: 0.2
}
}
}
layer {
name: "loss1/relu_fc"
type: "ReLU"
bottom: "loss1/fc"
top: "loss1/fc"
}
layer {
name: "loss1/drop_fc"
type: "Dropout"
bottom: "loss1/fc"
top: "loss1/fc"
dropout_param {
dropout_ratio: 0.7
}
}
layer {
name: "loss1/classifier"
type: "InnerProduct"
bottom: "loss1/fc"
top: "loss1/classifier"
param {
lr_mult: 1
decay_mult: 1
}
param {
lr_mult: 2
decay_mult: 0
}
inner_product_param {
num_output: 196
weight_filler {
type: "xavier"
std: 0.0009765625
}
bias_filler {
type: "constant"
value: 0
}
}
}
layer {
name: "loss1/loss"
type: "SoftmaxWithLoss"
bottom: "loss1/classifier"
bottom: "label"
top: "loss1/loss"
loss_weight: 0.3
}
layer {
name: "inception_4b/1x1"
type: "Convolution"
bottom: "inception_4a/output"
top: "inception_4b/1x1"
param {
lr_mult: 1
decay_mult: 1
}
param {
lr_mult: 2
decay_mult: 0
}
convolution_param {
num_output: 160
kernel_size: 1
weight_filler {
type: "xavier"
std: 0.03
}
bias_filler {
type: "constant"
value: 0.2
}
}
}
layer {
name: "inception_4b/relu_1x1"
type: "ReLU"
bottom: "inception_4b/1x1"
top: "inception_4b/1x1"
}
layer {
name: "inception_4b/3x3_reduce"
type: "Convolution"
bottom: "inception_4a/output"
top: "inception_4b/3x3_reduce"
param {
lr_mult: 1
decay_mult: 1
}
param {
lr_mult: 2
decay_mult: 0
}
convolution_param {
num_output: 112
kernel_size: 1
weight_filler {
type: "xavier"
std: 0.09
}
bias_filler {
type: "constant"
value: 0.2
}
}
}
layer {
name: "inception_4b/relu_3x3_reduce"
type: "ReLU"
bottom: "inception_4b/3x3_reduce"
top: "inception_4b/3x3_reduce"
}
layer {
name: "inception_4b/3x3"
type: "Convolution"
bottom: "inception_4b/3x3_reduce"
top: "inception_4b/3x3"
param {
lr_mult: 1
decay_mult: 1
}
param {
lr_mult: 2
decay_mult: 0
}
convolution_param {
num_output: 224
pad: 1
kernel_size: 3
weight_filler {
type: "xavier"
std: 0.03
}
bias_filler {
type: "constant"
value: 0.2
}
}
}
layer {
name: "inception_4b/relu_3x3"
type: "ReLU"
bottom: "inception_4b/3x3"
top: "inception_4b/3x3"
}
layer {
name: "inception_4b/5x5_reduce"
type: "Convolution"
bottom: "inception_4a/output"
top: "inception_4b/5x5_reduce"
param {
lr_mult: 1
decay_mult: 1
}
param {
lr_mult: 2
decay_mult: 0
}
convolution_param {
num_output: 24
kernel_size: 1
weight_filler {
type: "xavier"
std: 0.2
}
bias_filler {
type: "constant"
value: 0.2
}
}
}
layer {
name: "inception_4b/relu_5x5_reduce"
type: "ReLU"
bottom: "inception_4b/5x5_reduce"
top: "inception_4b/5x5_reduce"
}
layer {
name: "inception_4b/5x5"
type: "Convolution"
bottom: "inception_4b/5x5_reduce"
top: "inception_4b/5x5"
param {
lr_mult: 1
decay_mult: 1
}
param {
lr_mult: 2
decay_mult: 0
}
convolution_param {
num_output: 64
pad: 2
kernel_size: 5
weight_filler {
type: "xavier"
std: 0.03
}
bias_filler {
type: "constant"
value: 0.2
}
}
}
layer {
name: "inception_4b/relu_5x5"
type: "ReLU"
bottom: "inception_4b/5x5"
top: "inception_4b/5x5"
}
layer {
name: "inception_4b/pool"
type: "Pooling"
bottom: "inception_4a/output"
top: "inception_4b/pool"
pooling_param {
pool: MAX
kernel_size: 3
stride: 1
pad: 1
}
}
layer {
name: "inception_4b/pool_proj"
type: "Convolution"
bottom: "inception_4b/pool"
top: "inception_4b/pool_proj"
param {
lr_mult: 1
decay_mult: 1
}
param {
lr_mult: 2
decay_mult: 0
}
convolution_param {
num_output: 64
kernel_size: 1
weight_filler {
type: "xavier"
std: 0.1
}
bias_filler {
type: "constant"
value: 0.2
}
}
}
layer {
name: "inception_4b/relu_pool_proj"
type: "ReLU"
bottom: "inception_4b/pool_proj"
top: "inception_4b/pool_proj"
}
layer {
name: "inception_4b/output"
type: "Concat"
bottom: "inception_4b/1x1"
bottom: "inception_4b/3x3"
bottom: "inception_4b/5x5"
bottom: "inception_4b/pool_proj"
top: "inception_4b/output"
}
layer {
name: "inception_4c/1x1"
type: "Convolution"
bottom: "inception_4b/output"
top: "inception_4c/1x1"
param {
lr_mult: 1
decay_mult: 1
}
param {
lr_mult: 2
decay_mult: 0
}
convolution_param {
num_output: 128
kernel_size: 1
weight_filler {
type: "xavier"
std: 0.03
}
bias_filler {
type: "constant"
value: 0.2
}
}
}
layer {
name: "inception_4c/relu_1x1"
type: "ReLU"
bottom: "inception_4c/1x1"
top: "inception_4c/1x1"
}
layer {
name: "inception_4c/3x3_reduce"
type: "Convolution"
bottom: "inception_4b/output"
top: "inception_4c/3x3_reduce"
param {
lr_mult: 1
decay_mult: 1
}
param {
lr_mult: 2
decay_mult: 0
}
convolution_param {
num_output: 128
kernel_size: 1
weight_filler {
type: "xavier"
std: 0.09
}
bias_filler {
type: "constant"
value: 0.2
}
}
}
layer {
name: "inception_4c/relu_3x3_reduce"
type: "ReLU"
bottom: "inception_4c/3x3_reduce"
top: "inception_4c/3x3_reduce"
}
layer {
name: "inception_4c/3x3"
type: "Convolution"
bottom: "inception_4c/3x3_reduce"
top: "inception_4c/3x3"
param {
lr_mult: 1
decay_mult: 1
}
param {
lr_mult: 2
decay_mult: 0
}
convolution_param {
num_output: 256
pad: 1
kernel_size: 3
weight_filler {
type: "xavier"
std: 0.03
}
bias_filler {
type: "constant"
value: 0.2
}
}
}
layer {
name: "inception_4c/relu_3x3"
type: "ReLU"
bottom: "inception_4c/3x3"
top: "inception_4c/3x3"
}
layer {
name: "inception_4c/5x5_reduce"
type: "Convolution"
bottom: "inception_4b/output"
top: "inception_4c/5x5_reduce"
param {
lr_mult: 1
decay_mult: 1
}
param {
lr_mult: 2
decay_mult: 0
}
convolution_param {
num_output: 24
kernel_size: 1
weight_filler {
type: "xavier"
std: 0.2
}
bias_filler {
type: "constant"
value: 0.2
}
}
}
layer {
name: "inception_4c/relu_5x5_reduce"
type: "ReLU"
bottom: "inception_4c/5x5_reduce"
top: "inception_4c/5x5_reduce"
}
layer {
name: "inception_4c/5x5"
type: "Convolution"
bottom: "inception_4c/5x5_reduce"
top: "inception_4c/5x5"
param {
lr_mult: 1
decay_mult: 1
}
param {
lr_mult: 2
decay_mult: 0
}
convolution_param {
num_output: 64
pad: 2
kernel_size: 5
weight_filler {
type: "xavier"
std: 0.03
}
bias_filler {
type: "constant"
value: 0.2
}
}
}
layer {
name: "inception_4c/relu_5x5"
type: "ReLU"
bottom: "inception_4c/5x5"
top: "inception_4c/5x5"
}
layer {
name: "inception_4c/pool"
type: "Pooling"
bottom: "inception_4b/output"
top: "inception_4c/pool"
pooling_param {
pool: MAX
kernel_size: 3
stride: 1
pad: 1
}
}
layer {
name: "inception_4c/pool_proj"
type: "Convolution"
bottom: "inception_4c/pool"
top: "inception_4c/pool_proj"
param {
lr_mult: 1
decay_mult: 1
}
param {
lr_mult: 2
decay_mult: 0
}
convolution_param {
num_output: 64
kernel_size: 1
weight_filler {
type: "xavier"
std: 0.1
}
bias_filler {
type: "constant"
value: 0.2
}
}
}
layer {
name: "inception_4c/relu_pool_proj"
type: "ReLU"
bottom: "inception_4c/pool_proj"
top: "inception_4c/pool_proj"
}
layer {
name: "inception_4c/output"
type: "Concat"
bottom: "inception_4c/1x1"
bottom: "inception_4c/3x3"
bottom: "inception_4c/5x5"
bottom: "inception_4c/pool_proj"
top: "inception_4c/output"
}
layer {
name: "inception_4d/1x1"
type: "Convolution"
bottom: "inception_4c/output"
top: "inception_4d/1x1"
param {
lr_mult: 1
decay_mult: 1
}
param {
lr_mult: 2
decay_mult: 0
}
convolution_param {
num_output: 112
kernel_size: 1
weight_filler {
type: "xavier"
std: 0.03
}
bias_filler {
type: "constant"
value: 0.2
}
}
}
layer {
name: "inception_4d/relu_1x1"
type: "ReLU"
bottom: "inception_4d/1x1"
top: "inception_4d/1x1"
}
layer {
name: "inception_4d/3x3_reduce"
type: "Convolution"
bottom: "inception_4c/output"
top: "inception_4d/3x3_reduce"
param {
lr_mult: 1
decay_mult: 1
}
param {
lr_mult: 2
decay_mult: 0
}
convolution_param {
num_output: 144
kernel_size: 1
weight_filler {
type: "xavier"
std: 0.09
}
bias_filler {
type: "constant"
value: 0.2
}
}
}
layer {
name: "inception_4d/relu_3x3_reduce"
type: "ReLU"
bottom: "inception_4d/3x3_reduce"
top: "inception_4d/3x3_reduce"
}
layer {
name: "inception_4d/3x3"
type: "Convolution"
bottom: "inception_4d/3x3_reduce"
top: "inception_4d/3x3"
param {
lr_mult: 1
decay_mult: 1
}
param {
lr_mult: 2
decay_mult: 0
}
convolution_param {
num_output: 288
pad: 1
kernel_size: 3
weight_filler {
type: "xavier"
std: 0.03
}
bias_filler {
type: "constant"
value: 0.2
}
}
}
layer {
name: "inception_4d/relu_3x3"
type: "ReLU"
bottom: "inception_4d/3x3"
top: "inception_4d/3x3"
}
layer {
name: "inception_4d/5x5_reduce"
type: "Convolution"
bottom: "inception_4c/output"
top: "inception_4d/5x5_reduce"
param {
lr_mult: 1
decay_mult: 1
}
param {
lr_mult: 2
decay_mult: 0
}
convolution_param {
num_output: 32
kernel_size: 1
weight_filler {
type: "xavier"
std: 0.2
}
bias_filler {
type: "constant"
value: 0.2
}
}
}
layer {
name: "inception_4d/relu_5x5_reduce"
type: "ReLU"
bottom: "inception_4d/5x5_reduce"
top: "inception_4d/5x5_reduce"
}
layer {
name: "inception_4d/5x5"
type: "Convolution"
bottom: "inception_4d/5x5_reduce"
top: "inception_4d/5x5"
param {
lr_mult: 1
decay_mult: 1
}
param {
lr_mult: 2
decay_mult: 0
}
convolution_param {
num_output: 64
pad: 2
kernel_size: 5
weight_filler {
type: "xavier"
std: 0.03
}
bias_filler {
type: "constant"
value: 0.2
}
}
}
layer {
name: "inception_4d/relu_5x5"
type: "ReLU"
bottom: "inception_4d/5x5"
top: "inception_4d/5x5"
}
layer {
name: "inception_4d/pool"
type: "Pooling"
bottom: "inception_4c/output"
top: "inception_4d/pool"
pooling_param {
pool: MAX
kernel_size: 3
stride: 1
pad: 1
}
}
layer {
name: "inception_4d/pool_proj"
type: "Convolution"
bottom: "inception_4d/pool"
top: "inception_4d/pool_proj"
param {
lr_mult: 1
decay_mult: 1
}
param {
lr_mult: 2
decay_mult: 0
}
convolution_param {
num_output: 64
kernel_size: 1
weight_filler {
type: "xavier"
std: 0.1
}
bias_filler {
type: "constant"
value: 0.2
}
}
}
layer {
name: "inception_4d/relu_pool_proj"
type: "ReLU"
bottom: "inception_4d/pool_proj"
top: "inception_4d/pool_proj"
}
layer {
name: "inception_4d/output"
type: "Concat"
bottom: "inception_4d/1x1"
bottom: "inception_4d/3x3"
bottom: "inception_4d/5x5"
bottom: "inception_4d/pool_proj"
top: "inception_4d/output"
}
layer {
name: "loss2/ave_pool"
type: "Pooling"
bottom: "inception_4d/output"
top: "loss2/ave_pool"
pooling_param {
pool: AVE
kernel_size: 5
stride: 3
}
}
layer {
name: "loss2/conv"
type: "Convolution"
bottom: "loss2/ave_pool"
top: "loss2/conv"
param {
lr_mult: 1
decay_mult: 1
}
param {
lr_mult: 2
decay_mult: 0
}
convolution_param {
num_output: 128
kernel_size: 1
weight_filler {
type: "xavier"
std: 0.08
}
bias_filler {
type: "constant"
value: 0.2
}
}
}
layer {
name: "loss2/relu_conv"
type: "ReLU"
bottom: "loss2/conv"
top: "loss2/conv"
}
layer {
name: "loss2/fc"
type: "InnerProduct"
bottom: "loss2/conv"
top: "loss2/fc"
param {
lr_mult: 1
decay_mult: 1
}
param {
lr_mult: 2
decay_mult: 0
}
inner_product_param {
num_output: 1024
weight_filler {
type: "xavier"
std: 0.02
}
bias_filler {
type: "constant"
value: 0.2
}
}
}
layer {
name: "loss2/relu_fc"
type: "ReLU"
bottom: "loss2/fc"
top: "loss2/fc"
}
layer {
name: "loss2/drop_fc"
type: "Dropout"
bottom: "loss2/fc"
top: "loss2/fc"
dropout_param {
dropout_ratio: 0.7
}
}
layer {
name: "loss2/classifier"
type: "InnerProduct"
bottom: "loss2/fc"
top: "loss2/classifier"
param {
lr_mult: 1
decay_mult: 1
}
param {
lr_mult: 2
decay_mult: 0
}
inner_product_param {
num_output: 196
weight_filler {
type: "xavier"
std: 0.0009765625
}
bias_filler {
type: "constant"
value: 0
}
}
}
layer {
name: "loss2/loss"
type: "SoftmaxWithLoss"
bottom: "loss2/classifier"
bottom: "label"
top: "loss2/loss"
loss_weight: 0.3
}
layer {
name: "inception_4e/1x1"
type: "Convolution"
bottom: "inception_4d/output"
top: "inception_4e/1x1"
param {
lr_mult: 1
decay_mult: 1
}
param {
lr_mult: 2
decay_mult: 0
}
convolution_param {
num_output: 256
kernel_size: 1
weight_filler {
type: "xavier"
std: 0.03
}
bias_filler {
type: "constant"
value: 0.2
}
}
}
layer {
name: "inception_4e/relu_1x1"
type: "ReLU"
bottom: "inception_4e/1x1"
top: "inception_4e/1x1"
}
layer {
name: "inception_4e/3x3_reduce"
type: "Convolution"
bottom: "inception_4d/output"
top: "inception_4e/3x3_reduce"
param {
lr_mult: 1
decay_mult: 1
}
param {
lr_mult: 2
decay_mult: 0
}
convolution_param {
num_output: 160
kernel_size: 1
weight_filler {
type: "xavier"
std: 0.09
}
bias_filler {
type: "constant"
value: 0.2
}
}
}
layer {
name: "inception_4e/relu_3x3_reduce"
type: "ReLU"
bottom: "inception_4e/3x3_reduce"
top: "inception_4e/3x3_reduce"
}
layer {
name: "inception_4e/3x3"
type: "Convolution"
bottom: "inception_4e/3x3_reduce"
top: "inception_4e/3x3"
param {
lr_mult: 1
decay_mult: 1
}
param {
lr_mult: 2
decay_mult: 0
}
convolution_param {
num_output: 320
pad: 1
kernel_size: 3
weight_filler {
type: "xavier"
std: 0.03
}
bias_filler {
type: "constant"
value: 0.2
}
}
}
layer {
name: "inception_4e/relu_3x3"
type: "ReLU"
bottom: "inception_4e/3x3"
top: "inception_4e/3x3"
}
layer {
name: "inception_4e/5x5_reduce"
type: "Convolution"
bottom: "inception_4d/output"
top: "inception_4e/5x5_reduce"
param {
lr_mult: 1
decay_mult: 1
}
param {
lr_mult: 2
decay_mult: 0
}
convolution_param {
num_output: 32
kernel_size: 1
weight_filler {
type: "xavier"
std: 0.2
}
bias_filler {
type: "constant"
val
I0509 11:20:18.483393  9215 layer_factory.hpp:77] Creating layer train-data
I0509 11:20:18.485680  9215 db_lmdb.cpp:35] Opened lmdb /mnt/bigdisk/AINDIG4/digits/jobs/20200509-095611-5492/train_db
I0509 11:20:18.485879  9215 net.cpp:84] Creating Layer train-data
I0509 11:20:18.485888  9215 net.cpp:380] train-data -> data
I0509 11:20:18.485905  9215 net.cpp:380] train-data -> label
I0509 11:20:18.485914  9215 data_transformer.cpp:25] Loading mean file from: /mnt/bigdisk/AINDIG4/digits/jobs/20200509-095611-5492/mean.binaryproto
I0509 11:20:18.489759  9215 data_layer.cpp:45] output data size: 50,3,224,224
I0509 11:20:18.658661  9215 net.cpp:122] Setting up train-data
I0509 11:20:18.658681  9215 net.cpp:129] Top shape: 50 3 224 224 (7526400)
I0509 11:20:18.658685  9215 net.cpp:129] Top shape: 50 (50)
I0509 11:20:18.658687  9215 net.cpp:137] Memory required for data: 30105800
I0509 11:20:18.658696  9215 layer_factory.hpp:77] Creating layer label_train-data_1_split
I0509 11:20:18.658722  9215 net.cpp:84] Creating Layer label_train-data_1_split
I0509 11:20:18.658728  9215 net.cpp:406] label_train-data_1_split <- label
I0509 11:20:18.658738  9215 net.cpp:380] label_train-data_1_split -> label_train-data_1_split_0
I0509 11:20:18.658746  9215 net.cpp:380] label_train-data_1_split -> label_train-data_1_split_1
I0509 11:20:18.658751  9215 net.cpp:380] label_train-data_1_split -> label_train-data_1_split_2
I0509 11:20:18.658818  9215 net.cpp:122] Setting up label_train-data_1_split
I0509 11:20:18.658823  9215 net.cpp:129] Top shape: 50 (50)
I0509 11:20:18.658826  9215 net.cpp:129] Top shape: 50 (50)
I0509 11:20:18.658829  9215 net.cpp:129] Top shape: 50 (50)
I0509 11:20:18.658831  9215 net.cpp:137] Memory required for data: 30106400
I0509 11:20:18.658833  9215 layer_factory.hpp:77] Creating layer conv1/7x7_s2
I0509 11:20:18.658848  9215 net.cpp:84] Creating Layer conv1/7x7_s2
I0509 11:20:18.658850  9215 net.cpp:406] conv1/7x7_s2 <- data
I0509 11:20:18.658856  9215 net.cpp:380] conv1/7x7_s2 -> conv1/7x7_s2
I0509 11:20:19.410390  9215 net.cpp:122] Setting up conv1/7x7_s2
I0509 11:20:19.410410  9215 net.cpp:129] Top shape: 50 64 112 112 (40140800)
I0509 11:20:19.410413  9215 net.cpp:137] Memory required for data: 190669600
I0509 11:20:19.410432  9215 layer_factory.hpp:77] Creating layer conv1/relu_7x7
I0509 11:20:19.410441  9215 net.cpp:84] Creating Layer conv1/relu_7x7
I0509 11:20:19.410444  9215 net.cpp:406] conv1/relu_7x7 <- conv1/7x7_s2
I0509 11:20:19.410449  9215 net.cpp:367] conv1/relu_7x7 -> conv1/7x7_s2 (in-place)
I0509 11:20:19.410689  9215 net.cpp:122] Setting up conv1/relu_7x7
I0509 11:20:19.410696  9215 net.cpp:129] Top shape: 50 64 112 112 (40140800)
I0509 11:20:19.410699  9215 net.cpp:137] Memory required for data: 351232800
I0509 11:20:19.410701  9215 layer_factory.hpp:77] Creating layer pool1/3x3_s2
I0509 11:20:19.410709  9215 net.cpp:84] Creating Layer pool1/3x3_s2
I0509 11:20:19.410712  9215 net.cpp:406] pool1/3x3_s2 <- conv1/7x7_s2
I0509 11:20:19.410717  9215 net.cpp:380] pool1/3x3_s2 -> pool1/3x3_s2
I0509 11:20:19.410750  9215 net.cpp:122] Setting up pool1/3x3_s2
I0509 11:20:19.410755  9215 net.cpp:129] Top shape: 50 64 56 56 (10035200)
I0509 11:20:19.410758  9215 net.cpp:137] Memory required for data: 391373600
I0509 11:20:19.410760  9215 layer_factory.hpp:77] Creating layer pool1/norm1
I0509 11:20:19.410768  9215 net.cpp:84] Creating Layer pool1/norm1
I0509 11:20:19.410770  9215 net.cpp:406] pool1/norm1 <- pool1/3x3_s2
I0509 11:20:19.410773  9215 net.cpp:380] pool1/norm1 -> pool1/norm1
I0509 11:20:19.411195  9215 net.cpp:122] Setting up pool1/norm1
I0509 11:20:19.411204  9215 net.cpp:129] Top shape: 50 64 56 56 (10035200)
I0509 11:20:19.411206  9215 net.cpp:137] Memory required for data: 431514400
I0509 11:20:19.411209  9215 layer_factory.hpp:77] Creating layer conv2/3x3_reduce
I0509 11:20:19.411219  9215 net.cpp:84] Creating Layer conv2/3x3_reduce
I0509 11:20:19.411222  9215 net.cpp:406] conv2/3x3_reduce <- pool1/norm1
I0509 11:20:19.411227  9215 net.cpp:380] conv2/3x3_reduce -> conv2/3x3_reduce
I0509 11:20:19.412719  9215 net.cpp:122] Setting up conv2/3x3_reduce
I0509 11:20:19.412729  9215 net.cpp:129] Top shape: 50 64 56 56 (10035200)
I0509 11:20:19.412730  9215 net.cpp:137] Memory required for data: 471655200
I0509 11:20:19.412739  9215 layer_factory.hpp:77] Creating layer conv2/relu_3x3_reduce
I0509 11:20:19.412744  9215 net.cpp:84] Creating Layer conv2/relu_3x3_reduce
I0509 11:20:19.412746  9215 net.cpp:406] conv2/relu_3x3_reduce <- conv2/3x3_reduce
I0509 11:20:19.412755  9215 net.cpp:367] conv2/relu_3x3_reduce -> conv2/3x3_reduce (in-place)
I0509 11:20:19.413064  9215 net.cpp:122] Setting up conv2/relu_3x3_reduce
I0509 11:20:19.413070  9215 net.cpp:129] Top shape: 50 64 56 56 (10035200)
I0509 11:20:19.413072  9215 net.cpp:137] Memory required for data: 511796000
I0509 11:20:19.413075  9215 layer_factory.hpp:77] Creating layer conv2/3x3
I0509 11:20:19.413086  9215 net.cpp:84] Creating Layer conv2/3x3
I0509 11:20:19.413089  9215 net.cpp:406] conv2/3x3 <- conv2/3x3_reduce
I0509 11:20:19.413115  9215 net.cpp:380] conv2/3x3 -> conv2/3x3
I0509 11:20:19.416014  9215 net.cpp:122] Setting up conv2/3x3
I0509 11:20:19.416028  9215 net.cpp:129] Top shape: 50 192 56 56 (30105600)
I0509 11:20:19.416031  9215 net.cpp:137] Memory required for data: 632218400
I0509 11:20:19.416039  9215 layer_factory.hpp:77] Creating layer conv2/relu_3x3
I0509 11:20:19.416044  9215 net.cpp:84] Creating Layer conv2/relu_3x3
I0509 11:20:19.416046  9215 net.cpp:406] conv2/relu_3x3 <- conv2/3x3
I0509 11:20:19.416052  9215 net.cpp:367] conv2/relu_3x3 -> conv2/3x3 (in-place)
I0509 11:20:19.416355  9215 net.cpp:122] Setting up conv2/relu_3x3
I0509 11:20:19.416363  9215 net.cpp:129] Top shape: 50 192 56 56 (30105600)
I0509 11:20:19.416365  9215 net.cpp:137] Memory required for data: 752640800
I0509 11:20:19.416368  9215 layer_factory.hpp:77] Creating layer conv2/norm2
I0509 11:20:19.416374  9215 net.cpp:84] Creating Layer conv2/norm2
I0509 11:20:19.416378  9215 net.cpp:406] conv2/norm2 <- conv2/3x3
I0509 11:20:19.416383  9215 net.cpp:380] conv2/norm2 -> conv2/norm2
I0509 11:20:19.417018  9215 net.cpp:122] Setting up conv2/norm2
I0509 11:20:19.417026  9215 net.cpp:129] Top shape: 50 192 56 56 (30105600)
I0509 11:20:19.417028  9215 net.cpp:137] Memory required for data: 873063200
I0509 11:20:19.417032  9215 layer_factory.hpp:77] Creating layer pool2/3x3_s2
I0509 11:20:19.417038  9215 net.cpp:84] Creating Layer pool2/3x3_s2
I0509 11:20:19.417042  9215 net.cpp:406] pool2/3x3_s2 <- conv2/norm2
I0509 11:20:19.417045  9215 net.cpp:380] pool2/3x3_s2 -> pool2/3x3_s2
I0509 11:20:19.417080  9215 net.cpp:122] Setting up pool2/3x3_s2
I0509 11:20:19.417088  9215 net.cpp:129] Top shape: 50 192 28 28 (7526400)
I0509 11:20:19.417091  9215 net.cpp:137] Memory required for data: 903168800
I0509 11:20:19.417095  9215 layer_factory.hpp:77] Creating layer pool2/3x3_s2_pool2/3x3_s2_0_split
I0509 11:20:19.417102  9215 net.cpp:84] Creating Layer pool2/3x3_s2_pool2/3x3_s2_0_split
I0509 11:20:19.417106  9215 net.cpp:406] pool2/3x3_s2_pool2/3x3_s2_0_split <- pool2/3x3_s2
I0509 11:20:19.417119  9215 net.cpp:380] pool2/3x3_s2_pool2/3x3_s2_0_split -> pool2/3x3_s2_pool2/3x3_s2_0_split_0
I0509 11:20:19.417127  9215 net.cpp:380] pool2/3x3_s2_pool2/3x3_s2_0_split -> pool2/3x3_s2_pool2/3x3_s2_0_split_1
I0509 11:20:19.417135  9215 net.cpp:380] pool2/3x3_s2_pool2/3x3_s2_0_split -> pool2/3x3_s2_pool2/3x3_s2_0_split_2
I0509 11:20:19.417142  9215 net.cpp:380] pool2/3x3_s2_pool2/3x3_s2_0_split -> pool2/3x3_s2_pool2/3x3_s2_0_split_3
I0509 11:20:19.417197  9215 net.cpp:122] Setting up pool2/3x3_s2_pool2/3x3_s2_0_split
I0509 11:20:19.417204  9215 net.cpp:129] Top shape: 50 192 28 28 (7526400)
I0509 11:20:19.417208  9215 net.cpp:129] Top shape: 50 192 28 28 (7526400)
I0509 11:20:19.417213  9215 net.cpp:129] Top shape: 50 192 28 28 (7526400)
I0509 11:20:19.417218  9215 net.cpp:129] Top shape: 50 192 28 28 (7526400)
I0509 11:20:19.417222  9215 net.cpp:137] Memory required for data: 1023591200
I0509 11:20:19.417225  9215 layer_factory.hpp:77] Creating layer inception_3a/1x1
I0509 11:20:19.417237  9215 net.cpp:84] Creating Layer inception_3a/1x1
I0509 11:20:19.417241  9215 net.cpp:406] inception_3a/1x1 <- pool2/3x3_s2_pool2/3x3_s2_0_split_0
I0509 11:20:19.417251  9215 net.cpp:380] inception_3a/1x1 -> inception_3a/1x1
I0509 11:20:19.418884  9215 net.cpp:122] Setting up inception_3a/1x1
I0509 11:20:19.418892  9215 net.cpp:129] Top shape: 50 64 28 28 (2508800)
I0509 11:20:19.418895  9215 net.cpp:137] Memory required for data: 1033626400
I0509 11:20:19.418900  9215 layer_factory.hpp:77] Creating layer inception_3a/relu_1x1
I0509 11:20:19.418905  9215 net.cpp:84] Creating Layer inception_3a/relu_1x1
I0509 11:20:19.418907  9215 net.cpp:406] inception_3a/relu_1x1 <- inception_3a/1x1
I0509 11:20:19.418912  9215 net.cpp:367] inception_3a/relu_1x1 -> inception_3a/1x1 (in-place)
I0509 11:20:19.419219  9215 net.cpp:122] Setting up inception_3a/relu_1x1
I0509 11:20:19.419227  9215 net.cpp:129] Top shape: 50 64 28 28 (2508800)
I0509 11:20:19.419229  9215 net.cpp:137] Memory required for data: 1043661600
I0509 11:20:19.419242  9215 layer_factory.hpp:77] Creating layer inception_3a/3x3_reduce
I0509 11:20:19.419251  9215 net.cpp:84] Creating Layer inception_3a/3x3_reduce
I0509 11:20:19.419255  9215 net.cpp:406] inception_3a/3x3_reduce <- pool2/3x3_s2_pool2/3x3_s2_0_split_1
I0509 11:20:19.419261  9215 net.cpp:380] inception_3a/3x3_reduce -> inception_3a/3x3_reduce
I0509 11:20:19.421257  9215 net.cpp:122] Setting up inception_3a/3x3_reduce
I0509 11:20:19.421265  9215 net.cpp:129] Top shape: 50 96 28 28 (3763200)
I0509 11:20:19.421268  9215 net.cpp:137] Memory required for data: 1058714400
I0509 11:20:19.421277  9215 layer_factory.hpp:77] Creating layer inception_3a/relu_3x3_reduce
I0509 11:20:19.421284  9215 net.cpp:84] Creating Layer inception_3a/relu_3x3_reduce
I0509 11:20:19.421288  9215 net.cpp:406] inception_3a/relu_3x3_reduce <- inception_3a/3x3_reduce
I0509 11:20:19.421293  9215 net.cpp:367] inception_3a/relu_3x3_reduce -> inception_3a/3x3_reduce (in-place)
I0509 11:20:19.421759  9215 net.cpp:122] Setting up inception_3a/relu_3x3_reduce
I0509 11:20:19.421768  9215 net.cpp:129] Top shape: 50 96 28 28 (3763200)
I0509 11:20:19.421770  9215 net.cpp:137] Memory required for data: 1073767200
I0509 11:20:19.421773  9215 layer_factory.hpp:77] Creating layer inception_3a/3x3
I0509 11:20:19.421782  9215 net.cpp:84] Creating Layer inception_3a/3x3
I0509 11:20:19.421784  9215 net.cpp:406] inception_3a/3x3 <- inception_3a/3x3_reduce
I0509 11:20:19.421790  9215 net.cpp:380] inception_3a/3x3 -> inception_3a/3x3
I0509 11:20:19.423826  9215 net.cpp:122] Setting up inception_3a/3x3
I0509 11:20:19.423835  9215 net.cpp:129] Top shape: 50 128 28 28 (5017600)
I0509 11:20:19.423838  9215 net.cpp:137] Memory required for data: 1093837600
I0509 11:20:19.423843  9215 layer_factory.hpp:77] Creating layer inception_3a/relu_3x3
I0509 11:20:19.423848  9215 net.cpp:84] Creating Layer inception_3a/relu_3x3
I0509 11:20:19.423851  9215 net.cpp:406] inception_3a/relu_3x3 <- inception_3a/3x3
I0509 11:20:19.423857  9215 net.cpp:367] inception_3a/relu_3x3 -> inception_3a/3x3 (in-place)
I0509 11:20:19.424311  9215 net.cpp:122] Setting up inception_3a/relu_3x3
I0509 11:20:19.424319  9215 net.cpp:129] Top shape: 50 128 28 28 (5017600)
I0509 11:20:19.424321  9215 net.cpp:137] Memory required for data: 1113908000
I0509 11:20:19.424324  9215 layer_factory.hpp:77] Creating layer inception_3a/5x5_reduce
I0509 11:20:19.424333  9215 net.cpp:84] Creating Layer inception_3a/5x5_reduce
I0509 11:20:19.424336  9215 net.cpp:406] inception_3a/5x5_reduce <- pool2/3x3_s2_pool2/3x3_s2_0_split_2
I0509 11:20:19.424342  9215 net.cpp:380] inception_3a/5x5_reduce -> inception_3a/5x5_reduce
I0509 11:20:19.425746  9215 net.cpp:122] Setting up inception_3a/5x5_reduce
I0509 11:20:19.425756  9215 net.cpp:129] Top shape: 50 16 28 28 (627200)
I0509 11:20:19.425760  9215 net.cpp:137] Memory required for data: 1116416800
I0509 11:20:19.425765  9215 layer_factory.hpp:77] Creating layer inception_3a/relu_5x5_reduce
I0509 11:20:19.425770  9215 net.cpp:84] Creating Layer inception_3a/relu_5x5_reduce
I0509 11:20:19.425771  9215 net.cpp:406] inception_3a/relu_5x5_reduce <- inception_3a/5x5_reduce
I0509 11:20:19.425776  9215 net.cpp:367] inception_3a/relu_5x5_reduce -> inception_3a/5x5_reduce (in-place)
I0509 11:20:19.426614  9215 net.cpp:122] Setting up inception_3a/relu_5x5_reduce
I0509 11:20:19.426622  9215 net.cpp:129] Top shape: 50 16 28 28 (627200)
I0509 11:20:19.426625  9215 net.cpp:137] Memory required for data: 1118925600
I0509 11:20:19.426627  9215 layer_factory.hpp:77] Creating layer inception_3a/5x5
I0509 11:20:19.426635  9215 net.cpp:84] Creating Layer inception_3a/5x5
I0509 11:20:19.426638  9215 net.cpp:406] inception_3a/5x5 <- inception_3a/5x5_reduce
I0509 11:20:19.426645  9215 net.cpp:380] inception_3a/5x5 -> inception_3a/5x5
I0509 11:20:19.428696  9215 net.cpp:122] Setting up inception_3a/5x5
I0509 11:20:19.428705  9215 net.cpp:129] Top shape: 50 32 28 28 (1254400)
I0509 11:20:19.428709  9215 net.cpp:137] Memory required for data: 1123943200
I0509 11:20:19.428727  9215 layer_factory.hpp:77] Creating layer inception_3a/relu_5x5
I0509 11:20:19.428733  9215 net.cpp:84] Creating Layer inception_3a/relu_5x5
I0509 11:20:19.428736  9215 net.cpp:406] inception_3a/relu_5x5 <- inception_3a/5x5
I0509 11:20:19.428741  9215 net.cpp:367] inception_3a/relu_5x5 -> inception_3a/5x5 (in-place)
I0509 11:20:19.429255  9215 net.cpp:122] Setting up inception_3a/relu_5x5
I0509 11:20:19.429265  9215 net.cpp:129] Top shape: 50 32 28 28 (1254400)
I0509 11:20:19.429266  9215 net.cpp:137] Memory required for data: 1128960800
I0509 11:20:19.429270  9215 layer_factory.hpp:77] Creating layer inception_3a/pool
I0509 11:20:19.429275  9215 net.cpp:84] Creating Layer inception_3a/pool
I0509 11:20:19.429278  9215 net.cpp:406] inception_3a/pool <- pool2/3x3_s2_pool2/3x3_s2_0_split_3
I0509 11:20:19.429284  9215 net.cpp:380] inception_3a/pool -> inception_3a/pool
I0509 11:20:19.429317  9215 net.cpp:122] Setting up inception_3a/pool
I0509 11:20:19.429322  9215 net.cpp:129] Top shape: 50 192 28 28 (7526400)
I0509 11:20:19.429327  9215 net.cpp:137] Memory required for data: 1159066400
I0509 11:20:19.429329  9215 layer_factory.hpp:77] Creating layer inception_3a/pool_proj
I0509 11:20:19.429337  9215 net.cpp:84] Creating Layer inception_3a/pool_proj
I0509 11:20:19.429339  9215 net.cpp:406] inception_3a/pool_proj <- inception_3a/pool
I0509 11:20:19.429345  9215 net.cpp:380] inception_3a/pool_proj -> inception_3a/pool_proj
I0509 11:20:19.430939  9215 net.cpp:122] Setting up inception_3a/pool_proj
I0509 11:20:19.430948  9215 net.cpp:129] Top shape: 50 32 28 28 (1254400)
I0509 11:20:19.430951  9215 net.cpp:137] Memory required for data: 1164084000
I0509 11:20:19.430960  9215 layer_factory.hpp:77] Creating layer inception_3a/relu_pool_proj
I0509 11:20:19.430966  9215 net.cpp:84] Creating Layer inception_3a/relu_pool_proj
I0509 11:20:19.430969  9215 net.cpp:406] inception_3a/relu_pool_proj <- inception_3a/pool_proj
I0509 11:20:19.430974  9215 net.cpp:367] inception_3a/relu_pool_proj -> inception_3a/pool_proj (in-place)
I0509 11:20:19.431289  9215 net.cpp:122] Setting up inception_3a/relu_pool_proj
I0509 11:20:19.431298  9215 net.cpp:129] Top shape: 50 32 28 28 (1254400)
I0509 11:20:19.431299  9215 net.cpp:137] Memory required for data: 1169101600
I0509 11:20:19.431303  9215 layer_factory.hpp:77] Creating layer inception_3a/output
I0509 11:20:19.431308  9215 net.cpp:84] Creating Layer inception_3a/output
I0509 11:20:19.431310  9215 net.cpp:406] inception_3a/output <- inception_3a/1x1
I0509 11:20:19.431314  9215 net.cpp:406] inception_3a/output <- inception_3a/3x3
I0509 11:20:19.431318  9215 net.cpp:406] inception_3a/output <- inception_3a/5x5
I0509 11:20:19.431319  9215 net.cpp:406] inception_3a/output <- inception_3a/pool_proj
I0509 11:20:19.431324  9215 net.cpp:380] inception_3a/output -> inception_3a/output
I0509 11:20:19.431349  9215 net.cpp:122] Setting up inception_3a/output
I0509 11:20:19.431352  9215 net.cpp:129] Top shape: 50 256 28 28 (10035200)
I0509 11:20:19.431354  9215 net.cpp:137] Memory required for data: 1209242400
I0509 11:20:19.431356  9215 layer_factory.hpp:77] Creating layer inception_3a/output_inception_3a/output_0_split
I0509 11:20:19.431362  9215 net.cpp:84] Creating Layer inception_3a/output_inception_3a/output_0_split
I0509 11:20:19.431365  9215 net.cpp:406] inception_3a/output_inception_3a/output_0_split <- inception_3a/output
I0509 11:20:19.431370  9215 net.cpp:380] inception_3a/output_inception_3a/output_0_split -> inception_3a/output_inception_3a/output_0_split_0
I0509 11:20:19.431377  9215 net.cpp:380] inception_3a/output_inception_3a/output_0_split -> inception_3a/output_inception_3a/output_0_split_1
I0509 11:20:19.431381  9215 net.cpp:380] inception_3a/output_inception_3a/output_0_split -> inception_3a/output_inception_3a/output_0_split_2
I0509 11:20:19.431391  9215 net.cpp:380] inception_3a/output_inception_3a/output_0_split -> inception_3a/output_inception_3a/output_0_split_3
I0509 11:20:19.431432  9215 net.cpp:122] Setting up inception_3a/output_inception_3a/output_0_split
I0509 11:20:19.431445  9215 net.cpp:129] Top shape: 50 256 28 28 (10035200)
I0509 11:20:19.431448  9215 net.cpp:129] Top shape: 50 256 28 28 (10035200)
I0509 11:20:19.431450  9215 net.cpp:129] Top shape: 50 256 28 28 (10035200)
I0509 11:20:19.431453  9215 net.cpp:129] Top shape: 50 256 28 28 (10035200)
I0509 11:20:19.431455  9215 net.cpp:137] Memory required for data: 1369805600
I0509 11:20:19.431458  9215 layer_factory.hpp:77] Creating layer inception_3b/1x1
I0509 11:20:19.431466  9215 net.cpp:84] Creating Layer inception_3b/1x1
I0509 11:20:19.431469  9215 net.cpp:406] inception_3b/1x1 <- inception_3a/output_inception_3a/output_0_split_0
I0509 11:20:19.431474  9215 net.cpp:380] inception_3b/1x1 -> inception_3b/1x1
I0509 11:20:19.433543  9215 net.cpp:122] Setting up inception_3b/1x1
I0509 11:20:19.433552  9215 net.cpp:129] Top shape: 50 128 28 28 (5017600)
I0509 11:20:19.433555  9215 net.cpp:137] Memory required for data: 1389876000
I0509 11:20:19.433560  9215 layer_factory.hpp:77] Creating layer inception_3b/relu_1x1
I0509 11:20:19.433568  9215 net.cpp:84] Creating Layer inception_3b/relu_1x1
I0509 11:20:19.433570  9215 net.cpp:406] inception_3b/relu_1x1 <- inception_3b/1x1
I0509 11:20:19.433574  9215 net.cpp:367] inception_3b/relu_1x1 -> inception_3b/1x1 (in-place)
I0509 11:20:19.434044  9215 net.cpp:122] Setting up inception_3b/relu_1x1
I0509 11:20:19.434053  9215 net.cpp:129] Top shape: 50 128 28 28 (5017600)
I0509 11:20:19.434056  9215 net.cpp:137] Memory required for data: 1409946400
I0509 11:20:19.434058  9215 layer_factory.hpp:77] Creating layer inception_3b/3x3_reduce
I0509 11:20:19.434067  9215 net.cpp:84] Creating Layer inception_3b/3x3_reduce
I0509 11:20:19.434070  9215 net.cpp:406] inception_3b/3x3_reduce <- inception_3a/output_inception_3a/output_0_split_1
I0509 11:20:19.434077  9215 net.cpp:380] inception_3b/3x3_reduce -> inception_3b/3x3_reduce
I0509 11:20:19.435672  9215 net.cpp:122] Setting up inception_3b/3x3_reduce
I0509 11:20:19.435681  9215 net.cpp:129] Top shape: 50 128 28 28 (5017600)
I0509 11:20:19.435684  9215 net.cpp:137] Memory required for data: 1430016800
I0509 11:20:19.435689  9215 layer_factory.hpp:77] Creating layer inception_3b/relu_3x3_reduce
I0509 11:20:19.435695  9215 net.cpp:84] Creating Layer inception_3b/relu_3x3_reduce
I0509 11:20:19.435698  9215 net.cpp:406] inception_3b/relu_3x3_reduce <- inception_3b/3x3_reduce
I0509 11:20:19.435703  9215 net.cpp:367] inception_3b/relu_3x3_reduce -> inception_3b/3x3_reduce (in-place)
I0509 11:20:19.436169  9215 net.cpp:122] Setting up inception_3b/relu_3x3_reduce
I0509 11:20:19.436179  9215 net.cpp:129] Top shape: 50 128 28 28 (5017600)
I0509 11:20:19.436182  9215 net.cpp:137] Memory required for data: 1450087200
I0509 11:20:19.436184  9215 layer_factory.hpp:77] Creating layer inception_3b/3x3
I0509 11:20:19.436199  9215 net.cpp:84] Creating Layer inception_3b/3x3
I0509 11:20:19.436203  9215 net.cpp:406] inception_3b/3x3 <- inception_3b/3x3_reduce
I0509 11:20:19.436208  9215 net.cpp:380] inception_3b/3x3 -> inception_3b/3x3
I0509 11:20:19.439110  9215 net.cpp:122] Setting up inception_3b/3x3
I0509 11:20:19.439118  9215 net.cpp:129] Top shape: 50 192 28 28 (7526400)
I0509 11:20:19.439122  9215 net.cpp:137] Memory required for data: 1480192800
I0509 11:20:19.439127  9215 layer_factory.hpp:77] Creating layer inception_3b/relu_3x3
I0509 11:20:19.439132  9215 net.cpp:84] Creating Layer inception_3b/relu_3x3
I0509 11:20:19.439136  9215 net.cpp:406] inception_3b/relu_3x3 <- inception_3b/3x3
I0509 11:20:19.439139  9215 net.cpp:367] inception_3b/relu_3x3 -> inception_3b/3x3 (in-place)
I0509 11:20:19.440024  9215 net.cpp:122] Setting up inception_3b/relu_3x3
I0509 11:20:19.440035  9215 net.cpp:129] Top shape: 50 192 28 28 (7526400)
I0509 11:20:19.440037  9215 net.cpp:137] Memory required for data: 1510298400
I0509 11:20:19.440040  9215 layer_factory.hpp:77] Creating layer inception_3b/5x5_reduce
I0509 11:20:19.440049  9215 net.cpp:84] Creating Layer inception_3b/5x5_reduce
I0509 11:20:19.440052  9215 net.cpp:406] inception_3b/5x5_reduce <- inception_3a/output_inception_3a/output_0_split_2
I0509 11:20:19.440068  9215 net.cpp:380] inception_3b/5x5_reduce -> inception_3b/5x5_reduce
I0509 11:20:19.441712  9215 net.cpp:122] Setting up inception_3b/5x5_reduce
I0509 11:20:19.441721  9215 net.cpp:129] Top shape: 50 32 28 28 (1254400)
I0509 11:20:19.441723  9215 net.cpp:137] Memory required for data: 1515316000
I0509 11:20:19.441730  9215 layer_factory.hpp:77] Creating layer inception_3b/relu_5x5_reduce
I0509 11:20:19.441735  9215 net.cpp:84] Creating Layer inception_3b/relu_5x5_reduce
I0509 11:20:19.441737  9215 net.cpp:406] inception_3b/relu_5x5_reduce <- inception_3b/5x5_reduce
I0509 11:20:19.441742  9215 net.cpp:367] inception_3b/relu_5x5_reduce -> inception_3b/5x5_reduce (in-place)
I0509 11:20:19.442217  9215 net.cpp:122] Setting up inception_3b/relu_5x5_reduce
I0509 11:20:19.442225  9215 net.cpp:129] Top shape: 50 32 28 28 (1254400)
I0509 11:20:19.442229  9215 net.cpp:137] Memory required for data: 1520333600
I0509 11:20:19.442231  9215 layer_factory.hpp:77] Creating layer inception_3b/5x5
I0509 11:20:19.442240  9215 net.cpp:84] Creating Layer inception_3b/5x5
I0509 11:20:19.442243  9215 net.cpp:406] inception_3b/5x5 <- inception_3b/5x5_reduce
I0509 11:20:19.442250  9215 net.cpp:380] inception_3b/5x5 -> inception_3b/5x5
I0509 11:20:19.444173  9215 net.cpp:122] Setting up inception_3b/5x5
I0509 11:20:19.444183  9215 net.cpp:129] Top shape: 50 96 28 28 (3763200)
I0509 11:20:19.444185  9215 net.cpp:137] Memory required for data: 1535386400
I0509 11:20:19.444190  9215 layer_factory.hpp:77] Creating layer inception_3b/relu_5x5
I0509 11:20:19.444195  9215 net.cpp:84] Creating Layer inception_3b/relu_5x5
I0509 11:20:19.444198  9215 net.cpp:406] inception_3b/relu_5x5 <- inception_3b/5x5
I0509 11:20:19.444207  9215 net.cpp:367] inception_3b/relu_5x5 -> inception_3b/5x5 (in-place)
I0509 11:20:19.444516  9215 net.cpp:122] Setting up inception_3b/relu_5x5
I0509 11:20:19.444525  9215 net.cpp:129] Top shape: 50 96 28 28 (3763200)
I0509 11:20:19.444526  9215 net.cpp:137] Memory required for data: 1550439200
I0509 11:20:19.444530  9215 layer_factory.hpp:77] Creating layer inception_3b/pool
I0509 11:20:19.444536  9215 net.cpp:84] Creating Layer inception_3b/pool
I0509 11:20:19.444540  9215 net.cpp:406] inception_3b/pool <- inception_3a/output_inception_3a/output_0_split_3
I0509 11:20:19.444543  9215 net.cpp:380] inception_3b/pool -> inception_3b/pool
I0509 11:20:19.444579  9215 net.cpp:122] Setting up inception_3b/pool
I0509 11:20:19.444583  9215 net.cpp:129] Top shape: 50 256 28 28 (10035200)
I0509 11:20:19.444586  9215 net.cpp:137] Memory required for data: 1590580000
I0509 11:20:19.444588  9215 layer_factory.hpp:77] Creating layer inception_3b/pool_proj
I0509 11:20:19.444597  9215 net.cpp:84] Creating Layer inception_3b/pool_proj
I0509 11:20:19.444598  9215 net.cpp:406] inception_3b/pool_proj <- inception_3b/pool
I0509 11:20:19.444604  9215 net.cpp:380] inception_3b/pool_proj -> inception_3b/pool_proj
I0509 11:20:19.447229  9215 net.cpp:122] Setting up inception_3b/pool_proj
I0509 11:20:19.447244  9215 net.cpp:129] Top shape: 50 64 28 28 (2508800)
I0509 11:20:19.447247  9215 net.cpp:137] Memory required for data: 1600615200
I0509 11:20:19.447252  9215 layer_factory.hpp:77] Creating layer inception_3b/relu_pool_proj
I0509 11:20:19.447257  9215 net.cpp:84] Creating Layer inception_3b/relu_pool_proj
I0509 11:20:19.447260  9215 net.cpp:406] inception_3b/relu_pool_proj <- inception_3b/pool_proj
I0509 11:20:19.447264  9215 net.cpp:367] inception_3b/relu_pool_proj -> inception_3b/pool_proj (in-place)
I0509 11:20:19.447573  9215 net.cpp:122] Setting up inception_3b/relu_pool_proj
I0509 11:20:19.447582  9215 net.cpp:129] Top shape: 50 64 28 28 (2508800)
I0509 11:20:19.447583  9215 net.cpp:137] Memory required for data: 1610650400
I0509 11:20:19.447587  9215 layer_factory.hpp:77] Creating layer inception_3b/output
I0509 11:20:19.447590  9215 net.cpp:84] Creating Layer inception_3b/output
I0509 11:20:19.447593  9215 net.cpp:406] inception_3b/output <- inception_3b/1x1
I0509 11:20:19.447610  9215 net.cpp:406] inception_3b/output <- inception_3b/3x3
I0509 11:20:19.447613  9215 net.cpp:406] inception_3b/output <- inception_3b/5x5
I0509 11:20:19.447616  9215 net.cpp:406] inception_3b/output <- inception_3b/pool_proj
I0509 11:20:19.447623  9215 net.cpp:380] inception_3b/output -> inception_3b/output
I0509 11:20:19.447643  9215 net.cpp:122] Setting up inception_3b/output
I0509 11:20:19.447649  9215 net.cpp:129] Top shape: 50 480 28 28 (18816000)
I0509 11:20:19.447650  9215 net.cpp:137] Memory required for data: 1685914400
I0509 11:20:19.447652  9215 layer_factory.hpp:77] Creating layer pool3/3x3_s2
I0509 11:20:19.447659  9215 net.cpp:84] Creating Layer pool3/3x3_s2
I0509 11:20:19.447661  9215 net.cpp:406] pool3/3x3_s2 <- inception_3b/output
I0509 11:20:19.447665  9215 net.cpp:380] pool3/3x3_s2 -> pool3/3x3_s2
I0509 11:20:19.447696  9215 net.cpp:122] Setting up pool3/3x3_s2
I0509 11:20:19.447700  9215 net.cpp:129] Top shape: 50 480 14 14 (4704000)
I0509 11:20:19.447703  9215 net.cpp:137] Memory required for data: 1704730400
I0509 11:20:19.447705  9215 layer_factory.hpp:77] Creating layer pool3/3x3_s2_pool3/3x3_s2_0_split
I0509 11:20:19.447710  9215 net.cpp:84] Creating Layer pool3/3x3_s2_pool3/3x3_s2_0_split
I0509 11:20:19.447712  9215 net.cpp:406] pool3/3x3_s2_pool3/3x3_s2_0_split <- pool3/3x3_s2
I0509 11:20:19.447717  9215 net.cpp:380] pool3/3x3_s2_pool3/3x3_s2_0_split -> pool3/3x3_s2_pool3/3x3_s2_0_split_0
I0509 11:20:19.447722  9215 net.cpp:380] pool3/3x3_s2_pool3/3x3_s2_0_split -> pool3/3x3_s2_pool3/3x3_s2_0_split_1
I0509 11:20:19.447727  9215 net.cpp:380] pool3/3x3_s2_pool3/3x3_s2_0_split -> pool3/3x3_s2_pool3/3x3_s2_0_split_2
I0509 11:20:19.447732  9215 net.cpp:380] pool3/3x3_s2_pool3/3x3_s2_0_split -> pool3/3x3_s2_pool3/3x3_s2_0_split_3
I0509 11:20:19.447772  9215 net.cpp:122] Setting up pool3/3x3_s2_pool3/3x3_s2_0_split
I0509 11:20:19.447777  9215 net.cpp:129] Top shape: 50 480 14 14 (4704000)
I0509 11:20:19.447779  9215 net.cpp:129] Top shape: 50 480 14 14 (4704000)
I0509 11:20:19.447782  9215 net.cpp:129] Top shape: 50 480 14 14 (4704000)
I0509 11:20:19.447784  9215 net.cpp:129] Top shape: 50 480 14 14 (4704000)
I0509 11:20:19.447787  9215 net.cpp:137] Memory required for data: 1779994400
I0509 11:20:19.447789  9215 layer_factory.hpp:77] Creating layer inception_4a/1x1
I0509 11:20:19.447798  9215 net.cpp:84] Creating Layer inception_4a/1x1
I0509 11:20:19.447800  9215 net.cpp:406] inception_4a/1x1 <- pool3/3x3_s2_pool3/3x3_s2_0_split_0
I0509 11:20:19.447805  9215 net.cpp:380] inception_4a/1x1 -> inception_4a/1x1
I0509 11:20:19.449787  9215 net.cpp:122] Setting up inception_4a/1x1
I0509 11:20:19.449796  9215 net.cpp:129] Top shape: 50 192 14 14 (1881600)
I0509 11:20:19.449798  9215 net.cpp:137] Memory required for data: 1787520800
I0509 11:20:19.449803  9215 layer_factory.hpp:77] Creating layer inception_4a/relu_1x1
I0509 11:20:19.449810  9215 net.cpp:84] Creating Layer inception_4a/relu_1x1
I0509 11:20:19.449813  9215 net.cpp:406] inception_4a/relu_1x1 <- inception_4a/1x1
I0509 11:20:19.449818  9215 net.cpp:367] inception_4a/relu_1x1 -> inception_4a/1x1 (in-place)
I0509 11:20:19.450350  9215 net.cpp:122] Setting up inception_4a/relu_1x1
I0509 11:20:19.450358  9215 net.cpp:129] Top shape: 50 192 14 14 (1881600)
I0509 11:20:19.450361  9215 net.cpp:137] Memory required for data: 1795047200
I0509 11:20:19.450363  9215 layer_factory.hpp:77] Creating layer inception_4a/3x3_reduce
I0509 11:20:19.450371  9215 net.cpp:84] Creating Layer inception_4a/3x3_reduce
I0509 11:20:19.450374  9215 net.cpp:406] inception_4a/3x3_reduce <- pool3/3x3_s2_pool3/3x3_s2_0_split_1
I0509 11:20:19.450381  9215 net.cpp:380] inception_4a/3x3_reduce -> inception_4a/3x3_reduce
I0509 11:20:19.452598  9215 net.cpp:122] Setting up inception_4a/3x3_reduce
I0509 11:20:19.452607  9215 net.cpp:129] Top shape: 50 96 14 14 (940800)
I0509 11:20:19.452610  9215 net.cpp:137] Memory required for data: 1798810400
I0509 11:20:19.452621  9215 layer_factory.hpp:77] Creating layer inception_4a/relu_3x3_reduce
I0509 11:20:19.452626  9215 net.cpp:84] Creating Layer inception_4a/relu_3x3_reduce
I0509 11:20:19.452638  9215 net.cpp:406] inception_4a/relu_3x3_reduce <- inception_4a/3x3_reduce
I0509 11:20:19.452646  9215 net.cpp:367] inception_4a/relu_3x3_reduce -> inception_4a/3x3_reduce (in-place)
I0509 11:20:19.453541  9215 net.cpp:122] Setting up inception_4a/relu_3x3_reduce
I0509 11:20:19.453549  9215 net.cpp:129] Top shape: 50 96 14 14 (940800)
I0509 11:20:19.453552  9215 net.cpp:137] Memory required for data: 1802573600
I0509 11:20:19.453555  9215 layer_factory.hpp:77] Creating layer inception_4a/3x3
I0509 11:20:19.453563  9215 net.cpp:84] Creating Layer inception_4a/3x3
I0509 11:20:19.453567  9215 net.cpp:406] inception_4a/3x3 <- inception_4a/3x3_reduce
I0509 11:20:19.453573  9215 net.cpp:380] inception_4a/3x3 -> inception_4a/3x3
I0509 11:20:19.455927  9215 net.cpp:122] Setting up inception_4a/3x3
I0509 11:20:19.455936  9215 net.cpp:129] Top shape: 50 208 14 14 (2038400)
I0509 11:20:19.455938  9215 net.cpp:137] Memory required for data: 1810727200
I0509 11:20:19.455945  9215 layer_factory.hpp:77] Creating layer inception_4a/relu_3x3
I0509 11:20:19.455950  9215 net.cpp:84] Creating Layer inception_4a/relu_3x3
I0509 11:20:19.455953  9215 net.cpp:406] inception_4a/relu_3x3 <- inception_4a/3x3
I0509 11:20:19.455957  9215 net.cpp:367] inception_4a/relu_3x3 -> inception_4a/3x3 (in-place)
I0509 11:20:19.456429  9215 net.cpp:122] Setting up inception_4a/relu_3x3
I0509 11:20:19.456439  9215 net.cpp:129] Top shape: 50 208 14 14 (2038400)
I0509 11:20:19.456441  9215 net.cpp:137] Memory required for data: 1818880800
I0509 11:20:19.456444  9215 layer_factory.hpp:77] Creating layer inception_4a/5x5_reduce
I0509 11:20:19.456454  9215 net.cpp:84] Creating Layer inception_4a/5x5_reduce
I0509 11:20:19.456456  9215 net.cpp:406] inception_4a/5x5_reduce <- pool3/3x3_s2_pool3/3x3_s2_0_split_2
I0509 11:20:19.456461  9215 net.cpp:380] inception_4a/5x5_reduce -> inception_4a/5x5_reduce
I0509 11:20:19.457907  9215 net.cpp:122] Setting up inception_4a/5x5_reduce
I0509 11:20:19.457916  9215 net.cpp:129] Top shape: 50 16 14 14 (156800)
I0509 11:20:19.457918  9215 net.cpp:137] Memory required for data: 1819508000
I0509 11:20:19.457923  9215 layer_factory.hpp:77] Creating layer inception_4a/relu_5x5_reduce
I0509 11:20:19.457928  9215 net.cpp:84] Creating Layer inception_4a/relu_5x5_reduce
I0509 11:20:19.457931  9215 net.cpp:406] inception_4a/relu_5x5_reduce <- inception_4a/5x5_reduce
I0509 11:20:19.457937  9215 net.cpp:367] inception_4a/relu_5x5_reduce -> inception_4a/5x5_reduce (in-place)
I0509 11:20:19.458406  9215 net.cpp:122] Setting up inception_4a/relu_5x5_reduce
I0509 11:20:19.458415  9215 net.cpp:129] Top shape: 50 16 14 14 (156800)
I0509 11:20:19.458416  9215 net.cpp:137] Memory required for data: 1820135200
I0509 11:20:19.458420  9215 layer_factory.hpp:77] Creating layer inception_4a/5x5
I0509 11:20:19.458428  9215 net.cpp:84] Creating Layer inception_4a/5x5
I0509 11:20:19.458431  9215 net.cpp:406] inception_4a/5x5 <- inception_4a/5x5_reduce
I0509 11:20:19.458437  9215 net.cpp:380] inception_4a/5x5 -> inception_4a/5x5
I0509 11:20:19.460530  9215 net.cpp:122] Setting up inception_4a/5x5
I0509 11:20:19.460539  9215 net.cpp:129] Top shape: 50 48 14 14 (470400)
I0509 11:20:19.460542  9215 net.cpp:137] Memory required for data: 1822016800
I0509 11:20:19.460547  9215 layer_factory.hpp:77] Creating layer inception_4a/relu_5x5
I0509 11:20:19.460552  9215 net.cpp:84] Creating Layer inception_4a/relu_5x5
I0509 11:20:19.460556  9215 net.cpp:406] inception_4a/relu_5x5 <- inception_4a/5x5
I0509 11:20:19.460561  9215 net.cpp:367] inception_4a/relu_5x5 -> inception_4a/5x5 (in-place)
I0509 11:20:19.460880  9215 net.cpp:122] Setting up inception_4a/relu_5x5
I0509 11:20:19.460887  9215 net.cpp:129] Top shape: 50 48 14 14 (470400)
I0509 11:20:19.460889  9215 net.cpp:137] Memory required for data: 1823898400
I0509 11:20:19.460892  9215 layer_factory.hpp:77] Creating layer inception_4a/pool
I0509 11:20:19.460902  9215 net.cpp:84] Creating Layer inception_4a/pool
I0509 11:20:19.460906  9215 net.cpp:406] inception_4a/pool <- pool3/3x3_s2_pool3/3x3_s2_0_split_3
I0509 11:20:19.460922  9215 net.cpp:380] inception_4a/pool -> inception_4a/pool
I0509 11:20:19.460958  9215 net.cpp:122] Setting up inception_4a/pool
I0509 11:20:19.460963  9215 net.cpp:129] Top shape: 50 480 14 14 (4704000)
I0509 11:20:19.460964  9215 net.cpp:137] Memory required for data: 1842714400
I0509 11:20:19.460968  9215 layer_factory.hpp:77] Creating layer inception_4a/pool_proj
I0509 11:20:19.460974  9215 net.cpp:84] Creating Layer inception_4a/pool_proj
I0509 11:20:19.460978  9215 net.cpp:406] inception_4a/pool_proj <- inception_4a/pool
I0509 11:20:19.460983  9215 net.cpp:380] inception_4a/pool_proj -> inception_4a/pool_proj
I0509 11:20:19.463094  9215 net.cpp:122] Setting up inception_4a/pool_proj
I0509 11:20:19.463104  9215 net.cpp:129] Top shape: 50 64 14 14 (627200)
I0509 11:20:19.463106  9215 net.cpp:137] Memory required for data: 1845223200
I0509 11:20:19.463111  9215 layer_factory.hpp:77] Creating layer inception_4a/relu_pool_proj
I0509 11:20:19.463116  9215 net.cpp:84] Creating Layer inception_4a/relu_pool_proj
I0509 11:20:19.463119  9215 net.cpp:406] inception_4a/relu_pool_proj <- inception_4a/pool_proj
I0509 11:20:19.463125  9215 net.cpp:367] inception_4a/relu_pool_proj -> inception_4a/pool_proj (in-place)
I0509 11:20:19.463601  9215 net.cpp:122] Setting up inception_4a/relu_pool_proj
I0509 11:20:19.463610  9215 net.cpp:129] Top shape: 50 64 14 14 (627200)
I0509 11:20:19.463613  9215 net.cpp:137] Memory required for data: 1847732000
I0509 11:20:19.463615  9215 layer_factory.hpp:77] Creating layer inception_4a/output
I0509 11:20:19.463620  9215 net.cpp:84] Creating Layer inception_4a/output
I0509 11:20:19.463624  9215 net.cpp:406] inception_4a/output <- inception_4a/1x1
I0509 11:20:19.463629  9215 net.cpp:406] inception_4a/output <- inception_4a/3x3
I0509 11:20:19.463632  9215 net.cpp:406] inception_4a/output <- inception_4a/5x5
I0509 11:20:19.463635  9215 net.cpp:406] inception_4a/output <- inception_4a/pool_proj
I0509 11:20:19.463639  9215 net.cpp:380] inception_4a/output -> inception_4a/output
I0509 11:20:19.463661  9215 net.cpp:122] Setting up inception_4a/output
I0509 11:20:19.463666  9215 net.cpp:129] Top shape: 50 512 14 14 (5017600)
I0509 11:20:19.463668  9215 net.cpp:137] Memory required for data: 1867802400
I0509 11:20:19.463670  9215 layer_factory.hpp:77] Creating layer inception_4a/output_inception_4a/output_0_split
I0509 11:20:19.463675  9215 net.cpp:84] Creating Layer inception_4a/output_inception_4a/output_0_split
I0509 11:20:19.463678  9215 net.cpp:406] inception_4a/output_inception_4a/output_0_split <- inception_4a/output
I0509 11:20:19.463683  9215 net.cpp:380] inception_4a/output_inception_4a/output_0_split -> inception_4a/output_inception_4a/output_0_split_0
I0509 11:20:19.463688  9215 net.cpp:380] inception_4a/output_inception_4a/output_0_split -> inception_4a/output_inception_4a/output_0_split_1
I0509 11:20:19.463694  9215 net.cpp:380] inception_4a/output_inception_4a/output_0_split -> inception_4a/output_inception_4a/output_0_split_2
I0509 11:20:19.463699  9215 net.cpp:380] inception_4a/output_inception_4a/output_0_split -> inception_4a/output_inception_4a/output_0_split_3
I0509 11:20:19.463703  9215 net.cpp:380] inception_4a/output_inception_4a/output_0_split -> inception_4a/output_inception_4a/output_0_split_4
I0509 11:20:19.463753  9215 net.cpp:122] Setting up inception_4a/output_inception_4a/output_0_split
I0509 11:20:19.463757  9215 net.cpp:129] Top shape: 50 512 14 14 (5017600)
I0509 11:20:19.463760  9215 net.cpp:129] Top shape: 50 512 14 14 (5017600)
I0509 11:20:19.463763  9215 net.cpp:129] Top shape: 50 512 14 14 (5017600)
I0509 11:20:19.463766  9215 net.cpp:129] Top shape: 50 512 14 14 (5017600)
I0509 11:20:19.463769  9215 net.cpp:129] Top shape: 50 512 14 14 (5017600)
I0509 11:20:19.463771  9215 net.cpp:137] Memory required for data: 1968154400
I0509 11:20:19.463773  9215 layer_factory.hpp:77] Creating layer loss1/ave_pool
I0509 11:20:19.463779  9215 net.cpp:84] Creating Layer loss1/ave_pool
I0509 11:20:19.463781  9215 net.cpp:406] loss1/ave_pool <- inception_4a/output_inception_4a/output_0_split_0
I0509 11:20:19.463794  9215 net.cpp:380] loss1/ave_pool -> loss1/ave_pool
I0509 11:20:19.464133  9215 net.cpp:122] Setting up loss1/ave_pool
I0509 11:20:19.464141  9215 net.cpp:129] Top shape: 50 512 4 4 (409600)
I0509 11:20:19.464143  9215 net.cpp:137] Memory required for data: 1969792800
I0509 11:20:19.464146  9215 layer_factory.hpp:77] Creating layer loss1/conv
I0509 11:20:19.464155  9215 net.cpp:84] Creating Layer loss1/conv
I0509 11:20:19.464159  9215 net.cpp:406] loss1/conv <- loss1/ave_pool
I0509 11:20:19.464164  9215 net.cpp:380] loss1/conv -> loss1/conv
I0509 11:20:19.466650  9215 net.cpp:122] Setting up loss1/conv
I0509 11:20:19.466660  9215 net.cpp:129] Top shape: 50 128 4 4 (102400)
I0509 11:20:19.466661  9215 net.cpp:137] Memory required for data: 1970202400
I0509 11:20:19.466667  9215 layer_factory.hpp:77] Creating layer loss1/relu_conv
I0509 11:20:19.466671  9215 net.cpp:84] Creating Layer loss1/relu_conv
I0509 11:20:19.466675  9215 net.cpp:406] loss1/relu_conv <- loss1/conv
I0509 11:20:19.466681  9215 net.cpp:367] loss1/relu_conv -> loss1/conv (in-place)
I0509 11:20:19.467160  9215 net.cpp:122] Setting up loss1/relu_conv
I0509 11:20:19.467170  9215 net.cpp:129] Top shape: 50 128 4 4 (102400)
I0509 11:20:19.467171  9215 net.cpp:137] Memory required for data: 1970612000
I0509 11:20:19.467175  9215 layer_factory.hpp:77] Creating layer loss1/fc
I0509 11:20:19.467182  9215 net.cpp:84] Creating Layer loss1/fc
I0509 11:20:19.467185  9215 net.cpp:406] loss1/fc <- loss1/conv
I0509 11:20:19.467190  9215 net.cpp:380] loss1/fc -> loss1/fc
I0509 11:20:19.478350  9215 net.cpp:122] Setting up loss1/fc
I0509 11:20:19.478365  9215 net.cpp:129] Top shape: 50 1024 (51200)
I0509 11:20:19.478368  9215 net.cpp:137] Memory required for data: 1970816800
I0509 11:20:19.478374  9215 layer_factory.hpp:77] Creating layer loss1/relu_fc
I0509 11:20:19.478381  9215 net.cpp:84] Creating Layer loss1/relu_fc
I0509 11:20:19.478384  9215 net.cpp:406] loss1/relu_fc <- loss1/fc
I0509 11:20:19.478389  9215 net.cpp:367] loss1/relu_fc -> loss1/fc (in-place)
I0509 11:20:19.478735  9215 net.cpp:122] Setting up loss1/relu_fc
I0509 11:20:19.478742  9215 net.cpp:129] Top shape: 50 1024 (51200)
I0509 11:20:19.478744  9215 net.cpp:137] Memory required for data: 1971021600
I0509 11:20:19.478746  9215 layer_factory.hpp:77] Creating layer loss1/drop_fc
I0509 11:20:19.478767  9215 net.cpp:84] Creating Layer loss1/drop_fc
I0509 11:20:19.478770  9215 net.cpp:406] loss1/drop_fc <- loss1/fc
I0509 11:20:19.478775  9215 net.cpp:367] loss1/drop_fc -> loss1/fc (in-place)
I0509 11:20:19.478797  9215 net.cpp:122] Setting up loss1/drop_fc
I0509 11:20:19.478801  9215 net.cpp:129] Top shape: 50 1024 (51200)
I0509 11:20:19.478803  9215 net.cpp:137] Memory required for data: 1971226400
I0509 11:20:19.478806  9215 layer_factory.hpp:77] Creating layer loss1/classifier
I0509 11:20:19.478812  9215 net.cpp:84] Creating Layer loss1/classifier
I0509 11:20:19.478814  9215 net.cpp:406] loss1/classifier <- loss1/fc
I0509 11:20:19.478821  9215 net.cpp:380] loss1/classifier -> loss1/classifier
I0509 11:20:19.480173  9215 net.cpp:122] Setting up loss1/classifier
I0509 11:20:19.480181  9215 net.cpp:129] Top shape: 50 196 (9800)
I0509 11:20:19.480183  9215 net.cpp:137] Memory required for data: 1971265600
I0509 11:20:19.480188  9215 layer_factory.hpp:77] Creating layer loss1/loss
I0509 11:20:19.480195  9215 net.cpp:84] Creating Layer loss1/loss
I0509 11:20:19.480198  9215 net.cpp:406] loss1/loss <- loss1/classifier
I0509 11:20:19.480202  9215 net.cpp:406] loss1/loss <- label_train-data_1_split_0
I0509 11:20:19.480206  9215 net.cpp:380] loss1/loss -> loss1/loss
I0509 11:20:19.480213  9215 layer_factory.hpp:77] Creating layer loss1/loss
I0509 11:20:19.480779  9215 net.cpp:122] Setting up loss1/loss
I0509 11:20:19.480787  9215 net.cpp:129] Top shape: (1)
I0509 11:20:19.480789  9215 net.cpp:132]     with loss weight 0.3
I0509 11:20:19.480805  9215 net.cpp:137] Memory required for data: 1971265604
I0509 11:20:19.480821  9215 layer_factory.hpp:77] Creating layer inception_4b/1x1
I0509 11:20:19.480832  9215 net.cpp:84] Creating Layer inception_4b/1x1
I0509 11:20:19.480835  9215 net.cpp:406] inception_4b/1x1 <- inception_4a/output_inception_4a/output_0_split_1
I0509 11:20:19.480844  9215 net.cpp:380] inception_4b/1x1 -> inception_4b/1x1
I0509 11:20:19.482647  9215 net.cpp:122] Setting up inception_4b/1x1
I0509 11:20:19.482656  9215 net.cpp:129] Top shape: 50 160 14 14 (1568000)
I0509 11:20:19.482658  9215 net.cpp:137] Memory required for data: 1977537604
I0509 11:20:19.482663  9215 layer_factory.hpp:77] Creating layer inception_4b/relu_1x1
I0509 11:20:19.482668  9215 net.cpp:84] Creating Layer inception_4b/relu_1x1
I0509 11:20:19.482671  9215 net.cpp:406] inception_4b/relu_1x1 <- inception_4b/1x1
I0509 11:20:19.482677  9215 net.cpp:367] inception_4b/relu_1x1 -> inception_4b/1x1 (in-place)
I0509 11:20:19.483155  9215 net.cpp:122] Setting up inception_4b/relu_1x1
I0509 11:20:19.483163  9215 net.cpp:129] Top shape: 50 160 14 14 (1568000)
I0509 11:20:19.483165  9215 net.cpp:137] Memory required for data: 1983809604
I0509 11:20:19.483168  9215 layer_factory.hpp:77] Creating layer inception_4b/3x3_reduce
I0509 11:20:19.483177  9215 net.cpp:84] Creating Layer inception_4b/3x3_reduce
I0509 11:20:19.483180  9215 net.cpp:406] inception_4b/3x3_reduce <- inception_4a/output_inception_4a/output_0_split_2
I0509 11:20:19.483186  9215 net.cpp:380] inception_4b/3x3_reduce -> inception_4b/3x3_reduce
I0509 11:20:19.485617  9215 net.cpp:122] Setting up inception_4b/3x3_reduce
I0509 11:20:19.485626  9215 net.cpp:129] Top shape: 50 112 14 14 (1097600)
I0509 11:20:19.485630  9215 net.cpp:137] Memory required for data: 1988200004
I0509 11:20:19.485635  9215 layer_factory.hpp:77] Creating layer inception_4b/relu_3x3_reduce
I0509 11:20:19.485641  9215 net.cpp:84] Creating Layer inception_4b/relu_3x3_reduce
I0509 11:20:19.485644  9215 net.cpp:406] inception_4b/relu_3x3_reduce <- inception_4b/3x3_reduce
I0509 11:20:19.485651  9215 net.cpp:367] inception_4b/relu_3x3_reduce -> inception_4b/3x3_reduce (in-place)
I0509 11:20:19.485958  9215 net.cpp:122] Setting up inception_4b/relu_3x3_reduce
I0509 11:20:19.485965  9215 net.cpp:129] Top shape: 50 112 14 14 (1097600)
I0509 11:20:19.485967  9215 net.cpp:137] Memory required for data: 1992590404
I0509 11:20:19.485970  9215 layer_factory.hpp:77] Creating layer inception_4b/3x3
I0509 11:20:19.485978  9215 net.cpp:84] Creating Layer inception_4b/3x3
I0509 11:20:19.485981  9215 net.cpp:406] inception_4b/3x3 <- inception_4b/3x3_reduce
I0509 11:20:19.485987  9215 net.cpp:380] inception_4b/3x3 -> inception_4b/3x3
I0509 11:20:19.489068  9215 net.cpp:122] Setting up inception_4b/3x3
I0509 11:20:19.489076  9215 net.cpp:129] Top shape: 50 224 14 14 (2195200)
I0509 11:20:19.489079  9215 net.cpp:137] Memory required for data: 2001371204
I0509 11:20:19.489084  9215 layer_factory.hpp:77] Creating layer inception_4b/relu_3x3
I0509 11:20:19.489090  9215 net.cpp:84] Creating Layer inception_4b/relu_3x3
I0509 11:20:19.489094  9215 net.cpp:406] inception_4b/relu_3x3 <- inception_4b/3x3
I0509 11:20:19.489097  9215 net.cpp:367] inception_4b/relu_3x3 -> inception_4b/3x3 (in-place)
I0509 11:20:19.489564  9215 net.cpp:122] Setting up inception_4b/relu_3x3
I0509 11:20:19.489573  9215 net.cpp:129] Top shape: 50 224 14 14 (2195200)
I0509 11:20:19.489576  9215 net.cpp:137] Memory required for data: 2010152004
I0509 11:20:19.489579  9215 layer_factory.hpp:77] Creating layer inception_4b/5x5_reduce
I0509 11:20:19.489588  9215 net.cpp:84] Creating Layer inception_4b/5x5_reduce
I0509 11:20:19.489590  9215 net.cpp:406] inception_4b/5x5_reduce <- inception_4a/output_inception_4a/output_0_split_3
I0509 11:20:19.489596  9215 net.cpp:380] inception_4b/5x5_reduce -> inception_4b/5x5_reduce
I0509 11:20:19.491264  9215 net.cpp:122] Setting up inception_4b/5x5_reduce
I0509 11:20:19.491273  9215 net.cpp:129] Top shape: 50 24 14 14 (235200)
I0509 11:20:19.491276  9215 net.cpp:137] Memory required for data: 2011092804
I0509 11:20:19.491281  9215 layer_factory.hpp:77] Creating layer inception_4b/relu_5x5_reduce
I0509 11:20:19.491297  9215 net.cpp:84] Creating Layer inception_4b/relu_5x5_reduce
I0509 11:20:19.491300  9215 net.cpp:406] inception_4b/relu_5x5_reduce <- inception_4b/5x5_reduce
I0509 11:20:19.491307  9215 net.cpp:367] inception_4b/relu_5x5_reduce -> inception_4b/5x5_reduce (in-place)
I0509 11:20:19.491778  9215 net.cpp:122] Setting up inception_4b/relu_5x5_reduce
I0509 11:20:19.491786  9215 net.cpp:129] Top shape: 50 24 14 14 (235200)
I0509 11:20:19.491789  9215 net.cpp:137] Memory required for data: 2012033604
I0509 11:20:19.491791  9215 layer_factory.hpp:77] Creating layer inception_4b/5x5
I0509 11:20:19.491802  9215 net.cpp:84] Creating Layer inception_4b/5x5
I0509 11:20:19.491807  9215 net.cpp:406] inception_4b/5x5 <- inception_4b/5x5_reduce
I0509 11:20:19.491817  9215 net.cpp:380] inception_4b/5x5 -> inception_4b/5x5
I0509 11:20:19.493798  9215 net.cpp:122] Setting up inception_4b/5x5
I0509 11:20:19.493805  9215 net.cpp:129] Top shape: 50 64 14 14 (627200)
I0509 11:20:19.493808  9215 net.cpp:137] Memory required for data: 2014542404
I0509 11:20:19.493813  9215 layer_factory.hpp:77] Creating layer inception_4b/relu_5x5
I0509 11:20:19.493818  9215 net.cpp:84] Creating Layer inception_4b/relu_5x5
I0509 11:20:19.493821  9215 net.cpp:406] inception_4b/relu_5x5 <- inception_4b/5x5
I0509 11:20:19.493826  9215 net.cpp:367] inception_4b/relu_5x5 -> inception_4b/5x5 (in-place)
I0509 11:20:19.494314  9215 net.cpp:122] Setting up inception_4b/relu_5x5
I0509 11:20:19.494324  9215 net.cpp:129] Top shape: 50 64 14 14 (627200)
I0509 11:20:19.494329  9215 net.cpp:137] Memory required for data: 2017051204
I0509 11:20:19.494334  9215 layer_factory.hpp:77] Creating layer inception_4b/pool
I0509 11:20:19.494343  9215 net.cpp:84] Creating Layer inception_4b/pool
I0509 11:20:19.494346  9215 net.cpp:406] inception_4b/pool <- inception_4a/output_inception_4a/output_0_split_4
I0509 11:20:19.494354  9215 net.cpp:380] inception_4b/pool -> inception_4b/pool
I0509 11:20:19.494408  9215 net.cpp:122] Setting up inception_4b/pool
I0509 11:20:19.494416  9215 net.cpp:129] Top shape: 50 512 14 14 (5017600)
I0509 11:20:19.494419  9215 net.cpp:137] Memory required for data: 2037121604
I0509 11:20:19.494423  9215 layer_factory.hpp:77] Creating layer inception_4b/pool_proj
I0509 11:20:19.494436  9215 net.cpp:84] Creating Layer inception_4b/pool_proj
I0509 11:20:19.494441  9215 net.cpp:406] inception_4b/pool_proj <- inception_4b/pool
I0509 11:20:19.494448  9215 net.cpp:380] inception_4b/pool_proj -> inception_4b/pool_proj
I0509 11:20:19.496037  9215 net.cpp:122] Setting up inception_4b/pool_proj
I0509 11:20:19.496047  9215 net.cpp:129] Top shape: 50 64 14 14 (627200)
I0509 11:20:19.496048  9215 net.cpp:137] Memory required for data: 2039630404
I0509 11:20:19.496053  9215 layer_factory.hpp:77] Creating layer inception_4b/relu_pool_proj
I0509 11:20:19.496060  9215 net.cpp:84] Creating Layer inception_4b/relu_pool_proj
I0509 11:20:19.496063  9215 net.cpp:406] inception_4b/relu_pool_proj <- inception_4b/pool_proj
I0509 11:20:19.496068  9215 net.cpp:367] inception_4b/relu_pool_proj -> inception_4b/pool_proj (in-place)
I0509 11:20:19.496546  9215 net.cpp:122] Setting up inception_4b/relu_pool_proj
I0509 11:20:19.496554  9215 net.cpp:129] Top shape: 50 64 14 14 (627200)
I0509 11:20:19.496556  9215 net.cpp:137] Memory required for data: 2042139204
I0509 11:20:19.496558  9215 layer_factory.hpp:77] Creating layer inception_4b/output
I0509 11:20:19.496565  9215 net.cpp:84] Creating Layer inception_4b/output
I0509 11:20:19.496568  9215 net.cpp:406] inception_4b/output <- inception_4b/1x1
I0509 11:20:19.496572  9215 net.cpp:406] inception_4b/output <- inception_4b/3x3
I0509 11:20:19.496574  9215 net.cpp:406] inception_4b/output <- inception_4b/5x5
I0509 11:20:19.496577  9215 net.cpp:406] inception_4b/output <- inception_4b/pool_proj
I0509 11:20:19.496582  9215 net.cpp:380] inception_4b/output -> inception_4b/output
I0509 11:20:19.496605  9215 net.cpp:122] Setting up inception_4b/output
I0509 11:20:19.496610  9215 net.cpp:129] Top shape: 50 512 14 14 (5017600)
I0509 11:20:19.496620  9215 net.cpp:137] Memory required for data: 2062209604
I0509 11:20:19.496623  9215 layer_factory.hpp:77] Creating layer inception_4b/output_inception_4b/output_0_split
I0509 11:20:19.496628  9215 net.cpp:84] Creating Layer inception_4b/output_inception_4b/output_0_split
I0509 11:20:19.496631  9215 net.cpp:406] inception_4b/output_inception_4b/output_0_split <- inception_4b/output
I0509 11:20:19.496637  9215 net.cpp:380] inception_4b/output_inception_4b/output_0_split -> inception_4b/output_inception_4b/output_0_split_0
I0509 11:20:19.496642  9215 net.cpp:380] inception_4b/output_inception_4b/output_0_split -> inception_4b/output_inception_4b/output_0_split_1
I0509 11:20:19.496649  9215 net.cpp:380] inception_4b/output_inception_4b/output_0_split -> inception_4b/output_inception_4b/output_0_split_2
I0509 11:20:19.496654  9215 net.cpp:380] inception_4b/output_inception_4b/output_0_split -> inception_4b/output_inception_4b/output_0_split_3
I0509 11:20:19.496698  9215 net.cpp:122] Setting up inception_4b/output_inception_4b/output_0_split
I0509 11:20:19.496702  9215 net.cpp:129] Top shape: 50 512 14 14 (5017600)
I0509 11:20:19.496706  9215 net.cpp:129] Top shape: 50 512 14 14 (5017600)
I0509 11:20:19.496708  9215 net.cpp:129] Top shape: 50 512 14 14 (5017600)
I0509 11:20:19.496711  9215 net.cpp:129] Top shape: 50 512 14 14 (5017600)
I0509 11:20:19.496713  9215 net.cpp:137] Memory required for data: 2142491204
I0509 11:20:19.496716  9215 layer_factory.hpp:77] Creating layer inception_4c/1x1
I0509 11:20:19.496723  9215 net.cpp:84] Creating Layer inception_4c/1x1
I0509 11:20:19.496726  9215 net.cpp:406] inception_4c/1x1 <- inception_4b/output_inception_4b/output_0_split_0
I0509 11:20:19.496732  9215 net.cpp:380] inception_4c/1x1 -> inception_4c/1x1
I0509 11:20:19.499447  9215 net.cpp:122] Setting up inception_4c/1x1
I0509 11:20:19.499460  9215 net.cpp:129] Top shape: 50 128 14 14 (1254400)
I0509 11:20:19.499464  9215 net.cpp:137] Memory required for data: 2147508804
I0509 11:20:19.499469  9215 layer_factory.hpp:77] Creating layer inception_4c/relu_1x1
I0509 11:20:19.499475  9215 net.cpp:84] Creating Layer inception_4c/relu_1x1
I0509 11:20:19.499477  9215 net.cpp:406] inception_4c/relu_1x1 <- inception_4c/1x1
I0509 11:20:19.499481  9215 net.cpp:367] inception_4c/relu_1x1 -> inception_4c/1x1 (in-place)
I0509 11:20:19.499809  9215 net.cpp:122] Setting up inception_4c/relu_1x1
I0509 11:20:19.499819  9215 net.cpp:129] Top shape: 50 128 14 14 (1254400)
I0509 11:20:19.499820  9215 net.cpp:137] Memory required for data: 2152526404
I0509 11:20:19.499824  9215 layer_factory.hpp:77] Creating layer inception_4c/3x3_reduce
I0509 11:20:19.499832  9215 net.cpp:84] Creating Layer inception_4c/3x3_reduce
I0509 11:20:19.499835  9215 net.cpp:406] inception_4c/3x3_reduce <- inception_4b/output_inception_4b/output_0_split_1
I0509 11:20:19.499841  9215 net.cpp:380] inception_4c/3x3_reduce -> inception_4c/3x3_reduce
I0509 11:20:19.501727  9215 net.cpp:122] Setting up inception_4c/3x3_reduce
I0509 11:20:19.501736  9215 net.cpp:129] Top shape: 50 128 14 14 (1254400)
I0509 11:20:19.501739  9215 net.cpp:137] Memory required for data: 2157544004
I0509 11:20:19.501744  9215 layer_factory.hpp:77] Creating layer inception_4c/relu_3x3_reduce
I0509 11:20:19.501750  9215 net.cpp:84] Creating Layer inception_4c/relu_3x3_reduce
I0509 11:20:19.501754  9215 net.cpp:406] inception_4c/relu_3x3_reduce <- inception_4c/3x3_reduce
I0509 11:20:19.501758  9215 net.cpp:367] inception_4c/relu_3x3_reduce -> inception_4c/3x3_reduce (in-place)
I0509 11:20:19.502235  9215 net.cpp:122] Setting up inception_4c/relu_3x3_reduce
I0509 11:20:19.502245  9215 net.cpp:129] Top shape: 50 128 14 14 (1254400)
I0509 11:20:19.502247  9215 net.cpp:137] Memory required for data: 2162561604
I0509 11:20:19.502250  9215 layer_factory.hpp:77] Creating layer inception_4c/3x3
I0509 11:20:19.502259  9215 net.cpp:84] Creating Layer inception_4c/3x3
I0509 11:20:19.502262  9215 net.cpp:406] inception_4c/3x3 <- inception_4c/3x3_reduce
I0509 11:20:19.502280  9215 net.cpp:380] inception_4c/3x3 -> inception_4c/3x3
I0509 11:20:19.505710  9215 net.cpp:122] Setting up inception_4c/3x3
I0509 11:20:19.505719  9215 net.cpp:129] Top shape: 50 256 14 14 (2508800)
I0509 11:20:19.505722  9215 net.cpp:137] Memory required for data: 2172596804
I0509 11:20:19.505738  9215 layer_factory.hpp:77] Creating layer inception_4c/relu_3x3
I0509 11:20:19.505743  9215 net.cpp:84] Creating Layer inception_4c/relu_3x3
I0509 11:20:19.505746  9215 net.cpp:406] inception_4c/relu_3x3 <- inception_4c/3x3
I0509 11:20:19.505750  9215 net.cpp:367] inception_4c/relu_3x3 -> inception_4c/3x3 (in-place)
I0509 11:20:19.506222  9215 net.cpp:122] Setting up inception_4c/relu_3x3
I0509 11:20:19.506230  9215 net.cpp:129] Top shape: 50 256 14 14 (2508800)
I0509 11:20:19.506233  9215 net.cpp:137] Memory required for data: 2182632004
I0509 11:20:19.506237  9215 layer_factory.hpp:77] Creating layer inception_4c/5x5_reduce
I0509 11:20:19.506244  9215 net.cpp:84] Creating Layer inception_4c/5x5_reduce
I0509 11:20:19.506248  9215 net.cpp:406] inception_4c/5x5_reduce <- inception_4b/output_inception_4b/output_0_split_2
I0509 11:20:19.506253  9215 net.cpp:380] inception_4c/5x5_reduce -> inception_4c/5x5_reduce
I0509 11:20:19.508213  9215 net.cpp:122] Setting up inception_4c/5x5_reduce
I0509 11:20:19.508222  9215 net.cpp:129] Top shape: 50 24 14 14 (235200)
I0509 11:20:19.508224  9215 net.cpp:137] Memory required for data: 2183572804
I0509 11:20:19.508229  9215 layer_factory.hpp:77] Creating layer inception_4c/relu_5x5_reduce
I0509 11:20:19.508235  9215 net.cpp:84] Creating Layer inception_4c/relu_5x5_reduce
I0509 11:20:19.508239  9215 net.cpp:406] inception_4c/relu_5x5_reduce <- inception_4c/5x5_reduce
I0509 11:20:19.508244  9215 net.cpp:367] inception_4c/relu_5x5_reduce -> inception_4c/5x5_reduce (in-place)
I0509 11:20:19.508716  9215 net.cpp:122] Setting up inception_4c/relu_5x5_reduce
I0509 11:20:19.508724  9215 net.cpp:129] Top shape: 50 24 14 14 (235200)
I0509 11:20:19.508726  9215 net.cpp:137] Memory required for data: 2184513604
I0509 11:20:19.508729  9215 layer_factory.hpp:77] Creating layer inception_4c/5x5
I0509 11:20:19.508739  9215 net.cpp:84] Creating Layer inception_4c/5x5
I0509 11:20:19.508742  9215 net.cpp:406] inception_4c/5x5 <- inception_4c/5x5_reduce
I0509 11:20:19.508747  9215 net.cpp:380] inception_4c/5x5 -> inception_4c/5x5
I0509 11:20:19.510339  9215 net.cpp:122] Setting up inception_4c/5x5
I0509 11:20:19.510346  9215 net.cpp:129] Top shape: 50 64 14 14 (627200)
I0509 11:20:19.510349  9215 net.cpp:137] Memory required for data: 2187022404
I0509 11:20:19.510354  9215 layer_factory.hpp:77] Creating layer inception_4c/relu_5x5
I0509 11:20:19.510360  9215 net.cpp:84] Creating Layer inception_4c/relu_5x5
I0509 11:20:19.510362  9215 net.cpp:406] inception_4c/relu_5x5 <- inception_4c/5x5
I0509 11:20:19.510367  9215 net.cpp:367] inception_4c/relu_5x5 -> inception_4c/5x5 (in-place)
I0509 11:20:19.510845  9215 net.cpp:122] Setting up inception_4c/relu_5x5
I0509 11:20:19.510854  9215 net.cpp:129] Top shape: 50 64 14 14 (627200)
I0509 11:20:19.510856  9215 net.cpp:137] Memory required for data: 2189531204
I0509 11:20:19.510859  9215 layer_factory.hpp:77] Creating layer inception_4c/pool
I0509 11:20:19.510866  9215 net.cpp:84] Creating Layer inception_4c/pool
I0509 11:20:19.510869  9215 net.cpp:406] inception_4c/pool <- inception_4b/output_inception_4b/output_0_split_3
I0509 11:20:19.510874  9215 net.cpp:380] inception_4c/pool -> inception_4c/pool
I0509 11:20:19.510911  9215 net.cpp:122] Setting up inception_4c/pool
I0509 11:20:19.510916  9215 net.cpp:129] Top shape: 50 512 14 14 (5017600)
I0509 11:20:19.510918  9215 net.cpp:137] Memory required for data: 2209601604
I0509 11:20:19.510921  9215 layer_factory.hpp:77] Creating layer inception_4c/pool_proj
I0509 11:20:19.510928  9215 net.cpp:84] Creating Layer inception_4c/pool_proj
I0509 11:20:19.510931  9215 net.cpp:406] inception_4c/pool_proj <- inception_4c/pool
I0509 11:20:19.510937  9215 net.cpp:380] inception_4c/pool_proj -> inception_4c/pool_proj
I0509 11:20:19.514029  9215 net.cpp:122] Setting up inception_4c/pool_proj
I0509 11:20:19.514040  9215 net.cpp:129] Top shape: 50 64 14 14 (627200)
I0509 11:20:19.514042  9215 net.cpp:137] Memory required for data: 2212110404
I0509 11:20:19.514048  9215 layer_factory.hpp:77] Creating layer inception_4c/relu_pool_proj
I0509 11:20:19.514055  9215 net.cpp:84] Creating Layer inception_4c/relu_pool_proj
I0509 11:20:19.514058  9215 net.cpp:406] inception_4c/relu_pool_proj <- inception_4c/pool_proj
I0509 11:20:19.514063  9215 net.cpp:367] inception_4c/relu_pool_proj -> inception_4c/pool_proj (in-place)
I0509 11:20:19.514380  9215 net.cpp:122] Setting up inception_4c/relu_pool_proj
I0509 11:20:19.514387  9215 net.cpp:129] Top shape: 50 64 14 14 (627200)
I0509 11:20:19.514390  9215 net.cpp:137] Memory required for data: 2214619204
I0509 11:20:19.514392  9215 layer_factory.hpp:77] Creating layer inception_4c/output
I0509 11:20:19.514400  9215 net.cpp:84] Creating Layer inception_4c/output
I0509 11:20:19.514402  9215 net.cpp:406] inception_4c/output <- inception_4c/1x1
I0509 11:20:19.514406  9215 net.cpp:406] inception_4c/output <- inception_4c/3x3
I0509 11:20:19.514410  9215 net.cpp:406] inception_4c/output <- inception_4c/5x5
I0509 11:20:19.514411  9215 net.cpp:406] inception_4c/output <- inception_4c/pool_proj
I0509 11:20:19.514415  9215 net.cpp:380] inception_4c/output -> inception_4c/output
I0509 11:20:19.514438  9215 net.cpp:122] Setting up inception_4c/output
I0509 11:20:19.514443  9215 net.cpp:129] Top shape: 50 512 14 14 (5017600)
I0509 11:20:19.514446  9215 net.cpp:137] Memory required for data: 2234689604
I0509 11:20:19.514448  9215 layer_factory.hpp:77] Creating layer inception_4c/output_inception_4c/output_0_split
I0509 11:20:19.514454  9215 net.cpp:84] Creating Layer inception_4c/output_inception_4c/output_0_split
I0509 11:20:19.514457  9215 net.cpp:406] inception_4c/output_inception_4c/output_0_split <- inception_4c/output
I0509 11:20:19.514461  9215 net.cpp:380] inception_4c/output_inception_4c/output_0_split -> inception_4c/output_inception_4c/output_0_split_0
I0509 11:20:19.514468  9215 net.cpp:380] inception_4c/output_inception_4c/output_0_split -> inception_4c/output_inception_4c/output_0_split_1
I0509 11:20:19.514473  9215 net.cpp:380] inception_4c/output_inception_4c/output_0_split -> inception_4c/output_inception_4c/output_0_split_2
I0509 11:20:19.514477  9215 net.cpp:380] inception_4c/output_inception_4c/output_0_split -> inception_4c/output_inception_4c/output_0_split_3
I0509 11:20:19.514519  9215 net.cpp:122] Setting up inception_4c/output_inception_4c/output_0_split
I0509 11:20:19.514524  9215 net.cpp:129] Top shape: 50 512 14 14 (5017600)
I0509 11:20:19.514528  9215 net.cpp:129] Top shape: 50 512 14 14 (5017600)
I0509 11:20:19.514530  9215 net.cpp:129] Top shape: 50 512 14 14 (5017600)
I0509 11:20:19.514533  9215 net.cpp:129] Top shape: 50 512 14 14 (5017600)
I0509 11:20:19.514535  9215 net.cpp:137] Memory required for data: 2314971204
I0509 11:20:19.514537  9215 layer_factory.hpp:77] Creating layer inception_4d/1x1
I0509 11:20:19.514544  9215 net.cpp:84] Creating Layer inception_4d/1x1
I0509 11:20:19.514547  9215 net.cpp:406] inception_4d/1x1 <- inception_4c/output_inception_4c/output_0_split_0
I0509 11:20:19.514554  9215 net.cpp:380] inception_4d/1x1 -> inception_4d/1x1
I0509 11:20:19.516809  9215 net.cpp:122] Setting up inception_4d/1x1
I0509 11:20:19.516819  9215 net.cpp:129] Top shape: 50 112 14 14 (1097600)
I0509 11:20:19.516822  9215 net.cpp:137] Memory required for data: 2319361604
I0509 11:20:19.516827  9215 layer_factory.hpp:77] Creating layer inception_4d/relu_1x1
I0509 11:20:19.516834  9215 net.cpp:84] Creating Layer inception_4d/relu_1x1
I0509 11:20:19.516837  9215 net.cpp:406] inception_4d/relu_1x1 <- inception_4d/1x1
I0509 11:20:19.516841  9215 net.cpp:367] inception_4d/relu_1x1 -> inception_4d/1x1 (in-place)
I0509 11:20:19.517326  9215 net.cpp:122] Setting up inception_4d/relu_1x1
I0509 11:20:19.517334  9215 net.cpp:129] Top shape: 50 112 14 14 (1097600)
I0509 11:20:19.517336  9215 net.cpp:137] Memory required for data: 2323752004
I0509 11:20:19.517352  9215 layer_factory.hpp:77] Creating layer inception_4d/3x3_reduce
I0509 11:20:19.517361  9215 net.cpp:84] Creating Layer inception_4d/3x3_reduce
I0509 11:20:19.517364  9215 net.cpp:406] inception_4d/3x3_reduce <- inception_4c/output_inception_4c/output_0_split_1
I0509 11:20:19.517371  9215 net.cpp:380] inception_4d/3x3_reduce -> inception_4d/3x3_reduce
I0509 11:20:19.519354  9215 net.cpp:122] Setting up inception_4d/3x3_reduce
I0509 11:20:19.519366  9215 net.cpp:129] Top shape: 50 144 14 14 (1411200)
I0509 11:20:19.519369  9215 net.cpp:137] Memory required for data: 2329396804
I0509 11:20:19.519377  9215 layer_factory.hpp:77] Creating layer inception_4d/relu_3x3_reduce
I0509 11:20:19.519387  9215 net.cpp:84] Creating Layer inception_4d/relu_3x3_reduce
I0509 11:20:19.519392  9215 net.cpp:406] inception_4d/relu_3x3_reduce <- inception_4d/3x3_reduce
I0509 11:20:19.519397  9215 net.cpp:367] inception_4d/relu_3x3_reduce -> inception_4d/3x3_reduce (in-place)
I0509 11:20:19.520027  9215 net.cpp:122] Setting up inception_4d/relu_3x3_reduce
I0509 11:20:19.520036  9215 net.cpp:129] Top shape: 50 144 14 14 (1411200)
I0509 11:20:19.520040  9215 net.cpp:137] Memory required for data: 2335041604
I0509 11:20:19.520042  9215 layer_factory.hpp:77] Creating layer inception_4d/3x3
I0509 11:20:19.520051  9215 net.cpp:84] Creating Layer inception_4d/3x3
I0509 11:20:19.520054  9215 net.cpp:406] inception_4d/3x3 <- inception_4d/3x3_reduce
I0509 11:20:19.520061  9215 net.cpp:380] inception_4d/3x3 -> inception_4d/3x3
I0509 11:20:19.524215  9215 net.cpp:122] Setting up inception_4d/3x3
I0509 11:20:19.524227  9215 net.cpp:129] Top shape: 50 288 14 14 (2822400)
I0509 11:20:19.524230  9215 net.cpp:137] Memory required for data: 2346331204
I0509 11:20:19.524236  9215 layer_factory.hpp:77] Creating layer inception_4d/relu_3x3
I0509 11:20:19.524242  9215 net.cpp:84] Creating Layer inception_4d/relu_3x3
I0509 11:20:19.524245  9215 net.cpp:406] inception_4d/relu_3x3 <- inception_4d/3x3
I0509 11:20:19.524251  9215 net.cpp:367] inception_4d/relu_3x3 -> inception_4d/3x3 (in-place)
I0509 11:20:19.524729  9215 net.cpp:122] Setting up inception_4d/relu_3x3
I0509 11:20:19.524737  9215 net.cpp:129] Top shape: 50 288 14 14 (2822400)
I0509 11:20:19.524739  9215 net.cpp:137] Memory required for data: 2357620804
I0509 11:20:19.524742  9215 layer_factory.hpp:77] Creating layer inception_4d/5x5_reduce
I0509 11:20:19.524755  9215 net.cpp:84] Creating Layer inception_4d/5x5_reduce
I0509 11:20:19.524760  9215 net.cpp:406] inception_4d/5x5_reduce <- inception_4c/output_inception_4c/output_0_split_2
I0509 11:20:19.524767  9215 net.cpp:380] inception_4d/5x5_reduce -> inception_4d/5x5_reduce
I0509 11:20:19.526298  9215 net.cpp:122] Setting up inception_4d/5x5_reduce
I0509 11:20:19.526307  9215 net.cpp:129] Top shape: 50 32 14 14 (313600)
I0509 11:20:19.526310  9215 net.cpp:137] Memory required for data: 2358875204
I0509 11:20:19.526314  9215 layer_factory.hpp:77] Creating layer inception_4d/relu_5x5_reduce
I0509 11:20:19.526321  9215 net.cpp:84] Creating Layer inception_4d/relu_5x5_reduce
I0509 11:20:19.526324  9215 net.cpp:406] inception_4d/relu_5x5_reduce <- inception_4d/5x5_reduce
I0509 11:20:19.526329  9215 net.cpp:367] inception_4d/relu_5x5_reduce -> inception_4d/5x5_reduce (in-place)
I0509 11:20:19.526809  9215 net.cpp:122] Setting up inception_4d/relu_5x5_reduce
I0509 11:20:19.526818  9215 net.cpp:129] Top shape: 50 32 14 14 (313600)
I0509 11:20:19.526820  9215 net.cpp:137] Memory required for data: 2360129604
I0509 11:20:19.526823  9215 layer_factory.hpp:77] Creating layer inception_4d/5x5
I0509 11:20:19.526831  9215 net.cpp:84] Creating Layer inception_4d/5x5
I0509 11:20:19.526835  9215 net.cpp:406] inception_4d/5x5 <- inception_4d/5x5_reduce
I0509 11:20:19.526841  9215 net.cpp:380] inception_4d/5x5 -> inception_4d/5x5
I0509 11:20:19.528517  9215 net.cpp:122] Setting up inception_4d/5x5
I0509 11:20:19.528527  9215 net.cpp:129] Top shape: 50 64 14 14 (627200)
I0509 11:20:19.528529  9215 net.cpp:137] Memory required for data: 2362638404
I0509 11:20:19.528548  9215 layer_factory.hpp:77] Creating layer inception_4d/relu_5x5
I0509 11:20:19.528555  9215 net.cpp:84] Creating Layer inception_4d/relu_5x5
I0509 11:20:19.528558  9215 net.cpp:406] inception_4d/relu_5x5 <- inception_4d/5x5
I0509 11:20:19.528563  9215 net.cpp:367] inception_4d/relu_5x5 -> inception_4d/5x5 (in-place)
I0509 11:20:19.529526  9215 net.cpp:122] Setting up inception_4d/relu_5x5
I0509 11:20:19.529536  9215 net.cpp:129] Top shape: 50 64 14 14 (627200)
I0509 11:20:19.529537  9215 net.cpp:137] Memory required for data: 2365147204
I0509 11:20:19.529541  9215 layer_factory.hpp:77] Creating layer inception_4d/pool
I0509 11:20:19.529546  9215 net.cpp:84] Creating Layer inception_4d/pool
I0509 11:20:19.529549  9215 net.cpp:406] inception_4d/pool <- inception_4c/output_inception_4c/output_0_split_3
I0509 11:20:19.529556  9215 net.cpp:380] inception_4d/pool -> inception_4d/pool
I0509 11:20:19.529592  9215 net.cpp:122] Setting up inception_4d/pool
I0509 11:20:19.529597  9215 net.cpp:129] Top shape: 50 512 14 14 (5017600)
I0509 11:20:19.529598  9215 net.cpp:137] Memory required for data: 2385217604
I0509 11:20:19.529600  9215 layer_factory.hpp:77] Creating layer inception_4d/pool_proj
I0509 11:20:19.529608  9215 net.cpp:84] Creating Layer inception_4d/pool_proj
I0509 11:20:19.529611  9215 net.cpp:406] inception_4d/pool_proj <- inception_4d/pool
I0509 11:20:19.529618  9215 net.cpp:380] inception_4d/pool_proj -> inception_4d/pool_proj
I0509 11:20:19.531538  9215 net.cpp:122] Setting up inception_4d/pool_proj
I0509 11:20:19.531546  9215 net.cpp:129] Top shape: 50 64 14 14 (627200)
I0509 11:20:19.531549  9215 net.cpp:137] Memory required for data: 2387726404
I0509 11:20:19.531554  9215 layer_factory.hpp:77] Creating layer inception_4d/relu_pool_proj
I0509 11:20:19.531560  9215 net.cpp:84] Creating Layer inception_4d/relu_pool_proj
I0509 11:20:19.531564  9215 net.cpp:406] inception_4d/relu_pool_proj <- inception_4d/pool_proj
I0509 11:20:19.531569  9215 net.cpp:367] inception_4d/relu_pool_proj -> inception_4d/pool_proj (in-place)
I0509 11:20:19.531953  9215 net.cpp:122] Setting up inception_4d/relu_pool_proj
I0509 11:20:19.531961  9215 net.cpp:129] Top shape: 50 64 14 14 (627200)
I0509 11:20:19.531963  9215 net.cpp:137] Memory required for data: 2390235204
I0509 11:20:19.531966  9215 layer_factory.hpp:77] Creating layer inception_4d/output
I0509 11:20:19.531972  9215 net.cpp:84] Creating Layer inception_4d/output
I0509 11:20:19.531975  9215 net.cpp:406] inception_4d/output <- inception_4d/1x1
I0509 11:20:19.531980  9215 net.cpp:406] inception_4d/output <- inception_4d/3x3
I0509 11:20:19.531982  9215 net.cpp:406] inception_4d/output <- inception_4d/5x5
I0509 11:20:19.531985  9215 net.cpp:406] inception_4d/output <- inception_4d/pool_proj
I0509 11:20:19.531989  9215 net.cpp:380] inception_4d/output -> inception_4d/output
I0509 11:20:19.532014  9215 net.cpp:122] Setting up inception_4d/output
I0509 11:20:19.532019  9215 net.cpp:129] Top shape: 50 528 14 14 (5174400)
I0509 11:20:19.532021  9215 net.cpp:137] Memory required for data: 2410932804
I0509 11:20:19.532023  9215 layer_factory.hpp:77] Creating layer inception_4d/output_inception_4d/output_0_split
I0509 11:20:19.532028  9215 net.cpp:84] Creating Layer inception_4d/output_inception_4d/output_0_split
I0509 11:20:19.532032  9215 net.cpp:406] inception_4d/output_inception_4d/output_0_split <- inception_4d/output
I0509 11:20:19.532037  9215 net.cpp:380] inception_4d/output_inception_4d/output_0_split -> inception_4d/output_inception_4d/output_0_split_0
I0509 11:20:19.532043  9215 net.cpp:380] inception_4d/output_inception_4d/output_0_split -> inception_4d/output_inception_4d/output_0_split_1
I0509 11:20:19.532048  9215 net.cpp:380] inception_4d/output_inception_4d/output_0_split -> inception_4d/output_inception_4d/output_0_split_2
I0509 11:20:19.532052  9215 net.cpp:380] inception_4d/output_inception_4d/output_0_split -> inception_4d/output_inception_4d/output_0_split_3
I0509 11:20:19.532058  9215 net.cpp:380] inception_4d/output_inception_4d/output_0_split -> inception_4d/output_inception_4d/output_0_split_4
I0509 11:20:19.532117  9215 net.cpp:122] Setting up inception_4d/output_inception_4d/output_0_split
I0509 11:20:19.532122  9215 net.cpp:129] Top shape: 50 528 14 14 (5174400)
I0509 11:20:19.532125  9215 net.cpp:129] Top shape: 50 528 14 14 (5174400)
I0509 11:20:19.532128  9215 net.cpp:129] Top shape: 50 528 14 14 (5174400)
I0509 11:20:19.532131  9215 net.cpp:129] Top shape: 50 528 14 14 (5174400)
I0509 11:20:19.532135  9215 net.cpp:129] Top shape: 50 528 14 14 (5174400)
I0509 11:20:19.532136  9215 net.cpp:137] Memory required for data: 2514420804
I0509 11:20:19.532138  9215 layer_factory.hpp:77] Creating layer loss2/ave_pool
I0509 11:20:19.532147  9215 net.cpp:84] Creating Layer loss2/ave_pool
I0509 11:20:19.532150  9215 net.cpp:406] loss2/ave_pool <- inception_4d/output_inception_4d/output_0_split_0
I0509 11:20:19.532155  9215 net.cpp:380] loss2/ave_pool -> loss2/ave_pool
I0509 11:20:19.532654  9215 net.cpp:122] Setting up loss2/ave_pool
I0509 11:20:19.532663  9215 net.cpp:129] Top shape: 50 528 4 4 (422400)
I0509 11:20:19.532665  9215 net.cpp:137] Memory required for data: 2516110404
I0509 11:20:19.532668  9215 layer_factory.hpp:77] Creating layer loss2/conv
I0509 11:20:19.532676  9215 net.cpp:84] Creating Layer loss2/conv
I0509 11:20:19.532680  9215 net.cpp:406] loss2/conv <- loss2/ave_pool
I0509 11:20:19.532685  9215 net.cpp:380] loss2/conv -> loss2/conv
I0509 11:20:19.534989  9215 net.cpp:122] Setting up loss2/conv
I0509 11:20:19.534998  9215 net.cpp:129] Top shape: 50 128 4 4 (102400)
I0509 11:20:19.535001  9215 net.cpp:137] Memory required for data: 2516520004
I0509 11:20:19.535006  9215 layer_factory.hpp:77] Creating layer loss2/relu_conv
I0509 11:20:19.535012  9215 net.cpp:84] Creating Layer loss2/relu_conv
I0509 11:20:19.535014  9215 net.cpp:406] loss2/relu_conv <- loss2/conv
I0509 11:20:19.535019  9215 net.cpp:367] loss2/relu_conv -> loss2/conv (in-place)
I0509 11:20:19.535343  9215 net.cpp:122] Setting up loss2/relu_conv
I0509 11:20:19.535351  9215 net.cpp:129] Top shape: 50 128 4 4 (102400)
I0509 11:20:19.535353  9215 net.cpp:137] Memory required for data: 2516929604
I0509 11:20:19.535356  9215 layer_factory.hpp:77] Creating layer loss2/fc
I0509 11:20:19.535362  9215 net.cpp:84] Creating Layer loss2/fc
I0509 11:20:19.535364  9215 net.cpp:406] loss2/fc <- loss2/conv
I0509 11:20:19.535370  9215 net.cpp:380] loss2/fc -> loss2/fc
I0509 11:20:19.546654  9215 net.cpp:122] Setting up loss2/fc
I0509 11:20:19.546674  9215 net.cpp:129] Top shape: 50 1024 (51200)
I0509 11:20:19.546676  9215 net.cpp:137] Memory required for data: 2517134404
I0509 11:20:19.546685  9215 layer_factory.hpp:77] Creating layer loss2/relu_fc
I0509 11:20:19.546694  9215 net.cpp:84] Creating Layer loss2/relu_fc
I0509 11:20:19.546699  9215 net.cpp:406] loss2/relu_fc <- loss2/fc
I0509 11:20:19.546705  9215 net.cpp:367] loss2/relu_fc -> loss2/fc (in-place)
I0509 11:20:19.547804  9215 net.cpp:122] Setting up loss2/relu_fc
I0509 11:20:19.547813  9215 net.cpp:129] Top shape: 50 1024 (51200)
I0509 11:20:19.547816  9215 net.cpp:137] Memory required for data: 2517339204
I0509 11:20:19.547818  9215 layer_factory.hpp:77] Creating layer loss2/drop_fc
I0509 11:20:19.547823  9215 net.cpp:84] Creating Layer loss2/drop_fc
I0509 11:20:19.547827  9215 net.cpp:406] loss2/drop_fc <- loss2/fc
I0509 11:20:19.547832  9215 net.cpp:367] loss2/drop_fc -> loss2/fc (in-place)
I0509 11:20:19.547852  9215 net.cpp:122] Setting up loss2/drop_fc
I0509 11:20:19.547857  9215 net.cpp:129] Top shape: 50 1024 (51200)
I0509 11:20:19.547858  9215 net.cpp:137] Memory required for data: 2517544004
I0509 11:20:19.547860  9215 layer_factory.hpp:77] Creating layer loss2/classifier
I0509 11:20:19.547868  9215 net.cpp:84] Creating Layer loss2/classifier
I0509 11:20:19.547871  9215 net.cpp:406] loss2/classifier <- loss2/fc
I0509 11:20:19.547876  9215 net.cpp:380] loss2/classifier -> loss2/classifier
I0509 11:20:19.549216  9215 net.cpp:122] Setting up loss2/classifier
I0509 11:20:19.549223  9215 net.cpp:129] Top shape: 50 196 (9800)
I0509 11:20:19.549240  9215 net.cpp:137] Memory required for data: 2517583204
I0509 11:20:19.549245  9215 layer_factory.hpp:77] Creating layer loss2/loss
I0509 11:20:19.549252  9215 net.cpp:84] Creating Layer loss2/loss
I0509 11:20:19.549255  9215 net.cpp:406] loss2/loss <- loss2/classifier
I0509 11:20:19.549259  9215 net.cpp:406] loss2/loss <- label_train-data_1_split_1
I0509 11:20:19.549264  9215 net.cpp:380] loss2/loss -> loss2/loss
I0509 11:20:19.549271  9215 layer_factory.hpp:77] Creating layer loss2/loss
I0509 11:20:19.549821  9215 net.cpp:122] Setting up loss2/loss
I0509 11:20:19.549829  9215 net.cpp:129] Top shape: (1)
I0509 11:20:19.549831  9215 net.cpp:132]     with loss weight 0.3
I0509 11:20:19.549840  9215 net.cpp:137] Memory required for data: 2517583208
I0509 11:20:19.549844  9215 layer_factory.hpp:77] Creating layer inception_4e/1x1
I0509 11:20:19.549854  9215 net.cpp:84] Creating Layer inception_4e/1x1
I0509 11:20:19.549857  9215 net.cpp:406] inception_4e/1x1 <- inception_4d/output_inception_4d/output_0_split_1
I0509 11:20:19.549865  9215 net.cpp:380] inception_4e/1x1 -> inception_4e/1x1
I0509 11:20:19.551945  9215 net.cpp:122] Setting up inception_4e/1x1
I0509 11:20:19.551954  9215 net.cpp:129] Top shape: 50 256 14 14 (2508800)
I0509 11:20:19.551957  9215 net.cpp:137] Memory required for data: 2527618408
I0509 11:20:19.551962  9215 layer_factory.hpp:77] Creating layer inception_4e/relu_1x1
I0509 11:20:19.551967  9215 net.cpp:84] Creating Layer inception_4e/relu_1x1
I0509 11:20:19.551975  9215 net.cpp:406] inception_4e/relu_1x1 <- inception_4e/1x1
I0509 11:20:19.551978  9215 net.cpp:367] inception_4e/relu_1x1 -> inception_4e/1x1 (in-place)
I0509 11:20:19.552466  9215 net.cpp:122] Setting up inception_4e/relu_1x1
I0509 11:20:19.552474  9215 net.cpp:129] Top shape: 50 256 14 14 (2508800)
I0509 11:20:19.552479  9215 net.cpp:137] Memory required for data: 2537653608
I0509 11:20:19.552481  9215 layer_factory.hpp:77] Creating layer inception_4e/3x3_reduce
I0509 11:20:19.552489  9215 net.cpp:84] Creating Layer inception_4e/3x3_reduce
I0509 11:20:19.552492  9215 net.cpp:406] inception_4e/3x3_reduce <- inception_4d/output_inception_4d/output_0_split_2
I0509 11:20:19.552497  9215 net.cpp:380] inception_4e/3x3_reduce -> inception_4e/3x3_reduce
I0509 11:20:19.554679  9215 net.cpp:122] Setting up inception_4e/3x3_reduce
I0509 11:20:19.554688  9215 net.cpp:129] Top shape: 50 160 14 14 (1568000)
I0509 11:20:19.554690  9215 net.cpp:137] Memory required for data: 2543925608
I0509 11:20:19.554695  9215 layer_factory.hpp:77] Creating layer inception_4e/relu_3x3_reduce
I0509 11:20:19.554700  9215 net.cpp:84] Creating Layer inception_4e/relu_3x3_reduce
I0509 11:20:19.554703  9215 net.cpp:406] inception_4e/relu_3x3_reduce <- inception_4e/3x3_reduce
I0509 11:20:19.554709  9215 net.cpp:367] inception_4e/relu_3x3_reduce -> inception_4e/3x3_reduce (in-place)
I0509 11:20:19.555200  9215 net.cpp:122] Setting up inception_4e/relu_3x3_reduce
I0509 11:20:19.555209  9215 net.cpp:129] Top shape: 50 160 14 14 (1568000)
I0509 11:20:19.555212  9215 net.cpp:137] Memory required for data: 2550197608
I0509 11:20:19.555214  9215 layer_factory.hpp:77] Creating layer inception_4e/3x3
I0509 11:20:19.555224  9215 net.cpp:84] Creating Layer inception_4e/3x3
I0509 11:20:19.555227  9215 net.cpp:406] inception_4e/3x3 <- inception_4e/3x3_reduce
I0509 11:20:19.555233  9215 net.cpp:380] inception_4e/3x3 -> inception_4e/3x3
I0509 11:20:19.560075  9215 net.cpp:122] Setting up inception_4e/3x3
I0509 11:20:19.560086  9215 net.cpp:129] Top shape: 50 320 14 14 (3136000)
I0509 11:20:19.560088  9215 net.cpp:137] Memory required for data: 2562741608
I0509 11:20:19.560094  9215 layer_factory.hpp:77] Creating layer inception_4e/relu_3x3
I0509 11:20:19.560101  9215 net.cpp:84] Creating Layer inception_4e/relu_3x3
I0509 11:20:19.560104  9215 net.cpp:406] inception_4e/relu_3x3 <- inception_4e/3x3
I0509 11:20:19.560109  9215 net.cpp:367] inception_4e/relu_3x3 -> inception_4e/3x3 (in-place)
I0509 11:20:19.560601  9215 net.cpp:122] Setting up inception_4e/relu_3x3
I0509 11:20:19.560621  9215 net.cpp:129] Top shape: 50 320 14 14 (3136000)
I0509 11:20:19.560623  9215 net.cpp:137] Memory required for data: 2575285608
I0509 11:20:19.560626  9215 layer_factory.hpp:77] Creating layer inception_4e/5x5_reduce
I0509 11:20:19.560638  9215 net.cpp:84] Creating Layer inception_4e/5x5_reduce
I0509 11:20:19.560642  9215 net.cpp:406] inception_4e/5x5_reduce <- inception_4d/output_inception_4d/output_0_split_3
I0509 11:20:19.560647  9215 net.cpp:380] inception_4e/5x5_reduce -> inception_4e/5x5_reduce
I0509 11:20:19.562340  9215 net.cpp:122] Setting up inception_4e/5x5_reduce
I0509 11:20:19.562348  9215 net.cpp:129] Top shape: 50 32 14 14 (313600)
I0509 11:20:19.562351  9215 net.cpp:137] Memory required for data: 2576540008
I0509 11:20:19.562356  9215 layer_factory.hpp:77] Creating layer inception_4e/relu_5x5_reduce
I0509 11:20:19.562364  9215 net.cpp:84] Creating Layer inception_4e/relu_5x5_reduce
I0509 11:20:19.562369  9215 net.cpp:406] inception_4e/relu_5x5_reduce <- inception_4e/5x5_reduce
I0509 11:20:19.562376  9215 net.cpp:367] inception_4e/relu_5x5_reduce -> inception_4e/5x5_reduce (in-place)
I0509 11:20:19.562861  9215 net.cpp:122] Setting up inception_4e/relu_5x5_reduce
I0509 11:20:19.562870  9215 net.cpp:129] Top shape: 50 32 14 14 (313600)
I0509 11:20:19.562873  9215 net.cpp:137] Memory required for data: 2577794408
I0509 11:20:19.562875  9215 layer_factory.hpp:77] Creating layer inception_4e/5x5
I0509 11:20:19.562913  9215 net.cpp:84] Creating Layer inception_4e/5x5
I0509 11:20:19.562917  9215 net.cpp:406] inception_4e/5x5 <- inception_4e/5x5_reduce
I0509 11:20:19.562922  9215 net.cpp:380] inception_4e/5x5 -> inception_4e/5x5
I0509 11:20:19.565285  9215 net.cpp:122] Setting up inception_4e/5x5
I0509 11:20:19.565295  9215 net.cpp:129] Top shape: 50 128 14 14 (1254400)
I0509 11:20:19.565299  9215 net.cpp:137] Memory required for data: 2582812008
I0509 11:20:19.565304  9215 layer_factory.hpp:77] Creating layer inception_4e/relu_5x5
I0509 11:20:19.565310  9215 net.cpp:84] Creating Layer inception_4e/relu_5x5
I0509 11:20:19.565312  9215 net.cpp:406] inception_4e/relu_5x5 <- inception_4e/5x5
I0509 11:20:19.565317  9215 net.cpp:367] inception_4e/relu_5x5 -> inception_4e/5x5 (in-place)
I0509 11:20:19.565800  9215 net.cpp:122] Setting up inception_4e/relu_5x5
I0509 11:20:19.565809  9215 net.cpp:129] Top shape: 50 128 14 14 (1254400)
I0509 11:20:19.565810  9215 net.cpp:137] Memory required for data: 2587829608
I0509 11:20:19.565814  9215 layer_factory.hpp:77] Creating layer inception_4e/pool
I0509 11:20:19.565821  9215 net.cpp:84] Creating Layer inception_4e/pool
I0509 11:20:19.565824  9215 net.cpp:406] inception_4e/pool <- inception_4d/output_inception_4d/output_0_split_4
I0509 11:20:19.565829  9215 net.cpp:380] inception_4e/pool -> inception_4e/pool
I0509 11:20:19.565865  9215 net.cpp:122] Setting up inception_4e/pool
I0509 11:20:19.565871  9215 net.cpp:129] Top shape: 50 528 14 14 (5174400)
I0509 11:20:19.565872  9215 net.cpp:137] Memory required for data: 2608527208
I0509 11:20:19.565874  9215 layer_factory.hpp:77] Creating layer inception_4e/pool_proj
I0509 11:20:19.565882  9215 net.cpp:84] Creating Layer inception_4e/pool_proj
I0509 11:20:19.565886  9215 net.cpp:406] inception_4e/pool_proj <- inception_4e/pool
I0509 11:20:19.565891  9215 net.cpp:380] inception_4e/pool_proj -> inception_4e/pool_proj
I0509 11:20:19.567646  9215 net.cpp:122] Setting up inception_4e/pool_proj
I0509 11:20:19.567654  9215 net.cpp:129] Top shape: 50 128 14 14 (1254400)
I0509 11:20:19.567656  9215 net.cpp:137] Memory required for data: 2613544808
I0509 11:20:19.567662  9215 layer_factory.hpp:77] Creating layer inception_4e/relu_pool_proj
I0509 11:20:19.567667  9215 net.cpp:84] Creating Layer inception_4e/relu_pool_proj
I0509 11:20:19.567670  9215 net.cpp:406] inception_4e/relu_pool_proj <- inception_4e/pool_proj
I0509 11:20:19.567677  9215 net.cpp:367] inception_4e/relu_pool_proj -> inception_4e/pool_proj (in-place)
I0509 11:20:19.568162  9215 net.cpp:122] Setting up inception_4e/relu_pool_proj
I0509 11:20:19.568183  9215 net.cpp:129] Top shape: 50 128 14 14 (1254400)
I0509 11:20:19.568186  9215 net.cpp:137] Memory required for data: 2618562408
I0509 11:20:19.568189  9215 layer_factory.hpp:77] Creating layer inception_4e/output
I0509 11:20:19.568195  9215 net.cpp:84] Creating Layer inception_4e/output
I0509 11:20:19.568198  9215 net.cpp:406] inception_4e/output <- inception_4e/1x1
I0509 11:20:19.568202  9215 net.cpp:406] inception_4e/output <- inception_4e/3x3
I0509 11:20:19.568205  9215 net.cpp:406] inception_4e/output <- inception_4e/5x5
I0509 11:20:19.568208  9215 net.cpp:406] inception_4e/output <- inception_4e/pool_proj
I0509 11:20:19.568213  9215 net.cpp:380] inception_4e/output -> inception_4e/output
I0509 11:20:19.568236  9215 net.cpp:122] Setting up inception_4e/output
I0509 11:20:19.568241  9215 net.cpp:129] Top shape: 50 832 14 14 (8153600)
I0509 11:20:19.568243  9215 net.cpp:137] Memory required for data: 2651176808
I0509 11:20:19.568245  9215 layer_factory.hpp:77] Creating layer pool4/3x3_s2
I0509 11:20:19.568251  9215 net.cpp:84] Creating Layer pool4/3x3_s2
I0509 11:20:19.568254  9215 net.cpp:406] pool4/3x3_s2 <- inception_4e/output
I0509 11:20:19.568259  9215 net.cpp:380] pool4/3x3_s2 -> pool4/3x3_s2
I0509 11:20:19.568286  9215 net.cpp:122] Setting up pool4/3x3_s2
I0509 11:20:19.568290  9215 net.cpp:129] Top shape: 50 832 7 7 (2038400)
I0509 11:20:19.568292  9215 net.cpp:137] Memory required for data: 2659330408
I0509 11:20:19.568295  9215 layer_factory.hpp:77] Creating layer pool4/3x3_s2_pool4/3x3_s2_0_split
I0509 11:20:19.568301  9215 net.cpp:84] Creating Layer pool4/3x3_s2_pool4/3x3_s2_0_split
I0509 11:20:19.568303  9215 net.cpp:406] pool4/3x3_s2_pool4/3x3_s2_0_split <- pool4/3x3_s2
I0509 11:20:19.568308  9215 net.cpp:380] pool4/3x3_s2_pool4/3x3_s2_0_split -> pool4/3x3_s2_pool4/3x3_s2_0_split_0
I0509 11:20:19.568313  9215 net.cpp:380] pool4/3x3_s2_pool4/3x3_s2_0_split -> pool4/3x3_s2_pool4/3x3_s2_0_split_1
I0509 11:20:19.568317  9215 net.cpp:380] pool4/3x3_s2_pool4/3x3_s2_0_split -> pool4/3x3_s2_pool4/3x3_s2_0_split_2
I0509 11:20:19.568321  9215 net.cpp:380] pool4/3x3_s2_pool4/3x3_s2_0_split -> pool4/3x3_s2_pool4/3x3_s2_0_split_3
I0509 11:20:19.568363  9215 net.cpp:122] Setting up pool4/3x3_s2_pool4/3x3_s2_0_split
I0509 11:20:19.568367  9215 net.cpp:129] Top shape: 50 832 7 7 (2038400)
I0509 11:20:19.568369  9215 net.cpp:129] Top shape: 50 832 7 7 (2038400)
I0509 11:20:19.568372  9215 net.cpp:129] Top shape: 50 832 7 7 (2038400)
I0509 11:20:19.568375  9215 net.cpp:129] Top shape: 50 832 7 7 (2038400)
I0509 11:20:19.568377  9215 net.cpp:137] Memory required for data: 2691944808
I0509 11:20:19.568379  9215 layer_factory.hpp:77] Creating layer inception_5a/1x1
I0509 11:20:19.568387  9215 net.cpp:84] Creating Layer inception_5a/1x1
I0509 11:20:19.568390  9215 net.cpp:406] inception_5a/1x1 <- pool4/3x3_s2_pool4/3x3_s2_0_split_0
I0509 11:20:19.568397  9215 net.cpp:380] inception_5a/1x1 -> inception_5a/1x1
I0509 11:20:19.571226  9215 net.cpp:122] Setting up inception_5a/1x1
I0509 11:20:19.571236  9215 net.cpp:129] Top shape: 50 256 7 7 (627200)
I0509 11:20:19.571238  9215 net.cpp:137] Memory required for data: 2694453608
I0509 11:20:19.571244  9215 layer_factory.hpp:77] Creating layer inception_5a/relu_1x1
I0509 11:20:19.571249  9215 net.cpp:84] Creating Layer inception_5a/relu_1x1
I0509 11:20:19.571252  9215 net.cpp:406] inception_5a/relu_1x1 <- inception_5a/1x1
I0509 11:20:19.571260  9215 net.cpp:367] inception_5a/relu_1x1 -> inception_5a/1x1 (in-place)
I0509 11:20:19.571753  9215 net.cpp:122] Setting up inception_5a/relu_1x1
I0509 11:20:19.571766  9215 net.cpp:129] Top shape: 50 256 7 7 (627200)
I0509 11:20:19.571768  9215 net.cpp:137] Memory required for data: 2696962408
I0509 11:20:19.571771  9215 layer_factory.hpp:77] Creating layer inception_5a/3x3_reduce
I0509 11:20:19.571779  9215 net.cpp:84] Creating Layer inception_5a/3x3_reduce
I0509 11:20:19.571784  9215 net.cpp:406] inception_5a/3x3_reduce <- pool4/3x3_s2_pool4/3x3_s2_0_split_1
I0509 11:20:19.571789  9215 net.cpp:380] inception_5a/3x3_reduce -> inception_5a/3x3_reduce
I0509 11:20:19.575029  9215 net.cpp:122] Setting up inception_5a/3x3_reduce
I0509 11:20:19.575039  9215 net.cpp:129] Top shape: 50 160 7 7 (392000)
I0509 11:20:19.575050  9215 net.cpp:137] Memory required for data: 2698530408
I0509 11:20:19.575057  9215 layer_factory.hpp:77] Creating layer inception_5a/relu_3x3_reduce
I0509 11:20:19.575062  9215 net.cpp:84] Creating Layer inception_5a/relu_3x3_reduce
I0509 11:20:19.575064  9215 net.cpp:406] inception_5a/relu_3x3_reduce <- inception_5a/3x3_reduce
I0509 11:20:19.575071  9215 net.cpp:367] inception_5a/relu_3x3_reduce -> inception_5a/3x3_reduce (in-place)
I0509 11:20:19.575383  9215 net.cpp:122] Setting up inception_5a/relu_3x3_reduce
I0509 11:20:19.575392  9215 net.cpp:129] Top shape: 50 160 7 7 (392000)
I0509 11:20:19.575394  9215 net.cpp:137] Memory required for data: 2700098408
I0509 11:20:19.575397  9215 layer_factory.hpp:77] Creating layer inception_5a/3x3
I0509 11:20:19.575405  9215 net.cpp:84] Creating Layer inception_5a/3x3
I0509 11:20:19.575408  9215 net.cpp:406] inception_5a/3x3 <- inception_5a/3x3_reduce
I0509 11:20:19.575414  9215 net.cpp:380] inception_5a/3x3 -> inception_5a/3x3
I0509 11:20:19.579741  9215 net.cpp:122] Setting up inception_5a/3x3
I0509 11:20:19.579751  9215 net.cpp:129] Top shape: 50 320 7 7 (784000)
I0509 11:20:19.579753  9215 net.cpp:137] Memory required for data: 2703234408
I0509 11:20:19.579759  9215 layer_factory.hpp:77] Creating layer inception_5a/relu_3x3
I0509 11:20:19.579766  9215 net.cpp:84] Creating Layer inception_5a/relu_3x3
I0509 11:20:19.579769  9215 net.cpp:406] inception_5a/relu_3x3 <- inception_5a/3x3
I0509 11:20:19.579773  9215 net.cpp:367] inception_5a/relu_3x3 -> inception_5a/3x3 (in-place)
I0509 11:20:19.580260  9215 net.cpp:122] Setting up inception_5a/relu_3x3
I0509 11:20:19.580268  9215 net.cpp:129] Top shape: 50 320 7 7 (784000)
I0509 11:20:19.580271  9215 net.cpp:137] Memory required for data: 2706370408
I0509 11:20:19.580273  9215 layer_factory.hpp:77] Creating layer inception_5a/5x5_reduce
I0509 11:20:19.580283  9215 net.cpp:84] Creating Layer inception_5a/5x5_reduce
I0509 11:20:19.580287  9215 net.cpp:406] inception_5a/5x5_reduce <- pool4/3x3_s2_pool4/3x3_s2_0_split_2
I0509 11:20:19.580292  9215 net.cpp:380] inception_5a/5x5_reduce -> inception_5a/5x5_reduce
I0509 11:20:19.582592  9215 net.cpp:122] Setting up inception_5a/5x5_reduce
I0509 11:20:19.582603  9215 net.cpp:129] Top shape: 50 32 7 7 (78400)
I0509 11:20:19.582607  9215 net.cpp:137] Memory required for data: 2706684008
I0509 11:20:19.582612  9215 layer_factory.hpp:77] Creating layer inception_5a/relu_5x5_reduce
I0509 11:20:19.582617  9215 net.cpp:84] Creating Layer inception_5a/relu_5x5_reduce
I0509 11:20:19.582620  9215 net.cpp:406] inception_5a/relu_5x5_reduce <- inception_5a/5x5_reduce
I0509 11:20:19.582639  9215 net.cpp:367] inception_5a/relu_5x5_reduce -> inception_5a/5x5_reduce (in-place)
I0509 11:20:19.583161  9215 net.cpp:122] Setting up inception_5a/relu_5x5_reduce
I0509 11:20:19.583182  9215 net.cpp:129] Top shape: 50 32 7 7 (78400)
I0509 11:20:19.583185  9215 net.cpp:137] Memory required for data: 2706997608
I0509 11:20:19.583189  9215 layer_factory.hpp:77] Creating layer inception_5a/5x5
I0509 11:20:19.583199  9215 net.cpp:84] Creating Layer inception_5a/5x5
I0509 11:20:19.583202  9215 net.cpp:406] inception_5a/5x5 <- inception_5a/5x5_reduce
I0509 11:20:19.583207  9215 net.cpp:380] inception_5a/5x5 -> inception_5a/5x5
I0509 11:20:19.585273  9215 net.cpp:122] Setting up inception_5a/5x5
I0509 11:20:19.585286  9215 net.cpp:129] Top shape: 50 128 7 7 (313600)
I0509 11:20:19.585289  9215 net.cpp:137] Memory required for data: 2708252008
I0509 11:20:19.585294  9215 layer_factory.hpp:77] Creating layer inception_5a/relu_5x5
I0509 11:20:19.585299  9215 net.cpp:84] Creating Layer inception_5a/relu_5x5
I0509 11:20:19.585302  9215 net.cpp:406] inception_5a/relu_5x5 <- inception_5a/5x5
I0509 11:20:19.585307  9215 net.cpp:367] inception_5a/relu_5x5 -> inception_5a/5x5 (in-place)
I0509 11:20:19.585830  9215 net.cpp:122] Setting up inception_5a/relu_5x5
I0509 11:20:19.585855  9215 net.cpp:129] Top shape: 50 128 7 7 (313600)
I0509 11:20:19.585858  9215 net.cpp:137] Memory required for data: 2709506408
I0509 11:20:19.585861  9215 layer_factory.hpp:77] Creating layer inception_5a/pool
I0509 11:20:19.585868  9215 net.cpp:84] Creating Layer inception_5a/pool
I0509 11:20:19.585872  9215 net.cpp:406] inception_5a/pool <- pool4/3x3_s2_pool4/3x3_s2_0_split_3
I0509 11:20:19.585876  9215 net.cpp:380] inception_5a/pool -> inception_5a/pool
I0509 11:20:19.585914  9215 net.cpp:122] Setting up inception_5a/pool
I0509 11:20:19.585919  9215 net.cpp:129] Top shape: 50 832 7 7 (2038400)
I0509 11:20:19.585922  9215 net.cpp:137] Memory required for data: 2717660008
I0509 11:20:19.585923  9215 layer_factory.hpp:77] Creating layer inception_5a/pool_proj
I0509 11:20:19.585932  9215 net.cpp:84] Creating Layer inception_5a/pool_proj
I0509 11:20:19.585934  9215 net.cpp:406] inception_5a/pool_proj <- inception_5a/pool
I0509 11:20:19.585942  9215 net.cpp:380] inception_5a/pool_proj -> inception_5a/pool_proj
I0509 11:20:19.588533  9215 net.cpp:122] Setting up inception_5a/pool_proj
I0509 11:20:19.588547  9215 net.cpp:129] Top shape: 50 128 7 7 (313600)
I0509 11:20:19.588551  9215 net.cpp:137] Memory required for data: 2718914408
I0509 11:20:19.588557  9215 layer_factory.hpp:77] Creating layer inception_5a/relu_pool_proj
I0509 11:20:19.588565  9215 net.cpp:84] Creating Layer inception_5a/relu_pool_proj
I0509 11:20:19.588570  9215 net.cpp:406] inception_5a/relu_pool_proj <- inception_5a/pool_proj
I0509 11:20:19.588578  9215 net.cpp:367] inception_5a/relu_pool_proj -> inception_5a/pool_proj (in-place)
I0509 11:20:19.589108  9215 net.cpp:122] Setting up inception_5a/relu_pool_proj
I0509 11:20:19.589118  9215 net.cpp:129] Top shape: 50 128 7 7 (313600)
I0509 11:20:19.589119  9215 net.cpp:137] Memory required for data: 2720168808
I0509 11:20:19.589123  9215 layer_factory.hpp:77] Creating layer inception_5a/output
I0509 11:20:19.589129  9215 net.cpp:84] Creating Layer inception_5a/output
I0509 11:20:19.589133  9215 net.cpp:406] inception_5a/output <- inception_5a/1x1
I0509 11:20:19.589136  9215 net.cpp:406] inception_5a/output <- inception_5a/3x3
I0509 11:20:19.589139  9215 net.cpp:406] inception_5a/output <- inception_5a/5x5
I0509 11:20:19.589143  9215 net.cpp:406] inception_5a/output <- inception_5a/pool_proj
I0509 11:20:19.589145  9215 net.cpp:380] inception_5a/output -> inception_5a/output
I0509 11:20:19.589191  9215 net.cpp:122] Setting up inception_5a/output
I0509 11:20:19.589198  9215 net.cpp:129] Top shape: 50 832 7 7 (2038400)
I0509 11:20:19.589200  9215 net.cpp:137] Memory required for data: 2728322408
I0509 11:20:19.589202  9215 layer_factory.hpp:77] Creating layer inception_5a/output_inception_5a/output_0_split
I0509 11:20:19.589208  9215 net.cpp:84] Creating Layer inception_5a/output_inception_5a/output_0_split
I0509 11:20:19.589211  9215 net.cpp:406] inception_5a/output_inception_5a/output_0_split <- inception_5a/output
I0509 11:20:19.589217  9215 net.cpp:380] inception_5a/output_inception_5a/output_0_split -> inception_5a/output_inception_5a/output_0_split_0
I0509 11:20:19.589223  9215 net.cpp:380] inception_5a/output_inception_5a/output_0_split -> inception_5a/output_inception_5a/output_0_split_1
I0509 11:20:19.589233  9215 net.cpp:380] inception_5a/output_inception_5a/output_0_split -> inception_5a/output_inception_5a/output_0_split_2
I0509 11:20:19.589237  9215 net.cpp:380] inception_5a/output_inception_5a/output_0_split -> inception_5a/output_inception_5a/output_0_split_3
I0509 11:20:19.589285  9215 net.cpp:122] Setting up inception_5a/output_inception_5a/output_0_split
I0509 11:20:19.589290  9215 net.cpp:129] Top shape: 50 832 7 7 (2038400)
I0509 11:20:19.589293  9215 net.cpp:129] Top shape: 50 832 7 7 (2038400)
I0509 11:20:19.589296  9215 net.cpp:129] Top shape: 50 832 7 7 (2038400)
I0509 11:20:19.589299  9215 net.cpp:129] Top shape: 50 832 7 7 (2038400)
I0509 11:20:19.589301  9215 net.cpp:137] Memory required for data: 2760936808
I0509 11:20:19.589313  9215 layer_factory.hpp:77] Creating layer inception_5b/1x1
I0509 11:20:19.589321  9215 net.cpp:84] Creating Layer inception_5b/1x1
I0509 11:20:19.589324  9215 net.cpp:406] inception_5b/1x1 <- inception_5a/output_inception_5a/output_0_split_0
I0509 11:20:19.589330  9215 net.cpp:380] inception_5b/1x1 -> inception_5b/1x1
I0509 11:20:19.594699  9215 net.cpp:122] Setting up inception_5b/1x1
I0509 11:20:19.594712  9215 net.cpp:129] Top shape: 50 384 7 7 (940800)
I0509 11:20:19.594714  9215 net.cpp:137] Memory required for data: 2764700008
I0509 11:20:19.594720  9215 layer_factory.hpp:77] Creating layer inception_5b/relu_1x1
I0509 11:20:19.594727  9215 net.cpp:84] Creating Layer inception_5b/relu_1x1
I0509 11:20:19.594732  9215 net.cpp:406] inception_5b/relu_1x1 <- inception_5b/1x1
I0509 11:20:19.594735  9215 net.cpp:367] inception_5b/relu_1x1 -> inception_5b/1x1 (in-place)
I0509 11:20:19.595108  9215 net.cpp:122] Setting up inception_5b/relu_1x1
I0509 11:20:19.595116  9215 net.cpp:129] Top shape: 50 384 7 7 (940800)
I0509 11:20:19.595119  9215 net.cpp:137] Memory required for data: 2768463208
I0509 11:20:19.595122  9215 layer_factory.hpp:77] Creating layer inception_5b/3x3_reduce
I0509 11:20:19.595130  9215 net.cpp:84] Creating Layer inception_5b/3x3_reduce
I0509 11:20:19.595134  9215 net.cpp:406] inception_5b/3x3_reduce <- inception_5a/output_inception_5a/output_0_split_1
I0509 11:20:19.595140  9215 net.cpp:380] inception_5b/3x3_reduce -> inception_5b/3x3_reduce
I0509 11:20:19.598101  9215 net.cpp:122] Setting up inception_5b/3x3_reduce
I0509 11:20:19.598111  9215 net.cpp:129] Top shape: 50 192 7 7 (470400)
I0509 11:20:19.598114  9215 net.cpp:137] Memory required for data: 2770344808
I0509 11:20:19.598119  9215 layer_factory.hpp:77] Creating layer inception_5b/relu_3x3_reduce
I0509 11:20:19.598124  9215 net.cpp:84] Creating Layer inception_5b/relu_3x3_reduce
I0509 11:20:19.598129  9215 net.cpp:406] inception_5b/relu_3x3_reduce <- inception_5b/3x3_reduce
I0509 11:20:19.598132  9215 net.cpp:367] inception_5b/relu_3x3_reduce -> inception_5b/3x3_reduce (in-place)
I0509 11:20:19.598484  9215 net.cpp:122] Setting up inception_5b/relu_3x3_reduce
I0509 11:20:19.598502  9215 net.cpp:129] Top shape: 50 192 7 7 (470400)
I0509 11:20:19.598505  9215 net.cpp:137] Memory required for data: 2772226408
I0509 11:20:19.598507  9215 layer_factory.hpp:77] Creating layer inception_5b/3x3
I0509 11:20:19.598515  9215 net.cpp:84] Creating Layer inception_5b/3x3
I0509 11:20:19.598520  9215 net.cpp:406] inception_5b/3x3 <- inception_5b/3x3_reduce
I0509 11:20:19.598525  9215 net.cpp:380] inception_5b/3x3 -> inception_5b/3x3
I0509 11:20:19.604862  9215 net.cpp:122] Setting up inception_5b/3x3
I0509 11:20:19.604876  9215 net.cpp:129] Top shape: 50 384 7 7 (940800)
I0509 11:20:19.604877  9215 net.cpp:137] Memory required for data: 2775989608
I0509 11:20:19.604883  9215 layer_factory.hpp:77] Creating layer inception_5b/relu_3x3
I0509 11:20:19.604889  9215 net.cpp:84] Creating Layer inception_5b/relu_3x3
I0509 11:20:19.604893  9215 net.cpp:406] inception_5b/relu_3x3 <- inception_5b/3x3
I0509 11:20:19.604899  9215 net.cpp:367] inception_5b/relu_3x3 -> inception_5b/3x3 (in-place)
I0509 11:20:19.605417  9215 net.cpp:122] Setting up inception_5b/relu_3x3
I0509 11:20:19.605425  9215 net.cpp:129] Top shape: 50 384 7 7 (940800)
I0509 11:20:19.605427  9215 net.cpp:137] Memory required for data: 2779752808
I0509 11:20:19.605430  9215 layer_factory.hpp:77] Creating layer inception_5b/5x5_reduce
I0509 11:20:19.605450  9215 net.cpp:84] Creating Layer inception_5b/5x5_reduce
I0509 11:20:19.605454  9215 net.cpp:406] inception_5b/5x5_reduce <- inception_5a/output_inception_5a/output_0_split_2
I0509 11:20:19.605461  9215 net.cpp:380] inception_5b/5x5_reduce -> inception_5b/5x5_reduce
I0509 11:20:19.607240  9215 net.cpp:122] Setting up inception_5b/5x5_reduce
I0509 11:20:19.607251  9215 net.cpp:129] Top shape: 50 48 7 7 (117600)
I0509 11:20:19.607254  9215 net.cpp:137] Memory required for data: 2780223208
I0509 11:20:19.607259  9215 layer_factory.hpp:77] Creating layer inception_5b/relu_5x5_reduce
I0509 11:20:19.607278  9215 net.cpp:84] Creating Layer inception_5b/relu_5x5_reduce
I0509 11:20:19.607281  9215 net.cpp:406] inception_5b/relu_5x5_reduce <- inception_5b/5x5_reduce
I0509 11:20:19.607285  9215 net.cpp:367] inception_5b/relu_5x5_reduce -> inception_5b/5x5_reduce (in-place)
I0509 11:20:19.607805  9215 net.cpp:122] Setting up inception_5b/relu_5x5_reduce
I0509 11:20:19.607813  9215 net.cpp:129] Top shape: 50 48 7 7 (117600)
I0509 11:20:19.607816  9215 net.cpp:137] Memory required for data: 2780693608
I0509 11:20:19.607820  9215 layer_factory.hpp:77] Creating layer inception_5b/5x5
I0509 11:20:19.607828  9215 net.cpp:84] Creating Layer inception_5b/5x5
I0509 11:20:19.607831  9215 net.cpp:406] inception_5b/5x5 <- inception_5b/5x5_reduce
I0509 11:20:19.607838  9215 net.cpp:380] inception_5b/5x5 -> inception_5b/5x5
I0509 11:20:19.610249  9215 net.cpp:122] Setting up inception_5b/5x5
I0509 11:20:19.610258  9215 net.cpp:129] Top shape: 50 128 7 7 (313600)
I0509 11:20:19.610260  9215 net.cpp:137] Memory required for data: 2781948008
I0509 11:20:19.610265  9215 layer_factory.hpp:77] Creating layer inception_5b/relu_5x5
I0509 11:20:19.610270  9215 net.cpp:84] Creating Layer inception_5b/relu_5x5
I0509 11:20:19.610273  9215 net.cpp:406] inception_5b/relu_5x5 <- inception_5b/5x5
I0509 11:20:19.610280  9215 net.cpp:367] inception_5b/relu_5x5 -> inception_5b/5x5 (in-place)
I0509 11:20:19.610812  9215 net.cpp:122] Setting up inception_5b/relu_5x5
I0509 11:20:19.610821  9215 net.cpp:129] Top shape: 50 128 7 7 (313600)
I0509 11:20:19.610822  9215 net.cpp:137] Memory required for data: 2783202408
I0509 11:20:19.610826  9215 layer_factory.hpp:77] Creating layer inception_5b/pool
I0509 11:20:19.610832  9215 net.cpp:84] Creating Layer inception_5b/pool
I0509 11:20:19.610836  9215 net.cpp:406] inception_5b/pool <- inception_5a/output_inception_5a/output_0_split_3
I0509 11:20:19.610841  9215 net.cpp:380] inception_5b/pool -> inception_5b/pool
I0509 11:20:19.610877  9215 net.cpp:122] Setting up inception_5b/pool
I0509 11:20:19.610882  9215 net.cpp:129] Top shape: 50 832 7 7 (2038400)
I0509 11:20:19.610884  9215 net.cpp:137] Memory required for data: 2791356008
I0509 11:20:19.610886  9215 layer_factory.hpp:77] Creating layer inception_5b/pool_proj
I0509 11:20:19.610898  9215 net.cpp:84] Creating Layer inception_5b/pool_proj
I0509 11:20:19.610900  9215 net.cpp:406] inception_5b/pool_proj <- inception_5b/pool
I0509 11:20:19.610906  9215 net.cpp:380] inception_5b/pool_proj -> inception_5b/pool_proj
I0509 11:20:19.614078  9215 net.cpp:122] Setting up inception_5b/pool_proj
I0509 11:20:19.614089  9215 net.cpp:129] Top shape: 50 128 7 7 (313600)
I0509 11:20:19.614091  9215 net.cpp:137] Memory required for data: 2792610408
I0509 11:20:19.614097  9215 layer_factory.hpp:77] Creating layer inception_5b/relu_pool_proj
I0509 11:20:19.614104  9215 net.cpp:84] Creating Layer inception_5b/relu_pool_proj
I0509 11:20:19.614107  9215 net.cpp:406] inception_5b/relu_pool_proj <- inception_5b/pool_proj
I0509 11:20:19.614111  9215 net.cpp:367] inception_5b/relu_pool_proj -> inception_5b/pool_proj (in-place)
I0509 11:20:19.614645  9215 net.cpp:122] Setting up inception_5b/relu_pool_proj
I0509 11:20:19.614653  9215 net.cpp:129] Top shape: 50 128 7 7 (313600)
I0509 11:20:19.614667  9215 net.cpp:137] Memory required for data: 2793864808
I0509 11:20:19.614670  9215 layer_factory.hpp:77] Creating layer inception_5b/output
I0509 11:20:19.614676  9215 net.cpp:84] Creating Layer inception_5b/output
I0509 11:20:19.614679  9215 net.cpp:406] inception_5b/output <- inception_5b/1x1
I0509 11:20:19.614683  9215 net.cpp:406] inception_5b/output <- inception_5b/3x3
I0509 11:20:19.614686  9215 net.cpp:406] inception_5b/output <- inception_5b/5x5
I0509 11:20:19.614689  9215 net.cpp:406] inception_5b/output <- inception_5b/pool_proj
I0509 11:20:19.614693  9215 net.cpp:380] inception_5b/output -> inception_5b/output
I0509 11:20:19.614724  9215 net.cpp:122] Setting up inception_5b/output
I0509 11:20:19.614729  9215 net.cpp:129] Top shape: 50 1024 7 7 (2508800)
I0509 11:20:19.614744  9215 net.cpp:137] Memory required for data: 2803900008
I0509 11:20:19.614746  9215 layer_factory.hpp:77] Creating layer pool5/7x7_s1
I0509 11:20:19.614753  9215 net.cpp:84] Creating Layer pool5/7x7_s1
I0509 11:20:19.614755  9215 net.cpp:406] pool5/7x7_s1 <- inception_5b/output
I0509 11:20:19.614760  9215 net.cpp:380] pool5/7x7_s1 -> pool5/7x7_s1
I0509 11:20:19.615303  9215 net.cpp:122] Setting up pool5/7x7_s1
I0509 11:20:19.615311  9215 net.cpp:129] Top shape: 50 1024 1 1 (51200)
I0509 11:20:19.615314  9215 net.cpp:137] Memory required for data: 2804104808
I0509 11:20:19.615316  9215 layer_factory.hpp:77] Creating layer pool5/drop_7x7_s1
I0509 11:20:19.615324  9215 net.cpp:84] Creating Layer pool5/drop_7x7_s1
I0509 11:20:19.615327  9215 net.cpp:406] pool5/drop_7x7_s1 <- pool5/7x7_s1
I0509 11:20:19.615331  9215 net.cpp:367] pool5/drop_7x7_s1 -> pool5/7x7_s1 (in-place)
I0509 11:20:19.615355  9215 net.cpp:122] Setting up pool5/drop_7x7_s1
I0509 11:20:19.615360  9215 net.cpp:129] Top shape: 50 1024 1 1 (51200)
I0509 11:20:19.615361  9215 net.cpp:137] Memory required for data: 2804309608
I0509 11:20:19.615363  9215 layer_factory.hpp:77] Creating layer loss3/classifier
I0509 11:20:19.615370  9215 net.cpp:84] Creating Layer loss3/classifier
I0509 11:20:19.615371  9215 net.cpp:406] loss3/classifier <- pool5/7x7_s1
I0509 11:20:19.615377  9215 net.cpp:380] loss3/classifier -> loss3/classifier
I0509 11:20:19.616791  9215 net.cpp:122] Setting up loss3/classifier
I0509 11:20:19.616801  9215 net.cpp:129] Top shape: 50 196 (9800)
I0509 11:20:19.616802  9215 net.cpp:137] Memory required for data: 2804348808
I0509 11:20:19.616807  9215 layer_factory.hpp:77] Creating layer loss3/loss
I0509 11:20:19.616812  9215 net.cpp:84] Creating Layer loss3/loss
I0509 11:20:19.616816  9215 net.cpp:406] loss3/loss <- loss3/classifier
I0509 11:20:19.616818  9215 net.cpp:406] loss3/loss <- label_train-data_1_split_2
I0509 11:20:19.616822  9215 net.cpp:380] loss3/loss -> loss
…
I0509 11:20:19.619828  9215 net.cpp:294] The NetState phase (1) differed from the phase (0) specified by a rule in layer train-data
I0509 11:20:19.620635  9215 net.cpp:51] Initializing net from parameters:
state {
phase: TEST
}
layer {
name: "val-data"
type: "Data"
top: "data"
top: "label"
include {
phase: TEST
}
transform_param {
mirror: false
crop_size: 224
mean_file: "/mnt/bigdisk/AINDIG4/digits/jobs/20200509-095611-5492/mean.binaryproto"
}
data_param {
source: "/mnt/bigdisk/AINDIG4/digits/jobs/20200509-095611-5492/val_db"
batch_size: 50
backend: LMDB
}
}
layer {
name: "conv1/7x7_s2"
type: "Convolution"
bottom: "data"
top: "conv1/7x7_s2"
param {
lr_mult: 1
decay_mult: 1
}
param {
lr_mult: 2
decay_mult: 0
}
convolution_param {
num_output: 64
pad: 3
kernel_size: 7
stride: 2
weight_filler {
type: "xavier"
std: 0.1
}
bias_filler {
type: "constant"
value: 0.2
}
}
}
layer {
name: "conv1/relu_7x7"
type: "ReLU"
bottom: "conv1/7x7_s2"
top: "conv1/7x7_s2"
}
layer {
name: "pool1/3x3_s2"
type: "Pooling"
bottom: "conv1/7x7_s2"
top: "pool1/3x3_s2"
pooling_param {
pool: MAX
kernel_size: 3
stride: 2
}
}
layer {
name: "pool1/norm1"
type: "LRN"
bottom: "pool1/3x3_s2"
top: "pool1/norm1"
lrn_param {
local_size: 5
alpha: 0.0001
beta: 0.75
}
}
layer {
name: "conv2/3x3_reduce"
type: "Convolution"
bottom: "pool1/norm1"
top: "conv2/3x3_reduce"
param {
lr_mult: 1
decay_mult: 1
}
param {
lr_mult: 2
decay_mult: 0
}
convolution_param {
num_output: 64
kernel_size: 1
weight_filler {
type: "xavier"
std: 0.1
}
bias_filler {
type: "constant"
value: 0.2
}
}
}
layer {
name: "conv2/relu_3x3_reduce"
type: "ReLU"
bottom: "conv2/3x3_reduce"
top: "conv2/3x3_reduce"
}
layer {
name: "conv2/3x3"
type: "Convolution"
bottom: "conv2/3x3_reduce"
top: "conv2/3x3"
param {
lr_mult: 1
decay_mult: 1
}
param {
lr_mult: 2
decay_mult: 0
}
convolution_param {
num_output: 192
pad: 1
kernel_size: 3
weight_filler {
type: "xavier"
std: 0.03
}
bias_filler {
type: "constant"
value: 0.2
}
}
}
layer {
name: "conv2/relu_3x3"
type: "ReLU"
bottom: "conv2/3x3"
top: "conv2/3x3"
}
layer {
name: "conv2/norm2"
type: "LRN"
bottom: "conv2/3x3"
top: "conv2/norm2"
lrn_param {
local_size: 5
alpha: 0.0001
beta: 0.75
}
}
layer {
name: "pool2/3x3_s2"
type: "Pooling"
bottom: "conv2/norm2"
top: "pool2/3x3_s2"
pooling_param {
pool: MAX
kernel_size: 3
stride: 2
}
}
layer {
name: "inception_3a/1x1"
type: "Convolution"
bottom: "pool2/3x3_s2"
top: "inception_3a/1x1"
param {
lr_mult: 1
decay_mult: 1
}
param {
lr_mult: 2
decay_mult: 0
}
convolution_param {
num_output: 64
kernel_size: 1
weight_filler {
type: "xavier"
std: 0.03
}
bias_filler {
type: "constant"
value: 0.2
}
}
}
layer {
name: "inception_3a/relu_1x1"
type: "ReLU"
bottom: "inception_3a/1x1"
top: "inception_3a/1x1"
}
layer {
name: "inception_3a/3x3_reduce"
type: "Convolution"
bottom: "pool2/3x3_s2"
top: "inception_3a/3x3_reduce"
param {
lr_mult: 1
decay_mult: 1
}
param {
lr_mult: 2
decay_mult: 0
}
convolution_param {
num_output: 96
kernel_size: 1
weight_filler {
type: "xavier"
std: 0.09
}
bias_filler {
type: "constant"
value: 0.2
}
}
}
layer {
name: "inception_3a/relu_3x3_reduce"
type: "ReLU"
bottom: "inception_3a/3x3_reduce"
top: "inception_3a/3x3_reduce"
}
layer {
name: "inception_3a/3x3"
type: "Convolution"
bottom: "inception_3a/3x3_reduce"
top: "inception_3a/3x3"
param {
lr_mult: 1
decay_mult: 1
}
param {
lr_mult: 2
decay_mult: 0
}
convolution_param {
num_output: 128
pad: 1
kernel_size: 3
weight_filler {
type: "xavier"
std: 0.03
}
bias_filler {
type: "constant"
value: 0.2
}
}
}
layer {
name: "inception_3a/relu_3x3"
type: "ReLU"
bottom: "inception_3a/3x3"
top: "inception_3a/3x3"
}
layer {
name: "inception_3a/5x5_reduce"
type: "Convolution"
bottom: "pool2/3x3_s2"
top: "inception_3a/5x5_reduce"
param {
lr_mult: 1
decay_mult: 1
}
param {
lr_mult: 2
decay_mult: 0
}
convolution_param {
num_output: 16
kernel_size: 1
weight_filler {
type: "xavier"
std: 0.2
}
bias_filler {
type: "constant"
value: 0.2
}
}
}
layer {
name: "inception_3a/relu_5x5_reduce"
type: "ReLU"
bottom: "inception_3a/5x5_reduce"
top: "inception_3a/5x5_reduce"
}
layer {
name: "inception_3a/5x5"
type: "Convolution"
bottom: "inception_3a/5x5_reduce"
top: "inception_3a/5x5"
param {
lr_mult: 1
decay_mult: 1
}
param {
lr_mult: 2
decay_mult: 0
}
convolution_param {
num_output: 32
pad: 2
kernel_size: 5
weight_filler {
type: "xavier"
std: 0.03
}
bias_filler {
type: "constant"
value: 0.2
}
}
}
layer {
name: "inception_3a/relu_5x5"
type: "ReLU"
bottom: "inception_3a/5x5"
top: "inception_3a/5x5"
}
layer {
name: "inception_3a/pool"
type: "Pooling"
bottom: "pool2/3x3_s2"
top: "inception_3a/pool"
pooling_param {
pool: MAX
kernel_size: 3
stride: 1
pad: 1
}
}
layer {
name: "inception_3a/pool_proj"
type: "Convolution"
bottom: "inception_3a/pool"
top: "inception_3a/pool_proj"
param {
lr_mult: 1
decay_mult: 1
}
param {
lr_mult: 2
decay_mult: 0
}
convolution_param {
num_output: 32
kernel_size: 1
weight_filler {
type: "xavier"
std: 0.1
}
bias_filler {
type: "constant"
value: 0.2
}
}
}
layer {
name: "inception_3a/relu_pool_proj"
type: "ReLU"
bottom: "inception_3a/pool_proj"
top: "inception_3a/pool_proj"
}
layer {
name: "inception_3a/output"
type: "Concat"
bottom: "inception_3a/1x1"
bottom: "inception_3a/3x3"
bottom: "inception_3a/5x5"
bottom: "inception_3a/pool_proj"
top: "inception_3a/output"
}
layer {
name: "inception_3b/1x1"
type: "Convolution"
bottom: "inception_3a/output"
top: "inception_3b/1x1"
param {
lr_mult: 1
decay_mult: 1
}
param {
lr_mult: 2
decay_mult: 0
}
convolution_param {
num_output: 128
kernel_size: 1
weight_filler {
type: "xavier"
std: 0.03
}
bias_filler {
type: "constant"
value: 0.2
}
}
}
layer {
name: "inception_3b/relu_1x1"
type: "ReLU"
bottom: "inception_3b/1x1"
top: "inception_3b/1x1"
}
layer {
name: "inception_3b/3x3_reduce"
type: "Convolution"
bottom: "inception_3a/output"
top: "inception_3b/3x3_reduce"
param {
lr_mult: 1
decay_mult: 1
}
param {
lr_mult: 2
decay_mult: 0
}
convolution_param {
num_output: 128
kernel_size: 1
weight_filler {
type: "xavier"
std: 0.09
}
bias_filler {
type: "constant"
value: 0.2
}
}
}
layer {
name: "inception_3b/relu_3x3_reduce"
type: "ReLU"
bottom: "inception_3b/3x3_reduce"
top: "inception_3b/3x3_reduce"
}
layer {
name: "inception_3b/3x3"
type: "Convolution"
bottom: "inception_3b/3x3_reduce"
top: "inception_3b/3x3"
param {
lr_mult: 1
decay_mult: 1
}
param {
lr_mult: 2
decay_mult: 0
}
convolution_param {
num_output: 192
pad: 1
kernel_size: 3
weight_filler {
type: "xavier"
std: 0.03
}
bias_filler {
type: "constant"
value: 0.2
}
}
}
layer {
name: "inception_3b/relu_3x3"
type: "ReLU"
bottom: "inception_3b/3x3"
top: "inception_3b/3x3"
}
layer {
name: "inception_3b/5x5_reduce"
type: "Convolution"
bottom: "inception_3a/output"
top: "inception_3b/5x5_reduce"
param {
lr_mult: 1
decay_mult: 1
}
param {
lr_mult: 2
decay_mult: 0
}
convolution_param {
num_output: 32
kernel_size: 1
weight_filler {
type: "xavier"
std: 0.2
}
bias_filler {
type: "constant"
value: 0.2
}
}
}
layer {
name: "inception_3b/relu_5x5_reduce"
type: "ReLU"
bottom: "inception_3b/5x5_reduce"
top: "inception_3b/5x5_reduce"
}
layer {
name: "inception_3b/5x5"
type: "Convolution"
bottom: "inception_3b/5x5_reduce"
top: "inception_3b/5x5"
param {
lr_mult: 1
decay_mult: 1
}
param {
lr_mult: 2
decay_mult: 0
}
convolution_param {
num_output: 96
pad: 2
kernel_size: 5
weight_filler {
type: "xavier"
std: 0.03
}
bias_filler {
type: "constant"
value: 0.2
}
}
}
layer {
name: "inception_3b/relu_5x5"
type: "ReLU"
bottom: "inception_3b/5x5"
top: "inception_3b/5x5"
}
layer {
name: "inception_3b/pool"
type: "Pooling"
bottom: "inception_3a/output"
top: "inception_3b/pool"
pooling_param {
pool: MAX
kernel_size: 3
stride: 1
pad: 1
}
}
layer {
name: "inception_3b/pool_proj"
type: "Convolution"
bottom: "inception_3b/pool"
top: "inception_3b/pool_proj"
param {
lr_mult: 1
decay_mult: 1
}
param {
lr_mult: 2
decay_mult: 0
}
convolution_param {
num_output: 64
kernel_size: 1
weight_filler {
type: "xavier"
std: 0.1
}
bias_filler {
type: "constant"
value: 0.2
}
}
}
layer {
name: "inception_3b/relu_pool_proj"
type: "ReLU"
bottom: "inception_3b/pool_proj"
top: "inception_3b/pool_proj"
}
layer {
name: "inception_3b/output"
type: "Concat"
bottom: "inception_3b/1x1"
bottom: "inception_3b/3x3"
bottom: "inception_3b/5x5"
bottom: "inception_3b/pool_proj"
top: "inception_3b/output"
}
layer {
name: "pool3/3x3_s2"
type: "Pooling"
bottom: "inception_3b/output"
top: "pool3/3x3_s2"
pooling_param {
pool: MAX
kernel_size: 3
stride: 2
}
}
layer {
name: "inception_4a/1x1"
type: "Convolution"
bottom: "pool3/3x3_s2"
top: "inception_4a/1x1"
param {
lr_mult: 1
decay_mult: 1
}
param {
lr_mult: 2
decay_mult: 0
}
convolution_param {
num_output: 192
kernel_size: 1
weight_filler {
type: "xavier"
std: 0.03
}
bias_filler {
type: "constant"
value: 0.2
}
}
}
layer {
name: "inception_4a/relu_1x1"
type: "ReLU"
bottom: "inception_4a/1x1"
top: "inception_4a/1x1"
}
layer {
name: "inception_4a/3x3_reduce"
type: "Convolution"
bottom: "pool3/3x3_s2"
top: "inception_4a/3x3_reduce"
param {
lr_mult: 1
decay_mult: 1
}
param {
lr_mult: 2
decay_mult: 0
}
convolution_param {
num_output: 96
kernel_size: 1
weight_filler {
type: "xavier"
std: 0.09
}
bias_filler {
type: "constant"
value: 0.2
}
}
}
layer {
name: "inception_4a/relu_3x3_reduce"
type: "ReLU"
bottom: "inception_4a/3x3_reduce"
top: "inception_4a/3x3_reduce"
}
layer {
name: "inception_4a/3x3"
type: "Convolution"
bottom: "inception_4a/3x3_reduce"
top: "inception_4a/3x3"
param {
lr_mult: 1
decay_mult: 1
}
param {
lr_mult: 2
decay_mult: 0
}
convolution_param {
num_output: 208
pad: 1
kernel_size: 3
weight_filler {
type: "xavier"
std: 0.03
}
bias_filler {
type: "constant"
value: 0.2
}
}
}
layer {
name: "inception_4a/relu_3x3"
type: "ReLU"
bottom: "inception_4a/3x3"
top: "inception_4a/3x3"
}
layer {
name: "inception_4a/5x5_reduce"
type: "Convolution"
bottom: "pool3/3x3_s2"
top: "inception_4a/5x5_reduce"
param {
lr_mult: 1
decay_mult: 1
}
param {
lr_mult: 2
decay_mult: 0
}
convolution_param {
num_output: 16
kernel_size: 1
weight_filler {
type: "xavier"
std: 0.2
}
bias_filler {
type: "constant"
value: 0.2
}
}
}
layer {
name: "inception_4a/relu_5x5_reduce"
type: "ReLU"
bottom: "inception_4a/5x5_reduce"
top: "inception_4a/5x5_reduce"
}
layer {
name: "inception_4a/5x5"
type: "Convolution"
bottom: "inception_4a/5x5_reduce"
top: "inception_4a/5x5"
param {
lr_mult: 1
decay_mult: 1
}
param {
lr_mult: 2
decay_mult: 0
}
convolution_param {
num_output: 48
pad: 2
kernel_size: 5
weight_filler {
type: "xavier"
std: 0.03
}
bias_filler {
type: "constant"
value: 0.2
}
}
}
layer {
name: "inception_4a/relu_5x5"
type: "ReLU"
bottom: "inception_4a/5x5"
top: "inception_4a/5x5"
}
layer {
name: "inception_4a/pool"
type: "Pooling"
bottom: "pool3/3x3_s2"
top: "inception_4a/pool"
pooling_param {
pool: MAX
kernel_size: 3
stride: 1
pad: 1
}
}
layer {
name: "inception_4a/pool_proj"
type: "Convolution"
bottom: "inception_4a/pool"
top: "inception_4a/pool_proj"
param {
lr_mult: 1
decay_mult: 1
}
param {
lr_mult: 2
decay_mult: 0
}
convolution_param {
num_output: 64
kernel_size: 1
weight_filler {
type: "xavier"
std: 0.1
}
bias_filler {
type: "constant"
value: 0.2
}
}
}
layer {
name: "inception_4a/relu_pool_proj"
type: "ReLU"
bottom: "inception_4a/pool_proj"
top: "inception_4a/pool_proj"
}
layer {
name: "inception_4a/output"
type: "Concat"
bottom: "inception_4a/1x1"
bottom: "inception_4a/3x3"
bottom: "inception_4a/5x5"
bottom: "inception_4a/pool_proj"
top: "inception_4a/output"
}
layer {
name: "loss1/ave_pool"
type: "Pooling"
bottom: "inception_4a/output"
top: "loss1/ave_pool"
pooling_param {
pool: AVE
kernel_size: 5
stride: 3
}
}
layer {
name: "loss1/conv"
type: "Convolution"
bottom: "loss1/ave_pool"
top: "loss1/conv"
param {
lr_mult: 1
decay_mult: 1
}
param {
lr_mult: 2
decay_mult: 0
}
convolution_param {
num_output: 128
kernel_size: 1
weight_filler {
type: "xavier"
std: 0.08
}
bias_filler {
type: "constant"
value: 0.2
}
}
}
layer {
name: "loss1/relu_conv"
type: "ReLU"
bottom: "loss1/conv"
top: "loss1/conv"
}
layer {
name: "loss1/fc"
type: "InnerProduct"
bottom: "loss1/conv"
top: "loss1/fc"
param {
lr_mult: 1
decay_mult: 1
}
param {
lr_mult: 2
decay_mult: 0
}
inner_product_param {
num_output: 1024
weight_filler {
type: "xavier"
std: 0.02
}
bias_filler {
type: "constant"
value: 0.2
}
}
}
layer {
name: "loss1/relu_fc"
type: "ReLU"
bottom: "loss1/fc"
top: "loss1/fc"
}
layer {
name: "loss1/drop_fc"
type: "Dropout"
bottom: "loss1/fc"
top: "loss1/fc"
dropout_param {
dropout_ratio: 0.7
}
}
layer {
name: "loss1/classifier"
type: "InnerProduct"
bottom: "loss1/fc"
top: "loss1/classifier"
param {
lr_mult: 1
decay_mult: 1
}
param {
lr_mult: 2
decay_mult: 0
}
inner_product_param {
num_output: 196
weight_filler {
type: "xavier"
std: 0.0009765625
}
bias_filler {
type: "constant"
value: 0
}
}
}
layer {
name: "loss1/loss"
type: "SoftmaxWithLoss"
bottom: "loss1/classifier"
bottom: "label"
top: "loss1/loss"
loss_weight: 0.3
}
layer {
name: "loss1/top-1"
type: "Accuracy"
bottom: "loss1/classifier"
bottom: "label"
top: "loss1/accuracy"
include {
phase: TEST
}
}
layer {
name: "loss1/top-5"
type: "Accuracy"
bottom: "loss1/classifier"
bottom: "label"
top: "loss1/accuracy-top5"
include {
phase: TEST
}
accuracy_param {
top_k: 5
}
}
layer {
name: "inception_4b/1x1"
type: "Convolution"
bottom: "inception_4a/output"
top: "inception_4b/1x1"
param {
lr_mult: 1
decay_mult: 1
}
param {
lr_mult: 2
decay_mult: 0
}
convolution_param {
num_output: 160
kernel_size: 1
weight_filler {
type: "xavier"
std: 0.03
}
bias_filler {
type: "constant"
value: 0.2
}
}
}
layer {
name: "inception_4b/relu_1x1"
type: "ReLU"
bottom: "inception_4b/1x1"
top: "inception_4b/1x1"
}
layer {
name: "inception_4b/3x3_reduce"
type: "Convolution"
bottom: "inception_4a/output"
top: "inception_4b/3x3_reduce"
param {
lr_mult: 1
decay_mult: 1
}
param {
lr_mult: 2
decay_mult: 0
}
convolution_param {
num_output: 112
kernel_size: 1
weight_filler {
type: "xavier"
std: 0.09
}
bias_filler {
type: "constant"
value: 0.2
}
}
}
layer {
name: "inception_4b/relu_3x3_reduce"
type: "ReLU"
bottom: "inception_4b/3x3_reduce"
top: "inception_4b/3x3_reduce"
}
layer {
name: "inception_4b/3x3"
type: "Convolution"
bottom: "inception_4b/3x3_reduce"
top: "inception_4b/3x3"
param {
lr_mult: 1
decay_mult: 1
}
param {
lr_mult: 2
decay_mult: 0
}
convolution_param {
num_output: 224
pad: 1
kernel_size: 3
weight_filler {
type: "xavier"
std: 0.03
}
bias_filler {
type: "constant"
value: 0.2
}
}
}
layer {
name: "inception_4b/relu_3x3"
type: "ReLU"
bottom: "inception_4b/3x3"
top: "inception_4b/3x3"
}
layer {
name: "inception_4b/5x5_reduce"
type: "Convolution"
bottom: "inception_4a/output"
top: "inception_4b/5x5_reduce"
param {
lr_mult: 1
decay_mult: 1
}
param {
lr_mult: 2
decay_mult: 0
}
convolution_param {
num_output: 24
kernel_size: 1
weight_filler {
type: "xavier"
std: 0.2
}
bias_filler {
type: "constant"
value: 0.2
}
}
}
layer {
name: "inception_4b/relu_5x5_reduce"
type: "ReLU"
bottom: "inception_4b/5x5_reduce"
top: "inception_4b/5x5_reduce"
}
layer {
name: "inception_4b/5x5"
type: "Convolution"
bottom: "inception_4b/5x5_reduce"
top: "inception_4b/5x5"
param {
lr_mult: 1
decay_mult: 1
}
param {
lr_mult: 2
decay_mult: 0
}
convolution_param {
num_output: 64
pad: 2
kernel_size: 5
weight_filler {
type: "xavier"
std: 0.03
}
bias_filler {
type: "constant"
value: 0.2
}
}
}
layer {
name: "inception_4b/relu_5x5"
type: "ReLU"
bottom: "inception_4b/5x5"
top: "inception_4b/5x5"
}
layer {
name: "inception_4b/pool"
type: "Pooling"
bottom: "inception_4a/output"
top: "inception_4b/pool"
pooling_param {
pool: MAX
kernel_size: 3
stride: 1
pad: 1
}
}
layer {
name: "inception_4b/pool_proj"
type: "Convolution"
bottom: "inception_4b/pool"
top: "inception_4b/pool_proj"
param {
lr_mult: 1
decay_mult: 1
}
param {
lr_mult: 2
decay_mult: 0
}
convolution_param {
num_output: 64
kernel_size: 1
weight_filler {
type: "xavier"
std: 0.1
}
bias_filler {
type: "constant"
value: 0.2
}
}
}
layer {
name: "inception_4b/relu_pool_proj"
type: "ReLU"
bottom: "inception_4b/pool_proj"
top: "inception_4b/pool_proj"
}
layer {
name: "inception_4b/output"
type: "Concat"
bottom: "inception_4b/1x1"
bottom: "inception_4b/3x3"
bottom: "inception_4b/5x5"
bottom: "inception_4b/pool_proj"
top: "inception_4b/output"
}
layer {
name: "inception_4c/1x1"
type: "Convolution"
bottom: "inception_4b/output"
top: "inception_4c/1x1"
param {
lr_mult: 1
decay_mult: 1
}
param {
lr_mult: 2
decay_mult: 0
}
convolution_param {
num_output: 128
kernel_size: 1
weight_filler {
type: "xavier"
std: 0.03
}
bias_filler {
type: "constant"
value: 0.2
}
}
}
layer {
name: "inception_4c/relu_1x1"
type: "ReLU"
bottom: "inception_4c/1x1"
top: "inception_4c/1x1"
}
layer {
name: "inception_4c/3x3_reduce"
type: "Convolution"
bottom: "inception_4b/output"
top: "inception_4c/3x3_reduce"
param {
lr_mult: 1
decay_mult: 1
}
param {
lr_mult: 2
decay_mult: 0
}
convolution_param {
num_output: 128
kernel_size: 1
weight_filler {
type: "xavier"
std: 0.09
}
bias_filler {
type: "constant"
value: 0.2
}
}
}
layer {
name: "inception_4c/relu_3x3_reduce"
type: "ReLU"
bottom: "inception_4c/3x3_reduce"
top: "inception_4c/3x3_reduce"
}
layer {
name: "inception_4c/3x3"
type: "Convolution"
bottom: "inception_4c/3x3_reduce"
top: "inception_4c/3x3"
param {
lr_mult: 1
decay_mult: 1
}
param {
lr_mult: 2
decay_mult: 0
}
convolution_param {
num_output: 256
pad: 1
kernel_size: 3
weight_filler {
type: "xavier"
std: 0.03
}
bias_filler {
type: "constant"
value: 0.2
}
}
}
layer {
name: "inception_4c/relu_3x3"
type: "ReLU"
bottom: "inception_4c/3x3"
top: "inception_4c/3x3"
}
layer {
name: "inception_4c/5x5_reduce"
type: "Convolution"
bottom: "inception_4b/output"
top: "inception_4c/5x5_reduce"
param {
lr_mult: 1
decay_mult: 1
}
param {
lr_mult: 2
decay_mult: 0
}
convolution_param {
num_output: 24
kernel_size: 1
weight_filler {
type: "xavier"
std: 0.2
}
bias_filler {
type: "constant"
value: 0.2
}
}
}
layer {
name: "inception_4c/relu_5x5_reduce"
type: "ReLU"
bottom: "inception_4c/5x5_reduce"
top: "inception_4c/5x5_reduce"
}
layer {
name: "inception_4c/5x5"
type: "Convolution"
bottom: "inception_4c/5x5_reduce"
top: "inception_4c/5x5"
param {
lr_mult: 1
decay_mult: 1
}
param {
lr_mult: 2
decay_mult: 0
}
convolution_param {
num_output: 64
pad: 2
kernel_size: 5
weight_filler {
type: "xavier"
std: 0.03
}
bias_filler {
type: "constant"
value: 0.2
}
}
}
layer {
name: "inception_4c/relu_5x5"
type: "ReLU"
bottom: "inception_4c/5x5"
top: "inception_4c/5x5"
}
layer {
name: "inception_4c/pool"
type: "Pooling"
bottom: "inception_4b/output"
top: "inception_4c/pool"
pooling_param {
pool: MAX
kernel_size: 3
stride: 1
pad: 1
}
}
layer {
name: "inception_4c/pool_proj"
type: "Convolution"
bottom: "inception_4c/pool"
top: "inception_4c/pool_proj"
param {
lr_mult: 1
decay_mult: 1
}
param {
lr_mult: 2
decay_mult: 0
}
convolution_param {
num_output: 64
kernel_size: 1
weight_filler {
type: "xavier"
std: 0.1
}
bias_filler {
type: "constant"
value: 0.2
}
}
}
layer {
name: "inception_4c/relu_pool_proj"
type: "ReLU"
bottom: "inception_4c/pool_proj"
top: "inception_4c/pool_proj"
}
layer {
name: "inception_4c/output"
type: "Concat"
bottom: "inception_4c/1x1"
bottom: "inception_4c/3x3"
bottom: "inception_4c/5x5"
bottom: "inception_4c/pool_proj"
top: "inception_4c/output"
}
layer {
name: "inception_4d/1x1"
type: "Convolution"
bottom: "inception_4c/output"
top: "inception_4d/1x1"
param {
lr_mult: 1
decay_mult: 1
}
param {
lr_mult: 2
decay_mult: 0
}
convolution_param {
num_output: 112
kernel_size: 1
weight_filler {
type: "xavier"
std: 0.03
}
bias_filler {
type: "constant"
…
I0509 11:20:19.794523  9215 net.cpp:129] Top shape: 50 64 14 14 (627200)
I0509 11:20:19.794525  9215 net.cpp:137] Memory required for data: 2189650012
I0509 11:20:19.794528  9215 layer_factory.hpp:77] Creating layer inception_4c/pool
I0509 11:20:19.794534  9215 net.cpp:84] Creating Layer inception_4c/pool
I0509 11:20:19.794538  9215 net.cpp:406] inception_4c/pool <- inception_4b/output_inception_4b/output_0_split_3
I0509 11:20:19.794544  9215 net.cpp:380] inception_4c/pool -> inception_4c/pool
I0509 11:20:19.794582  9215 net.cpp:122] Setting up inception_4c/pool
I0509 11:20:19.794587  9215 net.cpp:129] Top shape: 50 512 14 14 (5017600)
I0509 11:20:19.794589  9215 net.cpp:137] Memory required for data: 2209720412
I0509 11:20:19.794591  9215 layer_factory.hpp:77] Creating layer inception_4c/pool_proj
I0509 11:20:19.794601  9215 net.cpp:84] Creating Layer inception_4c/pool_proj
I0509 11:20:19.794605  9215 net.cpp:406] inception_4c/pool_proj <- inception_4c/pool
I0509 11:20:19.794610  9215 net.cpp:380] inception_4c/pool_proj -> inception_4c/pool_proj
I0509 11:20:19.796275  9215 net.cpp:122] Setting up inception_4c/pool_proj
I0509 11:20:19.796284  9215 net.cpp:129] Top shape: 50 64 14 14 (627200)
I0509 11:20:19.796286  9215 net.cpp:137] Memory required for data: 2212229212
I0509 11:20:19.796293  9215 layer_factory.hpp:77] Creating layer inception_4c/relu_pool_proj
I0509 11:20:19.796298  9215 net.cpp:84] Creating Layer inception_4c/relu_pool_proj
I0509 11:20:19.796300  9215 net.cpp:406] inception_4c/relu_pool_proj <- inception_4c/pool_proj
I0509 11:20:19.796305  9215 net.cpp:367] inception_4c/relu_pool_proj -> inception_4c/pool_proj (in-place)
I0509 11:20:19.796973  9215 net.cpp:122] Setting up inception_4c/relu_pool_proj
I0509 11:20:19.796981  9215 net.cpp:129] Top shape: 50 64 14 14 (627200)
I0509 11:20:19.796983  9215 net.cpp:137] Memory required for data: 2214738012
I0509 11:20:19.796986  9215 layer_factory.hpp:77] Creating layer inception_4c/output
I0509 11:20:19.797004  9215 net.cpp:84] Creating Layer inception_4c/output
I0509 11:20:19.797008  9215 net.cpp:406] inception_4c/output <- inception_4c/1x1
I0509 11:20:19.797011  9215 net.cpp:406] inception_4c/output <- inception_4c/3x3
I0509 11:20:19.797015  9215 net.cpp:406] inception_4c/output <- inception_4c/5x5
I0509 11:20:19.797019  9215 net.cpp:406] inception_4c/output <- inception_4c/pool_proj
I0509 11:20:19.797024  9215 net.cpp:380] inception_4c/output -> inception_4c/output
I0509 11:20:19.797050  9215 net.cpp:122] Setting up inception_4c/output
I0509 11:20:19.797055  9215 net.cpp:129] Top shape: 50 512 14 14 (5017600)
I0509 11:20:19.797057  9215 net.cpp:137] Memory required for data: 2234808412
I0509 11:20:19.797060  9215 layer_factory.hpp:77] Creating layer inception_4c/output_inception_4c/output_0_split
I0509 11:20:19.797065  9215 net.cpp:84] Creating Layer inception_4c/output_inception_4c/output_0_split
I0509 11:20:19.797067  9215 net.cpp:406] inception_4c/output_inception_4c/output_0_split <- inception_4c/output
I0509 11:20:19.797076  9215 net.cpp:380] inception_4c/output_inception_4c/output_0_split -> inception_4c/output_inception_4c/output_0_split_0
I0509 11:20:19.797081  9215 net.cpp:380] inception_4c/output_inception_4c/output_0_split -> inception_4c/output_inception_4c/output_0_split_1
I0509 11:20:19.797086  9215 net.cpp:380] inception_4c/output_inception_4c/output_0_split -> inception_4c/output_inception_4c/output_0_split_2
I0509 11:20:19.797093  9215 net.cpp:380] inception_4c/output_inception_4c/output_0_split -> inception_4c/output_inception_4c/output_0_split_3
I0509 11:20:19.797138  9215 net.cpp:122] Setting up inception_4c/output_inception_4c/output_0_split
I0509 11:20:19.797142  9215 net.cpp:129] Top shape: 50 512 14 14 (5017600)
I0509 11:20:19.797145  9215 net.cpp:129] Top shape: 50 512 14 14 (5017600)
I0509 11:20:19.797148  9215 net.cpp:129] Top shape: 50 512 14 14 (5017600)
I0509 11:20:19.797152  9215 net.cpp:129] Top shape: 50 512 14 14 (5017600)
I0509 11:20:19.797153  9215 net.cpp:137] Memory required for data: 2315090012
I0509 11:20:19.797155  9215 layer_factory.hpp:77] Creating layer inception_4d/1x1
I0509 11:20:19.797163  9215 net.cpp:84] Creating Layer inception_4d/1x1
I0509 11:20:19.797166  9215 net.cpp:406] inception_4d/1x1 <- inception_4c/output_inception_4c/output_0_split_0
I0509 11:20:19.797173  9215 net.cpp:380] inception_4d/1x1 -> inception_4d/1x1
I0509 11:20:19.798909  9215 net.cpp:122] Setting up inception_4d/1x1
I0509 11:20:19.798918  9215 net.cpp:129] Top shape: 50 112 14 14 (1097600)
I0509 11:20:19.798920  9215 net.cpp:137] Memory required for data: 2319480412
I0509 11:20:19.798925  9215 layer_factory.hpp:77] Creating layer inception_4d/relu_1x1
I0509 11:20:19.798933  9215 net.cpp:84] Creating Layer inception_4d/relu_1x1
I0509 11:20:19.798935  9215 net.cpp:406] inception_4d/relu_1x1 <- inception_4d/1x1
I0509 11:20:19.798939  9215 net.cpp:367] inception_4d/relu_1x1 -> inception_4d/1x1 (in-place)
I0509 11:20:19.799444  9215 net.cpp:122] Setting up inception_4d/relu_1x1
I0509 11:20:19.799454  9215 net.cpp:129] Top shape: 50 112 14 14 (1097600)
I0509 11:20:19.799456  9215 net.cpp:137] Memory required for data: 2323870812
I0509 11:20:19.799459  9215 layer_factory.hpp:77] Creating layer inception_4d/3x3_reduce
I0509 11:20:19.799468  9215 net.cpp:84] Creating Layer inception_4d/3x3_reduce
I0509 11:20:19.799471  9215 net.cpp:406] inception_4d/3x3_reduce <- inception_4c/output_inception_4c/output_0_split_1
I0509 11:20:19.799479  9215 net.cpp:380] inception_4d/3x3_reduce -> inception_4d/3x3_reduce
I0509 11:20:19.802107  9215 net.cpp:122] Setting up inception_4d/3x3_reduce
I0509 11:20:19.802119  9215 net.cpp:129] Top shape: 50 144 14 14 (1411200)
I0509 11:20:19.802121  9215 net.cpp:137] Memory required for data: 2329515612
I0509 11:20:19.802127  9215 layer_factory.hpp:77] Creating layer inception_4d/relu_3x3_reduce
I0509 11:20:19.802134  9215 net.cpp:84] Creating Layer inception_4d/relu_3x3_reduce
I0509 11:20:19.802137  9215 net.cpp:406] inception_4d/relu_3x3_reduce <- inception_4d/3x3_reduce
I0509 11:20:19.802155  9215 net.cpp:367] inception_4d/relu_3x3_reduce -> inception_4d/3x3_reduce (in-place)
I0509 11:20:19.802480  9215 net.cpp:122] Setting up inception_4d/relu_3x3_reduce
I0509 11:20:19.802489  9215 net.cpp:129] Top shape: 50 144 14 14 (1411200)
I0509 11:20:19.802490  9215 net.cpp:137] Memory required for data: 2335160412
I0509 11:20:19.802493  9215 layer_factory.hpp:77] Creating layer inception_4d/3x3
I0509 11:20:19.802502  9215 net.cpp:84] Creating Layer inception_4d/3x3
I0509 11:20:19.802506  9215 net.cpp:406] inception_4d/3x3 <- inception_4d/3x3_reduce
I0509 11:20:19.802511  9215 net.cpp:380] inception_4d/3x3 -> inception_4d/3x3
I0509 11:20:19.806417  9215 net.cpp:122] Setting up inception_4d/3x3
I0509 11:20:19.806428  9215 net.cpp:129] Top shape: 50 288 14 14 (2822400)
I0509 11:20:19.806432  9215 net.cpp:137] Memory required for data: 2346450012
I0509 11:20:19.806437  9215 layer_factory.hpp:77] Creating layer inception_4d/relu_3x3
I0509 11:20:19.806442  9215 net.cpp:84] Creating Layer inception_4d/relu_3x3
I0509 11:20:19.806445  9215 net.cpp:406] inception_4d/relu_3x3 <- inception_4d/3x3
I0509 11:20:19.806452  9215 net.cpp:367] inception_4d/relu_3x3 -> inception_4d/3x3 (in-place)
I0509 11:20:19.806811  9215 net.cpp:122] Setting up inception_4d/relu_3x3
I0509 11:20:19.806819  9215 net.cpp:129] Top shape: 50 288 14 14 (2822400)
I0509 11:20:19.806821  9215 net.cpp:137] Memory required for data: 2357739612
I0509 11:20:19.806824  9215 layer_factory.hpp:77] Creating layer inception_4d/5x5_reduce
I0509 11:20:19.806836  9215 net.cpp:84] Creating Layer inception_4d/5x5_reduce
I0509 11:20:19.806840  9215 net.cpp:406] inception_4d/5x5_reduce <- inception_4c/output_inception_4c/output_0_split_2
I0509 11:20:19.806846  9215 net.cpp:380] inception_4d/5x5_reduce -> inception_4d/5x5_reduce
I0509 11:20:19.810708  9215 net.cpp:122] Setting up inception_4d/5x5_reduce
I0509 11:20:19.810719  9215 net.cpp:129] Top shape: 50 32 14 14 (313600)
I0509 11:20:19.810721  9215 net.cpp:137] Memory required for data: 2358994012
I0509 11:20:19.810726  9215 layer_factory.hpp:77] Creating layer inception_4d/relu_5x5_reduce
I0509 11:20:19.810732  9215 net.cpp:84] Creating Layer inception_4d/relu_5x5_reduce
I0509 11:20:19.810735  9215 net.cpp:406] inception_4d/relu_5x5_reduce <- inception_4d/5x5_reduce
I0509 11:20:19.810741  9215 net.cpp:367] inception_4d/relu_5x5_reduce -> inception_4d/5x5_reduce (in-place)
I0509 11:20:19.813635  9215 net.cpp:122] Setting up inception_4d/relu_5x5_reduce
I0509 11:20:19.813647  9215 net.cpp:129] Top shape: 50 32 14 14 (313600)
I0509 11:20:19.813648  9215 net.cpp:137] Memory required for data: 2360248412
I0509 11:20:19.813652  9215 layer_factory.hpp:77] Creating layer inception_4d/5x5
I0509 11:20:19.813663  9215 net.cpp:84] Creating Layer inception_4d/5x5
I0509 11:20:19.813665  9215 net.cpp:406] inception_4d/5x5 <- inception_4d/5x5_reduce
I0509 11:20:19.813673  9215 net.cpp:380] inception_4d/5x5 -> inception_4d/5x5
I0509 11:20:19.816051  9215 net.cpp:122] Setting up inception_4d/5x5
I0509 11:20:19.816061  9215 net.cpp:129] Top shape: 50 64 14 14 (627200)
I0509 11:20:19.816063  9215 net.cpp:137] Memory required for data: 2362757212
I0509 11:20:19.816071  9215 layer_factory.hpp:77] Creating layer inception_4d/relu_5x5
I0509 11:20:19.816077  9215 net.cpp:84] Creating Layer inception_4d/relu_5x5
I0509 11:20:19.816081  9215 net.cpp:406] inception_4d/relu_5x5 <- inception_4d/5x5
I0509 11:20:19.816087  9215 net.cpp:367] inception_4d/relu_5x5 -> inception_4d/5x5 (in-place)
I0509 11:20:19.816587  9215 net.cpp:122] Setting up inception_4d/relu_5x5
I0509 11:20:19.816596  9215 net.cpp:129] Top shape: 50 64 14 14 (627200)
I0509 11:20:19.816597  9215 net.cpp:137] Memory required for data: 2365266012
I0509 11:20:19.816601  9215 layer_factory.hpp:77] Creating layer inception_4d/pool
I0509 11:20:19.816607  9215 net.cpp:84] Creating Layer inception_4d/pool
I0509 11:20:19.816612  9215 net.cpp:406] inception_4d/pool <- inception_4c/output_inception_4c/output_0_split_3
I0509 11:20:19.816632  9215 net.cpp:380] inception_4d/pool -> inception_4d/pool
I0509 11:20:19.816670  9215 net.cpp:122] Setting up inception_4d/pool
I0509 11:20:19.816675  9215 net.cpp:129] Top shape: 50 512 14 14 (5017600)
I0509 11:20:19.816678  9215 net.cpp:137] Memory required for data: 2385336412
I0509 11:20:19.816680  9215 layer_factory.hpp:77] Creating layer inception_4d/pool_proj
I0509 11:20:19.816689  9215 net.cpp:84] Creating Layer inception_4d/pool_proj
I0509 11:20:19.816691  9215 net.cpp:406] inception_4d/pool_proj <- inception_4d/pool
I0509 11:20:19.816697  9215 net.cpp:380] inception_4d/pool_proj -> inception_4d/pool_proj
I0509 11:20:19.818342  9215 net.cpp:122] Setting up inception_4d/pool_proj
I0509 11:20:19.818351  9215 net.cpp:129] Top shape: 50 64 14 14 (627200)
I0509 11:20:19.818354  9215 net.cpp:137] Memory required for data: 2387845212
I0509 11:20:19.818359  9215 layer_factory.hpp:77] Creating layer inception_4d/relu_pool_proj
I0509 11:20:19.818365  9215 net.cpp:84] Creating Layer inception_4d/relu_pool_proj
I0509 11:20:19.818369  9215 net.cpp:406] inception_4d/relu_pool_proj <- inception_4d/pool_proj
I0509 11:20:19.818373  9215 net.cpp:367] inception_4d/relu_pool_proj -> inception_4d/pool_proj (in-place)
I0509 11:20:19.818869  9215 net.cpp:122] Setting up inception_4d/relu_pool_proj
I0509 11:20:19.818878  9215 net.cpp:129] Top shape: 50 64 14 14 (627200)
I0509 11:20:19.818881  9215 net.cpp:137] Memory required for data: 2390354012
I0509 11:20:19.818883  9215 layer_factory.hpp:77] Creating layer inception_4d/output
I0509 11:20:19.818888  9215 net.cpp:84] Creating Layer inception_4d/output
I0509 11:20:19.818892  9215 net.cpp:406] inception_4d/output <- inception_4d/1x1
I0509 11:20:19.818895  9215 net.cpp:406] inception_4d/output <- inception_4d/3x3
I0509 11:20:19.818898  9215 net.cpp:406] inception_4d/output <- inception_4d/5x5
I0509 11:20:19.818902  9215 net.cpp:406] inception_4d/output <- inception_4d/pool_proj
I0509 11:20:19.818907  9215 net.cpp:380] inception_4d/output -> inception_4d/output
I0509 11:20:19.818933  9215 net.cpp:122] Setting up inception_4d/output
I0509 11:20:19.818936  9215 net.cpp:129] Top shape: 50 528 14 14 (5174400)
I0509 11:20:19.818938  9215 net.cpp:137] Memory required for data: 2411051612
I0509 11:20:19.818941  9215 layer_factory.hpp:77] Creating layer inception_4d/output_inception_4d/output_0_split
I0509 11:20:19.818946  9215 net.cpp:84] Creating Layer inception_4d/output_inception_4d/output_0_split
I0509 11:20:19.818949  9215 net.cpp:406] inception_4d/output_inception_4d/output_0_split <- inception_4d/output
I0509 11:20:19.818955  9215 net.cpp:380] inception_4d/output_inception_4d/output_0_split -> inception_4d/output_inception_4d/output_0_split_0
I0509 11:20:19.818961  9215 net.cpp:380] inception_4d/output_inception_4d/output_0_split -> inception_4d/output_inception_4d/output_0_split_1
I0509 11:20:19.818966  9215 net.cpp:380] inception_4d/output_inception_4d/output_0_split -> inception_4d/output_inception_4d/output_0_split_2
I0509 11:20:19.818972  9215 net.cpp:380] inception_4d/output_inception_4d/output_0_split -> inception_4d/output_inception_4d/output_0_split_3
I0509 11:20:19.818976  9215 net.cpp:380] inception_4d/output_inception_4d/output_0_split -> inception_4d/output_inception_4d/output_0_split_4
I0509 11:20:19.819028  9215 net.cpp:122] Setting up inception_4d/output_inception_4d/output_0_split
I0509 11:20:19.819032  9215 net.cpp:129] Top shape: 50 528 14 14 (5174400)
I0509 11:20:19.819036  9215 net.cpp:129] Top shape: 50 528 14 14 (5174400)
I0509 11:20:19.819038  9215 net.cpp:129] Top shape: 50 528 14 14 (5174400)
I0509 11:20:19.819048  9215 net.cpp:129] Top shape: 50 528 14 14 (5174400)
I0509 11:20:19.819053  9215 net.cpp:129] Top shape: 50 528 14 14 (5174400)
I0509 11:20:19.819056  9215 net.cpp:137] Memory required for data: 2514539612
I0509 11:20:19.819057  9215 layer_factory.hpp:77] Creating layer loss2/ave_pool
I0509 11:20:19.819062  9215 net.cpp:84] Creating Layer loss2/ave_pool
I0509 11:20:19.819065  9215 net.cpp:406] loss2/ave_pool <- inception_4d/output_inception_4d/output_0_split_0
I0509 11:20:19.819080  9215 net.cpp:380] loss2/ave_pool -> loss2/ave_pool
I0509 11:20:19.820251  9215 net.cpp:122] Setting up loss2/ave_pool
I0509 11:20:19.820261  9215 net.cpp:129] Top shape: 50 528 4 4 (422400)
I0509 11:20:19.820263  9215 net.cpp:137] Memory required for data: 2516229212
I0509 11:20:19.820266  9215 layer_factory.hpp:77] Creating layer loss2/conv
I0509 11:20:19.820276  9215 net.cpp:84] Creating Layer loss2/conv
I0509 11:20:19.820278  9215 net.cpp:406] loss2/conv <- loss2/ave_pool
I0509 11:20:19.820286  9215 net.cpp:380] loss2/conv -> loss2/conv
I0509 11:20:19.822072  9215 net.cpp:122] Setting up loss2/conv
I0509 11:20:19.822082  9215 net.cpp:129] Top shape: 50 128 4 4 (102400)
I0509 11:20:19.822084  9215 net.cpp:137] Memory required for data: 2516638812
I0509 11:20:19.822090  9215 layer_factory.hpp:77] Creating layer loss2/relu_conv
I0509 11:20:19.822095  9215 net.cpp:84] Creating Layer loss2/relu_conv
I0509 11:20:19.822098  9215 net.cpp:406] loss2/relu_conv <- loss2/conv
I0509 11:20:19.822104  9215 net.cpp:367] loss2/relu_conv -> loss2/conv (in-place)
I0509 11:20:19.822599  9215 net.cpp:122] Setting up loss2/relu_conv
I0509 11:20:19.822608  9215 net.cpp:129] Top shape: 50 128 4 4 (102400)
I0509 11:20:19.822612  9215 net.cpp:137] Memory required for data: 2517048412
I0509 11:20:19.822613  9215 layer_factory.hpp:77] Creating layer loss2/fc
I0509 11:20:19.822620  9215 net.cpp:84] Creating Layer loss2/fc
I0509 11:20:19.822623  9215 net.cpp:406] loss2/fc <- loss2/conv
I0509 11:20:19.822628  9215 net.cpp:380] loss2/fc -> loss2/fc
I0509 11:20:19.833981  9215 net.cpp:122] Setting up loss2/fc
I0509 11:20:19.833997  9215 net.cpp:129] Top shape: 50 1024 (51200)
I0509 11:20:19.834000  9215 net.cpp:137] Memory required for data: 2517253212
I0509 11:20:19.834008  9215 layer_factory.hpp:77] Creating layer loss2/relu_fc
I0509 11:20:19.834015  9215 net.cpp:84] Creating Layer loss2/relu_fc
I0509 11:20:19.834020  9215 net.cpp:406] loss2/relu_fc <- loss2/fc
I0509 11:20:19.834025  9215 net.cpp:367] loss2/relu_fc -> loss2/fc (in-place)
I0509 11:20:19.834647  9215 net.cpp:122] Setting up loss2/relu_fc
I0509 11:20:19.834656  9215 net.cpp:129] Top shape: 50 1024 (51200)
I0509 11:20:19.834658  9215 net.cpp:137] Memory required for data: 2517458012
I0509 11:20:19.834661  9215 layer_factory.hpp:77] Creating layer loss2/drop_fc
I0509 11:20:19.834666  9215 net.cpp:84] Creating Layer loss2/drop_fc
I0509 11:20:19.834669  9215 net.cpp:406] loss2/drop_fc <- loss2/fc
I0509 11:20:19.834676  9215 net.cpp:367] loss2/drop_fc -> loss2/fc (in-place)
I0509 11:20:19.834697  9215 net.cpp:122] Setting up loss2/drop_fc
I0509 11:20:19.834702  9215 net.cpp:129] Top shape: 50 1024 (51200)
I0509 11:20:19.834703  9215 net.cpp:137] Memory required for data: 2517662812
I0509 11:20:19.834705  9215 layer_factory.hpp:77] Creating layer loss2/classifier
I0509 11:20:19.834713  9215 net.cpp:84] Creating Layer loss2/classifier
I0509 11:20:19.834717  9215 net.cpp:406] loss2/classifier <- loss2/fc
I0509 11:20:19.834722  9215 net.cpp:380] loss2/classifier -> loss2/classifier
I0509 11:20:19.836082  9215 net.cpp:122] Setting up loss2/classifier
I0509 11:20:19.836091  9215 net.cpp:129] Top shape: 50 196 (9800)
I0509 11:20:19.836092  9215 net.cpp:137] Memory required for data: 2517702012
I0509 11:20:19.836097  9215 layer_factory.hpp:77] Creating layer loss2/classifier_loss2/classifier_0_split
I0509 11:20:19.836105  9215 net.cpp:84] Creating Layer loss2/classifier_loss2/classifier_0_split
I0509 11:20:19.836108  9215 net.cpp:406] loss2/classifier_loss2/classifier_0_split <- loss2/classifier
I0509 11:20:19.836113  9215 net.cpp:380] loss2/classifier_loss2/classifier_0_split -> loss2/classifier_loss2/classifier_0_split_0
I0509 11:20:19.836119  9215 net.cpp:380] loss2/classifier_loss2/classifier_0_split -> loss2/classifier_loss2/classifier_0_split_1
I0509 11:20:19.836124  9215 net.cpp:380] loss2/classifier_loss2/classifier_0_split -> loss2/classifier_loss2/classifier_0_split_2
I0509 11:20:19.836165  9215 net.cpp:122] Setting up loss2/classifier_loss2/classifier_0_split
I0509 11:20:19.836185  9215 net.cpp:129] Top shape: 50 196 (9800)
I0509 11:20:19.836187  9215 net.cpp:129] Top shape: 50 196 (9800)
I0509 11:20:19.836190  9215 net.cpp:129] Top shape: 50 196 (9800)
I0509 11:20:19.836192  9215 net.cpp:137] Memory required for data: 2517819612
I0509 11:20:19.836194  9215 layer_factory.hpp:77] Creating layer loss2/loss
I0509 11:20:19.836199  9215 net.cpp:84] Creating Layer loss2/loss
I0509 11:20:19.836202  9215 net.cpp:406] loss2/loss <- loss2/classifier_loss2/classifier_0_split_0
I0509 11:20:19.836206  9215 net.cpp:406] loss2/loss <- label_val-data_1_split_3
…
I0509 11:20:19.836684  9215 net.cpp:122] Setting up loss2/top-5
I0509 11:20:19.836688  9215 net.cpp:129] Top shape: (1)
I0509 11:20:19.836689  9215 net.cpp:137] Memory required for data: 2517819624
I0509 11:20:19.836691  9215 layer_factory.hpp:77] Creating layer inception_4e/1x1
I0509 11:20:19.836699  9215 net.cpp:84] Creating Layer inception_4e/1x1
I0509 11:20:19.836702  9215 net.cpp:406] inception_4e/1x1 <- inception_4d/output_inception_4d/output_0_split_1
I0509 11:20:19.836709  9215 net.cpp:380] inception_4e/1x1 -> inception_4e/1x1
I0509 11:20:19.839355  9215 net.cpp:122] Setting up inception_4e/1x1
I0509 11:20:19.839366  9215 net.cpp:129] Top shape: 50 256 14 14 (2508800)
I0509 11:20:19.839370  9215 net.cpp:137] Memory required for data: 2527854824
I0509 11:20:19.839375  9215 layer_factory.hpp:77] Creating layer inception_4e/relu_1x1
I0509 11:20:19.839382  9215 net.cpp:84] Creating Layer inception_4e/relu_1x1
I0509 11:20:19.839385  9215 net.cpp:406] inception_4e/relu_1x1 <- inception_4e/1x1
I0509 11:20:19.839390  9215 net.cpp:367] inception_4e/relu_1x1 -> inception_4e/1x1 (in-place)
I0509 11:20:19.840591  9215 net.cpp:122] Setting up inception_4e/relu_1x1
I0509 11:20:19.840602  9215 net.cpp:129] Top shape: 50 256 14 14 (2508800)
I0509 11:20:19.840605  9215 net.cpp:137] Memory required for data: 2537890024
I0509 11:20:19.840607  9215 layer_factory.hpp:77] Creating layer inception_4e/3x3_reduce
I0509 11:20:19.840646  9215 net.cpp:84] Creating Layer inception_4e/3x3_reduce
I0509 11:20:19.840649  9215 net.cpp:406] inception_4e/3x3_reduce <- inception_4d/output_inception_4d/output_0_split_2
I0509 11:20:19.840654  9215 net.cpp:380] inception_4e/3x3_reduce -> inception_4e/3x3_reduce
I0509 11:20:19.842825  9215 net.cpp:122] Setting up inception_4e/3x3_reduce
I0509 11:20:19.842835  9215 net.cpp:129] Top shape: 50 160 14 14 (1568000)
I0509 11:20:19.842837  9215 net.cpp:137] Memory required for data: 2544162024
I0509 11:20:19.842844  9215 layer_factory.hpp:77] Creating layer inception_4e/relu_3x3_reduce
I0509 11:20:19.842849  9215 net.cpp:84] Creating Layer inception_4e/relu_3x3_reduce
I0509 11:20:19.842866  9215 net.cpp:406] inception_4e/relu_3x3_reduce <- inception_4e/3x3_reduce
I0509 11:20:19.842873  9215 net.cpp:367] inception_4e/relu_3x3_reduce -> inception_4e/3x3_reduce (in-place)
I0509 11:20:19.843384  9215 net.cpp:122] Setting up inception_4e/relu_3x3_reduce
I0509 11:20:19.843394  9215 net.cpp:129] Top shape: 50 160 14 14 (1568000)
I0509 11:20:19.843395  9215 net.cpp:137] Memory required for data: 2550434024
I0509 11:20:19.843398  9215 layer_factory.hpp:77] Creating layer inception_4e/3x3
I0509 11:20:19.843408  9215 net.cpp:84] Creating Layer inception_4e/3x3
I0509 11:20:19.843411  9215 net.cpp:406] inception_4e/3x3 <- inception_4e/3x3_reduce
I0509 11:20:19.843416  9215 net.cpp:380] inception_4e/3x3 -> inception_4e/3x3
I0509 11:20:19.847658  9215 net.cpp:122] Setting up inception_4e/3x3
I0509 11:20:19.847672  9215 net.cpp:129] Top shape: 50 320 14 14 (3136000)
I0509 11:20:19.847676  9215 net.cpp:137] Memory required for data: 2562978024
I0509 11:20:19.847681  9215 layer_factory.hpp:77] Creating layer inception_4e/relu_3x3
I0509 11:20:19.847689  9215 net.cpp:84] Creating Layer inception_4e/relu_3x3
I0509 11:20:19.847693  9215 net.cpp:406] inception_4e/relu_3x3 <- inception_4e/3x3
I0509 11:20:19.847698  9215 net.cpp:367] inception_4e/relu_3x3 -> inception_4e/3x3 (in-place)
I0509 11:20:19.848372  9215 net.cpp:122] Setting up inception_4e/relu_3x3
I0509 11:20:19.848385  9215 net.cpp:129] Top shape: 50 320 14 14 (3136000)
I0509 11:20:19.848388  9215 net.cpp:137] Memory required for data: 2575522024
I0509 11:20:19.848392  9215 layer_factory.hpp:77] Creating layer inception_4e/5x5_reduce
I0509 11:20:19.848402  9215 net.cpp:84] Creating Layer inception_4e/5x5_reduce
I0509 11:20:19.848405  9215 net.cpp:406] inception_4e/5x5_reduce <- inception_4d/output_inception_4d/output_0_split_3
I0509 11:20:19.848412  9215 net.cpp:380] inception_4e/5x5_reduce -> inception_4e/5x5_reduce
I0509 11:20:19.852946  9215 net.cpp:122] Setting up inception_4e/5x5_reduce
I0509 11:20:19.852962  9215 net.cpp:129] Top shape: 50 32 14 14 (313600)
I0509 11:20:19.852965  9215 net.cpp:137] Memory required for data: 2576776424
I0509 11:20:19.852974  9215 layer_factory.hpp:77] Creating layer inception_4e/relu_5x5_reduce
I0509 11:20:19.852983  9215 net.cpp:84] Creating Layer inception_4e/relu_5x5_reduce
I0509 11:20:19.852988  9215 net.cpp:406] inception_4e/relu_5x5_reduce <- inception_4e/5x5_reduce
I0509 11:20:19.852996  9215 net.cpp:367] inception_4e/relu_5x5_reduce -> inception_4e/5x5_reduce (in-place)
I0509 11:20:19.855306  9215 net.cpp:122] Setting up inception_4e/relu_5x5_reduce
I0509 11:20:19.855317  9215 net.cpp:129] Top shape: 50 32 14 14 (313600)
I0509 11:20:19.855322  9215 net.cpp:137] Memory required for data: 2578030824
I0509 11:20:19.855326  9215 layer_factory.hpp:77] Creating layer inception_4e/5x5
I0509 11:20:19.855340  9215 net.cpp:84] Creating Layer inception_4e/5x5
I0509 11:20:19.855345  9215 net.cpp:406] inception_4e/5x5 <- inception_4e/5x5_reduce
I0509 11:20:19.855352  9215 net.cpp:380] inception_4e/5x5 -> inception_4e/5x5
I0509 11:20:19.860383  9215 net.cpp:122] Setting up inception_4e/5x5
I0509 11:20:19.860395  9215 net.cpp:129] Top shape: 50 128 14 14 (1254400)
I0509 11:20:19.860399  9215 net.cpp:137] Memory required for data: 2583048424
I0509 11:20:19.860406  9215 layer_factory.hpp:77] Creating layer inception_4e/relu_5x5
I0509 11:20:19.860414  9215 net.cpp:84] Creating Layer inception_4e/relu_5x5
I0509 11:20:19.860419  9215 net.cpp:406] inception_4e/relu_5x5 <- inception_4e/5x5
I0509 11:20:19.860430  9215 net.cpp:367] inception_4e/relu_5x5 -> inception_4e/5x5 (in-place)
I0509 11:20:19.860846  9215 net.cpp:122] Setting up inception_4e/relu_5x5
I0509 11:20:19.860857  9215 net.cpp:129] Top shape: 50 128 14 14 (1254400)
I0509 11:20:19.860859  9215 net.cpp:137] Memory required for data: 2588066024
I0509 11:20:19.860863  9215 layer_factory.hpp:77] Creating layer inception_4e/pool
I0509 11:20:19.860872  9215 net.cpp:84] Creating Layer inception_4e/pool
I0509 11:20:19.860877  9215 net.cpp:406] inception_4e/pool <- inception_4d/output_inception_4d/output_0_split_4
I0509 11:20:19.860900  9215 net.cpp:380] inception_4e/pool -> inception_4e/pool
I0509 11:20:19.860947  9215 net.cpp:122] Setting up inception_4e/pool
I0509 11:20:19.860955  9215 net.cpp:129] Top shape: 50 528 14 14 (5174400)
I0509 11:20:19.860958  9215 net.cpp:137] Memory required for data: 2608763624
I0509 11:20:19.860961  9215 layer_factory.hpp:77] Creating layer inception_4e/pool_proj
I0509 11:20:19.860976  9215 net.cpp:84] Creating Layer inception_4e/pool_proj
I0509 11:20:19.860980  9215 net.cpp:406] inception_4e/pool_proj <- inception_4e/pool
I0509 11:20:19.860987  9215 net.cpp:380] inception_4e/pool_proj -> inception_4e/pool_proj
I0509 11:20:19.999871  9215 net.cpp:122] Setting up inception_4e/pool_proj
I0509 11:20:19.999891  9215 net.cpp:129] Top shape: 50 128 14 14 (1254400)
I0509 11:20:19.999894  9215 net.cpp:137] Memory required for data: 2613781224
I0509 11:20:19.999902  9215 layer_factory.hpp:77] Creating layer inception_4e/relu_pool_proj
I0509 11:20:19.999913  9215 net.cpp:84] Creating Layer inception_4e/relu_pool_proj
I0509 11:20:19.999918  9215 net.cpp:406] inception_4e/relu_pool_proj <- inception_4e/pool_proj
I0509 11:20:19.999923  9215 net.cpp:367] inception_4e/relu_pool_proj -> inception_4e/pool_proj (in-place)
I0509 11:20:20.001186  9215 net.cpp:122] Setting up inception_4e/relu_pool_proj
I0509 11:20:20.001197  9215 net.cpp:129] Top shape: 50 128 14 14 (1254400)
I0509 11:20:20.001199  9215 net.cpp:137] Memory required for data: 2618798824
I0509 11:20:20.001202  9215 layer_factory.hpp:77] Creating layer inception_4e/output
I0509 11:20:20.001209  9215 net.cpp:84] Creating Layer inception_4e/output
I0509 11:20:20.001211  9215 net.cpp:406] inception_4e/output <- inception_4e/1x1
I0509 11:20:20.001215  9215 net.cpp:406] inception_4e/output <- inception_4e/3x3
I0509 11:20:20.001219  9215 net.cpp:406] inception_4e/output <- inception_4e/5x5
I0509 11:20:20.001222  9215 net.cpp:406] inception_4e/output <- inception_4e/pool_proj
I0509 11:20:20.001226  9215 net.cpp:380] inception_4e/output -> inception_4e/output
I0509 11:20:20.001252  9215 net.cpp:122] Setting up inception_4e/output
I0509 11:20:20.001258  9215 net.cpp:129] Top shape: 50 832 14 14 (8153600)
I0509 11:20:20.001260  9215 net.cpp:137] Memory required for data: 2651413224
I0509 11:20:20.001262  9215 layer_factory.hpp:77] Creating layer pool4/3x3_s2
I0509 11:20:20.001267  9215 net.cpp:84] Creating Layer pool4/3x3_s2
I0509 11:20:20.001271  9215 net.cpp:406] pool4/3x3_s2 <- inception_4e/output
I0509 11:20:20.001274  9215 net.cpp:380] pool4/3x3_s2 -> pool4/3x3_s2
I0509 11:20:20.001308  9215 net.cpp:122] Setting up pool4/3x3_s2
I0509 11:20:20.001313  9215 net.cpp:129] Top shape: 50 832 7 7 (2038400)
I0509 11:20:20.001315  9215 net.cpp:137] Memory required for data: 2659566824
I0509 11:20:20.001317  9215 layer_factory.hpp:77] Creating layer pool4/3x3_s2_pool4/3x3_s2_0_split
I0509 11:20:20.001322  9215 net.cpp:84] Creating Layer pool4/3x3_s2_pool4/3x3_s2_0_split
I0509 11:20:20.001324  9215 net.cpp:406] pool4/3x3_s2_pool4/3x3_s2_0_split <- pool4/3x3_s2
I0509 11:20:20.001329  9215 net.cpp:380] pool4/3x3_s2_pool4/3x3_s2_0_split -> pool4/3x3_s2_pool4/3x3_s2_0_split_0
I0509 11:20:20.001335  9215 net.cpp:380] pool4/3x3_s2_pool4/3x3_s2_0_split -> pool4/3x3_s2_pool4/3x3_s2_0_split_1
I0509 11:20:20.001339  9215 net.cpp:380] pool4/3x3_s2_pool4/3x3_s2_0_split -> pool4/3x3_s2_pool4/3x3_s2_0_split_2
I0509 11:20:20.001371  9215 net.cpp:380] pool4/3x3_s2_pool4/3x3_s2_0_split -> pool4/3x3_s2_pool4/3x3_s2_0_split_3
I0509 11:20:20.001413  9215 net.cpp:122] Setting up pool4/3x3_s2_pool4/3x3_s2_0_split
I0509 11:20:20.001418  9215 net.cpp:129] Top shape: 50 832 7 7 (2038400)
I0509 11:20:20.001421  9215 net.cpp:129] Top shape: 50 832 7 7 (2038400)
I0509 11:20:20.001425  9215 net.cpp:129] Top shape: 50 832 7 7 (2038400)
I0509 11:20:20.001427  9215 net.cpp:129] Top shape: 50 832 7 7 (2038400)
I0509 11:20:20.001430  9215 net.cpp:137] Memory required for data: 2692181224
I0509 11:20:20.001431  9215 layer_factory.hpp:77] Creating layer inception_5a/1x1
I0509 11:20:20.001454  9215 net.cpp:84] Creating Layer inception_5a/1x1
I0509 11:20:20.001457  9215 net.cpp:406] inception_5a/1x1 <- pool4/3x3_s2_pool4/3x3_s2_0_split_0
I0509 11:20:20.001462  9215 net.cpp:380] inception_5a/1x1 -> inception_5a/1x1
I0509 11:20:20.004487  9215 net.cpp:122] Setting up inception_5a/1x1
I0509 11:20:20.004498  9215 net.cpp:129] Top shape: 50 256 7 7 (627200)
I0509 11:20:20.004500  9215 net.cpp:137] Memory required for data: 2694690024
I0509 11:20:20.004506  9215 layer_factory.hpp:77] Creating layer inception_5a/relu_1x1
I0509 11:20:20.004513  9215 net.cpp:84] Creating Layer inception_5a/relu_1x1
I0509 11:20:20.004515  9215 net.cpp:406] inception_5a/relu_1x1 <- inception_5a/1x1
I0509 11:20:20.004519  9215 net.cpp:367] inception_5a/relu_1x1 -> inception_5a/1x1 (in-place)
I0509 11:20:20.005033  9215 net.cpp:122] Setting up inception_5a/relu_1x1
I0509 11:20:20.005041  9215 net.cpp:129] Top shape: 50 256 7 7 (627200)
I0509 11:20:20.005043  9215 net.cpp:137] Memory required for data: 2697198824
I0509 11:20:20.005046  9215 layer_factory.hpp:77] Creating layer inception_5a/3x3_reduce
I0509 11:20:20.005055  9215 net.cpp:84] Creating Layer inception_5a/3x3_reduce
I0509 11:20:20.005059  9215 net.cpp:406] inception_5a/3x3_reduce <- pool4/3x3_s2_pool4/3x3_s2_0_split_1
I0509 11:20:20.005065  9215 net.cpp:380] inception_5a/3x3_reduce -> inception_5a/3x3_reduce
I0509 11:20:20.007174  9215 net.cpp:122] Setting up inception_5a/3x3_reduce
I0509 11:20:20.007184  9215 net.cpp:129] Top shape: 50 160 7 7 (392000)
I0509 11:20:20.007186  9215 net.cpp:137] Memory required for data: 2698766824
I0509 11:20:20.007191  9215 layer_factory.hpp:77] Creating layer inception_5a/relu_3x3_reduce
I0509 11:20:20.007196  9215 net.cpp:84] Creating Layer inception_5a/relu_3x3_reduce
I0509 11:20:20.007201  9215 net.cpp:406] inception_5a/relu_3x3_reduce <- inception_5a/3x3_reduce
I0509 11:20:20.007207  9215 net.cpp:367] inception_5a/relu_3x3_reduce -> inception_5a/3x3_reduce (in-place)
I0509 11:20:20.007706  9215 net.cpp:122] Setting up inception_5a/relu_3x3_reduce
I0509 11:20:20.007716  9215 net.cpp:129] Top shape: 50 160 7 7 (392000)
I0509 11:20:20.007719  9215 net.cpp:137] Memory required for data: 2700334824
I0509 11:20:20.007721  9215 layer_factory.hpp:77] Creating layer inception_5a/3x3
I0509 11:20:20.007730  9215 net.cpp:84] Creating Layer inception_5a/3x3
I0509 11:20:20.007733  9215 net.cpp:406] inception_5a/3x3 <- inception_5a/3x3_reduce
I0509 11:20:20.007738  9215 net.cpp:380] inception_5a/3x3 -> inception_5a/3x3
I0509 11:20:20.012842  9215 net.cpp:122] Setting up inception_5a/3x3
I0509 11:20:20.012857  9215 net.cpp:129] Top shape: 50 320 7 7 (784000)
I0509 11:20:20.012861  9215 net.cpp:137] Memory required for data: 2703470824
I0509 11:20:20.012866  9215 layer_factory.hpp:77] Creating layer inception_5a/relu_3x3
I0509 11:20:20.012876  9215 net.cpp:84] Creating Layer inception_5a/relu_3x3
I0509 11:20:20.012879  9215 net.cpp:406] inception_5a/relu_3x3 <- inception_5a/3x3
I0509 11:20:20.012883  9215 net.cpp:367] inception_5a/relu_3x3 -> inception_5a/3x3 (in-place)
I0509 11:20:20.013379  9215 net.cpp:122] Setting up inception_5a/relu_3x3
I0509 11:20:20.013389  9215 net.cpp:129] Top shape: 50 320 7 7 (784000)
I0509 11:20:20.013391  9215 net.cpp:137] Memory required for data: 2706606824
I0509 11:20:20.013394  9215 layer_factory.hpp:77] Creating layer inception_5a/5x5_reduce
I0509 11:20:20.013404  9215 net.cpp:84] Creating Layer inception_5a/5x5_reduce
I0509 11:20:20.013408  9215 net.cpp:406] inception_5a/5x5_reduce <- pool4/3x3_s2_pool4/3x3_s2_0_split_2
I0509 11:20:20.013415  9215 net.cpp:380] inception_5a/5x5_reduce -> inception_5a/5x5_reduce
I0509 11:20:20.015422  9215 net.cpp:122] Setting up inception_5a/5x5_reduce
I0509 11:20:20.015434  9215 net.cpp:129] Top shape: 50 32 7 7 (78400)
I0509 11:20:20.015436  9215 net.cpp:137] Memory required for data: 2706920424
I0509 11:20:20.015441  9215 layer_factory.hpp:77] Creating layer inception_5a/relu_5x5_reduce
I0509 11:20:20.015446  9215 net.cpp:84] Creating Layer inception_5a/relu_5x5_reduce
I0509 11:20:20.015461  9215 net.cpp:406] inception_5a/relu_5x5_reduce <- inception_5a/5x5_reduce
I0509 11:20:20.015465  9215 net.cpp:367] inception_5a/relu_5x5_reduce -> inception_5a/5x5_reduce (in-place)
I0509 11:20:20.015789  9215 net.cpp:122] Setting up inception_5a/relu_5x5_reduce
I0509 11:20:20.015797  9215 net.cpp:129] Top shape: 50 32 7 7 (78400)
I0509 11:20:20.015799  9215 net.cpp:137] Memory required for data: 2707234024
I0509 11:20:20.015802  9215 layer_factory.hpp:77] Creating layer inception_5a/5x5
I0509 11:20:20.015811  9215 net.cpp:84] Creating Layer inception_5a/5x5
I0509 11:20:20.015815  9215 net.cpp:406] inception_5a/5x5 <- inception_5a/5x5_reduce
I0509 11:20:20.015820  9215 net.cpp:380] inception_5a/5x5 -> inception_5a/5x5
I0509 11:20:20.018326  9215 net.cpp:122] Setting up inception_5a/5x5
I0509 11:20:20.018335  9215 net.cpp:129] Top shape: 50 128 7 7 (313600)
I0509 11:20:20.018337  9215 net.cpp:137] Memory required for data: 2708488424
I0509 11:20:20.018342  9215 layer_factory.hpp:77] Creating layer inception_5a/relu_5x5
I0509 11:20:20.018349  9215 net.cpp:84] Creating Layer inception_5a/relu_5x5
I0509 11:20:20.018352  9215 net.cpp:406] inception_5a/relu_5x5 <- inception_5a/5x5
I0509 11:20:20.018357  9215 net.cpp:367] inception_5a/relu_5x5 -> inception_5a/5x5 (in-place)
I0509 11:20:20.020305  9215 net.cpp:122] Setting up inception_5a/relu_5x5
I0509 11:20:20.020320  9215 net.cpp:129] Top shape: 50 128 7 7 (313600)
I0509 11:20:20.020323  9215 net.cpp:137] Memory required for data: 2709742824
I0509 11:20:20.020326  9215 layer_factory.hpp:77] Creating layer inception_5a/pool
I0509 11:20:20.020334  9215 net.cpp:84] Creating Layer inception_5a/pool
I0509 11:20:20.020339  9215 net.cpp:406] inception_5a/pool <- pool4/3x3_s2_pool4/3x3_s2_0_split_3
I0509 11:20:20.020345  9215 net.cpp:380] inception_5a/pool -> inception_5a/pool
I0509 11:20:20.020390  9215 net.cpp:122] Setting up inception_5a/pool
I0509 11:20:20.020396  9215 net.cpp:129] Top shape: 50 832 7 7 (2038400)
I0509 11:20:20.020398  9215 net.cpp:137] Memory required for data: 2717896424
I0509 11:20:20.020401  9215 layer_factory.hpp:77] Creating layer inception_5a/pool_proj
I0509 11:20:20.020411  9215 net.cpp:84] Creating Layer inception_5a/pool_proj
I0509 11:20:20.020413  9215 net.cpp:406] inception_5a/pool_proj <- inception_5a/pool
I0509 11:20:20.020419  9215 net.cpp:380] inception_5a/pool_proj -> inception_5a/pool_proj
I0509 11:20:20.046766  9215 net.cpp:122] Setting up inception_5a/pool_proj
I0509 11:20:20.046787  9215 net.cpp:129] Top shape: 50 128 7 7 (313600)
I0509 11:20:20.046788  9215 net.cpp:137] Memory required for data: 2719150824
I0509 11:20:20.046797  9215 layer_factory.hpp:77] Creating layer inception_5a/relu_pool_proj
I0509 11:20:20.046805  9215 net.cpp:84] Creating Layer inception_5a/relu_pool_proj
I0509 11:20:20.046810  9215 net.cpp:406] inception_5a/relu_pool_proj <- inception_5a/pool_proj
I0509 11:20:20.046818  9215 net.cpp:367] inception_5a/relu_pool_proj -> inception_5a/pool_proj (in-place)
I0509 11:20:20.047350  9215 net.cpp:122] Setting up inception_5a/relu_pool_proj
I0509 11:20:20.047358  9215 net.cpp:129] Top shape: 50 128 7 7 (313600)
I0509 11:20:20.047361  9215 net.cpp:137] Memory required for data: 2720405224
I0509 11:20:20.047363  9215 layer_factory.hpp:77] Creating layer inception_5a/output
I0509 11:20:20.047371  9215 net.cpp:84] Creating Layer inception_5a/output
I0509 11:20:20.047374  9215 net.cpp:406] inception_5a/output <- inception_5a/1x1
I0509 11:20:20.047379  9215 net.cpp:406] inception_5a/output <- inception_5a/3x3
I0509 11:20:20.047381  9215 net.cpp:406] inception_5a/output <- inception_5a/5x5
I0509 11:20:20.047385  9215 net.cpp:406] inception_5a/output <- inception_5a/pool_proj
I0509 11:20:20.047390  9215 net.cpp:380] inception_5a/output -> inception_5a/output
I0509 11:20:20.047415  9215 net.cpp:122] Setting up inception_5a/output
I0509 11:20:20.047420  9215 net.cpp:129] Top shape: 50 832 7 7 (2038400)
I0509 11:20:20.047422  9215 net.cpp:137] Memory required for data: 2728558824
I0509 11:20:20.047442  9215 layer_factory.hpp:77] Creating layer inception_5a/output_inception_5a/output_0_split
I0509 11:20:20.047449  9215 net.cpp:84] Creating Layer inception_5a/output_inception_5a/output_0_split
I0509 11:20:20.047452  9215 net.cpp:406] inception_5a/output_inception_5a/output_0_split <- inception_5a/output
I0509 11:20:20.047458  9215 net.cpp:380] inception_5a/output_inception_5a/output_0_split -> inception_5a/output_inception_5a/output_0_split_0
I0509 11:20:20.047463  9215 net.cpp:380] inception_5a/output_inception_5a/output_0_split -> inception_5a/output_inception_5a/output_0_split_1
I0509 11:20:20.047468  9215 net.cpp:380] inception_5a/output_inception_5a/output_0_split -> inception_5a/output_inception_5a/output_0_split_2
I0509 11:20:20.047473  9215 net.cpp:380] inception_5a/output_inception_5a/output_0_split -> inception_5a/output_inception_5a/output_0_split_3
I0509 11:20:20.047521  9215 net.cpp:122] Setting up inception_5a/output_inception_5a/output_0_split
I0509 11:20:20.047528  9215 net.cpp:129] Top shape: 50 832 7 7 (2038400)
I0509 11:20:20.047530  9215 net.cpp:129] Top shape: 50 832 7 7 (2038400)
I0509 11:20:20.047533  9215 net.cpp:129] Top shape: 50 832 7 7 (2038400)
I0509 11:20:20.047536  9215 net.cpp:129] Top shape: 50 832 7 7 (2038400)
I0509 11:20:20.047538  9215 net.cpp:137] Memory required for data: 2761173224
I0509 11:20:20.047540  9215 layer_factory.hpp:77] Creating layer inception_5b/1x1
I0509 11:20:20.047550  9215 net.cpp:84] Creating Layer inception_5b/1x1
I0509 11:20:20.047554  9215 net.cpp:406] inception_5b/1x1 <- inception_5a/output_inception_5a/output_0_split_0
I0509 11:20:20.047559  9215 net.cpp:380] inception_5b/1x1 -> inception_5b/1x1
I0509 11:20:20.050904  9215 net.cpp:122] Setting up inception_5b/1x1
I0509 11:20:20.050915  9215 net.cpp:129] Top shape: 50 384 7 7 (940800)
I0509 11:20:20.050918  9215 net.cpp:137] Memory required for data: 2764936424
I0509 11:20:20.050923  9215 layer_factory.hpp:77] Creating layer inception_5b/relu_1x1
I0509 11:20:20.050930  9215 net.cpp:84] Creating Layer inception_5b/relu_1x1
I0509 11:20:20.050933  9215 net.cpp:406] inception_5b/relu_1x1 <- inception_5b/1x1
I0509 11:20:20.050937  9215 net.cpp:367] inception_5b/relu_1x1 -> inception_5b/1x1 (in-place)
I0509 11:20:20.051443  9215 net.cpp:122] Setting up inception_5b/relu_1x1
I0509 11:20:20.051452  9215 net.cpp:129] Top shape: 50 384 7 7 (940800)
I0509 11:20:20.051455  9215 net.cpp:137] Memory required for data: 2768699624
I0509 11:20:20.051457  9215 layer_factory.hpp:77] Creating layer inception_5b/3x3_reduce
I0509 11:20:20.051466  9215 net.cpp:84] Creating Layer inception_5b/3x3_reduce
I0509 11:20:20.051470  9215 net.cpp:406] inception_5b/3x3_reduce <- inception_5a/output_inception_5a/output_0_split_1
I0509 11:20:20.051476  9215 net.cpp:380] inception_5b/3x3_reduce -> inception_5b/3x3_reduce
I0509 11:20:20.054916  9215 net.cpp:122] Setting up inception_5b/3x3_reduce
I0509 11:20:20.054929  9215 net.cpp:129] Top shape: 50 192 7 7 (470400)
I0509 11:20:20.054931  9215 net.cpp:137] Memory required for data: 2770581224
I0509 11:20:20.054939  9215 layer_factory.hpp:77] Creating layer inception_5b/relu_3x3_reduce
I0509 11:20:20.054946  9215 net.cpp:84] Creating Layer inception_5b/relu_3x3_reduce
I0509 11:20:20.054951  9215 net.cpp:406] inception_5b/relu_3x3_reduce <- inception_5b/3x3_reduce
I0509 11:20:20.054955  9215 net.cpp:367] inception_5b/relu_3x3_reduce -> inception_5b/3x3_reduce (in-place)
I0509 11:20:20.055474  9215 net.cpp:122] Setting up inception_5b/relu_3x3_reduce
I0509 11:20:20.055483  9215 net.cpp:129] Top shape: 50 192 7 7 (470400)
I0509 11:20:20.055485  9215 net.cpp:137] Memory required for data: 2772462824
I0509 11:20:20.055488  9215 layer_factory.hpp:77] Creating layer inception_5b/3x3
I0509 11:20:20.055498  9215 net.cpp:84] Creating Layer inception_5b/3x3
I0509 11:20:20.055501  9215 net.cpp:406] inception_5b/3x3 <- inception_5b/3x3_reduce
I0509 11:20:20.055508  9215 net.cpp:380] inception_5b/3x3 -> inception_5b/3x3
I0509 11:20:20.061017  9215 net.cpp:122] Setting up inception_5b/3x3
I0509 11:20:20.061044  9215 net.cpp:129] Top shape: 50 384 7 7 (940800)
I0509 11:20:20.061048  9215 net.cpp:137] Memory required for data: 2776226024
I0509 11:20:20.061053  9215 layer_factory.hpp:77] Creating layer inception_5b/relu_3x3
I0509 11:20:20.061059  9215 net.cpp:84] Creating Layer inception_5b/relu_3x3
I0509 11:20:20.061064  9215 net.cpp:406] inception_5b/relu_3x3 <- inception_5b/3x3
I0509 11:20:20.061069  9215 net.cpp:367] inception_5b/relu_3x3 -> inception_5b/3x3 (in-place)
I0509 11:20:20.061395  9215 net.cpp:122] Setting up inception_5b/relu_3x3
I0509 11:20:20.061403  9215 net.cpp:129] Top shape: 50 384 7 7 (940800)
I0509 11:20:20.061405  9215 net.cpp:137] Memory required for data: 2779989224
I0509 11:20:20.061408  9215 layer_factory.hpp:77] Creating layer inception_5b/5x5_reduce
I0509 11:20:20.061417  9215 net.cpp:84] Creating Layer inception_5b/5x5_reduce
I0509 11:20:20.061421  9215 net.cpp:406] inception_5b/5x5_reduce <- inception_5a/output_inception_5a/output_0_split_2
I0509 11:20:20.061427  9215 net.cpp:380] inception_5b/5x5_reduce -> inception_5b/5x5_reduce
I0509 11:20:20.063431  9215 net.cpp:122] Setting up inception_5b/5x5_reduce
I0509 11:20:20.063439  9215 net.cpp:129] Top shape: 50 48 7 7 (117600)
I0509 11:20:20.063442  9215 net.cpp:137] Memory required for data: 2780459624
I0509 11:20:20.063447  9215 layer_factory.hpp:77] Creating layer inception_5b/relu_5x5_reduce
I0509 11:20:20.063452  9215 net.cpp:84] Creating Layer inception_5b/relu_5x5_reduce
I0509 11:20:20.063457  9215 net.cpp:406] inception_5b/relu_5x5_reduce <- inception_5b/5x5_reduce
I0509 11:20:20.063462  9215 net.cpp:367] inception_5b/relu_5x5_reduce -> inception_5b/5x5_reduce (in-place)
I0509 11:20:20.063784  9215 net.cpp:122] Setting up inception_5b/relu_5x5_reduce
I0509 11:20:20.063792  9215 net.cpp:129] Top shape: 50 48 7 7 (117600)
I0509 11:20:20.063794  9215 net.cpp:137] Memory required for data: 2780930024
I0509 11:20:20.063797  9215 layer_factory.hpp:77] Creating layer inception_5b/5x5
I0509 11:20:20.063807  9215 net.cpp:84] Creating Layer inception_5b/5x5
I0509 11:20:20.063809  9215 net.cpp:406] inception_5b/5x5 <- inception_5b/5x5_reduce
I0509 11:20:20.063815  9215 net.cpp:380] inception_5b/5x5 -> inception_5b/5x5
I0509 11:20:20.067528  9215 net.cpp:122] Setting up inception_5b/5x5
I0509 11:20:20.067543  9215 net.cpp:129] Top shape: 50 128 7 7 (313600)
I0509 11:20:20.067545  9215 net.cpp:137] Memory required for data: 2782184424
I0509 11:20:20.067553  9215 layer_factory.hpp:77] Creating layer inception_5b/relu_5x5
I0509 11:20:20.067559  9215 net.cpp:84] Creating Layer inception_5b/relu_5x5
I0509 11:20:20.067564  9215 net.cpp:406] inception_5b/relu_5x5 <- inception_5b/5x5
I0509 11:20:20.067569  9215 net.cpp:367] inception_5b/relu_5x5 -> inception_5b/5x5 (in-place)
I0509 11:20:20.068130  9215 net.cpp:122] Setting up inception_5b/relu_5x5
I0509 11:20:20.068140  9215 net.cpp:129] Top shape: 50 128 7 7 (313600)
I0509 11:20:20.068141  9215 net.cpp:137] Memory required for data: 2783438824
I0509 11:20:20.068145  9215 layer_factory.hpp:77] Creating layer inception_5b/pool
I0509 11:20:20.068150  9215 net.cpp:84] Creating Layer inception_5b/pool
I0509 11:20:20.068153  9215 net.cpp:406] inception_5b/pool <- inception_5a/output_inception_5a/output_0_split_3
I0509 11:20:20.068159  9215 net.cpp:380] inception_5b/pool -> inception_5b/pool
I0509 11:20:20.068197  9215 net.cpp:122] Setting up inception_5b/pool
I0509 11:20:20.068202  9215 net.cpp:129] Top shape: 50 832 7 7 (2038400)
I0509 11:20:20.068204  9215 net.cpp:137] Memory required for data: 2791592424
I0509 11:20:20.068207  9215 layer_factory.hpp:77] Creating layer inception_5b/pool_proj
I0509 11:20:20.068217  9215 net.cpp:84] Creating Layer inception_5b/pool_proj
I0509 11:20:20.068219  9215 net.cpp:406] inception_5b/pool_proj <- inception_5b/pool
I0509 11:20:20.068224  9215 net.cpp:380] inception_5b/pool_proj -> inception_5b/pool_proj
I0509 11:20:20.070183  9215 net.cpp:122] Setting up inception_5b/pool_proj
I0509 11:20:20.070191  9215 net.cpp:129] Top shape: 50 128 7 7 (313600)
I0509 11:20:20.070207  9215 net.cpp:137] Memory required for data: 2792846824
I0509 11:20:20.070214  9215 layer_factory.hpp:77] Creating layer inception_5b/relu_pool_proj
I0509 11:20:20.070219  9215 net.cpp:84] Creating Layer inception_5b/relu_pool_proj
I0509 11:20:20.070224  9215 net.cpp:406] inception_5b/relu_pool_proj <- inception_5b/pool_proj
I0509 11:20:20.070227  9215 net.cpp:367] inception_5b/relu_pool_proj -> inception_5b/pool_proj (in-place)
I0509 11:20:20.070726  9215 net.cpp:122] Setting up inception_5b/relu_pool_proj
I0509 11:20:20.070735  9215 net.cpp:129] Top shape: 50 128 7 7 (313600)
I0509 11:20:20.070737  9215 net.cpp:137] Memory required for data: 2794101224
I0509 11:20:20.070740  9215 layer_factory.hpp:77] Creating layer inception_5b/output
I0509 11:20:20.070745  9215 net.cpp:84] Creating Layer inception_5b/output
I0509 11:20:20.070749  9215 net.cpp:406] inception_5b/output <- inception_5b/1x1
I0509 11:20:20.070752  9215 net.cpp:406] inception_5b/output <- inception_5b/3x3
I0509 11:20:20.070755  9215 net.cpp:406] inception_5b/output <- inception_5b/5x5
I0509 11:20:20.070758  9215 net.cpp:406] inception_5b/output <- inception_5b/pool_proj
I0509 11:20:20.070765  9215 net.cpp:380] inception_5b/output -> inception_5b/output
I0509 11:20:20.070791  9215 net.cpp:122] Setting up inception_5b/output
I0509 11:20:20.070796  9215 net.cpp:129] Top shape: 50 1024 7 7 (2508800)
I0509 11:20:20.070797  9215 net.cpp:137] Memory required for data: 2804136424
I0509 11:20:20.070799  9215 layer_factory.hpp:77] Creating layer pool5/7x7_s1
I0509 11:20:20.070804  9215 net.cpp:84] Creating Layer pool5/7x7_s1
I0509 11:20:20.070806  9215 net.cpp:406] pool5/7x7_s1 <- inception_5b/output
I0509 11:20:20.070811  9215 net.cpp:380] pool5/7x7_s1 -> pool5/7x7_s1
I0509 11:20:20.071332  9215 net.cpp:122] Setting up pool5/7x7_s1
I0509 11:20:20.071341  9215 net.cpp:129] Top shape: 50 1024 1 1 (51200)
I0509 11:20:20.071343  9215 net.cpp:137] Memory required for data: 2804341224
I0509 11:20:20.071346  9215 layer_factory.hpp:77] Creating layer pool5/drop_7x7_s1
I0509 11:20:20.071354  9215 net.cpp:84] Creating Layer pool5/drop_7x7_s1
I0509 11:20:20.071359  9215 net.cpp:406] pool5/drop_7x7_s1 <- pool5/7x7_s1
I0509 11:20:20.071367  9215 net.cpp:367] pool5/drop_7x7_s1 -> pool5/7x7_s1 (in-place)
I0509 11:20:20.071389  9215 net.cpp:122] Setting up pool5/drop_7x7_s1
I0509 11:20:20.071394  9215 net.cpp:129] Top shape: 50 1024 1 1 (51200)
I0509 11:20:20.071396  9215 net.cpp:137] Memory required for data: 2804546024
I0509 11:20:20.071398  9215 layer_factory.hpp:77] Creating layer loss3/classifier
I0509 11:20:20.071406  9215 net.cpp:84] Creating Layer loss3/classifier
I0509 11:20:20.071409  9215 net.cpp:406] loss3/classifier <- pool5/7x7_s1
I0509 11:20:20.071415  9215 net.cpp:380] loss3/classifier -> loss3/classifier
I0509 11:20:20.072788  9215 net.cpp:122] Setting up loss3/classifier
I0509 11:20:20.072798  9215 net.cpp:129] Top shape: 50 196 (9800)
I0509 11:20:20.072801  9215 net.cpp:137] Memory required for data: 2804585224
I0509 11:20:20.072808  9215 layer_factory.hpp:77] Creating layer loss3/classifier_loss3/classifier_0_split
I0509 11:20:20.072814  9215 net.cpp:84] Creating Layer loss3/classifier_loss3/classifier_0_split
I0509 11:20:20.072818  9215 net.cpp:406] loss3/classifier_loss3/classifier_0_split <- loss3/classifier
I0509 11:20:20.072824  9215 net.cpp:380] loss3/classifier_loss3/classifier_0_split -> loss3/classifier_loss3/classifier_0_split_0
I0509 11:20:20.072829  9215 net.cpp:380] loss3/classifier_loss3/classifier_0_split -> loss3/classifier_loss3/classifier_0_split_1
I0509 11:20:20.072835  9215 net.cpp:380] loss3/classifier_loss3/classifier_0_split -> loss3/classifier_loss3/classifier_0_split_2
I0509 11:20:20.072880  9215 net.cpp:122] Setting up loss3/classifier_loss3/classifier_0_split
I0509 11:20:20.072885  9215 net.cpp:129] Top shape: 50 196 (9800)
I0509 11:20:20.072886  9215 net.cpp:129] Top shape: 50 196 (9800)
I0509 11:20:20.072888  9215 net.cpp:129] Top shape: 50 196 (9800)
I0509 11:20:20.072890  9215 net.cpp:137] Memory required for data: 2804702824
I0509 11:20:20.072901  9215 layer_factory.hpp:77] Creating layer loss3/loss
I0509 11:20:20.072907  9215 net.cpp:84] Creating Layer loss3/loss
I0509 11:20:20.072911  9215 net.cpp:406] loss3/loss <- loss3/classifier_loss3/classifier_0_split_0
I0509 11:20:20.072913  9215 net.cpp:406] loss3/loss <- label_val-data_1_split_6
…
