…
I0507 20:08:22.548979 24220 net.cpp:294] The NetState phase (0) differed from the phase (1) specified by a rule in layer loss3/top-5
I0507 20:08:22.549813 24220 net.cpp:51] Initializing net from parameters:
state {
phase: TRAIN
level: 0
stage: ""
}
layer {
name: "train-data"
type: "Data"
top: "data"
top: "label"
include {
phase: TRAIN
}
transform_param {
mirror: true
crop_size: 224
mean_file: "/mnt/bigdisk/MANDIG4/digits/jobs/20200507-113700-33e0/mean.binaryproto"
}
data_param {
source: "/mnt/bigdisk/MANDIG4/digits/jobs/20200507-113700-33e0/train_db"
batch_size: 32
backend: LMDB
}
}
layer {
name: "conv1/7x7_s2"
type: "Convolution"
bottom: "data"
top: "conv1/7x7_s2"
param {
lr_mult: 1
decay_mult: 1
}
param {
lr_mult: 2
decay_mult: 0
}
convolution_param {
num_output: 64
pad: 3
kernel_size: 7
stride: 2
weight_filler {
type: "xavier"
std: 0.1
}
bias_filler {
type: "constant"
value: 0.2
}
}
}
layer {
name: "conv1/relu_7x7"
type: "ReLU"
bottom: "conv1/7x7_s2"
top: "conv1/7x7_s2"
}
layer {
name: "pool1/3x3_s2"
type: "Pooling"
bottom: "conv1/7x7_s2"
top: "pool1/3x3_s2"
pooling_param {
pool: MAX
kernel_size: 3
stride: 2
}
}
layer {
name: "pool1/norm1"
type: "LRN"
bottom: "pool1/3x3_s2"
top: "pool1/norm1"
lrn_param {
local_size: 5
alpha: 0.0001
beta: 0.75
}
}
layer {
name: "conv2/3x3_reduce"
type: "Convolution"
bottom: "pool1/norm1"
top: "conv2/3x3_reduce"
param {
lr_mult: 1
decay_mult: 1
}
param {
lr_mult: 2
decay_mult: 0
}
convolution_param {
num_output: 64
kernel_size: 1
weight_filler {
type: "xavier"
std: 0.1
}
bias_filler {
type: "constant"
value: 0.2
}
}
}
layer {
name: "conv2/relu_3x3_reduce"
type: "ReLU"
bottom: "conv2/3x3_reduce"
top: "conv2/3x3_reduce"
}
layer {
name: "conv2/3x3"
type: "Convolution"
bottom: "conv2/3x3_reduce"
top: "conv2/3x3"
param {
lr_mult: 1
decay_mult: 1
}
param {
lr_mult: 2
decay_mult: 0
}
convolution_param {
num_output: 192
pad: 1
kernel_size: 3
weight_filler {
type: "xavier"
std: 0.03
}
bias_filler {
type: "constant"
value: 0.2
}
}
}
layer {
name: "conv2/relu_3x3"
type: "ReLU"
bottom: "conv2/3x3"
top: "conv2/3x3"
}
layer {
name: "conv2/norm2"
type: "LRN"
bottom: "conv2/3x3"
top: "conv2/norm2"
lrn_param {
local_size: 5
alpha: 0.0001
beta: 0.75
}
}
layer {
name: "pool2/3x3_s2"
type: "Pooling"
bottom: "conv2/norm2"
top: "pool2/3x3_s2"
pooling_param {
pool: MAX
kernel_size: 3
stride: 2
}
}
layer {
name: "inception_3a/1x1"
type: "Convolution"
bottom: "pool2/3x3_s2"
top: "inception_3a/1x1"
param {
lr_mult: 1
decay_mult: 1
}
param {
lr_mult: 2
decay_mult: 0
}
convolution_param {
num_output: 64
kernel_size: 1
weight_filler {
type: "xavier"
std: 0.03
}
bias_filler {
type: "constant"
value: 0.2
}
}
}
layer {
name: "inception_3a/relu_1x1"
type: "ReLU"
bottom: "inception_3a/1x1"
top: "inception_3a/1x1"
}
layer {
name: "inception_3a/3x3_reduce"
type: "Convolution"
bottom: "pool2/3x3_s2"
top: "inception_3a/3x3_reduce"
param {
lr_mult: 1
decay_mult: 1
}
param {
lr_mult: 2
decay_mult: 0
}
convolution_param {
num_output: 96
kernel_size: 1
weight_filler {
type: "xavier"
std: 0.09
}
bias_filler {
type: "constant"
value: 0.2
}
}
}
layer {
name: "inception_3a/relu_3x3_reduce"
type: "ReLU"
bottom: "inception_3a/3x3_reduce"
top: "inception_3a/3x3_reduce"
}
layer {
name: "inception_3a/3x3"
type: "Convolution"
bottom: "inception_3a/3x3_reduce"
top: "inception_3a/3x3"
param {
lr_mult: 1
decay_mult: 1
}
param {
lr_mult: 2
decay_mult: 0
}
convolution_param {
num_output: 128
pad: 1
kernel_size: 3
weight_filler {
type: "xavier"
std: 0.03
}
bias_filler {
type: "constant"
value: 0.2
}
}
}
layer {
name: "inception_3a/relu_3x3"
type: "ReLU"
bottom: "inception_3a/3x3"
top: "inception_3a/3x3"
}
layer {
name: "inception_3a/5x5_reduce"
type: "Convolution"
bottom: "pool2/3x3_s2"
top: "inception_3a/5x5_reduce"
param {
lr_mult: 1
decay_mult: 1
}
param {
lr_mult: 2
decay_mult: 0
}
convolution_param {
num_output: 16
kernel_size: 1
weight_filler {
type: "xavier"
std: 0.2
}
bias_filler {
type: "constant"
value: 0.2
}
}
}
layer {
name: "inception_3a/relu_5x5_reduce"
type: "ReLU"
bottom: "inception_3a/5x5_reduce"
top: "inception_3a/5x5_reduce"
}
layer {
name: "inception_3a/5x5"
type: "Convolution"
bottom: "inception_3a/5x5_reduce"
top: "inception_3a/5x5"
param {
lr_mult: 1
decay_mult: 1
}
param {
lr_mult: 2
decay_mult: 0
}
convolution_param {
num_output: 32
pad: 2
kernel_size: 5
weight_filler {
type: "xavier"
std: 0.03
}
bias_filler {
type: "constant"
value: 0.2
}
}
}
layer {
name: "inception_3a/relu_5x5"
type: "ReLU"
bottom: "inception_3a/5x5"
top: "inception_3a/5x5"
}
layer {
name: "inception_3a/pool"
type: "Pooling"
bottom: "pool2/3x3_s2"
top: "inception_3a/pool"
pooling_param {
pool: MAX
kernel_size: 3
stride: 1
pad: 1
}
}
layer {
name: "inception_3a/pool_proj"
type: "Convolution"
bottom: "inception_3a/pool"
top: "inception_3a/pool_proj"
param {
lr_mult: 1
decay_mult: 1
}
param {
lr_mult: 2
decay_mult: 0
}
convolution_param {
num_output: 32
kernel_size: 1
weight_filler {
type: "xavier"
std: 0.1
}
bias_filler {
type: "constant"
value: 0.2
}
}
}
layer {
name: "inception_3a/relu_pool_proj"
type: "ReLU"
bottom: "inception_3a/pool_proj"
top: "inception_3a/pool_proj"
}
layer {
name: "inception_3a/output"
type: "Concat"
bottom: "inception_3a/1x1"
bottom: "inception_3a/3x3"
bottom: "inception_3a/5x5"
bottom: "inception_3a/pool_proj"
top: "inception_3a/output"
}
layer {
name: "inception_3b/1x1"
type: "Convolution"
bottom: "inception_3a/output"
top: "inception_3b/1x1"
param {
lr_mult: 1
decay_mult: 1
}
param {
lr_mult: 2
decay_mult: 0
}
convolution_param {
num_output: 128
kernel_size: 1
weight_filler {
type: "xavier"
std: 0.03
}
bias_filler {
type: "constant"
value: 0.2
}
}
}
layer {
name: "inception_3b/relu_1x1"
type: "ReLU"
bottom: "inception_3b/1x1"
top: "inception_3b/1x1"
}
layer {
name: "inception_3b/3x3_reduce"
type: "Convolution"
bottom: "inception_3a/output"
top: "inception_3b/3x3_reduce"
param {
lr_mult: 1
decay_mult: 1
}
param {
lr_mult: 2
decay_mult: 0
}
convolution_param {
num_output: 128
kernel_size: 1
weight_filler {
type: "xavier"
std: 0.09
}
bias_filler {
type: "constant"
value: 0.2
}
}
}
layer {
name: "inception_3b/relu_3x3_reduce"
type: "ReLU"
bottom: "inception_3b/3x3_reduce"
top: "inception_3b/3x3_reduce"
}
layer {
name: "inception_3b/3x3"
type: "Convolution"
bottom: "inception_3b/3x3_reduce"
top: "inception_3b/3x3"
param {
lr_mult: 1
decay_mult: 1
}
param {
lr_mult: 2
decay_mult: 0
}
convolution_param {
num_output: 192
pad: 1
kernel_size: 3
weight_filler {
type: "xavier"
std: 0.03
}
bias_filler {
type: "constant"
value: 0.2
}
}
}
layer {
name: "inception_3b/relu_3x3"
type: "ReLU"
bottom: "inception_3b/3x3"
top: "inception_3b/3x3"
}
layer {
name: "inception_3b/5x5_reduce"
type: "Convolution"
bottom: "inception_3a/output"
top: "inception_3b/5x5_reduce"
param {
lr_mult: 1
decay_mult: 1
}
param {
lr_mult: 2
decay_mult: 0
}
convolution_param {
num_output: 32
kernel_size: 1
weight_filler {
type: "xavier"
std: 0.2
}
bias_filler {
type: "constant"
value: 0.2
}
}
}
layer {
name: "inception_3b/relu_5x5_reduce"
type: "ReLU"
bottom: "inception_3b/5x5_reduce"
top: "inception_3b/5x5_reduce"
}
layer {
name: "inception_3b/5x5"
type: "Convolution"
bottom: "inception_3b/5x5_reduce"
top: "inception_3b/5x5"
param {
lr_mult: 1
decay_mult: 1
}
param {
lr_mult: 2
decay_mult: 0
}
convolution_param {
num_output: 96
pad: 2
kernel_size: 5
weight_filler {
type: "xavier"
std: 0.03
}
bias_filler {
type: "constant"
value: 0.2
}
}
}
layer {
name: "inception_3b/relu_5x5"
type: "ReLU"
bottom: "inception_3b/5x5"
top: "inception_3b/5x5"
}
layer {
name: "inception_3b/pool"
type: "Pooling"
bottom: "inception_3a/output"
top: "inception_3b/pool"
pooling_param {
pool: MAX
kernel_size: 3
stride: 1
pad: 1
}
}
layer {
name: "inception_3b/pool_proj"
type: "Convolution"
bottom: "inception_3b/pool"
top: "inception_3b/pool_proj"
param {
lr_mult: 1
decay_mult: 1
}
param {
lr_mult: 2
decay_mult: 0
}
convolution_param {
num_output: 64
kernel_size: 1
weight_filler {
type: "xavier"
std: 0.1
}
bias_filler {
type: "constant"
value: 0.2
}
}
}
layer {
name: "inception_3b/relu_pool_proj"
type: "ReLU"
bottom: "inception_3b/pool_proj"
top: "inception_3b/pool_proj"
}
layer {
name: "inception_3b/output"
type: "Concat"
bottom: "inception_3b/1x1"
bottom: "inception_3b/3x3"
bottom: "inception_3b/5x5"
bottom: "inception_3b/pool_proj"
top: "inception_3b/output"
}
layer {
name: "pool3/3x3_s2"
type: "Pooling"
bottom: "inception_3b/output"
top: "pool3/3x3_s2"
pooling_param {
pool: MAX
kernel_size: 3
stride: 2
}
}
layer {
name: "inception_4a/1x1"
type: "Convolution"
bottom: "pool3/3x3_s2"
top: "inception_4a/1x1"
param {
lr_mult: 1
decay_mult: 1
}
param {
lr_mult: 2
decay_mult: 0
}
convolution_param {
num_output: 192
kernel_size: 1
weight_filler {
type: "xavier"
std: 0.03
}
bias_filler {
type: "constant"
value: 0.2
}
}
}
layer {
name: "inception_4a/relu_1x1"
type: "ReLU"
bottom: "inception_4a/1x1"
top: "inception_4a/1x1"
}
layer {
name: "inception_4a/3x3_reduce"
type: "Convolution"
bottom: "pool3/3x3_s2"
top: "inception_4a/3x3_reduce"
param {
lr_mult: 1
decay_mult: 1
}
param {
lr_mult: 2
decay_mult: 0
}
convolution_param {
num_output: 96
kernel_size: 1
weight_filler {
type: "xavier"
std: 0.09
}
bias_filler {
type: "constant"
value: 0.2
}
}
}
layer {
name: "inception_4a/relu_3x3_reduce"
type: "ReLU"
bottom: "inception_4a/3x3_reduce"
top: "inception_4a/3x3_reduce"
}
layer {
name: "inception_4a/3x3"
type: "Convolution"
bottom: "inception_4a/3x3_reduce"
top: "inception_4a/3x3"
param {
lr_mult: 1
decay_mult: 1
}
param {
lr_mult: 2
decay_mult: 0
}
convolution_param {
num_output: 208
pad: 1
kernel_size: 3
weight_filler {
type: "xavier"
std: 0.03
}
bias_filler {
type: "constant"
value: 0.2
}
}
}
layer {
name: "inception_4a/relu_3x3"
type: "ReLU"
bottom: "inception_4a/3x3"
top: "inception_4a/3x3"
}
layer {
name: "inception_4a/5x5_reduce"
type: "Convolution"
bottom: "pool3/3x3_s2"
top: "inception_4a/5x5_reduce"
param {
lr_mult: 1
decay_mult: 1
}
param {
lr_mult: 2
decay_mult: 0
}
convolution_param {
num_output: 16
kernel_size: 1
weight_filler {
type: "xavier"
std: 0.2
}
bias_filler {
type: "constant"
value: 0.2
}
}
}
layer {
name: "inception_4a/relu_5x5_reduce"
type: "ReLU"
bottom: "inception_4a/5x5_reduce"
top: "inception_4a/5x5_reduce"
}
layer {
name: "inception_4a/5x5"
type: "Convolution"
bottom: "inception_4a/5x5_reduce"
top: "inception_4a/5x5"
param {
lr_mult: 1
decay_mult: 1
}
param {
lr_mult: 2
decay_mult: 0
}
convolution_param {
num_output: 48
pad: 2
kernel_size: 5
weight_filler {
type: "xavier"
std: 0.03
}
bias_filler {
type: "constant"
value: 0.2
}
}
}
layer {
name: "inception_4a/relu_5x5"
type: "ReLU"
bottom: "inception_4a/5x5"
top: "inception_4a/5x5"
}
layer {
name: "inception_4a/pool"
type: "Pooling"
bottom: "pool3/3x3_s2"
top: "inception_4a/pool"
pooling_param {
pool: MAX
kernel_size: 3
stride: 1
pad: 1
}
}
layer {
name: "inception_4a/pool_proj"
type: "Convolution"
bottom: "inception_4a/pool"
top: "inception_4a/pool_proj"
param {
lr_mult: 1
decay_mult: 1
}
param {
lr_mult: 2
decay_mult: 0
}
convolution_param {
num_output: 64
kernel_size: 1
weight_filler {
type: "xavier"
std: 0.1
}
bias_filler {
type: "constant"
value: 0.2
}
}
}
layer {
name: "inception_4a/relu_pool_proj"
type: "ReLU"
bottom: "inception_4a/pool_proj"
top: "inception_4a/pool_proj"
}
layer {
name: "inception_4a/output"
type: "Concat"
bottom: "inception_4a/1x1"
bottom: "inception_4a/3x3"
bottom: "inception_4a/5x5"
bottom: "inception_4a/pool_proj"
top: "inception_4a/output"
}
layer {
name: "loss1/ave_pool"
type: "Pooling"
bottom: "inception_4a/output"
top: "loss1/ave_pool"
pooling_param {
pool: AVE
kernel_size: 5
stride: 3
}
}
layer {
name: "loss1/conv"
type: "Convolution"
bottom: "loss1/ave_pool"
top: "loss1/conv"
param {
lr_mult: 1
decay_mult: 1
}
param {
lr_mult: 2
decay_mult: 0
}
convolution_param {
num_output: 128
kernel_size: 1
weight_filler {
type: "xavier"
std: 0.08
}
bias_filler {
type: "constant"
value: 0.2
}
}
}
layer {
name: "loss1/relu_conv"
type: "ReLU"
bottom: "loss1/conv"
top: "loss1/conv"
}
layer {
name: "loss1/fc"
type: "InnerProduct"
bottom: "loss1/conv"
top: "loss1/fc"
param {
lr_mult: 1
decay_mult: 1
}
param {
lr_mult: 2
decay_mult: 0
}
inner_product_param {
num_output: 1024
weight_filler {
type: "xavier"
std: 0.02
}
bias_filler {
type: "constant"
value: 0.2
}
}
}
layer {
name: "loss1/relu_fc"
type: "ReLU"
bottom: "loss1/fc"
top: "loss1/fc"
}
layer {
name: "loss1/drop_fc"
type: "Dropout"
bottom: "loss1/fc"
top: "loss1/fc"
dropout_param {
dropout_ratio: 0.7
}
}
layer {
name: "loss1/classifier"
type: "InnerProduct"
bottom: "loss1/fc"
top: "loss1/classifier"
param {
lr_mult: 1
decay_mult: 1
}
param {
lr_mult: 2
decay_mult: 0
}
inner_product_param {
num_output: 196
weight_filler {
type: "xavier"
std: 0.0009765625
}
bias_filler {
type: "constant"
value: 0
}
}
}
layer {
name: "loss1/loss"
type: "SoftmaxWithLoss"
bottom: "loss1/classifier"
bottom: "label"
top: "loss1/loss"
loss_weight: 0.3
}
layer {
name: "inception_4b/1x1"
type: "Convolution"
bottom: "inception_4a/output"
top: "inception_4b/1x1"
param {
lr_mult: 1
decay_mult: 1
}
param {
lr_mult: 2
decay_mult: 0
}
convolution_param {
num_output: 160
kernel_size: 1
weight_filler {
type: "xavier"
std: 0.03
}
bias_filler {
type: "constant"
value: 0.2
}
}
}
layer {
name: "inception_4b/relu_1x1"
type: "ReLU"
bottom: "inception_4b/1x1"
top: "inception_4b/1x1"
}
layer {
name: "inception_4b/3x3_reduce"
type: "Convolution"
bottom: "inception_4a/output"
top: "inception_4b/3x3_reduce"
param {
lr_mult: 1
decay_mult: 1
}
param {
lr_mult: 2
decay_mult: 0
}
convolution_param {
num_output: 112
kernel_size: 1
weight_filler {
type: "xavier"
std: 0.09
}
bias_filler {
type: "constant"
value: 0.2
}
}
}
layer {
name: "inception_4b/relu_3x3_reduce"
type: "ReLU"
bottom: "inception_4b/3x3_reduce"
top: "inception_4b/3x3_reduce"
}
layer {
name: "inception_4b/3x3"
type: "Convolution"
bottom: "inception_4b/3x3_reduce"
top: "inception_4b/3x3"
param {
lr_mult: 1
decay_mult: 1
}
param {
lr_mult: 2
decay_mult: 0
}
convolution_param {
num_output: 224
pad: 1
kernel_size: 3
weight_filler {
type: "xavier"
std: 0.03
}
bias_filler {
type: "constant"
value: 0.2
}
}
}
layer {
name: "inception_4b/relu_3x3"
type: "ReLU"
bottom: "inception_4b/3x3"
top: "inception_4b/3x3"
}
layer {
name: "inception_4b/5x5_reduce"
type: "Convolution"
bottom: "inception_4a/output"
top: "inception_4b/5x5_reduce"
param {
lr_mult: 1
decay_mult: 1
}
param {
lr_mult: 2
decay_mult: 0
}
convolution_param {
num_output: 24
kernel_size: 1
weight_filler {
type: "xavier"
std: 0.2
}
bias_filler {
type: "constant"
value: 0.2
}
}
}
layer {
name: "inception_4b/relu_5x5_reduce"
type: "ReLU"
bottom: "inception_4b/5x5_reduce"
top: "inception_4b/5x5_reduce"
}
layer {
name: "inception_4b/5x5"
type: "Convolution"
bottom: "inception_4b/5x5_reduce"
top: "inception_4b/5x5"
param {
lr_mult: 1
decay_mult: 1
}
param {
lr_mult: 2
decay_mult: 0
}
convolution_param {
num_output: 64
pad: 2
kernel_size: 5
weight_filler {
type: "xavier"
std: 0.03
}
bias_filler {
type: "constant"
value: 0.2
}
}
}
layer {
name: "inception_4b/relu_5x5"
type: "ReLU"
bottom: "inception_4b/5x5"
top: "inception_4b/5x5"
}
layer {
name: "inception_4b/pool"
type: "Pooling"
bottom: "inception_4a/output"
top: "inception_4b/pool"
pooling_param {
pool: MAX
kernel_size: 3
stride: 1
pad: 1
}
}
layer {
name: "inception_4b/pool_proj"
type: "Convolution"
bottom: "inception_4b/pool"
top: "inception_4b/pool_proj"
param {
lr_mult: 1
decay_mult: 1
}
param {
lr_mult: 2
decay_mult: 0
}
convolution_param {
num_output: 64
kernel_size: 1
weight_filler {
type: "xavier"
std: 0.1
}
bias_filler {
type: "constant"
value: 0.2
}
}
}
layer {
name: "inception_4b/relu_pool_proj"
type: "ReLU"
bottom: "inception_4b/pool_proj"
top: "inception_4b/pool_proj"
}
layer {
name: "inception_4b/output"
type: "Concat"
bottom: "inception_4b/1x1"
bottom: "inception_4b/3x3"
bottom: "inception_4b/5x5"
bottom: "inception_4b/pool_proj"
top: "inception_4b/output"
}
layer {
name: "inception_4c/1x1"
type: "Convolution"
bottom: "inception_4b/output"
top: "inception_4c/1x1"
param {
lr_mult: 1
decay_mult: 1
}
param {
lr_mult: 2
decay_mult: 0
}
convolution_param {
num_output: 128
kernel_size: 1
weight_filler {
type: "xavier"
std: 0.03
}
bias_filler {
type: "constant"
value: 0.2
}
}
}
layer {
name: "inception_4c/relu_1x1"
type: "ReLU"
bottom: "inception_4c/1x1"
top: "inception_4c/1x1"
}
layer {
name: "inception_4c/3x3_reduce"
type: "Convolution"
bottom: "inception_4b/output"
top: "inception_4c/3x3_reduce"
param {
lr_mult: 1
decay_mult: 1
}
param {
lr_mult: 2
decay_mult: 0
}
convolution_param {
num_output: 128
kernel_size: 1
weight_filler {
type: "xavier"
std: 0.09
}
bias_filler {
type: "constant"
value: 0.2
}
}
}
layer {
name: "inception_4c/relu_3x3_reduce"
type: "ReLU"
bottom: "inception_4c/3x3_reduce"
top: "inception_4c/3x3_reduce"
}
layer {
name: "inception_4c/3x3"
type: "Convolution"
bottom: "inception_4c/3x3_reduce"
top: "inception_4c/3x3"
param {
lr_mult: 1
decay_mult: 1
}
param {
lr_mult: 2
decay_mult: 0
}
convolution_param {
num_output: 256
pad: 1
kernel_size: 3
weight_filler {
type: "xavier"
std: 0.03
}
bias_filler {
type: "constant"
value: 0.2
}
}
}
layer {
name: "inception_4c/relu_3x3"
type: "ReLU"
bottom: "inception_4c/3x3"
top: "inception_4c/3x3"
}
layer {
name: "inception_4c/5x5_reduce"
type: "Convolution"
bottom: "inception_4b/output"
top: "inception_4c/5x5_reduce"
param {
lr_mult: 1
decay_mult: 1
}
param {
lr_mult: 2
decay_mult: 0
}
convolution_param {
num_output: 24
kernel_size: 1
weight_filler {
type: "xavier"
std: 0.2
}
bias_filler {
type: "constant"
value: 0.2
}
}
}
layer {
name: "inception_4c/relu_5x5_reduce"
type: "ReLU"
bottom: "inception_4c/5x5_reduce"
top: "inception_4c/5x5_reduce"
}
layer {
name: "inception_4c/5x5"
type: "Convolution"
bottom: "inception_4c/5x5_reduce"
top: "inception_4c/5x5"
param {
lr_mult: 1
decay_mult: 1
}
param {
lr_mult: 2
decay_mult: 0
}
convolution_param {
num_output: 64
pad: 2
kernel_size: 5
weight_filler {
type: "xavier"
std: 0.03
}
bias_filler {
type: "constant"
value: 0.2
}
}
}
layer {
name: "inception_4c/relu_5x5"
type: "ReLU"
bottom: "inception_4c/5x5"
top: "inception_4c/5x5"
}
layer {
name: "inception_4c/pool"
type: "Pooling"
bottom: "inception_4b/output"
top: "inception_4c/pool"
pooling_param {
pool: MAX
kernel_size: 3
stride: 1
pad: 1
}
}
layer {
name: "inception_4c/pool_proj"
type: "Convolution"
bottom: "inception_4c/pool"
top: "inception_4c/pool_proj"
param {
lr_mult: 1
decay_mult: 1
}
param {
lr_mult: 2
decay_mult: 0
}
convolution_param {
num_output: 64
kernel_size: 1
weight_filler {
type: "xavier"
std: 0.1
}
bias_filler {
type: "constant"
value: 0.2
}
}
}
layer {
name: "inception_4c/relu_pool_proj"
type: "ReLU"
bottom: "inception_4c/pool_proj"
top: "inception_4c/pool_proj"
}
layer {
name: "inception_4c/output"
type: "Concat"
bottom: "inception_4c/1x1"
bottom: "inception_4c/3x3"
bottom: "inception_4c/5x5"
bottom: "inception_4c/pool_proj"
top: "inception_4c/output"
}
layer {
name: "inception_4d/1x1"
type: "Convolution"
bottom: "inception_4c/output"
top: "inception_4d/1x1"
param {
lr_mult: 1
decay_mult: 1
}
param {
lr_mult: 2
decay_mult: 0
}
convolution_param {
num_output: 112
kernel_size: 1
weight_filler {
type: "xavier"
std: 0.03
}
bias_filler {
type: "constant"
value: 0.2
}
}
}
layer {
name: "inception_4d/relu_1x1"
type: "ReLU"
bottom: "inception_4d/1x1"
top: "inception_4d/1x1"
}
layer {
name: "inception_4d/3x3_reduce"
type: "Convolution"
bottom: "inception_4c/output"
top: "inception_4d/3x3_reduce"
param {
lr_mult: 1
decay_mult: 1
}
param {
lr_mult: 2
decay_mult: 0
}
convolution_param {
num_output: 144
kernel_size: 1
weight_filler {
type: "xavier"
std: 0.09
}
bias_filler {
type: "constant"
value: 0.2
}
}
}
layer {
name: "inception_4d/relu_3x3_reduce"
type: "ReLU"
bottom: "inception_4d/3x3_reduce"
top: "inception_4d/3x3_reduce"
}
layer {
name: "inception_4d/3x3"
type: "Convolution"
bottom: "inception_4d/3x3_reduce"
top: "inception_4d/3x3"
param {
lr_mult: 1
decay_mult: 1
}
param {
lr_mult: 2
decay_mult: 0
}
convolution_param {
num_output: 288
pad: 1
kernel_size: 3
weight_filler {
type: "xavier"
std: 0.03
}
bias_filler {
type: "constant"
value: 0.2
}
}
}
layer {
name: "inception_4d/relu_3x3"
type: "ReLU"
bottom: "inception_4d/3x3"
top: "inception_4d/3x3"
}
layer {
name: "inception_4d/5x5_reduce"
type: "Convolution"
bottom: "inception_4c/output"
top: "inception_4d/5x5_reduce"
param {
lr_mult: 1
decay_mult: 1
}
param {
lr_mult: 2
decay_mult: 0
}
convolution_param {
num_output: 32
kernel_size: 1
weight_filler {
type: "xavier"
std: 0.2
}
bias_filler {
type: "constant"
value: 0.2
}
}
}
layer {
name: "inception_4d/relu_5x5_reduce"
type: "ReLU"
bottom: "inception_4d/5x5_reduce"
top: "inception_4d/5x5_reduce"
}
layer {
name: "inception_4d/5x5"
type: "Convolution"
bottom: "inception_4d/5x5_reduce"
top: "inception_4d/5x5"
param {
lr_mult: 1
decay_mult: 1
}
param {
lr_mult: 2
decay_mult: 0
}
convolution_param {
num_output: 64
pad: 2
kernel_size: 5
weight_filler {
type: "xavier"
std: 0.03
}
bias_filler {
type: "constant"
value: 0.2
}
}
}
layer {
name: "inception_4d/relu_5x5"
type: "ReLU"
bottom: "inception_4d/5x5"
top: "inception_4d/5x5"
}
layer {
name: "inception_4d/pool"
type: "Pooling"
bottom: "inception_4c/output"
top: "inception_4d/pool"
pooling_param {
pool: MAX
kernel_size: 3
stride: 1
pad: 1
}
}
layer {
name: "inception_4d/pool_proj"
type: "Convolution"
bottom: "inception_4d/pool"
top: "inception_4d/pool_proj"
param {
lr_mult: 1
decay_mult: 1
}
param {
lr_mult: 2
decay_mult: 0
}
convolution_param {
num_output: 64
kernel_size: 1
weight_filler {
type: "xavier"
std: 0.1
}
bias_filler {
type: "constant"
value: 0.2
}
}
}
layer {
name: "inception_4d/relu_pool_proj"
type: "ReLU"
bottom: "inception_4d/pool_proj"
top: "inception_4d/pool_proj"
}
layer {
name: "inception_4d/output"
type: "Concat"
bottom: "inception_4d/1x1"
bottom: "inception_4d/3x3"
bottom: "inception_4d/5x5"
bottom: "inception_4d/pool_proj"
top: "inception_4d/output"
}
layer {
name: "loss2/ave_pool"
type: "Pooling"
bottom: "inception_4d/output"
top: "loss2/ave_pool"
pooling_param {
pool: AVE
kernel_size: 5
stride: 3
}
}
layer {
name: "loss2/conv"
type: "Convolution"
bottom: "loss2/ave_pool"
top: "loss2/conv"
param {
lr_mult: 1
decay_mult: 1
}
param {
lr_mult: 2
decay_mult: 0
}
convolution_param {
num_output: 128
kernel_size: 1
weight_filler {
type: "xavier"
std: 0.08
}
bias_filler {
type: "constant"
value: 0.2
}
}
}
layer {
name: "loss2/relu_conv"
type: "ReLU"
bottom: "loss2/conv"
top: "loss2/conv"
}
layer {
name: "loss2/fc"
type: "InnerProduct"
bottom: "loss2/conv"
top: "loss2/fc"
param {
lr_mult: 1
decay_mult: 1
}
param {
lr_mult: 2
decay_mult: 0
}
inner_product_param {
num_output: 1024
weight_filler {
type: "xavier"
std: 0.02
}
bias_filler {
type: "constant"
value: 0.2
}
}
}
layer {
name: "loss2/relu_fc"
type: "ReLU"
bottom: "loss2/fc"
top: "loss2/fc"
}
layer {
name: "loss2/drop_fc"
type: "Dropout"
bottom: "loss2/fc"
top: "loss2/fc"
dropout_param {
dropout_ratio: 0.7
}
}
layer {
name: "loss2/classifier"
type: "InnerProduct"
bottom: "loss2/fc"
top: "loss2/classifier"
param {
lr_mult: 1
decay_mult: 1
}
param {
lr_mult: 2
decay_mult: 0
}
inner_product_param {
num_output: 196
weight_filler {
type: "xavier"
std: 0.0009765625
}
bias_filler {
type: "constant"
value: 0
}
}
}
layer {
name: "loss2/loss"
type: "SoftmaxWithLoss"
bottom: "loss2/classifier"
bottom: "label"
top: "loss2/loss"
loss_weight: 0.3
}
layer {
name: "inception_4e/1x1"
type: "Convolution"
bottom: "inception_4d/output"
top: "inception_4e/1x1"
param {
lr_mult: 1
decay_mult: 1
}
param {
lr_mult: 2
decay_mult: 0
}
convolution_param {
num_output: 256
kernel_size: 1
weight_filler {
type: "xavier"
std: 0.03
}
bias_filler {
type: "constant"
value: 0.2
}
}
}
layer {
name: "inception_4e/relu_1x1"
type: "ReLU"
bottom: "inception_4e/1x1"
top: "inception_4e/1x1"
}
layer {
name: "inception_4e/3x3_reduce"
type: "Convolution"
bottom: "inception_4d/output"
top: "inception_4e/3x3_reduce"
param {
lr_mult: 1
decay_mult: 1
}
param {
lr_mult: 2
decay_mult: 0
}
convolution_param {
num_output: 160
kernel_size: 1
weight_filler {
type: "xavier"
std: 0.09
}
bias_filler {
type: "constant"
value: 0.2
}
}
}
layer {
name: "inception_4e/relu_3x3_reduce"
type: "ReLU"
bottom: "inception_4e/3x3_reduce"
top: "inception_4e/3x3_reduce"
}
layer {
name: "inception_4e/3x3"
type: "Convolution"
bottom: "inception_4e/3x3_reduce"
top: "inception_4e/3x3"
param {
lr_mult: 1
decay_mult: 1
}
param {
lr_mult: 2
decay_mult: 0
}
convolution_param {
num_output: 320
pad: 1
kernel_size: 3
weight_filler {
type: "xavier"
std: 0.03
}
bias_filler {
type: "constant"
value: 0.2
}
}
}
layer {
name: "inception_4e/relu_3x3"
type: "ReLU"
bottom: "inception_4e/3x3"
top: "inception_4e/3x3"
}
layer {
name: "inception_4e/5x5_reduce"
type: "Convolution"
bottom: "inception_4d/output"
top: "inception_4e/5x5_reduce"
param {
lr_mult: 1
decay_mult: 1
}
param {
lr_mult: 2
decay_mult: 0
}
convolution_param {
num_output: 32
kernel_size: 1
weight_filler {
type: "xavier"
std: 0.2
}
bias_filler {
type: "constant"
val
I0507 20:08:22.550415 24220 layer_factory.hpp:77] Creating layer train-data
I0507 20:08:22.585453 24220 db_lmdb.cpp:35] Opened lmdb /mnt/bigdisk/MANDIG4/digits/jobs/20200507-113700-33e0/train_db
I0507 20:08:22.623540 24220 net.cpp:84] Creating Layer train-data
I0507 20:08:22.623567 24220 net.cpp:380] train-data -> data
I0507 20:08:22.623591 24220 net.cpp:380] train-data -> label
I0507 20:08:22.623605 24220 data_transformer.cpp:25] Loading mean file from: /mnt/bigdisk/MANDIG4/digits/jobs/20200507-113700-33e0/mean.binaryproto
I0507 20:08:22.665887 24220 data_layer.cpp:45] output data size: 32,3,224,224
I0507 20:08:22.716277 24220 net.cpp:122] Setting up train-data
I0507 20:08:22.716305 24220 net.cpp:129] Top shape: 32 3 224 224 (4816896)
I0507 20:08:22.716312 24220 net.cpp:129] Top shape: 32 (32)
I0507 20:08:22.716317 24220 net.cpp:137] Memory required for data: 19267712
I0507 20:08:22.716327 24220 layer_factory.hpp:77] Creating layer label_train-data_1_split
I0507 20:08:22.716364 24220 net.cpp:84] Creating Layer label_train-data_1_split
I0507 20:08:22.716372 24220 net.cpp:406] label_train-data_1_split <- label
I0507 20:08:22.716387 24220 net.cpp:380] label_train-data_1_split -> label_train-data_1_split_0
I0507 20:08:22.716398 24220 net.cpp:380] label_train-data_1_split -> label_train-data_1_split_1
I0507 20:08:22.716406 24220 net.cpp:380] label_train-data_1_split -> label_train-data_1_split_2
I0507 20:08:22.716470 24220 net.cpp:122] Setting up label_train-data_1_split
I0507 20:08:22.716478 24220 net.cpp:129] Top shape: 32 (32)
I0507 20:08:22.716483 24220 net.cpp:129] Top shape: 32 (32)
I0507 20:08:22.716490 24220 net.cpp:129] Top shape: 32 (32)
I0507 20:08:22.716493 24220 net.cpp:137] Memory required for data: 19268096
I0507 20:08:22.716498 24220 layer_factory.hpp:77] Creating layer conv1/7x7_s2
I0507 20:08:22.716517 24220 net.cpp:84] Creating Layer conv1/7x7_s2
I0507 20:08:22.716522 24220 net.cpp:406] conv1/7x7_s2 <- data
I0507 20:08:22.716531 24220 net.cpp:380] conv1/7x7_s2 -> conv1/7x7_s2
I0507 20:08:23.729133 24220 net.cpp:122] Setting up conv1/7x7_s2
I0507 20:08:23.729157 24220 net.cpp:129] Top shape: 32 64 112 112 (25690112)
I0507 20:08:23.729162 24220 net.cpp:137] Memory required for data: 122028544
I0507 20:08:23.729182 24220 layer_factory.hpp:77] Creating layer conv1/relu_7x7
I0507 20:08:23.729192 24220 net.cpp:84] Creating Layer conv1/relu_7x7
I0507 20:08:23.729197 24220 net.cpp:406] conv1/relu_7x7 <- conv1/7x7_s2
I0507 20:08:23.729202 24220 net.cpp:367] conv1/relu_7x7 -> conv1/7x7_s2 (in-place)
I0507 20:08:23.729550 24220 net.cpp:122] Setting up conv1/relu_7x7
I0507 20:08:23.729559 24220 net.cpp:129] Top shape: 32 64 112 112 (25690112)
I0507 20:08:23.729563 24220 net.cpp:137] Memory required for data: 224788992
I0507 20:08:23.729568 24220 layer_factory.hpp:77] Creating layer pool1/3x3_s2
I0507 20:08:23.729578 24220 net.cpp:84] Creating Layer pool1/3x3_s2
I0507 20:08:23.729581 24220 net.cpp:406] pool1/3x3_s2 <- conv1/7x7_s2
I0507 20:08:23.729589 24220 net.cpp:380] pool1/3x3_s2 -> pool1/3x3_s2
I0507 20:08:23.729632 24220 net.cpp:122] Setting up pool1/3x3_s2
I0507 20:08:23.729638 24220 net.cpp:129] Top shape: 32 64 56 56 (6422528)
I0507 20:08:23.729642 24220 net.cpp:137] Memory required for data: 250479104
I0507 20:08:23.729647 24220 layer_factory.hpp:77] Creating layer pool1/norm1
I0507 20:08:23.729656 24220 net.cpp:84] Creating Layer pool1/norm1
I0507 20:08:23.729661 24220 net.cpp:406] pool1/norm1 <- pool1/3x3_s2
I0507 20:08:23.729667 24220 net.cpp:380] pool1/norm1 -> pool1/norm1
I0507 20:08:23.730195 24220 net.cpp:122] Setting up pool1/norm1
I0507 20:08:23.730206 24220 net.cpp:129] Top shape: 32 64 56 56 (6422528)
I0507 20:08:23.730209 24220 net.cpp:137] Memory required for data: 276169216
I0507 20:08:23.730213 24220 layer_factory.hpp:77] Creating layer conv2/3x3_reduce
I0507 20:08:23.730226 24220 net.cpp:84] Creating Layer conv2/3x3_reduce
I0507 20:08:23.730231 24220 net.cpp:406] conv2/3x3_reduce <- pool1/norm1
I0507 20:08:23.730239 24220 net.cpp:380] conv2/3x3_reduce -> conv2/3x3_reduce
I0507 20:08:23.731958 24220 net.cpp:122] Setting up conv2/3x3_reduce
I0507 20:08:23.731969 24220 net.cpp:129] Top shape: 32 64 56 56 (6422528)
I0507 20:08:23.731973 24220 net.cpp:137] Memory required for data: 301859328
I0507 20:08:23.731983 24220 layer_factory.hpp:77] Creating layer conv2/relu_3x3_reduce
I0507 20:08:23.731989 24220 net.cpp:84] Creating Layer conv2/relu_3x3_reduce
I0507 20:08:23.731994 24220 net.cpp:406] conv2/relu_3x3_reduce <- conv2/3x3_reduce
I0507 20:08:23.732002 24220 net.cpp:367] conv2/relu_3x3_reduce -> conv2/3x3_reduce (in-place)
I0507 20:08:23.732350 24220 net.cpp:122] Setting up conv2/relu_3x3_reduce
I0507 20:08:23.732359 24220 net.cpp:129] Top shape: 32 64 56 56 (6422528)
I0507 20:08:23.732363 24220 net.cpp:137] Memory required for data: 327549440
I0507 20:08:23.732367 24220 layer_factory.hpp:77] Creating layer conv2/3x3
I0507 20:08:23.732380 24220 net.cpp:84] Creating Layer conv2/3x3
I0507 20:08:23.732384 24220 net.cpp:406] conv2/3x3 <- conv2/3x3_reduce
I0507 20:08:23.732414 24220 net.cpp:380] conv2/3x3 -> conv2/3x3
I0507 20:08:23.735908 24220 net.cpp:122] Setting up conv2/3x3
I0507 20:08:23.735918 24220 net.cpp:129] Top shape: 32 192 56 56 (19267584)
I0507 20:08:23.735922 24220 net.cpp:137] Memory required for data: 404619776
I0507 20:08:23.735932 24220 layer_factory.hpp:77] Creating layer conv2/relu_3x3
I0507 20:08:23.735939 24220 net.cpp:84] Creating Layer conv2/relu_3x3
I0507 20:08:23.735944 24220 net.cpp:406] conv2/relu_3x3 <- conv2/3x3
I0507 20:08:23.735949 24220 net.cpp:367] conv2/relu_3x3 -> conv2/3x3 (in-place)
I0507 20:08:23.736299 24220 net.cpp:122] Setting up conv2/relu_3x3
I0507 20:08:23.736307 24220 net.cpp:129] Top shape: 32 192 56 56 (19267584)
I0507 20:08:23.736311 24220 net.cpp:137] Memory required for data: 481690112
I0507 20:08:23.736315 24220 layer_factory.hpp:77] Creating layer conv2/norm2
I0507 20:08:23.736323 24220 net.cpp:84] Creating Layer conv2/norm2
I0507 20:08:23.736327 24220 net.cpp:406] conv2/norm2 <- conv2/3x3
I0507 20:08:23.736333 24220 net.cpp:380] conv2/norm2 -> conv2/norm2
I0507 20:08:23.736863 24220 net.cpp:122] Setting up conv2/norm2
I0507 20:08:23.736873 24220 net.cpp:129] Top shape: 32 192 56 56 (19267584)
I0507 20:08:23.736878 24220 net.cpp:137] Memory required for data: 558760448
I0507 20:08:23.736881 24220 layer_factory.hpp:77] Creating layer pool2/3x3_s2
I0507 20:08:23.736889 24220 net.cpp:84] Creating Layer pool2/3x3_s2
I0507 20:08:23.736892 24220 net.cpp:406] pool2/3x3_s2 <- conv2/norm2
I0507 20:08:23.736898 24220 net.cpp:380] pool2/3x3_s2 -> pool2/3x3_s2
I0507 20:08:23.736930 24220 net.cpp:122] Setting up pool2/3x3_s2
I0507 20:08:23.736937 24220 net.cpp:129] Top shape: 32 192 28 28 (4816896)
I0507 20:08:23.736940 24220 net.cpp:137] Memory required for data: 578028032
I0507 20:08:23.736944 24220 layer_factory.hpp:77] Creating layer pool2/3x3_s2_pool2/3x3_s2_0_split
I0507 20:08:23.736953 24220 net.cpp:84] Creating Layer pool2/3x3_s2_pool2/3x3_s2_0_split
I0507 20:08:23.736958 24220 net.cpp:406] pool2/3x3_s2_pool2/3x3_s2_0_split <- pool2/3x3_s2
I0507 20:08:23.736963 24220 net.cpp:380] pool2/3x3_s2_pool2/3x3_s2_0_split -> pool2/3x3_s2_pool2/3x3_s2_0_split_0
I0507 20:08:23.736971 24220 net.cpp:380] pool2/3x3_s2_pool2/3x3_s2_0_split -> pool2/3x3_s2_pool2/3x3_s2_0_split_1
I0507 20:08:23.736977 24220 net.cpp:380] pool2/3x3_s2_pool2/3x3_s2_0_split -> pool2/3x3_s2_pool2/3x3_s2_0_split_2
I0507 20:08:23.736982 24220 net.cpp:380] pool2/3x3_s2_pool2/3x3_s2_0_split -> pool2/3x3_s2_pool2/3x3_s2_0_split_3
I0507 20:08:23.737026 24220 net.cpp:122] Setting up pool2/3x3_s2_pool2/3x3_s2_0_split
I0507 20:08:23.737031 24220 net.cpp:129] Top shape: 32 192 28 28 (4816896)
I0507 20:08:23.737036 24220 net.cpp:129] Top shape: 32 192 28 28 (4816896)
I0507 20:08:23.737040 24220 net.cpp:129] Top shape: 32 192 28 28 (4816896)
I0507 20:08:23.737044 24220 net.cpp:129] Top shape: 32 192 28 28 (4816896)
I0507 20:08:23.737047 24220 net.cpp:137] Memory required for data: 655098368
I0507 20:08:23.737051 24220 layer_factory.hpp:77] Creating layer inception_3a/1x1
I0507 20:08:23.737061 24220 net.cpp:84] Creating Layer inception_3a/1x1
I0507 20:08:23.737064 24220 net.cpp:406] inception_3a/1x1 <- pool2/3x3_s2_pool2/3x3_s2_0_split_0
I0507 20:08:23.737072 24220 net.cpp:380] inception_3a/1x1 -> inception_3a/1x1
I0507 20:08:23.739856 24220 net.cpp:122] Setting up inception_3a/1x1
I0507 20:08:23.739866 24220 net.cpp:129] Top shape: 32 64 28 28 (1605632)
I0507 20:08:23.739871 24220 net.cpp:137] Memory required for data: 661520896
I0507 20:08:23.739878 24220 layer_factory.hpp:77] Creating layer inception_3a/relu_1x1
I0507 20:08:23.739884 24220 net.cpp:84] Creating Layer inception_3a/relu_1x1
I0507 20:08:23.739889 24220 net.cpp:406] inception_3a/relu_1x1 <- inception_3a/1x1
I0507 20:08:23.739899 24220 net.cpp:367] inception_3a/relu_1x1 -> inception_3a/1x1 (in-place)
I0507 20:08:23.740239 24220 net.cpp:122] Setting up inception_3a/relu_1x1
I0507 20:08:23.740247 24220 net.cpp:129] Top shape: 32 64 28 28 (1605632)
I0507 20:08:23.740252 24220 net.cpp:137] Memory required for data: 667943424
I0507 20:08:23.740272 24220 layer_factory.hpp:77] Creating layer inception_3a/3x3_reduce
I0507 20:08:23.740283 24220 net.cpp:84] Creating Layer inception_3a/3x3_reduce
I0507 20:08:23.740288 24220 net.cpp:406] inception_3a/3x3_reduce <- pool2/3x3_s2_pool2/3x3_s2_0_split_1
I0507 20:08:23.740295 24220 net.cpp:380] inception_3a/3x3_reduce -> inception_3a/3x3_reduce
I0507 20:08:23.743204 24220 net.cpp:122] Setting up inception_3a/3x3_reduce
I0507 20:08:23.743216 24220 net.cpp:129] Top shape: 32 96 28 28 (2408448)
I0507 20:08:23.743219 24220 net.cpp:137] Memory required for data: 677577216
I0507 20:08:23.743229 24220 layer_factory.hpp:77] Creating layer inception_3a/relu_3x3_reduce
I0507 20:08:23.743239 24220 net.cpp:84] Creating Layer inception_3a/relu_3x3_reduce
I0507 20:08:23.743243 24220 net.cpp:406] inception_3a/relu_3x3_reduce <- inception_3a/3x3_reduce
I0507 20:08:23.743249 24220 net.cpp:367] inception_3a/relu_3x3_reduce -> inception_3a/3x3_reduce (in-place)
I0507 20:08:23.743748 24220 net.cpp:122] Setting up inception_3a/relu_3x3_reduce
I0507 20:08:23.743758 24220 net.cpp:129] Top shape: 32 96 28 28 (2408448)
I0507 20:08:23.743762 24220 net.cpp:137] Memory required for data: 687211008
I0507 20:08:23.743767 24220 layer_factory.hpp:77] Creating layer inception_3a/3x3
I0507 20:08:23.743777 24220 net.cpp:84] Creating Layer inception_3a/3x3
I0507 20:08:23.743780 24220 net.cpp:406] inception_3a/3x3 <- inception_3a/3x3_reduce
I0507 20:08:23.743788 24220 net.cpp:380] inception_3a/3x3 -> inception_3a/3x3
I0507 20:08:23.748067 24220 net.cpp:122] Setting up inception_3a/3x3
I0507 20:08:23.748077 24220 net.cpp:129] Top shape: 32 128 28 28 (3211264)
I0507 20:08:23.748080 24220 net.cpp:137] Memory required for data: 700056064
I0507 20:08:23.748087 24220 layer_factory.hpp:77] Creating layer inception_3a/relu_3x3
I0507 20:08:23.748093 24220 net.cpp:84] Creating Layer inception_3a/relu_3x3
I0507 20:08:23.748097 24220 net.cpp:406] inception_3a/relu_3x3 <- inception_3a/3x3
I0507 20:08:23.748104 24220 net.cpp:367] inception_3a/relu_3x3 -> inception_3a/3x3 (in-place)
I0507 20:08:23.748594 24220 net.cpp:122] Setting up inception_3a/relu_3x3
I0507 20:08:23.748603 24220 net.cpp:129] Top shape: 32 128 28 28 (3211264)
I0507 20:08:23.748606 24220 net.cpp:137] Memory required for data: 712901120
I0507 20:08:23.748610 24220 layer_factory.hpp:77] Creating layer inception_3a/5x5_reduce
I0507 20:08:23.748620 24220 net.cpp:84] Creating Layer inception_3a/5x5_reduce
I0507 20:08:23.748625 24220 net.cpp:406] inception_3a/5x5_reduce <- pool2/3x3_s2_pool2/3x3_s2_0_split_2
I0507 20:08:23.748632 24220 net.cpp:380] inception_3a/5x5_reduce -> inception_3a/5x5_reduce
I0507 20:08:23.751184 24220 net.cpp:122] Setting up inception_3a/5x5_reduce
I0507 20:08:23.751194 24220 net.cpp:129] Top shape: 32 16 28 28 (401408)
I0507 20:08:23.751199 24220 net.cpp:137] Memory required for data: 714506752
I0507 20:08:23.751204 24220 layer_factory.hpp:77] Creating layer inception_3a/relu_5x5_reduce
I0507 20:08:23.751211 24220 net.cpp:84] Creating Layer inception_3a/relu_5x5_reduce
I0507 20:08:23.751215 24220 net.cpp:406] inception_3a/relu_5x5_reduce <- inception_3a/5x5_reduce
I0507 20:08:23.751222 24220 net.cpp:367] inception_3a/relu_5x5_reduce -> inception_3a/5x5_reduce (in-place)
I0507 20:08:23.752990 24220 net.cpp:122] Setting up inception_3a/relu_5x5_reduce
I0507 20:08:23.753000 24220 net.cpp:129] Top shape: 32 16 28 28 (401408)
I0507 20:08:23.753002 24220 net.cpp:137] Memory required for data: 716112384
I0507 20:08:23.753006 24220 layer_factory.hpp:77] Creating layer inception_3a/5x5
I0507 20:08:23.753017 24220 net.cpp:84] Creating Layer inception_3a/5x5
I0507 20:08:23.753021 24220 net.cpp:406] inception_3a/5x5 <- inception_3a/5x5_reduce
I0507 20:08:23.753029 24220 net.cpp:380] inception_3a/5x5 -> inception_3a/5x5
I0507 20:08:23.755378 24220 net.cpp:122] Setting up inception_3a/5x5
I0507 20:08:23.755388 24220 net.cpp:129] Top shape: 32 32 28 28 (802816)
I0507 20:08:23.755391 24220 net.cpp:137] Memory required for data: 719323648
I0507 20:08:23.755414 24220 layer_factory.hpp:77] Creating layer inception_3a/relu_5x5
I0507 20:08:23.755420 24220 net.cpp:84] Creating Layer inception_3a/relu_5x5
I0507 20:08:23.755424 24220 net.cpp:406] inception_3a/relu_5x5 <- inception_3a/5x5
I0507 20:08:23.755431 24220 net.cpp:367] inception_3a/relu_5x5 -> inception_3a/5x5 (in-place)
I0507 20:08:23.755936 24220 net.cpp:122] Setting up inception_3a/relu_5x5
I0507 20:08:23.755945 24220 net.cpp:129] Top shape: 32 32 28 28 (802816)
I0507 20:08:23.755949 24220 net.cpp:137] Memory required for data: 722534912
I0507 20:08:23.755952 24220 layer_factory.hpp:77] Creating layer inception_3a/pool
I0507 20:08:23.755959 24220 net.cpp:84] Creating Layer inception_3a/pool
I0507 20:08:23.755964 24220 net.cpp:406] inception_3a/pool <- pool2/3x3_s2_pool2/3x3_s2_0_split_3
I0507 20:08:23.755970 24220 net.cpp:380] inception_3a/pool -> inception_3a/pool
I0507 20:08:23.756011 24220 net.cpp:122] Setting up inception_3a/pool
I0507 20:08:23.756016 24220 net.cpp:129] Top shape: 32 192 28 28 (4816896)
I0507 20:08:23.756019 24220 net.cpp:137] Memory required for data: 741802496
I0507 20:08:23.756022 24220 layer_factory.hpp:77] Creating layer inception_3a/pool_proj
I0507 20:08:23.756032 24220 net.cpp:84] Creating Layer inception_3a/pool_proj
I0507 20:08:23.756036 24220 net.cpp:406] inception_3a/pool_proj <- inception_3a/pool
I0507 20:08:23.756042 24220 net.cpp:380] inception_3a/pool_proj -> inception_3a/pool_proj
I0507 20:08:23.757724 24220 net.cpp:122] Setting up inception_3a/pool_proj
I0507 20:08:23.757735 24220 net.cpp:129] Top shape: 32 32 28 28 (802816)
I0507 20:08:23.757738 24220 net.cpp:137] Memory required for data: 745013760
I0507 20:08:23.757750 24220 layer_factory.hpp:77] Creating layer inception_3a/relu_pool_proj
I0507 20:08:23.757757 24220 net.cpp:84] Creating Layer inception_3a/relu_pool_proj
I0507 20:08:23.757762 24220 net.cpp:406] inception_3a/relu_pool_proj <- inception_3a/pool_proj
I0507 20:08:23.757769 24220 net.cpp:367] inception_3a/relu_pool_proj -> inception_3a/pool_proj (in-place)
I0507 20:08:23.758114 24220 net.cpp:122] Setting up inception_3a/relu_pool_proj
I0507 20:08:23.758121 24220 net.cpp:129] Top shape: 32 32 28 28 (802816)
I0507 20:08:23.758126 24220 net.cpp:137] Memory required for data: 748225024
I0507 20:08:23.758129 24220 layer_factory.hpp:77] Creating layer inception_3a/output
I0507 20:08:23.758136 24220 net.cpp:84] Creating Layer inception_3a/output
I0507 20:08:23.758141 24220 net.cpp:406] inception_3a/output <- inception_3a/1x1
I0507 20:08:23.758145 24220 net.cpp:406] inception_3a/output <- inception_3a/3x3
I0507 20:08:23.758150 24220 net.cpp:406] inception_3a/output <- inception_3a/5x5
I0507 20:08:23.758154 24220 net.cpp:406] inception_3a/output <- inception_3a/pool_proj
I0507 20:08:23.758162 24220 net.cpp:380] inception_3a/output -> inception_3a/output
I0507 20:08:23.758186 24220 net.cpp:122] Setting up inception_3a/output
I0507 20:08:23.758193 24220 net.cpp:129] Top shape: 32 256 28 28 (6422528)
I0507 20:08:23.758195 24220 net.cpp:137] Memory required for data: 773915136
I0507 20:08:23.758199 24220 layer_factory.hpp:77] Creating layer inception_3a/output_inception_3a/output_0_split
I0507 20:08:23.758206 24220 net.cpp:84] Creating Layer inception_3a/output_inception_3a/output_0_split
I0507 20:08:23.758210 24220 net.cpp:406] inception_3a/output_inception_3a/output_0_split <- inception_3a/output
I0507 20:08:23.758217 24220 net.cpp:380] inception_3a/output_inception_3a/output_0_split -> inception_3a/output_inception_3a/output_0_split_0
I0507 20:08:23.758224 24220 net.cpp:380] inception_3a/output_inception_3a/output_0_split -> inception_3a/output_inception_3a/output_0_split_1
I0507 20:08:23.758229 24220 net.cpp:380] inception_3a/output_inception_3a/output_0_split -> inception_3a/output_inception_3a/output_0_split_2
I0507 20:08:23.758237 24220 net.cpp:380] inception_3a/output_inception_3a/output_0_split -> inception_3a/output_inception_3a/output_0_split_3
I0507 20:08:23.758285 24220 net.cpp:122] Setting up inception_3a/output_inception_3a/output_0_split
I0507 20:08:23.758301 24220 net.cpp:129] Top shape: 32 256 28 28 (6422528)
I0507 20:08:23.758306 24220 net.cpp:129] Top shape: 32 256 28 28 (6422528)
I0507 20:08:23.758309 24220 net.cpp:129] Top shape: 32 256 28 28 (6422528)
I0507 20:08:23.758313 24220 net.cpp:129] Top shape: 32 256 28 28 (6422528)
I0507 20:08:23.758317 24220 net.cpp:137] Memory required for data: 876675584
I0507 20:08:23.758321 24220 layer_factory.hpp:77] Creating layer inception_3b/1x1
I0507 20:08:23.758332 24220 net.cpp:84] Creating Layer inception_3b/1x1
I0507 20:08:23.758335 24220 net.cpp:406] inception_3b/1x1 <- inception_3a/output_inception_3a/output_0_split_0
I0507 20:08:23.758342 24220 net.cpp:380] inception_3b/1x1 -> inception_3b/1x1
I0507 20:08:23.761384 24220 net.cpp:122] Setting up inception_3b/1x1
I0507 20:08:23.761395 24220 net.cpp:129] Top shape: 32 128 28 28 (3211264)
I0507 20:08:23.761399 24220 net.cpp:137] Memory required for data: 889520640
I0507 20:08:23.761405 24220 layer_factory.hpp:77] Creating layer inception_3b/relu_1x1
I0507 20:08:23.761412 24220 net.cpp:84] Creating Layer inception_3b/relu_1x1
I0507 20:08:23.761416 24220 net.cpp:406] inception_3b/relu_1x1 <- inception_3b/1x1
I0507 20:08:23.761423 24220 net.cpp:367] inception_3b/relu_1x1 -> inception_3b/1x1 (in-place)
I0507 20:08:23.761920 24220 net.cpp:122] Setting up inception_3b/relu_1x1
I0507 20:08:23.761930 24220 net.cpp:129] Top shape: 32 128 28 28 (3211264)
I0507 20:08:23.761934 24220 net.cpp:137] Memory required for data: 902365696
I0507 20:08:23.761937 24220 layer_factory.hpp:77] Creating layer inception_3b/3x3_reduce
I0507 20:08:23.761947 24220 net.cpp:84] Creating Layer inception_3b/3x3_reduce
I0507 20:08:23.761951 24220 net.cpp:406] inception_3b/3x3_reduce <- inception_3a/output_inception_3a/output_0_split_1
I0507 20:08:23.761960 24220 net.cpp:380] inception_3b/3x3_reduce -> inception_3b/3x3_reduce
I0507 20:08:23.765137 24220 net.cpp:122] Setting up inception_3b/3x3_reduce
I0507 20:08:23.765148 24220 net.cpp:129] Top shape: 32 128 28 28 (3211264)
I0507 20:08:23.765151 24220 net.cpp:137] Memory required for data: 915210752
I0507 20:08:23.765158 24220 layer_factory.hpp:77] Creating layer inception_3b/relu_3x3_reduce
I0507 20:08:23.765166 24220 net.cpp:84] Creating Layer inception_3b/relu_3x3_reduce
I0507 20:08:23.765170 24220 net.cpp:406] inception_3b/relu_3x3_reduce <- inception_3b/3x3_reduce
I0507 20:08:23.765175 24220 net.cpp:367] inception_3b/relu_3x3_reduce -> inception_3b/3x3_reduce (in-place)
I0507 20:08:23.767904 24220 net.cpp:122] Setting up inception_3b/relu_3x3_reduce
I0507 20:08:23.767915 24220 net.cpp:129] Top shape: 32 128 28 28 (3211264)
I0507 20:08:23.767917 24220 net.cpp:137] Memory required for data: 928055808
I0507 20:08:23.767921 24220 layer_factory.hpp:77] Creating layer inception_3b/3x3
I0507 20:08:23.767940 24220 net.cpp:84] Creating Layer inception_3b/3x3
I0507 20:08:23.767944 24220 net.cpp:406] inception_3b/3x3 <- inception_3b/3x3_reduce
I0507 20:08:23.767951 24220 net.cpp:380] inception_3b/3x3 -> inception_3b/3x3
I0507 20:08:23.770643 24220 net.cpp:122] Setting up inception_3b/3x3
I0507 20:08:23.770654 24220 net.cpp:129] Top shape: 32 192 28 28 (4816896)
I0507 20:08:23.770658 24220 net.cpp:137] Memory required for data: 947323392
I0507 20:08:23.770664 24220 layer_factory.hpp:77] Creating layer inception_3b/relu_3x3
I0507 20:08:23.770671 24220 net.cpp:84] Creating Layer inception_3b/relu_3x3
I0507 20:08:23.770676 24220 net.cpp:406] inception_3b/relu_3x3 <- inception_3b/3x3
I0507 20:08:23.770681 24220 net.cpp:367] inception_3b/relu_3x3 -> inception_3b/3x3 (in-place)
I0507 20:08:23.772310 24220 net.cpp:122] Setting up inception_3b/relu_3x3
I0507 20:08:23.772320 24220 net.cpp:129] Top shape: 32 192 28 28 (4816896)
I0507 20:08:23.772325 24220 net.cpp:137] Memory required for data: 966590976
I0507 20:08:23.772328 24220 layer_factory.hpp:77] Creating layer inception_3b/5x5_reduce
I0507 20:08:23.772338 24220 net.cpp:84] Creating Layer inception_3b/5x5_reduce
I0507 20:08:23.772342 24220 net.cpp:406] inception_3b/5x5_reduce <- inception_3a/output_inception_3a/output_0_split_2
I0507 20:08:23.772367 24220 net.cpp:380] inception_3b/5x5_reduce -> inception_3b/5x5_reduce
I0507 20:08:23.773936 24220 net.cpp:122] Setting up inception_3b/5x5_reduce
I0507 20:08:23.773946 24220 net.cpp:129] Top shape: 32 32 28 28 (802816)
I0507 20:08:23.773949 24220 net.cpp:137] Memory required for data: 969802240
I0507 20:08:23.773955 24220 layer_factory.hpp:77] Creating layer inception_3b/relu_5x5_reduce
I0507 20:08:23.773962 24220 net.cpp:84] Creating Layer inception_3b/relu_5x5_reduce
I0507 20:08:23.773965 24220 net.cpp:406] inception_3b/relu_5x5_reduce <- inception_3b/5x5_reduce
I0507 20:08:23.773972 24220 net.cpp:367] inception_3b/relu_5x5_reduce -> inception_3b/5x5_reduce (in-place)
I0507 20:08:23.774471 24220 net.cpp:122] Setting up inception_3b/relu_5x5_reduce
I0507 20:08:23.774497 24220 net.cpp:129] Top shape: 32 32 28 28 (802816)
I0507 20:08:23.774500 24220 net.cpp:137] Memory required for data: 973013504
I0507 20:08:23.774504 24220 layer_factory.hpp:77] Creating layer inception_3b/5x5
I0507 20:08:23.774514 24220 net.cpp:84] Creating Layer inception_3b/5x5
I0507 20:08:23.774518 24220 net.cpp:406] inception_3b/5x5 <- inception_3b/5x5_reduce
I0507 20:08:23.774526 24220 net.cpp:380] inception_3b/5x5 -> inception_3b/5x5
I0507 20:08:23.776592 24220 net.cpp:122] Setting up inception_3b/5x5
I0507 20:08:23.776607 24220 net.cpp:129] Top shape: 32 96 28 28 (2408448)
I0507 20:08:23.776610 24220 net.cpp:137] Memory required for data: 982647296
I0507 20:08:23.776618 24220 layer_factory.hpp:77] Creating layer inception_3b/relu_5x5
I0507 20:08:23.776625 24220 net.cpp:84] Creating Layer inception_3b/relu_5x5
I0507 20:08:23.776629 24220 net.cpp:406] inception_3b/relu_5x5 <- inception_3b/5x5
I0507 20:08:23.776638 24220 net.cpp:367] inception_3b/relu_5x5 -> inception_3b/5x5 (in-place)
I0507 20:08:23.776986 24220 net.cpp:122] Setting up inception_3b/relu_5x5
I0507 20:08:23.776995 24220 net.cpp:129] Top shape: 32 96 28 28 (2408448)
I0507 20:08:23.776999 24220 net.cpp:137] Memory required for data: 992281088
I0507 20:08:23.777004 24220 layer_factory.hpp:77] Creating layer inception_3b/pool
I0507 20:08:23.777012 24220 net.cpp:84] Creating Layer inception_3b/pool
I0507 20:08:23.777017 24220 net.cpp:406] inception_3b/pool <- inception_3a/output_inception_3a/output_0_split_3
I0507 20:08:23.777024 24220 net.cpp:380] inception_3b/pool -> inception_3b/pool
I0507 20:08:23.777066 24220 net.cpp:122] Setting up inception_3b/pool
I0507 20:08:23.777073 24220 net.cpp:129] Top shape: 32 256 28 28 (6422528)
I0507 20:08:23.777076 24220 net.cpp:137] Memory required for data: 1017971200
I0507 20:08:23.777081 24220 layer_factory.hpp:77] Creating layer inception_3b/pool_proj
I0507 20:08:23.777091 24220 net.cpp:84] Creating Layer inception_3b/pool_proj
I0507 20:08:23.777096 24220 net.cpp:406] inception_3b/pool_proj <- inception_3b/pool
I0507 20:08:23.777102 24220 net.cpp:380] inception_3b/pool_proj -> inception_3b/pool_proj
I0507 20:08:23.781008 24220 net.cpp:122] Setting up inception_3b/pool_proj
I0507 20:08:23.781018 24220 net.cpp:129] Top shape: 32 64 28 28 (1605632)
I0507 20:08:23.781023 24220 net.cpp:137] Memory required for data: 1024393728
I0507 20:08:23.781028 24220 layer_factory.hpp:77] Creating layer inception_3b/relu_pool_proj
I0507 20:08:23.781035 24220 net.cpp:84] Creating Layer inception_3b/relu_pool_proj
I0507 20:08:23.781039 24220 net.cpp:406] inception_3b/relu_pool_proj <- inception_3b/pool_proj
I0507 20:08:23.781046 24220 net.cpp:367] inception_3b/relu_pool_proj -> inception_3b/pool_proj (in-place)
I0507 20:08:23.781397 24220 net.cpp:122] Setting up inception_3b/relu_pool_proj
I0507 20:08:23.781406 24220 net.cpp:129] Top shape: 32 64 28 28 (1605632)
I0507 20:08:23.781410 24220 net.cpp:137] Memory required for data: 1030816256
I0507 20:08:23.781414 24220 layer_factory.hpp:77] Creating layer inception_3b/output
I0507 20:08:23.781424 24220 net.cpp:84] Creating Layer inception_3b/output
I0507 20:08:23.781428 24220 net.cpp:406] inception_3b/output <- inception_3b/1x1
I0507 20:08:23.781433 24220 net.cpp:406] inception_3b/output <- inception_3b/3x3
I0507 20:08:23.781455 24220 net.cpp:406] inception_3b/output <- inception_3b/5x5
I0507 20:08:23.781458 24220 net.cpp:406] inception_3b/output <- inception_3b/pool_proj
I0507 20:08:23.781466 24220 net.cpp:380] inception_3b/output -> inception_3b/output
I0507 20:08:23.781491 24220 net.cpp:122] Setting up inception_3b/output
I0507 20:08:23.781497 24220 net.cpp:129] Top shape: 32 480 28 28 (12042240)
I0507 20:08:23.781500 24220 net.cpp:137] Memory required for data: 1078985216
I0507 20:08:23.781504 24220 layer_factory.hpp:77] Creating layer pool3/3x3_s2
I0507 20:08:23.781513 24220 net.cpp:84] Creating Layer pool3/3x3_s2
I0507 20:08:23.781517 24220 net.cpp:406] pool3/3x3_s2 <- inception_3b/output
I0507 20:08:23.781522 24220 net.cpp:380] pool3/3x3_s2 -> pool3/3x3_s2
I0507 20:08:23.781554 24220 net.cpp:122] Setting up pool3/3x3_s2
I0507 20:08:23.781560 24220 net.cpp:129] Top shape: 32 480 14 14 (3010560)
I0507 20:08:23.781563 24220 net.cpp:137] Memory required for data: 1091027456
I0507 20:08:23.781567 24220 layer_factory.hpp:77] Creating layer pool3/3x3_s2_pool3/3x3_s2_0_split
I0507 20:08:23.781574 24220 net.cpp:84] Creating Layer pool3/3x3_s2_pool3/3x3_s2_0_split
I0507 20:08:23.781577 24220 net.cpp:406] pool3/3x3_s2_pool3/3x3_s2_0_split <- pool3/3x3_s2
I0507 20:08:23.781584 24220 net.cpp:380] pool3/3x3_s2_pool3/3x3_s2_0_split -> pool3/3x3_s2_pool3/3x3_s2_0_split_0
I0507 20:08:23.781591 24220 net.cpp:380] pool3/3x3_s2_pool3/3x3_s2_0_split -> pool3/3x3_s2_pool3/3x3_s2_0_split_1
I0507 20:08:23.781596 24220 net.cpp:380] pool3/3x3_s2_pool3/3x3_s2_0_split -> pool3/3x3_s2_pool3/3x3_s2_0_split_2
I0507 20:08:23.781602 24220 net.cpp:380] pool3/3x3_s2_pool3/3x3_s2_0_split -> pool3/3x3_s2_pool3/3x3_s2_0_split_3
I0507 20:08:23.781647 24220 net.cpp:122] Setting up pool3/3x3_s2_pool3/3x3_s2_0_split
I0507 20:08:23.781652 24220 net.cpp:129] Top shape: 32 480 14 14 (3010560)
I0507 20:08:23.781656 24220 net.cpp:129] Top shape: 32 480 14 14 (3010560)
I0507 20:08:23.781661 24220 net.cpp:129] Top shape: 32 480 14 14 (3010560)
I0507 20:08:23.781663 24220 net.cpp:129] Top shape: 32 480 14 14 (3010560)
I0507 20:08:23.781667 24220 net.cpp:137] Memory required for data: 1139196416
I0507 20:08:23.781672 24220 layer_factory.hpp:77] Creating layer inception_4a/1x1
I0507 20:08:23.781682 24220 net.cpp:84] Creating Layer inception_4a/1x1
I0507 20:08:23.781685 24220 net.cpp:406] inception_4a/1x1 <- pool3/3x3_s2_pool3/3x3_s2_0_split_0
I0507 20:08:23.781692 24220 net.cpp:380] inception_4a/1x1 -> inception_4a/1x1
I0507 20:08:23.785187 24220 net.cpp:122] Setting up inception_4a/1x1
I0507 20:08:23.785197 24220 net.cpp:129] Top shape: 32 192 14 14 (1204224)
I0507 20:08:23.785202 24220 net.cpp:137] Memory required for data: 1144013312
I0507 20:08:23.785208 24220 layer_factory.hpp:77] Creating layer inception_4a/relu_1x1
I0507 20:08:23.785215 24220 net.cpp:84] Creating Layer inception_4a/relu_1x1
I0507 20:08:23.785219 24220 net.cpp:406] inception_4a/relu_1x1 <- inception_4a/1x1
I0507 20:08:23.785226 24220 net.cpp:367] inception_4a/relu_1x1 -> inception_4a/1x1 (in-place)
I0507 20:08:23.787869 24220 net.cpp:122] Setting up inception_4a/relu_1x1
I0507 20:08:23.787881 24220 net.cpp:129] Top shape: 32 192 14 14 (1204224)
I0507 20:08:23.787885 24220 net.cpp:137] Memory required for data: 1148830208
I0507 20:08:23.787890 24220 layer_factory.hpp:77] Creating layer inception_4a/3x3_reduce
I0507 20:08:23.787901 24220 net.cpp:84] Creating Layer inception_4a/3x3_reduce
I0507 20:08:23.787905 24220 net.cpp:406] inception_4a/3x3_reduce <- pool3/3x3_s2_pool3/3x3_s2_0_split_1
I0507 20:08:23.787916 24220 net.cpp:380] inception_4a/3x3_reduce -> inception_4a/3x3_reduce
I0507 20:08:23.790400 24220 net.cpp:122] Setting up inception_4a/3x3_reduce
I0507 20:08:23.790410 24220 net.cpp:129] Top shape: 32 96 14 14 (602112)
I0507 20:08:23.790414 24220 net.cpp:137] Memory required for data: 1151238656
I0507 20:08:23.790427 24220 layer_factory.hpp:77] Creating layer inception_4a/relu_3x3_reduce
I0507 20:08:23.790434 24220 net.cpp:84] Creating Layer inception_4a/relu_3x3_reduce
I0507 20:08:23.790453 24220 net.cpp:406] inception_4a/relu_3x3_reduce <- inception_4a/3x3_reduce
I0507 20:08:23.790462 24220 net.cpp:367] inception_4a/relu_3x3_reduce -> inception_4a/3x3_reduce (in-place)
I0507 20:08:23.792165 24220 net.cpp:122] Setting up inception_4a/relu_3x3_reduce
I0507 20:08:23.792176 24220 net.cpp:129] Top shape: 32 96 14 14 (602112)
I0507 20:08:23.792179 24220 net.cpp:137] Memory required for data: 1153647104
I0507 20:08:23.792183 24220 layer_factory.hpp:77] Creating layer inception_4a/3x3
I0507 20:08:23.792194 24220 net.cpp:84] Creating Layer inception_4a/3x3
I0507 20:08:23.792199 24220 net.cpp:406] inception_4a/3x3 <- inception_4a/3x3_reduce
I0507 20:08:23.792207 24220 net.cpp:380] inception_4a/3x3 -> inception_4a/3x3
I0507 20:08:23.794718 24220 net.cpp:122] Setting up inception_4a/3x3
I0507 20:08:23.794729 24220 net.cpp:129] Top shape: 32 208 14 14 (1304576)
I0507 20:08:23.794734 24220 net.cpp:137] Memory required for data: 1158865408
I0507 20:08:23.794740 24220 layer_factory.hpp:77] Creating layer inception_4a/relu_3x3
I0507 20:08:23.794749 24220 net.cpp:84] Creating Layer inception_4a/relu_3x3
I0507 20:08:23.794752 24220 net.cpp:406] inception_4a/relu_3x3 <- inception_4a/3x3
I0507 20:08:23.794759 24220 net.cpp:367] inception_4a/relu_3x3 -> inception_4a/3x3 (in-place)
I0507 20:08:23.795258 24220 net.cpp:122] Setting up inception_4a/relu_3x3
I0507 20:08:23.795269 24220 net.cpp:129] Top shape: 32 208 14 14 (1304576)
I0507 20:08:23.795272 24220 net.cpp:137] Memory required for data: 1164083712
I0507 20:08:23.795276 24220 layer_factory.hpp:77] Creating layer inception_4a/5x5_reduce
I0507 20:08:23.795287 24220 net.cpp:84] Creating Layer inception_4a/5x5_reduce
I0507 20:08:23.795291 24220 net.cpp:406] inception_4a/5x5_reduce <- pool3/3x3_s2_pool3/3x3_s2_0_split_2
I0507 20:08:23.795300 24220 net.cpp:380] inception_4a/5x5_reduce -> inception_4a/5x5_reduce
I0507 20:08:23.796865 24220 net.cpp:122] Setting up inception_4a/5x5_reduce
I0507 20:08:23.796875 24220 net.cpp:129] Top shape: 32 16 14 14 (100352)
I0507 20:08:23.796880 24220 net.cpp:137] Memory required for data: 1164485120
I0507 20:08:23.796886 24220 layer_factory.hpp:77] Creating layer inception_4a/relu_5x5_reduce
I0507 20:08:23.796893 24220 net.cpp:84] Creating Layer inception_4a/relu_5x5_reduce
I0507 20:08:23.796898 24220 net.cpp:406] inception_4a/relu_5x5_reduce <- inception_4a/5x5_reduce
I0507 20:08:23.796905 24220 net.cpp:367] inception_4a/relu_5x5_reduce -> inception_4a/5x5_reduce (in-place)
I0507 20:08:23.797418 24220 net.cpp:122] Setting up inception_4a/relu_5x5_reduce
I0507 20:08:23.797428 24220 net.cpp:129] Top shape: 32 16 14 14 (100352)
I0507 20:08:23.797432 24220 net.cpp:137] Memory required for data: 1164886528
I0507 20:08:23.797436 24220 layer_factory.hpp:77] Creating layer inception_4a/5x5
I0507 20:08:23.797449 24220 net.cpp:84] Creating Layer inception_4a/5x5
I0507 20:08:23.797453 24220 net.cpp:406] inception_4a/5x5 <- inception_4a/5x5_reduce
I0507 20:08:23.797462 24220 net.cpp:380] inception_4a/5x5 -> inception_4a/5x5
I0507 20:08:23.800465 24220 net.cpp:122] Setting up inception_4a/5x5
I0507 20:08:23.800477 24220 net.cpp:129] Top shape: 32 48 14 14 (301056)
I0507 20:08:23.800482 24220 net.cpp:137] Memory required for data: 1166090752
I0507 20:08:23.800489 24220 layer_factory.hpp:77] Creating layer inception_4a/relu_5x5
I0507 20:08:23.800495 24220 net.cpp:84] Creating Layer inception_4a/relu_5x5
I0507 20:08:23.800500 24220 net.cpp:406] inception_4a/relu_5x5 <- inception_4a/5x5
I0507 20:08:23.800505 24220 net.cpp:367] inception_4a/relu_5x5 -> inception_4a/5x5 (in-place)
I0507 20:08:23.800863 24220 net.cpp:122] Setting up inception_4a/relu_5x5
I0507 20:08:23.800873 24220 net.cpp:129] Top shape: 32 48 14 14 (301056)
I0507 20:08:23.800876 24220 net.cpp:137] Memory required for data: 1167294976
I0507 20:08:23.800880 24220 layer_factory.hpp:77] Creating layer inception_4a/pool
I0507 20:08:23.800887 24220 net.cpp:84] Creating Layer inception_4a/pool
I0507 20:08:23.800891 24220 net.cpp:406] inception_4a/pool <- pool3/3x3_s2_pool3/3x3_s2_0_split_3
I0507 20:08:23.800916 24220 net.cpp:380] inception_4a/pool -> inception_4a/pool
I0507 20:08:23.800956 24220 net.cpp:122] Setting up inception_4a/pool
I0507 20:08:23.800962 24220 net.cpp:129] Top shape: 32 480 14 14 (3010560)
I0507 20:08:23.800966 24220 net.cpp:137] Memory required for data: 1179337216
I0507 20:08:23.800971 24220 layer_factory.hpp:77] Creating layer inception_4a/pool_proj
I0507 20:08:23.800981 24220 net.cpp:84] Creating Layer inception_4a/pool_proj
I0507 20:08:23.800987 24220 net.cpp:406] inception_4a/pool_proj <- inception_4a/pool
I0507 20:08:23.800992 24220 net.cpp:380] inception_4a/pool_proj -> inception_4a/pool_proj
I0507 20:08:23.805233 24220 net.cpp:122] Setting up inception_4a/pool_proj
I0507 20:08:23.805244 24220 net.cpp:129] Top shape: 32 64 14 14 (401408)
I0507 20:08:23.805248 24220 net.cpp:137] Memory required for data: 1180942848
I0507 20:08:23.805255 24220 layer_factory.hpp:77] Creating layer inception_4a/relu_pool_proj
I0507 20:08:23.805261 24220 net.cpp:84] Creating Layer inception_4a/relu_pool_proj
I0507 20:08:23.805266 24220 net.cpp:406] inception_4a/relu_pool_proj <- inception_4a/pool_proj
I0507 20:08:23.805272 24220 net.cpp:367] inception_4a/relu_pool_proj -> inception_4a/pool_proj (in-place)
I0507 20:08:23.807894 24220 net.cpp:122] Setting up inception_4a/relu_pool_proj
I0507 20:08:23.807904 24220 net.cpp:129] Top shape: 32 64 14 14 (401408)
I0507 20:08:23.807909 24220 net.cpp:137] Memory required for data: 1182548480
I0507 20:08:23.807914 24220 layer_factory.hpp:77] Creating layer inception_4a/output
I0507 20:08:23.807921 24220 net.cpp:84] Creating Layer inception_4a/output
I0507 20:08:23.807926 24220 net.cpp:406] inception_4a/output <- inception_4a/1x1
I0507 20:08:23.807931 24220 net.cpp:406] inception_4a/output <- inception_4a/3x3
I0507 20:08:23.807935 24220 net.cpp:406] inception_4a/output <- inception_4a/5x5
I0507 20:08:23.807940 24220 net.cpp:406] inception_4a/output <- inception_4a/pool_proj
I0507 20:08:23.807945 24220 net.cpp:380] inception_4a/output -> inception_4a/output
I0507 20:08:23.807972 24220 net.cpp:122] Setting up inception_4a/output
I0507 20:08:23.807977 24220 net.cpp:129] Top shape: 32 512 14 14 (3211264)
I0507 20:08:23.807981 24220 net.cpp:137] Memory required for data: 1195393536
I0507 20:08:23.807984 24220 layer_factory.hpp:77] Creating layer inception_4a/output_inception_4a/output_0_split
I0507 20:08:23.807992 24220 net.cpp:84] Creating Layer inception_4a/output_inception_4a/output_0_split
I0507 20:08:23.807996 24220 net.cpp:406] inception_4a/output_inception_4a/output_0_split <- inception_4a/output
I0507 20:08:23.808002 24220 net.cpp:380] inception_4a/output_inception_4a/output_0_split -> inception_4a/output_inception_4a/output_0_split_0
I0507 20:08:23.808010 24220 net.cpp:380] inception_4a/output_inception_4a/output_0_split -> inception_4a/output_inception_4a/output_0_split_1
I0507 20:08:23.808017 24220 net.cpp:380] inception_4a/output_inception_4a/output_0_split -> inception_4a/output_inception_4a/output_0_split_2
I0507 20:08:23.808023 24220 net.cpp:380] inception_4a/output_inception_4a/output_0_split -> inception_4a/output_inception_4a/output_0_split_3
I0507 20:08:23.808029 24220 net.cpp:380] inception_4a/output_inception_4a/output_0_split -> inception_4a/output_inception_4a/output_0_split_4
I0507 20:08:23.808085 24220 net.cpp:122] Setting up inception_4a/output_inception_4a/output_0_split
I0507 20:08:23.808092 24220 net.cpp:129] Top shape: 32 512 14 14 (3211264)
I0507 20:08:23.808096 24220 net.cpp:129] Top shape: 32 512 14 14 (3211264)
I0507 20:08:23.808100 24220 net.cpp:129] Top shape: 32 512 14 14 (3211264)
I0507 20:08:23.808104 24220 net.cpp:129] Top shape: 32 512 14 14 (3211264)
I0507 20:08:23.808109 24220 net.cpp:129] Top shape: 32 512 14 14 (3211264)
I0507 20:08:23.808112 24220 net.cpp:137] Memory required for data: 1259618816
I0507 20:08:23.808115 24220 layer_factory.hpp:77] Creating layer loss1/ave_pool
I0507 20:08:23.808122 24220 net.cpp:84] Creating Layer loss1/ave_pool
I0507 20:08:23.808125 24220 net.cpp:406] loss1/ave_pool <- inception_4a/output_inception_4a/output_0_split_0
I0507 20:08:23.808142 24220 net.cpp:380] loss1/ave_pool -> loss1/ave_pool
I0507 20:08:23.808518 24220 net.cpp:122] Setting up loss1/ave_pool
I0507 20:08:23.808527 24220 net.cpp:129] Top shape: 32 512 4 4 (262144)
I0507 20:08:23.808531 24220 net.cpp:137] Memory required for data: 1260667392
I0507 20:08:23.808535 24220 layer_factory.hpp:77] Creating layer loss1/conv
I0507 20:08:23.808547 24220 net.cpp:84] Creating Layer loss1/conv
I0507 20:08:23.808550 24220 net.cpp:406] loss1/conv <- loss1/ave_pool
I0507 20:08:23.808557 24220 net.cpp:380] loss1/conv -> loss1/conv
I0507 20:08:23.811754 24220 net.cpp:122] Setting up loss1/conv
I0507 20:08:23.811765 24220 net.cpp:129] Top shape: 32 128 4 4 (65536)
I0507 20:08:23.811770 24220 net.cpp:137] Memory required for data: 1260929536
I0507 20:08:23.811777 24220 layer_factory.hpp:77] Creating layer loss1/relu_conv
I0507 20:08:23.811785 24220 net.cpp:84] Creating Layer loss1/relu_conv
I0507 20:08:23.811790 24220 net.cpp:406] loss1/relu_conv <- loss1/conv
I0507 20:08:23.811795 24220 net.cpp:367] loss1/relu_conv -> loss1/conv (in-place)
I0507 20:08:23.812305 24220 net.cpp:122] Setting up loss1/relu_conv
I0507 20:08:23.812314 24220 net.cpp:129] Top shape: 32 128 4 4 (65536)
I0507 20:08:23.812319 24220 net.cpp:137] Memory required for data: 1261191680
I0507 20:08:23.812322 24220 layer_factory.hpp:77] Creating layer loss1/fc
I0507 20:08:23.812330 24220 net.cpp:84] Creating Layer loss1/fc
I0507 20:08:23.812335 24220 net.cpp:406] loss1/fc <- loss1/conv
I0507 20:08:23.812345 24220 net.cpp:380] loss1/fc -> loss1/fc
I0507 20:08:23.824501 24220 net.cpp:122] Setting up loss1/fc
I0507 20:08:23.824518 24220 net.cpp:129] Top shape: 32 1024 (32768)
I0507 20:08:23.824522 24220 net.cpp:137] Memory required for data: 1261322752
I0507 20:08:23.824532 24220 layer_factory.hpp:77] Creating layer loss1/relu_fc
I0507 20:08:23.824540 24220 net.cpp:84] Creating Layer loss1/relu_fc
I0507 20:08:23.824544 24220 net.cpp:406] loss1/relu_fc <- loss1/fc
I0507 20:08:23.824553 24220 net.cpp:367] loss1/relu_fc -> loss1/fc (in-place)
I0507 20:08:23.824959 24220 net.cpp:122] Setting up loss1/relu_fc
I0507 20:08:23.824967 24220 net.cpp:129] Top shape: 32 1024 (32768)
I0507 20:08:23.824970 24220 net.cpp:137] Memory required for data: 1261453824
I0507 20:08:23.824975 24220 layer_factory.hpp:77] Creating layer loss1/drop_fc
I0507 20:08:23.824997 24220 net.cpp:84] Creating Layer loss1/drop_fc
I0507 20:08:23.825001 24220 net.cpp:406] loss1/drop_fc <- loss1/fc
I0507 20:08:23.825006 24220 net.cpp:367] loss1/drop_fc -> loss1/fc (in-place)
I0507 20:08:23.825032 24220 net.cpp:122] Setting up loss1/drop_fc
I0507 20:08:23.825037 24220 net.cpp:129] Top shape: 32 1024 (32768)
I0507 20:08:23.825040 24220 net.cpp:137] Memory required for data: 1261584896
I0507 20:08:23.825044 24220 layer_factory.hpp:77] Creating layer loss1/classifier
I0507 20:08:23.825052 24220 net.cpp:84] Creating Layer loss1/classifier
I0507 20:08:23.825055 24220 net.cpp:406] loss1/classifier <- loss1/fc
I0507 20:08:23.825062 24220 net.cpp:380] loss1/classifier -> loss1/classifier
I0507 20:08:23.828689 24220 net.cpp:122] Setting up loss1/classifier
I0507 20:08:23.828699 24220 net.cpp:129] Top shape: 32 196 (6272)
I0507 20:08:23.828702 24220 net.cpp:137] Memory required for data: 1261609984
I0507 20:08:23.828708 24220 layer_factory.hpp:77] Creating layer loss1/loss
I0507 20:08:23.828716 24220 net.cpp:84] Creating Layer loss1/loss
I0507 20:08:23.828719 24220 net.cpp:406] loss1/loss <- loss1/classifier
I0507 20:08:23.828724 24220 net.cpp:406] loss1/loss <- label_train-data_1_split_0
I0507 20:08:23.828729 24220 net.cpp:380] loss1/loss -> loss1/loss
I0507 20:08:23.828742 24220 layer_factory.hpp:77] Creating layer loss1/loss
I0507 20:08:23.829349 24220 net.cpp:122] Setting up loss1/loss
I0507 20:08:23.829358 24220 net.cpp:129] Top shape: (1)
I0507 20:08:23.829361 24220 net.cpp:132]     with loss weight 0.3
I0507 20:08:23.829380 24220 net.cpp:137] Memory required for data: 1261609988
I0507 20:08:23.829385 24220 layer_factory.hpp:77] Creating layer inception_4b/1x1
I0507 20:08:23.829416 24220 net.cpp:84] Creating Layer inception_4b/1x1
I0507 20:08:23.829421 24220 net.cpp:406] inception_4b/1x1 <- inception_4a/output_inception_4a/output_0_split_1
I0507 20:08:23.829427 24220 net.cpp:380] inception_4b/1x1 -> inception_4b/1x1
I0507 20:08:23.831421 24220 net.cpp:122] Setting up inception_4b/1x1
I0507 20:08:23.831432 24220 net.cpp:129] Top shape: 32 160 14 14 (1003520)
I0507 20:08:23.831435 24220 net.cpp:137] Memory required for data: 1265624068
I0507 20:08:23.831442 24220 layer_factory.hpp:77] Creating layer inception_4b/relu_1x1
I0507 20:08:23.831450 24220 net.cpp:84] Creating Layer inception_4b/relu_1x1
I0507 20:08:23.831454 24220 net.cpp:406] inception_4b/relu_1x1 <- inception_4b/1x1
I0507 20:08:23.831459 24220 net.cpp:367] inception_4b/relu_1x1 -> inception_4b/1x1 (in-place)
I0507 20:08:23.831971 24220 net.cpp:122] Setting up inception_4b/relu_1x1
I0507 20:08:23.831980 24220 net.cpp:129] Top shape: 32 160 14 14 (1003520)
I0507 20:08:23.831984 24220 net.cpp:137] Memory required for data: 1269638148
I0507 20:08:23.831987 24220 layer_factory.hpp:77] Creating layer inception_4b/3x3_reduce
I0507 20:08:23.831997 24220 net.cpp:84] Creating Layer inception_4b/3x3_reduce
I0507 20:08:23.832001 24220 net.cpp:406] inception_4b/3x3_reduce <- inception_4a/output_inception_4a/output_0_split_2
I0507 20:08:23.832010 24220 net.cpp:380] inception_4b/3x3_reduce -> inception_4b/3x3_reduce
I0507 20:08:23.835522 24220 net.cpp:122] Setting up inception_4b/3x3_reduce
I0507 20:08:23.835534 24220 net.cpp:129] Top shape: 32 112 14 14 (702464)
I0507 20:08:23.835537 24220 net.cpp:137] Memory required for data: 1272448004
I0507 20:08:23.835544 24220 layer_factory.hpp:77] Creating layer inception_4b/relu_3x3_reduce
I0507 20:08:23.835551 24220 net.cpp:84] Creating Layer inception_4b/relu_3x3_reduce
I0507 20:08:23.835556 24220 net.cpp:406] inception_4b/relu_3x3_reduce <- inception_4b/3x3_reduce
I0507 20:08:23.835562 24220 net.cpp:367] inception_4b/relu_3x3_reduce -> inception_4b/3x3_reduce (in-place)
I0507 20:08:23.835925 24220 net.cpp:122] Setting up inception_4b/relu_3x3_reduce
I0507 20:08:23.835933 24220 net.cpp:129] Top shape: 32 112 14 14 (702464)
I0507 20:08:23.835937 24220 net.cpp:137] Memory required for data: 1275257860
I0507 20:08:23.835940 24220 layer_factory.hpp:77] Creating layer inception_4b/3x3
I0507 20:08:23.835952 24220 net.cpp:84] Creating Layer inception_4b/3x3
I0507 20:08:23.835955 24220 net.cpp:406] inception_4b/3x3 <- inception_4b/3x3_reduce
I0507 20:08:23.835961 24220 net.cpp:380] inception_4b/3x3 -> inception_4b/3x3
I0507 20:08:23.840679 24220 net.cpp:122] Setting up inception_4b/3x3
I0507 20:08:23.840690 24220 net.cpp:129] Top shape: 32 224 14 14 (1404928)
I0507 20:08:23.840694 24220 net.cpp:137] Memory required for data: 1280877572
I0507 20:08:23.840700 24220 layer_factory.hpp:77] Creating layer inception_4b/relu_3x3
I0507 20:08:23.840706 24220 net.cpp:84] Creating Layer inception_4b/relu_3x3
I0507 20:08:23.840710 24220 net.cpp:406] inception_4b/relu_3x3 <- inception_4b/3x3
I0507 20:08:23.840718 24220 net.cpp:367] inception_4b/relu_3x3 -> inception_4b/3x3 (in-place)
I0507 20:08:23.841228 24220 net.cpp:122] Setting up inception_4b/relu_3x3
I0507 20:08:23.841238 24220 net.cpp:129] Top shape: 32 224 14 14 (1404928)
I0507 20:08:23.841240 24220 net.cpp:137] Memory required for data: 1286497284
I0507 20:08:23.841244 24220 layer_factory.hpp:77] Creating layer inception_4b/5x5_reduce
I0507 20:08:23.841256 24220 net.cpp:84] Creating Layer inception_4b/5x5_reduce
I0507 20:08:23.841261 24220 net.cpp:406] inception_4b/5x5_reduce <- inception_4a/output_inception_4a/output_0_split_3
I0507 20:08:23.841267 24220 net.cpp:380] inception_4b/5x5_reduce -> inception_4b/5x5_reduce
I0507 20:08:23.842905 24220 net.cpp:122] Setting up inception_4b/5x5_reduce
I0507 20:08:23.842914 24220 net.cpp:129] Top shape: 32 24 14 14 (150528)
I0507 20:08:23.842918 24220 net.cpp:137] Memory required for data: 1287099396
I0507 20:08:23.842924 24220 layer_factory.hpp:77] Creating layer inception_4b/relu_5x5_reduce
I0507 20:08:23.842950 24220 net.cpp:84] Creating Layer inception_4b/relu_5x5_reduce
I0507 20:08:23.842955 24220 net.cpp:406] inception_4b/relu_5x5_reduce <- inception_4b/5x5_reduce
I0507 20:08:23.842962 24220 net.cpp:367] inception_4b/relu_5x5_reduce -> inception_4b/5x5_reduce (in-place)
I0507 20:08:23.843462 24220 net.cpp:122] Setting up inception_4b/relu_5x5_reduce
I0507 20:08:23.843472 24220 net.cpp:129] Top shape: 32 24 14 14 (150528)
I0507 20:08:23.843475 24220 net.cpp:137] Memory required for data: 1287701508
I0507 20:08:23.843479 24220 layer_factory.hpp:77] Creating layer inception_4b/5x5
I0507 20:08:23.843492 24220 net.cpp:84] Creating Layer inception_4b/5x5
I0507 20:08:23.843497 24220 net.cpp:406] inception_4b/5x5 <- inception_4b/5x5_reduce
I0507 20:08:23.843504 24220 net.cpp:380] inception_4b/5x5 -> inception_4b/5x5
I0507 20:08:23.849906 24220 net.cpp:122] Setting up inception_4b/5x5
I0507 20:08:23.849920 24220 net.cpp:129] Top shape: 32 64 14 14 (401408)
I0507 20:08:23.849925 24220 net.cpp:137] Memory required for data: 1289307140
I0507 20:08:23.849931 24220 layer_factory.hpp:77] Creating layer inception_4b/relu_5x5
I0507 20:08:23.849938 24220 net.cpp:84] Creating Layer inception_4b/relu_5x5
I0507 20:08:23.849943 24220 net.cpp:406] inception_4b/relu_5x5 <- inception_4b/5x5
I0507 20:08:23.849949 24220 net.cpp:367] inception_4b/relu_5x5 -> inception_4b/5x5 (in-place)
I0507 20:08:23.850464 24220 net.cpp:122] Setting up inception_4b/relu_5x5
I0507 20:08:23.850476 24220 net.cpp:129] Top shape: 32 64 14 14 (401408)
I0507 20:08:23.850478 24220 net.cpp:137] Memory required for data: 1290912772
I0507 20:08:23.850499 24220 layer_factory.hpp:77] Creating layer inception_4b/pool
I0507 20:08:23.850507 24220 net.cpp:84] Creating Layer inception_4b/pool
I0507 20:08:23.850512 24220 net.cpp:406] inception_4b/pool <- inception_4a/output_inception_4a/output_0_split_4
I0507 20:08:23.850518 24220 net.cpp:380] inception_4b/pool -> inception_4b/pool
I0507 20:08:23.850571 24220 net.cpp:122] Setting up inception_4b/pool
I0507 20:08:23.850577 24220 net.cpp:129] Top shape: 32 512 14 14 (3211264)
I0507 20:08:23.850580 24220 net.cpp:137] Memory required for data: 1303757828
I0507 20:08:23.850584 24220 layer_factory.hpp:77] Creating layer inception_4b/pool_proj
I0507 20:08:23.850592 24220 net.cpp:84] Creating Layer inception_4b/pool_proj
I0507 20:08:23.850596 24220 net.cpp:406] inception_4b/pool_proj <- inception_4b/pool
I0507 20:08:23.850603 24220 net.cpp:380] inception_4b/pool_proj -> inception_4b/pool_proj
I0507 20:08:23.852310 24220 net.cpp:122] Setting up inception_4b/pool_proj
I0507 20:08:23.852320 24220 net.cpp:129] Top shape: 32 64 14 14 (401408)
I0507 20:08:23.852324 24220 net.cpp:137] Memory required for data: 1305363460
I0507 20:08:23.852329 24220 layer_factory.hpp:77] Creating layer inception_4b/relu_pool_proj
I0507 20:08:23.852337 24220 net.cpp:84] Creating Layer inception_4b/relu_pool_proj
I0507 20:08:23.852341 24220 net.cpp:406] inception_4b/relu_pool_proj <- inception_4b/pool_proj
I0507 20:08:23.852347 24220 net.cpp:367] inception_4b/relu_pool_proj -> inception_4b/pool_proj (in-place)
I0507 20:08:23.852864 24220 net.cpp:122] Setting up inception_4b/relu_pool_proj
I0507 20:08:23.852871 24220 net.cpp:129] Top shape: 32 64 14 14 (401408)
I0507 20:08:23.852875 24220 net.cpp:137] Memory required for data: 1306969092
I0507 20:08:23.852880 24220 layer_factory.hpp:77] Creating layer inception_4b/output
I0507 20:08:23.852885 24220 net.cpp:84] Creating Layer inception_4b/output
I0507 20:08:23.852890 24220 net.cpp:406] inception_4b/output <- inception_4b/1x1
I0507 20:08:23.852895 24220 net.cpp:406] inception_4b/output <- inception_4b/3x3
I0507 20:08:23.852898 24220 net.cpp:406] inception_4b/output <- inception_4b/5x5
I0507 20:08:23.852902 24220 net.cpp:406] inception_4b/output <- inception_4b/pool_proj
I0507 20:08:23.852908 24220 net.cpp:380] inception_4b/output -> inception_4b/output
I0507 20:08:23.852936 24220 net.cpp:122] Setting up inception_4b/output
I0507 20:08:23.852941 24220 net.cpp:129] Top shape: 32 512 14 14 (3211264)
I0507 20:08:23.852960 24220 net.cpp:137] Memory required for data: 1319814148
I0507 20:08:23.852964 24220 layer_factory.hpp:77] Creating layer inception_4b/output_inception_4b/output_0_split
I0507 20:08:23.852972 24220 net.cpp:84] Creating Layer inception_4b/output_inception_4b/output_0_split
I0507 20:08:23.852974 24220 net.cpp:406] inception_4b/output_inception_4b/output_0_split <- inception_4b/output
I0507 20:08:23.852982 24220 net.cpp:380] inception_4b/output_inception_4b/output_0_split -> inception_4b/output_inception_4b/output_0_split_0
I0507 20:08:23.852988 24220 net.cpp:380] inception_4b/output_inception_4b/output_0_split -> inception_4b/output_inception_4b/output_0_split_1
I0507 20:08:23.852993 24220 net.cpp:380] inception_4b/output_inception_4b/output_0_split -> inception_4b/output_inception_4b/output_0_split_2
I0507 20:08:23.853000 24220 net.cpp:380] inception_4b/output_inception_4b/output_0_split -> inception_4b/output_inception_4b/output_0_split_3
I0507 20:08:23.853051 24220 net.cpp:122] Setting up inception_4b/output_inception_4b/output_0_split
I0507 20:08:23.853056 24220 net.cpp:129] Top shape: 32 512 14 14 (3211264)
I0507 20:08:23.853060 24220 net.cpp:129] Top shape: 32 512 14 14 (3211264)
I0507 20:08:23.853065 24220 net.cpp:129] Top shape: 32 512 14 14 (3211264)
I0507 20:08:23.853068 24220 net.cpp:129] Top shape: 32 512 14 14 (3211264)
I0507 20:08:23.853071 24220 net.cpp:137] Memory required for data: 1371194372
I0507 20:08:23.853075 24220 layer_factory.hpp:77] Creating layer inception_4c/1x1
I0507 20:08:23.853083 24220 net.cpp:84] Creating Layer inception_4c/1x1
I0507 20:08:23.853087 24220 net.cpp:406] inception_4c/1x1 <- inception_4b/output_inception_4b/output_0_split_0
I0507 20:08:23.853094 24220 net.cpp:380] inception_4c/1x1 -> inception_4c/1x1
I0507 20:08:23.857051 24220 net.cpp:122] Setting up inception_4c/1x1
I0507 20:08:23.857065 24220 net.cpp:129] Top shape: 32 128 14 14 (802816)
I0507 20:08:23.857069 24220 net.cpp:137] Memory required for data: 1374405636
I0507 20:08:23.857076 24220 layer_factory.hpp:77] Creating layer inception_4c/relu_1x1
I0507 20:08:23.857084 24220 net.cpp:84] Creating Layer inception_4c/relu_1x1
I0507 20:08:23.857089 24220 net.cpp:406] inception_4c/relu_1x1 <- inception_4c/1x1
I0507 20:08:23.857095 24220 net.cpp:367] inception_4c/relu_1x1 -> inception_4c/1x1 (in-place)
I0507 20:08:23.857460 24220 net.cpp:122] Setting up inception_4c/relu_1x1
I0507 20:08:23.857467 24220 net.cpp:129] Top shape: 32 128 14 14 (802816)
I0507 20:08:23.857470 24220 net.cpp:137] Memory required for data: 1377616900
I0507 20:08:23.857475 24220 layer_factory.hpp:77] Creating layer inception_4c/3x3_reduce
I0507 20:08:23.857486 24220 net.cpp:84] Creating Layer inception_4c/3x3_reduce
I0507 20:08:23.857489 24220 net.cpp:406] inception_4c/3x3_reduce <- inception_4b/output_inception_4b/output_0_split_1
I0507 20:08:23.857496 24220 net.cpp:380] inception_4c/3x3_reduce -> inception_4c/3x3_reduce
I0507 20:08:23.860684 24220 net.cpp:122] Setting up inception_4c/3x3_reduce
I0507 20:08:23.860694 24220 net.cpp:129] Top shape: 32 128 14 14 (802816)
I0507 20:08:23.860698 24220 net.cpp:137] Memory required for data: 1380828164
I0507 20:08:23.860704 24220 layer_factory.hpp:77] Creating layer inception_4c/relu_3x3_reduce
I0507 20:08:23.860713 24220 net.cpp:84] Creating Layer inception_4c/relu_3x3_reduce
I0507 20:08:23.860716 24220 net.cpp:406] inception_4c/relu_3x3_reduce <- inception_4c/3x3_reduce
I0507 20:08:23.860721 24220 net.cpp:367] inception_4c/relu_3x3_reduce -> inception_4c/3x3_reduce (in-place)
I0507 20:08:23.861236 24220 net.cpp:122] Setting up inception_4c/relu_3x3_reduce
I0507 20:08:23.861245 24220 net.cpp:129] Top shape: 32 128 14 14 (802816)
I0507 20:08:23.861248 24220 net.cpp:137] Memory required for data: 1384039428
I0507 20:08:23.861253 24220 layer_factory.hpp:77] Creating layer inception_4c/3x3
I0507 20:08:23.861263 24220 net.cpp:84] Creating Layer inception_4c/3x3
I0507 20:08:23.861266 24220 net.cpp:406] inception_4c/3x3 <- inception_4c/3x3_reduce
I0507 20:08:23.861275 24220 net.cpp:380] inception_4c/3x3 -> inception_4c/3x3
I0507 20:08:23.866885 24220 net.cpp:122] Setting up inception_4c/3x3
I0507 20:08:23.866897 24220 net.cpp:129] Top shape: 32 256 14 14 (1605632)
I0507 20:08:23.866901 24220 net.cpp:137] Memory required for data: 1390461956
I0507 20:08:23.866919 24220 layer_factory.hpp:77] Creating layer inception_4c/relu_3x3
I0507 20:08:23.866927 24220 net.cpp:84] Creating Layer inception_4c/relu_3x3
I0507 20:08:23.866932 24220 net.cpp:406] inception_4c/relu_3x3 <- inception_4c/3x3
I0507 20:08:23.866937 24220 net.cpp:367] inception_4c/relu_3x3 -> inception_4c/3x3 (in-place)
I0507 20:08:23.867444 24220 net.cpp:122] Setting up inception_4c/relu_3x3
I0507 20:08:23.867455 24220 net.cpp:129] Top shape: 32 256 14 14 (1605632)
I0507 20:08:23.867458 24220 net.cpp:137] Memory required for data: 1396884484
I0507 20:08:23.867462 24220 layer_factory.hpp:77] Creating layer inception_4c/5x5_reduce
I0507 20:08:23.867472 24220 net.cpp:84] Creating Layer inception_4c/5x5_reduce
I0507 20:08:23.867476 24220 net.cpp:406] inception_4c/5x5_reduce <- inception_4b/output_inception_4b/output_0_split_2
I0507 20:08:23.867485 24220 net.cpp:380] inception_4c/5x5_reduce -> inception_4c/5x5_reduce
I0507 20:08:23.870396 24220 net.cpp:122] Setting up inception_4c/5x5_reduce
I0507 20:08:23.870407 24220 net.cpp:129] Top shape: 32 24 14 14 (150528)
I0507 20:08:23.870411 24220 net.cpp:137] Memory required for data: 1397486596
I0507 20:08:23.870419 24220 layer_factory.hpp:77] Creating layer inception_4c/relu_5x5_reduce
I0507 20:08:23.870425 24220 net.cpp:84] Creating Layer inception_4c/relu_5x5_reduce
I0507 20:08:23.870431 24220 net.cpp:406] inception_4c/relu_5x5_reduce <- inception_4c/5x5_reduce
I0507 20:08:23.870440 24220 net.cpp:367] inception_4c/relu_5x5_reduce -> inception_4c/5x5_reduce (in-place)
I0507 20:08:23.870971 24220 net.cpp:122] Setting up inception_4c/relu_5x5_reduce
I0507 20:08:23.870980 24220 net.cpp:129] Top shape: 32 24 14 14 (150528)
I0507 20:08:23.870985 24220 net.cpp:137] Memory required for data: 1398088708
I0507 20:08:23.870990 24220 layer_factory.hpp:77] Creating layer inception_4c/5x5
I0507 20:08:23.870999 24220 net.cpp:84] Creating Layer inception_4c/5x5
I0507 20:08:23.871004 24220 net.cpp:406] inception_4c/5x5 <- inception_4c/5x5_reduce
I0507 20:08:23.871012 24220 net.cpp:380] inception_4c/5x5 -> inception_4c/5x5
I0507 20:08:23.872901 24220 net.cpp:122] Setting up inception_4c/5x5
I0507 20:08:23.872910 24220 net.cpp:129] Top shape: 32 64 14 14 (401408)
I0507 20:08:23.872915 24220 net.cpp:137] Memory required for data: 1399694340
I0507 20:08:23.872920 24220 layer_factory.hpp:77] Creating layer inception_4c/relu_5x5
I0507 20:08:23.872928 24220 net.cpp:84] Creating Layer inception_4c/relu_5x5
I0507 20:08:23.872933 24220 net.cpp:406] inception_4c/relu_5x5 <- inception_4c/5x5
I0507 20:08:23.872939 24220 net.cpp:367] inception_4c/relu_5x5 -> inception_4c/5x5 (in-place)
I0507 20:08:23.873463 24220 net.cpp:122] Setting up inception_4c/relu_5x5
I0507 20:08:23.873474 24220 net.cpp:129] Top shape: 32 64 14 14 (401408)
I0507 20:08:23.873477 24220 net.cpp:137] Memory required for data: 1401299972
I0507 20:08:23.873481 24220 layer_factory.hpp:77] Creating layer inception_4c/pool
I0507 20:08:23.873488 24220 net.cpp:84] Creating Layer inception_4c/pool
I0507 20:08:23.873493 24220 net.cpp:406] inception_4c/pool <- inception_4b/output_inception_4b/output_0_split_3
I0507 20:08:23.873500 24220 net.cpp:380] inception_4c/pool -> inception_4c/pool
I0507 20:08:23.873540 24220 net.cpp:122] Setting up inception_4c/pool
I0507 20:08:23.873546 24220 net.cpp:129] Top shape: 32 512 14 14 (3211264)
I0507 20:08:23.873549 24220 net.cpp:137] Memory required for data: 1414145028
I0507 20:08:23.873553 24220 layer_factory.hpp:77] Creating layer inception_4c/pool_proj
I0507 20:08:23.873565 24220 net.cpp:84] Creating Layer inception_4c/pool_proj
I0507 20:08:23.873569 24220 net.cpp:406] inception_4c/pool_proj <- inception_4c/pool
I0507 20:08:23.873576 24220 net.cpp:380] inception_4c/pool_proj -> inception_4c/pool_proj
I0507 20:08:23.881484 24220 net.cpp:122] Setting up inception_4c/pool_proj
I0507 20:08:23.881513 24220 net.cpp:129] Top shape: 32 64 14 14 (401408)
I0507 20:08:23.881517 24220 net.cpp:137] Memory required for data: 1415750660
I0507 20:08:23.881525 24220 layer_factory.hpp:77] Creating layer inception_4c/relu_pool_proj
I0507 20:08:23.881533 24220 net.cpp:84] Creating Layer inception_4c/relu_pool_proj
I0507 20:08:23.881538 24220 net.cpp:406] inception_4c/relu_pool_proj <- inception_4c/pool_proj
I0507 20:08:23.881543 24220 net.cpp:367] inception_4c/relu_pool_proj -> inception_4c/pool_proj (in-place)
I0507 20:08:23.881906 24220 net.cpp:122] Setting up inception_4c/relu_pool_proj
I0507 20:08:23.881916 24220 net.cpp:129] Top shape: 32 64 14 14 (401408)
I0507 20:08:23.881919 24220 net.cpp:137] Memory required for data: 1417356292
I0507 20:08:23.881922 24220 layer_factory.hpp:77] Creating layer inception_4c/output
I0507 20:08:23.881929 24220 net.cpp:84] Creating Layer inception_4c/output
I0507 20:08:23.881933 24220 net.cpp:406] inception_4c/output <- inception_4c/1x1
I0507 20:08:23.881938 24220 net.cpp:406] inception_4c/output <- inception_4c/3x3
I0507 20:08:23.881942 24220 net.cpp:406] inception_4c/output <- inception_4c/5x5
I0507 20:08:23.881947 24220 net.cpp:406] inception_4c/output <- inception_4c/pool_proj
I0507 20:08:23.881953 24220 net.cpp:380] inception_4c/output -> inception_4c/output
I0507 20:08:23.881978 24220 net.cpp:122] Setting up inception_4c/output
I0507 20:08:23.881984 24220 net.cpp:129] Top shape: 32 512 14 14 (3211264)
I0507 20:08:23.881989 24220 net.cpp:137] Memory required for data: 1430201348
I0507 20:08:23.881991 24220 layer_factory.hpp:77] Creating layer inception_4c/output_inception_4c/output_0_split
I0507 20:08:23.881999 24220 net.cpp:84] Creating Layer inception_4c/output_inception_4c/output_0_split
I0507 20:08:23.882001 24220 net.cpp:406] inception_4c/output_inception_4c/output_0_split <- inception_4c/output
I0507 20:08:23.882009 24220 net.cpp:380] inception_4c/output_inception_4c/output_0_split -> inception_4c/output_inception_4c/output_0_split_0
I0507 20:08:23.882015 24220 net.cpp:380] inception_4c/output_inception_4c/output_0_split -> inception_4c/output_inception_4c/output_0_split_1
I0507 20:08:23.882021 24220 net.cpp:380] inception_4c/output_inception_4c/output_0_split -> inception_4c/output_inception_4c/output_0_split_2
I0507 20:08:23.882026 24220 net.cpp:380] inception_4c/output_inception_4c/output_0_split -> inception_4c/output_inception_4c/output_0_split_3
I0507 20:08:23.882077 24220 net.cpp:122] Setting up inception_4c/output_inception_4c/output_0_split
I0507 20:08:23.882083 24220 net.cpp:129] Top shape: 32 512 14 14 (3211264)
I0507 20:08:23.882087 24220 net.cpp:129] Top shape: 32 512 14 14 (3211264)
I0507 20:08:23.882091 24220 net.cpp:129] Top shape: 32 512 14 14 (3211264)
I0507 20:08:23.882095 24220 net.cpp:129] Top shape: 32 512 14 14 (3211264)
I0507 20:08:23.882098 24220 net.cpp:137] Memory required for data: 1481581572
I0507 20:08:23.882102 24220 layer_factory.hpp:77] Creating layer inception_4d/1x1
I0507 20:08:23.882112 24220 net.cpp:84] Creating Layer inception_4d/1x1
I0507 20:08:23.882117 24220 net.cpp:406] inception_4d/1x1 <- inception_4c/output_inception_4c/output_0_split_0
I0507 20:08:23.882122 24220 net.cpp:380] inception_4d/1x1 -> inception_4d/1x1
I0507 20:08:23.886847 24220 net.cpp:122] Setting up inception_4d/1x1
I0507 20:08:23.886857 24220 net.cpp:129] Top shape: 32 112 14 14 (702464)
I0507 20:08:23.886862 24220 net.cpp:137] Memory required for data: 1484391428
I0507 20:08:23.886868 24220 layer_factory.hpp:77] Creating layer inception_4d/relu_1x1
I0507 20:08:23.886874 24220 net.cpp:84] Creating Layer inception_4d/relu_1x1
I0507 20:08:23.886878 24220 net.cpp:406] inception_4d/relu_1x1 <- inception_4d/1x1
I0507 20:08:23.886890 24220 net.cpp:367] inception_4d/relu_1x1 -> inception_4d/1x1 (in-place)
I0507 20:08:23.887245 24220 net.cpp:122] Setting up inception_4d/relu_1x1
I0507 20:08:23.887253 24220 net.cpp:129] Top shape: 32 112 14 14 (702464)
I0507 20:08:23.887257 24220 net.cpp:137] Memory required for data: 1487201284
I0507 20:08:23.887271 24220 layer_factory.hpp:77] Creating layer inception_4d/3x3_reduce
I0507 20:08:23.887281 24220 net.cpp:84] Creating Layer inception_4d/3x3_reduce
I0507 20:08:23.887286 24220 net.cpp:406] inception_4d/3x3_reduce <- inception_4c/output_inception_4c/output_0_split_1
I0507 20:08:23.887295 24220 net.cpp:380] inception_4d/3x3_reduce -> inception_4d/3x3_reduce
I0507 20:08:23.889376 24220 net.cpp:122] Setting up inception_4d/3x3_reduce
I0507 20:08:23.889386 24220 net.cpp:129] Top shape: 32 144 14 14 (903168)
I0507 20:08:23.889391 24220 net.cpp:137] Memory required for data: 1490813956
I0507 20:08:23.889397 24220 layer_factory.hpp:77] Creating layer inception_4d/relu_3x3_reduce
I0507 20:08:23.889405 24220 net.cpp:84] Creating Layer inception_4d/relu_3x3_reduce
I0507 20:08:23.889408 24220 net.cpp:406] inception_4d/relu_3x3_reduce <- inception_4d/3x3_reduce
I0507 20:08:23.889415 24220 net.cpp:367] inception_4d/relu_3x3_reduce -> inception_4d/3x3_reduce (in-place)
I0507 20:08:23.890058 24220 net.cpp:122] Setting up inception_4d/relu_3x3_reduce
I0507 20:08:23.890066 24220 net.cpp:129] Top shape: 32 144 14 14 (903168)
I0507 20:08:23.890072 24220 net.cpp:137] Memory required for data: 1494426628
I0507 20:08:23.890076 24220 layer_factory.hpp:77] Creating layer inception_4d/3x3
I0507 20:08:23.890086 24220 net.cpp:84] Creating Layer inception_4d/3x3
I0507 20:08:23.890090 24220 net.cpp:406] inception_4d/3x3 <- inception_4d/3x3_reduce
I0507 20:08:23.890096 24220 net.cpp:380] inception_4d/3x3 -> inception_4d/3x3
I0507 20:08:23.894851 24220 net.cpp:122] Setting up inception_4d/3x3
I0507 20:08:23.894863 24220 net.cpp:129] Top shape: 32 288 14 14 (1806336)
I0507 20:08:23.894867 24220 net.cpp:137] Memory required for data: 1501651972
I0507 20:08:23.894874 24220 layer_factory.hpp:77] Creating layer inception_4d/relu_3x3
I0507 20:08:23.894883 24220 net.cpp:84] Creating Layer inception_4d/relu_3x3
I0507 20:08:23.894889 24220 net.cpp:406] inception_4d/relu_3x3 <- inception_4d/3x3
I0507 20:08:23.894896 24220 net.cpp:367] inception_4d/relu_3x3 -> inception_4d/3x3 (in-place)
I0507 20:08:23.895396 24220 net.cpp:122] Setting up inception_4d/relu_3x3
I0507 20:08:23.895406 24220 net.cpp:129] Top shape: 32 288 14 14 (1806336)
I0507 20:08:23.895411 24220 net.cpp:137] Memory required for data: 1508877316
I0507 20:08:23.895414 24220 layer_factory.hpp:77] Creating layer inception_4d/5x5_reduce
I0507 20:08:23.895424 24220 net.cpp:84] Creating Layer inception_4d/5x5_reduce
I0507 20:08:23.895429 24220 net.cpp:406] inception_4d/5x5_reduce <- inception_4c/output_inception_4c/output_0_split_2
I0507 20:08:23.895437 24220 net.cpp:380] inception_4d/5x5_reduce -> inception_4d/5x5_reduce
I0507 20:08:23.899165 24220 net.cpp:122] Setting up inception_4d/5x5_reduce
I0507 20:08:23.899176 24220 net.cpp:129] Top shape: 32 32 14 14 (200704)
I0507 20:08:23.899181 24220 net.cpp:137] Memory required for data: 1509680132
I0507 20:08:23.899188 24220 layer_factory.hpp:77] Creating layer inception_4d/relu_5x5_reduce
I0507 20:08:23.899194 24220 net.cpp:84] Creating Layer inception_4d/relu_5x5_reduce
I0507 20:08:23.899199 24220 net.cpp:406] inception_4d/relu_5x5_reduce <- inception_4d/5x5_reduce
I0507 20:08:23.899205 24220 net.cpp:367] inception_4d/relu_5x5_reduce -> inception_4d/5x5_reduce (in-place)
I0507 20:08:23.899724 24220 net.cpp:122] Setting up inception_4d/relu_5x5_reduce
I0507 20:08:23.899734 24220 net.cpp:129] Top shape: 32 32 14 14 (200704)
I0507 20:08:23.899739 24220 net.cpp:137] Memory required for data: 1510482948
I0507 20:08:23.899742 24220 layer_factory.hpp:77] Creating layer inception_4d/5x5
I0507 20:08:23.899752 24220 net.cpp:84] Creating Layer inception_4d/5x5
I0507 20:08:23.899756 24220 net.cpp:406] inception_4d/5x5 <- inception_4d/5x5_reduce
I0507 20:08:23.899765 24220 net.cpp:380] inception_4d/5x5 -> inception_4d/5x5
I0507 20:08:23.901626 24220 net.cpp:122] Setting up inception_4d/5x5
I0507 20:08:23.901638 24220 net.cpp:129] Top shape: 32 64 14 14 (401408)
I0507 20:08:23.901643 24220 net.cpp:137] Memory required for data: 1512088580
I0507 20:08:23.901667 24220 layer_factory.hpp:77] Creating layer inception_4d/relu_5x5
I0507 20:08:23.901675 24220 net.cpp:84] Creating Layer inception_4d/relu_5x5
I0507 20:08:23.901681 24220 net.cpp:406] inception_4d/relu_5x5 <- inception_4d/5x5
I0507 20:08:23.901686 24220 net.cpp:367] inception_4d/relu_5x5 -> inception_4d/5x5 (in-place)
I0507 20:08:23.903970 24220 net.cpp:122] Setting up inception_4d/relu_5x5
I0507 20:08:23.903982 24220 net.cpp:129] Top shape: 32 64 14 14 (401408)
I0507 20:08:23.903986 24220 net.cpp:137] Memory required for data: 1513694212
I0507 20:08:23.903990 24220 layer_factory.hpp:77] Creating layer inception_4d/pool
I0507 20:08:23.904000 24220 net.cpp:84] Creating Layer inception_4d/pool
I0507 20:08:23.904004 24220 net.cpp:406] inception_4d/pool <- inception_4c/output_inception_4c/output_0_split_3
I0507 20:08:23.904012 24220 net.cpp:380] inception_4d/pool -> inception_4d/pool
I0507 20:08:23.904054 24220 net.cpp:122] Setting up inception_4d/pool
I0507 20:08:23.904060 24220 net.cpp:129] Top shape: 32 512 14 14 (3211264)
I0507 20:08:23.904063 24220 net.cpp:137] Memory required for data: 1526539268
I0507 20:08:23.904067 24220 layer_factory.hpp:77] Creating layer inception_4d/pool_proj
I0507 20:08:23.904078 24220 net.cpp:84] Creating Layer inception_4d/pool_proj
I0507 20:08:23.904081 24220 net.cpp:406] inception_4d/pool_proj <- inception_4d/pool
I0507 20:08:23.904089 24220 net.cpp:380] inception_4d/pool_proj -> inception_4d/pool_proj
I0507 20:08:23.905983 24220 net.cpp:122] Setting up inception_4d/pool_proj
I0507 20:08:23.905993 24220 net.cpp:129] Top shape: 32 64 14 14 (401408)
I0507 20:08:23.905997 24220 net.cpp:137] Memory required for data: 1528144900
I0507 20:08:23.906004 24220 layer_factory.hpp:77] Creating layer inception_4d/relu_pool_proj
I0507 20:08:23.906013 24220 net.cpp:84] Creating Layer inception_4d/relu_pool_proj
I0507 20:08:23.906018 24220 net.cpp:406] inception_4d/relu_pool_proj <- inception_4d/pool_proj
I0507 20:08:23.906024 24220 net.cpp:367] inception_4d/relu_pool_proj -> inception_4d/pool_proj (in-place)
I0507 20:08:23.906389 24220 net.cpp:122] Setting up inception_4d/relu_pool_proj
I0507 20:08:23.906397 24220 net.cpp:129] Top shape: 32 64 14 14 (401408)
I0507 20:08:23.906400 24220 net.cpp:137] Memory required for data: 1529750532
I0507 20:08:23.906404 24220 layer_factory.hpp:77] Creating layer inception_4d/output
I0507 20:08:23.906410 24220 net.cpp:84] Creating Layer inception_4d/output
I0507 20:08:23.906415 24220 net.cpp:406] inception_4d/output <- inception_4d/1x1
I0507 20:08:23.906420 24220 net.cpp:406] inception_4d/output <- inception_4d/3x3
I0507 20:08:23.906425 24220 net.cpp:406] inception_4d/output <- inception_4d/5x5
I0507 20:08:23.906428 24220 net.cpp:406] inception_4d/output <- inception_4d/pool_proj
I0507 20:08:23.906433 24220 net.cpp:380] inception_4d/output -> inception_4d/output
I0507 20:08:23.906461 24220 net.cpp:122] Setting up inception_4d/output
I0507 20:08:23.906466 24220 net.cpp:129] Top shape: 32 528 14 14 (3311616)
I0507 20:08:23.906468 24220 net.cpp:137] Memory required for data: 1542996996
I0507 20:08:23.906472 24220 layer_factory.hpp:77] Creating layer inception_4d/output_inception_4d/output_0_split
I0507 20:08:23.906495 24220 net.cpp:84] Creating Layer inception_4d/output_inception_4d/output_0_split
I0507 20:08:23.906499 24220 net.cpp:406] inception_4d/output_inception_4d/output_0_split <- inception_4d/output
I0507 20:08:23.906507 24220 net.cpp:380] inception_4d/output_inception_4d/output_0_split -> inception_4d/output_inception_4d/output_0_split_0
I0507 20:08:23.906513 24220 net.cpp:380] inception_4d/output_inception_4d/output_0_split -> inception_4d/output_inception_4d/output_0_split_1
I0507 20:08:23.906518 24220 net.cpp:380] inception_4d/output_inception_4d/output_0_split -> inception_4d/output_inception_4d/output_0_split_2
I0507 20:08:23.906527 24220 net.cpp:380] inception_4d/output_inception_4d/output_0_split -> inception_4d/output_inception_4d/output_0_split_3
I0507 20:08:23.906531 24220 net.cpp:380] inception_4d/output_inception_4d/output_0_split -> inception_4d/output_inception_4d/output_0_split_4
I0507 20:08:23.906608 24220 net.cpp:122] Setting up inception_4d/output_inception_4d/output_0_split
I0507 20:08:23.906613 24220 net.cpp:129] Top shape: 32 528 14 14 (3311616)
I0507 20:08:23.906618 24220 net.cpp:129] Top shape: 32 528 14 14 (3311616)
I0507 20:08:23.906622 24220 net.cpp:129] Top shape: 32 528 14 14 (3311616)
I0507 20:08:23.906626 24220 net.cpp:129] Top shape: 32 528 14 14 (3311616)
I0507 20:08:23.906630 24220 net.cpp:129] Top shape: 32 528 14 14 (3311616)
I0507 20:08:23.906632 24220 net.cpp:137] Memory required for data: 1609229316
I0507 20:08:23.906636 24220 layer_factory.hpp:77] Creating layer loss2/ave_pool
I0507 20:08:23.906643 24220 net.cpp:84] Creating Layer loss2/ave_pool
I0507 20:08:23.906647 24220 net.cpp:406] loss2/ave_pool <- inception_4d/output_inception_4d/output_0_split_0
I0507 20:08:23.906652 24220 net.cpp:380] loss2/ave_pool -> loss2/ave_pool
I0507 20:08:23.907182 24220 net.cpp:122] Setting up loss2/ave_pool
I0507 20:08:23.907192 24220 net.cpp:129] Top shape: 32 528 4 4 (270336)
I0507 20:08:23.907196 24220 net.cpp:137] Memory required for data: 1610310660
I0507 20:08:23.907199 24220 layer_factory.hpp:77] Creating layer loss2/conv
I0507 20:08:23.907209 24220 net.cpp:84] Creating Layer loss2/conv
I0507 20:08:23.907213 24220 net.cpp:406] loss2/conv <- loss2/ave_pool
I0507 20:08:23.907219 24220 net.cpp:380] loss2/conv -> loss2/conv
I0507 20:08:23.909281 24220 net.cpp:122] Setting up loss2/conv
I0507 20:08:23.909291 24220 net.cpp:129] Top shape: 32 128 4 4 (65536)
I0507 20:08:23.909296 24220 net.cpp:137] Memory required for data: 1610572804
I0507 20:08:23.909301 24220 layer_factory.hpp:77] Creating layer loss2/relu_conv
I0507 20:08:23.909307 24220 net.cpp:84] Creating Layer loss2/relu_conv
I0507 20:08:23.909312 24220 net.cpp:406] loss2/relu_conv <- loss2/conv
I0507 20:08:23.909318 24220 net.cpp:367] loss2/relu_conv -> loss2/conv (in-place)
I0507 20:08:23.909678 24220 net.cpp:122] Setting up loss2/relu_conv
I0507 20:08:23.909687 24220 net.cpp:129] Top shape: 32 128 4 4 (65536)
I0507 20:08:23.909690 24220 net.cpp:137] Memory required for data: 1610834948
I0507 20:08:23.909694 24220 layer_factory.hpp:77] Creating layer loss2/fc
I0507 20:08:23.909703 24220 net.cpp:84] Creating Layer loss2/fc
I0507 20:08:23.909708 24220 net.cpp:406] loss2/fc <- loss2/conv
I0507 20:08:23.909713 24220 net.cpp:380] loss2/fc -> loss2/fc
I0507 20:08:23.921841 24220 net.cpp:122] Setting up loss2/fc
I0507 20:08:23.921859 24220 net.cpp:129] Top shape: 32 1024 (32768)
I0507 20:08:23.921861 24220 net.cpp:137] Memory required for data: 1610966020
I0507 20:08:23.921870 24220 layer_factory.hpp:77] Creating layer loss2/relu_fc
I0507 20:08:23.921880 24220 net.cpp:84] Creating Layer loss2/relu_fc
I0507 20:08:23.921885 24220 net.cpp:406] loss2/relu_fc <- loss2/fc
I0507 20:08:23.921892 24220 net.cpp:367] loss2/relu_fc -> loss2/fc (in-place)
I0507 20:08:23.924001 24220 net.cpp:122] Setting up loss2/relu_fc
I0507 20:08:23.924013 24220 net.cpp:129] Top shape: 32 1024 (32768)
I0507 20:08:23.924016 24220 net.cpp:137] Memory required for data: 1611097092
I0507 20:08:23.924021 24220 layer_factory.hpp:77] Creating layer loss2/drop_fc
I0507 20:08:23.924029 24220 net.cpp:84] Creating Layer loss2/drop_fc
I0507 20:08:23.924033 24220 net.cpp:406] loss2/drop_fc <- loss2/fc
I0507 20:08:23.924039 24220 net.cpp:367] loss2/drop_fc -> loss2/fc (in-place)
I0507 20:08:23.924067 24220 net.cpp:122] Setting up loss2/drop_fc
I0507 20:08:23.924073 24220 net.cpp:129] Top shape: 32 1024 (32768)
I0507 20:08:23.924077 24220 net.cpp:137] Memory required for data: 1611228164
I0507 20:08:23.924080 24220 layer_factory.hpp:77] Creating layer loss2/classifier
I0507 20:08:23.924088 24220 net.cpp:84] Creating Layer loss2/classifier
I0507 20:08:23.924093 24220 net.cpp:406] loss2/classifier <- loss2/fc
I0507 20:08:23.924098 24220 net.cpp:380] loss2/classifier -> loss2/classifier
I0507 20:08:23.925137 24220 net.cpp:122] Setting up loss2/classifier
I0507 20:08:23.925144 24220 net.cpp:129] Top shape: 32 196 (6272)
I0507 20:08:23.925168 24220 net.cpp:137] Memory required for data: 1611253252
I0507 20:08:23.925173 24220 layer_factory.hpp:77] Creating layer loss2/loss
I0507 20:08:23.925180 24220 net.cpp:84] Creating Layer loss2/loss
I0507 20:08:23.925185 24220 net.cpp:406] loss2/loss <- loss2/classifier
I0507 20:08:23.925191 24220 net.cpp:406] loss2/loss <- label_train-data_1_split_1
I0507 20:08:23.925196 24220 net.cpp:380] loss2/loss -> loss2/loss
I0507 20:08:23.925205 24220 layer_factory.hpp:77] Creating layer loss2/loss
I0507 20:08:23.925801 24220 net.cpp:122] Setting up loss2/loss
I0507 20:08:23.925810 24220 net.cpp:129] Top shape: (1)
I0507 20:08:23.925814 24220 net.cpp:132]     with loss weight 0.3
I0507 20:08:23.925824 24220 net.cpp:137] Memory required for data: 1611253256
I0507 20:08:23.925829 24220 layer_factory.hpp:77] Creating layer inception_4e/1x1
I0507 20:08:23.925842 24220 net.cpp:84] Creating Layer inception_4e/1x1
I0507 20:08:23.925845 24220 net.cpp:406] inception_4e/1x1 <- inception_4d/output_inception_4d/output_0_split_1
I0507 20:08:23.925854 24220 net.cpp:380] inception_4e/1x1 -> inception_4e/1x1
I0507 20:08:23.928086 24220 net.cpp:122] Setting up inception_4e/1x1
I0507 20:08:23.928097 24220 net.cpp:129] Top shape: 32 256 14 14 (1605632)
I0507 20:08:23.928100 24220 net.cpp:137] Memory required for data: 1617675784
I0507 20:08:23.928107 24220 layer_factory.hpp:77] Creating layer inception_4e/relu_1x1
I0507 20:08:23.928117 24220 net.cpp:84] Creating Layer inception_4e/relu_1x1
I0507 20:08:23.928120 24220 net.cpp:406] inception_4e/relu_1x1 <- inception_4e/1x1
I0507 20:08:23.928126 24220 net.cpp:367] inception_4e/relu_1x1 -> inception_4e/1x1 (in-place)
I0507 20:08:23.928643 24220 net.cpp:122] Setting up inception_4e/relu_1x1
I0507 20:08:23.928653 24220 net.cpp:129] Top shape: 32 256 14 14 (1605632)
I0507 20:08:23.928656 24220 net.cpp:137] Memory required for data: 1624098312
I0507 20:08:23.928661 24220 layer_factory.hpp:77] Creating layer inception_4e/3x3_reduce
I0507 20:08:23.928670 24220 net.cpp:84] Creating Layer inception_4e/3x3_reduce
I0507 20:08:23.928675 24220 net.cpp:406] inception_4e/3x3_reduce <- inception_4d/output_inception_4d/output_0_split_2
I0507 20:08:23.928683 24220 net.cpp:380] inception_4e/3x3_reduce -> inception_4e/3x3_reduce
I0507 20:08:23.931372 24220 net.cpp:122] Setting up inception_4e/3x3_reduce
I0507 20:08:23.931383 24220 net.cpp:129] Top shape: 32 160 14 14 (1003520)
I0507 20:08:23.931387 24220 net.cpp:137] Memory required for data: 1628112392
I0507 20:08:23.931394 24220 layer_factory.hpp:77] Creating layer inception_4e/relu_3x3_reduce
I0507 20:08:23.931401 24220 net.cpp:84] Creating Layer inception_4e/relu_3x3_reduce
I0507 20:08:23.931406 24220 net.cpp:406] inception_4e/relu_3x3_reduce <- inception_4e/3x3_reduce
I0507 20:08:23.931412 24220 net.cpp:367] inception_4e/relu_3x3_reduce -> inception_4e/3x3_reduce (in-place)
I0507 20:08:23.931923 24220 net.cpp:122] Setting up inception_4e/relu_3x3_reduce
I0507 20:08:23.931933 24220 net.cpp:129] Top shape: 32 160 14 14 (1003520)
I0507 20:08:23.931936 24220 net.cpp:137] Memory required for data: 1632126472
I0507 20:08:23.931941 24220 layer_factory.hpp:77] Creating layer inception_4e/3x3
I0507 20:08:23.931952 24220 net.cpp:84] Creating Layer inception_4e/3x3
I0507 20:08:23.931957 24220 net.cpp:406] inception_4e/3x3 <- inception_4e/3x3_reduce
I0507 20:08:23.931963 24220 net.cpp:380] inception_4e/3x3 -> inception_4e/3x3
I0507 20:08:23.939721 24220 net.cpp:122] Setting up inception_4e/3x3
I0507 20:08:23.939734 24220 net.cpp:129] Top shape: 32 320 14 14 (2007040)
I0507 20:08:23.939738 24220 net.cpp:137] Memory required for data: 1640154632
I0507 20:08:23.939746 24220 layer_factory.hpp:77] Creating layer inception_4e/relu_3x3
I0507 20:08:23.939754 24220 net.cpp:84] Creating Layer inception_4e/relu_3x3
I0507 20:08:23.939760 24220 net.cpp:406] inception_4e/relu_3x3 <- inception_4e/3x3
I0507 20:08:23.939765 24220 net.cpp:367] inception_4e/relu_3x3 -> inception_4e/3x3 (in-place)
I0507 20:08:23.940126 24220 net.cpp:122] Setting up inception_4e/relu_3x3
I0507 20:08:23.940135 24220 net.cpp:129] Top shape: 32 320 14 14 (2007040)
I0507 20:08:23.940153 24220 net.cpp:137] Memory required for data: 1648182792
I0507 20:08:23.940157 24220 layer_factory.hpp:77] Creating layer inception_4e/5x5_reduce
I0507 20:08:23.940168 24220 net.cpp:84] Creating Layer inception_4e/5x5_reduce
I0507 20:08:23.940172 24220 net.cpp:406] inception_4e/5x5_reduce <- inception_4d/output_inception_4d/output_0_split_3
I0507 20:08:23.940181 24220 net.cpp:380] inception_4e/5x5_reduce -> inception_4e/5x5_reduce
I0507 20:08:23.943682 24220 net.cpp:122] Setting up inception_4e/5x5_reduce
I0507 20:08:23.943693 24220 net.cpp:129] Top shape: 32 32 14 14 (200704)
I0507 20:08:23.943697 24220 net.cpp:137] Memory required for data: 1648985608
I0507 20:08:23.943703 24220 layer_factory.hpp:77] Creating layer inception_4e/relu_5x5_reduce
I0507 20:08:23.943711 24220 net.cpp:84] Creating Layer inception_4e/relu_5x5_reduce
I0507 20:08:23.943715 24220 net.cpp:406] inception_4e/relu_5x5_reduce <- inception_4e/5x5_reduce
I0507 20:08:23.943722 24220 net.cpp:367] inception_4e/relu_5x5_reduce -> inception_4e/5x5_reduce (in-place)
I0507 20:08:23.944241 24220 net.cpp:122] Setting up inception_4e/relu_5x5_reduce
I0507 20:08:23.944250 24220 net.cpp:129] Top shape: 32 32 14 14 (200704)
I0507 20:08:23.944253 24220 net.cpp:137] Memory required for data: 1649788424
I0507 20:08:23.944257 24220 layer_factory.hpp:77] Creating layer inception_4e/5x5
I0507 20:08:23.944296 24220 net.cpp:84] Creating Layer inception_4e/5x5
I0507 20:08:23.944303 24220 net.cpp:406] inception_4e/5x5 <- inception_4e/5x5_reduce
I0507 20:08:23.944308 24220 net.cpp:380] inception_4e/5x5 -> inception_4e/5x5
I0507 20:08:23.947700 24220 net.cpp:122] Setting up inception_4e/5x5
I0507 20:08:23.947711 24220 net.cpp:129] Top shape: 32 128 14 14 (802816)
I0507 20:08:23.947715 24220 net.cpp:137] Memory required for data: 1652999688
I0507 20:08:23.947721 24220 layer_factory.hpp:77] Creating layer inception_4e/relu_5x5
I0507 20:08:23.947731 24220 net.cpp:84] Creating Layer inception_4e/relu_5x5
I0507 20:08:23.947734 24220 net.cpp:406] inception_4e/relu_5x5 <- inception_4e/5x5
I0507 20:08:23.947741 24220 net.cpp:367] inception_4e/relu_5x5 -> inception_4e/5x5 (in-place)
I0507 20:08:23.948259 24220 net.cpp:122] Setting up inception_4e/relu_5x5
I0507 20:08:23.948269 24220 net.cpp:129] Top shape: 32 128 14 14 (802816)
I0507 20:08:23.948272 24220 net.cpp:137] Memory required for data: 1656210952
I0507 20:08:23.948276 24220 layer_factory.hpp:77] Creating layer inception_4e/pool
I0507 20:08:23.948283 24220 net.cpp:84] Creating Layer inception_4e/pool
I0507 20:08:23.948288 24220 net.cpp:406] inception_4e/pool <- inception_4d/output_inception_4d/output_0_split_4
I0507 20:08:23.948295 24220 net.cpp:380] inception_4e/pool -> inception_4e/pool
I0507 20:08:23.948338 24220 net.cpp:122] Setting up inception_4e/pool
I0507 20:08:23.948345 24220 net.cpp:129] Top shape: 32 528 14 14 (3311616)
I0507 20:08:23.948348 24220 net.cpp:137] Memory required for data: 1669457416
I0507 20:08:23.948351 24220 layer_factory.hpp:77] Creating layer inception_4e/pool_proj
I0507 20:08:23.948360 24220 net.cpp:84] Creating Layer inception_4e/pool_proj
I0507 20:08:23.948365 24220 net.cpp:406] inception_4e/pool_proj <- inception_4e/pool
I0507 20:08:23.948372 24220 net.cpp:380] inception_4e/pool_proj -> inception_4e/pool_proj
I0507 20:08:23.950269 24220 net.cpp:122] Setting up inception_4e/pool_proj
I0507 20:08:23.950279 24220 net.cpp:129] Top shape: 32 128 14 14 (802816)
I0507 20:08:23.950284 24220 net.cpp:137] Memory required for data: 1672668680
I0507 20:08:23.950289 24220 layer_factory.hpp:77] Creating layer inception_4e/relu_pool_proj
I0507 20:08:23.950295 24220 net.cpp:84] Creating Layer inception_4e/relu_pool_proj
I0507 20:08:23.950300 24220 net.cpp:406] inception_4e/relu_pool_proj <- inception_4e/pool_proj
I0507 20:08:23.950307 24220 net.cpp:367] inception_4e/relu_pool_proj -> inception_4e/pool_proj (in-place)
I0507 20:08:23.950835 24220 net.cpp:122] Setting up inception_4e/relu_pool_proj
I0507 20:08:23.950847 24220 net.cpp:129] Top shape: 32 128 14 14 (802816)
I0507 20:08:23.950865 24220 net.cpp:137] Memory required for data: 1675879944
I0507 20:08:23.950870 24220 layer_factory.hpp:77] Creating layer inception_4e/output
I0507 20:08:23.950876 24220 net.cpp:84] Creating Layer inception_4e/output
I0507 20:08:23.950881 24220 net.cpp:406] inception_4e/output <- inception_4e/1x1
I0507 20:08:23.950886 24220 net.cpp:406] inception_4e/output <- inception_4e/3x3
I0507 20:08:23.950891 24220 net.cpp:406] inception_4e/output <- inception_4e/5x5
I0507 20:08:23.950896 24220 net.cpp:406] inception_4e/output <- inception_4e/pool_proj
I0507 20:08:23.950902 24220 net.cpp:380] inception_4e/output -> inception_4e/output
I0507 20:08:23.950929 24220 net.cpp:122] Setting up inception_4e/output
I0507 20:08:23.950937 24220 net.cpp:129] Top shape: 32 832 14 14 (5218304)
I0507 20:08:23.950942 24220 net.cpp:137] Memory required for data: 1696753160
I0507 20:08:23.950944 24220 layer_factory.hpp:77] Creating layer pool4/3x3_s2
I0507 20:08:23.950950 24220 net.cpp:84] Creating Layer pool4/3x3_s2
I0507 20:08:23.950954 24220 net.cpp:406] pool4/3x3_s2 <- inception_4e/output
I0507 20:08:23.950960 24220 net.cpp:380] pool4/3x3_s2 -> pool4/3x3_s2
I0507 20:08:23.950995 24220 net.cpp:122] Setting up pool4/3x3_s2
I0507 20:08:23.951000 24220 net.cpp:129] Top shape: 32 832 7 7 (1304576)
I0507 20:08:23.951004 24220 net.cpp:137] Memory required for data: 1701971464
I0507 20:08:23.951007 24220 layer_factory.hpp:77] Creating layer pool4/3x3_s2_pool4/3x3_s2_0_split
I0507 20:08:23.951014 24220 net.cpp:84] Creating Layer pool4/3x3_s2_pool4/3x3_s2_0_split
I0507 20:08:23.951018 24220 net.cpp:406] pool4/3x3_s2_pool4/3x3_s2_0_split <- pool4/3x3_s2
I0507 20:08:23.951025 24220 net.cpp:380] pool4/3x3_s2_pool4/3x3_s2_0_split -> pool4/3x3_s2_pool4/3x3_s2_0_split_0
I0507 20:08:23.951031 24220 net.cpp:380] pool4/3x3_s2_pool4/3x3_s2_0_split -> pool4/3x3_s2_pool4/3x3_s2_0_split_1
I0507 20:08:23.951038 24220 net.cpp:380] pool4/3x3_s2_pool4/3x3_s2_0_split -> pool4/3x3_s2_pool4/3x3_s2_0_split_2
I0507 20:08:23.951045 24220 net.cpp:380] pool4/3x3_s2_pool4/3x3_s2_0_split -> pool4/3x3_s2_pool4/3x3_s2_0_split_3
I0507 20:08:23.951088 24220 net.cpp:122] Setting up pool4/3x3_s2_pool4/3x3_s2_0_split
I0507 20:08:23.951093 24220 net.cpp:129] Top shape: 32 832 7 7 (1304576)
I0507 20:08:23.951097 24220 net.cpp:129] Top shape: 32 832 7 7 (1304576)
I0507 20:08:23.951102 24220 net.cpp:129] Top shape: 32 832 7 7 (1304576)
I0507 20:08:23.951105 24220 net.cpp:129] Top shape: 32 832 7 7 (1304576)
I0507 20:08:23.951108 24220 net.cpp:137] Memory required for data: 1722844680
I0507 20:08:23.951112 24220 layer_factory.hpp:77] Creating layer inception_5a/1x1
I0507 20:08:23.951122 24220 net.cpp:84] Creating Layer inception_5a/1x1
I0507 20:08:23.951126 24220 net.cpp:406] inception_5a/1x1 <- pool4/3x3_s2_pool4/3x3_s2_0_split_0
I0507 20:08:23.951133 24220 net.cpp:380] inception_5a/1x1 -> inception_5a/1x1
I0507 20:08:23.953682 24220 net.cpp:122] Setting up inception_5a/1x1
I0507 20:08:23.953692 24220 net.cpp:129] Top shape: 32 256 7 7 (401408)
I0507 20:08:23.953696 24220 net.cpp:137] Memory required for data: 1724450312
I0507 20:08:23.953702 24220 layer_factory.hpp:77] Creating layer inception_5a/relu_1x1
I0507 20:08:23.953711 24220 net.cpp:84] Creating Layer inception_5a/relu_1x1
I0507 20:08:23.953716 24220 net.cpp:406] inception_5a/relu_1x1 <- inception_5a/1x1
I0507 20:08:23.953722 24220 net.cpp:367] inception_5a/relu_1x1 -> inception_5a/1x1 (in-place)
I0507 20:08:23.954243 24220 net.cpp:122] Setting up inception_5a/relu_1x1
I0507 20:08:23.954252 24220 net.cpp:129] Top shape: 32 256 7 7 (401408)
I0507 20:08:23.954257 24220 net.cpp:137] Memory required for data: 1726055944
I0507 20:08:23.954262 24220 layer_factory.hpp:77] Creating layer inception_5a/3x3_reduce
I0507 20:08:23.954272 24220 net.cpp:84] Creating Layer inception_5a/3x3_reduce
I0507 20:08:23.954277 24220 net.cpp:406] inception_5a/3x3_reduce <- pool4/3x3_s2_pool4/3x3_s2_0_split_1
I0507 20:08:23.954284 24220 net.cpp:380] inception_5a/3x3_reduce -> inception_5a/3x3_reduce
I0507 20:08:23.959908 24220 net.cpp:122] Setting up inception_5a/3x3_reduce
I0507 20:08:23.959921 24220 net.cpp:129] Top shape: 32 160 7 7 (250880)
I0507 20:08:23.959926 24220 net.cpp:137] Memory required for data: 1727059464
I0507 20:08:23.959933 24220 layer_factory.hpp:77] Creating layer inception_5a/relu_3x3_reduce
I0507 20:08:23.959941 24220 net.cpp:84] Creating Layer inception_5a/relu_3x3_reduce
I0507 20:08:23.959945 24220 net.cpp:406] inception_5a/relu_3x3_reduce <- inception_5a/3x3_reduce
I0507 20:08:23.959951 24220 net.cpp:367] inception_5a/relu_3x3_reduce -> inception_5a/3x3_reduce (in-place)
I0507 20:08:23.960311 24220 net.cpp:122] Setting up inception_5a/relu_3x3_reduce
I0507 20:08:23.960320 24220 net.cpp:129] Top shape: 32 160 7 7 (250880)
I0507 20:08:23.960323 24220 net.cpp:137] Memory required for data: 1728062984
I0507 20:08:23.960327 24220 layer_factory.hpp:77] Creating layer inception_5a/3x3
I0507 20:08:23.960338 24220 net.cpp:84] Creating Layer inception_5a/3x3
I0507 20:08:23.960343 24220 net.cpp:406] inception_5a/3x3 <- inception_5a/3x3_reduce
I0507 20:08:23.960351 24220 net.cpp:380] inception_5a/3x3 -> inception_5a/3x3
I0507 20:08:23.968570 24220 net.cpp:122] Setting up inception_5a/3x3
I0507 20:08:23.968580 24220 net.cpp:129] Top shape: 32 320 7 7 (501760)
I0507 20:08:23.968585 24220 net.cpp:137] Memory required for data: 1730070024
I0507 20:08:23.968592 24220 layer_factory.hpp:77] Creating layer inception_5a/relu_3x3
I0507 20:08:23.968601 24220 net.cpp:84] Creating Layer inception_5a/relu_3x3
I0507 20:08:23.968605 24220 net.cpp:406] inception_5a/relu_3x3 <- inception_5a/3x3
I0507 20:08:23.968611 24220 net.cpp:367] inception_5a/relu_3x3 -> inception_5a/3x3 (in-place)
I0507 20:08:23.969133 24220 net.cpp:122] Setting up inception_5a/relu_3x3
I0507 20:08:23.969143 24220 net.cpp:129] Top shape: 32 320 7 7 (501760)
I0507 20:08:23.969147 24220 net.cpp:137] Memory required for data: 1732077064
I0507 20:08:23.969151 24220 layer_factory.hpp:77] Creating layer inception_5a/5x5_reduce
I0507 20:08:23.969164 24220 net.cpp:84] Creating Layer inception_5a/5x5_reduce
I0507 20:08:23.969169 24220 net.cpp:406] inception_5a/5x5_reduce <- pool4/3x3_s2_pool4/3x3_s2_0_split_2
I0507 20:08:23.969178 24220 net.cpp:380] inception_5a/5x5_reduce -> inception_5a/5x5_reduce
I0507 20:08:23.972784 24220 net.cpp:122] Setting up inception_5a/5x5_reduce
I0507 20:08:23.972796 24220 net.cpp:129] Top shape: 32 32 7 7 (50176)
I0507 20:08:23.972800 24220 net.cpp:137] Memory required for data: 1732277768
I0507 20:08:23.972807 24220 layer_factory.hpp:77] Creating layer inception_5a/relu_5x5_reduce
I0507 20:08:23.972816 24220 net.cpp:84] Creating Layer inception_5a/relu_5x5_reduce
I0507 20:08:23.972821 24220 net.cpp:406] inception_5a/relu_5x5_reduce <- inception_5a/5x5_reduce
I0507 20:08:23.972828 24220 net.cpp:367] inception_5a/relu_5x5_reduce -> inception_5a/5x5_reduce (in-place)
I0507 20:08:23.973361 24220 net.cpp:122] Setting up inception_5a/relu_5x5_reduce
I0507 20:08:23.973372 24220 net.cpp:129] Top shape: 32 32 7 7 (50176)
I0507 20:08:23.973376 24220 net.cpp:137] Memory required for data: 1732478472
I0507 20:08:23.973381 24220 layer_factory.hpp:77] Creating layer inception_5a/5x5
I0507 20:08:23.973393 24220 net.cpp:84] Creating Layer inception_5a/5x5
I0507 20:08:23.973398 24220 net.cpp:406] inception_5a/5x5 <- inception_5a/5x5_reduce
I0507 20:08:23.973407 24220 net.cpp:380] inception_5a/5x5 -> inception_5a/5x5
I0507 20:08:23.975477 24220 net.cpp:122] Setting up inception_5a/5x5
I0507 20:08:23.975492 24220 net.cpp:129] Top shape: 32 128 7 7 (200704)
I0507 20:08:23.975497 24220 net.cpp:137] Memory required for data: 1733281288
I0507 20:08:23.975502 24220 layer_factory.hpp:77] Creating layer inception_5a/relu_5x5
I0507 20:08:23.975508 24220 net.cpp:84] Creating Layer inception_5a/relu_5x5
I0507 20:08:23.975513 24220 net.cpp:406] inception_5a/relu_5x5 <- inception_5a/5x5
I0507 20:08:23.975518 24220 net.cpp:367] inception_5a/relu_5x5 -> inception_5a/5x5 (in-place)
I0507 20:08:23.976048 24220 net.cpp:122] Setting up inception_5a/relu_5x5
I0507 20:08:23.976078 24220 net.cpp:129] Top shape: 32 128 7 7 (200704)
I0507 20:08:23.976081 24220 net.cpp:137] Memory required for data: 1734084104
I0507 20:08:23.976086 24220 layer_factory.hpp:77] Creating layer inception_5a/pool
I0507 20:08:23.976094 24220 net.cpp:84] Creating Layer inception_5a/pool
I0507 20:08:23.976097 24220 net.cpp:406] inception_5a/pool <- pool4/3x3_s2_pool4/3x3_s2_0_split_3
I0507 20:08:23.976104 24220 net.cpp:380] inception_5a/pool -> inception_5a/pool
I0507 20:08:23.976145 24220 net.cpp:122] Setting up inception_5a/pool
I0507 20:08:23.976150 24220 net.cpp:129] Top shape: 32 832 7 7 (1304576)
I0507 20:08:23.976153 24220 net.cpp:137] Memory required for data: 1739302408
I0507 20:08:23.976157 24220 layer_factory.hpp:77] Creating layer inception_5a/pool_proj
I0507 20:08:23.976167 24220 net.cpp:84] Creating Layer inception_5a/pool_proj
I0507 20:08:23.976172 24220 net.cpp:406] inception_5a/pool_proj <- inception_5a/pool
I0507 20:08:23.976177 24220 net.cpp:380] inception_5a/pool_proj -> inception_5a/pool_proj
I0507 20:08:23.978273 24220 net.cpp:122] Setting up inception_5a/pool_proj
I0507 20:08:23.978284 24220 net.cpp:129] Top shape: 32 128 7 7 (200704)
I0507 20:08:23.978287 24220 net.cpp:137] Memory required for data: 1740105224
I0507 20:08:23.978293 24220 layer_factory.hpp:77] Creating layer inception_5a/relu_pool_proj
I0507 20:08:23.978302 24220 net.cpp:84] Creating Layer inception_5a/relu_pool_proj
I0507 20:08:23.978307 24220 net.cpp:406] inception_5a/relu_pool_proj <- inception_5a/pool_proj
I0507 20:08:23.978313 24220 net.cpp:367] inception_5a/relu_pool_proj -> inception_5a/pool_proj (in-place)
I0507 20:08:23.978843 24220 net.cpp:122] Setting up inception_5a/relu_pool_proj
I0507 20:08:23.978852 24220 net.cpp:129] Top shape: 32 128 7 7 (200704)
I0507 20:08:23.978857 24220 net.cpp:137] Memory required for data: 1740908040
I0507 20:08:23.978860 24220 layer_factory.hpp:77] Creating layer inception_5a/output
I0507 20:08:23.978868 24220 net.cpp:84] Creating Layer inception_5a/output
I0507 20:08:23.978873 24220 net.cpp:406] inception_5a/output <- inception_5a/1x1
I0507 20:08:23.978878 24220 net.cpp:406] inception_5a/output <- inception_5a/3x3
I0507 20:08:23.978881 24220 net.cpp:406] inception_5a/output <- inception_5a/5x5
I0507 20:08:23.978885 24220 net.cpp:406] inception_5a/output <- inception_5a/pool_proj
I0507 20:08:23.978890 24220 net.cpp:380] inception_5a/output -> inception_5a/output
I0507 20:08:23.978917 24220 net.cpp:122] Setting up inception_5a/output
I0507 20:08:23.978924 24220 net.cpp:129] Top shape: 32 832 7 7 (1304576)
I0507 20:08:23.978926 24220 net.cpp:137] Memory required for data: 1746126344
I0507 20:08:23.978930 24220 layer_factory.hpp:77] Creating layer inception_5a/output_inception_5a/output_0_split
I0507 20:08:23.978935 24220 net.cpp:84] Creating Layer inception_5a/output_inception_5a/output_0_split
I0507 20:08:23.978940 24220 net.cpp:406] inception_5a/output_inception_5a/output_0_split <- inception_5a/output
I0507 20:08:23.978947 24220 net.cpp:380] inception_5a/output_inception_5a/output_0_split -> inception_5a/output_inception_5a/output_0_split_0
I0507 20:08:23.978955 24220 net.cpp:380] inception_5a/output_inception_5a/output_0_split -> inception_5a/output_inception_5a/output_0_split_1
I0507 20:08:23.978961 24220 net.cpp:380] inception_5a/output_inception_5a/output_0_split -> inception_5a/output_inception_5a/output_0_split_2
I0507 20:08:23.978966 24220 net.cpp:380] inception_5a/output_inception_5a/output_0_split -> inception_5a/output_inception_5a/output_0_split_3
I0507 20:08:23.979013 24220 net.cpp:122] Setting up inception_5a/output_inception_5a/output_0_split
I0507 20:08:23.979019 24220 net.cpp:129] Top shape: 32 832 7 7 (1304576)
I0507 20:08:23.979023 24220 net.cpp:129] Top shape: 32 832 7 7 (1304576)
I0507 20:08:23.979027 24220 net.cpp:129] Top shape: 32 832 7 7 (1304576)
I0507 20:08:23.979032 24220 net.cpp:129] Top shape: 32 832 7 7 (1304576)
I0507 20:08:23.979034 24220 net.cpp:137] Memory required for data: 1766999560
I0507 20:08:23.979038 24220 layer_factory.hpp:77] Creating layer inception_5b/1x1
I0507 20:08:23.979058 24220 net.cpp:84] Creating Layer inception_5b/1x1
I0507 20:08:23.979061 24220 net.cpp:406] inception_5b/1x1 <- inception_5a/output_inception_5a/output_0_split_0
I0507 20:08:23.979068 24220 net.cpp:380] inception_5b/1x1 -> inception_5b/1x1
I0507 20:08:23.985795 24220 net.cpp:122] Setting up inception_5b/1x1
I0507 20:08:23.985811 24220 net.cpp:129] Top shape: 32 384 7 7 (602112)
I0507 20:08:23.985814 24220 net.cpp:137] Memory required for data: 1769408008
I0507 20:08:23.985822 24220 layer_factory.hpp:77] Creating layer inception_5b/relu_1x1
I0507 20:08:23.985831 24220 net.cpp:84] Creating Layer inception_5b/relu_1x1
I0507 20:08:23.985836 24220 net.cpp:406] inception_5b/relu_1x1 <- inception_5b/1x1
I0507 20:08:23.985841 24220 net.cpp:367] inception_5b/relu_1x1 -> inception_5b/1x1 (in-place)
I0507 20:08:23.986207 24220 net.cpp:122] Setting up inception_5b/relu_1x1
I0507 20:08:23.986215 24220 net.cpp:129] Top shape: 32 384 7 7 (602112)
I0507 20:08:23.986219 24220 net.cpp:137] Memory required for data: 1771816456
I0507 20:08:23.986223 24220 layer_factory.hpp:77] Creating layer inception_5b/3x3_reduce
I0507 20:08:23.986233 24220 net.cpp:84] Creating Layer inception_5b/3x3_reduce
I0507 20:08:23.986238 24220 net.cpp:406] inception_5b/3x3_reduce <- inception_5a/output_inception_5a/output_0_split_1
I0507 20:08:23.986246 24220 net.cpp:380] inception_5b/3x3_reduce -> inception_5b/3x3_reduce
I0507 20:08:23.988739 24220 net.cpp:122] Setting up inception_5b/3x3_reduce
I0507 20:08:23.988750 24220 net.cpp:129] Top shape: 32 192 7 7 (301056)
I0507 20:08:23.988754 24220 net.cpp:137] Memory required for data: 1773020680
I0507 20:08:23.988759 24220 layer_factory.hpp:77] Creating layer inception_5b/relu_3x3_reduce
I0507 20:08:23.988766 24220 net.cpp:84] Creating Layer inception_5b/relu_3x3_reduce
I0507 20:08:23.988770 24220 net.cpp:406] inception_5b/relu_3x3_reduce <- inception_5b/3x3_reduce
I0507 20:08:23.988777 24220 net.cpp:367] inception_5b/relu_3x3_reduce -> inception_5b/3x3_reduce (in-place)
I0507 20:08:23.989136 24220 net.cpp:122] Setting up inception_5b/relu_3x3_reduce
I0507 20:08:23.989145 24220 net.cpp:129] Top shape: 32 192 7 7 (301056)
I0507 20:08:23.989148 24220 net.cpp:137] Memory required for data: 1774224904
I0507 20:08:23.989152 24220 layer_factory.hpp:77] Creating layer inception_5b/3x3
I0507 20:08:23.989162 24220 net.cpp:84] Creating Layer inception_5b/3x3
I0507 20:08:23.989166 24220 net.cpp:406] inception_5b/3x3 <- inception_5b/3x3_reduce
I0507 20:08:23.989173 24220 net.cpp:380] inception_5b/3x3 -> inception_5b/3x3
I0507 20:08:24.001575 24220 net.cpp:122] Setting up inception_5b/3x3
I0507 20:08:24.001598 24220 net.cpp:129] Top shape: 32 384 7 7 (602112)
I0507 20:08:24.001602 24220 net.cpp:137] Memory required for data: 1776633352
I0507 20:08:24.001613 24220 layer_factory.hpp:77] Creating layer inception_5b/relu_3x3
I0507 20:08:24.001623 24220 net.cpp:84] Creating Layer inception_5b/relu_3x3
I0507 20:08:24.001631 24220 net.cpp:406] inception_5b/relu_3x3 <- inception_5b/3x3
I0507 20:08:24.001637 24220 net.cpp:367] inception_5b/relu_3x3 -> inception_5b/3x3 (in-place)
I0507 20:08:24.002168 24220 net.cpp:122] Setting up inception_5b/relu_3x3
I0507 20:08:24.002177 24220 net.cpp:129] Top shape: 32 384 7 7 (602112)
I0507 20:08:24.002182 24220 net.cpp:137] Memory required for data: 1779041800
I0507 20:08:24.002187 24220 layer_factory.hpp:77] Creating layer inception_5b/5x5_reduce
I0507 20:08:24.002198 24220 net.cpp:84] Creating Layer inception_5b/5x5_reduce
I0507 20:08:24.002204 24220 net.cpp:406] inception_5b/5x5_reduce <- inception_5a/output_inception_5a/output_0_split_2
I0507 20:08:24.002213 24220 net.cpp:380] inception_5b/5x5_reduce -> inception_5b/5x5_reduce
I0507 20:08:24.005734 24220 net.cpp:122] Setting up inception_5b/5x5_reduce
I0507 20:08:24.005746 24220 net.cpp:129] Top shape: 32 48 7 7 (75264)
I0507 20:08:24.005750 24220 net.cpp:137] Memory required for data: 1779342856
I0507 20:08:24.005759 24220 layer_factory.hpp:77] Creating layer inception_5b/relu_5x5_reduce
I0507 20:08:24.005765 24220 net.cpp:84] Creating Layer inception_5b/relu_5x5_reduce
I0507 20:08:24.005789 24220 net.cpp:406] inception_5b/relu_5x5_reduce <- inception_5b/5x5_reduce
I0507 20:08:24.005797 24220 net.cpp:367] inception_5b/relu_5x5_reduce -> inception_5b/5x5_reduce (in-place)
I0507 20:08:24.006327 24220 net.cpp:122] Setting up inception_5b/relu_5x5_reduce
I0507 20:08:24.006338 24220 net.cpp:129] Top shape: 32 48 7 7 (75264)
I0507 20:08:24.006342 24220 net.cpp:137] Memory required for data: 1779643912
I0507 20:08:24.006346 24220 layer_factory.hpp:77] Creating layer inception_5b/5x5
I0507 20:08:24.006358 24220 net.cpp:84] Creating Layer inception_5b/5x5
I0507 20:08:24.006363 24220 net.cpp:406] inception_5b/5x5 <- inception_5b/5x5_reduce
I0507 20:08:24.006371 24220 net.cpp:380] inception_5b/5x5 -> inception_5b/5x5
I0507 20:08:24.011097 24220 net.cpp:122] Setting up inception_5b/5x5
I0507 20:08:24.011109 24220 net.cpp:129] Top shape: 32 128 7 7 (200704)
I0507 20:08:24.011114 24220 net.cpp:137] Memory required for data: 1780446728
I0507 20:08:24.011121 24220 layer_factory.hpp:77] Creating layer inception_5b/relu_5x5
I0507 20:08:24.011130 24220 net.cpp:84] Creating Layer inception_5b/relu_5x5
I0507 20:08:24.011135 24220 net.cpp:406] inception_5b/relu_5x5 <- inception_5b/5x5
I0507 20:08:24.011142 24220 net.cpp:367] inception_5b/relu_5x5 -> inception_5b/5x5 (in-place)
I0507 20:08:24.011688 24220 net.cpp:122] Setting up inception_5b/relu_5x5
I0507 20:08:24.011698 24220 net.cpp:129] Top shape: 32 128 7 7 (200704)
I0507 20:08:24.011703 24220 net.cpp:137] Memory required for data: 1781249544
I0507 20:08:24.011706 24220 layer_factory.hpp:77] Creating layer inception_5b/pool
I0507 20:08:24.011715 24220 net.cpp:84] Creating Layer inception_5b/pool
I0507 20:08:24.011720 24220 net.cpp:406] inception_5b/pool <- inception_5a/output_inception_5a/output_0_split_3
I0507 20:08:24.011726 24220 net.cpp:380] inception_5b/pool -> inception_5b/pool
I0507 20:08:24.011770 24220 net.cpp:122] Setting up inception_5b/pool
I0507 20:08:24.011775 24220 net.cpp:129] Top shape: 32 832 7 7 (1304576)
I0507 20:08:24.011780 24220 net.cpp:137] Memory required for data: 1786467848
I0507 20:08:24.011783 24220 layer_factory.hpp:77] Creating layer inception_5b/pool_proj
I0507 20:08:24.011793 24220 net.cpp:84] Creating Layer inception_5b/pool_proj
I0507 20:08:24.011797 24220 net.cpp:406] inception_5b/pool_proj <- inception_5b/pool
I0507 20:08:24.011806 24220 net.cpp:380] inception_5b/pool_proj -> inception_5b/pool_proj
I0507 20:08:24.016280 24220 net.cpp:122] Setting up inception_5b/pool_proj
I0507 20:08:24.016296 24220 net.cpp:129] Top shape: 32 128 7 7 (200704)
I0507 20:08:24.016300 24220 net.cpp:137] Memory required for data: 1787270664
I0507 20:08:24.016309 24220 layer_factory.hpp:77] Creating layer inception_5b/relu_pool_proj
I0507 20:08:24.016316 24220 net.cpp:84] Creating Layer inception_5b/relu_pool_proj
I0507 20:08:24.016322 24220 net.cpp:406] inception_5b/relu_pool_proj <- inception_5b/pool_proj
I0507 20:08:24.016327 24220 net.cpp:367] inception_5b/relu_pool_proj -> inception_5b/pool_proj (in-place)
I0507 20:08:24.016966 24220 net.cpp:122] Setting up inception_5b/relu_pool_proj
I0507 20:08:24.016978 24220 net.cpp:129] Top shape: 32 128 7 7 (200704)
I0507 20:08:24.016981 24220 net.cpp:137] Memory required for data: 1788073480
I0507 20:08:24.016986 24220 layer_factory.hpp:77] Creating layer inception_5b/output
I0507 20:08:24.016993 24220 net.cpp:84] Creating Layer inception_5b/output
I0507 20:08:24.016999 24220 net.cpp:406] inception_5b/output <- inception_5b/1x1
I0507 20:08:24.017004 24220 net.cpp:406] inception_5b/output <- inception_5b/3x3
I0507 20:08:24.017009 24220 net.cpp:406] inception_5b/output <- inception_5b/5x5
I0507 20:08:24.017014 24220 net.cpp:406] inception_5b/output <- inception_5b/pool_proj
I0507 20:08:24.017019 24220 net.cpp:380] inception_5b/output -> inception_5b/output
I0507 20:08:24.017051 24220 net.cpp:122] Setting up inception_5b/output
I0507 20:08:24.017057 24220 net.cpp:129] Top shape: 32 1024 7 7 (1605632)
I0507 20:08:24.017062 24220 net.cpp:137] Memory required for data: 1794496008
I0507 20:08:24.017081 24220 layer_factory.hpp:77] Creating layer pool5/7x7_s1
I0507 20:08:24.017088 24220 net.cpp:84] Creating Layer pool5/7x7_s1
I0507 20:08:24.017092 24220 net.cpp:406] pool5/7x7_s1 <- inception_5b/output
I0507 20:08:24.017098 24220 net.cpp:380] pool5/7x7_s1 -> pool5/7x7_s1
I0507 20:08:24.017642 24220 net.cpp:122] Setting up pool5/7x7_s1
I0507 20:08:24.017652 24220 net.cpp:129] Top shape: 32 1024 1 1 (32768)
I0507 20:08:24.017657 24220 net.cpp:137] Memory required for data: 1794627080
I0507 20:08:24.017660 24220 layer_factory.hpp:77] Creating layer pool5/drop_7x7_s1
I0507 20:08:24.017668 24220 net.cpp:84] Creating Layer pool5/drop_7x7_s1
I0507 20:08:24.017673 24220 net.cpp:406] pool5/drop_7x7_s1 <- pool5/7x7_s1
I0507 20:08:24.017679 24220 net.cpp:367] pool5/drop_7x7_s1 -> pool5/7x7_s1 (in-place)
I0507 20:08:24.017701 24220 net.cpp:122] Setting up pool5/drop_7x7_s1
I0507 20:08:24.017709 24220 net.cpp:129] Top shape: 32 1024 1 1 (32768)
I0507 20:08:24.017712 24220 net.cpp:137] Memory required for data: 1794758152
I0507 20:08:24.017716 24220 layer_factory.hpp:77] Creating layer loss3/classifier
I0507 20:08:24.017724 24220 net.cpp:84] Creating Layer loss3/classifier
I0507 20:08:24.017727 24220 net.cpp:406] loss3/classifier <- pool5/7x7_s1
I0507 20:08:24.017735 24220 net.cpp:380] loss3/classifier -> loss3/classifier
I0507 20:08:24.018793 24220 net.cpp:122] Setting up loss3/classifier
I0507 20:08:24.018800 24220 net.cpp:129] Top shape: 32 196 (6272)
I0507 20:08:24.018805 24220 net.cpp:137] Memory required for data: 1794783240
I0507 20:08:24.018810 24220 layer_factory.hpp:77] Creating layer loss3/loss
I0507 20:08:24.018817 24220 net.cpp:84] Creating Layer loss3/loss
I0507 20:08:24.018821 24220 net.cpp:406] loss3/loss <- loss3/classifier
I0507 20:08:24.018826 24220 net.cpp:406] loss3/loss <- label_train-data_1_split_2
I0507 20:08:24.018833 24220 net.cpp:380] loss3/loss -> loss
…
I0507 20:08:24.022020 24220 net.cpp:294] The NetState phase (1) differed from the phase (0) specified by a rule in layer train-data
I0507 20:08:24.022917 24220 net.cpp:51] Initializing net from parameters:
state {
phase: TEST
}
layer {
name: "val-data"
type: "Data"
top: "data"
top: "label"
include {
phase: TEST
}
transform_param {
mirror: false
crop_size: 224
mean_file: "/mnt/bigdisk/MANDIG4/digits/jobs/20200507-113700-33e0/mean.binaryproto"
}
data_param {
source: "/mnt/bigdisk/MANDIG4/digits/jobs/20200507-113700-33e0/val_db"
batch_size: 16
backend: LMDB
}
}
layer {
name: "conv1/7x7_s2"
type: "Convolution"
bottom: "data"
top: "conv1/7x7_s2"
param {
lr_mult: 1
decay_mult: 1
}
param {
lr_mult: 2
decay_mult: 0
}
convolution_param {
num_output: 64
pad: 3
kernel_size: 7
stride: 2
weight_filler {
type: "xavier"
std: 0.1
}
bias_filler {
type: "constant"
value: 0.2
}
}
}
layer {
name: "conv1/relu_7x7"
type: "ReLU"
bottom: "conv1/7x7_s2"
top: "conv1/7x7_s2"
}
layer {
name: "pool1/3x3_s2"
type: "Pooling"
bottom: "conv1/7x7_s2"
top: "pool1/3x3_s2"
pooling_param {
pool: MAX
kernel_size: 3
stride: 2
}
}
layer {
name: "pool1/norm1"
type: "LRN"
bottom: "pool1/3x3_s2"
top: "pool1/norm1"
lrn_param {
local_size: 5
alpha: 0.0001
beta: 0.75
}
}
layer {
name: "conv2/3x3_reduce"
type: "Convolution"
bottom: "pool1/norm1"
top: "conv2/3x3_reduce"
param {
lr_mult: 1
decay_mult: 1
}
param {
lr_mult: 2
decay_mult: 0
}
convolution_param {
num_output: 64
kernel_size: 1
weight_filler {
type: "xavier"
std: 0.1
}
bias_filler {
type: "constant"
value: 0.2
}
}
}
layer {
name: "conv2/relu_3x3_reduce"
type: "ReLU"
bottom: "conv2/3x3_reduce"
top: "conv2/3x3_reduce"
}
layer {
name: "conv2/3x3"
type: "Convolution"
bottom: "conv2/3x3_reduce"
top: "conv2/3x3"
param {
lr_mult: 1
decay_mult: 1
}
param {
lr_mult: 2
decay_mult: 0
}
convolution_param {
num_output: 192
pad: 1
kernel_size: 3
weight_filler {
type: "xavier"
std: 0.03
}
bias_filler {
type: "constant"
value: 0.2
}
}
}
layer {
name: "conv2/relu_3x3"
type: "ReLU"
bottom: "conv2/3x3"
top: "conv2/3x3"
}
layer {
name: "conv2/norm2"
type: "LRN"
bottom: "conv2/3x3"
top: "conv2/norm2"
lrn_param {
local_size: 5
alpha: 0.0001
beta: 0.75
}
}
layer {
name: "pool2/3x3_s2"
type: "Pooling"
bottom: "conv2/norm2"
top: "pool2/3x3_s2"
pooling_param {
pool: MAX
kernel_size: 3
stride: 2
}
}
layer {
name: "inception_3a/1x1"
type: "Convolution"
bottom: "pool2/3x3_s2"
top: "inception_3a/1x1"
param {
lr_mult: 1
decay_mult: 1
}
param {
lr_mult: 2
decay_mult: 0
}
convolution_param {
num_output: 64
kernel_size: 1
weight_filler {
type: "xavier"
std: 0.03
}
bias_filler {
type: "constant"
value: 0.2
}
}
}
layer {
name: "inception_3a/relu_1x1"
type: "ReLU"
bottom: "inception_3a/1x1"
top: "inception_3a/1x1"
}
layer {
name: "inception_3a/3x3_reduce"
type: "Convolution"
bottom: "pool2/3x3_s2"
top: "inception_3a/3x3_reduce"
param {
lr_mult: 1
decay_mult: 1
}
param {
lr_mult: 2
decay_mult: 0
}
convolution_param {
num_output: 96
kernel_size: 1
weight_filler {
type: "xavier"
std: 0.09
}
bias_filler {
type: "constant"
value: 0.2
}
}
}
layer {
name: "inception_3a/relu_3x3_reduce"
type: "ReLU"
bottom: "inception_3a/3x3_reduce"
top: "inception_3a/3x3_reduce"
}
layer {
name: "inception_3a/3x3"
type: "Convolution"
bottom: "inception_3a/3x3_reduce"
top: "inception_3a/3x3"
param {
lr_mult: 1
decay_mult: 1
}
param {
lr_mult: 2
decay_mult: 0
}
convolution_param {
num_output: 128
pad: 1
kernel_size: 3
weight_filler {
type: "xavier"
std: 0.03
}
bias_filler {
type: "constant"
value: 0.2
}
}
}
layer {
name: "inception_3a/relu_3x3"
type: "ReLU"
bottom: "inception_3a/3x3"
top: "inception_3a/3x3"
}
layer {
name: "inception_3a/5x5_reduce"
type: "Convolution"
bottom: "pool2/3x3_s2"
top: "inception_3a/5x5_reduce"
param {
lr_mult: 1
decay_mult: 1
}
param {
lr_mult: 2
decay_mult: 0
}
convolution_param {
num_output: 16
kernel_size: 1
weight_filler {
type: "xavier"
std: 0.2
}
bias_filler {
type: "constant"
value: 0.2
}
}
}
layer {
name: "inception_3a/relu_5x5_reduce"
type: "ReLU"
bottom: "inception_3a/5x5_reduce"
top: "inception_3a/5x5_reduce"
}
layer {
name: "inception_3a/5x5"
type: "Convolution"
bottom: "inception_3a/5x5_reduce"
top: "inception_3a/5x5"
param {
lr_mult: 1
decay_mult: 1
}
param {
lr_mult: 2
decay_mult: 0
}
convolution_param {
num_output: 32
pad: 2
kernel_size: 5
weight_filler {
type: "xavier"
std: 0.03
}
bias_filler {
type: "constant"
value: 0.2
}
}
}
layer {
name: "inception_3a/relu_5x5"
type: "ReLU"
bottom: "inception_3a/5x5"
top: "inception_3a/5x5"
}
layer {
name: "inception_3a/pool"
type: "Pooling"
bottom: "pool2/3x3_s2"
top: "inception_3a/pool"
pooling_param {
pool: MAX
kernel_size: 3
stride: 1
pad: 1
}
}
layer {
name: "inception_3a/pool_proj"
type: "Convolution"
bottom: "inception_3a/pool"
top: "inception_3a/pool_proj"
param {
lr_mult: 1
decay_mult: 1
}
param {
lr_mult: 2
decay_mult: 0
}
convolution_param {
num_output: 32
kernel_size: 1
weight_filler {
type: "xavier"
std: 0.1
}
bias_filler {
type: "constant"
value: 0.2
}
}
}
layer {
name: "inception_3a/relu_pool_proj"
type: "ReLU"
bottom: "inception_3a/pool_proj"
top: "inception_3a/pool_proj"
}
layer {
name: "inception_3a/output"
type: "Concat"
bottom: "inception_3a/1x1"
bottom: "inception_3a/3x3"
bottom: "inception_3a/5x5"
bottom: "inception_3a/pool_proj"
top: "inception_3a/output"
}
layer {
name: "inception_3b/1x1"
type: "Convolution"
bottom: "inception_3a/output"
top: "inception_3b/1x1"
param {
lr_mult: 1
decay_mult: 1
}
param {
lr_mult: 2
decay_mult: 0
}
convolution_param {
num_output: 128
kernel_size: 1
weight_filler {
type: "xavier"
std: 0.03
}
bias_filler {
type: "constant"
value: 0.2
}
}
}
layer {
name: "inception_3b/relu_1x1"
type: "ReLU"
bottom: "inception_3b/1x1"
top: "inception_3b/1x1"
}
layer {
name: "inception_3b/3x3_reduce"
type: "Convolution"
bottom: "inception_3a/output"
top: "inception_3b/3x3_reduce"
param {
lr_mult: 1
decay_mult: 1
}
param {
lr_mult: 2
decay_mult: 0
}
convolution_param {
num_output: 128
kernel_size: 1
weight_filler {
type: "xavier"
std: 0.09
}
bias_filler {
type: "constant"
value: 0.2
}
}
}
layer {
name: "inception_3b/relu_3x3_reduce"
type: "ReLU"
bottom: "inception_3b/3x3_reduce"
top: "inception_3b/3x3_reduce"
}
layer {
name: "inception_3b/3x3"
type: "Convolution"
bottom: "inception_3b/3x3_reduce"
top: "inception_3b/3x3"
param {
lr_mult: 1
decay_mult: 1
}
param {
lr_mult: 2
decay_mult: 0
}
convolution_param {
num_output: 192
pad: 1
kernel_size: 3
weight_filler {
type: "xavier"
std: 0.03
}
bias_filler {
type: "constant"
value: 0.2
}
}
}
layer {
name: "inception_3b/relu_3x3"
type: "ReLU"
bottom: "inception_3b/3x3"
top: "inception_3b/3x3"
}
layer {
name: "inception_3b/5x5_reduce"
type: "Convolution"
bottom: "inception_3a/output"
top: "inception_3b/5x5_reduce"
param {
lr_mult: 1
decay_mult: 1
}
param {
lr_mult: 2
decay_mult: 0
}
convolution_param {
num_output: 32
kernel_size: 1
weight_filler {
type: "xavier"
std: 0.2
}
bias_filler {
type: "constant"
value: 0.2
}
}
}
layer {
name: "inception_3b/relu_5x5_reduce"
type: "ReLU"
bottom: "inception_3b/5x5_reduce"
top: "inception_3b/5x5_reduce"
}
layer {
name: "inception_3b/5x5"
type: "Convolution"
bottom: "inception_3b/5x5_reduce"
top: "inception_3b/5x5"
param {
lr_mult: 1
decay_mult: 1
}
param {
lr_mult: 2
decay_mult: 0
}
convolution_param {
num_output: 96
pad: 2
kernel_size: 5
weight_filler {
type: "xavier"
std: 0.03
}
bias_filler {
type: "constant"
value: 0.2
}
}
}
layer {
name: "inception_3b/relu_5x5"
type: "ReLU"
bottom: "inception_3b/5x5"
top: "inception_3b/5x5"
}
layer {
name: "inception_3b/pool"
type: "Pooling"
bottom: "inception_3a/output"
top: "inception_3b/pool"
pooling_param {
pool: MAX
kernel_size: 3
stride: 1
pad: 1
}
}
layer {
name: "inception_3b/pool_proj"
type: "Convolution"
bottom: "inception_3b/pool"
top: "inception_3b/pool_proj"
param {
lr_mult: 1
decay_mult: 1
}
param {
lr_mult: 2
decay_mult: 0
}
convolution_param {
num_output: 64
kernel_size: 1
weight_filler {
type: "xavier"
std: 0.1
}
bias_filler {
type: "constant"
value: 0.2
}
}
}
layer {
name: "inception_3b/relu_pool_proj"
type: "ReLU"
bottom: "inception_3b/pool_proj"
top: "inception_3b/pool_proj"
}
layer {
name: "inception_3b/output"
type: "Concat"
bottom: "inception_3b/1x1"
bottom: "inception_3b/3x3"
bottom: "inception_3b/5x5"
bottom: "inception_3b/pool_proj"
top: "inception_3b/output"
}
layer {
name: "pool3/3x3_s2"
type: "Pooling"
bottom: "inception_3b/output"
top: "pool3/3x3_s2"
pooling_param {
pool: MAX
kernel_size: 3
stride: 2
}
}
layer {
name: "inception_4a/1x1"
type: "Convolution"
bottom: "pool3/3x3_s2"
top: "inception_4a/1x1"
param {
lr_mult: 1
decay_mult: 1
}
param {
lr_mult: 2
decay_mult: 0
}
convolution_param {
num_output: 192
kernel_size: 1
weight_filler {
type: "xavier"
std: 0.03
}
bias_filler {
type: "constant"
value: 0.2
}
}
}
layer {
name: "inception_4a/relu_1x1"
type: "ReLU"
bottom: "inception_4a/1x1"
top: "inception_4a/1x1"
}
layer {
name: "inception_4a/3x3_reduce"
type: "Convolution"
bottom: "pool3/3x3_s2"
top: "inception_4a/3x3_reduce"
param {
lr_mult: 1
decay_mult: 1
}
param {
lr_mult: 2
decay_mult: 0
}
convolution_param {
num_output: 96
kernel_size: 1
weight_filler {
type: "xavier"
std: 0.09
}
bias_filler {
type: "constant"
value: 0.2
}
}
}
layer {
name: "inception_4a/relu_3x3_reduce"
type: "ReLU"
bottom: "inception_4a/3x3_reduce"
top: "inception_4a/3x3_reduce"
}
layer {
name: "inception_4a/3x3"
type: "Convolution"
bottom: "inception_4a/3x3_reduce"
top: "inception_4a/3x3"
param {
lr_mult: 1
decay_mult: 1
}
param {
lr_mult: 2
decay_mult: 0
}
convolution_param {
num_output: 208
pad: 1
kernel_size: 3
weight_filler {
type: "xavier"
std: 0.03
}
bias_filler {
type: "constant"
value: 0.2
}
}
}
layer {
name: "inception_4a/relu_3x3"
type: "ReLU"
bottom: "inception_4a/3x3"
top: "inception_4a/3x3"
}
layer {
name: "inception_4a/5x5_reduce"
type: "Convolution"
bottom: "pool3/3x3_s2"
top: "inception_4a/5x5_reduce"
param {
lr_mult: 1
decay_mult: 1
}
param {
lr_mult: 2
decay_mult: 0
}
convolution_param {
num_output: 16
kernel_size: 1
weight_filler {
type: "xavier"
std: 0.2
}
bias_filler {
type: "constant"
value: 0.2
}
}
}
layer {
name: "inception_4a/relu_5x5_reduce"
type: "ReLU"
bottom: "inception_4a/5x5_reduce"
top: "inception_4a/5x5_reduce"
}
layer {
name: "inception_4a/5x5"
type: "Convolution"
bottom: "inception_4a/5x5_reduce"
top: "inception_4a/5x5"
param {
lr_mult: 1
decay_mult: 1
}
param {
lr_mult: 2
decay_mult: 0
}
convolution_param {
num_output: 48
pad: 2
kernel_size: 5
weight_filler {
type: "xavier"
std: 0.03
}
bias_filler {
type: "constant"
value: 0.2
}
}
}
layer {
name: "inception_4a/relu_5x5"
type: "ReLU"
bottom: "inception_4a/5x5"
top: "inception_4a/5x5"
}
layer {
name: "inception_4a/pool"
type: "Pooling"
bottom: "pool3/3x3_s2"
top: "inception_4a/pool"
pooling_param {
pool: MAX
kernel_size: 3
stride: 1
pad: 1
}
}
layer {
name: "inception_4a/pool_proj"
type: "Convolution"
bottom: "inception_4a/pool"
top: "inception_4a/pool_proj"
param {
lr_mult: 1
decay_mult: 1
}
param {
lr_mult: 2
decay_mult: 0
}
convolution_param {
num_output: 64
kernel_size: 1
weight_filler {
type: "xavier"
std: 0.1
}
bias_filler {
type: "constant"
value: 0.2
}
}
}
layer {
name: "inception_4a/relu_pool_proj"
type: "ReLU"
bottom: "inception_4a/pool_proj"
top: "inception_4a/pool_proj"
}
layer {
name: "inception_4a/output"
type: "Concat"
bottom: "inception_4a/1x1"
bottom: "inception_4a/3x3"
bottom: "inception_4a/5x5"
bottom: "inception_4a/pool_proj"
top: "inception_4a/output"
}
layer {
name: "loss1/ave_pool"
type: "Pooling"
bottom: "inception_4a/output"
top: "loss1/ave_pool"
pooling_param {
pool: AVE
kernel_size: 5
stride: 3
}
}
layer {
name: "loss1/conv"
type: "Convolution"
bottom: "loss1/ave_pool"
top: "loss1/conv"
param {
lr_mult: 1
decay_mult: 1
}
param {
lr_mult: 2
decay_mult: 0
}
convolution_param {
num_output: 128
kernel_size: 1
weight_filler {
type: "xavier"
std: 0.08
}
bias_filler {
type: "constant"
value: 0.2
}
}
}
layer {
name: "loss1/relu_conv"
type: "ReLU"
bottom: "loss1/conv"
top: "loss1/conv"
}
layer {
name: "loss1/fc"
type: "InnerProduct"
bottom: "loss1/conv"
top: "loss1/fc"
param {
lr_mult: 1
decay_mult: 1
}
param {
lr_mult: 2
decay_mult: 0
}
inner_product_param {
num_output: 1024
weight_filler {
type: "xavier"
std: 0.02
}
bias_filler {
type: "constant"
value: 0.2
}
}
}
layer {
name: "loss1/relu_fc"
type: "ReLU"
bottom: "loss1/fc"
top: "loss1/fc"
}
layer {
name: "loss1/drop_fc"
type: "Dropout"
bottom: "loss1/fc"
top: "loss1/fc"
dropout_param {
dropout_ratio: 0.7
}
}
layer {
name: "loss1/classifier"
type: "InnerProduct"
bottom: "loss1/fc"
top: "loss1/classifier"
param {
lr_mult: 1
decay_mult: 1
}
param {
lr_mult: 2
decay_mult: 0
}
inner_product_param {
num_output: 196
weight_filler {
type: "xavier"
std: 0.0009765625
}
bias_filler {
type: "constant"
value: 0
}
}
}
layer {
name: "loss1/loss"
type: "SoftmaxWithLoss"
bottom: "loss1/classifier"
bottom: "label"
top: "loss1/loss"
loss_weight: 0.3
}
layer {
name: "loss1/top-1"
type: "Accuracy"
bottom: "loss1/classifier"
bottom: "label"
top: "loss1/accuracy"
include {
phase: TEST
}
}
layer {
name: "loss1/top-5"
type: "Accuracy"
bottom: "loss1/classifier"
bottom: "label"
top: "loss1/accuracy-top5"
include {
phase: TEST
}
accuracy_param {
top_k: 5
}
}
layer {
name: "inception_4b/1x1"
type: "Convolution"
bottom: "inception_4a/output"
top: "inception_4b/1x1"
param {
lr_mult: 1
decay_mult: 1
}
param {
lr_mult: 2
decay_mult: 0
}
convolution_param {
num_output: 160
kernel_size: 1
weight_filler {
type: "xavier"
std: 0.03
}
bias_filler {
type: "constant"
value: 0.2
}
}
}
layer {
name: "inception_4b/relu_1x1"
type: "ReLU"
bottom: "inception_4b/1x1"
top: "inception_4b/1x1"
}
layer {
name: "inception_4b/3x3_reduce"
type: "Convolution"
bottom: "inception_4a/output"
top: "inception_4b/3x3_reduce"
param {
lr_mult: 1
decay_mult: 1
}
param {
lr_mult: 2
decay_mult: 0
}
convolution_param {
num_output: 112
kernel_size: 1
weight_filler {
type: "xavier"
std: 0.09
}
bias_filler {
type: "constant"
value: 0.2
}
}
}
layer {
name: "inception_4b/relu_3x3_reduce"
type: "ReLU"
bottom: "inception_4b/3x3_reduce"
top: "inception_4b/3x3_reduce"
}
layer {
name: "inception_4b/3x3"
type: "Convolution"
bottom: "inception_4b/3x3_reduce"
top: "inception_4b/3x3"
param {
lr_mult: 1
decay_mult: 1
}
param {
lr_mult: 2
decay_mult: 0
}
convolution_param {
num_output: 224
pad: 1
kernel_size: 3
weight_filler {
type: "xavier"
std: 0.03
}
bias_filler {
type: "constant"
value: 0.2
}
}
}
layer {
name: "inception_4b/relu_3x3"
type: "ReLU"
bottom: "inception_4b/3x3"
top: "inception_4b/3x3"
}
layer {
name: "inception_4b/5x5_reduce"
type: "Convolution"
bottom: "inception_4a/output"
top: "inception_4b/5x5_reduce"
param {
lr_mult: 1
decay_mult: 1
}
param {
lr_mult: 2
decay_mult: 0
}
convolution_param {
num_output: 24
kernel_size: 1
weight_filler {
type: "xavier"
std: 0.2
}
bias_filler {
type: "constant"
value: 0.2
}
}
}
layer {
name: "inception_4b/relu_5x5_reduce"
type: "ReLU"
bottom: "inception_4b/5x5_reduce"
top: "inception_4b/5x5_reduce"
}
layer {
name: "inception_4b/5x5"
type: "Convolution"
bottom: "inception_4b/5x5_reduce"
top: "inception_4b/5x5"
param {
lr_mult: 1
decay_mult: 1
}
param {
lr_mult: 2
decay_mult: 0
}
convolution_param {
num_output: 64
pad: 2
kernel_size: 5
weight_filler {
type: "xavier"
std: 0.03
}
bias_filler {
type: "constant"
value: 0.2
}
}
}
layer {
name: "inception_4b/relu_5x5"
type: "ReLU"
bottom: "inception_4b/5x5"
top: "inception_4b/5x5"
}
layer {
name: "inception_4b/pool"
type: "Pooling"
bottom: "inception_4a/output"
top: "inception_4b/pool"
pooling_param {
pool: MAX
kernel_size: 3
stride: 1
pad: 1
}
}
layer {
name: "inception_4b/pool_proj"
type: "Convolution"
bottom: "inception_4b/pool"
top: "inception_4b/pool_proj"
param {
lr_mult: 1
decay_mult: 1
}
param {
lr_mult: 2
decay_mult: 0
}
convolution_param {
num_output: 64
kernel_size: 1
weight_filler {
type: "xavier"
std: 0.1
}
bias_filler {
type: "constant"
value: 0.2
}
}
}
layer {
name: "inception_4b/relu_pool_proj"
type: "ReLU"
bottom: "inception_4b/pool_proj"
top: "inception_4b/pool_proj"
}
layer {
name: "inception_4b/output"
type: "Concat"
bottom: "inception_4b/1x1"
bottom: "inception_4b/3x3"
bottom: "inception_4b/5x5"
bottom: "inception_4b/pool_proj"
top: "inception_4b/output"
}
layer {
name: "inception_4c/1x1"
type: "Convolution"
bottom: "inception_4b/output"
top: "inception_4c/1x1"
param {
lr_mult: 1
decay_mult: 1
}
param {
lr_mult: 2
decay_mult: 0
}
convolution_param {
num_output: 128
kernel_size: 1
weight_filler {
type: "xavier"
std: 0.03
}
bias_filler {
type: "constant"
value: 0.2
}
}
}
layer {
name: "inception_4c/relu_1x1"
type: "ReLU"
bottom: "inception_4c/1x1"
top: "inception_4c/1x1"
}
layer {
name: "inception_4c/3x3_reduce"
type: "Convolution"
bottom: "inception_4b/output"
top: "inception_4c/3x3_reduce"
param {
lr_mult: 1
decay_mult: 1
}
param {
lr_mult: 2
decay_mult: 0
}
convolution_param {
num_output: 128
kernel_size: 1
weight_filler {
type: "xavier"
std: 0.09
}
bias_filler {
type: "constant"
value: 0.2
}
}
}
layer {
name: "inception_4c/relu_3x3_reduce"
type: "ReLU"
bottom: "inception_4c/3x3_reduce"
top: "inception_4c/3x3_reduce"
}
layer {
name: "inception_4c/3x3"
type: "Convolution"
bottom: "inception_4c/3x3_reduce"
top: "inception_4c/3x3"
param {
lr_mult: 1
decay_mult: 1
}
param {
lr_mult: 2
decay_mult: 0
}
convolution_param {
num_output: 256
pad: 1
kernel_size: 3
weight_filler {
type: "xavier"
std: 0.03
}
bias_filler {
type: "constant"
value: 0.2
}
}
}
layer {
name: "inception_4c/relu_3x3"
type: "ReLU"
bottom: "inception_4c/3x3"
top: "inception_4c/3x3"
}
layer {
name: "inception_4c/5x5_reduce"
type: "Convolution"
bottom: "inception_4b/output"
top: "inception_4c/5x5_reduce"
param {
lr_mult: 1
decay_mult: 1
}
param {
lr_mult: 2
decay_mult: 0
}
convolution_param {
num_output: 24
kernel_size: 1
weight_filler {
type: "xavier"
std: 0.2
}
bias_filler {
type: "constant"
value: 0.2
}
}
}
layer {
name: "inception_4c/relu_5x5_reduce"
type: "ReLU"
bottom: "inception_4c/5x5_reduce"
top: "inception_4c/5x5_reduce"
}
layer {
name: "inception_4c/5x5"
type: "Convolution"
bottom: "inception_4c/5x5_reduce"
top: "inception_4c/5x5"
param {
lr_mult: 1
decay_mult: 1
}
param {
lr_mult: 2
decay_mult: 0
}
convolution_param {
num_output: 64
pad: 2
kernel_size: 5
weight_filler {
type: "xavier"
std: 0.03
}
bias_filler {
type: "constant"
value: 0.2
}
}
}
layer {
name: "inception_4c/relu_5x5"
type: "ReLU"
bottom: "inception_4c/5x5"
top: "inception_4c/5x5"
}
layer {
name: "inception_4c/pool"
type: "Pooling"
bottom: "inception_4b/output"
top: "inception_4c/pool"
pooling_param {
pool: MAX
kernel_size: 3
stride: 1
pad: 1
}
}
layer {
name: "inception_4c/pool_proj"
type: "Convolution"
bottom: "inception_4c/pool"
top: "inception_4c/pool_proj"
param {
lr_mult: 1
decay_mult: 1
}
param {
lr_mult: 2
decay_mult: 0
}
convolution_param {
num_output: 64
kernel_size: 1
weight_filler {
type: "xavier"
std: 0.1
}
bias_filler {
type: "constant"
value: 0.2
}
}
}
layer {
name: "inception_4c/relu_pool_proj"
type: "ReLU"
bottom: "inception_4c/pool_proj"
top: "inception_4c/pool_proj"
}
layer {
name: "inception_4c/output"
type: "Concat"
bottom: "inception_4c/1x1"
bottom: "inception_4c/3x3"
bottom: "inception_4c/5x5"
bottom: "inception_4c/pool_proj"
top: "inception_4c/output"
}
layer {
name: "inception_4d/1x1"
type: "Convolution"
bottom: "inception_4c/output"
top: "inception_4d/1x1"
param {
lr_mult: 1
decay_mult: 1
}
param {
lr_mult: 2
decay_mult: 0
}
convolution_param {
num_output: 112
kernel_size: 1
weight_filler {
type: "xavier"
std: 0.03
}
bias_filler {
type: "constant"
value: 0.2
}
}
}
layer {
name: "inception_4d/relu_1x1"
…
I0507 20:08:24.348073 24220 net.cpp:122] Setting up inception_4c/relu_5x5
I0507 20:08:24.348088 24220 net.cpp:129] Top shape: 16 64 14 14 (200704)
I0507 20:08:24.348094 24220 net.cpp:137] Memory required for data: 700688012
I0507 20:08:24.348100 24220 layer_factory.hpp:77] Creating layer inception_4c/pool
I0507 20:08:24.348111 24220 net.cpp:84] Creating Layer inception_4c/pool
I0507 20:08:24.348117 24220 net.cpp:406] inception_4c/pool <- inception_4b/output_inception_4b/output_0_split_3
I0507 20:08:24.348129 24220 net.cpp:380] inception_4c/pool -> inception_4c/pool
I0507 20:08:24.348173 24220 net.cpp:122] Setting up inception_4c/pool
I0507 20:08:24.348181 24220 net.cpp:129] Top shape: 16 512 14 14 (1605632)
I0507 20:08:24.348184 24220 net.cpp:137] Memory required for data: 707110540
I0507 20:08:24.348188 24220 layer_factory.hpp:77] Creating layer inception_4c/pool_proj
I0507 20:08:24.348203 24220 net.cpp:84] Creating Layer inception_4c/pool_proj
I0507 20:08:24.348207 24220 net.cpp:406] inception_4c/pool_proj <- inception_4c/pool
I0507 20:08:24.348214 24220 net.cpp:380] inception_4c/pool_proj -> inception_4c/pool_proj
I0507 20:08:24.350116 24220 net.cpp:122] Setting up inception_4c/pool_proj
I0507 20:08:24.350127 24220 net.cpp:129] Top shape: 16 64 14 14 (200704)
I0507 20:08:24.350131 24220 net.cpp:137] Memory required for data: 707913356
I0507 20:08:24.350138 24220 layer_factory.hpp:77] Creating layer inception_4c/relu_pool_proj
I0507 20:08:24.350144 24220 net.cpp:84] Creating Layer inception_4c/relu_pool_proj
I0507 20:08:24.350149 24220 net.cpp:406] inception_4c/relu_pool_proj <- inception_4c/pool_proj
I0507 20:08:24.350157 24220 net.cpp:367] inception_4c/relu_pool_proj -> inception_4c/pool_proj (in-place)
I0507 20:08:24.350814 24220 net.cpp:122] Setting up inception_4c/relu_pool_proj
I0507 20:08:24.350826 24220 net.cpp:129] Top shape: 16 64 14 14 (200704)
I0507 20:08:24.350831 24220 net.cpp:137] Memory required for data: 708716172
I0507 20:08:24.350834 24220 layer_factory.hpp:77] Creating layer inception_4c/output
I0507 20:08:24.350841 24220 net.cpp:84] Creating Layer inception_4c/output
I0507 20:08:24.350847 24220 net.cpp:406] inception_4c/output <- inception_4c/1x1
I0507 20:08:24.350878 24220 net.cpp:406] inception_4c/output <- inception_4c/3x3
I0507 20:08:24.350885 24220 net.cpp:406] inception_4c/output <- inception_4c/5x5
I0507 20:08:24.350891 24220 net.cpp:406] inception_4c/output <- inception_4c/pool_proj
I0507 20:08:24.350904 24220 net.cpp:380] inception_4c/output -> inception_4c/output
I0507 20:08:24.350939 24220 net.cpp:122] Setting up inception_4c/output
I0507 20:08:24.350945 24220 net.cpp:129] Top shape: 16 512 14 14 (1605632)
I0507 20:08:24.350950 24220 net.cpp:137] Memory required for data: 715138700
I0507 20:08:24.350952 24220 layer_factory.hpp:77] Creating layer inception_4c/output_inception_4c/output_0_split
I0507 20:08:24.350962 24220 net.cpp:84] Creating Layer inception_4c/output_inception_4c/output_0_split
I0507 20:08:24.350967 24220 net.cpp:406] inception_4c/output_inception_4c/output_0_split <- inception_4c/output
I0507 20:08:24.350975 24220 net.cpp:380] inception_4c/output_inception_4c/output_0_split -> inception_4c/output_inception_4c/output_0_split_0
I0507 20:08:24.350981 24220 net.cpp:380] inception_4c/output_inception_4c/output_0_split -> inception_4c/output_inception_4c/output_0_split_1
I0507 20:08:24.350987 24220 net.cpp:380] inception_4c/output_inception_4c/output_0_split -> inception_4c/output_inception_4c/output_0_split_2
I0507 20:08:24.350993 24220 net.cpp:380] inception_4c/output_inception_4c/output_0_split -> inception_4c/output_inception_4c/output_0_split_3
I0507 20:08:24.351056 24220 net.cpp:122] Setting up inception_4c/output_inception_4c/output_0_split
I0507 20:08:24.351068 24220 net.cpp:129] Top shape: 16 512 14 14 (1605632)
I0507 20:08:24.351073 24220 net.cpp:129] Top shape: 16 512 14 14 (1605632)
I0507 20:08:24.351080 24220 net.cpp:129] Top shape: 16 512 14 14 (1605632)
I0507 20:08:24.351086 24220 net.cpp:129] Top shape: 16 512 14 14 (1605632)
I0507 20:08:24.351092 24220 net.cpp:137] Memory required for data: 740828812
I0507 20:08:24.351097 24220 layer_factory.hpp:77] Creating layer inception_4d/1x1
I0507 20:08:24.351109 24220 net.cpp:84] Creating Layer inception_4d/1x1
I0507 20:08:24.351112 24220 net.cpp:406] inception_4d/1x1 <- inception_4c/output_inception_4c/output_0_split_0
I0507 20:08:24.351119 24220 net.cpp:380] inception_4d/1x1 -> inception_4d/1x1
I0507 20:08:24.353112 24220 net.cpp:122] Setting up inception_4d/1x1
I0507 20:08:24.353122 24220 net.cpp:129] Top shape: 16 112 14 14 (351232)
I0507 20:08:24.353127 24220 net.cpp:137] Memory required for data: 742233740
I0507 20:08:24.353133 24220 layer_factory.hpp:77] Creating layer inception_4d/relu_1x1
I0507 20:08:24.353142 24220 net.cpp:84] Creating Layer inception_4d/relu_1x1
I0507 20:08:24.353147 24220 net.cpp:406] inception_4d/relu_1x1 <- inception_4d/1x1
I0507 20:08:24.353152 24220 net.cpp:367] inception_4d/relu_1x1 -> inception_4d/1x1 (in-place)
I0507 20:08:24.353691 24220 net.cpp:122] Setting up inception_4d/relu_1x1
I0507 20:08:24.353701 24220 net.cpp:129] Top shape: 16 112 14 14 (351232)
I0507 20:08:24.353705 24220 net.cpp:137] Memory required for data: 743638668
I0507 20:08:24.353710 24220 layer_factory.hpp:77] Creating layer inception_4d/3x3_reduce
I0507 20:08:24.353720 24220 net.cpp:84] Creating Layer inception_4d/3x3_reduce
I0507 20:08:24.353725 24220 net.cpp:406] inception_4d/3x3_reduce <- inception_4c/output_inception_4c/output_0_split_1
I0507 20:08:24.353734 24220 net.cpp:380] inception_4d/3x3_reduce -> inception_4d/3x3_reduce
I0507 20:08:24.360334 24220 net.cpp:122] Setting up inception_4d/3x3_reduce
I0507 20:08:24.360352 24220 net.cpp:129] Top shape: 16 144 14 14 (451584)
I0507 20:08:24.360355 24220 net.cpp:137] Memory required for data: 745445004
I0507 20:08:24.360366 24220 layer_factory.hpp:77] Creating layer inception_4d/relu_3x3_reduce
I0507 20:08:24.360378 24220 net.cpp:84] Creating Layer inception_4d/relu_3x3_reduce
I0507 20:08:24.360386 24220 net.cpp:406] inception_4d/relu_3x3_reduce <- inception_4d/3x3_reduce
I0507 20:08:24.360395 24220 net.cpp:367] inception_4d/relu_3x3_reduce -> inception_4d/3x3_reduce (in-place)
I0507 20:08:24.360807 24220 net.cpp:122] Setting up inception_4d/relu_3x3_reduce
I0507 20:08:24.360833 24220 net.cpp:129] Top shape: 16 144 14 14 (451584)
I0507 20:08:24.360838 24220 net.cpp:137] Memory required for data: 747251340
I0507 20:08:24.360842 24220 layer_factory.hpp:77] Creating layer inception_4d/3x3
I0507 20:08:24.360853 24220 net.cpp:84] Creating Layer inception_4d/3x3
I0507 20:08:24.360858 24220 net.cpp:406] inception_4d/3x3 <- inception_4d/3x3_reduce
I0507 20:08:24.360867 24220 net.cpp:380] inception_4d/3x3 -> inception_4d/3x3
I0507 20:08:24.367310 24220 net.cpp:122] Setting up inception_4d/3x3
I0507 20:08:24.367327 24220 net.cpp:129] Top shape: 16 288 14 14 (903168)
I0507 20:08:24.367333 24220 net.cpp:137] Memory required for data: 750864012
I0507 20:08:24.367345 24220 layer_factory.hpp:77] Creating layer inception_4d/relu_3x3
I0507 20:08:24.367357 24220 net.cpp:84] Creating Layer inception_4d/relu_3x3
I0507 20:08:24.367362 24220 net.cpp:406] inception_4d/relu_3x3 <- inception_4d/3x3
I0507 20:08:24.367369 24220 net.cpp:367] inception_4d/relu_3x3 -> inception_4d/3x3 (in-place)
I0507 20:08:24.367781 24220 net.cpp:122] Setting up inception_4d/relu_3x3
I0507 20:08:24.367792 24220 net.cpp:129] Top shape: 16 288 14 14 (903168)
I0507 20:08:24.367797 24220 net.cpp:137] Memory required for data: 754476684
I0507 20:08:24.367801 24220 layer_factory.hpp:77] Creating layer inception_4d/5x5_reduce
I0507 20:08:24.367812 24220 net.cpp:84] Creating Layer inception_4d/5x5_reduce
I0507 20:08:24.367817 24220 net.cpp:406] inception_4d/5x5_reduce <- inception_4c/output_inception_4c/output_0_split_2
I0507 20:08:24.367825 24220 net.cpp:380] inception_4d/5x5_reduce -> inception_4d/5x5_reduce
I0507 20:08:24.371644 24220 net.cpp:122] Setting up inception_4d/5x5_reduce
I0507 20:08:24.371659 24220 net.cpp:129] Top shape: 16 32 14 14 (100352)
I0507 20:08:24.371664 24220 net.cpp:137] Memory required for data: 754878092
I0507 20:08:24.371670 24220 layer_factory.hpp:77] Creating layer inception_4d/relu_5x5_reduce
I0507 20:08:24.371678 24220 net.cpp:84] Creating Layer inception_4d/relu_5x5_reduce
I0507 20:08:24.371683 24220 net.cpp:406] inception_4d/relu_5x5_reduce <- inception_4d/5x5_reduce
I0507 20:08:24.371691 24220 net.cpp:367] inception_4d/relu_5x5_reduce -> inception_4d/5x5_reduce (in-place)
I0507 20:08:24.372234 24220 net.cpp:122] Setting up inception_4d/relu_5x5_reduce
I0507 20:08:24.372243 24220 net.cpp:129] Top shape: 16 32 14 14 (100352)
I0507 20:08:24.372247 24220 net.cpp:137] Memory required for data: 755279500
I0507 20:08:24.372252 24220 layer_factory.hpp:77] Creating layer inception_4d/5x5
I0507 20:08:24.372263 24220 net.cpp:84] Creating Layer inception_4d/5x5
I0507 20:08:24.372268 24220 net.cpp:406] inception_4d/5x5 <- inception_4d/5x5_reduce
I0507 20:08:24.372277 24220 net.cpp:380] inception_4d/5x5 -> inception_4d/5x5
I0507 20:08:24.374173 24220 net.cpp:122] Setting up inception_4d/5x5
I0507 20:08:24.374186 24220 net.cpp:129] Top shape: 16 64 14 14 (200704)
I0507 20:08:24.374189 24220 net.cpp:137] Memory required for data: 756082316
I0507 20:08:24.374197 24220 layer_factory.hpp:77] Creating layer inception_4d/relu_5x5
I0507 20:08:24.374203 24220 net.cpp:84] Creating Layer inception_4d/relu_5x5
I0507 20:08:24.374207 24220 net.cpp:406] inception_4d/relu_5x5 <- inception_4d/5x5
I0507 20:08:24.374213 24220 net.cpp:367] inception_4d/relu_5x5 -> inception_4d/5x5 (in-place)
I0507 20:08:24.374763 24220 net.cpp:122] Setting up inception_4d/relu_5x5
I0507 20:08:24.374774 24220 net.cpp:129] Top shape: 16 64 14 14 (200704)
I0507 20:08:24.374778 24220 net.cpp:137] Memory required for data: 756885132
I0507 20:08:24.374783 24220 layer_factory.hpp:77] Creating layer inception_4d/pool
I0507 20:08:24.374792 24220 net.cpp:84] Creating Layer inception_4d/pool
I0507 20:08:24.374797 24220 net.cpp:406] inception_4d/pool <- inception_4c/output_inception_4c/output_0_split_3
I0507 20:08:24.374804 24220 net.cpp:380] inception_4d/pool -> inception_4d/pool
I0507 20:08:24.374850 24220 net.cpp:122] Setting up inception_4d/pool
I0507 20:08:24.374856 24220 net.cpp:129] Top shape: 16 512 14 14 (1605632)
I0507 20:08:24.374876 24220 net.cpp:137] Memory required for data: 763307660
I0507 20:08:24.374881 24220 layer_factory.hpp:77] Creating layer inception_4d/pool_proj
I0507 20:08:24.374891 24220 net.cpp:84] Creating Layer inception_4d/pool_proj
I0507 20:08:24.374894 24220 net.cpp:406] inception_4d/pool_proj <- inception_4d/pool
I0507 20:08:24.374902 24220 net.cpp:380] inception_4d/pool_proj -> inception_4d/pool_proj
I0507 20:08:24.378453 24220 net.cpp:122] Setting up inception_4d/pool_proj
I0507 20:08:24.378464 24220 net.cpp:129] Top shape: 16 64 14 14 (200704)
I0507 20:08:24.378468 24220 net.cpp:137] Memory required for data: 764110476
I0507 20:08:24.378475 24220 layer_factory.hpp:77] Creating layer inception_4d/relu_pool_proj
I0507 20:08:24.378504 24220 net.cpp:84] Creating Layer inception_4d/relu_pool_proj
I0507 20:08:24.378509 24220 net.cpp:406] inception_4d/relu_pool_proj <- inception_4d/pool_proj
I0507 20:08:24.378515 24220 net.cpp:367] inception_4d/relu_pool_proj -> inception_4d/pool_proj (in-place)
I0507 20:08:24.381211 24220 net.cpp:122] Setting up inception_4d/relu_pool_proj
I0507 20:08:24.381220 24220 net.cpp:129] Top shape: 16 64 14 14 (200704)
I0507 20:08:24.381225 24220 net.cpp:137] Memory required for data: 764913292
I0507 20:08:24.381229 24220 layer_factory.hpp:77] Creating layer inception_4d/output
I0507 20:08:24.381237 24220 net.cpp:84] Creating Layer inception_4d/output
I0507 20:08:24.381242 24220 net.cpp:406] inception_4d/output <- inception_4d/1x1
I0507 20:08:24.381248 24220 net.cpp:406] inception_4d/output <- inception_4d/3x3
I0507 20:08:24.381253 24220 net.cpp:406] inception_4d/output <- inception_4d/5x5
I0507 20:08:24.381256 24220 net.cpp:406] inception_4d/output <- inception_4d/pool_proj
I0507 20:08:24.381261 24220 net.cpp:380] inception_4d/output -> inception_4d/output
I0507 20:08:24.381292 24220 net.cpp:122] Setting up inception_4d/output
I0507 20:08:24.381297 24220 net.cpp:129] Top shape: 16 528 14 14 (1655808)
I0507 20:08:24.381301 24220 net.cpp:137] Memory required for data: 771536524
I0507 20:08:24.381305 24220 layer_factory.hpp:77] Creating layer inception_4d/output_inception_4d/output_0_split
I0507 20:08:24.381312 24220 net.cpp:84] Creating Layer inception_4d/output_inception_4d/output_0_split
I0507 20:08:24.381316 24220 net.cpp:406] inception_4d/output_inception_4d/output_0_split <- inception_4d/output
I0507 20:08:24.381322 24220 net.cpp:380] inception_4d/output_inception_4d/output_0_split -> inception_4d/output_inception_4d/output_0_split_0
I0507 20:08:24.381330 24220 net.cpp:380] inception_4d/output_inception_4d/output_0_split -> inception_4d/output_inception_4d/output_0_split_1
I0507 20:08:24.381337 24220 net.cpp:380] inception_4d/output_inception_4d/output_0_split -> inception_4d/output_inception_4d/output_0_split_2
I0507 20:08:24.381343 24220 net.cpp:380] inception_4d/output_inception_4d/output_0_split -> inception_4d/output_inception_4d/output_0_split_3
I0507 20:08:24.381350 24220 net.cpp:380] inception_4d/output_inception_4d/output_0_split -> inception_4d/output_inception_4d/output_0_split_4
I0507 20:08:24.381413 24220 net.cpp:122] Setting up inception_4d/output_inception_4d/output_0_split
I0507 20:08:24.381419 24220 net.cpp:129] Top shape: 16 528 14 14 (1655808)
I0507 20:08:24.381423 24220 net.cpp:129] Top shape: 16 528 14 14 (1655808)
I0507 20:08:24.381428 24220 net.cpp:129] Top shape: 16 528 14 14 (1655808)
I0507 20:08:24.381431 24220 net.cpp:129] Top shape: 16 528 14 14 (1655808)
I0507 20:08:24.381435 24220 net.cpp:129] Top shape: 16 528 14 14 (1655808)
I0507 20:08:24.381438 24220 net.cpp:137] Memory required for data: 804652684
I0507 20:08:24.381443 24220 layer_factory.hpp:77] Creating layer loss2/ave_pool
I0507 20:08:24.381450 24220 net.cpp:84] Creating Layer loss2/ave_pool
I0507 20:08:24.381454 24220 net.cpp:406] loss2/ave_pool <- inception_4d/output_inception_4d/output_0_split_0
I0507 20:08:24.381460 24220 net.cpp:380] loss2/ave_pool -> loss2/ave_pool
I0507 20:08:24.383880 24220 net.cpp:122] Setting up loss2/ave_pool
I0507 20:08:24.383893 24220 net.cpp:129] Top shape: 16 528 4 4 (135168)
I0507 20:08:24.383911 24220 net.cpp:137] Memory required for data: 805193356
I0507 20:08:24.383916 24220 layer_factory.hpp:77] Creating layer loss2/conv
I0507 20:08:24.383929 24220 net.cpp:84] Creating Layer loss2/conv
I0507 20:08:24.383934 24220 net.cpp:406] loss2/conv <- loss2/ave_pool
I0507 20:08:24.383946 24220 net.cpp:380] loss2/conv -> loss2/conv
I0507 20:08:24.386309 24220 net.cpp:122] Setting up loss2/conv
I0507 20:08:24.386322 24220 net.cpp:129] Top shape: 16 128 4 4 (32768)
I0507 20:08:24.386327 24220 net.cpp:137] Memory required for data: 805324428
I0507 20:08:24.386334 24220 layer_factory.hpp:77] Creating layer loss2/relu_conv
I0507 20:08:24.386343 24220 net.cpp:84] Creating Layer loss2/relu_conv
I0507 20:08:24.386348 24220 net.cpp:406] loss2/relu_conv <- loss2/conv
I0507 20:08:24.386354 24220 net.cpp:367] loss2/relu_conv -> loss2/conv (in-place)
I0507 20:08:24.386920 24220 net.cpp:122] Setting up loss2/relu_conv
I0507 20:08:24.386930 24220 net.cpp:129] Top shape: 16 128 4 4 (32768)
I0507 20:08:24.386935 24220 net.cpp:137] Memory required for data: 805455500
I0507 20:08:24.386940 24220 layer_factory.hpp:77] Creating layer loss2/fc
I0507 20:08:24.386950 24220 net.cpp:84] Creating Layer loss2/fc
I0507 20:08:24.386955 24220 net.cpp:406] loss2/fc <- loss2/conv
I0507 20:08:24.386962 24220 net.cpp:380] loss2/fc -> loss2/fc
I0507 20:08:24.399868 24220 net.cpp:122] Setting up loss2/fc
I0507 20:08:24.399884 24220 net.cpp:129] Top shape: 16 1024 (16384)
I0507 20:08:24.399888 24220 net.cpp:137] Memory required for data: 805521036
I0507 20:08:24.399899 24220 layer_factory.hpp:77] Creating layer loss2/relu_fc
I0507 20:08:24.399907 24220 net.cpp:84] Creating Layer loss2/relu_fc
I0507 20:08:24.399914 24220 net.cpp:406] loss2/relu_fc <- loss2/fc
I0507 20:08:24.399920 24220 net.cpp:367] loss2/relu_fc -> loss2/fc (in-place)
I0507 20:08:24.401235 24220 net.cpp:122] Setting up loss2/relu_fc
I0507 20:08:24.401245 24220 net.cpp:129] Top shape: 16 1024 (16384)
I0507 20:08:24.401249 24220 net.cpp:137] Memory required for data: 805586572
I0507 20:08:24.401253 24220 layer_factory.hpp:77] Creating layer loss2/drop_fc
I0507 20:08:24.401262 24220 net.cpp:84] Creating Layer loss2/drop_fc
I0507 20:08:24.401268 24220 net.cpp:406] loss2/drop_fc <- loss2/fc
I0507 20:08:24.401273 24220 net.cpp:367] loss2/drop_fc -> loss2/fc (in-place)
I0507 20:08:24.401300 24220 net.cpp:122] Setting up loss2/drop_fc
I0507 20:08:24.401305 24220 net.cpp:129] Top shape: 16 1024 (16384)
I0507 20:08:24.401309 24220 net.cpp:137] Memory required for data: 805652108
I0507 20:08:24.401312 24220 layer_factory.hpp:77] Creating layer loss2/classifier
I0507 20:08:24.401319 24220 net.cpp:84] Creating Layer loss2/classifier
I0507 20:08:24.401324 24220 net.cpp:406] loss2/classifier <- loss2/fc
I0507 20:08:24.401330 24220 net.cpp:380] loss2/classifier -> loss2/classifier
I0507 20:08:24.403100 24220 net.cpp:122] Setting up loss2/classifier
I0507 20:08:24.403110 24220 net.cpp:129] Top shape: 16 196 (3136)
I0507 20:08:24.403113 24220 net.cpp:137] Memory required for data: 805664652
I0507 20:08:24.403120 24220 layer_factory.hpp:77] Creating layer loss2/classifier_loss2/classifier_0_split
I0507 20:08:24.403128 24220 net.cpp:84] Creating Layer loss2/classifier_loss2/classifier_0_split
I0507 20:08:24.403133 24220 net.cpp:406] loss2/classifier_loss2/classifier_0_split <- loss2/classifier
I0507 20:08:24.403139 24220 net.cpp:380] loss2/classifier_loss2/classifier_0_split -> loss2/classifier_loss2/classifier_0_split_0
I0507 20:08:24.403148 24220 net.cpp:380] loss2/classifier_loss2/classifier_0_split -> loss2/classifier_loss2/classifier_0_split_1
I0507 20:08:24.403154 24220 net.cpp:380] loss2/classifier_loss2/classifier_0_split -> loss2/classifier_loss2/classifier_0_split_2
I0507 20:08:24.403198 24220 net.cpp:122] Setting up loss2/classifier_loss2/classifier_0_split
I0507 20:08:24.403203 24220 net.cpp:129] Top shape: 16 196 (3136)
I0507 20:08:24.403208 24220 net.cpp:129] Top shape: 16 196 (3136)
I0507 20:08:24.403210 24220 net.cpp:129] Top shape: 16 196 (3136)
I0507 20:08:24.403231 24220 net.cpp:137] Memory required for data: 805702284
I0507 20:08:24.403236 24220 layer_factory.hpp:77] Creating layer loss2/loss
I0507 20:08:24.403244 24220 net.cpp:84] Creating Layer loss2/loss
I0507 20:08:24.403249 24220 net.cpp:406] loss2/loss <- loss2/classifier_loss2/classifier_0_split_0
I0507 20:08:24.403254 24220 net.cpp:406] loss2/loss <- label_val-data_1_split_3
…
I0507 20:08:24.403812 24220 net.cpp:122] Setting up loss2/top-5
I0507 20:08:24.403816 24220 net.cpp:129] Top shape: (1)
I0507 20:08:24.403820 24220 net.cpp:137] Memory required for data: 805702296
I0507 20:08:24.403822 24220 layer_factory.hpp:77] Creating layer inception_4e/1x1
I0507 20:08:24.403833 24220 net.cpp:84] Creating Layer inception_4e/1x1
I0507 20:08:24.403837 24220 net.cpp:406] inception_4e/1x1 <- inception_4d/output_inception_4d/output_0_split_1
I0507 20:08:24.403844 24220 net.cpp:380] inception_4e/1x1 -> inception_4e/1x1
I0507 20:08:24.407235 24220 net.cpp:122] Setting up inception_4e/1x1
I0507 20:08:24.407246 24220 net.cpp:129] Top shape: 16 256 14 14 (802816)
I0507 20:08:24.407250 24220 net.cpp:137] Memory required for data: 808913560
I0507 20:08:24.407258 24220 layer_factory.hpp:77] Creating layer inception_4e/relu_1x1
I0507 20:08:24.407265 24220 net.cpp:84] Creating Layer inception_4e/relu_1x1
I0507 20:08:24.407269 24220 net.cpp:406] inception_4e/relu_1x1 <- inception_4e/1x1
I0507 20:08:24.407277 24220 net.cpp:367] inception_4e/relu_1x1 -> inception_4e/1x1 (in-place)
I0507 20:08:24.409611 24220 net.cpp:122] Setting up inception_4e/relu_1x1
I0507 20:08:24.409622 24220 net.cpp:129] Top shape: 16 256 14 14 (802816)
I0507 20:08:24.409627 24220 net.cpp:137] Memory required for data: 812124824
I0507 20:08:24.409631 24220 layer_factory.hpp:77] Creating layer inception_4e/3x3_reduce
I0507 20:08:24.409678 24220 net.cpp:84] Creating Layer inception_4e/3x3_reduce
I0507 20:08:24.409683 24220 net.cpp:406] inception_4e/3x3_reduce <- inception_4d/output_inception_4d/output_0_split_2
I0507 20:08:24.409690 24220 net.cpp:380] inception_4e/3x3_reduce -> inception_4e/3x3_reduce
I0507 20:08:24.411751 24220 net.cpp:122] Setting up inception_4e/3x3_reduce
I0507 20:08:24.411761 24220 net.cpp:129] Top shape: 16 160 14 14 (501760)
I0507 20:08:24.411765 24220 net.cpp:137] Memory required for data: 814131864
I0507 20:08:24.411772 24220 layer_factory.hpp:77] Creating layer inception_4e/relu_3x3_reduce
I0507 20:08:24.411780 24220 net.cpp:84] Creating Layer inception_4e/relu_3x3_reduce
I0507 20:08:24.411784 24220 net.cpp:406] inception_4e/relu_3x3_reduce <- inception_4e/3x3_reduce
I0507 20:08:24.411790 24220 net.cpp:367] inception_4e/relu_3x3_reduce -> inception_4e/3x3_reduce (in-place)
I0507 20:08:24.412338 24220 net.cpp:122] Setting up inception_4e/relu_3x3_reduce
I0507 20:08:24.412348 24220 net.cpp:129] Top shape: 16 160 14 14 (501760)
I0507 20:08:24.412351 24220 net.cpp:137] Memory required for data: 816138904
I0507 20:08:24.412355 24220 layer_factory.hpp:77] Creating layer inception_4e/3x3
I0507 20:08:24.412367 24220 net.cpp:84] Creating Layer inception_4e/3x3
I0507 20:08:24.412371 24220 net.cpp:406] inception_4e/3x3 <- inception_4e/3x3_reduce
I0507 20:08:24.412377 24220 net.cpp:380] inception_4e/3x3 -> inception_4e/3x3
I0507 20:08:24.417026 24220 net.cpp:122] Setting up inception_4e/3x3
I0507 20:08:24.417037 24220 net.cpp:129] Top shape: 16 320 14 14 (1003520)
I0507 20:08:24.417042 24220 net.cpp:137] Memory required for data: 820152984
I0507 20:08:24.417048 24220 layer_factory.hpp:77] Creating layer inception_4e/relu_3x3
I0507 20:08:24.417054 24220 net.cpp:84] Creating Layer inception_4e/relu_3x3
I0507 20:08:24.417058 24220 net.cpp:406] inception_4e/relu_3x3 <- inception_4e/3x3
I0507 20:08:24.417066 24220 net.cpp:367] inception_4e/relu_3x3 -> inception_4e/3x3 (in-place)
I0507 20:08:24.417598 24220 net.cpp:122] Setting up inception_4e/relu_3x3
I0507 20:08:24.417606 24220 net.cpp:129] Top shape: 16 320 14 14 (1003520)
I0507 20:08:24.417610 24220 net.cpp:137] Memory required for data: 824167064
I0507 20:08:24.417615 24220 layer_factory.hpp:77] Creating layer inception_4e/5x5_reduce
I0507 20:08:24.417625 24220 net.cpp:84] Creating Layer inception_4e/5x5_reduce
I0507 20:08:24.417629 24220 net.cpp:406] inception_4e/5x5_reduce <- inception_4d/output_inception_4d/output_0_split_3
I0507 20:08:24.417637 24220 net.cpp:380] inception_4e/5x5_reduce -> inception_4e/5x5_reduce
I0507 20:08:24.421221 24220 net.cpp:122] Setting up inception_4e/5x5_reduce
I0507 20:08:24.421236 24220 net.cpp:129] Top shape: 16 32 14 14 (100352)
I0507 20:08:24.421239 24220 net.cpp:137] Memory required for data: 824568472
I0507 20:08:24.421247 24220 layer_factory.hpp:77] Creating layer inception_4e/relu_5x5_reduce
I0507 20:08:24.421254 24220 net.cpp:84] Creating Layer inception_4e/relu_5x5_reduce
I0507 20:08:24.421259 24220 net.cpp:406] inception_4e/relu_5x5_reduce <- inception_4e/5x5_reduce
I0507 20:08:24.421267 24220 net.cpp:367] inception_4e/relu_5x5_reduce -> inception_4e/5x5_reduce (in-place)
I0507 20:08:24.421819 24220 net.cpp:122] Setting up inception_4e/relu_5x5_reduce
I0507 20:08:24.421831 24220 net.cpp:129] Top shape: 16 32 14 14 (100352)
I0507 20:08:24.421834 24220 net.cpp:137] Memory required for data: 824969880
I0507 20:08:24.421838 24220 layer_factory.hpp:77] Creating layer inception_4e/5x5
I0507 20:08:24.421852 24220 net.cpp:84] Creating Layer inception_4e/5x5
I0507 20:08:24.421856 24220 net.cpp:406] inception_4e/5x5 <- inception_4e/5x5_reduce
I0507 20:08:24.421864 24220 net.cpp:380] inception_4e/5x5 -> inception_4e/5x5
I0507 20:08:24.427000 24220 net.cpp:122] Setting up inception_4e/5x5
I0507 20:08:24.427012 24220 net.cpp:129] Top shape: 16 128 14 14 (401408)
I0507 20:08:24.427017 24220 net.cpp:137] Memory required for data: 826575512
I0507 20:08:24.427026 24220 layer_factory.hpp:77] Creating layer inception_4e/relu_5x5
I0507 20:08:24.427032 24220 net.cpp:84] Creating Layer inception_4e/relu_5x5
I0507 20:08:24.427038 24220 net.cpp:406] inception_4e/relu_5x5 <- inception_4e/5x5
I0507 20:08:24.427043 24220 net.cpp:367] inception_4e/relu_5x5 -> inception_4e/5x5 (in-place)
I0507 20:08:24.427414 24220 net.cpp:122] Setting up inception_4e/relu_5x5
I0507 20:08:24.427423 24220 net.cpp:129] Top shape: 16 128 14 14 (401408)
I0507 20:08:24.427428 24220 net.cpp:137] Memory required for data: 828181144
I0507 20:08:24.427431 24220 layer_factory.hpp:77] Creating layer inception_4e/pool
I0507 20:08:24.427439 24220 net.cpp:84] Creating Layer inception_4e/pool
I0507 20:08:24.427444 24220 net.cpp:406] inception_4e/pool <- inception_4d/output_inception_4d/output_0_split_4
I0507 20:08:24.427451 24220 net.cpp:380] inception_4e/pool -> inception_4e/pool
I0507 20:08:24.427493 24220 net.cpp:122] Setting up inception_4e/pool
I0507 20:08:24.427517 24220 net.cpp:129] Top shape: 16 528 14 14 (1655808)
I0507 20:08:24.427521 24220 net.cpp:137] Memory required for data: 834804376
I0507 20:08:24.427525 24220 layer_factory.hpp:77] Creating layer inception_4e/pool_proj
I0507 20:08:24.427536 24220 net.cpp:84] Creating Layer inception_4e/pool_proj
I0507 20:08:24.427541 24220 net.cpp:406] inception_4e/pool_proj <- inception_4e/pool
I0507 20:08:24.427547 24220 net.cpp:380] inception_4e/pool_proj -> inception_4e/pool_proj
I0507 20:08:24.429675 24220 net.cpp:122] Setting up inception_4e/pool_proj
I0507 20:08:24.429687 24220 net.cpp:129] Top shape: 16 128 14 14 (401408)
I0507 20:08:24.429692 24220 net.cpp:137] Memory required for data: 836410008
I0507 20:08:24.429699 24220 layer_factory.hpp:77] Creating layer inception_4e/relu_pool_proj
I0507 20:08:24.429708 24220 net.cpp:84] Creating Layer inception_4e/relu_pool_proj
I0507 20:08:24.429711 24220 net.cpp:406] inception_4e/relu_pool_proj <- inception_4e/pool_proj
I0507 20:08:24.429718 24220 net.cpp:367] inception_4e/relu_pool_proj -> inception_4e/pool_proj (in-place)
I0507 20:08:24.432030 24220 net.cpp:122] Setting up inception_4e/relu_pool_proj
I0507 20:08:24.432042 24220 net.cpp:129] Top shape: 16 128 14 14 (401408)
I0507 20:08:24.432046 24220 net.cpp:137] Memory required for data: 838015640
I0507 20:08:24.432052 24220 layer_factory.hpp:77] Creating layer inception_4e/output
I0507 20:08:24.432061 24220 net.cpp:84] Creating Layer inception_4e/output
I0507 20:08:24.432066 24220 net.cpp:406] inception_4e/output <- inception_4e/1x1
I0507 20:08:24.432072 24220 net.cpp:406] inception_4e/output <- inception_4e/3x3
I0507 20:08:24.432077 24220 net.cpp:406] inception_4e/output <- inception_4e/5x5
I0507 20:08:24.432081 24220 net.cpp:406] inception_4e/output <- inception_4e/pool_proj
I0507 20:08:24.432088 24220 net.cpp:380] inception_4e/output -> inception_4e/output
I0507 20:08:24.432118 24220 net.cpp:122] Setting up inception_4e/output
I0507 20:08:24.432124 24220 net.cpp:129] Top shape: 16 832 14 14 (2609152)
I0507 20:08:24.432128 24220 net.cpp:137] Memory required for data: 848452248
I0507 20:08:24.432132 24220 layer_factory.hpp:77] Creating layer pool4/3x3_s2
I0507 20:08:24.432142 24220 net.cpp:84] Creating Layer pool4/3x3_s2
I0507 20:08:24.432145 24220 net.cpp:406] pool4/3x3_s2 <- inception_4e/output
I0507 20:08:24.432152 24220 net.cpp:380] pool4/3x3_s2 -> pool4/3x3_s2
I0507 20:08:24.432188 24220 net.cpp:122] Setting up pool4/3x3_s2
I0507 20:08:24.432193 24220 net.cpp:129] Top shape: 16 832 7 7 (652288)
I0507 20:08:24.432196 24220 net.cpp:137] Memory required for data: 851061400
I0507 20:08:24.432201 24220 layer_factory.hpp:77] Creating layer pool4/3x3_s2_pool4/3x3_s2_0_split
I0507 20:08:24.432209 24220 net.cpp:84] Creating Layer pool4/3x3_s2_pool4/3x3_s2_0_split
I0507 20:08:24.432214 24220 net.cpp:406] pool4/3x3_s2_pool4/3x3_s2_0_split <- pool4/3x3_s2
I0507 20:08:24.432220 24220 net.cpp:380] pool4/3x3_s2_pool4/3x3_s2_0_split -> pool4/3x3_s2_pool4/3x3_s2_0_split_0
I0507 20:08:24.432227 24220 net.cpp:380] pool4/3x3_s2_pool4/3x3_s2_0_split -> pool4/3x3_s2_pool4/3x3_s2_0_split_1
I0507 20:08:24.432233 24220 net.cpp:380] pool4/3x3_s2_pool4/3x3_s2_0_split -> pool4/3x3_s2_pool4/3x3_s2_0_split_2
I0507 20:08:24.432265 24220 net.cpp:380] pool4/3x3_s2_pool4/3x3_s2_0_split -> pool4/3x3_s2_pool4/3x3_s2_0_split_3
I0507 20:08:24.432313 24220 net.cpp:122] Setting up pool4/3x3_s2_pool4/3x3_s2_0_split
I0507 20:08:24.432319 24220 net.cpp:129] Top shape: 16 832 7 7 (652288)
I0507 20:08:24.432324 24220 net.cpp:129] Top shape: 16 832 7 7 (652288)
I0507 20:08:24.432329 24220 net.cpp:129] Top shape: 16 832 7 7 (652288)
I0507 20:08:24.432334 24220 net.cpp:129] Top shape: 16 832 7 7 (652288)
I0507 20:08:24.432337 24220 net.cpp:137] Memory required for data: 861498008
I0507 20:08:24.432340 24220 layer_factory.hpp:77] Creating layer inception_5a/1x1
I0507 20:08:24.432351 24220 net.cpp:84] Creating Layer inception_5a/1x1
I0507 20:08:24.432356 24220 net.cpp:406] inception_5a/1x1 <- pool4/3x3_s2_pool4/3x3_s2_0_split_0
I0507 20:08:24.432363 24220 net.cpp:380] inception_5a/1x1 -> inception_5a/1x1
I0507 20:08:24.435756 24220 net.cpp:122] Setting up inception_5a/1x1
I0507 20:08:24.435770 24220 net.cpp:129] Top shape: 16 256 7 7 (200704)
I0507 20:08:24.435773 24220 net.cpp:137] Memory required for data: 862300824
I0507 20:08:24.435781 24220 layer_factory.hpp:77] Creating layer inception_5a/relu_1x1
I0507 20:08:24.435787 24220 net.cpp:84] Creating Layer inception_5a/relu_1x1
I0507 20:08:24.435792 24220 net.cpp:406] inception_5a/relu_1x1 <- inception_5a/1x1
I0507 20:08:24.435797 24220 net.cpp:367] inception_5a/relu_1x1 -> inception_5a/1x1 (in-place)
I0507 20:08:24.436341 24220 net.cpp:122] Setting up inception_5a/relu_1x1
I0507 20:08:24.436350 24220 net.cpp:129] Top shape: 16 256 7 7 (200704)
I0507 20:08:24.436354 24220 net.cpp:137] Memory required for data: 863103640
I0507 20:08:24.436358 24220 layer_factory.hpp:77] Creating layer inception_5a/3x3_reduce
I0507 20:08:24.436369 24220 net.cpp:84] Creating Layer inception_5a/3x3_reduce
I0507 20:08:24.436374 24220 net.cpp:406] inception_5a/3x3_reduce <- pool4/3x3_s2_pool4/3x3_s2_0_split_1
I0507 20:08:24.436381 24220 net.cpp:380] inception_5a/3x3_reduce -> inception_5a/3x3_reduce
I0507 20:08:24.438796 24220 net.cpp:122] Setting up inception_5a/3x3_reduce
I0507 20:08:24.438807 24220 net.cpp:129] Top shape: 16 160 7 7 (125440)
I0507 20:08:24.438812 24220 net.cpp:137] Memory required for data: 863605400
I0507 20:08:24.438818 24220 layer_factory.hpp:77] Creating layer inception_5a/relu_3x3_reduce
I0507 20:08:24.438825 24220 net.cpp:84] Creating Layer inception_5a/relu_3x3_reduce
I0507 20:08:24.438829 24220 net.cpp:406] inception_5a/relu_3x3_reduce <- inception_5a/3x3_reduce
I0507 20:08:24.438838 24220 net.cpp:367] inception_5a/relu_3x3_reduce -> inception_5a/3x3_reduce (in-place)
I0507 20:08:24.439386 24220 net.cpp:122] Setting up inception_5a/relu_3x3_reduce
I0507 20:08:24.439395 24220 net.cpp:129] Top shape: 16 160 7 7 (125440)
I0507 20:08:24.439399 24220 net.cpp:137] Memory required for data: 864107160
I0507 20:08:24.439404 24220 layer_factory.hpp:77] Creating layer inception_5a/3x3
I0507 20:08:24.439414 24220 net.cpp:84] Creating Layer inception_5a/3x3
I0507 20:08:24.439419 24220 net.cpp:406] inception_5a/3x3 <- inception_5a/3x3_reduce
I0507 20:08:24.439426 24220 net.cpp:380] inception_5a/3x3 -> inception_5a/3x3
I0507 20:08:24.448570 24220 net.cpp:122] Setting up inception_5a/3x3
I0507 20:08:24.448587 24220 net.cpp:129] Top shape: 16 320 7 7 (250880)
I0507 20:08:24.448591 24220 net.cpp:137] Memory required for data: 865110680
I0507 20:08:24.448601 24220 layer_factory.hpp:77] Creating layer inception_5a/relu_3x3
I0507 20:08:24.448609 24220 net.cpp:84] Creating Layer inception_5a/relu_3x3
I0507 20:08:24.448616 24220 net.cpp:406] inception_5a/relu_3x3 <- inception_5a/3x3
I0507 20:08:24.448623 24220 net.cpp:367] inception_5a/relu_3x3 -> inception_5a/3x3 (in-place)
I0507 20:08:24.449157 24220 net.cpp:122] Setting up inception_5a/relu_3x3
I0507 20:08:24.449167 24220 net.cpp:129] Top shape: 16 320 7 7 (250880)
I0507 20:08:24.449172 24220 net.cpp:137] Memory required for data: 866114200
I0507 20:08:24.449175 24220 layer_factory.hpp:77] Creating layer inception_5a/5x5_reduce
I0507 20:08:24.449188 24220 net.cpp:84] Creating Layer inception_5a/5x5_reduce
I0507 20:08:24.449193 24220 net.cpp:406] inception_5a/5x5_reduce <- pool4/3x3_s2_pool4/3x3_s2_0_split_2
I0507 20:08:24.449201 24220 net.cpp:380] inception_5a/5x5_reduce -> inception_5a/5x5_reduce
I0507 20:08:24.451174 24220 net.cpp:122] Setting up inception_5a/5x5_reduce
I0507 20:08:24.451184 24220 net.cpp:129] Top shape: 16 32 7 7 (25088)
I0507 20:08:24.451189 24220 net.cpp:137] Memory required for data: 866214552
I0507 20:08:24.451196 24220 layer_factory.hpp:77] Creating layer inception_5a/relu_5x5_reduce
I0507 20:08:24.451205 24220 net.cpp:84] Creating Layer inception_5a/relu_5x5_reduce
I0507 20:08:24.451210 24220 net.cpp:406] inception_5a/relu_5x5_reduce <- inception_5a/5x5_reduce
I0507 20:08:24.451215 24220 net.cpp:367] inception_5a/relu_5x5_reduce -> inception_5a/5x5_reduce (in-place)
I0507 20:08:24.451601 24220 net.cpp:122] Setting up inception_5a/relu_5x5_reduce
I0507 20:08:24.451611 24220 net.cpp:129] Top shape: 16 32 7 7 (25088)
I0507 20:08:24.451614 24220 net.cpp:137] Memory required for data: 866314904
I0507 20:08:24.451618 24220 layer_factory.hpp:77] Creating layer inception_5a/5x5
I0507 20:08:24.451628 24220 net.cpp:84] Creating Layer inception_5a/5x5
I0507 20:08:24.451633 24220 net.cpp:406] inception_5a/5x5 <- inception_5a/5x5_reduce
I0507 20:08:24.451642 24220 net.cpp:380] inception_5a/5x5 -> inception_5a/5x5
I0507 20:08:24.453910 24220 net.cpp:122] Setting up inception_5a/5x5
I0507 20:08:24.453922 24220 net.cpp:129] Top shape: 16 128 7 7 (100352)
I0507 20:08:24.453925 24220 net.cpp:137] Memory required for data: 866716312
I0507 20:08:24.453933 24220 layer_factory.hpp:77] Creating layer inception_5a/relu_5x5
I0507 20:08:24.453940 24220 net.cpp:84] Creating Layer inception_5a/relu_5x5
I0507 20:08:24.453944 24220 net.cpp:406] inception_5a/relu_5x5 <- inception_5a/5x5
I0507 20:08:24.453950 24220 net.cpp:367] inception_5a/relu_5x5 -> inception_5a/5x5 (in-place)
I0507 20:08:24.456257 24220 net.cpp:122] Setting up inception_5a/relu_5x5
I0507 20:08:24.456269 24220 net.cpp:129] Top shape: 16 128 7 7 (100352)
I0507 20:08:24.456274 24220 net.cpp:137] Memory required for data: 867117720
I0507 20:08:24.456279 24220 layer_factory.hpp:77] Creating layer inception_5a/pool
I0507 20:08:24.456287 24220 net.cpp:84] Creating Layer inception_5a/pool
I0507 20:08:24.456293 24220 net.cpp:406] inception_5a/pool <- pool4/3x3_s2_pool4/3x3_s2_0_split_3
I0507 20:08:24.456300 24220 net.cpp:380] inception_5a/pool -> inception_5a/pool
I0507 20:08:24.456346 24220 net.cpp:122] Setting up inception_5a/pool
I0507 20:08:24.456353 24220 net.cpp:129] Top shape: 16 832 7 7 (652288)
I0507 20:08:24.456357 24220 net.cpp:137] Memory required for data: 869726872
I0507 20:08:24.456360 24220 layer_factory.hpp:77] Creating layer inception_5a/pool_proj
I0507 20:08:24.456374 24220 net.cpp:84] Creating Layer inception_5a/pool_proj
I0507 20:08:24.456378 24220 net.cpp:406] inception_5a/pool_proj <- inception_5a/pool
I0507 20:08:24.456385 24220 net.cpp:380] inception_5a/pool_proj -> inception_5a/pool_proj
I0507 20:08:24.459273 24220 net.cpp:122] Setting up inception_5a/pool_proj
I0507 20:08:24.459283 24220 net.cpp:129] Top shape: 16 128 7 7 (100352)
I0507 20:08:24.459287 24220 net.cpp:137] Memory required for data: 870128280
I0507 20:08:24.459295 24220 layer_factory.hpp:77] Creating layer inception_5a/relu_pool_proj
I0507 20:08:24.459301 24220 net.cpp:84] Creating Layer inception_5a/relu_pool_proj
I0507 20:08:24.459306 24220 net.cpp:406] inception_5a/relu_pool_proj <- inception_5a/pool_proj
I0507 20:08:24.459313 24220 net.cpp:367] inception_5a/relu_pool_proj -> inception_5a/pool_proj (in-place)
I0507 20:08:24.459853 24220 net.cpp:122] Setting up inception_5a/relu_pool_proj
I0507 20:08:24.459864 24220 net.cpp:129] Top shape: 16 128 7 7 (100352)
I0507 20:08:24.459868 24220 net.cpp:137] Memory required for data: 870529688
I0507 20:08:24.459872 24220 layer_factory.hpp:77] Creating layer inception_5a/output
I0507 20:08:24.459879 24220 net.cpp:84] Creating Layer inception_5a/output
I0507 20:08:24.459884 24220 net.cpp:406] inception_5a/output <- inception_5a/1x1
I0507 20:08:24.459889 24220 net.cpp:406] inception_5a/output <- inception_5a/3x3
I0507 20:08:24.459894 24220 net.cpp:406] inception_5a/output <- inception_5a/5x5
I0507 20:08:24.459898 24220 net.cpp:406] inception_5a/output <- inception_5a/pool_proj
I0507 20:08:24.459905 24220 net.cpp:380] inception_5a/output -> inception_5a/output
I0507 20:08:24.459933 24220 net.cpp:122] Setting up inception_5a/output
I0507 20:08:24.459939 24220 net.cpp:129] Top shape: 16 832 7 7 (652288)
I0507 20:08:24.459944 24220 net.cpp:137] Memory required for data: 873138840
I0507 20:08:24.459946 24220 layer_factory.hpp:77] Creating layer inception_5a/output_inception_5a/output_0_split
I0507 20:08:24.459955 24220 net.cpp:84] Creating Layer inception_5a/output_inception_5a/output_0_split
I0507 20:08:24.459959 24220 net.cpp:406] inception_5a/output_inception_5a/output_0_split <- inception_5a/output
I0507 20:08:24.459982 24220 net.cpp:380] inception_5a/output_inception_5a/output_0_split -> inception_5a/output_inception_5a/output_0_split_0
I0507 20:08:24.459990 24220 net.cpp:380] inception_5a/output_inception_5a/output_0_split -> inception_5a/output_inception_5a/output_0_split_1
I0507 20:08:24.459995 24220 net.cpp:380] inception_5a/output_inception_5a/output_0_split -> inception_5a/output_inception_5a/output_0_split_2
I0507 20:08:24.460001 24220 net.cpp:380] inception_5a/output_inception_5a/output_0_split -> inception_5a/output_inception_5a/output_0_split_3
I0507 20:08:24.460054 24220 net.cpp:122] Setting up inception_5a/output_inception_5a/output_0_split
I0507 20:08:24.460060 24220 net.cpp:129] Top shape: 16 832 7 7 (652288)
I0507 20:08:24.460064 24220 net.cpp:129] Top shape: 16 832 7 7 (652288)
I0507 20:08:24.460067 24220 net.cpp:129] Top shape: 16 832 7 7 (652288)
I0507 20:08:24.460072 24220 net.cpp:129] Top shape: 16 832 7 7 (652288)
I0507 20:08:24.460075 24220 net.cpp:137] Memory required for data: 883575448
I0507 20:08:24.460078 24220 layer_factory.hpp:77] Creating layer inception_5b/1x1
I0507 20:08:24.460088 24220 net.cpp:84] Creating Layer inception_5b/1x1
I0507 20:08:24.460093 24220 net.cpp:406] inception_5b/1x1 <- inception_5a/output_inception_5a/output_0_split_0
I0507 20:08:24.460098 24220 net.cpp:380] inception_5b/1x1 -> inception_5b/1x1
I0507 20:08:24.474870 24220 net.cpp:122] Setting up inception_5b/1x1
I0507 20:08:24.474887 24220 net.cpp:129] Top shape: 16 384 7 7 (301056)
I0507 20:08:24.474890 24220 net.cpp:137] Memory required for data: 884779672
I0507 20:08:24.474900 24220 layer_factory.hpp:77] Creating layer inception_5b/relu_1x1
I0507 20:08:24.474908 24220 net.cpp:84] Creating Layer inception_5b/relu_1x1
I0507 20:08:24.474913 24220 net.cpp:406] inception_5b/relu_1x1 <- inception_5b/1x1
I0507 20:08:24.474920 24220 net.cpp:367] inception_5b/relu_1x1 -> inception_5b/1x1 (in-place)
I0507 20:08:24.475471 24220 net.cpp:122] Setting up inception_5b/relu_1x1
I0507 20:08:24.475482 24220 net.cpp:129] Top shape: 16 384 7 7 (301056)
I0507 20:08:24.475486 24220 net.cpp:137] Memory required for data: 885983896
I0507 20:08:24.475489 24220 layer_factory.hpp:77] Creating layer inception_5b/3x3_reduce
I0507 20:08:24.475500 24220 net.cpp:84] Creating Layer inception_5b/3x3_reduce
I0507 20:08:24.475505 24220 net.cpp:406] inception_5b/3x3_reduce <- inception_5a/output_inception_5a/output_0_split_1
I0507 20:08:24.475513 24220 net.cpp:380] inception_5b/3x3_reduce -> inception_5b/3x3_reduce
I0507 20:08:24.482336 24220 net.cpp:122] Setting up inception_5b/3x3_reduce
I0507 20:08:24.482354 24220 net.cpp:129] Top shape: 16 192 7 7 (150528)
I0507 20:08:24.482357 24220 net.cpp:137] Memory required for data: 886586008
I0507 20:08:24.482367 24220 layer_factory.hpp:77] Creating layer inception_5b/relu_3x3_reduce
I0507 20:08:24.482374 24220 net.cpp:84] Creating Layer inception_5b/relu_3x3_reduce
I0507 20:08:24.482379 24220 net.cpp:406] inception_5b/relu_3x3_reduce <- inception_5b/3x3_reduce
I0507 20:08:24.482386 24220 net.cpp:367] inception_5b/relu_3x3_reduce -> inception_5b/3x3_reduce (in-place)
I0507 20:08:24.482945 24220 net.cpp:122] Setting up inception_5b/relu_3x3_reduce
I0507 20:08:24.482957 24220 net.cpp:129] Top shape: 16 192 7 7 (150528)
I0507 20:08:24.482960 24220 net.cpp:137] Memory required for data: 887188120
I0507 20:08:24.482964 24220 layer_factory.hpp:77] Creating layer inception_5b/3x3
I0507 20:08:24.482976 24220 net.cpp:84] Creating Layer inception_5b/3x3
I0507 20:08:24.482980 24220 net.cpp:406] inception_5b/3x3 <- inception_5b/3x3_reduce
I0507 20:08:24.482986 24220 net.cpp:380] inception_5b/3x3 -> inception_5b/3x3
I0507 20:08:24.489785 24220 net.cpp:122] Setting up inception_5b/3x3
I0507 20:08:24.489801 24220 net.cpp:129] Top shape: 16 384 7 7 (301056)
I0507 20:08:24.489804 24220 net.cpp:137] Memory required for data: 888392344
I0507 20:08:24.489812 24220 layer_factory.hpp:77] Creating layer inception_5b/relu_3x3
I0507 20:08:24.489820 24220 net.cpp:84] Creating Layer inception_5b/relu_3x3
I0507 20:08:24.489842 24220 net.cpp:406] inception_5b/relu_3x3 <- inception_5b/3x3
I0507 20:08:24.489848 24220 net.cpp:367] inception_5b/relu_3x3 -> inception_5b/3x3 (in-place)
I0507 20:08:24.490216 24220 net.cpp:122] Setting up inception_5b/relu_3x3
I0507 20:08:24.490224 24220 net.cpp:129] Top shape: 16 384 7 7 (301056)
I0507 20:08:24.490228 24220 net.cpp:137] Memory required for data: 889596568
I0507 20:08:24.490232 24220 layer_factory.hpp:77] Creating layer inception_5b/5x5_reduce
I0507 20:08:24.490243 24220 net.cpp:84] Creating Layer inception_5b/5x5_reduce
I0507 20:08:24.490248 24220 net.cpp:406] inception_5b/5x5_reduce <- inception_5a/output_inception_5a/output_0_split_2
I0507 20:08:24.490257 24220 net.cpp:380] inception_5b/5x5_reduce -> inception_5b/5x5_reduce
I0507 20:08:24.496492 24220 net.cpp:122] Setting up inception_5b/5x5_reduce
I0507 20:08:24.496505 24220 net.cpp:129] Top shape: 16 48 7 7 (37632)
I0507 20:08:24.496507 24220 net.cpp:137] Memory required for data: 889747096
I0507 20:08:24.496515 24220 layer_factory.hpp:77] Creating layer inception_5b/relu_5x5_reduce
I0507 20:08:24.496521 24220 net.cpp:84] Creating Layer inception_5b/relu_5x5_reduce
I0507 20:08:24.496526 24220 net.cpp:406] inception_5b/relu_5x5_reduce <- inception_5b/5x5_reduce
I0507 20:08:24.496531 24220 net.cpp:367] inception_5b/relu_5x5_reduce -> inception_5b/5x5_reduce (in-place)
I0507 20:08:24.496901 24220 net.cpp:122] Setting up inception_5b/relu_5x5_reduce
I0507 20:08:24.496912 24220 net.cpp:129] Top shape: 16 48 7 7 (37632)
I0507 20:08:24.496915 24220 net.cpp:137] Memory required for data: 889897624
I0507 20:08:24.496919 24220 layer_factory.hpp:77] Creating layer inception_5b/5x5
I0507 20:08:24.496928 24220 net.cpp:84] Creating Layer inception_5b/5x5
I0507 20:08:24.496932 24220 net.cpp:406] inception_5b/5x5 <- inception_5b/5x5_reduce
I0507 20:08:24.496940 24220 net.cpp:380] inception_5b/5x5 -> inception_5b/5x5
I0507 20:08:24.503641 24220 net.cpp:122] Setting up inception_5b/5x5
I0507 20:08:24.503660 24220 net.cpp:129] Top shape: 16 128 7 7 (100352)
I0507 20:08:24.503664 24220 net.cpp:137] Memory required for data: 890299032
I0507 20:08:24.503674 24220 layer_factory.hpp:77] Creating layer inception_5b/relu_5x5
I0507 20:08:24.503681 24220 net.cpp:84] Creating Layer inception_5b/relu_5x5
I0507 20:08:24.503687 24220 net.cpp:406] inception_5b/relu_5x5 <- inception_5b/5x5
I0507 20:08:24.503695 24220 net.cpp:367] inception_5b/relu_5x5 -> inception_5b/5x5 (in-place)
I0507 20:08:24.504267 24220 net.cpp:122] Setting up inception_5b/relu_5x5
I0507 20:08:24.504281 24220 net.cpp:129] Top shape: 16 128 7 7 (100352)
I0507 20:08:24.504287 24220 net.cpp:137] Memory required for data: 890700440
I0507 20:08:24.504292 24220 layer_factory.hpp:77] Creating layer inception_5b/pool
I0507 20:08:24.504302 24220 net.cpp:84] Creating Layer inception_5b/pool
I0507 20:08:24.504307 24220 net.cpp:406] inception_5b/pool <- inception_5a/output_inception_5a/output_0_split_3
I0507 20:08:24.504318 24220 net.cpp:380] inception_5b/pool -> inception_5b/pool
I0507 20:08:24.504374 24220 net.cpp:122] Setting up inception_5b/pool
I0507 20:08:24.504384 24220 net.cpp:129] Top shape: 16 832 7 7 (652288)
I0507 20:08:24.504388 24220 net.cpp:137] Memory required for data: 893309592
I0507 20:08:24.504393 24220 layer_factory.hpp:77] Creating layer inception_5b/pool_proj
I0507 20:08:24.504408 24220 net.cpp:84] Creating Layer inception_5b/pool_proj
I0507 20:08:24.504415 24220 net.cpp:406] inception_5b/pool_proj <- inception_5b/pool
I0507 20:08:24.504422 24220 net.cpp:380] inception_5b/pool_proj -> inception_5b/pool_proj
I0507 20:08:24.507186 24220 net.cpp:122] Setting up inception_5b/pool_proj
I0507 20:08:24.507196 24220 net.cpp:129] Top shape: 16 128 7 7 (100352)
I0507 20:08:24.507200 24220 net.cpp:137] Memory required for data: 893711000
I0507 20:08:24.507206 24220 layer_factory.hpp:77] Creating layer inception_5b/relu_pool_proj
I0507 20:08:24.507213 24220 net.cpp:84] Creating Layer inception_5b/relu_pool_proj
I0507 20:08:24.507217 24220 net.cpp:406] inception_5b/relu_pool_proj <- inception_5b/pool_proj
I0507 20:08:24.507242 24220 net.cpp:367] inception_5b/relu_pool_proj -> inception_5b/pool_proj (in-place)
I0507 20:08:24.507777 24220 net.cpp:122] Setting up inception_5b/relu_pool_proj
I0507 20:08:24.507788 24220 net.cpp:129] Top shape: 16 128 7 7 (100352)
I0507 20:08:24.507791 24220 net.cpp:137] Memory required for data: 894112408
I0507 20:08:24.507795 24220 layer_factory.hpp:77] Creating layer inception_5b/output
I0507 20:08:24.507802 24220 net.cpp:84] Creating Layer inception_5b/output
I0507 20:08:24.507805 24220 net.cpp:406] inception_5b/output <- inception_5b/1x1
I0507 20:08:24.507810 24220 net.cpp:406] inception_5b/output <- inception_5b/3x3
I0507 20:08:24.507814 24220 net.cpp:406] inception_5b/output <- inception_5b/5x5
I0507 20:08:24.507818 24220 net.cpp:406] inception_5b/output <- inception_5b/pool_proj
I0507 20:08:24.507825 24220 net.cpp:380] inception_5b/output -> inception_5b/output
I0507 20:08:24.507853 24220 net.cpp:122] Setting up inception_5b/output
I0507 20:08:24.507858 24220 net.cpp:129] Top shape: 16 1024 7 7 (802816)
I0507 20:08:24.507861 24220 net.cpp:137] Memory required for data: 897323672
I0507 20:08:24.507864 24220 layer_factory.hpp:77] Creating layer pool5/7x7_s1
I0507 20:08:24.507872 24220 net.cpp:84] Creating Layer pool5/7x7_s1
I0507 20:08:24.507875 24220 net.cpp:406] pool5/7x7_s1 <- inception_5b/output
I0507 20:08:24.507881 24220 net.cpp:380] pool5/7x7_s1 -> pool5/7x7_s1
I0507 20:08:24.508424 24220 net.cpp:122] Setting up pool5/7x7_s1
I0507 20:08:24.508433 24220 net.cpp:129] Top shape: 16 1024 1 1 (16384)
I0507 20:08:24.508436 24220 net.cpp:137] Memory required for data: 897389208
I0507 20:08:24.508440 24220 layer_factory.hpp:77] Creating layer pool5/drop_7x7_s1
I0507 20:08:24.508447 24220 net.cpp:84] Creating Layer pool5/drop_7x7_s1
I0507 20:08:24.508450 24220 net.cpp:406] pool5/drop_7x7_s1 <- pool5/7x7_s1
I0507 20:08:24.508457 24220 net.cpp:367] pool5/drop_7x7_s1 -> pool5/7x7_s1 (in-place)
I0507 20:08:24.508479 24220 net.cpp:122] Setting up pool5/drop_7x7_s1
I0507 20:08:24.508484 24220 net.cpp:129] Top shape: 16 1024 1 1 (16384)
I0507 20:08:24.508487 24220 net.cpp:137] Memory required for data: 897454744
I0507 20:08:24.508491 24220 layer_factory.hpp:77] Creating layer loss3/classifier
I0507 20:08:24.508502 24220 net.cpp:84] Creating Layer loss3/classifier
I0507 20:08:24.508504 24220 net.cpp:406] loss3/classifier <- pool5/7x7_s1
I0507 20:08:24.508512 24220 net.cpp:380] loss3/classifier -> loss3/classifier
I0507 20:08:24.510257 24220 net.cpp:122] Setting up loss3/classifier
I0507 20:08:24.510267 24220 net.cpp:129] Top shape: 16 196 (3136)
I0507 20:08:24.510269 24220 net.cpp:137] Memory required for data: 897467288
I0507 20:08:24.510275 24220 layer_factory.hpp:77] Creating layer loss3/classifier_loss3/classifier_0_split
I0507 20:08:24.510282 24220 net.cpp:84] Creating Layer loss3/classifier_loss3/classifier_0_split
I0507 20:08:24.510287 24220 net.cpp:406] loss3/classifier_loss3/classifier_0_split <- loss3/classifier
I0507 20:08:24.510293 24220 net.cpp:380] loss3/classifier_loss3/classifier_0_split -> loss3/classifier_loss3/classifier_0_split_0
I0507 20:08:24.510301 24220 net.cpp:380] loss3/classifier_loss3/classifier_0_split -> loss3/classifier_loss3/classifier_0_split_1
I0507 20:08:24.510308 24220 net.cpp:380] loss3/classifier_loss3/classifier_0_split -> loss3/classifier_loss3/classifier_0_split_2
I0507 20:08:24.510352 24220 net.cpp:122] Setting up loss3/classifier_loss3/classifier_0_split
I0507 20:08:24.510357 24220 net.cpp:129] Top shape: 16 196 (3136)
I0507 20:08:24.510360 24220 net.cpp:129] Top shape: 16 196 (3136)
I0507 20:08:24.510365 24220 net.cpp:129] Top shape: 16 196 (3136)
I0507 20:08:24.510367 24220 net.cpp:137] Memory required for data: 897504920
I0507 20:08:24.510370 24220 layer_factory.hpp:77] Creating layer loss3/loss
I0507 20:08:24.510376 24220 net.cpp:84] Creating Layer loss3/loss
I0507 20:08:24.510380 24220 net.cpp:406] loss3/loss <- loss3/classifier_loss3/classifier_0_split_0
I0507 20:08:24.510385 24220 net.cpp:406] loss3/loss <- label_val-data_1_split_6
…
