…
I0507 21:21:46.629143 22664 net.cpp:294] The NetState phase (0) differed from the phase (1) specified by a rule in layer loss3/top-5
I0507 21:21:46.630008 22664 net.cpp:51] Initializing net from parameters:
state {
phase: TRAIN
level: 0
stage: ""
}
layer {
name: "train-data"
type: "Data"
top: "data"
top: "label"
include {
phase: TRAIN
}
transform_param {
mirror: true
crop_size: 224
mean_file: "/mnt/bigdisk/MANDIG4/digits/jobs/20200507-113634-e696/mean.binaryproto"
}
data_param {
source: "/mnt/bigdisk/MANDIG4/digits/jobs/20200507-113634-e696/train_db"
batch_size: 32
backend: LMDB
}
}
layer {
name: "conv1/7x7_s2"
type: "Convolution"
bottom: "data"
top: "conv1/7x7_s2"
param {
lr_mult: 1
decay_mult: 1
}
param {
lr_mult: 2
decay_mult: 0
}
convolution_param {
num_output: 64
pad: 3
kernel_size: 7
stride: 2
weight_filler {
type: "xavier"
std: 0.1
}
bias_filler {
type: "constant"
value: 0.2
}
}
}
layer {
name: "conv1/relu_7x7"
type: "ReLU"
bottom: "conv1/7x7_s2"
top: "conv1/7x7_s2"
}
layer {
name: "pool1/3x3_s2"
type: "Pooling"
bottom: "conv1/7x7_s2"
top: "pool1/3x3_s2"
pooling_param {
pool: MAX
kernel_size: 3
stride: 2
}
}
layer {
name: "pool1/norm1"
type: "LRN"
bottom: "pool1/3x3_s2"
top: "pool1/norm1"
lrn_param {
local_size: 5
alpha: 0.0001
beta: 0.75
}
}
layer {
name: "conv2/3x3_reduce"
type: "Convolution"
bottom: "pool1/norm1"
top: "conv2/3x3_reduce"
param {
lr_mult: 1
decay_mult: 1
}
param {
lr_mult: 2
decay_mult: 0
}
convolution_param {
num_output: 64
kernel_size: 1
weight_filler {
type: "xavier"
std: 0.1
}
bias_filler {
type: "constant"
value: 0.2
}
}
}
layer {
name: "conv2/relu_3x3_reduce"
type: "ReLU"
bottom: "conv2/3x3_reduce"
top: "conv2/3x3_reduce"
}
layer {
name: "conv2/3x3"
type: "Convolution"
bottom: "conv2/3x3_reduce"
top: "conv2/3x3"
param {
lr_mult: 1
decay_mult: 1
}
param {
lr_mult: 2
decay_mult: 0
}
convolution_param {
num_output: 192
pad: 1
kernel_size: 3
weight_filler {
type: "xavier"
std: 0.03
}
bias_filler {
type: "constant"
value: 0.2
}
}
}
layer {
name: "conv2/relu_3x3"
type: "ReLU"
bottom: "conv2/3x3"
top: "conv2/3x3"
}
layer {
name: "conv2/norm2"
type: "LRN"
bottom: "conv2/3x3"
top: "conv2/norm2"
lrn_param {
local_size: 5
alpha: 0.0001
beta: 0.75
}
}
layer {
name: "pool2/3x3_s2"
type: "Pooling"
bottom: "conv2/norm2"
top: "pool2/3x3_s2"
pooling_param {
pool: MAX
kernel_size: 3
stride: 2
}
}
layer {
name: "inception_3a/1x1"
type: "Convolution"
bottom: "pool2/3x3_s2"
top: "inception_3a/1x1"
param {
lr_mult: 1
decay_mult: 1
}
param {
lr_mult: 2
decay_mult: 0
}
convolution_param {
num_output: 64
kernel_size: 1
weight_filler {
type: "xavier"
std: 0.03
}
bias_filler {
type: "constant"
value: 0.2
}
}
}
layer {
name: "inception_3a/relu_1x1"
type: "ReLU"
bottom: "inception_3a/1x1"
top: "inception_3a/1x1"
}
layer {
name: "inception_3a/3x3_reduce"
type: "Convolution"
bottom: "pool2/3x3_s2"
top: "inception_3a/3x3_reduce"
param {
lr_mult: 1
decay_mult: 1
}
param {
lr_mult: 2
decay_mult: 0
}
convolution_param {
num_output: 96
kernel_size: 1
weight_filler {
type: "xavier"
std: 0.09
}
bias_filler {
type: "constant"
value: 0.2
}
}
}
layer {
name: "inception_3a/relu_3x3_reduce"
type: "ReLU"
bottom: "inception_3a/3x3_reduce"
top: "inception_3a/3x3_reduce"
}
layer {
name: "inception_3a/3x3"
type: "Convolution"
bottom: "inception_3a/3x3_reduce"
top: "inception_3a/3x3"
param {
lr_mult: 1
decay_mult: 1
}
param {
lr_mult: 2
decay_mult: 0
}
convolution_param {
num_output: 128
pad: 1
kernel_size: 3
weight_filler {
type: "xavier"
std: 0.03
}
bias_filler {
type: "constant"
value: 0.2
}
}
}
layer {
name: "inception_3a/relu_3x3"
type: "ReLU"
bottom: "inception_3a/3x3"
top: "inception_3a/3x3"
}
layer {
name: "inception_3a/5x5_reduce"
type: "Convolution"
bottom: "pool2/3x3_s2"
top: "inception_3a/5x5_reduce"
param {
lr_mult: 1
decay_mult: 1
}
param {
lr_mult: 2
decay_mult: 0
}
convolution_param {
num_output: 16
kernel_size: 1
weight_filler {
type: "xavier"
std: 0.2
}
bias_filler {
type: "constant"
value: 0.2
}
}
}
layer {
name: "inception_3a/relu_5x5_reduce"
type: "ReLU"
bottom: "inception_3a/5x5_reduce"
top: "inception_3a/5x5_reduce"
}
layer {
name: "inception_3a/5x5"
type: "Convolution"
bottom: "inception_3a/5x5_reduce"
top: "inception_3a/5x5"
param {
lr_mult: 1
decay_mult: 1
}
param {
lr_mult: 2
decay_mult: 0
}
convolution_param {
num_output: 32
pad: 2
kernel_size: 5
weight_filler {
type: "xavier"
std: 0.03
}
bias_filler {
type: "constant"
value: 0.2
}
}
}
layer {
name: "inception_3a/relu_5x5"
type: "ReLU"
bottom: "inception_3a/5x5"
top: "inception_3a/5x5"
}
layer {
name: "inception_3a/pool"
type: "Pooling"
bottom: "pool2/3x3_s2"
top: "inception_3a/pool"
pooling_param {
pool: MAX
kernel_size: 3
stride: 1
pad: 1
}
}
layer {
name: "inception_3a/pool_proj"
type: "Convolution"
bottom: "inception_3a/pool"
top: "inception_3a/pool_proj"
param {
lr_mult: 1
decay_mult: 1
}
param {
lr_mult: 2
decay_mult: 0
}
convolution_param {
num_output: 32
kernel_size: 1
weight_filler {
type: "xavier"
std: 0.1
}
bias_filler {
type: "constant"
value: 0.2
}
}
}
layer {
name: "inception_3a/relu_pool_proj"
type: "ReLU"
bottom: "inception_3a/pool_proj"
top: "inception_3a/pool_proj"
}
layer {
name: "inception_3a/output"
type: "Concat"
bottom: "inception_3a/1x1"
bottom: "inception_3a/3x3"
bottom: "inception_3a/5x5"
bottom: "inception_3a/pool_proj"
top: "inception_3a/output"
}
layer {
name: "inception_3b/1x1"
type: "Convolution"
bottom: "inception_3a/output"
top: "inception_3b/1x1"
param {
lr_mult: 1
decay_mult: 1
}
param {
lr_mult: 2
decay_mult: 0
}
convolution_param {
num_output: 128
kernel_size: 1
weight_filler {
type: "xavier"
std: 0.03
}
bias_filler {
type: "constant"
value: 0.2
}
}
}
layer {
name: "inception_3b/relu_1x1"
type: "ReLU"
bottom: "inception_3b/1x1"
top: "inception_3b/1x1"
}
layer {
name: "inception_3b/3x3_reduce"
type: "Convolution"
bottom: "inception_3a/output"
top: "inception_3b/3x3_reduce"
param {
lr_mult: 1
decay_mult: 1
}
param {
lr_mult: 2
decay_mult: 0
}
convolution_param {
num_output: 128
kernel_size: 1
weight_filler {
type: "xavier"
std: 0.09
}
bias_filler {
type: "constant"
value: 0.2
}
}
}
layer {
name: "inception_3b/relu_3x3_reduce"
type: "ReLU"
bottom: "inception_3b/3x3_reduce"
top: "inception_3b/3x3_reduce"
}
layer {
name: "inception_3b/3x3"
type: "Convolution"
bottom: "inception_3b/3x3_reduce"
top: "inception_3b/3x3"
param {
lr_mult: 1
decay_mult: 1
}
param {
lr_mult: 2
decay_mult: 0
}
convolution_param {
num_output: 192
pad: 1
kernel_size: 3
weight_filler {
type: "xavier"
std: 0.03
}
bias_filler {
type: "constant"
value: 0.2
}
}
}
layer {
name: "inception_3b/relu_3x3"
type: "ReLU"
bottom: "inception_3b/3x3"
top: "inception_3b/3x3"
}
layer {
name: "inception_3b/5x5_reduce"
type: "Convolution"
bottom: "inception_3a/output"
top: "inception_3b/5x5_reduce"
param {
lr_mult: 1
decay_mult: 1
}
param {
lr_mult: 2
decay_mult: 0
}
convolution_param {
num_output: 32
kernel_size: 1
weight_filler {
type: "xavier"
std: 0.2
}
bias_filler {
type: "constant"
value: 0.2
}
}
}
layer {
name: "inception_3b/relu_5x5_reduce"
type: "ReLU"
bottom: "inception_3b/5x5_reduce"
top: "inception_3b/5x5_reduce"
}
layer {
name: "inception_3b/5x5"
type: "Convolution"
bottom: "inception_3b/5x5_reduce"
top: "inception_3b/5x5"
param {
lr_mult: 1
decay_mult: 1
}
param {
lr_mult: 2
decay_mult: 0
}
convolution_param {
num_output: 96
pad: 2
kernel_size: 5
weight_filler {
type: "xavier"
std: 0.03
}
bias_filler {
type: "constant"
value: 0.2
}
}
}
layer {
name: "inception_3b/relu_5x5"
type: "ReLU"
bottom: "inception_3b/5x5"
top: "inception_3b/5x5"
}
layer {
name: "inception_3b/pool"
type: "Pooling"
bottom: "inception_3a/output"
top: "inception_3b/pool"
pooling_param {
pool: MAX
kernel_size: 3
stride: 1
pad: 1
}
}
layer {
name: "inception_3b/pool_proj"
type: "Convolution"
bottom: "inception_3b/pool"
top: "inception_3b/pool_proj"
param {
lr_mult: 1
decay_mult: 1
}
param {
lr_mult: 2
decay_mult: 0
}
convolution_param {
num_output: 64
kernel_size: 1
weight_filler {
type: "xavier"
std: 0.1
}
bias_filler {
type: "constant"
value: 0.2
}
}
}
layer {
name: "inception_3b/relu_pool_proj"
type: "ReLU"
bottom: "inception_3b/pool_proj"
top: "inception_3b/pool_proj"
}
layer {
name: "inception_3b/output"
type: "Concat"
bottom: "inception_3b/1x1"
bottom: "inception_3b/3x3"
bottom: "inception_3b/5x5"
bottom: "inception_3b/pool_proj"
top: "inception_3b/output"
}
layer {
name: "pool3/3x3_s2"
type: "Pooling"
bottom: "inception_3b/output"
top: "pool3/3x3_s2"
pooling_param {
pool: MAX
kernel_size: 3
stride: 2
}
}
layer {
name: "inception_4a/1x1"
type: "Convolution"
bottom: "pool3/3x3_s2"
top: "inception_4a/1x1"
param {
lr_mult: 1
decay_mult: 1
}
param {
lr_mult: 2
decay_mult: 0
}
convolution_param {
num_output: 192
kernel_size: 1
weight_filler {
type: "xavier"
std: 0.03
}
bias_filler {
type: "constant"
value: 0.2
}
}
}
layer {
name: "inception_4a/relu_1x1"
type: "ReLU"
bottom: "inception_4a/1x1"
top: "inception_4a/1x1"
}
layer {
name: "inception_4a/3x3_reduce"
type: "Convolution"
bottom: "pool3/3x3_s2"
top: "inception_4a/3x3_reduce"
param {
lr_mult: 1
decay_mult: 1
}
param {
lr_mult: 2
decay_mult: 0
}
convolution_param {
num_output: 96
kernel_size: 1
weight_filler {
type: "xavier"
std: 0.09
}
bias_filler {
type: "constant"
value: 0.2
}
}
}
layer {
name: "inception_4a/relu_3x3_reduce"
type: "ReLU"
bottom: "inception_4a/3x3_reduce"
top: "inception_4a/3x3_reduce"
}
layer {
name: "inception_4a/3x3"
type: "Convolution"
bottom: "inception_4a/3x3_reduce"
top: "inception_4a/3x3"
param {
lr_mult: 1
decay_mult: 1
}
param {
lr_mult: 2
decay_mult: 0
}
convolution_param {
num_output: 208
pad: 1
kernel_size: 3
weight_filler {
type: "xavier"
std: 0.03
}
bias_filler {
type: "constant"
value: 0.2
}
}
}
layer {
name: "inception_4a/relu_3x3"
type: "ReLU"
bottom: "inception_4a/3x3"
top: "inception_4a/3x3"
}
layer {
name: "inception_4a/5x5_reduce"
type: "Convolution"
bottom: "pool3/3x3_s2"
top: "inception_4a/5x5_reduce"
param {
lr_mult: 1
decay_mult: 1
}
param {
lr_mult: 2
decay_mult: 0
}
convolution_param {
num_output: 16
kernel_size: 1
weight_filler {
type: "xavier"
std: 0.2
}
bias_filler {
type: "constant"
value: 0.2
}
}
}
layer {
name: "inception_4a/relu_5x5_reduce"
type: "ReLU"
bottom: "inception_4a/5x5_reduce"
top: "inception_4a/5x5_reduce"
}
layer {
name: "inception_4a/5x5"
type: "Convolution"
bottom: "inception_4a/5x5_reduce"
top: "inception_4a/5x5"
param {
lr_mult: 1
decay_mult: 1
}
param {
lr_mult: 2
decay_mult: 0
}
convolution_param {
num_output: 48
pad: 2
kernel_size: 5
weight_filler {
type: "xavier"
std: 0.03
}
bias_filler {
type: "constant"
value: 0.2
}
}
}
layer {
name: "inception_4a/relu_5x5"
type: "ReLU"
bottom: "inception_4a/5x5"
top: "inception_4a/5x5"
}
layer {
name: "inception_4a/pool"
type: "Pooling"
bottom: "pool3/3x3_s2"
top: "inception_4a/pool"
pooling_param {
pool: MAX
kernel_size: 3
stride: 1
pad: 1
}
}
layer {
name: "inception_4a/pool_proj"
type: "Convolution"
bottom: "inception_4a/pool"
top: "inception_4a/pool_proj"
param {
lr_mult: 1
decay_mult: 1
}
param {
lr_mult: 2
decay_mult: 0
}
convolution_param {
num_output: 64
kernel_size: 1
weight_filler {
type: "xavier"
std: 0.1
}
bias_filler {
type: "constant"
value: 0.2
}
}
}
layer {
name: "inception_4a/relu_pool_proj"
type: "ReLU"
bottom: "inception_4a/pool_proj"
top: "inception_4a/pool_proj"
}
layer {
name: "inception_4a/output"
type: "Concat"
bottom: "inception_4a/1x1"
bottom: "inception_4a/3x3"
bottom: "inception_4a/5x5"
bottom: "inception_4a/pool_proj"
top: "inception_4a/output"
}
layer {
name: "loss1/ave_pool"
type: "Pooling"
bottom: "inception_4a/output"
top: "loss1/ave_pool"
pooling_param {
pool: AVE
kernel_size: 5
stride: 3
}
}
layer {
name: "loss1/conv"
type: "Convolution"
bottom: "loss1/ave_pool"
top: "loss1/conv"
param {
lr_mult: 1
decay_mult: 1
}
param {
lr_mult: 2
decay_mult: 0
}
convolution_param {
num_output: 128
kernel_size: 1
weight_filler {
type: "xavier"
std: 0.08
}
bias_filler {
type: "constant"
value: 0.2
}
}
}
layer {
name: "loss1/relu_conv"
type: "ReLU"
bottom: "loss1/conv"
top: "loss1/conv"
}
layer {
name: "loss1/fc"
type: "InnerProduct"
bottom: "loss1/conv"
top: "loss1/fc"
param {
lr_mult: 1
decay_mult: 1
}
param {
lr_mult: 2
decay_mult: 0
}
inner_product_param {
num_output: 1024
weight_filler {
type: "xavier"
std: 0.02
}
bias_filler {
type: "constant"
value: 0.2
}
}
}
layer {
name: "loss1/relu_fc"
type: "ReLU"
bottom: "loss1/fc"
top: "loss1/fc"
}
layer {
name: "loss1/drop_fc"
type: "Dropout"
bottom: "loss1/fc"
top: "loss1/fc"
dropout_param {
dropout_ratio: 0.7
}
}
layer {
name: "loss1/classifier"
type: "InnerProduct"
bottom: "loss1/fc"
top: "loss1/classifier"
param {
lr_mult: 1
decay_mult: 1
}
param {
lr_mult: 2
decay_mult: 0
}
inner_product_param {
num_output: 196
weight_filler {
type: "xavier"
std: 0.0009765625
}
bias_filler {
type: "constant"
value: 0
}
}
}
layer {
name: "loss1/loss"
type: "SoftmaxWithLoss"
bottom: "loss1/classifier"
bottom: "label"
top: "loss1/loss"
loss_weight: 0.3
}
layer {
name: "inception_4b/1x1"
type: "Convolution"
bottom: "inception_4a/output"
top: "inception_4b/1x1"
param {
lr_mult: 1
decay_mult: 1
}
param {
lr_mult: 2
decay_mult: 0
}
convolution_param {
num_output: 160
kernel_size: 1
weight_filler {
type: "xavier"
std: 0.03
}
bias_filler {
type: "constant"
value: 0.2
}
}
}
layer {
name: "inception_4b/relu_1x1"
type: "ReLU"
bottom: "inception_4b/1x1"
top: "inception_4b/1x1"
}
layer {
name: "inception_4b/3x3_reduce"
type: "Convolution"
bottom: "inception_4a/output"
top: "inception_4b/3x3_reduce"
param {
lr_mult: 1
decay_mult: 1
}
param {
lr_mult: 2
decay_mult: 0
}
convolution_param {
num_output: 112
kernel_size: 1
weight_filler {
type: "xavier"
std: 0.09
}
bias_filler {
type: "constant"
value: 0.2
}
}
}
layer {
name: "inception_4b/relu_3x3_reduce"
type: "ReLU"
bottom: "inception_4b/3x3_reduce"
top: "inception_4b/3x3_reduce"
}
layer {
name: "inception_4b/3x3"
type: "Convolution"
bottom: "inception_4b/3x3_reduce"
top: "inception_4b/3x3"
param {
lr_mult: 1
decay_mult: 1
}
param {
lr_mult: 2
decay_mult: 0
}
convolution_param {
num_output: 224
pad: 1
kernel_size: 3
weight_filler {
type: "xavier"
std: 0.03
}
bias_filler {
type: "constant"
value: 0.2
}
}
}
layer {
name: "inception_4b/relu_3x3"
type: "ReLU"
bottom: "inception_4b/3x3"
top: "inception_4b/3x3"
}
layer {
name: "inception_4b/5x5_reduce"
type: "Convolution"
bottom: "inception_4a/output"
top: "inception_4b/5x5_reduce"
param {
lr_mult: 1
decay_mult: 1
}
param {
lr_mult: 2
decay_mult: 0
}
convolution_param {
num_output: 24
kernel_size: 1
weight_filler {
type: "xavier"
std: 0.2
}
bias_filler {
type: "constant"
value: 0.2
}
}
}
layer {
name: "inception_4b/relu_5x5_reduce"
type: "ReLU"
bottom: "inception_4b/5x5_reduce"
top: "inception_4b/5x5_reduce"
}
layer {
name: "inception_4b/5x5"
type: "Convolution"
bottom: "inception_4b/5x5_reduce"
top: "inception_4b/5x5"
param {
lr_mult: 1
decay_mult: 1
}
param {
lr_mult: 2
decay_mult: 0
}
convolution_param {
num_output: 64
pad: 2
kernel_size: 5
weight_filler {
type: "xavier"
std: 0.03
}
bias_filler {
type: "constant"
value: 0.2
}
}
}
layer {
name: "inception_4b/relu_5x5"
type: "ReLU"
bottom: "inception_4b/5x5"
top: "inception_4b/5x5"
}
layer {
name: "inception_4b/pool"
type: "Pooling"
bottom: "inception_4a/output"
top: "inception_4b/pool"
pooling_param {
pool: MAX
kernel_size: 3
stride: 1
pad: 1
}
}
layer {
name: "inception_4b/pool_proj"
type: "Convolution"
bottom: "inception_4b/pool"
top: "inception_4b/pool_proj"
param {
lr_mult: 1
decay_mult: 1
}
param {
lr_mult: 2
decay_mult: 0
}
convolution_param {
num_output: 64
kernel_size: 1
weight_filler {
type: "xavier"
std: 0.1
}
bias_filler {
type: "constant"
value: 0.2
}
}
}
layer {
name: "inception_4b/relu_pool_proj"
type: "ReLU"
bottom: "inception_4b/pool_proj"
top: "inception_4b/pool_proj"
}
layer {
name: "inception_4b/output"
type: "Concat"
bottom: "inception_4b/1x1"
bottom: "inception_4b/3x3"
bottom: "inception_4b/5x5"
bottom: "inception_4b/pool_proj"
top: "inception_4b/output"
}
layer {
name: "inception_4c/1x1"
type: "Convolution"
bottom: "inception_4b/output"
top: "inception_4c/1x1"
param {
lr_mult: 1
decay_mult: 1
}
param {
lr_mult: 2
decay_mult: 0
}
convolution_param {
num_output: 128
kernel_size: 1
weight_filler {
type: "xavier"
std: 0.03
}
bias_filler {
type: "constant"
value: 0.2
}
}
}
layer {
name: "inception_4c/relu_1x1"
type: "ReLU"
bottom: "inception_4c/1x1"
top: "inception_4c/1x1"
}
layer {
name: "inception_4c/3x3_reduce"
type: "Convolution"
bottom: "inception_4b/output"
top: "inception_4c/3x3_reduce"
param {
lr_mult: 1
decay_mult: 1
}
param {
lr_mult: 2
decay_mult: 0
}
convolution_param {
num_output: 128
kernel_size: 1
weight_filler {
type: "xavier"
std: 0.09
}
bias_filler {
type: "constant"
value: 0.2
}
}
}
layer {
name: "inception_4c/relu_3x3_reduce"
type: "ReLU"
bottom: "inception_4c/3x3_reduce"
top: "inception_4c/3x3_reduce"
}
layer {
name: "inception_4c/3x3"
type: "Convolution"
bottom: "inception_4c/3x3_reduce"
top: "inception_4c/3x3"
param {
lr_mult: 1
decay_mult: 1
}
param {
lr_mult: 2
decay_mult: 0
}
convolution_param {
num_output: 256
pad: 1
kernel_size: 3
weight_filler {
type: "xavier"
std: 0.03
}
bias_filler {
type: "constant"
value: 0.2
}
}
}
layer {
name: "inception_4c/relu_3x3"
type: "ReLU"
bottom: "inception_4c/3x3"
top: "inception_4c/3x3"
}
layer {
name: "inception_4c/5x5_reduce"
type: "Convolution"
bottom: "inception_4b/output"
top: "inception_4c/5x5_reduce"
param {
lr_mult: 1
decay_mult: 1
}
param {
lr_mult: 2
decay_mult: 0
}
convolution_param {
num_output: 24
kernel_size: 1
weight_filler {
type: "xavier"
std: 0.2
}
bias_filler {
type: "constant"
value: 0.2
}
}
}
layer {
name: "inception_4c/relu_5x5_reduce"
type: "ReLU"
bottom: "inception_4c/5x5_reduce"
top: "inception_4c/5x5_reduce"
}
layer {
name: "inception_4c/5x5"
type: "Convolution"
bottom: "inception_4c/5x5_reduce"
top: "inception_4c/5x5"
param {
lr_mult: 1
decay_mult: 1
}
param {
lr_mult: 2
decay_mult: 0
}
convolution_param {
num_output: 64
pad: 2
kernel_size: 5
weight_filler {
type: "xavier"
std: 0.03
}
bias_filler {
type: "constant"
value: 0.2
}
}
}
layer {
name: "inception_4c/relu_5x5"
type: "ReLU"
bottom: "inception_4c/5x5"
top: "inception_4c/5x5"
}
layer {
name: "inception_4c/pool"
type: "Pooling"
bottom: "inception_4b/output"
top: "inception_4c/pool"
pooling_param {
pool: MAX
kernel_size: 3
stride: 1
pad: 1
}
}
layer {
name: "inception_4c/pool_proj"
type: "Convolution"
bottom: "inception_4c/pool"
top: "inception_4c/pool_proj"
param {
lr_mult: 1
decay_mult: 1
}
param {
lr_mult: 2
decay_mult: 0
}
convolution_param {
num_output: 64
kernel_size: 1
weight_filler {
type: "xavier"
std: 0.1
}
bias_filler {
type: "constant"
value: 0.2
}
}
}
layer {
name: "inception_4c/relu_pool_proj"
type: "ReLU"
bottom: "inception_4c/pool_proj"
top: "inception_4c/pool_proj"
}
layer {
name: "inception_4c/output"
type: "Concat"
bottom: "inception_4c/1x1"
bottom: "inception_4c/3x3"
bottom: "inception_4c/5x5"
bottom: "inception_4c/pool_proj"
top: "inception_4c/output"
}
layer {
name: "inception_4d/1x1"
type: "Convolution"
bottom: "inception_4c/output"
top: "inception_4d/1x1"
param {
lr_mult: 1
decay_mult: 1
}
param {
lr_mult: 2
decay_mult: 0
}
convolution_param {
num_output: 112
kernel_size: 1
weight_filler {
type: "xavier"
std: 0.03
}
bias_filler {
type: "constant"
value: 0.2
}
}
}
layer {
name: "inception_4d/relu_1x1"
type: "ReLU"
bottom: "inception_4d/1x1"
top: "inception_4d/1x1"
}
layer {
name: "inception_4d/3x3_reduce"
type: "Convolution"
bottom: "inception_4c/output"
top: "inception_4d/3x3_reduce"
param {
lr_mult: 1
decay_mult: 1
}
param {
lr_mult: 2
decay_mult: 0
}
convolution_param {
num_output: 144
kernel_size: 1
weight_filler {
type: "xavier"
std: 0.09
}
bias_filler {
type: "constant"
value: 0.2
}
}
}
layer {
name: "inception_4d/relu_3x3_reduce"
type: "ReLU"
bottom: "inception_4d/3x3_reduce"
top: "inception_4d/3x3_reduce"
}
layer {
name: "inception_4d/3x3"
type: "Convolution"
bottom: "inception_4d/3x3_reduce"
top: "inception_4d/3x3"
param {
lr_mult: 1
decay_mult: 1
}
param {
lr_mult: 2
decay_mult: 0
}
convolution_param {
num_output: 288
pad: 1
kernel_size: 3
weight_filler {
type: "xavier"
std: 0.03
}
bias_filler {
type: "constant"
value: 0.2
}
}
}
layer {
name: "inception_4d/relu_3x3"
type: "ReLU"
bottom: "inception_4d/3x3"
top: "inception_4d/3x3"
}
layer {
name: "inception_4d/5x5_reduce"
type: "Convolution"
bottom: "inception_4c/output"
top: "inception_4d/5x5_reduce"
param {
lr_mult: 1
decay_mult: 1
}
param {
lr_mult: 2
decay_mult: 0
}
convolution_param {
num_output: 32
kernel_size: 1
weight_filler {
type: "xavier"
std: 0.2
}
bias_filler {
type: "constant"
value: 0.2
}
}
}
layer {
name: "inception_4d/relu_5x5_reduce"
type: "ReLU"
bottom: "inception_4d/5x5_reduce"
top: "inception_4d/5x5_reduce"
}
layer {
name: "inception_4d/5x5"
type: "Convolution"
bottom: "inception_4d/5x5_reduce"
top: "inception_4d/5x5"
param {
lr_mult: 1
decay_mult: 1
}
param {
lr_mult: 2
decay_mult: 0
}
convolution_param {
num_output: 64
pad: 2
kernel_size: 5
weight_filler {
type: "xavier"
std: 0.03
}
bias_filler {
type: "constant"
value: 0.2
}
}
}
layer {
name: "inception_4d/relu_5x5"
type: "ReLU"
bottom: "inception_4d/5x5"
top: "inception_4d/5x5"
}
layer {
name: "inception_4d/pool"
type: "Pooling"
bottom: "inception_4c/output"
top: "inception_4d/pool"
pooling_param {
pool: MAX
kernel_size: 3
stride: 1
pad: 1
}
}
layer {
name: "inception_4d/pool_proj"
type: "Convolution"
bottom: "inception_4d/pool"
top: "inception_4d/pool_proj"
param {
lr_mult: 1
decay_mult: 1
}
param {
lr_mult: 2
decay_mult: 0
}
convolution_param {
num_output: 64
kernel_size: 1
weight_filler {
type: "xavier"
std: 0.1
}
bias_filler {
type: "constant"
value: 0.2
}
}
}
layer {
name: "inception_4d/relu_pool_proj"
type: "ReLU"
bottom: "inception_4d/pool_proj"
top: "inception_4d/pool_proj"
}
layer {
name: "inception_4d/output"
type: "Concat"
bottom: "inception_4d/1x1"
bottom: "inception_4d/3x3"
bottom: "inception_4d/5x5"
bottom: "inception_4d/pool_proj"
top: "inception_4d/output"
}
layer {
name: "loss2/ave_pool"
type: "Pooling"
bottom: "inception_4d/output"
top: "loss2/ave_pool"
pooling_param {
pool: AVE
kernel_size: 5
stride: 3
}
}
layer {
name: "loss2/conv"
type: "Convolution"
bottom: "loss2/ave_pool"
top: "loss2/conv"
param {
lr_mult: 1
decay_mult: 1
}
param {
lr_mult: 2
decay_mult: 0
}
convolution_param {
num_output: 128
kernel_size: 1
weight_filler {
type: "xavier"
std: 0.08
}
bias_filler {
type: "constant"
value: 0.2
}
}
}
layer {
name: "loss2/relu_conv"
type: "ReLU"
bottom: "loss2/conv"
top: "loss2/conv"
}
layer {
name: "loss2/fc"
type: "InnerProduct"
bottom: "loss2/conv"
top: "loss2/fc"
param {
lr_mult: 1
decay_mult: 1
}
param {
lr_mult: 2
decay_mult: 0
}
inner_product_param {
num_output: 1024
weight_filler {
type: "xavier"
std: 0.02
}
bias_filler {
type: "constant"
value: 0.2
}
}
}
layer {
name: "loss2/relu_fc"
type: "ReLU"
bottom: "loss2/fc"
top: "loss2/fc"
}
layer {
name: "loss2/drop_fc"
type: "Dropout"
bottom: "loss2/fc"
top: "loss2/fc"
dropout_param {
dropout_ratio: 0.7
}
}
layer {
name: "loss2/classifier"
type: "InnerProduct"
bottom: "loss2/fc"
top: "loss2/classifier"
param {
lr_mult: 1
decay_mult: 1
}
param {
lr_mult: 2
decay_mult: 0
}
inner_product_param {
num_output: 196
weight_filler {
type: "xavier"
std: 0.0009765625
}
bias_filler {
type: "constant"
value: 0
}
}
}
layer {
name: "loss2/loss"
type: "SoftmaxWithLoss"
bottom: "loss2/classifier"
bottom: "label"
top: "loss2/loss"
loss_weight: 0.3
}
layer {
name: "inception_4e/1x1"
type: "Convolution"
bottom: "inception_4d/output"
top: "inception_4e/1x1"
param {
lr_mult: 1
decay_mult: 1
}
param {
lr_mult: 2
decay_mult: 0
}
convolution_param {
num_output: 256
kernel_size: 1
weight_filler {
type: "xavier"
std: 0.03
}
bias_filler {
type: "constant"
value: 0.2
}
}
}
layer {
name: "inception_4e/relu_1x1"
type: "ReLU"
bottom: "inception_4e/1x1"
top: "inception_4e/1x1"
}
layer {
name: "inception_4e/3x3_reduce"
type: "Convolution"
bottom: "inception_4d/output"
top: "inception_4e/3x3_reduce"
param {
lr_mult: 1
decay_mult: 1
}
param {
lr_mult: 2
decay_mult: 0
}
convolution_param {
num_output: 160
kernel_size: 1
weight_filler {
type: "xavier"
std: 0.09
}
bias_filler {
type: "constant"
value: 0.2
}
}
}
layer {
name: "inception_4e/relu_3x3_reduce"
type: "ReLU"
bottom: "inception_4e/3x3_reduce"
top: "inception_4e/3x3_reduce"
}
layer {
name: "inception_4e/3x3"
type: "Convolution"
bottom: "inception_4e/3x3_reduce"
top: "inception_4e/3x3"
param {
lr_mult: 1
decay_mult: 1
}
param {
lr_mult: 2
decay_mult: 0
}
convolution_param {
num_output: 320
pad: 1
kernel_size: 3
weight_filler {
type: "xavier"
std: 0.03
}
bias_filler {
type: "constant"
value: 0.2
}
}
}
layer {
name: "inception_4e/relu_3x3"
type: "ReLU"
bottom: "inception_4e/3x3"
top: "inception_4e/3x3"
}
layer {
name: "inception_4e/5x5_reduce"
type: "Convolution"
bottom: "inception_4d/output"
top: "inception_4e/5x5_reduce"
param {
lr_mult: 1
decay_mult: 1
}
param {
lr_mult: 2
decay_mult: 0
}
convolution_param {
num_output: 32
kernel_size: 1
weight_filler {
type: "xavier"
std: 0.2
}
bias_filler {
type: "constant"
val
I0507 21:21:46.630663 22664 layer_factory.hpp:77] Creating layer train-data
I0507 21:21:46.632083 22664 db_lmdb.cpp:35] Opened lmdb /mnt/bigdisk/MANDIG4/digits/jobs/20200507-113634-e696/train_db
I0507 21:21:46.632259 22664 net.cpp:84] Creating Layer train-data
I0507 21:21:46.632273 22664 net.cpp:380] train-data -> data
I0507 21:21:46.632293 22664 net.cpp:380] train-data -> label
I0507 21:21:46.632304 22664 data_transformer.cpp:25] Loading mean file from: /mnt/bigdisk/MANDIG4/digits/jobs/20200507-113634-e696/mean.binaryproto
I0507 21:21:46.637156 22664 data_layer.cpp:45] output data size: 32,3,224,224
I0507 21:21:46.728639 22664 net.cpp:122] Setting up train-data
I0507 21:21:46.728665 22664 net.cpp:129] Top shape: 32 3 224 224 (4816896)
I0507 21:21:46.728672 22664 net.cpp:129] Top shape: 32 (32)
I0507 21:21:46.728675 22664 net.cpp:137] Memory required for data: 19267712
I0507 21:21:46.728686 22664 layer_factory.hpp:77] Creating layer label_train-data_1_split
I0507 21:21:46.728720 22664 net.cpp:84] Creating Layer label_train-data_1_split
I0507 21:21:46.728727 22664 net.cpp:406] label_train-data_1_split <- label
I0507 21:21:46.728739 22664 net.cpp:380] label_train-data_1_split -> label_train-data_1_split_0
I0507 21:21:46.728751 22664 net.cpp:380] label_train-data_1_split -> label_train-data_1_split_1
I0507 21:21:46.728760 22664 net.cpp:380] label_train-data_1_split -> label_train-data_1_split_2
I0507 21:21:46.728818 22664 net.cpp:122] Setting up label_train-data_1_split
I0507 21:21:46.728826 22664 net.cpp:129] Top shape: 32 (32)
I0507 21:21:46.728832 22664 net.cpp:129] Top shape: 32 (32)
I0507 21:21:46.728839 22664 net.cpp:129] Top shape: 32 (32)
I0507 21:21:46.728844 22664 net.cpp:137] Memory required for data: 19268096
I0507 21:21:46.728849 22664 layer_factory.hpp:77] Creating layer conv1/7x7_s2
I0507 21:21:46.728868 22664 net.cpp:84] Creating Layer conv1/7x7_s2
I0507 21:21:46.728871 22664 net.cpp:406] conv1/7x7_s2 <- data
I0507 21:21:46.728880 22664 net.cpp:380] conv1/7x7_s2 -> conv1/7x7_s2
I0507 21:21:47.733958 22664 net.cpp:122] Setting up conv1/7x7_s2
I0507 21:21:47.733983 22664 net.cpp:129] Top shape: 32 64 112 112 (25690112)
I0507 21:21:47.733988 22664 net.cpp:137] Memory required for data: 122028544
I0507 21:21:47.734006 22664 layer_factory.hpp:77] Creating layer conv1/relu_7x7
I0507 21:21:47.734016 22664 net.cpp:84] Creating Layer conv1/relu_7x7
I0507 21:21:47.734022 22664 net.cpp:406] conv1/relu_7x7 <- conv1/7x7_s2
I0507 21:21:47.734028 22664 net.cpp:367] conv1/relu_7x7 -> conv1/7x7_s2 (in-place)
I0507 21:21:47.734395 22664 net.cpp:122] Setting up conv1/relu_7x7
I0507 21:21:47.734403 22664 net.cpp:129] Top shape: 32 64 112 112 (25690112)
I0507 21:21:47.734407 22664 net.cpp:137] Memory required for data: 224788992
I0507 21:21:47.734411 22664 layer_factory.hpp:77] Creating layer pool1/3x3_s2
I0507 21:21:47.734421 22664 net.cpp:84] Creating Layer pool1/3x3_s2
I0507 21:21:47.734426 22664 net.cpp:406] pool1/3x3_s2 <- conv1/7x7_s2
I0507 21:21:47.734432 22664 net.cpp:380] pool1/3x3_s2 -> pool1/3x3_s2
I0507 21:21:47.734475 22664 net.cpp:122] Setting up pool1/3x3_s2
I0507 21:21:47.734495 22664 net.cpp:129] Top shape: 32 64 56 56 (6422528)
I0507 21:21:47.734499 22664 net.cpp:137] Memory required for data: 250479104
I0507 21:21:47.734503 22664 layer_factory.hpp:77] Creating layer pool1/norm1
I0507 21:21:47.734513 22664 net.cpp:84] Creating Layer pool1/norm1
I0507 21:21:47.734517 22664 net.cpp:406] pool1/norm1 <- pool1/3x3_s2
I0507 21:21:47.734524 22664 net.cpp:380] pool1/norm1 -> pool1/norm1
I0507 21:21:47.735065 22664 net.cpp:122] Setting up pool1/norm1
I0507 21:21:47.735074 22664 net.cpp:129] Top shape: 32 64 56 56 (6422528)
I0507 21:21:47.735080 22664 net.cpp:137] Memory required for data: 276169216
I0507 21:21:47.735083 22664 layer_factory.hpp:77] Creating layer conv2/3x3_reduce
I0507 21:21:47.735095 22664 net.cpp:84] Creating Layer conv2/3x3_reduce
I0507 21:21:47.735100 22664 net.cpp:406] conv2/3x3_reduce <- pool1/norm1
I0507 21:21:47.735107 22664 net.cpp:380] conv2/3x3_reduce -> conv2/3x3_reduce
I0507 21:21:47.736796 22664 net.cpp:122] Setting up conv2/3x3_reduce
I0507 21:21:47.736807 22664 net.cpp:129] Top shape: 32 64 56 56 (6422528)
I0507 21:21:47.736811 22664 net.cpp:137] Memory required for data: 301859328
I0507 21:21:47.736820 22664 layer_factory.hpp:77] Creating layer conv2/relu_3x3_reduce
I0507 21:21:47.736826 22664 net.cpp:84] Creating Layer conv2/relu_3x3_reduce
I0507 21:21:47.736830 22664 net.cpp:406] conv2/relu_3x3_reduce <- conv2/3x3_reduce
I0507 21:21:47.736837 22664 net.cpp:367] conv2/relu_3x3_reduce -> conv2/3x3_reduce (in-place)
I0507 21:21:47.737180 22664 net.cpp:122] Setting up conv2/relu_3x3_reduce
I0507 21:21:47.737190 22664 net.cpp:129] Top shape: 32 64 56 56 (6422528)
I0507 21:21:47.737193 22664 net.cpp:137] Memory required for data: 327549440
I0507 21:21:47.737197 22664 layer_factory.hpp:77] Creating layer conv2/3x3
I0507 21:21:47.737210 22664 net.cpp:84] Creating Layer conv2/3x3
I0507 21:21:47.737213 22664 net.cpp:406] conv2/3x3 <- conv2/3x3_reduce
I0507 21:21:47.737241 22664 net.cpp:380] conv2/3x3 -> conv2/3x3
I0507 21:21:47.740708 22664 net.cpp:122] Setting up conv2/3x3
I0507 21:21:47.740720 22664 net.cpp:129] Top shape: 32 192 56 56 (19267584)
I0507 21:21:47.740725 22664 net.cpp:137] Memory required for data: 404619776
I0507 21:21:47.740736 22664 layer_factory.hpp:77] Creating layer conv2/relu_3x3
I0507 21:21:47.740742 22664 net.cpp:84] Creating Layer conv2/relu_3x3
I0507 21:21:47.740746 22664 net.cpp:406] conv2/relu_3x3 <- conv2/3x3
I0507 21:21:47.740752 22664 net.cpp:367] conv2/relu_3x3 -> conv2/3x3 (in-place)
I0507 21:21:47.741094 22664 net.cpp:122] Setting up conv2/relu_3x3
I0507 21:21:47.741103 22664 net.cpp:129] Top shape: 32 192 56 56 (19267584)
I0507 21:21:47.741107 22664 net.cpp:137] Memory required for data: 481690112
I0507 21:21:47.741111 22664 layer_factory.hpp:77] Creating layer conv2/norm2
I0507 21:21:47.741123 22664 net.cpp:84] Creating Layer conv2/norm2
I0507 21:21:47.741127 22664 net.cpp:406] conv2/norm2 <- conv2/3x3
I0507 21:21:47.741132 22664 net.cpp:380] conv2/norm2 -> conv2/norm2
I0507 21:21:47.741659 22664 net.cpp:122] Setting up conv2/norm2
I0507 21:21:47.741668 22664 net.cpp:129] Top shape: 32 192 56 56 (19267584)
I0507 21:21:47.741672 22664 net.cpp:137] Memory required for data: 558760448
I0507 21:21:47.741677 22664 layer_factory.hpp:77] Creating layer pool2/3x3_s2
I0507 21:21:47.741683 22664 net.cpp:84] Creating Layer pool2/3x3_s2
I0507 21:21:47.741688 22664 net.cpp:406] pool2/3x3_s2 <- conv2/norm2
I0507 21:21:47.741694 22664 net.cpp:380] pool2/3x3_s2 -> pool2/3x3_s2
I0507 21:21:47.741725 22664 net.cpp:122] Setting up pool2/3x3_s2
I0507 21:21:47.741730 22664 net.cpp:129] Top shape: 32 192 28 28 (4816896)
I0507 21:21:47.741734 22664 net.cpp:137] Memory required for data: 578028032
I0507 21:21:47.741737 22664 layer_factory.hpp:77] Creating layer pool2/3x3_s2_pool2/3x3_s2_0_split
I0507 21:21:47.741746 22664 net.cpp:84] Creating Layer pool2/3x3_s2_pool2/3x3_s2_0_split
I0507 21:21:47.741750 22664 net.cpp:406] pool2/3x3_s2_pool2/3x3_s2_0_split <- pool2/3x3_s2
I0507 21:21:47.741756 22664 net.cpp:380] pool2/3x3_s2_pool2/3x3_s2_0_split -> pool2/3x3_s2_pool2/3x3_s2_0_split_0
I0507 21:21:47.741763 22664 net.cpp:380] pool2/3x3_s2_pool2/3x3_s2_0_split -> pool2/3x3_s2_pool2/3x3_s2_0_split_1
I0507 21:21:47.741768 22664 net.cpp:380] pool2/3x3_s2_pool2/3x3_s2_0_split -> pool2/3x3_s2_pool2/3x3_s2_0_split_2
I0507 21:21:47.741773 22664 net.cpp:380] pool2/3x3_s2_pool2/3x3_s2_0_split -> pool2/3x3_s2_pool2/3x3_s2_0_split_3
I0507 21:21:47.741816 22664 net.cpp:122] Setting up pool2/3x3_s2_pool2/3x3_s2_0_split
I0507 21:21:47.741823 22664 net.cpp:129] Top shape: 32 192 28 28 (4816896)
I0507 21:21:47.741827 22664 net.cpp:129] Top shape: 32 192 28 28 (4816896)
I0507 21:21:47.741832 22664 net.cpp:129] Top shape: 32 192 28 28 (4816896)
I0507 21:21:47.741834 22664 net.cpp:129] Top shape: 32 192 28 28 (4816896)
I0507 21:21:47.741837 22664 net.cpp:137] Memory required for data: 655098368
I0507 21:21:47.741842 22664 layer_factory.hpp:77] Creating layer inception_3a/1x1
I0507 21:21:47.741850 22664 net.cpp:84] Creating Layer inception_3a/1x1
I0507 21:21:47.741854 22664 net.cpp:406] inception_3a/1x1 <- pool2/3x3_s2_pool2/3x3_s2_0_split_0
I0507 21:21:47.741860 22664 net.cpp:380] inception_3a/1x1 -> inception_3a/1x1
I0507 21:21:47.743588 22664 net.cpp:122] Setting up inception_3a/1x1
I0507 21:21:47.743599 22664 net.cpp:129] Top shape: 32 64 28 28 (1605632)
I0507 21:21:47.743603 22664 net.cpp:137] Memory required for data: 661520896
I0507 21:21:47.743609 22664 layer_factory.hpp:77] Creating layer inception_3a/relu_1x1
I0507 21:21:47.743616 22664 net.cpp:84] Creating Layer inception_3a/relu_1x1
I0507 21:21:47.743620 22664 net.cpp:406] inception_3a/relu_1x1 <- inception_3a/1x1
I0507 21:21:47.743626 22664 net.cpp:367] inception_3a/relu_1x1 -> inception_3a/1x1 (in-place)
I0507 21:21:47.743968 22664 net.cpp:122] Setting up inception_3a/relu_1x1
I0507 21:21:47.743975 22664 net.cpp:129] Top shape: 32 64 28 28 (1605632)
I0507 21:21:47.743995 22664 net.cpp:137] Memory required for data: 667943424
I0507 21:21:47.743999 22664 layer_factory.hpp:77] Creating layer inception_3a/3x3_reduce
I0507 21:21:47.744010 22664 net.cpp:84] Creating Layer inception_3a/3x3_reduce
I0507 21:21:47.744014 22664 net.cpp:406] inception_3a/3x3_reduce <- pool2/3x3_s2_pool2/3x3_s2_0_split_1
I0507 21:21:47.744021 22664 net.cpp:380] inception_3a/3x3_reduce -> inception_3a/3x3_reduce
I0507 21:21:47.746907 22664 net.cpp:122] Setting up inception_3a/3x3_reduce
I0507 21:21:47.746919 22664 net.cpp:129] Top shape: 32 96 28 28 (2408448)
I0507 21:21:47.746923 22664 net.cpp:137] Memory required for data: 677577216
I0507 21:21:47.746934 22664 layer_factory.hpp:77] Creating layer inception_3a/relu_3x3_reduce
I0507 21:21:47.746945 22664 net.cpp:84] Creating Layer inception_3a/relu_3x3_reduce
I0507 21:21:47.746949 22664 net.cpp:406] inception_3a/relu_3x3_reduce <- inception_3a/3x3_reduce
I0507 21:21:47.746955 22664 net.cpp:367] inception_3a/relu_3x3_reduce -> inception_3a/3x3_reduce (in-place)
I0507 21:21:47.747457 22664 net.cpp:122] Setting up inception_3a/relu_3x3_reduce
I0507 21:21:47.747467 22664 net.cpp:129] Top shape: 32 96 28 28 (2408448)
I0507 21:21:47.747470 22664 net.cpp:137] Memory required for data: 687211008
I0507 21:21:47.747474 22664 layer_factory.hpp:77] Creating layer inception_3a/3x3
I0507 21:21:47.747485 22664 net.cpp:84] Creating Layer inception_3a/3x3
I0507 21:21:47.747489 22664 net.cpp:406] inception_3a/3x3 <- inception_3a/3x3_reduce
I0507 21:21:47.747498 22664 net.cpp:380] inception_3a/3x3 -> inception_3a/3x3
I0507 21:21:47.750890 22664 net.cpp:122] Setting up inception_3a/3x3
I0507 21:21:47.750900 22664 net.cpp:129] Top shape: 32 128 28 28 (3211264)
I0507 21:21:47.750905 22664 net.cpp:137] Memory required for data: 700056064
I0507 21:21:47.750911 22664 layer_factory.hpp:77] Creating layer inception_3a/relu_3x3
I0507 21:21:47.750921 22664 net.cpp:84] Creating Layer inception_3a/relu_3x3
I0507 21:21:47.750924 22664 net.cpp:406] inception_3a/relu_3x3 <- inception_3a/3x3
I0507 21:21:47.750929 22664 net.cpp:367] inception_3a/relu_3x3 -> inception_3a/3x3 (in-place)
I0507 21:21:47.751420 22664 net.cpp:122] Setting up inception_3a/relu_3x3
I0507 21:21:47.751430 22664 net.cpp:129] Top shape: 32 128 28 28 (3211264)
I0507 21:21:47.751433 22664 net.cpp:137] Memory required for data: 712901120
I0507 21:21:47.751437 22664 layer_factory.hpp:77] Creating layer inception_3a/5x5_reduce
I0507 21:21:47.751447 22664 net.cpp:84] Creating Layer inception_3a/5x5_reduce
I0507 21:21:47.751452 22664 net.cpp:406] inception_3a/5x5_reduce <- pool2/3x3_s2_pool2/3x3_s2_0_split_2
I0507 21:21:47.751459 22664 net.cpp:380] inception_3a/5x5_reduce -> inception_3a/5x5_reduce
I0507 21:21:47.757066 22664 net.cpp:122] Setting up inception_3a/5x5_reduce
I0507 21:21:47.757076 22664 net.cpp:129] Top shape: 32 16 28 28 (401408)
I0507 21:21:47.757081 22664 net.cpp:137] Memory required for data: 714506752
I0507 21:21:47.757088 22664 layer_factory.hpp:77] Creating layer inception_3a/relu_5x5_reduce
I0507 21:21:47.757098 22664 net.cpp:84] Creating Layer inception_3a/relu_5x5_reduce
I0507 21:21:47.757103 22664 net.cpp:406] inception_3a/relu_5x5_reduce <- inception_3a/5x5_reduce
I0507 21:21:47.757110 22664 net.cpp:367] inception_3a/relu_5x5_reduce -> inception_3a/5x5_reduce (in-place)
I0507 21:21:47.758879 22664 net.cpp:122] Setting up inception_3a/relu_5x5_reduce
I0507 21:21:47.758890 22664 net.cpp:129] Top shape: 32 16 28 28 (401408)
I0507 21:21:47.758894 22664 net.cpp:137] Memory required for data: 716112384
I0507 21:21:47.758898 22664 layer_factory.hpp:77] Creating layer inception_3a/5x5
I0507 21:21:47.758913 22664 net.cpp:84] Creating Layer inception_3a/5x5
I0507 21:21:47.758918 22664 net.cpp:406] inception_3a/5x5 <- inception_3a/5x5_reduce
I0507 21:21:47.758925 22664 net.cpp:380] inception_3a/5x5 -> inception_3a/5x5
I0507 21:21:47.761265 22664 net.cpp:122] Setting up inception_3a/5x5
I0507 21:21:47.761274 22664 net.cpp:129] Top shape: 32 32 28 28 (802816)
I0507 21:21:47.761278 22664 net.cpp:137] Memory required for data: 719323648
I0507 21:21:47.761301 22664 layer_factory.hpp:77] Creating layer inception_3a/relu_5x5
I0507 21:21:47.761309 22664 net.cpp:84] Creating Layer inception_3a/relu_5x5
I0507 21:21:47.761314 22664 net.cpp:406] inception_3a/relu_5x5 <- inception_3a/5x5
I0507 21:21:47.761319 22664 net.cpp:367] inception_3a/relu_5x5 -> inception_3a/5x5 (in-place)
I0507 21:21:47.761828 22664 net.cpp:122] Setting up inception_3a/relu_5x5
I0507 21:21:47.761837 22664 net.cpp:129] Top shape: 32 32 28 28 (802816)
I0507 21:21:47.761842 22664 net.cpp:137] Memory required for data: 722534912
I0507 21:21:47.761845 22664 layer_factory.hpp:77] Creating layer inception_3a/pool
I0507 21:21:47.761854 22664 net.cpp:84] Creating Layer inception_3a/pool
I0507 21:21:47.761859 22664 net.cpp:406] inception_3a/pool <- pool2/3x3_s2_pool2/3x3_s2_0_split_3
I0507 21:21:47.761864 22664 net.cpp:380] inception_3a/pool -> inception_3a/pool
I0507 21:21:47.761904 22664 net.cpp:122] Setting up inception_3a/pool
I0507 21:21:47.761910 22664 net.cpp:129] Top shape: 32 192 28 28 (4816896)
I0507 21:21:47.761914 22664 net.cpp:137] Memory required for data: 741802496
I0507 21:21:47.761917 22664 layer_factory.hpp:77] Creating layer inception_3a/pool_proj
I0507 21:21:47.761927 22664 net.cpp:84] Creating Layer inception_3a/pool_proj
I0507 21:21:47.761931 22664 net.cpp:406] inception_3a/pool_proj <- inception_3a/pool
I0507 21:21:47.761938 22664 net.cpp:380] inception_3a/pool_proj -> inception_3a/pool_proj
I0507 21:21:47.763659 22664 net.cpp:122] Setting up inception_3a/pool_proj
I0507 21:21:47.763669 22664 net.cpp:129] Top shape: 32 32 28 28 (802816)
I0507 21:21:47.763675 22664 net.cpp:137] Memory required for data: 745013760
I0507 21:21:47.763687 22664 layer_factory.hpp:77] Creating layer inception_3a/relu_pool_proj
I0507 21:21:47.763695 22664 net.cpp:84] Creating Layer inception_3a/relu_pool_proj
I0507 21:21:47.763700 22664 net.cpp:406] inception_3a/relu_pool_proj <- inception_3a/pool_proj
I0507 21:21:47.763706 22664 net.cpp:367] inception_3a/relu_pool_proj -> inception_3a/pool_proj (in-place)
I0507 21:21:47.764047 22664 net.cpp:122] Setting up inception_3a/relu_pool_proj
I0507 21:21:47.764055 22664 net.cpp:129] Top shape: 32 32 28 28 (802816)
I0507 21:21:47.764060 22664 net.cpp:137] Memory required for data: 748225024
I0507 21:21:47.764065 22664 layer_factory.hpp:77] Creating layer inception_3a/output
I0507 21:21:47.764073 22664 net.cpp:84] Creating Layer inception_3a/output
I0507 21:21:47.764077 22664 net.cpp:406] inception_3a/output <- inception_3a/1x1
I0507 21:21:47.764082 22664 net.cpp:406] inception_3a/output <- inception_3a/3x3
I0507 21:21:47.764087 22664 net.cpp:406] inception_3a/output <- inception_3a/5x5
I0507 21:21:47.764091 22664 net.cpp:406] inception_3a/output <- inception_3a/pool_proj
I0507 21:21:47.764096 22664 net.cpp:380] inception_3a/output -> inception_3a/output
I0507 21:21:47.764122 22664 net.cpp:122] Setting up inception_3a/output
I0507 21:21:47.764127 22664 net.cpp:129] Top shape: 32 256 28 28 (6422528)
I0507 21:21:47.764130 22664 net.cpp:137] Memory required for data: 773915136
I0507 21:21:47.764134 22664 layer_factory.hpp:77] Creating layer inception_3a/output_inception_3a/output_0_split
I0507 21:21:47.764142 22664 net.cpp:84] Creating Layer inception_3a/output_inception_3a/output_0_split
I0507 21:21:47.764145 22664 net.cpp:406] inception_3a/output_inception_3a/output_0_split <- inception_3a/output
I0507 21:21:47.764155 22664 net.cpp:380] inception_3a/output_inception_3a/output_0_split -> inception_3a/output_inception_3a/output_0_split_0
I0507 21:21:47.764163 22664 net.cpp:380] inception_3a/output_inception_3a/output_0_split -> inception_3a/output_inception_3a/output_0_split_1
I0507 21:21:47.764168 22664 net.cpp:380] inception_3a/output_inception_3a/output_0_split -> inception_3a/output_inception_3a/output_0_split_2
I0507 21:21:47.764175 22664 net.cpp:380] inception_3a/output_inception_3a/output_0_split -> inception_3a/output_inception_3a/output_0_split_3
I0507 21:21:47.764219 22664 net.cpp:122] Setting up inception_3a/output_inception_3a/output_0_split
I0507 21:21:47.764236 22664 net.cpp:129] Top shape: 32 256 28 28 (6422528)
I0507 21:21:47.764241 22664 net.cpp:129] Top shape: 32 256 28 28 (6422528)
I0507 21:21:47.764245 22664 net.cpp:129] Top shape: 32 256 28 28 (6422528)
I0507 21:21:47.764250 22664 net.cpp:129] Top shape: 32 256 28 28 (6422528)
I0507 21:21:47.764252 22664 net.cpp:137] Memory required for data: 876675584
I0507 21:21:47.764257 22664 layer_factory.hpp:77] Creating layer inception_3b/1x1
I0507 21:21:47.764267 22664 net.cpp:84] Creating Layer inception_3b/1x1
I0507 21:21:47.764271 22664 net.cpp:406] inception_3b/1x1 <- inception_3a/output_inception_3a/output_0_split_0
I0507 21:21:47.764277 22664 net.cpp:380] inception_3b/1x1 -> inception_3b/1x1
I0507 21:21:47.767258 22664 net.cpp:122] Setting up inception_3b/1x1
I0507 21:21:47.767271 22664 net.cpp:129] Top shape: 32 128 28 28 (3211264)
I0507 21:21:47.767273 22664 net.cpp:137] Memory required for data: 889520640
I0507 21:21:47.767280 22664 layer_factory.hpp:77] Creating layer inception_3b/relu_1x1
I0507 21:21:47.767287 22664 net.cpp:84] Creating Layer inception_3b/relu_1x1
I0507 21:21:47.767292 22664 net.cpp:406] inception_3b/relu_1x1 <- inception_3b/1x1
I0507 21:21:47.767299 22664 net.cpp:367] inception_3b/relu_1x1 -> inception_3b/1x1 (in-place)
I0507 21:21:47.767798 22664 net.cpp:122] Setting up inception_3b/relu_1x1
I0507 21:21:47.767808 22664 net.cpp:129] Top shape: 32 128 28 28 (3211264)
I0507 21:21:47.767813 22664 net.cpp:137] Memory required for data: 902365696
I0507 21:21:47.767819 22664 layer_factory.hpp:77] Creating layer inception_3b/3x3_reduce
I0507 21:21:47.767829 22664 net.cpp:84] Creating Layer inception_3b/3x3_reduce
I0507 21:21:47.767833 22664 net.cpp:406] inception_3b/3x3_reduce <- inception_3a/output_inception_3a/output_0_split_1
I0507 21:21:47.767841 22664 net.cpp:380] inception_3b/3x3_reduce -> inception_3b/3x3_reduce
I0507 21:21:47.770148 22664 net.cpp:122] Setting up inception_3b/3x3_reduce
I0507 21:21:47.770161 22664 net.cpp:129] Top shape: 32 128 28 28 (3211264)
I0507 21:21:47.770165 22664 net.cpp:137] Memory required for data: 915210752
I0507 21:21:47.770171 22664 layer_factory.hpp:77] Creating layer inception_3b/relu_3x3_reduce
I0507 21:21:47.770179 22664 net.cpp:84] Creating Layer inception_3b/relu_3x3_reduce
I0507 21:21:47.770182 22664 net.cpp:406] inception_3b/relu_3x3_reduce <- inception_3b/3x3_reduce
I0507 21:21:47.770189 22664 net.cpp:367] inception_3b/relu_3x3_reduce -> inception_3b/3x3_reduce (in-place)
I0507 21:21:47.770705 22664 net.cpp:122] Setting up inception_3b/relu_3x3_reduce
I0507 21:21:47.770715 22664 net.cpp:129] Top shape: 32 128 28 28 (3211264)
I0507 21:21:47.770720 22664 net.cpp:137] Memory required for data: 928055808
I0507 21:21:47.770723 22664 layer_factory.hpp:77] Creating layer inception_3b/3x3
I0507 21:21:47.770741 22664 net.cpp:84] Creating Layer inception_3b/3x3
I0507 21:21:47.770745 22664 net.cpp:406] inception_3b/3x3 <- inception_3b/3x3_reduce
I0507 21:21:47.770752 22664 net.cpp:380] inception_3b/3x3 -> inception_3b/3x3
I0507 21:21:47.773488 22664 net.cpp:122] Setting up inception_3b/3x3
I0507 21:21:47.773500 22664 net.cpp:129] Top shape: 32 192 28 28 (4816896)
I0507 21:21:47.773505 22664 net.cpp:137] Memory required for data: 947323392
I0507 21:21:47.773512 22664 layer_factory.hpp:77] Creating layer inception_3b/relu_3x3
I0507 21:21:47.773520 22664 net.cpp:84] Creating Layer inception_3b/relu_3x3
I0507 21:21:47.773527 22664 net.cpp:406] inception_3b/relu_3x3 <- inception_3b/3x3
I0507 21:21:47.773533 22664 net.cpp:367] inception_3b/relu_3x3 -> inception_3b/3x3 (in-place)
I0507 21:21:47.775264 22664 net.cpp:122] Setting up inception_3b/relu_3x3
I0507 21:21:47.775275 22664 net.cpp:129] Top shape: 32 192 28 28 (4816896)
I0507 21:21:47.775279 22664 net.cpp:137] Memory required for data: 966590976
I0507 21:21:47.775283 22664 layer_factory.hpp:77] Creating layer inception_3b/5x5_reduce
I0507 21:21:47.775295 22664 net.cpp:84] Creating Layer inception_3b/5x5_reduce
I0507 21:21:47.775300 22664 net.cpp:406] inception_3b/5x5_reduce <- inception_3a/output_inception_3a/output_0_split_2
I0507 21:21:47.775322 22664 net.cpp:380] inception_3b/5x5_reduce -> inception_3b/5x5_reduce
I0507 21:21:47.776888 22664 net.cpp:122] Setting up inception_3b/5x5_reduce
I0507 21:21:47.776898 22664 net.cpp:129] Top shape: 32 32 28 28 (802816)
I0507 21:21:47.776902 22664 net.cpp:137] Memory required for data: 969802240
I0507 21:21:47.776909 22664 layer_factory.hpp:77] Creating layer inception_3b/relu_5x5_reduce
I0507 21:21:47.776917 22664 net.cpp:84] Creating Layer inception_3b/relu_5x5_reduce
I0507 21:21:47.776921 22664 net.cpp:406] inception_3b/relu_5x5_reduce <- inception_3b/5x5_reduce
I0507 21:21:47.776927 22664 net.cpp:367] inception_3b/relu_5x5_reduce -> inception_3b/5x5_reduce (in-place)
I0507 21:21:47.777432 22664 net.cpp:122] Setting up inception_3b/relu_5x5_reduce
I0507 21:21:47.777441 22664 net.cpp:129] Top shape: 32 32 28 28 (802816)
I0507 21:21:47.777446 22664 net.cpp:137] Memory required for data: 973013504
I0507 21:21:47.777451 22664 layer_factory.hpp:77] Creating layer inception_3b/5x5
I0507 21:21:47.777462 22664 net.cpp:84] Creating Layer inception_3b/5x5
I0507 21:21:47.777465 22664 net.cpp:406] inception_3b/5x5 <- inception_3b/5x5_reduce
I0507 21:21:47.777473 22664 net.cpp:380] inception_3b/5x5 -> inception_3b/5x5
I0507 21:21:47.779520 22664 net.cpp:122] Setting up inception_3b/5x5
I0507 21:21:47.779531 22664 net.cpp:129] Top shape: 32 96 28 28 (2408448)
I0507 21:21:47.779534 22664 net.cpp:137] Memory required for data: 982647296
I0507 21:21:47.779541 22664 layer_factory.hpp:77] Creating layer inception_3b/relu_5x5
I0507 21:21:47.779547 22664 net.cpp:84] Creating Layer inception_3b/relu_5x5
I0507 21:21:47.779551 22664 net.cpp:406] inception_3b/relu_5x5 <- inception_3b/5x5
I0507 21:21:47.779559 22664 net.cpp:367] inception_3b/relu_5x5 -> inception_3b/5x5 (in-place)
I0507 21:21:47.779901 22664 net.cpp:122] Setting up inception_3b/relu_5x5
I0507 21:21:47.779909 22664 net.cpp:129] Top shape: 32 96 28 28 (2408448)
I0507 21:21:47.779913 22664 net.cpp:137] Memory required for data: 992281088
I0507 21:21:47.779917 22664 layer_factory.hpp:77] Creating layer inception_3b/pool
I0507 21:21:47.779925 22664 net.cpp:84] Creating Layer inception_3b/pool
I0507 21:21:47.779929 22664 net.cpp:406] inception_3b/pool <- inception_3a/output_inception_3a/output_0_split_3
I0507 21:21:47.779935 22664 net.cpp:380] inception_3b/pool -> inception_3b/pool
I0507 21:21:47.779970 22664 net.cpp:122] Setting up inception_3b/pool
I0507 21:21:47.779976 22664 net.cpp:129] Top shape: 32 256 28 28 (6422528)
I0507 21:21:47.779979 22664 net.cpp:137] Memory required for data: 1017971200
I0507 21:21:47.779983 22664 layer_factory.hpp:77] Creating layer inception_3b/pool_proj
I0507 21:21:47.779991 22664 net.cpp:84] Creating Layer inception_3b/pool_proj
I0507 21:21:47.779995 22664 net.cpp:406] inception_3b/pool_proj <- inception_3b/pool
I0507 21:21:47.780002 22664 net.cpp:380] inception_3b/pool_proj -> inception_3b/pool_proj
I0507 21:21:47.782896 22664 net.cpp:122] Setting up inception_3b/pool_proj
I0507 21:21:47.782907 22664 net.cpp:129] Top shape: 32 64 28 28 (1605632)
I0507 21:21:47.782912 22664 net.cpp:137] Memory required for data: 1024393728
I0507 21:21:47.782918 22664 layer_factory.hpp:77] Creating layer inception_3b/relu_pool_proj
I0507 21:21:47.782927 22664 net.cpp:84] Creating Layer inception_3b/relu_pool_proj
I0507 21:21:47.782932 22664 net.cpp:406] inception_3b/relu_pool_proj <- inception_3b/pool_proj
I0507 21:21:47.782938 22664 net.cpp:367] inception_3b/relu_pool_proj -> inception_3b/pool_proj (in-place)
I0507 21:21:47.783279 22664 net.cpp:122] Setting up inception_3b/relu_pool_proj
I0507 21:21:47.783289 22664 net.cpp:129] Top shape: 32 64 28 28 (1605632)
I0507 21:21:47.783294 22664 net.cpp:137] Memory required for data: 1030816256
I0507 21:21:47.783298 22664 layer_factory.hpp:77] Creating layer inception_3b/output
I0507 21:21:47.783304 22664 net.cpp:84] Creating Layer inception_3b/output
I0507 21:21:47.783308 22664 net.cpp:406] inception_3b/output <- inception_3b/1x1
I0507 21:21:47.783313 22664 net.cpp:406] inception_3b/output <- inception_3b/3x3
I0507 21:21:47.783334 22664 net.cpp:406] inception_3b/output <- inception_3b/5x5
I0507 21:21:47.783337 22664 net.cpp:406] inception_3b/output <- inception_3b/pool_proj
I0507 21:21:47.783347 22664 net.cpp:380] inception_3b/output -> inception_3b/output
I0507 21:21:47.783372 22664 net.cpp:122] Setting up inception_3b/output
I0507 21:21:47.783378 22664 net.cpp:129] Top shape: 32 480 28 28 (12042240)
I0507 21:21:47.783381 22664 net.cpp:137] Memory required for data: 1078985216
I0507 21:21:47.783385 22664 layer_factory.hpp:77] Creating layer pool3/3x3_s2
I0507 21:21:47.783393 22664 net.cpp:84] Creating Layer pool3/3x3_s2
I0507 21:21:47.783397 22664 net.cpp:406] pool3/3x3_s2 <- inception_3b/output
I0507 21:21:47.783403 22664 net.cpp:380] pool3/3x3_s2 -> pool3/3x3_s2
I0507 21:21:47.783434 22664 net.cpp:122] Setting up pool3/3x3_s2
I0507 21:21:47.783439 22664 net.cpp:129] Top shape: 32 480 14 14 (3010560)
I0507 21:21:47.783442 22664 net.cpp:137] Memory required for data: 1091027456
I0507 21:21:47.783445 22664 layer_factory.hpp:77] Creating layer pool3/3x3_s2_pool3/3x3_s2_0_split
I0507 21:21:47.783452 22664 net.cpp:84] Creating Layer pool3/3x3_s2_pool3/3x3_s2_0_split
I0507 21:21:47.783455 22664 net.cpp:406] pool3/3x3_s2_pool3/3x3_s2_0_split <- pool3/3x3_s2
I0507 21:21:47.783463 22664 net.cpp:380] pool3/3x3_s2_pool3/3x3_s2_0_split -> pool3/3x3_s2_pool3/3x3_s2_0_split_0
I0507 21:21:47.783469 22664 net.cpp:380] pool3/3x3_s2_pool3/3x3_s2_0_split -> pool3/3x3_s2_pool3/3x3_s2_0_split_1
I0507 21:21:47.783474 22664 net.cpp:380] pool3/3x3_s2_pool3/3x3_s2_0_split -> pool3/3x3_s2_pool3/3x3_s2_0_split_2
I0507 21:21:47.783481 22664 net.cpp:380] pool3/3x3_s2_pool3/3x3_s2_0_split -> pool3/3x3_s2_pool3/3x3_s2_0_split_3
I0507 21:21:47.783524 22664 net.cpp:122] Setting up pool3/3x3_s2_pool3/3x3_s2_0_split
I0507 21:21:47.783529 22664 net.cpp:129] Top shape: 32 480 14 14 (3010560)
I0507 21:21:47.783533 22664 net.cpp:129] Top shape: 32 480 14 14 (3010560)
I0507 21:21:47.783536 22664 net.cpp:129] Top shape: 32 480 14 14 (3010560)
I0507 21:21:47.783540 22664 net.cpp:129] Top shape: 32 480 14 14 (3010560)
I0507 21:21:47.783543 22664 net.cpp:137] Memory required for data: 1139196416
I0507 21:21:47.783547 22664 layer_factory.hpp:77] Creating layer inception_4a/1x1
I0507 21:21:47.783556 22664 net.cpp:84] Creating Layer inception_4a/1x1
I0507 21:21:47.783560 22664 net.cpp:406] inception_4a/1x1 <- pool3/3x3_s2_pool3/3x3_s2_0_split_0
I0507 21:21:47.783567 22664 net.cpp:380] inception_4a/1x1 -> inception_4a/1x1
I0507 21:21:47.785821 22664 net.cpp:122] Setting up inception_4a/1x1
I0507 21:21:47.785832 22664 net.cpp:129] Top shape: 32 192 14 14 (1204224)
I0507 21:21:47.785836 22664 net.cpp:137] Memory required for data: 1144013312
I0507 21:21:47.785842 22664 layer_factory.hpp:77] Creating layer inception_4a/relu_1x1
I0507 21:21:47.785851 22664 net.cpp:84] Creating Layer inception_4a/relu_1x1
I0507 21:21:47.785856 22664 net.cpp:406] inception_4a/relu_1x1 <- inception_4a/1x1
I0507 21:21:47.785861 22664 net.cpp:367] inception_4a/relu_1x1 -> inception_4a/1x1 (in-place)
I0507 21:21:47.786427 22664 net.cpp:122] Setting up inception_4a/relu_1x1
I0507 21:21:47.786437 22664 net.cpp:129] Top shape: 32 192 14 14 (1204224)
I0507 21:21:47.786440 22664 net.cpp:137] Memory required for data: 1148830208
I0507 21:21:47.786444 22664 layer_factory.hpp:77] Creating layer inception_4a/3x3_reduce
I0507 21:21:47.786454 22664 net.cpp:84] Creating Layer inception_4a/3x3_reduce
I0507 21:21:47.786459 22664 net.cpp:406] inception_4a/3x3_reduce <- pool3/3x3_s2_pool3/3x3_s2_0_split_1
I0507 21:21:47.786469 22664 net.cpp:380] inception_4a/3x3_reduce -> inception_4a/3x3_reduce
I0507 21:21:47.790191 22664 net.cpp:122] Setting up inception_4a/3x3_reduce
I0507 21:21:47.790205 22664 net.cpp:129] Top shape: 32 96 14 14 (602112)
I0507 21:21:47.790210 22664 net.cpp:137] Memory required for data: 1151238656
I0507 21:21:47.790227 22664 layer_factory.hpp:77] Creating layer inception_4a/relu_3x3_reduce
I0507 21:21:47.790236 22664 net.cpp:84] Creating Layer inception_4a/relu_3x3_reduce
I0507 21:21:47.790263 22664 net.cpp:406] inception_4a/relu_3x3_reduce <- inception_4a/3x3_reduce
I0507 21:21:47.790273 22664 net.cpp:367] inception_4a/relu_3x3_reduce -> inception_4a/3x3_reduce (in-place)
I0507 21:21:47.791985 22664 net.cpp:122] Setting up inception_4a/relu_3x3_reduce
I0507 21:21:47.791996 22664 net.cpp:129] Top shape: 32 96 14 14 (602112)
I0507 21:21:47.791999 22664 net.cpp:137] Memory required for data: 1153647104
I0507 21:21:47.792003 22664 layer_factory.hpp:77] Creating layer inception_4a/3x3
I0507 21:21:47.792014 22664 net.cpp:84] Creating Layer inception_4a/3x3
I0507 21:21:47.792021 22664 net.cpp:406] inception_4a/3x3 <- inception_4a/3x3_reduce
I0507 21:21:47.792028 22664 net.cpp:380] inception_4a/3x3 -> inception_4a/3x3
I0507 21:21:47.794559 22664 net.cpp:122] Setting up inception_4a/3x3
I0507 21:21:47.794569 22664 net.cpp:129] Top shape: 32 208 14 14 (1304576)
I0507 21:21:47.794574 22664 net.cpp:137] Memory required for data: 1158865408
I0507 21:21:47.794581 22664 layer_factory.hpp:77] Creating layer inception_4a/relu_3x3
I0507 21:21:47.794589 22664 net.cpp:84] Creating Layer inception_4a/relu_3x3
I0507 21:21:47.794593 22664 net.cpp:406] inception_4a/relu_3x3 <- inception_4a/3x3
I0507 21:21:47.794598 22664 net.cpp:367] inception_4a/relu_3x3 -> inception_4a/3x3 (in-place)
I0507 21:21:47.795104 22664 net.cpp:122] Setting up inception_4a/relu_3x3
I0507 21:21:47.795114 22664 net.cpp:129] Top shape: 32 208 14 14 (1304576)
I0507 21:21:47.795117 22664 net.cpp:137] Memory required for data: 1164083712
I0507 21:21:47.795121 22664 layer_factory.hpp:77] Creating layer inception_4a/5x5_reduce
I0507 21:21:47.795131 22664 net.cpp:84] Creating Layer inception_4a/5x5_reduce
I0507 21:21:47.795137 22664 net.cpp:406] inception_4a/5x5_reduce <- pool3/3x3_s2_pool3/3x3_s2_0_split_2
I0507 21:21:47.795145 22664 net.cpp:380] inception_4a/5x5_reduce -> inception_4a/5x5_reduce
I0507 21:21:47.796715 22664 net.cpp:122] Setting up inception_4a/5x5_reduce
I0507 21:21:47.796725 22664 net.cpp:129] Top shape: 32 16 14 14 (100352)
I0507 21:21:47.796730 22664 net.cpp:137] Memory required for data: 1164485120
I0507 21:21:47.796736 22664 layer_factory.hpp:77] Creating layer inception_4a/relu_5x5_reduce
I0507 21:21:47.796744 22664 net.cpp:84] Creating Layer inception_4a/relu_5x5_reduce
I0507 21:21:47.796748 22664 net.cpp:406] inception_4a/relu_5x5_reduce <- inception_4a/5x5_reduce
I0507 21:21:47.796754 22664 net.cpp:367] inception_4a/relu_5x5_reduce -> inception_4a/5x5_reduce (in-place)
I0507 21:21:47.797266 22664 net.cpp:122] Setting up inception_4a/relu_5x5_reduce
I0507 21:21:47.797276 22664 net.cpp:129] Top shape: 32 16 14 14 (100352)
I0507 21:21:47.797281 22664 net.cpp:137] Memory required for data: 1164886528
I0507 21:21:47.797283 22664 layer_factory.hpp:77] Creating layer inception_4a/5x5
I0507 21:21:47.797293 22664 net.cpp:84] Creating Layer inception_4a/5x5
I0507 21:21:47.797298 22664 net.cpp:406] inception_4a/5x5 <- inception_4a/5x5_reduce
I0507 21:21:47.797307 22664 net.cpp:380] inception_4a/5x5 -> inception_4a/5x5
I0507 21:21:47.800436 22664 net.cpp:122] Setting up inception_4a/5x5
I0507 21:21:47.800449 22664 net.cpp:129] Top shape: 32 48 14 14 (301056)
I0507 21:21:47.800453 22664 net.cpp:137] Memory required for data: 1166090752
I0507 21:21:47.800460 22664 layer_factory.hpp:77] Creating layer inception_4a/relu_5x5
I0507 21:21:47.800467 22664 net.cpp:84] Creating Layer inception_4a/relu_5x5
I0507 21:21:47.800472 22664 net.cpp:406] inception_4a/relu_5x5 <- inception_4a/5x5
I0507 21:21:47.800477 22664 net.cpp:367] inception_4a/relu_5x5 -> inception_4a/5x5 (in-place)
I0507 21:21:47.800837 22664 net.cpp:122] Setting up inception_4a/relu_5x5
I0507 21:21:47.800846 22664 net.cpp:129] Top shape: 32 48 14 14 (301056)
I0507 21:21:47.800849 22664 net.cpp:137] Memory required for data: 1167294976
I0507 21:21:47.800853 22664 layer_factory.hpp:77] Creating layer inception_4a/pool
I0507 21:21:47.800860 22664 net.cpp:84] Creating Layer inception_4a/pool
I0507 21:21:47.800864 22664 net.cpp:406] inception_4a/pool <- pool3/3x3_s2_pool3/3x3_s2_0_split_3
I0507 21:21:47.800886 22664 net.cpp:380] inception_4a/pool -> inception_4a/pool
I0507 21:21:47.800926 22664 net.cpp:122] Setting up inception_4a/pool
I0507 21:21:47.800932 22664 net.cpp:129] Top shape: 32 480 14 14 (3010560)
I0507 21:21:47.800935 22664 net.cpp:137] Memory required for data: 1179337216
I0507 21:21:47.800940 22664 layer_factory.hpp:77] Creating layer inception_4a/pool_proj
I0507 21:21:47.800951 22664 net.cpp:84] Creating Layer inception_4a/pool_proj
I0507 21:21:47.800956 22664 net.cpp:406] inception_4a/pool_proj <- inception_4a/pool
I0507 21:21:47.800961 22664 net.cpp:380] inception_4a/pool_proj -> inception_4a/pool_proj
I0507 21:21:47.802809 22664 net.cpp:122] Setting up inception_4a/pool_proj
I0507 21:21:47.802821 22664 net.cpp:129] Top shape: 32 64 14 14 (401408)
I0507 21:21:47.802825 22664 net.cpp:137] Memory required for data: 1180942848
I0507 21:21:47.802832 22664 layer_factory.hpp:77] Creating layer inception_4a/relu_pool_proj
I0507 21:21:47.802839 22664 net.cpp:84] Creating Layer inception_4a/relu_pool_proj
I0507 21:21:47.802842 22664 net.cpp:406] inception_4a/relu_pool_proj <- inception_4a/pool_proj
I0507 21:21:47.802848 22664 net.cpp:367] inception_4a/relu_pool_proj -> inception_4a/pool_proj (in-place)
I0507 21:21:47.803357 22664 net.cpp:122] Setting up inception_4a/relu_pool_proj
I0507 21:21:47.803366 22664 net.cpp:129] Top shape: 32 64 14 14 (401408)
I0507 21:21:47.803370 22664 net.cpp:137] Memory required for data: 1182548480
I0507 21:21:47.803375 22664 layer_factory.hpp:77] Creating layer inception_4a/output
I0507 21:21:47.803382 22664 net.cpp:84] Creating Layer inception_4a/output
I0507 21:21:47.803387 22664 net.cpp:406] inception_4a/output <- inception_4a/1x1
I0507 21:21:47.803392 22664 net.cpp:406] inception_4a/output <- inception_4a/3x3
I0507 21:21:47.803396 22664 net.cpp:406] inception_4a/output <- inception_4a/5x5
I0507 21:21:47.803400 22664 net.cpp:406] inception_4a/output <- inception_4a/pool_proj
I0507 21:21:47.803405 22664 net.cpp:380] inception_4a/output -> inception_4a/output
I0507 21:21:47.803431 22664 net.cpp:122] Setting up inception_4a/output
I0507 21:21:47.803436 22664 net.cpp:129] Top shape: 32 512 14 14 (3211264)
I0507 21:21:47.803439 22664 net.cpp:137] Memory required for data: 1195393536
I0507 21:21:47.803443 22664 layer_factory.hpp:77] Creating layer inception_4a/output_inception_4a/output_0_split
I0507 21:21:47.803452 22664 net.cpp:84] Creating Layer inception_4a/output_inception_4a/output_0_split
I0507 21:21:47.803455 22664 net.cpp:406] inception_4a/output_inception_4a/output_0_split <- inception_4a/output
I0507 21:21:47.803460 22664 net.cpp:380] inception_4a/output_inception_4a/output_0_split -> inception_4a/output_inception_4a/output_0_split_0
I0507 21:21:47.803469 22664 net.cpp:380] inception_4a/output_inception_4a/output_0_split -> inception_4a/output_inception_4a/output_0_split_1
I0507 21:21:47.803474 22664 net.cpp:380] inception_4a/output_inception_4a/output_0_split -> inception_4a/output_inception_4a/output_0_split_2
I0507 21:21:47.803480 22664 net.cpp:380] inception_4a/output_inception_4a/output_0_split -> inception_4a/output_inception_4a/output_0_split_3
I0507 21:21:47.803485 22664 net.cpp:380] inception_4a/output_inception_4a/output_0_split -> inception_4a/output_inception_4a/output_0_split_4
I0507 21:21:47.803540 22664 net.cpp:122] Setting up inception_4a/output_inception_4a/output_0_split
I0507 21:21:47.803547 22664 net.cpp:129] Top shape: 32 512 14 14 (3211264)
I0507 21:21:47.803551 22664 net.cpp:129] Top shape: 32 512 14 14 (3211264)
I0507 21:21:47.803555 22664 net.cpp:129] Top shape: 32 512 14 14 (3211264)
I0507 21:21:47.803558 22664 net.cpp:129] Top shape: 32 512 14 14 (3211264)
I0507 21:21:47.803562 22664 net.cpp:129] Top shape: 32 512 14 14 (3211264)
I0507 21:21:47.803565 22664 net.cpp:137] Memory required for data: 1259618816
I0507 21:21:47.803568 22664 layer_factory.hpp:77] Creating layer loss1/ave_pool
I0507 21:21:47.803573 22664 net.cpp:84] Creating Layer loss1/ave_pool
I0507 21:21:47.803577 22664 net.cpp:406] loss1/ave_pool <- inception_4a/output_inception_4a/output_0_split_0
I0507 21:21:47.803592 22664 net.cpp:380] loss1/ave_pool -> loss1/ave_pool
I0507 21:21:47.803966 22664 net.cpp:122] Setting up loss1/ave_pool
I0507 21:21:47.803973 22664 net.cpp:129] Top shape: 32 512 4 4 (262144)
I0507 21:21:47.803977 22664 net.cpp:137] Memory required for data: 1260667392
I0507 21:21:47.803982 22664 layer_factory.hpp:77] Creating layer loss1/conv
I0507 21:21:47.803992 22664 net.cpp:84] Creating Layer loss1/conv
I0507 21:21:47.803997 22664 net.cpp:406] loss1/conv <- loss1/ave_pool
I0507 21:21:47.804003 22664 net.cpp:380] loss1/conv -> loss1/conv
I0507 21:21:47.811597 22664 net.cpp:122] Setting up loss1/conv
I0507 21:21:47.811611 22664 net.cpp:129] Top shape: 32 128 4 4 (65536)
I0507 21:21:47.811616 22664 net.cpp:137] Memory required for data: 1260929536
I0507 21:21:47.811623 22664 layer_factory.hpp:77] Creating layer loss1/relu_conv
I0507 21:21:47.811632 22664 net.cpp:84] Creating Layer loss1/relu_conv
I0507 21:21:47.811636 22664 net.cpp:406] loss1/relu_conv <- loss1/conv
I0507 21:21:47.811641 22664 net.cpp:367] loss1/relu_conv -> loss1/conv (in-place)
I0507 21:21:47.812158 22664 net.cpp:122] Setting up loss1/relu_conv
I0507 21:21:47.812168 22664 net.cpp:129] Top shape: 32 128 4 4 (65536)
I0507 21:21:47.812172 22664 net.cpp:137] Memory required for data: 1261191680
I0507 21:21:47.812176 22664 layer_factory.hpp:77] Creating layer loss1/fc
I0507 21:21:47.812184 22664 net.cpp:84] Creating Layer loss1/fc
I0507 21:21:47.812188 22664 net.cpp:406] loss1/fc <- loss1/conv
I0507 21:21:47.812196 22664 net.cpp:380] loss1/fc -> loss1/fc
I0507 21:21:47.831408 22664 net.cpp:122] Setting up loss1/fc
I0507 21:21:47.831429 22664 net.cpp:129] Top shape: 32 1024 (32768)
I0507 21:21:47.831432 22664 net.cpp:137] Memory required for data: 1261322752
I0507 21:21:47.831441 22664 layer_factory.hpp:77] Creating layer loss1/relu_fc
I0507 21:21:47.831452 22664 net.cpp:84] Creating Layer loss1/relu_fc
I0507 21:21:47.831457 22664 net.cpp:406] loss1/relu_fc <- loss1/fc
I0507 21:21:47.831463 22664 net.cpp:367] loss1/relu_fc -> loss1/fc (in-place)
I0507 21:21:47.831874 22664 net.cpp:122] Setting up loss1/relu_fc
I0507 21:21:47.831883 22664 net.cpp:129] Top shape: 32 1024 (32768)
I0507 21:21:47.831887 22664 net.cpp:137] Memory required for data: 1261453824
I0507 21:21:47.831890 22664 layer_factory.hpp:77] Creating layer loss1/drop_fc
I0507 21:21:47.831914 22664 net.cpp:84] Creating Layer loss1/drop_fc
I0507 21:21:47.831918 22664 net.cpp:406] loss1/drop_fc <- loss1/fc
I0507 21:21:47.831923 22664 net.cpp:367] loss1/drop_fc -> loss1/fc (in-place)
I0507 21:21:47.831949 22664 net.cpp:122] Setting up loss1/drop_fc
I0507 21:21:47.831954 22664 net.cpp:129] Top shape: 32 1024 (32768)
I0507 21:21:47.831959 22664 net.cpp:137] Memory required for data: 1261584896
I0507 21:21:47.831962 22664 layer_factory.hpp:77] Creating layer loss1/classifier
I0507 21:21:47.831970 22664 net.cpp:84] Creating Layer loss1/classifier
I0507 21:21:47.831975 22664 net.cpp:406] loss1/classifier <- loss1/fc
I0507 21:21:47.831982 22664 net.cpp:380] loss1/classifier -> loss1/classifier
I0507 21:21:47.833775 22664 net.cpp:122] Setting up loss1/classifier
I0507 21:21:47.833784 22664 net.cpp:129] Top shape: 32 196 (6272)
I0507 21:21:47.833787 22664 net.cpp:137] Memory required for data: 1261609984
I0507 21:21:47.833793 22664 layer_factory.hpp:77] Creating layer loss1/loss
I0507 21:21:47.833801 22664 net.cpp:84] Creating Layer loss1/loss
I0507 21:21:47.833806 22664 net.cpp:406] loss1/loss <- loss1/classifier
I0507 21:21:47.833811 22664 net.cpp:406] loss1/loss <- label_train-data_1_split_0
I0507 21:21:47.833817 22664 net.cpp:380] loss1/loss -> loss1/loss
I0507 21:21:47.833827 22664 layer_factory.hpp:77] Creating layer loss1/loss
I0507 21:21:47.834447 22664 net.cpp:122] Setting up loss1/loss
I0507 21:21:47.834456 22664 net.cpp:129] Top shape: (1)
I0507 21:21:47.834460 22664 net.cpp:132]     with loss weight 0.3
I0507 21:21:47.834498 22664 net.cpp:137] Memory required for data: 1261609988
I0507 21:21:47.834502 22664 layer_factory.hpp:77] Creating layer inception_4b/1x1
I0507 21:21:47.834532 22664 net.cpp:84] Creating Layer inception_4b/1x1
I0507 21:21:47.834537 22664 net.cpp:406] inception_4b/1x1 <- inception_4a/output_inception_4a/output_0_split_1
I0507 21:21:47.834544 22664 net.cpp:380] inception_4b/1x1 -> inception_4b/1x1
I0507 21:21:47.836513 22664 net.cpp:122] Setting up inception_4b/1x1
I0507 21:21:47.836522 22664 net.cpp:129] Top shape: 32 160 14 14 (1003520)
I0507 21:21:47.836526 22664 net.cpp:137] Memory required for data: 1265624068
I0507 21:21:47.836534 22664 layer_factory.hpp:77] Creating layer inception_4b/relu_1x1
I0507 21:21:47.836542 22664 net.cpp:84] Creating Layer inception_4b/relu_1x1
I0507 21:21:47.836546 22664 net.cpp:406] inception_4b/relu_1x1 <- inception_4b/1x1
I0507 21:21:47.836553 22664 net.cpp:367] inception_4b/relu_1x1 -> inception_4b/1x1 (in-place)
I0507 21:21:47.837059 22664 net.cpp:122] Setting up inception_4b/relu_1x1
I0507 21:21:47.837069 22664 net.cpp:129] Top shape: 32 160 14 14 (1003520)
I0507 21:21:47.837074 22664 net.cpp:137] Memory required for data: 1269638148
I0507 21:21:47.837077 22664 layer_factory.hpp:77] Creating layer inception_4b/3x3_reduce
I0507 21:21:47.837090 22664 net.cpp:84] Creating Layer inception_4b/3x3_reduce
I0507 21:21:47.837093 22664 net.cpp:406] inception_4b/3x3_reduce <- inception_4a/output_inception_4a/output_0_split_2
I0507 21:21:47.837100 22664 net.cpp:380] inception_4b/3x3_reduce -> inception_4b/3x3_reduce
I0507 21:21:47.840590 22664 net.cpp:122] Setting up inception_4b/3x3_reduce
I0507 21:21:47.840601 22664 net.cpp:129] Top shape: 32 112 14 14 (702464)
I0507 21:21:47.840605 22664 net.cpp:137] Memory required for data: 1272448004
I0507 21:21:47.840613 22664 layer_factory.hpp:77] Creating layer inception_4b/relu_3x3_reduce
I0507 21:21:47.840620 22664 net.cpp:84] Creating Layer inception_4b/relu_3x3_reduce
I0507 21:21:47.840624 22664 net.cpp:406] inception_4b/relu_3x3_reduce <- inception_4b/3x3_reduce
I0507 21:21:47.840632 22664 net.cpp:367] inception_4b/relu_3x3_reduce -> inception_4b/3x3_reduce (in-place)
I0507 21:21:47.841040 22664 net.cpp:122] Setting up inception_4b/relu_3x3_reduce
I0507 21:21:47.841050 22664 net.cpp:129] Top shape: 32 112 14 14 (702464)
I0507 21:21:47.841054 22664 net.cpp:137] Memory required for data: 1275257860
I0507 21:21:47.841058 22664 layer_factory.hpp:77] Creating layer inception_4b/3x3
I0507 21:21:47.841071 22664 net.cpp:84] Creating Layer inception_4b/3x3
I0507 21:21:47.841075 22664 net.cpp:406] inception_4b/3x3 <- inception_4b/3x3_reduce
I0507 21:21:47.841081 22664 net.cpp:380] inception_4b/3x3 -> inception_4b/3x3
I0507 21:21:47.844029 22664 net.cpp:122] Setting up inception_4b/3x3
I0507 21:21:47.844039 22664 net.cpp:129] Top shape: 32 224 14 14 (1404928)
I0507 21:21:47.844044 22664 net.cpp:137] Memory required for data: 1280877572
I0507 21:21:47.844051 22664 layer_factory.hpp:77] Creating layer inception_4b/relu_3x3
I0507 21:21:47.844058 22664 net.cpp:84] Creating Layer inception_4b/relu_3x3
I0507 21:21:47.844063 22664 net.cpp:406] inception_4b/relu_3x3 <- inception_4b/3x3
I0507 21:21:47.844069 22664 net.cpp:367] inception_4b/relu_3x3 -> inception_4b/3x3 (in-place)
I0507 21:21:47.844574 22664 net.cpp:122] Setting up inception_4b/relu_3x3
I0507 21:21:47.844583 22664 net.cpp:129] Top shape: 32 224 14 14 (1404928)
I0507 21:21:47.844588 22664 net.cpp:137] Memory required for data: 1286497284
I0507 21:21:47.844591 22664 layer_factory.hpp:77] Creating layer inception_4b/5x5_reduce
I0507 21:21:47.844604 22664 net.cpp:84] Creating Layer inception_4b/5x5_reduce
I0507 21:21:47.844607 22664 net.cpp:406] inception_4b/5x5_reduce <- inception_4a/output_inception_4a/output_0_split_3
I0507 21:21:47.844615 22664 net.cpp:380] inception_4b/5x5_reduce -> inception_4b/5x5_reduce
I0507 21:21:47.846235 22664 net.cpp:122] Setting up inception_4b/5x5_reduce
I0507 21:21:47.846244 22664 net.cpp:129] Top shape: 32 24 14 14 (150528)
I0507 21:21:47.846248 22664 net.cpp:137] Memory required for data: 1287099396
I0507 21:21:47.846254 22664 layer_factory.hpp:77] Creating layer inception_4b/relu_5x5_reduce
I0507 21:21:47.846278 22664 net.cpp:84] Creating Layer inception_4b/relu_5x5_reduce
I0507 21:21:47.846282 22664 net.cpp:406] inception_4b/relu_5x5_reduce <- inception_4b/5x5_reduce
I0507 21:21:47.846289 22664 net.cpp:367] inception_4b/relu_5x5_reduce -> inception_4b/5x5_reduce (in-place)
I0507 21:21:47.846812 22664 net.cpp:122] Setting up inception_4b/relu_5x5_reduce
I0507 21:21:47.846822 22664 net.cpp:129] Top shape: 32 24 14 14 (150528)
I0507 21:21:47.846825 22664 net.cpp:137] Memory required for data: 1287701508
I0507 21:21:47.846829 22664 layer_factory.hpp:77] Creating layer inception_4b/5x5
I0507 21:21:47.846839 22664 net.cpp:84] Creating Layer inception_4b/5x5
I0507 21:21:47.846843 22664 net.cpp:406] inception_4b/5x5 <- inception_4b/5x5_reduce
I0507 21:21:47.846850 22664 net.cpp:380] inception_4b/5x5 -> inception_4b/5x5
I0507 21:21:47.851063 22664 net.cpp:122] Setting up inception_4b/5x5
I0507 21:21:47.851074 22664 net.cpp:129] Top shape: 32 64 14 14 (401408)
I0507 21:21:47.851078 22664 net.cpp:137] Memory required for data: 1289307140
I0507 21:21:47.851085 22664 layer_factory.hpp:77] Creating layer inception_4b/relu_5x5
I0507 21:21:47.851094 22664 net.cpp:84] Creating Layer inception_4b/relu_5x5
I0507 21:21:47.851097 22664 net.cpp:406] inception_4b/relu_5x5 <- inception_4b/5x5
I0507 21:21:47.851102 22664 net.cpp:367] inception_4b/relu_5x5 -> inception_4b/5x5 (in-place)
I0507 21:21:47.851615 22664 net.cpp:122] Setting up inception_4b/relu_5x5
I0507 21:21:47.851624 22664 net.cpp:129] Top shape: 32 64 14 14 (401408)
I0507 21:21:47.851627 22664 net.cpp:137] Memory required for data: 1290912772
I0507 21:21:47.851631 22664 layer_factory.hpp:77] Creating layer inception_4b/pool
I0507 21:21:47.851640 22664 net.cpp:84] Creating Layer inception_4b/pool
I0507 21:21:47.851644 22664 net.cpp:406] inception_4b/pool <- inception_4a/output_inception_4a/output_0_split_4
I0507 21:21:47.851649 22664 net.cpp:380] inception_4b/pool -> inception_4b/pool
I0507 21:21:47.851706 22664 net.cpp:122] Setting up inception_4b/pool
I0507 21:21:47.851712 22664 net.cpp:129] Top shape: 32 512 14 14 (3211264)
I0507 21:21:47.851716 22664 net.cpp:137] Memory required for data: 1303757828
I0507 21:21:47.851719 22664 layer_factory.hpp:77] Creating layer inception_4b/pool_proj
I0507 21:21:47.851728 22664 net.cpp:84] Creating Layer inception_4b/pool_proj
I0507 21:21:47.851732 22664 net.cpp:406] inception_4b/pool_proj <- inception_4b/pool
I0507 21:21:47.851737 22664 net.cpp:380] inception_4b/pool_proj -> inception_4b/pool_proj
I0507 21:21:47.853467 22664 net.cpp:122] Setting up inception_4b/pool_proj
I0507 21:21:47.853477 22664 net.cpp:129] Top shape: 32 64 14 14 (401408)
I0507 21:21:47.853480 22664 net.cpp:137] Memory required for data: 1305363460
I0507 21:21:47.853487 22664 layer_factory.hpp:77] Creating layer inception_4b/relu_pool_proj
I0507 21:21:47.853493 22664 net.cpp:84] Creating Layer inception_4b/relu_pool_proj
I0507 21:21:47.853497 22664 net.cpp:406] inception_4b/relu_pool_proj <- inception_4b/pool_proj
I0507 21:21:47.853503 22664 net.cpp:367] inception_4b/relu_pool_proj -> inception_4b/pool_proj (in-place)
I0507 21:21:47.854017 22664 net.cpp:122] Setting up inception_4b/relu_pool_proj
I0507 21:21:47.854027 22664 net.cpp:129] Top shape: 32 64 14 14 (401408)
I0507 21:21:47.854030 22664 net.cpp:137] Memory required for data: 1306969092
I0507 21:21:47.854034 22664 layer_factory.hpp:77] Creating layer inception_4b/output
I0507 21:21:47.854043 22664 net.cpp:84] Creating Layer inception_4b/output
I0507 21:21:47.854048 22664 net.cpp:406] inception_4b/output <- inception_4b/1x1
I0507 21:21:47.854051 22664 net.cpp:406] inception_4b/output <- inception_4b/3x3
I0507 21:21:47.854055 22664 net.cpp:406] inception_4b/output <- inception_4b/5x5
I0507 21:21:47.854059 22664 net.cpp:406] inception_4b/output <- inception_4b/pool_proj
I0507 21:21:47.854064 22664 net.cpp:380] inception_4b/output -> inception_4b/output
I0507 21:21:47.854090 22664 net.cpp:122] Setting up inception_4b/output
I0507 21:21:47.854096 22664 net.cpp:129] Top shape: 32 512 14 14 (3211264)
I0507 21:21:47.854116 22664 net.cpp:137] Memory required for data: 1319814148
I0507 21:21:47.854121 22664 layer_factory.hpp:77] Creating layer inception_4b/output_inception_4b/output_0_split
I0507 21:21:47.854130 22664 net.cpp:84] Creating Layer inception_4b/output_inception_4b/output_0_split
I0507 21:21:47.854133 22664 net.cpp:406] inception_4b/output_inception_4b/output_0_split <- inception_4b/output
I0507 21:21:47.854140 22664 net.cpp:380] inception_4b/output_inception_4b/output_0_split -> inception_4b/output_inception_4b/output_0_split_0
I0507 21:21:47.854146 22664 net.cpp:380] inception_4b/output_inception_4b/output_0_split -> inception_4b/output_inception_4b/output_0_split_1
I0507 21:21:47.854152 22664 net.cpp:380] inception_4b/output_inception_4b/output_0_split -> inception_4b/output_inception_4b/output_0_split_2
I0507 21:21:47.854158 22664 net.cpp:380] inception_4b/output_inception_4b/output_0_split -> inception_4b/output_inception_4b/output_0_split_3
I0507 21:21:47.854207 22664 net.cpp:122] Setting up inception_4b/output_inception_4b/output_0_split
I0507 21:21:47.854212 22664 net.cpp:129] Top shape: 32 512 14 14 (3211264)
I0507 21:21:47.854216 22664 net.cpp:129] Top shape: 32 512 14 14 (3211264)
I0507 21:21:47.854220 22664 net.cpp:129] Top shape: 32 512 14 14 (3211264)
I0507 21:21:47.854224 22664 net.cpp:129] Top shape: 32 512 14 14 (3211264)
I0507 21:21:47.854228 22664 net.cpp:137] Memory required for data: 1371194372
I0507 21:21:47.854230 22664 layer_factory.hpp:77] Creating layer inception_4c/1x1
I0507 21:21:47.854239 22664 net.cpp:84] Creating Layer inception_4c/1x1
I0507 21:21:47.854243 22664 net.cpp:406] inception_4c/1x1 <- inception_4b/output_inception_4b/output_0_split_0
I0507 21:21:47.854249 22664 net.cpp:380] inception_4c/1x1 -> inception_4c/1x1
I0507 21:21:47.862779 22664 net.cpp:122] Setting up inception_4c/1x1
I0507 21:21:47.862794 22664 net.cpp:129] Top shape: 32 128 14 14 (802816)
I0507 21:21:47.862798 22664 net.cpp:137] Memory required for data: 1374405636
I0507 21:21:47.862804 22664 layer_factory.hpp:77] Creating layer inception_4c/relu_1x1
I0507 21:21:47.862813 22664 net.cpp:84] Creating Layer inception_4c/relu_1x1
I0507 21:21:47.862818 22664 net.cpp:406] inception_4c/relu_1x1 <- inception_4c/1x1
I0507 21:21:47.862823 22664 net.cpp:367] inception_4c/relu_1x1 -> inception_4c/1x1 (in-place)
I0507 21:21:47.863183 22664 net.cpp:122] Setting up inception_4c/relu_1x1
I0507 21:21:47.863191 22664 net.cpp:129] Top shape: 32 128 14 14 (802816)
I0507 21:21:47.863195 22664 net.cpp:137] Memory required for data: 1377616900
I0507 21:21:47.863199 22664 layer_factory.hpp:77] Creating layer inception_4c/3x3_reduce
I0507 21:21:47.863214 22664 net.cpp:84] Creating Layer inception_4c/3x3_reduce
I0507 21:21:47.863219 22664 net.cpp:406] inception_4c/3x3_reduce <- inception_4b/output_inception_4b/output_0_split_1
I0507 21:21:47.863227 22664 net.cpp:380] inception_4c/3x3_reduce -> inception_4c/3x3_reduce
I0507 21:21:47.865296 22664 net.cpp:122] Setting up inception_4c/3x3_reduce
I0507 21:21:47.865308 22664 net.cpp:129] Top shape: 32 128 14 14 (802816)
I0507 21:21:47.865310 22664 net.cpp:137] Memory required for data: 1380828164
I0507 21:21:47.865317 22664 layer_factory.hpp:77] Creating layer inception_4c/relu_3x3_reduce
I0507 21:21:47.865324 22664 net.cpp:84] Creating Layer inception_4c/relu_3x3_reduce
I0507 21:21:47.865329 22664 net.cpp:406] inception_4c/relu_3x3_reduce <- inception_4c/3x3_reduce
I0507 21:21:47.865334 22664 net.cpp:367] inception_4c/relu_3x3_reduce -> inception_4c/3x3_reduce (in-place)
I0507 21:21:47.865844 22664 net.cpp:122] Setting up inception_4c/relu_3x3_reduce
I0507 21:21:47.865855 22664 net.cpp:129] Top shape: 32 128 14 14 (802816)
I0507 21:21:47.865859 22664 net.cpp:137] Memory required for data: 1384039428
I0507 21:21:47.865862 22664 layer_factory.hpp:77] Creating layer inception_4c/3x3
I0507 21:21:47.865871 22664 net.cpp:84] Creating Layer inception_4c/3x3
I0507 21:21:47.865876 22664 net.cpp:406] inception_4c/3x3 <- inception_4c/3x3_reduce
I0507 21:21:47.865882 22664 net.cpp:380] inception_4c/3x3 -> inception_4c/3x3
I0507 21:21:47.869933 22664 net.cpp:122] Setting up inception_4c/3x3
I0507 21:21:47.869944 22664 net.cpp:129] Top shape: 32 256 14 14 (1605632)
I0507 21:21:47.869947 22664 net.cpp:137] Memory required for data: 1390461956
I0507 21:21:47.869966 22664 layer_factory.hpp:77] Creating layer inception_4c/relu_3x3
I0507 21:21:47.869973 22664 net.cpp:84] Creating Layer inception_4c/relu_3x3
I0507 21:21:47.869977 22664 net.cpp:406] inception_4c/relu_3x3 <- inception_4c/3x3
I0507 21:21:47.869984 22664 net.cpp:367] inception_4c/relu_3x3 -> inception_4c/3x3 (in-place)
I0507 21:21:47.870507 22664 net.cpp:122] Setting up inception_4c/relu_3x3
I0507 21:21:47.870515 22664 net.cpp:129] Top shape: 32 256 14 14 (1605632)
I0507 21:21:47.870519 22664 net.cpp:137] Memory required for data: 1396884484
I0507 21:21:47.870522 22664 layer_factory.hpp:77] Creating layer inception_4c/5x5_reduce
I0507 21:21:47.870532 22664 net.cpp:84] Creating Layer inception_4c/5x5_reduce
I0507 21:21:47.870537 22664 net.cpp:406] inception_4c/5x5_reduce <- inception_4b/output_inception_4b/output_0_split_2
I0507 21:21:47.870543 22664 net.cpp:380] inception_4c/5x5_reduce -> inception_4c/5x5_reduce
I0507 21:21:47.873427 22664 net.cpp:122] Setting up inception_4c/5x5_reduce
I0507 21:21:47.873438 22664 net.cpp:129] Top shape: 32 24 14 14 (150528)
I0507 21:21:47.873441 22664 net.cpp:137] Memory required for data: 1397486596
I0507 21:21:47.873448 22664 layer_factory.hpp:77] Creating layer inception_4c/relu_5x5_reduce
I0507 21:21:47.873456 22664 net.cpp:84] Creating Layer inception_4c/relu_5x5_reduce
I0507 21:21:47.873461 22664 net.cpp:406] inception_4c/relu_5x5_reduce <- inception_4c/5x5_reduce
I0507 21:21:47.873467 22664 net.cpp:367] inception_4c/relu_5x5_reduce -> inception_4c/5x5_reduce (in-place)
I0507 21:21:47.873975 22664 net.cpp:122] Setting up inception_4c/relu_5x5_reduce
I0507 21:21:47.873984 22664 net.cpp:129] Top shape: 32 24 14 14 (150528)
I0507 21:21:47.873987 22664 net.cpp:137] Memory required for data: 1398088708
I0507 21:21:47.873991 22664 layer_factory.hpp:77] Creating layer inception_4c/5x5
I0507 21:21:47.874001 22664 net.cpp:84] Creating Layer inception_4c/5x5
I0507 21:21:47.874006 22664 net.cpp:406] inception_4c/5x5 <- inception_4c/5x5_reduce
I0507 21:21:47.874012 22664 net.cpp:380] inception_4c/5x5 -> inception_4c/5x5
I0507 21:21:47.875897 22664 net.cpp:122] Setting up inception_4c/5x5
I0507 21:21:47.875907 22664 net.cpp:129] Top shape: 32 64 14 14 (401408)
I0507 21:21:47.875910 22664 net.cpp:137] Memory required for data: 1399694340
I0507 21:21:47.875916 22664 layer_factory.hpp:77] Creating layer inception_4c/relu_5x5
I0507 21:21:47.875923 22664 net.cpp:84] Creating Layer inception_4c/relu_5x5
I0507 21:21:47.875927 22664 net.cpp:406] inception_4c/relu_5x5 <- inception_4c/5x5
I0507 21:21:47.875933 22664 net.cpp:367] inception_4c/relu_5x5 -> inception_4c/5x5 (in-place)
I0507 21:21:47.876461 22664 net.cpp:122] Setting up inception_4c/relu_5x5
I0507 21:21:47.876469 22664 net.cpp:129] Top shape: 32 64 14 14 (401408)
I0507 21:21:47.876472 22664 net.cpp:137] Memory required for data: 1401299972
I0507 21:21:47.876477 22664 layer_factory.hpp:77] Creating layer inception_4c/pool
I0507 21:21:47.876483 22664 net.cpp:84] Creating Layer inception_4c/pool
I0507 21:21:47.876489 22664 net.cpp:406] inception_4c/pool <- inception_4b/output_inception_4b/output_0_split_3
I0507 21:21:47.876494 22664 net.cpp:380] inception_4c/pool -> inception_4c/pool
I0507 21:21:47.876534 22664 net.cpp:122] Setting up inception_4c/pool
I0507 21:21:47.876539 22664 net.cpp:129] Top shape: 32 512 14 14 (3211264)
I0507 21:21:47.876543 22664 net.cpp:137] Memory required for data: 1414145028
I0507 21:21:47.876546 22664 layer_factory.hpp:77] Creating layer inception_4c/pool_proj
I0507 21:21:47.876554 22664 net.cpp:84] Creating Layer inception_4c/pool_proj
I0507 21:21:47.876559 22664 net.cpp:406] inception_4c/pool_proj <- inception_4c/pool
I0507 21:21:47.876565 22664 net.cpp:380] inception_4c/pool_proj -> inception_4c/pool_proj
I0507 21:21:47.879770 22664 net.cpp:122] Setting up inception_4c/pool_proj
I0507 21:21:47.879781 22664 net.cpp:129] Top shape: 32 64 14 14 (401408)
I0507 21:21:47.879786 22664 net.cpp:137] Memory required for data: 1415750660
I0507 21:21:47.879793 22664 layer_factory.hpp:77] Creating layer inception_4c/relu_pool_proj
I0507 21:21:47.879799 22664 net.cpp:84] Creating Layer inception_4c/relu_pool_proj
I0507 21:21:47.879806 22664 net.cpp:406] inception_4c/relu_pool_proj <- inception_4c/pool_proj
I0507 21:21:47.879812 22664 net.cpp:367] inception_4c/relu_pool_proj -> inception_4c/pool_proj (in-place)
I0507 21:21:47.880187 22664 net.cpp:122] Setting up inception_4c/relu_pool_proj
I0507 21:21:47.880194 22664 net.cpp:129] Top shape: 32 64 14 14 (401408)
I0507 21:21:47.880198 22664 net.cpp:137] Memory required for data: 1417356292
I0507 21:21:47.880203 22664 layer_factory.hpp:77] Creating layer inception_4c/output
I0507 21:21:47.880210 22664 net.cpp:84] Creating Layer inception_4c/output
I0507 21:21:47.880215 22664 net.cpp:406] inception_4c/output <- inception_4c/1x1
I0507 21:21:47.880220 22664 net.cpp:406] inception_4c/output <- inception_4c/3x3
I0507 21:21:47.880224 22664 net.cpp:406] inception_4c/output <- inception_4c/5x5
I0507 21:21:47.880228 22664 net.cpp:406] inception_4c/output <- inception_4c/pool_proj
I0507 21:21:47.880234 22664 net.cpp:380] inception_4c/output -> inception_4c/output
I0507 21:21:47.880260 22664 net.cpp:122] Setting up inception_4c/output
I0507 21:21:47.880266 22664 net.cpp:129] Top shape: 32 512 14 14 (3211264)
I0507 21:21:47.880270 22664 net.cpp:137] Memory required for data: 1430201348
I0507 21:21:47.880273 22664 layer_factory.hpp:77] Creating layer inception_4c/output_inception_4c/output_0_split
I0507 21:21:47.880280 22664 net.cpp:84] Creating Layer inception_4c/output_inception_4c/output_0_split
I0507 21:21:47.880285 22664 net.cpp:406] inception_4c/output_inception_4c/output_0_split <- inception_4c/output
I0507 21:21:47.880291 22664 net.cpp:380] inception_4c/output_inception_4c/output_0_split -> inception_4c/output_inception_4c/output_0_split_0
I0507 21:21:47.880297 22664 net.cpp:380] inception_4c/output_inception_4c/output_0_split -> inception_4c/output_inception_4c/output_0_split_1
I0507 21:21:47.880303 22664 net.cpp:380] inception_4c/output_inception_4c/output_0_split -> inception_4c/output_inception_4c/output_0_split_2
I0507 21:21:47.880311 22664 net.cpp:380] inception_4c/output_inception_4c/output_0_split -> inception_4c/output_inception_4c/output_0_split_3
I0507 21:21:47.880355 22664 net.cpp:122] Setting up inception_4c/output_inception_4c/output_0_split
I0507 21:21:47.880362 22664 net.cpp:129] Top shape: 32 512 14 14 (3211264)
I0507 21:21:47.880364 22664 net.cpp:129] Top shape: 32 512 14 14 (3211264)
I0507 21:21:47.880368 22664 net.cpp:129] Top shape: 32 512 14 14 (3211264)
I0507 21:21:47.880373 22664 net.cpp:129] Top shape: 32 512 14 14 (3211264)
I0507 21:21:47.880375 22664 net.cpp:137] Memory required for data: 1481581572
I0507 21:21:47.880378 22664 layer_factory.hpp:77] Creating layer inception_4d/1x1
I0507 21:21:47.880388 22664 net.cpp:84] Creating Layer inception_4d/1x1
I0507 21:21:47.880393 22664 net.cpp:406] inception_4d/1x1 <- inception_4c/output_inception_4c/output_0_split_0
I0507 21:21:47.880399 22664 net.cpp:380] inception_4d/1x1 -> inception_4d/1x1
I0507 21:21:47.886180 22664 net.cpp:122] Setting up inception_4d/1x1
I0507 21:21:47.886195 22664 net.cpp:129] Top shape: 32 112 14 14 (702464)
I0507 21:21:47.886200 22664 net.cpp:137] Memory required for data: 1484391428
I0507 21:21:47.886210 22664 layer_factory.hpp:77] Creating layer inception_4d/relu_1x1
I0507 21:21:47.886224 22664 net.cpp:84] Creating Layer inception_4d/relu_1x1
I0507 21:21:47.886230 22664 net.cpp:406] inception_4d/relu_1x1 <- inception_4d/1x1
I0507 21:21:47.886240 22664 net.cpp:367] inception_4d/relu_1x1 -> inception_4d/1x1 (in-place)
I0507 21:21:47.886826 22664 net.cpp:122] Setting up inception_4d/relu_1x1
I0507 21:21:47.886842 22664 net.cpp:129] Top shape: 32 112 14 14 (702464)
I0507 21:21:47.886847 22664 net.cpp:137] Memory required for data: 1487201284
I0507 21:21:47.886874 22664 layer_factory.hpp:77] Creating layer inception_4d/3x3_reduce
I0507 21:21:47.886891 22664 net.cpp:84] Creating Layer inception_4d/3x3_reduce
I0507 21:21:47.886898 22664 net.cpp:406] inception_4d/3x3_reduce <- inception_4c/output_inception_4c/output_0_split_1
I0507 21:21:47.886910 22664 net.cpp:380] inception_4d/3x3_reduce -> inception_4d/3x3_reduce
I0507 21:21:47.891032 22664 net.cpp:122] Setting up inception_4d/3x3_reduce
I0507 21:21:47.891047 22664 net.cpp:129] Top shape: 32 144 14 14 (903168)
I0507 21:21:47.891053 22664 net.cpp:137] Memory required for data: 1490813956
I0507 21:21:47.891062 22664 layer_factory.hpp:77] Creating layer inception_4d/relu_3x3_reduce
I0507 21:21:47.891075 22664 net.cpp:84] Creating Layer inception_4d/relu_3x3_reduce
I0507 21:21:47.891083 22664 net.cpp:406] inception_4d/relu_3x3_reduce <- inception_4d/3x3_reduce
I0507 21:21:47.891091 22664 net.cpp:367] inception_4d/relu_3x3_reduce -> inception_4d/3x3_reduce (in-place)
I0507 21:21:47.892087 22664 net.cpp:122] Setting up inception_4d/relu_3x3_reduce
I0507 21:21:47.892099 22664 net.cpp:129] Top shape: 32 144 14 14 (903168)
I0507 21:21:47.892105 22664 net.cpp:137] Memory required for data: 1494426628
I0507 21:21:47.892112 22664 layer_factory.hpp:77] Creating layer inception_4d/3x3
I0507 21:21:47.892125 22664 net.cpp:84] Creating Layer inception_4d/3x3
I0507 21:21:47.892133 22664 net.cpp:406] inception_4d/3x3 <- inception_4d/3x3_reduce
I0507 21:21:47.892145 22664 net.cpp:380] inception_4d/3x3 -> inception_4d/3x3
I0507 21:21:47.901106 22664 net.cpp:122] Setting up inception_4d/3x3
I0507 21:21:47.901124 22664 net.cpp:129] Top shape: 32 288 14 14 (1806336)
I0507 21:21:47.901130 22664 net.cpp:137] Memory required for data: 1501651972
I0507 21:21:47.901141 22664 layer_factory.hpp:77] Creating layer inception_4d/relu_3x3
I0507 21:21:47.901156 22664 net.cpp:84] Creating Layer inception_4d/relu_3x3
I0507 21:21:47.901163 22664 net.cpp:406] inception_4d/relu_3x3 <- inception_4d/3x3
I0507 21:21:47.901173 22664 net.cpp:367] inception_4d/relu_3x3 -> inception_4d/3x3 (in-place)
I0507 21:21:47.901736 22664 net.cpp:122] Setting up inception_4d/relu_3x3
I0507 21:21:47.901746 22664 net.cpp:129] Top shape: 32 288 14 14 (1806336)
I0507 21:21:47.901749 22664 net.cpp:137] Memory required for data: 1508877316
I0507 21:21:47.901753 22664 layer_factory.hpp:77] Creating layer inception_4d/5x5_reduce
I0507 21:21:47.901763 22664 net.cpp:84] Creating Layer inception_4d/5x5_reduce
I0507 21:21:47.901768 22664 net.cpp:406] inception_4d/5x5_reduce <- inception_4c/output_inception_4c/output_0_split_2
I0507 21:21:47.901775 22664 net.cpp:380] inception_4d/5x5_reduce -> inception_4d/5x5_reduce
I0507 21:21:47.904175 22664 net.cpp:122] Setting up inception_4d/5x5_reduce
I0507 21:21:47.904186 22664 net.cpp:129] Top shape: 32 32 14 14 (200704)
I0507 21:21:47.904191 22664 net.cpp:137] Memory required for data: 1509680132
I0507 21:21:47.904197 22664 layer_factory.hpp:77] Creating layer inception_4d/relu_5x5_reduce
I0507 21:21:47.904206 22664 net.cpp:84] Creating Layer inception_4d/relu_5x5_reduce
I0507 21:21:47.904209 22664 net.cpp:406] inception_4d/relu_5x5_reduce <- inception_4d/5x5_reduce
I0507 21:21:47.904214 22664 net.cpp:367] inception_4d/relu_5x5_reduce -> inception_4d/5x5_reduce (in-place)
I0507 21:21:47.904736 22664 net.cpp:122] Setting up inception_4d/relu_5x5_reduce
I0507 21:21:47.904745 22664 net.cpp:129] Top shape: 32 32 14 14 (200704)
I0507 21:21:47.904748 22664 net.cpp:137] Memory required for data: 1510482948
I0507 21:21:47.904753 22664 layer_factory.hpp:77] Creating layer inception_4d/5x5
I0507 21:21:47.904763 22664 net.cpp:84] Creating Layer inception_4d/5x5
I0507 21:21:47.904767 22664 net.cpp:406] inception_4d/5x5 <- inception_4d/5x5_reduce
I0507 21:21:47.904774 22664 net.cpp:380] inception_4d/5x5 -> inception_4d/5x5
I0507 21:21:47.906630 22664 net.cpp:122] Setting up inception_4d/5x5
I0507 21:21:47.906639 22664 net.cpp:129] Top shape: 32 64 14 14 (401408)
I0507 21:21:47.906642 22664 net.cpp:137] Memory required for data: 1512088580
I0507 21:21:47.906664 22664 layer_factory.hpp:77] Creating layer inception_4d/relu_5x5
I0507 21:21:47.906671 22664 net.cpp:84] Creating Layer inception_4d/relu_5x5
I0507 21:21:47.906674 22664 net.cpp:406] inception_4d/relu_5x5 <- inception_4d/5x5
I0507 21:21:47.906682 22664 net.cpp:367] inception_4d/relu_5x5 -> inception_4d/5x5 (in-place)
I0507 21:21:47.908913 22664 net.cpp:122] Setting up inception_4d/relu_5x5
I0507 21:21:47.908924 22664 net.cpp:129] Top shape: 32 64 14 14 (401408)
I0507 21:21:47.908927 22664 net.cpp:137] Memory required for data: 1513694212
I0507 21:21:47.908931 22664 layer_factory.hpp:77] Creating layer inception_4d/pool
I0507 21:21:47.908939 22664 net.cpp:84] Creating Layer inception_4d/pool
I0507 21:21:47.908943 22664 net.cpp:406] inception_4d/pool <- inception_4c/output_inception_4c/output_0_split_3
I0507 21:21:47.908952 22664 net.cpp:380] inception_4d/pool -> inception_4d/pool
I0507 21:21:47.908994 22664 net.cpp:122] Setting up inception_4d/pool
I0507 21:21:47.909001 22664 net.cpp:129] Top shape: 32 512 14 14 (3211264)
I0507 21:21:47.909004 22664 net.cpp:137] Memory required for data: 1526539268
I0507 21:21:47.909008 22664 layer_factory.hpp:77] Creating layer inception_4d/pool_proj
I0507 21:21:47.909016 22664 net.cpp:84] Creating Layer inception_4d/pool_proj
I0507 21:21:47.909020 22664 net.cpp:406] inception_4d/pool_proj <- inception_4d/pool
I0507 21:21:47.909029 22664 net.cpp:380] inception_4d/pool_proj -> inception_4d/pool_proj
I0507 21:21:47.910941 22664 net.cpp:122] Setting up inception_4d/pool_proj
I0507 21:21:47.910953 22664 net.cpp:129] Top shape: 32 64 14 14 (401408)
I0507 21:21:47.910955 22664 net.cpp:137] Memory required for data: 1528144900
I0507 21:21:47.910962 22664 layer_factory.hpp:77] Creating layer inception_4d/relu_pool_proj
I0507 21:21:47.910969 22664 net.cpp:84] Creating Layer inception_4d/relu_pool_proj
I0507 21:21:47.910972 22664 net.cpp:406] inception_4d/relu_pool_proj <- inception_4d/pool_proj
I0507 21:21:47.910982 22664 net.cpp:367] inception_4d/relu_pool_proj -> inception_4d/pool_proj (in-place)
I0507 21:21:47.911339 22664 net.cpp:122] Setting up inception_4d/relu_pool_proj
I0507 21:21:47.911347 22664 net.cpp:129] Top shape: 32 64 14 14 (401408)
I0507 21:21:47.911351 22664 net.cpp:137] Memory required for data: 1529750532
I0507 21:21:47.911355 22664 layer_factory.hpp:77] Creating layer inception_4d/output
I0507 21:21:47.911365 22664 net.cpp:84] Creating Layer inception_4d/output
I0507 21:21:47.911368 22664 net.cpp:406] inception_4d/output <- inception_4d/1x1
I0507 21:21:47.911373 22664 net.cpp:406] inception_4d/output <- inception_4d/3x3
I0507 21:21:47.911377 22664 net.cpp:406] inception_4d/output <- inception_4d/5x5
I0507 21:21:47.911381 22664 net.cpp:406] inception_4d/output <- inception_4d/pool_proj
I0507 21:21:47.911386 22664 net.cpp:380] inception_4d/output -> inception_4d/output
I0507 21:21:47.911415 22664 net.cpp:122] Setting up inception_4d/output
I0507 21:21:47.911420 22664 net.cpp:129] Top shape: 32 528 14 14 (3311616)
I0507 21:21:47.911423 22664 net.cpp:137] Memory required for data: 1542996996
I0507 21:21:47.911427 22664 layer_factory.hpp:77] Creating layer inception_4d/output_inception_4d/output_0_split
I0507 21:21:47.911437 22664 net.cpp:84] Creating Layer inception_4d/output_inception_4d/output_0_split
I0507 21:21:47.911439 22664 net.cpp:406] inception_4d/output_inception_4d/output_0_split <- inception_4d/output
I0507 21:21:47.911444 22664 net.cpp:380] inception_4d/output_inception_4d/output_0_split -> inception_4d/output_inception_4d/output_0_split_0
I0507 21:21:47.911453 22664 net.cpp:380] inception_4d/output_inception_4d/output_0_split -> inception_4d/output_inception_4d/output_0_split_1
I0507 21:21:47.911458 22664 net.cpp:380] inception_4d/output_inception_4d/output_0_split -> inception_4d/output_inception_4d/output_0_split_2
I0507 21:21:47.911464 22664 net.cpp:380] inception_4d/output_inception_4d/output_0_split -> inception_4d/output_inception_4d/output_0_split_3
I0507 21:21:47.911469 22664 net.cpp:380] inception_4d/output_inception_4d/output_0_split -> inception_4d/output_inception_4d/output_0_split_4
I0507 21:21:47.911551 22664 net.cpp:122] Setting up inception_4d/output_inception_4d/output_0_split
I0507 21:21:47.911558 22664 net.cpp:129] Top shape: 32 528 14 14 (3311616)
I0507 21:21:47.911562 22664 net.cpp:129] Top shape: 32 528 14 14 (3311616)
I0507 21:21:47.911566 22664 net.cpp:129] Top shape: 32 528 14 14 (3311616)
I0507 21:21:47.911571 22664 net.cpp:129] Top shape: 32 528 14 14 (3311616)
I0507 21:21:47.911573 22664 net.cpp:129] Top shape: 32 528 14 14 (3311616)
I0507 21:21:47.911576 22664 net.cpp:137] Memory required for data: 1609229316
I0507 21:21:47.911581 22664 layer_factory.hpp:77] Creating layer loss2/ave_pool
I0507 21:21:47.911587 22664 net.cpp:84] Creating Layer loss2/ave_pool
I0507 21:21:47.911592 22664 net.cpp:406] loss2/ave_pool <- inception_4d/output_inception_4d/output_0_split_0
I0507 21:21:47.911597 22664 net.cpp:380] loss2/ave_pool -> loss2/ave_pool
I0507 21:21:47.912139 22664 net.cpp:122] Setting up loss2/ave_pool
I0507 21:21:47.912148 22664 net.cpp:129] Top shape: 32 528 4 4 (270336)
I0507 21:21:47.912153 22664 net.cpp:137] Memory required for data: 1610310660
I0507 21:21:47.912156 22664 layer_factory.hpp:77] Creating layer loss2/conv
I0507 21:21:47.912166 22664 net.cpp:84] Creating Layer loss2/conv
I0507 21:21:47.912171 22664 net.cpp:406] loss2/conv <- loss2/ave_pool
I0507 21:21:47.912179 22664 net.cpp:380] loss2/conv -> loss2/conv
I0507 21:21:47.914273 22664 net.cpp:122] Setting up loss2/conv
I0507 21:21:47.914283 22664 net.cpp:129] Top shape: 32 128 4 4 (65536)
I0507 21:21:47.914288 22664 net.cpp:137] Memory required for data: 1610572804
I0507 21:21:47.914294 22664 layer_factory.hpp:77] Creating layer loss2/relu_conv
I0507 21:21:47.914304 22664 net.cpp:84] Creating Layer loss2/relu_conv
I0507 21:21:47.914307 22664 net.cpp:406] loss2/relu_conv <- loss2/conv
I0507 21:21:47.914311 22664 net.cpp:367] loss2/relu_conv -> loss2/conv (in-place)
I0507 21:21:47.914683 22664 net.cpp:122] Setting up loss2/relu_conv
I0507 21:21:47.914693 22664 net.cpp:129] Top shape: 32 128 4 4 (65536)
I0507 21:21:47.914698 22664 net.cpp:137] Memory required for data: 1610834948
I0507 21:21:47.914702 22664 layer_factory.hpp:77] Creating layer loss2/fc
I0507 21:21:47.914710 22664 net.cpp:84] Creating Layer loss2/fc
I0507 21:21:47.914714 22664 net.cpp:406] loss2/fc <- loss2/conv
I0507 21:21:47.914721 22664 net.cpp:380] loss2/fc -> loss2/fc
I0507 21:21:47.926964 22664 net.cpp:122] Setting up loss2/fc
I0507 21:21:47.926983 22664 net.cpp:129] Top shape: 32 1024 (32768)
I0507 21:21:47.926988 22664 net.cpp:137] Memory required for data: 1610966020
I0507 21:21:47.926996 22664 layer_factory.hpp:77] Creating layer loss2/relu_fc
I0507 21:21:47.927006 22664 net.cpp:84] Creating Layer loss2/relu_fc
I0507 21:21:47.927011 22664 net.cpp:406] loss2/relu_fc <- loss2/fc
I0507 21:21:47.927018 22664 net.cpp:367] loss2/relu_fc -> loss2/fc (in-place)
I0507 21:21:47.929126 22664 net.cpp:122] Setting up loss2/relu_fc
I0507 21:21:47.929137 22664 net.cpp:129] Top shape: 32 1024 (32768)
I0507 21:21:47.929141 22664 net.cpp:137] Memory required for data: 1611097092
I0507 21:21:47.929147 22664 layer_factory.hpp:77] Creating layer loss2/drop_fc
I0507 21:21:47.929155 22664 net.cpp:84] Creating Layer loss2/drop_fc
I0507 21:21:47.929159 22664 net.cpp:406] loss2/drop_fc <- loss2/fc
I0507 21:21:47.929167 22664 net.cpp:367] loss2/drop_fc -> loss2/fc (in-place)
I0507 21:21:47.929193 22664 net.cpp:122] Setting up loss2/drop_fc
I0507 21:21:47.929200 22664 net.cpp:129] Top shape: 32 1024 (32768)
I0507 21:21:47.929203 22664 net.cpp:137] Memory required for data: 1611228164
I0507 21:21:47.929206 22664 layer_factory.hpp:77] Creating layer loss2/classifier
I0507 21:21:47.929214 22664 net.cpp:84] Creating Layer loss2/classifier
I0507 21:21:47.929219 22664 net.cpp:406] loss2/classifier <- loss2/fc
I0507 21:21:47.929224 22664 net.cpp:380] loss2/classifier -> loss2/classifier
I0507 21:21:47.930259 22664 net.cpp:122] Setting up loss2/classifier
I0507 21:21:47.930265 22664 net.cpp:129] Top shape: 32 196 (6272)
I0507 21:21:47.930291 22664 net.cpp:137] Memory required for data: 1611253252
I0507 21:21:47.930299 22664 layer_factory.hpp:77] Creating layer loss2/loss
I0507 21:21:47.930305 22664 net.cpp:84] Creating Layer loss2/loss
I0507 21:21:47.930310 22664 net.cpp:406] loss2/loss <- loss2/classifier
I0507 21:21:47.930315 22664 net.cpp:406] loss2/loss <- label_train-data_1_split_1
I0507 21:21:47.930322 22664 net.cpp:380] loss2/loss -> loss2/loss
I0507 21:21:47.930330 22664 layer_factory.hpp:77] Creating layer loss2/loss
I0507 21:21:47.930929 22664 net.cpp:122] Setting up loss2/loss
I0507 21:21:47.930940 22664 net.cpp:129] Top shape: (1)
I0507 21:21:47.930943 22664 net.cpp:132]     with loss weight 0.3
I0507 21:21:47.930954 22664 net.cpp:137] Memory required for data: 1611253256
I0507 21:21:47.930959 22664 layer_factory.hpp:77] Creating layer inception_4e/1x1
I0507 21:21:47.930968 22664 net.cpp:84] Creating Layer inception_4e/1x1
I0507 21:21:47.930974 22664 net.cpp:406] inception_4e/1x1 <- inception_4d/output_inception_4d/output_0_split_1
I0507 21:21:47.930984 22664 net.cpp:380] inception_4e/1x1 -> inception_4e/1x1
I0507 21:21:47.933214 22664 net.cpp:122] Setting up inception_4e/1x1
I0507 21:21:47.933224 22664 net.cpp:129] Top shape: 32 256 14 14 (1605632)
I0507 21:21:47.933229 22664 net.cpp:137] Memory required for data: 1617675784
I0507 21:21:47.933235 22664 layer_factory.hpp:77] Creating layer inception_4e/relu_1x1
I0507 21:21:47.933244 22664 net.cpp:84] Creating Layer inception_4e/relu_1x1
I0507 21:21:47.933248 22664 net.cpp:406] inception_4e/relu_1x1 <- inception_4e/1x1
I0507 21:21:47.933255 22664 net.cpp:367] inception_4e/relu_1x1 -> inception_4e/1x1 (in-place)
I0507 21:21:47.933771 22664 net.cpp:122] Setting up inception_4e/relu_1x1
I0507 21:21:47.933781 22664 net.cpp:129] Top shape: 32 256 14 14 (1605632)
I0507 21:21:47.933786 22664 net.cpp:137] Memory required for data: 1624098312
I0507 21:21:47.933790 22664 layer_factory.hpp:77] Creating layer inception_4e/3x3_reduce
I0507 21:21:47.933801 22664 net.cpp:84] Creating Layer inception_4e/3x3_reduce
I0507 21:21:47.933806 22664 net.cpp:406] inception_4e/3x3_reduce <- inception_4d/output_inception_4d/output_0_split_2
I0507 21:21:47.933812 22664 net.cpp:380] inception_4e/3x3_reduce -> inception_4e/3x3_reduce
I0507 21:21:47.936537 22664 net.cpp:122] Setting up inception_4e/3x3_reduce
I0507 21:21:47.936548 22664 net.cpp:129] Top shape: 32 160 14 14 (1003520)
I0507 21:21:47.936553 22664 net.cpp:137] Memory required for data: 1628112392
I0507 21:21:47.936559 22664 layer_factory.hpp:77] Creating layer inception_4e/relu_3x3_reduce
I0507 21:21:47.936568 22664 net.cpp:84] Creating Layer inception_4e/relu_3x3_reduce
I0507 21:21:47.936573 22664 net.cpp:406] inception_4e/relu_3x3_reduce <- inception_4e/3x3_reduce
I0507 21:21:47.936578 22664 net.cpp:367] inception_4e/relu_3x3_reduce -> inception_4e/3x3_reduce (in-place)
I0507 21:21:47.937093 22664 net.cpp:122] Setting up inception_4e/relu_3x3_reduce
I0507 21:21:47.937103 22664 net.cpp:129] Top shape: 32 160 14 14 (1003520)
I0507 21:21:47.937106 22664 net.cpp:137] Memory required for data: 1632126472
I0507 21:21:47.937110 22664 layer_factory.hpp:77] Creating layer inception_4e/3x3
I0507 21:21:47.937120 22664 net.cpp:84] Creating Layer inception_4e/3x3
I0507 21:21:47.937124 22664 net.cpp:406] inception_4e/3x3 <- inception_4e/3x3_reduce
I0507 21:21:47.937132 22664 net.cpp:380] inception_4e/3x3 -> inception_4e/3x3
I0507 21:21:47.944850 22664 net.cpp:122] Setting up inception_4e/3x3
I0507 21:21:47.944865 22664 net.cpp:129] Top shape: 32 320 14 14 (2007040)
I0507 21:21:47.944870 22664 net.cpp:137] Memory required for data: 1640154632
I0507 21:21:47.944877 22664 layer_factory.hpp:77] Creating layer inception_4e/relu_3x3
I0507 21:21:47.944885 22664 net.cpp:84] Creating Layer inception_4e/relu_3x3
I0507 21:21:47.944890 22664 net.cpp:406] inception_4e/relu_3x3 <- inception_4e/3x3
I0507 21:21:47.944897 22664 net.cpp:367] inception_4e/relu_3x3 -> inception_4e/3x3 (in-place)
I0507 21:21:47.945258 22664 net.cpp:122] Setting up inception_4e/relu_3x3
I0507 21:21:47.945284 22664 net.cpp:129] Top shape: 32 320 14 14 (2007040)
I0507 21:21:47.945288 22664 net.cpp:137] Memory required for data: 1648182792
I0507 21:21:47.945292 22664 layer_factory.hpp:77] Creating layer inception_4e/5x5_reduce
I0507 21:21:47.945303 22664 net.cpp:84] Creating Layer inception_4e/5x5_reduce
I0507 21:21:47.945308 22664 net.cpp:406] inception_4e/5x5_reduce <- inception_4d/output_inception_4d/output_0_split_3
I0507 21:21:47.945317 22664 net.cpp:380] inception_4e/5x5_reduce -> inception_4e/5x5_reduce
I0507 21:21:47.947172 22664 net.cpp:122] Setting up inception_4e/5x5_reduce
I0507 21:21:47.947183 22664 net.cpp:129] Top shape: 32 32 14 14 (200704)
I0507 21:21:47.947187 22664 net.cpp:137] Memory required for data: 1648985608
I0507 21:21:47.947193 22664 layer_factory.hpp:77] Creating layer inception_4e/relu_5x5_reduce
I0507 21:21:47.947202 22664 net.cpp:84] Creating Layer inception_4e/relu_5x5_reduce
I0507 21:21:47.947206 22664 net.cpp:406] inception_4e/relu_5x5_reduce <- inception_4e/5x5_reduce
I0507 21:21:47.947211 22664 net.cpp:367] inception_4e/relu_5x5_reduce -> inception_4e/5x5_reduce (in-place)
I0507 21:21:47.947737 22664 net.cpp:122] Setting up inception_4e/relu_5x5_reduce
I0507 21:21:47.947748 22664 net.cpp:129] Top shape: 32 32 14 14 (200704)
I0507 21:21:47.947752 22664 net.cpp:137] Memory required for data: 1649788424
I0507 21:21:47.947757 22664 layer_factory.hpp:77] Creating layer inception_4e/5x5
I0507 21:21:47.947799 22664 net.cpp:84] Creating Layer inception_4e/5x5
I0507 21:21:47.947804 22664 net.cpp:406] inception_4e/5x5 <- inception_4e/5x5_reduce
I0507 21:21:47.947810 22664 net.cpp:380] inception_4e/5x5 -> inception_4e/5x5
I0507 21:21:47.955580 22664 net.cpp:122] Setting up inception_4e/5x5
I0507 21:21:47.955598 22664 net.cpp:129] Top shape: 32 128 14 14 (802816)
I0507 21:21:47.955605 22664 net.cpp:137] Memory required for data: 1652999688
I0507 21:21:47.955615 22664 layer_factory.hpp:77] Creating layer inception_4e/relu_5x5
I0507 21:21:47.955628 22664 net.cpp:84] Creating Layer inception_4e/relu_5x5
I0507 21:21:47.955636 22664 net.cpp:406] inception_4e/relu_5x5 <- inception_4e/5x5
I0507 21:21:47.955649 22664 net.cpp:367] inception_4e/relu_5x5 -> inception_4e/5x5 (in-place)
I0507 21:21:47.956440 22664 net.cpp:122] Setting up inception_4e/relu_5x5
I0507 21:21:47.956454 22664 net.cpp:129] Top shape: 32 128 14 14 (802816)
I0507 21:21:47.956459 22664 net.cpp:137] Memory required for data: 1656210952
I0507 21:21:47.956465 22664 layer_factory.hpp:77] Creating layer inception_4e/pool
I0507 21:21:47.956477 22664 net.cpp:84] Creating Layer inception_4e/pool
I0507 21:21:47.956485 22664 net.cpp:406] inception_4e/pool <- inception_4d/output_inception_4d/output_0_split_4
I0507 21:21:47.956497 22664 net.cpp:380] inception_4e/pool -> inception_4e/pool
I0507 21:21:47.956564 22664 net.cpp:122] Setting up inception_4e/pool
I0507 21:21:47.956575 22664 net.cpp:129] Top shape: 32 528 14 14 (3311616)
I0507 21:21:47.956580 22664 net.cpp:137] Memory required for data: 1669457416
I0507 21:21:47.956586 22664 layer_factory.hpp:77] Creating layer inception_4e/pool_proj
I0507 21:21:47.956601 22664 net.cpp:84] Creating Layer inception_4e/pool_proj
I0507 21:21:47.956609 22664 net.cpp:406] inception_4e/pool_proj <- inception_4e/pool
I0507 21:21:47.956620 22664 net.cpp:380] inception_4e/pool_proj -> inception_4e/pool_proj
I0507 21:21:47.962316 22664 net.cpp:122] Setting up inception_4e/pool_proj
I0507 21:21:47.962327 22664 net.cpp:129] Top shape: 32 128 14 14 (802816)
I0507 21:21:47.962330 22664 net.cpp:137] Memory required for data: 1672668680
I0507 21:21:47.962337 22664 layer_factory.hpp:77] Creating layer inception_4e/relu_pool_proj
I0507 21:21:47.962347 22664 net.cpp:84] Creating Layer inception_4e/relu_pool_proj
I0507 21:21:47.962350 22664 net.cpp:406] inception_4e/relu_pool_proj <- inception_4e/pool_proj
I0507 21:21:47.962355 22664 net.cpp:367] inception_4e/relu_pool_proj -> inception_4e/pool_proj (in-place)
I0507 21:21:47.962905 22664 net.cpp:122] Setting up inception_4e/relu_pool_proj
I0507 21:21:47.962915 22664 net.cpp:129] Top shape: 32 128 14 14 (802816)
I0507 21:21:47.962935 22664 net.cpp:137] Memory required for data: 1675879944
I0507 21:21:47.962939 22664 layer_factory.hpp:77] Creating layer inception_4e/output
I0507 21:21:47.962947 22664 net.cpp:84] Creating Layer inception_4e/output
I0507 21:21:47.962952 22664 net.cpp:406] inception_4e/output <- inception_4e/1x1
I0507 21:21:47.962957 22664 net.cpp:406] inception_4e/output <- inception_4e/3x3
I0507 21:21:47.962961 22664 net.cpp:406] inception_4e/output <- inception_4e/5x5
I0507 21:21:47.962965 22664 net.cpp:406] inception_4e/output <- inception_4e/pool_proj
I0507 21:21:47.962970 22664 net.cpp:380] inception_4e/output -> inception_4e/output
I0507 21:21:47.963001 22664 net.cpp:122] Setting up inception_4e/output
I0507 21:21:47.963006 22664 net.cpp:129] Top shape: 32 832 14 14 (5218304)
I0507 21:21:47.963009 22664 net.cpp:137] Memory required for data: 1696753160
I0507 21:21:47.963012 22664 layer_factory.hpp:77] Creating layer pool4/3x3_s2
I0507 21:21:47.963019 22664 net.cpp:84] Creating Layer pool4/3x3_s2
I0507 21:21:47.963022 22664 net.cpp:406] pool4/3x3_s2 <- inception_4e/output
I0507 21:21:47.963029 22664 net.cpp:380] pool4/3x3_s2 -> pool4/3x3_s2
I0507 21:21:47.963063 22664 net.cpp:122] Setting up pool4/3x3_s2
I0507 21:21:47.963068 22664 net.cpp:129] Top shape: 32 832 7 7 (1304576)
I0507 21:21:47.963070 22664 net.cpp:137] Memory required for data: 1701971464
I0507 21:21:47.963074 22664 layer_factory.hpp:77] Creating layer pool4/3x3_s2_pool4/3x3_s2_0_split
I0507 21:21:47.963083 22664 net.cpp:84] Creating Layer pool4/3x3_s2_pool4/3x3_s2_0_split
I0507 21:21:47.963085 22664 net.cpp:406] pool4/3x3_s2_pool4/3x3_s2_0_split <- pool4/3x3_s2
I0507 21:21:47.963091 22664 net.cpp:380] pool4/3x3_s2_pool4/3x3_s2_0_split -> pool4/3x3_s2_pool4/3x3_s2_0_split_0
I0507 21:21:47.963099 22664 net.cpp:380] pool4/3x3_s2_pool4/3x3_s2_0_split -> pool4/3x3_s2_pool4/3x3_s2_0_split_1
I0507 21:21:47.963104 22664 net.cpp:380] pool4/3x3_s2_pool4/3x3_s2_0_split -> pool4/3x3_s2_pool4/3x3_s2_0_split_2
I0507 21:21:47.963109 22664 net.cpp:380] pool4/3x3_s2_pool4/3x3_s2_0_split -> pool4/3x3_s2_pool4/3x3_s2_0_split_3
I0507 21:21:47.963153 22664 net.cpp:122] Setting up pool4/3x3_s2_pool4/3x3_s2_0_split
I0507 21:21:47.963160 22664 net.cpp:129] Top shape: 32 832 7 7 (1304576)
I0507 21:21:47.963163 22664 net.cpp:129] Top shape: 32 832 7 7 (1304576)
I0507 21:21:47.963167 22664 net.cpp:129] Top shape: 32 832 7 7 (1304576)
I0507 21:21:47.963171 22664 net.cpp:129] Top shape: 32 832 7 7 (1304576)
I0507 21:21:47.963174 22664 net.cpp:137] Memory required for data: 1722844680
I0507 21:21:47.963177 22664 layer_factory.hpp:77] Creating layer inception_5a/1x1
I0507 21:21:47.963187 22664 net.cpp:84] Creating Layer inception_5a/1x1
I0507 21:21:47.963191 22664 net.cpp:406] inception_5a/1x1 <- pool4/3x3_s2_pool4/3x3_s2_0_split_0
I0507 21:21:47.963196 22664 net.cpp:380] inception_5a/1x1 -> inception_5a/1x1
I0507 21:21:47.965756 22664 net.cpp:122] Setting up inception_5a/1x1
I0507 21:21:47.965766 22664 net.cpp:129] Top shape: 32 256 7 7 (401408)
I0507 21:21:47.965770 22664 net.cpp:137] Memory required for data: 1724450312
I0507 21:21:47.965776 22664 layer_factory.hpp:77] Creating layer inception_5a/relu_1x1
I0507 21:21:47.965783 22664 net.cpp:84] Creating Layer inception_5a/relu_1x1
I0507 21:21:47.965787 22664 net.cpp:406] inception_5a/relu_1x1 <- inception_5a/1x1
I0507 21:21:47.965795 22664 net.cpp:367] inception_5a/relu_1x1 -> inception_5a/1x1 (in-place)
I0507 21:21:47.966320 22664 net.cpp:122] Setting up inception_5a/relu_1x1
I0507 21:21:47.966331 22664 net.cpp:129] Top shape: 32 256 7 7 (401408)
I0507 21:21:47.966334 22664 net.cpp:137] Memory required for data: 1726055944
I0507 21:21:47.966338 22664 layer_factory.hpp:77] Creating layer inception_5a/3x3_reduce
I0507 21:21:47.966348 22664 net.cpp:84] Creating Layer inception_5a/3x3_reduce
I0507 21:21:47.966352 22664 net.cpp:406] inception_5a/3x3_reduce <- pool4/3x3_s2_pool4/3x3_s2_0_split_1
I0507 21:21:47.966359 22664 net.cpp:380] inception_5a/3x3_reduce -> inception_5a/3x3_reduce
I0507 21:21:47.970855 22664 net.cpp:122] Setting up inception_5a/3x3_reduce
I0507 21:21:47.970868 22664 net.cpp:129] Top shape: 32 160 7 7 (250880)
I0507 21:21:47.970872 22664 net.cpp:137] Memory required for data: 1727059464
I0507 21:21:47.970880 22664 layer_factory.hpp:77] Creating layer inception_5a/relu_3x3_reduce
I0507 21:21:47.970886 22664 net.cpp:84] Creating Layer inception_5a/relu_3x3_reduce
I0507 21:21:47.970891 22664 net.cpp:406] inception_5a/relu_3x3_reduce <- inception_5a/3x3_reduce
I0507 21:21:47.970898 22664 net.cpp:367] inception_5a/relu_3x3_reduce -> inception_5a/3x3_reduce (in-place)
I0507 21:21:47.971258 22664 net.cpp:122] Setting up inception_5a/relu_3x3_reduce
I0507 21:21:47.971266 22664 net.cpp:129] Top shape: 32 160 7 7 (250880)
I0507 21:21:47.971269 22664 net.cpp:137] Memory required for data: 1728062984
I0507 21:21:47.971273 22664 layer_factory.hpp:77] Creating layer inception_5a/3x3
I0507 21:21:47.971285 22664 net.cpp:84] Creating Layer inception_5a/3x3
I0507 21:21:47.971288 22664 net.cpp:406] inception_5a/3x3 <- inception_5a/3x3_reduce
I0507 21:21:47.971295 22664 net.cpp:380] inception_5a/3x3 -> inception_5a/3x3
I0507 21:21:47.976161 22664 net.cpp:122] Setting up inception_5a/3x3
I0507 21:21:47.976172 22664 net.cpp:129] Top shape: 32 320 7 7 (501760)
I0507 21:21:47.976176 22664 net.cpp:137] Memory required for data: 1730070024
I0507 21:21:47.976182 22664 layer_factory.hpp:77] Creating layer inception_5a/relu_3x3
I0507 21:21:47.976189 22664 net.cpp:84] Creating Layer inception_5a/relu_3x3
I0507 21:21:47.976194 22664 net.cpp:406] inception_5a/relu_3x3 <- inception_5a/3x3
I0507 21:21:47.976200 22664 net.cpp:367] inception_5a/relu_3x3 -> inception_5a/3x3 (in-place)
I0507 21:21:47.976794 22664 net.cpp:122] Setting up inception_5a/relu_3x3
I0507 21:21:47.976804 22664 net.cpp:129] Top shape: 32 320 7 7 (501760)
I0507 21:21:47.976807 22664 net.cpp:137] Memory required for data: 1732077064
I0507 21:21:47.976811 22664 layer_factory.hpp:77] Creating layer inception_5a/5x5_reduce
I0507 21:21:47.976826 22664 net.cpp:84] Creating Layer inception_5a/5x5_reduce
I0507 21:21:47.976831 22664 net.cpp:406] inception_5a/5x5_reduce <- pool4/3x3_s2_pool4/3x3_s2_0_split_2
I0507 21:21:47.976837 22664 net.cpp:380] inception_5a/5x5_reduce -> inception_5a/5x5_reduce
I0507 21:21:47.981819 22664 net.cpp:122] Setting up inception_5a/5x5_reduce
I0507 21:21:47.981837 22664 net.cpp:129] Top shape: 32 32 7 7 (50176)
I0507 21:21:47.981840 22664 net.cpp:137] Memory required for data: 1732277768
I0507 21:21:47.981849 22664 layer_factory.hpp:77] Creating layer inception_5a/relu_5x5_reduce
I0507 21:21:47.981859 22664 net.cpp:84] Creating Layer inception_5a/relu_5x5_reduce
I0507 21:21:47.981865 22664 net.cpp:406] inception_5a/relu_5x5_reduce <- inception_5a/5x5_reduce
I0507 21:21:47.981870 22664 net.cpp:367] inception_5a/relu_5x5_reduce -> inception_5a/5x5_reduce (in-place)
I0507 21:21:47.982409 22664 net.cpp:122] Setting up inception_5a/relu_5x5_reduce
I0507 21:21:47.982419 22664 net.cpp:129] Top shape: 32 32 7 7 (50176)
I0507 21:21:47.982422 22664 net.cpp:137] Memory required for data: 1732478472
I0507 21:21:47.982425 22664 layer_factory.hpp:77] Creating layer inception_5a/5x5
I0507 21:21:47.982439 22664 net.cpp:84] Creating Layer inception_5a/5x5
I0507 21:21:47.982442 22664 net.cpp:406] inception_5a/5x5 <- inception_5a/5x5_reduce
I0507 21:21:47.982450 22664 net.cpp:380] inception_5a/5x5 -> inception_5a/5x5
I0507 21:21:47.984552 22664 net.cpp:122] Setting up inception_5a/5x5
I0507 21:21:47.984562 22664 net.cpp:129] Top shape: 32 128 7 7 (200704)
I0507 21:21:47.984566 22664 net.cpp:137] Memory required for data: 1733281288
I0507 21:21:47.984573 22664 layer_factory.hpp:77] Creating layer inception_5a/relu_5x5
I0507 21:21:47.984580 22664 net.cpp:84] Creating Layer inception_5a/relu_5x5
I0507 21:21:47.984583 22664 net.cpp:406] inception_5a/relu_5x5 <- inception_5a/5x5
I0507 21:21:47.984591 22664 net.cpp:367] inception_5a/relu_5x5 -> inception_5a/5x5 (in-place)
I0507 21:21:47.985133 22664 net.cpp:122] Setting up inception_5a/relu_5x5
I0507 21:21:47.985162 22664 net.cpp:129] Top shape: 32 128 7 7 (200704)
I0507 21:21:47.985164 22664 net.cpp:137] Memory required for data: 1734084104
I0507 21:21:47.985168 22664 layer_factory.hpp:77] Creating layer inception_5a/pool
I0507 21:21:47.985177 22664 net.cpp:84] Creating Layer inception_5a/pool
I0507 21:21:47.985182 22664 net.cpp:406] inception_5a/pool <- pool4/3x3_s2_pool4/3x3_s2_0_split_3
I0507 21:21:47.985188 22664 net.cpp:380] inception_5a/pool -> inception_5a/pool
I0507 21:21:47.985229 22664 net.cpp:122] Setting up inception_5a/pool
I0507 21:21:47.985235 22664 net.cpp:129] Top shape: 32 832 7 7 (1304576)
I0507 21:21:47.985239 22664 net.cpp:137] Memory required for data: 1739302408
I0507 21:21:47.985241 22664 layer_factory.hpp:77] Creating layer inception_5a/pool_proj
I0507 21:21:47.985250 22664 net.cpp:84] Creating Layer inception_5a/pool_proj
I0507 21:21:47.985255 22664 net.cpp:406] inception_5a/pool_proj <- inception_5a/pool
I0507 21:21:47.985260 22664 net.cpp:380] inception_5a/pool_proj -> inception_5a/pool_proj
I0507 21:21:47.987394 22664 net.cpp:122] Setting up inception_5a/pool_proj
I0507 21:21:47.987406 22664 net.cpp:129] Top shape: 32 128 7 7 (200704)
I0507 21:21:47.987409 22664 net.cpp:137] Memory required for data: 1740105224
I0507 21:21:47.987416 22664 layer_factory.hpp:77] Creating layer inception_5a/relu_pool_proj
I0507 21:21:47.987421 22664 net.cpp:84] Creating Layer inception_5a/relu_pool_proj
I0507 21:21:47.987426 22664 net.cpp:406] inception_5a/relu_pool_proj <- inception_5a/pool_proj
I0507 21:21:47.987432 22664 net.cpp:367] inception_5a/relu_pool_proj -> inception_5a/pool_proj (in-place)
I0507 21:21:47.987962 22664 net.cpp:122] Setting up inception_5a/relu_pool_proj
I0507 21:21:47.987972 22664 net.cpp:129] Top shape: 32 128 7 7 (200704)
I0507 21:21:47.987974 22664 net.cpp:137] Memory required for data: 1740908040
I0507 21:21:47.987978 22664 layer_factory.hpp:77] Creating layer inception_5a/output
I0507 21:21:47.987985 22664 net.cpp:84] Creating Layer inception_5a/output
I0507 21:21:47.987989 22664 net.cpp:406] inception_5a/output <- inception_5a/1x1
I0507 21:21:47.987994 22664 net.cpp:406] inception_5a/output <- inception_5a/3x3
I0507 21:21:47.987998 22664 net.cpp:406] inception_5a/output <- inception_5a/5x5
I0507 21:21:47.988003 22664 net.cpp:406] inception_5a/output <- inception_5a/pool_proj
I0507 21:21:47.988008 22664 net.cpp:380] inception_5a/output -> inception_5a/output
I0507 21:21:47.988035 22664 net.cpp:122] Setting up inception_5a/output
I0507 21:21:47.988040 22664 net.cpp:129] Top shape: 32 832 7 7 (1304576)
I0507 21:21:47.988044 22664 net.cpp:137] Memory required for data: 1746126344
I0507 21:21:47.988046 22664 layer_factory.hpp:77] Creating layer inception_5a/output_inception_5a/output_0_split
I0507 21:21:47.988054 22664 net.cpp:84] Creating Layer inception_5a/output_inception_5a/output_0_split
I0507 21:21:47.988059 22664 net.cpp:406] inception_5a/output_inception_5a/output_0_split <- inception_5a/output
I0507 21:21:47.988065 22664 net.cpp:380] inception_5a/output_inception_5a/output_0_split -> inception_5a/output_inception_5a/output_0_split_0
I0507 21:21:47.988070 22664 net.cpp:380] inception_5a/output_inception_5a/output_0_split -> inception_5a/output_inception_5a/output_0_split_1
I0507 21:21:47.988076 22664 net.cpp:380] inception_5a/output_inception_5a/output_0_split -> inception_5a/output_inception_5a/output_0_split_2
I0507 21:21:47.988082 22664 net.cpp:380] inception_5a/output_inception_5a/output_0_split -> inception_5a/output_inception_5a/output_0_split_3
I0507 21:21:47.988137 22664 net.cpp:122] Setting up inception_5a/output_inception_5a/output_0_split
I0507 21:21:47.988142 22664 net.cpp:129] Top shape: 32 832 7 7 (1304576)
I0507 21:21:47.988147 22664 net.cpp:129] Top shape: 32 832 7 7 (1304576)
I0507 21:21:47.988149 22664 net.cpp:129] Top shape: 32 832 7 7 (1304576)
I0507 21:21:47.988153 22664 net.cpp:129] Top shape: 32 832 7 7 (1304576)
I0507 21:21:47.988157 22664 net.cpp:137] Memory required for data: 1766999560
I0507 21:21:47.988159 22664 layer_factory.hpp:77] Creating layer inception_5b/1x1
I0507 21:21:47.988179 22664 net.cpp:84] Creating Layer inception_5b/1x1
I0507 21:21:47.988183 22664 net.cpp:406] inception_5b/1x1 <- inception_5a/output_inception_5a/output_0_split_0
I0507 21:21:47.988190 22664 net.cpp:380] inception_5b/1x1 -> inception_5b/1x1
I0507 21:21:47.993777 22664 net.cpp:122] Setting up inception_5b/1x1
I0507 21:21:47.993791 22664 net.cpp:129] Top shape: 32 384 7 7 (602112)
I0507 21:21:47.993795 22664 net.cpp:137] Memory required for data: 1769408008
I0507 21:21:47.993801 22664 layer_factory.hpp:77] Creating layer inception_5b/relu_1x1
I0507 21:21:47.993809 22664 net.cpp:84] Creating Layer inception_5b/relu_1x1
I0507 21:21:47.993813 22664 net.cpp:406] inception_5b/relu_1x1 <- inception_5b/1x1
I0507 21:21:47.993820 22664 net.cpp:367] inception_5b/relu_1x1 -> inception_5b/1x1 (in-place)
I0507 21:21:47.994182 22664 net.cpp:122] Setting up inception_5b/relu_1x1
I0507 21:21:47.994190 22664 net.cpp:129] Top shape: 32 384 7 7 (602112)
I0507 21:21:47.994194 22664 net.cpp:137] Memory required for data: 1771816456
I0507 21:21:47.994197 22664 layer_factory.hpp:77] Creating layer inception_5b/3x3_reduce
I0507 21:21:47.994207 22664 net.cpp:84] Creating Layer inception_5b/3x3_reduce
I0507 21:21:47.994212 22664 net.cpp:406] inception_5b/3x3_reduce <- inception_5a/output_inception_5a/output_0_split_1
I0507 21:21:47.994220 22664 net.cpp:380] inception_5b/3x3_reduce -> inception_5b/3x3_reduce
I0507 21:21:47.996723 22664 net.cpp:122] Setting up inception_5b/3x3_reduce
I0507 21:21:47.996735 22664 net.cpp:129] Top shape: 32 192 7 7 (301056)
I0507 21:21:47.996738 22664 net.cpp:137] Memory required for data: 1773020680
I0507 21:21:47.996744 22664 layer_factory.hpp:77] Creating layer inception_5b/relu_3x3_reduce
I0507 21:21:47.996752 22664 net.cpp:84] Creating Layer inception_5b/relu_3x3_reduce
I0507 21:21:47.996755 22664 net.cpp:406] inception_5b/relu_3x3_reduce <- inception_5b/3x3_reduce
I0507 21:21:47.996765 22664 net.cpp:367] inception_5b/relu_3x3_reduce -> inception_5b/3x3_reduce (in-place)
I0507 21:21:47.997123 22664 net.cpp:122] Setting up inception_5b/relu_3x3_reduce
I0507 21:21:47.997131 22664 net.cpp:129] Top shape: 32 192 7 7 (301056)
I0507 21:21:47.997135 22664 net.cpp:137] Memory required for data: 1774224904
I0507 21:21:47.997138 22664 layer_factory.hpp:77] Creating layer inception_5b/3x3
I0507 21:21:47.997148 22664 net.cpp:84] Creating Layer inception_5b/3x3
I0507 21:21:47.997151 22664 net.cpp:406] inception_5b/3x3 <- inception_5b/3x3_reduce
I0507 21:21:47.997159 22664 net.cpp:380] inception_5b/3x3 -> inception_5b/3x3
I0507 21:21:48.005175 22664 net.cpp:122] Setting up inception_5b/3x3
I0507 21:21:48.005192 22664 net.cpp:129] Top shape: 32 384 7 7 (602112)
I0507 21:21:48.005195 22664 net.cpp:137] Memory required for data: 1776633352
I0507 21:21:48.005203 22664 layer_factory.hpp:77] Creating layer inception_5b/relu_3x3
I0507 21:21:48.005211 22664 net.cpp:84] Creating Layer inception_5b/relu_3x3
I0507 21:21:48.005216 22664 net.cpp:406] inception_5b/relu_3x3 <- inception_5b/3x3
I0507 21:21:48.005225 22664 net.cpp:367] inception_5b/relu_3x3 -> inception_5b/3x3 (in-place)
I0507 21:21:48.005759 22664 net.cpp:122] Setting up inception_5b/relu_3x3
I0507 21:21:48.005769 22664 net.cpp:129] Top shape: 32 384 7 7 (602112)
I0507 21:21:48.005772 22664 net.cpp:137] Memory required for data: 1779041800
I0507 21:21:48.005776 22664 layer_factory.hpp:77] Creating layer inception_5b/5x5_reduce
I0507 21:21:48.005787 22664 net.cpp:84] Creating Layer inception_5b/5x5_reduce
I0507 21:21:48.005791 22664 net.cpp:406] inception_5b/5x5_reduce <- inception_5a/output_inception_5a/output_0_split_2
I0507 21:21:48.005800 22664 net.cpp:380] inception_5b/5x5_reduce -> inception_5b/5x5_reduce
I0507 21:21:48.007630 22664 net.cpp:122] Setting up inception_5b/5x5_reduce
I0507 21:21:48.007642 22664 net.cpp:129] Top shape: 32 48 7 7 (75264)
I0507 21:21:48.007645 22664 net.cpp:137] Memory required for data: 1779342856
I0507 21:21:48.007652 22664 layer_factory.hpp:77] Creating layer inception_5b/relu_5x5_reduce
I0507 21:21:48.007676 22664 net.cpp:84] Creating Layer inception_5b/relu_5x5_reduce
I0507 21:21:48.007680 22664 net.cpp:406] inception_5b/relu_5x5_reduce <- inception_5b/5x5_reduce
I0507 21:21:48.007686 22664 net.cpp:367] inception_5b/relu_5x5_reduce -> inception_5b/5x5_reduce (in-place)
I0507 21:21:48.008227 22664 net.cpp:122] Setting up inception_5b/relu_5x5_reduce
I0507 21:21:48.008237 22664 net.cpp:129] Top shape: 32 48 7 7 (75264)
I0507 21:21:48.008240 22664 net.cpp:137] Memory required for data: 1779643912
I0507 21:21:48.008244 22664 layer_factory.hpp:77] Creating layer inception_5b/5x5
I0507 21:21:48.008255 22664 net.cpp:84] Creating Layer inception_5b/5x5
I0507 21:21:48.008258 22664 net.cpp:406] inception_5b/5x5 <- inception_5b/5x5_reduce
I0507 21:21:48.008266 22664 net.cpp:380] inception_5b/5x5 -> inception_5b/5x5
I0507 21:21:48.010828 22664 net.cpp:122] Setting up inception_5b/5x5
I0507 21:21:48.010843 22664 net.cpp:129] Top shape: 32 128 7 7 (200704)
I0507 21:21:48.010848 22664 net.cpp:137] Memory required for data: 1780446728
I0507 21:21:48.010857 22664 layer_factory.hpp:77] Creating layer inception_5b/relu_5x5
I0507 21:21:48.010866 22664 net.cpp:84] Creating Layer inception_5b/relu_5x5
I0507 21:21:48.010872 22664 net.cpp:406] inception_5b/relu_5x5 <- inception_5b/5x5
I0507 21:21:48.010882 22664 net.cpp:367] inception_5b/relu_5x5 -> inception_5b/5x5 (in-place)
I0507 21:21:48.020189 22664 net.cpp:122] Setting up inception_5b/relu_5x5
I0507 21:21:48.020205 22664 net.cpp:129] Top shape: 32 128 7 7 (200704)
I0507 21:21:48.020208 22664 net.cpp:137] Memory required for data: 1781249544
I0507 21:21:48.020213 22664 layer_factory.hpp:77] Creating layer inception_5b/pool
I0507 21:21:48.020223 22664 net.cpp:84] Creating Layer inception_5b/pool
I0507 21:21:48.020228 22664 net.cpp:406] inception_5b/pool <- inception_5a/output_inception_5a/output_0_split_3
I0507 21:21:48.020236 22664 net.cpp:380] inception_5b/pool -> inception_5b/pool
I0507 21:21:48.020290 22664 net.cpp:122] Setting up inception_5b/pool
I0507 21:21:48.020296 22664 net.cpp:129] Top shape: 32 832 7 7 (1304576)
I0507 21:21:48.020300 22664 net.cpp:137] Memory required for data: 1786467848
I0507 21:21:48.020303 22664 layer_factory.hpp:77] Creating layer inception_5b/pool_proj
I0507 21:21:48.020315 22664 net.cpp:84] Creating Layer inception_5b/pool_proj
I0507 21:21:48.020319 22664 net.cpp:406] inception_5b/pool_proj <- inception_5b/pool
I0507 21:21:48.020326 22664 net.cpp:380] inception_5b/pool_proj -> inception_5b/pool_proj
I0507 21:21:48.024972 22664 net.cpp:122] Setting up inception_5b/pool_proj
I0507 21:21:48.024991 22664 net.cpp:129] Top shape: 32 128 7 7 (200704)
I0507 21:21:48.024994 22664 net.cpp:137] Memory required for data: 1787270664
I0507 21:21:48.025002 22664 layer_factory.hpp:77] Creating layer inception_5b/relu_pool_proj
I0507 21:21:48.025012 22664 net.cpp:84] Creating Layer inception_5b/relu_pool_proj
I0507 21:21:48.025017 22664 net.cpp:406] inception_5b/relu_pool_proj <- inception_5b/pool_proj
I0507 21:21:48.025024 22664 net.cpp:367] inception_5b/relu_pool_proj -> inception_5b/pool_proj (in-place)
I0507 21:21:48.025573 22664 net.cpp:122] Setting up inception_5b/relu_pool_proj
I0507 21:21:48.025581 22664 net.cpp:129] Top shape: 32 128 7 7 (200704)
I0507 21:21:48.025584 22664 net.cpp:137] Memory required for data: 1788073480
I0507 21:21:48.025588 22664 layer_factory.hpp:77] Creating layer inception_5b/output
I0507 21:21:48.025594 22664 net.cpp:84] Creating Layer inception_5b/output
I0507 21:21:48.025599 22664 net.cpp:406] inception_5b/output <- inception_5b/1x1
I0507 21:21:48.025604 22664 net.cpp:406] inception_5b/output <- inception_5b/3x3
I0507 21:21:48.025609 22664 net.cpp:406] inception_5b/output <- inception_5b/5x5
I0507 21:21:48.025612 22664 net.cpp:406] inception_5b/output <- inception_5b/pool_proj
I0507 21:21:48.025619 22664 net.cpp:380] inception_5b/output -> inception_5b/output
I0507 21:21:48.025648 22664 net.cpp:122] Setting up inception_5b/output
I0507 21:21:48.025653 22664 net.cpp:129] Top shape: 32 1024 7 7 (1605632)
I0507 21:21:48.025673 22664 net.cpp:137] Memory required for data: 1794496008
I0507 21:21:48.025676 22664 layer_factory.hpp:77] Creating layer pool5/7x7_s1
I0507 21:21:48.025682 22664 net.cpp:84] Creating Layer pool5/7x7_s1
I0507 21:21:48.025686 22664 net.cpp:406] pool5/7x7_s1 <- inception_5b/output
I0507 21:21:48.025692 22664 net.cpp:380] pool5/7x7_s1 -> pool5/7x7_s1
I0507 21:21:48.026233 22664 net.cpp:122] Setting up pool5/7x7_s1
I0507 21:21:48.026243 22664 net.cpp:129] Top shape: 32 1024 1 1 (32768)
I0507 21:21:48.026247 22664 net.cpp:137] Memory required for data: 1794627080
I0507 21:21:48.026250 22664 layer_factory.hpp:77] Creating layer pool5/drop_7x7_s1
I0507 21:21:48.026259 22664 net.cpp:84] Creating Layer pool5/drop_7x7_s1
I0507 21:21:48.026263 22664 net.cpp:406] pool5/drop_7x7_s1 <- pool5/7x7_s1
I0507 21:21:48.026268 22664 net.cpp:367] pool5/drop_7x7_s1 -> pool5/7x7_s1 (in-place)
I0507 21:21:48.026291 22664 net.cpp:122] Setting up pool5/drop_7x7_s1
I0507 21:21:48.026296 22664 net.cpp:129] Top shape: 32 1024 1 1 (32768)
I0507 21:21:48.026299 22664 net.cpp:137] Memory required for data: 1794758152
I0507 21:21:48.026302 22664 layer_factory.hpp:77] Creating layer loss3/classifier
I0507 21:21:48.026310 22664 net.cpp:84] Creating Layer loss3/classifier
I0507 21:21:48.026314 22664 net.cpp:406] loss3/classifier <- pool5/7x7_s1
I0507 21:21:48.026319 22664 net.cpp:380] loss3/classifier -> loss3/classifier
I0507 21:21:48.027388 22664 net.cpp:122] Setting up loss3/classifier
I0507 21:21:48.027395 22664 net.cpp:129] Top shape: 32 196 (6272)
I0507 21:21:48.027398 22664 net.cpp:137] Memory required for data: 1794783240
I0507 21:21:48.027405 22664 layer_factory.hpp:77] Creating layer loss3/loss
I0507 21:21:48.027412 22664 net.cpp:84] Creating Layer loss3/loss
I0507 21:21:48.027416 22664 net.cpp:406] loss3/loss <- loss3/classifier
I0507 21:21:48.027421 22664 net.cpp:406] loss3/loss <- label_train-data_1_split_2
I0507 21:21:48.027426 22664 net.cpp:380] loss3/loss -> loss
…
I0507 21:21:48.030910 22664 net.cpp:294] The NetState phase (1) differed from the phase (0) specified by a rule in layer train-data
I0507 21:21:48.031895 22664 net.cpp:51] Initializing net from parameters:
state {
phase: TEST
}
layer {
name: "val-data"
type: "Data"
top: "data"
top: "label"
include {
phase: TEST
}
transform_param {
mirror: false
crop_size: 224
mean_file: "/mnt/bigdisk/MANDIG4/digits/jobs/20200507-113634-e696/mean.binaryproto"
}
data_param {
source: "/mnt/bigdisk/MANDIG4/digits/jobs/20200507-113634-e696/val_db"
batch_size: 16
backend: LMDB
}
}
layer {
name: "conv1/7x7_s2"
type: "Convolution"
bottom: "data"
top: "conv1/7x7_s2"
param {
lr_mult: 1
decay_mult: 1
}
param {
lr_mult: 2
decay_mult: 0
}
convolution_param {
num_output: 64
pad: 3
kernel_size: 7
stride: 2
weight_filler {
type: "xavier"
std: 0.1
}
bias_filler {
type: "constant"
value: 0.2
}
}
}
layer {
name: "conv1/relu_7x7"
type: "ReLU"
bottom: "conv1/7x7_s2"
top: "conv1/7x7_s2"
}
layer {
name: "pool1/3x3_s2"
type: "Pooling"
bottom: "conv1/7x7_s2"
top: "pool1/3x3_s2"
pooling_param {
pool: MAX
kernel_size: 3
stride: 2
}
}
layer {
name: "pool1/norm1"
type: "LRN"
bottom: "pool1/3x3_s2"
top: "pool1/norm1"
lrn_param {
local_size: 5
alpha: 0.0001
beta: 0.75
}
}
layer {
name: "conv2/3x3_reduce"
type: "Convolution"
bottom: "pool1/norm1"
top: "conv2/3x3_reduce"
param {
lr_mult: 1
decay_mult: 1
}
param {
lr_mult: 2
decay_mult: 0
}
convolution_param {
num_output: 64
kernel_size: 1
weight_filler {
type: "xavier"
std: 0.1
}
bias_filler {
type: "constant"
value: 0.2
}
}
}
layer {
name: "conv2/relu_3x3_reduce"
type: "ReLU"
bottom: "conv2/3x3_reduce"
top: "conv2/3x3_reduce"
}
layer {
name: "conv2/3x3"
type: "Convolution"
bottom: "conv2/3x3_reduce"
top: "conv2/3x3"
param {
lr_mult: 1
decay_mult: 1
}
param {
lr_mult: 2
decay_mult: 0
}
convolution_param {
num_output: 192
pad: 1
kernel_size: 3
weight_filler {
type: "xavier"
std: 0.03
}
bias_filler {
type: "constant"
value: 0.2
}
}
}
layer {
name: "conv2/relu_3x3"
type: "ReLU"
bottom: "conv2/3x3"
top: "conv2/3x3"
}
layer {
name: "conv2/norm2"
type: "LRN"
bottom: "conv2/3x3"
top: "conv2/norm2"
lrn_param {
local_size: 5
alpha: 0.0001
beta: 0.75
}
}
layer {
name: "pool2/3x3_s2"
type: "Pooling"
bottom: "conv2/norm2"
top: "pool2/3x3_s2"
pooling_param {
pool: MAX
kernel_size: 3
stride: 2
}
}
layer {
name: "inception_3a/1x1"
type: "Convolution"
bottom: "pool2/3x3_s2"
top: "inception_3a/1x1"
param {
lr_mult: 1
decay_mult: 1
}
param {
lr_mult: 2
decay_mult: 0
}
convolution_param {
num_output: 64
kernel_size: 1
weight_filler {
type: "xavier"
std: 0.03
}
bias_filler {
type: "constant"
value: 0.2
}
}
}
layer {
name: "inception_3a/relu_1x1"
type: "ReLU"
bottom: "inception_3a/1x1"
top: "inception_3a/1x1"
}
layer {
name: "inception_3a/3x3_reduce"
type: "Convolution"
bottom: "pool2/3x3_s2"
top: "inception_3a/3x3_reduce"
param {
lr_mult: 1
decay_mult: 1
}
param {
lr_mult: 2
decay_mult: 0
}
convolution_param {
num_output: 96
kernel_size: 1
weight_filler {
type: "xavier"
std: 0.09
}
bias_filler {
type: "constant"
value: 0.2
}
}
}
layer {
name: "inception_3a/relu_3x3_reduce"
type: "ReLU"
bottom: "inception_3a/3x3_reduce"
top: "inception_3a/3x3_reduce"
}
layer {
name: "inception_3a/3x3"
type: "Convolution"
bottom: "inception_3a/3x3_reduce"
top: "inception_3a/3x3"
param {
lr_mult: 1
decay_mult: 1
}
param {
lr_mult: 2
decay_mult: 0
}
convolution_param {
num_output: 128
pad: 1
kernel_size: 3
weight_filler {
type: "xavier"
std: 0.03
}
bias_filler {
type: "constant"
value: 0.2
}
}
}
layer {
name: "inception_3a/relu_3x3"
type: "ReLU"
bottom: "inception_3a/3x3"
top: "inception_3a/3x3"
}
layer {
name: "inception_3a/5x5_reduce"
type: "Convolution"
bottom: "pool2/3x3_s2"
top: "inception_3a/5x5_reduce"
param {
lr_mult: 1
decay_mult: 1
}
param {
lr_mult: 2
decay_mult: 0
}
convolution_param {
num_output: 16
kernel_size: 1
weight_filler {
type: "xavier"
std: 0.2
}
bias_filler {
type: "constant"
value: 0.2
}
}
}
layer {
name: "inception_3a/relu_5x5_reduce"
type: "ReLU"
bottom: "inception_3a/5x5_reduce"
top: "inception_3a/5x5_reduce"
}
layer {
name: "inception_3a/5x5"
type: "Convolution"
bottom: "inception_3a/5x5_reduce"
top: "inception_3a/5x5"
param {
lr_mult: 1
decay_mult: 1
}
param {
lr_mult: 2
decay_mult: 0
}
convolution_param {
num_output: 32
pad: 2
kernel_size: 5
weight_filler {
type: "xavier"
std: 0.03
}
bias_filler {
type: "constant"
value: 0.2
}
}
}
layer {
name: "inception_3a/relu_5x5"
type: "ReLU"
bottom: "inception_3a/5x5"
top: "inception_3a/5x5"
}
layer {
name: "inception_3a/pool"
type: "Pooling"
bottom: "pool2/3x3_s2"
top: "inception_3a/pool"
pooling_param {
pool: MAX
kernel_size: 3
stride: 1
pad: 1
}
}
layer {
name: "inception_3a/pool_proj"
type: "Convolution"
bottom: "inception_3a/pool"
top: "inception_3a/pool_proj"
param {
lr_mult: 1
decay_mult: 1
}
param {
lr_mult: 2
decay_mult: 0
}
convolution_param {
num_output: 32
kernel_size: 1
weight_filler {
type: "xavier"
std: 0.1
}
bias_filler {
type: "constant"
value: 0.2
}
}
}
layer {
name: "inception_3a/relu_pool_proj"
type: "ReLU"
bottom: "inception_3a/pool_proj"
top: "inception_3a/pool_proj"
}
layer {
name: "inception_3a/output"
type: "Concat"
bottom: "inception_3a/1x1"
bottom: "inception_3a/3x3"
bottom: "inception_3a/5x5"
bottom: "inception_3a/pool_proj"
top: "inception_3a/output"
}
layer {
name: "inception_3b/1x1"
type: "Convolution"
bottom: "inception_3a/output"
top: "inception_3b/1x1"
param {
lr_mult: 1
decay_mult: 1
}
param {
lr_mult: 2
decay_mult: 0
}
convolution_param {
num_output: 128
kernel_size: 1
weight_filler {
type: "xavier"
std: 0.03
}
bias_filler {
type: "constant"
value: 0.2
}
}
}
layer {
name: "inception_3b/relu_1x1"
type: "ReLU"
bottom: "inception_3b/1x1"
top: "inception_3b/1x1"
}
layer {
name: "inception_3b/3x3_reduce"
type: "Convolution"
bottom: "inception_3a/output"
top: "inception_3b/3x3_reduce"
param {
lr_mult: 1
decay_mult: 1
}
param {
lr_mult: 2
decay_mult: 0
}
convolution_param {
num_output: 128
kernel_size: 1
weight_filler {
type: "xavier"
std: 0.09
}
bias_filler {
type: "constant"
value: 0.2
}
}
}
layer {
name: "inception_3b/relu_3x3_reduce"
type: "ReLU"
bottom: "inception_3b/3x3_reduce"
top: "inception_3b/3x3_reduce"
}
layer {
name: "inception_3b/3x3"
type: "Convolution"
bottom: "inception_3b/3x3_reduce"
top: "inception_3b/3x3"
param {
lr_mult: 1
decay_mult: 1
}
param {
lr_mult: 2
decay_mult: 0
}
convolution_param {
num_output: 192
pad: 1
kernel_size: 3
weight_filler {
type: "xavier"
std: 0.03
}
bias_filler {
type: "constant"
value: 0.2
}
}
}
layer {
name: "inception_3b/relu_3x3"
type: "ReLU"
bottom: "inception_3b/3x3"
top: "inception_3b/3x3"
}
layer {
name: "inception_3b/5x5_reduce"
type: "Convolution"
bottom: "inception_3a/output"
top: "inception_3b/5x5_reduce"
param {
lr_mult: 1
decay_mult: 1
}
param {
lr_mult: 2
decay_mult: 0
}
convolution_param {
num_output: 32
kernel_size: 1
weight_filler {
type: "xavier"
std: 0.2
}
bias_filler {
type: "constant"
value: 0.2
}
}
}
layer {
name: "inception_3b/relu_5x5_reduce"
type: "ReLU"
bottom: "inception_3b/5x5_reduce"
top: "inception_3b/5x5_reduce"
}
layer {
name: "inception_3b/5x5"
type: "Convolution"
bottom: "inception_3b/5x5_reduce"
top: "inception_3b/5x5"
param {
lr_mult: 1
decay_mult: 1
}
param {
lr_mult: 2
decay_mult: 0
}
convolution_param {
num_output: 96
pad: 2
kernel_size: 5
weight_filler {
type: "xavier"
std: 0.03
}
bias_filler {
type: "constant"
value: 0.2
}
}
}
layer {
name: "inception_3b/relu_5x5"
type: "ReLU"
bottom: "inception_3b/5x5"
top: "inception_3b/5x5"
}
layer {
name: "inception_3b/pool"
type: "Pooling"
bottom: "inception_3a/output"
top: "inception_3b/pool"
pooling_param {
pool: MAX
kernel_size: 3
stride: 1
pad: 1
}
}
layer {
name: "inception_3b/pool_proj"
type: "Convolution"
bottom: "inception_3b/pool"
top: "inception_3b/pool_proj"
param {
lr_mult: 1
decay_mult: 1
}
param {
lr_mult: 2
decay_mult: 0
}
convolution_param {
num_output: 64
kernel_size: 1
weight_filler {
type: "xavier"
std: 0.1
}
bias_filler {
type: "constant"
value: 0.2
}
}
}
layer {
name: "inception_3b/relu_pool_proj"
type: "ReLU"
bottom: "inception_3b/pool_proj"
top: "inception_3b/pool_proj"
}
layer {
name: "inception_3b/output"
type: "Concat"
bottom: "inception_3b/1x1"
bottom: "inception_3b/3x3"
bottom: "inception_3b/5x5"
bottom: "inception_3b/pool_proj"
top: "inception_3b/output"
}
layer {
name: "pool3/3x3_s2"
type: "Pooling"
bottom: "inception_3b/output"
top: "pool3/3x3_s2"
pooling_param {
pool: MAX
kernel_size: 3
stride: 2
}
}
layer {
name: "inception_4a/1x1"
type: "Convolution"
bottom: "pool3/3x3_s2"
top: "inception_4a/1x1"
param {
lr_mult: 1
decay_mult: 1
}
param {
lr_mult: 2
decay_mult: 0
}
convolution_param {
num_output: 192
kernel_size: 1
weight_filler {
type: "xavier"
std: 0.03
}
bias_filler {
type: "constant"
value: 0.2
}
}
}
layer {
name: "inception_4a/relu_1x1"
type: "ReLU"
bottom: "inception_4a/1x1"
top: "inception_4a/1x1"
}
layer {
name: "inception_4a/3x3_reduce"
type: "Convolution"
bottom: "pool3/3x3_s2"
top: "inception_4a/3x3_reduce"
param {
lr_mult: 1
decay_mult: 1
}
param {
lr_mult: 2
decay_mult: 0
}
convolution_param {
num_output: 96
kernel_size: 1
weight_filler {
type: "xavier"
std: 0.09
}
bias_filler {
type: "constant"
value: 0.2
}
}
}
layer {
name: "inception_4a/relu_3x3_reduce"
type: "ReLU"
bottom: "inception_4a/3x3_reduce"
top: "inception_4a/3x3_reduce"
}
layer {
name: "inception_4a/3x3"
type: "Convolution"
bottom: "inception_4a/3x3_reduce"
top: "inception_4a/3x3"
param {
lr_mult: 1
decay_mult: 1
}
param {
lr_mult: 2
decay_mult: 0
}
convolution_param {
num_output: 208
pad: 1
kernel_size: 3
weight_filler {
type: "xavier"
std: 0.03
}
bias_filler {
type: "constant"
value: 0.2
}
}
}
layer {
name: "inception_4a/relu_3x3"
type: "ReLU"
bottom: "inception_4a/3x3"
top: "inception_4a/3x3"
}
layer {
name: "inception_4a/5x5_reduce"
type: "Convolution"
bottom: "pool3/3x3_s2"
top: "inception_4a/5x5_reduce"
param {
lr_mult: 1
decay_mult: 1
}
param {
lr_mult: 2
decay_mult: 0
}
convolution_param {
num_output: 16
kernel_size: 1
weight_filler {
type: "xavier"
std: 0.2
}
bias_filler {
type: "constant"
value: 0.2
}
}
}
layer {
name: "inception_4a/relu_5x5_reduce"
type: "ReLU"
bottom: "inception_4a/5x5_reduce"
top: "inception_4a/5x5_reduce"
}
layer {
name: "inception_4a/5x5"
type: "Convolution"
bottom: "inception_4a/5x5_reduce"
top: "inception_4a/5x5"
param {
lr_mult: 1
decay_mult: 1
}
param {
lr_mult: 2
decay_mult: 0
}
convolution_param {
num_output: 48
pad: 2
kernel_size: 5
weight_filler {
type: "xavier"
std: 0.03
}
bias_filler {
type: "constant"
value: 0.2
}
}
}
layer {
name: "inception_4a/relu_5x5"
type: "ReLU"
bottom: "inception_4a/5x5"
top: "inception_4a/5x5"
}
layer {
name: "inception_4a/pool"
type: "Pooling"
bottom: "pool3/3x3_s2"
top: "inception_4a/pool"
pooling_param {
pool: MAX
kernel_size: 3
stride: 1
pad: 1
}
}
layer {
name: "inception_4a/pool_proj"
type: "Convolution"
bottom: "inception_4a/pool"
top: "inception_4a/pool_proj"
param {
lr_mult: 1
decay_mult: 1
}
param {
lr_mult: 2
decay_mult: 0
}
convolution_param {
num_output: 64
kernel_size: 1
weight_filler {
type: "xavier"
std: 0.1
}
bias_filler {
type: "constant"
value: 0.2
}
}
}
layer {
name: "inception_4a/relu_pool_proj"
type: "ReLU"
bottom: "inception_4a/pool_proj"
top: "inception_4a/pool_proj"
}
layer {
name: "inception_4a/output"
type: "Concat"
bottom: "inception_4a/1x1"
bottom: "inception_4a/3x3"
bottom: "inception_4a/5x5"
bottom: "inception_4a/pool_proj"
top: "inception_4a/output"
}
layer {
name: "loss1/ave_pool"
type: "Pooling"
bottom: "inception_4a/output"
top: "loss1/ave_pool"
pooling_param {
pool: AVE
kernel_size: 5
stride: 3
}
}
layer {
name: "loss1/conv"
type: "Convolution"
bottom: "loss1/ave_pool"
top: "loss1/conv"
param {
lr_mult: 1
decay_mult: 1
}
param {
lr_mult: 2
decay_mult: 0
}
convolution_param {
num_output: 128
kernel_size: 1
weight_filler {
type: "xavier"
std: 0.08
}
bias_filler {
type: "constant"
value: 0.2
}
}
}
layer {
name: "loss1/relu_conv"
type: "ReLU"
bottom: "loss1/conv"
top: "loss1/conv"
}
layer {
name: "loss1/fc"
type: "InnerProduct"
bottom: "loss1/conv"
top: "loss1/fc"
param {
lr_mult: 1
decay_mult: 1
}
param {
lr_mult: 2
decay_mult: 0
}
inner_product_param {
num_output: 1024
weight_filler {
type: "xavier"
std: 0.02
}
bias_filler {
type: "constant"
value: 0.2
}
}
}
layer {
name: "loss1/relu_fc"
type: "ReLU"
bottom: "loss1/fc"
top: "loss1/fc"
}
layer {
name: "loss1/drop_fc"
type: "Dropout"
bottom: "loss1/fc"
top: "loss1/fc"
dropout_param {
dropout_ratio: 0.7
}
}
layer {
name: "loss1/classifier"
type: "InnerProduct"
bottom: "loss1/fc"
top: "loss1/classifier"
param {
lr_mult: 1
decay_mult: 1
}
param {
lr_mult: 2
decay_mult: 0
}
inner_product_param {
num_output: 196
weight_filler {
type: "xavier"
std: 0.0009765625
}
bias_filler {
type: "constant"
value: 0
}
}
}
layer {
name: "loss1/loss"
type: "SoftmaxWithLoss"
bottom: "loss1/classifier"
bottom: "label"
top: "loss1/loss"
loss_weight: 0.3
}
layer {
name: "loss1/top-1"
type: "Accuracy"
bottom: "loss1/classifier"
bottom: "label"
top: "loss1/accuracy"
include {
phase: TEST
}
}
layer {
name: "loss1/top-5"
type: "Accuracy"
bottom: "loss1/classifier"
bottom: "label"
top: "loss1/accuracy-top5"
include {
phase: TEST
}
accuracy_param {
top_k: 5
}
}
layer {
name: "inception_4b/1x1"
type: "Convolution"
bottom: "inception_4a/output"
top: "inception_4b/1x1"
param {
lr_mult: 1
decay_mult: 1
}
param {
lr_mult: 2
decay_mult: 0
}
convolution_param {
num_output: 160
kernel_size: 1
weight_filler {
type: "xavier"
std: 0.03
}
bias_filler {
type: "constant"
value: 0.2
}
}
}
layer {
name: "inception_4b/relu_1x1"
type: "ReLU"
bottom: "inception_4b/1x1"
top: "inception_4b/1x1"
}
layer {
name: "inception_4b/3x3_reduce"
type: "Convolution"
bottom: "inception_4a/output"
top: "inception_4b/3x3_reduce"
param {
lr_mult: 1
decay_mult: 1
}
param {
lr_mult: 2
decay_mult: 0
}
convolution_param {
num_output: 112
kernel_size: 1
weight_filler {
type: "xavier"
std: 0.09
}
bias_filler {
type: "constant"
value: 0.2
}
}
}
layer {
name: "inception_4b/relu_3x3_reduce"
type: "ReLU"
bottom: "inception_4b/3x3_reduce"
top: "inception_4b/3x3_reduce"
}
layer {
name: "inception_4b/3x3"
type: "Convolution"
bottom: "inception_4b/3x3_reduce"
top: "inception_4b/3x3"
param {
lr_mult: 1
decay_mult: 1
}
param {
lr_mult: 2
decay_mult: 0
}
convolution_param {
num_output: 224
pad: 1
kernel_size: 3
weight_filler {
type: "xavier"
std: 0.03
}
bias_filler {
type: "constant"
value: 0.2
}
}
}
layer {
name: "inception_4b/relu_3x3"
type: "ReLU"
bottom: "inception_4b/3x3"
top: "inception_4b/3x3"
}
layer {
name: "inception_4b/5x5_reduce"
type: "Convolution"
bottom: "inception_4a/output"
top: "inception_4b/5x5_reduce"
param {
lr_mult: 1
decay_mult: 1
}
param {
lr_mult: 2
decay_mult: 0
}
convolution_param {
num_output: 24
kernel_size: 1
weight_filler {
type: "xavier"
std: 0.2
}
bias_filler {
type: "constant"
value: 0.2
}
}
}
layer {
name: "inception_4b/relu_5x5_reduce"
type: "ReLU"
bottom: "inception_4b/5x5_reduce"
top: "inception_4b/5x5_reduce"
}
layer {
name: "inception_4b/5x5"
type: "Convolution"
bottom: "inception_4b/5x5_reduce"
top: "inception_4b/5x5"
param {
lr_mult: 1
decay_mult: 1
}
param {
lr_mult: 2
decay_mult: 0
}
convolution_param {
num_output: 64
pad: 2
kernel_size: 5
weight_filler {
type: "xavier"
std: 0.03
}
bias_filler {
type: "constant"
value: 0.2
}
}
}
layer {
name: "inception_4b/relu_5x5"
type: "ReLU"
bottom: "inception_4b/5x5"
top: "inception_4b/5x5"
}
layer {
name: "inception_4b/pool"
type: "Pooling"
bottom: "inception_4a/output"
top: "inception_4b/pool"
pooling_param {
pool: MAX
kernel_size: 3
stride: 1
pad: 1
}
}
layer {
name: "inception_4b/pool_proj"
type: "Convolution"
bottom: "inception_4b/pool"
top: "inception_4b/pool_proj"
param {
lr_mult: 1
decay_mult: 1
}
param {
lr_mult: 2
decay_mult: 0
}
convolution_param {
num_output: 64
kernel_size: 1
weight_filler {
type: "xavier"
std: 0.1
}
bias_filler {
type: "constant"
value: 0.2
}
}
}
layer {
name: "inception_4b/relu_pool_proj"
type: "ReLU"
bottom: "inception_4b/pool_proj"
top: "inception_4b/pool_proj"
}
layer {
name: "inception_4b/output"
type: "Concat"
bottom: "inception_4b/1x1"
bottom: "inception_4b/3x3"
bottom: "inception_4b/5x5"
bottom: "inception_4b/pool_proj"
top: "inception_4b/output"
}
layer {
name: "inception_4c/1x1"
type: "Convolution"
bottom: "inception_4b/output"
top: "inception_4c/1x1"
param {
lr_mult: 1
decay_mult: 1
}
param {
lr_mult: 2
decay_mult: 0
}
convolution_param {
num_output: 128
kernel_size: 1
weight_filler {
type: "xavier"
std: 0.03
}
bias_filler {
type: "constant"
value: 0.2
}
}
}
layer {
name: "inception_4c/relu_1x1"
type: "ReLU"
bottom: "inception_4c/1x1"
top: "inception_4c/1x1"
}
layer {
name: "inception_4c/3x3_reduce"
type: "Convolution"
bottom: "inception_4b/output"
top: "inception_4c/3x3_reduce"
param {
lr_mult: 1
decay_mult: 1
}
param {
lr_mult: 2
decay_mult: 0
}
convolution_param {
num_output: 128
kernel_size: 1
weight_filler {
type: "xavier"
std: 0.09
}
bias_filler {
type: "constant"
value: 0.2
}
}
}
layer {
name: "inception_4c/relu_3x3_reduce"
type: "ReLU"
bottom: "inception_4c/3x3_reduce"
top: "inception_4c/3x3_reduce"
}
layer {
name: "inception_4c/3x3"
type: "Convolution"
bottom: "inception_4c/3x3_reduce"
top: "inception_4c/3x3"
param {
lr_mult: 1
decay_mult: 1
}
param {
lr_mult: 2
decay_mult: 0
}
convolution_param {
num_output: 256
pad: 1
kernel_size: 3
weight_filler {
type: "xavier"
std: 0.03
}
bias_filler {
type: "constant"
value: 0.2
}
}
}
layer {
name: "inception_4c/relu_3x3"
type: "ReLU"
bottom: "inception_4c/3x3"
top: "inception_4c/3x3"
}
layer {
name: "inception_4c/5x5_reduce"
type: "Convolution"
bottom: "inception_4b/output"
top: "inception_4c/5x5_reduce"
param {
lr_mult: 1
decay_mult: 1
}
param {
lr_mult: 2
decay_mult: 0
}
convolution_param {
num_output: 24
kernel_size: 1
weight_filler {
type: "xavier"
std: 0.2
}
bias_filler {
type: "constant"
value: 0.2
}
}
}
layer {
name: "inception_4c/relu_5x5_reduce"
type: "ReLU"
bottom: "inception_4c/5x5_reduce"
top: "inception_4c/5x5_reduce"
}
layer {
name: "inception_4c/5x5"
type: "Convolution"
bottom: "inception_4c/5x5_reduce"
top: "inception_4c/5x5"
param {
lr_mult: 1
decay_mult: 1
}
param {
lr_mult: 2
decay_mult: 0
}
convolution_param {
num_output: 64
pad: 2
kernel_size: 5
weight_filler {
type: "xavier"
std: 0.03
}
bias_filler {
type: "constant"
value: 0.2
}
}
}
layer {
name: "inception_4c/relu_5x5"
type: "ReLU"
bottom: "inception_4c/5x5"
top: "inception_4c/5x5"
}
layer {
name: "inception_4c/pool"
type: "Pooling"
bottom: "inception_4b/output"
top: "inception_4c/pool"
pooling_param {
pool: MAX
kernel_size: 3
stride: 1
pad: 1
}
}
layer {
name: "inception_4c/pool_proj"
type: "Convolution"
bottom: "inception_4c/pool"
top: "inception_4c/pool_proj"
param {
lr_mult: 1
decay_mult: 1
}
param {
lr_mult: 2
decay_mult: 0
}
convolution_param {
num_output: 64
kernel_size: 1
weight_filler {
type: "xavier"
std: 0.1
}
bias_filler {
type: "constant"
value: 0.2
}
}
}
layer {
name: "inception_4c/relu_pool_proj"
type: "ReLU"
bottom: "inception_4c/pool_proj"
top: "inception_4c/pool_proj"
}
layer {
name: "inception_4c/output"
type: "Concat"
bottom: "inception_4c/1x1"
bottom: "inception_4c/3x3"
bottom: "inception_4c/5x5"
bottom: "inception_4c/pool_proj"
top: "inception_4c/output"
}
layer {
name: "inception_4d/1x1"
type: "Convolution"
bottom: "inception_4c/output"
top: "inception_4d/1x1"
param {
lr_mult: 1
decay_mult: 1
}
param {
lr_mult: 2
decay_mult: 0
}
convolution_param {
num_output: 112
kernel_size: 1
weight_filler {
type: "xavier"
std: 0.03
}
bias_filler {
type: "constant"
value: 0.2
}
}
}
layer {
name: "inception_4d/relu_1x1"
…
I0507 21:21:48.312942 22664 net.cpp:122] Setting up inception_4c/relu_5x5
I0507 21:21:48.312954 22664 net.cpp:129] Top shape: 16 64 14 14 (200704)
I0507 21:21:48.312959 22664 net.cpp:137] Memory required for data: 700688012
I0507 21:21:48.312964 22664 layer_factory.hpp:77] Creating layer inception_4c/pool
I0507 21:21:48.312975 22664 net.cpp:84] Creating Layer inception_4c/pool
I0507 21:21:48.312981 22664 net.cpp:406] inception_4c/pool <- inception_4b/output_inception_4b/output_0_split_3
I0507 21:21:48.312989 22664 net.cpp:380] inception_4c/pool -> inception_4c/pool
I0507 21:21:48.313045 22664 net.cpp:122] Setting up inception_4c/pool
I0507 21:21:48.313053 22664 net.cpp:129] Top shape: 16 512 14 14 (1605632)
I0507 21:21:48.313058 22664 net.cpp:137] Memory required for data: 707110540
I0507 21:21:48.313063 22664 layer_factory.hpp:77] Creating layer inception_4c/pool_proj
I0507 21:21:48.313076 22664 net.cpp:84] Creating Layer inception_4c/pool_proj
I0507 21:21:48.313082 22664 net.cpp:406] inception_4c/pool_proj <- inception_4c/pool
I0507 21:21:48.313092 22664 net.cpp:380] inception_4c/pool_proj -> inception_4c/pool_proj
I0507 21:21:48.315677 22664 net.cpp:122] Setting up inception_4c/pool_proj
I0507 21:21:48.315690 22664 net.cpp:129] Top shape: 16 64 14 14 (200704)
I0507 21:21:48.315696 22664 net.cpp:137] Memory required for data: 707913356
I0507 21:21:48.315706 22664 layer_factory.hpp:77] Creating layer inception_4c/relu_pool_proj
I0507 21:21:48.315716 22664 net.cpp:84] Creating Layer inception_4c/relu_pool_proj
I0507 21:21:48.315723 22664 net.cpp:406] inception_4c/relu_pool_proj <- inception_4c/pool_proj
I0507 21:21:48.315732 22664 net.cpp:367] inception_4c/relu_pool_proj -> inception_4c/pool_proj (in-place)
I0507 21:21:48.316465 22664 net.cpp:122] Setting up inception_4c/relu_pool_proj
I0507 21:21:48.316478 22664 net.cpp:129] Top shape: 16 64 14 14 (200704)
I0507 21:21:48.316483 22664 net.cpp:137] Memory required for data: 708716172
I0507 21:21:48.316488 22664 layer_factory.hpp:77] Creating layer inception_4c/output
I0507 21:21:48.316498 22664 net.cpp:84] Creating Layer inception_4c/output
I0507 21:21:48.316504 22664 net.cpp:406] inception_4c/output <- inception_4c/1x1
I0507 21:21:48.316532 22664 net.cpp:406] inception_4c/output <- inception_4c/3x3
I0507 21:21:48.316540 22664 net.cpp:406] inception_4c/output <- inception_4c/5x5
I0507 21:21:48.316545 22664 net.cpp:406] inception_4c/output <- inception_4c/pool_proj
I0507 21:21:48.316552 22664 net.cpp:380] inception_4c/output -> inception_4c/output
I0507 21:21:48.316589 22664 net.cpp:122] Setting up inception_4c/output
I0507 21:21:48.316596 22664 net.cpp:129] Top shape: 16 512 14 14 (1605632)
I0507 21:21:48.316601 22664 net.cpp:137] Memory required for data: 715138700
I0507 21:21:48.316606 22664 layer_factory.hpp:77] Creating layer inception_4c/output_inception_4c/output_0_split
I0507 21:21:48.316614 22664 net.cpp:84] Creating Layer inception_4c/output_inception_4c/output_0_split
I0507 21:21:48.316619 22664 net.cpp:406] inception_4c/output_inception_4c/output_0_split <- inception_4c/output
I0507 21:21:48.316628 22664 net.cpp:380] inception_4c/output_inception_4c/output_0_split -> inception_4c/output_inception_4c/output_0_split_0
I0507 21:21:48.316637 22664 net.cpp:380] inception_4c/output_inception_4c/output_0_split -> inception_4c/output_inception_4c/output_0_split_1
I0507 21:21:48.316646 22664 net.cpp:380] inception_4c/output_inception_4c/output_0_split -> inception_4c/output_inception_4c/output_0_split_2
I0507 21:21:48.316654 22664 net.cpp:380] inception_4c/output_inception_4c/output_0_split -> inception_4c/output_inception_4c/output_0_split_3
I0507 21:21:48.316722 22664 net.cpp:122] Setting up inception_4c/output_inception_4c/output_0_split
I0507 21:21:48.316730 22664 net.cpp:129] Top shape: 16 512 14 14 (1605632)
I0507 21:21:48.316735 22664 net.cpp:129] Top shape: 16 512 14 14 (1605632)
I0507 21:21:48.316741 22664 net.cpp:129] Top shape: 16 512 14 14 (1605632)
I0507 21:21:48.316746 22664 net.cpp:129] Top shape: 16 512 14 14 (1605632)
I0507 21:21:48.316751 22664 net.cpp:137] Memory required for data: 740828812
I0507 21:21:48.316756 22664 layer_factory.hpp:77] Creating layer inception_4d/1x1
I0507 21:21:48.316767 22664 net.cpp:84] Creating Layer inception_4d/1x1
I0507 21:21:48.316772 22664 net.cpp:406] inception_4d/1x1 <- inception_4c/output_inception_4c/output_0_split_0
I0507 21:21:48.316781 22664 net.cpp:380] inception_4d/1x1 -> inception_4d/1x1
I0507 21:21:48.319387 22664 net.cpp:122] Setting up inception_4d/1x1
I0507 21:21:48.319399 22664 net.cpp:129] Top shape: 16 112 14 14 (351232)
I0507 21:21:48.319404 22664 net.cpp:137] Memory required for data: 742233740
I0507 21:21:48.319413 22664 layer_factory.hpp:77] Creating layer inception_4d/relu_1x1
I0507 21:21:48.319422 22664 net.cpp:84] Creating Layer inception_4d/relu_1x1
I0507 21:21:48.319427 22664 net.cpp:406] inception_4d/relu_1x1 <- inception_4d/1x1
I0507 21:21:48.319434 22664 net.cpp:367] inception_4d/relu_1x1 -> inception_4d/1x1 (in-place)
I0507 21:21:48.320119 22664 net.cpp:122] Setting up inception_4d/relu_1x1
I0507 21:21:48.320132 22664 net.cpp:129] Top shape: 16 112 14 14 (351232)
I0507 21:21:48.320137 22664 net.cpp:137] Memory required for data: 743638668
I0507 21:21:48.320143 22664 layer_factory.hpp:77] Creating layer inception_4d/3x3_reduce
I0507 21:21:48.320156 22664 net.cpp:84] Creating Layer inception_4d/3x3_reduce
I0507 21:21:48.320161 22664 net.cpp:406] inception_4d/3x3_reduce <- inception_4c/output_inception_4c/output_0_split_1
I0507 21:21:48.320170 22664 net.cpp:380] inception_4d/3x3_reduce -> inception_4d/3x3_reduce
I0507 21:21:48.330585 22664 net.cpp:122] Setting up inception_4d/3x3_reduce
I0507 21:21:48.330606 22664 net.cpp:129] Top shape: 16 144 14 14 (451584)
I0507 21:21:48.330610 22664 net.cpp:137] Memory required for data: 745445004
I0507 21:21:48.330621 22664 layer_factory.hpp:77] Creating layer inception_4d/relu_3x3_reduce
I0507 21:21:48.330629 22664 net.cpp:84] Creating Layer inception_4d/relu_3x3_reduce
I0507 21:21:48.330636 22664 net.cpp:406] inception_4d/relu_3x3_reduce <- inception_4d/3x3_reduce
I0507 21:21:48.330644 22664 net.cpp:367] inception_4d/relu_3x3_reduce -> inception_4d/3x3_reduce (in-place)
I0507 21:21:48.331035 22664 net.cpp:122] Setting up inception_4d/relu_3x3_reduce
I0507 21:21:48.331066 22664 net.cpp:129] Top shape: 16 144 14 14 (451584)
I0507 21:21:48.331071 22664 net.cpp:137] Memory required for data: 747251340
I0507 21:21:48.331075 22664 layer_factory.hpp:77] Creating layer inception_4d/3x3
I0507 21:21:48.331087 22664 net.cpp:84] Creating Layer inception_4d/3x3
I0507 21:21:48.331094 22664 net.cpp:406] inception_4d/3x3 <- inception_4d/3x3_reduce
I0507 21:21:48.331100 22664 net.cpp:380] inception_4d/3x3 -> inception_4d/3x3
I0507 21:21:48.335840 22664 net.cpp:122] Setting up inception_4d/3x3
I0507 21:21:48.335856 22664 net.cpp:129] Top shape: 16 288 14 14 (903168)
I0507 21:21:48.335862 22664 net.cpp:137] Memory required for data: 750864012
I0507 21:21:48.335871 22664 layer_factory.hpp:77] Creating layer inception_4d/relu_3x3
I0507 21:21:48.335880 22664 net.cpp:84] Creating Layer inception_4d/relu_3x3
I0507 21:21:48.335886 22664 net.cpp:406] inception_4d/relu_3x3 <- inception_4d/3x3
I0507 21:21:48.335896 22664 net.cpp:367] inception_4d/relu_3x3 -> inception_4d/3x3 (in-place)
I0507 21:21:48.336441 22664 net.cpp:122] Setting up inception_4d/relu_3x3
I0507 21:21:48.336453 22664 net.cpp:129] Top shape: 16 288 14 14 (903168)
I0507 21:21:48.336458 22664 net.cpp:137] Memory required for data: 754476684
I0507 21:21:48.336464 22664 layer_factory.hpp:77] Creating layer inception_4d/5x5_reduce
I0507 21:21:48.336480 22664 net.cpp:84] Creating Layer inception_4d/5x5_reduce
I0507 21:21:48.336488 22664 net.cpp:406] inception_4d/5x5_reduce <- inception_4c/output_inception_4c/output_0_split_2
I0507 21:21:48.336498 22664 net.cpp:380] inception_4d/5x5_reduce -> inception_4d/5x5_reduce
I0507 21:21:48.340343 22664 net.cpp:122] Setting up inception_4d/5x5_reduce
I0507 21:21:48.340360 22664 net.cpp:129] Top shape: 16 32 14 14 (100352)
I0507 21:21:48.340363 22664 net.cpp:137] Memory required for data: 754878092
I0507 21:21:48.340371 22664 layer_factory.hpp:77] Creating layer inception_4d/relu_5x5_reduce
I0507 21:21:48.340380 22664 net.cpp:84] Creating Layer inception_4d/relu_5x5_reduce
I0507 21:21:48.340385 22664 net.cpp:406] inception_4d/relu_5x5_reduce <- inception_4d/5x5_reduce
I0507 21:21:48.340392 22664 net.cpp:367] inception_4d/relu_5x5_reduce -> inception_4d/5x5_reduce (in-place)
I0507 21:21:48.340941 22664 net.cpp:122] Setting up inception_4d/relu_5x5_reduce
I0507 21:21:48.340951 22664 net.cpp:129] Top shape: 16 32 14 14 (100352)
I0507 21:21:48.340955 22664 net.cpp:137] Memory required for data: 755279500
I0507 21:21:48.340958 22664 layer_factory.hpp:77] Creating layer inception_4d/5x5
I0507 21:21:48.340972 22664 net.cpp:84] Creating Layer inception_4d/5x5
I0507 21:21:48.340976 22664 net.cpp:406] inception_4d/5x5 <- inception_4d/5x5_reduce
I0507 21:21:48.340983 22664 net.cpp:380] inception_4d/5x5 -> inception_4d/5x5
I0507 21:21:48.342882 22664 net.cpp:122] Setting up inception_4d/5x5
I0507 21:21:48.342893 22664 net.cpp:129] Top shape: 16 64 14 14 (200704)
I0507 21:21:48.342896 22664 net.cpp:137] Memory required for data: 756082316
I0507 21:21:48.342902 22664 layer_factory.hpp:77] Creating layer inception_4d/relu_5x5
I0507 21:21:48.342909 22664 net.cpp:84] Creating Layer inception_4d/relu_5x5
I0507 21:21:48.342913 22664 net.cpp:406] inception_4d/relu_5x5 <- inception_4d/5x5
I0507 21:21:48.342921 22664 net.cpp:367] inception_4d/relu_5x5 -> inception_4d/5x5 (in-place)
I0507 21:21:48.343451 22664 net.cpp:122] Setting up inception_4d/relu_5x5
I0507 21:21:48.343461 22664 net.cpp:129] Top shape: 16 64 14 14 (200704)
I0507 21:21:48.343463 22664 net.cpp:137] Memory required for data: 756885132
I0507 21:21:48.343467 22664 layer_factory.hpp:77] Creating layer inception_4d/pool
I0507 21:21:48.343474 22664 net.cpp:84] Creating Layer inception_4d/pool
I0507 21:21:48.343479 22664 net.cpp:406] inception_4d/pool <- inception_4c/output_inception_4c/output_0_split_3
I0507 21:21:48.343487 22664 net.cpp:380] inception_4d/pool -> inception_4d/pool
I0507 21:21:48.343528 22664 net.cpp:122] Setting up inception_4d/pool
I0507 21:21:48.343535 22664 net.cpp:129] Top shape: 16 512 14 14 (1605632)
I0507 21:21:48.343555 22664 net.cpp:137] Memory required for data: 763307660
I0507 21:21:48.343559 22664 layer_factory.hpp:77] Creating layer inception_4d/pool_proj
I0507 21:21:48.343574 22664 net.cpp:84] Creating Layer inception_4d/pool_proj
I0507 21:21:48.343577 22664 net.cpp:406] inception_4d/pool_proj <- inception_4d/pool
I0507 21:21:48.343583 22664 net.cpp:380] inception_4d/pool_proj -> inception_4d/pool_proj
I0507 21:21:48.345360 22664 net.cpp:122] Setting up inception_4d/pool_proj
I0507 21:21:48.345371 22664 net.cpp:129] Top shape: 16 64 14 14 (200704)
I0507 21:21:48.345373 22664 net.cpp:137] Memory required for data: 764110476
I0507 21:21:48.345381 22664 layer_factory.hpp:77] Creating layer inception_4d/relu_pool_proj
I0507 21:21:48.345386 22664 net.cpp:84] Creating Layer inception_4d/relu_pool_proj
I0507 21:21:48.345391 22664 net.cpp:406] inception_4d/relu_pool_proj <- inception_4d/pool_proj
I0507 21:21:48.345397 22664 net.cpp:367] inception_4d/relu_pool_proj -> inception_4d/pool_proj (in-place)
I0507 21:21:48.345932 22664 net.cpp:122] Setting up inception_4d/relu_pool_proj
I0507 21:21:48.345943 22664 net.cpp:129] Top shape: 16 64 14 14 (200704)
I0507 21:21:48.345947 22664 net.cpp:137] Memory required for data: 764913292
I0507 21:21:48.345950 22664 layer_factory.hpp:77] Creating layer inception_4d/output
I0507 21:21:48.345957 22664 net.cpp:84] Creating Layer inception_4d/output
I0507 21:21:48.345961 22664 net.cpp:406] inception_4d/output <- inception_4d/1x1
I0507 21:21:48.345966 22664 net.cpp:406] inception_4d/output <- inception_4d/3x3
I0507 21:21:48.345970 22664 net.cpp:406] inception_4d/output <- inception_4d/5x5
I0507 21:21:48.345974 22664 net.cpp:406] inception_4d/output <- inception_4d/pool_proj
I0507 21:21:48.345980 22664 net.cpp:380] inception_4d/output -> inception_4d/output
I0507 21:21:48.346009 22664 net.cpp:122] Setting up inception_4d/output
I0507 21:21:48.346015 22664 net.cpp:129] Top shape: 16 528 14 14 (1655808)
I0507 21:21:48.346019 22664 net.cpp:137] Memory required for data: 771536524
I0507 21:21:48.346021 22664 layer_factory.hpp:77] Creating layer inception_4d/output_inception_4d/output_0_split
I0507 21:21:48.346029 22664 net.cpp:84] Creating Layer inception_4d/output_inception_4d/output_0_split
I0507 21:21:48.346032 22664 net.cpp:406] inception_4d/output_inception_4d/output_0_split <- inception_4d/output
I0507 21:21:48.346038 22664 net.cpp:380] inception_4d/output_inception_4d/output_0_split -> inception_4d/output_inception_4d/output_0_split_0
I0507 21:21:48.346045 22664 net.cpp:380] inception_4d/output_inception_4d/output_0_split -> inception_4d/output_inception_4d/output_0_split_1
I0507 21:21:48.346051 22664 net.cpp:380] inception_4d/output_inception_4d/output_0_split -> inception_4d/output_inception_4d/output_0_split_2
I0507 21:21:48.346056 22664 net.cpp:380] inception_4d/output_inception_4d/output_0_split -> inception_4d/output_inception_4d/output_0_split_3
I0507 21:21:48.346065 22664 net.cpp:380] inception_4d/output_inception_4d/output_0_split -> inception_4d/output_inception_4d/output_0_split_4
I0507 21:21:48.346125 22664 net.cpp:122] Setting up inception_4d/output_inception_4d/output_0_split
I0507 21:21:48.346130 22664 net.cpp:129] Top shape: 16 528 14 14 (1655808)
I0507 21:21:48.346134 22664 net.cpp:129] Top shape: 16 528 14 14 (1655808)
I0507 21:21:48.346138 22664 net.cpp:129] Top shape: 16 528 14 14 (1655808)
I0507 21:21:48.346143 22664 net.cpp:129] Top shape: 16 528 14 14 (1655808)
I0507 21:21:48.346146 22664 net.cpp:129] Top shape: 16 528 14 14 (1655808)
I0507 21:21:48.346149 22664 net.cpp:137] Memory required for data: 804652684
I0507 21:21:48.346153 22664 layer_factory.hpp:77] Creating layer loss2/ave_pool
I0507 21:21:48.346158 22664 net.cpp:84] Creating Layer loss2/ave_pool
I0507 21:21:48.346161 22664 net.cpp:406] loss2/ave_pool <- inception_4d/output_inception_4d/output_0_split_0
I0507 21:21:48.346168 22664 net.cpp:380] loss2/ave_pool -> loss2/ave_pool
I0507 21:21:48.360476 22664 net.cpp:122] Setting up loss2/ave_pool
I0507 21:21:48.360493 22664 net.cpp:129] Top shape: 16 528 4 4 (135168)
I0507 21:21:48.360512 22664 net.cpp:137] Memory required for data: 805193356
I0507 21:21:48.360518 22664 layer_factory.hpp:77] Creating layer loss2/conv
I0507 21:21:48.360532 22664 net.cpp:84] Creating Layer loss2/conv
I0507 21:21:48.360538 22664 net.cpp:406] loss2/conv <- loss2/ave_pool
I0507 21:21:48.360544 22664 net.cpp:380] loss2/conv -> loss2/conv
I0507 21:21:48.362735 22664 net.cpp:122] Setting up loss2/conv
I0507 21:21:48.362746 22664 net.cpp:129] Top shape: 16 128 4 4 (32768)
I0507 21:21:48.362749 22664 net.cpp:137] Memory required for data: 805324428
I0507 21:21:48.362756 22664 layer_factory.hpp:77] Creating layer loss2/relu_conv
I0507 21:21:48.362763 22664 net.cpp:84] Creating Layer loss2/relu_conv
I0507 21:21:48.362767 22664 net.cpp:406] loss2/relu_conv <- loss2/conv
I0507 21:21:48.362772 22664 net.cpp:367] loss2/relu_conv -> loss2/conv (in-place)
I0507 21:21:48.363307 22664 net.cpp:122] Setting up loss2/relu_conv
I0507 21:21:48.363317 22664 net.cpp:129] Top shape: 16 128 4 4 (32768)
I0507 21:21:48.363322 22664 net.cpp:137] Memory required for data: 805455500
I0507 21:21:48.363325 22664 layer_factory.hpp:77] Creating layer loss2/fc
I0507 21:21:48.363333 22664 net.cpp:84] Creating Layer loss2/fc
I0507 21:21:48.363337 22664 net.cpp:406] loss2/fc <- loss2/conv
I0507 21:21:48.363343 22664 net.cpp:380] loss2/fc -> loss2/fc
I0507 21:21:48.375480 22664 net.cpp:122] Setting up loss2/fc
I0507 21:21:48.375495 22664 net.cpp:129] Top shape: 16 1024 (16384)
I0507 21:21:48.375499 22664 net.cpp:137] Memory required for data: 805521036
I0507 21:21:48.375506 22664 layer_factory.hpp:77] Creating layer loss2/relu_fc
I0507 21:21:48.375515 22664 net.cpp:84] Creating Layer loss2/relu_fc
I0507 21:21:48.375520 22664 net.cpp:406] loss2/relu_fc <- loss2/fc
I0507 21:21:48.375526 22664 net.cpp:367] loss2/relu_fc -> loss2/fc (in-place)
I0507 21:21:48.376121 22664 net.cpp:122] Setting up loss2/relu_fc
I0507 21:21:48.376130 22664 net.cpp:129] Top shape: 16 1024 (16384)
I0507 21:21:48.376133 22664 net.cpp:137] Memory required for data: 805586572
I0507 21:21:48.376137 22664 layer_factory.hpp:77] Creating layer loss2/drop_fc
I0507 21:21:48.376144 22664 net.cpp:84] Creating Layer loss2/drop_fc
I0507 21:21:48.376147 22664 net.cpp:406] loss2/drop_fc <- loss2/fc
I0507 21:21:48.376152 22664 net.cpp:367] loss2/drop_fc -> loss2/fc (in-place)
I0507 21:21:48.376180 22664 net.cpp:122] Setting up loss2/drop_fc
I0507 21:21:48.376185 22664 net.cpp:129] Top shape: 16 1024 (16384)
I0507 21:21:48.376188 22664 net.cpp:137] Memory required for data: 805652108
I0507 21:21:48.376191 22664 layer_factory.hpp:77] Creating layer loss2/classifier
I0507 21:21:48.376199 22664 net.cpp:84] Creating Layer loss2/classifier
I0507 21:21:48.376204 22664 net.cpp:406] loss2/classifier <- loss2/fc
I0507 21:21:48.376210 22664 net.cpp:380] loss2/classifier -> loss2/classifier
I0507 21:21:48.377916 22664 net.cpp:122] Setting up loss2/classifier
I0507 21:21:48.377925 22664 net.cpp:129] Top shape: 16 196 (3136)
I0507 21:21:48.377928 22664 net.cpp:137] Memory required for data: 805664652
I0507 21:21:48.377934 22664 layer_factory.hpp:77] Creating layer loss2/classifier_loss2/classifier_0_split
I0507 21:21:48.377941 22664 net.cpp:84] Creating Layer loss2/classifier_loss2/classifier_0_split
I0507 21:21:48.377945 22664 net.cpp:406] loss2/classifier_loss2/classifier_0_split <- loss2/classifier
I0507 21:21:48.377952 22664 net.cpp:380] loss2/classifier_loss2/classifier_0_split -> loss2/classifier_loss2/classifier_0_split_0
I0507 21:21:48.377959 22664 net.cpp:380] loss2/classifier_loss2/classifier_0_split -> loss2/classifier_loss2/classifier_0_split_1
I0507 21:21:48.377965 22664 net.cpp:380] loss2/classifier_loss2/classifier_0_split -> loss2/classifier_loss2/classifier_0_split_2
I0507 21:21:48.378010 22664 net.cpp:122] Setting up loss2/classifier_loss2/classifier_0_split
I0507 21:21:48.378015 22664 net.cpp:129] Top shape: 16 196 (3136)
I0507 21:21:48.378017 22664 net.cpp:129] Top shape: 16 196 (3136)
I0507 21:21:48.378021 22664 net.cpp:129] Top shape: 16 196 (3136)
I0507 21:21:48.378042 22664 net.cpp:137] Memory required for data: 805702284
I0507 21:21:48.378046 22664 layer_factory.hpp:77] Creating layer loss2/loss
I0507 21:21:48.378053 22664 net.cpp:84] Creating Layer loss2/loss
I0507 21:21:48.378057 22664 net.cpp:406] loss2/loss <- loss2/classifier_loss2/classifier_0_split_0
I0507 21:21:48.378062 22664 net.cpp:406] loss2/loss <- label_val-data_1_split_3
…
I0507 21:21:48.378624 22664 net.cpp:122] Setting up loss2/top-5
I0507 21:21:48.378629 22664 net.cpp:129] Top shape: (1)
I0507 21:21:48.378633 22664 net.cpp:137] Memory required for data: 805702296
I0507 21:21:48.378635 22664 layer_factory.hpp:77] Creating layer inception_4e/1x1
I0507 21:21:48.378646 22664 net.cpp:84] Creating Layer inception_4e/1x1
I0507 21:21:48.378651 22664 net.cpp:406] inception_4e/1x1 <- inception_4d/output_inception_4d/output_0_split_1
I0507 21:21:48.378656 22664 net.cpp:380] inception_4e/1x1 -> inception_4e/1x1
I0507 21:21:48.381065 22664 net.cpp:122] Setting up inception_4e/1x1
I0507 21:21:48.381076 22664 net.cpp:129] Top shape: 16 256 14 14 (802816)
I0507 21:21:48.381080 22664 net.cpp:137] Memory required for data: 808913560
I0507 21:21:48.381086 22664 layer_factory.hpp:77] Creating layer inception_4e/relu_1x1
I0507 21:21:48.381096 22664 net.cpp:84] Creating Layer inception_4e/relu_1x1
I0507 21:21:48.381101 22664 net.cpp:406] inception_4e/relu_1x1 <- inception_4e/1x1
I0507 21:21:48.381106 22664 net.cpp:367] inception_4e/relu_1x1 -> inception_4e/1x1 (in-place)
I0507 21:21:48.383386 22664 net.cpp:122] Setting up inception_4e/relu_1x1
I0507 21:21:48.383399 22664 net.cpp:129] Top shape: 16 256 14 14 (802816)
I0507 21:21:48.383401 22664 net.cpp:137] Memory required for data: 812124824
I0507 21:21:48.383405 22664 layer_factory.hpp:77] Creating layer inception_4e/3x3_reduce
I0507 21:21:48.383450 22664 net.cpp:84] Creating Layer inception_4e/3x3_reduce
I0507 21:21:48.383455 22664 net.cpp:406] inception_4e/3x3_reduce <- inception_4d/output_inception_4d/output_0_split_2
I0507 21:21:48.383461 22664 net.cpp:380] inception_4e/3x3_reduce -> inception_4e/3x3_reduce
I0507 21:21:48.385476 22664 net.cpp:122] Setting up inception_4e/3x3_reduce
I0507 21:21:48.385488 22664 net.cpp:129] Top shape: 16 160 14 14 (501760)
I0507 21:21:48.385491 22664 net.cpp:137] Memory required for data: 814131864
I0507 21:21:48.385499 22664 layer_factory.hpp:77] Creating layer inception_4e/relu_3x3_reduce
I0507 21:21:48.385506 22664 net.cpp:84] Creating Layer inception_4e/relu_3x3_reduce
I0507 21:21:48.385512 22664 net.cpp:406] inception_4e/relu_3x3_reduce <- inception_4e/3x3_reduce
I0507 21:21:48.385517 22664 net.cpp:367] inception_4e/relu_3x3_reduce -> inception_4e/3x3_reduce (in-place)
I0507 21:21:48.386060 22664 net.cpp:122] Setting up inception_4e/relu_3x3_reduce
I0507 21:21:48.386070 22664 net.cpp:129] Top shape: 16 160 14 14 (501760)
I0507 21:21:48.386073 22664 net.cpp:137] Memory required for data: 816138904
I0507 21:21:48.386077 22664 layer_factory.hpp:77] Creating layer inception_4e/3x3
I0507 21:21:48.386087 22664 net.cpp:84] Creating Layer inception_4e/3x3
I0507 21:21:48.386092 22664 net.cpp:406] inception_4e/3x3 <- inception_4e/3x3_reduce
I0507 21:21:48.386101 22664 net.cpp:380] inception_4e/3x3 -> inception_4e/3x3
I0507 21:21:48.391861 22664 net.cpp:122] Setting up inception_4e/3x3
I0507 21:21:48.391875 22664 net.cpp:129] Top shape: 16 320 14 14 (1003520)
I0507 21:21:48.391880 22664 net.cpp:137] Memory required for data: 820152984
I0507 21:21:48.391887 22664 layer_factory.hpp:77] Creating layer inception_4e/relu_3x3
I0507 21:21:48.391893 22664 net.cpp:84] Creating Layer inception_4e/relu_3x3
I0507 21:21:48.391897 22664 net.cpp:406] inception_4e/relu_3x3 <- inception_4e/3x3
I0507 21:21:48.391904 22664 net.cpp:367] inception_4e/relu_3x3 -> inception_4e/3x3 (in-place)
I0507 21:21:48.392423 22664 net.cpp:122] Setting up inception_4e/relu_3x3
I0507 21:21:48.392433 22664 net.cpp:129] Top shape: 16 320 14 14 (1003520)
I0507 21:21:48.392436 22664 net.cpp:137] Memory required for data: 824167064
I0507 21:21:48.392441 22664 layer_factory.hpp:77] Creating layer inception_4e/5x5_reduce
I0507 21:21:48.392452 22664 net.cpp:84] Creating Layer inception_4e/5x5_reduce
I0507 21:21:48.392455 22664 net.cpp:406] inception_4e/5x5_reduce <- inception_4d/output_inception_4d/output_0_split_3
I0507 21:21:48.392462 22664 net.cpp:380] inception_4e/5x5_reduce -> inception_4e/5x5_reduce
I0507 21:21:48.395836 22664 net.cpp:122] Setting up inception_4e/5x5_reduce
I0507 21:21:48.395848 22664 net.cpp:129] Top shape: 16 32 14 14 (100352)
I0507 21:21:48.395853 22664 net.cpp:137] Memory required for data: 824568472
I0507 21:21:48.395859 22664 layer_factory.hpp:77] Creating layer inception_4e/relu_5x5_reduce
I0507 21:21:48.395867 22664 net.cpp:84] Creating Layer inception_4e/relu_5x5_reduce
I0507 21:21:48.395872 22664 net.cpp:406] inception_4e/relu_5x5_reduce <- inception_4e/5x5_reduce
I0507 21:21:48.395877 22664 net.cpp:367] inception_4e/relu_5x5_reduce -> inception_4e/5x5_reduce (in-place)
I0507 21:21:48.396404 22664 net.cpp:122] Setting up inception_4e/relu_5x5_reduce
I0507 21:21:48.396414 22664 net.cpp:129] Top shape: 16 32 14 14 (100352)
I0507 21:21:48.396416 22664 net.cpp:137] Memory required for data: 824969880
I0507 21:21:48.396420 22664 layer_factory.hpp:77] Creating layer inception_4e/5x5
I0507 21:21:48.396430 22664 net.cpp:84] Creating Layer inception_4e/5x5
I0507 21:21:48.396435 22664 net.cpp:406] inception_4e/5x5 <- inception_4e/5x5_reduce
I0507 21:21:48.396442 22664 net.cpp:380] inception_4e/5x5 -> inception_4e/5x5
I0507 21:21:48.398712 22664 net.cpp:122] Setting up inception_4e/5x5
I0507 21:21:48.398722 22664 net.cpp:129] Top shape: 16 128 14 14 (401408)
I0507 21:21:48.398725 22664 net.cpp:137] Memory required for data: 826575512
I0507 21:21:48.398732 22664 layer_factory.hpp:77] Creating layer inception_4e/relu_5x5
I0507 21:21:48.398738 22664 net.cpp:84] Creating Layer inception_4e/relu_5x5
I0507 21:21:48.398742 22664 net.cpp:406] inception_4e/relu_5x5 <- inception_4e/5x5
I0507 21:21:48.398748 22664 net.cpp:367] inception_4e/relu_5x5 -> inception_4e/5x5 (in-place)
I0507 21:21:48.399107 22664 net.cpp:122] Setting up inception_4e/relu_5x5
I0507 21:21:48.399116 22664 net.cpp:129] Top shape: 16 128 14 14 (401408)
I0507 21:21:48.399118 22664 net.cpp:137] Memory required for data: 828181144
I0507 21:21:48.399121 22664 layer_factory.hpp:77] Creating layer inception_4e/pool
I0507 21:21:48.399130 22664 net.cpp:84] Creating Layer inception_4e/pool
I0507 21:21:48.399134 22664 net.cpp:406] inception_4e/pool <- inception_4d/output_inception_4d/output_0_split_4
I0507 21:21:48.399142 22664 net.cpp:380] inception_4e/pool -> inception_4e/pool
I0507 21:21:48.399181 22664 net.cpp:122] Setting up inception_4e/pool
I0507 21:21:48.399205 22664 net.cpp:129] Top shape: 16 528 14 14 (1655808)
I0507 21:21:48.399209 22664 net.cpp:137] Memory required for data: 834804376
I0507 21:21:48.399211 22664 layer_factory.hpp:77] Creating layer inception_4e/pool_proj
I0507 21:21:48.399220 22664 net.cpp:84] Creating Layer inception_4e/pool_proj
I0507 21:21:48.399224 22664 net.cpp:406] inception_4e/pool_proj <- inception_4e/pool
I0507 21:21:48.399231 22664 net.cpp:380] inception_4e/pool_proj -> inception_4e/pool_proj
I0507 21:21:48.401320 22664 net.cpp:122] Setting up inception_4e/pool_proj
I0507 21:21:48.401330 22664 net.cpp:129] Top shape: 16 128 14 14 (401408)
I0507 21:21:48.401333 22664 net.cpp:137] Memory required for data: 836410008
I0507 21:21:48.401340 22664 layer_factory.hpp:77] Creating layer inception_4e/relu_pool_proj
I0507 21:21:48.401345 22664 net.cpp:84] Creating Layer inception_4e/relu_pool_proj
I0507 21:21:48.401350 22664 net.cpp:406] inception_4e/relu_pool_proj <- inception_4e/pool_proj
I0507 21:21:48.401355 22664 net.cpp:367] inception_4e/relu_pool_proj -> inception_4e/pool_proj (in-place)
I0507 21:21:48.403592 22664 net.cpp:122] Setting up inception_4e/relu_pool_proj
I0507 21:21:48.403604 22664 net.cpp:129] Top shape: 16 128 14 14 (401408)
I0507 21:21:48.403607 22664 net.cpp:137] Memory required for data: 838015640
I0507 21:21:48.403611 22664 layer_factory.hpp:77] Creating layer inception_4e/output
I0507 21:21:48.403620 22664 net.cpp:84] Creating Layer inception_4e/output
I0507 21:21:48.403625 22664 net.cpp:406] inception_4e/output <- inception_4e/1x1
I0507 21:21:48.403630 22664 net.cpp:406] inception_4e/output <- inception_4e/3x3
I0507 21:21:48.403635 22664 net.cpp:406] inception_4e/output <- inception_4e/5x5
I0507 21:21:48.403638 22664 net.cpp:406] inception_4e/output <- inception_4e/pool_proj
I0507 21:21:48.403643 22664 net.cpp:380] inception_4e/output -> inception_4e/output
I0507 21:21:48.403677 22664 net.cpp:122] Setting up inception_4e/output
I0507 21:21:48.403682 22664 net.cpp:129] Top shape: 16 832 14 14 (2609152)
I0507 21:21:48.403686 22664 net.cpp:137] Memory required for data: 848452248
I0507 21:21:48.403688 22664 layer_factory.hpp:77] Creating layer pool4/3x3_s2
I0507 21:21:48.403694 22664 net.cpp:84] Creating Layer pool4/3x3_s2
I0507 21:21:48.403698 22664 net.cpp:406] pool4/3x3_s2 <- inception_4e/output
I0507 21:21:48.403704 22664 net.cpp:380] pool4/3x3_s2 -> pool4/3x3_s2
I0507 21:21:48.403738 22664 net.cpp:122] Setting up pool4/3x3_s2
I0507 21:21:48.403743 22664 net.cpp:129] Top shape: 16 832 7 7 (652288)
I0507 21:21:48.403746 22664 net.cpp:137] Memory required for data: 851061400
I0507 21:21:48.403749 22664 layer_factory.hpp:77] Creating layer pool4/3x3_s2_pool4/3x3_s2_0_split
I0507 21:21:48.403756 22664 net.cpp:84] Creating Layer pool4/3x3_s2_pool4/3x3_s2_0_split
I0507 21:21:48.403759 22664 net.cpp:406] pool4/3x3_s2_pool4/3x3_s2_0_split <- pool4/3x3_s2
I0507 21:21:48.403764 22664 net.cpp:380] pool4/3x3_s2_pool4/3x3_s2_0_split -> pool4/3x3_s2_pool4/3x3_s2_0_split_0
I0507 21:21:48.403770 22664 net.cpp:380] pool4/3x3_s2_pool4/3x3_s2_0_split -> pool4/3x3_s2_pool4/3x3_s2_0_split_1
I0507 21:21:48.403777 22664 net.cpp:380] pool4/3x3_s2_pool4/3x3_s2_0_split -> pool4/3x3_s2_pool4/3x3_s2_0_split_2
I0507 21:21:48.403808 22664 net.cpp:380] pool4/3x3_s2_pool4/3x3_s2_0_split -> pool4/3x3_s2_pool4/3x3_s2_0_split_3
I0507 21:21:48.403853 22664 net.cpp:122] Setting up pool4/3x3_s2_pool4/3x3_s2_0_split
I0507 21:21:48.403859 22664 net.cpp:129] Top shape: 16 832 7 7 (652288)
I0507 21:21:48.403862 22664 net.cpp:129] Top shape: 16 832 7 7 (652288)
I0507 21:21:48.403869 22664 net.cpp:129] Top shape: 16 832 7 7 (652288)
I0507 21:21:48.403873 22664 net.cpp:129] Top shape: 16 832 7 7 (652288)
I0507 21:21:48.403877 22664 net.cpp:137] Memory required for data: 861498008
I0507 21:21:48.403879 22664 layer_factory.hpp:77] Creating layer inception_5a/1x1
I0507 21:21:48.403887 22664 net.cpp:84] Creating Layer inception_5a/1x1
I0507 21:21:48.403892 22664 net.cpp:406] inception_5a/1x1 <- pool4/3x3_s2_pool4/3x3_s2_0_split_0
I0507 21:21:48.403913 22664 net.cpp:380] inception_5a/1x1 -> inception_5a/1x1
I0507 21:21:48.407212 22664 net.cpp:122] Setting up inception_5a/1x1
I0507 21:21:48.407222 22664 net.cpp:129] Top shape: 16 256 7 7 (200704)
I0507 21:21:48.407225 22664 net.cpp:137] Memory required for data: 862300824
I0507 21:21:48.407232 22664 layer_factory.hpp:77] Creating layer inception_5a/relu_1x1
I0507 21:21:48.407239 22664 net.cpp:84] Creating Layer inception_5a/relu_1x1
I0507 21:21:48.407243 22664 net.cpp:406] inception_5a/relu_1x1 <- inception_5a/1x1
I0507 21:21:48.407250 22664 net.cpp:367] inception_5a/relu_1x1 -> inception_5a/1x1 (in-place)
I0507 21:21:48.407781 22664 net.cpp:122] Setting up inception_5a/relu_1x1
I0507 21:21:48.407790 22664 net.cpp:129] Top shape: 16 256 7 7 (200704)
I0507 21:21:48.407794 22664 net.cpp:137] Memory required for data: 863103640
I0507 21:21:48.407799 22664 layer_factory.hpp:77] Creating layer inception_5a/3x3_reduce
I0507 21:21:48.407809 22664 net.cpp:84] Creating Layer inception_5a/3x3_reduce
I0507 21:21:48.407814 22664 net.cpp:406] inception_5a/3x3_reduce <- pool4/3x3_s2_pool4/3x3_s2_0_split_1
I0507 21:21:48.407822 22664 net.cpp:380] inception_5a/3x3_reduce -> inception_5a/3x3_reduce
I0507 21:21:48.411372 22664 net.cpp:122] Setting up inception_5a/3x3_reduce
I0507 21:21:48.411383 22664 net.cpp:129] Top shape: 16 160 7 7 (125440)
I0507 21:21:48.411386 22664 net.cpp:137] Memory required for data: 863605400
I0507 21:21:48.411393 22664 layer_factory.hpp:77] Creating layer inception_5a/relu_3x3_reduce
I0507 21:21:48.411401 22664 net.cpp:84] Creating Layer inception_5a/relu_3x3_reduce
I0507 21:21:48.411406 22664 net.cpp:406] inception_5a/relu_3x3_reduce <- inception_5a/3x3_reduce
I0507 21:21:48.411411 22664 net.cpp:367] inception_5a/relu_3x3_reduce -> inception_5a/3x3_reduce (in-place)
I0507 21:21:48.411949 22664 net.cpp:122] Setting up inception_5a/relu_3x3_reduce
I0507 21:21:48.411958 22664 net.cpp:129] Top shape: 16 160 7 7 (125440)
I0507 21:21:48.411962 22664 net.cpp:137] Memory required for data: 864107160
I0507 21:21:48.411967 22664 layer_factory.hpp:77] Creating layer inception_5a/3x3
I0507 21:21:48.411978 22664 net.cpp:84] Creating Layer inception_5a/3x3
I0507 21:21:48.411981 22664 net.cpp:406] inception_5a/3x3 <- inception_5a/3x3_reduce
I0507 21:21:48.411988 22664 net.cpp:380] inception_5a/3x3 -> inception_5a/3x3
I0507 21:21:48.419479 22664 net.cpp:122] Setting up inception_5a/3x3
I0507 21:21:48.419497 22664 net.cpp:129] Top shape: 16 320 7 7 (250880)
I0507 21:21:48.419500 22664 net.cpp:137] Memory required for data: 865110680
I0507 21:21:48.419508 22664 layer_factory.hpp:77] Creating layer inception_5a/relu_3x3
I0507 21:21:48.419517 22664 net.cpp:84] Creating Layer inception_5a/relu_3x3
I0507 21:21:48.419523 22664 net.cpp:406] inception_5a/relu_3x3 <- inception_5a/3x3
I0507 21:21:48.419528 22664 net.cpp:367] inception_5a/relu_3x3 -> inception_5a/3x3 (in-place)
I0507 21:21:48.420054 22664 net.cpp:122] Setting up inception_5a/relu_3x3
I0507 21:21:48.420063 22664 net.cpp:129] Top shape: 16 320 7 7 (250880)
I0507 21:21:48.420066 22664 net.cpp:137] Memory required for data: 866114200
I0507 21:21:48.420070 22664 layer_factory.hpp:77] Creating layer inception_5a/5x5_reduce
I0507 21:21:48.420081 22664 net.cpp:84] Creating Layer inception_5a/5x5_reduce
I0507 21:21:48.420085 22664 net.cpp:406] inception_5a/5x5_reduce <- pool4/3x3_s2_pool4/3x3_s2_0_split_2
I0507 21:21:48.420094 22664 net.cpp:380] inception_5a/5x5_reduce -> inception_5a/5x5_reduce
I0507 21:21:48.422021 22664 net.cpp:122] Setting up inception_5a/5x5_reduce
I0507 21:21:48.422031 22664 net.cpp:129] Top shape: 16 32 7 7 (25088)
I0507 21:21:48.422035 22664 net.cpp:137] Memory required for data: 866214552
I0507 21:21:48.422041 22664 layer_factory.hpp:77] Creating layer inception_5a/relu_5x5_reduce
I0507 21:21:48.422047 22664 net.cpp:84] Creating Layer inception_5a/relu_5x5_reduce
I0507 21:21:48.422051 22664 net.cpp:406] inception_5a/relu_5x5_reduce <- inception_5a/5x5_reduce
I0507 21:21:48.422057 22664 net.cpp:367] inception_5a/relu_5x5_reduce -> inception_5a/5x5_reduce (in-place)
I0507 21:21:48.422438 22664 net.cpp:122] Setting up inception_5a/relu_5x5_reduce
I0507 21:21:48.422446 22664 net.cpp:129] Top shape: 16 32 7 7 (25088)
I0507 21:21:48.422451 22664 net.cpp:137] Memory required for data: 866314904
I0507 21:21:48.422453 22664 layer_factory.hpp:77] Creating layer inception_5a/5x5
I0507 21:21:48.422463 22664 net.cpp:84] Creating Layer inception_5a/5x5
I0507 21:21:48.422467 22664 net.cpp:406] inception_5a/5x5 <- inception_5a/5x5_reduce
I0507 21:21:48.422474 22664 net.cpp:380] inception_5a/5x5 -> inception_5a/5x5
I0507 21:21:48.424724 22664 net.cpp:122] Setting up inception_5a/5x5
I0507 21:21:48.424736 22664 net.cpp:129] Top shape: 16 128 7 7 (100352)
I0507 21:21:48.424738 22664 net.cpp:137] Memory required for data: 866716312
I0507 21:21:48.424744 22664 layer_factory.hpp:77] Creating layer inception_5a/relu_5x5
I0507 21:21:48.424751 22664 net.cpp:84] Creating Layer inception_5a/relu_5x5
I0507 21:21:48.424754 22664 net.cpp:406] inception_5a/relu_5x5 <- inception_5a/5x5
I0507 21:21:48.424762 22664 net.cpp:367] inception_5a/relu_5x5 -> inception_5a/5x5 (in-place)
I0507 21:21:48.426997 22664 net.cpp:122] Setting up inception_5a/relu_5x5
I0507 21:21:48.427012 22664 net.cpp:129] Top shape: 16 128 7 7 (100352)
I0507 21:21:48.427016 22664 net.cpp:137] Memory required for data: 867117720
I0507 21:21:48.427021 22664 layer_factory.hpp:77] Creating layer inception_5a/pool
I0507 21:21:48.427028 22664 net.cpp:84] Creating Layer inception_5a/pool
I0507 21:21:48.427033 22664 net.cpp:406] inception_5a/pool <- pool4/3x3_s2_pool4/3x3_s2_0_split_3
I0507 21:21:48.427040 22664 net.cpp:380] inception_5a/pool -> inception_5a/pool
I0507 21:21:48.427084 22664 net.cpp:122] Setting up inception_5a/pool
I0507 21:21:48.427090 22664 net.cpp:129] Top shape: 16 832 7 7 (652288)
I0507 21:21:48.427093 22664 net.cpp:137] Memory required for data: 869726872
I0507 21:21:48.427096 22664 layer_factory.hpp:77] Creating layer inception_5a/pool_proj
I0507 21:21:48.427107 22664 net.cpp:84] Creating Layer inception_5a/pool_proj
I0507 21:21:48.427111 22664 net.cpp:406] inception_5a/pool_proj <- inception_5a/pool
I0507 21:21:48.427116 22664 net.cpp:380] inception_5a/pool_proj -> inception_5a/pool_proj
I0507 21:21:48.429899 22664 net.cpp:122] Setting up inception_5a/pool_proj
I0507 21:21:48.429910 22664 net.cpp:129] Top shape: 16 128 7 7 (100352)
I0507 21:21:48.429913 22664 net.cpp:137] Memory required for data: 870128280
I0507 21:21:48.429920 22664 layer_factory.hpp:77] Creating layer inception_5a/relu_pool_proj
I0507 21:21:48.429926 22664 net.cpp:84] Creating Layer inception_5a/relu_pool_proj
I0507 21:21:48.429931 22664 net.cpp:406] inception_5a/relu_pool_proj <- inception_5a/pool_proj
I0507 21:21:48.429936 22664 net.cpp:367] inception_5a/relu_pool_proj -> inception_5a/pool_proj (in-place)
I0507 21:21:48.431119 22664 net.cpp:122] Setting up inception_5a/relu_pool_proj
I0507 21:21:48.431129 22664 net.cpp:129] Top shape: 16 128 7 7 (100352)
I0507 21:21:48.431133 22664 net.cpp:137] Memory required for data: 870529688
I0507 21:21:48.431136 22664 layer_factory.hpp:77] Creating layer inception_5a/output
I0507 21:21:48.431144 22664 net.cpp:84] Creating Layer inception_5a/output
I0507 21:21:48.431149 22664 net.cpp:406] inception_5a/output <- inception_5a/1x1
I0507 21:21:48.431154 22664 net.cpp:406] inception_5a/output <- inception_5a/3x3
I0507 21:21:48.431157 22664 net.cpp:406] inception_5a/output <- inception_5a/5x5
I0507 21:21:48.431161 22664 net.cpp:406] inception_5a/output <- inception_5a/pool_proj
I0507 21:21:48.431166 22664 net.cpp:380] inception_5a/output -> inception_5a/output
I0507 21:21:48.431195 22664 net.cpp:122] Setting up inception_5a/output
I0507 21:21:48.431200 22664 net.cpp:129] Top shape: 16 832 7 7 (652288)
I0507 21:21:48.431203 22664 net.cpp:137] Memory required for data: 873138840
I0507 21:21:48.431206 22664 layer_factory.hpp:77] Creating layer inception_5a/output_inception_5a/output_0_split
I0507 21:21:48.431213 22664 net.cpp:84] Creating Layer inception_5a/output_inception_5a/output_0_split
I0507 21:21:48.431233 22664 net.cpp:406] inception_5a/output_inception_5a/output_0_split <- inception_5a/output
I0507 21:21:48.431241 22664 net.cpp:380] inception_5a/output_inception_5a/output_0_split -> inception_5a/output_inception_5a/output_0_split_0
I0507 21:21:48.431246 22664 net.cpp:380] inception_5a/output_inception_5a/output_0_split -> inception_5a/output_inception_5a/output_0_split_1
I0507 21:21:48.431253 22664 net.cpp:380] inception_5a/output_inception_5a/output_0_split -> inception_5a/output_inception_5a/output_0_split_2
I0507 21:21:48.431259 22664 net.cpp:380] inception_5a/output_inception_5a/output_0_split -> inception_5a/output_inception_5a/output_0_split_3
I0507 21:21:48.431313 22664 net.cpp:122] Setting up inception_5a/output_inception_5a/output_0_split
I0507 21:21:48.431318 22664 net.cpp:129] Top shape: 16 832 7 7 (652288)
I0507 21:21:48.431322 22664 net.cpp:129] Top shape: 16 832 7 7 (652288)
I0507 21:21:48.431325 22664 net.cpp:129] Top shape: 16 832 7 7 (652288)
I0507 21:21:48.431329 22664 net.cpp:129] Top shape: 16 832 7 7 (652288)
I0507 21:21:48.431332 22664 net.cpp:137] Memory required for data: 883575448
I0507 21:21:48.431335 22664 layer_factory.hpp:77] Creating layer inception_5b/1x1
I0507 21:21:48.431344 22664 net.cpp:84] Creating Layer inception_5b/1x1
I0507 21:21:48.431349 22664 net.cpp:406] inception_5b/1x1 <- inception_5a/output_inception_5a/output_0_split_0
I0507 21:21:48.431354 22664 net.cpp:380] inception_5b/1x1 -> inception_5b/1x1
I0507 21:21:48.434412 22664 net.cpp:122] Setting up inception_5b/1x1
I0507 21:21:48.434423 22664 net.cpp:129] Top shape: 16 384 7 7 (301056)
I0507 21:21:48.434427 22664 net.cpp:137] Memory required for data: 884779672
I0507 21:21:48.434433 22664 layer_factory.hpp:77] Creating layer inception_5b/relu_1x1
I0507 21:21:48.434439 22664 net.cpp:84] Creating Layer inception_5b/relu_1x1
I0507 21:21:48.434444 22664 net.cpp:406] inception_5b/relu_1x1 <- inception_5b/1x1
I0507 21:21:48.434449 22664 net.cpp:367] inception_5b/relu_1x1 -> inception_5b/1x1 (in-place)
I0507 21:21:48.434989 22664 net.cpp:122] Setting up inception_5b/relu_1x1
I0507 21:21:48.434999 22664 net.cpp:129] Top shape: 16 384 7 7 (301056)
I0507 21:21:48.435003 22664 net.cpp:137] Memory required for data: 885983896
I0507 21:21:48.435006 22664 layer_factory.hpp:77] Creating layer inception_5b/3x3_reduce
I0507 21:21:48.435015 22664 net.cpp:84] Creating Layer inception_5b/3x3_reduce
I0507 21:21:48.435020 22664 net.cpp:406] inception_5b/3x3_reduce <- inception_5a/output_inception_5a/output_0_split_1
I0507 21:21:48.435027 22664 net.cpp:380] inception_5b/3x3_reduce -> inception_5b/3x3_reduce
I0507 21:21:48.439847 22664 net.cpp:122] Setting up inception_5b/3x3_reduce
I0507 21:21:48.439862 22664 net.cpp:129] Top shape: 16 192 7 7 (150528)
I0507 21:21:48.439865 22664 net.cpp:137] Memory required for data: 886586008
I0507 21:21:48.439873 22664 layer_factory.hpp:77] Creating layer inception_5b/relu_3x3_reduce
I0507 21:21:48.439882 22664 net.cpp:84] Creating Layer inception_5b/relu_3x3_reduce
I0507 21:21:48.439888 22664 net.cpp:406] inception_5b/relu_3x3_reduce <- inception_5b/3x3_reduce
I0507 21:21:48.439894 22664 net.cpp:367] inception_5b/relu_3x3_reduce -> inception_5b/3x3_reduce (in-place)
I0507 21:21:48.440433 22664 net.cpp:122] Setting up inception_5b/relu_3x3_reduce
I0507 21:21:48.440443 22664 net.cpp:129] Top shape: 16 192 7 7 (150528)
I0507 21:21:48.440448 22664 net.cpp:137] Memory required for data: 887188120
I0507 21:21:48.440451 22664 layer_factory.hpp:77] Creating layer inception_5b/3x3
I0507 21:21:48.440462 22664 net.cpp:84] Creating Layer inception_5b/3x3
I0507 21:21:48.440467 22664 net.cpp:406] inception_5b/3x3 <- inception_5b/3x3_reduce
I0507 21:21:48.440475 22664 net.cpp:380] inception_5b/3x3 -> inception_5b/3x3
I0507 21:21:48.446283 22664 net.cpp:122] Setting up inception_5b/3x3
I0507 21:21:48.446295 22664 net.cpp:129] Top shape: 16 384 7 7 (301056)
I0507 21:21:48.446298 22664 net.cpp:137] Memory required for data: 888392344
I0507 21:21:48.446305 22664 layer_factory.hpp:77] Creating layer inception_5b/relu_3x3
I0507 21:21:48.446331 22664 net.cpp:84] Creating Layer inception_5b/relu_3x3
I0507 21:21:48.446336 22664 net.cpp:406] inception_5b/relu_3x3 <- inception_5b/3x3
I0507 21:21:48.446342 22664 net.cpp:367] inception_5b/relu_3x3 -> inception_5b/3x3 (in-place)
I0507 21:21:48.446712 22664 net.cpp:122] Setting up inception_5b/relu_3x3
I0507 21:21:48.446722 22664 net.cpp:129] Top shape: 16 384 7 7 (301056)
I0507 21:21:48.446724 22664 net.cpp:137] Memory required for data: 889596568
I0507 21:21:48.446729 22664 layer_factory.hpp:77] Creating layer inception_5b/5x5_reduce
I0507 21:21:48.446740 22664 net.cpp:84] Creating Layer inception_5b/5x5_reduce
I0507 21:21:48.446745 22664 net.cpp:406] inception_5b/5x5_reduce <- inception_5a/output_inception_5a/output_0_split_2
I0507 21:21:48.446753 22664 net.cpp:380] inception_5b/5x5_reduce -> inception_5b/5x5_reduce
I0507 21:21:48.448801 22664 net.cpp:122] Setting up inception_5b/5x5_reduce
I0507 21:21:48.448812 22664 net.cpp:129] Top shape: 16 48 7 7 (37632)
I0507 21:21:48.448814 22664 net.cpp:137] Memory required for data: 889747096
I0507 21:21:48.448822 22664 layer_factory.hpp:77] Creating layer inception_5b/relu_5x5_reduce
I0507 21:21:48.448827 22664 net.cpp:84] Creating Layer inception_5b/relu_5x5_reduce
I0507 21:21:48.448832 22664 net.cpp:406] inception_5b/relu_5x5_reduce <- inception_5b/5x5_reduce
I0507 21:21:48.448838 22664 net.cpp:367] inception_5b/relu_5x5_reduce -> inception_5b/5x5_reduce (in-place)
I0507 21:21:48.449196 22664 net.cpp:122] Setting up inception_5b/relu_5x5_reduce
I0507 21:21:48.449204 22664 net.cpp:129] Top shape: 16 48 7 7 (37632)
I0507 21:21:48.449208 22664 net.cpp:137] Memory required for data: 889897624
I0507 21:21:48.449211 22664 layer_factory.hpp:77] Creating layer inception_5b/5x5
I0507 21:21:48.449220 22664 net.cpp:84] Creating Layer inception_5b/5x5
I0507 21:21:48.449224 22664 net.cpp:406] inception_5b/5x5 <- inception_5b/5x5_reduce
I0507 21:21:48.449231 22664 net.cpp:380] inception_5b/5x5 -> inception_5b/5x5
I0507 21:21:48.454051 22664 net.cpp:122] Setting up inception_5b/5x5
I0507 21:21:48.454066 22664 net.cpp:129] Top shape: 16 128 7 7 (100352)
I0507 21:21:48.454071 22664 net.cpp:137] Memory required for data: 890299032
I0507 21:21:48.454078 22664 layer_factory.hpp:77] Creating layer inception_5b/relu_5x5
I0507 21:21:48.454085 22664 net.cpp:84] Creating Layer inception_5b/relu_5x5
I0507 21:21:48.454090 22664 net.cpp:406] inception_5b/relu_5x5 <- inception_5b/5x5
I0507 21:21:48.454097 22664 net.cpp:367] inception_5b/relu_5x5 -> inception_5b/5x5 (in-place)
I0507 21:21:48.454650 22664 net.cpp:122] Setting up inception_5b/relu_5x5
I0507 21:21:48.454660 22664 net.cpp:129] Top shape: 16 128 7 7 (100352)
I0507 21:21:48.454664 22664 net.cpp:137] Memory required for data: 890700440
I0507 21:21:48.454668 22664 layer_factory.hpp:77] Creating layer inception_5b/pool
I0507 21:21:48.454682 22664 net.cpp:84] Creating Layer inception_5b/pool
I0507 21:21:48.454687 22664 net.cpp:406] inception_5b/pool <- inception_5a/output_inception_5a/output_0_split_3
I0507 21:21:48.454694 22664 net.cpp:380] inception_5b/pool -> inception_5b/pool
I0507 21:21:48.454737 22664 net.cpp:122] Setting up inception_5b/pool
I0507 21:21:48.454743 22664 net.cpp:129] Top shape: 16 832 7 7 (652288)
I0507 21:21:48.454747 22664 net.cpp:137] Memory required for data: 893309592
I0507 21:21:48.454751 22664 layer_factory.hpp:77] Creating layer inception_5b/pool_proj
I0507 21:21:48.454761 22664 net.cpp:84] Creating Layer inception_5b/pool_proj
I0507 21:21:48.454764 22664 net.cpp:406] inception_5b/pool_proj <- inception_5b/pool
I0507 21:21:48.454771 22664 net.cpp:380] inception_5b/pool_proj -> inception_5b/pool_proj
I0507 21:21:48.456897 22664 net.cpp:122] Setting up inception_5b/pool_proj
I0507 21:21:48.456907 22664 net.cpp:129] Top shape: 16 128 7 7 (100352)
I0507 21:21:48.456910 22664 net.cpp:137] Memory required for data: 893711000
I0507 21:21:48.456916 22664 layer_factory.hpp:77] Creating layer inception_5b/relu_pool_proj
I0507 21:21:48.456923 22664 net.cpp:84] Creating Layer inception_5b/relu_pool_proj
I0507 21:21:48.456945 22664 net.cpp:406] inception_5b/relu_pool_proj <- inception_5b/pool_proj
I0507 21:21:48.456951 22664 net.cpp:367] inception_5b/relu_pool_proj -> inception_5b/pool_proj (in-place)
I0507 21:21:48.457478 22664 net.cpp:122] Setting up inception_5b/relu_pool_proj
I0507 21:21:48.457486 22664 net.cpp:129] Top shape: 16 128 7 7 (100352)
I0507 21:21:48.457489 22664 net.cpp:137] Memory required for data: 894112408
I0507 21:21:48.457494 22664 layer_factory.hpp:77] Creating layer inception_5b/output
I0507 21:21:48.457501 22664 net.cpp:84] Creating Layer inception_5b/output
I0507 21:21:48.457505 22664 net.cpp:406] inception_5b/output <- inception_5b/1x1
I0507 21:21:48.457511 22664 net.cpp:406] inception_5b/output <- inception_5b/3x3
I0507 21:21:48.457515 22664 net.cpp:406] inception_5b/output <- inception_5b/5x5
I0507 21:21:48.457520 22664 net.cpp:406] inception_5b/output <- inception_5b/pool_proj
I0507 21:21:48.457525 22664 net.cpp:380] inception_5b/output -> inception_5b/output
I0507 21:21:48.457554 22664 net.cpp:122] Setting up inception_5b/output
I0507 21:21:48.457561 22664 net.cpp:129] Top shape: 16 1024 7 7 (802816)
I0507 21:21:48.457564 22664 net.cpp:137] Memory required for data: 897323672
I0507 21:21:48.457567 22664 layer_factory.hpp:77] Creating layer pool5/7x7_s1
I0507 21:21:48.457573 22664 net.cpp:84] Creating Layer pool5/7x7_s1
I0507 21:21:48.457577 22664 net.cpp:406] pool5/7x7_s1 <- inception_5b/output
I0507 21:21:48.457584 22664 net.cpp:380] pool5/7x7_s1 -> pool5/7x7_s1
I0507 21:21:48.458124 22664 net.cpp:122] Setting up pool5/7x7_s1
I0507 21:21:48.458135 22664 net.cpp:129] Top shape: 16 1024 1 1 (16384)
I0507 21:21:48.458139 22664 net.cpp:137] Memory required for data: 897389208
I0507 21:21:48.458143 22664 layer_factory.hpp:77] Creating layer pool5/drop_7x7_s1
I0507 21:21:48.458150 22664 net.cpp:84] Creating Layer pool5/drop_7x7_s1
I0507 21:21:48.458153 22664 net.cpp:406] pool5/drop_7x7_s1 <- pool5/7x7_s1
I0507 21:21:48.458159 22664 net.cpp:367] pool5/drop_7x7_s1 -> pool5/7x7_s1 (in-place)
I0507 21:21:48.458182 22664 net.cpp:122] Setting up pool5/drop_7x7_s1
I0507 21:21:48.458187 22664 net.cpp:129] Top shape: 16 1024 1 1 (16384)
I0507 21:21:48.458190 22664 net.cpp:137] Memory required for data: 897454744
I0507 21:21:48.458194 22664 layer_factory.hpp:77] Creating layer loss3/classifier
I0507 21:21:48.458204 22664 net.cpp:84] Creating Layer loss3/classifier
I0507 21:21:48.458206 22664 net.cpp:406] loss3/classifier <- pool5/7x7_s1
I0507 21:21:48.458212 22664 net.cpp:380] loss3/classifier -> loss3/classifier
I0507 21:21:48.459909 22664 net.cpp:122] Setting up loss3/classifier
I0507 21:21:48.459919 22664 net.cpp:129] Top shape: 16 196 (3136)
I0507 21:21:48.459923 22664 net.cpp:137] Memory required for data: 897467288
I0507 21:21:48.459928 22664 layer_factory.hpp:77] Creating layer loss3/classifier_loss3/classifier_0_split
I0507 21:21:48.459937 22664 net.cpp:84] Creating Layer loss3/classifier_loss3/classifier_0_split
I0507 21:21:48.459941 22664 net.cpp:406] loss3/classifier_loss3/classifier_0_split <- loss3/classifier
I0507 21:21:48.459947 22664 net.cpp:380] loss3/classifier_loss3/classifier_0_split -> loss3/classifier_loss3/classifier_0_split_0
I0507 21:21:48.459955 22664 net.cpp:380] loss3/classifier_loss3/classifier_0_split -> loss3/classifier_loss3/classifier_0_split_1
I0507 21:21:48.459961 22664 net.cpp:380] loss3/classifier_loss3/classifier_0_split -> loss3/classifier_loss3/classifier_0_split_2
I0507 21:21:48.460006 22664 net.cpp:122] Setting up loss3/classifier_loss3/classifier_0_split
I0507 21:21:48.460011 22664 net.cpp:129] Top shape: 16 196 (3136)
I0507 21:21:48.460014 22664 net.cpp:129] Top shape: 16 196 (3136)
I0507 21:21:48.460018 22664 net.cpp:129] Top shape: 16 196 (3136)
I0507 21:21:48.460021 22664 net.cpp:137] Memory required for data: 897504920
I0507 21:21:48.460026 22664 layer_factory.hpp:77] Creating layer loss3/loss
I0507 21:21:48.460032 22664 net.cpp:84] Creating Layer loss3/loss
I0507 21:21:48.460036 22664 net.cpp:406] loss3/loss <- loss3/classifier_loss3/classifier_0_split_0
I0507 21:21:48.460052 22664 net.cpp:406] loss3/loss <- label_val-data_1_split_6
…
