…
I0511 18:26:43.437438 29693 net.cpp:294] The NetState phase (0) differed from the phase (1) specified by a rule in layer loss3/top-5
I0511 18:26:43.439064 29693 net.cpp:51] Initializing net from parameters:
state {
phase: TRAIN
level: 0
stage: ""
}
layer {
name: "train-data"
type: "Data"
top: "data"
top: "label"
include {
phase: TRAIN
}
transform_param {
mirror: true
crop_size: 224
mean_file: "/mnt/bigdisk/AMBDIG9/digits/jobs/20200511-171159-6b48/mean.binaryproto"
}
data_param {
source: "/mnt/bigdisk/AMBDIG9/digits/jobs/20200511-171159-6b48/train_db"
batch_size: 32
backend: LMDB
}
}
layer {
name: "conv1/7x7_s2"
type: "Convolution"
bottom: "data"
top: "conv1/7x7_s2"
param {
lr_mult: 1
decay_mult: 1
}
param {
lr_mult: 2
decay_mult: 0
}
convolution_param {
num_output: 64
pad: 3
kernel_size: 7
stride: 2
weight_filler {
type: "xavier"
std: 0.1
}
bias_filler {
type: "constant"
value: 0.2
}
}
}
layer {
name: "conv1/relu_7x7"
type: "ReLU"
bottom: "conv1/7x7_s2"
top: "conv1/7x7_s2"
}
layer {
name: "pool1/3x3_s2"
type: "Pooling"
bottom: "conv1/7x7_s2"
top: "pool1/3x3_s2"
pooling_param {
pool: MAX
kernel_size: 3
stride: 2
}
}
layer {
name: "pool1/norm1"
type: "LRN"
bottom: "pool1/3x3_s2"
top: "pool1/norm1"
lrn_param {
local_size: 5
alpha: 0.0001
beta: 0.75
}
}
layer {
name: "conv2/3x3_reduce"
type: "Convolution"
bottom: "pool1/norm1"
top: "conv2/3x3_reduce"
param {
lr_mult: 1
decay_mult: 1
}
param {
lr_mult: 2
decay_mult: 0
}
convolution_param {
num_output: 64
kernel_size: 1
weight_filler {
type: "xavier"
std: 0.1
}
bias_filler {
type: "constant"
value: 0.2
}
}
}
layer {
name: "conv2/relu_3x3_reduce"
type: "ReLU"
bottom: "conv2/3x3_reduce"
top: "conv2/3x3_reduce"
}
layer {
name: "conv2/3x3"
type: "Convolution"
bottom: "conv2/3x3_reduce"
top: "conv2/3x3"
param {
lr_mult: 1
decay_mult: 1
}
param {
lr_mult: 2
decay_mult: 0
}
convolution_param {
num_output: 192
pad: 1
kernel_size: 3
weight_filler {
type: "xavier"
std: 0.03
}
bias_filler {
type: "constant"
value: 0.2
}
}
}
layer {
name: "conv2/relu_3x3"
type: "ReLU"
bottom: "conv2/3x3"
top: "conv2/3x3"
}
layer {
name: "conv2/norm2"
type: "LRN"
bottom: "conv2/3x3"
top: "conv2/norm2"
lrn_param {
local_size: 5
alpha: 0.0001
beta: 0.75
}
}
layer {
name: "pool2/3x3_s2"
type: "Pooling"
bottom: "conv2/norm2"
top: "pool2/3x3_s2"
pooling_param {
pool: MAX
kernel_size: 3
stride: 2
}
}
layer {
name: "inception_3a/1x1"
type: "Convolution"
bottom: "pool2/3x3_s2"
top: "inception_3a/1x1"
param {
lr_mult: 1
decay_mult: 1
}
param {
lr_mult: 2
decay_mult: 0
}
convolution_param {
num_output: 64
kernel_size: 1
weight_filler {
type: "xavier"
std: 0.03
}
bias_filler {
type: "constant"
value: 0.2
}
}
}
layer {
name: "inception_3a/relu_1x1"
type: "ReLU"
bottom: "inception_3a/1x1"
top: "inception_3a/1x1"
}
layer {
name: "inception_3a/3x3_reduce"
type: "Convolution"
bottom: "pool2/3x3_s2"
top: "inception_3a/3x3_reduce"
param {
lr_mult: 1
decay_mult: 1
}
param {
lr_mult: 2
decay_mult: 0
}
convolution_param {
num_output: 96
kernel_size: 1
weight_filler {
type: "xavier"
std: 0.09
}
bias_filler {
type: "constant"
value: 0.2
}
}
}
layer {
name: "inception_3a/relu_3x3_reduce"
type: "ReLU"
bottom: "inception_3a/3x3_reduce"
top: "inception_3a/3x3_reduce"
}
layer {
name: "inception_3a/3x3"
type: "Convolution"
bottom: "inception_3a/3x3_reduce"
top: "inception_3a/3x3"
param {
lr_mult: 1
decay_mult: 1
}
param {
lr_mult: 2
decay_mult: 0
}
convolution_param {
num_output: 128
pad: 1
kernel_size: 3
weight_filler {
type: "xavier"
std: 0.03
}
bias_filler {
type: "constant"
value: 0.2
}
}
}
layer {
name: "inception_3a/relu_3x3"
type: "ReLU"
bottom: "inception_3a/3x3"
top: "inception_3a/3x3"
}
layer {
name: "inception_3a/5x5_reduce"
type: "Convolution"
bottom: "pool2/3x3_s2"
top: "inception_3a/5x5_reduce"
param {
lr_mult: 1
decay_mult: 1
}
param {
lr_mult: 2
decay_mult: 0
}
convolution_param {
num_output: 16
kernel_size: 1
weight_filler {
type: "xavier"
std: 0.2
}
bias_filler {
type: "constant"
value: 0.2
}
}
}
layer {
name: "inception_3a/relu_5x5_reduce"
type: "ReLU"
bottom: "inception_3a/5x5_reduce"
top: "inception_3a/5x5_reduce"
}
layer {
name: "inception_3a/5x5"
type: "Convolution"
bottom: "inception_3a/5x5_reduce"
top: "inception_3a/5x5"
param {
lr_mult: 1
decay_mult: 1
}
param {
lr_mult: 2
decay_mult: 0
}
convolution_param {
num_output: 32
pad: 2
kernel_size: 5
weight_filler {
type: "xavier"
std: 0.03
}
bias_filler {
type: "constant"
value: 0.2
}
}
}
layer {
name: "inception_3a/relu_5x5"
type: "ReLU"
bottom: "inception_3a/5x5"
top: "inception_3a/5x5"
}
layer {
name: "inception_3a/pool"
type: "Pooling"
bottom: "pool2/3x3_s2"
top: "inception_3a/pool"
pooling_param {
pool: MAX
kernel_size: 3
stride: 1
pad: 1
}
}
layer {
name: "inception_3a/pool_proj"
type: "Convolution"
bottom: "inception_3a/pool"
top: "inception_3a/pool_proj"
param {
lr_mult: 1
decay_mult: 1
}
param {
lr_mult: 2
decay_mult: 0
}
convolution_param {
num_output: 32
kernel_size: 1
weight_filler {
type: "xavier"
std: 0.1
}
bias_filler {
type: "constant"
value: 0.2
}
}
}
layer {
name: "inception_3a/relu_pool_proj"
type: "ReLU"
bottom: "inception_3a/pool_proj"
top: "inception_3a/pool_proj"
}
layer {
name: "inception_3a/output"
type: "Concat"
bottom: "inception_3a/1x1"
bottom: "inception_3a/3x3"
bottom: "inception_3a/5x5"
bottom: "inception_3a/pool_proj"
top: "inception_3a/output"
}
layer {
name: "inception_3b/1x1"
type: "Convolution"
bottom: "inception_3a/output"
top: "inception_3b/1x1"
param {
lr_mult: 1
decay_mult: 1
}
param {
lr_mult: 2
decay_mult: 0
}
convolution_param {
num_output: 128
kernel_size: 1
weight_filler {
type: "xavier"
std: 0.03
}
bias_filler {
type: "constant"
value: 0.2
}
}
}
layer {
name: "inception_3b/relu_1x1"
type: "ReLU"
bottom: "inception_3b/1x1"
top: "inception_3b/1x1"
}
layer {
name: "inception_3b/3x3_reduce"
type: "Convolution"
bottom: "inception_3a/output"
top: "inception_3b/3x3_reduce"
param {
lr_mult: 1
decay_mult: 1
}
param {
lr_mult: 2
decay_mult: 0
}
convolution_param {
num_output: 128
kernel_size: 1
weight_filler {
type: "xavier"
std: 0.09
}
bias_filler {
type: "constant"
value: 0.2
}
}
}
layer {
name: "inception_3b/relu_3x3_reduce"
type: "ReLU"
bottom: "inception_3b/3x3_reduce"
top: "inception_3b/3x3_reduce"
}
layer {
name: "inception_3b/3x3"
type: "Convolution"
bottom: "inception_3b/3x3_reduce"
top: "inception_3b/3x3"
param {
lr_mult: 1
decay_mult: 1
}
param {
lr_mult: 2
decay_mult: 0
}
convolution_param {
num_output: 192
pad: 1
kernel_size: 3
weight_filler {
type: "xavier"
std: 0.03
}
bias_filler {
type: "constant"
value: 0.2
}
}
}
layer {
name: "inception_3b/relu_3x3"
type: "ReLU"
bottom: "inception_3b/3x3"
top: "inception_3b/3x3"
}
layer {
name: "inception_3b/5x5_reduce"
type: "Convolution"
bottom: "inception_3a/output"
top: "inception_3b/5x5_reduce"
param {
lr_mult: 1
decay_mult: 1
}
param {
lr_mult: 2
decay_mult: 0
}
convolution_param {
num_output: 32
kernel_size: 1
weight_filler {
type: "xavier"
std: 0.2
}
bias_filler {
type: "constant"
value: 0.2
}
}
}
layer {
name: "inception_3b/relu_5x5_reduce"
type: "ReLU"
bottom: "inception_3b/5x5_reduce"
top: "inception_3b/5x5_reduce"
}
layer {
name: "inception_3b/5x5"
type: "Convolution"
bottom: "inception_3b/5x5_reduce"
top: "inception_3b/5x5"
param {
lr_mult: 1
decay_mult: 1
}
param {
lr_mult: 2
decay_mult: 0
}
convolution_param {
num_output: 96
pad: 2
kernel_size: 5
weight_filler {
type: "xavier"
std: 0.03
}
bias_filler {
type: "constant"
value: 0.2
}
}
}
layer {
name: "inception_3b/relu_5x5"
type: "ReLU"
bottom: "inception_3b/5x5"
top: "inception_3b/5x5"
}
layer {
name: "inception_3b/pool"
type: "Pooling"
bottom: "inception_3a/output"
top: "inception_3b/pool"
pooling_param {
pool: MAX
kernel_size: 3
stride: 1
pad: 1
}
}
layer {
name: "inception_3b/pool_proj"
type: "Convolution"
bottom: "inception_3b/pool"
top: "inception_3b/pool_proj"
param {
lr_mult: 1
decay_mult: 1
}
param {
lr_mult: 2
decay_mult: 0
}
convolution_param {
num_output: 64
kernel_size: 1
weight_filler {
type: "xavier"
std: 0.1
}
bias_filler {
type: "constant"
value: 0.2
}
}
}
layer {
name: "inception_3b/relu_pool_proj"
type: "ReLU"
bottom: "inception_3b/pool_proj"
top: "inception_3b/pool_proj"
}
layer {
name: "inception_3b/output"
type: "Concat"
bottom: "inception_3b/1x1"
bottom: "inception_3b/3x3"
bottom: "inception_3b/5x5"
bottom: "inception_3b/pool_proj"
top: "inception_3b/output"
}
layer {
name: "pool3/3x3_s2"
type: "Pooling"
bottom: "inception_3b/output"
top: "pool3/3x3_s2"
pooling_param {
pool: MAX
kernel_size: 3
stride: 2
}
}
layer {
name: "inception_4a/1x1"
type: "Convolution"
bottom: "pool3/3x3_s2"
top: "inception_4a/1x1"
param {
lr_mult: 1
decay_mult: 1
}
param {
lr_mult: 2
decay_mult: 0
}
convolution_param {
num_output: 192
kernel_size: 1
weight_filler {
type: "xavier"
std: 0.03
}
bias_filler {
type: "constant"
value: 0.2
}
}
}
layer {
name: "inception_4a/relu_1x1"
type: "ReLU"
bottom: "inception_4a/1x1"
top: "inception_4a/1x1"
}
layer {
name: "inception_4a/3x3_reduce"
type: "Convolution"
bottom: "pool3/3x3_s2"
top: "inception_4a/3x3_reduce"
param {
lr_mult: 1
decay_mult: 1
}
param {
lr_mult: 2
decay_mult: 0
}
convolution_param {
num_output: 96
kernel_size: 1
weight_filler {
type: "xavier"
std: 0.09
}
bias_filler {
type: "constant"
value: 0.2
}
}
}
layer {
name: "inception_4a/relu_3x3_reduce"
type: "ReLU"
bottom: "inception_4a/3x3_reduce"
top: "inception_4a/3x3_reduce"
}
layer {
name: "inception_4a/3x3"
type: "Convolution"
bottom: "inception_4a/3x3_reduce"
top: "inception_4a/3x3"
param {
lr_mult: 1
decay_mult: 1
}
param {
lr_mult: 2
decay_mult: 0
}
convolution_param {
num_output: 208
pad: 1
kernel_size: 3
weight_filler {
type: "xavier"
std: 0.03
}
bias_filler {
type: "constant"
value: 0.2
}
}
}
layer {
name: "inception_4a/relu_3x3"
type: "ReLU"
bottom: "inception_4a/3x3"
top: "inception_4a/3x3"
}
layer {
name: "inception_4a/5x5_reduce"
type: "Convolution"
bottom: "pool3/3x3_s2"
top: "inception_4a/5x5_reduce"
param {
lr_mult: 1
decay_mult: 1
}
param {
lr_mult: 2
decay_mult: 0
}
convolution_param {
num_output: 16
kernel_size: 1
weight_filler {
type: "xavier"
std: 0.2
}
bias_filler {
type: "constant"
value: 0.2
}
}
}
layer {
name: "inception_4a/relu_5x5_reduce"
type: "ReLU"
bottom: "inception_4a/5x5_reduce"
top: "inception_4a/5x5_reduce"
}
layer {
name: "inception_4a/5x5"
type: "Convolution"
bottom: "inception_4a/5x5_reduce"
top: "inception_4a/5x5"
param {
lr_mult: 1
decay_mult: 1
}
param {
lr_mult: 2
decay_mult: 0
}
convolution_param {
num_output: 48
pad: 2
kernel_size: 5
weight_filler {
type: "xavier"
std: 0.03
}
bias_filler {
type: "constant"
value: 0.2
}
}
}
layer {
name: "inception_4a/relu_5x5"
type: "ReLU"
bottom: "inception_4a/5x5"
top: "inception_4a/5x5"
}
layer {
name: "inception_4a/pool"
type: "Pooling"
bottom: "pool3/3x3_s2"
top: "inception_4a/pool"
pooling_param {
pool: MAX
kernel_size: 3
stride: 1
pad: 1
}
}
layer {
name: "inception_4a/pool_proj"
type: "Convolution"
bottom: "inception_4a/pool"
top: "inception_4a/pool_proj"
param {
lr_mult: 1
decay_mult: 1
}
param {
lr_mult: 2
decay_mult: 0
}
convolution_param {
num_output: 64
kernel_size: 1
weight_filler {
type: "xavier"
std: 0.1
}
bias_filler {
type: "constant"
value: 0.2
}
}
}
layer {
name: "inception_4a/relu_pool_proj"
type: "ReLU"
bottom: "inception_4a/pool_proj"
top: "inception_4a/pool_proj"
}
layer {
name: "inception_4a/output"
type: "Concat"
bottom: "inception_4a/1x1"
bottom: "inception_4a/3x3"
bottom: "inception_4a/5x5"
bottom: "inception_4a/pool_proj"
top: "inception_4a/output"
}
layer {
name: "loss1/ave_pool"
type: "Pooling"
bottom: "inception_4a/output"
top: "loss1/ave_pool"
pooling_param {
pool: AVE
kernel_size: 5
stride: 3
}
}
layer {
name: "loss1/conv"
type: "Convolution"
bottom: "loss1/ave_pool"
top: "loss1/conv"
param {
lr_mult: 1
decay_mult: 1
}
param {
lr_mult: 2
decay_mult: 0
}
convolution_param {
num_output: 128
kernel_size: 1
weight_filler {
type: "xavier"
std: 0.08
}
bias_filler {
type: "constant"
value: 0.2
}
}
}
layer {
name: "loss1/relu_conv"
type: "ReLU"
bottom: "loss1/conv"
top: "loss1/conv"
}
layer {
name: "loss1/fc"
type: "InnerProduct"
bottom: "loss1/conv"
top: "loss1/fc"
param {
lr_mult: 1
decay_mult: 1
}
param {
lr_mult: 2
decay_mult: 0
}
inner_product_param {
num_output: 1024
weight_filler {
type: "xavier"
std: 0.02
}
bias_filler {
type: "constant"
value: 0.2
}
}
}
layer {
name: "loss1/relu_fc"
type: "ReLU"
bottom: "loss1/fc"
top: "loss1/fc"
}
layer {
name: "loss1/drop_fc"
type: "Dropout"
bottom: "loss1/fc"
top: "loss1/fc"
dropout_param {
dropout_ratio: 0.7
}
}
layer {
name: "loss1/classifier"
type: "InnerProduct"
bottom: "loss1/fc"
top: "loss1/classifier"
param {
lr_mult: 1
decay_mult: 1
}
param {
lr_mult: 2
decay_mult: 0
}
inner_product_param {
num_output: 196
weight_filler {
type: "xavier"
std: 0.0009765625
}
bias_filler {
type: "constant"
value: 0
}
}
}
layer {
name: "loss1/loss"
type: "SoftmaxWithLoss"
bottom: "loss1/classifier"
bottom: "label"
top: "loss1/loss"
loss_weight: 0.3
}
layer {
name: "inception_4b/1x1"
type: "Convolution"
bottom: "inception_4a/output"
top: "inception_4b/1x1"
param {
lr_mult: 1
decay_mult: 1
}
param {
lr_mult: 2
decay_mult: 0
}
convolution_param {
num_output: 160
kernel_size: 1
weight_filler {
type: "xavier"
std: 0.03
}
bias_filler {
type: "constant"
value: 0.2
}
}
}
layer {
name: "inception_4b/relu_1x1"
type: "ReLU"
bottom: "inception_4b/1x1"
top: "inception_4b/1x1"
}
layer {
name: "inception_4b/3x3_reduce"
type: "Convolution"
bottom: "inception_4a/output"
top: "inception_4b/3x3_reduce"
param {
lr_mult: 1
decay_mult: 1
}
param {
lr_mult: 2
decay_mult: 0
}
convolution_param {
num_output: 112
kernel_size: 1
weight_filler {
type: "xavier"
std: 0.09
}
bias_filler {
type: "constant"
value: 0.2
}
}
}
layer {
name: "inception_4b/relu_3x3_reduce"
type: "ReLU"
bottom: "inception_4b/3x3_reduce"
top: "inception_4b/3x3_reduce"
}
layer {
name: "inception_4b/3x3"
type: "Convolution"
bottom: "inception_4b/3x3_reduce"
top: "inception_4b/3x3"
param {
lr_mult: 1
decay_mult: 1
}
param {
lr_mult: 2
decay_mult: 0
}
convolution_param {
num_output: 224
pad: 1
kernel_size: 3
weight_filler {
type: "xavier"
std: 0.03
}
bias_filler {
type: "constant"
value: 0.2
}
}
}
layer {
name: "inception_4b/relu_3x3"
type: "ReLU"
bottom: "inception_4b/3x3"
top: "inception_4b/3x3"
}
layer {
name: "inception_4b/5x5_reduce"
type: "Convolution"
bottom: "inception_4a/output"
top: "inception_4b/5x5_reduce"
param {
lr_mult: 1
decay_mult: 1
}
param {
lr_mult: 2
decay_mult: 0
}
convolution_param {
num_output: 24
kernel_size: 1
weight_filler {
type: "xavier"
std: 0.2
}
bias_filler {
type: "constant"
value: 0.2
}
}
}
layer {
name: "inception_4b/relu_5x5_reduce"
type: "ReLU"
bottom: "inception_4b/5x5_reduce"
top: "inception_4b/5x5_reduce"
}
layer {
name: "inception_4b/5x5"
type: "Convolution"
bottom: "inception_4b/5x5_reduce"
top: "inception_4b/5x5"
param {
lr_mult: 1
decay_mult: 1
}
param {
lr_mult: 2
decay_mult: 0
}
convolution_param {
num_output: 64
pad: 2
kernel_size: 5
weight_filler {
type: "xavier"
std: 0.03
}
bias_filler {
type: "constant"
value: 0.2
}
}
}
layer {
name: "inception_4b/relu_5x5"
type: "ReLU"
bottom: "inception_4b/5x5"
top: "inception_4b/5x5"
}
layer {
name: "inception_4b/pool"
type: "Pooling"
bottom: "inception_4a/output"
top: "inception_4b/pool"
pooling_param {
pool: MAX
kernel_size: 3
stride: 1
pad: 1
}
}
layer {
name: "inception_4b/pool_proj"
type: "Convolution"
bottom: "inception_4b/pool"
top: "inception_4b/pool_proj"
param {
lr_mult: 1
decay_mult: 1
}
param {
lr_mult: 2
decay_mult: 0
}
convolution_param {
num_output: 64
kernel_size: 1
weight_filler {
type: "xavier"
std: 0.1
}
bias_filler {
type: "constant"
value: 0.2
}
}
}
layer {
name: "inception_4b/relu_pool_proj"
type: "ReLU"
bottom: "inception_4b/pool_proj"
top: "inception_4b/pool_proj"
}
layer {
name: "inception_4b/output"
type: "Concat"
bottom: "inception_4b/1x1"
bottom: "inception_4b/3x3"
bottom: "inception_4b/5x5"
bottom: "inception_4b/pool_proj"
top: "inception_4b/output"
}
layer {
name: "inception_4c/1x1"
type: "Convolution"
bottom: "inception_4b/output"
top: "inception_4c/1x1"
param {
lr_mult: 1
decay_mult: 1
}
param {
lr_mult: 2
decay_mult: 0
}
convolution_param {
num_output: 128
kernel_size: 1
weight_filler {
type: "xavier"
std: 0.03
}
bias_filler {
type: "constant"
value: 0.2
}
}
}
layer {
name: "inception_4c/relu_1x1"
type: "ReLU"
bottom: "inception_4c/1x1"
top: "inception_4c/1x1"
}
layer {
name: "inception_4c/3x3_reduce"
type: "Convolution"
bottom: "inception_4b/output"
top: "inception_4c/3x3_reduce"
param {
lr_mult: 1
decay_mult: 1
}
param {
lr_mult: 2
decay_mult: 0
}
convolution_param {
num_output: 128
kernel_size: 1
weight_filler {
type: "xavier"
std: 0.09
}
bias_filler {
type: "constant"
value: 0.2
}
}
}
layer {
name: "inception_4c/relu_3x3_reduce"
type: "ReLU"
bottom: "inception_4c/3x3_reduce"
top: "inception_4c/3x3_reduce"
}
layer {
name: "inception_4c/3x3"
type: "Convolution"
bottom: "inception_4c/3x3_reduce"
top: "inception_4c/3x3"
param {
lr_mult: 1
decay_mult: 1
}
param {
lr_mult: 2
decay_mult: 0
}
convolution_param {
num_output: 256
pad: 1
kernel_size: 3
weight_filler {
type: "xavier"
std: 0.03
}
bias_filler {
type: "constant"
value: 0.2
}
}
}
layer {
name: "inception_4c/relu_3x3"
type: "ReLU"
bottom: "inception_4c/3x3"
top: "inception_4c/3x3"
}
layer {
name: "inception_4c/5x5_reduce"
type: "Convolution"
bottom: "inception_4b/output"
top: "inception_4c/5x5_reduce"
param {
lr_mult: 1
decay_mult: 1
}
param {
lr_mult: 2
decay_mult: 0
}
convolution_param {
num_output: 24
kernel_size: 1
weight_filler {
type: "xavier"
std: 0.2
}
bias_filler {
type: "constant"
value: 0.2
}
}
}
layer {
name: "inception_4c/relu_5x5_reduce"
type: "ReLU"
bottom: "inception_4c/5x5_reduce"
top: "inception_4c/5x5_reduce"
}
layer {
name: "inception_4c/5x5"
type: "Convolution"
bottom: "inception_4c/5x5_reduce"
top: "inception_4c/5x5"
param {
lr_mult: 1
decay_mult: 1
}
param {
lr_mult: 2
decay_mult: 0
}
convolution_param {
num_output: 64
pad: 2
kernel_size: 5
weight_filler {
type: "xavier"
std: 0.03
}
bias_filler {
type: "constant"
value: 0.2
}
}
}
layer {
name: "inception_4c/relu_5x5"
type: "ReLU"
bottom: "inception_4c/5x5"
top: "inception_4c/5x5"
}
layer {
name: "inception_4c/pool"
type: "Pooling"
bottom: "inception_4b/output"
top: "inception_4c/pool"
pooling_param {
pool: MAX
kernel_size: 3
stride: 1
pad: 1
}
}
layer {
name: "inception_4c/pool_proj"
type: "Convolution"
bottom: "inception_4c/pool"
top: "inception_4c/pool_proj"
param {
lr_mult: 1
decay_mult: 1
}
param {
lr_mult: 2
decay_mult: 0
}
convolution_param {
num_output: 64
kernel_size: 1
weight_filler {
type: "xavier"
std: 0.1
}
bias_filler {
type: "constant"
value: 0.2
}
}
}
layer {
name: "inception_4c/relu_pool_proj"
type: "ReLU"
bottom: "inception_4c/pool_proj"
top: "inception_4c/pool_proj"
}
layer {
name: "inception_4c/output"
type: "Concat"
bottom: "inception_4c/1x1"
bottom: "inception_4c/3x3"
bottom: "inception_4c/5x5"
bottom: "inception_4c/pool_proj"
top: "inception_4c/output"
}
layer {
name: "inception_4d/1x1"
type: "Convolution"
bottom: "inception_4c/output"
top: "inception_4d/1x1"
param {
lr_mult: 1
decay_mult: 1
}
param {
lr_mult: 2
decay_mult: 0
}
convolution_param {
num_output: 112
kernel_size: 1
weight_filler {
type: "xavier"
std: 0.03
}
bias_filler {
type: "constant"
value: 0.2
}
}
}
layer {
name: "inception_4d/relu_1x1"
type: "ReLU"
bottom: "inception_4d/1x1"
top: "inception_4d/1x1"
}
layer {
name: "inception_4d/3x3_reduce"
type: "Convolution"
bottom: "inception_4c/output"
top: "inception_4d/3x3_reduce"
param {
lr_mult: 1
decay_mult: 1
}
param {
lr_mult: 2
decay_mult: 0
}
convolution_param {
num_output: 144
kernel_size: 1
weight_filler {
type: "xavier"
std: 0.09
}
bias_filler {
type: "constant"
value: 0.2
}
}
}
layer {
name: "inception_4d/relu_3x3_reduce"
type: "ReLU"
bottom: "inception_4d/3x3_reduce"
top: "inception_4d/3x3_reduce"
}
layer {
name: "inception_4d/3x3"
type: "Convolution"
bottom: "inception_4d/3x3_reduce"
top: "inception_4d/3x3"
param {
lr_mult: 1
decay_mult: 1
}
param {
lr_mult: 2
decay_mult: 0
}
convolution_param {
num_output: 288
pad: 1
kernel_size: 3
weight_filler {
type: "xavier"
std: 0.03
}
bias_filler {
type: "constant"
value: 0.2
}
}
}
layer {
name: "inception_4d/relu_3x3"
type: "ReLU"
bottom: "inception_4d/3x3"
top: "inception_4d/3x3"
}
layer {
name: "inception_4d/5x5_reduce"
type: "Convolution"
bottom: "inception_4c/output"
top: "inception_4d/5x5_reduce"
param {
lr_mult: 1
decay_mult: 1
}
param {
lr_mult: 2
decay_mult: 0
}
convolution_param {
num_output: 32
kernel_size: 1
weight_filler {
type: "xavier"
std: 0.2
}
bias_filler {
type: "constant"
value: 0.2
}
}
}
layer {
name: "inception_4d/relu_5x5_reduce"
type: "ReLU"
bottom: "inception_4d/5x5_reduce"
top: "inception_4d/5x5_reduce"
}
layer {
name: "inception_4d/5x5"
type: "Convolution"
bottom: "inception_4d/5x5_reduce"
top: "inception_4d/5x5"
param {
lr_mult: 1
decay_mult: 1
}
param {
lr_mult: 2
decay_mult: 0
}
convolution_param {
num_output: 64
pad: 2
kernel_size: 5
weight_filler {
type: "xavier"
std: 0.03
}
bias_filler {
type: "constant"
value: 0.2
}
}
}
layer {
name: "inception_4d/relu_5x5"
type: "ReLU"
bottom: "inception_4d/5x5"
top: "inception_4d/5x5"
}
layer {
name: "inception_4d/pool"
type: "Pooling"
bottom: "inception_4c/output"
top: "inception_4d/pool"
pooling_param {
pool: MAX
kernel_size: 3
stride: 1
pad: 1
}
}
layer {
name: "inception_4d/pool_proj"
type: "Convolution"
bottom: "inception_4d/pool"
top: "inception_4d/pool_proj"
param {
lr_mult: 1
decay_mult: 1
}
param {
lr_mult: 2
decay_mult: 0
}
convolution_param {
num_output: 64
kernel_size: 1
weight_filler {
type: "xavier"
std: 0.1
}
bias_filler {
type: "constant"
value: 0.2
}
}
}
layer {
name: "inception_4d/relu_pool_proj"
type: "ReLU"
bottom: "inception_4d/pool_proj"
top: "inception_4d/pool_proj"
}
layer {
name: "inception_4d/output"
type: "Concat"
bottom: "inception_4d/1x1"
bottom: "inception_4d/3x3"
bottom: "inception_4d/5x5"
bottom: "inception_4d/pool_proj"
top: "inception_4d/output"
}
layer {
name: "loss2/ave_pool"
type: "Pooling"
bottom: "inception_4d/output"
top: "loss2/ave_pool"
pooling_param {
pool: AVE
kernel_size: 5
stride: 3
}
}
layer {
name: "loss2/conv"
type: "Convolution"
bottom: "loss2/ave_pool"
top: "loss2/conv"
param {
lr_mult: 1
decay_mult: 1
}
param {
lr_mult: 2
decay_mult: 0
}
convolution_param {
num_output: 128
kernel_size: 1
weight_filler {
type: "xavier"
std: 0.08
}
bias_filler {
type: "constant"
value: 0.2
}
}
}
layer {
name: "loss2/relu_conv"
type: "ReLU"
bottom: "loss2/conv"
top: "loss2/conv"
}
layer {
name: "loss2/fc"
type: "InnerProduct"
bottom: "loss2/conv"
top: "loss2/fc"
param {
lr_mult: 1
decay_mult: 1
}
param {
lr_mult: 2
decay_mult: 0
}
inner_product_param {
num_output: 1024
weight_filler {
type: "xavier"
std: 0.02
}
bias_filler {
type: "constant"
value: 0.2
}
}
}
layer {
name: "loss2/relu_fc"
type: "ReLU"
bottom: "loss2/fc"
top: "loss2/fc"
}
layer {
name: "loss2/drop_fc"
type: "Dropout"
bottom: "loss2/fc"
top: "loss2/fc"
dropout_param {
dropout_ratio: 0.7
}
}
layer {
name: "loss2/classifier"
type: "InnerProduct"
bottom: "loss2/fc"
top: "loss2/classifier"
param {
lr_mult: 1
decay_mult: 1
}
param {
lr_mult: 2
decay_mult: 0
}
inner_product_param {
num_output: 196
weight_filler {
type: "xavier"
std: 0.0009765625
}
bias_filler {
type: "constant"
value: 0
}
}
}
layer {
name: "loss2/loss"
type: "SoftmaxWithLoss"
bottom: "loss2/classifier"
bottom: "label"
top: "loss2/loss"
loss_weight: 0.3
}
layer {
name: "inception_4e/1x1"
type: "Convolution"
bottom: "inception_4d/output"
top: "inception_4e/1x1"
param {
lr_mult: 1
decay_mult: 1
}
param {
lr_mult: 2
decay_mult: 0
}
convolution_param {
num_output: 256
kernel_size: 1
weight_filler {
type: "xavier"
std: 0.03
}
bias_filler {
type: "constant"
value: 0.2
}
}
}
layer {
name: "inception_4e/relu_1x1"
type: "ReLU"
bottom: "inception_4e/1x1"
top: "inception_4e/1x1"
}
layer {
name: "inception_4e/3x3_reduce"
type: "Convolution"
bottom: "inception_4d/output"
top: "inception_4e/3x3_reduce"
param {
lr_mult: 1
decay_mult: 1
}
param {
lr_mult: 2
decay_mult: 0
}
convolution_param {
num_output: 160
kernel_size: 1
weight_filler {
type: "xavier"
std: 0.09
}
bias_filler {
type: "constant"
value: 0.2
}
}
}
layer {
name: "inception_4e/relu_3x3_reduce"
type: "ReLU"
bottom: "inception_4e/3x3_reduce"
top: "inception_4e/3x3_reduce"
}
layer {
name: "inception_4e/3x3"
type: "Convolution"
bottom: "inception_4e/3x3_reduce"
top: "inception_4e/3x3"
param {
lr_mult: 1
decay_mult: 1
}
param {
lr_mult: 2
decay_mult: 0
}
convolution_param {
num_output: 320
pad: 1
kernel_size: 3
weight_filler {
type: "xavier"
std: 0.03
}
bias_filler {
type: "constant"
value: 0.2
}
}
}
layer {
name: "inception_4e/relu_3x3"
type: "ReLU"
bottom: "inception_4e/3x3"
top: "inception_4e/3x3"
}
layer {
name: "inception_4e/5x5_reduce"
type: "Convolution"
bottom: "inception_4d/output"
top: "inception_4e/5x5_reduce"
param {
lr_mult: 1
decay_mult: 1
}
param {
lr_mult: 2
decay_mult: 0
}
convolution_param {
num_output: 32
kernel_size: 1
weight_filler {
type: "xavier"
std: 0.2
}
bias_filler {
type: "constant"
val
I0511 18:26:43.439893 29693 layer_factory.hpp:77] Creating layer train-data
I0511 18:26:43.442232 29693 db_lmdb.cpp:35] Opened lmdb /mnt/bigdisk/AMBDIG9/digits/jobs/20200511-171159-6b48/train_db
I0511 18:26:43.442976 29693 net.cpp:84] Creating Layer train-data
I0511 18:26:43.442996 29693 net.cpp:380] train-data -> data
I0511 18:26:43.443027 29693 net.cpp:380] train-data -> label
I0511 18:26:43.443048 29693 data_transformer.cpp:25] Loading mean file from: /mnt/bigdisk/AMBDIG9/digits/jobs/20200511-171159-6b48/mean.binaryproto
I0511 18:26:43.449293 29693 data_layer.cpp:45] output data size: 32,3,224,224
I0511 18:26:43.497798 29693 net.cpp:122] Setting up train-data
I0511 18:26:43.497825 29693 net.cpp:129] Top shape: 32 3 224 224 (4816896)
I0511 18:26:43.497833 29693 net.cpp:129] Top shape: 32 (32)
I0511 18:26:43.497838 29693 net.cpp:137] Memory required for data: 19267712
I0511 18:26:43.497850 29693 layer_factory.hpp:77] Creating layer label_train-data_1_split
I0511 18:26:43.497891 29693 net.cpp:84] Creating Layer label_train-data_1_split
I0511 18:26:43.497900 29693 net.cpp:406] label_train-data_1_split <- label
I0511 18:26:43.497916 29693 net.cpp:380] label_train-data_1_split -> label_train-data_1_split_0
I0511 18:26:43.497931 29693 net.cpp:380] label_train-data_1_split -> label_train-data_1_split_1
I0511 18:26:43.497938 29693 net.cpp:380] label_train-data_1_split -> label_train-data_1_split_2
I0511 18:26:43.498004 29693 net.cpp:122] Setting up label_train-data_1_split
I0511 18:26:43.498013 29693 net.cpp:129] Top shape: 32 (32)
I0511 18:26:43.498018 29693 net.cpp:129] Top shape: 32 (32)
I0511 18:26:43.498023 29693 net.cpp:129] Top shape: 32 (32)
I0511 18:26:43.498028 29693 net.cpp:137] Memory required for data: 19268096
I0511 18:26:43.498031 29693 layer_factory.hpp:77] Creating layer conv1/7x7_s2
I0511 18:26:43.498057 29693 net.cpp:84] Creating Layer conv1/7x7_s2
I0511 18:26:43.498062 29693 net.cpp:406] conv1/7x7_s2 <- data
I0511 18:26:43.498070 29693 net.cpp:380] conv1/7x7_s2 -> conv1/7x7_s2
I0511 18:26:45.505580 29693 net.cpp:122] Setting up conv1/7x7_s2
I0511 18:26:45.505609 29693 net.cpp:129] Top shape: 32 64 112 112 (25690112)
I0511 18:26:45.505614 29693 net.cpp:137] Memory required for data: 122028544
I0511 18:26:45.505640 29693 layer_factory.hpp:77] Creating layer conv1/relu_7x7
I0511 18:26:45.505650 29693 net.cpp:84] Creating Layer conv1/relu_7x7
I0511 18:26:45.505656 29693 net.cpp:406] conv1/relu_7x7 <- conv1/7x7_s2
I0511 18:26:45.505663 29693 net.cpp:367] conv1/relu_7x7 -> conv1/7x7_s2 (in-place)
I0511 18:26:45.506125 29693 net.cpp:122] Setting up conv1/relu_7x7
I0511 18:26:45.506139 29693 net.cpp:129] Top shape: 32 64 112 112 (25690112)
I0511 18:26:45.506142 29693 net.cpp:137] Memory required for data: 224788992
I0511 18:26:45.506147 29693 layer_factory.hpp:77] Creating layer pool1/3x3_s2
I0511 18:26:45.506157 29693 net.cpp:84] Creating Layer pool1/3x3_s2
I0511 18:26:45.506162 29693 net.cpp:406] pool1/3x3_s2 <- conv1/7x7_s2
I0511 18:26:45.506170 29693 net.cpp:380] pool1/3x3_s2 -> pool1/3x3_s2
I0511 18:26:45.506225 29693 net.cpp:122] Setting up pool1/3x3_s2
I0511 18:26:45.506234 29693 net.cpp:129] Top shape: 32 64 56 56 (6422528)
I0511 18:26:45.506238 29693 net.cpp:137] Memory required for data: 250479104
I0511 18:26:45.506242 29693 layer_factory.hpp:77] Creating layer pool1/norm1
I0511 18:26:45.506254 29693 net.cpp:84] Creating Layer pool1/norm1
I0511 18:26:45.506259 29693 net.cpp:406] pool1/norm1 <- pool1/3x3_s2
I0511 18:26:45.506265 29693 net.cpp:380] pool1/norm1 -> pool1/norm1
I0511 18:26:45.506999 29693 net.cpp:122] Setting up pool1/norm1
I0511 18:26:45.507012 29693 net.cpp:129] Top shape: 32 64 56 56 (6422528)
I0511 18:26:45.507017 29693 net.cpp:137] Memory required for data: 276169216
I0511 18:26:45.507022 29693 layer_factory.hpp:77] Creating layer conv2/3x3_reduce
I0511 18:26:45.507036 29693 net.cpp:84] Creating Layer conv2/3x3_reduce
I0511 18:26:45.507041 29693 net.cpp:406] conv2/3x3_reduce <- pool1/norm1
I0511 18:26:45.507050 29693 net.cpp:380] conv2/3x3_reduce -> conv2/3x3_reduce
I0511 18:26:45.509845 29693 net.cpp:122] Setting up conv2/3x3_reduce
I0511 18:26:45.509858 29693 net.cpp:129] Top shape: 32 64 56 56 (6422528)
I0511 18:26:45.509863 29693 net.cpp:137] Memory required for data: 301859328
I0511 18:26:45.509874 29693 layer_factory.hpp:77] Creating layer conv2/relu_3x3_reduce
I0511 18:26:45.509882 29693 net.cpp:84] Creating Layer conv2/relu_3x3_reduce
I0511 18:26:45.509887 29693 net.cpp:406] conv2/relu_3x3_reduce <- conv2/3x3_reduce
I0511 18:26:45.509894 29693 net.cpp:367] conv2/relu_3x3_reduce -> conv2/3x3_reduce (in-place)
I0511 18:26:45.510355 29693 net.cpp:122] Setting up conv2/relu_3x3_reduce
I0511 18:26:45.510368 29693 net.cpp:129] Top shape: 32 64 56 56 (6422528)
I0511 18:26:45.510372 29693 net.cpp:137] Memory required for data: 327549440
I0511 18:26:45.510377 29693 layer_factory.hpp:77] Creating layer conv2/3x3
I0511 18:26:45.510391 29693 net.cpp:84] Creating Layer conv2/3x3
I0511 18:26:45.510396 29693 net.cpp:406] conv2/3x3 <- conv2/3x3_reduce
I0511 18:26:45.510444 29693 net.cpp:380] conv2/3x3 -> conv2/3x3
I0511 18:26:45.516067 29693 net.cpp:122] Setting up conv2/3x3
I0511 18:26:45.516088 29693 net.cpp:129] Top shape: 32 192 56 56 (19267584)
I0511 18:26:45.516093 29693 net.cpp:137] Memory required for data: 404619776
I0511 18:26:45.516108 29693 layer_factory.hpp:77] Creating layer conv2/relu_3x3
I0511 18:26:45.516119 29693 net.cpp:84] Creating Layer conv2/relu_3x3
I0511 18:26:45.516124 29693 net.cpp:406] conv2/relu_3x3 <- conv2/3x3
I0511 18:26:45.516131 29693 net.cpp:367] conv2/relu_3x3 -> conv2/3x3 (in-place)
I0511 18:26:45.516613 29693 net.cpp:122] Setting up conv2/relu_3x3
I0511 18:26:45.516625 29693 net.cpp:129] Top shape: 32 192 56 56 (19267584)
I0511 18:26:45.516629 29693 net.cpp:137] Memory required for data: 481690112
I0511 18:26:45.516634 29693 layer_factory.hpp:77] Creating layer conv2/norm2
I0511 18:26:45.516644 29693 net.cpp:84] Creating Layer conv2/norm2
I0511 18:26:45.516649 29693 net.cpp:406] conv2/norm2 <- conv2/3x3
I0511 18:26:45.516656 29693 net.cpp:380] conv2/norm2 -> conv2/norm2
I0511 18:26:45.517371 29693 net.cpp:122] Setting up conv2/norm2
I0511 18:26:45.517383 29693 net.cpp:129] Top shape: 32 192 56 56 (19267584)
I0511 18:26:45.517388 29693 net.cpp:137] Memory required for data: 558760448
I0511 18:26:45.517392 29693 layer_factory.hpp:77] Creating layer pool2/3x3_s2
I0511 18:26:45.517400 29693 net.cpp:84] Creating Layer pool2/3x3_s2
I0511 18:26:45.517405 29693 net.cpp:406] pool2/3x3_s2 <- conv2/norm2
I0511 18:26:45.517412 29693 net.cpp:380] pool2/3x3_s2 -> pool2/3x3_s2
I0511 18:26:45.517452 29693 net.cpp:122] Setting up pool2/3x3_s2
I0511 18:26:45.517460 29693 net.cpp:129] Top shape: 32 192 28 28 (4816896)
I0511 18:26:45.517463 29693 net.cpp:137] Memory required for data: 578028032
I0511 18:26:45.517468 29693 layer_factory.hpp:77] Creating layer pool2/3x3_s2_pool2/3x3_s2_0_split
I0511 18:26:45.517475 29693 net.cpp:84] Creating Layer pool2/3x3_s2_pool2/3x3_s2_0_split
I0511 18:26:45.517479 29693 net.cpp:406] pool2/3x3_s2_pool2/3x3_s2_0_split <- pool2/3x3_s2
I0511 18:26:45.517486 29693 net.cpp:380] pool2/3x3_s2_pool2/3x3_s2_0_split -> pool2/3x3_s2_pool2/3x3_s2_0_split_0
I0511 18:26:45.517494 29693 net.cpp:380] pool2/3x3_s2_pool2/3x3_s2_0_split -> pool2/3x3_s2_pool2/3x3_s2_0_split_1
I0511 18:26:45.517503 29693 net.cpp:380] pool2/3x3_s2_pool2/3x3_s2_0_split -> pool2/3x3_s2_pool2/3x3_s2_0_split_2
I0511 18:26:45.517510 29693 net.cpp:380] pool2/3x3_s2_pool2/3x3_s2_0_split -> pool2/3x3_s2_pool2/3x3_s2_0_split_3
I0511 18:26:45.517566 29693 net.cpp:122] Setting up pool2/3x3_s2_pool2/3x3_s2_0_split
I0511 18:26:45.517573 29693 net.cpp:129] Top shape: 32 192 28 28 (4816896)
I0511 18:26:45.517580 29693 net.cpp:129] Top shape: 32 192 28 28 (4816896)
I0511 18:26:45.517585 29693 net.cpp:129] Top shape: 32 192 28 28 (4816896)
I0511 18:26:45.517590 29693 net.cpp:129] Top shape: 32 192 28 28 (4816896)
I0511 18:26:45.517594 29693 net.cpp:137] Memory required for data: 655098368
I0511 18:26:45.517599 29693 layer_factory.hpp:77] Creating layer inception_3a/1x1
I0511 18:26:45.517616 29693 net.cpp:84] Creating Layer inception_3a/1x1
I0511 18:26:45.517621 29693 net.cpp:406] inception_3a/1x1 <- pool2/3x3_s2_pool2/3x3_s2_0_split_0
I0511 18:26:45.517630 29693 net.cpp:380] inception_3a/1x1 -> inception_3a/1x1
I0511 18:26:45.520670 29693 net.cpp:122] Setting up inception_3a/1x1
I0511 18:26:45.520685 29693 net.cpp:129] Top shape: 32 64 28 28 (1605632)
I0511 18:26:45.520690 29693 net.cpp:137] Memory required for data: 661520896
I0511 18:26:45.520700 29693 layer_factory.hpp:77] Creating layer inception_3a/relu_1x1
I0511 18:26:45.520709 29693 net.cpp:84] Creating Layer inception_3a/relu_1x1
I0511 18:26:45.520714 29693 net.cpp:406] inception_3a/relu_1x1 <- inception_3a/1x1
I0511 18:26:45.520725 29693 net.cpp:367] inception_3a/relu_1x1 -> inception_3a/1x1 (in-place)
I0511 18:26:45.521306 29693 net.cpp:122] Setting up inception_3a/relu_1x1
I0511 18:26:45.521317 29693 net.cpp:129] Top shape: 32 64 28 28 (1605632)
I0511 18:26:45.521322 29693 net.cpp:137] Memory required for data: 667943424
I0511 18:26:45.521353 29693 layer_factory.hpp:77] Creating layer inception_3a/3x3_reduce
I0511 18:26:45.521374 29693 net.cpp:84] Creating Layer inception_3a/3x3_reduce
I0511 18:26:45.521380 29693 net.cpp:406] inception_3a/3x3_reduce <- pool2/3x3_s2_pool2/3x3_s2_0_split_1
I0511 18:26:45.521389 29693 net.cpp:380] inception_3a/3x3_reduce -> inception_3a/3x3_reduce
I0511 18:26:45.526620 29693 net.cpp:122] Setting up inception_3a/3x3_reduce
I0511 18:26:45.526636 29693 net.cpp:129] Top shape: 32 96 28 28 (2408448)
I0511 18:26:45.526638 29693 net.cpp:137] Memory required for data: 677577216
I0511 18:26:45.526652 29693 layer_factory.hpp:77] Creating layer inception_3a/relu_3x3_reduce
I0511 18:26:45.526664 29693 net.cpp:84] Creating Layer inception_3a/relu_3x3_reduce
I0511 18:26:45.526667 29693 net.cpp:406] inception_3a/relu_3x3_reduce <- inception_3a/3x3_reduce
I0511 18:26:45.526674 29693 net.cpp:367] inception_3a/relu_3x3_reduce -> inception_3a/3x3_reduce (in-place)
I0511 18:26:45.527230 29693 net.cpp:122] Setting up inception_3a/relu_3x3_reduce
I0511 18:26:45.527240 29693 net.cpp:129] Top shape: 32 96 28 28 (2408448)
I0511 18:26:45.527242 29693 net.cpp:137] Memory required for data: 687211008
I0511 18:26:45.527245 29693 layer_factory.hpp:77] Creating layer inception_3a/3x3
I0511 18:26:45.527256 29693 net.cpp:84] Creating Layer inception_3a/3x3
I0511 18:26:45.527259 29693 net.cpp:406] inception_3a/3x3 <- inception_3a/3x3_reduce
I0511 18:26:45.527266 29693 net.cpp:380] inception_3a/3x3 -> inception_3a/3x3
I0511 18:26:45.531015 29693 net.cpp:122] Setting up inception_3a/3x3
I0511 18:26:45.531030 29693 net.cpp:129] Top shape: 32 128 28 28 (3211264)
I0511 18:26:45.531035 29693 net.cpp:137] Memory required for data: 700056064
I0511 18:26:45.531045 29693 layer_factory.hpp:77] Creating layer inception_3a/relu_3x3
I0511 18:26:45.531055 29693 net.cpp:84] Creating Layer inception_3a/relu_3x3
I0511 18:26:45.531060 29693 net.cpp:406] inception_3a/relu_3x3 <- inception_3a/3x3
I0511 18:26:45.531067 29693 net.cpp:367] inception_3a/relu_3x3 -> inception_3a/3x3 (in-place)
I0511 18:26:45.531841 29693 net.cpp:122] Setting up inception_3a/relu_3x3
I0511 18:26:45.531853 29693 net.cpp:129] Top shape: 32 128 28 28 (3211264)
I0511 18:26:45.531857 29693 net.cpp:137] Memory required for data: 712901120
I0511 18:26:45.531862 29693 layer_factory.hpp:77] Creating layer inception_3a/5x5_reduce
I0511 18:26:45.531875 29693 net.cpp:84] Creating Layer inception_3a/5x5_reduce
I0511 18:26:45.531881 29693 net.cpp:406] inception_3a/5x5_reduce <- pool2/3x3_s2_pool2/3x3_s2_0_split_2
I0511 18:26:45.531891 29693 net.cpp:380] inception_3a/5x5_reduce -> inception_3a/5x5_reduce
I0511 18:26:45.534773 29693 net.cpp:122] Setting up inception_3a/5x5_reduce
I0511 18:26:45.534785 29693 net.cpp:129] Top shape: 32 16 28 28 (401408)
I0511 18:26:45.534790 29693 net.cpp:137] Memory required for data: 714506752
I0511 18:26:45.534798 29693 layer_factory.hpp:77] Creating layer inception_3a/relu_5x5_reduce
I0511 18:26:45.534806 29693 net.cpp:84] Creating Layer inception_3a/relu_5x5_reduce
I0511 18:26:45.534811 29693 net.cpp:406] inception_3a/relu_5x5_reduce <- inception_3a/5x5_reduce
I0511 18:26:45.534821 29693 net.cpp:367] inception_3a/relu_5x5_reduce -> inception_3a/5x5_reduce (in-place)
I0511 18:26:45.537132 29693 net.cpp:122] Setting up inception_3a/relu_5x5_reduce
I0511 18:26:45.537147 29693 net.cpp:129] Top shape: 32 16 28 28 (401408)
I0511 18:26:45.537150 29693 net.cpp:137] Memory required for data: 716112384
I0511 18:26:45.537155 29693 layer_factory.hpp:77] Creating layer inception_3a/5x5
I0511 18:26:45.537169 29693 net.cpp:84] Creating Layer inception_3a/5x5
I0511 18:26:45.537174 29693 net.cpp:406] inception_3a/5x5 <- inception_3a/5x5_reduce
I0511 18:26:45.537184 29693 net.cpp:380] inception_3a/5x5 -> inception_3a/5x5
I0511 18:26:45.541518 29693 net.cpp:122] Setting up inception_3a/5x5
I0511 18:26:45.541534 29693 net.cpp:129] Top shape: 32 32 28 28 (802816)
I0511 18:26:45.541539 29693 net.cpp:137] Memory required for data: 719323648
I0511 18:26:45.541574 29693 layer_factory.hpp:77] Creating layer inception_3a/relu_5x5
I0511 18:26:45.541585 29693 net.cpp:84] Creating Layer inception_3a/relu_5x5
I0511 18:26:45.541590 29693 net.cpp:406] inception_3a/relu_5x5 <- inception_3a/5x5
I0511 18:26:45.541599 29693 net.cpp:367] inception_3a/relu_5x5 -> inception_3a/5x5 (in-place)
I0511 18:26:45.542389 29693 net.cpp:122] Setting up inception_3a/relu_5x5
I0511 18:26:45.542402 29693 net.cpp:129] Top shape: 32 32 28 28 (802816)
I0511 18:26:45.542405 29693 net.cpp:137] Memory required for data: 722534912
I0511 18:26:45.542410 29693 layer_factory.hpp:77] Creating layer inception_3a/pool
I0511 18:26:45.542421 29693 net.cpp:84] Creating Layer inception_3a/pool
I0511 18:26:45.542428 29693 net.cpp:406] inception_3a/pool <- pool2/3x3_s2_pool2/3x3_s2_0_split_3
I0511 18:26:45.542434 29693 net.cpp:380] inception_3a/pool -> inception_3a/pool
I0511 18:26:45.542488 29693 net.cpp:122] Setting up inception_3a/pool
I0511 18:26:45.542495 29693 net.cpp:129] Top shape: 32 192 28 28 (4816896)
I0511 18:26:45.542500 29693 net.cpp:137] Memory required for data: 741802496
I0511 18:26:45.542503 29693 layer_factory.hpp:77] Creating layer inception_3a/pool_proj
I0511 18:26:45.542516 29693 net.cpp:84] Creating Layer inception_3a/pool_proj
I0511 18:26:45.542521 29693 net.cpp:406] inception_3a/pool_proj <- inception_3a/pool
I0511 18:26:45.542531 29693 net.cpp:380] inception_3a/pool_proj -> inception_3a/pool_proj
I0511 18:26:45.545950 29693 net.cpp:122] Setting up inception_3a/pool_proj
I0511 18:26:45.545964 29693 net.cpp:129] Top shape: 32 32 28 28 (802816)
I0511 18:26:45.545969 29693 net.cpp:137] Memory required for data: 745013760
I0511 18:26:45.545985 29693 layer_factory.hpp:77] Creating layer inception_3a/relu_pool_proj
I0511 18:26:45.545994 29693 net.cpp:84] Creating Layer inception_3a/relu_pool_proj
I0511 18:26:45.546000 29693 net.cpp:406] inception_3a/relu_pool_proj <- inception_3a/pool_proj
I0511 18:26:45.546006 29693 net.cpp:367] inception_3a/relu_pool_proj -> inception_3a/pool_proj (in-place)
I0511 18:26:45.546576 29693 net.cpp:122] Setting up inception_3a/relu_pool_proj
I0511 18:26:45.546587 29693 net.cpp:129] Top shape: 32 32 28 28 (802816)
I0511 18:26:45.546591 29693 net.cpp:137] Memory required for data: 748225024
I0511 18:26:45.546597 29693 layer_factory.hpp:77] Creating layer inception_3a/output
I0511 18:26:45.546607 29693 net.cpp:84] Creating Layer inception_3a/output
I0511 18:26:45.546610 29693 net.cpp:406] inception_3a/output <- inception_3a/1x1
I0511 18:26:45.546617 29693 net.cpp:406] inception_3a/output <- inception_3a/3x3
I0511 18:26:45.546622 29693 net.cpp:406] inception_3a/output <- inception_3a/5x5
I0511 18:26:45.546627 29693 net.cpp:406] inception_3a/output <- inception_3a/pool_proj
I0511 18:26:45.546633 29693 net.cpp:380] inception_3a/output -> inception_3a/output
I0511 18:26:45.546669 29693 net.cpp:122] Setting up inception_3a/output
I0511 18:26:45.546677 29693 net.cpp:129] Top shape: 32 256 28 28 (6422528)
I0511 18:26:45.546680 29693 net.cpp:137] Memory required for data: 773915136
I0511 18:26:45.546684 29693 layer_factory.hpp:77] Creating layer inception_3a/output_inception_3a/output_0_split
I0511 18:26:45.546692 29693 net.cpp:84] Creating Layer inception_3a/output_inception_3a/output_0_split
I0511 18:26:45.546697 29693 net.cpp:406] inception_3a/output_inception_3a/output_0_split <- inception_3a/output
I0511 18:26:45.546705 29693 net.cpp:380] inception_3a/output_inception_3a/output_0_split -> inception_3a/output_inception_3a/output_0_split_0
I0511 18:26:45.546715 29693 net.cpp:380] inception_3a/output_inception_3a/output_0_split -> inception_3a/output_inception_3a/output_0_split_1
I0511 18:26:45.546722 29693 net.cpp:380] inception_3a/output_inception_3a/output_0_split -> inception_3a/output_inception_3a/output_0_split_2
I0511 18:26:45.546733 29693 net.cpp:380] inception_3a/output_inception_3a/output_0_split -> inception_3a/output_inception_3a/output_0_split_3
I0511 18:26:45.546802 29693 net.cpp:122] Setting up inception_3a/output_inception_3a/output_0_split
I0511 18:26:45.546833 29693 net.cpp:129] Top shape: 32 256 28 28 (6422528)
I0511 18:26:45.546839 29693 net.cpp:129] Top shape: 32 256 28 28 (6422528)
I0511 18:26:45.546844 29693 net.cpp:129] Top shape: 32 256 28 28 (6422528)
I0511 18:26:45.546850 29693 net.cpp:129] Top shape: 32 256 28 28 (6422528)
I0511 18:26:45.546854 29693 net.cpp:137] Memory required for data: 876675584
I0511 18:26:45.546859 29693 layer_factory.hpp:77] Creating layer inception_3b/1x1
I0511 18:26:45.546870 29693 net.cpp:84] Creating Layer inception_3b/1x1
I0511 18:26:45.546875 29693 net.cpp:406] inception_3b/1x1 <- inception_3a/output_inception_3a/output_0_split_0
I0511 18:26:45.546885 29693 net.cpp:380] inception_3b/1x1 -> inception_3b/1x1
I0511 18:26:45.551851 29693 net.cpp:122] Setting up inception_3b/1x1
I0511 18:26:45.551870 29693 net.cpp:129] Top shape: 32 128 28 28 (3211264)
I0511 18:26:45.551874 29693 net.cpp:137] Memory required for data: 889520640
I0511 18:26:45.551884 29693 layer_factory.hpp:77] Creating layer inception_3b/relu_1x1
I0511 18:26:45.551892 29693 net.cpp:84] Creating Layer inception_3b/relu_1x1
I0511 18:26:45.551901 29693 net.cpp:406] inception_3b/relu_1x1 <- inception_3b/1x1
I0511 18:26:45.551909 29693 net.cpp:367] inception_3b/relu_1x1 -> inception_3b/1x1 (in-place)
I0511 18:26:45.552700 29693 net.cpp:122] Setting up inception_3b/relu_1x1
I0511 18:26:45.552713 29693 net.cpp:129] Top shape: 32 128 28 28 (3211264)
I0511 18:26:45.552717 29693 net.cpp:137] Memory required for data: 902365696
I0511 18:26:45.552721 29693 layer_factory.hpp:77] Creating layer inception_3b/3x3_reduce
I0511 18:26:45.552736 29693 net.cpp:84] Creating Layer inception_3b/3x3_reduce
I0511 18:26:45.552742 29693 net.cpp:406] inception_3b/3x3_reduce <- inception_3a/output_inception_3a/output_0_split_1
I0511 18:26:45.552752 29693 net.cpp:380] inception_3b/3x3_reduce -> inception_3b/3x3_reduce
I0511 18:26:45.555946 29693 net.cpp:122] Setting up inception_3b/3x3_reduce
I0511 18:26:45.555959 29693 net.cpp:129] Top shape: 32 128 28 28 (3211264)
I0511 18:26:45.555963 29693 net.cpp:137] Memory required for data: 915210752
I0511 18:26:45.555972 29693 layer_factory.hpp:77] Creating layer inception_3b/relu_3x3_reduce
I0511 18:26:45.555980 29693 net.cpp:84] Creating Layer inception_3b/relu_3x3_reduce
I0511 18:26:45.555985 29693 net.cpp:406] inception_3b/relu_3x3_reduce <- inception_3b/3x3_reduce
I0511 18:26:45.555994 29693 net.cpp:367] inception_3b/relu_3x3_reduce -> inception_3b/3x3_reduce (in-place)
I0511 18:26:45.556782 29693 net.cpp:122] Setting up inception_3b/relu_3x3_reduce
I0511 18:26:45.556795 29693 net.cpp:129] Top shape: 32 128 28 28 (3211264)
I0511 18:26:45.556802 29693 net.cpp:137] Memory required for data: 928055808
I0511 18:26:45.556805 29693 layer_factory.hpp:77] Creating layer inception_3b/3x3
I0511 18:26:45.556830 29693 net.cpp:84] Creating Layer inception_3b/3x3
I0511 18:26:45.556835 29693 net.cpp:406] inception_3b/3x3 <- inception_3b/3x3_reduce
I0511 18:26:45.556844 29693 net.cpp:380] inception_3b/3x3 -> inception_3b/3x3
I0511 18:26:45.562247 29693 net.cpp:122] Setting up inception_3b/3x3
I0511 18:26:45.562274 29693 net.cpp:129] Top shape: 32 192 28 28 (4816896)
I0511 18:26:45.562278 29693 net.cpp:137] Memory required for data: 947323392
I0511 18:26:45.562291 29693 layer_factory.hpp:77] Creating layer inception_3b/relu_3x3
I0511 18:26:45.562302 29693 net.cpp:84] Creating Layer inception_3b/relu_3x3
I0511 18:26:45.562309 29693 net.cpp:406] inception_3b/relu_3x3 <- inception_3b/3x3
I0511 18:26:45.562319 29693 net.cpp:367] inception_3b/relu_3x3 -> inception_3b/3x3 (in-place)
I0511 18:26:45.564893 29693 net.cpp:122] Setting up inception_3b/relu_3x3
I0511 18:26:45.564921 29693 net.cpp:129] Top shape: 32 192 28 28 (4816896)
I0511 18:26:45.564926 29693 net.cpp:137] Memory required for data: 966590976
I0511 18:26:45.564932 29693 layer_factory.hpp:77] Creating layer inception_3b/5x5_reduce
I0511 18:26:45.564954 29693 net.cpp:84] Creating Layer inception_3b/5x5_reduce
I0511 18:26:45.564960 29693 net.cpp:406] inception_3b/5x5_reduce <- inception_3a/output_inception_3a/output_0_split_2
I0511 18:26:45.565002 29693 net.cpp:380] inception_3b/5x5_reduce -> inception_3b/5x5_reduce
I0511 18:26:45.568068 29693 net.cpp:122] Setting up inception_3b/5x5_reduce
I0511 18:26:45.568084 29693 net.cpp:129] Top shape: 32 32 28 28 (802816)
I0511 18:26:45.568089 29693 net.cpp:137] Memory required for data: 969802240
I0511 18:26:45.568099 29693 layer_factory.hpp:77] Creating layer inception_3b/relu_5x5_reduce
I0511 18:26:45.568112 29693 net.cpp:84] Creating Layer inception_3b/relu_5x5_reduce
I0511 18:26:45.568117 29693 net.cpp:406] inception_3b/relu_5x5_reduce <- inception_3b/5x5_reduce
I0511 18:26:45.568125 29693 net.cpp:367] inception_3b/relu_5x5_reduce -> inception_3b/5x5_reduce (in-place)
I0511 18:26:45.569234 29693 net.cpp:122] Setting up inception_3b/relu_5x5_reduce
I0511 18:26:45.569253 29693 net.cpp:129] Top shape: 32 32 28 28 (802816)
I0511 18:26:45.569258 29693 net.cpp:137] Memory required for data: 973013504
I0511 18:26:45.569263 29693 layer_factory.hpp:77] Creating layer inception_3b/5x5
I0511 18:26:45.569280 29693 net.cpp:84] Creating Layer inception_3b/5x5
I0511 18:26:45.569286 29693 net.cpp:406] inception_3b/5x5 <- inception_3b/5x5_reduce
I0511 18:26:45.569298 29693 net.cpp:380] inception_3b/5x5 -> inception_3b/5x5
I0511 18:26:45.573312 29693 net.cpp:122] Setting up inception_3b/5x5
I0511 18:26:45.573331 29693 net.cpp:129] Top shape: 32 96 28 28 (2408448)
I0511 18:26:45.573336 29693 net.cpp:137] Memory required for data: 982647296
I0511 18:26:45.573346 29693 layer_factory.hpp:77] Creating layer inception_3b/relu_5x5
I0511 18:26:45.573356 29693 net.cpp:84] Creating Layer inception_3b/relu_5x5
I0511 18:26:45.573361 29693 net.cpp:406] inception_3b/relu_5x5 <- inception_3b/5x5
I0511 18:26:45.573372 29693 net.cpp:367] inception_3b/relu_5x5 -> inception_3b/5x5 (in-place)
I0511 18:26:45.573940 29693 net.cpp:122] Setting up inception_3b/relu_5x5
I0511 18:26:45.573951 29693 net.cpp:129] Top shape: 32 96 28 28 (2408448)
I0511 18:26:45.573956 29693 net.cpp:137] Memory required for data: 992281088
I0511 18:26:45.573961 29693 layer_factory.hpp:77] Creating layer inception_3b/pool
I0511 18:26:45.573969 29693 net.cpp:84] Creating Layer inception_3b/pool
I0511 18:26:45.573974 29693 net.cpp:406] inception_3b/pool <- inception_3a/output_inception_3a/output_0_split_3
I0511 18:26:45.573985 29693 net.cpp:380] inception_3b/pool -> inception_3b/pool
I0511 18:26:45.574038 29693 net.cpp:122] Setting up inception_3b/pool
I0511 18:26:45.574046 29693 net.cpp:129] Top shape: 32 256 28 28 (6422528)
I0511 18:26:45.574050 29693 net.cpp:137] Memory required for data: 1017971200
I0511 18:26:45.574054 29693 layer_factory.hpp:77] Creating layer inception_3b/pool_proj
I0511 18:26:45.574069 29693 net.cpp:84] Creating Layer inception_3b/pool_proj
I0511 18:26:45.574074 29693 net.cpp:406] inception_3b/pool_proj <- inception_3b/pool
I0511 18:26:45.574082 29693 net.cpp:380] inception_3b/pool_proj -> inception_3b/pool_proj
I0511 18:26:45.579205 29693 net.cpp:122] Setting up inception_3b/pool_proj
I0511 18:26:45.579222 29693 net.cpp:129] Top shape: 32 64 28 28 (1605632)
I0511 18:26:45.579227 29693 net.cpp:137] Memory required for data: 1024393728
I0511 18:26:45.579238 29693 layer_factory.hpp:77] Creating layer inception_3b/relu_pool_proj
I0511 18:26:45.579252 29693 net.cpp:84] Creating Layer inception_3b/relu_pool_proj
I0511 18:26:45.579257 29693 net.cpp:406] inception_3b/relu_pool_proj <- inception_3b/pool_proj
I0511 18:26:45.579264 29693 net.cpp:367] inception_3b/relu_pool_proj -> inception_3b/pool_proj (in-place)
I0511 18:26:45.579840 29693 net.cpp:122] Setting up inception_3b/relu_pool_proj
I0511 18:26:45.579852 29693 net.cpp:129] Top shape: 32 64 28 28 (1605632)
I0511 18:26:45.579856 29693 net.cpp:137] Memory required for data: 1030816256
I0511 18:26:45.579861 29693 layer_factory.hpp:77] Creating layer inception_3b/output
I0511 18:26:45.579871 29693 net.cpp:84] Creating Layer inception_3b/output
I0511 18:26:45.579876 29693 net.cpp:406] inception_3b/output <- inception_3b/1x1
I0511 18:26:45.579883 29693 net.cpp:406] inception_3b/output <- inception_3b/3x3
I0511 18:26:45.579912 29693 net.cpp:406] inception_3b/output <- inception_3b/5x5
I0511 18:26:45.579917 29693 net.cpp:406] inception_3b/output <- inception_3b/pool_proj
I0511 18:26:45.579926 29693 net.cpp:380] inception_3b/output -> inception_3b/output
I0511 18:26:45.579963 29693 net.cpp:122] Setting up inception_3b/output
I0511 18:26:45.579970 29693 net.cpp:129] Top shape: 32 480 28 28 (12042240)
I0511 18:26:45.579974 29693 net.cpp:137] Memory required for data: 1078985216
I0511 18:26:45.579978 29693 layer_factory.hpp:77] Creating layer pool3/3x3_s2
I0511 18:26:45.579988 29693 net.cpp:84] Creating Layer pool3/3x3_s2
I0511 18:26:45.579993 29693 net.cpp:406] pool3/3x3_s2 <- inception_3b/output
I0511 18:26:45.580000 29693 net.cpp:380] pool3/3x3_s2 -> pool3/3x3_s2
I0511 18:26:45.580044 29693 net.cpp:122] Setting up pool3/3x3_s2
I0511 18:26:45.580052 29693 net.cpp:129] Top shape: 32 480 14 14 (3010560)
I0511 18:26:45.580055 29693 net.cpp:137] Memory required for data: 1091027456
I0511 18:26:45.580060 29693 layer_factory.hpp:77] Creating layer pool3/3x3_s2_pool3/3x3_s2_0_split
I0511 18:26:45.580070 29693 net.cpp:84] Creating Layer pool3/3x3_s2_pool3/3x3_s2_0_split
I0511 18:26:45.580073 29693 net.cpp:406] pool3/3x3_s2_pool3/3x3_s2_0_split <- pool3/3x3_s2
I0511 18:26:45.580082 29693 net.cpp:380] pool3/3x3_s2_pool3/3x3_s2_0_split -> pool3/3x3_s2_pool3/3x3_s2_0_split_0
I0511 18:26:45.580090 29693 net.cpp:380] pool3/3x3_s2_pool3/3x3_s2_0_split -> pool3/3x3_s2_pool3/3x3_s2_0_split_1
I0511 18:26:45.580098 29693 net.cpp:380] pool3/3x3_s2_pool3/3x3_s2_0_split -> pool3/3x3_s2_pool3/3x3_s2_0_split_2
I0511 18:26:45.580106 29693 net.cpp:380] pool3/3x3_s2_pool3/3x3_s2_0_split -> pool3/3x3_s2_pool3/3x3_s2_0_split_3
I0511 18:26:45.580171 29693 net.cpp:122] Setting up pool3/3x3_s2_pool3/3x3_s2_0_split
I0511 18:26:45.580179 29693 net.cpp:129] Top shape: 32 480 14 14 (3010560)
I0511 18:26:45.580184 29693 net.cpp:129] Top shape: 32 480 14 14 (3010560)
I0511 18:26:45.580189 29693 net.cpp:129] Top shape: 32 480 14 14 (3010560)
I0511 18:26:45.580194 29693 net.cpp:129] Top shape: 32 480 14 14 (3010560)
I0511 18:26:45.580199 29693 net.cpp:137] Memory required for data: 1139196416
I0511 18:26:45.580202 29693 layer_factory.hpp:77] Creating layer inception_4a/1x1
I0511 18:26:45.580216 29693 net.cpp:84] Creating Layer inception_4a/1x1
I0511 18:26:45.580220 29693 net.cpp:406] inception_4a/1x1 <- pool3/3x3_s2_pool3/3x3_s2_0_split_0
I0511 18:26:45.580230 29693 net.cpp:380] inception_4a/1x1 -> inception_4a/1x1
I0511 18:26:45.584203 29693 net.cpp:122] Setting up inception_4a/1x1
I0511 18:26:45.584218 29693 net.cpp:129] Top shape: 32 192 14 14 (1204224)
I0511 18:26:45.584221 29693 net.cpp:137] Memory required for data: 1144013312
I0511 18:26:45.584230 29693 layer_factory.hpp:77] Creating layer inception_4a/relu_1x1
I0511 18:26:45.584239 29693 net.cpp:84] Creating Layer inception_4a/relu_1x1
I0511 18:26:45.584244 29693 net.cpp:406] inception_4a/relu_1x1 <- inception_4a/1x1
I0511 18:26:45.584250 29693 net.cpp:367] inception_4a/relu_1x1 -> inception_4a/1x1 (in-place)
I0511 18:26:45.585075 29693 net.cpp:122] Setting up inception_4a/relu_1x1
I0511 18:26:45.585090 29693 net.cpp:129] Top shape: 32 192 14 14 (1204224)
I0511 18:26:45.585094 29693 net.cpp:137] Memory required for data: 1148830208
I0511 18:26:45.585099 29693 layer_factory.hpp:77] Creating layer inception_4a/3x3_reduce
I0511 18:26:45.585112 29693 net.cpp:84] Creating Layer inception_4a/3x3_reduce
I0511 18:26:45.585117 29693 net.cpp:406] inception_4a/3x3_reduce <- pool3/3x3_s2_pool3/3x3_s2_0_split_1
I0511 18:26:45.585129 29693 net.cpp:380] inception_4a/3x3_reduce -> inception_4a/3x3_reduce
I0511 18:26:45.589444 29693 net.cpp:122] Setting up inception_4a/3x3_reduce
I0511 18:26:45.589457 29693 net.cpp:129] Top shape: 32 96 14 14 (602112)
I0511 18:26:45.589462 29693 net.cpp:137] Memory required for data: 1151238656
I0511 18:26:45.589481 29693 layer_factory.hpp:77] Creating layer inception_4a/relu_3x3_reduce
I0511 18:26:45.589491 29693 net.cpp:84] Creating Layer inception_4a/relu_3x3_reduce
I0511 18:26:45.589517 29693 net.cpp:406] inception_4a/relu_3x3_reduce <- inception_4a/3x3_reduce
I0511 18:26:45.589525 29693 net.cpp:367] inception_4a/relu_3x3_reduce -> inception_4a/3x3_reduce (in-place)
I0511 18:26:45.591941 29693 net.cpp:122] Setting up inception_4a/relu_3x3_reduce
I0511 18:26:45.591955 29693 net.cpp:129] Top shape: 32 96 14 14 (602112)
I0511 18:26:45.591959 29693 net.cpp:137] Memory required for data: 1153647104
I0511 18:26:45.591964 29693 layer_factory.hpp:77] Creating layer inception_4a/3x3
I0511 18:26:45.591980 29693 net.cpp:84] Creating Layer inception_4a/3x3
I0511 18:26:45.591985 29693 net.cpp:406] inception_4a/3x3 <- inception_4a/3x3_reduce
I0511 18:26:45.591995 29693 net.cpp:380] inception_4a/3x3 -> inception_4a/3x3
I0511 18:26:45.596990 29693 net.cpp:122] Setting up inception_4a/3x3
I0511 18:26:45.597004 29693 net.cpp:129] Top shape: 32 208 14 14 (1304576)
I0511 18:26:45.597008 29693 net.cpp:137] Memory required for data: 1158865408
I0511 18:26:45.597018 29693 layer_factory.hpp:77] Creating layer inception_4a/relu_3x3
I0511 18:26:45.597028 29693 net.cpp:84] Creating Layer inception_4a/relu_3x3
I0511 18:26:45.597033 29693 net.cpp:406] inception_4a/relu_3x3 <- inception_4a/3x3
I0511 18:26:45.597039 29693 net.cpp:367] inception_4a/relu_3x3 -> inception_4a/3x3 (in-place)
I0511 18:26:45.597839 29693 net.cpp:122] Setting up inception_4a/relu_3x3
I0511 18:26:45.597851 29693 net.cpp:129] Top shape: 32 208 14 14 (1304576)
I0511 18:26:45.597856 29693 net.cpp:137] Memory required for data: 1164083712
I0511 18:26:45.597860 29693 layer_factory.hpp:77] Creating layer inception_4a/5x5_reduce
I0511 18:26:45.597873 29693 net.cpp:84] Creating Layer inception_4a/5x5_reduce
I0511 18:26:45.597879 29693 net.cpp:406] inception_4a/5x5_reduce <- pool3/3x3_s2_pool3/3x3_s2_0_split_2
I0511 18:26:45.597890 29693 net.cpp:380] inception_4a/5x5_reduce -> inception_4a/5x5_reduce
I0511 18:26:45.600885 29693 net.cpp:122] Setting up inception_4a/5x5_reduce
I0511 18:26:45.600899 29693 net.cpp:129] Top shape: 32 16 14 14 (100352)
I0511 18:26:45.600903 29693 net.cpp:137] Memory required for data: 1164485120
I0511 18:26:45.600911 29693 layer_factory.hpp:77] Creating layer inception_4a/relu_5x5_reduce
I0511 18:26:45.600921 29693 net.cpp:84] Creating Layer inception_4a/relu_5x5_reduce
I0511 18:26:45.600926 29693 net.cpp:406] inception_4a/relu_5x5_reduce <- inception_4a/5x5_reduce
I0511 18:26:45.600934 29693 net.cpp:367] inception_4a/relu_5x5_reduce -> inception_4a/5x5_reduce (in-place)
I0511 18:26:45.601722 29693 net.cpp:122] Setting up inception_4a/relu_5x5_reduce
I0511 18:26:45.601734 29693 net.cpp:129] Top shape: 32 16 14 14 (100352)
I0511 18:26:45.601738 29693 net.cpp:137] Memory required for data: 1164886528
I0511 18:26:45.601743 29693 layer_factory.hpp:77] Creating layer inception_4a/5x5
I0511 18:26:45.601756 29693 net.cpp:84] Creating Layer inception_4a/5x5
I0511 18:26:45.601761 29693 net.cpp:406] inception_4a/5x5 <- inception_4a/5x5_reduce
I0511 18:26:45.601773 29693 net.cpp:380] inception_4a/5x5 -> inception_4a/5x5
I0511 18:26:45.606684 29693 net.cpp:122] Setting up inception_4a/5x5
I0511 18:26:45.606698 29693 net.cpp:129] Top shape: 32 48 14 14 (301056)
I0511 18:26:45.606703 29693 net.cpp:137] Memory required for data: 1166090752
I0511 18:26:45.606711 29693 layer_factory.hpp:77] Creating layer inception_4a/relu_5x5
I0511 18:26:45.606719 29693 net.cpp:84] Creating Layer inception_4a/relu_5x5
I0511 18:26:45.606724 29693 net.cpp:406] inception_4a/relu_5x5 <- inception_4a/5x5
I0511 18:26:45.606734 29693 net.cpp:367] inception_4a/relu_5x5 -> inception_4a/5x5 (in-place)
I0511 18:26:45.607290 29693 net.cpp:122] Setting up inception_4a/relu_5x5
I0511 18:26:45.607301 29693 net.cpp:129] Top shape: 32 48 14 14 (301056)
I0511 18:26:45.607306 29693 net.cpp:137] Memory required for data: 1167294976
I0511 18:26:45.607311 29693 layer_factory.hpp:77] Creating layer inception_4a/pool
I0511 18:26:45.607319 29693 net.cpp:84] Creating Layer inception_4a/pool
I0511 18:26:45.607324 29693 net.cpp:406] inception_4a/pool <- pool3/3x3_s2_pool3/3x3_s2_0_split_3
I0511 18:26:45.607359 29693 net.cpp:380] inception_4a/pool -> inception_4a/pool
I0511 18:26:45.607414 29693 net.cpp:122] Setting up inception_4a/pool
I0511 18:26:45.607421 29693 net.cpp:129] Top shape: 32 480 14 14 (3010560)
I0511 18:26:45.607425 29693 net.cpp:137] Memory required for data: 1179337216
I0511 18:26:45.607429 29693 layer_factory.hpp:77] Creating layer inception_4a/pool_proj
I0511 18:26:45.607443 29693 net.cpp:84] Creating Layer inception_4a/pool_proj
I0511 18:26:45.607448 29693 net.cpp:406] inception_4a/pool_proj <- inception_4a/pool
I0511 18:26:45.607456 29693 net.cpp:380] inception_4a/pool_proj -> inception_4a/pool_proj
I0511 18:26:45.611085 29693 net.cpp:122] Setting up inception_4a/pool_proj
I0511 18:26:45.611099 29693 net.cpp:129] Top shape: 32 64 14 14 (401408)
I0511 18:26:45.611104 29693 net.cpp:137] Memory required for data: 1180942848
I0511 18:26:45.611112 29693 layer_factory.hpp:77] Creating layer inception_4a/relu_pool_proj
I0511 18:26:45.611120 29693 net.cpp:84] Creating Layer inception_4a/relu_pool_proj
I0511 18:26:45.611125 29693 net.cpp:406] inception_4a/relu_pool_proj <- inception_4a/pool_proj
I0511 18:26:45.611135 29693 net.cpp:367] inception_4a/relu_pool_proj -> inception_4a/pool_proj (in-place)
I0511 18:26:45.611927 29693 net.cpp:122] Setting up inception_4a/relu_pool_proj
I0511 18:26:45.611940 29693 net.cpp:129] Top shape: 32 64 14 14 (401408)
I0511 18:26:45.611944 29693 net.cpp:137] Memory required for data: 1182548480
I0511 18:26:45.611949 29693 layer_factory.hpp:77] Creating layer inception_4a/output
I0511 18:26:45.611958 29693 net.cpp:84] Creating Layer inception_4a/output
I0511 18:26:45.611963 29693 net.cpp:406] inception_4a/output <- inception_4a/1x1
I0511 18:26:45.611968 29693 net.cpp:406] inception_4a/output <- inception_4a/3x3
I0511 18:26:45.611974 29693 net.cpp:406] inception_4a/output <- inception_4a/5x5
I0511 18:26:45.611979 29693 net.cpp:406] inception_4a/output <- inception_4a/pool_proj
I0511 18:26:45.611989 29693 net.cpp:380] inception_4a/output -> inception_4a/output
I0511 18:26:45.612022 29693 net.cpp:122] Setting up inception_4a/output
I0511 18:26:45.612030 29693 net.cpp:129] Top shape: 32 512 14 14 (3211264)
I0511 18:26:45.612033 29693 net.cpp:137] Memory required for data: 1195393536
I0511 18:26:45.612038 29693 layer_factory.hpp:77] Creating layer inception_4a/output_inception_4a/output_0_split
I0511 18:26:45.612048 29693 net.cpp:84] Creating Layer inception_4a/output_inception_4a/output_0_split
I0511 18:26:45.612053 29693 net.cpp:406] inception_4a/output_inception_4a/output_0_split <- inception_4a/output
I0511 18:26:45.612063 29693 net.cpp:380] inception_4a/output_inception_4a/output_0_split -> inception_4a/output_inception_4a/output_0_split_0
I0511 18:26:45.612072 29693 net.cpp:380] inception_4a/output_inception_4a/output_0_split -> inception_4a/output_inception_4a/output_0_split_1
I0511 18:26:45.612080 29693 net.cpp:380] inception_4a/output_inception_4a/output_0_split -> inception_4a/output_inception_4a/output_0_split_2
I0511 18:26:45.612088 29693 net.cpp:380] inception_4a/output_inception_4a/output_0_split -> inception_4a/output_inception_4a/output_0_split_3
I0511 18:26:45.612097 29693 net.cpp:380] inception_4a/output_inception_4a/output_0_split -> inception_4a/output_inception_4a/output_0_split_4
I0511 18:26:45.612182 29693 net.cpp:122] Setting up inception_4a/output_inception_4a/output_0_split
I0511 18:26:45.612190 29693 net.cpp:129] Top shape: 32 512 14 14 (3211264)
I0511 18:26:45.612196 29693 net.cpp:129] Top shape: 32 512 14 14 (3211264)
I0511 18:26:45.612201 29693 net.cpp:129] Top shape: 32 512 14 14 (3211264)
I0511 18:26:45.612207 29693 net.cpp:129] Top shape: 32 512 14 14 (3211264)
I0511 18:26:45.612212 29693 net.cpp:129] Top shape: 32 512 14 14 (3211264)
I0511 18:26:45.612216 29693 net.cpp:137] Memory required for data: 1259618816
I0511 18:26:45.612221 29693 layer_factory.hpp:77] Creating layer loss1/ave_pool
I0511 18:26:45.612227 29693 net.cpp:84] Creating Layer loss1/ave_pool
I0511 18:26:45.612231 29693 net.cpp:406] loss1/ave_pool <- inception_4a/output_inception_4a/output_0_split_0
I0511 18:26:45.612255 29693 net.cpp:380] loss1/ave_pool -> loss1/ave_pool
I0511 18:26:45.612857 29693 net.cpp:122] Setting up loss1/ave_pool
I0511 18:26:45.612870 29693 net.cpp:129] Top shape: 32 512 4 4 (262144)
I0511 18:26:45.612874 29693 net.cpp:137] Memory required for data: 1260667392
I0511 18:26:45.612879 29693 layer_factory.hpp:77] Creating layer loss1/conv
I0511 18:26:45.612891 29693 net.cpp:84] Creating Layer loss1/conv
I0511 18:26:45.612896 29693 net.cpp:406] loss1/conv <- loss1/ave_pool
I0511 18:26:45.612905 29693 net.cpp:380] loss1/conv -> loss1/conv
I0511 18:26:45.618382 29693 net.cpp:122] Setting up loss1/conv
I0511 18:26:45.618397 29693 net.cpp:129] Top shape: 32 128 4 4 (65536)
I0511 18:26:45.618402 29693 net.cpp:137] Memory required for data: 1260929536
I0511 18:26:45.618410 29693 layer_factory.hpp:77] Creating layer loss1/relu_conv
I0511 18:26:45.618420 29693 net.cpp:84] Creating Layer loss1/relu_conv
I0511 18:26:45.618425 29693 net.cpp:406] loss1/relu_conv <- loss1/conv
I0511 18:26:45.618432 29693 net.cpp:367] loss1/relu_conv -> loss1/conv (in-place)
I0511 18:26:45.619230 29693 net.cpp:122] Setting up loss1/relu_conv
I0511 18:26:45.619241 29693 net.cpp:129] Top shape: 32 128 4 4 (65536)
I0511 18:26:45.619246 29693 net.cpp:137] Memory required for data: 1261191680
I0511 18:26:45.619251 29693 layer_factory.hpp:77] Creating layer loss1/fc
I0511 18:26:45.619262 29693 net.cpp:84] Creating Layer loss1/fc
I0511 18:26:45.619267 29693 net.cpp:406] loss1/fc <- loss1/conv
I0511 18:26:45.619274 29693 net.cpp:380] loss1/fc -> loss1/fc
I0511 18:26:45.641458 29693 net.cpp:122] Setting up loss1/fc
I0511 18:26:45.641481 29693 net.cpp:129] Top shape: 32 1024 (32768)
I0511 18:26:45.641485 29693 net.cpp:137] Memory required for data: 1261322752
I0511 18:26:45.641497 29693 layer_factory.hpp:77] Creating layer loss1/relu_fc
I0511 18:26:45.641508 29693 net.cpp:84] Creating Layer loss1/relu_fc
I0511 18:26:45.641515 29693 net.cpp:406] loss1/relu_fc <- loss1/fc
I0511 18:26:45.641525 29693 net.cpp:367] loss1/relu_fc -> loss1/fc (in-place)
I0511 18:26:45.642191 29693 net.cpp:122] Setting up loss1/relu_fc
I0511 18:26:45.642202 29693 net.cpp:129] Top shape: 32 1024 (32768)
I0511 18:26:45.642207 29693 net.cpp:137] Memory required for data: 1261453824
I0511 18:26:45.642211 29693 layer_factory.hpp:77] Creating layer loss1/drop_fc
I0511 18:26:45.642246 29693 net.cpp:84] Creating Layer loss1/drop_fc
I0511 18:26:45.642251 29693 net.cpp:406] loss1/drop_fc <- loss1/fc
I0511 18:26:45.642257 29693 net.cpp:367] loss1/drop_fc -> loss1/fc (in-place)
I0511 18:26:45.642295 29693 net.cpp:122] Setting up loss1/drop_fc
I0511 18:26:45.642302 29693 net.cpp:129] Top shape: 32 1024 (32768)
I0511 18:26:45.642307 29693 net.cpp:137] Memory required for data: 1261584896
I0511 18:26:45.642310 29693 layer_factory.hpp:77] Creating layer loss1/classifier
I0511 18:26:45.642320 29693 net.cpp:84] Creating Layer loss1/classifier
I0511 18:26:45.642324 29693 net.cpp:406] loss1/classifier <- loss1/fc
I0511 18:26:45.642334 29693 net.cpp:380] loss1/classifier -> loss1/classifier
I0511 18:26:45.645308 29693 net.cpp:122] Setting up loss1/classifier
I0511 18:26:45.645323 29693 net.cpp:129] Top shape: 32 196 (6272)
I0511 18:26:45.645326 29693 net.cpp:137] Memory required for data: 1261609984
I0511 18:26:45.645335 29693 layer_factory.hpp:77] Creating layer loss1/loss
I0511 18:26:45.645344 29693 net.cpp:84] Creating Layer loss1/loss
I0511 18:26:45.645349 29693 net.cpp:406] loss1/loss <- loss1/classifier
I0511 18:26:45.645354 29693 net.cpp:406] loss1/loss <- label_train-data_1_split_0
I0511 18:26:45.645361 29693 net.cpp:380] loss1/loss -> loss1/loss
I0511 18:26:45.645372 29693 layer_factory.hpp:77] Creating layer loss1/loss
I0511 18:26:45.646317 29693 net.cpp:122] Setting up loss1/loss
I0511 18:26:45.646328 29693 net.cpp:129] Top shape: (1)
I0511 18:26:45.646333 29693 net.cpp:132]     with loss weight 0.3
I0511 18:26:45.646355 29693 net.cpp:137] Memory required for data: 1261609988
I0511 18:26:45.646359 29693 layer_factory.hpp:77] Creating layer inception_4b/1x1
I0511 18:26:45.646399 29693 net.cpp:84] Creating Layer inception_4b/1x1
I0511 18:26:45.646405 29693 net.cpp:406] inception_4b/1x1 <- inception_4a/output_inception_4a/output_0_split_1
I0511 18:26:45.646415 29693 net.cpp:380] inception_4b/1x1 -> inception_4b/1x1
I0511 18:26:45.650331 29693 net.cpp:122] Setting up inception_4b/1x1
I0511 18:26:45.650344 29693 net.cpp:129] Top shape: 32 160 14 14 (1003520)
I0511 18:26:45.650348 29693 net.cpp:137] Memory required for data: 1265624068
I0511 18:26:45.650357 29693 layer_factory.hpp:77] Creating layer inception_4b/relu_1x1
I0511 18:26:45.650365 29693 net.cpp:84] Creating Layer inception_4b/relu_1x1
I0511 18:26:45.650370 29693 net.cpp:406] inception_4b/relu_1x1 <- inception_4b/1x1
I0511 18:26:45.650379 29693 net.cpp:367] inception_4b/relu_1x1 -> inception_4b/1x1 (in-place)
I0511 18:26:45.651190 29693 net.cpp:122] Setting up inception_4b/relu_1x1
I0511 18:26:45.651203 29693 net.cpp:129] Top shape: 32 160 14 14 (1003520)
I0511 18:26:45.651207 29693 net.cpp:137] Memory required for data: 1269638148
I0511 18:26:45.651211 29693 layer_factory.hpp:77] Creating layer inception_4b/3x3_reduce
I0511 18:26:45.651224 29693 net.cpp:84] Creating Layer inception_4b/3x3_reduce
I0511 18:26:45.651229 29693 net.cpp:406] inception_4b/3x3_reduce <- inception_4a/output_inception_4a/output_0_split_2
I0511 18:26:45.651242 29693 net.cpp:380] inception_4b/3x3_reduce -> inception_4b/3x3_reduce
I0511 18:26:45.656808 29693 net.cpp:122] Setting up inception_4b/3x3_reduce
I0511 18:26:45.656828 29693 net.cpp:129] Top shape: 32 112 14 14 (702464)
I0511 18:26:45.656833 29693 net.cpp:137] Memory required for data: 1272448004
I0511 18:26:45.656844 29693 layer_factory.hpp:77] Creating layer inception_4b/relu_3x3_reduce
I0511 18:26:45.656857 29693 net.cpp:84] Creating Layer inception_4b/relu_3x3_reduce
I0511 18:26:45.656862 29693 net.cpp:406] inception_4b/relu_3x3_reduce <- inception_4b/3x3_reduce
I0511 18:26:45.656870 29693 net.cpp:367] inception_4b/relu_3x3_reduce -> inception_4b/3x3_reduce (in-place)
I0511 18:26:45.657456 29693 net.cpp:122] Setting up inception_4b/relu_3x3_reduce
I0511 18:26:45.657469 29693 net.cpp:129] Top shape: 32 112 14 14 (702464)
I0511 18:26:45.657474 29693 net.cpp:137] Memory required for data: 1275257860
I0511 18:26:45.657478 29693 layer_factory.hpp:77] Creating layer inception_4b/3x3
I0511 18:26:45.657497 29693 net.cpp:84] Creating Layer inception_4b/3x3
I0511 18:26:45.657503 29693 net.cpp:406] inception_4b/3x3 <- inception_4b/3x3_reduce
I0511 18:26:45.657514 29693 net.cpp:380] inception_4b/3x3 -> inception_4b/3x3
I0511 18:26:45.662981 29693 net.cpp:122] Setting up inception_4b/3x3
I0511 18:26:45.662999 29693 net.cpp:129] Top shape: 32 224 14 14 (1404928)
I0511 18:26:45.663004 29693 net.cpp:137] Memory required for data: 1280877572
I0511 18:26:45.663015 29693 layer_factory.hpp:77] Creating layer inception_4b/relu_3x3
I0511 18:26:45.663025 29693 net.cpp:84] Creating Layer inception_4b/relu_3x3
I0511 18:26:45.663031 29693 net.cpp:406] inception_4b/relu_3x3 <- inception_4b/3x3
I0511 18:26:45.663040 29693 net.cpp:367] inception_4b/relu_3x3 -> inception_4b/3x3 (in-place)
I0511 18:26:45.663831 29693 net.cpp:122] Setting up inception_4b/relu_3x3
I0511 18:26:45.663843 29693 net.cpp:129] Top shape: 32 224 14 14 (1404928)
I0511 18:26:45.663848 29693 net.cpp:137] Memory required for data: 1286497284
I0511 18:26:45.663852 29693 layer_factory.hpp:77] Creating layer inception_4b/5x5_reduce
I0511 18:26:45.663870 29693 net.cpp:84] Creating Layer inception_4b/5x5_reduce
I0511 18:26:45.663877 29693 net.cpp:406] inception_4b/5x5_reduce <- inception_4a/output_inception_4a/output_0_split_3
I0511 18:26:45.663888 29693 net.cpp:380] inception_4b/5x5_reduce -> inception_4b/5x5_reduce
I0511 18:26:45.667181 29693 net.cpp:122] Setting up inception_4b/5x5_reduce
I0511 18:26:45.667193 29693 net.cpp:129] Top shape: 32 24 14 14 (150528)
I0511 18:26:45.667197 29693 net.cpp:137] Memory required for data: 1287099396
I0511 18:26:45.667207 29693 layer_factory.hpp:77] Creating layer inception_4b/relu_5x5_reduce
I0511 18:26:45.667241 29693 net.cpp:84] Creating Layer inception_4b/relu_5x5_reduce
I0511 18:26:45.667248 29693 net.cpp:406] inception_4b/relu_5x5_reduce <- inception_4b/5x5_reduce
I0511 18:26:45.667258 29693 net.cpp:367] inception_4b/relu_5x5_reduce -> inception_4b/5x5_reduce (in-place)
I0511 18:26:45.668104 29693 net.cpp:122] Setting up inception_4b/relu_5x5_reduce
I0511 18:26:45.668121 29693 net.cpp:129] Top shape: 32 24 14 14 (150528)
I0511 18:26:45.668128 29693 net.cpp:137] Memory required for data: 1287701508
I0511 18:26:45.668133 29693 layer_factory.hpp:77] Creating layer inception_4b/5x5
I0511 18:26:45.668148 29693 net.cpp:84] Creating Layer inception_4b/5x5
I0511 18:26:45.668154 29693 net.cpp:406] inception_4b/5x5 <- inception_4b/5x5_reduce
I0511 18:26:45.668166 29693 net.cpp:380] inception_4b/5x5 -> inception_4b/5x5
I0511 18:26:45.673596 29693 net.cpp:122] Setting up inception_4b/5x5
I0511 18:26:45.673612 29693 net.cpp:129] Top shape: 32 64 14 14 (401408)
I0511 18:26:45.673616 29693 net.cpp:137] Memory required for data: 1289307140
I0511 18:26:45.673625 29693 layer_factory.hpp:77] Creating layer inception_4b/relu_5x5
I0511 18:26:45.673633 29693 net.cpp:84] Creating Layer inception_4b/relu_5x5
I0511 18:26:45.673638 29693 net.cpp:406] inception_4b/relu_5x5 <- inception_4b/5x5
I0511 18:26:45.673646 29693 net.cpp:367] inception_4b/relu_5x5 -> inception_4b/5x5 (in-place)
I0511 18:26:45.674439 29693 net.cpp:122] Setting up inception_4b/relu_5x5
I0511 18:26:45.674451 29693 net.cpp:129] Top shape: 32 64 14 14 (401408)
I0511 18:26:45.674455 29693 net.cpp:137] Memory required for data: 1290912772
I0511 18:26:45.674460 29693 layer_factory.hpp:77] Creating layer inception_4b/pool
I0511 18:26:45.674471 29693 net.cpp:84] Creating Layer inception_4b/pool
I0511 18:26:45.674476 29693 net.cpp:406] inception_4b/pool <- inception_4a/output_inception_4a/output_0_split_4
I0511 18:26:45.674484 29693 net.cpp:380] inception_4b/pool -> inception_4b/pool
I0511 18:26:45.674556 29693 net.cpp:122] Setting up inception_4b/pool
I0511 18:26:45.674564 29693 net.cpp:129] Top shape: 32 512 14 14 (3211264)
I0511 18:26:45.674567 29693 net.cpp:137] Memory required for data: 1303757828
I0511 18:26:45.674572 29693 layer_factory.hpp:77] Creating layer inception_4b/pool_proj
I0511 18:26:45.674584 29693 net.cpp:84] Creating Layer inception_4b/pool_proj
I0511 18:26:45.674589 29693 net.cpp:406] inception_4b/pool_proj <- inception_4b/pool
I0511 18:26:45.674597 29693 net.cpp:380] inception_4b/pool_proj -> inception_4b/pool_proj
I0511 18:26:45.677747 29693 net.cpp:122] Setting up inception_4b/pool_proj
I0511 18:26:45.677760 29693 net.cpp:129] Top shape: 32 64 14 14 (401408)
I0511 18:26:45.677764 29693 net.cpp:137] Memory required for data: 1305363460
I0511 18:26:45.677773 29693 layer_factory.hpp:77] Creating layer inception_4b/relu_pool_proj
I0511 18:26:45.677780 29693 net.cpp:84] Creating Layer inception_4b/relu_pool_proj
I0511 18:26:45.677786 29693 net.cpp:406] inception_4b/relu_pool_proj <- inception_4b/pool_proj
I0511 18:26:45.677795 29693 net.cpp:367] inception_4b/relu_pool_proj -> inception_4b/pool_proj (in-place)
I0511 18:26:45.678584 29693 net.cpp:122] Setting up inception_4b/relu_pool_proj
I0511 18:26:45.678598 29693 net.cpp:129] Top shape: 32 64 14 14 (401408)
I0511 18:26:45.678602 29693 net.cpp:137] Memory required for data: 1306969092
I0511 18:26:45.678607 29693 layer_factory.hpp:77] Creating layer inception_4b/output
I0511 18:26:45.678617 29693 net.cpp:84] Creating Layer inception_4b/output
I0511 18:26:45.678620 29693 net.cpp:406] inception_4b/output <- inception_4b/1x1
I0511 18:26:45.678627 29693 net.cpp:406] inception_4b/output <- inception_4b/3x3
I0511 18:26:45.678632 29693 net.cpp:406] inception_4b/output <- inception_4b/5x5
I0511 18:26:45.678637 29693 net.cpp:406] inception_4b/output <- inception_4b/pool_proj
I0511 18:26:45.678648 29693 net.cpp:380] inception_4b/output -> inception_4b/output
I0511 18:26:45.678684 29693 net.cpp:122] Setting up inception_4b/output
I0511 18:26:45.678691 29693 net.cpp:129] Top shape: 32 512 14 14 (3211264)
I0511 18:26:45.678715 29693 net.cpp:137] Memory required for data: 1319814148
I0511 18:26:45.678719 29693 layer_factory.hpp:77] Creating layer inception_4b/output_inception_4b/output_0_split
I0511 18:26:45.678727 29693 net.cpp:84] Creating Layer inception_4b/output_inception_4b/output_0_split
I0511 18:26:45.678732 29693 net.cpp:406] inception_4b/output_inception_4b/output_0_split <- inception_4b/output
I0511 18:26:45.678741 29693 net.cpp:380] inception_4b/output_inception_4b/output_0_split -> inception_4b/output_inception_4b/output_0_split_0
I0511 18:26:45.678750 29693 net.cpp:380] inception_4b/output_inception_4b/output_0_split -> inception_4b/output_inception_4b/output_0_split_1
I0511 18:26:45.678758 29693 net.cpp:380] inception_4b/output_inception_4b/output_0_split -> inception_4b/output_inception_4b/output_0_split_2
I0511 18:26:45.678766 29693 net.cpp:380] inception_4b/output_inception_4b/output_0_split -> inception_4b/output_inception_4b/output_0_split_3
I0511 18:26:45.678833 29693 net.cpp:122] Setting up inception_4b/output_inception_4b/output_0_split
I0511 18:26:45.678839 29693 net.cpp:129] Top shape: 32 512 14 14 (3211264)
I0511 18:26:45.678845 29693 net.cpp:129] Top shape: 32 512 14 14 (3211264)
I0511 18:26:45.678850 29693 net.cpp:129] Top shape: 32 512 14 14 (3211264)
I0511 18:26:45.678855 29693 net.cpp:129] Top shape: 32 512 14 14 (3211264)
I0511 18:26:45.678859 29693 net.cpp:137] Memory required for data: 1371194372
I0511 18:26:45.678864 29693 layer_factory.hpp:77] Creating layer inception_4c/1x1
I0511 18:26:45.678875 29693 net.cpp:84] Creating Layer inception_4c/1x1
I0511 18:26:45.678880 29693 net.cpp:406] inception_4c/1x1 <- inception_4b/output_inception_4b/output_0_split_0
I0511 18:26:45.678889 29693 net.cpp:380] inception_4c/1x1 -> inception_4c/1x1
I0511 18:26:45.685782 29693 net.cpp:122] Setting up inception_4c/1x1
I0511 18:26:45.685801 29693 net.cpp:129] Top shape: 32 128 14 14 (802816)
I0511 18:26:45.685806 29693 net.cpp:137] Memory required for data: 1374405636
I0511 18:26:45.685815 29693 layer_factory.hpp:77] Creating layer inception_4c/relu_1x1
I0511 18:26:45.685827 29693 net.cpp:84] Creating Layer inception_4c/relu_1x1
I0511 18:26:45.685832 29693 net.cpp:406] inception_4c/relu_1x1 <- inception_4c/1x1
I0511 18:26:45.685839 29693 net.cpp:367] inception_4c/relu_1x1 -> inception_4c/1x1 (in-place)
I0511 18:26:45.686410 29693 net.cpp:122] Setting up inception_4c/relu_1x1
I0511 18:26:45.686422 29693 net.cpp:129] Top shape: 32 128 14 14 (802816)
I0511 18:26:45.686426 29693 net.cpp:137] Memory required for data: 1377616900
I0511 18:26:45.686431 29693 layer_factory.hpp:77] Creating layer inception_4c/3x3_reduce
I0511 18:26:45.686448 29693 net.cpp:84] Creating Layer inception_4c/3x3_reduce
I0511 18:26:45.686455 29693 net.cpp:406] inception_4c/3x3_reduce <- inception_4b/output_inception_4b/output_0_split_1
I0511 18:26:45.686463 29693 net.cpp:380] inception_4c/3x3_reduce -> inception_4c/3x3_reduce
I0511 18:26:45.690241 29693 net.cpp:122] Setting up inception_4c/3x3_reduce
I0511 18:26:45.690255 29693 net.cpp:129] Top shape: 32 128 14 14 (802816)
I0511 18:26:45.690260 29693 net.cpp:137] Memory required for data: 1380828164
I0511 18:26:45.690269 29693 layer_factory.hpp:77] Creating layer inception_4c/relu_3x3_reduce
I0511 18:26:45.690279 29693 net.cpp:84] Creating Layer inception_4c/relu_3x3_reduce
I0511 18:26:45.690284 29693 net.cpp:406] inception_4c/relu_3x3_reduce <- inception_4c/3x3_reduce
I0511 18:26:45.690291 29693 net.cpp:367] inception_4c/relu_3x3_reduce -> inception_4c/3x3_reduce (in-place)
I0511 18:26:45.691100 29693 net.cpp:122] Setting up inception_4c/relu_3x3_reduce
I0511 18:26:45.691113 29693 net.cpp:129] Top shape: 32 128 14 14 (802816)
I0511 18:26:45.691118 29693 net.cpp:137] Memory required for data: 1384039428
I0511 18:26:45.691123 29693 layer_factory.hpp:77] Creating layer inception_4c/3x3
I0511 18:26:45.691135 29693 net.cpp:84] Creating Layer inception_4c/3x3
I0511 18:26:45.691140 29693 net.cpp:406] inception_4c/3x3 <- inception_4c/3x3_reduce
I0511 18:26:45.691150 29693 net.cpp:380] inception_4c/3x3 -> inception_4c/3x3
I0511 18:26:45.697336 29693 net.cpp:122] Setting up inception_4c/3x3
I0511 18:26:45.697365 29693 net.cpp:129] Top shape: 32 256 14 14 (1605632)
I0511 18:26:45.697368 29693 net.cpp:137] Memory required for data: 1390461956
I0511 18:26:45.697403 29693 layer_factory.hpp:77] Creating layer inception_4c/relu_3x3
I0511 18:26:45.697419 29693 net.cpp:84] Creating Layer inception_4c/relu_3x3
I0511 18:26:45.697427 29693 net.cpp:406] inception_4c/relu_3x3 <- inception_4c/3x3
I0511 18:26:45.697435 29693 net.cpp:367] inception_4c/relu_3x3 -> inception_4c/3x3 (in-place)
I0511 18:26:45.698388 29693 net.cpp:122] Setting up inception_4c/relu_3x3
I0511 18:26:45.698401 29693 net.cpp:129] Top shape: 32 256 14 14 (1605632)
I0511 18:26:45.698405 29693 net.cpp:137] Memory required for data: 1396884484
I0511 18:26:45.698410 29693 layer_factory.hpp:77] Creating layer inception_4c/5x5_reduce
I0511 18:26:45.698431 29693 net.cpp:84] Creating Layer inception_4c/5x5_reduce
I0511 18:26:45.698437 29693 net.cpp:406] inception_4c/5x5_reduce <- inception_4b/output_inception_4b/output_0_split_2
I0511 18:26:45.698447 29693 net.cpp:380] inception_4c/5x5_reduce -> inception_4c/5x5_reduce
I0511 18:26:45.703604 29693 net.cpp:122] Setting up inception_4c/5x5_reduce
I0511 18:26:45.703629 29693 net.cpp:129] Top shape: 32 24 14 14 (150528)
I0511 18:26:45.703634 29693 net.cpp:137] Memory required for data: 1397486596
I0511 18:26:45.703647 29693 layer_factory.hpp:77] Creating layer inception_4c/relu_5x5_reduce
I0511 18:26:45.703663 29693 net.cpp:84] Creating Layer inception_4c/relu_5x5_reduce
I0511 18:26:45.703670 29693 net.cpp:406] inception_4c/relu_5x5_reduce <- inception_4c/5x5_reduce
I0511 18:26:45.703678 29693 net.cpp:367] inception_4c/relu_5x5_reduce -> inception_4c/5x5_reduce (in-place)
I0511 18:26:45.704768 29693 net.cpp:122] Setting up inception_4c/relu_5x5_reduce
I0511 18:26:45.704782 29693 net.cpp:129] Top shape: 32 24 14 14 (150528)
I0511 18:26:45.704787 29693 net.cpp:137] Memory required for data: 1398088708
I0511 18:26:45.704792 29693 layer_factory.hpp:77] Creating layer inception_4c/5x5
I0511 18:26:45.704809 29693 net.cpp:84] Creating Layer inception_4c/5x5
I0511 18:26:45.704814 29693 net.cpp:406] inception_4c/5x5 <- inception_4c/5x5_reduce
I0511 18:26:45.704825 29693 net.cpp:380] inception_4c/5x5 -> inception_4c/5x5
I0511 18:26:45.708212 29693 net.cpp:122] Setting up inception_4c/5x5
I0511 18:26:45.708238 29693 net.cpp:129] Top shape: 32 64 14 14 (401408)
I0511 18:26:45.708243 29693 net.cpp:137] Memory required for data: 1399694340
I0511 18:26:45.708256 29693 layer_factory.hpp:77] Creating layer inception_4c/relu_5x5
I0511 18:26:45.708267 29693 net.cpp:84] Creating Layer inception_4c/relu_5x5
I0511 18:26:45.708273 29693 net.cpp:406] inception_4c/relu_5x5 <- inception_4c/5x5
I0511 18:26:45.708282 29693 net.cpp:367] inception_4c/relu_5x5 -> inception_4c/5x5 (in-place)
I0511 18:26:45.709128 29693 net.cpp:122] Setting up inception_4c/relu_5x5
I0511 18:26:45.709142 29693 net.cpp:129] Top shape: 32 64 14 14 (401408)
I0511 18:26:45.709149 29693 net.cpp:137] Memory required for data: 1401299972
I0511 18:26:45.709154 29693 layer_factory.hpp:77] Creating layer inception_4c/pool
I0511 18:26:45.709163 29693 net.cpp:84] Creating Layer inception_4c/pool
I0511 18:26:45.709168 29693 net.cpp:406] inception_4c/pool <- inception_4b/output_inception_4b/output_0_split_3
I0511 18:26:45.709177 29693 net.cpp:380] inception_4c/pool -> inception_4c/pool
I0511 18:26:45.709234 29693 net.cpp:122] Setting up inception_4c/pool
I0511 18:26:45.709242 29693 net.cpp:129] Top shape: 32 512 14 14 (3211264)
I0511 18:26:45.709246 29693 net.cpp:137] Memory required for data: 1414145028
I0511 18:26:45.709250 29693 layer_factory.hpp:77] Creating layer inception_4c/pool_proj
I0511 18:26:45.709265 29693 net.cpp:84] Creating Layer inception_4c/pool_proj
I0511 18:26:45.709270 29693 net.cpp:406] inception_4c/pool_proj <- inception_4c/pool
I0511 18:26:45.709280 29693 net.cpp:380] inception_4c/pool_proj -> inception_4c/pool_proj
I0511 18:26:45.714707 29693 net.cpp:122] Setting up inception_4c/pool_proj
I0511 18:26:45.714764 29693 net.cpp:129] Top shape: 32 64 14 14 (401408)
I0511 18:26:45.714769 29693 net.cpp:137] Memory required for data: 1415750660
I0511 18:26:45.714782 29693 layer_factory.hpp:77] Creating layer inception_4c/relu_pool_proj
I0511 18:26:45.714795 29693 net.cpp:84] Creating Layer inception_4c/relu_pool_proj
I0511 18:26:45.714802 29693 net.cpp:406] inception_4c/relu_pool_proj <- inception_4c/pool_proj
I0511 18:26:45.714814 29693 net.cpp:367] inception_4c/relu_pool_proj -> inception_4c/pool_proj (in-place)
I0511 18:26:45.715409 29693 net.cpp:122] Setting up inception_4c/relu_pool_proj
I0511 18:26:45.715421 29693 net.cpp:129] Top shape: 32 64 14 14 (401408)
I0511 18:26:45.715425 29693 net.cpp:137] Memory required for data: 1417356292
I0511 18:26:45.715430 29693 layer_factory.hpp:77] Creating layer inception_4c/output
I0511 18:26:45.715440 29693 net.cpp:84] Creating Layer inception_4c/output
I0511 18:26:45.715445 29693 net.cpp:406] inception_4c/output <- inception_4c/1x1
I0511 18:26:45.715452 29693 net.cpp:406] inception_4c/output <- inception_4c/3x3
I0511 18:26:45.715457 29693 net.cpp:406] inception_4c/output <- inception_4c/5x5
I0511 18:26:45.715462 29693 net.cpp:406] inception_4c/output <- inception_4c/pool_proj
I0511 18:26:45.715469 29693 net.cpp:380] inception_4c/output -> inception_4c/output
I0511 18:26:45.715508 29693 net.cpp:122] Setting up inception_4c/output
I0511 18:26:45.715517 29693 net.cpp:129] Top shape: 32 512 14 14 (3211264)
I0511 18:26:45.715520 29693 net.cpp:137] Memory required for data: 1430201348
I0511 18:26:45.715524 29693 layer_factory.hpp:77] Creating layer inception_4c/output_inception_4c/output_0_split
I0511 18:26:45.715533 29693 net.cpp:84] Creating Layer inception_4c/output_inception_4c/output_0_split
I0511 18:26:45.715538 29693 net.cpp:406] inception_4c/output_inception_4c/output_0_split <- inception_4c/output
I0511 18:26:45.715546 29693 net.cpp:380] inception_4c/output_inception_4c/output_0_split -> inception_4c/output_inception_4c/output_0_split_0
I0511 18:26:45.715555 29693 net.cpp:380] inception_4c/output_inception_4c/output_0_split -> inception_4c/output_inception_4c/output_0_split_1
I0511 18:26:45.715565 29693 net.cpp:380] inception_4c/output_inception_4c/output_0_split -> inception_4c/output_inception_4c/output_0_split_2
I0511 18:26:45.715574 29693 net.cpp:380] inception_4c/output_inception_4c/output_0_split -> inception_4c/output_inception_4c/output_0_split_3
I0511 18:26:45.715646 29693 net.cpp:122] Setting up inception_4c/output_inception_4c/output_0_split
I0511 18:26:45.715653 29693 net.cpp:129] Top shape: 32 512 14 14 (3211264)
I0511 18:26:45.715659 29693 net.cpp:129] Top shape: 32 512 14 14 (3211264)
I0511 18:26:45.715664 29693 net.cpp:129] Top shape: 32 512 14 14 (3211264)
I0511 18:26:45.715669 29693 net.cpp:129] Top shape: 32 512 14 14 (3211264)
I0511 18:26:45.715673 29693 net.cpp:137] Memory required for data: 1481581572
I0511 18:26:45.715677 29693 layer_factory.hpp:77] Creating layer inception_4d/1x1
I0511 18:26:45.715694 29693 net.cpp:84] Creating Layer inception_4d/1x1
I0511 18:26:45.715699 29693 net.cpp:406] inception_4d/1x1 <- inception_4c/output_inception_4c/output_0_split_0
I0511 18:26:45.715708 29693 net.cpp:380] inception_4d/1x1 -> inception_4d/1x1
I0511 18:26:45.721150 29693 net.cpp:122] Setting up inception_4d/1x1
I0511 18:26:45.721176 29693 net.cpp:129] Top shape: 32 112 14 14 (702464)
I0511 18:26:45.721180 29693 net.cpp:137] Memory required for data: 1484391428
I0511 18:26:45.721194 29693 layer_factory.hpp:77] Creating layer inception_4d/relu_1x1
I0511 18:26:45.721205 29693 net.cpp:84] Creating Layer inception_4d/relu_1x1
I0511 18:26:45.721213 29693 net.cpp:406] inception_4d/relu_1x1 <- inception_4d/1x1
I0511 18:26:45.721226 29693 net.cpp:367] inception_4d/relu_1x1 -> inception_4d/1x1 (in-place)
I0511 18:26:45.722059 29693 net.cpp:122] Setting up inception_4d/relu_1x1
I0511 18:26:45.722072 29693 net.cpp:129] Top shape: 32 112 14 14 (702464)
I0511 18:26:45.722076 29693 net.cpp:137] Memory required for data: 1487201284
I0511 18:26:45.722112 29693 layer_factory.hpp:77] Creating layer inception_4d/3x3_reduce
I0511 18:26:45.722129 29693 net.cpp:84] Creating Layer inception_4d/3x3_reduce
I0511 18:26:45.722136 29693 net.cpp:406] inception_4d/3x3_reduce <- inception_4c/output_inception_4c/output_0_split_1
I0511 18:26:45.722146 29693 net.cpp:380] inception_4d/3x3_reduce -> inception_4d/3x3_reduce
I0511 18:26:45.726394 29693 net.cpp:122] Setting up inception_4d/3x3_reduce
I0511 18:26:45.726418 29693 net.cpp:129] Top shape: 32 144 14 14 (903168)
I0511 18:26:45.726423 29693 net.cpp:137] Memory required for data: 1490813956
I0511 18:26:45.726434 29693 layer_factory.hpp:77] Creating layer inception_4d/relu_3x3_reduce
I0511 18:26:45.726447 29693 net.cpp:84] Creating Layer inception_4d/relu_3x3_reduce
I0511 18:26:45.726454 29693 net.cpp:406] inception_4d/relu_3x3_reduce <- inception_4d/3x3_reduce
I0511 18:26:45.726462 29693 net.cpp:367] inception_4d/relu_3x3_reduce -> inception_4d/3x3_reduce (in-place)
I0511 18:26:45.727301 29693 net.cpp:122] Setting up inception_4d/relu_3x3_reduce
I0511 18:26:45.727315 29693 net.cpp:129] Top shape: 32 144 14 14 (903168)
I0511 18:26:45.727319 29693 net.cpp:137] Memory required for data: 1494426628
I0511 18:26:45.727324 29693 layer_factory.hpp:77] Creating layer inception_4d/3x3
I0511 18:26:45.727340 29693 net.cpp:84] Creating Layer inception_4d/3x3
I0511 18:26:45.727346 29693 net.cpp:406] inception_4d/3x3 <- inception_4d/3x3_reduce
I0511 18:26:45.727356 29693 net.cpp:380] inception_4d/3x3 -> inception_4d/3x3
I0511 18:26:45.736079 29693 net.cpp:122] Setting up inception_4d/3x3
I0511 18:26:45.736105 29693 net.cpp:129] Top shape: 32 288 14 14 (1806336)
I0511 18:26:45.736110 29693 net.cpp:137] Memory required for data: 1501651972
I0511 18:26:45.736122 29693 layer_factory.hpp:77] Creating layer inception_4d/relu_3x3
I0511 18:26:45.736135 29693 net.cpp:84] Creating Layer inception_4d/relu_3x3
I0511 18:26:45.736142 29693 net.cpp:406] inception_4d/relu_3x3 <- inception_4d/3x3
I0511 18:26:45.736153 29693 net.cpp:367] inception_4d/relu_3x3 -> inception_4d/3x3 (in-place)
I0511 18:26:45.737130 29693 net.cpp:122] Setting up inception_4d/relu_3x3
I0511 18:26:45.737143 29693 net.cpp:129] Top shape: 32 288 14 14 (1806336)
I0511 18:26:45.737149 29693 net.cpp:137] Memory required for data: 1508877316
I0511 18:26:45.737152 29693 layer_factory.hpp:77] Creating layer inception_4d/5x5_reduce
I0511 18:26:45.737169 29693 net.cpp:84] Creating Layer inception_4d/5x5_reduce
I0511 18:26:45.737175 29693 net.cpp:406] inception_4d/5x5_reduce <- inception_4c/output_inception_4c/output_0_split_2
I0511 18:26:45.737186 29693 net.cpp:380] inception_4d/5x5_reduce -> inception_4d/5x5_reduce
I0511 18:26:45.741449 29693 net.cpp:122] Setting up inception_4d/5x5_reduce
I0511 18:26:45.741474 29693 net.cpp:129] Top shape: 32 32 14 14 (200704)
I0511 18:26:45.741480 29693 net.cpp:137] Memory required for data: 1509680132
I0511 18:26:45.741497 29693 layer_factory.hpp:77] Creating layer inception_4d/relu_5x5_reduce
I0511 18:26:45.741511 29693 net.cpp:84] Creating Layer inception_4d/relu_5x5_reduce
I0511 18:26:45.741520 29693 net.cpp:406] inception_4d/relu_5x5_reduce <- inception_4d/5x5_reduce
I0511 18:26:45.741530 29693 net.cpp:367] inception_4d/relu_5x5_reduce -> inception_4d/5x5_reduce (in-place)
I0511 18:26:45.742631 29693 net.cpp:122] Setting up inception_4d/relu_5x5_reduce
I0511 18:26:45.742645 29693 net.cpp:129] Top shape: 32 32 14 14 (200704)
I0511 18:26:45.742650 29693 net.cpp:137] Memory required for data: 1510482948
I0511 18:26:45.742653 29693 layer_factory.hpp:77] Creating layer inception_4d/5x5
I0511 18:26:45.742674 29693 net.cpp:84] Creating Layer inception_4d/5x5
I0511 18:26:45.742679 29693 net.cpp:406] inception_4d/5x5 <- inception_4d/5x5_reduce
I0511 18:26:45.742688 29693 net.cpp:380] inception_4d/5x5 -> inception_4d/5x5
I0511 18:26:45.748884 29693 net.cpp:122] Setting up inception_4d/5x5
I0511 18:26:45.748910 29693 net.cpp:129] Top shape: 32 64 14 14 (401408)
I0511 18:26:45.748914 29693 net.cpp:137] Memory required for data: 1512088580
I0511 18:26:45.748955 29693 layer_factory.hpp:77] Creating layer inception_4d/relu_5x5
I0511 18:26:45.748968 29693 net.cpp:84] Creating Layer inception_4d/relu_5x5
I0511 18:26:45.748975 29693 net.cpp:406] inception_4d/relu_5x5 <- inception_4d/5x5
I0511 18:26:45.748983 29693 net.cpp:367] inception_4d/relu_5x5 -> inception_4d/5x5 (in-place)
I0511 18:26:45.752152 29693 net.cpp:122] Setting up inception_4d/relu_5x5
I0511 18:26:45.752169 29693 net.cpp:129] Top shape: 32 64 14 14 (401408)
I0511 18:26:45.752173 29693 net.cpp:137] Memory required for data: 1513694212
I0511 18:26:45.752179 29693 layer_factory.hpp:77] Creating layer inception_4d/pool
I0511 18:26:45.752189 29693 net.cpp:84] Creating Layer inception_4d/pool
I0511 18:26:45.752194 29693 net.cpp:406] inception_4d/pool <- inception_4c/output_inception_4c/output_0_split_3
I0511 18:26:45.752205 29693 net.cpp:380] inception_4d/pool -> inception_4d/pool
I0511 18:26:45.752264 29693 net.cpp:122] Setting up inception_4d/pool
I0511 18:26:45.752272 29693 net.cpp:129] Top shape: 32 512 14 14 (3211264)
I0511 18:26:45.752276 29693 net.cpp:137] Memory required for data: 1526539268
I0511 18:26:45.752280 29693 layer_factory.hpp:77] Creating layer inception_4d/pool_proj
I0511 18:26:45.752298 29693 net.cpp:84] Creating Layer inception_4d/pool_proj
I0511 18:26:45.752303 29693 net.cpp:406] inception_4d/pool_proj <- inception_4d/pool
I0511 18:26:45.752311 29693 net.cpp:380] inception_4d/pool_proj -> inception_4d/pool_proj
I0511 18:26:45.755828 29693 net.cpp:122] Setting up inception_4d/pool_proj
I0511 18:26:45.755844 29693 net.cpp:129] Top shape: 32 64 14 14 (401408)
I0511 18:26:45.755849 29693 net.cpp:137] Memory required for data: 1528144900
I0511 18:26:45.755858 29693 layer_factory.hpp:77] Creating layer inception_4d/relu_pool_proj
I0511 18:26:45.755867 29693 net.cpp:84] Creating Layer inception_4d/relu_pool_proj
I0511 18:26:45.755872 29693 net.cpp:406] inception_4d/relu_pool_proj <- inception_4d/pool_proj
I0511 18:26:45.755879 29693 net.cpp:367] inception_4d/relu_pool_proj -> inception_4d/pool_proj (in-place)
I0511 18:26:45.756450 29693 net.cpp:122] Setting up inception_4d/relu_pool_proj
I0511 18:26:45.756464 29693 net.cpp:129] Top shape: 32 64 14 14 (401408)
I0511 18:26:45.756469 29693 net.cpp:137] Memory required for data: 1529750532
I0511 18:26:45.756474 29693 layer_factory.hpp:77] Creating layer inception_4d/output
I0511 18:26:45.756484 29693 net.cpp:84] Creating Layer inception_4d/output
I0511 18:26:45.756489 29693 net.cpp:406] inception_4d/output <- inception_4d/1x1
I0511 18:26:45.756503 29693 net.cpp:406] inception_4d/output <- inception_4d/3x3
I0511 18:26:45.756510 29693 net.cpp:406] inception_4d/output <- inception_4d/5x5
I0511 18:26:45.756515 29693 net.cpp:406] inception_4d/output <- inception_4d/pool_proj
I0511 18:26:45.756525 29693 net.cpp:380] inception_4d/output -> inception_4d/output
I0511 18:26:45.756559 29693 net.cpp:122] Setting up inception_4d/output
I0511 18:26:45.756567 29693 net.cpp:129] Top shape: 32 528 14 14 (3311616)
I0511 18:26:45.756572 29693 net.cpp:137] Memory required for data: 1542996996
I0511 18:26:45.756575 29693 layer_factory.hpp:77] Creating layer inception_4d/output_inception_4d/output_0_split
I0511 18:26:45.756587 29693 net.cpp:84] Creating Layer inception_4d/output_inception_4d/output_0_split
I0511 18:26:45.756592 29693 net.cpp:406] inception_4d/output_inception_4d/output_0_split <- inception_4d/output
I0511 18:26:45.756599 29693 net.cpp:380] inception_4d/output_inception_4d/output_0_split -> inception_4d/output_inception_4d/output_0_split_0
I0511 18:26:45.756609 29693 net.cpp:380] inception_4d/output_inception_4d/output_0_split -> inception_4d/output_inception_4d/output_0_split_1
I0511 18:26:45.756618 29693 net.cpp:380] inception_4d/output_inception_4d/output_0_split -> inception_4d/output_inception_4d/output_0_split_2
I0511 18:26:45.756625 29693 net.cpp:380] inception_4d/output_inception_4d/output_0_split -> inception_4d/output_inception_4d/output_0_split_3
I0511 18:26:45.756636 29693 net.cpp:380] inception_4d/output_inception_4d/output_0_split -> inception_4d/output_inception_4d/output_0_split_4
I0511 18:26:45.756744 29693 net.cpp:122] Setting up inception_4d/output_inception_4d/output_0_split
I0511 18:26:45.756752 29693 net.cpp:129] Top shape: 32 528 14 14 (3311616)
I0511 18:26:45.756757 29693 net.cpp:129] Top shape: 32 528 14 14 (3311616)
I0511 18:26:45.756763 29693 net.cpp:129] Top shape: 32 528 14 14 (3311616)
I0511 18:26:45.756768 29693 net.cpp:129] Top shape: 32 528 14 14 (3311616)
I0511 18:26:45.756774 29693 net.cpp:129] Top shape: 32 528 14 14 (3311616)
I0511 18:26:45.756778 29693 net.cpp:137] Memory required for data: 1609229316
I0511 18:26:45.756783 29693 layer_factory.hpp:77] Creating layer loss2/ave_pool
I0511 18:26:45.756789 29693 net.cpp:84] Creating Layer loss2/ave_pool
I0511 18:26:45.756793 29693 net.cpp:406] loss2/ave_pool <- inception_4d/output_inception_4d/output_0_split_0
I0511 18:26:45.756803 29693 net.cpp:380] loss2/ave_pool -> loss2/ave_pool
I0511 18:26:45.757617 29693 net.cpp:122] Setting up loss2/ave_pool
I0511 18:26:45.757630 29693 net.cpp:129] Top shape: 32 528 4 4 (270336)
I0511 18:26:45.757634 29693 net.cpp:137] Memory required for data: 1610310660
I0511 18:26:45.757639 29693 layer_factory.hpp:77] Creating layer loss2/conv
I0511 18:26:45.757653 29693 net.cpp:84] Creating Layer loss2/conv
I0511 18:26:45.757659 29693 net.cpp:406] loss2/conv <- loss2/ave_pool
I0511 18:26:45.757668 29693 net.cpp:380] loss2/conv -> loss2/conv
I0511 18:26:45.761662 29693 net.cpp:122] Setting up loss2/conv
I0511 18:26:45.761678 29693 net.cpp:129] Top shape: 32 128 4 4 (65536)
I0511 18:26:45.761682 29693 net.cpp:137] Memory required for data: 1610572804
I0511 18:26:45.761692 29693 layer_factory.hpp:77] Creating layer loss2/relu_conv
I0511 18:26:45.761699 29693 net.cpp:84] Creating Layer loss2/relu_conv
I0511 18:26:45.761705 29693 net.cpp:406] loss2/relu_conv <- loss2/conv
I0511 18:26:45.761711 29693 net.cpp:367] loss2/relu_conv -> loss2/conv (in-place)
I0511 18:26:45.762307 29693 net.cpp:122] Setting up loss2/relu_conv
I0511 18:26:45.762322 29693 net.cpp:129] Top shape: 32 128 4 4 (65536)
I0511 18:26:45.762327 29693 net.cpp:137] Memory required for data: 1610834948
I0511 18:26:45.762331 29693 layer_factory.hpp:77] Creating layer loss2/fc
I0511 18:26:45.762343 29693 net.cpp:84] Creating Layer loss2/fc
I0511 18:26:45.762348 29693 net.cpp:406] loss2/fc <- loss2/conv
I0511 18:26:45.762359 29693 net.cpp:380] loss2/fc -> loss2/fc
I0511 18:26:45.784909 29693 net.cpp:122] Setting up loss2/fc
I0511 18:26:45.784936 29693 net.cpp:129] Top shape: 32 1024 (32768)
I0511 18:26:45.784940 29693 net.cpp:137] Memory required for data: 1610966020
I0511 18:26:45.784955 29693 layer_factory.hpp:77] Creating layer loss2/relu_fc
I0511 18:26:45.784966 29693 net.cpp:84] Creating Layer loss2/relu_fc
I0511 18:26:45.784973 29693 net.cpp:406] loss2/relu_fc <- loss2/fc
I0511 18:26:45.784984 29693 net.cpp:367] loss2/relu_fc -> loss2/fc (in-place)
I0511 18:26:45.787909 29693 net.cpp:122] Setting up loss2/relu_fc
I0511 18:26:45.787935 29693 net.cpp:129] Top shape: 32 1024 (32768)
I0511 18:26:45.787940 29693 net.cpp:137] Memory required for data: 1611097092
I0511 18:26:45.787946 29693 layer_factory.hpp:77] Creating layer loss2/drop_fc
I0511 18:26:45.787958 29693 net.cpp:84] Creating Layer loss2/drop_fc
I0511 18:26:45.787964 29693 net.cpp:406] loss2/drop_fc <- loss2/fc
I0511 18:26:45.787973 29693 net.cpp:367] loss2/drop_fc -> loss2/fc (in-place)
I0511 18:26:45.788019 29693 net.cpp:122] Setting up loss2/drop_fc
I0511 18:26:45.788026 29693 net.cpp:129] Top shape: 32 1024 (32768)
I0511 18:26:45.788030 29693 net.cpp:137] Memory required for data: 1611228164
I0511 18:26:45.788034 29693 layer_factory.hpp:77] Creating layer loss2/classifier
I0511 18:26:45.788046 29693 net.cpp:84] Creating Layer loss2/classifier
I0511 18:26:45.788050 29693 net.cpp:406] loss2/classifier <- loss2/fc
I0511 18:26:45.788058 29693 net.cpp:380] loss2/classifier -> loss2/classifier
I0511 18:26:45.790038 29693 net.cpp:122] Setting up loss2/classifier
I0511 18:26:45.790050 29693 net.cpp:129] Top shape: 32 196 (6272)
I0511 18:26:45.790078 29693 net.cpp:137] Memory required for data: 1611253252
I0511 18:26:45.790088 29693 layer_factory.hpp:77] Creating layer loss2/loss
I0511 18:26:45.790096 29693 net.cpp:84] Creating Layer loss2/loss
I0511 18:26:45.790102 29693 net.cpp:406] loss2/loss <- loss2/classifier
I0511 18:26:45.790108 29693 net.cpp:406] loss2/loss <- label_train-data_1_split_1
I0511 18:26:45.790115 29693 net.cpp:380] loss2/loss -> loss2/loss
I0511 18:26:45.790127 29693 layer_factory.hpp:77] Creating layer loss2/loss
I0511 18:26:45.791111 29693 net.cpp:122] Setting up loss2/loss
I0511 18:26:45.791124 29693 net.cpp:129] Top shape: (1)
I0511 18:26:45.791128 29693 net.cpp:132]     with loss weight 0.3
I0511 18:26:45.791141 29693 net.cpp:137] Memory required for data: 1611253256
I0511 18:26:45.791146 29693 layer_factory.hpp:77] Creating layer inception_4e/1x1
I0511 18:26:45.791160 29693 net.cpp:84] Creating Layer inception_4e/1x1
I0511 18:26:45.791167 29693 net.cpp:406] inception_4e/1x1 <- inception_4d/output_inception_4d/output_0_split_1
I0511 18:26:45.791177 29693 net.cpp:380] inception_4e/1x1 -> inception_4e/1x1
I0511 18:26:45.795392 29693 net.cpp:122] Setting up inception_4e/1x1
I0511 18:26:45.795406 29693 net.cpp:129] Top shape: 32 256 14 14 (1605632)
I0511 18:26:45.795411 29693 net.cpp:137] Memory required for data: 1617675784
I0511 18:26:45.795420 29693 layer_factory.hpp:77] Creating layer inception_4e/relu_1x1
I0511 18:26:45.795428 29693 net.cpp:84] Creating Layer inception_4e/relu_1x1
I0511 18:26:45.795433 29693 net.cpp:406] inception_4e/relu_1x1 <- inception_4e/1x1
I0511 18:26:45.795442 29693 net.cpp:367] inception_4e/relu_1x1 -> inception_4e/1x1 (in-place)
I0511 18:26:45.796281 29693 net.cpp:122] Setting up inception_4e/relu_1x1
I0511 18:26:45.796294 29693 net.cpp:129] Top shape: 32 256 14 14 (1605632)
I0511 18:26:45.796298 29693 net.cpp:137] Memory required for data: 1624098312
I0511 18:26:45.796303 29693 layer_factory.hpp:77] Creating layer inception_4e/3x3_reduce
I0511 18:26:45.796316 29693 net.cpp:84] Creating Layer inception_4e/3x3_reduce
I0511 18:26:45.796321 29693 net.cpp:406] inception_4e/3x3_reduce <- inception_4d/output_inception_4d/output_0_split_2
I0511 18:26:45.796331 29693 net.cpp:380] inception_4e/3x3_reduce -> inception_4e/3x3_reduce
I0511 18:26:45.801010 29693 net.cpp:122] Setting up inception_4e/3x3_reduce
I0511 18:26:45.801026 29693 net.cpp:129] Top shape: 32 160 14 14 (1003520)
I0511 18:26:45.801030 29693 net.cpp:137] Memory required for data: 1628112392
I0511 18:26:45.801040 29693 layer_factory.hpp:77] Creating layer inception_4e/relu_3x3_reduce
I0511 18:26:45.801048 29693 net.cpp:84] Creating Layer inception_4e/relu_3x3_reduce
I0511 18:26:45.801054 29693 net.cpp:406] inception_4e/relu_3x3_reduce <- inception_4e/3x3_reduce
I0511 18:26:45.801061 29693 net.cpp:367] inception_4e/relu_3x3_reduce -> inception_4e/3x3_reduce (in-place)
I0511 18:26:45.801868 29693 net.cpp:122] Setting up inception_4e/relu_3x3_reduce
I0511 18:26:45.801882 29693 net.cpp:129] Top shape: 32 160 14 14 (1003520)
I0511 18:26:45.801885 29693 net.cpp:137] Memory required for data: 1632126472
I0511 18:26:45.801890 29693 layer_factory.hpp:77] Creating layer inception_4e/3x3
I0511 18:26:45.801904 29693 net.cpp:84] Creating Layer inception_4e/3x3
I0511 18:26:45.801909 29693 net.cpp:406] inception_4e/3x3 <- inception_4e/3x3_reduce
I0511 18:26:45.801920 29693 net.cpp:380] inception_4e/3x3 -> inception_4e/3x3
I0511 18:26:45.812886 29693 net.cpp:122] Setting up inception_4e/3x3
I0511 18:26:45.812911 29693 net.cpp:129] Top shape: 32 320 14 14 (2007040)
I0511 18:26:45.812916 29693 net.cpp:137] Memory required for data: 1640154632
I0511 18:26:45.812927 29693 layer_factory.hpp:77] Creating layer inception_4e/relu_3x3
I0511 18:26:45.812938 29693 net.cpp:84] Creating Layer inception_4e/relu_3x3
I0511 18:26:45.812947 29693 net.cpp:406] inception_4e/relu_3x3 <- inception_4e/3x3
I0511 18:26:45.812956 29693 net.cpp:367] inception_4e/relu_3x3 -> inception_4e/3x3 (in-place)
I0511 18:26:45.813529 29693 net.cpp:122] Setting up inception_4e/relu_3x3
I0511 18:26:45.813540 29693 net.cpp:129] Top shape: 32 320 14 14 (2007040)
I0511 18:26:45.813571 29693 net.cpp:137] Memory required for data: 1648182792
I0511 18:26:45.813577 29693 layer_factory.hpp:77] Creating layer inception_4e/5x5_reduce
I0511 18:26:45.813594 29693 net.cpp:84] Creating Layer inception_4e/5x5_reduce
I0511 18:26:45.813601 29693 net.cpp:406] inception_4e/5x5_reduce <- inception_4d/output_inception_4d/output_0_split_3
I0511 18:26:45.813611 29693 net.cpp:380] inception_4e/5x5_reduce -> inception_4e/5x5_reduce
I0511 18:26:45.816880 29693 net.cpp:122] Setting up inception_4e/5x5_reduce
I0511 18:26:45.816893 29693 net.cpp:129] Top shape: 32 32 14 14 (200704)
I0511 18:26:45.816897 29693 net.cpp:137] Memory required for data: 1648985608
I0511 18:26:45.816906 29693 layer_factory.hpp:77] Creating layer inception_4e/relu_5x5_reduce
I0511 18:26:45.816915 29693 net.cpp:84] Creating Layer inception_4e/relu_5x5_reduce
I0511 18:26:45.816920 29693 net.cpp:406] inception_4e/relu_5x5_reduce <- inception_4e/5x5_reduce
I0511 18:26:45.816928 29693 net.cpp:367] inception_4e/relu_5x5_reduce -> inception_4e/5x5_reduce (in-place)
I0511 18:26:45.817730 29693 net.cpp:122] Setting up inception_4e/relu_5x5_reduce
I0511 18:26:45.817745 29693 net.cpp:129] Top shape: 32 32 14 14 (200704)
I0511 18:26:45.817749 29693 net.cpp:137] Memory required for data: 1649788424
I0511 18:26:45.817754 29693 layer_factory.hpp:77] Creating layer inception_4e/5x5
I0511 18:26:45.817800 29693 net.cpp:84] Creating Layer inception_4e/5x5
I0511 18:26:45.817806 29693 net.cpp:406] inception_4e/5x5 <- inception_4e/5x5_reduce
I0511 18:26:45.817816 29693 net.cpp:380] inception_4e/5x5 -> inception_4e/5x5
I0511 18:26:45.823446 29693 net.cpp:122] Setting up inception_4e/5x5
I0511 18:26:45.823467 29693 net.cpp:129] Top shape: 32 128 14 14 (802816)
I0511 18:26:45.823472 29693 net.cpp:137] Memory required for data: 1652999688
I0511 18:26:45.823485 29693 layer_factory.hpp:77] Creating layer inception_4e/relu_5x5
I0511 18:26:45.823498 29693 net.cpp:84] Creating Layer inception_4e/relu_5x5
I0511 18:26:45.823504 29693 net.cpp:406] inception_4e/relu_5x5 <- inception_4e/5x5
I0511 18:26:45.823516 29693 net.cpp:367] inception_4e/relu_5x5 -> inception_4e/5x5 (in-place)
I0511 18:26:45.824543 29693 net.cpp:122] Setting up inception_4e/relu_5x5
I0511 18:26:45.824558 29693 net.cpp:129] Top shape: 32 128 14 14 (802816)
I0511 18:26:45.824563 29693 net.cpp:137] Memory required for data: 1656210952
I0511 18:26:45.824568 29693 layer_factory.hpp:77] Creating layer inception_4e/pool
I0511 18:26:45.824578 29693 net.cpp:84] Creating Layer inception_4e/pool
I0511 18:26:45.824582 29693 net.cpp:406] inception_4e/pool <- inception_4d/output_inception_4d/output_0_split_4
I0511 18:26:45.824590 29693 net.cpp:380] inception_4e/pool -> inception_4e/pool
I0511 18:26:45.824649 29693 net.cpp:122] Setting up inception_4e/pool
I0511 18:26:45.824657 29693 net.cpp:129] Top shape: 32 528 14 14 (3311616)
I0511 18:26:45.824661 29693 net.cpp:137] Memory required for data: 1669457416
I0511 18:26:45.824666 29693 layer_factory.hpp:77] Creating layer inception_4e/pool_proj
I0511 18:26:45.824681 29693 net.cpp:84] Creating Layer inception_4e/pool_proj
I0511 18:26:45.824685 29693 net.cpp:406] inception_4e/pool_proj <- inception_4e/pool
I0511 18:26:45.824695 29693 net.cpp:380] inception_4e/pool_proj -> inception_4e/pool_proj
I0511 18:26:45.828462 29693 net.cpp:122] Setting up inception_4e/pool_proj
I0511 18:26:45.828477 29693 net.cpp:129] Top shape: 32 128 14 14 (802816)
I0511 18:26:45.828482 29693 net.cpp:137] Memory required for data: 1672668680
I0511 18:26:45.828491 29693 layer_factory.hpp:77] Creating layer inception_4e/relu_pool_proj
I0511 18:26:45.828507 29693 net.cpp:84] Creating Layer inception_4e/relu_pool_proj
I0511 18:26:45.828512 29693 net.cpp:406] inception_4e/relu_pool_proj <- inception_4e/pool_proj
I0511 18:26:45.828521 29693 net.cpp:367] inception_4e/relu_pool_proj -> inception_4e/pool_proj (in-place)
I0511 18:26:45.829326 29693 net.cpp:122] Setting up inception_4e/relu_pool_proj
I0511 18:26:45.829339 29693 net.cpp:129] Top shape: 32 128 14 14 (802816)
I0511 18:26:45.829365 29693 net.cpp:137] Memory required for data: 1675879944
I0511 18:26:45.829370 29693 layer_factory.hpp:77] Creating layer inception_4e/output
I0511 18:26:45.829383 29693 net.cpp:84] Creating Layer inception_4e/output
I0511 18:26:45.829388 29693 net.cpp:406] inception_4e/output <- inception_4e/1x1
I0511 18:26:45.829396 29693 net.cpp:406] inception_4e/output <- inception_4e/3x3
I0511 18:26:45.829401 29693 net.cpp:406] inception_4e/output <- inception_4e/5x5
I0511 18:26:45.829406 29693 net.cpp:406] inception_4e/output <- inception_4e/pool_proj
I0511 18:26:45.829413 29693 net.cpp:380] inception_4e/output -> inception_4e/output
I0511 18:26:45.829452 29693 net.cpp:122] Setting up inception_4e/output
I0511 18:26:45.829460 29693 net.cpp:129] Top shape: 32 832 14 14 (5218304)
I0511 18:26:45.829464 29693 net.cpp:137] Memory required for data: 1696753160
I0511 18:26:45.829468 29693 layer_factory.hpp:77] Creating layer pool4/3x3_s2
I0511 18:26:45.829476 29693 net.cpp:84] Creating Layer pool4/3x3_s2
I0511 18:26:45.829480 29693 net.cpp:406] pool4/3x3_s2 <- inception_4e/output
I0511 18:26:45.829490 29693 net.cpp:380] pool4/3x3_s2 -> pool4/3x3_s2
I0511 18:26:45.829536 29693 net.cpp:122] Setting up pool4/3x3_s2
I0511 18:26:45.829545 29693 net.cpp:129] Top shape: 32 832 7 7 (1304576)
I0511 18:26:45.829548 29693 net.cpp:137] Memory required for data: 1701971464
I0511 18:26:45.829552 29693 layer_factory.hpp:77] Creating layer pool4/3x3_s2_pool4/3x3_s2_0_split
I0511 18:26:45.829561 29693 net.cpp:84] Creating Layer pool4/3x3_s2_pool4/3x3_s2_0_split
I0511 18:26:45.829566 29693 net.cpp:406] pool4/3x3_s2_pool4/3x3_s2_0_split <- pool4/3x3_s2
I0511 18:26:45.829576 29693 net.cpp:380] pool4/3x3_s2_pool4/3x3_s2_0_split -> pool4/3x3_s2_pool4/3x3_s2_0_split_0
I0511 18:26:45.829583 29693 net.cpp:380] pool4/3x3_s2_pool4/3x3_s2_0_split -> pool4/3x3_s2_pool4/3x3_s2_0_split_1
I0511 18:26:45.829591 29693 net.cpp:380] pool4/3x3_s2_pool4/3x3_s2_0_split -> pool4/3x3_s2_pool4/3x3_s2_0_split_2
I0511 18:26:45.829599 29693 net.cpp:380] pool4/3x3_s2_pool4/3x3_s2_0_split -> pool4/3x3_s2_pool4/3x3_s2_0_split_3
I0511 18:26:45.829666 29693 net.cpp:122] Setting up pool4/3x3_s2_pool4/3x3_s2_0_split
I0511 18:26:45.829675 29693 net.cpp:129] Top shape: 32 832 7 7 (1304576)
I0511 18:26:45.829681 29693 net.cpp:129] Top shape: 32 832 7 7 (1304576)
I0511 18:26:45.829686 29693 net.cpp:129] Top shape: 32 832 7 7 (1304576)
I0511 18:26:45.829691 29693 net.cpp:129] Top shape: 32 832 7 7 (1304576)
I0511 18:26:45.829695 29693 net.cpp:137] Memory required for data: 1722844680
I0511 18:26:45.829699 29693 layer_factory.hpp:77] Creating layer inception_5a/1x1
I0511 18:26:45.829712 29693 net.cpp:84] Creating Layer inception_5a/1x1
I0511 18:26:45.829717 29693 net.cpp:406] inception_5a/1x1 <- pool4/3x3_s2_pool4/3x3_s2_0_split_0
I0511 18:26:45.829725 29693 net.cpp:380] inception_5a/1x1 -> inception_5a/1x1
I0511 18:26:45.834571 29693 net.cpp:122] Setting up inception_5a/1x1
I0511 18:26:45.834585 29693 net.cpp:129] Top shape: 32 256 7 7 (401408)
I0511 18:26:45.834590 29693 net.cpp:137] Memory required for data: 1724450312
I0511 18:26:45.834599 29693 layer_factory.hpp:77] Creating layer inception_5a/relu_1x1
I0511 18:26:45.834607 29693 net.cpp:84] Creating Layer inception_5a/relu_1x1
I0511 18:26:45.834614 29693 net.cpp:406] inception_5a/relu_1x1 <- inception_5a/1x1
I0511 18:26:45.834622 29693 net.cpp:367] inception_5a/relu_1x1 -> inception_5a/1x1 (in-place)
I0511 18:26:45.835420 29693 net.cpp:122] Setting up inception_5a/relu_1x1
I0511 18:26:45.835433 29693 net.cpp:129] Top shape: 32 256 7 7 (401408)
I0511 18:26:45.835438 29693 net.cpp:137] Memory required for data: 1726055944
I0511 18:26:45.835441 29693 layer_factory.hpp:77] Creating layer inception_5a/3x3_reduce
I0511 18:26:45.835458 29693 net.cpp:84] Creating Layer inception_5a/3x3_reduce
I0511 18:26:45.835464 29693 net.cpp:406] inception_5a/3x3_reduce <- pool4/3x3_s2_pool4/3x3_s2_0_split_1
I0511 18:26:45.835472 29693 net.cpp:380] inception_5a/3x3_reduce -> inception_5a/3x3_reduce
I0511 18:26:45.842638 29693 net.cpp:122] Setting up inception_5a/3x3_reduce
I0511 18:26:45.842659 29693 net.cpp:129] Top shape: 32 160 7 7 (250880)
I0511 18:26:45.842664 29693 net.cpp:137] Memory required for data: 1727059464
I0511 18:26:45.842674 29693 layer_factory.hpp:77] Creating layer inception_5a/relu_3x3_reduce
I0511 18:26:45.842684 29693 net.cpp:84] Creating Layer inception_5a/relu_3x3_reduce
I0511 18:26:45.842690 29693 net.cpp:406] inception_5a/relu_3x3_reduce <- inception_5a/3x3_reduce
I0511 18:26:45.842700 29693 net.cpp:367] inception_5a/relu_3x3_reduce -> inception_5a/3x3_reduce (in-place)
I0511 18:26:45.843272 29693 net.cpp:122] Setting up inception_5a/relu_3x3_reduce
I0511 18:26:45.843284 29693 net.cpp:129] Top shape: 32 160 7 7 (250880)
I0511 18:26:45.843288 29693 net.cpp:137] Memory required for data: 1728062984
I0511 18:26:45.843293 29693 layer_factory.hpp:77] Creating layer inception_5a/3x3
I0511 18:26:45.843307 29693 net.cpp:84] Creating Layer inception_5a/3x3
I0511 18:26:45.843312 29693 net.cpp:406] inception_5a/3x3 <- inception_5a/3x3_reduce
I0511 18:26:45.843322 29693 net.cpp:380] inception_5a/3x3 -> inception_5a/3x3
I0511 18:26:45.851927 29693 net.cpp:122] Setting up inception_5a/3x3
I0511 18:26:45.851945 29693 net.cpp:129] Top shape: 32 320 7 7 (501760)
I0511 18:26:45.851950 29693 net.cpp:137] Memory required for data: 1730070024
I0511 18:26:45.851960 29693 layer_factory.hpp:77] Creating layer inception_5a/relu_3x3
I0511 18:26:45.851970 29693 net.cpp:84] Creating Layer inception_5a/relu_3x3
I0511 18:26:45.851976 29693 net.cpp:406] inception_5a/relu_3x3 <- inception_5a/3x3
I0511 18:26:45.851986 29693 net.cpp:367] inception_5a/relu_3x3 -> inception_5a/3x3 (in-place)
I0511 18:26:45.852807 29693 net.cpp:122] Setting up inception_5a/relu_3x3
I0511 18:26:45.852820 29693 net.cpp:129] Top shape: 32 320 7 7 (501760)
I0511 18:26:45.852825 29693 net.cpp:137] Memory required for data: 1732077064
I0511 18:26:45.852829 29693 layer_factory.hpp:77] Creating layer inception_5a/5x5_reduce
I0511 18:26:45.852844 29693 net.cpp:84] Creating Layer inception_5a/5x5_reduce
I0511 18:26:45.852850 29693 net.cpp:406] inception_5a/5x5_reduce <- pool4/3x3_s2_pool4/3x3_s2_0_split_2
I0511 18:26:45.852864 29693 net.cpp:380] inception_5a/5x5_reduce -> inception_5a/5x5_reduce
I0511 18:26:45.857960 29693 net.cpp:122] Setting up inception_5a/5x5_reduce
I0511 18:26:45.857976 29693 net.cpp:129] Top shape: 32 32 7 7 (50176)
I0511 18:26:45.857980 29693 net.cpp:137] Memory required for data: 1732277768
I0511 18:26:45.857991 29693 layer_factory.hpp:77] Creating layer inception_5a/relu_5x5_reduce
I0511 18:26:45.858000 29693 net.cpp:84] Creating Layer inception_5a/relu_5x5_reduce
I0511 18:26:45.858006 29693 net.cpp:406] inception_5a/relu_5x5_reduce <- inception_5a/5x5_reduce
I0511 18:26:45.858016 29693 net.cpp:367] inception_5a/relu_5x5_reduce -> inception_5a/5x5_reduce (in-place)
I0511 18:26:45.858835 29693 net.cpp:122] Setting up inception_5a/relu_5x5_reduce
I0511 18:26:45.858855 29693 net.cpp:129] Top shape: 32 32 7 7 (50176)
I0511 18:26:45.858860 29693 net.cpp:137] Memory required for data: 1732478472
I0511 18:26:45.858865 29693 layer_factory.hpp:77] Creating layer inception_5a/5x5
I0511 18:26:45.858880 29693 net.cpp:84] Creating Layer inception_5a/5x5
I0511 18:26:45.858884 29693 net.cpp:406] inception_5a/5x5 <- inception_5a/5x5_reduce
I0511 18:26:45.858893 29693 net.cpp:380] inception_5a/5x5 -> inception_5a/5x5
I0511 18:26:45.862792 29693 net.cpp:122] Setting up inception_5a/5x5
I0511 18:26:45.862808 29693 net.cpp:129] Top shape: 32 128 7 7 (200704)
I0511 18:26:45.862812 29693 net.cpp:137] Memory required for data: 1733281288
I0511 18:26:45.862821 29693 layer_factory.hpp:77] Creating layer inception_5a/relu_5x5
I0511 18:26:45.862829 29693 net.cpp:84] Creating Layer inception_5a/relu_5x5
I0511 18:26:45.862834 29693 net.cpp:406] inception_5a/relu_5x5 <- inception_5a/5x5
I0511 18:26:45.862841 29693 net.cpp:367] inception_5a/relu_5x5 -> inception_5a/5x5 (in-place)
I0511 18:26:45.863638 29693 net.cpp:122] Setting up inception_5a/relu_5x5
I0511 18:26:45.863677 29693 net.cpp:129] Top shape: 32 128 7 7 (200704)
I0511 18:26:45.863682 29693 net.cpp:137] Memory required for data: 1734084104
I0511 18:26:45.863687 29693 layer_factory.hpp:77] Creating layer inception_5a/pool
I0511 18:26:45.863703 29693 net.cpp:84] Creating Layer inception_5a/pool
I0511 18:26:45.863708 29693 net.cpp:406] inception_5a/pool <- pool4/3x3_s2_pool4/3x3_s2_0_split_3
I0511 18:26:45.863716 29693 net.cpp:380] inception_5a/pool -> inception_5a/pool
I0511 18:26:45.863776 29693 net.cpp:122] Setting up inception_5a/pool
I0511 18:26:45.863785 29693 net.cpp:129] Top shape: 32 832 7 7 (1304576)
I0511 18:26:45.863788 29693 net.cpp:137] Memory required for data: 1739302408
I0511 18:26:45.863792 29693 layer_factory.hpp:77] Creating layer inception_5a/pool_proj
I0511 18:26:45.863804 29693 net.cpp:84] Creating Layer inception_5a/pool_proj
I0511 18:26:45.863811 29693 net.cpp:406] inception_5a/pool_proj <- inception_5a/pool
I0511 18:26:45.863819 29693 net.cpp:380] inception_5a/pool_proj -> inception_5a/pool_proj
I0511 18:26:45.867945 29693 net.cpp:122] Setting up inception_5a/pool_proj
I0511 18:26:45.867959 29693 net.cpp:129] Top shape: 32 128 7 7 (200704)
I0511 18:26:45.867964 29693 net.cpp:137] Memory required for data: 1740105224
I0511 18:26:45.867972 29693 layer_factory.hpp:77] Creating layer inception_5a/relu_pool_proj
I0511 18:26:45.867980 29693 net.cpp:84] Creating Layer inception_5a/relu_pool_proj
I0511 18:26:45.867985 29693 net.cpp:406] inception_5a/relu_pool_proj <- inception_5a/pool_proj
I0511 18:26:45.867995 29693 net.cpp:367] inception_5a/relu_pool_proj -> inception_5a/pool_proj (in-place)
I0511 18:26:45.868810 29693 net.cpp:122] Setting up inception_5a/relu_pool_proj
I0511 18:26:45.868824 29693 net.cpp:129] Top shape: 32 128 7 7 (200704)
I0511 18:26:45.868827 29693 net.cpp:137] Memory required for data: 1740908040
I0511 18:26:45.868832 29693 layer_factory.hpp:77] Creating layer inception_5a/output
I0511 18:26:45.868844 29693 net.cpp:84] Creating Layer inception_5a/output
I0511 18:26:45.868849 29693 net.cpp:406] inception_5a/output <- inception_5a/1x1
I0511 18:26:45.868855 29693 net.cpp:406] inception_5a/output <- inception_5a/3x3
I0511 18:26:45.868861 29693 net.cpp:406] inception_5a/output <- inception_5a/5x5
I0511 18:26:45.868866 29693 net.cpp:406] inception_5a/output <- inception_5a/pool_proj
I0511 18:26:45.868873 29693 net.cpp:380] inception_5a/output -> inception_5a/output
I0511 18:26:45.868913 29693 net.cpp:122] Setting up inception_5a/output
I0511 18:26:45.868921 29693 net.cpp:129] Top shape: 32 832 7 7 (1304576)
I0511 18:26:45.868925 29693 net.cpp:137] Memory required for data: 1746126344
I0511 18:26:45.868929 29693 layer_factory.hpp:77] Creating layer inception_5a/output_inception_5a/output_0_split
I0511 18:26:45.868938 29693 net.cpp:84] Creating Layer inception_5a/output_inception_5a/output_0_split
I0511 18:26:45.868943 29693 net.cpp:406] inception_5a/output_inception_5a/output_0_split <- inception_5a/output
I0511 18:26:45.868953 29693 net.cpp:380] inception_5a/output_inception_5a/output_0_split -> inception_5a/output_inception_5a/output_0_split_0
I0511 18:26:45.868963 29693 net.cpp:380] inception_5a/output_inception_5a/output_0_split -> inception_5a/output_inception_5a/output_0_split_1
I0511 18:26:45.868973 29693 net.cpp:380] inception_5a/output_inception_5a/output_0_split -> inception_5a/output_inception_5a/output_0_split_2
I0511 18:26:45.868983 29693 net.cpp:380] inception_5a/output_inception_5a/output_0_split -> inception_5a/output_inception_5a/output_0_split_3
I0511 18:26:45.869058 29693 net.cpp:122] Setting up inception_5a/output_inception_5a/output_0_split
I0511 18:26:45.869066 29693 net.cpp:129] Top shape: 32 832 7 7 (1304576)
I0511 18:26:45.869071 29693 net.cpp:129] Top shape: 32 832 7 7 (1304576)
I0511 18:26:45.869077 29693 net.cpp:129] Top shape: 32 832 7 7 (1304576)
I0511 18:26:45.869082 29693 net.cpp:129] Top shape: 32 832 7 7 (1304576)
I0511 18:26:45.869086 29693 net.cpp:137] Memory required for data: 1766999560
I0511 18:26:45.869091 29693 layer_factory.hpp:77] Creating layer inception_5b/1x1
I0511 18:26:45.869117 29693 net.cpp:84] Creating Layer inception_5b/1x1
I0511 18:26:45.869122 29693 net.cpp:406] inception_5b/1x1 <- inception_5a/output_inception_5a/output_0_split_0
I0511 18:26:45.869132 29693 net.cpp:380] inception_5b/1x1 -> inception_5b/1x1
I0511 18:26:45.878239 29693 net.cpp:122] Setting up inception_5b/1x1
I0511 18:26:45.878262 29693 net.cpp:129] Top shape: 32 384 7 7 (602112)
I0511 18:26:45.878265 29693 net.cpp:137] Memory required for data: 1769408008
I0511 18:26:45.878276 29693 layer_factory.hpp:77] Creating layer inception_5b/relu_1x1
I0511 18:26:45.878286 29693 net.cpp:84] Creating Layer inception_5b/relu_1x1
I0511 18:26:45.878293 29693 net.cpp:406] inception_5b/relu_1x1 <- inception_5b/1x1
I0511 18:26:45.878302 29693 net.cpp:367] inception_5b/relu_1x1 -> inception_5b/1x1 (in-place)
I0511 18:26:45.878876 29693 net.cpp:122] Setting up inception_5b/relu_1x1
I0511 18:26:45.878888 29693 net.cpp:129] Top shape: 32 384 7 7 (602112)
I0511 18:26:45.878893 29693 net.cpp:137] Memory required for data: 1771816456
I0511 18:26:45.878897 29693 layer_factory.hpp:77] Creating layer inception_5b/3x3_reduce
I0511 18:26:45.878912 29693 net.cpp:84] Creating Layer inception_5b/3x3_reduce
I0511 18:26:45.878917 29693 net.cpp:406] inception_5b/3x3_reduce <- inception_5a/output_inception_5a/output_0_split_1
I0511 18:26:45.878928 29693 net.cpp:380] inception_5b/3x3_reduce -> inception_5b/3x3_reduce
I0511 18:26:45.883584 29693 net.cpp:122] Setting up inception_5b/3x3_reduce
I0511 18:26:45.883597 29693 net.cpp:129] Top shape: 32 192 7 7 (301056)
I0511 18:26:45.883601 29693 net.cpp:137] Memory required for data: 1773020680
I0511 18:26:45.883610 29693 layer_factory.hpp:77] Creating layer inception_5b/relu_3x3_reduce
I0511 18:26:45.883620 29693 net.cpp:84] Creating Layer inception_5b/relu_3x3_reduce
I0511 18:26:45.883625 29693 net.cpp:406] inception_5b/relu_3x3_reduce <- inception_5b/3x3_reduce
I0511 18:26:45.883635 29693 net.cpp:367] inception_5b/relu_3x3_reduce -> inception_5b/3x3_reduce (in-place)
I0511 18:26:45.884212 29693 net.cpp:122] Setting up inception_5b/relu_3x3_reduce
I0511 18:26:45.884222 29693 net.cpp:129] Top shape: 32 192 7 7 (301056)
I0511 18:26:45.884227 29693 net.cpp:137] Memory required for data: 1774224904
I0511 18:26:45.884232 29693 layer_factory.hpp:77] Creating layer inception_5b/3x3
I0511 18:26:45.884245 29693 net.cpp:84] Creating Layer inception_5b/3x3
I0511 18:26:45.884250 29693 net.cpp:406] inception_5b/3x3 <- inception_5b/3x3_reduce
I0511 18:26:45.884260 29693 net.cpp:380] inception_5b/3x3 -> inception_5b/3x3
I0511 18:26:45.897532 29693 net.cpp:122] Setting up inception_5b/3x3
I0511 18:26:45.897558 29693 net.cpp:129] Top shape: 32 384 7 7 (602112)
I0511 18:26:45.897563 29693 net.cpp:137] Memory required for data: 1776633352
I0511 18:26:45.897575 29693 layer_factory.hpp:77] Creating layer inception_5b/relu_3x3
I0511 18:26:45.897590 29693 net.cpp:84] Creating Layer inception_5b/relu_3x3
I0511 18:26:45.897598 29693 net.cpp:406] inception_5b/relu_3x3 <- inception_5b/3x3
I0511 18:26:45.897608 29693 net.cpp:367] inception_5b/relu_3x3 -> inception_5b/3x3 (in-place)
I0511 18:26:45.898422 29693 net.cpp:122] Setting up inception_5b/relu_3x3
I0511 18:26:45.898434 29693 net.cpp:129] Top shape: 32 384 7 7 (602112)
I0511 18:26:45.898439 29693 net.cpp:137] Memory required for data: 1779041800
I0511 18:26:45.898443 29693 layer_factory.hpp:77] Creating layer inception_5b/5x5_reduce
I0511 18:26:45.898458 29693 net.cpp:84] Creating Layer inception_5b/5x5_reduce
I0511 18:26:45.898464 29693 net.cpp:406] inception_5b/5x5_reduce <- inception_5a/output_inception_5a/output_0_split_2
I0511 18:26:45.898475 29693 net.cpp:380] inception_5b/5x5_reduce -> inception_5b/5x5_reduce
I0511 18:26:45.901827 29693 net.cpp:122] Setting up inception_5b/5x5_reduce
I0511 18:26:45.901840 29693 net.cpp:129] Top shape: 32 48 7 7 (75264)
I0511 18:26:45.901844 29693 net.cpp:137] Memory required for data: 1779342856
I0511 18:26:45.901854 29693 layer_factory.hpp:77] Creating layer inception_5b/relu_5x5_reduce
I0511 18:26:45.901861 29693 net.cpp:84] Creating Layer inception_5b/relu_5x5_reduce
I0511 18:26:45.901890 29693 net.cpp:406] inception_5b/relu_5x5_reduce <- inception_5b/5x5_reduce
I0511 18:26:45.901901 29693 net.cpp:367] inception_5b/relu_5x5_reduce -> inception_5b/5x5_reduce (in-place)
I0511 18:26:45.902709 29693 net.cpp:122] Setting up inception_5b/relu_5x5_reduce
I0511 18:26:45.902724 29693 net.cpp:129] Top shape: 32 48 7 7 (75264)
I0511 18:26:45.902729 29693 net.cpp:137] Memory required for data: 1779643912
I0511 18:26:45.902734 29693 layer_factory.hpp:77] Creating layer inception_5b/5x5
I0511 18:26:45.902746 29693 net.cpp:84] Creating Layer inception_5b/5x5
I0511 18:26:45.902752 29693 net.cpp:406] inception_5b/5x5 <- inception_5b/5x5_reduce
I0511 18:26:45.902761 29693 net.cpp:380] inception_5b/5x5 -> inception_5b/5x5
I0511 18:26:45.907146 29693 net.cpp:122] Setting up inception_5b/5x5
I0511 18:26:45.907160 29693 net.cpp:129] Top shape: 32 128 7 7 (200704)
I0511 18:26:45.907166 29693 net.cpp:137] Memory required for data: 1780446728
I0511 18:26:45.907174 29693 layer_factory.hpp:77] Creating layer inception_5b/relu_5x5
I0511 18:26:45.907181 29693 net.cpp:84] Creating Layer inception_5b/relu_5x5
I0511 18:26:45.907186 29693 net.cpp:406] inception_5b/relu_5x5 <- inception_5b/5x5
I0511 18:26:45.907198 29693 net.cpp:367] inception_5b/relu_5x5 -> inception_5b/5x5 (in-place)
I0511 18:26:45.908006 29693 net.cpp:122] Setting up inception_5b/relu_5x5
I0511 18:26:45.908018 29693 net.cpp:129] Top shape: 32 128 7 7 (200704)
I0511 18:26:45.908023 29693 net.cpp:137] Memory required for data: 1781249544
I0511 18:26:45.908027 29693 layer_factory.hpp:77] Creating layer inception_5b/pool
I0511 18:26:45.908037 29693 net.cpp:84] Creating Layer inception_5b/pool
I0511 18:26:45.908042 29693 net.cpp:406] inception_5b/pool <- inception_5a/output_inception_5a/output_0_split_3
I0511 18:26:45.908052 29693 net.cpp:380] inception_5b/pool -> inception_5b/pool
I0511 18:26:45.908110 29693 net.cpp:122] Setting up inception_5b/pool
I0511 18:26:45.908120 29693 net.cpp:129] Top shape: 32 832 7 7 (1304576)
I0511 18:26:45.908124 29693 net.cpp:137] Memory required for data: 1786467848
I0511 18:26:45.908128 29693 layer_factory.hpp:77] Creating layer inception_5b/pool_proj
I0511 18:26:45.908141 29693 net.cpp:84] Creating Layer inception_5b/pool_proj
I0511 18:26:45.908146 29693 net.cpp:406] inception_5b/pool_proj <- inception_5b/pool
I0511 18:26:45.908154 29693 net.cpp:380] inception_5b/pool_proj -> inception_5b/pool_proj
I0511 18:26:45.916074 29693 net.cpp:122] Setting up inception_5b/pool_proj
I0511 18:26:45.916105 29693 net.cpp:129] Top shape: 32 128 7 7 (200704)
I0511 18:26:45.916112 29693 net.cpp:137] Memory required for data: 1787270664
I0511 18:26:45.916126 29693 layer_factory.hpp:77] Creating layer inception_5b/relu_pool_proj
I0511 18:26:45.916139 29693 net.cpp:84] Creating Layer inception_5b/relu_pool_proj
I0511 18:26:45.916146 29693 net.cpp:406] inception_5b/relu_pool_proj <- inception_5b/pool_proj
I0511 18:26:45.916157 29693 net.cpp:367] inception_5b/relu_pool_proj -> inception_5b/pool_proj (in-place)
I0511 18:26:45.917021 29693 net.cpp:122] Setting up inception_5b/relu_pool_proj
I0511 18:26:45.917037 29693 net.cpp:129] Top shape: 32 128 7 7 (200704)
I0511 18:26:45.917040 29693 net.cpp:137] Memory required for data: 1788073480
I0511 18:26:45.917045 29693 layer_factory.hpp:77] Creating layer inception_5b/output
I0511 18:26:45.917057 29693 net.cpp:84] Creating Layer inception_5b/output
I0511 18:26:45.917062 29693 net.cpp:406] inception_5b/output <- inception_5b/1x1
I0511 18:26:45.917070 29693 net.cpp:406] inception_5b/output <- inception_5b/3x3
I0511 18:26:45.917075 29693 net.cpp:406] inception_5b/output <- inception_5b/5x5
I0511 18:26:45.917080 29693 net.cpp:406] inception_5b/output <- inception_5b/pool_proj
I0511 18:26:45.917088 29693 net.cpp:380] inception_5b/output -> inception_5b/output
I0511 18:26:45.917131 29693 net.cpp:122] Setting up inception_5b/output
I0511 18:26:45.917140 29693 net.cpp:129] Top shape: 32 1024 7 7 (1605632)
I0511 18:26:45.917143 29693 net.cpp:137] Memory required for data: 1794496008
I0511 18:26:45.917176 29693 layer_factory.hpp:77] Creating layer pool5/7x7_s1
I0511 18:26:45.917186 29693 net.cpp:84] Creating Layer pool5/7x7_s1
I0511 18:26:45.917191 29693 net.cpp:406] pool5/7x7_s1 <- inception_5b/output
I0511 18:26:45.917201 29693 net.cpp:380] pool5/7x7_s1 -> pool5/7x7_s1
I0511 18:26:45.918077 29693 net.cpp:122] Setting up pool5/7x7_s1
I0511 18:26:45.918090 29693 net.cpp:129] Top shape: 32 1024 1 1 (32768)
I0511 18:26:45.918095 29693 net.cpp:137] Memory required for data: 1794627080
I0511 18:26:45.918100 29693 layer_factory.hpp:77] Creating layer pool5/drop_7x7_s1
I0511 18:26:45.918108 29693 net.cpp:84] Creating Layer pool5/drop_7x7_s1
I0511 18:26:45.918113 29693 net.cpp:406] pool5/drop_7x7_s1 <- pool5/7x7_s1
I0511 18:26:45.918121 29693 net.cpp:367] pool5/drop_7x7_s1 -> pool5/7x7_s1 (in-place)
I0511 18:26:45.918154 29693 net.cpp:122] Setting up pool5/drop_7x7_s1
I0511 18:26:45.918162 29693 net.cpp:129] Top shape: 32 1024 1 1 (32768)
I0511 18:26:45.918166 29693 net.cpp:137] Memory required for data: 1794758152
I0511 18:26:45.918170 29693 layer_factory.hpp:77] Creating layer loss3/classifier
I0511 18:26:45.918179 29693 net.cpp:84] Creating Layer loss3/classifier
I0511 18:26:45.918184 29693 net.cpp:406] loss3/classifier <- pool5/7x7_s1
I0511 18:26:45.918193 29693 net.cpp:380] loss3/classifier -> loss3/classifier
I0511 18:26:45.920174 29693 net.cpp:122] Setting up loss3/classifier
I0511 18:26:45.920186 29693 net.cpp:129] Top shape: 32 196 (6272)
I0511 18:26:45.920189 29693 net.cpp:137] Memory required for data: 1794783240
I0511 18:26:45.920200 29693 layer_factory.hpp:77] Creating layer loss3/loss
I0511 18:26:45.920212 29693 net.cpp:84] Creating Layer loss3/loss
I0511 18:26:45.920217 29693 net.cpp:406] loss3/loss <- loss3/classifier
I0511 18:26:45.920224 29693 net.cpp:406] loss3/loss <- label_train-data_1_split_2
I0511 18:26:45.920230 29693 net.cpp:380] loss3/loss -> loss
…
I0511 18:26:45.925055 29693 net.cpp:294] The NetState phase (1) differed from the phase (0) specified by a rule in layer train-data
I0511 18:26:45.926679 29693 net.cpp:51] Initializing net from parameters:
state {
phase: TEST
}
layer {
name: "val-data"
type: "Data"
top: "data"
top: "label"
include {
phase: TEST
}
transform_param {
mirror: false
crop_size: 224
mean_file: "/mnt/bigdisk/AMBDIG9/digits/jobs/20200511-171159-6b48/mean.binaryproto"
}
data_param {
source: "/mnt/bigdisk/AMBDIG9/digits/jobs/20200511-171159-6b48/val_db"
batch_size: 16
backend: LMDB
}
}
layer {
name: "conv1/7x7_s2"
type: "Convolution"
bottom: "data"
top: "conv1/7x7_s2"
param {
lr_mult: 1
decay_mult: 1
}
param {
lr_mult: 2
decay_mult: 0
}
convolution_param {
num_output: 64
pad: 3
kernel_size: 7
stride: 2
weight_filler {
type: "xavier"
std: 0.1
}
bias_filler {
type: "constant"
value: 0.2
}
}
}
layer {
name: "conv1/relu_7x7"
type: "ReLU"
bottom: "conv1/7x7_s2"
top: "conv1/7x7_s2"
}
layer {
name: "pool1/3x3_s2"
type: "Pooling"
bottom: "conv1/7x7_s2"
top: "pool1/3x3_s2"
pooling_param {
pool: MAX
kernel_size: 3
stride: 2
}
}
layer {
name: "pool1/norm1"
type: "LRN"
bottom: "pool1/3x3_s2"
top: "pool1/norm1"
lrn_param {
local_size: 5
alpha: 0.0001
beta: 0.75
}
}
layer {
name: "conv2/3x3_reduce"
type: "Convolution"
bottom: "pool1/norm1"
top: "conv2/3x3_reduce"
param {
lr_mult: 1
decay_mult: 1
}
param {
lr_mult: 2
decay_mult: 0
}
convolution_param {
num_output: 64
kernel_size: 1
weight_filler {
type: "xavier"
std: 0.1
}
bias_filler {
type: "constant"
value: 0.2
}
}
}
layer {
name: "conv2/relu_3x3_reduce"
type: "ReLU"
bottom: "conv2/3x3_reduce"
top: "conv2/3x3_reduce"
}
layer {
name: "conv2/3x3"
type: "Convolution"
bottom: "conv2/3x3_reduce"
top: "conv2/3x3"
param {
lr_mult: 1
decay_mult: 1
}
param {
lr_mult: 2
decay_mult: 0
}
convolution_param {
num_output: 192
pad: 1
kernel_size: 3
weight_filler {
type: "xavier"
std: 0.03
}
bias_filler {
type: "constant"
value: 0.2
}
}
}
layer {
name: "conv2/relu_3x3"
type: "ReLU"
bottom: "conv2/3x3"
top: "conv2/3x3"
}
layer {
name: "conv2/norm2"
type: "LRN"
bottom: "conv2/3x3"
top: "conv2/norm2"
lrn_param {
local_size: 5
alpha: 0.0001
beta: 0.75
}
}
layer {
name: "pool2/3x3_s2"
type: "Pooling"
bottom: "conv2/norm2"
top: "pool2/3x3_s2"
pooling_param {
pool: MAX
kernel_size: 3
stride: 2
}
}
layer {
name: "inception_3a/1x1"
type: "Convolution"
bottom: "pool2/3x3_s2"
top: "inception_3a/1x1"
param {
lr_mult: 1
decay_mult: 1
}
param {
lr_mult: 2
decay_mult: 0
}
convolution_param {
num_output: 64
kernel_size: 1
weight_filler {
type: "xavier"
std: 0.03
}
bias_filler {
type: "constant"
value: 0.2
}
}
}
layer {
name: "inception_3a/relu_1x1"
type: "ReLU"
bottom: "inception_3a/1x1"
top: "inception_3a/1x1"
}
layer {
name: "inception_3a/3x3_reduce"
type: "Convolution"
bottom: "pool2/3x3_s2"
top: "inception_3a/3x3_reduce"
param {
lr_mult: 1
decay_mult: 1
}
param {
lr_mult: 2
decay_mult: 0
}
convolution_param {
num_output: 96
kernel_size: 1
weight_filler {
type: "xavier"
std: 0.09
}
bias_filler {
type: "constant"
value: 0.2
}
}
}
layer {
name: "inception_3a/relu_3x3_reduce"
type: "ReLU"
bottom: "inception_3a/3x3_reduce"
top: "inception_3a/3x3_reduce"
}
layer {
name: "inception_3a/3x3"
type: "Convolution"
bottom: "inception_3a/3x3_reduce"
top: "inception_3a/3x3"
param {
lr_mult: 1
decay_mult: 1
}
param {
lr_mult: 2
decay_mult: 0
}
convolution_param {
num_output: 128
pad: 1
kernel_size: 3
weight_filler {
type: "xavier"
std: 0.03
}
bias_filler {
type: "constant"
value: 0.2
}
}
}
layer {
name: "inception_3a/relu_3x3"
type: "ReLU"
bottom: "inception_3a/3x3"
top: "inception_3a/3x3"
}
layer {
name: "inception_3a/5x5_reduce"
type: "Convolution"
bottom: "pool2/3x3_s2"
top: "inception_3a/5x5_reduce"
param {
lr_mult: 1
decay_mult: 1
}
param {
lr_mult: 2
decay_mult: 0
}
convolution_param {
num_output: 16
kernel_size: 1
weight_filler {
type: "xavier"
std: 0.2
}
bias_filler {
type: "constant"
value: 0.2
}
}
}
layer {
name: "inception_3a/relu_5x5_reduce"
type: "ReLU"
bottom: "inception_3a/5x5_reduce"
top: "inception_3a/5x5_reduce"
}
layer {
name: "inception_3a/5x5"
type: "Convolution"
bottom: "inception_3a/5x5_reduce"
top: "inception_3a/5x5"
param {
lr_mult: 1
decay_mult: 1
}
param {
lr_mult: 2
decay_mult: 0
}
convolution_param {
num_output: 32
pad: 2
kernel_size: 5
weight_filler {
type: "xavier"
std: 0.03
}
bias_filler {
type: "constant"
value: 0.2
}
}
}
layer {
name: "inception_3a/relu_5x5"
type: "ReLU"
bottom: "inception_3a/5x5"
top: "inception_3a/5x5"
}
layer {
name: "inception_3a/pool"
type: "Pooling"
bottom: "pool2/3x3_s2"
top: "inception_3a/pool"
pooling_param {
pool: MAX
kernel_size: 3
stride: 1
pad: 1
}
}
layer {
name: "inception_3a/pool_proj"
type: "Convolution"
bottom: "inception_3a/pool"
top: "inception_3a/pool_proj"
param {
lr_mult: 1
decay_mult: 1
}
param {
lr_mult: 2
decay_mult: 0
}
convolution_param {
num_output: 32
kernel_size: 1
weight_filler {
type: "xavier"
std: 0.1
}
bias_filler {
type: "constant"
value: 0.2
}
}
}
layer {
name: "inception_3a/relu_pool_proj"
type: "ReLU"
bottom: "inception_3a/pool_proj"
top: "inception_3a/pool_proj"
}
layer {
name: "inception_3a/output"
type: "Concat"
bottom: "inception_3a/1x1"
bottom: "inception_3a/3x3"
bottom: "inception_3a/5x5"
bottom: "inception_3a/pool_proj"
top: "inception_3a/output"
}
layer {
name: "inception_3b/1x1"
type: "Convolution"
bottom: "inception_3a/output"
top: "inception_3b/1x1"
param {
lr_mult: 1
decay_mult: 1
}
param {
lr_mult: 2
decay_mult: 0
}
convolution_param {
num_output: 128
kernel_size: 1
weight_filler {
type: "xavier"
std: 0.03
}
bias_filler {
type: "constant"
value: 0.2
}
}
}
layer {
name: "inception_3b/relu_1x1"
type: "ReLU"
bottom: "inception_3b/1x1"
top: "inception_3b/1x1"
}
layer {
name: "inception_3b/3x3_reduce"
type: "Convolution"
bottom: "inception_3a/output"
top: "inception_3b/3x3_reduce"
param {
lr_mult: 1
decay_mult: 1
}
param {
lr_mult: 2
decay_mult: 0
}
convolution_param {
num_output: 128
kernel_size: 1
weight_filler {
type: "xavier"
std: 0.09
}
bias_filler {
type: "constant"
value: 0.2
}
}
}
layer {
name: "inception_3b/relu_3x3_reduce"
type: "ReLU"
bottom: "inception_3b/3x3_reduce"
top: "inception_3b/3x3_reduce"
}
layer {
name: "inception_3b/3x3"
type: "Convolution"
bottom: "inception_3b/3x3_reduce"
top: "inception_3b/3x3"
param {
lr_mult: 1
decay_mult: 1
}
param {
lr_mult: 2
decay_mult: 0
}
convolution_param {
num_output: 192
pad: 1
kernel_size: 3
weight_filler {
type: "xavier"
std: 0.03
}
bias_filler {
type: "constant"
value: 0.2
}
}
}
layer {
name: "inception_3b/relu_3x3"
type: "ReLU"
bottom: "inception_3b/3x3"
top: "inception_3b/3x3"
}
layer {
name: "inception_3b/5x5_reduce"
type: "Convolution"
bottom: "inception_3a/output"
top: "inception_3b/5x5_reduce"
param {
lr_mult: 1
decay_mult: 1
}
param {
lr_mult: 2
decay_mult: 0
}
convolution_param {
num_output: 32
kernel_size: 1
weight_filler {
type: "xavier"
std: 0.2
}
bias_filler {
type: "constant"
value: 0.2
}
}
}
layer {
name: "inception_3b/relu_5x5_reduce"
type: "ReLU"
bottom: "inception_3b/5x5_reduce"
top: "inception_3b/5x5_reduce"
}
layer {
name: "inception_3b/5x5"
type: "Convolution"
bottom: "inception_3b/5x5_reduce"
top: "inception_3b/5x5"
param {
lr_mult: 1
decay_mult: 1
}
param {
lr_mult: 2
decay_mult: 0
}
convolution_param {
num_output: 96
pad: 2
kernel_size: 5
weight_filler {
type: "xavier"
std: 0.03
}
bias_filler {
type: "constant"
value: 0.2
}
}
}
layer {
name: "inception_3b/relu_5x5"
type: "ReLU"
bottom: "inception_3b/5x5"
top: "inception_3b/5x5"
}
layer {
name: "inception_3b/pool"
type: "Pooling"
bottom: "inception_3a/output"
top: "inception_3b/pool"
pooling_param {
pool: MAX
kernel_size: 3
stride: 1
pad: 1
}
}
layer {
name: "inception_3b/pool_proj"
type: "Convolution"
bottom: "inception_3b/pool"
top: "inception_3b/pool_proj"
param {
lr_mult: 1
decay_mult: 1
}
param {
lr_mult: 2
decay_mult: 0
}
convolution_param {
num_output: 64
kernel_size: 1
weight_filler {
type: "xavier"
std: 0.1
}
bias_filler {
type: "constant"
value: 0.2
}
}
}
layer {
name: "inception_3b/relu_pool_proj"
type: "ReLU"
bottom: "inception_3b/pool_proj"
top: "inception_3b/pool_proj"
}
layer {
name: "inception_3b/output"
type: "Concat"
bottom: "inception_3b/1x1"
bottom: "inception_3b/3x3"
bottom: "inception_3b/5x5"
bottom: "inception_3b/pool_proj"
top: "inception_3b/output"
}
layer {
name: "pool3/3x3_s2"
type: "Pooling"
bottom: "inception_3b/output"
top: "pool3/3x3_s2"
pooling_param {
pool: MAX
kernel_size: 3
stride: 2
}
}
layer {
name: "inception_4a/1x1"
type: "Convolution"
bottom: "pool3/3x3_s2"
top: "inception_4a/1x1"
param {
lr_mult: 1
decay_mult: 1
}
param {
lr_mult: 2
decay_mult: 0
}
convolution_param {
num_output: 192
kernel_size: 1
weight_filler {
type: "xavier"
std: 0.03
}
bias_filler {
type: "constant"
value: 0.2
}
}
}
layer {
name: "inception_4a/relu_1x1"
type: "ReLU"
bottom: "inception_4a/1x1"
top: "inception_4a/1x1"
}
layer {
name: "inception_4a/3x3_reduce"
type: "Convolution"
bottom: "pool3/3x3_s2"
top: "inception_4a/3x3_reduce"
param {
lr_mult: 1
decay_mult: 1
}
param {
lr_mult: 2
decay_mult: 0
}
convolution_param {
num_output: 96
kernel_size: 1
weight_filler {
type: "xavier"
std: 0.09
}
bias_filler {
type: "constant"
value: 0.2
}
}
}
layer {
name: "inception_4a/relu_3x3_reduce"
type: "ReLU"
bottom: "inception_4a/3x3_reduce"
top: "inception_4a/3x3_reduce"
}
layer {
name: "inception_4a/3x3"
type: "Convolution"
bottom: "inception_4a/3x3_reduce"
top: "inception_4a/3x3"
param {
lr_mult: 1
decay_mult: 1
}
param {
lr_mult: 2
decay_mult: 0
}
convolution_param {
num_output: 208
pad: 1
kernel_size: 3
weight_filler {
type: "xavier"
std: 0.03
}
bias_filler {
type: "constant"
value: 0.2
}
}
}
layer {
name: "inception_4a/relu_3x3"
type: "ReLU"
bottom: "inception_4a/3x3"
top: "inception_4a/3x3"
}
layer {
name: "inception_4a/5x5_reduce"
type: "Convolution"
bottom: "pool3/3x3_s2"
top: "inception_4a/5x5_reduce"
param {
lr_mult: 1
decay_mult: 1
}
param {
lr_mult: 2
decay_mult: 0
}
convolution_param {
num_output: 16
kernel_size: 1
weight_filler {
type: "xavier"
std: 0.2
}
bias_filler {
type: "constant"
value: 0.2
}
}
}
layer {
name: "inception_4a/relu_5x5_reduce"
type: "ReLU"
bottom: "inception_4a/5x5_reduce"
top: "inception_4a/5x5_reduce"
}
layer {
name: "inception_4a/5x5"
type: "Convolution"
bottom: "inception_4a/5x5_reduce"
top: "inception_4a/5x5"
param {
lr_mult: 1
decay_mult: 1
}
param {
lr_mult: 2
decay_mult: 0
}
convolution_param {
num_output: 48
pad: 2
kernel_size: 5
weight_filler {
type: "xavier"
std: 0.03
}
bias_filler {
type: "constant"
value: 0.2
}
}
}
layer {
name: "inception_4a/relu_5x5"
type: "ReLU"
bottom: "inception_4a/5x5"
top: "inception_4a/5x5"
}
layer {
name: "inception_4a/pool"
type: "Pooling"
bottom: "pool3/3x3_s2"
top: "inception_4a/pool"
pooling_param {
pool: MAX
kernel_size: 3
stride: 1
pad: 1
}
}
layer {
name: "inception_4a/pool_proj"
type: "Convolution"
bottom: "inception_4a/pool"
top: "inception_4a/pool_proj"
param {
lr_mult: 1
decay_mult: 1
}
param {
lr_mult: 2
decay_mult: 0
}
convolution_param {
num_output: 64
kernel_size: 1
weight_filler {
type: "xavier"
std: 0.1
}
bias_filler {
type: "constant"
value: 0.2
}
}
}
layer {
name: "inception_4a/relu_pool_proj"
type: "ReLU"
bottom: "inception_4a/pool_proj"
top: "inception_4a/pool_proj"
}
layer {
name: "inception_4a/output"
type: "Concat"
bottom: "inception_4a/1x1"
bottom: "inception_4a/3x3"
bottom: "inception_4a/5x5"
bottom: "inception_4a/pool_proj"
top: "inception_4a/output"
}
layer {
name: "loss1/ave_pool"
type: "Pooling"
bottom: "inception_4a/output"
top: "loss1/ave_pool"
pooling_param {
pool: AVE
kernel_size: 5
stride: 3
}
}
layer {
name: "loss1/conv"
type: "Convolution"
bottom: "loss1/ave_pool"
top: "loss1/conv"
param {
lr_mult: 1
decay_mult: 1
}
param {
lr_mult: 2
decay_mult: 0
}
convolution_param {
num_output: 128
kernel_size: 1
weight_filler {
type: "xavier"
std: 0.08
}
bias_filler {
type: "constant"
value: 0.2
}
}
}
layer {
name: "loss1/relu_conv"
type: "ReLU"
bottom: "loss1/conv"
top: "loss1/conv"
}
layer {
name: "loss1/fc"
type: "InnerProduct"
bottom: "loss1/conv"
top: "loss1/fc"
param {
lr_mult: 1
decay_mult: 1
}
param {
lr_mult: 2
decay_mult: 0
}
inner_product_param {
num_output: 1024
weight_filler {
type: "xavier"
std: 0.02
}
bias_filler {
type: "constant"
value: 0.2
}
}
}
layer {
name: "loss1/relu_fc"
type: "ReLU"
bottom: "loss1/fc"
top: "loss1/fc"
}
layer {
name: "loss1/drop_fc"
type: "Dropout"
bottom: "loss1/fc"
top: "loss1/fc"
dropout_param {
dropout_ratio: 0.7
}
}
layer {
name: "loss1/classifier"
type: "InnerProduct"
bottom: "loss1/fc"
top: "loss1/classifier"
param {
lr_mult: 1
decay_mult: 1
}
param {
lr_mult: 2
decay_mult: 0
}
inner_product_param {
num_output: 196
weight_filler {
type: "xavier"
std: 0.0009765625
}
bias_filler {
type: "constant"
value: 0
}
}
}
layer {
name: "loss1/loss"
type: "SoftmaxWithLoss"
bottom: "loss1/classifier"
bottom: "label"
top: "loss1/loss"
loss_weight: 0.3
}
layer {
name: "loss1/top-1"
type: "Accuracy"
bottom: "loss1/classifier"
bottom: "label"
top: "loss1/accuracy"
include {
phase: TEST
}
}
layer {
name: "loss1/top-5"
type: "Accuracy"
bottom: "loss1/classifier"
bottom: "label"
top: "loss1/accuracy-top5"
include {
phase: TEST
}
accuracy_param {
top_k: 5
}
}
layer {
name: "inception_4b/1x1"
type: "Convolution"
bottom: "inception_4a/output"
top: "inception_4b/1x1"
param {
lr_mult: 1
decay_mult: 1
}
param {
lr_mult: 2
decay_mult: 0
}
convolution_param {
num_output: 160
kernel_size: 1
weight_filler {
type: "xavier"
std: 0.03
}
bias_filler {
type: "constant"
value: 0.2
}
}
}
layer {
name: "inception_4b/relu_1x1"
type: "ReLU"
bottom: "inception_4b/1x1"
top: "inception_4b/1x1"
}
layer {
name: "inception_4b/3x3_reduce"
type: "Convolution"
bottom: "inception_4a/output"
top: "inception_4b/3x3_reduce"
param {
lr_mult: 1
decay_mult: 1
}
param {
lr_mult: 2
decay_mult: 0
}
convolution_param {
num_output: 112
kernel_size: 1
weight_filler {
type: "xavier"
std: 0.09
}
bias_filler {
type: "constant"
value: 0.2
}
}
}
layer {
name: "inception_4b/relu_3x3_reduce"
type: "ReLU"
bottom: "inception_4b/3x3_reduce"
top: "inception_4b/3x3_reduce"
}
layer {
name: "inception_4b/3x3"
type: "Convolution"
bottom: "inception_4b/3x3_reduce"
top: "inception_4b/3x3"
param {
lr_mult: 1
decay_mult: 1
}
param {
lr_mult: 2
decay_mult: 0
}
convolution_param {
num_output: 224
pad: 1
kernel_size: 3
weight_filler {
type: "xavier"
std: 0.03
}
bias_filler {
type: "constant"
value: 0.2
}
}
}
layer {
name: "inception_4b/relu_3x3"
type: "ReLU"
bottom: "inception_4b/3x3"
top: "inception_4b/3x3"
}
layer {
name: "inception_4b/5x5_reduce"
type: "Convolution"
bottom: "inception_4a/output"
top: "inception_4b/5x5_reduce"
param {
lr_mult: 1
decay_mult: 1
}
param {
lr_mult: 2
decay_mult: 0
}
convolution_param {
num_output: 24
kernel_size: 1
weight_filler {
type: "xavier"
std: 0.2
}
bias_filler {
type: "constant"
value: 0.2
}
}
}
layer {
name: "inception_4b/relu_5x5_reduce"
type: "ReLU"
bottom: "inception_4b/5x5_reduce"
top: "inception_4b/5x5_reduce"
}
layer {
name: "inception_4b/5x5"
type: "Convolution"
bottom: "inception_4b/5x5_reduce"
top: "inception_4b/5x5"
param {
lr_mult: 1
decay_mult: 1
}
param {
lr_mult: 2
decay_mult: 0
}
convolution_param {
num_output: 64
pad: 2
kernel_size: 5
weight_filler {
type: "xavier"
std: 0.03
}
bias_filler {
type: "constant"
value: 0.2
}
}
}
layer {
name: "inception_4b/relu_5x5"
type: "ReLU"
bottom: "inception_4b/5x5"
top: "inception_4b/5x5"
}
layer {
name: "inception_4b/pool"
type: "Pooling"
bottom: "inception_4a/output"
top: "inception_4b/pool"
pooling_param {
pool: MAX
kernel_size: 3
stride: 1
pad: 1
}
}
layer {
name: "inception_4b/pool_proj"
type: "Convolution"
bottom: "inception_4b/pool"
top: "inception_4b/pool_proj"
param {
lr_mult: 1
decay_mult: 1
}
param {
lr_mult: 2
decay_mult: 0
}
convolution_param {
num_output: 64
kernel_size: 1
weight_filler {
type: "xavier"
std: 0.1
}
bias_filler {
type: "constant"
value: 0.2
}
}
}
layer {
name: "inception_4b/relu_pool_proj"
type: "ReLU"
bottom: "inception_4b/pool_proj"
top: "inception_4b/pool_proj"
}
layer {
name: "inception_4b/output"
type: "Concat"
bottom: "inception_4b/1x1"
bottom: "inception_4b/3x3"
bottom: "inception_4b/5x5"
bottom: "inception_4b/pool_proj"
top: "inception_4b/output"
}
layer {
name: "inception_4c/1x1"
type: "Convolution"
bottom: "inception_4b/output"
top: "inception_4c/1x1"
param {
lr_mult: 1
decay_mult: 1
}
param {
lr_mult: 2
decay_mult: 0
}
convolution_param {
num_output: 128
kernel_size: 1
weight_filler {
type: "xavier"
std: 0.03
}
bias_filler {
type: "constant"
value: 0.2
}
}
}
layer {
name: "inception_4c/relu_1x1"
type: "ReLU"
bottom: "inception_4c/1x1"
top: "inception_4c/1x1"
}
layer {
name: "inception_4c/3x3_reduce"
type: "Convolution"
bottom: "inception_4b/output"
top: "inception_4c/3x3_reduce"
param {
lr_mult: 1
decay_mult: 1
}
param {
lr_mult: 2
decay_mult: 0
}
convolution_param {
num_output: 128
kernel_size: 1
weight_filler {
type: "xavier"
std: 0.09
}
bias_filler {
type: "constant"
value: 0.2
}
}
}
layer {
name: "inception_4c/relu_3x3_reduce"
type: "ReLU"
bottom: "inception_4c/3x3_reduce"
top: "inception_4c/3x3_reduce"
}
layer {
name: "inception_4c/3x3"
type: "Convolution"
bottom: "inception_4c/3x3_reduce"
top: "inception_4c/3x3"
param {
lr_mult: 1
decay_mult: 1
}
param {
lr_mult: 2
decay_mult: 0
}
convolution_param {
num_output: 256
pad: 1
kernel_size: 3
weight_filler {
type: "xavier"
std: 0.03
}
bias_filler {
type: "constant"
value: 0.2
}
}
}
layer {
name: "inception_4c/relu_3x3"
type: "ReLU"
bottom: "inception_4c/3x3"
top: "inception_4c/3x3"
}
layer {
name: "inception_4c/5x5_reduce"
type: "Convolution"
bottom: "inception_4b/output"
top: "inception_4c/5x5_reduce"
param {
lr_mult: 1
decay_mult: 1
}
param {
lr_mult: 2
decay_mult: 0
}
convolution_param {
num_output: 24
kernel_size: 1
weight_filler {
type: "xavier"
std: 0.2
}
bias_filler {
type: "constant"
value: 0.2
}
}
}
layer {
name: "inception_4c/relu_5x5_reduce"
type: "ReLU"
bottom: "inception_4c/5x5_reduce"
top: "inception_4c/5x5_reduce"
}
layer {
name: "inception_4c/5x5"
type: "Convolution"
bottom: "inception_4c/5x5_reduce"
top: "inception_4c/5x5"
param {
lr_mult: 1
decay_mult: 1
}
param {
lr_mult: 2
decay_mult: 0
}
convolution_param {
num_output: 64
pad: 2
kernel_size: 5
weight_filler {
type: "xavier"
std: 0.03
}
bias_filler {
type: "constant"
value: 0.2
}
}
}
layer {
name: "inception_4c/relu_5x5"
type: "ReLU"
bottom: "inception_4c/5x5"
top: "inception_4c/5x5"
}
layer {
name: "inception_4c/pool"
type: "Pooling"
bottom: "inception_4b/output"
top: "inception_4c/pool"
pooling_param {
pool: MAX
kernel_size: 3
stride: 1
pad: 1
}
}
layer {
name: "inception_4c/pool_proj"
type: "Convolution"
bottom: "inception_4c/pool"
top: "inception_4c/pool_proj"
param {
lr_mult: 1
decay_mult: 1
}
param {
lr_mult: 2
decay_mult: 0
}
convolution_param {
num_output: 64
kernel_size: 1
weight_filler {
type: "xavier"
std: 0.1
}
bias_filler {
type: "constant"
value: 0.2
}
}
}
layer {
name: "inception_4c/relu_pool_proj"
type: "ReLU"
bottom: "inception_4c/pool_proj"
top: "inception_4c/pool_proj"
}
layer {
name: "inception_4c/output"
type: "Concat"
bottom: "inception_4c/1x1"
bottom: "inception_4c/3x3"
bottom: "inception_4c/5x5"
bottom: "inception_4c/pool_proj"
top: "inception_4c/output"
}
layer {
name: "inception_4d/1x1"
type: "Convolution"
bottom: "inception_4c/output"
top: "inception_4d/1x1"
param {
lr_mult: 1
decay_mult: 1
}
param {
lr_mult: 2
decay_mult: 0
}
convolution_param {
num_output: 112
kernel_size: 1
weight_filler {
type: "xavier"
std: 0.03
}
bias_filler {
type: "constant"
value: 0.2
}
}
}
layer {
name: "inception_4d/relu_1x1"
…
I0511 18:26:46.221093 29693 net.cpp:122] Setting up inception_4c/relu_5x5
I0511 18:26:46.221112 29693 net.cpp:129] Top shape: 16 64 14 14 (200704)
I0511 18:26:46.221115 29693 net.cpp:137] Memory required for data: 700688012
I0511 18:26:46.221120 29693 layer_factory.hpp:77] Creating layer inception_4c/pool
I0511 18:26:46.221129 29693 net.cpp:84] Creating Layer inception_4c/pool
I0511 18:26:46.221135 29693 net.cpp:406] inception_4c/pool <- inception_4b/output_inception_4b/output_0_split_3
I0511 18:26:46.221145 29693 net.cpp:380] inception_4c/pool -> inception_4c/pool
I0511 18:26:46.221202 29693 net.cpp:122] Setting up inception_4c/pool
I0511 18:26:46.221213 29693 net.cpp:129] Top shape: 16 512 14 14 (1605632)
I0511 18:26:46.221217 29693 net.cpp:137] Memory required for data: 707110540
I0511 18:26:46.221221 29693 layer_factory.hpp:77] Creating layer inception_4c/pool_proj
I0511 18:26:46.221236 29693 net.cpp:84] Creating Layer inception_4c/pool_proj
I0511 18:26:46.221242 29693 net.cpp:406] inception_4c/pool_proj <- inception_4c/pool
I0511 18:26:46.221249 29693 net.cpp:380] inception_4c/pool_proj -> inception_4c/pool_proj
I0511 18:26:46.224545 29693 net.cpp:122] Setting up inception_4c/pool_proj
I0511 18:26:46.224560 29693 net.cpp:129] Top shape: 16 64 14 14 (200704)
I0511 18:26:46.224565 29693 net.cpp:137] Memory required for data: 707913356
I0511 18:26:46.224573 29693 layer_factory.hpp:77] Creating layer inception_4c/relu_pool_proj
I0511 18:26:46.224586 29693 net.cpp:84] Creating Layer inception_4c/relu_pool_proj
I0511 18:26:46.224591 29693 net.cpp:406] inception_4c/relu_pool_proj <- inception_4c/pool_proj
I0511 18:26:46.224597 29693 net.cpp:367] inception_4c/relu_pool_proj -> inception_4c/pool_proj (in-place)
I0511 18:26:46.225425 29693 net.cpp:122] Setting up inception_4c/relu_pool_proj
I0511 18:26:46.225436 29693 net.cpp:129] Top shape: 16 64 14 14 (200704)
I0511 18:26:46.225440 29693 net.cpp:137] Memory required for data: 708716172
I0511 18:26:46.225445 29693 layer_factory.hpp:77] Creating layer inception_4c/output
I0511 18:26:46.225453 29693 net.cpp:84] Creating Layer inception_4c/output
I0511 18:26:46.225462 29693 net.cpp:406] inception_4c/output <- inception_4c/1x1
I0511 18:26:46.225494 29693 net.cpp:406] inception_4c/output <- inception_4c/3x3
I0511 18:26:46.225500 29693 net.cpp:406] inception_4c/output <- inception_4c/5x5
I0511 18:26:46.225507 29693 net.cpp:406] inception_4c/output <- inception_4c/pool_proj
I0511 18:26:46.225513 29693 net.cpp:380] inception_4c/output -> inception_4c/output
I0511 18:26:46.225553 29693 net.cpp:122] Setting up inception_4c/output
I0511 18:26:46.225560 29693 net.cpp:129] Top shape: 16 512 14 14 (1605632)
I0511 18:26:46.225564 29693 net.cpp:137] Memory required for data: 715138700
I0511 18:26:46.225569 29693 layer_factory.hpp:77] Creating layer inception_4c/output_inception_4c/output_0_split
I0511 18:26:46.225577 29693 net.cpp:84] Creating Layer inception_4c/output_inception_4c/output_0_split
I0511 18:26:46.225581 29693 net.cpp:406] inception_4c/output_inception_4c/output_0_split <- inception_4c/output
I0511 18:26:46.225590 29693 net.cpp:380] inception_4c/output_inception_4c/output_0_split -> inception_4c/output_inception_4c/output_0_split_0
I0511 18:26:46.225600 29693 net.cpp:380] inception_4c/output_inception_4c/output_0_split -> inception_4c/output_inception_4c/output_0_split_1
I0511 18:26:46.225608 29693 net.cpp:380] inception_4c/output_inception_4c/output_0_split -> inception_4c/output_inception_4c/output_0_split_2
I0511 18:26:46.225618 29693 net.cpp:380] inception_4c/output_inception_4c/output_0_split -> inception_4c/output_inception_4c/output_0_split_3
I0511 18:26:46.225692 29693 net.cpp:122] Setting up inception_4c/output_inception_4c/output_0_split
I0511 18:26:46.225699 29693 net.cpp:129] Top shape: 16 512 14 14 (1605632)
I0511 18:26:46.225705 29693 net.cpp:129] Top shape: 16 512 14 14 (1605632)
I0511 18:26:46.225710 29693 net.cpp:129] Top shape: 16 512 14 14 (1605632)
I0511 18:26:46.225716 29693 net.cpp:129] Top shape: 16 512 14 14 (1605632)
I0511 18:26:46.225720 29693 net.cpp:137] Memory required for data: 740828812
I0511 18:26:46.225724 29693 layer_factory.hpp:77] Creating layer inception_4d/1x1
I0511 18:26:46.225736 29693 net.cpp:84] Creating Layer inception_4d/1x1
I0511 18:26:46.225741 29693 net.cpp:406] inception_4d/1x1 <- inception_4c/output_inception_4c/output_0_split_0
I0511 18:26:46.225751 29693 net.cpp:380] inception_4d/1x1 -> inception_4d/1x1
I0511 18:26:46.229477 29693 net.cpp:122] Setting up inception_4d/1x1
I0511 18:26:46.229490 29693 net.cpp:129] Top shape: 16 112 14 14 (351232)
I0511 18:26:46.229496 29693 net.cpp:137] Memory required for data: 742233740
I0511 18:26:46.229504 29693 layer_factory.hpp:77] Creating layer inception_4d/relu_1x1
I0511 18:26:46.229511 29693 net.cpp:84] Creating Layer inception_4d/relu_1x1
I0511 18:26:46.229516 29693 net.cpp:406] inception_4d/relu_1x1 <- inception_4d/1x1
I0511 18:26:46.229526 29693 net.cpp:367] inception_4d/relu_1x1 -> inception_4d/1x1 (in-place)
I0511 18:26:46.230347 29693 net.cpp:122] Setting up inception_4d/relu_1x1
I0511 18:26:46.230360 29693 net.cpp:129] Top shape: 16 112 14 14 (351232)
I0511 18:26:46.230365 29693 net.cpp:137] Memory required for data: 743638668
I0511 18:26:46.230370 29693 layer_factory.hpp:77] Creating layer inception_4d/3x3_reduce
I0511 18:26:46.230383 29693 net.cpp:84] Creating Layer inception_4d/3x3_reduce
I0511 18:26:46.230389 29693 net.cpp:406] inception_4d/3x3_reduce <- inception_4c/output_inception_4c/output_0_split_1
I0511 18:26:46.230398 29693 net.cpp:380] inception_4d/3x3_reduce -> inception_4d/3x3_reduce
I0511 18:26:46.236624 29693 net.cpp:122] Setting up inception_4d/3x3_reduce
I0511 18:26:46.236642 29693 net.cpp:129] Top shape: 16 144 14 14 (451584)
I0511 18:26:46.236647 29693 net.cpp:137] Memory required for data: 745445004
I0511 18:26:46.236658 29693 layer_factory.hpp:77] Creating layer inception_4d/relu_3x3_reduce
I0511 18:26:46.236670 29693 net.cpp:84] Creating Layer inception_4d/relu_3x3_reduce
I0511 18:26:46.236676 29693 net.cpp:406] inception_4d/relu_3x3_reduce <- inception_4d/3x3_reduce
I0511 18:26:46.236685 29693 net.cpp:367] inception_4d/relu_3x3_reduce -> inception_4d/3x3_reduce (in-place)
I0511 18:26:46.237267 29693 net.cpp:122] Setting up inception_4d/relu_3x3_reduce
I0511 18:26:46.237300 29693 net.cpp:129] Top shape: 16 144 14 14 (451584)
I0511 18:26:46.237305 29693 net.cpp:137] Memory required for data: 747251340
I0511 18:26:46.237309 29693 layer_factory.hpp:77] Creating layer inception_4d/3x3
I0511 18:26:46.237324 29693 net.cpp:84] Creating Layer inception_4d/3x3
I0511 18:26:46.237329 29693 net.cpp:406] inception_4d/3x3 <- inception_4d/3x3_reduce
I0511 18:26:46.237339 29693 net.cpp:380] inception_4d/3x3 -> inception_4d/3x3
I0511 18:26:46.245180 29693 net.cpp:122] Setting up inception_4d/3x3
I0511 18:26:46.245196 29693 net.cpp:129] Top shape: 16 288 14 14 (903168)
I0511 18:26:46.245201 29693 net.cpp:137] Memory required for data: 750864012
I0511 18:26:46.245211 29693 layer_factory.hpp:77] Creating layer inception_4d/relu_3x3
I0511 18:26:46.245219 29693 net.cpp:84] Creating Layer inception_4d/relu_3x3
I0511 18:26:46.245225 29693 net.cpp:406] inception_4d/relu_3x3 <- inception_4d/3x3
I0511 18:26:46.245234 29693 net.cpp:367] inception_4d/relu_3x3 -> inception_4d/3x3 (in-place)
I0511 18:26:46.245810 29693 net.cpp:122] Setting up inception_4d/relu_3x3
I0511 18:26:46.245822 29693 net.cpp:129] Top shape: 16 288 14 14 (903168)
I0511 18:26:46.245826 29693 net.cpp:137] Memory required for data: 754476684
I0511 18:26:46.245831 29693 layer_factory.hpp:77] Creating layer inception_4d/5x5_reduce
I0511 18:26:46.245844 29693 net.cpp:84] Creating Layer inception_4d/5x5_reduce
I0511 18:26:46.245849 29693 net.cpp:406] inception_4d/5x5_reduce <- inception_4c/output_inception_4c/output_0_split_2
I0511 18:26:46.245860 29693 net.cpp:380] inception_4d/5x5_reduce -> inception_4d/5x5_reduce
I0511 18:26:46.251919 29693 net.cpp:122] Setting up inception_4d/5x5_reduce
I0511 18:26:46.251940 29693 net.cpp:129] Top shape: 16 32 14 14 (100352)
I0511 18:26:46.251946 29693 net.cpp:137] Memory required for data: 754878092
I0511 18:26:46.251960 29693 layer_factory.hpp:77] Creating layer inception_4d/relu_5x5_reduce
I0511 18:26:46.251974 29693 net.cpp:84] Creating Layer inception_4d/relu_5x5_reduce
I0511 18:26:46.251981 29693 net.cpp:406] inception_4d/relu_5x5_reduce <- inception_4d/5x5_reduce
I0511 18:26:46.251991 29693 net.cpp:367] inception_4d/relu_5x5_reduce -> inception_4d/5x5_reduce (in-place)
I0511 18:26:46.252928 29693 net.cpp:122] Setting up inception_4d/relu_5x5_reduce
I0511 18:26:46.252940 29693 net.cpp:129] Top shape: 16 32 14 14 (100352)
I0511 18:26:46.252944 29693 net.cpp:137] Memory required for data: 755279500
I0511 18:26:46.252949 29693 layer_factory.hpp:77] Creating layer inception_4d/5x5
I0511 18:26:46.252964 29693 net.cpp:84] Creating Layer inception_4d/5x5
I0511 18:26:46.252969 29693 net.cpp:406] inception_4d/5x5 <- inception_4d/5x5_reduce
I0511 18:26:46.252979 29693 net.cpp:380] inception_4d/5x5 -> inception_4d/5x5
I0511 18:26:46.256433 29693 net.cpp:122] Setting up inception_4d/5x5
I0511 18:26:46.256448 29693 net.cpp:129] Top shape: 16 64 14 14 (200704)
I0511 18:26:46.256451 29693 net.cpp:137] Memory required for data: 756082316
I0511 18:26:46.256460 29693 layer_factory.hpp:77] Creating layer inception_4d/relu_5x5
I0511 18:26:46.256467 29693 net.cpp:84] Creating Layer inception_4d/relu_5x5
I0511 18:26:46.256472 29693 net.cpp:406] inception_4d/relu_5x5 <- inception_4d/5x5
I0511 18:26:46.256479 29693 net.cpp:367] inception_4d/relu_5x5 -> inception_4d/5x5 (in-place)
I0511 18:26:46.257275 29693 net.cpp:122] Setting up inception_4d/relu_5x5
I0511 18:26:46.257287 29693 net.cpp:129] Top shape: 16 64 14 14 (200704)
I0511 18:26:46.257292 29693 net.cpp:137] Memory required for data: 756885132
I0511 18:26:46.257297 29693 layer_factory.hpp:77] Creating layer inception_4d/pool
I0511 18:26:46.257309 29693 net.cpp:84] Creating Layer inception_4d/pool
I0511 18:26:46.257314 29693 net.cpp:406] inception_4d/pool <- inception_4c/output_inception_4c/output_0_split_3
I0511 18:26:46.257323 29693 net.cpp:380] inception_4d/pool -> inception_4d/pool
I0511 18:26:46.257380 29693 net.cpp:122] Setting up inception_4d/pool
I0511 18:26:46.257387 29693 net.cpp:129] Top shape: 16 512 14 14 (1605632)
I0511 18:26:46.257417 29693 net.cpp:137] Memory required for data: 763307660
I0511 18:26:46.257422 29693 layer_factory.hpp:77] Creating layer inception_4d/pool_proj
I0511 18:26:46.257434 29693 net.cpp:84] Creating Layer inception_4d/pool_proj
I0511 18:26:46.257439 29693 net.cpp:406] inception_4d/pool_proj <- inception_4d/pool
I0511 18:26:46.257448 29693 net.cpp:380] inception_4d/pool_proj -> inception_4d/pool_proj
I0511 18:26:46.261123 29693 net.cpp:122] Setting up inception_4d/pool_proj
I0511 18:26:46.261137 29693 net.cpp:129] Top shape: 16 64 14 14 (200704)
I0511 18:26:46.261140 29693 net.cpp:137] Memory required for data: 764110476
I0511 18:26:46.261148 29693 layer_factory.hpp:77] Creating layer inception_4d/relu_pool_proj
I0511 18:26:46.261157 29693 net.cpp:84] Creating Layer inception_4d/relu_pool_proj
I0511 18:26:46.261162 29693 net.cpp:406] inception_4d/relu_pool_proj <- inception_4d/pool_proj
I0511 18:26:46.261169 29693 net.cpp:367] inception_4d/relu_pool_proj -> inception_4d/pool_proj (in-place)
I0511 18:26:46.261963 29693 net.cpp:122] Setting up inception_4d/relu_pool_proj
I0511 18:26:46.261979 29693 net.cpp:129] Top shape: 16 64 14 14 (200704)
I0511 18:26:46.261984 29693 net.cpp:137] Memory required for data: 764913292
I0511 18:26:46.261988 29693 layer_factory.hpp:77] Creating layer inception_4d/output
I0511 18:26:46.261996 29693 net.cpp:84] Creating Layer inception_4d/output
I0511 18:26:46.262001 29693 net.cpp:406] inception_4d/output <- inception_4d/1x1
I0511 18:26:46.262007 29693 net.cpp:406] inception_4d/output <- inception_4d/3x3
I0511 18:26:46.262012 29693 net.cpp:406] inception_4d/output <- inception_4d/5x5
I0511 18:26:46.262017 29693 net.cpp:406] inception_4d/output <- inception_4d/pool_proj
I0511 18:26:46.262027 29693 net.cpp:380] inception_4d/output -> inception_4d/output
I0511 18:26:46.262061 29693 net.cpp:122] Setting up inception_4d/output
I0511 18:26:46.262068 29693 net.cpp:129] Top shape: 16 528 14 14 (1655808)
I0511 18:26:46.262073 29693 net.cpp:137] Memory required for data: 771536524
I0511 18:26:46.262076 29693 layer_factory.hpp:77] Creating layer inception_4d/output_inception_4d/output_0_split
I0511 18:26:46.262089 29693 net.cpp:84] Creating Layer inception_4d/output_inception_4d/output_0_split
I0511 18:26:46.262094 29693 net.cpp:406] inception_4d/output_inception_4d/output_0_split <- inception_4d/output
I0511 18:26:46.262101 29693 net.cpp:380] inception_4d/output_inception_4d/output_0_split -> inception_4d/output_inception_4d/output_0_split_0
I0511 18:26:46.262110 29693 net.cpp:380] inception_4d/output_inception_4d/output_0_split -> inception_4d/output_inception_4d/output_0_split_1
I0511 18:26:46.262118 29693 net.cpp:380] inception_4d/output_inception_4d/output_0_split -> inception_4d/output_inception_4d/output_0_split_2
I0511 18:26:46.262125 29693 net.cpp:380] inception_4d/output_inception_4d/output_0_split -> inception_4d/output_inception_4d/output_0_split_3
I0511 18:26:46.262135 29693 net.cpp:380] inception_4d/output_inception_4d/output_0_split -> inception_4d/output_inception_4d/output_0_split_4
I0511 18:26:46.262218 29693 net.cpp:122] Setting up inception_4d/output_inception_4d/output_0_split
I0511 18:26:46.262225 29693 net.cpp:129] Top shape: 16 528 14 14 (1655808)
I0511 18:26:46.262230 29693 net.cpp:129] Top shape: 16 528 14 14 (1655808)
I0511 18:26:46.262235 29693 net.cpp:129] Top shape: 16 528 14 14 (1655808)
I0511 18:26:46.262240 29693 net.cpp:129] Top shape: 16 528 14 14 (1655808)
I0511 18:26:46.262245 29693 net.cpp:129] Top shape: 16 528 14 14 (1655808)
I0511 18:26:46.262249 29693 net.cpp:137] Memory required for data: 804652684
I0511 18:26:46.262253 29693 layer_factory.hpp:77] Creating layer loss2/ave_pool
I0511 18:26:46.262260 29693 net.cpp:84] Creating Layer loss2/ave_pool
I0511 18:26:46.262265 29693 net.cpp:406] loss2/ave_pool <- inception_4d/output_inception_4d/output_0_split_0
I0511 18:26:46.262275 29693 net.cpp:380] loss2/ave_pool -> loss2/ave_pool
I0511 18:26:46.265542 29693 net.cpp:122] Setting up loss2/ave_pool
I0511 18:26:46.265558 29693 net.cpp:129] Top shape: 16 528 4 4 (135168)
I0511 18:26:46.265583 29693 net.cpp:137] Memory required for data: 805193356
I0511 18:26:46.265588 29693 layer_factory.hpp:77] Creating layer loss2/conv
I0511 18:26:46.265604 29693 net.cpp:84] Creating Layer loss2/conv
I0511 18:26:46.265609 29693 net.cpp:406] loss2/conv <- loss2/ave_pool
I0511 18:26:46.265616 29693 net.cpp:380] loss2/conv -> loss2/conv
I0511 18:26:46.269284 29693 net.cpp:122] Setting up loss2/conv
I0511 18:26:46.269302 29693 net.cpp:129] Top shape: 16 128 4 4 (32768)
I0511 18:26:46.269307 29693 net.cpp:137] Memory required for data: 805324428
I0511 18:26:46.269320 29693 layer_factory.hpp:77] Creating layer loss2/relu_conv
I0511 18:26:46.269330 29693 net.cpp:84] Creating Layer loss2/relu_conv
I0511 18:26:46.269335 29693 net.cpp:406] loss2/relu_conv <- loss2/conv
I0511 18:26:46.269347 29693 net.cpp:367] loss2/relu_conv -> loss2/conv (in-place)
I0511 18:26:46.270393 29693 net.cpp:122] Setting up loss2/relu_conv
I0511 18:26:46.270411 29693 net.cpp:129] Top shape: 16 128 4 4 (32768)
I0511 18:26:46.270417 29693 net.cpp:137] Memory required for data: 805455500
I0511 18:26:46.270423 29693 layer_factory.hpp:77] Creating layer loss2/fc
I0511 18:26:46.270434 29693 net.cpp:84] Creating Layer loss2/fc
I0511 18:26:46.270442 29693 net.cpp:406] loss2/fc <- loss2/conv
I0511 18:26:46.270455 29693 net.cpp:380] loss2/fc -> loss2/fc
I0511 18:26:46.292966 29693 net.cpp:122] Setting up loss2/fc
I0511 18:26:46.292992 29693 net.cpp:129] Top shape: 16 1024 (16384)
I0511 18:26:46.292997 29693 net.cpp:137] Memory required for data: 805521036
I0511 18:26:46.293010 29693 layer_factory.hpp:77] Creating layer loss2/relu_fc
I0511 18:26:46.293021 29693 net.cpp:84] Creating Layer loss2/relu_fc
I0511 18:26:46.293030 29693 net.cpp:406] loss2/relu_fc <- loss2/fc
I0511 18:26:46.293041 29693 net.cpp:367] loss2/relu_fc -> loss2/fc (in-place)
I0511 18:26:46.294091 29693 net.cpp:122] Setting up loss2/relu_fc
I0511 18:26:46.294103 29693 net.cpp:129] Top shape: 16 1024 (16384)
I0511 18:26:46.294107 29693 net.cpp:137] Memory required for data: 805586572
I0511 18:26:46.294111 29693 layer_factory.hpp:77] Creating layer loss2/drop_fc
I0511 18:26:46.294122 29693 net.cpp:84] Creating Layer loss2/drop_fc
I0511 18:26:46.294127 29693 net.cpp:406] loss2/drop_fc <- loss2/fc
I0511 18:26:46.294134 29693 net.cpp:367] loss2/drop_fc -> loss2/fc (in-place)
I0511 18:26:46.294173 29693 net.cpp:122] Setting up loss2/drop_fc
I0511 18:26:46.294179 29693 net.cpp:129] Top shape: 16 1024 (16384)
I0511 18:26:46.294183 29693 net.cpp:137] Memory required for data: 805652108
I0511 18:26:46.294186 29693 layer_factory.hpp:77] Creating layer loss2/classifier
I0511 18:26:46.294198 29693 net.cpp:84] Creating Layer loss2/classifier
I0511 18:26:46.294203 29693 net.cpp:406] loss2/classifier <- loss2/fc
I0511 18:26:46.294209 29693 net.cpp:380] loss2/classifier -> loss2/classifier
I0511 18:26:46.304728 29693 net.cpp:122] Setting up loss2/classifier
I0511 18:26:46.304746 29693 net.cpp:129] Top shape: 16 196 (3136)
I0511 18:26:46.304751 29693 net.cpp:137] Memory required for data: 805664652
I0511 18:26:46.304764 29693 layer_factory.hpp:77] Creating layer loss2/classifier_loss2/classifier_0_split
I0511 18:26:46.304777 29693 net.cpp:84] Creating Layer loss2/classifier_loss2/classifier_0_split
I0511 18:26:46.304783 29693 net.cpp:406] loss2/classifier_loss2/classifier_0_split <- loss2/classifier
I0511 18:26:46.304795 29693 net.cpp:380] loss2/classifier_loss2/classifier_0_split -> loss2/classifier_loss2/classifier_0_split_0
I0511 18:26:46.304805 29693 net.cpp:380] loss2/classifier_loss2/classifier_0_split -> loss2/classifier_loss2/classifier_0_split_1
I0511 18:26:46.304814 29693 net.cpp:380] loss2/classifier_loss2/classifier_0_split -> loss2/classifier_loss2/classifier_0_split_2
I0511 18:26:46.304878 29693 net.cpp:122] Setting up loss2/classifier_loss2/classifier_0_split
I0511 18:26:46.304886 29693 net.cpp:129] Top shape: 16 196 (3136)
I0511 18:26:46.304891 29693 net.cpp:129] Top shape: 16 196 (3136)
I0511 18:26:46.304895 29693 net.cpp:129] Top shape: 16 196 (3136)
I0511 18:26:46.304924 29693 net.cpp:137] Memory required for data: 805702284
I0511 18:26:46.304929 29693 layer_factory.hpp:77] Creating layer loss2/loss
I0511 18:26:46.304939 29693 net.cpp:84] Creating Layer loss2/loss
I0511 18:26:46.304944 29693 net.cpp:406] loss2/loss <- loss2/classifier_loss2/classifier_0_split_0
I0511 18:26:46.304950 29693 net.cpp:406] loss2/loss <- label_val-data_1_split_3
…
I0511 18:26:46.305892 29693 net.cpp:122] Setting up loss2/top-5
I0511 18:26:46.305897 29693 net.cpp:129] Top shape: (1)
I0511 18:26:46.305902 29693 net.cpp:137] Memory required for data: 805702296
I0511 18:26:46.305905 29693 layer_factory.hpp:77] Creating layer inception_4e/1x1
I0511 18:26:46.305918 29693 net.cpp:84] Creating Layer inception_4e/1x1
I0511 18:26:46.305923 29693 net.cpp:406] inception_4e/1x1 <- inception_4d/output_inception_4d/output_0_split_1
I0511 18:26:46.305932 29693 net.cpp:380] inception_4e/1x1 -> inception_4e/1x1
I0511 18:26:46.310513 29693 net.cpp:122] Setting up inception_4e/1x1
I0511 18:26:46.310528 29693 net.cpp:129] Top shape: 16 256 14 14 (802816)
I0511 18:26:46.310533 29693 net.cpp:137] Memory required for data: 808913560
I0511 18:26:46.310541 29693 layer_factory.hpp:77] Creating layer inception_4e/relu_1x1
I0511 18:26:46.310549 29693 net.cpp:84] Creating Layer inception_4e/relu_1x1
I0511 18:26:46.310554 29693 net.cpp:406] inception_4e/relu_1x1 <- inception_4e/1x1
I0511 18:26:46.310561 29693 net.cpp:367] inception_4e/relu_1x1 -> inception_4e/1x1 (in-place)
I0511 18:26:46.313650 29693 net.cpp:122] Setting up inception_4e/relu_1x1
I0511 18:26:46.313669 29693 net.cpp:129] Top shape: 16 256 14 14 (802816)
I0511 18:26:46.313673 29693 net.cpp:137] Memory required for data: 812124824
I0511 18:26:46.313678 29693 layer_factory.hpp:77] Creating layer inception_4e/3x3_reduce
I0511 18:26:46.313724 29693 net.cpp:84] Creating Layer inception_4e/3x3_reduce
I0511 18:26:46.313731 29693 net.cpp:406] inception_4e/3x3_reduce <- inception_4d/output_inception_4d/output_0_split_2
I0511 18:26:46.313740 29693 net.cpp:380] inception_4e/3x3_reduce -> inception_4e/3x3_reduce
I0511 18:26:46.317806 29693 net.cpp:122] Setting up inception_4e/3x3_reduce
I0511 18:26:46.317819 29693 net.cpp:129] Top shape: 16 160 14 14 (501760)
I0511 18:26:46.317824 29693 net.cpp:137] Memory required for data: 814131864
I0511 18:26:46.317836 29693 layer_factory.hpp:77] Creating layer inception_4e/relu_3x3_reduce
I0511 18:26:46.317843 29693 net.cpp:84] Creating Layer inception_4e/relu_3x3_reduce
I0511 18:26:46.317848 29693 net.cpp:406] inception_4e/relu_3x3_reduce <- inception_4e/3x3_reduce
I0511 18:26:46.317857 29693 net.cpp:367] inception_4e/relu_3x3_reduce -> inception_4e/3x3_reduce (in-place)
I0511 18:26:46.318701 29693 net.cpp:122] Setting up inception_4e/relu_3x3_reduce
I0511 18:26:46.318712 29693 net.cpp:129] Top shape: 16 160 14 14 (501760)
I0511 18:26:46.318718 29693 net.cpp:137] Memory required for data: 816138904
I0511 18:26:46.318723 29693 layer_factory.hpp:77] Creating layer inception_4e/3x3
I0511 18:26:46.318737 29693 net.cpp:84] Creating Layer inception_4e/3x3
I0511 18:26:46.318742 29693 net.cpp:406] inception_4e/3x3 <- inception_4e/3x3_reduce
I0511 18:26:46.318750 29693 net.cpp:380] inception_4e/3x3 -> inception_4e/3x3
I0511 18:26:46.327481 29693 net.cpp:122] Setting up inception_4e/3x3
I0511 18:26:46.327509 29693 net.cpp:129] Top shape: 16 320 14 14 (1003520)
I0511 18:26:46.327514 29693 net.cpp:137] Memory required for data: 820152984
I0511 18:26:46.327527 29693 layer_factory.hpp:77] Creating layer inception_4e/relu_3x3
I0511 18:26:46.327540 29693 net.cpp:84] Creating Layer inception_4e/relu_3x3
I0511 18:26:46.327548 29693 net.cpp:406] inception_4e/relu_3x3 <- inception_4e/3x3
I0511 18:26:46.327560 29693 net.cpp:367] inception_4e/relu_3x3 -> inception_4e/3x3 (in-place)
I0511 18:26:46.328423 29693 net.cpp:122] Setting up inception_4e/relu_3x3
I0511 18:26:46.328436 29693 net.cpp:129] Top shape: 16 320 14 14 (1003520)
I0511 18:26:46.328441 29693 net.cpp:137] Memory required for data: 824167064
I0511 18:26:46.328445 29693 layer_factory.hpp:77] Creating layer inception_4e/5x5_reduce
I0511 18:26:46.328462 29693 net.cpp:84] Creating Layer inception_4e/5x5_reduce
I0511 18:26:46.328467 29693 net.cpp:406] inception_4e/5x5_reduce <- inception_4d/output_inception_4d/output_0_split_3
I0511 18:26:46.328478 29693 net.cpp:380] inception_4e/5x5_reduce -> inception_4e/5x5_reduce
I0511 18:26:46.334029 29693 net.cpp:122] Setting up inception_4e/5x5_reduce
I0511 18:26:46.334054 29693 net.cpp:129] Top shape: 16 32 14 14 (100352)
I0511 18:26:46.334059 29693 net.cpp:137] Memory required for data: 824568472
I0511 18:26:46.334071 29693 layer_factory.hpp:77] Creating layer inception_4e/relu_5x5_reduce
I0511 18:26:46.334082 29693 net.cpp:84] Creating Layer inception_4e/relu_5x5_reduce
I0511 18:26:46.334089 29693 net.cpp:406] inception_4e/relu_5x5_reduce <- inception_4e/5x5_reduce
I0511 18:26:46.334097 29693 net.cpp:367] inception_4e/relu_5x5_reduce -> inception_4e/5x5_reduce (in-place)
I0511 18:26:46.334939 29693 net.cpp:122] Setting up inception_4e/relu_5x5_reduce
I0511 18:26:46.334950 29693 net.cpp:129] Top shape: 16 32 14 14 (100352)
I0511 18:26:46.334955 29693 net.cpp:137] Memory required for data: 824969880
I0511 18:26:46.334959 29693 layer_factory.hpp:77] Creating layer inception_4e/5x5
I0511 18:26:46.334975 29693 net.cpp:84] Creating Layer inception_4e/5x5
I0511 18:26:46.334980 29693 net.cpp:406] inception_4e/5x5 <- inception_4e/5x5_reduce
I0511 18:26:46.334992 29693 net.cpp:380] inception_4e/5x5 -> inception_4e/5x5
I0511 18:26:46.339403 29693 net.cpp:122] Setting up inception_4e/5x5
I0511 18:26:46.339417 29693 net.cpp:129] Top shape: 16 128 14 14 (401408)
I0511 18:26:46.339422 29693 net.cpp:137] Memory required for data: 826575512
I0511 18:26:46.339432 29693 layer_factory.hpp:77] Creating layer inception_4e/relu_5x5
I0511 18:26:46.339442 29693 net.cpp:84] Creating Layer inception_4e/relu_5x5
I0511 18:26:46.339447 29693 net.cpp:406] inception_4e/relu_5x5 <- inception_4e/5x5
I0511 18:26:46.339453 29693 net.cpp:367] inception_4e/relu_5x5 -> inception_4e/5x5 (in-place)
I0511 18:26:46.340039 29693 net.cpp:122] Setting up inception_4e/relu_5x5
I0511 18:26:46.340050 29693 net.cpp:129] Top shape: 16 128 14 14 (401408)
I0511 18:26:46.340054 29693 net.cpp:137] Memory required for data: 828181144
I0511 18:26:46.340059 29693 layer_factory.hpp:77] Creating layer inception_4e/pool
I0511 18:26:46.340070 29693 net.cpp:84] Creating Layer inception_4e/pool
I0511 18:26:46.340075 29693 net.cpp:406] inception_4e/pool <- inception_4d/output_inception_4d/output_0_split_4
I0511 18:26:46.340085 29693 net.cpp:380] inception_4e/pool -> inception_4e/pool
I0511 18:26:46.340144 29693 net.cpp:122] Setting up inception_4e/pool
I0511 18:26:46.340179 29693 net.cpp:129] Top shape: 16 528 14 14 (1655808)
I0511 18:26:46.340183 29693 net.cpp:137] Memory required for data: 834804376
I0511 18:26:46.340188 29693 layer_factory.hpp:77] Creating layer inception_4e/pool_proj
I0511 18:26:46.340201 29693 net.cpp:84] Creating Layer inception_4e/pool_proj
I0511 18:26:46.340206 29693 net.cpp:406] inception_4e/pool_proj <- inception_4e/pool
I0511 18:26:46.340215 29693 net.cpp:380] inception_4e/pool_proj -> inception_4e/pool_proj
I0511 18:26:46.344180 29693 net.cpp:122] Setting up inception_4e/pool_proj
I0511 18:26:46.344198 29693 net.cpp:129] Top shape: 16 128 14 14 (401408)
I0511 18:26:46.344202 29693 net.cpp:137] Memory required for data: 836410008
I0511 18:26:46.344214 29693 layer_factory.hpp:77] Creating layer inception_4e/relu_pool_proj
I0511 18:26:46.344223 29693 net.cpp:84] Creating Layer inception_4e/relu_pool_proj
I0511 18:26:46.344228 29693 net.cpp:406] inception_4e/relu_pool_proj <- inception_4e/pool_proj
I0511 18:26:46.344236 29693 net.cpp:367] inception_4e/relu_pool_proj -> inception_4e/pool_proj (in-place)
I0511 18:26:46.347379 29693 net.cpp:122] Setting up inception_4e/relu_pool_proj
I0511 18:26:46.347398 29693 net.cpp:129] Top shape: 16 128 14 14 (401408)
I0511 18:26:46.347402 29693 net.cpp:137] Memory required for data: 838015640
I0511 18:26:46.347409 29693 layer_factory.hpp:77] Creating layer inception_4e/output
I0511 18:26:46.347421 29693 net.cpp:84] Creating Layer inception_4e/output
I0511 18:26:46.347427 29693 net.cpp:406] inception_4e/output <- inception_4e/1x1
I0511 18:26:46.347434 29693 net.cpp:406] inception_4e/output <- inception_4e/3x3
I0511 18:26:46.347440 29693 net.cpp:406] inception_4e/output <- inception_4e/5x5
I0511 18:26:46.347446 29693 net.cpp:406] inception_4e/output <- inception_4e/pool_proj
I0511 18:26:46.347453 29693 net.cpp:380] inception_4e/output -> inception_4e/output
I0511 18:26:46.347501 29693 net.cpp:122] Setting up inception_4e/output
I0511 18:26:46.347508 29693 net.cpp:129] Top shape: 16 832 14 14 (2609152)
I0511 18:26:46.347512 29693 net.cpp:137] Memory required for data: 848452248
I0511 18:26:46.347517 29693 layer_factory.hpp:77] Creating layer pool4/3x3_s2
I0511 18:26:46.347525 29693 net.cpp:84] Creating Layer pool4/3x3_s2
I0511 18:26:46.347530 29693 net.cpp:406] pool4/3x3_s2 <- inception_4e/output
I0511 18:26:46.347543 29693 net.cpp:380] pool4/3x3_s2 -> pool4/3x3_s2
I0511 18:26:46.347595 29693 net.cpp:122] Setting up pool4/3x3_s2
I0511 18:26:46.347604 29693 net.cpp:129] Top shape: 16 832 7 7 (652288)
I0511 18:26:46.347609 29693 net.cpp:137] Memory required for data: 851061400
I0511 18:26:46.347612 29693 layer_factory.hpp:77] Creating layer pool4/3x3_s2_pool4/3x3_s2_0_split
I0511 18:26:46.347620 29693 net.cpp:84] Creating Layer pool4/3x3_s2_pool4/3x3_s2_0_split
I0511 18:26:46.347625 29693 net.cpp:406] pool4/3x3_s2_pool4/3x3_s2_0_split <- pool4/3x3_s2
I0511 18:26:46.347635 29693 net.cpp:380] pool4/3x3_s2_pool4/3x3_s2_0_split -> pool4/3x3_s2_pool4/3x3_s2_0_split_0
I0511 18:26:46.347642 29693 net.cpp:380] pool4/3x3_s2_pool4/3x3_s2_0_split -> pool4/3x3_s2_pool4/3x3_s2_0_split_1
I0511 18:26:46.347651 29693 net.cpp:380] pool4/3x3_s2_pool4/3x3_s2_0_split -> pool4/3x3_s2_pool4/3x3_s2_0_split_2
I0511 18:26:46.347692 29693 net.cpp:380] pool4/3x3_s2_pool4/3x3_s2_0_split -> pool4/3x3_s2_pool4/3x3_s2_0_split_3
I0511 18:26:46.347762 29693 net.cpp:122] Setting up pool4/3x3_s2_pool4/3x3_s2_0_split
I0511 18:26:46.347769 29693 net.cpp:129] Top shape: 16 832 7 7 (652288)
I0511 18:26:46.347774 29693 net.cpp:129] Top shape: 16 832 7 7 (652288)
I0511 18:26:46.347784 29693 net.cpp:129] Top shape: 16 832 7 7 (652288)
I0511 18:26:46.347788 29693 net.cpp:129] Top shape: 16 832 7 7 (652288)
I0511 18:26:46.347792 29693 net.cpp:137] Memory required for data: 861498008
I0511 18:26:46.347796 29693 layer_factory.hpp:77] Creating layer inception_5a/1x1
I0511 18:26:46.347810 29693 net.cpp:84] Creating Layer inception_5a/1x1
I0511 18:26:46.347813 29693 net.cpp:406] inception_5a/1x1 <- pool4/3x3_s2_pool4/3x3_s2_0_split_0
I0511 18:26:46.347821 29693 net.cpp:380] inception_5a/1x1 -> inception_5a/1x1
I0511 18:26:46.353960 29693 net.cpp:122] Setting up inception_5a/1x1
I0511 18:26:46.353981 29693 net.cpp:129] Top shape: 16 256 7 7 (200704)
I0511 18:26:46.353986 29693 net.cpp:137] Memory required for data: 862300824
I0511 18:26:46.353997 29693 layer_factory.hpp:77] Creating layer inception_5a/relu_1x1
I0511 18:26:46.354008 29693 net.cpp:84] Creating Layer inception_5a/relu_1x1
I0511 18:26:46.354014 29693 net.cpp:406] inception_5a/relu_1x1 <- inception_5a/1x1
I0511 18:26:46.354024 29693 net.cpp:367] inception_5a/relu_1x1 -> inception_5a/1x1 (in-place)
I0511 18:26:46.354853 29693 net.cpp:122] Setting up inception_5a/relu_1x1
I0511 18:26:46.354866 29693 net.cpp:129] Top shape: 16 256 7 7 (200704)
I0511 18:26:46.354871 29693 net.cpp:137] Memory required for data: 863103640
I0511 18:26:46.354876 29693 layer_factory.hpp:77] Creating layer inception_5a/3x3_reduce
I0511 18:26:46.354890 29693 net.cpp:84] Creating Layer inception_5a/3x3_reduce
I0511 18:26:46.354897 29693 net.cpp:406] inception_5a/3x3_reduce <- pool4/3x3_s2_pool4/3x3_s2_0_split_1
I0511 18:26:46.354905 29693 net.cpp:380] inception_5a/3x3_reduce -> inception_5a/3x3_reduce
I0511 18:26:46.359387 29693 net.cpp:122] Setting up inception_5a/3x3_reduce
I0511 18:26:46.359400 29693 net.cpp:129] Top shape: 16 160 7 7 (125440)
I0511 18:26:46.359405 29693 net.cpp:137] Memory required for data: 863605400
I0511 18:26:46.359414 29693 layer_factory.hpp:77] Creating layer inception_5a/relu_3x3_reduce
I0511 18:26:46.359426 29693 net.cpp:84] Creating Layer inception_5a/relu_3x3_reduce
I0511 18:26:46.359431 29693 net.cpp:406] inception_5a/relu_3x3_reduce <- inception_5a/3x3_reduce
I0511 18:26:46.359437 29693 net.cpp:367] inception_5a/relu_3x3_reduce -> inception_5a/3x3_reduce (in-place)
I0511 18:26:46.360262 29693 net.cpp:122] Setting up inception_5a/relu_3x3_reduce
I0511 18:26:46.360275 29693 net.cpp:129] Top shape: 16 160 7 7 (125440)
I0511 18:26:46.360280 29693 net.cpp:137] Memory required for data: 864107160
I0511 18:26:46.360285 29693 layer_factory.hpp:77] Creating layer inception_5a/3x3
I0511 18:26:46.360298 29693 net.cpp:84] Creating Layer inception_5a/3x3
I0511 18:26:46.360303 29693 net.cpp:406] inception_5a/3x3 <- inception_5a/3x3_reduce
I0511 18:26:46.360313 29693 net.cpp:380] inception_5a/3x3 -> inception_5a/3x3
I0511 18:26:46.371266 29693 net.cpp:122] Setting up inception_5a/3x3
I0511 18:26:46.371289 29693 net.cpp:129] Top shape: 16 320 7 7 (250880)
I0511 18:26:46.371294 29693 net.cpp:137] Memory required for data: 865110680
I0511 18:26:46.371306 29693 layer_factory.hpp:77] Creating layer inception_5a/relu_3x3
I0511 18:26:46.371317 29693 net.cpp:84] Creating Layer inception_5a/relu_3x3
I0511 18:26:46.371325 29693 net.cpp:406] inception_5a/relu_3x3 <- inception_5a/3x3
I0511 18:26:46.371335 29693 net.cpp:367] inception_5a/relu_3x3 -> inception_5a/3x3 (in-place)
I0511 18:26:46.372156 29693 net.cpp:122] Setting up inception_5a/relu_3x3
I0511 18:26:46.372171 29693 net.cpp:129] Top shape: 16 320 7 7 (250880)
I0511 18:26:46.372175 29693 net.cpp:137] Memory required for data: 866114200
I0511 18:26:46.372180 29693 layer_factory.hpp:77] Creating layer inception_5a/5x5_reduce
I0511 18:26:46.372195 29693 net.cpp:84] Creating Layer inception_5a/5x5_reduce
I0511 18:26:46.372201 29693 net.cpp:406] inception_5a/5x5_reduce <- pool4/3x3_s2_pool4/3x3_s2_0_split_2
I0511 18:26:46.372210 29693 net.cpp:380] inception_5a/5x5_reduce -> inception_5a/5x5_reduce
I0511 18:26:46.375741 29693 net.cpp:122] Setting up inception_5a/5x5_reduce
I0511 18:26:46.375753 29693 net.cpp:129] Top shape: 16 32 7 7 (25088)
I0511 18:26:46.375758 29693 net.cpp:137] Memory required for data: 866214552
I0511 18:26:46.375766 29693 layer_factory.hpp:77] Creating layer inception_5a/relu_5x5_reduce
I0511 18:26:46.375774 29693 net.cpp:84] Creating Layer inception_5a/relu_5x5_reduce
I0511 18:26:46.375779 29693 net.cpp:406] inception_5a/relu_5x5_reduce <- inception_5a/5x5_reduce
I0511 18:26:46.375788 29693 net.cpp:367] inception_5a/relu_5x5_reduce -> inception_5a/5x5_reduce (in-place)
I0511 18:26:46.376394 29693 net.cpp:122] Setting up inception_5a/relu_5x5_reduce
I0511 18:26:46.376405 29693 net.cpp:129] Top shape: 16 32 7 7 (25088)
I0511 18:26:46.376410 29693 net.cpp:137] Memory required for data: 866314904
I0511 18:26:46.376413 29693 layer_factory.hpp:77] Creating layer inception_5a/5x5
I0511 18:26:46.376426 29693 net.cpp:84] Creating Layer inception_5a/5x5
I0511 18:26:46.376435 29693 net.cpp:406] inception_5a/5x5 <- inception_5a/5x5_reduce
I0511 18:26:46.376443 29693 net.cpp:380] inception_5a/5x5 -> inception_5a/5x5
I0511 18:26:46.380950 29693 net.cpp:122] Setting up inception_5a/5x5
I0511 18:26:46.380966 29693 net.cpp:129] Top shape: 16 128 7 7 (100352)
I0511 18:26:46.380970 29693 net.cpp:137] Memory required for data: 866716312
I0511 18:26:46.380980 29693 layer_factory.hpp:77] Creating layer inception_5a/relu_5x5
I0511 18:26:46.380990 29693 net.cpp:84] Creating Layer inception_5a/relu_5x5
I0511 18:26:46.380995 29693 net.cpp:406] inception_5a/relu_5x5 <- inception_5a/5x5
I0511 18:26:46.381002 29693 net.cpp:367] inception_5a/relu_5x5 -> inception_5a/5x5 (in-place)
I0511 18:26:46.384174 29693 net.cpp:122] Setting up inception_5a/relu_5x5
I0511 18:26:46.384191 29693 net.cpp:129] Top shape: 16 128 7 7 (100352)
I0511 18:26:46.384196 29693 net.cpp:137] Memory required for data: 867117720
I0511 18:26:46.384202 29693 layer_factory.hpp:77] Creating layer inception_5a/pool
I0511 18:26:46.384213 29693 net.cpp:84] Creating Layer inception_5a/pool
I0511 18:26:46.384222 29693 net.cpp:406] inception_5a/pool <- pool4/3x3_s2_pool4/3x3_s2_0_split_3
I0511 18:26:46.384229 29693 net.cpp:380] inception_5a/pool -> inception_5a/pool
I0511 18:26:46.384294 29693 net.cpp:122] Setting up inception_5a/pool
I0511 18:26:46.384302 29693 net.cpp:129] Top shape: 16 832 7 7 (652288)
I0511 18:26:46.384306 29693 net.cpp:137] Memory required for data: 869726872
I0511 18:26:46.384310 29693 layer_factory.hpp:77] Creating layer inception_5a/pool_proj
I0511 18:26:46.384325 29693 net.cpp:84] Creating Layer inception_5a/pool_proj
I0511 18:26:46.384330 29693 net.cpp:406] inception_5a/pool_proj <- inception_5a/pool
I0511 18:26:46.384339 29693 net.cpp:380] inception_5a/pool_proj -> inception_5a/pool_proj
I0511 18:26:46.389351 29693 net.cpp:122] Setting up inception_5a/pool_proj
I0511 18:26:46.389369 29693 net.cpp:129] Top shape: 16 128 7 7 (100352)
I0511 18:26:46.389374 29693 net.cpp:137] Memory required for data: 870128280
I0511 18:26:46.389384 29693 layer_factory.hpp:77] Creating layer inception_5a/relu_pool_proj
I0511 18:26:46.389392 29693 net.cpp:84] Creating Layer inception_5a/relu_pool_proj
I0511 18:26:46.389398 29693 net.cpp:406] inception_5a/relu_pool_proj <- inception_5a/pool_proj
I0511 18:26:46.389408 29693 net.cpp:367] inception_5a/relu_pool_proj -> inception_5a/pool_proj (in-place)
I0511 18:26:46.390271 29693 net.cpp:122] Setting up inception_5a/relu_pool_proj
I0511 18:26:46.390285 29693 net.cpp:129] Top shape: 16 128 7 7 (100352)
I0511 18:26:46.390288 29693 net.cpp:137] Memory required for data: 870529688
I0511 18:26:46.390293 29693 layer_factory.hpp:77] Creating layer inception_5a/output
I0511 18:26:46.390305 29693 net.cpp:84] Creating Layer inception_5a/output
I0511 18:26:46.390311 29693 net.cpp:406] inception_5a/output <- inception_5a/1x1
I0511 18:26:46.390317 29693 net.cpp:406] inception_5a/output <- inception_5a/3x3
I0511 18:26:46.390322 29693 net.cpp:406] inception_5a/output <- inception_5a/5x5
I0511 18:26:46.390328 29693 net.cpp:406] inception_5a/output <- inception_5a/pool_proj
I0511 18:26:46.390336 29693 net.cpp:380] inception_5a/output -> inception_5a/output
I0511 18:26:46.390375 29693 net.cpp:122] Setting up inception_5a/output
I0511 18:26:46.390383 29693 net.cpp:129] Top shape: 16 832 7 7 (652288)
I0511 18:26:46.390388 29693 net.cpp:137] Memory required for data: 873138840
I0511 18:26:46.390391 29693 layer_factory.hpp:77] Creating layer inception_5a/output_inception_5a/output_0_split
I0511 18:26:46.390405 29693 net.cpp:84] Creating Layer inception_5a/output_inception_5a/output_0_split
I0511 18:26:46.390413 29693 net.cpp:406] inception_5a/output_inception_5a/output_0_split <- inception_5a/output
I0511 18:26:46.390453 29693 net.cpp:380] inception_5a/output_inception_5a/output_0_split -> inception_5a/output_inception_5a/output_0_split_0
I0511 18:26:46.390466 29693 net.cpp:380] inception_5a/output_inception_5a/output_0_split -> inception_5a/output_inception_5a/output_0_split_1
I0511 18:26:46.390475 29693 net.cpp:380] inception_5a/output_inception_5a/output_0_split -> inception_5a/output_inception_5a/output_0_split_2
I0511 18:26:46.390483 29693 net.cpp:380] inception_5a/output_inception_5a/output_0_split -> inception_5a/output_inception_5a/output_0_split_3
I0511 18:26:46.390561 29693 net.cpp:122] Setting up inception_5a/output_inception_5a/output_0_split
I0511 18:26:46.390571 29693 net.cpp:129] Top shape: 16 832 7 7 (652288)
I0511 18:26:46.390578 29693 net.cpp:129] Top shape: 16 832 7 7 (652288)
I0511 18:26:46.390583 29693 net.cpp:129] Top shape: 16 832 7 7 (652288)
I0511 18:26:46.390588 29693 net.cpp:129] Top shape: 16 832 7 7 (652288)
I0511 18:26:46.390592 29693 net.cpp:137] Memory required for data: 883575448
I0511 18:26:46.390596 29693 layer_factory.hpp:77] Creating layer inception_5b/1x1
I0511 18:26:46.390609 29693 net.cpp:84] Creating Layer inception_5b/1x1
I0511 18:26:46.390614 29693 net.cpp:406] inception_5b/1x1 <- inception_5a/output_inception_5a/output_0_split_0
I0511 18:26:46.390624 29693 net.cpp:380] inception_5b/1x1 -> inception_5b/1x1
I0511 18:26:46.397002 29693 net.cpp:122] Setting up inception_5b/1x1
I0511 18:26:46.397033 29693 net.cpp:129] Top shape: 16 384 7 7 (301056)
I0511 18:26:46.397038 29693 net.cpp:137] Memory required for data: 884779672
I0511 18:26:46.397053 29693 layer_factory.hpp:77] Creating layer inception_5b/relu_1x1
I0511 18:26:46.397064 29693 net.cpp:84] Creating Layer inception_5b/relu_1x1
I0511 18:26:46.397071 29693 net.cpp:406] inception_5b/relu_1x1 <- inception_5b/1x1
I0511 18:26:46.397084 29693 net.cpp:367] inception_5b/relu_1x1 -> inception_5b/1x1 (in-place)
I0511 18:26:46.398134 29693 net.cpp:122] Setting up inception_5b/relu_1x1
I0511 18:26:46.398150 29693 net.cpp:129] Top shape: 16 384 7 7 (301056)
I0511 18:26:46.398156 29693 net.cpp:137] Memory required for data: 885983896
I0511 18:26:46.398161 29693 layer_factory.hpp:77] Creating layer inception_5b/3x3_reduce
I0511 18:26:46.398183 29693 net.cpp:84] Creating Layer inception_5b/3x3_reduce
I0511 18:26:46.398190 29693 net.cpp:406] inception_5b/3x3_reduce <- inception_5a/output_inception_5a/output_0_split_1
I0511 18:26:46.398205 29693 net.cpp:380] inception_5b/3x3_reduce -> inception_5b/3x3_reduce
I0511 18:26:46.409606 29693 net.cpp:122] Setting up inception_5b/3x3_reduce
I0511 18:26:46.409643 29693 net.cpp:129] Top shape: 16 192 7 7 (150528)
I0511 18:26:46.409649 29693 net.cpp:137] Memory required for data: 886586008
I0511 18:26:46.409667 29693 layer_factory.hpp:77] Creating layer inception_5b/relu_3x3_reduce
I0511 18:26:46.409685 29693 net.cpp:84] Creating Layer inception_5b/relu_3x3_reduce
I0511 18:26:46.409694 29693 net.cpp:406] inception_5b/relu_3x3_reduce <- inception_5b/3x3_reduce
I0511 18:26:46.409708 29693 net.cpp:367] inception_5b/relu_3x3_reduce -> inception_5b/3x3_reduce (in-place)
I0511 18:26:46.410606 29693 net.cpp:122] Setting up inception_5b/relu_3x3_reduce
I0511 18:26:46.410619 29693 net.cpp:129] Top shape: 16 192 7 7 (150528)
I0511 18:26:46.410624 29693 net.cpp:137] Memory required for data: 887188120
I0511 18:26:46.410629 29693 layer_factory.hpp:77] Creating layer inception_5b/3x3
I0511 18:26:46.410645 29693 net.cpp:84] Creating Layer inception_5b/3x3
I0511 18:26:46.410651 29693 net.cpp:406] inception_5b/3x3 <- inception_5b/3x3_reduce
I0511 18:26:46.410662 29693 net.cpp:380] inception_5b/3x3 -> inception_5b/3x3
I0511 18:26:46.422053 29693 net.cpp:122] Setting up inception_5b/3x3
I0511 18:26:46.422097 29693 net.cpp:129] Top shape: 16 384 7 7 (301056)
I0511 18:26:46.422103 29693 net.cpp:137] Memory required for data: 888392344
I0511 18:26:46.422127 29693 layer_factory.hpp:77] Creating layer inception_5b/relu_3x3
I0511 18:26:46.422144 29693 net.cpp:84] Creating Layer inception_5b/relu_3x3
I0511 18:26:46.422194 29693 net.cpp:406] inception_5b/relu_3x3 <- inception_5b/3x3
I0511 18:26:46.422206 29693 net.cpp:367] inception_5b/relu_3x3 -> inception_5b/3x3 (in-place)
I0511 18:26:46.423054 29693 net.cpp:122] Setting up inception_5b/relu_3x3
I0511 18:26:46.423076 29693 net.cpp:129] Top shape: 16 384 7 7 (301056)
I0511 18:26:46.423082 29693 net.cpp:137] Memory required for data: 889596568
I0511 18:26:46.423089 29693 layer_factory.hpp:77] Creating layer inception_5b/5x5_reduce
I0511 18:26:46.423111 29693 net.cpp:84] Creating Layer inception_5b/5x5_reduce
I0511 18:26:46.423118 29693 net.cpp:406] inception_5b/5x5_reduce <- inception_5a/output_inception_5a/output_0_split_2
I0511 18:26:46.423130 29693 net.cpp:380] inception_5b/5x5_reduce -> inception_5b/5x5_reduce
I0511 18:26:46.428125 29693 net.cpp:122] Setting up inception_5b/5x5_reduce
I0511 18:26:46.428158 29693 net.cpp:129] Top shape: 16 48 7 7 (37632)
I0511 18:26:46.428164 29693 net.cpp:137] Memory required for data: 889747096
I0511 18:26:46.428179 29693 layer_factory.hpp:77] Creating layer inception_5b/relu_5x5_reduce
I0511 18:26:46.428194 29693 net.cpp:84] Creating Layer inception_5b/relu_5x5_reduce
I0511 18:26:46.428202 29693 net.cpp:406] inception_5b/relu_5x5_reduce <- inception_5b/5x5_reduce
I0511 18:26:46.428213 29693 net.cpp:367] inception_5b/relu_5x5_reduce -> inception_5b/5x5_reduce (in-place)
I0511 18:26:46.428953 29693 net.cpp:122] Setting up inception_5b/relu_5x5_reduce
I0511 18:26:46.428969 29693 net.cpp:129] Top shape: 16 48 7 7 (37632)
I0511 18:26:46.428975 29693 net.cpp:137] Memory required for data: 889897624
I0511 18:26:46.428980 29693 layer_factory.hpp:77] Creating layer inception_5b/5x5
I0511 18:26:46.428999 29693 net.cpp:84] Creating Layer inception_5b/5x5
I0511 18:26:46.429008 29693 net.cpp:406] inception_5b/5x5 <- inception_5b/5x5_reduce
I0511 18:26:46.429019 29693 net.cpp:380] inception_5b/5x5 -> inception_5b/5x5
I0511 18:26:46.435937 29693 net.cpp:122] Setting up inception_5b/5x5
I0511 18:26:46.435957 29693 net.cpp:129] Top shape: 16 128 7 7 (100352)
I0511 18:26:46.435961 29693 net.cpp:137] Memory required for data: 890299032
I0511 18:26:46.435971 29693 layer_factory.hpp:77] Creating layer inception_5b/relu_5x5
I0511 18:26:46.435978 29693 net.cpp:84] Creating Layer inception_5b/relu_5x5
I0511 18:26:46.435984 29693 net.cpp:406] inception_5b/relu_5x5 <- inception_5b/5x5
I0511 18:26:46.435992 29693 net.cpp:367] inception_5b/relu_5x5 -> inception_5b/5x5 (in-place)
I0511 18:26:46.436589 29693 net.cpp:122] Setting up inception_5b/relu_5x5
I0511 18:26:46.436599 29693 net.cpp:129] Top shape: 16 128 7 7 (100352)
I0511 18:26:46.436601 29693 net.cpp:137] Memory required for data: 890700440
I0511 18:26:46.436604 29693 layer_factory.hpp:77] Creating layer inception_5b/pool
I0511 18:26:46.436612 29693 net.cpp:84] Creating Layer inception_5b/pool
I0511 18:26:46.436616 29693 net.cpp:406] inception_5b/pool <- inception_5a/output_inception_5a/output_0_split_3
I0511 18:26:46.436622 29693 net.cpp:380] inception_5b/pool -> inception_5b/pool
I0511 18:26:46.436667 29693 net.cpp:122] Setting up inception_5b/pool
I0511 18:26:46.436672 29693 net.cpp:129] Top shape: 16 832 7 7 (652288)
I0511 18:26:46.436676 29693 net.cpp:137] Memory required for data: 893309592
I0511 18:26:46.436677 29693 layer_factory.hpp:77] Creating layer inception_5b/pool_proj
I0511 18:26:46.436692 29693 net.cpp:84] Creating Layer inception_5b/pool_proj
I0511 18:26:46.436695 29693 net.cpp:406] inception_5b/pool_proj <- inception_5b/pool
I0511 18:26:46.436702 29693 net.cpp:380] inception_5b/pool_proj -> inception_5b/pool_proj
I0511 18:26:46.439285 29693 net.cpp:122] Setting up inception_5b/pool_proj
I0511 18:26:46.439296 29693 net.cpp:129] Top shape: 16 128 7 7 (100352)
I0511 18:26:46.439299 29693 net.cpp:137] Memory required for data: 893711000
I0511 18:26:46.439306 29693 layer_factory.hpp:77] Creating layer inception_5b/relu_pool_proj
I0511 18:26:46.439312 29693 net.cpp:84] Creating Layer inception_5b/relu_pool_proj
I0511 18:26:46.439316 29693 net.cpp:406] inception_5b/relu_pool_proj <- inception_5b/pool_proj
I0511 18:26:46.439343 29693 net.cpp:367] inception_5b/relu_pool_proj -> inception_5b/pool_proj (in-place)
I0511 18:26:46.439930 29693 net.cpp:122] Setting up inception_5b/relu_pool_proj
I0511 18:26:46.439939 29693 net.cpp:129] Top shape: 16 128 7 7 (100352)
I0511 18:26:46.439942 29693 net.cpp:137] Memory required for data: 894112408
I0511 18:26:46.439945 29693 layer_factory.hpp:77] Creating layer inception_5b/output
I0511 18:26:46.439952 29693 net.cpp:84] Creating Layer inception_5b/output
I0511 18:26:46.439956 29693 net.cpp:406] inception_5b/output <- inception_5b/1x1
I0511 18:26:46.439960 29693 net.cpp:406] inception_5b/output <- inception_5b/3x3
I0511 18:26:46.439965 29693 net.cpp:406] inception_5b/output <- inception_5b/5x5
I0511 18:26:46.439968 29693 net.cpp:406] inception_5b/output <- inception_5b/pool_proj
I0511 18:26:46.439972 29693 net.cpp:380] inception_5b/output -> inception_5b/output
I0511 18:26:46.440003 29693 net.cpp:122] Setting up inception_5b/output
I0511 18:26:46.440008 29693 net.cpp:129] Top shape: 16 1024 7 7 (802816)
I0511 18:26:46.440011 29693 net.cpp:137] Memory required for data: 897323672
I0511 18:26:46.440013 29693 layer_factory.hpp:77] Creating layer pool5/7x7_s1
I0511 18:26:46.440018 29693 net.cpp:84] Creating Layer pool5/7x7_s1
I0511 18:26:46.440021 29693 net.cpp:406] pool5/7x7_s1 <- inception_5b/output
I0511 18:26:46.440028 29693 net.cpp:380] pool5/7x7_s1 -> pool5/7x7_s1
I0511 18:26:46.440667 29693 net.cpp:122] Setting up pool5/7x7_s1
I0511 18:26:46.440677 29693 net.cpp:129] Top shape: 16 1024 1 1 (16384)
I0511 18:26:46.440680 29693 net.cpp:137] Memory required for data: 897389208
I0511 18:26:46.440683 29693 layer_factory.hpp:77] Creating layer pool5/drop_7x7_s1
I0511 18:26:46.440690 29693 net.cpp:84] Creating Layer pool5/drop_7x7_s1
I0511 18:26:46.440694 29693 net.cpp:406] pool5/drop_7x7_s1 <- pool5/7x7_s1
I0511 18:26:46.440699 29693 net.cpp:367] pool5/drop_7x7_s1 -> pool5/7x7_s1 (in-place)
I0511 18:26:46.440724 29693 net.cpp:122] Setting up pool5/drop_7x7_s1
I0511 18:26:46.440729 29693 net.cpp:129] Top shape: 16 1024 1 1 (16384)
I0511 18:26:46.440732 29693 net.cpp:137] Memory required for data: 897454744
I0511 18:26:46.440734 29693 layer_factory.hpp:77] Creating layer loss3/classifier
I0511 18:26:46.440743 29693 net.cpp:84] Creating Layer loss3/classifier
I0511 18:26:46.440747 29693 net.cpp:406] loss3/classifier <- pool5/7x7_s1
I0511 18:26:46.440752 29693 net.cpp:380] loss3/classifier -> loss3/classifier
I0511 18:26:46.442476 29693 net.cpp:122] Setting up loss3/classifier
I0511 18:26:46.442487 29693 net.cpp:129] Top shape: 16 196 (3136)
I0511 18:26:46.442490 29693 net.cpp:137] Memory required for data: 897467288
I0511 18:26:46.442497 29693 layer_factory.hpp:77] Creating layer loss3/classifier_loss3/classifier_0_split
I0511 18:26:46.442502 29693 net.cpp:84] Creating Layer loss3/classifier_loss3/classifier_0_split
I0511 18:26:46.442505 29693 net.cpp:406] loss3/classifier_loss3/classifier_0_split <- loss3/classifier
I0511 18:26:46.442512 29693 net.cpp:380] loss3/classifier_loss3/classifier_0_split -> loss3/classifier_loss3/classifier_0_split_0
I0511 18:26:46.442519 29693 net.cpp:380] loss3/classifier_loss3/classifier_0_split -> loss3/classifier_loss3/classifier_0_split_1
I0511 18:26:46.442524 29693 net.cpp:380] loss3/classifier_loss3/classifier_0_split -> loss3/classifier_loss3/classifier_0_split_2
I0511 18:26:46.442571 29693 net.cpp:122] Setting up loss3/classifier_loss3/classifier_0_split
I0511 18:26:46.442577 29693 net.cpp:129] Top shape: 16 196 (3136)
I0511 18:26:46.442580 29693 net.cpp:129] Top shape: 16 196 (3136)
I0511 18:26:46.442584 29693 net.cpp:129] Top shape: 16 196 (3136)
I0511 18:26:46.442585 29693 net.cpp:137] Memory required for data: 897504920
I0511 18:26:46.442589 29693 layer_factory.hpp:77] Creating layer loss3/loss
I0511 18:26:46.442593 29693 net.cpp:84] Creating Layer loss3/loss
I0511 18:26:46.442596 29693 net.cpp:406] loss3/loss <- loss3/classifier_loss3/classifier_0_split_0
I0511 18:26:46.442601 29693 net.cpp:406] loss3/loss <- label_val-data_1_split_6
…
