…
I0509 12:33:38.440057 31539 net.cpp:294] The NetState phase (0) differed from the phase (1) specified by a rule in layer loss3/top-5
I0509 12:33:38.440888 31539 net.cpp:51] Initializing net from parameters:
state {
phase: TRAIN
level: 0
stage: ""
}
layer {
name: "train-data"
type: "Data"
top: "data"
top: "label"
include {
phase: TRAIN
}
transform_param {
mirror: true
crop_size: 224
mean_value: 116.08698
mean_value: 117.34767
mean_value: 119.99612
}
data_param {
source: "/mnt/bigdisk/AINDIG4/digits/jobs/20200509-095611-5492/train_db"
batch_size: 32
backend: LMDB
}
}
layer {
name: "conv1/7x7_s2"
type: "Convolution"
bottom: "data"
top: "conv1/7x7_s2"
param {
lr_mult: 1
decay_mult: 1
}
param {
lr_mult: 2
decay_mult: 0
}
convolution_param {
num_output: 64
pad: 3
kernel_size: 7
stride: 2
weight_filler {
type: "xavier"
std: 0.1
}
bias_filler {
type: "constant"
value: 0.2
}
}
}
layer {
name: "conv1/relu_7x7"
type: "ReLU"
bottom: "conv1/7x7_s2"
top: "conv1/7x7_s2"
}
layer {
name: "pool1/3x3_s2"
type: "Pooling"
bottom: "conv1/7x7_s2"
top: "pool1/3x3_s2"
pooling_param {
pool: MAX
kernel_size: 3
stride: 2
}
}
layer {
name: "pool1/norm1"
type: "LRN"
bottom: "pool1/3x3_s2"
top: "pool1/norm1"
lrn_param {
local_size: 5
alpha: 0.0001
beta: 0.75
}
}
layer {
name: "conv2/3x3_reduce"
type: "Convolution"
bottom: "pool1/norm1"
top: "conv2/3x3_reduce"
param {
lr_mult: 1
decay_mult: 1
}
param {
lr_mult: 2
decay_mult: 0
}
convolution_param {
num_output: 64
kernel_size: 1
weight_filler {
type: "xavier"
std: 0.1
}
bias_filler {
type: "constant"
value: 0.2
}
}
}
layer {
name: "conv2/relu_3x3_reduce"
type: "ReLU"
bottom: "conv2/3x3_reduce"
top: "conv2/3x3_reduce"
}
layer {
name: "conv2/3x3"
type: "Convolution"
bottom: "conv2/3x3_reduce"
top: "conv2/3x3"
param {
lr_mult: 1
decay_mult: 1
}
param {
lr_mult: 2
decay_mult: 0
}
convolution_param {
num_output: 192
pad: 1
kernel_size: 3
weight_filler {
type: "xavier"
std: 0.03
}
bias_filler {
type: "constant"
value: 0.2
}
}
}
layer {
name: "conv2/relu_3x3"
type: "ReLU"
bottom: "conv2/3x3"
top: "conv2/3x3"
}
layer {
name: "conv2/norm2"
type: "LRN"
bottom: "conv2/3x3"
top: "conv2/norm2"
lrn_param {
local_size: 5
alpha: 0.0001
beta: 0.75
}
}
layer {
name: "pool2/3x3_s2"
type: "Pooling"
bottom: "conv2/norm2"
top: "pool2/3x3_s2"
pooling_param {
pool: MAX
kernel_size: 3
stride: 2
}
}
layer {
name: "inception_3a/1x1"
type: "Convolution"
bottom: "pool2/3x3_s2"
top: "inception_3a/1x1"
param {
lr_mult: 1
decay_mult: 1
}
param {
lr_mult: 2
decay_mult: 0
}
convolution_param {
num_output: 64
kernel_size: 1
weight_filler {
type: "xavier"
std: 0.03
}
bias_filler {
type: "constant"
value: 0.2
}
}
}
layer {
name: "inception_3a/relu_1x1"
type: "ReLU"
bottom: "inception_3a/1x1"
top: "inception_3a/1x1"
}
layer {
name: "inception_3a/3x3_reduce"
type: "Convolution"
bottom: "pool2/3x3_s2"
top: "inception_3a/3x3_reduce"
param {
lr_mult: 1
decay_mult: 1
}
param {
lr_mult: 2
decay_mult: 0
}
convolution_param {
num_output: 96
kernel_size: 1
weight_filler {
type: "xavier"
std: 0.09
}
bias_filler {
type: "constant"
value: 0.2
}
}
}
layer {
name: "inception_3a/relu_3x3_reduce"
type: "ReLU"
bottom: "inception_3a/3x3_reduce"
top: "inception_3a/3x3_reduce"
}
layer {
name: "inception_3a/3x3"
type: "Convolution"
bottom: "inception_3a/3x3_reduce"
top: "inception_3a/3x3"
param {
lr_mult: 1
decay_mult: 1
}
param {
lr_mult: 2
decay_mult: 0
}
convolution_param {
num_output: 128
pad: 1
kernel_size: 3
weight_filler {
type: "xavier"
std: 0.03
}
bias_filler {
type: "constant"
value: 0.2
}
}
}
layer {
name: "inception_3a/relu_3x3"
type: "ReLU"
bottom: "inception_3a/3x3"
top: "inception_3a/3x3"
}
layer {
name: "inception_3a/5x5_reduce"
type: "Convolution"
bottom: "pool2/3x3_s2"
top: "inception_3a/5x5_reduce"
param {
lr_mult: 1
decay_mult: 1
}
param {
lr_mult: 2
decay_mult: 0
}
convolution_param {
num_output: 16
kernel_size: 1
weight_filler {
type: "xavier"
std: 0.2
}
bias_filler {
type: "constant"
value: 0.2
}
}
}
layer {
name: "inception_3a/relu_5x5_reduce"
type: "ReLU"
bottom: "inception_3a/5x5_reduce"
top: "inception_3a/5x5_reduce"
}
layer {
name: "inception_3a/5x5"
type: "Convolution"
bottom: "inception_3a/5x5_reduce"
top: "inception_3a/5x5"
param {
lr_mult: 1
decay_mult: 1
}
param {
lr_mult: 2
decay_mult: 0
}
convolution_param {
num_output: 32
pad: 2
kernel_size: 5
weight_filler {
type: "xavier"
std: 0.03
}
bias_filler {
type: "constant"
value: 0.2
}
}
}
layer {
name: "inception_3a/relu_5x5"
type: "ReLU"
bottom: "inception_3a/5x5"
top: "inception_3a/5x5"
}
layer {
name: "inception_3a/pool"
type: "Pooling"
bottom: "pool2/3x3_s2"
top: "inception_3a/pool"
pooling_param {
pool: MAX
kernel_size: 3
stride: 1
pad: 1
}
}
layer {
name: "inception_3a/pool_proj"
type: "Convolution"
bottom: "inception_3a/pool"
top: "inception_3a/pool_proj"
param {
lr_mult: 1
decay_mult: 1
}
param {
lr_mult: 2
decay_mult: 0
}
convolution_param {
num_output: 32
kernel_size: 1
weight_filler {
type: "xavier"
std: 0.1
}
bias_filler {
type: "constant"
value: 0.2
}
}
}
layer {
name: "inception_3a/relu_pool_proj"
type: "ReLU"
bottom: "inception_3a/pool_proj"
top: "inception_3a/pool_proj"
}
layer {
name: "inception_3a/output"
type: "Concat"
bottom: "inception_3a/1x1"
bottom: "inception_3a/3x3"
bottom: "inception_3a/5x5"
bottom: "inception_3a/pool_proj"
top: "inception_3a/output"
}
layer {
name: "inception_3b/1x1"
type: "Convolution"
bottom: "inception_3a/output"
top: "inception_3b/1x1"
param {
lr_mult: 1
decay_mult: 1
}
param {
lr_mult: 2
decay_mult: 0
}
convolution_param {
num_output: 128
kernel_size: 1
weight_filler {
type: "xavier"
std: 0.03
}
bias_filler {
type: "constant"
value: 0.2
}
}
}
layer {
name: "inception_3b/relu_1x1"
type: "ReLU"
bottom: "inception_3b/1x1"
top: "inception_3b/1x1"
}
layer {
name: "inception_3b/3x3_reduce"
type: "Convolution"
bottom: "inception_3a/output"
top: "inception_3b/3x3_reduce"
param {
lr_mult: 1
decay_mult: 1
}
param {
lr_mult: 2
decay_mult: 0
}
convolution_param {
num_output: 128
kernel_size: 1
weight_filler {
type: "xavier"
std: 0.09
}
bias_filler {
type: "constant"
value: 0.2
}
}
}
layer {
name: "inception_3b/relu_3x3_reduce"
type: "ReLU"
bottom: "inception_3b/3x3_reduce"
top: "inception_3b/3x3_reduce"
}
layer {
name: "inception_3b/3x3"
type: "Convolution"
bottom: "inception_3b/3x3_reduce"
top: "inception_3b/3x3"
param {
lr_mult: 1
decay_mult: 1
}
param {
lr_mult: 2
decay_mult: 0
}
convolution_param {
num_output: 192
pad: 1
kernel_size: 3
weight_filler {
type: "xavier"
std: 0.03
}
bias_filler {
type: "constant"
value: 0.2
}
}
}
layer {
name: "inception_3b/relu_3x3"
type: "ReLU"
bottom: "inception_3b/3x3"
top: "inception_3b/3x3"
}
layer {
name: "inception_3b/5x5_reduce"
type: "Convolution"
bottom: "inception_3a/output"
top: "inception_3b/5x5_reduce"
param {
lr_mult: 1
decay_mult: 1
}
param {
lr_mult: 2
decay_mult: 0
}
convolution_param {
num_output: 32
kernel_size: 1
weight_filler {
type: "xavier"
std: 0.2
}
bias_filler {
type: "constant"
value: 0.2
}
}
}
layer {
name: "inception_3b/relu_5x5_reduce"
type: "ReLU"
bottom: "inception_3b/5x5_reduce"
top: "inception_3b/5x5_reduce"
}
layer {
name: "inception_3b/5x5"
type: "Convolution"
bottom: "inception_3b/5x5_reduce"
top: "inception_3b/5x5"
param {
lr_mult: 1
decay_mult: 1
}
param {
lr_mult: 2
decay_mult: 0
}
convolution_param {
num_output: 96
pad: 2
kernel_size: 5
weight_filler {
type: "xavier"
std: 0.03
}
bias_filler {
type: "constant"
value: 0.2
}
}
}
layer {
name: "inception_3b/relu_5x5"
type: "ReLU"
bottom: "inception_3b/5x5"
top: "inception_3b/5x5"
}
layer {
name: "inception_3b/pool"
type: "Pooling"
bottom: "inception_3a/output"
top: "inception_3b/pool"
pooling_param {
pool: MAX
kernel_size: 3
stride: 1
pad: 1
}
}
layer {
name: "inception_3b/pool_proj"
type: "Convolution"
bottom: "inception_3b/pool"
top: "inception_3b/pool_proj"
param {
lr_mult: 1
decay_mult: 1
}
param {
lr_mult: 2
decay_mult: 0
}
convolution_param {
num_output: 64
kernel_size: 1
weight_filler {
type: "xavier"
std: 0.1
}
bias_filler {
type: "constant"
value: 0.2
}
}
}
layer {
name: "inception_3b/relu_pool_proj"
type: "ReLU"
bottom: "inception_3b/pool_proj"
top: "inception_3b/pool_proj"
}
layer {
name: "inception_3b/output"
type: "Concat"
bottom: "inception_3b/1x1"
bottom: "inception_3b/3x3"
bottom: "inception_3b/5x5"
bottom: "inception_3b/pool_proj"
top: "inception_3b/output"
}
layer {
name: "pool3/3x3_s2"
type: "Pooling"
bottom: "inception_3b/output"
top: "pool3/3x3_s2"
pooling_param {
pool: MAX
kernel_size: 3
stride: 2
}
}
layer {
name: "inception_4a/1x1"
type: "Convolution"
bottom: "pool3/3x3_s2"
top: "inception_4a/1x1"
param {
lr_mult: 1
decay_mult: 1
}
param {
lr_mult: 2
decay_mult: 0
}
convolution_param {
num_output: 192
kernel_size: 1
weight_filler {
type: "xavier"
std: 0.03
}
bias_filler {
type: "constant"
value: 0.2
}
}
}
layer {
name: "inception_4a/relu_1x1"
type: "ReLU"
bottom: "inception_4a/1x1"
top: "inception_4a/1x1"
}
layer {
name: "inception_4a/3x3_reduce"
type: "Convolution"
bottom: "pool3/3x3_s2"
top: "inception_4a/3x3_reduce"
param {
lr_mult: 1
decay_mult: 1
}
param {
lr_mult: 2
decay_mult: 0
}
convolution_param {
num_output: 96
kernel_size: 1
weight_filler {
type: "xavier"
std: 0.09
}
bias_filler {
type: "constant"
value: 0.2
}
}
}
layer {
name: "inception_4a/relu_3x3_reduce"
type: "ReLU"
bottom: "inception_4a/3x3_reduce"
top: "inception_4a/3x3_reduce"
}
layer {
name: "inception_4a/3x3"
type: "Convolution"
bottom: "inception_4a/3x3_reduce"
top: "inception_4a/3x3"
param {
lr_mult: 1
decay_mult: 1
}
param {
lr_mult: 2
decay_mult: 0
}
convolution_param {
num_output: 208
pad: 1
kernel_size: 3
weight_filler {
type: "xavier"
std: 0.03
}
bias_filler {
type: "constant"
value: 0.2
}
}
}
layer {
name: "inception_4a/relu_3x3"
type: "ReLU"
bottom: "inception_4a/3x3"
top: "inception_4a/3x3"
}
layer {
name: "inception_4a/5x5_reduce"
type: "Convolution"
bottom: "pool3/3x3_s2"
top: "inception_4a/5x5_reduce"
param {
lr_mult: 1
decay_mult: 1
}
param {
lr_mult: 2
decay_mult: 0
}
convolution_param {
num_output: 16
kernel_size: 1
weight_filler {
type: "xavier"
std: 0.2
}
bias_filler {
type: "constant"
value: 0.2
}
}
}
layer {
name: "inception_4a/relu_5x5_reduce"
type: "ReLU"
bottom: "inception_4a/5x5_reduce"
top: "inception_4a/5x5_reduce"
}
layer {
name: "inception_4a/5x5"
type: "Convolution"
bottom: "inception_4a/5x5_reduce"
top: "inception_4a/5x5"
param {
lr_mult: 1
decay_mult: 1
}
param {
lr_mult: 2
decay_mult: 0
}
convolution_param {
num_output: 48
pad: 2
kernel_size: 5
weight_filler {
type: "xavier"
std: 0.03
}
bias_filler {
type: "constant"
value: 0.2
}
}
}
layer {
name: "inception_4a/relu_5x5"
type: "ReLU"
bottom: "inception_4a/5x5"
top: "inception_4a/5x5"
}
layer {
name: "inception_4a/pool"
type: "Pooling"
bottom: "pool3/3x3_s2"
top: "inception_4a/pool"
pooling_param {
pool: MAX
kernel_size: 3
stride: 1
pad: 1
}
}
layer {
name: "inception_4a/pool_proj"
type: "Convolution"
bottom: "inception_4a/pool"
top: "inception_4a/pool_proj"
param {
lr_mult: 1
decay_mult: 1
}
param {
lr_mult: 2
decay_mult: 0
}
convolution_param {
num_output: 64
kernel_size: 1
weight_filler {
type: "xavier"
std: 0.1
}
bias_filler {
type: "constant"
value: 0.2
}
}
}
layer {
name: "inception_4a/relu_pool_proj"
type: "ReLU"
bottom: "inception_4a/pool_proj"
top: "inception_4a/pool_proj"
}
layer {
name: "inception_4a/output"
type: "Concat"
bottom: "inception_4a/1x1"
bottom: "inception_4a/3x3"
bottom: "inception_4a/5x5"
bottom: "inception_4a/pool_proj"
top: "inception_4a/output"
}
layer {
name: "loss1/ave_pool"
type: "Pooling"
bottom: "inception_4a/output"
top: "loss1/ave_pool"
pooling_param {
pool: AVE
kernel_size: 5
stride: 3
}
}
layer {
name: "loss1/conv"
type: "Convolution"
bottom: "loss1/ave_pool"
top: "loss1/conv"
param {
lr_mult: 1
decay_mult: 1
}
param {
lr_mult: 2
decay_mult: 0
}
convolution_param {
num_output: 128
kernel_size: 1
weight_filler {
type: "xavier"
std: 0.08
}
bias_filler {
type: "constant"
value: 0.2
}
}
}
layer {
name: "loss1/relu_conv"
type: "ReLU"
bottom: "loss1/conv"
top: "loss1/conv"
}
layer {
name: "loss1/fc"
type: "InnerProduct"
bottom: "loss1/conv"
top: "loss1/fc"
param {
lr_mult: 1
decay_mult: 1
}
param {
lr_mult: 2
decay_mult: 0
}
inner_product_param {
num_output: 1024
weight_filler {
type: "xavier"
std: 0.02
}
bias_filler {
type: "constant"
value: 0.2
}
}
}
layer {
name: "loss1/relu_fc"
type: "ReLU"
bottom: "loss1/fc"
top: "loss1/fc"
}
layer {
name: "loss1/drop_fc"
type: "Dropout"
bottom: "loss1/fc"
top: "loss1/fc"
dropout_param {
dropout_ratio: 0.7
}
}
layer {
name: "loss1/classifier"
type: "InnerProduct"
bottom: "loss1/fc"
top: "loss1/classifier"
param {
lr_mult: 1
decay_mult: 1
}
param {
lr_mult: 2
decay_mult: 0
}
inner_product_param {
num_output: 196
weight_filler {
type: "xavier"
std: 0.0009765625
}
bias_filler {
type: "constant"
value: 0
}
}
}
layer {
name: "loss1/loss"
type: "SoftmaxWithLoss"
bottom: "loss1/classifier"
bottom: "label"
top: "loss1/loss"
loss_weight: 0.3
}
layer {
name: "inception_4b/1x1"
type: "Convolution"
bottom: "inception_4a/output"
top: "inception_4b/1x1"
param {
lr_mult: 1
decay_mult: 1
}
param {
lr_mult: 2
decay_mult: 0
}
convolution_param {
num_output: 160
kernel_size: 1
weight_filler {
type: "xavier"
std: 0.03
}
bias_filler {
type: "constant"
value: 0.2
}
}
}
layer {
name: "inception_4b/relu_1x1"
type: "ReLU"
bottom: "inception_4b/1x1"
top: "inception_4b/1x1"
}
layer {
name: "inception_4b/3x3_reduce"
type: "Convolution"
bottom: "inception_4a/output"
top: "inception_4b/3x3_reduce"
param {
lr_mult: 1
decay_mult: 1
}
param {
lr_mult: 2
decay_mult: 0
}
convolution_param {
num_output: 112
kernel_size: 1
weight_filler {
type: "xavier"
std: 0.09
}
bias_filler {
type: "constant"
value: 0.2
}
}
}
layer {
name: "inception_4b/relu_3x3_reduce"
type: "ReLU"
bottom: "inception_4b/3x3_reduce"
top: "inception_4b/3x3_reduce"
}
layer {
name: "inception_4b/3x3"
type: "Convolution"
bottom: "inception_4b/3x3_reduce"
top: "inception_4b/3x3"
param {
lr_mult: 1
decay_mult: 1
}
param {
lr_mult: 2
decay_mult: 0
}
convolution_param {
num_output: 224
pad: 1
kernel_size: 3
weight_filler {
type: "xavier"
std: 0.03
}
bias_filler {
type: "constant"
value: 0.2
}
}
}
layer {
name: "inception_4b/relu_3x3"
type: "ReLU"
bottom: "inception_4b/3x3"
top: "inception_4b/3x3"
}
layer {
name: "inception_4b/5x5_reduce"
type: "Convolution"
bottom: "inception_4a/output"
top: "inception_4b/5x5_reduce"
param {
lr_mult: 1
decay_mult: 1
}
param {
lr_mult: 2
decay_mult: 0
}
convolution_param {
num_output: 24
kernel_size: 1
weight_filler {
type: "xavier"
std: 0.2
}
bias_filler {
type: "constant"
value: 0.2
}
}
}
layer {
name: "inception_4b/relu_5x5_reduce"
type: "ReLU"
bottom: "inception_4b/5x5_reduce"
top: "inception_4b/5x5_reduce"
}
layer {
name: "inception_4b/5x5"
type: "Convolution"
bottom: "inception_4b/5x5_reduce"
top: "inception_4b/5x5"
param {
lr_mult: 1
decay_mult: 1
}
param {
lr_mult: 2
decay_mult: 0
}
convolution_param {
num_output: 64
pad: 2
kernel_size: 5
weight_filler {
type: "xavier"
std: 0.03
}
bias_filler {
type: "constant"
value: 0.2
}
}
}
layer {
name: "inception_4b/relu_5x5"
type: "ReLU"
bottom: "inception_4b/5x5"
top: "inception_4b/5x5"
}
layer {
name: "inception_4b/pool"
type: "Pooling"
bottom: "inception_4a/output"
top: "inception_4b/pool"
pooling_param {
pool: MAX
kernel_size: 3
stride: 1
pad: 1
}
}
layer {
name: "inception_4b/pool_proj"
type: "Convolution"
bottom: "inception_4b/pool"
top: "inception_4b/pool_proj"
param {
lr_mult: 1
decay_mult: 1
}
param {
lr_mult: 2
decay_mult: 0
}
convolution_param {
num_output: 64
kernel_size: 1
weight_filler {
type: "xavier"
std: 0.1
}
bias_filler {
type: "constant"
value: 0.2
}
}
}
layer {
name: "inception_4b/relu_pool_proj"
type: "ReLU"
bottom: "inception_4b/pool_proj"
top: "inception_4b/pool_proj"
}
layer {
name: "inception_4b/output"
type: "Concat"
bottom: "inception_4b/1x1"
bottom: "inception_4b/3x3"
bottom: "inception_4b/5x5"
bottom: "inception_4b/pool_proj"
top: "inception_4b/output"
}
layer {
name: "inception_4c/1x1"
type: "Convolution"
bottom: "inception_4b/output"
top: "inception_4c/1x1"
param {
lr_mult: 1
decay_mult: 1
}
param {
lr_mult: 2
decay_mult: 0
}
convolution_param {
num_output: 128
kernel_size: 1
weight_filler {
type: "xavier"
std: 0.03
}
bias_filler {
type: "constant"
value: 0.2
}
}
}
layer {
name: "inception_4c/relu_1x1"
type: "ReLU"
bottom: "inception_4c/1x1"
top: "inception_4c/1x1"
}
layer {
name: "inception_4c/3x3_reduce"
type: "Convolution"
bottom: "inception_4b/output"
top: "inception_4c/3x3_reduce"
param {
lr_mult: 1
decay_mult: 1
}
param {
lr_mult: 2
decay_mult: 0
}
convolution_param {
num_output: 128
kernel_size: 1
weight_filler {
type: "xavier"
std: 0.09
}
bias_filler {
type: "constant"
value: 0.2
}
}
}
layer {
name: "inception_4c/relu_3x3_reduce"
type: "ReLU"
bottom: "inception_4c/3x3_reduce"
top: "inception_4c/3x3_reduce"
}
layer {
name: "inception_4c/3x3"
type: "Convolution"
bottom: "inception_4c/3x3_reduce"
top: "inception_4c/3x3"
param {
lr_mult: 1
decay_mult: 1
}
param {
lr_mult: 2
decay_mult: 0
}
convolution_param {
num_output: 256
pad: 1
kernel_size: 3
weight_filler {
type: "xavier"
std: 0.03
}
bias_filler {
type: "constant"
value: 0.2
}
}
}
layer {
name: "inception_4c/relu_3x3"
type: "ReLU"
bottom: "inception_4c/3x3"
top: "inception_4c/3x3"
}
layer {
name: "inception_4c/5x5_reduce"
type: "Convolution"
bottom: "inception_4b/output"
top: "inception_4c/5x5_reduce"
param {
lr_mult: 1
decay_mult: 1
}
param {
lr_mult: 2
decay_mult: 0
}
convolution_param {
num_output: 24
kernel_size: 1
weight_filler {
type: "xavier"
std: 0.2
}
bias_filler {
type: "constant"
value: 0.2
}
}
}
layer {
name: "inception_4c/relu_5x5_reduce"
type: "ReLU"
bottom: "inception_4c/5x5_reduce"
top: "inception_4c/5x5_reduce"
}
layer {
name: "inception_4c/5x5"
type: "Convolution"
bottom: "inception_4c/5x5_reduce"
top: "inception_4c/5x5"
param {
lr_mult: 1
decay_mult: 1
}
param {
lr_mult: 2
decay_mult: 0
}
convolution_param {
num_output: 64
pad: 2
kernel_size: 5
weight_filler {
type: "xavier"
std: 0.03
}
bias_filler {
type: "constant"
value: 0.2
}
}
}
layer {
name: "inception_4c/relu_5x5"
type: "ReLU"
bottom: "inception_4c/5x5"
top: "inception_4c/5x5"
}
layer {
name: "inception_4c/pool"
type: "Pooling"
bottom: "inception_4b/output"
top: "inception_4c/pool"
pooling_param {
pool: MAX
kernel_size: 3
stride: 1
pad: 1
}
}
layer {
name: "inception_4c/pool_proj"
type: "Convolution"
bottom: "inception_4c/pool"
top: "inception_4c/pool_proj"
param {
lr_mult: 1
decay_mult: 1
}
param {
lr_mult: 2
decay_mult: 0
}
convolution_param {
num_output: 64
kernel_size: 1
weight_filler {
type: "xavier"
std: 0.1
}
bias_filler {
type: "constant"
value: 0.2
}
}
}
layer {
name: "inception_4c/relu_pool_proj"
type: "ReLU"
bottom: "inception_4c/pool_proj"
top: "inception_4c/pool_proj"
}
layer {
name: "inception_4c/output"
type: "Concat"
bottom: "inception_4c/1x1"
bottom: "inception_4c/3x3"
bottom: "inception_4c/5x5"
bottom: "inception_4c/pool_proj"
top: "inception_4c/output"
}
layer {
name: "inception_4d/1x1"
type: "Convolution"
bottom: "inception_4c/output"
top: "inception_4d/1x1"
param {
lr_mult: 1
decay_mult: 1
}
param {
lr_mult: 2
decay_mult: 0
}
convolution_param {
num_output: 112
kernel_size: 1
weight_filler {
type: "xavier"
std: 0.03
}
bias_filler {
type: "constant"
value: 0.2
}
}
}
layer {
name: "inception_4d/relu_1x1"
type: "ReLU"
bottom: "inception_4d/1x1"
top: "inception_4d/1x1"
}
layer {
name: "inception_4d/3x3_reduce"
type: "Convolution"
bottom: "inception_4c/output"
top: "inception_4d/3x3_reduce"
param {
lr_mult: 1
decay_mult: 1
}
param {
lr_mult: 2
decay_mult: 0
}
convolution_param {
num_output: 144
kernel_size: 1
weight_filler {
type: "xavier"
std: 0.09
}
bias_filler {
type: "constant"
value: 0.2
}
}
}
layer {
name: "inception_4d/relu_3x3_reduce"
type: "ReLU"
bottom: "inception_4d/3x3_reduce"
top: "inception_4d/3x3_reduce"
}
layer {
name: "inception_4d/3x3"
type: "Convolution"
bottom: "inception_4d/3x3_reduce"
top: "inception_4d/3x3"
param {
lr_mult: 1
decay_mult: 1
}
param {
lr_mult: 2
decay_mult: 0
}
convolution_param {
num_output: 288
pad: 1
kernel_size: 3
weight_filler {
type: "xavier"
std: 0.03
}
bias_filler {
type: "constant"
value: 0.2
}
}
}
layer {
name: "inception_4d/relu_3x3"
type: "ReLU"
bottom: "inception_4d/3x3"
top: "inception_4d/3x3"
}
layer {
name: "inception_4d/5x5_reduce"
type: "Convolution"
bottom: "inception_4c/output"
top: "inception_4d/5x5_reduce"
param {
lr_mult: 1
decay_mult: 1
}
param {
lr_mult: 2
decay_mult: 0
}
convolution_param {
num_output: 32
kernel_size: 1
weight_filler {
type: "xavier"
std: 0.2
}
bias_filler {
type: "constant"
value: 0.2
}
}
}
layer {
name: "inception_4d/relu_5x5_reduce"
type: "ReLU"
bottom: "inception_4d/5x5_reduce"
top: "inception_4d/5x5_reduce"
}
layer {
name: "inception_4d/5x5"
type: "Convolution"
bottom: "inception_4d/5x5_reduce"
top: "inception_4d/5x5"
param {
lr_mult: 1
decay_mult: 1
}
param {
lr_mult: 2
decay_mult: 0
}
convolution_param {
num_output: 64
pad: 2
kernel_size: 5
weight_filler {
type: "xavier"
std: 0.03
}
bias_filler {
type: "constant"
value: 0.2
}
}
}
layer {
name: "inception_4d/relu_5x5"
type: "ReLU"
bottom: "inception_4d/5x5"
top: "inception_4d/5x5"
}
layer {
name: "inception_4d/pool"
type: "Pooling"
bottom: "inception_4c/output"
top: "inception_4d/pool"
pooling_param {
pool: MAX
kernel_size: 3
stride: 1
pad: 1
}
}
layer {
name: "inception_4d/pool_proj"
type: "Convolution"
bottom: "inception_4d/pool"
top: "inception_4d/pool_proj"
param {
lr_mult: 1
decay_mult: 1
}
param {
lr_mult: 2
decay_mult: 0
}
convolution_param {
num_output: 64
kernel_size: 1
weight_filler {
type: "xavier"
std: 0.1
}
bias_filler {
type: "constant"
value: 0.2
}
}
}
layer {
name: "inception_4d/relu_pool_proj"
type: "ReLU"
bottom: "inception_4d/pool_proj"
top: "inception_4d/pool_proj"
}
layer {
name: "inception_4d/output"
type: "Concat"
bottom: "inception_4d/1x1"
bottom: "inception_4d/3x3"
bottom: "inception_4d/5x5"
bottom: "inception_4d/pool_proj"
top: "inception_4d/output"
}
layer {
name: "loss2/ave_pool"
type: "Pooling"
bottom: "inception_4d/output"
top: "loss2/ave_pool"
pooling_param {
pool: AVE
kernel_size: 5
stride: 3
}
}
layer {
name: "loss2/conv"
type: "Convolution"
bottom: "loss2/ave_pool"
top: "loss2/conv"
param {
lr_mult: 1
decay_mult: 1
}
param {
lr_mult: 2
decay_mult: 0
}
convolution_param {
num_output: 128
kernel_size: 1
weight_filler {
type: "xavier"
std: 0.08
}
bias_filler {
type: "constant"
value: 0.2
}
}
}
layer {
name: "loss2/relu_conv"
type: "ReLU"
bottom: "loss2/conv"
top: "loss2/conv"
}
layer {
name: "loss2/fc"
type: "InnerProduct"
bottom: "loss2/conv"
top: "loss2/fc"
param {
lr_mult: 1
decay_mult: 1
}
param {
lr_mult: 2
decay_mult: 0
}
inner_product_param {
num_output: 1024
weight_filler {
type: "xavier"
std: 0.02
}
bias_filler {
type: "constant"
value: 0.2
}
}
}
layer {
name: "loss2/relu_fc"
type: "ReLU"
bottom: "loss2/fc"
top: "loss2/fc"
}
layer {
name: "loss2/drop_fc"
type: "Dropout"
bottom: "loss2/fc"
top: "loss2/fc"
dropout_param {
dropout_ratio: 0.7
}
}
layer {
name: "loss2/classifier"
type: "InnerProduct"
bottom: "loss2/fc"
top: "loss2/classifier"
param {
lr_mult: 1
decay_mult: 1
}
param {
lr_mult: 2
decay_mult: 0
}
inner_product_param {
num_output: 196
weight_filler {
type: "xavier"
std: 0.0009765625
}
bias_filler {
type: "constant"
value: 0
}
}
}
layer {
name: "loss2/loss"
type: "SoftmaxWithLoss"
bottom: "loss2/classifier"
bottom: "label"
top: "loss2/loss"
loss_weight: 0.3
}
layer {
name: "inception_4e/1x1"
type: "Convolution"
bottom: "inception_4d/output"
top: "inception_4e/1x1"
param {
lr_mult: 1
decay_mult: 1
}
param {
lr_mult: 2
decay_mult: 0
}
convolution_param {
num_output: 256
kernel_size: 1
weight_filler {
type: "xavier"
std: 0.03
}
bias_filler {
type: "constant"
value: 0.2
}
}
}
layer {
name: "inception_4e/relu_1x1"
type: "ReLU"
bottom: "inception_4e/1x1"
top: "inception_4e/1x1"
}
layer {
name: "inception_4e/3x3_reduce"
type: "Convolution"
bottom: "inception_4d/output"
top: "inception_4e/3x3_reduce"
param {
lr_mult: 1
decay_mult: 1
}
param {
lr_mult: 2
decay_mult: 0
}
convolution_param {
num_output: 160
kernel_size: 1
weight_filler {
type: "xavier"
std: 0.09
}
bias_filler {
type: "constant"
value: 0.2
}
}
}
layer {
name: "inception_4e/relu_3x3_reduce"
type: "ReLU"
bottom: "inception_4e/3x3_reduce"
top: "inception_4e/3x3_reduce"
}
layer {
name: "inception_4e/3x3"
type: "Convolution"
bottom: "inception_4e/3x3_reduce"
top: "inception_4e/3x3"
param {
lr_mult: 1
decay_mult: 1
}
param {
lr_mult: 2
decay_mult: 0
}
convolution_param {
num_output: 320
pad: 1
kernel_size: 3
weight_filler {
type: "xavier"
std: 0.03
}
bias_filler {
type: "constant"
value: 0.2
}
}
}
layer {
name: "inception_4e/relu_3x3"
type: "ReLU"
bottom: "inception_4e/3x3"
top: "inception_4e/3x3"
}
layer {
name: "inception_4e/5x5_reduce"
type: "Convolution"
bottom: "inception_4d/output"
top: "inception_4e/5x5_reduce"
param {
lr_mult: 1
decay_mult: 1
}
param {
lr_mult: 2
decay_mult: 0
}
convolution_param {
num_output: 32
kernel_size: 1
weight_filler {
type: "xavier"
std: 0.2
}
bias_filler {
type: "constant"
value: 0.2
I0509 12:33:38.441459 31539 layer_factory.hpp:77] Creating layer train-data
I0509 12:33:38.443765 31539 db_lmdb.cpp:35] Opened lmdb /mnt/bigdisk/AINDIG4/digits/jobs/20200509-095611-5492/train_db
I0509 12:33:38.443994 31539 net.cpp:84] Creating Layer train-data
I0509 12:33:38.444002 31539 net.cpp:380] train-data -> data
I0509 12:33:38.444020 31539 net.cpp:380] train-data -> label
I0509 12:33:38.446316 31539 data_layer.cpp:45] output data size: 32,3,224,224
I0509 12:33:38.478597 31539 net.cpp:122] Setting up train-data
I0509 12:33:38.478618 31539 net.cpp:129] Top shape: 32 3 224 224 (4816896)
I0509 12:33:38.478622 31539 net.cpp:129] Top shape: 32 (32)
I0509 12:33:38.478626 31539 net.cpp:137] Memory required for data: 19267712
I0509 12:33:38.478632 31539 layer_factory.hpp:77] Creating layer label_train-data_1_split
I0509 12:33:38.478643 31539 net.cpp:84] Creating Layer label_train-data_1_split
I0509 12:33:38.478648 31539 net.cpp:406] label_train-data_1_split <- label
I0509 12:33:38.478675 31539 net.cpp:380] label_train-data_1_split -> label_train-data_1_split_0
I0509 12:33:38.478684 31539 net.cpp:380] label_train-data_1_split -> label_train-data_1_split_1
I0509 12:33:38.478689 31539 net.cpp:380] label_train-data_1_split -> label_train-data_1_split_2
I0509 12:33:38.478785 31539 net.cpp:122] Setting up label_train-data_1_split
I0509 12:33:38.478792 31539 net.cpp:129] Top shape: 32 (32)
I0509 12:33:38.478794 31539 net.cpp:129] Top shape: 32 (32)
I0509 12:33:38.478797 31539 net.cpp:129] Top shape: 32 (32)
I0509 12:33:38.478799 31539 net.cpp:137] Memory required for data: 19268096
I0509 12:33:38.478802 31539 layer_factory.hpp:77] Creating layer conv1/7x7_s2
I0509 12:33:38.478818 31539 net.cpp:84] Creating Layer conv1/7x7_s2
I0509 12:33:38.478821 31539 net.cpp:406] conv1/7x7_s2 <- data
I0509 12:33:38.478826 31539 net.cpp:380] conv1/7x7_s2 -> conv1/7x7_s2
I0509 12:33:39.221423 31539 net.cpp:122] Setting up conv1/7x7_s2
I0509 12:33:39.221444 31539 net.cpp:129] Top shape: 32 64 112 112 (25690112)
I0509 12:33:39.221447 31539 net.cpp:137] Memory required for data: 122028544
I0509 12:33:39.221467 31539 layer_factory.hpp:77] Creating layer conv1/relu_7x7
I0509 12:33:39.221474 31539 net.cpp:84] Creating Layer conv1/relu_7x7
I0509 12:33:39.221478 31539 net.cpp:406] conv1/relu_7x7 <- conv1/7x7_s2
I0509 12:33:39.221482 31539 net.cpp:367] conv1/relu_7x7 -> conv1/7x7_s2 (in-place)
I0509 12:33:39.221745 31539 net.cpp:122] Setting up conv1/relu_7x7
I0509 12:33:39.221755 31539 net.cpp:129] Top shape: 32 64 112 112 (25690112)
I0509 12:33:39.221756 31539 net.cpp:137] Memory required for data: 224788992
I0509 12:33:39.221760 31539 layer_factory.hpp:77] Creating layer pool1/3x3_s2
I0509 12:33:39.221766 31539 net.cpp:84] Creating Layer pool1/3x3_s2
I0509 12:33:39.221768 31539 net.cpp:406] pool1/3x3_s2 <- conv1/7x7_s2
I0509 12:33:39.221774 31539 net.cpp:380] pool1/3x3_s2 -> pool1/3x3_s2
I0509 12:33:39.221812 31539 net.cpp:122] Setting up pool1/3x3_s2
I0509 12:33:39.221818 31539 net.cpp:129] Top shape: 32 64 56 56 (6422528)
I0509 12:33:39.221820 31539 net.cpp:137] Memory required for data: 250479104
I0509 12:33:39.221823 31539 layer_factory.hpp:77] Creating layer pool1/norm1
I0509 12:33:39.221832 31539 net.cpp:84] Creating Layer pool1/norm1
I0509 12:33:39.221833 31539 net.cpp:406] pool1/norm1 <- pool1/3x3_s2
I0509 12:33:39.221838 31539 net.cpp:380] pool1/norm1 -> pool1/norm1
I0509 12:33:39.222328 31539 net.cpp:122] Setting up pool1/norm1
I0509 12:33:39.222337 31539 net.cpp:129] Top shape: 32 64 56 56 (6422528)
I0509 12:33:39.222338 31539 net.cpp:137] Memory required for data: 276169216
I0509 12:33:39.222342 31539 layer_factory.hpp:77] Creating layer conv2/3x3_reduce
I0509 12:33:39.222354 31539 net.cpp:84] Creating Layer conv2/3x3_reduce
I0509 12:33:39.222357 31539 net.cpp:406] conv2/3x3_reduce <- pool1/norm1
I0509 12:33:39.222363 31539 net.cpp:380] conv2/3x3_reduce -> conv2/3x3_reduce
I0509 12:33:39.223928 31539 net.cpp:122] Setting up conv2/3x3_reduce
I0509 12:33:39.223938 31539 net.cpp:129] Top shape: 32 64 56 56 (6422528)
I0509 12:33:39.223940 31539 net.cpp:137] Memory required for data: 301859328
I0509 12:33:39.223948 31539 layer_factory.hpp:77] Creating layer conv2/relu_3x3_reduce
I0509 12:33:39.223953 31539 net.cpp:84] Creating Layer conv2/relu_3x3_reduce
I0509 12:33:39.223956 31539 net.cpp:406] conv2/relu_3x3_reduce <- conv2/3x3_reduce
I0509 12:33:39.223960 31539 net.cpp:367] conv2/relu_3x3_reduce -> conv2/3x3_reduce (in-place)
I0509 12:33:39.224270 31539 net.cpp:122] Setting up conv2/relu_3x3_reduce
I0509 12:33:39.224278 31539 net.cpp:129] Top shape: 32 64 56 56 (6422528)
I0509 12:33:39.224280 31539 net.cpp:137] Memory required for data: 327549440
I0509 12:33:39.224282 31539 layer_factory.hpp:77] Creating layer conv2/3x3
I0509 12:33:39.224292 31539 net.cpp:84] Creating Layer conv2/3x3
I0509 12:33:39.224294 31539 net.cpp:406] conv2/3x3 <- conv2/3x3_reduce
I0509 12:33:39.224303 31539 net.cpp:380] conv2/3x3 -> conv2/3x3
I0509 12:33:39.227285 31539 net.cpp:122] Setting up conv2/3x3
I0509 12:33:39.227316 31539 net.cpp:129] Top shape: 32 192 56 56 (19267584)
I0509 12:33:39.227319 31539 net.cpp:137] Memory required for data: 404619776
I0509 12:33:39.227329 31539 layer_factory.hpp:77] Creating layer conv2/relu_3x3
I0509 12:33:39.227334 31539 net.cpp:84] Creating Layer conv2/relu_3x3
I0509 12:33:39.227336 31539 net.cpp:406] conv2/relu_3x3 <- conv2/3x3
I0509 12:33:39.227340 31539 net.cpp:367] conv2/relu_3x3 -> conv2/3x3 (in-place)
I0509 12:33:39.227658 31539 net.cpp:122] Setting up conv2/relu_3x3
I0509 12:33:39.227664 31539 net.cpp:129] Top shape: 32 192 56 56 (19267584)
I0509 12:33:39.227668 31539 net.cpp:137] Memory required for data: 481690112
I0509 12:33:39.227669 31539 layer_factory.hpp:77] Creating layer conv2/norm2
I0509 12:33:39.227676 31539 net.cpp:84] Creating Layer conv2/norm2
I0509 12:33:39.227679 31539 net.cpp:406] conv2/norm2 <- conv2/3x3
I0509 12:33:39.227684 31539 net.cpp:380] conv2/norm2 -> conv2/norm2
I0509 12:33:39.228296 31539 net.cpp:122] Setting up conv2/norm2
I0509 12:33:39.228304 31539 net.cpp:129] Top shape: 32 192 56 56 (19267584)
I0509 12:33:39.228307 31539 net.cpp:137] Memory required for data: 558760448
I0509 12:33:39.228309 31539 layer_factory.hpp:77] Creating layer pool2/3x3_s2
I0509 12:33:39.228314 31539 net.cpp:84] Creating Layer pool2/3x3_s2
I0509 12:33:39.228317 31539 net.cpp:406] pool2/3x3_s2 <- conv2/norm2
I0509 12:33:39.228322 31539 net.cpp:380] pool2/3x3_s2 -> pool2/3x3_s2
I0509 12:33:39.228349 31539 net.cpp:122] Setting up pool2/3x3_s2
I0509 12:33:39.228353 31539 net.cpp:129] Top shape: 32 192 28 28 (4816896)
I0509 12:33:39.228355 31539 net.cpp:137] Memory required for data: 578028032
I0509 12:33:39.228358 31539 layer_factory.hpp:77] Creating layer pool2/3x3_s2_pool2/3x3_s2_0_split
I0509 12:33:39.228365 31539 net.cpp:84] Creating Layer pool2/3x3_s2_pool2/3x3_s2_0_split
I0509 12:33:39.228368 31539 net.cpp:406] pool2/3x3_s2_pool2/3x3_s2_0_split <- pool2/3x3_s2
I0509 12:33:39.228372 31539 net.cpp:380] pool2/3x3_s2_pool2/3x3_s2_0_split -> pool2/3x3_s2_pool2/3x3_s2_0_split_0
I0509 12:33:39.228377 31539 net.cpp:380] pool2/3x3_s2_pool2/3x3_s2_0_split -> pool2/3x3_s2_pool2/3x3_s2_0_split_1
I0509 12:33:39.228382 31539 net.cpp:380] pool2/3x3_s2_pool2/3x3_s2_0_split -> pool2/3x3_s2_pool2/3x3_s2_0_split_2
I0509 12:33:39.228386 31539 net.cpp:380] pool2/3x3_s2_pool2/3x3_s2_0_split -> pool2/3x3_s2_pool2/3x3_s2_0_split_3
I0509 12:33:39.228423 31539 net.cpp:122] Setting up pool2/3x3_s2_pool2/3x3_s2_0_split
I0509 12:33:39.228428 31539 net.cpp:129] Top shape: 32 192 28 28 (4816896)
I0509 12:33:39.228431 31539 net.cpp:129] Top shape: 32 192 28 28 (4816896)
I0509 12:33:39.228435 31539 net.cpp:129] Top shape: 32 192 28 28 (4816896)
I0509 12:33:39.228436 31539 net.cpp:129] Top shape: 32 192 28 28 (4816896)
I0509 12:33:39.228438 31539 net.cpp:137] Memory required for data: 655098368
I0509 12:33:39.228440 31539 layer_factory.hpp:77] Creating layer inception_3a/1x1
I0509 12:33:39.228449 31539 net.cpp:84] Creating Layer inception_3a/1x1
I0509 12:33:39.228451 31539 net.cpp:406] inception_3a/1x1 <- pool2/3x3_s2_pool2/3x3_s2_0_split_0
I0509 12:33:39.228456 31539 net.cpp:380] inception_3a/1x1 -> inception_3a/1x1
I0509 12:33:39.230068 31539 net.cpp:122] Setting up inception_3a/1x1
I0509 12:33:39.230077 31539 net.cpp:129] Top shape: 32 64 28 28 (1605632)
I0509 12:33:39.230079 31539 net.cpp:137] Memory required for data: 661520896
I0509 12:33:39.230084 31539 layer_factory.hpp:77] Creating layer inception_3a/relu_1x1
I0509 12:33:39.230090 31539 net.cpp:84] Creating Layer inception_3a/relu_1x1
I0509 12:33:39.230093 31539 net.cpp:406] inception_3a/relu_1x1 <- inception_3a/1x1
I0509 12:33:39.230098 31539 net.cpp:367] inception_3a/relu_1x1 -> inception_3a/1x1 (in-place)
I0509 12:33:39.230410 31539 net.cpp:122] Setting up inception_3a/relu_1x1
I0509 12:33:39.230418 31539 net.cpp:129] Top shape: 32 64 28 28 (1605632)
I0509 12:33:39.230420 31539 net.cpp:137] Memory required for data: 667943424
I0509 12:33:39.230422 31539 layer_factory.hpp:77] Creating layer inception_3a/3x3_reduce
I0509 12:33:39.230440 31539 net.cpp:84] Creating Layer inception_3a/3x3_reduce
I0509 12:33:39.230443 31539 net.cpp:406] inception_3a/3x3_reduce <- pool2/3x3_s2_pool2/3x3_s2_0_split_1
I0509 12:33:39.230449 31539 net.cpp:380] inception_3a/3x3_reduce -> inception_3a/3x3_reduce
I0509 12:33:39.232395 31539 net.cpp:122] Setting up inception_3a/3x3_reduce
I0509 12:33:39.232405 31539 net.cpp:129] Top shape: 32 96 28 28 (2408448)
I0509 12:33:39.232408 31539 net.cpp:137] Memory required for data: 677577216
I0509 12:33:39.232415 31539 layer_factory.hpp:77] Creating layer inception_3a/relu_3x3_reduce
I0509 12:33:39.232424 31539 net.cpp:84] Creating Layer inception_3a/relu_3x3_reduce
I0509 12:33:39.232426 31539 net.cpp:406] inception_3a/relu_3x3_reduce <- inception_3a/3x3_reduce
I0509 12:33:39.232430 31539 net.cpp:367] inception_3a/relu_3x3_reduce -> inception_3a/3x3_reduce (in-place)
I0509 12:33:39.232892 31539 net.cpp:122] Setting up inception_3a/relu_3x3_reduce
I0509 12:33:39.232901 31539 net.cpp:129] Top shape: 32 96 28 28 (2408448)
I0509 12:33:39.232903 31539 net.cpp:137] Memory required for data: 687211008
I0509 12:33:39.232906 31539 layer_factory.hpp:77] Creating layer inception_3a/3x3
I0509 12:33:39.232914 31539 net.cpp:84] Creating Layer inception_3a/3x3
I0509 12:33:39.232918 31539 net.cpp:406] inception_3a/3x3 <- inception_3a/3x3_reduce
I0509 12:33:39.232923 31539 net.cpp:380] inception_3a/3x3 -> inception_3a/3x3
I0509 12:33:39.235363 31539 net.cpp:122] Setting up inception_3a/3x3
I0509 12:33:39.235374 31539 net.cpp:129] Top shape: 32 128 28 28 (3211264)
I0509 12:33:39.235376 31539 net.cpp:137] Memory required for data: 700056064
I0509 12:33:39.235381 31539 layer_factory.hpp:77] Creating layer inception_3a/relu_3x3
I0509 12:33:39.235386 31539 net.cpp:84] Creating Layer inception_3a/relu_3x3
I0509 12:33:39.235389 31539 net.cpp:406] inception_3a/relu_3x3 <- inception_3a/3x3
I0509 12:33:39.235394 31539 net.cpp:367] inception_3a/relu_3x3 -> inception_3a/3x3 (in-place)
I0509 12:33:39.235848 31539 net.cpp:122] Setting up inception_3a/relu_3x3
I0509 12:33:39.235857 31539 net.cpp:129] Top shape: 32 128 28 28 (3211264)
I0509 12:33:39.235858 31539 net.cpp:137] Memory required for data: 712901120
I0509 12:33:39.235862 31539 layer_factory.hpp:77] Creating layer inception_3a/5x5_reduce
I0509 12:33:39.235869 31539 net.cpp:84] Creating Layer inception_3a/5x5_reduce
I0509 12:33:39.235872 31539 net.cpp:406] inception_3a/5x5_reduce <- pool2/3x3_s2_pool2/3x3_s2_0_split_2
I0509 12:33:39.235878 31539 net.cpp:380] inception_3a/5x5_reduce -> inception_3a/5x5_reduce
I0509 12:33:39.237299 31539 net.cpp:122] Setting up inception_3a/5x5_reduce
I0509 12:33:39.237308 31539 net.cpp:129] Top shape: 32 16 28 28 (401408)
I0509 12:33:39.237310 31539 net.cpp:137] Memory required for data: 714506752
I0509 12:33:39.237315 31539 layer_factory.hpp:77] Creating layer inception_3a/relu_5x5_reduce
I0509 12:33:39.237321 31539 net.cpp:84] Creating Layer inception_3a/relu_5x5_reduce
I0509 12:33:39.237324 31539 net.cpp:406] inception_3a/relu_5x5_reduce <- inception_3a/5x5_reduce
I0509 12:33:39.237329 31539 net.cpp:367] inception_3a/relu_5x5_reduce -> inception_3a/5x5_reduce (in-place)
I0509 12:33:39.238127 31539 net.cpp:122] Setting up inception_3a/relu_5x5_reduce
I0509 12:33:39.238137 31539 net.cpp:129] Top shape: 32 16 28 28 (401408)
I0509 12:33:39.238138 31539 net.cpp:137] Memory required for data: 716112384
I0509 12:33:39.238142 31539 layer_factory.hpp:77] Creating layer inception_3a/5x5
I0509 12:33:39.238149 31539 net.cpp:84] Creating Layer inception_3a/5x5
I0509 12:33:39.238152 31539 net.cpp:406] inception_3a/5x5 <- inception_3a/5x5_reduce
I0509 12:33:39.238159 31539 net.cpp:380] inception_3a/5x5 -> inception_3a/5x5
I0509 12:33:39.239764 31539 net.cpp:122] Setting up inception_3a/5x5
I0509 12:33:39.239773 31539 net.cpp:129] Top shape: 32 32 28 28 (802816)
I0509 12:33:39.239775 31539 net.cpp:137] Memory required for data: 719323648
I0509 12:33:39.239780 31539 layer_factory.hpp:77] Creating layer inception_3a/relu_5x5
I0509 12:33:39.239786 31539 net.cpp:84] Creating Layer inception_3a/relu_5x5
I0509 12:33:39.239801 31539 net.cpp:406] inception_3a/relu_5x5 <- inception_3a/5x5
I0509 12:33:39.239806 31539 net.cpp:367] inception_3a/relu_5x5 -> inception_3a/5x5 (in-place)
I0509 12:33:39.240274 31539 net.cpp:122] Setting up inception_3a/relu_5x5
I0509 12:33:39.240283 31539 net.cpp:129] Top shape: 32 32 28 28 (802816)
I0509 12:33:39.240284 31539 net.cpp:137] Memory required for data: 722534912
I0509 12:33:39.240286 31539 layer_factory.hpp:77] Creating layer inception_3a/pool
I0509 12:33:39.240293 31539 net.cpp:84] Creating Layer inception_3a/pool
I0509 12:33:39.240295 31539 net.cpp:406] inception_3a/pool <- pool2/3x3_s2_pool2/3x3_s2_0_split_3
I0509 12:33:39.240301 31539 net.cpp:380] inception_3a/pool -> inception_3a/pool
I0509 12:33:39.240334 31539 net.cpp:122] Setting up inception_3a/pool
I0509 12:33:39.240339 31539 net.cpp:129] Top shape: 32 192 28 28 (4816896)
I0509 12:33:39.240341 31539 net.cpp:137] Memory required for data: 741802496
I0509 12:33:39.240343 31539 layer_factory.hpp:77] Creating layer inception_3a/pool_proj
I0509 12:33:39.240352 31539 net.cpp:84] Creating Layer inception_3a/pool_proj
I0509 12:33:39.240355 31539 net.cpp:406] inception_3a/pool_proj <- inception_3a/pool
I0509 12:33:39.240360 31539 net.cpp:380] inception_3a/pool_proj -> inception_3a/pool_proj
I0509 12:33:39.241919 31539 net.cpp:122] Setting up inception_3a/pool_proj
I0509 12:33:39.241927 31539 net.cpp:129] Top shape: 32 32 28 28 (802816)
I0509 12:33:39.241930 31539 net.cpp:137] Memory required for data: 745013760
I0509 12:33:39.241940 31539 layer_factory.hpp:77] Creating layer inception_3a/relu_pool_proj
I0509 12:33:39.241945 31539 net.cpp:84] Creating Layer inception_3a/relu_pool_proj
I0509 12:33:39.241947 31539 net.cpp:406] inception_3a/relu_pool_proj <- inception_3a/pool_proj
I0509 12:33:39.241952 31539 net.cpp:367] inception_3a/relu_pool_proj -> inception_3a/pool_proj (in-place)
I0509 12:33:39.242264 31539 net.cpp:122] Setting up inception_3a/relu_pool_proj
I0509 12:33:39.242270 31539 net.cpp:129] Top shape: 32 32 28 28 (802816)
I0509 12:33:39.242272 31539 net.cpp:137] Memory required for data: 748225024
I0509 12:33:39.242274 31539 layer_factory.hpp:77] Creating layer inception_3a/output
I0509 12:33:39.242280 31539 net.cpp:84] Creating Layer inception_3a/output
I0509 12:33:39.242283 31539 net.cpp:406] inception_3a/output <- inception_3a/1x1
I0509 12:33:39.242286 31539 net.cpp:406] inception_3a/output <- inception_3a/3x3
I0509 12:33:39.242290 31539 net.cpp:406] inception_3a/output <- inception_3a/5x5
I0509 12:33:39.242292 31539 net.cpp:406] inception_3a/output <- inception_3a/pool_proj
I0509 12:33:39.242295 31539 net.cpp:380] inception_3a/output -> inception_3a/output
I0509 12:33:39.242318 31539 net.cpp:122] Setting up inception_3a/output
I0509 12:33:39.242322 31539 net.cpp:129] Top shape: 32 256 28 28 (6422528)
I0509 12:33:39.242324 31539 net.cpp:137] Memory required for data: 773915136
I0509 12:33:39.242326 31539 layer_factory.hpp:77] Creating layer inception_3a/output_inception_3a/output_0_split
I0509 12:33:39.242331 31539 net.cpp:84] Creating Layer inception_3a/output_inception_3a/output_0_split
I0509 12:33:39.242333 31539 net.cpp:406] inception_3a/output_inception_3a/output_0_split <- inception_3a/output
I0509 12:33:39.242338 31539 net.cpp:380] inception_3a/output_inception_3a/output_0_split -> inception_3a/output_inception_3a/output_0_split_0
I0509 12:33:39.242343 31539 net.cpp:380] inception_3a/output_inception_3a/output_0_split -> inception_3a/output_inception_3a/output_0_split_1
I0509 12:33:39.242347 31539 net.cpp:380] inception_3a/output_inception_3a/output_0_split -> inception_3a/output_inception_3a/output_0_split_2
I0509 12:33:39.242353 31539 net.cpp:380] inception_3a/output_inception_3a/output_0_split -> inception_3a/output_inception_3a/output_0_split_3
I0509 12:33:39.242394 31539 net.cpp:122] Setting up inception_3a/output_inception_3a/output_0_split
I0509 12:33:39.242398 31539 net.cpp:129] Top shape: 32 256 28 28 (6422528)
I0509 12:33:39.242401 31539 net.cpp:129] Top shape: 32 256 28 28 (6422528)
I0509 12:33:39.242413 31539 net.cpp:129] Top shape: 32 256 28 28 (6422528)
I0509 12:33:39.242416 31539 net.cpp:129] Top shape: 32 256 28 28 (6422528)
I0509 12:33:39.242419 31539 net.cpp:137] Memory required for data: 876675584
I0509 12:33:39.242420 31539 layer_factory.hpp:77] Creating layer inception_3b/1x1
I0509 12:33:39.242429 31539 net.cpp:84] Creating Layer inception_3b/1x1
I0509 12:33:39.242431 31539 net.cpp:406] inception_3b/1x1 <- inception_3a/output_inception_3a/output_0_split_0
I0509 12:33:39.242436 31539 net.cpp:380] inception_3b/1x1 -> inception_3b/1x1
I0509 12:33:39.244462 31539 net.cpp:122] Setting up inception_3b/1x1
I0509 12:33:39.244470 31539 net.cpp:129] Top shape: 32 128 28 28 (3211264)
I0509 12:33:39.244472 31539 net.cpp:137] Memory required for data: 889520640
I0509 12:33:39.244477 31539 layer_factory.hpp:77] Creating layer inception_3b/relu_1x1
I0509 12:33:39.244483 31539 net.cpp:84] Creating Layer inception_3b/relu_1x1
I0509 12:33:39.244487 31539 net.cpp:406] inception_3b/relu_1x1 <- inception_3b/1x1
I0509 12:33:39.244490 31539 net.cpp:367] inception_3b/relu_1x1 -> inception_3b/1x1 (in-place)
I0509 12:33:39.244961 31539 net.cpp:122] Setting up inception_3b/relu_1x1
I0509 12:33:39.244968 31539 net.cpp:129] Top shape: 32 128 28 28 (3211264)
I0509 12:33:39.244971 31539 net.cpp:137] Memory required for data: 902365696
I0509 12:33:39.244973 31539 layer_factory.hpp:77] Creating layer inception_3b/3x3_reduce
I0509 12:33:39.244982 31539 net.cpp:84] Creating Layer inception_3b/3x3_reduce
I0509 12:33:39.244984 31539 net.cpp:406] inception_3b/3x3_reduce <- inception_3a/output_inception_3a/output_0_split_1
I0509 12:33:39.244992 31539 net.cpp:380] inception_3b/3x3_reduce -> inception_3b/3x3_reduce
I0509 12:33:39.246572 31539 net.cpp:122] Setting up inception_3b/3x3_reduce
I0509 12:33:39.246580 31539 net.cpp:129] Top shape: 32 128 28 28 (3211264)
I0509 12:33:39.246582 31539 net.cpp:137] Memory required for data: 915210752
I0509 12:33:39.246588 31539 layer_factory.hpp:77] Creating layer inception_3b/relu_3x3_reduce
I0509 12:33:39.246595 31539 net.cpp:84] Creating Layer inception_3b/relu_3x3_reduce
I0509 12:33:39.246598 31539 net.cpp:406] inception_3b/relu_3x3_reduce <- inception_3b/3x3_reduce
I0509 12:33:39.246603 31539 net.cpp:367] inception_3b/relu_3x3_reduce -> inception_3b/3x3_reduce (in-place)
I0509 12:33:39.247071 31539 net.cpp:122] Setting up inception_3b/relu_3x3_reduce
I0509 12:33:39.247081 31539 net.cpp:129] Top shape: 32 128 28 28 (3211264)
I0509 12:33:39.247082 31539 net.cpp:137] Memory required for data: 928055808
I0509 12:33:39.247085 31539 layer_factory.hpp:77] Creating layer inception_3b/3x3
I0509 12:33:39.247102 31539 net.cpp:84] Creating Layer inception_3b/3x3
I0509 12:33:39.247105 31539 net.cpp:406] inception_3b/3x3 <- inception_3b/3x3_reduce
I0509 12:33:39.247112 31539 net.cpp:380] inception_3b/3x3 -> inception_3b/3x3
I0509 12:33:39.250063 31539 net.cpp:122] Setting up inception_3b/3x3
I0509 12:33:39.250072 31539 net.cpp:129] Top shape: 32 192 28 28 (4816896)
I0509 12:33:39.250074 31539 net.cpp:137] Memory required for data: 947323392
I0509 12:33:39.250079 31539 layer_factory.hpp:77] Creating layer inception_3b/relu_3x3
I0509 12:33:39.250084 31539 net.cpp:84] Creating Layer inception_3b/relu_3x3
I0509 12:33:39.250087 31539 net.cpp:406] inception_3b/relu_3x3 <- inception_3b/3x3
I0509 12:33:39.250092 31539 net.cpp:367] inception_3b/relu_3x3 -> inception_3b/3x3 (in-place)
I0509 12:33:39.250877 31539 net.cpp:122] Setting up inception_3b/relu_3x3
I0509 12:33:39.250885 31539 net.cpp:129] Top shape: 32 192 28 28 (4816896)
I0509 12:33:39.250888 31539 net.cpp:137] Memory required for data: 966590976
I0509 12:33:39.250890 31539 layer_factory.hpp:77] Creating layer inception_3b/5x5_reduce
I0509 12:33:39.250900 31539 net.cpp:84] Creating Layer inception_3b/5x5_reduce
I0509 12:33:39.250902 31539 net.cpp:406] inception_3b/5x5_reduce <- inception_3a/output_inception_3a/output_0_split_2
I0509 12:33:39.250908 31539 net.cpp:380] inception_3b/5x5_reduce -> inception_3b/5x5_reduce
I0509 12:33:39.252507 31539 net.cpp:122] Setting up inception_3b/5x5_reduce
I0509 12:33:39.252527 31539 net.cpp:129] Top shape: 32 32 28 28 (802816)
I0509 12:33:39.252530 31539 net.cpp:137] Memory required for data: 969802240
I0509 12:33:39.252535 31539 layer_factory.hpp:77] Creating layer inception_3b/relu_5x5_reduce
I0509 12:33:39.252542 31539 net.cpp:84] Creating Layer inception_3b/relu_5x5_reduce
I0509 12:33:39.252544 31539 net.cpp:406] inception_3b/relu_5x5_reduce <- inception_3b/5x5_reduce
I0509 12:33:39.252548 31539 net.cpp:367] inception_3b/relu_5x5_reduce -> inception_3b/5x5_reduce (in-place)
I0509 12:33:39.253021 31539 net.cpp:122] Setting up inception_3b/relu_5x5_reduce
I0509 12:33:39.253029 31539 net.cpp:129] Top shape: 32 32 28 28 (802816)
I0509 12:33:39.253032 31539 net.cpp:137] Memory required for data: 973013504
I0509 12:33:39.253034 31539 layer_factory.hpp:77] Creating layer inception_3b/5x5
I0509 12:33:39.253043 31539 net.cpp:84] Creating Layer inception_3b/5x5
I0509 12:33:39.253046 31539 net.cpp:406] inception_3b/5x5 <- inception_3b/5x5_reduce
I0509 12:33:39.253052 31539 net.cpp:380] inception_3b/5x5 -> inception_3b/5x5
I0509 12:33:39.254971 31539 net.cpp:122] Setting up inception_3b/5x5
I0509 12:33:39.254981 31539 net.cpp:129] Top shape: 32 96 28 28 (2408448)
I0509 12:33:39.254982 31539 net.cpp:137] Memory required for data: 982647296
I0509 12:33:39.254987 31539 layer_factory.hpp:77] Creating layer inception_3b/relu_5x5
I0509 12:33:39.254992 31539 net.cpp:84] Creating Layer inception_3b/relu_5x5
I0509 12:33:39.254995 31539 net.cpp:406] inception_3b/relu_5x5 <- inception_3b/5x5
I0509 12:33:39.255000 31539 net.cpp:367] inception_3b/relu_5x5 -> inception_3b/5x5 (in-place)
I0509 12:33:39.255327 31539 net.cpp:122] Setting up inception_3b/relu_5x5
I0509 12:33:39.255336 31539 net.cpp:129] Top shape: 32 96 28 28 (2408448)
I0509 12:33:39.255337 31539 net.cpp:137] Memory required for data: 992281088
I0509 12:33:39.255340 31539 layer_factory.hpp:77] Creating layer inception_3b/pool
I0509 12:33:39.255347 31539 net.cpp:84] Creating Layer inception_3b/pool
I0509 12:33:39.255349 31539 net.cpp:406] inception_3b/pool <- inception_3a/output_inception_3a/output_0_split_3
I0509 12:33:39.255353 31539 net.cpp:380] inception_3b/pool -> inception_3b/pool
I0509 12:33:39.255388 31539 net.cpp:122] Setting up inception_3b/pool
I0509 12:33:39.255393 31539 net.cpp:129] Top shape: 32 256 28 28 (6422528)
I0509 12:33:39.255394 31539 net.cpp:137] Memory required for data: 1017971200
I0509 12:33:39.255396 31539 layer_factory.hpp:77] Creating layer inception_3b/pool_proj
I0509 12:33:39.255404 31539 net.cpp:84] Creating Layer inception_3b/pool_proj
I0509 12:33:39.255406 31539 net.cpp:406] inception_3b/pool_proj <- inception_3b/pool
I0509 12:33:39.255412 31539 net.cpp:380] inception_3b/pool_proj -> inception_3b/pool_proj
I0509 12:33:39.257918 31539 net.cpp:122] Setting up inception_3b/pool_proj
I0509 12:33:39.257927 31539 net.cpp:129] Top shape: 32 64 28 28 (1605632)
I0509 12:33:39.257930 31539 net.cpp:137] Memory required for data: 1024393728
I0509 12:33:39.257936 31539 layer_factory.hpp:77] Creating layer inception_3b/relu_pool_proj
I0509 12:33:39.257941 31539 net.cpp:84] Creating Layer inception_3b/relu_pool_proj
I0509 12:33:39.257944 31539 net.cpp:406] inception_3b/relu_pool_proj <- inception_3b/pool_proj
I0509 12:33:39.257948 31539 net.cpp:367] inception_3b/relu_pool_proj -> inception_3b/pool_proj (in-place)
I0509 12:33:39.258263 31539 net.cpp:122] Setting up inception_3b/relu_pool_proj
I0509 12:33:39.258271 31539 net.cpp:129] Top shape: 32 64 28 28 (1605632)
I0509 12:33:39.258273 31539 net.cpp:137] Memory required for data: 1030816256
I0509 12:33:39.258276 31539 layer_factory.hpp:77] Creating layer inception_3b/output
I0509 12:33:39.258281 31539 net.cpp:84] Creating Layer inception_3b/output
I0509 12:33:39.258283 31539 net.cpp:406] inception_3b/output <- inception_3b/1x1
I0509 12:33:39.258287 31539 net.cpp:406] inception_3b/output <- inception_3b/3x3
I0509 12:33:39.258291 31539 net.cpp:406] inception_3b/output <- inception_3b/5x5
I0509 12:33:39.258292 31539 net.cpp:406] inception_3b/output <- inception_3b/pool_proj
I0509 12:33:39.258307 31539 net.cpp:380] inception_3b/output -> inception_3b/output
I0509 12:33:39.258332 31539 net.cpp:122] Setting up inception_3b/output
I0509 12:33:39.258337 31539 net.cpp:129] Top shape: 32 480 28 28 (12042240)
I0509 12:33:39.258339 31539 net.cpp:137] Memory required for data: 1078985216
I0509 12:33:39.258342 31539 layer_factory.hpp:77] Creating layer pool3/3x3_s2
I0509 12:33:39.258347 31539 net.cpp:84] Creating Layer pool3/3x3_s2
I0509 12:33:39.258349 31539 net.cpp:406] pool3/3x3_s2 <- inception_3b/output
I0509 12:33:39.258353 31539 net.cpp:380] pool3/3x3_s2 -> pool3/3x3_s2
I0509 12:33:39.258380 31539 net.cpp:122] Setting up pool3/3x3_s2
I0509 12:33:39.258384 31539 net.cpp:129] Top shape: 32 480 14 14 (3010560)
I0509 12:33:39.258388 31539 net.cpp:137] Memory required for data: 1091027456
I0509 12:33:39.258389 31539 layer_factory.hpp:77] Creating layer pool3/3x3_s2_pool3/3x3_s2_0_split
I0509 12:33:39.258394 31539 net.cpp:84] Creating Layer pool3/3x3_s2_pool3/3x3_s2_0_split
I0509 12:33:39.258396 31539 net.cpp:406] pool3/3x3_s2_pool3/3x3_s2_0_split <- pool3/3x3_s2
I0509 12:33:39.258401 31539 net.cpp:380] pool3/3x3_s2_pool3/3x3_s2_0_split -> pool3/3x3_s2_pool3/3x3_s2_0_split_0
I0509 12:33:39.258405 31539 net.cpp:380] pool3/3x3_s2_pool3/3x3_s2_0_split -> pool3/3x3_s2_pool3/3x3_s2_0_split_1
I0509 12:33:39.258410 31539 net.cpp:380] pool3/3x3_s2_pool3/3x3_s2_0_split -> pool3/3x3_s2_pool3/3x3_s2_0_split_2
I0509 12:33:39.258415 31539 net.cpp:380] pool3/3x3_s2_pool3/3x3_s2_0_split -> pool3/3x3_s2_pool3/3x3_s2_0_split_3
I0509 12:33:39.258455 31539 net.cpp:122] Setting up pool3/3x3_s2_pool3/3x3_s2_0_split
I0509 12:33:39.258458 31539 net.cpp:129] Top shape: 32 480 14 14 (3010560)
I0509 12:33:39.258461 31539 net.cpp:129] Top shape: 32 480 14 14 (3010560)
I0509 12:33:39.258464 31539 net.cpp:129] Top shape: 32 480 14 14 (3010560)
I0509 12:33:39.258466 31539 net.cpp:129] Top shape: 32 480 14 14 (3010560)
I0509 12:33:39.258468 31539 net.cpp:137] Memory required for data: 1139196416
I0509 12:33:39.258471 31539 layer_factory.hpp:77] Creating layer inception_4a/1x1
I0509 12:33:39.258478 31539 net.cpp:84] Creating Layer inception_4a/1x1
I0509 12:33:39.258481 31539 net.cpp:406] inception_4a/1x1 <- pool3/3x3_s2_pool3/3x3_s2_0_split_0
I0509 12:33:39.258486 31539 net.cpp:380] inception_4a/1x1 -> inception_4a/1x1
I0509 12:33:39.260869 31539 net.cpp:122] Setting up inception_4a/1x1
I0509 12:33:39.260879 31539 net.cpp:129] Top shape: 32 192 14 14 (1204224)
I0509 12:33:39.260880 31539 net.cpp:137] Memory required for data: 1144013312
I0509 12:33:39.260886 31539 layer_factory.hpp:77] Creating layer inception_4a/relu_1x1
I0509 12:33:39.260891 31539 net.cpp:84] Creating Layer inception_4a/relu_1x1
I0509 12:33:39.260893 31539 net.cpp:406] inception_4a/relu_1x1 <- inception_4a/1x1
I0509 12:33:39.260898 31539 net.cpp:367] inception_4a/relu_1x1 -> inception_4a/1x1 (in-place)
I0509 12:33:39.261435 31539 net.cpp:122] Setting up inception_4a/relu_1x1
I0509 12:33:39.261442 31539 net.cpp:129] Top shape: 32 192 14 14 (1204224)
I0509 12:33:39.261445 31539 net.cpp:137] Memory required for data: 1148830208
I0509 12:33:39.261447 31539 layer_factory.hpp:77] Creating layer inception_4a/3x3_reduce
I0509 12:33:39.261456 31539 net.cpp:84] Creating Layer inception_4a/3x3_reduce
I0509 12:33:39.261461 31539 net.cpp:406] inception_4a/3x3_reduce <- pool3/3x3_s2_pool3/3x3_s2_0_split_1
I0509 12:33:39.261466 31539 net.cpp:380] inception_4a/3x3_reduce -> inception_4a/3x3_reduce
I0509 12:33:39.263240 31539 net.cpp:122] Setting up inception_4a/3x3_reduce
I0509 12:33:39.263249 31539 net.cpp:129] Top shape: 32 96 14 14 (602112)
I0509 12:33:39.263252 31539 net.cpp:137] Memory required for data: 1151238656
I0509 12:33:39.263263 31539 layer_factory.hpp:77] Creating layer inception_4a/relu_3x3_reduce
I0509 12:33:39.263268 31539 net.cpp:84] Creating Layer inception_4a/relu_3x3_reduce
I0509 12:33:39.263272 31539 net.cpp:406] inception_4a/relu_3x3_reduce <- inception_4a/3x3_reduce
I0509 12:33:39.263278 31539 net.cpp:367] inception_4a/relu_3x3_reduce -> inception_4a/3x3_reduce (in-place)
I0509 12:33:39.264106 31539 net.cpp:122] Setting up inception_4a/relu_3x3_reduce
I0509 12:33:39.264114 31539 net.cpp:129] Top shape: 32 96 14 14 (602112)
I0509 12:33:39.264117 31539 net.cpp:137] Memory required for data: 1153647104
I0509 12:33:39.264119 31539 layer_factory.hpp:77] Creating layer inception_4a/3x3
I0509 12:33:39.264128 31539 net.cpp:84] Creating Layer inception_4a/3x3
I0509 12:33:39.264132 31539 net.cpp:406] inception_4a/3x3 <- inception_4a/3x3_reduce
I0509 12:33:39.264137 31539 net.cpp:380] inception_4a/3x3 -> inception_4a/3x3
I0509 12:33:39.266887 31539 net.cpp:122] Setting up inception_4a/3x3
I0509 12:33:39.266896 31539 net.cpp:129] Top shape: 32 208 14 14 (1304576)
I0509 12:33:39.266898 31539 net.cpp:137] Memory required for data: 1158865408
I0509 12:33:39.266903 31539 layer_factory.hpp:77] Creating layer inception_4a/relu_3x3
I0509 12:33:39.266909 31539 net.cpp:84] Creating Layer inception_4a/relu_3x3
I0509 12:33:39.266912 31539 net.cpp:406] inception_4a/relu_3x3 <- inception_4a/3x3
I0509 12:33:39.266916 31539 net.cpp:367] inception_4a/relu_3x3 -> inception_4a/3x3 (in-place)
I0509 12:33:39.267388 31539 net.cpp:122] Setting up inception_4a/relu_3x3
I0509 12:33:39.267398 31539 net.cpp:129] Top shape: 32 208 14 14 (1304576)
I0509 12:33:39.267400 31539 net.cpp:137] Memory required for data: 1164083712
I0509 12:33:39.267403 31539 layer_factory.hpp:77] Creating layer inception_4a/5x5_reduce
I0509 12:33:39.267411 31539 net.cpp:84] Creating Layer inception_4a/5x5_reduce
I0509 12:33:39.267415 31539 net.cpp:406] inception_4a/5x5_reduce <- pool3/3x3_s2_pool3/3x3_s2_0_split_2
I0509 12:33:39.267423 31539 net.cpp:380] inception_4a/5x5_reduce -> inception_4a/5x5_reduce
I0509 12:33:39.268888 31539 net.cpp:122] Setting up inception_4a/5x5_reduce
I0509 12:33:39.268896 31539 net.cpp:129] Top shape: 32 16 14 14 (100352)
I0509 12:33:39.268899 31539 net.cpp:137] Memory required for data: 1164485120
I0509 12:33:39.268904 31539 layer_factory.hpp:77] Creating layer inception_4a/relu_5x5_reduce
I0509 12:33:39.268910 31539 net.cpp:84] Creating Layer inception_4a/relu_5x5_reduce
I0509 12:33:39.268913 31539 net.cpp:406] inception_4a/relu_5x5_reduce <- inception_4a/5x5_reduce
I0509 12:33:39.268918 31539 net.cpp:367] inception_4a/relu_5x5_reduce -> inception_4a/5x5_reduce (in-place)
I0509 12:33:39.269388 31539 net.cpp:122] Setting up inception_4a/relu_5x5_reduce
I0509 12:33:39.269397 31539 net.cpp:129] Top shape: 32 16 14 14 (100352)
I0509 12:33:39.269399 31539 net.cpp:137] Memory required for data: 1164886528
I0509 12:33:39.269402 31539 layer_factory.hpp:77] Creating layer inception_4a/5x5
I0509 12:33:39.269413 31539 net.cpp:84] Creating Layer inception_4a/5x5
I0509 12:33:39.269416 31539 net.cpp:406] inception_4a/5x5 <- inception_4a/5x5_reduce
I0509 12:33:39.269421 31539 net.cpp:380] inception_4a/5x5 -> inception_4a/5x5
I0509 12:33:39.271476 31539 net.cpp:122] Setting up inception_4a/5x5
I0509 12:33:39.271484 31539 net.cpp:129] Top shape: 32 48 14 14 (301056)
I0509 12:33:39.271486 31539 net.cpp:137] Memory required for data: 1166090752
I0509 12:33:39.271492 31539 layer_factory.hpp:77] Creating layer inception_4a/relu_5x5
I0509 12:33:39.271497 31539 net.cpp:84] Creating Layer inception_4a/relu_5x5
I0509 12:33:39.271499 31539 net.cpp:406] inception_4a/relu_5x5 <- inception_4a/5x5
I0509 12:33:39.271504 31539 net.cpp:367] inception_4a/relu_5x5 -> inception_4a/5x5 (in-place)
I0509 12:33:39.271826 31539 net.cpp:122] Setting up inception_4a/relu_5x5
I0509 12:33:39.271834 31539 net.cpp:129] Top shape: 32 48 14 14 (301056)
I0509 12:33:39.271836 31539 net.cpp:137] Memory required for data: 1167294976
I0509 12:33:39.271838 31539 layer_factory.hpp:77] Creating layer inception_4a/pool
I0509 12:33:39.271845 31539 net.cpp:84] Creating Layer inception_4a/pool
I0509 12:33:39.271848 31539 net.cpp:406] inception_4a/pool <- pool3/3x3_s2_pool3/3x3_s2_0_split_3
I0509 12:33:39.271852 31539 net.cpp:380] inception_4a/pool -> inception_4a/pool
I0509 12:33:39.271888 31539 net.cpp:122] Setting up inception_4a/pool
I0509 12:33:39.271904 31539 net.cpp:129] Top shape: 32 480 14 14 (3010560)
I0509 12:33:39.271906 31539 net.cpp:137] Memory required for data: 1179337216
I0509 12:33:39.271908 31539 layer_factory.hpp:77] Creating layer inception_4a/pool_proj
I0509 12:33:39.271916 31539 net.cpp:84] Creating Layer inception_4a/pool_proj
I0509 12:33:39.271919 31539 net.cpp:406] inception_4a/pool_proj <- inception_4a/pool
I0509 12:33:39.271925 31539 net.cpp:380] inception_4a/pool_proj -> inception_4a/pool_proj
I0509 12:33:39.273638 31539 net.cpp:122] Setting up inception_4a/pool_proj
I0509 12:33:39.273648 31539 net.cpp:129] Top shape: 32 64 14 14 (401408)
I0509 12:33:39.273650 31539 net.cpp:137] Memory required for data: 1180942848
I0509 12:33:39.273655 31539 layer_factory.hpp:77] Creating layer inception_4a/relu_pool_proj
I0509 12:33:39.273659 31539 net.cpp:84] Creating Layer inception_4a/relu_pool_proj
I0509 12:33:39.273663 31539 net.cpp:406] inception_4a/relu_pool_proj <- inception_4a/pool_proj
I0509 12:33:39.273669 31539 net.cpp:367] inception_4a/relu_pool_proj -> inception_4a/pool_proj (in-place)
I0509 12:33:39.274143 31539 net.cpp:122] Setting up inception_4a/relu_pool_proj
I0509 12:33:39.274152 31539 net.cpp:129] Top shape: 32 64 14 14 (401408)
I0509 12:33:39.274153 31539 net.cpp:137] Memory required for data: 1182548480
I0509 12:33:39.274157 31539 layer_factory.hpp:77] Creating layer inception_4a/output
I0509 12:33:39.274163 31539 net.cpp:84] Creating Layer inception_4a/output
I0509 12:33:39.274165 31539 net.cpp:406] inception_4a/output <- inception_4a/1x1
I0509 12:33:39.274169 31539 net.cpp:406] inception_4a/output <- inception_4a/3x3
I0509 12:33:39.274171 31539 net.cpp:406] inception_4a/output <- inception_4a/5x5
I0509 12:33:39.274174 31539 net.cpp:406] inception_4a/output <- inception_4a/pool_proj
I0509 12:33:39.274178 31539 net.cpp:380] inception_4a/output -> inception_4a/output
I0509 12:33:39.274201 31539 net.cpp:122] Setting up inception_4a/output
I0509 12:33:39.274205 31539 net.cpp:129] Top shape: 32 512 14 14 (3211264)
I0509 12:33:39.274207 31539 net.cpp:137] Memory required for data: 1195393536
I0509 12:33:39.274209 31539 layer_factory.hpp:77] Creating layer inception_4a/output_inception_4a/output_0_split
I0509 12:33:39.274215 31539 net.cpp:84] Creating Layer inception_4a/output_inception_4a/output_0_split
I0509 12:33:39.274219 31539 net.cpp:406] inception_4a/output_inception_4a/output_0_split <- inception_4a/output
I0509 12:33:39.274222 31539 net.cpp:380] inception_4a/output_inception_4a/output_0_split -> inception_4a/output_inception_4a/output_0_split_0
I0509 12:33:39.274227 31539 net.cpp:380] inception_4a/output_inception_4a/output_0_split -> inception_4a/output_inception_4a/output_0_split_1
I0509 12:33:39.274232 31539 net.cpp:380] inception_4a/output_inception_4a/output_0_split -> inception_4a/output_inception_4a/output_0_split_2
I0509 12:33:39.274237 31539 net.cpp:380] inception_4a/output_inception_4a/output_0_split -> inception_4a/output_inception_4a/output_0_split_3
I0509 12:33:39.274241 31539 net.cpp:380] inception_4a/output_inception_4a/output_0_split -> inception_4a/output_inception_4a/output_0_split_4
I0509 12:33:39.274291 31539 net.cpp:122] Setting up inception_4a/output_inception_4a/output_0_split
I0509 12:33:39.274296 31539 net.cpp:129] Top shape: 32 512 14 14 (3211264)
I0509 12:33:39.274299 31539 net.cpp:129] Top shape: 32 512 14 14 (3211264)
I0509 12:33:39.274302 31539 net.cpp:129] Top shape: 32 512 14 14 (3211264)
I0509 12:33:39.274305 31539 net.cpp:129] Top shape: 32 512 14 14 (3211264)
I0509 12:33:39.274307 31539 net.cpp:129] Top shape: 32 512 14 14 (3211264)
I0509 12:33:39.274309 31539 net.cpp:137] Memory required for data: 1259618816
I0509 12:33:39.274312 31539 layer_factory.hpp:77] Creating layer loss1/ave_pool
I0509 12:33:39.274317 31539 net.cpp:84] Creating Layer loss1/ave_pool
I0509 12:33:39.274318 31539 net.cpp:406] loss1/ave_pool <- inception_4a/output_inception_4a/output_0_split_0
I0509 12:33:39.274322 31539 net.cpp:380] loss1/ave_pool -> loss1/ave_pool
I0509 12:33:39.274670 31539 net.cpp:122] Setting up loss1/ave_pool
I0509 12:33:39.274678 31539 net.cpp:129] Top shape: 32 512 4 4 (262144)
I0509 12:33:39.274680 31539 net.cpp:137] Memory required for data: 1260667392
I0509 12:33:39.274683 31539 layer_factory.hpp:77] Creating layer loss1/conv
I0509 12:33:39.274691 31539 net.cpp:84] Creating Layer loss1/conv
I0509 12:33:39.274694 31539 net.cpp:406] loss1/conv <- loss1/ave_pool
I0509 12:33:39.274699 31539 net.cpp:380] loss1/conv -> loss1/conv
I0509 12:33:39.277060 31539 net.cpp:122] Setting up loss1/conv
I0509 12:33:39.277068 31539 net.cpp:129] Top shape: 32 128 4 4 (65536)
I0509 12:33:39.277071 31539 net.cpp:137] Memory required for data: 1260929536
I0509 12:33:39.277076 31539 layer_factory.hpp:77] Creating layer loss1/relu_conv
I0509 12:33:39.277082 31539 net.cpp:84] Creating Layer loss1/relu_conv
I0509 12:33:39.277086 31539 net.cpp:406] loss1/relu_conv <- loss1/conv
I0509 12:33:39.277088 31539 net.cpp:367] loss1/relu_conv -> loss1/conv (in-place)
I0509 12:33:39.277565 31539 net.cpp:122] Setting up loss1/relu_conv
I0509 12:33:39.277573 31539 net.cpp:129] Top shape: 32 128 4 4 (65536)
I0509 12:33:39.277575 31539 net.cpp:137] Memory required for data: 1261191680
I0509 12:33:39.277578 31539 layer_factory.hpp:77] Creating layer loss1/fc
I0509 12:33:39.277585 31539 net.cpp:84] Creating Layer loss1/fc
I0509 12:33:39.277587 31539 net.cpp:406] loss1/fc <- loss1/conv
I0509 12:33:39.277592 31539 net.cpp:380] loss1/fc -> loss1/fc
I0509 12:33:39.289024 31539 net.cpp:122] Setting up loss1/fc
I0509 12:33:39.289041 31539 net.cpp:129] Top shape: 32 1024 (32768)
I0509 12:33:39.289042 31539 net.cpp:137] Memory required for data: 1261322752
I0509 12:33:39.289049 31539 layer_factory.hpp:77] Creating layer loss1/relu_fc
I0509 12:33:39.289057 31539 net.cpp:84] Creating Layer loss1/relu_fc
I0509 12:33:39.289060 31539 net.cpp:406] loss1/relu_fc <- loss1/fc
I0509 12:33:39.289064 31539 net.cpp:367] loss1/relu_fc -> loss1/fc (in-place)
I0509 12:33:39.289433 31539 net.cpp:122] Setting up loss1/relu_fc
I0509 12:33:39.289439 31539 net.cpp:129] Top shape: 32 1024 (32768)
I0509 12:33:39.289441 31539 net.cpp:137] Memory required for data: 1261453824
I0509 12:33:39.289443 31539 layer_factory.hpp:77] Creating layer loss1/drop_fc
I0509 12:33:39.289463 31539 net.cpp:84] Creating Layer loss1/drop_fc
I0509 12:33:39.289466 31539 net.cpp:406] loss1/drop_fc <- loss1/fc
I0509 12:33:39.289469 31539 net.cpp:367] loss1/drop_fc -> loss1/fc (in-place)
I0509 12:33:39.289492 31539 net.cpp:122] Setting up loss1/drop_fc
I0509 12:33:39.289496 31539 net.cpp:129] Top shape: 32 1024 (32768)
I0509 12:33:39.289499 31539 net.cpp:137] Memory required for data: 1261584896
I0509 12:33:39.289501 31539 layer_factory.hpp:77] Creating layer loss1/classifier
I0509 12:33:39.289507 31539 net.cpp:84] Creating Layer loss1/classifier
I0509 12:33:39.289510 31539 net.cpp:406] loss1/classifier <- loss1/fc
I0509 12:33:39.289515 31539 net.cpp:380] loss1/classifier -> loss1/classifier
I0509 12:33:39.291034 31539 net.cpp:122] Setting up loss1/classifier
I0509 12:33:39.291049 31539 net.cpp:129] Top shape: 32 196 (6272)
I0509 12:33:39.291054 31539 net.cpp:137] Memory required for data: 1261609984
I0509 12:33:39.291059 31539 layer_factory.hpp:77] Creating layer loss1/loss
I0509 12:33:39.291064 31539 net.cpp:84] Creating Layer loss1/loss
I0509 12:33:39.291067 31539 net.cpp:406] loss1/loss <- loss1/classifier
I0509 12:33:39.291071 31539 net.cpp:406] loss1/loss <- label_train-data_1_split_0
I0509 12:33:39.291077 31539 net.cpp:380] loss1/loss -> loss1/loss
I0509 12:33:39.291085 31539 layer_factory.hpp:77] Creating layer loss1/loss
I0509 12:33:39.291648 31539 net.cpp:122] Setting up loss1/loss
I0509 12:33:39.291656 31539 net.cpp:129] Top shape: (1)
I0509 12:33:39.291657 31539 net.cpp:132]     with loss weight 0.3
I0509 12:33:39.291672 31539 net.cpp:137] Memory required for data: 1261609988
I0509 12:33:39.291676 31539 layer_factory.hpp:77] Creating layer inception_4b/1x1
I0509 12:33:39.291687 31539 net.cpp:84] Creating Layer inception_4b/1x1
I0509 12:33:39.291690 31539 net.cpp:406] inception_4b/1x1 <- inception_4a/output_inception_4a/output_0_split_1
I0509 12:33:39.291712 31539 net.cpp:380] inception_4b/1x1 -> inception_4b/1x1
I0509 12:33:39.293900 31539 net.cpp:122] Setting up inception_4b/1x1
I0509 12:33:39.293908 31539 net.cpp:129] Top shape: 32 160 14 14 (1003520)
I0509 12:33:39.293910 31539 net.cpp:137] Memory required for data: 1265624068
I0509 12:33:39.293915 31539 layer_factory.hpp:77] Creating layer inception_4b/relu_1x1
I0509 12:33:39.293921 31539 net.cpp:84] Creating Layer inception_4b/relu_1x1
I0509 12:33:39.293925 31539 net.cpp:406] inception_4b/relu_1x1 <- inception_4b/1x1
I0509 12:33:39.293928 31539 net.cpp:367] inception_4b/relu_1x1 -> inception_4b/1x1 (in-place)
I0509 12:33:39.294399 31539 net.cpp:122] Setting up inception_4b/relu_1x1
I0509 12:33:39.294407 31539 net.cpp:129] Top shape: 32 160 14 14 (1003520)
I0509 12:33:39.294409 31539 net.cpp:137] Memory required for data: 1269638148
I0509 12:33:39.294412 31539 layer_factory.hpp:77] Creating layer inception_4b/3x3_reduce
I0509 12:33:39.294420 31539 net.cpp:84] Creating Layer inception_4b/3x3_reduce
I0509 12:33:39.294422 31539 net.cpp:406] inception_4b/3x3_reduce <- inception_4a/output_inception_4a/output_0_split_2
I0509 12:33:39.294427 31539 net.cpp:380] inception_4b/3x3_reduce -> inception_4b/3x3_reduce
I0509 12:33:39.296890 31539 net.cpp:122] Setting up inception_4b/3x3_reduce
I0509 12:33:39.296900 31539 net.cpp:129] Top shape: 32 112 14 14 (702464)
I0509 12:33:39.296902 31539 net.cpp:137] Memory required for data: 1272448004
I0509 12:33:39.296908 31539 layer_factory.hpp:77] Creating layer inception_4b/relu_3x3_reduce
I0509 12:33:39.296914 31539 net.cpp:84] Creating Layer inception_4b/relu_3x3_reduce
I0509 12:33:39.296917 31539 net.cpp:406] inception_4b/relu_3x3_reduce <- inception_4b/3x3_reduce
I0509 12:33:39.296922 31539 net.cpp:367] inception_4b/relu_3x3_reduce -> inception_4b/3x3_reduce (in-place)
I0509 12:33:39.297232 31539 net.cpp:122] Setting up inception_4b/relu_3x3_reduce
I0509 12:33:39.297243 31539 net.cpp:129] Top shape: 32 112 14 14 (702464)
I0509 12:33:39.297246 31539 net.cpp:137] Memory required for data: 1275257860
I0509 12:33:39.297248 31539 layer_factory.hpp:77] Creating layer inception_4b/3x3
I0509 12:33:39.297257 31539 net.cpp:84] Creating Layer inception_4b/3x3
I0509 12:33:39.297260 31539 net.cpp:406] inception_4b/3x3 <- inception_4b/3x3_reduce
I0509 12:33:39.297266 31539 net.cpp:380] inception_4b/3x3 -> inception_4b/3x3
I0509 12:33:39.300361 31539 net.cpp:122] Setting up inception_4b/3x3
I0509 12:33:39.300370 31539 net.cpp:129] Top shape: 32 224 14 14 (1404928)
I0509 12:33:39.300372 31539 net.cpp:137] Memory required for data: 1280877572
I0509 12:33:39.300377 31539 layer_factory.hpp:77] Creating layer inception_4b/relu_3x3
I0509 12:33:39.300384 31539 net.cpp:84] Creating Layer inception_4b/relu_3x3
I0509 12:33:39.300386 31539 net.cpp:406] inception_4b/relu_3x3 <- inception_4b/3x3
I0509 12:33:39.300390 31539 net.cpp:367] inception_4b/relu_3x3 -> inception_4b/3x3 (in-place)
I0509 12:33:39.300851 31539 net.cpp:122] Setting up inception_4b/relu_3x3
I0509 12:33:39.300859 31539 net.cpp:129] Top shape: 32 224 14 14 (1404928)
I0509 12:33:39.300863 31539 net.cpp:137] Memory required for data: 1286497284
I0509 12:33:39.300864 31539 layer_factory.hpp:77] Creating layer inception_4b/5x5_reduce
I0509 12:33:39.300874 31539 net.cpp:84] Creating Layer inception_4b/5x5_reduce
I0509 12:33:39.300877 31539 net.cpp:406] inception_4b/5x5_reduce <- inception_4a/output_inception_4a/output_0_split_3
I0509 12:33:39.300882 31539 net.cpp:380] inception_4b/5x5_reduce -> inception_4b/5x5_reduce
I0509 12:33:39.302536 31539 net.cpp:122] Setting up inception_4b/5x5_reduce
I0509 12:33:39.302544 31539 net.cpp:129] Top shape: 32 24 14 14 (150528)
I0509 12:33:39.302547 31539 net.cpp:137] Memory required for data: 1287099396
I0509 12:33:39.302551 31539 layer_factory.hpp:77] Creating layer inception_4b/relu_5x5_reduce
I0509 12:33:39.302556 31539 net.cpp:84] Creating Layer inception_4b/relu_5x5_reduce
I0509 12:33:39.302561 31539 net.cpp:406] inception_4b/relu_5x5_reduce <- inception_4b/5x5_reduce
I0509 12:33:39.302575 31539 net.cpp:367] inception_4b/relu_5x5_reduce -> inception_4b/5x5_reduce (in-place)
I0509 12:33:39.303045 31539 net.cpp:122] Setting up inception_4b/relu_5x5_reduce
I0509 12:33:39.303056 31539 net.cpp:129] Top shape: 32 24 14 14 (150528)
I0509 12:33:39.303058 31539 net.cpp:137] Memory required for data: 1287701508
I0509 12:33:39.303061 31539 layer_factory.hpp:77] Creating layer inception_4b/5x5
I0509 12:33:39.303071 31539 net.cpp:84] Creating Layer inception_4b/5x5
I0509 12:33:39.303073 31539 net.cpp:406] inception_4b/5x5 <- inception_4b/5x5_reduce
I0509 12:33:39.303079 31539 net.cpp:380] inception_4b/5x5 -> inception_4b/5x5
I0509 12:33:39.305027 31539 net.cpp:122] Setting up inception_4b/5x5
I0509 12:33:39.305035 31539 net.cpp:129] Top shape: 32 64 14 14 (401408)
I0509 12:33:39.305038 31539 net.cpp:137] Memory required for data: 1289307140
I0509 12:33:39.305042 31539 layer_factory.hpp:77] Creating layer inception_4b/relu_5x5
I0509 12:33:39.305049 31539 net.cpp:84] Creating Layer inception_4b/relu_5x5
I0509 12:33:39.305052 31539 net.cpp:406] inception_4b/relu_5x5 <- inception_4b/5x5
I0509 12:33:39.305058 31539 net.cpp:367] inception_4b/relu_5x5 -> inception_4b/5x5 (in-place)
I0509 12:33:39.305533 31539 net.cpp:122] Setting up inception_4b/relu_5x5
I0509 12:33:39.305541 31539 net.cpp:129] Top shape: 32 64 14 14 (401408)
I0509 12:33:39.305543 31539 net.cpp:137] Memory required for data: 1290912772
I0509 12:33:39.305546 31539 layer_factory.hpp:77] Creating layer inception_4b/pool
I0509 12:33:39.305553 31539 net.cpp:84] Creating Layer inception_4b/pool
I0509 12:33:39.305557 31539 net.cpp:406] inception_4b/pool <- inception_4a/output_inception_4a/output_0_split_4
I0509 12:33:39.305562 31539 net.cpp:380] inception_4b/pool -> inception_4b/pool
I0509 12:33:39.305608 31539 net.cpp:122] Setting up inception_4b/pool
I0509 12:33:39.305613 31539 net.cpp:129] Top shape: 32 512 14 14 (3211264)
I0509 12:33:39.305614 31539 net.cpp:137] Memory required for data: 1303757828
I0509 12:33:39.305616 31539 layer_factory.hpp:77] Creating layer inception_4b/pool_proj
I0509 12:33:39.305624 31539 net.cpp:84] Creating Layer inception_4b/pool_proj
I0509 12:33:39.305627 31539 net.cpp:406] inception_4b/pool_proj <- inception_4b/pool
I0509 12:33:39.305631 31539 net.cpp:380] inception_4b/pool_proj -> inception_4b/pool_proj
I0509 12:33:39.307197 31539 net.cpp:122] Setting up inception_4b/pool_proj
I0509 12:33:39.307206 31539 net.cpp:129] Top shape: 32 64 14 14 (401408)
I0509 12:33:39.307209 31539 net.cpp:137] Memory required for data: 1305363460
I0509 12:33:39.307214 31539 layer_factory.hpp:77] Creating layer inception_4b/relu_pool_proj
I0509 12:33:39.307219 31539 net.cpp:84] Creating Layer inception_4b/relu_pool_proj
I0509 12:33:39.307221 31539 net.cpp:406] inception_4b/relu_pool_proj <- inception_4b/pool_proj
I0509 12:33:39.307226 31539 net.cpp:367] inception_4b/relu_pool_proj -> inception_4b/pool_proj (in-place)
I0509 12:33:39.307701 31539 net.cpp:122] Setting up inception_4b/relu_pool_proj
I0509 12:33:39.307709 31539 net.cpp:129] Top shape: 32 64 14 14 (401408)
I0509 12:33:39.307711 31539 net.cpp:137] Memory required for data: 1306969092
I0509 12:33:39.307714 31539 layer_factory.hpp:77] Creating layer inception_4b/output
I0509 12:33:39.307720 31539 net.cpp:84] Creating Layer inception_4b/output
I0509 12:33:39.307723 31539 net.cpp:406] inception_4b/output <- inception_4b/1x1
I0509 12:33:39.307727 31539 net.cpp:406] inception_4b/output <- inception_4b/3x3
I0509 12:33:39.307729 31539 net.cpp:406] inception_4b/output <- inception_4b/5x5
I0509 12:33:39.307732 31539 net.cpp:406] inception_4b/output <- inception_4b/pool_proj
I0509 12:33:39.307736 31539 net.cpp:380] inception_4b/output -> inception_4b/output
I0509 12:33:39.307760 31539 net.cpp:122] Setting up inception_4b/output
I0509 12:33:39.307763 31539 net.cpp:129] Top shape: 32 512 14 14 (3211264)
I0509 12:33:39.307765 31539 net.cpp:137] Memory required for data: 1319814148
I0509 12:33:39.307767 31539 layer_factory.hpp:77] Creating layer inception_4b/output_inception_4b/output_0_split
I0509 12:33:39.307782 31539 net.cpp:84] Creating Layer inception_4b/output_inception_4b/output_0_split
I0509 12:33:39.307785 31539 net.cpp:406] inception_4b/output_inception_4b/output_0_split <- inception_4b/output
I0509 12:33:39.307790 31539 net.cpp:380] inception_4b/output_inception_4b/output_0_split -> inception_4b/output_inception_4b/output_0_split_0
I0509 12:33:39.307794 31539 net.cpp:380] inception_4b/output_inception_4b/output_0_split -> inception_4b/output_inception_4b/output_0_split_1
I0509 12:33:39.307801 31539 net.cpp:380] inception_4b/output_inception_4b/output_0_split -> inception_4b/output_inception_4b/output_0_split_2
I0509 12:33:39.307806 31539 net.cpp:380] inception_4b/output_inception_4b/output_0_split -> inception_4b/output_inception_4b/output_0_split_3
I0509 12:33:39.307849 31539 net.cpp:122] Setting up inception_4b/output_inception_4b/output_0_split
I0509 12:33:39.307853 31539 net.cpp:129] Top shape: 32 512 14 14 (3211264)
I0509 12:33:39.307857 31539 net.cpp:129] Top shape: 32 512 14 14 (3211264)
I0509 12:33:39.307858 31539 net.cpp:129] Top shape: 32 512 14 14 (3211264)
I0509 12:33:39.307862 31539 net.cpp:129] Top shape: 32 512 14 14 (3211264)
I0509 12:33:39.307863 31539 net.cpp:137] Memory required for data: 1371194372
I0509 12:33:39.307865 31539 layer_factory.hpp:77] Creating layer inception_4c/1x1
I0509 12:33:39.307873 31539 net.cpp:84] Creating Layer inception_4c/1x1
I0509 12:33:39.307875 31539 net.cpp:406] inception_4c/1x1 <- inception_4b/output_inception_4b/output_0_split_0
I0509 12:33:39.307884 31539 net.cpp:380] inception_4c/1x1 -> inception_4c/1x1
I0509 12:33:39.335273 31539 net.cpp:122] Setting up inception_4c/1x1
I0509 12:33:39.335292 31539 net.cpp:129] Top shape: 32 128 14 14 (802816)
I0509 12:33:39.335295 31539 net.cpp:137] Memory required for data: 1374405636
I0509 12:33:39.335304 31539 layer_factory.hpp:77] Creating layer inception_4c/relu_1x1
I0509 12:33:39.335315 31539 net.cpp:84] Creating Layer inception_4c/relu_1x1
I0509 12:33:39.335320 31539 net.cpp:406] inception_4c/relu_1x1 <- inception_4c/1x1
I0509 12:33:39.335325 31539 net.cpp:367] inception_4c/relu_1x1 -> inception_4c/1x1 (in-place)
I0509 12:33:39.335659 31539 net.cpp:122] Setting up inception_4c/relu_1x1
I0509 12:33:39.335669 31539 net.cpp:129] Top shape: 32 128 14 14 (802816)
I0509 12:33:39.335670 31539 net.cpp:137] Memory required for data: 1377616900
I0509 12:33:39.335672 31539 layer_factory.hpp:77] Creating layer inception_4c/3x3_reduce
I0509 12:33:39.335682 31539 net.cpp:84] Creating Layer inception_4c/3x3_reduce
I0509 12:33:39.335686 31539 net.cpp:406] inception_4c/3x3_reduce <- inception_4b/output_inception_4b/output_0_split_1
I0509 12:33:39.335691 31539 net.cpp:380] inception_4c/3x3_reduce -> inception_4c/3x3_reduce
I0509 12:33:39.337615 31539 net.cpp:122] Setting up inception_4c/3x3_reduce
I0509 12:33:39.337625 31539 net.cpp:129] Top shape: 32 128 14 14 (802816)
I0509 12:33:39.337626 31539 net.cpp:137] Memory required for data: 1380828164
I0509 12:33:39.337631 31539 layer_factory.hpp:77] Creating layer inception_4c/relu_3x3_reduce
I0509 12:33:39.337636 31539 net.cpp:84] Creating Layer inception_4c/relu_3x3_reduce
I0509 12:33:39.337640 31539 net.cpp:406] inception_4c/relu_3x3_reduce <- inception_4c/3x3_reduce
I0509 12:33:39.337646 31539 net.cpp:367] inception_4c/relu_3x3_reduce -> inception_4c/3x3_reduce (in-place)
I0509 12:33:39.338126 31539 net.cpp:122] Setting up inception_4c/relu_3x3_reduce
I0509 12:33:39.338135 31539 net.cpp:129] Top shape: 32 128 14 14 (802816)
I0509 12:33:39.338136 31539 net.cpp:137] Memory required for data: 1384039428
I0509 12:33:39.338140 31539 layer_factory.hpp:77] Creating layer inception_4c/3x3
I0509 12:33:39.338147 31539 net.cpp:84] Creating Layer inception_4c/3x3
I0509 12:33:39.338150 31539 net.cpp:406] inception_4c/3x3 <- inception_4c/3x3_reduce
I0509 12:33:39.338157 31539 net.cpp:380] inception_4c/3x3 -> inception_4c/3x3
I0509 12:33:39.341629 31539 net.cpp:122] Setting up inception_4c/3x3
I0509 12:33:39.341639 31539 net.cpp:129] Top shape: 32 256 14 14 (1605632)
I0509 12:33:39.341657 31539 net.cpp:137] Memory required for data: 1390461956
I0509 12:33:39.341673 31539 layer_factory.hpp:77] Creating layer inception_4c/relu_3x3
I0509 12:33:39.341681 31539 net.cpp:84] Creating Layer inception_4c/relu_3x3
I0509 12:33:39.341683 31539 net.cpp:406] inception_4c/relu_3x3 <- inception_4c/3x3
I0509 12:33:39.341687 31539 net.cpp:367] inception_4c/relu_3x3 -> inception_4c/3x3 (in-place)
I0509 12:33:39.342159 31539 net.cpp:122] Setting up inception_4c/relu_3x3
I0509 12:33:39.342166 31539 net.cpp:129] Top shape: 32 256 14 14 (1605632)
I0509 12:33:39.342170 31539 net.cpp:137] Memory required for data: 1396884484
I0509 12:33:39.342171 31539 layer_factory.hpp:77] Creating layer inception_4c/5x5_reduce
I0509 12:33:39.342181 31539 net.cpp:84] Creating Layer inception_4c/5x5_reduce
I0509 12:33:39.342185 31539 net.cpp:406] inception_4c/5x5_reduce <- inception_4b/output_inception_4b/output_0_split_2
I0509 12:33:39.342190 31539 net.cpp:380] inception_4c/5x5_reduce -> inception_4c/5x5_reduce
I0509 12:33:39.344111 31539 net.cpp:122] Setting up inception_4c/5x5_reduce
I0509 12:33:39.344120 31539 net.cpp:129] Top shape: 32 24 14 14 (150528)
I0509 12:33:39.344122 31539 net.cpp:137] Memory required for data: 1397486596
I0509 12:33:39.344127 31539 layer_factory.hpp:77] Creating layer inception_4c/relu_5x5_reduce
I0509 12:33:39.344132 31539 net.cpp:84] Creating Layer inception_4c/relu_5x5_reduce
I0509 12:33:39.344135 31539 net.cpp:406] inception_4c/relu_5x5_reduce <- inception_4c/5x5_reduce
I0509 12:33:39.344141 31539 net.cpp:367] inception_4c/relu_5x5_reduce -> inception_4c/5x5_reduce (in-place)
I0509 12:33:39.344615 31539 net.cpp:122] Setting up inception_4c/relu_5x5_reduce
I0509 12:33:39.344624 31539 net.cpp:129] Top shape: 32 24 14 14 (150528)
I0509 12:33:39.344625 31539 net.cpp:137] Memory required for data: 1398088708
I0509 12:33:39.344628 31539 layer_factory.hpp:77] Creating layer inception_4c/5x5
I0509 12:33:39.344637 31539 net.cpp:84] Creating Layer inception_4c/5x5
I0509 12:33:39.344640 31539 net.cpp:406] inception_4c/5x5 <- inception_4c/5x5_reduce
I0509 12:33:39.344645 31539 net.cpp:380] inception_4c/5x5 -> inception_4c/5x5
I0509 12:33:39.346243 31539 net.cpp:122] Setting up inception_4c/5x5
I0509 12:33:39.346252 31539 net.cpp:129] Top shape: 32 64 14 14 (401408)
I0509 12:33:39.346254 31539 net.cpp:137] Memory required for data: 1399694340
I0509 12:33:39.346259 31539 layer_factory.hpp:77] Creating layer inception_4c/relu_5x5
I0509 12:33:39.346264 31539 net.cpp:84] Creating Layer inception_4c/relu_5x5
I0509 12:33:39.346267 31539 net.cpp:406] inception_4c/relu_5x5 <- inception_4c/5x5
I0509 12:33:39.346272 31539 net.cpp:367] inception_4c/relu_5x5 -> inception_4c/5x5 (in-place)
I0509 12:33:39.346750 31539 net.cpp:122] Setting up inception_4c/relu_5x5
I0509 12:33:39.346760 31539 net.cpp:129] Top shape: 32 64 14 14 (401408)
I0509 12:33:39.346761 31539 net.cpp:137] Memory required for data: 1401299972
I0509 12:33:39.346763 31539 layer_factory.hpp:77] Creating layer inception_4c/pool
I0509 12:33:39.346771 31539 net.cpp:84] Creating Layer inception_4c/pool
I0509 12:33:39.346773 31539 net.cpp:406] inception_4c/pool <- inception_4b/output_inception_4b/output_0_split_3
I0509 12:33:39.346778 31539 net.cpp:380] inception_4c/pool -> inception_4c/pool
I0509 12:33:39.346812 31539 net.cpp:122] Setting up inception_4c/pool
I0509 12:33:39.346817 31539 net.cpp:129] Top shape: 32 512 14 14 (3211264)
I0509 12:33:39.346819 31539 net.cpp:137] Memory required for data: 1414145028
I0509 12:33:39.346822 31539 layer_factory.hpp:77] Creating layer inception_4c/pool_proj
I0509 12:33:39.346828 31539 net.cpp:84] Creating Layer inception_4c/pool_proj
I0509 12:33:39.346832 31539 net.cpp:406] inception_4c/pool_proj <- inception_4c/pool
I0509 12:33:39.346837 31539 net.cpp:380] inception_4c/pool_proj -> inception_4c/pool_proj
I0509 12:33:39.349912 31539 net.cpp:122] Setting up inception_4c/pool_proj
I0509 12:33:39.349922 31539 net.cpp:129] Top shape: 32 64 14 14 (401408)
I0509 12:33:39.349939 31539 net.cpp:137] Memory required for data: 1415750660
I0509 12:33:39.349946 31539 layer_factory.hpp:77] Creating layer inception_4c/relu_pool_proj
I0509 12:33:39.349951 31539 net.cpp:84] Creating Layer inception_4c/relu_pool_proj
I0509 12:33:39.349954 31539 net.cpp:406] inception_4c/relu_pool_proj <- inception_4c/pool_proj
I0509 12:33:39.349959 31539 net.cpp:367] inception_4c/relu_pool_proj -> inception_4c/pool_proj (in-place)
I0509 12:33:39.350281 31539 net.cpp:122] Setting up inception_4c/relu_pool_proj
I0509 12:33:39.350288 31539 net.cpp:129] Top shape: 32 64 14 14 (401408)
I0509 12:33:39.350291 31539 net.cpp:137] Memory required for data: 1417356292
I0509 12:33:39.350293 31539 layer_factory.hpp:77] Creating layer inception_4c/output
I0509 12:33:39.350298 31539 net.cpp:84] Creating Layer inception_4c/output
I0509 12:33:39.350301 31539 net.cpp:406] inception_4c/output <- inception_4c/1x1
I0509 12:33:39.350304 31539 net.cpp:406] inception_4c/output <- inception_4c/3x3
I0509 12:33:39.350307 31539 net.cpp:406] inception_4c/output <- inception_4c/5x5
I0509 12:33:39.350311 31539 net.cpp:406] inception_4c/output <- inception_4c/pool_proj
I0509 12:33:39.350315 31539 net.cpp:380] inception_4c/output -> inception_4c/output
I0509 12:33:39.350339 31539 net.cpp:122] Setting up inception_4c/output
I0509 12:33:39.350343 31539 net.cpp:129] Top shape: 32 512 14 14 (3211264)
I0509 12:33:39.350345 31539 net.cpp:137] Memory required for data: 1430201348
I0509 12:33:39.350347 31539 layer_factory.hpp:77] Creating layer inception_4c/output_inception_4c/output_0_split
I0509 12:33:39.350353 31539 net.cpp:84] Creating Layer inception_4c/output_inception_4c/output_0_split
I0509 12:33:39.350355 31539 net.cpp:406] inception_4c/output_inception_4c/output_0_split <- inception_4c/output
I0509 12:33:39.350360 31539 net.cpp:380] inception_4c/output_inception_4c/output_0_split -> inception_4c/output_inception_4c/output_0_split_0
I0509 12:33:39.350365 31539 net.cpp:380] inception_4c/output_inception_4c/output_0_split -> inception_4c/output_inception_4c/output_0_split_1
I0509 12:33:39.350369 31539 net.cpp:380] inception_4c/output_inception_4c/output_0_split -> inception_4c/output_inception_4c/output_0_split_2
I0509 12:33:39.350375 31539 net.cpp:380] inception_4c/output_inception_4c/output_0_split -> inception_4c/output_inception_4c/output_0_split_3
I0509 12:33:39.350419 31539 net.cpp:122] Setting up inception_4c/output_inception_4c/output_0_split
I0509 12:33:39.350423 31539 net.cpp:129] Top shape: 32 512 14 14 (3211264)
I0509 12:33:39.350426 31539 net.cpp:129] Top shape: 32 512 14 14 (3211264)
I0509 12:33:39.350430 31539 net.cpp:129] Top shape: 32 512 14 14 (3211264)
I0509 12:33:39.350431 31539 net.cpp:129] Top shape: 32 512 14 14 (3211264)
I0509 12:33:39.350433 31539 net.cpp:137] Memory required for data: 1481581572
I0509 12:33:39.350435 31539 layer_factory.hpp:77] Creating layer inception_4d/1x1
I0509 12:33:39.350443 31539 net.cpp:84] Creating Layer inception_4d/1x1
I0509 12:33:39.350446 31539 net.cpp:406] inception_4d/1x1 <- inception_4c/output_inception_4c/output_0_split_0
I0509 12:33:39.350451 31539 net.cpp:380] inception_4d/1x1 -> inception_4d/1x1
I0509 12:33:39.352316 31539 net.cpp:122] Setting up inception_4d/1x1
I0509 12:33:39.352325 31539 net.cpp:129] Top shape: 32 112 14 14 (702464)
I0509 12:33:39.352327 31539 net.cpp:137] Memory required for data: 1484391428
I0509 12:33:39.352332 31539 layer_factory.hpp:77] Creating layer inception_4d/relu_1x1
I0509 12:33:39.352337 31539 net.cpp:84] Creating Layer inception_4d/relu_1x1
I0509 12:33:39.352340 31539 net.cpp:406] inception_4d/relu_1x1 <- inception_4d/1x1
I0509 12:33:39.352345 31539 net.cpp:367] inception_4d/relu_1x1 -> inception_4d/1x1 (in-place)
I0509 12:33:39.352809 31539 net.cpp:122] Setting up inception_4d/relu_1x1
I0509 12:33:39.352819 31539 net.cpp:129] Top shape: 32 112 14 14 (702464)
I0509 12:33:39.352821 31539 net.cpp:137] Memory required for data: 1487201284
I0509 12:33:39.352823 31539 layer_factory.hpp:77] Creating layer inception_4d/3x3_reduce
I0509 12:33:39.352833 31539 net.cpp:84] Creating Layer inception_4d/3x3_reduce
I0509 12:33:39.352844 31539 net.cpp:406] inception_4d/3x3_reduce <- inception_4c/output_inception_4c/output_0_split_1
I0509 12:33:39.352851 31539 net.cpp:380] inception_4d/3x3_reduce -> inception_4d/3x3_reduce
I0509 12:33:39.354795 31539 net.cpp:122] Setting up inception_4d/3x3_reduce
I0509 12:33:39.354804 31539 net.cpp:129] Top shape: 32 144 14 14 (903168)
I0509 12:33:39.354806 31539 net.cpp:137] Memory required for data: 1490813956
I0509 12:33:39.354811 31539 layer_factory.hpp:77] Creating layer inception_4d/relu_3x3_reduce
I0509 12:33:39.354817 31539 net.cpp:84] Creating Layer inception_4d/relu_3x3_reduce
I0509 12:33:39.354820 31539 net.cpp:406] inception_4d/relu_3x3_reduce <- inception_4d/3x3_reduce
I0509 12:33:39.354825 31539 net.cpp:367] inception_4d/relu_3x3_reduce -> inception_4d/3x3_reduce (in-place)
I0509 12:33:39.355437 31539 net.cpp:122] Setting up inception_4d/relu_3x3_reduce
I0509 12:33:39.355446 31539 net.cpp:129] Top shape: 32 144 14 14 (903168)
I0509 12:33:39.355448 31539 net.cpp:137] Memory required for data: 1494426628
I0509 12:33:39.355451 31539 layer_factory.hpp:77] Creating layer inception_4d/3x3
I0509 12:33:39.355460 31539 net.cpp:84] Creating Layer inception_4d/3x3
I0509 12:33:39.355463 31539 net.cpp:406] inception_4d/3x3 <- inception_4d/3x3_reduce
I0509 12:33:39.355470 31539 net.cpp:380] inception_4d/3x3 -> inception_4d/3x3
I0509 12:33:39.359598 31539 net.cpp:122] Setting up inception_4d/3x3
I0509 12:33:39.359611 31539 net.cpp:129] Top shape: 32 288 14 14 (1806336)
I0509 12:33:39.359612 31539 net.cpp:137] Memory required for data: 1501651972
I0509 12:33:39.359618 31539 layer_factory.hpp:77] Creating layer inception_4d/relu_3x3
I0509 12:33:39.359622 31539 net.cpp:84] Creating Layer inception_4d/relu_3x3
I0509 12:33:39.359625 31539 net.cpp:406] inception_4d/relu_3x3 <- inception_4d/3x3
I0509 12:33:39.359632 31539 net.cpp:367] inception_4d/relu_3x3 -> inception_4d/3x3 (in-place)
I0509 12:33:39.360095 31539 net.cpp:122] Setting up inception_4d/relu_3x3
I0509 12:33:39.360103 31539 net.cpp:129] Top shape: 32 288 14 14 (1806336)
I0509 12:33:39.360105 31539 net.cpp:137] Memory required for data: 1508877316
I0509 12:33:39.360107 31539 layer_factory.hpp:77] Creating layer inception_4d/5x5_reduce
I0509 12:33:39.360116 31539 net.cpp:84] Creating Layer inception_4d/5x5_reduce
I0509 12:33:39.360119 31539 net.cpp:406] inception_4d/5x5_reduce <- inception_4c/output_inception_4c/output_0_split_2
I0509 12:33:39.360126 31539 net.cpp:380] inception_4d/5x5_reduce -> inception_4d/5x5_reduce
I0509 12:33:39.361632 31539 net.cpp:122] Setting up inception_4d/5x5_reduce
I0509 12:33:39.361641 31539 net.cpp:129] Top shape: 32 32 14 14 (200704)
I0509 12:33:39.361644 31539 net.cpp:137] Memory required for data: 1509680132
I0509 12:33:39.361649 31539 layer_factory.hpp:77] Creating layer inception_4d/relu_5x5_reduce
I0509 12:33:39.361654 31539 net.cpp:84] Creating Layer inception_4d/relu_5x5_reduce
I0509 12:33:39.361656 31539 net.cpp:406] inception_4d/relu_5x5_reduce <- inception_4d/5x5_reduce
I0509 12:33:39.361661 31539 net.cpp:367] inception_4d/relu_5x5_reduce -> inception_4d/5x5_reduce (in-place)
I0509 12:33:39.362133 31539 net.cpp:122] Setting up inception_4d/relu_5x5_reduce
I0509 12:33:39.362140 31539 net.cpp:129] Top shape: 32 32 14 14 (200704)
I0509 12:33:39.362143 31539 net.cpp:137] Memory required for data: 1510482948
I0509 12:33:39.362145 31539 layer_factory.hpp:77] Creating layer inception_4d/5x5
I0509 12:33:39.362154 31539 net.cpp:84] Creating Layer inception_4d/5x5
I0509 12:33:39.362156 31539 net.cpp:406] inception_4d/5x5 <- inception_4d/5x5_reduce
I0509 12:33:39.362162 31539 net.cpp:380] inception_4d/5x5 -> inception_4d/5x5
I0509 12:33:39.363833 31539 net.cpp:122] Setting up inception_4d/5x5
I0509 12:33:39.363842 31539 net.cpp:129] Top shape: 32 64 14 14 (401408)
I0509 12:33:39.363844 31539 net.cpp:137] Memory required for data: 1512088580
I0509 12:33:39.363849 31539 layer_factory.hpp:77] Creating layer inception_4d/relu_5x5
I0509 12:33:39.363853 31539 net.cpp:84] Creating Layer inception_4d/relu_5x5
I0509 12:33:39.363868 31539 net.cpp:406] inception_4d/relu_5x5 <- inception_4d/5x5
I0509 12:33:39.363874 31539 net.cpp:367] inception_4d/relu_5x5 -> inception_4d/5x5 (in-place)
I0509 12:33:39.364789 31539 net.cpp:122] Setting up inception_4d/relu_5x5
I0509 12:33:39.364796 31539 net.cpp:129] Top shape: 32 64 14 14 (401408)
I0509 12:33:39.364799 31539 net.cpp:137] Memory required for data: 1513694212
I0509 12:33:39.364801 31539 layer_factory.hpp:77] Creating layer inception_4d/pool
I0509 12:33:39.364809 31539 net.cpp:84] Creating Layer inception_4d/pool
I0509 12:33:39.364811 31539 net.cpp:406] inception_4d/pool <- inception_4c/output_inception_4c/output_0_split_3
I0509 12:33:39.364816 31539 net.cpp:380] inception_4d/pool -> inception_4d/pool
I0509 12:33:39.364854 31539 net.cpp:122] Setting up inception_4d/pool
I0509 12:33:39.364858 31539 net.cpp:129] Top shape: 32 512 14 14 (3211264)
I0509 12:33:39.364861 31539 net.cpp:137] Memory required for data: 1526539268
I0509 12:33:39.364862 31539 layer_factory.hpp:77] Creating layer inception_4d/pool_proj
I0509 12:33:39.364871 31539 net.cpp:84] Creating Layer inception_4d/pool_proj
I0509 12:33:39.364873 31539 net.cpp:406] inception_4d/pool_proj <- inception_4d/pool
I0509 12:33:39.364878 31539 net.cpp:380] inception_4d/pool_proj -> inception_4d/pool_proj
I0509 12:33:39.367156 31539 net.cpp:122] Setting up inception_4d/pool_proj
I0509 12:33:39.367166 31539 net.cpp:129] Top shape: 32 64 14 14 (401408)
I0509 12:33:39.367169 31539 net.cpp:137] Memory required for data: 1528144900
I0509 12:33:39.367174 31539 layer_factory.hpp:77] Creating layer inception_4d/relu_pool_proj
I0509 12:33:39.367179 31539 net.cpp:84] Creating Layer inception_4d/relu_pool_proj
I0509 12:33:39.367182 31539 net.cpp:406] inception_4d/relu_pool_proj <- inception_4d/pool_proj
I0509 12:33:39.367187 31539 net.cpp:367] inception_4d/relu_pool_proj -> inception_4d/pool_proj (in-place)
I0509 12:33:39.367503 31539 net.cpp:122] Setting up inception_4d/relu_pool_proj
I0509 12:33:39.367511 31539 net.cpp:129] Top shape: 32 64 14 14 (401408)
I0509 12:33:39.367514 31539 net.cpp:137] Memory required for data: 1529750532
I0509 12:33:39.367516 31539 layer_factory.hpp:77] Creating layer inception_4d/output
I0509 12:33:39.367522 31539 net.cpp:84] Creating Layer inception_4d/output
I0509 12:33:39.367524 31539 net.cpp:406] inception_4d/output <- inception_4d/1x1
I0509 12:33:39.367527 31539 net.cpp:406] inception_4d/output <- inception_4d/3x3
I0509 12:33:39.367530 31539 net.cpp:406] inception_4d/output <- inception_4d/5x5
I0509 12:33:39.367533 31539 net.cpp:406] inception_4d/output <- inception_4d/pool_proj
I0509 12:33:39.367537 31539 net.cpp:380] inception_4d/output -> inception_4d/output
I0509 12:33:39.367559 31539 net.cpp:122] Setting up inception_4d/output
I0509 12:33:39.367565 31539 net.cpp:129] Top shape: 32 528 14 14 (3311616)
I0509 12:33:39.367568 31539 net.cpp:137] Memory required for data: 1542996996
I0509 12:33:39.367569 31539 layer_factory.hpp:77] Creating layer inception_4d/output_inception_4d/output_0_split
I0509 12:33:39.367574 31539 net.cpp:84] Creating Layer inception_4d/output_inception_4d/output_0_split
I0509 12:33:39.367578 31539 net.cpp:406] inception_4d/output_inception_4d/output_0_split <- inception_4d/output
I0509 12:33:39.367583 31539 net.cpp:380] inception_4d/output_inception_4d/output_0_split -> inception_4d/output_inception_4d/output_0_split_0
I0509 12:33:39.367597 31539 net.cpp:380] inception_4d/output_inception_4d/output_0_split -> inception_4d/output_inception_4d/output_0_split_1
I0509 12:33:39.367601 31539 net.cpp:380] inception_4d/output_inception_4d/output_0_split -> inception_4d/output_inception_4d/output_0_split_2
I0509 12:33:39.367607 31539 net.cpp:380] inception_4d/output_inception_4d/output_0_split -> inception_4d/output_inception_4d/output_0_split_3
I0509 12:33:39.367611 31539 net.cpp:380] inception_4d/output_inception_4d/output_0_split -> inception_4d/output_inception_4d/output_0_split_4
I0509 12:33:39.367661 31539 net.cpp:122] Setting up inception_4d/output_inception_4d/output_0_split
I0509 12:33:39.367676 31539 net.cpp:129] Top shape: 32 528 14 14 (3311616)
I0509 12:33:39.367679 31539 net.cpp:129] Top shape: 32 528 14 14 (3311616)
I0509 12:33:39.367682 31539 net.cpp:129] Top shape: 32 528 14 14 (3311616)
I0509 12:33:39.367686 31539 net.cpp:129] Top shape: 32 528 14 14 (3311616)
I0509 12:33:39.367687 31539 net.cpp:129] Top shape: 32 528 14 14 (3311616)
I0509 12:33:39.367689 31539 net.cpp:137] Memory required for data: 1609229316
I0509 12:33:39.367691 31539 layer_factory.hpp:77] Creating layer loss2/ave_pool
I0509 12:33:39.367697 31539 net.cpp:84] Creating Layer loss2/ave_pool
I0509 12:33:39.367699 31539 net.cpp:406] loss2/ave_pool <- inception_4d/output_inception_4d/output_0_split_0
I0509 12:33:39.367704 31539 net.cpp:380] loss2/ave_pool -> loss2/ave_pool
I0509 12:33:39.368187 31539 net.cpp:122] Setting up loss2/ave_pool
I0509 12:33:39.368196 31539 net.cpp:129] Top shape: 32 528 4 4 (270336)
I0509 12:33:39.368197 31539 net.cpp:137] Memory required for data: 1610310660
I0509 12:33:39.368199 31539 layer_factory.hpp:77] Creating layer loss2/conv
I0509 12:33:39.368207 31539 net.cpp:84] Creating Layer loss2/conv
I0509 12:33:39.368211 31539 net.cpp:406] loss2/conv <- loss2/ave_pool
I0509 12:33:39.368216 31539 net.cpp:380] loss2/conv -> loss2/conv
I0509 12:33:39.370064 31539 net.cpp:122] Setting up loss2/conv
I0509 12:33:39.370074 31539 net.cpp:129] Top shape: 32 128 4 4 (65536)
I0509 12:33:39.370076 31539 net.cpp:137] Memory required for data: 1610572804
I0509 12:33:39.370080 31539 layer_factory.hpp:77] Creating layer loss2/relu_conv
I0509 12:33:39.370085 31539 net.cpp:84] Creating Layer loss2/relu_conv
I0509 12:33:39.370088 31539 net.cpp:406] loss2/relu_conv <- loss2/conv
I0509 12:33:39.370092 31539 net.cpp:367] loss2/relu_conv -> loss2/conv (in-place)
I0509 12:33:39.370406 31539 net.cpp:122] Setting up loss2/relu_conv
I0509 12:33:39.370414 31539 net.cpp:129] Top shape: 32 128 4 4 (65536)
I0509 12:33:39.370415 31539 net.cpp:137] Memory required for data: 1610834948
I0509 12:33:39.370419 31539 layer_factory.hpp:77] Creating layer loss2/fc
I0509 12:33:39.370425 31539 net.cpp:84] Creating Layer loss2/fc
I0509 12:33:39.370427 31539 net.cpp:406] loss2/fc <- loss2/conv
I0509 12:33:39.370432 31539 net.cpp:380] loss2/fc -> loss2/fc
I0509 12:33:39.381528 31539 net.cpp:122] Setting up loss2/fc
I0509 12:33:39.381544 31539 net.cpp:129] Top shape: 32 1024 (32768)
I0509 12:33:39.381546 31539 net.cpp:137] Memory required for data: 1610966020
I0509 12:33:39.381553 31539 layer_factory.hpp:77] Creating layer loss2/relu_fc
I0509 12:33:39.381559 31539 net.cpp:84] Creating Layer loss2/relu_fc
I0509 12:33:39.381563 31539 net.cpp:406] loss2/relu_fc <- loss2/fc
I0509 12:33:39.381568 31539 net.cpp:367] loss2/relu_fc -> loss2/fc (in-place)
I0509 12:33:39.382617 31539 net.cpp:122] Setting up loss2/relu_fc
I0509 12:33:39.382629 31539 net.cpp:129] Top shape: 32 1024 (32768)
I0509 12:33:39.382632 31539 net.cpp:137] Memory required for data: 1611097092
I0509 12:33:39.382635 31539 layer_factory.hpp:77] Creating layer loss2/drop_fc
I0509 12:33:39.382642 31539 net.cpp:84] Creating Layer loss2/drop_fc
I0509 12:33:39.382644 31539 net.cpp:406] loss2/drop_fc <- loss2/fc
I0509 12:33:39.382649 31539 net.cpp:367] loss2/drop_fc -> loss2/fc (in-place)
I0509 12:33:39.382673 31539 net.cpp:122] Setting up loss2/drop_fc
I0509 12:33:39.382676 31539 net.cpp:129] Top shape: 32 1024 (32768)
I0509 12:33:39.382678 31539 net.cpp:137] Memory required for data: 1611228164
I0509 12:33:39.382680 31539 layer_factory.hpp:77] Creating layer loss2/classifier
I0509 12:33:39.382688 31539 net.cpp:84] Creating Layer loss2/classifier
I0509 12:33:39.382690 31539 net.cpp:406] loss2/classifier <- loss2/fc
I0509 12:33:39.382694 31539 net.cpp:380] loss2/classifier -> loss2/classifier
I0509 12:33:39.384040 31539 net.cpp:122] Setting up loss2/classifier
I0509 12:33:39.384048 31539 net.cpp:129] Top shape: 32 196 (6272)
I0509 12:33:39.384050 31539 net.cpp:137] Memory required for data: 1611253252
I0509 12:33:39.384057 31539 layer_factory.hpp:77] Creating layer loss2/loss
I0509 12:33:39.384078 31539 net.cpp:84] Creating Layer loss2/loss
I0509 12:33:39.384080 31539 net.cpp:406] loss2/loss <- loss2/classifier
I0509 12:33:39.384084 31539 net.cpp:406] loss2/loss <- label_train-data_1_split_1
I0509 12:33:39.384088 31539 net.cpp:380] loss2/loss -> loss2/loss
I0509 12:33:39.384095 31539 layer_factory.hpp:77] Creating layer loss2/loss
I0509 12:33:39.384630 31539 net.cpp:122] Setting up loss2/loss
I0509 12:33:39.384639 31539 net.cpp:129] Top shape: (1)
I0509 12:33:39.384639 31539 net.cpp:132]     with loss weight 0.3
I0509 12:33:39.384649 31539 net.cpp:137] Memory required for data: 1611253256
I0509 12:33:39.384651 31539 layer_factory.hpp:77] Creating layer inception_4e/1x1
I0509 12:33:39.384661 31539 net.cpp:84] Creating Layer inception_4e/1x1
I0509 12:33:39.384665 31539 net.cpp:406] inception_4e/1x1 <- inception_4d/output_inception_4d/output_0_split_1
I0509 12:33:39.384671 31539 net.cpp:380] inception_4e/1x1 -> inception_4e/1x1
I0509 12:33:39.386735 31539 net.cpp:122] Setting up inception_4e/1x1
I0509 12:33:39.386745 31539 net.cpp:129] Top shape: 32 256 14 14 (1605632)
I0509 12:33:39.386747 31539 net.cpp:137] Memory required for data: 1617675784
I0509 12:33:39.386754 31539 layer_factory.hpp:77] Creating layer inception_4e/relu_1x1
I0509 12:33:39.386759 31539 net.cpp:84] Creating Layer inception_4e/relu_1x1
I0509 12:33:39.386763 31539 net.cpp:406] inception_4e/relu_1x1 <- inception_4e/1x1
I0509 12:33:39.386766 31539 net.cpp:367] inception_4e/relu_1x1 -> inception_4e/1x1 (in-place)
I0509 12:33:39.387329 31539 net.cpp:122] Setting up inception_4e/relu_1x1
I0509 12:33:39.387339 31539 net.cpp:129] Top shape: 32 256 14 14 (1605632)
I0509 12:33:39.387341 31539 net.cpp:137] Memory required for data: 1624098312
I0509 12:33:39.387343 31539 layer_factory.hpp:77] Creating layer inception_4e/3x3_reduce
I0509 12:33:39.387352 31539 net.cpp:84] Creating Layer inception_4e/3x3_reduce
I0509 12:33:39.387356 31539 net.cpp:406] inception_4e/3x3_reduce <- inception_4d/output_inception_4d/output_0_split_2
I0509 12:33:39.387362 31539 net.cpp:380] inception_4e/3x3_reduce -> inception_4e/3x3_reduce
I0509 12:33:39.389537 31539 net.cpp:122] Setting up inception_4e/3x3_reduce
I0509 12:33:39.389545 31539 net.cpp:129] Top shape: 32 160 14 14 (1003520)
I0509 12:33:39.389549 31539 net.cpp:137] Memory required for data: 1628112392
I0509 12:33:39.389554 31539 layer_factory.hpp:77] Creating layer inception_4e/relu_3x3_reduce
I0509 12:33:39.389559 31539 net.cpp:84] Creating Layer inception_4e/relu_3x3_reduce
I0509 12:33:39.389562 31539 net.cpp:406] inception_4e/relu_3x3_reduce <- inception_4e/3x3_reduce
I0509 12:33:39.389566 31539 net.cpp:367] inception_4e/relu_3x3_reduce -> inception_4e/3x3_reduce (in-place)
I0509 12:33:39.393179 31539 net.cpp:122] Setting up inception_4e/relu_3x3_reduce
I0509 12:33:39.393190 31539 net.cpp:129] Top shape: 32 160 14 14 (1003520)
I0509 12:33:39.393193 31539 net.cpp:137] Memory required for data: 1632126472
I0509 12:33:39.393195 31539 layer_factory.hpp:77] Creating layer inception_4e/3x3
I0509 12:33:39.393204 31539 net.cpp:84] Creating Layer inception_4e/3x3
I0509 12:33:39.393208 31539 net.cpp:406] inception_4e/3x3 <- inception_4e/3x3_reduce
I0509 12:33:39.393214 31539 net.cpp:380] inception_4e/3x3 -> inception_4e/3x3
I0509 12:33:39.398109 31539 net.cpp:122] Setting up inception_4e/3x3
I0509 12:33:39.398121 31539 net.cpp:129] Top shape: 32 320 14 14 (2007040)
I0509 12:33:39.398123 31539 net.cpp:137] Memory required for data: 1640154632
I0509 12:33:39.398128 31539 layer_factory.hpp:77] Creating layer inception_4e/relu_3x3
I0509 12:33:39.398134 31539 net.cpp:84] Creating Layer inception_4e/relu_3x3
I0509 12:33:39.398138 31539 net.cpp:406] inception_4e/relu_3x3 <- inception_4e/3x3
I0509 12:33:39.398142 31539 net.cpp:367] inception_4e/relu_3x3 -> inception_4e/3x3 (in-place)
I0509 12:33:39.398607 31539 net.cpp:122] Setting up inception_4e/relu_3x3
I0509 12:33:39.398614 31539 net.cpp:129] Top shape: 32 320 14 14 (2007040)
I0509 12:33:39.398617 31539 net.cpp:137] Memory required for data: 1648182792
I0509 12:33:39.398635 31539 layer_factory.hpp:77] Creating layer inception_4e/5x5_reduce
I0509 12:33:39.398646 31539 net.cpp:84] Creating Layer inception_4e/5x5_reduce
I0509 12:33:39.398649 31539 net.cpp:406] inception_4e/5x5_reduce <- inception_4d/output_inception_4d/output_0_split_3
I0509 12:33:39.398654 31539 net.cpp:380] inception_4e/5x5_reduce -> inception_4e/5x5_reduce
I0509 12:33:39.400449 31539 net.cpp:122] Setting up inception_4e/5x5_reduce
I0509 12:33:39.400457 31539 net.cpp:129] Top shape: 32 32 14 14 (200704)
I0509 12:33:39.400460 31539 net.cpp:137] Memory required for data: 1648985608
I0509 12:33:39.400465 31539 layer_factory.hpp:77] Creating layer inception_4e/relu_5x5_reduce
I0509 12:33:39.400471 31539 net.cpp:84] Creating Layer inception_4e/relu_5x5_reduce
I0509 12:33:39.400475 31539 net.cpp:406] inception_4e/relu_5x5_reduce <- inception_4e/5x5_reduce
I0509 12:33:39.400478 31539 net.cpp:367] inception_4e/relu_5x5_reduce -> inception_4e/5x5_reduce (in-place)
I0509 12:33:39.400950 31539 net.cpp:122] Setting up inception_4e/relu_5x5_reduce
I0509 12:33:39.400960 31539 net.cpp:129] Top shape: 32 32 14 14 (200704)
I0509 12:33:39.400962 31539 net.cpp:137] Memory required for data: 1649788424
I0509 12:33:39.400964 31539 layer_factory.hpp:77] Creating layer inception_4e/5x5
I0509 12:33:39.400998 31539 net.cpp:84] Creating Layer inception_4e/5x5
I0509 12:33:39.401001 31539 net.cpp:406] inception_4e/5x5 <- inception_4e/5x5_reduce
I0509 12:33:39.401006 31539 net.cpp:380] inception_4e/5x5 -> inception_4e/5x5
I0509 12:33:39.403300 31539 net.cpp:122] Setting up inception_4e/5x5
I0509 12:33:39.403308 31539 net.cpp:129] Top shape: 32 128 14 14 (802816)
I0509 12:33:39.403311 31539 net.cpp:137] Memory required for data: 1652999688
I0509 12:33:39.403316 31539 layer_factory.hpp:77] Creating layer inception_4e/relu_5x5
I0509 12:33:39.403321 31539 net.cpp:84] Creating Layer inception_4e/relu_5x5
I0509 12:33:39.403324 31539 net.cpp:406] inception_4e/relu_5x5 <- inception_4e/5x5
I0509 12:33:39.403329 31539 net.cpp:367] inception_4e/relu_5x5 -> inception_4e/5x5 (in-place)
I0509 12:33:39.403800 31539 net.cpp:122] Setting up inception_4e/relu_5x5
I0509 12:33:39.403807 31539 net.cpp:129] Top shape: 32 128 14 14 (802816)
I0509 12:33:39.403810 31539 net.cpp:137] Memory required for data: 1656210952
I0509 12:33:39.403811 31539 layer_factory.hpp:77] Creating layer inception_4e/pool
I0509 12:33:39.403818 31539 net.cpp:84] Creating Layer inception_4e/pool
I0509 12:33:39.403821 31539 net.cpp:406] inception_4e/pool <- inception_4d/output_inception_4d/output_0_split_4
I0509 12:33:39.403826 31539 net.cpp:380] inception_4e/pool -> inception_4e/pool
I0509 12:33:39.403861 31539 net.cpp:122] Setting up inception_4e/pool
I0509 12:33:39.403865 31539 net.cpp:129] Top shape: 32 528 14 14 (3311616)
I0509 12:33:39.403867 31539 net.cpp:137] Memory required for data: 1669457416
I0509 12:33:39.403869 31539 layer_factory.hpp:77] Creating layer inception_4e/pool_proj
I0509 12:33:39.403877 31539 net.cpp:84] Creating Layer inception_4e/pool_proj
I0509 12:33:39.403880 31539 net.cpp:406] inception_4e/pool_proj <- inception_4e/pool
I0509 12:33:39.403887 31539 net.cpp:380] inception_4e/pool_proj -> inception_4e/pool_proj
I0509 12:33:39.405701 31539 net.cpp:122] Setting up inception_4e/pool_proj
I0509 12:33:39.405710 31539 net.cpp:129] Top shape: 32 128 14 14 (802816)
I0509 12:33:39.405712 31539 net.cpp:137] Memory required for data: 1672668680
I0509 12:33:39.405717 31539 layer_factory.hpp:77] Creating layer inception_4e/relu_pool_proj
I0509 12:33:39.405722 31539 net.cpp:84] Creating Layer inception_4e/relu_pool_proj
I0509 12:33:39.405725 31539 net.cpp:406] inception_4e/relu_pool_proj <- inception_4e/pool_proj
I0509 12:33:39.405731 31539 net.cpp:367] inception_4e/relu_pool_proj -> inception_4e/pool_proj (in-place)
I0509 12:33:39.406204 31539 net.cpp:122] Setting up inception_4e/relu_pool_proj
I0509 12:33:39.406213 31539 net.cpp:129] Top shape: 32 128 14 14 (802816)
I0509 12:33:39.406214 31539 net.cpp:137] Memory required for data: 1675879944
I0509 12:33:39.406231 31539 layer_factory.hpp:77] Creating layer inception_4e/output
I0509 12:33:39.406237 31539 net.cpp:84] Creating Layer inception_4e/output
I0509 12:33:39.406240 31539 net.cpp:406] inception_4e/output <- inception_4e/1x1
I0509 12:33:39.406244 31539 net.cpp:406] inception_4e/output <- inception_4e/3x3
I0509 12:33:39.406247 31539 net.cpp:406] inception_4e/output <- inception_4e/5x5
I0509 12:33:39.406250 31539 net.cpp:406] inception_4e/output <- inception_4e/pool_proj
I0509 12:33:39.406253 31539 net.cpp:380] inception_4e/output -> inception_4e/output
I0509 12:33:39.406277 31539 net.cpp:122] Setting up inception_4e/output
I0509 12:33:39.406282 31539 net.cpp:129] Top shape: 32 832 14 14 (5218304)
I0509 12:33:39.406284 31539 net.cpp:137] Memory required for data: 1696753160
I0509 12:33:39.406286 31539 layer_factory.hpp:77] Creating layer pool4/3x3_s2
I0509 12:33:39.406292 31539 net.cpp:84] Creating Layer pool4/3x3_s2
I0509 12:33:39.406294 31539 net.cpp:406] pool4/3x3_s2 <- inception_4e/output
I0509 12:33:39.406298 31539 net.cpp:380] pool4/3x3_s2 -> pool4/3x3_s2
I0509 12:33:39.406327 31539 net.cpp:122] Setting up pool4/3x3_s2
I0509 12:33:39.406330 31539 net.cpp:129] Top shape: 32 832 7 7 (1304576)
I0509 12:33:39.406332 31539 net.cpp:137] Memory required for data: 1701971464
I0509 12:33:39.406334 31539 layer_factory.hpp:77] Creating layer pool4/3x3_s2_pool4/3x3_s2_0_split
I0509 12:33:39.406340 31539 net.cpp:84] Creating Layer pool4/3x3_s2_pool4/3x3_s2_0_split
I0509 12:33:39.406343 31539 net.cpp:406] pool4/3x3_s2_pool4/3x3_s2_0_split <- pool4/3x3_s2
I0509 12:33:39.406348 31539 net.cpp:380] pool4/3x3_s2_pool4/3x3_s2_0_split -> pool4/3x3_s2_pool4/3x3_s2_0_split_0
I0509 12:33:39.406352 31539 net.cpp:380] pool4/3x3_s2_pool4/3x3_s2_0_split -> pool4/3x3_s2_pool4/3x3_s2_0_split_1
I0509 12:33:39.406358 31539 net.cpp:380] pool4/3x3_s2_pool4/3x3_s2_0_split -> pool4/3x3_s2_pool4/3x3_s2_0_split_2
I0509 12:33:39.406360 31539 net.cpp:380] pool4/3x3_s2_pool4/3x3_s2_0_split -> pool4/3x3_s2_pool4/3x3_s2_0_split_3
I0509 12:33:39.406401 31539 net.cpp:122] Setting up pool4/3x3_s2_pool4/3x3_s2_0_split
I0509 12:33:39.406405 31539 net.cpp:129] Top shape: 32 832 7 7 (1304576)
I0509 12:33:39.406407 31539 net.cpp:129] Top shape: 32 832 7 7 (1304576)
I0509 12:33:39.406410 31539 net.cpp:129] Top shape: 32 832 7 7 (1304576)
I0509 12:33:39.406412 31539 net.cpp:129] Top shape: 32 832 7 7 (1304576)
I0509 12:33:39.406414 31539 net.cpp:137] Memory required for data: 1722844680
I0509 12:33:39.406416 31539 layer_factory.hpp:77] Creating layer inception_5a/1x1
I0509 12:33:39.406424 31539 net.cpp:84] Creating Layer inception_5a/1x1
I0509 12:33:39.406426 31539 net.cpp:406] inception_5a/1x1 <- pool4/3x3_s2_pool4/3x3_s2_0_split_0
I0509 12:33:39.406432 31539 net.cpp:380] inception_5a/1x1 -> inception_5a/1x1
I0509 12:33:39.409166 31539 net.cpp:122] Setting up inception_5a/1x1
I0509 12:33:39.409175 31539 net.cpp:129] Top shape: 32 256 7 7 (401408)
I0509 12:33:39.409178 31539 net.cpp:137] Memory required for data: 1724450312
I0509 12:33:39.409183 31539 layer_factory.hpp:77] Creating layer inception_5a/relu_1x1
I0509 12:33:39.409188 31539 net.cpp:84] Creating Layer inception_5a/relu_1x1
I0509 12:33:39.409190 31539 net.cpp:406] inception_5a/relu_1x1 <- inception_5a/1x1
I0509 12:33:39.409195 31539 net.cpp:367] inception_5a/relu_1x1 -> inception_5a/1x1 (in-place)
I0509 12:33:39.409677 31539 net.cpp:122] Setting up inception_5a/relu_1x1
I0509 12:33:39.409685 31539 net.cpp:129] Top shape: 32 256 7 7 (401408)
I0509 12:33:39.409687 31539 net.cpp:137] Memory required for data: 1726055944
I0509 12:33:39.409690 31539 layer_factory.hpp:77] Creating layer inception_5a/3x3_reduce
I0509 12:33:39.409698 31539 net.cpp:84] Creating Layer inception_5a/3x3_reduce
I0509 12:33:39.409701 31539 net.cpp:406] inception_5a/3x3_reduce <- pool4/3x3_s2_pool4/3x3_s2_0_split_1
I0509 12:33:39.409706 31539 net.cpp:380] inception_5a/3x3_reduce -> inception_5a/3x3_reduce
I0509 12:33:39.413105 31539 net.cpp:122] Setting up inception_5a/3x3_reduce
I0509 12:33:39.413116 31539 net.cpp:129] Top shape: 32 160 7 7 (250880)
I0509 12:33:39.413131 31539 net.cpp:137] Memory required for data: 1727059464
I0509 12:33:39.413137 31539 layer_factory.hpp:77] Creating layer inception_5a/relu_3x3_reduce
I0509 12:33:39.413143 31539 net.cpp:84] Creating Layer inception_5a/relu_3x3_reduce
I0509 12:33:39.413149 31539 net.cpp:406] inception_5a/relu_3x3_reduce <- inception_5a/3x3_reduce
I0509 12:33:39.413153 31539 net.cpp:367] inception_5a/relu_3x3_reduce -> inception_5a/3x3_reduce (in-place)
I0509 12:33:39.413483 31539 net.cpp:122] Setting up inception_5a/relu_3x3_reduce
I0509 12:33:39.413491 31539 net.cpp:129] Top shape: 32 160 7 7 (250880)
I0509 12:33:39.413493 31539 net.cpp:137] Memory required for data: 1728062984
I0509 12:33:39.413496 31539 layer_factory.hpp:77] Creating layer inception_5a/3x3
I0509 12:33:39.413504 31539 net.cpp:84] Creating Layer inception_5a/3x3
I0509 12:33:39.413507 31539 net.cpp:406] inception_5a/3x3 <- inception_5a/3x3_reduce
I0509 12:33:39.413513 31539 net.cpp:380] inception_5a/3x3 -> inception_5a/3x3
I0509 12:33:39.423018 31539 net.cpp:122] Setting up inception_5a/3x3
I0509 12:33:39.423029 31539 net.cpp:129] Top shape: 32 320 7 7 (501760)
I0509 12:33:39.423032 31539 net.cpp:137] Memory required for data: 1730070024
I0509 12:33:39.423038 31539 layer_factory.hpp:77] Creating layer inception_5a/relu_3x3
I0509 12:33:39.423049 31539 net.cpp:84] Creating Layer inception_5a/relu_3x3
I0509 12:33:39.423053 31539 net.cpp:406] inception_5a/relu_3x3 <- inception_5a/3x3
I0509 12:33:39.423058 31539 net.cpp:367] inception_5a/relu_3x3 -> inception_5a/3x3 (in-place)
I0509 12:33:39.423629 31539 net.cpp:122] Setting up inception_5a/relu_3x3
I0509 12:33:39.423637 31539 net.cpp:129] Top shape: 32 320 7 7 (501760)
I0509 12:33:39.423640 31539 net.cpp:137] Memory required for data: 1732077064
I0509 12:33:39.423642 31539 layer_factory.hpp:77] Creating layer inception_5a/5x5_reduce
I0509 12:33:39.423656 31539 net.cpp:84] Creating Layer inception_5a/5x5_reduce
I0509 12:33:39.423660 31539 net.cpp:406] inception_5a/5x5_reduce <- pool4/3x3_s2_pool4/3x3_s2_0_split_2
I0509 12:33:39.423665 31539 net.cpp:380] inception_5a/5x5_reduce -> inception_5a/5x5_reduce
I0509 12:33:39.493275 31539 net.cpp:122] Setting up inception_5a/5x5_reduce
I0509 12:33:39.493295 31539 net.cpp:129] Top shape: 32 32 7 7 (50176)
I0509 12:33:39.493299 31539 net.cpp:137] Memory required for data: 1732277768
I0509 12:33:39.493307 31539 layer_factory.hpp:77] Creating layer inception_5a/relu_5x5_reduce
I0509 12:33:39.493315 31539 net.cpp:84] Creating Layer inception_5a/relu_5x5_reduce
I0509 12:33:39.493320 31539 net.cpp:406] inception_5a/relu_5x5_reduce <- inception_5a/5x5_reduce
I0509 12:33:39.493327 31539 net.cpp:367] inception_5a/relu_5x5_reduce -> inception_5a/5x5_reduce (in-place)
I0509 12:33:39.525665 31539 net.cpp:122] Setting up inception_5a/relu_5x5_reduce
I0509 12:33:39.525686 31539 net.cpp:129] Top shape: 32 32 7 7 (50176)
I0509 12:33:39.525688 31539 net.cpp:137] Memory required for data: 1732478472
I0509 12:33:39.525692 31539 layer_factory.hpp:77] Creating layer inception_5a/5x5
I0509 12:33:39.525712 31539 net.cpp:84] Creating Layer inception_5a/5x5
I0509 12:33:39.525717 31539 net.cpp:406] inception_5a/5x5 <- inception_5a/5x5_reduce
I0509 12:33:39.525724 31539 net.cpp:380] inception_5a/5x5 -> inception_5a/5x5
I0509 12:33:39.562083 31539 net.cpp:122] Setting up inception_5a/5x5
I0509 12:33:39.562103 31539 net.cpp:129] Top shape: 32 128 7 7 (200704)
I0509 12:33:39.562105 31539 net.cpp:137] Memory required for data: 1733281288
I0509 12:33:39.562114 31539 layer_factory.hpp:77] Creating layer inception_5a/relu_5x5
I0509 12:33:39.562124 31539 net.cpp:84] Creating Layer inception_5a/relu_5x5
I0509 12:33:39.562129 31539 net.cpp:406] inception_5a/relu_5x5 <- inception_5a/5x5
I0509 12:33:39.562134 31539 net.cpp:367] inception_5a/relu_5x5 -> inception_5a/5x5 (in-place)
I0509 12:33:39.562606 31539 net.cpp:122] Setting up inception_5a/relu_5x5
I0509 12:33:39.562618 31539 net.cpp:129] Top shape: 32 128 7 7 (200704)
I0509 12:33:39.562619 31539 net.cpp:137] Memory required for data: 1734084104
I0509 12:33:39.562638 31539 layer_factory.hpp:77] Creating layer inception_5a/pool
I0509 12:33:39.562645 31539 net.cpp:84] Creating Layer inception_5a/pool
I0509 12:33:39.562649 31539 net.cpp:406] inception_5a/pool <- pool4/3x3_s2_pool4/3x3_s2_0_split_3
I0509 12:33:39.562655 31539 net.cpp:380] inception_5a/pool -> inception_5a/pool
I0509 12:33:39.562692 31539 net.cpp:122] Setting up inception_5a/pool
I0509 12:33:39.562698 31539 net.cpp:129] Top shape: 32 832 7 7 (1304576)
I0509 12:33:39.562700 31539 net.cpp:137] Memory required for data: 1739302408
I0509 12:33:39.562702 31539 layer_factory.hpp:77] Creating layer inception_5a/pool_proj
I0509 12:33:39.562711 31539 net.cpp:84] Creating Layer inception_5a/pool_proj
I0509 12:33:39.562713 31539 net.cpp:406] inception_5a/pool_proj <- inception_5a/pool
I0509 12:33:39.562718 31539 net.cpp:380] inception_5a/pool_proj -> inception_5a/pool_proj
I0509 12:33:39.565955 31539 net.cpp:122] Setting up inception_5a/pool_proj
I0509 12:33:39.565969 31539 net.cpp:129] Top shape: 32 128 7 7 (200704)
I0509 12:33:39.565973 31539 net.cpp:137] Memory required for data: 1740105224
I0509 12:33:39.565981 31539 layer_factory.hpp:77] Creating layer inception_5a/relu_pool_proj
I0509 12:33:39.565990 31539 net.cpp:84] Creating Layer inception_5a/relu_pool_proj
I0509 12:33:39.565995 31539 net.cpp:406] inception_5a/relu_pool_proj <- inception_5a/pool_proj
I0509 12:33:39.566002 31539 net.cpp:367] inception_5a/relu_pool_proj -> inception_5a/pool_proj (in-place)
I0509 12:33:39.566726 31539 net.cpp:122] Setting up inception_5a/relu_pool_proj
I0509 12:33:39.566740 31539 net.cpp:129] Top shape: 32 128 7 7 (200704)
I0509 12:33:39.566743 31539 net.cpp:137] Memory required for data: 1740908040
I0509 12:33:39.566747 31539 layer_factory.hpp:77] Creating layer inception_5a/output
I0509 12:33:39.566756 31539 net.cpp:84] Creating Layer inception_5a/output
I0509 12:33:39.566761 31539 net.cpp:406] inception_5a/output <- inception_5a/1x1
I0509 12:33:39.566766 31539 net.cpp:406] inception_5a/output <- inception_5a/3x3
I0509 12:33:39.566771 31539 net.cpp:406] inception_5a/output <- inception_5a/5x5
I0509 12:33:39.566776 31539 net.cpp:406] inception_5a/output <- inception_5a/pool_proj
I0509 12:33:39.566783 31539 net.cpp:380] inception_5a/output -> inception_5a/output
I0509 12:33:39.566821 31539 net.cpp:122] Setting up inception_5a/output
I0509 12:33:39.566828 31539 net.cpp:129] Top shape: 32 832 7 7 (1304576)
I0509 12:33:39.566831 31539 net.cpp:137] Memory required for data: 1746126344
I0509 12:33:39.566834 31539 layer_factory.hpp:77] Creating layer inception_5a/output_inception_5a/output_0_split
I0509 12:33:39.566841 31539 net.cpp:84] Creating Layer inception_5a/output_inception_5a/output_0_split
I0509 12:33:39.566846 31539 net.cpp:406] inception_5a/output_inception_5a/output_0_split <- inception_5a/output
I0509 12:33:39.566854 31539 net.cpp:380] inception_5a/output_inception_5a/output_0_split -> inception_5a/output_inception_5a/output_0_split_0
I0509 12:33:39.566862 31539 net.cpp:380] inception_5a/output_inception_5a/output_0_split -> inception_5a/output_inception_5a/output_0_split_1
I0509 12:33:39.566869 31539 net.cpp:380] inception_5a/output_inception_5a/output_0_split -> inception_5a/output_inception_5a/output_0_split_2
I0509 12:33:39.566877 31539 net.cpp:380] inception_5a/output_inception_5a/output_0_split -> inception_5a/output_inception_5a/output_0_split_3
I0509 12:33:39.566949 31539 net.cpp:122] Setting up inception_5a/output_inception_5a/output_0_split
I0509 12:33:39.566956 31539 net.cpp:129] Top shape: 32 832 7 7 (1304576)
I0509 12:33:39.566960 31539 net.cpp:129] Top shape: 32 832 7 7 (1304576)
I0509 12:33:39.566965 31539 net.cpp:129] Top shape: 32 832 7 7 (1304576)
I0509 12:33:39.566969 31539 net.cpp:129] Top shape: 32 832 7 7 (1304576)
I0509 12:33:39.566972 31539 net.cpp:137] Memory required for data: 1766999560
I0509 12:33:39.566977 31539 layer_factory.hpp:77] Creating layer inception_5b/1x1
I0509 12:33:39.566987 31539 net.cpp:84] Creating Layer inception_5b/1x1
I0509 12:33:39.566992 31539 net.cpp:406] inception_5b/1x1 <- inception_5a/output_inception_5a/output_0_split_0
I0509 12:33:39.567013 31539 net.cpp:380] inception_5b/1x1 -> inception_5b/1x1
I0509 12:33:39.574257 31539 net.cpp:122] Setting up inception_5b/1x1
I0509 12:33:39.574275 31539 net.cpp:129] Top shape: 32 384 7 7 (602112)
I0509 12:33:39.574280 31539 net.cpp:137] Memory required for data: 1769408008
I0509 12:33:39.574287 31539 layer_factory.hpp:77] Creating layer inception_5b/relu_1x1
I0509 12:33:39.574301 31539 net.cpp:84] Creating Layer inception_5b/relu_1x1
I0509 12:33:39.574306 31539 net.cpp:406] inception_5b/relu_1x1 <- inception_5b/1x1
I0509 12:33:39.574313 31539 net.cpp:367] inception_5b/relu_1x1 -> inception_5b/1x1 (in-place)
I0509 12:33:39.574815 31539 net.cpp:122] Setting up inception_5b/relu_1x1
I0509 12:33:39.574826 31539 net.cpp:129] Top shape: 32 384 7 7 (602112)
I0509 12:33:39.574829 31539 net.cpp:137] Memory required for data: 1771816456
I0509 12:33:39.574833 31539 layer_factory.hpp:77] Creating layer inception_5b/3x3_reduce
I0509 12:33:39.574846 31539 net.cpp:84] Creating Layer inception_5b/3x3_reduce
I0509 12:33:39.574852 31539 net.cpp:406] inception_5b/3x3_reduce <- inception_5a/output_inception_5a/output_0_split_1
I0509 12:33:39.574860 31539 net.cpp:380] inception_5b/3x3_reduce -> inception_5b/3x3_reduce
I0509 12:33:39.578508 31539 net.cpp:122] Setting up inception_5b/3x3_reduce
I0509 12:33:39.578521 31539 net.cpp:129] Top shape: 32 192 7 7 (301056)
I0509 12:33:39.578523 31539 net.cpp:137] Memory required for data: 1773020680
I0509 12:33:39.578531 31539 layer_factory.hpp:77] Creating layer inception_5b/relu_3x3_reduce
I0509 12:33:39.578537 31539 net.cpp:84] Creating Layer inception_5b/relu_3x3_reduce
I0509 12:33:39.578541 31539 net.cpp:406] inception_5b/relu_3x3_reduce <- inception_5b/3x3_reduce
I0509 12:33:39.578548 31539 net.cpp:367] inception_5b/relu_3x3_reduce -> inception_5b/3x3_reduce (in-place)
I0509 12:33:39.578974 31539 net.cpp:122] Setting up inception_5b/relu_3x3_reduce
I0509 12:33:39.578982 31539 net.cpp:129] Top shape: 32 192 7 7 (301056)
I0509 12:33:39.578985 31539 net.cpp:137] Memory required for data: 1774224904
I0509 12:33:39.578989 31539 layer_factory.hpp:77] Creating layer inception_5b/3x3
I0509 12:33:39.578999 31539 net.cpp:84] Creating Layer inception_5b/3x3
I0509 12:33:39.579003 31539 net.cpp:406] inception_5b/3x3 <- inception_5b/3x3_reduce
I0509 12:33:39.579011 31539 net.cpp:380] inception_5b/3x3 -> inception_5b/3x3
I0509 12:33:39.586952 31539 net.cpp:122] Setting up inception_5b/3x3
I0509 12:33:39.586968 31539 net.cpp:129] Top shape: 32 384 7 7 (602112)
I0509 12:33:39.586972 31539 net.cpp:137] Memory required for data: 1776633352
I0509 12:33:39.586980 31539 layer_factory.hpp:77] Creating layer inception_5b/relu_3x3
I0509 12:33:39.586987 31539 net.cpp:84] Creating Layer inception_5b/relu_3x3
I0509 12:33:39.586992 31539 net.cpp:406] inception_5b/relu_3x3 <- inception_5b/3x3
I0509 12:33:39.587002 31539 net.cpp:367] inception_5b/relu_3x3 -> inception_5b/3x3 (in-place)
I0509 12:33:39.587637 31539 net.cpp:122] Setting up inception_5b/relu_3x3
I0509 12:33:39.587651 31539 net.cpp:129] Top shape: 32 384 7 7 (602112)
I0509 12:33:39.587653 31539 net.cpp:137] Memory required for data: 1779041800
I0509 12:33:39.587656 31539 layer_factory.hpp:77] Creating layer inception_5b/5x5_reduce
I0509 12:33:39.587668 31539 net.cpp:84] Creating Layer inception_5b/5x5_reduce
I0509 12:33:39.587672 31539 net.cpp:406] inception_5b/5x5_reduce <- inception_5a/output_inception_5a/output_0_split_2
I0509 12:33:39.587682 31539 net.cpp:380] inception_5b/5x5_reduce -> inception_5b/5x5_reduce
I0509 12:33:39.589857 31539 net.cpp:122] Setting up inception_5b/5x5_reduce
I0509 12:33:39.589869 31539 net.cpp:129] Top shape: 32 48 7 7 (75264)
I0509 12:33:39.589872 31539 net.cpp:137] Memory required for data: 1779342856
I0509 12:33:39.589879 31539 layer_factory.hpp:77] Creating layer inception_5b/relu_5x5_reduce
I0509 12:33:39.589886 31539 net.cpp:84] Creating Layer inception_5b/relu_5x5_reduce
I0509 12:33:39.589891 31539 net.cpp:406] inception_5b/relu_5x5_reduce <- inception_5b/5x5_reduce
I0509 12:33:39.589915 31539 net.cpp:367] inception_5b/relu_5x5_reduce -> inception_5b/5x5_reduce (in-place)
I0509 12:33:39.590536 31539 net.cpp:122] Setting up inception_5b/relu_5x5_reduce
I0509 12:33:39.590548 31539 net.cpp:129] Top shape: 32 48 7 7 (75264)
I0509 12:33:39.590549 31539 net.cpp:137] Memory required for data: 1779643912
I0509 12:33:39.590553 31539 layer_factory.hpp:77] Creating layer inception_5b/5x5
I0509 12:33:39.590565 31539 net.cpp:84] Creating Layer inception_5b/5x5
I0509 12:33:39.590569 31539 net.cpp:406] inception_5b/5x5 <- inception_5b/5x5_reduce
I0509 12:33:39.590576 31539 net.cpp:380] inception_5b/5x5 -> inception_5b/5x5
I0509 12:33:39.593463 31539 net.cpp:122] Setting up inception_5b/5x5
I0509 12:33:39.593477 31539 net.cpp:129] Top shape: 32 128 7 7 (200704)
I0509 12:33:39.593479 31539 net.cpp:137] Memory required for data: 1780446728
I0509 12:33:39.593487 31539 layer_factory.hpp:77] Creating layer inception_5b/relu_5x5
I0509 12:33:39.593492 31539 net.cpp:84] Creating Layer inception_5b/relu_5x5
I0509 12:33:39.593497 31539 net.cpp:406] inception_5b/relu_5x5 <- inception_5b/5x5
I0509 12:33:39.593502 31539 net.cpp:367] inception_5b/relu_5x5 -> inception_5b/5x5 (in-place)
I0509 12:33:39.594130 31539 net.cpp:122] Setting up inception_5b/relu_5x5
I0509 12:33:39.594141 31539 net.cpp:129] Top shape: 32 128 7 7 (200704)
I0509 12:33:39.594144 31539 net.cpp:137] Memory required for data: 1781249544
I0509 12:33:39.594147 31539 layer_factory.hpp:77] Creating layer inception_5b/pool
I0509 12:33:39.594154 31539 net.cpp:84] Creating Layer inception_5b/pool
I0509 12:33:39.594158 31539 net.cpp:406] inception_5b/pool <- inception_5a/output_inception_5a/output_0_split_3
I0509 12:33:39.594166 31539 net.cpp:380] inception_5b/pool -> inception_5b/pool
I0509 12:33:39.594214 31539 net.cpp:122] Setting up inception_5b/pool
I0509 12:33:39.594220 31539 net.cpp:129] Top shape: 32 832 7 7 (1304576)
I0509 12:33:39.594223 31539 net.cpp:137] Memory required for data: 1786467848
I0509 12:33:39.594225 31539 layer_factory.hpp:77] Creating layer inception_5b/pool_proj
I0509 12:33:39.594238 31539 net.cpp:84] Creating Layer inception_5b/pool_proj
I0509 12:33:39.594240 31539 net.cpp:406] inception_5b/pool_proj <- inception_5b/pool
I0509 12:33:39.594246 31539 net.cpp:380] inception_5b/pool_proj -> inception_5b/pool_proj
I0509 12:33:39.598089 31539 net.cpp:122] Setting up inception_5b/pool_proj
I0509 12:33:39.598104 31539 net.cpp:129] Top shape: 32 128 7 7 (200704)
I0509 12:33:39.598106 31539 net.cpp:137] Memory required for data: 1787270664
I0509 12:33:39.598114 31539 layer_factory.hpp:77] Creating layer inception_5b/relu_pool_proj
I0509 12:33:39.598120 31539 net.cpp:84] Creating Layer inception_5b/relu_pool_proj
I0509 12:33:39.598125 31539 net.cpp:406] inception_5b/relu_pool_proj <- inception_5b/pool_proj
I0509 12:33:39.598130 31539 net.cpp:367] inception_5b/relu_pool_proj -> inception_5b/pool_proj (in-place)
I0509 12:33:39.599092 31539 net.cpp:122] Setting up inception_5b/relu_pool_proj
I0509 12:33:39.599102 31539 net.cpp:129] Top shape: 32 128 7 7 (200704)
I0509 12:33:39.599105 31539 net.cpp:137] Memory required for data: 1788073480
I0509 12:33:39.599109 31539 layer_factory.hpp:77] Creating layer inception_5b/output
I0509 12:33:39.599115 31539 net.cpp:84] Creating Layer inception_5b/output
I0509 12:33:39.599119 31539 net.cpp:406] inception_5b/output <- inception_5b/1x1
I0509 12:33:39.599124 31539 net.cpp:406] inception_5b/output <- inception_5b/3x3
I0509 12:33:39.599128 31539 net.cpp:406] inception_5b/output <- inception_5b/5x5
I0509 12:33:39.599133 31539 net.cpp:406] inception_5b/output <- inception_5b/pool_proj
I0509 12:33:39.599150 31539 net.cpp:380] inception_5b/output -> inception_5b/output
I0509 12:33:39.599184 31539 net.cpp:122] Setting up inception_5b/output
I0509 12:33:39.599189 31539 net.cpp:129] Top shape: 32 1024 7 7 (1605632)
I0509 12:33:39.599191 31539 net.cpp:137] Memory required for data: 1794496008
I0509 12:33:39.599195 31539 layer_factory.hpp:77] Creating layer pool5/7x7_s1
I0509 12:33:39.599215 31539 net.cpp:84] Creating Layer pool5/7x7_s1
I0509 12:33:39.599220 31539 net.cpp:406] pool5/7x7_s1 <- inception_5b/output
I0509 12:33:39.599227 31539 net.cpp:380] pool5/7x7_s1 -> pool5/7x7_s1
I0509 12:33:39.599854 31539 net.cpp:122] Setting up pool5/7x7_s1
I0509 12:33:39.599864 31539 net.cpp:129] Top shape: 32 1024 1 1 (32768)
I0509 12:33:39.599867 31539 net.cpp:137] Memory required for data: 1794627080
I0509 12:33:39.599871 31539 layer_factory.hpp:77] Creating layer pool5/drop_7x7_s1
I0509 12:33:39.599879 31539 net.cpp:84] Creating Layer pool5/drop_7x7_s1
I0509 12:33:39.599881 31539 net.cpp:406] pool5/drop_7x7_s1 <- pool5/7x7_s1
I0509 12:33:39.599889 31539 net.cpp:367] pool5/drop_7x7_s1 -> pool5/7x7_s1 (in-place)
I0509 12:33:39.599912 31539 net.cpp:122] Setting up pool5/drop_7x7_s1
I0509 12:33:39.599917 31539 net.cpp:129] Top shape: 32 1024 1 1 (32768)
I0509 12:33:39.599920 31539 net.cpp:137] Memory required for data: 1794758152
I0509 12:33:39.599923 31539 layer_factory.hpp:77] Creating layer loss3/classifier
I0509 12:33:39.599932 31539 net.cpp:84] Creating Layer loss3/classifier
I0509 12:33:39.599936 31539 net.cpp:406] loss3/classifier <- pool5/7x7_s1
I0509 12:33:39.599942 31539 net.cpp:380] loss3/classifier -> loss3/classifier
I0509 12:33:39.601714 31539 net.cpp:122] Setting up loss3/classifier
I0509 12:33:39.601724 31539 net.cpp:129] Top shape: 32 196 (6272)
I0509 12:33:39.601727 31539 net.cpp:137] Memory required for data: 1794783240
I0509 12:33:39.601733 31539 layer_factory.hpp:77] Creating layer loss3/loss
I0509 12:33:39.601739 31539 net.cpp:84] Creating Layer loss3/loss
I0509 12:33:39.601743 31539 net.cpp:406] loss3/loss <- loss3/classifier
I0509 12:33:39.601748 31539 net.cpp:406] loss3/loss <- label_train-data_1_split_2
I0509 12:33:39.601755 31539 net.cpp:380] loss3/loss -> loss
…
I0509 12:33:39.605211 31539 solver.cpp:172] Creating test net (#0) specified by net file: train_val.prototxt
I0509 12:33:39.605367 31539 net.cpp:294] The NetState phase (1) differed from the phase (0) specified by a rule in layer train-data
I0509 12:33:39.606464 31539 net.cpp:51] Initializing net from parameters:
state {
phase: TEST
}
layer {
name: "val-data"
type: "Data"
top: "data"
top: "label"
include {
phase: TEST
}
transform_param {
mirror: false
crop_size: 224
mean_value: 116.08698
mean_value: 117.34767
mean_value: 119.99612
}
data_param {
source: "/mnt/bigdisk/AINDIG4/digits/jobs/20200509-095611-5492/val_db"
batch_size: 16
backend: LMDB
}
}
layer {
name: "conv1/7x7_s2"
type: "Convolution"
bottom: "data"
top: "conv1/7x7_s2"
param {
lr_mult: 1
decay_mult: 1
}
param {
lr_mult: 2
decay_mult: 0
}
convolution_param {
num_output: 64
pad: 3
kernel_size: 7
stride: 2
weight_filler {
type: "xavier"
std: 0.1
}
bias_filler {
type: "constant"
value: 0.2
}
}
}
layer {
name: "conv1/relu_7x7"
type: "ReLU"
bottom: "conv1/7x7_s2"
top: "conv1/7x7_s2"
}
layer {
name: "pool1/3x3_s2"
type: "Pooling"
bottom: "conv1/7x7_s2"
top: "pool1/3x3_s2"
pooling_param {
pool: MAX
kernel_size: 3
stride: 2
}
}
layer {
name: "pool1/norm1"
type: "LRN"
bottom: "pool1/3x3_s2"
top: "pool1/norm1"
lrn_param {
local_size: 5
alpha: 0.0001
beta: 0.75
}
}
layer {
name: "conv2/3x3_reduce"
type: "Convolution"
bottom: "pool1/norm1"
top: "conv2/3x3_reduce"
param {
lr_mult: 1
decay_mult: 1
}
param {
lr_mult: 2
decay_mult: 0
}
convolution_param {
num_output: 64
kernel_size: 1
weight_filler {
type: "xavier"
std: 0.1
}
bias_filler {
type: "constant"
value: 0.2
}
}
}
layer {
name: "conv2/relu_3x3_reduce"
type: "ReLU"
bottom: "conv2/3x3_reduce"
top: "conv2/3x3_reduce"
}
layer {
name: "conv2/3x3"
type: "Convolution"
bottom: "conv2/3x3_reduce"
top: "conv2/3x3"
param {
lr_mult: 1
decay_mult: 1
}
param {
lr_mult: 2
decay_mult: 0
}
convolution_param {
num_output: 192
pad: 1
kernel_size: 3
weight_filler {
type: "xavier"
std: 0.03
}
bias_filler {
type: "constant"
value: 0.2
}
}
}
layer {
name: "conv2/relu_3x3"
type: "ReLU"
bottom: "conv2/3x3"
top: "conv2/3x3"
}
layer {
name: "conv2/norm2"
type: "LRN"
bottom: "conv2/3x3"
top: "conv2/norm2"
lrn_param {
local_size: 5
alpha: 0.0001
beta: 0.75
}
}
layer {
name: "pool2/3x3_s2"
type: "Pooling"
bottom: "conv2/norm2"
top: "pool2/3x3_s2"
pooling_param {
pool: MAX
kernel_size: 3
stride: 2
}
}
layer {
name: "inception_3a/1x1"
type: "Convolution"
bottom: "pool2/3x3_s2"
top: "inception_3a/1x1"
param {
lr_mult: 1
decay_mult: 1
}
param {
lr_mult: 2
decay_mult: 0
}
convolution_param {
num_output: 64
kernel_size: 1
weight_filler {
type: "xavier"
std: 0.03
}
bias_filler {
type: "constant"
value: 0.2
}
}
}
layer {
name: "inception_3a/relu_1x1"
type: "ReLU"
bottom: "inception_3a/1x1"
top: "inception_3a/1x1"
}
layer {
name: "inception_3a/3x3_reduce"
type: "Convolution"
bottom: "pool2/3x3_s2"
top: "inception_3a/3x3_reduce"
param {
lr_mult: 1
decay_mult: 1
}
param {
lr_mult: 2
decay_mult: 0
}
convolution_param {
num_output: 96
kernel_size: 1
weight_filler {
type: "xavier"
std: 0.09
}
bias_filler {
type: "constant"
value: 0.2
}
}
}
layer {
name: "inception_3a/relu_3x3_reduce"
type: "ReLU"
bottom: "inception_3a/3x3_reduce"
top: "inception_3a/3x3_reduce"
}
layer {
name: "inception_3a/3x3"
type: "Convolution"
bottom: "inception_3a/3x3_reduce"
top: "inception_3a/3x3"
param {
lr_mult: 1
decay_mult: 1
}
param {
lr_mult: 2
decay_mult: 0
}
convolution_param {
num_output: 128
pad: 1
kernel_size: 3
weight_filler {
type: "xavier"
std: 0.03
}
bias_filler {
type: "constant"
value: 0.2
}
}
}
layer {
name: "inception_3a/relu_3x3"
type: "ReLU"
bottom: "inception_3a/3x3"
top: "inception_3a/3x3"
}
layer {
name: "inception_3a/5x5_reduce"
type: "Convolution"
bottom: "pool2/3x3_s2"
top: "inception_3a/5x5_reduce"
param {
lr_mult: 1
decay_mult: 1
}
param {
lr_mult: 2
decay_mult: 0
}
convolution_param {
num_output: 16
kernel_size: 1
weight_filler {
type: "xavier"
std: 0.2
}
bias_filler {
type: "constant"
value: 0.2
}
}
}
layer {
name: "inception_3a/relu_5x5_reduce"
type: "ReLU"
bottom: "inception_3a/5x5_reduce"
top: "inception_3a/5x5_reduce"
}
layer {
name: "inception_3a/5x5"
type: "Convolution"
bottom: "inception_3a/5x5_reduce"
top: "inception_3a/5x5"
param {
lr_mult: 1
decay_mult: 1
}
param {
lr_mult: 2
decay_mult: 0
}
convolution_param {
num_output: 32
pad: 2
kernel_size: 5
weight_filler {
type: "xavier"
std: 0.03
}
bias_filler {
type: "constant"
value: 0.2
}
}
}
layer {
name: "inception_3a/relu_5x5"
type: "ReLU"
bottom: "inception_3a/5x5"
top: "inception_3a/5x5"
}
layer {
name: "inception_3a/pool"
type: "Pooling"
bottom: "pool2/3x3_s2"
top: "inception_3a/pool"
pooling_param {
pool: MAX
kernel_size: 3
stride: 1
pad: 1
}
}
layer {
name: "inception_3a/pool_proj"
type: "Convolution"
bottom: "inception_3a/pool"
top: "inception_3a/pool_proj"
param {
lr_mult: 1
decay_mult: 1
}
param {
lr_mult: 2
decay_mult: 0
}
convolution_param {
num_output: 32
kernel_size: 1
weight_filler {
type: "xavier"
std: 0.1
}
bias_filler {
type: "constant"
value: 0.2
}
}
}
layer {
name: "inception_3a/relu_pool_proj"
type: "ReLU"
bottom: "inception_3a/pool_proj"
top: "inception_3a/pool_proj"
}
layer {
name: "inception_3a/output"
type: "Concat"
bottom: "inception_3a/1x1"
bottom: "inception_3a/3x3"
bottom: "inception_3a/5x5"
bottom: "inception_3a/pool_proj"
top: "inception_3a/output"
}
layer {
name: "inception_3b/1x1"
type: "Convolution"
bottom: "inception_3a/output"
top: "inception_3b/1x1"
param {
lr_mult: 1
decay_mult: 1
}
param {
lr_mult: 2
decay_mult: 0
}
convolution_param {
num_output: 128
kernel_size: 1
weight_filler {
type: "xavier"
std: 0.03
}
bias_filler {
type: "constant"
value: 0.2
}
}
}
layer {
name: "inception_3b/relu_1x1"
type: "ReLU"
bottom: "inception_3b/1x1"
top: "inception_3b/1x1"
}
layer {
name: "inception_3b/3x3_reduce"
type: "Convolution"
bottom: "inception_3a/output"
top: "inception_3b/3x3_reduce"
param {
lr_mult: 1
decay_mult: 1
}
param {
lr_mult: 2
decay_mult: 0
}
convolution_param {
num_output: 128
kernel_size: 1
weight_filler {
type: "xavier"
std: 0.09
}
bias_filler {
type: "constant"
value: 0.2
}
}
}
layer {
name: "inception_3b/relu_3x3_reduce"
type: "ReLU"
bottom: "inception_3b/3x3_reduce"
top: "inception_3b/3x3_reduce"
}
layer {
name: "inception_3b/3x3"
type: "Convolution"
bottom: "inception_3b/3x3_reduce"
top: "inception_3b/3x3"
param {
lr_mult: 1
decay_mult: 1
}
param {
lr_mult: 2
decay_mult: 0
}
convolution_param {
num_output: 192
pad: 1
kernel_size: 3
weight_filler {
type: "xavier"
std: 0.03
}
bias_filler {
type: "constant"
value: 0.2
}
}
}
layer {
name: "inception_3b/relu_3x3"
type: "ReLU"
bottom: "inception_3b/3x3"
top: "inception_3b/3x3"
}
layer {
name: "inception_3b/5x5_reduce"
type: "Convolution"
bottom: "inception_3a/output"
top: "inception_3b/5x5_reduce"
param {
lr_mult: 1
decay_mult: 1
}
param {
lr_mult: 2
decay_mult: 0
}
convolution_param {
num_output: 32
kernel_size: 1
weight_filler {
type: "xavier"
std: 0.2
}
bias_filler {
type: "constant"
value: 0.2
}
}
}
layer {
name: "inception_3b/relu_5x5_reduce"
type: "ReLU"
bottom: "inception_3b/5x5_reduce"
top: "inception_3b/5x5_reduce"
}
layer {
name: "inception_3b/5x5"
type: "Convolution"
bottom: "inception_3b/5x5_reduce"
top: "inception_3b/5x5"
param {
lr_mult: 1
decay_mult: 1
}
param {
lr_mult: 2
decay_mult: 0
}
convolution_param {
num_output: 96
pad: 2
kernel_size: 5
weight_filler {
type: "xavier"
std: 0.03
}
bias_filler {
type: "constant"
value: 0.2
}
}
}
layer {
name: "inception_3b/relu_5x5"
type: "ReLU"
bottom: "inception_3b/5x5"
top: "inception_3b/5x5"
}
layer {
name: "inception_3b/pool"
type: "Pooling"
bottom: "inception_3a/output"
top: "inception_3b/pool"
pooling_param {
pool: MAX
kernel_size: 3
stride: 1
pad: 1
}
}
layer {
name: "inception_3b/pool_proj"
type: "Convolution"
bottom: "inception_3b/pool"
top: "inception_3b/pool_proj"
param {
lr_mult: 1
decay_mult: 1
}
param {
lr_mult: 2
decay_mult: 0
}
convolution_param {
num_output: 64
kernel_size: 1
weight_filler {
type: "xavier"
std: 0.1
}
bias_filler {
type: "constant"
value: 0.2
}
}
}
layer {
name: "inception_3b/relu_pool_proj"
type: "ReLU"
bottom: "inception_3b/pool_proj"
top: "inception_3b/pool_proj"
}
layer {
name: "inception_3b/output"
type: "Concat"
bottom: "inception_3b/1x1"
bottom: "inception_3b/3x3"
bottom: "inception_3b/5x5"
bottom: "inception_3b/pool_proj"
top: "inception_3b/output"
}
layer {
name: "pool3/3x3_s2"
type: "Pooling"
bottom: "inception_3b/output"
top: "pool3/3x3_s2"
pooling_param {
pool: MAX
kernel_size: 3
stride: 2
}
}
layer {
name: "inception_4a/1x1"
type: "Convolution"
bottom: "pool3/3x3_s2"
top: "inception_4a/1x1"
param {
lr_mult: 1
decay_mult: 1
}
param {
lr_mult: 2
decay_mult: 0
}
convolution_param {
num_output: 192
kernel_size: 1
weight_filler {
type: "xavier"
std: 0.03
}
bias_filler {
type: "constant"
value: 0.2
}
}
}
layer {
name: "inception_4a/relu_1x1"
type: "ReLU"
bottom: "inception_4a/1x1"
top: "inception_4a/1x1"
}
layer {
name: "inception_4a/3x3_reduce"
type: "Convolution"
bottom: "pool3/3x3_s2"
top: "inception_4a/3x3_reduce"
param {
lr_mult: 1
decay_mult: 1
}
param {
lr_mult: 2
decay_mult: 0
}
convolution_param {
num_output: 96
kernel_size: 1
weight_filler {
type: "xavier"
std: 0.09
}
bias_filler {
type: "constant"
value: 0.2
}
}
}
layer {
name: "inception_4a/relu_3x3_reduce"
type: "ReLU"
bottom: "inception_4a/3x3_reduce"
top: "inception_4a/3x3_reduce"
}
layer {
name: "inception_4a/3x3"
type: "Convolution"
bottom: "inception_4a/3x3_reduce"
top: "inception_4a/3x3"
param {
lr_mult: 1
decay_mult: 1
}
param {
lr_mult: 2
decay_mult: 0
}
convolution_param {
num_output: 208
pad: 1
kernel_size: 3
weight_filler {
type: "xavier"
std: 0.03
}
bias_filler {
type: "constant"
value: 0.2
}
}
}
layer {
name: "inception_4a/relu_3x3"
type: "ReLU"
bottom: "inception_4a/3x3"
top: "inception_4a/3x3"
}
layer {
name: "inception_4a/5x5_reduce"
type: "Convolution"
bottom: "pool3/3x3_s2"
top: "inception_4a/5x5_reduce"
param {
lr_mult: 1
decay_mult: 1
}
param {
lr_mult: 2
decay_mult: 0
}
convolution_param {
num_output: 16
kernel_size: 1
weight_filler {
type: "xavier"
std: 0.2
}
bias_filler {
type: "constant"
value: 0.2
}
}
}
layer {
name: "inception_4a/relu_5x5_reduce"
type: "ReLU"
bottom: "inception_4a/5x5_reduce"
top: "inception_4a/5x5_reduce"
}
layer {
name: "inception_4a/5x5"
type: "Convolution"
bottom: "inception_4a/5x5_reduce"
top: "inception_4a/5x5"
param {
lr_mult: 1
decay_mult: 1
}
param {
lr_mult: 2
decay_mult: 0
}
convolution_param {
num_output: 48
pad: 2
kernel_size: 5
weight_filler {
type: "xavier"
std: 0.03
}
bias_filler {
type: "constant"
value: 0.2
}
}
}
layer {
name: "inception_4a/relu_5x5"
type: "ReLU"
bottom: "inception_4a/5x5"
top: "inception_4a/5x5"
}
layer {
name: "inception_4a/pool"
type: "Pooling"
bottom: "pool3/3x3_s2"
top: "inception_4a/pool"
pooling_param {
pool: MAX
kernel_size: 3
stride: 1
pad: 1
}
}
layer {
name: "inception_4a/pool_proj"
type: "Convolution"
bottom: "inception_4a/pool"
top: "inception_4a/pool_proj"
param {
lr_mult: 1
decay_mult: 1
}
param {
lr_mult: 2
decay_mult: 0
}
convolution_param {
num_output: 64
kernel_size: 1
weight_filler {
type: "xavier"
std: 0.1
}
bias_filler {
type: "constant"
value: 0.2
}
}
}
layer {
name: "inception_4a/relu_pool_proj"
type: "ReLU"
bottom: "inception_4a/pool_proj"
top: "inception_4a/pool_proj"
}
layer {
name: "inception_4a/output"
type: "Concat"
bottom: "inception_4a/1x1"
bottom: "inception_4a/3x3"
bottom: "inception_4a/5x5"
bottom: "inception_4a/pool_proj"
top: "inception_4a/output"
}
layer {
name: "loss1/ave_pool"
type: "Pooling"
bottom: "inception_4a/output"
top: "loss1/ave_pool"
pooling_param {
pool: AVE
kernel_size: 5
stride: 3
}
}
layer {
name: "loss1/conv"
type: "Convolution"
bottom: "loss1/ave_pool"
top: "loss1/conv"
param {
lr_mult: 1
decay_mult: 1
}
param {
lr_mult: 2
decay_mult: 0
}
convolution_param {
num_output: 128
kernel_size: 1
weight_filler {
type: "xavier"
std: 0.08
}
bias_filler {
type: "constant"
value: 0.2
}
}
}
layer {
name: "loss1/relu_conv"
type: "ReLU"
bottom: "loss1/conv"
top: "loss1/conv"
}
layer {
name: "loss1/fc"
type: "InnerProduct"
bottom: "loss1/conv"
top: "loss1/fc"
param {
lr_mult: 1
decay_mult: 1
}
param {
lr_mult: 2
decay_mult: 0
}
inner_product_param {
num_output: 1024
weight_filler {
type: "xavier"
std: 0.02
}
bias_filler {
type: "constant"
value: 0.2
}
}
}
layer {
name: "loss1/relu_fc"
type: "ReLU"
bottom: "loss1/fc"
top: "loss1/fc"
}
layer {
name: "loss1/drop_fc"
type: "Dropout"
bottom: "loss1/fc"
top: "loss1/fc"
dropout_param {
dropout_ratio: 0.7
}
}
layer {
name: "loss1/classifier"
type: "InnerProduct"
bottom: "loss1/fc"
top: "loss1/classifier"
param {
lr_mult: 1
decay_mult: 1
}
param {
lr_mult: 2
decay_mult: 0
}
inner_product_param {
num_output: 196
weight_filler {
type: "xavier"
std: 0.0009765625
}
bias_filler {
type: "constant"
value: 0
}
}
}
layer {
name: "loss1/loss"
type: "SoftmaxWithLoss"
bottom: "loss1/classifier"
bottom: "label"
top: "loss1/loss"
loss_weight: 0.3
}
layer {
name: "loss1/top-1"
type: "Accuracy"
bottom: "loss1/classifier"
bottom: "label"
top: "loss1/accuracy"
include {
phase: TEST
}
}
layer {
name: "loss1/top-5"
type: "Accuracy"
bottom: "loss1/classifier"
bottom: "label"
top: "loss1/accuracy-top5"
include {
phase: TEST
}
accuracy_param {
top_k: 5
}
}
layer {
name: "inception_4b/1x1"
type: "Convolution"
bottom: "inception_4a/output"
top: "inception_4b/1x1"
param {
lr_mult: 1
decay_mult: 1
}
param {
lr_mult: 2
decay_mult: 0
}
convolution_param {
num_output: 160
kernel_size: 1
weight_filler {
type: "xavier"
std: 0.03
}
bias_filler {
type: "constant"
value: 0.2
}
}
}
layer {
name: "inception_4b/relu_1x1"
type: "ReLU"
bottom: "inception_4b/1x1"
top: "inception_4b/1x1"
}
layer {
name: "inception_4b/3x3_reduce"
type: "Convolution"
bottom: "inception_4a/output"
top: "inception_4b/3x3_reduce"
param {
lr_mult: 1
decay_mult: 1
}
param {
lr_mult: 2
decay_mult: 0
}
convolution_param {
num_output: 112
kernel_size: 1
weight_filler {
type: "xavier"
std: 0.09
}
bias_filler {
type: "constant"
value: 0.2
}
}
}
layer {
name: "inception_4b/relu_3x3_reduce"
type: "ReLU"
bottom: "inception_4b/3x3_reduce"
top: "inception_4b/3x3_reduce"
}
layer {
name: "inception_4b/3x3"
type: "Convolution"
bottom: "inception_4b/3x3_reduce"
top: "inception_4b/3x3"
param {
lr_mult: 1
decay_mult: 1
}
param {
lr_mult: 2
decay_mult: 0
}
convolution_param {
num_output: 224
pad: 1
kernel_size: 3
weight_filler {
type: "xavier"
std: 0.03
}
bias_filler {
type: "constant"
value: 0.2
}
}
}
layer {
name: "inception_4b/relu_3x3"
type: "ReLU"
bottom: "inception_4b/3x3"
top: "inception_4b/3x3"
}
layer {
name: "inception_4b/5x5_reduce"
type: "Convolution"
bottom: "inception_4a/output"
top: "inception_4b/5x5_reduce"
param {
lr_mult: 1
decay_mult: 1
}
param {
lr_mult: 2
decay_mult: 0
}
convolution_param {
num_output: 24
kernel_size: 1
weight_filler {
type: "xavier"
std: 0.2
}
bias_filler {
type: "constant"
value: 0.2
}
}
}
layer {
name: "inception_4b/relu_5x5_reduce"
type: "ReLU"
bottom: "inception_4b/5x5_reduce"
top: "inception_4b/5x5_reduce"
}
layer {
name: "inception_4b/5x5"
type: "Convolution"
bottom: "inception_4b/5x5_reduce"
top: "inception_4b/5x5"
param {
lr_mult: 1
decay_mult: 1
}
param {
lr_mult: 2
decay_mult: 0
}
convolution_param {
num_output: 64
pad: 2
kernel_size: 5
weight_filler {
type: "xavier"
std: 0.03
}
bias_filler {
type: "constant"
value: 0.2
}
}
}
layer {
name: "inception_4b/relu_5x5"
type: "ReLU"
bottom: "inception_4b/5x5"
top: "inception_4b/5x5"
}
layer {
name: "inception_4b/pool"
type: "Pooling"
bottom: "inception_4a/output"
top: "inception_4b/pool"
pooling_param {
pool: MAX
kernel_size: 3
stride: 1
pad: 1
}
}
layer {
name: "inception_4b/pool_proj"
type: "Convolution"
bottom: "inception_4b/pool"
top: "inception_4b/pool_proj"
param {
lr_mult: 1
decay_mult: 1
}
param {
lr_mult: 2
decay_mult: 0
}
convolution_param {
num_output: 64
kernel_size: 1
weight_filler {
type: "xavier"
std: 0.1
}
bias_filler {
type: "constant"
value: 0.2
}
}
}
layer {
name: "inception_4b/relu_pool_proj"
type: "ReLU"
bottom: "inception_4b/pool_proj"
top: "inception_4b/pool_proj"
}
layer {
name: "inception_4b/output"
type: "Concat"
bottom: "inception_4b/1x1"
bottom: "inception_4b/3x3"
bottom: "inception_4b/5x5"
bottom: "inception_4b/pool_proj"
top: "inception_4b/output"
}
layer {
name: "inception_4c/1x1"
type: "Convolution"
bottom: "inception_4b/output"
top: "inception_4c/1x1"
param {
lr_mult: 1
decay_mult: 1
}
param {
lr_mult: 2
decay_mult: 0
}
convolution_param {
num_output: 128
kernel_size: 1
weight_filler {
type: "xavier"
std: 0.03
}
bias_filler {
type: "constant"
value: 0.2
}
}
}
layer {
name: "inception_4c/relu_1x1"
type: "ReLU"
bottom: "inception_4c/1x1"
top: "inception_4c/1x1"
}
layer {
name: "inception_4c/3x3_reduce"
type: "Convolution"
bottom: "inception_4b/output"
top: "inception_4c/3x3_reduce"
param {
lr_mult: 1
decay_mult: 1
}
param {
lr_mult: 2
decay_mult: 0
}
convolution_param {
num_output: 128
kernel_size: 1
weight_filler {
type: "xavier"
std: 0.09
}
bias_filler {
type: "constant"
value: 0.2
}
}
}
layer {
name: "inception_4c/relu_3x3_reduce"
type: "ReLU"
bottom: "inception_4c/3x3_reduce"
top: "inception_4c/3x3_reduce"
}
layer {
name: "inception_4c/3x3"
type: "Convolution"
bottom: "inception_4c/3x3_reduce"
top: "inception_4c/3x3"
param {
lr_mult: 1
decay_mult: 1
}
param {
lr_mult: 2
decay_mult: 0
}
convolution_param {
num_output: 256
pad: 1
kernel_size: 3
weight_filler {
type: "xavier"
std: 0.03
}
bias_filler {
type: "constant"
value: 0.2
}
}
}
layer {
name: "inception_4c/relu_3x3"
type: "ReLU"
bottom: "inception_4c/3x3"
top: "inception_4c/3x3"
}
layer {
name: "inception_4c/5x5_reduce"
type: "Convolution"
bottom: "inception_4b/output"
top: "inception_4c/5x5_reduce"
param {
lr_mult: 1
decay_mult: 1
}
param {
lr_mult: 2
decay_mult: 0
}
convolution_param {
num_output: 24
kernel_size: 1
weight_filler {
type: "xavier"
std: 0.2
}
bias_filler {
type: "constant"
value: 0.2
}
}
}
layer {
name: "inception_4c/relu_5x5_reduce"
type: "ReLU"
bottom: "inception_4c/5x5_reduce"
top: "inception_4c/5x5_reduce"
}
layer {
name: "inception_4c/5x5"
type: "Convolution"
bottom: "inception_4c/5x5_reduce"
top: "inception_4c/5x5"
param {
lr_mult: 1
decay_mult: 1
}
param {
lr_mult: 2
decay_mult: 0
}
convolution_param {
num_output: 64
pad: 2
kernel_size: 5
weight_filler {
type: "xavier"
std: 0.03
}
bias_filler {
type: "constant"
value: 0.2
}
}
}
layer {
name: "inception_4c/relu_5x5"
type: "ReLU"
bottom: "inception_4c/5x5"
top: "inception_4c/5x5"
}
layer {
name: "inception_4c/pool"
type: "Pooling"
bottom: "inception_4b/output"
top: "inception_4c/pool"
pooling_param {
pool: MAX
kernel_size: 3
stride: 1
pad: 1
}
}
layer {
name: "inception_4c/pool_proj"
type: "Convolution"
bottom: "inception_4c/pool"
top: "inception_4c/pool_proj"
param {
lr_mult: 1
decay_mult: 1
}
param {
lr_mult: 2
decay_mult: 0
}
convolution_param {
num_output: 64
kernel_size: 1
weight_filler {
type: "xavier"
std: 0.1
}
bias_filler {
type: "constant"
value: 0.2
}
}
}
layer {
name: "inception_4c/relu_pool_proj"
type: "ReLU"
bottom: "inception_4c/pool_proj"
top: "inception_4c/pool_proj"
}
layer {
name: "inception_4c/output"
type: "Concat"
bottom: "inception_4c/1x1"
bottom: "inception_4c/3x3"
bottom: "inception_4c/5x5"
bottom: "inception_4c/pool_proj"
top: "inception_4c/output"
}
layer {
name: "inception_4d/1x1"
type: "Convolution"
bottom: "inception_4c/output"
top: "inception_4d/1x1"
param {
lr_mult: 1
decay_mult: 1
}
param {
lr_mult: 2
decay_mult: 0
}
convolution_param {
num_output: 112
kernel_size: 1
weight_filler {
type: "xavier"
std: 0.03
}
bias_filler {
type: "constant"
value: 0.2
}
}
}
layer {
name: "inception_4d/relu_1x1"
type: "ReLU"
bottom: "inception_4d/1x1"
top: "inception_4d/1x1"
}
layer {
…
I0509 12:33:39.792398 31539 net.cpp:122] Setting up inception_4c/relu_5x5
I0509 12:33:39.792407 31539 net.cpp:129] Top shape: 16 64 14 14 (200704)
I0509 12:33:39.792409 31539 net.cpp:137] Memory required for data: 700688012
I0509 12:33:39.792412 31539 layer_factory.hpp:77] Creating layer inception_4c/pool
I0509 12:33:39.792418 31539 net.cpp:84] Creating Layer inception_4c/pool
I0509 12:33:39.792421 31539 net.cpp:406] inception_4c/pool <- inception_4b/output_inception_4b/output_0_split_3
I0509 12:33:39.792428 31539 net.cpp:380] inception_4c/pool -> inception_4c/pool
I0509 12:33:39.792465 31539 net.cpp:122] Setting up inception_4c/pool
I0509 12:33:39.792470 31539 net.cpp:129] Top shape: 16 512 14 14 (1605632)
I0509 12:33:39.792472 31539 net.cpp:137] Memory required for data: 707110540
I0509 12:33:39.792474 31539 layer_factory.hpp:77] Creating layer inception_4c/pool_proj
I0509 12:33:39.792484 31539 net.cpp:84] Creating Layer inception_4c/pool_proj
I0509 12:33:39.792487 31539 net.cpp:406] inception_4c/pool_proj <- inception_4c/pool
I0509 12:33:39.792491 31539 net.cpp:380] inception_4c/pool_proj -> inception_4c/pool_proj
I0509 12:33:39.794129 31539 net.cpp:122] Setting up inception_4c/pool_proj
I0509 12:33:39.794139 31539 net.cpp:129] Top shape: 16 64 14 14 (200704)
I0509 12:33:39.794142 31539 net.cpp:137] Memory required for data: 707913356
I0509 12:33:39.794147 31539 layer_factory.hpp:77] Creating layer inception_4c/relu_pool_proj
I0509 12:33:39.794152 31539 net.cpp:84] Creating Layer inception_4c/relu_pool_proj
I0509 12:33:39.794154 31539 net.cpp:406] inception_4c/relu_pool_proj <- inception_4c/pool_proj
I0509 12:33:39.794158 31539 net.cpp:367] inception_4c/relu_pool_proj -> inception_4c/pool_proj (in-place)
I0509 12:33:39.794802 31539 net.cpp:122] Setting up inception_4c/relu_pool_proj
I0509 12:33:39.794811 31539 net.cpp:129] Top shape: 16 64 14 14 (200704)
I0509 12:33:39.794814 31539 net.cpp:137] Memory required for data: 708716172
I0509 12:33:39.794816 31539 layer_factory.hpp:77] Creating layer inception_4c/output
I0509 12:33:39.794821 31539 net.cpp:84] Creating Layer inception_4c/output
I0509 12:33:39.794824 31539 net.cpp:406] inception_4c/output <- inception_4c/1x1
I0509 12:33:39.794828 31539 net.cpp:406] inception_4c/output <- inception_4c/3x3
I0509 12:33:39.794831 31539 net.cpp:406] inception_4c/output <- inception_4c/5x5
I0509 12:33:39.794834 31539 net.cpp:406] inception_4c/output <- inception_4c/pool_proj
I0509 12:33:39.794854 31539 net.cpp:380] inception_4c/output -> inception_4c/output
I0509 12:33:39.794879 31539 net.cpp:122] Setting up inception_4c/output
I0509 12:33:39.794884 31539 net.cpp:129] Top shape: 16 512 14 14 (1605632)
I0509 12:33:39.794886 31539 net.cpp:137] Memory required for data: 715138700
I0509 12:33:39.794888 31539 layer_factory.hpp:77] Creating layer inception_4c/output_inception_4c/output_0_split
I0509 12:33:39.794894 31539 net.cpp:84] Creating Layer inception_4c/output_inception_4c/output_0_split
I0509 12:33:39.794898 31539 net.cpp:406] inception_4c/output_inception_4c/output_0_split <- inception_4c/output
I0509 12:33:39.794903 31539 net.cpp:380] inception_4c/output_inception_4c/output_0_split -> inception_4c/output_inception_4c/output_0_split_0
I0509 12:33:39.794909 31539 net.cpp:380] inception_4c/output_inception_4c/output_0_split -> inception_4c/output_inception_4c/output_0_split_1
I0509 12:33:39.794912 31539 net.cpp:380] inception_4c/output_inception_4c/output_0_split -> inception_4c/output_inception_4c/output_0_split_2
I0509 12:33:39.794917 31539 net.cpp:380] inception_4c/output_inception_4c/output_0_split -> inception_4c/output_inception_4c/output_0_split_3
I0509 12:33:39.794965 31539 net.cpp:122] Setting up inception_4c/output_inception_4c/output_0_split
I0509 12:33:39.794970 31539 net.cpp:129] Top shape: 16 512 14 14 (1605632)
I0509 12:33:39.794972 31539 net.cpp:129] Top shape: 16 512 14 14 (1605632)
I0509 12:33:39.794975 31539 net.cpp:129] Top shape: 16 512 14 14 (1605632)
I0509 12:33:39.794978 31539 net.cpp:129] Top shape: 16 512 14 14 (1605632)
I0509 12:33:39.794981 31539 net.cpp:137] Memory required for data: 740828812
I0509 12:33:39.794982 31539 layer_factory.hpp:77] Creating layer inception_4d/1x1
I0509 12:33:39.794989 31539 net.cpp:84] Creating Layer inception_4d/1x1
I0509 12:33:39.794992 31539 net.cpp:406] inception_4d/1x1 <- inception_4c/output_inception_4c/output_0_split_0
I0509 12:33:39.794996 31539 net.cpp:380] inception_4d/1x1 -> inception_4d/1x1
I0509 12:33:39.796744 31539 net.cpp:122] Setting up inception_4d/1x1
I0509 12:33:39.796753 31539 net.cpp:129] Top shape: 16 112 14 14 (351232)
I0509 12:33:39.796756 31539 net.cpp:137] Memory required for data: 742233740
I0509 12:33:39.796761 31539 layer_factory.hpp:77] Creating layer inception_4d/relu_1x1
I0509 12:33:39.796766 31539 net.cpp:84] Creating Layer inception_4d/relu_1x1
I0509 12:33:39.796768 31539 net.cpp:406] inception_4d/relu_1x1 <- inception_4d/1x1
I0509 12:33:39.796773 31539 net.cpp:367] inception_4d/relu_1x1 -> inception_4d/1x1 (in-place)
I0509 12:33:39.797269 31539 net.cpp:122] Setting up inception_4d/relu_1x1
I0509 12:33:39.797277 31539 net.cpp:129] Top shape: 16 112 14 14 (351232)
I0509 12:33:39.797279 31539 net.cpp:137] Memory required for data: 743638668
I0509 12:33:39.797282 31539 layer_factory.hpp:77] Creating layer inception_4d/3x3_reduce
I0509 12:33:39.797291 31539 net.cpp:84] Creating Layer inception_4d/3x3_reduce
I0509 12:33:39.797293 31539 net.cpp:406] inception_4d/3x3_reduce <- inception_4c/output_inception_4c/output_0_split_1
I0509 12:33:39.797300 31539 net.cpp:380] inception_4d/3x3_reduce -> inception_4d/3x3_reduce
I0509 12:33:39.800318 31539 net.cpp:122] Setting up inception_4d/3x3_reduce
I0509 12:33:39.800328 31539 net.cpp:129] Top shape: 16 144 14 14 (451584)
I0509 12:33:39.800330 31539 net.cpp:137] Memory required for data: 745445004
I0509 12:33:39.800336 31539 layer_factory.hpp:77] Creating layer inception_4d/relu_3x3_reduce
I0509 12:33:39.800341 31539 net.cpp:84] Creating Layer inception_4d/relu_3x3_reduce
I0509 12:33:39.800344 31539 net.cpp:406] inception_4d/relu_3x3_reduce <- inception_4d/3x3_reduce
I0509 12:33:39.800351 31539 net.cpp:367] inception_4d/relu_3x3_reduce -> inception_4d/3x3_reduce (in-place)
I0509 12:33:39.800680 31539 net.cpp:122] Setting up inception_4d/relu_3x3_reduce
I0509 12:33:39.800688 31539 net.cpp:129] Top shape: 16 144 14 14 (451584)
I0509 12:33:39.800689 31539 net.cpp:137] Memory required for data: 747251340
I0509 12:33:39.800693 31539 layer_factory.hpp:77] Creating layer inception_4d/3x3
I0509 12:33:39.800715 31539 net.cpp:84] Creating Layer inception_4d/3x3
I0509 12:33:39.800719 31539 net.cpp:406] inception_4d/3x3 <- inception_4d/3x3_reduce
I0509 12:33:39.800725 31539 net.cpp:380] inception_4d/3x3 -> inception_4d/3x3
I0509 12:33:39.805140 31539 net.cpp:122] Setting up inception_4d/3x3
I0509 12:33:39.805151 31539 net.cpp:129] Top shape: 16 288 14 14 (903168)
I0509 12:33:39.805155 31539 net.cpp:137] Memory required for data: 750864012
I0509 12:33:39.805160 31539 layer_factory.hpp:77] Creating layer inception_4d/relu_3x3
I0509 12:33:39.805167 31539 net.cpp:84] Creating Layer inception_4d/relu_3x3
I0509 12:33:39.805171 31539 net.cpp:406] inception_4d/relu_3x3 <- inception_4d/3x3
I0509 12:33:39.805174 31539 net.cpp:367] inception_4d/relu_3x3 -> inception_4d/3x3 (in-place)
I0509 12:33:39.805510 31539 net.cpp:122] Setting up inception_4d/relu_3x3
I0509 12:33:39.805517 31539 net.cpp:129] Top shape: 16 288 14 14 (903168)
I0509 12:33:39.805521 31539 net.cpp:137] Memory required for data: 754476684
I0509 12:33:39.805523 31539 layer_factory.hpp:77] Creating layer inception_4d/5x5_reduce
I0509 12:33:39.805532 31539 net.cpp:84] Creating Layer inception_4d/5x5_reduce
I0509 12:33:39.805536 31539 net.cpp:406] inception_4d/5x5_reduce <- inception_4c/output_inception_4c/output_0_split_2
I0509 12:33:39.805541 31539 net.cpp:380] inception_4d/5x5_reduce -> inception_4d/5x5_reduce
I0509 12:33:39.808753 31539 net.cpp:122] Setting up inception_4d/5x5_reduce
I0509 12:33:39.808764 31539 net.cpp:129] Top shape: 16 32 14 14 (100352)
I0509 12:33:39.808768 31539 net.cpp:137] Memory required for data: 754878092
I0509 12:33:39.808773 31539 layer_factory.hpp:77] Creating layer inception_4d/relu_5x5_reduce
I0509 12:33:39.808779 31539 net.cpp:84] Creating Layer inception_4d/relu_5x5_reduce
I0509 12:33:39.808784 31539 net.cpp:406] inception_4d/relu_5x5_reduce <- inception_4d/5x5_reduce
I0509 12:33:39.808787 31539 net.cpp:367] inception_4d/relu_5x5_reduce -> inception_4d/5x5_reduce (in-place)
I0509 12:33:39.809290 31539 net.cpp:122] Setting up inception_4d/relu_5x5_reduce
I0509 12:33:39.809299 31539 net.cpp:129] Top shape: 16 32 14 14 (100352)
I0509 12:33:39.809301 31539 net.cpp:137] Memory required for data: 755279500
I0509 12:33:39.809304 31539 layer_factory.hpp:77] Creating layer inception_4d/5x5
I0509 12:33:39.809314 31539 net.cpp:84] Creating Layer inception_4d/5x5
I0509 12:33:39.809316 31539 net.cpp:406] inception_4d/5x5 <- inception_4d/5x5_reduce
I0509 12:33:39.809324 31539 net.cpp:380] inception_4d/5x5 -> inception_4d/5x5
I0509 12:33:39.811233 31539 net.cpp:122] Setting up inception_4d/5x5
I0509 12:33:39.811242 31539 net.cpp:129] Top shape: 16 64 14 14 (200704)
I0509 12:33:39.811244 31539 net.cpp:137] Memory required for data: 756082316
I0509 12:33:39.811249 31539 layer_factory.hpp:77] Creating layer inception_4d/relu_5x5
I0509 12:33:39.811255 31539 net.cpp:84] Creating Layer inception_4d/relu_5x5
I0509 12:33:39.811259 31539 net.cpp:406] inception_4d/relu_5x5 <- inception_4d/5x5
I0509 12:33:39.811264 31539 net.cpp:367] inception_4d/relu_5x5 -> inception_4d/5x5 (in-place)
I0509 12:33:39.811760 31539 net.cpp:122] Setting up inception_4d/relu_5x5
I0509 12:33:39.811769 31539 net.cpp:129] Top shape: 16 64 14 14 (200704)
I0509 12:33:39.811770 31539 net.cpp:137] Memory required for data: 756885132
I0509 12:33:39.811774 31539 layer_factory.hpp:77] Creating layer inception_4d/pool
I0509 12:33:39.811780 31539 net.cpp:84] Creating Layer inception_4d/pool
I0509 12:33:39.811784 31539 net.cpp:406] inception_4d/pool <- inception_4c/output_inception_4c/output_0_split_3
I0509 12:33:39.811789 31539 net.cpp:380] inception_4d/pool -> inception_4d/pool
I0509 12:33:39.811828 31539 net.cpp:122] Setting up inception_4d/pool
I0509 12:33:39.811833 31539 net.cpp:129] Top shape: 16 512 14 14 (1605632)
I0509 12:33:39.811836 31539 net.cpp:137] Memory required for data: 763307660
I0509 12:33:39.811837 31539 layer_factory.hpp:77] Creating layer inception_4d/pool_proj
I0509 12:33:39.811846 31539 net.cpp:84] Creating Layer inception_4d/pool_proj
I0509 12:33:39.811848 31539 net.cpp:406] inception_4d/pool_proj <- inception_4d/pool
I0509 12:33:39.811870 31539 net.cpp:380] inception_4d/pool_proj -> inception_4d/pool_proj
I0509 12:33:39.813503 31539 net.cpp:122] Setting up inception_4d/pool_proj
I0509 12:33:39.813513 31539 net.cpp:129] Top shape: 16 64 14 14 (200704)
I0509 12:33:39.813514 31539 net.cpp:137] Memory required for data: 764110476
I0509 12:33:39.813519 31539 layer_factory.hpp:77] Creating layer inception_4d/relu_pool_proj
I0509 12:33:39.813524 31539 net.cpp:84] Creating Layer inception_4d/relu_pool_proj
I0509 12:33:39.813527 31539 net.cpp:406] inception_4d/relu_pool_proj <- inception_4d/pool_proj
I0509 12:33:39.813531 31539 net.cpp:367] inception_4d/relu_pool_proj -> inception_4d/pool_proj (in-place)
I0509 12:33:39.814030 31539 net.cpp:122] Setting up inception_4d/relu_pool_proj
I0509 12:33:39.814038 31539 net.cpp:129] Top shape: 16 64 14 14 (200704)
I0509 12:33:39.814040 31539 net.cpp:137] Memory required for data: 764913292
I0509 12:33:39.814043 31539 layer_factory.hpp:77] Creating layer inception_4d/output
I0509 12:33:39.814049 31539 net.cpp:84] Creating Layer inception_4d/output
I0509 12:33:39.814051 31539 net.cpp:406] inception_4d/output <- inception_4d/1x1
I0509 12:33:39.814055 31539 net.cpp:406] inception_4d/output <- inception_4d/3x3
I0509 12:33:39.814059 31539 net.cpp:406] inception_4d/output <- inception_4d/5x5
I0509 12:33:39.814060 31539 net.cpp:406] inception_4d/output <- inception_4d/pool_proj
I0509 12:33:39.814066 31539 net.cpp:380] inception_4d/output -> inception_4d/output
I0509 12:33:39.814091 31539 net.cpp:122] Setting up inception_4d/output
I0509 12:33:39.814096 31539 net.cpp:129] Top shape: 16 528 14 14 (1655808)
I0509 12:33:39.814098 31539 net.cpp:137] Memory required for data: 771536524
I0509 12:33:39.814100 31539 layer_factory.hpp:77] Creating layer inception_4d/output_inception_4d/output_0_split
I0509 12:33:39.814106 31539 net.cpp:84] Creating Layer inception_4d/output_inception_4d/output_0_split
I0509 12:33:39.814108 31539 net.cpp:406] inception_4d/output_inception_4d/output_0_split <- inception_4d/output
I0509 12:33:39.814113 31539 net.cpp:380] inception_4d/output_inception_4d/output_0_split -> inception_4d/output_inception_4d/output_0_split_0
I0509 12:33:39.814118 31539 net.cpp:380] inception_4d/output_inception_4d/output_0_split -> inception_4d/output_inception_4d/output_0_split_1
I0509 12:33:39.814123 31539 net.cpp:380] inception_4d/output_inception_4d/output_0_split -> inception_4d/output_inception_4d/output_0_split_2
I0509 12:33:39.814129 31539 net.cpp:380] inception_4d/output_inception_4d/output_0_split -> inception_4d/output_inception_4d/output_0_split_3
I0509 12:33:39.814133 31539 net.cpp:380] inception_4d/output_inception_4d/output_0_split -> inception_4d/output_inception_4d/output_0_split_4
I0509 12:33:39.814191 31539 net.cpp:122] Setting up inception_4d/output_inception_4d/output_0_split
I0509 12:33:39.814195 31539 net.cpp:129] Top shape: 16 528 14 14 (1655808)
I0509 12:33:39.814198 31539 net.cpp:129] Top shape: 16 528 14 14 (1655808)
I0509 12:33:39.814201 31539 net.cpp:129] Top shape: 16 528 14 14 (1655808)
I0509 12:33:39.814203 31539 net.cpp:129] Top shape: 16 528 14 14 (1655808)
I0509 12:33:39.814206 31539 net.cpp:129] Top shape: 16 528 14 14 (1655808)
I0509 12:33:39.814208 31539 net.cpp:137] Memory required for data: 804652684
I0509 12:33:39.814210 31539 layer_factory.hpp:77] Creating layer loss2/ave_pool
I0509 12:33:39.814214 31539 net.cpp:84] Creating Layer loss2/ave_pool
I0509 12:33:39.814218 31539 net.cpp:406] loss2/ave_pool <- inception_4d/output_inception_4d/output_0_split_0
I0509 12:33:39.814222 31539 net.cpp:380] loss2/ave_pool -> loss2/ave_pool
I0509 12:33:39.815331 31539 net.cpp:122] Setting up loss2/ave_pool
I0509 12:33:39.815340 31539 net.cpp:129] Top shape: 16 528 4 4 (135168)
I0509 12:33:39.815342 31539 net.cpp:137] Memory required for data: 805193356
I0509 12:33:39.815349 31539 layer_factory.hpp:77] Creating layer loss2/conv
I0509 12:33:39.815358 31539 net.cpp:84] Creating Layer loss2/conv
I0509 12:33:39.815361 31539 net.cpp:406] loss2/conv <- loss2/ave_pool
I0509 12:33:39.815382 31539 net.cpp:380] loss2/conv -> loss2/conv
I0509 12:33:39.817170 31539 net.cpp:122] Setting up loss2/conv
I0509 12:33:39.817179 31539 net.cpp:129] Top shape: 16 128 4 4 (32768)
I0509 12:33:39.817181 31539 net.cpp:137] Memory required for data: 805324428
I0509 12:33:39.817186 31539 layer_factory.hpp:77] Creating layer loss2/relu_conv
I0509 12:33:39.817191 31539 net.cpp:84] Creating Layer loss2/relu_conv
I0509 12:33:39.817194 31539 net.cpp:406] loss2/relu_conv <- loss2/conv
I0509 12:33:39.817203 31539 net.cpp:367] loss2/relu_conv -> loss2/conv (in-place)
I0509 12:33:39.817692 31539 net.cpp:122] Setting up loss2/relu_conv
I0509 12:33:39.817700 31539 net.cpp:129] Top shape: 16 128 4 4 (32768)
I0509 12:33:39.817703 31539 net.cpp:137] Memory required for data: 805455500
I0509 12:33:39.817705 31539 layer_factory.hpp:77] Creating layer loss2/fc
I0509 12:33:39.817711 31539 net.cpp:84] Creating Layer loss2/fc
I0509 12:33:39.817714 31539 net.cpp:406] loss2/fc <- loss2/conv
I0509 12:33:39.817719 31539 net.cpp:380] loss2/fc -> loss2/fc
I0509 12:33:39.829234 31539 net.cpp:122] Setting up loss2/fc
I0509 12:33:39.829252 31539 net.cpp:129] Top shape: 16 1024 (16384)
I0509 12:33:39.829254 31539 net.cpp:137] Memory required for data: 805521036
I0509 12:33:39.829262 31539 layer_factory.hpp:77] Creating layer loss2/relu_fc
I0509 12:33:39.829268 31539 net.cpp:84] Creating Layer loss2/relu_fc
I0509 12:33:39.829273 31539 net.cpp:406] loss2/relu_fc <- loss2/fc
I0509 12:33:39.829279 31539 net.cpp:367] loss2/relu_fc -> loss2/fc (in-place)
I0509 12:33:39.829857 31539 net.cpp:122] Setting up loss2/relu_fc
I0509 12:33:39.829865 31539 net.cpp:129] Top shape: 16 1024 (16384)
I0509 12:33:39.829867 31539 net.cpp:137] Memory required for data: 805586572
I0509 12:33:39.829870 31539 layer_factory.hpp:77] Creating layer loss2/drop_fc
I0509 12:33:39.829875 31539 net.cpp:84] Creating Layer loss2/drop_fc
I0509 12:33:39.829879 31539 net.cpp:406] loss2/drop_fc <- loss2/fc
I0509 12:33:39.829883 31539 net.cpp:367] loss2/drop_fc -> loss2/fc (in-place)
I0509 12:33:39.829905 31539 net.cpp:122] Setting up loss2/drop_fc
I0509 12:33:39.829910 31539 net.cpp:129] Top shape: 16 1024 (16384)
I0509 12:33:39.829912 31539 net.cpp:137] Memory required for data: 805652108
I0509 12:33:39.829915 31539 layer_factory.hpp:77] Creating layer loss2/classifier
I0509 12:33:39.829921 31539 net.cpp:84] Creating Layer loss2/classifier
I0509 12:33:39.829923 31539 net.cpp:406] loss2/classifier <- loss2/fc
I0509 12:33:39.829929 31539 net.cpp:380] loss2/classifier -> loss2/classifier
I0509 12:33:39.831307 31539 net.cpp:122] Setting up loss2/classifier
I0509 12:33:39.831315 31539 net.cpp:129] Top shape: 16 196 (3136)
I0509 12:33:39.831317 31539 net.cpp:137] Memory required for data: 805664652
I0509 12:33:39.831322 31539 layer_factory.hpp:77] Creating layer loss2/classifier_loss2/classifier_0_split
I0509 12:33:39.831327 31539 net.cpp:84] Creating Layer loss2/classifier_loss2/classifier_0_split
I0509 12:33:39.831331 31539 net.cpp:406] loss2/classifier_loss2/classifier_0_split <- loss2/classifier
I0509 12:33:39.831336 31539 net.cpp:380] loss2/classifier_loss2/classifier_0_split -> loss2/classifier_loss2/classifier_0_split_0
I0509 12:33:39.831342 31539 net.cpp:380] loss2/classifier_loss2/classifier_0_split -> loss2/classifier_loss2/classifier_0_split_1
I0509 12:33:39.831347 31539 net.cpp:380] loss2/classifier_loss2/classifier_0_split -> loss2/classifier_loss2/classifier_0_split_2
I0509 12:33:39.831390 31539 net.cpp:122] Setting up loss2/classifier_loss2/classifier_0_split
I0509 12:33:39.831395 31539 net.cpp:129] Top shape: 16 196 (3136)
I0509 12:33:39.831398 31539 net.cpp:129] Top shape: 16 196 (3136)
I0509 12:33:39.831399 31539 net.cpp:129] Top shape: 16 196 (3136)
I0509 12:33:39.831401 31539 net.cpp:137] Memory required for data: 805702284
I0509 12:33:39.831403 31539 layer_factory.hpp:77] Creating layer loss2/loss
I0509 12:33:39.831409 31539 net.cpp:84] Creating Layer loss2/loss
I0509 12:33:39.831411 31539 net.cpp:406] loss2/loss <- loss2/classifier_loss2/classifier_0_split_0
I0509 12:33:39.831434 31539 net.cpp:406] loss2/loss <- label_val-data_1_split_3
…
I0509 12:33:39.831915 31539 net.cpp:122] Setting up loss2/top-5
I0509 12:33:39.831918 31539 net.cpp:129] Top shape: (1)
I0509 12:33:39.831920 31539 net.cpp:137] Memory required for data: 805702296
I0509 12:33:39.831923 31539 layer_factory.hpp:77] Creating layer inception_4e/1x1
I0509 12:33:39.831933 31539 net.cpp:84] Creating Layer inception_4e/1x1
I0509 12:33:39.831935 31539 net.cpp:406] inception_4e/1x1 <- inception_4d/output_inception_4d/output_0_split_1
I0509 12:33:39.831939 31539 net.cpp:380] inception_4e/1x1 -> inception_4e/1x1
I0509 12:33:39.834595 31539 net.cpp:122] Setting up inception_4e/1x1
I0509 12:33:39.834604 31539 net.cpp:129] Top shape: 16 256 14 14 (802816)
I0509 12:33:39.834607 31539 net.cpp:137] Memory required for data: 808913560
I0509 12:33:39.834612 31539 layer_factory.hpp:77] Creating layer inception_4e/relu_1x1
I0509 12:33:39.834617 31539 net.cpp:84] Creating Layer inception_4e/relu_1x1
I0509 12:33:39.834620 31539 net.cpp:406] inception_4e/relu_1x1 <- inception_4e/1x1
I0509 12:33:39.834625 31539 net.cpp:367] inception_4e/relu_1x1 -> inception_4e/1x1 (in-place)
I0509 12:33:39.835803 31539 net.cpp:122] Setting up inception_4e/relu_1x1
I0509 12:33:39.835813 31539 net.cpp:129] Top shape: 16 256 14 14 (802816)
I0509 12:33:39.835814 31539 net.cpp:137] Memory required for data: 812124824
I0509 12:33:39.835817 31539 layer_factory.hpp:77] Creating layer inception_4e/3x3_reduce
I0509 12:33:39.835860 31539 net.cpp:84] Creating Layer inception_4e/3x3_reduce
I0509 12:33:39.835865 31539 net.cpp:406] inception_4e/3x3_reduce <- inception_4d/output_inception_4d/output_0_split_2
I0509 12:33:39.835870 31539 net.cpp:380] inception_4e/3x3_reduce -> inception_4e/3x3_reduce
I0509 12:33:39.837913 31539 net.cpp:122] Setting up inception_4e/3x3_reduce
I0509 12:33:39.837921 31539 net.cpp:129] Top shape: 16 160 14 14 (501760)
I0509 12:33:39.837924 31539 net.cpp:137] Memory required for data: 814131864
I0509 12:33:39.837929 31539 layer_factory.hpp:77] Creating layer inception_4e/relu_3x3_reduce
I0509 12:33:39.837936 31539 net.cpp:84] Creating Layer inception_4e/relu_3x3_reduce
I0509 12:33:39.837939 31539 net.cpp:406] inception_4e/relu_3x3_reduce <- inception_4e/3x3_reduce
I0509 12:33:39.837944 31539 net.cpp:367] inception_4e/relu_3x3_reduce -> inception_4e/3x3_reduce (in-place)
I0509 12:33:39.838434 31539 net.cpp:122] Setting up inception_4e/relu_3x3_reduce
I0509 12:33:39.838444 31539 net.cpp:129] Top shape: 16 160 14 14 (501760)
I0509 12:33:39.838446 31539 net.cpp:137] Memory required for data: 816138904
I0509 12:33:39.838449 31539 layer_factory.hpp:77] Creating layer inception_4e/3x3
I0509 12:33:39.838474 31539 net.cpp:84] Creating Layer inception_4e/3x3
I0509 12:33:39.838477 31539 net.cpp:406] inception_4e/3x3 <- inception_4e/3x3_reduce
I0509 12:33:39.838483 31539 net.cpp:380] inception_4e/3x3 -> inception_4e/3x3
I0509 12:33:39.842762 31539 net.cpp:122] Setting up inception_4e/3x3
I0509 12:33:39.842773 31539 net.cpp:129] Top shape: 16 320 14 14 (1003520)
I0509 12:33:39.842775 31539 net.cpp:137] Memory required for data: 820152984
I0509 12:33:39.842782 31539 layer_factory.hpp:77] Creating layer inception_4e/relu_3x3
I0509 12:33:39.842787 31539 net.cpp:84] Creating Layer inception_4e/relu_3x3
I0509 12:33:39.842789 31539 net.cpp:406] inception_4e/relu_3x3 <- inception_4e/3x3
I0509 12:33:39.842794 31539 net.cpp:367] inception_4e/relu_3x3 -> inception_4e/3x3 (in-place)
I0509 12:33:39.843293 31539 net.cpp:122] Setting up inception_4e/relu_3x3
I0509 12:33:39.843302 31539 net.cpp:129] Top shape: 16 320 14 14 (1003520)
I0509 12:33:39.843303 31539 net.cpp:137] Memory required for data: 824167064
I0509 12:33:39.843307 31539 layer_factory.hpp:77] Creating layer inception_4e/5x5_reduce
I0509 12:33:39.843315 31539 net.cpp:84] Creating Layer inception_4e/5x5_reduce
I0509 12:33:39.843318 31539 net.cpp:406] inception_4e/5x5_reduce <- inception_4d/output_inception_4d/output_0_split_3
I0509 12:33:39.843325 31539 net.cpp:380] inception_4e/5x5_reduce -> inception_4e/5x5_reduce
I0509 12:33:39.846127 31539 net.cpp:122] Setting up inception_4e/5x5_reduce
I0509 12:33:39.846138 31539 net.cpp:129] Top shape: 16 32 14 14 (100352)
I0509 12:33:39.846140 31539 net.cpp:137] Memory required for data: 824568472
I0509 12:33:39.846146 31539 layer_factory.hpp:77] Creating layer inception_4e/relu_5x5_reduce
I0509 12:33:39.846151 31539 net.cpp:84] Creating Layer inception_4e/relu_5x5_reduce
I0509 12:33:39.846154 31539 net.cpp:406] inception_4e/relu_5x5_reduce <- inception_4e/5x5_reduce
I0509 12:33:39.846158 31539 net.cpp:367] inception_4e/relu_5x5_reduce -> inception_4e/5x5_reduce (in-place)
I0509 12:33:39.846655 31539 net.cpp:122] Setting up inception_4e/relu_5x5_reduce
I0509 12:33:39.846664 31539 net.cpp:129] Top shape: 16 32 14 14 (100352)
I0509 12:33:39.846666 31539 net.cpp:137] Memory required for data: 824969880
I0509 12:33:39.846668 31539 layer_factory.hpp:77] Creating layer inception_4e/5x5
I0509 12:33:39.846678 31539 net.cpp:84] Creating Layer inception_4e/5x5
I0509 12:33:39.846680 31539 net.cpp:406] inception_4e/5x5 <- inception_4e/5x5_reduce
I0509 12:33:39.846686 31539 net.cpp:380] inception_4e/5x5 -> inception_4e/5x5
I0509 12:33:39.849200 31539 net.cpp:122] Setting up inception_4e/5x5
I0509 12:33:39.849208 31539 net.cpp:129] Top shape: 16 128 14 14 (401408)
I0509 12:33:39.849211 31539 net.cpp:137] Memory required for data: 826575512
I0509 12:33:39.849216 31539 layer_factory.hpp:77] Creating layer inception_4e/relu_5x5
I0509 12:33:39.849221 31539 net.cpp:84] Creating Layer inception_4e/relu_5x5
I0509 12:33:39.849225 31539 net.cpp:406] inception_4e/relu_5x5 <- inception_4e/5x5
I0509 12:33:39.849229 31539 net.cpp:367] inception_4e/relu_5x5 -> inception_4e/5x5 (in-place)
I0509 12:33:39.849560 31539 net.cpp:122] Setting up inception_4e/relu_5x5
I0509 12:33:39.849567 31539 net.cpp:129] Top shape: 16 128 14 14 (401408)
I0509 12:33:39.849570 31539 net.cpp:137] Memory required for data: 828181144
I0509 12:33:39.849572 31539 layer_factory.hpp:77] Creating layer inception_4e/pool
I0509 12:33:39.849577 31539 net.cpp:84] Creating Layer inception_4e/pool
I0509 12:33:39.849581 31539 net.cpp:406] inception_4e/pool <- inception_4d/output_inception_4d/output_0_split_4
I0509 12:33:39.849586 31539 net.cpp:380] inception_4e/pool -> inception_4e/pool
I0509 12:33:39.849622 31539 net.cpp:122] Setting up inception_4e/pool
I0509 12:33:39.849627 31539 net.cpp:129] Top shape: 16 528 14 14 (1655808)
I0509 12:33:39.849629 31539 net.cpp:137] Memory required for data: 834804376
I0509 12:33:39.849632 31539 layer_factory.hpp:77] Creating layer inception_4e/pool_proj
I0509 12:33:39.849639 31539 net.cpp:84] Creating Layer inception_4e/pool_proj
I0509 12:33:39.849659 31539 net.cpp:406] inception_4e/pool_proj <- inception_4e/pool
I0509 12:33:39.849664 31539 net.cpp:380] inception_4e/pool_proj -> inception_4e/pool_proj
I0509 12:33:39.851610 31539 net.cpp:122] Setting up inception_4e/pool_proj
I0509 12:33:39.851619 31539 net.cpp:129] Top shape: 16 128 14 14 (401408)
I0509 12:33:39.851621 31539 net.cpp:137] Memory required for data: 836410008
I0509 12:33:39.851626 31539 layer_factory.hpp:77] Creating layer inception_4e/relu_pool_proj
I0509 12:33:39.851631 31539 net.cpp:84] Creating Layer inception_4e/relu_pool_proj
I0509 12:33:39.851634 31539 net.cpp:406] inception_4e/relu_pool_proj <- inception_4e/pool_proj
I0509 12:33:39.851639 31539 net.cpp:367] inception_4e/relu_pool_proj -> inception_4e/pool_proj (in-place)
I0509 12:33:39.852759 31539 net.cpp:122] Setting up inception_4e/relu_pool_proj
I0509 12:33:39.852767 31539 net.cpp:129] Top shape: 16 128 14 14 (401408)
I0509 12:33:39.852771 31539 net.cpp:137] Memory required for data: 838015640
I0509 12:33:39.852772 31539 layer_factory.hpp:77] Creating layer inception_4e/output
I0509 12:33:39.852779 31539 net.cpp:84] Creating Layer inception_4e/output
I0509 12:33:39.852782 31539 net.cpp:406] inception_4e/output <- inception_4e/1x1
I0509 12:33:39.852787 31539 net.cpp:406] inception_4e/output <- inception_4e/3x3
I0509 12:33:39.852789 31539 net.cpp:406] inception_4e/output <- inception_4e/5x5
I0509 12:33:39.852792 31539 net.cpp:406] inception_4e/output <- inception_4e/pool_proj
I0509 12:33:39.852795 31539 net.cpp:380] inception_4e/output -> inception_4e/output
I0509 12:33:39.852821 31539 net.cpp:122] Setting up inception_4e/output
I0509 12:33:39.852825 31539 net.cpp:129] Top shape: 16 832 14 14 (2609152)
I0509 12:33:39.852828 31539 net.cpp:137] Memory required for data: 848452248
I0509 12:33:39.852829 31539 layer_factory.hpp:77] Creating layer pool4/3x3_s2
I0509 12:33:39.852834 31539 net.cpp:84] Creating Layer pool4/3x3_s2
I0509 12:33:39.852838 31539 net.cpp:406] pool4/3x3_s2 <- inception_4e/output
I0509 12:33:39.852843 31539 net.cpp:380] pool4/3x3_s2 -> pool4/3x3_s2
I0509 12:33:39.852871 31539 net.cpp:122] Setting up pool4/3x3_s2
I0509 12:33:39.852876 31539 net.cpp:129] Top shape: 16 832 7 7 (652288)
I0509 12:33:39.852878 31539 net.cpp:137] Memory required for data: 851061400
I0509 12:33:39.852880 31539 layer_factory.hpp:77] Creating layer pool4/3x3_s2_pool4/3x3_s2_0_split
I0509 12:33:39.852886 31539 net.cpp:84] Creating Layer pool4/3x3_s2_pool4/3x3_s2_0_split
I0509 12:33:39.852888 31539 net.cpp:406] pool4/3x3_s2_pool4/3x3_s2_0_split <- pool4/3x3_s2
I0509 12:33:39.852893 31539 net.cpp:380] pool4/3x3_s2_pool4/3x3_s2_0_split -> pool4/3x3_s2_pool4/3x3_s2_0_split_0
I0509 12:33:39.852898 31539 net.cpp:380] pool4/3x3_s2_pool4/3x3_s2_0_split -> pool4/3x3_s2_pool4/3x3_s2_0_split_1
I0509 12:33:39.852902 31539 net.cpp:380] pool4/3x3_s2_pool4/3x3_s2_0_split -> pool4/3x3_s2_pool4/3x3_s2_0_split_2
I0509 12:33:39.852931 31539 net.cpp:380] pool4/3x3_s2_pool4/3x3_s2_0_split -> pool4/3x3_s2_pool4/3x3_s2_0_split_3
I0509 12:33:39.852972 31539 net.cpp:122] Setting up pool4/3x3_s2_pool4/3x3_s2_0_split
I0509 12:33:39.852977 31539 net.cpp:129] Top shape: 16 832 7 7 (652288)
I0509 12:33:39.852979 31539 net.cpp:129] Top shape: 16 832 7 7 (652288)
I0509 12:33:39.852982 31539 net.cpp:129] Top shape: 16 832 7 7 (652288)
I0509 12:33:39.852985 31539 net.cpp:129] Top shape: 16 832 7 7 (652288)
I0509 12:33:39.852988 31539 net.cpp:137] Memory required for data: 861498008
I0509 12:33:39.852989 31539 layer_factory.hpp:77] Creating layer inception_5a/1x1
I0509 12:33:39.852998 31539 net.cpp:84] Creating Layer inception_5a/1x1
I0509 12:33:39.853000 31539 net.cpp:406] inception_5a/1x1 <- pool4/3x3_s2_pool4/3x3_s2_0_split_0
I0509 12:33:39.853005 31539 net.cpp:380] inception_5a/1x1 -> inception_5a/1x1
I0509 12:33:39.855998 31539 net.cpp:122] Setting up inception_5a/1x1
I0509 12:33:39.856007 31539 net.cpp:129] Top shape: 16 256 7 7 (200704)
I0509 12:33:39.856009 31539 net.cpp:137] Memory required for data: 862300824
I0509 12:33:39.856030 31539 layer_factory.hpp:77] Creating layer inception_5a/relu_1x1
I0509 12:33:39.856035 31539 net.cpp:84] Creating Layer inception_5a/relu_1x1
I0509 12:33:39.856039 31539 net.cpp:406] inception_5a/relu_1x1 <- inception_5a/1x1
I0509 12:33:39.856043 31539 net.cpp:367] inception_5a/relu_1x1 -> inception_5a/1x1 (in-place)
I0509 12:33:39.856544 31539 net.cpp:122] Setting up inception_5a/relu_1x1
I0509 12:33:39.856552 31539 net.cpp:129] Top shape: 16 256 7 7 (200704)
I0509 12:33:39.856554 31539 net.cpp:137] Memory required for data: 863103640
I0509 12:33:39.856557 31539 layer_factory.hpp:77] Creating layer inception_5a/3x3_reduce
I0509 12:33:39.856567 31539 net.cpp:84] Creating Layer inception_5a/3x3_reduce
I0509 12:33:39.856570 31539 net.cpp:406] inception_5a/3x3_reduce <- pool4/3x3_s2_pool4/3x3_s2_0_split_1
I0509 12:33:39.856575 31539 net.cpp:380] inception_5a/3x3_reduce -> inception_5a/3x3_reduce
I0509 12:33:39.859061 31539 net.cpp:122] Setting up inception_5a/3x3_reduce
I0509 12:33:39.859069 31539 net.cpp:129] Top shape: 16 160 7 7 (125440)
I0509 12:33:39.859071 31539 net.cpp:137] Memory required for data: 863605400
I0509 12:33:39.859076 31539 layer_factory.hpp:77] Creating layer inception_5a/relu_3x3_reduce
I0509 12:33:39.859081 31539 net.cpp:84] Creating Layer inception_5a/relu_3x3_reduce
I0509 12:33:39.859084 31539 net.cpp:406] inception_5a/relu_3x3_reduce <- inception_5a/3x3_reduce
I0509 12:33:39.859089 31539 net.cpp:367] inception_5a/relu_3x3_reduce -> inception_5a/3x3_reduce (in-place)
I0509 12:33:39.859580 31539 net.cpp:122] Setting up inception_5a/relu_3x3_reduce
I0509 12:33:39.859587 31539 net.cpp:129] Top shape: 16 160 7 7 (125440)
I0509 12:33:39.859591 31539 net.cpp:137] Memory required for data: 864107160
I0509 12:33:39.859592 31539 layer_factory.hpp:77] Creating layer inception_5a/3x3
I0509 12:33:39.859601 31539 net.cpp:84] Creating Layer inception_5a/3x3
I0509 12:33:39.859603 31539 net.cpp:406] inception_5a/3x3 <- inception_5a/3x3_reduce
I0509 12:33:39.859609 31539 net.cpp:380] inception_5a/3x3 -> inception_5a/3x3
I0509 12:33:39.864550 31539 net.cpp:122] Setting up inception_5a/3x3
I0509 12:33:39.864563 31539 net.cpp:129] Top shape: 16 320 7 7 (250880)
I0509 12:33:39.864565 31539 net.cpp:137] Memory required for data: 865110680
I0509 12:33:39.864573 31539 layer_factory.hpp:77] Creating layer inception_5a/relu_3x3
I0509 12:33:39.864579 31539 net.cpp:84] Creating Layer inception_5a/relu_3x3
I0509 12:33:39.864583 31539 net.cpp:406] inception_5a/relu_3x3 <- inception_5a/3x3
I0509 12:33:39.864588 31539 net.cpp:367] inception_5a/relu_3x3 -> inception_5a/3x3 (in-place)
I0509 12:33:39.865072 31539 net.cpp:122] Setting up inception_5a/relu_3x3
I0509 12:33:39.865080 31539 net.cpp:129] Top shape: 16 320 7 7 (250880)
I0509 12:33:39.865082 31539 net.cpp:137] Memory required for data: 866114200
I0509 12:33:39.865085 31539 layer_factory.hpp:77] Creating layer inception_5a/5x5_reduce
I0509 12:33:39.865095 31539 net.cpp:84] Creating Layer inception_5a/5x5_reduce
I0509 12:33:39.865099 31539 net.cpp:406] inception_5a/5x5_reduce <- pool4/3x3_s2_pool4/3x3_s2_0_split_2
I0509 12:33:39.865104 31539 net.cpp:380] inception_5a/5x5_reduce -> inception_5a/5x5_reduce
I0509 12:33:39.866875 31539 net.cpp:122] Setting up inception_5a/5x5_reduce
I0509 12:33:39.866884 31539 net.cpp:129] Top shape: 16 32 7 7 (25088)
I0509 12:33:39.866888 31539 net.cpp:137] Memory required for data: 866214552
I0509 12:33:39.866891 31539 layer_factory.hpp:77] Creating layer inception_5a/relu_5x5_reduce
I0509 12:33:39.866899 31539 net.cpp:84] Creating Layer inception_5a/relu_5x5_reduce
I0509 12:33:39.866901 31539 net.cpp:406] inception_5a/relu_5x5_reduce <- inception_5a/5x5_reduce
I0509 12:33:39.866905 31539 net.cpp:367] inception_5a/relu_5x5_reduce -> inception_5a/5x5_reduce (in-place)
I0509 12:33:39.867238 31539 net.cpp:122] Setting up inception_5a/relu_5x5_reduce
I0509 12:33:39.867246 31539 net.cpp:129] Top shape: 16 32 7 7 (25088)
I0509 12:33:39.867249 31539 net.cpp:137] Memory required for data: 866314904
I0509 12:33:39.867251 31539 layer_factory.hpp:77] Creating layer inception_5a/5x5
I0509 12:33:39.867277 31539 net.cpp:84] Creating Layer inception_5a/5x5
I0509 12:33:39.867280 31539 net.cpp:406] inception_5a/5x5 <- inception_5a/5x5_reduce
I0509 12:33:39.867285 31539 net.cpp:380] inception_5a/5x5 -> inception_5a/5x5
I0509 12:33:39.869410 31539 net.cpp:122] Setting up inception_5a/5x5
I0509 12:33:39.869418 31539 net.cpp:129] Top shape: 16 128 7 7 (100352)
I0509 12:33:39.869421 31539 net.cpp:137] Memory required for data: 866716312
I0509 12:33:39.869426 31539 layer_factory.hpp:77] Creating layer inception_5a/relu_5x5
I0509 12:33:39.869431 31539 net.cpp:84] Creating Layer inception_5a/relu_5x5
I0509 12:33:39.869434 31539 net.cpp:406] inception_5a/relu_5x5 <- inception_5a/5x5
I0509 12:33:39.869439 31539 net.cpp:367] inception_5a/relu_5x5 -> inception_5a/5x5 (in-place)
I0509 12:33:39.871268 31539 net.cpp:122] Setting up inception_5a/relu_5x5
I0509 12:33:39.871277 31539 net.cpp:129] Top shape: 16 128 7 7 (100352)
I0509 12:33:39.871280 31539 net.cpp:137] Memory required for data: 867117720
I0509 12:33:39.871284 31539 layer_factory.hpp:77] Creating layer inception_5a/pool
I0509 12:33:39.871289 31539 net.cpp:84] Creating Layer inception_5a/pool
I0509 12:33:39.871294 31539 net.cpp:406] inception_5a/pool <- pool4/3x3_s2_pool4/3x3_s2_0_split_3
I0509 12:33:39.871299 31539 net.cpp:380] inception_5a/pool -> inception_5a/pool
I0509 12:33:39.871341 31539 net.cpp:122] Setting up inception_5a/pool
I0509 12:33:39.871346 31539 net.cpp:129] Top shape: 16 832 7 7 (652288)
I0509 12:33:39.871348 31539 net.cpp:137] Memory required for data: 869726872
I0509 12:33:39.871351 31539 layer_factory.hpp:77] Creating layer inception_5a/pool_proj
I0509 12:33:39.871361 31539 net.cpp:84] Creating Layer inception_5a/pool_proj
I0509 12:33:39.871362 31539 net.cpp:406] inception_5a/pool_proj <- inception_5a/pool
I0509 12:33:39.871367 31539 net.cpp:380] inception_5a/pool_proj -> inception_5a/pool_proj
I0509 12:33:39.873922 31539 net.cpp:122] Setting up inception_5a/pool_proj
I0509 12:33:39.873931 31539 net.cpp:129] Top shape: 16 128 7 7 (100352)
I0509 12:33:39.873934 31539 net.cpp:137] Memory required for data: 870128280
I0509 12:33:39.873939 31539 layer_factory.hpp:77] Creating layer inception_5a/relu_pool_proj
I0509 12:33:39.873944 31539 net.cpp:84] Creating Layer inception_5a/relu_pool_proj
I0509 12:33:39.873947 31539 net.cpp:406] inception_5a/relu_pool_proj <- inception_5a/pool_proj
I0509 12:33:39.873952 31539 net.cpp:367] inception_5a/relu_pool_proj -> inception_5a/pool_proj (in-place)
I0509 12:33:39.874452 31539 net.cpp:122] Setting up inception_5a/relu_pool_proj
I0509 12:33:39.874460 31539 net.cpp:129] Top shape: 16 128 7 7 (100352)
I0509 12:33:39.874462 31539 net.cpp:137] Memory required for data: 870529688
I0509 12:33:39.874465 31539 layer_factory.hpp:77] Creating layer inception_5a/output
I0509 12:33:39.874470 31539 net.cpp:84] Creating Layer inception_5a/output
I0509 12:33:39.874473 31539 net.cpp:406] inception_5a/output <- inception_5a/1x1
I0509 12:33:39.874477 31539 net.cpp:406] inception_5a/output <- inception_5a/3x3
I0509 12:33:39.874480 31539 net.cpp:406] inception_5a/output <- inception_5a/5x5
I0509 12:33:39.874482 31539 net.cpp:406] inception_5a/output <- inception_5a/pool_proj
I0509 12:33:39.874487 31539 net.cpp:380] inception_5a/output -> inception_5a/output
I0509 12:33:39.874513 31539 net.cpp:122] Setting up inception_5a/output
I0509 12:33:39.874517 31539 net.cpp:129] Top shape: 16 832 7 7 (652288)
I0509 12:33:39.874519 31539 net.cpp:137] Memory required for data: 873138840
I0509 12:33:39.874521 31539 layer_factory.hpp:77] Creating layer inception_5a/output_inception_5a/output_0_split
I0509 12:33:39.874526 31539 net.cpp:84] Creating Layer inception_5a/output_inception_5a/output_0_split
I0509 12:33:39.874529 31539 net.cpp:406] inception_5a/output_inception_5a/output_0_split <- inception_5a/output
I0509 12:33:39.874534 31539 net.cpp:380] inception_5a/output_inception_5a/output_0_split -> inception_5a/output_inception_5a/output_0_split_0
I0509 12:33:39.874539 31539 net.cpp:380] inception_5a/output_inception_5a/output_0_split -> inception_5a/output_inception_5a/output_0_split_1
I0509 12:33:39.874560 31539 net.cpp:380] inception_5a/output_inception_5a/output_0_split -> inception_5a/output_inception_5a/output_0_split_2
I0509 12:33:39.874567 31539 net.cpp:380] inception_5a/output_inception_5a/output_0_split -> inception_5a/output_inception_5a/output_0_split_3
I0509 12:33:39.874614 31539 net.cpp:122] Setting up inception_5a/output_inception_5a/output_0_split
I0509 12:33:39.874619 31539 net.cpp:129] Top shape: 16 832 7 7 (652288)
I0509 12:33:39.874621 31539 net.cpp:129] Top shape: 16 832 7 7 (652288)
I0509 12:33:39.874624 31539 net.cpp:129] Top shape: 16 832 7 7 (652288)
I0509 12:33:39.874626 31539 net.cpp:129] Top shape: 16 832 7 7 (652288)
I0509 12:33:39.874629 31539 net.cpp:137] Memory required for data: 883575448
I0509 12:33:39.874630 31539 layer_factory.hpp:77] Creating layer inception_5b/1x1
I0509 12:33:39.874639 31539 net.cpp:84] Creating Layer inception_5b/1x1
I0509 12:33:39.874641 31539 net.cpp:406] inception_5b/1x1 <- inception_5a/output_inception_5a/output_0_split_0
I0509 12:33:39.874646 31539 net.cpp:380] inception_5b/1x1 -> inception_5b/1x1
I0509 12:33:39.877985 31539 net.cpp:122] Setting up inception_5b/1x1
I0509 12:33:39.877993 31539 net.cpp:129] Top shape: 16 384 7 7 (301056)
I0509 12:33:39.877996 31539 net.cpp:137] Memory required for data: 884779672
I0509 12:33:39.878001 31539 layer_factory.hpp:77] Creating layer inception_5b/relu_1x1
I0509 12:33:39.878008 31539 net.cpp:84] Creating Layer inception_5b/relu_1x1
I0509 12:33:39.878011 31539 net.cpp:406] inception_5b/relu_1x1 <- inception_5b/1x1
I0509 12:33:39.878015 31539 net.cpp:367] inception_5b/relu_1x1 -> inception_5b/1x1 (in-place)
I0509 12:33:39.878499 31539 net.cpp:122] Setting up inception_5b/relu_1x1
I0509 12:33:39.878509 31539 net.cpp:129] Top shape: 16 384 7 7 (301056)
I0509 12:33:39.878511 31539 net.cpp:137] Memory required for data: 885983896
I0509 12:33:39.878515 31539 layer_factory.hpp:77] Creating layer inception_5b/3x3_reduce
I0509 12:33:39.878522 31539 net.cpp:84] Creating Layer inception_5b/3x3_reduce
I0509 12:33:39.878525 31539 net.cpp:406] inception_5b/3x3_reduce <- inception_5a/output_inception_5a/output_0_split_1
I0509 12:33:39.878531 31539 net.cpp:380] inception_5b/3x3_reduce -> inception_5b/3x3_reduce
I0509 12:33:39.881791 31539 net.cpp:122] Setting up inception_5b/3x3_reduce
I0509 12:33:39.881803 31539 net.cpp:129] Top shape: 16 192 7 7 (150528)
I0509 12:33:39.881805 31539 net.cpp:137] Memory required for data: 886586008
I0509 12:33:39.881810 31539 layer_factory.hpp:77] Creating layer inception_5b/relu_3x3_reduce
I0509 12:33:39.881816 31539 net.cpp:84] Creating Layer inception_5b/relu_3x3_reduce
I0509 12:33:39.881819 31539 net.cpp:406] inception_5b/relu_3x3_reduce <- inception_5b/3x3_reduce
I0509 12:33:39.881824 31539 net.cpp:367] inception_5b/relu_3x3_reduce -> inception_5b/3x3_reduce (in-place)
I0509 12:33:39.882323 31539 net.cpp:122] Setting up inception_5b/relu_3x3_reduce
I0509 12:33:39.882333 31539 net.cpp:129] Top shape: 16 192 7 7 (150528)
I0509 12:33:39.882334 31539 net.cpp:137] Memory required for data: 887188120
I0509 12:33:39.882336 31539 layer_factory.hpp:77] Creating layer inception_5b/3x3
I0509 12:33:39.882345 31539 net.cpp:84] Creating Layer inception_5b/3x3
I0509 12:33:39.882349 31539 net.cpp:406] inception_5b/3x3 <- inception_5b/3x3_reduce
I0509 12:33:39.882354 31539 net.cpp:380] inception_5b/3x3 -> inception_5b/3x3
I0509 12:33:39.887780 31539 net.cpp:122] Setting up inception_5b/3x3
I0509 12:33:39.887791 31539 net.cpp:129] Top shape: 16 384 7 7 (301056)
I0509 12:33:39.887794 31539 net.cpp:137] Memory required for data: 888392344
I0509 12:33:39.887799 31539 layer_factory.hpp:77] Creating layer inception_5b/relu_3x3
I0509 12:33:39.887805 31539 net.cpp:84] Creating Layer inception_5b/relu_3x3
I0509 12:33:39.887809 31539 net.cpp:406] inception_5b/relu_3x3 <- inception_5b/3x3
I0509 12:33:39.887814 31539 net.cpp:367] inception_5b/relu_3x3 -> inception_5b/3x3 (in-place)
I0509 12:33:39.888137 31539 net.cpp:122] Setting up inception_5b/relu_3x3
I0509 12:33:39.888161 31539 net.cpp:129] Top shape: 16 384 7 7 (301056)
I0509 12:33:39.888164 31539 net.cpp:137] Memory required for data: 889596568
I0509 12:33:39.888166 31539 layer_factory.hpp:77] Creating layer inception_5b/5x5_reduce
I0509 12:33:39.888175 31539 net.cpp:84] Creating Layer inception_5b/5x5_reduce
I0509 12:33:39.888178 31539 net.cpp:406] inception_5b/5x5_reduce <- inception_5a/output_inception_5a/output_0_split_2
I0509 12:33:39.888185 31539 net.cpp:380] inception_5b/5x5_reduce -> inception_5b/5x5_reduce
I0509 12:33:39.890101 31539 net.cpp:122] Setting up inception_5b/5x5_reduce
I0509 12:33:39.890110 31539 net.cpp:129] Top shape: 16 48 7 7 (37632)
I0509 12:33:39.890111 31539 net.cpp:137] Memory required for data: 889747096
I0509 12:33:39.890116 31539 layer_factory.hpp:77] Creating layer inception_5b/relu_5x5_reduce
I0509 12:33:39.890121 31539 net.cpp:84] Creating Layer inception_5b/relu_5x5_reduce
I0509 12:33:39.890125 31539 net.cpp:406] inception_5b/relu_5x5_reduce <- inception_5b/5x5_reduce
I0509 12:33:39.890130 31539 net.cpp:367] inception_5b/relu_5x5_reduce -> inception_5b/5x5_reduce (in-place)
I0509 12:33:39.890455 31539 net.cpp:122] Setting up inception_5b/relu_5x5_reduce
I0509 12:33:39.890461 31539 net.cpp:129] Top shape: 16 48 7 7 (37632)
I0509 12:33:39.890463 31539 net.cpp:137] Memory required for data: 889897624
I0509 12:33:39.890465 31539 layer_factory.hpp:77] Creating layer inception_5b/5x5
I0509 12:33:39.890473 31539 net.cpp:84] Creating Layer inception_5b/5x5
I0509 12:33:39.890476 31539 net.cpp:406] inception_5b/5x5 <- inception_5b/5x5_reduce
I0509 12:33:39.890482 31539 net.cpp:380] inception_5b/5x5 -> inception_5b/5x5
I0509 12:33:39.893687 31539 net.cpp:122] Setting up inception_5b/5x5
I0509 12:33:39.893697 31539 net.cpp:129] Top shape: 16 128 7 7 (100352)
I0509 12:33:39.893700 31539 net.cpp:137] Memory required for data: 890299032
I0509 12:33:39.893705 31539 layer_factory.hpp:77] Creating layer inception_5b/relu_5x5
I0509 12:33:39.893712 31539 net.cpp:84] Creating Layer inception_5b/relu_5x5
I0509 12:33:39.893714 31539 net.cpp:406] inception_5b/relu_5x5 <- inception_5b/5x5
I0509 12:33:39.893719 31539 net.cpp:367] inception_5b/relu_5x5 -> inception_5b/5x5 (in-place)
I0509 12:33:39.894208 31539 net.cpp:122] Setting up inception_5b/relu_5x5
I0509 12:33:39.894217 31539 net.cpp:129] Top shape: 16 128 7 7 (100352)
I0509 12:33:39.894218 31539 net.cpp:137] Memory required for data: 890700440
I0509 12:33:39.894222 31539 layer_factory.hpp:77] Creating layer inception_5b/pool
I0509 12:33:39.894228 31539 net.cpp:84] Creating Layer inception_5b/pool
I0509 12:33:39.894232 31539 net.cpp:406] inception_5b/pool <- inception_5a/output_inception_5a/output_0_split_3
I0509 12:33:39.894237 31539 net.cpp:380] inception_5b/pool -> inception_5b/pool
I0509 12:33:39.894275 31539 net.cpp:122] Setting up inception_5b/pool
I0509 12:33:39.894280 31539 net.cpp:129] Top shape: 16 832 7 7 (652288)
I0509 12:33:39.894282 31539 net.cpp:137] Memory required for data: 893309592
I0509 12:33:39.894284 31539 layer_factory.hpp:77] Creating layer inception_5b/pool_proj
I0509 12:33:39.894292 31539 net.cpp:84] Creating Layer inception_5b/pool_proj
I0509 12:33:39.894295 31539 net.cpp:406] inception_5b/pool_proj <- inception_5b/pool
I0509 12:33:39.894300 31539 net.cpp:380] inception_5b/pool_proj -> inception_5b/pool_proj
I0509 12:33:39.896654 31539 net.cpp:122] Setting up inception_5b/pool_proj
I0509 12:33:39.896663 31539 net.cpp:129] Top shape: 16 128 7 7 (100352)
I0509 12:33:39.896667 31539 net.cpp:137] Memory required for data: 893711000
I0509 12:33:39.896670 31539 layer_factory.hpp:77] Creating layer inception_5b/relu_pool_proj
I0509 12:33:39.896677 31539 net.cpp:84] Creating Layer inception_5b/relu_pool_proj
I0509 12:33:39.896680 31539 net.cpp:406] inception_5b/relu_pool_proj <- inception_5b/pool_proj
I0509 12:33:39.896684 31539 net.cpp:367] inception_5b/relu_pool_proj -> inception_5b/pool_proj (in-place)
I0509 12:33:39.897176 31539 net.cpp:122] Setting up inception_5b/relu_pool_proj
I0509 12:33:39.897200 31539 net.cpp:129] Top shape: 16 128 7 7 (100352)
I0509 12:33:39.897202 31539 net.cpp:137] Memory required for data: 894112408
I0509 12:33:39.897204 31539 layer_factory.hpp:77] Creating layer inception_5b/output
I0509 12:33:39.897209 31539 net.cpp:84] Creating Layer inception_5b/output
I0509 12:33:39.897213 31539 net.cpp:406] inception_5b/output <- inception_5b/1x1
I0509 12:33:39.897217 31539 net.cpp:406] inception_5b/output <- inception_5b/3x3
I0509 12:33:39.897219 31539 net.cpp:406] inception_5b/output <- inception_5b/5x5
I0509 12:33:39.897222 31539 net.cpp:406] inception_5b/output <- inception_5b/pool_proj
I0509 12:33:39.897228 31539 net.cpp:380] inception_5b/output -> inception_5b/output
I0509 12:33:39.897254 31539 net.cpp:122] Setting up inception_5b/output
I0509 12:33:39.897258 31539 net.cpp:129] Top shape: 16 1024 7 7 (802816)
I0509 12:33:39.897260 31539 net.cpp:137] Memory required for data: 897323672
I0509 12:33:39.897262 31539 layer_factory.hpp:77] Creating layer pool5/7x7_s1
I0509 12:33:39.897266 31539 net.cpp:84] Creating Layer pool5/7x7_s1
I0509 12:33:39.897269 31539 net.cpp:406] pool5/7x7_s1 <- inception_5b/output
I0509 12:33:39.897274 31539 net.cpp:380] pool5/7x7_s1 -> pool5/7x7_s1
I0509 12:33:39.897775 31539 net.cpp:122] Setting up pool5/7x7_s1
I0509 12:33:39.897783 31539 net.cpp:129] Top shape: 16 1024 1 1 (16384)
I0509 12:33:39.897786 31539 net.cpp:137] Memory required for data: 897389208
I0509 12:33:39.897789 31539 layer_factory.hpp:77] Creating layer pool5/drop_7x7_s1
I0509 12:33:39.897795 31539 net.cpp:84] Creating Layer pool5/drop_7x7_s1
I0509 12:33:39.897799 31539 net.cpp:406] pool5/drop_7x7_s1 <- pool5/7x7_s1
I0509 12:33:39.897804 31539 net.cpp:367] pool5/drop_7x7_s1 -> pool5/7x7_s1 (in-place)
I0509 12:33:39.897822 31539 net.cpp:122] Setting up pool5/drop_7x7_s1
I0509 12:33:39.897826 31539 net.cpp:129] Top shape: 16 1024 1 1 (16384)
I0509 12:33:39.897828 31539 net.cpp:137] Memory required for data: 897454744
I0509 12:33:39.897830 31539 layer_factory.hpp:77] Creating layer loss3/classifier
I0509 12:33:39.897837 31539 net.cpp:84] Creating Layer loss3/classifier
I0509 12:33:39.897840 31539 net.cpp:406] loss3/classifier <- pool5/7x7_s1
I0509 12:33:39.897845 31539 net.cpp:380] loss3/classifier -> loss3/classifier
I0509 12:33:39.899195 31539 net.cpp:122] Setting up loss3/classifier
I0509 12:33:39.899204 31539 net.cpp:129] Top shape: 16 196 (3136)
I0509 12:33:39.899205 31539 net.cpp:137] Memory required for data: 897467288
I0509 12:33:39.899210 31539 layer_factory.hpp:77] Creating layer loss3/classifier_loss3/classifier_0_split
I0509 12:33:39.899215 31539 net.cpp:84] Creating Layer loss3/classifier_loss3/classifier_0_split
I0509 12:33:39.899219 31539 net.cpp:406] loss3/classifier_loss3/classifier_0_split <- loss3/classifier
I0509 12:33:39.899224 31539 net.cpp:380] loss3/classifier_loss3/classifier_0_split -> loss3/classifier_loss3/classifier_0_split_0
I0509 12:33:39.899230 31539 net.cpp:380] loss3/classifier_loss3/classifier_0_split -> loss3/classifier_loss3/classifier_0_split_1
I0509 12:33:39.899236 31539 net.cpp:380] loss3/classifier_loss3/classifier_0_split -> loss3/classifier_loss3/classifier_0_split_2
I0509 12:33:39.899279 31539 net.cpp:122] Setting up loss3/classifier_loss3/classifier_0_split
I0509 12:33:39.899283 31539 net.cpp:129] Top shape: 16 196 (3136)
I0509 12:33:39.899286 31539 net.cpp:129] Top shape: 16 196 (3136)
I0509 12:33:39.899288 31539 net.cpp:129] Top shape: 16 196 (3136)
I0509 12:33:39.899291 31539 net.cpp:137] Memory required for data: 897504920
I0509 12:33:39.899292 31539 layer_factory.hpp:77] Creating layer loss3/loss
I0509 12:33:39.899297 31539 net.cpp:84] Creating Layer loss3/loss
I0509 12:33:39.899299 31539 net.cpp:406] loss3/loss <- loss3/classifier_loss3/classifier_0_split_0
I0509 12:33:39.899303 31539 net.cpp:406] loss3/loss <- label_val-data_1_split_6
…
