…
I0502 20:27:11.915936 18045 net.cpp:294] The NetState phase (0) differed from the phase (1) specified by a rule in layer loss3/top-5
I0502 20:27:11.916766 18045 net.cpp:51] Initializing net from parameters:
state {
phase: TRAIN
level: 0
stage: ""
}
layer {
name: "train-data"
type: "Data"
top: "data"
top: "label"
include {
phase: TRAIN
}
transform_param {
mirror: true
crop_size: 224
mean_file: "/mnt/bigdisk/MANDIG2/digits/jobs/20200428-132136-11fe/mean.binaryproto"
}
data_param {
source: "/mnt/bigdisk/MANDIG2/digits/jobs/20200428-132136-11fe/train_db"
batch_size: 32
backend: LMDB
}
}
layer {
name: "conv1/7x7_s2"
type: "Convolution"
bottom: "data"
top: "conv1/7x7_s2"
param {
lr_mult: 1
decay_mult: 1
}
param {
lr_mult: 2
decay_mult: 0
}
convolution_param {
num_output: 64
pad: 3
kernel_size: 7
stride: 2
weight_filler {
type: "xavier"
std: 0.1
}
bias_filler {
type: "constant"
value: 0.2
}
}
}
layer {
name: "conv1/relu_7x7"
type: "ReLU"
bottom: "conv1/7x7_s2"
top: "conv1/7x7_s2"
}
layer {
name: "pool1/3x3_s2"
type: "Pooling"
bottom: "conv1/7x7_s2"
top: "pool1/3x3_s2"
pooling_param {
pool: MAX
kernel_size: 3
stride: 2
}
}
layer {
name: "pool1/norm1"
type: "LRN"
bottom: "pool1/3x3_s2"
top: "pool1/norm1"
lrn_param {
local_size: 5
alpha: 0.0001
beta: 0.75
}
}
layer {
name: "conv2/3x3_reduce"
type: "Convolution"
bottom: "pool1/norm1"
top: "conv2/3x3_reduce"
param {
lr_mult: 1
decay_mult: 1
}
param {
lr_mult: 2
decay_mult: 0
}
convolution_param {
num_output: 64
kernel_size: 1
weight_filler {
type: "xavier"
std: 0.1
}
bias_filler {
type: "constant"
value: 0.2
}
}
}
layer {
name: "conv2/relu_3x3_reduce"
type: "ReLU"
bottom: "conv2/3x3_reduce"
top: "conv2/3x3_reduce"
}
layer {
name: "conv2/3x3"
type: "Convolution"
bottom: "conv2/3x3_reduce"
top: "conv2/3x3"
param {
lr_mult: 1
decay_mult: 1
}
param {
lr_mult: 2
decay_mult: 0
}
convolution_param {
num_output: 192
pad: 1
kernel_size: 3
weight_filler {
type: "xavier"
std: 0.03
}
bias_filler {
type: "constant"
value: 0.2
}
}
}
layer {
name: "conv2/relu_3x3"
type: "ReLU"
bottom: "conv2/3x3"
top: "conv2/3x3"
}
layer {
name: "conv2/norm2"
type: "LRN"
bottom: "conv2/3x3"
top: "conv2/norm2"
lrn_param {
local_size: 5
alpha: 0.0001
beta: 0.75
}
}
layer {
name: "pool2/3x3_s2"
type: "Pooling"
bottom: "conv2/norm2"
top: "pool2/3x3_s2"
pooling_param {
pool: MAX
kernel_size: 3
stride: 2
}
}
layer {
name: "inception_3a/1x1"
type: "Convolution"
bottom: "pool2/3x3_s2"
top: "inception_3a/1x1"
param {
lr_mult: 1
decay_mult: 1
}
param {
lr_mult: 2
decay_mult: 0
}
convolution_param {
num_output: 64
kernel_size: 1
weight_filler {
type: "xavier"
std: 0.03
}
bias_filler {
type: "constant"
value: 0.2
}
}
}
layer {
name: "inception_3a/relu_1x1"
type: "ReLU"
bottom: "inception_3a/1x1"
top: "inception_3a/1x1"
}
layer {
name: "inception_3a/3x3_reduce"
type: "Convolution"
bottom: "pool2/3x3_s2"
top: "inception_3a/3x3_reduce"
param {
lr_mult: 1
decay_mult: 1
}
param {
lr_mult: 2
decay_mult: 0
}
convolution_param {
num_output: 96
kernel_size: 1
weight_filler {
type: "xavier"
std: 0.09
}
bias_filler {
type: "constant"
value: 0.2
}
}
}
layer {
name: "inception_3a/relu_3x3_reduce"
type: "ReLU"
bottom: "inception_3a/3x3_reduce"
top: "inception_3a/3x3_reduce"
}
layer {
name: "inception_3a/3x3"
type: "Convolution"
bottom: "inception_3a/3x3_reduce"
top: "inception_3a/3x3"
param {
lr_mult: 1
decay_mult: 1
}
param {
lr_mult: 2
decay_mult: 0
}
convolution_param {
num_output: 128
pad: 1
kernel_size: 3
weight_filler {
type: "xavier"
std: 0.03
}
bias_filler {
type: "constant"
value: 0.2
}
}
}
layer {
name: "inception_3a/relu_3x3"
type: "ReLU"
bottom: "inception_3a/3x3"
top: "inception_3a/3x3"
}
layer {
name: "inception_3a/5x5_reduce"
type: "Convolution"
bottom: "pool2/3x3_s2"
top: "inception_3a/5x5_reduce"
param {
lr_mult: 1
decay_mult: 1
}
param {
lr_mult: 2
decay_mult: 0
}
convolution_param {
num_output: 16
kernel_size: 1
weight_filler {
type: "xavier"
std: 0.2
}
bias_filler {
type: "constant"
value: 0.2
}
}
}
layer {
name: "inception_3a/relu_5x5_reduce"
type: "ReLU"
bottom: "inception_3a/5x5_reduce"
top: "inception_3a/5x5_reduce"
}
layer {
name: "inception_3a/5x5"
type: "Convolution"
bottom: "inception_3a/5x5_reduce"
top: "inception_3a/5x5"
param {
lr_mult: 1
decay_mult: 1
}
param {
lr_mult: 2
decay_mult: 0
}
convolution_param {
num_output: 32
pad: 2
kernel_size: 5
weight_filler {
type: "xavier"
std: 0.03
}
bias_filler {
type: "constant"
value: 0.2
}
}
}
layer {
name: "inception_3a/relu_5x5"
type: "ReLU"
bottom: "inception_3a/5x5"
top: "inception_3a/5x5"
}
layer {
name: "inception_3a/pool"
type: "Pooling"
bottom: "pool2/3x3_s2"
top: "inception_3a/pool"
pooling_param {
pool: MAX
kernel_size: 3
stride: 1
pad: 1
}
}
layer {
name: "inception_3a/pool_proj"
type: "Convolution"
bottom: "inception_3a/pool"
top: "inception_3a/pool_proj"
param {
lr_mult: 1
decay_mult: 1
}
param {
lr_mult: 2
decay_mult: 0
}
convolution_param {
num_output: 32
kernel_size: 1
weight_filler {
type: "xavier"
std: 0.1
}
bias_filler {
type: "constant"
value: 0.2
}
}
}
layer {
name: "inception_3a/relu_pool_proj"
type: "ReLU"
bottom: "inception_3a/pool_proj"
top: "inception_3a/pool_proj"
}
layer {
name: "inception_3a/output"
type: "Concat"
bottom: "inception_3a/1x1"
bottom: "inception_3a/3x3"
bottom: "inception_3a/5x5"
bottom: "inception_3a/pool_proj"
top: "inception_3a/output"
}
layer {
name: "inception_3b/1x1"
type: "Convolution"
bottom: "inception_3a/output"
top: "inception_3b/1x1"
param {
lr_mult: 1
decay_mult: 1
}
param {
lr_mult: 2
decay_mult: 0
}
convolution_param {
num_output: 128
kernel_size: 1
weight_filler {
type: "xavier"
std: 0.03
}
bias_filler {
type: "constant"
value: 0.2
}
}
}
layer {
name: "inception_3b/relu_1x1"
type: "ReLU"
bottom: "inception_3b/1x1"
top: "inception_3b/1x1"
}
layer {
name: "inception_3b/3x3_reduce"
type: "Convolution"
bottom: "inception_3a/output"
top: "inception_3b/3x3_reduce"
param {
lr_mult: 1
decay_mult: 1
}
param {
lr_mult: 2
decay_mult: 0
}
convolution_param {
num_output: 128
kernel_size: 1
weight_filler {
type: "xavier"
std: 0.09
}
bias_filler {
type: "constant"
value: 0.2
}
}
}
layer {
name: "inception_3b/relu_3x3_reduce"
type: "ReLU"
bottom: "inception_3b/3x3_reduce"
top: "inception_3b/3x3_reduce"
}
layer {
name: "inception_3b/3x3"
type: "Convolution"
bottom: "inception_3b/3x3_reduce"
top: "inception_3b/3x3"
param {
lr_mult: 1
decay_mult: 1
}
param {
lr_mult: 2
decay_mult: 0
}
convolution_param {
num_output: 192
pad: 1
kernel_size: 3
weight_filler {
type: "xavier"
std: 0.03
}
bias_filler {
type: "constant"
value: 0.2
}
}
}
layer {
name: "inception_3b/relu_3x3"
type: "ReLU"
bottom: "inception_3b/3x3"
top: "inception_3b/3x3"
}
layer {
name: "inception_3b/5x5_reduce"
type: "Convolution"
bottom: "inception_3a/output"
top: "inception_3b/5x5_reduce"
param {
lr_mult: 1
decay_mult: 1
}
param {
lr_mult: 2
decay_mult: 0
}
convolution_param {
num_output: 32
kernel_size: 1
weight_filler {
type: "xavier"
std: 0.2
}
bias_filler {
type: "constant"
value: 0.2
}
}
}
layer {
name: "inception_3b/relu_5x5_reduce"
type: "ReLU"
bottom: "inception_3b/5x5_reduce"
top: "inception_3b/5x5_reduce"
}
layer {
name: "inception_3b/5x5"
type: "Convolution"
bottom: "inception_3b/5x5_reduce"
top: "inception_3b/5x5"
param {
lr_mult: 1
decay_mult: 1
}
param {
lr_mult: 2
decay_mult: 0
}
convolution_param {
num_output: 96
pad: 2
kernel_size: 5
weight_filler {
type: "xavier"
std: 0.03
}
bias_filler {
type: "constant"
value: 0.2
}
}
}
layer {
name: "inception_3b/relu_5x5"
type: "ReLU"
bottom: "inception_3b/5x5"
top: "inception_3b/5x5"
}
layer {
name: "inception_3b/pool"
type: "Pooling"
bottom: "inception_3a/output"
top: "inception_3b/pool"
pooling_param {
pool: MAX
kernel_size: 3
stride: 1
pad: 1
}
}
layer {
name: "inception_3b/pool_proj"
type: "Convolution"
bottom: "inception_3b/pool"
top: "inception_3b/pool_proj"
param {
lr_mult: 1
decay_mult: 1
}
param {
lr_mult: 2
decay_mult: 0
}
convolution_param {
num_output: 64
kernel_size: 1
weight_filler {
type: "xavier"
std: 0.1
}
bias_filler {
type: "constant"
value: 0.2
}
}
}
layer {
name: "inception_3b/relu_pool_proj"
type: "ReLU"
bottom: "inception_3b/pool_proj"
top: "inception_3b/pool_proj"
}
layer {
name: "inception_3b/output"
type: "Concat"
bottom: "inception_3b/1x1"
bottom: "inception_3b/3x3"
bottom: "inception_3b/5x5"
bottom: "inception_3b/pool_proj"
top: "inception_3b/output"
}
layer {
name: "pool3/3x3_s2"
type: "Pooling"
bottom: "inception_3b/output"
top: "pool3/3x3_s2"
pooling_param {
pool: MAX
kernel_size: 3
stride: 2
}
}
layer {
name: "inception_4a/1x1"
type: "Convolution"
bottom: "pool3/3x3_s2"
top: "inception_4a/1x1"
param {
lr_mult: 1
decay_mult: 1
}
param {
lr_mult: 2
decay_mult: 0
}
convolution_param {
num_output: 192
kernel_size: 1
weight_filler {
type: "xavier"
std: 0.03
}
bias_filler {
type: "constant"
value: 0.2
}
}
}
layer {
name: "inception_4a/relu_1x1"
type: "ReLU"
bottom: "inception_4a/1x1"
top: "inception_4a/1x1"
}
layer {
name: "inception_4a/3x3_reduce"
type: "Convolution"
bottom: "pool3/3x3_s2"
top: "inception_4a/3x3_reduce"
param {
lr_mult: 1
decay_mult: 1
}
param {
lr_mult: 2
decay_mult: 0
}
convolution_param {
num_output: 96
kernel_size: 1
weight_filler {
type: "xavier"
std: 0.09
}
bias_filler {
type: "constant"
value: 0.2
}
}
}
layer {
name: "inception_4a/relu_3x3_reduce"
type: "ReLU"
bottom: "inception_4a/3x3_reduce"
top: "inception_4a/3x3_reduce"
}
layer {
name: "inception_4a/3x3"
type: "Convolution"
bottom: "inception_4a/3x3_reduce"
top: "inception_4a/3x3"
param {
lr_mult: 1
decay_mult: 1
}
param {
lr_mult: 2
decay_mult: 0
}
convolution_param {
num_output: 208
pad: 1
kernel_size: 3
weight_filler {
type: "xavier"
std: 0.03
}
bias_filler {
type: "constant"
value: 0.2
}
}
}
layer {
name: "inception_4a/relu_3x3"
type: "ReLU"
bottom: "inception_4a/3x3"
top: "inception_4a/3x3"
}
layer {
name: "inception_4a/5x5_reduce"
type: "Convolution"
bottom: "pool3/3x3_s2"
top: "inception_4a/5x5_reduce"
param {
lr_mult: 1
decay_mult: 1
}
param {
lr_mult: 2
decay_mult: 0
}
convolution_param {
num_output: 16
kernel_size: 1
weight_filler {
type: "xavier"
std: 0.2
}
bias_filler {
type: "constant"
value: 0.2
}
}
}
layer {
name: "inception_4a/relu_5x5_reduce"
type: "ReLU"
bottom: "inception_4a/5x5_reduce"
top: "inception_4a/5x5_reduce"
}
layer {
name: "inception_4a/5x5"
type: "Convolution"
bottom: "inception_4a/5x5_reduce"
top: "inception_4a/5x5"
param {
lr_mult: 1
decay_mult: 1
}
param {
lr_mult: 2
decay_mult: 0
}
convolution_param {
num_output: 48
pad: 2
kernel_size: 5
weight_filler {
type: "xavier"
std: 0.03
}
bias_filler {
type: "constant"
value: 0.2
}
}
}
layer {
name: "inception_4a/relu_5x5"
type: "ReLU"
bottom: "inception_4a/5x5"
top: "inception_4a/5x5"
}
layer {
name: "inception_4a/pool"
type: "Pooling"
bottom: "pool3/3x3_s2"
top: "inception_4a/pool"
pooling_param {
pool: MAX
kernel_size: 3
stride: 1
pad: 1
}
}
layer {
name: "inception_4a/pool_proj"
type: "Convolution"
bottom: "inception_4a/pool"
top: "inception_4a/pool_proj"
param {
lr_mult: 1
decay_mult: 1
}
param {
lr_mult: 2
decay_mult: 0
}
convolution_param {
num_output: 64
kernel_size: 1
weight_filler {
type: "xavier"
std: 0.1
}
bias_filler {
type: "constant"
value: 0.2
}
}
}
layer {
name: "inception_4a/relu_pool_proj"
type: "ReLU"
bottom: "inception_4a/pool_proj"
top: "inception_4a/pool_proj"
}
layer {
name: "inception_4a/output"
type: "Concat"
bottom: "inception_4a/1x1"
bottom: "inception_4a/3x3"
bottom: "inception_4a/5x5"
bottom: "inception_4a/pool_proj"
top: "inception_4a/output"
}
layer {
name: "loss1/ave_pool"
type: "Pooling"
bottom: "inception_4a/output"
top: "loss1/ave_pool"
pooling_param {
pool: AVE
kernel_size: 5
stride: 3
}
}
layer {
name: "loss1/conv"
type: "Convolution"
bottom: "loss1/ave_pool"
top: "loss1/conv"
param {
lr_mult: 1
decay_mult: 1
}
param {
lr_mult: 2
decay_mult: 0
}
convolution_param {
num_output: 128
kernel_size: 1
weight_filler {
type: "xavier"
std: 0.08
}
bias_filler {
type: "constant"
value: 0.2
}
}
}
layer {
name: "loss1/relu_conv"
type: "ReLU"
bottom: "loss1/conv"
top: "loss1/conv"
}
layer {
name: "loss1/fc"
type: "InnerProduct"
bottom: "loss1/conv"
top: "loss1/fc"
param {
lr_mult: 1
decay_mult: 1
}
param {
lr_mult: 2
decay_mult: 0
}
inner_product_param {
num_output: 1024
weight_filler {
type: "xavier"
std: 0.02
}
bias_filler {
type: "constant"
value: 0.2
}
}
}
layer {
name: "loss1/relu_fc"
type: "ReLU"
bottom: "loss1/fc"
top: "loss1/fc"
}
layer {
name: "loss1/drop_fc"
type: "Dropout"
bottom: "loss1/fc"
top: "loss1/fc"
dropout_param {
dropout_ratio: 0.7
}
}
layer {
name: "loss1/classifier"
type: "InnerProduct"
bottom: "loss1/fc"
top: "loss1/classifier"
param {
lr_mult: 1
decay_mult: 1
}
param {
lr_mult: 2
decay_mult: 0
}
inner_product_param {
num_output: 196
weight_filler {
type: "xavier"
std: 0.0009765625
}
bias_filler {
type: "constant"
value: 0
}
}
}
layer {
name: "loss1/loss"
type: "SoftmaxWithLoss"
bottom: "loss1/classifier"
bottom: "label"
top: "loss1/loss"
loss_weight: 0.3
}
layer {
name: "inception_4b/1x1"
type: "Convolution"
bottom: "inception_4a/output"
top: "inception_4b/1x1"
param {
lr_mult: 1
decay_mult: 1
}
param {
lr_mult: 2
decay_mult: 0
}
convolution_param {
num_output: 160
kernel_size: 1
weight_filler {
type: "xavier"
std: 0.03
}
bias_filler {
type: "constant"
value: 0.2
}
}
}
layer {
name: "inception_4b/relu_1x1"
type: "ReLU"
bottom: "inception_4b/1x1"
top: "inception_4b/1x1"
}
layer {
name: "inception_4b/3x3_reduce"
type: "Convolution"
bottom: "inception_4a/output"
top: "inception_4b/3x3_reduce"
param {
lr_mult: 1
decay_mult: 1
}
param {
lr_mult: 2
decay_mult: 0
}
convolution_param {
num_output: 112
kernel_size: 1
weight_filler {
type: "xavier"
std: 0.09
}
bias_filler {
type: "constant"
value: 0.2
}
}
}
layer {
name: "inception_4b/relu_3x3_reduce"
type: "ReLU"
bottom: "inception_4b/3x3_reduce"
top: "inception_4b/3x3_reduce"
}
layer {
name: "inception_4b/3x3"
type: "Convolution"
bottom: "inception_4b/3x3_reduce"
top: "inception_4b/3x3"
param {
lr_mult: 1
decay_mult: 1
}
param {
lr_mult: 2
decay_mult: 0
}
convolution_param {
num_output: 224
pad: 1
kernel_size: 3
weight_filler {
type: "xavier"
std: 0.03
}
bias_filler {
type: "constant"
value: 0.2
}
}
}
layer {
name: "inception_4b/relu_3x3"
type: "ReLU"
bottom: "inception_4b/3x3"
top: "inception_4b/3x3"
}
layer {
name: "inception_4b/5x5_reduce"
type: "Convolution"
bottom: "inception_4a/output"
top: "inception_4b/5x5_reduce"
param {
lr_mult: 1
decay_mult: 1
}
param {
lr_mult: 2
decay_mult: 0
}
convolution_param {
num_output: 24
kernel_size: 1
weight_filler {
type: "xavier"
std: 0.2
}
bias_filler {
type: "constant"
value: 0.2
}
}
}
layer {
name: "inception_4b/relu_5x5_reduce"
type: "ReLU"
bottom: "inception_4b/5x5_reduce"
top: "inception_4b/5x5_reduce"
}
layer {
name: "inception_4b/5x5"
type: "Convolution"
bottom: "inception_4b/5x5_reduce"
top: "inception_4b/5x5"
param {
lr_mult: 1
decay_mult: 1
}
param {
lr_mult: 2
decay_mult: 0
}
convolution_param {
num_output: 64
pad: 2
kernel_size: 5
weight_filler {
type: "xavier"
std: 0.03
}
bias_filler {
type: "constant"
value: 0.2
}
}
}
layer {
name: "inception_4b/relu_5x5"
type: "ReLU"
bottom: "inception_4b/5x5"
top: "inception_4b/5x5"
}
layer {
name: "inception_4b/pool"
type: "Pooling"
bottom: "inception_4a/output"
top: "inception_4b/pool"
pooling_param {
pool: MAX
kernel_size: 3
stride: 1
pad: 1
}
}
layer {
name: "inception_4b/pool_proj"
type: "Convolution"
bottom: "inception_4b/pool"
top: "inception_4b/pool_proj"
param {
lr_mult: 1
decay_mult: 1
}
param {
lr_mult: 2
decay_mult: 0
}
convolution_param {
num_output: 64
kernel_size: 1
weight_filler {
type: "xavier"
std: 0.1
}
bias_filler {
type: "constant"
value: 0.2
}
}
}
layer {
name: "inception_4b/relu_pool_proj"
type: "ReLU"
bottom: "inception_4b/pool_proj"
top: "inception_4b/pool_proj"
}
layer {
name: "inception_4b/output"
type: "Concat"
bottom: "inception_4b/1x1"
bottom: "inception_4b/3x3"
bottom: "inception_4b/5x5"
bottom: "inception_4b/pool_proj"
top: "inception_4b/output"
}
layer {
name: "inception_4c/1x1"
type: "Convolution"
bottom: "inception_4b/output"
top: "inception_4c/1x1"
param {
lr_mult: 1
decay_mult: 1
}
param {
lr_mult: 2
decay_mult: 0
}
convolution_param {
num_output: 128
kernel_size: 1
weight_filler {
type: "xavier"
std: 0.03
}
bias_filler {
type: "constant"
value: 0.2
}
}
}
layer {
name: "inception_4c/relu_1x1"
type: "ReLU"
bottom: "inception_4c/1x1"
top: "inception_4c/1x1"
}
layer {
name: "inception_4c/3x3_reduce"
type: "Convolution"
bottom: "inception_4b/output"
top: "inception_4c/3x3_reduce"
param {
lr_mult: 1
decay_mult: 1
}
param {
lr_mult: 2
decay_mult: 0
}
convolution_param {
num_output: 128
kernel_size: 1
weight_filler {
type: "xavier"
std: 0.09
}
bias_filler {
type: "constant"
value: 0.2
}
}
}
layer {
name: "inception_4c/relu_3x3_reduce"
type: "ReLU"
bottom: "inception_4c/3x3_reduce"
top: "inception_4c/3x3_reduce"
}
layer {
name: "inception_4c/3x3"
type: "Convolution"
bottom: "inception_4c/3x3_reduce"
top: "inception_4c/3x3"
param {
lr_mult: 1
decay_mult: 1
}
param {
lr_mult: 2
decay_mult: 0
}
convolution_param {
num_output: 256
pad: 1
kernel_size: 3
weight_filler {
type: "xavier"
std: 0.03
}
bias_filler {
type: "constant"
value: 0.2
}
}
}
layer {
name: "inception_4c/relu_3x3"
type: "ReLU"
bottom: "inception_4c/3x3"
top: "inception_4c/3x3"
}
layer {
name: "inception_4c/5x5_reduce"
type: "Convolution"
bottom: "inception_4b/output"
top: "inception_4c/5x5_reduce"
param {
lr_mult: 1
decay_mult: 1
}
param {
lr_mult: 2
decay_mult: 0
}
convolution_param {
num_output: 24
kernel_size: 1
weight_filler {
type: "xavier"
std: 0.2
}
bias_filler {
type: "constant"
value: 0.2
}
}
}
layer {
name: "inception_4c/relu_5x5_reduce"
type: "ReLU"
bottom: "inception_4c/5x5_reduce"
top: "inception_4c/5x5_reduce"
}
layer {
name: "inception_4c/5x5"
type: "Convolution"
bottom: "inception_4c/5x5_reduce"
top: "inception_4c/5x5"
param {
lr_mult: 1
decay_mult: 1
}
param {
lr_mult: 2
decay_mult: 0
}
convolution_param {
num_output: 64
pad: 2
kernel_size: 5
weight_filler {
type: "xavier"
std: 0.03
}
bias_filler {
type: "constant"
value: 0.2
}
}
}
layer {
name: "inception_4c/relu_5x5"
type: "ReLU"
bottom: "inception_4c/5x5"
top: "inception_4c/5x5"
}
layer {
name: "inception_4c/pool"
type: "Pooling"
bottom: "inception_4b/output"
top: "inception_4c/pool"
pooling_param {
pool: MAX
kernel_size: 3
stride: 1
pad: 1
}
}
layer {
name: "inception_4c/pool_proj"
type: "Convolution"
bottom: "inception_4c/pool"
top: "inception_4c/pool_proj"
param {
lr_mult: 1
decay_mult: 1
}
param {
lr_mult: 2
decay_mult: 0
}
convolution_param {
num_output: 64
kernel_size: 1
weight_filler {
type: "xavier"
std: 0.1
}
bias_filler {
type: "constant"
value: 0.2
}
}
}
layer {
name: "inception_4c/relu_pool_proj"
type: "ReLU"
bottom: "inception_4c/pool_proj"
top: "inception_4c/pool_proj"
}
layer {
name: "inception_4c/output"
type: "Concat"
bottom: "inception_4c/1x1"
bottom: "inception_4c/3x3"
bottom: "inception_4c/5x5"
bottom: "inception_4c/pool_proj"
top: "inception_4c/output"
}
layer {
name: "inception_4d/1x1"
type: "Convolution"
bottom: "inception_4c/output"
top: "inception_4d/1x1"
param {
lr_mult: 1
decay_mult: 1
}
param {
lr_mult: 2
decay_mult: 0
}
convolution_param {
num_output: 112
kernel_size: 1
weight_filler {
type: "xavier"
std: 0.03
}
bias_filler {
type: "constant"
value: 0.2
}
}
}
layer {
name: "inception_4d/relu_1x1"
type: "ReLU"
bottom: "inception_4d/1x1"
top: "inception_4d/1x1"
}
layer {
name: "inception_4d/3x3_reduce"
type: "Convolution"
bottom: "inception_4c/output"
top: "inception_4d/3x3_reduce"
param {
lr_mult: 1
decay_mult: 1
}
param {
lr_mult: 2
decay_mult: 0
}
convolution_param {
num_output: 144
kernel_size: 1
weight_filler {
type: "xavier"
std: 0.09
}
bias_filler {
type: "constant"
value: 0.2
}
}
}
layer {
name: "inception_4d/relu_3x3_reduce"
type: "ReLU"
bottom: "inception_4d/3x3_reduce"
top: "inception_4d/3x3_reduce"
}
layer {
name: "inception_4d/3x3"
type: "Convolution"
bottom: "inception_4d/3x3_reduce"
top: "inception_4d/3x3"
param {
lr_mult: 1
decay_mult: 1
}
param {
lr_mult: 2
decay_mult: 0
}
convolution_param {
num_output: 288
pad: 1
kernel_size: 3
weight_filler {
type: "xavier"
std: 0.03
}
bias_filler {
type: "constant"
value: 0.2
}
}
}
layer {
name: "inception_4d/relu_3x3"
type: "ReLU"
bottom: "inception_4d/3x3"
top: "inception_4d/3x3"
}
layer {
name: "inception_4d/5x5_reduce"
type: "Convolution"
bottom: "inception_4c/output"
top: "inception_4d/5x5_reduce"
param {
lr_mult: 1
decay_mult: 1
}
param {
lr_mult: 2
decay_mult: 0
}
convolution_param {
num_output: 32
kernel_size: 1
weight_filler {
type: "xavier"
std: 0.2
}
bias_filler {
type: "constant"
value: 0.2
}
}
}
layer {
name: "inception_4d/relu_5x5_reduce"
type: "ReLU"
bottom: "inception_4d/5x5_reduce"
top: "inception_4d/5x5_reduce"
}
layer {
name: "inception_4d/5x5"
type: "Convolution"
bottom: "inception_4d/5x5_reduce"
top: "inception_4d/5x5"
param {
lr_mult: 1
decay_mult: 1
}
param {
lr_mult: 2
decay_mult: 0
}
convolution_param {
num_output: 64
pad: 2
kernel_size: 5
weight_filler {
type: "xavier"
std: 0.03
}
bias_filler {
type: "constant"
value: 0.2
}
}
}
layer {
name: "inception_4d/relu_5x5"
type: "ReLU"
bottom: "inception_4d/5x5"
top: "inception_4d/5x5"
}
layer {
name: "inception_4d/pool"
type: "Pooling"
bottom: "inception_4c/output"
top: "inception_4d/pool"
pooling_param {
pool: MAX
kernel_size: 3
stride: 1
pad: 1
}
}
layer {
name: "inception_4d/pool_proj"
type: "Convolution"
bottom: "inception_4d/pool"
top: "inception_4d/pool_proj"
param {
lr_mult: 1
decay_mult: 1
}
param {
lr_mult: 2
decay_mult: 0
}
convolution_param {
num_output: 64
kernel_size: 1
weight_filler {
type: "xavier"
std: 0.1
}
bias_filler {
type: "constant"
value: 0.2
}
}
}
layer {
name: "inception_4d/relu_pool_proj"
type: "ReLU"
bottom: "inception_4d/pool_proj"
top: "inception_4d/pool_proj"
}
layer {
name: "inception_4d/output"
type: "Concat"
bottom: "inception_4d/1x1"
bottom: "inception_4d/3x3"
bottom: "inception_4d/5x5"
bottom: "inception_4d/pool_proj"
top: "inception_4d/output"
}
layer {
name: "loss2/ave_pool"
type: "Pooling"
bottom: "inception_4d/output"
top: "loss2/ave_pool"
pooling_param {
pool: AVE
kernel_size: 5
stride: 3
}
}
layer {
name: "loss2/conv"
type: "Convolution"
bottom: "loss2/ave_pool"
top: "loss2/conv"
param {
lr_mult: 1
decay_mult: 1
}
param {
lr_mult: 2
decay_mult: 0
}
convolution_param {
num_output: 128
kernel_size: 1
weight_filler {
type: "xavier"
std: 0.08
}
bias_filler {
type: "constant"
value: 0.2
}
}
}
layer {
name: "loss2/relu_conv"
type: "ReLU"
bottom: "loss2/conv"
top: "loss2/conv"
}
layer {
name: "loss2/fc"
type: "InnerProduct"
bottom: "loss2/conv"
top: "loss2/fc"
param {
lr_mult: 1
decay_mult: 1
}
param {
lr_mult: 2
decay_mult: 0
}
inner_product_param {
num_output: 1024
weight_filler {
type: "xavier"
std: 0.02
}
bias_filler {
type: "constant"
value: 0.2
}
}
}
layer {
name: "loss2/relu_fc"
type: "ReLU"
bottom: "loss2/fc"
top: "loss2/fc"
}
layer {
name: "loss2/drop_fc"
type: "Dropout"
bottom: "loss2/fc"
top: "loss2/fc"
dropout_param {
dropout_ratio: 0.7
}
}
layer {
name: "loss2/classifier"
type: "InnerProduct"
bottom: "loss2/fc"
top: "loss2/classifier"
param {
lr_mult: 1
decay_mult: 1
}
param {
lr_mult: 2
decay_mult: 0
}
inner_product_param {
num_output: 196
weight_filler {
type: "xavier"
std: 0.0009765625
}
bias_filler {
type: "constant"
value: 0
}
}
}
layer {
name: "loss2/loss"
type: "SoftmaxWithLoss"
bottom: "loss2/classifier"
bottom: "label"
top: "loss2/loss"
loss_weight: 0.3
}
layer {
name: "inception_4e/1x1"
type: "Convolution"
bottom: "inception_4d/output"
top: "inception_4e/1x1"
param {
lr_mult: 1
decay_mult: 1
}
param {
lr_mult: 2
decay_mult: 0
}
convolution_param {
num_output: 256
kernel_size: 1
weight_filler {
type: "xavier"
std: 0.03
}
bias_filler {
type: "constant"
value: 0.2
}
}
}
layer {
name: "inception_4e/relu_1x1"
type: "ReLU"
bottom: "inception_4e/1x1"
top: "inception_4e/1x1"
}
layer {
name: "inception_4e/3x3_reduce"
type: "Convolution"
bottom: "inception_4d/output"
top: "inception_4e/3x3_reduce"
param {
lr_mult: 1
decay_mult: 1
}
param {
lr_mult: 2
decay_mult: 0
}
convolution_param {
num_output: 160
kernel_size: 1
weight_filler {
type: "xavier"
std: 0.09
}
bias_filler {
type: "constant"
value: 0.2
}
}
}
layer {
name: "inception_4e/relu_3x3_reduce"
type: "ReLU"
bottom: "inception_4e/3x3_reduce"
top: "inception_4e/3x3_reduce"
}
layer {
name: "inception_4e/3x3"
type: "Convolution"
bottom: "inception_4e/3x3_reduce"
top: "inception_4e/3x3"
param {
lr_mult: 1
decay_mult: 1
}
param {
lr_mult: 2
decay_mult: 0
}
convolution_param {
num_output: 320
pad: 1
kernel_size: 3
weight_filler {
type: "xavier"
std: 0.03
}
bias_filler {
type: "constant"
value: 0.2
}
}
}
layer {
name: "inception_4e/relu_3x3"
type: "ReLU"
bottom: "inception_4e/3x3"
top: "inception_4e/3x3"
}
layer {
name: "inception_4e/5x5_reduce"
type: "Convolution"
bottom: "inception_4d/output"
top: "inception_4e/5x5_reduce"
param {
lr_mult: 1
decay_mult: 1
}
param {
lr_mult: 2
decay_mult: 0
}
convolution_param {
num_output: 32
kernel_size: 1
weight_filler {
type: "xavier"
std: 0.2
}
bias_filler {
type: "constant"
val
I0502 20:27:11.917356 18045 layer_factory.hpp:77] Creating layer train-data
I0502 20:27:11.918936 18045 db_lmdb.cpp:35] Opened lmdb /mnt/bigdisk/MANDIG2/digits/jobs/20200428-132136-11fe/train_db
I0502 20:27:11.919111 18045 net.cpp:84] Creating Layer train-data
I0502 20:27:11.919123 18045 net.cpp:380] train-data -> data
I0502 20:27:11.919143 18045 net.cpp:380] train-data -> label
I0502 20:27:11.919154 18045 data_transformer.cpp:25] Loading mean file from: /mnt/bigdisk/MANDIG2/digits/jobs/20200428-132136-11fe/mean.binaryproto
I0502 20:27:11.924214 18045 data_layer.cpp:45] output data size: 32,3,224,224
I0502 20:27:11.972350 18045 net.cpp:122] Setting up train-data
I0502 20:27:11.972374 18045 net.cpp:129] Top shape: 32 3 224 224 (4816896)
I0502 20:27:11.972379 18045 net.cpp:129] Top shape: 32 (32)
I0502 20:27:11.972383 18045 net.cpp:137] Memory required for data: 19267712
I0502 20:27:11.972393 18045 layer_factory.hpp:77] Creating layer label_train-data_1_split
I0502 20:27:11.972425 18045 net.cpp:84] Creating Layer label_train-data_1_split
I0502 20:27:11.972431 18045 net.cpp:406] label_train-data_1_split <- label
I0502 20:27:11.972443 18045 net.cpp:380] label_train-data_1_split -> label_train-data_1_split_0
I0502 20:27:11.972452 18045 net.cpp:380] label_train-data_1_split -> label_train-data_1_split_1
I0502 20:27:11.972460 18045 net.cpp:380] label_train-data_1_split -> label_train-data_1_split_2
I0502 20:27:11.972507 18045 net.cpp:122] Setting up label_train-data_1_split
I0502 20:27:11.972513 18045 net.cpp:129] Top shape: 32 (32)
I0502 20:27:11.972517 18045 net.cpp:129] Top shape: 32 (32)
I0502 20:27:11.972522 18045 net.cpp:129] Top shape: 32 (32)
I0502 20:27:11.972525 18045 net.cpp:137] Memory required for data: 19268096
I0502 20:27:11.972529 18045 layer_factory.hpp:77] Creating layer conv1/7x7_s2
I0502 20:27:11.972545 18045 net.cpp:84] Creating Layer conv1/7x7_s2
I0502 20:27:11.972549 18045 net.cpp:406] conv1/7x7_s2 <- data
I0502 20:27:11.972556 18045 net.cpp:380] conv1/7x7_s2 -> conv1/7x7_s2
I0502 20:27:13.338425 18045 net.cpp:122] Setting up conv1/7x7_s2
I0502 20:27:13.338449 18045 net.cpp:129] Top shape: 32 64 112 112 (25690112)
I0502 20:27:13.338455 18045 net.cpp:137] Memory required for data: 122028544
I0502 20:27:13.338476 18045 layer_factory.hpp:77] Creating layer conv1/relu_7x7
I0502 20:27:13.338524 18045 net.cpp:84] Creating Layer conv1/relu_7x7
I0502 20:27:13.338532 18045 net.cpp:406] conv1/relu_7x7 <- conv1/7x7_s2
I0502 20:27:13.338541 18045 net.cpp:367] conv1/relu_7x7 -> conv1/7x7_s2 (in-place)
I0502 20:27:13.338868 18045 net.cpp:122] Setting up conv1/relu_7x7
I0502 20:27:13.338878 18045 net.cpp:129] Top shape: 32 64 112 112 (25690112)
I0502 20:27:13.338882 18045 net.cpp:137] Memory required for data: 224788992
I0502 20:27:13.338887 18045 layer_factory.hpp:77] Creating layer pool1/3x3_s2
I0502 20:27:13.338897 18045 net.cpp:84] Creating Layer pool1/3x3_s2
I0502 20:27:13.338901 18045 net.cpp:406] pool1/3x3_s2 <- conv1/7x7_s2
I0502 20:27:13.338908 18045 net.cpp:380] pool1/3x3_s2 -> pool1/3x3_s2
I0502 20:27:13.338954 18045 net.cpp:122] Setting up pool1/3x3_s2
I0502 20:27:13.338961 18045 net.cpp:129] Top shape: 32 64 56 56 (6422528)
I0502 20:27:13.338965 18045 net.cpp:137] Memory required for data: 250479104
I0502 20:27:13.338969 18045 layer_factory.hpp:77] Creating layer pool1/norm1
I0502 20:27:13.338979 18045 net.cpp:84] Creating Layer pool1/norm1
I0502 20:27:13.338984 18045 net.cpp:406] pool1/norm1 <- pool1/3x3_s2
I0502 20:27:13.338989 18045 net.cpp:380] pool1/norm1 -> pool1/norm1
I0502 20:27:13.339514 18045 net.cpp:122] Setting up pool1/norm1
I0502 20:27:13.339525 18045 net.cpp:129] Top shape: 32 64 56 56 (6422528)
I0502 20:27:13.339530 18045 net.cpp:137] Memory required for data: 276169216
I0502 20:27:13.339534 18045 layer_factory.hpp:77] Creating layer conv2/3x3_reduce
I0502 20:27:13.339547 18045 net.cpp:84] Creating Layer conv2/3x3_reduce
I0502 20:27:13.339552 18045 net.cpp:406] conv2/3x3_reduce <- pool1/norm1
I0502 20:27:13.339560 18045 net.cpp:380] conv2/3x3_reduce -> conv2/3x3_reduce
I0502 20:27:13.341243 18045 net.cpp:122] Setting up conv2/3x3_reduce
I0502 20:27:13.341255 18045 net.cpp:129] Top shape: 32 64 56 56 (6422528)
I0502 20:27:13.341259 18045 net.cpp:137] Memory required for data: 301859328
I0502 20:27:13.341269 18045 layer_factory.hpp:77] Creating layer conv2/relu_3x3_reduce
I0502 20:27:13.341279 18045 net.cpp:84] Creating Layer conv2/relu_3x3_reduce
I0502 20:27:13.341282 18045 net.cpp:406] conv2/relu_3x3_reduce <- conv2/3x3_reduce
I0502 20:27:13.341289 18045 net.cpp:367] conv2/relu_3x3_reduce -> conv2/3x3_reduce (in-place)
I0502 20:27:13.341614 18045 net.cpp:122] Setting up conv2/relu_3x3_reduce
I0502 20:27:13.341622 18045 net.cpp:129] Top shape: 32 64 56 56 (6422528)
I0502 20:27:13.341626 18045 net.cpp:137] Memory required for data: 327549440
I0502 20:27:13.341631 18045 layer_factory.hpp:77] Creating layer conv2/3x3
I0502 20:27:13.341643 18045 net.cpp:84] Creating Layer conv2/3x3
I0502 20:27:13.341647 18045 net.cpp:406] conv2/3x3 <- conv2/3x3_reduce
I0502 20:27:13.341677 18045 net.cpp:380] conv2/3x3 -> conv2/3x3
I0502 20:27:13.348863 18045 net.cpp:122] Setting up conv2/3x3
I0502 20:27:13.348878 18045 net.cpp:129] Top shape: 32 192 56 56 (19267584)
I0502 20:27:13.348883 18045 net.cpp:137] Memory required for data: 404619776
I0502 20:27:13.348894 18045 layer_factory.hpp:77] Creating layer conv2/relu_3x3
I0502 20:27:13.348903 18045 net.cpp:84] Creating Layer conv2/relu_3x3
I0502 20:27:13.348908 18045 net.cpp:406] conv2/relu_3x3 <- conv2/3x3
I0502 20:27:13.348914 18045 net.cpp:367] conv2/relu_3x3 -> conv2/3x3 (in-place)
I0502 20:27:13.349234 18045 net.cpp:122] Setting up conv2/relu_3x3
I0502 20:27:13.349243 18045 net.cpp:129] Top shape: 32 192 56 56 (19267584)
I0502 20:27:13.349247 18045 net.cpp:137] Memory required for data: 481690112
I0502 20:27:13.349251 18045 layer_factory.hpp:77] Creating layer conv2/norm2
I0502 20:27:13.349259 18045 net.cpp:84] Creating Layer conv2/norm2
I0502 20:27:13.349263 18045 net.cpp:406] conv2/norm2 <- conv2/3x3
I0502 20:27:13.349270 18045 net.cpp:380] conv2/norm2 -> conv2/norm2
I0502 20:27:13.349786 18045 net.cpp:122] Setting up conv2/norm2
I0502 20:27:13.349797 18045 net.cpp:129] Top shape: 32 192 56 56 (19267584)
I0502 20:27:13.349802 18045 net.cpp:137] Memory required for data: 558760448
I0502 20:27:13.349805 18045 layer_factory.hpp:77] Creating layer pool2/3x3_s2
I0502 20:27:13.349813 18045 net.cpp:84] Creating Layer pool2/3x3_s2
I0502 20:27:13.349818 18045 net.cpp:406] pool2/3x3_s2 <- conv2/norm2
I0502 20:27:13.349825 18045 net.cpp:380] pool2/3x3_s2 -> pool2/3x3_s2
I0502 20:27:13.349858 18045 net.cpp:122] Setting up pool2/3x3_s2
I0502 20:27:13.349864 18045 net.cpp:129] Top shape: 32 192 28 28 (4816896)
I0502 20:27:13.349867 18045 net.cpp:137] Memory required for data: 578028032
I0502 20:27:13.349872 18045 layer_factory.hpp:77] Creating layer pool2/3x3_s2_pool2/3x3_s2_0_split
I0502 20:27:13.349879 18045 net.cpp:84] Creating Layer pool2/3x3_s2_pool2/3x3_s2_0_split
I0502 20:27:13.349884 18045 net.cpp:406] pool2/3x3_s2_pool2/3x3_s2_0_split <- pool2/3x3_s2
I0502 20:27:13.349889 18045 net.cpp:380] pool2/3x3_s2_pool2/3x3_s2_0_split -> pool2/3x3_s2_pool2/3x3_s2_0_split_0
I0502 20:27:13.349896 18045 net.cpp:380] pool2/3x3_s2_pool2/3x3_s2_0_split -> pool2/3x3_s2_pool2/3x3_s2_0_split_1
I0502 20:27:13.349903 18045 net.cpp:380] pool2/3x3_s2_pool2/3x3_s2_0_split -> pool2/3x3_s2_pool2/3x3_s2_0_split_2
I0502 20:27:13.349910 18045 net.cpp:380] pool2/3x3_s2_pool2/3x3_s2_0_split -> pool2/3x3_s2_pool2/3x3_s2_0_split_3
I0502 20:27:13.349958 18045 net.cpp:122] Setting up pool2/3x3_s2_pool2/3x3_s2_0_split
I0502 20:27:13.349964 18045 net.cpp:129] Top shape: 32 192 28 28 (4816896)
I0502 20:27:13.349970 18045 net.cpp:129] Top shape: 32 192 28 28 (4816896)
I0502 20:27:13.349975 18045 net.cpp:129] Top shape: 32 192 28 28 (4816896)
I0502 20:27:13.349980 18045 net.cpp:129] Top shape: 32 192 28 28 (4816896)
I0502 20:27:13.349984 18045 net.cpp:137] Memory required for data: 655098368
I0502 20:27:13.349988 18045 layer_factory.hpp:77] Creating layer inception_3a/1x1
I0502 20:27:13.349999 18045 net.cpp:84] Creating Layer inception_3a/1x1
I0502 20:27:13.350004 18045 net.cpp:406] inception_3a/1x1 <- pool2/3x3_s2_pool2/3x3_s2_0_split_0
I0502 20:27:13.350010 18045 net.cpp:380] inception_3a/1x1 -> inception_3a/1x1
I0502 20:27:13.351871 18045 net.cpp:122] Setting up inception_3a/1x1
I0502 20:27:13.351884 18045 net.cpp:129] Top shape: 32 64 28 28 (1605632)
I0502 20:27:13.351888 18045 net.cpp:137] Memory required for data: 661520896
I0502 20:27:13.351897 18045 layer_factory.hpp:77] Creating layer inception_3a/relu_1x1
I0502 20:27:13.351904 18045 net.cpp:84] Creating Layer inception_3a/relu_1x1
I0502 20:27:13.351909 18045 net.cpp:406] inception_3a/relu_1x1 <- inception_3a/1x1
I0502 20:27:13.351915 18045 net.cpp:367] inception_3a/relu_1x1 -> inception_3a/1x1 (in-place)
I0502 20:27:13.352301 18045 net.cpp:122] Setting up inception_3a/relu_1x1
I0502 20:27:13.352311 18045 net.cpp:129] Top shape: 32 64 28 28 (1605632)
I0502 20:27:13.352315 18045 net.cpp:137] Memory required for data: 667943424
I0502 20:27:13.352337 18045 layer_factory.hpp:77] Creating layer inception_3a/3x3_reduce
I0502 20:27:13.352349 18045 net.cpp:84] Creating Layer inception_3a/3x3_reduce
I0502 20:27:13.352352 18045 net.cpp:406] inception_3a/3x3_reduce <- pool2/3x3_s2_pool2/3x3_s2_0_split_1
I0502 20:27:13.352361 18045 net.cpp:380] inception_3a/3x3_reduce -> inception_3a/3x3_reduce
I0502 20:27:13.355744 18045 net.cpp:122] Setting up inception_3a/3x3_reduce
I0502 20:27:13.355757 18045 net.cpp:129] Top shape: 32 96 28 28 (2408448)
I0502 20:27:13.355762 18045 net.cpp:137] Memory required for data: 677577216
I0502 20:27:13.355772 18045 layer_factory.hpp:77] Creating layer inception_3a/relu_3x3_reduce
I0502 20:27:13.355783 18045 net.cpp:84] Creating Layer inception_3a/relu_3x3_reduce
I0502 20:27:13.355789 18045 net.cpp:406] inception_3a/relu_3x3_reduce <- inception_3a/3x3_reduce
I0502 20:27:13.355796 18045 net.cpp:367] inception_3a/relu_3x3_reduce -> inception_3a/3x3_reduce (in-place)
I0502 20:27:13.371001 18045 net.cpp:122] Setting up inception_3a/relu_3x3_reduce
I0502 20:27:13.371022 18045 net.cpp:129] Top shape: 32 96 28 28 (2408448)
I0502 20:27:13.371027 18045 net.cpp:137] Memory required for data: 687211008
I0502 20:27:13.371033 18045 layer_factory.hpp:77] Creating layer inception_3a/3x3
I0502 20:27:13.371052 18045 net.cpp:84] Creating Layer inception_3a/3x3
I0502 20:27:13.371058 18045 net.cpp:406] inception_3a/3x3 <- inception_3a/3x3_reduce
I0502 20:27:13.371068 18045 net.cpp:380] inception_3a/3x3 -> inception_3a/3x3
I0502 20:27:13.373545 18045 net.cpp:122] Setting up inception_3a/3x3
I0502 20:27:13.373560 18045 net.cpp:129] Top shape: 32 128 28 28 (3211264)
I0502 20:27:13.373564 18045 net.cpp:137] Memory required for data: 700056064
I0502 20:27:13.373574 18045 layer_factory.hpp:77] Creating layer inception_3a/relu_3x3
I0502 20:27:13.373584 18045 net.cpp:84] Creating Layer inception_3a/relu_3x3
I0502 20:27:13.373589 18045 net.cpp:406] inception_3a/relu_3x3 <- inception_3a/3x3
I0502 20:27:13.373597 18045 net.cpp:367] inception_3a/relu_3x3 -> inception_3a/3x3 (in-place)
I0502 20:27:13.374212 18045 net.cpp:122] Setting up inception_3a/relu_3x3
I0502 20:27:13.374222 18045 net.cpp:129] Top shape: 32 128 28 28 (3211264)
I0502 20:27:13.374228 18045 net.cpp:137] Memory required for data: 712901120
I0502 20:27:13.374231 18045 layer_factory.hpp:77] Creating layer inception_3a/5x5_reduce
I0502 20:27:13.374244 18045 net.cpp:84] Creating Layer inception_3a/5x5_reduce
I0502 20:27:13.374250 18045 net.cpp:406] inception_3a/5x5_reduce <- pool2/3x3_s2_pool2/3x3_s2_0_split_2
I0502 20:27:13.374258 18045 net.cpp:380] inception_3a/5x5_reduce -> inception_3a/5x5_reduce
I0502 20:27:13.380686 18045 net.cpp:122] Setting up inception_3a/5x5_reduce
I0502 20:27:13.380704 18045 net.cpp:129] Top shape: 32 16 28 28 (401408)
I0502 20:27:13.380709 18045 net.cpp:137] Memory required for data: 714506752
I0502 20:27:13.380718 18045 layer_factory.hpp:77] Creating layer inception_3a/relu_5x5_reduce
I0502 20:27:13.380729 18045 net.cpp:84] Creating Layer inception_3a/relu_5x5_reduce
I0502 20:27:13.380735 18045 net.cpp:406] inception_3a/relu_5x5_reduce <- inception_3a/5x5_reduce
I0502 20:27:13.380743 18045 net.cpp:367] inception_3a/relu_5x5_reduce -> inception_3a/5x5_reduce (in-place)
I0502 20:27:13.382724 18045 net.cpp:122] Setting up inception_3a/relu_5x5_reduce
I0502 20:27:13.382738 18045 net.cpp:129] Top shape: 32 16 28 28 (401408)
I0502 20:27:13.382743 18045 net.cpp:137] Memory required for data: 716112384
I0502 20:27:13.382750 18045 layer_factory.hpp:77] Creating layer inception_3a/5x5
I0502 20:27:13.382763 18045 net.cpp:84] Creating Layer inception_3a/5x5
I0502 20:27:13.382769 18045 net.cpp:406] inception_3a/5x5 <- inception_3a/5x5_reduce
I0502 20:27:13.382777 18045 net.cpp:380] inception_3a/5x5 -> inception_3a/5x5
I0502 20:27:13.389070 18045 net.cpp:122] Setting up inception_3a/5x5
I0502 20:27:13.389087 18045 net.cpp:129] Top shape: 32 32 28 28 (802816)
I0502 20:27:13.389091 18045 net.cpp:137] Memory required for data: 719323648
I0502 20:27:13.389119 18045 layer_factory.hpp:77] Creating layer inception_3a/relu_5x5
I0502 20:27:13.389128 18045 net.cpp:84] Creating Layer inception_3a/relu_5x5
I0502 20:27:13.389133 18045 net.cpp:406] inception_3a/relu_5x5 <- inception_3a/5x5
I0502 20:27:13.389142 18045 net.cpp:367] inception_3a/relu_5x5 -> inception_3a/5x5 (in-place)
I0502 20:27:13.389650 18045 net.cpp:122] Setting up inception_3a/relu_5x5
I0502 20:27:13.389659 18045 net.cpp:129] Top shape: 32 32 28 28 (802816)
I0502 20:27:13.389663 18045 net.cpp:137] Memory required for data: 722534912
I0502 20:27:13.389667 18045 layer_factory.hpp:77] Creating layer inception_3a/pool
I0502 20:27:13.389674 18045 net.cpp:84] Creating Layer inception_3a/pool
I0502 20:27:13.389678 18045 net.cpp:406] inception_3a/pool <- pool2/3x3_s2_pool2/3x3_s2_0_split_3
I0502 20:27:13.389686 18045 net.cpp:380] inception_3a/pool -> inception_3a/pool
I0502 20:27:13.389724 18045 net.cpp:122] Setting up inception_3a/pool
I0502 20:27:13.389729 18045 net.cpp:129] Top shape: 32 192 28 28 (4816896)
I0502 20:27:13.389734 18045 net.cpp:137] Memory required for data: 741802496
I0502 20:27:13.389737 18045 layer_factory.hpp:77] Creating layer inception_3a/pool_proj
I0502 20:27:13.389750 18045 net.cpp:84] Creating Layer inception_3a/pool_proj
I0502 20:27:13.389753 18045 net.cpp:406] inception_3a/pool_proj <- inception_3a/pool
I0502 20:27:13.389760 18045 net.cpp:380] inception_3a/pool_proj -> inception_3a/pool_proj
I0502 20:27:13.391465 18045 net.cpp:122] Setting up inception_3a/pool_proj
I0502 20:27:13.391477 18045 net.cpp:129] Top shape: 32 32 28 28 (802816)
I0502 20:27:13.391481 18045 net.cpp:137] Memory required for data: 745013760
I0502 20:27:13.391491 18045 layer_factory.hpp:77] Creating layer inception_3a/relu_pool_proj
I0502 20:27:13.391499 18045 net.cpp:84] Creating Layer inception_3a/relu_pool_proj
I0502 20:27:13.391502 18045 net.cpp:406] inception_3a/relu_pool_proj <- inception_3a/pool_proj
I0502 20:27:13.391507 18045 net.cpp:367] inception_3a/relu_pool_proj -> inception_3a/pool_proj (in-place)
I0502 20:27:13.391842 18045 net.cpp:122] Setting up inception_3a/relu_pool_proj
I0502 20:27:13.391851 18045 net.cpp:129] Top shape: 32 32 28 28 (802816)
I0502 20:27:13.391855 18045 net.cpp:137] Memory required for data: 748225024
I0502 20:27:13.391858 18045 layer_factory.hpp:77] Creating layer inception_3a/output
I0502 20:27:13.391865 18045 net.cpp:84] Creating Layer inception_3a/output
I0502 20:27:13.391868 18045 net.cpp:406] inception_3a/output <- inception_3a/1x1
I0502 20:27:13.391872 18045 net.cpp:406] inception_3a/output <- inception_3a/3x3
I0502 20:27:13.391876 18045 net.cpp:406] inception_3a/output <- inception_3a/5x5
I0502 20:27:13.391880 18045 net.cpp:406] inception_3a/output <- inception_3a/pool_proj
I0502 20:27:13.391886 18045 net.cpp:380] inception_3a/output -> inception_3a/output
I0502 20:27:13.391908 18045 net.cpp:122] Setting up inception_3a/output
I0502 20:27:13.391913 18045 net.cpp:129] Top shape: 32 256 28 28 (6422528)
I0502 20:27:13.391917 18045 net.cpp:137] Memory required for data: 773915136
I0502 20:27:13.391921 18045 layer_factory.hpp:77] Creating layer inception_3a/output_inception_3a/output_0_split
I0502 20:27:13.391927 18045 net.cpp:84] Creating Layer inception_3a/output_inception_3a/output_0_split
I0502 20:27:13.391932 18045 net.cpp:406] inception_3a/output_inception_3a/output_0_split <- inception_3a/output
I0502 20:27:13.391937 18045 net.cpp:380] inception_3a/output_inception_3a/output_0_split -> inception_3a/output_inception_3a/output_0_split_0
I0502 20:27:13.391944 18045 net.cpp:380] inception_3a/output_inception_3a/output_0_split -> inception_3a/output_inception_3a/output_0_split_1
I0502 20:27:13.391949 18045 net.cpp:380] inception_3a/output_inception_3a/output_0_split -> inception_3a/output_inception_3a/output_0_split_2
I0502 20:27:13.391954 18045 net.cpp:380] inception_3a/output_inception_3a/output_0_split -> inception_3a/output_inception_3a/output_0_split_3
I0502 20:27:13.391997 18045 net.cpp:122] Setting up inception_3a/output_inception_3a/output_0_split
I0502 20:27:13.392015 18045 net.cpp:129] Top shape: 32 256 28 28 (6422528)
I0502 20:27:13.392019 18045 net.cpp:129] Top shape: 32 256 28 28 (6422528)
I0502 20:27:13.392024 18045 net.cpp:129] Top shape: 32 256 28 28 (6422528)
I0502 20:27:13.392027 18045 net.cpp:129] Top shape: 32 256 28 28 (6422528)
I0502 20:27:13.392030 18045 net.cpp:137] Memory required for data: 876675584
I0502 20:27:13.392033 18045 layer_factory.hpp:77] Creating layer inception_3b/1x1
I0502 20:27:13.392045 18045 net.cpp:84] Creating Layer inception_3b/1x1
I0502 20:27:13.392047 18045 net.cpp:406] inception_3b/1x1 <- inception_3a/output_inception_3a/output_0_split_0
I0502 20:27:13.392053 18045 net.cpp:380] inception_3b/1x1 -> inception_3b/1x1
I0502 20:27:13.395056 18045 net.cpp:122] Setting up inception_3b/1x1
I0502 20:27:13.395071 18045 net.cpp:129] Top shape: 32 128 28 28 (3211264)
I0502 20:27:13.395074 18045 net.cpp:137] Memory required for data: 889520640
I0502 20:27:13.395081 18045 layer_factory.hpp:77] Creating layer inception_3b/relu_1x1
I0502 20:27:13.395088 18045 net.cpp:84] Creating Layer inception_3b/relu_1x1
I0502 20:27:13.395092 18045 net.cpp:406] inception_3b/relu_1x1 <- inception_3b/1x1
I0502 20:27:13.395097 18045 net.cpp:367] inception_3b/relu_1x1 -> inception_3b/1x1 (in-place)
I0502 20:27:13.395586 18045 net.cpp:122] Setting up inception_3b/relu_1x1
I0502 20:27:13.395596 18045 net.cpp:129] Top shape: 32 128 28 28 (3211264)
I0502 20:27:13.395599 18045 net.cpp:137] Memory required for data: 902365696
I0502 20:27:13.395603 18045 layer_factory.hpp:77] Creating layer inception_3b/3x3_reduce
I0502 20:27:13.395612 18045 net.cpp:84] Creating Layer inception_3b/3x3_reduce
I0502 20:27:13.395617 18045 net.cpp:406] inception_3b/3x3_reduce <- inception_3a/output_inception_3a/output_0_split_1
I0502 20:27:13.395624 18045 net.cpp:380] inception_3b/3x3_reduce -> inception_3b/3x3_reduce
I0502 20:27:13.397300 18045 net.cpp:122] Setting up inception_3b/3x3_reduce
I0502 20:27:13.397310 18045 net.cpp:129] Top shape: 32 128 28 28 (3211264)
I0502 20:27:13.397313 18045 net.cpp:137] Memory required for data: 915210752
I0502 20:27:13.397320 18045 layer_factory.hpp:77] Creating layer inception_3b/relu_3x3_reduce
I0502 20:27:13.397325 18045 net.cpp:84] Creating Layer inception_3b/relu_3x3_reduce
I0502 20:27:13.397330 18045 net.cpp:406] inception_3b/relu_3x3_reduce <- inception_3b/3x3_reduce
I0502 20:27:13.397336 18045 net.cpp:367] inception_3b/relu_3x3_reduce -> inception_3b/3x3_reduce (in-place)
I0502 20:27:13.397825 18045 net.cpp:122] Setting up inception_3b/relu_3x3_reduce
I0502 20:27:13.397836 18045 net.cpp:129] Top shape: 32 128 28 28 (3211264)
I0502 20:27:13.397840 18045 net.cpp:137] Memory required for data: 928055808
I0502 20:27:13.397845 18045 layer_factory.hpp:77] Creating layer inception_3b/3x3
I0502 20:27:13.397861 18045 net.cpp:84] Creating Layer inception_3b/3x3
I0502 20:27:13.397866 18045 net.cpp:406] inception_3b/3x3 <- inception_3b/3x3_reduce
I0502 20:27:13.397872 18045 net.cpp:380] inception_3b/3x3 -> inception_3b/3x3
I0502 20:27:13.400579 18045 net.cpp:122] Setting up inception_3b/3x3
I0502 20:27:13.400589 18045 net.cpp:129] Top shape: 32 192 28 28 (4816896)
I0502 20:27:13.400593 18045 net.cpp:137] Memory required for data: 947323392
I0502 20:27:13.400599 18045 layer_factory.hpp:77] Creating layer inception_3b/relu_3x3
I0502 20:27:13.400606 18045 net.cpp:84] Creating Layer inception_3b/relu_3x3
I0502 20:27:13.400610 18045 net.cpp:406] inception_3b/relu_3x3 <- inception_3b/3x3
I0502 20:27:13.400616 18045 net.cpp:367] inception_3b/relu_3x3 -> inception_3b/3x3 (in-place)
I0502 20:27:13.402340 18045 net.cpp:122] Setting up inception_3b/relu_3x3
I0502 20:27:13.402351 18045 net.cpp:129] Top shape: 32 192 28 28 (4816896)
I0502 20:27:13.402355 18045 net.cpp:137] Memory required for data: 966590976
I0502 20:27:13.402359 18045 layer_factory.hpp:77] Creating layer inception_3b/5x5_reduce
I0502 20:27:13.402371 18045 net.cpp:84] Creating Layer inception_3b/5x5_reduce
I0502 20:27:13.402375 18045 net.cpp:406] inception_3b/5x5_reduce <- inception_3a/output_inception_3a/output_0_split_2
I0502 20:27:13.402400 18045 net.cpp:380] inception_3b/5x5_reduce -> inception_3b/5x5_reduce
I0502 20:27:13.407428 18045 net.cpp:122] Setting up inception_3b/5x5_reduce
I0502 20:27:13.407444 18045 net.cpp:129] Top shape: 32 32 28 28 (802816)
I0502 20:27:13.407447 18045 net.cpp:137] Memory required for data: 969802240
I0502 20:27:13.407455 18045 layer_factory.hpp:77] Creating layer inception_3b/relu_5x5_reduce
I0502 20:27:13.407466 18045 net.cpp:84] Creating Layer inception_3b/relu_5x5_reduce
I0502 20:27:13.407471 18045 net.cpp:406] inception_3b/relu_5x5_reduce <- inception_3b/5x5_reduce
I0502 20:27:13.407478 18045 net.cpp:367] inception_3b/relu_5x5_reduce -> inception_3b/5x5_reduce (in-place)
I0502 20:27:13.407980 18045 net.cpp:122] Setting up inception_3b/relu_5x5_reduce
I0502 20:27:13.407989 18045 net.cpp:129] Top shape: 32 32 28 28 (802816)
I0502 20:27:13.407992 18045 net.cpp:137] Memory required for data: 973013504
I0502 20:27:13.407996 18045 layer_factory.hpp:77] Creating layer inception_3b/5x5
I0502 20:27:13.408010 18045 net.cpp:84] Creating Layer inception_3b/5x5
I0502 20:27:13.408013 18045 net.cpp:406] inception_3b/5x5 <- inception_3b/5x5_reduce
I0502 20:27:13.408020 18045 net.cpp:380] inception_3b/5x5 -> inception_3b/5x5
I0502 20:27:13.410051 18045 net.cpp:122] Setting up inception_3b/5x5
I0502 20:27:13.410063 18045 net.cpp:129] Top shape: 32 96 28 28 (2408448)
I0502 20:27:13.410066 18045 net.cpp:137] Memory required for data: 982647296
I0502 20:27:13.410073 18045 layer_factory.hpp:77] Creating layer inception_3b/relu_5x5
I0502 20:27:13.410080 18045 net.cpp:84] Creating Layer inception_3b/relu_5x5
I0502 20:27:13.410085 18045 net.cpp:406] inception_3b/relu_5x5 <- inception_3b/5x5
I0502 20:27:13.410090 18045 net.cpp:367] inception_3b/relu_5x5 -> inception_3b/5x5 (in-place)
I0502 20:27:13.410428 18045 net.cpp:122] Setting up inception_3b/relu_5x5
I0502 20:27:13.410437 18045 net.cpp:129] Top shape: 32 96 28 28 (2408448)
I0502 20:27:13.410440 18045 net.cpp:137] Memory required for data: 992281088
I0502 20:27:13.410444 18045 layer_factory.hpp:77] Creating layer inception_3b/pool
I0502 20:27:13.410451 18045 net.cpp:84] Creating Layer inception_3b/pool
I0502 20:27:13.410456 18045 net.cpp:406] inception_3b/pool <- inception_3a/output_inception_3a/output_0_split_3
I0502 20:27:13.410465 18045 net.cpp:380] inception_3b/pool -> inception_3b/pool
I0502 20:27:13.410537 18045 net.cpp:122] Setting up inception_3b/pool
I0502 20:27:13.410545 18045 net.cpp:129] Top shape: 32 256 28 28 (6422528)
I0502 20:27:13.410549 18045 net.cpp:137] Memory required for data: 1017971200
I0502 20:27:13.410553 18045 layer_factory.hpp:77] Creating layer inception_3b/pool_proj
I0502 20:27:13.410562 18045 net.cpp:84] Creating Layer inception_3b/pool_proj
I0502 20:27:13.410567 18045 net.cpp:406] inception_3b/pool_proj <- inception_3b/pool
I0502 20:27:13.410573 18045 net.cpp:380] inception_3b/pool_proj -> inception_3b/pool_proj
I0502 20:27:13.413527 18045 net.cpp:122] Setting up inception_3b/pool_proj
I0502 20:27:13.413539 18045 net.cpp:129] Top shape: 32 64 28 28 (1605632)
I0502 20:27:13.413544 18045 net.cpp:137] Memory required for data: 1024393728
I0502 20:27:13.413552 18045 layer_factory.hpp:77] Creating layer inception_3b/relu_pool_proj
I0502 20:27:13.413560 18045 net.cpp:84] Creating Layer inception_3b/relu_pool_proj
I0502 20:27:13.413564 18045 net.cpp:406] inception_3b/relu_pool_proj <- inception_3b/pool_proj
I0502 20:27:13.413573 18045 net.cpp:367] inception_3b/relu_pool_proj -> inception_3b/pool_proj (in-place)
I0502 20:27:13.413919 18045 net.cpp:122] Setting up inception_3b/relu_pool_proj
I0502 20:27:13.413928 18045 net.cpp:129] Top shape: 32 64 28 28 (1605632)
I0502 20:27:13.413933 18045 net.cpp:137] Memory required for data: 1030816256
I0502 20:27:13.413936 18045 layer_factory.hpp:77] Creating layer inception_3b/output
I0502 20:27:13.413945 18045 net.cpp:84] Creating Layer inception_3b/output
I0502 20:27:13.413950 18045 net.cpp:406] inception_3b/output <- inception_3b/1x1
I0502 20:27:13.413955 18045 net.cpp:406] inception_3b/output <- inception_3b/3x3
I0502 20:27:13.413980 18045 net.cpp:406] inception_3b/output <- inception_3b/5x5
I0502 20:27:13.413985 18045 net.cpp:406] inception_3b/output <- inception_3b/pool_proj
I0502 20:27:13.413990 18045 net.cpp:380] inception_3b/output -> inception_3b/output
I0502 20:27:13.414017 18045 net.cpp:122] Setting up inception_3b/output
I0502 20:27:13.414024 18045 net.cpp:129] Top shape: 32 480 28 28 (12042240)
I0502 20:27:13.414028 18045 net.cpp:137] Memory required for data: 1078985216
I0502 20:27:13.414032 18045 layer_factory.hpp:77] Creating layer pool3/3x3_s2
I0502 20:27:13.414039 18045 net.cpp:84] Creating Layer pool3/3x3_s2
I0502 20:27:13.414043 18045 net.cpp:406] pool3/3x3_s2 <- inception_3b/output
I0502 20:27:13.414050 18045 net.cpp:380] pool3/3x3_s2 -> pool3/3x3_s2
I0502 20:27:13.414081 18045 net.cpp:122] Setting up pool3/3x3_s2
I0502 20:27:13.414088 18045 net.cpp:129] Top shape: 32 480 14 14 (3010560)
I0502 20:27:13.414091 18045 net.cpp:137] Memory required for data: 1091027456
I0502 20:27:13.414095 18045 layer_factory.hpp:77] Creating layer pool3/3x3_s2_pool3/3x3_s2_0_split
I0502 20:27:13.414103 18045 net.cpp:84] Creating Layer pool3/3x3_s2_pool3/3x3_s2_0_split
I0502 20:27:13.414108 18045 net.cpp:406] pool3/3x3_s2_pool3/3x3_s2_0_split <- pool3/3x3_s2
I0502 20:27:13.414114 18045 net.cpp:380] pool3/3x3_s2_pool3/3x3_s2_0_split -> pool3/3x3_s2_pool3/3x3_s2_0_split_0
I0502 20:27:13.414121 18045 net.cpp:380] pool3/3x3_s2_pool3/3x3_s2_0_split -> pool3/3x3_s2_pool3/3x3_s2_0_split_1
I0502 20:27:13.414127 18045 net.cpp:380] pool3/3x3_s2_pool3/3x3_s2_0_split -> pool3/3x3_s2_pool3/3x3_s2_0_split_2
I0502 20:27:13.414134 18045 net.cpp:380] pool3/3x3_s2_pool3/3x3_s2_0_split -> pool3/3x3_s2_pool3/3x3_s2_0_split_3
I0502 20:27:13.414177 18045 net.cpp:122] Setting up pool3/3x3_s2_pool3/3x3_s2_0_split
I0502 20:27:13.414183 18045 net.cpp:129] Top shape: 32 480 14 14 (3010560)
I0502 20:27:13.414188 18045 net.cpp:129] Top shape: 32 480 14 14 (3010560)
I0502 20:27:13.414192 18045 net.cpp:129] Top shape: 32 480 14 14 (3010560)
I0502 20:27:13.414196 18045 net.cpp:129] Top shape: 32 480 14 14 (3010560)
I0502 20:27:13.414201 18045 net.cpp:137] Memory required for data: 1139196416
I0502 20:27:13.414204 18045 layer_factory.hpp:77] Creating layer inception_4a/1x1
I0502 20:27:13.414214 18045 net.cpp:84] Creating Layer inception_4a/1x1
I0502 20:27:13.414217 18045 net.cpp:406] inception_4a/1x1 <- pool3/3x3_s2_pool3/3x3_s2_0_split_0
I0502 20:27:13.414224 18045 net.cpp:380] inception_4a/1x1 -> inception_4a/1x1
I0502 20:27:13.419226 18045 net.cpp:122] Setting up inception_4a/1x1
I0502 20:27:13.419239 18045 net.cpp:129] Top shape: 32 192 14 14 (1204224)
I0502 20:27:13.419243 18045 net.cpp:137] Memory required for data: 1144013312
I0502 20:27:13.419251 18045 layer_factory.hpp:77] Creating layer inception_4a/relu_1x1
I0502 20:27:13.419257 18045 net.cpp:84] Creating Layer inception_4a/relu_1x1
I0502 20:27:13.419262 18045 net.cpp:406] inception_4a/relu_1x1 <- inception_4a/1x1
I0502 20:27:13.419270 18045 net.cpp:367] inception_4a/relu_1x1 -> inception_4a/1x1 (in-place)
I0502 20:27:13.419865 18045 net.cpp:122] Setting up inception_4a/relu_1x1
I0502 20:27:13.419875 18045 net.cpp:129] Top shape: 32 192 14 14 (1204224)
I0502 20:27:13.419879 18045 net.cpp:137] Memory required for data: 1148830208
I0502 20:27:13.419883 18045 layer_factory.hpp:77] Creating layer inception_4a/3x3_reduce
I0502 20:27:13.419898 18045 net.cpp:84] Creating Layer inception_4a/3x3_reduce
I0502 20:27:13.419903 18045 net.cpp:406] inception_4a/3x3_reduce <- pool3/3x3_s2_pool3/3x3_s2_0_split_1
I0502 20:27:13.419911 18045 net.cpp:380] inception_4a/3x3_reduce -> inception_4a/3x3_reduce
I0502 20:27:13.422439 18045 net.cpp:122] Setting up inception_4a/3x3_reduce
I0502 20:27:13.422452 18045 net.cpp:129] Top shape: 32 96 14 14 (602112)
I0502 20:27:13.422456 18045 net.cpp:137] Memory required for data: 1151238656
I0502 20:27:13.422471 18045 layer_factory.hpp:77] Creating layer inception_4a/relu_3x3_reduce
I0502 20:27:13.422478 18045 net.cpp:84] Creating Layer inception_4a/relu_3x3_reduce
I0502 20:27:13.422539 18045 net.cpp:406] inception_4a/relu_3x3_reduce <- inception_4a/3x3_reduce
I0502 20:27:13.422547 18045 net.cpp:367] inception_4a/relu_3x3_reduce -> inception_4a/3x3_reduce (in-place)
I0502 20:27:13.427662 18045 net.cpp:122] Setting up inception_4a/relu_3x3_reduce
I0502 20:27:13.427675 18045 net.cpp:129] Top shape: 32 96 14 14 (602112)
I0502 20:27:13.427680 18045 net.cpp:137] Memory required for data: 1153647104
I0502 20:27:13.427685 18045 layer_factory.hpp:77] Creating layer inception_4a/3x3
I0502 20:27:13.427695 18045 net.cpp:84] Creating Layer inception_4a/3x3
I0502 20:27:13.427700 18045 net.cpp:406] inception_4a/3x3 <- inception_4a/3x3_reduce
I0502 20:27:13.427707 18045 net.cpp:380] inception_4a/3x3 -> inception_4a/3x3
I0502 20:27:13.430202 18045 net.cpp:122] Setting up inception_4a/3x3
I0502 20:27:13.430212 18045 net.cpp:129] Top shape: 32 208 14 14 (1304576)
I0502 20:27:13.430217 18045 net.cpp:137] Memory required for data: 1158865408
I0502 20:27:13.430223 18045 layer_factory.hpp:77] Creating layer inception_4a/relu_3x3
I0502 20:27:13.430230 18045 net.cpp:84] Creating Layer inception_4a/relu_3x3
I0502 20:27:13.430234 18045 net.cpp:406] inception_4a/relu_3x3 <- inception_4a/3x3
I0502 20:27:13.430240 18045 net.cpp:367] inception_4a/relu_3x3 -> inception_4a/3x3 (in-place)
I0502 20:27:13.430765 18045 net.cpp:122] Setting up inception_4a/relu_3x3
I0502 20:27:13.430778 18045 net.cpp:129] Top shape: 32 208 14 14 (1304576)
I0502 20:27:13.430783 18045 net.cpp:137] Memory required for data: 1164083712
I0502 20:27:13.430786 18045 layer_factory.hpp:77] Creating layer inception_4a/5x5_reduce
I0502 20:27:13.430796 18045 net.cpp:84] Creating Layer inception_4a/5x5_reduce
I0502 20:27:13.430802 18045 net.cpp:406] inception_4a/5x5_reduce <- pool3/3x3_s2_pool3/3x3_s2_0_split_2
I0502 20:27:13.430810 18045 net.cpp:380] inception_4a/5x5_reduce -> inception_4a/5x5_reduce
I0502 20:27:13.432356 18045 net.cpp:122] Setting up inception_4a/5x5_reduce
I0502 20:27:13.432368 18045 net.cpp:129] Top shape: 32 16 14 14 (100352)
I0502 20:27:13.432371 18045 net.cpp:137] Memory required for data: 1164485120
I0502 20:27:13.432379 18045 layer_factory.hpp:77] Creating layer inception_4a/relu_5x5_reduce
I0502 20:27:13.432385 18045 net.cpp:84] Creating Layer inception_4a/relu_5x5_reduce
I0502 20:27:13.432390 18045 net.cpp:406] inception_4a/relu_5x5_reduce <- inception_4a/5x5_reduce
I0502 20:27:13.432397 18045 net.cpp:367] inception_4a/relu_5x5_reduce -> inception_4a/5x5_reduce (in-place)
I0502 20:27:13.432898 18045 net.cpp:122] Setting up inception_4a/relu_5x5_reduce
I0502 20:27:13.432909 18045 net.cpp:129] Top shape: 32 16 14 14 (100352)
I0502 20:27:13.432912 18045 net.cpp:137] Memory required for data: 1164886528
I0502 20:27:13.432916 18045 layer_factory.hpp:77] Creating layer inception_4a/5x5
I0502 20:27:13.432926 18045 net.cpp:84] Creating Layer inception_4a/5x5
I0502 20:27:13.432931 18045 net.cpp:406] inception_4a/5x5 <- inception_4a/5x5_reduce
I0502 20:27:13.432938 18045 net.cpp:380] inception_4a/5x5 -> inception_4a/5x5
I0502 20:27:13.436004 18045 net.cpp:122] Setting up inception_4a/5x5
I0502 20:27:13.436017 18045 net.cpp:129] Top shape: 32 48 14 14 (301056)
I0502 20:27:13.436020 18045 net.cpp:137] Memory required for data: 1166090752
I0502 20:27:13.436028 18045 layer_factory.hpp:77] Creating layer inception_4a/relu_5x5
I0502 20:27:13.436035 18045 net.cpp:84] Creating Layer inception_4a/relu_5x5
I0502 20:27:13.436040 18045 net.cpp:406] inception_4a/relu_5x5 <- inception_4a/5x5
I0502 20:27:13.436048 18045 net.cpp:367] inception_4a/relu_5x5 -> inception_4a/5x5 (in-place)
I0502 20:27:13.436399 18045 net.cpp:122] Setting up inception_4a/relu_5x5
I0502 20:27:13.436408 18045 net.cpp:129] Top shape: 32 48 14 14 (301056)
I0502 20:27:13.436412 18045 net.cpp:137] Memory required for data: 1167294976
I0502 20:27:13.436416 18045 layer_factory.hpp:77] Creating layer inception_4a/pool
I0502 20:27:13.436425 18045 net.cpp:84] Creating Layer inception_4a/pool
I0502 20:27:13.436429 18045 net.cpp:406] inception_4a/pool <- pool3/3x3_s2_pool3/3x3_s2_0_split_3
I0502 20:27:13.436455 18045 net.cpp:380] inception_4a/pool -> inception_4a/pool
I0502 20:27:13.436496 18045 net.cpp:122] Setting up inception_4a/pool
I0502 20:27:13.436502 18045 net.cpp:129] Top shape: 32 480 14 14 (3010560)
I0502 20:27:13.436506 18045 net.cpp:137] Memory required for data: 1179337216
I0502 20:27:13.436511 18045 layer_factory.hpp:77] Creating layer inception_4a/pool_proj
I0502 20:27:13.436522 18045 net.cpp:84] Creating Layer inception_4a/pool_proj
I0502 20:27:13.436527 18045 net.cpp:406] inception_4a/pool_proj <- inception_4a/pool
I0502 20:27:13.436534 18045 net.cpp:380] inception_4a/pool_proj -> inception_4a/pool_proj
I0502 20:27:13.438352 18045 net.cpp:122] Setting up inception_4a/pool_proj
I0502 20:27:13.438362 18045 net.cpp:129] Top shape: 32 64 14 14 (401408)
I0502 20:27:13.438367 18045 net.cpp:137] Memory required for data: 1180942848
I0502 20:27:13.438374 18045 layer_factory.hpp:77] Creating layer inception_4a/relu_pool_proj
I0502 20:27:13.438380 18045 net.cpp:84] Creating Layer inception_4a/relu_pool_proj
I0502 20:27:13.438386 18045 net.cpp:406] inception_4a/relu_pool_proj <- inception_4a/pool_proj
I0502 20:27:13.438392 18045 net.cpp:367] inception_4a/relu_pool_proj -> inception_4a/pool_proj (in-place)
I0502 20:27:13.438916 18045 net.cpp:122] Setting up inception_4a/relu_pool_proj
I0502 20:27:13.438926 18045 net.cpp:129] Top shape: 32 64 14 14 (401408)
I0502 20:27:13.438930 18045 net.cpp:137] Memory required for data: 1182548480
I0502 20:27:13.438935 18045 layer_factory.hpp:77] Creating layer inception_4a/output
I0502 20:27:13.438941 18045 net.cpp:84] Creating Layer inception_4a/output
I0502 20:27:13.438946 18045 net.cpp:406] inception_4a/output <- inception_4a/1x1
I0502 20:27:13.438951 18045 net.cpp:406] inception_4a/output <- inception_4a/3x3
I0502 20:27:13.438956 18045 net.cpp:406] inception_4a/output <- inception_4a/5x5
I0502 20:27:13.438958 18045 net.cpp:406] inception_4a/output <- inception_4a/pool_proj
I0502 20:27:13.438966 18045 net.cpp:380] inception_4a/output -> inception_4a/output
I0502 20:27:13.438992 18045 net.cpp:122] Setting up inception_4a/output
I0502 20:27:13.438997 18045 net.cpp:129] Top shape: 32 512 14 14 (3211264)
I0502 20:27:13.439002 18045 net.cpp:137] Memory required for data: 1195393536
I0502 20:27:13.439004 18045 layer_factory.hpp:77] Creating layer inception_4a/output_inception_4a/output_0_split
I0502 20:27:13.439011 18045 net.cpp:84] Creating Layer inception_4a/output_inception_4a/output_0_split
I0502 20:27:13.439015 18045 net.cpp:406] inception_4a/output_inception_4a/output_0_split <- inception_4a/output
I0502 20:27:13.439023 18045 net.cpp:380] inception_4a/output_inception_4a/output_0_split -> inception_4a/output_inception_4a/output_0_split_0
I0502 20:27:13.439028 18045 net.cpp:380] inception_4a/output_inception_4a/output_0_split -> inception_4a/output_inception_4a/output_0_split_1
I0502 20:27:13.439034 18045 net.cpp:380] inception_4a/output_inception_4a/output_0_split -> inception_4a/output_inception_4a/output_0_split_2
I0502 20:27:13.439041 18045 net.cpp:380] inception_4a/output_inception_4a/output_0_split -> inception_4a/output_inception_4a/output_0_split_3
I0502 20:27:13.439047 18045 net.cpp:380] inception_4a/output_inception_4a/output_0_split -> inception_4a/output_inception_4a/output_0_split_4
I0502 20:27:13.439103 18045 net.cpp:122] Setting up inception_4a/output_inception_4a/output_0_split
I0502 20:27:13.439110 18045 net.cpp:129] Top shape: 32 512 14 14 (3211264)
I0502 20:27:13.439114 18045 net.cpp:129] Top shape: 32 512 14 14 (3211264)
I0502 20:27:13.439118 18045 net.cpp:129] Top shape: 32 512 14 14 (3211264)
I0502 20:27:13.439122 18045 net.cpp:129] Top shape: 32 512 14 14 (3211264)
I0502 20:27:13.439127 18045 net.cpp:129] Top shape: 32 512 14 14 (3211264)
I0502 20:27:13.439131 18045 net.cpp:137] Memory required for data: 1259618816
I0502 20:27:13.439133 18045 layer_factory.hpp:77] Creating layer loss1/ave_pool
I0502 20:27:13.439139 18045 net.cpp:84] Creating Layer loss1/ave_pool
I0502 20:27:13.439143 18045 net.cpp:406] loss1/ave_pool <- inception_4a/output_inception_4a/output_0_split_0
I0502 20:27:13.439159 18045 net.cpp:380] loss1/ave_pool -> loss1/ave_pool
I0502 20:27:13.439520 18045 net.cpp:122] Setting up loss1/ave_pool
I0502 20:27:13.439529 18045 net.cpp:129] Top shape: 32 512 4 4 (262144)
I0502 20:27:13.439533 18045 net.cpp:137] Memory required for data: 1260667392
I0502 20:27:13.439538 18045 layer_factory.hpp:77] Creating layer loss1/conv
I0502 20:27:13.439548 18045 net.cpp:84] Creating Layer loss1/conv
I0502 20:27:13.439553 18045 net.cpp:406] loss1/conv <- loss1/ave_pool
I0502 20:27:13.439560 18045 net.cpp:380] loss1/conv -> loss1/conv
I0502 20:27:13.442767 18045 net.cpp:122] Setting up loss1/conv
I0502 20:27:13.442780 18045 net.cpp:129] Top shape: 32 128 4 4 (65536)
I0502 20:27:13.442785 18045 net.cpp:137] Memory required for data: 1260929536
I0502 20:27:13.442792 18045 layer_factory.hpp:77] Creating layer loss1/relu_conv
I0502 20:27:13.442800 18045 net.cpp:84] Creating Layer loss1/relu_conv
I0502 20:27:13.442803 18045 net.cpp:406] loss1/relu_conv <- loss1/conv
I0502 20:27:13.442811 18045 net.cpp:367] loss1/relu_conv -> loss1/conv (in-place)
I0502 20:27:13.446390 18045 net.cpp:122] Setting up loss1/relu_conv
I0502 20:27:13.446399 18045 net.cpp:129] Top shape: 32 128 4 4 (65536)
I0502 20:27:13.446405 18045 net.cpp:137] Memory required for data: 1261191680
I0502 20:27:13.446409 18045 layer_factory.hpp:77] Creating layer loss1/fc
I0502 20:27:13.446419 18045 net.cpp:84] Creating Layer loss1/fc
I0502 20:27:13.446422 18045 net.cpp:406] loss1/fc <- loss1/conv
I0502 20:27:13.446430 18045 net.cpp:380] loss1/fc -> loss1/fc
I0502 20:27:13.458814 18045 net.cpp:122] Setting up loss1/fc
I0502 20:27:13.458837 18045 net.cpp:129] Top shape: 32 1024 (32768)
I0502 20:27:13.458842 18045 net.cpp:137] Memory required for data: 1261322752
I0502 20:27:13.458853 18045 layer_factory.hpp:77] Creating layer loss1/relu_fc
I0502 20:27:13.458863 18045 net.cpp:84] Creating Layer loss1/relu_fc
I0502 20:27:13.458868 18045 net.cpp:406] loss1/relu_fc <- loss1/fc
I0502 20:27:13.458874 18045 net.cpp:367] loss1/relu_fc -> loss1/fc (in-place)
I0502 20:27:13.459278 18045 net.cpp:122] Setting up loss1/relu_fc
I0502 20:27:13.459285 18045 net.cpp:129] Top shape: 32 1024 (32768)
I0502 20:27:13.459290 18045 net.cpp:137] Memory required for data: 1261453824
I0502 20:27:13.459293 18045 layer_factory.hpp:77] Creating layer loss1/drop_fc
I0502 20:27:13.459317 18045 net.cpp:84] Creating Layer loss1/drop_fc
I0502 20:27:13.459321 18045 net.cpp:406] loss1/drop_fc <- loss1/fc
I0502 20:27:13.459326 18045 net.cpp:367] loss1/drop_fc -> loss1/fc (in-place)
I0502 20:27:13.459352 18045 net.cpp:122] Setting up loss1/drop_fc
I0502 20:27:13.459357 18045 net.cpp:129] Top shape: 32 1024 (32768)
I0502 20:27:13.459360 18045 net.cpp:137] Memory required for data: 1261584896
I0502 20:27:13.459364 18045 layer_factory.hpp:77] Creating layer loss1/classifier
I0502 20:27:13.459373 18045 net.cpp:84] Creating Layer loss1/classifier
I0502 20:27:13.459378 18045 net.cpp:406] loss1/classifier <- loss1/fc
I0502 20:27:13.459385 18045 net.cpp:380] loss1/classifier -> loss1/classifier
I0502 20:27:13.468113 18045 net.cpp:122] Setting up loss1/classifier
I0502 20:27:13.468125 18045 net.cpp:129] Top shape: 32 196 (6272)
I0502 20:27:13.468128 18045 net.cpp:137] Memory required for data: 1261609984
I0502 20:27:13.468135 18045 layer_factory.hpp:77] Creating layer loss1/loss
I0502 20:27:13.468145 18045 net.cpp:84] Creating Layer loss1/loss
I0502 20:27:13.468150 18045 net.cpp:406] loss1/loss <- loss1/classifier
I0502 20:27:13.468155 18045 net.cpp:406] loss1/loss <- label_train-data_1_split_0
I0502 20:27:13.468160 18045 net.cpp:380] loss1/loss -> loss1/loss
I0502 20:27:13.468171 18045 layer_factory.hpp:77] Creating layer loss1/loss
I0502 20:27:13.468783 18045 net.cpp:122] Setting up loss1/loss
I0502 20:27:13.468792 18045 net.cpp:129] Top shape: (1)
I0502 20:27:13.468797 18045 net.cpp:132]     with loss weight 0.3
I0502 20:27:13.468814 18045 net.cpp:137] Memory required for data: 1261609988
I0502 20:27:13.468819 18045 layer_factory.hpp:77] Creating layer inception_4b/1x1
I0502 20:27:13.468848 18045 net.cpp:84] Creating Layer inception_4b/1x1
I0502 20:27:13.468853 18045 net.cpp:406] inception_4b/1x1 <- inception_4a/output_inception_4a/output_0_split_1
I0502 20:27:13.468863 18045 net.cpp:380] inception_4b/1x1 -> inception_4b/1x1
I0502 20:27:13.475093 18045 net.cpp:122] Setting up inception_4b/1x1
I0502 20:27:13.475105 18045 net.cpp:129] Top shape: 32 160 14 14 (1003520)
I0502 20:27:13.475108 18045 net.cpp:137] Memory required for data: 1265624068
I0502 20:27:13.475116 18045 layer_factory.hpp:77] Creating layer inception_4b/relu_1x1
I0502 20:27:13.475121 18045 net.cpp:84] Creating Layer inception_4b/relu_1x1
I0502 20:27:13.475126 18045 net.cpp:406] inception_4b/relu_1x1 <- inception_4b/1x1
I0502 20:27:13.475133 18045 net.cpp:367] inception_4b/relu_1x1 -> inception_4b/1x1 (in-place)
I0502 20:27:13.475638 18045 net.cpp:122] Setting up inception_4b/relu_1x1
I0502 20:27:13.475648 18045 net.cpp:129] Top shape: 32 160 14 14 (1003520)
I0502 20:27:13.475652 18045 net.cpp:137] Memory required for data: 1269638148
I0502 20:27:13.475656 18045 layer_factory.hpp:77] Creating layer inception_4b/3x3_reduce
I0502 20:27:13.475667 18045 net.cpp:84] Creating Layer inception_4b/3x3_reduce
I0502 20:27:13.475672 18045 net.cpp:406] inception_4b/3x3_reduce <- inception_4a/output_inception_4a/output_0_split_2
I0502 20:27:13.475680 18045 net.cpp:380] inception_4b/3x3_reduce -> inception_4b/3x3_reduce
I0502 20:27:13.479164 18045 net.cpp:122] Setting up inception_4b/3x3_reduce
I0502 20:27:13.479177 18045 net.cpp:129] Top shape: 32 112 14 14 (702464)
I0502 20:27:13.479182 18045 net.cpp:137] Memory required for data: 1272448004
I0502 20:27:13.479188 18045 layer_factory.hpp:77] Creating layer inception_4b/relu_3x3_reduce
I0502 20:27:13.479195 18045 net.cpp:84] Creating Layer inception_4b/relu_3x3_reduce
I0502 20:27:13.479200 18045 net.cpp:406] inception_4b/relu_3x3_reduce <- inception_4b/3x3_reduce
I0502 20:27:13.479207 18045 net.cpp:367] inception_4b/relu_3x3_reduce -> inception_4b/3x3_reduce (in-place)
I0502 20:27:13.479554 18045 net.cpp:122] Setting up inception_4b/relu_3x3_reduce
I0502 20:27:13.479563 18045 net.cpp:129] Top shape: 32 112 14 14 (702464)
I0502 20:27:13.479568 18045 net.cpp:137] Memory required for data: 1275257860
I0502 20:27:13.479571 18045 layer_factory.hpp:77] Creating layer inception_4b/3x3
I0502 20:27:13.479583 18045 net.cpp:84] Creating Layer inception_4b/3x3
I0502 20:27:13.479586 18045 net.cpp:406] inception_4b/3x3 <- inception_4b/3x3_reduce
I0502 20:27:13.479594 18045 net.cpp:380] inception_4b/3x3 -> inception_4b/3x3
I0502 20:27:13.482476 18045 net.cpp:122] Setting up inception_4b/3x3
I0502 20:27:13.482518 18045 net.cpp:129] Top shape: 32 224 14 14 (1404928)
I0502 20:27:13.482523 18045 net.cpp:137] Memory required for data: 1280877572
I0502 20:27:13.482532 18045 layer_factory.hpp:77] Creating layer inception_4b/relu_3x3
I0502 20:27:13.482539 18045 net.cpp:84] Creating Layer inception_4b/relu_3x3
I0502 20:27:13.482543 18045 net.cpp:406] inception_4b/relu_3x3 <- inception_4b/3x3
I0502 20:27:13.482549 18045 net.cpp:367] inception_4b/relu_3x3 -> inception_4b/3x3 (in-place)
I0502 20:27:13.483044 18045 net.cpp:122] Setting up inception_4b/relu_3x3
I0502 20:27:13.483053 18045 net.cpp:129] Top shape: 32 224 14 14 (1404928)
I0502 20:27:13.483057 18045 net.cpp:137] Memory required for data: 1286497284
I0502 20:27:13.483062 18045 layer_factory.hpp:77] Creating layer inception_4b/5x5_reduce
I0502 20:27:13.483074 18045 net.cpp:84] Creating Layer inception_4b/5x5_reduce
I0502 20:27:13.483079 18045 net.cpp:406] inception_4b/5x5_reduce <- inception_4a/output_inception_4a/output_0_split_3
I0502 20:27:13.483088 18045 net.cpp:380] inception_4b/5x5_reduce -> inception_4b/5x5_reduce
I0502 20:27:13.487445 18045 net.cpp:122] Setting up inception_4b/5x5_reduce
I0502 20:27:13.487457 18045 net.cpp:129] Top shape: 32 24 14 14 (150528)
I0502 20:27:13.487462 18045 net.cpp:137] Memory required for data: 1287099396
I0502 20:27:13.487468 18045 layer_factory.hpp:77] Creating layer inception_4b/relu_5x5_reduce
I0502 20:27:13.487489 18045 net.cpp:84] Creating Layer inception_4b/relu_5x5_reduce
I0502 20:27:13.487494 18045 net.cpp:406] inception_4b/relu_5x5_reduce <- inception_4b/5x5_reduce
I0502 20:27:13.487499 18045 net.cpp:367] inception_4b/relu_5x5_reduce -> inception_4b/5x5_reduce (in-place)
I0502 20:27:13.492970 18045 net.cpp:122] Setting up inception_4b/relu_5x5_reduce
I0502 20:27:13.492980 18045 net.cpp:129] Top shape: 32 24 14 14 (150528)
I0502 20:27:13.492985 18045 net.cpp:137] Memory required for data: 1287701508
I0502 20:27:13.492990 18045 layer_factory.hpp:77] Creating layer inception_4b/5x5
I0502 20:27:13.493000 18045 net.cpp:84] Creating Layer inception_4b/5x5
I0502 20:27:13.493005 18045 net.cpp:406] inception_4b/5x5 <- inception_4b/5x5_reduce
I0502 20:27:13.493013 18045 net.cpp:380] inception_4b/5x5 -> inception_4b/5x5
I0502 20:27:13.509413 18045 net.cpp:122] Setting up inception_4b/5x5
I0502 20:27:13.509433 18045 net.cpp:129] Top shape: 32 64 14 14 (401408)
I0502 20:27:13.509436 18045 net.cpp:137] Memory required for data: 1289307140
I0502 20:27:13.509445 18045 layer_factory.hpp:77] Creating layer inception_4b/relu_5x5
I0502 20:27:13.509456 18045 net.cpp:84] Creating Layer inception_4b/relu_5x5
I0502 20:27:13.509462 18045 net.cpp:406] inception_4b/relu_5x5 <- inception_4b/5x5
I0502 20:27:13.509469 18045 net.cpp:367] inception_4b/relu_5x5 -> inception_4b/5x5 (in-place)
I0502 20:27:13.509975 18045 net.cpp:122] Setting up inception_4b/relu_5x5
I0502 20:27:13.509985 18045 net.cpp:129] Top shape: 32 64 14 14 (401408)
I0502 20:27:13.509989 18045 net.cpp:137] Memory required for data: 1290912772
I0502 20:27:13.509994 18045 layer_factory.hpp:77] Creating layer inception_4b/pool
I0502 20:27:13.510002 18045 net.cpp:84] Creating Layer inception_4b/pool
I0502 20:27:13.510008 18045 net.cpp:406] inception_4b/pool <- inception_4a/output_inception_4a/output_0_split_4
I0502 20:27:13.510015 18045 net.cpp:380] inception_4b/pool -> inception_4b/pool
I0502 20:27:13.510067 18045 net.cpp:122] Setting up inception_4b/pool
I0502 20:27:13.510073 18045 net.cpp:129] Top shape: 32 512 14 14 (3211264)
I0502 20:27:13.510077 18045 net.cpp:137] Memory required for data: 1303757828
I0502 20:27:13.510082 18045 layer_factory.hpp:77] Creating layer inception_4b/pool_proj
I0502 20:27:13.510092 18045 net.cpp:84] Creating Layer inception_4b/pool_proj
I0502 20:27:13.510097 18045 net.cpp:406] inception_4b/pool_proj <- inception_4b/pool
I0502 20:27:13.510103 18045 net.cpp:380] inception_4b/pool_proj -> inception_4b/pool_proj
I0502 20:27:13.511843 18045 net.cpp:122] Setting up inception_4b/pool_proj
I0502 20:27:13.511854 18045 net.cpp:129] Top shape: 32 64 14 14 (401408)
I0502 20:27:13.511858 18045 net.cpp:137] Memory required for data: 1305363460
I0502 20:27:13.511865 18045 layer_factory.hpp:77] Creating layer inception_4b/relu_pool_proj
I0502 20:27:13.511873 18045 net.cpp:84] Creating Layer inception_4b/relu_pool_proj
I0502 20:27:13.511876 18045 net.cpp:406] inception_4b/relu_pool_proj <- inception_4b/pool_proj
I0502 20:27:13.511884 18045 net.cpp:367] inception_4b/relu_pool_proj -> inception_4b/pool_proj (in-place)
I0502 20:27:13.512457 18045 net.cpp:122] Setting up inception_4b/relu_pool_proj
I0502 20:27:13.512468 18045 net.cpp:129] Top shape: 32 64 14 14 (401408)
I0502 20:27:13.512472 18045 net.cpp:137] Memory required for data: 1306969092
I0502 20:27:13.512477 18045 layer_factory.hpp:77] Creating layer inception_4b/output
I0502 20:27:13.512485 18045 net.cpp:84] Creating Layer inception_4b/output
I0502 20:27:13.512490 18045 net.cpp:406] inception_4b/output <- inception_4b/1x1
I0502 20:27:13.512495 18045 net.cpp:406] inception_4b/output <- inception_4b/3x3
I0502 20:27:13.512498 18045 net.cpp:406] inception_4b/output <- inception_4b/5x5
I0502 20:27:13.512502 18045 net.cpp:406] inception_4b/output <- inception_4b/pool_proj
I0502 20:27:13.512509 18045 net.cpp:380] inception_4b/output -> inception_4b/output
I0502 20:27:13.512534 18045 net.cpp:122] Setting up inception_4b/output
I0502 20:27:13.512542 18045 net.cpp:129] Top shape: 32 512 14 14 (3211264)
I0502 20:27:13.512562 18045 net.cpp:137] Memory required for data: 1319814148
I0502 20:27:13.512567 18045 layer_factory.hpp:77] Creating layer inception_4b/output_inception_4b/output_0_split
I0502 20:27:13.512573 18045 net.cpp:84] Creating Layer inception_4b/output_inception_4b/output_0_split
I0502 20:27:13.512578 18045 net.cpp:406] inception_4b/output_inception_4b/output_0_split <- inception_4b/output
I0502 20:27:13.512584 18045 net.cpp:380] inception_4b/output_inception_4b/output_0_split -> inception_4b/output_inception_4b/output_0_split_0
I0502 20:27:13.512591 18045 net.cpp:380] inception_4b/output_inception_4b/output_0_split -> inception_4b/output_inception_4b/output_0_split_1
I0502 20:27:13.512598 18045 net.cpp:380] inception_4b/output_inception_4b/output_0_split -> inception_4b/output_inception_4b/output_0_split_2
I0502 20:27:13.512604 18045 net.cpp:380] inception_4b/output_inception_4b/output_0_split -> inception_4b/output_inception_4b/output_0_split_3
I0502 20:27:13.512656 18045 net.cpp:122] Setting up inception_4b/output_inception_4b/output_0_split
I0502 20:27:13.512663 18045 net.cpp:129] Top shape: 32 512 14 14 (3211264)
I0502 20:27:13.512668 18045 net.cpp:129] Top shape: 32 512 14 14 (3211264)
I0502 20:27:13.512672 18045 net.cpp:129] Top shape: 32 512 14 14 (3211264)
I0502 20:27:13.512677 18045 net.cpp:129] Top shape: 32 512 14 14 (3211264)
I0502 20:27:13.512681 18045 net.cpp:137] Memory required for data: 1371194372
I0502 20:27:13.512686 18045 layer_factory.hpp:77] Creating layer inception_4c/1x1
I0502 20:27:13.512696 18045 net.cpp:84] Creating Layer inception_4c/1x1
I0502 20:27:13.512701 18045 net.cpp:406] inception_4c/1x1 <- inception_4b/output_inception_4b/output_0_split_0
I0502 20:27:13.512707 18045 net.cpp:380] inception_4c/1x1 -> inception_4c/1x1
I0502 20:27:13.517453 18045 net.cpp:122] Setting up inception_4c/1x1
I0502 20:27:13.517467 18045 net.cpp:129] Top shape: 32 128 14 14 (802816)
I0502 20:27:13.517472 18045 net.cpp:137] Memory required for data: 1374405636
I0502 20:27:13.517479 18045 layer_factory.hpp:77] Creating layer inception_4c/relu_1x1
I0502 20:27:13.517486 18045 net.cpp:84] Creating Layer inception_4c/relu_1x1
I0502 20:27:13.517491 18045 net.cpp:406] inception_4c/relu_1x1 <- inception_4c/1x1
I0502 20:27:13.517498 18045 net.cpp:367] inception_4c/relu_1x1 -> inception_4c/1x1 (in-place)
I0502 20:27:13.517848 18045 net.cpp:122] Setting up inception_4c/relu_1x1
I0502 20:27:13.517858 18045 net.cpp:129] Top shape: 32 128 14 14 (802816)
I0502 20:27:13.517861 18045 net.cpp:137] Memory required for data: 1377616900
I0502 20:27:13.517865 18045 layer_factory.hpp:77] Creating layer inception_4c/3x3_reduce
I0502 20:27:13.517875 18045 net.cpp:84] Creating Layer inception_4c/3x3_reduce
I0502 20:27:13.517880 18045 net.cpp:406] inception_4c/3x3_reduce <- inception_4b/output_inception_4b/output_0_split_1
I0502 20:27:13.517889 18045 net.cpp:380] inception_4c/3x3_reduce -> inception_4c/3x3_reduce
I0502 20:27:13.519912 18045 net.cpp:122] Setting up inception_4c/3x3_reduce
I0502 20:27:13.519923 18045 net.cpp:129] Top shape: 32 128 14 14 (802816)
I0502 20:27:13.519929 18045 net.cpp:137] Memory required for data: 1380828164
I0502 20:27:13.519937 18045 layer_factory.hpp:77] Creating layer inception_4c/relu_3x3_reduce
I0502 20:27:13.519943 18045 net.cpp:84] Creating Layer inception_4c/relu_3x3_reduce
I0502 20:27:13.519948 18045 net.cpp:406] inception_4c/relu_3x3_reduce <- inception_4c/3x3_reduce
I0502 20:27:13.519955 18045 net.cpp:367] inception_4c/relu_3x3_reduce -> inception_4c/3x3_reduce (in-place)
I0502 20:27:13.520581 18045 net.cpp:122] Setting up inception_4c/relu_3x3_reduce
I0502 20:27:13.520592 18045 net.cpp:129] Top shape: 32 128 14 14 (802816)
I0502 20:27:13.520598 18045 net.cpp:137] Memory required for data: 1384039428
I0502 20:27:13.520603 18045 layer_factory.hpp:77] Creating layer inception_4c/3x3
I0502 20:27:13.520614 18045 net.cpp:84] Creating Layer inception_4c/3x3
I0502 20:27:13.520620 18045 net.cpp:406] inception_4c/3x3 <- inception_4c/3x3_reduce
I0502 20:27:13.520628 18045 net.cpp:380] inception_4c/3x3 -> inception_4c/3x3
I0502 20:27:13.523687 18045 net.cpp:122] Setting up inception_4c/3x3
I0502 20:27:13.523699 18045 net.cpp:129] Top shape: 32 256 14 14 (1605632)
I0502 20:27:13.523702 18045 net.cpp:137] Memory required for data: 1390461956
I0502 20:27:13.523720 18045 layer_factory.hpp:77] Creating layer inception_4c/relu_3x3
I0502 20:27:13.523728 18045 net.cpp:84] Creating Layer inception_4c/relu_3x3
I0502 20:27:13.523732 18045 net.cpp:406] inception_4c/relu_3x3 <- inception_4c/3x3
I0502 20:27:13.523739 18045 net.cpp:367] inception_4c/relu_3x3 -> inception_4c/3x3 (in-place)
I0502 20:27:13.524235 18045 net.cpp:122] Setting up inception_4c/relu_3x3
I0502 20:27:13.524245 18045 net.cpp:129] Top shape: 32 256 14 14 (1605632)
I0502 20:27:13.524250 18045 net.cpp:137] Memory required for data: 1396884484
I0502 20:27:13.524253 18045 layer_factory.hpp:77] Creating layer inception_4c/5x5_reduce
I0502 20:27:13.524266 18045 net.cpp:84] Creating Layer inception_4c/5x5_reduce
I0502 20:27:13.524271 18045 net.cpp:406] inception_4c/5x5_reduce <- inception_4b/output_inception_4b/output_0_split_2
I0502 20:27:13.524278 18045 net.cpp:380] inception_4c/5x5_reduce -> inception_4c/5x5_reduce
I0502 20:27:13.528606 18045 net.cpp:122] Setting up inception_4c/5x5_reduce
I0502 20:27:13.528618 18045 net.cpp:129] Top shape: 32 24 14 14 (150528)
I0502 20:27:13.528623 18045 net.cpp:137] Memory required for data: 1397486596
I0502 20:27:13.528631 18045 layer_factory.hpp:77] Creating layer inception_4c/relu_5x5_reduce
I0502 20:27:13.528638 18045 net.cpp:84] Creating Layer inception_4c/relu_5x5_reduce
I0502 20:27:13.528645 18045 net.cpp:406] inception_4c/relu_5x5_reduce <- inception_4c/5x5_reduce
I0502 20:27:13.528652 18045 net.cpp:367] inception_4c/relu_5x5_reduce -> inception_4c/5x5_reduce (in-place)
I0502 20:27:13.529152 18045 net.cpp:122] Setting up inception_4c/relu_5x5_reduce
I0502 20:27:13.529163 18045 net.cpp:129] Top shape: 32 24 14 14 (150528)
I0502 20:27:13.529168 18045 net.cpp:137] Memory required for data: 1398088708
I0502 20:27:13.529173 18045 layer_factory.hpp:77] Creating layer inception_4c/5x5
I0502 20:27:13.529186 18045 net.cpp:84] Creating Layer inception_4c/5x5
I0502 20:27:13.529189 18045 net.cpp:406] inception_4c/5x5 <- inception_4c/5x5_reduce
I0502 20:27:13.529199 18045 net.cpp:380] inception_4c/5x5 -> inception_4c/5x5
I0502 20:27:13.531107 18045 net.cpp:122] Setting up inception_4c/5x5
I0502 20:27:13.531118 18045 net.cpp:129] Top shape: 32 64 14 14 (401408)
I0502 20:27:13.531122 18045 net.cpp:137] Memory required for data: 1399694340
I0502 20:27:13.531129 18045 layer_factory.hpp:77] Creating layer inception_4c/relu_5x5
I0502 20:27:13.531137 18045 net.cpp:84] Creating Layer inception_4c/relu_5x5
I0502 20:27:13.531142 18045 net.cpp:406] inception_4c/relu_5x5 <- inception_4c/5x5
I0502 20:27:13.531147 18045 net.cpp:367] inception_4c/relu_5x5 -> inception_4c/5x5 (in-place)
I0502 20:27:13.531666 18045 net.cpp:122] Setting up inception_4c/relu_5x5
I0502 20:27:13.531675 18045 net.cpp:129] Top shape: 32 64 14 14 (401408)
I0502 20:27:13.531679 18045 net.cpp:137] Memory required for data: 1401299972
I0502 20:27:13.531685 18045 layer_factory.hpp:77] Creating layer inception_4c/pool
I0502 20:27:13.531694 18045 net.cpp:84] Creating Layer inception_4c/pool
I0502 20:27:13.531699 18045 net.cpp:406] inception_4c/pool <- inception_4b/output_inception_4b/output_0_split_3
I0502 20:27:13.531705 18045 net.cpp:380] inception_4c/pool -> inception_4c/pool
I0502 20:27:13.531745 18045 net.cpp:122] Setting up inception_4c/pool
I0502 20:27:13.531751 18045 net.cpp:129] Top shape: 32 512 14 14 (3211264)
I0502 20:27:13.531756 18045 net.cpp:137] Memory required for data: 1414145028
I0502 20:27:13.531759 18045 layer_factory.hpp:77] Creating layer inception_4c/pool_proj
I0502 20:27:13.531769 18045 net.cpp:84] Creating Layer inception_4c/pool_proj
I0502 20:27:13.531774 18045 net.cpp:406] inception_4c/pool_proj <- inception_4c/pool
I0502 20:27:13.531782 18045 net.cpp:380] inception_4c/pool_proj -> inception_4c/pool_proj
I0502 20:27:13.535137 18045 net.cpp:122] Setting up inception_4c/pool_proj
I0502 20:27:13.535163 18045 net.cpp:129] Top shape: 32 64 14 14 (401408)
I0502 20:27:13.535168 18045 net.cpp:137] Memory required for data: 1415750660
I0502 20:27:13.535176 18045 layer_factory.hpp:77] Creating layer inception_4c/relu_pool_proj
I0502 20:27:13.535181 18045 net.cpp:84] Creating Layer inception_4c/relu_pool_proj
I0502 20:27:13.535187 18045 net.cpp:406] inception_4c/relu_pool_proj <- inception_4c/pool_proj
I0502 20:27:13.535194 18045 net.cpp:367] inception_4c/relu_pool_proj -> inception_4c/pool_proj (in-place)
I0502 20:27:13.535549 18045 net.cpp:122] Setting up inception_4c/relu_pool_proj
I0502 20:27:13.535557 18045 net.cpp:129] Top shape: 32 64 14 14 (401408)
I0502 20:27:13.535562 18045 net.cpp:137] Memory required for data: 1417356292
I0502 20:27:13.535565 18045 layer_factory.hpp:77] Creating layer inception_4c/output
I0502 20:27:13.535573 18045 net.cpp:84] Creating Layer inception_4c/output
I0502 20:27:13.535578 18045 net.cpp:406] inception_4c/output <- inception_4c/1x1
I0502 20:27:13.535583 18045 net.cpp:406] inception_4c/output <- inception_4c/3x3
I0502 20:27:13.535586 18045 net.cpp:406] inception_4c/output <- inception_4c/5x5
I0502 20:27:13.535590 18045 net.cpp:406] inception_4c/output <- inception_4c/pool_proj
I0502 20:27:13.535595 18045 net.cpp:380] inception_4c/output -> inception_4c/output
I0502 20:27:13.535622 18045 net.cpp:122] Setting up inception_4c/output
I0502 20:27:13.535627 18045 net.cpp:129] Top shape: 32 512 14 14 (3211264)
I0502 20:27:13.535631 18045 net.cpp:137] Memory required for data: 1430201348
I0502 20:27:13.535634 18045 layer_factory.hpp:77] Creating layer inception_4c/output_inception_4c/output_0_split
I0502 20:27:13.535643 18045 net.cpp:84] Creating Layer inception_4c/output_inception_4c/output_0_split
I0502 20:27:13.535647 18045 net.cpp:406] inception_4c/output_inception_4c/output_0_split <- inception_4c/output
I0502 20:27:13.535652 18045 net.cpp:380] inception_4c/output_inception_4c/output_0_split -> inception_4c/output_inception_4c/output_0_split_0
I0502 20:27:13.535660 18045 net.cpp:380] inception_4c/output_inception_4c/output_0_split -> inception_4c/output_inception_4c/output_0_split_1
I0502 20:27:13.535666 18045 net.cpp:380] inception_4c/output_inception_4c/output_0_split -> inception_4c/output_inception_4c/output_0_split_2
I0502 20:27:13.535672 18045 net.cpp:380] inception_4c/output_inception_4c/output_0_split -> inception_4c/output_inception_4c/output_0_split_3
I0502 20:27:13.535722 18045 net.cpp:122] Setting up inception_4c/output_inception_4c/output_0_split
I0502 20:27:13.535727 18045 net.cpp:129] Top shape: 32 512 14 14 (3211264)
I0502 20:27:13.535732 18045 net.cpp:129] Top shape: 32 512 14 14 (3211264)
I0502 20:27:13.535737 18045 net.cpp:129] Top shape: 32 512 14 14 (3211264)
I0502 20:27:13.535740 18045 net.cpp:129] Top shape: 32 512 14 14 (3211264)
I0502 20:27:13.535743 18045 net.cpp:137] Memory required for data: 1481581572
I0502 20:27:13.535746 18045 layer_factory.hpp:77] Creating layer inception_4d/1x1
I0502 20:27:13.535756 18045 net.cpp:84] Creating Layer inception_4d/1x1
I0502 20:27:13.535761 18045 net.cpp:406] inception_4d/1x1 <- inception_4c/output_inception_4c/output_0_split_0
I0502 20:27:13.535768 18045 net.cpp:380] inception_4d/1x1 -> inception_4d/1x1
I0502 20:27:13.553651 18045 net.cpp:122] Setting up inception_4d/1x1
I0502 20:27:13.553668 18045 net.cpp:129] Top shape: 32 112 14 14 (702464)
I0502 20:27:13.553673 18045 net.cpp:137] Memory required for data: 1484391428
I0502 20:27:13.553681 18045 layer_factory.hpp:77] Creating layer inception_4d/relu_1x1
I0502 20:27:13.553690 18045 net.cpp:84] Creating Layer inception_4d/relu_1x1
I0502 20:27:13.553696 18045 net.cpp:406] inception_4d/relu_1x1 <- inception_4d/1x1
I0502 20:27:13.553702 18045 net.cpp:367] inception_4d/relu_1x1 -> inception_4d/1x1 (in-place)
I0502 20:27:13.554062 18045 net.cpp:122] Setting up inception_4d/relu_1x1
I0502 20:27:13.554070 18045 net.cpp:129] Top shape: 32 112 14 14 (702464)
I0502 20:27:13.554075 18045 net.cpp:137] Memory required for data: 1487201284
I0502 20:27:13.554093 18045 layer_factory.hpp:77] Creating layer inception_4d/3x3_reduce
I0502 20:27:13.554105 18045 net.cpp:84] Creating Layer inception_4d/3x3_reduce
I0502 20:27:13.554109 18045 net.cpp:406] inception_4d/3x3_reduce <- inception_4c/output_inception_4c/output_0_split_1
I0502 20:27:13.554118 18045 net.cpp:380] inception_4d/3x3_reduce -> inception_4d/3x3_reduce
I0502 20:27:13.569752 18045 net.cpp:122] Setting up inception_4d/3x3_reduce
I0502 20:27:13.569764 18045 net.cpp:129] Top shape: 32 144 14 14 (903168)
I0502 20:27:13.569768 18045 net.cpp:137] Memory required for data: 1490813956
I0502 20:27:13.569777 18045 layer_factory.hpp:77] Creating layer inception_4d/relu_3x3_reduce
I0502 20:27:13.569785 18045 net.cpp:84] Creating Layer inception_4d/relu_3x3_reduce
I0502 20:27:13.569790 18045 net.cpp:406] inception_4d/relu_3x3_reduce <- inception_4d/3x3_reduce
I0502 20:27:13.569797 18045 net.cpp:367] inception_4d/relu_3x3_reduce -> inception_4d/3x3_reduce (in-place)
I0502 20:27:13.570442 18045 net.cpp:122] Setting up inception_4d/relu_3x3_reduce
I0502 20:27:13.570451 18045 net.cpp:129] Top shape: 32 144 14 14 (903168)
I0502 20:27:13.570456 18045 net.cpp:137] Memory required for data: 1494426628
I0502 20:27:13.570459 18045 layer_factory.hpp:77] Creating layer inception_4d/3x3
I0502 20:27:13.570470 18045 net.cpp:84] Creating Layer inception_4d/3x3
I0502 20:27:13.570474 18045 net.cpp:406] inception_4d/3x3 <- inception_4d/3x3_reduce
I0502 20:27:13.570508 18045 net.cpp:380] inception_4d/3x3 -> inception_4d/3x3
I0502 20:27:13.575294 18045 net.cpp:122] Setting up inception_4d/3x3
I0502 20:27:13.575304 18045 net.cpp:129] Top shape: 32 288 14 14 (1806336)
I0502 20:27:13.575309 18045 net.cpp:137] Memory required for data: 1501651972
I0502 20:27:13.575316 18045 layer_factory.hpp:77] Creating layer inception_4d/relu_3x3
I0502 20:27:13.575325 18045 net.cpp:84] Creating Layer inception_4d/relu_3x3
I0502 20:27:13.575330 18045 net.cpp:406] inception_4d/relu_3x3 <- inception_4d/3x3
I0502 20:27:13.575335 18045 net.cpp:367] inception_4d/relu_3x3 -> inception_4d/3x3 (in-place)
I0502 20:27:13.575826 18045 net.cpp:122] Setting up inception_4d/relu_3x3
I0502 20:27:13.575836 18045 net.cpp:129] Top shape: 32 288 14 14 (1806336)
I0502 20:27:13.575840 18045 net.cpp:137] Memory required for data: 1508877316
I0502 20:27:13.575845 18045 layer_factory.hpp:77] Creating layer inception_4d/5x5_reduce
I0502 20:27:13.575855 18045 net.cpp:84] Creating Layer inception_4d/5x5_reduce
I0502 20:27:13.575862 18045 net.cpp:406] inception_4d/5x5_reduce <- inception_4c/output_inception_4c/output_0_split_2
I0502 20:27:13.575868 18045 net.cpp:380] inception_4d/5x5_reduce -> inception_4d/5x5_reduce
I0502 20:27:13.578090 18045 net.cpp:122] Setting up inception_4d/5x5_reduce
I0502 20:27:13.578100 18045 net.cpp:129] Top shape: 32 32 14 14 (200704)
I0502 20:27:13.578105 18045 net.cpp:137] Memory required for data: 1509680132
I0502 20:27:13.578112 18045 layer_factory.hpp:77] Creating layer inception_4d/relu_5x5_reduce
I0502 20:27:13.578120 18045 net.cpp:84] Creating Layer inception_4d/relu_5x5_reduce
I0502 20:27:13.578125 18045 net.cpp:406] inception_4d/relu_5x5_reduce <- inception_4d/5x5_reduce
I0502 20:27:13.578130 18045 net.cpp:367] inception_4d/relu_5x5_reduce -> inception_4d/5x5_reduce (in-place)
I0502 20:27:13.578675 18045 net.cpp:122] Setting up inception_4d/relu_5x5_reduce
I0502 20:27:13.578685 18045 net.cpp:129] Top shape: 32 32 14 14 (200704)
I0502 20:27:13.578688 18045 net.cpp:137] Memory required for data: 1510482948
I0502 20:27:13.578693 18045 layer_factory.hpp:77] Creating layer inception_4d/5x5
I0502 20:27:13.578704 18045 net.cpp:84] Creating Layer inception_4d/5x5
I0502 20:27:13.578708 18045 net.cpp:406] inception_4d/5x5 <- inception_4d/5x5_reduce
I0502 20:27:13.578716 18045 net.cpp:380] inception_4d/5x5 -> inception_4d/5x5
I0502 20:27:13.580565 18045 net.cpp:122] Setting up inception_4d/5x5
I0502 20:27:13.580575 18045 net.cpp:129] Top shape: 32 64 14 14 (401408)
I0502 20:27:13.580579 18045 net.cpp:137] Memory required for data: 1512088580
I0502 20:27:13.580603 18045 layer_factory.hpp:77] Creating layer inception_4d/relu_5x5
I0502 20:27:13.580610 18045 net.cpp:84] Creating Layer inception_4d/relu_5x5
I0502 20:27:13.580615 18045 net.cpp:406] inception_4d/relu_5x5 <- inception_4d/5x5
I0502 20:27:13.580621 18045 net.cpp:367] inception_4d/relu_5x5 -> inception_4d/5x5 (in-place)
I0502 20:27:13.582851 18045 net.cpp:122] Setting up inception_4d/relu_5x5
I0502 20:27:13.582864 18045 net.cpp:129] Top shape: 32 64 14 14 (401408)
I0502 20:27:14.191491 18045 net.cpp:137] Memory required for data: 1513694212
I0502 20:27:14.191514 18045 layer_factory.hpp:77] Creating layer inception_4d/pool
I0502 20:27:14.191538 18045 net.cpp:84] Creating Layer inception_4d/pool
I0502 20:27:14.191548 18045 net.cpp:406] inception_4d/pool <- inception_4c/output_inception_4c/output_0_split_3
I0502 20:27:14.191563 18045 net.cpp:380] inception_4d/pool -> inception_4d/pool
I0502 20:27:14.191684 18045 net.cpp:122] Setting up inception_4d/pool
I0502 20:27:14.191699 18045 net.cpp:129] Top shape: 32 512 14 14 (3211264)
I0502 20:27:14.191704 18045 net.cpp:137] Memory required for data: 1526539268
I0502 20:27:14.191711 18045 layer_factory.hpp:77] Creating layer inception_4d/pool_proj
I0502 20:27:14.191728 18045 net.cpp:84] Creating Layer inception_4d/pool_proj
I0502 20:27:14.191735 18045 net.cpp:406] inception_4d/pool_proj <- inception_4d/pool
I0502 20:27:14.191745 18045 net.cpp:380] inception_4d/pool_proj -> inception_4d/pool_proj
I0502 20:27:14.195485 18045 net.cpp:122] Setting up inception_4d/pool_proj
I0502 20:27:14.195502 18045 net.cpp:129] Top shape: 32 64 14 14 (401408)
I0502 20:27:14.195508 18045 net.cpp:137] Memory required for data: 1528144900
I0502 20:27:14.195519 18045 layer_factory.hpp:77] Creating layer inception_4d/relu_pool_proj
I0502 20:27:14.195531 18045 net.cpp:84] Creating Layer inception_4d/relu_pool_proj
I0502 20:27:14.195538 18045 net.cpp:406] inception_4d/relu_pool_proj <- inception_4d/pool_proj
I0502 20:27:14.195545 18045 net.cpp:367] inception_4d/relu_pool_proj -> inception_4d/pool_proj (in-place)
I0502 20:27:14.196137 18045 net.cpp:122] Setting up inception_4d/relu_pool_proj
I0502 20:27:14.196152 18045 net.cpp:129] Top shape: 32 64 14 14 (401408)
I0502 20:27:14.196158 18045 net.cpp:137] Memory required for data: 1529750532
I0502 20:27:14.196164 18045 layer_factory.hpp:77] Creating layer inception_4d/output
I0502 20:27:14.196174 18045 net.cpp:84] Creating Layer inception_4d/output
I0502 20:27:14.196182 18045 net.cpp:406] inception_4d/output <- inception_4d/1x1
I0502 20:27:14.196188 18045 net.cpp:406] inception_4d/output <- inception_4d/3x3
I0502 20:27:14.196195 18045 net.cpp:406] inception_4d/output <- inception_4d/5x5
I0502 20:27:14.196202 18045 net.cpp:406] inception_4d/output <- inception_4d/pool_proj
I0502 20:27:14.196211 18045 net.cpp:380] inception_4d/output -> inception_4d/output
I0502 20:27:14.196251 18045 net.cpp:122] Setting up inception_4d/output
I0502 20:27:14.196260 18045 net.cpp:129] Top shape: 32 528 14 14 (3311616)
I0502 20:27:14.196265 18045 net.cpp:137] Memory required for data: 1542996996
I0502 20:27:14.196270 18045 layer_factory.hpp:77] Creating layer inception_4d/output_inception_4d/output_0_split
I0502 20:27:14.196282 18045 net.cpp:84] Creating Layer inception_4d/output_inception_4d/output_0_split
I0502 20:27:14.196288 18045 net.cpp:406] inception_4d/output_inception_4d/output_0_split <- inception_4d/output
I0502 20:27:14.196300 18045 net.cpp:380] inception_4d/output_inception_4d/output_0_split -> inception_4d/output_inception_4d/output_0_split_0
I0502 20:27:14.196310 18045 net.cpp:380] inception_4d/output_inception_4d/output_0_split -> inception_4d/output_inception_4d/output_0_split_1
I0502 20:27:14.196319 18045 net.cpp:380] inception_4d/output_inception_4d/output_0_split -> inception_4d/output_inception_4d/output_0_split_2
I0502 20:27:14.196328 18045 net.cpp:380] inception_4d/output_inception_4d/output_0_split -> inception_4d/output_inception_4d/output_0_split_3
I0502 20:27:14.196339 18045 net.cpp:380] inception_4d/output_inception_4d/output_0_split -> inception_4d/output_inception_4d/output_0_split_4
I0502 20:27:14.196460 18045 net.cpp:122] Setting up inception_4d/output_inception_4d/output_0_split
I0502 20:27:14.196470 18045 net.cpp:129] Top shape: 32 528 14 14 (3311616)
I0502 20:27:14.196476 18045 net.cpp:129] Top shape: 32 528 14 14 (3311616)
I0502 20:27:14.196482 18045 net.cpp:129] Top shape: 32 528 14 14 (3311616)
I0502 20:27:14.196489 18045 net.cpp:129] Top shape: 32 528 14 14 (3311616)
I0502 20:27:14.196496 18045 net.cpp:129] Top shape: 32 528 14 14 (3311616)
I0502 20:27:14.196501 18045 net.cpp:137] Memory required for data: 1609229316
I0502 20:27:14.196506 18045 layer_factory.hpp:77] Creating layer loss2/ave_pool
I0502 20:27:14.196516 18045 net.cpp:84] Creating Layer loss2/ave_pool
I0502 20:27:14.196521 18045 net.cpp:406] loss2/ave_pool <- inception_4d/output_inception_4d/output_0_split_0
I0502 20:27:14.196532 18045 net.cpp:380] loss2/ave_pool -> loss2/ave_pool
I0502 20:27:14.197327 18045 net.cpp:122] Setting up loss2/ave_pool
I0502 20:27:14.197341 18045 net.cpp:129] Top shape: 32 528 4 4 (270336)
I0502 20:27:14.197347 18045 net.cpp:137] Memory required for data: 1610310660
I0502 20:27:14.197353 18045 layer_factory.hpp:77] Creating layer loss2/conv
I0502 20:27:14.197368 18045 net.cpp:84] Creating Layer loss2/conv
I0502 20:27:14.197374 18045 net.cpp:406] loss2/conv <- loss2/ave_pool
I0502 20:27:14.197387 18045 net.cpp:380] loss2/conv -> loss2/conv
I0502 20:27:14.208899 18045 net.cpp:122] Setting up loss2/conv
I0502 20:27:14.208914 18045 net.cpp:129] Top shape: 32 128 4 4 (65536)
I0502 20:27:14.208921 18045 net.cpp:137] Memory required for data: 1610572804
I0502 20:27:14.208931 18045 layer_factory.hpp:77] Creating layer loss2/relu_conv
I0502 20:27:14.208942 18045 net.cpp:84] Creating Layer loss2/relu_conv
I0502 20:27:14.208948 18045 net.cpp:406] loss2/relu_conv <- loss2/conv
I0502 20:27:14.208956 18045 net.cpp:367] loss2/relu_conv -> loss2/conv (in-place)
I0502 20:27:14.209524 18045 net.cpp:122] Setting up loss2/relu_conv
I0502 20:27:14.209540 18045 net.cpp:129] Top shape: 32 128 4 4 (65536)
I0502 20:27:14.209545 18045 net.cpp:137] Memory required for data: 1610834948
I0502 20:27:14.209553 18045 layer_factory.hpp:77] Creating layer loss2/fc
I0502 20:27:14.209563 18045 net.cpp:84] Creating Layer loss2/fc
I0502 20:27:14.209569 18045 net.cpp:406] loss2/fc <- loss2/conv
I0502 20:27:14.209579 18045 net.cpp:380] loss2/fc -> loss2/fc
I0502 20:27:14.229446 18045 net.cpp:122] Setting up loss2/fc
I0502 20:27:14.229467 18045 net.cpp:129] Top shape: 32 1024 (32768)
I0502 20:27:14.229472 18045 net.cpp:137] Memory required for data: 1610966020
I0502 20:27:14.229483 18045 layer_factory.hpp:77] Creating layer loss2/relu_fc
I0502 20:27:14.229493 18045 net.cpp:84] Creating Layer loss2/relu_fc
I0502 20:27:14.229499 18045 net.cpp:406] loss2/relu_fc <- loss2/fc
I0502 20:27:14.229508 18045 net.cpp:367] loss2/relu_fc -> loss2/fc (in-place)
I0502 20:27:14.231978 18045 net.cpp:122] Setting up loss2/relu_fc
I0502 20:27:14.231992 18045 net.cpp:129] Top shape: 32 1024 (32768)
I0502 20:27:14.231997 18045 net.cpp:137] Memory required for data: 1611097092
I0502 20:27:14.232003 18045 layer_factory.hpp:77] Creating layer loss2/drop_fc
I0502 20:27:14.232014 18045 net.cpp:84] Creating Layer loss2/drop_fc
I0502 20:27:14.232019 18045 net.cpp:406] loss2/drop_fc <- loss2/fc
I0502 20:27:14.232026 18045 net.cpp:367] loss2/drop_fc -> loss2/fc (in-place)
I0502 20:27:14.232056 18045 net.cpp:122] Setting up loss2/drop_fc
I0502 20:27:14.232061 18045 net.cpp:129] Top shape: 32 1024 (32768)
I0502 20:27:14.232065 18045 net.cpp:137] Memory required for data: 1611228164
I0502 20:27:14.232070 18045 layer_factory.hpp:77] Creating layer loss2/classifier
I0502 20:27:14.232082 18045 net.cpp:84] Creating Layer loss2/classifier
I0502 20:27:14.232087 18045 net.cpp:406] loss2/classifier <- loss2/fc
I0502 20:27:14.232095 18045 net.cpp:380] loss2/classifier -> loss2/classifier
I0502 20:27:14.233234 18045 net.cpp:122] Setting up loss2/classifier
I0502 20:27:14.233242 18045 net.cpp:129] Top shape: 32 196 (6272)
I0502 20:27:14.233264 18045 net.cpp:137] Memory required for data: 1611253252
I0502 20:27:14.233273 18045 layer_factory.hpp:77] Creating layer loss2/loss
I0502 20:27:14.233280 18045 net.cpp:84] Creating Layer loss2/loss
I0502 20:27:14.233285 18045 net.cpp:406] loss2/loss <- loss2/classifier
I0502 20:27:14.233290 18045 net.cpp:406] loss2/loss <- label_train-data_1_split_1
I0502 20:27:14.233299 18045 net.cpp:380] loss2/loss -> loss2/loss
I0502 20:27:14.233307 18045 layer_factory.hpp:77] Creating layer loss2/loss
I0502 20:27:14.233933 18045 net.cpp:122] Setting up loss2/loss
I0502 20:27:14.233943 18045 net.cpp:129] Top shape: (1)
I0502 20:27:14.233947 18045 net.cpp:132]     with loss weight 0.3
I0502 20:27:14.233958 18045 net.cpp:137] Memory required for data: 1611253256
I0502 20:27:14.233963 18045 layer_factory.hpp:77] Creating layer inception_4e/1x1
I0502 20:27:14.233978 18045 net.cpp:84] Creating Layer inception_4e/1x1
I0502 20:27:14.233983 18045 net.cpp:406] inception_4e/1x1 <- inception_4d/output_inception_4d/output_0_split_1
I0502 20:27:14.233990 18045 net.cpp:380] inception_4e/1x1 -> inception_4e/1x1
I0502 20:27:14.237397 18045 net.cpp:122] Setting up inception_4e/1x1
I0502 20:27:14.237414 18045 net.cpp:129] Top shape: 32 256 14 14 (1605632)
I0502 20:27:14.237421 18045 net.cpp:137] Memory required for data: 1617675784
I0502 20:27:14.237432 18045 layer_factory.hpp:77] Creating layer inception_4e/relu_1x1
I0502 20:27:14.237442 18045 net.cpp:84] Creating Layer inception_4e/relu_1x1
I0502 20:27:14.237449 18045 net.cpp:406] inception_4e/relu_1x1 <- inception_4e/1x1
I0502 20:27:14.237459 18045 net.cpp:367] inception_4e/relu_1x1 -> inception_4e/1x1 (in-place)
I0502 20:27:14.238247 18045 net.cpp:122] Setting up inception_4e/relu_1x1
I0502 20:27:14.238263 18045 net.cpp:129] Top shape: 32 256 14 14 (1605632)
I0502 20:27:14.238270 18045 net.cpp:137] Memory required for data: 1624098312
I0502 20:27:14.238276 18045 layer_factory.hpp:77] Creating layer inception_4e/3x3_reduce
I0502 20:27:14.238291 18045 net.cpp:84] Creating Layer inception_4e/3x3_reduce
I0502 20:27:14.238298 18045 net.cpp:406] inception_4e/3x3_reduce <- inception_4d/output_inception_4d/output_0_split_2
I0502 20:27:14.238309 18045 net.cpp:380] inception_4e/3x3_reduce -> inception_4e/3x3_reduce
I0502 20:27:14.244779 18045 net.cpp:122] Setting up inception_4e/3x3_reduce
I0502 20:27:14.244794 18045 net.cpp:129] Top shape: 32 160 14 14 (1003520)
I0502 20:27:14.244801 18045 net.cpp:137] Memory required for data: 1628112392
I0502 20:27:14.244812 18045 layer_factory.hpp:77] Creating layer inception_4e/relu_3x3_reduce
I0502 20:27:14.244823 18045 net.cpp:84] Creating Layer inception_4e/relu_3x3_reduce
I0502 20:27:14.244830 18045 net.cpp:406] inception_4e/relu_3x3_reduce <- inception_4e/3x3_reduce
I0502 20:27:14.244839 18045 net.cpp:367] inception_4e/relu_3x3_reduce -> inception_4e/3x3_reduce (in-place)
I0502 20:27:14.245620 18045 net.cpp:122] Setting up inception_4e/relu_3x3_reduce
I0502 20:27:14.245633 18045 net.cpp:129] Top shape: 32 160 14 14 (1003520)
I0502 20:27:14.245640 18045 net.cpp:137] Memory required for data: 1632126472
I0502 20:27:14.245645 18045 layer_factory.hpp:77] Creating layer inception_4e/3x3
I0502 20:27:14.245659 18045 net.cpp:84] Creating Layer inception_4e/3x3
I0502 20:27:14.245666 18045 net.cpp:406] inception_4e/3x3 <- inception_4e/3x3_reduce
I0502 20:27:14.245678 18045 net.cpp:380] inception_4e/3x3 -> inception_4e/3x3
I0502 20:27:14.269644 18045 net.cpp:122] Setting up inception_4e/3x3
I0502 20:27:14.269673 18045 net.cpp:129] Top shape: 32 320 14 14 (2007040)
I0502 20:27:14.269680 18045 net.cpp:137] Memory required for data: 1640154632
I0502 20:27:14.269695 18045 layer_factory.hpp:77] Creating layer inception_4e/relu_3x3
I0502 20:27:14.269709 18045 net.cpp:84] Creating Layer inception_4e/relu_3x3
I0502 20:27:14.269716 18045 net.cpp:406] inception_4e/relu_3x3 <- inception_4e/3x3
I0502 20:27:14.269727 18045 net.cpp:367] inception_4e/relu_3x3 -> inception_4e/3x3 (in-place)
I0502 20:27:14.270313 18045 net.cpp:122] Setting up inception_4e/relu_3x3
I0502 20:27:14.270350 18045 net.cpp:129] Top shape: 32 320 14 14 (2007040)
I0502 20:27:14.270356 18045 net.cpp:137] Memory required for data: 1648182792
I0502 20:27:14.270362 18045 layer_factory.hpp:77] Creating layer inception_4e/5x5_reduce
I0502 20:27:14.270380 18045 net.cpp:84] Creating Layer inception_4e/5x5_reduce
I0502 20:27:14.270387 18045 net.cpp:406] inception_4e/5x5_reduce <- inception_4d/output_inception_4d/output_0_split_3
I0502 20:27:14.270400 18045 net.cpp:380] inception_4e/5x5_reduce -> inception_4e/5x5_reduce
I0502 20:27:14.273322 18045 net.cpp:122] Setting up inception_4e/5x5_reduce
I0502 20:27:14.273337 18045 net.cpp:129] Top shape: 32 32 14 14 (200704)
I0502 20:27:14.273344 18045 net.cpp:137] Memory required for data: 1648985608
I0502 20:27:14.273355 18045 layer_factory.hpp:77] Creating layer inception_4e/relu_5x5_reduce
I0502 20:27:14.273368 18045 net.cpp:84] Creating Layer inception_4e/relu_5x5_reduce
I0502 20:27:14.273376 18045 net.cpp:406] inception_4e/relu_5x5_reduce <- inception_4e/5x5_reduce
I0502 20:27:14.273386 18045 net.cpp:367] inception_4e/relu_5x5_reduce -> inception_4e/5x5_reduce (in-place)
I0502 20:27:14.274173 18045 net.cpp:122] Setting up inception_4e/relu_5x5_reduce
I0502 20:27:14.274188 18045 net.cpp:129] Top shape: 32 32 14 14 (200704)
I0502 20:27:14.274194 18045 net.cpp:137] Memory required for data: 1649788424
I0502 20:27:14.274201 18045 layer_factory.hpp:77] Creating layer inception_4e/5x5
I0502 20:27:14.274250 18045 net.cpp:84] Creating Layer inception_4e/5x5
I0502 20:27:14.274258 18045 net.cpp:406] inception_4e/5x5 <- inception_4e/5x5_reduce
I0502 20:27:14.274268 18045 net.cpp:380] inception_4e/5x5 -> inception_4e/5x5
I0502 20:27:14.281925 18045 net.cpp:122] Setting up inception_4e/5x5
I0502 20:27:14.281941 18045 net.cpp:129] Top shape: 32 128 14 14 (802816)
I0502 20:27:14.281947 18045 net.cpp:137] Memory required for data: 1652999688
I0502 20:27:14.281960 18045 layer_factory.hpp:77] Creating layer inception_4e/relu_5x5
I0502 20:27:14.281970 18045 net.cpp:84] Creating Layer inception_4e/relu_5x5
I0502 20:27:14.281977 18045 net.cpp:406] inception_4e/relu_5x5 <- inception_4e/5x5
I0502 20:27:14.281987 18045 net.cpp:367] inception_4e/relu_5x5 -> inception_4e/5x5 (in-place)
I0502 20:27:14.282963 18045 net.cpp:122] Setting up inception_4e/relu_5x5
I0502 20:27:14.282979 18045 net.cpp:129] Top shape: 32 128 14 14 (802816)
I0502 20:27:14.282984 18045 net.cpp:137] Memory required for data: 1656210952
I0502 20:27:14.282992 18045 layer_factory.hpp:77] Creating layer inception_4e/pool
I0502 20:27:14.283002 18045 net.cpp:84] Creating Layer inception_4e/pool
I0502 20:27:14.283008 18045 net.cpp:406] inception_4e/pool <- inception_4d/output_inception_4d/output_0_split_4
I0502 20:27:14.283020 18045 net.cpp:380] inception_4e/pool -> inception_4e/pool
I0502 20:27:14.283083 18045 net.cpp:122] Setting up inception_4e/pool
I0502 20:27:14.283092 18045 net.cpp:129] Top shape: 32 528 14 14 (3311616)
I0502 20:27:14.283097 18045 net.cpp:137] Memory required for data: 1669457416
I0502 20:27:14.283103 18045 layer_factory.hpp:77] Creating layer inception_4e/pool_proj
I0502 20:27:14.283119 18045 net.cpp:84] Creating Layer inception_4e/pool_proj
I0502 20:27:14.283125 18045 net.cpp:406] inception_4e/pool_proj <- inception_4e/pool
I0502 20:27:14.283135 18045 net.cpp:380] inception_4e/pool_proj -> inception_4e/pool_proj
I0502 20:27:14.288394 18045 net.cpp:122] Setting up inception_4e/pool_proj
I0502 20:27:14.288411 18045 net.cpp:129] Top shape: 32 128 14 14 (802816)
I0502 20:27:14.288419 18045 net.cpp:137] Memory required for data: 1672668680
I0502 20:27:14.288429 18045 layer_factory.hpp:77] Creating layer inception_4e/relu_pool_proj
I0502 20:27:14.288439 18045 net.cpp:84] Creating Layer inception_4e/relu_pool_proj
I0502 20:27:14.288445 18045 net.cpp:406] inception_4e/relu_pool_proj <- inception_4e/pool_proj
I0502 20:27:14.288453 18045 net.cpp:367] inception_4e/relu_pool_proj -> inception_4e/pool_proj (in-place)
I0502 20:27:14.290518 18045 net.cpp:122] Setting up inception_4e/relu_pool_proj
I0502 20:27:14.290531 18045 net.cpp:129] Top shape: 32 128 14 14 (802816)
I0502 20:27:14.290560 18045 net.cpp:137] Memory required for data: 1675879944
I0502 20:27:14.290566 18045 layer_factory.hpp:77] Creating layer inception_4e/output
I0502 20:27:14.290580 18045 net.cpp:84] Creating Layer inception_4e/output
I0502 20:27:14.290586 18045 net.cpp:406] inception_4e/output <- inception_4e/1x1
I0502 20:27:14.290594 18045 net.cpp:406] inception_4e/output <- inception_4e/3x3
I0502 20:27:14.290601 18045 net.cpp:406] inception_4e/output <- inception_4e/5x5
I0502 20:27:14.290607 18045 net.cpp:406] inception_4e/output <- inception_4e/pool_proj
I0502 20:27:14.290616 18045 net.cpp:380] inception_4e/output -> inception_4e/output
I0502 20:27:14.290657 18045 net.cpp:122] Setting up inception_4e/output
I0502 20:27:14.290668 18045 net.cpp:129] Top shape: 32 832 14 14 (5218304)
I0502 20:27:14.290673 18045 net.cpp:137] Memory required for data: 1696753160
I0502 20:27:14.290678 18045 layer_factory.hpp:77] Creating layer pool4/3x3_s2
I0502 20:27:14.290688 18045 net.cpp:84] Creating Layer pool4/3x3_s2
I0502 20:27:14.290695 18045 net.cpp:406] pool4/3x3_s2 <- inception_4e/output
I0502 20:27:14.290704 18045 net.cpp:380] pool4/3x3_s2 -> pool4/3x3_s2
I0502 20:27:14.290753 18045 net.cpp:122] Setting up pool4/3x3_s2
I0502 20:27:14.290765 18045 net.cpp:129] Top shape: 32 832 7 7 (1304576)
I0502 20:27:14.290769 18045 net.cpp:137] Memory required for data: 1701971464
I0502 20:27:14.290774 18045 layer_factory.hpp:77] Creating layer pool4/3x3_s2_pool4/3x3_s2_0_split
I0502 20:27:14.290784 18045 net.cpp:84] Creating Layer pool4/3x3_s2_pool4/3x3_s2_0_split
I0502 20:27:14.290791 18045 net.cpp:406] pool4/3x3_s2_pool4/3x3_s2_0_split <- pool4/3x3_s2
I0502 20:27:14.290800 18045 net.cpp:380] pool4/3x3_s2_pool4/3x3_s2_0_split -> pool4/3x3_s2_pool4/3x3_s2_0_split_0
I0502 20:27:14.290812 18045 net.cpp:380] pool4/3x3_s2_pool4/3x3_s2_0_split -> pool4/3x3_s2_pool4/3x3_s2_0_split_1
I0502 20:27:14.290822 18045 net.cpp:380] pool4/3x3_s2_pool4/3x3_s2_0_split -> pool4/3x3_s2_pool4/3x3_s2_0_split_2
I0502 20:27:14.290830 18045 net.cpp:380] pool4/3x3_s2_pool4/3x3_s2_0_split -> pool4/3x3_s2_pool4/3x3_s2_0_split_3
I0502 20:27:14.290901 18045 net.cpp:122] Setting up pool4/3x3_s2_pool4/3x3_s2_0_split
I0502 20:27:14.290910 18045 net.cpp:129] Top shape: 32 832 7 7 (1304576)
I0502 20:27:14.290917 18045 net.cpp:129] Top shape: 32 832 7 7 (1304576)
I0502 20:27:14.290925 18045 net.cpp:129] Top shape: 32 832 7 7 (1304576)
I0502 20:27:14.290931 18045 net.cpp:129] Top shape: 32 832 7 7 (1304576)
I0502 20:27:14.290937 18045 net.cpp:137] Memory required for data: 1722844680
I0502 20:27:14.290942 18045 layer_factory.hpp:77] Creating layer inception_5a/1x1
I0502 20:27:14.290957 18045 net.cpp:84] Creating Layer inception_5a/1x1
I0502 20:27:14.290964 18045 net.cpp:406] inception_5a/1x1 <- pool4/3x3_s2_pool4/3x3_s2_0_split_0
I0502 20:27:14.290973 18045 net.cpp:380] inception_5a/1x1 -> inception_5a/1x1
I0502 20:27:14.307407 18045 net.cpp:122] Setting up inception_5a/1x1
I0502 20:27:14.307435 18045 net.cpp:129] Top shape: 32 256 7 7 (401408)
I0502 20:27:14.307441 18045 net.cpp:137] Memory required for data: 1724450312
I0502 20:27:14.307456 18045 layer_factory.hpp:77] Creating layer inception_5a/relu_1x1
I0502 20:27:14.307471 18045 net.cpp:84] Creating Layer inception_5a/relu_1x1
I0502 20:27:14.307478 18045 net.cpp:406] inception_5a/relu_1x1 <- inception_5a/1x1
I0502 20:27:14.307492 18045 net.cpp:367] inception_5a/relu_1x1 -> inception_5a/1x1 (in-place)
I0502 20:27:14.309449 18045 net.cpp:122] Setting up inception_5a/relu_1x1
I0502 20:27:14.309464 18045 net.cpp:129] Top shape: 32 256 7 7 (401408)
I0502 20:27:14.309470 18045 net.cpp:137] Memory required for data: 1726055944
I0502 20:27:14.309476 18045 layer_factory.hpp:77] Creating layer inception_5a/3x3_reduce
I0502 20:27:14.309494 18045 net.cpp:84] Creating Layer inception_5a/3x3_reduce
I0502 20:27:14.309502 18045 net.cpp:406] inception_5a/3x3_reduce <- pool4/3x3_s2_pool4/3x3_s2_0_split_1
I0502 20:27:14.309514 18045 net.cpp:380] inception_5a/3x3_reduce -> inception_5a/3x3_reduce
I0502 20:27:14.319025 18045 net.cpp:122] Setting up inception_5a/3x3_reduce
I0502 20:27:14.319052 18045 net.cpp:129] Top shape: 32 160 7 7 (250880)
I0502 20:27:14.319058 18045 net.cpp:137] Memory required for data: 1727059464
I0502 20:27:14.319073 18045 layer_factory.hpp:77] Creating layer inception_5a/relu_3x3_reduce
I0502 20:27:14.319089 18045 net.cpp:84] Creating Layer inception_5a/relu_3x3_reduce
I0502 20:27:14.319097 18045 net.cpp:406] inception_5a/relu_3x3_reduce <- inception_5a/3x3_reduce
I0502 20:27:14.319106 18045 net.cpp:367] inception_5a/relu_3x3_reduce -> inception_5a/3x3_reduce (in-place)
I0502 20:27:14.319752 18045 net.cpp:122] Setting up inception_5a/relu_3x3_reduce
I0502 20:27:14.319769 18045 net.cpp:129] Top shape: 32 160 7 7 (250880)
I0502 20:27:14.319774 18045 net.cpp:137] Memory required for data: 1728062984
I0502 20:27:14.319780 18045 layer_factory.hpp:77] Creating layer inception_5a/3x3
I0502 20:27:14.319799 18045 net.cpp:84] Creating Layer inception_5a/3x3
I0502 20:27:14.319806 18045 net.cpp:406] inception_5a/3x3 <- inception_5a/3x3_reduce
I0502 20:27:14.319819 18045 net.cpp:380] inception_5a/3x3 -> inception_5a/3x3
I0502 20:27:14.329459 18045 net.cpp:122] Setting up inception_5a/3x3
I0502 20:27:14.329475 18045 net.cpp:129] Top shape: 32 320 7 7 (501760)
I0502 20:27:14.329489 18045 net.cpp:137] Memory required for data: 1730070024
I0502 20:27:14.329499 18045 layer_factory.hpp:77] Creating layer inception_5a/relu_3x3
I0502 20:27:14.329506 18045 net.cpp:84] Creating Layer inception_5a/relu_3x3
I0502 20:27:14.329511 18045 net.cpp:406] inception_5a/relu_3x3 <- inception_5a/3x3
I0502 20:27:14.329519 18045 net.cpp:367] inception_5a/relu_3x3 -> inception_5a/3x3 (in-place)
I0502 20:27:14.330111 18045 net.cpp:122] Setting up inception_5a/relu_3x3
I0502 20:27:14.330121 18045 net.cpp:129] Top shape: 32 320 7 7 (501760)
I0502 20:27:14.330123 18045 net.cpp:137] Memory required for data: 1732077064
I0502 20:27:14.330127 18045 layer_factory.hpp:77] Creating layer inception_5a/5x5_reduce
I0502 20:27:14.330139 18045 net.cpp:84] Creating Layer inception_5a/5x5_reduce
I0502 20:27:14.330144 18045 net.cpp:406] inception_5a/5x5_reduce <- pool4/3x3_s2_pool4/3x3_s2_0_split_2
I0502 20:27:14.330152 18045 net.cpp:380] inception_5a/5x5_reduce -> inception_5a/5x5_reduce
I0502 20:27:14.351495 18045 net.cpp:122] Setting up inception_5a/5x5_reduce
I0502 20:27:14.351517 18045 net.cpp:129] Top shape: 32 32 7 7 (50176)
I0502 20:27:14.351521 18045 net.cpp:137] Memory required for data: 1732277768
I0502 20:27:14.351531 18045 layer_factory.hpp:77] Creating layer inception_5a/relu_5x5_reduce
I0502 20:27:14.351544 18045 net.cpp:84] Creating Layer inception_5a/relu_5x5_reduce
I0502 20:27:14.351550 18045 net.cpp:406] inception_5a/relu_5x5_reduce <- inception_5a/5x5_reduce
I0502 20:27:14.351557 18045 net.cpp:367] inception_5a/relu_5x5_reduce -> inception_5a/5x5_reduce (in-place)
I0502 20:27:14.352187 18045 net.cpp:122] Setting up inception_5a/relu_5x5_reduce
I0502 20:27:14.352198 18045 net.cpp:129] Top shape: 32 32 7 7 (50176)
I0502 20:27:14.352203 18045 net.cpp:137] Memory required for data: 1732478472
I0502 20:27:14.352206 18045 layer_factory.hpp:77] Creating layer inception_5a/5x5
I0502 20:27:14.352221 18045 net.cpp:84] Creating Layer inception_5a/5x5
I0502 20:27:14.352224 18045 net.cpp:406] inception_5a/5x5 <- inception_5a/5x5_reduce
I0502 20:27:14.352232 18045 net.cpp:380] inception_5a/5x5 -> inception_5a/5x5
I0502 20:27:14.354313 18045 net.cpp:122] Setting up inception_5a/5x5
I0502 20:27:14.354327 18045 net.cpp:129] Top shape: 32 128 7 7 (200704)
I0502 20:27:14.354331 18045 net.cpp:137] Memory required for data: 1733281288
I0502 20:27:14.354339 18045 layer_factory.hpp:77] Creating layer inception_5a/relu_5x5
I0502 20:27:14.354351 18045 net.cpp:84] Creating Layer inception_5a/relu_5x5
I0502 20:27:14.354357 18045 net.cpp:406] inception_5a/relu_5x5 <- inception_5a/5x5
I0502 20:27:14.354362 18045 net.cpp:367] inception_5a/relu_5x5 -> inception_5a/5x5 (in-place)
I0502 20:27:14.354930 18045 net.cpp:122] Setting up inception_5a/relu_5x5
I0502 20:27:14.354962 18045 net.cpp:129] Top shape: 32 128 7 7 (200704)
I0502 20:27:14.354969 18045 net.cpp:137] Memory required for data: 1734084104
I0502 20:27:14.354972 18045 layer_factory.hpp:77] Creating layer inception_5a/pool
I0502 20:27:14.354980 18045 net.cpp:84] Creating Layer inception_5a/pool
I0502 20:27:14.354985 18045 net.cpp:406] inception_5a/pool <- pool4/3x3_s2_pool4/3x3_s2_0_split_3
I0502 20:27:14.354991 18045 net.cpp:380] inception_5a/pool -> inception_5a/pool
I0502 20:27:14.355033 18045 net.cpp:122] Setting up inception_5a/pool
I0502 20:27:14.355041 18045 net.cpp:129] Top shape: 32 832 7 7 (1304576)
I0502 20:27:14.355043 18045 net.cpp:137] Memory required for data: 1739302408
I0502 20:27:14.355047 18045 layer_factory.hpp:77] Creating layer inception_5a/pool_proj
I0502 20:27:14.355058 18045 net.cpp:84] Creating Layer inception_5a/pool_proj
I0502 20:27:14.355063 18045 net.cpp:406] inception_5a/pool_proj <- inception_5a/pool
I0502 20:27:14.355070 18045 net.cpp:380] inception_5a/pool_proj -> inception_5a/pool_proj
I0502 20:27:14.357165 18045 net.cpp:122] Setting up inception_5a/pool_proj
I0502 20:27:14.357177 18045 net.cpp:129] Top shape: 32 128 7 7 (200704)
I0502 20:27:14.357180 18045 net.cpp:137] Memory required for data: 1740105224
I0502 20:27:14.357189 18045 layer_factory.hpp:77] Creating layer inception_5a/relu_pool_proj
I0502 20:27:14.357195 18045 net.cpp:84] Creating Layer inception_5a/relu_pool_proj
I0502 20:27:14.357200 18045 net.cpp:406] inception_5a/relu_pool_proj <- inception_5a/pool_proj
I0502 20:27:14.357208 18045 net.cpp:367] inception_5a/relu_pool_proj -> inception_5a/pool_proj (in-place)
I0502 20:27:14.357875 18045 net.cpp:122] Setting up inception_5a/relu_pool_proj
I0502 20:27:14.357887 18045 net.cpp:129] Top shape: 32 128 7 7 (200704)
I0502 20:27:14.357889 18045 net.cpp:137] Memory required for data: 1740908040
I0502 20:27:14.357893 18045 layer_factory.hpp:77] Creating layer inception_5a/output
I0502 20:27:14.357903 18045 net.cpp:84] Creating Layer inception_5a/output
I0502 20:27:14.357906 18045 net.cpp:406] inception_5a/output <- inception_5a/1x1
I0502 20:27:14.357911 18045 net.cpp:406] inception_5a/output <- inception_5a/3x3
I0502 20:27:14.357916 18045 net.cpp:406] inception_5a/output <- inception_5a/5x5
I0502 20:27:14.357920 18045 net.cpp:406] inception_5a/output <- inception_5a/pool_proj
I0502 20:27:14.357928 18045 net.cpp:380] inception_5a/output -> inception_5a/output
I0502 20:27:14.357954 18045 net.cpp:122] Setting up inception_5a/output
I0502 20:27:14.357960 18045 net.cpp:129] Top shape: 32 832 7 7 (1304576)
I0502 20:27:14.357964 18045 net.cpp:137] Memory required for data: 1746126344
I0502 20:27:14.357967 18045 layer_factory.hpp:77] Creating layer inception_5a/output_inception_5a/output_0_split
I0502 20:27:14.357975 18045 net.cpp:84] Creating Layer inception_5a/output_inception_5a/output_0_split
I0502 20:27:14.357980 18045 net.cpp:406] inception_5a/output_inception_5a/output_0_split <- inception_5a/output
I0502 20:27:14.357985 18045 net.cpp:380] inception_5a/output_inception_5a/output_0_split -> inception_5a/output_inception_5a/output_0_split_0
I0502 20:27:14.357992 18045 net.cpp:380] inception_5a/output_inception_5a/output_0_split -> inception_5a/output_inception_5a/output_0_split_1
I0502 20:27:14.358000 18045 net.cpp:380] inception_5a/output_inception_5a/output_0_split -> inception_5a/output_inception_5a/output_0_split_2
I0502 20:27:14.358007 18045 net.cpp:380] inception_5a/output_inception_5a/output_0_split -> inception_5a/output_inception_5a/output_0_split_3
I0502 20:27:14.358054 18045 net.cpp:122] Setting up inception_5a/output_inception_5a/output_0_split
I0502 20:27:14.358059 18045 net.cpp:129] Top shape: 32 832 7 7 (1304576)
I0502 20:27:14.358064 18045 net.cpp:129] Top shape: 32 832 7 7 (1304576)
I0502 20:27:14.358068 18045 net.cpp:129] Top shape: 32 832 7 7 (1304576)
I0502 20:27:14.358072 18045 net.cpp:129] Top shape: 32 832 7 7 (1304576)
I0502 20:27:14.358075 18045 net.cpp:137] Memory required for data: 1766999560
I0502 20:27:14.358079 18045 layer_factory.hpp:77] Creating layer inception_5b/1x1
I0502 20:27:14.358106 18045 net.cpp:84] Creating Layer inception_5b/1x1
I0502 20:27:14.358111 18045 net.cpp:406] inception_5b/1x1 <- inception_5a/output_inception_5a/output_0_split_0
I0502 20:27:14.358119 18045 net.cpp:380] inception_5b/1x1 -> inception_5b/1x1
I0502 20:27:14.364012 18045 net.cpp:122] Setting up inception_5b/1x1
I0502 20:27:14.364034 18045 net.cpp:129] Top shape: 32 384 7 7 (602112)
I0502 20:27:14.364038 18045 net.cpp:137] Memory required for data: 1769408008
I0502 20:27:14.364048 18045 layer_factory.hpp:77] Creating layer inception_5b/relu_1x1
I0502 20:27:14.364058 18045 net.cpp:84] Creating Layer inception_5b/relu_1x1
I0502 20:27:14.364065 18045 net.cpp:406] inception_5b/relu_1x1 <- inception_5b/1x1
I0502 20:27:14.364073 18045 net.cpp:367] inception_5b/relu_1x1 -> inception_5b/1x1 (in-place)
I0502 20:27:14.364436 18045 net.cpp:122] Setting up inception_5b/relu_1x1
I0502 20:27:14.364444 18045 net.cpp:129] Top shape: 32 384 7 7 (602112)
I0502 20:27:14.364449 18045 net.cpp:137] Memory required for data: 1771816456
I0502 20:27:14.364452 18045 layer_factory.hpp:77] Creating layer inception_5b/3x3_reduce
I0502 20:27:14.364465 18045 net.cpp:84] Creating Layer inception_5b/3x3_reduce
I0502 20:27:14.364471 18045 net.cpp:406] inception_5b/3x3_reduce <- inception_5a/output_inception_5a/output_0_split_1
I0502 20:27:14.364478 18045 net.cpp:380] inception_5b/3x3_reduce -> inception_5b/3x3_reduce
I0502 20:27:14.369606 18045 net.cpp:122] Setting up inception_5b/3x3_reduce
I0502 20:27:14.369626 18045 net.cpp:129] Top shape: 32 192 7 7 (301056)
I0502 20:27:14.369629 18045 net.cpp:137] Memory required for data: 1773020680
I0502 20:27:14.369640 18045 layer_factory.hpp:77] Creating layer inception_5b/relu_3x3_reduce
I0502 20:27:14.369650 18045 net.cpp:84] Creating Layer inception_5b/relu_3x3_reduce
I0502 20:27:14.369657 18045 net.cpp:406] inception_5b/relu_3x3_reduce <- inception_5b/3x3_reduce
I0502 20:27:14.369663 18045 net.cpp:367] inception_5b/relu_3x3_reduce -> inception_5b/3x3_reduce (in-place)
I0502 20:27:14.370024 18045 net.cpp:122] Setting up inception_5b/relu_3x3_reduce
I0502 20:27:14.370033 18045 net.cpp:129] Top shape: 32 192 7 7 (301056)
I0502 20:27:14.370038 18045 net.cpp:137] Memory required for data: 1774224904
I0502 20:27:14.370043 18045 layer_factory.hpp:77] Creating layer inception_5b/3x3
I0502 20:27:14.370054 18045 net.cpp:84] Creating Layer inception_5b/3x3
I0502 20:27:14.370059 18045 net.cpp:406] inception_5b/3x3 <- inception_5b/3x3_reduce
I0502 20:27:14.370066 18045 net.cpp:380] inception_5b/3x3 -> inception_5b/3x3
I0502 20:27:14.377643 18045 net.cpp:122] Setting up inception_5b/3x3
I0502 20:27:14.377665 18045 net.cpp:129] Top shape: 32 384 7 7 (602112)
I0502 20:27:14.377669 18045 net.cpp:137] Memory required for data: 1776633352
I0502 20:27:14.377681 18045 layer_factory.hpp:77] Creating layer inception_5b/relu_3x3
I0502 20:27:14.377691 18045 net.cpp:84] Creating Layer inception_5b/relu_3x3
I0502 20:27:14.377697 18045 net.cpp:406] inception_5b/relu_3x3 <- inception_5b/3x3
I0502 20:27:14.377704 18045 net.cpp:367] inception_5b/relu_3x3 -> inception_5b/3x3 (in-place)
I0502 20:27:14.378443 18045 net.cpp:122] Setting up inception_5b/relu_3x3
I0502 20:27:14.378454 18045 net.cpp:129] Top shape: 32 384 7 7 (602112)
I0502 20:27:14.378458 18045 net.cpp:137] Memory required for data: 1779041800
I0502 20:27:14.378461 18045 layer_factory.hpp:77] Creating layer inception_5b/5x5_reduce
I0502 20:27:14.378474 18045 net.cpp:84] Creating Layer inception_5b/5x5_reduce
I0502 20:27:14.378479 18045 net.cpp:406] inception_5b/5x5_reduce <- inception_5a/output_inception_5a/output_0_split_2
I0502 20:27:14.378510 18045 net.cpp:380] inception_5b/5x5_reduce -> inception_5b/5x5_reduce
I0502 20:27:14.395679 18045 net.cpp:122] Setting up inception_5b/5x5_reduce
I0502 20:27:14.395701 18045 net.cpp:129] Top shape: 32 48 7 7 (75264)
I0502 20:27:14.395705 18045 net.cpp:137] Memory required for data: 1779342856
I0502 20:27:14.395715 18045 layer_factory.hpp:77] Creating layer inception_5b/relu_5x5_reduce
I0502 20:27:14.395745 18045 net.cpp:84] Creating Layer inception_5b/relu_5x5_reduce
I0502 20:27:14.395752 18045 net.cpp:406] inception_5b/relu_5x5_reduce <- inception_5b/5x5_reduce
I0502 20:27:14.395761 18045 net.cpp:367] inception_5b/relu_5x5_reduce -> inception_5b/5x5_reduce (in-place)
I0502 20:27:14.398598 18045 net.cpp:122] Setting up inception_5b/relu_5x5_reduce
I0502 20:27:14.398615 18045 net.cpp:129] Top shape: 32 48 7 7 (75264)
I0502 20:27:14.398619 18045 net.cpp:137] Memory required for data: 1779643912
I0502 20:27:14.398627 18045 layer_factory.hpp:77] Creating layer inception_5b/5x5
I0502 20:27:14.398643 18045 net.cpp:84] Creating Layer inception_5b/5x5
I0502 20:27:14.398649 18045 net.cpp:406] inception_5b/5x5 <- inception_5b/5x5_reduce
I0502 20:27:14.398658 18045 net.cpp:380] inception_5b/5x5 -> inception_5b/5x5
I0502 20:27:14.405203 18045 net.cpp:122] Setting up inception_5b/5x5
I0502 20:27:14.405225 18045 net.cpp:129] Top shape: 32 128 7 7 (200704)
I0502 20:27:14.405230 18045 net.cpp:137] Memory required for data: 1780446728
I0502 20:27:14.405239 18045 layer_factory.hpp:77] Creating layer inception_5b/relu_5x5
I0502 20:27:14.405249 18045 net.cpp:84] Creating Layer inception_5b/relu_5x5
I0502 20:27:14.405256 18045 net.cpp:406] inception_5b/relu_5x5 <- inception_5b/5x5
I0502 20:27:14.405263 18045 net.cpp:367] inception_5b/relu_5x5 -> inception_5b/5x5 (in-place)
I0502 20:27:14.405791 18045 net.cpp:122] Setting up inception_5b/relu_5x5
I0502 20:27:14.405802 18045 net.cpp:129] Top shape: 32 128 7 7 (200704)
I0502 20:27:14.405807 18045 net.cpp:137] Memory required for data: 1781249544
I0502 20:27:14.405812 18045 layer_factory.hpp:77] Creating layer inception_5b/pool
I0502 20:27:14.405819 18045 net.cpp:84] Creating Layer inception_5b/pool
I0502 20:27:14.405824 18045 net.cpp:406] inception_5b/pool <- inception_5a/output_inception_5a/output_0_split_3
I0502 20:27:14.405833 18045 net.cpp:380] inception_5b/pool -> inception_5b/pool
I0502 20:27:14.405875 18045 net.cpp:122] Setting up inception_5b/pool
I0502 20:27:14.405880 18045 net.cpp:129] Top shape: 32 832 7 7 (1304576)
I0502 20:27:14.405884 18045 net.cpp:137] Memory required for data: 1786467848
I0502 20:27:14.405889 18045 layer_factory.hpp:77] Creating layer inception_5b/pool_proj
I0502 20:27:14.405903 18045 net.cpp:84] Creating Layer inception_5b/pool_proj
I0502 20:27:14.405907 18045 net.cpp:406] inception_5b/pool_proj <- inception_5b/pool
I0502 20:27:14.405913 18045 net.cpp:380] inception_5b/pool_proj -> inception_5b/pool_proj
I0502 20:27:14.416064 18045 net.cpp:122] Setting up inception_5b/pool_proj
I0502 20:27:14.416085 18045 net.cpp:129] Top shape: 32 128 7 7 (200704)
I0502 20:27:14.416090 18045 net.cpp:137] Memory required for data: 1787270664
I0502 20:27:14.416100 18045 layer_factory.hpp:77] Creating layer inception_5b/relu_pool_proj
I0502 20:27:14.416112 18045 net.cpp:84] Creating Layer inception_5b/relu_pool_proj
I0502 20:27:14.416118 18045 net.cpp:406] inception_5b/relu_pool_proj <- inception_5b/pool_proj
I0502 20:27:14.416126 18045 net.cpp:367] inception_5b/relu_pool_proj -> inception_5b/pool_proj (in-place)
I0502 20:27:14.416735 18045 net.cpp:122] Setting up inception_5b/relu_pool_proj
I0502 20:27:14.416745 18045 net.cpp:129] Top shape: 32 128 7 7 (200704)
I0502 20:27:14.416749 18045 net.cpp:137] Memory required for data: 1788073480
I0502 20:27:14.416754 18045 layer_factory.hpp:77] Creating layer inception_5b/output
I0502 20:27:14.416764 18045 net.cpp:84] Creating Layer inception_5b/output
I0502 20:27:14.416769 18045 net.cpp:406] inception_5b/output <- inception_5b/1x1
I0502 20:27:14.416774 18045 net.cpp:406] inception_5b/output <- inception_5b/3x3
I0502 20:27:14.416780 18045 net.cpp:406] inception_5b/output <- inception_5b/5x5
I0502 20:27:14.416785 18045 net.cpp:406] inception_5b/output <- inception_5b/pool_proj
I0502 20:27:14.416790 18045 net.cpp:380] inception_5b/output -> inception_5b/output
I0502 20:27:14.416821 18045 net.cpp:122] Setting up inception_5b/output
I0502 20:27:14.416828 18045 net.cpp:129] Top shape: 32 1024 7 7 (1605632)
I0502 20:27:14.416832 18045 net.cpp:137] Memory required for data: 1794496008
I0502 20:27:14.416853 18045 layer_factory.hpp:77] Creating layer pool5/7x7_s1
I0502 20:27:14.416862 18045 net.cpp:84] Creating Layer pool5/7x7_s1
I0502 20:27:14.416864 18045 net.cpp:406] pool5/7x7_s1 <- inception_5b/output
I0502 20:27:14.416872 18045 net.cpp:380] pool5/7x7_s1 -> pool5/7x7_s1
I0502 20:27:14.417407 18045 net.cpp:122] Setting up pool5/7x7_s1
I0502 20:27:14.417418 18045 net.cpp:129] Top shape: 32 1024 1 1 (32768)
I0502 20:27:14.417423 18045 net.cpp:137] Memory required for data: 1794627080
I0502 20:27:14.417428 18045 layer_factory.hpp:77] Creating layer pool5/drop_7x7_s1
I0502 20:27:14.417435 18045 net.cpp:84] Creating Layer pool5/drop_7x7_s1
I0502 20:27:14.417439 18045 net.cpp:406] pool5/drop_7x7_s1 <- pool5/7x7_s1
I0502 20:27:14.417445 18045 net.cpp:367] pool5/drop_7x7_s1 -> pool5/7x7_s1 (in-place)
I0502 20:27:14.417469 18045 net.cpp:122] Setting up pool5/drop_7x7_s1
I0502 20:27:14.417474 18045 net.cpp:129] Top shape: 32 1024 1 1 (32768)
I0502 20:27:14.417476 18045 net.cpp:137] Memory required for data: 1794758152
I0502 20:27:14.417480 18045 layer_factory.hpp:77] Creating layer loss3/classifier
I0502 20:27:14.417488 18045 net.cpp:84] Creating Layer loss3/classifier
I0502 20:27:14.417493 18045 net.cpp:406] loss3/classifier <- pool5/7x7_s1
I0502 20:27:14.417498 18045 net.cpp:380] loss3/classifier -> loss3/classifier
I0502 20:27:14.418581 18045 net.cpp:122] Setting up loss3/classifier
I0502 20:27:14.418587 18045 net.cpp:129] Top shape: 32 196 (6272)
I0502 20:27:14.418591 18045 net.cpp:137] Memory required for data: 1794783240
I0502 20:27:14.418598 18045 layer_factory.hpp:77] Creating layer loss3/loss
I0502 20:27:14.418606 18045 net.cpp:84] Creating Layer loss3/loss
I0502 20:27:14.418609 18045 net.cpp:406] loss3/loss <- loss3/classifier
I0502 20:27:14.418614 18045 net.cpp:406] loss3/loss <- label_train-data_1_split_2
I0502 20:27:14.418619 18045 net.cpp:380] loss3/loss -> loss
…
I0502 20:27:14.421869 18045 net.cpp:294] The NetState phase (1) differed from the phase (0) specified by a rule in layer train-data
I0502 20:27:14.422762 18045 net.cpp:51] Initializing net from parameters:
state {
phase: TEST
}
layer {
name: "val-data"
type: "Data"
top: "data"
top: "label"
include {
phase: TEST
}
transform_param {
mirror: false
crop_size: 224
mean_file: "/mnt/bigdisk/MANDIG2/digits/jobs/20200428-132136-11fe/mean.binaryproto"
}
data_param {
source: "/mnt/bigdisk/MANDIG2/digits/jobs/20200428-132136-11fe/val_db"
batch_size: 16
backend: LMDB
}
}
layer {
name: "conv1/7x7_s2"
type: "Convolution"
bottom: "data"
top: "conv1/7x7_s2"
param {
lr_mult: 1
decay_mult: 1
}
param {
lr_mult: 2
decay_mult: 0
}
convolution_param {
num_output: 64
pad: 3
kernel_size: 7
stride: 2
weight_filler {
type: "xavier"
std: 0.1
}
bias_filler {
type: "constant"
value: 0.2
}
}
}
layer {
name: "conv1/relu_7x7"
type: "ReLU"
bottom: "conv1/7x7_s2"
top: "conv1/7x7_s2"
}
layer {
name: "pool1/3x3_s2"
type: "Pooling"
bottom: "conv1/7x7_s2"
top: "pool1/3x3_s2"
pooling_param {
pool: MAX
kernel_size: 3
stride: 2
}
}
layer {
name: "pool1/norm1"
type: "LRN"
bottom: "pool1/3x3_s2"
top: "pool1/norm1"
lrn_param {
local_size: 5
alpha: 0.0001
beta: 0.75
}
}
layer {
name: "conv2/3x3_reduce"
type: "Convolution"
bottom: "pool1/norm1"
top: "conv2/3x3_reduce"
param {
lr_mult: 1
decay_mult: 1
}
param {
lr_mult: 2
decay_mult: 0
}
convolution_param {
num_output: 64
kernel_size: 1
weight_filler {
type: "xavier"
std: 0.1
}
bias_filler {
type: "constant"
value: 0.2
}
}
}
layer {
name: "conv2/relu_3x3_reduce"
type: "ReLU"
bottom: "conv2/3x3_reduce"
top: "conv2/3x3_reduce"
}
layer {
name: "conv2/3x3"
type: "Convolution"
bottom: "conv2/3x3_reduce"
top: "conv2/3x3"
param {
lr_mult: 1
decay_mult: 1
}
param {
lr_mult: 2
decay_mult: 0
}
convolution_param {
num_output: 192
pad: 1
kernel_size: 3
weight_filler {
type: "xavier"
std: 0.03
}
bias_filler {
type: "constant"
value: 0.2
}
}
}
layer {
name: "conv2/relu_3x3"
type: "ReLU"
bottom: "conv2/3x3"
top: "conv2/3x3"
}
layer {
name: "conv2/norm2"
type: "LRN"
bottom: "conv2/3x3"
top: "conv2/norm2"
lrn_param {
local_size: 5
alpha: 0.0001
beta: 0.75
}
}
layer {
name: "pool2/3x3_s2"
type: "Pooling"
bottom: "conv2/norm2"
top: "pool2/3x3_s2"
pooling_param {
pool: MAX
kernel_size: 3
stride: 2
}
}
layer {
name: "inception_3a/1x1"
type: "Convolution"
bottom: "pool2/3x3_s2"
top: "inception_3a/1x1"
param {
lr_mult: 1
decay_mult: 1
}
param {
lr_mult: 2
decay_mult: 0
}
convolution_param {
num_output: 64
kernel_size: 1
weight_filler {
type: "xavier"
std: 0.03
}
bias_filler {
type: "constant"
value: 0.2
}
}
}
layer {
name: "inception_3a/relu_1x1"
type: "ReLU"
bottom: "inception_3a/1x1"
top: "inception_3a/1x1"
}
layer {
name: "inception_3a/3x3_reduce"
type: "Convolution"
bottom: "pool2/3x3_s2"
top: "inception_3a/3x3_reduce"
param {
lr_mult: 1
decay_mult: 1
}
param {
lr_mult: 2
decay_mult: 0
}
convolution_param {
num_output: 96
kernel_size: 1
weight_filler {
type: "xavier"
std: 0.09
}
bias_filler {
type: "constant"
value: 0.2
}
}
}
layer {
name: "inception_3a/relu_3x3_reduce"
type: "ReLU"
bottom: "inception_3a/3x3_reduce"
top: "inception_3a/3x3_reduce"
}
layer {
name: "inception_3a/3x3"
type: "Convolution"
bottom: "inception_3a/3x3_reduce"
top: "inception_3a/3x3"
param {
lr_mult: 1
decay_mult: 1
}
param {
lr_mult: 2
decay_mult: 0
}
convolution_param {
num_output: 128
pad: 1
kernel_size: 3
weight_filler {
type: "xavier"
std: 0.03
}
bias_filler {
type: "constant"
value: 0.2
}
}
}
layer {
name: "inception_3a/relu_3x3"
type: "ReLU"
bottom: "inception_3a/3x3"
top: "inception_3a/3x3"
}
layer {
name: "inception_3a/5x5_reduce"
type: "Convolution"
bottom: "pool2/3x3_s2"
top: "inception_3a/5x5_reduce"
param {
lr_mult: 1
decay_mult: 1
}
param {
lr_mult: 2
decay_mult: 0
}
convolution_param {
num_output: 16
kernel_size: 1
weight_filler {
type: "xavier"
std: 0.2
}
bias_filler {
type: "constant"
value: 0.2
}
}
}
layer {
name: "inception_3a/relu_5x5_reduce"
type: "ReLU"
bottom: "inception_3a/5x5_reduce"
top: "inception_3a/5x5_reduce"
}
layer {
name: "inception_3a/5x5"
type: "Convolution"
bottom: "inception_3a/5x5_reduce"
top: "inception_3a/5x5"
param {
lr_mult: 1
decay_mult: 1
}
param {
lr_mult: 2
decay_mult: 0
}
convolution_param {
num_output: 32
pad: 2
kernel_size: 5
weight_filler {
type: "xavier"
std: 0.03
}
bias_filler {
type: "constant"
value: 0.2
}
}
}
layer {
name: "inception_3a/relu_5x5"
type: "ReLU"
bottom: "inception_3a/5x5"
top: "inception_3a/5x5"
}
layer {
name: "inception_3a/pool"
type: "Pooling"
bottom: "pool2/3x3_s2"
top: "inception_3a/pool"
pooling_param {
pool: MAX
kernel_size: 3
stride: 1
pad: 1
}
}
layer {
name: "inception_3a/pool_proj"
type: "Convolution"
bottom: "inception_3a/pool"
top: "inception_3a/pool_proj"
param {
lr_mult: 1
decay_mult: 1
}
param {
lr_mult: 2
decay_mult: 0
}
convolution_param {
num_output: 32
kernel_size: 1
weight_filler {
type: "xavier"
std: 0.1
}
bias_filler {
type: "constant"
value: 0.2
}
}
}
layer {
name: "inception_3a/relu_pool_proj"
type: "ReLU"
bottom: "inception_3a/pool_proj"
top: "inception_3a/pool_proj"
}
layer {
name: "inception_3a/output"
type: "Concat"
bottom: "inception_3a/1x1"
bottom: "inception_3a/3x3"
bottom: "inception_3a/5x5"
bottom: "inception_3a/pool_proj"
top: "inception_3a/output"
}
layer {
name: "inception_3b/1x1"
type: "Convolution"
bottom: "inception_3a/output"
top: "inception_3b/1x1"
param {
lr_mult: 1
decay_mult: 1
}
param {
lr_mult: 2
decay_mult: 0
}
convolution_param {
num_output: 128
kernel_size: 1
weight_filler {
type: "xavier"
std: 0.03
}
bias_filler {
type: "constant"
value: 0.2
}
}
}
layer {
name: "inception_3b/relu_1x1"
type: "ReLU"
bottom: "inception_3b/1x1"
top: "inception_3b/1x1"
}
layer {
name: "inception_3b/3x3_reduce"
type: "Convolution"
bottom: "inception_3a/output"
top: "inception_3b/3x3_reduce"
param {
lr_mult: 1
decay_mult: 1
}
param {
lr_mult: 2
decay_mult: 0
}
convolution_param {
num_output: 128
kernel_size: 1
weight_filler {
type: "xavier"
std: 0.09
}
bias_filler {
type: "constant"
value: 0.2
}
}
}
layer {
name: "inception_3b/relu_3x3_reduce"
type: "ReLU"
bottom: "inception_3b/3x3_reduce"
top: "inception_3b/3x3_reduce"
}
layer {
name: "inception_3b/3x3"
type: "Convolution"
bottom: "inception_3b/3x3_reduce"
top: "inception_3b/3x3"
param {
lr_mult: 1
decay_mult: 1
}
param {
lr_mult: 2
decay_mult: 0
}
convolution_param {
num_output: 192
pad: 1
kernel_size: 3
weight_filler {
type: "xavier"
std: 0.03
}
bias_filler {
type: "constant"
value: 0.2
}
}
}
layer {
name: "inception_3b/relu_3x3"
type: "ReLU"
bottom: "inception_3b/3x3"
top: "inception_3b/3x3"
}
layer {
name: "inception_3b/5x5_reduce"
type: "Convolution"
bottom: "inception_3a/output"
top: "inception_3b/5x5_reduce"
param {
lr_mult: 1
decay_mult: 1
}
param {
lr_mult: 2
decay_mult: 0
}
convolution_param {
num_output: 32
kernel_size: 1
weight_filler {
type: "xavier"
std: 0.2
}
bias_filler {
type: "constant"
value: 0.2
}
}
}
layer {
name: "inception_3b/relu_5x5_reduce"
type: "ReLU"
bottom: "inception_3b/5x5_reduce"
top: "inception_3b/5x5_reduce"
}
layer {
name: "inception_3b/5x5"
type: "Convolution"
bottom: "inception_3b/5x5_reduce"
top: "inception_3b/5x5"
param {
lr_mult: 1
decay_mult: 1
}
param {
lr_mult: 2
decay_mult: 0
}
convolution_param {
num_output: 96
pad: 2
kernel_size: 5
weight_filler {
type: "xavier"
std: 0.03
}
bias_filler {
type: "constant"
value: 0.2
}
}
}
layer {
name: "inception_3b/relu_5x5"
type: "ReLU"
bottom: "inception_3b/5x5"
top: "inception_3b/5x5"
}
layer {
name: "inception_3b/pool"
type: "Pooling"
bottom: "inception_3a/output"
top: "inception_3b/pool"
pooling_param {
pool: MAX
kernel_size: 3
stride: 1
pad: 1
}
}
layer {
name: "inception_3b/pool_proj"
type: "Convolution"
bottom: "inception_3b/pool"
top: "inception_3b/pool_proj"
param {
lr_mult: 1
decay_mult: 1
}
param {
lr_mult: 2
decay_mult: 0
}
convolution_param {
num_output: 64
kernel_size: 1
weight_filler {
type: "xavier"
std: 0.1
}
bias_filler {
type: "constant"
value: 0.2
}
}
}
layer {
name: "inception_3b/relu_pool_proj"
type: "ReLU"
bottom: "inception_3b/pool_proj"
top: "inception_3b/pool_proj"
}
layer {
name: "inception_3b/output"
type: "Concat"
bottom: "inception_3b/1x1"
bottom: "inception_3b/3x3"
bottom: "inception_3b/5x5"
bottom: "inception_3b/pool_proj"
top: "inception_3b/output"
}
layer {
name: "pool3/3x3_s2"
type: "Pooling"
bottom: "inception_3b/output"
top: "pool3/3x3_s2"
pooling_param {
pool: MAX
kernel_size: 3
stride: 2
}
}
layer {
name: "inception_4a/1x1"
type: "Convolution"
bottom: "pool3/3x3_s2"
top: "inception_4a/1x1"
param {
lr_mult: 1
decay_mult: 1
}
param {
lr_mult: 2
decay_mult: 0
}
convolution_param {
num_output: 192
kernel_size: 1
weight_filler {
type: "xavier"
std: 0.03
}
bias_filler {
type: "constant"
value: 0.2
}
}
}
layer {
name: "inception_4a/relu_1x1"
type: "ReLU"
bottom: "inception_4a/1x1"
top: "inception_4a/1x1"
}
layer {
name: "inception_4a/3x3_reduce"
type: "Convolution"
bottom: "pool3/3x3_s2"
top: "inception_4a/3x3_reduce"
param {
lr_mult: 1
decay_mult: 1
}
param {
lr_mult: 2
decay_mult: 0
}
convolution_param {
num_output: 96
kernel_size: 1
weight_filler {
type: "xavier"
std: 0.09
}
bias_filler {
type: "constant"
value: 0.2
}
}
}
layer {
name: "inception_4a/relu_3x3_reduce"
type: "ReLU"
bottom: "inception_4a/3x3_reduce"
top: "inception_4a/3x3_reduce"
}
layer {
name: "inception_4a/3x3"
type: "Convolution"
bottom: "inception_4a/3x3_reduce"
top: "inception_4a/3x3"
param {
lr_mult: 1
decay_mult: 1
}
param {
lr_mult: 2
decay_mult: 0
}
convolution_param {
num_output: 208
pad: 1
kernel_size: 3
weight_filler {
type: "xavier"
std: 0.03
}
bias_filler {
type: "constant"
value: 0.2
}
}
}
layer {
name: "inception_4a/relu_3x3"
type: "ReLU"
bottom: "inception_4a/3x3"
top: "inception_4a/3x3"
}
layer {
name: "inception_4a/5x5_reduce"
type: "Convolution"
bottom: "pool3/3x3_s2"
top: "inception_4a/5x5_reduce"
param {
lr_mult: 1
decay_mult: 1
}
param {
lr_mult: 2
decay_mult: 0
}
convolution_param {
num_output: 16
kernel_size: 1
weight_filler {
type: "xavier"
std: 0.2
}
bias_filler {
type: "constant"
value: 0.2
}
}
}
layer {
name: "inception_4a/relu_5x5_reduce"
type: "ReLU"
bottom: "inception_4a/5x5_reduce"
top: "inception_4a/5x5_reduce"
}
layer {
name: "inception_4a/5x5"
type: "Convolution"
bottom: "inception_4a/5x5_reduce"
top: "inception_4a/5x5"
param {
lr_mult: 1
decay_mult: 1
}
param {
lr_mult: 2
decay_mult: 0
}
convolution_param {
num_output: 48
pad: 2
kernel_size: 5
weight_filler {
type: "xavier"
std: 0.03
}
bias_filler {
type: "constant"
value: 0.2
}
}
}
layer {
name: "inception_4a/relu_5x5"
type: "ReLU"
bottom: "inception_4a/5x5"
top: "inception_4a/5x5"
}
layer {
name: "inception_4a/pool"
type: "Pooling"
bottom: "pool3/3x3_s2"
top: "inception_4a/pool"
pooling_param {
pool: MAX
kernel_size: 3
stride: 1
pad: 1
}
}
layer {
name: "inception_4a/pool_proj"
type: "Convolution"
bottom: "inception_4a/pool"
top: "inception_4a/pool_proj"
param {
lr_mult: 1
decay_mult: 1
}
param {
lr_mult: 2
decay_mult: 0
}
convolution_param {
num_output: 64
kernel_size: 1
weight_filler {
type: "xavier"
std: 0.1
}
bias_filler {
type: "constant"
value: 0.2
}
}
}
layer {
name: "inception_4a/relu_pool_proj"
type: "ReLU"
bottom: "inception_4a/pool_proj"
top: "inception_4a/pool_proj"
}
layer {
name: "inception_4a/output"
type: "Concat"
bottom: "inception_4a/1x1"
bottom: "inception_4a/3x3"
bottom: "inception_4a/5x5"
bottom: "inception_4a/pool_proj"
top: "inception_4a/output"
}
layer {
name: "loss1/ave_pool"
type: "Pooling"
bottom: "inception_4a/output"
top: "loss1/ave_pool"
pooling_param {
pool: AVE
kernel_size: 5
stride: 3
}
}
layer {
name: "loss1/conv"
type: "Convolution"
bottom: "loss1/ave_pool"
top: "loss1/conv"
param {
lr_mult: 1
decay_mult: 1
}
param {
lr_mult: 2
decay_mult: 0
}
convolution_param {
num_output: 128
kernel_size: 1
weight_filler {
type: "xavier"
std: 0.08
}
bias_filler {
type: "constant"
value: 0.2
}
}
}
layer {
name: "loss1/relu_conv"
type: "ReLU"
bottom: "loss1/conv"
top: "loss1/conv"
}
layer {
name: "loss1/fc"
type: "InnerProduct"
bottom: "loss1/conv"
top: "loss1/fc"
param {
lr_mult: 1
decay_mult: 1
}
param {
lr_mult: 2
decay_mult: 0
}
inner_product_param {
num_output: 1024
weight_filler {
type: "xavier"
std: 0.02
}
bias_filler {
type: "constant"
value: 0.2
}
}
}
layer {
name: "loss1/relu_fc"
type: "ReLU"
bottom: "loss1/fc"
top: "loss1/fc"
}
layer {
name: "loss1/drop_fc"
type: "Dropout"
bottom: "loss1/fc"
top: "loss1/fc"
dropout_param {
dropout_ratio: 0.7
}
}
layer {
name: "loss1/classifier"
type: "InnerProduct"
bottom: "loss1/fc"
top: "loss1/classifier"
param {
lr_mult: 1
decay_mult: 1
}
param {
lr_mult: 2
decay_mult: 0
}
inner_product_param {
num_output: 196
weight_filler {
type: "xavier"
std: 0.0009765625
}
bias_filler {
type: "constant"
value: 0
}
}
}
layer {
name: "loss1/loss"
type: "SoftmaxWithLoss"
bottom: "loss1/classifier"
bottom: "label"
top: "loss1/loss"
loss_weight: 0.3
}
layer {
name: "loss1/top-1"
type: "Accuracy"
bottom: "loss1/classifier"
bottom: "label"
top: "loss1/accuracy"
include {
phase: TEST
}
}
layer {
name: "loss1/top-5"
type: "Accuracy"
bottom: "loss1/classifier"
bottom: "label"
top: "loss1/accuracy-top5"
include {
phase: TEST
}
accuracy_param {
top_k: 5
}
}
layer {
name: "inception_4b/1x1"
type: "Convolution"
bottom: "inception_4a/output"
top: "inception_4b/1x1"
param {
lr_mult: 1
decay_mult: 1
}
param {
lr_mult: 2
decay_mult: 0
}
convolution_param {
num_output: 160
kernel_size: 1
weight_filler {
type: "xavier"
std: 0.03
}
bias_filler {
type: "constant"
value: 0.2
}
}
}
layer {
name: "inception_4b/relu_1x1"
type: "ReLU"
bottom: "inception_4b/1x1"
top: "inception_4b/1x1"
}
layer {
name: "inception_4b/3x3_reduce"
type: "Convolution"
bottom: "inception_4a/output"
top: "inception_4b/3x3_reduce"
param {
lr_mult: 1
decay_mult: 1
}
param {
lr_mult: 2
decay_mult: 0
}
convolution_param {
num_output: 112
kernel_size: 1
weight_filler {
type: "xavier"
std: 0.09
}
bias_filler {
type: "constant"
value: 0.2
}
}
}
layer {
name: "inception_4b/relu_3x3_reduce"
type: "ReLU"
bottom: "inception_4b/3x3_reduce"
top: "inception_4b/3x3_reduce"
}
layer {
name: "inception_4b/3x3"
type: "Convolution"
bottom: "inception_4b/3x3_reduce"
top: "inception_4b/3x3"
param {
lr_mult: 1
decay_mult: 1
}
param {
lr_mult: 2
decay_mult: 0
}
convolution_param {
num_output: 224
pad: 1
kernel_size: 3
weight_filler {
type: "xavier"
std: 0.03
}
bias_filler {
type: "constant"
value: 0.2
}
}
}
layer {
name: "inception_4b/relu_3x3"
type: "ReLU"
bottom: "inception_4b/3x3"
top: "inception_4b/3x3"
}
layer {
name: "inception_4b/5x5_reduce"
type: "Convolution"
bottom: "inception_4a/output"
top: "inception_4b/5x5_reduce"
param {
lr_mult: 1
decay_mult: 1
}
param {
lr_mult: 2
decay_mult: 0
}
convolution_param {
num_output: 24
kernel_size: 1
weight_filler {
type: "xavier"
std: 0.2
}
bias_filler {
type: "constant"
value: 0.2
}
}
}
layer {
name: "inception_4b/relu_5x5_reduce"
type: "ReLU"
bottom: "inception_4b/5x5_reduce"
top: "inception_4b/5x5_reduce"
}
layer {
name: "inception_4b/5x5"
type: "Convolution"
bottom: "inception_4b/5x5_reduce"
top: "inception_4b/5x5"
param {
lr_mult: 1
decay_mult: 1
}
param {
lr_mult: 2
decay_mult: 0
}
convolution_param {
num_output: 64
pad: 2
kernel_size: 5
weight_filler {
type: "xavier"
std: 0.03
}
bias_filler {
type: "constant"
value: 0.2
}
}
}
layer {
name: "inception_4b/relu_5x5"
type: "ReLU"
bottom: "inception_4b/5x5"
top: "inception_4b/5x5"
}
layer {
name: "inception_4b/pool"
type: "Pooling"
bottom: "inception_4a/output"
top: "inception_4b/pool"
pooling_param {
pool: MAX
kernel_size: 3
stride: 1
pad: 1
}
}
layer {
name: "inception_4b/pool_proj"
type: "Convolution"
bottom: "inception_4b/pool"
top: "inception_4b/pool_proj"
param {
lr_mult: 1
decay_mult: 1
}
param {
lr_mult: 2
decay_mult: 0
}
convolution_param {
num_output: 64
kernel_size: 1
weight_filler {
type: "xavier"
std: 0.1
}
bias_filler {
type: "constant"
value: 0.2
}
}
}
layer {
name: "inception_4b/relu_pool_proj"
type: "ReLU"
bottom: "inception_4b/pool_proj"
top: "inception_4b/pool_proj"
}
layer {
name: "inception_4b/output"
type: "Concat"
bottom: "inception_4b/1x1"
bottom: "inception_4b/3x3"
bottom: "inception_4b/5x5"
bottom: "inception_4b/pool_proj"
top: "inception_4b/output"
}
layer {
name: "inception_4c/1x1"
type: "Convolution"
bottom: "inception_4b/output"
top: "inception_4c/1x1"
param {
lr_mult: 1
decay_mult: 1
}
param {
lr_mult: 2
decay_mult: 0
}
convolution_param {
num_output: 128
kernel_size: 1
weight_filler {
type: "xavier"
std: 0.03
}
bias_filler {
type: "constant"
value: 0.2
}
}
}
layer {
name: "inception_4c/relu_1x1"
type: "ReLU"
bottom: "inception_4c/1x1"
top: "inception_4c/1x1"
}
layer {
name: "inception_4c/3x3_reduce"
type: "Convolution"
bottom: "inception_4b/output"
top: "inception_4c/3x3_reduce"
param {
lr_mult: 1
decay_mult: 1
}
param {
lr_mult: 2
decay_mult: 0
}
convolution_param {
num_output: 128
kernel_size: 1
weight_filler {
type: "xavier"
std: 0.09
}
bias_filler {
type: "constant"
value: 0.2
}
}
}
layer {
name: "inception_4c/relu_3x3_reduce"
type: "ReLU"
bottom: "inception_4c/3x3_reduce"
top: "inception_4c/3x3_reduce"
}
layer {
name: "inception_4c/3x3"
type: "Convolution"
bottom: "inception_4c/3x3_reduce"
top: "inception_4c/3x3"
param {
lr_mult: 1
decay_mult: 1
}
param {
lr_mult: 2
decay_mult: 0
}
convolution_param {
num_output: 256
pad: 1
kernel_size: 3
weight_filler {
type: "xavier"
std: 0.03
}
bias_filler {
type: "constant"
value: 0.2
}
}
}
layer {
name: "inception_4c/relu_3x3"
type: "ReLU"
bottom: "inception_4c/3x3"
top: "inception_4c/3x3"
}
layer {
name: "inception_4c/5x5_reduce"
type: "Convolution"
bottom: "inception_4b/output"
top: "inception_4c/5x5_reduce"
param {
lr_mult: 1
decay_mult: 1
}
param {
lr_mult: 2
decay_mult: 0
}
convolution_param {
num_output: 24
kernel_size: 1
weight_filler {
type: "xavier"
std: 0.2
}
bias_filler {
type: "constant"
value: 0.2
}
}
}
layer {
name: "inception_4c/relu_5x5_reduce"
type: "ReLU"
bottom: "inception_4c/5x5_reduce"
top: "inception_4c/5x5_reduce"
}
layer {
name: "inception_4c/5x5"
type: "Convolution"
bottom: "inception_4c/5x5_reduce"
top: "inception_4c/5x5"
param {
lr_mult: 1
decay_mult: 1
}
param {
lr_mult: 2
decay_mult: 0
}
convolution_param {
num_output: 64
pad: 2
kernel_size: 5
weight_filler {
type: "xavier"
std: 0.03
}
bias_filler {
type: "constant"
value: 0.2
}
}
}
layer {
name: "inception_4c/relu_5x5"
type: "ReLU"
bottom: "inception_4c/5x5"
top: "inception_4c/5x5"
}
layer {
name: "inception_4c/pool"
type: "Pooling"
bottom: "inception_4b/output"
top: "inception_4c/pool"
pooling_param {
pool: MAX
kernel_size: 3
stride: 1
pad: 1
}
}
layer {
name: "inception_4c/pool_proj"
type: "Convolution"
bottom: "inception_4c/pool"
top: "inception_4c/pool_proj"
param {
lr_mult: 1
decay_mult: 1
}
param {
lr_mult: 2
decay_mult: 0
}
convolution_param {
num_output: 64
kernel_size: 1
weight_filler {
type: "xavier"
std: 0.1
}
bias_filler {
type: "constant"
value: 0.2
}
}
}
layer {
name: "inception_4c/relu_pool_proj"
type: "ReLU"
bottom: "inception_4c/pool_proj"
top: "inception_4c/pool_proj"
}
layer {
name: "inception_4c/output"
type: "Concat"
bottom: "inception_4c/1x1"
bottom: "inception_4c/3x3"
bottom: "inception_4c/5x5"
bottom: "inception_4c/pool_proj"
top: "inception_4c/output"
}
layer {
name: "inception_4d/1x1"
type: "Convolution"
bottom: "inception_4c/output"
top: "inception_4d/1x1"
param {
lr_mult: 1
decay_mult: 1
}
param {
lr_mult: 2
decay_mult: 0
}
convolution_param {
num_output: 112
kernel_size: 1
weight_filler {
type: "xavier"
std: 0.03
}
bias_filler {
type: "constant"
value: 0.2
}
}
}
layer {
name: "inception_4d/relu_1x1"
…
I0502 20:27:15.627137 18045 net.cpp:122] Setting up inception_4c/relu_5x5
I0502 20:27:15.627146 18045 net.cpp:129] Top shape: 16 64 14 14 (200704)
I0502 20:27:15.627151 18045 net.cpp:137] Memory required for data: 700688012
I0502 20:27:15.627153 18045 layer_factory.hpp:77] Creating layer inception_4c/pool
I0502 20:27:15.627162 18045 net.cpp:84] Creating Layer inception_4c/pool
I0502 20:27:15.627167 18045 net.cpp:406] inception_4c/pool <- inception_4b/output_inception_4b/output_0_split_3
I0502 20:27:15.627172 18045 net.cpp:380] inception_4c/pool -> inception_4c/pool
I0502 20:27:15.627215 18045 net.cpp:122] Setting up inception_4c/pool
I0502 20:27:15.627221 18045 net.cpp:129] Top shape: 16 512 14 14 (1605632)
I0502 20:27:15.627224 18045 net.cpp:137] Memory required for data: 707110540
I0502 20:27:15.627228 18045 layer_factory.hpp:77] Creating layer inception_4c/pool_proj
I0502 20:27:15.627238 18045 net.cpp:84] Creating Layer inception_4c/pool_proj
I0502 20:27:15.627243 18045 net.cpp:406] inception_4c/pool_proj <- inception_4c/pool
I0502 20:27:15.627252 18045 net.cpp:380] inception_4c/pool_proj -> inception_4c/pool_proj
I0502 20:27:15.629034 18045 net.cpp:122] Setting up inception_4c/pool_proj
I0502 20:27:15.629043 18045 net.cpp:129] Top shape: 16 64 14 14 (200704)
I0502 20:27:15.629047 18045 net.cpp:137] Memory required for data: 707913356
I0502 20:27:15.629055 18045 layer_factory.hpp:77] Creating layer inception_4c/relu_pool_proj
I0502 20:27:15.629062 18045 net.cpp:84] Creating Layer inception_4c/relu_pool_proj
I0502 20:27:15.629066 18045 net.cpp:406] inception_4c/relu_pool_proj <- inception_4c/pool_proj
I0502 20:27:15.629071 18045 net.cpp:367] inception_4c/relu_pool_proj -> inception_4c/pool_proj (in-place)
I0502 20:27:15.629595 18045 net.cpp:122] Setting up inception_4c/relu_pool_proj
I0502 20:27:15.629606 18045 net.cpp:129] Top shape: 16 64 14 14 (200704)
I0502 20:27:15.629608 18045 net.cpp:137] Memory required for data: 708716172
I0502 20:27:15.629612 18045 layer_factory.hpp:77] Creating layer inception_4c/output
I0502 20:27:15.629621 18045 net.cpp:84] Creating Layer inception_4c/output
I0502 20:27:15.629624 18045 net.cpp:406] inception_4c/output <- inception_4c/1x1
I0502 20:27:15.629647 18045 net.cpp:406] inception_4c/output <- inception_4c/3x3
I0502 20:27:15.629652 18045 net.cpp:406] inception_4c/output <- inception_4c/5x5
I0502 20:27:15.629657 18045 net.cpp:406] inception_4c/output <- inception_4c/pool_proj
I0502 20:27:15.629662 18045 net.cpp:380] inception_4c/output -> inception_4c/output
I0502 20:27:15.629691 18045 net.cpp:122] Setting up inception_4c/output
I0502 20:27:15.629696 18045 net.cpp:129] Top shape: 16 512 14 14 (1605632)
I0502 20:27:15.629699 18045 net.cpp:137] Memory required for data: 715138700
I0502 20:27:15.629703 18045 layer_factory.hpp:77] Creating layer inception_4c/output_inception_4c/output_0_split
I0502 20:27:15.629709 18045 net.cpp:84] Creating Layer inception_4c/output_inception_4c/output_0_split
I0502 20:27:15.629714 18045 net.cpp:406] inception_4c/output_inception_4c/output_0_split <- inception_4c/output
I0502 20:27:15.629719 18045 net.cpp:380] inception_4c/output_inception_4c/output_0_split -> inception_4c/output_inception_4c/output_0_split_0
I0502 20:27:15.629727 18045 net.cpp:380] inception_4c/output_inception_4c/output_0_split -> inception_4c/output_inception_4c/output_0_split_1
I0502 20:27:15.629734 18045 net.cpp:380] inception_4c/output_inception_4c/output_0_split -> inception_4c/output_inception_4c/output_0_split_2
I0502 20:27:15.629739 18045 net.cpp:380] inception_4c/output_inception_4c/output_0_split -> inception_4c/output_inception_4c/output_0_split_3
I0502 20:27:15.629788 18045 net.cpp:122] Setting up inception_4c/output_inception_4c/output_0_split
I0502 20:27:15.629793 18045 net.cpp:129] Top shape: 16 512 14 14 (1605632)
I0502 20:27:15.629797 18045 net.cpp:129] Top shape: 16 512 14 14 (1605632)
I0502 20:27:15.629801 18045 net.cpp:129] Top shape: 16 512 14 14 (1605632)
I0502 20:27:15.629806 18045 net.cpp:129] Top shape: 16 512 14 14 (1605632)
I0502 20:27:15.629808 18045 net.cpp:137] Memory required for data: 740828812
I0502 20:27:15.629812 18045 layer_factory.hpp:77] Creating layer inception_4d/1x1
I0502 20:27:15.629822 18045 net.cpp:84] Creating Layer inception_4d/1x1
I0502 20:27:15.629825 18045 net.cpp:406] inception_4d/1x1 <- inception_4c/output_inception_4c/output_0_split_0
I0502 20:27:15.629832 18045 net.cpp:380] inception_4d/1x1 -> inception_4d/1x1
I0502 20:27:15.631719 18045 net.cpp:122] Setting up inception_4d/1x1
I0502 20:27:15.631729 18045 net.cpp:129] Top shape: 16 112 14 14 (351232)
I0502 20:27:15.631732 18045 net.cpp:137] Memory required for data: 742233740
I0502 20:27:15.631739 18045 layer_factory.hpp:77] Creating layer inception_4d/relu_1x1
I0502 20:27:15.631745 18045 net.cpp:84] Creating Layer inception_4d/relu_1x1
I0502 20:27:15.631749 18045 net.cpp:406] inception_4d/relu_1x1 <- inception_4d/1x1
I0502 20:27:15.631757 18045 net.cpp:367] inception_4d/relu_1x1 -> inception_4d/1x1 (in-place)
I0502 20:27:15.632284 18045 net.cpp:122] Setting up inception_4d/relu_1x1
I0502 20:27:15.632295 18045 net.cpp:129] Top shape: 16 112 14 14 (351232)
I0502 20:27:15.632298 18045 net.cpp:137] Memory required for data: 743638668
I0502 20:27:15.632302 18045 layer_factory.hpp:77] Creating layer inception_4d/3x3_reduce
I0502 20:27:15.632311 18045 net.cpp:84] Creating Layer inception_4d/3x3_reduce
I0502 20:27:15.632316 18045 net.cpp:406] inception_4d/3x3_reduce <- inception_4c/output_inception_4c/output_0_split_1
I0502 20:27:15.632323 18045 net.cpp:380] inception_4d/3x3_reduce -> inception_4d/3x3_reduce
I0502 20:27:15.651949 18045 net.cpp:122] Setting up inception_4d/3x3_reduce
I0502 20:27:15.651971 18045 net.cpp:129] Top shape: 16 144 14 14 (451584)
I0502 20:27:15.651975 18045 net.cpp:137] Memory required for data: 745445004
I0502 20:27:15.651985 18045 layer_factory.hpp:77] Creating layer inception_4d/relu_3x3_reduce
I0502 20:27:15.651995 18045 net.cpp:84] Creating Layer inception_4d/relu_3x3_reduce
I0502 20:27:15.652002 18045 net.cpp:406] inception_4d/relu_3x3_reduce <- inception_4d/3x3_reduce
I0502 20:27:15.652009 18045 net.cpp:367] inception_4d/relu_3x3_reduce -> inception_4d/3x3_reduce (in-place)
I0502 20:27:15.652390 18045 net.cpp:122] Setting up inception_4d/relu_3x3_reduce
I0502 20:27:15.652418 18045 net.cpp:129] Top shape: 16 144 14 14 (451584)
I0502 20:27:15.652423 18045 net.cpp:137] Memory required for data: 747251340
I0502 20:27:15.652427 18045 layer_factory.hpp:77] Creating layer inception_4d/3x3
I0502 20:27:15.652439 18045 net.cpp:84] Creating Layer inception_4d/3x3
I0502 20:27:15.652444 18045 net.cpp:406] inception_4d/3x3 <- inception_4d/3x3_reduce
I0502 20:27:15.652451 18045 net.cpp:380] inception_4d/3x3 -> inception_4d/3x3
I0502 20:27:15.667493 18045 net.cpp:122] Setting up inception_4d/3x3
I0502 20:27:15.667515 18045 net.cpp:129] Top shape: 16 288 14 14 (903168)
I0502 20:27:15.667520 18045 net.cpp:137] Memory required for data: 750864012
I0502 20:27:15.667529 18045 layer_factory.hpp:77] Creating layer inception_4d/relu_3x3
I0502 20:27:15.667538 18045 net.cpp:84] Creating Layer inception_4d/relu_3x3
I0502 20:27:15.667544 18045 net.cpp:406] inception_4d/relu_3x3 <- inception_4d/3x3
I0502 20:27:15.667552 18045 net.cpp:367] inception_4d/relu_3x3 -> inception_4d/3x3 (in-place)
I0502 20:27:15.667922 18045 net.cpp:122] Setting up inception_4d/relu_3x3
I0502 20:27:15.667929 18045 net.cpp:129] Top shape: 16 288 14 14 (903168)
I0502 20:27:15.667932 18045 net.cpp:137] Memory required for data: 754476684
I0502 20:27:15.667937 18045 layer_factory.hpp:77] Creating layer inception_4d/5x5_reduce
I0502 20:27:15.667949 18045 net.cpp:84] Creating Layer inception_4d/5x5_reduce
I0502 20:27:15.667953 18045 net.cpp:406] inception_4d/5x5_reduce <- inception_4c/output_inception_4c/output_0_split_2
I0502 20:27:15.667961 18045 net.cpp:380] inception_4d/5x5_reduce -> inception_4d/5x5_reduce
I0502 20:27:15.671867 18045 net.cpp:122] Setting up inception_4d/5x5_reduce
I0502 20:27:15.671890 18045 net.cpp:129] Top shape: 16 32 14 14 (100352)
I0502 20:27:15.671893 18045 net.cpp:137] Memory required for data: 754878092
I0502 20:27:15.671905 18045 layer_factory.hpp:77] Creating layer inception_4d/relu_5x5_reduce
I0502 20:27:15.671914 18045 net.cpp:84] Creating Layer inception_4d/relu_5x5_reduce
I0502 20:27:15.671921 18045 net.cpp:406] inception_4d/relu_5x5_reduce <- inception_4d/5x5_reduce
I0502 20:27:15.671927 18045 net.cpp:367] inception_4d/relu_5x5_reduce -> inception_4d/5x5_reduce (in-place)
I0502 20:27:15.672613 18045 net.cpp:122] Setting up inception_4d/relu_5x5_reduce
I0502 20:27:15.672626 18045 net.cpp:129] Top shape: 16 32 14 14 (100352)
I0502 20:27:15.672628 18045 net.cpp:137] Memory required for data: 755279500
I0502 20:27:15.672633 18045 layer_factory.hpp:77] Creating layer inception_4d/5x5
I0502 20:27:15.672646 18045 net.cpp:84] Creating Layer inception_4d/5x5
I0502 20:27:15.672650 18045 net.cpp:406] inception_4d/5x5 <- inception_4d/5x5_reduce
I0502 20:27:16.233136 18045 net.cpp:380] inception_4d/5x5 -> inception_4d/5x5
I0502 20:27:16.235289 18045 net.cpp:122] Setting up inception_4d/5x5
I0502 20:27:16.235303 18045 net.cpp:129] Top shape: 16 64 14 14 (200704)
I0502 20:27:16.235307 18045 net.cpp:137] Memory required for data: 756082316
I0502 20:27:16.235316 18045 layer_factory.hpp:77] Creating layer inception_4d/relu_5x5
I0502 20:27:16.235327 18045 net.cpp:84] Creating Layer inception_4d/relu_5x5
I0502 20:27:16.235332 18045 net.cpp:406] inception_4d/relu_5x5 <- inception_4d/5x5
I0502 20:27:16.235337 18045 net.cpp:367] inception_4d/relu_5x5 -> inception_4d/5x5 (in-place)
I0502 20:27:16.235867 18045 net.cpp:122] Setting up inception_4d/relu_5x5
I0502 20:27:16.235877 18045 net.cpp:129] Top shape: 16 64 14 14 (200704)
I0502 20:27:16.235882 18045 net.cpp:137] Memory required for data: 756885132
I0502 20:27:16.235885 18045 layer_factory.hpp:77] Creating layer inception_4d/pool
I0502 20:27:16.235894 18045 net.cpp:84] Creating Layer inception_4d/pool
I0502 20:27:16.235900 18045 net.cpp:406] inception_4d/pool <- inception_4c/output_inception_4c/output_0_split_3
I0502 20:27:16.235906 18045 net.cpp:380] inception_4d/pool -> inception_4d/pool
I0502 20:27:16.235949 18045 net.cpp:122] Setting up inception_4d/pool
I0502 20:27:16.235955 18045 net.cpp:129] Top shape: 16 512 14 14 (1605632)
I0502 20:27:16.235976 18045 net.cpp:137] Memory required for data: 763307660
I0502 20:27:16.235981 18045 layer_factory.hpp:77] Creating layer inception_4d/pool_proj
I0502 20:27:16.235991 18045 net.cpp:84] Creating Layer inception_4d/pool_proj
I0502 20:27:16.235996 18045 net.cpp:406] inception_4d/pool_proj <- inception_4d/pool
I0502 20:27:16.236003 18045 net.cpp:380] inception_4d/pool_proj -> inception_4d/pool_proj
I0502 20:27:16.237756 18045 net.cpp:122] Setting up inception_4d/pool_proj
I0502 20:27:16.237766 18045 net.cpp:129] Top shape: 16 64 14 14 (200704)
I0502 20:27:16.237771 18045 net.cpp:137] Memory required for data: 764110476
I0502 20:27:16.237778 18045 layer_factory.hpp:77] Creating layer inception_4d/relu_pool_proj
I0502 20:27:16.237784 18045 net.cpp:84] Creating Layer inception_4d/relu_pool_proj
I0502 20:27:16.237790 18045 net.cpp:406] inception_4d/relu_pool_proj <- inception_4d/pool_proj
I0502 20:27:16.237797 18045 net.cpp:367] inception_4d/relu_pool_proj -> inception_4d/pool_proj (in-place)
I0502 20:27:16.238325 18045 net.cpp:122] Setting up inception_4d/relu_pool_proj
I0502 20:27:16.238337 18045 net.cpp:129] Top shape: 16 64 14 14 (200704)
I0502 20:27:16.238342 18045 net.cpp:137] Memory required for data: 764913292
I0502 20:27:16.238345 18045 layer_factory.hpp:77] Creating layer inception_4d/output
I0502 20:27:16.238353 18045 net.cpp:84] Creating Layer inception_4d/output
I0502 20:27:16.238358 18045 net.cpp:406] inception_4d/output <- inception_4d/1x1
I0502 20:27:16.238363 18045 net.cpp:406] inception_4d/output <- inception_4d/3x3
I0502 20:27:16.238368 18045 net.cpp:406] inception_4d/output <- inception_4d/5x5
I0502 20:27:16.238371 18045 net.cpp:406] inception_4d/output <- inception_4d/pool_proj
I0502 20:27:16.238377 18045 net.cpp:380] inception_4d/output -> inception_4d/output
I0502 20:27:16.238405 18045 net.cpp:122] Setting up inception_4d/output
I0502 20:27:16.238411 18045 net.cpp:129] Top shape: 16 528 14 14 (1655808)
I0502 20:27:16.238415 18045 net.cpp:137] Memory required for data: 771536524
I0502 20:27:16.238418 18045 layer_factory.hpp:77] Creating layer inception_4d/output_inception_4d/output_0_split
I0502 20:27:16.238427 18045 net.cpp:84] Creating Layer inception_4d/output_inception_4d/output_0_split
I0502 20:27:16.238431 18045 net.cpp:406] inception_4d/output_inception_4d/output_0_split <- inception_4d/output
I0502 20:27:16.238437 18045 net.cpp:380] inception_4d/output_inception_4d/output_0_split -> inception_4d/output_inception_4d/output_0_split_0
I0502 20:27:16.238445 18045 net.cpp:380] inception_4d/output_inception_4d/output_0_split -> inception_4d/output_inception_4d/output_0_split_1
I0502 20:27:16.238451 18045 net.cpp:380] inception_4d/output_inception_4d/output_0_split -> inception_4d/output_inception_4d/output_0_split_2
I0502 20:27:16.238458 18045 net.cpp:380] inception_4d/output_inception_4d/output_0_split -> inception_4d/output_inception_4d/output_0_split_3
I0502 20:27:16.238464 18045 net.cpp:380] inception_4d/output_inception_4d/output_0_split -> inception_4d/output_inception_4d/output_0_split_4
I0502 20:27:16.238559 18045 net.cpp:122] Setting up inception_4d/output_inception_4d/output_0_split
I0502 20:27:16.238566 18045 net.cpp:129] Top shape: 16 528 14 14 (1655808)
I0502 20:27:16.238571 18045 net.cpp:129] Top shape: 16 528 14 14 (1655808)
I0502 20:27:16.238575 18045 net.cpp:129] Top shape: 16 528 14 14 (1655808)
I0502 20:27:16.238579 18045 net.cpp:129] Top shape: 16 528 14 14 (1655808)
I0502 20:27:16.238584 18045 net.cpp:129] Top shape: 16 528 14 14 (1655808)
I0502 20:27:16.238586 18045 net.cpp:137] Memory required for data: 804652684
I0502 20:27:16.238590 18045 layer_factory.hpp:77] Creating layer loss2/ave_pool
I0502 20:27:16.238596 18045 net.cpp:84] Creating Layer loss2/ave_pool
I0502 20:27:16.238601 18045 net.cpp:406] loss2/ave_pool <- inception_4d/output_inception_4d/output_0_split_0
I0502 20:27:16.238610 18045 net.cpp:380] loss2/ave_pool -> loss2/ave_pool
I0502 20:27:16.247130 18045 net.cpp:122] Setting up loss2/ave_pool
I0502 20:27:16.247146 18045 net.cpp:129] Top shape: 16 528 4 4 (135168)
I0502 20:27:16.247169 18045 net.cpp:137] Memory required for data: 805193356
I0502 20:27:16.247174 18045 layer_factory.hpp:77] Creating layer loss2/conv
I0502 20:27:16.247189 18045 net.cpp:84] Creating Layer loss2/conv
I0502 20:27:16.247195 18045 net.cpp:406] loss2/conv <- loss2/ave_pool
I0502 20:27:16.247201 18045 net.cpp:380] loss2/conv -> loss2/conv
I0502 20:27:16.249336 18045 net.cpp:122] Setting up loss2/conv
I0502 20:27:16.249348 18045 net.cpp:129] Top shape: 16 128 4 4 (32768)
I0502 20:27:16.249353 18045 net.cpp:137] Memory required for data: 805324428
I0502 20:27:16.249362 18045 layer_factory.hpp:77] Creating layer loss2/relu_conv
I0502 20:27:16.249370 18045 net.cpp:84] Creating Layer loss2/relu_conv
I0502 20:27:16.249375 18045 net.cpp:406] loss2/relu_conv <- loss2/conv
I0502 20:27:16.249382 18045 net.cpp:367] loss2/relu_conv -> loss2/conv (in-place)
I0502 20:27:16.249909 18045 net.cpp:122] Setting up loss2/relu_conv
I0502 20:27:16.249920 18045 net.cpp:129] Top shape: 16 128 4 4 (32768)
I0502 20:27:16.249924 18045 net.cpp:137] Memory required for data: 805455500
I0502 20:27:16.249928 18045 layer_factory.hpp:77] Creating layer loss2/fc
I0502 20:27:16.249938 18045 net.cpp:84] Creating Layer loss2/fc
I0502 20:27:16.249941 18045 net.cpp:406] loss2/fc <- loss2/conv
I0502 20:27:16.249949 18045 net.cpp:380] loss2/fc -> loss2/fc
I0502 20:27:16.261932 18045 net.cpp:122] Setting up loss2/fc
I0502 20:27:16.261946 18045 net.cpp:129] Top shape: 16 1024 (16384)
I0502 20:27:16.261950 18045 net.cpp:137] Memory required for data: 805521036
I0502 20:27:16.261960 18045 layer_factory.hpp:77] Creating layer loss2/relu_fc
I0502 20:27:16.261968 18045 net.cpp:84] Creating Layer loss2/relu_fc
I0502 20:27:16.261974 18045 net.cpp:406] loss2/relu_fc <- loss2/fc
I0502 20:27:16.261979 18045 net.cpp:367] loss2/relu_fc -> loss2/fc (in-place)
I0502 20:27:16.262593 18045 net.cpp:122] Setting up loss2/relu_fc
I0502 20:27:16.262603 18045 net.cpp:129] Top shape: 16 1024 (16384)
I0502 20:27:16.262605 18045 net.cpp:137] Memory required for data: 805586572
I0502 20:27:16.262609 18045 layer_factory.hpp:77] Creating layer loss2/drop_fc
I0502 20:27:16.262617 18045 net.cpp:84] Creating Layer loss2/drop_fc
I0502 20:27:16.262621 18045 net.cpp:406] loss2/drop_fc <- loss2/fc
I0502 20:27:16.262629 18045 net.cpp:367] loss2/drop_fc -> loss2/fc (in-place)
I0502 20:27:16.262655 18045 net.cpp:122] Setting up loss2/drop_fc
I0502 20:27:16.262660 18045 net.cpp:129] Top shape: 16 1024 (16384)
I0502 20:27:16.262665 18045 net.cpp:137] Memory required for data: 805652108
I0502 20:27:16.262668 18045 layer_factory.hpp:77] Creating layer loss2/classifier
I0502 20:27:16.262678 18045 net.cpp:84] Creating Layer loss2/classifier
I0502 20:27:16.262682 18045 net.cpp:406] loss2/classifier <- loss2/fc
I0502 20:27:16.262691 18045 net.cpp:380] loss2/classifier -> loss2/classifier
I0502 20:27:16.264343 18045 net.cpp:122] Setting up loss2/classifier
I0502 20:27:16.264353 18045 net.cpp:129] Top shape: 16 196 (3136)
I0502 20:27:16.264355 18045 net.cpp:137] Memory required for data: 805664652
I0502 20:27:16.264362 18045 layer_factory.hpp:77] Creating layer loss2/classifier_loss2/classifier_0_split
I0502 20:27:16.264370 18045 net.cpp:84] Creating Layer loss2/classifier_loss2/classifier_0_split
I0502 20:27:16.264374 18045 net.cpp:406] loss2/classifier_loss2/classifier_0_split <- loss2/classifier
I0502 20:27:16.264381 18045 net.cpp:380] loss2/classifier_loss2/classifier_0_split -> loss2/classifier_loss2/classifier_0_split_0
I0502 20:27:16.264389 18045 net.cpp:380] loss2/classifier_loss2/classifier_0_split -> loss2/classifier_loss2/classifier_0_split_1
I0502 20:27:16.264397 18045 net.cpp:380] loss2/classifier_loss2/classifier_0_split -> loss2/classifier_loss2/classifier_0_split_2
I0502 20:27:16.264438 18045 net.cpp:122] Setting up loss2/classifier_loss2/classifier_0_split
I0502 20:27:16.264443 18045 net.cpp:129] Top shape: 16 196 (3136)
I0502 20:27:16.264447 18045 net.cpp:129] Top shape: 16 196 (3136)
I0502 20:27:16.264451 18045 net.cpp:129] Top shape: 16 196 (3136)
I0502 20:27:16.264480 18045 net.cpp:137] Memory required for data: 805702284
I0502 20:27:16.264484 18045 layer_factory.hpp:77] Creating layer loss2/loss
I0502 20:27:16.264492 18045 net.cpp:84] Creating Layer loss2/loss
I0502 20:27:16.264497 18045 net.cpp:406] loss2/loss <- loss2/classifier_loss2/classifier_0_split_0
I0502 20:27:16.264503 18045 net.cpp:406] loss2/loss <- label_val-data_1_split_3
…
I0502 20:27:16.265048 18045 net.cpp:122] Setting up loss2/top-5
I0502 20:27:16.265051 18045 net.cpp:129] Top shape: (1)
I0502 20:27:16.265054 18045 net.cpp:137] Memory required for data: 805702296
I0502 20:27:16.265058 18045 layer_factory.hpp:77] Creating layer inception_4e/1x1
I0502 20:27:16.265069 18045 net.cpp:84] Creating Layer inception_4e/1x1
I0502 20:27:16.265074 18045 net.cpp:406] inception_4e/1x1 <- inception_4d/output_inception_4d/output_0_split_1
I0502 20:27:16.265081 18045 net.cpp:380] inception_4e/1x1 -> inception_4e/1x1
I0502 20:27:16.267506 18045 net.cpp:122] Setting up inception_4e/1x1
I0502 20:27:16.267518 18045 net.cpp:129] Top shape: 16 256 14 14 (802816)
I0502 20:27:16.267521 18045 net.cpp:137] Memory required for data: 808913560
I0502 20:27:16.267529 18045 layer_factory.hpp:77] Creating layer inception_4e/relu_1x1
I0502 20:27:16.267537 18045 net.cpp:84] Creating Layer inception_4e/relu_1x1
I0502 20:27:16.267542 18045 net.cpp:406] inception_4e/relu_1x1 <- inception_4e/1x1
I0502 20:27:16.267549 18045 net.cpp:367] inception_4e/relu_1x1 -> inception_4e/1x1 (in-place)
I0502 20:27:16.269786 18045 net.cpp:122] Setting up inception_4e/relu_1x1
I0502 20:27:16.269800 18045 net.cpp:129] Top shape: 16 256 14 14 (802816)
I0502 20:27:16.269805 18045 net.cpp:137] Memory required for data: 812124824
I0502 20:27:16.269810 18045 layer_factory.hpp:77] Creating layer inception_4e/3x3_reduce
I0502 20:27:16.269853 18045 net.cpp:84] Creating Layer inception_4e/3x3_reduce
I0502 20:27:16.269858 18045 net.cpp:406] inception_4e/3x3_reduce <- inception_4d/output_inception_4d/output_0_split_2
I0502 20:27:16.269866 18045 net.cpp:380] inception_4e/3x3_reduce -> inception_4e/3x3_reduce
I0502 20:27:16.273665 18045 net.cpp:122] Setting up inception_4e/3x3_reduce
I0502 20:27:16.273676 18045 net.cpp:129] Top shape: 16 160 14 14 (501760)
I0502 20:27:16.273680 18045 net.cpp:137] Memory required for data: 814131864
I0502 20:27:16.273689 18045 layer_factory.hpp:77] Creating layer inception_4e/relu_3x3_reduce
I0502 20:27:16.273699 18045 net.cpp:84] Creating Layer inception_4e/relu_3x3_reduce
I0502 20:27:16.273705 18045 net.cpp:406] inception_4e/relu_3x3_reduce <- inception_4e/3x3_reduce
I0502 20:27:16.273710 18045 net.cpp:367] inception_4e/relu_3x3_reduce -> inception_4e/3x3_reduce (in-place)
I0502 20:27:16.274243 18045 net.cpp:122] Setting up inception_4e/relu_3x3_reduce
I0502 20:27:16.274255 18045 net.cpp:129] Top shape: 16 160 14 14 (501760)
I0502 20:27:16.274258 18045 net.cpp:137] Memory required for data: 816138904
I0502 20:27:16.274264 18045 layer_factory.hpp:77] Creating layer inception_4e/3x3
I0502 20:27:16.274276 18045 net.cpp:84] Creating Layer inception_4e/3x3
I0502 20:27:16.274281 18045 net.cpp:406] inception_4e/3x3 <- inception_4e/3x3_reduce
I0502 20:27:16.274289 18045 net.cpp:380] inception_4e/3x3 -> inception_4e/3x3
I0502 20:27:16.280500 18045 net.cpp:122] Setting up inception_4e/3x3
I0502 20:27:16.280514 18045 net.cpp:129] Top shape: 16 320 14 14 (1003520)
I0502 20:27:16.280519 18045 net.cpp:137] Memory required for data: 820152984
I0502 20:27:16.280529 18045 layer_factory.hpp:77] Creating layer inception_4e/relu_3x3
I0502 20:27:16.280535 18045 net.cpp:84] Creating Layer inception_4e/relu_3x3
I0502 20:27:16.280541 18045 net.cpp:406] inception_4e/relu_3x3 <- inception_4e/3x3
I0502 20:27:16.280550 18045 net.cpp:367] inception_4e/relu_3x3 -> inception_4e/3x3 (in-place)
I0502 20:27:16.281100 18045 net.cpp:122] Setting up inception_4e/relu_3x3
I0502 20:27:16.281111 18045 net.cpp:129] Top shape: 16 320 14 14 (1003520)
I0502 20:27:16.281116 18045 net.cpp:137] Memory required for data: 824167064
I0502 20:27:16.281121 18045 layer_factory.hpp:77] Creating layer inception_4e/5x5_reduce
I0502 20:27:16.281131 18045 net.cpp:84] Creating Layer inception_4e/5x5_reduce
I0502 20:27:16.281136 18045 net.cpp:406] inception_4e/5x5_reduce <- inception_4d/output_inception_4d/output_0_split_3
I0502 20:27:16.281144 18045 net.cpp:380] inception_4e/5x5_reduce -> inception_4e/5x5_reduce
I0502 20:27:16.284626 18045 net.cpp:122] Setting up inception_4e/5x5_reduce
I0502 20:27:16.284642 18045 net.cpp:129] Top shape: 16 32 14 14 (100352)
I0502 20:27:16.284647 18045 net.cpp:137] Memory required for data: 824568472
I0502 20:27:16.284657 18045 layer_factory.hpp:77] Creating layer inception_4e/relu_5x5_reduce
I0502 20:27:16.284667 18045 net.cpp:84] Creating Layer inception_4e/relu_5x5_reduce
I0502 20:27:16.284672 18045 net.cpp:406] inception_4e/relu_5x5_reduce <- inception_4e/5x5_reduce
I0502 20:27:16.284679 18045 net.cpp:367] inception_4e/relu_5x5_reduce -> inception_4e/5x5_reduce (in-place)
I0502 20:27:16.285212 18045 net.cpp:122] Setting up inception_4e/relu_5x5_reduce
I0502 20:27:16.285223 18045 net.cpp:129] Top shape: 16 32 14 14 (100352)
I0502 20:27:16.285226 18045 net.cpp:137] Memory required for data: 824969880
I0502 20:27:16.285230 18045 layer_factory.hpp:77] Creating layer inception_4e/5x5
I0502 20:27:16.285243 18045 net.cpp:84] Creating Layer inception_4e/5x5
I0502 20:27:16.285248 18045 net.cpp:406] inception_4e/5x5 <- inception_4e/5x5_reduce
I0502 20:27:16.285255 18045 net.cpp:380] inception_4e/5x5 -> inception_4e/5x5
I0502 20:27:16.287600 18045 net.cpp:122] Setting up inception_4e/5x5
I0502 20:27:16.287616 18045 net.cpp:129] Top shape: 16 128 14 14 (401408)
I0502 20:27:16.287621 18045 net.cpp:137] Memory required for data: 826575512
I0502 20:27:16.287631 18045 layer_factory.hpp:77] Creating layer inception_4e/relu_5x5
I0502 20:27:16.287639 18045 net.cpp:84] Creating Layer inception_4e/relu_5x5
I0502 20:27:16.287647 18045 net.cpp:406] inception_4e/relu_5x5 <- inception_4e/5x5
I0502 20:27:16.287653 18045 net.cpp:367] inception_4e/relu_5x5 -> inception_4e/5x5 (in-place)
I0502 20:27:16.288064 18045 net.cpp:122] Setting up inception_4e/relu_5x5
I0502 20:27:16.288077 18045 net.cpp:129] Top shape: 16 128 14 14 (401408)
I0502 20:27:16.288084 18045 net.cpp:137] Memory required for data: 828181144
I0502 20:27:16.288089 18045 layer_factory.hpp:77] Creating layer inception_4e/pool
I0502 20:27:16.288100 18045 net.cpp:84] Creating Layer inception_4e/pool
I0502 20:27:16.288106 18045 net.cpp:406] inception_4e/pool <- inception_4d/output_inception_4d/output_0_split_4
I0502 20:27:16.288116 18045 net.cpp:380] inception_4e/pool -> inception_4e/pool
I0502 20:27:16.288169 18045 net.cpp:122] Setting up inception_4e/pool
I0502 20:27:16.288200 18045 net.cpp:129] Top shape: 16 528 14 14 (1655808)
I0502 20:27:16.288205 18045 net.cpp:137] Memory required for data: 834804376
I0502 20:27:16.288210 18045 layer_factory.hpp:77] Creating layer inception_4e/pool_proj
I0502 20:27:16.288228 18045 net.cpp:84] Creating Layer inception_4e/pool_proj
I0502 20:27:16.288233 18045 net.cpp:406] inception_4e/pool_proj <- inception_4e/pool
I0502 20:27:16.288242 18045 net.cpp:380] inception_4e/pool_proj -> inception_4e/pool_proj
I0502 20:27:16.291337 18045 net.cpp:122] Setting up inception_4e/pool_proj
I0502 20:27:16.291352 18045 net.cpp:129] Top shape: 16 128 14 14 (401408)
I0502 20:27:16.291357 18045 net.cpp:137] Memory required for data: 836410008
I0502 20:27:16.291366 18045 layer_factory.hpp:77] Creating layer inception_4e/relu_pool_proj
I0502 20:27:16.291378 18045 net.cpp:84] Creating Layer inception_4e/relu_pool_proj
I0502 20:27:16.291383 18045 net.cpp:406] inception_4e/relu_pool_proj <- inception_4e/pool_proj
I0502 20:27:16.291390 18045 net.cpp:367] inception_4e/relu_pool_proj -> inception_4e/pool_proj (in-place)
I0502 20:27:16.294298 18045 net.cpp:122] Setting up inception_4e/relu_pool_proj
I0502 20:27:16.294319 18045 net.cpp:129] Top shape: 16 128 14 14 (401408)
I0502 20:27:16.294323 18045 net.cpp:137] Memory required for data: 838015640
I0502 20:27:16.294329 18045 layer_factory.hpp:77] Creating layer inception_4e/output
I0502 20:27:16.294342 18045 net.cpp:84] Creating Layer inception_4e/output
I0502 20:27:16.294349 18045 net.cpp:406] inception_4e/output <- inception_4e/1x1
I0502 20:27:16.294358 18045 net.cpp:406] inception_4e/output <- inception_4e/3x3
I0502 20:27:16.294363 18045 net.cpp:406] inception_4e/output <- inception_4e/5x5
I0502 20:27:16.294369 18045 net.cpp:406] inception_4e/output <- inception_4e/pool_proj
I0502 20:27:16.294378 18045 net.cpp:380] inception_4e/output -> inception_4e/output
I0502 20:27:16.294422 18045 net.cpp:122] Setting up inception_4e/output
I0502 20:27:16.294430 18045 net.cpp:129] Top shape: 16 832 14 14 (2609152)
I0502 20:27:16.294435 18045 net.cpp:137] Memory required for data: 848452248
I0502 20:27:16.294440 18045 layer_factory.hpp:77] Creating layer pool4/3x3_s2
I0502 20:27:16.294450 18045 net.cpp:84] Creating Layer pool4/3x3_s2
I0502 20:27:16.294454 18045 net.cpp:406] pool4/3x3_s2 <- inception_4e/output
I0502 20:27:16.294464 18045 net.cpp:380] pool4/3x3_s2 -> pool4/3x3_s2
I0502 20:27:16.294549 18045 net.cpp:122] Setting up pool4/3x3_s2
I0502 20:27:16.294559 18045 net.cpp:129] Top shape: 16 832 7 7 (652288)
I0502 20:27:16.294564 18045 net.cpp:137] Memory required for data: 851061400
I0502 20:27:16.294569 18045 layer_factory.hpp:77] Creating layer pool4/3x3_s2_pool4/3x3_s2_0_split
I0502 20:27:16.294579 18045 net.cpp:84] Creating Layer pool4/3x3_s2_pool4/3x3_s2_0_split
I0502 20:27:16.294584 18045 net.cpp:406] pool4/3x3_s2_pool4/3x3_s2_0_split <- pool4/3x3_s2
I0502 20:27:16.294591 18045 net.cpp:380] pool4/3x3_s2_pool4/3x3_s2_0_split -> pool4/3x3_s2_pool4/3x3_s2_0_split_0
I0502 20:27:16.294600 18045 net.cpp:380] pool4/3x3_s2_pool4/3x3_s2_0_split -> pool4/3x3_s2_pool4/3x3_s2_0_split_1
I0502 20:27:16.294608 18045 net.cpp:380] pool4/3x3_s2_pool4/3x3_s2_0_split -> pool4/3x3_s2_pool4/3x3_s2_0_split_2
I0502 20:27:16.294647 18045 net.cpp:380] pool4/3x3_s2_pool4/3x3_s2_0_split -> pool4/3x3_s2_pool4/3x3_s2_0_split_3
I0502 20:27:16.294708 18045 net.cpp:122] Setting up pool4/3x3_s2_pool4/3x3_s2_0_split
I0502 20:27:16.294716 18045 net.cpp:129] Top shape: 16 832 7 7 (652288)
I0502 20:27:16.294723 18045 net.cpp:129] Top shape: 16 832 7 7 (652288)
I0502 20:27:16.294729 18045 net.cpp:129] Top shape: 16 832 7 7 (652288)
I0502 20:27:16.294735 18045 net.cpp:129] Top shape: 16 832 7 7 (652288)
I0502 20:27:16.294740 18045 net.cpp:137] Memory required for data: 861498008
I0502 20:27:16.294744 18045 layer_factory.hpp:77] Creating layer inception_5a/1x1
I0502 20:27:16.294760 18045 net.cpp:84] Creating Layer inception_5a/1x1
I0502 20:27:16.294766 18045 net.cpp:406] inception_5a/1x1 <- pool4/3x3_s2_pool4/3x3_s2_0_split_0
I0502 20:27:16.294773 18045 net.cpp:380] inception_5a/1x1 -> inception_5a/1x1
I0502 20:27:16.300860 18045 net.cpp:122] Setting up inception_5a/1x1
I0502 20:27:16.300884 18045 net.cpp:129] Top shape: 16 256 7 7 (200704)
I0502 20:27:16.300889 18045 net.cpp:137] Memory required for data: 862300824
I0502 20:27:16.300900 18045 layer_factory.hpp:77] Creating layer inception_5a/relu_1x1
I0502 20:27:16.300913 18045 net.cpp:84] Creating Layer inception_5a/relu_1x1
I0502 20:27:16.300920 18045 net.cpp:406] inception_5a/relu_1x1 <- inception_5a/1x1
I0502 20:27:16.300928 18045 net.cpp:367] inception_5a/relu_1x1 -> inception_5a/1x1 (in-place)
I0502 20:27:16.301625 18045 net.cpp:122] Setting up inception_5a/relu_1x1
I0502 20:27:16.301637 18045 net.cpp:129] Top shape: 16 256 7 7 (200704)
I0502 20:27:16.301642 18045 net.cpp:137] Memory required for data: 863103640
I0502 20:27:16.301647 18045 layer_factory.hpp:77] Creating layer inception_5a/3x3_reduce
I0502 20:27:16.301661 18045 net.cpp:84] Creating Layer inception_5a/3x3_reduce
I0502 20:27:16.301668 18045 net.cpp:406] inception_5a/3x3_reduce <- pool4/3x3_s2_pool4/3x3_s2_0_split_1
I0502 20:27:16.301679 18045 net.cpp:380] inception_5a/3x3_reduce -> inception_5a/3x3_reduce
I0502 20:27:16.306246 18045 net.cpp:122] Setting up inception_5a/3x3_reduce
I0502 20:27:16.306260 18045 net.cpp:129] Top shape: 16 160 7 7 (125440)
I0502 20:27:16.306265 18045 net.cpp:137] Memory required for data: 863605400
I0502 20:27:16.306273 18045 layer_factory.hpp:77] Creating layer inception_5a/relu_3x3_reduce
I0502 20:27:16.306283 18045 net.cpp:84] Creating Layer inception_5a/relu_3x3_reduce
I0502 20:27:16.306289 18045 net.cpp:406] inception_5a/relu_3x3_reduce <- inception_5a/3x3_reduce
I0502 20:27:16.306298 18045 net.cpp:367] inception_5a/relu_3x3_reduce -> inception_5a/3x3_reduce (in-place)
I0502 20:27:16.328058 18045 net.cpp:122] Setting up inception_5a/relu_3x3_reduce
I0502 20:27:16.328080 18045 net.cpp:129] Top shape: 16 160 7 7 (125440)
I0502 20:27:16.328085 18045 net.cpp:137] Memory required for data: 864107160
I0502 20:27:16.328091 18045 layer_factory.hpp:77] Creating layer inception_5a/3x3
I0502 20:27:16.328109 18045 net.cpp:84] Creating Layer inception_5a/3x3
I0502 20:27:16.328115 18045 net.cpp:406] inception_5a/3x3 <- inception_5a/3x3_reduce
I0502 20:27:16.328126 18045 net.cpp:380] inception_5a/3x3 -> inception_5a/3x3
I0502 20:27:16.340116 18045 net.cpp:122] Setting up inception_5a/3x3
I0502 20:27:16.340142 18045 net.cpp:129] Top shape: 16 320 7 7 (250880)
I0502 20:27:16.340147 18045 net.cpp:137] Memory required for data: 865110680
I0502 20:27:16.340159 18045 layer_factory.hpp:77] Creating layer inception_5a/relu_3x3
I0502 20:27:16.340173 18045 net.cpp:84] Creating Layer inception_5a/relu_3x3
I0502 20:27:16.340180 18045 net.cpp:406] inception_5a/relu_3x3 <- inception_5a/3x3
I0502 20:27:16.340188 18045 net.cpp:367] inception_5a/relu_3x3 -> inception_5a/3x3 (in-place)
I0502 20:27:16.340934 18045 net.cpp:122] Setting up inception_5a/relu_3x3
I0502 20:27:16.340946 18045 net.cpp:129] Top shape: 16 320 7 7 (250880)
I0502 20:27:16.340951 18045 net.cpp:137] Memory required for data: 866114200
I0502 20:27:16.340956 18045 layer_factory.hpp:77] Creating layer inception_5a/5x5_reduce
I0502 20:27:16.340972 18045 net.cpp:84] Creating Layer inception_5a/5x5_reduce
I0502 20:27:16.340978 18045 net.cpp:406] inception_5a/5x5_reduce <- pool4/3x3_s2_pool4/3x3_s2_0_split_2
I0502 20:27:16.340988 18045 net.cpp:380] inception_5a/5x5_reduce -> inception_5a/5x5_reduce
I0502 20:27:16.343072 18045 net.cpp:122] Setting up inception_5a/5x5_reduce
I0502 20:27:16.343083 18045 net.cpp:129] Top shape: 16 32 7 7 (25088)
I0502 20:27:16.343087 18045 net.cpp:137] Memory required for data: 866214552
I0502 20:27:16.343093 18045 layer_factory.hpp:77] Creating layer inception_5a/relu_5x5_reduce
I0502 20:27:16.343101 18045 net.cpp:84] Creating Layer inception_5a/relu_5x5_reduce
I0502 20:27:16.343104 18045 net.cpp:406] inception_5a/relu_5x5_reduce <- inception_5a/5x5_reduce
I0502 20:27:16.343111 18045 net.cpp:367] inception_5a/relu_5x5_reduce -> inception_5a/5x5_reduce (in-place)
I0502 20:27:16.343487 18045 net.cpp:122] Setting up inception_5a/relu_5x5_reduce
I0502 20:27:16.343495 18045 net.cpp:129] Top shape: 16 32 7 7 (25088)
I0502 20:27:16.343499 18045 net.cpp:137] Memory required for data: 866314904
I0502 20:27:16.343503 18045 layer_factory.hpp:77] Creating layer inception_5a/5x5
I0502 20:27:16.343514 18045 net.cpp:84] Creating Layer inception_5a/5x5
I0502 20:27:16.343518 18045 net.cpp:406] inception_5a/5x5 <- inception_5a/5x5_reduce
I0502 20:27:16.343525 18045 net.cpp:380] inception_5a/5x5 -> inception_5a/5x5
I0502 20:27:16.349957 18045 net.cpp:122] Setting up inception_5a/5x5
I0502 20:27:16.349972 18045 net.cpp:129] Top shape: 16 128 7 7 (100352)
I0502 20:27:16.349978 18045 net.cpp:137] Memory required for data: 866716312
I0502 20:27:16.349987 18045 layer_factory.hpp:77] Creating layer inception_5a/relu_5x5
I0502 20:27:16.349999 18045 net.cpp:84] Creating Layer inception_5a/relu_5x5
I0502 20:27:16.350006 18045 net.cpp:406] inception_5a/relu_5x5 <- inception_5a/5x5
I0502 20:27:16.350014 18045 net.cpp:367] inception_5a/relu_5x5 -> inception_5a/5x5 (in-place)
I0502 20:27:16.353138 18045 net.cpp:122] Setting up inception_5a/relu_5x5
I0502 20:27:16.353154 18045 net.cpp:129] Top shape: 16 128 7 7 (100352)
I0502 20:27:16.353159 18045 net.cpp:137] Memory required for data: 867117720
I0502 20:27:16.353165 18045 layer_factory.hpp:77] Creating layer inception_5a/pool
I0502 20:27:16.353176 18045 net.cpp:84] Creating Layer inception_5a/pool
I0502 20:27:16.353185 18045 net.cpp:406] inception_5a/pool <- pool4/3x3_s2_pool4/3x3_s2_0_split_3
I0502 20:27:16.353199 18045 net.cpp:380] inception_5a/pool -> inception_5a/pool
I0502 20:27:16.353271 18045 net.cpp:122] Setting up inception_5a/pool
I0502 20:27:16.353284 18045 net.cpp:129] Top shape: 16 832 7 7 (652288)
I0502 20:27:16.353289 18045 net.cpp:137] Memory required for data: 869726872
I0502 20:27:16.353302 18045 layer_factory.hpp:77] Creating layer inception_5a/pool_proj
I0502 20:27:16.353318 18045 net.cpp:84] Creating Layer inception_5a/pool_proj
I0502 20:27:16.353327 18045 net.cpp:406] inception_5a/pool_proj <- inception_5a/pool
I0502 20:27:16.353338 18045 net.cpp:380] inception_5a/pool_proj -> inception_5a/pool_proj
I0502 20:27:16.357576 18045 net.cpp:122] Setting up inception_5a/pool_proj
I0502 20:27:16.357591 18045 net.cpp:129] Top shape: 16 128 7 7 (100352)
I0502 20:27:16.357597 18045 net.cpp:137] Memory required for data: 870128280
I0502 20:27:16.357607 18045 layer_factory.hpp:77] Creating layer inception_5a/relu_pool_proj
I0502 20:27:16.357620 18045 net.cpp:84] Creating Layer inception_5a/relu_pool_proj
I0502 20:27:16.357626 18045 net.cpp:406] inception_5a/relu_pool_proj <- inception_5a/pool_proj
I0502 20:27:16.357638 18045 net.cpp:367] inception_5a/relu_pool_proj -> inception_5a/pool_proj (in-place)
I0502 20:27:16.358412 18045 net.cpp:122] Setting up inception_5a/relu_pool_proj
I0502 20:27:16.358424 18045 net.cpp:129] Top shape: 16 128 7 7 (100352)
I0502 20:27:16.358429 18045 net.cpp:137] Memory required for data: 870529688
I0502 20:27:16.358435 18045 layer_factory.hpp:77] Creating layer inception_5a/output
I0502 20:27:16.358448 18045 net.cpp:84] Creating Layer inception_5a/output
I0502 20:27:16.358454 18045 net.cpp:406] inception_5a/output <- inception_5a/1x1
I0502 20:27:16.358461 18045 net.cpp:406] inception_5a/output <- inception_5a/3x3
I0502 20:27:16.358467 18045 net.cpp:406] inception_5a/output <- inception_5a/5x5
I0502 20:27:16.358474 18045 net.cpp:406] inception_5a/output <- inception_5a/pool_proj
I0502 20:27:16.358513 18045 net.cpp:380] inception_5a/output -> inception_5a/output
I0502 20:27:16.358558 18045 net.cpp:122] Setting up inception_5a/output
I0502 20:27:16.358569 18045 net.cpp:129] Top shape: 16 832 7 7 (652288)
I0502 20:27:16.358574 18045 net.cpp:137] Memory required for data: 873138840
I0502 20:27:16.358579 18045 layer_factory.hpp:77] Creating layer inception_5a/output_inception_5a/output_0_split
I0502 20:27:16.358592 18045 net.cpp:84] Creating Layer inception_5a/output_inception_5a/output_0_split
I0502 20:27:16.358599 18045 net.cpp:406] inception_5a/output_inception_5a/output_0_split <- inception_5a/output
I0502 20:27:16.358633 18045 net.cpp:380] inception_5a/output_inception_5a/output_0_split -> inception_5a/output_inception_5a/output_0_split_0
I0502 20:27:16.358647 18045 net.cpp:380] inception_5a/output_inception_5a/output_0_split -> inception_5a/output_inception_5a/output_0_split_1
I0502 20:27:16.358656 18045 net.cpp:380] inception_5a/output_inception_5a/output_0_split -> inception_5a/output_inception_5a/output_0_split_2
I0502 20:27:16.358665 18045 net.cpp:380] inception_5a/output_inception_5a/output_0_split -> inception_5a/output_inception_5a/output_0_split_3
I0502 20:27:16.358755 18045 net.cpp:122] Setting up inception_5a/output_inception_5a/output_0_split
I0502 20:27:16.358769 18045 net.cpp:129] Top shape: 16 832 7 7 (652288)
I0502 20:27:16.358777 18045 net.cpp:129] Top shape: 16 832 7 7 (652288)
I0502 20:27:16.358781 18045 net.cpp:129] Top shape: 16 832 7 7 (652288)
I0502 20:27:16.358788 18045 net.cpp:129] Top shape: 16 832 7 7 (652288)
I0502 20:27:16.358791 18045 net.cpp:137] Memory required for data: 883575448
I0502 20:27:16.358798 18045 layer_factory.hpp:77] Creating layer inception_5b/1x1
I0502 20:27:16.358809 18045 net.cpp:84] Creating Layer inception_5b/1x1
I0502 20:27:16.358816 18045 net.cpp:406] inception_5b/1x1 <- inception_5a/output_inception_5a/output_0_split_0
I0502 20:27:16.358829 18045 net.cpp:380] inception_5b/1x1 -> inception_5b/1x1
I0502 20:27:16.374281 18045 net.cpp:122] Setting up inception_5b/1x1
I0502 20:27:16.374303 18045 net.cpp:129] Top shape: 16 384 7 7 (301056)
I0502 20:27:16.374308 18045 net.cpp:137] Memory required for data: 884779672
I0502 20:27:16.374320 18045 layer_factory.hpp:77] Creating layer inception_5b/relu_1x1
I0502 20:27:16.374334 18045 net.cpp:84] Creating Layer inception_5b/relu_1x1
I0502 20:27:16.374341 18045 net.cpp:406] inception_5b/relu_1x1 <- inception_5b/1x1
I0502 20:27:16.374351 18045 net.cpp:367] inception_5b/relu_1x1 -> inception_5b/1x1 (in-place)
I0502 20:27:16.376216 18045 net.cpp:122] Setting up inception_5b/relu_1x1
I0502 20:27:16.376230 18045 net.cpp:129] Top shape: 16 384 7 7 (301056)
I0502 20:27:16.376235 18045 net.cpp:137] Memory required for data: 885983896
I0502 20:27:16.376240 18045 layer_factory.hpp:77] Creating layer inception_5b/3x3_reduce
I0502 20:27:16.376256 18045 net.cpp:84] Creating Layer inception_5b/3x3_reduce
I0502 20:27:16.376262 18045 net.cpp:406] inception_5b/3x3_reduce <- inception_5a/output_inception_5a/output_0_split_1
I0502 20:27:16.376271 18045 net.cpp:380] inception_5b/3x3_reduce -> inception_5b/3x3_reduce
I0502 20:27:16.384645 18045 net.cpp:122] Setting up inception_5b/3x3_reduce
I0502 20:27:16.384665 18045 net.cpp:129] Top shape: 16 192 7 7 (150528)
I0502 20:27:16.384672 18045 net.cpp:137] Memory required for data: 886586008
I0502 20:27:16.384683 18045 layer_factory.hpp:77] Creating layer inception_5b/relu_3x3_reduce
I0502 20:27:16.384696 18045 net.cpp:84] Creating Layer inception_5b/relu_3x3_reduce
I0502 20:27:16.384703 18045 net.cpp:406] inception_5b/relu_3x3_reduce <- inception_5b/3x3_reduce
I0502 20:27:16.384713 18045 net.cpp:367] inception_5b/relu_3x3_reduce -> inception_5b/3x3_reduce (in-place)
I0502 20:27:16.385403 18045 net.cpp:122] Setting up inception_5b/relu_3x3_reduce
I0502 20:27:16.385416 18045 net.cpp:129] Top shape: 16 192 7 7 (150528)
I0502 20:27:16.385421 18045 net.cpp:137] Memory required for data: 887188120
I0502 20:27:16.385426 18045 layer_factory.hpp:77] Creating layer inception_5b/3x3
I0502 20:27:16.385447 18045 net.cpp:84] Creating Layer inception_5b/3x3
I0502 20:27:16.385453 18045 net.cpp:406] inception_5b/3x3 <- inception_5b/3x3_reduce
I0502 20:27:16.385463 18045 net.cpp:380] inception_5b/3x3 -> inception_5b/3x3
I0502 20:27:16.395915 18045 net.cpp:122] Setting up inception_5b/3x3
I0502 20:27:16.395931 18045 net.cpp:129] Top shape: 16 384 7 7 (301056)
I0502 20:27:16.395937 18045 net.cpp:137] Memory required for data: 888392344
I0502 20:27:16.395949 18045 layer_factory.hpp:77] Creating layer inception_5b/relu_3x3
I0502 20:27:16.395983 18045 net.cpp:84] Creating Layer inception_5b/relu_3x3
I0502 20:27:16.395992 18045 net.cpp:406] inception_5b/relu_3x3 <- inception_5b/3x3
I0502 20:27:16.395998 18045 net.cpp:367] inception_5b/relu_3x3 -> inception_5b/3x3 (in-place)
I0502 20:27:16.396467 18045 net.cpp:122] Setting up inception_5b/relu_3x3
I0502 20:27:16.396478 18045 net.cpp:129] Top shape: 16 384 7 7 (301056)
I0502 20:27:16.396486 18045 net.cpp:137] Memory required for data: 889596568
I0502 20:27:16.396492 18045 layer_factory.hpp:77] Creating layer inception_5b/5x5_reduce
I0502 20:27:16.396505 18045 net.cpp:84] Creating Layer inception_5b/5x5_reduce
I0502 20:27:16.396512 18045 net.cpp:406] inception_5b/5x5_reduce <- inception_5a/output_inception_5a/output_0_split_2
I0502 20:27:16.396522 18045 net.cpp:380] inception_5b/5x5_reduce -> inception_5b/5x5_reduce
I0502 20:27:16.399278 18045 net.cpp:122] Setting up inception_5b/5x5_reduce
I0502 20:27:16.399291 18045 net.cpp:129] Top shape: 16 48 7 7 (37632)
I0502 20:27:16.399296 18045 net.cpp:137] Memory required for data: 889747096
I0502 20:27:16.399305 18045 layer_factory.hpp:77] Creating layer inception_5b/relu_5x5_reduce
I0502 20:27:16.399314 18045 net.cpp:84] Creating Layer inception_5b/relu_5x5_reduce
I0502 20:27:16.399320 18045 net.cpp:406] inception_5b/relu_5x5_reduce <- inception_5b/5x5_reduce
I0502 20:27:16.399330 18045 net.cpp:367] inception_5b/relu_5x5_reduce -> inception_5b/5x5_reduce (in-place)
I0502 20:27:16.399801 18045 net.cpp:122] Setting up inception_5b/relu_5x5_reduce
I0502 20:27:16.399811 18045 net.cpp:129] Top shape: 16 48 7 7 (37632)
I0502 20:27:16.399818 18045 net.cpp:137] Memory required for data: 889897624
I0502 20:27:16.399823 18045 layer_factory.hpp:77] Creating layer inception_5b/5x5
I0502 20:27:16.399838 18045 net.cpp:84] Creating Layer inception_5b/5x5
I0502 20:27:16.399845 18045 net.cpp:406] inception_5b/5x5 <- inception_5b/5x5_reduce
I0502 20:27:16.399854 18045 net.cpp:380] inception_5b/5x5 -> inception_5b/5x5
I0502 20:27:16.435576 18045 net.cpp:122] Setting up inception_5b/5x5
I0502 20:27:16.435597 18045 net.cpp:129] Top shape: 16 128 7 7 (100352)
I0502 20:27:16.435601 18045 net.cpp:137] Memory required for data: 890299032
I0502 20:27:16.435612 18045 layer_factory.hpp:77] Creating layer inception_5b/relu_5x5
I0502 20:27:16.435623 18045 net.cpp:84] Creating Layer inception_5b/relu_5x5
I0502 20:27:16.435629 18045 net.cpp:406] inception_5b/relu_5x5 <- inception_5b/5x5
I0502 20:27:16.435637 18045 net.cpp:367] inception_5b/relu_5x5 -> inception_5b/5x5 (in-place)
I0502 20:27:16.436194 18045 net.cpp:122] Setting up inception_5b/relu_5x5
I0502 20:27:16.436204 18045 net.cpp:129] Top shape: 16 128 7 7 (100352)
I0502 20:27:16.436209 18045 net.cpp:137] Memory required for data: 890700440
I0502 20:27:16.436213 18045 layer_factory.hpp:77] Creating layer inception_5b/pool
I0502 20:27:16.436223 18045 net.cpp:84] Creating Layer inception_5b/pool
I0502 20:27:16.436228 18045 net.cpp:406] inception_5b/pool <- inception_5a/output_inception_5a/output_0_split_3
I0502 20:27:16.436234 18045 net.cpp:380] inception_5b/pool -> inception_5b/pool
I0502 20:27:16.436277 18045 net.cpp:122] Setting up inception_5b/pool
I0502 20:27:16.436283 18045 net.cpp:129] Top shape: 16 832 7 7 (652288)
I0502 20:27:16.436286 18045 net.cpp:137] Memory required for data: 893309592
I0502 20:27:16.436291 18045 layer_factory.hpp:77] Creating layer inception_5b/pool_proj
I0502 20:27:16.436302 18045 net.cpp:84] Creating Layer inception_5b/pool_proj
I0502 20:27:16.436307 18045 net.cpp:406] inception_5b/pool_proj <- inception_5b/pool
I0502 20:27:16.436314 18045 net.cpp:380] inception_5b/pool_proj -> inception_5b/pool_proj
I0502 20:27:16.438452 18045 net.cpp:122] Setting up inception_5b/pool_proj
I0502 20:27:16.438463 18045 net.cpp:129] Top shape: 16 128 7 7 (100352)
I0502 20:27:16.438467 18045 net.cpp:137] Memory required for data: 893711000
I0502 20:27:16.438474 18045 layer_factory.hpp:77] Creating layer inception_5b/relu_pool_proj
I0502 20:27:16.438513 18045 net.cpp:84] Creating Layer inception_5b/relu_pool_proj
I0502 20:27:16.438539 18045 net.cpp:406] inception_5b/relu_pool_proj <- inception_5b/pool_proj
I0502 20:27:16.438544 18045 net.cpp:367] inception_5b/relu_pool_proj -> inception_5b/pool_proj (in-place)
I0502 20:27:16.439072 18045 net.cpp:122] Setting up inception_5b/relu_pool_proj
I0502 20:27:16.439082 18045 net.cpp:129] Top shape: 16 128 7 7 (100352)
I0502 20:27:16.439086 18045 net.cpp:137] Memory required for data: 894112408
I0502 20:27:16.439090 18045 layer_factory.hpp:77] Creating layer inception_5b/output
I0502 20:27:16.439098 18045 net.cpp:84] Creating Layer inception_5b/output
I0502 20:27:16.439103 18045 net.cpp:406] inception_5b/output <- inception_5b/1x1
I0502 20:27:16.439110 18045 net.cpp:406] inception_5b/output <- inception_5b/3x3
I0502 20:27:16.439114 18045 net.cpp:406] inception_5b/output <- inception_5b/5x5
I0502 20:27:16.439118 18045 net.cpp:406] inception_5b/output <- inception_5b/pool_proj
I0502 20:27:16.439123 18045 net.cpp:380] inception_5b/output -> inception_5b/output
I0502 20:27:16.439153 18045 net.cpp:122] Setting up inception_5b/output
I0502 20:27:16.439159 18045 net.cpp:129] Top shape: 16 1024 7 7 (802816)
I0502 20:27:16.439163 18045 net.cpp:137] Memory required for data: 897323672
I0502 20:27:16.439167 18045 layer_factory.hpp:77] Creating layer pool5/7x7_s1
I0502 20:27:16.439175 18045 net.cpp:84] Creating Layer pool5/7x7_s1
I0502 20:27:16.439179 18045 net.cpp:406] pool5/7x7_s1 <- inception_5b/output
I0502 20:27:16.439188 18045 net.cpp:380] pool5/7x7_s1 -> pool5/7x7_s1
I0502 20:27:16.439721 18045 net.cpp:122] Setting up pool5/7x7_s1
I0502 20:27:16.439731 18045 net.cpp:129] Top shape: 16 1024 1 1 (16384)
I0502 20:27:16.439735 18045 net.cpp:137] Memory required for data: 897389208
I0502 20:27:16.439739 18045 layer_factory.hpp:77] Creating layer pool5/drop_7x7_s1
I0502 20:27:16.439747 18045 net.cpp:84] Creating Layer pool5/drop_7x7_s1
I0502 20:27:16.439752 18045 net.cpp:406] pool5/drop_7x7_s1 <- pool5/7x7_s1
I0502 20:27:16.439759 18045 net.cpp:367] pool5/drop_7x7_s1 -> pool5/7x7_s1 (in-place)
I0502 20:27:16.439781 18045 net.cpp:122] Setting up pool5/drop_7x7_s1
I0502 20:27:16.439786 18045 net.cpp:129] Top shape: 16 1024 1 1 (16384)
I0502 20:27:16.439790 18045 net.cpp:137] Memory required for data: 897454744
I0502 20:27:16.439793 18045 layer_factory.hpp:77] Creating layer loss3/classifier
I0502 20:27:16.439802 18045 net.cpp:84] Creating Layer loss3/classifier
I0502 20:27:16.439808 18045 net.cpp:406] loss3/classifier <- pool5/7x7_s1
I0502 20:27:16.439815 18045 net.cpp:380] loss3/classifier -> loss3/classifier
I0502 20:27:16.441771 18045 net.cpp:122] Setting up loss3/classifier
I0502 20:27:16.441781 18045 net.cpp:129] Top shape: 16 196 (3136)
I0502 20:27:16.441783 18045 net.cpp:137] Memory required for data: 897467288
I0502 20:27:16.441790 18045 layer_factory.hpp:77] Creating layer loss3/classifier_loss3/classifier_0_split
I0502 20:27:16.441798 18045 net.cpp:84] Creating Layer loss3/classifier_loss3/classifier_0_split
I0502 20:27:16.441802 18045 net.cpp:406] loss3/classifier_loss3/classifier_0_split <- loss3/classifier
I0502 20:27:16.441809 18045 net.cpp:380] loss3/classifier_loss3/classifier_0_split -> loss3/classifier_loss3/classifier_0_split_0
I0502 20:27:16.441817 18045 net.cpp:380] loss3/classifier_loss3/classifier_0_split -> loss3/classifier_loss3/classifier_0_split_1
I0502 20:27:16.441824 18045 net.cpp:380] loss3/classifier_loss3/classifier_0_split -> loss3/classifier_loss3/classifier_0_split_2
I0502 20:27:16.441869 18045 net.cpp:122] Setting up loss3/classifier_loss3/classifier_0_split
I0502 20:27:16.441874 18045 net.cpp:129] Top shape: 16 196 (3136)
I0502 20:27:16.441879 18045 net.cpp:129] Top shape: 16 196 (3136)
I0502 20:27:16.441882 18045 net.cpp:129] Top shape: 16 196 (3136)
I0502 20:27:16.441885 18045 net.cpp:137] Memory required for data: 897504920
I0502 20:27:16.441888 18045 layer_factory.hpp:77] Creating layer loss3/loss
I0502 20:27:16.441895 18045 net.cpp:84] Creating Layer loss3/loss
I0502 20:27:16.441898 18045 net.cpp:406] loss3/loss <- loss3/classifier_loss3/classifier_0_split_0
I0502 20:27:16.441916 18045 net.cpp:406] loss3/loss <- label_val-data_1_split_6
…
