…
I0509 20:54:09.383942 17848 net.cpp:294] The NetState phase (0) differed from the phase (1) specified by a rule in layer loss3/top-5
I0509 20:54:09.384755 17848 net.cpp:51] Initializing net from parameters:
state {
phase: TRAIN
level: 0
stage: ""
}
layer {
name: "train-data"
type: "Data"
top: "data"
top: "label"
include {
phase: TRAIN
}
transform_param {
mirror: true
crop_size: 224
mean_value: 115.96062
mean_value: 117.19437
mean_value: 119.79225
}
data_param {
source: "/mnt/bigdisk/AMBDIG8/digits/jobs/20200509-183908-c8eb/train_db"
batch_size: 32
backend: LMDB
}
}
layer {
name: "conv1/7x7_s2"
type: "Convolution"
bottom: "data"
top: "conv1/7x7_s2"
param {
lr_mult: 1
decay_mult: 1
}
param {
lr_mult: 2
decay_mult: 0
}
convolution_param {
num_output: 64
pad: 3
kernel_size: 7
stride: 2
weight_filler {
type: "xavier"
std: 0.1
}
bias_filler {
type: "constant"
value: 0.2
}
}
}
layer {
name: "conv1/relu_7x7"
type: "ReLU"
bottom: "conv1/7x7_s2"
top: "conv1/7x7_s2"
}
layer {
name: "pool1/3x3_s2"
type: "Pooling"
bottom: "conv1/7x7_s2"
top: "pool1/3x3_s2"
pooling_param {
pool: MAX
kernel_size: 3
stride: 2
}
}
layer {
name: "pool1/norm1"
type: "LRN"
bottom: "pool1/3x3_s2"
top: "pool1/norm1"
lrn_param {
local_size: 5
alpha: 0.0001
beta: 0.75
}
}
layer {
name: "conv2/3x3_reduce"
type: "Convolution"
bottom: "pool1/norm1"
top: "conv2/3x3_reduce"
param {
lr_mult: 1
decay_mult: 1
}
param {
lr_mult: 2
decay_mult: 0
}
convolution_param {
num_output: 64
kernel_size: 1
weight_filler {
type: "xavier"
std: 0.1
}
bias_filler {
type: "constant"
value: 0.2
}
}
}
layer {
name: "conv2/relu_3x3_reduce"
type: "ReLU"
bottom: "conv2/3x3_reduce"
top: "conv2/3x3_reduce"
}
layer {
name: "conv2/3x3"
type: "Convolution"
bottom: "conv2/3x3_reduce"
top: "conv2/3x3"
param {
lr_mult: 1
decay_mult: 1
}
param {
lr_mult: 2
decay_mult: 0
}
convolution_param {
num_output: 192
pad: 1
kernel_size: 3
weight_filler {
type: "xavier"
std: 0.03
}
bias_filler {
type: "constant"
value: 0.2
}
}
}
layer {
name: "conv2/relu_3x3"
type: "ReLU"
bottom: "conv2/3x3"
top: "conv2/3x3"
}
layer {
name: "conv2/norm2"
type: "LRN"
bottom: "conv2/3x3"
top: "conv2/norm2"
lrn_param {
local_size: 5
alpha: 0.0001
beta: 0.75
}
}
layer {
name: "pool2/3x3_s2"
type: "Pooling"
bottom: "conv2/norm2"
top: "pool2/3x3_s2"
pooling_param {
pool: MAX
kernel_size: 3
stride: 2
}
}
layer {
name: "inception_3a/1x1"
type: "Convolution"
bottom: "pool2/3x3_s2"
top: "inception_3a/1x1"
param {
lr_mult: 1
decay_mult: 1
}
param {
lr_mult: 2
decay_mult: 0
}
convolution_param {
num_output: 64
kernel_size: 1
weight_filler {
type: "xavier"
std: 0.03
}
bias_filler {
type: "constant"
value: 0.2
}
}
}
layer {
name: "inception_3a/relu_1x1"
type: "ReLU"
bottom: "inception_3a/1x1"
top: "inception_3a/1x1"
}
layer {
name: "inception_3a/3x3_reduce"
type: "Convolution"
bottom: "pool2/3x3_s2"
top: "inception_3a/3x3_reduce"
param {
lr_mult: 1
decay_mult: 1
}
param {
lr_mult: 2
decay_mult: 0
}
convolution_param {
num_output: 96
kernel_size: 1
weight_filler {
type: "xavier"
std: 0.09
}
bias_filler {
type: "constant"
value: 0.2
}
}
}
layer {
name: "inception_3a/relu_3x3_reduce"
type: "ReLU"
bottom: "inception_3a/3x3_reduce"
top: "inception_3a/3x3_reduce"
}
layer {
name: "inception_3a/3x3"
type: "Convolution"
bottom: "inception_3a/3x3_reduce"
top: "inception_3a/3x3"
param {
lr_mult: 1
decay_mult: 1
}
param {
lr_mult: 2
decay_mult: 0
}
convolution_param {
num_output: 128
pad: 1
kernel_size: 3
weight_filler {
type: "xavier"
std: 0.03
}
bias_filler {
type: "constant"
value: 0.2
}
}
}
layer {
name: "inception_3a/relu_3x3"
type: "ReLU"
bottom: "inception_3a/3x3"
top: "inception_3a/3x3"
}
layer {
name: "inception_3a/5x5_reduce"
type: "Convolution"
bottom: "pool2/3x3_s2"
top: "inception_3a/5x5_reduce"
param {
lr_mult: 1
decay_mult: 1
}
param {
lr_mult: 2
decay_mult: 0
}
convolution_param {
num_output: 16
kernel_size: 1
weight_filler {
type: "xavier"
std: 0.2
}
bias_filler {
type: "constant"
value: 0.2
}
}
}
layer {
name: "inception_3a/relu_5x5_reduce"
type: "ReLU"
bottom: "inception_3a/5x5_reduce"
top: "inception_3a/5x5_reduce"
}
layer {
name: "inception_3a/5x5"
type: "Convolution"
bottom: "inception_3a/5x5_reduce"
top: "inception_3a/5x5"
param {
lr_mult: 1
decay_mult: 1
}
param {
lr_mult: 2
decay_mult: 0
}
convolution_param {
num_output: 32
pad: 2
kernel_size: 5
weight_filler {
type: "xavier"
std: 0.03
}
bias_filler {
type: "constant"
value: 0.2
}
}
}
layer {
name: "inception_3a/relu_5x5"
type: "ReLU"
bottom: "inception_3a/5x5"
top: "inception_3a/5x5"
}
layer {
name: "inception_3a/pool"
type: "Pooling"
bottom: "pool2/3x3_s2"
top: "inception_3a/pool"
pooling_param {
pool: MAX
kernel_size: 3
stride: 1
pad: 1
}
}
layer {
name: "inception_3a/pool_proj"
type: "Convolution"
bottom: "inception_3a/pool"
top: "inception_3a/pool_proj"
param {
lr_mult: 1
decay_mult: 1
}
param {
lr_mult: 2
decay_mult: 0
}
convolution_param {
num_output: 32
kernel_size: 1
weight_filler {
type: "xavier"
std: 0.1
}
bias_filler {
type: "constant"
value: 0.2
}
}
}
layer {
name: "inception_3a/relu_pool_proj"
type: "ReLU"
bottom: "inception_3a/pool_proj"
top: "inception_3a/pool_proj"
}
layer {
name: "inception_3a/output"
type: "Concat"
bottom: "inception_3a/1x1"
bottom: "inception_3a/3x3"
bottom: "inception_3a/5x5"
bottom: "inception_3a/pool_proj"
top: "inception_3a/output"
}
layer {
name: "inception_3b/1x1"
type: "Convolution"
bottom: "inception_3a/output"
top: "inception_3b/1x1"
param {
lr_mult: 1
decay_mult: 1
}
param {
lr_mult: 2
decay_mult: 0
}
convolution_param {
num_output: 128
kernel_size: 1
weight_filler {
type: "xavier"
std: 0.03
}
bias_filler {
type: "constant"
value: 0.2
}
}
}
layer {
name: "inception_3b/relu_1x1"
type: "ReLU"
bottom: "inception_3b/1x1"
top: "inception_3b/1x1"
}
layer {
name: "inception_3b/3x3_reduce"
type: "Convolution"
bottom: "inception_3a/output"
top: "inception_3b/3x3_reduce"
param {
lr_mult: 1
decay_mult: 1
}
param {
lr_mult: 2
decay_mult: 0
}
convolution_param {
num_output: 128
kernel_size: 1
weight_filler {
type: "xavier"
std: 0.09
}
bias_filler {
type: "constant"
value: 0.2
}
}
}
layer {
name: "inception_3b/relu_3x3_reduce"
type: "ReLU"
bottom: "inception_3b/3x3_reduce"
top: "inception_3b/3x3_reduce"
}
layer {
name: "inception_3b/3x3"
type: "Convolution"
bottom: "inception_3b/3x3_reduce"
top: "inception_3b/3x3"
param {
lr_mult: 1
decay_mult: 1
}
param {
lr_mult: 2
decay_mult: 0
}
convolution_param {
num_output: 192
pad: 1
kernel_size: 3
weight_filler {
type: "xavier"
std: 0.03
}
bias_filler {
type: "constant"
value: 0.2
}
}
}
layer {
name: "inception_3b/relu_3x3"
type: "ReLU"
bottom: "inception_3b/3x3"
top: "inception_3b/3x3"
}
layer {
name: "inception_3b/5x5_reduce"
type: "Convolution"
bottom: "inception_3a/output"
top: "inception_3b/5x5_reduce"
param {
lr_mult: 1
decay_mult: 1
}
param {
lr_mult: 2
decay_mult: 0
}
convolution_param {
num_output: 32
kernel_size: 1
weight_filler {
type: "xavier"
std: 0.2
}
bias_filler {
type: "constant"
value: 0.2
}
}
}
layer {
name: "inception_3b/relu_5x5_reduce"
type: "ReLU"
bottom: "inception_3b/5x5_reduce"
top: "inception_3b/5x5_reduce"
}
layer {
name: "inception_3b/5x5"
type: "Convolution"
bottom: "inception_3b/5x5_reduce"
top: "inception_3b/5x5"
param {
lr_mult: 1
decay_mult: 1
}
param {
lr_mult: 2
decay_mult: 0
}
convolution_param {
num_output: 96
pad: 2
kernel_size: 5
weight_filler {
type: "xavier"
std: 0.03
}
bias_filler {
type: "constant"
value: 0.2
}
}
}
layer {
name: "inception_3b/relu_5x5"
type: "ReLU"
bottom: "inception_3b/5x5"
top: "inception_3b/5x5"
}
layer {
name: "inception_3b/pool"
type: "Pooling"
bottom: "inception_3a/output"
top: "inception_3b/pool"
pooling_param {
pool: MAX
kernel_size: 3
stride: 1
pad: 1
}
}
layer {
name: "inception_3b/pool_proj"
type: "Convolution"
bottom: "inception_3b/pool"
top: "inception_3b/pool_proj"
param {
lr_mult: 1
decay_mult: 1
}
param {
lr_mult: 2
decay_mult: 0
}
convolution_param {
num_output: 64
kernel_size: 1
weight_filler {
type: "xavier"
std: 0.1
}
bias_filler {
type: "constant"
value: 0.2
}
}
}
layer {
name: "inception_3b/relu_pool_proj"
type: "ReLU"
bottom: "inception_3b/pool_proj"
top: "inception_3b/pool_proj"
}
layer {
name: "inception_3b/output"
type: "Concat"
bottom: "inception_3b/1x1"
bottom: "inception_3b/3x3"
bottom: "inception_3b/5x5"
bottom: "inception_3b/pool_proj"
top: "inception_3b/output"
}
layer {
name: "pool3/3x3_s2"
type: "Pooling"
bottom: "inception_3b/output"
top: "pool3/3x3_s2"
pooling_param {
pool: MAX
kernel_size: 3
stride: 2
}
}
layer {
name: "inception_4a/1x1"
type: "Convolution"
bottom: "pool3/3x3_s2"
top: "inception_4a/1x1"
param {
lr_mult: 1
decay_mult: 1
}
param {
lr_mult: 2
decay_mult: 0
}
convolution_param {
num_output: 192
kernel_size: 1
weight_filler {
type: "xavier"
std: 0.03
}
bias_filler {
type: "constant"
value: 0.2
}
}
}
layer {
name: "inception_4a/relu_1x1"
type: "ReLU"
bottom: "inception_4a/1x1"
top: "inception_4a/1x1"
}
layer {
name: "inception_4a/3x3_reduce"
type: "Convolution"
bottom: "pool3/3x3_s2"
top: "inception_4a/3x3_reduce"
param {
lr_mult: 1
decay_mult: 1
}
param {
lr_mult: 2
decay_mult: 0
}
convolution_param {
num_output: 96
kernel_size: 1
weight_filler {
type: "xavier"
std: 0.09
}
bias_filler {
type: "constant"
value: 0.2
}
}
}
layer {
name: "inception_4a/relu_3x3_reduce"
type: "ReLU"
bottom: "inception_4a/3x3_reduce"
top: "inception_4a/3x3_reduce"
}
layer {
name: "inception_4a/3x3"
type: "Convolution"
bottom: "inception_4a/3x3_reduce"
top: "inception_4a/3x3"
param {
lr_mult: 1
decay_mult: 1
}
param {
lr_mult: 2
decay_mult: 0
}
convolution_param {
num_output: 208
pad: 1
kernel_size: 3
weight_filler {
type: "xavier"
std: 0.03
}
bias_filler {
type: "constant"
value: 0.2
}
}
}
layer {
name: "inception_4a/relu_3x3"
type: "ReLU"
bottom: "inception_4a/3x3"
top: "inception_4a/3x3"
}
layer {
name: "inception_4a/5x5_reduce"
type: "Convolution"
bottom: "pool3/3x3_s2"
top: "inception_4a/5x5_reduce"
param {
lr_mult: 1
decay_mult: 1
}
param {
lr_mult: 2
decay_mult: 0
}
convolution_param {
num_output: 16
kernel_size: 1
weight_filler {
type: "xavier"
std: 0.2
}
bias_filler {
type: "constant"
value: 0.2
}
}
}
layer {
name: "inception_4a/relu_5x5_reduce"
type: "ReLU"
bottom: "inception_4a/5x5_reduce"
top: "inception_4a/5x5_reduce"
}
layer {
name: "inception_4a/5x5"
type: "Convolution"
bottom: "inception_4a/5x5_reduce"
top: "inception_4a/5x5"
param {
lr_mult: 1
decay_mult: 1
}
param {
lr_mult: 2
decay_mult: 0
}
convolution_param {
num_output: 48
pad: 2
kernel_size: 5
weight_filler {
type: "xavier"
std: 0.03
}
bias_filler {
type: "constant"
value: 0.2
}
}
}
layer {
name: "inception_4a/relu_5x5"
type: "ReLU"
bottom: "inception_4a/5x5"
top: "inception_4a/5x5"
}
layer {
name: "inception_4a/pool"
type: "Pooling"
bottom: "pool3/3x3_s2"
top: "inception_4a/pool"
pooling_param {
pool: MAX
kernel_size: 3
stride: 1
pad: 1
}
}
layer {
name: "inception_4a/pool_proj"
type: "Convolution"
bottom: "inception_4a/pool"
top: "inception_4a/pool_proj"
param {
lr_mult: 1
decay_mult: 1
}
param {
lr_mult: 2
decay_mult: 0
}
convolution_param {
num_output: 64
kernel_size: 1
weight_filler {
type: "xavier"
std: 0.1
}
bias_filler {
type: "constant"
value: 0.2
}
}
}
layer {
name: "inception_4a/relu_pool_proj"
type: "ReLU"
bottom: "inception_4a/pool_proj"
top: "inception_4a/pool_proj"
}
layer {
name: "inception_4a/output"
type: "Concat"
bottom: "inception_4a/1x1"
bottom: "inception_4a/3x3"
bottom: "inception_4a/5x5"
bottom: "inception_4a/pool_proj"
top: "inception_4a/output"
}
layer {
name: "loss1/ave_pool"
type: "Pooling"
bottom: "inception_4a/output"
top: "loss1/ave_pool"
pooling_param {
pool: AVE
kernel_size: 5
stride: 3
}
}
layer {
name: "loss1/conv"
type: "Convolution"
bottom: "loss1/ave_pool"
top: "loss1/conv"
param {
lr_mult: 1
decay_mult: 1
}
param {
lr_mult: 2
decay_mult: 0
}
convolution_param {
num_output: 128
kernel_size: 1
weight_filler {
type: "xavier"
std: 0.08
}
bias_filler {
type: "constant"
value: 0.2
}
}
}
layer {
name: "loss1/relu_conv"
type: "ReLU"
bottom: "loss1/conv"
top: "loss1/conv"
}
layer {
name: "loss1/fc"
type: "InnerProduct"
bottom: "loss1/conv"
top: "loss1/fc"
param {
lr_mult: 1
decay_mult: 1
}
param {
lr_mult: 2
decay_mult: 0
}
inner_product_param {
num_output: 1024
weight_filler {
type: "xavier"
std: 0.02
}
bias_filler {
type: "constant"
value: 0.2
}
}
}
layer {
name: "loss1/relu_fc"
type: "ReLU"
bottom: "loss1/fc"
top: "loss1/fc"
}
layer {
name: "loss1/drop_fc"
type: "Dropout"
bottom: "loss1/fc"
top: "loss1/fc"
dropout_param {
dropout_ratio: 0.7
}
}
layer {
name: "loss1/classifier"
type: "InnerProduct"
bottom: "loss1/fc"
top: "loss1/classifier"
param {
lr_mult: 1
decay_mult: 1
}
param {
lr_mult: 2
decay_mult: 0
}
inner_product_param {
num_output: 196
weight_filler {
type: "xavier"
std: 0.0009765625
}
bias_filler {
type: "constant"
value: 0
}
}
}
layer {
name: "loss1/loss"
type: "SoftmaxWithLoss"
bottom: "loss1/classifier"
bottom: "label"
top: "loss1/loss"
loss_weight: 0.3
}
layer {
name: "inception_4b/1x1"
type: "Convolution"
bottom: "inception_4a/output"
top: "inception_4b/1x1"
param {
lr_mult: 1
decay_mult: 1
}
param {
lr_mult: 2
decay_mult: 0
}
convolution_param {
num_output: 160
kernel_size: 1
weight_filler {
type: "xavier"
std: 0.03
}
bias_filler {
type: "constant"
value: 0.2
}
}
}
layer {
name: "inception_4b/relu_1x1"
type: "ReLU"
bottom: "inception_4b/1x1"
top: "inception_4b/1x1"
}
layer {
name: "inception_4b/3x3_reduce"
type: "Convolution"
bottom: "inception_4a/output"
top: "inception_4b/3x3_reduce"
param {
lr_mult: 1
decay_mult: 1
}
param {
lr_mult: 2
decay_mult: 0
}
convolution_param {
num_output: 112
kernel_size: 1
weight_filler {
type: "xavier"
std: 0.09
}
bias_filler {
type: "constant"
value: 0.2
}
}
}
layer {
name: "inception_4b/relu_3x3_reduce"
type: "ReLU"
bottom: "inception_4b/3x3_reduce"
top: "inception_4b/3x3_reduce"
}
layer {
name: "inception_4b/3x3"
type: "Convolution"
bottom: "inception_4b/3x3_reduce"
top: "inception_4b/3x3"
param {
lr_mult: 1
decay_mult: 1
}
param {
lr_mult: 2
decay_mult: 0
}
convolution_param {
num_output: 224
pad: 1
kernel_size: 3
weight_filler {
type: "xavier"
std: 0.03
}
bias_filler {
type: "constant"
value: 0.2
}
}
}
layer {
name: "inception_4b/relu_3x3"
type: "ReLU"
bottom: "inception_4b/3x3"
top: "inception_4b/3x3"
}
layer {
name: "inception_4b/5x5_reduce"
type: "Convolution"
bottom: "inception_4a/output"
top: "inception_4b/5x5_reduce"
param {
lr_mult: 1
decay_mult: 1
}
param {
lr_mult: 2
decay_mult: 0
}
convolution_param {
num_output: 24
kernel_size: 1
weight_filler {
type: "xavier"
std: 0.2
}
bias_filler {
type: "constant"
value: 0.2
}
}
}
layer {
name: "inception_4b/relu_5x5_reduce"
type: "ReLU"
bottom: "inception_4b/5x5_reduce"
top: "inception_4b/5x5_reduce"
}
layer {
name: "inception_4b/5x5"
type: "Convolution"
bottom: "inception_4b/5x5_reduce"
top: "inception_4b/5x5"
param {
lr_mult: 1
decay_mult: 1
}
param {
lr_mult: 2
decay_mult: 0
}
convolution_param {
num_output: 64
pad: 2
kernel_size: 5
weight_filler {
type: "xavier"
std: 0.03
}
bias_filler {
type: "constant"
value: 0.2
}
}
}
layer {
name: "inception_4b/relu_5x5"
type: "ReLU"
bottom: "inception_4b/5x5"
top: "inception_4b/5x5"
}
layer {
name: "inception_4b/pool"
type: "Pooling"
bottom: "inception_4a/output"
top: "inception_4b/pool"
pooling_param {
pool: MAX
kernel_size: 3
stride: 1
pad: 1
}
}
layer {
name: "inception_4b/pool_proj"
type: "Convolution"
bottom: "inception_4b/pool"
top: "inception_4b/pool_proj"
param {
lr_mult: 1
decay_mult: 1
}
param {
lr_mult: 2
decay_mult: 0
}
convolution_param {
num_output: 64
kernel_size: 1
weight_filler {
type: "xavier"
std: 0.1
}
bias_filler {
type: "constant"
value: 0.2
}
}
}
layer {
name: "inception_4b/relu_pool_proj"
type: "ReLU"
bottom: "inception_4b/pool_proj"
top: "inception_4b/pool_proj"
}
layer {
name: "inception_4b/output"
type: "Concat"
bottom: "inception_4b/1x1"
bottom: "inception_4b/3x3"
bottom: "inception_4b/5x5"
bottom: "inception_4b/pool_proj"
top: "inception_4b/output"
}
layer {
name: "inception_4c/1x1"
type: "Convolution"
bottom: "inception_4b/output"
top: "inception_4c/1x1"
param {
lr_mult: 1
decay_mult: 1
}
param {
lr_mult: 2
decay_mult: 0
}
convolution_param {
num_output: 128
kernel_size: 1
weight_filler {
type: "xavier"
std: 0.03
}
bias_filler {
type: "constant"
value: 0.2
}
}
}
layer {
name: "inception_4c/relu_1x1"
type: "ReLU"
bottom: "inception_4c/1x1"
top: "inception_4c/1x1"
}
layer {
name: "inception_4c/3x3_reduce"
type: "Convolution"
bottom: "inception_4b/output"
top: "inception_4c/3x3_reduce"
param {
lr_mult: 1
decay_mult: 1
}
param {
lr_mult: 2
decay_mult: 0
}
convolution_param {
num_output: 128
kernel_size: 1
weight_filler {
type: "xavier"
std: 0.09
}
bias_filler {
type: "constant"
value: 0.2
}
}
}
layer {
name: "inception_4c/relu_3x3_reduce"
type: "ReLU"
bottom: "inception_4c/3x3_reduce"
top: "inception_4c/3x3_reduce"
}
layer {
name: "inception_4c/3x3"
type: "Convolution"
bottom: "inception_4c/3x3_reduce"
top: "inception_4c/3x3"
param {
lr_mult: 1
decay_mult: 1
}
param {
lr_mult: 2
decay_mult: 0
}
convolution_param {
num_output: 256
pad: 1
kernel_size: 3
weight_filler {
type: "xavier"
std: 0.03
}
bias_filler {
type: "constant"
value: 0.2
}
}
}
layer {
name: "inception_4c/relu_3x3"
type: "ReLU"
bottom: "inception_4c/3x3"
top: "inception_4c/3x3"
}
layer {
name: "inception_4c/5x5_reduce"
type: "Convolution"
bottom: "inception_4b/output"
top: "inception_4c/5x5_reduce"
param {
lr_mult: 1
decay_mult: 1
}
param {
lr_mult: 2
decay_mult: 0
}
convolution_param {
num_output: 24
kernel_size: 1
weight_filler {
type: "xavier"
std: 0.2
}
bias_filler {
type: "constant"
value: 0.2
}
}
}
layer {
name: "inception_4c/relu_5x5_reduce"
type: "ReLU"
bottom: "inception_4c/5x5_reduce"
top: "inception_4c/5x5_reduce"
}
layer {
name: "inception_4c/5x5"
type: "Convolution"
bottom: "inception_4c/5x5_reduce"
top: "inception_4c/5x5"
param {
lr_mult: 1
decay_mult: 1
}
param {
lr_mult: 2
decay_mult: 0
}
convolution_param {
num_output: 64
pad: 2
kernel_size: 5
weight_filler {
type: "xavier"
std: 0.03
}
bias_filler {
type: "constant"
value: 0.2
}
}
}
layer {
name: "inception_4c/relu_5x5"
type: "ReLU"
bottom: "inception_4c/5x5"
top: "inception_4c/5x5"
}
layer {
name: "inception_4c/pool"
type: "Pooling"
bottom: "inception_4b/output"
top: "inception_4c/pool"
pooling_param {
pool: MAX
kernel_size: 3
stride: 1
pad: 1
}
}
layer {
name: "inception_4c/pool_proj"
type: "Convolution"
bottom: "inception_4c/pool"
top: "inception_4c/pool_proj"
param {
lr_mult: 1
decay_mult: 1
}
param {
lr_mult: 2
decay_mult: 0
}
convolution_param {
num_output: 64
kernel_size: 1
weight_filler {
type: "xavier"
std: 0.1
}
bias_filler {
type: "constant"
value: 0.2
}
}
}
layer {
name: "inception_4c/relu_pool_proj"
type: "ReLU"
bottom: "inception_4c/pool_proj"
top: "inception_4c/pool_proj"
}
layer {
name: "inception_4c/output"
type: "Concat"
bottom: "inception_4c/1x1"
bottom: "inception_4c/3x3"
bottom: "inception_4c/5x5"
bottom: "inception_4c/pool_proj"
top: "inception_4c/output"
}
layer {
name: "inception_4d/1x1"
type: "Convolution"
bottom: "inception_4c/output"
top: "inception_4d/1x1"
param {
lr_mult: 1
decay_mult: 1
}
param {
lr_mult: 2
decay_mult: 0
}
convolution_param {
num_output: 112
kernel_size: 1
weight_filler {
type: "xavier"
std: 0.03
}
bias_filler {
type: "constant"
value: 0.2
}
}
}
layer {
name: "inception_4d/relu_1x1"
type: "ReLU"
bottom: "inception_4d/1x1"
top: "inception_4d/1x1"
}
layer {
name: "inception_4d/3x3_reduce"
type: "Convolution"
bottom: "inception_4c/output"
top: "inception_4d/3x3_reduce"
param {
lr_mult: 1
decay_mult: 1
}
param {
lr_mult: 2
decay_mult: 0
}
convolution_param {
num_output: 144
kernel_size: 1
weight_filler {
type: "xavier"
std: 0.09
}
bias_filler {
type: "constant"
value: 0.2
}
}
}
layer {
name: "inception_4d/relu_3x3_reduce"
type: "ReLU"
bottom: "inception_4d/3x3_reduce"
top: "inception_4d/3x3_reduce"
}
layer {
name: "inception_4d/3x3"
type: "Convolution"
bottom: "inception_4d/3x3_reduce"
top: "inception_4d/3x3"
param {
lr_mult: 1
decay_mult: 1
}
param {
lr_mult: 2
decay_mult: 0
}
convolution_param {
num_output: 288
pad: 1
kernel_size: 3
weight_filler {
type: "xavier"
std: 0.03
}
bias_filler {
type: "constant"
value: 0.2
}
}
}
layer {
name: "inception_4d/relu_3x3"
type: "ReLU"
bottom: "inception_4d/3x3"
top: "inception_4d/3x3"
}
layer {
name: "inception_4d/5x5_reduce"
type: "Convolution"
bottom: "inception_4c/output"
top: "inception_4d/5x5_reduce"
param {
lr_mult: 1
decay_mult: 1
}
param {
lr_mult: 2
decay_mult: 0
}
convolution_param {
num_output: 32
kernel_size: 1
weight_filler {
type: "xavier"
std: 0.2
}
bias_filler {
type: "constant"
value: 0.2
}
}
}
layer {
name: "inception_4d/relu_5x5_reduce"
type: "ReLU"
bottom: "inception_4d/5x5_reduce"
top: "inception_4d/5x5_reduce"
}
layer {
name: "inception_4d/5x5"
type: "Convolution"
bottom: "inception_4d/5x5_reduce"
top: "inception_4d/5x5"
param {
lr_mult: 1
decay_mult: 1
}
param {
lr_mult: 2
decay_mult: 0
}
convolution_param {
num_output: 64
pad: 2
kernel_size: 5
weight_filler {
type: "xavier"
std: 0.03
}
bias_filler {
type: "constant"
value: 0.2
}
}
}
layer {
name: "inception_4d/relu_5x5"
type: "ReLU"
bottom: "inception_4d/5x5"
top: "inception_4d/5x5"
}
layer {
name: "inception_4d/pool"
type: "Pooling"
bottom: "inception_4c/output"
top: "inception_4d/pool"
pooling_param {
pool: MAX
kernel_size: 3
stride: 1
pad: 1
}
}
layer {
name: "inception_4d/pool_proj"
type: "Convolution"
bottom: "inception_4d/pool"
top: "inception_4d/pool_proj"
param {
lr_mult: 1
decay_mult: 1
}
param {
lr_mult: 2
decay_mult: 0
}
convolution_param {
num_output: 64
kernel_size: 1
weight_filler {
type: "xavier"
std: 0.1
}
bias_filler {
type: "constant"
value: 0.2
}
}
}
layer {
name: "inception_4d/relu_pool_proj"
type: "ReLU"
bottom: "inception_4d/pool_proj"
top: "inception_4d/pool_proj"
}
layer {
name: "inception_4d/output"
type: "Concat"
bottom: "inception_4d/1x1"
bottom: "inception_4d/3x3"
bottom: "inception_4d/5x5"
bottom: "inception_4d/pool_proj"
top: "inception_4d/output"
}
layer {
name: "loss2/ave_pool"
type: "Pooling"
bottom: "inception_4d/output"
top: "loss2/ave_pool"
pooling_param {
pool: AVE
kernel_size: 5
stride: 3
}
}
layer {
name: "loss2/conv"
type: "Convolution"
bottom: "loss2/ave_pool"
top: "loss2/conv"
param {
lr_mult: 1
decay_mult: 1
}
param {
lr_mult: 2
decay_mult: 0
}
convolution_param {
num_output: 128
kernel_size: 1
weight_filler {
type: "xavier"
std: 0.08
}
bias_filler {
type: "constant"
value: 0.2
}
}
}
layer {
name: "loss2/relu_conv"
type: "ReLU"
bottom: "loss2/conv"
top: "loss2/conv"
}
layer {
name: "loss2/fc"
type: "InnerProduct"
bottom: "loss2/conv"
top: "loss2/fc"
param {
lr_mult: 1
decay_mult: 1
}
param {
lr_mult: 2
decay_mult: 0
}
inner_product_param {
num_output: 1024
weight_filler {
type: "xavier"
std: 0.02
}
bias_filler {
type: "constant"
value: 0.2
}
}
}
layer {
name: "loss2/relu_fc"
type: "ReLU"
bottom: "loss2/fc"
top: "loss2/fc"
}
layer {
name: "loss2/drop_fc"
type: "Dropout"
bottom: "loss2/fc"
top: "loss2/fc"
dropout_param {
dropout_ratio: 0.7
}
}
layer {
name: "loss2/classifier"
type: "InnerProduct"
bottom: "loss2/fc"
top: "loss2/classifier"
param {
lr_mult: 1
decay_mult: 1
}
param {
lr_mult: 2
decay_mult: 0
}
inner_product_param {
num_output: 196
weight_filler {
type: "xavier"
std: 0.0009765625
}
bias_filler {
type: "constant"
value: 0
}
}
}
layer {
name: "loss2/loss"
type: "SoftmaxWithLoss"
bottom: "loss2/classifier"
bottom: "label"
top: "loss2/loss"
loss_weight: 0.3
}
layer {
name: "inception_4e/1x1"
type: "Convolution"
bottom: "inception_4d/output"
top: "inception_4e/1x1"
param {
lr_mult: 1
decay_mult: 1
}
param {
lr_mult: 2
decay_mult: 0
}
convolution_param {
num_output: 256
kernel_size: 1
weight_filler {
type: "xavier"
std: 0.03
}
bias_filler {
type: "constant"
value: 0.2
}
}
}
layer {
name: "inception_4e/relu_1x1"
type: "ReLU"
bottom: "inception_4e/1x1"
top: "inception_4e/1x1"
}
layer {
name: "inception_4e/3x3_reduce"
type: "Convolution"
bottom: "inception_4d/output"
top: "inception_4e/3x3_reduce"
param {
lr_mult: 1
decay_mult: 1
}
param {
lr_mult: 2
decay_mult: 0
}
convolution_param {
num_output: 160
kernel_size: 1
weight_filler {
type: "xavier"
std: 0.09
}
bias_filler {
type: "constant"
value: 0.2
}
}
}
layer {
name: "inception_4e/relu_3x3_reduce"
type: "ReLU"
bottom: "inception_4e/3x3_reduce"
top: "inception_4e/3x3_reduce"
}
layer {
name: "inception_4e/3x3"
type: "Convolution"
bottom: "inception_4e/3x3_reduce"
top: "inception_4e/3x3"
param {
lr_mult: 1
decay_mult: 1
}
param {
lr_mult: 2
decay_mult: 0
}
convolution_param {
num_output: 320
pad: 1
kernel_size: 3
weight_filler {
type: "xavier"
std: 0.03
}
bias_filler {
type: "constant"
value: 0.2
}
}
}
layer {
name: "inception_4e/relu_3x3"
type: "ReLU"
bottom: "inception_4e/3x3"
top: "inception_4e/3x3"
}
layer {
name: "inception_4e/5x5_reduce"
type: "Convolution"
bottom: "inception_4d/output"
top: "inception_4e/5x5_reduce"
param {
lr_mult: 1
decay_mult: 1
}
param {
lr_mult: 2
decay_mult: 0
}
convolution_param {
num_output: 32
kernel_size: 1
weight_filler {
type: "xavier"
std: 0.2
}
bias_filler {
type: "constant"
value: 0.2
I0509 20:54:09.385300 17848 layer_factory.hpp:77] Creating layer train-data
I0509 20:54:09.388471 17848 db_lmdb.cpp:35] Opened lmdb /mnt/bigdisk/AMBDIG8/digits/jobs/20200509-183908-c8eb/train_db
I0509 20:54:09.389161 17848 net.cpp:84] Creating Layer train-data
I0509 20:54:09.389173 17848 net.cpp:380] train-data -> data
I0509 20:54:09.389192 17848 net.cpp:380] train-data -> label
I0509 20:54:09.391460 17848 data_layer.cpp:45] output data size: 32,3,224,224
I0509 20:54:09.430503 17848 net.cpp:122] Setting up train-data
I0509 20:54:09.430526 17848 net.cpp:129] Top shape: 32 3 224 224 (4816896)
I0509 20:54:09.430531 17848 net.cpp:129] Top shape: 32 (32)
I0509 20:54:09.430534 17848 net.cpp:137] Memory required for data: 19267712
I0509 20:54:09.430543 17848 layer_factory.hpp:77] Creating layer label_train-data_1_split
I0509 20:54:09.430554 17848 net.cpp:84] Creating Layer label_train-data_1_split
I0509 20:54:09.430560 17848 net.cpp:406] label_train-data_1_split <- label
I0509 20:54:09.430593 17848 net.cpp:380] label_train-data_1_split -> label_train-data_1_split_0
I0509 20:54:09.430603 17848 net.cpp:380] label_train-data_1_split -> label_train-data_1_split_1
I0509 20:54:09.430608 17848 net.cpp:380] label_train-data_1_split -> label_train-data_1_split_2
I0509 20:54:09.430663 17848 net.cpp:122] Setting up label_train-data_1_split
I0509 20:54:09.430670 17848 net.cpp:129] Top shape: 32 (32)
I0509 20:54:09.430673 17848 net.cpp:129] Top shape: 32 (32)
I0509 20:54:09.430676 17848 net.cpp:129] Top shape: 32 (32)
I0509 20:54:09.430678 17848 net.cpp:137] Memory required for data: 19268096
I0509 20:54:09.430681 17848 layer_factory.hpp:77] Creating layer conv1/7x7_s2
I0509 20:54:09.430701 17848 net.cpp:84] Creating Layer conv1/7x7_s2
I0509 20:54:09.430706 17848 net.cpp:406] conv1/7x7_s2 <- data
I0509 20:54:09.430711 17848 net.cpp:380] conv1/7x7_s2 -> conv1/7x7_s2
I0509 20:54:10.854274 17848 net.cpp:122] Setting up conv1/7x7_s2
I0509 20:54:10.854295 17848 net.cpp:129] Top shape: 32 64 112 112 (25690112)
I0509 20:54:10.854300 17848 net.cpp:137] Memory required for data: 122028544
I0509 20:54:10.854318 17848 layer_factory.hpp:77] Creating layer conv1/relu_7x7
I0509 20:54:10.854328 17848 net.cpp:84] Creating Layer conv1/relu_7x7
I0509 20:54:10.854332 17848 net.cpp:406] conv1/relu_7x7 <- conv1/7x7_s2
I0509 20:54:10.854338 17848 net.cpp:367] conv1/relu_7x7 -> conv1/7x7_s2 (in-place)
I0509 20:54:10.854646 17848 net.cpp:122] Setting up conv1/relu_7x7
I0509 20:54:10.854655 17848 net.cpp:129] Top shape: 32 64 112 112 (25690112)
I0509 20:54:10.854658 17848 net.cpp:137] Memory required for data: 224788992
I0509 20:54:10.854661 17848 layer_factory.hpp:77] Creating layer pool1/3x3_s2
I0509 20:54:10.854669 17848 net.cpp:84] Creating Layer pool1/3x3_s2
I0509 20:54:10.854672 17848 net.cpp:406] pool1/3x3_s2 <- conv1/7x7_s2
I0509 20:54:10.854677 17848 net.cpp:380] pool1/3x3_s2 -> pool1/3x3_s2
I0509 20:54:10.854718 17848 net.cpp:122] Setting up pool1/3x3_s2
I0509 20:54:10.854724 17848 net.cpp:129] Top shape: 32 64 56 56 (6422528)
I0509 20:54:10.854727 17848 net.cpp:137] Memory required for data: 250479104
I0509 20:54:10.854729 17848 layer_factory.hpp:77] Creating layer pool1/norm1
I0509 20:54:10.854738 17848 net.cpp:84] Creating Layer pool1/norm1
I0509 20:54:10.854741 17848 net.cpp:406] pool1/norm1 <- pool1/3x3_s2
I0509 20:54:10.854745 17848 net.cpp:380] pool1/norm1 -> pool1/norm1
I0509 20:54:10.855257 17848 net.cpp:122] Setting up pool1/norm1
I0509 20:54:10.855268 17848 net.cpp:129] Top shape: 32 64 56 56 (6422528)
I0509 20:54:10.855270 17848 net.cpp:137] Memory required for data: 276169216
I0509 20:54:10.855273 17848 layer_factory.hpp:77] Creating layer conv2/3x3_reduce
I0509 20:54:10.855283 17848 net.cpp:84] Creating Layer conv2/3x3_reduce
I0509 20:54:10.855288 17848 net.cpp:406] conv2/3x3_reduce <- pool1/norm1
I0509 20:54:10.855293 17848 net.cpp:380] conv2/3x3_reduce -> conv2/3x3_reduce
I0509 20:54:10.857223 17848 net.cpp:122] Setting up conv2/3x3_reduce
I0509 20:54:10.857234 17848 net.cpp:129] Top shape: 32 64 56 56 (6422528)
I0509 20:54:10.857237 17848 net.cpp:137] Memory required for data: 301859328
I0509 20:54:10.857245 17848 layer_factory.hpp:77] Creating layer conv2/relu_3x3_reduce
I0509 20:54:10.857250 17848 net.cpp:84] Creating Layer conv2/relu_3x3_reduce
I0509 20:54:10.857254 17848 net.cpp:406] conv2/relu_3x3_reduce <- conv2/3x3_reduce
I0509 20:54:10.857259 17848 net.cpp:367] conv2/relu_3x3_reduce -> conv2/3x3_reduce (in-place)
I0509 20:54:10.857560 17848 net.cpp:122] Setting up conv2/relu_3x3_reduce
I0509 20:54:10.857569 17848 net.cpp:129] Top shape: 32 64 56 56 (6422528)
I0509 20:54:10.857573 17848 net.cpp:137] Memory required for data: 327549440
I0509 20:54:10.857575 17848 layer_factory.hpp:77] Creating layer conv2/3x3
I0509 20:54:10.857586 17848 net.cpp:84] Creating Layer conv2/3x3
I0509 20:54:10.857589 17848 net.cpp:406] conv2/3x3 <- conv2/3x3_reduce
I0509 20:54:10.857595 17848 net.cpp:380] conv2/3x3 -> conv2/3x3
I0509 20:54:10.861485 17848 net.cpp:122] Setting up conv2/3x3
I0509 20:54:10.861516 17848 net.cpp:129] Top shape: 32 192 56 56 (19267584)
I0509 20:54:10.861521 17848 net.cpp:137] Memory required for data: 404619776
I0509 20:54:10.861528 17848 layer_factory.hpp:77] Creating layer conv2/relu_3x3
I0509 20:54:10.861534 17848 net.cpp:84] Creating Layer conv2/relu_3x3
I0509 20:54:10.861537 17848 net.cpp:406] conv2/relu_3x3 <- conv2/3x3
I0509 20:54:10.861542 17848 net.cpp:367] conv2/relu_3x3 -> conv2/3x3 (in-place)
I0509 20:54:10.861860 17848 net.cpp:122] Setting up conv2/relu_3x3
I0509 20:54:10.861869 17848 net.cpp:129] Top shape: 32 192 56 56 (19267584)
I0509 20:54:10.861871 17848 net.cpp:137] Memory required for data: 481690112
I0509 20:54:10.861876 17848 layer_factory.hpp:77] Creating layer conv2/norm2
I0509 20:54:10.861882 17848 net.cpp:84] Creating Layer conv2/norm2
I0509 20:54:10.861886 17848 net.cpp:406] conv2/norm2 <- conv2/3x3
I0509 20:54:10.861891 17848 net.cpp:380] conv2/norm2 -> conv2/norm2
I0509 20:54:10.862396 17848 net.cpp:122] Setting up conv2/norm2
I0509 20:54:10.862406 17848 net.cpp:129] Top shape: 32 192 56 56 (19267584)
I0509 20:54:10.862408 17848 net.cpp:137] Memory required for data: 558760448
I0509 20:54:10.862411 17848 layer_factory.hpp:77] Creating layer pool2/3x3_s2
I0509 20:54:10.862417 17848 net.cpp:84] Creating Layer pool2/3x3_s2
I0509 20:54:10.862421 17848 net.cpp:406] pool2/3x3_s2 <- conv2/norm2
I0509 20:54:10.862426 17848 net.cpp:380] pool2/3x3_s2 -> pool2/3x3_s2
I0509 20:54:10.862454 17848 net.cpp:122] Setting up pool2/3x3_s2
I0509 20:54:10.862460 17848 net.cpp:129] Top shape: 32 192 28 28 (4816896)
I0509 20:54:10.862462 17848 net.cpp:137] Memory required for data: 578028032
I0509 20:54:10.862465 17848 layer_factory.hpp:77] Creating layer pool2/3x3_s2_pool2/3x3_s2_0_split
I0509 20:54:10.862470 17848 net.cpp:84] Creating Layer pool2/3x3_s2_pool2/3x3_s2_0_split
I0509 20:54:10.862473 17848 net.cpp:406] pool2/3x3_s2_pool2/3x3_s2_0_split <- pool2/3x3_s2
I0509 20:54:10.862478 17848 net.cpp:380] pool2/3x3_s2_pool2/3x3_s2_0_split -> pool2/3x3_s2_pool2/3x3_s2_0_split_0
I0509 20:54:10.862483 17848 net.cpp:380] pool2/3x3_s2_pool2/3x3_s2_0_split -> pool2/3x3_s2_pool2/3x3_s2_0_split_1
I0509 20:54:10.862488 17848 net.cpp:380] pool2/3x3_s2_pool2/3x3_s2_0_split -> pool2/3x3_s2_pool2/3x3_s2_0_split_2
I0509 20:54:10.862493 17848 net.cpp:380] pool2/3x3_s2_pool2/3x3_s2_0_split -> pool2/3x3_s2_pool2/3x3_s2_0_split_3
I0509 20:54:10.862532 17848 net.cpp:122] Setting up pool2/3x3_s2_pool2/3x3_s2_0_split
I0509 20:54:10.862537 17848 net.cpp:129] Top shape: 32 192 28 28 (4816896)
I0509 20:54:10.862540 17848 net.cpp:129] Top shape: 32 192 28 28 (4816896)
I0509 20:54:10.862543 17848 net.cpp:129] Top shape: 32 192 28 28 (4816896)
I0509 20:54:10.862547 17848 net.cpp:129] Top shape: 32 192 28 28 (4816896)
I0509 20:54:10.862550 17848 net.cpp:137] Memory required for data: 655098368
I0509 20:54:10.862552 17848 layer_factory.hpp:77] Creating layer inception_3a/1x1
I0509 20:54:10.862560 17848 net.cpp:84] Creating Layer inception_3a/1x1
I0509 20:54:10.862565 17848 net.cpp:406] inception_3a/1x1 <- pool2/3x3_s2_pool2/3x3_s2_0_split_0
I0509 20:54:10.862568 17848 net.cpp:380] inception_3a/1x1 -> inception_3a/1x1
I0509 20:54:10.864517 17848 net.cpp:122] Setting up inception_3a/1x1
I0509 20:54:10.864528 17848 net.cpp:129] Top shape: 32 64 28 28 (1605632)
I0509 20:54:10.864531 17848 net.cpp:137] Memory required for data: 661520896
I0509 20:54:10.864537 17848 layer_factory.hpp:77] Creating layer inception_3a/relu_1x1
I0509 20:54:10.864543 17848 net.cpp:84] Creating Layer inception_3a/relu_1x1
I0509 20:54:10.864547 17848 net.cpp:406] inception_3a/relu_1x1 <- inception_3a/1x1
I0509 20:54:10.864552 17848 net.cpp:367] inception_3a/relu_1x1 -> inception_3a/1x1 (in-place)
I0509 20:54:10.864857 17848 net.cpp:122] Setting up inception_3a/relu_1x1
I0509 20:54:10.864866 17848 net.cpp:129] Top shape: 32 64 28 28 (1605632)
I0509 20:54:10.864868 17848 net.cpp:137] Memory required for data: 667943424
I0509 20:54:10.864871 17848 layer_factory.hpp:77] Creating layer inception_3a/3x3_reduce
I0509 20:54:10.864892 17848 net.cpp:84] Creating Layer inception_3a/3x3_reduce
I0509 20:54:10.864897 17848 net.cpp:406] inception_3a/3x3_reduce <- pool2/3x3_s2_pool2/3x3_s2_0_split_1
I0509 20:54:10.864902 17848 net.cpp:380] inception_3a/3x3_reduce -> inception_3a/3x3_reduce
I0509 20:54:10.868013 17848 net.cpp:122] Setting up inception_3a/3x3_reduce
I0509 20:54:10.868024 17848 net.cpp:129] Top shape: 32 96 28 28 (2408448)
I0509 20:54:10.868027 17848 net.cpp:137] Memory required for data: 677577216
I0509 20:54:10.868036 17848 layer_factory.hpp:77] Creating layer inception_3a/relu_3x3_reduce
I0509 20:54:10.868046 17848 net.cpp:84] Creating Layer inception_3a/relu_3x3_reduce
I0509 20:54:10.868049 17848 net.cpp:406] inception_3a/relu_3x3_reduce <- inception_3a/3x3_reduce
I0509 20:54:10.868054 17848 net.cpp:367] inception_3a/relu_3x3_reduce -> inception_3a/3x3_reduce (in-place)
I0509 20:54:10.868546 17848 net.cpp:122] Setting up inception_3a/relu_3x3_reduce
I0509 20:54:10.868556 17848 net.cpp:129] Top shape: 32 96 28 28 (2408448)
I0509 20:54:10.868559 17848 net.cpp:137] Memory required for data: 687211008
I0509 20:54:10.868563 17848 layer_factory.hpp:77] Creating layer inception_3a/3x3
I0509 20:54:10.868571 17848 net.cpp:84] Creating Layer inception_3a/3x3
I0509 20:54:10.868575 17848 net.cpp:406] inception_3a/3x3 <- inception_3a/3x3_reduce
I0509 20:54:10.868580 17848 net.cpp:380] inception_3a/3x3 -> inception_3a/3x3
I0509 20:54:10.871141 17848 net.cpp:122] Setting up inception_3a/3x3
I0509 20:54:10.871151 17848 net.cpp:129] Top shape: 32 128 28 28 (3211264)
I0509 20:54:10.871155 17848 net.cpp:137] Memory required for data: 700056064
I0509 20:54:10.871160 17848 layer_factory.hpp:77] Creating layer inception_3a/relu_3x3
I0509 20:54:10.871166 17848 net.cpp:84] Creating Layer inception_3a/relu_3x3
I0509 20:54:10.871170 17848 net.cpp:406] inception_3a/relu_3x3 <- inception_3a/3x3
I0509 20:54:10.871174 17848 net.cpp:367] inception_3a/relu_3x3 -> inception_3a/3x3 (in-place)
I0509 20:54:10.871644 17848 net.cpp:122] Setting up inception_3a/relu_3x3
I0509 20:54:10.871654 17848 net.cpp:129] Top shape: 32 128 28 28 (3211264)
I0509 20:54:10.871657 17848 net.cpp:137] Memory required for data: 712901120
I0509 20:54:10.871660 17848 layer_factory.hpp:77] Creating layer inception_3a/5x5_reduce
I0509 20:54:10.871668 17848 net.cpp:84] Creating Layer inception_3a/5x5_reduce
I0509 20:54:10.871672 17848 net.cpp:406] inception_3a/5x5_reduce <- pool2/3x3_s2_pool2/3x3_s2_0_split_2
I0509 20:54:10.871678 17848 net.cpp:380] inception_3a/5x5_reduce -> inception_3a/5x5_reduce
I0509 20:54:10.873440 17848 net.cpp:122] Setting up inception_3a/5x5_reduce
I0509 20:54:10.873451 17848 net.cpp:129] Top shape: 32 16 28 28 (401408)
I0509 20:54:10.873454 17848 net.cpp:137] Memory required for data: 714506752
I0509 20:54:10.873461 17848 layer_factory.hpp:77] Creating layer inception_3a/relu_5x5_reduce
I0509 20:54:10.873466 17848 net.cpp:84] Creating Layer inception_3a/relu_5x5_reduce
I0509 20:54:10.873469 17848 net.cpp:406] inception_3a/relu_5x5_reduce <- inception_3a/5x5_reduce
I0509 20:54:10.873474 17848 net.cpp:367] inception_3a/relu_5x5_reduce -> inception_3a/5x5_reduce (in-place)
I0509 20:54:10.875028 17848 net.cpp:122] Setting up inception_3a/relu_5x5_reduce
I0509 20:54:10.875038 17848 net.cpp:129] Top shape: 32 16 28 28 (401408)
I0509 20:54:10.875041 17848 net.cpp:137] Memory required for data: 716112384
I0509 20:54:10.875044 17848 layer_factory.hpp:77] Creating layer inception_3a/5x5
I0509 20:54:10.875053 17848 net.cpp:84] Creating Layer inception_3a/5x5
I0509 20:54:10.875057 17848 net.cpp:406] inception_3a/5x5 <- inception_3a/5x5_reduce
I0509 20:54:10.875063 17848 net.cpp:380] inception_3a/5x5 -> inception_3a/5x5
I0509 20:54:10.876868 17848 net.cpp:122] Setting up inception_3a/5x5
I0509 20:54:10.876878 17848 net.cpp:129] Top shape: 32 32 28 28 (802816)
I0509 20:54:10.876880 17848 net.cpp:137] Memory required for data: 719323648
I0509 20:54:10.876886 17848 layer_factory.hpp:77] Creating layer inception_3a/relu_5x5
I0509 20:54:10.876893 17848 net.cpp:84] Creating Layer inception_3a/relu_5x5
I0509 20:54:10.876915 17848 net.cpp:406] inception_3a/relu_5x5 <- inception_3a/5x5
I0509 20:54:10.876921 17848 net.cpp:367] inception_3a/relu_5x5 -> inception_3a/5x5 (in-place)
I0509 20:54:10.877405 17848 net.cpp:122] Setting up inception_3a/relu_5x5
I0509 20:54:10.877415 17848 net.cpp:129] Top shape: 32 32 28 28 (802816)
I0509 20:54:10.877418 17848 net.cpp:137] Memory required for data: 722534912
I0509 20:54:10.877421 17848 layer_factory.hpp:77] Creating layer inception_3a/pool
I0509 20:54:10.877427 17848 net.cpp:84] Creating Layer inception_3a/pool
I0509 20:54:10.877431 17848 net.cpp:406] inception_3a/pool <- pool2/3x3_s2_pool2/3x3_s2_0_split_3
I0509 20:54:10.877436 17848 net.cpp:380] inception_3a/pool -> inception_3a/pool
I0509 20:54:10.877475 17848 net.cpp:122] Setting up inception_3a/pool
I0509 20:54:10.877480 17848 net.cpp:129] Top shape: 32 192 28 28 (4816896)
I0509 20:54:10.877483 17848 net.cpp:137] Memory required for data: 741802496
I0509 20:54:10.877486 17848 layer_factory.hpp:77] Creating layer inception_3a/pool_proj
I0509 20:54:10.877494 17848 net.cpp:84] Creating Layer inception_3a/pool_proj
I0509 20:54:10.877497 17848 net.cpp:406] inception_3a/pool_proj <- inception_3a/pool
I0509 20:54:10.877502 17848 net.cpp:380] inception_3a/pool_proj -> inception_3a/pool_proj
I0509 20:54:10.879618 17848 net.cpp:122] Setting up inception_3a/pool_proj
I0509 20:54:10.879628 17848 net.cpp:129] Top shape: 32 32 28 28 (802816)
I0509 20:54:10.879631 17848 net.cpp:137] Memory required for data: 745013760
I0509 20:54:10.879642 17848 layer_factory.hpp:77] Creating layer inception_3a/relu_pool_proj
I0509 20:54:10.879647 17848 net.cpp:84] Creating Layer inception_3a/relu_pool_proj
I0509 20:54:10.879652 17848 net.cpp:406] inception_3a/relu_pool_proj <- inception_3a/pool_proj
I0509 20:54:10.879657 17848 net.cpp:367] inception_3a/relu_pool_proj -> inception_3a/pool_proj (in-place)
I0509 20:54:10.879967 17848 net.cpp:122] Setting up inception_3a/relu_pool_proj
I0509 20:54:10.879976 17848 net.cpp:129] Top shape: 32 32 28 28 (802816)
I0509 20:54:10.879979 17848 net.cpp:137] Memory required for data: 748225024
I0509 20:54:10.879982 17848 layer_factory.hpp:77] Creating layer inception_3a/output
I0509 20:54:10.879988 17848 net.cpp:84] Creating Layer inception_3a/output
I0509 20:54:10.879992 17848 net.cpp:406] inception_3a/output <- inception_3a/1x1
I0509 20:54:10.879997 17848 net.cpp:406] inception_3a/output <- inception_3a/3x3
I0509 20:54:10.880000 17848 net.cpp:406] inception_3a/output <- inception_3a/5x5
I0509 20:54:10.880003 17848 net.cpp:406] inception_3a/output <- inception_3a/pool_proj
I0509 20:54:10.880008 17848 net.cpp:380] inception_3a/output -> inception_3a/output
I0509 20:54:10.880033 17848 net.cpp:122] Setting up inception_3a/output
I0509 20:54:10.880038 17848 net.cpp:129] Top shape: 32 256 28 28 (6422528)
I0509 20:54:10.880040 17848 net.cpp:137] Memory required for data: 773915136
I0509 20:54:10.880043 17848 layer_factory.hpp:77] Creating layer inception_3a/output_inception_3a/output_0_split
I0509 20:54:10.880048 17848 net.cpp:84] Creating Layer inception_3a/output_inception_3a/output_0_split
I0509 20:54:10.880051 17848 net.cpp:406] inception_3a/output_inception_3a/output_0_split <- inception_3a/output
I0509 20:54:10.880056 17848 net.cpp:380] inception_3a/output_inception_3a/output_0_split -> inception_3a/output_inception_3a/output_0_split_0
I0509 20:54:10.880062 17848 net.cpp:380] inception_3a/output_inception_3a/output_0_split -> inception_3a/output_inception_3a/output_0_split_1
I0509 20:54:10.880067 17848 net.cpp:380] inception_3a/output_inception_3a/output_0_split -> inception_3a/output_inception_3a/output_0_split_2
I0509 20:54:10.880072 17848 net.cpp:380] inception_3a/output_inception_3a/output_0_split -> inception_3a/output_inception_3a/output_0_split_3
I0509 20:54:10.880116 17848 net.cpp:122] Setting up inception_3a/output_inception_3a/output_0_split
I0509 20:54:10.880120 17848 net.cpp:129] Top shape: 32 256 28 28 (6422528)
I0509 20:54:10.880125 17848 net.cpp:129] Top shape: 32 256 28 28 (6422528)
I0509 20:54:10.880138 17848 net.cpp:129] Top shape: 32 256 28 28 (6422528)
I0509 20:54:10.880142 17848 net.cpp:129] Top shape: 32 256 28 28 (6422528)
I0509 20:54:10.880144 17848 net.cpp:137] Memory required for data: 876675584
I0509 20:54:10.880147 17848 layer_factory.hpp:77] Creating layer inception_3b/1x1
I0509 20:54:10.880156 17848 net.cpp:84] Creating Layer inception_3b/1x1
I0509 20:54:10.880159 17848 net.cpp:406] inception_3b/1x1 <- inception_3a/output_inception_3a/output_0_split_0
I0509 20:54:10.880164 17848 net.cpp:380] inception_3b/1x1 -> inception_3b/1x1
I0509 20:54:10.883862 17848 net.cpp:122] Setting up inception_3b/1x1
I0509 20:54:10.883877 17848 net.cpp:129] Top shape: 32 128 28 28 (3211264)
I0509 20:54:10.883879 17848 net.cpp:137] Memory required for data: 889520640
I0509 20:54:10.883885 17848 layer_factory.hpp:77] Creating layer inception_3b/relu_1x1
I0509 20:54:10.883893 17848 net.cpp:84] Creating Layer inception_3b/relu_1x1
I0509 20:54:10.883898 17848 net.cpp:406] inception_3b/relu_1x1 <- inception_3b/1x1
I0509 20:54:10.883903 17848 net.cpp:367] inception_3b/relu_1x1 -> inception_3b/1x1 (in-place)
I0509 20:54:10.884714 17848 net.cpp:122] Setting up inception_3b/relu_1x1
I0509 20:54:10.884723 17848 net.cpp:129] Top shape: 32 128 28 28 (3211264)
I0509 20:54:10.884727 17848 net.cpp:137] Memory required for data: 902365696
I0509 20:54:10.884729 17848 layer_factory.hpp:77] Creating layer inception_3b/3x3_reduce
I0509 20:54:10.884740 17848 net.cpp:84] Creating Layer inception_3b/3x3_reduce
I0509 20:54:10.884744 17848 net.cpp:406] inception_3b/3x3_reduce <- inception_3a/output_inception_3a/output_0_split_1
I0509 20:54:10.884750 17848 net.cpp:380] inception_3b/3x3_reduce -> inception_3b/3x3_reduce
I0509 20:54:10.886896 17848 net.cpp:122] Setting up inception_3b/3x3_reduce
I0509 20:54:10.886906 17848 net.cpp:129] Top shape: 32 128 28 28 (3211264)
I0509 20:54:10.886909 17848 net.cpp:137] Memory required for data: 915210752
I0509 20:54:10.886915 17848 layer_factory.hpp:77] Creating layer inception_3b/relu_3x3_reduce
I0509 20:54:10.886922 17848 net.cpp:84] Creating Layer inception_3b/relu_3x3_reduce
I0509 20:54:10.886926 17848 net.cpp:406] inception_3b/relu_3x3_reduce <- inception_3b/3x3_reduce
I0509 20:54:10.886931 17848 net.cpp:367] inception_3b/relu_3x3_reduce -> inception_3b/3x3_reduce (in-place)
I0509 20:54:10.887485 17848 net.cpp:122] Setting up inception_3b/relu_3x3_reduce
I0509 20:54:10.887493 17848 net.cpp:129] Top shape: 32 128 28 28 (3211264)
I0509 20:54:10.887496 17848 net.cpp:137] Memory required for data: 928055808
I0509 20:54:10.887499 17848 layer_factory.hpp:77] Creating layer inception_3b/3x3
I0509 20:54:10.887519 17848 net.cpp:84] Creating Layer inception_3b/3x3
I0509 20:54:10.887523 17848 net.cpp:406] inception_3b/3x3 <- inception_3b/3x3_reduce
I0509 20:54:10.887529 17848 net.cpp:380] inception_3b/3x3 -> inception_3b/3x3
I0509 20:54:10.891819 17848 net.cpp:122] Setting up inception_3b/3x3
I0509 20:54:10.891829 17848 net.cpp:129] Top shape: 32 192 28 28 (4816896)
I0509 20:54:10.891832 17848 net.cpp:137] Memory required for data: 947323392
I0509 20:54:10.891839 17848 layer_factory.hpp:77] Creating layer inception_3b/relu_3x3
I0509 20:54:10.891846 17848 net.cpp:84] Creating Layer inception_3b/relu_3x3
I0509 20:54:10.891849 17848 net.cpp:406] inception_3b/relu_3x3 <- inception_3b/3x3
I0509 20:54:10.891855 17848 net.cpp:367] inception_3b/relu_3x3 -> inception_3b/3x3 (in-place)
I0509 20:54:10.893613 17848 net.cpp:122] Setting up inception_3b/relu_3x3
I0509 20:54:10.893625 17848 net.cpp:129] Top shape: 32 192 28 28 (4816896)
I0509 20:54:10.893627 17848 net.cpp:137] Memory required for data: 966590976
I0509 20:54:10.893630 17848 layer_factory.hpp:77] Creating layer inception_3b/5x5_reduce
I0509 20:54:10.893640 17848 net.cpp:84] Creating Layer inception_3b/5x5_reduce
I0509 20:54:10.893643 17848 net.cpp:406] inception_3b/5x5_reduce <- inception_3a/output_inception_3a/output_0_split_2
I0509 20:54:10.893651 17848 net.cpp:380] inception_3b/5x5_reduce -> inception_3b/5x5_reduce
I0509 20:54:10.895701 17848 net.cpp:122] Setting up inception_3b/5x5_reduce
I0509 20:54:10.895728 17848 net.cpp:129] Top shape: 32 32 28 28 (802816)
I0509 20:54:10.895731 17848 net.cpp:137] Memory required for data: 969802240
I0509 20:54:10.895737 17848 layer_factory.hpp:77] Creating layer inception_3b/relu_5x5_reduce
I0509 20:54:10.895743 17848 net.cpp:84] Creating Layer inception_3b/relu_5x5_reduce
I0509 20:54:10.895746 17848 net.cpp:406] inception_3b/relu_5x5_reduce <- inception_3b/5x5_reduce
I0509 20:54:10.895753 17848 net.cpp:367] inception_3b/relu_5x5_reduce -> inception_3b/5x5_reduce (in-place)
I0509 20:54:10.896315 17848 net.cpp:122] Setting up inception_3b/relu_5x5_reduce
I0509 20:54:10.896327 17848 net.cpp:129] Top shape: 32 32 28 28 (802816)
I0509 20:54:10.896329 17848 net.cpp:137] Memory required for data: 973013504
I0509 20:54:10.896332 17848 layer_factory.hpp:77] Creating layer inception_3b/5x5
I0509 20:54:10.896342 17848 net.cpp:84] Creating Layer inception_3b/5x5
I0509 20:54:10.896347 17848 net.cpp:406] inception_3b/5x5 <- inception_3b/5x5_reduce
I0509 20:54:10.896353 17848 net.cpp:380] inception_3b/5x5 -> inception_3b/5x5
I0509 20:54:10.899224 17848 net.cpp:122] Setting up inception_3b/5x5
I0509 20:54:10.899235 17848 net.cpp:129] Top shape: 32 96 28 28 (2408448)
I0509 20:54:10.899238 17848 net.cpp:137] Memory required for data: 982647296
I0509 20:54:10.899245 17848 layer_factory.hpp:77] Creating layer inception_3b/relu_5x5
I0509 20:54:10.899251 17848 net.cpp:84] Creating Layer inception_3b/relu_5x5
I0509 20:54:10.899255 17848 net.cpp:406] inception_3b/relu_5x5 <- inception_3b/5x5
I0509 20:54:10.899260 17848 net.cpp:367] inception_3b/relu_5x5 -> inception_3b/5x5 (in-place)
I0509 20:54:10.899646 17848 net.cpp:122] Setting up inception_3b/relu_5x5
I0509 20:54:10.899657 17848 net.cpp:129] Top shape: 32 96 28 28 (2408448)
I0509 20:54:10.899659 17848 net.cpp:137] Memory required for data: 992281088
I0509 20:54:10.899662 17848 layer_factory.hpp:77] Creating layer inception_3b/pool
I0509 20:54:10.899669 17848 net.cpp:84] Creating Layer inception_3b/pool
I0509 20:54:10.899672 17848 net.cpp:406] inception_3b/pool <- inception_3a/output_inception_3a/output_0_split_3
I0509 20:54:10.899677 17848 net.cpp:380] inception_3b/pool -> inception_3b/pool
I0509 20:54:10.899719 17848 net.cpp:122] Setting up inception_3b/pool
I0509 20:54:10.899725 17848 net.cpp:129] Top shape: 32 256 28 28 (6422528)
I0509 20:54:10.899729 17848 net.cpp:137] Memory required for data: 1017971200
I0509 20:54:10.899731 17848 layer_factory.hpp:77] Creating layer inception_3b/pool_proj
I0509 20:54:10.899739 17848 net.cpp:84] Creating Layer inception_3b/pool_proj
I0509 20:54:10.899744 17848 net.cpp:406] inception_3b/pool_proj <- inception_3b/pool
I0509 20:54:10.899749 17848 net.cpp:380] inception_3b/pool_proj -> inception_3b/pool_proj
I0509 20:54:10.903259 17848 net.cpp:122] Setting up inception_3b/pool_proj
I0509 20:54:10.903270 17848 net.cpp:129] Top shape: 32 64 28 28 (1605632)
I0509 20:54:10.903272 17848 net.cpp:137] Memory required for data: 1024393728
I0509 20:54:10.903278 17848 layer_factory.hpp:77] Creating layer inception_3b/relu_pool_proj
I0509 20:54:10.903283 17848 net.cpp:84] Creating Layer inception_3b/relu_pool_proj
I0509 20:54:10.903287 17848 net.cpp:406] inception_3b/relu_pool_proj <- inception_3b/pool_proj
I0509 20:54:10.903293 17848 net.cpp:367] inception_3b/relu_pool_proj -> inception_3b/pool_proj (in-place)
I0509 20:54:10.903682 17848 net.cpp:122] Setting up inception_3b/relu_pool_proj
I0509 20:54:10.903692 17848 net.cpp:129] Top shape: 32 64 28 28 (1605632)
I0509 20:54:10.903694 17848 net.cpp:137] Memory required for data: 1030816256
I0509 20:54:10.903697 17848 layer_factory.hpp:77] Creating layer inception_3b/output
I0509 20:54:10.903704 17848 net.cpp:84] Creating Layer inception_3b/output
I0509 20:54:10.903708 17848 net.cpp:406] inception_3b/output <- inception_3b/1x1
I0509 20:54:10.903712 17848 net.cpp:406] inception_3b/output <- inception_3b/3x3
I0509 20:54:10.903717 17848 net.cpp:406] inception_3b/output <- inception_3b/5x5
I0509 20:54:10.903719 17848 net.cpp:406] inception_3b/output <- inception_3b/pool_proj
I0509 20:54:10.903735 17848 net.cpp:380] inception_3b/output -> inception_3b/output
I0509 20:54:10.903764 17848 net.cpp:122] Setting up inception_3b/output
I0509 20:54:10.903769 17848 net.cpp:129] Top shape: 32 480 28 28 (12042240)
I0509 20:54:10.903772 17848 net.cpp:137] Memory required for data: 1078985216
I0509 20:54:10.903775 17848 layer_factory.hpp:77] Creating layer pool3/3x3_s2
I0509 20:54:10.903780 17848 net.cpp:84] Creating Layer pool3/3x3_s2
I0509 20:54:10.903784 17848 net.cpp:406] pool3/3x3_s2 <- inception_3b/output
I0509 20:54:10.903790 17848 net.cpp:380] pool3/3x3_s2 -> pool3/3x3_s2
I0509 20:54:10.903821 17848 net.cpp:122] Setting up pool3/3x3_s2
I0509 20:54:10.903826 17848 net.cpp:129] Top shape: 32 480 14 14 (3010560)
I0509 20:54:10.903831 17848 net.cpp:137] Memory required for data: 1091027456
I0509 20:54:10.903834 17848 layer_factory.hpp:77] Creating layer pool3/3x3_s2_pool3/3x3_s2_0_split
I0509 20:54:10.903841 17848 net.cpp:84] Creating Layer pool3/3x3_s2_pool3/3x3_s2_0_split
I0509 20:54:10.903844 17848 net.cpp:406] pool3/3x3_s2_pool3/3x3_s2_0_split <- pool3/3x3_s2
I0509 20:54:10.903851 17848 net.cpp:380] pool3/3x3_s2_pool3/3x3_s2_0_split -> pool3/3x3_s2_pool3/3x3_s2_0_split_0
I0509 20:54:10.903856 17848 net.cpp:380] pool3/3x3_s2_pool3/3x3_s2_0_split -> pool3/3x3_s2_pool3/3x3_s2_0_split_1
I0509 20:54:10.903861 17848 net.cpp:380] pool3/3x3_s2_pool3/3x3_s2_0_split -> pool3/3x3_s2_pool3/3x3_s2_0_split_2
I0509 20:54:10.903867 17848 net.cpp:380] pool3/3x3_s2_pool3/3x3_s2_0_split -> pool3/3x3_s2_pool3/3x3_s2_0_split_3
I0509 20:54:10.903913 17848 net.cpp:122] Setting up pool3/3x3_s2_pool3/3x3_s2_0_split
I0509 20:54:10.903918 17848 net.cpp:129] Top shape: 32 480 14 14 (3010560)
I0509 20:54:10.903921 17848 net.cpp:129] Top shape: 32 480 14 14 (3010560)
I0509 20:54:10.903925 17848 net.cpp:129] Top shape: 32 480 14 14 (3010560)
I0509 20:54:10.903928 17848 net.cpp:129] Top shape: 32 480 14 14 (3010560)
I0509 20:54:10.903931 17848 net.cpp:137] Memory required for data: 1139196416
I0509 20:54:10.903934 17848 layer_factory.hpp:77] Creating layer inception_4a/1x1
I0509 20:54:10.903942 17848 net.cpp:84] Creating Layer inception_4a/1x1
I0509 20:54:10.903945 17848 net.cpp:406] inception_4a/1x1 <- pool3/3x3_s2_pool3/3x3_s2_0_split_0
I0509 20:54:10.903951 17848 net.cpp:380] inception_4a/1x1 -> inception_4a/1x1
I0509 20:54:10.906610 17848 net.cpp:122] Setting up inception_4a/1x1
I0509 20:54:10.906625 17848 net.cpp:129] Top shape: 32 192 14 14 (1204224)
I0509 20:54:10.906627 17848 net.cpp:137] Memory required for data: 1144013312
I0509 20:54:10.906633 17848 layer_factory.hpp:77] Creating layer inception_4a/relu_1x1
I0509 20:54:10.906641 17848 net.cpp:84] Creating Layer inception_4a/relu_1x1
I0509 20:54:10.906643 17848 net.cpp:406] inception_4a/relu_1x1 <- inception_4a/1x1
I0509 20:54:10.906648 17848 net.cpp:367] inception_4a/relu_1x1 -> inception_4a/1x1 (in-place)
I0509 20:54:10.907267 17848 net.cpp:122] Setting up inception_4a/relu_1x1
I0509 20:54:10.907277 17848 net.cpp:129] Top shape: 32 192 14 14 (1204224)
I0509 20:54:10.907280 17848 net.cpp:137] Memory required for data: 1148830208
I0509 20:54:10.907284 17848 layer_factory.hpp:77] Creating layer inception_4a/3x3_reduce
I0509 20:54:10.907296 17848 net.cpp:84] Creating Layer inception_4a/3x3_reduce
I0509 20:54:10.907300 17848 net.cpp:406] inception_4a/3x3_reduce <- pool3/3x3_s2_pool3/3x3_s2_0_split_1
I0509 20:54:10.907306 17848 net.cpp:380] inception_4a/3x3_reduce -> inception_4a/3x3_reduce
I0509 20:54:10.909545 17848 net.cpp:122] Setting up inception_4a/3x3_reduce
I0509 20:54:10.909555 17848 net.cpp:129] Top shape: 32 96 14 14 (602112)
I0509 20:54:10.909559 17848 net.cpp:137] Memory required for data: 1151238656
I0509 20:54:10.909570 17848 layer_factory.hpp:77] Creating layer inception_4a/relu_3x3_reduce
I0509 20:54:10.909576 17848 net.cpp:84] Creating Layer inception_4a/relu_3x3_reduce
I0509 20:54:10.909580 17848 net.cpp:406] inception_4a/relu_3x3_reduce <- inception_4a/3x3_reduce
I0509 20:54:10.909586 17848 net.cpp:367] inception_4a/relu_3x3_reduce -> inception_4a/3x3_reduce (in-place)
I0509 20:54:10.912467 17848 net.cpp:122] Setting up inception_4a/relu_3x3_reduce
I0509 20:54:10.912477 17848 net.cpp:129] Top shape: 32 96 14 14 (602112)
I0509 20:54:10.912480 17848 net.cpp:137] Memory required for data: 1153647104
I0509 20:54:10.912483 17848 layer_factory.hpp:77] Creating layer inception_4a/3x3
I0509 20:54:10.912501 17848 net.cpp:84] Creating Layer inception_4a/3x3
I0509 20:54:10.912508 17848 net.cpp:406] inception_4a/3x3 <- inception_4a/3x3_reduce
I0509 20:54:10.912518 17848 net.cpp:380] inception_4a/3x3 -> inception_4a/3x3
I0509 20:54:10.917153 17848 net.cpp:122] Setting up inception_4a/3x3
I0509 20:54:10.917166 17848 net.cpp:129] Top shape: 32 208 14 14 (1304576)
I0509 20:54:10.917171 17848 net.cpp:137] Memory required for data: 1158865408
I0509 20:54:10.917176 17848 layer_factory.hpp:77] Creating layer inception_4a/relu_3x3
I0509 20:54:10.917183 17848 net.cpp:84] Creating Layer inception_4a/relu_3x3
I0509 20:54:10.917187 17848 net.cpp:406] inception_4a/relu_3x3 <- inception_4a/3x3
I0509 20:54:10.917194 17848 net.cpp:367] inception_4a/relu_3x3 -> inception_4a/3x3 (in-place)
I0509 20:54:10.917768 17848 net.cpp:122] Setting up inception_4a/relu_3x3
I0509 20:54:10.917778 17848 net.cpp:129] Top shape: 32 208 14 14 (1304576)
I0509 20:54:10.917781 17848 net.cpp:137] Memory required for data: 1164083712
I0509 20:54:10.917785 17848 layer_factory.hpp:77] Creating layer inception_4a/5x5_reduce
I0509 20:54:10.917795 17848 net.cpp:84] Creating Layer inception_4a/5x5_reduce
I0509 20:54:10.917799 17848 net.cpp:406] inception_4a/5x5_reduce <- pool3/3x3_s2_pool3/3x3_s2_0_split_2
I0509 20:54:10.917807 17848 net.cpp:380] inception_4a/5x5_reduce -> inception_4a/5x5_reduce
I0509 20:54:10.919867 17848 net.cpp:122] Setting up inception_4a/5x5_reduce
I0509 20:54:10.919876 17848 net.cpp:129] Top shape: 32 16 14 14 (100352)
I0509 20:54:10.919879 17848 net.cpp:137] Memory required for data: 1164485120
I0509 20:54:10.919885 17848 layer_factory.hpp:77] Creating layer inception_4a/relu_5x5_reduce
I0509 20:54:10.919896 17848 net.cpp:84] Creating Layer inception_4a/relu_5x5_reduce
I0509 20:54:10.919900 17848 net.cpp:406] inception_4a/relu_5x5_reduce <- inception_4a/5x5_reduce
I0509 20:54:10.919905 17848 net.cpp:367] inception_4a/relu_5x5_reduce -> inception_4a/5x5_reduce (in-place)
I0509 20:54:10.920470 17848 net.cpp:122] Setting up inception_4a/relu_5x5_reduce
I0509 20:54:10.920480 17848 net.cpp:129] Top shape: 32 16 14 14 (100352)
I0509 20:54:10.920483 17848 net.cpp:137] Memory required for data: 1164886528
I0509 20:54:10.920486 17848 layer_factory.hpp:77] Creating layer inception_4a/5x5
I0509 20:54:10.920506 17848 net.cpp:84] Creating Layer inception_4a/5x5
I0509 20:54:10.920513 17848 net.cpp:406] inception_4a/5x5 <- inception_4a/5x5_reduce
I0509 20:54:10.920522 17848 net.cpp:380] inception_4a/5x5 -> inception_4a/5x5
I0509 20:54:10.924211 17848 net.cpp:122] Setting up inception_4a/5x5
I0509 20:54:10.924221 17848 net.cpp:129] Top shape: 32 48 14 14 (301056)
I0509 20:54:10.924224 17848 net.cpp:137] Memory required for data: 1166090752
I0509 20:54:10.924230 17848 layer_factory.hpp:77] Creating layer inception_4a/relu_5x5
I0509 20:54:10.924238 17848 net.cpp:84] Creating Layer inception_4a/relu_5x5
I0509 20:54:10.924242 17848 net.cpp:406] inception_4a/relu_5x5 <- inception_4a/5x5
I0509 20:54:10.924247 17848 net.cpp:367] inception_4a/relu_5x5 -> inception_4a/5x5 (in-place)
I0509 20:54:10.924640 17848 net.cpp:122] Setting up inception_4a/relu_5x5
I0509 20:54:10.924651 17848 net.cpp:129] Top shape: 32 48 14 14 (301056)
I0509 20:54:10.924654 17848 net.cpp:137] Memory required for data: 1167294976
I0509 20:54:10.924657 17848 layer_factory.hpp:77] Creating layer inception_4a/pool
I0509 20:54:10.924664 17848 net.cpp:84] Creating Layer inception_4a/pool
I0509 20:54:10.924667 17848 net.cpp:406] inception_4a/pool <- pool3/3x3_s2_pool3/3x3_s2_0_split_3
I0509 20:54:10.924672 17848 net.cpp:380] inception_4a/pool -> inception_4a/pool
I0509 20:54:10.924715 17848 net.cpp:122] Setting up inception_4a/pool
I0509 20:54:10.924746 17848 net.cpp:129] Top shape: 32 480 14 14 (3010560)
I0509 20:54:10.924748 17848 net.cpp:137] Memory required for data: 1179337216
I0509 20:54:10.924751 17848 layer_factory.hpp:77] Creating layer inception_4a/pool_proj
I0509 20:54:10.924760 17848 net.cpp:84] Creating Layer inception_4a/pool_proj
I0509 20:54:10.924763 17848 net.cpp:406] inception_4a/pool_proj <- inception_4a/pool
I0509 20:54:10.924770 17848 net.cpp:380] inception_4a/pool_proj -> inception_4a/pool_proj
I0509 20:54:10.927259 17848 net.cpp:122] Setting up inception_4a/pool_proj
I0509 20:54:10.927269 17848 net.cpp:129] Top shape: 32 64 14 14 (401408)
I0509 20:54:10.927273 17848 net.cpp:137] Memory required for data: 1180942848
I0509 20:54:10.927278 17848 layer_factory.hpp:77] Creating layer inception_4a/relu_pool_proj
I0509 20:54:10.927284 17848 net.cpp:84] Creating Layer inception_4a/relu_pool_proj
I0509 20:54:10.927287 17848 net.cpp:406] inception_4a/relu_pool_proj <- inception_4a/pool_proj
I0509 20:54:10.927292 17848 net.cpp:367] inception_4a/relu_pool_proj -> inception_4a/pool_proj (in-place)
I0509 20:54:10.927860 17848 net.cpp:122] Setting up inception_4a/relu_pool_proj
I0509 20:54:10.927868 17848 net.cpp:129] Top shape: 32 64 14 14 (401408)
I0509 20:54:10.927871 17848 net.cpp:137] Memory required for data: 1182548480
I0509 20:54:10.927875 17848 layer_factory.hpp:77] Creating layer inception_4a/output
I0509 20:54:10.927881 17848 net.cpp:84] Creating Layer inception_4a/output
I0509 20:54:10.927884 17848 net.cpp:406] inception_4a/output <- inception_4a/1x1
I0509 20:54:10.927889 17848 net.cpp:406] inception_4a/output <- inception_4a/3x3
I0509 20:54:10.927893 17848 net.cpp:406] inception_4a/output <- inception_4a/5x5
I0509 20:54:10.927896 17848 net.cpp:406] inception_4a/output <- inception_4a/pool_proj
I0509 20:54:10.927901 17848 net.cpp:380] inception_4a/output -> inception_4a/output
I0509 20:54:10.927928 17848 net.cpp:122] Setting up inception_4a/output
I0509 20:54:10.927934 17848 net.cpp:129] Top shape: 32 512 14 14 (3211264)
I0509 20:54:10.927937 17848 net.cpp:137] Memory required for data: 1195393536
I0509 20:54:10.927939 17848 layer_factory.hpp:77] Creating layer inception_4a/output_inception_4a/output_0_split
I0509 20:54:10.927947 17848 net.cpp:84] Creating Layer inception_4a/output_inception_4a/output_0_split
I0509 20:54:10.927950 17848 net.cpp:406] inception_4a/output_inception_4a/output_0_split <- inception_4a/output
I0509 20:54:10.927954 17848 net.cpp:380] inception_4a/output_inception_4a/output_0_split -> inception_4a/output_inception_4a/output_0_split_0
I0509 20:54:10.927963 17848 net.cpp:380] inception_4a/output_inception_4a/output_0_split -> inception_4a/output_inception_4a/output_0_split_1
I0509 20:54:10.927968 17848 net.cpp:380] inception_4a/output_inception_4a/output_0_split -> inception_4a/output_inception_4a/output_0_split_2
I0509 20:54:10.927973 17848 net.cpp:380] inception_4a/output_inception_4a/output_0_split -> inception_4a/output_inception_4a/output_0_split_3
I0509 20:54:10.927978 17848 net.cpp:380] inception_4a/output_inception_4a/output_0_split -> inception_4a/output_inception_4a/output_0_split_4
I0509 20:54:10.928040 17848 net.cpp:122] Setting up inception_4a/output_inception_4a/output_0_split
I0509 20:54:10.928045 17848 net.cpp:129] Top shape: 32 512 14 14 (3211264)
I0509 20:54:10.928048 17848 net.cpp:129] Top shape: 32 512 14 14 (3211264)
I0509 20:54:10.928052 17848 net.cpp:129] Top shape: 32 512 14 14 (3211264)
I0509 20:54:10.928056 17848 net.cpp:129] Top shape: 32 512 14 14 (3211264)
I0509 20:54:10.928058 17848 net.cpp:129] Top shape: 32 512 14 14 (3211264)
I0509 20:54:10.928061 17848 net.cpp:137] Memory required for data: 1259618816
I0509 20:54:10.928064 17848 layer_factory.hpp:77] Creating layer loss1/ave_pool
I0509 20:54:10.928071 17848 net.cpp:84] Creating Layer loss1/ave_pool
I0509 20:54:10.928073 17848 net.cpp:406] loss1/ave_pool <- inception_4a/output_inception_4a/output_0_split_0
I0509 20:54:10.928077 17848 net.cpp:380] loss1/ave_pool -> loss1/ave_pool
I0509 20:54:10.928503 17848 net.cpp:122] Setting up loss1/ave_pool
I0509 20:54:10.928515 17848 net.cpp:129] Top shape: 32 512 4 4 (262144)
I0509 20:54:10.928520 17848 net.cpp:137] Memory required for data: 1260667392
I0509 20:54:10.928524 17848 layer_factory.hpp:77] Creating layer loss1/conv
I0509 20:54:10.928535 17848 net.cpp:84] Creating Layer loss1/conv
I0509 20:54:10.928539 17848 net.cpp:406] loss1/conv <- loss1/ave_pool
I0509 20:54:10.928544 17848 net.cpp:380] loss1/conv -> loss1/conv
I0509 20:54:10.932341 17848 net.cpp:122] Setting up loss1/conv
I0509 20:54:10.932353 17848 net.cpp:129] Top shape: 32 128 4 4 (65536)
I0509 20:54:10.932356 17848 net.cpp:137] Memory required for data: 1260929536
I0509 20:54:10.932363 17848 layer_factory.hpp:77] Creating layer loss1/relu_conv
I0509 20:54:10.932369 17848 net.cpp:84] Creating Layer loss1/relu_conv
I0509 20:54:10.932373 17848 net.cpp:406] loss1/relu_conv <- loss1/conv
I0509 20:54:10.932379 17848 net.cpp:367] loss1/relu_conv -> loss1/conv (in-place)
I0509 20:54:10.932961 17848 net.cpp:122] Setting up loss1/relu_conv
I0509 20:54:10.932976 17848 net.cpp:129] Top shape: 32 128 4 4 (65536)
I0509 20:54:10.932978 17848 net.cpp:137] Memory required for data: 1261191680
I0509 20:54:10.932981 17848 layer_factory.hpp:77] Creating layer loss1/fc
I0509 20:54:10.932989 17848 net.cpp:84] Creating Layer loss1/fc
I0509 20:54:10.932992 17848 net.cpp:406] loss1/fc <- loss1/conv
I0509 20:54:10.932998 17848 net.cpp:380] loss1/fc -> loss1/fc
I0509 20:54:10.945192 17848 net.cpp:122] Setting up loss1/fc
I0509 20:54:10.945212 17848 net.cpp:129] Top shape: 32 1024 (32768)
I0509 20:54:10.945215 17848 net.cpp:137] Memory required for data: 1261322752
I0509 20:54:10.945224 17848 layer_factory.hpp:77] Creating layer loss1/relu_fc
I0509 20:54:10.945232 17848 net.cpp:84] Creating Layer loss1/relu_fc
I0509 20:54:10.945236 17848 net.cpp:406] loss1/relu_fc <- loss1/fc
I0509 20:54:10.945243 17848 net.cpp:367] loss1/relu_fc -> loss1/fc (in-place)
I0509 20:54:10.945750 17848 net.cpp:122] Setting up loss1/relu_fc
I0509 20:54:10.945760 17848 net.cpp:129] Top shape: 32 1024 (32768)
I0509 20:54:10.945762 17848 net.cpp:137] Memory required for data: 1261453824
I0509 20:54:10.945765 17848 layer_factory.hpp:77] Creating layer loss1/drop_fc
I0509 20:54:10.945787 17848 net.cpp:84] Creating Layer loss1/drop_fc
I0509 20:54:10.945791 17848 net.cpp:406] loss1/drop_fc <- loss1/fc
I0509 20:54:10.945796 17848 net.cpp:367] loss1/drop_fc -> loss1/fc (in-place)
I0509 20:54:10.945824 17848 net.cpp:122] Setting up loss1/drop_fc
I0509 20:54:10.945829 17848 net.cpp:129] Top shape: 32 1024 (32768)
I0509 20:54:10.945832 17848 net.cpp:137] Memory required for data: 1261584896
I0509 20:54:10.945835 17848 layer_factory.hpp:77] Creating layer loss1/classifier
I0509 20:54:10.945842 17848 net.cpp:84] Creating Layer loss1/classifier
I0509 20:54:10.945845 17848 net.cpp:406] loss1/classifier <- loss1/fc
I0509 20:54:10.945853 17848 net.cpp:380] loss1/classifier -> loss1/classifier
I0509 20:54:10.946878 17848 net.cpp:122] Setting up loss1/classifier
I0509 20:54:10.946884 17848 net.cpp:129] Top shape: 32 196 (6272)
I0509 20:54:10.946887 17848 net.cpp:137] Memory required for data: 1261609984
I0509 20:54:10.946892 17848 layer_factory.hpp:77] Creating layer loss1/loss
I0509 20:54:10.946900 17848 net.cpp:84] Creating Layer loss1/loss
I0509 20:54:10.946903 17848 net.cpp:406] loss1/loss <- loss1/classifier
I0509 20:54:10.946908 17848 net.cpp:406] loss1/loss <- label_train-data_1_split_0
I0509 20:54:10.946913 17848 net.cpp:380] loss1/loss -> loss1/loss
I0509 20:54:10.946920 17848 layer_factory.hpp:77] Creating layer loss1/loss
I0509 20:54:10.947640 17848 net.cpp:122] Setting up loss1/loss
I0509 20:54:10.947649 17848 net.cpp:129] Top shape: (1)
I0509 20:54:10.947651 17848 net.cpp:132]     with loss weight 0.3
I0509 20:54:10.947670 17848 net.cpp:137] Memory required for data: 1261609988
I0509 20:54:10.947674 17848 layer_factory.hpp:77] Creating layer inception_4b/1x1
I0509 20:54:10.947685 17848 net.cpp:84] Creating Layer inception_4b/1x1
I0509 20:54:10.947690 17848 net.cpp:406] inception_4b/1x1 <- inception_4a/output_inception_4a/output_0_split_1
I0509 20:54:10.947716 17848 net.cpp:380] inception_4b/1x1 -> inception_4b/1x1
I0509 20:54:10.950350 17848 net.cpp:122] Setting up inception_4b/1x1
I0509 20:54:10.950361 17848 net.cpp:129] Top shape: 32 160 14 14 (1003520)
I0509 20:54:10.950363 17848 net.cpp:137] Memory required for data: 1265624068
I0509 20:54:10.950369 17848 layer_factory.hpp:77] Creating layer inception_4b/relu_1x1
I0509 20:54:10.950376 17848 net.cpp:84] Creating Layer inception_4b/relu_1x1
I0509 20:54:10.950381 17848 net.cpp:406] inception_4b/relu_1x1 <- inception_4b/1x1
I0509 20:54:10.950385 17848 net.cpp:367] inception_4b/relu_1x1 -> inception_4b/1x1 (in-place)
I0509 20:54:10.950956 17848 net.cpp:122] Setting up inception_4b/relu_1x1
I0509 20:54:10.950966 17848 net.cpp:129] Top shape: 32 160 14 14 (1003520)
I0509 20:54:10.950969 17848 net.cpp:137] Memory required for data: 1269638148
I0509 20:54:10.950973 17848 layer_factory.hpp:77] Creating layer inception_4b/3x3_reduce
I0509 20:54:10.950981 17848 net.cpp:84] Creating Layer inception_4b/3x3_reduce
I0509 20:54:10.950985 17848 net.cpp:406] inception_4b/3x3_reduce <- inception_4a/output_inception_4a/output_0_split_2
I0509 20:54:10.950992 17848 net.cpp:380] inception_4b/3x3_reduce -> inception_4b/3x3_reduce
I0509 20:54:10.954840 17848 net.cpp:122] Setting up inception_4b/3x3_reduce
I0509 20:54:10.954851 17848 net.cpp:129] Top shape: 32 112 14 14 (702464)
I0509 20:54:10.954854 17848 net.cpp:137] Memory required for data: 1272448004
I0509 20:54:10.954861 17848 layer_factory.hpp:77] Creating layer inception_4b/relu_3x3_reduce
I0509 20:54:10.954869 17848 net.cpp:84] Creating Layer inception_4b/relu_3x3_reduce
I0509 20:54:10.954874 17848 net.cpp:406] inception_4b/relu_3x3_reduce <- inception_4b/3x3_reduce
I0509 20:54:10.954879 17848 net.cpp:367] inception_4b/relu_3x3_reduce -> inception_4b/3x3_reduce (in-place)
I0509 20:54:10.955266 17848 net.cpp:122] Setting up inception_4b/relu_3x3_reduce
I0509 20:54:10.955276 17848 net.cpp:129] Top shape: 32 112 14 14 (702464)
I0509 20:54:10.955278 17848 net.cpp:137] Memory required for data: 1275257860
I0509 20:54:10.955281 17848 layer_factory.hpp:77] Creating layer inception_4b/3x3
I0509 20:54:10.955294 17848 net.cpp:84] Creating Layer inception_4b/3x3
I0509 20:54:10.955298 17848 net.cpp:406] inception_4b/3x3 <- inception_4b/3x3_reduce
I0509 20:54:10.955304 17848 net.cpp:380] inception_4b/3x3 -> inception_4b/3x3
I0509 20:54:10.959453 17848 net.cpp:122] Setting up inception_4b/3x3
I0509 20:54:10.959463 17848 net.cpp:129] Top shape: 32 224 14 14 (1404928)
I0509 20:54:10.959466 17848 net.cpp:137] Memory required for data: 1280877572
I0509 20:54:10.959472 17848 layer_factory.hpp:77] Creating layer inception_4b/relu_3x3
I0509 20:54:10.959481 17848 net.cpp:84] Creating Layer inception_4b/relu_3x3
I0509 20:54:10.959484 17848 net.cpp:406] inception_4b/relu_3x3 <- inception_4b/3x3
I0509 20:54:10.959488 17848 net.cpp:367] inception_4b/relu_3x3 -> inception_4b/3x3 (in-place)
I0509 20:54:10.960041 17848 net.cpp:122] Setting up inception_4b/relu_3x3
I0509 20:54:10.960053 17848 net.cpp:129] Top shape: 32 224 14 14 (1404928)
I0509 20:54:10.960057 17848 net.cpp:137] Memory required for data: 1286497284
I0509 20:54:10.960059 17848 layer_factory.hpp:77] Creating layer inception_4b/5x5_reduce
I0509 20:54:10.960068 17848 net.cpp:84] Creating Layer inception_4b/5x5_reduce
I0509 20:54:10.960072 17848 net.cpp:406] inception_4b/5x5_reduce <- inception_4a/output_inception_4a/output_0_split_3
I0509 20:54:10.960078 17848 net.cpp:380] inception_4b/5x5_reduce -> inception_4b/5x5_reduce
I0509 20:54:10.962335 17848 net.cpp:122] Setting up inception_4b/5x5_reduce
I0509 20:54:10.962345 17848 net.cpp:129] Top shape: 32 24 14 14 (150528)
I0509 20:54:10.962348 17848 net.cpp:137] Memory required for data: 1287099396
I0509 20:54:10.962354 17848 layer_factory.hpp:77] Creating layer inception_4b/relu_5x5_reduce
I0509 20:54:10.962360 17848 net.cpp:84] Creating Layer inception_4b/relu_5x5_reduce
I0509 20:54:10.962364 17848 net.cpp:406] inception_4b/relu_5x5_reduce <- inception_4b/5x5_reduce
I0509 20:54:10.962390 17848 net.cpp:367] inception_4b/relu_5x5_reduce -> inception_4b/5x5_reduce (in-place)
I0509 20:54:10.962952 17848 net.cpp:122] Setting up inception_4b/relu_5x5_reduce
I0509 20:54:10.962961 17848 net.cpp:129] Top shape: 32 24 14 14 (150528)
I0509 20:54:10.962965 17848 net.cpp:137] Memory required for data: 1287701508
I0509 20:54:10.962967 17848 layer_factory.hpp:77] Creating layer inception_4b/5x5
I0509 20:54:10.962976 17848 net.cpp:84] Creating Layer inception_4b/5x5
I0509 20:54:10.962980 17848 net.cpp:406] inception_4b/5x5 <- inception_4b/5x5_reduce
I0509 20:54:10.962987 17848 net.cpp:380] inception_4b/5x5 -> inception_4b/5x5
I0509 20:54:10.966451 17848 net.cpp:122] Setting up inception_4b/5x5
I0509 20:54:10.966462 17848 net.cpp:129] Top shape: 32 64 14 14 (401408)
I0509 20:54:10.966465 17848 net.cpp:137] Memory required for data: 1289307140
I0509 20:54:10.966471 17848 layer_factory.hpp:77] Creating layer inception_4b/relu_5x5
I0509 20:54:10.966477 17848 net.cpp:84] Creating Layer inception_4b/relu_5x5
I0509 20:54:10.966480 17848 net.cpp:406] inception_4b/relu_5x5 <- inception_4b/5x5
I0509 20:54:10.966485 17848 net.cpp:367] inception_4b/relu_5x5 -> inception_4b/5x5 (in-place)
I0509 20:54:10.967046 17848 net.cpp:122] Setting up inception_4b/relu_5x5
I0509 20:54:10.967054 17848 net.cpp:129] Top shape: 32 64 14 14 (401408)
I0509 20:54:10.967057 17848 net.cpp:137] Memory required for data: 1290912772
I0509 20:54:10.967061 17848 layer_factory.hpp:77] Creating layer inception_4b/pool
I0509 20:54:10.967067 17848 net.cpp:84] Creating Layer inception_4b/pool
I0509 20:54:10.967072 17848 net.cpp:406] inception_4b/pool <- inception_4a/output_inception_4a/output_0_split_4
I0509 20:54:10.967078 17848 net.cpp:380] inception_4b/pool -> inception_4b/pool
I0509 20:54:10.967135 17848 net.cpp:122] Setting up inception_4b/pool
I0509 20:54:10.967141 17848 net.cpp:129] Top shape: 32 512 14 14 (3211264)
I0509 20:54:10.967144 17848 net.cpp:137] Memory required for data: 1303757828
I0509 20:54:10.967146 17848 layer_factory.hpp:77] Creating layer inception_4b/pool_proj
I0509 20:54:10.967156 17848 net.cpp:84] Creating Layer inception_4b/pool_proj
I0509 20:54:10.967159 17848 net.cpp:406] inception_4b/pool_proj <- inception_4b/pool
I0509 20:54:10.967164 17848 net.cpp:380] inception_4b/pool_proj -> inception_4b/pool_proj
I0509 20:54:10.969310 17848 net.cpp:122] Setting up inception_4b/pool_proj
I0509 20:54:10.969321 17848 net.cpp:129] Top shape: 32 64 14 14 (401408)
I0509 20:54:10.969324 17848 net.cpp:137] Memory required for data: 1305363460
I0509 20:54:10.969331 17848 layer_factory.hpp:77] Creating layer inception_4b/relu_pool_proj
I0509 20:54:10.969336 17848 net.cpp:84] Creating Layer inception_4b/relu_pool_proj
I0509 20:54:10.969339 17848 net.cpp:406] inception_4b/relu_pool_proj <- inception_4b/pool_proj
I0509 20:54:10.969344 17848 net.cpp:367] inception_4b/relu_pool_proj -> inception_4b/pool_proj (in-place)
I0509 20:54:10.969902 17848 net.cpp:122] Setting up inception_4b/relu_pool_proj
I0509 20:54:10.969910 17848 net.cpp:129] Top shape: 32 64 14 14 (401408)
I0509 20:54:10.969913 17848 net.cpp:137] Memory required for data: 1306969092
I0509 20:54:10.969916 17848 layer_factory.hpp:77] Creating layer inception_4b/output
I0509 20:54:10.969925 17848 net.cpp:84] Creating Layer inception_4b/output
I0509 20:54:10.969928 17848 net.cpp:406] inception_4b/output <- inception_4b/1x1
I0509 20:54:10.969933 17848 net.cpp:406] inception_4b/output <- inception_4b/3x3
I0509 20:54:10.969938 17848 net.cpp:406] inception_4b/output <- inception_4b/5x5
I0509 20:54:10.969940 17848 net.cpp:406] inception_4b/output <- inception_4b/pool_proj
I0509 20:54:10.969945 17848 net.cpp:380] inception_4b/output -> inception_4b/output
I0509 20:54:10.969974 17848 net.cpp:122] Setting up inception_4b/output
I0509 20:54:10.969980 17848 net.cpp:129] Top shape: 32 512 14 14 (3211264)
I0509 20:54:10.969981 17848 net.cpp:137] Memory required for data: 1319814148
I0509 20:54:10.969985 17848 layer_factory.hpp:77] Creating layer inception_4b/output_inception_4b/output_0_split
I0509 20:54:10.970005 17848 net.cpp:84] Creating Layer inception_4b/output_inception_4b/output_0_split
I0509 20:54:10.970010 17848 net.cpp:406] inception_4b/output_inception_4b/output_0_split <- inception_4b/output
I0509 20:54:10.970016 17848 net.cpp:380] inception_4b/output_inception_4b/output_0_split -> inception_4b/output_inception_4b/output_0_split_0
I0509 20:54:10.970022 17848 net.cpp:380] inception_4b/output_inception_4b/output_0_split -> inception_4b/output_inception_4b/output_0_split_1
I0509 20:54:10.970029 17848 net.cpp:380] inception_4b/output_inception_4b/output_0_split -> inception_4b/output_inception_4b/output_0_split_2
I0509 20:54:10.970036 17848 net.cpp:380] inception_4b/output_inception_4b/output_0_split -> inception_4b/output_inception_4b/output_0_split_3
I0509 20:54:10.970086 17848 net.cpp:122] Setting up inception_4b/output_inception_4b/output_0_split
I0509 20:54:10.970091 17848 net.cpp:129] Top shape: 32 512 14 14 (3211264)
I0509 20:54:10.970094 17848 net.cpp:129] Top shape: 32 512 14 14 (3211264)
I0509 20:54:10.970098 17848 net.cpp:129] Top shape: 32 512 14 14 (3211264)
I0509 20:54:10.970101 17848 net.cpp:129] Top shape: 32 512 14 14 (3211264)
I0509 20:54:10.970104 17848 net.cpp:137] Memory required for data: 1371194372
I0509 20:54:10.970108 17848 layer_factory.hpp:77] Creating layer inception_4c/1x1
I0509 20:54:10.970116 17848 net.cpp:84] Creating Layer inception_4c/1x1
I0509 20:54:10.970120 17848 net.cpp:406] inception_4c/1x1 <- inception_4b/output_inception_4b/output_0_split_0
I0509 20:54:10.970126 17848 net.cpp:380] inception_4c/1x1 -> inception_4c/1x1
I0509 20:54:10.973933 17848 net.cpp:122] Setting up inception_4c/1x1
I0509 20:54:10.973946 17848 net.cpp:129] Top shape: 32 128 14 14 (802816)
I0509 20:54:10.973949 17848 net.cpp:137] Memory required for data: 1374405636
I0509 20:54:10.973955 17848 layer_factory.hpp:77] Creating layer inception_4c/relu_1x1
I0509 20:54:10.973961 17848 net.cpp:84] Creating Layer inception_4c/relu_1x1
I0509 20:54:10.973964 17848 net.cpp:406] inception_4c/relu_1x1 <- inception_4c/1x1
I0509 20:54:10.973969 17848 net.cpp:367] inception_4c/relu_1x1 -> inception_4c/1x1 (in-place)
I0509 20:54:10.974347 17848 net.cpp:122] Setting up inception_4c/relu_1x1
I0509 20:54:10.974360 17848 net.cpp:129] Top shape: 32 128 14 14 (802816)
I0509 20:54:10.974364 17848 net.cpp:137] Memory required for data: 1377616900
I0509 20:54:10.974366 17848 layer_factory.hpp:77] Creating layer inception_4c/3x3_reduce
I0509 20:54:10.974375 17848 net.cpp:84] Creating Layer inception_4c/3x3_reduce
I0509 20:54:10.974380 17848 net.cpp:406] inception_4c/3x3_reduce <- inception_4b/output_inception_4b/output_0_split_1
I0509 20:54:10.974385 17848 net.cpp:380] inception_4c/3x3_reduce -> inception_4c/3x3_reduce
I0509 20:54:10.976907 17848 net.cpp:122] Setting up inception_4c/3x3_reduce
I0509 20:54:10.976919 17848 net.cpp:129] Top shape: 32 128 14 14 (802816)
I0509 20:54:10.976922 17848 net.cpp:137] Memory required for data: 1380828164
I0509 20:54:10.976928 17848 layer_factory.hpp:77] Creating layer inception_4c/relu_3x3_reduce
I0509 20:54:10.976934 17848 net.cpp:84] Creating Layer inception_4c/relu_3x3_reduce
I0509 20:54:10.976938 17848 net.cpp:406] inception_4c/relu_3x3_reduce <- inception_4c/3x3_reduce
I0509 20:54:10.976943 17848 net.cpp:367] inception_4c/relu_3x3_reduce -> inception_4c/3x3_reduce (in-place)
I0509 20:54:10.977510 17848 net.cpp:122] Setting up inception_4c/relu_3x3_reduce
I0509 20:54:10.977519 17848 net.cpp:129] Top shape: 32 128 14 14 (802816)
I0509 20:54:10.977522 17848 net.cpp:137] Memory required for data: 1384039428
I0509 20:54:10.977525 17848 layer_factory.hpp:77] Creating layer inception_4c/3x3
I0509 20:54:10.977535 17848 net.cpp:84] Creating Layer inception_4c/3x3
I0509 20:54:10.977538 17848 net.cpp:406] inception_4c/3x3 <- inception_4c/3x3_reduce
I0509 20:54:10.977546 17848 net.cpp:380] inception_4c/3x3 -> inception_4c/3x3
I0509 20:54:10.981803 17848 net.cpp:122] Setting up inception_4c/3x3
I0509 20:54:10.981813 17848 net.cpp:129] Top shape: 32 256 14 14 (1605632)
I0509 20:54:10.981830 17848 net.cpp:137] Memory required for data: 1390461956
I0509 20:54:10.981848 17848 layer_factory.hpp:77] Creating layer inception_4c/relu_3x3
I0509 20:54:10.981854 17848 net.cpp:84] Creating Layer inception_4c/relu_3x3
I0509 20:54:10.981858 17848 net.cpp:406] inception_4c/relu_3x3 <- inception_4c/3x3
I0509 20:54:10.981863 17848 net.cpp:367] inception_4c/relu_3x3 -> inception_4c/3x3 (in-place)
I0509 20:54:10.982425 17848 net.cpp:122] Setting up inception_4c/relu_3x3
I0509 20:54:10.982434 17848 net.cpp:129] Top shape: 32 256 14 14 (1605632)
I0509 20:54:10.982437 17848 net.cpp:137] Memory required for data: 1396884484
I0509 20:54:10.982440 17848 layer_factory.hpp:77] Creating layer inception_4c/5x5_reduce
I0509 20:54:10.982450 17848 net.cpp:84] Creating Layer inception_4c/5x5_reduce
I0509 20:54:10.982453 17848 net.cpp:406] inception_4c/5x5_reduce <- inception_4b/output_inception_4b/output_0_split_2
I0509 20:54:10.982461 17848 net.cpp:380] inception_4c/5x5_reduce -> inception_4c/5x5_reduce
I0509 20:54:10.985787 17848 net.cpp:122] Setting up inception_4c/5x5_reduce
I0509 20:54:10.985797 17848 net.cpp:129] Top shape: 32 24 14 14 (150528)
I0509 20:54:10.985800 17848 net.cpp:137] Memory required for data: 1397486596
I0509 20:54:10.985806 17848 layer_factory.hpp:77] Creating layer inception_4c/relu_5x5_reduce
I0509 20:54:10.985812 17848 net.cpp:84] Creating Layer inception_4c/relu_5x5_reduce
I0509 20:54:10.985816 17848 net.cpp:406] inception_4c/relu_5x5_reduce <- inception_4c/5x5_reduce
I0509 20:54:10.985823 17848 net.cpp:367] inception_4c/relu_5x5_reduce -> inception_4c/5x5_reduce (in-place)
I0509 20:54:10.986551 17848 net.cpp:122] Setting up inception_4c/relu_5x5_reduce
I0509 20:54:10.986560 17848 net.cpp:129] Top shape: 32 24 14 14 (150528)
I0509 20:54:10.986563 17848 net.cpp:137] Memory required for data: 1398088708
I0509 20:54:10.986567 17848 layer_factory.hpp:77] Creating layer inception_4c/5x5
I0509 20:54:10.986577 17848 net.cpp:84] Creating Layer inception_4c/5x5
I0509 20:54:10.986580 17848 net.cpp:406] inception_4c/5x5 <- inception_4c/5x5_reduce
I0509 20:54:10.986588 17848 net.cpp:380] inception_4c/5x5 -> inception_4c/5x5
I0509 20:54:10.988817 17848 net.cpp:122] Setting up inception_4c/5x5
I0509 20:54:10.988826 17848 net.cpp:129] Top shape: 32 64 14 14 (401408)
I0509 20:54:10.988829 17848 net.cpp:137] Memory required for data: 1399694340
I0509 20:54:10.988835 17848 layer_factory.hpp:77] Creating layer inception_4c/relu_5x5
I0509 20:54:10.988842 17848 net.cpp:84] Creating Layer inception_4c/relu_5x5
I0509 20:54:10.988844 17848 net.cpp:406] inception_4c/relu_5x5 <- inception_4c/5x5
I0509 20:54:10.988852 17848 net.cpp:367] inception_4c/relu_5x5 -> inception_4c/5x5 (in-place)
I0509 20:54:10.989418 17848 net.cpp:122] Setting up inception_4c/relu_5x5
I0509 20:54:10.989428 17848 net.cpp:129] Top shape: 32 64 14 14 (401408)
I0509 20:54:10.989429 17848 net.cpp:137] Memory required for data: 1401299972
I0509 20:54:10.989434 17848 layer_factory.hpp:77] Creating layer inception_4c/pool
I0509 20:54:10.989441 17848 net.cpp:84] Creating Layer inception_4c/pool
I0509 20:54:10.989444 17848 net.cpp:406] inception_4c/pool <- inception_4b/output_inception_4b/output_0_split_3
I0509 20:54:10.989450 17848 net.cpp:380] inception_4c/pool -> inception_4c/pool
I0509 20:54:10.989492 17848 net.cpp:122] Setting up inception_4c/pool
I0509 20:54:10.989498 17848 net.cpp:129] Top shape: 32 512 14 14 (3211264)
I0509 20:54:10.989501 17848 net.cpp:137] Memory required for data: 1414145028
I0509 20:54:10.989503 17848 layer_factory.hpp:77] Creating layer inception_4c/pool_proj
I0509 20:54:10.989513 17848 net.cpp:84] Creating Layer inception_4c/pool_proj
I0509 20:54:10.989516 17848 net.cpp:406] inception_4c/pool_proj <- inception_4c/pool
I0509 20:54:10.989523 17848 net.cpp:380] inception_4c/pool_proj -> inception_4c/pool_proj
I0509 20:54:10.993072 17848 net.cpp:122] Setting up inception_4c/pool_proj
I0509 20:54:10.993083 17848 net.cpp:129] Top shape: 32 64 14 14 (401408)
I0509 20:54:10.993101 17848 net.cpp:137] Memory required for data: 1415750660
I0509 20:54:10.993108 17848 layer_factory.hpp:77] Creating layer inception_4c/relu_pool_proj
I0509 20:54:10.993114 17848 net.cpp:84] Creating Layer inception_4c/relu_pool_proj
I0509 20:54:10.993117 17848 net.cpp:406] inception_4c/relu_pool_proj <- inception_4c/pool_proj
I0509 20:54:10.993122 17848 net.cpp:367] inception_4c/relu_pool_proj -> inception_4c/pool_proj (in-place)
I0509 20:54:10.993510 17848 net.cpp:122] Setting up inception_4c/relu_pool_proj
I0509 20:54:10.993521 17848 net.cpp:129] Top shape: 32 64 14 14 (401408)
I0509 20:54:10.993525 17848 net.cpp:137] Memory required for data: 1417356292
I0509 20:54:10.993527 17848 layer_factory.hpp:77] Creating layer inception_4c/output
I0509 20:54:10.993533 17848 net.cpp:84] Creating Layer inception_4c/output
I0509 20:54:10.993536 17848 net.cpp:406] inception_4c/output <- inception_4c/1x1
I0509 20:54:10.993541 17848 net.cpp:406] inception_4c/output <- inception_4c/3x3
I0509 20:54:10.993546 17848 net.cpp:406] inception_4c/output <- inception_4c/5x5
I0509 20:54:10.993548 17848 net.cpp:406] inception_4c/output <- inception_4c/pool_proj
I0509 20:54:10.993557 17848 net.cpp:380] inception_4c/output -> inception_4c/output
I0509 20:54:10.993584 17848 net.cpp:122] Setting up inception_4c/output
I0509 20:54:10.993590 17848 net.cpp:129] Top shape: 32 512 14 14 (3211264)
I0509 20:54:10.993592 17848 net.cpp:137] Memory required for data: 1430201348
I0509 20:54:10.993595 17848 layer_factory.hpp:77] Creating layer inception_4c/output_inception_4c/output_0_split
I0509 20:54:10.993602 17848 net.cpp:84] Creating Layer inception_4c/output_inception_4c/output_0_split
I0509 20:54:10.993607 17848 net.cpp:406] inception_4c/output_inception_4c/output_0_split <- inception_4c/output
I0509 20:54:10.993613 17848 net.cpp:380] inception_4c/output_inception_4c/output_0_split -> inception_4c/output_inception_4c/output_0_split_0
I0509 20:54:10.993618 17848 net.cpp:380] inception_4c/output_inception_4c/output_0_split -> inception_4c/output_inception_4c/output_0_split_1
I0509 20:54:10.993624 17848 net.cpp:380] inception_4c/output_inception_4c/output_0_split -> inception_4c/output_inception_4c/output_0_split_2
I0509 20:54:10.993629 17848 net.cpp:380] inception_4c/output_inception_4c/output_0_split -> inception_4c/output_inception_4c/output_0_split_3
I0509 20:54:10.993680 17848 net.cpp:122] Setting up inception_4c/output_inception_4c/output_0_split
I0509 20:54:10.993685 17848 net.cpp:129] Top shape: 32 512 14 14 (3211264)
I0509 20:54:10.993688 17848 net.cpp:129] Top shape: 32 512 14 14 (3211264)
I0509 20:54:10.993691 17848 net.cpp:129] Top shape: 32 512 14 14 (3211264)
I0509 20:54:10.993695 17848 net.cpp:129] Top shape: 32 512 14 14 (3211264)
I0509 20:54:10.993697 17848 net.cpp:137] Memory required for data: 1481581572
I0509 20:54:10.993700 17848 layer_factory.hpp:77] Creating layer inception_4d/1x1
I0509 20:54:10.993710 17848 net.cpp:84] Creating Layer inception_4d/1x1
I0509 20:54:10.993713 17848 net.cpp:406] inception_4d/1x1 <- inception_4c/output_inception_4c/output_0_split_0
I0509 20:54:10.993721 17848 net.cpp:380] inception_4d/1x1 -> inception_4d/1x1
I0509 20:54:10.996161 17848 net.cpp:122] Setting up inception_4d/1x1
I0509 20:54:10.996171 17848 net.cpp:129] Top shape: 32 112 14 14 (702464)
I0509 20:54:10.996174 17848 net.cpp:137] Memory required for data: 1484391428
I0509 20:54:10.996181 17848 layer_factory.hpp:77] Creating layer inception_4d/relu_1x1
I0509 20:54:10.996187 17848 net.cpp:84] Creating Layer inception_4d/relu_1x1
I0509 20:54:10.996191 17848 net.cpp:406] inception_4d/relu_1x1 <- inception_4d/1x1
I0509 20:54:10.996196 17848 net.cpp:367] inception_4d/relu_1x1 -> inception_4d/1x1 (in-place)
I0509 20:54:10.996765 17848 net.cpp:122] Setting up inception_4d/relu_1x1
I0509 20:54:10.996775 17848 net.cpp:129] Top shape: 32 112 14 14 (702464)
I0509 20:54:10.996778 17848 net.cpp:137] Memory required for data: 1487201284
I0509 20:54:10.996781 17848 layer_factory.hpp:77] Creating layer inception_4d/3x3_reduce
I0509 20:54:10.996793 17848 net.cpp:84] Creating Layer inception_4d/3x3_reduce
I0509 20:54:10.996809 17848 net.cpp:406] inception_4d/3x3_reduce <- inception_4c/output_inception_4c/output_0_split_1
I0509 20:54:10.996815 17848 net.cpp:380] inception_4d/3x3_reduce -> inception_4d/3x3_reduce
I0509 20:54:10.999383 17848 net.cpp:122] Setting up inception_4d/3x3_reduce
I0509 20:54:10.999392 17848 net.cpp:129] Top shape: 32 144 14 14 (903168)
I0509 20:54:10.999395 17848 net.cpp:137] Memory required for data: 1490813956
I0509 20:54:10.999402 17848 layer_factory.hpp:77] Creating layer inception_4d/relu_3x3_reduce
I0509 20:54:10.999408 17848 net.cpp:84] Creating Layer inception_4d/relu_3x3_reduce
I0509 20:54:10.999410 17848 net.cpp:406] inception_4d/relu_3x3_reduce <- inception_4d/3x3_reduce
I0509 20:54:10.999418 17848 net.cpp:367] inception_4d/relu_3x3_reduce -> inception_4d/3x3_reduce (in-place)
I0509 20:54:10.999979 17848 net.cpp:122] Setting up inception_4d/relu_3x3_reduce
I0509 20:54:10.999990 17848 net.cpp:129] Top shape: 32 144 14 14 (903168)
I0509 20:54:10.999994 17848 net.cpp:137] Memory required for data: 1494426628
I0509 20:54:10.999996 17848 layer_factory.hpp:77] Creating layer inception_4d/3x3
I0509 20:54:11.000005 17848 net.cpp:84] Creating Layer inception_4d/3x3
I0509 20:54:11.000010 17848 net.cpp:406] inception_4d/3x3 <- inception_4d/3x3_reduce
I0509 20:54:11.000020 17848 net.cpp:380] inception_4d/3x3 -> inception_4d/3x3
I0509 20:54:11.006103 17848 net.cpp:122] Setting up inception_4d/3x3
I0509 20:54:11.006116 17848 net.cpp:129] Top shape: 32 288 14 14 (1806336)
I0509 20:54:11.006119 17848 net.cpp:137] Memory required for data: 1501651972
I0509 20:54:11.006126 17848 layer_factory.hpp:77] Creating layer inception_4d/relu_3x3
I0509 20:54:11.006134 17848 net.cpp:84] Creating Layer inception_4d/relu_3x3
I0509 20:54:11.006137 17848 net.cpp:406] inception_4d/relu_3x3 <- inception_4d/3x3
I0509 20:54:11.006145 17848 net.cpp:367] inception_4d/relu_3x3 -> inception_4d/3x3 (in-place)
I0509 20:54:11.006700 17848 net.cpp:122] Setting up inception_4d/relu_3x3
I0509 20:54:11.006708 17848 net.cpp:129] Top shape: 32 288 14 14 (1806336)
I0509 20:54:11.006711 17848 net.cpp:137] Memory required for data: 1508877316
I0509 20:54:11.006714 17848 layer_factory.hpp:77] Creating layer inception_4d/5x5_reduce
I0509 20:54:11.006726 17848 net.cpp:84] Creating Layer inception_4d/5x5_reduce
I0509 20:54:11.006731 17848 net.cpp:406] inception_4d/5x5_reduce <- inception_4c/output_inception_4c/output_0_split_2
I0509 20:54:11.006736 17848 net.cpp:380] inception_4d/5x5_reduce -> inception_4d/5x5_reduce
I0509 20:54:11.008838 17848 net.cpp:122] Setting up inception_4d/5x5_reduce
I0509 20:54:11.008848 17848 net.cpp:129] Top shape: 32 32 14 14 (200704)
I0509 20:54:11.008852 17848 net.cpp:137] Memory required for data: 1509680132
I0509 20:54:11.008857 17848 layer_factory.hpp:77] Creating layer inception_4d/relu_5x5_reduce
I0509 20:54:11.008863 17848 net.cpp:84] Creating Layer inception_4d/relu_5x5_reduce
I0509 20:54:11.008867 17848 net.cpp:406] inception_4d/relu_5x5_reduce <- inception_4d/5x5_reduce
I0509 20:54:11.008872 17848 net.cpp:367] inception_4d/relu_5x5_reduce -> inception_4d/5x5_reduce (in-place)
I0509 20:54:11.009598 17848 net.cpp:122] Setting up inception_4d/relu_5x5_reduce
I0509 20:54:11.009608 17848 net.cpp:129] Top shape: 32 32 14 14 (200704)
I0509 20:54:11.009611 17848 net.cpp:137] Memory required for data: 1510482948
I0509 20:54:11.009614 17848 layer_factory.hpp:77] Creating layer inception_4d/5x5
I0509 20:54:11.009625 17848 net.cpp:84] Creating Layer inception_4d/5x5
I0509 20:54:11.009629 17848 net.cpp:406] inception_4d/5x5 <- inception_4d/5x5_reduce
I0509 20:54:11.009636 17848 net.cpp:380] inception_4d/5x5 -> inception_4d/5x5
I0509 20:54:11.011883 17848 net.cpp:122] Setting up inception_4d/5x5
I0509 20:54:11.011893 17848 net.cpp:129] Top shape: 32 64 14 14 (401408)
I0509 20:54:11.011894 17848 net.cpp:137] Memory required for data: 1512088580
I0509 20:54:11.011900 17848 layer_factory.hpp:77] Creating layer inception_4d/relu_5x5
I0509 20:54:11.011909 17848 net.cpp:84] Creating Layer inception_4d/relu_5x5
I0509 20:54:11.011929 17848 net.cpp:406] inception_4d/relu_5x5 <- inception_4d/5x5
I0509 20:54:11.011934 17848 net.cpp:367] inception_4d/relu_5x5 -> inception_4d/5x5 (in-place)
I0509 20:54:11.014328 17848 net.cpp:122] Setting up inception_4d/relu_5x5
I0509 20:54:11.014341 17848 net.cpp:129] Top shape: 32 64 14 14 (401408)
I0509 20:54:11.014344 17848 net.cpp:137] Memory required for data: 1513694212
I0509 20:54:11.014348 17848 layer_factory.hpp:77] Creating layer inception_4d/pool
I0509 20:54:11.014356 17848 net.cpp:84] Creating Layer inception_4d/pool
I0509 20:54:11.014360 17848 net.cpp:406] inception_4d/pool <- inception_4c/output_inception_4c/output_0_split_3
I0509 20:54:11.014366 17848 net.cpp:380] inception_4d/pool -> inception_4d/pool
I0509 20:54:11.014415 17848 net.cpp:122] Setting up inception_4d/pool
I0509 20:54:11.014420 17848 net.cpp:129] Top shape: 32 512 14 14 (3211264)
I0509 20:54:11.014422 17848 net.cpp:137] Memory required for data: 1526539268
I0509 20:54:11.014425 17848 layer_factory.hpp:77] Creating layer inception_4d/pool_proj
I0509 20:54:11.014436 17848 net.cpp:84] Creating Layer inception_4d/pool_proj
I0509 20:54:11.014438 17848 net.cpp:406] inception_4d/pool_proj <- inception_4d/pool
I0509 20:54:11.014446 17848 net.cpp:380] inception_4d/pool_proj -> inception_4d/pool_proj
I0509 20:54:11.016856 17848 net.cpp:122] Setting up inception_4d/pool_proj
I0509 20:54:11.016867 17848 net.cpp:129] Top shape: 32 64 14 14 (401408)
I0509 20:54:11.016870 17848 net.cpp:137] Memory required for data: 1528144900
I0509 20:54:11.016876 17848 layer_factory.hpp:77] Creating layer inception_4d/relu_pool_proj
I0509 20:54:11.016882 17848 net.cpp:84] Creating Layer inception_4d/relu_pool_proj
I0509 20:54:11.016886 17848 net.cpp:406] inception_4d/relu_pool_proj <- inception_4d/pool_proj
I0509 20:54:11.016893 17848 net.cpp:367] inception_4d/relu_pool_proj -> inception_4d/pool_proj (in-place)
I0509 20:54:11.017288 17848 net.cpp:122] Setting up inception_4d/relu_pool_proj
I0509 20:54:11.017299 17848 net.cpp:129] Top shape: 32 64 14 14 (401408)
I0509 20:54:11.017302 17848 net.cpp:137] Memory required for data: 1529750532
I0509 20:54:11.017305 17848 layer_factory.hpp:77] Creating layer inception_4d/output
I0509 20:54:11.017310 17848 net.cpp:84] Creating Layer inception_4d/output
I0509 20:54:11.017314 17848 net.cpp:406] inception_4d/output <- inception_4d/1x1
I0509 20:54:11.017318 17848 net.cpp:406] inception_4d/output <- inception_4d/3x3
I0509 20:54:11.017323 17848 net.cpp:406] inception_4d/output <- inception_4d/5x5
I0509 20:54:11.017326 17848 net.cpp:406] inception_4d/output <- inception_4d/pool_proj
I0509 20:54:11.017331 17848 net.cpp:380] inception_4d/output -> inception_4d/output
I0509 20:54:11.017359 17848 net.cpp:122] Setting up inception_4d/output
I0509 20:54:11.017367 17848 net.cpp:129] Top shape: 32 528 14 14 (3311616)
I0509 20:54:11.017369 17848 net.cpp:137] Memory required for data: 1542996996
I0509 20:54:11.017372 17848 layer_factory.hpp:77] Creating layer inception_4d/output_inception_4d/output_0_split
I0509 20:54:11.017379 17848 net.cpp:84] Creating Layer inception_4d/output_inception_4d/output_0_split
I0509 20:54:11.017381 17848 net.cpp:406] inception_4d/output_inception_4d/output_0_split <- inception_4d/output
I0509 20:54:11.017386 17848 net.cpp:380] inception_4d/output_inception_4d/output_0_split -> inception_4d/output_inception_4d/output_0_split_0
I0509 20:54:11.017395 17848 net.cpp:380] inception_4d/output_inception_4d/output_0_split -> inception_4d/output_inception_4d/output_0_split_1
I0509 20:54:11.017400 17848 net.cpp:380] inception_4d/output_inception_4d/output_0_split -> inception_4d/output_inception_4d/output_0_split_2
I0509 20:54:11.017405 17848 net.cpp:380] inception_4d/output_inception_4d/output_0_split -> inception_4d/output_inception_4d/output_0_split_3
I0509 20:54:11.017416 17848 net.cpp:380] inception_4d/output_inception_4d/output_0_split -> inception_4d/output_inception_4d/output_0_split_4
I0509 20:54:11.017474 17848 net.cpp:122] Setting up inception_4d/output_inception_4d/output_0_split
I0509 20:54:11.017496 17848 net.cpp:129] Top shape: 32 528 14 14 (3311616)
I0509 20:54:11.017500 17848 net.cpp:129] Top shape: 32 528 14 14 (3311616)
I0509 20:54:11.017503 17848 net.cpp:129] Top shape: 32 528 14 14 (3311616)
I0509 20:54:11.017506 17848 net.cpp:129] Top shape: 32 528 14 14 (3311616)
I0509 20:54:11.017510 17848 net.cpp:129] Top shape: 32 528 14 14 (3311616)
I0509 20:54:11.017513 17848 net.cpp:137] Memory required for data: 1609229316
I0509 20:54:11.017515 17848 layer_factory.hpp:77] Creating layer loss2/ave_pool
I0509 20:54:11.017520 17848 net.cpp:84] Creating Layer loss2/ave_pool
I0509 20:54:11.017524 17848 net.cpp:406] loss2/ave_pool <- inception_4d/output_inception_4d/output_0_split_0
I0509 20:54:11.017529 17848 net.cpp:380] loss2/ave_pool -> loss2/ave_pool
I0509 20:54:11.018112 17848 net.cpp:122] Setting up loss2/ave_pool
I0509 20:54:11.018121 17848 net.cpp:129] Top shape: 32 528 4 4 (270336)
I0509 20:54:11.018124 17848 net.cpp:137] Memory required for data: 1610310660
I0509 20:54:11.018127 17848 layer_factory.hpp:77] Creating layer loss2/conv
I0509 20:54:11.018137 17848 net.cpp:84] Creating Layer loss2/conv
I0509 20:54:11.018141 17848 net.cpp:406] loss2/conv <- loss2/ave_pool
I0509 20:54:11.018148 17848 net.cpp:380] loss2/conv -> loss2/conv
I0509 20:54:11.020855 17848 net.cpp:122] Setting up loss2/conv
I0509 20:54:11.020865 17848 net.cpp:129] Top shape: 32 128 4 4 (65536)
I0509 20:54:11.020869 17848 net.cpp:137] Memory required for data: 1610572804
I0509 20:54:11.020874 17848 layer_factory.hpp:77] Creating layer loss2/relu_conv
I0509 20:54:11.020880 17848 net.cpp:84] Creating Layer loss2/relu_conv
I0509 20:54:11.020884 17848 net.cpp:406] loss2/relu_conv <- loss2/conv
I0509 20:54:11.020891 17848 net.cpp:367] loss2/relu_conv -> loss2/conv (in-place)
I0509 20:54:11.021281 17848 net.cpp:122] Setting up loss2/relu_conv
I0509 20:54:11.021289 17848 net.cpp:129] Top shape: 32 128 4 4 (65536)
I0509 20:54:11.021292 17848 net.cpp:137] Memory required for data: 1610834948
I0509 20:54:11.021296 17848 layer_factory.hpp:77] Creating layer loss2/fc
I0509 20:54:11.021304 17848 net.cpp:84] Creating Layer loss2/fc
I0509 20:54:11.021307 17848 net.cpp:406] loss2/fc <- loss2/conv
I0509 20:54:11.021314 17848 net.cpp:380] loss2/fc -> loss2/fc
I0509 20:54:11.033475 17848 net.cpp:122] Setting up loss2/fc
I0509 20:54:11.033497 17848 net.cpp:129] Top shape: 32 1024 (32768)
I0509 20:54:11.033500 17848 net.cpp:137] Memory required for data: 1610966020
I0509 20:54:11.033509 17848 layer_factory.hpp:77] Creating layer loss2/relu_fc
I0509 20:54:11.033520 17848 net.cpp:84] Creating Layer loss2/relu_fc
I0509 20:54:11.033525 17848 net.cpp:406] loss2/relu_fc <- loss2/fc
I0509 20:54:11.033532 17848 net.cpp:367] loss2/relu_fc -> loss2/fc (in-place)
I0509 20:54:11.035758 17848 net.cpp:122] Setting up loss2/relu_fc
I0509 20:54:11.035771 17848 net.cpp:129] Top shape: 32 1024 (32768)
I0509 20:54:11.035773 17848 net.cpp:137] Memory required for data: 1611097092
I0509 20:54:11.035778 17848 layer_factory.hpp:77] Creating layer loss2/drop_fc
I0509 20:54:11.035786 17848 net.cpp:84] Creating Layer loss2/drop_fc
I0509 20:54:11.035790 17848 net.cpp:406] loss2/drop_fc <- loss2/fc
I0509 20:54:11.035796 17848 net.cpp:367] loss2/drop_fc -> loss2/fc (in-place)
I0509 20:54:11.035827 17848 net.cpp:122] Setting up loss2/drop_fc
I0509 20:54:11.035832 17848 net.cpp:129] Top shape: 32 1024 (32768)
I0509 20:54:11.035835 17848 net.cpp:137] Memory required for data: 1611228164
I0509 20:54:11.035837 17848 layer_factory.hpp:77] Creating layer loss2/classifier
I0509 20:54:11.035845 17848 net.cpp:84] Creating Layer loss2/classifier
I0509 20:54:11.035848 17848 net.cpp:406] loss2/classifier <- loss2/fc
I0509 20:54:11.035854 17848 net.cpp:380] loss2/classifier -> loss2/classifier
I0509 20:54:11.037766 17848 net.cpp:122] Setting up loss2/classifier
I0509 20:54:11.037778 17848 net.cpp:129] Top shape: 32 196 (6272)
I0509 20:54:11.037781 17848 net.cpp:137] Memory required for data: 1611253252
I0509 20:54:11.037788 17848 layer_factory.hpp:77] Creating layer loss2/loss
I0509 20:54:11.037814 17848 net.cpp:84] Creating Layer loss2/loss
I0509 20:54:11.037818 17848 net.cpp:406] loss2/loss <- loss2/classifier
I0509 20:54:11.037823 17848 net.cpp:406] loss2/loss <- label_train-data_1_split_1
I0509 20:54:11.037828 17848 net.cpp:380] loss2/loss -> loss2/loss
I0509 20:54:11.037835 17848 layer_factory.hpp:77] Creating layer loss2/loss
I0509 20:54:11.038653 17848 net.cpp:122] Setting up loss2/loss
I0509 20:54:11.038662 17848 net.cpp:129] Top shape: (1)
I0509 20:54:11.038666 17848 net.cpp:132]     with loss weight 0.3
I0509 20:54:11.038674 17848 net.cpp:137] Memory required for data: 1611253256
I0509 20:54:11.038678 17848 layer_factory.hpp:77] Creating layer inception_4e/1x1
I0509 20:54:11.038689 17848 net.cpp:84] Creating Layer inception_4e/1x1
I0509 20:54:11.038693 17848 net.cpp:406] inception_4e/1x1 <- inception_4d/output_inception_4d/output_0_split_1
I0509 20:54:11.038702 17848 net.cpp:380] inception_4e/1x1 -> inception_4e/1x1
I0509 20:54:11.041374 17848 net.cpp:122] Setting up inception_4e/1x1
I0509 20:54:11.041384 17848 net.cpp:129] Top shape: 32 256 14 14 (1605632)
I0509 20:54:11.041388 17848 net.cpp:137] Memory required for data: 1617675784
I0509 20:54:11.041393 17848 layer_factory.hpp:77] Creating layer inception_4e/relu_1x1
I0509 20:54:11.041400 17848 net.cpp:84] Creating Layer inception_4e/relu_1x1
I0509 20:54:11.041404 17848 net.cpp:406] inception_4e/relu_1x1 <- inception_4e/1x1
I0509 20:54:11.041409 17848 net.cpp:367] inception_4e/relu_1x1 -> inception_4e/1x1 (in-place)
I0509 20:54:11.042002 17848 net.cpp:122] Setting up inception_4e/relu_1x1
I0509 20:54:11.042016 17848 net.cpp:129] Top shape: 32 256 14 14 (1605632)
I0509 20:54:11.042018 17848 net.cpp:137] Memory required for data: 1624098312
I0509 20:54:11.042022 17848 layer_factory.hpp:77] Creating layer inception_4e/3x3_reduce
I0509 20:54:11.042032 17848 net.cpp:84] Creating Layer inception_4e/3x3_reduce
I0509 20:54:11.042035 17848 net.cpp:406] inception_4e/3x3_reduce <- inception_4d/output_inception_4d/output_0_split_2
I0509 20:54:11.042043 17848 net.cpp:380] inception_4e/3x3_reduce -> inception_4e/3x3_reduce
I0509 20:54:11.044430 17848 net.cpp:122] Setting up inception_4e/3x3_reduce
I0509 20:54:11.044438 17848 net.cpp:129] Top shape: 32 160 14 14 (1003520)
I0509 20:54:11.044441 17848 net.cpp:137] Memory required for data: 1628112392
I0509 20:54:11.044447 17848 layer_factory.hpp:77] Creating layer inception_4e/relu_3x3_reduce
I0509 20:54:11.044453 17848 net.cpp:84] Creating Layer inception_4e/relu_3x3_reduce
I0509 20:54:11.044458 17848 net.cpp:406] inception_4e/relu_3x3_reduce <- inception_4e/3x3_reduce
I0509 20:54:11.044464 17848 net.cpp:367] inception_4e/relu_3x3_reduce -> inception_4e/3x3_reduce (in-place)
I0509 20:54:11.045150 17848 net.cpp:122] Setting up inception_4e/relu_3x3_reduce
I0509 20:54:11.045161 17848 net.cpp:129] Top shape: 32 160 14 14 (1003520)
I0509 20:54:11.045164 17848 net.cpp:137] Memory required for data: 1632126472
I0509 20:54:11.045168 17848 layer_factory.hpp:77] Creating layer inception_4e/3x3
I0509 20:54:11.045177 17848 net.cpp:84] Creating Layer inception_4e/3x3
I0509 20:54:11.045181 17848 net.cpp:406] inception_4e/3x3 <- inception_4e/3x3_reduce
I0509 20:54:11.045187 17848 net.cpp:380] inception_4e/3x3 -> inception_4e/3x3
I0509 20:54:11.052449 17848 net.cpp:122] Setting up inception_4e/3x3
I0509 20:54:11.052464 17848 net.cpp:129] Top shape: 32 320 14 14 (2007040)
I0509 20:54:11.052466 17848 net.cpp:137] Memory required for data: 1640154632
I0509 20:54:11.052474 17848 layer_factory.hpp:77] Creating layer inception_4e/relu_3x3
I0509 20:54:11.052479 17848 net.cpp:84] Creating Layer inception_4e/relu_3x3
I0509 20:54:11.052484 17848 net.cpp:406] inception_4e/relu_3x3 <- inception_4e/3x3
I0509 20:54:11.052489 17848 net.cpp:367] inception_4e/relu_3x3 -> inception_4e/3x3 (in-place)
I0509 20:54:11.052891 17848 net.cpp:122] Setting up inception_4e/relu_3x3
I0509 20:54:11.052903 17848 net.cpp:129] Top shape: 32 320 14 14 (2007040)
I0509 20:54:11.052906 17848 net.cpp:137] Memory required for data: 1648182792
I0509 20:54:11.052929 17848 layer_factory.hpp:77] Creating layer inception_4e/5x5_reduce
I0509 20:54:11.052939 17848 net.cpp:84] Creating Layer inception_4e/5x5_reduce
I0509 20:54:11.052943 17848 net.cpp:406] inception_4e/5x5_reduce <- inception_4d/output_inception_4d/output_0_split_3
I0509 20:54:11.052951 17848 net.cpp:380] inception_4e/5x5_reduce -> inception_4e/5x5_reduce
I0509 20:54:11.055251 17848 net.cpp:122] Setting up inception_4e/5x5_reduce
I0509 20:54:11.055263 17848 net.cpp:129] Top shape: 32 32 14 14 (200704)
I0509 20:54:11.055266 17848 net.cpp:137] Memory required for data: 1648985608
I0509 20:54:11.055272 17848 layer_factory.hpp:77] Creating layer inception_4e/relu_5x5_reduce
I0509 20:54:11.055277 17848 net.cpp:84] Creating Layer inception_4e/relu_5x5_reduce
I0509 20:54:11.055281 17848 net.cpp:406] inception_4e/relu_5x5_reduce <- inception_4e/5x5_reduce
I0509 20:54:11.055286 17848 net.cpp:367] inception_4e/relu_5x5_reduce -> inception_4e/5x5_reduce (in-place)
I0509 20:54:11.055857 17848 net.cpp:122] Setting up inception_4e/relu_5x5_reduce
I0509 20:54:11.055867 17848 net.cpp:129] Top shape: 32 32 14 14 (200704)
I0509 20:54:11.055869 17848 net.cpp:137] Memory required for data: 1649788424
I0509 20:54:11.055873 17848 layer_factory.hpp:77] Creating layer inception_4e/5x5
I0509 20:54:11.055917 17848 net.cpp:84] Creating Layer inception_4e/5x5
I0509 20:54:11.055922 17848 net.cpp:406] inception_4e/5x5 <- inception_4e/5x5_reduce
I0509 20:54:11.055927 17848 net.cpp:380] inception_4e/5x5 -> inception_4e/5x5
I0509 20:54:11.059895 17848 net.cpp:122] Setting up inception_4e/5x5
I0509 20:54:11.059906 17848 net.cpp:129] Top shape: 32 128 14 14 (802816)
I0509 20:54:11.059909 17848 net.cpp:137] Memory required for data: 1652999688
I0509 20:54:11.059916 17848 layer_factory.hpp:77] Creating layer inception_4e/relu_5x5
I0509 20:54:11.059922 17848 net.cpp:84] Creating Layer inception_4e/relu_5x5
I0509 20:54:11.059926 17848 net.cpp:406] inception_4e/relu_5x5 <- inception_4e/5x5
I0509 20:54:11.059932 17848 net.cpp:367] inception_4e/relu_5x5 -> inception_4e/5x5 (in-place)
I0509 20:54:11.060506 17848 net.cpp:122] Setting up inception_4e/relu_5x5
I0509 20:54:11.060521 17848 net.cpp:129] Top shape: 32 128 14 14 (802816)
I0509 20:54:11.060524 17848 net.cpp:137] Memory required for data: 1656210952
I0509 20:54:11.060528 17848 layer_factory.hpp:77] Creating layer inception_4e/pool
I0509 20:54:11.060534 17848 net.cpp:84] Creating Layer inception_4e/pool
I0509 20:54:11.060540 17848 net.cpp:406] inception_4e/pool <- inception_4d/output_inception_4d/output_0_split_4
I0509 20:54:11.060547 17848 net.cpp:380] inception_4e/pool -> inception_4e/pool
I0509 20:54:11.060590 17848 net.cpp:122] Setting up inception_4e/pool
I0509 20:54:11.060595 17848 net.cpp:129] Top shape: 32 528 14 14 (3311616)
I0509 20:54:11.060598 17848 net.cpp:137] Memory required for data: 1669457416
I0509 20:54:11.060601 17848 layer_factory.hpp:77] Creating layer inception_4e/pool_proj
I0509 20:54:11.060613 17848 net.cpp:84] Creating Layer inception_4e/pool_proj
I0509 20:54:11.060616 17848 net.cpp:406] inception_4e/pool_proj <- inception_4e/pool
I0509 20:54:11.060621 17848 net.cpp:380] inception_4e/pool_proj -> inception_4e/pool_proj
I0509 20:54:11.064061 17848 net.cpp:122] Setting up inception_4e/pool_proj
I0509 20:54:11.064072 17848 net.cpp:129] Top shape: 32 128 14 14 (802816)
I0509 20:54:11.064074 17848 net.cpp:137] Memory required for data: 1672668680
I0509 20:54:11.064080 17848 layer_factory.hpp:77] Creating layer inception_4e/relu_pool_proj
I0509 20:54:11.064087 17848 net.cpp:84] Creating Layer inception_4e/relu_pool_proj
I0509 20:54:11.064090 17848 net.cpp:406] inception_4e/relu_pool_proj <- inception_4e/pool_proj
I0509 20:54:11.064097 17848 net.cpp:367] inception_4e/relu_pool_proj -> inception_4e/pool_proj (in-place)
I0509 20:54:11.064991 17848 net.cpp:122] Setting up inception_4e/relu_pool_proj
I0509 20:54:11.065001 17848 net.cpp:129] Top shape: 32 128 14 14 (802816)
I0509 20:54:11.065004 17848 net.cpp:137] Memory required for data: 1675879944
I0509 20:54:11.065008 17848 layer_factory.hpp:77] Creating layer inception_4e/output
I0509 20:54:11.065030 17848 net.cpp:84] Creating Layer inception_4e/output
I0509 20:54:11.065034 17848 net.cpp:406] inception_4e/output <- inception_4e/1x1
I0509 20:54:11.065039 17848 net.cpp:406] inception_4e/output <- inception_4e/3x3
I0509 20:54:11.065042 17848 net.cpp:406] inception_4e/output <- inception_4e/5x5
I0509 20:54:11.065047 17848 net.cpp:406] inception_4e/output <- inception_4e/pool_proj
I0509 20:54:11.065052 17848 net.cpp:380] inception_4e/output -> inception_4e/output
I0509 20:54:11.065083 17848 net.cpp:122] Setting up inception_4e/output
I0509 20:54:11.065089 17848 net.cpp:129] Top shape: 32 832 14 14 (5218304)
I0509 20:54:11.065091 17848 net.cpp:137] Memory required for data: 1696753160
I0509 20:54:11.065094 17848 layer_factory.hpp:77] Creating layer pool4/3x3_s2
I0509 20:54:11.065099 17848 net.cpp:84] Creating Layer pool4/3x3_s2
I0509 20:54:11.065102 17848 net.cpp:406] pool4/3x3_s2 <- inception_4e/output
I0509 20:54:11.065107 17848 net.cpp:380] pool4/3x3_s2 -> pool4/3x3_s2
I0509 20:54:11.065141 17848 net.cpp:122] Setting up pool4/3x3_s2
I0509 20:54:11.065146 17848 net.cpp:129] Top shape: 32 832 7 7 (1304576)
I0509 20:54:11.065150 17848 net.cpp:137] Memory required for data: 1701971464
I0509 20:54:11.065151 17848 layer_factory.hpp:77] Creating layer pool4/3x3_s2_pool4/3x3_s2_0_split
I0509 20:54:11.065157 17848 net.cpp:84] Creating Layer pool4/3x3_s2_pool4/3x3_s2_0_split
I0509 20:54:11.065160 17848 net.cpp:406] pool4/3x3_s2_pool4/3x3_s2_0_split <- pool4/3x3_s2
I0509 20:54:11.065166 17848 net.cpp:380] pool4/3x3_s2_pool4/3x3_s2_0_split -> pool4/3x3_s2_pool4/3x3_s2_0_split_0
I0509 20:54:11.065171 17848 net.cpp:380] pool4/3x3_s2_pool4/3x3_s2_0_split -> pool4/3x3_s2_pool4/3x3_s2_0_split_1
I0509 20:54:11.065179 17848 net.cpp:380] pool4/3x3_s2_pool4/3x3_s2_0_split -> pool4/3x3_s2_pool4/3x3_s2_0_split_2
I0509 20:54:11.065184 17848 net.cpp:380] pool4/3x3_s2_pool4/3x3_s2_0_split -> pool4/3x3_s2_pool4/3x3_s2_0_split_3
I0509 20:54:11.065230 17848 net.cpp:122] Setting up pool4/3x3_s2_pool4/3x3_s2_0_split
I0509 20:54:11.065235 17848 net.cpp:129] Top shape: 32 832 7 7 (1304576)
I0509 20:54:11.065238 17848 net.cpp:129] Top shape: 32 832 7 7 (1304576)
I0509 20:54:11.065243 17848 net.cpp:129] Top shape: 32 832 7 7 (1304576)
I0509 20:54:11.065245 17848 net.cpp:129] Top shape: 32 832 7 7 (1304576)
I0509 20:54:11.065248 17848 net.cpp:137] Memory required for data: 1722844680
I0509 20:54:11.065251 17848 layer_factory.hpp:77] Creating layer inception_5a/1x1
I0509 20:54:11.065260 17848 net.cpp:84] Creating Layer inception_5a/1x1
I0509 20:54:11.065264 17848 net.cpp:406] inception_5a/1x1 <- pool4/3x3_s2_pool4/3x3_s2_0_split_0
I0509 20:54:11.065270 17848 net.cpp:380] inception_5a/1x1 -> inception_5a/1x1
I0509 20:54:11.068255 17848 net.cpp:122] Setting up inception_5a/1x1
I0509 20:54:11.068265 17848 net.cpp:129] Top shape: 32 256 7 7 (401408)
I0509 20:54:11.068269 17848 net.cpp:137] Memory required for data: 1724450312
I0509 20:54:11.068274 17848 layer_factory.hpp:77] Creating layer inception_5a/relu_1x1
I0509 20:54:11.068280 17848 net.cpp:84] Creating Layer inception_5a/relu_1x1
I0509 20:54:11.068284 17848 net.cpp:406] inception_5a/relu_1x1 <- inception_5a/1x1
I0509 20:54:11.068289 17848 net.cpp:367] inception_5a/relu_1x1 -> inception_5a/1x1 (in-place)
I0509 20:54:11.068878 17848 net.cpp:122] Setting up inception_5a/relu_1x1
I0509 20:54:11.068888 17848 net.cpp:129] Top shape: 32 256 7 7 (401408)
I0509 20:54:11.068892 17848 net.cpp:137] Memory required for data: 1726055944
I0509 20:54:11.068894 17848 layer_factory.hpp:77] Creating layer inception_5a/3x3_reduce
I0509 20:54:11.068904 17848 net.cpp:84] Creating Layer inception_5a/3x3_reduce
I0509 20:54:11.068908 17848 net.cpp:406] inception_5a/3x3_reduce <- pool4/3x3_s2_pool4/3x3_s2_0_split_1
I0509 20:54:11.068917 17848 net.cpp:380] inception_5a/3x3_reduce -> inception_5a/3x3_reduce
I0509 20:54:11.073773 17848 net.cpp:122] Setting up inception_5a/3x3_reduce
I0509 20:54:11.073784 17848 net.cpp:129] Top shape: 32 160 7 7 (250880)
I0509 20:54:11.073804 17848 net.cpp:137] Memory required for data: 1727059464
I0509 20:54:11.073810 17848 layer_factory.hpp:77] Creating layer inception_5a/relu_3x3_reduce
I0509 20:54:11.073818 17848 net.cpp:84] Creating Layer inception_5a/relu_3x3_reduce
I0509 20:54:11.073822 17848 net.cpp:406] inception_5a/relu_3x3_reduce <- inception_5a/3x3_reduce
I0509 20:54:11.073827 17848 net.cpp:367] inception_5a/relu_3x3_reduce -> inception_5a/3x3_reduce (in-place)
I0509 20:54:11.074218 17848 net.cpp:122] Setting up inception_5a/relu_3x3_reduce
I0509 20:54:11.074227 17848 net.cpp:129] Top shape: 32 160 7 7 (250880)
I0509 20:54:11.074230 17848 net.cpp:137] Memory required for data: 1728062984
I0509 20:54:11.074234 17848 layer_factory.hpp:77] Creating layer inception_5a/3x3
I0509 20:54:11.074242 17848 net.cpp:84] Creating Layer inception_5a/3x3
I0509 20:54:11.074246 17848 net.cpp:406] inception_5a/3x3 <- inception_5a/3x3_reduce
I0509 20:54:11.074254 17848 net.cpp:380] inception_5a/3x3 -> inception_5a/3x3
I0509 20:54:11.079861 17848 net.cpp:122] Setting up inception_5a/3x3
I0509 20:54:11.079872 17848 net.cpp:129] Top shape: 32 320 7 7 (501760)
I0509 20:54:11.079875 17848 net.cpp:137] Memory required for data: 1730070024
I0509 20:54:11.079881 17848 layer_factory.hpp:77] Creating layer inception_5a/relu_3x3
I0509 20:54:11.079891 17848 net.cpp:84] Creating Layer inception_5a/relu_3x3
I0509 20:54:11.079895 17848 net.cpp:406] inception_5a/relu_3x3 <- inception_5a/3x3
I0509 20:54:11.079901 17848 net.cpp:367] inception_5a/relu_3x3 -> inception_5a/3x3 (in-place)
I0509 20:54:11.080488 17848 net.cpp:122] Setting up inception_5a/relu_3x3
I0509 20:54:11.080510 17848 net.cpp:129] Top shape: 32 320 7 7 (501760)
I0509 20:54:11.080515 17848 net.cpp:137] Memory required for data: 1732077064
I0509 20:54:11.080518 17848 layer_factory.hpp:77] Creating layer inception_5a/5x5_reduce
I0509 20:54:11.080528 17848 net.cpp:84] Creating Layer inception_5a/5x5_reduce
I0509 20:54:11.080531 17848 net.cpp:406] inception_5a/5x5_reduce <- pool4/3x3_s2_pool4/3x3_s2_0_split_2
I0509 20:54:11.080539 17848 net.cpp:380] inception_5a/5x5_reduce -> inception_5a/5x5_reduce
I0509 20:54:11.084137 17848 net.cpp:122] Setting up inception_5a/5x5_reduce
I0509 20:54:11.084148 17848 net.cpp:129] Top shape: 32 32 7 7 (50176)
I0509 20:54:11.084151 17848 net.cpp:137] Memory required for data: 1732277768
I0509 20:54:11.084157 17848 layer_factory.hpp:77] Creating layer inception_5a/relu_5x5_reduce
I0509 20:54:11.084163 17848 net.cpp:84] Creating Layer inception_5a/relu_5x5_reduce
I0509 20:54:11.084167 17848 net.cpp:406] inception_5a/relu_5x5_reduce <- inception_5a/5x5_reduce
I0509 20:54:11.084174 17848 net.cpp:367] inception_5a/relu_5x5_reduce -> inception_5a/5x5_reduce (in-place)
I0509 20:54:11.084762 17848 net.cpp:122] Setting up inception_5a/relu_5x5_reduce
I0509 20:54:11.084772 17848 net.cpp:129] Top shape: 32 32 7 7 (50176)
I0509 20:54:11.084775 17848 net.cpp:137] Memory required for data: 1732478472
I0509 20:54:11.084779 17848 layer_factory.hpp:77] Creating layer inception_5a/5x5
I0509 20:54:11.084792 17848 net.cpp:84] Creating Layer inception_5a/5x5
I0509 20:54:11.084796 17848 net.cpp:406] inception_5a/5x5 <- inception_5a/5x5_reduce
I0509 20:54:11.084802 17848 net.cpp:380] inception_5a/5x5 -> inception_5a/5x5
I0509 20:54:11.087285 17848 net.cpp:122] Setting up inception_5a/5x5
I0509 20:54:11.087296 17848 net.cpp:129] Top shape: 32 128 7 7 (200704)
I0509 20:54:11.087298 17848 net.cpp:137] Memory required for data: 1733281288
I0509 20:54:11.087304 17848 layer_factory.hpp:77] Creating layer inception_5a/relu_5x5
I0509 20:54:11.087311 17848 net.cpp:84] Creating Layer inception_5a/relu_5x5
I0509 20:54:11.087313 17848 net.cpp:406] inception_5a/relu_5x5 <- inception_5a/5x5
I0509 20:54:11.087321 17848 net.cpp:367] inception_5a/relu_5x5 -> inception_5a/5x5 (in-place)
I0509 20:54:11.087884 17848 net.cpp:122] Setting up inception_5a/relu_5x5
I0509 20:54:11.087893 17848 net.cpp:129] Top shape: 32 128 7 7 (200704)
I0509 20:54:11.087896 17848 net.cpp:137] Memory required for data: 1734084104
I0509 20:54:11.087918 17848 layer_factory.hpp:77] Creating layer inception_5a/pool
I0509 20:54:11.087924 17848 net.cpp:84] Creating Layer inception_5a/pool
I0509 20:54:11.087929 17848 net.cpp:406] inception_5a/pool <- pool4/3x3_s2_pool4/3x3_s2_0_split_3
I0509 20:54:11.087936 17848 net.cpp:380] inception_5a/pool -> inception_5a/pool
I0509 20:54:11.087978 17848 net.cpp:122] Setting up inception_5a/pool
I0509 20:54:11.087985 17848 net.cpp:129] Top shape: 32 832 7 7 (1304576)
I0509 20:54:11.087986 17848 net.cpp:137] Memory required for data: 1739302408
I0509 20:54:11.087990 17848 layer_factory.hpp:77] Creating layer inception_5a/pool_proj
I0509 20:54:11.088001 17848 net.cpp:84] Creating Layer inception_5a/pool_proj
I0509 20:54:11.088003 17848 net.cpp:406] inception_5a/pool_proj <- inception_5a/pool
I0509 20:54:11.088008 17848 net.cpp:380] inception_5a/pool_proj -> inception_5a/pool_proj
I0509 20:54:11.091691 17848 net.cpp:122] Setting up inception_5a/pool_proj
I0509 20:54:11.091702 17848 net.cpp:129] Top shape: 32 128 7 7 (200704)
I0509 20:54:11.091706 17848 net.cpp:137] Memory required for data: 1740105224
I0509 20:54:11.091711 17848 layer_factory.hpp:77] Creating layer inception_5a/relu_pool_proj
I0509 20:54:11.091719 17848 net.cpp:84] Creating Layer inception_5a/relu_pool_proj
I0509 20:54:11.091723 17848 net.cpp:406] inception_5a/relu_pool_proj <- inception_5a/pool_proj
I0509 20:54:11.091728 17848 net.cpp:367] inception_5a/relu_pool_proj -> inception_5a/pool_proj (in-place)
I0509 20:54:11.092308 17848 net.cpp:122] Setting up inception_5a/relu_pool_proj
I0509 20:54:11.092319 17848 net.cpp:129] Top shape: 32 128 7 7 (200704)
I0509 20:54:11.092321 17848 net.cpp:137] Memory required for data: 1740908040
I0509 20:54:11.092324 17848 layer_factory.hpp:77] Creating layer inception_5a/output
I0509 20:54:11.092331 17848 net.cpp:84] Creating Layer inception_5a/output
I0509 20:54:11.092336 17848 net.cpp:406] inception_5a/output <- inception_5a/1x1
I0509 20:54:11.092340 17848 net.cpp:406] inception_5a/output <- inception_5a/3x3
I0509 20:54:11.092344 17848 net.cpp:406] inception_5a/output <- inception_5a/5x5
I0509 20:54:11.092348 17848 net.cpp:406] inception_5a/output <- inception_5a/pool_proj
I0509 20:54:11.092352 17848 net.cpp:380] inception_5a/output -> inception_5a/output
I0509 20:54:11.092381 17848 net.cpp:122] Setting up inception_5a/output
I0509 20:54:11.092387 17848 net.cpp:129] Top shape: 32 832 7 7 (1304576)
I0509 20:54:11.092391 17848 net.cpp:137] Memory required for data: 1746126344
I0509 20:54:11.092393 17848 layer_factory.hpp:77] Creating layer inception_5a/output_inception_5a/output_0_split
I0509 20:54:11.092399 17848 net.cpp:84] Creating Layer inception_5a/output_inception_5a/output_0_split
I0509 20:54:11.092402 17848 net.cpp:406] inception_5a/output_inception_5a/output_0_split <- inception_5a/output
I0509 20:54:11.092408 17848 net.cpp:380] inception_5a/output_inception_5a/output_0_split -> inception_5a/output_inception_5a/output_0_split_0
I0509 20:54:11.092415 17848 net.cpp:380] inception_5a/output_inception_5a/output_0_split -> inception_5a/output_inception_5a/output_0_split_1
I0509 20:54:11.092422 17848 net.cpp:380] inception_5a/output_inception_5a/output_0_split -> inception_5a/output_inception_5a/output_0_split_2
I0509 20:54:11.092428 17848 net.cpp:380] inception_5a/output_inception_5a/output_0_split -> inception_5a/output_inception_5a/output_0_split_3
I0509 20:54:11.092480 17848 net.cpp:122] Setting up inception_5a/output_inception_5a/output_0_split
I0509 20:54:11.092485 17848 net.cpp:129] Top shape: 32 832 7 7 (1304576)
I0509 20:54:11.092489 17848 net.cpp:129] Top shape: 32 832 7 7 (1304576)
I0509 20:54:11.092500 17848 net.cpp:129] Top shape: 32 832 7 7 (1304576)
I0509 20:54:11.092507 17848 net.cpp:129] Top shape: 32 832 7 7 (1304576)
I0509 20:54:11.092511 17848 net.cpp:137] Memory required for data: 1766999560
I0509 20:54:11.092516 17848 layer_factory.hpp:77] Creating layer inception_5b/1x1
I0509 20:54:11.092527 17848 net.cpp:84] Creating Layer inception_5b/1x1
I0509 20:54:11.092530 17848 net.cpp:406] inception_5b/1x1 <- inception_5a/output_inception_5a/output_0_split_0
I0509 20:54:11.092555 17848 net.cpp:380] inception_5b/1x1 -> inception_5b/1x1
I0509 20:54:11.098385 17848 net.cpp:122] Setting up inception_5b/1x1
I0509 20:54:11.098402 17848 net.cpp:129] Top shape: 32 384 7 7 (602112)
I0509 20:54:11.098404 17848 net.cpp:137] Memory required for data: 1769408008
I0509 20:54:11.098412 17848 layer_factory.hpp:77] Creating layer inception_5b/relu_1x1
I0509 20:54:11.098421 17848 net.cpp:84] Creating Layer inception_5b/relu_1x1
I0509 20:54:11.098425 17848 net.cpp:406] inception_5b/relu_1x1 <- inception_5b/1x1
I0509 20:54:11.098431 17848 net.cpp:367] inception_5b/relu_1x1 -> inception_5b/1x1 (in-place)
I0509 20:54:11.098820 17848 net.cpp:122] Setting up inception_5b/relu_1x1
I0509 20:54:11.098831 17848 net.cpp:129] Top shape: 32 384 7 7 (602112)
I0509 20:54:11.098834 17848 net.cpp:137] Memory required for data: 1771816456
I0509 20:54:11.098837 17848 layer_factory.hpp:77] Creating layer inception_5b/3x3_reduce
I0509 20:54:11.098847 17848 net.cpp:84] Creating Layer inception_5b/3x3_reduce
I0509 20:54:11.098851 17848 net.cpp:406] inception_5b/3x3_reduce <- inception_5a/output_inception_5a/output_0_split_1
I0509 20:54:11.098860 17848 net.cpp:380] inception_5b/3x3_reduce -> inception_5b/3x3_reduce
I0509 20:54:11.102643 17848 net.cpp:122] Setting up inception_5b/3x3_reduce
I0509 20:54:11.102655 17848 net.cpp:129] Top shape: 32 192 7 7 (301056)
I0509 20:54:11.102658 17848 net.cpp:137] Memory required for data: 1773020680
I0509 20:54:11.102665 17848 layer_factory.hpp:77] Creating layer inception_5b/relu_3x3_reduce
I0509 20:54:11.102671 17848 net.cpp:84] Creating Layer inception_5b/relu_3x3_reduce
I0509 20:54:11.102675 17848 net.cpp:406] inception_5b/relu_3x3_reduce <- inception_5b/3x3_reduce
I0509 20:54:11.102680 17848 net.cpp:367] inception_5b/relu_3x3_reduce -> inception_5b/3x3_reduce (in-place)
I0509 20:54:11.103075 17848 net.cpp:122] Setting up inception_5b/relu_3x3_reduce
I0509 20:54:11.103086 17848 net.cpp:129] Top shape: 32 192 7 7 (301056)
I0509 20:54:11.103088 17848 net.cpp:137] Memory required for data: 1774224904
I0509 20:54:11.103092 17848 layer_factory.hpp:77] Creating layer inception_5b/3x3
I0509 20:54:11.103101 17848 net.cpp:84] Creating Layer inception_5b/3x3
I0509 20:54:11.103106 17848 net.cpp:406] inception_5b/3x3 <- inception_5b/3x3_reduce
I0509 20:54:11.103113 17848 net.cpp:380] inception_5b/3x3 -> inception_5b/3x3
I0509 20:54:11.111239 17848 net.cpp:122] Setting up inception_5b/3x3
I0509 20:54:11.111258 17848 net.cpp:129] Top shape: 32 384 7 7 (602112)
I0509 20:54:11.111260 17848 net.cpp:137] Memory required for data: 1776633352
I0509 20:54:11.111268 17848 layer_factory.hpp:77] Creating layer inception_5b/relu_3x3
I0509 20:54:11.111276 17848 net.cpp:84] Creating Layer inception_5b/relu_3x3
I0509 20:54:11.111281 17848 net.cpp:406] inception_5b/relu_3x3 <- inception_5b/3x3
I0509 20:54:11.111289 17848 net.cpp:367] inception_5b/relu_3x3 -> inception_5b/3x3 (in-place)
I0509 20:54:11.111860 17848 net.cpp:122] Setting up inception_5b/relu_3x3
I0509 20:54:11.111871 17848 net.cpp:129] Top shape: 32 384 7 7 (602112)
I0509 20:54:11.111873 17848 net.cpp:137] Memory required for data: 1779041800
I0509 20:54:11.111876 17848 layer_factory.hpp:77] Creating layer inception_5b/5x5_reduce
I0509 20:54:11.111887 17848 net.cpp:84] Creating Layer inception_5b/5x5_reduce
I0509 20:54:11.111891 17848 net.cpp:406] inception_5b/5x5_reduce <- inception_5a/output_inception_5a/output_0_split_2
I0509 20:54:11.111897 17848 net.cpp:380] inception_5b/5x5_reduce -> inception_5b/5x5_reduce
I0509 20:54:11.114169 17848 net.cpp:122] Setting up inception_5b/5x5_reduce
I0509 20:54:11.114179 17848 net.cpp:129] Top shape: 32 48 7 7 (75264)
I0509 20:54:11.114182 17848 net.cpp:137] Memory required for data: 1779342856
I0509 20:54:11.114188 17848 layer_factory.hpp:77] Creating layer inception_5b/relu_5x5_reduce
I0509 20:54:11.114197 17848 net.cpp:84] Creating Layer inception_5b/relu_5x5_reduce
I0509 20:54:11.114199 17848 net.cpp:406] inception_5b/relu_5x5_reduce <- inception_5b/5x5_reduce
I0509 20:54:11.114223 17848 net.cpp:367] inception_5b/relu_5x5_reduce -> inception_5b/5x5_reduce (in-place)
I0509 20:54:11.114794 17848 net.cpp:122] Setting up inception_5b/relu_5x5_reduce
I0509 20:54:11.114804 17848 net.cpp:129] Top shape: 32 48 7 7 (75264)
I0509 20:54:11.114806 17848 net.cpp:137] Memory required for data: 1779643912
I0509 20:54:11.114809 17848 layer_factory.hpp:77] Creating layer inception_5b/5x5
I0509 20:54:11.114822 17848 net.cpp:84] Creating Layer inception_5b/5x5
I0509 20:54:11.114826 17848 net.cpp:406] inception_5b/5x5 <- inception_5b/5x5_reduce
I0509 20:54:11.114835 17848 net.cpp:380] inception_5b/5x5 -> inception_5b/5x5
I0509 20:54:11.117612 17848 net.cpp:122] Setting up inception_5b/5x5
I0509 20:54:11.117622 17848 net.cpp:129] Top shape: 32 128 7 7 (200704)
I0509 20:54:11.117625 17848 net.cpp:137] Memory required for data: 1780446728
I0509 20:54:11.117631 17848 layer_factory.hpp:77] Creating layer inception_5b/relu_5x5
I0509 20:54:11.117637 17848 net.cpp:84] Creating Layer inception_5b/relu_5x5
I0509 20:54:11.117641 17848 net.cpp:406] inception_5b/relu_5x5 <- inception_5b/5x5
I0509 20:54:11.117647 17848 net.cpp:367] inception_5b/relu_5x5 -> inception_5b/5x5 (in-place)
I0509 20:54:11.118221 17848 net.cpp:122] Setting up inception_5b/relu_5x5
I0509 20:54:11.118230 17848 net.cpp:129] Top shape: 32 128 7 7 (200704)
I0509 20:54:11.118233 17848 net.cpp:137] Memory required for data: 1781249544
I0509 20:54:11.118237 17848 layer_factory.hpp:77] Creating layer inception_5b/pool
I0509 20:54:11.118247 17848 net.cpp:84] Creating Layer inception_5b/pool
I0509 20:54:11.118252 17848 net.cpp:406] inception_5b/pool <- inception_5a/output_inception_5a/output_0_split_3
I0509 20:54:11.118257 17848 net.cpp:380] inception_5b/pool -> inception_5b/pool
I0509 20:54:11.118301 17848 net.cpp:122] Setting up inception_5b/pool
I0509 20:54:11.118307 17848 net.cpp:129] Top shape: 32 832 7 7 (1304576)
I0509 20:54:11.118310 17848 net.cpp:137] Memory required for data: 1786467848
I0509 20:54:11.118314 17848 layer_factory.hpp:77] Creating layer inception_5b/pool_proj
I0509 20:54:11.118325 17848 net.cpp:84] Creating Layer inception_5b/pool_proj
I0509 20:54:11.118328 17848 net.cpp:406] inception_5b/pool_proj <- inception_5b/pool
I0509 20:54:11.118335 17848 net.cpp:380] inception_5b/pool_proj -> inception_5b/pool_proj
I0509 20:54:11.122612 17848 net.cpp:122] Setting up inception_5b/pool_proj
I0509 20:54:11.122624 17848 net.cpp:129] Top shape: 32 128 7 7 (200704)
I0509 20:54:11.122627 17848 net.cpp:137] Memory required for data: 1787270664
I0509 20:54:11.122634 17848 layer_factory.hpp:77] Creating layer inception_5b/relu_pool_proj
I0509 20:54:11.122640 17848 net.cpp:84] Creating Layer inception_5b/relu_pool_proj
I0509 20:54:11.122644 17848 net.cpp:406] inception_5b/relu_pool_proj <- inception_5b/pool_proj
I0509 20:54:11.122651 17848 net.cpp:367] inception_5b/relu_pool_proj -> inception_5b/pool_proj (in-place)
I0509 20:54:11.123237 17848 net.cpp:122] Setting up inception_5b/relu_pool_proj
I0509 20:54:11.123246 17848 net.cpp:129] Top shape: 32 128 7 7 (200704)
I0509 20:54:11.123250 17848 net.cpp:137] Memory required for data: 1788073480
I0509 20:54:11.123252 17848 layer_factory.hpp:77] Creating layer inception_5b/output
I0509 20:54:11.123260 17848 net.cpp:84] Creating Layer inception_5b/output
I0509 20:54:11.123265 17848 net.cpp:406] inception_5b/output <- inception_5b/1x1
I0509 20:54:11.123270 17848 net.cpp:406] inception_5b/output <- inception_5b/3x3
I0509 20:54:11.123272 17848 net.cpp:406] inception_5b/output <- inception_5b/5x5
I0509 20:54:11.123276 17848 net.cpp:406] inception_5b/output <- inception_5b/pool_proj
I0509 20:54:11.123281 17848 net.cpp:380] inception_5b/output -> inception_5b/output
I0509 20:54:11.123311 17848 net.cpp:122] Setting up inception_5b/output
I0509 20:54:11.123317 17848 net.cpp:129] Top shape: 32 1024 7 7 (1605632)
I0509 20:54:11.123320 17848 net.cpp:137] Memory required for data: 1794496008
I0509 20:54:11.123322 17848 layer_factory.hpp:77] Creating layer pool5/7x7_s1
I0509 20:54:11.123344 17848 net.cpp:84] Creating Layer pool5/7x7_s1
I0509 20:54:11.123348 17848 net.cpp:406] pool5/7x7_s1 <- inception_5b/output
I0509 20:54:11.123356 17848 net.cpp:380] pool5/7x7_s1 -> pool5/7x7_s1
I0509 20:54:11.123941 17848 net.cpp:122] Setting up pool5/7x7_s1
I0509 20:54:11.123950 17848 net.cpp:129] Top shape: 32 1024 1 1 (32768)
I0509 20:54:11.123953 17848 net.cpp:137] Memory required for data: 1794627080
I0509 20:54:11.123956 17848 layer_factory.hpp:77] Creating layer pool5/drop_7x7_s1
I0509 20:54:11.123962 17848 net.cpp:84] Creating Layer pool5/drop_7x7_s1
I0509 20:54:11.123965 17848 net.cpp:406] pool5/drop_7x7_s1 <- pool5/7x7_s1
I0509 20:54:11.123972 17848 net.cpp:367] pool5/drop_7x7_s1 -> pool5/7x7_s1 (in-place)
I0509 20:54:11.123997 17848 net.cpp:122] Setting up pool5/drop_7x7_s1
I0509 20:54:11.124002 17848 net.cpp:129] Top shape: 32 1024 1 1 (32768)
I0509 20:54:11.124006 17848 net.cpp:137] Memory required for data: 1794758152
I0509 20:54:11.124007 17848 layer_factory.hpp:77] Creating layer loss3/classifier
I0509 20:54:11.124013 17848 net.cpp:84] Creating Layer loss3/classifier
I0509 20:54:11.124017 17848 net.cpp:406] loss3/classifier <- pool5/7x7_s1
I0509 20:54:11.124023 17848 net.cpp:380] loss3/classifier -> loss3/classifier
I0509 20:54:11.125813 17848 net.cpp:122] Setting up loss3/classifier
I0509 20:54:11.125823 17848 net.cpp:129] Top shape: 32 196 (6272)
I0509 20:54:11.125825 17848 net.cpp:137] Memory required for data: 1794783240
I0509 20:54:11.125830 17848 layer_factory.hpp:77] Creating layer loss3/loss
I0509 20:54:11.125838 17848 net.cpp:84] Creating Layer loss3/loss
I0509 20:54:11.125840 17848 net.cpp:406] loss3/loss <- loss3/classifier
I0509 20:54:11.125844 17848 net.cpp:406] loss3/loss <- label_train-data_1_split_2
I0509 20:54:11.125849 17848 net.cpp:380] loss3/loss -> loss
…
I0509 20:54:11.130182 17848 solver.cpp:172] Creating test net (#0) specified by net file: train_val.prototxt
I0509 20:54:11.130383 17848 net.cpp:294] The NetState phase (1) differed from the phase (0) specified by a rule in layer train-data
I0509 20:54:11.131814 17848 net.cpp:51] Initializing net from parameters:
state {
phase: TEST
}
layer {
name: "val-data"
type: "Data"
top: "data"
top: "label"
include {
phase: TEST
}
transform_param {
mirror: false
crop_size: 224
mean_value: 115.96062
mean_value: 117.19437
mean_value: 119.79225
}
data_param {
source: "/mnt/bigdisk/AMBDIG8/digits/jobs/20200509-183908-c8eb/val_db"
batch_size: 16
backend: LMDB
}
}
layer {
name: "conv1/7x7_s2"
type: "Convolution"
bottom: "data"
top: "conv1/7x7_s2"
param {
lr_mult: 1
decay_mult: 1
}
param {
lr_mult: 2
decay_mult: 0
}
convolution_param {
num_output: 64
pad: 3
kernel_size: 7
stride: 2
weight_filler {
type: "xavier"
std: 0.1
}
bias_filler {
type: "constant"
value: 0.2
}
}
}
layer {
name: "conv1/relu_7x7"
type: "ReLU"
bottom: "conv1/7x7_s2"
top: "conv1/7x7_s2"
}
layer {
name: "pool1/3x3_s2"
type: "Pooling"
bottom: "conv1/7x7_s2"
top: "pool1/3x3_s2"
pooling_param {
pool: MAX
kernel_size: 3
stride: 2
}
}
layer {
name: "pool1/norm1"
type: "LRN"
bottom: "pool1/3x3_s2"
top: "pool1/norm1"
lrn_param {
local_size: 5
alpha: 0.0001
beta: 0.75
}
}
layer {
name: "conv2/3x3_reduce"
type: "Convolution"
bottom: "pool1/norm1"
top: "conv2/3x3_reduce"
param {
lr_mult: 1
decay_mult: 1
}
param {
lr_mult: 2
decay_mult: 0
}
convolution_param {
num_output: 64
kernel_size: 1
weight_filler {
type: "xavier"
std: 0.1
}
bias_filler {
type: "constant"
value: 0.2
}
}
}
layer {
name: "conv2/relu_3x3_reduce"
type: "ReLU"
bottom: "conv2/3x3_reduce"
top: "conv2/3x3_reduce"
}
layer {
name: "conv2/3x3"
type: "Convolution"
bottom: "conv2/3x3_reduce"
top: "conv2/3x3"
param {
lr_mult: 1
decay_mult: 1
}
param {
lr_mult: 2
decay_mult: 0
}
convolution_param {
num_output: 192
pad: 1
kernel_size: 3
weight_filler {
type: "xavier"
std: 0.03
}
bias_filler {
type: "constant"
value: 0.2
}
}
}
layer {
name: "conv2/relu_3x3"
type: "ReLU"
bottom: "conv2/3x3"
top: "conv2/3x3"
}
layer {
name: "conv2/norm2"
type: "LRN"
bottom: "conv2/3x3"
top: "conv2/norm2"
lrn_param {
local_size: 5
alpha: 0.0001
beta: 0.75
}
}
layer {
name: "pool2/3x3_s2"
type: "Pooling"
bottom: "conv2/norm2"
top: "pool2/3x3_s2"
pooling_param {
pool: MAX
kernel_size: 3
stride: 2
}
}
layer {
name: "inception_3a/1x1"
type: "Convolution"
bottom: "pool2/3x3_s2"
top: "inception_3a/1x1"
param {
lr_mult: 1
decay_mult: 1
}
param {
lr_mult: 2
decay_mult: 0
}
convolution_param {
num_output: 64
kernel_size: 1
weight_filler {
type: "xavier"
std: 0.03
}
bias_filler {
type: "constant"
value: 0.2
}
}
}
layer {
name: "inception_3a/relu_1x1"
type: "ReLU"
bottom: "inception_3a/1x1"
top: "inception_3a/1x1"
}
layer {
name: "inception_3a/3x3_reduce"
type: "Convolution"
bottom: "pool2/3x3_s2"
top: "inception_3a/3x3_reduce"
param {
lr_mult: 1
decay_mult: 1
}
param {
lr_mult: 2
decay_mult: 0
}
convolution_param {
num_output: 96
kernel_size: 1
weight_filler {
type: "xavier"
std: 0.09
}
bias_filler {
type: "constant"
value: 0.2
}
}
}
layer {
name: "inception_3a/relu_3x3_reduce"
type: "ReLU"
bottom: "inception_3a/3x3_reduce"
top: "inception_3a/3x3_reduce"
}
layer {
name: "inception_3a/3x3"
type: "Convolution"
bottom: "inception_3a/3x3_reduce"
top: "inception_3a/3x3"
param {
lr_mult: 1
decay_mult: 1
}
param {
lr_mult: 2
decay_mult: 0
}
convolution_param {
num_output: 128
pad: 1
kernel_size: 3
weight_filler {
type: "xavier"
std: 0.03
}
bias_filler {
type: "constant"
value: 0.2
}
}
}
layer {
name: "inception_3a/relu_3x3"
type: "ReLU"
bottom: "inception_3a/3x3"
top: "inception_3a/3x3"
}
layer {
name: "inception_3a/5x5_reduce"
type: "Convolution"
bottom: "pool2/3x3_s2"
top: "inception_3a/5x5_reduce"
param {
lr_mult: 1
decay_mult: 1
}
param {
lr_mult: 2
decay_mult: 0
}
convolution_param {
num_output: 16
kernel_size: 1
weight_filler {
type: "xavier"
std: 0.2
}
bias_filler {
type: "constant"
value: 0.2
}
}
}
layer {
name: "inception_3a/relu_5x5_reduce"
type: "ReLU"
bottom: "inception_3a/5x5_reduce"
top: "inception_3a/5x5_reduce"
}
layer {
name: "inception_3a/5x5"
type: "Convolution"
bottom: "inception_3a/5x5_reduce"
top: "inception_3a/5x5"
param {
lr_mult: 1
decay_mult: 1
}
param {
lr_mult: 2
decay_mult: 0
}
convolution_param {
num_output: 32
pad: 2
kernel_size: 5
weight_filler {
type: "xavier"
std: 0.03
}
bias_filler {
type: "constant"
value: 0.2
}
}
}
layer {
name: "inception_3a/relu_5x5"
type: "ReLU"
bottom: "inception_3a/5x5"
top: "inception_3a/5x5"
}
layer {
name: "inception_3a/pool"
type: "Pooling"
bottom: "pool2/3x3_s2"
top: "inception_3a/pool"
pooling_param {
pool: MAX
kernel_size: 3
stride: 1
pad: 1
}
}
layer {
name: "inception_3a/pool_proj"
type: "Convolution"
bottom: "inception_3a/pool"
top: "inception_3a/pool_proj"
param {
lr_mult: 1
decay_mult: 1
}
param {
lr_mult: 2
decay_mult: 0
}
convolution_param {
num_output: 32
kernel_size: 1
weight_filler {
type: "xavier"
std: 0.1
}
bias_filler {
type: "constant"
value: 0.2
}
}
}
layer {
name: "inception_3a/relu_pool_proj"
type: "ReLU"
bottom: "inception_3a/pool_proj"
top: "inception_3a/pool_proj"
}
layer {
name: "inception_3a/output"
type: "Concat"
bottom: "inception_3a/1x1"
bottom: "inception_3a/3x3"
bottom: "inception_3a/5x5"
bottom: "inception_3a/pool_proj"
top: "inception_3a/output"
}
layer {
name: "inception_3b/1x1"
type: "Convolution"
bottom: "inception_3a/output"
top: "inception_3b/1x1"
param {
lr_mult: 1
decay_mult: 1
}
param {
lr_mult: 2
decay_mult: 0
}
convolution_param {
num_output: 128
kernel_size: 1
weight_filler {
type: "xavier"
std: 0.03
}
bias_filler {
type: "constant"
value: 0.2
}
}
}
layer {
name: "inception_3b/relu_1x1"
type: "ReLU"
bottom: "inception_3b/1x1"
top: "inception_3b/1x1"
}
layer {
name: "inception_3b/3x3_reduce"
type: "Convolution"
bottom: "inception_3a/output"
top: "inception_3b/3x3_reduce"
param {
lr_mult: 1
decay_mult: 1
}
param {
lr_mult: 2
decay_mult: 0
}
convolution_param {
num_output: 128
kernel_size: 1
weight_filler {
type: "xavier"
std: 0.09
}
bias_filler {
type: "constant"
value: 0.2
}
}
}
layer {
name: "inception_3b/relu_3x3_reduce"
type: "ReLU"
bottom: "inception_3b/3x3_reduce"
top: "inception_3b/3x3_reduce"
}
layer {
name: "inception_3b/3x3"
type: "Convolution"
bottom: "inception_3b/3x3_reduce"
top: "inception_3b/3x3"
param {
lr_mult: 1
decay_mult: 1
}
param {
lr_mult: 2
decay_mult: 0
}
convolution_param {
num_output: 192
pad: 1
kernel_size: 3
weight_filler {
type: "xavier"
std: 0.03
}
bias_filler {
type: "constant"
value: 0.2
}
}
}
layer {
name: "inception_3b/relu_3x3"
type: "ReLU"
bottom: "inception_3b/3x3"
top: "inception_3b/3x3"
}
layer {
name: "inception_3b/5x5_reduce"
type: "Convolution"
bottom: "inception_3a/output"
top: "inception_3b/5x5_reduce"
param {
lr_mult: 1
decay_mult: 1
}
param {
lr_mult: 2
decay_mult: 0
}
convolution_param {
num_output: 32
kernel_size: 1
weight_filler {
type: "xavier"
std: 0.2
}
bias_filler {
type: "constant"
value: 0.2
}
}
}
layer {
name: "inception_3b/relu_5x5_reduce"
type: "ReLU"
bottom: "inception_3b/5x5_reduce"
top: "inception_3b/5x5_reduce"
}
layer {
name: "inception_3b/5x5"
type: "Convolution"
bottom: "inception_3b/5x5_reduce"
top: "inception_3b/5x5"
param {
lr_mult: 1
decay_mult: 1
}
param {
lr_mult: 2
decay_mult: 0
}
convolution_param {
num_output: 96
pad: 2
kernel_size: 5
weight_filler {
type: "xavier"
std: 0.03
}
bias_filler {
type: "constant"
value: 0.2
}
}
}
layer {
name: "inception_3b/relu_5x5"
type: "ReLU"
bottom: "inception_3b/5x5"
top: "inception_3b/5x5"
}
layer {
name: "inception_3b/pool"
type: "Pooling"
bottom: "inception_3a/output"
top: "inception_3b/pool"
pooling_param {
pool: MAX
kernel_size: 3
stride: 1
pad: 1
}
}
layer {
name: "inception_3b/pool_proj"
type: "Convolution"
bottom: "inception_3b/pool"
top: "inception_3b/pool_proj"
param {
lr_mult: 1
decay_mult: 1
}
param {
lr_mult: 2
decay_mult: 0
}
convolution_param {
num_output: 64
kernel_size: 1
weight_filler {
type: "xavier"
std: 0.1
}
bias_filler {
type: "constant"
value: 0.2
}
}
}
layer {
name: "inception_3b/relu_pool_proj"
type: "ReLU"
bottom: "inception_3b/pool_proj"
top: "inception_3b/pool_proj"
}
layer {
name: "inception_3b/output"
type: "Concat"
bottom: "inception_3b/1x1"
bottom: "inception_3b/3x3"
bottom: "inception_3b/5x5"
bottom: "inception_3b/pool_proj"
top: "inception_3b/output"
}
layer {
name: "pool3/3x3_s2"
type: "Pooling"
bottom: "inception_3b/output"
top: "pool3/3x3_s2"
pooling_param {
pool: MAX
kernel_size: 3
stride: 2
}
}
layer {
name: "inception_4a/1x1"
type: "Convolution"
bottom: "pool3/3x3_s2"
top: "inception_4a/1x1"
param {
lr_mult: 1
decay_mult: 1
}
param {
lr_mult: 2
decay_mult: 0
}
convolution_param {
num_output: 192
kernel_size: 1
weight_filler {
type: "xavier"
std: 0.03
}
bias_filler {
type: "constant"
value: 0.2
}
}
}
layer {
name: "inception_4a/relu_1x1"
type: "ReLU"
bottom: "inception_4a/1x1"
top: "inception_4a/1x1"
}
layer {
name: "inception_4a/3x3_reduce"
type: "Convolution"
bottom: "pool3/3x3_s2"
top: "inception_4a/3x3_reduce"
param {
lr_mult: 1
decay_mult: 1
}
param {
lr_mult: 2
decay_mult: 0
}
convolution_param {
num_output: 96
kernel_size: 1
weight_filler {
type: "xavier"
std: 0.09
}
bias_filler {
type: "constant"
value: 0.2
}
}
}
layer {
name: "inception_4a/relu_3x3_reduce"
type: "ReLU"
bottom: "inception_4a/3x3_reduce"
top: "inception_4a/3x3_reduce"
}
layer {
name: "inception_4a/3x3"
type: "Convolution"
bottom: "inception_4a/3x3_reduce"
top: "inception_4a/3x3"
param {
lr_mult: 1
decay_mult: 1
}
param {
lr_mult: 2
decay_mult: 0
}
convolution_param {
num_output: 208
pad: 1
kernel_size: 3
weight_filler {
type: "xavier"
std: 0.03
}
bias_filler {
type: "constant"
value: 0.2
}
}
}
layer {
name: "inception_4a/relu_3x3"
type: "ReLU"
bottom: "inception_4a/3x3"
top: "inception_4a/3x3"
}
layer {
name: "inception_4a/5x5_reduce"
type: "Convolution"
bottom: "pool3/3x3_s2"
top: "inception_4a/5x5_reduce"
param {
lr_mult: 1
decay_mult: 1
}
param {
lr_mult: 2
decay_mult: 0
}
convolution_param {
num_output: 16
kernel_size: 1
weight_filler {
type: "xavier"
std: 0.2
}
bias_filler {
type: "constant"
value: 0.2
}
}
}
layer {
name: "inception_4a/relu_5x5_reduce"
type: "ReLU"
bottom: "inception_4a/5x5_reduce"
top: "inception_4a/5x5_reduce"
}
layer {
name: "inception_4a/5x5"
type: "Convolution"
bottom: "inception_4a/5x5_reduce"
top: "inception_4a/5x5"
param {
lr_mult: 1
decay_mult: 1
}
param {
lr_mult: 2
decay_mult: 0
}
convolution_param {
num_output: 48
pad: 2
kernel_size: 5
weight_filler {
type: "xavier"
std: 0.03
}
bias_filler {
type: "constant"
value: 0.2
}
}
}
layer {
name: "inception_4a/relu_5x5"
type: "ReLU"
bottom: "inception_4a/5x5"
top: "inception_4a/5x5"
}
layer {
name: "inception_4a/pool"
type: "Pooling"
bottom: "pool3/3x3_s2"
top: "inception_4a/pool"
pooling_param {
pool: MAX
kernel_size: 3
stride: 1
pad: 1
}
}
layer {
name: "inception_4a/pool_proj"
type: "Convolution"
bottom: "inception_4a/pool"
top: "inception_4a/pool_proj"
param {
lr_mult: 1
decay_mult: 1
}
param {
lr_mult: 2
decay_mult: 0
}
convolution_param {
num_output: 64
kernel_size: 1
weight_filler {
type: "xavier"
std: 0.1
}
bias_filler {
type: "constant"
value: 0.2
}
}
}
layer {
name: "inception_4a/relu_pool_proj"
type: "ReLU"
bottom: "inception_4a/pool_proj"
top: "inception_4a/pool_proj"
}
layer {
name: "inception_4a/output"
type: "Concat"
bottom: "inception_4a/1x1"
bottom: "inception_4a/3x3"
bottom: "inception_4a/5x5"
bottom: "inception_4a/pool_proj"
top: "inception_4a/output"
}
layer {
name: "loss1/ave_pool"
type: "Pooling"
bottom: "inception_4a/output"
top: "loss1/ave_pool"
pooling_param {
pool: AVE
kernel_size: 5
stride: 3
}
}
layer {
name: "loss1/conv"
type: "Convolution"
bottom: "loss1/ave_pool"
top: "loss1/conv"
param {
lr_mult: 1
decay_mult: 1
}
param {
lr_mult: 2
decay_mult: 0
}
convolution_param {
num_output: 128
kernel_size: 1
weight_filler {
type: "xavier"
std: 0.08
}
bias_filler {
type: "constant"
value: 0.2
}
}
}
layer {
name: "loss1/relu_conv"
type: "ReLU"
bottom: "loss1/conv"
top: "loss1/conv"
}
layer {
name: "loss1/fc"
type: "InnerProduct"
bottom: "loss1/conv"
top: "loss1/fc"
param {
lr_mult: 1
decay_mult: 1
}
param {
lr_mult: 2
decay_mult: 0
}
inner_product_param {
num_output: 1024
weight_filler {
type: "xavier"
std: 0.02
}
bias_filler {
type: "constant"
value: 0.2
}
}
}
layer {
name: "loss1/relu_fc"
type: "ReLU"
bottom: "loss1/fc"
top: "loss1/fc"
}
layer {
name: "loss1/drop_fc"
type: "Dropout"
bottom: "loss1/fc"
top: "loss1/fc"
dropout_param {
dropout_ratio: 0.7
}
}
layer {
name: "loss1/classifier"
type: "InnerProduct"
bottom: "loss1/fc"
top: "loss1/classifier"
param {
lr_mult: 1
decay_mult: 1
}
param {
lr_mult: 2
decay_mult: 0
}
inner_product_param {
num_output: 196
weight_filler {
type: "xavier"
std: 0.0009765625
}
bias_filler {
type: "constant"
value: 0
}
}
}
layer {
name: "loss1/loss"
type: "SoftmaxWithLoss"
bottom: "loss1/classifier"
bottom: "label"
top: "loss1/loss"
loss_weight: 0.3
}
layer {
name: "loss1/top-1"
type: "Accuracy"
bottom: "loss1/classifier"
bottom: "label"
top: "loss1/accuracy"
include {
phase: TEST
}
}
layer {
name: "loss1/top-5"
type: "Accuracy"
bottom: "loss1/classifier"
bottom: "label"
top: "loss1/accuracy-top5"
include {
phase: TEST
}
accuracy_param {
top_k: 5
}
}
layer {
name: "inception_4b/1x1"
type: "Convolution"
bottom: "inception_4a/output"
top: "inception_4b/1x1"
param {
lr_mult: 1
decay_mult: 1
}
param {
lr_mult: 2
decay_mult: 0
}
convolution_param {
num_output: 160
kernel_size: 1
weight_filler {
type: "xavier"
std: 0.03
}
bias_filler {
type: "constant"
value: 0.2
}
}
}
layer {
name: "inception_4b/relu_1x1"
type: "ReLU"
bottom: "inception_4b/1x1"
top: "inception_4b/1x1"
}
layer {
name: "inception_4b/3x3_reduce"
type: "Convolution"
bottom: "inception_4a/output"
top: "inception_4b/3x3_reduce"
param {
lr_mult: 1
decay_mult: 1
}
param {
lr_mult: 2
decay_mult: 0
}
convolution_param {
num_output: 112
kernel_size: 1
weight_filler {
type: "xavier"
std: 0.09
}
bias_filler {
type: "constant"
value: 0.2
}
}
}
layer {
name: "inception_4b/relu_3x3_reduce"
type: "ReLU"
bottom: "inception_4b/3x3_reduce"
top: "inception_4b/3x3_reduce"
}
layer {
name: "inception_4b/3x3"
type: "Convolution"
bottom: "inception_4b/3x3_reduce"
top: "inception_4b/3x3"
param {
lr_mult: 1
decay_mult: 1
}
param {
lr_mult: 2
decay_mult: 0
}
convolution_param {
num_output: 224
pad: 1
kernel_size: 3
weight_filler {
type: "xavier"
std: 0.03
}
bias_filler {
type: "constant"
value: 0.2
}
}
}
layer {
name: "inception_4b/relu_3x3"
type: "ReLU"
bottom: "inception_4b/3x3"
top: "inception_4b/3x3"
}
layer {
name: "inception_4b/5x5_reduce"
type: "Convolution"
bottom: "inception_4a/output"
top: "inception_4b/5x5_reduce"
param {
lr_mult: 1
decay_mult: 1
}
param {
lr_mult: 2
decay_mult: 0
}
convolution_param {
num_output: 24
kernel_size: 1
weight_filler {
type: "xavier"
std: 0.2
}
bias_filler {
type: "constant"
value: 0.2
}
}
}
layer {
name: "inception_4b/relu_5x5_reduce"
type: "ReLU"
bottom: "inception_4b/5x5_reduce"
top: "inception_4b/5x5_reduce"
}
layer {
name: "inception_4b/5x5"
type: "Convolution"
bottom: "inception_4b/5x5_reduce"
top: "inception_4b/5x5"
param {
lr_mult: 1
decay_mult: 1
}
param {
lr_mult: 2
decay_mult: 0
}
convolution_param {
num_output: 64
pad: 2
kernel_size: 5
weight_filler {
type: "xavier"
std: 0.03
}
bias_filler {
type: "constant"
value: 0.2
}
}
}
layer {
name: "inception_4b/relu_5x5"
type: "ReLU"
bottom: "inception_4b/5x5"
top: "inception_4b/5x5"
}
layer {
name: "inception_4b/pool"
type: "Pooling"
bottom: "inception_4a/output"
top: "inception_4b/pool"
pooling_param {
pool: MAX
kernel_size: 3
stride: 1
pad: 1
}
}
layer {
name: "inception_4b/pool_proj"
type: "Convolution"
bottom: "inception_4b/pool"
top: "inception_4b/pool_proj"
param {
lr_mult: 1
decay_mult: 1
}
param {
lr_mult: 2
decay_mult: 0
}
convolution_param {
num_output: 64
kernel_size: 1
weight_filler {
type: "xavier"
std: 0.1
}
bias_filler {
type: "constant"
value: 0.2
}
}
}
layer {
name: "inception_4b/relu_pool_proj"
type: "ReLU"
bottom: "inception_4b/pool_proj"
top: "inception_4b/pool_proj"
}
layer {
name: "inception_4b/output"
type: "Concat"
bottom: "inception_4b/1x1"
bottom: "inception_4b/3x3"
bottom: "inception_4b/5x5"
bottom: "inception_4b/pool_proj"
top: "inception_4b/output"
}
layer {
name: "inception_4c/1x1"
type: "Convolution"
bottom: "inception_4b/output"
top: "inception_4c/1x1"
param {
lr_mult: 1
decay_mult: 1
}
param {
lr_mult: 2
decay_mult: 0
}
convolution_param {
num_output: 128
kernel_size: 1
weight_filler {
type: "xavier"
std: 0.03
}
bias_filler {
type: "constant"
value: 0.2
}
}
}
layer {
name: "inception_4c/relu_1x1"
type: "ReLU"
bottom: "inception_4c/1x1"
top: "inception_4c/1x1"
}
layer {
name: "inception_4c/3x3_reduce"
type: "Convolution"
bottom: "inception_4b/output"
top: "inception_4c/3x3_reduce"
param {
lr_mult: 1
decay_mult: 1
}
param {
lr_mult: 2
decay_mult: 0
}
convolution_param {
num_output: 128
kernel_size: 1
weight_filler {
type: "xavier"
std: 0.09
}
bias_filler {
type: "constant"
value: 0.2
}
}
}
layer {
name: "inception_4c/relu_3x3_reduce"
type: "ReLU"
bottom: "inception_4c/3x3_reduce"
top: "inception_4c/3x3_reduce"
}
layer {
name: "inception_4c/3x3"
type: "Convolution"
bottom: "inception_4c/3x3_reduce"
top: "inception_4c/3x3"
param {
lr_mult: 1
decay_mult: 1
}
param {
lr_mult: 2
decay_mult: 0
}
convolution_param {
num_output: 256
pad: 1
kernel_size: 3
weight_filler {
type: "xavier"
std: 0.03
}
bias_filler {
type: "constant"
value: 0.2
}
}
}
layer {
name: "inception_4c/relu_3x3"
type: "ReLU"
bottom: "inception_4c/3x3"
top: "inception_4c/3x3"
}
layer {
name: "inception_4c/5x5_reduce"
type: "Convolution"
bottom: "inception_4b/output"
top: "inception_4c/5x5_reduce"
param {
lr_mult: 1
decay_mult: 1
}
param {
lr_mult: 2
decay_mult: 0
}
convolution_param {
num_output: 24
kernel_size: 1
weight_filler {
type: "xavier"
std: 0.2
}
bias_filler {
type: "constant"
value: 0.2
}
}
}
layer {
name: "inception_4c/relu_5x5_reduce"
type: "ReLU"
bottom: "inception_4c/5x5_reduce"
top: "inception_4c/5x5_reduce"
}
layer {
name: "inception_4c/5x5"
type: "Convolution"
bottom: "inception_4c/5x5_reduce"
top: "inception_4c/5x5"
param {
lr_mult: 1
decay_mult: 1
}
param {
lr_mult: 2
decay_mult: 0
}
convolution_param {
num_output: 64
pad: 2
kernel_size: 5
weight_filler {
type: "xavier"
std: 0.03
}
bias_filler {
type: "constant"
value: 0.2
}
}
}
layer {
name: "inception_4c/relu_5x5"
type: "ReLU"
bottom: "inception_4c/5x5"
top: "inception_4c/5x5"
}
layer {
name: "inception_4c/pool"
type: "Pooling"
bottom: "inception_4b/output"
top: "inception_4c/pool"
pooling_param {
pool: MAX
kernel_size: 3
stride: 1
pad: 1
}
}
layer {
name: "inception_4c/pool_proj"
type: "Convolution"
bottom: "inception_4c/pool"
top: "inception_4c/pool_proj"
param {
lr_mult: 1
decay_mult: 1
}
param {
lr_mult: 2
decay_mult: 0
}
convolution_param {
num_output: 64
kernel_size: 1
weight_filler {
type: "xavier"
std: 0.1
}
bias_filler {
type: "constant"
value: 0.2
}
}
}
layer {
name: "inception_4c/relu_pool_proj"
type: "ReLU"
bottom: "inception_4c/pool_proj"
top: "inception_4c/pool_proj"
}
layer {
name: "inception_4c/output"
type: "Concat"
bottom: "inception_4c/1x1"
bottom: "inception_4c/3x3"
bottom: "inception_4c/5x5"
bottom: "inception_4c/pool_proj"
top: "inception_4c/output"
}
layer {
name: "inception_4d/1x1"
type: "Convolution"
bottom: "inception_4c/output"
top: "inception_4d/1x1"
param {
lr_mult: 1
decay_mult: 1
}
param {
lr_mult: 2
decay_mult: 0
}
convolution_param {
num_output: 112
kernel_size: 1
weight_filler {
type: "xavier"
std: 0.03
}
bias_filler {
type: "constant"
value: 0.2
}
}
}
layer {
name: "inception_4d/relu_1x1"
type: "ReLU"
bottom: "inception_4d/1x1"
top: "inception_4d/1x1"
}
layer {
…
I0509 20:54:11.312135 17848 net.cpp:122] Setting up inception_4c/relu_5x5
I0509 20:54:11.312145 17848 net.cpp:129] Top shape: 16 64 14 14 (200704)
I0509 20:54:11.312148 17848 net.cpp:137] Memory required for data: 700688012
I0509 20:54:11.312151 17848 layer_factory.hpp:77] Creating layer inception_4c/pool
I0509 20:54:11.312157 17848 net.cpp:84] Creating Layer inception_4c/pool
I0509 20:54:11.312161 17848 net.cpp:406] inception_4c/pool <- inception_4b/output_inception_4b/output_0_split_3
I0509 20:54:11.312168 17848 net.cpp:380] inception_4c/pool -> inception_4c/pool
I0509 20:54:11.312213 17848 net.cpp:122] Setting up inception_4c/pool
I0509 20:54:11.312219 17848 net.cpp:129] Top shape: 16 512 14 14 (1605632)
I0509 20:54:11.312222 17848 net.cpp:137] Memory required for data: 707110540
I0509 20:54:11.312224 17848 layer_factory.hpp:77] Creating layer inception_4c/pool_proj
I0509 20:54:11.312237 17848 net.cpp:84] Creating Layer inception_4c/pool_proj
I0509 20:54:11.312239 17848 net.cpp:406] inception_4c/pool_proj <- inception_4c/pool
I0509 20:54:11.312245 17848 net.cpp:380] inception_4c/pool_proj -> inception_4c/pool_proj
I0509 20:54:11.314622 17848 net.cpp:122] Setting up inception_4c/pool_proj
I0509 20:54:11.314632 17848 net.cpp:129] Top shape: 16 64 14 14 (200704)
I0509 20:54:11.314635 17848 net.cpp:137] Memory required for data: 707913356
I0509 20:54:11.314640 17848 layer_factory.hpp:77] Creating layer inception_4c/relu_pool_proj
I0509 20:54:11.314646 17848 net.cpp:84] Creating Layer inception_4c/relu_pool_proj
I0509 20:54:11.314651 17848 net.cpp:406] inception_4c/relu_pool_proj <- inception_4c/pool_proj
I0509 20:54:11.314656 17848 net.cpp:367] inception_4c/relu_pool_proj -> inception_4c/pool_proj (in-place)
I0509 20:54:11.315232 17848 net.cpp:122] Setting up inception_4c/relu_pool_proj
I0509 20:54:11.315240 17848 net.cpp:129] Top shape: 16 64 14 14 (200704)
I0509 20:54:11.315243 17848 net.cpp:137] Memory required for data: 708716172
I0509 20:54:11.315246 17848 layer_factory.hpp:77] Creating layer inception_4c/output
I0509 20:54:11.315258 17848 net.cpp:84] Creating Layer inception_4c/output
I0509 20:54:11.315263 17848 net.cpp:406] inception_4c/output <- inception_4c/1x1
I0509 20:54:11.315266 17848 net.cpp:406] inception_4c/output <- inception_4c/3x3
I0509 20:54:11.315270 17848 net.cpp:406] inception_4c/output <- inception_4c/5x5
I0509 20:54:11.315274 17848 net.cpp:406] inception_4c/output <- inception_4c/pool_proj
I0509 20:54:11.315279 17848 net.cpp:380] inception_4c/output -> inception_4c/output
I0509 20:54:11.315325 17848 net.cpp:122] Setting up inception_4c/output
I0509 20:54:11.315330 17848 net.cpp:129] Top shape: 16 512 14 14 (1605632)
I0509 20:54:11.315333 17848 net.cpp:137] Memory required for data: 715138700
I0509 20:54:11.315336 17848 layer_factory.hpp:77] Creating layer inception_4c/output_inception_4c/output_0_split
I0509 20:54:11.315341 17848 net.cpp:84] Creating Layer inception_4c/output_inception_4c/output_0_split
I0509 20:54:11.315344 17848 net.cpp:406] inception_4c/output_inception_4c/output_0_split <- inception_4c/output
I0509 20:54:11.315351 17848 net.cpp:380] inception_4c/output_inception_4c/output_0_split -> inception_4c/output_inception_4c/output_0_split_0
I0509 20:54:11.315359 17848 net.cpp:380] inception_4c/output_inception_4c/output_0_split -> inception_4c/output_inception_4c/output_0_split_1
I0509 20:54:11.315366 17848 net.cpp:380] inception_4c/output_inception_4c/output_0_split -> inception_4c/output_inception_4c/output_0_split_2
I0509 20:54:11.315371 17848 net.cpp:380] inception_4c/output_inception_4c/output_0_split -> inception_4c/output_inception_4c/output_0_split_3
I0509 20:54:11.315424 17848 net.cpp:122] Setting up inception_4c/output_inception_4c/output_0_split
I0509 20:54:11.315429 17848 net.cpp:129] Top shape: 16 512 14 14 (1605632)
I0509 20:54:11.315433 17848 net.cpp:129] Top shape: 16 512 14 14 (1605632)
I0509 20:54:11.315436 17848 net.cpp:129] Top shape: 16 512 14 14 (1605632)
I0509 20:54:11.315439 17848 net.cpp:129] Top shape: 16 512 14 14 (1605632)
I0509 20:54:11.315441 17848 net.cpp:137] Memory required for data: 740828812
I0509 20:54:11.315444 17848 layer_factory.hpp:77] Creating layer inception_4d/1x1
I0509 20:54:11.315454 17848 net.cpp:84] Creating Layer inception_4d/1x1
I0509 20:54:11.315456 17848 net.cpp:406] inception_4d/1x1 <- inception_4c/output_inception_4c/output_0_split_0
I0509 20:54:11.315464 17848 net.cpp:380] inception_4d/1x1 -> inception_4d/1x1
I0509 20:54:11.318616 17848 net.cpp:122] Setting up inception_4d/1x1
I0509 20:54:11.318629 17848 net.cpp:129] Top shape: 16 112 14 14 (351232)
I0509 20:54:11.318631 17848 net.cpp:137] Memory required for data: 742233740
I0509 20:54:11.318637 17848 layer_factory.hpp:77] Creating layer inception_4d/relu_1x1
I0509 20:54:11.318644 17848 net.cpp:84] Creating Layer inception_4d/relu_1x1
I0509 20:54:11.318648 17848 net.cpp:406] inception_4d/relu_1x1 <- inception_4d/1x1
I0509 20:54:11.318655 17848 net.cpp:367] inception_4d/relu_1x1 -> inception_4d/1x1 (in-place)
I0509 20:54:11.319243 17848 net.cpp:122] Setting up inception_4d/relu_1x1
I0509 20:54:11.319252 17848 net.cpp:129] Top shape: 16 112 14 14 (351232)
I0509 20:54:11.319255 17848 net.cpp:137] Memory required for data: 743638668
I0509 20:54:11.319258 17848 layer_factory.hpp:77] Creating layer inception_4d/3x3_reduce
I0509 20:54:11.319268 17848 net.cpp:84] Creating Layer inception_4d/3x3_reduce
I0509 20:54:11.319272 17848 net.cpp:406] inception_4d/3x3_reduce <- inception_4c/output_inception_4c/output_0_split_1
I0509 20:54:11.319280 17848 net.cpp:380] inception_4d/3x3_reduce -> inception_4d/3x3_reduce
I0509 20:54:11.323668 17848 net.cpp:122] Setting up inception_4d/3x3_reduce
I0509 20:54:11.323680 17848 net.cpp:129] Top shape: 16 144 14 14 (451584)
I0509 20:54:11.323683 17848 net.cpp:137] Memory required for data: 745445004
I0509 20:54:11.323690 17848 layer_factory.hpp:77] Creating layer inception_4d/relu_3x3_reduce
I0509 20:54:11.323696 17848 net.cpp:84] Creating Layer inception_4d/relu_3x3_reduce
I0509 20:54:11.323700 17848 net.cpp:406] inception_4d/relu_3x3_reduce <- inception_4d/3x3_reduce
I0509 20:54:11.323709 17848 net.cpp:367] inception_4d/relu_3x3_reduce -> inception_4d/3x3_reduce (in-place)
I0509 20:54:11.324111 17848 net.cpp:122] Setting up inception_4d/relu_3x3_reduce
I0509 20:54:11.324120 17848 net.cpp:129] Top shape: 16 144 14 14 (451584)
I0509 20:54:11.324123 17848 net.cpp:137] Memory required for data: 747251340
I0509 20:54:11.324126 17848 layer_factory.hpp:77] Creating layer inception_4d/3x3
I0509 20:54:11.324157 17848 net.cpp:84] Creating Layer inception_4d/3x3
I0509 20:54:11.324162 17848 net.cpp:406] inception_4d/3x3 <- inception_4d/3x3_reduce
I0509 20:54:11.324169 17848 net.cpp:380] inception_4d/3x3 -> inception_4d/3x3
I0509 20:54:11.329118 17848 net.cpp:122] Setting up inception_4d/3x3
I0509 20:54:11.329133 17848 net.cpp:129] Top shape: 16 288 14 14 (903168)
I0509 20:54:11.329135 17848 net.cpp:137] Memory required for data: 750864012
I0509 20:54:11.329141 17848 layer_factory.hpp:77] Creating layer inception_4d/relu_3x3
I0509 20:54:11.329149 17848 net.cpp:84] Creating Layer inception_4d/relu_3x3
I0509 20:54:11.329152 17848 net.cpp:406] inception_4d/relu_3x3 <- inception_4d/3x3
I0509 20:54:11.329156 17848 net.cpp:367] inception_4d/relu_3x3 -> inception_4d/3x3 (in-place)
I0509 20:54:11.329551 17848 net.cpp:122] Setting up inception_4d/relu_3x3
I0509 20:54:11.329564 17848 net.cpp:129] Top shape: 16 288 14 14 (903168)
I0509 20:54:11.329567 17848 net.cpp:137] Memory required for data: 754476684
I0509 20:54:11.329571 17848 layer_factory.hpp:77] Creating layer inception_4d/5x5_reduce
I0509 20:54:11.329581 17848 net.cpp:84] Creating Layer inception_4d/5x5_reduce
I0509 20:54:11.329584 17848 net.cpp:406] inception_4d/5x5_reduce <- inception_4c/output_inception_4c/output_0_split_2
I0509 20:54:11.329591 17848 net.cpp:380] inception_4d/5x5_reduce -> inception_4d/5x5_reduce
I0509 20:54:11.333922 17848 net.cpp:122] Setting up inception_4d/5x5_reduce
I0509 20:54:11.333938 17848 net.cpp:129] Top shape: 16 32 14 14 (100352)
I0509 20:54:11.333941 17848 net.cpp:137] Memory required for data: 754878092
I0509 20:54:11.333948 17848 layer_factory.hpp:77] Creating layer inception_4d/relu_5x5_reduce
I0509 20:54:11.333956 17848 net.cpp:84] Creating Layer inception_4d/relu_5x5_reduce
I0509 20:54:11.333961 17848 net.cpp:406] inception_4d/relu_5x5_reduce <- inception_4d/5x5_reduce
I0509 20:54:11.333966 17848 net.cpp:367] inception_4d/relu_5x5_reduce -> inception_4d/5x5_reduce (in-place)
I0509 20:54:11.334594 17848 net.cpp:122] Setting up inception_4d/relu_5x5_reduce
I0509 20:54:11.334606 17848 net.cpp:129] Top shape: 16 32 14 14 (100352)
I0509 20:54:11.334609 17848 net.cpp:137] Memory required for data: 755279500
I0509 20:54:11.334612 17848 layer_factory.hpp:77] Creating layer inception_4d/5x5
I0509 20:54:11.334623 17848 net.cpp:84] Creating Layer inception_4d/5x5
I0509 20:54:11.334627 17848 net.cpp:406] inception_4d/5x5 <- inception_4d/5x5_reduce
I0509 20:54:11.334633 17848 net.cpp:380] inception_4d/5x5 -> inception_4d/5x5
I0509 20:54:11.336997 17848 net.cpp:122] Setting up inception_4d/5x5
I0509 20:54:11.337007 17848 net.cpp:129] Top shape: 16 64 14 14 (200704)
I0509 20:54:11.337010 17848 net.cpp:137] Memory required for data: 756082316
I0509 20:54:11.337016 17848 layer_factory.hpp:77] Creating layer inception_4d/relu_5x5
I0509 20:54:11.337023 17848 net.cpp:84] Creating Layer inception_4d/relu_5x5
I0509 20:54:11.337025 17848 net.cpp:406] inception_4d/relu_5x5 <- inception_4d/5x5
I0509 20:54:11.337033 17848 net.cpp:367] inception_4d/relu_5x5 -> inception_4d/5x5 (in-place)
I0509 20:54:11.337613 17848 net.cpp:122] Setting up inception_4d/relu_5x5
I0509 20:54:11.337622 17848 net.cpp:129] Top shape: 16 64 14 14 (200704)
I0509 20:54:11.337625 17848 net.cpp:137] Memory required for data: 756885132
I0509 20:54:11.337628 17848 layer_factory.hpp:77] Creating layer inception_4d/pool
I0509 20:54:11.337636 17848 net.cpp:84] Creating Layer inception_4d/pool
I0509 20:54:11.337641 17848 net.cpp:406] inception_4d/pool <- inception_4c/output_inception_4c/output_0_split_3
I0509 20:54:11.337646 17848 net.cpp:380] inception_4d/pool -> inception_4d/pool
I0509 20:54:11.337692 17848 net.cpp:122] Setting up inception_4d/pool
I0509 20:54:11.337698 17848 net.cpp:129] Top shape: 16 512 14 14 (1605632)
I0509 20:54:11.337700 17848 net.cpp:137] Memory required for data: 763307660
I0509 20:54:11.337703 17848 layer_factory.hpp:77] Creating layer inception_4d/pool_proj
I0509 20:54:11.337713 17848 net.cpp:84] Creating Layer inception_4d/pool_proj
I0509 20:54:11.337716 17848 net.cpp:406] inception_4d/pool_proj <- inception_4d/pool
I0509 20:54:11.337743 17848 net.cpp:380] inception_4d/pool_proj -> inception_4d/pool_proj
I0509 20:54:11.339967 17848 net.cpp:122] Setting up inception_4d/pool_proj
I0509 20:54:11.339978 17848 net.cpp:129] Top shape: 16 64 14 14 (200704)
I0509 20:54:11.339980 17848 net.cpp:137] Memory required for data: 764110476
I0509 20:54:11.339987 17848 layer_factory.hpp:77] Creating layer inception_4d/relu_pool_proj
I0509 20:54:11.339993 17848 net.cpp:84] Creating Layer inception_4d/relu_pool_proj
I0509 20:54:11.339996 17848 net.cpp:406] inception_4d/relu_pool_proj <- inception_4d/pool_proj
I0509 20:54:11.340003 17848 net.cpp:367] inception_4d/relu_pool_proj -> inception_4d/pool_proj (in-place)
I0509 20:54:11.340607 17848 net.cpp:122] Setting up inception_4d/relu_pool_proj
I0509 20:54:11.340618 17848 net.cpp:129] Top shape: 16 64 14 14 (200704)
I0509 20:54:11.340621 17848 net.cpp:137] Memory required for data: 764913292
I0509 20:54:11.340624 17848 layer_factory.hpp:77] Creating layer inception_4d/output
I0509 20:54:11.340631 17848 net.cpp:84] Creating Layer inception_4d/output
I0509 20:54:11.340634 17848 net.cpp:406] inception_4d/output <- inception_4d/1x1
I0509 20:54:11.340638 17848 net.cpp:406] inception_4d/output <- inception_4d/3x3
I0509 20:54:11.340642 17848 net.cpp:406] inception_4d/output <- inception_4d/5x5
I0509 20:54:11.340646 17848 net.cpp:406] inception_4d/output <- inception_4d/pool_proj
I0509 20:54:11.340653 17848 net.cpp:380] inception_4d/output -> inception_4d/output
I0509 20:54:11.340683 17848 net.cpp:122] Setting up inception_4d/output
I0509 20:54:11.340690 17848 net.cpp:129] Top shape: 16 528 14 14 (1655808)
I0509 20:54:11.340693 17848 net.cpp:137] Memory required for data: 771536524
I0509 20:54:11.340696 17848 layer_factory.hpp:77] Creating layer inception_4d/output_inception_4d/output_0_split
I0509 20:54:11.340703 17848 net.cpp:84] Creating Layer inception_4d/output_inception_4d/output_0_split
I0509 20:54:11.340705 17848 net.cpp:406] inception_4d/output_inception_4d/output_0_split <- inception_4d/output
I0509 20:54:11.340711 17848 net.cpp:380] inception_4d/output_inception_4d/output_0_split -> inception_4d/output_inception_4d/output_0_split_0
I0509 20:54:11.340718 17848 net.cpp:380] inception_4d/output_inception_4d/output_0_split -> inception_4d/output_inception_4d/output_0_split_1
I0509 20:54:11.340723 17848 net.cpp:380] inception_4d/output_inception_4d/output_0_split -> inception_4d/output_inception_4d/output_0_split_2
I0509 20:54:11.340730 17848 net.cpp:380] inception_4d/output_inception_4d/output_0_split -> inception_4d/output_inception_4d/output_0_split_3
I0509 20:54:11.340736 17848 net.cpp:380] inception_4d/output_inception_4d/output_0_split -> inception_4d/output_inception_4d/output_0_split_4
I0509 20:54:11.340798 17848 net.cpp:122] Setting up inception_4d/output_inception_4d/output_0_split
I0509 20:54:11.340803 17848 net.cpp:129] Top shape: 16 528 14 14 (1655808)
I0509 20:54:11.340807 17848 net.cpp:129] Top shape: 16 528 14 14 (1655808)
I0509 20:54:11.340811 17848 net.cpp:129] Top shape: 16 528 14 14 (1655808)
I0509 20:54:11.340814 17848 net.cpp:129] Top shape: 16 528 14 14 (1655808)
I0509 20:54:11.340817 17848 net.cpp:129] Top shape: 16 528 14 14 (1655808)
I0509 20:54:11.340819 17848 net.cpp:137] Memory required for data: 804652684
I0509 20:54:11.340822 17848 layer_factory.hpp:77] Creating layer loss2/ave_pool
I0509 20:54:11.340827 17848 net.cpp:84] Creating Layer loss2/ave_pool
I0509 20:54:11.340831 17848 net.cpp:406] loss2/ave_pool <- inception_4d/output_inception_4d/output_0_split_0
I0509 20:54:11.340838 17848 net.cpp:380] loss2/ave_pool -> loss2/ave_pool
I0509 20:54:11.343451 17848 net.cpp:122] Setting up loss2/ave_pool
I0509 20:54:11.343466 17848 net.cpp:129] Top shape: 16 528 4 4 (135168)
I0509 20:54:11.343468 17848 net.cpp:137] Memory required for data: 805193356
I0509 20:54:11.343472 17848 layer_factory.hpp:77] Creating layer loss2/conv
I0509 20:54:11.343482 17848 net.cpp:84] Creating Layer loss2/conv
I0509 20:54:11.343487 17848 net.cpp:406] loss2/conv <- loss2/ave_pool
I0509 20:54:11.343508 17848 net.cpp:380] loss2/conv -> loss2/conv
I0509 20:54:11.345988 17848 net.cpp:122] Setting up loss2/conv
I0509 20:54:11.345999 17848 net.cpp:129] Top shape: 16 128 4 4 (32768)
I0509 20:54:11.346002 17848 net.cpp:137] Memory required for data: 805324428
I0509 20:54:11.346009 17848 layer_factory.hpp:77] Creating layer loss2/relu_conv
I0509 20:54:11.346014 17848 net.cpp:84] Creating Layer loss2/relu_conv
I0509 20:54:11.346019 17848 net.cpp:406] loss2/relu_conv <- loss2/conv
I0509 20:54:11.346024 17848 net.cpp:367] loss2/relu_conv -> loss2/conv (in-place)
I0509 20:54:11.346607 17848 net.cpp:122] Setting up loss2/relu_conv
I0509 20:54:11.346621 17848 net.cpp:129] Top shape: 16 128 4 4 (32768)
I0509 20:54:11.346623 17848 net.cpp:137] Memory required for data: 805455500
I0509 20:54:11.346626 17848 layer_factory.hpp:77] Creating layer loss2/fc
I0509 20:54:11.346633 17848 net.cpp:84] Creating Layer loss2/fc
I0509 20:54:11.346637 17848 net.cpp:406] loss2/fc <- loss2/conv
I0509 20:54:11.346643 17848 net.cpp:380] loss2/fc -> loss2/fc
I0509 20:54:11.358814 17848 net.cpp:122] Setting up loss2/fc
I0509 20:54:11.358841 17848 net.cpp:129] Top shape: 16 1024 (16384)
I0509 20:54:11.358844 17848 net.cpp:137] Memory required for data: 805521036
I0509 20:54:11.358853 17848 layer_factory.hpp:77] Creating layer loss2/relu_fc
I0509 20:54:11.358861 17848 net.cpp:84] Creating Layer loss2/relu_fc
I0509 20:54:11.358866 17848 net.cpp:406] loss2/relu_fc <- loss2/fc
I0509 20:54:11.358873 17848 net.cpp:367] loss2/relu_fc -> loss2/fc (in-place)
I0509 20:54:11.359695 17848 net.cpp:122] Setting up loss2/relu_fc
I0509 20:54:11.359704 17848 net.cpp:129] Top shape: 16 1024 (16384)
I0509 20:54:11.359707 17848 net.cpp:137] Memory required for data: 805586572
I0509 20:54:11.359710 17848 layer_factory.hpp:77] Creating layer loss2/drop_fc
I0509 20:54:11.359717 17848 net.cpp:84] Creating Layer loss2/drop_fc
I0509 20:54:11.359721 17848 net.cpp:406] loss2/drop_fc <- loss2/fc
I0509 20:54:11.359726 17848 net.cpp:367] loss2/drop_fc -> loss2/fc (in-place)
I0509 20:54:11.359755 17848 net.cpp:122] Setting up loss2/drop_fc
I0509 20:54:11.359760 17848 net.cpp:129] Top shape: 16 1024 (16384)
I0509 20:54:11.359762 17848 net.cpp:137] Memory required for data: 805652108
I0509 20:54:11.359766 17848 layer_factory.hpp:77] Creating layer loss2/classifier
I0509 20:54:11.359772 17848 net.cpp:84] Creating Layer loss2/classifier
I0509 20:54:11.359776 17848 net.cpp:406] loss2/classifier <- loss2/fc
I0509 20:54:11.359782 17848 net.cpp:380] loss2/classifier -> loss2/classifier
I0509 20:54:11.361547 17848 net.cpp:122] Setting up loss2/classifier
I0509 20:54:11.361557 17848 net.cpp:129] Top shape: 16 196 (3136)
I0509 20:54:11.361560 17848 net.cpp:137] Memory required for data: 805664652
I0509 20:54:11.361567 17848 layer_factory.hpp:77] Creating layer loss2/classifier_loss2/classifier_0_split
I0509 20:54:11.361572 17848 net.cpp:84] Creating Layer loss2/classifier_loss2/classifier_0_split
I0509 20:54:11.361577 17848 net.cpp:406] loss2/classifier_loss2/classifier_0_split <- loss2/classifier
I0509 20:54:11.361583 17848 net.cpp:380] loss2/classifier_loss2/classifier_0_split -> loss2/classifier_loss2/classifier_0_split_0
I0509 20:54:11.361590 17848 net.cpp:380] loss2/classifier_loss2/classifier_0_split -> loss2/classifier_loss2/classifier_0_split_1
I0509 20:54:11.361595 17848 net.cpp:380] loss2/classifier_loss2/classifier_0_split -> loss2/classifier_loss2/classifier_0_split_2
I0509 20:54:11.361639 17848 net.cpp:122] Setting up loss2/classifier_loss2/classifier_0_split
I0509 20:54:11.361645 17848 net.cpp:129] Top shape: 16 196 (3136)
I0509 20:54:11.361649 17848 net.cpp:129] Top shape: 16 196 (3136)
I0509 20:54:11.361651 17848 net.cpp:129] Top shape: 16 196 (3136)
I0509 20:54:11.361654 17848 net.cpp:137] Memory required for data: 805702284
I0509 20:54:11.361656 17848 layer_factory.hpp:77] Creating layer loss2/loss
I0509 20:54:11.361661 17848 net.cpp:84] Creating Layer loss2/loss
I0509 20:54:11.361665 17848 net.cpp:406] loss2/loss <- loss2/classifier_loss2/classifier_0_split_0
I0509 20:54:11.361690 17848 net.cpp:406] loss2/loss <- label_val-data_1_split_3
…
I0509 20:54:11.362267 17848 net.cpp:122] Setting up loss2/top-5
I0509 20:54:11.362270 17848 net.cpp:129] Top shape: (1)
I0509 20:54:11.362272 17848 net.cpp:137] Memory required for data: 805702296
I0509 20:54:11.362275 17848 layer_factory.hpp:77] Creating layer inception_4e/1x1
I0509 20:54:11.362285 17848 net.cpp:84] Creating Layer inception_4e/1x1
I0509 20:54:11.362288 17848 net.cpp:406] inception_4e/1x1 <- inception_4d/output_inception_4d/output_0_split_1
I0509 20:54:11.362295 17848 net.cpp:380] inception_4e/1x1 -> inception_4e/1x1
I0509 20:54:11.365233 17848 net.cpp:122] Setting up inception_4e/1x1
I0509 20:54:11.365243 17848 net.cpp:129] Top shape: 16 256 14 14 (802816)
I0509 20:54:11.365247 17848 net.cpp:137] Memory required for data: 808913560
I0509 20:54:11.365252 17848 layer_factory.hpp:77] Creating layer inception_4e/relu_1x1
I0509 20:54:11.365260 17848 net.cpp:84] Creating Layer inception_4e/relu_1x1
I0509 20:54:11.365263 17848 net.cpp:406] inception_4e/relu_1x1 <- inception_4e/1x1
I0509 20:54:11.365268 17848 net.cpp:367] inception_4e/relu_1x1 -> inception_4e/1x1 (in-place)
I0509 20:54:11.367625 17848 net.cpp:122] Setting up inception_4e/relu_1x1
I0509 20:54:11.367636 17848 net.cpp:129] Top shape: 16 256 14 14 (802816)
I0509 20:54:11.367640 17848 net.cpp:137] Memory required for data: 812124824
I0509 20:54:11.367642 17848 layer_factory.hpp:77] Creating layer inception_4e/3x3_reduce
I0509 20:54:11.367681 17848 net.cpp:84] Creating Layer inception_4e/3x3_reduce
I0509 20:54:11.367686 17848 net.cpp:406] inception_4e/3x3_reduce <- inception_4d/output_inception_4d/output_0_split_2
I0509 20:54:11.367691 17848 net.cpp:380] inception_4e/3x3_reduce -> inception_4e/3x3_reduce
I0509 20:54:11.370357 17848 net.cpp:122] Setting up inception_4e/3x3_reduce
I0509 20:54:11.370368 17848 net.cpp:129] Top shape: 16 160 14 14 (501760)
I0509 20:54:11.370370 17848 net.cpp:137] Memory required for data: 814131864
I0509 20:54:11.370378 17848 layer_factory.hpp:77] Creating layer inception_4e/relu_3x3_reduce
I0509 20:54:11.370383 17848 net.cpp:84] Creating Layer inception_4e/relu_3x3_reduce
I0509 20:54:11.370386 17848 net.cpp:406] inception_4e/relu_3x3_reduce <- inception_4e/3x3_reduce
I0509 20:54:11.370391 17848 net.cpp:367] inception_4e/relu_3x3_reduce -> inception_4e/3x3_reduce (in-place)
I0509 20:54:11.370966 17848 net.cpp:122] Setting up inception_4e/relu_3x3_reduce
I0509 20:54:11.370975 17848 net.cpp:129] Top shape: 16 160 14 14 (501760)
I0509 20:54:11.370978 17848 net.cpp:137] Memory required for data: 816138904
I0509 20:54:11.370981 17848 layer_factory.hpp:77] Creating layer inception_4e/3x3
I0509 20:54:11.371008 17848 net.cpp:84] Creating Layer inception_4e/3x3
I0509 20:54:11.371012 17848 net.cpp:406] inception_4e/3x3 <- inception_4e/3x3_reduce
I0509 20:54:11.371018 17848 net.cpp:380] inception_4e/3x3 -> inception_4e/3x3
I0509 20:54:11.376121 17848 net.cpp:122] Setting up inception_4e/3x3
I0509 20:54:11.376132 17848 net.cpp:129] Top shape: 16 320 14 14 (1003520)
I0509 20:54:11.376134 17848 net.cpp:137] Memory required for data: 820152984
I0509 20:54:11.376140 17848 layer_factory.hpp:77] Creating layer inception_4e/relu_3x3
I0509 20:54:11.376147 17848 net.cpp:84] Creating Layer inception_4e/relu_3x3
I0509 20:54:11.376150 17848 net.cpp:406] inception_4e/relu_3x3 <- inception_4e/3x3
I0509 20:54:11.376157 17848 net.cpp:367] inception_4e/relu_3x3 -> inception_4e/3x3 (in-place)
I0509 20:54:11.376754 17848 net.cpp:122] Setting up inception_4e/relu_3x3
I0509 20:54:11.376765 17848 net.cpp:129] Top shape: 16 320 14 14 (1003520)
I0509 20:54:11.376768 17848 net.cpp:137] Memory required for data: 824167064
I0509 20:54:11.376772 17848 layer_factory.hpp:77] Creating layer inception_4e/5x5_reduce
I0509 20:54:11.376781 17848 net.cpp:84] Creating Layer inception_4e/5x5_reduce
I0509 20:54:11.376785 17848 net.cpp:406] inception_4e/5x5_reduce <- inception_4d/output_inception_4d/output_0_split_3
I0509 20:54:11.376791 17848 net.cpp:380] inception_4e/5x5_reduce -> inception_4e/5x5_reduce
I0509 20:54:11.380702 17848 net.cpp:122] Setting up inception_4e/5x5_reduce
I0509 20:54:11.380714 17848 net.cpp:129] Top shape: 16 32 14 14 (100352)
I0509 20:54:11.380717 17848 net.cpp:137] Memory required for data: 824568472
I0509 20:54:11.380723 17848 layer_factory.hpp:77] Creating layer inception_4e/relu_5x5_reduce
I0509 20:54:11.380730 17848 net.cpp:84] Creating Layer inception_4e/relu_5x5_reduce
I0509 20:54:11.380734 17848 net.cpp:406] inception_4e/relu_5x5_reduce <- inception_4e/5x5_reduce
I0509 20:54:11.380741 17848 net.cpp:367] inception_4e/relu_5x5_reduce -> inception_4e/5x5_reduce (in-place)
I0509 20:54:11.381325 17848 net.cpp:122] Setting up inception_4e/relu_5x5_reduce
I0509 20:54:11.381336 17848 net.cpp:129] Top shape: 16 32 14 14 (100352)
I0509 20:54:11.381340 17848 net.cpp:137] Memory required for data: 824969880
I0509 20:54:11.381342 17848 layer_factory.hpp:77] Creating layer inception_4e/5x5
I0509 20:54:11.381352 17848 net.cpp:84] Creating Layer inception_4e/5x5
I0509 20:54:11.381356 17848 net.cpp:406] inception_4e/5x5 <- inception_4e/5x5_reduce
I0509 20:54:11.381361 17848 net.cpp:380] inception_4e/5x5 -> inception_4e/5x5
I0509 20:54:11.384264 17848 net.cpp:122] Setting up inception_4e/5x5
I0509 20:54:11.384274 17848 net.cpp:129] Top shape: 16 128 14 14 (401408)
I0509 20:54:11.384276 17848 net.cpp:137] Memory required for data: 826575512
I0509 20:54:11.384282 17848 layer_factory.hpp:77] Creating layer inception_4e/relu_5x5
I0509 20:54:11.384287 17848 net.cpp:84] Creating Layer inception_4e/relu_5x5
I0509 20:54:11.384291 17848 net.cpp:406] inception_4e/relu_5x5 <- inception_4e/5x5
I0509 20:54:11.384297 17848 net.cpp:367] inception_4e/relu_5x5 -> inception_4e/5x5 (in-place)
I0509 20:54:11.384699 17848 net.cpp:122] Setting up inception_4e/relu_5x5
I0509 20:54:11.384712 17848 net.cpp:129] Top shape: 16 128 14 14 (401408)
I0509 20:54:11.384716 17848 net.cpp:137] Memory required for data: 828181144
I0509 20:54:11.384718 17848 layer_factory.hpp:77] Creating layer inception_4e/pool
I0509 20:54:11.384725 17848 net.cpp:84] Creating Layer inception_4e/pool
I0509 20:54:11.384728 17848 net.cpp:406] inception_4e/pool <- inception_4d/output_inception_4d/output_0_split_4
I0509 20:54:11.384734 17848 net.cpp:380] inception_4e/pool -> inception_4e/pool
I0509 20:54:11.384780 17848 net.cpp:122] Setting up inception_4e/pool
I0509 20:54:11.384786 17848 net.cpp:129] Top shape: 16 528 14 14 (1655808)
I0509 20:54:11.384788 17848 net.cpp:137] Memory required for data: 834804376
I0509 20:54:11.384791 17848 layer_factory.hpp:77] Creating layer inception_4e/pool_proj
I0509 20:54:11.384799 17848 net.cpp:84] Creating Layer inception_4e/pool_proj
I0509 20:54:11.384820 17848 net.cpp:406] inception_4e/pool_proj <- inception_4e/pool
I0509 20:54:11.384829 17848 net.cpp:380] inception_4e/pool_proj -> inception_4e/pool_proj
I0509 20:54:11.388139 17848 net.cpp:122] Setting up inception_4e/pool_proj
I0509 20:54:11.388149 17848 net.cpp:129] Top shape: 16 128 14 14 (401408)
I0509 20:54:11.388152 17848 net.cpp:137] Memory required for data: 836410008
I0509 20:54:11.388159 17848 layer_factory.hpp:77] Creating layer inception_4e/relu_pool_proj
I0509 20:54:11.388164 17848 net.cpp:84] Creating Layer inception_4e/relu_pool_proj
I0509 20:54:11.388168 17848 net.cpp:406] inception_4e/relu_pool_proj <- inception_4e/pool_proj
I0509 20:54:11.388172 17848 net.cpp:367] inception_4e/relu_pool_proj -> inception_4e/pool_proj (in-place)
I0509 20:54:11.390539 17848 net.cpp:122] Setting up inception_4e/relu_pool_proj
I0509 20:54:11.390550 17848 net.cpp:129] Top shape: 16 128 14 14 (401408)
I0509 20:54:11.390553 17848 net.cpp:137] Memory required for data: 838015640
I0509 20:54:11.390558 17848 layer_factory.hpp:77] Creating layer inception_4e/output
I0509 20:54:11.390565 17848 net.cpp:84] Creating Layer inception_4e/output
I0509 20:54:11.390568 17848 net.cpp:406] inception_4e/output <- inception_4e/1x1
I0509 20:54:11.390573 17848 net.cpp:406] inception_4e/output <- inception_4e/3x3
I0509 20:54:11.390578 17848 net.cpp:406] inception_4e/output <- inception_4e/5x5
I0509 20:54:11.390580 17848 net.cpp:406] inception_4e/output <- inception_4e/pool_proj
I0509 20:54:11.390585 17848 net.cpp:380] inception_4e/output -> inception_4e/output
I0509 20:54:11.390617 17848 net.cpp:122] Setting up inception_4e/output
I0509 20:54:11.390624 17848 net.cpp:129] Top shape: 16 832 14 14 (2609152)
I0509 20:54:11.390625 17848 net.cpp:137] Memory required for data: 848452248
I0509 20:54:11.390628 17848 layer_factory.hpp:77] Creating layer pool4/3x3_s2
I0509 20:54:11.390635 17848 net.cpp:84] Creating Layer pool4/3x3_s2
I0509 20:54:11.390638 17848 net.cpp:406] pool4/3x3_s2 <- inception_4e/output
I0509 20:54:11.390645 17848 net.cpp:380] pool4/3x3_s2 -> pool4/3x3_s2
I0509 20:54:11.390678 17848 net.cpp:122] Setting up pool4/3x3_s2
I0509 20:54:11.390686 17848 net.cpp:129] Top shape: 16 832 7 7 (652288)
I0509 20:54:11.390687 17848 net.cpp:137] Memory required for data: 851061400
I0509 20:54:11.390691 17848 layer_factory.hpp:77] Creating layer pool4/3x3_s2_pool4/3x3_s2_0_split
I0509 20:54:11.390695 17848 net.cpp:84] Creating Layer pool4/3x3_s2_pool4/3x3_s2_0_split
I0509 20:54:11.390698 17848 net.cpp:406] pool4/3x3_s2_pool4/3x3_s2_0_split <- pool4/3x3_s2
I0509 20:54:11.390704 17848 net.cpp:380] pool4/3x3_s2_pool4/3x3_s2_0_split -> pool4/3x3_s2_pool4/3x3_s2_0_split_0
I0509 20:54:11.390710 17848 net.cpp:380] pool4/3x3_s2_pool4/3x3_s2_0_split -> pool4/3x3_s2_pool4/3x3_s2_0_split_1
I0509 20:54:11.390715 17848 net.cpp:380] pool4/3x3_s2_pool4/3x3_s2_0_split -> pool4/3x3_s2_pool4/3x3_s2_0_split_2
I0509 20:54:11.390748 17848 net.cpp:380] pool4/3x3_s2_pool4/3x3_s2_0_split -> pool4/3x3_s2_pool4/3x3_s2_0_split_3
I0509 20:54:11.390796 17848 net.cpp:122] Setting up pool4/3x3_s2_pool4/3x3_s2_0_split
I0509 20:54:11.390801 17848 net.cpp:129] Top shape: 16 832 7 7 (652288)
I0509 20:54:11.390805 17848 net.cpp:129] Top shape: 16 832 7 7 (652288)
I0509 20:54:11.390810 17848 net.cpp:129] Top shape: 16 832 7 7 (652288)
I0509 20:54:11.390813 17848 net.cpp:129] Top shape: 16 832 7 7 (652288)
I0509 20:54:11.390816 17848 net.cpp:137] Memory required for data: 861498008
I0509 20:54:11.390820 17848 layer_factory.hpp:77] Creating layer inception_5a/1x1
I0509 20:54:11.390826 17848 net.cpp:84] Creating Layer inception_5a/1x1
I0509 20:54:11.390830 17848 net.cpp:406] inception_5a/1x1 <- pool4/3x3_s2_pool4/3x3_s2_0_split_0
I0509 20:54:11.390836 17848 net.cpp:380] inception_5a/1x1 -> inception_5a/1x1
I0509 20:54:11.393898 17848 net.cpp:122] Setting up inception_5a/1x1
I0509 20:54:11.393908 17848 net.cpp:129] Top shape: 16 256 7 7 (200704)
I0509 20:54:11.393910 17848 net.cpp:137] Memory required for data: 862300824
I0509 20:54:11.393932 17848 layer_factory.hpp:77] Creating layer inception_5a/relu_1x1
I0509 20:54:11.393939 17848 net.cpp:84] Creating Layer inception_5a/relu_1x1
I0509 20:54:11.393942 17848 net.cpp:406] inception_5a/relu_1x1 <- inception_5a/1x1
I0509 20:54:11.393949 17848 net.cpp:367] inception_5a/relu_1x1 -> inception_5a/1x1 (in-place)
I0509 20:54:11.394528 17848 net.cpp:122] Setting up inception_5a/relu_1x1
I0509 20:54:11.394539 17848 net.cpp:129] Top shape: 16 256 7 7 (200704)
I0509 20:54:11.394542 17848 net.cpp:137] Memory required for data: 863103640
I0509 20:54:11.394546 17848 layer_factory.hpp:77] Creating layer inception_5a/3x3_reduce
I0509 20:54:11.394556 17848 net.cpp:84] Creating Layer inception_5a/3x3_reduce
I0509 20:54:11.394559 17848 net.cpp:406] inception_5a/3x3_reduce <- pool4/3x3_s2_pool4/3x3_s2_0_split_1
I0509 20:54:11.394565 17848 net.cpp:380] inception_5a/3x3_reduce -> inception_5a/3x3_reduce
I0509 20:54:11.397444 17848 net.cpp:122] Setting up inception_5a/3x3_reduce
I0509 20:54:11.397455 17848 net.cpp:129] Top shape: 16 160 7 7 (125440)
I0509 20:54:11.397459 17848 net.cpp:137] Memory required for data: 863605400
I0509 20:54:11.397464 17848 layer_factory.hpp:77] Creating layer inception_5a/relu_3x3_reduce
I0509 20:54:11.397469 17848 net.cpp:84] Creating Layer inception_5a/relu_3x3_reduce
I0509 20:54:11.397473 17848 net.cpp:406] inception_5a/relu_3x3_reduce <- inception_5a/3x3_reduce
I0509 20:54:11.397478 17848 net.cpp:367] inception_5a/relu_3x3_reduce -> inception_5a/3x3_reduce (in-place)
I0509 20:54:11.398064 17848 net.cpp:122] Setting up inception_5a/relu_3x3_reduce
I0509 20:54:11.398073 17848 net.cpp:129] Top shape: 16 160 7 7 (125440)
I0509 20:54:11.398077 17848 net.cpp:137] Memory required for data: 864107160
I0509 20:54:11.398079 17848 layer_factory.hpp:77] Creating layer inception_5a/3x3
I0509 20:54:11.398089 17848 net.cpp:84] Creating Layer inception_5a/3x3
I0509 20:54:11.398092 17848 net.cpp:406] inception_5a/3x3 <- inception_5a/3x3_reduce
I0509 20:54:11.398100 17848 net.cpp:380] inception_5a/3x3 -> inception_5a/3x3
I0509 20:54:11.405089 17848 net.cpp:122] Setting up inception_5a/3x3
I0509 20:54:11.405104 17848 net.cpp:129] Top shape: 16 320 7 7 (250880)
I0509 20:54:11.405107 17848 net.cpp:137] Memory required for data: 865110680
I0509 20:54:11.405114 17848 layer_factory.hpp:77] Creating layer inception_5a/relu_3x3
I0509 20:54:11.405122 17848 net.cpp:84] Creating Layer inception_5a/relu_3x3
I0509 20:54:11.405125 17848 net.cpp:406] inception_5a/relu_3x3 <- inception_5a/3x3
I0509 20:54:11.405133 17848 net.cpp:367] inception_5a/relu_3x3 -> inception_5a/3x3 (in-place)
I0509 20:54:11.405709 17848 net.cpp:122] Setting up inception_5a/relu_3x3
I0509 20:54:11.405719 17848 net.cpp:129] Top shape: 16 320 7 7 (250880)
I0509 20:54:11.405722 17848 net.cpp:137] Memory required for data: 866114200
I0509 20:54:11.405725 17848 layer_factory.hpp:77] Creating layer inception_5a/5x5_reduce
I0509 20:54:11.405735 17848 net.cpp:84] Creating Layer inception_5a/5x5_reduce
I0509 20:54:11.405740 17848 net.cpp:406] inception_5a/5x5_reduce <- pool4/3x3_s2_pool4/3x3_s2_0_split_2
I0509 20:54:11.405750 17848 net.cpp:380] inception_5a/5x5_reduce -> inception_5a/5x5_reduce
I0509 20:54:11.408215 17848 net.cpp:122] Setting up inception_5a/5x5_reduce
I0509 20:54:11.408224 17848 net.cpp:129] Top shape: 16 32 7 7 (25088)
I0509 20:54:11.408227 17848 net.cpp:137] Memory required for data: 866214552
I0509 20:54:11.408233 17848 layer_factory.hpp:77] Creating layer inception_5a/relu_5x5_reduce
I0509 20:54:11.408241 17848 net.cpp:84] Creating Layer inception_5a/relu_5x5_reduce
I0509 20:54:11.408246 17848 net.cpp:406] inception_5a/relu_5x5_reduce <- inception_5a/5x5_reduce
I0509 20:54:11.408251 17848 net.cpp:367] inception_5a/relu_5x5_reduce -> inception_5a/5x5_reduce (in-place)
I0509 20:54:11.408658 17848 net.cpp:122] Setting up inception_5a/relu_5x5_reduce
I0509 20:54:11.408669 17848 net.cpp:129] Top shape: 16 32 7 7 (25088)
I0509 20:54:11.408672 17848 net.cpp:137] Memory required for data: 866314904
I0509 20:54:11.408675 17848 layer_factory.hpp:77] Creating layer inception_5a/5x5
I0509 20:54:11.408702 17848 net.cpp:84] Creating Layer inception_5a/5x5
I0509 20:54:11.408706 17848 net.cpp:406] inception_5a/5x5 <- inception_5a/5x5_reduce
I0509 20:54:11.408715 17848 net.cpp:380] inception_5a/5x5 -> inception_5a/5x5
I0509 20:54:11.411621 17848 net.cpp:122] Setting up inception_5a/5x5
I0509 20:54:11.411631 17848 net.cpp:129] Top shape: 16 128 7 7 (100352)
I0509 20:54:11.411634 17848 net.cpp:137] Memory required for data: 866716312
I0509 20:54:11.411639 17848 layer_factory.hpp:77] Creating layer inception_5a/relu_5x5
I0509 20:54:11.411648 17848 net.cpp:84] Creating Layer inception_5a/relu_5x5
I0509 20:54:11.411650 17848 net.cpp:406] inception_5a/relu_5x5 <- inception_5a/5x5
I0509 20:54:11.411655 17848 net.cpp:367] inception_5a/relu_5x5 -> inception_5a/5x5 (in-place)
I0509 20:54:11.414089 17848 net.cpp:122] Setting up inception_5a/relu_5x5
I0509 20:54:11.414101 17848 net.cpp:129] Top shape: 16 128 7 7 (100352)
I0509 20:54:11.414104 17848 net.cpp:137] Memory required for data: 867117720
I0509 20:54:11.414108 17848 layer_factory.hpp:77] Creating layer inception_5a/pool
I0509 20:54:11.414116 17848 net.cpp:84] Creating Layer inception_5a/pool
I0509 20:54:11.414121 17848 net.cpp:406] inception_5a/pool <- pool4/3x3_s2_pool4/3x3_s2_0_split_3
I0509 20:54:11.414129 17848 net.cpp:380] inception_5a/pool -> inception_5a/pool
I0509 20:54:11.414180 17848 net.cpp:122] Setting up inception_5a/pool
I0509 20:54:11.414186 17848 net.cpp:129] Top shape: 16 832 7 7 (652288)
I0509 20:54:11.414189 17848 net.cpp:137] Memory required for data: 869726872
I0509 20:54:11.414192 17848 layer_factory.hpp:77] Creating layer inception_5a/pool_proj
I0509 20:54:11.414201 17848 net.cpp:84] Creating Layer inception_5a/pool_proj
I0509 20:54:11.414206 17848 net.cpp:406] inception_5a/pool_proj <- inception_5a/pool
I0509 20:54:11.414212 17848 net.cpp:380] inception_5a/pool_proj -> inception_5a/pool_proj
I0509 20:54:11.417613 17848 net.cpp:122] Setting up inception_5a/pool_proj
I0509 20:54:11.417624 17848 net.cpp:129] Top shape: 16 128 7 7 (100352)
I0509 20:54:11.417627 17848 net.cpp:137] Memory required for data: 870128280
I0509 20:54:11.417634 17848 layer_factory.hpp:77] Creating layer inception_5a/relu_pool_proj
I0509 20:54:11.417640 17848 net.cpp:84] Creating Layer inception_5a/relu_pool_proj
I0509 20:54:11.417644 17848 net.cpp:406] inception_5a/relu_pool_proj <- inception_5a/pool_proj
I0509 20:54:11.417651 17848 net.cpp:367] inception_5a/relu_pool_proj -> inception_5a/pool_proj (in-place)
I0509 20:54:11.418269 17848 net.cpp:122] Setting up inception_5a/relu_pool_proj
I0509 20:54:11.418280 17848 net.cpp:129] Top shape: 16 128 7 7 (100352)
I0509 20:54:11.418283 17848 net.cpp:137] Memory required for data: 870529688
I0509 20:54:11.418287 17848 layer_factory.hpp:77] Creating layer inception_5a/output
I0509 20:54:11.418292 17848 net.cpp:84] Creating Layer inception_5a/output
I0509 20:54:11.418296 17848 net.cpp:406] inception_5a/output <- inception_5a/1x1
I0509 20:54:11.418301 17848 net.cpp:406] inception_5a/output <- inception_5a/3x3
I0509 20:54:11.418304 17848 net.cpp:406] inception_5a/output <- inception_5a/5x5
I0509 20:54:11.418308 17848 net.cpp:406] inception_5a/output <- inception_5a/pool_proj
I0509 20:54:11.418313 17848 net.cpp:380] inception_5a/output -> inception_5a/output
I0509 20:54:11.418345 17848 net.cpp:122] Setting up inception_5a/output
I0509 20:54:11.418351 17848 net.cpp:129] Top shape: 16 832 7 7 (652288)
I0509 20:54:11.418354 17848 net.cpp:137] Memory required for data: 873138840
I0509 20:54:11.418356 17848 layer_factory.hpp:77] Creating layer inception_5a/output_inception_5a/output_0_split
I0509 20:54:11.418363 17848 net.cpp:84] Creating Layer inception_5a/output_inception_5a/output_0_split
I0509 20:54:11.418367 17848 net.cpp:406] inception_5a/output_inception_5a/output_0_split <- inception_5a/output
I0509 20:54:11.418371 17848 net.cpp:380] inception_5a/output_inception_5a/output_0_split -> inception_5a/output_inception_5a/output_0_split_0
I0509 20:54:11.418380 17848 net.cpp:380] inception_5a/output_inception_5a/output_0_split -> inception_5a/output_inception_5a/output_0_split_1
I0509 20:54:11.418404 17848 net.cpp:380] inception_5a/output_inception_5a/output_0_split -> inception_5a/output_inception_5a/output_0_split_2
I0509 20:54:11.418411 17848 net.cpp:380] inception_5a/output_inception_5a/output_0_split -> inception_5a/output_inception_5a/output_0_split_3
I0509 20:54:11.418468 17848 net.cpp:122] Setting up inception_5a/output_inception_5a/output_0_split
I0509 20:54:11.418473 17848 net.cpp:129] Top shape: 16 832 7 7 (652288)
I0509 20:54:11.418478 17848 net.cpp:129] Top shape: 16 832 7 7 (652288)
I0509 20:54:11.418480 17848 net.cpp:129] Top shape: 16 832 7 7 (652288)
I0509 20:54:11.418483 17848 net.cpp:129] Top shape: 16 832 7 7 (652288)
I0509 20:54:11.418486 17848 net.cpp:137] Memory required for data: 883575448
I0509 20:54:11.418489 17848 layer_factory.hpp:77] Creating layer inception_5b/1x1
I0509 20:54:11.418499 17848 net.cpp:84] Creating Layer inception_5b/1x1
I0509 20:54:11.418503 17848 net.cpp:406] inception_5b/1x1 <- inception_5a/output_inception_5a/output_0_split_0
I0509 20:54:11.418509 17848 net.cpp:380] inception_5b/1x1 -> inception_5b/1x1
I0509 20:54:11.422062 17848 net.cpp:122] Setting up inception_5b/1x1
I0509 20:54:11.422073 17848 net.cpp:129] Top shape: 16 384 7 7 (301056)
I0509 20:54:11.422076 17848 net.cpp:137] Memory required for data: 884779672
I0509 20:54:11.422082 17848 layer_factory.hpp:77] Creating layer inception_5b/relu_1x1
I0509 20:54:11.422091 17848 net.cpp:84] Creating Layer inception_5b/relu_1x1
I0509 20:54:11.422094 17848 net.cpp:406] inception_5b/relu_1x1 <- inception_5b/1x1
I0509 20:54:11.422099 17848 net.cpp:367] inception_5b/relu_1x1 -> inception_5b/1x1 (in-place)
I0509 20:54:11.422689 17848 net.cpp:122] Setting up inception_5b/relu_1x1
I0509 20:54:11.422698 17848 net.cpp:129] Top shape: 16 384 7 7 (301056)
I0509 20:54:11.422701 17848 net.cpp:137] Memory required for data: 885983896
I0509 20:54:11.422705 17848 layer_factory.hpp:77] Creating layer inception_5b/3x3_reduce
I0509 20:54:11.422715 17848 net.cpp:84] Creating Layer inception_5b/3x3_reduce
I0509 20:54:11.422719 17848 net.cpp:406] inception_5b/3x3_reduce <- inception_5a/output_inception_5a/output_0_split_1
I0509 20:54:11.422727 17848 net.cpp:380] inception_5b/3x3_reduce -> inception_5b/3x3_reduce
I0509 20:54:11.428474 17848 net.cpp:122] Setting up inception_5b/3x3_reduce
I0509 20:54:11.428491 17848 net.cpp:129] Top shape: 16 192 7 7 (150528)
I0509 20:54:11.428505 17848 net.cpp:137] Memory required for data: 886586008
I0509 20:54:11.428516 17848 layer_factory.hpp:77] Creating layer inception_5b/relu_3x3_reduce
I0509 20:54:11.428527 17848 net.cpp:84] Creating Layer inception_5b/relu_3x3_reduce
I0509 20:54:11.428534 17848 net.cpp:406] inception_5b/relu_3x3_reduce <- inception_5b/3x3_reduce
I0509 20:54:11.428544 17848 net.cpp:367] inception_5b/relu_3x3_reduce -> inception_5b/3x3_reduce (in-place)
I0509 20:54:11.429141 17848 net.cpp:122] Setting up inception_5b/relu_3x3_reduce
I0509 20:54:11.429152 17848 net.cpp:129] Top shape: 16 192 7 7 (150528)
I0509 20:54:11.429154 17848 net.cpp:137] Memory required for data: 887188120
I0509 20:54:11.429157 17848 layer_factory.hpp:77] Creating layer inception_5b/3x3
I0509 20:54:11.429169 17848 net.cpp:84] Creating Layer inception_5b/3x3
I0509 20:54:11.429172 17848 net.cpp:406] inception_5b/3x3 <- inception_5b/3x3_reduce
I0509 20:54:11.429180 17848 net.cpp:380] inception_5b/3x3 -> inception_5b/3x3
I0509 20:54:11.435405 17848 net.cpp:122] Setting up inception_5b/3x3
I0509 20:54:11.435415 17848 net.cpp:129] Top shape: 16 384 7 7 (301056)
I0509 20:54:11.435418 17848 net.cpp:137] Memory required for data: 888392344
I0509 20:54:11.435425 17848 layer_factory.hpp:77] Creating layer inception_5b/relu_3x3
I0509 20:54:11.435431 17848 net.cpp:84] Creating Layer inception_5b/relu_3x3
I0509 20:54:11.435436 17848 net.cpp:406] inception_5b/relu_3x3 <- inception_5b/3x3
I0509 20:54:11.435442 17848 net.cpp:367] inception_5b/relu_3x3 -> inception_5b/3x3 (in-place)
I0509 20:54:11.435843 17848 net.cpp:122] Setting up inception_5b/relu_3x3
I0509 20:54:11.435873 17848 net.cpp:129] Top shape: 16 384 7 7 (301056)
I0509 20:54:11.435876 17848 net.cpp:137] Memory required for data: 889596568
I0509 20:54:11.435879 17848 layer_factory.hpp:77] Creating layer inception_5b/5x5_reduce
I0509 20:54:11.435889 17848 net.cpp:84] Creating Layer inception_5b/5x5_reduce
I0509 20:54:11.435894 17848 net.cpp:406] inception_5b/5x5_reduce <- inception_5a/output_inception_5a/output_0_split_2
I0509 20:54:11.435901 17848 net.cpp:380] inception_5b/5x5_reduce -> inception_5b/5x5_reduce
I0509 20:54:11.438408 17848 net.cpp:122] Setting up inception_5b/5x5_reduce
I0509 20:54:11.438418 17848 net.cpp:129] Top shape: 16 48 7 7 (37632)
I0509 20:54:11.438421 17848 net.cpp:137] Memory required for data: 889747096
I0509 20:54:11.438428 17848 layer_factory.hpp:77] Creating layer inception_5b/relu_5x5_reduce
I0509 20:54:11.438433 17848 net.cpp:84] Creating Layer inception_5b/relu_5x5_reduce
I0509 20:54:11.438437 17848 net.cpp:406] inception_5b/relu_5x5_reduce <- inception_5b/5x5_reduce
I0509 20:54:11.438444 17848 net.cpp:367] inception_5b/relu_5x5_reduce -> inception_5b/5x5_reduce (in-place)
I0509 20:54:11.438839 17848 net.cpp:122] Setting up inception_5b/relu_5x5_reduce
I0509 20:54:11.438848 17848 net.cpp:129] Top shape: 16 48 7 7 (37632)
I0509 20:54:11.438851 17848 net.cpp:137] Memory required for data: 889897624
I0509 20:54:11.438854 17848 layer_factory.hpp:77] Creating layer inception_5b/5x5
I0509 20:54:11.438863 17848 net.cpp:84] Creating Layer inception_5b/5x5
I0509 20:54:11.438868 17848 net.cpp:406] inception_5b/5x5 <- inception_5b/5x5_reduce
I0509 20:54:11.438874 17848 net.cpp:380] inception_5b/5x5 -> inception_5b/5x5
I0509 20:54:11.444381 17848 net.cpp:122] Setting up inception_5b/5x5
I0509 20:54:11.444397 17848 net.cpp:129] Top shape: 16 128 7 7 (100352)
I0509 20:54:11.444401 17848 net.cpp:137] Memory required for data: 890299032
I0509 20:54:11.444408 17848 layer_factory.hpp:77] Creating layer inception_5b/relu_5x5
I0509 20:54:11.444418 17848 net.cpp:84] Creating Layer inception_5b/relu_5x5
I0509 20:54:11.444423 17848 net.cpp:406] inception_5b/relu_5x5 <- inception_5b/5x5
I0509 20:54:11.444429 17848 net.cpp:367] inception_5b/relu_5x5 -> inception_5b/5x5 (in-place)
I0509 20:54:11.445047 17848 net.cpp:122] Setting up inception_5b/relu_5x5
I0509 20:54:11.445060 17848 net.cpp:129] Top shape: 16 128 7 7 (100352)
I0509 20:54:11.445062 17848 net.cpp:137] Memory required for data: 890700440
I0509 20:54:11.445065 17848 layer_factory.hpp:77] Creating layer inception_5b/pool
I0509 20:54:11.445071 17848 net.cpp:84] Creating Layer inception_5b/pool
I0509 20:54:11.445075 17848 net.cpp:406] inception_5b/pool <- inception_5a/output_inception_5a/output_0_split_3
I0509 20:54:11.445081 17848 net.cpp:380] inception_5b/pool -> inception_5b/pool
I0509 20:54:11.445128 17848 net.cpp:122] Setting up inception_5b/pool
I0509 20:54:11.445134 17848 net.cpp:129] Top shape: 16 832 7 7 (652288)
I0509 20:54:11.445137 17848 net.cpp:137] Memory required for data: 893309592
I0509 20:54:11.445139 17848 layer_factory.hpp:77] Creating layer inception_5b/pool_proj
I0509 20:54:11.445150 17848 net.cpp:84] Creating Layer inception_5b/pool_proj
I0509 20:54:11.445153 17848 net.cpp:406] inception_5b/pool_proj <- inception_5b/pool
I0509 20:54:11.445160 17848 net.cpp:380] inception_5b/pool_proj -> inception_5b/pool_proj
I0509 20:54:11.447736 17848 net.cpp:122] Setting up inception_5b/pool_proj
I0509 20:54:11.447746 17848 net.cpp:129] Top shape: 16 128 7 7 (100352)
I0509 20:54:11.447748 17848 net.cpp:137] Memory required for data: 893711000
I0509 20:54:11.447754 17848 layer_factory.hpp:77] Creating layer inception_5b/relu_pool_proj
I0509 20:54:11.447759 17848 net.cpp:84] Creating Layer inception_5b/relu_pool_proj
I0509 20:54:11.447763 17848 net.cpp:406] inception_5b/relu_pool_proj <- inception_5b/pool_proj
I0509 20:54:11.447770 17848 net.cpp:367] inception_5b/relu_pool_proj -> inception_5b/pool_proj (in-place)
I0509 20:54:11.448356 17848 net.cpp:122] Setting up inception_5b/relu_pool_proj
I0509 20:54:11.448369 17848 net.cpp:129] Top shape: 16 128 7 7 (100352)
I0509 20:54:11.448391 17848 net.cpp:137] Memory required for data: 894112408
I0509 20:54:11.448395 17848 layer_factory.hpp:77] Creating layer inception_5b/output
I0509 20:54:11.448401 17848 net.cpp:84] Creating Layer inception_5b/output
I0509 20:54:11.448405 17848 net.cpp:406] inception_5b/output <- inception_5b/1x1
I0509 20:54:11.448410 17848 net.cpp:406] inception_5b/output <- inception_5b/3x3
I0509 20:54:11.448413 17848 net.cpp:406] inception_5b/output <- inception_5b/5x5
I0509 20:54:11.448417 17848 net.cpp:406] inception_5b/output <- inception_5b/pool_proj
I0509 20:54:11.448421 17848 net.cpp:380] inception_5b/output -> inception_5b/output
I0509 20:54:11.448453 17848 net.cpp:122] Setting up inception_5b/output
I0509 20:54:11.448460 17848 net.cpp:129] Top shape: 16 1024 7 7 (802816)
I0509 20:54:11.448463 17848 net.cpp:137] Memory required for data: 897323672
I0509 20:54:11.448467 17848 layer_factory.hpp:77] Creating layer pool5/7x7_s1
I0509 20:54:11.448470 17848 net.cpp:84] Creating Layer pool5/7x7_s1
I0509 20:54:11.448474 17848 net.cpp:406] pool5/7x7_s1 <- inception_5b/output
I0509 20:54:11.448479 17848 net.cpp:380] pool5/7x7_s1 -> pool5/7x7_s1
I0509 20:54:11.449093 17848 net.cpp:122] Setting up pool5/7x7_s1
I0509 20:54:11.449103 17848 net.cpp:129] Top shape: 16 1024 1 1 (16384)
I0509 20:54:11.449106 17848 net.cpp:137] Memory required for data: 897389208
I0509 20:54:11.449110 17848 layer_factory.hpp:77] Creating layer pool5/drop_7x7_s1
I0509 20:54:11.449117 17848 net.cpp:84] Creating Layer pool5/drop_7x7_s1
I0509 20:54:11.449121 17848 net.cpp:406] pool5/drop_7x7_s1 <- pool5/7x7_s1
I0509 20:54:11.449127 17848 net.cpp:367] pool5/drop_7x7_s1 -> pool5/7x7_s1 (in-place)
I0509 20:54:11.449151 17848 net.cpp:122] Setting up pool5/drop_7x7_s1
I0509 20:54:11.449156 17848 net.cpp:129] Top shape: 16 1024 1 1 (16384)
I0509 20:54:11.449159 17848 net.cpp:137] Memory required for data: 897454744
I0509 20:54:11.449162 17848 layer_factory.hpp:77] Creating layer loss3/classifier
I0509 20:54:11.449172 17848 net.cpp:84] Creating Layer loss3/classifier
I0509 20:54:11.449174 17848 net.cpp:406] loss3/classifier <- pool5/7x7_s1
I0509 20:54:11.449180 17848 net.cpp:380] loss3/classifier -> loss3/classifier
I0509 20:54:11.450929 17848 net.cpp:122] Setting up loss3/classifier
I0509 20:54:11.450937 17848 net.cpp:129] Top shape: 16 196 (3136)
I0509 20:54:11.450940 17848 net.cpp:137] Memory required for data: 897467288
I0509 20:54:11.450947 17848 layer_factory.hpp:77] Creating layer loss3/classifier_loss3/classifier_0_split
I0509 20:54:11.450953 17848 net.cpp:84] Creating Layer loss3/classifier_loss3/classifier_0_split
I0509 20:54:11.450955 17848 net.cpp:406] loss3/classifier_loss3/classifier_0_split <- loss3/classifier
I0509 20:54:11.450965 17848 net.cpp:380] loss3/classifier_loss3/classifier_0_split -> loss3/classifier_loss3/classifier_0_split_0
I0509 20:54:11.450973 17848 net.cpp:380] loss3/classifier_loss3/classifier_0_split -> loss3/classifier_loss3/classifier_0_split_1
I0509 20:54:11.450981 17848 net.cpp:380] loss3/classifier_loss3/classifier_0_split -> loss3/classifier_loss3/classifier_0_split_2
I0509 20:54:11.451027 17848 net.cpp:122] Setting up loss3/classifier_loss3/classifier_0_split
I0509 20:54:11.451032 17848 net.cpp:129] Top shape: 16 196 (3136)
I0509 20:54:11.451035 17848 net.cpp:129] Top shape: 16 196 (3136)
I0509 20:54:11.451038 17848 net.cpp:129] Top shape: 16 196 (3136)
I0509 20:54:11.451040 17848 net.cpp:137] Memory required for data: 897504920
I0509 20:54:11.451043 17848 layer_factory.hpp:77] Creating layer loss3/loss
I0509 20:54:11.451048 17848 net.cpp:84] Creating Layer loss3/loss
I0509 20:54:11.451051 17848 net.cpp:406] loss3/loss <- loss3/classifier_loss3/classifier_0_split_0
I0509 20:54:11.451056 17848 net.cpp:406] loss3/loss <- label_val-data_1_split_6
…
