…
I0507 12:30:32.982995 14068 net.cpp:294] The NetState phase (0) differed from the phase (1) specified by a rule in layer accuracy
I0507 12:30:32.983145 14068 net.cpp:51] Initializing net from parameters:
state {
phase: TRAIN
level: 0
stage: ""
}
layer {
name: "train-data"
type: "Data"
top: "data"
top: "label"
include {
phase: TRAIN
}
transform_param {
mirror: true
crop_size: 227
mean_file: "/mnt/bigdisk/MANDIG4/digits/jobs/20200507-113700-33e0/mean.binaryproto"
}
data_param {
source: "/mnt/bigdisk/MANDIG4/digits/jobs/20200507-113700-33e0/train_db"
batch_size: 128
backend: LMDB
}
}
layer {
name: "conv1"
type: "Convolution"
bottom: "data"
top: "conv1"
param {
lr_mult: 1
decay_mult: 1
}
param {
lr_mult: 2
decay_mult: 0
}
convolution_param {
num_output: 96
kernel_size: 11
stride: 4
weight_filler {
type: "gaussian"
std: 0.01
}
bias_filler {
type: "constant"
value: 0
}
}
}
layer {
name: "relu1"
type: "ReLU"
bottom: "conv1"
top: "conv1"
}
layer {
name: "norm1"
type: "LRN"
bottom: "conv1"
top: "norm1"
lrn_param {
local_size: 5
alpha: 0.0001
beta: 0.75
}
}
layer {
name: "pool1"
type: "Pooling"
bottom: "norm1"
top: "pool1"
pooling_param {
pool: MAX
kernel_size: 3
stride: 2
}
}
layer {
name: "conv2"
type: "Convolution"
bottom: "pool1"
top: "conv2"
param {
lr_mult: 1
decay_mult: 1
}
param {
lr_mult: 2
decay_mult: 0
}
convolution_param {
num_output: 256
pad: 2
kernel_size: 5
group: 2
weight_filler {
type: "gaussian"
std: 0.01
}
bias_filler {
type: "constant"
value: 0.1
}
}
}
layer {
name: "relu2"
type: "ReLU"
bottom: "conv2"
top: "conv2"
}
layer {
name: "norm2"
type: "LRN"
bottom: "conv2"
top: "norm2"
lrn_param {
local_size: 5
alpha: 0.0001
beta: 0.75
}
}
layer {
name: "pool2"
type: "Pooling"
bottom: "norm2"
top: "pool2"
pooling_param {
pool: MAX
kernel_size: 3
stride: 2
}
}
layer {
name: "conv3"
type: "Convolution"
bottom: "pool2"
top: "conv3"
param {
lr_mult: 1
decay_mult: 1
}
param {
lr_mult: 2
decay_mult: 0
}
convolution_param {
num_output: 384
pad: 1
kernel_size: 3
weight_filler {
type: "gaussian"
std: 0.01
}
bias_filler {
type: "constant"
value: 0
}
}
}
layer {
name: "relu3"
type: "ReLU"
bottom: "conv3"
top: "conv3"
}
layer {
name: "conv4"
type: "Convolution"
bottom: "conv3"
top: "conv4"
param {
lr_mult: 1
decay_mult: 1
}
param {
lr_mult: 2
decay_mult: 0
}
convolution_param {
num_output: 384
pad: 1
kernel_size: 3
group: 2
weight_filler {
type: "gaussian"
std: 0.01
}
bias_filler {
type: "constant"
value: 0.1
}
}
}
layer {
name: "relu4"
type: "ReLU"
bottom: "conv4"
top: "conv4"
}
layer {
name: "conv5"
type: "Convolution"
bottom: "conv4"
top: "conv5"
param {
lr_mult: 1
decay_mult: 1
}
param {
lr_mult: 2
decay_mult: 0
}
convolution_param {
num_output: 256
pad: 1
kernel_size: 3
group: 2
weight_filler {
type: "gaussian"
std: 0.01
}
bias_filler {
type: "constant"
value: 0.1
}
}
}
layer {
name: "relu5"
type: "ReLU"
bottom: "conv5"
top: "conv5"
}
layer {
name: "pool5"
type: "Pooling"
bottom: "conv5"
top: "pool5"
pooling_param {
pool: MAX
kernel_size: 3
stride: 2
}
}
layer {
name: "fc6"
type: "InnerProduct"
bottom: "pool5"
top: "fc6"
param {
lr_mult: 1
decay_mult: 1
}
param {
lr_mult: 2
decay_mult: 0
}
inner_product_param {
num_output: 4096
weight_filler {
type: "gaussian"
std: 0.005
}
bias_filler {
type: "constant"
value: 0.1
}
}
}
layer {
name: "relu6"
type: "ReLU"
bottom: "fc6"
top: "fc6"
}
layer {
name: "drop6"
type: "Dropout"
bottom: "fc6"
top: "fc6"
dropout_param {
dropout_ratio: 0.5
}
}
layer {
name: "fc7"
type: "InnerProduct"
bottom: "fc6"
top: "fc7"
param {
lr_mult: 1
decay_mult: 1
}
param {
lr_mult: 2
decay_mult: 0
}
inner_product_param {
num_output: 4096
weight_filler {
type: "gaussian"
std: 0.005
}
bias_filler {
type: "constant"
value: 0.1
}
}
}
layer {
name: "relu7"
type: "ReLU"
bottom: "fc7"
top: "fc7"
}
layer {
name: "drop7"
type: "Dropout"
bottom: "fc7"
top: "fc7"
dropout_param {
dropout_ratio: 0.5
}
}
layer {
name: "fc8"
type: "InnerProduct"
bottom: "fc7"
top: "fc8"
param {
lr_mult: 1
decay_mult: 1
}
param {
lr_mult: 2
decay_mult: 0
}
inner_product_param {
num_output: 196
weight_filler {
type: "gaussian"
std: 0.01
}
bias_filler {
type: "constant"
value: 0
}
}
}
layer {
name: "loss"
type: "SoftmaxWithLoss"
bottom: "fc8"
bottom: "label"
top: "loss"
}
I0507 12:30:32.983245 14068 layer_factory.hpp:77] Creating layer train-data
I0507 12:30:32.986388 14068 db_lmdb.cpp:35] Opened lmdb /mnt/bigdisk/MANDIG4/digits/jobs/20200507-113700-33e0/train_db
I0507 12:30:32.986662 14068 net.cpp:84] Creating Layer train-data
I0507 12:30:32.986675 14068 net.cpp:380] train-data -> data
I0507 12:30:32.986694 14068 net.cpp:380] train-data -> label
I0507 12:30:32.986708 14068 data_transformer.cpp:25] Loading mean file from: /mnt/bigdisk/MANDIG4/digits/jobs/20200507-113700-33e0/mean.binaryproto
I0507 12:30:32.992501 14068 data_layer.cpp:45] output data size: 128,3,227,227
I0507 12:30:33.133580 14068 net.cpp:122] Setting up train-data
I0507 12:30:33.133603 14068 net.cpp:129] Top shape: 128 3 227 227 (19787136)
I0507 12:30:33.133610 14068 net.cpp:129] Top shape: 128 (128)
I0507 12:30:33.133612 14068 net.cpp:137] Memory required for data: 79149056
I0507 12:30:33.133621 14068 layer_factory.hpp:77] Creating layer conv1
I0507 12:30:33.133642 14068 net.cpp:84] Creating Layer conv1
I0507 12:30:33.133648 14068 net.cpp:406] conv1 <- data
I0507 12:30:33.133661 14068 net.cpp:380] conv1 -> conv1
I0507 12:30:34.204912 14068 net.cpp:122] Setting up conv1
I0507 12:30:34.204936 14068 net.cpp:129] Top shape: 128 96 55 55 (37171200)
I0507 12:30:34.204941 14068 net.cpp:137] Memory required for data: 227833856
I0507 12:30:34.204963 14068 layer_factory.hpp:77] Creating layer relu1
I0507 12:30:34.204975 14068 net.cpp:84] Creating Layer relu1
I0507 12:30:34.204982 14068 net.cpp:406] relu1 <- conv1
I0507 12:30:34.204988 14068 net.cpp:367] relu1 -> conv1 (in-place)
I0507 12:30:34.205289 14068 net.cpp:122] Setting up relu1
I0507 12:30:34.205299 14068 net.cpp:129] Top shape: 128 96 55 55 (37171200)
I0507 12:30:34.205304 14068 net.cpp:137] Memory required for data: 376518656
I0507 12:30:34.205308 14068 layer_factory.hpp:77] Creating layer norm1
I0507 12:30:34.205319 14068 net.cpp:84] Creating Layer norm1
I0507 12:30:34.205323 14068 net.cpp:406] norm1 <- conv1
I0507 12:30:34.205353 14068 net.cpp:380] norm1 -> norm1
I0507 12:30:34.205883 14068 net.cpp:122] Setting up norm1
I0507 12:30:34.205895 14068 net.cpp:129] Top shape: 128 96 55 55 (37171200)
I0507 12:30:34.205900 14068 net.cpp:137] Memory required for data: 525203456
I0507 12:30:34.205905 14068 layer_factory.hpp:77] Creating layer pool1
I0507 12:30:34.205917 14068 net.cpp:84] Creating Layer pool1
I0507 12:30:34.205924 14068 net.cpp:406] pool1 <- norm1
I0507 12:30:34.205929 14068 net.cpp:380] pool1 -> pool1
I0507 12:30:34.205971 14068 net.cpp:122] Setting up pool1
I0507 12:30:34.205978 14068 net.cpp:129] Top shape: 128 96 27 27 (8957952)
I0507 12:30:34.205982 14068 net.cpp:137] Memory required for data: 561035264
I0507 12:30:34.205987 14068 layer_factory.hpp:77] Creating layer conv2
I0507 12:30:34.206001 14068 net.cpp:84] Creating Layer conv2
I0507 12:30:34.206004 14068 net.cpp:406] conv2 <- pool1
I0507 12:30:34.206012 14068 net.cpp:380] conv2 -> conv2
I0507 12:30:34.213613 14068 net.cpp:122] Setting up conv2
I0507 12:30:34.213629 14068 net.cpp:129] Top shape: 128 256 27 27 (23887872)
I0507 12:30:34.213634 14068 net.cpp:137] Memory required for data: 656586752
I0507 12:30:34.213644 14068 layer_factory.hpp:77] Creating layer relu2
I0507 12:30:34.213652 14068 net.cpp:84] Creating Layer relu2
I0507 12:30:34.213657 14068 net.cpp:406] relu2 <- conv2
I0507 12:30:34.213666 14068 net.cpp:367] relu2 -> conv2 (in-place)
I0507 12:30:34.214166 14068 net.cpp:122] Setting up relu2
I0507 12:30:34.214177 14068 net.cpp:129] Top shape: 128 256 27 27 (23887872)
I0507 12:30:34.214181 14068 net.cpp:137] Memory required for data: 752138240
I0507 12:30:34.214186 14068 layer_factory.hpp:77] Creating layer norm2
I0507 12:30:34.214195 14068 net.cpp:84] Creating Layer norm2
I0507 12:30:34.214198 14068 net.cpp:406] norm2 <- conv2
I0507 12:30:34.214205 14068 net.cpp:380] norm2 -> norm2
I0507 12:30:34.214584 14068 net.cpp:122] Setting up norm2
I0507 12:30:34.214593 14068 net.cpp:129] Top shape: 128 256 27 27 (23887872)
I0507 12:30:34.214598 14068 net.cpp:137] Memory required for data: 847689728
I0507 12:30:34.214602 14068 layer_factory.hpp:77] Creating layer pool2
I0507 12:30:34.214613 14068 net.cpp:84] Creating Layer pool2
I0507 12:30:34.214619 14068 net.cpp:406] pool2 <- norm2
I0507 12:30:34.214625 14068 net.cpp:380] pool2 -> pool2
I0507 12:30:34.214656 14068 net.cpp:122] Setting up pool2
I0507 12:30:34.214663 14068 net.cpp:129] Top shape: 128 256 13 13 (5537792)
I0507 12:30:34.214668 14068 net.cpp:137] Memory required for data: 869840896
I0507 12:30:34.214671 14068 layer_factory.hpp:77] Creating layer conv3
I0507 12:30:34.214684 14068 net.cpp:84] Creating Layer conv3
I0507 12:30:34.214689 14068 net.cpp:406] conv3 <- pool2
I0507 12:30:34.214694 14068 net.cpp:380] conv3 -> conv3
I0507 12:30:34.225111 14068 net.cpp:122] Setting up conv3
I0507 12:30:34.225128 14068 net.cpp:129] Top shape: 128 384 13 13 (8306688)
I0507 12:30:34.225132 14068 net.cpp:137] Memory required for data: 903067648
I0507 12:30:34.225143 14068 layer_factory.hpp:77] Creating layer relu3
I0507 12:30:34.225153 14068 net.cpp:84] Creating Layer relu3
I0507 12:30:34.225159 14068 net.cpp:406] relu3 <- conv3
I0507 12:30:34.225164 14068 net.cpp:367] relu3 -> conv3 (in-place)
I0507 12:30:34.225672 14068 net.cpp:122] Setting up relu3
I0507 12:30:34.225680 14068 net.cpp:129] Top shape: 128 384 13 13 (8306688)
I0507 12:30:34.225684 14068 net.cpp:137] Memory required for data: 936294400
I0507 12:30:34.225688 14068 layer_factory.hpp:77] Creating layer conv4
I0507 12:30:34.225700 14068 net.cpp:84] Creating Layer conv4
I0507 12:30:34.225704 14068 net.cpp:406] conv4 <- conv3
I0507 12:30:34.225711 14068 net.cpp:380] conv4 -> conv4
I0507 12:30:34.242748 14068 net.cpp:122] Setting up conv4
I0507 12:30:34.242769 14068 net.cpp:129] Top shape: 128 384 13 13 (8306688)
I0507 12:30:34.242774 14068 net.cpp:137] Memory required for data: 969521152
I0507 12:30:34.242782 14068 layer_factory.hpp:77] Creating layer relu4
I0507 12:30:34.242792 14068 net.cpp:84] Creating Layer relu4
I0507 12:30:34.242818 14068 net.cpp:406] relu4 <- conv4
I0507 12:30:34.242826 14068 net.cpp:367] relu4 -> conv4 (in-place)
I0507 12:30:34.243170 14068 net.cpp:122] Setting up relu4
I0507 12:30:34.243178 14068 net.cpp:129] Top shape: 128 384 13 13 (8306688)
I0507 12:30:34.243182 14068 net.cpp:137] Memory required for data: 1002747904
I0507 12:30:34.243186 14068 layer_factory.hpp:77] Creating layer conv5
I0507 12:30:34.243198 14068 net.cpp:84] Creating Layer conv5
I0507 12:30:34.243202 14068 net.cpp:406] conv5 <- conv4
I0507 12:30:34.243211 14068 net.cpp:380] conv5 -> conv5
I0507 12:30:34.253136 14068 net.cpp:122] Setting up conv5
I0507 12:30:34.253161 14068 net.cpp:129] Top shape: 128 256 13 13 (5537792)
I0507 12:30:34.253167 14068 net.cpp:137] Memory required for data: 1024899072
I0507 12:30:34.253190 14068 layer_factory.hpp:77] Creating layer relu5
I0507 12:30:34.253203 14068 net.cpp:84] Creating Layer relu5
I0507 12:30:34.253211 14068 net.cpp:406] relu5 <- conv5
I0507 12:30:34.253219 14068 net.cpp:367] relu5 -> conv5 (in-place)
I0507 12:30:34.253964 14068 net.cpp:122] Setting up relu5
I0507 12:30:34.253978 14068 net.cpp:129] Top shape: 128 256 13 13 (5537792)
I0507 12:30:34.253984 14068 net.cpp:137] Memory required for data: 1047050240
I0507 12:30:34.253990 14068 layer_factory.hpp:77] Creating layer pool5
I0507 12:30:34.254004 14068 net.cpp:84] Creating Layer pool5
I0507 12:30:34.254010 14068 net.cpp:406] pool5 <- conv5
I0507 12:30:34.254019 14068 net.cpp:380] pool5 -> pool5
I0507 12:30:34.254081 14068 net.cpp:122] Setting up pool5
I0507 12:30:34.254091 14068 net.cpp:129] Top shape: 128 256 6 6 (1179648)
I0507 12:30:34.254096 14068 net.cpp:137] Memory required for data: 1051768832
I0507 12:30:34.254102 14068 layer_factory.hpp:77] Creating layer fc6
I0507 12:30:34.254119 14068 net.cpp:84] Creating Layer fc6
I0507 12:30:34.254125 14068 net.cpp:406] fc6 <- pool5
I0507 12:30:34.254134 14068 net.cpp:380] fc6 -> fc6
I0507 12:30:34.622341 14068 net.cpp:122] Setting up fc6
I0507 12:30:34.622364 14068 net.cpp:129] Top shape: 128 4096 (524288)
I0507 12:30:34.622367 14068 net.cpp:137] Memory required for data: 1053865984
I0507 12:30:34.622376 14068 layer_factory.hpp:77] Creating layer relu6
I0507 12:30:34.622386 14068 net.cpp:84] Creating Layer relu6
I0507 12:30:34.622392 14068 net.cpp:406] relu6 <- fc6
I0507 12:30:34.622397 14068 net.cpp:367] relu6 -> fc6 (in-place)
I0507 12:30:34.623028 14068 net.cpp:122] Setting up relu6
I0507 12:30:34.623039 14068 net.cpp:129] Top shape: 128 4096 (524288)
I0507 12:30:34.623044 14068 net.cpp:137] Memory required for data: 1055963136
I0507 12:30:34.623047 14068 layer_factory.hpp:77] Creating layer drop6
I0507 12:30:34.623054 14068 net.cpp:84] Creating Layer drop6
I0507 12:30:34.623057 14068 net.cpp:406] drop6 <- fc6
I0507 12:30:34.623064 14068 net.cpp:367] drop6 -> fc6 (in-place)
I0507 12:30:34.623091 14068 net.cpp:122] Setting up drop6
I0507 12:30:34.623097 14068 net.cpp:129] Top shape: 128 4096 (524288)
I0507 12:30:34.623101 14068 net.cpp:137] Memory required for data: 1058060288
I0507 12:30:34.623104 14068 layer_factory.hpp:77] Creating layer fc7
I0507 12:30:34.623116 14068 net.cpp:84] Creating Layer fc7
I0507 12:30:34.623119 14068 net.cpp:406] fc7 <- fc6
I0507 12:30:34.623126 14068 net.cpp:380] fc7 -> fc7
I0507 12:30:34.783485 14068 net.cpp:122] Setting up fc7
I0507 12:30:34.783507 14068 net.cpp:129] Top shape: 128 4096 (524288)
I0507 12:30:34.783512 14068 net.cpp:137] Memory required for data: 1060157440
I0507 12:30:34.783521 14068 layer_factory.hpp:77] Creating layer relu7
I0507 12:30:34.783531 14068 net.cpp:84] Creating Layer relu7
I0507 12:30:34.783536 14068 net.cpp:406] relu7 <- fc7
I0507 12:30:34.783542 14068 net.cpp:367] relu7 -> fc7 (in-place)
I0507 12:30:34.789197 14068 net.cpp:122] Setting up relu7
I0507 12:30:34.789212 14068 net.cpp:129] Top shape: 128 4096 (524288)
I0507 12:30:34.789216 14068 net.cpp:137] Memory required for data: 1062254592
I0507 12:30:34.789222 14068 layer_factory.hpp:77] Creating layer drop7
I0507 12:30:34.789229 14068 net.cpp:84] Creating Layer drop7
I0507 12:30:34.789254 14068 net.cpp:406] drop7 <- fc7
I0507 12:30:34.789263 14068 net.cpp:367] drop7 -> fc7 (in-place)
I0507 12:30:34.789297 14068 net.cpp:122] Setting up drop7
I0507 12:30:34.789302 14068 net.cpp:129] Top shape: 128 4096 (524288)
I0507 12:30:34.789305 14068 net.cpp:137] Memory required for data: 1064351744
I0507 12:30:34.789309 14068 layer_factory.hpp:77] Creating layer fc8
I0507 12:30:34.789316 14068 net.cpp:84] Creating Layer fc8
I0507 12:30:34.789319 14068 net.cpp:406] fc8 <- fc7
I0507 12:30:34.789328 14068 net.cpp:380] fc8 -> fc8
I0507 12:30:34.801285 14068 net.cpp:122] Setting up fc8
I0507 12:30:34.801306 14068 net.cpp:129] Top shape: 128 196 (25088)
I0507 12:30:34.801309 14068 net.cpp:137] Memory required for data: 1064452096
I0507 12:30:34.801319 14068 layer_factory.hpp:77] Creating layer loss
I0507 12:30:34.801327 14068 net.cpp:84] Creating Layer loss
I0507 12:30:34.801332 14068 net.cpp:406] loss <- fc8
I0507 12:30:34.801337 14068 net.cpp:406] loss <- label
I0507 12:30:34.801345 14068 net.cpp:380] loss -> loss
I0507 12:30:34.801357 14068 layer_factory.hpp:77] Creating layer loss
…
I0507 12:30:34.802670 14068 solver.cpp:172] Creating test net (#0) specified by net file: train_val.prototxt
I0507 12:30:34.802700 14068 net.cpp:294] The NetState phase (1) differed from the phase (0) specified by a rule in layer train-data
I0507 12:30:34.802840 14068 net.cpp:51] Initializing net from parameters:
state {
phase: TEST
}
layer {
name: "val-data"
type: "Data"
top: "data"
top: "label"
include {
phase: TEST
}
transform_param {
crop_size: 227
mean_file: "/mnt/bigdisk/MANDIG4/digits/jobs/20200507-113700-33e0/mean.binaryproto"
}
data_param {
source: "/mnt/bigdisk/MANDIG4/digits/jobs/20200507-113700-33e0/val_db"
batch_size: 32
backend: LMDB
}
}
layer {
name: "conv1"
type: "Convolution"
bottom: "data"
top: "conv1"
param {
lr_mult: 1
decay_mult: 1
}
param {
lr_mult: 2
decay_mult: 0
}
convolution_param {
num_output: 96
kernel_size: 11
stride: 4
weight_filler {
type: "gaussian"
std: 0.01
}
bias_filler {
type: "constant"
value: 0
}
}
}
layer {
name: "relu1"
type: "ReLU"
bottom: "conv1"
top: "conv1"
}
layer {
name: "norm1"
type: "LRN"
bottom: "conv1"
top: "norm1"
lrn_param {
local_size: 5
alpha: 0.0001
beta: 0.75
}
}
layer {
name: "pool1"
type: "Pooling"
bottom: "norm1"
top: "pool1"
pooling_param {
pool: MAX
kernel_size: 3
stride: 2
}
}
layer {
name: "conv2"
type: "Convolution"
bottom: "pool1"
top: "conv2"
param {
lr_mult: 1
decay_mult: 1
}
param {
lr_mult: 2
decay_mult: 0
}
convolution_param {
num_output: 256
pad: 2
kernel_size: 5
group: 2
weight_filler {
type: "gaussian"
std: 0.01
}
bias_filler {
type: "constant"
value: 0.1
}
}
}
layer {
name: "relu2"
type: "ReLU"
bottom: "conv2"
top: "conv2"
}
layer {
name: "norm2"
type: "LRN"
bottom: "conv2"
top: "norm2"
lrn_param {
local_size: 5
alpha: 0.0001
beta: 0.75
}
}
layer {
name: "pool2"
type: "Pooling"
bottom: "norm2"
top: "pool2"
pooling_param {
pool: MAX
kernel_size: 3
stride: 2
}
}
layer {
name: "conv3"
type: "Convolution"
bottom: "pool2"
top: "conv3"
param {
lr_mult: 1
decay_mult: 1
}
param {
lr_mult: 2
decay_mult: 0
}
convolution_param {
num_output: 384
pad: 1
kernel_size: 3
weight_filler {
type: "gaussian"
std: 0.01
}
bias_filler {
type: "constant"
value: 0
}
}
}
layer {
name: "relu3"
type: "ReLU"
bottom: "conv3"
top: "conv3"
}
layer {
name: "conv4"
type: "Convolution"
bottom: "conv3"
top: "conv4"
param {
lr_mult: 1
decay_mult: 1
}
param {
lr_mult: 2
decay_mult: 0
}
convolution_param {
num_output: 384
pad: 1
kernel_size: 3
group: 2
weight_filler {
type: "gaussian"
std: 0.01
}
bias_filler {
type: "constant"
value: 0.1
}
}
}
layer {
name: "relu4"
type: "ReLU"
bottom: "conv4"
top: "conv4"
}
layer {
name: "conv5"
type: "Convolution"
bottom: "conv4"
top: "conv5"
param {
lr_mult: 1
decay_mult: 1
}
param {
lr_mult: 2
decay_mult: 0
}
convolution_param {
num_output: 256
pad: 1
kernel_size: 3
group: 2
weight_filler {
type: "gaussian"
std: 0.01
}
bias_filler {
type: "constant"
value: 0.1
}
}
}
layer {
name: "relu5"
type: "ReLU"
bottom: "conv5"
top: "conv5"
}
layer {
name: "pool5"
type: "Pooling"
bottom: "conv5"
top: "pool5"
pooling_param {
pool: MAX
kernel_size: 3
stride: 2
}
}
layer {
name: "fc6"
type: "InnerProduct"
bottom: "pool5"
top: "fc6"
param {
lr_mult: 1
decay_mult: 1
}
param {
lr_mult: 2
decay_mult: 0
}
inner_product_param {
num_output: 4096
weight_filler {
type: "gaussian"
std: 0.005
}
bias_filler {
type: "constant"
value: 0.1
}
}
}
layer {
name: "relu6"
type: "ReLU"
bottom: "fc6"
top: "fc6"
}
layer {
name: "drop6"
type: "Dropout"
bottom: "fc6"
top: "fc6"
dropout_param {
dropout_ratio: 0.5
}
}
layer {
name: "fc7"
type: "InnerProduct"
bottom: "fc6"
top: "fc7"
param {
lr_mult: 1
decay_mult: 1
}
param {
lr_mult: 2
decay_mult: 0
}
inner_product_param {
num_output: 4096
weight_filler {
type: "gaussian"
std: 0.005
}
bias_filler {
type: "constant"
value: 0.1
}
}
}
layer {
name: "relu7"
type: "ReLU"
bottom: "fc7"
top: "fc7"
}
layer {
name: "drop7"
type: "Dropout"
bottom: "fc7"
top: "fc7"
dropout_param {
dropout_ratio: 0.5
}
}
layer {
name: "fc8"
type: "InnerProduct"
bottom: "fc7"
top: "fc8"
param {
lr_mult: 1
decay_mult: 1
}
param {
lr_mult: 2
decay_mult: 0
}
inner_product_param {
num_output: 196
weight_filler {
type: "gaussian"
std: 0.01
}
bias_filler {
type: "constant"
value: 0
}
}
}
layer {
name: "accuracy"
type: "Accuracy"
bottom: "fc8"
bottom: "label"
top: "accuracy"
include {
phase: TEST
}
}
layer {
name: "loss"
type: "SoftmaxWithLoss"
bottom: "fc8"
bottom: "label"
top: "loss"
}
I0507 12:30:34.803035 14068 layer_factory.hpp:77] Creating layer val-data
I0507 12:30:34.805104 14068 db_lmdb.cpp:35] Opened lmdb /mnt/bigdisk/MANDIG4/digits/jobs/20200507-113700-33e0/val_db
I0507 12:30:34.805274 14068 net.cpp:84] Creating Layer val-data
I0507 12:30:34.805285 14068 net.cpp:380] val-data -> data
I0507 12:30:34.805294 14068 net.cpp:380] val-data -> label
I0507 12:30:34.805301 14068 data_transformer.cpp:25] Loading mean file from: /mnt/bigdisk/MANDIG4/digits/jobs/20200507-113700-33e0/mean.binaryproto
I0507 12:30:34.808629 14068 data_layer.cpp:45] output data size: 32,3,227,227
I0507 12:30:34.846295 14068 net.cpp:122] Setting up val-data
I0507 12:30:34.846316 14068 net.cpp:129] Top shape: 32 3 227 227 (4946784)
I0507 12:30:34.846323 14068 net.cpp:129] Top shape: 32 (32)
I0507 12:30:34.846325 14068 net.cpp:137] Memory required for data: 19787264
I0507 12:30:34.846333 14068 layer_factory.hpp:77] Creating layer label_val-data_1_split
I0507 12:30:34.846344 14068 net.cpp:84] Creating Layer label_val-data_1_split
I0507 12:30:34.846349 14068 net.cpp:406] label_val-data_1_split <- label
I0507 12:30:34.846356 14068 net.cpp:380] label_val-data_1_split -> label_val-data_1_split_0
I0507 12:30:34.846365 14068 net.cpp:380] label_val-data_1_split -> label_val-data_1_split_1
I0507 12:30:34.846417 14068 net.cpp:122] Setting up label_val-data_1_split
I0507 12:30:34.846422 14068 net.cpp:129] Top shape: 32 (32)
I0507 12:30:34.846426 14068 net.cpp:129] Top shape: 32 (32)
I0507 12:30:34.846429 14068 net.cpp:137] Memory required for data: 19787520
I0507 12:30:34.846434 14068 layer_factory.hpp:77] Creating layer conv1
I0507 12:30:34.846446 14068 net.cpp:84] Creating Layer conv1
I0507 12:30:34.846449 14068 net.cpp:406] conv1 <- data
I0507 12:30:34.846457 14068 net.cpp:380] conv1 -> conv1
I0507 12:30:34.848366 14068 net.cpp:122] Setting up conv1
I0507 12:30:34.848377 14068 net.cpp:129] Top shape: 32 96 55 55 (9292800)
I0507 12:30:34.848382 14068 net.cpp:137] Memory required for data: 56958720
I0507 12:30:34.848393 14068 layer_factory.hpp:77] Creating layer relu1
I0507 12:30:34.848402 14068 net.cpp:84] Creating Layer relu1
I0507 12:30:34.848407 14068 net.cpp:406] relu1 <- conv1
I0507 12:30:34.848412 14068 net.cpp:367] relu1 -> conv1 (in-place)
I0507 12:30:34.848695 14068 net.cpp:122] Setting up relu1
I0507 12:30:34.848703 14068 net.cpp:129] Top shape: 32 96 55 55 (9292800)
I0507 12:30:34.848707 14068 net.cpp:137] Memory required for data: 94129920
I0507 12:30:34.848711 14068 layer_factory.hpp:77] Creating layer norm1
I0507 12:30:34.848721 14068 net.cpp:84] Creating Layer norm1
I0507 12:30:34.848726 14068 net.cpp:406] norm1 <- conv1
I0507 12:30:34.848732 14068 net.cpp:380] norm1 -> norm1
I0507 12:30:34.849184 14068 net.cpp:122] Setting up norm1
I0507 12:30:34.849195 14068 net.cpp:129] Top shape: 32 96 55 55 (9292800)
I0507 12:30:34.849197 14068 net.cpp:137] Memory required for data: 131301120
I0507 12:30:34.849201 14068 layer_factory.hpp:77] Creating layer pool1
I0507 12:30:34.849210 14068 net.cpp:84] Creating Layer pool1
I0507 12:30:34.849213 14068 net.cpp:406] pool1 <- norm1
I0507 12:30:34.849220 14068 net.cpp:380] pool1 -> pool1
I0507 12:30:34.849253 14068 net.cpp:122] Setting up pool1
I0507 12:30:34.849261 14068 net.cpp:129] Top shape: 32 96 27 27 (2239488)
I0507 12:30:34.849264 14068 net.cpp:137] Memory required for data: 140259072
I0507 12:30:34.849269 14068 layer_factory.hpp:77] Creating layer conv2
I0507 12:30:34.849280 14068 net.cpp:84] Creating Layer conv2
I0507 12:30:34.849287 14068 net.cpp:406] conv2 <- pool1
I0507 12:30:34.849314 14068 net.cpp:380] conv2 -> conv2
I0507 12:30:34.858312 14068 net.cpp:122] Setting up conv2
I0507 12:30:34.858330 14068 net.cpp:129] Top shape: 32 256 27 27 (5971968)
I0507 12:30:34.858335 14068 net.cpp:137] Memory required for data: 164146944
I0507 12:30:34.858345 14068 layer_factory.hpp:77] Creating layer relu2
I0507 12:30:34.858357 14068 net.cpp:84] Creating Layer relu2
I0507 12:30:34.858362 14068 net.cpp:406] relu2 <- conv2
I0507 12:30:34.858368 14068 net.cpp:367] relu2 -> conv2 (in-place)
I0507 12:30:34.858893 14068 net.cpp:122] Setting up relu2
I0507 12:30:34.858903 14068 net.cpp:129] Top shape: 32 256 27 27 (5971968)
I0507 12:30:34.858907 14068 net.cpp:137] Memory required for data: 188034816
I0507 12:30:34.858912 14068 layer_factory.hpp:77] Creating layer norm2
I0507 12:30:34.858922 14068 net.cpp:84] Creating Layer norm2
I0507 12:30:34.858927 14068 net.cpp:406] norm2 <- conv2
I0507 12:30:34.858932 14068 net.cpp:380] norm2 -> norm2
I0507 12:30:34.859457 14068 net.cpp:122] Setting up norm2
I0507 12:30:34.859467 14068 net.cpp:129] Top shape: 32 256 27 27 (5971968)
I0507 12:30:34.859472 14068 net.cpp:137] Memory required for data: 211922688
I0507 12:30:34.859477 14068 layer_factory.hpp:77] Creating layer pool2
I0507 12:30:34.859483 14068 net.cpp:84] Creating Layer pool2
I0507 12:30:34.859488 14068 net.cpp:406] pool2 <- norm2
I0507 12:30:34.859495 14068 net.cpp:380] pool2 -> pool2
I0507 12:30:34.859525 14068 net.cpp:122] Setting up pool2
I0507 12:30:34.859530 14068 net.cpp:129] Top shape: 32 256 13 13 (1384448)
I0507 12:30:34.859534 14068 net.cpp:137] Memory required for data: 217460480
I0507 12:30:34.859539 14068 layer_factory.hpp:77] Creating layer conv3
I0507 12:30:34.859549 14068 net.cpp:84] Creating Layer conv3
I0507 12:30:34.859553 14068 net.cpp:406] conv3 <- pool2
I0507 12:30:34.859560 14068 net.cpp:380] conv3 -> conv3
I0507 12:30:34.870947 14068 net.cpp:122] Setting up conv3
I0507 12:30:34.870968 14068 net.cpp:129] Top shape: 32 384 13 13 (2076672)
I0507 12:30:34.870972 14068 net.cpp:137] Memory required for data: 225767168
I0507 12:30:34.870985 14068 layer_factory.hpp:77] Creating layer relu3
I0507 12:30:34.870996 14068 net.cpp:84] Creating Layer relu3
I0507 12:30:34.871001 14068 net.cpp:406] relu3 <- conv3
I0507 12:30:34.871008 14068 net.cpp:367] relu3 -> conv3 (in-place)
I0507 12:30:34.871526 14068 net.cpp:122] Setting up relu3
I0507 12:30:34.871536 14068 net.cpp:129] Top shape: 32 384 13 13 (2076672)
I0507 12:30:34.871538 14068 net.cpp:137] Memory required for data: 234073856
I0507 12:30:34.871542 14068 layer_factory.hpp:77] Creating layer conv4
I0507 12:30:34.871554 14068 net.cpp:84] Creating Layer conv4
I0507 12:30:34.871557 14068 net.cpp:406] conv4 <- conv3
I0507 12:30:34.871565 14068 net.cpp:380] conv4 -> conv4
I0507 12:30:34.883543 14068 net.cpp:122] Setting up conv4
I0507 12:30:34.883565 14068 net.cpp:129] Top shape: 32 384 13 13 (2076672)
I0507 12:30:34.883569 14068 net.cpp:137] Memory required for data: 242380544
I0507 12:30:34.883577 14068 layer_factory.hpp:77] Creating layer relu4
I0507 12:30:34.883586 14068 net.cpp:84] Creating Layer relu4
I0507 12:30:34.883591 14068 net.cpp:406] relu4 <- conv4
I0507 12:30:34.883596 14068 net.cpp:367] relu4 -> conv4 (in-place)
I0507 12:30:34.883951 14068 net.cpp:122] Setting up relu4
I0507 12:30:34.883961 14068 net.cpp:129] Top shape: 32 384 13 13 (2076672)
I0507 12:30:34.883965 14068 net.cpp:137] Memory required for data: 250687232
I0507 12:30:34.883968 14068 layer_factory.hpp:77] Creating layer conv5
I0507 12:30:34.883981 14068 net.cpp:84] Creating Layer conv5
I0507 12:30:34.883985 14068 net.cpp:406] conv5 <- conv4
I0507 12:30:34.883991 14068 net.cpp:380] conv5 -> conv5
I0507 12:30:34.895164 14068 net.cpp:122] Setting up conv5
I0507 12:30:34.895182 14068 net.cpp:129] Top shape: 32 256 13 13 (1384448)
I0507 12:30:34.895186 14068 net.cpp:137] Memory required for data: 256225024
I0507 12:30:34.895200 14068 layer_factory.hpp:77] Creating layer relu5
I0507 12:30:34.895211 14068 net.cpp:84] Creating Layer relu5
I0507 12:30:34.895215 14068 net.cpp:406] relu5 <- conv5
I0507 12:30:34.895241 14068 net.cpp:367] relu5 -> conv5 (in-place)
I0507 12:30:34.895736 14068 net.cpp:122] Setting up relu5
I0507 12:30:34.895746 14068 net.cpp:129] Top shape: 32 256 13 13 (1384448)
I0507 12:30:34.895750 14068 net.cpp:137] Memory required for data: 261762816
I0507 12:30:34.895754 14068 layer_factory.hpp:77] Creating layer pool5
I0507 12:30:34.895766 14068 net.cpp:84] Creating Layer pool5
I0507 12:30:34.895769 14068 net.cpp:406] pool5 <- conv5
I0507 12:30:34.895774 14068 net.cpp:380] pool5 -> pool5
I0507 12:30:34.895814 14068 net.cpp:122] Setting up pool5
I0507 12:30:34.895820 14068 net.cpp:129] Top shape: 32 256 6 6 (294912)
I0507 12:30:34.895823 14068 net.cpp:137] Memory required for data: 262942464
I0507 12:30:34.895826 14068 layer_factory.hpp:77] Creating layer fc6
I0507 12:30:34.895834 14068 net.cpp:84] Creating Layer fc6
I0507 12:30:34.895838 14068 net.cpp:406] fc6 <- pool5
I0507 12:30:34.895843 14068 net.cpp:380] fc6 -> fc6
I0507 12:30:35.257573 14068 net.cpp:122] Setting up fc6
I0507 12:30:35.257596 14068 net.cpp:129] Top shape: 32 4096 (131072)
I0507 12:30:35.257601 14068 net.cpp:137] Memory required for data: 263466752
I0507 12:30:35.257611 14068 layer_factory.hpp:77] Creating layer relu6
I0507 12:30:35.257622 14068 net.cpp:84] Creating Layer relu6
I0507 12:30:35.257627 14068 net.cpp:406] relu6 <- fc6
I0507 12:30:35.257634 14068 net.cpp:367] relu6 -> fc6 (in-place)
I0507 12:30:35.258586 14068 net.cpp:122] Setting up relu6
I0507 12:30:35.258600 14068 net.cpp:129] Top shape: 32 4096 (131072)
I0507 12:30:35.258606 14068 net.cpp:137] Memory required for data: 263991040
I0507 12:30:35.258612 14068 layer_factory.hpp:77] Creating layer drop6
I0507 12:30:35.258622 14068 net.cpp:84] Creating Layer drop6
I0507 12:30:35.258630 14068 net.cpp:406] drop6 <- fc6
I0507 12:30:35.258641 14068 net.cpp:367] drop6 -> fc6 (in-place)
I0507 12:30:35.258678 14068 net.cpp:122] Setting up drop6
I0507 12:30:35.258692 14068 net.cpp:129] Top shape: 32 4096 (131072)
I0507 12:30:35.258698 14068 net.cpp:137] Memory required for data: 264515328
I0507 12:30:35.258703 14068 layer_factory.hpp:77] Creating layer fc7
I0507 12:30:35.258714 14068 net.cpp:84] Creating Layer fc7
I0507 12:30:35.258723 14068 net.cpp:406] fc7 <- fc6
I0507 12:30:35.258734 14068 net.cpp:380] fc7 -> fc7
I0507 12:30:35.419359 14068 net.cpp:122] Setting up fc7
I0507 12:30:35.419381 14068 net.cpp:129] Top shape: 32 4096 (131072)
I0507 12:30:35.419385 14068 net.cpp:137] Memory required for data: 265039616
I0507 12:30:35.419395 14068 layer_factory.hpp:77] Creating layer relu7
I0507 12:30:35.419406 14068 net.cpp:84] Creating Layer relu7
I0507 12:30:35.419411 14068 net.cpp:406] relu7 <- fc7
I0507 12:30:35.419417 14068 net.cpp:367] relu7 -> fc7 (in-place)
I0507 12:30:35.419845 14068 net.cpp:122] Setting up relu7
I0507 12:30:35.419855 14068 net.cpp:129] Top shape: 32 4096 (131072)
I0507 12:30:35.419858 14068 net.cpp:137] Memory required for data: 265563904
I0507 12:30:35.419862 14068 layer_factory.hpp:77] Creating layer drop7
I0507 12:30:35.419869 14068 net.cpp:84] Creating Layer drop7
I0507 12:30:35.419873 14068 net.cpp:406] drop7 <- fc7
I0507 12:30:35.419878 14068 net.cpp:367] drop7 -> fc7 (in-place)
I0507 12:30:35.419903 14068 net.cpp:122] Setting up drop7
I0507 12:30:35.419909 14068 net.cpp:129] Top shape: 32 4096 (131072)
I0507 12:30:35.419911 14068 net.cpp:137] Memory required for data: 266088192
I0507 12:30:35.419914 14068 layer_factory.hpp:77] Creating layer fc8
I0507 12:30:35.419924 14068 net.cpp:84] Creating Layer fc8
I0507 12:30:35.419926 14068 net.cpp:406] fc8 <- fc7
I0507 12:30:35.419932 14068 net.cpp:380] fc8 -> fc8
I0507 12:30:35.437161 14068 net.cpp:122] Setting up fc8
I0507 12:30:35.437181 14068 net.cpp:129] Top shape: 32 196 (6272)
I0507 12:30:35.437186 14068 net.cpp:137] Memory required for data: 266113280
I0507 12:30:35.437196 14068 layer_factory.hpp:77] Creating layer fc8_fc8_0_split
I0507 12:30:35.437206 14068 net.cpp:84] Creating Layer fc8_fc8_0_split
I0507 12:30:35.437211 14068 net.cpp:406] fc8_fc8_0_split <- fc8
I0507 12:30:35.437242 14068 net.cpp:380] fc8_fc8_0_split -> fc8_fc8_0_split_0
I0507 12:30:35.437250 14068 net.cpp:380] fc8_fc8_0_split -> fc8_fc8_0_split_1
I0507 12:30:35.437288 14068 net.cpp:122] Setting up fc8_fc8_0_split
I0507 12:30:35.437292 14068 net.cpp:129] Top shape: 32 196 (6272)
I0507 12:30:35.437296 14068 net.cpp:129] Top shape: 32 196 (6272)
I0507 12:30:35.437299 14068 net.cpp:137] Memory required for data: 266163456
I0507 12:30:35.437304 14068 layer_factory.hpp:77] Creating layer accuracy
I0507 12:30:35.437310 14068 net.cpp:84] Creating Layer accuracy
I0507 12:30:35.437315 14068 net.cpp:406] accuracy <- fc8_fc8_0_split_0
I0507 12:30:35.437319 14068 net.cpp:406] accuracy <- label_val-data_1_split_0
I0507 12:30:35.437325 14068 net.cpp:380] accuracy -> accuracy
…
