…
I0504 16:16:17.594384 24593 net.cpp:294] The NetState phase (0) differed from the phase (1) specified by a rule in layer accuracy
I0504 16:16:17.594552 24593 net.cpp:51] Initializing net from parameters:
state {
phase: TRAIN
level: 0
stage: ""
}
layer {
name: "train-data"
type: "Data"
top: "data"
top: "label"
include {
phase: TRAIN
}
transform_param {
mirror: true
crop_size: 227
mean_file: "/mnt/bigdisk/MANDIG2/digits/jobs/20200428-132136-11fe/mean.binaryproto"
}
data_param {
source: "/mnt/bigdisk/MANDIG2/digits/jobs/20200428-132136-11fe/train_db"
batch_size: 50
backend: LMDB
}
}
layer {
name: "conv1"
type: "Convolution"
bottom: "data"
top: "conv1"
param {
lr_mult: 1
decay_mult: 1
}
param {
lr_mult: 2
decay_mult: 0
}
convolution_param {
num_output: 96
kernel_size: 11
stride: 4
weight_filler {
type: "gaussian"
std: 0.01
}
bias_filler {
type: "constant"
value: 0
}
}
}
layer {
name: "relu1"
type: "ReLU"
bottom: "conv1"
top: "conv1"
}
layer {
name: "norm1"
type: "LRN"
bottom: "conv1"
top: "norm1"
lrn_param {
local_size: 5
alpha: 0.0001
beta: 0.75
}
}
layer {
name: "pool1"
type: "Pooling"
bottom: "norm1"
top: "pool1"
pooling_param {
pool: MAX
kernel_size: 3
stride: 2
}
}
layer {
name: "conv2"
type: "Convolution"
bottom: "pool1"
top: "conv2"
param {
lr_mult: 1
decay_mult: 1
}
param {
lr_mult: 2
decay_mult: 0
}
convolution_param {
num_output: 256
pad: 2
kernel_size: 5
group: 2
weight_filler {
type: "gaussian"
std: 0.01
}
bias_filler {
type: "constant"
value: 0.1
}
}
}
layer {
name: "relu2"
type: "ReLU"
bottom: "conv2"
top: "conv2"
}
layer {
name: "norm2"
type: "LRN"
bottom: "conv2"
top: "norm2"
lrn_param {
local_size: 5
alpha: 0.0001
beta: 0.75
}
}
layer {
name: "pool2"
type: "Pooling"
bottom: "norm2"
top: "pool2"
pooling_param {
pool: MAX
kernel_size: 3
stride: 2
}
}
layer {
name: "conv3"
type: "Convolution"
bottom: "pool2"
top: "conv3"
param {
lr_mult: 1
decay_mult: 1
}
param {
lr_mult: 2
decay_mult: 0
}
convolution_param {
num_output: 384
pad: 1
kernel_size: 3
weight_filler {
type: "gaussian"
std: 0.01
}
bias_filler {
type: "constant"
value: 0
}
}
}
layer {
name: "relu3"
type: "ReLU"
bottom: "conv3"
top: "conv3"
}
layer {
name: "conv4"
type: "Convolution"
bottom: "conv3"
top: "conv4"
param {
lr_mult: 1
decay_mult: 1
}
param {
lr_mult: 2
decay_mult: 0
}
convolution_param {
num_output: 384
pad: 1
kernel_size: 3
group: 2
weight_filler {
type: "gaussian"
std: 0.01
}
bias_filler {
type: "constant"
value: 0.1
}
}
}
layer {
name: "relu4"
type: "ReLU"
bottom: "conv4"
top: "conv4"
}
layer {
name: "conv5"
type: "Convolution"
bottom: "conv4"
top: "conv5"
param {
lr_mult: 1
decay_mult: 1
}
param {
lr_mult: 2
decay_mult: 0
}
convolution_param {
num_output: 256
pad: 1
kernel_size: 3
group: 2
weight_filler {
type: "gaussian"
std: 0.01
}
bias_filler {
type: "constant"
value: 0.1
}
}
}
layer {
name: "relu5"
type: "ReLU"
bottom: "conv5"
top: "conv5"
}
layer {
name: "pool5"
type: "Pooling"
bottom: "conv5"
top: "pool5"
pooling_param {
pool: MAX
kernel_size: 3
stride: 2
}
}
layer {
name: "fc6"
type: "InnerProduct"
bottom: "pool5"
top: "fc6"
param {
lr_mult: 1
decay_mult: 1
}
param {
lr_mult: 2
decay_mult: 0
}
inner_product_param {
num_output: 4096
weight_filler {
type: "gaussian"
std: 0.005
}
bias_filler {
type: "constant"
value: 0.1
}
}
}
layer {
name: "relu6"
type: "ReLU"
bottom: "fc6"
top: "fc6"
}
layer {
name: "drop6"
type: "Dropout"
bottom: "fc6"
top: "fc6"
dropout_param {
dropout_ratio: 0.5
}
}
layer {
name: "fc7"
type: "InnerProduct"
bottom: "fc6"
top: "fc7"
param {
lr_mult: 1
decay_mult: 1
}
param {
lr_mult: 2
decay_mult: 0
}
inner_product_param {
num_output: 4096
weight_filler {
type: "gaussian"
std: 0.005
}
bias_filler {
type: "constant"
value: 0.1
}
}
}
layer {
name: "relu7"
type: "ReLU"
bottom: "fc7"
top: "fc7"
}
layer {
name: "drop7"
type: "Dropout"
bottom: "fc7"
top: "fc7"
dropout_param {
dropout_ratio: 0.5
}
}
layer {
name: "fc8"
type: "InnerProduct"
bottom: "fc7"
top: "fc8"
param {
lr_mult: 1
decay_mult: 1
}
param {
lr_mult: 2
decay_mult: 0
}
inner_product_param {
num_output: 196
weight_filler {
type: "gaussian"
std: 0.01
}
bias_filler {
type: "constant"
value: 0
}
}
}
layer {
name: "loss"
type: "SoftmaxWithLoss"
bottom: "fc8"
bottom: "label"
top: "loss"
}
I0504 16:16:18.562781 24593 layer_factory.hpp:77] Creating layer train-data
I0504 16:16:18.632078 24593 db_lmdb.cpp:35] Opened lmdb /mnt/bigdisk/MANDIG2/digits/jobs/20200428-132136-11fe/train_db
I0504 16:16:18.659382 24593 net.cpp:84] Creating Layer train-data
I0504 16:16:18.659416 24593 net.cpp:380] train-data -> data
I0504 16:16:18.659441 24593 net.cpp:380] train-data -> label
I0504 16:16:18.659457 24593 data_transformer.cpp:25] Loading mean file from: /mnt/bigdisk/MANDIG2/digits/jobs/20200428-132136-11fe/mean.binaryproto
I0504 16:16:18.741632 24593 data_layer.cpp:45] output data size: 50,3,227,227
I0504 16:16:18.941792 24593 net.cpp:122] Setting up train-data
I0504 16:16:18.941824 24593 net.cpp:129] Top shape: 50 3 227 227 (7729350)
I0504 16:16:18.941835 24593 net.cpp:129] Top shape: 50 (50)
I0504 16:16:18.941843 24593 net.cpp:137] Memory required for data: 30917600
I0504 16:16:18.941857 24593 layer_factory.hpp:77] Creating layer conv1
I0504 16:16:18.941886 24593 net.cpp:84] Creating Layer conv1
I0504 16:16:18.941898 24593 net.cpp:406] conv1 <- data
I0504 16:16:18.941918 24593 net.cpp:380] conv1 -> conv1
I0504 16:16:20.124931 24593 net.cpp:122] Setting up conv1
I0504 16:16:20.124955 24593 net.cpp:129] Top shape: 50 96 55 55 (14520000)
I0504 16:16:20.124960 24593 net.cpp:137] Memory required for data: 88997600
I0504 16:16:20.124984 24593 layer_factory.hpp:77] Creating layer relu1
I0504 16:16:20.124995 24593 net.cpp:84] Creating Layer relu1
I0504 16:16:20.125000 24593 net.cpp:406] relu1 <- conv1
I0504 16:16:20.125007 24593 net.cpp:367] relu1 -> conv1 (in-place)
I0504 16:16:20.125366 24593 net.cpp:122] Setting up relu1
I0504 16:16:20.125376 24593 net.cpp:129] Top shape: 50 96 55 55 (14520000)
I0504 16:16:20.125380 24593 net.cpp:137] Memory required for data: 147077600
I0504 16:16:20.125383 24593 layer_factory.hpp:77] Creating layer norm1
I0504 16:16:20.125396 24593 net.cpp:84] Creating Layer norm1
I0504 16:16:20.125399 24593 net.cpp:406] norm1 <- conv1
I0504 16:16:20.125428 24593 net.cpp:380] norm1 -> norm1
I0504 16:16:20.125964 24593 net.cpp:122] Setting up norm1
I0504 16:16:20.125974 24593 net.cpp:129] Top shape: 50 96 55 55 (14520000)
I0504 16:16:20.125978 24593 net.cpp:137] Memory required for data: 205157600
I0504 16:16:20.125983 24593 layer_factory.hpp:77] Creating layer pool1
I0504 16:16:20.125994 24593 net.cpp:84] Creating Layer pool1
I0504 16:16:20.125998 24593 net.cpp:406] pool1 <- norm1
I0504 16:16:20.126004 24593 net.cpp:380] pool1 -> pool1
I0504 16:16:20.126045 24593 net.cpp:122] Setting up pool1
I0504 16:16:20.126052 24593 net.cpp:129] Top shape: 50 96 27 27 (3499200)
I0504 16:16:20.126055 24593 net.cpp:137] Memory required for data: 219154400
I0504 16:16:20.126060 24593 layer_factory.hpp:77] Creating layer conv2
I0504 16:16:20.126071 24593 net.cpp:84] Creating Layer conv2
I0504 16:16:20.126075 24593 net.cpp:406] conv2 <- pool1
I0504 16:16:20.126080 24593 net.cpp:380] conv2 -> conv2
I0504 16:16:20.137945 24593 net.cpp:122] Setting up conv2
I0504 16:16:20.137964 24593 net.cpp:129] Top shape: 50 256 27 27 (9331200)
I0504 16:16:20.137969 24593 net.cpp:137] Memory required for data: 256479200
I0504 16:16:20.137980 24593 layer_factory.hpp:77] Creating layer relu2
I0504 16:16:20.137990 24593 net.cpp:84] Creating Layer relu2
I0504 16:16:20.137995 24593 net.cpp:406] relu2 <- conv2
I0504 16:16:20.138003 24593 net.cpp:367] relu2 -> conv2 (in-place)
I0504 16:16:20.138535 24593 net.cpp:122] Setting up relu2
I0504 16:16:20.138545 24593 net.cpp:129] Top shape: 50 256 27 27 (9331200)
I0504 16:16:20.138550 24593 net.cpp:137] Memory required for data: 293804000
I0504 16:16:20.138554 24593 layer_factory.hpp:77] Creating layer norm2
I0504 16:16:20.138564 24593 net.cpp:84] Creating Layer norm2
I0504 16:16:20.138569 24593 net.cpp:406] norm2 <- conv2
I0504 16:16:20.138576 24593 net.cpp:380] norm2 -> norm2
I0504 16:16:20.138938 24593 net.cpp:122] Setting up norm2
I0504 16:16:20.138947 24593 net.cpp:129] Top shape: 50 256 27 27 (9331200)
I0504 16:16:20.138952 24593 net.cpp:137] Memory required for data: 331128800
I0504 16:16:20.138955 24593 layer_factory.hpp:77] Creating layer pool2
I0504 16:16:20.138965 24593 net.cpp:84] Creating Layer pool2
I0504 16:16:20.138972 24593 net.cpp:406] pool2 <- norm2
I0504 16:16:20.138978 24593 net.cpp:380] pool2 -> pool2
I0504 16:16:20.139008 24593 net.cpp:122] Setting up pool2
I0504 16:16:20.139014 24593 net.cpp:129] Top shape: 50 256 13 13 (2163200)
I0504 16:16:20.139016 24593 net.cpp:137] Memory required for data: 339781600
I0504 16:16:20.139020 24593 layer_factory.hpp:77] Creating layer conv3
I0504 16:16:20.139030 24593 net.cpp:84] Creating Layer conv3
I0504 16:16:20.139034 24593 net.cpp:406] conv3 <- pool2
I0504 16:16:20.139041 24593 net.cpp:380] conv3 -> conv3
I0504 16:16:20.156848 24593 net.cpp:122] Setting up conv3
I0504 16:16:20.156870 24593 net.cpp:129] Top shape: 50 384 13 13 (3244800)
I0504 16:16:20.156874 24593 net.cpp:137] Memory required for data: 352760800
I0504 16:16:20.156888 24593 layer_factory.hpp:77] Creating layer relu3
I0504 16:16:20.156901 24593 net.cpp:84] Creating Layer relu3
I0504 16:16:20.156906 24593 net.cpp:406] relu3 <- conv3
I0504 16:16:20.156914 24593 net.cpp:367] relu3 -> conv3 (in-place)
I0504 16:16:20.529968 24593 net.cpp:122] Setting up relu3
I0504 16:16:20.529985 24593 net.cpp:129] Top shape: 50 384 13 13 (3244800)
I0504 16:16:20.529989 24593 net.cpp:137] Memory required for data: 365740000
I0504 16:16:20.529995 24593 layer_factory.hpp:77] Creating layer conv4
I0504 16:16:20.530012 24593 net.cpp:84] Creating Layer conv4
I0504 16:16:20.530017 24593 net.cpp:406] conv4 <- conv3
I0504 16:16:20.530028 24593 net.cpp:380] conv4 -> conv4
I0504 16:16:20.544447 24593 net.cpp:122] Setting up conv4
I0504 16:16:20.544468 24593 net.cpp:129] Top shape: 50 384 13 13 (3244800)
I0504 16:16:20.544474 24593 net.cpp:137] Memory required for data: 378719200
I0504 16:16:20.544486 24593 layer_factory.hpp:77] Creating layer relu4
I0504 16:16:20.544498 24593 net.cpp:84] Creating Layer relu4
I0504 16:16:20.544507 24593 net.cpp:406] relu4 <- conv4
I0504 16:16:20.544531 24593 net.cpp:367] relu4 -> conv4 (in-place)
I0504 16:16:20.544880 24593 net.cpp:122] Setting up relu4
I0504 16:16:20.544889 24593 net.cpp:129] Top shape: 50 384 13 13 (3244800)
I0504 16:16:20.544894 24593 net.cpp:137] Memory required for data: 391698400
I0504 16:16:20.544899 24593 layer_factory.hpp:77] Creating layer conv5
I0504 16:16:20.544912 24593 net.cpp:84] Creating Layer conv5
I0504 16:16:20.544917 24593 net.cpp:406] conv5 <- conv4
I0504 16:16:20.544925 24593 net.cpp:380] conv5 -> conv5
I0504 16:16:20.555111 24593 net.cpp:122] Setting up conv5
I0504 16:16:20.555128 24593 net.cpp:129] Top shape: 50 256 13 13 (2163200)
I0504 16:16:20.555133 24593 net.cpp:137] Memory required for data: 400351200
I0504 16:16:20.555148 24593 layer_factory.hpp:77] Creating layer relu5
I0504 16:16:20.555156 24593 net.cpp:84] Creating Layer relu5
I0504 16:16:20.555161 24593 net.cpp:406] relu5 <- conv5
I0504 16:16:20.555168 24593 net.cpp:367] relu5 -> conv5 (in-place)
I0504 16:16:20.555670 24593 net.cpp:122] Setting up relu5
I0504 16:16:20.555680 24593 net.cpp:129] Top shape: 50 256 13 13 (2163200)
I0504 16:16:20.555683 24593 net.cpp:137] Memory required for data: 409004000
I0504 16:16:20.555689 24593 layer_factory.hpp:77] Creating layer pool5
I0504 16:16:20.555698 24593 net.cpp:84] Creating Layer pool5
I0504 16:16:20.555703 24593 net.cpp:406] pool5 <- conv5
I0504 16:16:20.555709 24593 net.cpp:380] pool5 -> pool5
I0504 16:16:20.555747 24593 net.cpp:122] Setting up pool5
I0504 16:16:20.555754 24593 net.cpp:129] Top shape: 50 256 6 6 (460800)
I0504 16:16:20.555757 24593 net.cpp:137] Memory required for data: 410847200
I0504 16:16:20.555763 24593 layer_factory.hpp:77] Creating layer fc6
I0504 16:16:20.555773 24593 net.cpp:84] Creating Layer fc6
I0504 16:16:20.555778 24593 net.cpp:406] fc6 <- pool5
I0504 16:16:20.555785 24593 net.cpp:380] fc6 -> fc6
I0504 16:16:20.915346 24593 net.cpp:122] Setting up fc6
I0504 16:16:20.915369 24593 net.cpp:129] Top shape: 50 4096 (204800)
I0504 16:16:20.915375 24593 net.cpp:137] Memory required for data: 411666400
I0504 16:16:20.915386 24593 layer_factory.hpp:77] Creating layer relu6
I0504 16:16:20.915396 24593 net.cpp:84] Creating Layer relu6
I0504 16:16:20.915405 24593 net.cpp:406] relu6 <- fc6
I0504 16:16:20.915412 24593 net.cpp:367] relu6 -> fc6 (in-place)
I0504 16:16:20.916035 24593 net.cpp:122] Setting up relu6
I0504 16:16:20.916046 24593 net.cpp:129] Top shape: 50 4096 (204800)
I0504 16:16:20.916051 24593 net.cpp:137] Memory required for data: 412485600
I0504 16:16:20.916056 24593 layer_factory.hpp:77] Creating layer drop6
I0504 16:16:20.916066 24593 net.cpp:84] Creating Layer drop6
I0504 16:16:20.916071 24593 net.cpp:406] drop6 <- fc6
I0504 16:16:20.916079 24593 net.cpp:367] drop6 -> fc6 (in-place)
I0504 16:16:20.916107 24593 net.cpp:122] Setting up drop6
I0504 16:16:20.916115 24593 net.cpp:129] Top shape: 50 4096 (204800)
I0504 16:16:20.916121 24593 net.cpp:137] Memory required for data: 413304800
I0504 16:16:20.916126 24593 layer_factory.hpp:77] Creating layer fc7
I0504 16:16:20.916134 24593 net.cpp:84] Creating Layer fc7
I0504 16:16:20.916138 24593 net.cpp:406] fc7 <- fc6
I0504 16:16:20.916146 24593 net.cpp:380] fc7 -> fc7
I0504 16:16:21.087585 24593 net.cpp:122] Setting up fc7
I0504 16:16:21.087610 24593 net.cpp:129] Top shape: 50 4096 (204800)
I0504 16:16:21.087617 24593 net.cpp:137] Memory required for data: 414124000
I0504 16:16:21.087630 24593 layer_factory.hpp:77] Creating layer relu7
I0504 16:16:21.087643 24593 net.cpp:84] Creating Layer relu7
I0504 16:16:21.087651 24593 net.cpp:406] relu7 <- fc7
I0504 16:16:21.087661 24593 net.cpp:367] relu7 -> fc7 (in-place)
I0504 16:16:21.090581 24593 net.cpp:122] Setting up relu7
I0504 16:16:21.431443 24593 net.cpp:129] Top shape: 50 4096 (204800)
I0504 16:16:21.431455 24593 net.cpp:137] Memory required for data: 414943200
I0504 16:16:21.431463 24593 layer_factory.hpp:77] Creating layer drop7
I0504 16:16:21.431474 24593 net.cpp:84] Creating Layer drop7
I0504 16:16:21.431479 24593 net.cpp:406] drop7 <- fc7
I0504 16:16:21.431510 24593 net.cpp:367] drop7 -> fc7 (in-place)
I0504 16:16:21.431578 24593 net.cpp:122] Setting up drop7
I0504 16:16:21.431587 24593 net.cpp:129] Top shape: 50 4096 (204800)
I0504 16:16:21.431591 24593 net.cpp:137] Memory required for data: 415762400
I0504 16:16:21.431596 24593 layer_factory.hpp:77] Creating layer fc8
I0504 16:16:21.431605 24593 net.cpp:84] Creating Layer fc8
I0504 16:16:21.431609 24593 net.cpp:406] fc8 <- fc7
I0504 16:16:21.431617 24593 net.cpp:380] fc8 -> fc8
I0504 16:16:21.439507 24593 net.cpp:122] Setting up fc8
I0504 16:16:21.439520 24593 net.cpp:129] Top shape: 50 196 (9800)
I0504 16:16:21.439527 24593 net.cpp:137] Memory required for data: 415801600
I0504 16:16:21.439536 24593 layer_factory.hpp:77] Creating layer loss
I0504 16:16:21.439545 24593 net.cpp:84] Creating Layer loss
I0504 16:16:21.439551 24593 net.cpp:406] loss <- fc8
I0504 16:16:21.439558 24593 net.cpp:406] loss <- label
I0504 16:16:21.439566 24593 net.cpp:380] loss -> loss
I0504 16:16:21.439579 24593 layer_factory.hpp:77] Creating layer loss
…
I0504 16:16:21.440904 24593 solver.cpp:172] Creating test net (#0) specified by net file: train_val.prototxt
I0504 16:16:21.440939 24593 net.cpp:294] The NetState phase (1) differed from the phase (0) specified by a rule in layer train-data
I0504 16:16:21.441082 24593 net.cpp:51] Initializing net from parameters:
state {
phase: TEST
}
layer {
name: "val-data"
type: "Data"
top: "data"
top: "label"
include {
phase: TEST
}
transform_param {
crop_size: 227
mean_file: "/mnt/bigdisk/MANDIG2/digits/jobs/20200428-132136-11fe/mean.binaryproto"
}
data_param {
source: "/mnt/bigdisk/MANDIG2/digits/jobs/20200428-132136-11fe/val_db"
batch_size: 50
backend: LMDB
}
}
layer {
name: "conv1"
type: "Convolution"
bottom: "data"
top: "conv1"
param {
lr_mult: 1
decay_mult: 1
}
param {
lr_mult: 2
decay_mult: 0
}
convolution_param {
num_output: 96
kernel_size: 11
stride: 4
weight_filler {
type: "gaussian"
std: 0.01
}
bias_filler {
type: "constant"
value: 0
}
}
}
layer {
name: "relu1"
type: "ReLU"
bottom: "conv1"
top: "conv1"
}
layer {
name: "norm1"
type: "LRN"
bottom: "conv1"
top: "norm1"
lrn_param {
local_size: 5
alpha: 0.0001
beta: 0.75
}
}
layer {
name: "pool1"
type: "Pooling"
bottom: "norm1"
top: "pool1"
pooling_param {
pool: MAX
kernel_size: 3
stride: 2
}
}
layer {
name: "conv2"
type: "Convolution"
bottom: "pool1"
top: "conv2"
param {
lr_mult: 1
decay_mult: 1
}
param {
lr_mult: 2
decay_mult: 0
}
convolution_param {
num_output: 256
pad: 2
kernel_size: 5
group: 2
weight_filler {
type: "gaussian"
std: 0.01
}
bias_filler {
type: "constant"
value: 0.1
}
}
}
layer {
name: "relu2"
type: "ReLU"
bottom: "conv2"
top: "conv2"
}
layer {
name: "norm2"
type: "LRN"
bottom: "conv2"
top: "norm2"
lrn_param {
local_size: 5
alpha: 0.0001
beta: 0.75
}
}
layer {
name: "pool2"
type: "Pooling"
bottom: "norm2"
top: "pool2"
pooling_param {
pool: MAX
kernel_size: 3
stride: 2
}
}
layer {
name: "conv3"
type: "Convolution"
bottom: "pool2"
top: "conv3"
param {
lr_mult: 1
decay_mult: 1
}
param {
lr_mult: 2
decay_mult: 0
}
convolution_param {
num_output: 384
pad: 1
kernel_size: 3
weight_filler {
type: "gaussian"
std: 0.01
}
bias_filler {
type: "constant"
value: 0
}
}
}
layer {
name: "relu3"
type: "ReLU"
bottom: "conv3"
top: "conv3"
}
layer {
name: "conv4"
type: "Convolution"
bottom: "conv3"
top: "conv4"
param {
lr_mult: 1
decay_mult: 1
}
param {
lr_mult: 2
decay_mult: 0
}
convolution_param {
num_output: 384
pad: 1
kernel_size: 3
group: 2
weight_filler {
type: "gaussian"
std: 0.01
}
bias_filler {
type: "constant"
value: 0.1
}
}
}
layer {
name: "relu4"
type: "ReLU"
bottom: "conv4"
top: "conv4"
}
layer {
name: "conv5"
type: "Convolution"
bottom: "conv4"
top: "conv5"
param {
lr_mult: 1
decay_mult: 1
}
param {
lr_mult: 2
decay_mult: 0
}
convolution_param {
num_output: 256
pad: 1
kernel_size: 3
group: 2
weight_filler {
type: "gaussian"
std: 0.01
}
bias_filler {
type: "constant"
value: 0.1
}
}
}
layer {
name: "relu5"
type: "ReLU"
bottom: "conv5"
top: "conv5"
}
layer {
name: "pool5"
type: "Pooling"
bottom: "conv5"
top: "pool5"
pooling_param {
pool: MAX
kernel_size: 3
stride: 2
}
}
layer {
name: "fc6"
type: "InnerProduct"
bottom: "pool5"
top: "fc6"
param {
lr_mult: 1
decay_mult: 1
}
param {
lr_mult: 2
decay_mult: 0
}
inner_product_param {
num_output: 4096
weight_filler {
type: "gaussian"
std: 0.005
}
bias_filler {
type: "constant"
value: 0.1
}
}
}
layer {
name: "relu6"
type: "ReLU"
bottom: "fc6"
top: "fc6"
}
layer {
name: "drop6"
type: "Dropout"
bottom: "fc6"
top: "fc6"
dropout_param {
dropout_ratio: 0.5
}
}
layer {
name: "fc7"
type: "InnerProduct"
bottom: "fc6"
top: "fc7"
param {
lr_mult: 1
decay_mult: 1
}
param {
lr_mult: 2
decay_mult: 0
}
inner_product_param {
num_output: 4096
weight_filler {
type: "gaussian"
std: 0.005
}
bias_filler {
type: "constant"
value: 0.1
}
}
}
layer {
name: "relu7"
type: "ReLU"
bottom: "fc7"
top: "fc7"
}
layer {
name: "drop7"
type: "Dropout"
bottom: "fc7"
top: "fc7"
dropout_param {
dropout_ratio: 0.5
}
}
layer {
name: "fc8"
type: "InnerProduct"
bottom: "fc7"
top: "fc8"
param {
lr_mult: 1
decay_mult: 1
}
param {
lr_mult: 2
decay_mult: 0
}
inner_product_param {
num_output: 196
weight_filler {
type: "gaussian"
std: 0.01
}
bias_filler {
type: "constant"
value: 0
}
}
}
layer {
name: "accuracy"
type: "Accuracy"
bottom: "fc8"
bottom: "label"
top: "accuracy"
include {
phase: TEST
}
}
layer {
name: "loss"
type: "SoftmaxWithLoss"
bottom: "fc8"
bottom: "label"
top: "loss"
}
I0504 16:16:22.282052 24593 layer_factory.hpp:77] Creating layer val-data
I0504 16:16:22.325598 24593 db_lmdb.cpp:35] Opened lmdb /mnt/bigdisk/MANDIG2/digits/jobs/20200428-132136-11fe/val_db
I0504 16:16:22.370891 24593 net.cpp:84] Creating Layer val-data
I0504 16:16:22.370920 24593 net.cpp:380] val-data -> data
I0504 16:16:22.370934 24593 net.cpp:380] val-data -> label
I0504 16:16:22.370944 24593 data_transformer.cpp:25] Loading mean file from: /mnt/bigdisk/MANDIG2/digits/jobs/20200428-132136-11fe/mean.binaryproto
I0504 16:16:22.376245 24593 data_layer.cpp:45] output data size: 50,3,227,227
I0504 16:16:22.489626 24593 net.cpp:122] Setting up val-data
I0504 16:16:22.489647 24593 net.cpp:129] Top shape: 50 3 227 227 (7729350)
I0504 16:16:22.489652 24593 net.cpp:129] Top shape: 50 (50)
I0504 16:16:22.489656 24593 net.cpp:137] Memory required for data: 30917600
I0504 16:16:22.489663 24593 layer_factory.hpp:77] Creating layer label_val-data_1_split
I0504 16:16:22.489677 24593 net.cpp:84] Creating Layer label_val-data_1_split
I0504 16:16:22.489682 24593 net.cpp:406] label_val-data_1_split <- label
I0504 16:16:22.489691 24593 net.cpp:380] label_val-data_1_split -> label_val-data_1_split_0
I0504 16:16:22.489701 24593 net.cpp:380] label_val-data_1_split -> label_val-data_1_split_1
I0504 16:16:22.489791 24593 net.cpp:122] Setting up label_val-data_1_split
I0504 16:16:22.489797 24593 net.cpp:129] Top shape: 50 (50)
I0504 16:16:22.489802 24593 net.cpp:129] Top shape: 50 (50)
I0504 16:16:22.489805 24593 net.cpp:137] Memory required for data: 30918000
I0504 16:16:22.489809 24593 layer_factory.hpp:77] Creating layer conv1
I0504 16:16:22.489822 24593 net.cpp:84] Creating Layer conv1
I0504 16:16:22.489827 24593 net.cpp:406] conv1 <- data
I0504 16:16:22.489832 24593 net.cpp:380] conv1 -> conv1
I0504 16:16:22.491838 24593 net.cpp:122] Setting up conv1
I0504 16:16:22.491852 24593 net.cpp:129] Top shape: 50 96 55 55 (14520000)
I0504 16:16:22.491855 24593 net.cpp:137] Memory required for data: 88998000
I0504 16:16:22.491866 24593 layer_factory.hpp:77] Creating layer relu1
I0504 16:16:22.491874 24593 net.cpp:84] Creating Layer relu1
I0504 16:16:22.491878 24593 net.cpp:406] relu1 <- conv1
I0504 16:16:22.491884 24593 net.cpp:367] relu1 -> conv1 (in-place)
I0504 16:16:22.492168 24593 net.cpp:122] Setting up relu1
I0504 16:16:22.492177 24593 net.cpp:129] Top shape: 50 96 55 55 (14520000)
I0504 16:16:22.492182 24593 net.cpp:137] Memory required for data: 147078000
I0504 16:16:22.492187 24593 layer_factory.hpp:77] Creating layer norm1
I0504 16:16:22.492195 24593 net.cpp:84] Creating Layer norm1
I0504 16:16:22.492200 24593 net.cpp:406] norm1 <- conv1
I0504 16:16:22.492206 24593 net.cpp:380] norm1 -> norm1
I0504 16:16:22.492668 24593 net.cpp:122] Setting up norm1
I0504 16:16:22.492679 24593 net.cpp:129] Top shape: 50 96 55 55 (14520000)
I0504 16:16:22.492683 24593 net.cpp:137] Memory required for data: 205158000
I0504 16:16:22.492688 24593 layer_factory.hpp:77] Creating layer pool1
I0504 16:16:22.492697 24593 net.cpp:84] Creating Layer pool1
I0504 16:16:22.492702 24593 net.cpp:406] pool1 <- norm1
I0504 16:16:22.492707 24593 net.cpp:380] pool1 -> pool1
I0504 16:16:22.492736 24593 net.cpp:122] Setting up pool1
I0504 16:16:22.492743 24593 net.cpp:129] Top shape: 50 96 27 27 (3499200)
I0504 16:16:22.492745 24593 net.cpp:137] Memory required for data: 219154800
I0504 16:16:22.492749 24593 layer_factory.hpp:77] Creating layer conv2
I0504 16:16:22.492758 24593 net.cpp:84] Creating Layer conv2
I0504 16:16:22.492761 24593 net.cpp:406] conv2 <- pool1
I0504 16:16:22.492767 24593 net.cpp:380] conv2 -> conv2
I0504 16:16:22.500357 24593 net.cpp:122] Setting up conv2
I0504 16:16:22.500371 24593 net.cpp:129] Top shape: 50 256 27 27 (9331200)
I0504 16:16:22.500376 24593 net.cpp:137] Memory required for data: 256479600
I0504 16:16:22.500387 24593 layer_factory.hpp:77] Creating layer relu2
I0504 16:16:22.500396 24593 net.cpp:84] Creating Layer relu2
I0504 16:16:22.500399 24593 net.cpp:406] relu2 <- conv2
I0504 16:16:22.500407 24593 net.cpp:367] relu2 -> conv2 (in-place)
I0504 16:16:22.500936 24593 net.cpp:122] Setting up relu2
I0504 16:16:22.500947 24593 net.cpp:129] Top shape: 50 256 27 27 (9331200)
I0504 16:16:23.296819 24593 net.cpp:137] Memory required for data: 293804400
I0504 16:16:23.296838 24593 layer_factory.hpp:77] Creating layer norm2
I0504 16:16:23.296859 24593 net.cpp:84] Creating Layer norm2
I0504 16:16:23.296864 24593 net.cpp:406] norm2 <- conv2
I0504 16:16:23.296874 24593 net.cpp:380] norm2 -> norm2
I0504 16:16:23.297592 24593 net.cpp:122] Setting up norm2
I0504 16:16:23.297606 24593 net.cpp:129] Top shape: 50 256 27 27 (9331200)
I0504 16:16:23.297610 24593 net.cpp:137] Memory required for data: 331129200
I0504 16:16:23.297616 24593 layer_factory.hpp:77] Creating layer pool2
I0504 16:16:23.297623 24593 net.cpp:84] Creating Layer pool2
I0504 16:16:23.297628 24593 net.cpp:406] pool2 <- norm2
I0504 16:16:23.297636 24593 net.cpp:380] pool2 -> pool2
I0504 16:16:23.297667 24593 net.cpp:122] Setting up pool2
I0504 16:16:23.297675 24593 net.cpp:129] Top shape: 50 256 13 13 (2163200)
I0504 16:16:23.297678 24593 net.cpp:137] Memory required for data: 339782000
I0504 16:16:23.297683 24593 layer_factory.hpp:77] Creating layer conv3
I0504 16:16:23.297694 24593 net.cpp:84] Creating Layer conv3
I0504 16:16:23.297698 24593 net.cpp:406] conv3 <- pool2
I0504 16:16:23.297704 24593 net.cpp:380] conv3 -> conv3
I0504 16:16:23.308959 24593 net.cpp:122] Setting up conv3
I0504 16:16:23.308976 24593 net.cpp:129] Top shape: 50 384 13 13 (3244800)
I0504 16:16:23.308980 24593 net.cpp:137] Memory required for data: 352761200
I0504 16:16:23.308995 24593 layer_factory.hpp:77] Creating layer relu3
I0504 16:16:23.309002 24593 net.cpp:84] Creating Layer relu3
I0504 16:16:23.309008 24593 net.cpp:406] relu3 <- conv3
I0504 16:16:23.309015 24593 net.cpp:367] relu3 -> conv3 (in-place)
I0504 16:16:23.309538 24593 net.cpp:122] Setting up relu3
I0504 16:16:23.309548 24593 net.cpp:129] Top shape: 50 384 13 13 (3244800)
I0504 16:16:23.309552 24593 net.cpp:137] Memory required for data: 365740400
I0504 16:16:23.309556 24593 layer_factory.hpp:77] Creating layer conv4
I0504 16:16:23.309572 24593 net.cpp:84] Creating Layer conv4
I0504 16:16:23.309577 24593 net.cpp:406] conv4 <- conv3
I0504 16:16:23.309584 24593 net.cpp:380] conv4 -> conv4
I0504 16:16:23.319875 24593 net.cpp:122] Setting up conv4
I0504 16:16:23.319891 24593 net.cpp:129] Top shape: 50 384 13 13 (3244800)
I0504 16:16:23.319896 24593 net.cpp:137] Memory required for data: 378719600
I0504 16:16:23.319905 24593 layer_factory.hpp:77] Creating layer relu4
I0504 16:16:23.319916 24593 net.cpp:84] Creating Layer relu4
I0504 16:16:23.319921 24593 net.cpp:406] relu4 <- conv4
I0504 16:16:23.319927 24593 net.cpp:367] relu4 -> conv4 (in-place)
I0504 16:16:23.320271 24593 net.cpp:122] Setting up relu4
I0504 16:16:23.320281 24593 net.cpp:129] Top shape: 50 384 13 13 (3244800)
I0504 16:16:23.320284 24593 net.cpp:137] Memory required for data: 391698800
I0504 16:16:23.320288 24593 layer_factory.hpp:77] Creating layer conv5
I0504 16:16:23.320300 24593 net.cpp:84] Creating Layer conv5
I0504 16:16:23.320307 24593 net.cpp:406] conv5 <- conv4
I0504 16:16:23.320314 24593 net.cpp:380] conv5 -> conv5
I0504 16:16:23.337302 24593 net.cpp:122] Setting up conv5
I0504 16:16:23.337325 24593 net.cpp:129] Top shape: 50 256 13 13 (2163200)
I0504 16:16:23.337330 24593 net.cpp:137] Memory required for data: 400351600
I0504 16:16:23.337348 24593 layer_factory.hpp:77] Creating layer relu5
I0504 16:16:23.337358 24593 net.cpp:84] Creating Layer relu5
I0504 16:16:23.337363 24593 net.cpp:406] relu5 <- conv5
I0504 16:16:23.337370 24593 net.cpp:367] relu5 -> conv5 (in-place)
I0504 16:16:23.337950 24593 net.cpp:122] Setting up relu5
I0504 16:16:23.337960 24593 net.cpp:129] Top shape: 50 256 13 13 (2163200)
I0504 16:16:23.337965 24593 net.cpp:137] Memory required for data: 409004400
I0504 16:16:23.337968 24593 layer_factory.hpp:77] Creating layer pool5
I0504 16:16:23.337980 24593 net.cpp:84] Creating Layer pool5
I0504 16:16:23.337985 24593 net.cpp:406] pool5 <- conv5
I0504 16:16:23.337990 24593 net.cpp:380] pool5 -> pool5
I0504 16:16:23.338039 24593 net.cpp:122] Setting up pool5
I0504 16:16:23.338045 24593 net.cpp:129] Top shape: 50 256 6 6 (460800)
I0504 16:16:23.338049 24593 net.cpp:137] Memory required for data: 410847600
I0504 16:16:23.338053 24593 layer_factory.hpp:77] Creating layer fc6
I0504 16:16:23.338063 24593 net.cpp:84] Creating Layer fc6
I0504 16:16:23.338065 24593 net.cpp:406] fc6 <- pool5
I0504 16:16:23.338083 24593 net.cpp:380] fc6 -> fc6
I0504 16:16:23.700515 24593 net.cpp:122] Setting up fc6
I0504 16:16:23.700536 24593 net.cpp:129] Top shape: 50 4096 (204800)
I0504 16:16:23.700541 24593 net.cpp:137] Memory required for data: 411666800
I0504 16:16:23.700551 24593 layer_factory.hpp:77] Creating layer relu6
I0504 16:16:23.700561 24593 net.cpp:84] Creating Layer relu6
I0504 16:16:23.700565 24593 net.cpp:406] relu6 <- fc6
I0504 16:16:23.700573 24593 net.cpp:367] relu6 -> fc6 (in-place)
I0504 16:16:23.709551 24593 net.cpp:122] Setting up relu6
I0504 16:16:23.709563 24593 net.cpp:129] Top shape: 50 4096 (204800)
I0504 16:16:23.709566 24593 net.cpp:137] Memory required for data: 412486000
I0504 16:16:23.709571 24593 layer_factory.hpp:77] Creating layer drop6
I0504 16:16:23.709579 24593 net.cpp:84] Creating Layer drop6
I0504 16:16:23.709583 24593 net.cpp:406] drop6 <- fc6
I0504 16:16:23.709590 24593 net.cpp:367] drop6 -> fc6 (in-place)
I0504 16:16:24.541605 24593 net.cpp:122] Setting up drop6
I0504 16:16:24.541621 24593 net.cpp:129] Top shape: 50 4096 (204800)
I0504 16:16:24.541626 24593 net.cpp:137] Memory required for data: 413305200
I0504 16:16:24.541632 24593 layer_factory.hpp:77] Creating layer fc7
I0504 16:16:24.541649 24593 net.cpp:84] Creating Layer fc7
I0504 16:16:24.541654 24593 net.cpp:406] fc7 <- fc6
I0504 16:16:24.541663 24593 net.cpp:380] fc7 -> fc7
I0504 16:16:24.705258 24593 net.cpp:122] Setting up fc7
I0504 16:16:24.705282 24593 net.cpp:129] Top shape: 50 4096 (204800)
I0504 16:16:24.705288 24593 net.cpp:137] Memory required for data: 414124400
I0504 16:16:24.705301 24593 layer_factory.hpp:77] Creating layer relu7
I0504 16:16:24.705310 24593 net.cpp:84] Creating Layer relu7
I0504 16:16:24.705317 24593 net.cpp:406] relu7 <- fc7
I0504 16:16:24.705323 24593 net.cpp:367] relu7 -> fc7 (in-place)
I0504 16:16:24.705749 24593 net.cpp:122] Setting up relu7
I0504 16:16:24.705760 24593 net.cpp:129] Top shape: 50 4096 (204800)
I0504 16:16:24.705765 24593 net.cpp:137] Memory required for data: 414943600
I0504 16:16:24.705770 24593 layer_factory.hpp:77] Creating layer drop7
I0504 16:16:24.705776 24593 net.cpp:84] Creating Layer drop7
I0504 16:16:24.705781 24593 net.cpp:406] drop7 <- fc7
I0504 16:16:24.705788 24593 net.cpp:367] drop7 -> fc7 (in-place)
I0504 16:16:24.705816 24593 net.cpp:122] Setting up drop7
I0504 16:16:24.705821 24593 net.cpp:129] Top shape: 50 4096 (204800)
I0504 16:16:24.705826 24593 net.cpp:137] Memory required for data: 415762800
I0504 16:16:24.705829 24593 layer_factory.hpp:77] Creating layer fc8
I0504 16:16:24.705840 24593 net.cpp:84] Creating Layer fc8
I0504 16:16:24.705845 24593 net.cpp:406] fc8 <- fc7
I0504 16:16:24.705852 24593 net.cpp:380] fc8 -> fc8
I0504 16:16:24.713657 24593 net.cpp:122] Setting up fc8
I0504 16:16:24.713670 24593 net.cpp:129] Top shape: 50 196 (9800)
I0504 16:16:24.713675 24593 net.cpp:137] Memory required for data: 415802000
I0504 16:16:24.713682 24593 layer_factory.hpp:77] Creating layer fc8_fc8_0_split
I0504 16:16:24.713690 24593 net.cpp:84] Creating Layer fc8_fc8_0_split
I0504 16:16:24.713696 24593 net.cpp:406] fc8_fc8_0_split <- fc8
I0504 16:16:24.713703 24593 net.cpp:380] fc8_fc8_0_split -> fc8_fc8_0_split_0
I0504 16:16:24.713728 24593 net.cpp:380] fc8_fc8_0_split -> fc8_fc8_0_split_1
I0504 16:16:24.713764 24593 net.cpp:122] Setting up fc8_fc8_0_split
I0504 16:16:24.713771 24593 net.cpp:129] Top shape: 50 196 (9800)
I0504 16:16:24.713778 24593 net.cpp:129] Top shape: 50 196 (9800)
I0504 16:16:24.713781 24593 net.cpp:137] Memory required for data: 415880400
I0504 16:16:24.713786 24593 layer_factory.hpp:77] Creating layer accuracy
I0504 16:16:24.713793 24593 net.cpp:84] Creating Layer accuracy
I0504 16:16:24.713798 24593 net.cpp:406] accuracy <- fc8_fc8_0_split_0
I0504 16:16:24.713804 24593 net.cpp:406] accuracy <- label_val-data_1_split_0
I0504 16:16:24.713809 24593 net.cpp:380] accuracy -> accuracy
…
