…
I0509 17:28:51.284054 15842 net.cpp:294] The NetState phase (0) differed from the phase (1) specified by a rule in layer loss3/top-5
I0509 17:28:51.284893 15842 net.cpp:51] Initializing net from parameters:
state {
phase: TRAIN
level: 0
stage: ""
}
layer {
name: "train-data"
type: "Data"
top: "data"
top: "label"
include {
phase: TRAIN
}
transform_param {
mirror: true
crop_size: 224
mean_value: 116.08698
mean_value: 117.34767
mean_value: 119.99612
}
data_param {
source: "/mnt/bigdisk/AMBDIG8/digits/jobs/20200508-231203-8394/train_db"
batch_size: 50
backend: LMDB
}
}
layer {
name: "conv1/7x7_s2"
type: "Convolution"
bottom: "data"
top: "conv1/7x7_s2"
param {
lr_mult: 1
decay_mult: 1
}
param {
lr_mult: 2
decay_mult: 0
}
convolution_param {
num_output: 64
pad: 3
kernel_size: 7
stride: 2
weight_filler {
type: "xavier"
std: 0.1
}
bias_filler {
type: "constant"
value: 0.2
}
}
}
layer {
name: "conv1/relu_7x7"
type: "ReLU"
bottom: "conv1/7x7_s2"
top: "conv1/7x7_s2"
}
layer {
name: "pool1/3x3_s2"
type: "Pooling"
bottom: "conv1/7x7_s2"
top: "pool1/3x3_s2"
pooling_param {
pool: MAX
kernel_size: 3
stride: 2
}
}
layer {
name: "pool1/norm1"
type: "LRN"
bottom: "pool1/3x3_s2"
top: "pool1/norm1"
lrn_param {
local_size: 5
alpha: 0.0001
beta: 0.75
}
}
layer {
name: "conv2/3x3_reduce"
type: "Convolution"
bottom: "pool1/norm1"
top: "conv2/3x3_reduce"
param {
lr_mult: 1
decay_mult: 1
}
param {
lr_mult: 2
decay_mult: 0
}
convolution_param {
num_output: 64
kernel_size: 1
weight_filler {
type: "xavier"
std: 0.1
}
bias_filler {
type: "constant"
value: 0.2
}
}
}
layer {
name: "conv2/relu_3x3_reduce"
type: "ReLU"
bottom: "conv2/3x3_reduce"
top: "conv2/3x3_reduce"
}
layer {
name: "conv2/3x3"
type: "Convolution"
bottom: "conv2/3x3_reduce"
top: "conv2/3x3"
param {
lr_mult: 1
decay_mult: 1
}
param {
lr_mult: 2
decay_mult: 0
}
convolution_param {
num_output: 192
pad: 1
kernel_size: 3
weight_filler {
type: "xavier"
std: 0.03
}
bias_filler {
type: "constant"
value: 0.2
}
}
}
layer {
name: "conv2/relu_3x3"
type: "ReLU"
bottom: "conv2/3x3"
top: "conv2/3x3"
}
layer {
name: "conv2/norm2"
type: "LRN"
bottom: "conv2/3x3"
top: "conv2/norm2"
lrn_param {
local_size: 5
alpha: 0.0001
beta: 0.75
}
}
layer {
name: "pool2/3x3_s2"
type: "Pooling"
bottom: "conv2/norm2"
top: "pool2/3x3_s2"
pooling_param {
pool: MAX
kernel_size: 3
stride: 2
}
}
layer {
name: "inception_3a/1x1"
type: "Convolution"
bottom: "pool2/3x3_s2"
top: "inception_3a/1x1"
param {
lr_mult: 1
decay_mult: 1
}
param {
lr_mult: 2
decay_mult: 0
}
convolution_param {
num_output: 64
kernel_size: 1
weight_filler {
type: "xavier"
std: 0.03
}
bias_filler {
type: "constant"
value: 0.2
}
}
}
layer {
name: "inception_3a/relu_1x1"
type: "ReLU"
bottom: "inception_3a/1x1"
top: "inception_3a/1x1"
}
layer {
name: "inception_3a/3x3_reduce"
type: "Convolution"
bottom: "pool2/3x3_s2"
top: "inception_3a/3x3_reduce"
param {
lr_mult: 1
decay_mult: 1
}
param {
lr_mult: 2
decay_mult: 0
}
convolution_param {
num_output: 96
kernel_size: 1
weight_filler {
type: "xavier"
std: 0.09
}
bias_filler {
type: "constant"
value: 0.2
}
}
}
layer {
name: "inception_3a/relu_3x3_reduce"
type: "ReLU"
bottom: "inception_3a/3x3_reduce"
top: "inception_3a/3x3_reduce"
}
layer {
name: "inception_3a/3x3"
type: "Convolution"
bottom: "inception_3a/3x3_reduce"
top: "inception_3a/3x3"
param {
lr_mult: 1
decay_mult: 1
}
param {
lr_mult: 2
decay_mult: 0
}
convolution_param {
num_output: 128
pad: 1
kernel_size: 3
weight_filler {
type: "xavier"
std: 0.03
}
bias_filler {
type: "constant"
value: 0.2
}
}
}
layer {
name: "inception_3a/relu_3x3"
type: "ReLU"
bottom: "inception_3a/3x3"
top: "inception_3a/3x3"
}
layer {
name: "inception_3a/5x5_reduce"
type: "Convolution"
bottom: "pool2/3x3_s2"
top: "inception_3a/5x5_reduce"
param {
lr_mult: 1
decay_mult: 1
}
param {
lr_mult: 2
decay_mult: 0
}
convolution_param {
num_output: 16
kernel_size: 1
weight_filler {
type: "xavier"
std: 0.2
}
bias_filler {
type: "constant"
value: 0.2
}
}
}
layer {
name: "inception_3a/relu_5x5_reduce"
type: "ReLU"
bottom: "inception_3a/5x5_reduce"
top: "inception_3a/5x5_reduce"
}
layer {
name: "inception_3a/5x5"
type: "Convolution"
bottom: "inception_3a/5x5_reduce"
top: "inception_3a/5x5"
param {
lr_mult: 1
decay_mult: 1
}
param {
lr_mult: 2
decay_mult: 0
}
convolution_param {
num_output: 32
pad: 2
kernel_size: 5
weight_filler {
type: "xavier"
std: 0.03
}
bias_filler {
type: "constant"
value: 0.2
}
}
}
layer {
name: "inception_3a/relu_5x5"
type: "ReLU"
bottom: "inception_3a/5x5"
top: "inception_3a/5x5"
}
layer {
name: "inception_3a/pool"
type: "Pooling"
bottom: "pool2/3x3_s2"
top: "inception_3a/pool"
pooling_param {
pool: MAX
kernel_size: 3
stride: 1
pad: 1
}
}
layer {
name: "inception_3a/pool_proj"
type: "Convolution"
bottom: "inception_3a/pool"
top: "inception_3a/pool_proj"
param {
lr_mult: 1
decay_mult: 1
}
param {
lr_mult: 2
decay_mult: 0
}
convolution_param {
num_output: 32
kernel_size: 1
weight_filler {
type: "xavier"
std: 0.1
}
bias_filler {
type: "constant"
value: 0.2
}
}
}
layer {
name: "inception_3a/relu_pool_proj"
type: "ReLU"
bottom: "inception_3a/pool_proj"
top: "inception_3a/pool_proj"
}
layer {
name: "inception_3a/output"
type: "Concat"
bottom: "inception_3a/1x1"
bottom: "inception_3a/3x3"
bottom: "inception_3a/5x5"
bottom: "inception_3a/pool_proj"
top: "inception_3a/output"
}
layer {
name: "inception_3b/1x1"
type: "Convolution"
bottom: "inception_3a/output"
top: "inception_3b/1x1"
param {
lr_mult: 1
decay_mult: 1
}
param {
lr_mult: 2
decay_mult: 0
}
convolution_param {
num_output: 128
kernel_size: 1
weight_filler {
type: "xavier"
std: 0.03
}
bias_filler {
type: "constant"
value: 0.2
}
}
}
layer {
name: "inception_3b/relu_1x1"
type: "ReLU"
bottom: "inception_3b/1x1"
top: "inception_3b/1x1"
}
layer {
name: "inception_3b/3x3_reduce"
type: "Convolution"
bottom: "inception_3a/output"
top: "inception_3b/3x3_reduce"
param {
lr_mult: 1
decay_mult: 1
}
param {
lr_mult: 2
decay_mult: 0
}
convolution_param {
num_output: 128
kernel_size: 1
weight_filler {
type: "xavier"
std: 0.09
}
bias_filler {
type: "constant"
value: 0.2
}
}
}
layer {
name: "inception_3b/relu_3x3_reduce"
type: "ReLU"
bottom: "inception_3b/3x3_reduce"
top: "inception_3b/3x3_reduce"
}
layer {
name: "inception_3b/3x3"
type: "Convolution"
bottom: "inception_3b/3x3_reduce"
top: "inception_3b/3x3"
param {
lr_mult: 1
decay_mult: 1
}
param {
lr_mult: 2
decay_mult: 0
}
convolution_param {
num_output: 192
pad: 1
kernel_size: 3
weight_filler {
type: "xavier"
std: 0.03
}
bias_filler {
type: "constant"
value: 0.2
}
}
}
layer {
name: "inception_3b/relu_3x3"
type: "ReLU"
bottom: "inception_3b/3x3"
top: "inception_3b/3x3"
}
layer {
name: "inception_3b/5x5_reduce"
type: "Convolution"
bottom: "inception_3a/output"
top: "inception_3b/5x5_reduce"
param {
lr_mult: 1
decay_mult: 1
}
param {
lr_mult: 2
decay_mult: 0
}
convolution_param {
num_output: 32
kernel_size: 1
weight_filler {
type: "xavier"
std: 0.2
}
bias_filler {
type: "constant"
value: 0.2
}
}
}
layer {
name: "inception_3b/relu_5x5_reduce"
type: "ReLU"
bottom: "inception_3b/5x5_reduce"
top: "inception_3b/5x5_reduce"
}
layer {
name: "inception_3b/5x5"
type: "Convolution"
bottom: "inception_3b/5x5_reduce"
top: "inception_3b/5x5"
param {
lr_mult: 1
decay_mult: 1
}
param {
lr_mult: 2
decay_mult: 0
}
convolution_param {
num_output: 96
pad: 2
kernel_size: 5
weight_filler {
type: "xavier"
std: 0.03
}
bias_filler {
type: "constant"
value: 0.2
}
}
}
layer {
name: "inception_3b/relu_5x5"
type: "ReLU"
bottom: "inception_3b/5x5"
top: "inception_3b/5x5"
}
layer {
name: "inception_3b/pool"
type: "Pooling"
bottom: "inception_3a/output"
top: "inception_3b/pool"
pooling_param {
pool: MAX
kernel_size: 3
stride: 1
pad: 1
}
}
layer {
name: "inception_3b/pool_proj"
type: "Convolution"
bottom: "inception_3b/pool"
top: "inception_3b/pool_proj"
param {
lr_mult: 1
decay_mult: 1
}
param {
lr_mult: 2
decay_mult: 0
}
convolution_param {
num_output: 64
kernel_size: 1
weight_filler {
type: "xavier"
std: 0.1
}
bias_filler {
type: "constant"
value: 0.2
}
}
}
layer {
name: "inception_3b/relu_pool_proj"
type: "ReLU"
bottom: "inception_3b/pool_proj"
top: "inception_3b/pool_proj"
}
layer {
name: "inception_3b/output"
type: "Concat"
bottom: "inception_3b/1x1"
bottom: "inception_3b/3x3"
bottom: "inception_3b/5x5"
bottom: "inception_3b/pool_proj"
top: "inception_3b/output"
}
layer {
name: "pool3/3x3_s2"
type: "Pooling"
bottom: "inception_3b/output"
top: "pool3/3x3_s2"
pooling_param {
pool: MAX
kernel_size: 3
stride: 2
}
}
layer {
name: "inception_4a/1x1"
type: "Convolution"
bottom: "pool3/3x3_s2"
top: "inception_4a/1x1"
param {
lr_mult: 1
decay_mult: 1
}
param {
lr_mult: 2
decay_mult: 0
}
convolution_param {
num_output: 192
kernel_size: 1
weight_filler {
type: "xavier"
std: 0.03
}
bias_filler {
type: "constant"
value: 0.2
}
}
}
layer {
name: "inception_4a/relu_1x1"
type: "ReLU"
bottom: "inception_4a/1x1"
top: "inception_4a/1x1"
}
layer {
name: "inception_4a/3x3_reduce"
type: "Convolution"
bottom: "pool3/3x3_s2"
top: "inception_4a/3x3_reduce"
param {
lr_mult: 1
decay_mult: 1
}
param {
lr_mult: 2
decay_mult: 0
}
convolution_param {
num_output: 96
kernel_size: 1
weight_filler {
type: "xavier"
std: 0.09
}
bias_filler {
type: "constant"
value: 0.2
}
}
}
layer {
name: "inception_4a/relu_3x3_reduce"
type: "ReLU"
bottom: "inception_4a/3x3_reduce"
top: "inception_4a/3x3_reduce"
}
layer {
name: "inception_4a/3x3"
type: "Convolution"
bottom: "inception_4a/3x3_reduce"
top: "inception_4a/3x3"
param {
lr_mult: 1
decay_mult: 1
}
param {
lr_mult: 2
decay_mult: 0
}
convolution_param {
num_output: 208
pad: 1
kernel_size: 3
weight_filler {
type: "xavier"
std: 0.03
}
bias_filler {
type: "constant"
value: 0.2
}
}
}
layer {
name: "inception_4a/relu_3x3"
type: "ReLU"
bottom: "inception_4a/3x3"
top: "inception_4a/3x3"
}
layer {
name: "inception_4a/5x5_reduce"
type: "Convolution"
bottom: "pool3/3x3_s2"
top: "inception_4a/5x5_reduce"
param {
lr_mult: 1
decay_mult: 1
}
param {
lr_mult: 2
decay_mult: 0
}
convolution_param {
num_output: 16
kernel_size: 1
weight_filler {
type: "xavier"
std: 0.2
}
bias_filler {
type: "constant"
value: 0.2
}
}
}
layer {
name: "inception_4a/relu_5x5_reduce"
type: "ReLU"
bottom: "inception_4a/5x5_reduce"
top: "inception_4a/5x5_reduce"
}
layer {
name: "inception_4a/5x5"
type: "Convolution"
bottom: "inception_4a/5x5_reduce"
top: "inception_4a/5x5"
param {
lr_mult: 1
decay_mult: 1
}
param {
lr_mult: 2
decay_mult: 0
}
convolution_param {
num_output: 48
pad: 2
kernel_size: 5
weight_filler {
type: "xavier"
std: 0.03
}
bias_filler {
type: "constant"
value: 0.2
}
}
}
layer {
name: "inception_4a/relu_5x5"
type: "ReLU"
bottom: "inception_4a/5x5"
top: "inception_4a/5x5"
}
layer {
name: "inception_4a/pool"
type: "Pooling"
bottom: "pool3/3x3_s2"
top: "inception_4a/pool"
pooling_param {
pool: MAX
kernel_size: 3
stride: 1
pad: 1
}
}
layer {
name: "inception_4a/pool_proj"
type: "Convolution"
bottom: "inception_4a/pool"
top: "inception_4a/pool_proj"
param {
lr_mult: 1
decay_mult: 1
}
param {
lr_mult: 2
decay_mult: 0
}
convolution_param {
num_output: 64
kernel_size: 1
weight_filler {
type: "xavier"
std: 0.1
}
bias_filler {
type: "constant"
value: 0.2
}
}
}
layer {
name: "inception_4a/relu_pool_proj"
type: "ReLU"
bottom: "inception_4a/pool_proj"
top: "inception_4a/pool_proj"
}
layer {
name: "inception_4a/output"
type: "Concat"
bottom: "inception_4a/1x1"
bottom: "inception_4a/3x3"
bottom: "inception_4a/5x5"
bottom: "inception_4a/pool_proj"
top: "inception_4a/output"
}
layer {
name: "loss1/ave_pool"
type: "Pooling"
bottom: "inception_4a/output"
top: "loss1/ave_pool"
pooling_param {
pool: AVE
kernel_size: 5
stride: 3
}
}
layer {
name: "loss1/conv"
type: "Convolution"
bottom: "loss1/ave_pool"
top: "loss1/conv"
param {
lr_mult: 1
decay_mult: 1
}
param {
lr_mult: 2
decay_mult: 0
}
convolution_param {
num_output: 128
kernel_size: 1
weight_filler {
type: "xavier"
std: 0.08
}
bias_filler {
type: "constant"
value: 0.2
}
}
}
layer {
name: "loss1/relu_conv"
type: "ReLU"
bottom: "loss1/conv"
top: "loss1/conv"
}
layer {
name: "loss1/fc"
type: "InnerProduct"
bottom: "loss1/conv"
top: "loss1/fc"
param {
lr_mult: 1
decay_mult: 1
}
param {
lr_mult: 2
decay_mult: 0
}
inner_product_param {
num_output: 1024
weight_filler {
type: "xavier"
std: 0.02
}
bias_filler {
type: "constant"
value: 0.2
}
}
}
layer {
name: "loss1/relu_fc"
type: "ReLU"
bottom: "loss1/fc"
top: "loss1/fc"
}
layer {
name: "loss1/drop_fc"
type: "Dropout"
bottom: "loss1/fc"
top: "loss1/fc"
dropout_param {
dropout_ratio: 0.7
}
}
layer {
name: "loss1/classifier"
type: "InnerProduct"
bottom: "loss1/fc"
top: "loss1/classifier"
param {
lr_mult: 1
decay_mult: 1
}
param {
lr_mult: 2
decay_mult: 0
}
inner_product_param {
num_output: 196
weight_filler {
type: "xavier"
std: 0.0009765625
}
bias_filler {
type: "constant"
value: 0
}
}
}
layer {
name: "loss1/loss"
type: "SoftmaxWithLoss"
bottom: "loss1/classifier"
bottom: "label"
top: "loss1/loss"
loss_weight: 0.3
}
layer {
name: "inception_4b/1x1"
type: "Convolution"
bottom: "inception_4a/output"
top: "inception_4b/1x1"
param {
lr_mult: 1
decay_mult: 1
}
param {
lr_mult: 2
decay_mult: 0
}
convolution_param {
num_output: 160
kernel_size: 1
weight_filler {
type: "xavier"
std: 0.03
}
bias_filler {
type: "constant"
value: 0.2
}
}
}
layer {
name: "inception_4b/relu_1x1"
type: "ReLU"
bottom: "inception_4b/1x1"
top: "inception_4b/1x1"
}
layer {
name: "inception_4b/3x3_reduce"
type: "Convolution"
bottom: "inception_4a/output"
top: "inception_4b/3x3_reduce"
param {
lr_mult: 1
decay_mult: 1
}
param {
lr_mult: 2
decay_mult: 0
}
convolution_param {
num_output: 112
kernel_size: 1
weight_filler {
type: "xavier"
std: 0.09
}
bias_filler {
type: "constant"
value: 0.2
}
}
}
layer {
name: "inception_4b/relu_3x3_reduce"
type: "ReLU"
bottom: "inception_4b/3x3_reduce"
top: "inception_4b/3x3_reduce"
}
layer {
name: "inception_4b/3x3"
type: "Convolution"
bottom: "inception_4b/3x3_reduce"
top: "inception_4b/3x3"
param {
lr_mult: 1
decay_mult: 1
}
param {
lr_mult: 2
decay_mult: 0
}
convolution_param {
num_output: 224
pad: 1
kernel_size: 3
weight_filler {
type: "xavier"
std: 0.03
}
bias_filler {
type: "constant"
value: 0.2
}
}
}
layer {
name: "inception_4b/relu_3x3"
type: "ReLU"
bottom: "inception_4b/3x3"
top: "inception_4b/3x3"
}
layer {
name: "inception_4b/5x5_reduce"
type: "Convolution"
bottom: "inception_4a/output"
top: "inception_4b/5x5_reduce"
param {
lr_mult: 1
decay_mult: 1
}
param {
lr_mult: 2
decay_mult: 0
}
convolution_param {
num_output: 24
kernel_size: 1
weight_filler {
type: "xavier"
std: 0.2
}
bias_filler {
type: "constant"
value: 0.2
}
}
}
layer {
name: "inception_4b/relu_5x5_reduce"
type: "ReLU"
bottom: "inception_4b/5x5_reduce"
top: "inception_4b/5x5_reduce"
}
layer {
name: "inception_4b/5x5"
type: "Convolution"
bottom: "inception_4b/5x5_reduce"
top: "inception_4b/5x5"
param {
lr_mult: 1
decay_mult: 1
}
param {
lr_mult: 2
decay_mult: 0
}
convolution_param {
num_output: 64
pad: 2
kernel_size: 5
weight_filler {
type: "xavier"
std: 0.03
}
bias_filler {
type: "constant"
value: 0.2
}
}
}
layer {
name: "inception_4b/relu_5x5"
type: "ReLU"
bottom: "inception_4b/5x5"
top: "inception_4b/5x5"
}
layer {
name: "inception_4b/pool"
type: "Pooling"
bottom: "inception_4a/output"
top: "inception_4b/pool"
pooling_param {
pool: MAX
kernel_size: 3
stride: 1
pad: 1
}
}
layer {
name: "inception_4b/pool_proj"
type: "Convolution"
bottom: "inception_4b/pool"
top: "inception_4b/pool_proj"
param {
lr_mult: 1
decay_mult: 1
}
param {
lr_mult: 2
decay_mult: 0
}
convolution_param {
num_output: 64
kernel_size: 1
weight_filler {
type: "xavier"
std: 0.1
}
bias_filler {
type: "constant"
value: 0.2
}
}
}
layer {
name: "inception_4b/relu_pool_proj"
type: "ReLU"
bottom: "inception_4b/pool_proj"
top: "inception_4b/pool_proj"
}
layer {
name: "inception_4b/output"
type: "Concat"
bottom: "inception_4b/1x1"
bottom: "inception_4b/3x3"
bottom: "inception_4b/5x5"
bottom: "inception_4b/pool_proj"
top: "inception_4b/output"
}
layer {
name: "inception_4c/1x1"
type: "Convolution"
bottom: "inception_4b/output"
top: "inception_4c/1x1"
param {
lr_mult: 1
decay_mult: 1
}
param {
lr_mult: 2
decay_mult: 0
}
convolution_param {
num_output: 128
kernel_size: 1
weight_filler {
type: "xavier"
std: 0.03
}
bias_filler {
type: "constant"
value: 0.2
}
}
}
layer {
name: "inception_4c/relu_1x1"
type: "ReLU"
bottom: "inception_4c/1x1"
top: "inception_4c/1x1"
}
layer {
name: "inception_4c/3x3_reduce"
type: "Convolution"
bottom: "inception_4b/output"
top: "inception_4c/3x3_reduce"
param {
lr_mult: 1
decay_mult: 1
}
param {
lr_mult: 2
decay_mult: 0
}
convolution_param {
num_output: 128
kernel_size: 1
weight_filler {
type: "xavier"
std: 0.09
}
bias_filler {
type: "constant"
value: 0.2
}
}
}
layer {
name: "inception_4c/relu_3x3_reduce"
type: "ReLU"
bottom: "inception_4c/3x3_reduce"
top: "inception_4c/3x3_reduce"
}
layer {
name: "inception_4c/3x3"
type: "Convolution"
bottom: "inception_4c/3x3_reduce"
top: "inception_4c/3x3"
param {
lr_mult: 1
decay_mult: 1
}
param {
lr_mult: 2
decay_mult: 0
}
convolution_param {
num_output: 256
pad: 1
kernel_size: 3
weight_filler {
type: "xavier"
std: 0.03
}
bias_filler {
type: "constant"
value: 0.2
}
}
}
layer {
name: "inception_4c/relu_3x3"
type: "ReLU"
bottom: "inception_4c/3x3"
top: "inception_4c/3x3"
}
layer {
name: "inception_4c/5x5_reduce"
type: "Convolution"
bottom: "inception_4b/output"
top: "inception_4c/5x5_reduce"
param {
lr_mult: 1
decay_mult: 1
}
param {
lr_mult: 2
decay_mult: 0
}
convolution_param {
num_output: 24
kernel_size: 1
weight_filler {
type: "xavier"
std: 0.2
}
bias_filler {
type: "constant"
value: 0.2
}
}
}
layer {
name: "inception_4c/relu_5x5_reduce"
type: "ReLU"
bottom: "inception_4c/5x5_reduce"
top: "inception_4c/5x5_reduce"
}
layer {
name: "inception_4c/5x5"
type: "Convolution"
bottom: "inception_4c/5x5_reduce"
top: "inception_4c/5x5"
param {
lr_mult: 1
decay_mult: 1
}
param {
lr_mult: 2
decay_mult: 0
}
convolution_param {
num_output: 64
pad: 2
kernel_size: 5
weight_filler {
type: "xavier"
std: 0.03
}
bias_filler {
type: "constant"
value: 0.2
}
}
}
layer {
name: "inception_4c/relu_5x5"
type: "ReLU"
bottom: "inception_4c/5x5"
top: "inception_4c/5x5"
}
layer {
name: "inception_4c/pool"
type: "Pooling"
bottom: "inception_4b/output"
top: "inception_4c/pool"
pooling_param {
pool: MAX
kernel_size: 3
stride: 1
pad: 1
}
}
layer {
name: "inception_4c/pool_proj"
type: "Convolution"
bottom: "inception_4c/pool"
top: "inception_4c/pool_proj"
param {
lr_mult: 1
decay_mult: 1
}
param {
lr_mult: 2
decay_mult: 0
}
convolution_param {
num_output: 64
kernel_size: 1
weight_filler {
type: "xavier"
std: 0.1
}
bias_filler {
type: "constant"
value: 0.2
}
}
}
layer {
name: "inception_4c/relu_pool_proj"
type: "ReLU"
bottom: "inception_4c/pool_proj"
top: "inception_4c/pool_proj"
}
layer {
name: "inception_4c/output"
type: "Concat"
bottom: "inception_4c/1x1"
bottom: "inception_4c/3x3"
bottom: "inception_4c/5x5"
bottom: "inception_4c/pool_proj"
top: "inception_4c/output"
}
layer {
name: "inception_4d/1x1"
type: "Convolution"
bottom: "inception_4c/output"
top: "inception_4d/1x1"
param {
lr_mult: 1
decay_mult: 1
}
param {
lr_mult: 2
decay_mult: 0
}
convolution_param {
num_output: 112
kernel_size: 1
weight_filler {
type: "xavier"
std: 0.03
}
bias_filler {
type: "constant"
value: 0.2
}
}
}
layer {
name: "inception_4d/relu_1x1"
type: "ReLU"
bottom: "inception_4d/1x1"
top: "inception_4d/1x1"
}
layer {
name: "inception_4d/3x3_reduce"
type: "Convolution"
bottom: "inception_4c/output"
top: "inception_4d/3x3_reduce"
param {
lr_mult: 1
decay_mult: 1
}
param {
lr_mult: 2
decay_mult: 0
}
convolution_param {
num_output: 144
kernel_size: 1
weight_filler {
type: "xavier"
std: 0.09
}
bias_filler {
type: "constant"
value: 0.2
}
}
}
layer {
name: "inception_4d/relu_3x3_reduce"
type: "ReLU"
bottom: "inception_4d/3x3_reduce"
top: "inception_4d/3x3_reduce"
}
layer {
name: "inception_4d/3x3"
type: "Convolution"
bottom: "inception_4d/3x3_reduce"
top: "inception_4d/3x3"
param {
lr_mult: 1
decay_mult: 1
}
param {
lr_mult: 2
decay_mult: 0
}
convolution_param {
num_output: 288
pad: 1
kernel_size: 3
weight_filler {
type: "xavier"
std: 0.03
}
bias_filler {
type: "constant"
value: 0.2
}
}
}
layer {
name: "inception_4d/relu_3x3"
type: "ReLU"
bottom: "inception_4d/3x3"
top: "inception_4d/3x3"
}
layer {
name: "inception_4d/5x5_reduce"
type: "Convolution"
bottom: "inception_4c/output"
top: "inception_4d/5x5_reduce"
param {
lr_mult: 1
decay_mult: 1
}
param {
lr_mult: 2
decay_mult: 0
}
convolution_param {
num_output: 32
kernel_size: 1
weight_filler {
type: "xavier"
std: 0.2
}
bias_filler {
type: "constant"
value: 0.2
}
}
}
layer {
name: "inception_4d/relu_5x5_reduce"
type: "ReLU"
bottom: "inception_4d/5x5_reduce"
top: "inception_4d/5x5_reduce"
}
layer {
name: "inception_4d/5x5"
type: "Convolution"
bottom: "inception_4d/5x5_reduce"
top: "inception_4d/5x5"
param {
lr_mult: 1
decay_mult: 1
}
param {
lr_mult: 2
decay_mult: 0
}
convolution_param {
num_output: 64
pad: 2
kernel_size: 5
weight_filler {
type: "xavier"
std: 0.03
}
bias_filler {
type: "constant"
value: 0.2
}
}
}
layer {
name: "inception_4d/relu_5x5"
type: "ReLU"
bottom: "inception_4d/5x5"
top: "inception_4d/5x5"
}
layer {
name: "inception_4d/pool"
type: "Pooling"
bottom: "inception_4c/output"
top: "inception_4d/pool"
pooling_param {
pool: MAX
kernel_size: 3
stride: 1
pad: 1
}
}
layer {
name: "inception_4d/pool_proj"
type: "Convolution"
bottom: "inception_4d/pool"
top: "inception_4d/pool_proj"
param {
lr_mult: 1
decay_mult: 1
}
param {
lr_mult: 2
decay_mult: 0
}
convolution_param {
num_output: 64
kernel_size: 1
weight_filler {
type: "xavier"
std: 0.1
}
bias_filler {
type: "constant"
value: 0.2
}
}
}
layer {
name: "inception_4d/relu_pool_proj"
type: "ReLU"
bottom: "inception_4d/pool_proj"
top: "inception_4d/pool_proj"
}
layer {
name: "inception_4d/output"
type: "Concat"
bottom: "inception_4d/1x1"
bottom: "inception_4d/3x3"
bottom: "inception_4d/5x5"
bottom: "inception_4d/pool_proj"
top: "inception_4d/output"
}
layer {
name: "loss2/ave_pool"
type: "Pooling"
bottom: "inception_4d/output"
top: "loss2/ave_pool"
pooling_param {
pool: AVE
kernel_size: 5
stride: 3
}
}
layer {
name: "loss2/conv"
type: "Convolution"
bottom: "loss2/ave_pool"
top: "loss2/conv"
param {
lr_mult: 1
decay_mult: 1
}
param {
lr_mult: 2
decay_mult: 0
}
convolution_param {
num_output: 128
kernel_size: 1
weight_filler {
type: "xavier"
std: 0.08
}
bias_filler {
type: "constant"
value: 0.2
}
}
}
layer {
name: "loss2/relu_conv"
type: "ReLU"
bottom: "loss2/conv"
top: "loss2/conv"
}
layer {
name: "loss2/fc"
type: "InnerProduct"
bottom: "loss2/conv"
top: "loss2/fc"
param {
lr_mult: 1
decay_mult: 1
}
param {
lr_mult: 2
decay_mult: 0
}
inner_product_param {
num_output: 1024
weight_filler {
type: "xavier"
std: 0.02
}
bias_filler {
type: "constant"
value: 0.2
}
}
}
layer {
name: "loss2/relu_fc"
type: "ReLU"
bottom: "loss2/fc"
top: "loss2/fc"
}
layer {
name: "loss2/drop_fc"
type: "Dropout"
bottom: "loss2/fc"
top: "loss2/fc"
dropout_param {
dropout_ratio: 0.7
}
}
layer {
name: "loss2/classifier"
type: "InnerProduct"
bottom: "loss2/fc"
top: "loss2/classifier"
param {
lr_mult: 1
decay_mult: 1
}
param {
lr_mult: 2
decay_mult: 0
}
inner_product_param {
num_output: 196
weight_filler {
type: "xavier"
std: 0.0009765625
}
bias_filler {
type: "constant"
value: 0
}
}
}
layer {
name: "loss2/loss"
type: "SoftmaxWithLoss"
bottom: "loss2/classifier"
bottom: "label"
top: "loss2/loss"
loss_weight: 0.3
}
layer {
name: "inception_4e/1x1"
type: "Convolution"
bottom: "inception_4d/output"
top: "inception_4e/1x1"
param {
lr_mult: 1
decay_mult: 1
}
param {
lr_mult: 2
decay_mult: 0
}
convolution_param {
num_output: 256
kernel_size: 1
weight_filler {
type: "xavier"
std: 0.03
}
bias_filler {
type: "constant"
value: 0.2
}
}
}
layer {
name: "inception_4e/relu_1x1"
type: "ReLU"
bottom: "inception_4e/1x1"
top: "inception_4e/1x1"
}
layer {
name: "inception_4e/3x3_reduce"
type: "Convolution"
bottom: "inception_4d/output"
top: "inception_4e/3x3_reduce"
param {
lr_mult: 1
decay_mult: 1
}
param {
lr_mult: 2
decay_mult: 0
}
convolution_param {
num_output: 160
kernel_size: 1
weight_filler {
type: "xavier"
std: 0.09
}
bias_filler {
type: "constant"
value: 0.2
}
}
}
layer {
name: "inception_4e/relu_3x3_reduce"
type: "ReLU"
bottom: "inception_4e/3x3_reduce"
top: "inception_4e/3x3_reduce"
}
layer {
name: "inception_4e/3x3"
type: "Convolution"
bottom: "inception_4e/3x3_reduce"
top: "inception_4e/3x3"
param {
lr_mult: 1
decay_mult: 1
}
param {
lr_mult: 2
decay_mult: 0
}
convolution_param {
num_output: 320
pad: 1
kernel_size: 3
weight_filler {
type: "xavier"
std: 0.03
}
bias_filler {
type: "constant"
value: 0.2
}
}
}
layer {
name: "inception_4e/relu_3x3"
type: "ReLU"
bottom: "inception_4e/3x3"
top: "inception_4e/3x3"
}
layer {
name: "inception_4e/5x5_reduce"
type: "Convolution"
bottom: "inception_4d/output"
top: "inception_4e/5x5_reduce"
param {
lr_mult: 1
decay_mult: 1
}
param {
lr_mult: 2
decay_mult: 0
}
convolution_param {
num_output: 32
kernel_size: 1
weight_filler {
type: "xavier"
std: 0.2
}
bias_filler {
type: "constant"
value: 0.2
I0509 17:28:51.285396 15842 layer_factory.hpp:77] Creating layer train-data
I0509 17:28:51.292805 15842 db_lmdb.cpp:35] Opened lmdb /mnt/bigdisk/AMBDIG8/digits/jobs/20200508-231203-8394/train_db
I0509 17:28:51.293503 15842 net.cpp:84] Creating Layer train-data
I0509 17:28:51.293514 15842 net.cpp:380] train-data -> data
I0509 17:28:51.293534 15842 net.cpp:380] train-data -> label
I0509 17:28:51.296815 15842 data_layer.cpp:45] output data size: 50,3,224,224
I0509 17:28:51.360519 15842 net.cpp:122] Setting up train-data
I0509 17:28:51.360543 15842 net.cpp:129] Top shape: 50 3 224 224 (7526400)
I0509 17:28:51.360548 15842 net.cpp:129] Top shape: 50 (50)
I0509 17:28:51.360550 15842 net.cpp:137] Memory required for data: 30105800
I0509 17:28:51.360559 15842 layer_factory.hpp:77] Creating layer label_train-data_1_split
I0509 17:28:51.360571 15842 net.cpp:84] Creating Layer label_train-data_1_split
I0509 17:28:51.360577 15842 net.cpp:406] label_train-data_1_split <- label
I0509 17:28:51.360610 15842 net.cpp:380] label_train-data_1_split -> label_train-data_1_split_0
I0509 17:28:51.360620 15842 net.cpp:380] label_train-data_1_split -> label_train-data_1_split_1
I0509 17:28:51.360625 15842 net.cpp:380] label_train-data_1_split -> label_train-data_1_split_2
I0509 17:28:51.360743 15842 net.cpp:122] Setting up label_train-data_1_split
I0509 17:28:51.360749 15842 net.cpp:129] Top shape: 50 (50)
I0509 17:28:51.360751 15842 net.cpp:129] Top shape: 50 (50)
I0509 17:28:51.360755 15842 net.cpp:129] Top shape: 50 (50)
I0509 17:28:51.360757 15842 net.cpp:137] Memory required for data: 30106400
I0509 17:28:51.360760 15842 layer_factory.hpp:77] Creating layer conv1/7x7_s2
I0509 17:28:51.360776 15842 net.cpp:84] Creating Layer conv1/7x7_s2
I0509 17:28:51.360780 15842 net.cpp:406] conv1/7x7_s2 <- data
I0509 17:28:51.360785 15842 net.cpp:380] conv1/7x7_s2 -> conv1/7x7_s2
I0509 17:28:52.793149 15842 net.cpp:122] Setting up conv1/7x7_s2
I0509 17:28:52.793172 15842 net.cpp:129] Top shape: 50 64 112 112 (40140800)
I0509 17:28:52.793175 15842 net.cpp:137] Memory required for data: 190669600
I0509 17:28:52.793195 15842 layer_factory.hpp:77] Creating layer conv1/relu_7x7
I0509 17:28:52.793206 15842 net.cpp:84] Creating Layer conv1/relu_7x7
I0509 17:28:52.793210 15842 net.cpp:406] conv1/relu_7x7 <- conv1/7x7_s2
I0509 17:28:52.793215 15842 net.cpp:367] conv1/relu_7x7 -> conv1/7x7_s2 (in-place)
I0509 17:28:52.793596 15842 net.cpp:122] Setting up conv1/relu_7x7
I0509 17:28:52.793606 15842 net.cpp:129] Top shape: 50 64 112 112 (40140800)
I0509 17:28:52.793609 15842 net.cpp:137] Memory required for data: 351232800
I0509 17:28:52.793612 15842 layer_factory.hpp:77] Creating layer pool1/3x3_s2
I0509 17:28:52.793619 15842 net.cpp:84] Creating Layer pool1/3x3_s2
I0509 17:28:52.793622 15842 net.cpp:406] pool1/3x3_s2 <- conv1/7x7_s2
I0509 17:28:52.793632 15842 net.cpp:380] pool1/3x3_s2 -> pool1/3x3_s2
I0509 17:28:52.793680 15842 net.cpp:122] Setting up pool1/3x3_s2
I0509 17:28:52.793686 15842 net.cpp:129] Top shape: 50 64 56 56 (10035200)
I0509 17:28:52.793689 15842 net.cpp:137] Memory required for data: 391373600
I0509 17:28:52.793691 15842 layer_factory.hpp:77] Creating layer pool1/norm1
I0509 17:28:52.793701 15842 net.cpp:84] Creating Layer pool1/norm1
I0509 17:28:52.793704 15842 net.cpp:406] pool1/norm1 <- pool1/3x3_s2
I0509 17:28:52.793709 15842 net.cpp:380] pool1/norm1 -> pool1/norm1
I0509 17:28:52.794512 15842 net.cpp:122] Setting up pool1/norm1
I0509 17:28:52.794523 15842 net.cpp:129] Top shape: 50 64 56 56 (10035200)
I0509 17:28:52.794524 15842 net.cpp:137] Memory required for data: 431514400
I0509 17:28:52.794528 15842 layer_factory.hpp:77] Creating layer conv2/3x3_reduce
I0509 17:28:52.794539 15842 net.cpp:84] Creating Layer conv2/3x3_reduce
I0509 17:28:52.794543 15842 net.cpp:406] conv2/3x3_reduce <- pool1/norm1
I0509 17:28:52.794550 15842 net.cpp:380] conv2/3x3_reduce -> conv2/3x3_reduce
I0509 17:28:52.796748 15842 net.cpp:122] Setting up conv2/3x3_reduce
I0509 17:28:52.796759 15842 net.cpp:129] Top shape: 50 64 56 56 (10035200)
I0509 17:28:52.796762 15842 net.cpp:137] Memory required for data: 471655200
I0509 17:28:52.796770 15842 layer_factory.hpp:77] Creating layer conv2/relu_3x3_reduce
I0509 17:28:52.796777 15842 net.cpp:84] Creating Layer conv2/relu_3x3_reduce
I0509 17:28:52.796780 15842 net.cpp:406] conv2/relu_3x3_reduce <- conv2/3x3_reduce
I0509 17:28:52.796787 15842 net.cpp:367] conv2/relu_3x3_reduce -> conv2/3x3_reduce (in-place)
I0509 17:28:52.797158 15842 net.cpp:122] Setting up conv2/relu_3x3_reduce
I0509 17:28:52.797166 15842 net.cpp:129] Top shape: 50 64 56 56 (10035200)
I0509 17:28:52.797169 15842 net.cpp:137] Memory required for data: 511796000
I0509 17:28:52.797173 15842 layer_factory.hpp:77] Creating layer conv2/3x3
I0509 17:28:52.797184 15842 net.cpp:84] Creating Layer conv2/3x3
I0509 17:28:52.797188 15842 net.cpp:406] conv2/3x3 <- conv2/3x3_reduce
I0509 17:28:52.797194 15842 net.cpp:380] conv2/3x3 -> conv2/3x3
I0509 17:28:52.801795 15842 net.cpp:122] Setting up conv2/3x3
I0509 17:28:52.801826 15842 net.cpp:129] Top shape: 50 192 56 56 (30105600)
I0509 17:28:52.801829 15842 net.cpp:137] Memory required for data: 632218400
I0509 17:28:52.801837 15842 layer_factory.hpp:77] Creating layer conv2/relu_3x3
I0509 17:28:52.801847 15842 net.cpp:84] Creating Layer conv2/relu_3x3
I0509 17:28:52.801851 15842 net.cpp:406] conv2/relu_3x3 <- conv2/3x3
I0509 17:28:52.801856 15842 net.cpp:367] conv2/relu_3x3 -> conv2/3x3 (in-place)
I0509 17:28:52.802240 15842 net.cpp:122] Setting up conv2/relu_3x3
I0509 17:28:52.802248 15842 net.cpp:129] Top shape: 50 192 56 56 (30105600)
I0509 17:28:52.802251 15842 net.cpp:137] Memory required for data: 752640800
I0509 17:28:52.802254 15842 layer_factory.hpp:77] Creating layer conv2/norm2
I0509 17:28:52.802263 15842 net.cpp:84] Creating Layer conv2/norm2
I0509 17:28:52.802265 15842 net.cpp:406] conv2/norm2 <- conv2/3x3
I0509 17:28:52.802270 15842 net.cpp:380] conv2/norm2 -> conv2/norm2
I0509 17:28:52.802847 15842 net.cpp:122] Setting up conv2/norm2
I0509 17:28:52.802856 15842 net.cpp:129] Top shape: 50 192 56 56 (30105600)
I0509 17:28:52.802860 15842 net.cpp:137] Memory required for data: 873063200
I0509 17:28:52.802862 15842 layer_factory.hpp:77] Creating layer pool2/3x3_s2
I0509 17:28:52.802868 15842 net.cpp:84] Creating Layer pool2/3x3_s2
I0509 17:28:52.802871 15842 net.cpp:406] pool2/3x3_s2 <- conv2/norm2
I0509 17:28:52.802877 15842 net.cpp:380] pool2/3x3_s2 -> pool2/3x3_s2
I0509 17:28:52.802908 15842 net.cpp:122] Setting up pool2/3x3_s2
I0509 17:28:52.802914 15842 net.cpp:129] Top shape: 50 192 28 28 (7526400)
I0509 17:28:52.802917 15842 net.cpp:137] Memory required for data: 903168800
I0509 17:28:52.802919 15842 layer_factory.hpp:77] Creating layer pool2/3x3_s2_pool2/3x3_s2_0_split
I0509 17:28:52.802925 15842 net.cpp:84] Creating Layer pool2/3x3_s2_pool2/3x3_s2_0_split
I0509 17:28:52.802929 15842 net.cpp:406] pool2/3x3_s2_pool2/3x3_s2_0_split <- pool2/3x3_s2
I0509 17:28:52.802933 15842 net.cpp:380] pool2/3x3_s2_pool2/3x3_s2_0_split -> pool2/3x3_s2_pool2/3x3_s2_0_split_0
I0509 17:28:52.802940 15842 net.cpp:380] pool2/3x3_s2_pool2/3x3_s2_0_split -> pool2/3x3_s2_pool2/3x3_s2_0_split_1
I0509 17:28:52.802945 15842 net.cpp:380] pool2/3x3_s2_pool2/3x3_s2_0_split -> pool2/3x3_s2_pool2/3x3_s2_0_split_2
I0509 17:28:52.802950 15842 net.cpp:380] pool2/3x3_s2_pool2/3x3_s2_0_split -> pool2/3x3_s2_pool2/3x3_s2_0_split_3
I0509 17:28:52.802994 15842 net.cpp:122] Setting up pool2/3x3_s2_pool2/3x3_s2_0_split
I0509 17:28:52.802999 15842 net.cpp:129] Top shape: 50 192 28 28 (7526400)
I0509 17:28:52.803001 15842 net.cpp:129] Top shape: 50 192 28 28 (7526400)
I0509 17:28:52.803004 15842 net.cpp:129] Top shape: 50 192 28 28 (7526400)
I0509 17:28:52.803007 15842 net.cpp:129] Top shape: 50 192 28 28 (7526400)
I0509 17:28:52.803010 15842 net.cpp:137] Memory required for data: 1023591200
I0509 17:28:52.803014 15842 layer_factory.hpp:77] Creating layer inception_3a/1x1
I0509 17:28:52.803022 15842 net.cpp:84] Creating Layer inception_3a/1x1
I0509 17:28:52.803025 15842 net.cpp:406] inception_3a/1x1 <- pool2/3x3_s2_pool2/3x3_s2_0_split_0
I0509 17:28:52.803031 15842 net.cpp:380] inception_3a/1x1 -> inception_3a/1x1
I0509 17:28:52.805235 15842 net.cpp:122] Setting up inception_3a/1x1
I0509 17:28:52.805246 15842 net.cpp:129] Top shape: 50 64 28 28 (2508800)
I0509 17:28:52.805249 15842 net.cpp:137] Memory required for data: 1033626400
I0509 17:28:52.805254 15842 layer_factory.hpp:77] Creating layer inception_3a/relu_1x1
I0509 17:28:52.805263 15842 net.cpp:84] Creating Layer inception_3a/relu_1x1
I0509 17:28:52.805265 15842 net.cpp:406] inception_3a/relu_1x1 <- inception_3a/1x1
I0509 17:28:52.805270 15842 net.cpp:367] inception_3a/relu_1x1 -> inception_3a/1x1 (in-place)
I0509 17:28:52.805644 15842 net.cpp:122] Setting up inception_3a/relu_1x1
I0509 17:28:52.805653 15842 net.cpp:129] Top shape: 50 64 28 28 (2508800)
I0509 17:28:52.805655 15842 net.cpp:137] Memory required for data: 1043661600
I0509 17:28:52.805660 15842 layer_factory.hpp:77] Creating layer inception_3a/3x3_reduce
I0509 17:28:52.805680 15842 net.cpp:84] Creating Layer inception_3a/3x3_reduce
I0509 17:28:52.805683 15842 net.cpp:406] inception_3a/3x3_reduce <- pool2/3x3_s2_pool2/3x3_s2_0_split_1
I0509 17:28:52.805691 15842 net.cpp:380] inception_3a/3x3_reduce -> inception_3a/3x3_reduce
I0509 17:28:52.809813 15842 net.cpp:122] Setting up inception_3a/3x3_reduce
I0509 17:28:52.809825 15842 net.cpp:129] Top shape: 50 96 28 28 (3763200)
I0509 17:28:52.809828 15842 net.cpp:137] Memory required for data: 1058714400
I0509 17:28:52.809837 15842 layer_factory.hpp:77] Creating layer inception_3a/relu_3x3_reduce
I0509 17:28:52.809846 15842 net.cpp:84] Creating Layer inception_3a/relu_3x3_reduce
I0509 17:28:52.809850 15842 net.cpp:406] inception_3a/relu_3x3_reduce <- inception_3a/3x3_reduce
I0509 17:28:52.809854 15842 net.cpp:367] inception_3a/relu_3x3_reduce -> inception_3a/3x3_reduce (in-place)
I0509 17:28:52.810407 15842 net.cpp:122] Setting up inception_3a/relu_3x3_reduce
I0509 17:28:52.810418 15842 net.cpp:129] Top shape: 50 96 28 28 (3763200)
I0509 17:28:52.810421 15842 net.cpp:137] Memory required for data: 1073767200
I0509 17:28:52.810425 15842 layer_factory.hpp:77] Creating layer inception_3a/3x3
I0509 17:28:52.810434 15842 net.cpp:84] Creating Layer inception_3a/3x3
I0509 17:28:52.810438 15842 net.cpp:406] inception_3a/3x3 <- inception_3a/3x3_reduce
I0509 17:28:52.810446 15842 net.cpp:380] inception_3a/3x3 -> inception_3a/3x3
I0509 17:28:52.813266 15842 net.cpp:122] Setting up inception_3a/3x3
I0509 17:28:52.813278 15842 net.cpp:129] Top shape: 50 128 28 28 (5017600)
I0509 17:28:52.813282 15842 net.cpp:137] Memory required for data: 1093837600
I0509 17:28:52.813287 15842 layer_factory.hpp:77] Creating layer inception_3a/relu_3x3
I0509 17:28:52.813293 15842 net.cpp:84] Creating Layer inception_3a/relu_3x3
I0509 17:28:52.813297 15842 net.cpp:406] inception_3a/relu_3x3 <- inception_3a/3x3
I0509 17:28:52.813302 15842 net.cpp:367] inception_3a/relu_3x3 -> inception_3a/3x3 (in-place)
I0509 17:28:52.813864 15842 net.cpp:122] Setting up inception_3a/relu_3x3
I0509 17:28:52.813874 15842 net.cpp:129] Top shape: 50 128 28 28 (5017600)
I0509 17:28:52.813876 15842 net.cpp:137] Memory required for data: 1113908000
I0509 17:28:52.813879 15842 layer_factory.hpp:77] Creating layer inception_3a/5x5_reduce
I0509 17:28:52.813890 15842 net.cpp:84] Creating Layer inception_3a/5x5_reduce
I0509 17:28:52.813894 15842 net.cpp:406] inception_3a/5x5_reduce <- pool2/3x3_s2_pool2/3x3_s2_0_split_2
I0509 17:28:52.813899 15842 net.cpp:380] inception_3a/5x5_reduce -> inception_3a/5x5_reduce
I0509 17:28:52.816697 15842 net.cpp:122] Setting up inception_3a/5x5_reduce
I0509 17:28:52.816707 15842 net.cpp:129] Top shape: 50 16 28 28 (627200)
I0509 17:28:52.816710 15842 net.cpp:137] Memory required for data: 1116416800
I0509 17:28:52.816716 15842 layer_factory.hpp:77] Creating layer inception_3a/relu_5x5_reduce
I0509 17:28:52.816725 15842 net.cpp:84] Creating Layer inception_3a/relu_5x5_reduce
I0509 17:28:52.816727 15842 net.cpp:406] inception_3a/relu_5x5_reduce <- inception_3a/5x5_reduce
I0509 17:28:52.816732 15842 net.cpp:367] inception_3a/relu_5x5_reduce -> inception_3a/5x5_reduce (in-place)
I0509 17:28:52.819165 15842 net.cpp:122] Setting up inception_3a/relu_5x5_reduce
I0509 17:28:52.819176 15842 net.cpp:129] Top shape: 50 16 28 28 (627200)
I0509 17:28:52.819180 15842 net.cpp:137] Memory required for data: 1118925600
I0509 17:28:52.819182 15842 layer_factory.hpp:77] Creating layer inception_3a/5x5
I0509 17:28:52.819192 15842 net.cpp:84] Creating Layer inception_3a/5x5
I0509 17:28:52.819196 15842 net.cpp:406] inception_3a/5x5 <- inception_3a/5x5_reduce
I0509 17:28:52.819205 15842 net.cpp:380] inception_3a/5x5 -> inception_3a/5x5
I0509 17:28:52.821262 15842 net.cpp:122] Setting up inception_3a/5x5
I0509 17:28:52.821272 15842 net.cpp:129] Top shape: 50 32 28 28 (1254400)
I0509 17:28:52.821275 15842 net.cpp:137] Memory required for data: 1123943200
I0509 17:28:52.821281 15842 layer_factory.hpp:77] Creating layer inception_3a/relu_5x5
I0509 17:28:52.821288 15842 net.cpp:84] Creating Layer inception_3a/relu_5x5
I0509 17:28:52.821308 15842 net.cpp:406] inception_3a/relu_5x5 <- inception_3a/5x5
I0509 17:28:52.821313 15842 net.cpp:367] inception_3a/relu_5x5 -> inception_3a/5x5 (in-place)
I0509 17:28:52.821871 15842 net.cpp:122] Setting up inception_3a/relu_5x5
I0509 17:28:52.821880 15842 net.cpp:129] Top shape: 50 32 28 28 (1254400)
I0509 17:28:52.821883 15842 net.cpp:137] Memory required for data: 1128960800
I0509 17:28:52.821887 15842 layer_factory.hpp:77] Creating layer inception_3a/pool
I0509 17:28:52.821894 15842 net.cpp:84] Creating Layer inception_3a/pool
I0509 17:28:52.821897 15842 net.cpp:406] inception_3a/pool <- pool2/3x3_s2_pool2/3x3_s2_0_split_3
I0509 17:28:52.821903 15842 net.cpp:380] inception_3a/pool -> inception_3a/pool
I0509 17:28:52.821943 15842 net.cpp:122] Setting up inception_3a/pool
I0509 17:28:52.821949 15842 net.cpp:129] Top shape: 50 192 28 28 (7526400)
I0509 17:28:52.821951 15842 net.cpp:137] Memory required for data: 1159066400
I0509 17:28:52.821954 15842 layer_factory.hpp:77] Creating layer inception_3a/pool_proj
I0509 17:28:52.821962 15842 net.cpp:84] Creating Layer inception_3a/pool_proj
I0509 17:28:52.821966 15842 net.cpp:406] inception_3a/pool_proj <- inception_3a/pool
I0509 17:28:52.821974 15842 net.cpp:380] inception_3a/pool_proj -> inception_3a/pool_proj
I0509 17:28:52.824303 15842 net.cpp:122] Setting up inception_3a/pool_proj
I0509 17:28:52.824316 15842 net.cpp:129] Top shape: 50 32 28 28 (1254400)
I0509 17:28:52.824318 15842 net.cpp:137] Memory required for data: 1164084000
I0509 17:28:52.824326 15842 layer_factory.hpp:77] Creating layer inception_3a/relu_pool_proj
I0509 17:28:52.824333 15842 net.cpp:84] Creating Layer inception_3a/relu_pool_proj
I0509 17:28:52.824337 15842 net.cpp:406] inception_3a/relu_pool_proj <- inception_3a/pool_proj
I0509 17:28:52.824343 15842 net.cpp:367] inception_3a/relu_pool_proj -> inception_3a/pool_proj (in-place)
I0509 17:28:52.824857 15842 net.cpp:122] Setting up inception_3a/relu_pool_proj
I0509 17:28:52.824867 15842 net.cpp:129] Top shape: 50 32 28 28 (1254400)
I0509 17:28:52.824869 15842 net.cpp:137] Memory required for data: 1169101600
I0509 17:28:52.824872 15842 layer_factory.hpp:77] Creating layer inception_3a/output
I0509 17:28:52.824880 15842 net.cpp:84] Creating Layer inception_3a/output
I0509 17:28:52.824883 15842 net.cpp:406] inception_3a/output <- inception_3a/1x1
I0509 17:28:52.824887 15842 net.cpp:406] inception_3a/output <- inception_3a/3x3
I0509 17:28:52.824892 15842 net.cpp:406] inception_3a/output <- inception_3a/5x5
I0509 17:28:52.824894 15842 net.cpp:406] inception_3a/output <- inception_3a/pool_proj
I0509 17:28:52.824898 15842 net.cpp:380] inception_3a/output -> inception_3a/output
I0509 17:28:52.824926 15842 net.cpp:122] Setting up inception_3a/output
I0509 17:28:52.824932 15842 net.cpp:129] Top shape: 50 256 28 28 (10035200)
I0509 17:28:52.824934 15842 net.cpp:137] Memory required for data: 1209242400
I0509 17:28:52.824937 15842 layer_factory.hpp:77] Creating layer inception_3a/output_inception_3a/output_0_split
I0509 17:28:52.824944 15842 net.cpp:84] Creating Layer inception_3a/output_inception_3a/output_0_split
I0509 17:28:52.824947 15842 net.cpp:406] inception_3a/output_inception_3a/output_0_split <- inception_3a/output
I0509 17:28:52.824952 15842 net.cpp:380] inception_3a/output_inception_3a/output_0_split -> inception_3a/output_inception_3a/output_0_split_0
I0509 17:28:52.824959 15842 net.cpp:380] inception_3a/output_inception_3a/output_0_split -> inception_3a/output_inception_3a/output_0_split_1
I0509 17:28:52.824965 15842 net.cpp:380] inception_3a/output_inception_3a/output_0_split -> inception_3a/output_inception_3a/output_0_split_2
I0509 17:28:52.824970 15842 net.cpp:380] inception_3a/output_inception_3a/output_0_split -> inception_3a/output_inception_3a/output_0_split_3
I0509 17:28:52.825017 15842 net.cpp:122] Setting up inception_3a/output_inception_3a/output_0_split
I0509 17:28:52.825022 15842 net.cpp:129] Top shape: 50 256 28 28 (10035200)
I0509 17:28:52.825026 15842 net.cpp:129] Top shape: 50 256 28 28 (10035200)
I0509 17:28:52.825040 15842 net.cpp:129] Top shape: 50 256 28 28 (10035200)
I0509 17:28:52.825043 15842 net.cpp:129] Top shape: 50 256 28 28 (10035200)
I0509 17:28:52.825045 15842 net.cpp:137] Memory required for data: 1369805600
I0509 17:28:52.825048 15842 layer_factory.hpp:77] Creating layer inception_3b/1x1
I0509 17:28:52.825059 15842 net.cpp:84] Creating Layer inception_3b/1x1
I0509 17:28:52.825063 15842 net.cpp:406] inception_3b/1x1 <- inception_3a/output_inception_3a/output_0_split_0
I0509 17:28:52.825070 15842 net.cpp:380] inception_3b/1x1 -> inception_3b/1x1
I0509 17:28:52.828804 15842 net.cpp:122] Setting up inception_3b/1x1
I0509 17:28:52.828819 15842 net.cpp:129] Top shape: 50 128 28 28 (5017600)
I0509 17:28:52.828822 15842 net.cpp:137] Memory required for data: 1389876000
I0509 17:28:52.828828 15842 layer_factory.hpp:77] Creating layer inception_3b/relu_1x1
I0509 17:28:52.828835 15842 net.cpp:84] Creating Layer inception_3b/relu_1x1
I0509 17:28:52.828838 15842 net.cpp:406] inception_3b/relu_1x1 <- inception_3b/1x1
I0509 17:28:52.828843 15842 net.cpp:367] inception_3b/relu_1x1 -> inception_3b/1x1 (in-place)
I0509 17:28:52.829432 15842 net.cpp:122] Setting up inception_3b/relu_1x1
I0509 17:28:52.829442 15842 net.cpp:129] Top shape: 50 128 28 28 (5017600)
I0509 17:28:52.829444 15842 net.cpp:137] Memory required for data: 1409946400
I0509 17:28:52.829448 15842 layer_factory.hpp:77] Creating layer inception_3b/3x3_reduce
I0509 17:28:52.829459 15842 net.cpp:84] Creating Layer inception_3b/3x3_reduce
I0509 17:28:52.829463 15842 net.cpp:406] inception_3b/3x3_reduce <- inception_3a/output_inception_3a/output_0_split_1
I0509 17:28:52.829470 15842 net.cpp:380] inception_3b/3x3_reduce -> inception_3b/3x3_reduce
I0509 17:28:52.831689 15842 net.cpp:122] Setting up inception_3b/3x3_reduce
I0509 17:28:52.831699 15842 net.cpp:129] Top shape: 50 128 28 28 (5017600)
I0509 17:28:52.831702 15842 net.cpp:137] Memory required for data: 1430016800
I0509 17:28:52.831708 15842 layer_factory.hpp:77] Creating layer inception_3b/relu_3x3_reduce
I0509 17:28:52.831715 15842 net.cpp:84] Creating Layer inception_3b/relu_3x3_reduce
I0509 17:28:52.831719 15842 net.cpp:406] inception_3b/relu_3x3_reduce <- inception_3b/3x3_reduce
I0509 17:28:52.831724 15842 net.cpp:367] inception_3b/relu_3x3_reduce -> inception_3b/3x3_reduce (in-place)
I0509 17:28:52.832275 15842 net.cpp:122] Setting up inception_3b/relu_3x3_reduce
I0509 17:28:52.832284 15842 net.cpp:129] Top shape: 50 128 28 28 (5017600)
I0509 17:28:52.832288 15842 net.cpp:137] Memory required for data: 1450087200
I0509 17:28:52.832290 15842 layer_factory.hpp:77] Creating layer inception_3b/3x3
I0509 17:28:52.832309 15842 net.cpp:84] Creating Layer inception_3b/3x3
I0509 17:28:52.832314 15842 net.cpp:406] inception_3b/3x3 <- inception_3b/3x3_reduce
I0509 17:28:52.832319 15842 net.cpp:380] inception_3b/3x3 -> inception_3b/3x3
I0509 17:28:52.836329 15842 net.cpp:122] Setting up inception_3b/3x3
I0509 17:28:52.836340 15842 net.cpp:129] Top shape: 50 192 28 28 (7526400)
I0509 17:28:52.836344 15842 net.cpp:137] Memory required for data: 1480192800
I0509 17:28:52.836349 15842 layer_factory.hpp:77] Creating layer inception_3b/relu_3x3
I0509 17:28:52.836357 15842 net.cpp:84] Creating Layer inception_3b/relu_3x3
I0509 17:28:52.836360 15842 net.cpp:406] inception_3b/relu_3x3 <- inception_3b/3x3
I0509 17:28:52.836366 15842 net.cpp:367] inception_3b/relu_3x3 -> inception_3b/3x3 (in-place)
I0509 17:28:52.838111 15842 net.cpp:122] Setting up inception_3b/relu_3x3
I0509 17:28:52.838124 15842 net.cpp:129] Top shape: 50 192 28 28 (7526400)
I0509 17:28:52.838126 15842 net.cpp:137] Memory required for data: 1510298400
I0509 17:28:52.838129 15842 layer_factory.hpp:77] Creating layer inception_3b/5x5_reduce
I0509 17:28:52.838140 15842 net.cpp:84] Creating Layer inception_3b/5x5_reduce
I0509 17:28:52.838142 15842 net.cpp:406] inception_3b/5x5_reduce <- inception_3a/output_inception_3a/output_0_split_2
I0509 17:28:52.838150 15842 net.cpp:380] inception_3b/5x5_reduce -> inception_3b/5x5_reduce
I0509 17:28:52.840204 15842 net.cpp:122] Setting up inception_3b/5x5_reduce
I0509 17:28:52.840215 15842 net.cpp:129] Top shape: 50 32 28 28 (1254400)
I0509 17:28:52.840219 15842 net.cpp:137] Memory required for data: 1515316000
I0509 17:28:52.840224 15842 layer_factory.hpp:77] Creating layer inception_3b/relu_5x5_reduce
I0509 17:28:52.840230 15842 net.cpp:84] Creating Layer inception_3b/relu_5x5_reduce
I0509 17:28:52.840234 15842 net.cpp:406] inception_3b/relu_5x5_reduce <- inception_3b/5x5_reduce
I0509 17:28:52.840238 15842 net.cpp:367] inception_3b/relu_5x5_reduce -> inception_3b/5x5_reduce (in-place)
I0509 17:28:52.840802 15842 net.cpp:122] Setting up inception_3b/relu_5x5_reduce
I0509 17:28:52.840812 15842 net.cpp:129] Top shape: 50 32 28 28 (1254400)
I0509 17:28:52.840814 15842 net.cpp:137] Memory required for data: 1520333600
I0509 17:28:52.840818 15842 layer_factory.hpp:77] Creating layer inception_3b/5x5
I0509 17:28:52.840827 15842 net.cpp:84] Creating Layer inception_3b/5x5
I0509 17:28:52.840832 15842 net.cpp:406] inception_3b/5x5 <- inception_3b/5x5_reduce
I0509 17:28:52.840838 15842 net.cpp:380] inception_3b/5x5 -> inception_3b/5x5
I0509 17:28:52.843390 15842 net.cpp:122] Setting up inception_3b/5x5
I0509 17:28:52.843401 15842 net.cpp:129] Top shape: 50 96 28 28 (3763200)
I0509 17:28:52.843405 15842 net.cpp:137] Memory required for data: 1535386400
I0509 17:28:52.843410 15842 layer_factory.hpp:77] Creating layer inception_3b/relu_5x5
I0509 17:28:52.843416 15842 net.cpp:84] Creating Layer inception_3b/relu_5x5
I0509 17:28:52.843420 15842 net.cpp:406] inception_3b/relu_5x5 <- inception_3b/5x5
I0509 17:28:52.843426 15842 net.cpp:367] inception_3b/relu_5x5 -> inception_3b/5x5 (in-place)
I0509 17:28:52.843806 15842 net.cpp:122] Setting up inception_3b/relu_5x5
I0509 17:28:52.843816 15842 net.cpp:129] Top shape: 50 96 28 28 (3763200)
I0509 17:28:52.843818 15842 net.cpp:137] Memory required for data: 1550439200
I0509 17:28:52.843822 15842 layer_factory.hpp:77] Creating layer inception_3b/pool
I0509 17:28:52.843832 15842 net.cpp:84] Creating Layer inception_3b/pool
I0509 17:28:52.843835 15842 net.cpp:406] inception_3b/pool <- inception_3a/output_inception_3a/output_0_split_3
I0509 17:28:52.843840 15842 net.cpp:380] inception_3b/pool -> inception_3b/pool
I0509 17:28:52.843883 15842 net.cpp:122] Setting up inception_3b/pool
I0509 17:28:52.843888 15842 net.cpp:129] Top shape: 50 256 28 28 (10035200)
I0509 17:28:52.843890 15842 net.cpp:137] Memory required for data: 1590580000
I0509 17:28:52.843894 15842 layer_factory.hpp:77] Creating layer inception_3b/pool_proj
I0509 17:28:52.843902 15842 net.cpp:84] Creating Layer inception_3b/pool_proj
I0509 17:28:52.843905 15842 net.cpp:406] inception_3b/pool_proj <- inception_3b/pool
I0509 17:28:52.843912 15842 net.cpp:380] inception_3b/pool_proj -> inception_3b/pool_proj
I0509 17:28:52.847587 15842 net.cpp:122] Setting up inception_3b/pool_proj
I0509 17:28:52.847599 15842 net.cpp:129] Top shape: 50 64 28 28 (2508800)
I0509 17:28:52.847601 15842 net.cpp:137] Memory required for data: 1600615200
I0509 17:28:52.847607 15842 layer_factory.hpp:77] Creating layer inception_3b/relu_pool_proj
I0509 17:28:52.847615 15842 net.cpp:84] Creating Layer inception_3b/relu_pool_proj
I0509 17:28:52.847620 15842 net.cpp:406] inception_3b/relu_pool_proj <- inception_3b/pool_proj
I0509 17:28:52.847625 15842 net.cpp:367] inception_3b/relu_pool_proj -> inception_3b/pool_proj (in-place)
I0509 17:28:52.848006 15842 net.cpp:122] Setting up inception_3b/relu_pool_proj
I0509 17:28:52.848016 15842 net.cpp:129] Top shape: 50 64 28 28 (2508800)
I0509 17:28:52.848019 15842 net.cpp:137] Memory required for data: 1610650400
I0509 17:28:52.848022 15842 layer_factory.hpp:77] Creating layer inception_3b/output
I0509 17:28:52.848028 15842 net.cpp:84] Creating Layer inception_3b/output
I0509 17:28:52.848031 15842 net.cpp:406] inception_3b/output <- inception_3b/1x1
I0509 17:28:52.848035 15842 net.cpp:406] inception_3b/output <- inception_3b/3x3
I0509 17:28:52.848039 15842 net.cpp:406] inception_3b/output <- inception_3b/5x5
I0509 17:28:52.848057 15842 net.cpp:406] inception_3b/output <- inception_3b/pool_proj
I0509 17:28:52.848064 15842 net.cpp:380] inception_3b/output -> inception_3b/output
I0509 17:28:52.848091 15842 net.cpp:122] Setting up inception_3b/output
I0509 17:28:52.848098 15842 net.cpp:129] Top shape: 50 480 28 28 (18816000)
I0509 17:28:52.848100 15842 net.cpp:137] Memory required for data: 1685914400
I0509 17:28:52.848104 15842 layer_factory.hpp:77] Creating layer pool3/3x3_s2
I0509 17:28:52.848109 15842 net.cpp:84] Creating Layer pool3/3x3_s2
I0509 17:28:52.848111 15842 net.cpp:406] pool3/3x3_s2 <- inception_3b/output
I0509 17:28:52.848116 15842 net.cpp:380] pool3/3x3_s2 -> pool3/3x3_s2
I0509 17:28:52.848150 15842 net.cpp:122] Setting up pool3/3x3_s2
I0509 17:28:52.848156 15842 net.cpp:129] Top shape: 50 480 14 14 (4704000)
I0509 17:28:52.848158 15842 net.cpp:137] Memory required for data: 1704730400
I0509 17:28:52.848161 15842 layer_factory.hpp:77] Creating layer pool3/3x3_s2_pool3/3x3_s2_0_split
I0509 17:28:52.848166 15842 net.cpp:84] Creating Layer pool3/3x3_s2_pool3/3x3_s2_0_split
I0509 17:28:52.848170 15842 net.cpp:406] pool3/3x3_s2_pool3/3x3_s2_0_split <- pool3/3x3_s2
I0509 17:28:52.848174 15842 net.cpp:380] pool3/3x3_s2_pool3/3x3_s2_0_split -> pool3/3x3_s2_pool3/3x3_s2_0_split_0
I0509 17:28:52.848181 15842 net.cpp:380] pool3/3x3_s2_pool3/3x3_s2_0_split -> pool3/3x3_s2_pool3/3x3_s2_0_split_1
I0509 17:28:52.848187 15842 net.cpp:380] pool3/3x3_s2_pool3/3x3_s2_0_split -> pool3/3x3_s2_pool3/3x3_s2_0_split_2
I0509 17:28:52.848191 15842 net.cpp:380] pool3/3x3_s2_pool3/3x3_s2_0_split -> pool3/3x3_s2_pool3/3x3_s2_0_split_3
I0509 17:28:52.848237 15842 net.cpp:122] Setting up pool3/3x3_s2_pool3/3x3_s2_0_split
I0509 17:28:52.848242 15842 net.cpp:129] Top shape: 50 480 14 14 (4704000)
I0509 17:28:52.848244 15842 net.cpp:129] Top shape: 50 480 14 14 (4704000)
I0509 17:28:52.848248 15842 net.cpp:129] Top shape: 50 480 14 14 (4704000)
I0509 17:28:52.848251 15842 net.cpp:129] Top shape: 50 480 14 14 (4704000)
I0509 17:28:52.848253 15842 net.cpp:137] Memory required for data: 1779994400
I0509 17:28:52.848256 15842 layer_factory.hpp:77] Creating layer inception_4a/1x1
I0509 17:28:52.848264 15842 net.cpp:84] Creating Layer inception_4a/1x1
I0509 17:28:52.848268 15842 net.cpp:406] inception_4a/1x1 <- pool3/3x3_s2_pool3/3x3_s2_0_split_0
I0509 17:28:52.848274 15842 net.cpp:380] inception_4a/1x1 -> inception_4a/1x1
I0509 17:28:52.850872 15842 net.cpp:122] Setting up inception_4a/1x1
I0509 17:28:52.850881 15842 net.cpp:129] Top shape: 50 192 14 14 (1881600)
I0509 17:28:52.850884 15842 net.cpp:137] Memory required for data: 1787520800
I0509 17:28:52.850890 15842 layer_factory.hpp:77] Creating layer inception_4a/relu_1x1
I0509 17:28:52.850896 15842 net.cpp:84] Creating Layer inception_4a/relu_1x1
I0509 17:28:52.850899 15842 net.cpp:406] inception_4a/relu_1x1 <- inception_4a/1x1
I0509 17:28:52.850904 15842 net.cpp:367] inception_4a/relu_1x1 -> inception_4a/1x1 (in-place)
I0509 17:28:52.851464 15842 net.cpp:122] Setting up inception_4a/relu_1x1
I0509 17:28:52.851475 15842 net.cpp:129] Top shape: 50 192 14 14 (1881600)
I0509 17:28:52.851477 15842 net.cpp:137] Memory required for data: 1795047200
I0509 17:28:52.851480 15842 layer_factory.hpp:77] Creating layer inception_4a/3x3_reduce
I0509 17:28:52.851492 15842 net.cpp:84] Creating Layer inception_4a/3x3_reduce
I0509 17:28:52.851496 15842 net.cpp:406] inception_4a/3x3_reduce <- pool3/3x3_s2_pool3/3x3_s2_0_split_1
I0509 17:28:52.851505 15842 net.cpp:380] inception_4a/3x3_reduce -> inception_4a/3x3_reduce
I0509 17:28:52.853709 15842 net.cpp:122] Setting up inception_4a/3x3_reduce
I0509 17:28:52.853721 15842 net.cpp:129] Top shape: 50 96 14 14 (940800)
I0509 17:28:52.853724 15842 net.cpp:137] Memory required for data: 1798810400
I0509 17:28:52.853736 15842 layer_factory.hpp:77] Creating layer inception_4a/relu_3x3_reduce
I0509 17:28:52.853742 15842 net.cpp:84] Creating Layer inception_4a/relu_3x3_reduce
I0509 17:28:52.853746 15842 net.cpp:406] inception_4a/relu_3x3_reduce <- inception_4a/3x3_reduce
I0509 17:28:52.853765 15842 net.cpp:367] inception_4a/relu_3x3_reduce -> inception_4a/3x3_reduce (in-place)
I0509 17:28:52.855482 15842 net.cpp:122] Setting up inception_4a/relu_3x3_reduce
I0509 17:28:52.855494 15842 net.cpp:129] Top shape: 50 96 14 14 (940800)
I0509 17:28:52.855497 15842 net.cpp:137] Memory required for data: 1802573600
I0509 17:28:52.855500 15842 layer_factory.hpp:77] Creating layer inception_4a/3x3
I0509 17:28:52.855509 15842 net.cpp:84] Creating Layer inception_4a/3x3
I0509 17:28:52.855513 15842 net.cpp:406] inception_4a/3x3 <- inception_4a/3x3_reduce
I0509 17:28:52.855520 15842 net.cpp:380] inception_4a/3x3 -> inception_4a/3x3
I0509 17:28:52.859367 15842 net.cpp:122] Setting up inception_4a/3x3
I0509 17:28:52.859377 15842 net.cpp:129] Top shape: 50 208 14 14 (2038400)
I0509 17:28:52.859380 15842 net.cpp:137] Memory required for data: 1810727200
I0509 17:28:52.859386 15842 layer_factory.hpp:77] Creating layer inception_4a/relu_3x3
I0509 17:28:52.859392 15842 net.cpp:84] Creating Layer inception_4a/relu_3x3
I0509 17:28:52.859395 15842 net.cpp:406] inception_4a/relu_3x3 <- inception_4a/3x3
I0509 17:28:52.859401 15842 net.cpp:367] inception_4a/relu_3x3 -> inception_4a/3x3 (in-place)
I0509 17:28:52.859959 15842 net.cpp:122] Setting up inception_4a/relu_3x3
I0509 17:28:52.859971 15842 net.cpp:129] Top shape: 50 208 14 14 (2038400)
I0509 17:28:52.859973 15842 net.cpp:137] Memory required for data: 1818880800
I0509 17:28:52.859977 15842 layer_factory.hpp:77] Creating layer inception_4a/5x5_reduce
I0509 17:28:52.859985 15842 net.cpp:84] Creating Layer inception_4a/5x5_reduce
I0509 17:28:52.859989 15842 net.cpp:406] inception_4a/5x5_reduce <- pool3/3x3_s2_pool3/3x3_s2_0_split_2
I0509 17:28:52.859997 15842 net.cpp:380] inception_4a/5x5_reduce -> inception_4a/5x5_reduce
I0509 17:28:52.862035 15842 net.cpp:122] Setting up inception_4a/5x5_reduce
I0509 17:28:52.862044 15842 net.cpp:129] Top shape: 50 16 14 14 (156800)
I0509 17:28:52.862047 15842 net.cpp:137] Memory required for data: 1819508000
I0509 17:28:52.862053 15842 layer_factory.hpp:77] Creating layer inception_4a/relu_5x5_reduce
I0509 17:28:52.862061 15842 net.cpp:84] Creating Layer inception_4a/relu_5x5_reduce
I0509 17:28:52.862064 15842 net.cpp:406] inception_4a/relu_5x5_reduce <- inception_4a/5x5_reduce
I0509 17:28:52.862069 15842 net.cpp:367] inception_4a/relu_5x5_reduce -> inception_4a/5x5_reduce (in-place)
I0509 17:28:52.862629 15842 net.cpp:122] Setting up inception_4a/relu_5x5_reduce
I0509 17:28:52.862638 15842 net.cpp:129] Top shape: 50 16 14 14 (156800)
I0509 17:28:52.862641 15842 net.cpp:137] Memory required for data: 1820135200
I0509 17:28:52.862644 15842 layer_factory.hpp:77] Creating layer inception_4a/5x5
I0509 17:28:52.862653 15842 net.cpp:84] Creating Layer inception_4a/5x5
I0509 17:28:52.862658 15842 net.cpp:406] inception_4a/5x5 <- inception_4a/5x5_reduce
I0509 17:28:52.862665 15842 net.cpp:380] inception_4a/5x5 -> inception_4a/5x5
I0509 17:28:52.866398 15842 net.cpp:122] Setting up inception_4a/5x5
I0509 17:28:52.866408 15842 net.cpp:129] Top shape: 50 48 14 14 (470400)
I0509 17:28:52.866411 15842 net.cpp:137] Memory required for data: 1822016800
I0509 17:28:52.866417 15842 layer_factory.hpp:77] Creating layer inception_4a/relu_5x5
I0509 17:28:52.866425 15842 net.cpp:84] Creating Layer inception_4a/relu_5x5
I0509 17:28:52.866430 15842 net.cpp:406] inception_4a/relu_5x5 <- inception_4a/5x5
I0509 17:28:52.866436 15842 net.cpp:367] inception_4a/relu_5x5 -> inception_4a/5x5 (in-place)
I0509 17:28:52.866812 15842 net.cpp:122] Setting up inception_4a/relu_5x5
I0509 17:28:52.866820 15842 net.cpp:129] Top shape: 50 48 14 14 (470400)
I0509 17:28:52.866823 15842 net.cpp:137] Memory required for data: 1823898400
I0509 17:28:52.866827 15842 layer_factory.hpp:77] Creating layer inception_4a/pool
I0509 17:28:52.866832 15842 net.cpp:84] Creating Layer inception_4a/pool
I0509 17:28:52.866835 15842 net.cpp:406] inception_4a/pool <- pool3/3x3_s2_pool3/3x3_s2_0_split_3
I0509 17:28:52.866842 15842 net.cpp:380] inception_4a/pool -> inception_4a/pool
I0509 17:28:52.866896 15842 net.cpp:122] Setting up inception_4a/pool
I0509 17:28:52.866902 15842 net.cpp:129] Top shape: 50 480 14 14 (4704000)
I0509 17:28:52.866905 15842 net.cpp:137] Memory required for data: 1842714400
I0509 17:28:52.866907 15842 layer_factory.hpp:77] Creating layer inception_4a/pool_proj
I0509 17:28:52.866919 15842 net.cpp:84] Creating Layer inception_4a/pool_proj
I0509 17:28:52.866922 15842 net.cpp:406] inception_4a/pool_proj <- inception_4a/pool
I0509 17:28:52.866928 15842 net.cpp:380] inception_4a/pool_proj -> inception_4a/pool_proj
I0509 17:28:52.869400 15842 net.cpp:122] Setting up inception_4a/pool_proj
I0509 17:28:52.869410 15842 net.cpp:129] Top shape: 50 64 14 14 (627200)
I0509 17:28:52.869413 15842 net.cpp:137] Memory required for data: 1845223200
I0509 17:28:52.869419 15842 layer_factory.hpp:77] Creating layer inception_4a/relu_pool_proj
I0509 17:28:52.869426 15842 net.cpp:84] Creating Layer inception_4a/relu_pool_proj
I0509 17:28:52.869428 15842 net.cpp:406] inception_4a/relu_pool_proj <- inception_4a/pool_proj
I0509 17:28:52.869436 15842 net.cpp:367] inception_4a/relu_pool_proj -> inception_4a/pool_proj (in-place)
I0509 17:28:52.869994 15842 net.cpp:122] Setting up inception_4a/relu_pool_proj
I0509 17:28:52.870003 15842 net.cpp:129] Top shape: 50 64 14 14 (627200)
I0509 17:28:52.870007 15842 net.cpp:137] Memory required for data: 1847732000
I0509 17:28:52.870009 15842 layer_factory.hpp:77] Creating layer inception_4a/output
I0509 17:28:52.870014 15842 net.cpp:84] Creating Layer inception_4a/output
I0509 17:28:52.870018 15842 net.cpp:406] inception_4a/output <- inception_4a/1x1
I0509 17:28:52.870023 15842 net.cpp:406] inception_4a/output <- inception_4a/3x3
I0509 17:28:52.870028 15842 net.cpp:406] inception_4a/output <- inception_4a/5x5
I0509 17:28:52.870033 15842 net.cpp:406] inception_4a/output <- inception_4a/pool_proj
I0509 17:28:52.870036 15842 net.cpp:380] inception_4a/output -> inception_4a/output
I0509 17:28:52.870065 15842 net.cpp:122] Setting up inception_4a/output
I0509 17:28:52.870070 15842 net.cpp:129] Top shape: 50 512 14 14 (5017600)
I0509 17:28:52.870072 15842 net.cpp:137] Memory required for data: 1867802400
I0509 17:28:52.870075 15842 layer_factory.hpp:77] Creating layer inception_4a/output_inception_4a/output_0_split
I0509 17:28:52.870080 15842 net.cpp:84] Creating Layer inception_4a/output_inception_4a/output_0_split
I0509 17:28:52.870083 15842 net.cpp:406] inception_4a/output_inception_4a/output_0_split <- inception_4a/output
I0509 17:28:52.870090 15842 net.cpp:380] inception_4a/output_inception_4a/output_0_split -> inception_4a/output_inception_4a/output_0_split_0
I0509 17:28:52.870096 15842 net.cpp:380] inception_4a/output_inception_4a/output_0_split -> inception_4a/output_inception_4a/output_0_split_1
I0509 17:28:52.870101 15842 net.cpp:380] inception_4a/output_inception_4a/output_0_split -> inception_4a/output_inception_4a/output_0_split_2
I0509 17:28:52.870108 15842 net.cpp:380] inception_4a/output_inception_4a/output_0_split -> inception_4a/output_inception_4a/output_0_split_3
I0509 17:28:52.870113 15842 net.cpp:380] inception_4a/output_inception_4a/output_0_split -> inception_4a/output_inception_4a/output_0_split_4
I0509 17:28:52.870168 15842 net.cpp:122] Setting up inception_4a/output_inception_4a/output_0_split
I0509 17:28:52.870173 15842 net.cpp:129] Top shape: 50 512 14 14 (5017600)
I0509 17:28:52.870177 15842 net.cpp:129] Top shape: 50 512 14 14 (5017600)
I0509 17:28:52.870179 15842 net.cpp:129] Top shape: 50 512 14 14 (5017600)
I0509 17:28:52.870182 15842 net.cpp:129] Top shape: 50 512 14 14 (5017600)
I0509 17:28:52.870187 15842 net.cpp:129] Top shape: 50 512 14 14 (5017600)
I0509 17:28:52.870188 15842 net.cpp:137] Memory required for data: 1968154400
I0509 17:28:52.870191 15842 layer_factory.hpp:77] Creating layer loss1/ave_pool
I0509 17:28:52.870198 15842 net.cpp:84] Creating Layer loss1/ave_pool
I0509 17:28:52.870200 15842 net.cpp:406] loss1/ave_pool <- inception_4a/output_inception_4a/output_0_split_0
I0509 17:28:52.870204 15842 net.cpp:380] loss1/ave_pool -> loss1/ave_pool
I0509 17:28:52.870622 15842 net.cpp:122] Setting up loss1/ave_pool
I0509 17:28:52.870631 15842 net.cpp:129] Top shape: 50 512 4 4 (409600)
I0509 17:28:52.870633 15842 net.cpp:137] Memory required for data: 1969792800
I0509 17:28:52.870636 15842 layer_factory.hpp:77] Creating layer loss1/conv
I0509 17:28:52.870645 15842 net.cpp:84] Creating Layer loss1/conv
I0509 17:28:52.870649 15842 net.cpp:406] loss1/conv <- loss1/ave_pool
I0509 17:28:52.870656 15842 net.cpp:380] loss1/conv -> loss1/conv
I0509 17:28:52.874337 15842 net.cpp:122] Setting up loss1/conv
I0509 17:28:52.874348 15842 net.cpp:129] Top shape: 50 128 4 4 (102400)
I0509 17:28:52.874351 15842 net.cpp:137] Memory required for data: 1970202400
I0509 17:28:52.874357 15842 layer_factory.hpp:77] Creating layer loss1/relu_conv
I0509 17:28:52.874364 15842 net.cpp:84] Creating Layer loss1/relu_conv
I0509 17:28:52.874368 15842 net.cpp:406] loss1/relu_conv <- loss1/conv
I0509 17:28:52.874373 15842 net.cpp:367] loss1/relu_conv -> loss1/conv (in-place)
I0509 17:28:52.874935 15842 net.cpp:122] Setting up loss1/relu_conv
I0509 17:28:52.874944 15842 net.cpp:129] Top shape: 50 128 4 4 (102400)
I0509 17:28:52.874948 15842 net.cpp:137] Memory required for data: 1970612000
I0509 17:28:52.874950 15842 layer_factory.hpp:77] Creating layer loss1/fc
I0509 17:28:52.874958 15842 net.cpp:84] Creating Layer loss1/fc
I0509 17:28:52.874963 15842 net.cpp:406] loss1/fc <- loss1/conv
I0509 17:28:52.874967 15842 net.cpp:380] loss1/fc -> loss1/fc
I0509 17:28:52.886902 15842 net.cpp:122] Setting up loss1/fc
I0509 17:28:52.886919 15842 net.cpp:129] Top shape: 50 1024 (51200)
I0509 17:28:52.886921 15842 net.cpp:137] Memory required for data: 1970816800
I0509 17:28:52.886929 15842 layer_factory.hpp:77] Creating layer loss1/relu_fc
I0509 17:28:52.886937 15842 net.cpp:84] Creating Layer loss1/relu_fc
I0509 17:28:52.886941 15842 net.cpp:406] loss1/relu_fc <- loss1/fc
I0509 17:28:52.886948 15842 net.cpp:367] loss1/relu_fc -> loss1/fc (in-place)
I0509 17:28:52.887403 15842 net.cpp:122] Setting up loss1/relu_fc
I0509 17:28:52.887413 15842 net.cpp:129] Top shape: 50 1024 (51200)
I0509 17:28:52.887414 15842 net.cpp:137] Memory required for data: 1971021600
I0509 17:28:52.887418 15842 layer_factory.hpp:77] Creating layer loss1/drop_fc
I0509 17:28:52.887439 15842 net.cpp:84] Creating Layer loss1/drop_fc
I0509 17:28:52.887444 15842 net.cpp:406] loss1/drop_fc <- loss1/fc
I0509 17:28:52.887449 15842 net.cpp:367] loss1/drop_fc -> loss1/fc (in-place)
I0509 17:28:52.887477 15842 net.cpp:122] Setting up loss1/drop_fc
I0509 17:28:52.887481 15842 net.cpp:129] Top shape: 50 1024 (51200)
I0509 17:28:52.887485 15842 net.cpp:137] Memory required for data: 1971226400
I0509 17:28:52.887487 15842 layer_factory.hpp:77] Creating layer loss1/classifier
I0509 17:28:52.887493 15842 net.cpp:84] Creating Layer loss1/classifier
I0509 17:28:52.887496 15842 net.cpp:406] loss1/classifier <- loss1/fc
I0509 17:28:52.887503 15842 net.cpp:380] loss1/classifier -> loss1/classifier
I0509 17:28:52.888543 15842 net.cpp:122] Setting up loss1/classifier
I0509 17:28:52.888550 15842 net.cpp:129] Top shape: 50 196 (9800)
I0509 17:28:52.888552 15842 net.cpp:137] Memory required for data: 1971265600
I0509 17:28:52.888557 15842 layer_factory.hpp:77] Creating layer loss1/loss
I0509 17:28:52.888563 15842 net.cpp:84] Creating Layer loss1/loss
I0509 17:28:52.888566 15842 net.cpp:406] loss1/loss <- loss1/classifier
I0509 17:28:52.888571 15842 net.cpp:406] loss1/loss <- label_train-data_1_split_0
I0509 17:28:52.888576 15842 net.cpp:380] loss1/loss -> loss1/loss
I0509 17:28:52.888584 15842 layer_factory.hpp:77] Creating layer loss1/loss
I0509 17:28:52.889284 15842 net.cpp:122] Setting up loss1/loss
I0509 17:28:52.889292 15842 net.cpp:129] Top shape: (1)
I0509 17:28:52.889295 15842 net.cpp:132]     with loss weight 0.3
I0509 17:28:52.889312 15842 net.cpp:137] Memory required for data: 1971265604
I0509 17:28:52.889314 15842 layer_factory.hpp:77] Creating layer inception_4b/1x1
I0509 17:28:52.889325 15842 net.cpp:84] Creating Layer inception_4b/1x1
I0509 17:28:52.889348 15842 net.cpp:406] inception_4b/1x1 <- inception_4a/output_inception_4a/output_0_split_1
I0509 17:28:52.889356 15842 net.cpp:380] inception_4b/1x1 -> inception_4b/1x1
I0509 17:28:52.891934 15842 net.cpp:122] Setting up inception_4b/1x1
I0509 17:28:52.891944 15842 net.cpp:129] Top shape: 50 160 14 14 (1568000)
I0509 17:28:52.891947 15842 net.cpp:137] Memory required for data: 1977537604
I0509 17:28:52.891953 15842 layer_factory.hpp:77] Creating layer inception_4b/relu_1x1
I0509 17:28:52.891959 15842 net.cpp:84] Creating Layer inception_4b/relu_1x1
I0509 17:28:52.891963 15842 net.cpp:406] inception_4b/relu_1x1 <- inception_4b/1x1
I0509 17:28:52.891969 15842 net.cpp:367] inception_4b/relu_1x1 -> inception_4b/1x1 (in-place)
I0509 17:28:52.892551 15842 net.cpp:122] Setting up inception_4b/relu_1x1
I0509 17:28:52.892562 15842 net.cpp:129] Top shape: 50 160 14 14 (1568000)
I0509 17:28:52.892565 15842 net.cpp:137] Memory required for data: 1983809604
I0509 17:28:52.892568 15842 layer_factory.hpp:77] Creating layer inception_4b/3x3_reduce
I0509 17:28:52.892577 15842 net.cpp:84] Creating Layer inception_4b/3x3_reduce
I0509 17:28:52.892581 15842 net.cpp:406] inception_4b/3x3_reduce <- inception_4a/output_inception_4a/output_0_split_2
I0509 17:28:52.892590 15842 net.cpp:380] inception_4b/3x3_reduce -> inception_4b/3x3_reduce
I0509 17:28:52.896361 15842 net.cpp:122] Setting up inception_4b/3x3_reduce
I0509 17:28:52.896373 15842 net.cpp:129] Top shape: 50 112 14 14 (1097600)
I0509 17:28:52.896375 15842 net.cpp:137] Memory required for data: 1988200004
I0509 17:28:52.896381 15842 layer_factory.hpp:77] Creating layer inception_4b/relu_3x3_reduce
I0509 17:28:52.896389 15842 net.cpp:84] Creating Layer inception_4b/relu_3x3_reduce
I0509 17:28:52.896392 15842 net.cpp:406] inception_4b/relu_3x3_reduce <- inception_4b/3x3_reduce
I0509 17:28:52.896397 15842 net.cpp:367] inception_4b/relu_3x3_reduce -> inception_4b/3x3_reduce (in-place)
I0509 17:28:52.896785 15842 net.cpp:122] Setting up inception_4b/relu_3x3_reduce
I0509 17:28:52.896793 15842 net.cpp:129] Top shape: 50 112 14 14 (1097600)
I0509 17:28:52.896796 15842 net.cpp:137] Memory required for data: 1992590404
I0509 17:28:52.896800 15842 layer_factory.hpp:77] Creating layer inception_4b/3x3
I0509 17:28:52.896813 15842 net.cpp:84] Creating Layer inception_4b/3x3
I0509 17:28:52.896817 15842 net.cpp:406] inception_4b/3x3 <- inception_4b/3x3_reduce
I0509 17:28:52.896823 15842 net.cpp:380] inception_4b/3x3 -> inception_4b/3x3
I0509 17:28:52.900894 15842 net.cpp:122] Setting up inception_4b/3x3
I0509 17:28:52.900905 15842 net.cpp:129] Top shape: 50 224 14 14 (2195200)
I0509 17:28:52.900908 15842 net.cpp:137] Memory required for data: 2001371204
I0509 17:28:52.900914 15842 layer_factory.hpp:77] Creating layer inception_4b/relu_3x3
I0509 17:28:52.900921 15842 net.cpp:84] Creating Layer inception_4b/relu_3x3
I0509 17:28:52.900924 15842 net.cpp:406] inception_4b/relu_3x3 <- inception_4b/3x3
I0509 17:28:52.900931 15842 net.cpp:367] inception_4b/relu_3x3 -> inception_4b/3x3 (in-place)
I0509 17:28:52.901479 15842 net.cpp:122] Setting up inception_4b/relu_3x3
I0509 17:28:52.901489 15842 net.cpp:129] Top shape: 50 224 14 14 (2195200)
I0509 17:28:52.901491 15842 net.cpp:137] Memory required for data: 2010152004
I0509 17:28:52.901495 15842 layer_factory.hpp:77] Creating layer inception_4b/5x5_reduce
I0509 17:28:52.901504 15842 net.cpp:84] Creating Layer inception_4b/5x5_reduce
I0509 17:28:52.901509 15842 net.cpp:406] inception_4b/5x5_reduce <- inception_4a/output_inception_4a/output_0_split_3
I0509 17:28:52.901515 15842 net.cpp:380] inception_4b/5x5_reduce -> inception_4b/5x5_reduce
I0509 17:28:52.903717 15842 net.cpp:122] Setting up inception_4b/5x5_reduce
I0509 17:28:52.903728 15842 net.cpp:129] Top shape: 50 24 14 14 (235200)
I0509 17:28:52.903731 15842 net.cpp:137] Memory required for data: 2011092804
I0509 17:28:52.903738 15842 layer_factory.hpp:77] Creating layer inception_4b/relu_5x5_reduce
I0509 17:28:52.903743 15842 net.cpp:84] Creating Layer inception_4b/relu_5x5_reduce
I0509 17:28:52.903764 15842 net.cpp:406] inception_4b/relu_5x5_reduce <- inception_4b/5x5_reduce
I0509 17:28:52.903769 15842 net.cpp:367] inception_4b/relu_5x5_reduce -> inception_4b/5x5_reduce (in-place)
I0509 17:28:52.904326 15842 net.cpp:122] Setting up inception_4b/relu_5x5_reduce
I0509 17:28:52.904336 15842 net.cpp:129] Top shape: 50 24 14 14 (235200)
I0509 17:28:52.904338 15842 net.cpp:137] Memory required for data: 2012033604
I0509 17:28:52.904341 15842 layer_factory.hpp:77] Creating layer inception_4b/5x5
I0509 17:28:52.904352 15842 net.cpp:84] Creating Layer inception_4b/5x5
I0509 17:28:52.904356 15842 net.cpp:406] inception_4b/5x5 <- inception_4b/5x5_reduce
I0509 17:28:52.904362 15842 net.cpp:380] inception_4b/5x5 -> inception_4b/5x5
I0509 17:28:52.907991 15842 net.cpp:122] Setting up inception_4b/5x5
I0509 17:28:52.908004 15842 net.cpp:129] Top shape: 50 64 14 14 (627200)
I0509 17:28:52.908006 15842 net.cpp:137] Memory required for data: 2014542404
I0509 17:28:52.908013 15842 layer_factory.hpp:77] Creating layer inception_4b/relu_5x5
I0509 17:28:52.908022 15842 net.cpp:84] Creating Layer inception_4b/relu_5x5
I0509 17:28:52.908025 15842 net.cpp:406] inception_4b/relu_5x5 <- inception_4b/5x5
I0509 17:28:52.908031 15842 net.cpp:367] inception_4b/relu_5x5 -> inception_4b/5x5 (in-place)
I0509 17:28:52.908589 15842 net.cpp:122] Setting up inception_4b/relu_5x5
I0509 17:28:52.908601 15842 net.cpp:129] Top shape: 50 64 14 14 (627200)
I0509 17:28:52.908602 15842 net.cpp:137] Memory required for data: 2017051204
I0509 17:28:52.908607 15842 layer_factory.hpp:77] Creating layer inception_4b/pool
I0509 17:28:52.908613 15842 net.cpp:84] Creating Layer inception_4b/pool
I0509 17:28:52.908617 15842 net.cpp:406] inception_4b/pool <- inception_4a/output_inception_4a/output_0_split_4
I0509 17:28:52.908622 15842 net.cpp:380] inception_4b/pool -> inception_4b/pool
I0509 17:28:52.908676 15842 net.cpp:122] Setting up inception_4b/pool
I0509 17:28:52.908684 15842 net.cpp:129] Top shape: 50 512 14 14 (5017600)
I0509 17:28:52.908685 15842 net.cpp:137] Memory required for data: 2037121604
I0509 17:28:52.908689 15842 layer_factory.hpp:77] Creating layer inception_4b/pool_proj
I0509 17:28:52.908697 15842 net.cpp:84] Creating Layer inception_4b/pool_proj
I0509 17:28:52.908701 15842 net.cpp:406] inception_4b/pool_proj <- inception_4b/pool
I0509 17:28:52.908707 15842 net.cpp:380] inception_4b/pool_proj -> inception_4b/pool_proj
I0509 17:28:52.910848 15842 net.cpp:122] Setting up inception_4b/pool_proj
I0509 17:28:52.910858 15842 net.cpp:129] Top shape: 50 64 14 14 (627200)
I0509 17:28:52.910861 15842 net.cpp:137] Memory required for data: 2039630404
I0509 17:28:52.910867 15842 layer_factory.hpp:77] Creating layer inception_4b/relu_pool_proj
I0509 17:28:52.910872 15842 net.cpp:84] Creating Layer inception_4b/relu_pool_proj
I0509 17:28:52.910876 15842 net.cpp:406] inception_4b/relu_pool_proj <- inception_4b/pool_proj
I0509 17:28:52.910883 15842 net.cpp:367] inception_4b/relu_pool_proj -> inception_4b/pool_proj (in-place)
I0509 17:28:52.911440 15842 net.cpp:122] Setting up inception_4b/relu_pool_proj
I0509 17:28:52.911451 15842 net.cpp:129] Top shape: 50 64 14 14 (627200)
I0509 17:28:52.911453 15842 net.cpp:137] Memory required for data: 2042139204
I0509 17:28:52.911458 15842 layer_factory.hpp:77] Creating layer inception_4b/output
I0509 17:28:52.911463 15842 net.cpp:84] Creating Layer inception_4b/output
I0509 17:28:52.911466 15842 net.cpp:406] inception_4b/output <- inception_4b/1x1
I0509 17:28:52.911471 15842 net.cpp:406] inception_4b/output <- inception_4b/3x3
I0509 17:28:52.911474 15842 net.cpp:406] inception_4b/output <- inception_4b/5x5
I0509 17:28:52.911478 15842 net.cpp:406] inception_4b/output <- inception_4b/pool_proj
I0509 17:28:52.911484 15842 net.cpp:380] inception_4b/output -> inception_4b/output
I0509 17:28:52.911511 15842 net.cpp:122] Setting up inception_4b/output
I0509 17:28:52.911518 15842 net.cpp:129] Top shape: 50 512 14 14 (5017600)
I0509 17:28:52.911521 15842 net.cpp:137] Memory required for data: 2062209604
I0509 17:28:52.911538 15842 layer_factory.hpp:77] Creating layer inception_4b/output_inception_4b/output_0_split
I0509 17:28:52.911545 15842 net.cpp:84] Creating Layer inception_4b/output_inception_4b/output_0_split
I0509 17:28:52.911547 15842 net.cpp:406] inception_4b/output_inception_4b/output_0_split <- inception_4b/output
I0509 17:28:52.911552 15842 net.cpp:380] inception_4b/output_inception_4b/output_0_split -> inception_4b/output_inception_4b/output_0_split_0
I0509 17:28:52.911561 15842 net.cpp:380] inception_4b/output_inception_4b/output_0_split -> inception_4b/output_inception_4b/output_0_split_1
I0509 17:28:52.911566 15842 net.cpp:380] inception_4b/output_inception_4b/output_0_split -> inception_4b/output_inception_4b/output_0_split_2
I0509 17:28:52.911571 15842 net.cpp:380] inception_4b/output_inception_4b/output_0_split -> inception_4b/output_inception_4b/output_0_split_3
I0509 17:28:52.911621 15842 net.cpp:122] Setting up inception_4b/output_inception_4b/output_0_split
I0509 17:28:52.911628 15842 net.cpp:129] Top shape: 50 512 14 14 (5017600)
I0509 17:28:52.911630 15842 net.cpp:129] Top shape: 50 512 14 14 (5017600)
I0509 17:28:52.911633 15842 net.cpp:129] Top shape: 50 512 14 14 (5017600)
I0509 17:28:52.911636 15842 net.cpp:129] Top shape: 50 512 14 14 (5017600)
I0509 17:28:52.911639 15842 net.cpp:137] Memory required for data: 2142491204
I0509 17:28:52.911643 15842 layer_factory.hpp:77] Creating layer inception_4c/1x1
I0509 17:28:52.911653 15842 net.cpp:84] Creating Layer inception_4c/1x1
I0509 17:28:52.911655 15842 net.cpp:406] inception_4c/1x1 <- inception_4b/output_inception_4b/output_0_split_0
I0509 17:28:52.911661 15842 net.cpp:380] inception_4c/1x1 -> inception_4c/1x1
I0509 17:28:52.915546 15842 net.cpp:122] Setting up inception_4c/1x1
I0509 17:28:52.915560 15842 net.cpp:129] Top shape: 50 128 14 14 (1254400)
I0509 17:28:52.915562 15842 net.cpp:137] Memory required for data: 2147508804
I0509 17:28:52.915568 15842 layer_factory.hpp:77] Creating layer inception_4c/relu_1x1
I0509 17:28:52.915575 15842 net.cpp:84] Creating Layer inception_4c/relu_1x1
I0509 17:28:52.915578 15842 net.cpp:406] inception_4c/relu_1x1 <- inception_4c/1x1
I0509 17:28:52.915585 15842 net.cpp:367] inception_4c/relu_1x1 -> inception_4c/1x1 (in-place)
I0509 17:28:52.915966 15842 net.cpp:122] Setting up inception_4c/relu_1x1
I0509 17:28:52.915974 15842 net.cpp:129] Top shape: 50 128 14 14 (1254400)
I0509 17:28:52.915977 15842 net.cpp:137] Memory required for data: 2152526404
I0509 17:28:52.915980 15842 layer_factory.hpp:77] Creating layer inception_4c/3x3_reduce
I0509 17:28:52.915992 15842 net.cpp:84] Creating Layer inception_4c/3x3_reduce
I0509 17:28:52.915997 15842 net.cpp:406] inception_4c/3x3_reduce <- inception_4b/output_inception_4b/output_0_split_1
I0509 17:28:52.916003 15842 net.cpp:380] inception_4c/3x3_reduce -> inception_4c/3x3_reduce
I0509 17:28:52.918491 15842 net.cpp:122] Setting up inception_4c/3x3_reduce
I0509 17:28:52.918503 15842 net.cpp:129] Top shape: 50 128 14 14 (1254400)
I0509 17:28:52.918505 15842 net.cpp:137] Memory required for data: 2157544004
I0509 17:28:52.918511 15842 layer_factory.hpp:77] Creating layer inception_4c/relu_3x3_reduce
I0509 17:28:52.918519 15842 net.cpp:84] Creating Layer inception_4c/relu_3x3_reduce
I0509 17:28:52.918522 15842 net.cpp:406] inception_4c/relu_3x3_reduce <- inception_4c/3x3_reduce
I0509 17:28:52.918527 15842 net.cpp:367] inception_4c/relu_3x3_reduce -> inception_4c/3x3_reduce (in-place)
I0509 17:28:52.919090 15842 net.cpp:122] Setting up inception_4c/relu_3x3_reduce
I0509 17:28:52.919098 15842 net.cpp:129] Top shape: 50 128 14 14 (1254400)
I0509 17:28:52.919101 15842 net.cpp:137] Memory required for data: 2162561604
I0509 17:28:52.919104 15842 layer_factory.hpp:77] Creating layer inception_4c/3x3
I0509 17:28:52.919114 15842 net.cpp:84] Creating Layer inception_4c/3x3
I0509 17:28:52.919118 15842 net.cpp:406] inception_4c/3x3 <- inception_4c/3x3_reduce
I0509 17:28:52.919126 15842 net.cpp:380] inception_4c/3x3 -> inception_4c/3x3
I0509 17:28:52.923331 15842 net.cpp:122] Setting up inception_4c/3x3
I0509 17:28:52.923358 15842 net.cpp:129] Top shape: 50 256 14 14 (2508800)
I0509 17:28:52.923362 15842 net.cpp:137] Memory required for data: 2172596804
I0509 17:28:52.923379 15842 layer_factory.hpp:77] Creating layer inception_4c/relu_3x3
I0509 17:28:52.923386 15842 net.cpp:84] Creating Layer inception_4c/relu_3x3
I0509 17:28:52.923390 15842 net.cpp:406] inception_4c/relu_3x3 <- inception_4c/3x3
I0509 17:28:52.923395 15842 net.cpp:367] inception_4c/relu_3x3 -> inception_4c/3x3 (in-place)
I0509 17:28:52.923945 15842 net.cpp:122] Setting up inception_4c/relu_3x3
I0509 17:28:52.923956 15842 net.cpp:129] Top shape: 50 256 14 14 (2508800)
I0509 17:28:52.923959 15842 net.cpp:137] Memory required for data: 2182632004
I0509 17:28:52.923962 15842 layer_factory.hpp:77] Creating layer inception_4c/5x5_reduce
I0509 17:28:52.923971 15842 net.cpp:84] Creating Layer inception_4c/5x5_reduce
I0509 17:28:52.923975 15842 net.cpp:406] inception_4c/5x5_reduce <- inception_4b/output_inception_4b/output_0_split_2
I0509 17:28:52.923981 15842 net.cpp:380] inception_4c/5x5_reduce -> inception_4c/5x5_reduce
I0509 17:28:52.927472 15842 net.cpp:122] Setting up inception_4c/5x5_reduce
I0509 17:28:52.927484 15842 net.cpp:129] Top shape: 50 24 14 14 (235200)
I0509 17:28:52.927487 15842 net.cpp:137] Memory required for data: 2183572804
I0509 17:28:52.927495 15842 layer_factory.hpp:77] Creating layer inception_4c/relu_5x5_reduce
I0509 17:28:52.927501 15842 net.cpp:84] Creating Layer inception_4c/relu_5x5_reduce
I0509 17:28:52.927505 15842 net.cpp:406] inception_4c/relu_5x5_reduce <- inception_4c/5x5_reduce
I0509 17:28:52.927511 15842 net.cpp:367] inception_4c/relu_5x5_reduce -> inception_4c/5x5_reduce (in-place)
I0509 17:28:52.928218 15842 net.cpp:122] Setting up inception_4c/relu_5x5_reduce
I0509 17:28:52.928228 15842 net.cpp:129] Top shape: 50 24 14 14 (235200)
I0509 17:28:52.928231 15842 net.cpp:137] Memory required for data: 2184513604
I0509 17:28:52.928236 15842 layer_factory.hpp:77] Creating layer inception_4c/5x5
I0509 17:28:52.928246 15842 net.cpp:84] Creating Layer inception_4c/5x5
I0509 17:28:52.928249 15842 net.cpp:406] inception_4c/5x5 <- inception_4c/5x5_reduce
I0509 17:28:52.928256 15842 net.cpp:380] inception_4c/5x5 -> inception_4c/5x5
I0509 17:28:52.930461 15842 net.cpp:122] Setting up inception_4c/5x5
I0509 17:28:52.930471 15842 net.cpp:129] Top shape: 50 64 14 14 (627200)
I0509 17:28:52.930474 15842 net.cpp:137] Memory required for data: 2187022404
I0509 17:28:52.930480 15842 layer_factory.hpp:77] Creating layer inception_4c/relu_5x5
I0509 17:28:52.930485 15842 net.cpp:84] Creating Layer inception_4c/relu_5x5
I0509 17:28:52.930490 15842 net.cpp:406] inception_4c/relu_5x5 <- inception_4c/5x5
I0509 17:28:52.930495 15842 net.cpp:367] inception_4c/relu_5x5 -> inception_4c/5x5 (in-place)
I0509 17:28:52.931061 15842 net.cpp:122] Setting up inception_4c/relu_5x5
I0509 17:28:52.931072 15842 net.cpp:129] Top shape: 50 64 14 14 (627200)
I0509 17:28:52.931075 15842 net.cpp:137] Memory required for data: 2189531204
I0509 17:28:52.931078 15842 layer_factory.hpp:77] Creating layer inception_4c/pool
I0509 17:28:52.931084 15842 net.cpp:84] Creating Layer inception_4c/pool
I0509 17:28:52.931088 15842 net.cpp:406] inception_4c/pool <- inception_4b/output_inception_4b/output_0_split_3
I0509 17:28:52.931094 15842 net.cpp:380] inception_4c/pool -> inception_4c/pool
I0509 17:28:52.931138 15842 net.cpp:122] Setting up inception_4c/pool
I0509 17:28:52.931143 15842 net.cpp:129] Top shape: 50 512 14 14 (5017600)
I0509 17:28:52.931145 15842 net.cpp:137] Memory required for data: 2209601604
I0509 17:28:52.931147 15842 layer_factory.hpp:77] Creating layer inception_4c/pool_proj
I0509 17:28:52.931157 15842 net.cpp:84] Creating Layer inception_4c/pool_proj
I0509 17:28:52.931160 15842 net.cpp:406] inception_4c/pool_proj <- inception_4c/pool
I0509 17:28:52.931167 15842 net.cpp:380] inception_4c/pool_proj -> inception_4c/pool_proj
I0509 17:28:52.934844 15842 net.cpp:122] Setting up inception_4c/pool_proj
I0509 17:28:52.934857 15842 net.cpp:129] Top shape: 50 64 14 14 (627200)
I0509 17:28:52.934876 15842 net.cpp:137] Memory required for data: 2212110404
I0509 17:28:52.934883 15842 layer_factory.hpp:77] Creating layer inception_4c/relu_pool_proj
I0509 17:28:52.934890 15842 net.cpp:84] Creating Layer inception_4c/relu_pool_proj
I0509 17:28:52.934893 15842 net.cpp:406] inception_4c/relu_pool_proj <- inception_4c/pool_proj
I0509 17:28:52.934897 15842 net.cpp:367] inception_4c/relu_pool_proj -> inception_4c/pool_proj (in-place)
I0509 17:28:52.935281 15842 net.cpp:122] Setting up inception_4c/relu_pool_proj
I0509 17:28:52.935293 15842 net.cpp:129] Top shape: 50 64 14 14 (627200)
I0509 17:28:52.935297 15842 net.cpp:137] Memory required for data: 2214619204
I0509 17:28:52.935299 15842 layer_factory.hpp:77] Creating layer inception_4c/output
I0509 17:28:52.935305 15842 net.cpp:84] Creating Layer inception_4c/output
I0509 17:28:52.935309 15842 net.cpp:406] inception_4c/output <- inception_4c/1x1
I0509 17:28:52.935313 15842 net.cpp:406] inception_4c/output <- inception_4c/3x3
I0509 17:28:52.935317 15842 net.cpp:406] inception_4c/output <- inception_4c/5x5
I0509 17:28:52.935320 15842 net.cpp:406] inception_4c/output <- inception_4c/pool_proj
I0509 17:28:52.935326 15842 net.cpp:380] inception_4c/output -> inception_4c/output
I0509 17:28:52.935354 15842 net.cpp:122] Setting up inception_4c/output
I0509 17:28:52.935359 15842 net.cpp:129] Top shape: 50 512 14 14 (5017600)
I0509 17:28:52.935361 15842 net.cpp:137] Memory required for data: 2234689604
I0509 17:28:52.935364 15842 layer_factory.hpp:77] Creating layer inception_4c/output_inception_4c/output_0_split
I0509 17:28:52.935371 15842 net.cpp:84] Creating Layer inception_4c/output_inception_4c/output_0_split
I0509 17:28:52.935374 15842 net.cpp:406] inception_4c/output_inception_4c/output_0_split <- inception_4c/output
I0509 17:28:52.935380 15842 net.cpp:380] inception_4c/output_inception_4c/output_0_split -> inception_4c/output_inception_4c/output_0_split_0
I0509 17:28:52.935386 15842 net.cpp:380] inception_4c/output_inception_4c/output_0_split -> inception_4c/output_inception_4c/output_0_split_1
I0509 17:28:52.935392 15842 net.cpp:380] inception_4c/output_inception_4c/output_0_split -> inception_4c/output_inception_4c/output_0_split_2
I0509 17:28:52.935397 15842 net.cpp:380] inception_4c/output_inception_4c/output_0_split -> inception_4c/output_inception_4c/output_0_split_3
I0509 17:28:52.935446 15842 net.cpp:122] Setting up inception_4c/output_inception_4c/output_0_split
I0509 17:28:52.935451 15842 net.cpp:129] Top shape: 50 512 14 14 (5017600)
I0509 17:28:52.935454 15842 net.cpp:129] Top shape: 50 512 14 14 (5017600)
I0509 17:28:52.935458 15842 net.cpp:129] Top shape: 50 512 14 14 (5017600)
I0509 17:28:52.935461 15842 net.cpp:129] Top shape: 50 512 14 14 (5017600)
I0509 17:28:52.935463 15842 net.cpp:137] Memory required for data: 2314971204
I0509 17:28:52.935467 15842 layer_factory.hpp:77] Creating layer inception_4d/1x1
I0509 17:28:52.935477 15842 net.cpp:84] Creating Layer inception_4d/1x1
I0509 17:28:52.935479 15842 net.cpp:406] inception_4d/1x1 <- inception_4c/output_inception_4c/output_0_split_0
I0509 17:28:52.935485 15842 net.cpp:380] inception_4d/1x1 -> inception_4d/1x1
I0509 17:28:52.937917 15842 net.cpp:122] Setting up inception_4d/1x1
I0509 17:28:52.937927 15842 net.cpp:129] Top shape: 50 112 14 14 (1097600)
I0509 17:28:52.937930 15842 net.cpp:137] Memory required for data: 2319361604
I0509 17:28:52.937937 15842 layer_factory.hpp:77] Creating layer inception_4d/relu_1x1
I0509 17:28:52.937942 15842 net.cpp:84] Creating Layer inception_4d/relu_1x1
I0509 17:28:52.937945 15842 net.cpp:406] inception_4d/relu_1x1 <- inception_4d/1x1
I0509 17:28:52.937952 15842 net.cpp:367] inception_4d/relu_1x1 -> inception_4d/1x1 (in-place)
I0509 17:28:52.938522 15842 net.cpp:122] Setting up inception_4d/relu_1x1
I0509 17:28:52.938530 15842 net.cpp:129] Top shape: 50 112 14 14 (1097600)
I0509 17:28:52.938534 15842 net.cpp:137] Memory required for data: 2323752004
I0509 17:28:52.938536 15842 layer_factory.hpp:77] Creating layer inception_4d/3x3_reduce
I0509 17:28:52.938557 15842 net.cpp:84] Creating Layer inception_4d/3x3_reduce
I0509 17:28:52.938561 15842 net.cpp:406] inception_4d/3x3_reduce <- inception_4c/output_inception_4c/output_0_split_1
I0509 17:28:52.938568 15842 net.cpp:380] inception_4d/3x3_reduce -> inception_4d/3x3_reduce
I0509 17:28:52.941175 15842 net.cpp:122] Setting up inception_4d/3x3_reduce
I0509 17:28:52.941185 15842 net.cpp:129] Top shape: 50 144 14 14 (1411200)
I0509 17:28:52.941188 15842 net.cpp:137] Memory required for data: 2329396804
I0509 17:28:52.941195 15842 layer_factory.hpp:77] Creating layer inception_4d/relu_3x3_reduce
I0509 17:28:52.941201 15842 net.cpp:84] Creating Layer inception_4d/relu_3x3_reduce
I0509 17:28:52.941205 15842 net.cpp:406] inception_4d/relu_3x3_reduce <- inception_4d/3x3_reduce
I0509 17:28:52.941211 15842 net.cpp:367] inception_4d/relu_3x3_reduce -> inception_4d/3x3_reduce (in-place)
I0509 17:28:52.941776 15842 net.cpp:122] Setting up inception_4d/relu_3x3_reduce
I0509 17:28:52.941784 15842 net.cpp:129] Top shape: 50 144 14 14 (1411200)
I0509 17:28:52.941787 15842 net.cpp:137] Memory required for data: 2335041604
I0509 17:28:52.941790 15842 layer_factory.hpp:77] Creating layer inception_4d/3x3
I0509 17:28:52.941800 15842 net.cpp:84] Creating Layer inception_4d/3x3
I0509 17:28:52.941804 15842 net.cpp:406] inception_4d/3x3 <- inception_4d/3x3_reduce
I0509 17:28:52.941812 15842 net.cpp:380] inception_4d/3x3 -> inception_4d/3x3
I0509 17:28:52.947844 15842 net.cpp:122] Setting up inception_4d/3x3
I0509 17:28:52.947858 15842 net.cpp:129] Top shape: 50 288 14 14 (2822400)
I0509 17:28:52.947861 15842 net.cpp:137] Memory required for data: 2346331204
I0509 17:28:52.947870 15842 layer_factory.hpp:77] Creating layer inception_4d/relu_3x3
I0509 17:28:52.947876 15842 net.cpp:84] Creating Layer inception_4d/relu_3x3
I0509 17:28:52.947880 15842 net.cpp:406] inception_4d/relu_3x3 <- inception_4d/3x3
I0509 17:28:52.947886 15842 net.cpp:367] inception_4d/relu_3x3 -> inception_4d/3x3 (in-place)
I0509 17:28:52.948432 15842 net.cpp:122] Setting up inception_4d/relu_3x3
I0509 17:28:52.948442 15842 net.cpp:129] Top shape: 50 288 14 14 (2822400)
I0509 17:28:52.948444 15842 net.cpp:137] Memory required for data: 2357620804
I0509 17:28:52.948448 15842 layer_factory.hpp:77] Creating layer inception_4d/5x5_reduce
I0509 17:28:52.948459 15842 net.cpp:84] Creating Layer inception_4d/5x5_reduce
I0509 17:28:52.948462 15842 net.cpp:406] inception_4d/5x5_reduce <- inception_4c/output_inception_4c/output_0_split_2
I0509 17:28:52.948470 15842 net.cpp:380] inception_4d/5x5_reduce -> inception_4d/5x5_reduce
I0509 17:28:52.950614 15842 net.cpp:122] Setting up inception_4d/5x5_reduce
I0509 17:28:52.950624 15842 net.cpp:129] Top shape: 50 32 14 14 (313600)
I0509 17:28:52.950628 15842 net.cpp:137] Memory required for data: 2358875204
I0509 17:28:52.950634 15842 layer_factory.hpp:77] Creating layer inception_4d/relu_5x5_reduce
I0509 17:28:52.950639 15842 net.cpp:84] Creating Layer inception_4d/relu_5x5_reduce
I0509 17:28:52.950642 15842 net.cpp:406] inception_4d/relu_5x5_reduce <- inception_4d/5x5_reduce
I0509 17:28:52.950647 15842 net.cpp:367] inception_4d/relu_5x5_reduce -> inception_4d/5x5_reduce (in-place)
I0509 17:28:52.951375 15842 net.cpp:122] Setting up inception_4d/relu_5x5_reduce
I0509 17:28:52.951383 15842 net.cpp:129] Top shape: 50 32 14 14 (313600)
I0509 17:28:52.951386 15842 net.cpp:137] Memory required for data: 2360129604
I0509 17:28:52.951390 15842 layer_factory.hpp:77] Creating layer inception_4d/5x5
I0509 17:28:52.951400 15842 net.cpp:84] Creating Layer inception_4d/5x5
I0509 17:28:52.951403 15842 net.cpp:406] inception_4d/5x5 <- inception_4d/5x5_reduce
I0509 17:28:52.951411 15842 net.cpp:380] inception_4d/5x5 -> inception_4d/5x5
I0509 17:28:52.953655 15842 net.cpp:122] Setting up inception_4d/5x5
I0509 17:28:52.953666 15842 net.cpp:129] Top shape: 50 64 14 14 (627200)
I0509 17:28:52.953670 15842 net.cpp:137] Memory required for data: 2362638404
I0509 17:28:52.953675 15842 layer_factory.hpp:77] Creating layer inception_4d/relu_5x5
I0509 17:28:52.953698 15842 net.cpp:84] Creating Layer inception_4d/relu_5x5
I0509 17:28:52.953702 15842 net.cpp:406] inception_4d/relu_5x5 <- inception_4d/5x5
I0509 17:28:52.953706 15842 net.cpp:367] inception_4d/relu_5x5 -> inception_4d/5x5 (in-place)
I0509 17:28:52.956038 15842 net.cpp:122] Setting up inception_4d/relu_5x5
I0509 17:28:52.956050 15842 net.cpp:129] Top shape: 50 64 14 14 (627200)
I0509 17:28:52.956053 15842 net.cpp:137] Memory required for data: 2365147204
I0509 17:28:52.956056 15842 layer_factory.hpp:77] Creating layer inception_4d/pool
I0509 17:28:52.956063 15842 net.cpp:84] Creating Layer inception_4d/pool
I0509 17:28:52.956066 15842 net.cpp:406] inception_4d/pool <- inception_4c/output_inception_4c/output_0_split_3
I0509 17:28:52.956073 15842 net.cpp:380] inception_4d/pool -> inception_4d/pool
I0509 17:28:52.956116 15842 net.cpp:122] Setting up inception_4d/pool
I0509 17:28:52.956121 15842 net.cpp:129] Top shape: 50 512 14 14 (5017600)
I0509 17:28:52.956125 15842 net.cpp:137] Memory required for data: 2385217604
I0509 17:28:52.956126 15842 layer_factory.hpp:77] Creating layer inception_4d/pool_proj
I0509 17:28:52.956137 15842 net.cpp:84] Creating Layer inception_4d/pool_proj
I0509 17:28:52.956140 15842 net.cpp:406] inception_4d/pool_proj <- inception_4d/pool
I0509 17:28:52.956146 15842 net.cpp:380] inception_4d/pool_proj -> inception_4d/pool_proj
I0509 17:28:52.958468 15842 net.cpp:122] Setting up inception_4d/pool_proj
I0509 17:28:52.958479 15842 net.cpp:129] Top shape: 50 64 14 14 (627200)
I0509 17:28:52.958482 15842 net.cpp:137] Memory required for data: 2387726404
I0509 17:28:52.958487 15842 layer_factory.hpp:77] Creating layer inception_4d/relu_pool_proj
I0509 17:28:52.958493 15842 net.cpp:84] Creating Layer inception_4d/relu_pool_proj
I0509 17:28:52.958498 15842 net.cpp:406] inception_4d/relu_pool_proj <- inception_4d/pool_proj
I0509 17:28:52.958503 15842 net.cpp:367] inception_4d/relu_pool_proj -> inception_4d/pool_proj (in-place)
I0509 17:28:52.958881 15842 net.cpp:122] Setting up inception_4d/relu_pool_proj
I0509 17:28:52.958889 15842 net.cpp:129] Top shape: 50 64 14 14 (627200)
I0509 17:28:52.958892 15842 net.cpp:137] Memory required for data: 2390235204
I0509 17:28:52.958895 15842 layer_factory.hpp:77] Creating layer inception_4d/output
I0509 17:28:52.958901 15842 net.cpp:84] Creating Layer inception_4d/output
I0509 17:28:52.958904 15842 net.cpp:406] inception_4d/output <- inception_4d/1x1
I0509 17:28:52.958909 15842 net.cpp:406] inception_4d/output <- inception_4d/3x3
I0509 17:28:52.958912 15842 net.cpp:406] inception_4d/output <- inception_4d/5x5
I0509 17:28:52.958916 15842 net.cpp:406] inception_4d/output <- inception_4d/pool_proj
I0509 17:28:52.958921 15842 net.cpp:380] inception_4d/output -> inception_4d/output
I0509 17:28:52.958950 15842 net.cpp:122] Setting up inception_4d/output
I0509 17:28:52.958954 15842 net.cpp:129] Top shape: 50 528 14 14 (5174400)
I0509 17:28:52.958957 15842 net.cpp:137] Memory required for data: 2410932804
I0509 17:28:52.958961 15842 layer_factory.hpp:77] Creating layer inception_4d/output_inception_4d/output_0_split
I0509 17:28:52.958966 15842 net.cpp:84] Creating Layer inception_4d/output_inception_4d/output_0_split
I0509 17:28:52.958968 15842 net.cpp:406] inception_4d/output_inception_4d/output_0_split <- inception_4d/output
I0509 17:28:52.958974 15842 net.cpp:380] inception_4d/output_inception_4d/output_0_split -> inception_4d/output_inception_4d/output_0_split_0
I0509 17:28:52.958981 15842 net.cpp:380] inception_4d/output_inception_4d/output_0_split -> inception_4d/output_inception_4d/output_0_split_1
I0509 17:28:52.958988 15842 net.cpp:380] inception_4d/output_inception_4d/output_0_split -> inception_4d/output_inception_4d/output_0_split_2
I0509 17:28:52.958993 15842 net.cpp:380] inception_4d/output_inception_4d/output_0_split -> inception_4d/output_inception_4d/output_0_split_3
I0509 17:28:52.958998 15842 net.cpp:380] inception_4d/output_inception_4d/output_0_split -> inception_4d/output_inception_4d/output_0_split_4
I0509 17:28:52.959054 15842 net.cpp:122] Setting up inception_4d/output_inception_4d/output_0_split
I0509 17:28:52.959074 15842 net.cpp:129] Top shape: 50 528 14 14 (5174400)
I0509 17:28:52.959079 15842 net.cpp:129] Top shape: 50 528 14 14 (5174400)
I0509 17:28:52.959081 15842 net.cpp:129] Top shape: 50 528 14 14 (5174400)
I0509 17:28:52.959084 15842 net.cpp:129] Top shape: 50 528 14 14 (5174400)
I0509 17:28:52.959087 15842 net.cpp:129] Top shape: 50 528 14 14 (5174400)
I0509 17:28:52.959090 15842 net.cpp:137] Memory required for data: 2514420804
I0509 17:28:52.959093 15842 layer_factory.hpp:77] Creating layer loss2/ave_pool
I0509 17:28:52.959098 15842 net.cpp:84] Creating Layer loss2/ave_pool
I0509 17:28:52.959100 15842 net.cpp:406] loss2/ave_pool <- inception_4d/output_inception_4d/output_0_split_0
I0509 17:28:52.959110 15842 net.cpp:380] loss2/ave_pool -> loss2/ave_pool
I0509 17:28:52.959674 15842 net.cpp:122] Setting up loss2/ave_pool
I0509 17:28:52.959686 15842 net.cpp:129] Top shape: 50 528 4 4 (422400)
I0509 17:28:52.959688 15842 net.cpp:137] Memory required for data: 2516110404
I0509 17:28:52.959692 15842 layer_factory.hpp:77] Creating layer loss2/conv
I0509 17:28:52.959700 15842 net.cpp:84] Creating Layer loss2/conv
I0509 17:28:52.959703 15842 net.cpp:406] loss2/conv <- loss2/ave_pool
I0509 17:28:52.959709 15842 net.cpp:380] loss2/conv -> loss2/conv
I0509 17:28:52.962360 15842 net.cpp:122] Setting up loss2/conv
I0509 17:28:52.962370 15842 net.cpp:129] Top shape: 50 128 4 4 (102400)
I0509 17:28:52.962373 15842 net.cpp:137] Memory required for data: 2516520004
I0509 17:28:52.962379 15842 layer_factory.hpp:77] Creating layer loss2/relu_conv
I0509 17:28:52.962386 15842 net.cpp:84] Creating Layer loss2/relu_conv
I0509 17:28:52.962389 15842 net.cpp:406] loss2/relu_conv <- loss2/conv
I0509 17:28:52.962394 15842 net.cpp:367] loss2/relu_conv -> loss2/conv (in-place)
I0509 17:28:52.962777 15842 net.cpp:122] Setting up loss2/relu_conv
I0509 17:28:52.962787 15842 net.cpp:129] Top shape: 50 128 4 4 (102400)
I0509 17:28:52.962790 15842 net.cpp:137] Memory required for data: 2516929604
I0509 17:28:52.962793 15842 layer_factory.hpp:77] Creating layer loss2/fc
I0509 17:28:52.962801 15842 net.cpp:84] Creating Layer loss2/fc
I0509 17:28:52.962805 15842 net.cpp:406] loss2/fc <- loss2/conv
I0509 17:28:52.962810 15842 net.cpp:380] loss2/fc -> loss2/fc
I0509 17:28:52.974941 15842 net.cpp:122] Setting up loss2/fc
I0509 17:28:52.974958 15842 net.cpp:129] Top shape: 50 1024 (51200)
I0509 17:28:52.974961 15842 net.cpp:137] Memory required for data: 2517134404
I0509 17:28:52.974969 15842 layer_factory.hpp:77] Creating layer loss2/relu_fc
I0509 17:28:52.974978 15842 net.cpp:84] Creating Layer loss2/relu_fc
I0509 17:28:52.974982 15842 net.cpp:406] loss2/relu_fc <- loss2/fc
I0509 17:28:52.974990 15842 net.cpp:367] loss2/relu_fc -> loss2/fc (in-place)
I0509 17:28:52.977150 15842 net.cpp:122] Setting up loss2/relu_fc
I0509 17:28:52.977164 15842 net.cpp:129] Top shape: 50 1024 (51200)
I0509 17:28:52.977165 15842 net.cpp:137] Memory required for data: 2517339204
I0509 17:28:52.977169 15842 layer_factory.hpp:77] Creating layer loss2/drop_fc
I0509 17:28:52.977181 15842 net.cpp:84] Creating Layer loss2/drop_fc
I0509 17:28:52.977186 15842 net.cpp:406] loss2/drop_fc <- loss2/fc
I0509 17:28:52.977193 15842 net.cpp:367] loss2/drop_fc -> loss2/fc (in-place)
I0509 17:28:52.977221 15842 net.cpp:122] Setting up loss2/drop_fc
I0509 17:28:52.977226 15842 net.cpp:129] Top shape: 50 1024 (51200)
I0509 17:28:52.977228 15842 net.cpp:137] Memory required for data: 2517544004
I0509 17:28:52.977231 15842 layer_factory.hpp:77] Creating layer loss2/classifier
I0509 17:28:52.977239 15842 net.cpp:84] Creating Layer loss2/classifier
I0509 17:28:52.977242 15842 net.cpp:406] loss2/classifier <- loss2/fc
I0509 17:28:52.977249 15842 net.cpp:380] loss2/classifier -> loss2/classifier
I0509 17:28:52.978950 15842 net.cpp:122] Setting up loss2/classifier
I0509 17:28:52.978960 15842 net.cpp:129] Top shape: 50 196 (9800)
I0509 17:28:52.978961 15842 net.cpp:137] Memory required for data: 2517583204
I0509 17:28:52.978986 15842 layer_factory.hpp:77] Creating layer loss2/loss
I0509 17:28:52.978992 15842 net.cpp:84] Creating Layer loss2/loss
I0509 17:28:52.978996 15842 net.cpp:406] loss2/loss <- loss2/classifier
I0509 17:28:52.979001 15842 net.cpp:406] loss2/loss <- label_train-data_1_split_1
I0509 17:28:52.979008 15842 net.cpp:380] loss2/loss -> loss2/loss
I0509 17:28:52.979015 15842 layer_factory.hpp:77] Creating layer loss2/loss
I0509 17:28:52.979673 15842 net.cpp:122] Setting up loss2/loss
I0509 17:28:52.979682 15842 net.cpp:129] Top shape: (1)
I0509 17:28:52.979686 15842 net.cpp:132]     with loss weight 0.3
I0509 17:28:52.979693 15842 net.cpp:137] Memory required for data: 2517583208
I0509 17:28:52.979696 15842 layer_factory.hpp:77] Creating layer inception_4e/1x1
I0509 17:28:52.979708 15842 net.cpp:84] Creating Layer inception_4e/1x1
I0509 17:28:52.979712 15842 net.cpp:406] inception_4e/1x1 <- inception_4d/output_inception_4d/output_0_split_1
I0509 17:28:52.979719 15842 net.cpp:380] inception_4e/1x1 -> inception_4e/1x1
I0509 17:28:52.982373 15842 net.cpp:122] Setting up inception_4e/1x1
I0509 17:28:52.982384 15842 net.cpp:129] Top shape: 50 256 14 14 (2508800)
I0509 17:28:52.982388 15842 net.cpp:137] Memory required for data: 2527618408
I0509 17:28:52.982393 15842 layer_factory.hpp:77] Creating layer inception_4e/relu_1x1
I0509 17:28:52.982399 15842 net.cpp:84] Creating Layer inception_4e/relu_1x1
I0509 17:28:52.982403 15842 net.cpp:406] inception_4e/relu_1x1 <- inception_4e/1x1
I0509 17:28:52.982409 15842 net.cpp:367] inception_4e/relu_1x1 -> inception_4e/1x1 (in-place)
I0509 17:28:52.982983 15842 net.cpp:122] Setting up inception_4e/relu_1x1
I0509 17:28:52.982993 15842 net.cpp:129] Top shape: 50 256 14 14 (2508800)
I0509 17:28:52.982996 15842 net.cpp:137] Memory required for data: 2537653608
I0509 17:28:52.983000 15842 layer_factory.hpp:77] Creating layer inception_4e/3x3_reduce
I0509 17:28:52.983009 15842 net.cpp:84] Creating Layer inception_4e/3x3_reduce
I0509 17:28:52.983013 15842 net.cpp:406] inception_4e/3x3_reduce <- inception_4d/output_inception_4d/output_0_split_2
I0509 17:28:52.983021 15842 net.cpp:380] inception_4e/3x3_reduce -> inception_4e/3x3_reduce
I0509 17:28:52.985419 15842 net.cpp:122] Setting up inception_4e/3x3_reduce
I0509 17:28:52.985430 15842 net.cpp:129] Top shape: 50 160 14 14 (1568000)
I0509 17:28:52.985432 15842 net.cpp:137] Memory required for data: 2543925608
I0509 17:28:52.985440 15842 layer_factory.hpp:77] Creating layer inception_4e/relu_3x3_reduce
I0509 17:28:52.985445 15842 net.cpp:84] Creating Layer inception_4e/relu_3x3_reduce
I0509 17:28:52.985450 15842 net.cpp:406] inception_4e/relu_3x3_reduce <- inception_4e/3x3_reduce
I0509 17:28:52.985455 15842 net.cpp:367] inception_4e/relu_3x3_reduce -> inception_4e/3x3_reduce (in-place)
I0509 17:28:52.986016 15842 net.cpp:122] Setting up inception_4e/relu_3x3_reduce
I0509 17:28:52.986027 15842 net.cpp:129] Top shape: 50 160 14 14 (1568000)
I0509 17:28:52.986029 15842 net.cpp:137] Memory required for data: 2550197608
I0509 17:28:52.986032 15842 layer_factory.hpp:77] Creating layer inception_4e/3x3
I0509 17:28:52.986042 15842 net.cpp:84] Creating Layer inception_4e/3x3
I0509 17:28:52.986045 15842 net.cpp:406] inception_4e/3x3 <- inception_4e/3x3_reduce
I0509 17:28:52.986052 15842 net.cpp:380] inception_4e/3x3 -> inception_4e/3x3
I0509 17:28:52.992838 15842 net.cpp:122] Setting up inception_4e/3x3
I0509 17:28:52.992853 15842 net.cpp:129] Top shape: 50 320 14 14 (3136000)
I0509 17:28:52.992856 15842 net.cpp:137] Memory required for data: 2562741608
I0509 17:28:52.992863 15842 layer_factory.hpp:77] Creating layer inception_4e/relu_3x3
I0509 17:28:52.992873 15842 net.cpp:84] Creating Layer inception_4e/relu_3x3
I0509 17:28:52.992878 15842 net.cpp:406] inception_4e/relu_3x3 <- inception_4e/3x3
I0509 17:28:52.992884 15842 net.cpp:367] inception_4e/relu_3x3 -> inception_4e/3x3 (in-place)
I0509 17:28:52.993278 15842 net.cpp:122] Setting up inception_4e/relu_3x3
I0509 17:28:52.993285 15842 net.cpp:129] Top shape: 50 320 14 14 (3136000)
I0509 17:28:52.993288 15842 net.cpp:137] Memory required for data: 2575285608
I0509 17:28:52.993309 15842 layer_factory.hpp:77] Creating layer inception_4e/5x5_reduce
I0509 17:28:52.993320 15842 net.cpp:84] Creating Layer inception_4e/5x5_reduce
I0509 17:28:52.993324 15842 net.cpp:406] inception_4e/5x5_reduce <- inception_4d/output_inception_4d/output_0_split_3
I0509 17:28:52.993332 15842 net.cpp:380] inception_4e/5x5_reduce -> inception_4e/5x5_reduce
I0509 17:28:52.995620 15842 net.cpp:122] Setting up inception_4e/5x5_reduce
I0509 17:28:52.995628 15842 net.cpp:129] Top shape: 50 32 14 14 (313600)
I0509 17:28:52.995631 15842 net.cpp:137] Memory required for data: 2576540008
I0509 17:28:52.995637 15842 layer_factory.hpp:77] Creating layer inception_4e/relu_5x5_reduce
I0509 17:28:52.995643 15842 net.cpp:84] Creating Layer inception_4e/relu_5x5_reduce
I0509 17:28:52.995647 15842 net.cpp:406] inception_4e/relu_5x5_reduce <- inception_4e/5x5_reduce
I0509 17:28:52.995653 15842 net.cpp:367] inception_4e/relu_5x5_reduce -> inception_4e/5x5_reduce (in-place)
I0509 17:28:52.996222 15842 net.cpp:122] Setting up inception_4e/relu_5x5_reduce
I0509 17:28:52.996232 15842 net.cpp:129] Top shape: 50 32 14 14 (313600)
I0509 17:28:52.996235 15842 net.cpp:137] Memory required for data: 2577794408
I0509 17:28:52.996238 15842 layer_factory.hpp:77] Creating layer inception_4e/5x5
I0509 17:28:52.996275 15842 net.cpp:84] Creating Layer inception_4e/5x5
I0509 17:28:52.996279 15842 net.cpp:406] inception_4e/5x5 <- inception_4e/5x5_reduce
I0509 17:28:52.996285 15842 net.cpp:380] inception_4e/5x5 -> inception_4e/5x5
I0509 17:28:53.000196 15842 net.cpp:122] Setting up inception_4e/5x5
I0509 17:28:53.000211 15842 net.cpp:129] Top shape: 50 128 14 14 (1254400)
I0509 17:28:53.000213 15842 net.cpp:137] Memory required for data: 2582812008
I0509 17:28:53.000221 15842 layer_factory.hpp:77] Creating layer inception_4e/relu_5x5
I0509 17:28:53.000227 15842 net.cpp:84] Creating Layer inception_4e/relu_5x5
I0509 17:28:53.000231 15842 net.cpp:406] inception_4e/relu_5x5 <- inception_4e/5x5
I0509 17:28:53.000236 15842 net.cpp:367] inception_4e/relu_5x5 -> inception_4e/5x5 (in-place)
I0509 17:28:53.000808 15842 net.cpp:122] Setting up inception_4e/relu_5x5
I0509 17:28:53.000819 15842 net.cpp:129] Top shape: 50 128 14 14 (1254400)
I0509 17:28:53.000823 15842 net.cpp:137] Memory required for data: 2587829608
I0509 17:28:53.000826 15842 layer_factory.hpp:77] Creating layer inception_4e/pool
I0509 17:28:53.000833 15842 net.cpp:84] Creating Layer inception_4e/pool
I0509 17:28:53.000838 15842 net.cpp:406] inception_4e/pool <- inception_4d/output_inception_4d/output_0_split_4
I0509 17:28:53.000844 15842 net.cpp:380] inception_4e/pool -> inception_4e/pool
I0509 17:28:53.000886 15842 net.cpp:122] Setting up inception_4e/pool
I0509 17:28:53.000891 15842 net.cpp:129] Top shape: 50 528 14 14 (5174400)
I0509 17:28:53.000895 15842 net.cpp:137] Memory required for data: 2608527208
I0509 17:28:53.000896 15842 layer_factory.hpp:77] Creating layer inception_4e/pool_proj
I0509 17:28:53.000907 15842 net.cpp:84] Creating Layer inception_4e/pool_proj
I0509 17:28:53.000911 15842 net.cpp:406] inception_4e/pool_proj <- inception_4e/pool
I0509 17:28:53.000916 15842 net.cpp:380] inception_4e/pool_proj -> inception_4e/pool_proj
I0509 17:28:53.004106 15842 net.cpp:122] Setting up inception_4e/pool_proj
I0509 17:28:53.004115 15842 net.cpp:129] Top shape: 50 128 14 14 (1254400)
I0509 17:28:53.004118 15842 net.cpp:137] Memory required for data: 2613544808
I0509 17:28:53.004124 15842 layer_factory.hpp:77] Creating layer inception_4e/relu_pool_proj
I0509 17:28:53.004130 15842 net.cpp:84] Creating Layer inception_4e/relu_pool_proj
I0509 17:28:53.004133 15842 net.cpp:406] inception_4e/relu_pool_proj <- inception_4e/pool_proj
I0509 17:28:53.004140 15842 net.cpp:367] inception_4e/relu_pool_proj -> inception_4e/pool_proj (in-place)
I0509 17:28:53.004714 15842 net.cpp:122] Setting up inception_4e/relu_pool_proj
I0509 17:28:53.004727 15842 net.cpp:129] Top shape: 50 128 14 14 (1254400)
I0509 17:28:53.004730 15842 net.cpp:137] Memory required for data: 2618562408
I0509 17:28:53.004751 15842 layer_factory.hpp:77] Creating layer inception_4e/output
I0509 17:28:53.004758 15842 net.cpp:84] Creating Layer inception_4e/output
I0509 17:28:53.004761 15842 net.cpp:406] inception_4e/output <- inception_4e/1x1
I0509 17:28:53.004766 15842 net.cpp:406] inception_4e/output <- inception_4e/3x3
I0509 17:28:53.004770 15842 net.cpp:406] inception_4e/output <- inception_4e/5x5
I0509 17:28:53.004773 15842 net.cpp:406] inception_4e/output <- inception_4e/pool_proj
I0509 17:28:53.004779 15842 net.cpp:380] inception_4e/output -> inception_4e/output
I0509 17:28:53.004807 15842 net.cpp:122] Setting up inception_4e/output
I0509 17:28:53.004812 15842 net.cpp:129] Top shape: 50 832 14 14 (8153600)
I0509 17:28:53.004815 15842 net.cpp:137] Memory required for data: 2651176808
I0509 17:28:53.004818 15842 layer_factory.hpp:77] Creating layer pool4/3x3_s2
I0509 17:28:53.004824 15842 net.cpp:84] Creating Layer pool4/3x3_s2
I0509 17:28:53.004828 15842 net.cpp:406] pool4/3x3_s2 <- inception_4e/output
I0509 17:28:53.004832 15842 net.cpp:380] pool4/3x3_s2 -> pool4/3x3_s2
I0509 17:28:53.004868 15842 net.cpp:122] Setting up pool4/3x3_s2
I0509 17:28:53.004873 15842 net.cpp:129] Top shape: 50 832 7 7 (2038400)
I0509 17:28:53.004875 15842 net.cpp:137] Memory required for data: 2659330408
I0509 17:28:53.004878 15842 layer_factory.hpp:77] Creating layer pool4/3x3_s2_pool4/3x3_s2_0_split
I0509 17:28:53.004884 15842 net.cpp:84] Creating Layer pool4/3x3_s2_pool4/3x3_s2_0_split
I0509 17:28:53.004886 15842 net.cpp:406] pool4/3x3_s2_pool4/3x3_s2_0_split <- pool4/3x3_s2
I0509 17:28:53.004894 15842 net.cpp:380] pool4/3x3_s2_pool4/3x3_s2_0_split -> pool4/3x3_s2_pool4/3x3_s2_0_split_0
I0509 17:28:53.004899 15842 net.cpp:380] pool4/3x3_s2_pool4/3x3_s2_0_split -> pool4/3x3_s2_pool4/3x3_s2_0_split_1
I0509 17:28:53.004905 15842 net.cpp:380] pool4/3x3_s2_pool4/3x3_s2_0_split -> pool4/3x3_s2_pool4/3x3_s2_0_split_2
I0509 17:28:53.004911 15842 net.cpp:380] pool4/3x3_s2_pool4/3x3_s2_0_split -> pool4/3x3_s2_pool4/3x3_s2_0_split_3
I0509 17:28:53.004961 15842 net.cpp:122] Setting up pool4/3x3_s2_pool4/3x3_s2_0_split
I0509 17:28:53.004966 15842 net.cpp:129] Top shape: 50 832 7 7 (2038400)
I0509 17:28:53.004969 15842 net.cpp:129] Top shape: 50 832 7 7 (2038400)
I0509 17:28:53.004973 15842 net.cpp:129] Top shape: 50 832 7 7 (2038400)
I0509 17:28:53.004976 15842 net.cpp:129] Top shape: 50 832 7 7 (2038400)
I0509 17:28:53.004978 15842 net.cpp:137] Memory required for data: 2691944808
I0509 17:28:53.004981 15842 layer_factory.hpp:77] Creating layer inception_5a/1x1
I0509 17:28:53.004990 15842 net.cpp:84] Creating Layer inception_5a/1x1
I0509 17:28:53.004993 15842 net.cpp:406] inception_5a/1x1 <- pool4/3x3_s2_pool4/3x3_s2_0_split_0
I0509 17:28:53.004999 15842 net.cpp:380] inception_5a/1x1 -> inception_5a/1x1
I0509 17:28:53.008114 15842 net.cpp:122] Setting up inception_5a/1x1
I0509 17:28:53.008124 15842 net.cpp:129] Top shape: 50 256 7 7 (627200)
I0509 17:28:53.008127 15842 net.cpp:137] Memory required for data: 2694453608
I0509 17:28:53.008133 15842 layer_factory.hpp:77] Creating layer inception_5a/relu_1x1
I0509 17:28:53.008141 15842 net.cpp:84] Creating Layer inception_5a/relu_1x1
I0509 17:28:53.008144 15842 net.cpp:406] inception_5a/relu_1x1 <- inception_5a/1x1
I0509 17:28:53.008148 15842 net.cpp:367] inception_5a/relu_1x1 -> inception_5a/1x1 (in-place)
I0509 17:28:53.008719 15842 net.cpp:122] Setting up inception_5a/relu_1x1
I0509 17:28:53.008728 15842 net.cpp:129] Top shape: 50 256 7 7 (627200)
I0509 17:28:53.008731 15842 net.cpp:137] Memory required for data: 2696962408
I0509 17:28:53.008734 15842 layer_factory.hpp:77] Creating layer inception_5a/3x3_reduce
I0509 17:28:53.008744 15842 net.cpp:84] Creating Layer inception_5a/3x3_reduce
I0509 17:28:53.008749 15842 net.cpp:406] inception_5a/3x3_reduce <- pool4/3x3_s2_pool4/3x3_s2_0_split_1
I0509 17:28:53.008755 15842 net.cpp:380] inception_5a/3x3_reduce -> inception_5a/3x3_reduce
I0509 17:28:53.013041 15842 net.cpp:122] Setting up inception_5a/3x3_reduce
I0509 17:28:53.013072 15842 net.cpp:129] Top shape: 50 160 7 7 (392000)
I0509 17:28:53.013075 15842 net.cpp:137] Memory required for data: 2698530408
I0509 17:28:53.013082 15842 layer_factory.hpp:77] Creating layer inception_5a/relu_3x3_reduce
I0509 17:28:53.013088 15842 net.cpp:84] Creating Layer inception_5a/relu_3x3_reduce
I0509 17:28:53.013092 15842 net.cpp:406] inception_5a/relu_3x3_reduce <- inception_5a/3x3_reduce
I0509 17:28:53.013099 15842 net.cpp:367] inception_5a/relu_3x3_reduce -> inception_5a/3x3_reduce (in-place)
I0509 17:28:53.013480 15842 net.cpp:122] Setting up inception_5a/relu_3x3_reduce
I0509 17:28:53.013489 15842 net.cpp:129] Top shape: 50 160 7 7 (392000)
I0509 17:28:53.013492 15842 net.cpp:137] Memory required for data: 2700098408
I0509 17:28:53.013495 15842 layer_factory.hpp:77] Creating layer inception_5a/3x3
I0509 17:28:53.013509 15842 net.cpp:84] Creating Layer inception_5a/3x3
I0509 17:28:53.013512 15842 net.cpp:406] inception_5a/3x3 <- inception_5a/3x3_reduce
I0509 17:28:53.013520 15842 net.cpp:380] inception_5a/3x3 -> inception_5a/3x3
I0509 17:28:53.018867 15842 net.cpp:122] Setting up inception_5a/3x3
I0509 17:28:53.018877 15842 net.cpp:129] Top shape: 50 320 7 7 (784000)
I0509 17:28:53.018880 15842 net.cpp:137] Memory required for data: 2703234408
I0509 17:28:53.018887 15842 layer_factory.hpp:77] Creating layer inception_5a/relu_3x3
I0509 17:28:53.018893 15842 net.cpp:84] Creating Layer inception_5a/relu_3x3
I0509 17:28:53.018896 15842 net.cpp:406] inception_5a/relu_3x3 <- inception_5a/3x3
I0509 17:28:53.018901 15842 net.cpp:367] inception_5a/relu_3x3 -> inception_5a/3x3 (in-place)
I0509 17:28:53.019461 15842 net.cpp:122] Setting up inception_5a/relu_3x3
I0509 17:28:53.019471 15842 net.cpp:129] Top shape: 50 320 7 7 (784000)
I0509 17:28:53.019474 15842 net.cpp:137] Memory required for data: 2706370408
I0509 17:28:53.019477 15842 layer_factory.hpp:77] Creating layer inception_5a/5x5_reduce
I0509 17:28:53.019490 15842 net.cpp:84] Creating Layer inception_5a/5x5_reduce
I0509 17:28:53.019495 15842 net.cpp:406] inception_5a/5x5_reduce <- pool4/3x3_s2_pool4/3x3_s2_0_split_2
I0509 17:28:53.019500 15842 net.cpp:380] inception_5a/5x5_reduce -> inception_5a/5x5_reduce
I0509 17:28:53.023128 15842 net.cpp:122] Setting up inception_5a/5x5_reduce
I0509 17:28:53.023139 15842 net.cpp:129] Top shape: 50 32 7 7 (78400)
I0509 17:28:53.023142 15842 net.cpp:137] Memory required for data: 2706684008
I0509 17:28:53.023149 15842 layer_factory.hpp:77] Creating layer inception_5a/relu_5x5_reduce
I0509 17:28:53.023154 15842 net.cpp:84] Creating Layer inception_5a/relu_5x5_reduce
I0509 17:28:53.023159 15842 net.cpp:406] inception_5a/relu_5x5_reduce <- inception_5a/5x5_reduce
I0509 17:28:53.023165 15842 net.cpp:367] inception_5a/relu_5x5_reduce -> inception_5a/5x5_reduce (in-place)
I0509 17:28:53.023743 15842 net.cpp:122] Setting up inception_5a/relu_5x5_reduce
I0509 17:28:53.023754 15842 net.cpp:129] Top shape: 50 32 7 7 (78400)
I0509 17:28:53.023757 15842 net.cpp:137] Memory required for data: 2706997608
I0509 17:28:53.023761 15842 layer_factory.hpp:77] Creating layer inception_5a/5x5
I0509 17:28:53.023770 15842 net.cpp:84] Creating Layer inception_5a/5x5
I0509 17:28:53.023774 15842 net.cpp:406] inception_5a/5x5 <- inception_5a/5x5_reduce
I0509 17:28:53.023780 15842 net.cpp:380] inception_5a/5x5 -> inception_5a/5x5
I0509 17:28:53.026274 15842 net.cpp:122] Setting up inception_5a/5x5
I0509 17:28:53.026284 15842 net.cpp:129] Top shape: 50 128 7 7 (313600)
I0509 17:28:53.026288 15842 net.cpp:137] Memory required for data: 2708252008
I0509 17:28:53.026293 15842 layer_factory.hpp:77] Creating layer inception_5a/relu_5x5
I0509 17:28:53.026299 15842 net.cpp:84] Creating Layer inception_5a/relu_5x5
I0509 17:28:53.026302 15842 net.cpp:406] inception_5a/relu_5x5 <- inception_5a/5x5
I0509 17:28:53.026309 15842 net.cpp:367] inception_5a/relu_5x5 -> inception_5a/5x5 (in-place)
I0509 17:28:53.026868 15842 net.cpp:122] Setting up inception_5a/relu_5x5
I0509 17:28:53.026877 15842 net.cpp:129] Top shape: 50 128 7 7 (313600)
I0509 17:28:53.026897 15842 net.cpp:137] Memory required for data: 2709506408
I0509 17:28:53.026901 15842 layer_factory.hpp:77] Creating layer inception_5a/pool
I0509 17:28:53.026912 15842 net.cpp:84] Creating Layer inception_5a/pool
I0509 17:28:53.026916 15842 net.cpp:406] inception_5a/pool <- pool4/3x3_s2_pool4/3x3_s2_0_split_3
I0509 17:28:53.026926 15842 net.cpp:380] inception_5a/pool -> inception_5a/pool
I0509 17:28:53.026968 15842 net.cpp:122] Setting up inception_5a/pool
I0509 17:28:53.026973 15842 net.cpp:129] Top shape: 50 832 7 7 (2038400)
I0509 17:28:53.027102 15842 net.cpp:137] Memory required for data: 2717660008
I0509 17:28:53.027107 15842 layer_factory.hpp:77] Creating layer inception_5a/pool_proj
I0509 17:28:53.027117 15842 net.cpp:84] Creating Layer inception_5a/pool_proj
I0509 17:28:53.027122 15842 net.cpp:406] inception_5a/pool_proj <- inception_5a/pool
I0509 17:28:53.027128 15842 net.cpp:380] inception_5a/pool_proj -> inception_5a/pool_proj
I0509 17:28:53.030512 15842 net.cpp:122] Setting up inception_5a/pool_proj
I0509 17:28:53.030522 15842 net.cpp:129] Top shape: 50 128 7 7 (313600)
I0509 17:28:53.030525 15842 net.cpp:137] Memory required for data: 2718914408
I0509 17:28:53.030531 15842 layer_factory.hpp:77] Creating layer inception_5a/relu_pool_proj
I0509 17:28:53.030537 15842 net.cpp:84] Creating Layer inception_5a/relu_pool_proj
I0509 17:28:53.030541 15842 net.cpp:406] inception_5a/relu_pool_proj <- inception_5a/pool_proj
I0509 17:28:53.030547 15842 net.cpp:367] inception_5a/relu_pool_proj -> inception_5a/pool_proj (in-place)
I0509 17:28:53.031116 15842 net.cpp:122] Setting up inception_5a/relu_pool_proj
I0509 17:28:53.031126 15842 net.cpp:129] Top shape: 50 128 7 7 (313600)
I0509 17:28:53.031128 15842 net.cpp:137] Memory required for data: 2720168808
I0509 17:28:53.031131 15842 layer_factory.hpp:77] Creating layer inception_5a/output
I0509 17:28:53.031141 15842 net.cpp:84] Creating Layer inception_5a/output
I0509 17:28:53.031143 15842 net.cpp:406] inception_5a/output <- inception_5a/1x1
I0509 17:28:53.031148 15842 net.cpp:406] inception_5a/output <- inception_5a/3x3
I0509 17:28:53.031152 15842 net.cpp:406] inception_5a/output <- inception_5a/5x5
I0509 17:28:53.031155 15842 net.cpp:406] inception_5a/output <- inception_5a/pool_proj
I0509 17:28:53.031159 15842 net.cpp:380] inception_5a/output -> inception_5a/output
I0509 17:28:53.031188 15842 net.cpp:122] Setting up inception_5a/output
I0509 17:28:53.031194 15842 net.cpp:129] Top shape: 50 832 7 7 (2038400)
I0509 17:28:53.031196 15842 net.cpp:137] Memory required for data: 2728322408
I0509 17:28:53.031199 15842 layer_factory.hpp:77] Creating layer inception_5a/output_inception_5a/output_0_split
I0509 17:28:53.031204 15842 net.cpp:84] Creating Layer inception_5a/output_inception_5a/output_0_split
I0509 17:28:53.031208 15842 net.cpp:406] inception_5a/output_inception_5a/output_0_split <- inception_5a/output
I0509 17:28:53.031214 15842 net.cpp:380] inception_5a/output_inception_5a/output_0_split -> inception_5a/output_inception_5a/output_0_split_0
I0509 17:28:53.031220 15842 net.cpp:380] inception_5a/output_inception_5a/output_0_split -> inception_5a/output_inception_5a/output_0_split_1
I0509 17:28:53.031226 15842 net.cpp:380] inception_5a/output_inception_5a/output_0_split -> inception_5a/output_inception_5a/output_0_split_2
I0509 17:28:53.031234 15842 net.cpp:380] inception_5a/output_inception_5a/output_0_split -> inception_5a/output_inception_5a/output_0_split_3
I0509 17:28:53.031284 15842 net.cpp:122] Setting up inception_5a/output_inception_5a/output_0_split
I0509 17:28:53.031289 15842 net.cpp:129] Top shape: 50 832 7 7 (2038400)
I0509 17:28:53.031293 15842 net.cpp:129] Top shape: 50 832 7 7 (2038400)
I0509 17:28:53.031296 15842 net.cpp:129] Top shape: 50 832 7 7 (2038400)
I0509 17:28:53.031299 15842 net.cpp:129] Top shape: 50 832 7 7 (2038400)
I0509 17:28:53.031302 15842 net.cpp:137] Memory required for data: 2760936808
I0509 17:28:53.031304 15842 layer_factory.hpp:77] Creating layer inception_5b/1x1
I0509 17:28:53.031313 15842 net.cpp:84] Creating Layer inception_5b/1x1
I0509 17:28:53.031330 15842 net.cpp:406] inception_5b/1x1 <- inception_5a/output_inception_5a/output_0_split_0
I0509 17:28:53.031338 15842 net.cpp:380] inception_5b/1x1 -> inception_5b/1x1
I0509 17:28:53.036489 15842 net.cpp:122] Setting up inception_5b/1x1
I0509 17:28:53.036509 15842 net.cpp:129] Top shape: 50 384 7 7 (940800)
I0509 17:28:53.036514 15842 net.cpp:137] Memory required for data: 2764700008
I0509 17:28:53.036520 15842 layer_factory.hpp:77] Creating layer inception_5b/relu_1x1
I0509 17:28:53.036526 15842 net.cpp:84] Creating Layer inception_5b/relu_1x1
I0509 17:28:53.036530 15842 net.cpp:406] inception_5b/relu_1x1 <- inception_5b/1x1
I0509 17:28:53.036535 15842 net.cpp:367] inception_5b/relu_1x1 -> inception_5b/1x1 (in-place)
I0509 17:28:53.036939 15842 net.cpp:122] Setting up inception_5b/relu_1x1
I0509 17:28:53.036949 15842 net.cpp:129] Top shape: 50 384 7 7 (940800)
I0509 17:28:53.036952 15842 net.cpp:137] Memory required for data: 2768463208
I0509 17:28:53.036957 15842 layer_factory.hpp:77] Creating layer inception_5b/3x3_reduce
I0509 17:28:53.036967 15842 net.cpp:84] Creating Layer inception_5b/3x3_reduce
I0509 17:28:53.036970 15842 net.cpp:406] inception_5b/3x3_reduce <- inception_5a/output_inception_5a/output_0_split_1
I0509 17:28:53.036980 15842 net.cpp:380] inception_5b/3x3_reduce -> inception_5b/3x3_reduce
I0509 17:28:53.040642 15842 net.cpp:122] Setting up inception_5b/3x3_reduce
I0509 17:28:53.040652 15842 net.cpp:129] Top shape: 50 192 7 7 (470400)
I0509 17:28:53.040655 15842 net.cpp:137] Memory required for data: 2770344808
I0509 17:28:53.040661 15842 layer_factory.hpp:77] Creating layer inception_5b/relu_3x3_reduce
I0509 17:28:53.040668 15842 net.cpp:84] Creating Layer inception_5b/relu_3x3_reduce
I0509 17:28:53.040671 15842 net.cpp:406] inception_5b/relu_3x3_reduce <- inception_5b/3x3_reduce
I0509 17:28:53.040678 15842 net.cpp:367] inception_5b/relu_3x3_reduce -> inception_5b/3x3_reduce (in-place)
I0509 17:28:53.041060 15842 net.cpp:122] Setting up inception_5b/relu_3x3_reduce
I0509 17:28:53.041070 15842 net.cpp:129] Top shape: 50 192 7 7 (470400)
I0509 17:28:53.041074 15842 net.cpp:137] Memory required for data: 2772226408
I0509 17:28:53.041076 15842 layer_factory.hpp:77] Creating layer inception_5b/3x3
I0509 17:28:53.041086 15842 net.cpp:84] Creating Layer inception_5b/3x3
I0509 17:28:53.041090 15842 net.cpp:406] inception_5b/3x3 <- inception_5b/3x3_reduce
I0509 17:28:53.041095 15842 net.cpp:380] inception_5b/3x3 -> inception_5b/3x3
I0509 17:28:53.048996 15842 net.cpp:122] Setting up inception_5b/3x3
I0509 17:28:53.049018 15842 net.cpp:129] Top shape: 50 384 7 7 (940800)
I0509 17:28:53.049021 15842 net.cpp:137] Memory required for data: 2775989608
I0509 17:28:53.049028 15842 layer_factory.hpp:77] Creating layer inception_5b/relu_3x3
I0509 17:28:53.049037 15842 net.cpp:84] Creating Layer inception_5b/relu_3x3
I0509 17:28:53.049041 15842 net.cpp:406] inception_5b/relu_3x3 <- inception_5b/3x3
I0509 17:28:53.049047 15842 net.cpp:367] inception_5b/relu_3x3 -> inception_5b/3x3 (in-place)
I0509 17:28:53.049607 15842 net.cpp:122] Setting up inception_5b/relu_3x3
I0509 17:28:53.049615 15842 net.cpp:129] Top shape: 50 384 7 7 (940800)
I0509 17:28:53.049618 15842 net.cpp:137] Memory required for data: 2779752808
I0509 17:28:53.049621 15842 layer_factory.hpp:77] Creating layer inception_5b/5x5_reduce
I0509 17:28:53.049631 15842 net.cpp:84] Creating Layer inception_5b/5x5_reduce
I0509 17:28:53.049635 15842 net.cpp:406] inception_5b/5x5_reduce <- inception_5a/output_inception_5a/output_0_split_2
I0509 17:28:53.049643 15842 net.cpp:380] inception_5b/5x5_reduce -> inception_5b/5x5_reduce
I0509 17:28:53.051995 15842 net.cpp:122] Setting up inception_5b/5x5_reduce
I0509 17:28:53.052006 15842 net.cpp:129] Top shape: 50 48 7 7 (117600)
I0509 17:28:53.052008 15842 net.cpp:137] Memory required for data: 2780223208
I0509 17:28:53.052014 15842 layer_factory.hpp:77] Creating layer inception_5b/relu_5x5_reduce
I0509 17:28:53.052021 15842 net.cpp:84] Creating Layer inception_5b/relu_5x5_reduce
I0509 17:28:53.052043 15842 net.cpp:406] inception_5b/relu_5x5_reduce <- inception_5b/5x5_reduce
I0509 17:28:53.052052 15842 net.cpp:367] inception_5b/relu_5x5_reduce -> inception_5b/5x5_reduce (in-place)
I0509 17:28:53.052623 15842 net.cpp:122] Setting up inception_5b/relu_5x5_reduce
I0509 17:28:53.052633 15842 net.cpp:129] Top shape: 50 48 7 7 (117600)
I0509 17:28:53.052635 15842 net.cpp:137] Memory required for data: 2780693608
I0509 17:28:53.052639 15842 layer_factory.hpp:77] Creating layer inception_5b/5x5
I0509 17:28:53.052649 15842 net.cpp:84] Creating Layer inception_5b/5x5
I0509 17:28:53.052652 15842 net.cpp:406] inception_5b/5x5 <- inception_5b/5x5_reduce
I0509 17:28:53.052660 15842 net.cpp:380] inception_5b/5x5 -> inception_5b/5x5
I0509 17:28:53.055438 15842 net.cpp:122] Setting up inception_5b/5x5
I0509 17:28:53.055447 15842 net.cpp:129] Top shape: 50 128 7 7 (313600)
I0509 17:28:53.055450 15842 net.cpp:137] Memory required for data: 2781948008
I0509 17:28:53.055456 15842 layer_factory.hpp:77] Creating layer inception_5b/relu_5x5
I0509 17:28:53.055464 15842 net.cpp:84] Creating Layer inception_5b/relu_5x5
I0509 17:28:53.055469 15842 net.cpp:406] inception_5b/relu_5x5 <- inception_5b/5x5
I0509 17:28:53.055474 15842 net.cpp:367] inception_5b/relu_5x5 -> inception_5b/5x5 (in-place)
I0509 17:28:53.056042 15842 net.cpp:122] Setting up inception_5b/relu_5x5
I0509 17:28:53.056051 15842 net.cpp:129] Top shape: 50 128 7 7 (313600)
I0509 17:28:53.056054 15842 net.cpp:137] Memory required for data: 2783202408
I0509 17:28:53.056057 15842 layer_factory.hpp:77] Creating layer inception_5b/pool
I0509 17:28:53.056066 15842 net.cpp:84] Creating Layer inception_5b/pool
I0509 17:28:53.056069 15842 net.cpp:406] inception_5b/pool <- inception_5a/output_inception_5a/output_0_split_3
I0509 17:28:53.056074 15842 net.cpp:380] inception_5b/pool -> inception_5b/pool
I0509 17:28:53.056118 15842 net.cpp:122] Setting up inception_5b/pool
I0509 17:28:53.056124 15842 net.cpp:129] Top shape: 50 832 7 7 (2038400)
I0509 17:28:53.056126 15842 net.cpp:137] Memory required for data: 2791356008
I0509 17:28:53.056129 15842 layer_factory.hpp:77] Creating layer inception_5b/pool_proj
I0509 17:28:53.056139 15842 net.cpp:84] Creating Layer inception_5b/pool_proj
I0509 17:28:53.056143 15842 net.cpp:406] inception_5b/pool_proj <- inception_5b/pool
I0509 17:28:53.056149 15842 net.cpp:380] inception_5b/pool_proj -> inception_5b/pool_proj
I0509 17:28:53.060300 15842 net.cpp:122] Setting up inception_5b/pool_proj
I0509 17:28:53.060312 15842 net.cpp:129] Top shape: 50 128 7 7 (313600)
I0509 17:28:53.060315 15842 net.cpp:137] Memory required for data: 2792610408
I0509 17:28:53.060322 15842 layer_factory.hpp:77] Creating layer inception_5b/relu_pool_proj
I0509 17:28:53.060328 15842 net.cpp:84] Creating Layer inception_5b/relu_pool_proj
I0509 17:28:53.060333 15842 net.cpp:406] inception_5b/relu_pool_proj <- inception_5b/pool_proj
I0509 17:28:53.060339 15842 net.cpp:367] inception_5b/relu_pool_proj -> inception_5b/pool_proj (in-place)
I0509 17:28:53.060914 15842 net.cpp:122] Setting up inception_5b/relu_pool_proj
I0509 17:28:53.060925 15842 net.cpp:129] Top shape: 50 128 7 7 (313600)
I0509 17:28:53.060927 15842 net.cpp:137] Memory required for data: 2793864808
I0509 17:28:53.060930 15842 layer_factory.hpp:77] Creating layer inception_5b/output
I0509 17:28:53.060938 15842 net.cpp:84] Creating Layer inception_5b/output
I0509 17:28:53.060941 15842 net.cpp:406] inception_5b/output <- inception_5b/1x1
I0509 17:28:53.060946 15842 net.cpp:406] inception_5b/output <- inception_5b/3x3
I0509 17:28:53.060950 15842 net.cpp:406] inception_5b/output <- inception_5b/5x5
I0509 17:28:53.060953 15842 net.cpp:406] inception_5b/output <- inception_5b/pool_proj
I0509 17:28:53.060958 15842 net.cpp:380] inception_5b/output -> inception_5b/output
I0509 17:28:53.060987 15842 net.cpp:122] Setting up inception_5b/output
I0509 17:28:53.060993 15842 net.cpp:129] Top shape: 50 1024 7 7 (2508800)
I0509 17:28:53.060995 15842 net.cpp:137] Memory required for data: 2803900008
I0509 17:28:53.060998 15842 layer_factory.hpp:77] Creating layer pool5/7x7_s1
I0509 17:28:53.061022 15842 net.cpp:84] Creating Layer pool5/7x7_s1
I0509 17:28:53.061025 15842 net.cpp:406] pool5/7x7_s1 <- inception_5b/output
I0509 17:28:53.061031 15842 net.cpp:380] pool5/7x7_s1 -> pool5/7x7_s1
I0509 17:28:53.061609 15842 net.cpp:122] Setting up pool5/7x7_s1
I0509 17:28:53.061619 15842 net.cpp:129] Top shape: 50 1024 1 1 (51200)
I0509 17:28:53.061621 15842 net.cpp:137] Memory required for data: 2804104808
I0509 17:28:53.061625 15842 layer_factory.hpp:77] Creating layer pool5/drop_7x7_s1
I0509 17:28:53.061632 15842 net.cpp:84] Creating Layer pool5/drop_7x7_s1
I0509 17:28:53.061636 15842 net.cpp:406] pool5/drop_7x7_s1 <- pool5/7x7_s1
I0509 17:28:53.061642 15842 net.cpp:367] pool5/drop_7x7_s1 -> pool5/7x7_s1 (in-place)
I0509 17:28:53.061664 15842 net.cpp:122] Setting up pool5/drop_7x7_s1
I0509 17:28:53.061669 15842 net.cpp:129] Top shape: 50 1024 1 1 (51200)
I0509 17:28:53.061672 15842 net.cpp:137] Memory required for data: 2804309608
I0509 17:28:53.061676 15842 layer_factory.hpp:77] Creating layer loss3/classifier
I0509 17:28:53.061683 15842 net.cpp:84] Creating Layer loss3/classifier
I0509 17:28:53.061686 15842 net.cpp:406] loss3/classifier <- pool5/7x7_s1
I0509 17:28:53.061693 15842 net.cpp:380] loss3/classifier -> loss3/classifier
I0509 17:28:53.063496 15842 net.cpp:122] Setting up loss3/classifier
I0509 17:28:53.063505 15842 net.cpp:129] Top shape: 50 196 (9800)
I0509 17:28:53.063508 15842 net.cpp:137] Memory required for data: 2804348808
I0509 17:28:53.063514 15842 layer_factory.hpp:77] Creating layer loss3/loss
I0509 17:28:53.063520 15842 net.cpp:84] Creating Layer loss3/loss
I0509 17:28:53.063524 15842 net.cpp:406] loss3/loss <- loss3/classifier
I0509 17:28:53.063527 15842 net.cpp:406] loss3/loss <- label_train-data_1_split_2
I0509 17:28:53.063534 15842 net.cpp:380] loss3/loss -> loss
…
I0509 17:28:53.066432 15842 solver.cpp:172] Creating test net (#0) specified by net file: train_val.prototxt
I0509 17:28:53.066552 15842 net.cpp:294] The NetState phase (1) differed from the phase (0) specified by a rule in layer train-data
I0509 17:28:53.067431 15842 net.cpp:51] Initializing net from parameters:
state {
phase: TEST
}
layer {
name: "val-data"
type: "Data"
top: "data"
top: "label"
include {
phase: TEST
}
transform_param {
mirror: false
crop_size: 224
mean_value: 116.08698
mean_value: 117.34767
mean_value: 119.99612
}
data_param {
source: "/mnt/bigdisk/AMBDIG8/digits/jobs/20200508-231203-8394/val_db"
batch_size: 50
backend: LMDB
}
}
layer {
name: "conv1/7x7_s2"
type: "Convolution"
bottom: "data"
top: "conv1/7x7_s2"
param {
lr_mult: 1
decay_mult: 1
}
param {
lr_mult: 2
decay_mult: 0
}
convolution_param {
num_output: 64
pad: 3
kernel_size: 7
stride: 2
weight_filler {
type: "xavier"
std: 0.1
}
bias_filler {
type: "constant"
value: 0.2
}
}
}
layer {
name: "conv1/relu_7x7"
type: "ReLU"
bottom: "conv1/7x7_s2"
top: "conv1/7x7_s2"
}
layer {
name: "pool1/3x3_s2"
type: "Pooling"
bottom: "conv1/7x7_s2"
top: "pool1/3x3_s2"
pooling_param {
pool: MAX
kernel_size: 3
stride: 2
}
}
layer {
name: "pool1/norm1"
type: "LRN"
bottom: "pool1/3x3_s2"
top: "pool1/norm1"
lrn_param {
local_size: 5
alpha: 0.0001
beta: 0.75
}
}
layer {
name: "conv2/3x3_reduce"
type: "Convolution"
bottom: "pool1/norm1"
top: "conv2/3x3_reduce"
param {
lr_mult: 1
decay_mult: 1
}
param {
lr_mult: 2
decay_mult: 0
}
convolution_param {
num_output: 64
kernel_size: 1
weight_filler {
type: "xavier"
std: 0.1
}
bias_filler {
type: "constant"
value: 0.2
}
}
}
layer {
name: "conv2/relu_3x3_reduce"
type: "ReLU"
bottom: "conv2/3x3_reduce"
top: "conv2/3x3_reduce"
}
layer {
name: "conv2/3x3"
type: "Convolution"
bottom: "conv2/3x3_reduce"
top: "conv2/3x3"
param {
lr_mult: 1
decay_mult: 1
}
param {
lr_mult: 2
decay_mult: 0
}
convolution_param {
num_output: 192
pad: 1
kernel_size: 3
weight_filler {
type: "xavier"
std: 0.03
}
bias_filler {
type: "constant"
value: 0.2
}
}
}
layer {
name: "conv2/relu_3x3"
type: "ReLU"
bottom: "conv2/3x3"
top: "conv2/3x3"
}
layer {
name: "conv2/norm2"
type: "LRN"
bottom: "conv2/3x3"
top: "conv2/norm2"
lrn_param {
local_size: 5
alpha: 0.0001
beta: 0.75
}
}
layer {
name: "pool2/3x3_s2"
type: "Pooling"
bottom: "conv2/norm2"
top: "pool2/3x3_s2"
pooling_param {
pool: MAX
kernel_size: 3
stride: 2
}
}
layer {
name: "inception_3a/1x1"
type: "Convolution"
bottom: "pool2/3x3_s2"
top: "inception_3a/1x1"
param {
lr_mult: 1
decay_mult: 1
}
param {
lr_mult: 2
decay_mult: 0
}
convolution_param {
num_output: 64
kernel_size: 1
weight_filler {
type: "xavier"
std: 0.03
}
bias_filler {
type: "constant"
value: 0.2
}
}
}
layer {
name: "inception_3a/relu_1x1"
type: "ReLU"
bottom: "inception_3a/1x1"
top: "inception_3a/1x1"
}
layer {
name: "inception_3a/3x3_reduce"
type: "Convolution"
bottom: "pool2/3x3_s2"
top: "inception_3a/3x3_reduce"
param {
lr_mult: 1
decay_mult: 1
}
param {
lr_mult: 2
decay_mult: 0
}
convolution_param {
num_output: 96
kernel_size: 1
weight_filler {
type: "xavier"
std: 0.09
}
bias_filler {
type: "constant"
value: 0.2
}
}
}
layer {
name: "inception_3a/relu_3x3_reduce"
type: "ReLU"
bottom: "inception_3a/3x3_reduce"
top: "inception_3a/3x3_reduce"
}
layer {
name: "inception_3a/3x3"
type: "Convolution"
bottom: "inception_3a/3x3_reduce"
top: "inception_3a/3x3"
param {
lr_mult: 1
decay_mult: 1
}
param {
lr_mult: 2
decay_mult: 0
}
convolution_param {
num_output: 128
pad: 1
kernel_size: 3
weight_filler {
type: "xavier"
std: 0.03
}
bias_filler {
type: "constant"
value: 0.2
}
}
}
layer {
name: "inception_3a/relu_3x3"
type: "ReLU"
bottom: "inception_3a/3x3"
top: "inception_3a/3x3"
}
layer {
name: "inception_3a/5x5_reduce"
type: "Convolution"
bottom: "pool2/3x3_s2"
top: "inception_3a/5x5_reduce"
param {
lr_mult: 1
decay_mult: 1
}
param {
lr_mult: 2
decay_mult: 0
}
convolution_param {
num_output: 16
kernel_size: 1
weight_filler {
type: "xavier"
std: 0.2
}
bias_filler {
type: "constant"
value: 0.2
}
}
}
layer {
name: "inception_3a/relu_5x5_reduce"
type: "ReLU"
bottom: "inception_3a/5x5_reduce"
top: "inception_3a/5x5_reduce"
}
layer {
name: "inception_3a/5x5"
type: "Convolution"
bottom: "inception_3a/5x5_reduce"
top: "inception_3a/5x5"
param {
lr_mult: 1
decay_mult: 1
}
param {
lr_mult: 2
decay_mult: 0
}
convolution_param {
num_output: 32
pad: 2
kernel_size: 5
weight_filler {
type: "xavier"
std: 0.03
}
bias_filler {
type: "constant"
value: 0.2
}
}
}
layer {
name: "inception_3a/relu_5x5"
type: "ReLU"
bottom: "inception_3a/5x5"
top: "inception_3a/5x5"
}
layer {
name: "inception_3a/pool"
type: "Pooling"
bottom: "pool2/3x3_s2"
top: "inception_3a/pool"
pooling_param {
pool: MAX
kernel_size: 3
stride: 1
pad: 1
}
}
layer {
name: "inception_3a/pool_proj"
type: "Convolution"
bottom: "inception_3a/pool"
top: "inception_3a/pool_proj"
param {
lr_mult: 1
decay_mult: 1
}
param {
lr_mult: 2
decay_mult: 0
}
convolution_param {
num_output: 32
kernel_size: 1
weight_filler {
type: "xavier"
std: 0.1
}
bias_filler {
type: "constant"
value: 0.2
}
}
}
layer {
name: "inception_3a/relu_pool_proj"
type: "ReLU"
bottom: "inception_3a/pool_proj"
top: "inception_3a/pool_proj"
}
layer {
name: "inception_3a/output"
type: "Concat"
bottom: "inception_3a/1x1"
bottom: "inception_3a/3x3"
bottom: "inception_3a/5x5"
bottom: "inception_3a/pool_proj"
top: "inception_3a/output"
}
layer {
name: "inception_3b/1x1"
type: "Convolution"
bottom: "inception_3a/output"
top: "inception_3b/1x1"
param {
lr_mult: 1
decay_mult: 1
}
param {
lr_mult: 2
decay_mult: 0
}
convolution_param {
num_output: 128
kernel_size: 1
weight_filler {
type: "xavier"
std: 0.03
}
bias_filler {
type: "constant"
value: 0.2
}
}
}
layer {
name: "inception_3b/relu_1x1"
type: "ReLU"
bottom: "inception_3b/1x1"
top: "inception_3b/1x1"
}
layer {
name: "inception_3b/3x3_reduce"
type: "Convolution"
bottom: "inception_3a/output"
top: "inception_3b/3x3_reduce"
param {
lr_mult: 1
decay_mult: 1
}
param {
lr_mult: 2
decay_mult: 0
}
convolution_param {
num_output: 128
kernel_size: 1
weight_filler {
type: "xavier"
std: 0.09
}
bias_filler {
type: "constant"
value: 0.2
}
}
}
layer {
name: "inception_3b/relu_3x3_reduce"
type: "ReLU"
bottom: "inception_3b/3x3_reduce"
top: "inception_3b/3x3_reduce"
}
layer {
name: "inception_3b/3x3"
type: "Convolution"
bottom: "inception_3b/3x3_reduce"
top: "inception_3b/3x3"
param {
lr_mult: 1
decay_mult: 1
}
param {
lr_mult: 2
decay_mult: 0
}
convolution_param {
num_output: 192
pad: 1
kernel_size: 3
weight_filler {
type: "xavier"
std: 0.03
}
bias_filler {
type: "constant"
value: 0.2
}
}
}
layer {
name: "inception_3b/relu_3x3"
type: "ReLU"
bottom: "inception_3b/3x3"
top: "inception_3b/3x3"
}
layer {
name: "inception_3b/5x5_reduce"
type: "Convolution"
bottom: "inception_3a/output"
top: "inception_3b/5x5_reduce"
param {
lr_mult: 1
decay_mult: 1
}
param {
lr_mult: 2
decay_mult: 0
}
convolution_param {
num_output: 32
kernel_size: 1
weight_filler {
type: "xavier"
std: 0.2
}
bias_filler {
type: "constant"
value: 0.2
}
}
}
layer {
name: "inception_3b/relu_5x5_reduce"
type: "ReLU"
bottom: "inception_3b/5x5_reduce"
top: "inception_3b/5x5_reduce"
}
layer {
name: "inception_3b/5x5"
type: "Convolution"
bottom: "inception_3b/5x5_reduce"
top: "inception_3b/5x5"
param {
lr_mult: 1
decay_mult: 1
}
param {
lr_mult: 2
decay_mult: 0
}
convolution_param {
num_output: 96
pad: 2
kernel_size: 5
weight_filler {
type: "xavier"
std: 0.03
}
bias_filler {
type: "constant"
value: 0.2
}
}
}
layer {
name: "inception_3b/relu_5x5"
type: "ReLU"
bottom: "inception_3b/5x5"
top: "inception_3b/5x5"
}
layer {
name: "inception_3b/pool"
type: "Pooling"
bottom: "inception_3a/output"
top: "inception_3b/pool"
pooling_param {
pool: MAX
kernel_size: 3
stride: 1
pad: 1
}
}
layer {
name: "inception_3b/pool_proj"
type: "Convolution"
bottom: "inception_3b/pool"
top: "inception_3b/pool_proj"
param {
lr_mult: 1
decay_mult: 1
}
param {
lr_mult: 2
decay_mult: 0
}
convolution_param {
num_output: 64
kernel_size: 1
weight_filler {
type: "xavier"
std: 0.1
}
bias_filler {
type: "constant"
value: 0.2
}
}
}
layer {
name: "inception_3b/relu_pool_proj"
type: "ReLU"
bottom: "inception_3b/pool_proj"
top: "inception_3b/pool_proj"
}
layer {
name: "inception_3b/output"
type: "Concat"
bottom: "inception_3b/1x1"
bottom: "inception_3b/3x3"
bottom: "inception_3b/5x5"
bottom: "inception_3b/pool_proj"
top: "inception_3b/output"
}
layer {
name: "pool3/3x3_s2"
type: "Pooling"
bottom: "inception_3b/output"
top: "pool3/3x3_s2"
pooling_param {
pool: MAX
kernel_size: 3
stride: 2
}
}
layer {
name: "inception_4a/1x1"
type: "Convolution"
bottom: "pool3/3x3_s2"
top: "inception_4a/1x1"
param {
lr_mult: 1
decay_mult: 1
}
param {
lr_mult: 2
decay_mult: 0
}
convolution_param {
num_output: 192
kernel_size: 1
weight_filler {
type: "xavier"
std: 0.03
}
bias_filler {
type: "constant"
value: 0.2
}
}
}
layer {
name: "inception_4a/relu_1x1"
type: "ReLU"
bottom: "inception_4a/1x1"
top: "inception_4a/1x1"
}
layer {
name: "inception_4a/3x3_reduce"
type: "Convolution"
bottom: "pool3/3x3_s2"
top: "inception_4a/3x3_reduce"
param {
lr_mult: 1
decay_mult: 1
}
param {
lr_mult: 2
decay_mult: 0
}
convolution_param {
num_output: 96
kernel_size: 1
weight_filler {
type: "xavier"
std: 0.09
}
bias_filler {
type: "constant"
value: 0.2
}
}
}
layer {
name: "inception_4a/relu_3x3_reduce"
type: "ReLU"
bottom: "inception_4a/3x3_reduce"
top: "inception_4a/3x3_reduce"
}
layer {
name: "inception_4a/3x3"
type: "Convolution"
bottom: "inception_4a/3x3_reduce"
top: "inception_4a/3x3"
param {
lr_mult: 1
decay_mult: 1
}
param {
lr_mult: 2
decay_mult: 0
}
convolution_param {
num_output: 208
pad: 1
kernel_size: 3
weight_filler {
type: "xavier"
std: 0.03
}
bias_filler {
type: "constant"
value: 0.2
}
}
}
layer {
name: "inception_4a/relu_3x3"
type: "ReLU"
bottom: "inception_4a/3x3"
top: "inception_4a/3x3"
}
layer {
name: "inception_4a/5x5_reduce"
type: "Convolution"
bottom: "pool3/3x3_s2"
top: "inception_4a/5x5_reduce"
param {
lr_mult: 1
decay_mult: 1
}
param {
lr_mult: 2
decay_mult: 0
}
convolution_param {
num_output: 16
kernel_size: 1
weight_filler {
type: "xavier"
std: 0.2
}
bias_filler {
type: "constant"
value: 0.2
}
}
}
layer {
name: "inception_4a/relu_5x5_reduce"
type: "ReLU"
bottom: "inception_4a/5x5_reduce"
top: "inception_4a/5x5_reduce"
}
layer {
name: "inception_4a/5x5"
type: "Convolution"
bottom: "inception_4a/5x5_reduce"
top: "inception_4a/5x5"
param {
lr_mult: 1
decay_mult: 1
}
param {
lr_mult: 2
decay_mult: 0
}
convolution_param {
num_output: 48
pad: 2
kernel_size: 5
weight_filler {
type: "xavier"
std: 0.03
}
bias_filler {
type: "constant"
value: 0.2
}
}
}
layer {
name: "inception_4a/relu_5x5"
type: "ReLU"
bottom: "inception_4a/5x5"
top: "inception_4a/5x5"
}
layer {
name: "inception_4a/pool"
type: "Pooling"
bottom: "pool3/3x3_s2"
top: "inception_4a/pool"
pooling_param {
pool: MAX
kernel_size: 3
stride: 1
pad: 1
}
}
layer {
name: "inception_4a/pool_proj"
type: "Convolution"
bottom: "inception_4a/pool"
top: "inception_4a/pool_proj"
param {
lr_mult: 1
decay_mult: 1
}
param {
lr_mult: 2
decay_mult: 0
}
convolution_param {
num_output: 64
kernel_size: 1
weight_filler {
type: "xavier"
std: 0.1
}
bias_filler {
type: "constant"
value: 0.2
}
}
}
layer {
name: "inception_4a/relu_pool_proj"
type: "ReLU"
bottom: "inception_4a/pool_proj"
top: "inception_4a/pool_proj"
}
layer {
name: "inception_4a/output"
type: "Concat"
bottom: "inception_4a/1x1"
bottom: "inception_4a/3x3"
bottom: "inception_4a/5x5"
bottom: "inception_4a/pool_proj"
top: "inception_4a/output"
}
layer {
name: "loss1/ave_pool"
type: "Pooling"
bottom: "inception_4a/output"
top: "loss1/ave_pool"
pooling_param {
pool: AVE
kernel_size: 5
stride: 3
}
}
layer {
name: "loss1/conv"
type: "Convolution"
bottom: "loss1/ave_pool"
top: "loss1/conv"
param {
lr_mult: 1
decay_mult: 1
}
param {
lr_mult: 2
decay_mult: 0
}
convolution_param {
num_output: 128
kernel_size: 1
weight_filler {
type: "xavier"
std: 0.08
}
bias_filler {
type: "constant"
value: 0.2
}
}
}
layer {
name: "loss1/relu_conv"
type: "ReLU"
bottom: "loss1/conv"
top: "loss1/conv"
}
layer {
name: "loss1/fc"
type: "InnerProduct"
bottom: "loss1/conv"
top: "loss1/fc"
param {
lr_mult: 1
decay_mult: 1
}
param {
lr_mult: 2
decay_mult: 0
}
inner_product_param {
num_output: 1024
weight_filler {
type: "xavier"
std: 0.02
}
bias_filler {
type: "constant"
value: 0.2
}
}
}
layer {
name: "loss1/relu_fc"
type: "ReLU"
bottom: "loss1/fc"
top: "loss1/fc"
}
layer {
name: "loss1/drop_fc"
type: "Dropout"
bottom: "loss1/fc"
top: "loss1/fc"
dropout_param {
dropout_ratio: 0.7
}
}
layer {
name: "loss1/classifier"
type: "InnerProduct"
bottom: "loss1/fc"
top: "loss1/classifier"
param {
lr_mult: 1
decay_mult: 1
}
param {
lr_mult: 2
decay_mult: 0
}
inner_product_param {
num_output: 196
weight_filler {
type: "xavier"
std: 0.0009765625
}
bias_filler {
type: "constant"
value: 0
}
}
}
layer {
name: "loss1/loss"
type: "SoftmaxWithLoss"
bottom: "loss1/classifier"
bottom: "label"
top: "loss1/loss"
loss_weight: 0.3
}
layer {
name: "loss1/top-1"
type: "Accuracy"
bottom: "loss1/classifier"
bottom: "label"
top: "loss1/accuracy"
include {
phase: TEST
}
}
layer {
name: "loss1/top-5"
type: "Accuracy"
bottom: "loss1/classifier"
bottom: "label"
top: "loss1/accuracy-top5"
include {
phase: TEST
}
accuracy_param {
top_k: 5
}
}
layer {
name: "inception_4b/1x1"
type: "Convolution"
bottom: "inception_4a/output"
top: "inception_4b/1x1"
param {
lr_mult: 1
decay_mult: 1
}
param {
lr_mult: 2
decay_mult: 0
}
convolution_param {
num_output: 160
kernel_size: 1
weight_filler {
type: "xavier"
std: 0.03
}
bias_filler {
type: "constant"
value: 0.2
}
}
}
layer {
name: "inception_4b/relu_1x1"
type: "ReLU"
bottom: "inception_4b/1x1"
top: "inception_4b/1x1"
}
layer {
name: "inception_4b/3x3_reduce"
type: "Convolution"
bottom: "inception_4a/output"
top: "inception_4b/3x3_reduce"
param {
lr_mult: 1
decay_mult: 1
}
param {
lr_mult: 2
decay_mult: 0
}
convolution_param {
num_output: 112
kernel_size: 1
weight_filler {
type: "xavier"
std: 0.09
}
bias_filler {
type: "constant"
value: 0.2
}
}
}
layer {
name: "inception_4b/relu_3x3_reduce"
type: "ReLU"
bottom: "inception_4b/3x3_reduce"
top: "inception_4b/3x3_reduce"
}
layer {
name: "inception_4b/3x3"
type: "Convolution"
bottom: "inception_4b/3x3_reduce"
top: "inception_4b/3x3"
param {
lr_mult: 1
decay_mult: 1
}
param {
lr_mult: 2
decay_mult: 0
}
convolution_param {
num_output: 224
pad: 1
kernel_size: 3
weight_filler {
type: "xavier"
std: 0.03
}
bias_filler {
type: "constant"
value: 0.2
}
}
}
layer {
name: "inception_4b/relu_3x3"
type: "ReLU"
bottom: "inception_4b/3x3"
top: "inception_4b/3x3"
}
layer {
name: "inception_4b/5x5_reduce"
type: "Convolution"
bottom: "inception_4a/output"
top: "inception_4b/5x5_reduce"
param {
lr_mult: 1
decay_mult: 1
}
param {
lr_mult: 2
decay_mult: 0
}
convolution_param {
num_output: 24
kernel_size: 1
weight_filler {
type: "xavier"
std: 0.2
}
bias_filler {
type: "constant"
value: 0.2
}
}
}
layer {
name: "inception_4b/relu_5x5_reduce"
type: "ReLU"
bottom: "inception_4b/5x5_reduce"
top: "inception_4b/5x5_reduce"
}
layer {
name: "inception_4b/5x5"
type: "Convolution"
bottom: "inception_4b/5x5_reduce"
top: "inception_4b/5x5"
param {
lr_mult: 1
decay_mult: 1
}
param {
lr_mult: 2
decay_mult: 0
}
convolution_param {
num_output: 64
pad: 2
kernel_size: 5
weight_filler {
type: "xavier"
std: 0.03
}
bias_filler {
type: "constant"
value: 0.2
}
}
}
layer {
name: "inception_4b/relu_5x5"
type: "ReLU"
bottom: "inception_4b/5x5"
top: "inception_4b/5x5"
}
layer {
name: "inception_4b/pool"
type: "Pooling"
bottom: "inception_4a/output"
top: "inception_4b/pool"
pooling_param {
pool: MAX
kernel_size: 3
stride: 1
pad: 1
}
}
layer {
name: "inception_4b/pool_proj"
type: "Convolution"
bottom: "inception_4b/pool"
top: "inception_4b/pool_proj"
param {
lr_mult: 1
decay_mult: 1
}
param {
lr_mult: 2
decay_mult: 0
}
convolution_param {
num_output: 64
kernel_size: 1
weight_filler {
type: "xavier"
std: 0.1
}
bias_filler {
type: "constant"
value: 0.2
}
}
}
layer {
name: "inception_4b/relu_pool_proj"
type: "ReLU"
bottom: "inception_4b/pool_proj"
top: "inception_4b/pool_proj"
}
layer {
name: "inception_4b/output"
type: "Concat"
bottom: "inception_4b/1x1"
bottom: "inception_4b/3x3"
bottom: "inception_4b/5x5"
bottom: "inception_4b/pool_proj"
top: "inception_4b/output"
}
layer {
name: "inception_4c/1x1"
type: "Convolution"
bottom: "inception_4b/output"
top: "inception_4c/1x1"
param {
lr_mult: 1
decay_mult: 1
}
param {
lr_mult: 2
decay_mult: 0
}
convolution_param {
num_output: 128
kernel_size: 1
weight_filler {
type: "xavier"
std: 0.03
}
bias_filler {
type: "constant"
value: 0.2
}
}
}
layer {
name: "inception_4c/relu_1x1"
type: "ReLU"
bottom: "inception_4c/1x1"
top: "inception_4c/1x1"
}
layer {
name: "inception_4c/3x3_reduce"
type: "Convolution"
bottom: "inception_4b/output"
top: "inception_4c/3x3_reduce"
param {
lr_mult: 1
decay_mult: 1
}
param {
lr_mult: 2
decay_mult: 0
}
convolution_param {
num_output: 128
kernel_size: 1
weight_filler {
type: "xavier"
std: 0.09
}
bias_filler {
type: "constant"
value: 0.2
}
}
}
layer {
name: "inception_4c/relu_3x3_reduce"
type: "ReLU"
bottom: "inception_4c/3x3_reduce"
top: "inception_4c/3x3_reduce"
}
layer {
name: "inception_4c/3x3"
type: "Convolution"
bottom: "inception_4c/3x3_reduce"
top: "inception_4c/3x3"
param {
lr_mult: 1
decay_mult: 1
}
param {
lr_mult: 2
decay_mult: 0
}
convolution_param {
num_output: 256
pad: 1
kernel_size: 3
weight_filler {
type: "xavier"
std: 0.03
}
bias_filler {
type: "constant"
value: 0.2
}
}
}
layer {
name: "inception_4c/relu_3x3"
type: "ReLU"
bottom: "inception_4c/3x3"
top: "inception_4c/3x3"
}
layer {
name: "inception_4c/5x5_reduce"
type: "Convolution"
bottom: "inception_4b/output"
top: "inception_4c/5x5_reduce"
param {
lr_mult: 1
decay_mult: 1
}
param {
lr_mult: 2
decay_mult: 0
}
convolution_param {
num_output: 24
kernel_size: 1
weight_filler {
type: "xavier"
std: 0.2
}
bias_filler {
type: "constant"
value: 0.2
}
}
}
layer {
name: "inception_4c/relu_5x5_reduce"
type: "ReLU"
bottom: "inception_4c/5x5_reduce"
top: "inception_4c/5x5_reduce"
}
layer {
name: "inception_4c/5x5"
type: "Convolution"
bottom: "inception_4c/5x5_reduce"
top: "inception_4c/5x5"
param {
lr_mult: 1
decay_mult: 1
}
param {
lr_mult: 2
decay_mult: 0
}
convolution_param {
num_output: 64
pad: 2
kernel_size: 5
weight_filler {
type: "xavier"
std: 0.03
}
bias_filler {
type: "constant"
value: 0.2
}
}
}
layer {
name: "inception_4c/relu_5x5"
type: "ReLU"
bottom: "inception_4c/5x5"
top: "inception_4c/5x5"
}
layer {
name: "inception_4c/pool"
type: "Pooling"
bottom: "inception_4b/output"
top: "inception_4c/pool"
pooling_param {
pool: MAX
kernel_size: 3
stride: 1
pad: 1
}
}
layer {
name: "inception_4c/pool_proj"
type: "Convolution"
bottom: "inception_4c/pool"
top: "inception_4c/pool_proj"
param {
lr_mult: 1
decay_mult: 1
}
param {
lr_mult: 2
decay_mult: 0
}
convolution_param {
num_output: 64
kernel_size: 1
weight_filler {
type: "xavier"
std: 0.1
}
bias_filler {
type: "constant"
value: 0.2
}
}
}
layer {
name: "inception_4c/relu_pool_proj"
type: "ReLU"
bottom: "inception_4c/pool_proj"
top: "inception_4c/pool_proj"
}
layer {
name: "inception_4c/output"
type: "Concat"
bottom: "inception_4c/1x1"
bottom: "inception_4c/3x3"
bottom: "inception_4c/5x5"
bottom: "inception_4c/pool_proj"
top: "inception_4c/output"
}
layer {
name: "inception_4d/1x1"
type: "Convolution"
bottom: "inception_4c/output"
top: "inception_4d/1x1"
param {
lr_mult: 1
decay_mult: 1
}
param {
lr_mult: 2
decay_mult: 0
}
convolution_param {
num_output: 112
kernel_size: 1
weight_filler {
type: "xavier"
std: 0.03
}
bias_filler {
type: "constant"
value: 0.2
}
}
}
layer {
name: "inception_4d/relu_1x1"
type: "ReLU"
…
I0509 17:28:53.298302 15842 net.cpp:129] Top shape: 50 64 14 14 (627200)
I0509 17:28:53.298305 15842 net.cpp:137] Memory required for data: 2189650012
I0509 17:28:53.298308 15842 layer_factory.hpp:77] Creating layer inception_4c/pool
I0509 17:28:53.298318 15842 net.cpp:84] Creating Layer inception_4c/pool
I0509 17:28:53.298322 15842 net.cpp:406] inception_4c/pool <- inception_4b/output_inception_4b/output_0_split_3
I0509 17:28:53.298328 15842 net.cpp:380] inception_4c/pool -> inception_4c/pool
I0509 17:28:53.298372 15842 net.cpp:122] Setting up inception_4c/pool
I0509 17:28:53.298378 15842 net.cpp:129] Top shape: 50 512 14 14 (5017600)
I0509 17:28:53.298382 15842 net.cpp:137] Memory required for data: 2209720412
I0509 17:28:53.298383 15842 layer_factory.hpp:77] Creating layer inception_4c/pool_proj
I0509 17:28:53.298394 15842 net.cpp:84] Creating Layer inception_4c/pool_proj
I0509 17:28:53.298398 15842 net.cpp:406] inception_4c/pool_proj <- inception_4c/pool
I0509 17:28:53.298404 15842 net.cpp:380] inception_4c/pool_proj -> inception_4c/pool_proj
I0509 17:28:53.300616 15842 net.cpp:122] Setting up inception_4c/pool_proj
I0509 17:28:53.300626 15842 net.cpp:129] Top shape: 50 64 14 14 (627200)
I0509 17:28:53.300628 15842 net.cpp:137] Memory required for data: 2212229212
I0509 17:28:53.300634 15842 layer_factory.hpp:77] Creating layer inception_4c/relu_pool_proj
I0509 17:28:53.300640 15842 net.cpp:84] Creating Layer inception_4c/relu_pool_proj
I0509 17:28:53.300643 15842 net.cpp:406] inception_4c/relu_pool_proj <- inception_4c/pool_proj
I0509 17:28:53.300650 15842 net.cpp:367] inception_4c/relu_pool_proj -> inception_4c/pool_proj (in-place)
I0509 17:28:53.303722 15842 net.cpp:122] Setting up inception_4c/relu_pool_proj
I0509 17:28:53.303733 15842 net.cpp:129] Top shape: 50 64 14 14 (627200)
I0509 17:28:53.303736 15842 net.cpp:137] Memory required for data: 2214738012
I0509 17:28:53.303740 15842 layer_factory.hpp:77] Creating layer inception_4c/output
I0509 17:28:53.303745 15842 net.cpp:84] Creating Layer inception_4c/output
I0509 17:28:53.303750 15842 net.cpp:406] inception_4c/output <- inception_4c/1x1
I0509 17:28:53.303753 15842 net.cpp:406] inception_4c/output <- inception_4c/3x3
I0509 17:28:53.303774 15842 net.cpp:406] inception_4c/output <- inception_4c/5x5
I0509 17:28:53.303778 15842 net.cpp:406] inception_4c/output <- inception_4c/pool_proj
I0509 17:28:53.303786 15842 net.cpp:380] inception_4c/output -> inception_4c/output
I0509 17:28:53.303817 15842 net.cpp:122] Setting up inception_4c/output
I0509 17:28:53.303822 15842 net.cpp:129] Top shape: 50 512 14 14 (5017600)
I0509 17:28:53.303824 15842 net.cpp:137] Memory required for data: 2234808412
I0509 17:28:53.303828 15842 layer_factory.hpp:77] Creating layer inception_4c/output_inception_4c/output_0_split
I0509 17:28:53.303833 15842 net.cpp:84] Creating Layer inception_4c/output_inception_4c/output_0_split
I0509 17:28:53.303835 15842 net.cpp:406] inception_4c/output_inception_4c/output_0_split <- inception_4c/output
I0509 17:28:53.303843 15842 net.cpp:380] inception_4c/output_inception_4c/output_0_split -> inception_4c/output_inception_4c/output_0_split_0
I0509 17:28:53.303848 15842 net.cpp:380] inception_4c/output_inception_4c/output_0_split -> inception_4c/output_inception_4c/output_0_split_1
I0509 17:28:53.303853 15842 net.cpp:380] inception_4c/output_inception_4c/output_0_split -> inception_4c/output_inception_4c/output_0_split_2
I0509 17:28:53.303860 15842 net.cpp:380] inception_4c/output_inception_4c/output_0_split -> inception_4c/output_inception_4c/output_0_split_3
I0509 17:28:53.303910 15842 net.cpp:122] Setting up inception_4c/output_inception_4c/output_0_split
I0509 17:28:53.303915 15842 net.cpp:129] Top shape: 50 512 14 14 (5017600)
I0509 17:28:53.303918 15842 net.cpp:129] Top shape: 50 512 14 14 (5017600)
I0509 17:28:53.303921 15842 net.cpp:129] Top shape: 50 512 14 14 (5017600)
I0509 17:28:53.303925 15842 net.cpp:129] Top shape: 50 512 14 14 (5017600)
I0509 17:28:53.303927 15842 net.cpp:137] Memory required for data: 2315090012
I0509 17:28:53.303930 15842 layer_factory.hpp:77] Creating layer inception_4d/1x1
I0509 17:28:53.303939 15842 net.cpp:84] Creating Layer inception_4d/1x1
I0509 17:28:53.303942 15842 net.cpp:406] inception_4d/1x1 <- inception_4c/output_inception_4c/output_0_split_0
I0509 17:28:53.303948 15842 net.cpp:380] inception_4d/1x1 -> inception_4d/1x1
I0509 17:28:53.306283 15842 net.cpp:122] Setting up inception_4d/1x1
I0509 17:28:53.306293 15842 net.cpp:129] Top shape: 50 112 14 14 (1097600)
I0509 17:28:53.306296 15842 net.cpp:137] Memory required for data: 2319480412
I0509 17:28:53.306303 15842 layer_factory.hpp:77] Creating layer inception_4d/relu_1x1
I0509 17:28:53.306308 15842 net.cpp:84] Creating Layer inception_4d/relu_1x1
I0509 17:28:53.306313 15842 net.cpp:406] inception_4d/relu_1x1 <- inception_4d/1x1
I0509 17:28:53.306320 15842 net.cpp:367] inception_4d/relu_1x1 -> inception_4d/1x1 (in-place)
I0509 17:28:53.306892 15842 net.cpp:122] Setting up inception_4d/relu_1x1
I0509 17:28:53.306903 15842 net.cpp:129] Top shape: 50 112 14 14 (1097600)
I0509 17:28:53.306905 15842 net.cpp:137] Memory required for data: 2323870812
I0509 17:28:53.306908 15842 layer_factory.hpp:77] Creating layer inception_4d/3x3_reduce
I0509 17:28:53.306918 15842 net.cpp:84] Creating Layer inception_4d/3x3_reduce
I0509 17:28:53.306922 15842 net.cpp:406] inception_4d/3x3_reduce <- inception_4c/output_inception_4c/output_0_split_1
I0509 17:28:53.306931 15842 net.cpp:380] inception_4d/3x3_reduce -> inception_4d/3x3_reduce
I0509 17:28:53.311282 15842 net.cpp:122] Setting up inception_4d/3x3_reduce
I0509 17:28:53.311296 15842 net.cpp:129] Top shape: 50 144 14 14 (1411200)
I0509 17:28:53.311300 15842 net.cpp:137] Memory required for data: 2329515612
I0509 17:28:53.311306 15842 layer_factory.hpp:77] Creating layer inception_4d/relu_3x3_reduce
I0509 17:28:53.311313 15842 net.cpp:84] Creating Layer inception_4d/relu_3x3_reduce
I0509 17:28:53.311317 15842 net.cpp:406] inception_4d/relu_3x3_reduce <- inception_4d/3x3_reduce
I0509 17:28:53.311324 15842 net.cpp:367] inception_4d/relu_3x3_reduce -> inception_4d/3x3_reduce (in-place)
I0509 17:28:53.311710 15842 net.cpp:122] Setting up inception_4d/relu_3x3_reduce
I0509 17:28:53.311719 15842 net.cpp:129] Top shape: 50 144 14 14 (1411200)
I0509 17:28:53.311738 15842 net.cpp:137] Memory required for data: 2335160412
I0509 17:28:53.311743 15842 layer_factory.hpp:77] Creating layer inception_4d/3x3
I0509 17:28:53.311753 15842 net.cpp:84] Creating Layer inception_4d/3x3
I0509 17:28:53.311756 15842 net.cpp:406] inception_4d/3x3 <- inception_4d/3x3_reduce
I0509 17:28:53.311764 15842 net.cpp:380] inception_4d/3x3 -> inception_4d/3x3
I0509 17:28:53.316612 15842 net.cpp:122] Setting up inception_4d/3x3
I0509 17:28:53.316623 15842 net.cpp:129] Top shape: 50 288 14 14 (2822400)
I0509 17:28:53.316627 15842 net.cpp:137] Memory required for data: 2346450012
I0509 17:28:53.316632 15842 layer_factory.hpp:77] Creating layer inception_4d/relu_3x3
I0509 17:28:53.316638 15842 net.cpp:84] Creating Layer inception_4d/relu_3x3
I0509 17:28:53.316642 15842 net.cpp:406] inception_4d/relu_3x3 <- inception_4d/3x3
I0509 17:28:53.316649 15842 net.cpp:367] inception_4d/relu_3x3 -> inception_4d/3x3 (in-place)
I0509 17:28:53.317036 15842 net.cpp:122] Setting up inception_4d/relu_3x3
I0509 17:28:53.317044 15842 net.cpp:129] Top shape: 50 288 14 14 (2822400)
I0509 17:28:53.317047 15842 net.cpp:137] Memory required for data: 2357739612
I0509 17:28:53.317050 15842 layer_factory.hpp:77] Creating layer inception_4d/5x5_reduce
I0509 17:28:53.317060 15842 net.cpp:84] Creating Layer inception_4d/5x5_reduce
I0509 17:28:53.317065 15842 net.cpp:406] inception_4d/5x5_reduce <- inception_4c/output_inception_4c/output_0_split_2
I0509 17:28:53.317071 15842 net.cpp:380] inception_4d/5x5_reduce -> inception_4d/5x5_reduce
I0509 17:28:53.321350 15842 net.cpp:122] Setting up inception_4d/5x5_reduce
I0509 17:28:53.321365 15842 net.cpp:129] Top shape: 50 32 14 14 (313600)
I0509 17:28:53.321368 15842 net.cpp:137] Memory required for data: 2358994012
I0509 17:28:53.321374 15842 layer_factory.hpp:77] Creating layer inception_4d/relu_5x5_reduce
I0509 17:28:53.321382 15842 net.cpp:84] Creating Layer inception_4d/relu_5x5_reduce
I0509 17:28:53.321385 15842 net.cpp:406] inception_4d/relu_5x5_reduce <- inception_4d/5x5_reduce
I0509 17:28:53.321393 15842 net.cpp:367] inception_4d/relu_5x5_reduce -> inception_4d/5x5_reduce (in-place)
I0509 17:28:53.321962 15842 net.cpp:122] Setting up inception_4d/relu_5x5_reduce
I0509 17:28:53.321972 15842 net.cpp:129] Top shape: 50 32 14 14 (313600)
I0509 17:28:53.321974 15842 net.cpp:137] Memory required for data: 2360248412
I0509 17:28:53.321977 15842 layer_factory.hpp:77] Creating layer inception_4d/5x5
I0509 17:28:53.321990 15842 net.cpp:84] Creating Layer inception_4d/5x5
I0509 17:28:53.321995 15842 net.cpp:406] inception_4d/5x5 <- inception_4d/5x5_reduce
I0509 17:28:53.322001 15842 net.cpp:380] inception_4d/5x5 -> inception_4d/5x5
I0509 17:28:53.324323 15842 net.cpp:122] Setting up inception_4d/5x5
I0509 17:28:53.324333 15842 net.cpp:129] Top shape: 50 64 14 14 (627200)
I0509 17:28:53.324337 15842 net.cpp:137] Memory required for data: 2362757212
I0509 17:28:53.324342 15842 layer_factory.hpp:77] Creating layer inception_4d/relu_5x5
I0509 17:28:53.324348 15842 net.cpp:84] Creating Layer inception_4d/relu_5x5
I0509 17:28:53.324352 15842 net.cpp:406] inception_4d/relu_5x5 <- inception_4d/5x5
I0509 17:28:53.324357 15842 net.cpp:367] inception_4d/relu_5x5 -> inception_4d/5x5 (in-place)
I0509 17:28:53.324931 15842 net.cpp:122] Setting up inception_4d/relu_5x5
I0509 17:28:53.324941 15842 net.cpp:129] Top shape: 50 64 14 14 (627200)
I0509 17:28:53.324944 15842 net.cpp:137] Memory required for data: 2365266012
I0509 17:28:53.324946 15842 layer_factory.hpp:77] Creating layer inception_4d/pool
I0509 17:28:53.324956 15842 net.cpp:84] Creating Layer inception_4d/pool
I0509 17:28:53.324961 15842 net.cpp:406] inception_4d/pool <- inception_4c/output_inception_4c/output_0_split_3
I0509 17:28:53.324967 15842 net.cpp:380] inception_4d/pool -> inception_4d/pool
I0509 17:28:53.325008 15842 net.cpp:122] Setting up inception_4d/pool
I0509 17:28:53.325014 15842 net.cpp:129] Top shape: 50 512 14 14 (5017600)
I0509 17:28:53.325016 15842 net.cpp:137] Memory required for data: 2385336412
I0509 17:28:53.325038 15842 layer_factory.hpp:77] Creating layer inception_4d/pool_proj
I0509 17:28:53.325047 15842 net.cpp:84] Creating Layer inception_4d/pool_proj
I0509 17:28:53.325050 15842 net.cpp:406] inception_4d/pool_proj <- inception_4d/pool
I0509 17:28:53.325057 15842 net.cpp:380] inception_4d/pool_proj -> inception_4d/pool_proj
I0509 17:28:53.327226 15842 net.cpp:122] Setting up inception_4d/pool_proj
I0509 17:28:53.327236 15842 net.cpp:129] Top shape: 50 64 14 14 (627200)
I0509 17:28:53.327239 15842 net.cpp:137] Memory required for data: 2387845212
I0509 17:28:53.327245 15842 layer_factory.hpp:77] Creating layer inception_4d/relu_pool_proj
I0509 17:28:53.327252 15842 net.cpp:84] Creating Layer inception_4d/relu_pool_proj
I0509 17:28:53.327256 15842 net.cpp:406] inception_4d/relu_pool_proj <- inception_4d/pool_proj
I0509 17:28:53.327260 15842 net.cpp:367] inception_4d/relu_pool_proj -> inception_4d/pool_proj (in-place)
I0509 17:28:53.327836 15842 net.cpp:122] Setting up inception_4d/relu_pool_proj
I0509 17:28:53.327845 15842 net.cpp:129] Top shape: 50 64 14 14 (627200)
I0509 17:28:53.327847 15842 net.cpp:137] Memory required for data: 2390354012
I0509 17:28:53.327852 15842 layer_factory.hpp:77] Creating layer inception_4d/output
I0509 17:28:53.327857 15842 net.cpp:84] Creating Layer inception_4d/output
I0509 17:28:53.327862 15842 net.cpp:406] inception_4d/output <- inception_4d/1x1
I0509 17:28:53.327867 15842 net.cpp:406] inception_4d/output <- inception_4d/3x3
I0509 17:28:53.327872 15842 net.cpp:406] inception_4d/output <- inception_4d/5x5
I0509 17:28:53.327874 15842 net.cpp:406] inception_4d/output <- inception_4d/pool_proj
I0509 17:28:53.327879 15842 net.cpp:380] inception_4d/output -> inception_4d/output
I0509 17:28:53.327911 15842 net.cpp:122] Setting up inception_4d/output
I0509 17:28:53.327916 15842 net.cpp:129] Top shape: 50 528 14 14 (5174400)
I0509 17:28:53.327919 15842 net.cpp:137] Memory required for data: 2411051612
I0509 17:28:53.327921 15842 layer_factory.hpp:77] Creating layer inception_4d/output_inception_4d/output_0_split
I0509 17:28:53.327929 15842 net.cpp:84] Creating Layer inception_4d/output_inception_4d/output_0_split
I0509 17:28:53.327931 15842 net.cpp:406] inception_4d/output_inception_4d/output_0_split <- inception_4d/output
I0509 17:28:53.327937 15842 net.cpp:380] inception_4d/output_inception_4d/output_0_split -> inception_4d/output_inception_4d/output_0_split_0
I0509 17:28:53.327944 15842 net.cpp:380] inception_4d/output_inception_4d/output_0_split -> inception_4d/output_inception_4d/output_0_split_1
I0509 17:28:53.327950 15842 net.cpp:380] inception_4d/output_inception_4d/output_0_split -> inception_4d/output_inception_4d/output_0_split_2
I0509 17:28:53.327956 15842 net.cpp:380] inception_4d/output_inception_4d/output_0_split -> inception_4d/output_inception_4d/output_0_split_3
I0509 17:28:53.327961 15842 net.cpp:380] inception_4d/output_inception_4d/output_0_split -> inception_4d/output_inception_4d/output_0_split_4
I0509 17:28:53.328022 15842 net.cpp:122] Setting up inception_4d/output_inception_4d/output_0_split
I0509 17:28:53.328027 15842 net.cpp:129] Top shape: 50 528 14 14 (5174400)
I0509 17:28:53.328030 15842 net.cpp:129] Top shape: 50 528 14 14 (5174400)
I0509 17:28:53.328034 15842 net.cpp:129] Top shape: 50 528 14 14 (5174400)
I0509 17:28:53.328037 15842 net.cpp:129] Top shape: 50 528 14 14 (5174400)
I0509 17:28:53.328042 15842 net.cpp:129] Top shape: 50 528 14 14 (5174400)
I0509 17:28:53.328043 15842 net.cpp:137] Memory required for data: 2514539612
I0509 17:28:53.328047 15842 layer_factory.hpp:77] Creating layer loss2/ave_pool
I0509 17:28:53.328054 15842 net.cpp:84] Creating Layer loss2/ave_pool
I0509 17:28:53.328058 15842 net.cpp:406] loss2/ave_pool <- inception_4d/output_inception_4d/output_0_split_0
I0509 17:28:53.328063 15842 net.cpp:380] loss2/ave_pool -> loss2/ave_pool
I0509 17:28:53.330602 15842 net.cpp:122] Setting up loss2/ave_pool
I0509 17:28:53.330615 15842 net.cpp:129] Top shape: 50 528 4 4 (422400)
I0509 17:28:53.330617 15842 net.cpp:137] Memory required for data: 2516229212
I0509 17:28:53.330637 15842 layer_factory.hpp:77] Creating layer loss2/conv
I0509 17:28:53.330649 15842 net.cpp:84] Creating Layer loss2/conv
I0509 17:28:53.330653 15842 net.cpp:406] loss2/conv <- loss2/ave_pool
I0509 17:28:53.330659 15842 net.cpp:380] loss2/conv -> loss2/conv
I0509 17:28:53.333051 15842 net.cpp:122] Setting up loss2/conv
I0509 17:28:53.333061 15842 net.cpp:129] Top shape: 50 128 4 4 (102400)
I0509 17:28:53.333065 15842 net.cpp:137] Memory required for data: 2516638812
I0509 17:28:53.333070 15842 layer_factory.hpp:77] Creating layer loss2/relu_conv
I0509 17:28:53.333076 15842 net.cpp:84] Creating Layer loss2/relu_conv
I0509 17:28:53.333081 15842 net.cpp:406] loss2/relu_conv <- loss2/conv
I0509 17:28:53.333086 15842 net.cpp:367] loss2/relu_conv -> loss2/conv (in-place)
I0509 17:28:53.333669 15842 net.cpp:122] Setting up loss2/relu_conv
I0509 17:28:53.333678 15842 net.cpp:129] Top shape: 50 128 4 4 (102400)
I0509 17:28:53.333681 15842 net.cpp:137] Memory required for data: 2517048412
I0509 17:28:53.333684 15842 layer_factory.hpp:77] Creating layer loss2/fc
I0509 17:28:53.333694 15842 net.cpp:84] Creating Layer loss2/fc
I0509 17:28:53.333698 15842 net.cpp:406] loss2/fc <- loss2/conv
I0509 17:28:53.333704 15842 net.cpp:380] loss2/fc -> loss2/fc
I0509 17:28:53.345701 15842 net.cpp:122] Setting up loss2/fc
I0509 17:28:53.345722 15842 net.cpp:129] Top shape: 50 1024 (51200)
I0509 17:28:53.345726 15842 net.cpp:137] Memory required for data: 2517253212
I0509 17:28:53.345734 15842 layer_factory.hpp:77] Creating layer loss2/relu_fc
I0509 17:28:53.345742 15842 net.cpp:84] Creating Layer loss2/relu_fc
I0509 17:28:53.345747 15842 net.cpp:406] loss2/relu_fc <- loss2/fc
I0509 17:28:53.345753 15842 net.cpp:367] loss2/relu_fc -> loss2/fc (in-place)
I0509 17:28:53.346488 15842 net.cpp:122] Setting up loss2/relu_fc
I0509 17:28:53.346498 15842 net.cpp:129] Top shape: 50 1024 (51200)
I0509 17:28:53.346499 15842 net.cpp:137] Memory required for data: 2517458012
I0509 17:28:53.346503 15842 layer_factory.hpp:77] Creating layer loss2/drop_fc
I0509 17:28:53.346510 15842 net.cpp:84] Creating Layer loss2/drop_fc
I0509 17:28:53.346514 15842 net.cpp:406] loss2/drop_fc <- loss2/fc
I0509 17:28:53.346518 15842 net.cpp:367] loss2/drop_fc -> loss2/fc (in-place)
I0509 17:28:53.346545 15842 net.cpp:122] Setting up loss2/drop_fc
I0509 17:28:53.346549 15842 net.cpp:129] Top shape: 50 1024 (51200)
I0509 17:28:53.346552 15842 net.cpp:137] Memory required for data: 2517662812
I0509 17:28:53.346554 15842 layer_factory.hpp:77] Creating layer loss2/classifier
I0509 17:28:53.346561 15842 net.cpp:84] Creating Layer loss2/classifier
I0509 17:28:53.346565 15842 net.cpp:406] loss2/classifier <- loss2/fc
I0509 17:28:53.346570 15842 net.cpp:380] loss2/classifier -> loss2/classifier
I0509 17:28:53.348309 15842 net.cpp:122] Setting up loss2/classifier
I0509 17:28:53.348318 15842 net.cpp:129] Top shape: 50 196 (9800)
I0509 17:28:53.348320 15842 net.cpp:137] Memory required for data: 2517702012
I0509 17:28:53.348326 15842 layer_factory.hpp:77] Creating layer loss2/classifier_loss2/classifier_0_split
I0509 17:28:53.348332 15842 net.cpp:84] Creating Layer loss2/classifier_loss2/classifier_0_split
I0509 17:28:53.348335 15842 net.cpp:406] loss2/classifier_loss2/classifier_0_split <- loss2/classifier
I0509 17:28:53.348343 15842 net.cpp:380] loss2/classifier_loss2/classifier_0_split -> loss2/classifier_loss2/classifier_0_split_0
I0509 17:28:53.348351 15842 net.cpp:380] loss2/classifier_loss2/classifier_0_split -> loss2/classifier_loss2/classifier_0_split_1
I0509 17:28:53.348356 15842 net.cpp:380] loss2/classifier_loss2/classifier_0_split -> loss2/classifier_loss2/classifier_0_split_2
I0509 17:28:53.348402 15842 net.cpp:122] Setting up loss2/classifier_loss2/classifier_0_split
I0509 17:28:53.348407 15842 net.cpp:129] Top shape: 50 196 (9800)
I0509 17:28:53.348410 15842 net.cpp:129] Top shape: 50 196 (9800)
I0509 17:28:53.348413 15842 net.cpp:129] Top shape: 50 196 (9800)
I0509 17:28:53.348415 15842 net.cpp:137] Memory required for data: 2517819612
I0509 17:28:53.348435 15842 layer_factory.hpp:77] Creating layer loss2/loss
I0509 17:28:53.348440 15842 net.cpp:84] Creating Layer loss2/loss
I0509 17:28:53.348444 15842 net.cpp:406] loss2/loss <- loss2/classifier_loss2/classifier_0_split_0
I0509 17:28:53.348448 15842 net.cpp:406] loss2/loss <- label_val-data_1_split_3
…
I0509 17:28:53.349037 15842 net.cpp:122] Setting up loss2/top-5
I0509 17:28:53.349041 15842 net.cpp:129] Top shape: (1)
I0509 17:28:53.349043 15842 net.cpp:137] Memory required for data: 2517819624
I0509 17:28:53.349045 15842 layer_factory.hpp:77] Creating layer inception_4e/1x1
I0509 17:28:53.349053 15842 net.cpp:84] Creating Layer inception_4e/1x1
I0509 17:28:53.349057 15842 net.cpp:406] inception_4e/1x1 <- inception_4d/output_inception_4d/output_0_split_1
I0509 17:28:53.349063 15842 net.cpp:380] inception_4e/1x1 -> inception_4e/1x1
I0509 17:28:53.352229 15842 net.cpp:122] Setting up inception_4e/1x1
I0509 17:28:53.352239 15842 net.cpp:129] Top shape: 50 256 14 14 (2508800)
I0509 17:28:53.352242 15842 net.cpp:137] Memory required for data: 2527854824
I0509 17:28:53.352247 15842 layer_factory.hpp:77] Creating layer inception_4e/relu_1x1
I0509 17:28:53.352253 15842 net.cpp:84] Creating Layer inception_4e/relu_1x1
I0509 17:28:53.352257 15842 net.cpp:406] inception_4e/relu_1x1 <- inception_4e/1x1
I0509 17:28:53.352263 15842 net.cpp:367] inception_4e/relu_1x1 -> inception_4e/1x1 (in-place)
I0509 17:28:53.354692 15842 net.cpp:122] Setting up inception_4e/relu_1x1
I0509 17:28:53.354707 15842 net.cpp:129] Top shape: 50 256 14 14 (2508800)
I0509 17:28:53.354710 15842 net.cpp:137] Memory required for data: 2537890024
I0509 17:28:53.354713 15842 layer_factory.hpp:77] Creating layer inception_4e/3x3_reduce
I0509 17:28:53.354753 15842 net.cpp:84] Creating Layer inception_4e/3x3_reduce
I0509 17:28:53.354758 15842 net.cpp:406] inception_4e/3x3_reduce <- inception_4d/output_inception_4d/output_0_split_2
I0509 17:28:53.354764 15842 net.cpp:380] inception_4e/3x3_reduce -> inception_4e/3x3_reduce
I0509 17:28:53.357712 15842 net.cpp:122] Setting up inception_4e/3x3_reduce
I0509 17:28:53.357723 15842 net.cpp:129] Top shape: 50 160 14 14 (1568000)
I0509 17:28:53.357726 15842 net.cpp:137] Memory required for data: 2544162024
I0509 17:28:53.357733 15842 layer_factory.hpp:77] Creating layer inception_4e/relu_3x3_reduce
I0509 17:28:53.357740 15842 net.cpp:84] Creating Layer inception_4e/relu_3x3_reduce
I0509 17:28:53.357744 15842 net.cpp:406] inception_4e/relu_3x3_reduce <- inception_4e/3x3_reduce
I0509 17:28:53.357751 15842 net.cpp:367] inception_4e/relu_3x3_reduce -> inception_4e/3x3_reduce (in-place)
I0509 17:28:53.358328 15842 net.cpp:122] Setting up inception_4e/relu_3x3_reduce
I0509 17:28:53.358357 15842 net.cpp:129] Top shape: 50 160 14 14 (1568000)
I0509 17:28:53.358361 15842 net.cpp:137] Memory required for data: 2550434024
I0509 17:28:53.358363 15842 layer_factory.hpp:77] Creating layer inception_4e/3x3
I0509 17:28:53.358374 15842 net.cpp:84] Creating Layer inception_4e/3x3
I0509 17:28:53.358378 15842 net.cpp:406] inception_4e/3x3 <- inception_4e/3x3_reduce
I0509 17:28:53.358386 15842 net.cpp:380] inception_4e/3x3 -> inception_4e/3x3
I0509 17:28:53.364205 15842 net.cpp:122] Setting up inception_4e/3x3
I0509 17:28:53.364219 15842 net.cpp:129] Top shape: 50 320 14 14 (3136000)
I0509 17:28:53.364223 15842 net.cpp:137] Memory required for data: 2562978024
I0509 17:28:53.364228 15842 layer_factory.hpp:77] Creating layer inception_4e/relu_3x3
I0509 17:28:53.364235 15842 net.cpp:84] Creating Layer inception_4e/relu_3x3
I0509 17:28:53.364240 15842 net.cpp:406] inception_4e/relu_3x3 <- inception_4e/3x3
I0509 17:28:53.364248 15842 net.cpp:367] inception_4e/relu_3x3 -> inception_4e/3x3 (in-place)
I0509 17:28:53.364930 15842 net.cpp:122] Setting up inception_4e/relu_3x3
I0509 17:28:53.364941 15842 net.cpp:129] Top shape: 50 320 14 14 (3136000)
I0509 17:28:53.364944 15842 net.cpp:137] Memory required for data: 2575522024
I0509 17:28:53.364948 15842 layer_factory.hpp:77] Creating layer inception_4e/5x5_reduce
I0509 17:28:53.364959 15842 net.cpp:84] Creating Layer inception_4e/5x5_reduce
I0509 17:28:53.364962 15842 net.cpp:406] inception_4e/5x5_reduce <- inception_4d/output_inception_4d/output_0_split_3
I0509 17:28:53.364970 15842 net.cpp:380] inception_4e/5x5_reduce -> inception_4e/5x5_reduce
I0509 17:28:53.369835 15842 net.cpp:122] Setting up inception_4e/5x5_reduce
I0509 17:28:53.369853 15842 net.cpp:129] Top shape: 50 32 14 14 (313600)
I0509 17:28:53.369855 15842 net.cpp:137] Memory required for data: 2576776424
I0509 17:28:53.369863 15842 layer_factory.hpp:77] Creating layer inception_4e/relu_5x5_reduce
I0509 17:28:53.369871 15842 net.cpp:84] Creating Layer inception_4e/relu_5x5_reduce
I0509 17:28:53.369877 15842 net.cpp:406] inception_4e/relu_5x5_reduce <- inception_4e/5x5_reduce
I0509 17:28:53.369885 15842 net.cpp:367] inception_4e/relu_5x5_reduce -> inception_4e/5x5_reduce (in-place)
I0509 17:28:53.370467 15842 net.cpp:122] Setting up inception_4e/relu_5x5_reduce
I0509 17:28:53.370478 15842 net.cpp:129] Top shape: 50 32 14 14 (313600)
I0509 17:28:53.370481 15842 net.cpp:137] Memory required for data: 2578030824
I0509 17:28:53.370484 15842 layer_factory.hpp:77] Creating layer inception_4e/5x5
I0509 17:28:53.370496 15842 net.cpp:84] Creating Layer inception_4e/5x5
I0509 17:28:53.370499 15842 net.cpp:406] inception_4e/5x5 <- inception_4e/5x5_reduce
I0509 17:28:53.370507 15842 net.cpp:380] inception_4e/5x5 -> inception_4e/5x5
I0509 17:28:53.373409 15842 net.cpp:122] Setting up inception_4e/5x5
I0509 17:28:53.373421 15842 net.cpp:129] Top shape: 50 128 14 14 (1254400)
I0509 17:28:53.373425 15842 net.cpp:137] Memory required for data: 2583048424
I0509 17:28:53.373430 15842 layer_factory.hpp:77] Creating layer inception_4e/relu_5x5
I0509 17:28:53.373436 15842 net.cpp:84] Creating Layer inception_4e/relu_5x5
I0509 17:28:53.373440 15842 net.cpp:406] inception_4e/relu_5x5 <- inception_4e/5x5
I0509 17:28:53.373445 15842 net.cpp:367] inception_4e/relu_5x5 -> inception_4e/5x5 (in-place)
I0509 17:28:53.373831 15842 net.cpp:122] Setting up inception_4e/relu_5x5
I0509 17:28:53.373841 15842 net.cpp:129] Top shape: 50 128 14 14 (1254400)
I0509 17:28:53.373843 15842 net.cpp:137] Memory required for data: 2588066024
I0509 17:28:53.373847 15842 layer_factory.hpp:77] Creating layer inception_4e/pool
I0509 17:28:53.373853 15842 net.cpp:84] Creating Layer inception_4e/pool
I0509 17:28:53.373857 15842 net.cpp:406] inception_4e/pool <- inception_4d/output_inception_4d/output_0_split_4
I0509 17:28:53.373863 15842 net.cpp:380] inception_4e/pool -> inception_4e/pool
I0509 17:28:53.373908 15842 net.cpp:122] Setting up inception_4e/pool
I0509 17:28:53.373914 15842 net.cpp:129] Top shape: 50 528 14 14 (5174400)
I0509 17:28:53.373934 15842 net.cpp:137] Memory required for data: 2608763624
I0509 17:28:53.373936 15842 layer_factory.hpp:77] Creating layer inception_4e/pool_proj
I0509 17:28:53.373946 15842 net.cpp:84] Creating Layer inception_4e/pool_proj
I0509 17:28:53.373950 15842 net.cpp:406] inception_4e/pool_proj <- inception_4e/pool
I0509 17:28:53.373955 15842 net.cpp:380] inception_4e/pool_proj -> inception_4e/pool_proj
I0509 17:28:53.377221 15842 net.cpp:122] Setting up inception_4e/pool_proj
I0509 17:28:53.377233 15842 net.cpp:129] Top shape: 50 128 14 14 (1254400)
I0509 17:28:53.377235 15842 net.cpp:137] Memory required for data: 2613781224
I0509 17:28:53.377243 15842 layer_factory.hpp:77] Creating layer inception_4e/relu_pool_proj
I0509 17:28:53.377249 15842 net.cpp:84] Creating Layer inception_4e/relu_pool_proj
I0509 17:28:53.377254 15842 net.cpp:406] inception_4e/relu_pool_proj <- inception_4e/pool_proj
I0509 17:28:53.377259 15842 net.cpp:367] inception_4e/relu_pool_proj -> inception_4e/pool_proj (in-place)
I0509 17:28:53.379706 15842 net.cpp:122] Setting up inception_4e/relu_pool_proj
I0509 17:28:53.379719 15842 net.cpp:129] Top shape: 50 128 14 14 (1254400)
I0509 17:28:53.379722 15842 net.cpp:137] Memory required for data: 2618798824
I0509 17:28:53.379725 15842 layer_factory.hpp:77] Creating layer inception_4e/output
I0509 17:28:53.379732 15842 net.cpp:84] Creating Layer inception_4e/output
I0509 17:28:53.379736 15842 net.cpp:406] inception_4e/output <- inception_4e/1x1
I0509 17:28:53.379741 15842 net.cpp:406] inception_4e/output <- inception_4e/3x3
I0509 17:28:53.379745 15842 net.cpp:406] inception_4e/output <- inception_4e/5x5
I0509 17:28:53.379750 15842 net.cpp:406] inception_4e/output <- inception_4e/pool_proj
I0509 17:28:53.379755 15842 net.cpp:380] inception_4e/output -> inception_4e/output
I0509 17:28:53.379787 15842 net.cpp:122] Setting up inception_4e/output
I0509 17:28:53.379792 15842 net.cpp:129] Top shape: 50 832 14 14 (8153600)
I0509 17:28:53.379796 15842 net.cpp:137] Memory required for data: 2651413224
I0509 17:28:53.379797 15842 layer_factory.hpp:77] Creating layer pool4/3x3_s2
I0509 17:28:53.379806 15842 net.cpp:84] Creating Layer pool4/3x3_s2
I0509 17:28:53.379808 15842 net.cpp:406] pool4/3x3_s2 <- inception_4e/output
I0509 17:28:53.379813 15842 net.cpp:380] pool4/3x3_s2 -> pool4/3x3_s2
I0509 17:28:53.379851 15842 net.cpp:122] Setting up pool4/3x3_s2
I0509 17:28:53.379856 15842 net.cpp:129] Top shape: 50 832 7 7 (2038400)
I0509 17:28:53.379858 15842 net.cpp:137] Memory required for data: 2659566824
I0509 17:28:53.379861 15842 layer_factory.hpp:77] Creating layer pool4/3x3_s2_pool4/3x3_s2_0_split
I0509 17:28:53.379866 15842 net.cpp:84] Creating Layer pool4/3x3_s2_pool4/3x3_s2_0_split
I0509 17:28:53.379869 15842 net.cpp:406] pool4/3x3_s2_pool4/3x3_s2_0_split <- pool4/3x3_s2
I0509 17:28:53.379875 15842 net.cpp:380] pool4/3x3_s2_pool4/3x3_s2_0_split -> pool4/3x3_s2_pool4/3x3_s2_0_split_0
I0509 17:28:53.379881 15842 net.cpp:380] pool4/3x3_s2_pool4/3x3_s2_0_split -> pool4/3x3_s2_pool4/3x3_s2_0_split_1
I0509 17:28:53.379886 15842 net.cpp:380] pool4/3x3_s2_pool4/3x3_s2_0_split -> pool4/3x3_s2_pool4/3x3_s2_0_split_2
I0509 17:28:53.379916 15842 net.cpp:380] pool4/3x3_s2_pool4/3x3_s2_0_split -> pool4/3x3_s2_pool4/3x3_s2_0_split_3
I0509 17:28:53.379961 15842 net.cpp:122] Setting up pool4/3x3_s2_pool4/3x3_s2_0_split
I0509 17:28:53.379966 15842 net.cpp:129] Top shape: 50 832 7 7 (2038400)
I0509 17:28:53.379971 15842 net.cpp:129] Top shape: 50 832 7 7 (2038400)
I0509 17:28:53.379973 15842 net.cpp:129] Top shape: 50 832 7 7 (2038400)
I0509 17:28:53.379977 15842 net.cpp:129] Top shape: 50 832 7 7 (2038400)
I0509 17:28:53.379979 15842 net.cpp:137] Memory required for data: 2692181224
I0509 17:28:53.379982 15842 layer_factory.hpp:77] Creating layer inception_5a/1x1
I0509 17:28:53.379992 15842 net.cpp:84] Creating Layer inception_5a/1x1
I0509 17:28:53.379995 15842 net.cpp:406] inception_5a/1x1 <- pool4/3x3_s2_pool4/3x3_s2_0_split_0
I0509 17:28:53.380000 15842 net.cpp:380] inception_5a/1x1 -> inception_5a/1x1
I0509 17:28:53.383117 15842 net.cpp:122] Setting up inception_5a/1x1
I0509 17:28:53.383127 15842 net.cpp:129] Top shape: 50 256 7 7 (627200)
I0509 17:28:53.383131 15842 net.cpp:137] Memory required for data: 2694690024
I0509 17:28:53.383137 15842 layer_factory.hpp:77] Creating layer inception_5a/relu_1x1
I0509 17:28:53.383143 15842 net.cpp:84] Creating Layer inception_5a/relu_1x1
I0509 17:28:53.383147 15842 net.cpp:406] inception_5a/relu_1x1 <- inception_5a/1x1
I0509 17:28:53.383153 15842 net.cpp:367] inception_5a/relu_1x1 -> inception_5a/1x1 (in-place)
I0509 17:28:53.383730 15842 net.cpp:122] Setting up inception_5a/relu_1x1
I0509 17:28:53.383740 15842 net.cpp:129] Top shape: 50 256 7 7 (627200)
I0509 17:28:53.383744 15842 net.cpp:137] Memory required for data: 2697198824
I0509 17:28:53.383746 15842 layer_factory.hpp:77] Creating layer inception_5a/3x3_reduce
I0509 17:28:53.383755 15842 net.cpp:84] Creating Layer inception_5a/3x3_reduce
I0509 17:28:53.383759 15842 net.cpp:406] inception_5a/3x3_reduce <- pool4/3x3_s2_pool4/3x3_s2_0_split_1
I0509 17:28:53.383767 15842 net.cpp:380] inception_5a/3x3_reduce -> inception_5a/3x3_reduce
I0509 17:28:53.386970 15842 net.cpp:122] Setting up inception_5a/3x3_reduce
I0509 17:28:53.386981 15842 net.cpp:129] Top shape: 50 160 7 7 (392000)
I0509 17:28:53.386984 15842 net.cpp:137] Memory required for data: 2698766824
I0509 17:28:53.386991 15842 layer_factory.hpp:77] Creating layer inception_5a/relu_3x3_reduce
I0509 17:28:53.386997 15842 net.cpp:84] Creating Layer inception_5a/relu_3x3_reduce
I0509 17:28:53.387001 15842 net.cpp:406] inception_5a/relu_3x3_reduce <- inception_5a/3x3_reduce
I0509 17:28:53.387007 15842 net.cpp:367] inception_5a/relu_3x3_reduce -> inception_5a/3x3_reduce (in-place)
I0509 17:28:53.387583 15842 net.cpp:122] Setting up inception_5a/relu_3x3_reduce
I0509 17:28:53.387593 15842 net.cpp:129] Top shape: 50 160 7 7 (392000)
I0509 17:28:53.387595 15842 net.cpp:137] Memory required for data: 2700334824
I0509 17:28:53.387599 15842 layer_factory.hpp:77] Creating layer inception_5a/3x3
I0509 17:28:53.387609 15842 net.cpp:84] Creating Layer inception_5a/3x3
I0509 17:28:53.387614 15842 net.cpp:406] inception_5a/3x3 <- inception_5a/3x3_reduce
I0509 17:28:53.387620 15842 net.cpp:380] inception_5a/3x3 -> inception_5a/3x3
I0509 17:28:53.394882 15842 net.cpp:122] Setting up inception_5a/3x3
I0509 17:28:53.394901 15842 net.cpp:129] Top shape: 50 320 7 7 (784000)
I0509 17:28:53.394904 15842 net.cpp:137] Memory required for data: 2703470824
I0509 17:28:53.394912 15842 layer_factory.hpp:77] Creating layer inception_5a/relu_3x3
I0509 17:28:53.394920 15842 net.cpp:84] Creating Layer inception_5a/relu_3x3
I0509 17:28:53.394925 15842 net.cpp:406] inception_5a/relu_3x3 <- inception_5a/3x3
I0509 17:28:53.394932 15842 net.cpp:367] inception_5a/relu_3x3 -> inception_5a/3x3 (in-place)
I0509 17:28:53.395509 15842 net.cpp:122] Setting up inception_5a/relu_3x3
I0509 17:28:53.395519 15842 net.cpp:129] Top shape: 50 320 7 7 (784000)
I0509 17:28:53.395521 15842 net.cpp:137] Memory required for data: 2706606824
I0509 17:28:53.395524 15842 layer_factory.hpp:77] Creating layer inception_5a/5x5_reduce
I0509 17:28:53.395536 15842 net.cpp:84] Creating Layer inception_5a/5x5_reduce
I0509 17:28:53.395541 15842 net.cpp:406] inception_5a/5x5_reduce <- pool4/3x3_s2_pool4/3x3_s2_0_split_2
I0509 17:28:53.395550 15842 net.cpp:380] inception_5a/5x5_reduce -> inception_5a/5x5_reduce
I0509 17:28:53.398061 15842 net.cpp:122] Setting up inception_5a/5x5_reduce
I0509 17:28:53.398072 15842 net.cpp:129] Top shape: 50 32 7 7 (78400)
I0509 17:28:53.398075 15842 net.cpp:137] Memory required for data: 2706920424
I0509 17:28:53.398082 15842 layer_factory.hpp:77] Creating layer inception_5a/relu_5x5_reduce
I0509 17:28:53.398089 15842 net.cpp:84] Creating Layer inception_5a/relu_5x5_reduce
I0509 17:28:53.398093 15842 net.cpp:406] inception_5a/relu_5x5_reduce <- inception_5a/5x5_reduce
I0509 17:28:53.398098 15842 net.cpp:367] inception_5a/relu_5x5_reduce -> inception_5a/5x5_reduce (in-place)
I0509 17:28:53.398501 15842 net.cpp:122] Setting up inception_5a/relu_5x5_reduce
I0509 17:28:53.398510 15842 net.cpp:129] Top shape: 50 32 7 7 (78400)
I0509 17:28:53.398514 15842 net.cpp:137] Memory required for data: 2707234024
I0509 17:28:53.398516 15842 layer_factory.hpp:77] Creating layer inception_5a/5x5
I0509 17:28:53.398527 15842 net.cpp:84] Creating Layer inception_5a/5x5
I0509 17:28:53.398531 15842 net.cpp:406] inception_5a/5x5 <- inception_5a/5x5_reduce
I0509 17:28:53.398537 15842 net.cpp:380] inception_5a/5x5 -> inception_5a/5x5
I0509 17:28:53.401425 15842 net.cpp:122] Setting up inception_5a/5x5
I0509 17:28:53.401437 15842 net.cpp:129] Top shape: 50 128 7 7 (313600)
I0509 17:28:53.401439 15842 net.cpp:137] Memory required for data: 2708488424
I0509 17:28:53.401444 15842 layer_factory.hpp:77] Creating layer inception_5a/relu_5x5
I0509 17:28:53.401453 15842 net.cpp:84] Creating Layer inception_5a/relu_5x5
I0509 17:28:53.401456 15842 net.cpp:406] inception_5a/relu_5x5 <- inception_5a/5x5
I0509 17:28:53.401461 15842 net.cpp:367] inception_5a/relu_5x5 -> inception_5a/5x5 (in-place)
I0509 17:28:53.403856 15842 net.cpp:122] Setting up inception_5a/relu_5x5
I0509 17:28:53.403867 15842 net.cpp:129] Top shape: 50 128 7 7 (313600)
I0509 17:28:53.403870 15842 net.cpp:137] Memory required for data: 2709742824
I0509 17:28:53.403874 15842 layer_factory.hpp:77] Creating layer inception_5a/pool
I0509 17:28:53.403882 15842 net.cpp:84] Creating Layer inception_5a/pool
I0509 17:28:53.403887 15842 net.cpp:406] inception_5a/pool <- pool4/3x3_s2_pool4/3x3_s2_0_split_3
I0509 17:28:53.403893 15842 net.cpp:380] inception_5a/pool -> inception_5a/pool
I0509 17:28:53.403941 15842 net.cpp:122] Setting up inception_5a/pool
I0509 17:28:53.403947 15842 net.cpp:129] Top shape: 50 832 7 7 (2038400)
I0509 17:28:53.403949 15842 net.cpp:137] Memory required for data: 2717896424
I0509 17:28:53.403952 15842 layer_factory.hpp:77] Creating layer inception_5a/pool_proj
I0509 17:28:53.403962 15842 net.cpp:84] Creating Layer inception_5a/pool_proj
I0509 17:28:53.403966 15842 net.cpp:406] inception_5a/pool_proj <- inception_5a/pool
I0509 17:28:53.403972 15842 net.cpp:380] inception_5a/pool_proj -> inception_5a/pool_proj
I0509 17:28:53.407266 15842 net.cpp:122] Setting up inception_5a/pool_proj
I0509 17:28:53.407277 15842 net.cpp:129] Top shape: 50 128 7 7 (313600)
I0509 17:28:53.407280 15842 net.cpp:137] Memory required for data: 2719150824
I0509 17:28:53.407286 15842 layer_factory.hpp:77] Creating layer inception_5a/relu_pool_proj
I0509 17:28:53.407294 15842 net.cpp:84] Creating Layer inception_5a/relu_pool_proj
I0509 17:28:53.407296 15842 net.cpp:406] inception_5a/relu_pool_proj <- inception_5a/pool_proj
I0509 17:28:53.407303 15842 net.cpp:367] inception_5a/relu_pool_proj -> inception_5a/pool_proj (in-place)
I0509 17:28:53.407876 15842 net.cpp:122] Setting up inception_5a/relu_pool_proj
I0509 17:28:53.407886 15842 net.cpp:129] Top shape: 50 128 7 7 (313600)
I0509 17:28:53.407888 15842 net.cpp:137] Memory required for data: 2720405224
I0509 17:28:53.407891 15842 layer_factory.hpp:77] Creating layer inception_5a/output
I0509 17:28:53.407897 15842 net.cpp:84] Creating Layer inception_5a/output
I0509 17:28:53.407900 15842 net.cpp:406] inception_5a/output <- inception_5a/1x1
I0509 17:28:53.407905 15842 net.cpp:406] inception_5a/output <- inception_5a/3x3
I0509 17:28:53.407909 15842 net.cpp:406] inception_5a/output <- inception_5a/5x5
I0509 17:28:53.407913 15842 net.cpp:406] inception_5a/output <- inception_5a/pool_proj
I0509 17:28:53.407919 15842 net.cpp:380] inception_5a/output -> inception_5a/output
I0509 17:28:53.407948 15842 net.cpp:122] Setting up inception_5a/output
I0509 17:28:53.407953 15842 net.cpp:129] Top shape: 50 832 7 7 (2038400)
I0509 17:28:53.407956 15842 net.cpp:137] Memory required for data: 2728558824
I0509 17:28:53.407958 15842 layer_factory.hpp:77] Creating layer inception_5a/output_inception_5a/output_0_split
I0509 17:28:53.407964 15842 net.cpp:84] Creating Layer inception_5a/output_inception_5a/output_0_split
I0509 17:28:53.407968 15842 net.cpp:406] inception_5a/output_inception_5a/output_0_split <- inception_5a/output
I0509 17:28:53.407991 15842 net.cpp:380] inception_5a/output_inception_5a/output_0_split -> inception_5a/output_inception_5a/output_0_split_0
I0509 17:28:53.407999 15842 net.cpp:380] inception_5a/output_inception_5a/output_0_split -> inception_5a/output_inception_5a/output_0_split_1
I0509 17:28:53.408004 15842 net.cpp:380] inception_5a/output_inception_5a/output_0_split -> inception_5a/output_inception_5a/output_0_split_2
I0509 17:28:53.408011 15842 net.cpp:380] inception_5a/output_inception_5a/output_0_split -> inception_5a/output_inception_5a/output_0_split_3
I0509 17:28:53.408061 15842 net.cpp:122] Setting up inception_5a/output_inception_5a/output_0_split
I0509 17:28:53.408067 15842 net.cpp:129] Top shape: 50 832 7 7 (2038400)
I0509 17:28:53.408071 15842 net.cpp:129] Top shape: 50 832 7 7 (2038400)
I0509 17:28:53.408073 15842 net.cpp:129] Top shape: 50 832 7 7 (2038400)
I0509 17:28:53.408077 15842 net.cpp:129] Top shape: 50 832 7 7 (2038400)
I0509 17:28:53.408079 15842 net.cpp:137] Memory required for data: 2761173224
I0509 17:28:53.408082 15842 layer_factory.hpp:77] Creating layer inception_5b/1x1
I0509 17:28:53.408092 15842 net.cpp:84] Creating Layer inception_5b/1x1
I0509 17:28:53.408097 15842 net.cpp:406] inception_5b/1x1 <- inception_5a/output_inception_5a/output_0_split_0
I0509 17:28:53.408102 15842 net.cpp:380] inception_5b/1x1 -> inception_5b/1x1
I0509 17:28:53.412256 15842 net.cpp:122] Setting up inception_5b/1x1
I0509 17:28:53.412268 15842 net.cpp:129] Top shape: 50 384 7 7 (940800)
I0509 17:28:53.412271 15842 net.cpp:137] Memory required for data: 2764936424
I0509 17:28:53.412278 15842 layer_factory.hpp:77] Creating layer inception_5b/relu_1x1
I0509 17:28:53.412284 15842 net.cpp:84] Creating Layer inception_5b/relu_1x1
I0509 17:28:53.412288 15842 net.cpp:406] inception_5b/relu_1x1 <- inception_5b/1x1
I0509 17:28:53.412295 15842 net.cpp:367] inception_5b/relu_1x1 -> inception_5b/1x1 (in-place)
I0509 17:28:53.413558 15842 net.cpp:122] Setting up inception_5b/relu_1x1
I0509 17:28:53.413569 15842 net.cpp:129] Top shape: 50 384 7 7 (940800)
I0509 17:28:53.413571 15842 net.cpp:137] Memory required for data: 2768699624
I0509 17:28:53.413575 15842 layer_factory.hpp:77] Creating layer inception_5b/3x3_reduce
I0509 17:28:53.413585 15842 net.cpp:84] Creating Layer inception_5b/3x3_reduce
I0509 17:28:53.413589 15842 net.cpp:406] inception_5b/3x3_reduce <- inception_5a/output_inception_5a/output_0_split_1
I0509 17:28:53.413597 15842 net.cpp:380] inception_5b/3x3_reduce -> inception_5b/3x3_reduce
I0509 17:28:53.419788 15842 net.cpp:122] Setting up inception_5b/3x3_reduce
I0509 17:28:53.419804 15842 net.cpp:129] Top shape: 50 192 7 7 (470400)
I0509 17:28:53.419807 15842 net.cpp:137] Memory required for data: 2770581224
I0509 17:28:53.419816 15842 layer_factory.hpp:77] Creating layer inception_5b/relu_3x3_reduce
I0509 17:28:53.419826 15842 net.cpp:84] Creating Layer inception_5b/relu_3x3_reduce
I0509 17:28:53.419831 15842 net.cpp:406] inception_5b/relu_3x3_reduce <- inception_5b/3x3_reduce
I0509 17:28:53.419837 15842 net.cpp:367] inception_5b/relu_3x3_reduce -> inception_5b/3x3_reduce (in-place)
I0509 17:28:53.420429 15842 net.cpp:122] Setting up inception_5b/relu_3x3_reduce
I0509 17:28:53.420439 15842 net.cpp:129] Top shape: 50 192 7 7 (470400)
I0509 17:28:53.420441 15842 net.cpp:137] Memory required for data: 2772462824
I0509 17:28:53.420444 15842 layer_factory.hpp:77] Creating layer inception_5b/3x3
I0509 17:28:53.420455 15842 net.cpp:84] Creating Layer inception_5b/3x3
I0509 17:28:53.420459 15842 net.cpp:406] inception_5b/3x3 <- inception_5b/3x3_reduce
I0509 17:28:53.420467 15842 net.cpp:380] inception_5b/3x3 -> inception_5b/3x3
I0509 17:28:53.427011 15842 net.cpp:122] Setting up inception_5b/3x3
I0509 17:28:53.427024 15842 net.cpp:129] Top shape: 50 384 7 7 (940800)
I0509 17:28:53.427027 15842 net.cpp:137] Memory required for data: 2776226024
I0509 17:28:53.427034 15842 layer_factory.hpp:77] Creating layer inception_5b/relu_3x3
I0509 17:28:53.427062 15842 net.cpp:84] Creating Layer inception_5b/relu_3x3
I0509 17:28:53.427067 15842 net.cpp:406] inception_5b/relu_3x3 <- inception_5b/3x3
I0509 17:28:53.427073 15842 net.cpp:367] inception_5b/relu_3x3 -> inception_5b/3x3 (in-place)
I0509 17:28:53.427455 15842 net.cpp:122] Setting up inception_5b/relu_3x3
I0509 17:28:53.427466 15842 net.cpp:129] Top shape: 50 384 7 7 (940800)
I0509 17:28:53.427469 15842 net.cpp:137] Memory required for data: 2779989224
I0509 17:28:53.427471 15842 layer_factory.hpp:77] Creating layer inception_5b/5x5_reduce
I0509 17:28:53.427484 15842 net.cpp:84] Creating Layer inception_5b/5x5_reduce
I0509 17:28:53.427489 15842 net.cpp:406] inception_5b/5x5_reduce <- inception_5a/output_inception_5a/output_0_split_2
I0509 17:28:53.427496 15842 net.cpp:380] inception_5b/5x5_reduce -> inception_5b/5x5_reduce
I0509 17:28:53.429957 15842 net.cpp:122] Setting up inception_5b/5x5_reduce
I0509 17:28:53.429967 15842 net.cpp:129] Top shape: 50 48 7 7 (117600)
I0509 17:28:53.429970 15842 net.cpp:137] Memory required for data: 2780459624
I0509 17:28:53.429976 15842 layer_factory.hpp:77] Creating layer inception_5b/relu_5x5_reduce
I0509 17:28:53.429985 15842 net.cpp:84] Creating Layer inception_5b/relu_5x5_reduce
I0509 17:28:53.429988 15842 net.cpp:406] inception_5b/relu_5x5_reduce <- inception_5b/5x5_reduce
I0509 17:28:53.429993 15842 net.cpp:367] inception_5b/relu_5x5_reduce -> inception_5b/5x5_reduce (in-place)
I0509 17:28:53.430382 15842 net.cpp:122] Setting up inception_5b/relu_5x5_reduce
I0509 17:28:53.430392 15842 net.cpp:129] Top shape: 50 48 7 7 (117600)
I0509 17:28:53.430395 15842 net.cpp:137] Memory required for data: 2780930024
I0509 17:28:53.430398 15842 layer_factory.hpp:77] Creating layer inception_5b/5x5
I0509 17:28:53.430408 15842 net.cpp:84] Creating Layer inception_5b/5x5
I0509 17:28:53.430411 15842 net.cpp:406] inception_5b/5x5 <- inception_5b/5x5_reduce
I0509 17:28:53.430419 15842 net.cpp:380] inception_5b/5x5 -> inception_5b/5x5
I0509 17:28:53.436987 15842 net.cpp:122] Setting up inception_5b/5x5
I0509 17:28:53.437003 15842 net.cpp:129] Top shape: 50 128 7 7 (313600)
I0509 17:28:53.437006 15842 net.cpp:137] Memory required for data: 2782184424
I0509 17:28:53.437013 15842 layer_factory.hpp:77] Creating layer inception_5b/relu_5x5
I0509 17:28:53.437021 15842 net.cpp:84] Creating Layer inception_5b/relu_5x5
I0509 17:28:53.437026 15842 net.cpp:406] inception_5b/relu_5x5 <- inception_5b/5x5
I0509 17:28:53.437033 15842 net.cpp:367] inception_5b/relu_5x5 -> inception_5b/5x5 (in-place)
I0509 17:28:53.437662 15842 net.cpp:122] Setting up inception_5b/relu_5x5
I0509 17:28:53.437674 15842 net.cpp:129] Top shape: 50 128 7 7 (313600)
I0509 17:28:53.437675 15842 net.cpp:137] Memory required for data: 2783438824
I0509 17:28:53.437680 15842 layer_factory.hpp:77] Creating layer inception_5b/pool
I0509 17:28:53.437686 15842 net.cpp:84] Creating Layer inception_5b/pool
I0509 17:28:53.437690 15842 net.cpp:406] inception_5b/pool <- inception_5a/output_inception_5a/output_0_split_3
I0509 17:28:53.437697 15842 net.cpp:380] inception_5b/pool -> inception_5b/pool
I0509 17:28:53.437741 15842 net.cpp:122] Setting up inception_5b/pool
I0509 17:28:53.437745 15842 net.cpp:129] Top shape: 50 832 7 7 (2038400)
I0509 17:28:53.437748 15842 net.cpp:137] Memory required for data: 2791592424
I0509 17:28:53.437750 15842 layer_factory.hpp:77] Creating layer inception_5b/pool_proj
I0509 17:28:53.437762 15842 net.cpp:84] Creating Layer inception_5b/pool_proj
I0509 17:28:53.437767 15842 net.cpp:406] inception_5b/pool_proj <- inception_5b/pool
I0509 17:28:53.437772 15842 net.cpp:380] inception_5b/pool_proj -> inception_5b/pool_proj
I0509 17:28:53.442688 15842 net.cpp:122] Setting up inception_5b/pool_proj
I0509 17:28:53.442699 15842 net.cpp:129] Top shape: 50 128 7 7 (313600)
I0509 17:28:53.442703 15842 net.cpp:137] Memory required for data: 2792846824
I0509 17:28:53.442709 15842 layer_factory.hpp:77] Creating layer inception_5b/relu_pool_proj
I0509 17:28:53.442716 15842 net.cpp:84] Creating Layer inception_5b/relu_pool_proj
I0509 17:28:53.442739 15842 net.cpp:406] inception_5b/relu_pool_proj <- inception_5b/pool_proj
I0509 17:28:53.442744 15842 net.cpp:367] inception_5b/relu_pool_proj -> inception_5b/pool_proj (in-place)
I0509 17:28:53.443454 15842 net.cpp:122] Setting up inception_5b/relu_pool_proj
I0509 17:28:53.443464 15842 net.cpp:129] Top shape: 50 128 7 7 (313600)
I0509 17:28:53.443466 15842 net.cpp:137] Memory required for data: 2794101224
I0509 17:28:53.443470 15842 layer_factory.hpp:77] Creating layer inception_5b/output
I0509 17:28:53.443476 15842 net.cpp:84] Creating Layer inception_5b/output
I0509 17:28:53.443480 15842 net.cpp:406] inception_5b/output <- inception_5b/1x1
I0509 17:28:53.443485 15842 net.cpp:406] inception_5b/output <- inception_5b/3x3
I0509 17:28:53.443488 15842 net.cpp:406] inception_5b/output <- inception_5b/5x5
I0509 17:28:53.443492 15842 net.cpp:406] inception_5b/output <- inception_5b/pool_proj
I0509 17:28:53.443496 15842 net.cpp:380] inception_5b/output -> inception_5b/output
I0509 17:28:53.443526 15842 net.cpp:122] Setting up inception_5b/output
I0509 17:28:53.443531 15842 net.cpp:129] Top shape: 50 1024 7 7 (2508800)
I0509 17:28:53.443534 15842 net.cpp:137] Memory required for data: 2804136424
I0509 17:28:53.443537 15842 layer_factory.hpp:77] Creating layer pool5/7x7_s1
I0509 17:28:53.443544 15842 net.cpp:84] Creating Layer pool5/7x7_s1
I0509 17:28:53.443547 15842 net.cpp:406] pool5/7x7_s1 <- inception_5b/output
I0509 17:28:53.443552 15842 net.cpp:380] pool5/7x7_s1 -> pool5/7x7_s1
I0509 17:28:53.444569 15842 net.cpp:122] Setting up pool5/7x7_s1
I0509 17:28:53.444578 15842 net.cpp:129] Top shape: 50 1024 1 1 (51200)
I0509 17:28:53.444581 15842 net.cpp:137] Memory required for data: 2804341224
I0509 17:28:53.444584 15842 layer_factory.hpp:77] Creating layer pool5/drop_7x7_s1
I0509 17:28:53.444591 15842 net.cpp:84] Creating Layer pool5/drop_7x7_s1
I0509 17:28:53.444595 15842 net.cpp:406] pool5/drop_7x7_s1 <- pool5/7x7_s1
I0509 17:28:53.444600 15842 net.cpp:367] pool5/drop_7x7_s1 -> pool5/7x7_s1 (in-place)
I0509 17:28:53.444624 15842 net.cpp:122] Setting up pool5/drop_7x7_s1
I0509 17:28:53.444629 15842 net.cpp:129] Top shape: 50 1024 1 1 (51200)
I0509 17:28:53.444631 15842 net.cpp:137] Memory required for data: 2804546024
I0509 17:28:53.444634 15842 layer_factory.hpp:77] Creating layer loss3/classifier
I0509 17:28:53.444641 15842 net.cpp:84] Creating Layer loss3/classifier
I0509 17:28:53.444644 15842 net.cpp:406] loss3/classifier <- pool5/7x7_s1
I0509 17:28:53.444650 15842 net.cpp:380] loss3/classifier -> loss3/classifier
I0509 17:28:53.446902 15842 net.cpp:122] Setting up loss3/classifier
I0509 17:28:53.446914 15842 net.cpp:129] Top shape: 50 196 (9800)
I0509 17:28:53.446918 15842 net.cpp:137] Memory required for data: 2804585224
I0509 17:28:53.446923 15842 layer_factory.hpp:77] Creating layer loss3/classifier_loss3/classifier_0_split
I0509 17:28:53.446931 15842 net.cpp:84] Creating Layer loss3/classifier_loss3/classifier_0_split
I0509 17:28:53.446935 15842 net.cpp:406] loss3/classifier_loss3/classifier_0_split <- loss3/classifier
I0509 17:28:53.446943 15842 net.cpp:380] loss3/classifier_loss3/classifier_0_split -> loss3/classifier_loss3/classifier_0_split_0
I0509 17:28:53.446950 15842 net.cpp:380] loss3/classifier_loss3/classifier_0_split -> loss3/classifier_loss3/classifier_0_split_1
I0509 17:28:53.446955 15842 net.cpp:380] loss3/classifier_loss3/classifier_0_split -> loss3/classifier_loss3/classifier_0_split_2
I0509 17:28:53.447007 15842 net.cpp:122] Setting up loss3/classifier_loss3/classifier_0_split
I0509 17:28:53.447012 15842 net.cpp:129] Top shape: 50 196 (9800)
I0509 17:28:53.447016 15842 net.cpp:129] Top shape: 50 196 (9800)
I0509 17:28:53.447018 15842 net.cpp:129] Top shape: 50 196 (9800)
I0509 17:28:53.447021 15842 net.cpp:137] Memory required for data: 2804702824
I0509 17:28:53.447023 15842 layer_factory.hpp:77] Creating layer loss3/loss
I0509 17:28:53.447031 15842 net.cpp:84] Creating Layer loss3/loss
I0509 17:28:53.447034 15842 net.cpp:406] loss3/loss <- loss3/classifier_loss3/classifier_0_split_0
I0509 17:28:53.447055 15842 net.cpp:406] loss3/loss <- label_val-data_1_split_6
…
