…
I0428 16:49:41.093978 16968 net.cpp:294] The NetState phase (0) differed from the phase (1) specified by a rule in layer accuracy
I0428 16:49:41.094126 16968 net.cpp:51] Initializing net from parameters:
state {
phase: TRAIN
level: 0
stage: ""
}
layer {
name: "train-data"
type: "Data"
top: "data"
top: "label"
include {
phase: TRAIN
}
transform_param {
mirror: true
crop_size: 227
mean_file: "/mnt/bigdisk/MANDIG2/digits/jobs/20200428-132136-11fe/mean.binaryproto"
}
data_param {
source: "/mnt/bigdisk/MANDIG2/digits/jobs/20200428-132136-11fe/train_db"
batch_size: 128
backend: LMDB
}
}
layer {
name: "conv1"
type: "Convolution"
bottom: "data"
top: "conv1"
param {
lr_mult: 1
decay_mult: 1
}
param {
lr_mult: 2
decay_mult: 0
}
convolution_param {
num_output: 96
kernel_size: 11
stride: 4
weight_filler {
type: "gaussian"
std: 0.01
}
bias_filler {
type: "constant"
value: 0
}
}
}
layer {
name: "relu1"
type: "ReLU"
bottom: "conv1"
top: "conv1"
}
layer {
name: "norm1"
type: "LRN"
bottom: "conv1"
top: "norm1"
lrn_param {
local_size: 5
alpha: 0.0001
beta: 0.75
}
}
layer {
name: "pool1"
type: "Pooling"
bottom: "norm1"
top: "pool1"
pooling_param {
pool: MAX
kernel_size: 3
stride: 2
}
}
layer {
name: "conv2"
type: "Convolution"
bottom: "pool1"
top: "conv2"
param {
lr_mult: 1
decay_mult: 1
}
param {
lr_mult: 2
decay_mult: 0
}
convolution_param {
num_output: 256
pad: 2
kernel_size: 5
group: 2
weight_filler {
type: "gaussian"
std: 0.01
}
bias_filler {
type: "constant"
value: 0.1
}
}
}
layer {
name: "relu2"
type: "ReLU"
bottom: "conv2"
top: "conv2"
}
layer {
name: "norm2"
type: "LRN"
bottom: "conv2"
top: "norm2"
lrn_param {
local_size: 5
alpha: 0.0001
beta: 0.75
}
}
layer {
name: "pool2"
type: "Pooling"
bottom: "norm2"
top: "pool2"
pooling_param {
pool: MAX
kernel_size: 3
stride: 2
}
}
layer {
name: "conv3"
type: "Convolution"
bottom: "pool2"
top: "conv3"
param {
lr_mult: 1
decay_mult: 1
}
param {
lr_mult: 2
decay_mult: 0
}
convolution_param {
num_output: 384
pad: 1
kernel_size: 3
weight_filler {
type: "gaussian"
std: 0.01
}
bias_filler {
type: "constant"
value: 0
}
}
}
layer {
name: "relu3"
type: "ReLU"
bottom: "conv3"
top: "conv3"
}
layer {
name: "conv4"
type: "Convolution"
bottom: "conv3"
top: "conv4"
param {
lr_mult: 1
decay_mult: 1
}
param {
lr_mult: 2
decay_mult: 0
}
convolution_param {
num_output: 384
pad: 1
kernel_size: 3
group: 2
weight_filler {
type: "gaussian"
std: 0.01
}
bias_filler {
type: "constant"
value: 0.1
}
}
}
layer {
name: "relu4"
type: "ReLU"
bottom: "conv4"
top: "conv4"
}
layer {
name: "conv5"
type: "Convolution"
bottom: "conv4"
top: "conv5"
param {
lr_mult: 1
decay_mult: 1
}
param {
lr_mult: 2
decay_mult: 0
}
convolution_param {
num_output: 256
pad: 1
kernel_size: 3
group: 2
weight_filler {
type: "gaussian"
std: 0.01
}
bias_filler {
type: "constant"
value: 0.1
}
}
}
layer {
name: "relu5"
type: "ReLU"
bottom: "conv5"
top: "conv5"
}
layer {
name: "pool5"
type: "Pooling"
bottom: "conv5"
top: "pool5"
pooling_param {
pool: MAX
kernel_size: 3
stride: 2
}
}
layer {
name: "fc6"
type: "InnerProduct"
bottom: "pool5"
top: "fc6"
param {
lr_mult: 1
decay_mult: 1
}
param {
lr_mult: 2
decay_mult: 0
}
inner_product_param {
num_output: 4096
weight_filler {
type: "gaussian"
std: 0.005
}
bias_filler {
type: "constant"
value: 0.1
}
}
}
layer {
name: "relu6"
type: "ReLU"
bottom: "fc6"
top: "fc6"
}
layer {
name: "drop6"
type: "Dropout"
bottom: "fc6"
top: "fc6"
dropout_param {
dropout_ratio: 0.5
}
}
layer {
name: "fc7"
type: "InnerProduct"
bottom: "fc6"
top: "fc7"
param {
lr_mult: 1
decay_mult: 1
}
param {
lr_mult: 2
decay_mult: 0
}
inner_product_param {
num_output: 4096
weight_filler {
type: "gaussian"
std: 0.005
}
bias_filler {
type: "constant"
value: 0.1
}
}
}
layer {
name: "relu7"
type: "ReLU"
bottom: "fc7"
top: "fc7"
}
layer {
name: "drop7"
type: "Dropout"
bottom: "fc7"
top: "fc7"
dropout_param {
dropout_ratio: 0.5
}
}
layer {
name: "fc8"
type: "InnerProduct"
bottom: "fc7"
top: "fc8"
param {
lr_mult: 1
decay_mult: 1
}
param {
lr_mult: 2
decay_mult: 0
}
inner_product_param {
num_output: 196
weight_filler {
type: "gaussian"
std: 0.01
}
bias_filler {
type: "constant"
value: 0
}
}
}
layer {
name: "loss"
type: "SoftmaxWithLoss"
bottom: "fc8"
bottom: "label"
top: "loss"
}
I0428 16:49:41.094223 16968 layer_factory.hpp:77] Creating layer train-data
I0428 16:49:41.122392 16968 db_lmdb.cpp:35] Opened lmdb /mnt/bigdisk/MANDIG2/digits/jobs/20200428-132136-11fe/train_db
I0428 16:49:41.152190 16968 net.cpp:84] Creating Layer train-data
I0428 16:49:41.152230 16968 net.cpp:380] train-data -> data
I0428 16:49:41.152272 16968 net.cpp:380] train-data -> label
I0428 16:49:41.152297 16968 data_transformer.cpp:25] Loading mean file from: /mnt/bigdisk/MANDIG2/digits/jobs/20200428-132136-11fe/mean.binaryproto
I0428 16:49:41.223982 16968 data_layer.cpp:45] output data size: 128,3,227,227
I0428 16:49:41.421967 16968 net.cpp:122] Setting up train-data
I0428 16:49:41.421998 16968 net.cpp:129] Top shape: 128 3 227 227 (19787136)
I0428 16:49:41.422011 16968 net.cpp:129] Top shape: 128 (128)
I0428 16:49:41.422019 16968 net.cpp:137] Memory required for data: 79149056
I0428 16:49:41.422034 16968 layer_factory.hpp:77] Creating layer conv1
I0428 16:49:41.422063 16968 net.cpp:84] Creating Layer conv1
I0428 16:49:41.422075 16968 net.cpp:406] conv1 <- data
I0428 16:49:41.422096 16968 net.cpp:380] conv1 -> conv1
I0428 16:49:43.952850 16968 net.cpp:122] Setting up conv1
I0428 16:49:43.952878 16968 net.cpp:129] Top shape: 128 96 55 55 (37171200)
I0428 16:49:43.952885 16968 net.cpp:137] Memory required for data: 227833856
I0428 16:49:43.952908 16968 layer_factory.hpp:77] Creating layer relu1
I0428 16:49:43.952922 16968 net.cpp:84] Creating Layer relu1
I0428 16:49:43.952930 16968 net.cpp:406] relu1 <- conv1
I0428 16:49:43.952936 16968 net.cpp:367] relu1 -> conv1 (in-place)
I0428 16:49:43.955073 16968 net.cpp:122] Setting up relu1
I0428 16:49:43.955085 16968 net.cpp:129] Top shape: 128 96 55 55 (37171200)
I0428 16:49:43.955090 16968 net.cpp:137] Memory required for data: 376518656
I0428 16:49:43.955097 16968 layer_factory.hpp:77] Creating layer norm1
I0428 16:49:43.955109 16968 net.cpp:84] Creating Layer norm1
I0428 16:49:43.955116 16968 net.cpp:406] norm1 <- conv1
I0428 16:49:43.955145 16968 net.cpp:380] norm1 -> norm1
I0428 16:49:43.957545 16968 net.cpp:122] Setting up norm1
I0428 16:49:43.957556 16968 net.cpp:129] Top shape: 128 96 55 55 (37171200)
I0428 16:49:43.957562 16968 net.cpp:137] Memory required for data: 525203456
I0428 16:49:43.957571 16968 layer_factory.hpp:77] Creating layer pool1
I0428 16:49:43.957581 16968 net.cpp:84] Creating Layer pool1
I0428 16:49:43.957588 16968 net.cpp:406] pool1 <- norm1
I0428 16:49:43.957597 16968 net.cpp:380] pool1 -> pool1
I0428 16:49:43.957638 16968 net.cpp:122] Setting up pool1
I0428 16:49:43.957648 16968 net.cpp:129] Top shape: 128 96 27 27 (8957952)
I0428 16:49:43.957655 16968 net.cpp:137] Memory required for data: 561035264
I0428 16:49:43.957661 16968 layer_factory.hpp:77] Creating layer conv2
I0428 16:49:43.957675 16968 net.cpp:84] Creating Layer conv2
I0428 16:49:43.957681 16968 net.cpp:406] conv2 <- pool1
I0428 16:49:43.957690 16968 net.cpp:380] conv2 -> conv2
I0428 16:49:43.977447 16968 net.cpp:122] Setting up conv2
I0428 16:49:43.977479 16968 net.cpp:129] Top shape: 128 256 27 27 (23887872)
I0428 16:49:43.977488 16968 net.cpp:137] Memory required for data: 656586752
I0428 16:49:43.977507 16968 layer_factory.hpp:77] Creating layer relu2
I0428 16:49:43.977524 16968 net.cpp:84] Creating Layer relu2
I0428 16:49:43.977533 16968 net.cpp:406] relu2 <- conv2
I0428 16:49:43.977545 16968 net.cpp:367] relu2 -> conv2 (in-place)
I0428 16:49:43.978355 16968 net.cpp:122] Setting up relu2
I0428 16:49:43.978379 16968 net.cpp:129] Top shape: 128 256 27 27 (23887872)
I0428 16:49:43.978394 16968 net.cpp:137] Memory required for data: 752138240
I0428 16:49:43.978405 16968 layer_factory.hpp:77] Creating layer norm2
I0428 16:49:43.978423 16968 net.cpp:84] Creating Layer norm2
I0428 16:49:43.978433 16968 net.cpp:406] norm2 <- conv2
I0428 16:49:43.978446 16968 net.cpp:380] norm2 -> norm2
I0428 16:49:43.979723 16968 net.cpp:122] Setting up norm2
I0428 16:49:43.979741 16968 net.cpp:129] Top shape: 128 256 27 27 (23887872)
I0428 16:49:43.979748 16968 net.cpp:137] Memory required for data: 847689728
I0428 16:49:43.979755 16968 layer_factory.hpp:77] Creating layer pool2
I0428 16:49:43.979769 16968 net.cpp:84] Creating Layer pool2
I0428 16:49:43.979779 16968 net.cpp:406] pool2 <- norm2
I0428 16:49:43.979792 16968 net.cpp:380] pool2 -> pool2
I0428 16:49:43.979840 16968 net.cpp:122] Setting up pool2
I0428 16:49:43.979848 16968 net.cpp:129] Top shape: 128 256 13 13 (5537792)
I0428 16:49:43.979854 16968 net.cpp:137] Memory required for data: 869840896
I0428 16:49:43.979862 16968 layer_factory.hpp:77] Creating layer conv3
I0428 16:49:43.979879 16968 net.cpp:84] Creating Layer conv3
I0428 16:49:43.979887 16968 net.cpp:406] conv3 <- pool2
I0428 16:49:43.979897 16968 net.cpp:380] conv3 -> conv3
I0428 16:49:44.005908 16968 net.cpp:122] Setting up conv3
I0428 16:49:44.005937 16968 net.cpp:129] Top shape: 128 384 13 13 (8306688)
I0428 16:49:44.005945 16968 net.cpp:137] Memory required for data: 903067648
I0428 16:49:44.005971 16968 layer_factory.hpp:77] Creating layer relu3
I0428 16:49:44.005985 16968 net.cpp:84] Creating Layer relu3
I0428 16:49:44.005993 16968 net.cpp:406] relu3 <- conv3
I0428 16:49:44.006007 16968 net.cpp:367] relu3 -> conv3 (in-place)
I0428 16:49:44.008157 16968 net.cpp:122] Setting up relu3
I0428 16:49:44.008184 16968 net.cpp:129] Top shape: 128 384 13 13 (8306688)
I0428 16:49:44.008203 16968 net.cpp:137] Memory required for data: 936294400
I0428 16:49:44.008211 16968 layer_factory.hpp:77] Creating layer conv4
I0428 16:49:44.008241 16968 net.cpp:84] Creating Layer conv4
I0428 16:49:44.008261 16968 net.cpp:406] conv4 <- conv3
I0428 16:49:44.008278 16968 net.cpp:380] conv4 -> conv4
I0428 16:49:44.042289 16968 net.cpp:122] Setting up conv4
I0428 16:49:44.042318 16968 net.cpp:129] Top shape: 128 384 13 13 (8306688)
I0428 16:49:44.042327 16968 net.cpp:137] Memory required for data: 969521152
I0428 16:49:44.042342 16968 layer_factory.hpp:77] Creating layer relu4
I0428 16:49:44.042359 16968 net.cpp:84] Creating Layer relu4
I0428 16:49:44.042390 16968 net.cpp:406] relu4 <- conv4
I0428 16:49:44.042402 16968 net.cpp:367] relu4 -> conv4 (in-place)
I0428 16:49:44.044360 16968 net.cpp:122] Setting up relu4
I0428 16:49:44.044376 16968 net.cpp:129] Top shape: 128 384 13 13 (8306688)
I0428 16:49:44.044382 16968 net.cpp:137] Memory required for data: 1002747904
I0428 16:49:44.044390 16968 layer_factory.hpp:77] Creating layer conv5
I0428 16:49:44.044407 16968 net.cpp:84] Creating Layer conv5
I0428 16:49:44.044414 16968 net.cpp:406] conv5 <- conv4
I0428 16:49:44.044425 16968 net.cpp:380] conv5 -> conv5
I0428 16:49:44.078864 16968 net.cpp:122] Setting up conv5
I0428 16:49:44.078893 16968 net.cpp:129] Top shape: 128 256 13 13 (5537792)
I0428 16:49:44.078902 16968 net.cpp:137] Memory required for data: 1024899072
I0428 16:49:44.078924 16968 layer_factory.hpp:77] Creating layer relu5
I0428 16:49:44.078939 16968 net.cpp:84] Creating Layer relu5
I0428 16:49:44.078948 16968 net.cpp:406] relu5 <- conv5
I0428 16:49:44.078959 16968 net.cpp:367] relu5 -> conv5 (in-place)
I0428 16:49:44.079564 16968 net.cpp:122] Setting up relu5
I0428 16:49:44.079582 16968 net.cpp:129] Top shape: 128 256 13 13 (5537792)
I0428 16:49:44.079589 16968 net.cpp:137] Memory required for data: 1047050240
I0428 16:49:44.079599 16968 layer_factory.hpp:77] Creating layer pool5
I0428 16:49:44.079608 16968 net.cpp:84] Creating Layer pool5
I0428 16:49:44.079618 16968 net.cpp:406] pool5 <- conv5
I0428 16:49:44.079630 16968 net.cpp:380] pool5 -> pool5
I0428 16:49:44.079677 16968 net.cpp:122] Setting up pool5
I0428 16:49:44.079689 16968 net.cpp:129] Top shape: 128 256 6 6 (1179648)
I0428 16:49:44.079695 16968 net.cpp:137] Memory required for data: 1051768832
I0428 16:49:44.079704 16968 layer_factory.hpp:77] Creating layer fc6
I0428 16:49:44.079720 16968 net.cpp:84] Creating Layer fc6
I0428 16:49:44.079726 16968 net.cpp:406] fc6 <- pool5
I0428 16:49:44.079735 16968 net.cpp:380] fc6 -> fc6
I0428 16:49:44.574312 16968 net.cpp:122] Setting up fc6
I0428 16:49:44.574350 16968 net.cpp:129] Top shape: 128 4096 (524288)
I0428 16:49:44.574359 16968 net.cpp:137] Memory required for data: 1053865984
I0428 16:49:44.574380 16968 layer_factory.hpp:77] Creating layer relu6
I0428 16:49:44.574398 16968 net.cpp:84] Creating Layer relu6
I0428 16:49:44.574409 16968 net.cpp:406] relu6 <- fc6
I0428 16:49:44.574420 16968 net.cpp:367] relu6 -> fc6 (in-place)
I0428 16:49:44.719892 16968 net.cpp:122] Setting up relu6
I0428 16:49:44.719918 16968 net.cpp:129] Top shape: 128 4096 (524288)
I0428 16:49:44.719925 16968 net.cpp:137] Memory required for data: 1055963136
I0428 16:49:44.719938 16968 layer_factory.hpp:77] Creating layer drop6
I0428 16:49:44.719954 16968 net.cpp:84] Creating Layer drop6
I0428 16:49:44.719961 16968 net.cpp:406] drop6 <- fc6
I0428 16:49:44.719974 16968 net.cpp:367] drop6 -> fc6 (in-place)
I0428 16:49:44.720019 16968 net.cpp:122] Setting up drop6
I0428 16:49:44.720032 16968 net.cpp:129] Top shape: 128 4096 (524288)
I0428 16:49:44.720041 16968 net.cpp:137] Memory required for data: 1058060288
I0428 16:49:44.720047 16968 layer_factory.hpp:77] Creating layer fc7
I0428 16:49:44.720057 16968 net.cpp:84] Creating Layer fc7
I0428 16:49:44.720064 16968 net.cpp:406] fc7 <- fc6
I0428 16:49:44.720077 16968 net.cpp:380] fc7 -> fc7
I0428 16:49:44.934257 16968 net.cpp:122] Setting up fc7
I0428 16:49:44.934289 16968 net.cpp:129] Top shape: 128 4096 (524288)
I0428 16:49:44.934298 16968 net.cpp:137] Memory required for data: 1060157440
I0428 16:49:44.934309 16968 layer_factory.hpp:77] Creating layer relu7
I0428 16:49:44.934324 16968 net.cpp:84] Creating Layer relu7
I0428 16:49:44.934332 16968 net.cpp:406] relu7 <- fc7
I0428 16:49:44.934341 16968 net.cpp:367] relu7 -> fc7 (in-place)
I0428 16:49:44.945524 16968 net.cpp:122] Setting up relu7
I0428 16:49:44.945550 16968 net.cpp:129] Top shape: 128 4096 (524288)
I0428 16:49:44.945561 16968 net.cpp:137] Memory required for data: 1062254592
I0428 16:49:44.945569 16968 layer_factory.hpp:77] Creating layer drop7
I0428 16:49:44.945590 16968 net.cpp:84] Creating Layer drop7
I0428 16:49:44.945598 16968 net.cpp:406] drop7 <- fc7
I0428 16:49:44.945650 16968 net.cpp:367] drop7 -> fc7 (in-place)
I0428 16:49:44.945704 16968 net.cpp:122] Setting up drop7
I0428 16:49:44.945719 16968 net.cpp:129] Top shape: 128 4096 (524288)
I0428 16:49:44.945727 16968 net.cpp:137] Memory required for data: 1064351744
I0428 16:49:44.945736 16968 layer_factory.hpp:77] Creating layer fc8
I0428 16:49:44.945750 16968 net.cpp:84] Creating Layer fc8
I0428 16:49:44.945760 16968 net.cpp:406] fc8 <- fc7
I0428 16:49:44.945775 16968 net.cpp:380] fc8 -> fc8
I0428 16:49:44.956532 16968 net.cpp:122] Setting up fc8
I0428 16:49:44.956555 16968 net.cpp:129] Top shape: 128 196 (25088)
I0428 16:49:44.956564 16968 net.cpp:137] Memory required for data: 1064452096
I0428 16:49:44.956576 16968 layer_factory.hpp:77] Creating layer loss
I0428 16:49:44.956591 16968 net.cpp:84] Creating Layer loss
I0428 16:49:44.956600 16968 net.cpp:406] loss <- fc8
I0428 16:49:44.956609 16968 net.cpp:406] loss <- label
I0428 16:49:44.956622 16968 net.cpp:380] loss -> loss
I0428 16:49:44.956640 16968 layer_factory.hpp:77] Creating layer loss
…
I0428 16:49:44.958238 16968 solver.cpp:172] Creating test net (#0) specified by net file: train_val.prototxt
I0428 16:49:44.958277 16968 net.cpp:294] The NetState phase (1) differed from the phase (0) specified by a rule in layer train-data
I0428 16:49:44.958439 16968 net.cpp:51] Initializing net from parameters:
state {
phase: TEST
}
layer {
name: "val-data"
type: "Data"
top: "data"
top: "label"
include {
phase: TEST
}
transform_param {
crop_size: 227
mean_file: "/mnt/bigdisk/MANDIG2/digits/jobs/20200428-132136-11fe/mean.binaryproto"
}
data_param {
source: "/mnt/bigdisk/MANDIG2/digits/jobs/20200428-132136-11fe/val_db"
batch_size: 32
backend: LMDB
}
}
layer {
name: "conv1"
type: "Convolution"
bottom: "data"
top: "conv1"
param {
lr_mult: 1
decay_mult: 1
}
param {
lr_mult: 2
decay_mult: 0
}
convolution_param {
num_output: 96
kernel_size: 11
stride: 4
weight_filler {
type: "gaussian"
std: 0.01
}
bias_filler {
type: "constant"
value: 0
}
}
}
layer {
name: "relu1"
type: "ReLU"
bottom: "conv1"
top: "conv1"
}
layer {
name: "norm1"
type: "LRN"
bottom: "conv1"
top: "norm1"
lrn_param {
local_size: 5
alpha: 0.0001
beta: 0.75
}
}
layer {
name: "pool1"
type: "Pooling"
bottom: "norm1"
top: "pool1"
pooling_param {
pool: MAX
kernel_size: 3
stride: 2
}
}
layer {
name: "conv2"
type: "Convolution"
bottom: "pool1"
top: "conv2"
param {
lr_mult: 1
decay_mult: 1
}
param {
lr_mult: 2
decay_mult: 0
}
convolution_param {
num_output: 256
pad: 2
kernel_size: 5
group: 2
weight_filler {
type: "gaussian"
std: 0.01
}
bias_filler {
type: "constant"
value: 0.1
}
}
}
layer {
name: "relu2"
type: "ReLU"
bottom: "conv2"
top: "conv2"
}
layer {
name: "norm2"
type: "LRN"
bottom: "conv2"
top: "norm2"
lrn_param {
local_size: 5
alpha: 0.0001
beta: 0.75
}
}
layer {
name: "pool2"
type: "Pooling"
bottom: "norm2"
top: "pool2"
pooling_param {
pool: MAX
kernel_size: 3
stride: 2
}
}
layer {
name: "conv3"
type: "Convolution"
bottom: "pool2"
top: "conv3"
param {
lr_mult: 1
decay_mult: 1
}
param {
lr_mult: 2
decay_mult: 0
}
convolution_param {
num_output: 384
pad: 1
kernel_size: 3
weight_filler {
type: "gaussian"
std: 0.01
}
bias_filler {
type: "constant"
value: 0
}
}
}
layer {
name: "relu3"
type: "ReLU"
bottom: "conv3"
top: "conv3"
}
layer {
name: "conv4"
type: "Convolution"
bottom: "conv3"
top: "conv4"
param {
lr_mult: 1
decay_mult: 1
}
param {
lr_mult: 2
decay_mult: 0
}
convolution_param {
num_output: 384
pad: 1
kernel_size: 3
group: 2
weight_filler {
type: "gaussian"
std: 0.01
}
bias_filler {
type: "constant"
value: 0.1
}
}
}
layer {
name: "relu4"
type: "ReLU"
bottom: "conv4"
top: "conv4"
}
layer {
name: "conv5"
type: "Convolution"
bottom: "conv4"
top: "conv5"
param {
lr_mult: 1
decay_mult: 1
}
param {
lr_mult: 2
decay_mult: 0
}
convolution_param {
num_output: 256
pad: 1
kernel_size: 3
group: 2
weight_filler {
type: "gaussian"
std: 0.01
}
bias_filler {
type: "constant"
value: 0.1
}
}
}
layer {
name: "relu5"
type: "ReLU"
bottom: "conv5"
top: "conv5"
}
layer {
name: "pool5"
type: "Pooling"
bottom: "conv5"
top: "pool5"
pooling_param {
pool: MAX
kernel_size: 3
stride: 2
}
}
layer {
name: "fc6"
type: "InnerProduct"
bottom: "pool5"
top: "fc6"
param {
lr_mult: 1
decay_mult: 1
}
param {
lr_mult: 2
decay_mult: 0
}
inner_product_param {
num_output: 4096
weight_filler {
type: "gaussian"
std: 0.005
}
bias_filler {
type: "constant"
value: 0.1
}
}
}
layer {
name: "relu6"
type: "ReLU"
bottom: "fc6"
top: "fc6"
}
layer {
name: "drop6"
type: "Dropout"
bottom: "fc6"
top: "fc6"
dropout_param {
dropout_ratio: 0.5
}
}
layer {
name: "fc7"
type: "InnerProduct"
bottom: "fc6"
top: "fc7"
param {
lr_mult: 1
decay_mult: 1
}
param {
lr_mult: 2
decay_mult: 0
}
inner_product_param {
num_output: 4096
weight_filler {
type: "gaussian"
std: 0.005
}
bias_filler {
type: "constant"
value: 0.1
}
}
}
layer {
name: "relu7"
type: "ReLU"
bottom: "fc7"
top: "fc7"
}
layer {
name: "drop7"
type: "Dropout"
bottom: "fc7"
top: "fc7"
dropout_param {
dropout_ratio: 0.5
}
}
layer {
name: "fc8"
type: "InnerProduct"
bottom: "fc7"
top: "fc8"
param {
lr_mult: 1
decay_mult: 1
}
param {
lr_mult: 2
decay_mult: 0
}
inner_product_param {
num_output: 196
weight_filler {
type: "gaussian"
std: 0.01
}
bias_filler {
type: "constant"
value: 0
}
}
}
layer {
name: "accuracy"
type: "Accuracy"
bottom: "fc8"
bottom: "label"
top: "accuracy"
include {
phase: TEST
}
}
layer {
name: "loss"
type: "SoftmaxWithLoss"
bottom: "fc8"
bottom: "label"
top: "loss"
}
I0428 16:49:44.958637 16968 layer_factory.hpp:77] Creating layer val-data
I0428 16:49:44.996845 16968 db_lmdb.cpp:35] Opened lmdb /mnt/bigdisk/MANDIG2/digits/jobs/20200428-132136-11fe/val_db
I0428 16:49:45.041299 16968 net.cpp:84] Creating Layer val-data
I0428 16:49:45.041337 16968 net.cpp:380] val-data -> data
I0428 16:49:45.041352 16968 net.cpp:380] val-data -> label
I0428 16:49:45.041363 16968 data_transformer.cpp:25] Loading mean file from: /mnt/bigdisk/MANDIG2/digits/jobs/20200428-132136-11fe/mean.binaryproto
I0428 16:49:45.046556 16968 data_layer.cpp:45] output data size: 32,3,227,227
I0428 16:49:45.104570 16968 net.cpp:122] Setting up val-data
I0428 16:49:45.104598 16968 net.cpp:129] Top shape: 32 3 227 227 (4946784)
I0428 16:49:45.104605 16968 net.cpp:129] Top shape: 32 (32)
I0428 16:49:45.104612 16968 net.cpp:137] Memory required for data: 19787264
I0428 16:49:45.104622 16968 layer_factory.hpp:77] Creating layer label_val-data_1_split
I0428 16:49:45.104640 16968 net.cpp:84] Creating Layer label_val-data_1_split
I0428 16:49:45.104650 16968 net.cpp:406] label_val-data_1_split <- label
I0428 16:49:45.104661 16968 net.cpp:380] label_val-data_1_split -> label_val-data_1_split_0
I0428 16:49:45.104676 16968 net.cpp:380] label_val-data_1_split -> label_val-data_1_split_1
I0428 16:49:45.104732 16968 net.cpp:122] Setting up label_val-data_1_split
I0428 16:49:45.104743 16968 net.cpp:129] Top shape: 32 (32)
I0428 16:49:45.104748 16968 net.cpp:129] Top shape: 32 (32)
I0428 16:49:45.104755 16968 net.cpp:137] Memory required for data: 19787520
I0428 16:49:45.104761 16968 layer_factory.hpp:77] Creating layer conv1
I0428 16:49:45.104782 16968 net.cpp:84] Creating Layer conv1
I0428 16:49:45.104789 16968 net.cpp:406] conv1 <- data
I0428 16:49:45.104799 16968 net.cpp:380] conv1 -> conv1
I0428 16:49:45.115326 16968 net.cpp:122] Setting up conv1
I0428 16:49:45.115345 16968 net.cpp:129] Top shape: 32 96 55 55 (9292800)
I0428 16:49:45.115350 16968 net.cpp:137] Memory required for data: 56958720
I0428 16:49:45.115363 16968 layer_factory.hpp:77] Creating layer relu1
I0428 16:49:45.115376 16968 net.cpp:84] Creating Layer relu1
I0428 16:49:45.115386 16968 net.cpp:406] relu1 <- conv1
I0428 16:49:45.115396 16968 net.cpp:367] relu1 -> conv1 (in-place)
I0428 16:49:45.116674 16968 net.cpp:122] Setting up relu1
I0428 16:49:45.116689 16968 net.cpp:129] Top shape: 32 96 55 55 (9292800)
I0428 16:49:45.116700 16968 net.cpp:137] Memory required for data: 94129920
I0428 16:49:45.116708 16968 layer_factory.hpp:77] Creating layer norm1
I0428 16:49:45.116722 16968 net.cpp:84] Creating Layer norm1
I0428 16:49:45.116729 16968 net.cpp:406] norm1 <- conv1
I0428 16:49:45.116741 16968 net.cpp:380] norm1 -> norm1
I0428 16:49:45.132990 16968 net.cpp:122] Setting up norm1
I0428 16:49:45.133013 16968 net.cpp:129] Top shape: 32 96 55 55 (9292800)
I0428 16:49:45.133021 16968 net.cpp:137] Memory required for data: 131301120
I0428 16:49:45.133029 16968 layer_factory.hpp:77] Creating layer pool1
I0428 16:49:45.133040 16968 net.cpp:84] Creating Layer pool1
I0428 16:49:45.133049 16968 net.cpp:406] pool1 <- norm1
I0428 16:49:45.133057 16968 net.cpp:380] pool1 -> pool1
I0428 16:49:45.133091 16968 net.cpp:122] Setting up pool1
I0428 16:49:45.133100 16968 net.cpp:129] Top shape: 32 96 27 27 (2239488)
I0428 16:49:45.133103 16968 net.cpp:137] Memory required for data: 140259072
I0428 16:49:45.133110 16968 layer_factory.hpp:77] Creating layer conv2
I0428 16:49:45.133121 16968 net.cpp:84] Creating Layer conv2
I0428 16:49:45.133128 16968 net.cpp:406] conv2 <- pool1
I0428 16:49:45.133134 16968 net.cpp:380] conv2 -> conv2
I0428 16:49:45.156086 16968 net.cpp:122] Setting up conv2
I0428 16:49:45.156114 16968 net.cpp:129] Top shape: 32 256 27 27 (5971968)
I0428 16:49:45.156121 16968 net.cpp:137] Memory required for data: 164146944
I0428 16:49:45.156137 16968 layer_factory.hpp:77] Creating layer relu2
I0428 16:49:45.156149 16968 net.cpp:84] Creating Layer relu2
I0428 16:49:45.156162 16968 net.cpp:406] relu2 <- conv2
I0428 16:49:45.156183 16968 net.cpp:367] relu2 -> conv2 (in-place)
I0428 16:49:45.158797 16968 net.cpp:122] Setting up relu2
I0428 16:49:45.158814 16968 net.cpp:129] Top shape: 32 256 27 27 (5971968)
I0428 16:49:45.158823 16968 net.cpp:137] Memory required for data: 188034816
I0428 16:49:45.158833 16968 layer_factory.hpp:77] Creating layer norm2
I0428 16:49:45.158850 16968 net.cpp:84] Creating Layer norm2
I0428 16:49:45.158859 16968 net.cpp:406] norm2 <- conv2
I0428 16:49:45.158869 16968 net.cpp:380] norm2 -> norm2
I0428 16:49:45.160835 16968 net.cpp:122] Setting up norm2
I0428 16:49:45.160854 16968 net.cpp:129] Top shape: 32 256 27 27 (5971968)
I0428 16:49:45.160866 16968 net.cpp:137] Memory required for data: 211922688
I0428 16:49:45.160873 16968 layer_factory.hpp:77] Creating layer pool2
I0428 16:49:45.160885 16968 net.cpp:84] Creating Layer pool2
I0428 16:49:45.160895 16968 net.cpp:406] pool2 <- norm2
I0428 16:49:45.160908 16968 net.cpp:380] pool2 -> pool2
I0428 16:49:45.160945 16968 net.cpp:122] Setting up pool2
I0428 16:49:45.160957 16968 net.cpp:129] Top shape: 32 256 13 13 (1384448)
I0428 16:49:45.160965 16968 net.cpp:137] Memory required for data: 217460480
I0428 16:49:45.160974 16968 layer_factory.hpp:77] Creating layer conv3
I0428 16:49:45.160989 16968 net.cpp:84] Creating Layer conv3
I0428 16:49:45.161000 16968 net.cpp:406] conv3 <- pool2
I0428 16:49:45.161011 16968 net.cpp:380] conv3 -> conv3
I0428 16:49:45.194468 16968 net.cpp:122] Setting up conv3
I0428 16:49:45.194533 16968 net.cpp:129] Top shape: 32 384 13 13 (2076672)
I0428 16:49:45.194545 16968 net.cpp:137] Memory required for data: 225767168
I0428 16:49:45.194569 16968 layer_factory.hpp:77] Creating layer relu3
I0428 16:49:45.194589 16968 net.cpp:84] Creating Layer relu3
I0428 16:49:45.194600 16968 net.cpp:406] relu3 <- conv3
I0428 16:49:45.194614 16968 net.cpp:367] relu3 -> conv3 (in-place)
I0428 16:49:45.196316 16968 net.cpp:122] Setting up relu3
I0428 16:49:45.196334 16968 net.cpp:129] Top shape: 32 384 13 13 (2076672)
I0428 16:49:45.196343 16968 net.cpp:137] Memory required for data: 234073856
I0428 16:49:45.196352 16968 layer_factory.hpp:77] Creating layer conv4
I0428 16:49:45.196374 16968 net.cpp:84] Creating Layer conv4
I0428 16:49:45.196386 16968 net.cpp:406] conv4 <- conv3
I0428 16:49:45.196403 16968 net.cpp:380] conv4 -> conv4
I0428 16:49:45.218284 16968 net.cpp:122] Setting up conv4
I0428 16:49:45.218309 16968 net.cpp:129] Top shape: 32 384 13 13 (2076672)
I0428 16:49:45.218317 16968 net.cpp:137] Memory required for data: 242380544
I0428 16:49:45.218329 16968 layer_factory.hpp:77] Creating layer relu4
I0428 16:49:45.218344 16968 net.cpp:84] Creating Layer relu4
I0428 16:49:45.218351 16968 net.cpp:406] relu4 <- conv4
I0428 16:49:45.218364 16968 net.cpp:367] relu4 -> conv4 (in-place)
I0428 16:49:45.219781 16968 net.cpp:122] Setting up relu4
I0428 16:49:45.219796 16968 net.cpp:129] Top shape: 32 384 13 13 (2076672)
I0428 16:49:45.219805 16968 net.cpp:137] Memory required for data: 250687232
I0428 16:49:45.219813 16968 layer_factory.hpp:77] Creating layer conv5
I0428 16:49:45.219828 16968 net.cpp:84] Creating Layer conv5
I0428 16:49:45.219837 16968 net.cpp:406] conv5 <- conv4
I0428 16:49:45.219844 16968 net.cpp:380] conv5 -> conv5
I0428 16:49:45.259639 16968 net.cpp:122] Setting up conv5
I0428 16:49:45.259670 16968 net.cpp:129] Top shape: 32 256 13 13 (1384448)
I0428 16:49:45.259680 16968 net.cpp:137] Memory required for data: 256225024
I0428 16:49:45.259703 16968 layer_factory.hpp:77] Creating layer relu5
I0428 16:49:45.259719 16968 net.cpp:84] Creating Layer relu5
I0428 16:49:45.259729 16968 net.cpp:406] relu5 <- conv5
I0428 16:49:45.259768 16968 net.cpp:367] relu5 -> conv5 (in-place)
I0428 16:49:45.260740 16968 net.cpp:122] Setting up relu5
I0428 16:49:45.260761 16968 net.cpp:129] Top shape: 32 256 13 13 (1384448)
I0428 16:49:45.260769 16968 net.cpp:137] Memory required for data: 261762816
I0428 16:49:45.260777 16968 layer_factory.hpp:77] Creating layer pool5
I0428 16:49:45.260797 16968 net.cpp:84] Creating Layer pool5
I0428 16:49:45.260808 16968 net.cpp:406] pool5 <- conv5
I0428 16:49:45.260821 16968 net.cpp:380] pool5 -> pool5
I0428 16:49:45.260885 16968 net.cpp:122] Setting up pool5
I0428 16:49:45.260898 16968 net.cpp:129] Top shape: 32 256 6 6 (294912)
I0428 16:49:45.260905 16968 net.cpp:137] Memory required for data: 262942464
I0428 16:49:45.260913 16968 layer_factory.hpp:77] Creating layer fc6
I0428 16:49:45.260928 16968 net.cpp:84] Creating Layer fc6
I0428 16:49:45.260933 16968 net.cpp:406] fc6 <- pool5
I0428 16:49:45.260946 16968 net.cpp:380] fc6 -> fc6
I0428 16:49:45.718457 16968 net.cpp:122] Setting up fc6
I0428 16:49:45.718513 16968 net.cpp:129] Top shape: 32 4096 (131072)
I0428 16:49:45.718523 16968 net.cpp:137] Memory required for data: 263466752
I0428 16:49:45.718534 16968 layer_factory.hpp:77] Creating layer relu6
I0428 16:49:45.718549 16968 net.cpp:84] Creating Layer relu6
I0428 16:49:45.718556 16968 net.cpp:406] relu6 <- fc6
I0428 16:49:45.718564 16968 net.cpp:367] relu6 -> fc6 (in-place)
I0428 16:49:45.727300 16968 net.cpp:122] Setting up relu6
I0428 16:49:45.727324 16968 net.cpp:129] Top shape: 32 4096 (131072)
I0428 16:49:45.727337 16968 net.cpp:137] Memory required for data: 263991040
I0428 16:49:45.727347 16968 layer_factory.hpp:77] Creating layer drop6
I0428 16:49:45.727361 16968 net.cpp:84] Creating Layer drop6
I0428 16:49:45.727371 16968 net.cpp:406] drop6 <- fc6
I0428 16:49:45.727387 16968 net.cpp:367] drop6 -> fc6 (in-place)
I0428 16:49:45.727432 16968 net.cpp:122] Setting up drop6
I0428 16:49:45.727447 16968 net.cpp:129] Top shape: 32 4096 (131072)
I0428 16:49:45.727455 16968 net.cpp:137] Memory required for data: 264515328
I0428 16:49:45.727463 16968 layer_factory.hpp:77] Creating layer fc7
I0428 16:49:45.727478 16968 net.cpp:84] Creating Layer fc7
I0428 16:49:45.727485 16968 net.cpp:406] fc7 <- fc6
I0428 16:49:45.727502 16968 net.cpp:380] fc7 -> fc7
I0428 16:49:46.018079 16968 net.cpp:122] Setting up fc7
I0428 16:49:46.018113 16968 net.cpp:129] Top shape: 32 4096 (131072)
I0428 16:49:46.018126 16968 net.cpp:137] Memory required for data: 265039616
I0428 16:49:46.018147 16968 layer_factory.hpp:77] Creating layer relu7
I0428 16:49:46.018172 16968 net.cpp:84] Creating Layer relu7
I0428 16:49:46.018187 16968 net.cpp:406] relu7 <- fc7
I0428 16:49:46.018205 16968 net.cpp:367] relu7 -> fc7 (in-place)
I0428 16:49:46.018901 16968 net.cpp:122] Setting up relu7
I0428 16:49:46.018924 16968 net.cpp:129] Top shape: 32 4096 (131072)
I0428 16:49:46.018934 16968 net.cpp:137] Memory required for data: 265563904
I0428 16:49:46.018944 16968 layer_factory.hpp:77] Creating layer drop7
I0428 16:49:46.018961 16968 net.cpp:84] Creating Layer drop7
I0428 16:49:46.018976 16968 net.cpp:406] drop7 <- fc7
I0428 16:49:46.018996 16968 net.cpp:367] drop7 -> fc7 (in-place)
I0428 16:49:46.019039 16968 net.cpp:122] Setting up drop7
I0428 16:49:46.019055 16968 net.cpp:129] Top shape: 32 4096 (131072)
I0428 16:49:46.019068 16968 net.cpp:137] Memory required for data: 266088192
I0428 16:49:46.019083 16968 layer_factory.hpp:77] Creating layer fc8
I0428 16:49:46.019104 16968 net.cpp:84] Creating Layer fc8
I0428 16:49:46.019116 16968 net.cpp:406] fc8 <- fc7
I0428 16:49:46.019134 16968 net.cpp:380] fc8 -> fc8
I0428 16:49:46.048086 16968 net.cpp:122] Setting up fc8
I0428 16:49:46.048128 16968 net.cpp:129] Top shape: 32 196 (6272)
I0428 16:49:46.048143 16968 net.cpp:137] Memory required for data: 266113280
I0428 16:49:46.048163 16968 layer_factory.hpp:77] Creating layer fc8_fc8_0_split
I0428 16:49:46.048185 16968 net.cpp:84] Creating Layer fc8_fc8_0_split
I0428 16:49:46.048203 16968 net.cpp:406] fc8_fc8_0_split <- fc8
I0428 16:49:46.048228 16968 net.cpp:380] fc8_fc8_0_split -> fc8_fc8_0_split_0
I0428 16:49:46.048292 16968 net.cpp:380] fc8_fc8_0_split -> fc8_fc8_0_split_1
I0428 16:49:46.048372 16968 net.cpp:122] Setting up fc8_fc8_0_split
I0428 16:49:46.048386 16968 net.cpp:129] Top shape: 32 196 (6272)
I0428 16:49:46.048398 16968 net.cpp:129] Top shape: 32 196 (6272)
I0428 16:49:46.048408 16968 net.cpp:137] Memory required for data: 266163456
I0428 16:49:46.048422 16968 layer_factory.hpp:77] Creating layer accuracy
I0428 16:49:46.048445 16968 net.cpp:84] Creating Layer accuracy
I0428 16:49:46.048460 16968 net.cpp:406] accuracy <- fc8_fc8_0_split_0
I0428 16:49:46.048475 16968 net.cpp:406] accuracy <- label_val-data_1_split_0
I0428 16:49:46.048494 16968 net.cpp:380] accuracy -> accuracy
…
