…
I0502 13:10:32.924834 11636 net.cpp:294] The NetState phase (0) differed from the phase (1) specified by a rule in layer accuracy
I0502 13:10:32.924988 11636 net.cpp:51] Initializing net from parameters:
state {
phase: TRAIN
level: 0
stage: ""
}
layer {
name: "train-data"
type: "Data"
top: "data"
top: "label"
include {
phase: TRAIN
}
transform_param {
mirror: true
crop_size: 227
mean_file: "/mnt/bigdisk/MANDIG2/digits/jobs/20200428-132136-11fe/mean.binaryproto"
}
data_param {
source: "/mnt/bigdisk/MANDIG2/digits/jobs/20200428-132136-11fe/train_db"
batch_size: 128
backend: LMDB
}
}
layer {
name: "conv1"
type: "Convolution"
bottom: "data"
top: "conv1"
param {
lr_mult: 1
decay_mult: 1
}
param {
lr_mult: 2
decay_mult: 0
}
convolution_param {
num_output: 96
kernel_size: 11
stride: 4
weight_filler {
type: "gaussian"
std: 0.01
}
bias_filler {
type: "constant"
value: 0
}
}
}
layer {
name: "relu1"
type: "ReLU"
bottom: "conv1"
top: "conv1"
}
layer {
name: "norm1"
type: "LRN"
bottom: "conv1"
top: "norm1"
lrn_param {
local_size: 5
alpha: 0.0001
beta: 0.75
}
}
layer {
name: "pool1"
type: "Pooling"
bottom: "norm1"
top: "pool1"
pooling_param {
pool: MAX
kernel_size: 3
stride: 2
}
}
layer {
name: "conv2"
type: "Convolution"
bottom: "pool1"
top: "conv2"
param {
lr_mult: 1
decay_mult: 1
}
param {
lr_mult: 2
decay_mult: 0
}
convolution_param {
num_output: 256
pad: 2
kernel_size: 5
group: 2
weight_filler {
type: "gaussian"
std: 0.01
}
bias_filler {
type: "constant"
value: 0.1
}
}
}
layer {
name: "relu2"
type: "ReLU"
bottom: "conv2"
top: "conv2"
}
layer {
name: "norm2"
type: "LRN"
bottom: "conv2"
top: "norm2"
lrn_param {
local_size: 5
alpha: 0.0001
beta: 0.75
}
}
layer {
name: "pool2"
type: "Pooling"
bottom: "norm2"
top: "pool2"
pooling_param {
pool: MAX
kernel_size: 3
stride: 2
}
}
layer {
name: "conv3"
type: "Convolution"
bottom: "pool2"
top: "conv3"
param {
lr_mult: 1
decay_mult: 1
}
param {
lr_mult: 2
decay_mult: 0
}
convolution_param {
num_output: 384
pad: 1
kernel_size: 3
weight_filler {
type: "gaussian"
std: 0.01
}
bias_filler {
type: "constant"
value: 0
}
}
}
layer {
name: "relu3"
type: "ReLU"
bottom: "conv3"
top: "conv3"
}
layer {
name: "conv4"
type: "Convolution"
bottom: "conv3"
top: "conv4"
param {
lr_mult: 1
decay_mult: 1
}
param {
lr_mult: 2
decay_mult: 0
}
convolution_param {
num_output: 384
pad: 1
kernel_size: 3
group: 2
weight_filler {
type: "gaussian"
std: 0.01
}
bias_filler {
type: "constant"
value: 0.1
}
}
}
layer {
name: "relu4"
type: "ReLU"
bottom: "conv4"
top: "conv4"
}
layer {
name: "conv5"
type: "Convolution"
bottom: "conv4"
top: "conv5"
param {
lr_mult: 1
decay_mult: 1
}
param {
lr_mult: 2
decay_mult: 0
}
convolution_param {
num_output: 256
pad: 1
kernel_size: 3
group: 2
weight_filler {
type: "gaussian"
std: 0.01
}
bias_filler {
type: "constant"
value: 0.1
}
}
}
layer {
name: "relu5"
type: "ReLU"
bottom: "conv5"
top: "conv5"
}
layer {
name: "pool5"
type: "Pooling"
bottom: "conv5"
top: "pool5"
pooling_param {
pool: MAX
kernel_size: 3
stride: 2
}
}
layer {
name: "fc6"
type: "InnerProduct"
bottom: "pool5"
top: "fc6"
param {
lr_mult: 1
decay_mult: 1
}
param {
lr_mult: 2
decay_mult: 0
}
inner_product_param {
num_output: 4096
weight_filler {
type: "gaussian"
std: 0.005
}
bias_filler {
type: "constant"
value: 0.1
}
}
}
layer {
name: "relu6"
type: "ReLU"
bottom: "fc6"
top: "fc6"
}
layer {
name: "drop6"
type: "Dropout"
bottom: "fc6"
top: "fc6"
dropout_param {
dropout_ratio: 0.5
}
}
layer {
name: "fc7"
type: "InnerProduct"
bottom: "fc6"
top: "fc7"
param {
lr_mult: 1
decay_mult: 1
}
param {
lr_mult: 2
decay_mult: 0
}
inner_product_param {
num_output: 4096
weight_filler {
type: "gaussian"
std: 0.005
}
bias_filler {
type: "constant"
value: 0.1
}
}
}
layer {
name: "relu7"
type: "ReLU"
bottom: "fc7"
top: "fc7"
}
layer {
name: "drop7"
type: "Dropout"
bottom: "fc7"
top: "fc7"
dropout_param {
dropout_ratio: 0.5
}
}
layer {
name: "fc8"
type: "InnerProduct"
bottom: "fc7"
top: "fc8"
param {
lr_mult: 1
decay_mult: 1
}
param {
lr_mult: 2
decay_mult: 0
}
inner_product_param {
num_output: 196
weight_filler {
type: "gaussian"
std: 0.01
}
bias_filler {
type: "constant"
value: 0
}
}
}
layer {
name: "loss"
type: "SoftmaxWithLoss"
bottom: "fc8"
bottom: "label"
top: "loss"
}
I0502 13:10:32.925079 11636 layer_factory.hpp:77] Creating layer train-data
I0502 13:10:32.927532 11636 db_lmdb.cpp:35] Opened lmdb /mnt/bigdisk/MANDIG2/digits/jobs/20200428-132136-11fe/train_db
I0502 13:10:32.927742 11636 net.cpp:84] Creating Layer train-data
I0502 13:10:32.927753 11636 net.cpp:380] train-data -> data
I0502 13:10:32.927774 11636 net.cpp:380] train-data -> label
I0502 13:10:32.927785 11636 data_transformer.cpp:25] Loading mean file from: /mnt/bigdisk/MANDIG2/digits/jobs/20200428-132136-11fe/mean.binaryproto
I0502 13:10:33.086869 11636 data_layer.cpp:45] output data size: 128,3,227,227
I0502 13:10:33.300617 11636 net.cpp:122] Setting up train-data
I0502 13:10:33.300642 11636 net.cpp:129] Top shape: 128 3 227 227 (19787136)
I0502 13:10:33.300647 11636 net.cpp:129] Top shape: 128 (128)
I0502 13:10:33.300652 11636 net.cpp:137] Memory required for data: 79149056
I0502 13:10:33.300662 11636 layer_factory.hpp:77] Creating layer conv1
I0502 13:10:33.300683 11636 net.cpp:84] Creating Layer conv1
I0502 13:10:33.300689 11636 net.cpp:406] conv1 <- data
I0502 13:10:33.300701 11636 net.cpp:380] conv1 -> conv1
I0502 13:10:34.884599 11636 net.cpp:122] Setting up conv1
I0502 13:10:34.884627 11636 net.cpp:129] Top shape: 128 96 55 55 (37171200)
I0502 13:10:34.884635 11636 net.cpp:137] Memory required for data: 227833856
I0502 13:10:34.884665 11636 layer_factory.hpp:77] Creating layer relu1
I0502 13:10:34.884681 11636 net.cpp:84] Creating Layer relu1
I0502 13:10:34.884690 11636 net.cpp:406] relu1 <- conv1
I0502 13:10:34.884702 11636 net.cpp:367] relu1 -> conv1 (in-place)
I0502 13:10:34.885282 11636 net.cpp:122] Setting up relu1
I0502 13:10:34.885295 11636 net.cpp:129] Top shape: 128 96 55 55 (37171200)
I0502 13:10:34.885303 11636 net.cpp:137] Memory required for data: 376518656
I0502 13:10:34.885311 11636 layer_factory.hpp:77] Creating layer norm1
I0502 13:10:34.885324 11636 net.cpp:84] Creating Layer norm1
I0502 13:10:34.885331 11636 net.cpp:406] norm1 <- conv1
I0502 13:10:34.885370 11636 net.cpp:380] norm1 -> norm1
I0502 13:10:34.886183 11636 net.cpp:122] Setting up norm1
I0502 13:10:34.886196 11636 net.cpp:129] Top shape: 128 96 55 55 (37171200)
I0502 13:10:34.886204 11636 net.cpp:137] Memory required for data: 525203456
I0502 13:10:34.886209 11636 layer_factory.hpp:77] Creating layer pool1
I0502 13:10:34.886222 11636 net.cpp:84] Creating Layer pool1
I0502 13:10:34.886229 11636 net.cpp:406] pool1 <- norm1
I0502 13:10:34.886238 11636 net.cpp:380] pool1 -> pool1
I0502 13:10:34.886303 11636 net.cpp:122] Setting up pool1
I0502 13:10:34.886315 11636 net.cpp:129] Top shape: 128 96 27 27 (8957952)
I0502 13:10:34.886322 11636 net.cpp:137] Memory required for data: 561035264
I0502 13:10:34.886328 11636 layer_factory.hpp:77] Creating layer conv2
I0502 13:10:34.886348 11636 net.cpp:84] Creating Layer conv2
I0502 13:10:34.886354 11636 net.cpp:406] conv2 <- pool1
I0502 13:10:34.886365 11636 net.cpp:380] conv2 -> conv2
I0502 13:10:34.900301 11636 net.cpp:122] Setting up conv2
I0502 13:10:34.900329 11636 net.cpp:129] Top shape: 128 256 27 27 (23887872)
I0502 13:10:34.900337 11636 net.cpp:137] Memory required for data: 656586752
I0502 13:10:34.900357 11636 layer_factory.hpp:77] Creating layer relu2
I0502 13:10:34.900368 11636 net.cpp:84] Creating Layer relu2
I0502 13:10:34.900375 11636 net.cpp:406] relu2 <- conv2
I0502 13:10:34.900384 11636 net.cpp:367] relu2 -> conv2 (in-place)
I0502 13:10:34.901227 11636 net.cpp:122] Setting up relu2
I0502 13:10:34.901242 11636 net.cpp:129] Top shape: 128 256 27 27 (23887872)
I0502 13:10:34.901247 11636 net.cpp:137] Memory required for data: 752138240
I0502 13:10:34.901253 11636 layer_factory.hpp:77] Creating layer norm2
I0502 13:10:34.901268 11636 net.cpp:84] Creating Layer norm2
I0502 13:10:34.901275 11636 net.cpp:406] norm2 <- conv2
I0502 13:10:34.901285 11636 net.cpp:380] norm2 -> norm2
I0502 13:10:34.901865 11636 net.cpp:122] Setting up norm2
I0502 13:10:34.901887 11636 net.cpp:129] Top shape: 128 256 27 27 (23887872)
I0502 13:10:34.901895 11636 net.cpp:137] Memory required for data: 847689728
I0502 13:10:34.901902 11636 layer_factory.hpp:77] Creating layer pool2
I0502 13:10:34.901918 11636 net.cpp:84] Creating Layer pool2
I0502 13:10:34.901926 11636 net.cpp:406] pool2 <- norm2
I0502 13:10:34.901938 11636 net.cpp:380] pool2 -> pool2
I0502 13:10:34.901998 11636 net.cpp:122] Setting up pool2
I0502 13:10:34.902009 11636 net.cpp:129] Top shape: 128 256 13 13 (5537792)
I0502 13:10:34.902014 11636 net.cpp:137] Memory required for data: 869840896
I0502 13:10:34.902019 11636 layer_factory.hpp:77] Creating layer conv3
I0502 13:10:34.902038 11636 net.cpp:84] Creating Layer conv3
I0502 13:10:34.902045 11636 net.cpp:406] conv3 <- pool2
I0502 13:10:34.902055 11636 net.cpp:380] conv3 -> conv3
I0502 13:10:34.923846 11636 net.cpp:122] Setting up conv3
I0502 13:10:34.923873 11636 net.cpp:129] Top shape: 128 384 13 13 (8306688)
I0502 13:10:34.923880 11636 net.cpp:137] Memory required for data: 903067648
I0502 13:10:34.923899 11636 layer_factory.hpp:77] Creating layer relu3
I0502 13:10:34.923913 11636 net.cpp:84] Creating Layer relu3
I0502 13:10:34.923920 11636 net.cpp:406] relu3 <- conv3
I0502 13:10:34.923933 11636 net.cpp:367] relu3 -> conv3 (in-place)
I0502 13:10:34.924721 11636 net.cpp:122] Setting up relu3
I0502 13:10:34.924738 11636 net.cpp:129] Top shape: 128 384 13 13 (8306688)
I0502 13:10:34.924744 11636 net.cpp:137] Memory required for data: 936294400
I0502 13:10:34.924751 11636 layer_factory.hpp:77] Creating layer conv4
I0502 13:10:34.924767 11636 net.cpp:84] Creating Layer conv4
I0502 13:10:34.924772 11636 net.cpp:406] conv4 <- conv3
I0502 13:10:34.924782 11636 net.cpp:380] conv4 -> conv4
I0502 13:10:34.960410 11636 net.cpp:122] Setting up conv4
I0502 13:10:34.960440 11636 net.cpp:129] Top shape: 128 384 13 13 (8306688)
I0502 13:10:34.960448 11636 net.cpp:137] Memory required for data: 969521152
I0502 13:10:34.960463 11636 layer_factory.hpp:77] Creating layer relu4
I0502 13:10:34.960480 11636 net.cpp:84] Creating Layer relu4
I0502 13:10:34.960489 11636 net.cpp:406] relu4 <- conv4
I0502 13:10:34.960525 11636 net.cpp:367] relu4 -> conv4 (in-place)
I0502 13:10:34.961050 11636 net.cpp:122] Setting up relu4
I0502 13:10:34.961066 11636 net.cpp:129] Top shape: 128 384 13 13 (8306688)
I0502 13:10:34.961072 11636 net.cpp:137] Memory required for data: 1002747904
I0502 13:10:34.961081 11636 layer_factory.hpp:77] Creating layer conv5
I0502 13:10:34.961110 11636 net.cpp:84] Creating Layer conv5
I0502 13:10:34.961118 11636 net.cpp:406] conv5 <- conv4
I0502 13:10:34.961130 11636 net.cpp:380] conv5 -> conv5
I0502 13:10:34.985525 11636 net.cpp:122] Setting up conv5
I0502 13:10:34.985553 11636 net.cpp:129] Top shape: 128 256 13 13 (5537792)
I0502 13:10:34.985558 11636 net.cpp:137] Memory required for data: 1024899072
I0502 13:10:34.985579 11636 layer_factory.hpp:77] Creating layer relu5
I0502 13:10:34.985594 11636 net.cpp:84] Creating Layer relu5
I0502 13:10:34.985603 11636 net.cpp:406] relu5 <- conv5
I0502 13:10:34.985613 11636 net.cpp:367] relu5 -> conv5 (in-place)
I0502 13:10:34.986366 11636 net.cpp:122] Setting up relu5
I0502 13:10:34.986382 11636 net.cpp:129] Top shape: 128 256 13 13 (5537792)
I0502 13:10:34.986388 11636 net.cpp:137] Memory required for data: 1047050240
I0502 13:10:34.986394 11636 layer_factory.hpp:77] Creating layer pool5
I0502 13:10:34.986404 11636 net.cpp:84] Creating Layer pool5
I0502 13:10:34.986413 11636 net.cpp:406] pool5 <- conv5
I0502 13:10:34.986423 11636 net.cpp:380] pool5 -> pool5
I0502 13:10:34.986479 11636 net.cpp:122] Setting up pool5
I0502 13:10:34.986553 11636 net.cpp:129] Top shape: 128 256 6 6 (1179648)
I0502 13:10:34.986558 11636 net.cpp:137] Memory required for data: 1051768832
I0502 13:10:34.986564 11636 layer_factory.hpp:77] Creating layer fc6
I0502 13:10:34.986582 11636 net.cpp:84] Creating Layer fc6
I0502 13:10:34.986588 11636 net.cpp:406] fc6 <- pool5
I0502 13:10:34.986598 11636 net.cpp:380] fc6 -> fc6
I0502 13:10:35.355175 11636 net.cpp:122] Setting up fc6
I0502 13:10:35.355199 11636 net.cpp:129] Top shape: 128 4096 (524288)
I0502 13:10:35.355203 11636 net.cpp:137] Memory required for data: 1053865984
I0502 13:10:35.355213 11636 layer_factory.hpp:77] Creating layer relu6
I0502 13:10:35.355222 11636 net.cpp:84] Creating Layer relu6
I0502 13:10:35.355226 11636 net.cpp:406] relu6 <- fc6
I0502 13:10:35.355233 11636 net.cpp:367] relu6 -> fc6 (in-place)
I0502 13:10:35.383159 11636 net.cpp:122] Setting up relu6
I0502 13:10:35.383183 11636 net.cpp:129] Top shape: 128 4096 (524288)
I0502 13:10:35.383188 11636 net.cpp:137] Memory required for data: 1055963136
I0502 13:10:35.383194 11636 layer_factory.hpp:77] Creating layer drop6
I0502 13:10:35.383206 11636 net.cpp:84] Creating Layer drop6
I0502 13:10:35.383213 11636 net.cpp:406] drop6 <- fc6
I0502 13:10:35.383220 11636 net.cpp:367] drop6 -> fc6 (in-place)
I0502 13:10:35.383260 11636 net.cpp:122] Setting up drop6
I0502 13:10:35.383265 11636 net.cpp:129] Top shape: 128 4096 (524288)
I0502 13:10:35.383268 11636 net.cpp:137] Memory required for data: 1058060288
I0502 13:10:35.383271 11636 layer_factory.hpp:77] Creating layer fc7
I0502 13:10:35.383280 11636 net.cpp:84] Creating Layer fc7
I0502 13:10:35.383282 11636 net.cpp:406] fc7 <- fc6
I0502 13:10:35.383289 11636 net.cpp:380] fc7 -> fc7
I0502 13:10:35.550832 11636 net.cpp:122] Setting up fc7
I0502 13:10:35.550856 11636 net.cpp:129] Top shape: 128 4096 (524288)
I0502 13:10:35.550860 11636 net.cpp:137] Memory required for data: 1060157440
I0502 13:10:35.550870 11636 layer_factory.hpp:77] Creating layer relu7
I0502 13:10:35.550880 11636 net.cpp:84] Creating Layer relu7
I0502 13:10:35.550885 11636 net.cpp:406] relu7 <- fc7
I0502 13:10:35.550892 11636 net.cpp:367] relu7 -> fc7 (in-place)
I0502 13:10:35.551587 11636 net.cpp:122] Setting up relu7
I0502 13:10:35.551597 11636 net.cpp:129] Top shape: 128 4096 (524288)
I0502 13:10:35.551601 11636 net.cpp:137] Memory required for data: 1062254592
I0502 13:10:35.551605 11636 layer_factory.hpp:77] Creating layer drop7
I0502 13:10:35.551612 11636 net.cpp:84] Creating Layer drop7
I0502 13:10:35.551616 11636 net.cpp:406] drop7 <- fc7
I0502 13:10:35.551642 11636 net.cpp:367] drop7 -> fc7 (in-place)
I0502 13:10:35.551667 11636 net.cpp:122] Setting up drop7
I0502 13:10:35.551674 11636 net.cpp:129] Top shape: 128 4096 (524288)
I0502 13:10:35.551678 11636 net.cpp:137] Memory required for data: 1064351744
I0502 13:10:35.551682 11636 layer_factory.hpp:77] Creating layer fc8
I0502 13:10:35.551689 11636 net.cpp:84] Creating Layer fc8
I0502 13:10:35.551692 11636 net.cpp:406] fc8 <- fc7
I0502 13:10:35.551700 11636 net.cpp:380] fc8 -> fc8
I0502 13:10:35.559428 11636 net.cpp:122] Setting up fc8
I0502 13:10:35.559445 11636 net.cpp:129] Top shape: 128 196 (25088)
I0502 13:10:35.559449 11636 net.cpp:137] Memory required for data: 1064452096
I0502 13:10:35.559458 11636 layer_factory.hpp:77] Creating layer loss
I0502 13:10:35.559468 11636 net.cpp:84] Creating Layer loss
I0502 13:10:35.559473 11636 net.cpp:406] loss <- fc8
I0502 13:10:35.559478 11636 net.cpp:406] loss <- label
I0502 13:10:35.559485 11636 net.cpp:380] loss -> loss
I0502 13:10:35.559497 11636 layer_factory.hpp:77] Creating layer loss
…
I0502 13:10:35.560864 11636 solver.cpp:172] Creating test net (#0) specified by net file: train_val.prototxt
I0502 13:10:35.560894 11636 net.cpp:294] The NetState phase (1) differed from the phase (0) specified by a rule in layer train-data
I0502 13:10:35.561043 11636 net.cpp:51] Initializing net from parameters:
state {
phase: TEST
}
layer {
name: "val-data"
type: "Data"
top: "data"
top: "label"
include {
phase: TEST
}
transform_param {
crop_size: 227
mean_file: "/mnt/bigdisk/MANDIG2/digits/jobs/20200428-132136-11fe/mean.binaryproto"
}
data_param {
source: "/mnt/bigdisk/MANDIG2/digits/jobs/20200428-132136-11fe/val_db"
batch_size: 32
backend: LMDB
}
}
layer {
name: "conv1"
type: "Convolution"
bottom: "data"
top: "conv1"
param {
lr_mult: 1
decay_mult: 1
}
param {
lr_mult: 2
decay_mult: 0
}
convolution_param {
num_output: 96
kernel_size: 11
stride: 4
weight_filler {
type: "gaussian"
std: 0.01
}
bias_filler {
type: "constant"
value: 0
}
}
}
layer {
name: "relu1"
type: "ReLU"
bottom: "conv1"
top: "conv1"
}
layer {
name: "norm1"
type: "LRN"
bottom: "conv1"
top: "norm1"
lrn_param {
local_size: 5
alpha: 0.0001
beta: 0.75
}
}
layer {
name: "pool1"
type: "Pooling"
bottom: "norm1"
top: "pool1"
pooling_param {
pool: MAX
kernel_size: 3
stride: 2
}
}
layer {
name: "conv2"
type: "Convolution"
bottom: "pool1"
top: "conv2"
param {
lr_mult: 1
decay_mult: 1
}
param {
lr_mult: 2
decay_mult: 0
}
convolution_param {
num_output: 256
pad: 2
kernel_size: 5
group: 2
weight_filler {
type: "gaussian"
std: 0.01
}
bias_filler {
type: "constant"
value: 0.1
}
}
}
layer {
name: "relu2"
type: "ReLU"
bottom: "conv2"
top: "conv2"
}
layer {
name: "norm2"
type: "LRN"
bottom: "conv2"
top: "norm2"
lrn_param {
local_size: 5
alpha: 0.0001
beta: 0.75
}
}
layer {
name: "pool2"
type: "Pooling"
bottom: "norm2"
top: "pool2"
pooling_param {
pool: MAX
kernel_size: 3
stride: 2
}
}
layer {
name: "conv3"
type: "Convolution"
bottom: "pool2"
top: "conv3"
param {
lr_mult: 1
decay_mult: 1
}
param {
lr_mult: 2
decay_mult: 0
}
convolution_param {
num_output: 384
pad: 1
kernel_size: 3
weight_filler {
type: "gaussian"
std: 0.01
}
bias_filler {
type: "constant"
value: 0
}
}
}
layer {
name: "relu3"
type: "ReLU"
bottom: "conv3"
top: "conv3"
}
layer {
name: "conv4"
type: "Convolution"
bottom: "conv3"
top: "conv4"
param {
lr_mult: 1
decay_mult: 1
}
param {
lr_mult: 2
decay_mult: 0
}
convolution_param {
num_output: 384
pad: 1
kernel_size: 3
group: 2
weight_filler {
type: "gaussian"
std: 0.01
}
bias_filler {
type: "constant"
value: 0.1
}
}
}
layer {
name: "relu4"
type: "ReLU"
bottom: "conv4"
top: "conv4"
}
layer {
name: "conv5"
type: "Convolution"
bottom: "conv4"
top: "conv5"
param {
lr_mult: 1
decay_mult: 1
}
param {
lr_mult: 2
decay_mult: 0
}
convolution_param {
num_output: 256
pad: 1
kernel_size: 3
group: 2
weight_filler {
type: "gaussian"
std: 0.01
}
bias_filler {
type: "constant"
value: 0.1
}
}
}
layer {
name: "relu5"
type: "ReLU"
bottom: "conv5"
top: "conv5"
}
layer {
name: "pool5"
type: "Pooling"
bottom: "conv5"
top: "pool5"
pooling_param {
pool: MAX
kernel_size: 3
stride: 2
}
}
layer {
name: "fc6"
type: "InnerProduct"
bottom: "pool5"
top: "fc6"
param {
lr_mult: 1
decay_mult: 1
}
param {
lr_mult: 2
decay_mult: 0
}
inner_product_param {
num_output: 4096
weight_filler {
type: "gaussian"
std: 0.005
}
bias_filler {
type: "constant"
value: 0.1
}
}
}
layer {
name: "relu6"
type: "ReLU"
bottom: "fc6"
top: "fc6"
}
layer {
name: "drop6"
type: "Dropout"
bottom: "fc6"
top: "fc6"
dropout_param {
dropout_ratio: 0.5
}
}
layer {
name: "fc7"
type: "InnerProduct"
bottom: "fc6"
top: "fc7"
param {
lr_mult: 1
decay_mult: 1
}
param {
lr_mult: 2
decay_mult: 0
}
inner_product_param {
num_output: 4096
weight_filler {
type: "gaussian"
std: 0.005
}
bias_filler {
type: "constant"
value: 0.1
}
}
}
layer {
name: "relu7"
type: "ReLU"
bottom: "fc7"
top: "fc7"
}
layer {
name: "drop7"
type: "Dropout"
bottom: "fc7"
top: "fc7"
dropout_param {
dropout_ratio: 0.5
}
}
layer {
name: "fc8"
type: "InnerProduct"
bottom: "fc7"
top: "fc8"
param {
lr_mult: 1
decay_mult: 1
}
param {
lr_mult: 2
decay_mult: 0
}
inner_product_param {
num_output: 196
weight_filler {
type: "gaussian"
std: 0.01
}
bias_filler {
type: "constant"
value: 0
}
}
}
layer {
name: "accuracy"
type: "Accuracy"
bottom: "fc8"
bottom: "label"
top: "accuracy"
include {
phase: TEST
}
}
layer {
name: "loss"
type: "SoftmaxWithLoss"
bottom: "fc8"
bottom: "label"
top: "loss"
}
I0502 13:10:35.561148 11636 layer_factory.hpp:77] Creating layer val-data
I0502 13:10:35.562819 11636 db_lmdb.cpp:35] Opened lmdb /mnt/bigdisk/MANDIG2/digits/jobs/20200428-132136-11fe/val_db
I0502 13:10:35.563012 11636 net.cpp:84] Creating Layer val-data
I0502 13:10:35.563022 11636 net.cpp:380] val-data -> data
I0502 13:10:35.563031 11636 net.cpp:380] val-data -> label
I0502 13:10:35.563038 11636 data_transformer.cpp:25] Loading mean file from: /mnt/bigdisk/MANDIG2/digits/jobs/20200428-132136-11fe/mean.binaryproto
I0502 13:10:35.566825 11636 data_layer.cpp:45] output data size: 32,3,227,227
I0502 13:10:35.625764 11636 net.cpp:122] Setting up val-data
I0502 13:10:35.625792 11636 net.cpp:129] Top shape: 32 3 227 227 (4946784)
I0502 13:10:35.625798 11636 net.cpp:129] Top shape: 32 (32)
I0502 13:10:35.625803 11636 net.cpp:137] Memory required for data: 19787264
I0502 13:10:35.625811 11636 layer_factory.hpp:77] Creating layer label_val-data_1_split
I0502 13:10:35.625828 11636 net.cpp:84] Creating Layer label_val-data_1_split
I0502 13:10:35.625834 11636 net.cpp:406] label_val-data_1_split <- label
I0502 13:10:35.625844 11636 net.cpp:380] label_val-data_1_split -> label_val-data_1_split_0
I0502 13:10:35.625857 11636 net.cpp:380] label_val-data_1_split -> label_val-data_1_split_1
I0502 13:10:35.625941 11636 net.cpp:122] Setting up label_val-data_1_split
I0502 13:10:35.625947 11636 net.cpp:129] Top shape: 32 (32)
I0502 13:10:35.625953 11636 net.cpp:129] Top shape: 32 (32)
I0502 13:10:35.625958 11636 net.cpp:137] Memory required for data: 19787520
I0502 13:10:35.625963 11636 layer_factory.hpp:77] Creating layer conv1
I0502 13:10:35.625979 11636 net.cpp:84] Creating Layer conv1
I0502 13:10:35.625985 11636 net.cpp:406] conv1 <- data
I0502 13:10:35.625994 11636 net.cpp:380] conv1 -> conv1
I0502 13:10:35.628571 11636 net.cpp:122] Setting up conv1
I0502 13:10:35.628587 11636 net.cpp:129] Top shape: 32 96 55 55 (9292800)
I0502 13:10:35.628592 11636 net.cpp:137] Memory required for data: 56958720
I0502 13:10:35.628607 11636 layer_factory.hpp:77] Creating layer relu1
I0502 13:10:35.628615 11636 net.cpp:84] Creating Layer relu1
I0502 13:10:35.628620 11636 net.cpp:406] relu1 <- conv1
I0502 13:10:35.628628 11636 net.cpp:367] relu1 -> conv1 (in-place)
I0502 13:10:35.628978 11636 net.cpp:122] Setting up relu1
I0502 13:10:35.628988 11636 net.cpp:129] Top shape: 32 96 55 55 (9292800)
I0502 13:10:35.628994 11636 net.cpp:137] Memory required for data: 94129920
I0502 13:10:35.629000 11636 layer_factory.hpp:77] Creating layer norm1
I0502 13:10:35.629011 11636 net.cpp:84] Creating Layer norm1
I0502 13:10:35.629016 11636 net.cpp:406] norm1 <- conv1
I0502 13:10:35.629024 11636 net.cpp:380] norm1 -> norm1
I0502 13:10:35.631361 11636 net.cpp:122] Setting up norm1
I0502 13:10:35.631383 11636 net.cpp:129] Top shape: 32 96 55 55 (9292800)
I0502 13:10:35.631390 11636 net.cpp:137] Memory required for data: 131301120
I0502 13:10:35.631397 11636 layer_factory.hpp:77] Creating layer pool1
I0502 13:10:35.631412 11636 net.cpp:84] Creating Layer pool1
I0502 13:10:35.631418 11636 net.cpp:406] pool1 <- norm1
I0502 13:10:35.631429 11636 net.cpp:380] pool1 -> pool1
I0502 13:10:35.631480 11636 net.cpp:122] Setting up pool1
I0502 13:10:35.631491 11636 net.cpp:129] Top shape: 32 96 27 27 (2239488)
I0502 13:10:35.631498 11636 net.cpp:137] Memory required for data: 140259072
I0502 13:10:35.631505 11636 layer_factory.hpp:77] Creating layer conv2
I0502 13:10:35.631522 11636 net.cpp:84] Creating Layer conv2
I0502 13:10:35.631528 11636 net.cpp:406] conv2 <- pool1
I0502 13:10:35.631538 11636 net.cpp:380] conv2 -> conv2
I0502 13:10:35.644452 11636 net.cpp:122] Setting up conv2
I0502 13:10:35.644482 11636 net.cpp:129] Top shape: 32 256 27 27 (5971968)
I0502 13:10:35.644488 11636 net.cpp:137] Memory required for data: 164146944
I0502 13:10:35.644506 11636 layer_factory.hpp:77] Creating layer relu2
I0502 13:10:35.644522 11636 net.cpp:84] Creating Layer relu2
I0502 13:10:35.644531 11636 net.cpp:406] relu2 <- conv2
I0502 13:10:35.644544 11636 net.cpp:367] relu2 -> conv2 (in-place)
I0502 13:10:35.645241 11636 net.cpp:122] Setting up relu2
I0502 13:10:35.645258 11636 net.cpp:129] Top shape: 32 256 27 27 (5971968)
I0502 13:10:35.645265 11636 net.cpp:137] Memory required for data: 188034816
I0502 13:10:35.645273 11636 layer_factory.hpp:77] Creating layer norm2
I0502 13:10:35.645289 11636 net.cpp:84] Creating Layer norm2
I0502 13:10:35.645298 11636 net.cpp:406] norm2 <- conv2
I0502 13:10:35.645310 11636 net.cpp:380] norm2 -> norm2
I0502 13:10:35.646064 11636 net.cpp:122] Setting up norm2
I0502 13:10:35.646080 11636 net.cpp:129] Top shape: 32 256 27 27 (5971968)
I0502 13:10:35.646090 11636 net.cpp:137] Memory required for data: 211922688
I0502 13:10:35.646100 11636 layer_factory.hpp:77] Creating layer pool2
I0502 13:10:35.646114 11636 net.cpp:84] Creating Layer pool2
I0502 13:10:35.646128 11636 net.cpp:406] pool2 <- norm2
I0502 13:10:35.646142 11636 net.cpp:380] pool2 -> pool2
I0502 13:10:35.646191 11636 net.cpp:122] Setting up pool2
I0502 13:10:35.646203 11636 net.cpp:129] Top shape: 32 256 13 13 (1384448)
I0502 13:10:35.646211 11636 net.cpp:137] Memory required for data: 217460480
I0502 13:10:35.646219 11636 layer_factory.hpp:77] Creating layer conv3
I0502 13:10:35.646243 11636 net.cpp:84] Creating Layer conv3
I0502 13:10:35.646255 11636 net.cpp:406] conv3 <- pool2
I0502 13:10:35.646272 11636 net.cpp:380] conv3 -> conv3
I0502 13:10:35.668928 11636 net.cpp:122] Setting up conv3
I0502 13:10:35.668959 11636 net.cpp:129] Top shape: 32 384 13 13 (2076672)
I0502 13:10:35.668970 11636 net.cpp:137] Memory required for data: 225767168
I0502 13:10:35.668992 11636 layer_factory.hpp:77] Creating layer relu3
I0502 13:10:35.669005 11636 net.cpp:84] Creating Layer relu3
I0502 13:10:35.669016 11636 net.cpp:406] relu3 <- conv3
I0502 13:10:35.669032 11636 net.cpp:367] relu3 -> conv3 (in-place)
I0502 13:10:35.669850 11636 net.cpp:122] Setting up relu3
I0502 13:10:35.669867 11636 net.cpp:129] Top shape: 32 384 13 13 (2076672)
I0502 13:10:35.669876 11636 net.cpp:137] Memory required for data: 234073856
I0502 13:10:35.669889 11636 layer_factory.hpp:77] Creating layer conv4
I0502 13:10:35.669914 11636 net.cpp:84] Creating Layer conv4
I0502 13:10:35.669930 11636 net.cpp:406] conv4 <- conv3
I0502 13:10:35.669948 11636 net.cpp:380] conv4 -> conv4
I0502 13:10:35.690943 11636 net.cpp:122] Setting up conv4
I0502 13:10:35.690975 11636 net.cpp:129] Top shape: 32 384 13 13 (2076672)
I0502 13:10:35.690989 11636 net.cpp:137] Memory required for data: 242380544
I0502 13:10:35.691005 11636 layer_factory.hpp:77] Creating layer relu4
I0502 13:10:35.691022 11636 net.cpp:84] Creating Layer relu4
I0502 13:10:35.691032 11636 net.cpp:406] relu4 <- conv4
I0502 13:10:35.691043 11636 net.cpp:367] relu4 -> conv4 (in-place)
I0502 13:10:35.691502 11636 net.cpp:122] Setting up relu4
I0502 13:10:35.691514 11636 net.cpp:129] Top shape: 32 384 13 13 (2076672)
I0502 13:10:35.691521 11636 net.cpp:137] Memory required for data: 250687232
I0502 13:10:35.691527 11636 layer_factory.hpp:77] Creating layer conv5
I0502 13:10:35.691545 11636 net.cpp:84] Creating Layer conv5
I0502 13:10:35.691553 11636 net.cpp:406] conv5 <- conv4
I0502 13:10:35.691565 11636 net.cpp:380] conv5 -> conv5
I0502 13:10:35.725260 11636 net.cpp:122] Setting up conv5
I0502 13:10:35.725289 11636 net.cpp:129] Top shape: 32 256 13 13 (1384448)
I0502 13:10:35.725296 11636 net.cpp:137] Memory required for data: 256225024
I0502 13:10:35.725322 11636 layer_factory.hpp:77] Creating layer relu5
I0502 13:10:35.725338 11636 net.cpp:84] Creating Layer relu5
I0502 13:10:35.725353 11636 net.cpp:406] relu5 <- conv5
I0502 13:10:35.725397 11636 net.cpp:367] relu5 -> conv5 (in-place)
I0502 13:10:35.727535 11636 net.cpp:122] Setting up relu5
I0502 13:10:35.727552 11636 net.cpp:129] Top shape: 32 256 13 13 (1384448)
I0502 13:10:35.727566 11636 net.cpp:137] Memory required for data: 261762816
I0502 13:10:35.727573 11636 layer_factory.hpp:77] Creating layer pool5
I0502 13:10:35.727592 11636 net.cpp:84] Creating Layer pool5
I0502 13:10:35.727602 11636 net.cpp:406] pool5 <- conv5
I0502 13:10:35.727615 11636 net.cpp:380] pool5 -> pool5
I0502 13:10:35.727674 11636 net.cpp:122] Setting up pool5
I0502 13:10:35.727684 11636 net.cpp:129] Top shape: 32 256 6 6 (294912)
I0502 13:10:35.727690 11636 net.cpp:137] Memory required for data: 262942464
I0502 13:10:35.727696 11636 layer_factory.hpp:77] Creating layer fc6
I0502 13:10:35.727710 11636 net.cpp:84] Creating Layer fc6
I0502 13:10:35.727716 11636 net.cpp:406] fc6 <- pool5
I0502 13:10:35.727725 11636 net.cpp:380] fc6 -> fc6
I0502 13:10:36.186923 11636 net.cpp:122] Setting up fc6
I0502 13:10:36.186949 11636 net.cpp:129] Top shape: 32 4096 (131072)
I0502 13:10:36.186955 11636 net.cpp:137] Memory required for data: 263466752
I0502 13:10:36.186965 11636 layer_factory.hpp:77] Creating layer relu6
I0502 13:10:36.186978 11636 net.cpp:84] Creating Layer relu6
I0502 13:10:36.186986 11636 net.cpp:406] relu6 <- fc6
I0502 13:10:36.186996 11636 net.cpp:367] relu6 -> fc6 (in-place)
I0502 13:10:36.213111 11636 net.cpp:122] Setting up relu6
I0502 13:10:36.213140 11636 net.cpp:129] Top shape: 32 4096 (131072)
I0502 13:10:36.213145 11636 net.cpp:137] Memory required for data: 263991040
I0502 13:10:36.213152 11636 layer_factory.hpp:77] Creating layer drop6
I0502 13:10:36.213165 11636 net.cpp:84] Creating Layer drop6
I0502 13:10:36.213173 11636 net.cpp:406] drop6 <- fc6
I0502 13:10:36.213186 11636 net.cpp:367] drop6 -> fc6 (in-place)
I0502 13:10:36.213238 11636 net.cpp:122] Setting up drop6
I0502 13:10:36.213250 11636 net.cpp:129] Top shape: 32 4096 (131072)
I0502 13:10:36.213256 11636 net.cpp:137] Memory required for data: 264515328
I0502 13:10:36.213264 11636 layer_factory.hpp:77] Creating layer fc7
I0502 13:10:36.213276 11636 net.cpp:84] Creating Layer fc7
I0502 13:10:36.213282 11636 net.cpp:406] fc7 <- fc6
I0502 13:10:36.213294 11636 net.cpp:380] fc7 -> fc7
I0502 13:10:36.439656 11636 net.cpp:122] Setting up fc7
I0502 13:10:36.439688 11636 net.cpp:129] Top shape: 32 4096 (131072)
I0502 13:10:36.439697 11636 net.cpp:137] Memory required for data: 265039616
I0502 13:10:36.439713 11636 layer_factory.hpp:77] Creating layer relu7
I0502 13:10:36.439723 11636 net.cpp:84] Creating Layer relu7
I0502 13:10:36.439728 11636 net.cpp:406] relu7 <- fc7
I0502 13:10:36.439735 11636 net.cpp:367] relu7 -> fc7 (in-place)
I0502 13:10:36.440184 11636 net.cpp:122] Setting up relu7
I0502 13:10:36.440196 11636 net.cpp:129] Top shape: 32 4096 (131072)
I0502 13:10:36.440199 11636 net.cpp:137] Memory required for data: 265563904
I0502 13:10:36.440203 11636 layer_factory.hpp:77] Creating layer drop7
I0502 13:10:36.440212 11636 net.cpp:84] Creating Layer drop7
I0502 13:10:36.440217 11636 net.cpp:406] drop7 <- fc7
I0502 13:10:36.440223 11636 net.cpp:367] drop7 -> fc7 (in-place)
I0502 13:10:36.440249 11636 net.cpp:122] Setting up drop7
I0502 13:10:36.440255 11636 net.cpp:129] Top shape: 32 4096 (131072)
I0502 13:10:36.440258 11636 net.cpp:137] Memory required for data: 266088192
I0502 13:10:36.440263 11636 layer_factory.hpp:77] Creating layer fc8
I0502 13:10:36.440273 11636 net.cpp:84] Creating Layer fc8
I0502 13:10:36.440276 11636 net.cpp:406] fc8 <- fc7
I0502 13:10:36.440281 11636 net.cpp:380] fc8 -> fc8
I0502 13:10:36.452448 11636 net.cpp:122] Setting up fc8
I0502 13:10:36.452481 11636 net.cpp:129] Top shape: 32 196 (6272)
I0502 13:10:36.452486 11636 net.cpp:137] Memory required for data: 266113280
I0502 13:10:36.452500 11636 layer_factory.hpp:77] Creating layer fc8_fc8_0_split
I0502 13:10:36.452513 11636 net.cpp:84] Creating Layer fc8_fc8_0_split
I0502 13:10:36.452520 11636 net.cpp:406] fc8_fc8_0_split <- fc8
I0502 13:10:36.452533 11636 net.cpp:380] fc8_fc8_0_split -> fc8_fc8_0_split_0
I0502 13:10:36.452584 11636 net.cpp:380] fc8_fc8_0_split -> fc8_fc8_0_split_1
I0502 13:10:36.452667 11636 net.cpp:122] Setting up fc8_fc8_0_split
I0502 13:10:36.452677 11636 net.cpp:129] Top shape: 32 196 (6272)
I0502 13:10:36.452687 11636 net.cpp:129] Top shape: 32 196 (6272)
I0502 13:10:36.452690 11636 net.cpp:137] Memory required for data: 266163456
I0502 13:10:36.452697 11636 layer_factory.hpp:77] Creating layer accuracy
I0502 13:10:36.452710 11636 net.cpp:84] Creating Layer accuracy
I0502 13:10:36.452718 11636 net.cpp:406] accuracy <- fc8_fc8_0_split_0
I0502 13:10:36.452726 11636 net.cpp:406] accuracy <- label_val-data_1_split_0
I0502 13:10:36.452739 11636 net.cpp:380] accuracy -> accuracy
…
