…
I0509 02:32:03.454633 26910 net.cpp:294] The NetState phase (0) differed from the phase (1) specified by a rule in layer accuracy
I0509 02:32:03.454872 26910 net.cpp:51] Initializing net from parameters:
state {
phase: TRAIN
level: 0
stage: ""
}
layer {
name: "train-data"
type: "Data"
top: "data"
top: "label"
include {
phase: TRAIN
}
transform_param {
mirror: true
crop_size: 227
mean_file: "/mnt/bigdisk/AMBDIG8/digits/jobs/20200508-231203-8394/mean.binaryproto"
}
data_param {
source: "/mnt/bigdisk/AMBDIG8/digits/jobs/20200508-231203-8394/train_db"
batch_size: 50
backend: LMDB
}
}
layer {
name: "conv1"
type: "Convolution"
bottom: "data"
top: "conv1"
param {
lr_mult: 1
decay_mult: 1
}
param {
lr_mult: 2
decay_mult: 0
}
convolution_param {
num_output: 96
kernel_size: 11
stride: 4
weight_filler {
type: "gaussian"
std: 0.01
}
bias_filler {
type: "constant"
value: 0
}
}
}
layer {
name: "relu1"
type: "ReLU"
bottom: "conv1"
top: "conv1"
}
layer {
name: "norm1"
type: "LRN"
bottom: "conv1"
top: "norm1"
lrn_param {
local_size: 5
alpha: 0.0001
beta: 0.75
}
}
layer {
name: "pool1"
type: "Pooling"
bottom: "norm1"
top: "pool1"
pooling_param {
pool: MAX
kernel_size: 3
stride: 2
}
}
layer {
name: "conv2"
type: "Convolution"
bottom: "pool1"
top: "conv2"
param {
lr_mult: 1
decay_mult: 1
}
param {
lr_mult: 2
decay_mult: 0
}
convolution_param {
num_output: 256
pad: 2
kernel_size: 5
group: 2
weight_filler {
type: "gaussian"
std: 0.01
}
bias_filler {
type: "constant"
value: 0.1
}
}
}
layer {
name: "relu2"
type: "ReLU"
bottom: "conv2"
top: "conv2"
}
layer {
name: "norm2"
type: "LRN"
bottom: "conv2"
top: "norm2"
lrn_param {
local_size: 5
alpha: 0.0001
beta: 0.75
}
}
layer {
name: "pool2"
type: "Pooling"
bottom: "norm2"
top: "pool2"
pooling_param {
pool: MAX
kernel_size: 3
stride: 2
}
}
layer {
name: "conv3"
type: "Convolution"
bottom: "pool2"
top: "conv3"
param {
lr_mult: 1
decay_mult: 1
}
param {
lr_mult: 2
decay_mult: 0
}
convolution_param {
num_output: 384
pad: 1
kernel_size: 3
weight_filler {
type: "gaussian"
std: 0.01
}
bias_filler {
type: "constant"
value: 0
}
}
}
layer {
name: "relu3"
type: "ReLU"
bottom: "conv3"
top: "conv3"
}
layer {
name: "conv4"
type: "Convolution"
bottom: "conv3"
top: "conv4"
param {
lr_mult: 1
decay_mult: 1
}
param {
lr_mult: 2
decay_mult: 0
}
convolution_param {
num_output: 384
pad: 1
kernel_size: 3
group: 2
weight_filler {
type: "gaussian"
std: 0.01
}
bias_filler {
type: "constant"
value: 0.1
}
}
}
layer {
name: "relu4"
type: "ReLU"
bottom: "conv4"
top: "conv4"
}
layer {
name: "conv5"
type: "Convolution"
bottom: "conv4"
top: "conv5"
param {
lr_mult: 1
decay_mult: 1
}
param {
lr_mult: 2
decay_mult: 0
}
convolution_param {
num_output: 256
pad: 1
kernel_size: 3
group: 2
weight_filler {
type: "gaussian"
std: 0.01
}
bias_filler {
type: "constant"
value: 0.1
}
}
}
layer {
name: "relu5"
type: "ReLU"
bottom: "conv5"
top: "conv5"
}
layer {
name: "pool5"
type: "Pooling"
bottom: "conv5"
top: "pool5"
pooling_param {
pool: MAX
kernel_size: 3
stride: 2
}
}
layer {
name: "fc6"
type: "InnerProduct"
bottom: "pool5"
top: "fc6"
param {
lr_mult: 1
decay_mult: 1
}
param {
lr_mult: 2
decay_mult: 0
}
inner_product_param {
num_output: 4096
weight_filler {
type: "gaussian"
std: 0.005
}
bias_filler {
type: "constant"
value: 0.1
}
}
}
layer {
name: "relu6"
type: "ReLU"
bottom: "fc6"
top: "fc6"
}
layer {
name: "drop6"
type: "Dropout"
bottom: "fc6"
top: "fc6"
dropout_param {
dropout_ratio: 0.5
}
}
layer {
name: "fc7"
type: "InnerProduct"
bottom: "fc6"
top: "fc7"
param {
lr_mult: 1
decay_mult: 1
}
param {
lr_mult: 2
decay_mult: 0
}
inner_product_param {
num_output: 4096
weight_filler {
type: "gaussian"
std: 0.005
}
bias_filler {
type: "constant"
value: 0.1
}
}
}
layer {
name: "relu7"
type: "ReLU"
bottom: "fc7"
top: "fc7"
}
layer {
name: "drop7"
type: "Dropout"
bottom: "fc7"
top: "fc7"
dropout_param {
dropout_ratio: 0.5
}
}
layer {
name: "fc8"
type: "InnerProduct"
bottom: "fc7"
top: "fc8"
param {
lr_mult: 1
decay_mult: 1
}
param {
lr_mult: 2
decay_mult: 0
}
inner_product_param {
num_output: 196
weight_filler {
type: "gaussian"
std: 0.01
}
bias_filler {
type: "constant"
value: 0
}
}
}
layer {
name: "loss"
type: "SoftmaxWithLoss"
bottom: "fc8"
bottom: "label"
top: "loss"
}
I0509 02:32:03.454999 26910 layer_factory.hpp:77] Creating layer train-data
I0509 02:32:03.458575 26910 db_lmdb.cpp:35] Opened lmdb /mnt/bigdisk/AMBDIG8/digits/jobs/20200508-231203-8394/train_db
I0509 02:32:03.459939 26910 net.cpp:84] Creating Layer train-data
I0509 02:32:03.459959 26910 net.cpp:380] train-data -> data
I0509 02:32:03.459990 26910 net.cpp:380] train-data -> label
I0509 02:32:03.460009 26910 data_transformer.cpp:25] Loading mean file from: /mnt/bigdisk/AMBDIG8/digits/jobs/20200508-231203-8394/mean.binaryproto
I0509 02:32:03.466061 26910 data_layer.cpp:45] output data size: 50,3,227,227
I0509 02:32:03.601261 26910 net.cpp:122] Setting up train-data
I0509 02:32:03.601296 26910 net.cpp:129] Top shape: 50 3 227 227 (7729350)
I0509 02:32:03.601303 26910 net.cpp:129] Top shape: 50 (50)
I0509 02:32:03.601307 26910 net.cpp:137] Memory required for data: 30917600
I0509 02:32:03.601320 26910 layer_factory.hpp:77] Creating layer conv1
I0509 02:32:03.601347 26910 net.cpp:84] Creating Layer conv1
I0509 02:32:03.601356 26910 net.cpp:406] conv1 <- data
I0509 02:32:03.601372 26910 net.cpp:380] conv1 -> conv1
I0509 02:32:09.147416 26910 net.cpp:122] Setting up conv1
I0509 02:32:09.147449 26910 net.cpp:129] Top shape: 50 96 55 55 (14520000)
I0509 02:32:09.147456 26910 net.cpp:137] Memory required for data: 88997600
I0509 02:32:09.147488 26910 layer_factory.hpp:77] Creating layer relu1
I0509 02:32:09.147505 26910 net.cpp:84] Creating Layer relu1
I0509 02:32:09.147511 26910 net.cpp:406] relu1 <- conv1
I0509 02:32:09.147521 26910 net.cpp:367] relu1 -> conv1 (in-place)
I0509 02:32:09.148108 26910 net.cpp:122] Setting up relu1
I0509 02:32:09.148123 26910 net.cpp:129] Top shape: 50 96 55 55 (14520000)
I0509 02:32:09.148128 26910 net.cpp:137] Memory required for data: 147077600
I0509 02:32:09.148134 26910 layer_factory.hpp:77] Creating layer norm1
I0509 02:32:09.148150 26910 net.cpp:84] Creating Layer norm1
I0509 02:32:09.148156 26910 net.cpp:406] norm1 <- conv1
I0509 02:32:09.148202 26910 net.cpp:380] norm1 -> norm1
I0509 02:32:09.150341 26910 net.cpp:122] Setting up norm1
I0509 02:32:09.150357 26910 net.cpp:129] Top shape: 50 96 55 55 (14520000)
I0509 02:32:09.150363 26910 net.cpp:137] Memory required for data: 205157600
I0509 02:32:09.150369 26910 layer_factory.hpp:77] Creating layer pool1
I0509 02:32:09.150382 26910 net.cpp:84] Creating Layer pool1
I0509 02:32:09.150388 26910 net.cpp:406] pool1 <- norm1
I0509 02:32:09.150396 26910 net.cpp:380] pool1 -> pool1
I0509 02:32:09.150463 26910 net.cpp:122] Setting up pool1
I0509 02:32:09.150473 26910 net.cpp:129] Top shape: 50 96 27 27 (3499200)
I0509 02:32:09.150478 26910 net.cpp:137] Memory required for data: 219154400
I0509 02:32:09.150485 26910 layer_factory.hpp:77] Creating layer conv2
I0509 02:32:09.150501 26910 net.cpp:84] Creating Layer conv2
I0509 02:32:09.150506 26910 net.cpp:406] conv2 <- pool1
I0509 02:32:09.150516 26910 net.cpp:380] conv2 -> conv2
I0509 02:32:09.164522 26910 net.cpp:122] Setting up conv2
I0509 02:32:09.164551 26910 net.cpp:129] Top shape: 50 256 27 27 (9331200)
I0509 02:32:09.164557 26910 net.cpp:137] Memory required for data: 256479200
I0509 02:32:09.164573 26910 layer_factory.hpp:77] Creating layer relu2
I0509 02:32:09.164587 26910 net.cpp:84] Creating Layer relu2
I0509 02:32:09.164593 26910 net.cpp:406] relu2 <- conv2
I0509 02:32:09.164602 26910 net.cpp:367] relu2 -> conv2 (in-place)
I0509 02:32:09.165385 26910 net.cpp:122] Setting up relu2
I0509 02:32:09.165400 26910 net.cpp:129] Top shape: 50 256 27 27 (9331200)
I0509 02:32:09.165405 26910 net.cpp:137] Memory required for data: 293804000
I0509 02:32:09.165410 26910 layer_factory.hpp:77] Creating layer norm2
I0509 02:32:09.165421 26910 net.cpp:84] Creating Layer norm2
I0509 02:32:09.165427 26910 net.cpp:406] norm2 <- conv2
I0509 02:32:09.165434 26910 net.cpp:380] norm2 -> norm2
I0509 02:32:09.166095 26910 net.cpp:122] Setting up norm2
I0509 02:32:09.166110 26910 net.cpp:129] Top shape: 50 256 27 27 (9331200)
I0509 02:32:09.166115 26910 net.cpp:137] Memory required for data: 331128800
I0509 02:32:09.166119 26910 layer_factory.hpp:77] Creating layer pool2
I0509 02:32:09.166132 26910 net.cpp:84] Creating Layer pool2
I0509 02:32:09.166138 26910 net.cpp:406] pool2 <- norm2
I0509 02:32:09.166146 26910 net.cpp:380] pool2 -> pool2
I0509 02:32:09.166193 26910 net.cpp:122] Setting up pool2
I0509 02:32:09.166201 26910 net.cpp:129] Top shape: 50 256 13 13 (2163200)
I0509 02:32:09.166205 26910 net.cpp:137] Memory required for data: 339781600
I0509 02:32:09.166210 26910 layer_factory.hpp:77] Creating layer conv3
I0509 02:32:09.166225 26910 net.cpp:84] Creating Layer conv3
I0509 02:32:09.166230 26910 net.cpp:406] conv3 <- pool2
I0509 02:32:09.166237 26910 net.cpp:380] conv3 -> conv3
I0509 02:32:09.186919 26910 net.cpp:122] Setting up conv3
I0509 02:32:09.186949 26910 net.cpp:129] Top shape: 50 384 13 13 (3244800)
I0509 02:32:09.186955 26910 net.cpp:137] Memory required for data: 352760800
I0509 02:32:09.186975 26910 layer_factory.hpp:77] Creating layer relu3
I0509 02:32:09.186990 26910 net.cpp:84] Creating Layer relu3
I0509 02:32:09.186997 26910 net.cpp:406] relu3 <- conv3
I0509 02:32:09.187006 26910 net.cpp:367] relu3 -> conv3 (in-place)
I0509 02:32:09.187837 26910 net.cpp:122] Setting up relu3
I0509 02:32:09.187850 26910 net.cpp:129] Top shape: 50 384 13 13 (3244800)
I0509 02:32:09.187856 26910 net.cpp:137] Memory required for data: 365740000
I0509 02:32:09.187860 26910 layer_factory.hpp:77] Creating layer conv4
I0509 02:32:09.187877 26910 net.cpp:84] Creating Layer conv4
I0509 02:32:09.187883 26910 net.cpp:406] conv4 <- conv3
I0509 02:32:09.187894 26910 net.cpp:380] conv4 -> conv4
I0509 02:32:09.206495 26910 net.cpp:122] Setting up conv4
I0509 02:32:09.206518 26910 net.cpp:129] Top shape: 50 384 13 13 (3244800)
I0509 02:32:09.206523 26910 net.cpp:137] Memory required for data: 378719200
I0509 02:32:09.206534 26910 layer_factory.hpp:77] Creating layer relu4
I0509 02:32:09.206548 26910 net.cpp:84] Creating Layer relu4
I0509 02:32:09.206579 26910 net.cpp:406] relu4 <- conv4
I0509 02:32:09.206588 26910 net.cpp:367] relu4 -> conv4 (in-place)
I0509 02:32:09.207335 26910 net.cpp:122] Setting up relu4
I0509 02:32:09.207350 26910 net.cpp:129] Top shape: 50 384 13 13 (3244800)
I0509 02:32:09.207355 26910 net.cpp:137] Memory required for data: 391698400
I0509 02:32:09.207360 26910 layer_factory.hpp:77] Creating layer conv5
I0509 02:32:09.207374 26910 net.cpp:84] Creating Layer conv5
I0509 02:32:09.207379 26910 net.cpp:406] conv5 <- conv4
I0509 02:32:09.207387 26910 net.cpp:380] conv5 -> conv5
I0509 02:32:09.222254 26910 net.cpp:122] Setting up conv5
I0509 02:32:09.222282 26910 net.cpp:129] Top shape: 50 256 13 13 (2163200)
I0509 02:32:09.222288 26910 net.cpp:137] Memory required for data: 400351200
I0509 02:32:09.222311 26910 layer_factory.hpp:77] Creating layer relu5
I0509 02:32:09.222324 26910 net.cpp:84] Creating Layer relu5
I0509 02:32:09.222332 26910 net.cpp:406] relu5 <- conv5
I0509 02:32:09.222342 26910 net.cpp:367] relu5 -> conv5 (in-place)
I0509 02:32:09.223189 26910 net.cpp:122] Setting up relu5
I0509 02:32:09.223202 26910 net.cpp:129] Top shape: 50 256 13 13 (2163200)
I0509 02:32:09.223207 26910 net.cpp:137] Memory required for data: 409004000
I0509 02:32:09.223212 26910 layer_factory.hpp:77] Creating layer pool5
I0509 02:32:09.223227 26910 net.cpp:84] Creating Layer pool5
I0509 02:32:09.223233 26910 net.cpp:406] pool5 <- conv5
I0509 02:32:09.223242 26910 net.cpp:380] pool5 -> pool5
I0509 02:32:09.223309 26910 net.cpp:122] Setting up pool5
I0509 02:32:09.223320 26910 net.cpp:129] Top shape: 50 256 6 6 (460800)
I0509 02:32:09.223325 26910 net.cpp:137] Memory required for data: 410847200
I0509 02:32:09.223330 26910 layer_factory.hpp:77] Creating layer fc6
I0509 02:32:09.223345 26910 net.cpp:84] Creating Layer fc6
I0509 02:32:09.223351 26910 net.cpp:406] fc6 <- pool5
I0509 02:32:09.223359 26910 net.cpp:380] fc6 -> fc6
I0509 02:32:09.774996 26910 net.cpp:122] Setting up fc6
I0509 02:32:09.775018 26910 net.cpp:129] Top shape: 50 4096 (204800)
I0509 02:32:09.775022 26910 net.cpp:137] Memory required for data: 411666400
I0509 02:32:09.775032 26910 layer_factory.hpp:77] Creating layer relu6
I0509 02:32:09.775040 26910 net.cpp:84] Creating Layer relu6
I0509 02:32:09.775044 26910 net.cpp:406] relu6 <- fc6
I0509 02:32:09.775053 26910 net.cpp:367] relu6 -> fc6 (in-place)
I0509 02:32:09.775795 26910 net.cpp:122] Setting up relu6
I0509 02:32:09.775805 26910 net.cpp:129] Top shape: 50 4096 (204800)
I0509 02:32:09.775808 26910 net.cpp:137] Memory required for data: 412485600
I0509 02:32:09.775811 26910 layer_factory.hpp:77] Creating layer drop6
I0509 02:32:09.775822 26910 net.cpp:84] Creating Layer drop6
I0509 02:32:09.775825 26910 net.cpp:406] drop6 <- fc6
I0509 02:32:09.775830 26910 net.cpp:367] drop6 -> fc6 (in-place)
I0509 02:32:09.775861 26910 net.cpp:122] Setting up drop6
I0509 02:32:09.775866 26910 net.cpp:129] Top shape: 50 4096 (204800)
I0509 02:32:09.775868 26910 net.cpp:137] Memory required for data: 413304800
I0509 02:32:09.775871 26910 layer_factory.hpp:77] Creating layer fc7
I0509 02:32:09.775877 26910 net.cpp:84] Creating Layer fc7
I0509 02:32:09.775880 26910 net.cpp:406] fc7 <- fc6
I0509 02:32:09.775887 26910 net.cpp:380] fc7 -> fc7
I0509 02:32:09.936079 26910 net.cpp:122] Setting up fc7
I0509 02:32:09.936100 26910 net.cpp:129] Top shape: 50 4096 (204800)
I0509 02:32:09.936103 26910 net.cpp:137] Memory required for data: 414124000
I0509 02:32:09.936111 26910 layer_factory.hpp:77] Creating layer relu7
I0509 02:32:09.936120 26910 net.cpp:84] Creating Layer relu7
I0509 02:32:09.936125 26910 net.cpp:406] relu7 <- fc7
I0509 02:32:09.936132 26910 net.cpp:367] relu7 -> fc7 (in-place)
I0509 02:32:09.936648 26910 net.cpp:122] Setting up relu7
I0509 02:32:09.936657 26910 net.cpp:129] Top shape: 50 4096 (204800)
I0509 02:32:09.936661 26910 net.cpp:137] Memory required for data: 414943200
I0509 02:32:09.936663 26910 layer_factory.hpp:77] Creating layer drop7
I0509 02:32:09.936669 26910 net.cpp:84] Creating Layer drop7
I0509 02:32:09.936672 26910 net.cpp:406] drop7 <- fc7
I0509 02:32:09.936702 26910 net.cpp:367] drop7 -> fc7 (in-place)
I0509 02:32:09.936728 26910 net.cpp:122] Setting up drop7
I0509 02:32:09.936733 26910 net.cpp:129] Top shape: 50 4096 (204800)
I0509 02:32:09.936736 26910 net.cpp:137] Memory required for data: 415762400
I0509 02:32:09.936739 26910 layer_factory.hpp:77] Creating layer fc8
I0509 02:32:09.936748 26910 net.cpp:84] Creating Layer fc8
I0509 02:32:09.936750 26910 net.cpp:406] fc8 <- fc7
I0509 02:32:09.936756 26910 net.cpp:380] fc8 -> fc8
I0509 02:32:09.944622 26910 net.cpp:122] Setting up fc8
I0509 02:32:09.944636 26910 net.cpp:129] Top shape: 50 196 (9800)
I0509 02:32:09.944639 26910 net.cpp:137] Memory required for data: 415801600
I0509 02:32:09.944645 26910 layer_factory.hpp:77] Creating layer loss
I0509 02:32:09.944651 26910 net.cpp:84] Creating Layer loss
I0509 02:32:09.944654 26910 net.cpp:406] loss <- fc8
I0509 02:32:09.944658 26910 net.cpp:406] loss <- label
I0509 02:32:09.944667 26910 net.cpp:380] loss -> loss
I0509 02:32:09.944675 26910 layer_factory.hpp:77] Creating layer loss
…
I0509 02:32:09.946032 26910 solver.cpp:172] Creating test net (#0) specified by net file: train_val.prototxt
I0509 02:32:09.946060 26910 net.cpp:294] The NetState phase (1) differed from the phase (0) specified by a rule in layer train-data
I0509 02:32:09.946195 26910 net.cpp:51] Initializing net from parameters:
state {
phase: TEST
}
layer {
name: "val-data"
type: "Data"
top: "data"
top: "label"
include {
phase: TEST
}
transform_param {
crop_size: 227
mean_file: "/mnt/bigdisk/AMBDIG8/digits/jobs/20200508-231203-8394/mean.binaryproto"
}
data_param {
source: "/mnt/bigdisk/AMBDIG8/digits/jobs/20200508-231203-8394/val_db"
batch_size: 50
backend: LMDB
}
}
layer {
name: "conv1"
type: "Convolution"
bottom: "data"
top: "conv1"
param {
lr_mult: 1
decay_mult: 1
}
param {
lr_mult: 2
decay_mult: 0
}
convolution_param {
num_output: 96
kernel_size: 11
stride: 4
weight_filler {
type: "gaussian"
std: 0.01
}
bias_filler {
type: "constant"
value: 0
}
}
}
layer {
name: "relu1"
type: "ReLU"
bottom: "conv1"
top: "conv1"
}
layer {
name: "norm1"
type: "LRN"
bottom: "conv1"
top: "norm1"
lrn_param {
local_size: 5
alpha: 0.0001
beta: 0.75
}
}
layer {
name: "pool1"
type: "Pooling"
bottom: "norm1"
top: "pool1"
pooling_param {
pool: MAX
kernel_size: 3
stride: 2
}
}
layer {
name: "conv2"
type: "Convolution"
bottom: "pool1"
top: "conv2"
param {
lr_mult: 1
decay_mult: 1
}
param {
lr_mult: 2
decay_mult: 0
}
convolution_param {
num_output: 256
pad: 2
kernel_size: 5
group: 2
weight_filler {
type: "gaussian"
std: 0.01
}
bias_filler {
type: "constant"
value: 0.1
}
}
}
layer {
name: "relu2"
type: "ReLU"
bottom: "conv2"
top: "conv2"
}
layer {
name: "norm2"
type: "LRN"
bottom: "conv2"
top: "norm2"
lrn_param {
local_size: 5
alpha: 0.0001
beta: 0.75
}
}
layer {
name: "pool2"
type: "Pooling"
bottom: "norm2"
top: "pool2"
pooling_param {
pool: MAX
kernel_size: 3
stride: 2
}
}
layer {
name: "conv3"
type: "Convolution"
bottom: "pool2"
top: "conv3"
param {
lr_mult: 1
decay_mult: 1
}
param {
lr_mult: 2
decay_mult: 0
}
convolution_param {
num_output: 384
pad: 1
kernel_size: 3
weight_filler {
type: "gaussian"
std: 0.01
}
bias_filler {
type: "constant"
value: 0
}
}
}
layer {
name: "relu3"
type: "ReLU"
bottom: "conv3"
top: "conv3"
}
layer {
name: "conv4"
type: "Convolution"
bottom: "conv3"
top: "conv4"
param {
lr_mult: 1
decay_mult: 1
}
param {
lr_mult: 2
decay_mult: 0
}
convolution_param {
num_output: 384
pad: 1
kernel_size: 3
group: 2
weight_filler {
type: "gaussian"
std: 0.01
}
bias_filler {
type: "constant"
value: 0.1
}
}
}
layer {
name: "relu4"
type: "ReLU"
bottom: "conv4"
top: "conv4"
}
layer {
name: "conv5"
type: "Convolution"
bottom: "conv4"
top: "conv5"
param {
lr_mult: 1
decay_mult: 1
}
param {
lr_mult: 2
decay_mult: 0
}
convolution_param {
num_output: 256
pad: 1
kernel_size: 3
group: 2
weight_filler {
type: "gaussian"
std: 0.01
}
bias_filler {
type: "constant"
value: 0.1
}
}
}
layer {
name: "relu5"
type: "ReLU"
bottom: "conv5"
top: "conv5"
}
layer {
name: "pool5"
type: "Pooling"
bottom: "conv5"
top: "pool5"
pooling_param {
pool: MAX
kernel_size: 3
stride: 2
}
}
layer {
name: "fc6"
type: "InnerProduct"
bottom: "pool5"
top: "fc6"
param {
lr_mult: 1
decay_mult: 1
}
param {
lr_mult: 2
decay_mult: 0
}
inner_product_param {
num_output: 4096
weight_filler {
type: "gaussian"
std: 0.005
}
bias_filler {
type: "constant"
value: 0.1
}
}
}
layer {
name: "relu6"
type: "ReLU"
bottom: "fc6"
top: "fc6"
}
layer {
name: "drop6"
type: "Dropout"
bottom: "fc6"
top: "fc6"
dropout_param {
dropout_ratio: 0.5
}
}
layer {
name: "fc7"
type: "InnerProduct"
bottom: "fc6"
top: "fc7"
param {
lr_mult: 1
decay_mult: 1
}
param {
lr_mult: 2
decay_mult: 0
}
inner_product_param {
num_output: 4096
weight_filler {
type: "gaussian"
std: 0.005
}
bias_filler {
type: "constant"
value: 0.1
}
}
}
layer {
name: "relu7"
type: "ReLU"
bottom: "fc7"
top: "fc7"
}
layer {
name: "drop7"
type: "Dropout"
bottom: "fc7"
top: "fc7"
dropout_param {
dropout_ratio: 0.5
}
}
layer {
name: "fc8"
type: "InnerProduct"
bottom: "fc7"
top: "fc8"
param {
lr_mult: 1
decay_mult: 1
}
param {
lr_mult: 2
decay_mult: 0
}
inner_product_param {
num_output: 196
weight_filler {
type: "gaussian"
std: 0.01
}
bias_filler {
type: "constant"
value: 0
}
}
}
layer {
name: "accuracy"
type: "Accuracy"
bottom: "fc8"
bottom: "label"
top: "accuracy"
include {
phase: TEST
}
}
layer {
name: "loss"
type: "SoftmaxWithLoss"
bottom: "fc8"
bottom: "label"
top: "loss"
}
I0509 02:32:09.946293 26910 layer_factory.hpp:77] Creating layer val-data
I0509 02:32:09.948396 26910 db_lmdb.cpp:35] Opened lmdb /mnt/bigdisk/AMBDIG8/digits/jobs/20200508-231203-8394/val_db
I0509 02:32:09.949018 26910 net.cpp:84] Creating Layer val-data
I0509 02:32:09.949028 26910 net.cpp:380] val-data -> data
I0509 02:32:09.949036 26910 net.cpp:380] val-data -> label
I0509 02:32:09.949043 26910 data_transformer.cpp:25] Loading mean file from: /mnt/bigdisk/AMBDIG8/digits/jobs/20200508-231203-8394/mean.binaryproto
I0509 02:32:09.953060 26910 data_layer.cpp:45] output data size: 50,3,227,227
I0509 02:32:10.006367 26910 net.cpp:122] Setting up val-data
I0509 02:32:10.006389 26910 net.cpp:129] Top shape: 50 3 227 227 (7729350)
I0509 02:32:10.006393 26910 net.cpp:129] Top shape: 50 (50)
I0509 02:32:10.006397 26910 net.cpp:137] Memory required for data: 30917600
I0509 02:32:10.006402 26910 layer_factory.hpp:77] Creating layer label_val-data_1_split
I0509 02:32:10.006412 26910 net.cpp:84] Creating Layer label_val-data_1_split
I0509 02:32:10.006417 26910 net.cpp:406] label_val-data_1_split <- label
I0509 02:32:10.006423 26910 net.cpp:380] label_val-data_1_split -> label_val-data_1_split_0
I0509 02:32:10.006431 26910 net.cpp:380] label_val-data_1_split -> label_val-data_1_split_1
I0509 02:32:10.006484 26910 net.cpp:122] Setting up label_val-data_1_split
I0509 02:32:10.006489 26910 net.cpp:129] Top shape: 50 (50)
I0509 02:32:10.006492 26910 net.cpp:129] Top shape: 50 (50)
I0509 02:32:10.006494 26910 net.cpp:137] Memory required for data: 30918000
I0509 02:32:10.006497 26910 layer_factory.hpp:77] Creating layer conv1
I0509 02:32:10.006508 26910 net.cpp:84] Creating Layer conv1
I0509 02:32:10.006511 26910 net.cpp:406] conv1 <- data
I0509 02:32:10.006517 26910 net.cpp:380] conv1 -> conv1
I0509 02:32:10.009218 26910 net.cpp:122] Setting up conv1
I0509 02:32:10.009229 26910 net.cpp:129] Top shape: 50 96 55 55 (14520000)
I0509 02:32:10.009232 26910 net.cpp:137] Memory required for data: 88998000
I0509 02:32:10.009241 26910 layer_factory.hpp:77] Creating layer relu1
I0509 02:32:10.009248 26910 net.cpp:84] Creating Layer relu1
I0509 02:32:10.009250 26910 net.cpp:406] relu1 <- conv1
I0509 02:32:10.009255 26910 net.cpp:367] relu1 -> conv1 (in-place)
I0509 02:32:10.009579 26910 net.cpp:122] Setting up relu1
I0509 02:32:10.009588 26910 net.cpp:129] Top shape: 50 96 55 55 (14520000)
I0509 02:32:10.009591 26910 net.cpp:137] Memory required for data: 147078000
I0509 02:32:10.009594 26910 layer_factory.hpp:77] Creating layer norm1
I0509 02:32:10.009603 26910 net.cpp:84] Creating Layer norm1
I0509 02:32:10.009606 26910 net.cpp:406] norm1 <- conv1
I0509 02:32:10.009611 26910 net.cpp:380] norm1 -> norm1
I0509 02:32:10.010126 26910 net.cpp:122] Setting up norm1
I0509 02:32:10.010135 26910 net.cpp:129] Top shape: 50 96 55 55 (14520000)
I0509 02:32:10.010138 26910 net.cpp:137] Memory required for data: 205158000
I0509 02:32:10.010141 26910 layer_factory.hpp:77] Creating layer pool1
I0509 02:32:10.010149 26910 net.cpp:84] Creating Layer pool1
I0509 02:32:10.010152 26910 net.cpp:406] pool1 <- norm1
I0509 02:32:10.010156 26910 net.cpp:380] pool1 -> pool1
I0509 02:32:10.010186 26910 net.cpp:122] Setting up pool1
I0509 02:32:10.010191 26910 net.cpp:129] Top shape: 50 96 27 27 (3499200)
I0509 02:32:10.010195 26910 net.cpp:137] Memory required for data: 219154800
I0509 02:32:10.010196 26910 layer_factory.hpp:77] Creating layer conv2
I0509 02:32:10.010205 26910 net.cpp:84] Creating Layer conv2
I0509 02:32:10.010207 26910 net.cpp:406] conv2 <- pool1
I0509 02:32:10.010212 26910 net.cpp:380] conv2 -> conv2
I0509 02:32:10.018174 26910 net.cpp:122] Setting up conv2
I0509 02:32:10.018193 26910 net.cpp:129] Top shape: 50 256 27 27 (9331200)
I0509 02:32:10.018195 26910 net.cpp:137] Memory required for data: 256479600
I0509 02:32:10.018205 26910 layer_factory.hpp:77] Creating layer relu2
I0509 02:32:10.018214 26910 net.cpp:84] Creating Layer relu2
I0509 02:32:10.018218 26910 net.cpp:406] relu2 <- conv2
I0509 02:32:10.018224 26910 net.cpp:367] relu2 -> conv2 (in-place)
I0509 02:32:10.018774 26910 net.cpp:122] Setting up relu2
I0509 02:32:10.018784 26910 net.cpp:129] Top shape: 50 256 27 27 (9331200)
I0509 02:32:10.018786 26910 net.cpp:137] Memory required for data: 293804400
I0509 02:32:10.018790 26910 layer_factory.hpp:77] Creating layer norm2
I0509 02:32:10.018800 26910 net.cpp:84] Creating Layer norm2
I0509 02:32:10.018803 26910 net.cpp:406] norm2 <- conv2
I0509 02:32:10.018810 26910 net.cpp:380] norm2 -> norm2
I0509 02:32:10.019547 26910 net.cpp:122] Setting up norm2
I0509 02:32:10.019557 26910 net.cpp:129] Top shape: 50 256 27 27 (9331200)
I0509 02:32:10.019559 26910 net.cpp:137] Memory required for data: 331129200
I0509 02:32:10.019563 26910 layer_factory.hpp:77] Creating layer pool2
I0509 02:32:10.019569 26910 net.cpp:84] Creating Layer pool2
I0509 02:32:10.019573 26910 net.cpp:406] pool2 <- norm2
I0509 02:32:10.019579 26910 net.cpp:380] pool2 -> pool2
I0509 02:32:10.019611 26910 net.cpp:122] Setting up pool2
I0509 02:32:10.019616 26910 net.cpp:129] Top shape: 50 256 13 13 (2163200)
I0509 02:32:10.019619 26910 net.cpp:137] Memory required for data: 339782000
I0509 02:32:10.019621 26910 layer_factory.hpp:77] Creating layer conv3
I0509 02:32:10.019632 26910 net.cpp:84] Creating Layer conv3
I0509 02:32:10.019636 26910 net.cpp:406] conv3 <- pool2
I0509 02:32:10.019640 26910 net.cpp:380] conv3 -> conv3
I0509 02:32:10.031649 26910 net.cpp:122] Setting up conv3
I0509 02:32:10.031669 26910 net.cpp:129] Top shape: 50 384 13 13 (3244800)
I0509 02:32:10.031672 26910 net.cpp:137] Memory required for data: 352761200
I0509 02:32:10.031683 26910 layer_factory.hpp:77] Creating layer relu3
I0509 02:32:10.031692 26910 net.cpp:84] Creating Layer relu3
I0509 02:32:10.031697 26910 net.cpp:406] relu3 <- conv3
I0509 02:32:10.031702 26910 net.cpp:367] relu3 -> conv3 (in-place)
I0509 02:32:10.032300 26910 net.cpp:122] Setting up relu3
I0509 02:32:10.032323 26910 net.cpp:129] Top shape: 50 384 13 13 (3244800)
I0509 02:32:10.032326 26910 net.cpp:137] Memory required for data: 365740400
I0509 02:32:10.032330 26910 layer_factory.hpp:77] Creating layer conv4
I0509 02:32:10.032341 26910 net.cpp:84] Creating Layer conv4
I0509 02:32:10.032344 26910 net.cpp:406] conv4 <- conv3
I0509 02:32:10.032349 26910 net.cpp:380] conv4 -> conv4
I0509 02:32:10.042701 26910 net.cpp:122] Setting up conv4
I0509 02:32:10.042719 26910 net.cpp:129] Top shape: 50 384 13 13 (3244800)
I0509 02:32:10.042722 26910 net.cpp:137] Memory required for data: 378719600
I0509 02:32:10.042731 26910 layer_factory.hpp:77] Creating layer relu4
I0509 02:32:10.042739 26910 net.cpp:84] Creating Layer relu4
I0509 02:32:10.042743 26910 net.cpp:406] relu4 <- conv4
I0509 02:32:10.042752 26910 net.cpp:367] relu4 -> conv4 (in-place)
I0509 02:32:10.043131 26910 net.cpp:122] Setting up relu4
I0509 02:32:10.043139 26910 net.cpp:129] Top shape: 50 384 13 13 (3244800)
I0509 02:32:10.043143 26910 net.cpp:137] Memory required for data: 391698800
I0509 02:32:10.043145 26910 layer_factory.hpp:77] Creating layer conv5
I0509 02:32:10.043156 26910 net.cpp:84] Creating Layer conv5
I0509 02:32:10.043159 26910 net.cpp:406] conv5 <- conv4
I0509 02:32:10.043166 26910 net.cpp:380] conv5 -> conv5
I0509 02:32:10.052908 26910 net.cpp:122] Setting up conv5
I0509 02:32:10.052927 26910 net.cpp:129] Top shape: 50 256 13 13 (2163200)
I0509 02:32:10.052930 26910 net.cpp:137] Memory required for data: 400351600
I0509 02:32:10.052944 26910 layer_factory.hpp:77] Creating layer relu5
I0509 02:32:10.052953 26910 net.cpp:84] Creating Layer relu5
I0509 02:32:10.052956 26910 net.cpp:406] relu5 <- conv5
I0509 02:32:10.052963 26910 net.cpp:367] relu5 -> conv5 (in-place)
I0509 02:32:10.053539 26910 net.cpp:122] Setting up relu5
I0509 02:32:10.053548 26910 net.cpp:129] Top shape: 50 256 13 13 (2163200)
I0509 02:32:10.053550 26910 net.cpp:137] Memory required for data: 409004400
I0509 02:32:10.053553 26910 layer_factory.hpp:77] Creating layer pool5
I0509 02:32:10.053567 26910 net.cpp:84] Creating Layer pool5
I0509 02:32:10.053571 26910 net.cpp:406] pool5 <- conv5
I0509 02:32:10.053576 26910 net.cpp:380] pool5 -> pool5
I0509 02:32:10.053617 26910 net.cpp:122] Setting up pool5
I0509 02:32:10.053622 26910 net.cpp:129] Top shape: 50 256 6 6 (460800)
I0509 02:32:10.053624 26910 net.cpp:137] Memory required for data: 410847600
I0509 02:32:10.053627 26910 layer_factory.hpp:77] Creating layer fc6
I0509 02:32:10.053635 26910 net.cpp:84] Creating Layer fc6
I0509 02:32:10.053638 26910 net.cpp:406] fc6 <- pool5
I0509 02:32:10.053645 26910 net.cpp:380] fc6 -> fc6
I0509 02:32:10.418669 26910 net.cpp:122] Setting up fc6
I0509 02:32:10.418691 26910 net.cpp:129] Top shape: 50 4096 (204800)
I0509 02:32:10.418694 26910 net.cpp:137] Memory required for data: 411666800
I0509 02:32:10.418704 26910 layer_factory.hpp:77] Creating layer relu6
I0509 02:32:10.418714 26910 net.cpp:84] Creating Layer relu6
I0509 02:32:10.418718 26910 net.cpp:406] relu6 <- fc6
I0509 02:32:10.418725 26910 net.cpp:367] relu6 -> fc6 (in-place)
I0509 02:32:10.419523 26910 net.cpp:122] Setting up relu6
I0509 02:32:10.419534 26910 net.cpp:129] Top shape: 50 4096 (204800)
I0509 02:32:10.419538 26910 net.cpp:137] Memory required for data: 412486000
I0509 02:32:10.419540 26910 layer_factory.hpp:77] Creating layer drop6
I0509 02:32:10.419548 26910 net.cpp:84] Creating Layer drop6
I0509 02:32:10.419550 26910 net.cpp:406] drop6 <- fc6
I0509 02:32:10.419556 26910 net.cpp:367] drop6 -> fc6 (in-place)
I0509 02:32:10.419581 26910 net.cpp:122] Setting up drop6
I0509 02:32:10.419585 26910 net.cpp:129] Top shape: 50 4096 (204800)
I0509 02:32:10.419589 26910 net.cpp:137] Memory required for data: 413305200
I0509 02:32:10.419590 26910 layer_factory.hpp:77] Creating layer fc7
I0509 02:32:10.419600 26910 net.cpp:84] Creating Layer fc7
I0509 02:32:10.419603 26910 net.cpp:406] fc7 <- fc6
I0509 02:32:10.419607 26910 net.cpp:380] fc7 -> fc7
I0509 02:32:10.605062 26910 net.cpp:122] Setting up fc7
I0509 02:32:10.605085 26910 net.cpp:129] Top shape: 50 4096 (204800)
I0509 02:32:10.605088 26910 net.cpp:137] Memory required for data: 414124400
I0509 02:32:10.605098 26910 layer_factory.hpp:77] Creating layer relu7
I0509 02:32:10.605106 26910 net.cpp:84] Creating Layer relu7
I0509 02:32:10.605110 26910 net.cpp:406] relu7 <- fc7
I0509 02:32:10.605116 26910 net.cpp:367] relu7 -> fc7 (in-place)
I0509 02:32:10.605612 26910 net.cpp:122] Setting up relu7
I0509 02:32:10.605621 26910 net.cpp:129] Top shape: 50 4096 (204800)
I0509 02:32:10.605623 26910 net.cpp:137] Memory required for data: 414943600
I0509 02:32:10.605628 26910 layer_factory.hpp:77] Creating layer drop7
I0509 02:32:10.605636 26910 net.cpp:84] Creating Layer drop7
I0509 02:32:10.605640 26910 net.cpp:406] drop7 <- fc7
I0509 02:32:10.605644 26910 net.cpp:367] drop7 -> fc7 (in-place)
I0509 02:32:10.605671 26910 net.cpp:122] Setting up drop7
I0509 02:32:10.605676 26910 net.cpp:129] Top shape: 50 4096 (204800)
I0509 02:32:10.605679 26910 net.cpp:137] Memory required for data: 415762800
I0509 02:32:10.605681 26910 layer_factory.hpp:77] Creating layer fc8
I0509 02:32:10.605687 26910 net.cpp:84] Creating Layer fc8
I0509 02:32:10.605690 26910 net.cpp:406] fc8 <- fc7
I0509 02:32:10.605696 26910 net.cpp:380] fc8 -> fc8
I0509 02:32:10.613701 26910 net.cpp:122] Setting up fc8
I0509 02:32:10.613718 26910 net.cpp:129] Top shape: 50 196 (9800)
I0509 02:32:10.613719 26910 net.cpp:137] Memory required for data: 415802000
I0509 02:32:10.613728 26910 layer_factory.hpp:77] Creating layer fc8_fc8_0_split
I0509 02:32:10.613734 26910 net.cpp:84] Creating Layer fc8_fc8_0_split
I0509 02:32:10.613736 26910 net.cpp:406] fc8_fc8_0_split <- fc8
I0509 02:32:10.613742 26910 net.cpp:380] fc8_fc8_0_split -> fc8_fc8_0_split_0
I0509 02:32:10.613772 26910 net.cpp:380] fc8_fc8_0_split -> fc8_fc8_0_split_1
I0509 02:32:10.613807 26910 net.cpp:122] Setting up fc8_fc8_0_split
I0509 02:32:10.613812 26910 net.cpp:129] Top shape: 50 196 (9800)
I0509 02:32:10.613816 26910 net.cpp:129] Top shape: 50 196 (9800)
I0509 02:32:10.613817 26910 net.cpp:137] Memory required for data: 415880400
I0509 02:32:10.613821 26910 layer_factory.hpp:77] Creating layer accuracy
I0509 02:32:10.613828 26910 net.cpp:84] Creating Layer accuracy
I0509 02:32:10.613831 26910 net.cpp:406] accuracy <- fc8_fc8_0_split_0
I0509 02:32:10.613834 26910 net.cpp:406] accuracy <- label_val-data_1_split_0
I0509 02:32:10.613839 26910 net.cpp:380] accuracy -> accuracy
…
