…
I0509 23:09:49.184207 19421 net.cpp:294] The NetState phase (0) differed from the phase (1) specified by a rule in layer accuracy
I0509 23:09:49.184337 19421 net.cpp:51] Initializing net from parameters:
state {
phase: TRAIN
level: 0
stage: ""
}
layer {
name: "train-data"
type: "Data"
top: "data"
top: "label"
include {
phase: TRAIN
}
transform_param {
mirror: true
crop_size: 227
mean_file: "/mnt/bigdisk/AMBDIG8/digits/jobs/20200509-183908-c8eb/mean.binaryproto"
}
data_param {
source: "/mnt/bigdisk/AMBDIG8/digits/jobs/20200509-183908-c8eb/train_db"
batch_size: 128
backend: LMDB
}
}
layer {
name: "conv1"
type: "Convolution"
bottom: "data"
top: "conv1"
param {
lr_mult: 1
decay_mult: 1
}
param {
lr_mult: 2
decay_mult: 0
}
convolution_param {
num_output: 96
kernel_size: 11
stride: 4
weight_filler {
type: "gaussian"
std: 0.01
}
bias_filler {
type: "constant"
value: 0
}
}
}
layer {
name: "relu1"
type: "ReLU"
bottom: "conv1"
top: "conv1"
}
layer {
name: "norm1"
type: "LRN"
bottom: "conv1"
top: "norm1"
lrn_param {
local_size: 5
alpha: 0.0001
beta: 0.75
}
}
layer {
name: "pool1"
type: "Pooling"
bottom: "norm1"
top: "pool1"
pooling_param {
pool: MAX
kernel_size: 3
stride: 2
}
}
layer {
name: "conv2"
type: "Convolution"
bottom: "pool1"
top: "conv2"
param {
lr_mult: 1
decay_mult: 1
}
param {
lr_mult: 2
decay_mult: 0
}
convolution_param {
num_output: 256
pad: 2
kernel_size: 5
group: 2
weight_filler {
type: "gaussian"
std: 0.01
}
bias_filler {
type: "constant"
value: 0.1
}
}
}
layer {
name: "relu2"
type: "ReLU"
bottom: "conv2"
top: "conv2"
}
layer {
name: "norm2"
type: "LRN"
bottom: "conv2"
top: "norm2"
lrn_param {
local_size: 5
alpha: 0.0001
beta: 0.75
}
}
layer {
name: "pool2"
type: "Pooling"
bottom: "norm2"
top: "pool2"
pooling_param {
pool: MAX
kernel_size: 3
stride: 2
}
}
layer {
name: "conv3"
type: "Convolution"
bottom: "pool2"
top: "conv3"
param {
lr_mult: 1
decay_mult: 1
}
param {
lr_mult: 2
decay_mult: 0
}
convolution_param {
num_output: 384
pad: 1
kernel_size: 3
weight_filler {
type: "gaussian"
std: 0.01
}
bias_filler {
type: "constant"
value: 0
}
}
}
layer {
name: "relu3"
type: "ReLU"
bottom: "conv3"
top: "conv3"
}
layer {
name: "conv4"
type: "Convolution"
bottom: "conv3"
top: "conv4"
param {
lr_mult: 1
decay_mult: 1
}
param {
lr_mult: 2
decay_mult: 0
}
convolution_param {
num_output: 384
pad: 1
kernel_size: 3
group: 2
weight_filler {
type: "gaussian"
std: 0.01
}
bias_filler {
type: "constant"
value: 0.1
}
}
}
layer {
name: "relu4"
type: "ReLU"
bottom: "conv4"
top: "conv4"
}
layer {
name: "conv5"
type: "Convolution"
bottom: "conv4"
top: "conv5"
param {
lr_mult: 1
decay_mult: 1
}
param {
lr_mult: 2
decay_mult: 0
}
convolution_param {
num_output: 256
pad: 1
kernel_size: 3
group: 2
weight_filler {
type: "gaussian"
std: 0.01
}
bias_filler {
type: "constant"
value: 0.1
}
}
}
layer {
name: "relu5"
type: "ReLU"
bottom: "conv5"
top: "conv5"
}
layer {
name: "pool5"
type: "Pooling"
bottom: "conv5"
top: "pool5"
pooling_param {
pool: MAX
kernel_size: 3
stride: 2
}
}
layer {
name: "fc6"
type: "InnerProduct"
bottom: "pool5"
top: "fc6"
param {
lr_mult: 1
decay_mult: 1
}
param {
lr_mult: 2
decay_mult: 0
}
inner_product_param {
num_output: 4096
weight_filler {
type: "gaussian"
std: 0.005
}
bias_filler {
type: "constant"
value: 0.1
}
}
}
layer {
name: "relu6"
type: "ReLU"
bottom: "fc6"
top: "fc6"
}
layer {
name: "drop6"
type: "Dropout"
bottom: "fc6"
top: "fc6"
dropout_param {
dropout_ratio: 0.5
}
}
layer {
name: "fc7"
type: "InnerProduct"
bottom: "fc6"
top: "fc7"
param {
lr_mult: 1
decay_mult: 1
}
param {
lr_mult: 2
decay_mult: 0
}
inner_product_param {
num_output: 4096
weight_filler {
type: "gaussian"
std: 0.005
}
bias_filler {
type: "constant"
value: 0.1
}
}
}
layer {
name: "relu7"
type: "ReLU"
bottom: "fc7"
top: "fc7"
}
layer {
name: "drop7"
type: "Dropout"
bottom: "fc7"
top: "fc7"
dropout_param {
dropout_ratio: 0.5
}
}
layer {
name: "fc8"
type: "InnerProduct"
bottom: "fc7"
top: "fc8"
param {
lr_mult: 1
decay_mult: 1
}
param {
lr_mult: 2
decay_mult: 0
}
inner_product_param {
num_output: 196
weight_filler {
type: "gaussian"
std: 0.01
}
bias_filler {
type: "constant"
value: 0
}
}
}
layer {
name: "loss"
type: "SoftmaxWithLoss"
bottom: "fc8"
bottom: "label"
top: "loss"
}
I0509 23:09:49.184427 19421 layer_factory.hpp:77] Creating layer train-data
I0509 23:09:49.187017 19421 db_lmdb.cpp:35] Opened lmdb /mnt/bigdisk/AMBDIG8/digits/jobs/20200509-183908-c8eb/train_db
I0509 23:09:49.187656 19421 net.cpp:84] Creating Layer train-data
I0509 23:09:49.187667 19421 net.cpp:380] train-data -> data
I0509 23:09:49.187686 19421 net.cpp:380] train-data -> label
I0509 23:09:49.187697 19421 data_transformer.cpp:25] Loading mean file from: /mnt/bigdisk/AMBDIG8/digits/jobs/20200509-183908-c8eb/mean.binaryproto
I0509 23:09:49.191334 19421 data_layer.cpp:45] output data size: 128,3,227,227
I0509 23:09:49.334080 19421 net.cpp:122] Setting up train-data
I0509 23:09:49.334102 19421 net.cpp:129] Top shape: 128 3 227 227 (19787136)
I0509 23:09:49.334106 19421 net.cpp:129] Top shape: 128 (128)
I0509 23:09:49.334110 19421 net.cpp:137] Memory required for data: 79149056
I0509 23:09:49.334120 19421 layer_factory.hpp:77] Creating layer conv1
I0509 23:09:49.334139 19421 net.cpp:84] Creating Layer conv1
I0509 23:09:49.334144 19421 net.cpp:406] conv1 <- data
I0509 23:09:49.334157 19421 net.cpp:380] conv1 -> conv1
I0509 23:09:50.730652 19421 net.cpp:122] Setting up conv1
I0509 23:09:50.730672 19421 net.cpp:129] Top shape: 128 96 55 55 (37171200)
I0509 23:09:50.730675 19421 net.cpp:137] Memory required for data: 227833856
I0509 23:09:50.730696 19421 layer_factory.hpp:77] Creating layer relu1
I0509 23:09:50.730705 19421 net.cpp:84] Creating Layer relu1
I0509 23:09:50.730710 19421 net.cpp:406] relu1 <- conv1
I0509 23:09:50.730717 19421 net.cpp:367] relu1 -> conv1 (in-place)
I0509 23:09:50.731112 19421 net.cpp:122] Setting up relu1
I0509 23:09:50.731120 19421 net.cpp:129] Top shape: 128 96 55 55 (37171200)
I0509 23:09:50.731122 19421 net.cpp:137] Memory required for data: 376518656
I0509 23:09:50.731127 19421 layer_factory.hpp:77] Creating layer norm1
I0509 23:09:50.731137 19421 net.cpp:84] Creating Layer norm1
I0509 23:09:50.731139 19421 net.cpp:406] norm1 <- conv1
I0509 23:09:50.731163 19421 net.cpp:380] norm1 -> norm1
I0509 23:09:50.731756 19421 net.cpp:122] Setting up norm1
I0509 23:09:50.731766 19421 net.cpp:129] Top shape: 128 96 55 55 (37171200)
I0509 23:09:50.731770 19421 net.cpp:137] Memory required for data: 525203456
I0509 23:09:50.731772 19421 layer_factory.hpp:77] Creating layer pool1
I0509 23:09:50.731779 19421 net.cpp:84] Creating Layer pool1
I0509 23:09:50.731782 19421 net.cpp:406] pool1 <- norm1
I0509 23:09:50.731789 19421 net.cpp:380] pool1 -> pool1
I0509 23:09:50.731837 19421 net.cpp:122] Setting up pool1
I0509 23:09:50.731844 19421 net.cpp:129] Top shape: 128 96 27 27 (8957952)
I0509 23:09:50.731848 19421 net.cpp:137] Memory required for data: 561035264
I0509 23:09:50.731850 19421 layer_factory.hpp:77] Creating layer conv2
I0509 23:09:50.731861 19421 net.cpp:84] Creating Layer conv2
I0509 23:09:50.731864 19421 net.cpp:406] conv2 <- pool1
I0509 23:09:50.731869 19421 net.cpp:380] conv2 -> conv2
I0509 23:09:50.740237 19421 net.cpp:122] Setting up conv2
I0509 23:09:50.740257 19421 net.cpp:129] Top shape: 128 256 27 27 (23887872)
I0509 23:09:50.740260 19421 net.cpp:137] Memory required for data: 656586752
I0509 23:09:50.740272 19421 layer_factory.hpp:77] Creating layer relu2
I0509 23:09:50.740281 19421 net.cpp:84] Creating Layer relu2
I0509 23:09:50.740285 19421 net.cpp:406] relu2 <- conv2
I0509 23:09:50.740290 19421 net.cpp:367] relu2 -> conv2 (in-place)
I0509 23:09:50.740870 19421 net.cpp:122] Setting up relu2
I0509 23:09:50.740882 19421 net.cpp:129] Top shape: 128 256 27 27 (23887872)
I0509 23:09:50.740885 19421 net.cpp:137] Memory required for data: 752138240
I0509 23:09:50.740888 19421 layer_factory.hpp:77] Creating layer norm2
I0509 23:09:50.740895 19421 net.cpp:84] Creating Layer norm2
I0509 23:09:50.740898 19421 net.cpp:406] norm2 <- conv2
I0509 23:09:50.740905 19421 net.cpp:380] norm2 -> norm2
I0509 23:09:50.741305 19421 net.cpp:122] Setting up norm2
I0509 23:09:50.741314 19421 net.cpp:129] Top shape: 128 256 27 27 (23887872)
I0509 23:09:50.741317 19421 net.cpp:137] Memory required for data: 847689728
I0509 23:09:50.741320 19421 layer_factory.hpp:77] Creating layer pool2
I0509 23:09:50.741333 19421 net.cpp:84] Creating Layer pool2
I0509 23:09:50.741336 19421 net.cpp:406] pool2 <- norm2
I0509 23:09:50.741340 19421 net.cpp:380] pool2 -> pool2
I0509 23:09:50.741372 19421 net.cpp:122] Setting up pool2
I0509 23:09:50.741379 19421 net.cpp:129] Top shape: 128 256 13 13 (5537792)
I0509 23:09:50.741382 19421 net.cpp:137] Memory required for data: 869840896
I0509 23:09:50.741385 19421 layer_factory.hpp:77] Creating layer conv3
I0509 23:09:50.741395 19421 net.cpp:84] Creating Layer conv3
I0509 23:09:50.741400 19421 net.cpp:406] conv3 <- pool2
I0509 23:09:50.741403 19421 net.cpp:380] conv3 -> conv3
I0509 23:09:50.752319 19421 net.cpp:122] Setting up conv3
I0509 23:09:50.752336 19421 net.cpp:129] Top shape: 128 384 13 13 (8306688)
I0509 23:09:50.752339 19421 net.cpp:137] Memory required for data: 903067648
I0509 23:09:50.752351 19421 layer_factory.hpp:77] Creating layer relu3
I0509 23:09:50.752362 19421 net.cpp:84] Creating Layer relu3
I0509 23:09:50.752365 19421 net.cpp:406] relu3 <- conv3
I0509 23:09:50.752370 19421 net.cpp:367] relu3 -> conv3 (in-place)
I0509 23:09:50.752936 19421 net.cpp:122] Setting up relu3
I0509 23:09:50.752946 19421 net.cpp:129] Top shape: 128 384 13 13 (8306688)
I0509 23:09:50.752948 19421 net.cpp:137] Memory required for data: 936294400
I0509 23:09:50.752952 19421 layer_factory.hpp:77] Creating layer conv4
I0509 23:09:50.752964 19421 net.cpp:84] Creating Layer conv4
I0509 23:09:50.752966 19421 net.cpp:406] conv4 <- conv3
I0509 23:09:50.752974 19421 net.cpp:380] conv4 -> conv4
I0509 23:09:50.764467 19421 net.cpp:122] Setting up conv4
I0509 23:09:50.764482 19421 net.cpp:129] Top shape: 128 384 13 13 (8306688)
I0509 23:09:50.764485 19421 net.cpp:137] Memory required for data: 969521152
I0509 23:09:50.764503 19421 layer_factory.hpp:77] Creating layer relu4
I0509 23:09:50.764511 19421 net.cpp:84] Creating Layer relu4
I0509 23:09:50.764535 19421 net.cpp:406] relu4 <- conv4
I0509 23:09:50.764541 19421 net.cpp:367] relu4 -> conv4 (in-place)
I0509 23:09:50.765086 19421 net.cpp:122] Setting up relu4
I0509 23:09:50.765096 19421 net.cpp:129] Top shape: 128 384 13 13 (8306688)
I0509 23:09:50.765100 19421 net.cpp:137] Memory required for data: 1002747904
I0509 23:09:50.765103 19421 layer_factory.hpp:77] Creating layer conv5
I0509 23:09:50.765115 19421 net.cpp:84] Creating Layer conv5
I0509 23:09:50.765117 19421 net.cpp:406] conv5 <- conv4
I0509 23:09:50.765123 19421 net.cpp:380] conv5 -> conv5
I0509 23:09:50.774525 19421 net.cpp:122] Setting up conv5
I0509 23:09:50.774540 19421 net.cpp:129] Top shape: 128 256 13 13 (5537792)
I0509 23:09:50.774544 19421 net.cpp:137] Memory required for data: 1024899072
I0509 23:09:50.774556 19421 layer_factory.hpp:77] Creating layer relu5
I0509 23:09:50.774564 19421 net.cpp:84] Creating Layer relu5
I0509 23:09:50.774566 19421 net.cpp:406] relu5 <- conv5
I0509 23:09:50.774576 19421 net.cpp:367] relu5 -> conv5 (in-place)
I0509 23:09:50.775122 19421 net.cpp:122] Setting up relu5
I0509 23:09:50.775133 19421 net.cpp:129] Top shape: 128 256 13 13 (5537792)
I0509 23:09:50.775136 19421 net.cpp:137] Memory required for data: 1047050240
I0509 23:09:50.775140 19421 layer_factory.hpp:77] Creating layer pool5
I0509 23:09:50.775146 19421 net.cpp:84] Creating Layer pool5
I0509 23:09:50.775148 19421 net.cpp:406] pool5 <- conv5
I0509 23:09:50.775153 19421 net.cpp:380] pool5 -> pool5
I0509 23:09:50.775193 19421 net.cpp:122] Setting up pool5
I0509 23:09:50.775199 19421 net.cpp:129] Top shape: 128 256 6 6 (1179648)
I0509 23:09:50.775202 19421 net.cpp:137] Memory required for data: 1051768832
I0509 23:09:50.775205 19421 layer_factory.hpp:77] Creating layer fc6
I0509 23:09:50.775214 19421 net.cpp:84] Creating Layer fc6
I0509 23:09:50.775218 19421 net.cpp:406] fc6 <- pool5
I0509 23:09:50.775228 19421 net.cpp:380] fc6 -> fc6
I0509 23:09:51.137588 19421 net.cpp:122] Setting up fc6
I0509 23:09:51.137609 19421 net.cpp:129] Top shape: 128 4096 (524288)
I0509 23:09:51.137611 19421 net.cpp:137] Memory required for data: 1053865984
I0509 23:09:51.137620 19421 layer_factory.hpp:77] Creating layer relu6
I0509 23:09:51.137629 19421 net.cpp:84] Creating Layer relu6
I0509 23:09:51.137632 19421 net.cpp:406] relu6 <- fc6
I0509 23:09:51.137643 19421 net.cpp:367] relu6 -> fc6 (in-place)
I0509 23:09:51.138379 19421 net.cpp:122] Setting up relu6
I0509 23:09:51.138389 19421 net.cpp:129] Top shape: 128 4096 (524288)
I0509 23:09:51.138391 19421 net.cpp:137] Memory required for data: 1055963136
I0509 23:09:51.138394 19421 layer_factory.hpp:77] Creating layer drop6
I0509 23:09:51.138401 19421 net.cpp:84] Creating Layer drop6
I0509 23:09:51.138404 19421 net.cpp:406] drop6 <- fc6
I0509 23:09:51.138411 19421 net.cpp:367] drop6 -> fc6 (in-place)
I0509 23:09:51.138440 19421 net.cpp:122] Setting up drop6
I0509 23:09:51.138445 19421 net.cpp:129] Top shape: 128 4096 (524288)
I0509 23:09:51.138448 19421 net.cpp:137] Memory required for data: 1058060288
I0509 23:09:51.138451 19421 layer_factory.hpp:77] Creating layer fc7
I0509 23:09:51.138458 19421 net.cpp:84] Creating Layer fc7
I0509 23:09:51.138460 19421 net.cpp:406] fc7 <- fc6
I0509 23:09:51.138466 19421 net.cpp:380] fc7 -> fc7
I0509 23:09:51.299535 19421 net.cpp:122] Setting up fc7
I0509 23:09:51.299554 19421 net.cpp:129] Top shape: 128 4096 (524288)
I0509 23:09:51.299557 19421 net.cpp:137] Memory required for data: 1060157440
I0509 23:09:51.299566 19421 layer_factory.hpp:77] Creating layer relu7
I0509 23:09:51.299576 19421 net.cpp:84] Creating Layer relu7
I0509 23:09:51.299579 19421 net.cpp:406] relu7 <- fc7
I0509 23:09:51.299587 19421 net.cpp:367] relu7 -> fc7 (in-place)
I0509 23:09:51.300065 19421 net.cpp:122] Setting up relu7
I0509 23:09:51.300076 19421 net.cpp:129] Top shape: 128 4096 (524288)
I0509 23:09:51.300079 19421 net.cpp:137] Memory required for data: 1062254592
I0509 23:09:51.300082 19421 layer_factory.hpp:77] Creating layer drop7
I0509 23:09:51.300088 19421 net.cpp:84] Creating Layer drop7
I0509 23:09:51.300112 19421 net.cpp:406] drop7 <- fc7
I0509 23:09:51.300117 19421 net.cpp:367] drop7 -> fc7 (in-place)
I0509 23:09:51.300143 19421 net.cpp:122] Setting up drop7
I0509 23:09:51.300149 19421 net.cpp:129] Top shape: 128 4096 (524288)
I0509 23:09:51.300151 19421 net.cpp:137] Memory required for data: 1064351744
I0509 23:09:51.300154 19421 layer_factory.hpp:77] Creating layer fc8
I0509 23:09:51.300163 19421 net.cpp:84] Creating Layer fc8
I0509 23:09:51.300165 19421 net.cpp:406] fc8 <- fc7
I0509 23:09:51.300170 19421 net.cpp:380] fc8 -> fc8
I0509 23:09:51.308113 19421 net.cpp:122] Setting up fc8
I0509 23:09:51.308123 19421 net.cpp:129] Top shape: 128 196 (25088)
I0509 23:09:51.308126 19421 net.cpp:137] Memory required for data: 1064452096
I0509 23:09:51.308131 19421 layer_factory.hpp:77] Creating layer loss
I0509 23:09:51.308140 19421 net.cpp:84] Creating Layer loss
I0509 23:09:51.308142 19421 net.cpp:406] loss <- fc8
I0509 23:09:51.308146 19421 net.cpp:406] loss <- label
I0509 23:09:51.308153 19421 net.cpp:380] loss -> loss
I0509 23:09:51.308161 19421 layer_factory.hpp:77] Creating layer loss
…
I0509 23:09:51.309458 19421 solver.cpp:172] Creating test net (#0) specified by net file: train_val.prototxt
I0509 23:09:51.309487 19421 net.cpp:294] The NetState phase (1) differed from the phase (0) specified by a rule in layer train-data
I0509 23:09:51.309620 19421 net.cpp:51] Initializing net from parameters:
state {
phase: TEST
}
layer {
name: "val-data"
type: "Data"
top: "data"
top: "label"
include {
phase: TEST
}
transform_param {
crop_size: 227
mean_file: "/mnt/bigdisk/AMBDIG8/digits/jobs/20200509-183908-c8eb/mean.binaryproto"
}
data_param {
source: "/mnt/bigdisk/AMBDIG8/digits/jobs/20200509-183908-c8eb/val_db"
batch_size: 32
backend: LMDB
}
}
layer {
name: "conv1"
type: "Convolution"
bottom: "data"
top: "conv1"
param {
lr_mult: 1
decay_mult: 1
}
param {
lr_mult: 2
decay_mult: 0
}
convolution_param {
num_output: 96
kernel_size: 11
stride: 4
weight_filler {
type: "gaussian"
std: 0.01
}
bias_filler {
type: "constant"
value: 0
}
}
}
layer {
name: "relu1"
type: "ReLU"
bottom: "conv1"
top: "conv1"
}
layer {
name: "norm1"
type: "LRN"
bottom: "conv1"
top: "norm1"
lrn_param {
local_size: 5
alpha: 0.0001
beta: 0.75
}
}
layer {
name: "pool1"
type: "Pooling"
bottom: "norm1"
top: "pool1"
pooling_param {
pool: MAX
kernel_size: 3
stride: 2
}
}
layer {
name: "conv2"
type: "Convolution"
bottom: "pool1"
top: "conv2"
param {
lr_mult: 1
decay_mult: 1
}
param {
lr_mult: 2
decay_mult: 0
}
convolution_param {
num_output: 256
pad: 2
kernel_size: 5
group: 2
weight_filler {
type: "gaussian"
std: 0.01
}
bias_filler {
type: "constant"
value: 0.1
}
}
}
layer {
name: "relu2"
type: "ReLU"
bottom: "conv2"
top: "conv2"
}
layer {
name: "norm2"
type: "LRN"
bottom: "conv2"
top: "norm2"
lrn_param {
local_size: 5
alpha: 0.0001
beta: 0.75
}
}
layer {
name: "pool2"
type: "Pooling"
bottom: "norm2"
top: "pool2"
pooling_param {
pool: MAX
kernel_size: 3
stride: 2
}
}
layer {
name: "conv3"
type: "Convolution"
bottom: "pool2"
top: "conv3"
param {
lr_mult: 1
decay_mult: 1
}
param {
lr_mult: 2
decay_mult: 0
}
convolution_param {
num_output: 384
pad: 1
kernel_size: 3
weight_filler {
type: "gaussian"
std: 0.01
}
bias_filler {
type: "constant"
value: 0
}
}
}
layer {
name: "relu3"
type: "ReLU"
bottom: "conv3"
top: "conv3"
}
layer {
name: "conv4"
type: "Convolution"
bottom: "conv3"
top: "conv4"
param {
lr_mult: 1
decay_mult: 1
}
param {
lr_mult: 2
decay_mult: 0
}
convolution_param {
num_output: 384
pad: 1
kernel_size: 3
group: 2
weight_filler {
type: "gaussian"
std: 0.01
}
bias_filler {
type: "constant"
value: 0.1
}
}
}
layer {
name: "relu4"
type: "ReLU"
bottom: "conv4"
top: "conv4"
}
layer {
name: "conv5"
type: "Convolution"
bottom: "conv4"
top: "conv5"
param {
lr_mult: 1
decay_mult: 1
}
param {
lr_mult: 2
decay_mult: 0
}
convolution_param {
num_output: 256
pad: 1
kernel_size: 3
group: 2
weight_filler {
type: "gaussian"
std: 0.01
}
bias_filler {
type: "constant"
value: 0.1
}
}
}
layer {
name: "relu5"
type: "ReLU"
bottom: "conv5"
top: "conv5"
}
layer {
name: "pool5"
type: "Pooling"
bottom: "conv5"
top: "pool5"
pooling_param {
pool: MAX
kernel_size: 3
stride: 2
}
}
layer {
name: "fc6"
type: "InnerProduct"
bottom: "pool5"
top: "fc6"
param {
lr_mult: 1
decay_mult: 1
}
param {
lr_mult: 2
decay_mult: 0
}
inner_product_param {
num_output: 4096
weight_filler {
type: "gaussian"
std: 0.005
}
bias_filler {
type: "constant"
value: 0.1
}
}
}
layer {
name: "relu6"
type: "ReLU"
bottom: "fc6"
top: "fc6"
}
layer {
name: "drop6"
type: "Dropout"
bottom: "fc6"
top: "fc6"
dropout_param {
dropout_ratio: 0.5
}
}
layer {
name: "fc7"
type: "InnerProduct"
bottom: "fc6"
top: "fc7"
param {
lr_mult: 1
decay_mult: 1
}
param {
lr_mult: 2
decay_mult: 0
}
inner_product_param {
num_output: 4096
weight_filler {
type: "gaussian"
std: 0.005
}
bias_filler {
type: "constant"
value: 0.1
}
}
}
layer {
name: "relu7"
type: "ReLU"
bottom: "fc7"
top: "fc7"
}
layer {
name: "drop7"
type: "Dropout"
bottom: "fc7"
top: "fc7"
dropout_param {
dropout_ratio: 0.5
}
}
layer {
name: "fc8"
type: "InnerProduct"
bottom: "fc7"
top: "fc8"
param {
lr_mult: 1
decay_mult: 1
}
param {
lr_mult: 2
decay_mult: 0
}
inner_product_param {
num_output: 196
weight_filler {
type: "gaussian"
std: 0.01
}
bias_filler {
type: "constant"
value: 0
}
}
}
layer {
name: "accuracy"
type: "Accuracy"
bottom: "fc8"
bottom: "label"
top: "accuracy"
include {
phase: TEST
}
}
layer {
name: "loss"
type: "SoftmaxWithLoss"
bottom: "fc8"
bottom: "label"
top: "loss"
}
I0509 23:09:51.309731 19421 layer_factory.hpp:77] Creating layer val-data
I0509 23:09:51.312170 19421 db_lmdb.cpp:35] Opened lmdb /mnt/bigdisk/AMBDIG8/digits/jobs/20200509-183908-c8eb/val_db
I0509 23:09:51.312824 19421 net.cpp:84] Creating Layer val-data
I0509 23:09:51.312835 19421 net.cpp:380] val-data -> data
I0509 23:09:51.312844 19421 net.cpp:380] val-data -> label
I0509 23:09:51.312850 19421 data_transformer.cpp:25] Loading mean file from: /mnt/bigdisk/AMBDIG8/digits/jobs/20200509-183908-c8eb/mean.binaryproto
I0509 23:09:51.316763 19421 data_layer.cpp:45] output data size: 32,3,227,227
I0509 23:09:51.352361 19421 net.cpp:122] Setting up val-data
I0509 23:09:51.352381 19421 net.cpp:129] Top shape: 32 3 227 227 (4946784)
I0509 23:09:51.352385 19421 net.cpp:129] Top shape: 32 (32)
I0509 23:09:51.352387 19421 net.cpp:137] Memory required for data: 19787264
I0509 23:09:51.352393 19421 layer_factory.hpp:77] Creating layer label_val-data_1_split
I0509 23:09:51.352404 19421 net.cpp:84] Creating Layer label_val-data_1_split
I0509 23:09:51.352408 19421 net.cpp:406] label_val-data_1_split <- label
I0509 23:09:51.352416 19421 net.cpp:380] label_val-data_1_split -> label_val-data_1_split_0
I0509 23:09:51.352424 19421 net.cpp:380] label_val-data_1_split -> label_val-data_1_split_1
I0509 23:09:51.352471 19421 net.cpp:122] Setting up label_val-data_1_split
I0509 23:09:51.352476 19421 net.cpp:129] Top shape: 32 (32)
I0509 23:09:51.352480 19421 net.cpp:129] Top shape: 32 (32)
I0509 23:09:51.352483 19421 net.cpp:137] Memory required for data: 19787520
I0509 23:09:51.352485 19421 layer_factory.hpp:77] Creating layer conv1
I0509 23:09:51.352502 19421 net.cpp:84] Creating Layer conv1
I0509 23:09:51.352505 19421 net.cpp:406] conv1 <- data
I0509 23:09:51.352511 19421 net.cpp:380] conv1 -> conv1
I0509 23:09:51.355558 19421 net.cpp:122] Setting up conv1
I0509 23:09:51.355569 19421 net.cpp:129] Top shape: 32 96 55 55 (9292800)
I0509 23:09:51.355572 19421 net.cpp:137] Memory required for data: 56958720
I0509 23:09:51.355581 19421 layer_factory.hpp:77] Creating layer relu1
I0509 23:09:51.355587 19421 net.cpp:84] Creating Layer relu1
I0509 23:09:51.355590 19421 net.cpp:406] relu1 <- conv1
I0509 23:09:51.355595 19421 net.cpp:367] relu1 -> conv1 (in-place)
I0509 23:09:51.355913 19421 net.cpp:122] Setting up relu1
I0509 23:09:51.355922 19421 net.cpp:129] Top shape: 32 96 55 55 (9292800)
I0509 23:09:51.355926 19421 net.cpp:137] Memory required for data: 94129920
I0509 23:09:51.355928 19421 layer_factory.hpp:77] Creating layer norm1
I0509 23:09:51.355937 19421 net.cpp:84] Creating Layer norm1
I0509 23:09:51.355939 19421 net.cpp:406] norm1 <- conv1
I0509 23:09:51.355944 19421 net.cpp:380] norm1 -> norm1
I0509 23:09:51.356449 19421 net.cpp:122] Setting up norm1
I0509 23:09:51.356459 19421 net.cpp:129] Top shape: 32 96 55 55 (9292800)
I0509 23:09:51.356462 19421 net.cpp:137] Memory required for data: 131301120
I0509 23:09:51.356465 19421 layer_factory.hpp:77] Creating layer pool1
I0509 23:09:51.356472 19421 net.cpp:84] Creating Layer pool1
I0509 23:09:51.356474 19421 net.cpp:406] pool1 <- norm1
I0509 23:09:51.356479 19421 net.cpp:380] pool1 -> pool1
I0509 23:09:51.356515 19421 net.cpp:122] Setting up pool1
I0509 23:09:51.356521 19421 net.cpp:129] Top shape: 32 96 27 27 (2239488)
I0509 23:09:51.356524 19421 net.cpp:137] Memory required for data: 140259072
I0509 23:09:51.356528 19421 layer_factory.hpp:77] Creating layer conv2
I0509 23:09:51.356534 19421 net.cpp:84] Creating Layer conv2
I0509 23:09:51.356537 19421 net.cpp:406] conv2 <- pool1
I0509 23:09:51.356562 19421 net.cpp:380] conv2 -> conv2
I0509 23:09:51.365548 19421 net.cpp:122] Setting up conv2
I0509 23:09:51.365562 19421 net.cpp:129] Top shape: 32 256 27 27 (5971968)
I0509 23:09:51.365566 19421 net.cpp:137] Memory required for data: 164146944
I0509 23:09:51.365576 19421 layer_factory.hpp:77] Creating layer relu2
I0509 23:09:51.365584 19421 net.cpp:84] Creating Layer relu2
I0509 23:09:51.365588 19421 net.cpp:406] relu2 <- conv2
I0509 23:09:51.365593 19421 net.cpp:367] relu2 -> conv2 (in-place)
I0509 23:09:51.366143 19421 net.cpp:122] Setting up relu2
I0509 23:09:51.366154 19421 net.cpp:129] Top shape: 32 256 27 27 (5971968)
I0509 23:09:51.366158 19421 net.cpp:137] Memory required for data: 188034816
I0509 23:09:51.366160 19421 layer_factory.hpp:77] Creating layer norm2
I0509 23:09:51.366169 19421 net.cpp:84] Creating Layer norm2
I0509 23:09:51.366173 19421 net.cpp:406] norm2 <- conv2
I0509 23:09:51.366178 19421 net.cpp:380] norm2 -> norm2
I0509 23:09:51.366925 19421 net.cpp:122] Setting up norm2
I0509 23:09:51.366935 19421 net.cpp:129] Top shape: 32 256 27 27 (5971968)
I0509 23:09:51.366937 19421 net.cpp:137] Memory required for data: 211922688
I0509 23:09:51.366940 19421 layer_factory.hpp:77] Creating layer pool2
I0509 23:09:51.366946 19421 net.cpp:84] Creating Layer pool2
I0509 23:09:51.366950 19421 net.cpp:406] pool2 <- norm2
I0509 23:09:51.366956 19421 net.cpp:380] pool2 -> pool2
I0509 23:09:51.366987 19421 net.cpp:122] Setting up pool2
I0509 23:09:51.366994 19421 net.cpp:129] Top shape: 32 256 13 13 (1384448)
I0509 23:09:51.366997 19421 net.cpp:137] Memory required for data: 217460480
I0509 23:09:51.366999 19421 layer_factory.hpp:77] Creating layer conv3
I0509 23:09:51.367008 19421 net.cpp:84] Creating Layer conv3
I0509 23:09:51.367012 19421 net.cpp:406] conv3 <- pool2
I0509 23:09:51.367017 19421 net.cpp:380] conv3 -> conv3
I0509 23:09:51.378883 19421 net.cpp:122] Setting up conv3
I0509 23:09:51.378903 19421 net.cpp:129] Top shape: 32 384 13 13 (2076672)
I0509 23:09:51.378906 19421 net.cpp:137] Memory required for data: 225767168
I0509 23:09:51.378919 19421 layer_factory.hpp:77] Creating layer relu3
I0509 23:09:51.378927 19421 net.cpp:84] Creating Layer relu3
I0509 23:09:51.378932 19421 net.cpp:406] relu3 <- conv3
I0509 23:09:51.378937 19421 net.cpp:367] relu3 -> conv3 (in-place)
I0509 23:09:51.379515 19421 net.cpp:122] Setting up relu3
I0509 23:09:51.379524 19421 net.cpp:129] Top shape: 32 384 13 13 (2076672)
I0509 23:09:51.379529 19421 net.cpp:137] Memory required for data: 234073856
I0509 23:09:51.379532 19421 layer_factory.hpp:77] Creating layer conv4
I0509 23:09:51.379544 19421 net.cpp:84] Creating Layer conv4
I0509 23:09:51.379549 19421 net.cpp:406] conv4 <- conv3
I0509 23:09:51.379555 19421 net.cpp:380] conv4 -> conv4
I0509 23:09:51.389884 19421 net.cpp:122] Setting up conv4
I0509 23:09:51.389902 19421 net.cpp:129] Top shape: 32 384 13 13 (2076672)
I0509 23:09:51.389905 19421 net.cpp:137] Memory required for data: 242380544
I0509 23:09:51.389914 19421 layer_factory.hpp:77] Creating layer relu4
I0509 23:09:51.389920 19421 net.cpp:84] Creating Layer relu4
I0509 23:09:51.389926 19421 net.cpp:406] relu4 <- conv4
I0509 23:09:51.389931 19421 net.cpp:367] relu4 -> conv4 (in-place)
I0509 23:09:51.390309 19421 net.cpp:122] Setting up relu4
I0509 23:09:51.390318 19421 net.cpp:129] Top shape: 32 384 13 13 (2076672)
I0509 23:09:51.390321 19421 net.cpp:137] Memory required for data: 250687232
I0509 23:09:51.390324 19421 layer_factory.hpp:77] Creating layer conv5
I0509 23:09:51.390336 19421 net.cpp:84] Creating Layer conv5
I0509 23:09:51.390339 19421 net.cpp:406] conv5 <- conv4
I0509 23:09:51.390347 19421 net.cpp:380] conv5 -> conv5
I0509 23:09:51.400004 19421 net.cpp:122] Setting up conv5
I0509 23:09:51.400023 19421 net.cpp:129] Top shape: 32 256 13 13 (1384448)
I0509 23:09:51.400027 19421 net.cpp:137] Memory required for data: 256225024
I0509 23:09:51.400040 19421 layer_factory.hpp:77] Creating layer relu5
I0509 23:09:51.400048 19421 net.cpp:84] Creating Layer relu5
I0509 23:09:51.400053 19421 net.cpp:406] relu5 <- conv5
I0509 23:09:51.400080 19421 net.cpp:367] relu5 -> conv5 (in-place)
I0509 23:09:51.400638 19421 net.cpp:122] Setting up relu5
I0509 23:09:51.400648 19421 net.cpp:129] Top shape: 32 256 13 13 (1384448)
I0509 23:09:51.400651 19421 net.cpp:137] Memory required for data: 261762816
I0509 23:09:51.400655 19421 layer_factory.hpp:77] Creating layer pool5
I0509 23:09:51.400665 19421 net.cpp:84] Creating Layer pool5
I0509 23:09:51.400668 19421 net.cpp:406] pool5 <- conv5
I0509 23:09:51.400674 19421 net.cpp:380] pool5 -> pool5
I0509 23:09:51.400715 19421 net.cpp:122] Setting up pool5
I0509 23:09:51.400720 19421 net.cpp:129] Top shape: 32 256 6 6 (294912)
I0509 23:09:51.400723 19421 net.cpp:137] Memory required for data: 262942464
I0509 23:09:51.400727 19421 layer_factory.hpp:77] Creating layer fc6
I0509 23:09:51.400735 19421 net.cpp:84] Creating Layer fc6
I0509 23:09:51.400738 19421 net.cpp:406] fc6 <- pool5
I0509 23:09:51.400745 19421 net.cpp:380] fc6 -> fc6
I0509 23:09:51.760848 19421 net.cpp:122] Setting up fc6
I0509 23:09:51.760872 19421 net.cpp:129] Top shape: 32 4096 (131072)
I0509 23:09:51.760875 19421 net.cpp:137] Memory required for data: 263466752
I0509 23:09:51.760885 19421 layer_factory.hpp:77] Creating layer relu6
I0509 23:09:51.760893 19421 net.cpp:84] Creating Layer relu6
I0509 23:09:51.760897 19421 net.cpp:406] relu6 <- fc6
I0509 23:09:51.760906 19421 net.cpp:367] relu6 -> fc6 (in-place)
I0509 23:09:51.761723 19421 net.cpp:122] Setting up relu6
I0509 23:09:51.761736 19421 net.cpp:129] Top shape: 32 4096 (131072)
I0509 23:09:51.761739 19421 net.cpp:137] Memory required for data: 263991040
I0509 23:09:51.761742 19421 layer_factory.hpp:77] Creating layer drop6
I0509 23:09:51.761751 19421 net.cpp:84] Creating Layer drop6
I0509 23:09:51.761755 19421 net.cpp:406] drop6 <- fc6
I0509 23:09:51.761760 19421 net.cpp:367] drop6 -> fc6 (in-place)
I0509 23:09:51.761790 19421 net.cpp:122] Setting up drop6
I0509 23:09:51.761795 19421 net.cpp:129] Top shape: 32 4096 (131072)
I0509 23:09:51.761798 19421 net.cpp:137] Memory required for data: 264515328
I0509 23:09:51.761801 19421 layer_factory.hpp:77] Creating layer fc7
I0509 23:09:51.761807 19421 net.cpp:84] Creating Layer fc7
I0509 23:09:51.761811 19421 net.cpp:406] fc7 <- fc6
I0509 23:09:51.761817 19421 net.cpp:380] fc7 -> fc7
I0509 23:09:51.921888 19421 net.cpp:122] Setting up fc7
I0509 23:09:51.921909 19421 net.cpp:129] Top shape: 32 4096 (131072)
I0509 23:09:51.921912 19421 net.cpp:137] Memory required for data: 265039616
I0509 23:09:51.921921 19421 layer_factory.hpp:77] Creating layer relu7
I0509 23:09:51.921931 19421 net.cpp:84] Creating Layer relu7
I0509 23:09:51.921934 19421 net.cpp:406] relu7 <- fc7
I0509 23:09:51.921942 19421 net.cpp:367] relu7 -> fc7 (in-place)
I0509 23:09:51.922432 19421 net.cpp:122] Setting up relu7
I0509 23:09:51.922441 19421 net.cpp:129] Top shape: 32 4096 (131072)
I0509 23:09:51.922443 19421 net.cpp:137] Memory required for data: 265563904
I0509 23:09:51.922447 19421 layer_factory.hpp:77] Creating layer drop7
I0509 23:09:51.922453 19421 net.cpp:84] Creating Layer drop7
I0509 23:09:51.922456 19421 net.cpp:406] drop7 <- fc7
I0509 23:09:51.922466 19421 net.cpp:367] drop7 -> fc7 (in-place)
I0509 23:09:51.922489 19421 net.cpp:122] Setting up drop7
I0509 23:09:51.922495 19421 net.cpp:129] Top shape: 32 4096 (131072)
I0509 23:09:51.922498 19421 net.cpp:137] Memory required for data: 266088192
I0509 23:09:51.922502 19421 layer_factory.hpp:77] Creating layer fc8
I0509 23:09:51.922508 19421 net.cpp:84] Creating Layer fc8
I0509 23:09:51.922510 19421 net.cpp:406] fc8 <- fc7
I0509 23:09:51.922516 19421 net.cpp:380] fc8 -> fc8
I0509 23:09:51.930371 19421 net.cpp:122] Setting up fc8
I0509 23:09:51.930385 19421 net.cpp:129] Top shape: 32 196 (6272)
I0509 23:09:51.930388 19421 net.cpp:137] Memory required for data: 266113280
I0509 23:09:51.930393 19421 layer_factory.hpp:77] Creating layer fc8_fc8_0_split
I0509 23:09:51.930399 19421 net.cpp:84] Creating Layer fc8_fc8_0_split
I0509 23:09:51.930402 19421 net.cpp:406] fc8_fc8_0_split <- fc8
I0509 23:09:51.930428 19421 net.cpp:380] fc8_fc8_0_split -> fc8_fc8_0_split_0
I0509 23:09:51.930434 19421 net.cpp:380] fc8_fc8_0_split -> fc8_fc8_0_split_1
I0509 23:09:51.930467 19421 net.cpp:122] Setting up fc8_fc8_0_split
I0509 23:09:51.930472 19421 net.cpp:129] Top shape: 32 196 (6272)
I0509 23:09:51.930475 19421 net.cpp:129] Top shape: 32 196 (6272)
I0509 23:09:51.930477 19421 net.cpp:137] Memory required for data: 266163456
I0509 23:09:51.930480 19421 layer_factory.hpp:77] Creating layer accuracy
I0509 23:09:51.930486 19421 net.cpp:84] Creating Layer accuracy
I0509 23:09:51.930490 19421 net.cpp:406] accuracy <- fc8_fc8_0_split_0
I0509 23:09:51.930492 19421 net.cpp:406] accuracy <- label_val-data_1_split_0
I0509 23:09:51.930498 19421 net.cpp:380] accuracy -> accuracy
…
