…
I0429 16:29:53.957978 11703 net.cpp:294] The NetState phase (0) differed from the phase (1) specified by a rule in layer accuracy
I0429 16:29:53.958120 11703 net.cpp:51] Initializing net from parameters:
state {
phase: TRAIN
level: 0
stage: ""
}
layer {
name: "train-data"
type: "Data"
top: "data"
top: "label"
include {
phase: TRAIN
}
transform_param {
mirror: true
crop_size: 227
mean_file: "/mnt/bigdisk/MANDIG2/digits/jobs/20200428-132136-11fe/mean.binaryproto"
}
data_param {
source: "/mnt/bigdisk/MANDIG2/digits/jobs/20200428-132136-11fe/train_db"
batch_size: 128
backend: LMDB
}
}
layer {
name: "conv1"
type: "Convolution"
bottom: "data"
top: "conv1"
param {
lr_mult: 1
decay_mult: 1
}
param {
lr_mult: 2
decay_mult: 0
}
convolution_param {
num_output: 96
kernel_size: 11
stride: 4
weight_filler {
type: "gaussian"
std: 0.01
}
bias_filler {
type: "constant"
value: 0
}
}
}
layer {
name: "relu1"
type: "ReLU"
bottom: "conv1"
top: "conv1"
}
layer {
name: "norm1"
type: "LRN"
bottom: "conv1"
top: "norm1"
lrn_param {
local_size: 5
alpha: 0.0001
beta: 0.75
}
}
layer {
name: "pool1"
type: "Pooling"
bottom: "norm1"
top: "pool1"
pooling_param {
pool: MAX
kernel_size: 3
stride: 2
}
}
layer {
name: "conv2"
type: "Convolution"
bottom: "pool1"
top: "conv2"
param {
lr_mult: 1
decay_mult: 1
}
param {
lr_mult: 2
decay_mult: 0
}
convolution_param {
num_output: 256
pad: 2
kernel_size: 5
group: 2
weight_filler {
type: "gaussian"
std: 0.01
}
bias_filler {
type: "constant"
value: 0.1
}
}
}
layer {
name: "relu2"
type: "ReLU"
bottom: "conv2"
top: "conv2"
}
layer {
name: "norm2"
type: "LRN"
bottom: "conv2"
top: "norm2"
lrn_param {
local_size: 5
alpha: 0.0001
beta: 0.75
}
}
layer {
name: "pool2"
type: "Pooling"
bottom: "norm2"
top: "pool2"
pooling_param {
pool: MAX
kernel_size: 3
stride: 2
}
}
layer {
name: "conv3"
type: "Convolution"
bottom: "pool2"
top: "conv3"
param {
lr_mult: 1
decay_mult: 1
}
param {
lr_mult: 2
decay_mult: 0
}
convolution_param {
num_output: 384
pad: 1
kernel_size: 3
weight_filler {
type: "gaussian"
std: 0.01
}
bias_filler {
type: "constant"
value: 0
}
}
}
layer {
name: "relu3"
type: "ReLU"
bottom: "conv3"
top: "conv3"
}
layer {
name: "conv4"
type: "Convolution"
bottom: "conv3"
top: "conv4"
param {
lr_mult: 1
decay_mult: 1
}
param {
lr_mult: 2
decay_mult: 0
}
convolution_param {
num_output: 384
pad: 1
kernel_size: 3
group: 2
weight_filler {
type: "gaussian"
std: 0.01
}
bias_filler {
type: "constant"
value: 0.1
}
}
}
layer {
name: "relu4"
type: "ReLU"
bottom: "conv4"
top: "conv4"
}
layer {
name: "conv5"
type: "Convolution"
bottom: "conv4"
top: "conv5"
param {
lr_mult: 1
decay_mult: 1
}
param {
lr_mult: 2
decay_mult: 0
}
convolution_param {
num_output: 256
pad: 1
kernel_size: 3
group: 2
weight_filler {
type: "gaussian"
std: 0.01
}
bias_filler {
type: "constant"
value: 0.1
}
}
}
layer {
name: "relu5"
type: "ReLU"
bottom: "conv5"
top: "conv5"
}
layer {
name: "pool5"
type: "Pooling"
bottom: "conv5"
top: "pool5"
pooling_param {
pool: MAX
kernel_size: 3
stride: 2
}
}
layer {
name: "fc6"
type: "InnerProduct"
bottom: "pool5"
top: "fc6"
param {
lr_mult: 1
decay_mult: 1
}
param {
lr_mult: 2
decay_mult: 0
}
inner_product_param {
num_output: 4096
weight_filler {
type: "gaussian"
std: 0.005
}
bias_filler {
type: "constant"
value: 0.1
}
}
}
layer {
name: "relu6"
type: "ReLU"
bottom: "fc6"
top: "fc6"
}
layer {
name: "drop6"
type: "Dropout"
bottom: "fc6"
top: "fc6"
dropout_param {
dropout_ratio: 0.5
}
}
layer {
name: "fc7"
type: "InnerProduct"
bottom: "fc6"
top: "fc7"
param {
lr_mult: 1
decay_mult: 1
}
param {
lr_mult: 2
decay_mult: 0
}
inner_product_param {
num_output: 4096
weight_filler {
type: "gaussian"
std: 0.005
}
bias_filler {
type: "constant"
value: 0.1
}
}
}
layer {
name: "relu7"
type: "ReLU"
bottom: "fc7"
top: "fc7"
}
layer {
name: "drop7"
type: "Dropout"
bottom: "fc7"
top: "fc7"
dropout_param {
dropout_ratio: 0.5
}
}
layer {
name: "fc8"
type: "InnerProduct"
bottom: "fc7"
top: "fc8"
param {
lr_mult: 1
decay_mult: 1
}
param {
lr_mult: 2
decay_mult: 0
}
inner_product_param {
num_output: 196
weight_filler {
type: "gaussian"
std: 0.01
}
bias_filler {
type: "constant"
value: 0
}
}
}
layer {
name: "loss"
type: "SoftmaxWithLoss"
bottom: "fc8"
bottom: "label"
top: "loss"
}
I0429 16:29:53.958220 11703 layer_factory.hpp:77] Creating layer train-data
I0429 16:29:53.960248 11703 db_lmdb.cpp:35] Opened lmdb /mnt/bigdisk/MANDIG2/digits/jobs/20200428-132136-11fe/train_db
I0429 16:29:53.960422 11703 net.cpp:84] Creating Layer train-data
I0429 16:29:53.960435 11703 net.cpp:380] train-data -> data
I0429 16:29:53.960459 11703 net.cpp:380] train-data -> label
I0429 16:29:53.960472 11703 data_transformer.cpp:25] Loading mean file from: /mnt/bigdisk/MANDIG2/digits/jobs/20200428-132136-11fe/mean.binaryproto
I0429 16:29:53.973450 11703 data_layer.cpp:45] output data size: 128,3,227,227
I0429 16:29:54.179435 11703 net.cpp:122] Setting up train-data
I0429 16:29:54.179466 11703 net.cpp:129] Top shape: 128 3 227 227 (19787136)
I0429 16:29:54.179474 11703 net.cpp:129] Top shape: 128 (128)
I0429 16:29:54.179482 11703 net.cpp:137] Memory required for data: 79149056
I0429 16:29:54.179495 11703 layer_factory.hpp:77] Creating layer conv1
I0429 16:29:54.179523 11703 net.cpp:84] Creating Layer conv1
I0429 16:29:54.179533 11703 net.cpp:406] conv1 <- data
I0429 16:29:54.179550 11703 net.cpp:380] conv1 -> conv1
I0429 16:29:56.193890 11703 net.cpp:122] Setting up conv1
I0429 16:29:56.193922 11703 net.cpp:129] Top shape: 128 96 55 55 (37171200)
I0429 16:29:56.193933 11703 net.cpp:137] Memory required for data: 227833856
I0429 16:29:56.193962 11703 layer_factory.hpp:77] Creating layer relu1
I0429 16:29:56.193980 11703 net.cpp:84] Creating Layer relu1
I0429 16:29:56.193990 11703 net.cpp:406] relu1 <- conv1
I0429 16:29:56.194003 11703 net.cpp:367] relu1 -> conv1 (in-place)
I0429 16:29:56.194366 11703 net.cpp:122] Setting up relu1
I0429 16:29:56.194381 11703 net.cpp:129] Top shape: 128 96 55 55 (37171200)
I0429 16:29:56.194389 11703 net.cpp:137] Memory required for data: 376518656
I0429 16:29:56.194396 11703 layer_factory.hpp:77] Creating layer norm1
I0429 16:29:56.194411 11703 net.cpp:84] Creating Layer norm1
I0429 16:29:56.194417 11703 net.cpp:406] norm1 <- conv1
I0429 16:29:56.194450 11703 net.cpp:380] norm1 -> norm1
I0429 16:29:56.196818 11703 net.cpp:122] Setting up norm1
I0429 16:29:56.196832 11703 net.cpp:129] Top shape: 128 96 55 55 (37171200)
I0429 16:29:56.196839 11703 net.cpp:137] Memory required for data: 525203456
I0429 16:29:56.196847 11703 layer_factory.hpp:77] Creating layer pool1
I0429 16:29:56.196861 11703 net.cpp:84] Creating Layer pool1
I0429 16:29:56.196867 11703 net.cpp:406] pool1 <- norm1
I0429 16:29:56.196878 11703 net.cpp:380] pool1 -> pool1
I0429 16:29:56.196923 11703 net.cpp:122] Setting up pool1
I0429 16:29:56.196933 11703 net.cpp:129] Top shape: 128 96 27 27 (8957952)
I0429 16:29:56.196940 11703 net.cpp:137] Memory required for data: 561035264
I0429 16:29:56.196947 11703 layer_factory.hpp:77] Creating layer conv2
I0429 16:29:56.196964 11703 net.cpp:84] Creating Layer conv2
I0429 16:29:56.196969 11703 net.cpp:406] conv2 <- pool1
I0429 16:29:56.196979 11703 net.cpp:380] conv2 -> conv2
I0429 16:29:56.211151 11703 net.cpp:122] Setting up conv2
I0429 16:29:56.211174 11703 net.cpp:129] Top shape: 128 256 27 27 (23887872)
I0429 16:29:56.211179 11703 net.cpp:137] Memory required for data: 656586752
I0429 16:29:56.211194 11703 layer_factory.hpp:77] Creating layer relu2
I0429 16:29:56.211205 11703 net.cpp:84] Creating Layer relu2
I0429 16:29:56.211210 11703 net.cpp:406] relu2 <- conv2
I0429 16:29:56.211218 11703 net.cpp:367] relu2 -> conv2 (in-place)
I0429 16:29:56.211794 11703 net.cpp:122] Setting up relu2
I0429 16:29:56.211805 11703 net.cpp:129] Top shape: 128 256 27 27 (23887872)
I0429 16:29:56.211810 11703 net.cpp:137] Memory required for data: 752138240
I0429 16:29:56.211815 11703 layer_factory.hpp:77] Creating layer norm2
I0429 16:29:56.211825 11703 net.cpp:84] Creating Layer norm2
I0429 16:29:56.211829 11703 net.cpp:406] norm2 <- conv2
I0429 16:29:56.211838 11703 net.cpp:380] norm2 -> norm2
I0429 16:29:56.212206 11703 net.cpp:122] Setting up norm2
I0429 16:29:56.212216 11703 net.cpp:129] Top shape: 128 256 27 27 (23887872)
I0429 16:29:56.212222 11703 net.cpp:137] Memory required for data: 847689728
I0429 16:29:56.212226 11703 layer_factory.hpp:77] Creating layer pool2
I0429 16:29:56.212237 11703 net.cpp:84] Creating Layer pool2
I0429 16:29:56.212242 11703 net.cpp:406] pool2 <- norm2
I0429 16:29:56.212249 11703 net.cpp:380] pool2 -> pool2
I0429 16:29:56.212280 11703 net.cpp:122] Setting up pool2
I0429 16:29:56.212285 11703 net.cpp:129] Top shape: 128 256 13 13 (5537792)
I0429 16:29:56.212291 11703 net.cpp:137] Memory required for data: 869840896
I0429 16:29:56.212294 11703 layer_factory.hpp:77] Creating layer conv3
I0429 16:29:56.212306 11703 net.cpp:84] Creating Layer conv3
I0429 16:29:56.212311 11703 net.cpp:406] conv3 <- pool2
I0429 16:29:56.212318 11703 net.cpp:380] conv3 -> conv3
I0429 16:29:56.240027 11703 net.cpp:122] Setting up conv3
I0429 16:29:56.240062 11703 net.cpp:129] Top shape: 128 384 13 13 (8306688)
I0429 16:29:56.240069 11703 net.cpp:137] Memory required for data: 903067648
I0429 16:29:56.240089 11703 layer_factory.hpp:77] Creating layer relu3
I0429 16:29:56.240104 11703 net.cpp:84] Creating Layer relu3
I0429 16:29:56.240113 11703 net.cpp:406] relu3 <- conv3
I0429 16:29:56.240125 11703 net.cpp:367] relu3 -> conv3 (in-place)
I0429 16:29:56.243042 11703 net.cpp:122] Setting up relu3
I0429 16:29:56.243062 11703 net.cpp:129] Top shape: 128 384 13 13 (8306688)
I0429 16:29:56.243072 11703 net.cpp:137] Memory required for data: 936294400
I0429 16:29:56.243083 11703 layer_factory.hpp:77] Creating layer conv4
I0429 16:29:56.243106 11703 net.cpp:84] Creating Layer conv4
I0429 16:29:56.243115 11703 net.cpp:406] conv4 <- conv3
I0429 16:29:56.243130 11703 net.cpp:380] conv4 -> conv4
I0429 16:29:56.271222 11703 net.cpp:122] Setting up conv4
I0429 16:29:56.271253 11703 net.cpp:129] Top shape: 128 384 13 13 (8306688)
I0429 16:29:56.271265 11703 net.cpp:137] Memory required for data: 969521152
I0429 16:29:56.271281 11703 layer_factory.hpp:77] Creating layer relu4
I0429 16:29:56.271296 11703 net.cpp:84] Creating Layer relu4
I0429 16:29:56.271330 11703 net.cpp:406] relu4 <- conv4
I0429 16:29:56.271342 11703 net.cpp:367] relu4 -> conv4 (in-place)
I0429 16:29:56.271832 11703 net.cpp:122] Setting up relu4
I0429 16:29:56.271848 11703 net.cpp:129] Top shape: 128 384 13 13 (8306688)
I0429 16:29:56.271857 11703 net.cpp:137] Memory required for data: 1002747904
I0429 16:29:56.271865 11703 layer_factory.hpp:77] Creating layer conv5
I0429 16:29:56.271886 11703 net.cpp:84] Creating Layer conv5
I0429 16:29:56.271894 11703 net.cpp:406] conv5 <- conv4
I0429 16:29:56.271908 11703 net.cpp:380] conv5 -> conv5
I0429 16:29:56.293859 11703 net.cpp:122] Setting up conv5
I0429 16:29:56.293891 11703 net.cpp:129] Top shape: 128 256 13 13 (5537792)
I0429 16:29:56.293900 11703 net.cpp:137] Memory required for data: 1024899072
I0429 16:29:56.293922 11703 layer_factory.hpp:77] Creating layer relu5
I0429 16:29:56.293942 11703 net.cpp:84] Creating Layer relu5
I0429 16:29:56.293951 11703 net.cpp:406] relu5 <- conv5
I0429 16:29:56.293963 11703 net.cpp:367] relu5 -> conv5 (in-place)
I0429 16:29:56.294807 11703 net.cpp:122] Setting up relu5
I0429 16:29:56.294824 11703 net.cpp:129] Top shape: 128 256 13 13 (5537792)
I0429 16:29:56.294831 11703 net.cpp:137] Memory required for data: 1047050240
I0429 16:29:56.294839 11703 layer_factory.hpp:77] Creating layer pool5
I0429 16:29:56.294857 11703 net.cpp:84] Creating Layer pool5
I0429 16:29:56.294872 11703 net.cpp:406] pool5 <- conv5
I0429 16:29:56.294885 11703 net.cpp:380] pool5 -> pool5
I0429 16:29:56.294945 11703 net.cpp:122] Setting up pool5
I0429 16:29:56.294960 11703 net.cpp:129] Top shape: 128 256 6 6 (1179648)
I0429 16:29:56.294972 11703 net.cpp:137] Memory required for data: 1051768832
I0429 16:29:56.294981 11703 layer_factory.hpp:77] Creating layer fc6
I0429 16:29:56.295001 11703 net.cpp:84] Creating Layer fc6
I0429 16:29:56.295012 11703 net.cpp:406] fc6 <- pool5
I0429 16:29:56.295025 11703 net.cpp:380] fc6 -> fc6
I0429 16:29:56.905702 11703 net.cpp:122] Setting up fc6
I0429 16:29:56.905748 11703 net.cpp:129] Top shape: 128 4096 (524288)
I0429 16:29:56.905757 11703 net.cpp:137] Memory required for data: 1053865984
I0429 16:29:56.905782 11703 layer_factory.hpp:77] Creating layer relu6
I0429 16:29:56.905812 11703 net.cpp:84] Creating Layer relu6
I0429 16:29:56.905827 11703 net.cpp:406] relu6 <- fc6
I0429 16:29:56.905845 11703 net.cpp:367] relu6 -> fc6 (in-place)
I0429 16:29:56.918644 11703 net.cpp:122] Setting up relu6
I0429 16:29:56.918676 11703 net.cpp:129] Top shape: 128 4096 (524288)
I0429 16:29:56.918691 11703 net.cpp:137] Memory required for data: 1055963136
I0429 16:29:56.918704 11703 layer_factory.hpp:77] Creating layer drop6
I0429 16:29:56.918722 11703 net.cpp:84] Creating Layer drop6
I0429 16:29:56.918733 11703 net.cpp:406] drop6 <- fc6
I0429 16:29:56.918749 11703 net.cpp:367] drop6 -> fc6 (in-place)
I0429 16:29:56.918804 11703 net.cpp:122] Setting up drop6
I0429 16:29:56.918820 11703 net.cpp:129] Top shape: 128 4096 (524288)
I0429 16:29:56.918829 11703 net.cpp:137] Memory required for data: 1058060288
I0429 16:29:56.918839 11703 layer_factory.hpp:77] Creating layer fc7
I0429 16:29:56.918861 11703 net.cpp:84] Creating Layer fc7
I0429 16:29:56.918869 11703 net.cpp:406] fc7 <- fc6
I0429 16:29:56.918884 11703 net.cpp:380] fc7 -> fc7
I0429 16:29:57.170477 11703 net.cpp:122] Setting up fc7
I0429 16:29:57.170536 11703 net.cpp:129] Top shape: 128 4096 (524288)
I0429 16:29:57.170543 11703 net.cpp:137] Memory required for data: 1060157440
I0429 16:29:57.170557 11703 layer_factory.hpp:77] Creating layer relu7
I0429 16:29:57.170572 11703 net.cpp:84] Creating Layer relu7
I0429 16:29:57.170578 11703 net.cpp:406] relu7 <- fc7
I0429 16:29:57.170589 11703 net.cpp:367] relu7 -> fc7 (in-place)
I0429 16:29:57.175920 11703 net.cpp:122] Setting up relu7
I0429 16:29:57.175938 11703 net.cpp:129] Top shape: 128 4096 (524288)
I0429 16:29:57.175947 11703 net.cpp:137] Memory required for data: 1062254592
I0429 16:29:57.175956 11703 layer_factory.hpp:77] Creating layer drop7
I0429 16:29:57.175971 11703 net.cpp:84] Creating Layer drop7
I0429 16:29:57.175978 11703 net.cpp:406] drop7 <- fc7
I0429 16:29:57.176025 11703 net.cpp:367] drop7 -> fc7 (in-place)
I0429 16:29:57.176074 11703 net.cpp:122] Setting up drop7
I0429 16:29:57.176086 11703 net.cpp:129] Top shape: 128 4096 (524288)
I0429 16:29:57.176093 11703 net.cpp:137] Memory required for data: 1064351744
I0429 16:29:57.176101 11703 layer_factory.hpp:77] Creating layer fc8
I0429 16:29:57.176120 11703 net.cpp:84] Creating Layer fc8
I0429 16:29:57.176131 11703 net.cpp:406] fc8 <- fc7
I0429 16:29:57.176146 11703 net.cpp:380] fc8 -> fc8
I0429 16:29:57.192416 11703 net.cpp:122] Setting up fc8
I0429 16:29:57.192440 11703 net.cpp:129] Top shape: 128 196 (25088)
I0429 16:29:57.192447 11703 net.cpp:137] Memory required for data: 1064452096
I0429 16:29:57.192461 11703 layer_factory.hpp:77] Creating layer loss
I0429 16:29:57.192473 11703 net.cpp:84] Creating Layer loss
I0429 16:29:57.192482 11703 net.cpp:406] loss <- fc8
I0429 16:29:57.192490 11703 net.cpp:406] loss <- label
I0429 16:29:57.192500 11703 net.cpp:380] loss -> loss
I0429 16:29:57.192512 11703 layer_factory.hpp:77] Creating layer loss
…
I0429 16:29:57.193929 11703 solver.cpp:172] Creating test net (#0) specified by net file: train_val.prototxt
I0429 16:29:57.193959 11703 net.cpp:294] The NetState phase (1) differed from the phase (0) specified by a rule in layer train-data
I0429 16:29:57.194101 11703 net.cpp:51] Initializing net from parameters:
state {
phase: TEST
}
layer {
name: "val-data"
type: "Data"
top: "data"
top: "label"
include {
phase: TEST
}
transform_param {
crop_size: 227
mean_file: "/mnt/bigdisk/MANDIG2/digits/jobs/20200428-132136-11fe/mean.binaryproto"
}
data_param {
source: "/mnt/bigdisk/MANDIG2/digits/jobs/20200428-132136-11fe/val_db"
batch_size: 32
backend: LMDB
}
}
layer {
name: "conv1"
type: "Convolution"
bottom: "data"
top: "conv1"
param {
lr_mult: 1
decay_mult: 1
}
param {
lr_mult: 2
decay_mult: 0
}
convolution_param {
num_output: 96
kernel_size: 11
stride: 4
weight_filler {
type: "gaussian"
std: 0.01
}
bias_filler {
type: "constant"
value: 0
}
}
}
layer {
name: "relu1"
type: "ReLU"
bottom: "conv1"
top: "conv1"
}
layer {
name: "norm1"
type: "LRN"
bottom: "conv1"
top: "norm1"
lrn_param {
local_size: 5
alpha: 0.0001
beta: 0.75
}
}
layer {
name: "pool1"
type: "Pooling"
bottom: "norm1"
top: "pool1"
pooling_param {
pool: MAX
kernel_size: 3
stride: 2
}
}
layer {
name: "conv2"
type: "Convolution"
bottom: "pool1"
top: "conv2"
param {
lr_mult: 1
decay_mult: 1
}
param {
lr_mult: 2
decay_mult: 0
}
convolution_param {
num_output: 256
pad: 2
kernel_size: 5
group: 2
weight_filler {
type: "gaussian"
std: 0.01
}
bias_filler {
type: "constant"
value: 0.1
}
}
}
layer {
name: "relu2"
type: "ReLU"
bottom: "conv2"
top: "conv2"
}
layer {
name: "norm2"
type: "LRN"
bottom: "conv2"
top: "norm2"
lrn_param {
local_size: 5
alpha: 0.0001
beta: 0.75
}
}
layer {
name: "pool2"
type: "Pooling"
bottom: "norm2"
top: "pool2"
pooling_param {
pool: MAX
kernel_size: 3
stride: 2
}
}
layer {
name: "conv3"
type: "Convolution"
bottom: "pool2"
top: "conv3"
param {
lr_mult: 1
decay_mult: 1
}
param {
lr_mult: 2
decay_mult: 0
}
convolution_param {
num_output: 384
pad: 1
kernel_size: 3
weight_filler {
type: "gaussian"
std: 0.01
}
bias_filler {
type: "constant"
value: 0
}
}
}
layer {
name: "relu3"
type: "ReLU"
bottom: "conv3"
top: "conv3"
}
layer {
name: "conv4"
type: "Convolution"
bottom: "conv3"
top: "conv4"
param {
lr_mult: 1
decay_mult: 1
}
param {
lr_mult: 2
decay_mult: 0
}
convolution_param {
num_output: 384
pad: 1
kernel_size: 3
group: 2
weight_filler {
type: "gaussian"
std: 0.01
}
bias_filler {
type: "constant"
value: 0.1
}
}
}
layer {
name: "relu4"
type: "ReLU"
bottom: "conv4"
top: "conv4"
}
layer {
name: "conv5"
type: "Convolution"
bottom: "conv4"
top: "conv5"
param {
lr_mult: 1
decay_mult: 1
}
param {
lr_mult: 2
decay_mult: 0
}
convolution_param {
num_output: 256
pad: 1
kernel_size: 3
group: 2
weight_filler {
type: "gaussian"
std: 0.01
}
bias_filler {
type: "constant"
value: 0.1
}
}
}
layer {
name: "relu5"
type: "ReLU"
bottom: "conv5"
top: "conv5"
}
layer {
name: "pool5"
type: "Pooling"
bottom: "conv5"
top: "pool5"
pooling_param {
pool: MAX
kernel_size: 3
stride: 2
}
}
layer {
name: "fc6"
type: "InnerProduct"
bottom: "pool5"
top: "fc6"
param {
lr_mult: 1
decay_mult: 1
}
param {
lr_mult: 2
decay_mult: 0
}
inner_product_param {
num_output: 4096
weight_filler {
type: "gaussian"
std: 0.005
}
bias_filler {
type: "constant"
value: 0.1
}
}
}
layer {
name: "relu6"
type: "ReLU"
bottom: "fc6"
top: "fc6"
}
layer {
name: "drop6"
type: "Dropout"
bottom: "fc6"
top: "fc6"
dropout_param {
dropout_ratio: 0.5
}
}
layer {
name: "fc7"
type: "InnerProduct"
bottom: "fc6"
top: "fc7"
param {
lr_mult: 1
decay_mult: 1
}
param {
lr_mult: 2
decay_mult: 0
}
inner_product_param {
num_output: 4096
weight_filler {
type: "gaussian"
std: 0.005
}
bias_filler {
type: "constant"
value: 0.1
}
}
}
layer {
name: "relu7"
type: "ReLU"
bottom: "fc7"
top: "fc7"
}
layer {
name: "drop7"
type: "Dropout"
bottom: "fc7"
top: "fc7"
dropout_param {
dropout_ratio: 0.5
}
}
layer {
name: "fc8"
type: "InnerProduct"
bottom: "fc7"
top: "fc8"
param {
lr_mult: 1
decay_mult: 1
}
param {
lr_mult: 2
decay_mult: 0
}
inner_product_param {
num_output: 196
weight_filler {
type: "gaussian"
std: 0.01
}
bias_filler {
type: "constant"
value: 0
}
}
}
layer {
name: "accuracy"
type: "Accuracy"
bottom: "fc8"
bottom: "label"
top: "accuracy"
include {
phase: TEST
}
}
layer {
name: "loss"
type: "SoftmaxWithLoss"
bottom: "fc8"
bottom: "label"
top: "loss"
}
I0429 16:29:57.194211 11703 layer_factory.hpp:77] Creating layer val-data
I0429 16:29:57.195994 11703 db_lmdb.cpp:35] Opened lmdb /mnt/bigdisk/MANDIG2/digits/jobs/20200428-132136-11fe/val_db
I0429 16:29:57.196152 11703 net.cpp:84] Creating Layer val-data
I0429 16:29:57.196161 11703 net.cpp:380] val-data -> data
I0429 16:29:57.196173 11703 net.cpp:380] val-data -> label
I0429 16:29:57.196183 11703 data_transformer.cpp:25] Loading mean file from: /mnt/bigdisk/MANDIG2/digits/jobs/20200428-132136-11fe/mean.binaryproto
I0429 16:29:57.199990 11703 data_layer.cpp:45] output data size: 32,3,227,227
I0429 16:29:57.253576 11703 net.cpp:122] Setting up val-data
I0429 16:29:57.253602 11703 net.cpp:129] Top shape: 32 3 227 227 (4946784)
I0429 16:29:57.253610 11703 net.cpp:129] Top shape: 32 (32)
I0429 16:29:57.253618 11703 net.cpp:137] Memory required for data: 19787264
I0429 16:29:57.253626 11703 layer_factory.hpp:77] Creating layer label_val-data_1_split
I0429 16:29:57.253643 11703 net.cpp:84] Creating Layer label_val-data_1_split
I0429 16:29:57.253652 11703 net.cpp:406] label_val-data_1_split <- label
I0429 16:29:57.253664 11703 net.cpp:380] label_val-data_1_split -> label_val-data_1_split_0
I0429 16:29:57.253677 11703 net.cpp:380] label_val-data_1_split -> label_val-data_1_split_1
I0429 16:29:57.253954 11703 net.cpp:122] Setting up label_val-data_1_split
I0429 16:29:57.253968 11703 net.cpp:129] Top shape: 32 (32)
I0429 16:29:57.253975 11703 net.cpp:129] Top shape: 32 (32)
I0429 16:29:57.253979 11703 net.cpp:137] Memory required for data: 19787520
I0429 16:29:57.253986 11703 layer_factory.hpp:77] Creating layer conv1
I0429 16:29:57.254002 11703 net.cpp:84] Creating Layer conv1
I0429 16:29:57.254009 11703 net.cpp:406] conv1 <- data
I0429 16:29:57.254019 11703 net.cpp:380] conv1 -> conv1
I0429 16:29:57.263264 11703 net.cpp:122] Setting up conv1
I0429 16:29:57.263288 11703 net.cpp:129] Top shape: 32 96 55 55 (9292800)
I0429 16:29:57.263295 11703 net.cpp:137] Memory required for data: 56958720
I0429 16:29:57.263310 11703 layer_factory.hpp:77] Creating layer relu1
I0429 16:29:57.263324 11703 net.cpp:84] Creating Layer relu1
I0429 16:29:57.263330 11703 net.cpp:406] relu1 <- conv1
I0429 16:29:57.263339 11703 net.cpp:367] relu1 -> conv1 (in-place)
I0429 16:29:57.263769 11703 net.cpp:122] Setting up relu1
I0429 16:29:57.263782 11703 net.cpp:129] Top shape: 32 96 55 55 (9292800)
I0429 16:29:57.263789 11703 net.cpp:137] Memory required for data: 94129920
I0429 16:29:57.263797 11703 layer_factory.hpp:77] Creating layer norm1
I0429 16:29:57.263811 11703 net.cpp:84] Creating Layer norm1
I0429 16:29:57.263820 11703 net.cpp:406] norm1 <- conv1
I0429 16:29:57.263830 11703 net.cpp:380] norm1 -> norm1
I0429 16:29:57.278618 11703 net.cpp:122] Setting up norm1
I0429 16:29:57.278648 11703 net.cpp:129] Top shape: 32 96 55 55 (9292800)
I0429 16:29:57.278656 11703 net.cpp:137] Memory required for data: 131301120
I0429 16:29:57.278667 11703 layer_factory.hpp:77] Creating layer pool1
I0429 16:29:57.278684 11703 net.cpp:84] Creating Layer pool1
I0429 16:29:57.278693 11703 net.cpp:406] pool1 <- norm1
I0429 16:29:57.278703 11703 net.cpp:380] pool1 -> pool1
I0429 16:29:57.278753 11703 net.cpp:122] Setting up pool1
I0429 16:29:57.278761 11703 net.cpp:129] Top shape: 32 96 27 27 (2239488)
I0429 16:29:57.278769 11703 net.cpp:137] Memory required for data: 140259072
I0429 16:29:57.278777 11703 layer_factory.hpp:77] Creating layer conv2
I0429 16:29:57.278795 11703 net.cpp:84] Creating Layer conv2
I0429 16:29:57.278802 11703 net.cpp:406] conv2 <- pool1
I0429 16:29:57.278811 11703 net.cpp:380] conv2 -> conv2
I0429 16:29:57.302456 11703 net.cpp:122] Setting up conv2
I0429 16:29:57.302521 11703 net.cpp:129] Top shape: 32 256 27 27 (5971968)
I0429 16:29:57.302532 11703 net.cpp:137] Memory required for data: 164146944
I0429 16:29:57.302551 11703 layer_factory.hpp:77] Creating layer relu2
I0429 16:29:57.302564 11703 net.cpp:84] Creating Layer relu2
I0429 16:29:57.302577 11703 net.cpp:406] relu2 <- conv2
I0429 16:29:57.302587 11703 net.cpp:367] relu2 -> conv2 (in-place)
I0429 16:29:57.304862 11703 net.cpp:122] Setting up relu2
I0429 16:29:57.304877 11703 net.cpp:129] Top shape: 32 256 27 27 (5971968)
I0429 16:29:57.304884 11703 net.cpp:137] Memory required for data: 188034816
I0429 16:29:57.304893 11703 layer_factory.hpp:77] Creating layer norm2
I0429 16:29:57.304906 11703 net.cpp:84] Creating Layer norm2
I0429 16:29:57.304913 11703 net.cpp:406] norm2 <- conv2
I0429 16:29:57.304924 11703 net.cpp:380] norm2 -> norm2
I0429 16:29:57.307216 11703 net.cpp:122] Setting up norm2
I0429 16:29:57.307229 11703 net.cpp:129] Top shape: 32 256 27 27 (5971968)
I0429 16:29:57.307235 11703 net.cpp:137] Memory required for data: 211922688
I0429 16:29:57.307240 11703 layer_factory.hpp:77] Creating layer pool2
I0429 16:29:57.307251 11703 net.cpp:84] Creating Layer pool2
I0429 16:29:57.307258 11703 net.cpp:406] pool2 <- norm2
I0429 16:29:57.307266 11703 net.cpp:380] pool2 -> pool2
I0429 16:29:57.307302 11703 net.cpp:122] Setting up pool2
I0429 16:29:57.307309 11703 net.cpp:129] Top shape: 32 256 13 13 (1384448)
I0429 16:29:57.307317 11703 net.cpp:137] Memory required for data: 217460480
I0429 16:29:57.307320 11703 layer_factory.hpp:77] Creating layer conv3
I0429 16:29:57.307334 11703 net.cpp:84] Creating Layer conv3
I0429 16:29:57.307341 11703 net.cpp:406] conv3 <- pool2
I0429 16:29:57.307351 11703 net.cpp:380] conv3 -> conv3
I0429 16:29:57.341521 11703 net.cpp:122] Setting up conv3
I0429 16:29:57.341550 11703 net.cpp:129] Top shape: 32 384 13 13 (2076672)
I0429 16:29:57.341560 11703 net.cpp:137] Memory required for data: 225767168
I0429 16:29:57.341578 11703 layer_factory.hpp:77] Creating layer relu3
I0429 16:29:57.341596 11703 net.cpp:84] Creating Layer relu3
I0429 16:29:57.341604 11703 net.cpp:406] relu3 <- conv3
I0429 16:29:57.341617 11703 net.cpp:367] relu3 -> conv3 (in-place)
I0429 16:29:57.343433 11703 net.cpp:122] Setting up relu3
I0429 16:29:57.343451 11703 net.cpp:129] Top shape: 32 384 13 13 (2076672)
I0429 16:29:57.343461 11703 net.cpp:137] Memory required for data: 234073856
I0429 16:29:57.343469 11703 layer_factory.hpp:77] Creating layer conv4
I0429 16:29:57.343487 11703 net.cpp:84] Creating Layer conv4
I0429 16:29:57.343495 11703 net.cpp:406] conv4 <- conv3
I0429 16:29:57.343508 11703 net.cpp:380] conv4 -> conv4
I0429 16:29:57.384572 11703 net.cpp:122] Setting up conv4
I0429 16:29:57.384601 11703 net.cpp:129] Top shape: 32 384 13 13 (2076672)
I0429 16:29:57.384611 11703 net.cpp:137] Memory required for data: 242380544
I0429 16:29:57.384629 11703 layer_factory.hpp:77] Creating layer relu4
I0429 16:29:57.384649 11703 net.cpp:84] Creating Layer relu4
I0429 16:29:57.384661 11703 net.cpp:406] relu4 <- conv4
I0429 16:29:57.384675 11703 net.cpp:367] relu4 -> conv4 (in-place)
I0429 16:29:57.385226 11703 net.cpp:122] Setting up relu4
I0429 16:29:57.385241 11703 net.cpp:129] Top shape: 32 384 13 13 (2076672)
I0429 16:29:57.385249 11703 net.cpp:137] Memory required for data: 250687232
I0429 16:29:57.385259 11703 layer_factory.hpp:77] Creating layer conv5
I0429 16:29:57.385282 11703 net.cpp:84] Creating Layer conv5
I0429 16:29:57.385289 11703 net.cpp:406] conv5 <- conv4
I0429 16:29:57.385303 11703 net.cpp:380] conv5 -> conv5
I0429 16:29:57.421792 11703 net.cpp:122] Setting up conv5
I0429 16:29:57.421820 11703 net.cpp:129] Top shape: 32 256 13 13 (1384448)
I0429 16:29:57.421829 11703 net.cpp:137] Memory required for data: 256225024
I0429 16:29:57.421851 11703 layer_factory.hpp:77] Creating layer relu5
I0429 16:29:57.421867 11703 net.cpp:84] Creating Layer relu5
I0429 16:29:57.421875 11703 net.cpp:406] relu5 <- conv5
I0429 16:29:57.421916 11703 net.cpp:367] relu5 -> conv5 (in-place)
I0429 16:29:57.422813 11703 net.cpp:122] Setting up relu5
I0429 16:29:57.422830 11703 net.cpp:129] Top shape: 32 256 13 13 (1384448)
I0429 16:29:57.422838 11703 net.cpp:137] Memory required for data: 261762816
I0429 16:29:57.422845 11703 layer_factory.hpp:77] Creating layer pool5
I0429 16:29:57.422864 11703 net.cpp:84] Creating Layer pool5
I0429 16:29:57.422873 11703 net.cpp:406] pool5 <- conv5
I0429 16:29:57.422884 11703 net.cpp:380] pool5 -> pool5
I0429 16:29:57.422941 11703 net.cpp:122] Setting up pool5
I0429 16:29:57.422952 11703 net.cpp:129] Top shape: 32 256 6 6 (294912)
I0429 16:29:57.422961 11703 net.cpp:137] Memory required for data: 262942464
I0429 16:29:57.422971 11703 layer_factory.hpp:77] Creating layer fc6
I0429 16:29:57.422986 11703 net.cpp:84] Creating Layer fc6
I0429 16:29:57.422993 11703 net.cpp:406] fc6 <- pool5
I0429 16:29:57.423005 11703 net.cpp:380] fc6 -> fc6
I0429 16:29:58.111236 11703 net.cpp:122] Setting up fc6
I0429 16:29:58.111263 11703 net.cpp:129] Top shape: 32 4096 (131072)
I0429 16:29:58.111268 11703 net.cpp:137] Memory required for data: 263466752
I0429 16:29:58.111280 11703 layer_factory.hpp:77] Creating layer relu6
I0429 16:29:58.111292 11703 net.cpp:84] Creating Layer relu6
I0429 16:29:58.111301 11703 net.cpp:406] relu6 <- fc6
I0429 16:29:58.111310 11703 net.cpp:367] relu6 -> fc6 (in-place)
I0429 16:29:58.112280 11703 net.cpp:122] Setting up relu6
I0429 16:29:58.112293 11703 net.cpp:129] Top shape: 32 4096 (131072)
I0429 16:29:58.112300 11703 net.cpp:137] Memory required for data: 263991040
I0429 16:29:58.112308 11703 layer_factory.hpp:77] Creating layer drop6
I0429 16:29:58.112318 11703 net.cpp:84] Creating Layer drop6
I0429 16:29:58.112325 11703 net.cpp:406] drop6 <- fc6
I0429 16:29:58.112335 11703 net.cpp:367] drop6 -> fc6 (in-place)
I0429 16:29:58.112365 11703 net.cpp:122] Setting up drop6
I0429 16:29:58.112372 11703 net.cpp:129] Top shape: 32 4096 (131072)
I0429 16:29:58.112378 11703 net.cpp:137] Memory required for data: 264515328
I0429 16:29:58.112383 11703 layer_factory.hpp:77] Creating layer fc7
I0429 16:29:58.112396 11703 net.cpp:84] Creating Layer fc7
I0429 16:29:58.112402 11703 net.cpp:406] fc7 <- fc6
I0429 16:29:58.112411 11703 net.cpp:380] fc7 -> fc7
I0429 16:29:58.349148 11703 net.cpp:122] Setting up fc7
I0429 16:29:58.349175 11703 net.cpp:129] Top shape: 32 4096 (131072)
I0429 16:29:58.349184 11703 net.cpp:137] Memory required for data: 265039616
I0429 16:29:58.349200 11703 layer_factory.hpp:77] Creating layer relu7
I0429 16:29:58.349212 11703 net.cpp:84] Creating Layer relu7
I0429 16:29:58.349220 11703 net.cpp:406] relu7 <- fc7
I0429 16:29:58.349231 11703 net.cpp:367] relu7 -> fc7 (in-place)
I0429 16:29:58.349848 11703 net.cpp:122] Setting up relu7
I0429 16:29:58.349864 11703 net.cpp:129] Top shape: 32 4096 (131072)
I0429 16:29:58.349870 11703 net.cpp:137] Memory required for data: 265563904
I0429 16:29:58.349877 11703 layer_factory.hpp:77] Creating layer drop7
I0429 16:29:58.349889 11703 net.cpp:84] Creating Layer drop7
I0429 16:29:58.349896 11703 net.cpp:406] drop7 <- fc7
I0429 16:29:58.349905 11703 net.cpp:367] drop7 -> fc7 (in-place)
I0429 16:29:58.349941 11703 net.cpp:122] Setting up drop7
I0429 16:29:58.349951 11703 net.cpp:129] Top shape: 32 4096 (131072)
I0429 16:29:58.349957 11703 net.cpp:137] Memory required for data: 266088192
I0429 16:29:58.349963 11703 layer_factory.hpp:77] Creating layer fc8
I0429 16:29:58.349975 11703 net.cpp:84] Creating Layer fc8
I0429 16:29:58.349982 11703 net.cpp:406] fc8 <- fc7
I0429 16:29:58.349992 11703 net.cpp:380] fc8 -> fc8
I0429 16:29:58.362895 11703 net.cpp:122] Setting up fc8
I0429 16:29:58.362918 11703 net.cpp:129] Top shape: 32 196 (6272)
I0429 16:29:58.362926 11703 net.cpp:137] Memory required for data: 266113280
I0429 16:29:58.362938 11703 layer_factory.hpp:77] Creating layer fc8_fc8_0_split
I0429 16:29:58.362951 11703 net.cpp:84] Creating Layer fc8_fc8_0_split
I0429 16:29:58.362962 11703 net.cpp:406] fc8_fc8_0_split <- fc8
I0429 16:29:58.362972 11703 net.cpp:380] fc8_fc8_0_split -> fc8_fc8_0_split_0
I0429 16:29:58.363013 11703 net.cpp:380] fc8_fc8_0_split -> fc8_fc8_0_split_1
I0429 16:29:58.363065 11703 net.cpp:122] Setting up fc8_fc8_0_split
I0429 16:29:58.363075 11703 net.cpp:129] Top shape: 32 196 (6272)
I0429 16:29:58.363085 11703 net.cpp:129] Top shape: 32 196 (6272)
I0429 16:29:58.363092 11703 net.cpp:137] Memory required for data: 266163456
I0429 16:29:58.363099 11703 layer_factory.hpp:77] Creating layer accuracy
I0429 16:29:58.363111 11703 net.cpp:84] Creating Layer accuracy
I0429 16:29:58.363118 11703 net.cpp:406] accuracy <- fc8_fc8_0_split_0
I0429 16:29:58.363127 11703 net.cpp:406] accuracy <- label_val-data_1_split_0
I0429 16:29:58.363139 11703 net.cpp:380] accuracy -> accuracy
…
