…
I0513 14:38:43.592747  6018 net.cpp:294] The NetState phase (0) differed from the phase (1) specified by a rule in layer accuracy
I0513 14:38:43.592995  6018 net.cpp:51] Initializing net from parameters:
state {
phase: TRAIN
level: 0
stage: ""
}
layer {
name: "train-data"
type: "Data"
top: "data"
top: "label"
include {
phase: TRAIN
}
transform_param {
mirror: true
crop_size: 227
mean_value: 115.87337
mean_value: 117.09528
mean_value: 119.71341
}
data_param {
source: "/mnt/bigdisk/AINDIG6/digits/jobs/20200513-131618-f15a/train_db"
batch_size: 128
backend: LMDB
}
}
layer {
name: "conv1"
type: "Convolution"
bottom: "data"
top: "conv1"
param {
lr_mult: 1
decay_mult: 1
}
param {
lr_mult: 2
decay_mult: 0
}
convolution_param {
num_output: 96
kernel_size: 11
stride: 4
weight_filler {
type: "gaussian"
std: 0.01
}
bias_filler {
type: "constant"
value: 0
}
}
}
layer {
name: "relu1"
type: "ReLU"
bottom: "conv1"
top: "conv1"
}
layer {
name: "norm1"
type: "LRN"
bottom: "conv1"
top: "norm1"
lrn_param {
local_size: 5
alpha: 0.0001
beta: 0.75
}
}
layer {
name: "pool1"
type: "Pooling"
bottom: "norm1"
top: "pool1"
pooling_param {
pool: MAX
kernel_size: 3
stride: 2
}
}
layer {
name: "conv2"
type: "Convolution"
bottom: "pool1"
top: "conv2"
param {
lr_mult: 1
decay_mult: 1
}
param {
lr_mult: 2
decay_mult: 0
}
convolution_param {
num_output: 256
pad: 2
kernel_size: 5
group: 2
weight_filler {
type: "gaussian"
std: 0.01
}
bias_filler {
type: "constant"
value: 0.1
}
}
}
layer {
name: "relu2"
type: "ReLU"
bottom: "conv2"
top: "conv2"
}
layer {
name: "norm2"
type: "LRN"
bottom: "conv2"
top: "norm2"
lrn_param {
local_size: 5
alpha: 0.0001
beta: 0.75
}
}
layer {
name: "pool2"
type: "Pooling"
bottom: "norm2"
top: "pool2"
pooling_param {
pool: MAX
kernel_size: 3
stride: 2
}
}
layer {
name: "conv3"
type: "Convolution"
bottom: "pool2"
top: "conv3"
param {
lr_mult: 1
decay_mult: 1
}
param {
lr_mult: 2
decay_mult: 0
}
convolution_param {
num_output: 384
pad: 1
kernel_size: 3
weight_filler {
type: "gaussian"
std: 0.01
}
bias_filler {
type: "constant"
value: 0
}
}
}
layer {
name: "relu3"
type: "ReLU"
bottom: "conv3"
top: "conv3"
}
layer {
name: "conv4"
type: "Convolution"
bottom: "conv3"
top: "conv4"
param {
lr_mult: 1
decay_mult: 1
}
param {
lr_mult: 2
decay_mult: 0
}
convolution_param {
num_output: 384
pad: 1
kernel_size: 3
group: 2
weight_filler {
type: "gaussian"
std: 0.01
}
bias_filler {
type: "constant"
value: 0.1
}
}
}
layer {
name: "relu4"
type: "ReLU"
bottom: "conv4"
top: "conv4"
}
layer {
name: "conv5"
type: "Convolution"
bottom: "conv4"
top: "conv5"
param {
lr_mult: 1
decay_mult: 1
}
param {
lr_mult: 2
decay_mult: 0
}
convolution_param {
num_output: 256
pad: 1
kernel_size: 3
group: 2
weight_filler {
type: "gaussian"
std: 0.01
}
bias_filler {
type: "constant"
value: 0.1
}
}
}
layer {
name: "relu5"
type: "ReLU"
bottom: "conv5"
top: "conv5"
}
layer {
name: "pool5"
type: "Pooling"
bottom: "conv5"
top: "pool5"
pooling_param {
pool: MAX
kernel_size: 3
stride: 2
}
}
layer {
name: "fc6"
type: "InnerProduct"
bottom: "pool5"
top: "fc6"
param {
lr_mult: 1
decay_mult: 1
}
param {
lr_mult: 2
decay_mult: 0
}
inner_product_param {
num_output: 4096
weight_filler {
type: "gaussian"
std: 0.005
}
bias_filler {
type: "constant"
value: 0.1
}
}
}
layer {
name: "relu6"
type: "ReLU"
bottom: "fc6"
top: "fc6"
}
layer {
name: "drop6"
type: "Dropout"
bottom: "fc6"
top: "fc6"
dropout_param {
dropout_ratio: 0.5
}
}
layer {
name: "fc7"
type: "InnerProduct"
bottom: "fc6"
top: "fc7"
param {
lr_mult: 1
decay_mult: 1
}
param {
lr_mult: 2
decay_mult: 0
}
inner_product_param {
num_output: 4096
weight_filler {
type: "gaussian"
std: 0.005
}
bias_filler {
type: "constant"
value: 0.1
}
}
}
layer {
name: "relu7"
type: "ReLU"
bottom: "fc7"
top: "fc7"
}
layer {
name: "drop7"
type: "Dropout"
bottom: "fc7"
top: "fc7"
dropout_param {
dropout_ratio: 0.5
}
}
layer {
name: "fc8"
type: "InnerProduct"
bottom: "fc7"
top: "fc8"
param {
lr_mult: 1
decay_mult: 1
}
param {
lr_mult: 2
decay_mult: 0
}
inner_product_param {
num_output: 196
weight_filler {
type: "gaussian"
std: 0.01
}
bias_filler {
type: "constant"
value: 0
}
}
}
layer {
name: "loss"
type: "SoftmaxWithLoss"
bottom: "fc8"
bottom: "label"
top: "loss"
}
I0513 14:38:43.593128  6018 layer_factory.hpp:77] Creating layer train-data
I0513 14:38:43.618476  6018 db_lmdb.cpp:35] Opened lmdb /mnt/bigdisk/AINDIG6/digits/jobs/20200513-131618-f15a/train_db
I0513 14:38:43.625216  6018 net.cpp:84] Creating Layer train-data
I0513 14:38:43.625253  6018 net.cpp:380] train-data -> data
I0513 14:38:43.625293  6018 net.cpp:380] train-data -> label
I0513 14:38:43.637825  6018 data_layer.cpp:45] output data size: 128,3,227,227
I0513 14:38:43.968907  6018 net.cpp:122] Setting up train-data
I0513 14:38:43.968940  6018 net.cpp:129] Top shape: 128 3 227 227 (19787136)
I0513 14:38:43.968947  6018 net.cpp:129] Top shape: 128 (128)
I0513 14:38:43.968952  6018 net.cpp:137] Memory required for data: 79149056
I0513 14:38:43.968966  6018 layer_factory.hpp:77] Creating layer conv1
I0513 14:38:43.968994  6018 net.cpp:84] Creating Layer conv1
I0513 14:38:43.969002  6018 net.cpp:406] conv1 <- data
I0513 14:38:43.969018  6018 net.cpp:380] conv1 -> conv1
I0513 14:38:45.818972  6018 net.cpp:122] Setting up conv1
I0513 14:38:45.819000  6018 net.cpp:129] Top shape: 128 96 55 55 (37171200)
I0513 14:38:45.819005  6018 net.cpp:137] Memory required for data: 227833856
I0513 14:38:45.819028  6018 layer_factory.hpp:77] Creating layer relu1
I0513 14:38:45.819051  6018 net.cpp:84] Creating Layer relu1
I0513 14:38:45.819057  6018 net.cpp:406] relu1 <- conv1
I0513 14:38:45.819064  6018 net.cpp:367] relu1 -> conv1 (in-place)
I0513 14:38:45.819435  6018 net.cpp:122] Setting up relu1
I0513 14:38:45.819447  6018 net.cpp:129] Top shape: 128 96 55 55 (37171200)
I0513 14:38:45.819450  6018 net.cpp:137] Memory required for data: 376518656
I0513 14:38:45.819454  6018 layer_factory.hpp:77] Creating layer norm1
I0513 14:38:45.819465  6018 net.cpp:84] Creating Layer norm1
I0513 14:38:45.819469  6018 net.cpp:406] norm1 <- conv1
I0513 14:38:45.819475  6018 net.cpp:380] norm1 -> norm1
I0513 14:38:45.820087  6018 net.cpp:122] Setting up norm1
I0513 14:38:45.820125  6018 net.cpp:129] Top shape: 128 96 55 55 (37171200)
I0513 14:38:45.820129  6018 net.cpp:137] Memory required for data: 525203456
I0513 14:38:45.820132  6018 layer_factory.hpp:77] Creating layer pool1
I0513 14:38:45.820142  6018 net.cpp:84] Creating Layer pool1
I0513 14:38:45.820145  6018 net.cpp:406] pool1 <- norm1
I0513 14:38:45.820152  6018 net.cpp:380] pool1 -> pool1
I0513 14:38:45.820197  6018 net.cpp:122] Setting up pool1
I0513 14:38:45.820204  6018 net.cpp:129] Top shape: 128 96 27 27 (8957952)
I0513 14:38:45.820207  6018 net.cpp:137] Memory required for data: 561035264
I0513 14:38:45.820211  6018 layer_factory.hpp:77] Creating layer conv2
I0513 14:38:45.820225  6018 net.cpp:84] Creating Layer conv2
I0513 14:38:45.820227  6018 net.cpp:406] conv2 <- pool1
I0513 14:38:45.820233  6018 net.cpp:380] conv2 -> conv2
I0513 14:38:45.829313  6018 net.cpp:122] Setting up conv2
I0513 14:38:45.829337  6018 net.cpp:129] Top shape: 128 256 27 27 (23887872)
I0513 14:38:45.829341  6018 net.cpp:137] Memory required for data: 656586752
I0513 14:38:45.829356  6018 layer_factory.hpp:77] Creating layer relu2
I0513 14:38:45.829368  6018 net.cpp:84] Creating Layer relu2
I0513 14:38:45.829372  6018 net.cpp:406] relu2 <- conv2
I0513 14:38:45.829381  6018 net.cpp:367] relu2 -> conv2 (in-place)
I0513 14:38:45.830041  6018 net.cpp:122] Setting up relu2
I0513 14:38:45.830054  6018 net.cpp:129] Top shape: 128 256 27 27 (23887872)
I0513 14:38:45.830057  6018 net.cpp:137] Memory required for data: 752138240
I0513 14:38:45.830061  6018 layer_factory.hpp:77] Creating layer norm2
I0513 14:38:45.830072  6018 net.cpp:84] Creating Layer norm2
I0513 14:38:45.830076  6018 net.cpp:406] norm2 <- conv2
I0513 14:38:45.830082  6018 net.cpp:380] norm2 -> norm2
I0513 14:38:45.830570  6018 net.cpp:122] Setting up norm2
I0513 14:38:45.830581  6018 net.cpp:129] Top shape: 128 256 27 27 (23887872)
I0513 14:38:45.830585  6018 net.cpp:137] Memory required for data: 847689728
I0513 14:38:45.830588  6018 layer_factory.hpp:77] Creating layer pool2
I0513 14:38:45.830600  6018 net.cpp:84] Creating Layer pool2
I0513 14:38:45.830605  6018 net.cpp:406] pool2 <- norm2
I0513 14:38:45.830610  6018 net.cpp:380] pool2 -> pool2
I0513 14:38:45.830649  6018 net.cpp:122] Setting up pool2
I0513 14:38:45.830655  6018 net.cpp:129] Top shape: 128 256 13 13 (5537792)
I0513 14:38:45.830658  6018 net.cpp:137] Memory required for data: 869840896
I0513 14:38:45.830662  6018 layer_factory.hpp:77] Creating layer conv3
I0513 14:38:45.830675  6018 net.cpp:84] Creating Layer conv3
I0513 14:38:45.830679  6018 net.cpp:406] conv3 <- pool2
I0513 14:38:45.830687  6018 net.cpp:380] conv3 -> conv3
I0513 14:38:45.850483  6018 net.cpp:122] Setting up conv3
I0513 14:38:45.850510  6018 net.cpp:129] Top shape: 128 384 13 13 (8306688)
I0513 14:38:45.850514  6018 net.cpp:137] Memory required for data: 903067648
I0513 14:38:45.850533  6018 layer_factory.hpp:77] Creating layer relu3
I0513 14:38:45.850544  6018 net.cpp:84] Creating Layer relu3
I0513 14:38:45.850549  6018 net.cpp:406] relu3 <- conv3
I0513 14:38:45.850559  6018 net.cpp:367] relu3 -> conv3 (in-place)
I0513 14:38:45.855285  6018 net.cpp:122] Setting up relu3
I0513 14:38:45.855312  6018 net.cpp:129] Top shape: 128 384 13 13 (8306688)
I0513 14:38:45.855315  6018 net.cpp:137] Memory required for data: 936294400
I0513 14:38:45.855321  6018 layer_factory.hpp:77] Creating layer conv4
I0513 14:38:45.855340  6018 net.cpp:84] Creating Layer conv4
I0513 14:38:45.855345  6018 net.cpp:406] conv4 <- conv3
I0513 14:38:45.855355  6018 net.cpp:380] conv4 -> conv4
I0513 14:38:45.875581  6018 net.cpp:122] Setting up conv4
I0513 14:38:45.875609  6018 net.cpp:129] Top shape: 128 384 13 13 (8306688)
I0513 14:38:45.875613  6018 net.cpp:137] Memory required for data: 969521152
I0513 14:38:45.875624  6018 layer_factory.hpp:77] Creating layer relu4
I0513 14:38:45.875640  6018 net.cpp:84] Creating Layer relu4
I0513 14:38:45.875645  6018 net.cpp:406] relu4 <- conv4
I0513 14:38:45.875653  6018 net.cpp:367] relu4 -> conv4 (in-place)
I0513 14:38:45.876117  6018 net.cpp:122] Setting up relu4
I0513 14:38:45.876152  6018 net.cpp:129] Top shape: 128 384 13 13 (8306688)
I0513 14:38:45.876155  6018 net.cpp:137] Memory required for data: 1002747904
I0513 14:38:45.876159  6018 layer_factory.hpp:77] Creating layer conv5
I0513 14:38:45.876173  6018 net.cpp:84] Creating Layer conv5
I0513 14:38:45.876176  6018 net.cpp:406] conv5 <- conv4
I0513 14:38:45.876185  6018 net.cpp:380] conv5 -> conv5
I0513 14:38:45.902536  6018 net.cpp:122] Setting up conv5
I0513 14:38:45.902565  6018 net.cpp:129] Top shape: 128 256 13 13 (5537792)
I0513 14:38:45.902568  6018 net.cpp:137] Memory required for data: 1024899072
I0513 14:38:45.902585  6018 layer_factory.hpp:77] Creating layer relu5
I0513 14:38:45.902597  6018 net.cpp:84] Creating Layer relu5
I0513 14:38:45.902602  6018 net.cpp:406] relu5 <- conv5
I0513 14:38:45.902611  6018 net.cpp:367] relu5 -> conv5 (in-place)
I0513 14:38:45.903249  6018 net.cpp:122] Setting up relu5
I0513 14:38:45.903262  6018 net.cpp:129] Top shape: 128 256 13 13 (5537792)
I0513 14:38:45.903266  6018 net.cpp:137] Memory required for data: 1047050240
I0513 14:38:45.903270  6018 layer_factory.hpp:77] Creating layer pool5
I0513 14:38:45.903281  6018 net.cpp:84] Creating Layer pool5
I0513 14:38:45.903286  6018 net.cpp:406] pool5 <- conv5
I0513 14:38:45.903293  6018 net.cpp:380] pool5 -> pool5
I0513 14:38:45.903350  6018 net.cpp:122] Setting up pool5
I0513 14:38:45.903360  6018 net.cpp:129] Top shape: 128 256 6 6 (1179648)
I0513 14:38:45.903363  6018 net.cpp:137] Memory required for data: 1051768832
I0513 14:38:45.903367  6018 layer_factory.hpp:77] Creating layer fc6
I0513 14:38:45.903381  6018 net.cpp:84] Creating Layer fc6
I0513 14:38:45.903388  6018 net.cpp:406] fc6 <- pool5
I0513 14:38:45.903394  6018 net.cpp:380] fc6 -> fc6
I0513 14:38:46.504439  6018 net.cpp:122] Setting up fc6
I0513 14:38:46.504465  6018 net.cpp:129] Top shape: 128 4096 (524288)
I0513 14:38:46.504470  6018 net.cpp:137] Memory required for data: 1053865984
I0513 14:38:46.504482  6018 layer_factory.hpp:77] Creating layer relu6
I0513 14:38:46.504493  6018 net.cpp:84] Creating Layer relu6
I0513 14:38:46.504498  6018 net.cpp:406] relu6 <- fc6
I0513 14:38:46.504505  6018 net.cpp:367] relu6 -> fc6 (in-place)
I0513 14:38:46.505301  6018 net.cpp:122] Setting up relu6
I0513 14:38:46.505312  6018 net.cpp:129] Top shape: 128 4096 (524288)
I0513 14:38:46.505316  6018 net.cpp:137] Memory required for data: 1055963136
I0513 14:38:46.505321  6018 layer_factory.hpp:77] Creating layer drop6
I0513 14:38:46.505329  6018 net.cpp:84] Creating Layer drop6
I0513 14:38:46.505334  6018 net.cpp:406] drop6 <- fc6
I0513 14:38:46.505339  6018 net.cpp:367] drop6 -> fc6 (in-place)
I0513 14:38:46.505373  6018 net.cpp:122] Setting up drop6
I0513 14:38:46.505379  6018 net.cpp:129] Top shape: 128 4096 (524288)
I0513 14:38:46.505383  6018 net.cpp:137] Memory required for data: 1058060288
I0513 14:38:46.505385  6018 layer_factory.hpp:77] Creating layer fc7
I0513 14:38:46.505393  6018 net.cpp:84] Creating Layer fc7
I0513 14:38:46.505398  6018 net.cpp:406] fc7 <- fc6
I0513 14:38:46.505407  6018 net.cpp:380] fc7 -> fc7
I0513 14:38:46.764612  6018 net.cpp:122] Setting up fc7
I0513 14:38:46.764641  6018 net.cpp:129] Top shape: 128 4096 (524288)
I0513 14:38:46.764643  6018 net.cpp:137] Memory required for data: 1060157440
I0513 14:38:46.764654  6018 layer_factory.hpp:77] Creating layer relu7
I0513 14:38:46.764664  6018 net.cpp:84] Creating Layer relu7
I0513 14:38:46.764669  6018 net.cpp:406] relu7 <- fc7
I0513 14:38:46.764678  6018 net.cpp:367] relu7 -> fc7 (in-place)
I0513 14:38:46.765272  6018 net.cpp:122] Setting up relu7
I0513 14:38:46.765285  6018 net.cpp:129] Top shape: 128 4096 (524288)
I0513 14:38:46.765288  6018 net.cpp:137] Memory required for data: 1062254592
I0513 14:38:46.765292  6018 layer_factory.hpp:77] Creating layer drop7
I0513 14:38:46.765316  6018 net.cpp:84] Creating Layer drop7
I0513 14:38:46.765321  6018 net.cpp:406] drop7 <- fc7
I0513 14:38:46.765326  6018 net.cpp:367] drop7 -> fc7 (in-place)
I0513 14:38:46.765358  6018 net.cpp:122] Setting up drop7
I0513 14:38:46.765390  6018 net.cpp:129] Top shape: 128 4096 (524288)
I0513 14:38:46.765393  6018 net.cpp:137] Memory required for data: 1064351744
I0513 14:38:46.765396  6018 layer_factory.hpp:77] Creating layer fc8
I0513 14:38:46.765436  6018 net.cpp:84] Creating Layer fc8
I0513 14:38:46.765441  6018 net.cpp:406] fc8 <- fc7
I0513 14:38:46.765491  6018 net.cpp:380] fc8 -> fc8
I0513 14:38:46.779608  6018 net.cpp:122] Setting up fc8
I0513 14:38:46.779635  6018 net.cpp:129] Top shape: 128 196 (25088)
I0513 14:38:46.779639  6018 net.cpp:137] Memory required for data: 1064452096
I0513 14:38:46.779650  6018 layer_factory.hpp:77] Creating layer loss
I0513 14:38:46.779661  6018 net.cpp:84] Creating Layer loss
I0513 14:38:46.779666  6018 net.cpp:406] loss <- fc8
I0513 14:38:46.779672  6018 net.cpp:406] loss <- label
I0513 14:38:46.779682  6018 net.cpp:380] loss -> loss
I0513 14:38:46.779695  6018 layer_factory.hpp:77] Creating layer loss
…
I0513 14:38:46.782102  6018 solver.cpp:172] Creating test net (#0) specified by net file: train_val.prototxt
I0513 14:38:46.782150  6018 net.cpp:294] The NetState phase (1) differed from the phase (0) specified by a rule in layer train-data
I0513 14:38:46.782380  6018 net.cpp:51] Initializing net from parameters:
state {
phase: TEST
}
layer {
name: "val-data"
type: "Data"
top: "data"
top: "label"
include {
phase: TEST
}
transform_param {
crop_size: 227
mean_value: 115.87337
mean_value: 117.09528
mean_value: 119.71341
}
data_param {
source: "/mnt/bigdisk/AINDIG6/digits/jobs/20200513-131618-f15a/val_db"
batch_size: 32
backend: LMDB
}
}
layer {
name: "conv1"
type: "Convolution"
bottom: "data"
top: "conv1"
param {
lr_mult: 1
decay_mult: 1
}
param {
lr_mult: 2
decay_mult: 0
}
convolution_param {
num_output: 96
kernel_size: 11
stride: 4
weight_filler {
type: "gaussian"
std: 0.01
}
bias_filler {
type: "constant"
value: 0
}
}
}
layer {
name: "relu1"
type: "ReLU"
bottom: "conv1"
top: "conv1"
}
layer {
name: "norm1"
type: "LRN"
bottom: "conv1"
top: "norm1"
lrn_param {
local_size: 5
alpha: 0.0001
beta: 0.75
}
}
layer {
name: "pool1"
type: "Pooling"
bottom: "norm1"
top: "pool1"
pooling_param {
pool: MAX
kernel_size: 3
stride: 2
}
}
layer {
name: "conv2"
type: "Convolution"
bottom: "pool1"
top: "conv2"
param {
lr_mult: 1
decay_mult: 1
}
param {
lr_mult: 2
decay_mult: 0
}
convolution_param {
num_output: 256
pad: 2
kernel_size: 5
group: 2
weight_filler {
type: "gaussian"
std: 0.01
}
bias_filler {
type: "constant"
value: 0.1
}
}
}
layer {
name: "relu2"
type: "ReLU"
bottom: "conv2"
top: "conv2"
}
layer {
name: "norm2"
type: "LRN"
bottom: "conv2"
top: "norm2"
lrn_param {
local_size: 5
alpha: 0.0001
beta: 0.75
}
}
layer {
name: "pool2"
type: "Pooling"
bottom: "norm2"
top: "pool2"
pooling_param {
pool: MAX
kernel_size: 3
stride: 2
}
}
layer {
name: "conv3"
type: "Convolution"
bottom: "pool2"
top: "conv3"
param {
lr_mult: 1
decay_mult: 1
}
param {
lr_mult: 2
decay_mult: 0
}
convolution_param {
num_output: 384
pad: 1
kernel_size: 3
weight_filler {
type: "gaussian"
std: 0.01
}
bias_filler {
type: "constant"
value: 0
}
}
}
layer {
name: "relu3"
type: "ReLU"
bottom: "conv3"
top: "conv3"
}
layer {
name: "conv4"
type: "Convolution"
bottom: "conv3"
top: "conv4"
param {
lr_mult: 1
decay_mult: 1
}
param {
lr_mult: 2
decay_mult: 0
}
convolution_param {
num_output: 384
pad: 1
kernel_size: 3
group: 2
weight_filler {
type: "gaussian"
std: 0.01
}
bias_filler {
type: "constant"
value: 0.1
}
}
}
layer {
name: "relu4"
type: "ReLU"
bottom: "conv4"
top: "conv4"
}
layer {
name: "conv5"
type: "Convolution"
bottom: "conv4"
top: "conv5"
param {
lr_mult: 1
decay_mult: 1
}
param {
lr_mult: 2
decay_mult: 0
}
convolution_param {
num_output: 256
pad: 1
kernel_size: 3
group: 2
weight_filler {
type: "gaussian"
std: 0.01
}
bias_filler {
type: "constant"
value: 0.1
}
}
}
layer {
name: "relu5"
type: "ReLU"
bottom: "conv5"
top: "conv5"
}
layer {
name: "pool5"
type: "Pooling"
bottom: "conv5"
top: "pool5"
pooling_param {
pool: MAX
kernel_size: 3
stride: 2
}
}
layer {
name: "fc6"
type: "InnerProduct"
bottom: "pool5"
top: "fc6"
param {
lr_mult: 1
decay_mult: 1
}
param {
lr_mult: 2
decay_mult: 0
}
inner_product_param {
num_output: 4096
weight_filler {
type: "gaussian"
std: 0.005
}
bias_filler {
type: "constant"
value: 0.1
}
}
}
layer {
name: "relu6"
type: "ReLU"
bottom: "fc6"
top: "fc6"
}
layer {
name: "drop6"
type: "Dropout"
bottom: "fc6"
top: "fc6"
dropout_param {
dropout_ratio: 0.5
}
}
layer {
name: "fc7"
type: "InnerProduct"
bottom: "fc6"
top: "fc7"
param {
lr_mult: 1
decay_mult: 1
}
param {
lr_mult: 2
decay_mult: 0
}
inner_product_param {
num_output: 4096
weight_filler {
type: "gaussian"
std: 0.005
}
bias_filler {
type: "constant"
value: 0.1
}
}
}
layer {
name: "relu7"
type: "ReLU"
bottom: "fc7"
top: "fc7"
}
layer {
name: "drop7"
type: "Dropout"
bottom: "fc7"
top: "fc7"
dropout_param {
dropout_ratio: 0.5
}
}
layer {
name: "fc8"
type: "InnerProduct"
bottom: "fc7"
top: "fc8"
param {
lr_mult: 1
decay_mult: 1
}
param {
lr_mult: 2
decay_mult: 0
}
inner_product_param {
num_output: 196
weight_filler {
type: "gaussian"
std: 0.01
}
bias_filler {
type: "constant"
value: 0
}
}
}
layer {
name: "accuracy"
type: "Accuracy"
bottom: "fc8"
bottom: "label"
top: "accuracy"
include {
phase: TEST
}
}
layer {
name: "loss"
type: "SoftmaxWithLoss"
bottom: "fc8"
bottom: "label"
top: "loss"
}
I0513 14:38:46.782534  6018 layer_factory.hpp:77] Creating layer val-data
I0513 14:38:46.815080  6018 db_lmdb.cpp:35] Opened lmdb /mnt/bigdisk/AINDIG6/digits/jobs/20200513-131618-f15a/val_db
I0513 14:38:46.832028  6018 net.cpp:84] Creating Layer val-data
I0513 14:38:46.832093  6018 net.cpp:380] val-data -> data
I0513 14:38:46.832113  6018 net.cpp:380] val-data -> label
I0513 14:38:46.837574  6018 data_layer.cpp:45] output data size: 32,3,227,227
I0513 14:38:46.881629  6018 net.cpp:122] Setting up val-data
I0513 14:38:46.881651  6018 net.cpp:129] Top shape: 32 3 227 227 (4946784)
I0513 14:38:46.881657  6018 net.cpp:129] Top shape: 32 (32)
I0513 14:38:46.881660  6018 net.cpp:137] Memory required for data: 19787264
I0513 14:38:46.881666  6018 layer_factory.hpp:77] Creating layer label_val-data_1_split
I0513 14:38:46.881680  6018 net.cpp:84] Creating Layer label_val-data_1_split
I0513 14:38:46.881685  6018 net.cpp:406] label_val-data_1_split <- label
I0513 14:38:46.881692  6018 net.cpp:380] label_val-data_1_split -> label_val-data_1_split_0
I0513 14:38:46.881702  6018 net.cpp:380] label_val-data_1_split -> label_val-data_1_split_1
I0513 14:38:46.881757  6018 net.cpp:122] Setting up label_val-data_1_split
I0513 14:38:46.881762  6018 net.cpp:129] Top shape: 32 (32)
I0513 14:38:46.881767  6018 net.cpp:129] Top shape: 32 (32)
I0513 14:38:46.881769  6018 net.cpp:137] Memory required for data: 19787520
I0513 14:38:46.881772  6018 layer_factory.hpp:77] Creating layer conv1
I0513 14:38:46.881788  6018 net.cpp:84] Creating Layer conv1
I0513 14:38:46.881791  6018 net.cpp:406] conv1 <- data
I0513 14:38:46.881798  6018 net.cpp:380] conv1 -> conv1
I0513 14:38:46.884819  6018 net.cpp:122] Setting up conv1
I0513 14:38:46.884842  6018 net.cpp:129] Top shape: 32 96 55 55 (9292800)
I0513 14:38:46.884845  6018 net.cpp:137] Memory required for data: 56958720
I0513 14:38:46.884860  6018 layer_factory.hpp:77] Creating layer relu1
I0513 14:38:46.884869  6018 net.cpp:84] Creating Layer relu1
I0513 14:38:46.884873  6018 net.cpp:406] relu1 <- conv1
I0513 14:38:46.884883  6018 net.cpp:367] relu1 -> conv1 (in-place)
I0513 14:38:46.885535  6018 net.cpp:122] Setting up relu1
I0513 14:38:46.885546  6018 net.cpp:129] Top shape: 32 96 55 55 (9292800)
I0513 14:38:46.885550  6018 net.cpp:137] Memory required for data: 94129920
I0513 14:38:46.885586  6018 layer_factory.hpp:77] Creating layer norm1
I0513 14:38:46.885601  6018 net.cpp:84] Creating Layer norm1
I0513 14:38:46.885633  6018 net.cpp:406] norm1 <- conv1
I0513 14:38:46.885641  6018 net.cpp:380] norm1 -> norm1
I0513 14:38:46.886620  6018 net.cpp:122] Setting up norm1
I0513 14:38:46.886632  6018 net.cpp:129] Top shape: 32 96 55 55 (9292800)
I0513 14:38:46.886636  6018 net.cpp:137] Memory required for data: 131301120
I0513 14:38:46.886641  6018 layer_factory.hpp:77] Creating layer pool1
I0513 14:38:46.886651  6018 net.cpp:84] Creating Layer pool1
I0513 14:38:46.886654  6018 net.cpp:406] pool1 <- norm1
I0513 14:38:46.886660  6018 net.cpp:380] pool1 -> pool1
I0513 14:38:46.886699  6018 net.cpp:122] Setting up pool1
I0513 14:38:46.886706  6018 net.cpp:129] Top shape: 32 96 27 27 (2239488)
I0513 14:38:46.886709  6018 net.cpp:137] Memory required for data: 140259072
I0513 14:38:46.886713  6018 layer_factory.hpp:77] Creating layer conv2
I0513 14:38:46.886726  6018 net.cpp:84] Creating Layer conv2
I0513 14:38:46.886729  6018 net.cpp:406] conv2 <- pool1
I0513 14:38:46.886739  6018 net.cpp:380] conv2 -> conv2
I0513 14:38:46.923094  6018 net.cpp:122] Setting up conv2
I0513 14:38:46.923125  6018 net.cpp:129] Top shape: 32 256 27 27 (5971968)
I0513 14:38:46.923128  6018 net.cpp:137] Memory required for data: 164146944
I0513 14:38:46.923151  6018 layer_factory.hpp:77] Creating layer relu2
I0513 14:38:46.923188  6018 net.cpp:84] Creating Layer relu2
I0513 14:38:46.923193  6018 net.cpp:406] relu2 <- conv2
I0513 14:38:46.923202  6018 net.cpp:367] relu2 -> conv2 (in-place)
I0513 14:38:46.924118  6018 net.cpp:122] Setting up relu2
I0513 14:38:46.924132  6018 net.cpp:129] Top shape: 32 256 27 27 (5971968)
I0513 14:38:46.924135  6018 net.cpp:137] Memory required for data: 188034816
I0513 14:38:46.924139  6018 layer_factory.hpp:77] Creating layer norm2
I0513 14:38:46.924152  6018 net.cpp:84] Creating Layer norm2
I0513 14:38:46.924156  6018 net.cpp:406] norm2 <- conv2
I0513 14:38:46.924162  6018 net.cpp:380] norm2 -> norm2
I0513 14:38:46.925045  6018 net.cpp:122] Setting up norm2
I0513 14:38:46.925058  6018 net.cpp:129] Top shape: 32 256 27 27 (5971968)
I0513 14:38:46.925062  6018 net.cpp:137] Memory required for data: 211922688
I0513 14:38:46.925067  6018 layer_factory.hpp:77] Creating layer pool2
I0513 14:38:46.925074  6018 net.cpp:84] Creating Layer pool2
I0513 14:38:46.925078  6018 net.cpp:406] pool2 <- norm2
I0513 14:38:46.925084  6018 net.cpp:380] pool2 -> pool2
I0513 14:38:46.925993  6018 net.cpp:122] Setting up pool2
I0513 14:38:46.926005  6018 net.cpp:129] Top shape: 32 256 13 13 (1384448)
I0513 14:38:46.926009  6018 net.cpp:137] Memory required for data: 217460480
I0513 14:38:46.926013  6018 layer_factory.hpp:77] Creating layer conv3
I0513 14:38:46.926156  6018 net.cpp:84] Creating Layer conv3
I0513 14:38:46.926163  6018 net.cpp:406] conv3 <- pool2
I0513 14:38:46.926262  6018 net.cpp:380] conv3 -> conv3
I0513 14:38:46.990669  6018 net.cpp:122] Setting up conv3
I0513 14:38:46.990697  6018 net.cpp:129] Top shape: 32 384 13 13 (2076672)
I0513 14:38:46.990700  6018 net.cpp:137] Memory required for data: 225767168
I0513 14:38:46.990718  6018 layer_factory.hpp:77] Creating layer relu3
I0513 14:38:46.990728  6018 net.cpp:84] Creating Layer relu3
I0513 14:38:46.990732  6018 net.cpp:406] relu3 <- conv3
I0513 14:38:46.990741  6018 net.cpp:367] relu3 -> conv3 (in-place)
I0513 14:38:46.996266  6018 net.cpp:122] Setting up relu3
I0513 14:38:46.996295  6018 net.cpp:129] Top shape: 32 384 13 13 (2076672)
I0513 14:38:46.996300  6018 net.cpp:137] Memory required for data: 234073856
I0513 14:38:46.996307  6018 layer_factory.hpp:77] Creating layer conv4
I0513 14:38:46.996356  6018 net.cpp:84] Creating Layer conv4
I0513 14:38:46.996366  6018 net.cpp:406] conv4 <- conv3
I0513 14:38:46.996455  6018 net.cpp:380] conv4 -> conv4
I0513 14:38:47.055958  6018 net.cpp:122] Setting up conv4
I0513 14:38:47.055989  6018 net.cpp:129] Top shape: 32 384 13 13 (2076672)
I0513 14:38:47.055995  6018 net.cpp:137] Memory required for data: 242380544
I0513 14:38:47.056008  6018 layer_factory.hpp:77] Creating layer relu4
I0513 14:38:47.056022  6018 net.cpp:84] Creating Layer relu4
I0513 14:38:47.056028  6018 net.cpp:406] relu4 <- conv4
I0513 14:38:47.056039  6018 net.cpp:367] relu4 -> conv4 (in-place)
I0513 14:38:47.056560  6018 net.cpp:122] Setting up relu4
I0513 14:38:47.056573  6018 net.cpp:129] Top shape: 32 384 13 13 (2076672)
I0513 14:38:47.056577  6018 net.cpp:137] Memory required for data: 250687232
I0513 14:38:47.056581  6018 layer_factory.hpp:77] Creating layer conv5
I0513 14:38:47.056598  6018 net.cpp:84] Creating Layer conv5
I0513 14:38:47.056603  6018 net.cpp:406] conv5 <- conv4
I0513 14:38:47.056613  6018 net.cpp:380] conv5 -> conv5
I0513 14:38:47.109012  6018 net.cpp:122] Setting up conv5
I0513 14:38:47.109040  6018 net.cpp:129] Top shape: 32 256 13 13 (1384448)
I0513 14:38:47.109045  6018 net.cpp:137] Memory required for data: 256225024
I0513 14:38:47.109061  6018 layer_factory.hpp:77] Creating layer relu5
I0513 14:38:47.109077  6018 net.cpp:84] Creating Layer relu5
I0513 14:38:47.109083  6018 net.cpp:406] relu5 <- conv5
I0513 14:38:47.109091  6018 net.cpp:367] relu5 -> conv5 (in-place)
I0513 14:38:47.110679  6018 net.cpp:122] Setting up relu5
I0513 14:38:47.110695  6018 net.cpp:129] Top shape: 32 256 13 13 (1384448)
I0513 14:38:47.110699  6018 net.cpp:137] Memory required for data: 261762816
I0513 14:38:47.110704  6018 layer_factory.hpp:77] Creating layer pool5
I0513 14:38:47.115131  6018 net.cpp:84] Creating Layer pool5
I0513 14:38:47.115147  6018 net.cpp:406] pool5 <- conv5
I0513 14:38:47.115160  6018 net.cpp:380] pool5 -> pool5
I0513 14:38:47.116084  6018 net.cpp:122] Setting up pool5
I0513 14:38:47.116099  6018 net.cpp:129] Top shape: 32 256 6 6 (294912)
I0513 14:38:47.116103  6018 net.cpp:137] Memory required for data: 262942464
I0513 14:38:47.116108  6018 layer_factory.hpp:77] Creating layer fc6
I0513 14:38:47.116120  6018 net.cpp:84] Creating Layer fc6
I0513 14:38:47.116125  6018 net.cpp:406] fc6 <- pool5
I0513 14:38:47.116135  6018 net.cpp:380] fc6 -> fc6
I0513 14:38:47.763275  6018 net.cpp:122] Setting up fc6
I0513 14:38:47.763303  6018 net.cpp:129] Top shape: 32 4096 (131072)
I0513 14:38:47.763307  6018 net.cpp:137] Memory required for data: 263466752
I0513 14:38:47.763319  6018 layer_factory.hpp:77] Creating layer relu6
I0513 14:38:47.763329  6018 net.cpp:84] Creating Layer relu6
I0513 14:38:47.763334  6018 net.cpp:406] relu6 <- fc6
I0513 14:38:47.763341  6018 net.cpp:367] relu6 -> fc6 (in-place)
I0513 14:38:47.764266  6018 net.cpp:122] Setting up relu6
I0513 14:38:47.764278  6018 net.cpp:129] Top shape: 32 4096 (131072)
I0513 14:38:47.764281  6018 net.cpp:137] Memory required for data: 263991040
I0513 14:38:47.764286  6018 layer_factory.hpp:77] Creating layer drop6
I0513 14:38:47.764293  6018 net.cpp:84] Creating Layer drop6
I0513 14:38:47.764297  6018 net.cpp:406] drop6 <- fc6
I0513 14:38:47.764302  6018 net.cpp:367] drop6 -> fc6 (in-place)
I0513 14:38:47.764333  6018 net.cpp:122] Setting up drop6
I0513 14:38:47.764338  6018 net.cpp:129] Top shape: 32 4096 (131072)
I0513 14:38:47.764341  6018 net.cpp:137] Memory required for data: 264515328
I0513 14:38:47.764344  6018 layer_factory.hpp:77] Creating layer fc7
I0513 14:38:47.764355  6018 net.cpp:84] Creating Layer fc7
I0513 14:38:47.764359  6018 net.cpp:406] fc7 <- fc6
I0513 14:38:47.764364  6018 net.cpp:380] fc7 -> fc7
I0513 14:38:48.022755  6018 net.cpp:122] Setting up fc7
I0513 14:38:48.022783  6018 net.cpp:129] Top shape: 32 4096 (131072)
I0513 14:38:48.022789  6018 net.cpp:137] Memory required for data: 265039616
I0513 14:38:48.022799  6018 layer_factory.hpp:77] Creating layer relu7
I0513 14:38:48.022812  6018 net.cpp:84] Creating Layer relu7
I0513 14:38:48.022817  6018 net.cpp:406] relu7 <- fc7
I0513 14:38:48.022827  6018 net.cpp:367] relu7 -> fc7 (in-place)
I0513 14:38:48.023474  6018 net.cpp:122] Setting up relu7
I0513 14:38:48.023494  6018 net.cpp:129] Top shape: 32 4096 (131072)
I0513 14:38:48.023501  6018 net.cpp:137] Memory required for data: 265563904
I0513 14:38:48.023509  6018 layer_factory.hpp:77] Creating layer drop7
I0513 14:38:48.023521  6018 net.cpp:84] Creating Layer drop7
I0513 14:38:48.023527  6018 net.cpp:406] drop7 <- fc7
I0513 14:38:48.023540  6018 net.cpp:367] drop7 -> fc7 (in-place)
I0513 14:38:48.023587  6018 net.cpp:122] Setting up drop7
I0513 14:38:48.023599  6018 net.cpp:129] Top shape: 32 4096 (131072)
I0513 14:38:48.023604  6018 net.cpp:137] Memory required for data: 266088192
I0513 14:38:48.023609  6018 layer_factory.hpp:77] Creating layer fc8
I0513 14:38:48.023622  6018 net.cpp:84] Creating Layer fc8
I0513 14:38:48.023628  6018 net.cpp:406] fc8 <- fc7
I0513 14:38:48.023638  6018 net.cpp:380] fc8 -> fc8
I0513 14:38:48.036464  6018 net.cpp:122] Setting up fc8
I0513 14:38:48.036489  6018 net.cpp:129] Top shape: 32 196 (6272)
I0513 14:38:48.036494  6018 net.cpp:137] Memory required for data: 266113280
I0513 14:38:48.036506  6018 layer_factory.hpp:77] Creating layer fc8_fc8_0_split
I0513 14:38:48.036517  6018 net.cpp:84] Creating Layer fc8_fc8_0_split
I0513 14:38:48.036523  6018 net.cpp:406] fc8_fc8_0_split <- fc8
I0513 14:38:48.036535  6018 net.cpp:380] fc8_fc8_0_split -> fc8_fc8_0_split_0
I0513 14:38:48.036546  6018 net.cpp:380] fc8_fc8_0_split -> fc8_fc8_0_split_1
I0513 14:38:48.036598  6018 net.cpp:122] Setting up fc8_fc8_0_split
I0513 14:38:48.036607  6018 net.cpp:129] Top shape: 32 196 (6272)
I0513 14:38:48.036612  6018 net.cpp:129] Top shape: 32 196 (6272)
I0513 14:38:48.036645  6018 net.cpp:137] Memory required for data: 266163456
I0513 14:38:48.036651  6018 layer_factory.hpp:77] Creating layer accuracy
I0513 14:38:48.036660  6018 net.cpp:84] Creating Layer accuracy
I0513 14:38:48.036664  6018 net.cpp:406] accuracy <- fc8_fc8_0_split_0
I0513 14:38:48.036670  6018 net.cpp:406] accuracy <- label_val-data_1_split_0
I0513 14:38:48.036679  6018 net.cpp:380] accuracy -> accuracy
…
