…
I0501 14:36:08.343961 25244 net.cpp:294] The NetState phase (0) differed from the phase (1) specified by a rule in layer loss3/top-5
I0501 14:36:08.345017 25244 net.cpp:51] Initializing net from parameters:
state {
phase: TRAIN
level: 0
stage: ""
}
layer {
name: "train-data"
type: "Data"
top: "data"
top: "label"
include {
phase: TRAIN
}
transform_param {
mirror: true
crop_size: 224
mean_file: "/mnt/bigdisk/MANDIG2/digits/jobs/20200428-132136-11fe/mean.binaryproto"
}
data_param {
source: "/mnt/bigdisk/MANDIG2/digits/jobs/20200428-132136-11fe/train_db"
batch_size: 32
backend: LMDB
}
}
layer {
name: "conv1/7x7_s2"
type: "Convolution"
bottom: "data"
top: "conv1/7x7_s2"
param {
lr_mult: 1
decay_mult: 1
}
param {
lr_mult: 2
decay_mult: 0
}
convolution_param {
num_output: 64
pad: 3
kernel_size: 7
stride: 2
weight_filler {
type: "xavier"
std: 0.1
}
bias_filler {
type: "constant"
value: 0.2
}
}
}
layer {
name: "conv1/relu_7x7"
type: "ReLU"
bottom: "conv1/7x7_s2"
top: "conv1/7x7_s2"
}
layer {
name: "pool1/3x3_s2"
type: "Pooling"
bottom: "conv1/7x7_s2"
top: "pool1/3x3_s2"
pooling_param {
pool: MAX
kernel_size: 3
stride: 2
}
}
layer {
name: "pool1/norm1"
type: "LRN"
bottom: "pool1/3x3_s2"
top: "pool1/norm1"
lrn_param {
local_size: 5
alpha: 0.0001
beta: 0.75
}
}
layer {
name: "conv2/3x3_reduce"
type: "Convolution"
bottom: "pool1/norm1"
top: "conv2/3x3_reduce"
param {
lr_mult: 1
decay_mult: 1
}
param {
lr_mult: 2
decay_mult: 0
}
convolution_param {
num_output: 64
kernel_size: 1
weight_filler {
type: "xavier"
std: 0.1
}
bias_filler {
type: "constant"
value: 0.2
}
}
}
layer {
name: "conv2/relu_3x3_reduce"
type: "ReLU"
bottom: "conv2/3x3_reduce"
top: "conv2/3x3_reduce"
}
layer {
name: "conv2/3x3"
type: "Convolution"
bottom: "conv2/3x3_reduce"
top: "conv2/3x3"
param {
lr_mult: 1
decay_mult: 1
}
param {
lr_mult: 2
decay_mult: 0
}
convolution_param {
num_output: 192
pad: 1
kernel_size: 3
weight_filler {
type: "xavier"
std: 0.03
}
bias_filler {
type: "constant"
value: 0.2
}
}
}
layer {
name: "conv2/relu_3x3"
type: "ReLU"
bottom: "conv2/3x3"
top: "conv2/3x3"
}
layer {
name: "conv2/norm2"
type: "LRN"
bottom: "conv2/3x3"
top: "conv2/norm2"
lrn_param {
local_size: 5
alpha: 0.0001
beta: 0.75
}
}
layer {
name: "pool2/3x3_s2"
type: "Pooling"
bottom: "conv2/norm2"
top: "pool2/3x3_s2"
pooling_param {
pool: MAX
kernel_size: 3
stride: 2
}
}
layer {
name: "inception_3a/1x1"
type: "Convolution"
bottom: "pool2/3x3_s2"
top: "inception_3a/1x1"
param {
lr_mult: 1
decay_mult: 1
}
param {
lr_mult: 2
decay_mult: 0
}
convolution_param {
num_output: 64
kernel_size: 1
weight_filler {
type: "xavier"
std: 0.03
}
bias_filler {
type: "constant"
value: 0.2
}
}
}
layer {
name: "inception_3a/relu_1x1"
type: "ReLU"
bottom: "inception_3a/1x1"
top: "inception_3a/1x1"
}
layer {
name: "inception_3a/3x3_reduce"
type: "Convolution"
bottom: "pool2/3x3_s2"
top: "inception_3a/3x3_reduce"
param {
lr_mult: 1
decay_mult: 1
}
param {
lr_mult: 2
decay_mult: 0
}
convolution_param {
num_output: 96
kernel_size: 1
weight_filler {
type: "xavier"
std: 0.09
}
bias_filler {
type: "constant"
value: 0.2
}
}
}
layer {
name: "inception_3a/relu_3x3_reduce"
type: "ReLU"
bottom: "inception_3a/3x3_reduce"
top: "inception_3a/3x3_reduce"
}
layer {
name: "inception_3a/3x3"
type: "Convolution"
bottom: "inception_3a/3x3_reduce"
top: "inception_3a/3x3"
param {
lr_mult: 1
decay_mult: 1
}
param {
lr_mult: 2
decay_mult: 0
}
convolution_param {
num_output: 128
pad: 1
kernel_size: 3
weight_filler {
type: "xavier"
std: 0.03
}
bias_filler {
type: "constant"
value: 0.2
}
}
}
layer {
name: "inception_3a/relu_3x3"
type: "ReLU"
bottom: "inception_3a/3x3"
top: "inception_3a/3x3"
}
layer {
name: "inception_3a/5x5_reduce"
type: "Convolution"
bottom: "pool2/3x3_s2"
top: "inception_3a/5x5_reduce"
param {
lr_mult: 1
decay_mult: 1
}
param {
lr_mult: 2
decay_mult: 0
}
convolution_param {
num_output: 16
kernel_size: 1
weight_filler {
type: "xavier"
std: 0.2
}
bias_filler {
type: "constant"
value: 0.2
}
}
}
layer {
name: "inception_3a/relu_5x5_reduce"
type: "ReLU"
bottom: "inception_3a/5x5_reduce"
top: "inception_3a/5x5_reduce"
}
layer {
name: "inception_3a/5x5"
type: "Convolution"
bottom: "inception_3a/5x5_reduce"
top: "inception_3a/5x5"
param {
lr_mult: 1
decay_mult: 1
}
param {
lr_mult: 2
decay_mult: 0
}
convolution_param {
num_output: 32
pad: 2
kernel_size: 5
weight_filler {
type: "xavier"
std: 0.03
}
bias_filler {
type: "constant"
value: 0.2
}
}
}
layer {
name: "inception_3a/relu_5x5"
type: "ReLU"
bottom: "inception_3a/5x5"
top: "inception_3a/5x5"
}
layer {
name: "inception_3a/pool"
type: "Pooling"
bottom: "pool2/3x3_s2"
top: "inception_3a/pool"
pooling_param {
pool: MAX
kernel_size: 3
stride: 1
pad: 1
}
}
layer {
name: "inception_3a/pool_proj"
type: "Convolution"
bottom: "inception_3a/pool"
top: "inception_3a/pool_proj"
param {
lr_mult: 1
decay_mult: 1
}
param {
lr_mult: 2
decay_mult: 0
}
convolution_param {
num_output: 32
kernel_size: 1
weight_filler {
type: "xavier"
std: 0.1
}
bias_filler {
type: "constant"
value: 0.2
}
}
}
layer {
name: "inception_3a/relu_pool_proj"
type: "ReLU"
bottom: "inception_3a/pool_proj"
top: "inception_3a/pool_proj"
}
layer {
name: "inception_3a/output"
type: "Concat"
bottom: "inception_3a/1x1"
bottom: "inception_3a/3x3"
bottom: "inception_3a/5x5"
bottom: "inception_3a/pool_proj"
top: "inception_3a/output"
}
layer {
name: "inception_3b/1x1"
type: "Convolution"
bottom: "inception_3a/output"
top: "inception_3b/1x1"
param {
lr_mult: 1
decay_mult: 1
}
param {
lr_mult: 2
decay_mult: 0
}
convolution_param {
num_output: 128
kernel_size: 1
weight_filler {
type: "xavier"
std: 0.03
}
bias_filler {
type: "constant"
value: 0.2
}
}
}
layer {
name: "inception_3b/relu_1x1"
type: "ReLU"
bottom: "inception_3b/1x1"
top: "inception_3b/1x1"
}
layer {
name: "inception_3b/3x3_reduce"
type: "Convolution"
bottom: "inception_3a/output"
top: "inception_3b/3x3_reduce"
param {
lr_mult: 1
decay_mult: 1
}
param {
lr_mult: 2
decay_mult: 0
}
convolution_param {
num_output: 128
kernel_size: 1
weight_filler {
type: "xavier"
std: 0.09
}
bias_filler {
type: "constant"
value: 0.2
}
}
}
layer {
name: "inception_3b/relu_3x3_reduce"
type: "ReLU"
bottom: "inception_3b/3x3_reduce"
top: "inception_3b/3x3_reduce"
}
layer {
name: "inception_3b/3x3"
type: "Convolution"
bottom: "inception_3b/3x3_reduce"
top: "inception_3b/3x3"
param {
lr_mult: 1
decay_mult: 1
}
param {
lr_mult: 2
decay_mult: 0
}
convolution_param {
num_output: 192
pad: 1
kernel_size: 3
weight_filler {
type: "xavier"
std: 0.03
}
bias_filler {
type: "constant"
value: 0.2
}
}
}
layer {
name: "inception_3b/relu_3x3"
type: "ReLU"
bottom: "inception_3b/3x3"
top: "inception_3b/3x3"
}
layer {
name: "inception_3b/5x5_reduce"
type: "Convolution"
bottom: "inception_3a/output"
top: "inception_3b/5x5_reduce"
param {
lr_mult: 1
decay_mult: 1
}
param {
lr_mult: 2
decay_mult: 0
}
convolution_param {
num_output: 32
kernel_size: 1
weight_filler {
type: "xavier"
std: 0.2
}
bias_filler {
type: "constant"
value: 0.2
}
}
}
layer {
name: "inception_3b/relu_5x5_reduce"
type: "ReLU"
bottom: "inception_3b/5x5_reduce"
top: "inception_3b/5x5_reduce"
}
layer {
name: "inception_3b/5x5"
type: "Convolution"
bottom: "inception_3b/5x5_reduce"
top: "inception_3b/5x5"
param {
lr_mult: 1
decay_mult: 1
}
param {
lr_mult: 2
decay_mult: 0
}
convolution_param {
num_output: 96
pad: 2
kernel_size: 5
weight_filler {
type: "xavier"
std: 0.03
}
bias_filler {
type: "constant"
value: 0.2
}
}
}
layer {
name: "inception_3b/relu_5x5"
type: "ReLU"
bottom: "inception_3b/5x5"
top: "inception_3b/5x5"
}
layer {
name: "inception_3b/pool"
type: "Pooling"
bottom: "inception_3a/output"
top: "inception_3b/pool"
pooling_param {
pool: MAX
kernel_size: 3
stride: 1
pad: 1
}
}
layer {
name: "inception_3b/pool_proj"
type: "Convolution"
bottom: "inception_3b/pool"
top: "inception_3b/pool_proj"
param {
lr_mult: 1
decay_mult: 1
}
param {
lr_mult: 2
decay_mult: 0
}
convolution_param {
num_output: 64
kernel_size: 1
weight_filler {
type: "xavier"
std: 0.1
}
bias_filler {
type: "constant"
value: 0.2
}
}
}
layer {
name: "inception_3b/relu_pool_proj"
type: "ReLU"
bottom: "inception_3b/pool_proj"
top: "inception_3b/pool_proj"
}
layer {
name: "inception_3b/output"
type: "Concat"
bottom: "inception_3b/1x1"
bottom: "inception_3b/3x3"
bottom: "inception_3b/5x5"
bottom: "inception_3b/pool_proj"
top: "inception_3b/output"
}
layer {
name: "pool3/3x3_s2"
type: "Pooling"
bottom: "inception_3b/output"
top: "pool3/3x3_s2"
pooling_param {
pool: MAX
kernel_size: 3
stride: 2
}
}
layer {
name: "inception_4a/1x1"
type: "Convolution"
bottom: "pool3/3x3_s2"
top: "inception_4a/1x1"
param {
lr_mult: 1
decay_mult: 1
}
param {
lr_mult: 2
decay_mult: 0
}
convolution_param {
num_output: 192
kernel_size: 1
weight_filler {
type: "xavier"
std: 0.03
}
bias_filler {
type: "constant"
value: 0.2
}
}
}
layer {
name: "inception_4a/relu_1x1"
type: "ReLU"
bottom: "inception_4a/1x1"
top: "inception_4a/1x1"
}
layer {
name: "inception_4a/3x3_reduce"
type: "Convolution"
bottom: "pool3/3x3_s2"
top: "inception_4a/3x3_reduce"
param {
lr_mult: 1
decay_mult: 1
}
param {
lr_mult: 2
decay_mult: 0
}
convolution_param {
num_output: 96
kernel_size: 1
weight_filler {
type: "xavier"
std: 0.09
}
bias_filler {
type: "constant"
value: 0.2
}
}
}
layer {
name: "inception_4a/relu_3x3_reduce"
type: "ReLU"
bottom: "inception_4a/3x3_reduce"
top: "inception_4a/3x3_reduce"
}
layer {
name: "inception_4a/3x3"
type: "Convolution"
bottom: "inception_4a/3x3_reduce"
top: "inception_4a/3x3"
param {
lr_mult: 1
decay_mult: 1
}
param {
lr_mult: 2
decay_mult: 0
}
convolution_param {
num_output: 208
pad: 1
kernel_size: 3
weight_filler {
type: "xavier"
std: 0.03
}
bias_filler {
type: "constant"
value: 0.2
}
}
}
layer {
name: "inception_4a/relu_3x3"
type: "ReLU"
bottom: "inception_4a/3x3"
top: "inception_4a/3x3"
}
layer {
name: "inception_4a/5x5_reduce"
type: "Convolution"
bottom: "pool3/3x3_s2"
top: "inception_4a/5x5_reduce"
param {
lr_mult: 1
decay_mult: 1
}
param {
lr_mult: 2
decay_mult: 0
}
convolution_param {
num_output: 16
kernel_size: 1
weight_filler {
type: "xavier"
std: 0.2
}
bias_filler {
type: "constant"
value: 0.2
}
}
}
layer {
name: "inception_4a/relu_5x5_reduce"
type: "ReLU"
bottom: "inception_4a/5x5_reduce"
top: "inception_4a/5x5_reduce"
}
layer {
name: "inception_4a/5x5"
type: "Convolution"
bottom: "inception_4a/5x5_reduce"
top: "inception_4a/5x5"
param {
lr_mult: 1
decay_mult: 1
}
param {
lr_mult: 2
decay_mult: 0
}
convolution_param {
num_output: 48
pad: 2
kernel_size: 5
weight_filler {
type: "xavier"
std: 0.03
}
bias_filler {
type: "constant"
value: 0.2
}
}
}
layer {
name: "inception_4a/relu_5x5"
type: "ReLU"
bottom: "inception_4a/5x5"
top: "inception_4a/5x5"
}
layer {
name: "inception_4a/pool"
type: "Pooling"
bottom: "pool3/3x3_s2"
top: "inception_4a/pool"
pooling_param {
pool: MAX
kernel_size: 3
stride: 1
pad: 1
}
}
layer {
name: "inception_4a/pool_proj"
type: "Convolution"
bottom: "inception_4a/pool"
top: "inception_4a/pool_proj"
param {
lr_mult: 1
decay_mult: 1
}
param {
lr_mult: 2
decay_mult: 0
}
convolution_param {
num_output: 64
kernel_size: 1
weight_filler {
type: "xavier"
std: 0.1
}
bias_filler {
type: "constant"
value: 0.2
}
}
}
layer {
name: "inception_4a/relu_pool_proj"
type: "ReLU"
bottom: "inception_4a/pool_proj"
top: "inception_4a/pool_proj"
}
layer {
name: "inception_4a/output"
type: "Concat"
bottom: "inception_4a/1x1"
bottom: "inception_4a/3x3"
bottom: "inception_4a/5x5"
bottom: "inception_4a/pool_proj"
top: "inception_4a/output"
}
layer {
name: "loss1/ave_pool"
type: "Pooling"
bottom: "inception_4a/output"
top: "loss1/ave_pool"
pooling_param {
pool: AVE
kernel_size: 5
stride: 3
}
}
layer {
name: "loss1/conv"
type: "Convolution"
bottom: "loss1/ave_pool"
top: "loss1/conv"
param {
lr_mult: 1
decay_mult: 1
}
param {
lr_mult: 2
decay_mult: 0
}
convolution_param {
num_output: 128
kernel_size: 1
weight_filler {
type: "xavier"
std: 0.08
}
bias_filler {
type: "constant"
value: 0.2
}
}
}
layer {
name: "loss1/relu_conv"
type: "ReLU"
bottom: "loss1/conv"
top: "loss1/conv"
}
layer {
name: "loss1/fc"
type: "InnerProduct"
bottom: "loss1/conv"
top: "loss1/fc"
param {
lr_mult: 1
decay_mult: 1
}
param {
lr_mult: 2
decay_mult: 0
}
inner_product_param {
num_output: 1024
weight_filler {
type: "xavier"
std: 0.02
}
bias_filler {
type: "constant"
value: 0.2
}
}
}
layer {
name: "loss1/relu_fc"
type: "ReLU"
bottom: "loss1/fc"
top: "loss1/fc"
}
layer {
name: "loss1/drop_fc"
type: "Dropout"
bottom: "loss1/fc"
top: "loss1/fc"
dropout_param {
dropout_ratio: 0.7
}
}
layer {
name: "loss1/classifier"
type: "InnerProduct"
bottom: "loss1/fc"
top: "loss1/classifier"
param {
lr_mult: 1
decay_mult: 1
}
param {
lr_mult: 2
decay_mult: 0
}
inner_product_param {
num_output: 196
weight_filler {
type: "xavier"
std: 0.0009765625
}
bias_filler {
type: "constant"
value: 0
}
}
}
layer {
name: "loss1/loss"
type: "SoftmaxWithLoss"
bottom: "loss1/classifier"
bottom: "label"
top: "loss1/loss"
loss_weight: 0.3
}
layer {
name: "inception_4b/1x1"
type: "Convolution"
bottom: "inception_4a/output"
top: "inception_4b/1x1"
param {
lr_mult: 1
decay_mult: 1
}
param {
lr_mult: 2
decay_mult: 0
}
convolution_param {
num_output: 160
kernel_size: 1
weight_filler {
type: "xavier"
std: 0.03
}
bias_filler {
type: "constant"
value: 0.2
}
}
}
layer {
name: "inception_4b/relu_1x1"
type: "ReLU"
bottom: "inception_4b/1x1"
top: "inception_4b/1x1"
}
layer {
name: "inception_4b/3x3_reduce"
type: "Convolution"
bottom: "inception_4a/output"
top: "inception_4b/3x3_reduce"
param {
lr_mult: 1
decay_mult: 1
}
param {
lr_mult: 2
decay_mult: 0
}
convolution_param {
num_output: 112
kernel_size: 1
weight_filler {
type: "xavier"
std: 0.09
}
bias_filler {
type: "constant"
value: 0.2
}
}
}
layer {
name: "inception_4b/relu_3x3_reduce"
type: "ReLU"
bottom: "inception_4b/3x3_reduce"
top: "inception_4b/3x3_reduce"
}
layer {
name: "inception_4b/3x3"
type: "Convolution"
bottom: "inception_4b/3x3_reduce"
top: "inception_4b/3x3"
param {
lr_mult: 1
decay_mult: 1
}
param {
lr_mult: 2
decay_mult: 0
}
convolution_param {
num_output: 224
pad: 1
kernel_size: 3
weight_filler {
type: "xavier"
std: 0.03
}
bias_filler {
type: "constant"
value: 0.2
}
}
}
layer {
name: "inception_4b/relu_3x3"
type: "ReLU"
bottom: "inception_4b/3x3"
top: "inception_4b/3x3"
}
layer {
name: "inception_4b/5x5_reduce"
type: "Convolution"
bottom: "inception_4a/output"
top: "inception_4b/5x5_reduce"
param {
lr_mult: 1
decay_mult: 1
}
param {
lr_mult: 2
decay_mult: 0
}
convolution_param {
num_output: 24
kernel_size: 1
weight_filler {
type: "xavier"
std: 0.2
}
bias_filler {
type: "constant"
value: 0.2
}
}
}
layer {
name: "inception_4b/relu_5x5_reduce"
type: "ReLU"
bottom: "inception_4b/5x5_reduce"
top: "inception_4b/5x5_reduce"
}
layer {
name: "inception_4b/5x5"
type: "Convolution"
bottom: "inception_4b/5x5_reduce"
top: "inception_4b/5x5"
param {
lr_mult: 1
decay_mult: 1
}
param {
lr_mult: 2
decay_mult: 0
}
convolution_param {
num_output: 64
pad: 2
kernel_size: 5
weight_filler {
type: "xavier"
std: 0.03
}
bias_filler {
type: "constant"
value: 0.2
}
}
}
layer {
name: "inception_4b/relu_5x5"
type: "ReLU"
bottom: "inception_4b/5x5"
top: "inception_4b/5x5"
}
layer {
name: "inception_4b/pool"
type: "Pooling"
bottom: "inception_4a/output"
top: "inception_4b/pool"
pooling_param {
pool: MAX
kernel_size: 3
stride: 1
pad: 1
}
}
layer {
name: "inception_4b/pool_proj"
type: "Convolution"
bottom: "inception_4b/pool"
top: "inception_4b/pool_proj"
param {
lr_mult: 1
decay_mult: 1
}
param {
lr_mult: 2
decay_mult: 0
}
convolution_param {
num_output: 64
kernel_size: 1
weight_filler {
type: "xavier"
std: 0.1
}
bias_filler {
type: "constant"
value: 0.2
}
}
}
layer {
name: "inception_4b/relu_pool_proj"
type: "ReLU"
bottom: "inception_4b/pool_proj"
top: "inception_4b/pool_proj"
}
layer {
name: "inception_4b/output"
type: "Concat"
bottom: "inception_4b/1x1"
bottom: "inception_4b/3x3"
bottom: "inception_4b/5x5"
bottom: "inception_4b/pool_proj"
top: "inception_4b/output"
}
layer {
name: "inception_4c/1x1"
type: "Convolution"
bottom: "inception_4b/output"
top: "inception_4c/1x1"
param {
lr_mult: 1
decay_mult: 1
}
param {
lr_mult: 2
decay_mult: 0
}
convolution_param {
num_output: 128
kernel_size: 1
weight_filler {
type: "xavier"
std: 0.03
}
bias_filler {
type: "constant"
value: 0.2
}
}
}
layer {
name: "inception_4c/relu_1x1"
type: "ReLU"
bottom: "inception_4c/1x1"
top: "inception_4c/1x1"
}
layer {
name: "inception_4c/3x3_reduce"
type: "Convolution"
bottom: "inception_4b/output"
top: "inception_4c/3x3_reduce"
param {
lr_mult: 1
decay_mult: 1
}
param {
lr_mult: 2
decay_mult: 0
}
convolution_param {
num_output: 128
kernel_size: 1
weight_filler {
type: "xavier"
std: 0.09
}
bias_filler {
type: "constant"
value: 0.2
}
}
}
layer {
name: "inception_4c/relu_3x3_reduce"
type: "ReLU"
bottom: "inception_4c/3x3_reduce"
top: "inception_4c/3x3_reduce"
}
layer {
name: "inception_4c/3x3"
type: "Convolution"
bottom: "inception_4c/3x3_reduce"
top: "inception_4c/3x3"
param {
lr_mult: 1
decay_mult: 1
}
param {
lr_mult: 2
decay_mult: 0
}
convolution_param {
num_output: 256
pad: 1
kernel_size: 3
weight_filler {
type: "xavier"
std: 0.03
}
bias_filler {
type: "constant"
value: 0.2
}
}
}
layer {
name: "inception_4c/relu_3x3"
type: "ReLU"
bottom: "inception_4c/3x3"
top: "inception_4c/3x3"
}
layer {
name: "inception_4c/5x5_reduce"
type: "Convolution"
bottom: "inception_4b/output"
top: "inception_4c/5x5_reduce"
param {
lr_mult: 1
decay_mult: 1
}
param {
lr_mult: 2
decay_mult: 0
}
convolution_param {
num_output: 24
kernel_size: 1
weight_filler {
type: "xavier"
std: 0.2
}
bias_filler {
type: "constant"
value: 0.2
}
}
}
layer {
name: "inception_4c/relu_5x5_reduce"
type: "ReLU"
bottom: "inception_4c/5x5_reduce"
top: "inception_4c/5x5_reduce"
}
layer {
name: "inception_4c/5x5"
type: "Convolution"
bottom: "inception_4c/5x5_reduce"
top: "inception_4c/5x5"
param {
lr_mult: 1
decay_mult: 1
}
param {
lr_mult: 2
decay_mult: 0
}
convolution_param {
num_output: 64
pad: 2
kernel_size: 5
weight_filler {
type: "xavier"
std: 0.03
}
bias_filler {
type: "constant"
value: 0.2
}
}
}
layer {
name: "inception_4c/relu_5x5"
type: "ReLU"
bottom: "inception_4c/5x5"
top: "inception_4c/5x5"
}
layer {
name: "inception_4c/pool"
type: "Pooling"
bottom: "inception_4b/output"
top: "inception_4c/pool"
pooling_param {
pool: MAX
kernel_size: 3
stride: 1
pad: 1
}
}
layer {
name: "inception_4c/pool_proj"
type: "Convolution"
bottom: "inception_4c/pool"
top: "inception_4c/pool_proj"
param {
lr_mult: 1
decay_mult: 1
}
param {
lr_mult: 2
decay_mult: 0
}
convolution_param {
num_output: 64
kernel_size: 1
weight_filler {
type: "xavier"
std: 0.1
}
bias_filler {
type: "constant"
value: 0.2
}
}
}
layer {
name: "inception_4c/relu_pool_proj"
type: "ReLU"
bottom: "inception_4c/pool_proj"
top: "inception_4c/pool_proj"
}
layer {
name: "inception_4c/output"
type: "Concat"
bottom: "inception_4c/1x1"
bottom: "inception_4c/3x3"
bottom: "inception_4c/5x5"
bottom: "inception_4c/pool_proj"
top: "inception_4c/output"
}
layer {
name: "inception_4d/1x1"
type: "Convolution"
bottom: "inception_4c/output"
top: "inception_4d/1x1"
param {
lr_mult: 1
decay_mult: 1
}
param {
lr_mult: 2
decay_mult: 0
}
convolution_param {
num_output: 112
kernel_size: 1
weight_filler {
type: "xavier"
std: 0.03
}
bias_filler {
type: "constant"
value: 0.2
}
}
}
layer {
name: "inception_4d/relu_1x1"
type: "ReLU"
bottom: "inception_4d/1x1"
top: "inception_4d/1x1"
}
layer {
name: "inception_4d/3x3_reduce"
type: "Convolution"
bottom: "inception_4c/output"
top: "inception_4d/3x3_reduce"
param {
lr_mult: 1
decay_mult: 1
}
param {
lr_mult: 2
decay_mult: 0
}
convolution_param {
num_output: 144
kernel_size: 1
weight_filler {
type: "xavier"
std: 0.09
}
bias_filler {
type: "constant"
value: 0.2
}
}
}
layer {
name: "inception_4d/relu_3x3_reduce"
type: "ReLU"
bottom: "inception_4d/3x3_reduce"
top: "inception_4d/3x3_reduce"
}
layer {
name: "inception_4d/3x3"
type: "Convolution"
bottom: "inception_4d/3x3_reduce"
top: "inception_4d/3x3"
param {
lr_mult: 1
decay_mult: 1
}
param {
lr_mult: 2
decay_mult: 0
}
convolution_param {
num_output: 288
pad: 1
kernel_size: 3
weight_filler {
type: "xavier"
std: 0.03
}
bias_filler {
type: "constant"
value: 0.2
}
}
}
layer {
name: "inception_4d/relu_3x3"
type: "ReLU"
bottom: "inception_4d/3x3"
top: "inception_4d/3x3"
}
layer {
name: "inception_4d/5x5_reduce"
type: "Convolution"
bottom: "inception_4c/output"
top: "inception_4d/5x5_reduce"
param {
lr_mult: 1
decay_mult: 1
}
param {
lr_mult: 2
decay_mult: 0
}
convolution_param {
num_output: 32
kernel_size: 1
weight_filler {
type: "xavier"
std: 0.2
}
bias_filler {
type: "constant"
value: 0.2
}
}
}
layer {
name: "inception_4d/relu_5x5_reduce"
type: "ReLU"
bottom: "inception_4d/5x5_reduce"
top: "inception_4d/5x5_reduce"
}
layer {
name: "inception_4d/5x5"
type: "Convolution"
bottom: "inception_4d/5x5_reduce"
top: "inception_4d/5x5"
param {
lr_mult: 1
decay_mult: 1
}
param {
lr_mult: 2
decay_mult: 0
}
convolution_param {
num_output: 64
pad: 2
kernel_size: 5
weight_filler {
type: "xavier"
std: 0.03
}
bias_filler {
type: "constant"
value: 0.2
}
}
}
layer {
name: "inception_4d/relu_5x5"
type: "ReLU"
bottom: "inception_4d/5x5"
top: "inception_4d/5x5"
}
layer {
name: "inception_4d/pool"
type: "Pooling"
bottom: "inception_4c/output"
top: "inception_4d/pool"
pooling_param {
pool: MAX
kernel_size: 3
stride: 1
pad: 1
}
}
layer {
name: "inception_4d/pool_proj"
type: "Convolution"
bottom: "inception_4d/pool"
top: "inception_4d/pool_proj"
param {
lr_mult: 1
decay_mult: 1
}
param {
lr_mult: 2
decay_mult: 0
}
convolution_param {
num_output: 64
kernel_size: 1
weight_filler {
type: "xavier"
std: 0.1
}
bias_filler {
type: "constant"
value: 0.2
}
}
}
layer {
name: "inception_4d/relu_pool_proj"
type: "ReLU"
bottom: "inception_4d/pool_proj"
top: "inception_4d/pool_proj"
}
layer {
name: "inception_4d/output"
type: "Concat"
bottom: "inception_4d/1x1"
bottom: "inception_4d/3x3"
bottom: "inception_4d/5x5"
bottom: "inception_4d/pool_proj"
top: "inception_4d/output"
}
layer {
name: "loss2/ave_pool"
type: "Pooling"
bottom: "inception_4d/output"
top: "loss2/ave_pool"
pooling_param {
pool: AVE
kernel_size: 5
stride: 3
}
}
layer {
name: "loss2/conv"
type: "Convolution"
bottom: "loss2/ave_pool"
top: "loss2/conv"
param {
lr_mult: 1
decay_mult: 1
}
param {
lr_mult: 2
decay_mult: 0
}
convolution_param {
num_output: 128
kernel_size: 1
weight_filler {
type: "xavier"
std: 0.08
}
bias_filler {
type: "constant"
value: 0.2
}
}
}
layer {
name: "loss2/relu_conv"
type: "ReLU"
bottom: "loss2/conv"
top: "loss2/conv"
}
layer {
name: "loss2/fc"
type: "InnerProduct"
bottom: "loss2/conv"
top: "loss2/fc"
param {
lr_mult: 1
decay_mult: 1
}
param {
lr_mult: 2
decay_mult: 0
}
inner_product_param {
num_output: 1024
weight_filler {
type: "xavier"
std: 0.02
}
bias_filler {
type: "constant"
value: 0.2
}
}
}
layer {
name: "loss2/relu_fc"
type: "ReLU"
bottom: "loss2/fc"
top: "loss2/fc"
}
layer {
name: "loss2/drop_fc"
type: "Dropout"
bottom: "loss2/fc"
top: "loss2/fc"
dropout_param {
dropout_ratio: 0.7
}
}
layer {
name: "loss2/classifier"
type: "InnerProduct"
bottom: "loss2/fc"
top: "loss2/classifier"
param {
lr_mult: 1
decay_mult: 1
}
param {
lr_mult: 2
decay_mult: 0
}
inner_product_param {
num_output: 196
weight_filler {
type: "xavier"
std: 0.0009765625
}
bias_filler {
type: "constant"
value: 0
}
}
}
layer {
name: "loss2/loss"
type: "SoftmaxWithLoss"
bottom: "loss2/classifier"
bottom: "label"
top: "loss2/loss"
loss_weight: 0.3
}
layer {
name: "inception_4e/1x1"
type: "Convolution"
bottom: "inception_4d/output"
top: "inception_4e/1x1"
param {
lr_mult: 1
decay_mult: 1
}
param {
lr_mult: 2
decay_mult: 0
}
convolution_param {
num_output: 256
kernel_size: 1
weight_filler {
type: "xavier"
std: 0.03
}
bias_filler {
type: "constant"
value: 0.2
}
}
}
layer {
name: "inception_4e/relu_1x1"
type: "ReLU"
bottom: "inception_4e/1x1"
top: "inception_4e/1x1"
}
layer {
name: "inception_4e/3x3_reduce"
type: "Convolution"
bottom: "inception_4d/output"
top: "inception_4e/3x3_reduce"
param {
lr_mult: 1
decay_mult: 1
}
param {
lr_mult: 2
decay_mult: 0
}
convolution_param {
num_output: 160
kernel_size: 1
weight_filler {
type: "xavier"
std: 0.09
}
bias_filler {
type: "constant"
value: 0.2
}
}
}
layer {
name: "inception_4e/relu_3x3_reduce"
type: "ReLU"
bottom: "inception_4e/3x3_reduce"
top: "inception_4e/3x3_reduce"
}
layer {
name: "inception_4e/3x3"
type: "Convolution"
bottom: "inception_4e/3x3_reduce"
top: "inception_4e/3x3"
param {
lr_mult: 1
decay_mult: 1
}
param {
lr_mult: 2
decay_mult: 0
}
convolution_param {
num_output: 320
pad: 1
kernel_size: 3
weight_filler {
type: "xavier"
std: 0.03
}
bias_filler {
type: "constant"
value: 0.2
}
}
}
layer {
name: "inception_4e/relu_3x3"
type: "ReLU"
bottom: "inception_4e/3x3"
top: "inception_4e/3x3"
}
layer {
name: "inception_4e/5x5_reduce"
type: "Convolution"
bottom: "inception_4d/output"
top: "inception_4e/5x5_reduce"
param {
lr_mult: 1
decay_mult: 1
}
param {
lr_mult: 2
decay_mult: 0
}
convolution_param {
num_output: 32
kernel_size: 1
weight_filler {
type: "xavier"
std: 0.2
}
bias_filler {
type: "constant"
val
I0501 14:36:08.345643 25244 layer_factory.hpp:77] Creating layer train-data
I0501 14:36:08.349411 25244 db_lmdb.cpp:35] Opened lmdb /mnt/bigdisk/MANDIG2/digits/jobs/20200428-132136-11fe/train_db
I0501 14:36:08.349725 25244 net.cpp:84] Creating Layer train-data
I0501 14:36:08.349740 25244 net.cpp:380] train-data -> data
I0501 14:36:08.349763 25244 net.cpp:380] train-data -> label
I0501 14:36:08.349777 25244 data_transformer.cpp:25] Loading mean file from: /mnt/bigdisk/MANDIG2/digits/jobs/20200428-132136-11fe/mean.binaryproto
I0501 14:36:08.364656 25244 data_layer.cpp:45] output data size: 32,3,224,224
I0501 14:36:08.509605 25244 net.cpp:122] Setting up train-data
I0501 14:36:08.509636 25244 net.cpp:129] Top shape: 32 3 224 224 (4816896)
I0501 14:36:08.509646 25244 net.cpp:129] Top shape: 32 (32)
I0501 14:36:08.509654 25244 net.cpp:137] Memory required for data: 19267712
I0501 14:36:08.509668 25244 layer_factory.hpp:77] Creating layer label_train-data_1_split
I0501 14:36:08.509714 25244 net.cpp:84] Creating Layer label_train-data_1_split
I0501 14:36:08.509728 25244 net.cpp:406] label_train-data_1_split <- label
I0501 14:36:08.509747 25244 net.cpp:380] label_train-data_1_split -> label_train-data_1_split_0
I0501 14:36:08.509763 25244 net.cpp:380] label_train-data_1_split -> label_train-data_1_split_1
I0501 14:36:08.509776 25244 net.cpp:380] label_train-data_1_split -> label_train-data_1_split_2
I0501 14:36:08.509842 25244 net.cpp:122] Setting up label_train-data_1_split
I0501 14:36:08.509855 25244 net.cpp:129] Top shape: 32 (32)
I0501 14:36:08.509861 25244 net.cpp:129] Top shape: 32 (32)
I0501 14:36:08.509871 25244 net.cpp:129] Top shape: 32 (32)
I0501 14:36:08.509878 25244 net.cpp:137] Memory required for data: 19268096
I0501 14:36:08.509887 25244 layer_factory.hpp:77] Creating layer conv1/7x7_s2
I0501 14:36:08.509910 25244 net.cpp:84] Creating Layer conv1/7x7_s2
I0501 14:36:08.509920 25244 net.cpp:406] conv1/7x7_s2 <- data
I0501 14:36:08.509932 25244 net.cpp:380] conv1/7x7_s2 -> conv1/7x7_s2
I0501 14:36:09.992508 25244 net.cpp:122] Setting up conv1/7x7_s2
I0501 14:36:09.992542 25244 net.cpp:129] Top shape: 32 64 112 112 (25690112)
I0501 14:36:09.992549 25244 net.cpp:137] Memory required for data: 122028544
I0501 14:36:09.992578 25244 layer_factory.hpp:77] Creating layer conv1/relu_7x7
I0501 14:36:09.992595 25244 net.cpp:84] Creating Layer conv1/relu_7x7
I0501 14:36:09.992604 25244 net.cpp:406] conv1/relu_7x7 <- conv1/7x7_s2
I0501 14:36:09.992619 25244 net.cpp:367] conv1/relu_7x7 -> conv1/7x7_s2 (in-place)
I0501 14:36:09.993117 25244 net.cpp:122] Setting up conv1/relu_7x7
I0501 14:36:09.993134 25244 net.cpp:129] Top shape: 32 64 112 112 (25690112)
I0501 14:36:09.993141 25244 net.cpp:137] Memory required for data: 224788992
I0501 14:36:09.993151 25244 layer_factory.hpp:77] Creating layer pool1/3x3_s2
I0501 14:36:09.993168 25244 net.cpp:84] Creating Layer pool1/3x3_s2
I0501 14:36:09.993180 25244 net.cpp:406] pool1/3x3_s2 <- conv1/7x7_s2
I0501 14:36:09.993191 25244 net.cpp:380] pool1/3x3_s2 -> pool1/3x3_s2
I0501 14:36:09.993257 25244 net.cpp:122] Setting up pool1/3x3_s2
I0501 14:36:09.993273 25244 net.cpp:129] Top shape: 32 64 56 56 (6422528)
I0501 14:36:09.993281 25244 net.cpp:137] Memory required for data: 250479104
I0501 14:36:09.993291 25244 layer_factory.hpp:77] Creating layer pool1/norm1
I0501 14:36:09.993311 25244 net.cpp:84] Creating Layer pool1/norm1
I0501 14:36:09.993321 25244 net.cpp:406] pool1/norm1 <- pool1/3x3_s2
I0501 14:36:09.993335 25244 net.cpp:380] pool1/norm1 -> pool1/norm1
I0501 14:36:10.004596 25244 net.cpp:122] Setting up pool1/norm1
I0501 14:36:10.004616 25244 net.cpp:129] Top shape: 32 64 56 56 (6422528)
I0501 14:36:10.004627 25244 net.cpp:137] Memory required for data: 276169216
I0501 14:36:10.004639 25244 layer_factory.hpp:77] Creating layer conv2/3x3_reduce
I0501 14:36:10.004660 25244 net.cpp:84] Creating Layer conv2/3x3_reduce
I0501 14:36:10.004671 25244 net.cpp:406] conv2/3x3_reduce <- pool1/norm1
I0501 14:36:10.004685 25244 net.cpp:380] conv2/3x3_reduce -> conv2/3x3_reduce
I0501 14:36:10.019217 25244 net.cpp:122] Setting up conv2/3x3_reduce
I0501 14:36:10.019245 25244 net.cpp:129] Top shape: 32 64 56 56 (6422528)
I0501 14:36:10.019254 25244 net.cpp:137] Memory required for data: 301859328
I0501 14:36:10.019275 25244 layer_factory.hpp:77] Creating layer conv2/relu_3x3_reduce
I0501 14:36:10.019291 25244 net.cpp:84] Creating Layer conv2/relu_3x3_reduce
I0501 14:36:10.019299 25244 net.cpp:406] conv2/relu_3x3_reduce <- conv2/3x3_reduce
I0501 14:36:10.019310 25244 net.cpp:367] conv2/relu_3x3_reduce -> conv2/3x3_reduce (in-place)
I0501 14:36:10.019780 25244 net.cpp:122] Setting up conv2/relu_3x3_reduce
I0501 14:36:10.019798 25244 net.cpp:129] Top shape: 32 64 56 56 (6422528)
I0501 14:36:10.019807 25244 net.cpp:137] Memory required for data: 327549440
I0501 14:36:10.019814 25244 layer_factory.hpp:77] Creating layer conv2/3x3
I0501 14:36:10.019835 25244 net.cpp:84] Creating Layer conv2/3x3
I0501 14:36:10.019845 25244 net.cpp:406] conv2/3x3 <- conv2/3x3_reduce
I0501 14:36:10.019886 25244 net.cpp:380] conv2/3x3 -> conv2/3x3
I0501 14:36:10.024684 25244 net.cpp:122] Setting up conv2/3x3
I0501 14:36:10.024701 25244 net.cpp:129] Top shape: 32 192 56 56 (19267584)
I0501 14:36:10.024709 25244 net.cpp:137] Memory required for data: 404619776
I0501 14:36:10.024727 25244 layer_factory.hpp:77] Creating layer conv2/relu_3x3
I0501 14:36:10.024737 25244 net.cpp:84] Creating Layer conv2/relu_3x3
I0501 14:36:10.024746 25244 net.cpp:406] conv2/relu_3x3 <- conv2/3x3
I0501 14:36:10.024756 25244 net.cpp:367] conv2/relu_3x3 -> conv2/3x3 (in-place)
I0501 14:36:10.025259 25244 net.cpp:122] Setting up conv2/relu_3x3
I0501 14:36:10.025274 25244 net.cpp:129] Top shape: 32 192 56 56 (19267584)
I0501 14:36:10.025279 25244 net.cpp:137] Memory required for data: 481690112
I0501 14:36:10.025293 25244 layer_factory.hpp:77] Creating layer conv2/norm2
I0501 14:36:10.025311 25244 net.cpp:84] Creating Layer conv2/norm2
I0501 14:36:10.025321 25244 net.cpp:406] conv2/norm2 <- conv2/3x3
I0501 14:36:10.025331 25244 net.cpp:380] conv2/norm2 -> conv2/norm2
I0501 14:36:10.026116 25244 net.cpp:122] Setting up conv2/norm2
I0501 14:36:10.026135 25244 net.cpp:129] Top shape: 32 192 56 56 (19267584)
I0501 14:36:10.026145 25244 net.cpp:137] Memory required for data: 558760448
I0501 14:36:10.026158 25244 layer_factory.hpp:77] Creating layer pool2/3x3_s2
I0501 14:36:10.026173 25244 net.cpp:84] Creating Layer pool2/3x3_s2
I0501 14:36:10.026182 25244 net.cpp:406] pool2/3x3_s2 <- conv2/norm2
I0501 14:36:10.026199 25244 net.cpp:380] pool2/3x3_s2 -> pool2/3x3_s2
I0501 14:36:10.026253 25244 net.cpp:122] Setting up pool2/3x3_s2
I0501 14:36:10.026268 25244 net.cpp:129] Top shape: 32 192 28 28 (4816896)
I0501 14:36:10.026280 25244 net.cpp:137] Memory required for data: 578028032
I0501 14:36:10.026293 25244 layer_factory.hpp:77] Creating layer pool2/3x3_s2_pool2/3x3_s2_0_split
I0501 14:36:10.026312 25244 net.cpp:84] Creating Layer pool2/3x3_s2_pool2/3x3_s2_0_split
I0501 14:36:10.026322 25244 net.cpp:406] pool2/3x3_s2_pool2/3x3_s2_0_split <- pool2/3x3_s2
I0501 14:36:10.026337 25244 net.cpp:380] pool2/3x3_s2_pool2/3x3_s2_0_split -> pool2/3x3_s2_pool2/3x3_s2_0_split_0
I0501 14:36:10.026355 25244 net.cpp:380] pool2/3x3_s2_pool2/3x3_s2_0_split -> pool2/3x3_s2_pool2/3x3_s2_0_split_1
I0501 14:36:10.026367 25244 net.cpp:380] pool2/3x3_s2_pool2/3x3_s2_0_split -> pool2/3x3_s2_pool2/3x3_s2_0_split_2
I0501 14:36:10.026382 25244 net.cpp:380] pool2/3x3_s2_pool2/3x3_s2_0_split -> pool2/3x3_s2_pool2/3x3_s2_0_split_3
I0501 14:36:10.026449 25244 net.cpp:122] Setting up pool2/3x3_s2_pool2/3x3_s2_0_split
I0501 14:36:10.026464 25244 net.cpp:129] Top shape: 32 192 28 28 (4816896)
I0501 14:36:10.026476 25244 net.cpp:129] Top shape: 32 192 28 28 (4816896)
I0501 14:36:10.026523 25244 net.cpp:129] Top shape: 32 192 28 28 (4816896)
I0501 14:36:10.026531 25244 net.cpp:129] Top shape: 32 192 28 28 (4816896)
I0501 14:36:10.026540 25244 net.cpp:137] Memory required for data: 655098368
I0501 14:36:10.026549 25244 layer_factory.hpp:77] Creating layer inception_3a/1x1
I0501 14:36:10.026566 25244 net.cpp:84] Creating Layer inception_3a/1x1
I0501 14:36:10.026576 25244 net.cpp:406] inception_3a/1x1 <- pool2/3x3_s2_pool2/3x3_s2_0_split_0
I0501 14:36:10.026588 25244 net.cpp:380] inception_3a/1x1 -> inception_3a/1x1
I0501 14:36:10.029243 25244 net.cpp:122] Setting up inception_3a/1x1
I0501 14:36:10.029263 25244 net.cpp:129] Top shape: 32 64 28 28 (1605632)
I0501 14:36:10.029273 25244 net.cpp:137] Memory required for data: 661520896
I0501 14:36:10.029292 25244 layer_factory.hpp:77] Creating layer inception_3a/relu_1x1
I0501 14:36:10.029304 25244 net.cpp:84] Creating Layer inception_3a/relu_1x1
I0501 14:36:10.029316 25244 net.cpp:406] inception_3a/relu_1x1 <- inception_3a/1x1
I0501 14:36:10.029331 25244 net.cpp:367] inception_3a/relu_1x1 -> inception_3a/1x1 (in-place)
I0501 14:36:10.029834 25244 net.cpp:122] Setting up inception_3a/relu_1x1
I0501 14:36:10.029853 25244 net.cpp:129] Top shape: 32 64 28 28 (1605632)
I0501 14:36:10.029867 25244 net.cpp:137] Memory required for data: 667943424
I0501 14:36:10.029902 25244 layer_factory.hpp:77] Creating layer inception_3a/3x3_reduce
I0501 14:36:10.029922 25244 net.cpp:84] Creating Layer inception_3a/3x3_reduce
I0501 14:36:10.029933 25244 net.cpp:406] inception_3a/3x3_reduce <- pool2/3x3_s2_pool2/3x3_s2_0_split_1
I0501 14:36:10.029953 25244 net.cpp:380] inception_3a/3x3_reduce -> inception_3a/3x3_reduce
I0501 14:36:10.050953 25244 net.cpp:122] Setting up inception_3a/3x3_reduce
I0501 14:36:10.050981 25244 net.cpp:129] Top shape: 32 96 28 28 (2408448)
I0501 14:36:10.050993 25244 net.cpp:137] Memory required for data: 677577216
I0501 14:36:10.051017 25244 layer_factory.hpp:77] Creating layer inception_3a/relu_3x3_reduce
I0501 14:36:10.051039 25244 net.cpp:84] Creating Layer inception_3a/relu_3x3_reduce
I0501 14:36:10.051050 25244 net.cpp:406] inception_3a/relu_3x3_reduce <- inception_3a/3x3_reduce
I0501 14:36:10.051064 25244 net.cpp:367] inception_3a/relu_3x3_reduce -> inception_3a/3x3_reduce (in-place)
I0501 14:36:10.051774 25244 net.cpp:122] Setting up inception_3a/relu_3x3_reduce
I0501 14:36:10.051790 25244 net.cpp:129] Top shape: 32 96 28 28 (2408448)
I0501 14:36:10.051801 25244 net.cpp:137] Memory required for data: 687211008
I0501 14:36:10.051811 25244 layer_factory.hpp:77] Creating layer inception_3a/3x3
I0501 14:36:10.051832 25244 net.cpp:84] Creating Layer inception_3a/3x3
I0501 14:36:10.051838 25244 net.cpp:406] inception_3a/3x3 <- inception_3a/3x3_reduce
I0501 14:36:10.051854 25244 net.cpp:380] inception_3a/3x3 -> inception_3a/3x3
I0501 14:36:10.055160 25244 net.cpp:122] Setting up inception_3a/3x3
I0501 14:36:10.055179 25244 net.cpp:129] Top shape: 32 128 28 28 (3211264)
I0501 14:36:10.055189 25244 net.cpp:137] Memory required for data: 700056064
I0501 14:36:10.055202 25244 layer_factory.hpp:77] Creating layer inception_3a/relu_3x3
I0501 14:36:10.055213 25244 net.cpp:84] Creating Layer inception_3a/relu_3x3
I0501 14:36:10.055219 25244 net.cpp:406] inception_3a/relu_3x3 <- inception_3a/3x3
I0501 14:36:10.055233 25244 net.cpp:367] inception_3a/relu_3x3 -> inception_3a/3x3 (in-place)
I0501 14:36:10.055971 25244 net.cpp:122] Setting up inception_3a/relu_3x3
I0501 14:36:10.055987 25244 net.cpp:129] Top shape: 32 128 28 28 (3211264)
I0501 14:36:10.055994 25244 net.cpp:137] Memory required for data: 712901120
I0501 14:36:10.056003 25244 layer_factory.hpp:77] Creating layer inception_3a/5x5_reduce
I0501 14:36:10.056021 25244 net.cpp:84] Creating Layer inception_3a/5x5_reduce
I0501 14:36:10.056030 25244 net.cpp:406] inception_3a/5x5_reduce <- pool2/3x3_s2_pool2/3x3_s2_0_split_2
I0501 14:36:10.056044 25244 net.cpp:380] inception_3a/5x5_reduce -> inception_3a/5x5_reduce
I0501 14:36:10.058372 25244 net.cpp:122] Setting up inception_3a/5x5_reduce
I0501 14:36:10.058387 25244 net.cpp:129] Top shape: 32 16 28 28 (401408)
I0501 14:36:10.058393 25244 net.cpp:137] Memory required for data: 714506752
I0501 14:36:10.058403 25244 layer_factory.hpp:77] Creating layer inception_3a/relu_5x5_reduce
I0501 14:36:10.058415 25244 net.cpp:84] Creating Layer inception_3a/relu_5x5_reduce
I0501 14:36:10.058423 25244 net.cpp:406] inception_3a/relu_5x5_reduce <- inception_3a/5x5_reduce
I0501 14:36:10.058431 25244 net.cpp:367] inception_3a/relu_5x5_reduce -> inception_3a/5x5_reduce (in-place)
I0501 14:36:10.061059 25244 net.cpp:122] Setting up inception_3a/relu_5x5_reduce
I0501 14:36:10.061080 25244 net.cpp:129] Top shape: 32 16 28 28 (401408)
I0501 14:36:10.061089 25244 net.cpp:137] Memory required for data: 716112384
I0501 14:36:10.061096 25244 layer_factory.hpp:77] Creating layer inception_3a/5x5
I0501 14:36:10.061115 25244 net.cpp:84] Creating Layer inception_3a/5x5
I0501 14:36:10.061123 25244 net.cpp:406] inception_3a/5x5 <- inception_3a/5x5_reduce
I0501 14:36:10.061137 25244 net.cpp:380] inception_3a/5x5 -> inception_3a/5x5
I0501 14:36:10.064580 25244 net.cpp:122] Setting up inception_3a/5x5
I0501 14:36:10.064599 25244 net.cpp:129] Top shape: 32 32 28 28 (802816)
I0501 14:36:10.064605 25244 net.cpp:137] Memory required for data: 719323648
I0501 14:36:10.064640 25244 layer_factory.hpp:77] Creating layer inception_3a/relu_5x5
I0501 14:36:10.064651 25244 net.cpp:84] Creating Layer inception_3a/relu_5x5
I0501 14:36:10.064658 25244 net.cpp:406] inception_3a/relu_5x5 <- inception_3a/5x5
I0501 14:36:10.064669 25244 net.cpp:367] inception_3a/relu_5x5 -> inception_3a/5x5 (in-place)
I0501 14:36:10.065426 25244 net.cpp:122] Setting up inception_3a/relu_5x5
I0501 14:36:10.065443 25244 net.cpp:129] Top shape: 32 32 28 28 (802816)
I0501 14:36:10.065449 25244 net.cpp:137] Memory required for data: 722534912
I0501 14:36:10.065456 25244 layer_factory.hpp:77] Creating layer inception_3a/pool
I0501 14:36:10.065470 25244 net.cpp:84] Creating Layer inception_3a/pool
I0501 14:36:10.065481 25244 net.cpp:406] inception_3a/pool <- pool2/3x3_s2_pool2/3x3_s2_0_split_3
I0501 14:36:10.065497 25244 net.cpp:380] inception_3a/pool -> inception_3a/pool
I0501 14:36:10.065554 25244 net.cpp:122] Setting up inception_3a/pool
I0501 14:36:10.065565 25244 net.cpp:129] Top shape: 32 192 28 28 (4816896)
I0501 14:36:10.065577 25244 net.cpp:137] Memory required for data: 741802496
I0501 14:36:10.065588 25244 layer_factory.hpp:77] Creating layer inception_3a/pool_proj
I0501 14:36:10.065611 25244 net.cpp:84] Creating Layer inception_3a/pool_proj
I0501 14:36:10.065621 25244 net.cpp:406] inception_3a/pool_proj <- inception_3a/pool
I0501 14:36:10.065635 25244 net.cpp:380] inception_3a/pool_proj -> inception_3a/pool_proj
I0501 14:36:10.068346 25244 net.cpp:122] Setting up inception_3a/pool_proj
I0501 14:36:10.068365 25244 net.cpp:129] Top shape: 32 32 28 28 (802816)
I0501 14:36:10.068373 25244 net.cpp:137] Memory required for data: 745013760
I0501 14:36:10.068392 25244 layer_factory.hpp:77] Creating layer inception_3a/relu_pool_proj
I0501 14:36:10.068403 25244 net.cpp:84] Creating Layer inception_3a/relu_pool_proj
I0501 14:36:10.068411 25244 net.cpp:406] inception_3a/relu_pool_proj <- inception_3a/pool_proj
I0501 14:36:10.068423 25244 net.cpp:367] inception_3a/relu_pool_proj -> inception_3a/pool_proj (in-place)
I0501 14:36:10.068934 25244 net.cpp:122] Setting up inception_3a/relu_pool_proj
I0501 14:36:10.068949 25244 net.cpp:129] Top shape: 32 32 28 28 (802816)
I0501 14:36:10.068955 25244 net.cpp:137] Memory required for data: 748225024
I0501 14:36:10.068962 25244 layer_factory.hpp:77] Creating layer inception_3a/output
I0501 14:36:10.068975 25244 net.cpp:84] Creating Layer inception_3a/output
I0501 14:36:10.068984 25244 net.cpp:406] inception_3a/output <- inception_3a/1x1
I0501 14:36:10.068994 25244 net.cpp:406] inception_3a/output <- inception_3a/3x3
I0501 14:36:10.069001 25244 net.cpp:406] inception_3a/output <- inception_3a/5x5
I0501 14:36:10.069010 25244 net.cpp:406] inception_3a/output <- inception_3a/pool_proj
I0501 14:36:10.069021 25244 net.cpp:380] inception_3a/output -> inception_3a/output
I0501 14:36:10.069059 25244 net.cpp:122] Setting up inception_3a/output
I0501 14:36:10.069070 25244 net.cpp:129] Top shape: 32 256 28 28 (6422528)
I0501 14:36:10.069078 25244 net.cpp:137] Memory required for data: 773915136
I0501 14:36:10.069084 25244 layer_factory.hpp:77] Creating layer inception_3a/output_inception_3a/output_0_split
I0501 14:36:10.069097 25244 net.cpp:84] Creating Layer inception_3a/output_inception_3a/output_0_split
I0501 14:36:10.069103 25244 net.cpp:406] inception_3a/output_inception_3a/output_0_split <- inception_3a/output
I0501 14:36:10.069113 25244 net.cpp:380] inception_3a/output_inception_3a/output_0_split -> inception_3a/output_inception_3a/output_0_split_0
I0501 14:36:10.069125 25244 net.cpp:380] inception_3a/output_inception_3a/output_0_split -> inception_3a/output_inception_3a/output_0_split_1
I0501 14:36:10.069136 25244 net.cpp:380] inception_3a/output_inception_3a/output_0_split -> inception_3a/output_inception_3a/output_0_split_2
I0501 14:36:10.069146 25244 net.cpp:380] inception_3a/output_inception_3a/output_0_split -> inception_3a/output_inception_3a/output_0_split_3
I0501 14:36:10.069211 25244 net.cpp:122] Setting up inception_3a/output_inception_3a/output_0_split
I0501 14:36:10.069242 25244 net.cpp:129] Top shape: 32 256 28 28 (6422528)
I0501 14:36:10.069252 25244 net.cpp:129] Top shape: 32 256 28 28 (6422528)
I0501 14:36:10.069260 25244 net.cpp:129] Top shape: 32 256 28 28 (6422528)
I0501 14:36:10.069268 25244 net.cpp:129] Top shape: 32 256 28 28 (6422528)
I0501 14:36:10.069275 25244 net.cpp:137] Memory required for data: 876675584
I0501 14:36:10.069283 25244 layer_factory.hpp:77] Creating layer inception_3b/1x1
I0501 14:36:10.069298 25244 net.cpp:84] Creating Layer inception_3b/1x1
I0501 14:36:10.069306 25244 net.cpp:406] inception_3b/1x1 <- inception_3a/output_inception_3a/output_0_split_0
I0501 14:36:10.069321 25244 net.cpp:380] inception_3b/1x1 -> inception_3b/1x1
I0501 14:36:10.073962 25244 net.cpp:122] Setting up inception_3b/1x1
I0501 14:36:10.073983 25244 net.cpp:129] Top shape: 32 128 28 28 (3211264)
I0501 14:36:10.073992 25244 net.cpp:137] Memory required for data: 889520640
I0501 14:36:10.074007 25244 layer_factory.hpp:77] Creating layer inception_3b/relu_1x1
I0501 14:36:10.074020 25244 net.cpp:84] Creating Layer inception_3b/relu_1x1
I0501 14:36:10.074029 25244 net.cpp:406] inception_3b/relu_1x1 <- inception_3b/1x1
I0501 14:36:10.074043 25244 net.cpp:367] inception_3b/relu_1x1 -> inception_3b/1x1 (in-place)
I0501 14:36:10.075058 25244 net.cpp:122] Setting up inception_3b/relu_1x1
I0501 14:36:10.075076 25244 net.cpp:129] Top shape: 32 128 28 28 (3211264)
I0501 14:36:10.075086 25244 net.cpp:137] Memory required for data: 902365696
I0501 14:36:10.075094 25244 layer_factory.hpp:77] Creating layer inception_3b/3x3_reduce
I0501 14:36:10.075114 25244 net.cpp:84] Creating Layer inception_3b/3x3_reduce
I0501 14:36:10.075124 25244 net.cpp:406] inception_3b/3x3_reduce <- inception_3a/output_inception_3a/output_0_split_1
I0501 14:36:10.075134 25244 net.cpp:380] inception_3b/3x3_reduce -> inception_3b/3x3_reduce
I0501 14:36:10.091095 25244 net.cpp:122] Setting up inception_3b/3x3_reduce
I0501 14:36:10.091126 25244 net.cpp:129] Top shape: 32 128 28 28 (3211264)
I0501 14:36:10.091133 25244 net.cpp:137] Memory required for data: 915210752
I0501 14:36:10.091148 25244 layer_factory.hpp:77] Creating layer inception_3b/relu_3x3_reduce
I0501 14:36:10.091166 25244 net.cpp:84] Creating Layer inception_3b/relu_3x3_reduce
I0501 14:36:10.091174 25244 net.cpp:406] inception_3b/relu_3x3_reduce <- inception_3b/3x3_reduce
I0501 14:36:10.091187 25244 net.cpp:367] inception_3b/relu_3x3_reduce -> inception_3b/3x3_reduce (in-place)
I0501 14:36:10.092141 25244 net.cpp:122] Setting up inception_3b/relu_3x3_reduce
I0501 14:36:10.092159 25244 net.cpp:129] Top shape: 32 128 28 28 (3211264)
I0501 14:36:10.092169 25244 net.cpp:137] Memory required for data: 928055808
I0501 14:36:10.092176 25244 layer_factory.hpp:77] Creating layer inception_3b/3x3
I0501 14:36:10.092207 25244 net.cpp:84] Creating Layer inception_3b/3x3
I0501 14:36:10.092217 25244 net.cpp:406] inception_3b/3x3 <- inception_3b/3x3_reduce
I0501 14:36:10.092231 25244 net.cpp:380] inception_3b/3x3 -> inception_3b/3x3
I0501 14:36:10.097015 25244 net.cpp:122] Setting up inception_3b/3x3
I0501 14:36:10.097035 25244 net.cpp:129] Top shape: 32 192 28 28 (4816896)
I0501 14:36:10.097043 25244 net.cpp:137] Memory required for data: 947323392
I0501 14:36:10.097054 25244 layer_factory.hpp:77] Creating layer inception_3b/relu_3x3
I0501 14:36:10.097067 25244 net.cpp:84] Creating Layer inception_3b/relu_3x3
I0501 14:36:10.097074 25244 net.cpp:406] inception_3b/relu_3x3 <- inception_3b/3x3
I0501 14:36:10.097084 25244 net.cpp:367] inception_3b/relu_3x3 -> inception_3b/3x3 (in-place)
I0501 14:36:10.099920 25244 net.cpp:122] Setting up inception_3b/relu_3x3
I0501 14:36:10.099936 25244 net.cpp:129] Top shape: 32 192 28 28 (4816896)
I0501 14:36:10.099944 25244 net.cpp:137] Memory required for data: 966590976
I0501 14:36:10.099953 25244 layer_factory.hpp:77] Creating layer inception_3b/5x5_reduce
I0501 14:36:10.099973 25244 net.cpp:84] Creating Layer inception_3b/5x5_reduce
I0501 14:36:10.099982 25244 net.cpp:406] inception_3b/5x5_reduce <- inception_3a/output_inception_3a/output_0_split_2
I0501 14:36:10.100020 25244 net.cpp:380] inception_3b/5x5_reduce -> inception_3b/5x5_reduce
I0501 14:36:10.105482 25244 net.cpp:122] Setting up inception_3b/5x5_reduce
I0501 14:36:10.105502 25244 net.cpp:129] Top shape: 32 32 28 28 (802816)
I0501 14:36:10.105510 25244 net.cpp:137] Memory required for data: 969802240
I0501 14:36:10.105522 25244 layer_factory.hpp:77] Creating layer inception_3b/relu_5x5_reduce
I0501 14:36:10.105536 25244 net.cpp:84] Creating Layer inception_3b/relu_5x5_reduce
I0501 14:36:10.105545 25244 net.cpp:406] inception_3b/relu_5x5_reduce <- inception_3b/5x5_reduce
I0501 14:36:10.105563 25244 net.cpp:367] inception_3b/relu_5x5_reduce -> inception_3b/5x5_reduce (in-place)
I0501 14:36:10.106330 25244 net.cpp:122] Setting up inception_3b/relu_5x5_reduce
I0501 14:36:10.106345 25244 net.cpp:129] Top shape: 32 32 28 28 (802816)
I0501 14:36:10.106351 25244 net.cpp:137] Memory required for data: 973013504
I0501 14:36:10.106359 25244 layer_factory.hpp:77] Creating layer inception_3b/5x5
I0501 14:36:10.106374 25244 net.cpp:84] Creating Layer inception_3b/5x5
I0501 14:36:10.106380 25244 net.cpp:406] inception_3b/5x5 <- inception_3b/5x5_reduce
I0501 14:36:10.106391 25244 net.cpp:380] inception_3b/5x5 -> inception_3b/5x5
I0501 14:36:10.109773 25244 net.cpp:122] Setting up inception_3b/5x5
I0501 14:36:10.109792 25244 net.cpp:129] Top shape: 32 96 28 28 (2408448)
I0501 14:36:10.109800 25244 net.cpp:137] Memory required for data: 982647296
I0501 14:36:10.109813 25244 layer_factory.hpp:77] Creating layer inception_3b/relu_5x5
I0501 14:36:10.109825 25244 net.cpp:84] Creating Layer inception_3b/relu_5x5
I0501 14:36:10.109833 25244 net.cpp:406] inception_3b/relu_5x5 <- inception_3b/5x5
I0501 14:36:10.109843 25244 net.cpp:367] inception_3b/relu_5x5 -> inception_3b/5x5 (in-place)
I0501 14:36:10.110368 25244 net.cpp:122] Setting up inception_3b/relu_5x5
I0501 14:36:10.110381 25244 net.cpp:129] Top shape: 32 96 28 28 (2408448)
I0501 14:36:10.110386 25244 net.cpp:137] Memory required for data: 992281088
I0501 14:36:10.110394 25244 layer_factory.hpp:77] Creating layer inception_3b/pool
I0501 14:36:10.110405 25244 net.cpp:84] Creating Layer inception_3b/pool
I0501 14:36:10.110412 25244 net.cpp:406] inception_3b/pool <- inception_3a/output_inception_3a/output_0_split_3
I0501 14:36:10.110420 25244 net.cpp:380] inception_3b/pool -> inception_3b/pool
I0501 14:36:10.110478 25244 net.cpp:122] Setting up inception_3b/pool
I0501 14:36:10.110524 25244 net.cpp:129] Top shape: 32 256 28 28 (6422528)
I0501 14:36:10.110532 25244 net.cpp:137] Memory required for data: 1017971200
I0501 14:36:10.110538 25244 layer_factory.hpp:77] Creating layer inception_3b/pool_proj
I0501 14:36:10.110553 25244 net.cpp:84] Creating Layer inception_3b/pool_proj
I0501 14:36:10.110559 25244 net.cpp:406] inception_3b/pool_proj <- inception_3b/pool
I0501 14:36:10.110572 25244 net.cpp:380] inception_3b/pool_proj -> inception_3b/pool_proj
I0501 14:36:10.115007 25244 net.cpp:122] Setting up inception_3b/pool_proj
I0501 14:36:10.115026 25244 net.cpp:129] Top shape: 32 64 28 28 (1605632)
I0501 14:36:10.115034 25244 net.cpp:137] Memory required for data: 1024393728
I0501 14:36:10.115046 25244 layer_factory.hpp:77] Creating layer inception_3b/relu_pool_proj
I0501 14:36:10.115059 25244 net.cpp:84] Creating Layer inception_3b/relu_pool_proj
I0501 14:36:10.115067 25244 net.cpp:406] inception_3b/relu_pool_proj <- inception_3b/pool_proj
I0501 14:36:10.115075 25244 net.cpp:367] inception_3b/relu_pool_proj -> inception_3b/pool_proj (in-place)
I0501 14:36:10.115622 25244 net.cpp:122] Setting up inception_3b/relu_pool_proj
I0501 14:36:10.115638 25244 net.cpp:129] Top shape: 32 64 28 28 (1605632)
I0501 14:36:10.115645 25244 net.cpp:137] Memory required for data: 1030816256
I0501 14:36:10.115650 25244 layer_factory.hpp:77] Creating layer inception_3b/output
I0501 14:36:10.115661 25244 net.cpp:84] Creating Layer inception_3b/output
I0501 14:36:10.115669 25244 net.cpp:406] inception_3b/output <- inception_3b/1x1
I0501 14:36:10.115676 25244 net.cpp:406] inception_3b/output <- inception_3b/3x3
I0501 14:36:10.115708 25244 net.cpp:406] inception_3b/output <- inception_3b/5x5
I0501 14:36:10.115717 25244 net.cpp:406] inception_3b/output <- inception_3b/pool_proj
I0501 14:36:10.115733 25244 net.cpp:380] inception_3b/output -> inception_3b/output
I0501 14:36:10.115772 25244 net.cpp:122] Setting up inception_3b/output
I0501 14:36:10.115782 25244 net.cpp:129] Top shape: 32 480 28 28 (12042240)
I0501 14:36:10.115787 25244 net.cpp:137] Memory required for data: 1078985216
I0501 14:36:10.115794 25244 layer_factory.hpp:77] Creating layer pool3/3x3_s2
I0501 14:36:10.115808 25244 net.cpp:84] Creating Layer pool3/3x3_s2
I0501 14:36:10.115814 25244 net.cpp:406] pool3/3x3_s2 <- inception_3b/output
I0501 14:36:10.115824 25244 net.cpp:380] pool3/3x3_s2 -> pool3/3x3_s2
I0501 14:36:10.115870 25244 net.cpp:122] Setting up pool3/3x3_s2
I0501 14:36:10.115881 25244 net.cpp:129] Top shape: 32 480 14 14 (3010560)
I0501 14:36:10.115886 25244 net.cpp:137] Memory required for data: 1091027456
I0501 14:36:10.115895 25244 layer_factory.hpp:77] Creating layer pool3/3x3_s2_pool3/3x3_s2_0_split
I0501 14:36:10.115907 25244 net.cpp:84] Creating Layer pool3/3x3_s2_pool3/3x3_s2_0_split
I0501 14:36:10.115916 25244 net.cpp:406] pool3/3x3_s2_pool3/3x3_s2_0_split <- pool3/3x3_s2
I0501 14:36:10.115926 25244 net.cpp:380] pool3/3x3_s2_pool3/3x3_s2_0_split -> pool3/3x3_s2_pool3/3x3_s2_0_split_0
I0501 14:36:10.115936 25244 net.cpp:380] pool3/3x3_s2_pool3/3x3_s2_0_split -> pool3/3x3_s2_pool3/3x3_s2_0_split_1
I0501 14:36:10.115945 25244 net.cpp:380] pool3/3x3_s2_pool3/3x3_s2_0_split -> pool3/3x3_s2_pool3/3x3_s2_0_split_2
I0501 14:36:10.115957 25244 net.cpp:380] pool3/3x3_s2_pool3/3x3_s2_0_split -> pool3/3x3_s2_pool3/3x3_s2_0_split_3
I0501 14:36:10.116024 25244 net.cpp:122] Setting up pool3/3x3_s2_pool3/3x3_s2_0_split
I0501 14:36:10.116032 25244 net.cpp:129] Top shape: 32 480 14 14 (3010560)
I0501 14:36:10.116039 25244 net.cpp:129] Top shape: 32 480 14 14 (3010560)
I0501 14:36:10.116046 25244 net.cpp:129] Top shape: 32 480 14 14 (3010560)
I0501 14:36:10.116052 25244 net.cpp:129] Top shape: 32 480 14 14 (3010560)
I0501 14:36:10.116060 25244 net.cpp:137] Memory required for data: 1139196416
I0501 14:36:10.116068 25244 layer_factory.hpp:77] Creating layer inception_4a/1x1
I0501 14:36:10.116084 25244 net.cpp:84] Creating Layer inception_4a/1x1
I0501 14:36:10.116096 25244 net.cpp:406] inception_4a/1x1 <- pool3/3x3_s2_pool3/3x3_s2_0_split_0
I0501 14:36:10.116107 25244 net.cpp:380] inception_4a/1x1 -> inception_4a/1x1
I0501 14:36:10.137583 25244 net.cpp:122] Setting up inception_4a/1x1
I0501 14:36:10.137612 25244 net.cpp:129] Top shape: 32 192 14 14 (1204224)
I0501 14:36:10.137620 25244 net.cpp:137] Memory required for data: 1144013312
I0501 14:36:10.137636 25244 layer_factory.hpp:77] Creating layer inception_4a/relu_1x1
I0501 14:36:10.137660 25244 net.cpp:84] Creating Layer inception_4a/relu_1x1
I0501 14:36:10.137667 25244 net.cpp:406] inception_4a/relu_1x1 <- inception_4a/1x1
I0501 14:36:10.137678 25244 net.cpp:367] inception_4a/relu_1x1 -> inception_4a/1x1 (in-place)
I0501 14:36:10.138722 25244 net.cpp:122] Setting up inception_4a/relu_1x1
I0501 14:36:10.138742 25244 net.cpp:129] Top shape: 32 192 14 14 (1204224)
I0501 14:36:10.138749 25244 net.cpp:137] Memory required for data: 1148830208
I0501 14:36:10.138757 25244 layer_factory.hpp:77] Creating layer inception_4a/3x3_reduce
I0501 14:36:10.138777 25244 net.cpp:84] Creating Layer inception_4a/3x3_reduce
I0501 14:36:10.138783 25244 net.cpp:406] inception_4a/3x3_reduce <- pool3/3x3_s2_pool3/3x3_s2_0_split_1
I0501 14:36:10.138799 25244 net.cpp:380] inception_4a/3x3_reduce -> inception_4a/3x3_reduce
I0501 14:36:10.142619 25244 net.cpp:122] Setting up inception_4a/3x3_reduce
I0501 14:36:10.142635 25244 net.cpp:129] Top shape: 32 96 14 14 (602112)
I0501 14:36:10.142642 25244 net.cpp:137] Memory required for data: 1151238656
I0501 14:36:10.142663 25244 layer_factory.hpp:77] Creating layer inception_4a/relu_3x3_reduce
I0501 14:36:10.142676 25244 net.cpp:84] Creating Layer inception_4a/relu_3x3_reduce
I0501 14:36:10.142709 25244 net.cpp:406] inception_4a/relu_3x3_reduce <- inception_4a/3x3_reduce
I0501 14:36:10.142725 25244 net.cpp:367] inception_4a/relu_3x3_reduce -> inception_4a/3x3_reduce (in-place)
I0501 14:36:10.145277 25244 net.cpp:122] Setting up inception_4a/relu_3x3_reduce
I0501 14:36:10.145295 25244 net.cpp:129] Top shape: 32 96 14 14 (602112)
I0501 14:36:10.145303 25244 net.cpp:137] Memory required for data: 1153647104
I0501 14:36:10.145309 25244 layer_factory.hpp:77] Creating layer inception_4a/3x3
I0501 14:36:10.145328 25244 net.cpp:84] Creating Layer inception_4a/3x3
I0501 14:36:10.145337 25244 net.cpp:406] inception_4a/3x3 <- inception_4a/3x3_reduce
I0501 14:36:10.145352 25244 net.cpp:380] inception_4a/3x3 -> inception_4a/3x3
I0501 14:36:10.149678 25244 net.cpp:122] Setting up inception_4a/3x3
I0501 14:36:10.149699 25244 net.cpp:129] Top shape: 32 208 14 14 (1304576)
I0501 14:36:10.149708 25244 net.cpp:137] Memory required for data: 1158865408
I0501 14:36:10.149722 25244 layer_factory.hpp:77] Creating layer inception_4a/relu_3x3
I0501 14:36:10.149734 25244 net.cpp:84] Creating Layer inception_4a/relu_3x3
I0501 14:36:10.149740 25244 net.cpp:406] inception_4a/relu_3x3 <- inception_4a/3x3
I0501 14:36:10.149750 25244 net.cpp:367] inception_4a/relu_3x3 -> inception_4a/3x3 (in-place)
I0501 14:36:10.150535 25244 net.cpp:122] Setting up inception_4a/relu_3x3
I0501 14:36:10.150549 25244 net.cpp:129] Top shape: 32 208 14 14 (1304576)
I0501 14:36:10.150557 25244 net.cpp:137] Memory required for data: 1164083712
I0501 14:36:10.150563 25244 layer_factory.hpp:77] Creating layer inception_4a/5x5_reduce
I0501 14:36:10.150580 25244 net.cpp:84] Creating Layer inception_4a/5x5_reduce
I0501 14:36:10.150588 25244 net.cpp:406] inception_4a/5x5_reduce <- pool3/3x3_s2_pool3/3x3_s2_0_split_2
I0501 14:36:10.150599 25244 net.cpp:380] inception_4a/5x5_reduce -> inception_4a/5x5_reduce
I0501 14:36:10.153040 25244 net.cpp:122] Setting up inception_4a/5x5_reduce
I0501 14:36:10.153057 25244 net.cpp:129] Top shape: 32 16 14 14 (100352)
I0501 14:36:10.153065 25244 net.cpp:137] Memory required for data: 1164485120
I0501 14:36:10.153077 25244 layer_factory.hpp:77] Creating layer inception_4a/relu_5x5_reduce
I0501 14:36:10.153087 25244 net.cpp:84] Creating Layer inception_4a/relu_5x5_reduce
I0501 14:36:10.153095 25244 net.cpp:406] inception_4a/relu_5x5_reduce <- inception_4a/5x5_reduce
I0501 14:36:10.153107 25244 net.cpp:367] inception_4a/relu_5x5_reduce -> inception_4a/5x5_reduce (in-place)
I0501 14:36:10.153892 25244 net.cpp:122] Setting up inception_4a/relu_5x5_reduce
I0501 14:36:10.153908 25244 net.cpp:129] Top shape: 32 16 14 14 (100352)
I0501 14:36:10.153914 25244 net.cpp:137] Memory required for data: 1164886528
I0501 14:36:10.153923 25244 layer_factory.hpp:77] Creating layer inception_4a/5x5
I0501 14:36:10.153946 25244 net.cpp:84] Creating Layer inception_4a/5x5
I0501 14:36:10.153956 25244 net.cpp:406] inception_4a/5x5 <- inception_4a/5x5_reduce
I0501 14:36:10.153967 25244 net.cpp:380] inception_4a/5x5 -> inception_4a/5x5
I0501 14:36:10.158789 25244 net.cpp:122] Setting up inception_4a/5x5
I0501 14:36:10.158813 25244 net.cpp:129] Top shape: 32 48 14 14 (301056)
I0501 14:36:10.158819 25244 net.cpp:137] Memory required for data: 1166090752
I0501 14:36:10.158833 25244 layer_factory.hpp:77] Creating layer inception_4a/relu_5x5
I0501 14:36:10.158846 25244 net.cpp:84] Creating Layer inception_4a/relu_5x5
I0501 14:36:10.158855 25244 net.cpp:406] inception_4a/relu_5x5 <- inception_4a/5x5
I0501 14:36:10.158867 25244 net.cpp:367] inception_4a/relu_5x5 -> inception_4a/5x5 (in-place)
I0501 14:36:10.159400 25244 net.cpp:122] Setting up inception_4a/relu_5x5
I0501 14:36:10.159412 25244 net.cpp:129] Top shape: 32 48 14 14 (301056)
I0501 14:36:10.159418 25244 net.cpp:137] Memory required for data: 1167294976
I0501 14:36:10.159425 25244 layer_factory.hpp:77] Creating layer inception_4a/pool
I0501 14:36:10.159438 25244 net.cpp:84] Creating Layer inception_4a/pool
I0501 14:36:10.159447 25244 net.cpp:406] inception_4a/pool <- pool3/3x3_s2_pool3/3x3_s2_0_split_3
I0501 14:36:10.159479 25244 net.cpp:380] inception_4a/pool -> inception_4a/pool
I0501 14:36:10.159533 25244 net.cpp:122] Setting up inception_4a/pool
I0501 14:36:10.159543 25244 net.cpp:129] Top shape: 32 480 14 14 (3010560)
I0501 14:36:10.159548 25244 net.cpp:137] Memory required for data: 1179337216
I0501 14:36:10.159554 25244 layer_factory.hpp:77] Creating layer inception_4a/pool_proj
I0501 14:36:10.159570 25244 net.cpp:84] Creating Layer inception_4a/pool_proj
I0501 14:36:10.159576 25244 net.cpp:406] inception_4a/pool_proj <- inception_4a/pool
I0501 14:36:10.159587 25244 net.cpp:380] inception_4a/pool_proj -> inception_4a/pool_proj
I0501 14:36:10.162417 25244 net.cpp:122] Setting up inception_4a/pool_proj
I0501 14:36:10.162431 25244 net.cpp:129] Top shape: 32 64 14 14 (401408)
I0501 14:36:10.162436 25244 net.cpp:137] Memory required for data: 1180942848
I0501 14:36:10.162447 25244 layer_factory.hpp:77] Creating layer inception_4a/relu_pool_proj
I0501 14:36:10.162458 25244 net.cpp:84] Creating Layer inception_4a/relu_pool_proj
I0501 14:36:10.162465 25244 net.cpp:406] inception_4a/relu_pool_proj <- inception_4a/pool_proj
I0501 14:36:10.162477 25244 net.cpp:367] inception_4a/relu_pool_proj -> inception_4a/pool_proj (in-place)
I0501 14:36:10.165236 25244 net.cpp:122] Setting up inception_4a/relu_pool_proj
I0501 14:36:10.165251 25244 net.cpp:129] Top shape: 32 64 14 14 (401408)
I0501 14:36:10.165257 25244 net.cpp:137] Memory required for data: 1182548480
I0501 14:36:10.165264 25244 layer_factory.hpp:77] Creating layer inception_4a/output
I0501 14:36:10.165273 25244 net.cpp:84] Creating Layer inception_4a/output
I0501 14:36:10.165279 25244 net.cpp:406] inception_4a/output <- inception_4a/1x1
I0501 14:36:10.165287 25244 net.cpp:406] inception_4a/output <- inception_4a/3x3
I0501 14:36:10.165292 25244 net.cpp:406] inception_4a/output <- inception_4a/5x5
I0501 14:36:10.165299 25244 net.cpp:406] inception_4a/output <- inception_4a/pool_proj
I0501 14:36:10.165308 25244 net.cpp:380] inception_4a/output -> inception_4a/output
I0501 14:36:10.165347 25244 net.cpp:122] Setting up inception_4a/output
I0501 14:36:10.165357 25244 net.cpp:129] Top shape: 32 512 14 14 (3211264)
I0501 14:36:10.165362 25244 net.cpp:137] Memory required for data: 1195393536
I0501 14:36:10.165369 25244 layer_factory.hpp:77] Creating layer inception_4a/output_inception_4a/output_0_split
I0501 14:36:10.165382 25244 net.cpp:84] Creating Layer inception_4a/output_inception_4a/output_0_split
I0501 14:36:10.165390 25244 net.cpp:406] inception_4a/output_inception_4a/output_0_split <- inception_4a/output
I0501 14:36:10.165400 25244 net.cpp:380] inception_4a/output_inception_4a/output_0_split -> inception_4a/output_inception_4a/output_0_split_0
I0501 14:36:10.165410 25244 net.cpp:380] inception_4a/output_inception_4a/output_0_split -> inception_4a/output_inception_4a/output_0_split_1
I0501 14:36:10.165421 25244 net.cpp:380] inception_4a/output_inception_4a/output_0_split -> inception_4a/output_inception_4a/output_0_split_2
I0501 14:36:10.165432 25244 net.cpp:380] inception_4a/output_inception_4a/output_0_split -> inception_4a/output_inception_4a/output_0_split_3
I0501 14:36:10.165441 25244 net.cpp:380] inception_4a/output_inception_4a/output_0_split -> inception_4a/output_inception_4a/output_0_split_4
I0501 14:36:10.165521 25244 net.cpp:122] Setting up inception_4a/output_inception_4a/output_0_split
I0501 14:36:10.165529 25244 net.cpp:129] Top shape: 32 512 14 14 (3211264)
I0501 14:36:10.165537 25244 net.cpp:129] Top shape: 32 512 14 14 (3211264)
I0501 14:36:10.165544 25244 net.cpp:129] Top shape: 32 512 14 14 (3211264)
I0501 14:36:10.165555 25244 net.cpp:129] Top shape: 32 512 14 14 (3211264)
I0501 14:36:10.165562 25244 net.cpp:129] Top shape: 32 512 14 14 (3211264)
I0501 14:36:10.165567 25244 net.cpp:137] Memory required for data: 1259618816
I0501 14:36:10.165573 25244 layer_factory.hpp:77] Creating layer loss1/ave_pool
I0501 14:36:10.165582 25244 net.cpp:84] Creating Layer loss1/ave_pool
I0501 14:36:10.165588 25244 net.cpp:406] loss1/ave_pool <- inception_4a/output_inception_4a/output_0_split_0
I0501 14:36:10.165619 25244 net.cpp:380] loss1/ave_pool -> loss1/ave_pool
I0501 14:36:10.166185 25244 net.cpp:122] Setting up loss1/ave_pool
I0501 14:36:10.166198 25244 net.cpp:129] Top shape: 32 512 4 4 (262144)
I0501 14:36:10.166204 25244 net.cpp:137] Memory required for data: 1260667392
I0501 14:36:10.166209 25244 layer_factory.hpp:77] Creating layer loss1/conv
I0501 14:36:10.166224 25244 net.cpp:84] Creating Layer loss1/conv
I0501 14:36:10.166231 25244 net.cpp:406] loss1/conv <- loss1/ave_pool
I0501 14:36:10.166241 25244 net.cpp:380] loss1/conv -> loss1/conv
I0501 14:36:10.188904 25244 net.cpp:122] Setting up loss1/conv
I0501 14:36:10.188932 25244 net.cpp:129] Top shape: 32 128 4 4 (65536)
I0501 14:36:10.188939 25244 net.cpp:137] Memory required for data: 1260929536
I0501 14:36:10.188952 25244 layer_factory.hpp:77] Creating layer loss1/relu_conv
I0501 14:36:10.188967 25244 net.cpp:84] Creating Layer loss1/relu_conv
I0501 14:36:10.188977 25244 net.cpp:406] loss1/relu_conv <- loss1/conv
I0501 14:36:10.188989 25244 net.cpp:367] loss1/relu_conv -> loss1/conv (in-place)
I0501 14:36:10.192924 25244 net.cpp:122] Setting up loss1/relu_conv
I0501 14:36:10.192942 25244 net.cpp:129] Top shape: 32 128 4 4 (65536)
I0501 14:36:10.192950 25244 net.cpp:137] Memory required for data: 1261191680
I0501 14:36:10.192965 25244 layer_factory.hpp:77] Creating layer loss1/fc
I0501 14:36:10.192979 25244 net.cpp:84] Creating Layer loss1/fc
I0501 14:36:10.192987 25244 net.cpp:406] loss1/fc <- loss1/conv
I0501 14:36:10.193002 25244 net.cpp:380] loss1/fc -> loss1/fc
I0501 14:36:10.213378 25244 net.cpp:122] Setting up loss1/fc
I0501 14:36:10.213407 25244 net.cpp:129] Top shape: 32 1024 (32768)
I0501 14:36:10.213413 25244 net.cpp:137] Memory required for data: 1261322752
I0501 14:36:10.213428 25244 layer_factory.hpp:77] Creating layer loss1/relu_fc
I0501 14:36:10.213444 25244 net.cpp:84] Creating Layer loss1/relu_fc
I0501 14:36:10.213456 25244 net.cpp:406] loss1/relu_fc <- loss1/fc
I0501 14:36:10.213467 25244 net.cpp:367] loss1/relu_fc -> loss1/fc (in-place)
I0501 14:36:10.214010 25244 net.cpp:122] Setting up loss1/relu_fc
I0501 14:36:10.214026 25244 net.cpp:129] Top shape: 32 1024 (32768)
I0501 14:36:10.214035 25244 net.cpp:137] Memory required for data: 1261453824
I0501 14:36:10.214044 25244 layer_factory.hpp:77] Creating layer loss1/drop_fc
I0501 14:36:10.214078 25244 net.cpp:84] Creating Layer loss1/drop_fc
I0501 14:36:10.214087 25244 net.cpp:406] loss1/drop_fc <- loss1/fc
I0501 14:36:10.214095 25244 net.cpp:367] loss1/drop_fc -> loss1/fc (in-place)
I0501 14:36:10.214135 25244 net.cpp:122] Setting up loss1/drop_fc
I0501 14:36:10.214145 25244 net.cpp:129] Top shape: 32 1024 (32768)
I0501 14:36:10.214151 25244 net.cpp:137] Memory required for data: 1261584896
I0501 14:36:10.214159 25244 layer_factory.hpp:77] Creating layer loss1/classifier
I0501 14:36:10.214174 25244 net.cpp:84] Creating Layer loss1/classifier
I0501 14:36:10.214184 25244 net.cpp:406] loss1/classifier <- loss1/fc
I0501 14:36:10.214195 25244 net.cpp:380] loss1/classifier -> loss1/classifier
I0501 14:36:10.224614 25244 net.cpp:122] Setting up loss1/classifier
I0501 14:36:10.224638 25244 net.cpp:129] Top shape: 32 196 (6272)
I0501 14:36:10.224645 25244 net.cpp:137] Memory required for data: 1261609984
I0501 14:36:10.224655 25244 layer_factory.hpp:77] Creating layer loss1/loss
I0501 14:36:10.224669 25244 net.cpp:84] Creating Layer loss1/loss
I0501 14:36:10.224676 25244 net.cpp:406] loss1/loss <- loss1/classifier
I0501 14:36:10.224685 25244 net.cpp:406] loss1/loss <- label_train-data_1_split_0
I0501 14:36:10.224694 25244 net.cpp:380] loss1/loss -> loss1/loss
I0501 14:36:10.224709 25244 layer_factory.hpp:77] Creating layer loss1/loss
I0501 14:36:10.225452 25244 net.cpp:122] Setting up loss1/loss
I0501 14:36:10.225466 25244 net.cpp:129] Top shape: (1)
I0501 14:36:10.225471 25244 net.cpp:132]     with loss weight 0.3
I0501 14:36:10.225492 25244 net.cpp:137] Memory required for data: 1261609988
I0501 14:36:10.225498 25244 layer_factory.hpp:77] Creating layer inception_4b/1x1
I0501 14:36:10.225533 25244 net.cpp:84] Creating Layer inception_4b/1x1
I0501 14:36:10.225541 25244 net.cpp:406] inception_4b/1x1 <- inception_4a/output_inception_4a/output_0_split_1
I0501 14:36:10.225549 25244 net.cpp:380] inception_4b/1x1 -> inception_4b/1x1
I0501 14:36:10.227674 25244 net.cpp:122] Setting up inception_4b/1x1
I0501 14:36:10.227689 25244 net.cpp:129] Top shape: 32 160 14 14 (1003520)
I0501 14:36:10.227696 25244 net.cpp:137] Memory required for data: 1265624068
I0501 14:36:10.227705 25244 layer_factory.hpp:77] Creating layer inception_4b/relu_1x1
I0501 14:36:10.227713 25244 net.cpp:84] Creating Layer inception_4b/relu_1x1
I0501 14:36:10.227721 25244 net.cpp:406] inception_4b/relu_1x1 <- inception_4b/1x1
I0501 14:36:10.227730 25244 net.cpp:367] inception_4b/relu_1x1 -> inception_4b/1x1 (in-place)
I0501 14:36:10.228271 25244 net.cpp:122] Setting up inception_4b/relu_1x1
I0501 14:36:10.228283 25244 net.cpp:129] Top shape: 32 160 14 14 (1003520)
I0501 14:36:10.228288 25244 net.cpp:137] Memory required for data: 1269638148
I0501 14:36:10.228294 25244 layer_factory.hpp:77] Creating layer inception_4b/3x3_reduce
I0501 14:36:10.228308 25244 net.cpp:84] Creating Layer inception_4b/3x3_reduce
I0501 14:36:10.228315 25244 net.cpp:406] inception_4b/3x3_reduce <- inception_4a/output_inception_4a/output_0_split_2
I0501 14:36:10.228325 25244 net.cpp:380] inception_4b/3x3_reduce -> inception_4b/3x3_reduce
I0501 14:36:10.232200 25244 net.cpp:122] Setting up inception_4b/3x3_reduce
I0501 14:36:10.232219 25244 net.cpp:129] Top shape: 32 112 14 14 (702464)
I0501 14:36:10.232226 25244 net.cpp:137] Memory required for data: 1272448004
I0501 14:36:10.232237 25244 layer_factory.hpp:77] Creating layer inception_4b/relu_3x3_reduce
I0501 14:36:10.232249 25244 net.cpp:84] Creating Layer inception_4b/relu_3x3_reduce
I0501 14:36:10.232256 25244 net.cpp:406] inception_4b/relu_3x3_reduce <- inception_4b/3x3_reduce
I0501 14:36:10.232266 25244 net.cpp:367] inception_4b/relu_3x3_reduce -> inception_4b/3x3_reduce (in-place)
I0501 14:36:10.232638 25244 net.cpp:122] Setting up inception_4b/relu_3x3_reduce
I0501 14:36:10.232648 25244 net.cpp:129] Top shape: 32 112 14 14 (702464)
I0501 14:36:10.232652 25244 net.cpp:137] Memory required for data: 1275257860
I0501 14:36:10.232658 25244 layer_factory.hpp:77] Creating layer inception_4b/3x3
I0501 14:36:10.232669 25244 net.cpp:84] Creating Layer inception_4b/3x3
I0501 14:36:10.232676 25244 net.cpp:406] inception_4b/3x3 <- inception_4b/3x3_reduce
I0501 14:36:10.232683 25244 net.cpp:380] inception_4b/3x3 -> inception_4b/3x3
I0501 14:36:10.235728 25244 net.cpp:122] Setting up inception_4b/3x3
I0501 14:36:10.235743 25244 net.cpp:129] Top shape: 32 224 14 14 (1404928)
I0501 14:36:10.235750 25244 net.cpp:137] Memory required for data: 1280877572
I0501 14:36:10.235761 25244 layer_factory.hpp:77] Creating layer inception_4b/relu_3x3
I0501 14:36:10.235769 25244 net.cpp:84] Creating Layer inception_4b/relu_3x3
I0501 14:36:10.235775 25244 net.cpp:406] inception_4b/relu_3x3 <- inception_4b/3x3
I0501 14:36:10.235781 25244 net.cpp:367] inception_4b/relu_3x3 -> inception_4b/3x3 (in-place)
I0501 14:36:10.236308 25244 net.cpp:122] Setting up inception_4b/relu_3x3
I0501 14:36:10.236321 25244 net.cpp:129] Top shape: 32 224 14 14 (1404928)
I0501 14:36:10.236326 25244 net.cpp:137] Memory required for data: 1286497284
I0501 14:36:10.236331 25244 layer_factory.hpp:77] Creating layer inception_4b/5x5_reduce
I0501 14:36:10.236346 25244 net.cpp:84] Creating Layer inception_4b/5x5_reduce
I0501 14:36:10.236352 25244 net.cpp:406] inception_4b/5x5_reduce <- inception_4a/output_inception_4a/output_0_split_3
I0501 14:36:10.236363 25244 net.cpp:380] inception_4b/5x5_reduce -> inception_4b/5x5_reduce
I0501 14:36:10.238196 25244 net.cpp:122] Setting up inception_4b/5x5_reduce
I0501 14:36:10.238209 25244 net.cpp:129] Top shape: 32 24 14 14 (150528)
I0501 14:36:10.238214 25244 net.cpp:137] Memory required for data: 1287099396
I0501 14:36:10.238222 25244 layer_factory.hpp:77] Creating layer inception_4b/relu_5x5_reduce
I0501 14:36:10.238252 25244 net.cpp:84] Creating Layer inception_4b/relu_5x5_reduce
I0501 14:36:10.238260 25244 net.cpp:406] inception_4b/relu_5x5_reduce <- inception_4b/5x5_reduce
I0501 14:36:10.238266 25244 net.cpp:367] inception_4b/relu_5x5_reduce -> inception_4b/5x5_reduce (in-place)
I0501 14:36:10.238847 25244 net.cpp:122] Setting up inception_4b/relu_5x5_reduce
I0501 14:36:10.238859 25244 net.cpp:129] Top shape: 32 24 14 14 (150528)
I0501 14:36:10.238864 25244 net.cpp:137] Memory required for data: 1287701508
I0501 14:36:10.238871 25244 layer_factory.hpp:77] Creating layer inception_4b/5x5
I0501 14:36:10.238888 25244 net.cpp:84] Creating Layer inception_4b/5x5
I0501 14:36:10.238894 25244 net.cpp:406] inception_4b/5x5 <- inception_4b/5x5_reduce
I0501 14:36:10.238903 25244 net.cpp:380] inception_4b/5x5 -> inception_4b/5x5
I0501 14:36:10.242125 25244 net.cpp:122] Setting up inception_4b/5x5
I0501 14:36:10.242147 25244 net.cpp:129] Top shape: 32 64 14 14 (401408)
I0501 14:36:10.242156 25244 net.cpp:137] Memory required for data: 1289307140
I0501 14:36:10.242167 25244 layer_factory.hpp:77] Creating layer inception_4b/relu_5x5
I0501 14:36:10.242178 25244 net.cpp:84] Creating Layer inception_4b/relu_5x5
I0501 14:36:10.242188 25244 net.cpp:406] inception_4b/relu_5x5 <- inception_4b/5x5
I0501 14:36:10.242199 25244 net.cpp:367] inception_4b/relu_5x5 -> inception_4b/5x5 (in-place)
I0501 14:36:10.242785 25244 net.cpp:122] Setting up inception_4b/relu_5x5
I0501 14:36:10.242799 25244 net.cpp:129] Top shape: 32 64 14 14 (401408)
I0501 14:36:10.242805 25244 net.cpp:137] Memory required for data: 1290912772
I0501 14:36:10.242810 25244 layer_factory.hpp:77] Creating layer inception_4b/pool
I0501 14:36:10.242820 25244 net.cpp:84] Creating Layer inception_4b/pool
I0501 14:36:10.242827 25244 net.cpp:406] inception_4b/pool <- inception_4a/output_inception_4a/output_0_split_4
I0501 14:36:10.242838 25244 net.cpp:380] inception_4b/pool -> inception_4b/pool
I0501 14:36:10.242904 25244 net.cpp:122] Setting up inception_4b/pool
I0501 14:36:10.242913 25244 net.cpp:129] Top shape: 32 512 14 14 (3211264)
I0501 14:36:10.242920 25244 net.cpp:137] Memory required for data: 1303757828
I0501 14:36:10.242928 25244 layer_factory.hpp:77] Creating layer inception_4b/pool_proj
I0501 14:36:10.242940 25244 net.cpp:84] Creating Layer inception_4b/pool_proj
I0501 14:36:10.242945 25244 net.cpp:406] inception_4b/pool_proj <- inception_4b/pool
I0501 14:36:10.242952 25244 net.cpp:380] inception_4b/pool_proj -> inception_4b/pool_proj
I0501 14:36:10.248104 25244 net.cpp:122] Setting up inception_4b/pool_proj
I0501 14:36:10.248121 25244 net.cpp:129] Top shape: 32 64 14 14 (401408)
I0501 14:36:10.248126 25244 net.cpp:137] Memory required for data: 1305363460
I0501 14:36:10.248136 25244 layer_factory.hpp:77] Creating layer inception_4b/relu_pool_proj
I0501 14:36:10.248144 25244 net.cpp:84] Creating Layer inception_4b/relu_pool_proj
I0501 14:36:10.248152 25244 net.cpp:406] inception_4b/relu_pool_proj <- inception_4b/pool_proj
I0501 14:36:10.248158 25244 net.cpp:367] inception_4b/relu_pool_proj -> inception_4b/pool_proj (in-place)
I0501 14:36:10.248708 25244 net.cpp:122] Setting up inception_4b/relu_pool_proj
I0501 14:36:10.248718 25244 net.cpp:129] Top shape: 32 64 14 14 (401408)
I0501 14:36:10.248723 25244 net.cpp:137] Memory required for data: 1306969092
I0501 14:36:10.248728 25244 layer_factory.hpp:77] Creating layer inception_4b/output
I0501 14:36:10.248736 25244 net.cpp:84] Creating Layer inception_4b/output
I0501 14:36:10.248744 25244 net.cpp:406] inception_4b/output <- inception_4b/1x1
I0501 14:36:10.248750 25244 net.cpp:406] inception_4b/output <- inception_4b/3x3
I0501 14:36:10.248755 25244 net.cpp:406] inception_4b/output <- inception_4b/5x5
I0501 14:36:10.248761 25244 net.cpp:406] inception_4b/output <- inception_4b/pool_proj
I0501 14:36:10.248767 25244 net.cpp:380] inception_4b/output -> inception_4b/output
I0501 14:36:10.248795 25244 net.cpp:122] Setting up inception_4b/output
I0501 14:36:10.248802 25244 net.cpp:129] Top shape: 32 512 14 14 (3211264)
I0501 14:36:10.248826 25244 net.cpp:137] Memory required for data: 1319814148
I0501 14:36:10.248829 25244 layer_factory.hpp:77] Creating layer inception_4b/output_inception_4b/output_0_split
I0501 14:36:10.248839 25244 net.cpp:84] Creating Layer inception_4b/output_inception_4b/output_0_split
I0501 14:36:10.248844 25244 net.cpp:406] inception_4b/output_inception_4b/output_0_split <- inception_4b/output
I0501 14:36:10.248852 25244 net.cpp:380] inception_4b/output_inception_4b/output_0_split -> inception_4b/output_inception_4b/output_0_split_0
I0501 14:36:10.248859 25244 net.cpp:380] inception_4b/output_inception_4b/output_0_split -> inception_4b/output_inception_4b/output_0_split_1
I0501 14:36:10.248879 25244 net.cpp:380] inception_4b/output_inception_4b/output_0_split -> inception_4b/output_inception_4b/output_0_split_2
I0501 14:36:10.248886 25244 net.cpp:380] inception_4b/output_inception_4b/output_0_split -> inception_4b/output_inception_4b/output_0_split_3
I0501 14:36:10.248937 25244 net.cpp:122] Setting up inception_4b/output_inception_4b/output_0_split
I0501 14:36:10.248944 25244 net.cpp:129] Top shape: 32 512 14 14 (3211264)
I0501 14:36:10.248950 25244 net.cpp:129] Top shape: 32 512 14 14 (3211264)
I0501 14:36:10.248956 25244 net.cpp:129] Top shape: 32 512 14 14 (3211264)
I0501 14:36:10.248961 25244 net.cpp:129] Top shape: 32 512 14 14 (3211264)
I0501 14:36:10.248966 25244 net.cpp:137] Memory required for data: 1371194372
I0501 14:36:10.248970 25244 layer_factory.hpp:77] Creating layer inception_4c/1x1
I0501 14:36:10.248981 25244 net.cpp:84] Creating Layer inception_4c/1x1
I0501 14:36:10.248987 25244 net.cpp:406] inception_4c/1x1 <- inception_4b/output_inception_4b/output_0_split_0
I0501 14:36:10.248996 25244 net.cpp:380] inception_4c/1x1 -> inception_4c/1x1
I0501 14:36:10.253520 25244 net.cpp:122] Setting up inception_4c/1x1
I0501 14:36:10.253545 25244 net.cpp:129] Top shape: 32 128 14 14 (802816)
I0501 14:36:10.253551 25244 net.cpp:137] Memory required for data: 1374405636
I0501 14:36:10.253566 25244 layer_factory.hpp:77] Creating layer inception_4c/relu_1x1
I0501 14:36:10.253578 25244 net.cpp:84] Creating Layer inception_4c/relu_1x1
I0501 14:36:10.253587 25244 net.cpp:406] inception_4c/relu_1x1 <- inception_4c/1x1
I0501 14:36:10.253597 25244 net.cpp:367] inception_4c/relu_1x1 -> inception_4c/1x1 (in-place)
I0501 14:36:10.254101 25244 net.cpp:122] Setting up inception_4c/relu_1x1
I0501 14:36:10.254114 25244 net.cpp:129] Top shape: 32 128 14 14 (802816)
I0501 14:36:10.254122 25244 net.cpp:137] Memory required for data: 1377616900
I0501 14:36:10.254130 25244 layer_factory.hpp:77] Creating layer inception_4c/3x3_reduce
I0501 14:36:10.254146 25244 net.cpp:84] Creating Layer inception_4c/3x3_reduce
I0501 14:36:10.254154 25244 net.cpp:406] inception_4c/3x3_reduce <- inception_4b/output_inception_4b/output_0_split_1
I0501 14:36:10.254165 25244 net.cpp:380] inception_4c/3x3_reduce -> inception_4c/3x3_reduce
I0501 14:36:10.275600 25244 net.cpp:122] Setting up inception_4c/3x3_reduce
I0501 14:36:10.275624 25244 net.cpp:129] Top shape: 32 128 14 14 (802816)
I0501 14:36:10.275632 25244 net.cpp:137] Memory required for data: 1380828164
I0501 14:36:10.275645 25244 layer_factory.hpp:77] Creating layer inception_4c/relu_3x3_reduce
I0501 14:36:10.275658 25244 net.cpp:84] Creating Layer inception_4c/relu_3x3_reduce
I0501 14:36:10.275666 25244 net.cpp:406] inception_4c/relu_3x3_reduce <- inception_4c/3x3_reduce
I0501 14:36:10.275676 25244 net.cpp:367] inception_4c/relu_3x3_reduce -> inception_4c/3x3_reduce (in-place)
I0501 14:36:10.276211 25244 net.cpp:122] Setting up inception_4c/relu_3x3_reduce
I0501 14:36:10.276222 25244 net.cpp:129] Top shape: 32 128 14 14 (802816)
I0501 14:36:10.276227 25244 net.cpp:137] Memory required for data: 1384039428
I0501 14:36:10.276232 25244 layer_factory.hpp:77] Creating layer inception_4c/3x3
I0501 14:36:10.276247 25244 net.cpp:84] Creating Layer inception_4c/3x3
I0501 14:36:10.276252 25244 net.cpp:406] inception_4c/3x3 <- inception_4c/3x3_reduce
I0501 14:36:10.276259 25244 net.cpp:380] inception_4c/3x3 -> inception_4c/3x3
I0501 14:36:10.279497 25244 net.cpp:122] Setting up inception_4c/3x3
I0501 14:36:10.279511 25244 net.cpp:129] Top shape: 32 256 14 14 (1605632)
I0501 14:36:10.279515 25244 net.cpp:137] Memory required for data: 1390461956
I0501 14:36:10.279536 25244 layer_factory.hpp:77] Creating layer inception_4c/relu_3x3
I0501 14:36:10.279546 25244 net.cpp:84] Creating Layer inception_4c/relu_3x3
I0501 14:36:10.279553 25244 net.cpp:406] inception_4c/relu_3x3 <- inception_4c/3x3
I0501 14:36:10.279561 25244 net.cpp:367] inception_4c/relu_3x3 -> inception_4c/3x3 (in-place)
I0501 14:36:10.280089 25244 net.cpp:122] Setting up inception_4c/relu_3x3
I0501 14:36:10.280099 25244 net.cpp:129] Top shape: 32 256 14 14 (1605632)
I0501 14:36:10.280103 25244 net.cpp:137] Memory required for data: 1396884484
I0501 14:36:10.280110 25244 layer_factory.hpp:77] Creating layer inception_4c/5x5_reduce
I0501 14:36:10.280122 25244 net.cpp:84] Creating Layer inception_4c/5x5_reduce
I0501 14:36:10.280128 25244 net.cpp:406] inception_4c/5x5_reduce <- inception_4b/output_inception_4b/output_0_split_2
I0501 14:36:10.280139 25244 net.cpp:380] inception_4c/5x5_reduce -> inception_4c/5x5_reduce
I0501 14:36:10.283640 25244 net.cpp:122] Setting up inception_4c/5x5_reduce
I0501 14:36:10.283655 25244 net.cpp:129] Top shape: 32 24 14 14 (150528)
I0501 14:36:10.283660 25244 net.cpp:137] Memory required for data: 1397486596
I0501 14:36:10.283668 25244 layer_factory.hpp:77] Creating layer inception_4c/relu_5x5_reduce
I0501 14:36:10.283677 25244 net.cpp:84] Creating Layer inception_4c/relu_5x5_reduce
I0501 14:36:10.283684 25244 net.cpp:406] inception_4c/relu_5x5_reduce <- inception_4c/5x5_reduce
I0501 14:36:10.283694 25244 net.cpp:367] inception_4c/relu_5x5_reduce -> inception_4c/5x5_reduce (in-place)
I0501 14:36:10.284230 25244 net.cpp:122] Setting up inception_4c/relu_5x5_reduce
I0501 14:36:10.284242 25244 net.cpp:129] Top shape: 32 24 14 14 (150528)
I0501 14:36:10.284246 25244 net.cpp:137] Memory required for data: 1398088708
I0501 14:36:10.284250 25244 layer_factory.hpp:77] Creating layer inception_4c/5x5
I0501 14:36:10.284260 25244 net.cpp:84] Creating Layer inception_4c/5x5
I0501 14:36:10.284265 25244 net.cpp:406] inception_4c/5x5 <- inception_4c/5x5_reduce
I0501 14:36:10.284273 25244 net.cpp:380] inception_4c/5x5 -> inception_4c/5x5
I0501 14:36:10.286227 25244 net.cpp:122] Setting up inception_4c/5x5
I0501 14:36:10.286239 25244 net.cpp:129] Top shape: 32 64 14 14 (401408)
I0501 14:36:10.286245 25244 net.cpp:137] Memory required for data: 1399694340
I0501 14:36:10.286252 25244 layer_factory.hpp:77] Creating layer inception_4c/relu_5x5
I0501 14:36:10.286259 25244 net.cpp:84] Creating Layer inception_4c/relu_5x5
I0501 14:36:10.286264 25244 net.cpp:406] inception_4c/relu_5x5 <- inception_4c/5x5
I0501 14:36:10.286273 25244 net.cpp:367] inception_4c/relu_5x5 -> inception_4c/5x5 (in-place)
I0501 14:36:10.286859 25244 net.cpp:122] Setting up inception_4c/relu_5x5
I0501 14:36:10.286870 25244 net.cpp:129] Top shape: 32 64 14 14 (401408)
I0501 14:36:10.286873 25244 net.cpp:137] Memory required for data: 1401299972
I0501 14:36:10.286878 25244 layer_factory.hpp:77] Creating layer inception_4c/pool
I0501 14:36:10.286886 25244 net.cpp:84] Creating Layer inception_4c/pool
I0501 14:36:10.286891 25244 net.cpp:406] inception_4c/pool <- inception_4b/output_inception_4b/output_0_split_3
I0501 14:36:10.286900 25244 net.cpp:380] inception_4c/pool -> inception_4c/pool
I0501 14:36:10.286942 25244 net.cpp:122] Setting up inception_4c/pool
I0501 14:36:10.286947 25244 net.cpp:129] Top shape: 32 512 14 14 (3211264)
I0501 14:36:10.286952 25244 net.cpp:137] Memory required for data: 1414145028
I0501 14:36:10.286957 25244 layer_factory.hpp:77] Creating layer inception_4c/pool_proj
I0501 14:36:10.286967 25244 net.cpp:84] Creating Layer inception_4c/pool_proj
I0501 14:36:10.286972 25244 net.cpp:406] inception_4c/pool_proj <- inception_4c/pool
I0501 14:36:10.286980 25244 net.cpp:380] inception_4c/pool_proj -> inception_4c/pool_proj
I0501 14:36:10.290632 25244 net.cpp:122] Setting up inception_4c/pool_proj
I0501 14:36:10.290665 25244 net.cpp:129] Top shape: 32 64 14 14 (401408)
I0501 14:36:10.290670 25244 net.cpp:137] Memory required for data: 1415750660
I0501 14:36:10.290679 25244 layer_factory.hpp:77] Creating layer inception_4c/relu_pool_proj
I0501 14:36:10.290688 25244 net.cpp:84] Creating Layer inception_4c/relu_pool_proj
I0501 14:36:10.290694 25244 net.cpp:406] inception_4c/relu_pool_proj <- inception_4c/pool_proj
I0501 14:36:10.290704 25244 net.cpp:367] inception_4c/relu_pool_proj -> inception_4c/pool_proj (in-place)
I0501 14:36:10.291065 25244 net.cpp:122] Setting up inception_4c/relu_pool_proj
I0501 14:36:10.291075 25244 net.cpp:129] Top shape: 32 64 14 14 (401408)
I0501 14:36:10.291081 25244 net.cpp:137] Memory required for data: 1417356292
I0501 14:36:10.291087 25244 layer_factory.hpp:77] Creating layer inception_4c/output
I0501 14:36:10.291095 25244 net.cpp:84] Creating Layer inception_4c/output
I0501 14:36:10.291100 25244 net.cpp:406] inception_4c/output <- inception_4c/1x1
I0501 14:36:10.291106 25244 net.cpp:406] inception_4c/output <- inception_4c/3x3
I0501 14:36:10.291111 25244 net.cpp:406] inception_4c/output <- inception_4c/5x5
I0501 14:36:10.291115 25244 net.cpp:406] inception_4c/output <- inception_4c/pool_proj
I0501 14:36:10.291121 25244 net.cpp:380] inception_4c/output -> inception_4c/output
I0501 14:36:10.291148 25244 net.cpp:122] Setting up inception_4c/output
I0501 14:36:10.291154 25244 net.cpp:129] Top shape: 32 512 14 14 (3211264)
I0501 14:36:10.291157 25244 net.cpp:137] Memory required for data: 1430201348
I0501 14:36:10.291162 25244 layer_factory.hpp:77] Creating layer inception_4c/output_inception_4c/output_0_split
I0501 14:36:10.291170 25244 net.cpp:84] Creating Layer inception_4c/output_inception_4c/output_0_split
I0501 14:36:10.291175 25244 net.cpp:406] inception_4c/output_inception_4c/output_0_split <- inception_4c/output
I0501 14:36:10.291182 25244 net.cpp:380] inception_4c/output_inception_4c/output_0_split -> inception_4c/output_inception_4c/output_0_split_0
I0501 14:36:10.291188 25244 net.cpp:380] inception_4c/output_inception_4c/output_0_split -> inception_4c/output_inception_4c/output_0_split_1
I0501 14:36:10.291195 25244 net.cpp:380] inception_4c/output_inception_4c/output_0_split -> inception_4c/output_inception_4c/output_0_split_2
I0501 14:36:10.291203 25244 net.cpp:380] inception_4c/output_inception_4c/output_0_split -> inception_4c/output_inception_4c/output_0_split_3
I0501 14:36:10.291251 25244 net.cpp:122] Setting up inception_4c/output_inception_4c/output_0_split
I0501 14:36:10.291257 25244 net.cpp:129] Top shape: 32 512 14 14 (3211264)
I0501 14:36:10.291261 25244 net.cpp:129] Top shape: 32 512 14 14 (3211264)
I0501 14:36:10.291266 25244 net.cpp:129] Top shape: 32 512 14 14 (3211264)
I0501 14:36:10.291270 25244 net.cpp:129] Top shape: 32 512 14 14 (3211264)
I0501 14:36:10.291273 25244 net.cpp:137] Memory required for data: 1481581572
I0501 14:36:10.291278 25244 layer_factory.hpp:77] Creating layer inception_4d/1x1
I0501 14:36:10.291290 25244 net.cpp:84] Creating Layer inception_4d/1x1
I0501 14:36:10.291296 25244 net.cpp:406] inception_4d/1x1 <- inception_4c/output_inception_4c/output_0_split_0
I0501 14:36:10.291301 25244 net.cpp:380] inception_4d/1x1 -> inception_4d/1x1
I0501 14:36:10.294245 25244 net.cpp:122] Setting up inception_4d/1x1
I0501 14:36:10.294257 25244 net.cpp:129] Top shape: 32 112 14 14 (702464)
I0501 14:36:10.294261 25244 net.cpp:137] Memory required for data: 1484391428
I0501 14:36:10.294270 25244 layer_factory.hpp:77] Creating layer inception_4d/relu_1x1
I0501 14:36:10.294279 25244 net.cpp:84] Creating Layer inception_4d/relu_1x1
I0501 14:36:10.294284 25244 net.cpp:406] inception_4d/relu_1x1 <- inception_4d/1x1
I0501 14:36:10.294291 25244 net.cpp:367] inception_4d/relu_1x1 -> inception_4d/1x1 (in-place)
I0501 14:36:10.294695 25244 net.cpp:122] Setting up inception_4d/relu_1x1
I0501 14:36:10.294706 25244 net.cpp:129] Top shape: 32 112 14 14 (702464)
I0501 14:36:10.294711 25244 net.cpp:137] Memory required for data: 1487201284
I0501 14:36:10.294731 25244 layer_factory.hpp:77] Creating layer inception_4d/3x3_reduce
I0501 14:36:10.294744 25244 net.cpp:84] Creating Layer inception_4d/3x3_reduce
I0501 14:36:10.294749 25244 net.cpp:406] inception_4d/3x3_reduce <- inception_4c/output_inception_4c/output_0_split_1
I0501 14:36:10.294757 25244 net.cpp:380] inception_4d/3x3_reduce -> inception_4d/3x3_reduce
I0501 14:36:10.296916 25244 net.cpp:122] Setting up inception_4d/3x3_reduce
I0501 14:36:10.296928 25244 net.cpp:129] Top shape: 32 144 14 14 (903168)
I0501 14:36:10.296932 25244 net.cpp:137] Memory required for data: 1490813956
I0501 14:36:10.296941 25244 layer_factory.hpp:77] Creating layer inception_4d/relu_3x3_reduce
I0501 14:36:10.296952 25244 net.cpp:84] Creating Layer inception_4d/relu_3x3_reduce
I0501 14:36:10.296957 25244 net.cpp:406] inception_4d/relu_3x3_reduce <- inception_4d/3x3_reduce
I0501 14:36:10.296962 25244 net.cpp:367] inception_4d/relu_3x3_reduce -> inception_4d/3x3_reduce (in-place)
I0501 14:36:10.297632 25244 net.cpp:122] Setting up inception_4d/relu_3x3_reduce
I0501 14:36:10.297643 25244 net.cpp:129] Top shape: 32 144 14 14 (903168)
I0501 14:36:10.297648 25244 net.cpp:137] Memory required for data: 1494426628
I0501 14:36:10.297653 25244 layer_factory.hpp:77] Creating layer inception_4d/3x3
I0501 14:36:10.297665 25244 net.cpp:84] Creating Layer inception_4d/3x3
I0501 14:36:10.297672 25244 net.cpp:406] inception_4d/3x3 <- inception_4d/3x3_reduce
I0501 14:36:10.297682 25244 net.cpp:380] inception_4d/3x3 -> inception_4d/3x3
I0501 14:36:10.318361 25244 net.cpp:122] Setting up inception_4d/3x3
I0501 14:36:10.318389 25244 net.cpp:129] Top shape: 32 288 14 14 (1806336)
I0501 14:36:10.318397 25244 net.cpp:137] Memory required for data: 1501651972
I0501 14:36:10.318414 25244 layer_factory.hpp:77] Creating layer inception_4d/relu_3x3
I0501 14:36:10.318428 25244 net.cpp:84] Creating Layer inception_4d/relu_3x3
I0501 14:36:10.318439 25244 net.cpp:406] inception_4d/relu_3x3 <- inception_4d/3x3
I0501 14:36:10.318450 25244 net.cpp:367] inception_4d/relu_3x3 -> inception_4d/3x3 (in-place)
I0501 14:36:10.319159 25244 net.cpp:122] Setting up inception_4d/relu_3x3
I0501 14:36:10.319171 25244 net.cpp:129] Top shape: 32 288 14 14 (1806336)
I0501 14:36:10.319177 25244 net.cpp:137] Memory required for data: 1508877316
I0501 14:36:10.319185 25244 layer_factory.hpp:77] Creating layer inception_4d/5x5_reduce
I0501 14:36:10.319197 25244 net.cpp:84] Creating Layer inception_4d/5x5_reduce
I0501 14:36:10.319202 25244 net.cpp:406] inception_4d/5x5_reduce <- inception_4c/output_inception_4c/output_0_split_2
I0501 14:36:10.319214 25244 net.cpp:380] inception_4d/5x5_reduce -> inception_4d/5x5_reduce
I0501 14:36:10.321576 25244 net.cpp:122] Setting up inception_4d/5x5_reduce
I0501 14:36:10.321590 25244 net.cpp:129] Top shape: 32 32 14 14 (200704)
I0501 14:36:10.321594 25244 net.cpp:137] Memory required for data: 1509680132
I0501 14:36:10.321602 25244 layer_factory.hpp:77] Creating layer inception_4d/relu_5x5_reduce
I0501 14:36:10.321612 25244 net.cpp:84] Creating Layer inception_4d/relu_5x5_reduce
I0501 14:36:10.321619 25244 net.cpp:406] inception_4d/relu_5x5_reduce <- inception_4d/5x5_reduce
I0501 14:36:10.321626 25244 net.cpp:367] inception_4d/relu_5x5_reduce -> inception_4d/5x5_reduce (in-place)
I0501 14:36:10.322175 25244 net.cpp:122] Setting up inception_4d/relu_5x5_reduce
I0501 14:36:10.322186 25244 net.cpp:129] Top shape: 32 32 14 14 (200704)
I0501 14:36:10.322192 25244 net.cpp:137] Memory required for data: 1510482948
I0501 14:36:10.322197 25244 layer_factory.hpp:77] Creating layer inception_4d/5x5
I0501 14:36:10.322209 25244 net.cpp:84] Creating Layer inception_4d/5x5
I0501 14:36:10.322214 25244 net.cpp:406] inception_4d/5x5 <- inception_4d/5x5_reduce
I0501 14:36:10.322225 25244 net.cpp:380] inception_4d/5x5 -> inception_4d/5x5
I0501 14:36:10.324244 25244 net.cpp:122] Setting up inception_4d/5x5
I0501 14:36:10.324259 25244 net.cpp:129] Top shape: 32 64 14 14 (401408)
I0501 14:36:10.324268 25244 net.cpp:137] Memory required for data: 1512088580
I0501 14:36:10.324304 25244 layer_factory.hpp:77] Creating layer inception_4d/relu_5x5
I0501 14:36:10.324314 25244 net.cpp:84] Creating Layer inception_4d/relu_5x5
I0501 14:36:10.324321 25244 net.cpp:406] inception_4d/relu_5x5 <- inception_4d/5x5
I0501 14:36:10.324333 25244 net.cpp:367] inception_4d/relu_5x5 -> inception_4d/5x5 (in-place)
I0501 14:36:10.326879 25244 net.cpp:122] Setting up inception_4d/relu_5x5
I0501 14:36:10.326891 25244 net.cpp:129] Top shape: 32 64 14 14 (401408)
I0501 14:36:10.797667 25244 net.cpp:137] Memory required for data: 1513694212
I0501 14:36:10.797685 25244 layer_factory.hpp:77] Creating layer inception_4d/pool
I0501 14:36:10.797701 25244 net.cpp:84] Creating Layer inception_4d/pool
I0501 14:36:10.797710 25244 net.cpp:406] inception_4d/pool <- inception_4c/output_inception_4c/output_0_split_3
I0501 14:36:10.797724 25244 net.cpp:380] inception_4d/pool -> inception_4d/pool
I0501 14:36:10.797822 25244 net.cpp:122] Setting up inception_4d/pool
I0501 14:36:10.797837 25244 net.cpp:129] Top shape: 32 512 14 14 (3211264)
I0501 14:36:10.797842 25244 net.cpp:137] Memory required for data: 1526539268
I0501 14:36:10.797847 25244 layer_factory.hpp:77] Creating layer inception_4d/pool_proj
I0501 14:36:10.797864 25244 net.cpp:84] Creating Layer inception_4d/pool_proj
I0501 14:36:10.797870 25244 net.cpp:406] inception_4d/pool_proj <- inception_4d/pool
I0501 14:36:10.797879 25244 net.cpp:380] inception_4d/pool_proj -> inception_4d/pool_proj
I0501 14:36:10.801254 25244 net.cpp:122] Setting up inception_4d/pool_proj
I0501 14:36:10.801272 25244 net.cpp:129] Top shape: 32 64 14 14 (401408)
I0501 14:36:10.801280 25244 net.cpp:137] Memory required for data: 1528144900
I0501 14:36:10.801293 25244 layer_factory.hpp:77] Creating layer inception_4d/relu_pool_proj
I0501 14:36:10.801309 25244 net.cpp:84] Creating Layer inception_4d/relu_pool_proj
I0501 14:36:10.801319 25244 net.cpp:406] inception_4d/relu_pool_proj <- inception_4d/pool_proj
I0501 14:36:10.801331 25244 net.cpp:367] inception_4d/relu_pool_proj -> inception_4d/pool_proj (in-place)
I0501 14:36:10.801910 25244 net.cpp:122] Setting up inception_4d/relu_pool_proj
I0501 14:36:10.801925 25244 net.cpp:129] Top shape: 32 64 14 14 (401408)
I0501 14:36:10.801932 25244 net.cpp:137] Memory required for data: 1529750532
I0501 14:36:10.801940 25244 layer_factory.hpp:77] Creating layer inception_4d/output
I0501 14:36:10.801951 25244 net.cpp:84] Creating Layer inception_4d/output
I0501 14:36:10.801959 25244 net.cpp:406] inception_4d/output <- inception_4d/1x1
I0501 14:36:10.801970 25244 net.cpp:406] inception_4d/output <- inception_4d/3x3
I0501 14:36:10.801976 25244 net.cpp:406] inception_4d/output <- inception_4d/5x5
I0501 14:36:10.801983 25244 net.cpp:406] inception_4d/output <- inception_4d/pool_proj
I0501 14:36:10.801996 25244 net.cpp:380] inception_4d/output -> inception_4d/output
I0501 14:36:10.802038 25244 net.cpp:122] Setting up inception_4d/output
I0501 14:36:10.802049 25244 net.cpp:129] Top shape: 32 528 14 14 (3311616)
I0501 14:36:10.802055 25244 net.cpp:137] Memory required for data: 1542996996
I0501 14:36:10.802062 25244 layer_factory.hpp:77] Creating layer inception_4d/output_inception_4d/output_0_split
I0501 14:36:10.802078 25244 net.cpp:84] Creating Layer inception_4d/output_inception_4d/output_0_split
I0501 14:36:10.802084 25244 net.cpp:406] inception_4d/output_inception_4d/output_0_split <- inception_4d/output
I0501 14:36:10.802096 25244 net.cpp:380] inception_4d/output_inception_4d/output_0_split -> inception_4d/output_inception_4d/output_0_split_0
I0501 14:36:10.802109 25244 net.cpp:380] inception_4d/output_inception_4d/output_0_split -> inception_4d/output_inception_4d/output_0_split_1
I0501 14:36:10.802121 25244 net.cpp:380] inception_4d/output_inception_4d/output_0_split -> inception_4d/output_inception_4d/output_0_split_2
I0501 14:36:10.802134 25244 net.cpp:380] inception_4d/output_inception_4d/output_0_split -> inception_4d/output_inception_4d/output_0_split_3
I0501 14:36:10.802146 25244 net.cpp:380] inception_4d/output_inception_4d/output_0_split -> inception_4d/output_inception_4d/output_0_split_4
I0501 14:36:10.802281 25244 net.cpp:122] Setting up inception_4d/output_inception_4d/output_0_split
I0501 14:36:10.802294 25244 net.cpp:129] Top shape: 32 528 14 14 (3311616)
I0501 14:36:10.802302 25244 net.cpp:129] Top shape: 32 528 14 14 (3311616)
I0501 14:36:10.802310 25244 net.cpp:129] Top shape: 32 528 14 14 (3311616)
I0501 14:36:10.802317 25244 net.cpp:129] Top shape: 32 528 14 14 (3311616)
I0501 14:36:10.802325 25244 net.cpp:129] Top shape: 32 528 14 14 (3311616)
I0501 14:36:10.802331 25244 net.cpp:137] Memory required for data: 1609229316
I0501 14:36:10.802340 25244 layer_factory.hpp:77] Creating layer loss2/ave_pool
I0501 14:36:10.802348 25244 net.cpp:84] Creating Layer loss2/ave_pool
I0501 14:36:10.802357 25244 net.cpp:406] loss2/ave_pool <- inception_4d/output_inception_4d/output_0_split_0
I0501 14:36:10.802369 25244 net.cpp:380] loss2/ave_pool -> loss2/ave_pool
I0501 14:36:10.806030 25244 net.cpp:122] Setting up loss2/ave_pool
I0501 14:36:10.806046 25244 net.cpp:129] Top shape: 32 528 4 4 (270336)
I0501 14:36:10.806051 25244 net.cpp:137] Memory required for data: 1610310660
I0501 14:36:10.806058 25244 layer_factory.hpp:77] Creating layer loss2/conv
I0501 14:36:10.806077 25244 net.cpp:84] Creating Layer loss2/conv
I0501 14:36:10.806087 25244 net.cpp:406] loss2/conv <- loss2/ave_pool
I0501 14:36:10.806098 25244 net.cpp:380] loss2/conv -> loss2/conv
I0501 14:36:10.809630 25244 net.cpp:122] Setting up loss2/conv
I0501 14:36:10.809648 25244 net.cpp:129] Top shape: 32 128 4 4 (65536)
I0501 14:36:10.809653 25244 net.cpp:137] Memory required for data: 1610572804
I0501 14:36:10.809666 25244 layer_factory.hpp:77] Creating layer loss2/relu_conv
I0501 14:36:10.809679 25244 net.cpp:84] Creating Layer loss2/relu_conv
I0501 14:36:10.809689 25244 net.cpp:406] loss2/relu_conv <- loss2/conv
I0501 14:36:10.809700 25244 net.cpp:367] loss2/relu_conv -> loss2/conv (in-place)
I0501 14:36:10.810267 25244 net.cpp:122] Setting up loss2/relu_conv
I0501 14:36:10.810283 25244 net.cpp:129] Top shape: 32 128 4 4 (65536)
I0501 14:36:10.810290 25244 net.cpp:137] Memory required for data: 1610834948
I0501 14:36:10.810297 25244 layer_factory.hpp:77] Creating layer loss2/fc
I0501 14:36:10.810310 25244 net.cpp:84] Creating Layer loss2/fc
I0501 14:36:10.810317 25244 net.cpp:406] loss2/fc <- loss2/conv
I0501 14:36:10.810331 25244 net.cpp:380] loss2/fc -> loss2/fc
I0501 14:36:10.825757 25244 net.cpp:122] Setting up loss2/fc
I0501 14:36:10.825780 25244 net.cpp:129] Top shape: 32 1024 (32768)
I0501 14:36:10.825788 25244 net.cpp:137] Memory required for data: 1610966020
I0501 14:36:10.825801 25244 layer_factory.hpp:77] Creating layer loss2/relu_fc
I0501 14:36:10.825815 25244 net.cpp:84] Creating Layer loss2/relu_fc
I0501 14:36:10.825824 25244 net.cpp:406] loss2/relu_fc <- loss2/fc
I0501 14:36:10.825834 25244 net.cpp:367] loss2/relu_fc -> loss2/fc (in-place)
I0501 14:36:10.828332 25244 net.cpp:122] Setting up loss2/relu_fc
I0501 14:36:10.828346 25244 net.cpp:129] Top shape: 32 1024 (32768)
I0501 14:36:10.828351 25244 net.cpp:137] Memory required for data: 1611097092
I0501 14:36:10.828358 25244 layer_factory.hpp:77] Creating layer loss2/drop_fc
I0501 14:36:10.828369 25244 net.cpp:84] Creating Layer loss2/drop_fc
I0501 14:36:10.828378 25244 net.cpp:406] loss2/drop_fc <- loss2/fc
I0501 14:36:10.828389 25244 net.cpp:367] loss2/drop_fc -> loss2/fc (in-place)
I0501 14:36:10.828423 25244 net.cpp:122] Setting up loss2/drop_fc
I0501 14:36:10.828428 25244 net.cpp:129] Top shape: 32 1024 (32768)
I0501 14:36:10.828433 25244 net.cpp:137] Memory required for data: 1611228164
I0501 14:36:10.828436 25244 layer_factory.hpp:77] Creating layer loss2/classifier
I0501 14:36:10.828449 25244 net.cpp:84] Creating Layer loss2/classifier
I0501 14:36:10.828454 25244 net.cpp:406] loss2/classifier <- loss2/fc
I0501 14:36:10.828465 25244 net.cpp:380] loss2/classifier -> loss2/classifier
I0501 14:36:10.829524 25244 net.cpp:122] Setting up loss2/classifier
I0501 14:36:10.829532 25244 net.cpp:129] Top shape: 32 196 (6272)
I0501 14:36:10.829560 25244 net.cpp:137] Memory required for data: 1611253252
I0501 14:36:10.829572 25244 layer_factory.hpp:77] Creating layer loss2/loss
I0501 14:36:10.829584 25244 net.cpp:84] Creating Layer loss2/loss
I0501 14:36:10.829591 25244 net.cpp:406] loss2/loss <- loss2/classifier
I0501 14:36:10.829598 25244 net.cpp:406] loss2/loss <- label_train-data_1_split_1
I0501 14:36:10.829605 25244 net.cpp:380] loss2/loss -> loss2/loss
I0501 14:36:10.829617 25244 layer_factory.hpp:77] Creating layer loss2/loss
I0501 14:36:10.830261 25244 net.cpp:122] Setting up loss2/loss
I0501 14:36:10.830271 25244 net.cpp:129] Top shape: (1)
I0501 14:36:10.830278 25244 net.cpp:132]     with loss weight 0.3
I0501 14:36:10.830291 25244 net.cpp:137] Memory required for data: 1611253256
I0501 14:36:10.830299 25244 layer_factory.hpp:77] Creating layer inception_4e/1x1
I0501 14:36:10.830317 25244 net.cpp:84] Creating Layer inception_4e/1x1
I0501 14:36:10.830325 25244 net.cpp:406] inception_4e/1x1 <- inception_4d/output_inception_4d/output_0_split_1
I0501 14:36:10.830334 25244 net.cpp:380] inception_4e/1x1 -> inception_4e/1x1
I0501 14:36:10.836663 25244 net.cpp:122] Setting up inception_4e/1x1
I0501 14:36:10.836681 25244 net.cpp:129] Top shape: 32 256 14 14 (1605632)
I0501 14:36:10.836688 25244 net.cpp:137] Memory required for data: 1617675784
I0501 14:36:10.836701 25244 layer_factory.hpp:77] Creating layer inception_4e/relu_1x1
I0501 14:36:10.836714 25244 net.cpp:84] Creating Layer inception_4e/relu_1x1
I0501 14:36:10.836720 25244 net.cpp:406] inception_4e/relu_1x1 <- inception_4e/1x1
I0501 14:36:10.836730 25244 net.cpp:367] inception_4e/relu_1x1 -> inception_4e/1x1 (in-place)
I0501 14:36:10.837396 25244 net.cpp:122] Setting up inception_4e/relu_1x1
I0501 14:36:10.837415 25244 net.cpp:129] Top shape: 32 256 14 14 (1605632)
I0501 14:36:10.837421 25244 net.cpp:137] Memory required for data: 1624098312
I0501 14:36:10.837430 25244 layer_factory.hpp:77] Creating layer inception_4e/3x3_reduce
I0501 14:36:10.837445 25244 net.cpp:84] Creating Layer inception_4e/3x3_reduce
I0501 14:36:10.837455 25244 net.cpp:406] inception_4e/3x3_reduce <- inception_4d/output_inception_4d/output_0_split_2
I0501 14:36:10.837464 25244 net.cpp:380] inception_4e/3x3_reduce -> inception_4e/3x3_reduce
I0501 14:36:10.844417 25244 net.cpp:122] Setting up inception_4e/3x3_reduce
I0501 14:36:10.844440 25244 net.cpp:129] Top shape: 32 160 14 14 (1003520)
I0501 14:36:10.844451 25244 net.cpp:137] Memory required for data: 1628112392
I0501 14:36:10.844465 25244 layer_factory.hpp:77] Creating layer inception_4e/relu_3x3_reduce
I0501 14:36:10.844486 25244 net.cpp:84] Creating Layer inception_4e/relu_3x3_reduce
I0501 14:36:10.844501 25244 net.cpp:406] inception_4e/relu_3x3_reduce <- inception_4e/3x3_reduce
I0501 14:36:10.844513 25244 net.cpp:367] inception_4e/relu_3x3_reduce -> inception_4e/3x3_reduce (in-place)
I0501 14:36:10.845278 25244 net.cpp:122] Setting up inception_4e/relu_3x3_reduce
I0501 14:36:10.845293 25244 net.cpp:129] Top shape: 32 160 14 14 (1003520)
I0501 14:36:10.845300 25244 net.cpp:137] Memory required for data: 1632126472
I0501 14:36:10.845309 25244 layer_factory.hpp:77] Creating layer inception_4e/3x3
I0501 14:36:10.845329 25244 net.cpp:84] Creating Layer inception_4e/3x3
I0501 14:36:10.845336 25244 net.cpp:406] inception_4e/3x3 <- inception_4e/3x3_reduce
I0501 14:36:10.845348 25244 net.cpp:380] inception_4e/3x3 -> inception_4e/3x3
I0501 14:36:10.854455 25244 net.cpp:122] Setting up inception_4e/3x3
I0501 14:36:10.854530 25244 net.cpp:129] Top shape: 32 320 14 14 (2007040)
I0501 14:36:10.854538 25244 net.cpp:137] Memory required for data: 1640154632
I0501 14:36:10.854554 25244 layer_factory.hpp:77] Creating layer inception_4e/relu_3x3
I0501 14:36:10.854568 25244 net.cpp:84] Creating Layer inception_4e/relu_3x3
I0501 14:36:10.854583 25244 net.cpp:406] inception_4e/relu_3x3 <- inception_4e/3x3
I0501 14:36:10.854604 25244 net.cpp:367] inception_4e/relu_3x3 -> inception_4e/3x3 (in-place)
I0501 14:36:10.855124 25244 net.cpp:122] Setting up inception_4e/relu_3x3
I0501 14:36:10.855141 25244 net.cpp:129] Top shape: 32 320 14 14 (2007040)
I0501 14:36:10.855171 25244 net.cpp:137] Memory required for data: 1648182792
I0501 14:36:10.855182 25244 layer_factory.hpp:77] Creating layer inception_4e/5x5_reduce
I0501 14:36:10.855201 25244 net.cpp:84] Creating Layer inception_4e/5x5_reduce
I0501 14:36:10.855213 25244 net.cpp:406] inception_4e/5x5_reduce <- inception_4d/output_inception_4d/output_0_split_3
I0501 14:36:10.855228 25244 net.cpp:380] inception_4e/5x5_reduce -> inception_4e/5x5_reduce
I0501 14:36:10.857801 25244 net.cpp:122] Setting up inception_4e/5x5_reduce
I0501 14:36:10.857820 25244 net.cpp:129] Top shape: 32 32 14 14 (200704)
I0501 14:36:10.857831 25244 net.cpp:137] Memory required for data: 1648985608
I0501 14:36:10.857842 25244 layer_factory.hpp:77] Creating layer inception_4e/relu_5x5_reduce
I0501 14:36:10.857856 25244 net.cpp:84] Creating Layer inception_4e/relu_5x5_reduce
I0501 14:36:10.857865 25244 net.cpp:406] inception_4e/relu_5x5_reduce <- inception_4e/5x5_reduce
I0501 14:36:10.857878 25244 net.cpp:367] inception_4e/relu_5x5_reduce -> inception_4e/5x5_reduce (in-place)
I0501 14:36:10.858618 25244 net.cpp:122] Setting up inception_4e/relu_5x5_reduce
I0501 14:36:10.858633 25244 net.cpp:129] Top shape: 32 32 14 14 (200704)
I0501 14:36:10.858640 25244 net.cpp:137] Memory required for data: 1649788424
I0501 14:36:10.858649 25244 layer_factory.hpp:77] Creating layer inception_4e/5x5
I0501 14:36:10.858695 25244 net.cpp:84] Creating Layer inception_4e/5x5
I0501 14:36:10.858705 25244 net.cpp:406] inception_4e/5x5 <- inception_4e/5x5_reduce
I0501 14:36:10.858716 25244 net.cpp:380] inception_4e/5x5 -> inception_4e/5x5
I0501 14:36:10.863740 25244 net.cpp:122] Setting up inception_4e/5x5
I0501 14:36:10.863759 25244 net.cpp:129] Top shape: 32 128 14 14 (802816)
I0501 14:36:10.863765 25244 net.cpp:137] Memory required for data: 1652999688
I0501 14:36:10.863776 25244 layer_factory.hpp:77] Creating layer inception_4e/relu_5x5
I0501 14:36:10.863786 25244 net.cpp:84] Creating Layer inception_4e/relu_5x5
I0501 14:36:10.863793 25244 net.cpp:406] inception_4e/relu_5x5 <- inception_4e/5x5
I0501 14:36:10.863801 25244 net.cpp:367] inception_4e/relu_5x5 -> inception_4e/5x5 (in-place)
I0501 14:36:10.864356 25244 net.cpp:122] Setting up inception_4e/relu_5x5
I0501 14:36:10.864367 25244 net.cpp:129] Top shape: 32 128 14 14 (802816)
I0501 14:36:10.864374 25244 net.cpp:137] Memory required for data: 1656210952
I0501 14:36:10.864379 25244 layer_factory.hpp:77] Creating layer inception_4e/pool
I0501 14:36:10.864390 25244 net.cpp:84] Creating Layer inception_4e/pool
I0501 14:36:10.864396 25244 net.cpp:406] inception_4e/pool <- inception_4d/output_inception_4d/output_0_split_4
I0501 14:36:10.864404 25244 net.cpp:380] inception_4e/pool -> inception_4e/pool
I0501 14:36:10.864449 25244 net.cpp:122] Setting up inception_4e/pool
I0501 14:36:10.864457 25244 net.cpp:129] Top shape: 32 528 14 14 (3311616)
I0501 14:36:10.864462 25244 net.cpp:137] Memory required for data: 1669457416
I0501 14:36:10.864466 25244 layer_factory.hpp:77] Creating layer inception_4e/pool_proj
I0501 14:36:10.864478 25244 net.cpp:84] Creating Layer inception_4e/pool_proj
I0501 14:36:10.864485 25244 net.cpp:406] inception_4e/pool_proj <- inception_4e/pool
I0501 14:36:10.864495 25244 net.cpp:380] inception_4e/pool_proj -> inception_4e/pool_proj
I0501 14:36:10.866428 25244 net.cpp:122] Setting up inception_4e/pool_proj
I0501 14:36:10.866439 25244 net.cpp:129] Top shape: 32 128 14 14 (802816)
I0501 14:36:10.866446 25244 net.cpp:137] Memory required for data: 1672668680
I0501 14:36:10.866452 25244 layer_factory.hpp:77] Creating layer inception_4e/relu_pool_proj
I0501 14:36:10.866461 25244 net.cpp:84] Creating Layer inception_4e/relu_pool_proj
I0501 14:36:10.866468 25244 net.cpp:406] inception_4e/relu_pool_proj <- inception_4e/pool_proj
I0501 14:36:10.866474 25244 net.cpp:367] inception_4e/relu_pool_proj -> inception_4e/pool_proj (in-place)
I0501 14:36:10.867151 25244 net.cpp:122] Setting up inception_4e/relu_pool_proj
I0501 14:36:10.867163 25244 net.cpp:129] Top shape: 32 128 14 14 (802816)
I0501 14:36:10.867185 25244 net.cpp:137] Memory required for data: 1675879944
I0501 14:36:10.867190 25244 layer_factory.hpp:77] Creating layer inception_4e/output
I0501 14:36:10.867202 25244 net.cpp:84] Creating Layer inception_4e/output
I0501 14:36:10.867208 25244 net.cpp:406] inception_4e/output <- inception_4e/1x1
I0501 14:36:10.867213 25244 net.cpp:406] inception_4e/output <- inception_4e/3x3
I0501 14:36:10.867219 25244 net.cpp:406] inception_4e/output <- inception_4e/5x5
I0501 14:36:10.867224 25244 net.cpp:406] inception_4e/output <- inception_4e/pool_proj
I0501 14:36:10.867233 25244 net.cpp:380] inception_4e/output -> inception_4e/output
I0501 14:36:10.867262 25244 net.cpp:122] Setting up inception_4e/output
I0501 14:36:10.867270 25244 net.cpp:129] Top shape: 32 832 14 14 (5218304)
I0501 14:36:10.867275 25244 net.cpp:137] Memory required for data: 1696753160
I0501 14:36:10.867280 25244 layer_factory.hpp:77] Creating layer pool4/3x3_s2
I0501 14:36:10.867287 25244 net.cpp:84] Creating Layer pool4/3x3_s2
I0501 14:36:10.867295 25244 net.cpp:406] pool4/3x3_s2 <- inception_4e/output
I0501 14:36:10.867305 25244 net.cpp:380] pool4/3x3_s2 -> pool4/3x3_s2
I0501 14:36:10.867341 25244 net.cpp:122] Setting up pool4/3x3_s2
I0501 14:36:10.867348 25244 net.cpp:129] Top shape: 32 832 7 7 (1304576)
I0501 14:36:10.867353 25244 net.cpp:137] Memory required for data: 1701971464
I0501 14:36:10.867359 25244 layer_factory.hpp:77] Creating layer pool4/3x3_s2_pool4/3x3_s2_0_split
I0501 14:36:10.867367 25244 net.cpp:84] Creating Layer pool4/3x3_s2_pool4/3x3_s2_0_split
I0501 14:36:10.867373 25244 net.cpp:406] pool4/3x3_s2_pool4/3x3_s2_0_split <- pool4/3x3_s2
I0501 14:36:10.867381 25244 net.cpp:380] pool4/3x3_s2_pool4/3x3_s2_0_split -> pool4/3x3_s2_pool4/3x3_s2_0_split_0
I0501 14:36:10.867390 25244 net.cpp:380] pool4/3x3_s2_pool4/3x3_s2_0_split -> pool4/3x3_s2_pool4/3x3_s2_0_split_1
I0501 14:36:10.867398 25244 net.cpp:380] pool4/3x3_s2_pool4/3x3_s2_0_split -> pool4/3x3_s2_pool4/3x3_s2_0_split_2
I0501 14:36:10.867406 25244 net.cpp:380] pool4/3x3_s2_pool4/3x3_s2_0_split -> pool4/3x3_s2_pool4/3x3_s2_0_split_3
I0501 14:36:10.867453 25244 net.cpp:122] Setting up pool4/3x3_s2_pool4/3x3_s2_0_split
I0501 14:36:10.867461 25244 net.cpp:129] Top shape: 32 832 7 7 (1304576)
I0501 14:36:10.867470 25244 net.cpp:129] Top shape: 32 832 7 7 (1304576)
I0501 14:36:10.867475 25244 net.cpp:129] Top shape: 32 832 7 7 (1304576)
I0501 14:36:10.867480 25244 net.cpp:129] Top shape: 32 832 7 7 (1304576)
I0501 14:36:10.867487 25244 net.cpp:137] Memory required for data: 1722844680
I0501 14:36:10.867493 25244 layer_factory.hpp:77] Creating layer inception_5a/1x1
I0501 14:36:10.867507 25244 net.cpp:84] Creating Layer inception_5a/1x1
I0501 14:36:10.867516 25244 net.cpp:406] inception_5a/1x1 <- pool4/3x3_s2_pool4/3x3_s2_0_split_0
I0501 14:36:10.867524 25244 net.cpp:380] inception_5a/1x1 -> inception_5a/1x1
I0501 14:36:10.870121 25244 net.cpp:122] Setting up inception_5a/1x1
I0501 14:36:10.870136 25244 net.cpp:129] Top shape: 32 256 7 7 (401408)
I0501 14:36:10.870144 25244 net.cpp:137] Memory required for data: 1724450312
I0501 14:36:10.870151 25244 layer_factory.hpp:77] Creating layer inception_5a/relu_1x1
I0501 14:36:10.870158 25244 net.cpp:84] Creating Layer inception_5a/relu_1x1
I0501 14:36:10.870167 25244 net.cpp:406] inception_5a/relu_1x1 <- inception_5a/1x1
I0501 14:36:10.870177 25244 net.cpp:367] inception_5a/relu_1x1 -> inception_5a/1x1 (in-place)
I0501 14:36:10.870767 25244 net.cpp:122] Setting up inception_5a/relu_1x1
I0501 14:36:10.870780 25244 net.cpp:129] Top shape: 32 256 7 7 (401408)
I0501 14:36:10.870785 25244 net.cpp:137] Memory required for data: 1726055944
I0501 14:36:10.870791 25244 layer_factory.hpp:77] Creating layer inception_5a/3x3_reduce
I0501 14:36:10.870806 25244 net.cpp:84] Creating Layer inception_5a/3x3_reduce
I0501 14:36:10.870815 25244 net.cpp:406] inception_5a/3x3_reduce <- pool4/3x3_s2_pool4/3x3_s2_0_split_1
I0501 14:36:10.870822 25244 net.cpp:380] inception_5a/3x3_reduce -> inception_5a/3x3_reduce
I0501 14:36:10.903733 25244 net.cpp:122] Setting up inception_5a/3x3_reduce
I0501 14:36:10.903762 25244 net.cpp:129] Top shape: 32 160 7 7 (250880)
I0501 14:36:10.903770 25244 net.cpp:137] Memory required for data: 1727059464
I0501 14:36:10.903786 25244 layer_factory.hpp:77] Creating layer inception_5a/relu_3x3_reduce
I0501 14:36:10.903805 25244 net.cpp:84] Creating Layer inception_5a/relu_3x3_reduce
I0501 14:36:10.903815 25244 net.cpp:406] inception_5a/relu_3x3_reduce <- inception_5a/3x3_reduce
I0501 14:36:10.903831 25244 net.cpp:367] inception_5a/relu_3x3_reduce -> inception_5a/3x3_reduce (in-place)
I0501 14:36:10.904410 25244 net.cpp:122] Setting up inception_5a/relu_3x3_reduce
I0501 14:36:10.904426 25244 net.cpp:129] Top shape: 32 160 7 7 (250880)
I0501 14:36:10.904436 25244 net.cpp:137] Memory required for data: 1728062984
I0501 14:36:10.904443 25244 layer_factory.hpp:77] Creating layer inception_5a/3x3
I0501 14:36:10.904464 25244 net.cpp:84] Creating Layer inception_5a/3x3
I0501 14:36:10.904474 25244 net.cpp:406] inception_5a/3x3 <- inception_5a/3x3_reduce
I0501 14:36:10.904489 25244 net.cpp:380] inception_5a/3x3 -> inception_5a/3x3
I0501 14:36:10.912084 25244 net.cpp:122] Setting up inception_5a/3x3
I0501 14:36:10.912112 25244 net.cpp:129] Top shape: 32 320 7 7 (501760)
I0501 14:36:10.912120 25244 net.cpp:137] Memory required for data: 1730070024
I0501 14:36:10.912137 25244 layer_factory.hpp:77] Creating layer inception_5a/relu_3x3
I0501 14:36:10.912150 25244 net.cpp:84] Creating Layer inception_5a/relu_3x3
I0501 14:36:10.912163 25244 net.cpp:406] inception_5a/relu_3x3 <- inception_5a/3x3
I0501 14:36:10.912179 25244 net.cpp:367] inception_5a/relu_3x3 -> inception_5a/3x3 (in-place)
I0501 14:36:10.912915 25244 net.cpp:122] Setting up inception_5a/relu_3x3
I0501 14:36:10.912932 25244 net.cpp:129] Top shape: 32 320 7 7 (501760)
I0501 14:36:10.912938 25244 net.cpp:137] Memory required for data: 1732077064
I0501 14:36:10.912946 25244 layer_factory.hpp:77] Creating layer inception_5a/5x5_reduce
I0501 14:36:10.912971 25244 net.cpp:84] Creating Layer inception_5a/5x5_reduce
I0501 14:36:10.912981 25244 net.cpp:406] inception_5a/5x5_reduce <- pool4/3x3_s2_pool4/3x3_s2_0_split_2
I0501 14:36:10.912994 25244 net.cpp:380] inception_5a/5x5_reduce -> inception_5a/5x5_reduce
I0501 14:36:10.917557 25244 net.cpp:122] Setting up inception_5a/5x5_reduce
I0501 14:36:10.917584 25244 net.cpp:129] Top shape: 32 32 7 7 (50176)
I0501 14:36:10.917593 25244 net.cpp:137] Memory required for data: 1732277768
I0501 14:36:10.917613 25244 layer_factory.hpp:77] Creating layer inception_5a/relu_5x5_reduce
I0501 14:36:10.917625 25244 net.cpp:84] Creating Layer inception_5a/relu_5x5_reduce
I0501 14:36:10.917635 25244 net.cpp:406] inception_5a/relu_5x5_reduce <- inception_5a/5x5_reduce
I0501 14:36:10.917649 25244 net.cpp:367] inception_5a/relu_5x5_reduce -> inception_5a/5x5_reduce (in-place)
I0501 14:36:10.918365 25244 net.cpp:122] Setting up inception_5a/relu_5x5_reduce
I0501 14:36:10.918380 25244 net.cpp:129] Top shape: 32 32 7 7 (50176)
I0501 14:36:10.918386 25244 net.cpp:137] Memory required for data: 1732478472
I0501 14:36:10.918392 25244 layer_factory.hpp:77] Creating layer inception_5a/5x5
I0501 14:36:10.918408 25244 net.cpp:84] Creating Layer inception_5a/5x5
I0501 14:36:10.918418 25244 net.cpp:406] inception_5a/5x5 <- inception_5a/5x5_reduce
I0501 14:36:10.918432 25244 net.cpp:380] inception_5a/5x5 -> inception_5a/5x5
I0501 14:36:10.921408 25244 net.cpp:122] Setting up inception_5a/5x5
I0501 14:36:10.921425 25244 net.cpp:129] Top shape: 32 128 7 7 (200704)
I0501 14:36:10.921433 25244 net.cpp:137] Memory required for data: 1733281288
I0501 14:36:10.921444 25244 layer_factory.hpp:77] Creating layer inception_5a/relu_5x5
I0501 14:36:10.921455 25244 net.cpp:84] Creating Layer inception_5a/relu_5x5
I0501 14:36:10.921463 25244 net.cpp:406] inception_5a/relu_5x5 <- inception_5a/5x5
I0501 14:36:10.921476 25244 net.cpp:367] inception_5a/relu_5x5 -> inception_5a/5x5 (in-place)
I0501 14:36:10.922297 25244 net.cpp:122] Setting up inception_5a/relu_5x5
I0501 14:36:10.922333 25244 net.cpp:129] Top shape: 32 128 7 7 (200704)
I0501 14:36:10.922341 25244 net.cpp:137] Memory required for data: 1734084104
I0501 14:36:10.922346 25244 layer_factory.hpp:77] Creating layer inception_5a/pool
I0501 14:36:10.922358 25244 net.cpp:84] Creating Layer inception_5a/pool
I0501 14:36:10.922365 25244 net.cpp:406] inception_5a/pool <- pool4/3x3_s2_pool4/3x3_s2_0_split_3
I0501 14:36:10.922375 25244 net.cpp:380] inception_5a/pool -> inception_5a/pool
I0501 14:36:10.922430 25244 net.cpp:122] Setting up inception_5a/pool
I0501 14:36:10.922441 25244 net.cpp:129] Top shape: 32 832 7 7 (1304576)
I0501 14:36:10.922448 25244 net.cpp:137] Memory required for data: 1739302408
I0501 14:36:10.922454 25244 layer_factory.hpp:77] Creating layer inception_5a/pool_proj
I0501 14:36:10.922468 25244 net.cpp:84] Creating Layer inception_5a/pool_proj
I0501 14:36:10.922477 25244 net.cpp:406] inception_5a/pool_proj <- inception_5a/pool
I0501 14:36:10.922530 25244 net.cpp:380] inception_5a/pool_proj -> inception_5a/pool_proj
I0501 14:36:10.928061 25244 net.cpp:122] Setting up inception_5a/pool_proj
I0501 14:36:10.928081 25244 net.cpp:129] Top shape: 32 128 7 7 (200704)
I0501 14:36:10.928089 25244 net.cpp:137] Memory required for data: 1740105224
I0501 14:36:10.928100 25244 layer_factory.hpp:77] Creating layer inception_5a/relu_pool_proj
I0501 14:36:10.928112 25244 net.cpp:84] Creating Layer inception_5a/relu_pool_proj
I0501 14:36:10.928120 25244 net.cpp:406] inception_5a/relu_pool_proj <- inception_5a/pool_proj
I0501 14:36:10.928133 25244 net.cpp:367] inception_5a/relu_pool_proj -> inception_5a/pool_proj (in-place)
I0501 14:36:10.928859 25244 net.cpp:122] Setting up inception_5a/relu_pool_proj
I0501 14:36:10.928872 25244 net.cpp:129] Top shape: 32 128 7 7 (200704)
I0501 14:36:10.928879 25244 net.cpp:137] Memory required for data: 1740908040
I0501 14:36:10.928886 25244 layer_factory.hpp:77] Creating layer inception_5a/output
I0501 14:36:10.928900 25244 net.cpp:84] Creating Layer inception_5a/output
I0501 14:36:10.928905 25244 net.cpp:406] inception_5a/output <- inception_5a/1x1
I0501 14:36:10.928915 25244 net.cpp:406] inception_5a/output <- inception_5a/3x3
I0501 14:36:10.928921 25244 net.cpp:406] inception_5a/output <- inception_5a/5x5
I0501 14:36:10.928928 25244 net.cpp:406] inception_5a/output <- inception_5a/pool_proj
I0501 14:36:10.928941 25244 net.cpp:380] inception_5a/output -> inception_5a/output
I0501 14:36:10.928978 25244 net.cpp:122] Setting up inception_5a/output
I0501 14:36:10.928992 25244 net.cpp:129] Top shape: 32 832 7 7 (1304576)
I0501 14:36:10.928997 25244 net.cpp:137] Memory required for data: 1746126344
I0501 14:36:10.929003 25244 layer_factory.hpp:77] Creating layer inception_5a/output_inception_5a/output_0_split
I0501 14:36:10.929014 25244 net.cpp:84] Creating Layer inception_5a/output_inception_5a/output_0_split
I0501 14:36:10.929023 25244 net.cpp:406] inception_5a/output_inception_5a/output_0_split <- inception_5a/output
I0501 14:36:10.929036 25244 net.cpp:380] inception_5a/output_inception_5a/output_0_split -> inception_5a/output_inception_5a/output_0_split_0
I0501 14:36:10.929050 25244 net.cpp:380] inception_5a/output_inception_5a/output_0_split -> inception_5a/output_inception_5a/output_0_split_1
I0501 14:36:10.929059 25244 net.cpp:380] inception_5a/output_inception_5a/output_0_split -> inception_5a/output_inception_5a/output_0_split_2
I0501 14:36:10.929069 25244 net.cpp:380] inception_5a/output_inception_5a/output_0_split -> inception_5a/output_inception_5a/output_0_split_3
I0501 14:36:10.929138 25244 net.cpp:122] Setting up inception_5a/output_inception_5a/output_0_split
I0501 14:36:10.929147 25244 net.cpp:129] Top shape: 32 832 7 7 (1304576)
I0501 14:36:10.929155 25244 net.cpp:129] Top shape: 32 832 7 7 (1304576)
I0501 14:36:10.929162 25244 net.cpp:129] Top shape: 32 832 7 7 (1304576)
I0501 14:36:10.929172 25244 net.cpp:129] Top shape: 32 832 7 7 (1304576)
I0501 14:36:10.929178 25244 net.cpp:137] Memory required for data: 1766999560
I0501 14:36:10.929188 25244 layer_factory.hpp:77] Creating layer inception_5b/1x1
I0501 14:36:10.929231 25244 net.cpp:84] Creating Layer inception_5b/1x1
I0501 14:36:10.929239 25244 net.cpp:406] inception_5b/1x1 <- inception_5a/output_inception_5a/output_0_split_0
I0501 14:36:10.929251 25244 net.cpp:380] inception_5b/1x1 -> inception_5b/1x1
I0501 14:36:10.953274 25244 net.cpp:122] Setting up inception_5b/1x1
I0501 14:36:10.953305 25244 net.cpp:129] Top shape: 32 384 7 7 (602112)
I0501 14:36:10.953312 25244 net.cpp:137] Memory required for data: 1769408008
I0501 14:36:10.953327 25244 layer_factory.hpp:77] Creating layer inception_5b/relu_1x1
I0501 14:36:10.953342 25244 net.cpp:84] Creating Layer inception_5b/relu_1x1
I0501 14:36:10.953351 25244 net.cpp:406] inception_5b/relu_1x1 <- inception_5b/1x1
I0501 14:36:10.953363 25244 net.cpp:367] inception_5b/relu_1x1 -> inception_5b/1x1 (in-place)
I0501 14:36:10.953876 25244 net.cpp:122] Setting up inception_5b/relu_1x1
I0501 14:36:10.953888 25244 net.cpp:129] Top shape: 32 384 7 7 (602112)
I0501 14:36:10.953900 25244 net.cpp:137] Memory required for data: 1771816456
I0501 14:36:10.953910 25244 layer_factory.hpp:77] Creating layer inception_5b/3x3_reduce
I0501 14:36:10.953933 25244 net.cpp:84] Creating Layer inception_5b/3x3_reduce
I0501 14:36:10.953945 25244 net.cpp:406] inception_5b/3x3_reduce <- inception_5a/output_inception_5a/output_0_split_1
I0501 14:36:10.953963 25244 net.cpp:380] inception_5b/3x3_reduce -> inception_5b/3x3_reduce
I0501 14:36:10.957660 25244 net.cpp:122] Setting up inception_5b/3x3_reduce
I0501 14:36:10.957681 25244 net.cpp:129] Top shape: 32 192 7 7 (301056)
I0501 14:36:10.957690 25244 net.cpp:137] Memory required for data: 1773020680
I0501 14:36:10.957710 25244 layer_factory.hpp:77] Creating layer inception_5b/relu_3x3_reduce
I0501 14:36:10.957727 25244 net.cpp:84] Creating Layer inception_5b/relu_3x3_reduce
I0501 14:36:10.957737 25244 net.cpp:406] inception_5b/relu_3x3_reduce <- inception_5b/3x3_reduce
I0501 14:36:10.957746 25244 net.cpp:367] inception_5b/relu_3x3_reduce -> inception_5b/3x3_reduce (in-place)
I0501 14:36:10.958247 25244 net.cpp:122] Setting up inception_5b/relu_3x3_reduce
I0501 14:36:10.958262 25244 net.cpp:129] Top shape: 32 192 7 7 (301056)
I0501 14:36:10.958271 25244 net.cpp:137] Memory required for data: 1774224904
I0501 14:36:10.958279 25244 layer_factory.hpp:77] Creating layer inception_5b/3x3
I0501 14:36:10.958295 25244 net.cpp:84] Creating Layer inception_5b/3x3
I0501 14:36:10.958304 25244 net.cpp:406] inception_5b/3x3 <- inception_5b/3x3_reduce
I0501 14:36:10.958317 25244 net.cpp:380] inception_5b/3x3 -> inception_5b/3x3
I0501 14:36:10.969343 25244 net.cpp:122] Setting up inception_5b/3x3
I0501 14:36:10.969374 25244 net.cpp:129] Top shape: 32 384 7 7 (602112)
I0501 14:36:10.969384 25244 net.cpp:137] Memory required for data: 1776633352
I0501 14:36:10.969400 25244 layer_factory.hpp:77] Creating layer inception_5b/relu_3x3
I0501 14:36:10.969415 25244 net.cpp:84] Creating Layer inception_5b/relu_3x3
I0501 14:36:10.969426 25244 net.cpp:406] inception_5b/relu_3x3 <- inception_5b/3x3
I0501 14:36:10.969444 25244 net.cpp:367] inception_5b/relu_3x3 -> inception_5b/3x3 (in-place)
I0501 14:36:10.970166 25244 net.cpp:122] Setting up inception_5b/relu_3x3
I0501 14:36:10.970188 25244 net.cpp:129] Top shape: 32 384 7 7 (602112)
I0501 14:36:10.970201 25244 net.cpp:137] Memory required for data: 1779041800
I0501 14:36:10.970211 25244 layer_factory.hpp:77] Creating layer inception_5b/5x5_reduce
I0501 14:36:10.970228 25244 net.cpp:84] Creating Layer inception_5b/5x5_reduce
I0501 14:36:10.970239 25244 net.cpp:406] inception_5b/5x5_reduce <- inception_5a/output_inception_5a/output_0_split_2
I0501 14:36:10.970252 25244 net.cpp:380] inception_5b/5x5_reduce -> inception_5b/5x5_reduce
I0501 14:36:10.972815 25244 net.cpp:122] Setting up inception_5b/5x5_reduce
I0501 14:36:10.972832 25244 net.cpp:129] Top shape: 32 48 7 7 (75264)
I0501 14:36:10.972839 25244 net.cpp:137] Memory required for data: 1779342856
I0501 14:36:10.972853 25244 layer_factory.hpp:77] Creating layer inception_5b/relu_5x5_reduce
I0501 14:36:10.972869 25244 net.cpp:84] Creating Layer inception_5b/relu_5x5_reduce
I0501 14:36:10.972904 25244 net.cpp:406] inception_5b/relu_5x5_reduce <- inception_5b/5x5_reduce
I0501 14:36:10.972916 25244 net.cpp:367] inception_5b/relu_5x5_reduce -> inception_5b/5x5_reduce (in-place)
I0501 14:36:10.973646 25244 net.cpp:122] Setting up inception_5b/relu_5x5_reduce
I0501 14:36:10.973664 25244 net.cpp:129] Top shape: 32 48 7 7 (75264)
I0501 14:36:10.973680 25244 net.cpp:137] Memory required for data: 1779643912
I0501 14:36:10.973687 25244 layer_factory.hpp:77] Creating layer inception_5b/5x5
I0501 14:36:10.973706 25244 net.cpp:84] Creating Layer inception_5b/5x5
I0501 14:36:10.973717 25244 net.cpp:406] inception_5b/5x5 <- inception_5b/5x5_reduce
I0501 14:36:10.973731 25244 net.cpp:380] inception_5b/5x5 -> inception_5b/5x5
I0501 14:36:10.991053 25244 net.cpp:122] Setting up inception_5b/5x5
I0501 14:36:10.991080 25244 net.cpp:129] Top shape: 32 128 7 7 (200704)
I0501 14:36:10.991086 25244 net.cpp:137] Memory required for data: 1780446728
I0501 14:36:10.991101 25244 layer_factory.hpp:77] Creating layer inception_5b/relu_5x5
I0501 14:36:10.991116 25244 net.cpp:84] Creating Layer inception_5b/relu_5x5
I0501 14:36:10.991123 25244 net.cpp:406] inception_5b/relu_5x5 <- inception_5b/5x5
I0501 14:36:10.991135 25244 net.cpp:367] inception_5b/relu_5x5 -> inception_5b/5x5 (in-place)
I0501 14:36:10.992033 25244 net.cpp:122] Setting up inception_5b/relu_5x5
I0501 14:36:10.992049 25244 net.cpp:129] Top shape: 32 128 7 7 (200704)
I0501 14:36:10.992058 25244 net.cpp:137] Memory required for data: 1781249544
I0501 14:36:10.992064 25244 layer_factory.hpp:77] Creating layer inception_5b/pool
I0501 14:36:10.992075 25244 net.cpp:84] Creating Layer inception_5b/pool
I0501 14:36:10.992084 25244 net.cpp:406] inception_5b/pool <- inception_5a/output_inception_5a/output_0_split_3
I0501 14:36:10.992095 25244 net.cpp:380] inception_5b/pool -> inception_5b/pool
I0501 14:36:10.992153 25244 net.cpp:122] Setting up inception_5b/pool
I0501 14:36:10.992162 25244 net.cpp:129] Top shape: 32 832 7 7 (1304576)
I0501 14:36:10.992168 25244 net.cpp:137] Memory required for data: 1786467848
I0501 14:36:10.992175 25244 layer_factory.hpp:77] Creating layer inception_5b/pool_proj
I0501 14:36:10.992192 25244 net.cpp:84] Creating Layer inception_5b/pool_proj
I0501 14:36:10.992202 25244 net.cpp:406] inception_5b/pool_proj <- inception_5b/pool
I0501 14:36:10.992213 25244 net.cpp:380] inception_5b/pool_proj -> inception_5b/pool_proj
I0501 14:36:10.998266 25244 net.cpp:122] Setting up inception_5b/pool_proj
I0501 14:36:10.998291 25244 net.cpp:129] Top shape: 32 128 7 7 (200704)
I0501 14:36:10.998301 25244 net.cpp:137] Memory required for data: 1787270664
I0501 14:36:10.998313 25244 layer_factory.hpp:77] Creating layer inception_5b/relu_pool_proj
I0501 14:36:10.998327 25244 net.cpp:84] Creating Layer inception_5b/relu_pool_proj
I0501 14:36:10.998335 25244 net.cpp:406] inception_5b/relu_pool_proj <- inception_5b/pool_proj
I0501 14:36:10.998350 25244 net.cpp:367] inception_5b/relu_pool_proj -> inception_5b/pool_proj (in-place)
I0501 14:36:10.999114 25244 net.cpp:122] Setting up inception_5b/relu_pool_proj
I0501 14:36:10.999128 25244 net.cpp:129] Top shape: 32 128 7 7 (200704)
I0501 14:36:10.999136 25244 net.cpp:137] Memory required for data: 1788073480
I0501 14:36:10.999142 25244 layer_factory.hpp:77] Creating layer inception_5b/output
I0501 14:36:10.999152 25244 net.cpp:84] Creating Layer inception_5b/output
I0501 14:36:10.999159 25244 net.cpp:406] inception_5b/output <- inception_5b/1x1
I0501 14:36:10.999169 25244 net.cpp:406] inception_5b/output <- inception_5b/3x3
I0501 14:36:10.999178 25244 net.cpp:406] inception_5b/output <- inception_5b/5x5
I0501 14:36:10.999186 25244 net.cpp:406] inception_5b/output <- inception_5b/pool_proj
I0501 14:36:10.999195 25244 net.cpp:380] inception_5b/output -> inception_5b/output
I0501 14:36:10.999235 25244 net.cpp:122] Setting up inception_5b/output
I0501 14:36:10.999244 25244 net.cpp:129] Top shape: 32 1024 7 7 (1605632)
I0501 14:36:10.999249 25244 net.cpp:137] Memory required for data: 1794496008
I0501 14:36:10.999280 25244 layer_factory.hpp:77] Creating layer pool5/7x7_s1
I0501 14:36:10.999289 25244 net.cpp:84] Creating Layer pool5/7x7_s1
I0501 14:36:10.999296 25244 net.cpp:406] pool5/7x7_s1 <- inception_5b/output
I0501 14:36:10.999310 25244 net.cpp:380] pool5/7x7_s1 -> pool5/7x7_s1
I0501 14:36:11.000020 25244 net.cpp:122] Setting up pool5/7x7_s1
I0501 14:36:11.000033 25244 net.cpp:129] Top shape: 32 1024 1 1 (32768)
I0501 14:36:11.000038 25244 net.cpp:137] Memory required for data: 1794627080
I0501 14:36:11.000044 25244 layer_factory.hpp:77] Creating layer pool5/drop_7x7_s1
I0501 14:36:11.000057 25244 net.cpp:84] Creating Layer pool5/drop_7x7_s1
I0501 14:36:11.000066 25244 net.cpp:406] pool5/drop_7x7_s1 <- pool5/7x7_s1
I0501 14:36:11.000073 25244 net.cpp:367] pool5/drop_7x7_s1 -> pool5/7x7_s1 (in-place)
I0501 14:36:11.000105 25244 net.cpp:122] Setting up pool5/drop_7x7_s1
I0501 14:36:11.000113 25244 net.cpp:129] Top shape: 32 1024 1 1 (32768)
I0501 14:36:11.000120 25244 net.cpp:137] Memory required for data: 1794758152
I0501 14:36:11.000126 25244 layer_factory.hpp:77] Creating layer loss3/classifier
I0501 14:36:11.000138 25244 net.cpp:84] Creating Layer loss3/classifier
I0501 14:36:11.000144 25244 net.cpp:406] loss3/classifier <- pool5/7x7_s1
I0501 14:36:11.000154 25244 net.cpp:380] loss3/classifier -> loss3/classifier
I0501 14:36:11.001951 25244 net.cpp:122] Setting up loss3/classifier
I0501 14:36:11.001963 25244 net.cpp:129] Top shape: 32 196 (6272)
I0501 14:36:11.001968 25244 net.cpp:137] Memory required for data: 1794783240
I0501 14:36:11.001978 25244 layer_factory.hpp:77] Creating layer loss3/loss
I0501 14:36:11.001987 25244 net.cpp:84] Creating Layer loss3/loss
I0501 14:36:11.001992 25244 net.cpp:406] loss3/loss <- loss3/classifier
I0501 14:36:11.001999 25244 net.cpp:406] loss3/loss <- label_train-data_1_split_2
I0501 14:36:11.002007 25244 net.cpp:380] loss3/loss -> loss
…
I0501 14:36:11.006842 25244 net.cpp:294] The NetState phase (1) differed from the phase (0) specified by a rule in layer train-data
I0501 14:36:11.008344 25244 net.cpp:51] Initializing net from parameters:
state {
phase: TEST
}
layer {
name: "val-data"
type: "Data"
top: "data"
top: "label"
include {
phase: TEST
}
transform_param {
mirror: false
crop_size: 224
mean_file: "/mnt/bigdisk/MANDIG2/digits/jobs/20200428-132136-11fe/mean.binaryproto"
}
data_param {
source: "/mnt/bigdisk/MANDIG2/digits/jobs/20200428-132136-11fe/val_db"
batch_size: 16
backend: LMDB
}
}
layer {
name: "conv1/7x7_s2"
type: "Convolution"
bottom: "data"
top: "conv1/7x7_s2"
param {
lr_mult: 1
decay_mult: 1
}
param {
lr_mult: 2
decay_mult: 0
}
convolution_param {
num_output: 64
pad: 3
kernel_size: 7
stride: 2
weight_filler {
type: "xavier"
std: 0.1
}
bias_filler {
type: "constant"
value: 0.2
}
}
}
layer {
name: "conv1/relu_7x7"
type: "ReLU"
bottom: "conv1/7x7_s2"
top: "conv1/7x7_s2"
}
layer {
name: "pool1/3x3_s2"
type: "Pooling"
bottom: "conv1/7x7_s2"
top: "pool1/3x3_s2"
pooling_param {
pool: MAX
kernel_size: 3
stride: 2
}
}
layer {
name: "pool1/norm1"
type: "LRN"
bottom: "pool1/3x3_s2"
top: "pool1/norm1"
lrn_param {
local_size: 5
alpha: 0.0001
beta: 0.75
}
}
layer {
name: "conv2/3x3_reduce"
type: "Convolution"
bottom: "pool1/norm1"
top: "conv2/3x3_reduce"
param {
lr_mult: 1
decay_mult: 1
}
param {
lr_mult: 2
decay_mult: 0
}
convolution_param {
num_output: 64
kernel_size: 1
weight_filler {
type: "xavier"
std: 0.1
}
bias_filler {
type: "constant"
value: 0.2
}
}
}
layer {
name: "conv2/relu_3x3_reduce"
type: "ReLU"
bottom: "conv2/3x3_reduce"
top: "conv2/3x3_reduce"
}
layer {
name: "conv2/3x3"
type: "Convolution"
bottom: "conv2/3x3_reduce"
top: "conv2/3x3"
param {
lr_mult: 1
decay_mult: 1
}
param {
lr_mult: 2
decay_mult: 0
}
convolution_param {
num_output: 192
pad: 1
kernel_size: 3
weight_filler {
type: "xavier"
std: 0.03
}
bias_filler {
type: "constant"
value: 0.2
}
}
}
layer {
name: "conv2/relu_3x3"
type: "ReLU"
bottom: "conv2/3x3"
top: "conv2/3x3"
}
layer {
name: "conv2/norm2"
type: "LRN"
bottom: "conv2/3x3"
top: "conv2/norm2"
lrn_param {
local_size: 5
alpha: 0.0001
beta: 0.75
}
}
layer {
name: "pool2/3x3_s2"
type: "Pooling"
bottom: "conv2/norm2"
top: "pool2/3x3_s2"
pooling_param {
pool: MAX
kernel_size: 3
stride: 2
}
}
layer {
name: "inception_3a/1x1"
type: "Convolution"
bottom: "pool2/3x3_s2"
top: "inception_3a/1x1"
param {
lr_mult: 1
decay_mult: 1
}
param {
lr_mult: 2
decay_mult: 0
}
convolution_param {
num_output: 64
kernel_size: 1
weight_filler {
type: "xavier"
std: 0.03
}
bias_filler {
type: "constant"
value: 0.2
}
}
}
layer {
name: "inception_3a/relu_1x1"
type: "ReLU"
bottom: "inception_3a/1x1"
top: "inception_3a/1x1"
}
layer {
name: "inception_3a/3x3_reduce"
type: "Convolution"
bottom: "pool2/3x3_s2"
top: "inception_3a/3x3_reduce"
param {
lr_mult: 1
decay_mult: 1
}
param {
lr_mult: 2
decay_mult: 0
}
convolution_param {
num_output: 96
kernel_size: 1
weight_filler {
type: "xavier"
std: 0.09
}
bias_filler {
type: "constant"
value: 0.2
}
}
}
layer {
name: "inception_3a/relu_3x3_reduce"
type: "ReLU"
bottom: "inception_3a/3x3_reduce"
top: "inception_3a/3x3_reduce"
}
layer {
name: "inception_3a/3x3"
type: "Convolution"
bottom: "inception_3a/3x3_reduce"
top: "inception_3a/3x3"
param {
lr_mult: 1
decay_mult: 1
}
param {
lr_mult: 2
decay_mult: 0
}
convolution_param {
num_output: 128
pad: 1
kernel_size: 3
weight_filler {
type: "xavier"
std: 0.03
}
bias_filler {
type: "constant"
value: 0.2
}
}
}
layer {
name: "inception_3a/relu_3x3"
type: "ReLU"
bottom: "inception_3a/3x3"
top: "inception_3a/3x3"
}
layer {
name: "inception_3a/5x5_reduce"
type: "Convolution"
bottom: "pool2/3x3_s2"
top: "inception_3a/5x5_reduce"
param {
lr_mult: 1
decay_mult: 1
}
param {
lr_mult: 2
decay_mult: 0
}
convolution_param {
num_output: 16
kernel_size: 1
weight_filler {
type: "xavier"
std: 0.2
}
bias_filler {
type: "constant"
value: 0.2
}
}
}
layer {
name: "inception_3a/relu_5x5_reduce"
type: "ReLU"
bottom: "inception_3a/5x5_reduce"
top: "inception_3a/5x5_reduce"
}
layer {
name: "inception_3a/5x5"
type: "Convolution"
bottom: "inception_3a/5x5_reduce"
top: "inception_3a/5x5"
param {
lr_mult: 1
decay_mult: 1
}
param {
lr_mult: 2
decay_mult: 0
}
convolution_param {
num_output: 32
pad: 2
kernel_size: 5
weight_filler {
type: "xavier"
std: 0.03
}
bias_filler {
type: "constant"
value: 0.2
}
}
}
layer {
name: "inception_3a/relu_5x5"
type: "ReLU"
bottom: "inception_3a/5x5"
top: "inception_3a/5x5"
}
layer {
name: "inception_3a/pool"
type: "Pooling"
bottom: "pool2/3x3_s2"
top: "inception_3a/pool"
pooling_param {
pool: MAX
kernel_size: 3
stride: 1
pad: 1
}
}
layer {
name: "inception_3a/pool_proj"
type: "Convolution"
bottom: "inception_3a/pool"
top: "inception_3a/pool_proj"
param {
lr_mult: 1
decay_mult: 1
}
param {
lr_mult: 2
decay_mult: 0
}
convolution_param {
num_output: 32
kernel_size: 1
weight_filler {
type: "xavier"
std: 0.1
}
bias_filler {
type: "constant"
value: 0.2
}
}
}
layer {
name: "inception_3a/relu_pool_proj"
type: "ReLU"
bottom: "inception_3a/pool_proj"
top: "inception_3a/pool_proj"
}
layer {
name: "inception_3a/output"
type: "Concat"
bottom: "inception_3a/1x1"
bottom: "inception_3a/3x3"
bottom: "inception_3a/5x5"
bottom: "inception_3a/pool_proj"
top: "inception_3a/output"
}
layer {
name: "inception_3b/1x1"
type: "Convolution"
bottom: "inception_3a/output"
top: "inception_3b/1x1"
param {
lr_mult: 1
decay_mult: 1
}
param {
lr_mult: 2
decay_mult: 0
}
convolution_param {
num_output: 128
kernel_size: 1
weight_filler {
type: "xavier"
std: 0.03
}
bias_filler {
type: "constant"
value: 0.2
}
}
}
layer {
name: "inception_3b/relu_1x1"
type: "ReLU"
bottom: "inception_3b/1x1"
top: "inception_3b/1x1"
}
layer {
name: "inception_3b/3x3_reduce"
type: "Convolution"
bottom: "inception_3a/output"
top: "inception_3b/3x3_reduce"
param {
lr_mult: 1
decay_mult: 1
}
param {
lr_mult: 2
decay_mult: 0
}
convolution_param {
num_output: 128
kernel_size: 1
weight_filler {
type: "xavier"
std: 0.09
}
bias_filler {
type: "constant"
value: 0.2
}
}
}
layer {
name: "inception_3b/relu_3x3_reduce"
type: "ReLU"
bottom: "inception_3b/3x3_reduce"
top: "inception_3b/3x3_reduce"
}
layer {
name: "inception_3b/3x3"
type: "Convolution"
bottom: "inception_3b/3x3_reduce"
top: "inception_3b/3x3"
param {
lr_mult: 1
decay_mult: 1
}
param {
lr_mult: 2
decay_mult: 0
}
convolution_param {
num_output: 192
pad: 1
kernel_size: 3
weight_filler {
type: "xavier"
std: 0.03
}
bias_filler {
type: "constant"
value: 0.2
}
}
}
layer {
name: "inception_3b/relu_3x3"
type: "ReLU"
bottom: "inception_3b/3x3"
top: "inception_3b/3x3"
}
layer {
name: "inception_3b/5x5_reduce"
type: "Convolution"
bottom: "inception_3a/output"
top: "inception_3b/5x5_reduce"
param {
lr_mult: 1
decay_mult: 1
}
param {
lr_mult: 2
decay_mult: 0
}
convolution_param {
num_output: 32
kernel_size: 1
weight_filler {
type: "xavier"
std: 0.2
}
bias_filler {
type: "constant"
value: 0.2
}
}
}
layer {
name: "inception_3b/relu_5x5_reduce"
type: "ReLU"
bottom: "inception_3b/5x5_reduce"
top: "inception_3b/5x5_reduce"
}
layer {
name: "inception_3b/5x5"
type: "Convolution"
bottom: "inception_3b/5x5_reduce"
top: "inception_3b/5x5"
param {
lr_mult: 1
decay_mult: 1
}
param {
lr_mult: 2
decay_mult: 0
}
convolution_param {
num_output: 96
pad: 2
kernel_size: 5
weight_filler {
type: "xavier"
std: 0.03
}
bias_filler {
type: "constant"
value: 0.2
}
}
}
layer {
name: "inception_3b/relu_5x5"
type: "ReLU"
bottom: "inception_3b/5x5"
top: "inception_3b/5x5"
}
layer {
name: "inception_3b/pool"
type: "Pooling"
bottom: "inception_3a/output"
top: "inception_3b/pool"
pooling_param {
pool: MAX
kernel_size: 3
stride: 1
pad: 1
}
}
layer {
name: "inception_3b/pool_proj"
type: "Convolution"
bottom: "inception_3b/pool"
top: "inception_3b/pool_proj"
param {
lr_mult: 1
decay_mult: 1
}
param {
lr_mult: 2
decay_mult: 0
}
convolution_param {
num_output: 64
kernel_size: 1
weight_filler {
type: "xavier"
std: 0.1
}
bias_filler {
type: "constant"
value: 0.2
}
}
}
layer {
name: "inception_3b/relu_pool_proj"
type: "ReLU"
bottom: "inception_3b/pool_proj"
top: "inception_3b/pool_proj"
}
layer {
name: "inception_3b/output"
type: "Concat"
bottom: "inception_3b/1x1"
bottom: "inception_3b/3x3"
bottom: "inception_3b/5x5"
bottom: "inception_3b/pool_proj"
top: "inception_3b/output"
}
layer {
name: "pool3/3x3_s2"
type: "Pooling"
bottom: "inception_3b/output"
top: "pool3/3x3_s2"
pooling_param {
pool: MAX
kernel_size: 3
stride: 2
}
}
layer {
name: "inception_4a/1x1"
type: "Convolution"
bottom: "pool3/3x3_s2"
top: "inception_4a/1x1"
param {
lr_mult: 1
decay_mult: 1
}
param {
lr_mult: 2
decay_mult: 0
}
convolution_param {
num_output: 192
kernel_size: 1
weight_filler {
type: "xavier"
std: 0.03
}
bias_filler {
type: "constant"
value: 0.2
}
}
}
layer {
name: "inception_4a/relu_1x1"
type: "ReLU"
bottom: "inception_4a/1x1"
top: "inception_4a/1x1"
}
layer {
name: "inception_4a/3x3_reduce"
type: "Convolution"
bottom: "pool3/3x3_s2"
top: "inception_4a/3x3_reduce"
param {
lr_mult: 1
decay_mult: 1
}
param {
lr_mult: 2
decay_mult: 0
}
convolution_param {
num_output: 96
kernel_size: 1
weight_filler {
type: "xavier"
std: 0.09
}
bias_filler {
type: "constant"
value: 0.2
}
}
}
layer {
name: "inception_4a/relu_3x3_reduce"
type: "ReLU"
bottom: "inception_4a/3x3_reduce"
top: "inception_4a/3x3_reduce"
}
layer {
name: "inception_4a/3x3"
type: "Convolution"
bottom: "inception_4a/3x3_reduce"
top: "inception_4a/3x3"
param {
lr_mult: 1
decay_mult: 1
}
param {
lr_mult: 2
decay_mult: 0
}
convolution_param {
num_output: 208
pad: 1
kernel_size: 3
weight_filler {
type: "xavier"
std: 0.03
}
bias_filler {
type: "constant"
value: 0.2
}
}
}
layer {
name: "inception_4a/relu_3x3"
type: "ReLU"
bottom: "inception_4a/3x3"
top: "inception_4a/3x3"
}
layer {
name: "inception_4a/5x5_reduce"
type: "Convolution"
bottom: "pool3/3x3_s2"
top: "inception_4a/5x5_reduce"
param {
lr_mult: 1
decay_mult: 1
}
param {
lr_mult: 2
decay_mult: 0
}
convolution_param {
num_output: 16
kernel_size: 1
weight_filler {
type: "xavier"
std: 0.2
}
bias_filler {
type: "constant"
value: 0.2
}
}
}
layer {
name: "inception_4a/relu_5x5_reduce"
type: "ReLU"
bottom: "inception_4a/5x5_reduce"
top: "inception_4a/5x5_reduce"
}
layer {
name: "inception_4a/5x5"
type: "Convolution"
bottom: "inception_4a/5x5_reduce"
top: "inception_4a/5x5"
param {
lr_mult: 1
decay_mult: 1
}
param {
lr_mult: 2
decay_mult: 0
}
convolution_param {
num_output: 48
pad: 2
kernel_size: 5
weight_filler {
type: "xavier"
std: 0.03
}
bias_filler {
type: "constant"
value: 0.2
}
}
}
layer {
name: "inception_4a/relu_5x5"
type: "ReLU"
bottom: "inception_4a/5x5"
top: "inception_4a/5x5"
}
layer {
name: "inception_4a/pool"
type: "Pooling"
bottom: "pool3/3x3_s2"
top: "inception_4a/pool"
pooling_param {
pool: MAX
kernel_size: 3
stride: 1
pad: 1
}
}
layer {
name: "inception_4a/pool_proj"
type: "Convolution"
bottom: "inception_4a/pool"
top: "inception_4a/pool_proj"
param {
lr_mult: 1
decay_mult: 1
}
param {
lr_mult: 2
decay_mult: 0
}
convolution_param {
num_output: 64
kernel_size: 1
weight_filler {
type: "xavier"
std: 0.1
}
bias_filler {
type: "constant"
value: 0.2
}
}
}
layer {
name: "inception_4a/relu_pool_proj"
type: "ReLU"
bottom: "inception_4a/pool_proj"
top: "inception_4a/pool_proj"
}
layer {
name: "inception_4a/output"
type: "Concat"
bottom: "inception_4a/1x1"
bottom: "inception_4a/3x3"
bottom: "inception_4a/5x5"
bottom: "inception_4a/pool_proj"
top: "inception_4a/output"
}
layer {
name: "loss1/ave_pool"
type: "Pooling"
bottom: "inception_4a/output"
top: "loss1/ave_pool"
pooling_param {
pool: AVE
kernel_size: 5
stride: 3
}
}
layer {
name: "loss1/conv"
type: "Convolution"
bottom: "loss1/ave_pool"
top: "loss1/conv"
param {
lr_mult: 1
decay_mult: 1
}
param {
lr_mult: 2
decay_mult: 0
}
convolution_param {
num_output: 128
kernel_size: 1
weight_filler {
type: "xavier"
std: 0.08
}
bias_filler {
type: "constant"
value: 0.2
}
}
}
layer {
name: "loss1/relu_conv"
type: "ReLU"
bottom: "loss1/conv"
top: "loss1/conv"
}
layer {
name: "loss1/fc"
type: "InnerProduct"
bottom: "loss1/conv"
top: "loss1/fc"
param {
lr_mult: 1
decay_mult: 1
}
param {
lr_mult: 2
decay_mult: 0
}
inner_product_param {
num_output: 1024
weight_filler {
type: "xavier"
std: 0.02
}
bias_filler {
type: "constant"
value: 0.2
}
}
}
layer {
name: "loss1/relu_fc"
type: "ReLU"
bottom: "loss1/fc"
top: "loss1/fc"
}
layer {
name: "loss1/drop_fc"
type: "Dropout"
bottom: "loss1/fc"
top: "loss1/fc"
dropout_param {
dropout_ratio: 0.7
}
}
layer {
name: "loss1/classifier"
type: "InnerProduct"
bottom: "loss1/fc"
top: "loss1/classifier"
param {
lr_mult: 1
decay_mult: 1
}
param {
lr_mult: 2
decay_mult: 0
}
inner_product_param {
num_output: 196
weight_filler {
type: "xavier"
std: 0.0009765625
}
bias_filler {
type: "constant"
value: 0
}
}
}
layer {
name: "loss1/loss"
type: "SoftmaxWithLoss"
bottom: "loss1/classifier"
bottom: "label"
top: "loss1/loss"
loss_weight: 0.3
}
layer {
name: "loss1/top-1"
type: "Accuracy"
bottom: "loss1/classifier"
bottom: "label"
top: "loss1/accuracy"
include {
phase: TEST
}
}
layer {
name: "loss1/top-5"
type: "Accuracy"
bottom: "loss1/classifier"
bottom: "label"
top: "loss1/accuracy-top5"
include {
phase: TEST
}
accuracy_param {
top_k: 5
}
}
layer {
name: "inception_4b/1x1"
type: "Convolution"
bottom: "inception_4a/output"
top: "inception_4b/1x1"
param {
lr_mult: 1
decay_mult: 1
}
param {
lr_mult: 2
decay_mult: 0
}
convolution_param {
num_output: 160
kernel_size: 1
weight_filler {
type: "xavier"
std: 0.03
}
bias_filler {
type: "constant"
value: 0.2
}
}
}
layer {
name: "inception_4b/relu_1x1"
type: "ReLU"
bottom: "inception_4b/1x1"
top: "inception_4b/1x1"
}
layer {
name: "inception_4b/3x3_reduce"
type: "Convolution"
bottom: "inception_4a/output"
top: "inception_4b/3x3_reduce"
param {
lr_mult: 1
decay_mult: 1
}
param {
lr_mult: 2
decay_mult: 0
}
convolution_param {
num_output: 112
kernel_size: 1
weight_filler {
type: "xavier"
std: 0.09
}
bias_filler {
type: "constant"
value: 0.2
}
}
}
layer {
name: "inception_4b/relu_3x3_reduce"
type: "ReLU"
bottom: "inception_4b/3x3_reduce"
top: "inception_4b/3x3_reduce"
}
layer {
name: "inception_4b/3x3"
type: "Convolution"
bottom: "inception_4b/3x3_reduce"
top: "inception_4b/3x3"
param {
lr_mult: 1
decay_mult: 1
}
param {
lr_mult: 2
decay_mult: 0
}
convolution_param {
num_output: 224
pad: 1
kernel_size: 3
weight_filler {
type: "xavier"
std: 0.03
}
bias_filler {
type: "constant"
value: 0.2
}
}
}
layer {
name: "inception_4b/relu_3x3"
type: "ReLU"
bottom: "inception_4b/3x3"
top: "inception_4b/3x3"
}
layer {
name: "inception_4b/5x5_reduce"
type: "Convolution"
bottom: "inception_4a/output"
top: "inception_4b/5x5_reduce"
param {
lr_mult: 1
decay_mult: 1
}
param {
lr_mult: 2
decay_mult: 0
}
convolution_param {
num_output: 24
kernel_size: 1
weight_filler {
type: "xavier"
std: 0.2
}
bias_filler {
type: "constant"
value: 0.2
}
}
}
layer {
name: "inception_4b/relu_5x5_reduce"
type: "ReLU"
bottom: "inception_4b/5x5_reduce"
top: "inception_4b/5x5_reduce"
}
layer {
name: "inception_4b/5x5"
type: "Convolution"
bottom: "inception_4b/5x5_reduce"
top: "inception_4b/5x5"
param {
lr_mult: 1
decay_mult: 1
}
param {
lr_mult: 2
decay_mult: 0
}
convolution_param {
num_output: 64
pad: 2
kernel_size: 5
weight_filler {
type: "xavier"
std: 0.03
}
bias_filler {
type: "constant"
value: 0.2
}
}
}
layer {
name: "inception_4b/relu_5x5"
type: "ReLU"
bottom: "inception_4b/5x5"
top: "inception_4b/5x5"
}
layer {
name: "inception_4b/pool"
type: "Pooling"
bottom: "inception_4a/output"
top: "inception_4b/pool"
pooling_param {
pool: MAX
kernel_size: 3
stride: 1
pad: 1
}
}
layer {
name: "inception_4b/pool_proj"
type: "Convolution"
bottom: "inception_4b/pool"
top: "inception_4b/pool_proj"
param {
lr_mult: 1
decay_mult: 1
}
param {
lr_mult: 2
decay_mult: 0
}
convolution_param {
num_output: 64
kernel_size: 1
weight_filler {
type: "xavier"
std: 0.1
}
bias_filler {
type: "constant"
value: 0.2
}
}
}
layer {
name: "inception_4b/relu_pool_proj"
type: "ReLU"
bottom: "inception_4b/pool_proj"
top: "inception_4b/pool_proj"
}
layer {
name: "inception_4b/output"
type: "Concat"
bottom: "inception_4b/1x1"
bottom: "inception_4b/3x3"
bottom: "inception_4b/5x5"
bottom: "inception_4b/pool_proj"
top: "inception_4b/output"
}
layer {
name: "inception_4c/1x1"
type: "Convolution"
bottom: "inception_4b/output"
top: "inception_4c/1x1"
param {
lr_mult: 1
decay_mult: 1
}
param {
lr_mult: 2
decay_mult: 0
}
convolution_param {
num_output: 128
kernel_size: 1
weight_filler {
type: "xavier"
std: 0.03
}
bias_filler {
type: "constant"
value: 0.2
}
}
}
layer {
name: "inception_4c/relu_1x1"
type: "ReLU"
bottom: "inception_4c/1x1"
top: "inception_4c/1x1"
}
layer {
name: "inception_4c/3x3_reduce"
type: "Convolution"
bottom: "inception_4b/output"
top: "inception_4c/3x3_reduce"
param {
lr_mult: 1
decay_mult: 1
}
param {
lr_mult: 2
decay_mult: 0
}
convolution_param {
num_output: 128
kernel_size: 1
weight_filler {
type: "xavier"
std: 0.09
}
bias_filler {
type: "constant"
value: 0.2
}
}
}
layer {
name: "inception_4c/relu_3x3_reduce"
type: "ReLU"
bottom: "inception_4c/3x3_reduce"
top: "inception_4c/3x3_reduce"
}
layer {
name: "inception_4c/3x3"
type: "Convolution"
bottom: "inception_4c/3x3_reduce"
top: "inception_4c/3x3"
param {
lr_mult: 1
decay_mult: 1
}
param {
lr_mult: 2
decay_mult: 0
}
convolution_param {
num_output: 256
pad: 1
kernel_size: 3
weight_filler {
type: "xavier"
std: 0.03
}
bias_filler {
type: "constant"
value: 0.2
}
}
}
layer {
name: "inception_4c/relu_3x3"
type: "ReLU"
bottom: "inception_4c/3x3"
top: "inception_4c/3x3"
}
layer {
name: "inception_4c/5x5_reduce"
type: "Convolution"
bottom: "inception_4b/output"
top: "inception_4c/5x5_reduce"
param {
lr_mult: 1
decay_mult: 1
}
param {
lr_mult: 2
decay_mult: 0
}
convolution_param {
num_output: 24
kernel_size: 1
weight_filler {
type: "xavier"
std: 0.2
}
bias_filler {
type: "constant"
value: 0.2
}
}
}
layer {
name: "inception_4c/relu_5x5_reduce"
type: "ReLU"
bottom: "inception_4c/5x5_reduce"
top: "inception_4c/5x5_reduce"
}
layer {
name: "inception_4c/5x5"
type: "Convolution"
bottom: "inception_4c/5x5_reduce"
top: "inception_4c/5x5"
param {
lr_mult: 1
decay_mult: 1
}
param {
lr_mult: 2
decay_mult: 0
}
convolution_param {
num_output: 64
pad: 2
kernel_size: 5
weight_filler {
type: "xavier"
std: 0.03
}
bias_filler {
type: "constant"
value: 0.2
}
}
}
layer {
name: "inception_4c/relu_5x5"
type: "ReLU"
bottom: "inception_4c/5x5"
top: "inception_4c/5x5"
}
layer {
name: "inception_4c/pool"
type: "Pooling"
bottom: "inception_4b/output"
top: "inception_4c/pool"
pooling_param {
pool: MAX
kernel_size: 3
stride: 1
pad: 1
}
}
layer {
name: "inception_4c/pool_proj"
type: "Convolution"
bottom: "inception_4c/pool"
top: "inception_4c/pool_proj"
param {
lr_mult: 1
decay_mult: 1
}
param {
lr_mult: 2
decay_mult: 0
}
convolution_param {
num_output: 64
kernel_size: 1
weight_filler {
type: "xavier"
std: 0.1
}
bias_filler {
type: "constant"
value: 0.2
}
}
}
layer {
name: "inception_4c/relu_pool_proj"
type: "ReLU"
bottom: "inception_4c/pool_proj"
top: "inception_4c/pool_proj"
}
layer {
name: "inception_4c/output"
type: "Concat"
bottom: "inception_4c/1x1"
bottom: "inception_4c/3x3"
bottom: "inception_4c/5x5"
bottom: "inception_4c/pool_proj"
top: "inception_4c/output"
}
layer {
name: "inception_4d/1x1"
type: "Convolution"
bottom: "inception_4c/output"
top: "inception_4d/1x1"
param {
lr_mult: 1
decay_mult: 1
}
param {
lr_mult: 2
decay_mult: 0
}
convolution_param {
num_output: 112
kernel_size: 1
weight_filler {
type: "xavier"
std: 0.03
}
bias_filler {
type: "constant"
value: 0.2
}
}
}
layer {
name: "inception_4d/relu_1x1"
…
I0501 14:36:11.992733 25244 net.cpp:122] Setting up inception_4c/relu_5x5
I0501 14:36:11.992745 25244 net.cpp:129] Top shape: 16 64 14 14 (200704)
I0501 14:36:11.992753 25244 net.cpp:137] Memory required for data: 700688012
I0501 14:36:11.992760 25244 layer_factory.hpp:77] Creating layer inception_4c/pool
I0501 14:36:11.992771 25244 net.cpp:84] Creating Layer inception_4c/pool
I0501 14:36:11.992779 25244 net.cpp:406] inception_4c/pool <- inception_4b/output_inception_4b/output_0_split_3
I0501 14:36:11.992789 25244 net.cpp:380] inception_4c/pool -> inception_4c/pool
I0501 14:36:11.992844 25244 net.cpp:122] Setting up inception_4c/pool
I0501 14:36:11.992856 25244 net.cpp:129] Top shape: 16 512 14 14 (1605632)
I0501 14:36:11.992861 25244 net.cpp:137] Memory required for data: 707110540
I0501 14:36:11.992867 25244 layer_factory.hpp:77] Creating layer inception_4c/pool_proj
I0501 14:36:11.992884 25244 net.cpp:84] Creating Layer inception_4c/pool_proj
I0501 14:36:11.992890 25244 net.cpp:406] inception_4c/pool_proj <- inception_4c/pool
I0501 14:36:11.992902 25244 net.cpp:380] inception_4c/pool_proj -> inception_4c/pool_proj
I0501 14:36:11.995523 25244 net.cpp:122] Setting up inception_4c/pool_proj
I0501 14:36:11.995538 25244 net.cpp:129] Top shape: 16 64 14 14 (200704)
I0501 14:36:11.995544 25244 net.cpp:137] Memory required for data: 707913356
I0501 14:36:11.995555 25244 layer_factory.hpp:77] Creating layer inception_4c/relu_pool_proj
I0501 14:36:11.995568 25244 net.cpp:84] Creating Layer inception_4c/relu_pool_proj
I0501 14:36:11.995574 25244 net.cpp:406] inception_4c/relu_pool_proj <- inception_4c/pool_proj
I0501 14:36:11.995582 25244 net.cpp:367] inception_4c/relu_pool_proj -> inception_4c/pool_proj (in-place)
I0501 14:36:11.996290 25244 net.cpp:122] Setting up inception_4c/relu_pool_proj
I0501 14:36:11.996304 25244 net.cpp:129] Top shape: 16 64 14 14 (200704)
I0501 14:36:11.996309 25244 net.cpp:137] Memory required for data: 708716172
I0501 14:36:11.996315 25244 layer_factory.hpp:77] Creating layer inception_4c/output
I0501 14:36:11.996326 25244 net.cpp:84] Creating Layer inception_4c/output
I0501 14:36:11.996333 25244 net.cpp:406] inception_4c/output <- inception_4c/1x1
I0501 14:36:11.996366 25244 net.cpp:406] inception_4c/output <- inception_4c/3x3
I0501 14:36:11.996373 25244 net.cpp:406] inception_4c/output <- inception_4c/5x5
I0501 14:36:11.996382 25244 net.cpp:406] inception_4c/output <- inception_4c/pool_proj
I0501 14:36:11.996392 25244 net.cpp:380] inception_4c/output -> inception_4c/output
I0501 14:36:11.996433 25244 net.cpp:122] Setting up inception_4c/output
I0501 14:36:11.996443 25244 net.cpp:129] Top shape: 16 512 14 14 (1605632)
I0501 14:36:11.996449 25244 net.cpp:137] Memory required for data: 715138700
I0501 14:36:11.996454 25244 layer_factory.hpp:77] Creating layer inception_4c/output_inception_4c/output_0_split
I0501 14:36:11.996464 25244 net.cpp:84] Creating Layer inception_4c/output_inception_4c/output_0_split
I0501 14:36:11.996472 25244 net.cpp:406] inception_4c/output_inception_4c/output_0_split <- inception_4c/output
I0501 14:36:11.996484 25244 net.cpp:380] inception_4c/output_inception_4c/output_0_split -> inception_4c/output_inception_4c/output_0_split_0
I0501 14:36:11.996496 25244 net.cpp:380] inception_4c/output_inception_4c/output_0_split -> inception_4c/output_inception_4c/output_0_split_1
I0501 14:36:11.996510 25244 net.cpp:380] inception_4c/output_inception_4c/output_0_split -> inception_4c/output_inception_4c/output_0_split_2
I0501 14:36:11.996520 25244 net.cpp:380] inception_4c/output_inception_4c/output_0_split -> inception_4c/output_inception_4c/output_0_split_3
I0501 14:36:11.996593 25244 net.cpp:122] Setting up inception_4c/output_inception_4c/output_0_split
I0501 14:36:11.996603 25244 net.cpp:129] Top shape: 16 512 14 14 (1605632)
I0501 14:36:11.996610 25244 net.cpp:129] Top shape: 16 512 14 14 (1605632)
I0501 14:36:11.996619 25244 net.cpp:129] Top shape: 16 512 14 14 (1605632)
I0501 14:36:11.996628 25244 net.cpp:129] Top shape: 16 512 14 14 (1605632)
I0501 14:36:11.996635 25244 net.cpp:137] Memory required for data: 740828812
I0501 14:36:11.996641 25244 layer_factory.hpp:77] Creating layer inception_4d/1x1
I0501 14:36:11.996654 25244 net.cpp:84] Creating Layer inception_4d/1x1
I0501 14:36:11.996662 25244 net.cpp:406] inception_4d/1x1 <- inception_4c/output_inception_4c/output_0_split_0
I0501 14:36:11.996675 25244 net.cpp:380] inception_4d/1x1 -> inception_4d/1x1
I0501 14:36:11.999300 25244 net.cpp:122] Setting up inception_4d/1x1
I0501 14:36:11.999313 25244 net.cpp:129] Top shape: 16 112 14 14 (351232)
I0501 14:36:11.999321 25244 net.cpp:137] Memory required for data: 742233740
I0501 14:36:11.999330 25244 layer_factory.hpp:77] Creating layer inception_4d/relu_1x1
I0501 14:36:11.999342 25244 net.cpp:84] Creating Layer inception_4d/relu_1x1
I0501 14:36:11.999348 25244 net.cpp:406] inception_4d/relu_1x1 <- inception_4d/1x1
I0501 14:36:11.999358 25244 net.cpp:367] inception_4d/relu_1x1 -> inception_4d/1x1 (in-place)
I0501 14:36:12.000068 25244 net.cpp:122] Setting up inception_4d/relu_1x1
I0501 14:36:12.000082 25244 net.cpp:129] Top shape: 16 112 14 14 (351232)
I0501 14:36:12.000092 25244 net.cpp:137] Memory required for data: 743638668
I0501 14:36:12.000097 25244 layer_factory.hpp:77] Creating layer inception_4d/3x3_reduce
I0501 14:36:12.000114 25244 net.cpp:84] Creating Layer inception_4d/3x3_reduce
I0501 14:36:12.000123 25244 net.cpp:406] inception_4d/3x3_reduce <- inception_4c/output_inception_4c/output_0_split_1
I0501 14:36:12.000134 25244 net.cpp:380] inception_4d/3x3_reduce -> inception_4d/3x3_reduce
I0501 14:36:12.006932 25244 net.cpp:122] Setting up inception_4d/3x3_reduce
I0501 14:36:12.006956 25244 net.cpp:129] Top shape: 16 144 14 14 (451584)
I0501 14:36:12.006964 25244 net.cpp:137] Memory required for data: 745445004
I0501 14:36:12.006975 25244 layer_factory.hpp:77] Creating layer inception_4d/relu_3x3_reduce
I0501 14:36:12.006986 25244 net.cpp:84] Creating Layer inception_4d/relu_3x3_reduce
I0501 14:36:12.006994 25244 net.cpp:406] inception_4d/relu_3x3_reduce <- inception_4d/3x3_reduce
I0501 14:36:12.007007 25244 net.cpp:367] inception_4d/relu_3x3_reduce -> inception_4d/3x3_reduce (in-place)
I0501 14:36:12.007481 25244 net.cpp:122] Setting up inception_4d/relu_3x3_reduce
I0501 14:36:12.007517 25244 net.cpp:129] Top shape: 16 144 14 14 (451584)
I0501 14:36:12.007522 25244 net.cpp:137] Memory required for data: 747251340
I0501 14:36:12.007531 25244 layer_factory.hpp:77] Creating layer inception_4d/3x3
I0501 14:36:12.007546 25244 net.cpp:84] Creating Layer inception_4d/3x3
I0501 14:36:12.007555 25244 net.cpp:406] inception_4d/3x3 <- inception_4d/3x3_reduce
I0501 14:36:12.007565 25244 net.cpp:380] inception_4d/3x3 -> inception_4d/3x3
I0501 14:36:12.016189 25244 net.cpp:122] Setting up inception_4d/3x3
I0501 14:36:12.016207 25244 net.cpp:129] Top shape: 16 288 14 14 (903168)
I0501 14:36:12.016212 25244 net.cpp:137] Memory required for data: 750864012
I0501 14:36:12.016222 25244 layer_factory.hpp:77] Creating layer inception_4d/relu_3x3
I0501 14:36:12.016230 25244 net.cpp:84] Creating Layer inception_4d/relu_3x3
I0501 14:36:12.016237 25244 net.cpp:406] inception_4d/relu_3x3 <- inception_4d/3x3
I0501 14:36:12.016248 25244 net.cpp:367] inception_4d/relu_3x3 -> inception_4d/3x3 (in-place)
I0501 14:36:12.016608 25244 net.cpp:122] Setting up inception_4d/relu_3x3
I0501 14:36:12.016618 25244 net.cpp:129] Top shape: 16 288 14 14 (903168)
I0501 14:36:12.016623 25244 net.cpp:137] Memory required for data: 754476684
I0501 14:36:12.016629 25244 layer_factory.hpp:77] Creating layer inception_4d/5x5_reduce
I0501 14:36:12.496881 25244 net.cpp:84] Creating Layer inception_4d/5x5_reduce
I0501 14:36:12.496902 25244 net.cpp:406] inception_4d/5x5_reduce <- inception_4c/output_inception_4c/output_0_split_2
I0501 14:36:12.496917 25244 net.cpp:380] inception_4d/5x5_reduce -> inception_4d/5x5_reduce
I0501 14:36:12.502439 25244 net.cpp:122] Setting up inception_4d/5x5_reduce
I0501 14:36:12.502466 25244 net.cpp:129] Top shape: 16 32 14 14 (100352)
I0501 14:36:12.502475 25244 net.cpp:137] Memory required for data: 754878092
I0501 14:36:12.502528 25244 layer_factory.hpp:77] Creating layer inception_4d/relu_5x5_reduce
I0501 14:36:12.502543 25244 net.cpp:84] Creating Layer inception_4d/relu_5x5_reduce
I0501 14:36:12.502553 25244 net.cpp:406] inception_4d/relu_5x5_reduce <- inception_4d/5x5_reduce
I0501 14:36:12.502563 25244 net.cpp:367] inception_4d/relu_5x5_reduce -> inception_4d/5x5_reduce (in-place)
I0501 14:36:12.503429 25244 net.cpp:122] Setting up inception_4d/relu_5x5_reduce
I0501 14:36:12.503443 25244 net.cpp:129] Top shape: 16 32 14 14 (100352)
I0501 14:36:12.503450 25244 net.cpp:137] Memory required for data: 755279500
I0501 14:36:12.503455 25244 layer_factory.hpp:77] Creating layer inception_4d/5x5
I0501 14:36:12.503473 25244 net.cpp:84] Creating Layer inception_4d/5x5
I0501 14:36:12.503481 25244 net.cpp:406] inception_4d/5x5 <- inception_4d/5x5_reduce
I0501 14:36:12.503495 25244 net.cpp:380] inception_4d/5x5 -> inception_4d/5x5
I0501 14:36:12.506637 25244 net.cpp:122] Setting up inception_4d/5x5
I0501 14:36:12.506654 25244 net.cpp:129] Top shape: 16 64 14 14 (200704)
I0501 14:36:12.506659 25244 net.cpp:137] Memory required for data: 756082316
I0501 14:36:12.506671 25244 layer_factory.hpp:77] Creating layer inception_4d/relu_5x5
I0501 14:36:12.506682 25244 net.cpp:84] Creating Layer inception_4d/relu_5x5
I0501 14:36:12.506690 25244 net.cpp:406] inception_4d/relu_5x5 <- inception_4d/5x5
I0501 14:36:12.506701 25244 net.cpp:367] inception_4d/relu_5x5 -> inception_4d/5x5 (in-place)
I0501 14:36:12.507526 25244 net.cpp:122] Setting up inception_4d/relu_5x5
I0501 14:36:12.507542 25244 net.cpp:129] Top shape: 16 64 14 14 (200704)
I0501 14:36:12.507548 25244 net.cpp:137] Memory required for data: 756885132
I0501 14:36:12.507555 25244 layer_factory.hpp:77] Creating layer inception_4d/pool
I0501 14:36:12.507565 25244 net.cpp:84] Creating Layer inception_4d/pool
I0501 14:36:12.507573 25244 net.cpp:406] inception_4d/pool <- inception_4c/output_inception_4c/output_0_split_3
I0501 14:36:12.507586 25244 net.cpp:380] inception_4d/pool -> inception_4d/pool
I0501 14:36:12.507658 25244 net.cpp:122] Setting up inception_4d/pool
I0501 14:36:12.507671 25244 net.cpp:129] Top shape: 16 512 14 14 (1605632)
I0501 14:36:12.507702 25244 net.cpp:137] Memory required for data: 763307660
I0501 14:36:12.507709 25244 layer_factory.hpp:77] Creating layer inception_4d/pool_proj
I0501 14:36:12.507725 25244 net.cpp:84] Creating Layer inception_4d/pool_proj
I0501 14:36:12.507732 25244 net.cpp:406] inception_4d/pool_proj <- inception_4d/pool
I0501 14:36:12.507743 25244 net.cpp:380] inception_4d/pool_proj -> inception_4d/pool_proj
I0501 14:36:12.510684 25244 net.cpp:122] Setting up inception_4d/pool_proj
I0501 14:36:12.510699 25244 net.cpp:129] Top shape: 16 64 14 14 (200704)
I0501 14:36:12.510705 25244 net.cpp:137] Memory required for data: 764110476
I0501 14:36:12.510717 25244 layer_factory.hpp:77] Creating layer inception_4d/relu_pool_proj
I0501 14:36:12.510728 25244 net.cpp:84] Creating Layer inception_4d/relu_pool_proj
I0501 14:36:12.510736 25244 net.cpp:406] inception_4d/relu_pool_proj <- inception_4d/pool_proj
I0501 14:36:12.510748 25244 net.cpp:367] inception_4d/relu_pool_proj -> inception_4d/pool_proj (in-place)
I0501 14:36:12.511590 25244 net.cpp:122] Setting up inception_4d/relu_pool_proj
I0501 14:36:12.511605 25244 net.cpp:129] Top shape: 16 64 14 14 (200704)
I0501 14:36:12.511612 25244 net.cpp:137] Memory required for data: 764913292
I0501 14:36:12.511617 25244 layer_factory.hpp:77] Creating layer inception_4d/output
I0501 14:36:12.511627 25244 net.cpp:84] Creating Layer inception_4d/output
I0501 14:36:12.511636 25244 net.cpp:406] inception_4d/output <- inception_4d/1x1
I0501 14:36:12.511643 25244 net.cpp:406] inception_4d/output <- inception_4d/3x3
I0501 14:36:12.511651 25244 net.cpp:406] inception_4d/output <- inception_4d/5x5
I0501 14:36:12.511657 25244 net.cpp:406] inception_4d/output <- inception_4d/pool_proj
I0501 14:36:12.511668 25244 net.cpp:380] inception_4d/output -> inception_4d/output
I0501 14:36:12.511713 25244 net.cpp:122] Setting up inception_4d/output
I0501 14:36:12.511725 25244 net.cpp:129] Top shape: 16 528 14 14 (1655808)
I0501 14:36:12.511730 25244 net.cpp:137] Memory required for data: 771536524
I0501 14:36:12.511735 25244 layer_factory.hpp:77] Creating layer inception_4d/output_inception_4d/output_0_split
I0501 14:36:12.511749 25244 net.cpp:84] Creating Layer inception_4d/output_inception_4d/output_0_split
I0501 14:36:12.511756 25244 net.cpp:406] inception_4d/output_inception_4d/output_0_split <- inception_4d/output
I0501 14:36:12.511767 25244 net.cpp:380] inception_4d/output_inception_4d/output_0_split -> inception_4d/output_inception_4d/output_0_split_0
I0501 14:36:12.511780 25244 net.cpp:380] inception_4d/output_inception_4d/output_0_split -> inception_4d/output_inception_4d/output_0_split_1
I0501 14:36:12.511791 25244 net.cpp:380] inception_4d/output_inception_4d/output_0_split -> inception_4d/output_inception_4d/output_0_split_2
I0501 14:36:12.511801 25244 net.cpp:380] inception_4d/output_inception_4d/output_0_split -> inception_4d/output_inception_4d/output_0_split_3
I0501 14:36:12.511813 25244 net.cpp:380] inception_4d/output_inception_4d/output_0_split -> inception_4d/output_inception_4d/output_0_split_4
I0501 14:36:12.511930 25244 net.cpp:122] Setting up inception_4d/output_inception_4d/output_0_split
I0501 14:36:12.511943 25244 net.cpp:129] Top shape: 16 528 14 14 (1655808)
I0501 14:36:12.511950 25244 net.cpp:129] Top shape: 16 528 14 14 (1655808)
I0501 14:36:12.511957 25244 net.cpp:129] Top shape: 16 528 14 14 (1655808)
I0501 14:36:12.511965 25244 net.cpp:129] Top shape: 16 528 14 14 (1655808)
I0501 14:36:12.511971 25244 net.cpp:129] Top shape: 16 528 14 14 (1655808)
I0501 14:36:12.511976 25244 net.cpp:137] Memory required for data: 804652684
I0501 14:36:12.511982 25244 layer_factory.hpp:77] Creating layer loss2/ave_pool
I0501 14:36:12.511991 25244 net.cpp:84] Creating Layer loss2/ave_pool
I0501 14:36:12.511998 25244 net.cpp:406] loss2/ave_pool <- inception_4d/output_inception_4d/output_0_split_0
I0501 14:36:12.512010 25244 net.cpp:380] loss2/ave_pool -> loss2/ave_pool
I0501 14:36:12.515295 25244 net.cpp:122] Setting up loss2/ave_pool
I0501 14:36:12.515316 25244 net.cpp:129] Top shape: 16 528 4 4 (135168)
I0501 14:36:12.515347 25244 net.cpp:137] Memory required for data: 805193356
I0501 14:36:12.515355 25244 layer_factory.hpp:77] Creating layer loss2/conv
I0501 14:36:12.515377 25244 net.cpp:84] Creating Layer loss2/conv
I0501 14:36:12.515386 25244 net.cpp:406] loss2/conv <- loss2/ave_pool
I0501 14:36:12.515399 25244 net.cpp:380] loss2/conv -> loss2/conv
I0501 14:36:12.518976 25244 net.cpp:122] Setting up loss2/conv
I0501 14:36:12.518995 25244 net.cpp:129] Top shape: 16 128 4 4 (32768)
I0501 14:36:12.519001 25244 net.cpp:137] Memory required for data: 805324428
I0501 14:36:12.519012 25244 layer_factory.hpp:77] Creating layer loss2/relu_conv
I0501 14:36:12.519026 25244 net.cpp:84] Creating Layer loss2/relu_conv
I0501 14:36:12.519034 25244 net.cpp:406] loss2/relu_conv <- loss2/conv
I0501 14:36:12.519045 25244 net.cpp:367] loss2/relu_conv -> loss2/conv (in-place)
I0501 14:36:12.519870 25244 net.cpp:122] Setting up loss2/relu_conv
I0501 14:36:12.519884 25244 net.cpp:129] Top shape: 16 128 4 4 (32768)
I0501 14:36:12.519891 25244 net.cpp:137] Memory required for data: 805455500
I0501 14:36:12.519897 25244 layer_factory.hpp:77] Creating layer loss2/fc
I0501 14:36:12.519912 25244 net.cpp:84] Creating Layer loss2/fc
I0501 14:36:12.519922 25244 net.cpp:406] loss2/fc <- loss2/conv
I0501 14:36:12.519934 25244 net.cpp:380] loss2/fc -> loss2/fc
I0501 14:36:12.541975 25244 net.cpp:122] Setting up loss2/fc
I0501 14:36:12.542004 25244 net.cpp:129] Top shape: 16 1024 (16384)
I0501 14:36:12.542011 25244 net.cpp:137] Memory required for data: 805521036
I0501 14:36:12.542028 25244 layer_factory.hpp:77] Creating layer loss2/relu_fc
I0501 14:36:12.542045 25244 net.cpp:84] Creating Layer loss2/relu_fc
I0501 14:36:12.542058 25244 net.cpp:406] loss2/relu_fc <- loss2/fc
I0501 14:36:12.542069 25244 net.cpp:367] loss2/relu_fc -> loss2/fc (in-place)
I0501 14:36:12.543150 25244 net.cpp:122] Setting up loss2/relu_fc
I0501 14:36:12.543164 25244 net.cpp:129] Top shape: 16 1024 (16384)
I0501 14:36:12.543171 25244 net.cpp:137] Memory required for data: 805586572
I0501 14:36:12.543177 25244 layer_factory.hpp:77] Creating layer loss2/drop_fc
I0501 14:36:12.543192 25244 net.cpp:84] Creating Layer loss2/drop_fc
I0501 14:36:12.543200 25244 net.cpp:406] loss2/drop_fc <- loss2/fc
I0501 14:36:12.543212 25244 net.cpp:367] loss2/drop_fc -> loss2/fc (in-place)
I0501 14:36:12.543256 25244 net.cpp:122] Setting up loss2/drop_fc
I0501 14:36:12.543267 25244 net.cpp:129] Top shape: 16 1024 (16384)
I0501 14:36:12.543272 25244 net.cpp:137] Memory required for data: 805652108
I0501 14:36:12.543277 25244 layer_factory.hpp:77] Creating layer loss2/classifier
I0501 14:36:12.543294 25244 net.cpp:84] Creating Layer loss2/classifier
I0501 14:36:12.543303 25244 net.cpp:406] loss2/classifier <- loss2/fc
I0501 14:36:12.543315 25244 net.cpp:380] loss2/classifier -> loss2/classifier
I0501 14:36:12.549039 25244 net.cpp:122] Setting up loss2/classifier
I0501 14:36:12.549057 25244 net.cpp:129] Top shape: 16 196 (3136)
I0501 14:36:12.549062 25244 net.cpp:137] Memory required for data: 805664652
I0501 14:36:12.549075 25244 layer_factory.hpp:77] Creating layer loss2/classifier_loss2/classifier_0_split
I0501 14:36:12.549088 25244 net.cpp:84] Creating Layer loss2/classifier_loss2/classifier_0_split
I0501 14:36:12.549098 25244 net.cpp:406] loss2/classifier_loss2/classifier_0_split <- loss2/classifier
I0501 14:36:12.549111 25244 net.cpp:380] loss2/classifier_loss2/classifier_0_split -> loss2/classifier_loss2/classifier_0_split_0
I0501 14:36:12.549124 25244 net.cpp:380] loss2/classifier_loss2/classifier_0_split -> loss2/classifier_loss2/classifier_0_split_1
I0501 14:36:12.549135 25244 net.cpp:380] loss2/classifier_loss2/classifier_0_split -> loss2/classifier_loss2/classifier_0_split_2
I0501 14:36:12.549221 25244 net.cpp:122] Setting up loss2/classifier_loss2/classifier_0_split
I0501 14:36:12.549233 25244 net.cpp:129] Top shape: 16 196 (3136)
I0501 14:36:12.549242 25244 net.cpp:129] Top shape: 16 196 (3136)
I0501 14:36:12.549249 25244 net.cpp:129] Top shape: 16 196 (3136)
I0501 14:36:12.549280 25244 net.cpp:137] Memory required for data: 805702284
I0501 14:36:12.549286 25244 layer_factory.hpp:77] Creating layer loss2/loss
I0501 14:36:12.549299 25244 net.cpp:84] Creating Layer loss2/loss
I0501 14:36:12.549306 25244 net.cpp:406] loss2/loss <- loss2/classifier_loss2/classifier_0_split_0
I0501 14:36:12.549319 25244 net.cpp:406] loss2/loss <- label_val-data_1_split_3
…
I0501 14:36:12.550314 25244 net.cpp:122] Setting up loss2/top-5
I0501 14:36:12.550324 25244 net.cpp:129] Top shape: (1)
I0501 14:36:12.550331 25244 net.cpp:137] Memory required for data: 805702296
I0501 14:36:12.550339 25244 layer_factory.hpp:77] Creating layer inception_4e/1x1
I0501 14:36:12.550357 25244 net.cpp:84] Creating Layer inception_4e/1x1
I0501 14:36:12.550364 25244 net.cpp:406] inception_4e/1x1 <- inception_4d/output_inception_4d/output_0_split_1
I0501 14:36:12.550379 25244 net.cpp:380] inception_4e/1x1 -> inception_4e/1x1
I0501 14:36:12.554634 25244 net.cpp:122] Setting up inception_4e/1x1
I0501 14:36:12.554651 25244 net.cpp:129] Top shape: 16 256 14 14 (802816)
I0501 14:36:12.554657 25244 net.cpp:137] Memory required for data: 808913560
I0501 14:36:12.554669 25244 layer_factory.hpp:77] Creating layer inception_4e/relu_1x1
I0501 14:36:12.554684 25244 net.cpp:84] Creating Layer inception_4e/relu_1x1
I0501 14:36:12.554692 25244 net.cpp:406] inception_4e/relu_1x1 <- inception_4e/1x1
I0501 14:36:12.554702 25244 net.cpp:367] inception_4e/relu_1x1 -> inception_4e/1x1 (in-place)
I0501 14:36:12.558017 25244 net.cpp:122] Setting up inception_4e/relu_1x1
I0501 14:36:12.558038 25244 net.cpp:129] Top shape: 16 256 14 14 (802816)
I0501 14:36:12.558044 25244 net.cpp:137] Memory required for data: 812124824
I0501 14:36:12.558053 25244 layer_factory.hpp:77] Creating layer inception_4e/3x3_reduce
I0501 14:36:12.558107 25244 net.cpp:84] Creating Layer inception_4e/3x3_reduce
I0501 14:36:12.558120 25244 net.cpp:406] inception_4e/3x3_reduce <- inception_4d/output_inception_4d/output_0_split_2
I0501 14:36:12.558135 25244 net.cpp:380] inception_4e/3x3_reduce -> inception_4e/3x3_reduce
I0501 14:36:12.561285 25244 net.cpp:122] Setting up inception_4e/3x3_reduce
I0501 14:36:12.561305 25244 net.cpp:129] Top shape: 16 160 14 14 (501760)
I0501 14:36:12.561311 25244 net.cpp:137] Memory required for data: 814131864
I0501 14:36:12.561324 25244 layer_factory.hpp:77] Creating layer inception_4e/relu_3x3_reduce
I0501 14:36:12.561336 25244 net.cpp:84] Creating Layer inception_4e/relu_3x3_reduce
I0501 14:36:12.561343 25244 net.cpp:406] inception_4e/relu_3x3_reduce <- inception_4e/3x3_reduce
I0501 14:36:12.561358 25244 net.cpp:367] inception_4e/relu_3x3_reduce -> inception_4e/3x3_reduce (in-place)
I0501 14:36:12.562168 25244 net.cpp:122] Setting up inception_4e/relu_3x3_reduce
I0501 14:36:12.562183 25244 net.cpp:129] Top shape: 16 160 14 14 (501760)
I0501 14:36:12.562189 25244 net.cpp:137] Memory required for data: 816138904
I0501 14:36:12.562198 25244 layer_factory.hpp:77] Creating layer inception_4e/3x3
I0501 14:36:12.562216 25244 net.cpp:84] Creating Layer inception_4e/3x3
I0501 14:36:12.562227 25244 net.cpp:406] inception_4e/3x3 <- inception_4e/3x3_reduce
I0501 14:36:12.562238 25244 net.cpp:380] inception_4e/3x3 -> inception_4e/3x3
I0501 14:36:12.570302 25244 net.cpp:122] Setting up inception_4e/3x3
I0501 14:36:12.570328 25244 net.cpp:129] Top shape: 16 320 14 14 (1003520)
I0501 14:36:12.570335 25244 net.cpp:137] Memory required for data: 820152984
I0501 14:36:12.570349 25244 layer_factory.hpp:77] Creating layer inception_4e/relu_3x3
I0501 14:36:12.570360 25244 net.cpp:84] Creating Layer inception_4e/relu_3x3
I0501 14:36:12.570370 25244 net.cpp:406] inception_4e/relu_3x3 <- inception_4e/3x3
I0501 14:36:12.570381 25244 net.cpp:367] inception_4e/relu_3x3 -> inception_4e/3x3 (in-place)
I0501 14:36:12.571192 25244 net.cpp:122] Setting up inception_4e/relu_3x3
I0501 14:36:12.571208 25244 net.cpp:129] Top shape: 16 320 14 14 (1003520)
I0501 14:36:12.571218 25244 net.cpp:137] Memory required for data: 824167064
I0501 14:36:12.571224 25244 layer_factory.hpp:77] Creating layer inception_4e/5x5_reduce
I0501 14:36:12.571240 25244 net.cpp:84] Creating Layer inception_4e/5x5_reduce
I0501 14:36:12.571247 25244 net.cpp:406] inception_4e/5x5_reduce <- inception_4d/output_inception_4d/output_0_split_3
I0501 14:36:12.571259 25244 net.cpp:380] inception_4e/5x5_reduce -> inception_4e/5x5_reduce
I0501 14:36:12.576249 25244 net.cpp:122] Setting up inception_4e/5x5_reduce
I0501 14:36:12.576274 25244 net.cpp:129] Top shape: 16 32 14 14 (100352)
I0501 14:36:12.576282 25244 net.cpp:137] Memory required for data: 824568472
I0501 14:36:12.576297 25244 layer_factory.hpp:77] Creating layer inception_4e/relu_5x5_reduce
I0501 14:36:12.576313 25244 net.cpp:84] Creating Layer inception_4e/relu_5x5_reduce
I0501 14:36:12.576320 25244 net.cpp:406] inception_4e/relu_5x5_reduce <- inception_4e/5x5_reduce
I0501 14:36:12.576331 25244 net.cpp:367] inception_4e/relu_5x5_reduce -> inception_4e/5x5_reduce (in-place)
I0501 14:36:12.577154 25244 net.cpp:122] Setting up inception_4e/relu_5x5_reduce
I0501 14:36:12.577169 25244 net.cpp:129] Top shape: 16 32 14 14 (100352)
I0501 14:36:12.577178 25244 net.cpp:137] Memory required for data: 824969880
I0501 14:36:12.577185 25244 layer_factory.hpp:77] Creating layer inception_4e/5x5
I0501 14:36:12.577205 25244 net.cpp:84] Creating Layer inception_4e/5x5
I0501 14:36:12.577214 25244 net.cpp:406] inception_4e/5x5 <- inception_4e/5x5_reduce
I0501 14:36:12.577230 25244 net.cpp:380] inception_4e/5x5 -> inception_4e/5x5
I0501 14:36:12.580972 25244 net.cpp:122] Setting up inception_4e/5x5
I0501 14:36:12.580991 25244 net.cpp:129] Top shape: 16 128 14 14 (401408)
I0501 14:36:12.580998 25244 net.cpp:137] Memory required for data: 826575512
I0501 14:36:12.581012 25244 layer_factory.hpp:77] Creating layer inception_4e/relu_5x5
I0501 14:36:12.581025 25244 net.cpp:84] Creating Layer inception_4e/relu_5x5
I0501 14:36:12.581035 25244 net.cpp:406] inception_4e/relu_5x5 <- inception_4e/5x5
I0501 14:36:12.581045 25244 net.cpp:367] inception_4e/relu_5x5 -> inception_4e/5x5 (in-place)
I0501 14:36:12.581598 25244 net.cpp:122] Setting up inception_4e/relu_5x5
I0501 14:36:12.581614 25244 net.cpp:129] Top shape: 16 128 14 14 (401408)
I0501 14:36:12.581622 25244 net.cpp:137] Memory required for data: 828181144
I0501 14:36:12.581629 25244 layer_factory.hpp:77] Creating layer inception_4e/pool
I0501 14:36:12.581641 25244 net.cpp:84] Creating Layer inception_4e/pool
I0501 14:36:12.581648 25244 net.cpp:406] inception_4e/pool <- inception_4d/output_inception_4d/output_0_split_4
I0501 14:36:12.581657 25244 net.cpp:380] inception_4e/pool -> inception_4e/pool
I0501 14:36:12.581719 25244 net.cpp:122] Setting up inception_4e/pool
I0501 14:36:12.581755 25244 net.cpp:129] Top shape: 16 528 14 14 (1655808)
I0501 14:36:12.581761 25244 net.cpp:137] Memory required for data: 834804376
I0501 14:36:12.581768 25244 layer_factory.hpp:77] Creating layer inception_4e/pool_proj
I0501 14:36:12.581785 25244 net.cpp:84] Creating Layer inception_4e/pool_proj
I0501 14:36:12.581794 25244 net.cpp:406] inception_4e/pool_proj <- inception_4e/pool
I0501 14:36:12.581806 25244 net.cpp:380] inception_4e/pool_proj -> inception_4e/pool_proj
I0501 14:36:12.600821 25244 net.cpp:122] Setting up inception_4e/pool_proj
I0501 14:36:12.600852 25244 net.cpp:129] Top shape: 16 128 14 14 (401408)
I0501 14:36:12.600862 25244 net.cpp:137] Memory required for data: 836410008
I0501 14:36:12.600885 25244 layer_factory.hpp:77] Creating layer inception_4e/relu_pool_proj
I0501 14:36:12.600903 25244 net.cpp:84] Creating Layer inception_4e/relu_pool_proj
I0501 14:36:12.600917 25244 net.cpp:406] inception_4e/relu_pool_proj <- inception_4e/pool_proj
I0501 14:36:12.600935 25244 net.cpp:367] inception_4e/relu_pool_proj -> inception_4e/pool_proj (in-place)
I0501 14:36:12.604485 25244 net.cpp:122] Setting up inception_4e/relu_pool_proj
I0501 14:36:12.604517 25244 net.cpp:129] Top shape: 16 128 14 14 (401408)
I0501 14:36:12.604526 25244 net.cpp:137] Memory required for data: 838015640
I0501 14:36:12.604542 25244 layer_factory.hpp:77] Creating layer inception_4e/output
I0501 14:36:12.604557 25244 net.cpp:84] Creating Layer inception_4e/output
I0501 14:36:12.604568 25244 net.cpp:406] inception_4e/output <- inception_4e/1x1
I0501 14:36:12.604583 25244 net.cpp:406] inception_4e/output <- inception_4e/3x3
I0501 14:36:12.604594 25244 net.cpp:406] inception_4e/output <- inception_4e/5x5
I0501 14:36:12.604610 25244 net.cpp:406] inception_4e/output <- inception_4e/pool_proj
I0501 14:36:12.604624 25244 net.cpp:380] inception_4e/output -> inception_4e/output
I0501 14:36:12.604678 25244 net.cpp:122] Setting up inception_4e/output
I0501 14:36:12.604692 25244 net.cpp:129] Top shape: 16 832 14 14 (2609152)
I0501 14:36:12.604704 25244 net.cpp:137] Memory required for data: 848452248
I0501 14:36:12.604714 25244 layer_factory.hpp:77] Creating layer pool4/3x3_s2
I0501 14:36:12.604734 25244 net.cpp:84] Creating Layer pool4/3x3_s2
I0501 14:36:12.604748 25244 net.cpp:406] pool4/3x3_s2 <- inception_4e/output
I0501 14:36:12.604766 25244 net.cpp:380] pool4/3x3_s2 -> pool4/3x3_s2
I0501 14:36:12.604832 25244 net.cpp:122] Setting up pool4/3x3_s2
I0501 14:36:12.604848 25244 net.cpp:129] Top shape: 16 832 7 7 (652288)
I0501 14:36:12.604859 25244 net.cpp:137] Memory required for data: 851061400
I0501 14:36:12.604869 25244 layer_factory.hpp:77] Creating layer pool4/3x3_s2_pool4/3x3_s2_0_split
I0501 14:36:12.604884 25244 net.cpp:84] Creating Layer pool4/3x3_s2_pool4/3x3_s2_0_split
I0501 14:36:12.604897 25244 net.cpp:406] pool4/3x3_s2_pool4/3x3_s2_0_split <- pool4/3x3_s2
I0501 14:36:12.604907 25244 net.cpp:380] pool4/3x3_s2_pool4/3x3_s2_0_split -> pool4/3x3_s2_pool4/3x3_s2_0_split_0
I0501 14:36:12.604926 25244 net.cpp:380] pool4/3x3_s2_pool4/3x3_s2_0_split -> pool4/3x3_s2_pool4/3x3_s2_0_split_1
I0501 14:36:12.604949 25244 net.cpp:380] pool4/3x3_s2_pool4/3x3_s2_0_split -> pool4/3x3_s2_pool4/3x3_s2_0_split_2
I0501 14:36:12.605005 25244 net.cpp:380] pool4/3x3_s2_pool4/3x3_s2_0_split -> pool4/3x3_s2_pool4/3x3_s2_0_split_3
I0501 14:36:12.605077 25244 net.cpp:122] Setting up pool4/3x3_s2_pool4/3x3_s2_0_split
I0501 14:36:12.605089 25244 net.cpp:129] Top shape: 16 832 7 7 (652288)
I0501 14:36:12.605103 25244 net.cpp:129] Top shape: 16 832 7 7 (652288)
I0501 14:36:12.605115 25244 net.cpp:129] Top shape: 16 832 7 7 (652288)
I0501 14:36:12.605131 25244 net.cpp:129] Top shape: 16 832 7 7 (652288)
I0501 14:36:12.605141 25244 net.cpp:137] Memory required for data: 861498008
I0501 14:36:12.605150 25244 layer_factory.hpp:77] Creating layer inception_5a/1x1
I0501 14:36:12.605167 25244 net.cpp:84] Creating Layer inception_5a/1x1
I0501 14:36:12.605183 25244 net.cpp:406] inception_5a/1x1 <- pool4/3x3_s2_pool4/3x3_s2_0_split_0
I0501 14:36:12.605201 25244 net.cpp:380] inception_5a/1x1 -> inception_5a/1x1
I0501 14:36:12.614687 25244 net.cpp:122] Setting up inception_5a/1x1
I0501 14:36:12.614711 25244 net.cpp:129] Top shape: 16 256 7 7 (200704)
I0501 14:36:12.614722 25244 net.cpp:137] Memory required for data: 862300824
I0501 14:36:12.614738 25244 layer_factory.hpp:77] Creating layer inception_5a/relu_1x1
I0501 14:36:12.614753 25244 net.cpp:84] Creating Layer inception_5a/relu_1x1
I0501 14:36:12.614768 25244 net.cpp:406] inception_5a/relu_1x1 <- inception_5a/1x1
I0501 14:36:12.614785 25244 net.cpp:367] inception_5a/relu_1x1 -> inception_5a/1x1 (in-place)
I0501 14:36:12.615586 25244 net.cpp:122] Setting up inception_5a/relu_1x1
I0501 14:36:12.615603 25244 net.cpp:129] Top shape: 16 256 7 7 (200704)
I0501 14:36:12.615612 25244 net.cpp:137] Memory required for data: 863103640
I0501 14:36:12.615620 25244 layer_factory.hpp:77] Creating layer inception_5a/3x3_reduce
I0501 14:36:12.615638 25244 net.cpp:84] Creating Layer inception_5a/3x3_reduce
I0501 14:36:12.615650 25244 net.cpp:406] inception_5a/3x3_reduce <- pool4/3x3_s2_pool4/3x3_s2_0_split_1
I0501 14:36:12.615670 25244 net.cpp:380] inception_5a/3x3_reduce -> inception_5a/3x3_reduce
I0501 14:36:12.619331 25244 net.cpp:122] Setting up inception_5a/3x3_reduce
I0501 14:36:12.619352 25244 net.cpp:129] Top shape: 16 160 7 7 (125440)
I0501 14:36:12.619361 25244 net.cpp:137] Memory required for data: 863605400
I0501 14:36:12.619376 25244 layer_factory.hpp:77] Creating layer inception_5a/relu_3x3_reduce
I0501 14:36:12.619392 25244 net.cpp:84] Creating Layer inception_5a/relu_3x3_reduce
I0501 14:36:12.619405 25244 net.cpp:406] inception_5a/relu_3x3_reduce <- inception_5a/3x3_reduce
I0501 14:36:12.619416 25244 net.cpp:367] inception_5a/relu_3x3_reduce -> inception_5a/3x3_reduce (in-place)
I0501 14:36:12.620262 25244 net.cpp:122] Setting up inception_5a/relu_3x3_reduce
I0501 14:36:12.620285 25244 net.cpp:129] Top shape: 16 160 7 7 (125440)
I0501 14:36:12.620301 25244 net.cpp:137] Memory required for data: 864107160
I0501 14:36:12.620312 25244 layer_factory.hpp:77] Creating layer inception_5a/3x3
I0501 14:36:12.620332 25244 net.cpp:84] Creating Layer inception_5a/3x3
I0501 14:36:12.620347 25244 net.cpp:406] inception_5a/3x3 <- inception_5a/3x3_reduce
I0501 14:36:12.620362 25244 net.cpp:380] inception_5a/3x3 -> inception_5a/3x3
I0501 14:36:12.648349 25244 net.cpp:122] Setting up inception_5a/3x3
I0501 14:36:12.648386 25244 net.cpp:129] Top shape: 16 320 7 7 (250880)
I0501 14:36:12.648398 25244 net.cpp:137] Memory required for data: 865110680
I0501 14:36:12.648422 25244 layer_factory.hpp:77] Creating layer inception_5a/relu_3x3
I0501 14:36:12.648445 25244 net.cpp:84] Creating Layer inception_5a/relu_3x3
I0501 14:36:12.648460 25244 net.cpp:406] inception_5a/relu_3x3 <- inception_5a/3x3
I0501 14:36:12.648478 25244 net.cpp:367] inception_5a/relu_3x3 -> inception_5a/3x3 (in-place)
I0501 14:36:12.649449 25244 net.cpp:122] Setting up inception_5a/relu_3x3
I0501 14:36:12.649471 25244 net.cpp:129] Top shape: 16 320 7 7 (250880)
I0501 14:36:12.649483 25244 net.cpp:137] Memory required for data: 866114200
I0501 14:36:12.649495 25244 layer_factory.hpp:77] Creating layer inception_5a/5x5_reduce
I0501 14:36:12.649519 25244 net.cpp:84] Creating Layer inception_5a/5x5_reduce
I0501 14:36:12.649533 25244 net.cpp:406] inception_5a/5x5_reduce <- pool4/3x3_s2_pool4/3x3_s2_0_split_2
I0501 14:36:12.649551 25244 net.cpp:380] inception_5a/5x5_reduce -> inception_5a/5x5_reduce
I0501 14:36:12.652465 25244 net.cpp:122] Setting up inception_5a/5x5_reduce
I0501 14:36:12.652488 25244 net.cpp:129] Top shape: 16 32 7 7 (25088)
I0501 14:36:12.652495 25244 net.cpp:137] Memory required for data: 866214552
I0501 14:36:12.652511 25244 layer_factory.hpp:77] Creating layer inception_5a/relu_5x5_reduce
I0501 14:36:12.652524 25244 net.cpp:84] Creating Layer inception_5a/relu_5x5_reduce
I0501 14:36:12.652534 25244 net.cpp:406] inception_5a/relu_5x5_reduce <- inception_5a/5x5_reduce
I0501 14:36:12.652550 25244 net.cpp:367] inception_5a/relu_5x5_reduce -> inception_5a/5x5_reduce (in-place)
I0501 14:36:12.653124 25244 net.cpp:122] Setting up inception_5a/relu_5x5_reduce
I0501 14:36:12.653141 25244 net.cpp:129] Top shape: 16 32 7 7 (25088)
I0501 14:36:12.653151 25244 net.cpp:137] Memory required for data: 866314904
I0501 14:36:12.653162 25244 layer_factory.hpp:77] Creating layer inception_5a/5x5
I0501 14:36:12.653183 25244 net.cpp:84] Creating Layer inception_5a/5x5
I0501 14:36:12.653192 25244 net.cpp:406] inception_5a/5x5 <- inception_5a/5x5_reduce
I0501 14:36:12.653206 25244 net.cpp:380] inception_5a/5x5 -> inception_5a/5x5
I0501 14:36:12.656620 25244 net.cpp:122] Setting up inception_5a/5x5
I0501 14:36:12.656641 25244 net.cpp:129] Top shape: 16 128 7 7 (100352)
I0501 14:36:12.656651 25244 net.cpp:137] Memory required for data: 866716312
I0501 14:36:12.656668 25244 layer_factory.hpp:77] Creating layer inception_5a/relu_5x5
I0501 14:36:12.656683 25244 net.cpp:84] Creating Layer inception_5a/relu_5x5
I0501 14:36:12.656692 25244 net.cpp:406] inception_5a/relu_5x5 <- inception_5a/5x5
I0501 14:36:12.656708 25244 net.cpp:367] inception_5a/relu_5x5 -> inception_5a/5x5 (in-place)
I0501 14:36:12.659888 25244 net.cpp:122] Setting up inception_5a/relu_5x5
I0501 14:36:12.659912 25244 net.cpp:129] Top shape: 16 128 7 7 (100352)
I0501 14:36:12.659916 25244 net.cpp:137] Memory required for data: 867117720
I0501 14:36:12.659926 25244 layer_factory.hpp:77] Creating layer inception_5a/pool
I0501 14:36:12.659938 25244 net.cpp:84] Creating Layer inception_5a/pool
I0501 14:36:12.659946 25244 net.cpp:406] inception_5a/pool <- pool4/3x3_s2_pool4/3x3_s2_0_split_3
I0501 14:36:12.659960 25244 net.cpp:380] inception_5a/pool -> inception_5a/pool
I0501 14:36:12.660018 25244 net.cpp:122] Setting up inception_5a/pool
I0501 14:36:12.660030 25244 net.cpp:129] Top shape: 16 832 7 7 (652288)
I0501 14:36:12.660037 25244 net.cpp:137] Memory required for data: 869726872
I0501 14:36:12.660043 25244 layer_factory.hpp:77] Creating layer inception_5a/pool_proj
I0501 14:36:12.660054 25244 net.cpp:84] Creating Layer inception_5a/pool_proj
I0501 14:36:12.660061 25244 net.cpp:406] inception_5a/pool_proj <- inception_5a/pool
I0501 14:36:12.660070 25244 net.cpp:380] inception_5a/pool_proj -> inception_5a/pool_proj
I0501 14:36:12.666585 25244 net.cpp:122] Setting up inception_5a/pool_proj
I0501 14:36:12.666615 25244 net.cpp:129] Top shape: 16 128 7 7 (100352)
I0501 14:36:12.666623 25244 net.cpp:137] Memory required for data: 870128280
I0501 14:36:12.666640 25244 layer_factory.hpp:77] Creating layer inception_5a/relu_pool_proj
I0501 14:36:12.666661 25244 net.cpp:84] Creating Layer inception_5a/relu_pool_proj
I0501 14:36:12.666671 25244 net.cpp:406] inception_5a/relu_pool_proj <- inception_5a/pool_proj
I0501 14:36:12.666687 25244 net.cpp:367] inception_5a/relu_pool_proj -> inception_5a/pool_proj (in-place)
I0501 14:36:12.667464 25244 net.cpp:122] Setting up inception_5a/relu_pool_proj
I0501 14:36:12.667488 25244 net.cpp:129] Top shape: 16 128 7 7 (100352)
I0501 14:36:12.667498 25244 net.cpp:137] Memory required for data: 870529688
I0501 14:36:12.667507 25244 layer_factory.hpp:77] Creating layer inception_5a/output
I0501 14:36:12.667526 25244 net.cpp:84] Creating Layer inception_5a/output
I0501 14:36:12.667536 25244 net.cpp:406] inception_5a/output <- inception_5a/1x1
I0501 14:36:12.667547 25244 net.cpp:406] inception_5a/output <- inception_5a/3x3
I0501 14:36:12.667563 25244 net.cpp:406] inception_5a/output <- inception_5a/5x5
I0501 14:36:12.667573 25244 net.cpp:406] inception_5a/output <- inception_5a/pool_proj
I0501 14:36:12.667584 25244 net.cpp:380] inception_5a/output -> inception_5a/output
I0501 14:36:12.667631 25244 net.cpp:122] Setting up inception_5a/output
I0501 14:36:12.667641 25244 net.cpp:129] Top shape: 16 832 7 7 (652288)
I0501 14:36:12.667647 25244 net.cpp:137] Memory required for data: 873138840
I0501 14:36:12.667654 25244 layer_factory.hpp:77] Creating layer inception_5a/output_inception_5a/output_0_split
I0501 14:36:12.667668 25244 net.cpp:84] Creating Layer inception_5a/output_inception_5a/output_0_split
I0501 14:36:12.667677 25244 net.cpp:406] inception_5a/output_inception_5a/output_0_split <- inception_5a/output
I0501 14:36:12.667726 25244 net.cpp:380] inception_5a/output_inception_5a/output_0_split -> inception_5a/output_inception_5a/output_0_split_0
I0501 14:36:12.667739 25244 net.cpp:380] inception_5a/output_inception_5a/output_0_split -> inception_5a/output_inception_5a/output_0_split_1
I0501 14:36:12.667754 25244 net.cpp:380] inception_5a/output_inception_5a/output_0_split -> inception_5a/output_inception_5a/output_0_split_2
I0501 14:36:12.667765 25244 net.cpp:380] inception_5a/output_inception_5a/output_0_split -> inception_5a/output_inception_5a/output_0_split_3
I0501 14:36:12.667838 25244 net.cpp:122] Setting up inception_5a/output_inception_5a/output_0_split
I0501 14:36:12.667852 25244 net.cpp:129] Top shape: 16 832 7 7 (652288)
I0501 14:36:12.667860 25244 net.cpp:129] Top shape: 16 832 7 7 (652288)
I0501 14:36:12.667871 25244 net.cpp:129] Top shape: 16 832 7 7 (652288)
I0501 14:36:12.667884 25244 net.cpp:129] Top shape: 16 832 7 7 (652288)
I0501 14:36:12.667892 25244 net.cpp:137] Memory required for data: 883575448
I0501 14:36:12.667901 25244 layer_factory.hpp:77] Creating layer inception_5b/1x1
I0501 14:36:12.667922 25244 net.cpp:84] Creating Layer inception_5b/1x1
I0501 14:36:12.667932 25244 net.cpp:406] inception_5b/1x1 <- inception_5a/output_inception_5a/output_0_split_0
I0501 14:36:12.667946 25244 net.cpp:380] inception_5b/1x1 -> inception_5b/1x1
I0501 14:36:12.672860 25244 net.cpp:122] Setting up inception_5b/1x1
I0501 14:36:12.672884 25244 net.cpp:129] Top shape: 16 384 7 7 (301056)
I0501 14:36:12.672894 25244 net.cpp:137] Memory required for data: 884779672
I0501 14:36:12.672915 25244 layer_factory.hpp:77] Creating layer inception_5b/relu_1x1
I0501 14:36:12.672935 25244 net.cpp:84] Creating Layer inception_5b/relu_1x1
I0501 14:36:12.672945 25244 net.cpp:406] inception_5b/relu_1x1 <- inception_5b/1x1
I0501 14:36:12.672958 25244 net.cpp:367] inception_5b/relu_1x1 -> inception_5b/1x1 (in-place)
I0501 14:36:12.673738 25244 net.cpp:122] Setting up inception_5b/relu_1x1
I0501 14:36:12.673756 25244 net.cpp:129] Top shape: 16 384 7 7 (301056)
I0501 14:36:12.673766 25244 net.cpp:137] Memory required for data: 885983896
I0501 14:36:12.673775 25244 layer_factory.hpp:77] Creating layer inception_5b/3x3_reduce
I0501 14:36:12.673796 25244 net.cpp:84] Creating Layer inception_5b/3x3_reduce
I0501 14:36:12.673804 25244 net.cpp:406] inception_5b/3x3_reduce <- inception_5a/output_inception_5a/output_0_split_1
I0501 14:36:12.673818 25244 net.cpp:380] inception_5b/3x3_reduce -> inception_5b/3x3_reduce
I0501 14:36:12.696666 25244 net.cpp:122] Setting up inception_5b/3x3_reduce
I0501 14:36:12.696697 25244 net.cpp:129] Top shape: 16 192 7 7 (150528)
I0501 14:36:12.696710 25244 net.cpp:137] Memory required for data: 886586008
I0501 14:36:12.696728 25244 layer_factory.hpp:77] Creating layer inception_5b/relu_3x3_reduce
I0501 14:36:12.696750 25244 net.cpp:84] Creating Layer inception_5b/relu_3x3_reduce
I0501 14:36:12.696764 25244 net.cpp:406] inception_5b/relu_3x3_reduce <- inception_5b/3x3_reduce
I0501 14:36:12.696779 25244 net.cpp:367] inception_5b/relu_3x3_reduce -> inception_5b/3x3_reduce (in-place)
I0501 14:36:12.698560 25244 net.cpp:122] Setting up inception_5b/relu_3x3_reduce
I0501 14:36:12.698580 25244 net.cpp:129] Top shape: 16 192 7 7 (150528)
I0501 14:36:12.698592 25244 net.cpp:137] Memory required for data: 887188120
I0501 14:36:12.698604 25244 layer_factory.hpp:77] Creating layer inception_5b/3x3
I0501 14:36:12.698626 25244 net.cpp:84] Creating Layer inception_5b/3x3
I0501 14:36:12.698637 25244 net.cpp:406] inception_5b/3x3 <- inception_5b/3x3_reduce
I0501 14:36:12.698654 25244 net.cpp:380] inception_5b/3x3 -> inception_5b/3x3
I0501 14:36:12.708045 25244 net.cpp:122] Setting up inception_5b/3x3
I0501 14:36:12.708078 25244 net.cpp:129] Top shape: 16 384 7 7 (301056)
I0501 14:36:12.708091 25244 net.cpp:137] Memory required for data: 888392344
I0501 14:36:12.708107 25244 layer_factory.hpp:77] Creating layer inception_5b/relu_3x3
I0501 14:36:12.708120 25244 net.cpp:84] Creating Layer inception_5b/relu_3x3
I0501 14:36:12.708170 25244 net.cpp:406] inception_5b/relu_3x3 <- inception_5b/3x3
I0501 14:36:12.708186 25244 net.cpp:367] inception_5b/relu_3x3 -> inception_5b/3x3 (in-place)
I0501 14:36:12.708736 25244 net.cpp:122] Setting up inception_5b/relu_3x3
I0501 14:36:12.708755 25244 net.cpp:129] Top shape: 16 384 7 7 (301056)
I0501 14:36:12.708761 25244 net.cpp:137] Memory required for data: 889596568
I0501 14:36:12.708773 25244 layer_factory.hpp:77] Creating layer inception_5b/5x5_reduce
I0501 14:36:12.708794 25244 net.cpp:84] Creating Layer inception_5b/5x5_reduce
I0501 14:36:12.708803 25244 net.cpp:406] inception_5b/5x5_reduce <- inception_5a/output_inception_5a/output_0_split_2
I0501 14:36:12.708817 25244 net.cpp:380] inception_5b/5x5_reduce -> inception_5b/5x5_reduce
I0501 14:36:12.712340 25244 net.cpp:122] Setting up inception_5b/5x5_reduce
I0501 14:36:12.712365 25244 net.cpp:129] Top shape: 16 48 7 7 (37632)
I0501 14:36:12.712374 25244 net.cpp:137] Memory required for data: 889747096
I0501 14:36:12.712393 25244 layer_factory.hpp:77] Creating layer inception_5b/relu_5x5_reduce
I0501 14:36:12.712407 25244 net.cpp:84] Creating Layer inception_5b/relu_5x5_reduce
I0501 14:36:12.712419 25244 net.cpp:406] inception_5b/relu_5x5_reduce <- inception_5b/5x5_reduce
I0501 14:36:12.712435 25244 net.cpp:367] inception_5b/relu_5x5_reduce -> inception_5b/5x5_reduce (in-place)
I0501 14:36:12.712954 25244 net.cpp:122] Setting up inception_5b/relu_5x5_reduce
I0501 14:36:12.712971 25244 net.cpp:129] Top shape: 16 48 7 7 (37632)
I0501 14:36:12.712980 25244 net.cpp:137] Memory required for data: 889897624
I0501 14:36:12.712988 25244 layer_factory.hpp:77] Creating layer inception_5b/5x5
I0501 14:36:12.713011 25244 net.cpp:84] Creating Layer inception_5b/5x5
I0501 14:36:12.713021 25244 net.cpp:406] inception_5b/5x5 <- inception_5b/5x5_reduce
I0501 14:36:12.713035 25244 net.cpp:380] inception_5b/5x5 -> inception_5b/5x5
I0501 14:36:12.721179 25244 net.cpp:122] Setting up inception_5b/5x5
I0501 14:36:12.721213 25244 net.cpp:129] Top shape: 16 128 7 7 (100352)
I0501 14:36:12.721223 25244 net.cpp:137] Memory required for data: 890299032
I0501 14:36:12.721242 25244 layer_factory.hpp:77] Creating layer inception_5b/relu_5x5
I0501 14:36:12.721262 25244 net.cpp:84] Creating Layer inception_5b/relu_5x5
I0501 14:36:12.721277 25244 net.cpp:406] inception_5b/relu_5x5 <- inception_5b/5x5
I0501 14:36:12.721294 25244 net.cpp:367] inception_5b/relu_5x5 -> inception_5b/5x5 (in-place)
I0501 14:36:12.722182 25244 net.cpp:122] Setting up inception_5b/relu_5x5
I0501 14:36:12.722199 25244 net.cpp:129] Top shape: 16 128 7 7 (100352)
I0501 14:36:12.722206 25244 net.cpp:137] Memory required for data: 890700440
I0501 14:36:12.722218 25244 layer_factory.hpp:77] Creating layer inception_5b/pool
I0501 14:36:12.722232 25244 net.cpp:84] Creating Layer inception_5b/pool
I0501 14:36:12.722245 25244 net.cpp:406] inception_5b/pool <- inception_5a/output_inception_5a/output_0_split_3
I0501 14:36:12.722259 25244 net.cpp:380] inception_5b/pool -> inception_5b/pool
I0501 14:36:12.722322 25244 net.cpp:122] Setting up inception_5b/pool
I0501 14:36:12.722335 25244 net.cpp:129] Top shape: 16 832 7 7 (652288)
I0501 14:36:12.722344 25244 net.cpp:137] Memory required for data: 893309592
I0501 14:36:12.722352 25244 layer_factory.hpp:77] Creating layer inception_5b/pool_proj
I0501 14:36:12.722371 25244 net.cpp:84] Creating Layer inception_5b/pool_proj
I0501 14:36:12.722383 25244 net.cpp:406] inception_5b/pool_proj <- inception_5b/pool
I0501 14:36:12.722396 25244 net.cpp:380] inception_5b/pool_proj -> inception_5b/pool_proj
I0501 14:36:12.726104 25244 net.cpp:122] Setting up inception_5b/pool_proj
I0501 14:36:12.726125 25244 net.cpp:129] Top shape: 16 128 7 7 (100352)
I0501 14:36:12.726135 25244 net.cpp:137] Memory required for data: 893711000
I0501 14:36:12.726146 25244 layer_factory.hpp:77] Creating layer inception_5b/relu_pool_proj
I0501 14:36:12.726161 25244 net.cpp:84] Creating Layer inception_5b/relu_pool_proj
I0501 14:36:12.726169 25244 net.cpp:406] inception_5b/relu_pool_proj <- inception_5b/pool_proj
I0501 14:36:12.726207 25244 net.cpp:367] inception_5b/relu_pool_proj -> inception_5b/pool_proj (in-place)
I0501 14:36:12.727172 25244 net.cpp:122] Setting up inception_5b/relu_pool_proj
I0501 14:36:12.727190 25244 net.cpp:129] Top shape: 16 128 7 7 (100352)
I0501 14:36:12.727197 25244 net.cpp:137] Memory required for data: 894112408
I0501 14:36:12.727203 25244 layer_factory.hpp:77] Creating layer inception_5b/output
I0501 14:36:12.727221 25244 net.cpp:84] Creating Layer inception_5b/output
I0501 14:36:12.727231 25244 net.cpp:406] inception_5b/output <- inception_5b/1x1
I0501 14:36:12.727242 25244 net.cpp:406] inception_5b/output <- inception_5b/3x3
I0501 14:36:12.727250 25244 net.cpp:406] inception_5b/output <- inception_5b/5x5
I0501 14:36:12.727262 25244 net.cpp:406] inception_5b/output <- inception_5b/pool_proj
I0501 14:36:12.727273 25244 net.cpp:380] inception_5b/output -> inception_5b/output
I0501 14:36:12.727322 25244 net.cpp:122] Setting up inception_5b/output
I0501 14:36:12.727336 25244 net.cpp:129] Top shape: 16 1024 7 7 (802816)
I0501 14:36:12.727345 25244 net.cpp:137] Memory required for data: 897323672
I0501 14:36:12.727351 25244 layer_factory.hpp:77] Creating layer pool5/7x7_s1
I0501 14:36:12.727365 25244 net.cpp:84] Creating Layer pool5/7x7_s1
I0501 14:36:12.727372 25244 net.cpp:406] pool5/7x7_s1 <- inception_5b/output
I0501 14:36:12.727391 25244 net.cpp:380] pool5/7x7_s1 -> pool5/7x7_s1
I0501 14:36:12.728399 25244 net.cpp:122] Setting up pool5/7x7_s1
I0501 14:36:12.728418 25244 net.cpp:129] Top shape: 16 1024 1 1 (16384)
I0501 14:36:12.728428 25244 net.cpp:137] Memory required for data: 897389208
I0501 14:36:12.728441 25244 layer_factory.hpp:77] Creating layer pool5/drop_7x7_s1
I0501 14:36:12.728458 25244 net.cpp:84] Creating Layer pool5/drop_7x7_s1
I0501 14:36:12.728468 25244 net.cpp:406] pool5/drop_7x7_s1 <- pool5/7x7_s1
I0501 14:36:12.728482 25244 net.cpp:367] pool5/drop_7x7_s1 -> pool5/7x7_s1 (in-place)
I0501 14:36:12.728523 25244 net.cpp:122] Setting up pool5/drop_7x7_s1
I0501 14:36:12.728536 25244 net.cpp:129] Top shape: 16 1024 1 1 (16384)
I0501 14:36:12.728546 25244 net.cpp:137] Memory required for data: 897454744
I0501 14:36:12.728556 25244 layer_factory.hpp:77] Creating layer loss3/classifier
I0501 14:36:12.728572 25244 net.cpp:84] Creating Layer loss3/classifier
I0501 14:36:12.728581 25244 net.cpp:406] loss3/classifier <- pool5/7x7_s1
I0501 14:36:12.728595 25244 net.cpp:380] loss3/classifier -> loss3/classifier
I0501 14:36:12.752043 25244 net.cpp:122] Setting up loss3/classifier
I0501 14:36:12.752064 25244 net.cpp:129] Top shape: 16 196 (3136)
I0501 14:36:12.752069 25244 net.cpp:137] Memory required for data: 897467288
I0501 14:36:12.752080 25244 layer_factory.hpp:77] Creating layer loss3/classifier_loss3/classifier_0_split
I0501 14:36:12.752090 25244 net.cpp:84] Creating Layer loss3/classifier_loss3/classifier_0_split
I0501 14:36:12.752096 25244 net.cpp:406] loss3/classifier_loss3/classifier_0_split <- loss3/classifier
I0501 14:36:12.752104 25244 net.cpp:380] loss3/classifier_loss3/classifier_0_split -> loss3/classifier_loss3/classifier_0_split_0
I0501 14:36:12.752115 25244 net.cpp:380] loss3/classifier_loss3/classifier_0_split -> loss3/classifier_loss3/classifier_0_split_1
I0501 14:36:12.752120 25244 net.cpp:380] loss3/classifier_loss3/classifier_0_split -> loss3/classifier_loss3/classifier_0_split_2
I0501 14:36:12.752171 25244 net.cpp:122] Setting up loss3/classifier_loss3/classifier_0_split
I0501 14:36:12.752177 25244 net.cpp:129] Top shape: 16 196 (3136)
I0501 14:36:12.752182 25244 net.cpp:129] Top shape: 16 196 (3136)
I0501 14:36:12.752184 25244 net.cpp:129] Top shape: 16 196 (3136)
I0501 14:36:12.752187 25244 net.cpp:137] Memory required for data: 897504920
I0501 14:36:12.752192 25244 layer_factory.hpp:77] Creating layer loss3/loss
I0501 14:36:12.752197 25244 net.cpp:84] Creating Layer loss3/loss
I0501 14:36:12.752202 25244 net.cpp:406] loss3/loss <- loss3/classifier_loss3/classifier_0_split_0
I0501 14:36:12.752207 25244 net.cpp:406] loss3/loss <- label_val-data_1_split_6
…
