…
I0507 11:54:35.643326 28135 net.cpp:294] The NetState phase (0) differed from the phase (1) specified by a rule in layer loss3/top-5
I0507 11:54:35.644208 28135 net.cpp:51] Initializing net from parameters:
state {
phase: TRAIN
level: 0
stage: ""
}
layer {
name: "train-data"
type: "Data"
top: "data"
top: "label"
include {
phase: TRAIN
}
transform_param {
mirror: true
crop_size: 224
mean_value: 116.0869
mean_value: 117.34734
mean_value: 119.99591
}
data_param {
source: "/mnt/bigdisk/MANDIG4/digits/jobs/20200507-113634-e696/train_db"
batch_size: 32
backend: LMDB
}
}
layer {
name: "conv1/7x7_s2"
type: "Convolution"
bottom: "data"
top: "conv1/7x7_s2"
param {
lr_mult: 1
decay_mult: 1
}
param {
lr_mult: 2
decay_mult: 0
}
convolution_param {
num_output: 64
pad: 3
kernel_size: 7
stride: 2
weight_filler {
type: "xavier"
std: 0.1
}
bias_filler {
type: "constant"
value: 0.2
}
}
}
layer {
name: "conv1/relu_7x7"
type: "ReLU"
bottom: "conv1/7x7_s2"
top: "conv1/7x7_s2"
}
layer {
name: "pool1/3x3_s2"
type: "Pooling"
bottom: "conv1/7x7_s2"
top: "pool1/3x3_s2"
pooling_param {
pool: MAX
kernel_size: 3
stride: 2
}
}
layer {
name: "pool1/norm1"
type: "LRN"
bottom: "pool1/3x3_s2"
top: "pool1/norm1"
lrn_param {
local_size: 5
alpha: 0.0001
beta: 0.75
}
}
layer {
name: "conv2/3x3_reduce"
type: "Convolution"
bottom: "pool1/norm1"
top: "conv2/3x3_reduce"
param {
lr_mult: 1
decay_mult: 1
}
param {
lr_mult: 2
decay_mult: 0
}
convolution_param {
num_output: 64
kernel_size: 1
weight_filler {
type: "xavier"
std: 0.1
}
bias_filler {
type: "constant"
value: 0.2
}
}
}
layer {
name: "conv2/relu_3x3_reduce"
type: "ReLU"
bottom: "conv2/3x3_reduce"
top: "conv2/3x3_reduce"
}
layer {
name: "conv2/3x3"
type: "Convolution"
bottom: "conv2/3x3_reduce"
top: "conv2/3x3"
param {
lr_mult: 1
decay_mult: 1
}
param {
lr_mult: 2
decay_mult: 0
}
convolution_param {
num_output: 192
pad: 1
kernel_size: 3
weight_filler {
type: "xavier"
std: 0.03
}
bias_filler {
type: "constant"
value: 0.2
}
}
}
layer {
name: "conv2/relu_3x3"
type: "ReLU"
bottom: "conv2/3x3"
top: "conv2/3x3"
}
layer {
name: "conv2/norm2"
type: "LRN"
bottom: "conv2/3x3"
top: "conv2/norm2"
lrn_param {
local_size: 5
alpha: 0.0001
beta: 0.75
}
}
layer {
name: "pool2/3x3_s2"
type: "Pooling"
bottom: "conv2/norm2"
top: "pool2/3x3_s2"
pooling_param {
pool: MAX
kernel_size: 3
stride: 2
}
}
layer {
name: "inception_3a/1x1"
type: "Convolution"
bottom: "pool2/3x3_s2"
top: "inception_3a/1x1"
param {
lr_mult: 1
decay_mult: 1
}
param {
lr_mult: 2
decay_mult: 0
}
convolution_param {
num_output: 64
kernel_size: 1
weight_filler {
type: "xavier"
std: 0.03
}
bias_filler {
type: "constant"
value: 0.2
}
}
}
layer {
name: "inception_3a/relu_1x1"
type: "ReLU"
bottom: "inception_3a/1x1"
top: "inception_3a/1x1"
}
layer {
name: "inception_3a/3x3_reduce"
type: "Convolution"
bottom: "pool2/3x3_s2"
top: "inception_3a/3x3_reduce"
param {
lr_mult: 1
decay_mult: 1
}
param {
lr_mult: 2
decay_mult: 0
}
convolution_param {
num_output: 96
kernel_size: 1
weight_filler {
type: "xavier"
std: 0.09
}
bias_filler {
type: "constant"
value: 0.2
}
}
}
layer {
name: "inception_3a/relu_3x3_reduce"
type: "ReLU"
bottom: "inception_3a/3x3_reduce"
top: "inception_3a/3x3_reduce"
}
layer {
name: "inception_3a/3x3"
type: "Convolution"
bottom: "inception_3a/3x3_reduce"
top: "inception_3a/3x3"
param {
lr_mult: 1
decay_mult: 1
}
param {
lr_mult: 2
decay_mult: 0
}
convolution_param {
num_output: 128
pad: 1
kernel_size: 3
weight_filler {
type: "xavier"
std: 0.03
}
bias_filler {
type: "constant"
value: 0.2
}
}
}
layer {
name: "inception_3a/relu_3x3"
type: "ReLU"
bottom: "inception_3a/3x3"
top: "inception_3a/3x3"
}
layer {
name: "inception_3a/5x5_reduce"
type: "Convolution"
bottom: "pool2/3x3_s2"
top: "inception_3a/5x5_reduce"
param {
lr_mult: 1
decay_mult: 1
}
param {
lr_mult: 2
decay_mult: 0
}
convolution_param {
num_output: 16
kernel_size: 1
weight_filler {
type: "xavier"
std: 0.2
}
bias_filler {
type: "constant"
value: 0.2
}
}
}
layer {
name: "inception_3a/relu_5x5_reduce"
type: "ReLU"
bottom: "inception_3a/5x5_reduce"
top: "inception_3a/5x5_reduce"
}
layer {
name: "inception_3a/5x5"
type: "Convolution"
bottom: "inception_3a/5x5_reduce"
top: "inception_3a/5x5"
param {
lr_mult: 1
decay_mult: 1
}
param {
lr_mult: 2
decay_mult: 0
}
convolution_param {
num_output: 32
pad: 2
kernel_size: 5
weight_filler {
type: "xavier"
std: 0.03
}
bias_filler {
type: "constant"
value: 0.2
}
}
}
layer {
name: "inception_3a/relu_5x5"
type: "ReLU"
bottom: "inception_3a/5x5"
top: "inception_3a/5x5"
}
layer {
name: "inception_3a/pool"
type: "Pooling"
bottom: "pool2/3x3_s2"
top: "inception_3a/pool"
pooling_param {
pool: MAX
kernel_size: 3
stride: 1
pad: 1
}
}
layer {
name: "inception_3a/pool_proj"
type: "Convolution"
bottom: "inception_3a/pool"
top: "inception_3a/pool_proj"
param {
lr_mult: 1
decay_mult: 1
}
param {
lr_mult: 2
decay_mult: 0
}
convolution_param {
num_output: 32
kernel_size: 1
weight_filler {
type: "xavier"
std: 0.1
}
bias_filler {
type: "constant"
value: 0.2
}
}
}
layer {
name: "inception_3a/relu_pool_proj"
type: "ReLU"
bottom: "inception_3a/pool_proj"
top: "inception_3a/pool_proj"
}
layer {
name: "inception_3a/output"
type: "Concat"
bottom: "inception_3a/1x1"
bottom: "inception_3a/3x3"
bottom: "inception_3a/5x5"
bottom: "inception_3a/pool_proj"
top: "inception_3a/output"
}
layer {
name: "inception_3b/1x1"
type: "Convolution"
bottom: "inception_3a/output"
top: "inception_3b/1x1"
param {
lr_mult: 1
decay_mult: 1
}
param {
lr_mult: 2
decay_mult: 0
}
convolution_param {
num_output: 128
kernel_size: 1
weight_filler {
type: "xavier"
std: 0.03
}
bias_filler {
type: "constant"
value: 0.2
}
}
}
layer {
name: "inception_3b/relu_1x1"
type: "ReLU"
bottom: "inception_3b/1x1"
top: "inception_3b/1x1"
}
layer {
name: "inception_3b/3x3_reduce"
type: "Convolution"
bottom: "inception_3a/output"
top: "inception_3b/3x3_reduce"
param {
lr_mult: 1
decay_mult: 1
}
param {
lr_mult: 2
decay_mult: 0
}
convolution_param {
num_output: 128
kernel_size: 1
weight_filler {
type: "xavier"
std: 0.09
}
bias_filler {
type: "constant"
value: 0.2
}
}
}
layer {
name: "inception_3b/relu_3x3_reduce"
type: "ReLU"
bottom: "inception_3b/3x3_reduce"
top: "inception_3b/3x3_reduce"
}
layer {
name: "inception_3b/3x3"
type: "Convolution"
bottom: "inception_3b/3x3_reduce"
top: "inception_3b/3x3"
param {
lr_mult: 1
decay_mult: 1
}
param {
lr_mult: 2
decay_mult: 0
}
convolution_param {
num_output: 192
pad: 1
kernel_size: 3
weight_filler {
type: "xavier"
std: 0.03
}
bias_filler {
type: "constant"
value: 0.2
}
}
}
layer {
name: "inception_3b/relu_3x3"
type: "ReLU"
bottom: "inception_3b/3x3"
top: "inception_3b/3x3"
}
layer {
name: "inception_3b/5x5_reduce"
type: "Convolution"
bottom: "inception_3a/output"
top: "inception_3b/5x5_reduce"
param {
lr_mult: 1
decay_mult: 1
}
param {
lr_mult: 2
decay_mult: 0
}
convolution_param {
num_output: 32
kernel_size: 1
weight_filler {
type: "xavier"
std: 0.2
}
bias_filler {
type: "constant"
value: 0.2
}
}
}
layer {
name: "inception_3b/relu_5x5_reduce"
type: "ReLU"
bottom: "inception_3b/5x5_reduce"
top: "inception_3b/5x5_reduce"
}
layer {
name: "inception_3b/5x5"
type: "Convolution"
bottom: "inception_3b/5x5_reduce"
top: "inception_3b/5x5"
param {
lr_mult: 1
decay_mult: 1
}
param {
lr_mult: 2
decay_mult: 0
}
convolution_param {
num_output: 96
pad: 2
kernel_size: 5
weight_filler {
type: "xavier"
std: 0.03
}
bias_filler {
type: "constant"
value: 0.2
}
}
}
layer {
name: "inception_3b/relu_5x5"
type: "ReLU"
bottom: "inception_3b/5x5"
top: "inception_3b/5x5"
}
layer {
name: "inception_3b/pool"
type: "Pooling"
bottom: "inception_3a/output"
top: "inception_3b/pool"
pooling_param {
pool: MAX
kernel_size: 3
stride: 1
pad: 1
}
}
layer {
name: "inception_3b/pool_proj"
type: "Convolution"
bottom: "inception_3b/pool"
top: "inception_3b/pool_proj"
param {
lr_mult: 1
decay_mult: 1
}
param {
lr_mult: 2
decay_mult: 0
}
convolution_param {
num_output: 64
kernel_size: 1
weight_filler {
type: "xavier"
std: 0.1
}
bias_filler {
type: "constant"
value: 0.2
}
}
}
layer {
name: "inception_3b/relu_pool_proj"
type: "ReLU"
bottom: "inception_3b/pool_proj"
top: "inception_3b/pool_proj"
}
layer {
name: "inception_3b/output"
type: "Concat"
bottom: "inception_3b/1x1"
bottom: "inception_3b/3x3"
bottom: "inception_3b/5x5"
bottom: "inception_3b/pool_proj"
top: "inception_3b/output"
}
layer {
name: "pool3/3x3_s2"
type: "Pooling"
bottom: "inception_3b/output"
top: "pool3/3x3_s2"
pooling_param {
pool: MAX
kernel_size: 3
stride: 2
}
}
layer {
name: "inception_4a/1x1"
type: "Convolution"
bottom: "pool3/3x3_s2"
top: "inception_4a/1x1"
param {
lr_mult: 1
decay_mult: 1
}
param {
lr_mult: 2
decay_mult: 0
}
convolution_param {
num_output: 192
kernel_size: 1
weight_filler {
type: "xavier"
std: 0.03
}
bias_filler {
type: "constant"
value: 0.2
}
}
}
layer {
name: "inception_4a/relu_1x1"
type: "ReLU"
bottom: "inception_4a/1x1"
top: "inception_4a/1x1"
}
layer {
name: "inception_4a/3x3_reduce"
type: "Convolution"
bottom: "pool3/3x3_s2"
top: "inception_4a/3x3_reduce"
param {
lr_mult: 1
decay_mult: 1
}
param {
lr_mult: 2
decay_mult: 0
}
convolution_param {
num_output: 96
kernel_size: 1
weight_filler {
type: "xavier"
std: 0.09
}
bias_filler {
type: "constant"
value: 0.2
}
}
}
layer {
name: "inception_4a/relu_3x3_reduce"
type: "ReLU"
bottom: "inception_4a/3x3_reduce"
top: "inception_4a/3x3_reduce"
}
layer {
name: "inception_4a/3x3"
type: "Convolution"
bottom: "inception_4a/3x3_reduce"
top: "inception_4a/3x3"
param {
lr_mult: 1
decay_mult: 1
}
param {
lr_mult: 2
decay_mult: 0
}
convolution_param {
num_output: 208
pad: 1
kernel_size: 3
weight_filler {
type: "xavier"
std: 0.03
}
bias_filler {
type: "constant"
value: 0.2
}
}
}
layer {
name: "inception_4a/relu_3x3"
type: "ReLU"
bottom: "inception_4a/3x3"
top: "inception_4a/3x3"
}
layer {
name: "inception_4a/5x5_reduce"
type: "Convolution"
bottom: "pool3/3x3_s2"
top: "inception_4a/5x5_reduce"
param {
lr_mult: 1
decay_mult: 1
}
param {
lr_mult: 2
decay_mult: 0
}
convolution_param {
num_output: 16
kernel_size: 1
weight_filler {
type: "xavier"
std: 0.2
}
bias_filler {
type: "constant"
value: 0.2
}
}
}
layer {
name: "inception_4a/relu_5x5_reduce"
type: "ReLU"
bottom: "inception_4a/5x5_reduce"
top: "inception_4a/5x5_reduce"
}
layer {
name: "inception_4a/5x5"
type: "Convolution"
bottom: "inception_4a/5x5_reduce"
top: "inception_4a/5x5"
param {
lr_mult: 1
decay_mult: 1
}
param {
lr_mult: 2
decay_mult: 0
}
convolution_param {
num_output: 48
pad: 2
kernel_size: 5
weight_filler {
type: "xavier"
std: 0.03
}
bias_filler {
type: "constant"
value: 0.2
}
}
}
layer {
name: "inception_4a/relu_5x5"
type: "ReLU"
bottom: "inception_4a/5x5"
top: "inception_4a/5x5"
}
layer {
name: "inception_4a/pool"
type: "Pooling"
bottom: "pool3/3x3_s2"
top: "inception_4a/pool"
pooling_param {
pool: MAX
kernel_size: 3
stride: 1
pad: 1
}
}
layer {
name: "inception_4a/pool_proj"
type: "Convolution"
bottom: "inception_4a/pool"
top: "inception_4a/pool_proj"
param {
lr_mult: 1
decay_mult: 1
}
param {
lr_mult: 2
decay_mult: 0
}
convolution_param {
num_output: 64
kernel_size: 1
weight_filler {
type: "xavier"
std: 0.1
}
bias_filler {
type: "constant"
value: 0.2
}
}
}
layer {
name: "inception_4a/relu_pool_proj"
type: "ReLU"
bottom: "inception_4a/pool_proj"
top: "inception_4a/pool_proj"
}
layer {
name: "inception_4a/output"
type: "Concat"
bottom: "inception_4a/1x1"
bottom: "inception_4a/3x3"
bottom: "inception_4a/5x5"
bottom: "inception_4a/pool_proj"
top: "inception_4a/output"
}
layer {
name: "loss1/ave_pool"
type: "Pooling"
bottom: "inception_4a/output"
top: "loss1/ave_pool"
pooling_param {
pool: AVE
kernel_size: 5
stride: 3
}
}
layer {
name: "loss1/conv"
type: "Convolution"
bottom: "loss1/ave_pool"
top: "loss1/conv"
param {
lr_mult: 1
decay_mult: 1
}
param {
lr_mult: 2
decay_mult: 0
}
convolution_param {
num_output: 128
kernel_size: 1
weight_filler {
type: "xavier"
std: 0.08
}
bias_filler {
type: "constant"
value: 0.2
}
}
}
layer {
name: "loss1/relu_conv"
type: "ReLU"
bottom: "loss1/conv"
top: "loss1/conv"
}
layer {
name: "loss1/fc"
type: "InnerProduct"
bottom: "loss1/conv"
top: "loss1/fc"
param {
lr_mult: 1
decay_mult: 1
}
param {
lr_mult: 2
decay_mult: 0
}
inner_product_param {
num_output: 1024
weight_filler {
type: "xavier"
std: 0.02
}
bias_filler {
type: "constant"
value: 0.2
}
}
}
layer {
name: "loss1/relu_fc"
type: "ReLU"
bottom: "loss1/fc"
top: "loss1/fc"
}
layer {
name: "loss1/drop_fc"
type: "Dropout"
bottom: "loss1/fc"
top: "loss1/fc"
dropout_param {
dropout_ratio: 0.7
}
}
layer {
name: "loss1/classifier"
type: "InnerProduct"
bottom: "loss1/fc"
top: "loss1/classifier"
param {
lr_mult: 1
decay_mult: 1
}
param {
lr_mult: 2
decay_mult: 0
}
inner_product_param {
num_output: 196
weight_filler {
type: "xavier"
std: 0.0009765625
}
bias_filler {
type: "constant"
value: 0
}
}
}
layer {
name: "loss1/loss"
type: "SoftmaxWithLoss"
bottom: "loss1/classifier"
bottom: "label"
top: "loss1/loss"
loss_weight: 0.3
}
layer {
name: "inception_4b/1x1"
type: "Convolution"
bottom: "inception_4a/output"
top: "inception_4b/1x1"
param {
lr_mult: 1
decay_mult: 1
}
param {
lr_mult: 2
decay_mult: 0
}
convolution_param {
num_output: 160
kernel_size: 1
weight_filler {
type: "xavier"
std: 0.03
}
bias_filler {
type: "constant"
value: 0.2
}
}
}
layer {
name: "inception_4b/relu_1x1"
type: "ReLU"
bottom: "inception_4b/1x1"
top: "inception_4b/1x1"
}
layer {
name: "inception_4b/3x3_reduce"
type: "Convolution"
bottom: "inception_4a/output"
top: "inception_4b/3x3_reduce"
param {
lr_mult: 1
decay_mult: 1
}
param {
lr_mult: 2
decay_mult: 0
}
convolution_param {
num_output: 112
kernel_size: 1
weight_filler {
type: "xavier"
std: 0.09
}
bias_filler {
type: "constant"
value: 0.2
}
}
}
layer {
name: "inception_4b/relu_3x3_reduce"
type: "ReLU"
bottom: "inception_4b/3x3_reduce"
top: "inception_4b/3x3_reduce"
}
layer {
name: "inception_4b/3x3"
type: "Convolution"
bottom: "inception_4b/3x3_reduce"
top: "inception_4b/3x3"
param {
lr_mult: 1
decay_mult: 1
}
param {
lr_mult: 2
decay_mult: 0
}
convolution_param {
num_output: 224
pad: 1
kernel_size: 3
weight_filler {
type: "xavier"
std: 0.03
}
bias_filler {
type: "constant"
value: 0.2
}
}
}
layer {
name: "inception_4b/relu_3x3"
type: "ReLU"
bottom: "inception_4b/3x3"
top: "inception_4b/3x3"
}
layer {
name: "inception_4b/5x5_reduce"
type: "Convolution"
bottom: "inception_4a/output"
top: "inception_4b/5x5_reduce"
param {
lr_mult: 1
decay_mult: 1
}
param {
lr_mult: 2
decay_mult: 0
}
convolution_param {
num_output: 24
kernel_size: 1
weight_filler {
type: "xavier"
std: 0.2
}
bias_filler {
type: "constant"
value: 0.2
}
}
}
layer {
name: "inception_4b/relu_5x5_reduce"
type: "ReLU"
bottom: "inception_4b/5x5_reduce"
top: "inception_4b/5x5_reduce"
}
layer {
name: "inception_4b/5x5"
type: "Convolution"
bottom: "inception_4b/5x5_reduce"
top: "inception_4b/5x5"
param {
lr_mult: 1
decay_mult: 1
}
param {
lr_mult: 2
decay_mult: 0
}
convolution_param {
num_output: 64
pad: 2
kernel_size: 5
weight_filler {
type: "xavier"
std: 0.03
}
bias_filler {
type: "constant"
value: 0.2
}
}
}
layer {
name: "inception_4b/relu_5x5"
type: "ReLU"
bottom: "inception_4b/5x5"
top: "inception_4b/5x5"
}
layer {
name: "inception_4b/pool"
type: "Pooling"
bottom: "inception_4a/output"
top: "inception_4b/pool"
pooling_param {
pool: MAX
kernel_size: 3
stride: 1
pad: 1
}
}
layer {
name: "inception_4b/pool_proj"
type: "Convolution"
bottom: "inception_4b/pool"
top: "inception_4b/pool_proj"
param {
lr_mult: 1
decay_mult: 1
}
param {
lr_mult: 2
decay_mult: 0
}
convolution_param {
num_output: 64
kernel_size: 1
weight_filler {
type: "xavier"
std: 0.1
}
bias_filler {
type: "constant"
value: 0.2
}
}
}
layer {
name: "inception_4b/relu_pool_proj"
type: "ReLU"
bottom: "inception_4b/pool_proj"
top: "inception_4b/pool_proj"
}
layer {
name: "inception_4b/output"
type: "Concat"
bottom: "inception_4b/1x1"
bottom: "inception_4b/3x3"
bottom: "inception_4b/5x5"
bottom: "inception_4b/pool_proj"
top: "inception_4b/output"
}
layer {
name: "inception_4c/1x1"
type: "Convolution"
bottom: "inception_4b/output"
top: "inception_4c/1x1"
param {
lr_mult: 1
decay_mult: 1
}
param {
lr_mult: 2
decay_mult: 0
}
convolution_param {
num_output: 128
kernel_size: 1
weight_filler {
type: "xavier"
std: 0.03
}
bias_filler {
type: "constant"
value: 0.2
}
}
}
layer {
name: "inception_4c/relu_1x1"
type: "ReLU"
bottom: "inception_4c/1x1"
top: "inception_4c/1x1"
}
layer {
name: "inception_4c/3x3_reduce"
type: "Convolution"
bottom: "inception_4b/output"
top: "inception_4c/3x3_reduce"
param {
lr_mult: 1
decay_mult: 1
}
param {
lr_mult: 2
decay_mult: 0
}
convolution_param {
num_output: 128
kernel_size: 1
weight_filler {
type: "xavier"
std: 0.09
}
bias_filler {
type: "constant"
value: 0.2
}
}
}
layer {
name: "inception_4c/relu_3x3_reduce"
type: "ReLU"
bottom: "inception_4c/3x3_reduce"
top: "inception_4c/3x3_reduce"
}
layer {
name: "inception_4c/3x3"
type: "Convolution"
bottom: "inception_4c/3x3_reduce"
top: "inception_4c/3x3"
param {
lr_mult: 1
decay_mult: 1
}
param {
lr_mult: 2
decay_mult: 0
}
convolution_param {
num_output: 256
pad: 1
kernel_size: 3
weight_filler {
type: "xavier"
std: 0.03
}
bias_filler {
type: "constant"
value: 0.2
}
}
}
layer {
name: "inception_4c/relu_3x3"
type: "ReLU"
bottom: "inception_4c/3x3"
top: "inception_4c/3x3"
}
layer {
name: "inception_4c/5x5_reduce"
type: "Convolution"
bottom: "inception_4b/output"
top: "inception_4c/5x5_reduce"
param {
lr_mult: 1
decay_mult: 1
}
param {
lr_mult: 2
decay_mult: 0
}
convolution_param {
num_output: 24
kernel_size: 1
weight_filler {
type: "xavier"
std: 0.2
}
bias_filler {
type: "constant"
value: 0.2
}
}
}
layer {
name: "inception_4c/relu_5x5_reduce"
type: "ReLU"
bottom: "inception_4c/5x5_reduce"
top: "inception_4c/5x5_reduce"
}
layer {
name: "inception_4c/5x5"
type: "Convolution"
bottom: "inception_4c/5x5_reduce"
top: "inception_4c/5x5"
param {
lr_mult: 1
decay_mult: 1
}
param {
lr_mult: 2
decay_mult: 0
}
convolution_param {
num_output: 64
pad: 2
kernel_size: 5
weight_filler {
type: "xavier"
std: 0.03
}
bias_filler {
type: "constant"
value: 0.2
}
}
}
layer {
name: "inception_4c/relu_5x5"
type: "ReLU"
bottom: "inception_4c/5x5"
top: "inception_4c/5x5"
}
layer {
name: "inception_4c/pool"
type: "Pooling"
bottom: "inception_4b/output"
top: "inception_4c/pool"
pooling_param {
pool: MAX
kernel_size: 3
stride: 1
pad: 1
}
}
layer {
name: "inception_4c/pool_proj"
type: "Convolution"
bottom: "inception_4c/pool"
top: "inception_4c/pool_proj"
param {
lr_mult: 1
decay_mult: 1
}
param {
lr_mult: 2
decay_mult: 0
}
convolution_param {
num_output: 64
kernel_size: 1
weight_filler {
type: "xavier"
std: 0.1
}
bias_filler {
type: "constant"
value: 0.2
}
}
}
layer {
name: "inception_4c/relu_pool_proj"
type: "ReLU"
bottom: "inception_4c/pool_proj"
top: "inception_4c/pool_proj"
}
layer {
name: "inception_4c/output"
type: "Concat"
bottom: "inception_4c/1x1"
bottom: "inception_4c/3x3"
bottom: "inception_4c/5x5"
bottom: "inception_4c/pool_proj"
top: "inception_4c/output"
}
layer {
name: "inception_4d/1x1"
type: "Convolution"
bottom: "inception_4c/output"
top: "inception_4d/1x1"
param {
lr_mult: 1
decay_mult: 1
}
param {
lr_mult: 2
decay_mult: 0
}
convolution_param {
num_output: 112
kernel_size: 1
weight_filler {
type: "xavier"
std: 0.03
}
bias_filler {
type: "constant"
value: 0.2
}
}
}
layer {
name: "inception_4d/relu_1x1"
type: "ReLU"
bottom: "inception_4d/1x1"
top: "inception_4d/1x1"
}
layer {
name: "inception_4d/3x3_reduce"
type: "Convolution"
bottom: "inception_4c/output"
top: "inception_4d/3x3_reduce"
param {
lr_mult: 1
decay_mult: 1
}
param {
lr_mult: 2
decay_mult: 0
}
convolution_param {
num_output: 144
kernel_size: 1
weight_filler {
type: "xavier"
std: 0.09
}
bias_filler {
type: "constant"
value: 0.2
}
}
}
layer {
name: "inception_4d/relu_3x3_reduce"
type: "ReLU"
bottom: "inception_4d/3x3_reduce"
top: "inception_4d/3x3_reduce"
}
layer {
name: "inception_4d/3x3"
type: "Convolution"
bottom: "inception_4d/3x3_reduce"
top: "inception_4d/3x3"
param {
lr_mult: 1
decay_mult: 1
}
param {
lr_mult: 2
decay_mult: 0
}
convolution_param {
num_output: 288
pad: 1
kernel_size: 3
weight_filler {
type: "xavier"
std: 0.03
}
bias_filler {
type: "constant"
value: 0.2
}
}
}
layer {
name: "inception_4d/relu_3x3"
type: "ReLU"
bottom: "inception_4d/3x3"
top: "inception_4d/3x3"
}
layer {
name: "inception_4d/5x5_reduce"
type: "Convolution"
bottom: "inception_4c/output"
top: "inception_4d/5x5_reduce"
param {
lr_mult: 1
decay_mult: 1
}
param {
lr_mult: 2
decay_mult: 0
}
convolution_param {
num_output: 32
kernel_size: 1
weight_filler {
type: "xavier"
std: 0.2
}
bias_filler {
type: "constant"
value: 0.2
}
}
}
layer {
name: "inception_4d/relu_5x5_reduce"
type: "ReLU"
bottom: "inception_4d/5x5_reduce"
top: "inception_4d/5x5_reduce"
}
layer {
name: "inception_4d/5x5"
type: "Convolution"
bottom: "inception_4d/5x5_reduce"
top: "inception_4d/5x5"
param {
lr_mult: 1
decay_mult: 1
}
param {
lr_mult: 2
decay_mult: 0
}
convolution_param {
num_output: 64
pad: 2
kernel_size: 5
weight_filler {
type: "xavier"
std: 0.03
}
bias_filler {
type: "constant"
value: 0.2
}
}
}
layer {
name: "inception_4d/relu_5x5"
type: "ReLU"
bottom: "inception_4d/5x5"
top: "inception_4d/5x5"
}
layer {
name: "inception_4d/pool"
type: "Pooling"
bottom: "inception_4c/output"
top: "inception_4d/pool"
pooling_param {
pool: MAX
kernel_size: 3
stride: 1
pad: 1
}
}
layer {
name: "inception_4d/pool_proj"
type: "Convolution"
bottom: "inception_4d/pool"
top: "inception_4d/pool_proj"
param {
lr_mult: 1
decay_mult: 1
}
param {
lr_mult: 2
decay_mult: 0
}
convolution_param {
num_output: 64
kernel_size: 1
weight_filler {
type: "xavier"
std: 0.1
}
bias_filler {
type: "constant"
value: 0.2
}
}
}
layer {
name: "inception_4d/relu_pool_proj"
type: "ReLU"
bottom: "inception_4d/pool_proj"
top: "inception_4d/pool_proj"
}
layer {
name: "inception_4d/output"
type: "Concat"
bottom: "inception_4d/1x1"
bottom: "inception_4d/3x3"
bottom: "inception_4d/5x5"
bottom: "inception_4d/pool_proj"
top: "inception_4d/output"
}
layer {
name: "loss2/ave_pool"
type: "Pooling"
bottom: "inception_4d/output"
top: "loss2/ave_pool"
pooling_param {
pool: AVE
kernel_size: 5
stride: 3
}
}
layer {
name: "loss2/conv"
type: "Convolution"
bottom: "loss2/ave_pool"
top: "loss2/conv"
param {
lr_mult: 1
decay_mult: 1
}
param {
lr_mult: 2
decay_mult: 0
}
convolution_param {
num_output: 128
kernel_size: 1
weight_filler {
type: "xavier"
std: 0.08
}
bias_filler {
type: "constant"
value: 0.2
}
}
}
layer {
name: "loss2/relu_conv"
type: "ReLU"
bottom: "loss2/conv"
top: "loss2/conv"
}
layer {
name: "loss2/fc"
type: "InnerProduct"
bottom: "loss2/conv"
top: "loss2/fc"
param {
lr_mult: 1
decay_mult: 1
}
param {
lr_mult: 2
decay_mult: 0
}
inner_product_param {
num_output: 1024
weight_filler {
type: "xavier"
std: 0.02
}
bias_filler {
type: "constant"
value: 0.2
}
}
}
layer {
name: "loss2/relu_fc"
type: "ReLU"
bottom: "loss2/fc"
top: "loss2/fc"
}
layer {
name: "loss2/drop_fc"
type: "Dropout"
bottom: "loss2/fc"
top: "loss2/fc"
dropout_param {
dropout_ratio: 0.7
}
}
layer {
name: "loss2/classifier"
type: "InnerProduct"
bottom: "loss2/fc"
top: "loss2/classifier"
param {
lr_mult: 1
decay_mult: 1
}
param {
lr_mult: 2
decay_mult: 0
}
inner_product_param {
num_output: 196
weight_filler {
type: "xavier"
std: 0.0009765625
}
bias_filler {
type: "constant"
value: 0
}
}
}
layer {
name: "loss2/loss"
type: "SoftmaxWithLoss"
bottom: "loss2/classifier"
bottom: "label"
top: "loss2/loss"
loss_weight: 0.3
}
layer {
name: "inception_4e/1x1"
type: "Convolution"
bottom: "inception_4d/output"
top: "inception_4e/1x1"
param {
lr_mult: 1
decay_mult: 1
}
param {
lr_mult: 2
decay_mult: 0
}
convolution_param {
num_output: 256
kernel_size: 1
weight_filler {
type: "xavier"
std: 0.03
}
bias_filler {
type: "constant"
value: 0.2
}
}
}
layer {
name: "inception_4e/relu_1x1"
type: "ReLU"
bottom: "inception_4e/1x1"
top: "inception_4e/1x1"
}
layer {
name: "inception_4e/3x3_reduce"
type: "Convolution"
bottom: "inception_4d/output"
top: "inception_4e/3x3_reduce"
param {
lr_mult: 1
decay_mult: 1
}
param {
lr_mult: 2
decay_mult: 0
}
convolution_param {
num_output: 160
kernel_size: 1
weight_filler {
type: "xavier"
std: 0.09
}
bias_filler {
type: "constant"
value: 0.2
}
}
}
layer {
name: "inception_4e/relu_3x3_reduce"
type: "ReLU"
bottom: "inception_4e/3x3_reduce"
top: "inception_4e/3x3_reduce"
}
layer {
name: "inception_4e/3x3"
type: "Convolution"
bottom: "inception_4e/3x3_reduce"
top: "inception_4e/3x3"
param {
lr_mult: 1
decay_mult: 1
}
param {
lr_mult: 2
decay_mult: 0
}
convolution_param {
num_output: 320
pad: 1
kernel_size: 3
weight_filler {
type: "xavier"
std: 0.03
}
bias_filler {
type: "constant"
value: 0.2
}
}
}
layer {
name: "inception_4e/relu_3x3"
type: "ReLU"
bottom: "inception_4e/3x3"
top: "inception_4e/3x3"
}
layer {
name: "inception_4e/5x5_reduce"
type: "Convolution"
bottom: "inception_4d/output"
top: "inception_4e/5x5_reduce"
param {
lr_mult: 1
decay_mult: 1
}
param {
lr_mult: 2
decay_mult: 0
}
convolution_param {
num_output: 32
kernel_size: 1
weight_filler {
type: "xavier"
std: 0.2
}
bias_filler {
type: "constant"
value: 0.2
I0507 11:54:35.644806 28135 layer_factory.hpp:77] Creating layer train-data
I0507 11:54:35.646853 28135 db_lmdb.cpp:35] Opened lmdb /mnt/bigdisk/MANDIG4/digits/jobs/20200507-113634-e696/train_db
I0507 11:54:35.647024 28135 net.cpp:84] Creating Layer train-data
I0507 11:54:35.647035 28135 net.cpp:380] train-data -> data
I0507 11:54:35.647053 28135 net.cpp:380] train-data -> label
I0507 11:54:35.652287 28135 data_layer.cpp:45] output data size: 32,3,224,224
I0507 11:54:35.697881 28135 net.cpp:122] Setting up train-data
I0507 11:54:35.697903 28135 net.cpp:129] Top shape: 32 3 224 224 (4816896)
I0507 11:54:35.697909 28135 net.cpp:129] Top shape: 32 (32)
I0507 11:54:35.697912 28135 net.cpp:137] Memory required for data: 19267712
I0507 11:54:35.697921 28135 layer_factory.hpp:77] Creating layer label_train-data_1_split
I0507 11:54:35.697937 28135 net.cpp:84] Creating Layer label_train-data_1_split
I0507 11:54:35.697943 28135 net.cpp:406] label_train-data_1_split <- label
I0507 11:54:35.697986 28135 net.cpp:380] label_train-data_1_split -> label_train-data_1_split_0
I0507 11:54:35.697999 28135 net.cpp:380] label_train-data_1_split -> label_train-data_1_split_1
I0507 11:54:35.698005 28135 net.cpp:380] label_train-data_1_split -> label_train-data_1_split_2
I0507 11:54:35.698056 28135 net.cpp:122] Setting up label_train-data_1_split
I0507 11:54:35.698062 28135 net.cpp:129] Top shape: 32 (32)
I0507 11:54:35.698066 28135 net.cpp:129] Top shape: 32 (32)
I0507 11:54:35.698071 28135 net.cpp:129] Top shape: 32 (32)
I0507 11:54:35.698073 28135 net.cpp:137] Memory required for data: 19268096
I0507 11:54:35.698076 28135 layer_factory.hpp:77] Creating layer conv1/7x7_s2
I0507 11:54:35.698092 28135 net.cpp:84] Creating Layer conv1/7x7_s2
I0507 11:54:35.698096 28135 net.cpp:406] conv1/7x7_s2 <- data
I0507 11:54:35.698102 28135 net.cpp:380] conv1/7x7_s2 -> conv1/7x7_s2
I0507 11:54:36.599781 28135 net.cpp:122] Setting up conv1/7x7_s2
I0507 11:54:36.599803 28135 net.cpp:129] Top shape: 32 64 112 112 (25690112)
I0507 11:54:36.599807 28135 net.cpp:137] Memory required for data: 122028544
I0507 11:54:36.599825 28135 layer_factory.hpp:77] Creating layer conv1/relu_7x7
I0507 11:54:36.599835 28135 net.cpp:84] Creating Layer conv1/relu_7x7
I0507 11:54:36.599839 28135 net.cpp:406] conv1/relu_7x7 <- conv1/7x7_s2
I0507 11:54:36.599846 28135 net.cpp:367] conv1/relu_7x7 -> conv1/7x7_s2 (in-place)
I0507 11:54:36.600190 28135 net.cpp:122] Setting up conv1/relu_7x7
I0507 11:54:36.600198 28135 net.cpp:129] Top shape: 32 64 112 112 (25690112)
I0507 11:54:36.600203 28135 net.cpp:137] Memory required for data: 224788992
I0507 11:54:36.600205 28135 layer_factory.hpp:77] Creating layer pool1/3x3_s2
I0507 11:54:36.600215 28135 net.cpp:84] Creating Layer pool1/3x3_s2
I0507 11:54:36.600219 28135 net.cpp:406] pool1/3x3_s2 <- conv1/7x7_s2
I0507 11:54:36.600224 28135 net.cpp:380] pool1/3x3_s2 -> pool1/3x3_s2
I0507 11:54:36.600266 28135 net.cpp:122] Setting up pool1/3x3_s2
I0507 11:54:36.600272 28135 net.cpp:129] Top shape: 32 64 56 56 (6422528)
I0507 11:54:36.600275 28135 net.cpp:137] Memory required for data: 250479104
I0507 11:54:36.600278 28135 layer_factory.hpp:77] Creating layer pool1/norm1
I0507 11:54:36.600288 28135 net.cpp:84] Creating Layer pool1/norm1
I0507 11:54:36.600291 28135 net.cpp:406] pool1/norm1 <- pool1/3x3_s2
I0507 11:54:36.600296 28135 net.cpp:380] pool1/norm1 -> pool1/norm1
I0507 11:54:36.600813 28135 net.cpp:122] Setting up pool1/norm1
I0507 11:54:36.600823 28135 net.cpp:129] Top shape: 32 64 56 56 (6422528)
I0507 11:54:36.600826 28135 net.cpp:137] Memory required for data: 276169216
I0507 11:54:36.600831 28135 layer_factory.hpp:77] Creating layer conv2/3x3_reduce
I0507 11:54:36.600842 28135 net.cpp:84] Creating Layer conv2/3x3_reduce
I0507 11:54:36.600847 28135 net.cpp:406] conv2/3x3_reduce <- pool1/norm1
I0507 11:54:36.600855 28135 net.cpp:380] conv2/3x3_reduce -> conv2/3x3_reduce
I0507 11:54:36.602540 28135 net.cpp:122] Setting up conv2/3x3_reduce
I0507 11:54:36.602552 28135 net.cpp:129] Top shape: 32 64 56 56 (6422528)
I0507 11:54:36.602555 28135 net.cpp:137] Memory required for data: 301859328
I0507 11:54:36.602564 28135 layer_factory.hpp:77] Creating layer conv2/relu_3x3_reduce
I0507 11:54:36.602571 28135 net.cpp:84] Creating Layer conv2/relu_3x3_reduce
I0507 11:54:36.602574 28135 net.cpp:406] conv2/relu_3x3_reduce <- conv2/3x3_reduce
I0507 11:54:36.602579 28135 net.cpp:367] conv2/relu_3x3_reduce -> conv2/3x3_reduce (in-place)
I0507 11:54:36.602921 28135 net.cpp:122] Setting up conv2/relu_3x3_reduce
I0507 11:54:36.602929 28135 net.cpp:129] Top shape: 32 64 56 56 (6422528)
I0507 11:54:36.602932 28135 net.cpp:137] Memory required for data: 327549440
I0507 11:54:36.602936 28135 layer_factory.hpp:77] Creating layer conv2/3x3
I0507 11:54:36.602948 28135 net.cpp:84] Creating Layer conv2/3x3
I0507 11:54:36.602952 28135 net.cpp:406] conv2/3x3 <- conv2/3x3_reduce
I0507 11:54:36.602958 28135 net.cpp:380] conv2/3x3 -> conv2/3x3
I0507 11:54:36.606353 28135 net.cpp:122] Setting up conv2/3x3
I0507 11:54:36.606384 28135 net.cpp:129] Top shape: 32 192 56 56 (19267584)
I0507 11:54:36.606386 28135 net.cpp:137] Memory required for data: 404619776
I0507 11:54:36.606398 28135 layer_factory.hpp:77] Creating layer conv2/relu_3x3
I0507 11:54:36.606405 28135 net.cpp:84] Creating Layer conv2/relu_3x3
I0507 11:54:36.606410 28135 net.cpp:406] conv2/relu_3x3 <- conv2/3x3
I0507 11:54:36.606415 28135 net.cpp:367] conv2/relu_3x3 -> conv2/3x3 (in-place)
I0507 11:54:36.606770 28135 net.cpp:122] Setting up conv2/relu_3x3
I0507 11:54:36.606779 28135 net.cpp:129] Top shape: 32 192 56 56 (19267584)
I0507 11:54:36.606783 28135 net.cpp:137] Memory required for data: 481690112
I0507 11:54:36.606786 28135 layer_factory.hpp:77] Creating layer conv2/norm2
I0507 11:54:36.606793 28135 net.cpp:84] Creating Layer conv2/norm2
I0507 11:54:36.606797 28135 net.cpp:406] conv2/norm2 <- conv2/3x3
I0507 11:54:36.606803 28135 net.cpp:380] conv2/norm2 -> conv2/norm2
I0507 11:54:36.607322 28135 net.cpp:122] Setting up conv2/norm2
I0507 11:54:36.607331 28135 net.cpp:129] Top shape: 32 192 56 56 (19267584)
I0507 11:54:36.607336 28135 net.cpp:137] Memory required for data: 558760448
I0507 11:54:36.607338 28135 layer_factory.hpp:77] Creating layer pool2/3x3_s2
I0507 11:54:36.607345 28135 net.cpp:84] Creating Layer pool2/3x3_s2
I0507 11:54:36.607349 28135 net.cpp:406] pool2/3x3_s2 <- conv2/norm2
I0507 11:54:36.607355 28135 net.cpp:380] pool2/3x3_s2 -> pool2/3x3_s2
I0507 11:54:36.607385 28135 net.cpp:122] Setting up pool2/3x3_s2
I0507 11:54:36.607390 28135 net.cpp:129] Top shape: 32 192 28 28 (4816896)
I0507 11:54:36.607393 28135 net.cpp:137] Memory required for data: 578028032
I0507 11:54:36.607398 28135 layer_factory.hpp:77] Creating layer pool2/3x3_s2_pool2/3x3_s2_0_split
I0507 11:54:36.607405 28135 net.cpp:84] Creating Layer pool2/3x3_s2_pool2/3x3_s2_0_split
I0507 11:54:36.607409 28135 net.cpp:406] pool2/3x3_s2_pool2/3x3_s2_0_split <- pool2/3x3_s2
I0507 11:54:36.607415 28135 net.cpp:380] pool2/3x3_s2_pool2/3x3_s2_0_split -> pool2/3x3_s2_pool2/3x3_s2_0_split_0
I0507 11:54:36.607421 28135 net.cpp:380] pool2/3x3_s2_pool2/3x3_s2_0_split -> pool2/3x3_s2_pool2/3x3_s2_0_split_1
I0507 11:54:36.607426 28135 net.cpp:380] pool2/3x3_s2_pool2/3x3_s2_0_split -> pool2/3x3_s2_pool2/3x3_s2_0_split_2
I0507 11:54:36.607431 28135 net.cpp:380] pool2/3x3_s2_pool2/3x3_s2_0_split -> pool2/3x3_s2_pool2/3x3_s2_0_split_3
I0507 11:54:36.607475 28135 net.cpp:122] Setting up pool2/3x3_s2_pool2/3x3_s2_0_split
I0507 11:54:36.607479 28135 net.cpp:129] Top shape: 32 192 28 28 (4816896)
I0507 11:54:36.607483 28135 net.cpp:129] Top shape: 32 192 28 28 (4816896)
I0507 11:54:36.607487 28135 net.cpp:129] Top shape: 32 192 28 28 (4816896)
I0507 11:54:36.607491 28135 net.cpp:129] Top shape: 32 192 28 28 (4816896)
I0507 11:54:36.607493 28135 net.cpp:137] Memory required for data: 655098368
I0507 11:54:36.607497 28135 layer_factory.hpp:77] Creating layer inception_3a/1x1
I0507 11:54:36.607506 28135 net.cpp:84] Creating Layer inception_3a/1x1
I0507 11:54:36.607509 28135 net.cpp:406] inception_3a/1x1 <- pool2/3x3_s2_pool2/3x3_s2_0_split_0
I0507 11:54:36.607517 28135 net.cpp:380] inception_3a/1x1 -> inception_3a/1x1
I0507 11:54:36.610728 28135 net.cpp:122] Setting up inception_3a/1x1
I0507 11:54:36.610738 28135 net.cpp:129] Top shape: 32 64 28 28 (1605632)
I0507 11:54:36.610743 28135 net.cpp:137] Memory required for data: 661520896
I0507 11:54:36.610749 28135 layer_factory.hpp:77] Creating layer inception_3a/relu_1x1
I0507 11:54:36.610757 28135 net.cpp:84] Creating Layer inception_3a/relu_1x1
I0507 11:54:36.610760 28135 net.cpp:406] inception_3a/relu_1x1 <- inception_3a/1x1
I0507 11:54:36.610769 28135 net.cpp:367] inception_3a/relu_1x1 -> inception_3a/1x1 (in-place)
I0507 11:54:36.611105 28135 net.cpp:122] Setting up inception_3a/relu_1x1
I0507 11:54:36.611114 28135 net.cpp:129] Top shape: 32 64 28 28 (1605632)
I0507 11:54:36.611117 28135 net.cpp:137] Memory required for data: 667943424
I0507 11:54:36.611121 28135 layer_factory.hpp:77] Creating layer inception_3a/3x3_reduce
I0507 11:54:36.611148 28135 net.cpp:84] Creating Layer inception_3a/3x3_reduce
I0507 11:54:36.611152 28135 net.cpp:406] inception_3a/3x3_reduce <- pool2/3x3_s2_pool2/3x3_s2_0_split_1
I0507 11:54:36.611158 28135 net.cpp:380] inception_3a/3x3_reduce -> inception_3a/3x3_reduce
I0507 11:54:36.614040 28135 net.cpp:122] Setting up inception_3a/3x3_reduce
I0507 11:54:36.614053 28135 net.cpp:129] Top shape: 32 96 28 28 (2408448)
I0507 11:54:36.614056 28135 net.cpp:137] Memory required for data: 677577216
I0507 11:54:36.614068 28135 layer_factory.hpp:77] Creating layer inception_3a/relu_3x3_reduce
I0507 11:54:36.614079 28135 net.cpp:84] Creating Layer inception_3a/relu_3x3_reduce
I0507 11:54:36.614084 28135 net.cpp:406] inception_3a/relu_3x3_reduce <- inception_3a/3x3_reduce
I0507 11:54:36.614089 28135 net.cpp:367] inception_3a/relu_3x3_reduce -> inception_3a/3x3_reduce (in-place)
I0507 11:54:36.614598 28135 net.cpp:122] Setting up inception_3a/relu_3x3_reduce
I0507 11:54:36.614607 28135 net.cpp:129] Top shape: 32 96 28 28 (2408448)
I0507 11:54:36.614610 28135 net.cpp:137] Memory required for data: 687211008
I0507 11:54:36.614614 28135 layer_factory.hpp:77] Creating layer inception_3a/3x3
I0507 11:54:36.614624 28135 net.cpp:84] Creating Layer inception_3a/3x3
I0507 11:54:36.614629 28135 net.cpp:406] inception_3a/3x3 <- inception_3a/3x3_reduce
I0507 11:54:36.614635 28135 net.cpp:380] inception_3a/3x3 -> inception_3a/3x3
I0507 11:54:36.617674 28135 net.cpp:122] Setting up inception_3a/3x3
I0507 11:54:36.617686 28135 net.cpp:129] Top shape: 32 128 28 28 (3211264)
I0507 11:54:36.617688 28135 net.cpp:137] Memory required for data: 700056064
I0507 11:54:36.617696 28135 layer_factory.hpp:77] Creating layer inception_3a/relu_3x3
I0507 11:54:36.617703 28135 net.cpp:84] Creating Layer inception_3a/relu_3x3
I0507 11:54:36.617707 28135 net.cpp:406] inception_3a/relu_3x3 <- inception_3a/3x3
I0507 11:54:36.617712 28135 net.cpp:367] inception_3a/relu_3x3 -> inception_3a/3x3 (in-place)
I0507 11:54:36.618196 28135 net.cpp:122] Setting up inception_3a/relu_3x3
I0507 11:54:36.618206 28135 net.cpp:129] Top shape: 32 128 28 28 (3211264)
I0507 11:54:36.618208 28135 net.cpp:137] Memory required for data: 712901120
I0507 11:54:36.618212 28135 layer_factory.hpp:77] Creating layer inception_3a/5x5_reduce
I0507 11:54:36.618222 28135 net.cpp:84] Creating Layer inception_3a/5x5_reduce
I0507 11:54:36.618227 28135 net.cpp:406] inception_3a/5x5_reduce <- pool2/3x3_s2_pool2/3x3_s2_0_split_2
I0507 11:54:36.618234 28135 net.cpp:380] inception_3a/5x5_reduce -> inception_3a/5x5_reduce
I0507 11:54:36.619765 28135 net.cpp:122] Setting up inception_3a/5x5_reduce
I0507 11:54:36.619776 28135 net.cpp:129] Top shape: 32 16 28 28 (401408)
I0507 11:54:36.619779 28135 net.cpp:137] Memory required for data: 714506752
I0507 11:54:36.619786 28135 layer_factory.hpp:77] Creating layer inception_3a/relu_5x5_reduce
I0507 11:54:36.619794 28135 net.cpp:84] Creating Layer inception_3a/relu_5x5_reduce
I0507 11:54:36.619798 28135 net.cpp:406] inception_3a/relu_5x5_reduce <- inception_3a/5x5_reduce
I0507 11:54:36.619804 28135 net.cpp:367] inception_3a/relu_5x5_reduce -> inception_3a/5x5_reduce (in-place)
I0507 11:54:36.621630 28135 net.cpp:122] Setting up inception_3a/relu_5x5_reduce
I0507 11:54:36.621641 28135 net.cpp:129] Top shape: 32 16 28 28 (401408)
I0507 11:54:36.621645 28135 net.cpp:137] Memory required for data: 716112384
I0507 11:54:36.621649 28135 layer_factory.hpp:77] Creating layer inception_3a/5x5
I0507 11:54:36.621662 28135 net.cpp:84] Creating Layer inception_3a/5x5
I0507 11:54:36.621666 28135 net.cpp:406] inception_3a/5x5 <- inception_3a/5x5_reduce
I0507 11:54:36.621675 28135 net.cpp:380] inception_3a/5x5 -> inception_3a/5x5
I0507 11:54:36.623306 28135 net.cpp:122] Setting up inception_3a/5x5
I0507 11:54:36.623317 28135 net.cpp:129] Top shape: 32 32 28 28 (802816)
I0507 11:54:36.623320 28135 net.cpp:137] Memory required for data: 719323648
I0507 11:54:36.623327 28135 layer_factory.hpp:77] Creating layer inception_3a/relu_5x5
I0507 11:54:36.623333 28135 net.cpp:84] Creating Layer inception_3a/relu_5x5
I0507 11:54:36.623356 28135 net.cpp:406] inception_3a/relu_5x5 <- inception_3a/5x5
I0507 11:54:36.623363 28135 net.cpp:367] inception_3a/relu_5x5 -> inception_3a/5x5 (in-place)
I0507 11:54:36.623862 28135 net.cpp:122] Setting up inception_3a/relu_5x5
I0507 11:54:36.623870 28135 net.cpp:129] Top shape: 32 32 28 28 (802816)
I0507 11:54:36.623874 28135 net.cpp:137] Memory required for data: 722534912
I0507 11:54:36.623878 28135 layer_factory.hpp:77] Creating layer inception_3a/pool
I0507 11:54:36.623886 28135 net.cpp:84] Creating Layer inception_3a/pool
I0507 11:54:36.623891 28135 net.cpp:406] inception_3a/pool <- pool2/3x3_s2_pool2/3x3_s2_0_split_3
I0507 11:54:36.623896 28135 net.cpp:380] inception_3a/pool -> inception_3a/pool
I0507 11:54:36.623934 28135 net.cpp:122] Setting up inception_3a/pool
I0507 11:54:36.623939 28135 net.cpp:129] Top shape: 32 192 28 28 (4816896)
I0507 11:54:36.623944 28135 net.cpp:137] Memory required for data: 741802496
I0507 11:54:36.623946 28135 layer_factory.hpp:77] Creating layer inception_3a/pool_proj
I0507 11:54:36.623957 28135 net.cpp:84] Creating Layer inception_3a/pool_proj
I0507 11:54:36.623961 28135 net.cpp:406] inception_3a/pool_proj <- inception_3a/pool
I0507 11:54:36.623968 28135 net.cpp:380] inception_3a/pool_proj -> inception_3a/pool_proj
I0507 11:54:36.625653 28135 net.cpp:122] Setting up inception_3a/pool_proj
I0507 11:54:36.625663 28135 net.cpp:129] Top shape: 32 32 28 28 (802816)
I0507 11:54:36.625666 28135 net.cpp:137] Memory required for data: 745013760
I0507 11:54:36.625677 28135 layer_factory.hpp:77] Creating layer inception_3a/relu_pool_proj
I0507 11:54:36.625685 28135 net.cpp:84] Creating Layer inception_3a/relu_pool_proj
I0507 11:54:36.625690 28135 net.cpp:406] inception_3a/relu_pool_proj <- inception_3a/pool_proj
I0507 11:54:36.625696 28135 net.cpp:367] inception_3a/relu_pool_proj -> inception_3a/pool_proj (in-place)
I0507 11:54:36.626045 28135 net.cpp:122] Setting up inception_3a/relu_pool_proj
I0507 11:54:36.626056 28135 net.cpp:129] Top shape: 32 32 28 28 (802816)
I0507 11:54:36.626060 28135 net.cpp:137] Memory required for data: 748225024
I0507 11:54:36.626063 28135 layer_factory.hpp:77] Creating layer inception_3a/output
I0507 11:54:36.626072 28135 net.cpp:84] Creating Layer inception_3a/output
I0507 11:54:36.626077 28135 net.cpp:406] inception_3a/output <- inception_3a/1x1
I0507 11:54:36.626081 28135 net.cpp:406] inception_3a/output <- inception_3a/3x3
I0507 11:54:36.626085 28135 net.cpp:406] inception_3a/output <- inception_3a/5x5
I0507 11:54:36.626089 28135 net.cpp:406] inception_3a/output <- inception_3a/pool_proj
I0507 11:54:36.626096 28135 net.cpp:380] inception_3a/output -> inception_3a/output
I0507 11:54:36.626127 28135 net.cpp:122] Setting up inception_3a/output
I0507 11:54:36.626132 28135 net.cpp:129] Top shape: 32 256 28 28 (6422528)
I0507 11:54:36.626134 28135 net.cpp:137] Memory required for data: 773915136
I0507 11:54:36.626138 28135 layer_factory.hpp:77] Creating layer inception_3a/output_inception_3a/output_0_split
I0507 11:54:36.626145 28135 net.cpp:84] Creating Layer inception_3a/output_inception_3a/output_0_split
I0507 11:54:36.626149 28135 net.cpp:406] inception_3a/output_inception_3a/output_0_split <- inception_3a/output
I0507 11:54:36.626155 28135 net.cpp:380] inception_3a/output_inception_3a/output_0_split -> inception_3a/output_inception_3a/output_0_split_0
I0507 11:54:36.626163 28135 net.cpp:380] inception_3a/output_inception_3a/output_0_split -> inception_3a/output_inception_3a/output_0_split_1
I0507 11:54:36.626170 28135 net.cpp:380] inception_3a/output_inception_3a/output_0_split -> inception_3a/output_inception_3a/output_0_split_2
I0507 11:54:36.626175 28135 net.cpp:380] inception_3a/output_inception_3a/output_0_split -> inception_3a/output_inception_3a/output_0_split_3
I0507 11:54:36.626221 28135 net.cpp:122] Setting up inception_3a/output_inception_3a/output_0_split
I0507 11:54:36.626226 28135 net.cpp:129] Top shape: 32 256 28 28 (6422528)
I0507 11:54:36.626231 28135 net.cpp:129] Top shape: 32 256 28 28 (6422528)
I0507 11:54:36.626250 28135 net.cpp:129] Top shape: 32 256 28 28 (6422528)
I0507 11:54:36.626256 28135 net.cpp:129] Top shape: 32 256 28 28 (6422528)
I0507 11:54:36.626260 28135 net.cpp:137] Memory required for data: 876675584
I0507 11:54:36.626262 28135 layer_factory.hpp:77] Creating layer inception_3b/1x1
I0507 11:54:36.626272 28135 net.cpp:84] Creating Layer inception_3b/1x1
I0507 11:54:36.626276 28135 net.cpp:406] inception_3b/1x1 <- inception_3a/output_inception_3a/output_0_split_0
I0507 11:54:36.626283 28135 net.cpp:380] inception_3b/1x1 -> inception_3b/1x1
I0507 11:54:36.630758 28135 net.cpp:122] Setting up inception_3b/1x1
I0507 11:54:36.630772 28135 net.cpp:129] Top shape: 32 128 28 28 (3211264)
I0507 11:54:36.630776 28135 net.cpp:137] Memory required for data: 889520640
I0507 11:54:36.630784 28135 layer_factory.hpp:77] Creating layer inception_3b/relu_1x1
I0507 11:54:36.630791 28135 net.cpp:84] Creating Layer inception_3b/relu_1x1
I0507 11:54:36.630797 28135 net.cpp:406] inception_3b/relu_1x1 <- inception_3b/1x1
I0507 11:54:36.630803 28135 net.cpp:367] inception_3b/relu_1x1 -> inception_3b/1x1 (in-place)
I0507 11:54:36.631304 28135 net.cpp:122] Setting up inception_3b/relu_1x1
I0507 11:54:36.631315 28135 net.cpp:129] Top shape: 32 128 28 28 (3211264)
I0507 11:54:36.631319 28135 net.cpp:137] Memory required for data: 902365696
I0507 11:54:36.631322 28135 layer_factory.hpp:77] Creating layer inception_3b/3x3_reduce
I0507 11:54:36.631332 28135 net.cpp:84] Creating Layer inception_3b/3x3_reduce
I0507 11:54:36.631336 28135 net.cpp:406] inception_3b/3x3_reduce <- inception_3a/output_inception_3a/output_0_split_1
I0507 11:54:36.631345 28135 net.cpp:380] inception_3b/3x3_reduce -> inception_3b/3x3_reduce
I0507 11:54:36.633054 28135 net.cpp:122] Setting up inception_3b/3x3_reduce
I0507 11:54:36.633064 28135 net.cpp:129] Top shape: 32 128 28 28 (3211264)
I0507 11:54:36.633067 28135 net.cpp:137] Memory required for data: 915210752
I0507 11:54:36.633074 28135 layer_factory.hpp:77] Creating layer inception_3b/relu_3x3_reduce
I0507 11:54:36.633081 28135 net.cpp:84] Creating Layer inception_3b/relu_3x3_reduce
I0507 11:54:36.633085 28135 net.cpp:406] inception_3b/relu_3x3_reduce <- inception_3b/3x3_reduce
I0507 11:54:36.633090 28135 net.cpp:367] inception_3b/relu_3x3_reduce -> inception_3b/3x3_reduce (in-place)
I0507 11:54:36.633575 28135 net.cpp:122] Setting up inception_3b/relu_3x3_reduce
I0507 11:54:36.633584 28135 net.cpp:129] Top shape: 32 128 28 28 (3211264)
I0507 11:54:36.633589 28135 net.cpp:137] Memory required for data: 928055808
I0507 11:54:36.633592 28135 layer_factory.hpp:77] Creating layer inception_3b/3x3
I0507 11:54:36.633610 28135 net.cpp:84] Creating Layer inception_3b/3x3
I0507 11:54:36.633615 28135 net.cpp:406] inception_3b/3x3 <- inception_3b/3x3_reduce
I0507 11:54:36.633620 28135 net.cpp:380] inception_3b/3x3 -> inception_3b/3x3
I0507 11:54:36.637971 28135 net.cpp:122] Setting up inception_3b/3x3
I0507 11:54:36.637987 28135 net.cpp:129] Top shape: 32 192 28 28 (4816896)
I0507 11:54:36.637990 28135 net.cpp:137] Memory required for data: 947323392
I0507 11:54:36.637998 28135 layer_factory.hpp:77] Creating layer inception_3b/relu_3x3
I0507 11:54:36.638005 28135 net.cpp:84] Creating Layer inception_3b/relu_3x3
I0507 11:54:36.638010 28135 net.cpp:406] inception_3b/relu_3x3 <- inception_3b/3x3
I0507 11:54:36.638018 28135 net.cpp:367] inception_3b/relu_3x3 -> inception_3b/3x3 (in-place)
I0507 11:54:36.639721 28135 net.cpp:122] Setting up inception_3b/relu_3x3
I0507 11:54:36.639734 28135 net.cpp:129] Top shape: 32 192 28 28 (4816896)
I0507 11:54:36.639739 28135 net.cpp:137] Memory required for data: 966590976
I0507 11:54:36.639742 28135 layer_factory.hpp:77] Creating layer inception_3b/5x5_reduce
I0507 11:54:36.639755 28135 net.cpp:84] Creating Layer inception_3b/5x5_reduce
I0507 11:54:36.639758 28135 net.cpp:406] inception_3b/5x5_reduce <- inception_3a/output_inception_3a/output_0_split_2
I0507 11:54:36.639766 28135 net.cpp:380] inception_3b/5x5_reduce -> inception_3b/5x5_reduce
I0507 11:54:36.641355 28135 net.cpp:122] Setting up inception_3b/5x5_reduce
I0507 11:54:36.641384 28135 net.cpp:129] Top shape: 32 32 28 28 (802816)
I0507 11:54:36.641388 28135 net.cpp:137] Memory required for data: 969802240
I0507 11:54:36.641396 28135 layer_factory.hpp:77] Creating layer inception_3b/relu_5x5_reduce
I0507 11:54:36.641405 28135 net.cpp:84] Creating Layer inception_3b/relu_5x5_reduce
I0507 11:54:36.641410 28135 net.cpp:406] inception_3b/relu_5x5_reduce <- inception_3b/5x5_reduce
I0507 11:54:36.641415 28135 net.cpp:367] inception_3b/relu_5x5_reduce -> inception_3b/5x5_reduce (in-place)
I0507 11:54:36.641937 28135 net.cpp:122] Setting up inception_3b/relu_5x5_reduce
I0507 11:54:36.641947 28135 net.cpp:129] Top shape: 32 32 28 28 (802816)
I0507 11:54:36.641950 28135 net.cpp:137] Memory required for data: 973013504
I0507 11:54:36.641954 28135 layer_factory.hpp:77] Creating layer inception_3b/5x5
I0507 11:54:36.641965 28135 net.cpp:84] Creating Layer inception_3b/5x5
I0507 11:54:36.641969 28135 net.cpp:406] inception_3b/5x5 <- inception_3b/5x5_reduce
I0507 11:54:36.641978 28135 net.cpp:380] inception_3b/5x5 -> inception_3b/5x5
I0507 11:54:36.644083 28135 net.cpp:122] Setting up inception_3b/5x5
I0507 11:54:36.644093 28135 net.cpp:129] Top shape: 32 96 28 28 (2408448)
I0507 11:54:36.644096 28135 net.cpp:137] Memory required for data: 982647296
I0507 11:54:36.644104 28135 layer_factory.hpp:77] Creating layer inception_3b/relu_5x5
I0507 11:54:36.644112 28135 net.cpp:84] Creating Layer inception_3b/relu_5x5
I0507 11:54:36.644116 28135 net.cpp:406] inception_3b/relu_5x5 <- inception_3b/5x5
I0507 11:54:36.644121 28135 net.cpp:367] inception_3b/relu_5x5 -> inception_3b/5x5 (in-place)
I0507 11:54:36.644464 28135 net.cpp:122] Setting up inception_3b/relu_5x5
I0507 11:54:36.644474 28135 net.cpp:129] Top shape: 32 96 28 28 (2408448)
I0507 11:54:36.644476 28135 net.cpp:137] Memory required for data: 992281088
I0507 11:54:36.644480 28135 layer_factory.hpp:77] Creating layer inception_3b/pool
I0507 11:54:36.644487 28135 net.cpp:84] Creating Layer inception_3b/pool
I0507 11:54:36.644491 28135 net.cpp:406] inception_3b/pool <- inception_3a/output_inception_3a/output_0_split_3
I0507 11:54:36.644496 28135 net.cpp:380] inception_3b/pool -> inception_3b/pool
I0507 11:54:36.644533 28135 net.cpp:122] Setting up inception_3b/pool
I0507 11:54:36.644539 28135 net.cpp:129] Top shape: 32 256 28 28 (6422528)
I0507 11:54:36.644542 28135 net.cpp:137] Memory required for data: 1017971200
I0507 11:54:36.644546 28135 layer_factory.hpp:77] Creating layer inception_3b/pool_proj
I0507 11:54:36.644554 28135 net.cpp:84] Creating Layer inception_3b/pool_proj
I0507 11:54:36.644558 28135 net.cpp:406] inception_3b/pool_proj <- inception_3b/pool
I0507 11:54:36.644564 28135 net.cpp:380] inception_3b/pool_proj -> inception_3b/pool_proj
I0507 11:54:36.647527 28135 net.cpp:122] Setting up inception_3b/pool_proj
I0507 11:54:36.647544 28135 net.cpp:129] Top shape: 32 64 28 28 (1605632)
I0507 11:54:36.647548 28135 net.cpp:137] Memory required for data: 1024393728
I0507 11:54:36.647557 28135 layer_factory.hpp:77] Creating layer inception_3b/relu_pool_proj
I0507 11:54:36.647565 28135 net.cpp:84] Creating Layer inception_3b/relu_pool_proj
I0507 11:54:36.647570 28135 net.cpp:406] inception_3b/relu_pool_proj <- inception_3b/pool_proj
I0507 11:54:36.647578 28135 net.cpp:367] inception_3b/relu_pool_proj -> inception_3b/pool_proj (in-place)
I0507 11:54:36.647927 28135 net.cpp:122] Setting up inception_3b/relu_pool_proj
I0507 11:54:36.647934 28135 net.cpp:129] Top shape: 32 64 28 28 (1605632)
I0507 11:54:36.647938 28135 net.cpp:137] Memory required for data: 1030816256
I0507 11:54:36.647940 28135 layer_factory.hpp:77] Creating layer inception_3b/output
I0507 11:54:36.647948 28135 net.cpp:84] Creating Layer inception_3b/output
I0507 11:54:36.647950 28135 net.cpp:406] inception_3b/output <- inception_3b/1x1
I0507 11:54:36.647955 28135 net.cpp:406] inception_3b/output <- inception_3b/3x3
I0507 11:54:36.647961 28135 net.cpp:406] inception_3b/output <- inception_3b/5x5
I0507 11:54:36.647965 28135 net.cpp:406] inception_3b/output <- inception_3b/pool_proj
I0507 11:54:36.647989 28135 net.cpp:380] inception_3b/output -> inception_3b/output
I0507 11:54:36.648015 28135 net.cpp:122] Setting up inception_3b/output
I0507 11:54:36.648020 28135 net.cpp:129] Top shape: 32 480 28 28 (12042240)
I0507 11:54:36.648023 28135 net.cpp:137] Memory required for data: 1078985216
I0507 11:54:36.648026 28135 layer_factory.hpp:77] Creating layer pool3/3x3_s2
I0507 11:54:36.648033 28135 net.cpp:84] Creating Layer pool3/3x3_s2
I0507 11:54:36.648036 28135 net.cpp:406] pool3/3x3_s2 <- inception_3b/output
I0507 11:54:36.648042 28135 net.cpp:380] pool3/3x3_s2 -> pool3/3x3_s2
I0507 11:54:36.648073 28135 net.cpp:122] Setting up pool3/3x3_s2
I0507 11:54:36.648078 28135 net.cpp:129] Top shape: 32 480 14 14 (3010560)
I0507 11:54:36.648082 28135 net.cpp:137] Memory required for data: 1091027456
I0507 11:54:36.648085 28135 layer_factory.hpp:77] Creating layer pool3/3x3_s2_pool3/3x3_s2_0_split
I0507 11:54:36.648094 28135 net.cpp:84] Creating Layer pool3/3x3_s2_pool3/3x3_s2_0_split
I0507 11:54:36.648097 28135 net.cpp:406] pool3/3x3_s2_pool3/3x3_s2_0_split <- pool3/3x3_s2
I0507 11:54:36.648102 28135 net.cpp:380] pool3/3x3_s2_pool3/3x3_s2_0_split -> pool3/3x3_s2_pool3/3x3_s2_0_split_0
I0507 11:54:36.648108 28135 net.cpp:380] pool3/3x3_s2_pool3/3x3_s2_0_split -> pool3/3x3_s2_pool3/3x3_s2_0_split_1
I0507 11:54:36.648114 28135 net.cpp:380] pool3/3x3_s2_pool3/3x3_s2_0_split -> pool3/3x3_s2_pool3/3x3_s2_0_split_2
I0507 11:54:36.648119 28135 net.cpp:380] pool3/3x3_s2_pool3/3x3_s2_0_split -> pool3/3x3_s2_pool3/3x3_s2_0_split_3
I0507 11:54:36.648164 28135 net.cpp:122] Setting up pool3/3x3_s2_pool3/3x3_s2_0_split
I0507 11:54:36.648169 28135 net.cpp:129] Top shape: 32 480 14 14 (3010560)
I0507 11:54:36.648172 28135 net.cpp:129] Top shape: 32 480 14 14 (3010560)
I0507 11:54:36.648176 28135 net.cpp:129] Top shape: 32 480 14 14 (3010560)
I0507 11:54:36.648180 28135 net.cpp:129] Top shape: 32 480 14 14 (3010560)
I0507 11:54:36.648183 28135 net.cpp:137] Memory required for data: 1139196416
I0507 11:54:36.648186 28135 layer_factory.hpp:77] Creating layer inception_4a/1x1
I0507 11:54:36.648195 28135 net.cpp:84] Creating Layer inception_4a/1x1
I0507 11:54:36.648200 28135 net.cpp:406] inception_4a/1x1 <- pool3/3x3_s2_pool3/3x3_s2_0_split_0
I0507 11:54:36.648205 28135 net.cpp:380] inception_4a/1x1 -> inception_4a/1x1
I0507 11:54:36.650542 28135 net.cpp:122] Setting up inception_4a/1x1
I0507 11:54:36.650554 28135 net.cpp:129] Top shape: 32 192 14 14 (1204224)
I0507 11:54:36.650558 28135 net.cpp:137] Memory required for data: 1144013312
I0507 11:54:36.650565 28135 layer_factory.hpp:77] Creating layer inception_4a/relu_1x1
I0507 11:54:36.650574 28135 net.cpp:84] Creating Layer inception_4a/relu_1x1
I0507 11:54:36.650578 28135 net.cpp:406] inception_4a/relu_1x1 <- inception_4a/1x1
I0507 11:54:36.650585 28135 net.cpp:367] inception_4a/relu_1x1 -> inception_4a/1x1 (in-place)
I0507 11:54:36.652880 28135 net.cpp:122] Setting up inception_4a/relu_1x1
I0507 11:54:36.652892 28135 net.cpp:129] Top shape: 32 192 14 14 (1204224)
I0507 11:54:36.652895 28135 net.cpp:137] Memory required for data: 1148830208
I0507 11:54:36.652899 28135 layer_factory.hpp:77] Creating layer inception_4a/3x3_reduce
I0507 11:54:36.652912 28135 net.cpp:84] Creating Layer inception_4a/3x3_reduce
I0507 11:54:36.652917 28135 net.cpp:406] inception_4a/3x3_reduce <- pool3/3x3_s2_pool3/3x3_s2_0_split_1
I0507 11:54:36.652927 28135 net.cpp:380] inception_4a/3x3_reduce -> inception_4a/3x3_reduce
I0507 11:54:36.654772 28135 net.cpp:122] Setting up inception_4a/3x3_reduce
I0507 11:54:36.654788 28135 net.cpp:129] Top shape: 32 96 14 14 (602112)
I0507 11:54:36.654790 28135 net.cpp:137] Memory required for data: 1151238656
I0507 11:54:36.654806 28135 layer_factory.hpp:77] Creating layer inception_4a/relu_3x3_reduce
I0507 11:54:36.654901 28135 net.cpp:84] Creating Layer inception_4a/relu_3x3_reduce
I0507 11:54:36.654909 28135 net.cpp:406] inception_4a/relu_3x3_reduce <- inception_4a/3x3_reduce
I0507 11:54:36.654917 28135 net.cpp:367] inception_4a/relu_3x3_reduce -> inception_4a/3x3_reduce (in-place)
I0507 11:54:36.657877 28135 net.cpp:122] Setting up inception_4a/relu_3x3_reduce
I0507 11:54:36.657893 28135 net.cpp:129] Top shape: 32 96 14 14 (602112)
I0507 11:54:36.657896 28135 net.cpp:137] Memory required for data: 1153647104
I0507 11:54:36.657902 28135 layer_factory.hpp:77] Creating layer inception_4a/3x3
I0507 11:54:36.657917 28135 net.cpp:84] Creating Layer inception_4a/3x3
I0507 11:54:36.657922 28135 net.cpp:406] inception_4a/3x3 <- inception_4a/3x3_reduce
I0507 11:54:36.657932 28135 net.cpp:380] inception_4a/3x3 -> inception_4a/3x3
I0507 11:54:36.661221 28135 net.cpp:122] Setting up inception_4a/3x3
I0507 11:54:36.661238 28135 net.cpp:129] Top shape: 32 208 14 14 (1304576)
I0507 11:54:36.661242 28135 net.cpp:137] Memory required for data: 1158865408
I0507 11:54:36.661252 28135 layer_factory.hpp:77] Creating layer inception_4a/relu_3x3
I0507 11:54:36.661260 28135 net.cpp:84] Creating Layer inception_4a/relu_3x3
I0507 11:54:36.661265 28135 net.cpp:406] inception_4a/relu_3x3 <- inception_4a/3x3
I0507 11:54:36.661273 28135 net.cpp:367] inception_4a/relu_3x3 -> inception_4a/3x3 (in-place)
I0507 11:54:36.661795 28135 net.cpp:122] Setting up inception_4a/relu_3x3
I0507 11:54:36.661806 28135 net.cpp:129] Top shape: 32 208 14 14 (1304576)
I0507 11:54:36.661809 28135 net.cpp:137] Memory required for data: 1164083712
I0507 11:54:36.661813 28135 layer_factory.hpp:77] Creating layer inception_4a/5x5_reduce
I0507 11:54:36.661826 28135 net.cpp:84] Creating Layer inception_4a/5x5_reduce
I0507 11:54:36.661830 28135 net.cpp:406] inception_4a/5x5_reduce <- pool3/3x3_s2_pool3/3x3_s2_0_split_2
I0507 11:54:36.661837 28135 net.cpp:380] inception_4a/5x5_reduce -> inception_4a/5x5_reduce
I0507 11:54:36.663458 28135 net.cpp:122] Setting up inception_4a/5x5_reduce
I0507 11:54:36.663470 28135 net.cpp:129] Top shape: 32 16 14 14 (100352)
I0507 11:54:36.663473 28135 net.cpp:137] Memory required for data: 1164485120
I0507 11:54:36.663481 28135 layer_factory.hpp:77] Creating layer inception_4a/relu_5x5_reduce
I0507 11:54:36.663489 28135 net.cpp:84] Creating Layer inception_4a/relu_5x5_reduce
I0507 11:54:36.663494 28135 net.cpp:406] inception_4a/relu_5x5_reduce <- inception_4a/5x5_reduce
I0507 11:54:36.663499 28135 net.cpp:367] inception_4a/relu_5x5_reduce -> inception_4a/5x5_reduce (in-place)
I0507 11:54:36.664011 28135 net.cpp:122] Setting up inception_4a/relu_5x5_reduce
I0507 11:54:36.664021 28135 net.cpp:129] Top shape: 32 16 14 14 (100352)
I0507 11:54:36.664024 28135 net.cpp:137] Memory required for data: 1164886528
I0507 11:54:36.664028 28135 layer_factory.hpp:77] Creating layer inception_4a/5x5
I0507 11:54:36.664039 28135 net.cpp:84] Creating Layer inception_4a/5x5
I0507 11:54:36.664043 28135 net.cpp:406] inception_4a/5x5 <- inception_4a/5x5_reduce
I0507 11:54:36.664052 28135 net.cpp:380] inception_4a/5x5 -> inception_4a/5x5
I0507 11:54:36.667147 28135 net.cpp:122] Setting up inception_4a/5x5
I0507 11:54:36.667165 28135 net.cpp:129] Top shape: 32 48 14 14 (301056)
I0507 11:54:36.667169 28135 net.cpp:137] Memory required for data: 1166090752
I0507 11:54:36.667179 28135 layer_factory.hpp:77] Creating layer inception_4a/relu_5x5
I0507 11:54:36.667188 28135 net.cpp:84] Creating Layer inception_4a/relu_5x5
I0507 11:54:36.667194 28135 net.cpp:406] inception_4a/relu_5x5 <- inception_4a/5x5
I0507 11:54:36.667202 28135 net.cpp:367] inception_4a/relu_5x5 -> inception_4a/5x5 (in-place)
I0507 11:54:36.667554 28135 net.cpp:122] Setting up inception_4a/relu_5x5
I0507 11:54:36.667562 28135 net.cpp:129] Top shape: 32 48 14 14 (301056)
I0507 11:54:36.667565 28135 net.cpp:137] Memory required for data: 1167294976
I0507 11:54:36.667569 28135 layer_factory.hpp:77] Creating layer inception_4a/pool
I0507 11:54:36.667577 28135 net.cpp:84] Creating Layer inception_4a/pool
I0507 11:54:36.667582 28135 net.cpp:406] inception_4a/pool <- pool3/3x3_s2_pool3/3x3_s2_0_split_3
I0507 11:54:36.667588 28135 net.cpp:380] inception_4a/pool -> inception_4a/pool
I0507 11:54:36.667624 28135 net.cpp:122] Setting up inception_4a/pool
I0507 11:54:36.667649 28135 net.cpp:129] Top shape: 32 480 14 14 (3010560)
I0507 11:54:36.667654 28135 net.cpp:137] Memory required for data: 1179337216
I0507 11:54:36.667656 28135 layer_factory.hpp:77] Creating layer inception_4a/pool_proj
I0507 11:54:36.667667 28135 net.cpp:84] Creating Layer inception_4a/pool_proj
I0507 11:54:36.667671 28135 net.cpp:406] inception_4a/pool_proj <- inception_4a/pool
I0507 11:54:36.667678 28135 net.cpp:380] inception_4a/pool_proj -> inception_4a/pool_proj
I0507 11:54:36.669504 28135 net.cpp:122] Setting up inception_4a/pool_proj
I0507 11:54:36.669515 28135 net.cpp:129] Top shape: 32 64 14 14 (401408)
I0507 11:54:36.669519 28135 net.cpp:137] Memory required for data: 1180942848
I0507 11:54:36.669526 28135 layer_factory.hpp:77] Creating layer inception_4a/relu_pool_proj
I0507 11:54:36.669535 28135 net.cpp:84] Creating Layer inception_4a/relu_pool_proj
I0507 11:54:36.669539 28135 net.cpp:406] inception_4a/relu_pool_proj <- inception_4a/pool_proj
I0507 11:54:36.669544 28135 net.cpp:367] inception_4a/relu_pool_proj -> inception_4a/pool_proj (in-place)
I0507 11:54:36.670059 28135 net.cpp:122] Setting up inception_4a/relu_pool_proj
I0507 11:54:36.670068 28135 net.cpp:129] Top shape: 32 64 14 14 (401408)
I0507 11:54:36.670073 28135 net.cpp:137] Memory required for data: 1182548480
I0507 11:54:36.670076 28135 layer_factory.hpp:77] Creating layer inception_4a/output
I0507 11:54:36.670083 28135 net.cpp:84] Creating Layer inception_4a/output
I0507 11:54:36.670087 28135 net.cpp:406] inception_4a/output <- inception_4a/1x1
I0507 11:54:36.670092 28135 net.cpp:406] inception_4a/output <- inception_4a/3x3
I0507 11:54:36.670096 28135 net.cpp:406] inception_4a/output <- inception_4a/5x5
I0507 11:54:36.670100 28135 net.cpp:406] inception_4a/output <- inception_4a/pool_proj
I0507 11:54:36.670106 28135 net.cpp:380] inception_4a/output -> inception_4a/output
I0507 11:54:36.670135 28135 net.cpp:122] Setting up inception_4a/output
I0507 11:54:36.670140 28135 net.cpp:129] Top shape: 32 512 14 14 (3211264)
I0507 11:54:36.670142 28135 net.cpp:137] Memory required for data: 1195393536
I0507 11:54:36.670146 28135 layer_factory.hpp:77] Creating layer inception_4a/output_inception_4a/output_0_split
I0507 11:54:36.670153 28135 net.cpp:84] Creating Layer inception_4a/output_inception_4a/output_0_split
I0507 11:54:36.670157 28135 net.cpp:406] inception_4a/output_inception_4a/output_0_split <- inception_4a/output
I0507 11:54:36.670163 28135 net.cpp:380] inception_4a/output_inception_4a/output_0_split -> inception_4a/output_inception_4a/output_0_split_0
I0507 11:54:36.670171 28135 net.cpp:380] inception_4a/output_inception_4a/output_0_split -> inception_4a/output_inception_4a/output_0_split_1
I0507 11:54:36.670177 28135 net.cpp:380] inception_4a/output_inception_4a/output_0_split -> inception_4a/output_inception_4a/output_0_split_2
I0507 11:54:36.670184 28135 net.cpp:380] inception_4a/output_inception_4a/output_0_split -> inception_4a/output_inception_4a/output_0_split_3
I0507 11:54:36.670189 28135 net.cpp:380] inception_4a/output_inception_4a/output_0_split -> inception_4a/output_inception_4a/output_0_split_4
I0507 11:54:36.670243 28135 net.cpp:122] Setting up inception_4a/output_inception_4a/output_0_split
I0507 11:54:36.670248 28135 net.cpp:129] Top shape: 32 512 14 14 (3211264)
I0507 11:54:36.670253 28135 net.cpp:129] Top shape: 32 512 14 14 (3211264)
I0507 11:54:36.670256 28135 net.cpp:129] Top shape: 32 512 14 14 (3211264)
I0507 11:54:36.670260 28135 net.cpp:129] Top shape: 32 512 14 14 (3211264)
I0507 11:54:36.670264 28135 net.cpp:129] Top shape: 32 512 14 14 (3211264)
I0507 11:54:36.670266 28135 net.cpp:137] Memory required for data: 1259618816
I0507 11:54:36.670270 28135 layer_factory.hpp:77] Creating layer loss1/ave_pool
I0507 11:54:36.670276 28135 net.cpp:84] Creating Layer loss1/ave_pool
I0507 11:54:36.670280 28135 net.cpp:406] loss1/ave_pool <- inception_4a/output_inception_4a/output_0_split_0
I0507 11:54:36.670289 28135 net.cpp:380] loss1/ave_pool -> loss1/ave_pool
I0507 11:54:36.670682 28135 net.cpp:122] Setting up loss1/ave_pool
I0507 11:54:36.670691 28135 net.cpp:129] Top shape: 32 512 4 4 (262144)
I0507 11:54:36.670696 28135 net.cpp:137] Memory required for data: 1260667392
I0507 11:54:36.670699 28135 layer_factory.hpp:77] Creating layer loss1/conv
I0507 11:54:36.670711 28135 net.cpp:84] Creating Layer loss1/conv
I0507 11:54:36.670716 28135 net.cpp:406] loss1/conv <- loss1/ave_pool
I0507 11:54:36.670722 28135 net.cpp:380] loss1/conv -> loss1/conv
I0507 11:54:36.674096 28135 net.cpp:122] Setting up loss1/conv
I0507 11:54:36.674118 28135 net.cpp:129] Top shape: 32 128 4 4 (65536)
I0507 11:54:36.674122 28135 net.cpp:137] Memory required for data: 1260929536
I0507 11:54:36.674131 28135 layer_factory.hpp:77] Creating layer loss1/relu_conv
I0507 11:54:36.674142 28135 net.cpp:84] Creating Layer loss1/relu_conv
I0507 11:54:36.674147 28135 net.cpp:406] loss1/relu_conv <- loss1/conv
I0507 11:54:36.674154 28135 net.cpp:367] loss1/relu_conv -> loss1/conv (in-place)
I0507 11:54:36.674693 28135 net.cpp:122] Setting up loss1/relu_conv
I0507 11:54:36.674705 28135 net.cpp:129] Top shape: 32 128 4 4 (65536)
I0507 11:54:36.674708 28135 net.cpp:137] Memory required for data: 1261191680
I0507 11:54:36.674712 28135 layer_factory.hpp:77] Creating layer loss1/fc
I0507 11:54:36.674723 28135 net.cpp:84] Creating Layer loss1/fc
I0507 11:54:36.674726 28135 net.cpp:406] loss1/fc <- loss1/conv
I0507 11:54:36.674732 28135 net.cpp:380] loss1/fc -> loss1/fc
I0507 11:54:36.700536 28135 net.cpp:122] Setting up loss1/fc
I0507 11:54:36.700564 28135 net.cpp:129] Top shape: 32 1024 (32768)
I0507 11:54:36.700569 28135 net.cpp:137] Memory required for data: 1261322752
I0507 11:54:36.700583 28135 layer_factory.hpp:77] Creating layer loss1/relu_fc
I0507 11:54:36.700595 28135 net.cpp:84] Creating Layer loss1/relu_fc
I0507 11:54:36.700603 28135 net.cpp:406] loss1/relu_fc <- loss1/fc
I0507 11:54:36.700613 28135 net.cpp:367] loss1/relu_fc -> loss1/fc (in-place)
I0507 11:54:36.701215 28135 net.cpp:122] Setting up loss1/relu_fc
I0507 11:54:36.701226 28135 net.cpp:129] Top shape: 32 1024 (32768)
I0507 11:54:36.701231 28135 net.cpp:137] Memory required for data: 1261453824
I0507 11:54:36.701236 28135 layer_factory.hpp:77] Creating layer loss1/drop_fc
I0507 11:54:36.701263 28135 net.cpp:84] Creating Layer loss1/drop_fc
I0507 11:54:36.701268 28135 net.cpp:406] loss1/drop_fc <- loss1/fc
I0507 11:54:36.701275 28135 net.cpp:367] loss1/drop_fc -> loss1/fc (in-place)
I0507 11:54:36.701310 28135 net.cpp:122] Setting up loss1/drop_fc
I0507 11:54:36.701318 28135 net.cpp:129] Top shape: 32 1024 (32768)
I0507 11:54:36.701323 28135 net.cpp:137] Memory required for data: 1261584896
I0507 11:54:36.701328 28135 layer_factory.hpp:77] Creating layer loss1/classifier
I0507 11:54:36.701337 28135 net.cpp:84] Creating Layer loss1/classifier
I0507 11:54:36.701342 28135 net.cpp:406] loss1/classifier <- loss1/fc
I0507 11:54:36.701350 28135 net.cpp:380] loss1/classifier -> loss1/classifier
I0507 11:54:36.703372 28135 net.cpp:122] Setting up loss1/classifier
I0507 11:54:36.703385 28135 net.cpp:129] Top shape: 32 196 (6272)
I0507 11:54:36.703390 28135 net.cpp:137] Memory required for data: 1261609984
I0507 11:54:36.703399 28135 layer_factory.hpp:77] Creating layer loss1/loss
I0507 11:54:36.703409 28135 net.cpp:84] Creating Layer loss1/loss
I0507 11:54:36.703414 28135 net.cpp:406] loss1/loss <- loss1/classifier
I0507 11:54:36.703421 28135 net.cpp:406] loss1/loss <- label_train-data_1_split_0
I0507 11:54:36.703433 28135 net.cpp:380] loss1/loss -> loss1/loss
I0507 11:54:36.703444 28135 layer_factory.hpp:77] Creating layer loss1/loss
I0507 11:54:36.704373 28135 net.cpp:122] Setting up loss1/loss
I0507 11:54:36.704385 28135 net.cpp:129] Top shape: (1)
I0507 11:54:36.704391 28135 net.cpp:132]     with loss weight 0.3
I0507 11:54:36.704414 28135 net.cpp:137] Memory required for data: 1261609988
I0507 11:54:36.704419 28135 layer_factory.hpp:77] Creating layer inception_4b/1x1
I0507 11:54:36.704437 28135 net.cpp:84] Creating Layer inception_4b/1x1
I0507 11:54:36.704443 28135 net.cpp:406] inception_4b/1x1 <- inception_4a/output_inception_4a/output_0_split_1
I0507 11:54:36.704478 28135 net.cpp:380] inception_4b/1x1 -> inception_4b/1x1
I0507 11:54:36.707656 28135 net.cpp:122] Setting up inception_4b/1x1
I0507 11:54:36.707680 28135 net.cpp:129] Top shape: 32 160 14 14 (1003520)
I0507 11:54:36.707685 28135 net.cpp:137] Memory required for data: 1265624068
I0507 11:54:36.707697 28135 layer_factory.hpp:77] Creating layer inception_4b/relu_1x1
I0507 11:54:36.707710 28135 net.cpp:84] Creating Layer inception_4b/relu_1x1
I0507 11:54:36.707716 28135 net.cpp:406] inception_4b/relu_1x1 <- inception_4b/1x1
I0507 11:54:36.707726 28135 net.cpp:367] inception_4b/relu_1x1 -> inception_4b/1x1 (in-place)
I0507 11:54:36.708453 28135 net.cpp:122] Setting up inception_4b/relu_1x1
I0507 11:54:36.708555 28135 net.cpp:129] Top shape: 32 160 14 14 (1003520)
I0507 11:54:36.708559 28135 net.cpp:137] Memory required for data: 1269638148
I0507 11:54:36.708564 28135 layer_factory.hpp:77] Creating layer inception_4b/3x3_reduce
I0507 11:54:36.708580 28135 net.cpp:84] Creating Layer inception_4b/3x3_reduce
I0507 11:54:36.708586 28135 net.cpp:406] inception_4b/3x3_reduce <- inception_4a/output_inception_4a/output_0_split_2
I0507 11:54:36.708597 28135 net.cpp:380] inception_4b/3x3_reduce -> inception_4b/3x3_reduce
I0507 11:54:36.714432 28135 net.cpp:122] Setting up inception_4b/3x3_reduce
I0507 11:54:36.714453 28135 net.cpp:129] Top shape: 32 112 14 14 (702464)
I0507 11:54:36.714458 28135 net.cpp:137] Memory required for data: 1272448004
I0507 11:54:36.714470 28135 layer_factory.hpp:77] Creating layer inception_4b/relu_3x3_reduce
I0507 11:54:36.714500 28135 net.cpp:84] Creating Layer inception_4b/relu_3x3_reduce
I0507 11:54:36.714507 28135 net.cpp:406] inception_4b/relu_3x3_reduce <- inception_4b/3x3_reduce
I0507 11:54:36.714519 28135 net.cpp:367] inception_4b/relu_3x3_reduce -> inception_4b/3x3_reduce (in-place)
I0507 11:54:36.715057 28135 net.cpp:122] Setting up inception_4b/relu_3x3_reduce
I0507 11:54:36.715070 28135 net.cpp:129] Top shape: 32 112 14 14 (702464)
I0507 11:54:36.715073 28135 net.cpp:137] Memory required for data: 1275257860
I0507 11:54:36.715078 28135 layer_factory.hpp:77] Creating layer inception_4b/3x3
I0507 11:54:36.715095 28135 net.cpp:84] Creating Layer inception_4b/3x3
I0507 11:54:36.715101 28135 net.cpp:406] inception_4b/3x3 <- inception_4b/3x3_reduce
I0507 11:54:36.715109 28135 net.cpp:380] inception_4b/3x3 -> inception_4b/3x3
I0507 11:54:36.721108 28135 net.cpp:122] Setting up inception_4b/3x3
I0507 11:54:36.721130 28135 net.cpp:129] Top shape: 32 224 14 14 (1404928)
I0507 11:54:36.721135 28135 net.cpp:137] Memory required for data: 1280877572
I0507 11:54:36.721148 28135 layer_factory.hpp:77] Creating layer inception_4b/relu_3x3
I0507 11:54:36.721158 28135 net.cpp:84] Creating Layer inception_4b/relu_3x3
I0507 11:54:36.721163 28135 net.cpp:406] inception_4b/relu_3x3 <- inception_4b/3x3
I0507 11:54:36.721172 28135 net.cpp:367] inception_4b/relu_3x3 -> inception_4b/3x3 (in-place)
I0507 11:54:36.721882 28135 net.cpp:122] Setting up inception_4b/relu_3x3
I0507 11:54:36.721894 28135 net.cpp:129] Top shape: 32 224 14 14 (1404928)
I0507 11:54:36.721899 28135 net.cpp:137] Memory required for data: 1286497284
I0507 11:54:36.721904 28135 layer_factory.hpp:77] Creating layer inception_4b/5x5_reduce
I0507 11:54:36.721920 28135 net.cpp:84] Creating Layer inception_4b/5x5_reduce
I0507 11:54:36.721925 28135 net.cpp:406] inception_4b/5x5_reduce <- inception_4a/output_inception_4a/output_0_split_3
I0507 11:54:36.721936 28135 net.cpp:380] inception_4b/5x5_reduce -> inception_4b/5x5_reduce
I0507 11:54:36.724364 28135 net.cpp:122] Setting up inception_4b/5x5_reduce
I0507 11:54:36.724376 28135 net.cpp:129] Top shape: 32 24 14 14 (150528)
I0507 11:54:36.724381 28135 net.cpp:137] Memory required for data: 1287099396
I0507 11:54:36.724390 28135 layer_factory.hpp:77] Creating layer inception_4b/relu_5x5_reduce
I0507 11:54:36.724400 28135 net.cpp:84] Creating Layer inception_4b/relu_5x5_reduce
I0507 11:54:36.724406 28135 net.cpp:406] inception_4b/relu_5x5_reduce <- inception_4b/5x5_reduce
I0507 11:54:36.724436 28135 net.cpp:367] inception_4b/relu_5x5_reduce -> inception_4b/5x5_reduce (in-place)
I0507 11:54:36.725153 28135 net.cpp:122] Setting up inception_4b/relu_5x5_reduce
I0507 11:54:36.725168 28135 net.cpp:129] Top shape: 32 24 14 14 (150528)
I0507 11:54:36.725173 28135 net.cpp:137] Memory required for data: 1287701508
I0507 11:54:36.725178 28135 layer_factory.hpp:77] Creating layer inception_4b/5x5
I0507 11:54:36.725191 28135 net.cpp:84] Creating Layer inception_4b/5x5
I0507 11:54:36.725198 28135 net.cpp:406] inception_4b/5x5 <- inception_4b/5x5_reduce
I0507 11:54:36.725208 28135 net.cpp:380] inception_4b/5x5 -> inception_4b/5x5
I0507 11:54:36.731099 28135 net.cpp:122] Setting up inception_4b/5x5
I0507 11:54:36.731118 28135 net.cpp:129] Top shape: 32 64 14 14 (401408)
I0507 11:54:36.731123 28135 net.cpp:137] Memory required for data: 1289307140
I0507 11:54:36.731135 28135 layer_factory.hpp:77] Creating layer inception_4b/relu_5x5
I0507 11:54:36.731145 28135 net.cpp:84] Creating Layer inception_4b/relu_5x5
I0507 11:54:36.731153 28135 net.cpp:406] inception_4b/relu_5x5 <- inception_4b/5x5
I0507 11:54:36.731163 28135 net.cpp:367] inception_4b/relu_5x5 -> inception_4b/5x5 (in-place)
I0507 11:54:36.731822 28135 net.cpp:122] Setting up inception_4b/relu_5x5
I0507 11:54:36.731835 28135 net.cpp:129] Top shape: 32 64 14 14 (401408)
I0507 11:54:36.731840 28135 net.cpp:137] Memory required for data: 1290912772
I0507 11:54:36.731845 28135 layer_factory.hpp:77] Creating layer inception_4b/pool
I0507 11:54:36.731854 28135 net.cpp:84] Creating Layer inception_4b/pool
I0507 11:54:36.731860 28135 net.cpp:406] inception_4b/pool <- inception_4a/output_inception_4a/output_0_split_4
I0507 11:54:36.731870 28135 net.cpp:380] inception_4b/pool -> inception_4b/pool
I0507 11:54:36.731936 28135 net.cpp:122] Setting up inception_4b/pool
I0507 11:54:36.731945 28135 net.cpp:129] Top shape: 32 512 14 14 (3211264)
I0507 11:54:36.731948 28135 net.cpp:137] Memory required for data: 1303757828
I0507 11:54:36.731953 28135 layer_factory.hpp:77] Creating layer inception_4b/pool_proj
I0507 11:54:36.731967 28135 net.cpp:84] Creating Layer inception_4b/pool_proj
I0507 11:54:36.731972 28135 net.cpp:406] inception_4b/pool_proj <- inception_4b/pool
I0507 11:54:36.731981 28135 net.cpp:380] inception_4b/pool_proj -> inception_4b/pool_proj
I0507 11:54:36.734468 28135 net.cpp:122] Setting up inception_4b/pool_proj
I0507 11:54:36.734498 28135 net.cpp:129] Top shape: 32 64 14 14 (401408)
I0507 11:54:36.734503 28135 net.cpp:137] Memory required for data: 1305363460
I0507 11:54:36.734513 28135 layer_factory.hpp:77] Creating layer inception_4b/relu_pool_proj
I0507 11:54:36.734522 28135 net.cpp:84] Creating Layer inception_4b/relu_pool_proj
I0507 11:54:36.734529 28135 net.cpp:406] inception_4b/relu_pool_proj <- inception_4b/pool_proj
I0507 11:54:36.734535 28135 net.cpp:367] inception_4b/relu_pool_proj -> inception_4b/pool_proj (in-place)
I0507 11:54:36.735256 28135 net.cpp:122] Setting up inception_4b/relu_pool_proj
I0507 11:54:36.735268 28135 net.cpp:129] Top shape: 32 64 14 14 (401408)
I0507 11:54:36.735273 28135 net.cpp:137] Memory required for data: 1306969092
I0507 11:54:36.735278 28135 layer_factory.hpp:77] Creating layer inception_4b/output
I0507 11:54:36.735289 28135 net.cpp:84] Creating Layer inception_4b/output
I0507 11:54:36.735294 28135 net.cpp:406] inception_4b/output <- inception_4b/1x1
I0507 11:54:36.735301 28135 net.cpp:406] inception_4b/output <- inception_4b/3x3
I0507 11:54:36.735306 28135 net.cpp:406] inception_4b/output <- inception_4b/5x5
I0507 11:54:36.735312 28135 net.cpp:406] inception_4b/output <- inception_4b/pool_proj
I0507 11:54:36.735319 28135 net.cpp:380] inception_4b/output -> inception_4b/output
I0507 11:54:36.735355 28135 net.cpp:122] Setting up inception_4b/output
I0507 11:54:36.735363 28135 net.cpp:129] Top shape: 32 512 14 14 (3211264)
I0507 11:54:36.735368 28135 net.cpp:137] Memory required for data: 1319814148
I0507 11:54:36.735373 28135 layer_factory.hpp:77] Creating layer inception_4b/output_inception_4b/output_0_split
I0507 11:54:36.735405 28135 net.cpp:84] Creating Layer inception_4b/output_inception_4b/output_0_split
I0507 11:54:36.735410 28135 net.cpp:406] inception_4b/output_inception_4b/output_0_split <- inception_4b/output
I0507 11:54:36.735419 28135 net.cpp:380] inception_4b/output_inception_4b/output_0_split -> inception_4b/output_inception_4b/output_0_split_0
I0507 11:54:36.735427 28135 net.cpp:380] inception_4b/output_inception_4b/output_0_split -> inception_4b/output_inception_4b/output_0_split_1
I0507 11:54:36.735437 28135 net.cpp:380] inception_4b/output_inception_4b/output_0_split -> inception_4b/output_inception_4b/output_0_split_2
I0507 11:54:36.735446 28135 net.cpp:380] inception_4b/output_inception_4b/output_0_split -> inception_4b/output_inception_4b/output_0_split_3
I0507 11:54:36.735518 28135 net.cpp:122] Setting up inception_4b/output_inception_4b/output_0_split
I0507 11:54:36.735527 28135 net.cpp:129] Top shape: 32 512 14 14 (3211264)
I0507 11:54:36.735532 28135 net.cpp:129] Top shape: 32 512 14 14 (3211264)
I0507 11:54:36.735538 28135 net.cpp:129] Top shape: 32 512 14 14 (3211264)
I0507 11:54:36.735543 28135 net.cpp:129] Top shape: 32 512 14 14 (3211264)
I0507 11:54:36.735548 28135 net.cpp:137] Memory required for data: 1371194372
I0507 11:54:36.735553 28135 layer_factory.hpp:77] Creating layer inception_4c/1x1
I0507 11:54:36.735565 28135 net.cpp:84] Creating Layer inception_4c/1x1
I0507 11:54:36.735570 28135 net.cpp:406] inception_4c/1x1 <- inception_4b/output_inception_4b/output_0_split_0
I0507 11:54:36.735579 28135 net.cpp:380] inception_4c/1x1 -> inception_4c/1x1
I0507 11:54:36.740273 28135 net.cpp:122] Setting up inception_4c/1x1
I0507 11:54:36.740291 28135 net.cpp:129] Top shape: 32 128 14 14 (802816)
I0507 11:54:36.740296 28135 net.cpp:137] Memory required for data: 1374405636
I0507 11:54:36.740308 28135 layer_factory.hpp:77] Creating layer inception_4c/relu_1x1
I0507 11:54:36.740320 28135 net.cpp:84] Creating Layer inception_4c/relu_1x1
I0507 11:54:36.740326 28135 net.cpp:406] inception_4c/relu_1x1 <- inception_4c/1x1
I0507 11:54:36.740334 28135 net.cpp:367] inception_4c/relu_1x1 -> inception_4c/1x1 (in-place)
I0507 11:54:36.740864 28135 net.cpp:122] Setting up inception_4c/relu_1x1
I0507 11:54:36.740876 28135 net.cpp:129] Top shape: 32 128 14 14 (802816)
I0507 11:54:36.740880 28135 net.cpp:137] Memory required for data: 1377616900
I0507 11:54:36.740886 28135 layer_factory.hpp:77] Creating layer inception_4c/3x3_reduce
I0507 11:54:36.740900 28135 net.cpp:84] Creating Layer inception_4c/3x3_reduce
I0507 11:54:36.740906 28135 net.cpp:406] inception_4c/3x3_reduce <- inception_4b/output_inception_4b/output_0_split_1
I0507 11:54:36.740916 28135 net.cpp:380] inception_4c/3x3_reduce -> inception_4c/3x3_reduce
I0507 11:54:36.743971 28135 net.cpp:122] Setting up inception_4c/3x3_reduce
I0507 11:54:36.743986 28135 net.cpp:129] Top shape: 32 128 14 14 (802816)
I0507 11:54:36.743991 28135 net.cpp:137] Memory required for data: 1380828164
I0507 11:54:36.744001 28135 layer_factory.hpp:77] Creating layer inception_4c/relu_3x3_reduce
I0507 11:54:36.744009 28135 net.cpp:84] Creating Layer inception_4c/relu_3x3_reduce
I0507 11:54:36.744015 28135 net.cpp:406] inception_4c/relu_3x3_reduce <- inception_4c/3x3_reduce
I0507 11:54:36.744022 28135 net.cpp:367] inception_4c/relu_3x3_reduce -> inception_4c/3x3_reduce (in-place)
I0507 11:54:36.744745 28135 net.cpp:122] Setting up inception_4c/relu_3x3_reduce
I0507 11:54:36.744756 28135 net.cpp:129] Top shape: 32 128 14 14 (802816)
I0507 11:54:36.744761 28135 net.cpp:137] Memory required for data: 1384039428
I0507 11:54:36.744767 28135 layer_factory.hpp:77] Creating layer inception_4c/3x3
I0507 11:54:36.744781 28135 net.cpp:84] Creating Layer inception_4c/3x3
I0507 11:54:36.744786 28135 net.cpp:406] inception_4c/3x3 <- inception_4c/3x3_reduce
I0507 11:54:36.744797 28135 net.cpp:380] inception_4c/3x3 -> inception_4c/3x3
I0507 11:54:36.752293 28135 net.cpp:122] Setting up inception_4c/3x3
I0507 11:54:36.752313 28135 net.cpp:129] Top shape: 32 256 14 14 (1605632)
I0507 11:54:36.752346 28135 net.cpp:137] Memory required for data: 1390461956
I0507 11:54:36.752372 28135 layer_factory.hpp:77] Creating layer inception_4c/relu_3x3
I0507 11:54:36.752383 28135 net.cpp:84] Creating Layer inception_4c/relu_3x3
I0507 11:54:36.752389 28135 net.cpp:406] inception_4c/relu_3x3 <- inception_4c/3x3
I0507 11:54:36.752398 28135 net.cpp:367] inception_4c/relu_3x3 -> inception_4c/3x3 (in-place)
I0507 11:54:36.753118 28135 net.cpp:122] Setting up inception_4c/relu_3x3
I0507 11:54:36.753131 28135 net.cpp:129] Top shape: 32 256 14 14 (1605632)
I0507 11:54:36.753135 28135 net.cpp:137] Memory required for data: 1396884484
I0507 11:54:36.753141 28135 layer_factory.hpp:77] Creating layer inception_4c/5x5_reduce
I0507 11:54:36.753155 28135 net.cpp:84] Creating Layer inception_4c/5x5_reduce
I0507 11:54:36.753161 28135 net.cpp:406] inception_4c/5x5_reduce <- inception_4b/output_inception_4b/output_0_split_2
I0507 11:54:36.753171 28135 net.cpp:380] inception_4c/5x5_reduce -> inception_4c/5x5_reduce
I0507 11:54:36.757205 28135 net.cpp:122] Setting up inception_4c/5x5_reduce
I0507 11:54:36.757222 28135 net.cpp:129] Top shape: 32 24 14 14 (150528)
I0507 11:54:36.757228 28135 net.cpp:137] Memory required for data: 1397486596
I0507 11:54:36.757239 28135 layer_factory.hpp:77] Creating layer inception_4c/relu_5x5_reduce
I0507 11:54:36.757249 28135 net.cpp:84] Creating Layer inception_4c/relu_5x5_reduce
I0507 11:54:36.757256 28135 net.cpp:406] inception_4c/relu_5x5_reduce <- inception_4c/5x5_reduce
I0507 11:54:36.757266 28135 net.cpp:367] inception_4c/relu_5x5_reduce -> inception_4c/5x5_reduce (in-place)
I0507 11:54:36.757998 28135 net.cpp:122] Setting up inception_4c/relu_5x5_reduce
I0507 11:54:36.758011 28135 net.cpp:129] Top shape: 32 24 14 14 (150528)
I0507 11:54:36.758016 28135 net.cpp:137] Memory required for data: 1398088708
I0507 11:54:36.758021 28135 layer_factory.hpp:77] Creating layer inception_4c/5x5
I0507 11:54:36.758044 28135 net.cpp:84] Creating Layer inception_4c/5x5
I0507 11:54:36.758050 28135 net.cpp:406] inception_4c/5x5 <- inception_4c/5x5_reduce
I0507 11:54:36.758064 28135 net.cpp:380] inception_4c/5x5 -> inception_4c/5x5
I0507 11:54:36.760855 28135 net.cpp:122] Setting up inception_4c/5x5
I0507 11:54:36.760869 28135 net.cpp:129] Top shape: 32 64 14 14 (401408)
I0507 11:54:36.760874 28135 net.cpp:137] Memory required for data: 1399694340
I0507 11:54:36.760884 28135 layer_factory.hpp:77] Creating layer inception_4c/relu_5x5
I0507 11:54:36.760895 28135 net.cpp:84] Creating Layer inception_4c/relu_5x5
I0507 11:54:36.760900 28135 net.cpp:406] inception_4c/relu_5x5 <- inception_4c/5x5
I0507 11:54:36.760908 28135 net.cpp:367] inception_4c/relu_5x5 -> inception_4c/5x5 (in-place)
I0507 11:54:36.761657 28135 net.cpp:122] Setting up inception_4c/relu_5x5
I0507 11:54:36.761670 28135 net.cpp:129] Top shape: 32 64 14 14 (401408)
I0507 11:54:36.761675 28135 net.cpp:137] Memory required for data: 1401299972
I0507 11:54:36.761682 28135 layer_factory.hpp:77] Creating layer inception_4c/pool
I0507 11:54:36.761694 28135 net.cpp:84] Creating Layer inception_4c/pool
I0507 11:54:36.761701 28135 net.cpp:406] inception_4c/pool <- inception_4b/output_inception_4b/output_0_split_3
I0507 11:54:36.761713 28135 net.cpp:380] inception_4c/pool -> inception_4c/pool
I0507 11:54:36.761775 28135 net.cpp:122] Setting up inception_4c/pool
I0507 11:54:36.761785 28135 net.cpp:129] Top shape: 32 512 14 14 (3211264)
I0507 11:54:36.761788 28135 net.cpp:137] Memory required for data: 1414145028
I0507 11:54:36.761793 28135 layer_factory.hpp:77] Creating layer inception_4c/pool_proj
I0507 11:54:36.761807 28135 net.cpp:84] Creating Layer inception_4c/pool_proj
I0507 11:54:36.761812 28135 net.cpp:406] inception_4c/pool_proj <- inception_4c/pool
I0507 11:54:36.761824 28135 net.cpp:380] inception_4c/pool_proj -> inception_4c/pool_proj
I0507 11:54:36.766362 28135 net.cpp:122] Setting up inception_4c/pool_proj
I0507 11:54:36.766381 28135 net.cpp:129] Top shape: 32 64 14 14 (401408)
I0507 11:54:36.766386 28135 net.cpp:137] Memory required for data: 1415750660
I0507 11:54:36.766424 28135 layer_factory.hpp:77] Creating layer inception_4c/relu_pool_proj
I0507 11:54:36.766436 28135 net.cpp:84] Creating Layer inception_4c/relu_pool_proj
I0507 11:54:36.766443 28135 net.cpp:406] inception_4c/relu_pool_proj <- inception_4c/pool_proj
I0507 11:54:36.766451 28135 net.cpp:367] inception_4c/relu_pool_proj -> inception_4c/pool_proj (in-place)
I0507 11:54:36.767004 28135 net.cpp:122] Setting up inception_4c/relu_pool_proj
I0507 11:54:36.767017 28135 net.cpp:129] Top shape: 32 64 14 14 (401408)
I0507 11:54:36.767022 28135 net.cpp:137] Memory required for data: 1417356292
I0507 11:54:36.767029 28135 layer_factory.hpp:77] Creating layer inception_4c/output
I0507 11:54:36.767037 28135 net.cpp:84] Creating Layer inception_4c/output
I0507 11:54:36.767042 28135 net.cpp:406] inception_4c/output <- inception_4c/1x1
I0507 11:54:36.767050 28135 net.cpp:406] inception_4c/output <- inception_4c/3x3
I0507 11:54:36.767055 28135 net.cpp:406] inception_4c/output <- inception_4c/5x5
I0507 11:54:36.767061 28135 net.cpp:406] inception_4c/output <- inception_4c/pool_proj
I0507 11:54:36.767069 28135 net.cpp:380] inception_4c/output -> inception_4c/output
I0507 11:54:36.767103 28135 net.cpp:122] Setting up inception_4c/output
I0507 11:54:36.767113 28135 net.cpp:129] Top shape: 32 512 14 14 (3211264)
I0507 11:54:36.767117 28135 net.cpp:137] Memory required for data: 1430201348
I0507 11:54:36.767122 28135 layer_factory.hpp:77] Creating layer inception_4c/output_inception_4c/output_0_split
I0507 11:54:36.767132 28135 net.cpp:84] Creating Layer inception_4c/output_inception_4c/output_0_split
I0507 11:54:36.767136 28135 net.cpp:406] inception_4c/output_inception_4c/output_0_split <- inception_4c/output
I0507 11:54:36.767148 28135 net.cpp:380] inception_4c/output_inception_4c/output_0_split -> inception_4c/output_inception_4c/output_0_split_0
I0507 11:54:36.767158 28135 net.cpp:380] inception_4c/output_inception_4c/output_0_split -> inception_4c/output_inception_4c/output_0_split_1
I0507 11:54:36.767166 28135 net.cpp:380] inception_4c/output_inception_4c/output_0_split -> inception_4c/output_inception_4c/output_0_split_2
I0507 11:54:36.767174 28135 net.cpp:380] inception_4c/output_inception_4c/output_0_split -> inception_4c/output_inception_4c/output_0_split_3
I0507 11:54:36.767246 28135 net.cpp:122] Setting up inception_4c/output_inception_4c/output_0_split
I0507 11:54:36.767253 28135 net.cpp:129] Top shape: 32 512 14 14 (3211264)
I0507 11:54:36.767259 28135 net.cpp:129] Top shape: 32 512 14 14 (3211264)
I0507 11:54:36.767266 28135 net.cpp:129] Top shape: 32 512 14 14 (3211264)
I0507 11:54:36.767271 28135 net.cpp:129] Top shape: 32 512 14 14 (3211264)
I0507 11:54:36.767275 28135 net.cpp:137] Memory required for data: 1481581572
I0507 11:54:36.767280 28135 layer_factory.hpp:77] Creating layer inception_4d/1x1
I0507 11:54:36.767295 28135 net.cpp:84] Creating Layer inception_4d/1x1
I0507 11:54:36.767302 28135 net.cpp:406] inception_4d/1x1 <- inception_4c/output_inception_4c/output_0_split_0
I0507 11:54:36.767309 28135 net.cpp:380] inception_4d/1x1 -> inception_4d/1x1
I0507 11:54:36.770308 28135 net.cpp:122] Setting up inception_4d/1x1
I0507 11:54:36.770321 28135 net.cpp:129] Top shape: 32 112 14 14 (702464)
I0507 11:54:36.770326 28135 net.cpp:137] Memory required for data: 1484391428
I0507 11:54:36.770334 28135 layer_factory.hpp:77] Creating layer inception_4d/relu_1x1
I0507 11:54:36.770344 28135 net.cpp:84] Creating Layer inception_4d/relu_1x1
I0507 11:54:36.770349 28135 net.cpp:406] inception_4d/relu_1x1 <- inception_4d/1x1
I0507 11:54:36.770359 28135 net.cpp:367] inception_4d/relu_1x1 -> inception_4d/1x1 (in-place)
I0507 11:54:36.770898 28135 net.cpp:122] Setting up inception_4d/relu_1x1
I0507 11:54:36.770910 28135 net.cpp:129] Top shape: 32 112 14 14 (702464)
I0507 11:54:36.770915 28135 net.cpp:137] Memory required for data: 1487201284
I0507 11:54:36.770920 28135 layer_factory.hpp:77] Creating layer inception_4d/3x3_reduce
I0507 11:54:36.770933 28135 net.cpp:84] Creating Layer inception_4d/3x3_reduce
I0507 11:54:36.770951 28135 net.cpp:406] inception_4d/3x3_reduce <- inception_4c/output_inception_4c/output_0_split_1
I0507 11:54:36.770963 28135 net.cpp:380] inception_4d/3x3_reduce -> inception_4d/3x3_reduce
I0507 11:54:36.774142 28135 net.cpp:122] Setting up inception_4d/3x3_reduce
I0507 11:54:36.774158 28135 net.cpp:129] Top shape: 32 144 14 14 (903168)
I0507 11:54:36.774163 28135 net.cpp:137] Memory required for data: 1490813956
I0507 11:54:36.774173 28135 layer_factory.hpp:77] Creating layer inception_4d/relu_3x3_reduce
I0507 11:54:36.774181 28135 net.cpp:84] Creating Layer inception_4d/relu_3x3_reduce
I0507 11:54:36.774188 28135 net.cpp:406] inception_4d/relu_3x3_reduce <- inception_4d/3x3_reduce
I0507 11:54:36.774194 28135 net.cpp:367] inception_4d/relu_3x3_reduce -> inception_4d/3x3_reduce (in-place)
I0507 11:54:36.775118 28135 net.cpp:122] Setting up inception_4d/relu_3x3_reduce
I0507 11:54:36.775131 28135 net.cpp:129] Top shape: 32 144 14 14 (903168)
I0507 11:54:36.775136 28135 net.cpp:137] Memory required for data: 1494426628
I0507 11:54:36.775141 28135 layer_factory.hpp:77] Creating layer inception_4d/3x3
I0507 11:54:36.775156 28135 net.cpp:84] Creating Layer inception_4d/3x3
I0507 11:54:36.775162 28135 net.cpp:406] inception_4d/3x3 <- inception_4d/3x3_reduce
I0507 11:54:36.775171 28135 net.cpp:380] inception_4d/3x3 -> inception_4d/3x3
I0507 11:54:36.785174 28135 net.cpp:122] Setting up inception_4d/3x3
I0507 11:54:36.785197 28135 net.cpp:129] Top shape: 32 288 14 14 (1806336)
I0507 11:54:36.785202 28135 net.cpp:137] Memory required for data: 1501651972
I0507 11:54:36.785213 28135 layer_factory.hpp:77] Creating layer inception_4d/relu_3x3
I0507 11:54:36.785226 28135 net.cpp:84] Creating Layer inception_4d/relu_3x3
I0507 11:54:36.785233 28135 net.cpp:406] inception_4d/relu_3x3 <- inception_4d/3x3
I0507 11:54:36.785243 28135 net.cpp:367] inception_4d/relu_3x3 -> inception_4d/3x3 (in-place)
I0507 11:54:36.785962 28135 net.cpp:122] Setting up inception_4d/relu_3x3
I0507 11:54:36.785974 28135 net.cpp:129] Top shape: 32 288 14 14 (1806336)
I0507 11:54:36.785979 28135 net.cpp:137] Memory required for data: 1508877316
I0507 11:54:36.785984 28135 layer_factory.hpp:77] Creating layer inception_4d/5x5_reduce
I0507 11:54:36.786000 28135 net.cpp:84] Creating Layer inception_4d/5x5_reduce
I0507 11:54:36.786006 28135 net.cpp:406] inception_4d/5x5_reduce <- inception_4c/output_inception_4c/output_0_split_2
I0507 11:54:36.786016 28135 net.cpp:380] inception_4d/5x5_reduce -> inception_4d/5x5_reduce
I0507 11:54:36.788456 28135 net.cpp:122] Setting up inception_4d/5x5_reduce
I0507 11:54:36.788470 28135 net.cpp:129] Top shape: 32 32 14 14 (200704)
I0507 11:54:36.788475 28135 net.cpp:137] Memory required for data: 1509680132
I0507 11:54:36.788486 28135 layer_factory.hpp:77] Creating layer inception_4d/relu_5x5_reduce
I0507 11:54:36.788496 28135 net.cpp:84] Creating Layer inception_4d/relu_5x5_reduce
I0507 11:54:36.788501 28135 net.cpp:406] inception_4d/relu_5x5_reduce <- inception_4d/5x5_reduce
I0507 11:54:36.788511 28135 net.cpp:367] inception_4d/relu_5x5_reduce -> inception_4d/5x5_reduce (in-place)
I0507 11:54:36.789232 28135 net.cpp:122] Setting up inception_4d/relu_5x5_reduce
I0507 11:54:36.789244 28135 net.cpp:129] Top shape: 32 32 14 14 (200704)
I0507 11:54:36.789248 28135 net.cpp:137] Memory required for data: 1510482948
I0507 11:54:36.789254 28135 layer_factory.hpp:77] Creating layer inception_4d/5x5
I0507 11:54:36.789269 28135 net.cpp:84] Creating Layer inception_4d/5x5
I0507 11:54:36.789275 28135 net.cpp:406] inception_4d/5x5 <- inception_4d/5x5_reduce
I0507 11:54:36.789284 28135 net.cpp:380] inception_4d/5x5 -> inception_4d/5x5
I0507 11:54:36.791963 28135 net.cpp:122] Setting up inception_4d/5x5
I0507 11:54:36.791980 28135 net.cpp:129] Top shape: 32 64 14 14 (401408)
I0507 11:54:36.791985 28135 net.cpp:137] Memory required for data: 1512088580
I0507 11:54:36.791994 28135 layer_factory.hpp:77] Creating layer inception_4d/relu_5x5
I0507 11:54:36.792006 28135 net.cpp:84] Creating Layer inception_4d/relu_5x5
I0507 11:54:36.792035 28135 net.cpp:406] inception_4d/relu_5x5 <- inception_4d/5x5
I0507 11:54:36.792045 28135 net.cpp:367] inception_4d/relu_5x5 -> inception_4d/5x5 (in-place)
I0507 11:54:36.795027 28135 net.cpp:122] Setting up inception_4d/relu_5x5
I0507 11:54:36.795047 28135 net.cpp:129] Top shape: 32 64 14 14 (401408)
I0507 11:54:36.795053 28135 net.cpp:137] Memory required for data: 1513694212
I0507 11:54:36.795060 28135 layer_factory.hpp:77] Creating layer inception_4d/pool
I0507 11:54:36.795075 28135 net.cpp:84] Creating Layer inception_4d/pool
I0507 11:54:36.795083 28135 net.cpp:406] inception_4d/pool <- inception_4c/output_inception_4c/output_0_split_3
I0507 11:54:36.795094 28135 net.cpp:380] inception_4d/pool -> inception_4d/pool
I0507 11:54:36.795163 28135 net.cpp:122] Setting up inception_4d/pool
I0507 11:54:36.795173 28135 net.cpp:129] Top shape: 32 512 14 14 (3211264)
I0507 11:54:36.795179 28135 net.cpp:137] Memory required for data: 1526539268
I0507 11:54:36.795184 28135 layer_factory.hpp:77] Creating layer inception_4d/pool_proj
I0507 11:54:36.795199 28135 net.cpp:84] Creating Layer inception_4d/pool_proj
I0507 11:54:36.795205 28135 net.cpp:406] inception_4d/pool_proj <- inception_4d/pool
I0507 11:54:36.795214 28135 net.cpp:380] inception_4d/pool_proj -> inception_4d/pool_proj
I0507 11:54:36.798116 28135 net.cpp:122] Setting up inception_4d/pool_proj
I0507 11:54:36.798133 28135 net.cpp:129] Top shape: 32 64 14 14 (401408)
I0507 11:54:36.798138 28135 net.cpp:137] Memory required for data: 1528144900
I0507 11:54:36.798151 28135 layer_factory.hpp:77] Creating layer inception_4d/relu_pool_proj
I0507 11:54:36.798161 28135 net.cpp:84] Creating Layer inception_4d/relu_pool_proj
I0507 11:54:36.798167 28135 net.cpp:406] inception_4d/relu_pool_proj <- inception_4d/pool_proj
I0507 11:54:36.798177 28135 net.cpp:367] inception_4d/relu_pool_proj -> inception_4d/pool_proj (in-place)
I0507 11:54:36.798732 28135 net.cpp:122] Setting up inception_4d/relu_pool_proj
I0507 11:54:36.798744 28135 net.cpp:129] Top shape: 32 64 14 14 (401408)
I0507 11:54:36.798749 28135 net.cpp:137] Memory required for data: 1529750532
I0507 11:54:36.798754 28135 layer_factory.hpp:77] Creating layer inception_4d/output
I0507 11:54:36.798766 28135 net.cpp:84] Creating Layer inception_4d/output
I0507 11:54:36.798771 28135 net.cpp:406] inception_4d/output <- inception_4d/1x1
I0507 11:54:36.798779 28135 net.cpp:406] inception_4d/output <- inception_4d/3x3
I0507 11:54:36.798784 28135 net.cpp:406] inception_4d/output <- inception_4d/5x5
I0507 11:54:36.798790 28135 net.cpp:406] inception_4d/output <- inception_4d/pool_proj
I0507 11:54:36.798797 28135 net.cpp:380] inception_4d/output -> inception_4d/output
I0507 11:54:36.798837 28135 net.cpp:122] Setting up inception_4d/output
I0507 11:54:36.798846 28135 net.cpp:129] Top shape: 32 528 14 14 (3311616)
I0507 11:54:36.798851 28135 net.cpp:137] Memory required for data: 1542996996
I0507 11:54:36.798854 28135 layer_factory.hpp:77] Creating layer inception_4d/output_inception_4d/output_0_split
I0507 11:54:36.798864 28135 net.cpp:84] Creating Layer inception_4d/output_inception_4d/output_0_split
I0507 11:54:36.798869 28135 net.cpp:406] inception_4d/output_inception_4d/output_0_split <- inception_4d/output
I0507 11:54:36.798878 28135 net.cpp:380] inception_4d/output_inception_4d/output_0_split -> inception_4d/output_inception_4d/output_0_split_0
I0507 11:54:36.798889 28135 net.cpp:380] inception_4d/output_inception_4d/output_0_split -> inception_4d/output_inception_4d/output_0_split_1
I0507 11:54:36.798898 28135 net.cpp:380] inception_4d/output_inception_4d/output_0_split -> inception_4d/output_inception_4d/output_0_split_2
I0507 11:54:36.798907 28135 net.cpp:380] inception_4d/output_inception_4d/output_0_split -> inception_4d/output_inception_4d/output_0_split_3
I0507 11:54:36.798916 28135 net.cpp:380] inception_4d/output_inception_4d/output_0_split -> inception_4d/output_inception_4d/output_0_split_4
I0507 11:54:36.799002 28135 net.cpp:122] Setting up inception_4d/output_inception_4d/output_0_split
I0507 11:54:36.799039 28135 net.cpp:129] Top shape: 32 528 14 14 (3311616)
I0507 11:54:36.799047 28135 net.cpp:129] Top shape: 32 528 14 14 (3311616)
I0507 11:54:36.799053 28135 net.cpp:129] Top shape: 32 528 14 14 (3311616)
I0507 11:54:36.799059 28135 net.cpp:129] Top shape: 32 528 14 14 (3311616)
I0507 11:54:36.799065 28135 net.cpp:129] Top shape: 32 528 14 14 (3311616)
I0507 11:54:36.799070 28135 net.cpp:137] Memory required for data: 1609229316
I0507 11:54:36.799075 28135 layer_factory.hpp:77] Creating layer loss2/ave_pool
I0507 11:54:36.799085 28135 net.cpp:84] Creating Layer loss2/ave_pool
I0507 11:54:36.799091 28135 net.cpp:406] loss2/ave_pool <- inception_4d/output_inception_4d/output_0_split_0
I0507 11:54:36.799099 28135 net.cpp:380] loss2/ave_pool -> loss2/ave_pool
I0507 11:54:36.799901 28135 net.cpp:122] Setting up loss2/ave_pool
I0507 11:54:36.799913 28135 net.cpp:129] Top shape: 32 528 4 4 (270336)
I0507 11:54:36.799918 28135 net.cpp:137] Memory required for data: 1610310660
I0507 11:54:36.799924 28135 layer_factory.hpp:77] Creating layer loss2/conv
I0507 11:54:36.799939 28135 net.cpp:84] Creating Layer loss2/conv
I0507 11:54:36.799945 28135 net.cpp:406] loss2/conv <- loss2/ave_pool
I0507 11:54:36.799957 28135 net.cpp:380] loss2/conv -> loss2/conv
I0507 11:54:36.807896 28135 net.cpp:122] Setting up loss2/conv
I0507 11:54:36.807924 28135 net.cpp:129] Top shape: 32 128 4 4 (65536)
I0507 11:54:36.807929 28135 net.cpp:137] Memory required for data: 1610572804
I0507 11:54:36.807942 28135 layer_factory.hpp:77] Creating layer loss2/relu_conv
I0507 11:54:36.807955 28135 net.cpp:84] Creating Layer loss2/relu_conv
I0507 11:54:36.807961 28135 net.cpp:406] loss2/relu_conv <- loss2/conv
I0507 11:54:36.807971 28135 net.cpp:367] loss2/relu_conv -> loss2/conv (in-place)
I0507 11:54:36.808506 28135 net.cpp:122] Setting up loss2/relu_conv
I0507 11:54:36.808517 28135 net.cpp:129] Top shape: 32 128 4 4 (65536)
I0507 11:54:36.808522 28135 net.cpp:137] Memory required for data: 1610834948
I0507 11:54:36.808527 28135 layer_factory.hpp:77] Creating layer loss2/fc
I0507 11:54:36.808540 28135 net.cpp:84] Creating Layer loss2/fc
I0507 11:54:36.808545 28135 net.cpp:406] loss2/fc <- loss2/conv
I0507 11:54:36.808554 28135 net.cpp:380] loss2/fc -> loss2/fc
I0507 11:54:36.831423 28135 net.cpp:122] Setting up loss2/fc
I0507 11:54:36.831449 28135 net.cpp:129] Top shape: 32 1024 (32768)
I0507 11:54:36.831454 28135 net.cpp:137] Memory required for data: 1610966020
I0507 11:54:36.831468 28135 layer_factory.hpp:77] Creating layer loss2/relu_fc
I0507 11:54:36.831480 28135 net.cpp:84] Creating Layer loss2/relu_fc
I0507 11:54:36.831490 28135 net.cpp:406] loss2/relu_fc <- loss2/fc
I0507 11:54:36.831499 28135 net.cpp:367] loss2/relu_fc -> loss2/fc (in-place)
I0507 11:54:36.834434 28135 net.cpp:122] Setting up loss2/relu_fc
I0507 11:54:36.834455 28135 net.cpp:129] Top shape: 32 1024 (32768)
I0507 11:54:36.834460 28135 net.cpp:137] Memory required for data: 1611097092
I0507 11:54:36.834467 28135 layer_factory.hpp:77] Creating layer loss2/drop_fc
I0507 11:54:36.834501 28135 net.cpp:84] Creating Layer loss2/drop_fc
I0507 11:54:36.834512 28135 net.cpp:406] loss2/drop_fc <- loss2/fc
I0507 11:54:36.834525 28135 net.cpp:367] loss2/drop_fc -> loss2/fc (in-place)
I0507 11:54:36.834573 28135 net.cpp:122] Setting up loss2/drop_fc
I0507 11:54:36.834583 28135 net.cpp:129] Top shape: 32 1024 (32768)
I0507 11:54:36.834587 28135 net.cpp:137] Memory required for data: 1611228164
I0507 11:54:36.834592 28135 layer_factory.hpp:77] Creating layer loss2/classifier
I0507 11:54:36.834604 28135 net.cpp:84] Creating Layer loss2/classifier
I0507 11:54:36.834609 28135 net.cpp:406] loss2/classifier <- loss2/fc
I0507 11:54:36.834617 28135 net.cpp:380] loss2/classifier -> loss2/classifier
I0507 11:54:36.837541 28135 net.cpp:122] Setting up loss2/classifier
I0507 11:54:36.837556 28135 net.cpp:129] Top shape: 32 196 (6272)
I0507 11:54:36.837561 28135 net.cpp:137] Memory required for data: 1611253252
I0507 11:54:36.837572 28135 layer_factory.hpp:77] Creating layer loss2/loss
I0507 11:54:36.837608 28135 net.cpp:84] Creating Layer loss2/loss
I0507 11:54:36.837615 28135 net.cpp:406] loss2/loss <- loss2/classifier
I0507 11:54:36.837622 28135 net.cpp:406] loss2/loss <- label_train-data_1_split_1
I0507 11:54:36.837632 28135 net.cpp:380] loss2/loss -> loss2/loss
I0507 11:54:36.837644 28135 layer_factory.hpp:77] Creating layer loss2/loss
I0507 11:54:36.838554 28135 net.cpp:122] Setting up loss2/loss
I0507 11:54:36.838567 28135 net.cpp:129] Top shape: (1)
I0507 11:54:36.838572 28135 net.cpp:132]     with loss weight 0.3
I0507 11:54:36.838588 28135 net.cpp:137] Memory required for data: 1611253256
I0507 11:54:36.838593 28135 layer_factory.hpp:77] Creating layer inception_4e/1x1
I0507 11:54:36.838609 28135 net.cpp:84] Creating Layer inception_4e/1x1
I0507 11:54:36.838616 28135 net.cpp:406] inception_4e/1x1 <- inception_4d/output_inception_4d/output_0_split_1
I0507 11:54:36.838625 28135 net.cpp:380] inception_4e/1x1 -> inception_4e/1x1
I0507 11:54:36.843955 28135 net.cpp:122] Setting up inception_4e/1x1
I0507 11:54:36.843981 28135 net.cpp:129] Top shape: 32 256 14 14 (1605632)
I0507 11:54:36.843986 28135 net.cpp:137] Memory required for data: 1617675784
I0507 11:54:36.843998 28135 layer_factory.hpp:77] Creating layer inception_4e/relu_1x1
I0507 11:54:36.844010 28135 net.cpp:84] Creating Layer inception_4e/relu_1x1
I0507 11:54:36.844018 28135 net.cpp:406] inception_4e/relu_1x1 <- inception_4e/1x1
I0507 11:54:36.844029 28135 net.cpp:367] inception_4e/relu_1x1 -> inception_4e/1x1 (in-place)
I0507 11:54:36.844803 28135 net.cpp:122] Setting up inception_4e/relu_1x1
I0507 11:54:36.844816 28135 net.cpp:129] Top shape: 32 256 14 14 (1605632)
I0507 11:54:36.844821 28135 net.cpp:137] Memory required for data: 1624098312
I0507 11:54:36.844826 28135 layer_factory.hpp:77] Creating layer inception_4e/3x3_reduce
I0507 11:54:36.844843 28135 net.cpp:84] Creating Layer inception_4e/3x3_reduce
I0507 11:54:36.844849 28135 net.cpp:406] inception_4e/3x3_reduce <- inception_4d/output_inception_4d/output_0_split_2
I0507 11:54:36.844861 28135 net.cpp:380] inception_4e/3x3_reduce -> inception_4e/3x3_reduce
I0507 11:54:36.848001 28135 net.cpp:122] Setting up inception_4e/3x3_reduce
I0507 11:54:36.848026 28135 net.cpp:129] Top shape: 32 160 14 14 (1003520)
I0507 11:54:36.848031 28135 net.cpp:137] Memory required for data: 1628112392
I0507 11:54:36.848044 28135 layer_factory.hpp:77] Creating layer inception_4e/relu_3x3_reduce
I0507 11:54:36.848055 28135 net.cpp:84] Creating Layer inception_4e/relu_3x3_reduce
I0507 11:54:36.848062 28135 net.cpp:406] inception_4e/relu_3x3_reduce <- inception_4e/3x3_reduce
I0507 11:54:36.848071 28135 net.cpp:367] inception_4e/relu_3x3_reduce -> inception_4e/3x3_reduce (in-place)
I0507 11:54:36.848814 28135 net.cpp:122] Setting up inception_4e/relu_3x3_reduce
I0507 11:54:36.848829 28135 net.cpp:129] Top shape: 32 160 14 14 (1003520)
I0507 11:54:36.848832 28135 net.cpp:137] Memory required for data: 1632126472
I0507 11:54:36.848839 28135 layer_factory.hpp:77] Creating layer inception_4e/3x3
I0507 11:54:36.848855 28135 net.cpp:84] Creating Layer inception_4e/3x3
I0507 11:54:36.848860 28135 net.cpp:406] inception_4e/3x3 <- inception_4e/3x3_reduce
I0507 11:54:36.848966 28135 net.cpp:380] inception_4e/3x3 -> inception_4e/3x3
I0507 11:54:36.861701 28135 net.cpp:122] Setting up inception_4e/3x3
I0507 11:54:36.861732 28135 net.cpp:129] Top shape: 32 320 14 14 (2007040)
I0507 11:54:36.861737 28135 net.cpp:137] Memory required for data: 1640154632
I0507 11:54:36.861752 28135 layer_factory.hpp:77] Creating layer inception_4e/relu_3x3
I0507 11:54:36.861763 28135 net.cpp:84] Creating Layer inception_4e/relu_3x3
I0507 11:54:36.861771 28135 net.cpp:406] inception_4e/relu_3x3 <- inception_4e/3x3
I0507 11:54:36.861783 28135 net.cpp:367] inception_4e/relu_3x3 -> inception_4e/3x3 (in-place)
I0507 11:54:36.862326 28135 net.cpp:122] Setting up inception_4e/relu_3x3
I0507 11:54:36.862340 28135 net.cpp:129] Top shape: 32 320 14 14 (2007040)
I0507 11:54:36.862345 28135 net.cpp:137] Memory required for data: 1648182792
I0507 11:54:36.862377 28135 layer_factory.hpp:77] Creating layer inception_4e/5x5_reduce
I0507 11:54:36.862396 28135 net.cpp:84] Creating Layer inception_4e/5x5_reduce
I0507 11:54:36.862401 28135 net.cpp:406] inception_4e/5x5_reduce <- inception_4d/output_inception_4d/output_0_split_3
I0507 11:54:36.862413 28135 net.cpp:380] inception_4e/5x5_reduce -> inception_4e/5x5_reduce
I0507 11:54:36.866447 28135 net.cpp:122] Setting up inception_4e/5x5_reduce
I0507 11:54:36.866466 28135 net.cpp:129] Top shape: 32 32 14 14 (200704)
I0507 11:54:36.866472 28135 net.cpp:137] Memory required for data: 1648985608
I0507 11:54:36.866508 28135 layer_factory.hpp:77] Creating layer inception_4e/relu_5x5_reduce
I0507 11:54:36.866520 28135 net.cpp:84] Creating Layer inception_4e/relu_5x5_reduce
I0507 11:54:36.866528 28135 net.cpp:406] inception_4e/relu_5x5_reduce <- inception_4e/5x5_reduce
I0507 11:54:36.866534 28135 net.cpp:367] inception_4e/relu_5x5_reduce -> inception_4e/5x5_reduce (in-place)
I0507 11:54:36.867318 28135 net.cpp:122] Setting up inception_4e/relu_5x5_reduce
I0507 11:54:36.867332 28135 net.cpp:129] Top shape: 32 32 14 14 (200704)
I0507 11:54:36.867337 28135 net.cpp:137] Memory required for data: 1649788424
I0507 11:54:36.867342 28135 layer_factory.hpp:77] Creating layer inception_4e/5x5
I0507 11:54:36.867393 28135 net.cpp:84] Creating Layer inception_4e/5x5
I0507 11:54:36.867399 28135 net.cpp:406] inception_4e/5x5 <- inception_4e/5x5_reduce
I0507 11:54:36.867408 28135 net.cpp:380] inception_4e/5x5 -> inception_4e/5x5
I0507 11:54:36.883641 28135 net.cpp:122] Setting up inception_4e/5x5
I0507 11:54:36.883666 28135 net.cpp:129] Top shape: 32 128 14 14 (802816)
I0507 11:54:36.883671 28135 net.cpp:137] Memory required for data: 1652999688
I0507 11:54:36.883687 28135 layer_factory.hpp:77] Creating layer inception_4e/relu_5x5
I0507 11:54:36.883700 28135 net.cpp:84] Creating Layer inception_4e/relu_5x5
I0507 11:54:36.883708 28135 net.cpp:406] inception_4e/relu_5x5 <- inception_4e/5x5
I0507 11:54:36.883716 28135 net.cpp:367] inception_4e/relu_5x5 -> inception_4e/5x5 (in-place)
I0507 11:54:36.884492 28135 net.cpp:122] Setting up inception_4e/relu_5x5
I0507 11:54:36.884505 28135 net.cpp:129] Top shape: 32 128 14 14 (802816)
I0507 11:54:36.884510 28135 net.cpp:137] Memory required for data: 1656210952
I0507 11:54:36.884516 28135 layer_factory.hpp:77] Creating layer inception_4e/pool
I0507 11:54:36.884527 28135 net.cpp:84] Creating Layer inception_4e/pool
I0507 11:54:36.884533 28135 net.cpp:406] inception_4e/pool <- inception_4d/output_inception_4d/output_0_split_4
I0507 11:54:36.884542 28135 net.cpp:380] inception_4e/pool -> inception_4e/pool
I0507 11:54:36.884603 28135 net.cpp:122] Setting up inception_4e/pool
I0507 11:54:36.884610 28135 net.cpp:129] Top shape: 32 528 14 14 (3311616)
I0507 11:54:36.884615 28135 net.cpp:137] Memory required for data: 1669457416
I0507 11:54:36.884619 28135 layer_factory.hpp:77] Creating layer inception_4e/pool_proj
I0507 11:54:36.884635 28135 net.cpp:84] Creating Layer inception_4e/pool_proj
I0507 11:54:36.884640 28135 net.cpp:406] inception_4e/pool_proj <- inception_4e/pool
I0507 11:54:36.884650 28135 net.cpp:380] inception_4e/pool_proj -> inception_4e/pool_proj
I0507 11:54:36.888666 28135 net.cpp:122] Setting up inception_4e/pool_proj
I0507 11:54:36.888686 28135 net.cpp:129] Top shape: 32 128 14 14 (802816)
I0507 11:54:36.888692 28135 net.cpp:137] Memory required for data: 1672668680
I0507 11:54:36.888703 28135 layer_factory.hpp:77] Creating layer inception_4e/relu_pool_proj
I0507 11:54:36.888715 28135 net.cpp:84] Creating Layer inception_4e/relu_pool_proj
I0507 11:54:36.888720 28135 net.cpp:406] inception_4e/relu_pool_proj <- inception_4e/pool_proj
I0507 11:54:36.888727 28135 net.cpp:367] inception_4e/relu_pool_proj -> inception_4e/pool_proj (in-place)
I0507 11:54:36.889466 28135 net.cpp:122] Setting up inception_4e/relu_pool_proj
I0507 11:54:36.889477 28135 net.cpp:129] Top shape: 32 128 14 14 (802816)
I0507 11:54:36.889484 28135 net.cpp:137] Memory required for data: 1675879944
I0507 11:54:36.889490 28135 layer_factory.hpp:77] Creating layer inception_4e/output
I0507 11:54:36.889524 28135 net.cpp:84] Creating Layer inception_4e/output
I0507 11:54:36.889530 28135 net.cpp:406] inception_4e/output <- inception_4e/1x1
I0507 11:54:36.889536 28135 net.cpp:406] inception_4e/output <- inception_4e/3x3
I0507 11:54:36.889542 28135 net.cpp:406] inception_4e/output <- inception_4e/5x5
I0507 11:54:36.889549 28135 net.cpp:406] inception_4e/output <- inception_4e/pool_proj
I0507 11:54:36.889555 28135 net.cpp:380] inception_4e/output -> inception_4e/output
I0507 11:54:36.889595 28135 net.cpp:122] Setting up inception_4e/output
I0507 11:54:36.889602 28135 net.cpp:129] Top shape: 32 832 14 14 (5218304)
I0507 11:54:36.889606 28135 net.cpp:137] Memory required for data: 1696753160
I0507 11:54:36.889611 28135 layer_factory.hpp:77] Creating layer pool4/3x3_s2
I0507 11:54:36.889621 28135 net.cpp:84] Creating Layer pool4/3x3_s2
I0507 11:54:36.889626 28135 net.cpp:406] pool4/3x3_s2 <- inception_4e/output
I0507 11:54:36.889633 28135 net.cpp:380] pool4/3x3_s2 -> pool4/3x3_s2
I0507 11:54:36.889681 28135 net.cpp:122] Setting up pool4/3x3_s2
I0507 11:54:36.889688 28135 net.cpp:129] Top shape: 32 832 7 7 (1304576)
I0507 11:54:36.889693 28135 net.cpp:137] Memory required for data: 1701971464
I0507 11:54:36.889698 28135 layer_factory.hpp:77] Creating layer pool4/3x3_s2_pool4/3x3_s2_0_split
I0507 11:54:36.889705 28135 net.cpp:84] Creating Layer pool4/3x3_s2_pool4/3x3_s2_0_split
I0507 11:54:36.889710 28135 net.cpp:406] pool4/3x3_s2_pool4/3x3_s2_0_split <- pool4/3x3_s2
I0507 11:54:36.889719 28135 net.cpp:380] pool4/3x3_s2_pool4/3x3_s2_0_split -> pool4/3x3_s2_pool4/3x3_s2_0_split_0
I0507 11:54:36.889729 28135 net.cpp:380] pool4/3x3_s2_pool4/3x3_s2_0_split -> pool4/3x3_s2_pool4/3x3_s2_0_split_1
I0507 11:54:36.889736 28135 net.cpp:380] pool4/3x3_s2_pool4/3x3_s2_0_split -> pool4/3x3_s2_pool4/3x3_s2_0_split_2
I0507 11:54:36.889744 28135 net.cpp:380] pool4/3x3_s2_pool4/3x3_s2_0_split -> pool4/3x3_s2_pool4/3x3_s2_0_split_3
I0507 11:54:36.889811 28135 net.cpp:122] Setting up pool4/3x3_s2_pool4/3x3_s2_0_split
I0507 11:54:36.889817 28135 net.cpp:129] Top shape: 32 832 7 7 (1304576)
I0507 11:54:36.889823 28135 net.cpp:129] Top shape: 32 832 7 7 (1304576)
I0507 11:54:36.889829 28135 net.cpp:129] Top shape: 32 832 7 7 (1304576)
I0507 11:54:36.889834 28135 net.cpp:129] Top shape: 32 832 7 7 (1304576)
I0507 11:54:36.889838 28135 net.cpp:137] Memory required for data: 1722844680
I0507 11:54:36.889843 28135 layer_factory.hpp:77] Creating layer inception_5a/1x1
I0507 11:54:36.889858 28135 net.cpp:84] Creating Layer inception_5a/1x1
I0507 11:54:36.889863 28135 net.cpp:406] inception_5a/1x1 <- pool4/3x3_s2_pool4/3x3_s2_0_split_0
I0507 11:54:36.889873 28135 net.cpp:380] inception_5a/1x1 -> inception_5a/1x1
I0507 11:54:36.894263 28135 net.cpp:122] Setting up inception_5a/1x1
I0507 11:54:36.894282 28135 net.cpp:129] Top shape: 32 256 7 7 (401408)
I0507 11:54:36.894287 28135 net.cpp:137] Memory required for data: 1724450312
I0507 11:54:36.894299 28135 layer_factory.hpp:77] Creating layer inception_5a/relu_1x1
I0507 11:54:36.894309 28135 net.cpp:84] Creating Layer inception_5a/relu_1x1
I0507 11:54:36.894315 28135 net.cpp:406] inception_5a/relu_1x1 <- inception_5a/1x1
I0507 11:54:36.894325 28135 net.cpp:367] inception_5a/relu_1x1 -> inception_5a/1x1 (in-place)
I0507 11:54:36.895217 28135 net.cpp:122] Setting up inception_5a/relu_1x1
I0507 11:54:36.895231 28135 net.cpp:129] Top shape: 32 256 7 7 (401408)
I0507 11:54:36.895236 28135 net.cpp:137] Memory required for data: 1726055944
I0507 11:54:36.895241 28135 layer_factory.hpp:77] Creating layer inception_5a/3x3_reduce
I0507 11:54:36.895257 28135 net.cpp:84] Creating Layer inception_5a/3x3_reduce
I0507 11:54:36.895263 28135 net.cpp:406] inception_5a/3x3_reduce <- pool4/3x3_s2_pool4/3x3_s2_0_split_1
I0507 11:54:36.895274 28135 net.cpp:380] inception_5a/3x3_reduce -> inception_5a/3x3_reduce
I0507 11:54:36.904772 28135 net.cpp:122] Setting up inception_5a/3x3_reduce
I0507 11:54:36.904793 28135 net.cpp:129] Top shape: 32 160 7 7 (250880)
I0507 11:54:36.904824 28135 net.cpp:137] Memory required for data: 1727059464
I0507 11:54:36.904835 28135 layer_factory.hpp:77] Creating layer inception_5a/relu_3x3_reduce
I0507 11:54:36.904848 28135 net.cpp:84] Creating Layer inception_5a/relu_3x3_reduce
I0507 11:54:36.904855 28135 net.cpp:406] inception_5a/relu_3x3_reduce <- inception_5a/3x3_reduce
I0507 11:54:36.904865 28135 net.cpp:367] inception_5a/relu_3x3_reduce -> inception_5a/3x3_reduce (in-place)
I0507 11:54:36.905391 28135 net.cpp:122] Setting up inception_5a/relu_3x3_reduce
I0507 11:54:36.905405 28135 net.cpp:129] Top shape: 32 160 7 7 (250880)
I0507 11:54:36.905408 28135 net.cpp:137] Memory required for data: 1728062984
I0507 11:54:36.905414 28135 layer_factory.hpp:77] Creating layer inception_5a/3x3
I0507 11:54:36.905429 28135 net.cpp:84] Creating Layer inception_5a/3x3
I0507 11:54:36.905434 28135 net.cpp:406] inception_5a/3x3 <- inception_5a/3x3_reduce
I0507 11:54:36.905443 28135 net.cpp:380] inception_5a/3x3 -> inception_5a/3x3
I0507 11:54:36.913249 28135 net.cpp:122] Setting up inception_5a/3x3
I0507 11:54:36.913271 28135 net.cpp:129] Top shape: 32 320 7 7 (501760)
I0507 11:54:36.913276 28135 net.cpp:137] Memory required for data: 1730070024
I0507 11:54:36.913290 28135 layer_factory.hpp:77] Creating layer inception_5a/relu_3x3
I0507 11:54:36.913303 28135 net.cpp:84] Creating Layer inception_5a/relu_3x3
I0507 11:54:36.913311 28135 net.cpp:406] inception_5a/relu_3x3 <- inception_5a/3x3
I0507 11:54:36.913321 28135 net.cpp:367] inception_5a/relu_3x3 -> inception_5a/3x3 (in-place)
I0507 11:54:36.914055 28135 net.cpp:122] Setting up inception_5a/relu_3x3
I0507 11:54:36.914067 28135 net.cpp:129] Top shape: 32 320 7 7 (501760)
I0507 11:54:36.914072 28135 net.cpp:137] Memory required for data: 1732077064
I0507 11:54:36.914077 28135 layer_factory.hpp:77] Creating layer inception_5a/5x5_reduce
I0507 11:54:36.914094 28135 net.cpp:84] Creating Layer inception_5a/5x5_reduce
I0507 11:54:36.914100 28135 net.cpp:406] inception_5a/5x5_reduce <- pool4/3x3_s2_pool4/3x3_s2_0_split_2
I0507 11:54:36.914110 28135 net.cpp:380] inception_5a/5x5_reduce -> inception_5a/5x5_reduce
I0507 11:54:36.924624 28135 net.cpp:122] Setting up inception_5a/5x5_reduce
I0507 11:54:36.924649 28135 net.cpp:129] Top shape: 32 32 7 7 (50176)
I0507 11:54:36.924654 28135 net.cpp:137] Memory required for data: 1732277768
I0507 11:54:36.924669 28135 layer_factory.hpp:77] Creating layer inception_5a/relu_5x5_reduce
I0507 11:54:36.924681 28135 net.cpp:84] Creating Layer inception_5a/relu_5x5_reduce
I0507 11:54:36.924688 28135 net.cpp:406] inception_5a/relu_5x5_reduce <- inception_5a/5x5_reduce
I0507 11:54:36.924701 28135 net.cpp:367] inception_5a/relu_5x5_reduce -> inception_5a/5x5_reduce (in-place)
I0507 11:54:36.950246 28135 net.cpp:122] Setting up inception_5a/relu_5x5_reduce
I0507 11:54:36.950274 28135 net.cpp:129] Top shape: 32 32 7 7 (50176)
I0507 11:54:36.950279 28135 net.cpp:137] Memory required for data: 1732478472
I0507 11:54:36.950286 28135 layer_factory.hpp:77] Creating layer inception_5a/5x5
I0507 11:54:36.950309 28135 net.cpp:84] Creating Layer inception_5a/5x5
I0507 11:54:36.950316 28135 net.cpp:406] inception_5a/5x5 <- inception_5a/5x5_reduce
I0507 11:54:36.950330 28135 net.cpp:380] inception_5a/5x5 -> inception_5a/5x5
I0507 11:54:36.963563 28135 net.cpp:122] Setting up inception_5a/5x5
I0507 11:54:36.963589 28135 net.cpp:129] Top shape: 32 128 7 7 (200704)
I0507 11:54:36.963594 28135 net.cpp:137] Memory required for data: 1733281288
I0507 11:54:36.963608 28135 layer_factory.hpp:77] Creating layer inception_5a/relu_5x5
I0507 11:54:36.963620 28135 net.cpp:84] Creating Layer inception_5a/relu_5x5
I0507 11:54:36.963627 28135 net.cpp:406] inception_5a/relu_5x5 <- inception_5a/5x5
I0507 11:54:36.963640 28135 net.cpp:367] inception_5a/relu_5x5 -> inception_5a/5x5 (in-place)
I0507 11:54:36.965378 28135 net.cpp:122] Setting up inception_5a/relu_5x5
I0507 11:54:36.965392 28135 net.cpp:129] Top shape: 32 128 7 7 (200704)
I0507 11:54:36.965397 28135 net.cpp:137] Memory required for data: 1734084104
I0507 11:54:36.965431 28135 layer_factory.hpp:77] Creating layer inception_5a/pool
I0507 11:54:36.965445 28135 net.cpp:84] Creating Layer inception_5a/pool
I0507 11:54:36.965452 28135 net.cpp:406] inception_5a/pool <- pool4/3x3_s2_pool4/3x3_s2_0_split_3
I0507 11:54:36.965461 28135 net.cpp:380] inception_5a/pool -> inception_5a/pool
I0507 11:54:36.965524 28135 net.cpp:122] Setting up inception_5a/pool
I0507 11:54:36.965533 28135 net.cpp:129] Top shape: 32 832 7 7 (1304576)
I0507 11:54:36.965538 28135 net.cpp:137] Memory required for data: 1739302408
I0507 11:54:36.965543 28135 layer_factory.hpp:77] Creating layer inception_5a/pool_proj
I0507 11:54:36.965559 28135 net.cpp:84] Creating Layer inception_5a/pool_proj
I0507 11:54:36.965564 28135 net.cpp:406] inception_5a/pool_proj <- inception_5a/pool
I0507 11:54:36.965574 28135 net.cpp:380] inception_5a/pool_proj -> inception_5a/pool_proj
I0507 11:54:36.970260 28135 net.cpp:122] Setting up inception_5a/pool_proj
I0507 11:54:36.970288 28135 net.cpp:129] Top shape: 32 128 7 7 (200704)
I0507 11:54:36.970293 28135 net.cpp:137] Memory required for data: 1740105224
I0507 11:54:36.970305 28135 layer_factory.hpp:77] Creating layer inception_5a/relu_pool_proj
I0507 11:54:36.970319 28135 net.cpp:84] Creating Layer inception_5a/relu_pool_proj
I0507 11:54:36.970326 28135 net.cpp:406] inception_5a/relu_pool_proj <- inception_5a/pool_proj
I0507 11:54:36.970337 28135 net.cpp:367] inception_5a/relu_pool_proj -> inception_5a/pool_proj (in-place)
I0507 11:54:36.971745 28135 net.cpp:122] Setting up inception_5a/relu_pool_proj
I0507 11:54:36.971760 28135 net.cpp:129] Top shape: 32 128 7 7 (200704)
I0507 11:54:36.971763 28135 net.cpp:137] Memory required for data: 1740908040
I0507 11:54:36.971768 28135 layer_factory.hpp:77] Creating layer inception_5a/output
I0507 11:54:36.971776 28135 net.cpp:84] Creating Layer inception_5a/output
I0507 11:54:36.971781 28135 net.cpp:406] inception_5a/output <- inception_5a/1x1
I0507 11:54:36.971786 28135 net.cpp:406] inception_5a/output <- inception_5a/3x3
I0507 11:54:36.971791 28135 net.cpp:406] inception_5a/output <- inception_5a/5x5
I0507 11:54:36.971794 28135 net.cpp:406] inception_5a/output <- inception_5a/pool_proj
I0507 11:54:36.971801 28135 net.cpp:380] inception_5a/output -> inception_5a/output
I0507 11:54:36.971835 28135 net.cpp:122] Setting up inception_5a/output
I0507 11:54:36.971840 28135 net.cpp:129] Top shape: 32 832 7 7 (1304576)
I0507 11:54:36.971844 28135 net.cpp:137] Memory required for data: 1746126344
I0507 11:54:36.971848 28135 layer_factory.hpp:77] Creating layer inception_5a/output_inception_5a/output_0_split
I0507 11:54:36.971856 28135 net.cpp:84] Creating Layer inception_5a/output_inception_5a/output_0_split
I0507 11:54:36.971860 28135 net.cpp:406] inception_5a/output_inception_5a/output_0_split <- inception_5a/output
I0507 11:54:36.971866 28135 net.cpp:380] inception_5a/output_inception_5a/output_0_split -> inception_5a/output_inception_5a/output_0_split_0
I0507 11:54:36.971875 28135 net.cpp:380] inception_5a/output_inception_5a/output_0_split -> inception_5a/output_inception_5a/output_0_split_1
I0507 11:54:36.971881 28135 net.cpp:380] inception_5a/output_inception_5a/output_0_split -> inception_5a/output_inception_5a/output_0_split_2
I0507 11:54:36.971887 28135 net.cpp:380] inception_5a/output_inception_5a/output_0_split -> inception_5a/output_inception_5a/output_0_split_3
I0507 11:54:36.971944 28135 net.cpp:122] Setting up inception_5a/output_inception_5a/output_0_split
I0507 11:54:36.971951 28135 net.cpp:129] Top shape: 32 832 7 7 (1304576)
I0507 11:54:36.971954 28135 net.cpp:129] Top shape: 32 832 7 7 (1304576)
I0507 11:54:36.971958 28135 net.cpp:129] Top shape: 32 832 7 7 (1304576)
I0507 11:54:36.971962 28135 net.cpp:129] Top shape: 32 832 7 7 (1304576)
I0507 11:54:36.971966 28135 net.cpp:137] Memory required for data: 1766999560
I0507 11:54:36.971969 28135 layer_factory.hpp:77] Creating layer inception_5b/1x1
I0507 11:54:36.971983 28135 net.cpp:84] Creating Layer inception_5b/1x1
I0507 11:54:36.971987 28135 net.cpp:406] inception_5b/1x1 <- inception_5a/output_inception_5a/output_0_split_0
I0507 11:54:36.972014 28135 net.cpp:380] inception_5b/1x1 -> inception_5b/1x1
I0507 11:54:36.979715 28135 net.cpp:122] Setting up inception_5b/1x1
I0507 11:54:36.979737 28135 net.cpp:129] Top shape: 32 384 7 7 (602112)
I0507 11:54:36.979741 28135 net.cpp:137] Memory required for data: 1769408008
I0507 11:54:36.979753 28135 layer_factory.hpp:77] Creating layer inception_5b/relu_1x1
I0507 11:54:36.979763 28135 net.cpp:84] Creating Layer inception_5b/relu_1x1
I0507 11:54:36.979768 28135 net.cpp:406] inception_5b/relu_1x1 <- inception_5b/1x1
I0507 11:54:36.979776 28135 net.cpp:367] inception_5b/relu_1x1 -> inception_5b/1x1 (in-place)
I0507 11:54:36.980167 28135 net.cpp:122] Setting up inception_5b/relu_1x1
I0507 11:54:36.980176 28135 net.cpp:129] Top shape: 32 384 7 7 (602112)
I0507 11:54:36.980180 28135 net.cpp:137] Memory required for data: 1771816456
I0507 11:54:36.980185 28135 layer_factory.hpp:77] Creating layer inception_5b/3x3_reduce
I0507 11:54:36.980198 28135 net.cpp:84] Creating Layer inception_5b/3x3_reduce
I0507 11:54:36.980202 28135 net.cpp:406] inception_5b/3x3_reduce <- inception_5a/output_inception_5a/output_0_split_1
I0507 11:54:36.980211 28135 net.cpp:380] inception_5b/3x3_reduce -> inception_5b/3x3_reduce
I0507 11:54:36.983716 28135 net.cpp:122] Setting up inception_5b/3x3_reduce
I0507 11:54:36.983734 28135 net.cpp:129] Top shape: 32 192 7 7 (301056)
I0507 11:54:36.983738 28135 net.cpp:137] Memory required for data: 1773020680
I0507 11:54:36.983747 28135 layer_factory.hpp:77] Creating layer inception_5b/relu_3x3_reduce
I0507 11:54:36.983754 28135 net.cpp:84] Creating Layer inception_5b/relu_3x3_reduce
I0507 11:54:36.983759 28135 net.cpp:406] inception_5b/relu_3x3_reduce <- inception_5b/3x3_reduce
I0507 11:54:36.983765 28135 net.cpp:367] inception_5b/relu_3x3_reduce -> inception_5b/3x3_reduce (in-place)
I0507 11:54:36.984144 28135 net.cpp:122] Setting up inception_5b/relu_3x3_reduce
I0507 11:54:36.984153 28135 net.cpp:129] Top shape: 32 192 7 7 (301056)
I0507 11:54:36.984156 28135 net.cpp:137] Memory required for data: 1774224904
I0507 11:54:36.984160 28135 layer_factory.hpp:77] Creating layer inception_5b/3x3
I0507 11:54:36.984171 28135 net.cpp:84] Creating Layer inception_5b/3x3
I0507 11:54:36.984175 28135 net.cpp:406] inception_5b/3x3 <- inception_5b/3x3_reduce
I0507 11:54:36.984182 28135 net.cpp:380] inception_5b/3x3 -> inception_5b/3x3
I0507 11:54:36.994191 28135 net.cpp:122] Setting up inception_5b/3x3
I0507 11:54:36.994215 28135 net.cpp:129] Top shape: 32 384 7 7 (602112)
I0507 11:54:36.994220 28135 net.cpp:137] Memory required for data: 1776633352
I0507 11:54:36.994230 28135 layer_factory.hpp:77] Creating layer inception_5b/relu_3x3
I0507 11:54:36.994242 28135 net.cpp:84] Creating Layer inception_5b/relu_3x3
I0507 11:54:36.994248 28135 net.cpp:406] inception_5b/relu_3x3 <- inception_5b/3x3
I0507 11:54:36.994256 28135 net.cpp:367] inception_5b/relu_3x3 -> inception_5b/3x3 (in-place)
I0507 11:54:36.994839 28135 net.cpp:122] Setting up inception_5b/relu_3x3
I0507 11:54:36.994858 28135 net.cpp:129] Top shape: 32 384 7 7 (602112)
I0507 11:54:36.994863 28135 net.cpp:137] Memory required for data: 1779041800
I0507 11:54:36.994866 28135 layer_factory.hpp:77] Creating layer inception_5b/5x5_reduce
I0507 11:54:36.994879 28135 net.cpp:84] Creating Layer inception_5b/5x5_reduce
I0507 11:54:36.994884 28135 net.cpp:406] inception_5b/5x5_reduce <- inception_5a/output_inception_5a/output_0_split_2
I0507 11:54:36.994890 28135 net.cpp:380] inception_5b/5x5_reduce -> inception_5b/5x5_reduce
I0507 11:54:36.996738 28135 net.cpp:122] Setting up inception_5b/5x5_reduce
I0507 11:54:36.996752 28135 net.cpp:129] Top shape: 32 48 7 7 (75264)
I0507 11:54:36.996755 28135 net.cpp:137] Memory required for data: 1779342856
I0507 11:54:36.996762 28135 layer_factory.hpp:77] Creating layer inception_5b/relu_5x5_reduce
I0507 11:54:36.996771 28135 net.cpp:84] Creating Layer inception_5b/relu_5x5_reduce
I0507 11:54:36.996775 28135 net.cpp:406] inception_5b/relu_5x5_reduce <- inception_5b/5x5_reduce
I0507 11:54:36.996803 28135 net.cpp:367] inception_5b/relu_5x5_reduce -> inception_5b/5x5_reduce (in-place)
I0507 11:54:36.997417 28135 net.cpp:122] Setting up inception_5b/relu_5x5_reduce
I0507 11:54:36.997427 28135 net.cpp:129] Top shape: 32 48 7 7 (75264)
I0507 11:54:36.997431 28135 net.cpp:137] Memory required for data: 1779643912
I0507 11:54:36.997434 28135 layer_factory.hpp:77] Creating layer inception_5b/5x5
I0507 11:54:36.997447 28135 net.cpp:84] Creating Layer inception_5b/5x5
I0507 11:54:36.997450 28135 net.cpp:406] inception_5b/5x5 <- inception_5b/5x5_reduce
I0507 11:54:36.997457 28135 net.cpp:380] inception_5b/5x5 -> inception_5b/5x5
I0507 11:54:37.000548 28135 net.cpp:122] Setting up inception_5b/5x5
I0507 11:54:37.000567 28135 net.cpp:129] Top shape: 32 128 7 7 (200704)
I0507 11:54:37.000571 28135 net.cpp:137] Memory required for data: 1780446728
I0507 11:54:37.000581 28135 layer_factory.hpp:77] Creating layer inception_5b/relu_5x5
I0507 11:54:37.000591 28135 net.cpp:84] Creating Layer inception_5b/relu_5x5
I0507 11:54:37.000597 28135 net.cpp:406] inception_5b/relu_5x5 <- inception_5b/5x5
I0507 11:54:37.000604 28135 net.cpp:367] inception_5b/relu_5x5 -> inception_5b/5x5 (in-place)
I0507 11:54:37.001142 28135 net.cpp:122] Setting up inception_5b/relu_5x5
I0507 11:54:37.001152 28135 net.cpp:129] Top shape: 32 128 7 7 (200704)
I0507 11:54:37.001155 28135 net.cpp:137] Memory required for data: 1781249544
I0507 11:54:37.001159 28135 layer_factory.hpp:77] Creating layer inception_5b/pool
I0507 11:54:37.001166 28135 net.cpp:84] Creating Layer inception_5b/pool
I0507 11:54:37.001170 28135 net.cpp:406] inception_5b/pool <- inception_5a/output_inception_5a/output_0_split_3
I0507 11:54:37.001178 28135 net.cpp:380] inception_5b/pool -> inception_5b/pool
I0507 11:54:37.001220 28135 net.cpp:122] Setting up inception_5b/pool
I0507 11:54:37.001225 28135 net.cpp:129] Top shape: 32 832 7 7 (1304576)
I0507 11:54:37.001230 28135 net.cpp:137] Memory required for data: 1786467848
I0507 11:54:37.001232 28135 layer_factory.hpp:77] Creating layer inception_5b/pool_proj
I0507 11:54:37.001243 28135 net.cpp:84] Creating Layer inception_5b/pool_proj
I0507 11:54:37.001247 28135 net.cpp:406] inception_5b/pool_proj <- inception_5b/pool
I0507 11:54:37.001253 28135 net.cpp:380] inception_5b/pool_proj -> inception_5b/pool_proj
I0507 11:54:37.005086 28135 net.cpp:122] Setting up inception_5b/pool_proj
I0507 11:54:37.005103 28135 net.cpp:129] Top shape: 32 128 7 7 (200704)
I0507 11:54:37.005107 28135 net.cpp:137] Memory required for data: 1787270664
I0507 11:54:37.005116 28135 layer_factory.hpp:77] Creating layer inception_5b/relu_pool_proj
I0507 11:54:37.005126 28135 net.cpp:84] Creating Layer inception_5b/relu_pool_proj
I0507 11:54:37.005132 28135 net.cpp:406] inception_5b/relu_pool_proj <- inception_5b/pool_proj
I0507 11:54:37.005141 28135 net.cpp:367] inception_5b/relu_pool_proj -> inception_5b/pool_proj (in-place)
I0507 11:54:37.005700 28135 net.cpp:122] Setting up inception_5b/relu_pool_proj
I0507 11:54:37.005712 28135 net.cpp:129] Top shape: 32 128 7 7 (200704)
I0507 11:54:37.005715 28135 net.cpp:137] Memory required for data: 1788073480
I0507 11:54:37.005719 28135 layer_factory.hpp:77] Creating layer inception_5b/output
I0507 11:54:37.005728 28135 net.cpp:84] Creating Layer inception_5b/output
I0507 11:54:37.005733 28135 net.cpp:406] inception_5b/output <- inception_5b/1x1
I0507 11:54:37.005738 28135 net.cpp:406] inception_5b/output <- inception_5b/3x3
I0507 11:54:37.005743 28135 net.cpp:406] inception_5b/output <- inception_5b/5x5
I0507 11:54:37.005746 28135 net.cpp:406] inception_5b/output <- inception_5b/pool_proj
I0507 11:54:37.005753 28135 net.cpp:380] inception_5b/output -> inception_5b/output
I0507 11:54:37.005787 28135 net.cpp:122] Setting up inception_5b/output
I0507 11:54:37.005793 28135 net.cpp:129] Top shape: 32 1024 7 7 (1605632)
I0507 11:54:37.005796 28135 net.cpp:137] Memory required for data: 1794496008
I0507 11:54:37.005800 28135 layer_factory.hpp:77] Creating layer pool5/7x7_s1
I0507 11:54:37.005827 28135 net.cpp:84] Creating Layer pool5/7x7_s1
I0507 11:54:37.005832 28135 net.cpp:406] pool5/7x7_s1 <- inception_5b/output
I0507 11:54:37.005841 28135 net.cpp:380] pool5/7x7_s1 -> pool5/7x7_s1
I0507 11:54:37.006575 28135 net.cpp:122] Setting up pool5/7x7_s1
I0507 11:54:37.006585 28135 net.cpp:129] Top shape: 32 1024 1 1 (32768)
I0507 11:54:37.006588 28135 net.cpp:137] Memory required for data: 1794627080
I0507 11:54:37.006592 28135 layer_factory.hpp:77] Creating layer pool5/drop_7x7_s1
I0507 11:54:37.006601 28135 net.cpp:84] Creating Layer pool5/drop_7x7_s1
I0507 11:54:37.006605 28135 net.cpp:406] pool5/drop_7x7_s1 <- pool5/7x7_s1
I0507 11:54:37.006610 28135 net.cpp:367] pool5/drop_7x7_s1 -> pool5/7x7_s1 (in-place)
I0507 11:54:37.006633 28135 net.cpp:122] Setting up pool5/drop_7x7_s1
I0507 11:54:37.006639 28135 net.cpp:129] Top shape: 32 1024 1 1 (32768)
I0507 11:54:37.006641 28135 net.cpp:137] Memory required for data: 1794758152
I0507 11:54:37.006645 28135 layer_factory.hpp:77] Creating layer loss3/classifier
I0507 11:54:37.006652 28135 net.cpp:84] Creating Layer loss3/classifier
I0507 11:54:37.006655 28135 net.cpp:406] loss3/classifier <- pool5/7x7_s1
I0507 11:54:37.006664 28135 net.cpp:380] loss3/classifier -> loss3/classifier
I0507 11:54:37.008363 28135 net.cpp:122] Setting up loss3/classifier
I0507 11:54:37.008373 28135 net.cpp:129] Top shape: 32 196 (6272)
I0507 11:54:37.008376 28135 net.cpp:137] Memory required for data: 1794783240
I0507 11:54:37.008383 28135 layer_factory.hpp:77] Creating layer loss3/loss
I0507 11:54:37.008389 28135 net.cpp:84] Creating Layer loss3/loss
I0507 11:54:37.008394 28135 net.cpp:406] loss3/loss <- loss3/classifier
I0507 11:54:37.008397 28135 net.cpp:406] loss3/loss <- label_train-data_1_split_2
I0507 11:54:37.008402 28135 net.cpp:380] loss3/loss -> loss
…
I0507 11:54:37.011458 28135 solver.cpp:172] Creating test net (#0) specified by net file: train_val.prototxt
I0507 11:54:37.011586 28135 net.cpp:294] The NetState phase (1) differed from the phase (0) specified by a rule in layer train-data
I0507 11:54:37.012516 28135 net.cpp:51] Initializing net from parameters:
state {
phase: TEST
}
layer {
name: "val-data"
type: "Data"
top: "data"
top: "label"
include {
phase: TEST
}
transform_param {
mirror: false
crop_size: 224
mean_value: 116.0869
mean_value: 117.34734
mean_value: 119.99591
}
data_param {
source: "/mnt/bigdisk/MANDIG4/digits/jobs/20200507-113634-e696/val_db"
batch_size: 16
backend: LMDB
}
}
layer {
name: "conv1/7x7_s2"
type: "Convolution"
bottom: "data"
top: "conv1/7x7_s2"
param {
lr_mult: 1
decay_mult: 1
}
param {
lr_mult: 2
decay_mult: 0
}
convolution_param {
num_output: 64
pad: 3
kernel_size: 7
stride: 2
weight_filler {
type: "xavier"
std: 0.1
}
bias_filler {
type: "constant"
value: 0.2
}
}
}
layer {
name: "conv1/relu_7x7"
type: "ReLU"
bottom: "conv1/7x7_s2"
top: "conv1/7x7_s2"
}
layer {
name: "pool1/3x3_s2"
type: "Pooling"
bottom: "conv1/7x7_s2"
top: "pool1/3x3_s2"
pooling_param {
pool: MAX
kernel_size: 3
stride: 2
}
}
layer {
name: "pool1/norm1"
type: "LRN"
bottom: "pool1/3x3_s2"
top: "pool1/norm1"
lrn_param {
local_size: 5
alpha: 0.0001
beta: 0.75
}
}
layer {
name: "conv2/3x3_reduce"
type: "Convolution"
bottom: "pool1/norm1"
top: "conv2/3x3_reduce"
param {
lr_mult: 1
decay_mult: 1
}
param {
lr_mult: 2
decay_mult: 0
}
convolution_param {
num_output: 64
kernel_size: 1
weight_filler {
type: "xavier"
std: 0.1
}
bias_filler {
type: "constant"
value: 0.2
}
}
}
layer {
name: "conv2/relu_3x3_reduce"
type: "ReLU"
bottom: "conv2/3x3_reduce"
top: "conv2/3x3_reduce"
}
layer {
name: "conv2/3x3"
type: "Convolution"
bottom: "conv2/3x3_reduce"
top: "conv2/3x3"
param {
lr_mult: 1
decay_mult: 1
}
param {
lr_mult: 2
decay_mult: 0
}
convolution_param {
num_output: 192
pad: 1
kernel_size: 3
weight_filler {
type: "xavier"
std: 0.03
}
bias_filler {
type: "constant"
value: 0.2
}
}
}
layer {
name: "conv2/relu_3x3"
type: "ReLU"
bottom: "conv2/3x3"
top: "conv2/3x3"
}
layer {
name: "conv2/norm2"
type: "LRN"
bottom: "conv2/3x3"
top: "conv2/norm2"
lrn_param {
local_size: 5
alpha: 0.0001
beta: 0.75
}
}
layer {
name: "pool2/3x3_s2"
type: "Pooling"
bottom: "conv2/norm2"
top: "pool2/3x3_s2"
pooling_param {
pool: MAX
kernel_size: 3
stride: 2
}
}
layer {
name: "inception_3a/1x1"
type: "Convolution"
bottom: "pool2/3x3_s2"
top: "inception_3a/1x1"
param {
lr_mult: 1
decay_mult: 1
}
param {
lr_mult: 2
decay_mult: 0
}
convolution_param {
num_output: 64
kernel_size: 1
weight_filler {
type: "xavier"
std: 0.03
}
bias_filler {
type: "constant"
value: 0.2
}
}
}
layer {
name: "inception_3a/relu_1x1"
type: "ReLU"
bottom: "inception_3a/1x1"
top: "inception_3a/1x1"
}
layer {
name: "inception_3a/3x3_reduce"
type: "Convolution"
bottom: "pool2/3x3_s2"
top: "inception_3a/3x3_reduce"
param {
lr_mult: 1
decay_mult: 1
}
param {
lr_mult: 2
decay_mult: 0
}
convolution_param {
num_output: 96
kernel_size: 1
weight_filler {
type: "xavier"
std: 0.09
}
bias_filler {
type: "constant"
value: 0.2
}
}
}
layer {
name: "inception_3a/relu_3x3_reduce"
type: "ReLU"
bottom: "inception_3a/3x3_reduce"
top: "inception_3a/3x3_reduce"
}
layer {
name: "inception_3a/3x3"
type: "Convolution"
bottom: "inception_3a/3x3_reduce"
top: "inception_3a/3x3"
param {
lr_mult: 1
decay_mult: 1
}
param {
lr_mult: 2
decay_mult: 0
}
convolution_param {
num_output: 128
pad: 1
kernel_size: 3
weight_filler {
type: "xavier"
std: 0.03
}
bias_filler {
type: "constant"
value: 0.2
}
}
}
layer {
name: "inception_3a/relu_3x3"
type: "ReLU"
bottom: "inception_3a/3x3"
top: "inception_3a/3x3"
}
layer {
name: "inception_3a/5x5_reduce"
type: "Convolution"
bottom: "pool2/3x3_s2"
top: "inception_3a/5x5_reduce"
param {
lr_mult: 1
decay_mult: 1
}
param {
lr_mult: 2
decay_mult: 0
}
convolution_param {
num_output: 16
kernel_size: 1
weight_filler {
type: "xavier"
std: 0.2
}
bias_filler {
type: "constant"
value: 0.2
}
}
}
layer {
name: "inception_3a/relu_5x5_reduce"
type: "ReLU"
bottom: "inception_3a/5x5_reduce"
top: "inception_3a/5x5_reduce"
}
layer {
name: "inception_3a/5x5"
type: "Convolution"
bottom: "inception_3a/5x5_reduce"
top: "inception_3a/5x5"
param {
lr_mult: 1
decay_mult: 1
}
param {
lr_mult: 2
decay_mult: 0
}
convolution_param {
num_output: 32
pad: 2
kernel_size: 5
weight_filler {
type: "xavier"
std: 0.03
}
bias_filler {
type: "constant"
value: 0.2
}
}
}
layer {
name: "inception_3a/relu_5x5"
type: "ReLU"
bottom: "inception_3a/5x5"
top: "inception_3a/5x5"
}
layer {
name: "inception_3a/pool"
type: "Pooling"
bottom: "pool2/3x3_s2"
top: "inception_3a/pool"
pooling_param {
pool: MAX
kernel_size: 3
stride: 1
pad: 1
}
}
layer {
name: "inception_3a/pool_proj"
type: "Convolution"
bottom: "inception_3a/pool"
top: "inception_3a/pool_proj"
param {
lr_mult: 1
decay_mult: 1
}
param {
lr_mult: 2
decay_mult: 0
}
convolution_param {
num_output: 32
kernel_size: 1
weight_filler {
type: "xavier"
std: 0.1
}
bias_filler {
type: "constant"
value: 0.2
}
}
}
layer {
name: "inception_3a/relu_pool_proj"
type: "ReLU"
bottom: "inception_3a/pool_proj"
top: "inception_3a/pool_proj"
}
layer {
name: "inception_3a/output"
type: "Concat"
bottom: "inception_3a/1x1"
bottom: "inception_3a/3x3"
bottom: "inception_3a/5x5"
bottom: "inception_3a/pool_proj"
top: "inception_3a/output"
}
layer {
name: "inception_3b/1x1"
type: "Convolution"
bottom: "inception_3a/output"
top: "inception_3b/1x1"
param {
lr_mult: 1
decay_mult: 1
}
param {
lr_mult: 2
decay_mult: 0
}
convolution_param {
num_output: 128
kernel_size: 1
weight_filler {
type: "xavier"
std: 0.03
}
bias_filler {
type: "constant"
value: 0.2
}
}
}
layer {
name: "inception_3b/relu_1x1"
type: "ReLU"
bottom: "inception_3b/1x1"
top: "inception_3b/1x1"
}
layer {
name: "inception_3b/3x3_reduce"
type: "Convolution"
bottom: "inception_3a/output"
top: "inception_3b/3x3_reduce"
param {
lr_mult: 1
decay_mult: 1
}
param {
lr_mult: 2
decay_mult: 0
}
convolution_param {
num_output: 128
kernel_size: 1
weight_filler {
type: "xavier"
std: 0.09
}
bias_filler {
type: "constant"
value: 0.2
}
}
}
layer {
name: "inception_3b/relu_3x3_reduce"
type: "ReLU"
bottom: "inception_3b/3x3_reduce"
top: "inception_3b/3x3_reduce"
}
layer {
name: "inception_3b/3x3"
type: "Convolution"
bottom: "inception_3b/3x3_reduce"
top: "inception_3b/3x3"
param {
lr_mult: 1
decay_mult: 1
}
param {
lr_mult: 2
decay_mult: 0
}
convolution_param {
num_output: 192
pad: 1
kernel_size: 3
weight_filler {
type: "xavier"
std: 0.03
}
bias_filler {
type: "constant"
value: 0.2
}
}
}
layer {
name: "inception_3b/relu_3x3"
type: "ReLU"
bottom: "inception_3b/3x3"
top: "inception_3b/3x3"
}
layer {
name: "inception_3b/5x5_reduce"
type: "Convolution"
bottom: "inception_3a/output"
top: "inception_3b/5x5_reduce"
param {
lr_mult: 1
decay_mult: 1
}
param {
lr_mult: 2
decay_mult: 0
}
convolution_param {
num_output: 32
kernel_size: 1
weight_filler {
type: "xavier"
std: 0.2
}
bias_filler {
type: "constant"
value: 0.2
}
}
}
layer {
name: "inception_3b/relu_5x5_reduce"
type: "ReLU"
bottom: "inception_3b/5x5_reduce"
top: "inception_3b/5x5_reduce"
}
layer {
name: "inception_3b/5x5"
type: "Convolution"
bottom: "inception_3b/5x5_reduce"
top: "inception_3b/5x5"
param {
lr_mult: 1
decay_mult: 1
}
param {
lr_mult: 2
decay_mult: 0
}
convolution_param {
num_output: 96
pad: 2
kernel_size: 5
weight_filler {
type: "xavier"
std: 0.03
}
bias_filler {
type: "constant"
value: 0.2
}
}
}
layer {
name: "inception_3b/relu_5x5"
type: "ReLU"
bottom: "inception_3b/5x5"
top: "inception_3b/5x5"
}
layer {
name: "inception_3b/pool"
type: "Pooling"
bottom: "inception_3a/output"
top: "inception_3b/pool"
pooling_param {
pool: MAX
kernel_size: 3
stride: 1
pad: 1
}
}
layer {
name: "inception_3b/pool_proj"
type: "Convolution"
bottom: "inception_3b/pool"
top: "inception_3b/pool_proj"
param {
lr_mult: 1
decay_mult: 1
}
param {
lr_mult: 2
decay_mult: 0
}
convolution_param {
num_output: 64
kernel_size: 1
weight_filler {
type: "xavier"
std: 0.1
}
bias_filler {
type: "constant"
value: 0.2
}
}
}
layer {
name: "inception_3b/relu_pool_proj"
type: "ReLU"
bottom: "inception_3b/pool_proj"
top: "inception_3b/pool_proj"
}
layer {
name: "inception_3b/output"
type: "Concat"
bottom: "inception_3b/1x1"
bottom: "inception_3b/3x3"
bottom: "inception_3b/5x5"
bottom: "inception_3b/pool_proj"
top: "inception_3b/output"
}
layer {
name: "pool3/3x3_s2"
type: "Pooling"
bottom: "inception_3b/output"
top: "pool3/3x3_s2"
pooling_param {
pool: MAX
kernel_size: 3
stride: 2
}
}
layer {
name: "inception_4a/1x1"
type: "Convolution"
bottom: "pool3/3x3_s2"
top: "inception_4a/1x1"
param {
lr_mult: 1
decay_mult: 1
}
param {
lr_mult: 2
decay_mult: 0
}
convolution_param {
num_output: 192
kernel_size: 1
weight_filler {
type: "xavier"
std: 0.03
}
bias_filler {
type: "constant"
value: 0.2
}
}
}
layer {
name: "inception_4a/relu_1x1"
type: "ReLU"
bottom: "inception_4a/1x1"
top: "inception_4a/1x1"
}
layer {
name: "inception_4a/3x3_reduce"
type: "Convolution"
bottom: "pool3/3x3_s2"
top: "inception_4a/3x3_reduce"
param {
lr_mult: 1
decay_mult: 1
}
param {
lr_mult: 2
decay_mult: 0
}
convolution_param {
num_output: 96
kernel_size: 1
weight_filler {
type: "xavier"
std: 0.09
}
bias_filler {
type: "constant"
value: 0.2
}
}
}
layer {
name: "inception_4a/relu_3x3_reduce"
type: "ReLU"
bottom: "inception_4a/3x3_reduce"
top: "inception_4a/3x3_reduce"
}
layer {
name: "inception_4a/3x3"
type: "Convolution"
bottom: "inception_4a/3x3_reduce"
top: "inception_4a/3x3"
param {
lr_mult: 1
decay_mult: 1
}
param {
lr_mult: 2
decay_mult: 0
}
convolution_param {
num_output: 208
pad: 1
kernel_size: 3
weight_filler {
type: "xavier"
std: 0.03
}
bias_filler {
type: "constant"
value: 0.2
}
}
}
layer {
name: "inception_4a/relu_3x3"
type: "ReLU"
bottom: "inception_4a/3x3"
top: "inception_4a/3x3"
}
layer {
name: "inception_4a/5x5_reduce"
type: "Convolution"
bottom: "pool3/3x3_s2"
top: "inception_4a/5x5_reduce"
param {
lr_mult: 1
decay_mult: 1
}
param {
lr_mult: 2
decay_mult: 0
}
convolution_param {
num_output: 16
kernel_size: 1
weight_filler {
type: "xavier"
std: 0.2
}
bias_filler {
type: "constant"
value: 0.2
}
}
}
layer {
name: "inception_4a/relu_5x5_reduce"
type: "ReLU"
bottom: "inception_4a/5x5_reduce"
top: "inception_4a/5x5_reduce"
}
layer {
name: "inception_4a/5x5"
type: "Convolution"
bottom: "inception_4a/5x5_reduce"
top: "inception_4a/5x5"
param {
lr_mult: 1
decay_mult: 1
}
param {
lr_mult: 2
decay_mult: 0
}
convolution_param {
num_output: 48
pad: 2
kernel_size: 5
weight_filler {
type: "xavier"
std: 0.03
}
bias_filler {
type: "constant"
value: 0.2
}
}
}
layer {
name: "inception_4a/relu_5x5"
type: "ReLU"
bottom: "inception_4a/5x5"
top: "inception_4a/5x5"
}
layer {
name: "inception_4a/pool"
type: "Pooling"
bottom: "pool3/3x3_s2"
top: "inception_4a/pool"
pooling_param {
pool: MAX
kernel_size: 3
stride: 1
pad: 1
}
}
layer {
name: "inception_4a/pool_proj"
type: "Convolution"
bottom: "inception_4a/pool"
top: "inception_4a/pool_proj"
param {
lr_mult: 1
decay_mult: 1
}
param {
lr_mult: 2
decay_mult: 0
}
convolution_param {
num_output: 64
kernel_size: 1
weight_filler {
type: "xavier"
std: 0.1
}
bias_filler {
type: "constant"
value: 0.2
}
}
}
layer {
name: "inception_4a/relu_pool_proj"
type: "ReLU"
bottom: "inception_4a/pool_proj"
top: "inception_4a/pool_proj"
}
layer {
name: "inception_4a/output"
type: "Concat"
bottom: "inception_4a/1x1"
bottom: "inception_4a/3x3"
bottom: "inception_4a/5x5"
bottom: "inception_4a/pool_proj"
top: "inception_4a/output"
}
layer {
name: "loss1/ave_pool"
type: "Pooling"
bottom: "inception_4a/output"
top: "loss1/ave_pool"
pooling_param {
pool: AVE
kernel_size: 5
stride: 3
}
}
layer {
name: "loss1/conv"
type: "Convolution"
bottom: "loss1/ave_pool"
top: "loss1/conv"
param {
lr_mult: 1
decay_mult: 1
}
param {
lr_mult: 2
decay_mult: 0
}
convolution_param {
num_output: 128
kernel_size: 1
weight_filler {
type: "xavier"
std: 0.08
}
bias_filler {
type: "constant"
value: 0.2
}
}
}
layer {
name: "loss1/relu_conv"
type: "ReLU"
bottom: "loss1/conv"
top: "loss1/conv"
}
layer {
name: "loss1/fc"
type: "InnerProduct"
bottom: "loss1/conv"
top: "loss1/fc"
param {
lr_mult: 1
decay_mult: 1
}
param {
lr_mult: 2
decay_mult: 0
}
inner_product_param {
num_output: 1024
weight_filler {
type: "xavier"
std: 0.02
}
bias_filler {
type: "constant"
value: 0.2
}
}
}
layer {
name: "loss1/relu_fc"
type: "ReLU"
bottom: "loss1/fc"
top: "loss1/fc"
}
layer {
name: "loss1/drop_fc"
type: "Dropout"
bottom: "loss1/fc"
top: "loss1/fc"
dropout_param {
dropout_ratio: 0.7
}
}
layer {
name: "loss1/classifier"
type: "InnerProduct"
bottom: "loss1/fc"
top: "loss1/classifier"
param {
lr_mult: 1
decay_mult: 1
}
param {
lr_mult: 2
decay_mult: 0
}
inner_product_param {
num_output: 196
weight_filler {
type: "xavier"
std: 0.0009765625
}
bias_filler {
type: "constant"
value: 0
}
}
}
layer {
name: "loss1/loss"
type: "SoftmaxWithLoss"
bottom: "loss1/classifier"
bottom: "label"
top: "loss1/loss"
loss_weight: 0.3
}
layer {
name: "loss1/top-1"
type: "Accuracy"
bottom: "loss1/classifier"
bottom: "label"
top: "loss1/accuracy"
include {
phase: TEST
}
}
layer {
name: "loss1/top-5"
type: "Accuracy"
bottom: "loss1/classifier"
bottom: "label"
top: "loss1/accuracy-top5"
include {
phase: TEST
}
accuracy_param {
top_k: 5
}
}
layer {
name: "inception_4b/1x1"
type: "Convolution"
bottom: "inception_4a/output"
top: "inception_4b/1x1"
param {
lr_mult: 1
decay_mult: 1
}
param {
lr_mult: 2
decay_mult: 0
}
convolution_param {
num_output: 160
kernel_size: 1
weight_filler {
type: "xavier"
std: 0.03
}
bias_filler {
type: "constant"
value: 0.2
}
}
}
layer {
name: "inception_4b/relu_1x1"
type: "ReLU"
bottom: "inception_4b/1x1"
top: "inception_4b/1x1"
}
layer {
name: "inception_4b/3x3_reduce"
type: "Convolution"
bottom: "inception_4a/output"
top: "inception_4b/3x3_reduce"
param {
lr_mult: 1
decay_mult: 1
}
param {
lr_mult: 2
decay_mult: 0
}
convolution_param {
num_output: 112
kernel_size: 1
weight_filler {
type: "xavier"
std: 0.09
}
bias_filler {
type: "constant"
value: 0.2
}
}
}
layer {
name: "inception_4b/relu_3x3_reduce"
type: "ReLU"
bottom: "inception_4b/3x3_reduce"
top: "inception_4b/3x3_reduce"
}
layer {
name: "inception_4b/3x3"
type: "Convolution"
bottom: "inception_4b/3x3_reduce"
top: "inception_4b/3x3"
param {
lr_mult: 1
decay_mult: 1
}
param {
lr_mult: 2
decay_mult: 0
}
convolution_param {
num_output: 224
pad: 1
kernel_size: 3
weight_filler {
type: "xavier"
std: 0.03
}
bias_filler {
type: "constant"
value: 0.2
}
}
}
layer {
name: "inception_4b/relu_3x3"
type: "ReLU"
bottom: "inception_4b/3x3"
top: "inception_4b/3x3"
}
layer {
name: "inception_4b/5x5_reduce"
type: "Convolution"
bottom: "inception_4a/output"
top: "inception_4b/5x5_reduce"
param {
lr_mult: 1
decay_mult: 1
}
param {
lr_mult: 2
decay_mult: 0
}
convolution_param {
num_output: 24
kernel_size: 1
weight_filler {
type: "xavier"
std: 0.2
}
bias_filler {
type: "constant"
value: 0.2
}
}
}
layer {
name: "inception_4b/relu_5x5_reduce"
type: "ReLU"
bottom: "inception_4b/5x5_reduce"
top: "inception_4b/5x5_reduce"
}
layer {
name: "inception_4b/5x5"
type: "Convolution"
bottom: "inception_4b/5x5_reduce"
top: "inception_4b/5x5"
param {
lr_mult: 1
decay_mult: 1
}
param {
lr_mult: 2
decay_mult: 0
}
convolution_param {
num_output: 64
pad: 2
kernel_size: 5
weight_filler {
type: "xavier"
std: 0.03
}
bias_filler {
type: "constant"
value: 0.2
}
}
}
layer {
name: "inception_4b/relu_5x5"
type: "ReLU"
bottom: "inception_4b/5x5"
top: "inception_4b/5x5"
}
layer {
name: "inception_4b/pool"
type: "Pooling"
bottom: "inception_4a/output"
top: "inception_4b/pool"
pooling_param {
pool: MAX
kernel_size: 3
stride: 1
pad: 1
}
}
layer {
name: "inception_4b/pool_proj"
type: "Convolution"
bottom: "inception_4b/pool"
top: "inception_4b/pool_proj"
param {
lr_mult: 1
decay_mult: 1
}
param {
lr_mult: 2
decay_mult: 0
}
convolution_param {
num_output: 64
kernel_size: 1
weight_filler {
type: "xavier"
std: 0.1
}
bias_filler {
type: "constant"
value: 0.2
}
}
}
layer {
name: "inception_4b/relu_pool_proj"
type: "ReLU"
bottom: "inception_4b/pool_proj"
top: "inception_4b/pool_proj"
}
layer {
name: "inception_4b/output"
type: "Concat"
bottom: "inception_4b/1x1"
bottom: "inception_4b/3x3"
bottom: "inception_4b/5x5"
bottom: "inception_4b/pool_proj"
top: "inception_4b/output"
}
layer {
name: "inception_4c/1x1"
type: "Convolution"
bottom: "inception_4b/output"
top: "inception_4c/1x1"
param {
lr_mult: 1
decay_mult: 1
}
param {
lr_mult: 2
decay_mult: 0
}
convolution_param {
num_output: 128
kernel_size: 1
weight_filler {
type: "xavier"
std: 0.03
}
bias_filler {
type: "constant"
value: 0.2
}
}
}
layer {
name: "inception_4c/relu_1x1"
type: "ReLU"
bottom: "inception_4c/1x1"
top: "inception_4c/1x1"
}
layer {
name: "inception_4c/3x3_reduce"
type: "Convolution"
bottom: "inception_4b/output"
top: "inception_4c/3x3_reduce"
param {
lr_mult: 1
decay_mult: 1
}
param {
lr_mult: 2
decay_mult: 0
}
convolution_param {
num_output: 128
kernel_size: 1
weight_filler {
type: "xavier"
std: 0.09
}
bias_filler {
type: "constant"
value: 0.2
}
}
}
layer {
name: "inception_4c/relu_3x3_reduce"
type: "ReLU"
bottom: "inception_4c/3x3_reduce"
top: "inception_4c/3x3_reduce"
}
layer {
name: "inception_4c/3x3"
type: "Convolution"
bottom: "inception_4c/3x3_reduce"
top: "inception_4c/3x3"
param {
lr_mult: 1
decay_mult: 1
}
param {
lr_mult: 2
decay_mult: 0
}
convolution_param {
num_output: 256
pad: 1
kernel_size: 3
weight_filler {
type: "xavier"
std: 0.03
}
bias_filler {
type: "constant"
value: 0.2
}
}
}
layer {
name: "inception_4c/relu_3x3"
type: "ReLU"
bottom: "inception_4c/3x3"
top: "inception_4c/3x3"
}
layer {
name: "inception_4c/5x5_reduce"
type: "Convolution"
bottom: "inception_4b/output"
top: "inception_4c/5x5_reduce"
param {
lr_mult: 1
decay_mult: 1
}
param {
lr_mult: 2
decay_mult: 0
}
convolution_param {
num_output: 24
kernel_size: 1
weight_filler {
type: "xavier"
std: 0.2
}
bias_filler {
type: "constant"
value: 0.2
}
}
}
layer {
name: "inception_4c/relu_5x5_reduce"
type: "ReLU"
bottom: "inception_4c/5x5_reduce"
top: "inception_4c/5x5_reduce"
}
layer {
name: "inception_4c/5x5"
type: "Convolution"
bottom: "inception_4c/5x5_reduce"
top: "inception_4c/5x5"
param {
lr_mult: 1
decay_mult: 1
}
param {
lr_mult: 2
decay_mult: 0
}
convolution_param {
num_output: 64
pad: 2
kernel_size: 5
weight_filler {
type: "xavier"
std: 0.03
}
bias_filler {
type: "constant"
value: 0.2
}
}
}
layer {
name: "inception_4c/relu_5x5"
type: "ReLU"
bottom: "inception_4c/5x5"
top: "inception_4c/5x5"
}
layer {
name: "inception_4c/pool"
type: "Pooling"
bottom: "inception_4b/output"
top: "inception_4c/pool"
pooling_param {
pool: MAX
kernel_size: 3
stride: 1
pad: 1
}
}
layer {
name: "inception_4c/pool_proj"
type: "Convolution"
bottom: "inception_4c/pool"
top: "inception_4c/pool_proj"
param {
lr_mult: 1
decay_mult: 1
}
param {
lr_mult: 2
decay_mult: 0
}
convolution_param {
num_output: 64
kernel_size: 1
weight_filler {
type: "xavier"
std: 0.1
}
bias_filler {
type: "constant"
value: 0.2
}
}
}
layer {
name: "inception_4c/relu_pool_proj"
type: "ReLU"
bottom: "inception_4c/pool_proj"
top: "inception_4c/pool_proj"
}
layer {
name: "inception_4c/output"
type: "Concat"
bottom: "inception_4c/1x1"
bottom: "inception_4c/3x3"
bottom: "inception_4c/5x5"
bottom: "inception_4c/pool_proj"
top: "inception_4c/output"
}
layer {
name: "inception_4d/1x1"
type: "Convolution"
bottom: "inception_4c/output"
top: "inception_4d/1x1"
param {
lr_mult: 1
decay_mult: 1
}
param {
lr_mult: 2
decay_mult: 0
}
convolution_param {
num_output: 112
kernel_size: 1
weight_filler {
type: "xavier"
std: 0.03
}
bias_filler {
type: "constant"
value: 0.2
}
}
}
layer {
name: "inception_4d/relu_1x1"
type: "ReLU"
bottom: "inception_4d/1x1"
top: "inception_4d/1x1"
}
layer {
…
I0507 11:54:37.237483 28135 net.cpp:122] Setting up inception_4c/relu_5x5
I0507 11:54:37.237494 28135 net.cpp:129] Top shape: 16 64 14 14 (200704)
I0507 11:54:37.237498 28135 net.cpp:137] Memory required for data: 700688012
I0507 11:54:37.237501 28135 layer_factory.hpp:77] Creating layer inception_4c/pool
I0507 11:54:37.237509 28135 net.cpp:84] Creating Layer inception_4c/pool
I0507 11:54:37.237514 28135 net.cpp:406] inception_4c/pool <- inception_4b/output_inception_4b/output_0_split_3
I0507 11:54:37.237520 28135 net.cpp:380] inception_4c/pool -> inception_4c/pool
I0507 11:54:37.237568 28135 net.cpp:122] Setting up inception_4c/pool
I0507 11:54:37.237574 28135 net.cpp:129] Top shape: 16 512 14 14 (1605632)
I0507 11:54:37.237577 28135 net.cpp:137] Memory required for data: 707110540
I0507 11:54:37.237581 28135 layer_factory.hpp:77] Creating layer inception_4c/pool_proj
I0507 11:54:37.237594 28135 net.cpp:84] Creating Layer inception_4c/pool_proj
I0507 11:54:37.237598 28135 net.cpp:406] inception_4c/pool_proj <- inception_4c/pool
I0507 11:54:37.237605 28135 net.cpp:380] inception_4c/pool_proj -> inception_4c/pool_proj
I0507 11:54:37.241142 28135 net.cpp:122] Setting up inception_4c/pool_proj
I0507 11:54:37.241163 28135 net.cpp:129] Top shape: 16 64 14 14 (200704)
I0507 11:54:37.241168 28135 net.cpp:137] Memory required for data: 707913356
I0507 11:54:37.241176 28135 layer_factory.hpp:77] Creating layer inception_4c/relu_pool_proj
I0507 11:54:37.241186 28135 net.cpp:84] Creating Layer inception_4c/relu_pool_proj
I0507 11:54:37.241192 28135 net.cpp:406] inception_4c/relu_pool_proj <- inception_4c/pool_proj
I0507 11:54:37.241199 28135 net.cpp:367] inception_4c/relu_pool_proj -> inception_4c/pool_proj (in-place)
I0507 11:54:37.241819 28135 net.cpp:122] Setting up inception_4c/relu_pool_proj
I0507 11:54:37.241829 28135 net.cpp:129] Top shape: 16 64 14 14 (200704)
I0507 11:54:37.241833 28135 net.cpp:137] Memory required for data: 708716172
I0507 11:54:37.241837 28135 layer_factory.hpp:77] Creating layer inception_4c/output
I0507 11:54:37.241845 28135 net.cpp:84] Creating Layer inception_4c/output
I0507 11:54:37.241850 28135 net.cpp:406] inception_4c/output <- inception_4c/1x1
I0507 11:54:37.241855 28135 net.cpp:406] inception_4c/output <- inception_4c/3x3
I0507 11:54:37.241860 28135 net.cpp:406] inception_4c/output <- inception_4c/5x5
I0507 11:54:37.241865 28135 net.cpp:406] inception_4c/output <- inception_4c/pool_proj
I0507 11:54:37.241873 28135 net.cpp:380] inception_4c/output -> inception_4c/output
I0507 11:54:37.241927 28135 net.cpp:122] Setting up inception_4c/output
I0507 11:54:37.241933 28135 net.cpp:129] Top shape: 16 512 14 14 (1605632)
I0507 11:54:37.241936 28135 net.cpp:137] Memory required for data: 715138700
I0507 11:54:37.241940 28135 layer_factory.hpp:77] Creating layer inception_4c/output_inception_4c/output_0_split
I0507 11:54:37.241948 28135 net.cpp:84] Creating Layer inception_4c/output_inception_4c/output_0_split
I0507 11:54:37.241952 28135 net.cpp:406] inception_4c/output_inception_4c/output_0_split <- inception_4c/output
I0507 11:54:37.241961 28135 net.cpp:380] inception_4c/output_inception_4c/output_0_split -> inception_4c/output_inception_4c/output_0_split_0
I0507 11:54:37.241967 28135 net.cpp:380] inception_4c/output_inception_4c/output_0_split -> inception_4c/output_inception_4c/output_0_split_1
I0507 11:54:37.241973 28135 net.cpp:380] inception_4c/output_inception_4c/output_0_split -> inception_4c/output_inception_4c/output_0_split_2
I0507 11:54:37.241981 28135 net.cpp:380] inception_4c/output_inception_4c/output_0_split -> inception_4c/output_inception_4c/output_0_split_3
I0507 11:54:37.242039 28135 net.cpp:122] Setting up inception_4c/output_inception_4c/output_0_split
I0507 11:54:37.242044 28135 net.cpp:129] Top shape: 16 512 14 14 (1605632)
I0507 11:54:37.242049 28135 net.cpp:129] Top shape: 16 512 14 14 (1605632)
I0507 11:54:37.242053 28135 net.cpp:129] Top shape: 16 512 14 14 (1605632)
I0507 11:54:37.242058 28135 net.cpp:129] Top shape: 16 512 14 14 (1605632)
I0507 11:54:37.242061 28135 net.cpp:137] Memory required for data: 740828812
I0507 11:54:37.242065 28135 layer_factory.hpp:77] Creating layer inception_4d/1x1
I0507 11:54:37.242076 28135 net.cpp:84] Creating Layer inception_4d/1x1
I0507 11:54:37.242081 28135 net.cpp:406] inception_4d/1x1 <- inception_4c/output_inception_4c/output_0_split_0
I0507 11:54:37.242089 28135 net.cpp:380] inception_4d/1x1 -> inception_4d/1x1
I0507 11:54:37.244192 28135 net.cpp:122] Setting up inception_4d/1x1
I0507 11:54:37.244205 28135 net.cpp:129] Top shape: 16 112 14 14 (351232)
I0507 11:54:37.244210 28135 net.cpp:137] Memory required for data: 742233740
I0507 11:54:37.244217 28135 layer_factory.hpp:77] Creating layer inception_4d/relu_1x1
I0507 11:54:37.244226 28135 net.cpp:84] Creating Layer inception_4d/relu_1x1
I0507 11:54:37.244232 28135 net.cpp:406] inception_4d/relu_1x1 <- inception_4d/1x1
I0507 11:54:37.244238 28135 net.cpp:367] inception_4d/relu_1x1 -> inception_4d/1x1 (in-place)
I0507 11:54:37.244819 28135 net.cpp:122] Setting up inception_4d/relu_1x1
I0507 11:54:37.244829 28135 net.cpp:129] Top shape: 16 112 14 14 (351232)
I0507 11:54:37.244832 28135 net.cpp:137] Memory required for data: 743638668
I0507 11:54:37.244837 28135 layer_factory.hpp:77] Creating layer inception_4d/3x3_reduce
I0507 11:54:37.244848 28135 net.cpp:84] Creating Layer inception_4d/3x3_reduce
I0507 11:54:37.244853 28135 net.cpp:406] inception_4d/3x3_reduce <- inception_4c/output_inception_4c/output_0_split_1
I0507 11:54:37.244860 28135 net.cpp:380] inception_4d/3x3_reduce -> inception_4d/3x3_reduce
I0507 11:54:37.249135 28135 net.cpp:122] Setting up inception_4d/3x3_reduce
I0507 11:54:37.249155 28135 net.cpp:129] Top shape: 16 144 14 14 (451584)
I0507 11:54:37.249159 28135 net.cpp:137] Memory required for data: 745445004
I0507 11:54:37.249171 28135 layer_factory.hpp:77] Creating layer inception_4d/relu_3x3_reduce
I0507 11:54:37.249183 28135 net.cpp:84] Creating Layer inception_4d/relu_3x3_reduce
I0507 11:54:37.249189 28135 net.cpp:406] inception_4d/relu_3x3_reduce <- inception_4d/3x3_reduce
I0507 11:54:37.249198 28135 net.cpp:367] inception_4d/relu_3x3_reduce -> inception_4d/3x3_reduce (in-place)
I0507 11:54:37.249603 28135 net.cpp:122] Setting up inception_4d/relu_3x3_reduce
I0507 11:54:37.249610 28135 net.cpp:129] Top shape: 16 144 14 14 (451584)
I0507 11:54:37.249614 28135 net.cpp:137] Memory required for data: 747251340
I0507 11:54:37.249619 28135 layer_factory.hpp:77] Creating layer inception_4d/3x3
I0507 11:54:37.249650 28135 net.cpp:84] Creating Layer inception_4d/3x3
I0507 11:54:37.249655 28135 net.cpp:406] inception_4d/3x3 <- inception_4d/3x3_reduce
I0507 11:54:37.249662 28135 net.cpp:380] inception_4d/3x3 -> inception_4d/3x3
I0507 11:54:37.254596 28135 net.cpp:122] Setting up inception_4d/3x3
I0507 11:54:37.254619 28135 net.cpp:129] Top shape: 16 288 14 14 (903168)
I0507 11:54:37.254623 28135 net.cpp:137] Memory required for data: 750864012
I0507 11:54:37.254633 28135 layer_factory.hpp:77] Creating layer inception_4d/relu_3x3
I0507 11:54:37.254645 28135 net.cpp:84] Creating Layer inception_4d/relu_3x3
I0507 11:54:37.254652 28135 net.cpp:406] inception_4d/relu_3x3 <- inception_4d/3x3
I0507 11:54:37.254658 28135 net.cpp:367] inception_4d/relu_3x3 -> inception_4d/3x3 (in-place)
I0507 11:54:37.255057 28135 net.cpp:122] Setting up inception_4d/relu_3x3
I0507 11:54:37.255069 28135 net.cpp:129] Top shape: 16 288 14 14 (903168)
I0507 11:54:37.255071 28135 net.cpp:137] Memory required for data: 754476684
I0507 11:54:37.255075 28135 layer_factory.hpp:77] Creating layer inception_4d/5x5_reduce
I0507 11:54:37.255087 28135 net.cpp:84] Creating Layer inception_4d/5x5_reduce
I0507 11:54:37.255092 28135 net.cpp:406] inception_4d/5x5_reduce <- inception_4c/output_inception_4c/output_0_split_2
I0507 11:54:37.255100 28135 net.cpp:380] inception_4d/5x5_reduce -> inception_4d/5x5_reduce
I0507 11:54:37.260350 28135 net.cpp:122] Setting up inception_4d/5x5_reduce
I0507 11:54:37.260373 28135 net.cpp:129] Top shape: 16 32 14 14 (100352)
I0507 11:54:37.260377 28135 net.cpp:137] Memory required for data: 754878092
I0507 11:54:37.260388 28135 layer_factory.hpp:77] Creating layer inception_4d/relu_5x5_reduce
I0507 11:54:37.260401 28135 net.cpp:84] Creating Layer inception_4d/relu_5x5_reduce
I0507 11:54:37.260406 28135 net.cpp:406] inception_4d/relu_5x5_reduce <- inception_4d/5x5_reduce
I0507 11:54:37.260413 28135 net.cpp:367] inception_4d/relu_5x5_reduce -> inception_4d/5x5_reduce (in-place)
I0507 11:54:37.260999 28135 net.cpp:122] Setting up inception_4d/relu_5x5_reduce
I0507 11:54:37.261009 28135 net.cpp:129] Top shape: 16 32 14 14 (100352)
I0507 11:54:37.261013 28135 net.cpp:137] Memory required for data: 755279500
I0507 11:54:37.261016 28135 layer_factory.hpp:77] Creating layer inception_4d/5x5
I0507 11:54:37.261029 28135 net.cpp:84] Creating Layer inception_4d/5x5
I0507 11:54:37.261034 28135 net.cpp:406] inception_4d/5x5 <- inception_4d/5x5_reduce
I0507 11:54:37.261042 28135 net.cpp:380] inception_4d/5x5 -> inception_4d/5x5
I0507 11:54:37.263100 28135 net.cpp:122] Setting up inception_4d/5x5
I0507 11:54:37.263110 28135 net.cpp:129] Top shape: 16 64 14 14 (200704)
I0507 11:54:37.263114 28135 net.cpp:137] Memory required for data: 756082316
I0507 11:54:37.263121 28135 layer_factory.hpp:77] Creating layer inception_4d/relu_5x5
I0507 11:54:37.263129 28135 net.cpp:84] Creating Layer inception_4d/relu_5x5
I0507 11:54:37.263134 28135 net.cpp:406] inception_4d/relu_5x5 <- inception_4d/5x5
I0507 11:54:37.263139 28135 net.cpp:367] inception_4d/relu_5x5 -> inception_4d/5x5 (in-place)
I0507 11:54:37.263705 28135 net.cpp:122] Setting up inception_4d/relu_5x5
I0507 11:54:37.263715 28135 net.cpp:129] Top shape: 16 64 14 14 (200704)
I0507 11:54:37.263718 28135 net.cpp:137] Memory required for data: 756885132
I0507 11:54:37.263722 28135 layer_factory.hpp:77] Creating layer inception_4d/pool
I0507 11:54:37.263731 28135 net.cpp:84] Creating Layer inception_4d/pool
I0507 11:54:37.263736 28135 net.cpp:406] inception_4d/pool <- inception_4c/output_inception_4c/output_0_split_3
I0507 11:54:37.263742 28135 net.cpp:380] inception_4d/pool -> inception_4d/pool
I0507 11:54:37.263789 28135 net.cpp:122] Setting up inception_4d/pool
I0507 11:54:37.263795 28135 net.cpp:129] Top shape: 16 512 14 14 (1605632)
I0507 11:54:37.263799 28135 net.cpp:137] Memory required for data: 763307660
I0507 11:54:37.263804 28135 layer_factory.hpp:77] Creating layer inception_4d/pool_proj
I0507 11:54:37.263813 28135 net.cpp:84] Creating Layer inception_4d/pool_proj
I0507 11:54:37.263818 28135 net.cpp:406] inception_4d/pool_proj <- inception_4d/pool
I0507 11:54:37.263846 28135 net.cpp:380] inception_4d/pool_proj -> inception_4d/pool_proj
I0507 11:54:37.269565 28135 net.cpp:122] Setting up inception_4d/pool_proj
I0507 11:54:37.269588 28135 net.cpp:129] Top shape: 16 64 14 14 (200704)
I0507 11:54:37.269593 28135 net.cpp:137] Memory required for data: 764110476
I0507 11:54:37.269603 28135 layer_factory.hpp:77] Creating layer inception_4d/relu_pool_proj
I0507 11:54:37.269613 28135 net.cpp:84] Creating Layer inception_4d/relu_pool_proj
I0507 11:54:37.269619 28135 net.cpp:406] inception_4d/relu_pool_proj <- inception_4d/pool_proj
I0507 11:54:37.269629 28135 net.cpp:367] inception_4d/relu_pool_proj -> inception_4d/pool_proj (in-place)
I0507 11:54:37.270217 28135 net.cpp:122] Setting up inception_4d/relu_pool_proj
I0507 11:54:37.270228 28135 net.cpp:129] Top shape: 16 64 14 14 (200704)
I0507 11:54:37.270232 28135 net.cpp:137] Memory required for data: 764913292
I0507 11:54:37.270237 28135 layer_factory.hpp:77] Creating layer inception_4d/output
I0507 11:54:37.270246 28135 net.cpp:84] Creating Layer inception_4d/output
I0507 11:54:37.270252 28135 net.cpp:406] inception_4d/output <- inception_4d/1x1
I0507 11:54:37.270258 28135 net.cpp:406] inception_4d/output <- inception_4d/3x3
I0507 11:54:37.270263 28135 net.cpp:406] inception_4d/output <- inception_4d/5x5
I0507 11:54:37.270268 28135 net.cpp:406] inception_4d/output <- inception_4d/pool_proj
I0507 11:54:37.270277 28135 net.cpp:380] inception_4d/output -> inception_4d/output
I0507 11:54:37.270310 28135 net.cpp:122] Setting up inception_4d/output
I0507 11:54:37.270316 28135 net.cpp:129] Top shape: 16 528 14 14 (1655808)
I0507 11:54:37.270320 28135 net.cpp:137] Memory required for data: 771536524
I0507 11:54:37.270324 28135 layer_factory.hpp:77] Creating layer inception_4d/output_inception_4d/output_0_split
I0507 11:54:37.270332 28135 net.cpp:84] Creating Layer inception_4d/output_inception_4d/output_0_split
I0507 11:54:37.270336 28135 net.cpp:406] inception_4d/output_inception_4d/output_0_split <- inception_4d/output
I0507 11:54:37.270344 28135 net.cpp:380] inception_4d/output_inception_4d/output_0_split -> inception_4d/output_inception_4d/output_0_split_0
I0507 11:54:37.270351 28135 net.cpp:380] inception_4d/output_inception_4d/output_0_split -> inception_4d/output_inception_4d/output_0_split_1
I0507 11:54:37.270359 28135 net.cpp:380] inception_4d/output_inception_4d/output_0_split -> inception_4d/output_inception_4d/output_0_split_2
I0507 11:54:37.270365 28135 net.cpp:380] inception_4d/output_inception_4d/output_0_split -> inception_4d/output_inception_4d/output_0_split_3
I0507 11:54:37.270371 28135 net.cpp:380] inception_4d/output_inception_4d/output_0_split -> inception_4d/output_inception_4d/output_0_split_4
I0507 11:54:37.270439 28135 net.cpp:122] Setting up inception_4d/output_inception_4d/output_0_split
I0507 11:54:37.270445 28135 net.cpp:129] Top shape: 16 528 14 14 (1655808)
I0507 11:54:37.270449 28135 net.cpp:129] Top shape: 16 528 14 14 (1655808)
I0507 11:54:37.270453 28135 net.cpp:129] Top shape: 16 528 14 14 (1655808)
I0507 11:54:37.270458 28135 net.cpp:129] Top shape: 16 528 14 14 (1655808)
I0507 11:54:37.270462 28135 net.cpp:129] Top shape: 16 528 14 14 (1655808)
I0507 11:54:37.270467 28135 net.cpp:137] Memory required for data: 804652684
I0507 11:54:37.270469 28135 layer_factory.hpp:77] Creating layer loss2/ave_pool
I0507 11:54:37.270476 28135 net.cpp:84] Creating Layer loss2/ave_pool
I0507 11:54:37.270498 28135 net.cpp:406] loss2/ave_pool <- inception_4d/output_inception_4d/output_0_split_0
I0507 11:54:37.270506 28135 net.cpp:380] loss2/ave_pool -> loss2/ave_pool
I0507 11:54:37.273049 28135 net.cpp:122] Setting up loss2/ave_pool
I0507 11:54:37.273073 28135 net.cpp:129] Top shape: 16 528 4 4 (135168)
I0507 11:54:37.273079 28135 net.cpp:137] Memory required for data: 805193356
I0507 11:54:37.273087 28135 layer_factory.hpp:77] Creating layer loss2/conv
I0507 11:54:37.273103 28135 net.cpp:84] Creating Layer loss2/conv
I0507 11:54:37.273110 28135 net.cpp:406] loss2/conv <- loss2/ave_pool
I0507 11:54:37.273144 28135 net.cpp:380] loss2/conv -> loss2/conv
I0507 11:54:37.275568 28135 net.cpp:122] Setting up loss2/conv
I0507 11:54:37.275591 28135 net.cpp:129] Top shape: 16 128 4 4 (32768)
I0507 11:54:37.275595 28135 net.cpp:137] Memory required for data: 805324428
I0507 11:54:37.275605 28135 layer_factory.hpp:77] Creating layer loss2/relu_conv
I0507 11:54:37.275617 28135 net.cpp:84] Creating Layer loss2/relu_conv
I0507 11:54:37.275624 28135 net.cpp:406] loss2/relu_conv <- loss2/conv
I0507 11:54:37.275632 28135 net.cpp:367] loss2/relu_conv -> loss2/conv (in-place)
I0507 11:54:37.276242 28135 net.cpp:122] Setting up loss2/relu_conv
I0507 11:54:37.276252 28135 net.cpp:129] Top shape: 16 128 4 4 (32768)
I0507 11:54:37.276257 28135 net.cpp:137] Memory required for data: 805455500
I0507 11:54:37.276260 28135 layer_factory.hpp:77] Creating layer loss2/fc
I0507 11:54:37.276271 28135 net.cpp:84] Creating Layer loss2/fc
I0507 11:54:37.276276 28135 net.cpp:406] loss2/fc <- loss2/conv
I0507 11:54:37.276283 28135 net.cpp:380] loss2/fc -> loss2/fc
I0507 11:54:37.290899 28135 net.cpp:122] Setting up loss2/fc
I0507 11:54:37.290921 28135 net.cpp:129] Top shape: 16 1024 (16384)
I0507 11:54:37.290925 28135 net.cpp:137] Memory required for data: 805521036
I0507 11:54:37.290935 28135 layer_factory.hpp:77] Creating layer loss2/relu_fc
I0507 11:54:37.290946 28135 net.cpp:84] Creating Layer loss2/relu_fc
I0507 11:54:37.290951 28135 net.cpp:406] loss2/relu_fc <- loss2/fc
I0507 11:54:37.290957 28135 net.cpp:367] loss2/relu_fc -> loss2/fc (in-place)
I0507 11:54:37.291690 28135 net.cpp:122] Setting up loss2/relu_fc
I0507 11:54:37.291699 28135 net.cpp:129] Top shape: 16 1024 (16384)
I0507 11:54:37.291702 28135 net.cpp:137] Memory required for data: 805586572
I0507 11:54:37.291707 28135 layer_factory.hpp:77] Creating layer loss2/drop_fc
I0507 11:54:37.291715 28135 net.cpp:84] Creating Layer loss2/drop_fc
I0507 11:54:37.291719 28135 net.cpp:406] loss2/drop_fc <- loss2/fc
I0507 11:54:37.291724 28135 net.cpp:367] loss2/drop_fc -> loss2/fc (in-place)
I0507 11:54:37.291754 28135 net.cpp:122] Setting up loss2/drop_fc
I0507 11:54:37.291759 28135 net.cpp:129] Top shape: 16 1024 (16384)
I0507 11:54:37.291761 28135 net.cpp:137] Memory required for data: 805652108
I0507 11:54:37.291764 28135 layer_factory.hpp:77] Creating layer loss2/classifier
I0507 11:54:37.291772 28135 net.cpp:84] Creating Layer loss2/classifier
I0507 11:54:37.291775 28135 net.cpp:406] loss2/classifier <- loss2/fc
I0507 11:54:37.291783 28135 net.cpp:380] loss2/classifier -> loss2/classifier
I0507 11:54:37.293612 28135 net.cpp:122] Setting up loss2/classifier
I0507 11:54:37.293622 28135 net.cpp:129] Top shape: 16 196 (3136)
I0507 11:54:37.293625 28135 net.cpp:137] Memory required for data: 805664652
I0507 11:54:37.293632 28135 layer_factory.hpp:77] Creating layer loss2/classifier_loss2/classifier_0_split
I0507 11:54:37.293639 28135 net.cpp:84] Creating Layer loss2/classifier_loss2/classifier_0_split
I0507 11:54:37.293643 28135 net.cpp:406] loss2/classifier_loss2/classifier_0_split <- loss2/classifier
I0507 11:54:37.293650 28135 net.cpp:380] loss2/classifier_loss2/classifier_0_split -> loss2/classifier_loss2/classifier_0_split_0
I0507 11:54:37.293658 28135 net.cpp:380] loss2/classifier_loss2/classifier_0_split -> loss2/classifier_loss2/classifier_0_split_1
I0507 11:54:37.293664 28135 net.cpp:380] loss2/classifier_loss2/classifier_0_split -> loss2/classifier_loss2/classifier_0_split_2
I0507 11:54:37.293711 28135 net.cpp:122] Setting up loss2/classifier_loss2/classifier_0_split
I0507 11:54:37.293716 28135 net.cpp:129] Top shape: 16 196 (3136)
I0507 11:54:37.293720 28135 net.cpp:129] Top shape: 16 196 (3136)
I0507 11:54:37.293725 28135 net.cpp:129] Top shape: 16 196 (3136)
I0507 11:54:37.293727 28135 net.cpp:137] Memory required for data: 805702284
I0507 11:54:37.293730 28135 layer_factory.hpp:77] Creating layer loss2/loss
I0507 11:54:37.293737 28135 net.cpp:84] Creating Layer loss2/loss
I0507 11:54:37.293740 28135 net.cpp:406] loss2/loss <- loss2/classifier_loss2/classifier_0_split_0
I0507 11:54:37.293766 28135 net.cpp:406] loss2/loss <- label_val-data_1_split_3
…
I0507 11:54:37.294359 28135 net.cpp:122] Setting up loss2/top-5
I0507 11:54:37.294363 28135 net.cpp:129] Top shape: (1)
I0507 11:54:37.294366 28135 net.cpp:137] Memory required for data: 805702296
I0507 11:54:37.294369 28135 layer_factory.hpp:77] Creating layer inception_4e/1x1
I0507 11:54:37.294380 28135 net.cpp:84] Creating Layer inception_4e/1x1
I0507 11:54:37.294384 28135 net.cpp:406] inception_4e/1x1 <- inception_4d/output_inception_4d/output_0_split_1
I0507 11:54:37.294392 28135 net.cpp:380] inception_4e/1x1 -> inception_4e/1x1
I0507 11:54:37.297051 28135 net.cpp:122] Setting up inception_4e/1x1
I0507 11:54:37.297063 28135 net.cpp:129] Top shape: 16 256 14 14 (802816)
I0507 11:54:37.297067 28135 net.cpp:137] Memory required for data: 808913560
I0507 11:54:37.297075 28135 layer_factory.hpp:77] Creating layer inception_4e/relu_1x1
I0507 11:54:37.297081 28135 net.cpp:84] Creating Layer inception_4e/relu_1x1
I0507 11:54:37.297086 28135 net.cpp:406] inception_4e/relu_1x1 <- inception_4e/1x1
I0507 11:54:37.297093 28135 net.cpp:367] inception_4e/relu_1x1 -> inception_4e/1x1 (in-place)
I0507 11:54:37.305794 28135 net.cpp:122] Setting up inception_4e/relu_1x1
I0507 11:54:37.305819 28135 net.cpp:129] Top shape: 16 256 14 14 (802816)
I0507 11:54:37.305825 28135 net.cpp:137] Memory required for data: 812124824
I0507 11:54:37.305832 28135 layer_factory.hpp:77] Creating layer inception_4e/3x3_reduce
I0507 11:54:37.305896 28135 net.cpp:84] Creating Layer inception_4e/3x3_reduce
I0507 11:54:37.305905 28135 net.cpp:406] inception_4e/3x3_reduce <- inception_4d/output_inception_4d/output_0_split_2
I0507 11:54:37.305918 28135 net.cpp:380] inception_4e/3x3_reduce -> inception_4e/3x3_reduce
I0507 11:54:37.309684 28135 net.cpp:122] Setting up inception_4e/3x3_reduce
I0507 11:54:37.309703 28135 net.cpp:129] Top shape: 16 160 14 14 (501760)
I0507 11:54:37.309710 28135 net.cpp:137] Memory required for data: 814131864
I0507 11:54:37.309721 28135 layer_factory.hpp:77] Creating layer inception_4e/relu_3x3_reduce
I0507 11:54:37.309732 28135 net.cpp:84] Creating Layer inception_4e/relu_3x3_reduce
I0507 11:54:37.309739 28135 net.cpp:406] inception_4e/relu_3x3_reduce <- inception_4e/3x3_reduce
I0507 11:54:37.309751 28135 net.cpp:367] inception_4e/relu_3x3_reduce -> inception_4e/3x3_reduce (in-place)
I0507 11:54:37.310694 28135 net.cpp:122] Setting up inception_4e/relu_3x3_reduce
I0507 11:54:37.310711 28135 net.cpp:129] Top shape: 16 160 14 14 (501760)
I0507 11:54:37.310717 28135 net.cpp:137] Memory required for data: 816138904
I0507 11:54:37.310724 28135 layer_factory.hpp:77] Creating layer inception_4e/3x3
I0507 11:54:37.310768 28135 net.cpp:84] Creating Layer inception_4e/3x3
I0507 11:54:37.310775 28135 net.cpp:406] inception_4e/3x3 <- inception_4e/3x3_reduce
I0507 11:54:37.310786 28135 net.cpp:380] inception_4e/3x3 -> inception_4e/3x3
I0507 11:54:37.319921 28135 net.cpp:122] Setting up inception_4e/3x3
I0507 11:54:37.319942 28135 net.cpp:129] Top shape: 16 320 14 14 (1003520)
I0507 11:54:37.319947 28135 net.cpp:137] Memory required for data: 820152984
I0507 11:54:37.319957 28135 layer_factory.hpp:77] Creating layer inception_4e/relu_3x3
I0507 11:54:37.319969 28135 net.cpp:84] Creating Layer inception_4e/relu_3x3
I0507 11:54:37.319977 28135 net.cpp:406] inception_4e/relu_3x3 <- inception_4e/3x3
I0507 11:54:37.319984 28135 net.cpp:367] inception_4e/relu_3x3 -> inception_4e/3x3 (in-place)
I0507 11:54:37.320672 28135 net.cpp:122] Setting up inception_4e/relu_3x3
I0507 11:54:37.320684 28135 net.cpp:129] Top shape: 16 320 14 14 (1003520)
I0507 11:54:37.320688 28135 net.cpp:137] Memory required for data: 824167064
I0507 11:54:37.320693 28135 layer_factory.hpp:77] Creating layer inception_4e/5x5_reduce
I0507 11:54:37.320706 28135 net.cpp:84] Creating Layer inception_4e/5x5_reduce
I0507 11:54:37.320713 28135 net.cpp:406] inception_4e/5x5_reduce <- inception_4d/output_inception_4d/output_0_split_3
I0507 11:54:37.320722 28135 net.cpp:380] inception_4e/5x5_reduce -> inception_4e/5x5_reduce
I0507 11:54:37.324995 28135 net.cpp:122] Setting up inception_4e/5x5_reduce
I0507 11:54:37.325016 28135 net.cpp:129] Top shape: 16 32 14 14 (100352)
I0507 11:54:37.325021 28135 net.cpp:137] Memory required for data: 824568472
I0507 11:54:37.325031 28135 layer_factory.hpp:77] Creating layer inception_4e/relu_5x5_reduce
I0507 11:54:37.325040 28135 net.cpp:84] Creating Layer inception_4e/relu_5x5_reduce
I0507 11:54:37.325047 28135 net.cpp:406] inception_4e/relu_5x5_reduce <- inception_4e/5x5_reduce
I0507 11:54:37.325055 28135 net.cpp:367] inception_4e/relu_5x5_reduce -> inception_4e/5x5_reduce (in-place)
I0507 11:54:37.325757 28135 net.cpp:122] Setting up inception_4e/relu_5x5_reduce
I0507 11:54:37.325767 28135 net.cpp:129] Top shape: 16 32 14 14 (100352)
I0507 11:54:37.325772 28135 net.cpp:137] Memory required for data: 824969880
I0507 11:54:37.325776 28135 layer_factory.hpp:77] Creating layer inception_4e/5x5
I0507 11:54:37.325790 28135 net.cpp:84] Creating Layer inception_4e/5x5
I0507 11:54:37.325794 28135 net.cpp:406] inception_4e/5x5 <- inception_4e/5x5_reduce
I0507 11:54:37.325804 28135 net.cpp:380] inception_4e/5x5 -> inception_4e/5x5
I0507 11:54:37.328730 28135 net.cpp:122] Setting up inception_4e/5x5
I0507 11:54:37.328743 28135 net.cpp:129] Top shape: 16 128 14 14 (401408)
I0507 11:54:37.328747 28135 net.cpp:137] Memory required for data: 826575512
I0507 11:54:37.328755 28135 layer_factory.hpp:77] Creating layer inception_4e/relu_5x5
I0507 11:54:37.328763 28135 net.cpp:84] Creating Layer inception_4e/relu_5x5
I0507 11:54:37.328768 28135 net.cpp:406] inception_4e/relu_5x5 <- inception_4e/5x5
I0507 11:54:37.328778 28135 net.cpp:367] inception_4e/relu_5x5 -> inception_4e/5x5 (in-place)
I0507 11:54:37.329237 28135 net.cpp:122] Setting up inception_4e/relu_5x5
I0507 11:54:37.329247 28135 net.cpp:129] Top shape: 16 128 14 14 (401408)
I0507 11:54:37.329252 28135 net.cpp:137] Memory required for data: 828181144
I0507 11:54:37.329255 28135 layer_factory.hpp:77] Creating layer inception_4e/pool
I0507 11:54:37.329267 28135 net.cpp:84] Creating Layer inception_4e/pool
I0507 11:54:37.329272 28135 net.cpp:406] inception_4e/pool <- inception_4d/output_inception_4d/output_0_split_4
I0507 11:54:37.329278 28135 net.cpp:380] inception_4e/pool -> inception_4e/pool
I0507 11:54:37.329331 28135 net.cpp:122] Setting up inception_4e/pool
I0507 11:54:37.329339 28135 net.cpp:129] Top shape: 16 528 14 14 (1655808)
I0507 11:54:37.329342 28135 net.cpp:137] Memory required for data: 834804376
I0507 11:54:37.329347 28135 layer_factory.hpp:77] Creating layer inception_4e/pool_proj
I0507 11:54:37.329358 28135 net.cpp:84] Creating Layer inception_4e/pool_proj
I0507 11:54:37.329387 28135 net.cpp:406] inception_4e/pool_proj <- inception_4e/pool
I0507 11:54:37.329396 28135 net.cpp:380] inception_4e/pool_proj -> inception_4e/pool_proj
I0507 11:54:37.334405 28135 net.cpp:122] Setting up inception_4e/pool_proj
I0507 11:54:37.334424 28135 net.cpp:129] Top shape: 16 128 14 14 (401408)
I0507 11:54:37.334429 28135 net.cpp:137] Memory required for data: 836410008
I0507 11:54:37.334439 28135 layer_factory.hpp:77] Creating layer inception_4e/relu_pool_proj
I0507 11:54:37.334447 28135 net.cpp:84] Creating Layer inception_4e/relu_pool_proj
I0507 11:54:37.334453 28135 net.cpp:406] inception_4e/relu_pool_proj <- inception_4e/pool_proj
I0507 11:54:37.334461 28135 net.cpp:367] inception_4e/relu_pool_proj -> inception_4e/pool_proj (in-place)
I0507 11:54:37.337261 28135 net.cpp:122] Setting up inception_4e/relu_pool_proj
I0507 11:54:37.337283 28135 net.cpp:129] Top shape: 16 128 14 14 (401408)
I0507 11:54:37.337287 28135 net.cpp:137] Memory required for data: 838015640
I0507 11:54:37.337293 28135 layer_factory.hpp:77] Creating layer inception_4e/output
I0507 11:54:37.337306 28135 net.cpp:84] Creating Layer inception_4e/output
I0507 11:54:37.337312 28135 net.cpp:406] inception_4e/output <- inception_4e/1x1
I0507 11:54:37.337319 28135 net.cpp:406] inception_4e/output <- inception_4e/3x3
I0507 11:54:37.337325 28135 net.cpp:406] inception_4e/output <- inception_4e/5x5
I0507 11:54:37.337332 28135 net.cpp:406] inception_4e/output <- inception_4e/pool_proj
I0507 11:54:37.337340 28135 net.cpp:380] inception_4e/output -> inception_4e/output
I0507 11:54:37.337383 28135 net.cpp:122] Setting up inception_4e/output
I0507 11:54:37.337388 28135 net.cpp:129] Top shape: 16 832 14 14 (2609152)
I0507 11:54:37.337393 28135 net.cpp:137] Memory required for data: 848452248
I0507 11:54:37.337396 28135 layer_factory.hpp:77] Creating layer pool4/3x3_s2
I0507 11:54:37.337405 28135 net.cpp:84] Creating Layer pool4/3x3_s2
I0507 11:54:37.337410 28135 net.cpp:406] pool4/3x3_s2 <- inception_4e/output
I0507 11:54:37.337417 28135 net.cpp:380] pool4/3x3_s2 -> pool4/3x3_s2
I0507 11:54:37.337466 28135 net.cpp:122] Setting up pool4/3x3_s2
I0507 11:54:37.337473 28135 net.cpp:129] Top shape: 16 832 7 7 (652288)
I0507 11:54:37.337477 28135 net.cpp:137] Memory required for data: 851061400
I0507 11:54:37.337482 28135 layer_factory.hpp:77] Creating layer pool4/3x3_s2_pool4/3x3_s2_0_split
I0507 11:54:37.337491 28135 net.cpp:84] Creating Layer pool4/3x3_s2_pool4/3x3_s2_0_split
I0507 11:54:37.337496 28135 net.cpp:406] pool4/3x3_s2_pool4/3x3_s2_0_split <- pool4/3x3_s2
I0507 11:54:37.337503 28135 net.cpp:380] pool4/3x3_s2_pool4/3x3_s2_0_split -> pool4/3x3_s2_pool4/3x3_s2_0_split_0
I0507 11:54:37.337510 28135 net.cpp:380] pool4/3x3_s2_pool4/3x3_s2_0_split -> pool4/3x3_s2_pool4/3x3_s2_0_split_1
I0507 11:54:37.337517 28135 net.cpp:380] pool4/3x3_s2_pool4/3x3_s2_0_split -> pool4/3x3_s2_pool4/3x3_s2_0_split_2
I0507 11:54:37.337556 28135 net.cpp:380] pool4/3x3_s2_pool4/3x3_s2_0_split -> pool4/3x3_s2_pool4/3x3_s2_0_split_3
I0507 11:54:37.337616 28135 net.cpp:122] Setting up pool4/3x3_s2_pool4/3x3_s2_0_split
I0507 11:54:37.337623 28135 net.cpp:129] Top shape: 16 832 7 7 (652288)
I0507 11:54:37.337628 28135 net.cpp:129] Top shape: 16 832 7 7 (652288)
I0507 11:54:37.337633 28135 net.cpp:129] Top shape: 16 832 7 7 (652288)
I0507 11:54:37.337638 28135 net.cpp:129] Top shape: 16 832 7 7 (652288)
I0507 11:54:37.337641 28135 net.cpp:137] Memory required for data: 861498008
I0507 11:54:37.337646 28135 layer_factory.hpp:77] Creating layer inception_5a/1x1
I0507 11:54:37.337658 28135 net.cpp:84] Creating Layer inception_5a/1x1
I0507 11:54:37.337663 28135 net.cpp:406] inception_5a/1x1 <- pool4/3x3_s2_pool4/3x3_s2_0_split_0
I0507 11:54:37.337671 28135 net.cpp:380] inception_5a/1x1 -> inception_5a/1x1
I0507 11:54:37.341255 28135 net.cpp:122] Setting up inception_5a/1x1
I0507 11:54:37.341269 28135 net.cpp:129] Top shape: 16 256 7 7 (200704)
I0507 11:54:37.341272 28135 net.cpp:137] Memory required for data: 862300824
I0507 11:54:37.341281 28135 layer_factory.hpp:77] Creating layer inception_5a/relu_1x1
I0507 11:54:37.341311 28135 net.cpp:84] Creating Layer inception_5a/relu_1x1
I0507 11:54:37.341317 28135 net.cpp:406] inception_5a/relu_1x1 <- inception_5a/1x1
I0507 11:54:37.341323 28135 net.cpp:367] inception_5a/relu_1x1 -> inception_5a/1x1 (in-place)
I0507 11:54:37.341966 28135 net.cpp:122] Setting up inception_5a/relu_1x1
I0507 11:54:37.341977 28135 net.cpp:129] Top shape: 16 256 7 7 (200704)
I0507 11:54:37.341981 28135 net.cpp:137] Memory required for data: 863103640
I0507 11:54:37.341985 28135 layer_factory.hpp:77] Creating layer inception_5a/3x3_reduce
I0507 11:54:37.341997 28135 net.cpp:84] Creating Layer inception_5a/3x3_reduce
I0507 11:54:37.342003 28135 net.cpp:406] inception_5a/3x3_reduce <- pool4/3x3_s2_pool4/3x3_s2_0_split_1
I0507 11:54:37.342011 28135 net.cpp:380] inception_5a/3x3_reduce -> inception_5a/3x3_reduce
I0507 11:54:37.344990 28135 net.cpp:122] Setting up inception_5a/3x3_reduce
I0507 11:54:37.345005 28135 net.cpp:129] Top shape: 16 160 7 7 (125440)
I0507 11:54:37.345008 28135 net.cpp:137] Memory required for data: 863605400
I0507 11:54:37.345017 28135 layer_factory.hpp:77] Creating layer inception_5a/relu_3x3_reduce
I0507 11:54:37.345026 28135 net.cpp:84] Creating Layer inception_5a/relu_3x3_reduce
I0507 11:54:37.345031 28135 net.cpp:406] inception_5a/relu_3x3_reduce <- inception_5a/3x3_reduce
I0507 11:54:37.345039 28135 net.cpp:367] inception_5a/relu_3x3_reduce -> inception_5a/3x3_reduce (in-place)
I0507 11:54:37.345715 28135 net.cpp:122] Setting up inception_5a/relu_3x3_reduce
I0507 11:54:37.345726 28135 net.cpp:129] Top shape: 16 160 7 7 (125440)
I0507 11:54:37.345731 28135 net.cpp:137] Memory required for data: 864107160
I0507 11:54:37.345736 28135 layer_factory.hpp:77] Creating layer inception_5a/3x3
I0507 11:54:37.345747 28135 net.cpp:84] Creating Layer inception_5a/3x3
I0507 11:54:37.345752 28135 net.cpp:406] inception_5a/3x3 <- inception_5a/3x3_reduce
I0507 11:54:37.345762 28135 net.cpp:380] inception_5a/3x3 -> inception_5a/3x3
I0507 11:54:37.362291 28135 net.cpp:122] Setting up inception_5a/3x3
I0507 11:54:37.362313 28135 net.cpp:129] Top shape: 16 320 7 7 (250880)
I0507 11:54:37.362318 28135 net.cpp:137] Memory required for data: 865110680
I0507 11:54:37.362329 28135 layer_factory.hpp:77] Creating layer inception_5a/relu_3x3
I0507 11:54:37.362339 28135 net.cpp:84] Creating Layer inception_5a/relu_3x3
I0507 11:54:37.362345 28135 net.cpp:406] inception_5a/relu_3x3 <- inception_5a/3x3
I0507 11:54:37.362354 28135 net.cpp:367] inception_5a/relu_3x3 -> inception_5a/3x3 (in-place)
I0507 11:54:37.362994 28135 net.cpp:122] Setting up inception_5a/relu_3x3
I0507 11:54:37.363008 28135 net.cpp:129] Top shape: 16 320 7 7 (250880)
I0507 11:54:37.363010 28135 net.cpp:137] Memory required for data: 866114200
I0507 11:54:37.363015 28135 layer_factory.hpp:77] Creating layer inception_5a/5x5_reduce
I0507 11:54:37.363029 28135 net.cpp:84] Creating Layer inception_5a/5x5_reduce
I0507 11:54:37.363034 28135 net.cpp:406] inception_5a/5x5_reduce <- pool4/3x3_s2_pool4/3x3_s2_0_split_2
I0507 11:54:37.363042 28135 net.cpp:380] inception_5a/5x5_reduce -> inception_5a/5x5_reduce
I0507 11:54:37.365317 28135 net.cpp:122] Setting up inception_5a/5x5_reduce
I0507 11:54:37.365329 28135 net.cpp:129] Top shape: 16 32 7 7 (25088)
I0507 11:54:37.365334 28135 net.cpp:137] Memory required for data: 866214552
I0507 11:54:37.365340 28135 layer_factory.hpp:77] Creating layer inception_5a/relu_5x5_reduce
I0507 11:54:37.365348 28135 net.cpp:84] Creating Layer inception_5a/relu_5x5_reduce
I0507 11:54:37.365353 28135 net.cpp:406] inception_5a/relu_5x5_reduce <- inception_5a/5x5_reduce
I0507 11:54:37.365360 28135 net.cpp:367] inception_5a/relu_5x5_reduce -> inception_5a/5x5_reduce (in-place)
I0507 11:54:37.365788 28135 net.cpp:122] Setting up inception_5a/relu_5x5_reduce
I0507 11:54:37.365797 28135 net.cpp:129] Top shape: 16 32 7 7 (25088)
I0507 11:54:37.365801 28135 net.cpp:137] Memory required for data: 866314904
I0507 11:54:37.365805 28135 layer_factory.hpp:77] Creating layer inception_5a/5x5
I0507 11:54:37.365836 28135 net.cpp:84] Creating Layer inception_5a/5x5
I0507 11:54:37.365841 28135 net.cpp:406] inception_5a/5x5 <- inception_5a/5x5_reduce
I0507 11:54:37.365849 28135 net.cpp:380] inception_5a/5x5 -> inception_5a/5x5
I0507 11:54:37.368515 28135 net.cpp:122] Setting up inception_5a/5x5
I0507 11:54:37.368527 28135 net.cpp:129] Top shape: 16 128 7 7 (100352)
I0507 11:54:37.368530 28135 net.cpp:137] Memory required for data: 866716312
I0507 11:54:37.368538 28135 layer_factory.hpp:77] Creating layer inception_5a/relu_5x5
I0507 11:54:37.368544 28135 net.cpp:84] Creating Layer inception_5a/relu_5x5
I0507 11:54:37.368549 28135 net.cpp:406] inception_5a/relu_5x5 <- inception_5a/5x5
I0507 11:54:37.368556 28135 net.cpp:367] inception_5a/relu_5x5 -> inception_5a/5x5 (in-place)
I0507 11:54:37.371129 28135 net.cpp:122] Setting up inception_5a/relu_5x5
I0507 11:54:37.371145 28135 net.cpp:129] Top shape: 16 128 7 7 (100352)
I0507 11:54:37.371148 28135 net.cpp:137] Memory required for data: 867117720
I0507 11:54:37.371153 28135 layer_factory.hpp:77] Creating layer inception_5a/pool
I0507 11:54:37.371163 28135 net.cpp:84] Creating Layer inception_5a/pool
I0507 11:54:37.371170 28135 net.cpp:406] inception_5a/pool <- pool4/3x3_s2_pool4/3x3_s2_0_split_3
I0507 11:54:37.371178 28135 net.cpp:380] inception_5a/pool -> inception_5a/pool
I0507 11:54:37.371233 28135 net.cpp:122] Setting up inception_5a/pool
I0507 11:54:37.371240 28135 net.cpp:129] Top shape: 16 832 7 7 (652288)
I0507 11:54:37.371244 28135 net.cpp:137] Memory required for data: 869726872
I0507 11:54:37.371248 28135 layer_factory.hpp:77] Creating layer inception_5a/pool_proj
I0507 11:54:37.371258 28135 net.cpp:84] Creating Layer inception_5a/pool_proj
I0507 11:54:37.371263 28135 net.cpp:406] inception_5a/pool_proj <- inception_5a/pool
I0507 11:54:37.371270 28135 net.cpp:380] inception_5a/pool_proj -> inception_5a/pool_proj
I0507 11:54:37.388068 28135 net.cpp:122] Setting up inception_5a/pool_proj
I0507 11:54:37.388090 28135 net.cpp:129] Top shape: 16 128 7 7 (100352)
I0507 11:54:37.388095 28135 net.cpp:137] Memory required for data: 870128280
I0507 11:54:37.388106 28135 layer_factory.hpp:77] Creating layer inception_5a/relu_pool_proj
I0507 11:54:37.388116 28135 net.cpp:84] Creating Layer inception_5a/relu_pool_proj
I0507 11:54:37.388123 28135 net.cpp:406] inception_5a/relu_pool_proj <- inception_5a/pool_proj
I0507 11:54:37.388131 28135 net.cpp:367] inception_5a/relu_pool_proj -> inception_5a/pool_proj (in-place)
I0507 11:54:37.388748 28135 net.cpp:122] Setting up inception_5a/relu_pool_proj
I0507 11:54:37.388761 28135 net.cpp:129] Top shape: 16 128 7 7 (100352)
I0507 11:54:37.388764 28135 net.cpp:137] Memory required for data: 870529688
I0507 11:54:37.388768 28135 layer_factory.hpp:77] Creating layer inception_5a/output
I0507 11:54:37.388775 28135 net.cpp:84] Creating Layer inception_5a/output
I0507 11:54:37.388780 28135 net.cpp:406] inception_5a/output <- inception_5a/1x1
I0507 11:54:37.388787 28135 net.cpp:406] inception_5a/output <- inception_5a/3x3
I0507 11:54:37.388792 28135 net.cpp:406] inception_5a/output <- inception_5a/5x5
I0507 11:54:37.388795 28135 net.cpp:406] inception_5a/output <- inception_5a/pool_proj
I0507 11:54:37.388801 28135 net.cpp:380] inception_5a/output -> inception_5a/output
I0507 11:54:37.388833 28135 net.cpp:122] Setting up inception_5a/output
I0507 11:54:37.388840 28135 net.cpp:129] Top shape: 16 832 7 7 (652288)
I0507 11:54:37.388844 28135 net.cpp:137] Memory required for data: 873138840
I0507 11:54:37.388847 28135 layer_factory.hpp:77] Creating layer inception_5a/output_inception_5a/output_0_split
I0507 11:54:37.388854 28135 net.cpp:84] Creating Layer inception_5a/output_inception_5a/output_0_split
I0507 11:54:37.388859 28135 net.cpp:406] inception_5a/output_inception_5a/output_0_split <- inception_5a/output
I0507 11:54:37.388864 28135 net.cpp:380] inception_5a/output_inception_5a/output_0_split -> inception_5a/output_inception_5a/output_0_split_0
I0507 11:54:37.388873 28135 net.cpp:380] inception_5a/output_inception_5a/output_0_split -> inception_5a/output_inception_5a/output_0_split_1
I0507 11:54:37.388900 28135 net.cpp:380] inception_5a/output_inception_5a/output_0_split -> inception_5a/output_inception_5a/output_0_split_2
I0507 11:54:37.388907 28135 net.cpp:380] inception_5a/output_inception_5a/output_0_split -> inception_5a/output_inception_5a/output_0_split_3
I0507 11:54:37.388964 28135 net.cpp:122] Setting up inception_5a/output_inception_5a/output_0_split
I0507 11:54:37.388970 28135 net.cpp:129] Top shape: 16 832 7 7 (652288)
I0507 11:54:37.388975 28135 net.cpp:129] Top shape: 16 832 7 7 (652288)
I0507 11:54:37.388979 28135 net.cpp:129] Top shape: 16 832 7 7 (652288)
I0507 11:54:37.388983 28135 net.cpp:129] Top shape: 16 832 7 7 (652288)
I0507 11:54:37.388986 28135 net.cpp:137] Memory required for data: 883575448
I0507 11:54:37.388990 28135 layer_factory.hpp:77] Creating layer inception_5b/1x1
I0507 11:54:37.389004 28135 net.cpp:84] Creating Layer inception_5b/1x1
I0507 11:54:37.389008 28135 net.cpp:406] inception_5b/1x1 <- inception_5a/output_inception_5a/output_0_split_0
I0507 11:54:37.389014 28135 net.cpp:380] inception_5b/1x1 -> inception_5b/1x1
I0507 11:54:37.392586 28135 net.cpp:122] Setting up inception_5b/1x1
I0507 11:54:37.392599 28135 net.cpp:129] Top shape: 16 384 7 7 (301056)
I0507 11:54:37.392602 28135 net.cpp:137] Memory required for data: 884779672
I0507 11:54:37.392611 28135 layer_factory.hpp:77] Creating layer inception_5b/relu_1x1
I0507 11:54:37.392617 28135 net.cpp:84] Creating Layer inception_5b/relu_1x1
I0507 11:54:37.392622 28135 net.cpp:406] inception_5b/relu_1x1 <- inception_5b/1x1
I0507 11:54:37.392629 28135 net.cpp:367] inception_5b/relu_1x1 -> inception_5b/1x1 (in-place)
I0507 11:54:37.393221 28135 net.cpp:122] Setting up inception_5b/relu_1x1
I0507 11:54:37.393232 28135 net.cpp:129] Top shape: 16 384 7 7 (301056)
I0507 11:54:37.393235 28135 net.cpp:137] Memory required for data: 885983896
I0507 11:54:37.393240 28135 layer_factory.hpp:77] Creating layer inception_5b/3x3_reduce
I0507 11:54:37.393251 28135 net.cpp:84] Creating Layer inception_5b/3x3_reduce
I0507 11:54:37.393256 28135 net.cpp:406] inception_5b/3x3_reduce <- inception_5a/output_inception_5a/output_0_split_1
I0507 11:54:37.393265 28135 net.cpp:380] inception_5b/3x3_reduce -> inception_5b/3x3_reduce
I0507 11:54:37.398656 28135 net.cpp:122] Setting up inception_5b/3x3_reduce
I0507 11:54:37.398674 28135 net.cpp:129] Top shape: 16 192 7 7 (150528)
I0507 11:54:37.398679 28135 net.cpp:137] Memory required for data: 886586008
I0507 11:54:37.398687 28135 layer_factory.hpp:77] Creating layer inception_5b/relu_3x3_reduce
I0507 11:54:37.398696 28135 net.cpp:84] Creating Layer inception_5b/relu_3x3_reduce
I0507 11:54:37.398703 28135 net.cpp:406] inception_5b/relu_3x3_reduce <- inception_5b/3x3_reduce
I0507 11:54:37.398710 28135 net.cpp:367] inception_5b/relu_3x3_reduce -> inception_5b/3x3_reduce (in-place)
I0507 11:54:37.401583 28135 net.cpp:122] Setting up inception_5b/relu_3x3_reduce
I0507 11:54:37.401594 28135 net.cpp:129] Top shape: 16 192 7 7 (150528)
I0507 11:54:37.401598 28135 net.cpp:137] Memory required for data: 887188120
I0507 11:54:37.401602 28135 layer_factory.hpp:77] Creating layer inception_5b/3x3
I0507 11:54:37.401616 28135 net.cpp:84] Creating Layer inception_5b/3x3
I0507 11:54:37.401621 28135 net.cpp:406] inception_5b/3x3 <- inception_5b/3x3_reduce
I0507 11:54:37.401630 28135 net.cpp:380] inception_5b/3x3 -> inception_5b/3x3
I0507 11:54:37.409793 28135 net.cpp:122] Setting up inception_5b/3x3
I0507 11:54:37.409813 28135 net.cpp:129] Top shape: 16 384 7 7 (301056)
I0507 11:54:37.409816 28135 net.cpp:137] Memory required for data: 888392344
I0507 11:54:37.409826 28135 layer_factory.hpp:77] Creating layer inception_5b/relu_3x3
I0507 11:54:37.409837 28135 net.cpp:84] Creating Layer inception_5b/relu_3x3
I0507 11:54:37.409842 28135 net.cpp:406] inception_5b/relu_3x3 <- inception_5b/3x3
I0507 11:54:37.409848 28135 net.cpp:367] inception_5b/relu_3x3 -> inception_5b/3x3 (in-place)
I0507 11:54:37.410241 28135 net.cpp:122] Setting up inception_5b/relu_3x3
I0507 11:54:37.410271 28135 net.cpp:129] Top shape: 16 384 7 7 (301056)
I0507 11:54:37.410275 28135 net.cpp:137] Memory required for data: 889596568
I0507 11:54:37.410279 28135 layer_factory.hpp:77] Creating layer inception_5b/5x5_reduce
I0507 11:54:37.410290 28135 net.cpp:84] Creating Layer inception_5b/5x5_reduce
I0507 11:54:37.410295 28135 net.cpp:406] inception_5b/5x5_reduce <- inception_5a/output_inception_5a/output_0_split_2
I0507 11:54:37.410302 28135 net.cpp:380] inception_5b/5x5_reduce -> inception_5b/5x5_reduce
I0507 11:54:37.412551 28135 net.cpp:122] Setting up inception_5b/5x5_reduce
I0507 11:54:37.412562 28135 net.cpp:129] Top shape: 16 48 7 7 (37632)
I0507 11:54:37.412566 28135 net.cpp:137] Memory required for data: 889747096
I0507 11:54:37.412573 28135 layer_factory.hpp:77] Creating layer inception_5b/relu_5x5_reduce
I0507 11:54:37.412580 28135 net.cpp:84] Creating Layer inception_5b/relu_5x5_reduce
I0507 11:54:37.412585 28135 net.cpp:406] inception_5b/relu_5x5_reduce <- inception_5b/5x5_reduce
I0507 11:54:37.412591 28135 net.cpp:367] inception_5b/relu_5x5_reduce -> inception_5b/5x5_reduce (in-place)
I0507 11:54:37.412978 28135 net.cpp:122] Setting up inception_5b/relu_5x5_reduce
I0507 11:54:37.412987 28135 net.cpp:129] Top shape: 16 48 7 7 (37632)
I0507 11:54:37.412991 28135 net.cpp:137] Memory required for data: 889897624
I0507 11:54:37.412994 28135 layer_factory.hpp:77] Creating layer inception_5b/5x5
I0507 11:54:37.413005 28135 net.cpp:84] Creating Layer inception_5b/5x5
I0507 11:54:37.413010 28135 net.cpp:406] inception_5b/5x5 <- inception_5b/5x5_reduce
I0507 11:54:37.413017 28135 net.cpp:380] inception_5b/5x5 -> inception_5b/5x5
I0507 11:54:37.418272 28135 net.cpp:122] Setting up inception_5b/5x5
I0507 11:54:37.418292 28135 net.cpp:129] Top shape: 16 128 7 7 (100352)
I0507 11:54:37.418295 28135 net.cpp:137] Memory required for data: 890299032
I0507 11:54:37.418305 28135 layer_factory.hpp:77] Creating layer inception_5b/relu_5x5
I0507 11:54:37.418316 28135 net.cpp:84] Creating Layer inception_5b/relu_5x5
I0507 11:54:37.418323 28135 net.cpp:406] inception_5b/relu_5x5 <- inception_5b/5x5
I0507 11:54:37.418329 28135 net.cpp:367] inception_5b/relu_5x5 -> inception_5b/5x5 (in-place)
I0507 11:54:37.423645 28135 net.cpp:122] Setting up inception_5b/relu_5x5
I0507 11:54:37.423658 28135 net.cpp:129] Top shape: 16 128 7 7 (100352)
I0507 11:54:37.423662 28135 net.cpp:137] Memory required for data: 890700440
I0507 11:54:37.423667 28135 layer_factory.hpp:77] Creating layer inception_5b/pool
I0507 11:54:37.423676 28135 net.cpp:84] Creating Layer inception_5b/pool
I0507 11:54:37.423682 28135 net.cpp:406] inception_5b/pool <- inception_5a/output_inception_5a/output_0_split_3
I0507 11:54:37.423689 28135 net.cpp:380] inception_5b/pool -> inception_5b/pool
I0507 11:54:37.423744 28135 net.cpp:122] Setting up inception_5b/pool
I0507 11:54:37.423750 28135 net.cpp:129] Top shape: 16 832 7 7 (652288)
I0507 11:54:37.423754 28135 net.cpp:137] Memory required for data: 893309592
I0507 11:54:37.423758 28135 layer_factory.hpp:77] Creating layer inception_5b/pool_proj
I0507 11:54:37.423768 28135 net.cpp:84] Creating Layer inception_5b/pool_proj
I0507 11:54:37.423772 28135 net.cpp:406] inception_5b/pool_proj <- inception_5b/pool
I0507 11:54:37.423779 28135 net.cpp:380] inception_5b/pool_proj -> inception_5b/pool_proj
I0507 11:54:37.426026 28135 net.cpp:122] Setting up inception_5b/pool_proj
I0507 11:54:37.426036 28135 net.cpp:129] Top shape: 16 128 7 7 (100352)
I0507 11:54:37.426040 28135 net.cpp:137] Memory required for data: 893711000
I0507 11:54:37.426048 28135 layer_factory.hpp:77] Creating layer inception_5b/relu_pool_proj
I0507 11:54:37.426054 28135 net.cpp:84] Creating Layer inception_5b/relu_pool_proj
I0507 11:54:37.426060 28135 net.cpp:406] inception_5b/relu_pool_proj <- inception_5b/pool_proj
I0507 11:54:37.426065 28135 net.cpp:367] inception_5b/relu_pool_proj -> inception_5b/pool_proj (in-place)
I0507 11:54:37.426641 28135 net.cpp:122] Setting up inception_5b/relu_pool_proj
I0507 11:54:37.426651 28135 net.cpp:129] Top shape: 16 128 7 7 (100352)
I0507 11:54:37.426672 28135 net.cpp:137] Memory required for data: 894112408
I0507 11:54:37.426676 28135 layer_factory.hpp:77] Creating layer inception_5b/output
I0507 11:54:37.426682 28135 net.cpp:84] Creating Layer inception_5b/output
I0507 11:54:37.426687 28135 net.cpp:406] inception_5b/output <- inception_5b/1x1
I0507 11:54:37.426692 28135 net.cpp:406] inception_5b/output <- inception_5b/3x3
I0507 11:54:37.426697 28135 net.cpp:406] inception_5b/output <- inception_5b/5x5
I0507 11:54:37.426700 28135 net.cpp:406] inception_5b/output <- inception_5b/pool_proj
I0507 11:54:37.426707 28135 net.cpp:380] inception_5b/output -> inception_5b/output
I0507 11:54:37.426738 28135 net.cpp:122] Setting up inception_5b/output
I0507 11:54:37.426743 28135 net.cpp:129] Top shape: 16 1024 7 7 (802816)
I0507 11:54:37.426746 28135 net.cpp:137] Memory required for data: 897323672
I0507 11:54:37.426749 28135 layer_factory.hpp:77] Creating layer pool5/7x7_s1
I0507 11:54:37.426755 28135 net.cpp:84] Creating Layer pool5/7x7_s1
I0507 11:54:37.426759 28135 net.cpp:406] pool5/7x7_s1 <- inception_5b/output
I0507 11:54:37.426766 28135 net.cpp:380] pool5/7x7_s1 -> pool5/7x7_s1
I0507 11:54:37.427335 28135 net.cpp:122] Setting up pool5/7x7_s1
I0507 11:54:37.427345 28135 net.cpp:129] Top shape: 16 1024 1 1 (16384)
I0507 11:54:37.427347 28135 net.cpp:137] Memory required for data: 897389208
I0507 11:54:37.427351 28135 layer_factory.hpp:77] Creating layer pool5/drop_7x7_s1
I0507 11:54:37.427359 28135 net.cpp:84] Creating Layer pool5/drop_7x7_s1
I0507 11:54:37.427363 28135 net.cpp:406] pool5/drop_7x7_s1 <- pool5/7x7_s1
I0507 11:54:37.427369 28135 net.cpp:367] pool5/drop_7x7_s1 -> pool5/7x7_s1 (in-place)
I0507 11:54:37.427392 28135 net.cpp:122] Setting up pool5/drop_7x7_s1
I0507 11:54:37.427397 28135 net.cpp:129] Top shape: 16 1024 1 1 (16384)
I0507 11:54:37.427402 28135 net.cpp:137] Memory required for data: 897454744
I0507 11:54:37.427404 28135 layer_factory.hpp:77] Creating layer loss3/classifier
I0507 11:54:37.427412 28135 net.cpp:84] Creating Layer loss3/classifier
I0507 11:54:37.427414 28135 net.cpp:406] loss3/classifier <- pool5/7x7_s1
I0507 11:54:37.427422 28135 net.cpp:380] loss3/classifier -> loss3/classifier
I0507 11:54:37.429136 28135 net.cpp:122] Setting up loss3/classifier
I0507 11:54:37.429144 28135 net.cpp:129] Top shape: 16 196 (3136)
I0507 11:54:37.429147 28135 net.cpp:137] Memory required for data: 897467288
I0507 11:54:37.429154 28135 layer_factory.hpp:77] Creating layer loss3/classifier_loss3/classifier_0_split
I0507 11:54:37.429164 28135 net.cpp:84] Creating Layer loss3/classifier_loss3/classifier_0_split
I0507 11:54:37.429168 28135 net.cpp:406] loss3/classifier_loss3/classifier_0_split <- loss3/classifier
I0507 11:54:37.429173 28135 net.cpp:380] loss3/classifier_loss3/classifier_0_split -> loss3/classifier_loss3/classifier_0_split_0
I0507 11:54:37.429183 28135 net.cpp:380] loss3/classifier_loss3/classifier_0_split -> loss3/classifier_loss3/classifier_0_split_1
I0507 11:54:37.429188 28135 net.cpp:380] loss3/classifier_loss3/classifier_0_split -> loss3/classifier_loss3/classifier_0_split_2
I0507 11:54:37.429234 28135 net.cpp:122] Setting up loss3/classifier_loss3/classifier_0_split
I0507 11:54:37.429240 28135 net.cpp:129] Top shape: 16 196 (3136)
I0507 11:54:37.429244 28135 net.cpp:129] Top shape: 16 196 (3136)
I0507 11:54:37.429247 28135 net.cpp:129] Top shape: 16 196 (3136)
I0507 11:54:37.429250 28135 net.cpp:137] Memory required for data: 897504920
I0507 11:54:37.429253 28135 layer_factory.hpp:77] Creating layer loss3/loss
I0507 11:54:37.429260 28135 net.cpp:84] Creating Layer loss3/loss
I0507 11:54:37.429263 28135 net.cpp:406] loss3/loss <- loss3/classifier_loss3/classifier_0_split_0
I0507 11:54:37.429268 28135 net.cpp:406] loss3/loss <- label_val-data_1_split_6
…
