…
I0428 14:27:06.869141   378 net.cpp:294] The NetState phase (0) differed from the phase (1) specified by a rule in layer accuracy
I0428 14:27:06.869401   378 net.cpp:51] Initializing net from parameters:
state {
phase: TRAIN
level: 0
stage: ""
}
layer {
name: "train-data"
type: "Data"
top: "data"
top: "label"
include {
phase: TRAIN
}
transform_param {
mirror: true
crop_size: 227
mean_file: "/mnt/bigdisk/MANDIG2/digits/jobs/20200428-132136-11fe/mean.binaryproto"
}
data_param {
source: "/mnt/bigdisk/MANDIG2/digits/jobs/20200428-132136-11fe/train_db"
batch_size: 128
backend: LMDB
}
}
layer {
name: "conv1"
type: "Convolution"
bottom: "data"
top: "conv1"
param {
lr_mult: 1
decay_mult: 1
}
param {
lr_mult: 2
decay_mult: 0
}
convolution_param {
num_output: 96
kernel_size: 11
stride: 4
weight_filler {
type: "gaussian"
std: 0.01
}
bias_filler {
type: "constant"
value: 0
}
}
}
layer {
name: "relu1"
type: "ReLU"
bottom: "conv1"
top: "conv1"
}
layer {
name: "norm1"
type: "LRN"
bottom: "conv1"
top: "norm1"
lrn_param {
local_size: 5
alpha: 0.0001
beta: 0.75
}
}
layer {
name: "pool1"
type: "Pooling"
bottom: "norm1"
top: "pool1"
pooling_param {
pool: MAX
kernel_size: 3
stride: 2
}
}
layer {
name: "conv2"
type: "Convolution"
bottom: "pool1"
top: "conv2"
param {
lr_mult: 1
decay_mult: 1
}
param {
lr_mult: 2
decay_mult: 0
}
convolution_param {
num_output: 256
pad: 2
kernel_size: 5
group: 2
weight_filler {
type: "gaussian"
std: 0.01
}
bias_filler {
type: "constant"
value: 0.1
}
}
}
layer {
name: "relu2"
type: "ReLU"
bottom: "conv2"
top: "conv2"
}
layer {
name: "norm2"
type: "LRN"
bottom: "conv2"
top: "norm2"
lrn_param {
local_size: 5
alpha: 0.0001
beta: 0.75
}
}
layer {
name: "pool2"
type: "Pooling"
bottom: "norm2"
top: "pool2"
pooling_param {
pool: MAX
kernel_size: 3
stride: 2
}
}
layer {
name: "conv3"
type: "Convolution"
bottom: "pool2"
top: "conv3"
param {
lr_mult: 1
decay_mult: 1
}
param {
lr_mult: 2
decay_mult: 0
}
convolution_param {
num_output: 384
pad: 1
kernel_size: 3
weight_filler {
type: "gaussian"
std: 0.01
}
bias_filler {
type: "constant"
value: 0
}
}
}
layer {
name: "relu3"
type: "ReLU"
bottom: "conv3"
top: "conv3"
}
layer {
name: "conv4"
type: "Convolution"
bottom: "conv3"
top: "conv4"
param {
lr_mult: 1
decay_mult: 1
}
param {
lr_mult: 2
decay_mult: 0
}
convolution_param {
num_output: 384
pad: 1
kernel_size: 3
group: 2
weight_filler {
type: "gaussian"
std: 0.01
}
bias_filler {
type: "constant"
value: 0.1
}
}
}
layer {
name: "relu4"
type: "ReLU"
bottom: "conv4"
top: "conv4"
}
layer {
name: "conv5"
type: "Convolution"
bottom: "conv4"
top: "conv5"
param {
lr_mult: 1
decay_mult: 1
}
param {
lr_mult: 2
decay_mult: 0
}
convolution_param {
num_output: 256
pad: 1
kernel_size: 3
group: 2
weight_filler {
type: "gaussian"
std: 0.01
}
bias_filler {
type: "constant"
value: 0.1
}
}
}
layer {
name: "relu5"
type: "ReLU"
bottom: "conv5"
top: "conv5"
}
layer {
name: "pool5"
type: "Pooling"
bottom: "conv5"
top: "pool5"
pooling_param {
pool: MAX
kernel_size: 3
stride: 2
}
}
layer {
name: "fc6"
type: "InnerProduct"
bottom: "pool5"
top: "fc6"
param {
lr_mult: 1
decay_mult: 1
}
param {
lr_mult: 2
decay_mult: 0
}
inner_product_param {
num_output: 4096
weight_filler {
type: "gaussian"
std: 0.005
}
bias_filler {
type: "constant"
value: 0.1
}
}
}
layer {
name: "relu6"
type: "ReLU"
bottom: "fc6"
top: "fc6"
}
layer {
name: "drop6"
type: "Dropout"
bottom: "fc6"
top: "fc6"
dropout_param {
dropout_ratio: 0.5
}
}
layer {
name: "fc7"
type: "InnerProduct"
bottom: "fc6"
top: "fc7"
param {
lr_mult: 1
decay_mult: 1
}
param {
lr_mult: 2
decay_mult: 0
}
inner_product_param {
num_output: 4096
weight_filler {
type: "gaussian"
std: 0.005
}
bias_filler {
type: "constant"
value: 0.1
}
}
}
layer {
name: "relu7"
type: "ReLU"
bottom: "fc7"
top: "fc7"
}
layer {
name: "drop7"
type: "Dropout"
bottom: "fc7"
top: "fc7"
dropout_param {
dropout_ratio: 0.5
}
}
layer {
name: "fc8"
type: "InnerProduct"
bottom: "fc7"
top: "fc8"
param {
lr_mult: 1
decay_mult: 1
}
param {
lr_mult: 2
decay_mult: 0
}
inner_product_param {
num_output: 196
weight_filler {
type: "gaussian"
std: 0.01
}
bias_filler {
type: "constant"
value: 0
}
}
}
layer {
name: "loss"
type: "SoftmaxWithLoss"
bottom: "fc8"
bottom: "label"
top: "loss"
}
I0428 14:27:06.869554   378 layer_factory.hpp:77] Creating layer train-data
I0428 14:27:06.872267   378 db_lmdb.cpp:35] Opened lmdb /mnt/bigdisk/MANDIG2/digits/jobs/20200428-132136-11fe/train_db
I0428 14:27:06.902040   378 net.cpp:84] Creating Layer train-data
I0428 14:27:06.902084   378 net.cpp:380] train-data -> data
I0428 14:27:06.902123   378 net.cpp:380] train-data -> label
I0428 14:27:06.902158   378 data_transformer.cpp:25] Loading mean file from: /mnt/bigdisk/MANDIG2/digits/jobs/20200428-132136-11fe/mean.binaryproto
I0428 14:27:06.995180   378 data_layer.cpp:45] output data size: 128,3,227,227
I0428 14:27:07.194264   378 net.cpp:122] Setting up train-data
I0428 14:27:07.194308   378 net.cpp:129] Top shape: 128 3 227 227 (19787136)
I0428 14:27:07.194316   378 net.cpp:129] Top shape: 128 (128)
I0428 14:27:07.194326   378 net.cpp:137] Memory required for data: 79149056
I0428 14:27:07.194344   378 layer_factory.hpp:77] Creating layer conv1
I0428 14:27:07.194375   378 net.cpp:84] Creating Layer conv1
I0428 14:27:07.194387   378 net.cpp:406] conv1 <- data
I0428 14:27:07.194406   378 net.cpp:380] conv1 -> conv1
I0428 14:27:09.697367   378 net.cpp:122] Setting up conv1
I0428 14:27:09.697392   378 net.cpp:129] Top shape: 128 96 55 55 (37171200)
I0428 14:27:09.697398   378 net.cpp:137] Memory required for data: 227833856
I0428 14:27:09.697419   378 layer_factory.hpp:77] Creating layer relu1
I0428 14:27:09.697434   378 net.cpp:84] Creating Layer relu1
I0428 14:27:09.697441   378 net.cpp:406] relu1 <- conv1
I0428 14:27:09.697448   378 net.cpp:367] relu1 -> conv1 (in-place)
I0428 14:27:09.697806   378 net.cpp:122] Setting up relu1
I0428 14:27:09.697818   378 net.cpp:129] Top shape: 128 96 55 55 (37171200)
I0428 14:27:09.697824   378 net.cpp:137] Memory required for data: 376518656
I0428 14:27:09.697827   378 layer_factory.hpp:77] Creating layer norm1
I0428 14:27:09.697839   378 net.cpp:84] Creating Layer norm1
I0428 14:27:09.697844   378 net.cpp:406] norm1 <- conv1
I0428 14:27:09.697888   378 net.cpp:380] norm1 -> norm1
I0428 14:27:09.698588   378 net.cpp:122] Setting up norm1
I0428 14:27:09.698602   378 net.cpp:129] Top shape: 128 96 55 55 (37171200)
I0428 14:27:09.698607   378 net.cpp:137] Memory required for data: 525203456
I0428 14:27:09.698614   378 layer_factory.hpp:77] Creating layer pool1
I0428 14:27:09.698628   378 net.cpp:84] Creating Layer pool1
I0428 14:27:09.698634   378 net.cpp:406] pool1 <- norm1
I0428 14:27:09.698644   378 net.cpp:380] pool1 -> pool1
I0428 14:27:09.698691   378 net.cpp:122] Setting up pool1
I0428 14:27:09.698699   378 net.cpp:129] Top shape: 128 96 27 27 (8957952)
I0428 14:27:09.698705   378 net.cpp:137] Memory required for data: 561035264
I0428 14:27:09.698711   378 layer_factory.hpp:77] Creating layer conv2
I0428 14:27:09.698725   378 net.cpp:84] Creating Layer conv2
I0428 14:27:09.698734   378 net.cpp:406] conv2 <- pool1
I0428 14:27:09.698743   378 net.cpp:380] conv2 -> conv2
I0428 14:27:09.723847   378 net.cpp:122] Setting up conv2
I0428 14:27:09.723882   378 net.cpp:129] Top shape: 128 256 27 27 (23887872)
I0428 14:27:09.723896   378 net.cpp:137] Memory required for data: 656586752
I0428 14:27:09.723918   378 layer_factory.hpp:77] Creating layer relu2
I0428 14:27:09.723937   378 net.cpp:84] Creating Layer relu2
I0428 14:27:09.723949   378 net.cpp:406] relu2 <- conv2
I0428 14:27:09.723968   378 net.cpp:367] relu2 -> conv2 (in-place)
I0428 14:27:09.724835   378 net.cpp:122] Setting up relu2
I0428 14:27:09.724860   378 net.cpp:129] Top shape: 128 256 27 27 (23887872)
I0428 14:27:09.724869   378 net.cpp:137] Memory required for data: 752138240
I0428 14:27:09.724884   378 layer_factory.hpp:77] Creating layer norm2
I0428 14:27:09.724905   378 net.cpp:84] Creating Layer norm2
I0428 14:27:09.724915   378 net.cpp:406] norm2 <- conv2
I0428 14:27:09.724936   378 net.cpp:380] norm2 -> norm2
I0428 14:27:09.725540   378 net.cpp:122] Setting up norm2
I0428 14:27:09.725560   378 net.cpp:129] Top shape: 128 256 27 27 (23887872)
I0428 14:27:09.725572   378 net.cpp:137] Memory required for data: 847689728
I0428 14:27:09.725582   378 layer_factory.hpp:77] Creating layer pool2
I0428 14:27:09.725611   378 net.cpp:84] Creating Layer pool2
I0428 14:27:09.725622   378 net.cpp:406] pool2 <- norm2
I0428 14:27:09.725637   378 net.cpp:380] pool2 -> pool2
I0428 14:27:09.725693   378 net.cpp:122] Setting up pool2
I0428 14:27:09.725713   378 net.cpp:129] Top shape: 128 256 13 13 (5537792)
I0428 14:27:09.725723   378 net.cpp:137] Memory required for data: 869840896
I0428 14:27:09.725736   378 layer_factory.hpp:77] Creating layer conv3
I0428 14:27:09.725756   378 net.cpp:84] Creating Layer conv3
I0428 14:27:09.725766   378 net.cpp:406] conv3 <- pool2
I0428 14:27:09.725785   378 net.cpp:380] conv3 -> conv3
I0428 14:27:09.760058   378 net.cpp:122] Setting up conv3
I0428 14:27:09.760089   378 net.cpp:129] Top shape: 128 384 13 13 (8306688)
I0428 14:27:09.760102   378 net.cpp:137] Memory required for data: 903067648
I0428 14:27:09.760130   378 layer_factory.hpp:77] Creating layer relu3
I0428 14:27:09.760151   378 net.cpp:84] Creating Layer relu3
I0428 14:27:09.760164   378 net.cpp:406] relu3 <- conv3
I0428 14:27:09.760179   378 net.cpp:367] relu3 -> conv3 (in-place)
I0428 14:27:09.761181   378 net.cpp:122] Setting up relu3
I0428 14:27:09.761200   378 net.cpp:129] Top shape: 128 384 13 13 (8306688)
I0428 14:27:09.761211   378 net.cpp:137] Memory required for data: 936294400
I0428 14:27:09.761221   378 layer_factory.hpp:77] Creating layer conv4
I0428 14:27:09.761243   378 net.cpp:84] Creating Layer conv4
I0428 14:27:09.761255   378 net.cpp:406] conv4 <- conv3
I0428 14:27:09.761271   378 net.cpp:380] conv4 -> conv4
I0428 14:27:09.806622   378 net.cpp:122] Setting up conv4
I0428 14:27:09.806658   378 net.cpp:129] Top shape: 128 384 13 13 (8306688)
I0428 14:27:09.806665   378 net.cpp:137] Memory required for data: 969521152
I0428 14:27:09.806685   378 layer_factory.hpp:77] Creating layer relu4
I0428 14:27:09.806708   378 net.cpp:84] Creating Layer relu4
I0428 14:27:09.806762   378 net.cpp:406] relu4 <- conv4
I0428 14:27:09.806780   378 net.cpp:367] relu4 -> conv4 (in-place)
I0428 14:27:09.807343   378 net.cpp:122] Setting up relu4
I0428 14:27:09.807364   378 net.cpp:129] Top shape: 128 384 13 13 (8306688)
I0428 14:27:09.807381   378 net.cpp:137] Memory required for data: 1002747904
I0428 14:27:09.807399   378 layer_factory.hpp:77] Creating layer conv5
I0428 14:27:09.807423   378 net.cpp:84] Creating Layer conv5
I0428 14:27:09.807433   378 net.cpp:406] conv5 <- conv4
I0428 14:27:09.807447   378 net.cpp:380] conv5 -> conv5
I0428 14:27:09.844035   378 net.cpp:122] Setting up conv5
I0428 14:27:09.844070   378 net.cpp:129] Top shape: 128 256 13 13 (5537792)
I0428 14:27:09.844084   378 net.cpp:137] Memory required for data: 1024899072
I0428 14:27:09.844112   378 layer_factory.hpp:77] Creating layer relu5
I0428 14:27:09.844136   378 net.cpp:84] Creating Layer relu5
I0428 14:27:09.844151   378 net.cpp:406] relu5 <- conv5
I0428 14:27:09.844169   378 net.cpp:367] relu5 -> conv5 (in-place)
I0428 14:27:09.845157   378 net.cpp:122] Setting up relu5
I0428 14:27:09.845178   378 net.cpp:129] Top shape: 128 256 13 13 (5537792)
I0428 14:27:09.845189   378 net.cpp:137] Memory required for data: 1047050240
I0428 14:27:09.845204   378 layer_factory.hpp:77] Creating layer pool5
I0428 14:27:09.845227   378 net.cpp:84] Creating Layer pool5
I0428 14:27:09.845243   378 net.cpp:406] pool5 <- conv5
I0428 14:27:09.845265   378 net.cpp:380] pool5 -> pool5
I0428 14:27:09.845336   378 net.cpp:122] Setting up pool5
I0428 14:27:09.845353   378 net.cpp:129] Top shape: 128 256 6 6 (1179648)
I0428 14:27:09.845366   378 net.cpp:137] Memory required for data: 1051768832
I0428 14:27:09.845376   378 layer_factory.hpp:77] Creating layer fc6
I0428 14:27:09.845397   378 net.cpp:84] Creating Layer fc6
I0428 14:27:09.845409   378 net.cpp:406] fc6 <- pool5
I0428 14:27:09.845424   378 net.cpp:380] fc6 -> fc6
I0428 14:27:10.299484   378 net.cpp:122] Setting up fc6
I0428 14:27:10.299510   378 net.cpp:129] Top shape: 128 4096 (524288)
I0428 14:27:10.299515   378 net.cpp:137] Memory required for data: 1053865984
I0428 14:27:10.299527   378 layer_factory.hpp:77] Creating layer relu6
I0428 14:27:10.299538   378 net.cpp:84] Creating Layer relu6
I0428 14:27:10.299544   378 net.cpp:406] relu6 <- fc6
I0428 14:27:10.299551   378 net.cpp:367] relu6 -> fc6 (in-place)
I0428 14:27:10.311755   378 net.cpp:122] Setting up relu6
I0428 14:27:10.311789   378 net.cpp:129] Top shape: 128 4096 (524288)
I0428 14:27:10.311798   378 net.cpp:137] Memory required for data: 1055963136
I0428 14:27:10.311811   378 layer_factory.hpp:77] Creating layer drop6
I0428 14:27:10.311831   378 net.cpp:84] Creating Layer drop6
I0428 14:27:10.311843   378 net.cpp:406] drop6 <- fc6
I0428 14:27:10.311859   378 net.cpp:367] drop6 -> fc6 (in-place)
I0428 14:27:10.311911   378 net.cpp:122] Setting up drop6
I0428 14:27:10.311928   378 net.cpp:129] Top shape: 128 4096 (524288)
I0428 14:27:10.311937   378 net.cpp:137] Memory required for data: 1058060288
I0428 14:27:10.311947   378 layer_factory.hpp:77] Creating layer fc7
I0428 14:27:10.311965   378 net.cpp:84] Creating Layer fc7
I0428 14:27:10.311980   378 net.cpp:406] fc7 <- fc6
I0428 14:27:10.311993   378 net.cpp:380] fc7 -> fc7
I0428 14:27:10.511504   378 net.cpp:122] Setting up fc7
I0428 14:27:10.511531   378 net.cpp:129] Top shape: 128 4096 (524288)
I0428 14:27:10.511539   378 net.cpp:137] Memory required for data: 1060157440
I0428 14:27:10.511555   378 layer_factory.hpp:77] Creating layer relu7
I0428 14:27:10.511569   378 net.cpp:84] Creating Layer relu7
I0428 14:27:10.511576   378 net.cpp:406] relu7 <- fc7
I0428 14:27:10.511585   378 net.cpp:367] relu7 -> fc7 (in-place)
I0428 14:27:10.528353   378 net.cpp:122] Setting up relu7
I0428 14:27:10.528379   378 net.cpp:129] Top shape: 128 4096 (524288)
I0428 14:27:10.528388   378 net.cpp:137] Memory required for data: 1062254592
I0428 14:27:10.528398   378 layer_factory.hpp:77] Creating layer drop7
I0428 14:27:10.528412   378 net.cpp:84] Creating Layer drop7
I0428 14:27:10.528422   378 net.cpp:406] drop7 <- fc7
I0428 14:27:10.528456   378 net.cpp:367] drop7 -> fc7 (in-place)
I0428 14:27:10.528504   378 net.cpp:122] Setting up drop7
I0428 14:27:10.528514   378 net.cpp:129] Top shape: 128 4096 (524288)
I0428 14:27:10.528520   378 net.cpp:137] Memory required for data: 1064351744
I0428 14:27:10.528525   378 layer_factory.hpp:77] Creating layer fc8
I0428 14:27:10.528537   378 net.cpp:84] Creating Layer fc8
I0428 14:27:10.528543   378 net.cpp:406] fc8 <- fc7
I0428 14:27:10.528556   378 net.cpp:380] fc8 -> fc8
I0428 14:27:10.536474   378 net.cpp:122] Setting up fc8
I0428 14:27:10.536492   378 net.cpp:129] Top shape: 128 196 (25088)
I0428 14:27:10.536499   378 net.cpp:137] Memory required for data: 1064452096
I0428 14:27:10.536509   378 layer_factory.hpp:77] Creating layer loss
I0428 14:27:10.536520   378 net.cpp:84] Creating Layer loss
I0428 14:27:10.536527   378 net.cpp:406] loss <- fc8
I0428 14:27:10.536533   378 net.cpp:406] loss <- label
I0428 14:27:10.536542   378 net.cpp:380] loss -> loss
I0428 14:27:10.536553   378 layer_factory.hpp:77] Creating layer loss
…
I0428 14:27:10.538197   378 solver.cpp:172] Creating test net (#0) specified by net file: train_val.prototxt
I0428 14:27:10.538230   378 net.cpp:294] The NetState phase (1) differed from the phase (0) specified by a rule in layer train-data
I0428 14:27:10.538374   378 net.cpp:51] Initializing net from parameters:
state {
phase: TEST
}
layer {
name: "val-data"
type: "Data"
top: "data"
top: "label"
include {
phase: TEST
}
transform_param {
crop_size: 227
mean_file: "/mnt/bigdisk/MANDIG2/digits/jobs/20200428-132136-11fe/mean.binaryproto"
}
data_param {
source: "/mnt/bigdisk/MANDIG2/digits/jobs/20200428-132136-11fe/val_db"
batch_size: 32
backend: LMDB
}
}
layer {
name: "conv1"
type: "Convolution"
bottom: "data"
top: "conv1"
param {
lr_mult: 1
decay_mult: 1
}
param {
lr_mult: 2
decay_mult: 0
}
convolution_param {
num_output: 96
kernel_size: 11
stride: 4
weight_filler {
type: "gaussian"
std: 0.01
}
bias_filler {
type: "constant"
value: 0
}
}
}
layer {
name: "relu1"
type: "ReLU"
bottom: "conv1"
top: "conv1"
}
layer {
name: "norm1"
type: "LRN"
bottom: "conv1"
top: "norm1"
lrn_param {
local_size: 5
alpha: 0.0001
beta: 0.75
}
}
layer {
name: "pool1"
type: "Pooling"
bottom: "norm1"
top: "pool1"
pooling_param {
pool: MAX
kernel_size: 3
stride: 2
}
}
layer {
name: "conv2"
type: "Convolution"
bottom: "pool1"
top: "conv2"
param {
lr_mult: 1
decay_mult: 1
}
param {
lr_mult: 2
decay_mult: 0
}
convolution_param {
num_output: 256
pad: 2
kernel_size: 5
group: 2
weight_filler {
type: "gaussian"
std: 0.01
}
bias_filler {
type: "constant"
value: 0.1
}
}
}
layer {
name: "relu2"
type: "ReLU"
bottom: "conv2"
top: "conv2"
}
layer {
name: "norm2"
type: "LRN"
bottom: "conv2"
top: "norm2"
lrn_param {
local_size: 5
alpha: 0.0001
beta: 0.75
}
}
layer {
name: "pool2"
type: "Pooling"
bottom: "norm2"
top: "pool2"
pooling_param {
pool: MAX
kernel_size: 3
stride: 2
}
}
layer {
name: "conv3"
type: "Convolution"
bottom: "pool2"
top: "conv3"
param {
lr_mult: 1
decay_mult: 1
}
param {
lr_mult: 2
decay_mult: 0
}
convolution_param {
num_output: 384
pad: 1
kernel_size: 3
weight_filler {
type: "gaussian"
std: 0.01
}
bias_filler {
type: "constant"
value: 0
}
}
}
layer {
name: "relu3"
type: "ReLU"
bottom: "conv3"
top: "conv3"
}
layer {
name: "conv4"
type: "Convolution"
bottom: "conv3"
top: "conv4"
param {
lr_mult: 1
decay_mult: 1
}
param {
lr_mult: 2
decay_mult: 0
}
convolution_param {
num_output: 384
pad: 1
kernel_size: 3
group: 2
weight_filler {
type: "gaussian"
std: 0.01
}
bias_filler {
type: "constant"
value: 0.1
}
}
}
layer {
name: "relu4"
type: "ReLU"
bottom: "conv4"
top: "conv4"
}
layer {
name: "conv5"
type: "Convolution"
bottom: "conv4"
top: "conv5"
param {
lr_mult: 1
decay_mult: 1
}
param {
lr_mult: 2
decay_mult: 0
}
convolution_param {
num_output: 256
pad: 1
kernel_size: 3
group: 2
weight_filler {
type: "gaussian"
std: 0.01
}
bias_filler {
type: "constant"
value: 0.1
}
}
}
layer {
name: "relu5"
type: "ReLU"
bottom: "conv5"
top: "conv5"
}
layer {
name: "pool5"
type: "Pooling"
bottom: "conv5"
top: "pool5"
pooling_param {
pool: MAX
kernel_size: 3
stride: 2
}
}
layer {
name: "fc6"
type: "InnerProduct"
bottom: "pool5"
top: "fc6"
param {
lr_mult: 1
decay_mult: 1
}
param {
lr_mult: 2
decay_mult: 0
}
inner_product_param {
num_output: 4096
weight_filler {
type: "gaussian"
std: 0.005
}
bias_filler {
type: "constant"
value: 0.1
}
}
}
layer {
name: "relu6"
type: "ReLU"
bottom: "fc6"
top: "fc6"
}
layer {
name: "drop6"
type: "Dropout"
bottom: "fc6"
top: "fc6"
dropout_param {
dropout_ratio: 0.5
}
}
layer {
name: "fc7"
type: "InnerProduct"
bottom: "fc6"
top: "fc7"
param {
lr_mult: 1
decay_mult: 1
}
param {
lr_mult: 2
decay_mult: 0
}
inner_product_param {
num_output: 4096
weight_filler {
type: "gaussian"
std: 0.005
}
bias_filler {
type: "constant"
value: 0.1
}
}
}
layer {
name: "relu7"
type: "ReLU"
bottom: "fc7"
top: "fc7"
}
layer {
name: "drop7"
type: "Dropout"
bottom: "fc7"
top: "fc7"
dropout_param {
dropout_ratio: 0.5
}
}
layer {
name: "fc8"
type: "InnerProduct"
bottom: "fc7"
top: "fc8"
param {
lr_mult: 1
decay_mult: 1
}
param {
lr_mult: 2
decay_mult: 0
}
inner_product_param {
num_output: 196
weight_filler {
type: "gaussian"
std: 0.01
}
bias_filler {
type: "constant"
value: 0
}
}
}
layer {
name: "accuracy"
type: "Accuracy"
bottom: "fc8"
bottom: "label"
top: "accuracy"
include {
phase: TEST
}
}
layer {
name: "loss"
type: "SoftmaxWithLoss"
bottom: "fc8"
bottom: "label"
top: "loss"
}
I0428 14:27:10.538516   378 layer_factory.hpp:77] Creating layer val-data
I0428 14:27:10.541209   378 db_lmdb.cpp:35] Opened lmdb /mnt/bigdisk/MANDIG2/digits/jobs/20200428-132136-11fe/val_db
I0428 14:27:10.601843   378 net.cpp:84] Creating Layer val-data
I0428 14:27:10.601879   378 net.cpp:380] val-data -> data
I0428 14:27:10.601897   378 net.cpp:380] val-data -> label
I0428 14:27:10.601907   378 data_transformer.cpp:25] Loading mean file from: /mnt/bigdisk/MANDIG2/digits/jobs/20200428-132136-11fe/mean.binaryproto
I0428 14:27:10.608260   378 data_layer.cpp:45] output data size: 32,3,227,227
I0428 14:27:10.655853   378 net.cpp:122] Setting up val-data
I0428 14:27:10.655887   378 net.cpp:129] Top shape: 32 3 227 227 (4946784)
I0428 14:27:10.655905   378 net.cpp:129] Top shape: 32 (32)
I0428 14:27:10.655915   378 net.cpp:137] Memory required for data: 19787264
I0428 14:27:10.655928   378 layer_factory.hpp:77] Creating layer label_val-data_1_split
I0428 14:27:10.655951   378 net.cpp:84] Creating Layer label_val-data_1_split
I0428 14:27:10.655961   378 net.cpp:406] label_val-data_1_split <- label
I0428 14:27:10.655980   378 net.cpp:380] label_val-data_1_split -> label_val-data_1_split_0
I0428 14:27:10.655998   378 net.cpp:380] label_val-data_1_split -> label_val-data_1_split_1
I0428 14:27:10.656075   378 net.cpp:122] Setting up label_val-data_1_split
I0428 14:27:10.656088   378 net.cpp:129] Top shape: 32 (32)
I0428 14:27:10.656102   378 net.cpp:129] Top shape: 32 (32)
I0428 14:27:10.656113   378 net.cpp:137] Memory required for data: 19787520
I0428 14:27:10.656123   378 layer_factory.hpp:77] Creating layer conv1
I0428 14:27:10.656143   378 net.cpp:84] Creating Layer conv1
I0428 14:27:10.656154   378 net.cpp:406] conv1 <- data
I0428 14:27:10.656172   378 net.cpp:380] conv1 -> conv1
I0428 14:27:10.659179   378 net.cpp:122] Setting up conv1
I0428 14:27:10.659200   378 net.cpp:129] Top shape: 32 96 55 55 (9292800)
I0428 14:27:10.659207   378 net.cpp:137] Memory required for data: 56958720
I0428 14:27:10.659230   378 layer_factory.hpp:77] Creating layer relu1
I0428 14:27:10.659245   378 net.cpp:84] Creating Layer relu1
I0428 14:27:10.659256   378 net.cpp:406] relu1 <- conv1
I0428 14:27:10.659265   378 net.cpp:367] relu1 -> conv1 (in-place)
I0428 14:27:10.659678   378 net.cpp:122] Setting up relu1
I0428 14:27:10.659705   378 net.cpp:129] Top shape: 32 96 55 55 (9292800)
I0428 14:27:10.659718   378 net.cpp:137] Memory required for data: 94129920
I0428 14:27:10.659730   378 layer_factory.hpp:77] Creating layer norm1
I0428 14:27:10.659750   378 net.cpp:84] Creating Layer norm1
I0428 14:27:10.659761   378 net.cpp:406] norm1 <- conv1
I0428 14:27:10.659778   378 net.cpp:380] norm1 -> norm1
I0428 14:27:10.671862   378 net.cpp:122] Setting up norm1
I0428 14:27:10.671890   378 net.cpp:129] Top shape: 32 96 55 55 (9292800)
I0428 14:27:10.671900   378 net.cpp:137] Memory required for data: 131301120
I0428 14:27:10.671908   378 layer_factory.hpp:77] Creating layer pool1
I0428 14:27:10.671926   378 net.cpp:84] Creating Layer pool1
I0428 14:27:10.671934   378 net.cpp:406] pool1 <- norm1
I0428 14:27:10.671947   378 net.cpp:380] pool1 -> pool1
I0428 14:27:10.672003   378 net.cpp:122] Setting up pool1
I0428 14:27:10.672021   378 net.cpp:129] Top shape: 32 96 27 27 (2239488)
I0428 14:27:10.672030   378 net.cpp:137] Memory required for data: 140259072
I0428 14:27:10.672041   378 layer_factory.hpp:77] Creating layer conv2
I0428 14:27:10.672057   378 net.cpp:84] Creating Layer conv2
I0428 14:27:10.672068   378 net.cpp:406] conv2 <- pool1
I0428 14:27:10.672082   378 net.cpp:380] conv2 -> conv2
I0428 14:27:10.701654   378 net.cpp:122] Setting up conv2
I0428 14:27:10.701678   378 net.cpp:129] Top shape: 32 256 27 27 (5971968)
I0428 14:27:10.701684   378 net.cpp:137] Memory required for data: 164146944
I0428 14:27:10.701701   378 layer_factory.hpp:77] Creating layer relu2
I0428 14:27:10.701719   378 net.cpp:84] Creating Layer relu2
I0428 14:27:10.701725   378 net.cpp:406] relu2 <- conv2
I0428 14:27:10.701736   378 net.cpp:367] relu2 -> conv2 (in-place)
I0428 14:27:10.702342   378 net.cpp:122] Setting up relu2
I0428 14:27:10.702355   378 net.cpp:129] Top shape: 32 256 27 27 (5971968)
I0428 14:27:10.702363   378 net.cpp:137] Memory required for data: 188034816
I0428 14:27:10.702370   378 layer_factory.hpp:77] Creating layer norm2
I0428 14:27:10.702389   378 net.cpp:84] Creating Layer norm2
I0428 14:27:10.702397   378 net.cpp:406] norm2 <- conv2
I0428 14:27:10.702406   378 net.cpp:380] norm2 -> norm2
I0428 14:27:10.703275   378 net.cpp:122] Setting up norm2
I0428 14:27:10.703297   378 net.cpp:129] Top shape: 32 256 27 27 (5971968)
I0428 14:27:10.703305   378 net.cpp:137] Memory required for data: 211922688
I0428 14:27:10.703318   378 layer_factory.hpp:77] Creating layer pool2
I0428 14:27:10.703333   378 net.cpp:84] Creating Layer pool2
I0428 14:27:10.703341   378 net.cpp:406] pool2 <- norm2
I0428 14:27:10.703357   378 net.cpp:380] pool2 -> pool2
I0428 14:27:10.703410   378 net.cpp:122] Setting up pool2
I0428 14:27:10.703423   378 net.cpp:129] Top shape: 32 256 13 13 (1384448)
I0428 14:27:10.703431   378 net.cpp:137] Memory required for data: 217460480
I0428 14:27:10.703441   378 layer_factory.hpp:77] Creating layer conv3
I0428 14:27:10.703466   378 net.cpp:84] Creating Layer conv3
I0428 14:27:10.703477   378 net.cpp:406] conv3 <- pool2
I0428 14:27:10.703491   378 net.cpp:380] conv3 -> conv3
I0428 14:27:10.721643   378 net.cpp:122] Setting up conv3
I0428 14:27:10.721673   378 net.cpp:129] Top shape: 32 384 13 13 (2076672)
I0428 14:27:10.721679   378 net.cpp:137] Memory required for data: 225767168
I0428 14:27:10.721696   378 layer_factory.hpp:77] Creating layer relu3
I0428 14:27:10.721715   378 net.cpp:84] Creating Layer relu3
I0428 14:27:10.721724   378 net.cpp:406] relu3 <- conv3
I0428 14:27:10.721732   378 net.cpp:367] relu3 -> conv3 (in-place)
I0428 14:27:10.722352   378 net.cpp:122] Setting up relu3
I0428 14:27:10.722368   378 net.cpp:129] Top shape: 32 384 13 13 (2076672)
I0428 14:27:10.722375   378 net.cpp:137] Memory required for data: 234073856
I0428 14:27:10.722383   378 layer_factory.hpp:77] Creating layer conv4
I0428 14:27:10.722400   378 net.cpp:84] Creating Layer conv4
I0428 14:27:10.722406   378 net.cpp:406] conv4 <- conv3
I0428 14:27:10.722416   378 net.cpp:380] conv4 -> conv4
I0428 14:27:10.740090   378 net.cpp:122] Setting up conv4
I0428 14:27:10.740116   378 net.cpp:129] Top shape: 32 384 13 13 (2076672)
I0428 14:27:10.740123   378 net.cpp:137] Memory required for data: 242380544
I0428 14:27:10.740136   378 layer_factory.hpp:77] Creating layer relu4
I0428 14:27:10.740149   378 net.cpp:84] Creating Layer relu4
I0428 14:27:10.740157   378 net.cpp:406] relu4 <- conv4
I0428 14:27:10.740164   378 net.cpp:367] relu4 -> conv4 (in-place)
I0428 14:27:10.740535   378 net.cpp:122] Setting up relu4
I0428 14:27:10.740546   378 net.cpp:129] Top shape: 32 384 13 13 (2076672)
I0428 14:27:10.740552   378 net.cpp:137] Memory required for data: 250687232
I0428 14:27:10.740561   378 layer_factory.hpp:77] Creating layer conv5
I0428 14:27:10.740576   378 net.cpp:84] Creating Layer conv5
I0428 14:27:10.740581   378 net.cpp:406] conv5 <- conv4
I0428 14:27:10.740593   378 net.cpp:380] conv5 -> conv5
I0428 14:27:10.772469   378 net.cpp:122] Setting up conv5
I0428 14:27:10.772500   378 net.cpp:129] Top shape: 32 256 13 13 (1384448)
I0428 14:27:10.772509   378 net.cpp:137] Memory required for data: 256225024
I0428 14:27:10.772529   378 layer_factory.hpp:77] Creating layer relu5
I0428 14:27:10.772545   378 net.cpp:84] Creating Layer relu5
I0428 14:27:10.772554   378 net.cpp:406] relu5 <- conv5
I0428 14:27:10.772591   378 net.cpp:367] relu5 -> conv5 (in-place)
I0428 14:27:10.773241   378 net.cpp:122] Setting up relu5
I0428 14:27:10.773257   378 net.cpp:129] Top shape: 32 256 13 13 (1384448)
I0428 14:27:10.773267   378 net.cpp:137] Memory required for data: 261762816
I0428 14:27:10.773275   378 layer_factory.hpp:77] Creating layer pool5
I0428 14:27:10.773291   378 net.cpp:84] Creating Layer pool5
I0428 14:27:10.773303   378 net.cpp:406] pool5 <- conv5
I0428 14:27:10.773314   378 net.cpp:380] pool5 -> pool5
I0428 14:27:10.773365   378 net.cpp:122] Setting up pool5
I0428 14:27:10.773376   378 net.cpp:129] Top shape: 32 256 6 6 (294912)
I0428 14:27:10.773382   378 net.cpp:137] Memory required for data: 262942464
I0428 14:27:10.773389   378 layer_factory.hpp:77] Creating layer fc6
I0428 14:27:10.773403   378 net.cpp:84] Creating Layer fc6
I0428 14:27:10.773411   378 net.cpp:406] fc6 <- pool5
I0428 14:27:10.773422   378 net.cpp:380] fc6 -> fc6
I0428 14:27:11.262928   378 net.cpp:122] Setting up fc6
I0428 14:27:11.262954   378 net.cpp:129] Top shape: 32 4096 (131072)
I0428 14:27:11.262965   378 net.cpp:137] Memory required for data: 263466752
I0428 14:27:11.262981   378 layer_factory.hpp:77] Creating layer relu6
I0428 14:27:11.262995   378 net.cpp:84] Creating Layer relu6
I0428 14:27:11.263002   378 net.cpp:406] relu6 <- fc6
I0428 14:27:11.263013   378 net.cpp:367] relu6 -> fc6 (in-place)
I0428 14:27:11.326632   378 net.cpp:122] Setting up relu6
I0428 14:27:11.326664   378 net.cpp:129] Top shape: 32 4096 (131072)
I0428 14:27:11.326676   378 net.cpp:137] Memory required for data: 263991040
I0428 14:27:11.326687   378 layer_factory.hpp:77] Creating layer drop6
I0428 14:27:11.326704   378 net.cpp:84] Creating Layer drop6
I0428 14:27:11.326712   378 net.cpp:406] drop6 <- fc6
I0428 14:27:11.326726   378 net.cpp:367] drop6 -> fc6 (in-place)
I0428 14:27:11.326787   378 net.cpp:122] Setting up drop6
I0428 14:27:11.326800   378 net.cpp:129] Top shape: 32 4096 (131072)
I0428 14:27:11.326807   378 net.cpp:137] Memory required for data: 264515328
I0428 14:27:11.326812   378 layer_factory.hpp:77] Creating layer fc7
I0428 14:27:11.326825   378 net.cpp:84] Creating Layer fc7
I0428 14:27:11.326833   378 net.cpp:406] fc7 <- fc6
I0428 14:27:11.326846   378 net.cpp:380] fc7 -> fc7
I0428 14:27:11.617283   378 net.cpp:122] Setting up fc7
I0428 14:27:11.617312   378 net.cpp:129] Top shape: 32 4096 (131072)
I0428 14:27:11.617318   378 net.cpp:137] Memory required for data: 265039616
I0428 14:27:11.617333   378 layer_factory.hpp:77] Creating layer relu7
I0428 14:27:11.617347   378 net.cpp:84] Creating Layer relu7
I0428 14:27:11.617357   378 net.cpp:406] relu7 <- fc7
I0428 14:27:11.617369   378 net.cpp:367] relu7 -> fc7 (in-place)
I0428 14:27:11.617831   378 net.cpp:122] Setting up relu7
I0428 14:27:11.617846   378 net.cpp:129] Top shape: 32 4096 (131072)
I0428 14:27:11.617852   378 net.cpp:137] Memory required for data: 265563904
I0428 14:27:11.617859   378 layer_factory.hpp:77] Creating layer drop7
I0428 14:27:11.617869   378 net.cpp:84] Creating Layer drop7
I0428 14:27:11.617878   378 net.cpp:406] drop7 <- fc7
I0428 14:27:11.617890   378 net.cpp:367] drop7 -> fc7 (in-place)
I0428 14:27:11.617924   378 net.cpp:122] Setting up drop7
I0428 14:27:11.617935   378 net.cpp:129] Top shape: 32 4096 (131072)
I0428 14:27:11.617941   378 net.cpp:137] Memory required for data: 266088192
I0428 14:27:11.617947   378 layer_factory.hpp:77] Creating layer fc8
I0428 14:27:11.617960   378 net.cpp:84] Creating Layer fc8
I0428 14:27:11.617966   378 net.cpp:406] fc8 <- fc7
I0428 14:27:11.617976   378 net.cpp:380] fc8 -> fc8
I0428 14:27:11.639603   378 net.cpp:122] Setting up fc8
I0428 14:27:11.639634   378 net.cpp:129] Top shape: 32 196 (6272)
I0428 14:27:11.639641   378 net.cpp:137] Memory required for data: 266113280
I0428 14:27:11.639655   378 layer_factory.hpp:77] Creating layer fc8_fc8_0_split
I0428 14:27:11.639668   378 net.cpp:84] Creating Layer fc8_fc8_0_split
I0428 14:27:11.639678   378 net.cpp:406] fc8_fc8_0_split <- fc8
I0428 14:27:11.639688   378 net.cpp:380] fc8_fc8_0_split -> fc8_fc8_0_split_0
I0428 14:27:11.639722   378 net.cpp:380] fc8_fc8_0_split -> fc8_fc8_0_split_1
I0428 14:27:11.639766   378 net.cpp:122] Setting up fc8_fc8_0_split
I0428 14:27:11.639775   378 net.cpp:129] Top shape: 32 196 (6272)
I0428 14:27:11.639782   378 net.cpp:129] Top shape: 32 196 (6272)
I0428 14:27:11.639788   378 net.cpp:137] Memory required for data: 266163456
I0428 14:27:11.639794   378 layer_factory.hpp:77] Creating layer accuracy
I0428 14:27:11.639804   378 net.cpp:84] Creating Layer accuracy
I0428 14:27:11.639811   378 net.cpp:406] accuracy <- fc8_fc8_0_split_0
I0428 14:27:11.639820   378 net.cpp:406] accuracy <- label_val-data_1_split_0
I0428 14:27:11.639832   378 net.cpp:380] accuracy -> accuracy
…
