…
I0430 16:01:09.809314  4372 net.cpp:294] The NetState phase (0) differed from the phase (1) specified by a rule in layer accuracy
I0430 16:01:09.809512  4372 net.cpp:51] Initializing net from parameters:
state {
phase: TRAIN
level: 0
stage: ""
}
layer {
name: "train-data"
type: "Data"
top: "data"
top: "label"
include {
phase: TRAIN
}
transform_param {
mirror: true
crop_size: 227
mean_file: "/mnt/bigdisk/MANDIG2/digits/jobs/20200428-132136-11fe/mean.binaryproto"
}
data_param {
source: "/mnt/bigdisk/MANDIG2/digits/jobs/20200428-132136-11fe/train_db"
batch_size: 128
backend: LMDB
}
}
layer {
name: "conv1"
type: "Convolution"
bottom: "data"
top: "conv1"
param {
lr_mult: 1
decay_mult: 1
}
param {
lr_mult: 2
decay_mult: 0
}
convolution_param {
num_output: 96
kernel_size: 11
stride: 4
weight_filler {
type: "gaussian"
std: 0.01
}
bias_filler {
type: "constant"
value: 0
}
}
}
layer {
name: "relu1"
type: "ReLU"
bottom: "conv1"
top: "conv1"
}
layer {
name: "norm1"
type: "LRN"
bottom: "conv1"
top: "norm1"
lrn_param {
local_size: 5
alpha: 0.0001
beta: 0.75
}
}
layer {
name: "pool1"
type: "Pooling"
bottom: "norm1"
top: "pool1"
pooling_param {
pool: MAX
kernel_size: 3
stride: 2
}
}
layer {
name: "conv2"
type: "Convolution"
bottom: "pool1"
top: "conv2"
param {
lr_mult: 1
decay_mult: 1
}
param {
lr_mult: 2
decay_mult: 0
}
convolution_param {
num_output: 256
pad: 2
kernel_size: 5
group: 2
weight_filler {
type: "gaussian"
std: 0.01
}
bias_filler {
type: "constant"
value: 0.1
}
}
}
layer {
name: "relu2"
type: "ReLU"
bottom: "conv2"
top: "conv2"
}
layer {
name: "norm2"
type: "LRN"
bottom: "conv2"
top: "norm2"
lrn_param {
local_size: 5
alpha: 0.0001
beta: 0.75
}
}
layer {
name: "pool2"
type: "Pooling"
bottom: "norm2"
top: "pool2"
pooling_param {
pool: MAX
kernel_size: 3
stride: 2
}
}
layer {
name: "conv3"
type: "Convolution"
bottom: "pool2"
top: "conv3"
param {
lr_mult: 1
decay_mult: 1
}
param {
lr_mult: 2
decay_mult: 0
}
convolution_param {
num_output: 384
pad: 1
kernel_size: 3
weight_filler {
type: "gaussian"
std: 0.01
}
bias_filler {
type: "constant"
value: 0
}
}
}
layer {
name: "relu3"
type: "ReLU"
bottom: "conv3"
top: "conv3"
}
layer {
name: "conv4"
type: "Convolution"
bottom: "conv3"
top: "conv4"
param {
lr_mult: 1
decay_mult: 1
}
param {
lr_mult: 2
decay_mult: 0
}
convolution_param {
num_output: 384
pad: 1
kernel_size: 3
group: 2
weight_filler {
type: "gaussian"
std: 0.01
}
bias_filler {
type: "constant"
value: 0.1
}
}
}
layer {
name: "relu4"
type: "ReLU"
bottom: "conv4"
top: "conv4"
}
layer {
name: "conv5"
type: "Convolution"
bottom: "conv4"
top: "conv5"
param {
lr_mult: 1
decay_mult: 1
}
param {
lr_mult: 2
decay_mult: 0
}
convolution_param {
num_output: 256
pad: 1
kernel_size: 3
group: 2
weight_filler {
type: "gaussian"
std: 0.01
}
bias_filler {
type: "constant"
value: 0.1
}
}
}
layer {
name: "relu5"
type: "ReLU"
bottom: "conv5"
top: "conv5"
}
layer {
name: "pool5"
type: "Pooling"
bottom: "conv5"
top: "pool5"
pooling_param {
pool: MAX
kernel_size: 3
stride: 2
}
}
layer {
name: "fc6"
type: "InnerProduct"
bottom: "pool5"
top: "fc6"
param {
lr_mult: 1
decay_mult: 1
}
param {
lr_mult: 2
decay_mult: 0
}
inner_product_param {
num_output: 4096
weight_filler {
type: "gaussian"
std: 0.005
}
bias_filler {
type: "constant"
value: 0.1
}
}
}
layer {
name: "relu6"
type: "ReLU"
bottom: "fc6"
top: "fc6"
}
layer {
name: "drop6"
type: "Dropout"
bottom: "fc6"
top: "fc6"
dropout_param {
dropout_ratio: 0.5
}
}
layer {
name: "fc7"
type: "InnerProduct"
bottom: "fc6"
top: "fc7"
param {
lr_mult: 1
decay_mult: 1
}
param {
lr_mult: 2
decay_mult: 0
}
inner_product_param {
num_output: 4096
weight_filler {
type: "gaussian"
std: 0.005
}
bias_filler {
type: "constant"
value: 0.1
}
}
}
layer {
name: "relu7"
type: "ReLU"
bottom: "fc7"
top: "fc7"
}
layer {
name: "drop7"
type: "Dropout"
bottom: "fc7"
top: "fc7"
dropout_param {
dropout_ratio: 0.5
}
}
layer {
name: "fc8"
type: "InnerProduct"
bottom: "fc7"
top: "fc8"
param {
lr_mult: 1
decay_mult: 1
}
param {
lr_mult: 2
decay_mult: 0
}
inner_product_param {
num_output: 196
weight_filler {
type: "gaussian"
std: 0.01
}
bias_filler {
type: "constant"
value: 0
}
}
}
layer {
name: "loss"
type: "SoftmaxWithLoss"
bottom: "fc8"
bottom: "label"
top: "loss"
}
I0430 16:01:09.809633  4372 layer_factory.hpp:77] Creating layer train-data
I0430 16:01:09.812345  4372 db_lmdb.cpp:35] Opened lmdb /mnt/bigdisk/MANDIG2/digits/jobs/20200428-132136-11fe/train_db
I0430 16:01:09.812597  4372 net.cpp:84] Creating Layer train-data
I0430 16:01:09.812615  4372 net.cpp:380] train-data -> data
I0430 16:01:09.812645  4372 net.cpp:380] train-data -> label
I0430 16:01:09.812661  4372 data_transformer.cpp:25] Loading mean file from: /mnt/bigdisk/MANDIG2/digits/jobs/20200428-132136-11fe/mean.binaryproto
I0430 16:01:09.820144  4372 data_layer.cpp:45] output data size: 128,3,227,227
I0430 16:01:10.025151  4372 net.cpp:122] Setting up train-data
I0430 16:01:10.025182  4372 net.cpp:129] Top shape: 128 3 227 227 (19787136)
I0430 16:01:10.025190  4372 net.cpp:129] Top shape: 128 (128)
I0430 16:01:10.025195  4372 net.cpp:137] Memory required for data: 79149056
I0430 16:01:10.025210  4372 layer_factory.hpp:77] Creating layer conv1
I0430 16:01:10.025239  4372 net.cpp:84] Creating Layer conv1
I0430 16:01:10.025249  4372 net.cpp:406] conv1 <- data
I0430 16:01:10.025266  4372 net.cpp:380] conv1 -> conv1
I0430 16:01:12.402240  4372 net.cpp:122] Setting up conv1
I0430 16:01:12.402264  4372 net.cpp:129] Top shape: 128 96 55 55 (37171200)
I0430 16:01:12.402271  4372 net.cpp:137] Memory required for data: 227833856
I0430 16:01:12.402292  4372 layer_factory.hpp:77] Creating layer relu1
I0430 16:01:12.402305  4372 net.cpp:84] Creating Layer relu1
I0430 16:01:12.402310  4372 net.cpp:406] relu1 <- conv1
I0430 16:01:12.402318  4372 net.cpp:367] relu1 -> conv1 (in-place)
I0430 16:01:12.404722  4372 net.cpp:122] Setting up relu1
I0430 16:01:12.404736  4372 net.cpp:129] Top shape: 128 96 55 55 (37171200)
I0430 16:01:12.404742  4372 net.cpp:137] Memory required for data: 376518656
I0430 16:01:12.404748  4372 layer_factory.hpp:77] Creating layer norm1
I0430 16:01:12.404760  4372 net.cpp:84] Creating Layer norm1
I0430 16:01:12.404765  4372 net.cpp:406] norm1 <- conv1
I0430 16:01:12.404793  4372 net.cpp:380] norm1 -> norm1
I0430 16:01:12.407411  4372 net.cpp:122] Setting up norm1
I0430 16:01:12.407425  4372 net.cpp:129] Top shape: 128 96 55 55 (37171200)
I0430 16:01:12.407430  4372 net.cpp:137] Memory required for data: 525203456
I0430 16:01:12.407436  4372 layer_factory.hpp:77] Creating layer pool1
I0430 16:01:12.407449  4372 net.cpp:84] Creating Layer pool1
I0430 16:01:12.407455  4372 net.cpp:406] pool1 <- norm1
I0430 16:01:12.407462  4372 net.cpp:380] pool1 -> pool1
I0430 16:01:12.407500  4372 net.cpp:122] Setting up pool1
I0430 16:01:12.407508  4372 net.cpp:129] Top shape: 128 96 27 27 (8957952)
I0430 16:01:12.407512  4372 net.cpp:137] Memory required for data: 561035264
I0430 16:01:12.407517  4372 layer_factory.hpp:77] Creating layer conv2
I0430 16:01:12.407528  4372 net.cpp:84] Creating Layer conv2
I0430 16:01:12.407534  4372 net.cpp:406] conv2 <- pool1
I0430 16:01:12.407539  4372 net.cpp:380] conv2 -> conv2
I0430 16:01:12.434090  4372 net.cpp:122] Setting up conv2
I0430 16:01:12.434113  4372 net.cpp:129] Top shape: 128 256 27 27 (23887872)
I0430 16:01:12.434118  4372 net.cpp:137] Memory required for data: 656586752
I0430 16:01:12.434134  4372 layer_factory.hpp:77] Creating layer relu2
I0430 16:01:12.434145  4372 net.cpp:84] Creating Layer relu2
I0430 16:01:12.434151  4372 net.cpp:406] relu2 <- conv2
I0430 16:01:12.434159  4372 net.cpp:367] relu2 -> conv2 (in-place)
I0430 16:01:12.434689  4372 net.cpp:122] Setting up relu2
I0430 16:01:12.434698  4372 net.cpp:129] Top shape: 128 256 27 27 (23887872)
I0430 16:01:12.434702  4372 net.cpp:137] Memory required for data: 752138240
I0430 16:01:12.434710  4372 layer_factory.hpp:77] Creating layer norm2
I0430 16:01:12.434718  4372 net.cpp:84] Creating Layer norm2
I0430 16:01:12.434723  4372 net.cpp:406] norm2 <- conv2
I0430 16:01:12.434731  4372 net.cpp:380] norm2 -> norm2
I0430 16:01:12.436772  4372 net.cpp:122] Setting up norm2
I0430 16:01:12.436782  4372 net.cpp:129] Top shape: 128 256 27 27 (23887872)
I0430 16:01:12.436786  4372 net.cpp:137] Memory required for data: 847689728
I0430 16:01:12.436791  4372 layer_factory.hpp:77] Creating layer pool2
I0430 16:01:12.436800  4372 net.cpp:84] Creating Layer pool2
I0430 16:01:12.436805  4372 net.cpp:406] pool2 <- norm2
I0430 16:01:12.436810  4372 net.cpp:380] pool2 -> pool2
I0430 16:01:12.436839  4372 net.cpp:122] Setting up pool2
I0430 16:01:12.436846  4372 net.cpp:129] Top shape: 128 256 13 13 (5537792)
I0430 16:01:12.436851  4372 net.cpp:137] Memory required for data: 869840896
I0430 16:01:12.436856  4372 layer_factory.hpp:77] Creating layer conv3
I0430 16:01:12.436867  4372 net.cpp:84] Creating Layer conv3
I0430 16:01:12.436872  4372 net.cpp:406] conv3 <- pool2
I0430 16:01:12.436877  4372 net.cpp:380] conv3 -> conv3
I0430 16:01:12.450951  4372 net.cpp:122] Setting up conv3
I0430 16:01:12.450970  4372 net.cpp:129] Top shape: 128 384 13 13 (8306688)
I0430 16:01:12.450975  4372 net.cpp:137] Memory required for data: 903067648
I0430 16:01:12.450989  4372 layer_factory.hpp:77] Creating layer relu3
I0430 16:01:12.451000  4372 net.cpp:84] Creating Layer relu3
I0430 16:01:12.451006  4372 net.cpp:406] relu3 <- conv3
I0430 16:01:12.451012  4372 net.cpp:367] relu3 -> conv3 (in-place)
I0430 16:01:12.453332  4372 net.cpp:122] Setting up relu3
I0430 16:01:12.453342  4372 net.cpp:129] Top shape: 128 384 13 13 (8306688)
I0430 16:01:12.453346  4372 net.cpp:137] Memory required for data: 936294400
I0430 16:01:12.453352  4372 layer_factory.hpp:77] Creating layer conv4
I0430 16:01:12.453364  4372 net.cpp:84] Creating Layer conv4
I0430 16:01:12.453370  4372 net.cpp:406] conv4 <- conv3
I0430 16:01:12.453378  4372 net.cpp:380] conv4 -> conv4
I0430 16:01:12.541479  4372 net.cpp:122] Setting up conv4
I0430 16:01:12.541507  4372 net.cpp:129] Top shape: 128 384 13 13 (8306688)
I0430 16:01:12.541514  4372 net.cpp:137] Memory required for data: 969521152
I0430 16:01:12.541529  4372 layer_factory.hpp:77] Creating layer relu4
I0430 16:01:12.541543  4372 net.cpp:84] Creating Layer relu4
I0430 16:01:12.541551  4372 net.cpp:406] relu4 <- conv4
I0430 16:01:12.541592  4372 net.cpp:367] relu4 -> conv4 (in-place)
I0430 16:01:12.542240  4372 net.cpp:122] Setting up relu4
I0430 16:01:12.542250  4372 net.cpp:129] Top shape: 128 384 13 13 (8306688)
I0430 16:01:12.542255  4372 net.cpp:137] Memory required for data: 1002747904
I0430 16:01:12.542261  4372 layer_factory.hpp:77] Creating layer conv5
I0430 16:01:12.542276  4372 net.cpp:84] Creating Layer conv5
I0430 16:01:12.542281  4372 net.cpp:406] conv5 <- conv4
I0430 16:01:12.542290  4372 net.cpp:380] conv5 -> conv5
I0430 16:01:12.729387  4372 net.cpp:122] Setting up conv5
I0430 16:01:12.729423  4372 net.cpp:129] Top shape: 128 256 13 13 (5537792)
I0430 16:01:12.729430  4372 net.cpp:137] Memory required for data: 1024899072
I0430 16:01:12.729463  4372 layer_factory.hpp:77] Creating layer relu5
I0430 16:01:12.729480  4372 net.cpp:84] Creating Layer relu5
I0430 16:01:12.729488  4372 net.cpp:406] relu5 <- conv5
I0430 16:01:12.729501  4372 net.cpp:367] relu5 -> conv5 (in-place)
I0430 16:01:12.730409  4372 net.cpp:122] Setting up relu5
I0430 16:01:12.730427  4372 net.cpp:129] Top shape: 128 256 13 13 (5537792)
I0430 16:01:12.730434  4372 net.cpp:137] Memory required for data: 1047050240
I0430 16:01:12.730442  4372 layer_factory.hpp:77] Creating layer pool5
I0430 16:01:12.730455  4372 net.cpp:84] Creating Layer pool5
I0430 16:01:12.730463  4372 net.cpp:406] pool5 <- conv5
I0430 16:01:12.730470  4372 net.cpp:380] pool5 -> pool5
I0430 16:01:12.730581  4372 net.cpp:122] Setting up pool5
I0430 16:01:12.730593  4372 net.cpp:129] Top shape: 128 256 6 6 (1179648)
I0430 16:01:12.730599  4372 net.cpp:137] Memory required for data: 1051768832
I0430 16:01:12.730605  4372 layer_factory.hpp:77] Creating layer fc6
I0430 16:01:12.730623  4372 net.cpp:84] Creating Layer fc6
I0430 16:01:12.730629  4372 net.cpp:406] fc6 <- pool5
I0430 16:01:12.730638  4372 net.cpp:380] fc6 -> fc6
I0430 16:01:13.154778  4372 net.cpp:122] Setting up fc6
I0430 16:01:13.154801  4372 net.cpp:129] Top shape: 128 4096 (524288)
I0430 16:01:13.154805  4372 net.cpp:137] Memory required for data: 1053865984
I0430 16:01:13.154817  4372 layer_factory.hpp:77] Creating layer relu6
I0430 16:01:13.154827  4372 net.cpp:84] Creating Layer relu6
I0430 16:01:13.154832  4372 net.cpp:406] relu6 <- fc6
I0430 16:01:13.154839  4372 net.cpp:367] relu6 -> fc6 (in-place)
I0430 16:01:13.155516  4372 net.cpp:122] Setting up relu6
I0430 16:01:13.155527  4372 net.cpp:129] Top shape: 128 4096 (524288)
I0430 16:01:13.155532  4372 net.cpp:137] Memory required for data: 1055963136
I0430 16:01:13.155536  4372 layer_factory.hpp:77] Creating layer drop6
I0430 16:01:13.155544  4372 net.cpp:84] Creating Layer drop6
I0430 16:01:13.155548  4372 net.cpp:406] drop6 <- fc6
I0430 16:01:13.155555  4372 net.cpp:367] drop6 -> fc6 (in-place)
I0430 16:01:13.155582  4372 net.cpp:122] Setting up drop6
I0430 16:01:13.155588  4372 net.cpp:129] Top shape: 128 4096 (524288)
I0430 16:01:13.155591  4372 net.cpp:137] Memory required for data: 1058060288
I0430 16:01:13.155596  4372 layer_factory.hpp:77] Creating layer fc7
I0430 16:01:13.155604  4372 net.cpp:84] Creating Layer fc7
I0430 16:01:13.155608  4372 net.cpp:406] fc7 <- fc6
I0430 16:01:13.155619  4372 net.cpp:380] fc7 -> fc7
I0430 16:01:13.341892  4372 net.cpp:122] Setting up fc7
I0430 16:01:13.341912  4372 net.cpp:129] Top shape: 128 4096 (524288)
I0430 16:01:13.341917  4372 net.cpp:137] Memory required for data: 1060157440
I0430 16:01:13.341928  4372 layer_factory.hpp:77] Creating layer relu7
I0430 16:01:13.341936  4372 net.cpp:84] Creating Layer relu7
I0430 16:01:13.341941  4372 net.cpp:406] relu7 <- fc7
I0430 16:01:13.341948  4372 net.cpp:367] relu7 -> fc7 (in-place)
I0430 16:01:13.380084  4372 net.cpp:122] Setting up relu7
I0430 16:01:13.380108  4372 net.cpp:129] Top shape: 128 4096 (524288)
I0430 16:01:13.380117  4372 net.cpp:137] Memory required for data: 1062254592
I0430 16:01:13.380126  4372 layer_factory.hpp:77] Creating layer drop7
I0430 16:01:13.380139  4372 net.cpp:84] Creating Layer drop7
I0430 16:01:13.380146  4372 net.cpp:406] drop7 <- fc7
I0430 16:01:13.380175  4372 net.cpp:367] drop7 -> fc7 (in-place)
I0430 16:01:13.380224  4372 net.cpp:122] Setting up drop7
I0430 16:01:13.380231  4372 net.cpp:129] Top shape: 128 4096 (524288)
I0430 16:01:13.380237  4372 net.cpp:137] Memory required for data: 1064351744
I0430 16:01:13.380241  4372 layer_factory.hpp:77] Creating layer fc8
I0430 16:01:13.380251  4372 net.cpp:84] Creating Layer fc8
I0430 16:01:13.380256  4372 net.cpp:406] fc8 <- fc7
I0430 16:01:13.380265  4372 net.cpp:380] fc8 -> fc8
I0430 16:01:13.389513  4372 net.cpp:122] Setting up fc8
I0430 16:01:13.389533  4372 net.cpp:129] Top shape: 128 196 (25088)
I0430 16:01:13.389537  4372 net.cpp:137] Memory required for data: 1064452096
I0430 16:01:13.389547  4372 layer_factory.hpp:77] Creating layer loss
I0430 16:01:13.389556  4372 net.cpp:84] Creating Layer loss
I0430 16:01:13.389561  4372 net.cpp:406] loss <- fc8
I0430 16:01:13.389566  4372 net.cpp:406] loss <- label
I0430 16:01:13.389573  4372 net.cpp:380] loss -> loss
I0430 16:01:13.389586  4372 layer_factory.hpp:77] Creating layer loss
…
I0430 16:01:13.443300  4372 solver.cpp:172] Creating test net (#0) specified by net file: train_val.prototxt
I0430 16:01:13.443339  4372 net.cpp:294] The NetState phase (1) differed from the phase (0) specified by a rule in layer train-data
I0430 16:01:13.443485  4372 net.cpp:51] Initializing net from parameters:
state {
phase: TEST
}
layer {
name: "val-data"
type: "Data"
top: "data"
top: "label"
include {
phase: TEST
}
transform_param {
crop_size: 227
mean_file: "/mnt/bigdisk/MANDIG2/digits/jobs/20200428-132136-11fe/mean.binaryproto"
}
data_param {
source: "/mnt/bigdisk/MANDIG2/digits/jobs/20200428-132136-11fe/val_db"
batch_size: 32
backend: LMDB
}
}
layer {
name: "conv1"
type: "Convolution"
bottom: "data"
top: "conv1"
param {
lr_mult: 1
decay_mult: 1
}
param {
lr_mult: 2
decay_mult: 0
}
convolution_param {
num_output: 96
kernel_size: 11
stride: 4
weight_filler {
type: "gaussian"
std: 0.01
}
bias_filler {
type: "constant"
value: 0
}
}
}
layer {
name: "relu1"
type: "ReLU"
bottom: "conv1"
top: "conv1"
}
layer {
name: "norm1"
type: "LRN"
bottom: "conv1"
top: "norm1"
lrn_param {
local_size: 5
alpha: 0.0001
beta: 0.75
}
}
layer {
name: "pool1"
type: "Pooling"
bottom: "norm1"
top: "pool1"
pooling_param {
pool: MAX
kernel_size: 3
stride: 2
}
}
layer {
name: "conv2"
type: "Convolution"
bottom: "pool1"
top: "conv2"
param {
lr_mult: 1
decay_mult: 1
}
param {
lr_mult: 2
decay_mult: 0
}
convolution_param {
num_output: 256
pad: 2
kernel_size: 5
group: 2
weight_filler {
type: "gaussian"
std: 0.01
}
bias_filler {
type: "constant"
value: 0.1
}
}
}
layer {
name: "relu2"
type: "ReLU"
bottom: "conv2"
top: "conv2"
}
layer {
name: "norm2"
type: "LRN"
bottom: "conv2"
top: "norm2"
lrn_param {
local_size: 5
alpha: 0.0001
beta: 0.75
}
}
layer {
name: "pool2"
type: "Pooling"
bottom: "norm2"
top: "pool2"
pooling_param {
pool: MAX
kernel_size: 3
stride: 2
}
}
layer {
name: "conv3"
type: "Convolution"
bottom: "pool2"
top: "conv3"
param {
lr_mult: 1
decay_mult: 1
}
param {
lr_mult: 2
decay_mult: 0
}
convolution_param {
num_output: 384
pad: 1
kernel_size: 3
weight_filler {
type: "gaussian"
std: 0.01
}
bias_filler {
type: "constant"
value: 0
}
}
}
layer {
name: "relu3"
type: "ReLU"
bottom: "conv3"
top: "conv3"
}
layer {
name: "conv4"
type: "Convolution"
bottom: "conv3"
top: "conv4"
param {
lr_mult: 1
decay_mult: 1
}
param {
lr_mult: 2
decay_mult: 0
}
convolution_param {
num_output: 384
pad: 1
kernel_size: 3
group: 2
weight_filler {
type: "gaussian"
std: 0.01
}
bias_filler {
type: "constant"
value: 0.1
}
}
}
layer {
name: "relu4"
type: "ReLU"
bottom: "conv4"
top: "conv4"
}
layer {
name: "conv5"
type: "Convolution"
bottom: "conv4"
top: "conv5"
param {
lr_mult: 1
decay_mult: 1
}
param {
lr_mult: 2
decay_mult: 0
}
convolution_param {
num_output: 256
pad: 1
kernel_size: 3
group: 2
weight_filler {
type: "gaussian"
std: 0.01
}
bias_filler {
type: "constant"
value: 0.1
}
}
}
layer {
name: "relu5"
type: "ReLU"
bottom: "conv5"
top: "conv5"
}
layer {
name: "pool5"
type: "Pooling"
bottom: "conv5"
top: "pool5"
pooling_param {
pool: MAX
kernel_size: 3
stride: 2
}
}
layer {
name: "fc6"
type: "InnerProduct"
bottom: "pool5"
top: "fc6"
param {
lr_mult: 1
decay_mult: 1
}
param {
lr_mult: 2
decay_mult: 0
}
inner_product_param {
num_output: 4096
weight_filler {
type: "gaussian"
std: 0.005
}
bias_filler {
type: "constant"
value: 0.1
}
}
}
layer {
name: "relu6"
type: "ReLU"
bottom: "fc6"
top: "fc6"
}
layer {
name: "drop6"
type: "Dropout"
bottom: "fc6"
top: "fc6"
dropout_param {
dropout_ratio: 0.5
}
}
layer {
name: "fc7"
type: "InnerProduct"
bottom: "fc6"
top: "fc7"
param {
lr_mult: 1
decay_mult: 1
}
param {
lr_mult: 2
decay_mult: 0
}
inner_product_param {
num_output: 4096
weight_filler {
type: "gaussian"
std: 0.005
}
bias_filler {
type: "constant"
value: 0.1
}
}
}
layer {
name: "relu7"
type: "ReLU"
bottom: "fc7"
top: "fc7"
}
layer {
name: "drop7"
type: "Dropout"
bottom: "fc7"
top: "fc7"
dropout_param {
dropout_ratio: 0.5
}
}
layer {
name: "fc8"
type: "InnerProduct"
bottom: "fc7"
top: "fc8"
param {
lr_mult: 1
decay_mult: 1
}
param {
lr_mult: 2
decay_mult: 0
}
inner_product_param {
num_output: 196
weight_filler {
type: "gaussian"
std: 0.01
}
bias_filler {
type: "constant"
value: 0
}
}
}
layer {
name: "accuracy"
type: "Accuracy"
bottom: "fc8"
bottom: "label"
top: "accuracy"
include {
phase: TEST
}
}
layer {
name: "loss"
type: "SoftmaxWithLoss"
bottom: "fc8"
bottom: "label"
top: "loss"
}
I0430 16:01:13.443598  4372 layer_factory.hpp:77] Creating layer val-data
I0430 16:01:13.446794  4372 db_lmdb.cpp:35] Opened lmdb /mnt/bigdisk/MANDIG2/digits/jobs/20200428-132136-11fe/val_db
I0430 16:01:13.446985  4372 net.cpp:84] Creating Layer val-data
I0430 16:01:13.447005  4372 net.cpp:380] val-data -> data
I0430 16:01:13.447017  4372 net.cpp:380] val-data -> label
I0430 16:01:13.447029  4372 data_transformer.cpp:25] Loading mean file from: /mnt/bigdisk/MANDIG2/digits/jobs/20200428-132136-11fe/mean.binaryproto
I0430 16:01:13.451973  4372 data_layer.cpp:45] output data size: 32,3,227,227
I0430 16:01:13.563964  4372 net.cpp:122] Setting up val-data
I0430 16:01:13.563994  4372 net.cpp:129] Top shape: 32 3 227 227 (4946784)
I0430 16:01:13.564005  4372 net.cpp:129] Top shape: 32 (32)
I0430 16:01:13.564013  4372 net.cpp:137] Memory required for data: 19787264
I0430 16:01:13.564024  4372 layer_factory.hpp:77] Creating layer label_val-data_1_split
I0430 16:01:13.564043  4372 net.cpp:84] Creating Layer label_val-data_1_split
I0430 16:01:13.564054  4372 net.cpp:406] label_val-data_1_split <- label
I0430 16:01:13.564067  4372 net.cpp:380] label_val-data_1_split -> label_val-data_1_split_0
I0430 16:01:13.564083  4372 net.cpp:380] label_val-data_1_split -> label_val-data_1_split_1
I0430 16:01:13.564157  4372 net.cpp:122] Setting up label_val-data_1_split
I0430 16:01:13.564167  4372 net.cpp:129] Top shape: 32 (32)
I0430 16:01:13.564174  4372 net.cpp:129] Top shape: 32 (32)
I0430 16:01:13.564180  4372 net.cpp:137] Memory required for data: 19787520
I0430 16:01:13.564188  4372 layer_factory.hpp:77] Creating layer conv1
I0430 16:01:13.564206  4372 net.cpp:84] Creating Layer conv1
I0430 16:01:13.564213  4372 net.cpp:406] conv1 <- data
I0430 16:01:13.564224  4372 net.cpp:380] conv1 -> conv1
I0430 16:01:13.575587  4372 net.cpp:122] Setting up conv1
I0430 16:01:13.575616  4372 net.cpp:129] Top shape: 32 96 55 55 (9292800)
I0430 16:01:13.575623  4372 net.cpp:137] Memory required for data: 56958720
I0430 16:01:13.575642  4372 layer_factory.hpp:77] Creating layer relu1
I0430 16:01:13.575655  4372 net.cpp:84] Creating Layer relu1
I0430 16:01:13.575662  4372 net.cpp:406] relu1 <- conv1
I0430 16:01:13.575671  4372 net.cpp:367] relu1 -> conv1 (in-place)
I0430 16:01:13.576138  4372 net.cpp:122] Setting up relu1
I0430 16:01:13.576149  4372 net.cpp:129] Top shape: 32 96 55 55 (9292800)
I0430 16:01:13.576154  4372 net.cpp:137] Memory required for data: 94129920
I0430 16:01:13.576160  4372 layer_factory.hpp:77] Creating layer norm1
I0430 16:01:13.576172  4372 net.cpp:84] Creating Layer norm1
I0430 16:01:13.576179  4372 net.cpp:406] norm1 <- conv1
I0430 16:01:13.576187  4372 net.cpp:380] norm1 -> norm1
I0430 16:01:13.578425  4372 net.cpp:122] Setting up norm1
I0430 16:01:13.578442  4372 net.cpp:129] Top shape: 32 96 55 55 (9292800)
I0430 16:01:13.578449  4372 net.cpp:137] Memory required for data: 131301120
I0430 16:01:13.578454  4372 layer_factory.hpp:77] Creating layer pool1
I0430 16:01:13.578466  4372 net.cpp:84] Creating Layer pool1
I0430 16:01:13.578557  4372 net.cpp:406] pool1 <- norm1
I0430 16:01:13.578568  4372 net.cpp:380] pool1 -> pool1
I0430 16:01:13.578616  4372 net.cpp:122] Setting up pool1
I0430 16:01:13.578625  4372 net.cpp:129] Top shape: 32 96 27 27 (2239488)
I0430 16:01:13.578630  4372 net.cpp:137] Memory required for data: 140259072
I0430 16:01:13.578636  4372 layer_factory.hpp:77] Creating layer conv2
I0430 16:01:13.578651  4372 net.cpp:84] Creating Layer conv2
I0430 16:01:13.578656  4372 net.cpp:406] conv2 <- pool1
I0430 16:01:13.578665  4372 net.cpp:380] conv2 -> conv2
I0430 16:01:13.609115  4372 net.cpp:122] Setting up conv2
I0430 16:01:13.609144  4372 net.cpp:129] Top shape: 32 256 27 27 (5971968)
I0430 16:01:13.609150  4372 net.cpp:137] Memory required for data: 164146944
I0430 16:01:13.609169  4372 layer_factory.hpp:77] Creating layer relu2
I0430 16:01:13.609189  4372 net.cpp:84] Creating Layer relu2
I0430 16:01:13.609195  4372 net.cpp:406] relu2 <- conv2
I0430 16:01:13.609205  4372 net.cpp:367] relu2 -> conv2 (in-place)
I0430 16:01:13.611397  4372 net.cpp:122] Setting up relu2
I0430 16:01:13.611415  4372 net.cpp:129] Top shape: 32 256 27 27 (5971968)
I0430 16:01:13.611423  4372 net.cpp:137] Memory required for data: 188034816
I0430 16:01:13.611430  4372 layer_factory.hpp:77] Creating layer norm2
I0430 16:01:13.611447  4372 net.cpp:84] Creating Layer norm2
I0430 16:01:13.611454  4372 net.cpp:406] norm2 <- conv2
I0430 16:01:13.611465  4372 net.cpp:380] norm2 -> norm2
I0430 16:01:13.613816  4372 net.cpp:122] Setting up norm2
I0430 16:01:13.613837  4372 net.cpp:129] Top shape: 32 256 27 27 (5971968)
I0430 16:01:13.613847  4372 net.cpp:137] Memory required for data: 211922688
I0430 16:01:13.613854  4372 layer_factory.hpp:77] Creating layer pool2
I0430 16:01:13.613868  4372 net.cpp:84] Creating Layer pool2
I0430 16:01:13.613875  4372 net.cpp:406] pool2 <- norm2
I0430 16:01:13.613889  4372 net.cpp:380] pool2 -> pool2
I0430 16:01:13.613935  4372 net.cpp:122] Setting up pool2
I0430 16:01:13.613945  4372 net.cpp:129] Top shape: 32 256 13 13 (1384448)
I0430 16:01:13.613952  4372 net.cpp:137] Memory required for data: 217460480
I0430 16:01:13.613960  4372 layer_factory.hpp:77] Creating layer conv3
I0430 16:01:13.613977  4372 net.cpp:84] Creating Layer conv3
I0430 16:01:13.613986  4372 net.cpp:406] conv3 <- pool2
I0430 16:01:13.613996  4372 net.cpp:380] conv3 -> conv3
I0430 16:01:13.656785  4372 net.cpp:122] Setting up conv3
I0430 16:01:13.656812  4372 net.cpp:129] Top shape: 32 384 13 13 (2076672)
I0430 16:01:13.656821  4372 net.cpp:137] Memory required for data: 225767168
I0430 16:01:13.656846  4372 layer_factory.hpp:77] Creating layer relu3
I0430 16:01:13.656863  4372 net.cpp:84] Creating Layer relu3
I0430 16:01:13.656873  4372 net.cpp:406] relu3 <- conv3
I0430 16:01:13.656886  4372 net.cpp:367] relu3 -> conv3 (in-place)
I0430 16:01:13.658689  4372 net.cpp:122] Setting up relu3
I0430 16:01:13.658707  4372 net.cpp:129] Top shape: 32 384 13 13 (2076672)
I0430 16:01:13.658715  4372 net.cpp:137] Memory required for data: 234073856
I0430 16:01:13.658725  4372 layer_factory.hpp:77] Creating layer conv4
I0430 16:01:13.658744  4372 net.cpp:84] Creating Layer conv4
I0430 16:01:13.658754  4372 net.cpp:406] conv4 <- conv3
I0430 16:01:13.658769  4372 net.cpp:380] conv4 -> conv4
I0430 16:01:13.694970  4372 net.cpp:122] Setting up conv4
I0430 16:01:13.694998  4372 net.cpp:129] Top shape: 32 384 13 13 (2076672)
I0430 16:01:13.695005  4372 net.cpp:137] Memory required for data: 242380544
I0430 16:01:13.695020  4372 layer_factory.hpp:77] Creating layer relu4
I0430 16:01:13.695034  4372 net.cpp:84] Creating Layer relu4
I0430 16:01:13.695041  4372 net.cpp:406] relu4 <- conv4
I0430 16:01:13.695053  4372 net.cpp:367] relu4 -> conv4 (in-place)
I0430 16:01:13.696786  4372 net.cpp:122] Setting up relu4
I0430 16:01:13.696802  4372 net.cpp:129] Top shape: 32 384 13 13 (2076672)
I0430 16:01:13.696808  4372 net.cpp:137] Memory required for data: 250687232
I0430 16:01:13.696815  4372 layer_factory.hpp:77] Creating layer conv5
I0430 16:01:13.696832  4372 net.cpp:84] Creating Layer conv5
I0430 16:01:13.696839  4372 net.cpp:406] conv5 <- conv4
I0430 16:01:13.696851  4372 net.cpp:380] conv5 -> conv5
I0430 16:01:13.730330  4372 net.cpp:122] Setting up conv5
I0430 16:01:13.730360  4372 net.cpp:129] Top shape: 32 256 13 13 (1384448)
I0430 16:01:13.730365  4372 net.cpp:137] Memory required for data: 256225024
I0430 16:01:13.730391  4372 layer_factory.hpp:77] Creating layer relu5
I0430 16:01:13.730406  4372 net.cpp:84] Creating Layer relu5
I0430 16:01:13.730414  4372 net.cpp:406] relu5 <- conv5
I0430 16:01:13.730451  4372 net.cpp:367] relu5 -> conv5 (in-place)
I0430 16:01:13.731360  4372 net.cpp:122] Setting up relu5
I0430 16:01:13.731375  4372 net.cpp:129] Top shape: 32 256 13 13 (1384448)
I0430 16:01:13.731380  4372 net.cpp:137] Memory required for data: 261762816
I0430 16:01:13.731386  4372 layer_factory.hpp:77] Creating layer pool5
I0430 16:01:13.731403  4372 net.cpp:84] Creating Layer pool5
I0430 16:01:13.731410  4372 net.cpp:406] pool5 <- conv5
I0430 16:01:13.731418  4372 net.cpp:380] pool5 -> pool5
I0430 16:01:13.731485  4372 net.cpp:122] Setting up pool5
I0430 16:01:13.731494  4372 net.cpp:129] Top shape: 32 256 6 6 (294912)
I0430 16:01:13.731500  4372 net.cpp:137] Memory required for data: 262942464
I0430 16:01:13.731504  4372 layer_factory.hpp:77] Creating layer fc6
I0430 16:01:13.731516  4372 net.cpp:84] Creating Layer fc6
I0430 16:01:13.731523  4372 net.cpp:406] fc6 <- pool5
I0430 16:01:13.731531  4372 net.cpp:380] fc6 -> fc6
I0430 16:01:14.103063  4372 net.cpp:122] Setting up fc6
I0430 16:01:14.103089  4372 net.cpp:129] Top shape: 32 4096 (131072)
I0430 16:01:14.103094  4372 net.cpp:137] Memory required for data: 263466752
I0430 16:01:14.103106  4372 layer_factory.hpp:77] Creating layer relu6
I0430 16:01:14.103116  4372 net.cpp:84] Creating Layer relu6
I0430 16:01:14.103124  4372 net.cpp:406] relu6 <- fc6
I0430 16:01:14.103134  4372 net.cpp:367] relu6 -> fc6 (in-place)
I0430 16:01:14.112641  4372 net.cpp:122] Setting up relu6
I0430 16:01:14.112673  4372 net.cpp:129] Top shape: 32 4096 (131072)
I0430 16:01:14.112687  4372 net.cpp:137] Memory required for data: 263991040
I0430 16:01:14.112704  4372 layer_factory.hpp:77] Creating layer drop6
I0430 16:01:14.112725  4372 net.cpp:84] Creating Layer drop6
I0430 16:01:14.112737  4372 net.cpp:406] drop6 <- fc6
I0430 16:01:14.112752  4372 net.cpp:367] drop6 -> fc6 (in-place)
I0430 16:01:14.112814  4372 net.cpp:122] Setting up drop6
I0430 16:01:14.112831  4372 net.cpp:129] Top shape: 32 4096 (131072)
I0430 16:01:14.112840  4372 net.cpp:137] Memory required for data: 264515328
I0430 16:01:14.112850  4372 layer_factory.hpp:77] Creating layer fc7
I0430 16:01:14.112869  4372 net.cpp:84] Creating Layer fc7
I0430 16:01:14.112879  4372 net.cpp:406] fc7 <- fc6
I0430 16:01:14.112895  4372 net.cpp:380] fc7 -> fc7
I0430 16:01:14.300213  4372 net.cpp:122] Setting up fc7
I0430 16:01:14.300238  4372 net.cpp:129] Top shape: 32 4096 (131072)
I0430 16:01:14.300246  4372 net.cpp:137] Memory required for data: 265039616
I0430 16:01:14.300257  4372 layer_factory.hpp:77] Creating layer relu7
I0430 16:01:14.300271  4372 net.cpp:84] Creating Layer relu7
I0430 16:01:14.300277  4372 net.cpp:406] relu7 <- fc7
I0430 16:01:14.300290  4372 net.cpp:367] relu7 -> fc7 (in-place)
I0430 16:01:14.300712  4372 net.cpp:122] Setting up relu7
I0430 16:01:14.300724  4372 net.cpp:129] Top shape: 32 4096 (131072)
I0430 16:01:14.300730  4372 net.cpp:137] Memory required for data: 265563904
I0430 16:01:14.300734  4372 layer_factory.hpp:77] Creating layer drop7
I0430 16:01:14.300745  4372 net.cpp:84] Creating Layer drop7
I0430 16:01:14.300752  4372 net.cpp:406] drop7 <- fc7
I0430 16:01:14.300761  4372 net.cpp:367] drop7 -> fc7 (in-place)
I0430 16:01:14.300786  4372 net.cpp:122] Setting up drop7
I0430 16:01:14.300793  4372 net.cpp:129] Top shape: 32 4096 (131072)
I0430 16:01:14.300801  4372 net.cpp:137] Memory required for data: 266088192
I0430 16:01:14.300806  4372 layer_factory.hpp:77] Creating layer fc8
I0430 16:01:14.300817  4372 net.cpp:84] Creating Layer fc8
I0430 16:01:14.300823  4372 net.cpp:406] fc8 <- fc7
I0430 16:01:14.300832  4372 net.cpp:380] fc8 -> fc8
I0430 16:01:14.308784  4372 net.cpp:122] Setting up fc8
I0430 16:01:14.308799  4372 net.cpp:129] Top shape: 32 196 (6272)
I0430 16:01:14.308804  4372 net.cpp:137] Memory required for data: 266113280
I0430 16:01:14.308813  4372 layer_factory.hpp:77] Creating layer fc8_fc8_0_split
I0430 16:01:14.308822  4372 net.cpp:84] Creating Layer fc8_fc8_0_split
I0430 16:01:14.308828  4372 net.cpp:406] fc8_fc8_0_split <- fc8
I0430 16:01:14.308836  4372 net.cpp:380] fc8_fc8_0_split -> fc8_fc8_0_split_0
I0430 16:01:14.308866  4372 net.cpp:380] fc8_fc8_0_split -> fc8_fc8_0_split_1
I0430 16:01:14.308898  4372 net.cpp:122] Setting up fc8_fc8_0_split
I0430 16:01:14.308905  4372 net.cpp:129] Top shape: 32 196 (6272)
I0430 16:01:14.308910  4372 net.cpp:129] Top shape: 32 196 (6272)
I0430 16:01:14.308914  4372 net.cpp:137] Memory required for data: 266163456
I0430 16:01:14.308920  4372 layer_factory.hpp:77] Creating layer accuracy
I0430 16:01:14.308928  4372 net.cpp:84] Creating Layer accuracy
I0430 16:01:14.308931  4372 net.cpp:406] accuracy <- fc8_fc8_0_split_0
I0430 16:01:14.308938  4372 net.cpp:406] accuracy <- label_val-data_1_split_0
I0430 16:01:14.308944  4372 net.cpp:380] accuracy -> accuracy
…
