…
I0502 20:48:27.179234 26623 net.cpp:294] The NetState phase (0) differed from the phase (1) specified by a rule in layer accuracy
I0502 20:48:27.179373 26623 net.cpp:51] Initializing net from parameters:
state {
phase: TRAIN
level: 0
stage: ""
}
layer {
name: "train-data"
type: "Data"
top: "data"
top: "label"
include {
phase: TRAIN
}
transform_param {
mirror: true
crop_size: 227
mean_file: "/mnt/bigdisk/MANDIG2/digits/jobs/20200428-132136-11fe/mean.binaryproto"
}
data_param {
source: "/mnt/bigdisk/MANDIG2/digits/jobs/20200428-132136-11fe/train_db"
batch_size: 20
backend: LMDB
}
}
layer {
name: "conv1"
type: "Convolution"
bottom: "data"
top: "conv1"
param {
lr_mult: 1
decay_mult: 1
}
param {
lr_mult: 2
decay_mult: 0
}
convolution_param {
num_output: 96
kernel_size: 11
stride: 4
weight_filler {
type: "gaussian"
std: 0.01
}
bias_filler {
type: "constant"
value: 0
}
}
}
layer {
name: "relu1"
type: "ReLU"
bottom: "conv1"
top: "conv1"
}
layer {
name: "norm1"
type: "LRN"
bottom: "conv1"
top: "norm1"
lrn_param {
local_size: 5
alpha: 0.0001
beta: 0.75
}
}
layer {
name: "pool1"
type: "Pooling"
bottom: "norm1"
top: "pool1"
pooling_param {
pool: MAX
kernel_size: 3
stride: 2
}
}
layer {
name: "conv2"
type: "Convolution"
bottom: "pool1"
top: "conv2"
param {
lr_mult: 1
decay_mult: 1
}
param {
lr_mult: 2
decay_mult: 0
}
convolution_param {
num_output: 256
pad: 2
kernel_size: 5
group: 2
weight_filler {
type: "gaussian"
std: 0.01
}
bias_filler {
type: "constant"
value: 0.1
}
}
}
layer {
name: "relu2"
type: "ReLU"
bottom: "conv2"
top: "conv2"
}
layer {
name: "norm2"
type: "LRN"
bottom: "conv2"
top: "norm2"
lrn_param {
local_size: 5
alpha: 0.0001
beta: 0.75
}
}
layer {
name: "pool2"
type: "Pooling"
bottom: "norm2"
top: "pool2"
pooling_param {
pool: MAX
kernel_size: 3
stride: 2
}
}
layer {
name: "conv3"
type: "Convolution"
bottom: "pool2"
top: "conv3"
param {
lr_mult: 1
decay_mult: 1
}
param {
lr_mult: 2
decay_mult: 0
}
convolution_param {
num_output: 384
pad: 1
kernel_size: 3
weight_filler {
type: "gaussian"
std: 0.01
}
bias_filler {
type: "constant"
value: 0
}
}
}
layer {
name: "relu3"
type: "ReLU"
bottom: "conv3"
top: "conv3"
}
layer {
name: "conv4"
type: "Convolution"
bottom: "conv3"
top: "conv4"
param {
lr_mult: 1
decay_mult: 1
}
param {
lr_mult: 2
decay_mult: 0
}
convolution_param {
num_output: 384
pad: 1
kernel_size: 3
group: 2
weight_filler {
type: "gaussian"
std: 0.01
}
bias_filler {
type: "constant"
value: 0.1
}
}
}
layer {
name: "relu4"
type: "ReLU"
bottom: "conv4"
top: "conv4"
}
layer {
name: "conv5"
type: "Convolution"
bottom: "conv4"
top: "conv5"
param {
lr_mult: 1
decay_mult: 1
}
param {
lr_mult: 2
decay_mult: 0
}
convolution_param {
num_output: 256
pad: 1
kernel_size: 3
group: 2
weight_filler {
type: "gaussian"
std: 0.01
}
bias_filler {
type: "constant"
value: 0.1
}
}
}
layer {
name: "relu5"
type: "ReLU"
bottom: "conv5"
top: "conv5"
}
layer {
name: "pool5"
type: "Pooling"
bottom: "conv5"
top: "pool5"
pooling_param {
pool: MAX
kernel_size: 3
stride: 2
}
}
layer {
name: "fc6"
type: "InnerProduct"
bottom: "pool5"
top: "fc6"
param {
lr_mult: 1
decay_mult: 1
}
param {
lr_mult: 2
decay_mult: 0
}
inner_product_param {
num_output: 4096
weight_filler {
type: "gaussian"
std: 0.005
}
bias_filler {
type: "constant"
value: 0.1
}
}
}
layer {
name: "relu6"
type: "ReLU"
bottom: "fc6"
top: "fc6"
}
layer {
name: "drop6"
type: "Dropout"
bottom: "fc6"
top: "fc6"
dropout_param {
dropout_ratio: 0.5
}
}
layer {
name: "fc7"
type: "InnerProduct"
bottom: "fc6"
top: "fc7"
param {
lr_mult: 1
decay_mult: 1
}
param {
lr_mult: 2
decay_mult: 0
}
inner_product_param {
num_output: 4096
weight_filler {
type: "gaussian"
std: 0.005
}
bias_filler {
type: "constant"
value: 0.1
}
}
}
layer {
name: "relu7"
type: "ReLU"
bottom: "fc7"
top: "fc7"
}
layer {
name: "drop7"
type: "Dropout"
bottom: "fc7"
top: "fc7"
dropout_param {
dropout_ratio: 0.5
}
}
layer {
name: "fc8"
type: "InnerProduct"
bottom: "fc7"
top: "fc8"
param {
lr_mult: 1
decay_mult: 1
}
param {
lr_mult: 2
decay_mult: 0
}
inner_product_param {
num_output: 196
weight_filler {
type: "gaussian"
std: 0.01
}
bias_filler {
type: "constant"
value: 0
}
}
}
layer {
name: "loss"
type: "SoftmaxWithLoss"
bottom: "fc8"
bottom: "label"
top: "loss"
}
I0502 20:48:27.179463 26623 layer_factory.hpp:77] Creating layer train-data
I0502 20:48:27.181587 26623 db_lmdb.cpp:35] Opened lmdb /mnt/bigdisk/MANDIG2/digits/jobs/20200428-132136-11fe/train_db
I0502 20:48:27.181780 26623 net.cpp:84] Creating Layer train-data
I0502 20:48:27.181798 26623 net.cpp:380] train-data -> data
I0502 20:48:27.181824 26623 net.cpp:380] train-data -> label
I0502 20:48:27.181839 26623 data_transformer.cpp:25] Loading mean file from: /mnt/bigdisk/MANDIG2/digits/jobs/20200428-132136-11fe/mean.binaryproto
I0502 20:48:27.187356 26623 data_layer.cpp:45] output data size: 20,3,227,227
I0502 20:48:27.229084 26623 net.cpp:122] Setting up train-data
I0502 20:48:27.229113 26623 net.cpp:129] Top shape: 20 3 227 227 (3091740)
I0502 20:48:27.229122 26623 net.cpp:129] Top shape: 20 (20)
I0502 20:48:27.229127 26623 net.cpp:137] Memory required for data: 12367040
I0502 20:48:27.229141 26623 layer_factory.hpp:77] Creating layer conv1
I0502 20:48:27.229171 26623 net.cpp:84] Creating Layer conv1
I0502 20:48:27.229180 26623 net.cpp:406] conv1 <- data
I0502 20:48:27.229200 26623 net.cpp:380] conv1 -> conv1
I0502 20:48:29.410904 26623 net.cpp:122] Setting up conv1
I0502 20:48:29.410926 26623 net.cpp:129] Top shape: 20 96 55 55 (5808000)
I0502 20:48:29.410930 26623 net.cpp:137] Memory required for data: 35599040
I0502 20:48:29.410950 26623 layer_factory.hpp:77] Creating layer relu1
I0502 20:48:29.410960 26623 net.cpp:84] Creating Layer relu1
I0502 20:48:29.410965 26623 net.cpp:406] relu1 <- conv1
I0502 20:48:29.410970 26623 net.cpp:367] relu1 -> conv1 (in-place)
I0502 20:48:29.411268 26623 net.cpp:122] Setting up relu1
I0502 20:48:29.411278 26623 net.cpp:129] Top shape: 20 96 55 55 (5808000)
I0502 20:48:29.411280 26623 net.cpp:137] Memory required for data: 58831040
I0502 20:48:29.411284 26623 layer_factory.hpp:77] Creating layer norm1
I0502 20:48:29.411293 26623 net.cpp:84] Creating Layer norm1
I0502 20:48:29.411298 26623 net.cpp:406] norm1 <- conv1
I0502 20:48:29.411325 26623 net.cpp:380] norm1 -> norm1
I0502 20:48:29.413269 26623 net.cpp:122] Setting up norm1
I0502 20:48:29.413278 26623 net.cpp:129] Top shape: 20 96 55 55 (5808000)
I0502 20:48:29.413282 26623 net.cpp:137] Memory required for data: 82063040
I0502 20:48:29.413286 26623 layer_factory.hpp:77] Creating layer pool1
I0502 20:48:29.413293 26623 net.cpp:84] Creating Layer pool1
I0502 20:48:29.413297 26623 net.cpp:406] pool1 <- norm1
I0502 20:48:29.413302 26623 net.cpp:380] pool1 -> pool1
I0502 20:48:29.413337 26623 net.cpp:122] Setting up pool1
I0502 20:48:29.413343 26623 net.cpp:129] Top shape: 20 96 27 27 (1399680)
I0502 20:48:29.413347 26623 net.cpp:137] Memory required for data: 87661760
I0502 20:48:29.413350 26623 layer_factory.hpp:77] Creating layer conv2
I0502 20:48:29.413360 26623 net.cpp:84] Creating Layer conv2
I0502 20:48:29.413364 26623 net.cpp:406] conv2 <- pool1
I0502 20:48:29.413369 26623 net.cpp:380] conv2 -> conv2
I0502 20:48:29.429793 26623 net.cpp:122] Setting up conv2
I0502 20:48:29.429812 26623 net.cpp:129] Top shape: 20 256 27 27 (3732480)
I0502 20:48:29.429816 26623 net.cpp:137] Memory required for data: 102591680
I0502 20:48:29.429828 26623 layer_factory.hpp:77] Creating layer relu2
I0502 20:48:29.429841 26623 net.cpp:84] Creating Layer relu2
I0502 20:48:29.429844 26623 net.cpp:406] relu2 <- conv2
I0502 20:48:29.429852 26623 net.cpp:367] relu2 -> conv2 (in-place)
I0502 20:48:29.433743 26623 net.cpp:122] Setting up relu2
I0502 20:48:29.433753 26623 net.cpp:129] Top shape: 20 256 27 27 (3732480)
I0502 20:48:29.433756 26623 net.cpp:137] Memory required for data: 117521600
I0502 20:48:29.433761 26623 layer_factory.hpp:77] Creating layer norm2
I0502 20:48:29.433773 26623 net.cpp:84] Creating Layer norm2
I0502 20:48:29.433776 26623 net.cpp:406] norm2 <- conv2
I0502 20:48:29.433784 26623 net.cpp:380] norm2 -> norm2
I0502 20:48:29.434214 26623 net.cpp:122] Setting up norm2
I0502 20:48:29.434223 26623 net.cpp:129] Top shape: 20 256 27 27 (3732480)
I0502 20:48:29.434227 26623 net.cpp:137] Memory required for data: 132451520
I0502 20:48:29.434231 26623 layer_factory.hpp:77] Creating layer pool2
I0502 20:48:29.434240 26623 net.cpp:84] Creating Layer pool2
I0502 20:48:29.434245 26623 net.cpp:406] pool2 <- norm2
I0502 20:48:29.434252 26623 net.cpp:380] pool2 -> pool2
I0502 20:48:29.434281 26623 net.cpp:122] Setting up pool2
I0502 20:48:29.434286 26623 net.cpp:129] Top shape: 20 256 13 13 (865280)
I0502 20:48:29.434290 26623 net.cpp:137] Memory required for data: 135912640
I0502 20:48:29.434293 26623 layer_factory.hpp:77] Creating layer conv3
I0502 20:48:29.434307 26623 net.cpp:84] Creating Layer conv3
I0502 20:48:29.434311 26623 net.cpp:406] conv3 <- pool2
I0502 20:48:29.434317 26623 net.cpp:380] conv3 -> conv3
I0502 20:48:29.457051 26623 net.cpp:122] Setting up conv3
I0502 20:48:29.457073 26623 net.cpp:129] Top shape: 20 384 13 13 (1297920)
I0502 20:48:29.457077 26623 net.cpp:137] Memory required for data: 141104320
I0502 20:48:29.457089 26623 layer_factory.hpp:77] Creating layer relu3
I0502 20:48:29.457099 26623 net.cpp:84] Creating Layer relu3
I0502 20:48:29.457104 26623 net.cpp:406] relu3 <- conv3
I0502 20:48:29.457113 26623 net.cpp:367] relu3 -> conv3 (in-place)
I0502 20:48:29.459300 26623 net.cpp:122] Setting up relu3
I0502 20:48:29.459311 26623 net.cpp:129] Top shape: 20 384 13 13 (1297920)
I0502 20:48:29.459313 26623 net.cpp:137] Memory required for data: 146296000
I0502 20:48:29.459317 26623 layer_factory.hpp:77] Creating layer conv4
I0502 20:48:29.459329 26623 net.cpp:84] Creating Layer conv4
I0502 20:48:29.459333 26623 net.cpp:406] conv4 <- conv3
I0502 20:48:29.459340 26623 net.cpp:380] conv4 -> conv4
I0502 20:48:29.489383 26623 net.cpp:122] Setting up conv4
I0502 20:48:29.489404 26623 net.cpp:129] Top shape: 20 384 13 13 (1297920)
I0502 20:48:29.489408 26623 net.cpp:137] Memory required for data: 151487680
I0502 20:48:29.489419 26623 layer_factory.hpp:77] Creating layer relu4
I0502 20:48:29.489429 26623 net.cpp:84] Creating Layer relu4
I0502 20:48:29.489434 26623 net.cpp:406] relu4 <- conv4
I0502 20:48:29.489464 26623 net.cpp:367] relu4 -> conv4 (in-place)
I0502 20:48:29.491231 26623 net.cpp:122] Setting up relu4
I0502 20:48:29.491240 26623 net.cpp:129] Top shape: 20 384 13 13 (1297920)
I0502 20:48:29.491245 26623 net.cpp:137] Memory required for data: 156679360
I0502 20:48:29.491251 26623 layer_factory.hpp:77] Creating layer conv5
I0502 20:48:29.491266 26623 net.cpp:84] Creating Layer conv5
I0502 20:48:29.491271 26623 net.cpp:406] conv5 <- conv4
I0502 20:48:29.491278 26623 net.cpp:380] conv5 -> conv5
I0502 20:48:29.510329 26623 net.cpp:122] Setting up conv5
I0502 20:48:29.510347 26623 net.cpp:129] Top shape: 20 256 13 13 (865280)
I0502 20:48:29.510352 26623 net.cpp:137] Memory required for data: 160140480
I0502 20:48:29.510367 26623 layer_factory.hpp:77] Creating layer relu5
I0502 20:48:29.510377 26623 net.cpp:84] Creating Layer relu5
I0502 20:48:29.510382 26623 net.cpp:406] relu5 <- conv5
I0502 20:48:29.510390 26623 net.cpp:367] relu5 -> conv5 (in-place)
I0502 20:48:29.512171 26623 net.cpp:122] Setting up relu5
I0502 20:48:29.512182 26623 net.cpp:129] Top shape: 20 256 13 13 (865280)
I0502 20:48:29.512188 26623 net.cpp:137] Memory required for data: 163601600
I0502 20:48:29.512193 26623 layer_factory.hpp:77] Creating layer pool5
I0502 20:48:29.512204 26623 net.cpp:84] Creating Layer pool5
I0502 20:48:29.512209 26623 net.cpp:406] pool5 <- conv5
I0502 20:48:29.512215 26623 net.cpp:380] pool5 -> pool5
I0502 20:48:29.512253 26623 net.cpp:122] Setting up pool5
I0502 20:48:29.512261 26623 net.cpp:129] Top shape: 20 256 6 6 (184320)
I0502 20:48:29.512266 26623 net.cpp:137] Memory required for data: 164338880
I0502 20:48:29.512270 26623 layer_factory.hpp:77] Creating layer fc6
I0502 20:48:29.512282 26623 net.cpp:84] Creating Layer fc6
I0502 20:48:29.512286 26623 net.cpp:406] fc6 <- pool5
I0502 20:48:29.512295 26623 net.cpp:380] fc6 -> fc6
I0502 20:48:29.891217 26623 net.cpp:122] Setting up fc6
I0502 20:48:29.891242 26623 net.cpp:129] Top shape: 20 4096 (81920)
I0502 20:48:29.891245 26623 net.cpp:137] Memory required for data: 164666560
I0502 20:48:29.891256 26623 layer_factory.hpp:77] Creating layer relu6
I0502 20:48:29.891265 26623 net.cpp:84] Creating Layer relu6
I0502 20:48:29.891270 26623 net.cpp:406] relu6 <- fc6
I0502 20:48:29.891278 26623 net.cpp:367] relu6 -> fc6 (in-place)
I0502 20:48:29.892676 26623 net.cpp:122] Setting up relu6
I0502 20:48:29.892685 26623 net.cpp:129] Top shape: 20 4096 (81920)
I0502 20:48:29.892689 26623 net.cpp:137] Memory required for data: 164994240
I0502 20:48:29.892693 26623 layer_factory.hpp:77] Creating layer drop6
I0502 20:48:29.892701 26623 net.cpp:84] Creating Layer drop6
I0502 20:48:29.892705 26623 net.cpp:406] drop6 <- fc6
I0502 20:48:29.892710 26623 net.cpp:367] drop6 -> fc6 (in-place)
I0502 20:48:29.892740 26623 net.cpp:122] Setting up drop6
I0502 20:48:29.892745 26623 net.cpp:129] Top shape: 20 4096 (81920)
I0502 20:48:29.892747 26623 net.cpp:137] Memory required for data: 165321920
I0502 20:48:29.892751 26623 layer_factory.hpp:77] Creating layer fc7
I0502 20:48:29.892758 26623 net.cpp:84] Creating Layer fc7
I0502 20:48:29.892762 26623 net.cpp:406] fc7 <- fc6
I0502 20:48:29.892768 26623 net.cpp:380] fc7 -> fc7
I0502 20:48:30.054174 26623 net.cpp:122] Setting up fc7
I0502 20:48:30.054196 26623 net.cpp:129] Top shape: 20 4096 (81920)
I0502 20:48:30.054199 26623 net.cpp:137] Memory required for data: 165649600
I0502 20:48:30.054210 26623 layer_factory.hpp:77] Creating layer relu7
I0502 20:48:30.054219 26623 net.cpp:84] Creating Layer relu7
I0502 20:48:30.054225 26623 net.cpp:406] relu7 <- fc7
I0502 20:48:30.054232 26623 net.cpp:367] relu7 -> fc7 (in-place)
I0502 20:48:30.111681 26623 net.cpp:122] Setting up relu7
I0502 20:48:30.111704 26623 net.cpp:129] Top shape: 20 4096 (81920)
I0502 20:48:30.111708 26623 net.cpp:137] Memory required for data: 165977280
I0502 20:48:30.111716 26623 layer_factory.hpp:77] Creating layer drop7
I0502 20:48:30.111727 26623 net.cpp:84] Creating Layer drop7
I0502 20:48:30.111733 26623 net.cpp:406] drop7 <- fc7
I0502 20:48:30.111743 26623 net.cpp:367] drop7 -> fc7 (in-place)
I0502 20:48:30.111812 26623 net.cpp:122] Setting up drop7
I0502 20:48:30.111821 26623 net.cpp:129] Top shape: 20 4096 (81920)
I0502 20:48:30.111826 26623 net.cpp:137] Memory required for data: 166304960
I0502 20:48:30.111830 26623 layer_factory.hpp:77] Creating layer fc8
I0502 20:48:30.111840 26623 net.cpp:84] Creating Layer fc8
I0502 20:48:30.111845 26623 net.cpp:406] fc8 <- fc7
I0502 20:48:30.111852 26623 net.cpp:380] fc8 -> fc8
I0502 20:48:30.128981 26623 net.cpp:122] Setting up fc8
I0502 20:48:30.129002 26623 net.cpp:129] Top shape: 20 196 (3920)
I0502 20:48:30.129006 26623 net.cpp:137] Memory required for data: 166320640
I0502 20:48:30.129015 26623 layer_factory.hpp:77] Creating layer loss
I0502 20:48:30.129025 26623 net.cpp:84] Creating Layer loss
I0502 20:48:30.129032 26623 net.cpp:406] loss <- fc8
I0502 20:48:30.129038 26623 net.cpp:406] loss <- label
I0502 20:48:30.129046 26623 net.cpp:380] loss -> loss
I0502 20:48:30.129058 26623 layer_factory.hpp:77] Creating layer loss
…
I0502 20:48:30.138054 26623 solver.cpp:172] Creating test net (#0) specified by net file: train_val.prototxt
I0502 20:48:30.138085 26623 net.cpp:294] The NetState phase (1) differed from the phase (0) specified by a rule in layer train-data
I0502 20:48:30.138226 26623 net.cpp:51] Initializing net from parameters:
state {
phase: TEST
}
layer {
name: "val-data"
type: "Data"
top: "data"
top: "label"
include {
phase: TEST
}
transform_param {
crop_size: 227
mean_file: "/mnt/bigdisk/MANDIG2/digits/jobs/20200428-132136-11fe/mean.binaryproto"
}
data_param {
source: "/mnt/bigdisk/MANDIG2/digits/jobs/20200428-132136-11fe/val_db"
batch_size: 20
backend: LMDB
}
}
layer {
name: "conv1"
type: "Convolution"
bottom: "data"
top: "conv1"
param {
lr_mult: 1
decay_mult: 1
}
param {
lr_mult: 2
decay_mult: 0
}
convolution_param {
num_output: 96
kernel_size: 11
stride: 4
weight_filler {
type: "gaussian"
std: 0.01
}
bias_filler {
type: "constant"
value: 0
}
}
}
layer {
name: "relu1"
type: "ReLU"
bottom: "conv1"
top: "conv1"
}
layer {
name: "norm1"
type: "LRN"
bottom: "conv1"
top: "norm1"
lrn_param {
local_size: 5
alpha: 0.0001
beta: 0.75
}
}
layer {
name: "pool1"
type: "Pooling"
bottom: "norm1"
top: "pool1"
pooling_param {
pool: MAX
kernel_size: 3
stride: 2
}
}
layer {
name: "conv2"
type: "Convolution"
bottom: "pool1"
top: "conv2"
param {
lr_mult: 1
decay_mult: 1
}
param {
lr_mult: 2
decay_mult: 0
}
convolution_param {
num_output: 256
pad: 2
kernel_size: 5
group: 2
weight_filler {
type: "gaussian"
std: 0.01
}
bias_filler {
type: "constant"
value: 0.1
}
}
}
layer {
name: "relu2"
type: "ReLU"
bottom: "conv2"
top: "conv2"
}
layer {
name: "norm2"
type: "LRN"
bottom: "conv2"
top: "norm2"
lrn_param {
local_size: 5
alpha: 0.0001
beta: 0.75
}
}
layer {
name: "pool2"
type: "Pooling"
bottom: "norm2"
top: "pool2"
pooling_param {
pool: MAX
kernel_size: 3
stride: 2
}
}
layer {
name: "conv3"
type: "Convolution"
bottom: "pool2"
top: "conv3"
param {
lr_mult: 1
decay_mult: 1
}
param {
lr_mult: 2
decay_mult: 0
}
convolution_param {
num_output: 384
pad: 1
kernel_size: 3
weight_filler {
type: "gaussian"
std: 0.01
}
bias_filler {
type: "constant"
value: 0
}
}
}
layer {
name: "relu3"
type: "ReLU"
bottom: "conv3"
top: "conv3"
}
layer {
name: "conv4"
type: "Convolution"
bottom: "conv3"
top: "conv4"
param {
lr_mult: 1
decay_mult: 1
}
param {
lr_mult: 2
decay_mult: 0
}
convolution_param {
num_output: 384
pad: 1
kernel_size: 3
group: 2
weight_filler {
type: "gaussian"
std: 0.01
}
bias_filler {
type: "constant"
value: 0.1
}
}
}
layer {
name: "relu4"
type: "ReLU"
bottom: "conv4"
top: "conv4"
}
layer {
name: "conv5"
type: "Convolution"
bottom: "conv4"
top: "conv5"
param {
lr_mult: 1
decay_mult: 1
}
param {
lr_mult: 2
decay_mult: 0
}
convolution_param {
num_output: 256
pad: 1
kernel_size: 3
group: 2
weight_filler {
type: "gaussian"
std: 0.01
}
bias_filler {
type: "constant"
value: 0.1
}
}
}
layer {
name: "relu5"
type: "ReLU"
bottom: "conv5"
top: "conv5"
}
layer {
name: "pool5"
type: "Pooling"
bottom: "conv5"
top: "pool5"
pooling_param {
pool: MAX
kernel_size: 3
stride: 2
}
}
layer {
name: "fc6"
type: "InnerProduct"
bottom: "pool5"
top: "fc6"
param {
lr_mult: 1
decay_mult: 1
}
param {
lr_mult: 2
decay_mult: 0
}
inner_product_param {
num_output: 4096
weight_filler {
type: "gaussian"
std: 0.005
}
bias_filler {
type: "constant"
value: 0.1
}
}
}
layer {
name: "relu6"
type: "ReLU"
bottom: "fc6"
top: "fc6"
}
layer {
name: "drop6"
type: "Dropout"
bottom: "fc6"
top: "fc6"
dropout_param {
dropout_ratio: 0.5
}
}
layer {
name: "fc7"
type: "InnerProduct"
bottom: "fc6"
top: "fc7"
param {
lr_mult: 1
decay_mult: 1
}
param {
lr_mult: 2
decay_mult: 0
}
inner_product_param {
num_output: 4096
weight_filler {
type: "gaussian"
std: 0.005
}
bias_filler {
type: "constant"
value: 0.1
}
}
}
layer {
name: "relu7"
type: "ReLU"
bottom: "fc7"
top: "fc7"
}
layer {
name: "drop7"
type: "Dropout"
bottom: "fc7"
top: "fc7"
dropout_param {
dropout_ratio: 0.5
}
}
layer {
name: "fc8"
type: "InnerProduct"
bottom: "fc7"
top: "fc8"
param {
lr_mult: 1
decay_mult: 1
}
param {
lr_mult: 2
decay_mult: 0
}
inner_product_param {
num_output: 196
weight_filler {
type: "gaussian"
std: 0.01
}
bias_filler {
type: "constant"
value: 0
}
}
}
layer {
name: "accuracy"
type: "Accuracy"
bottom: "fc8"
bottom: "label"
top: "accuracy"
include {
phase: TEST
}
}
layer {
name: "loss"
type: "SoftmaxWithLoss"
bottom: "fc8"
bottom: "label"
top: "loss"
}
I0502 20:48:30.138331 26623 layer_factory.hpp:77] Creating layer val-data
I0502 20:48:30.139835 26623 db_lmdb.cpp:35] Opened lmdb /mnt/bigdisk/MANDIG2/digits/jobs/20200428-132136-11fe/val_db
I0502 20:48:30.140166 26623 net.cpp:84] Creating Layer val-data
I0502 20:48:30.140180 26623 net.cpp:380] val-data -> data
I0502 20:48:30.140193 26623 net.cpp:380] val-data -> label
I0502 20:48:30.140206 26623 data_transformer.cpp:25] Loading mean file from: /mnt/bigdisk/MANDIG2/digits/jobs/20200428-132136-11fe/mean.binaryproto
I0502 20:48:30.145786 26623 data_layer.cpp:45] output data size: 20,3,227,227
I0502 20:48:30.195070 26623 net.cpp:122] Setting up val-data
I0502 20:48:30.195097 26623 net.cpp:129] Top shape: 20 3 227 227 (3091740)
I0502 20:48:30.195106 26623 net.cpp:129] Top shape: 20 (20)
I0502 20:48:30.195111 26623 net.cpp:137] Memory required for data: 12367040
I0502 20:48:30.195119 26623 layer_factory.hpp:77] Creating layer label_val-data_1_split
I0502 20:48:30.195135 26623 net.cpp:84] Creating Layer label_val-data_1_split
I0502 20:48:30.195142 26623 net.cpp:406] label_val-data_1_split <- label
I0502 20:48:30.195150 26623 net.cpp:380] label_val-data_1_split -> label_val-data_1_split_0
I0502 20:48:30.195165 26623 net.cpp:380] label_val-data_1_split -> label_val-data_1_split_1
I0502 20:48:30.195233 26623 net.cpp:122] Setting up label_val-data_1_split
I0502 20:48:30.195243 26623 net.cpp:129] Top shape: 20 (20)
I0502 20:48:30.195250 26623 net.cpp:129] Top shape: 20 (20)
I0502 20:48:30.195253 26623 net.cpp:137] Memory required for data: 12367200
I0502 20:48:30.195259 26623 layer_factory.hpp:77] Creating layer conv1
I0502 20:48:30.195276 26623 net.cpp:84] Creating Layer conv1
I0502 20:48:30.195281 26623 net.cpp:406] conv1 <- data
I0502 20:48:30.195291 26623 net.cpp:380] conv1 -> conv1
I0502 20:48:30.205704 26623 net.cpp:122] Setting up conv1
I0502 20:48:30.205725 26623 net.cpp:129] Top shape: 20 96 55 55 (5808000)
I0502 20:48:30.205730 26623 net.cpp:137] Memory required for data: 35599200
I0502 20:48:30.205746 26623 layer_factory.hpp:77] Creating layer relu1
I0502 20:48:30.205757 26623 net.cpp:84] Creating Layer relu1
I0502 20:48:30.205763 26623 net.cpp:406] relu1 <- conv1
I0502 20:48:30.205771 26623 net.cpp:367] relu1 -> conv1 (in-place)
I0502 20:48:30.206215 26623 net.cpp:122] Setting up relu1
I0502 20:48:30.206229 26623 net.cpp:129] Top shape: 20 96 55 55 (5808000)
I0502 20:48:30.206235 26623 net.cpp:137] Memory required for data: 58831200
I0502 20:48:30.206243 26623 layer_factory.hpp:77] Creating layer norm1
I0502 20:48:30.206254 26623 net.cpp:84] Creating Layer norm1
I0502 20:48:30.206260 26623 net.cpp:406] norm1 <- conv1
I0502 20:48:30.206269 26623 net.cpp:380] norm1 -> norm1
I0502 20:48:30.207051 26623 net.cpp:122] Setting up norm1
I0502 20:48:30.207064 26623 net.cpp:129] Top shape: 20 96 55 55 (5808000)
I0502 20:48:30.207069 26623 net.cpp:137] Memory required for data: 82063200
I0502 20:48:30.207075 26623 layer_factory.hpp:77] Creating layer pool1
I0502 20:48:30.207085 26623 net.cpp:84] Creating Layer pool1
I0502 20:48:30.207090 26623 net.cpp:406] pool1 <- norm1
I0502 20:48:30.207098 26623 net.cpp:380] pool1 -> pool1
I0502 20:48:30.207139 26623 net.cpp:122] Setting up pool1
I0502 20:48:30.207146 26623 net.cpp:129] Top shape: 20 96 27 27 (1399680)
I0502 20:48:30.207151 26623 net.cpp:137] Memory required for data: 87661920
I0502 20:48:30.207155 26623 layer_factory.hpp:77] Creating layer conv2
I0502 20:48:30.207168 26623 net.cpp:84] Creating Layer conv2
I0502 20:48:30.207173 26623 net.cpp:406] conv2 <- pool1
I0502 20:48:30.207181 26623 net.cpp:380] conv2 -> conv2
I0502 20:48:30.230371 26623 net.cpp:122] Setting up conv2
I0502 20:48:30.230420 26623 net.cpp:129] Top shape: 20 256 27 27 (3732480)
I0502 20:48:30.230427 26623 net.cpp:137] Memory required for data: 102591840
I0502 20:48:30.230449 26623 layer_factory.hpp:77] Creating layer relu2
I0502 20:48:30.230461 26623 net.cpp:84] Creating Layer relu2
I0502 20:48:30.230468 26623 net.cpp:406] relu2 <- conv2
I0502 20:48:30.230476 26623 net.cpp:367] relu2 -> conv2 (in-place)
I0502 20:48:30.231297 26623 net.cpp:122] Setting up relu2
I0502 20:48:30.231312 26623 net.cpp:129] Top shape: 20 256 27 27 (3732480)
I0502 20:48:30.231317 26623 net.cpp:137] Memory required for data: 117521760
I0502 20:48:30.231323 26623 layer_factory.hpp:77] Creating layer norm2
I0502 20:48:30.231338 26623 net.cpp:84] Creating Layer norm2
I0502 20:48:30.231343 26623 net.cpp:406] norm2 <- conv2
I0502 20:48:30.231351 26623 net.cpp:380] norm2 -> norm2
I0502 20:48:30.233376 26623 net.cpp:122] Setting up norm2
I0502 20:48:30.233392 26623 net.cpp:129] Top shape: 20 256 27 27 (3732480)
I0502 20:48:30.233397 26623 net.cpp:137] Memory required for data: 132451680
I0502 20:48:30.233402 26623 layer_factory.hpp:77] Creating layer pool2
I0502 20:48:30.233414 26623 net.cpp:84] Creating Layer pool2
I0502 20:48:30.233419 26623 net.cpp:406] pool2 <- norm2
I0502 20:48:30.233428 26623 net.cpp:380] pool2 -> pool2
I0502 20:48:30.233471 26623 net.cpp:122] Setting up pool2
I0502 20:48:30.233481 26623 net.cpp:129] Top shape: 20 256 13 13 (865280)
I0502 20:48:30.233486 26623 net.cpp:137] Memory required for data: 135912800
I0502 20:48:30.233492 26623 layer_factory.hpp:77] Creating layer conv3
I0502 20:48:30.233507 26623 net.cpp:84] Creating Layer conv3
I0502 20:48:30.233513 26623 net.cpp:406] conv3 <- pool2
I0502 20:48:30.233523 26623 net.cpp:380] conv3 -> conv3
I0502 20:48:30.268174 26623 net.cpp:122] Setting up conv3
I0502 20:48:30.268196 26623 net.cpp:129] Top shape: 20 384 13 13 (1297920)
I0502 20:48:30.268203 26623 net.cpp:137] Memory required for data: 141104480
I0502 20:48:30.268218 26623 layer_factory.hpp:77] Creating layer relu3
I0502 20:48:30.268229 26623 net.cpp:84] Creating Layer relu3
I0502 20:48:30.268235 26623 net.cpp:406] relu3 <- conv3
I0502 20:48:30.268245 26623 net.cpp:367] relu3 -> conv3 (in-place)
I0502 20:48:30.270067 26623 net.cpp:122] Setting up relu3
I0502 20:48:30.270081 26623 net.cpp:129] Top shape: 20 384 13 13 (1297920)
I0502 20:48:30.270083 26623 net.cpp:137] Memory required for data: 146296160
I0502 20:48:30.270088 26623 layer_factory.hpp:77] Creating layer conv4
I0502 20:48:30.270104 26623 net.cpp:84] Creating Layer conv4
I0502 20:48:30.270110 26623 net.cpp:406] conv4 <- conv3
I0502 20:48:30.270119 26623 net.cpp:380] conv4 -> conv4
I0502 20:48:30.291756 26623 net.cpp:122] Setting up conv4
I0502 20:48:30.291779 26623 net.cpp:129] Top shape: 20 384 13 13 (1297920)
I0502 20:48:30.291782 26623 net.cpp:137] Memory required for data: 151487840
I0502 20:48:30.291793 26623 layer_factory.hpp:77] Creating layer relu4
I0502 20:48:30.291803 26623 net.cpp:84] Creating Layer relu4
I0502 20:48:30.291807 26623 net.cpp:406] relu4 <- conv4
I0502 20:48:30.291815 26623 net.cpp:367] relu4 -> conv4 (in-place)
I0502 20:48:30.292163 26623 net.cpp:122] Setting up relu4
I0502 20:48:30.292172 26623 net.cpp:129] Top shape: 20 384 13 13 (1297920)
I0502 20:48:30.292176 26623 net.cpp:137] Memory required for data: 156679520
I0502 20:48:30.292181 26623 layer_factory.hpp:77] Creating layer conv5
I0502 20:48:30.292193 26623 net.cpp:84] Creating Layer conv5
I0502 20:48:30.292196 26623 net.cpp:406] conv5 <- conv4
I0502 20:48:30.292203 26623 net.cpp:380] conv5 -> conv5
I0502 20:48:30.324709 26623 net.cpp:122] Setting up conv5
I0502 20:48:30.324733 26623 net.cpp:129] Top shape: 20 256 13 13 (865280)
I0502 20:48:30.324738 26623 net.cpp:137] Memory required for data: 160140640
I0502 20:48:30.324754 26623 layer_factory.hpp:77] Creating layer relu5
I0502 20:48:30.324765 26623 net.cpp:84] Creating Layer relu5
I0502 20:48:30.324770 26623 net.cpp:406] relu5 <- conv5
I0502 20:48:30.324779 26623 net.cpp:367] relu5 -> conv5 (in-place)
I0502 20:48:30.326700 26623 net.cpp:122] Setting up relu5
I0502 20:48:30.326715 26623 net.cpp:129] Top shape: 20 256 13 13 (865280)
I0502 20:48:30.326719 26623 net.cpp:137] Memory required for data: 163601760
I0502 20:48:30.326725 26623 layer_factory.hpp:77] Creating layer pool5
I0502 20:48:30.326737 26623 net.cpp:84] Creating Layer pool5
I0502 20:48:30.326741 26623 net.cpp:406] pool5 <- conv5
I0502 20:48:30.326747 26623 net.cpp:380] pool5 -> pool5
I0502 20:48:30.326794 26623 net.cpp:122] Setting up pool5
I0502 20:48:30.326800 26623 net.cpp:129] Top shape: 20 256 6 6 (184320)
I0502 20:48:30.326803 26623 net.cpp:137] Memory required for data: 164339040
I0502 20:48:30.326807 26623 layer_factory.hpp:77] Creating layer fc6
I0502 20:48:30.326815 26623 net.cpp:84] Creating Layer fc6
I0502 20:48:30.326818 26623 net.cpp:406] fc6 <- pool5
I0502 20:48:30.326824 26623 net.cpp:380] fc6 -> fc6
I0502 20:48:30.737118 26623 net.cpp:122] Setting up fc6
I0502 20:48:30.737141 26623 net.cpp:129] Top shape: 20 4096 (81920)
I0502 20:48:30.737146 26623 net.cpp:137] Memory required for data: 164666720
I0502 20:48:30.737157 26623 layer_factory.hpp:77] Creating layer relu6
I0502 20:48:30.737169 26623 net.cpp:84] Creating Layer relu6
I0502 20:48:30.737174 26623 net.cpp:406] relu6 <- fc6
I0502 20:48:30.737180 26623 net.cpp:367] relu6 -> fc6 (in-place)
I0502 20:48:30.750198 26623 net.cpp:122] Setting up relu6
I0502 20:48:30.750222 26623 net.cpp:129] Top shape: 20 4096 (81920)
I0502 20:48:30.750228 26623 net.cpp:137] Memory required for data: 164994400
I0502 20:48:30.750236 26623 layer_factory.hpp:77] Creating layer drop6
I0502 20:48:30.750252 26623 net.cpp:84] Creating Layer drop6
I0502 20:48:30.750260 26623 net.cpp:406] drop6 <- fc6
I0502 20:48:30.750270 26623 net.cpp:367] drop6 -> fc6 (in-place)
I0502 20:48:30.750313 26623 net.cpp:122] Setting up drop6
I0502 20:48:30.750319 26623 net.cpp:129] Top shape: 20 4096 (81920)
I0502 20:48:30.750324 26623 net.cpp:137] Memory required for data: 165322080
I0502 20:48:30.750329 26623 layer_factory.hpp:77] Creating layer fc7
I0502 20:48:30.750340 26623 net.cpp:84] Creating Layer fc7
I0502 20:48:30.750345 26623 net.cpp:406] fc7 <- fc6
I0502 20:48:30.750352 26623 net.cpp:380] fc7 -> fc7
I0502 20:48:30.993468 26623 net.cpp:122] Setting up fc7
I0502 20:48:30.993492 26623 net.cpp:129] Top shape: 20 4096 (81920)
I0502 20:48:30.993496 26623 net.cpp:137] Memory required for data: 165649760
I0502 20:48:30.993506 26623 layer_factory.hpp:77] Creating layer relu7
I0502 20:48:30.993516 26623 net.cpp:84] Creating Layer relu7
I0502 20:48:30.993521 26623 net.cpp:406] relu7 <- fc7
I0502 20:48:30.993528 26623 net.cpp:367] relu7 -> fc7 (in-place)
I0502 20:48:30.993947 26623 net.cpp:122] Setting up relu7
I0502 20:48:30.993955 26623 net.cpp:129] Top shape: 20 4096 (81920)
I0502 20:48:30.993959 26623 net.cpp:137] Memory required for data: 165977440
I0502 20:48:30.993963 26623 layer_factory.hpp:77] Creating layer drop7
I0502 20:48:30.993971 26623 net.cpp:84] Creating Layer drop7
I0502 20:48:30.993975 26623 net.cpp:406] drop7 <- fc7
I0502 20:48:30.993981 26623 net.cpp:367] drop7 -> fc7 (in-place)
I0502 20:48:30.994005 26623 net.cpp:122] Setting up drop7
I0502 20:48:30.994010 26623 net.cpp:129] Top shape: 20 4096 (81920)
I0502 20:48:30.994014 26623 net.cpp:137] Memory required for data: 166305120
I0502 20:48:30.994017 26623 layer_factory.hpp:77] Creating layer fc8
I0502 20:48:30.994024 26623 net.cpp:84] Creating Layer fc8
I0502 20:48:30.994029 26623 net.cpp:406] fc8 <- fc7
I0502 20:48:30.994035 26623 net.cpp:380] fc8 -> fc8
I0502 20:48:31.004148 26623 net.cpp:122] Setting up fc8
I0502 20:48:31.004166 26623 net.cpp:129] Top shape: 20 196 (3920)
I0502 20:48:31.004169 26623 net.cpp:137] Memory required for data: 166320800
I0502 20:48:31.004179 26623 layer_factory.hpp:77] Creating layer fc8_fc8_0_split
I0502 20:48:31.004186 26623 net.cpp:84] Creating Layer fc8_fc8_0_split
I0502 20:48:31.004191 26623 net.cpp:406] fc8_fc8_0_split <- fc8
I0502 20:48:31.004199 26623 net.cpp:380] fc8_fc8_0_split -> fc8_fc8_0_split_0
I0502 20:48:31.004209 26623 net.cpp:380] fc8_fc8_0_split -> fc8_fc8_0_split_1
I0502 20:48:31.004261 26623 net.cpp:122] Setting up fc8_fc8_0_split
I0502 20:48:31.004267 26623 net.cpp:129] Top shape: 20 196 (3920)
I0502 20:48:31.004271 26623 net.cpp:129] Top shape: 20 196 (3920)
I0502 20:48:31.004273 26623 net.cpp:137] Memory required for data: 166352160
I0502 20:48:31.004277 26623 layer_factory.hpp:77] Creating layer accuracy
I0502 20:48:31.004284 26623 net.cpp:84] Creating Layer accuracy
I0502 20:48:31.004287 26623 net.cpp:406] accuracy <- fc8_fc8_0_split_0
I0502 20:48:31.004292 26623 net.cpp:406] accuracy <- label_val-data_1_split_0
I0502 20:48:31.004298 26623 net.cpp:380] accuracy -> accuracy
…
