…
I0505 14:52:18.152873 32474 net.cpp:294] The NetState phase (0) differed from the phase (1) specified by a rule in layer accuracy
I0505 14:52:18.153014 32474 net.cpp:51] Initializing net from parameters:
state {
phase: TRAIN
level: 0
stage: ""
}
layer {
name: "train-data"
type: "Data"
top: "data"
top: "label"
include {
phase: TRAIN
}
transform_param {
mirror: true
crop_size: 227
mean_file: "/mnt/bigdisk/MANDIG2/digits/jobs/20200428-132136-11fe/mean.binaryproto"
}
data_param {
source: "/mnt/bigdisk/MANDIG2/digits/jobs/20200428-132136-11fe/train_db"
batch_size: 100
backend: LMDB
}
}
layer {
name: "conv1"
type: "Convolution"
bottom: "data"
top: "conv1"
param {
lr_mult: 1
decay_mult: 1
}
param {
lr_mult: 2
decay_mult: 0
}
convolution_param {
num_output: 96
kernel_size: 11
stride: 4
weight_filler {
type: "gaussian"
std: 0.01
}
bias_filler {
type: "constant"
value: 0
}
}
}
layer {
name: "relu1"
type: "ReLU"
bottom: "conv1"
top: "conv1"
}
layer {
name: "norm1"
type: "LRN"
bottom: "conv1"
top: "norm1"
lrn_param {
local_size: 5
alpha: 0.0001
beta: 0.75
}
}
layer {
name: "pool1"
type: "Pooling"
bottom: "norm1"
top: "pool1"
pooling_param {
pool: MAX
kernel_size: 3
stride: 2
}
}
layer {
name: "conv2"
type: "Convolution"
bottom: "pool1"
top: "conv2"
param {
lr_mult: 1
decay_mult: 1
}
param {
lr_mult: 2
decay_mult: 0
}
convolution_param {
num_output: 256
pad: 2
kernel_size: 5
group: 2
weight_filler {
type: "gaussian"
std: 0.01
}
bias_filler {
type: "constant"
value: 0.1
}
}
}
layer {
name: "relu2"
type: "ReLU"
bottom: "conv2"
top: "conv2"
}
layer {
name: "norm2"
type: "LRN"
bottom: "conv2"
top: "norm2"
lrn_param {
local_size: 5
alpha: 0.0001
beta: 0.75
}
}
layer {
name: "pool2"
type: "Pooling"
bottom: "norm2"
top: "pool2"
pooling_param {
pool: MAX
kernel_size: 3
stride: 2
}
}
layer {
name: "conv3"
type: "Convolution"
bottom: "pool2"
top: "conv3"
param {
lr_mult: 1
decay_mult: 1
}
param {
lr_mult: 2
decay_mult: 0
}
convolution_param {
num_output: 384
pad: 1
kernel_size: 3
weight_filler {
type: "gaussian"
std: 0.01
}
bias_filler {
type: "constant"
value: 0
}
}
}
layer {
name: "relu3"
type: "ReLU"
bottom: "conv3"
top: "conv3"
}
layer {
name: "conv4"
type: "Convolution"
bottom: "conv3"
top: "conv4"
param {
lr_mult: 1
decay_mult: 1
}
param {
lr_mult: 2
decay_mult: 0
}
convolution_param {
num_output: 384
pad: 1
kernel_size: 3
group: 2
weight_filler {
type: "gaussian"
std: 0.01
}
bias_filler {
type: "constant"
value: 0.1
}
}
}
layer {
name: "relu4"
type: "ReLU"
bottom: "conv4"
top: "conv4"
}
layer {
name: "conv5"
type: "Convolution"
bottom: "conv4"
top: "conv5"
param {
lr_mult: 1
decay_mult: 1
}
param {
lr_mult: 2
decay_mult: 0
}
convolution_param {
num_output: 256
pad: 1
kernel_size: 3
group: 2
weight_filler {
type: "gaussian"
std: 0.01
}
bias_filler {
type: "constant"
value: 0.1
}
}
}
layer {
name: "relu5"
type: "ReLU"
bottom: "conv5"
top: "conv5"
}
layer {
name: "pool5"
type: "Pooling"
bottom: "conv5"
top: "pool5"
pooling_param {
pool: MAX
kernel_size: 3
stride: 2
}
}
layer {
name: "fc6"
type: "InnerProduct"
bottom: "pool5"
top: "fc6"
param {
lr_mult: 1
decay_mult: 1
}
param {
lr_mult: 2
decay_mult: 0
}
inner_product_param {
num_output: 4096
weight_filler {
type: "gaussian"
std: 0.005
}
bias_filler {
type: "constant"
value: 0.1
}
}
}
layer {
name: "relu6"
type: "ReLU"
bottom: "fc6"
top: "fc6"
}
layer {
name: "drop6"
type: "Dropout"
bottom: "fc6"
top: "fc6"
dropout_param {
dropout_ratio: 0.5
}
}
layer {
name: "fc7"
type: "InnerProduct"
bottom: "fc6"
top: "fc7"
param {
lr_mult: 1
decay_mult: 1
}
param {
lr_mult: 2
decay_mult: 0
}
inner_product_param {
num_output: 4096
weight_filler {
type: "gaussian"
std: 0.005
}
bias_filler {
type: "constant"
value: 0.1
}
}
}
layer {
name: "relu7"
type: "ReLU"
bottom: "fc7"
top: "fc7"
}
layer {
name: "drop7"
type: "Dropout"
bottom: "fc7"
top: "fc7"
dropout_param {
dropout_ratio: 0.5
}
}
layer {
name: "fc8"
type: "InnerProduct"
bottom: "fc7"
top: "fc8"
param {
lr_mult: 1
decay_mult: 1
}
param {
lr_mult: 2
decay_mult: 0
}
inner_product_param {
num_output: 196
weight_filler {
type: "gaussian"
std: 0.01
}
bias_filler {
type: "constant"
value: 0
}
}
}
layer {
name: "loss"
type: "SoftmaxWithLoss"
bottom: "fc8"
bottom: "label"
top: "loss"
}
I0505 14:52:18.153108 32474 layer_factory.hpp:77] Creating layer train-data
I0505 14:52:18.180570 32474 db_lmdb.cpp:35] Opened lmdb /mnt/bigdisk/MANDIG2/digits/jobs/20200428-132136-11fe/train_db
I0505 14:52:18.180752 32474 net.cpp:84] Creating Layer train-data
I0505 14:52:18.180778 32474 net.cpp:380] train-data -> data
I0505 14:52:18.180810 32474 net.cpp:380] train-data -> label
I0505 14:52:18.180824 32474 data_transformer.cpp:25] Loading mean file from: /mnt/bigdisk/MANDIG2/digits/jobs/20200428-132136-11fe/mean.binaryproto
I0505 14:52:18.186394 32474 data_layer.cpp:45] output data size: 100,3,227,227
I0505 14:52:18.310603 32474 net.cpp:122] Setting up train-data
I0505 14:52:18.310626 32474 net.cpp:129] Top shape: 100 3 227 227 (15458700)
I0505 14:52:18.310632 32474 net.cpp:129] Top shape: 100 (100)
I0505 14:52:18.310637 32474 net.cpp:137] Memory required for data: 61835200
I0505 14:52:18.310647 32474 layer_factory.hpp:77] Creating layer conv1
I0505 14:52:18.310670 32474 net.cpp:84] Creating Layer conv1
I0505 14:52:18.310676 32474 net.cpp:406] conv1 <- data
I0505 14:52:18.310689 32474 net.cpp:380] conv1 -> conv1
I0505 14:52:19.459949 32474 net.cpp:122] Setting up conv1
I0505 14:52:19.459975 32474 net.cpp:129] Top shape: 100 96 55 55 (29040000)
I0505 14:52:19.459982 32474 net.cpp:137] Memory required for data: 177995200
I0505 14:52:19.460008 32474 layer_factory.hpp:77] Creating layer relu1
I0505 14:52:19.460024 32474 net.cpp:84] Creating Layer relu1
I0505 14:52:19.460031 32474 net.cpp:406] relu1 <- conv1
I0505 14:52:19.460047 32474 net.cpp:367] relu1 -> conv1 (in-place)
I0505 14:52:19.460574 32474 net.cpp:122] Setting up relu1
I0505 14:52:19.460587 32474 net.cpp:129] Top shape: 100 96 55 55 (29040000)
I0505 14:52:19.460590 32474 net.cpp:137] Memory required for data: 294155200
I0505 14:52:19.460595 32474 layer_factory.hpp:77] Creating layer norm1
I0505 14:52:19.460609 32474 net.cpp:84] Creating Layer norm1
I0505 14:52:19.460613 32474 net.cpp:406] norm1 <- conv1
I0505 14:52:19.460639 32474 net.cpp:380] norm1 -> norm1
I0505 14:52:19.462070 32474 net.cpp:122] Setting up norm1
I0505 14:52:19.462082 32474 net.cpp:129] Top shape: 100 96 55 55 (29040000)
I0505 14:52:19.462087 32474 net.cpp:137] Memory required for data: 410315200
I0505 14:52:19.462093 32474 layer_factory.hpp:77] Creating layer pool1
I0505 14:52:19.462103 32474 net.cpp:84] Creating Layer pool1
I0505 14:52:19.462107 32474 net.cpp:406] pool1 <- norm1
I0505 14:52:19.462113 32474 net.cpp:380] pool1 -> pool1
I0505 14:52:19.462153 32474 net.cpp:122] Setting up pool1
I0505 14:52:19.462162 32474 net.cpp:129] Top shape: 100 96 27 27 (6998400)
I0505 14:52:19.462165 32474 net.cpp:137] Memory required for data: 438308800
I0505 14:52:19.462169 32474 layer_factory.hpp:77] Creating layer conv2
I0505 14:52:19.462182 32474 net.cpp:84] Creating Layer conv2
I0505 14:52:19.462186 32474 net.cpp:406] conv2 <- pool1
I0505 14:52:19.462193 32474 net.cpp:380] conv2 -> conv2
I0505 14:52:19.473654 32474 net.cpp:122] Setting up conv2
I0505 14:52:19.473675 32474 net.cpp:129] Top shape: 100 256 27 27 (18662400)
I0505 14:52:19.473680 32474 net.cpp:137] Memory required for data: 512958400
I0505 14:52:19.473693 32474 layer_factory.hpp:77] Creating layer relu2
I0505 14:52:19.473703 32474 net.cpp:84] Creating Layer relu2
I0505 14:52:19.473708 32474 net.cpp:406] relu2 <- conv2
I0505 14:52:19.473717 32474 net.cpp:367] relu2 -> conv2 (in-place)
I0505 14:52:19.474385 32474 net.cpp:122] Setting up relu2
I0505 14:52:19.474398 32474 net.cpp:129] Top shape: 100 256 27 27 (18662400)
I0505 14:52:19.474404 32474 net.cpp:137] Memory required for data: 587608000
I0505 14:52:19.474409 32474 layer_factory.hpp:77] Creating layer norm2
I0505 14:52:19.474422 32474 net.cpp:84] Creating Layer norm2
I0505 14:52:19.474429 32474 net.cpp:406] norm2 <- conv2
I0505 14:52:19.474437 32474 net.cpp:380] norm2 -> norm2
I0505 14:52:19.474974 32474 net.cpp:122] Setting up norm2
I0505 14:52:19.474987 32474 net.cpp:129] Top shape: 100 256 27 27 (18662400)
I0505 14:52:19.474992 32474 net.cpp:137] Memory required for data: 662257600
I0505 14:52:19.474995 32474 layer_factory.hpp:77] Creating layer pool2
I0505 14:52:19.475005 32474 net.cpp:84] Creating Layer pool2
I0505 14:52:19.475010 32474 net.cpp:406] pool2 <- norm2
I0505 14:52:19.475016 32474 net.cpp:380] pool2 -> pool2
I0505 14:52:19.475049 32474 net.cpp:122] Setting up pool2
I0505 14:52:19.475055 32474 net.cpp:129] Top shape: 100 256 13 13 (4326400)
I0505 14:52:19.475061 32474 net.cpp:137] Memory required for data: 679563200
I0505 14:52:19.475064 32474 layer_factory.hpp:77] Creating layer conv3
I0505 14:52:19.475076 32474 net.cpp:84] Creating Layer conv3
I0505 14:52:19.475080 32474 net.cpp:406] conv3 <- pool2
I0505 14:52:19.475087 32474 net.cpp:380] conv3 -> conv3
I0505 14:52:19.487501 32474 net.cpp:122] Setting up conv3
I0505 14:52:19.487521 32474 net.cpp:129] Top shape: 100 384 13 13 (6489600)
I0505 14:52:19.487524 32474 net.cpp:137] Memory required for data: 705521600
I0505 14:52:19.487540 32474 layer_factory.hpp:77] Creating layer relu3
I0505 14:52:19.487550 32474 net.cpp:84] Creating Layer relu3
I0505 14:52:19.487555 32474 net.cpp:406] relu3 <- conv3
I0505 14:52:19.487560 32474 net.cpp:367] relu3 -> conv3 (in-place)
I0505 14:52:19.488065 32474 net.cpp:122] Setting up relu3
I0505 14:52:19.488075 32474 net.cpp:129] Top shape: 100 384 13 13 (6489600)
I0505 14:52:19.488080 32474 net.cpp:137] Memory required for data: 731480000
I0505 14:52:19.488083 32474 layer_factory.hpp:77] Creating layer conv4
I0505 14:52:19.488095 32474 net.cpp:84] Creating Layer conv4
I0505 14:52:19.488098 32474 net.cpp:406] conv4 <- conv3
I0505 14:52:19.488106 32474 net.cpp:380] conv4 -> conv4
I0505 14:52:19.499557 32474 net.cpp:122] Setting up conv4
I0505 14:52:19.499577 32474 net.cpp:129] Top shape: 100 384 13 13 (6489600)
I0505 14:52:19.499580 32474 net.cpp:137] Memory required for data: 757438400
I0505 14:52:19.499590 32474 layer_factory.hpp:77] Creating layer relu4
I0505 14:52:19.499601 32474 net.cpp:84] Creating Layer relu4
I0505 14:52:19.499624 32474 net.cpp:406] relu4 <- conv4
I0505 14:52:19.499631 32474 net.cpp:367] relu4 -> conv4 (in-place)
I0505 14:52:19.499969 32474 net.cpp:122] Setting up relu4
I0505 14:52:19.499979 32474 net.cpp:129] Top shape: 100 384 13 13 (6489600)
I0505 14:52:19.499981 32474 net.cpp:137] Memory required for data: 783396800
I0505 14:52:19.499985 32474 layer_factory.hpp:77] Creating layer conv5
I0505 14:52:19.499997 32474 net.cpp:84] Creating Layer conv5
I0505 14:52:19.500001 32474 net.cpp:406] conv5 <- conv4
I0505 14:52:19.500007 32474 net.cpp:380] conv5 -> conv5
I0505 14:52:19.510134 32474 net.cpp:122] Setting up conv5
I0505 14:52:19.510159 32474 net.cpp:129] Top shape: 100 256 13 13 (4326400)
I0505 14:52:19.510164 32474 net.cpp:137] Memory required for data: 800702400
I0505 14:52:19.510183 32474 layer_factory.hpp:77] Creating layer relu5
I0505 14:52:19.510196 32474 net.cpp:84] Creating Layer relu5
I0505 14:52:19.510203 32474 net.cpp:406] relu5 <- conv5
I0505 14:52:19.510215 32474 net.cpp:367] relu5 -> conv5 (in-place)
I0505 14:52:19.510815 32474 net.cpp:122] Setting up relu5
I0505 14:52:19.510828 32474 net.cpp:129] Top shape: 100 256 13 13 (4326400)
I0505 14:52:19.510833 32474 net.cpp:137] Memory required for data: 818008000
I0505 14:52:19.510839 32474 layer_factory.hpp:77] Creating layer pool5
I0505 14:52:19.510849 32474 net.cpp:84] Creating Layer pool5
I0505 14:52:19.510854 32474 net.cpp:406] pool5 <- conv5
I0505 14:52:19.510862 32474 net.cpp:380] pool5 -> pool5
I0505 14:52:19.510915 32474 net.cpp:122] Setting up pool5
I0505 14:52:19.510926 32474 net.cpp:129] Top shape: 100 256 6 6 (921600)
I0505 14:52:19.510931 32474 net.cpp:137] Memory required for data: 821694400
I0505 14:52:19.510936 32474 layer_factory.hpp:77] Creating layer fc6
I0505 14:52:19.510951 32474 net.cpp:84] Creating Layer fc6
I0505 14:52:19.510957 32474 net.cpp:406] fc6 <- pool5
I0505 14:52:19.510964 32474 net.cpp:380] fc6 -> fc6
I0505 14:52:19.886847 32474 net.cpp:122] Setting up fc6
I0505 14:52:19.886868 32474 net.cpp:129] Top shape: 100 4096 (409600)
I0505 14:52:19.886873 32474 net.cpp:137] Memory required for data: 823332800
I0505 14:52:19.886883 32474 layer_factory.hpp:77] Creating layer relu6
I0505 14:52:19.886893 32474 net.cpp:84] Creating Layer relu6
I0505 14:52:19.886898 32474 net.cpp:406] relu6 <- fc6
I0505 14:52:19.886907 32474 net.cpp:367] relu6 -> fc6 (in-place)
I0505 14:52:19.887542 32474 net.cpp:122] Setting up relu6
I0505 14:52:19.887553 32474 net.cpp:129] Top shape: 100 4096 (409600)
I0505 14:52:19.887558 32474 net.cpp:137] Memory required for data: 824971200
I0505 14:52:19.887564 32474 layer_factory.hpp:77] Creating layer drop6
I0505 14:52:19.887573 32474 net.cpp:84] Creating Layer drop6
I0505 14:52:19.887578 32474 net.cpp:406] drop6 <- fc6
I0505 14:52:19.887583 32474 net.cpp:367] drop6 -> fc6 (in-place)
I0505 14:52:19.887612 32474 net.cpp:122] Setting up drop6
I0505 14:52:19.887619 32474 net.cpp:129] Top shape: 100 4096 (409600)
I0505 14:52:19.887624 32474 net.cpp:137] Memory required for data: 826609600
I0505 14:52:19.887627 32474 layer_factory.hpp:77] Creating layer fc7
I0505 14:52:19.887636 32474 net.cpp:84] Creating Layer fc7
I0505 14:52:19.887641 32474 net.cpp:406] fc7 <- fc6
I0505 14:52:19.887647 32474 net.cpp:380] fc7 -> fc7
I0505 14:52:20.073669 32474 net.cpp:122] Setting up fc7
I0505 14:52:20.073694 32474 net.cpp:129] Top shape: 100 4096 (409600)
I0505 14:52:20.073698 32474 net.cpp:137] Memory required for data: 828248000
I0505 14:52:20.073709 32474 layer_factory.hpp:77] Creating layer relu7
I0505 14:52:20.073719 32474 net.cpp:84] Creating Layer relu7
I0505 14:52:20.073724 32474 net.cpp:406] relu7 <- fc7
I0505 14:52:20.073731 32474 net.cpp:367] relu7 -> fc7 (in-place)
I0505 14:52:20.083262 32474 net.cpp:122] Setting up relu7
I0505 14:52:20.083282 32474 net.cpp:129] Top shape: 100 4096 (409600)
I0505 14:52:20.083287 32474 net.cpp:137] Memory required for data: 829886400
I0505 14:52:20.083293 32474 layer_factory.hpp:77] Creating layer drop7
I0505 14:52:20.083304 32474 net.cpp:84] Creating Layer drop7
I0505 14:52:20.083309 32474 net.cpp:406] drop7 <- fc7
I0505 14:52:20.083338 32474 net.cpp:367] drop7 -> fc7 (in-place)
I0505 14:52:20.083381 32474 net.cpp:122] Setting up drop7
I0505 14:52:20.083387 32474 net.cpp:129] Top shape: 100 4096 (409600)
I0505 14:52:20.083391 32474 net.cpp:137] Memory required for data: 831524800
I0505 14:52:20.083395 32474 layer_factory.hpp:77] Creating layer fc8
I0505 14:52:20.083405 32474 net.cpp:84] Creating Layer fc8
I0505 14:52:20.083410 32474 net.cpp:406] fc8 <- fc7
I0505 14:52:20.083416 32474 net.cpp:380] fc8 -> fc8
I0505 14:52:20.091269 32474 net.cpp:122] Setting up fc8
I0505 14:52:20.091287 32474 net.cpp:129] Top shape: 100 196 (19600)
I0505 14:52:20.091292 32474 net.cpp:137] Memory required for data: 831603200
I0505 14:52:20.091305 32474 layer_factory.hpp:77] Creating layer loss
I0505 14:52:20.091315 32474 net.cpp:84] Creating Layer loss
I0505 14:52:20.091320 32474 net.cpp:406] loss <- fc8
I0505 14:52:20.091325 32474 net.cpp:406] loss <- label
I0505 14:52:20.091332 32474 net.cpp:380] loss -> loss
I0505 14:52:20.091344 32474 layer_factory.hpp:77] Creating layer loss
…
I0505 14:52:20.092622 32474 solver.cpp:172] Creating test net (#0) specified by net file: train_val.prototxt
I0505 14:52:20.092653 32474 net.cpp:294] The NetState phase (1) differed from the phase (0) specified by a rule in layer train-data
I0505 14:52:20.092793 32474 net.cpp:51] Initializing net from parameters:
state {
phase: TEST
}
layer {
name: "val-data"
type: "Data"
top: "data"
top: "label"
include {
phase: TEST
}
transform_param {
crop_size: 227
mean_file: "/mnt/bigdisk/MANDIG2/digits/jobs/20200428-132136-11fe/mean.binaryproto"
}
data_param {
source: "/mnt/bigdisk/MANDIG2/digits/jobs/20200428-132136-11fe/val_db"
batch_size: 100
backend: LMDB
}
}
layer {
name: "conv1"
type: "Convolution"
bottom: "data"
top: "conv1"
param {
lr_mult: 1
decay_mult: 1
}
param {
lr_mult: 2
decay_mult: 0
}
convolution_param {
num_output: 96
kernel_size: 11
stride: 4
weight_filler {
type: "gaussian"
std: 0.01
}
bias_filler {
type: "constant"
value: 0
}
}
}
layer {
name: "relu1"
type: "ReLU"
bottom: "conv1"
top: "conv1"
}
layer {
name: "norm1"
type: "LRN"
bottom: "conv1"
top: "norm1"
lrn_param {
local_size: 5
alpha: 0.0001
beta: 0.75
}
}
layer {
name: "pool1"
type: "Pooling"
bottom: "norm1"
top: "pool1"
pooling_param {
pool: MAX
kernel_size: 3
stride: 2
}
}
layer {
name: "conv2"
type: "Convolution"
bottom: "pool1"
top: "conv2"
param {
lr_mult: 1
decay_mult: 1
}
param {
lr_mult: 2
decay_mult: 0
}
convolution_param {
num_output: 256
pad: 2
kernel_size: 5
group: 2
weight_filler {
type: "gaussian"
std: 0.01
}
bias_filler {
type: "constant"
value: 0.1
}
}
}
layer {
name: "relu2"
type: "ReLU"
bottom: "conv2"
top: "conv2"
}
layer {
name: "norm2"
type: "LRN"
bottom: "conv2"
top: "norm2"
lrn_param {
local_size: 5
alpha: 0.0001
beta: 0.75
}
}
layer {
name: "pool2"
type: "Pooling"
bottom: "norm2"
top: "pool2"
pooling_param {
pool: MAX
kernel_size: 3
stride: 2
}
}
layer {
name: "conv3"
type: "Convolution"
bottom: "pool2"
top: "conv3"
param {
lr_mult: 1
decay_mult: 1
}
param {
lr_mult: 2
decay_mult: 0
}
convolution_param {
num_output: 384
pad: 1
kernel_size: 3
weight_filler {
type: "gaussian"
std: 0.01
}
bias_filler {
type: "constant"
value: 0
}
}
}
layer {
name: "relu3"
type: "ReLU"
bottom: "conv3"
top: "conv3"
}
layer {
name: "conv4"
type: "Convolution"
bottom: "conv3"
top: "conv4"
param {
lr_mult: 1
decay_mult: 1
}
param {
lr_mult: 2
decay_mult: 0
}
convolution_param {
num_output: 384
pad: 1
kernel_size: 3
group: 2
weight_filler {
type: "gaussian"
std: 0.01
}
bias_filler {
type: "constant"
value: 0.1
}
}
}
layer {
name: "relu4"
type: "ReLU"
bottom: "conv4"
top: "conv4"
}
layer {
name: "conv5"
type: "Convolution"
bottom: "conv4"
top: "conv5"
param {
lr_mult: 1
decay_mult: 1
}
param {
lr_mult: 2
decay_mult: 0
}
convolution_param {
num_output: 256
pad: 1
kernel_size: 3
group: 2
weight_filler {
type: "gaussian"
std: 0.01
}
bias_filler {
type: "constant"
value: 0.1
}
}
}
layer {
name: "relu5"
type: "ReLU"
bottom: "conv5"
top: "conv5"
}
layer {
name: "pool5"
type: "Pooling"
bottom: "conv5"
top: "pool5"
pooling_param {
pool: MAX
kernel_size: 3
stride: 2
}
}
layer {
name: "fc6"
type: "InnerProduct"
bottom: "pool5"
top: "fc6"
param {
lr_mult: 1
decay_mult: 1
}
param {
lr_mult: 2
decay_mult: 0
}
inner_product_param {
num_output: 4096
weight_filler {
type: "gaussian"
std: 0.005
}
bias_filler {
type: "constant"
value: 0.1
}
}
}
layer {
name: "relu6"
type: "ReLU"
bottom: "fc6"
top: "fc6"
}
layer {
name: "drop6"
type: "Dropout"
bottom: "fc6"
top: "fc6"
dropout_param {
dropout_ratio: 0.5
}
}
layer {
name: "fc7"
type: "InnerProduct"
bottom: "fc6"
top: "fc7"
param {
lr_mult: 1
decay_mult: 1
}
param {
lr_mult: 2
decay_mult: 0
}
inner_product_param {
num_output: 4096
weight_filler {
type: "gaussian"
std: 0.005
}
bias_filler {
type: "constant"
value: 0.1
}
}
}
layer {
name: "relu7"
type: "ReLU"
bottom: "fc7"
top: "fc7"
}
layer {
name: "drop7"
type: "Dropout"
bottom: "fc7"
top: "fc7"
dropout_param {
dropout_ratio: 0.5
}
}
layer {
name: "fc8"
type: "InnerProduct"
bottom: "fc7"
top: "fc8"
param {
lr_mult: 1
decay_mult: 1
}
param {
lr_mult: 2
decay_mult: 0
}
inner_product_param {
num_output: 196
weight_filler {
type: "gaussian"
std: 0.01
}
bias_filler {
type: "constant"
value: 0
}
}
}
layer {
name: "accuracy"
type: "Accuracy"
bottom: "fc8"
bottom: "label"
top: "accuracy"
include {
phase: TEST
}
}
layer {
name: "loss"
type: "SoftmaxWithLoss"
bottom: "fc8"
bottom: "label"
top: "loss"
}
I0505 14:52:20.092905 32474 layer_factory.hpp:77] Creating layer val-data
I0505 14:52:20.111708 32474 db_lmdb.cpp:35] Opened lmdb /mnt/bigdisk/MANDIG2/digits/jobs/20200428-132136-11fe/val_db
I0505 14:52:20.111896 32474 net.cpp:84] Creating Layer val-data
I0505 14:52:20.111922 32474 net.cpp:380] val-data -> data
I0505 14:52:20.111945 32474 net.cpp:380] val-data -> label
I0505 14:52:20.111959 32474 data_transformer.cpp:25] Loading mean file from: /mnt/bigdisk/MANDIG2/digits/jobs/20200428-132136-11fe/mean.binaryproto
I0505 14:52:20.115875 32474 data_layer.cpp:45] output data size: 100,3,227,227
I0505 14:52:20.226701 32474 net.cpp:122] Setting up val-data
I0505 14:52:20.226723 32474 net.cpp:129] Top shape: 100 3 227 227 (15458700)
I0505 14:52:20.226728 32474 net.cpp:129] Top shape: 100 (100)
I0505 14:52:20.226732 32474 net.cpp:137] Memory required for data: 61835200
I0505 14:52:20.226740 32474 layer_factory.hpp:77] Creating layer label_val-data_1_split
I0505 14:52:20.226755 32474 net.cpp:84] Creating Layer label_val-data_1_split
I0505 14:52:20.226760 32474 net.cpp:406] label_val-data_1_split <- label
I0505 14:52:20.226768 32474 net.cpp:380] label_val-data_1_split -> label_val-data_1_split_0
I0505 14:52:20.226778 32474 net.cpp:380] label_val-data_1_split -> label_val-data_1_split_1
I0505 14:52:20.226860 32474 net.cpp:122] Setting up label_val-data_1_split
I0505 14:52:20.226866 32474 net.cpp:129] Top shape: 100 (100)
I0505 14:52:20.226871 32474 net.cpp:129] Top shape: 100 (100)
I0505 14:52:20.226874 32474 net.cpp:137] Memory required for data: 61836000
I0505 14:52:20.226879 32474 layer_factory.hpp:77] Creating layer conv1
I0505 14:52:20.226893 32474 net.cpp:84] Creating Layer conv1
I0505 14:52:20.226898 32474 net.cpp:406] conv1 <- data
I0505 14:52:20.226904 32474 net.cpp:380] conv1 -> conv1
I0505 14:52:20.229014 32474 net.cpp:122] Setting up conv1
I0505 14:52:20.229027 32474 net.cpp:129] Top shape: 100 96 55 55 (29040000)
I0505 14:52:20.229030 32474 net.cpp:137] Memory required for data: 177996000
I0505 14:52:20.229041 32474 layer_factory.hpp:77] Creating layer relu1
I0505 14:52:20.229048 32474 net.cpp:84] Creating Layer relu1
I0505 14:52:20.229053 32474 net.cpp:406] relu1 <- conv1
I0505 14:52:20.229058 32474 net.cpp:367] relu1 -> conv1 (in-place)
I0505 14:52:20.229341 32474 net.cpp:122] Setting up relu1
I0505 14:52:20.229351 32474 net.cpp:129] Top shape: 100 96 55 55 (29040000)
I0505 14:52:20.229355 32474 net.cpp:137] Memory required for data: 294156000
I0505 14:52:20.229360 32474 layer_factory.hpp:77] Creating layer norm1
I0505 14:52:20.229369 32474 net.cpp:84] Creating Layer norm1
I0505 14:52:20.229374 32474 net.cpp:406] norm1 <- conv1
I0505 14:52:20.229382 32474 net.cpp:380] norm1 -> norm1
I0505 14:52:20.229831 32474 net.cpp:122] Setting up norm1
I0505 14:52:20.229841 32474 net.cpp:129] Top shape: 100 96 55 55 (29040000)
I0505 14:52:20.229846 32474 net.cpp:137] Memory required for data: 410316000
I0505 14:52:20.229851 32474 layer_factory.hpp:77] Creating layer pool1
I0505 14:52:20.229857 32474 net.cpp:84] Creating Layer pool1
I0505 14:52:20.229861 32474 net.cpp:406] pool1 <- norm1
I0505 14:52:20.229867 32474 net.cpp:380] pool1 -> pool1
I0505 14:52:20.229897 32474 net.cpp:122] Setting up pool1
I0505 14:52:20.229903 32474 net.cpp:129] Top shape: 100 96 27 27 (6998400)
I0505 14:52:20.229908 32474 net.cpp:137] Memory required for data: 438309600
I0505 14:52:20.229912 32474 layer_factory.hpp:77] Creating layer conv2
I0505 14:52:20.229923 32474 net.cpp:84] Creating Layer conv2
I0505 14:52:20.229926 32474 net.cpp:406] conv2 <- pool1
I0505 14:52:20.229952 32474 net.cpp:380] conv2 -> conv2
I0505 14:52:20.248826 32474 net.cpp:122] Setting up conv2
I0505 14:52:20.248852 32474 net.cpp:129] Top shape: 100 256 27 27 (18662400)
I0505 14:52:20.248859 32474 net.cpp:137] Memory required for data: 512959200
I0505 14:52:20.248881 32474 layer_factory.hpp:77] Creating layer relu2
I0505 14:52:20.248903 32474 net.cpp:84] Creating Layer relu2
I0505 14:52:20.248911 32474 net.cpp:406] relu2 <- conv2
I0505 14:52:20.248922 32474 net.cpp:367] relu2 -> conv2 (in-place)
I0505 14:52:20.249702 32474 net.cpp:122] Setting up relu2
I0505 14:52:20.249717 32474 net.cpp:129] Top shape: 100 256 27 27 (18662400)
I0505 14:52:20.249722 32474 net.cpp:137] Memory required for data: 587608800
I0505 14:52:20.249728 32474 layer_factory.hpp:77] Creating layer norm2
I0505 14:52:20.249742 32474 net.cpp:84] Creating Layer norm2
I0505 14:52:20.249748 32474 net.cpp:406] norm2 <- conv2
I0505 14:52:20.249758 32474 net.cpp:380] norm2 -> norm2
I0505 14:52:20.250547 32474 net.cpp:122] Setting up norm2
I0505 14:52:20.250558 32474 net.cpp:129] Top shape: 100 256 27 27 (18662400)
I0505 14:52:20.250563 32474 net.cpp:137] Memory required for data: 662258400
I0505 14:52:20.250568 32474 layer_factory.hpp:77] Creating layer pool2
I0505 14:52:20.250576 32474 net.cpp:84] Creating Layer pool2
I0505 14:52:20.250581 32474 net.cpp:406] pool2 <- norm2
I0505 14:52:20.250588 32474 net.cpp:380] pool2 -> pool2
I0505 14:52:20.250622 32474 net.cpp:122] Setting up pool2
I0505 14:52:20.250628 32474 net.cpp:129] Top shape: 100 256 13 13 (4326400)
I0505 14:52:20.250633 32474 net.cpp:137] Memory required for data: 679564000
I0505 14:52:20.250638 32474 layer_factory.hpp:77] Creating layer conv3
I0505 14:52:20.250651 32474 net.cpp:84] Creating Layer conv3
I0505 14:52:20.250656 32474 net.cpp:406] conv3 <- pool2
I0505 14:52:20.250661 32474 net.cpp:380] conv3 -> conv3
I0505 14:52:20.287921 32474 net.cpp:122] Setting up conv3
I0505 14:52:20.287945 32474 net.cpp:129] Top shape: 100 384 13 13 (6489600)
I0505 14:52:20.287950 32474 net.cpp:137] Memory required for data: 705522400
I0505 14:52:20.287968 32474 layer_factory.hpp:77] Creating layer relu3
I0505 14:52:20.287982 32474 net.cpp:84] Creating Layer relu3
I0505 14:52:20.287989 32474 net.cpp:406] relu3 <- conv3
I0505 14:52:20.287998 32474 net.cpp:367] relu3 -> conv3 (in-place)
I0505 14:52:20.288761 32474 net.cpp:122] Setting up relu3
I0505 14:52:20.288776 32474 net.cpp:129] Top shape: 100 384 13 13 (6489600)
I0505 14:52:20.288782 32474 net.cpp:137] Memory required for data: 731480800
I0505 14:52:20.288789 32474 layer_factory.hpp:77] Creating layer conv4
I0505 14:52:20.288808 32474 net.cpp:84] Creating Layer conv4
I0505 14:52:20.288815 32474 net.cpp:406] conv4 <- conv3
I0505 14:52:20.288826 32474 net.cpp:380] conv4 -> conv4
I0505 14:52:20.307176 32474 net.cpp:122] Setting up conv4
I0505 14:52:20.307201 32474 net.cpp:129] Top shape: 100 384 13 13 (6489600)
I0505 14:52:20.307206 32474 net.cpp:137] Memory required for data: 757439200
I0505 14:52:20.307220 32474 layer_factory.hpp:77] Creating layer relu4
I0505 14:52:20.307233 32474 net.cpp:84] Creating Layer relu4
I0505 14:52:20.307240 32474 net.cpp:406] relu4 <- conv4
I0505 14:52:20.307248 32474 net.cpp:367] relu4 -> conv4 (in-place)
I0505 14:52:20.307763 32474 net.cpp:122] Setting up relu4
I0505 14:52:20.307775 32474 net.cpp:129] Top shape: 100 384 13 13 (6489600)
I0505 14:52:20.307780 32474 net.cpp:137] Memory required for data: 783397600
I0505 14:52:20.307785 32474 layer_factory.hpp:77] Creating layer conv5
I0505 14:52:20.307801 32474 net.cpp:84] Creating Layer conv5
I0505 14:52:20.307807 32474 net.cpp:406] conv5 <- conv4
I0505 14:52:20.307817 32474 net.cpp:380] conv5 -> conv5
I0505 14:52:20.324829 32474 net.cpp:122] Setting up conv5
I0505 14:52:20.324849 32474 net.cpp:129] Top shape: 100 256 13 13 (4326400)
I0505 14:52:20.324854 32474 net.cpp:137] Memory required for data: 800703200
I0505 14:52:20.324872 32474 layer_factory.hpp:77] Creating layer relu5
I0505 14:52:20.324882 32474 net.cpp:84] Creating Layer relu5
I0505 14:52:20.324887 32474 net.cpp:406] relu5 <- conv5
I0505 14:52:20.324911 32474 net.cpp:367] relu5 -> conv5 (in-place)
I0505 14:52:20.325487 32474 net.cpp:122] Setting up relu5
I0505 14:52:20.325497 32474 net.cpp:129] Top shape: 100 256 13 13 (4326400)
I0505 14:52:20.325501 32474 net.cpp:137] Memory required for data: 818008800
I0505 14:52:20.325505 32474 layer_factory.hpp:77] Creating layer pool5
I0505 14:52:20.325517 32474 net.cpp:84] Creating Layer pool5
I0505 14:52:20.325522 32474 net.cpp:406] pool5 <- conv5
I0505 14:52:20.325529 32474 net.cpp:380] pool5 -> pool5
I0505 14:52:20.325575 32474 net.cpp:122] Setting up pool5
I0505 14:52:20.325582 32474 net.cpp:129] Top shape: 100 256 6 6 (921600)
I0505 14:52:20.325585 32474 net.cpp:137] Memory required for data: 821695200
I0505 14:52:20.325590 32474 layer_factory.hpp:77] Creating layer fc6
I0505 14:52:20.325599 32474 net.cpp:84] Creating Layer fc6
I0505 14:52:20.325603 32474 net.cpp:406] fc6 <- pool5
I0505 14:52:20.325609 32474 net.cpp:380] fc6 -> fc6
I0505 14:52:20.708333 32474 net.cpp:122] Setting up fc6
I0505 14:52:20.708355 32474 net.cpp:129] Top shape: 100 4096 (409600)
I0505 14:52:20.708360 32474 net.cpp:137] Memory required for data: 823333600
I0505 14:52:20.708371 32474 layer_factory.hpp:77] Creating layer relu6
I0505 14:52:20.708381 32474 net.cpp:84] Creating Layer relu6
I0505 14:52:20.708386 32474 net.cpp:406] relu6 <- fc6
I0505 14:52:20.708393 32474 net.cpp:367] relu6 -> fc6 (in-place)
I0505 14:52:20.714071 32474 net.cpp:122] Setting up relu6
I0505 14:52:20.714090 32474 net.cpp:129] Top shape: 100 4096 (409600)
I0505 14:52:20.714095 32474 net.cpp:137] Memory required for data: 824972000
I0505 14:52:20.714100 32474 layer_factory.hpp:77] Creating layer drop6
I0505 14:52:20.714112 32474 net.cpp:84] Creating Layer drop6
I0505 14:52:20.714115 32474 net.cpp:406] drop6 <- fc6
I0505 14:52:20.714124 32474 net.cpp:367] drop6 -> fc6 (in-place)
I0505 14:52:20.714156 32474 net.cpp:122] Setting up drop6
I0505 14:52:20.714162 32474 net.cpp:129] Top shape: 100 4096 (409600)
I0505 14:52:20.714166 32474 net.cpp:137] Memory required for data: 826610400
I0505 14:52:20.714170 32474 layer_factory.hpp:77] Creating layer fc7
I0505 14:52:20.714179 32474 net.cpp:84] Creating Layer fc7
I0505 14:52:20.714182 32474 net.cpp:406] fc7 <- fc6
I0505 14:52:20.714190 32474 net.cpp:380] fc7 -> fc7
I0505 14:52:20.876070 32474 net.cpp:122] Setting up fc7
I0505 14:52:20.876094 32474 net.cpp:129] Top shape: 100 4096 (409600)
I0505 14:52:20.876099 32474 net.cpp:137] Memory required for data: 828248800
I0505 14:52:20.876108 32474 layer_factory.hpp:77] Creating layer relu7
I0505 14:52:20.876121 32474 net.cpp:84] Creating Layer relu7
I0505 14:52:20.876127 32474 net.cpp:406] relu7 <- fc7
I0505 14:52:20.876135 32474 net.cpp:367] relu7 -> fc7 (in-place)
I0505 14:52:20.876554 32474 net.cpp:122] Setting up relu7
I0505 14:52:20.876564 32474 net.cpp:129] Top shape: 100 4096 (409600)
I0505 14:52:20.876569 32474 net.cpp:137] Memory required for data: 829887200
I0505 14:52:20.876574 32474 layer_factory.hpp:77] Creating layer drop7
I0505 14:52:20.876581 32474 net.cpp:84] Creating Layer drop7
I0505 14:52:20.876587 32474 net.cpp:406] drop7 <- fc7
I0505 14:52:20.876595 32474 net.cpp:367] drop7 -> fc7 (in-place)
I0505 14:52:20.876619 32474 net.cpp:122] Setting up drop7
I0505 14:52:20.876626 32474 net.cpp:129] Top shape: 100 4096 (409600)
I0505 14:52:20.876631 32474 net.cpp:137] Memory required for data: 831525600
I0505 14:52:20.876636 32474 layer_factory.hpp:77] Creating layer fc8
I0505 14:52:20.876646 32474 net.cpp:84] Creating Layer fc8
I0505 14:52:20.876652 32474 net.cpp:406] fc8 <- fc7
I0505 14:52:20.876658 32474 net.cpp:380] fc8 -> fc8
I0505 14:52:20.885967 32474 net.cpp:122] Setting up fc8
I0505 14:52:20.885988 32474 net.cpp:129] Top shape: 100 196 (19600)
I0505 14:52:20.885993 32474 net.cpp:137] Memory required for data: 831604000
I0505 14:52:20.886003 32474 layer_factory.hpp:77] Creating layer fc8_fc8_0_split
I0505 14:52:20.886013 32474 net.cpp:84] Creating Layer fc8_fc8_0_split
I0505 14:52:20.886018 32474 net.cpp:406] fc8_fc8_0_split <- fc8
I0505 14:52:20.886054 32474 net.cpp:380] fc8_fc8_0_split -> fc8_fc8_0_split_0
I0505 14:52:20.886062 32474 net.cpp:380] fc8_fc8_0_split -> fc8_fc8_0_split_1
I0505 14:52:20.886101 32474 net.cpp:122] Setting up fc8_fc8_0_split
I0505 14:52:20.886107 32474 net.cpp:129] Top shape: 100 196 (19600)
I0505 14:52:20.886111 32474 net.cpp:129] Top shape: 100 196 (19600)
I0505 14:52:20.886114 32474 net.cpp:137] Memory required for data: 831760800
I0505 14:52:20.886119 32474 layer_factory.hpp:77] Creating layer accuracy
I0505 14:52:20.886127 32474 net.cpp:84] Creating Layer accuracy
I0505 14:52:20.886132 32474 net.cpp:406] accuracy <- fc8_fc8_0_split_0
I0505 14:52:20.886137 32474 net.cpp:406] accuracy <- label_val-data_1_split_0
I0505 14:52:20.886144 32474 net.cpp:380] accuracy -> accuracy
…
