…
I0507 14:25:11.209828  1856 net.cpp:294] The NetState phase (0) differed from the phase (1) specified by a rule in layer accuracy
I0507 14:25:11.209981  1856 net.cpp:51] Initializing net from parameters:
state {
phase: TRAIN
level: 0
stage: ""
}
layer {
name: "train-data"
type: "Data"
top: "data"
top: "label"
include {
phase: TRAIN
}
transform_param {
mirror: true
crop_size: 227
mean_file: "/mnt/bigdisk/MANDIG4/digits/jobs/20200507-113700-33e0/mean.binaryproto"
}
data_param {
source: "/mnt/bigdisk/MANDIG4/digits/jobs/20200507-113700-33e0/train_db"
batch_size: 128
backend: LMDB
}
}
layer {
name: "conv1"
type: "Convolution"
bottom: "data"
top: "conv1"
param {
lr_mult: 1
decay_mult: 1
}
param {
lr_mult: 2
decay_mult: 0
}
convolution_param {
num_output: 96
kernel_size: 11
stride: 4
weight_filler {
type: "gaussian"
std: 0.01
}
bias_filler {
type: "constant"
value: 0
}
}
}
layer {
name: "relu1"
type: "ReLU"
bottom: "conv1"
top: "conv1"
}
layer {
name: "norm1"
type: "LRN"
bottom: "conv1"
top: "norm1"
lrn_param {
local_size: 5
alpha: 0.0001
beta: 0.75
}
}
layer {
name: "pool1"
type: "Pooling"
bottom: "norm1"
top: "pool1"
pooling_param {
pool: MAX
kernel_size: 3
stride: 2
}
}
layer {
name: "conv2"
type: "Convolution"
bottom: "pool1"
top: "conv2"
param {
lr_mult: 1
decay_mult: 1
}
param {
lr_mult: 2
decay_mult: 0
}
convolution_param {
num_output: 256
pad: 2
kernel_size: 5
group: 2
weight_filler {
type: "gaussian"
std: 0.01
}
bias_filler {
type: "constant"
value: 0.1
}
}
}
layer {
name: "relu2"
type: "ReLU"
bottom: "conv2"
top: "conv2"
}
layer {
name: "norm2"
type: "LRN"
bottom: "conv2"
top: "norm2"
lrn_param {
local_size: 5
alpha: 0.0001
beta: 0.75
}
}
layer {
name: "pool2"
type: "Pooling"
bottom: "norm2"
top: "pool2"
pooling_param {
pool: MAX
kernel_size: 3
stride: 2
}
}
layer {
name: "conv3"
type: "Convolution"
bottom: "pool2"
top: "conv3"
param {
lr_mult: 1
decay_mult: 1
}
param {
lr_mult: 2
decay_mult: 0
}
convolution_param {
num_output: 384
pad: 1
kernel_size: 3
weight_filler {
type: "gaussian"
std: 0.01
}
bias_filler {
type: "constant"
value: 0
}
}
}
layer {
name: "relu3"
type: "ReLU"
bottom: "conv3"
top: "conv3"
}
layer {
name: "conv4"
type: "Convolution"
bottom: "conv3"
top: "conv4"
param {
lr_mult: 1
decay_mult: 1
}
param {
lr_mult: 2
decay_mult: 0
}
convolution_param {
num_output: 384
pad: 1
kernel_size: 3
group: 2
weight_filler {
type: "gaussian"
std: 0.01
}
bias_filler {
type: "constant"
value: 0.1
}
}
}
layer {
name: "relu4"
type: "ReLU"
bottom: "conv4"
top: "conv4"
}
layer {
name: "conv5"
type: "Convolution"
bottom: "conv4"
top: "conv5"
param {
lr_mult: 1
decay_mult: 1
}
param {
lr_mult: 2
decay_mult: 0
}
convolution_param {
num_output: 256
pad: 1
kernel_size: 3
group: 2
weight_filler {
type: "gaussian"
std: 0.01
}
bias_filler {
type: "constant"
value: 0.1
}
}
}
layer {
name: "relu5"
type: "ReLU"
bottom: "conv5"
top: "conv5"
}
layer {
name: "pool5"
type: "Pooling"
bottom: "conv5"
top: "pool5"
pooling_param {
pool: MAX
kernel_size: 3
stride: 2
}
}
layer {
name: "fc6"
type: "InnerProduct"
bottom: "pool5"
top: "fc6"
param {
lr_mult: 1
decay_mult: 1
}
param {
lr_mult: 2
decay_mult: 0
}
inner_product_param {
num_output: 4096
weight_filler {
type: "gaussian"
std: 0.005
}
bias_filler {
type: "constant"
value: 0.1
}
}
}
layer {
name: "relu6"
type: "ReLU"
bottom: "fc6"
top: "fc6"
}
layer {
name: "drop6"
type: "Dropout"
bottom: "fc6"
top: "fc6"
dropout_param {
dropout_ratio: 0.5
}
}
layer {
name: "fc7"
type: "InnerProduct"
bottom: "fc6"
top: "fc7"
param {
lr_mult: 1
decay_mult: 1
}
param {
lr_mult: 2
decay_mult: 0
}
inner_product_param {
num_output: 4096
weight_filler {
type: "gaussian"
std: 0.005
}
bias_filler {
type: "constant"
value: 0.1
}
}
}
layer {
name: "relu7"
type: "ReLU"
bottom: "fc7"
top: "fc7"
}
layer {
name: "drop7"
type: "Dropout"
bottom: "fc7"
top: "fc7"
dropout_param {
dropout_ratio: 0.5
}
}
layer {
name: "fc8"
type: "InnerProduct"
bottom: "fc7"
top: "fc8"
param {
lr_mult: 1
decay_mult: 1
}
param {
lr_mult: 2
decay_mult: 0
}
inner_product_param {
num_output: 196
weight_filler {
type: "gaussian"
std: 0.01
}
bias_filler {
type: "constant"
value: 0
}
}
}
layer {
name: "loss"
type: "SoftmaxWithLoss"
bottom: "fc8"
bottom: "label"
top: "loss"
}
I0507 14:25:11.210076  1856 layer_factory.hpp:77] Creating layer train-data
I0507 14:25:11.215454  1856 db_lmdb.cpp:35] Opened lmdb /mnt/bigdisk/MANDIG4/digits/jobs/20200507-113700-33e0/train_db
I0507 14:25:11.215670  1856 net.cpp:84] Creating Layer train-data
I0507 14:25:11.215695  1856 net.cpp:380] train-data -> data
I0507 14:25:11.215728  1856 net.cpp:380] train-data -> label
I0507 14:25:11.215749  1856 data_transformer.cpp:25] Loading mean file from: /mnt/bigdisk/MANDIG4/digits/jobs/20200507-113700-33e0/mean.binaryproto
I0507 14:25:11.237664  1856 data_layer.cpp:45] output data size: 128,3,227,227
I0507 14:25:11.381292  1856 net.cpp:122] Setting up train-data
I0507 14:25:11.381319  1856 net.cpp:129] Top shape: 128 3 227 227 (19787136)
I0507 14:25:11.381325  1856 net.cpp:129] Top shape: 128 (128)
I0507 14:25:11.381330  1856 net.cpp:137] Memory required for data: 79149056
I0507 14:25:11.381340  1856 layer_factory.hpp:77] Creating layer conv1
I0507 14:25:11.381361  1856 net.cpp:84] Creating Layer conv1
I0507 14:25:11.381369  1856 net.cpp:406] conv1 <- data
I0507 14:25:11.381381  1856 net.cpp:380] conv1 -> conv1
I0507 14:25:12.460096  1856 net.cpp:122] Setting up conv1
I0507 14:25:12.460117  1856 net.cpp:129] Top shape: 128 96 55 55 (37171200)
I0507 14:25:12.460121  1856 net.cpp:137] Memory required for data: 227833856
I0507 14:25:12.460141  1856 layer_factory.hpp:77] Creating layer relu1
I0507 14:25:12.460155  1856 net.cpp:84] Creating Layer relu1
I0507 14:25:12.460158  1856 net.cpp:406] relu1 <- conv1
I0507 14:25:12.460165  1856 net.cpp:367] relu1 -> conv1 (in-place)
I0507 14:25:12.460532  1856 net.cpp:122] Setting up relu1
I0507 14:25:12.460541  1856 net.cpp:129] Top shape: 128 96 55 55 (37171200)
I0507 14:25:12.460544  1856 net.cpp:137] Memory required for data: 376518656
I0507 14:25:12.460548  1856 layer_factory.hpp:77] Creating layer norm1
I0507 14:25:12.460556  1856 net.cpp:84] Creating Layer norm1
I0507 14:25:12.460580  1856 net.cpp:406] norm1 <- conv1
I0507 14:25:12.460588  1856 net.cpp:380] norm1 -> norm1
I0507 14:25:12.461130  1856 net.cpp:122] Setting up norm1
I0507 14:25:12.461140  1856 net.cpp:129] Top shape: 128 96 55 55 (37171200)
I0507 14:25:12.461144  1856 net.cpp:137] Memory required for data: 525203456
I0507 14:25:12.461148  1856 layer_factory.hpp:77] Creating layer pool1
I0507 14:25:12.461156  1856 net.cpp:84] Creating Layer pool1
I0507 14:25:12.461160  1856 net.cpp:406] pool1 <- norm1
I0507 14:25:12.461165  1856 net.cpp:380] pool1 -> pool1
I0507 14:25:12.461206  1856 net.cpp:122] Setting up pool1
I0507 14:25:12.461213  1856 net.cpp:129] Top shape: 128 96 27 27 (8957952)
I0507 14:25:12.461216  1856 net.cpp:137] Memory required for data: 561035264
I0507 14:25:12.461220  1856 layer_factory.hpp:77] Creating layer conv2
I0507 14:25:12.461231  1856 net.cpp:84] Creating Layer conv2
I0507 14:25:12.461235  1856 net.cpp:406] conv2 <- pool1
I0507 14:25:12.461241  1856 net.cpp:380] conv2 -> conv2
I0507 14:25:12.468760  1856 net.cpp:122] Setting up conv2
I0507 14:25:12.468775  1856 net.cpp:129] Top shape: 128 256 27 27 (23887872)
I0507 14:25:12.468778  1856 net.cpp:137] Memory required for data: 656586752
I0507 14:25:12.468788  1856 layer_factory.hpp:77] Creating layer relu2
I0507 14:25:12.468796  1856 net.cpp:84] Creating Layer relu2
I0507 14:25:12.468801  1856 net.cpp:406] relu2 <- conv2
I0507 14:25:12.468808  1856 net.cpp:367] relu2 -> conv2 (in-place)
I0507 14:25:12.469321  1856 net.cpp:122] Setting up relu2
I0507 14:25:12.469332  1856 net.cpp:129] Top shape: 128 256 27 27 (23887872)
I0507 14:25:12.469336  1856 net.cpp:137] Memory required for data: 752138240
I0507 14:25:12.469339  1856 layer_factory.hpp:77] Creating layer norm2
I0507 14:25:12.469347  1856 net.cpp:84] Creating Layer norm2
I0507 14:25:12.469350  1856 net.cpp:406] norm2 <- conv2
I0507 14:25:12.469357  1856 net.cpp:380] norm2 -> norm2
I0507 14:25:12.469723  1856 net.cpp:122] Setting up norm2
I0507 14:25:12.469732  1856 net.cpp:129] Top shape: 128 256 27 27 (23887872)
I0507 14:25:12.469735  1856 net.cpp:137] Memory required for data: 847689728
I0507 14:25:12.469738  1856 layer_factory.hpp:77] Creating layer pool2
I0507 14:25:12.469748  1856 net.cpp:84] Creating Layer pool2
I0507 14:25:12.469751  1856 net.cpp:406] pool2 <- norm2
I0507 14:25:12.469756  1856 net.cpp:380] pool2 -> pool2
I0507 14:25:12.469785  1856 net.cpp:122] Setting up pool2
I0507 14:25:12.469791  1856 net.cpp:129] Top shape: 128 256 13 13 (5537792)
I0507 14:25:12.469794  1856 net.cpp:137] Memory required for data: 869840896
I0507 14:25:12.469797  1856 layer_factory.hpp:77] Creating layer conv3
I0507 14:25:12.469808  1856 net.cpp:84] Creating Layer conv3
I0507 14:25:12.469812  1856 net.cpp:406] conv3 <- pool2
I0507 14:25:12.469817  1856 net.cpp:380] conv3 -> conv3
I0507 14:25:12.481251  1856 net.cpp:122] Setting up conv3
I0507 14:25:12.481266  1856 net.cpp:129] Top shape: 128 384 13 13 (8306688)
I0507 14:25:12.481271  1856 net.cpp:137] Memory required for data: 903067648
I0507 14:25:12.481281  1856 layer_factory.hpp:77] Creating layer relu3
I0507 14:25:12.481289  1856 net.cpp:84] Creating Layer relu3
I0507 14:25:12.481293  1856 net.cpp:406] relu3 <- conv3
I0507 14:25:12.481299  1856 net.cpp:367] relu3 -> conv3 (in-place)
I0507 14:25:12.481812  1856 net.cpp:122] Setting up relu3
I0507 14:25:12.481822  1856 net.cpp:129] Top shape: 128 384 13 13 (8306688)
I0507 14:25:12.481824  1856 net.cpp:137] Memory required for data: 936294400
I0507 14:25:12.481828  1856 layer_factory.hpp:77] Creating layer conv4
I0507 14:25:12.481839  1856 net.cpp:84] Creating Layer conv4
I0507 14:25:12.481842  1856 net.cpp:406] conv4 <- conv3
I0507 14:25:12.481850  1856 net.cpp:380] conv4 -> conv4
I0507 14:25:12.500128  1856 net.cpp:122] Setting up conv4
I0507 14:25:12.500145  1856 net.cpp:129] Top shape: 128 384 13 13 (8306688)
I0507 14:25:12.500149  1856 net.cpp:137] Memory required for data: 969521152
I0507 14:25:12.500159  1856 layer_factory.hpp:77] Creating layer relu4
I0507 14:25:12.500169  1856 net.cpp:84] Creating Layer relu4
I0507 14:25:12.500192  1856 net.cpp:406] relu4 <- conv4
I0507 14:25:12.500201  1856 net.cpp:367] relu4 -> conv4 (in-place)
I0507 14:25:12.500566  1856 net.cpp:122] Setting up relu4
I0507 14:25:12.500576  1856 net.cpp:129] Top shape: 128 384 13 13 (8306688)
I0507 14:25:12.500578  1856 net.cpp:137] Memory required for data: 1002747904
I0507 14:25:12.500582  1856 layer_factory.hpp:77] Creating layer conv5
I0507 14:25:12.500593  1856 net.cpp:84] Creating Layer conv5
I0507 14:25:12.500597  1856 net.cpp:406] conv5 <- conv4
I0507 14:25:12.500604  1856 net.cpp:380] conv5 -> conv5
I0507 14:25:12.515971  1856 net.cpp:122] Setting up conv5
I0507 14:25:12.515992  1856 net.cpp:129] Top shape: 128 256 13 13 (5537792)
I0507 14:25:12.515996  1856 net.cpp:137] Memory required for data: 1024899072
I0507 14:25:12.516010  1856 layer_factory.hpp:77] Creating layer relu5
I0507 14:25:12.516019  1856 net.cpp:84] Creating Layer relu5
I0507 14:25:12.516023  1856 net.cpp:406] relu5 <- conv5
I0507 14:25:12.516029  1856 net.cpp:367] relu5 -> conv5 (in-place)
I0507 14:25:12.516527  1856 net.cpp:122] Setting up relu5
I0507 14:25:12.516536  1856 net.cpp:129] Top shape: 128 256 13 13 (5537792)
I0507 14:25:12.516541  1856 net.cpp:137] Memory required for data: 1047050240
I0507 14:25:12.516543  1856 layer_factory.hpp:77] Creating layer pool5
I0507 14:25:12.516552  1856 net.cpp:84] Creating Layer pool5
I0507 14:25:12.516556  1856 net.cpp:406] pool5 <- conv5
I0507 14:25:12.516561  1856 net.cpp:380] pool5 -> pool5
I0507 14:25:12.516598  1856 net.cpp:122] Setting up pool5
I0507 14:25:12.516603  1856 net.cpp:129] Top shape: 128 256 6 6 (1179648)
I0507 14:25:12.516607  1856 net.cpp:137] Memory required for data: 1051768832
I0507 14:25:12.516610  1856 layer_factory.hpp:77] Creating layer fc6
I0507 14:25:12.516620  1856 net.cpp:84] Creating Layer fc6
I0507 14:25:12.516623  1856 net.cpp:406] fc6 <- pool5
I0507 14:25:12.516628  1856 net.cpp:380] fc6 -> fc6
I0507 14:25:12.885607  1856 net.cpp:122] Setting up fc6
I0507 14:25:12.885628  1856 net.cpp:129] Top shape: 128 4096 (524288)
I0507 14:25:12.885632  1856 net.cpp:137] Memory required for data: 1053865984
I0507 14:25:12.885643  1856 layer_factory.hpp:77] Creating layer relu6
I0507 14:25:12.885650  1856 net.cpp:84] Creating Layer relu6
I0507 14:25:12.885655  1856 net.cpp:406] relu6 <- fc6
I0507 14:25:12.885661  1856 net.cpp:367] relu6 -> fc6 (in-place)
I0507 14:25:12.907069  1856 net.cpp:122] Setting up relu6
I0507 14:25:12.907088  1856 net.cpp:129] Top shape: 128 4096 (524288)
I0507 14:25:12.907091  1856 net.cpp:137] Memory required for data: 1055963136
I0507 14:25:12.907097  1856 layer_factory.hpp:77] Creating layer drop6
I0507 14:25:12.907106  1856 net.cpp:84] Creating Layer drop6
I0507 14:25:12.907112  1856 net.cpp:406] drop6 <- fc6
I0507 14:25:12.907120  1856 net.cpp:367] drop6 -> fc6 (in-place)
I0507 14:25:12.907152  1856 net.cpp:122] Setting up drop6
I0507 14:25:12.907157  1856 net.cpp:129] Top shape: 128 4096 (524288)
I0507 14:25:12.907161  1856 net.cpp:137] Memory required for data: 1058060288
I0507 14:25:12.907164  1856 layer_factory.hpp:77] Creating layer fc7
I0507 14:25:12.907174  1856 net.cpp:84] Creating Layer fc7
I0507 14:25:12.907177  1856 net.cpp:406] fc7 <- fc6
I0507 14:25:12.907184  1856 net.cpp:380] fc7 -> fc7
I0507 14:25:13.099913  1856 net.cpp:122] Setting up fc7
I0507 14:25:13.099934  1856 net.cpp:129] Top shape: 128 4096 (524288)
I0507 14:25:13.099938  1856 net.cpp:137] Memory required for data: 1060157440
I0507 14:25:13.099947  1856 layer_factory.hpp:77] Creating layer relu7
I0507 14:25:13.099956  1856 net.cpp:84] Creating Layer relu7
I0507 14:25:13.099961  1856 net.cpp:406] relu7 <- fc7
I0507 14:25:13.099967  1856 net.cpp:367] relu7 -> fc7 (in-place)
I0507 14:25:13.100592  1856 net.cpp:122] Setting up relu7
I0507 14:25:13.100602  1856 net.cpp:129] Top shape: 128 4096 (524288)
I0507 14:25:13.100605  1856 net.cpp:137] Memory required for data: 1062254592
I0507 14:25:13.100610  1856 layer_factory.hpp:77] Creating layer drop7
I0507 14:25:13.100620  1856 net.cpp:84] Creating Layer drop7
I0507 14:25:13.100646  1856 net.cpp:406] drop7 <- fc7
I0507 14:25:13.100652  1856 net.cpp:367] drop7 -> fc7 (in-place)
I0507 14:25:13.100679  1856 net.cpp:122] Setting up drop7
I0507 14:25:13.100685  1856 net.cpp:129] Top shape: 128 4096 (524288)
I0507 14:25:13.100688  1856 net.cpp:137] Memory required for data: 1064351744
I0507 14:25:13.100692  1856 layer_factory.hpp:77] Creating layer fc8
I0507 14:25:13.100700  1856 net.cpp:84] Creating Layer fc8
I0507 14:25:13.100704  1856 net.cpp:406] fc8 <- fc7
I0507 14:25:13.100711  1856 net.cpp:380] fc8 -> fc8
I0507 14:25:13.109143  1856 net.cpp:122] Setting up fc8
I0507 14:25:13.109156  1856 net.cpp:129] Top shape: 128 196 (25088)
I0507 14:25:13.109160  1856 net.cpp:137] Memory required for data: 1064452096
I0507 14:25:13.109169  1856 layer_factory.hpp:77] Creating layer loss
I0507 14:25:13.109175  1856 net.cpp:84] Creating Layer loss
I0507 14:25:13.109180  1856 net.cpp:406] loss <- fc8
I0507 14:25:13.109184  1856 net.cpp:406] loss <- label
I0507 14:25:13.109190  1856 net.cpp:380] loss -> loss
I0507 14:25:13.109200  1856 layer_factory.hpp:77] Creating layer loss
…
I0507 14:25:13.110420  1856 solver.cpp:172] Creating test net (#0) specified by net file: train_val.prototxt
I0507 14:25:13.110450  1856 net.cpp:294] The NetState phase (1) differed from the phase (0) specified by a rule in layer train-data
I0507 14:25:13.110611  1856 net.cpp:51] Initializing net from parameters:
state {
phase: TEST
}
layer {
name: "val-data"
type: "Data"
top: "data"
top: "label"
include {
phase: TEST
}
transform_param {
crop_size: 227
mean_file: "/mnt/bigdisk/MANDIG4/digits/jobs/20200507-113700-33e0/mean.binaryproto"
}
data_param {
source: "/mnt/bigdisk/MANDIG4/digits/jobs/20200507-113700-33e0/val_db"
batch_size: 32
backend: LMDB
}
}
layer {
name: "conv1"
type: "Convolution"
bottom: "data"
top: "conv1"
param {
lr_mult: 1
decay_mult: 1
}
param {
lr_mult: 2
decay_mult: 0
}
convolution_param {
num_output: 96
kernel_size: 11
stride: 4
weight_filler {
type: "gaussian"
std: 0.01
}
bias_filler {
type: "constant"
value: 0
}
}
}
layer {
name: "relu1"
type: "ReLU"
bottom: "conv1"
top: "conv1"
}
layer {
name: "norm1"
type: "LRN"
bottom: "conv1"
top: "norm1"
lrn_param {
local_size: 5
alpha: 0.0001
beta: 0.75
}
}
layer {
name: "pool1"
type: "Pooling"
bottom: "norm1"
top: "pool1"
pooling_param {
pool: MAX
kernel_size: 3
stride: 2
}
}
layer {
name: "conv2"
type: "Convolution"
bottom: "pool1"
top: "conv2"
param {
lr_mult: 1
decay_mult: 1
}
param {
lr_mult: 2
decay_mult: 0
}
convolution_param {
num_output: 256
pad: 2
kernel_size: 5
group: 2
weight_filler {
type: "gaussian"
std: 0.01
}
bias_filler {
type: "constant"
value: 0.1
}
}
}
layer {
name: "relu2"
type: "ReLU"
bottom: "conv2"
top: "conv2"
}
layer {
name: "norm2"
type: "LRN"
bottom: "conv2"
top: "norm2"
lrn_param {
local_size: 5
alpha: 0.0001
beta: 0.75
}
}
layer {
name: "pool2"
type: "Pooling"
bottom: "norm2"
top: "pool2"
pooling_param {
pool: MAX
kernel_size: 3
stride: 2
}
}
layer {
name: "conv3"
type: "Convolution"
bottom: "pool2"
top: "conv3"
param {
lr_mult: 1
decay_mult: 1
}
param {
lr_mult: 2
decay_mult: 0
}
convolution_param {
num_output: 384
pad: 1
kernel_size: 3
weight_filler {
type: "gaussian"
std: 0.01
}
bias_filler {
type: "constant"
value: 0
}
}
}
layer {
name: "relu3"
type: "ReLU"
bottom: "conv3"
top: "conv3"
}
layer {
name: "conv4"
type: "Convolution"
bottom: "conv3"
top: "conv4"
param {
lr_mult: 1
decay_mult: 1
}
param {
lr_mult: 2
decay_mult: 0
}
convolution_param {
num_output: 384
pad: 1
kernel_size: 3
group: 2
weight_filler {
type: "gaussian"
std: 0.01
}
bias_filler {
type: "constant"
value: 0.1
}
}
}
layer {
name: "relu4"
type: "ReLU"
bottom: "conv4"
top: "conv4"
}
layer {
name: "conv5"
type: "Convolution"
bottom: "conv4"
top: "conv5"
param {
lr_mult: 1
decay_mult: 1
}
param {
lr_mult: 2
decay_mult: 0
}
convolution_param {
num_output: 256
pad: 1
kernel_size: 3
group: 2
weight_filler {
type: "gaussian"
std: 0.01
}
bias_filler {
type: "constant"
value: 0.1
}
}
}
layer {
name: "relu5"
type: "ReLU"
bottom: "conv5"
top: "conv5"
}
layer {
name: "pool5"
type: "Pooling"
bottom: "conv5"
top: "pool5"
pooling_param {
pool: MAX
kernel_size: 3
stride: 2
}
}
layer {
name: "fc6"
type: "InnerProduct"
bottom: "pool5"
top: "fc6"
param {
lr_mult: 1
decay_mult: 1
}
param {
lr_mult: 2
decay_mult: 0
}
inner_product_param {
num_output: 4096
weight_filler {
type: "gaussian"
std: 0.005
}
bias_filler {
type: "constant"
value: 0.1
}
}
}
layer {
name: "relu6"
type: "ReLU"
bottom: "fc6"
top: "fc6"
}
layer {
name: "drop6"
type: "Dropout"
bottom: "fc6"
top: "fc6"
dropout_param {
dropout_ratio: 0.5
}
}
layer {
name: "fc7"
type: "InnerProduct"
bottom: "fc6"
top: "fc7"
param {
lr_mult: 1
decay_mult: 1
}
param {
lr_mult: 2
decay_mult: 0
}
inner_product_param {
num_output: 4096
weight_filler {
type: "gaussian"
std: 0.005
}
bias_filler {
type: "constant"
value: 0.1
}
}
}
layer {
name: "relu7"
type: "ReLU"
bottom: "fc7"
top: "fc7"
}
layer {
name: "drop7"
type: "Dropout"
bottom: "fc7"
top: "fc7"
dropout_param {
dropout_ratio: 0.5
}
}
layer {
name: "fc8"
type: "InnerProduct"
bottom: "fc7"
top: "fc8"
param {
lr_mult: 1
decay_mult: 1
}
param {
lr_mult: 2
decay_mult: 0
}
inner_product_param {
num_output: 196
weight_filler {
type: "gaussian"
std: 0.01
}
bias_filler {
type: "constant"
value: 0
}
}
}
layer {
name: "accuracy"
type: "Accuracy"
bottom: "fc8"
bottom: "label"
top: "accuracy"
include {
phase: TEST
}
}
layer {
name: "loss"
type: "SoftmaxWithLoss"
bottom: "fc8"
bottom: "label"
top: "loss"
}
I0507 14:25:13.110723  1856 layer_factory.hpp:77] Creating layer val-data
I0507 14:25:13.120374  1856 db_lmdb.cpp:35] Opened lmdb /mnt/bigdisk/MANDIG4/digits/jobs/20200507-113700-33e0/val_db
I0507 14:25:13.120513  1856 net.cpp:84] Creating Layer val-data
I0507 14:25:13.120525  1856 net.cpp:380] val-data -> data
I0507 14:25:13.120533  1856 net.cpp:380] val-data -> label
I0507 14:25:13.120540  1856 data_transformer.cpp:25] Loading mean file from: /mnt/bigdisk/MANDIG4/digits/jobs/20200507-113700-33e0/mean.binaryproto
I0507 14:25:13.123896  1856 data_layer.cpp:45] output data size: 32,3,227,227
I0507 14:25:13.158663  1856 net.cpp:122] Setting up val-data
I0507 14:25:13.158686  1856 net.cpp:129] Top shape: 32 3 227 227 (4946784)
I0507 14:25:13.158692  1856 net.cpp:129] Top shape: 32 (32)
I0507 14:25:13.158695  1856 net.cpp:137] Memory required for data: 19787264
I0507 14:25:13.158704  1856 layer_factory.hpp:77] Creating layer label_val-data_1_split
I0507 14:25:13.158715  1856 net.cpp:84] Creating Layer label_val-data_1_split
I0507 14:25:13.158720  1856 net.cpp:406] label_val-data_1_split <- label
I0507 14:25:13.158727  1856 net.cpp:380] label_val-data_1_split -> label_val-data_1_split_0
I0507 14:25:13.158737  1856 net.cpp:380] label_val-data_1_split -> label_val-data_1_split_1
I0507 14:25:13.158788  1856 net.cpp:122] Setting up label_val-data_1_split
I0507 14:25:13.158794  1856 net.cpp:129] Top shape: 32 (32)
I0507 14:25:13.158798  1856 net.cpp:129] Top shape: 32 (32)
I0507 14:25:13.158802  1856 net.cpp:137] Memory required for data: 19787520
I0507 14:25:13.158804  1856 layer_factory.hpp:77] Creating layer conv1
I0507 14:25:13.158816  1856 net.cpp:84] Creating Layer conv1
I0507 14:25:13.158820  1856 net.cpp:406] conv1 <- data
I0507 14:25:13.158826  1856 net.cpp:380] conv1 -> conv1
I0507 14:25:13.160823  1856 net.cpp:122] Setting up conv1
I0507 14:25:13.160835  1856 net.cpp:129] Top shape: 32 96 55 55 (9292800)
I0507 14:25:13.160838  1856 net.cpp:137] Memory required for data: 56958720
I0507 14:25:13.160848  1856 layer_factory.hpp:77] Creating layer relu1
I0507 14:25:13.160856  1856 net.cpp:84] Creating Layer relu1
I0507 14:25:13.160861  1856 net.cpp:406] relu1 <- conv1
I0507 14:25:13.160866  1856 net.cpp:367] relu1 -> conv1 (in-place)
I0507 14:25:13.161150  1856 net.cpp:122] Setting up relu1
I0507 14:25:13.161159  1856 net.cpp:129] Top shape: 32 96 55 55 (9292800)
I0507 14:25:13.161164  1856 net.cpp:137] Memory required for data: 94129920
I0507 14:25:13.161167  1856 layer_factory.hpp:77] Creating layer norm1
I0507 14:25:13.161175  1856 net.cpp:84] Creating Layer norm1
I0507 14:25:13.161180  1856 net.cpp:406] norm1 <- conv1
I0507 14:25:13.161185  1856 net.cpp:380] norm1 -> norm1
I0507 14:25:13.161633  1856 net.cpp:122] Setting up norm1
I0507 14:25:13.161643  1856 net.cpp:129] Top shape: 32 96 55 55 (9292800)
I0507 14:25:13.161646  1856 net.cpp:137] Memory required for data: 131301120
I0507 14:25:13.161650  1856 layer_factory.hpp:77] Creating layer pool1
I0507 14:25:13.161657  1856 net.cpp:84] Creating Layer pool1
I0507 14:25:13.161661  1856 net.cpp:406] pool1 <- norm1
I0507 14:25:13.161666  1856 net.cpp:380] pool1 -> pool1
I0507 14:25:13.161695  1856 net.cpp:122] Setting up pool1
I0507 14:25:13.161700  1856 net.cpp:129] Top shape: 32 96 27 27 (2239488)
I0507 14:25:13.161703  1856 net.cpp:137] Memory required for data: 140259072
I0507 14:25:13.161706  1856 layer_factory.hpp:77] Creating layer conv2
I0507 14:25:13.161715  1856 net.cpp:84] Creating Layer conv2
I0507 14:25:13.161718  1856 net.cpp:406] conv2 <- pool1
I0507 14:25:13.161746  1856 net.cpp:380] conv2 -> conv2
I0507 14:25:13.177590  1856 net.cpp:122] Setting up conv2
I0507 14:25:13.177608  1856 net.cpp:129] Top shape: 32 256 27 27 (5971968)
I0507 14:25:13.177611  1856 net.cpp:137] Memory required for data: 164146944
I0507 14:25:13.177623  1856 layer_factory.hpp:77] Creating layer relu2
I0507 14:25:13.177634  1856 net.cpp:84] Creating Layer relu2
I0507 14:25:13.177639  1856 net.cpp:406] relu2 <- conv2
I0507 14:25:13.177645  1856 net.cpp:367] relu2 -> conv2 (in-place)
I0507 14:25:13.178151  1856 net.cpp:122] Setting up relu2
I0507 14:25:13.178161  1856 net.cpp:129] Top shape: 32 256 27 27 (5971968)
I0507 14:25:13.178165  1856 net.cpp:137] Memory required for data: 188034816
I0507 14:25:13.178169  1856 layer_factory.hpp:77] Creating layer norm2
I0507 14:25:13.178179  1856 net.cpp:84] Creating Layer norm2
I0507 14:25:13.178184  1856 net.cpp:406] norm2 <- conv2
I0507 14:25:13.178190  1856 net.cpp:380] norm2 -> norm2
I0507 14:25:13.178722  1856 net.cpp:122] Setting up norm2
I0507 14:25:13.178732  1856 net.cpp:129] Top shape: 32 256 27 27 (5971968)
I0507 14:25:13.178736  1856 net.cpp:137] Memory required for data: 211922688
I0507 14:25:13.178741  1856 layer_factory.hpp:77] Creating layer pool2
I0507 14:25:13.178748  1856 net.cpp:84] Creating Layer pool2
I0507 14:25:13.178752  1856 net.cpp:406] pool2 <- norm2
I0507 14:25:13.178758  1856 net.cpp:380] pool2 -> pool2
I0507 14:25:13.178788  1856 net.cpp:122] Setting up pool2
I0507 14:25:13.178793  1856 net.cpp:129] Top shape: 32 256 13 13 (1384448)
I0507 14:25:13.178797  1856 net.cpp:137] Memory required for data: 217460480
I0507 14:25:13.178800  1856 layer_factory.hpp:77] Creating layer conv3
I0507 14:25:13.178812  1856 net.cpp:84] Creating Layer conv3
I0507 14:25:13.178817  1856 net.cpp:406] conv3 <- pool2
I0507 14:25:13.178822  1856 net.cpp:380] conv3 -> conv3
I0507 14:25:13.190644  1856 net.cpp:122] Setting up conv3
I0507 14:25:13.190661  1856 net.cpp:129] Top shape: 32 384 13 13 (2076672)
I0507 14:25:13.190666  1856 net.cpp:137] Memory required for data: 225767168
I0507 14:25:13.190677  1856 layer_factory.hpp:77] Creating layer relu3
I0507 14:25:13.190687  1856 net.cpp:84] Creating Layer relu3
I0507 14:25:13.190691  1856 net.cpp:406] relu3 <- conv3
I0507 14:25:13.190698  1856 net.cpp:367] relu3 -> conv3 (in-place)
I0507 14:25:13.191287  1856 net.cpp:122] Setting up relu3
I0507 14:25:13.191296  1856 net.cpp:129] Top shape: 32 384 13 13 (2076672)
I0507 14:25:13.191300  1856 net.cpp:137] Memory required for data: 234073856
I0507 14:25:13.191305  1856 layer_factory.hpp:77] Creating layer conv4
I0507 14:25:13.191318  1856 net.cpp:84] Creating Layer conv4
I0507 14:25:13.191323  1856 net.cpp:406] conv4 <- conv3
I0507 14:25:13.191331  1856 net.cpp:380] conv4 -> conv4
I0507 14:25:13.201468  1856 net.cpp:122] Setting up conv4
I0507 14:25:13.201483  1856 net.cpp:129] Top shape: 32 384 13 13 (2076672)
I0507 14:25:13.201486  1856 net.cpp:137] Memory required for data: 242380544
I0507 14:25:13.201494  1856 layer_factory.hpp:77] Creating layer relu4
I0507 14:25:13.201501  1856 net.cpp:84] Creating Layer relu4
I0507 14:25:13.201505  1856 net.cpp:406] relu4 <- conv4
I0507 14:25:13.201511  1856 net.cpp:367] relu4 -> conv4 (in-place)
I0507 14:25:13.201860  1856 net.cpp:122] Setting up relu4
I0507 14:25:13.201870  1856 net.cpp:129] Top shape: 32 384 13 13 (2076672)
I0507 14:25:13.201874  1856 net.cpp:137] Memory required for data: 250687232
I0507 14:25:13.201879  1856 layer_factory.hpp:77] Creating layer conv5
I0507 14:25:13.201889  1856 net.cpp:84] Creating Layer conv5
I0507 14:25:13.201892  1856 net.cpp:406] conv5 <- conv4
I0507 14:25:13.201900  1856 net.cpp:380] conv5 -> conv5
I0507 14:25:13.211383  1856 net.cpp:122] Setting up conv5
I0507 14:25:13.211398  1856 net.cpp:129] Top shape: 32 256 13 13 (1384448)
I0507 14:25:13.211402  1856 net.cpp:137] Memory required for data: 256225024
I0507 14:25:13.211416  1856 layer_factory.hpp:77] Creating layer relu5
I0507 14:25:13.211426  1856 net.cpp:84] Creating Layer relu5
I0507 14:25:13.211431  1856 net.cpp:406] relu5 <- conv5
I0507 14:25:13.211462  1856 net.cpp:367] relu5 -> conv5 (in-place)
I0507 14:25:13.211966  1856 net.cpp:122] Setting up relu5
I0507 14:25:13.211977  1856 net.cpp:129] Top shape: 32 256 13 13 (1384448)
I0507 14:25:13.211980  1856 net.cpp:137] Memory required for data: 261762816
I0507 14:25:13.211985  1856 layer_factory.hpp:77] Creating layer pool5
I0507 14:25:13.211995  1856 net.cpp:84] Creating Layer pool5
I0507 14:25:13.211999  1856 net.cpp:406] pool5 <- conv5
I0507 14:25:13.212005  1856 net.cpp:380] pool5 -> pool5
I0507 14:25:13.212049  1856 net.cpp:122] Setting up pool5
I0507 14:25:13.212054  1856 net.cpp:129] Top shape: 32 256 6 6 (294912)
I0507 14:25:13.212059  1856 net.cpp:137] Memory required for data: 262942464
I0507 14:25:13.212061  1856 layer_factory.hpp:77] Creating layer fc6
I0507 14:25:13.212070  1856 net.cpp:84] Creating Layer fc6
I0507 14:25:13.212074  1856 net.cpp:406] fc6 <- pool5
I0507 14:25:13.212080  1856 net.cpp:380] fc6 -> fc6
I0507 14:25:13.584748  1856 net.cpp:122] Setting up fc6
I0507 14:25:13.584772  1856 net.cpp:129] Top shape: 32 4096 (131072)
I0507 14:25:13.584776  1856 net.cpp:137] Memory required for data: 263466752
I0507 14:25:13.584786  1856 layer_factory.hpp:77] Creating layer relu6
I0507 14:25:13.584797  1856 net.cpp:84] Creating Layer relu6
I0507 14:25:13.584802  1856 net.cpp:406] relu6 <- fc6
I0507 14:25:13.584810  1856 net.cpp:367] relu6 -> fc6 (in-place)
I0507 14:25:13.586736  1856 net.cpp:122] Setting up relu6
I0507 14:25:13.586746  1856 net.cpp:129] Top shape: 32 4096 (131072)
I0507 14:25:13.586751  1856 net.cpp:137] Memory required for data: 263991040
I0507 14:25:13.586755  1856 layer_factory.hpp:77] Creating layer drop6
I0507 14:25:13.586762  1856 net.cpp:84] Creating Layer drop6
I0507 14:25:13.586766  1856 net.cpp:406] drop6 <- fc6
I0507 14:25:13.586773  1856 net.cpp:367] drop6 -> fc6 (in-place)
I0507 14:25:13.586799  1856 net.cpp:122] Setting up drop6
I0507 14:25:13.586807  1856 net.cpp:129] Top shape: 32 4096 (131072)
I0507 14:25:13.586810  1856 net.cpp:137] Memory required for data: 264515328
I0507 14:25:13.586815  1856 layer_factory.hpp:77] Creating layer fc7
I0507 14:25:13.586822  1856 net.cpp:84] Creating Layer fc7
I0507 14:25:13.586827  1856 net.cpp:406] fc7 <- fc6
I0507 14:25:13.586833  1856 net.cpp:380] fc7 -> fc7
I0507 14:25:13.752591  1856 net.cpp:122] Setting up fc7
I0507 14:25:13.752614  1856 net.cpp:129] Top shape: 32 4096 (131072)
I0507 14:25:13.752617  1856 net.cpp:137] Memory required for data: 265039616
I0507 14:25:13.752627  1856 layer_factory.hpp:77] Creating layer relu7
I0507 14:25:13.752637  1856 net.cpp:84] Creating Layer relu7
I0507 14:25:13.752642  1856 net.cpp:406] relu7 <- fc7
I0507 14:25:13.752650  1856 net.cpp:367] relu7 -> fc7 (in-place)
I0507 14:25:13.753069  1856 net.cpp:122] Setting up relu7
I0507 14:25:13.753079  1856 net.cpp:129] Top shape: 32 4096 (131072)
I0507 14:25:13.753083  1856 net.cpp:137] Memory required for data: 265563904
I0507 14:25:13.753087  1856 layer_factory.hpp:77] Creating layer drop7
I0507 14:25:13.753093  1856 net.cpp:84] Creating Layer drop7
I0507 14:25:13.753098  1856 net.cpp:406] drop7 <- fc7
I0507 14:25:13.753103  1856 net.cpp:367] drop7 -> fc7 (in-place)
I0507 14:25:13.753126  1856 net.cpp:122] Setting up drop7
I0507 14:25:13.753131  1856 net.cpp:129] Top shape: 32 4096 (131072)
I0507 14:25:13.753134  1856 net.cpp:137] Memory required for data: 266088192
I0507 14:25:13.753139  1856 layer_factory.hpp:77] Creating layer fc8
I0507 14:25:13.753147  1856 net.cpp:84] Creating Layer fc8
I0507 14:25:13.753150  1856 net.cpp:406] fc8 <- fc7
I0507 14:25:13.753155  1856 net.cpp:380] fc8 -> fc8
I0507 14:25:13.761085  1856 net.cpp:122] Setting up fc8
I0507 14:25:13.761096  1856 net.cpp:129] Top shape: 32 196 (6272)
I0507 14:25:13.761099  1856 net.cpp:137] Memory required for data: 266113280
I0507 14:25:13.761106  1856 layer_factory.hpp:77] Creating layer fc8_fc8_0_split
I0507 14:25:13.761113  1856 net.cpp:84] Creating Layer fc8_fc8_0_split
I0507 14:25:13.761116  1856 net.cpp:406] fc8_fc8_0_split <- fc8
I0507 14:25:13.761143  1856 net.cpp:380] fc8_fc8_0_split -> fc8_fc8_0_split_0
I0507 14:25:13.761152  1856 net.cpp:380] fc8_fc8_0_split -> fc8_fc8_0_split_1
I0507 14:25:13.761184  1856 net.cpp:122] Setting up fc8_fc8_0_split
I0507 14:25:13.761189  1856 net.cpp:129] Top shape: 32 196 (6272)
I0507 14:25:13.761193  1856 net.cpp:129] Top shape: 32 196 (6272)
I0507 14:25:13.761196  1856 net.cpp:137] Memory required for data: 266163456
I0507 14:25:13.761199  1856 layer_factory.hpp:77] Creating layer accuracy
I0507 14:25:13.761205  1856 net.cpp:84] Creating Layer accuracy
I0507 14:25:13.761209  1856 net.cpp:406] accuracy <- fc8_fc8_0_split_0
I0507 14:25:13.761214  1856 net.cpp:406] accuracy <- label_val-data_1_split_0
I0507 14:25:13.761219  1856 net.cpp:380] accuracy -> accuracy
…
