…
I0506 16:41:11.802942 10461 net.cpp:294] The NetState phase (0) differed from the phase (1) specified by a rule in layer accuracy
I0506 16:41:11.803277 10461 net.cpp:51] Initializing net from parameters:
state {
phase: TRAIN
level: 0
stage: ""
}
layer {
name: "train-data"
type: "Data"
top: "data"
top: "label"
include {
phase: TRAIN
}
transform_param {
mirror: true
crop_size: 227
mean_file: "/mnt/bigdisk/MANDIG3/digits/jobs/20200506-122416-e0ba/mean.binaryproto"
}
data_param {
source: "/mnt/bigdisk/MANDIG3/digits/jobs/20200506-122416-e0ba/train_db"
batch_size: 128
backend: LMDB
}
}
layer {
name: "conv1"
type: "Convolution"
bottom: "data"
top: "conv1"
param {
lr_mult: 1
decay_mult: 1
}
param {
lr_mult: 2
decay_mult: 0
}
convolution_param {
num_output: 96
kernel_size: 11
stride: 4
weight_filler {
type: "gaussian"
std: 0.01
}
bias_filler {
type: "constant"
value: 0
}
}
}
layer {
name: "relu1"
type: "ReLU"
bottom: "conv1"
top: "conv1"
}
layer {
name: "norm1"
type: "LRN"
bottom: "conv1"
top: "norm1"
lrn_param {
local_size: 5
alpha: 0.0001
beta: 0.75
}
}
layer {
name: "pool1"
type: "Pooling"
bottom: "norm1"
top: "pool1"
pooling_param {
pool: MAX
kernel_size: 3
stride: 2
}
}
layer {
name: "conv2"
type: "Convolution"
bottom: "pool1"
top: "conv2"
param {
lr_mult: 1
decay_mult: 1
}
param {
lr_mult: 2
decay_mult: 0
}
convolution_param {
num_output: 256
pad: 2
kernel_size: 5
group: 2
weight_filler {
type: "gaussian"
std: 0.01
}
bias_filler {
type: "constant"
value: 0.1
}
}
}
layer {
name: "relu2"
type: "ReLU"
bottom: "conv2"
top: "conv2"
}
layer {
name: "norm2"
type: "LRN"
bottom: "conv2"
top: "norm2"
lrn_param {
local_size: 5
alpha: 0.0001
beta: 0.75
}
}
layer {
name: "pool2"
type: "Pooling"
bottom: "norm2"
top: "pool2"
pooling_param {
pool: MAX
kernel_size: 3
stride: 2
}
}
layer {
name: "conv3"
type: "Convolution"
bottom: "pool2"
top: "conv3"
param {
lr_mult: 1
decay_mult: 1
}
param {
lr_mult: 2
decay_mult: 0
}
convolution_param {
num_output: 384
pad: 1
kernel_size: 3
weight_filler {
type: "gaussian"
std: 0.01
}
bias_filler {
type: "constant"
value: 0
}
}
}
layer {
name: "relu3"
type: "ReLU"
bottom: "conv3"
top: "conv3"
}
layer {
name: "conv4"
type: "Convolution"
bottom: "conv3"
top: "conv4"
param {
lr_mult: 1
decay_mult: 1
}
param {
lr_mult: 2
decay_mult: 0
}
convolution_param {
num_output: 384
pad: 1
kernel_size: 3
group: 2
weight_filler {
type: "gaussian"
std: 0.01
}
bias_filler {
type: "constant"
value: 0.1
}
}
}
layer {
name: "relu4"
type: "ReLU"
bottom: "conv4"
top: "conv4"
}
layer {
name: "conv5"
type: "Convolution"
bottom: "conv4"
top: "conv5"
param {
lr_mult: 1
decay_mult: 1
}
param {
lr_mult: 2
decay_mult: 0
}
convolution_param {
num_output: 256
pad: 1
kernel_size: 3
group: 2
weight_filler {
type: "gaussian"
std: 0.01
}
bias_filler {
type: "constant"
value: 0.1
}
}
}
layer {
name: "relu5"
type: "ReLU"
bottom: "conv5"
top: "conv5"
}
layer {
name: "pool5"
type: "Pooling"
bottom: "conv5"
top: "pool5"
pooling_param {
pool: MAX
kernel_size: 3
stride: 2
}
}
layer {
name: "fc6"
type: "InnerProduct"
bottom: "pool5"
top: "fc6"
param {
lr_mult: 1
decay_mult: 1
}
param {
lr_mult: 2
decay_mult: 0
}
inner_product_param {
num_output: 4096
weight_filler {
type: "gaussian"
std: 0.005
}
bias_filler {
type: "constant"
value: 0.1
}
}
}
layer {
name: "relu6"
type: "ReLU"
bottom: "fc6"
top: "fc6"
}
layer {
name: "drop6"
type: "Dropout"
bottom: "fc6"
top: "fc6"
dropout_param {
dropout_ratio: 0.5
}
}
layer {
name: "fc7"
type: "InnerProduct"
bottom: "fc6"
top: "fc7"
param {
lr_mult: 1
decay_mult: 1
}
param {
lr_mult: 2
decay_mult: 0
}
inner_product_param {
num_output: 4096
weight_filler {
type: "gaussian"
std: 0.005
}
bias_filler {
type: "constant"
value: 0.1
}
}
}
layer {
name: "relu7"
type: "ReLU"
bottom: "fc7"
top: "fc7"
}
layer {
name: "drop7"
type: "Dropout"
bottom: "fc7"
top: "fc7"
dropout_param {
dropout_ratio: 0.5
}
}
layer {
name: "fc8"
type: "InnerProduct"
bottom: "fc7"
top: "fc8"
param {
lr_mult: 1
decay_mult: 1
}
param {
lr_mult: 2
decay_mult: 0
}
inner_product_param {
num_output: 196
weight_filler {
type: "gaussian"
std: 0.01
}
bias_filler {
type: "constant"
value: 0
}
}
}
layer {
name: "loss"
type: "SoftmaxWithLoss"
bottom: "fc8"
bottom: "label"
top: "loss"
}
I0506 16:41:11.803612 10461 layer_factory.hpp:77] Creating layer train-data
I0506 16:41:11.838541 10461 db_lmdb.cpp:35] Opened lmdb /mnt/bigdisk/MANDIG3/digits/jobs/20200506-122416-e0ba/train_db
I0506 16:41:11.858705 10461 net.cpp:84] Creating Layer train-data
I0506 16:41:11.858737 10461 net.cpp:380] train-data -> data
I0506 16:41:11.858767 10461 net.cpp:380] train-data -> label
I0506 16:41:11.858793 10461 data_transformer.cpp:25] Loading mean file from: /mnt/bigdisk/MANDIG3/digits/jobs/20200506-122416-e0ba/mean.binaryproto
I0506 16:41:11.955004 10461 data_layer.cpp:45] output data size: 128,3,227,227
I0506 16:41:12.096601 10461 net.cpp:122] Setting up train-data
I0506 16:41:12.096632 10461 net.cpp:129] Top shape: 128 3 227 227 (19787136)
I0506 16:41:12.096640 10461 net.cpp:129] Top shape: 128 (128)
I0506 16:41:12.096645 10461 net.cpp:137] Memory required for data: 79149056
I0506 16:41:12.096658 10461 layer_factory.hpp:77] Creating layer conv1
I0506 16:41:12.096686 10461 net.cpp:84] Creating Layer conv1
I0506 16:41:12.096694 10461 net.cpp:406] conv1 <- data
I0506 16:41:12.096710 10461 net.cpp:380] conv1 -> conv1
I0506 16:41:13.906051 10461 net.cpp:122] Setting up conv1
I0506 16:41:13.906080 10461 net.cpp:129] Top shape: 128 96 55 55 (37171200)
I0506 16:41:13.906090 10461 net.cpp:137] Memory required for data: 227833856
I0506 16:41:13.906117 10461 layer_factory.hpp:77] Creating layer relu1
I0506 16:41:13.906133 10461 net.cpp:84] Creating Layer relu1
I0506 16:41:13.906139 10461 net.cpp:406] relu1 <- conv1
I0506 16:41:13.906148 10461 net.cpp:367] relu1 -> conv1 (in-place)
I0506 16:41:13.908046 10461 net.cpp:122] Setting up relu1
I0506 16:41:13.908061 10461 net.cpp:129] Top shape: 128 96 55 55 (37171200)
I0506 16:41:13.908066 10461 net.cpp:137] Memory required for data: 376518656
I0506 16:41:13.908072 10461 layer_factory.hpp:77] Creating layer norm1
I0506 16:41:13.908083 10461 net.cpp:84] Creating Layer norm1
I0506 16:41:13.908089 10461 net.cpp:406] norm1 <- conv1
I0506 16:41:13.908130 10461 net.cpp:380] norm1 -> norm1
I0506 16:41:13.909550 10461 net.cpp:122] Setting up norm1
I0506 16:41:13.909564 10461 net.cpp:129] Top shape: 128 96 55 55 (37171200)
I0506 16:41:13.909569 10461 net.cpp:137] Memory required for data: 525203456
I0506 16:41:13.909575 10461 layer_factory.hpp:77] Creating layer pool1
I0506 16:41:13.909586 10461 net.cpp:84] Creating Layer pool1
I0506 16:41:13.909592 10461 net.cpp:406] pool1 <- norm1
I0506 16:41:13.909597 10461 net.cpp:380] pool1 -> pool1
I0506 16:41:13.909657 10461 net.cpp:122] Setting up pool1
I0506 16:41:13.909667 10461 net.cpp:129] Top shape: 128 96 27 27 (8957952)
I0506 16:41:13.909672 10461 net.cpp:137] Memory required for data: 561035264
I0506 16:41:13.909677 10461 layer_factory.hpp:77] Creating layer conv2
I0506 16:41:13.909693 10461 net.cpp:84] Creating Layer conv2
I0506 16:41:13.909698 10461 net.cpp:406] conv2 <- pool1
I0506 16:41:13.909706 10461 net.cpp:380] conv2 -> conv2
I0506 16:41:13.949569 10461 net.cpp:122] Setting up conv2
I0506 16:41:13.949590 10461 net.cpp:129] Top shape: 128 256 27 27 (23887872)
I0506 16:41:13.949594 10461 net.cpp:137] Memory required for data: 656586752
I0506 16:41:13.949606 10461 layer_factory.hpp:77] Creating layer relu2
I0506 16:41:13.949616 10461 net.cpp:84] Creating Layer relu2
I0506 16:41:13.949621 10461 net.cpp:406] relu2 <- conv2
I0506 16:41:13.949627 10461 net.cpp:367] relu2 -> conv2 (in-place)
I0506 16:41:13.952651 10461 net.cpp:122] Setting up relu2
I0506 16:41:13.952666 10461 net.cpp:129] Top shape: 128 256 27 27 (23887872)
I0506 16:41:13.952672 10461 net.cpp:137] Memory required for data: 752138240
I0506 16:41:13.952678 10461 layer_factory.hpp:77] Creating layer norm2
I0506 16:41:13.952690 10461 net.cpp:84] Creating Layer norm2
I0506 16:41:13.952697 10461 net.cpp:406] norm2 <- conv2
I0506 16:41:13.952706 10461 net.cpp:380] norm2 -> norm2
I0506 16:41:13.953826 10461 net.cpp:122] Setting up norm2
I0506 16:41:13.953840 10461 net.cpp:129] Top shape: 128 256 27 27 (23887872)
I0506 16:41:13.953845 10461 net.cpp:137] Memory required for data: 847689728
I0506 16:41:13.953851 10461 layer_factory.hpp:77] Creating layer pool2
I0506 16:41:13.953863 10461 net.cpp:84] Creating Layer pool2
I0506 16:41:13.953869 10461 net.cpp:406] pool2 <- norm2
I0506 16:41:13.953881 10461 net.cpp:380] pool2 -> pool2
I0506 16:41:13.953924 10461 net.cpp:122] Setting up pool2
I0506 16:41:13.953933 10461 net.cpp:129] Top shape: 128 256 13 13 (5537792)
I0506 16:41:13.953938 10461 net.cpp:137] Memory required for data: 869840896
I0506 16:41:13.953944 10461 layer_factory.hpp:77] Creating layer conv3
I0506 16:41:13.953961 10461 net.cpp:84] Creating Layer conv3
I0506 16:41:13.953969 10461 net.cpp:406] conv3 <- pool2
I0506 16:41:13.953979 10461 net.cpp:380] conv3 -> conv3
I0506 16:41:14.076467 10461 net.cpp:122] Setting up conv3
I0506 16:41:14.076488 10461 net.cpp:129] Top shape: 128 384 13 13 (8306688)
I0506 16:41:14.076491 10461 net.cpp:137] Memory required for data: 903067648
I0506 16:41:14.076504 10461 layer_factory.hpp:77] Creating layer relu3
I0506 16:41:14.076514 10461 net.cpp:84] Creating Layer relu3
I0506 16:41:14.076519 10461 net.cpp:406] relu3 <- conv3
I0506 16:41:14.076525 10461 net.cpp:367] relu3 -> conv3 (in-place)
I0506 16:41:14.078666 10461 net.cpp:122] Setting up relu3
I0506 16:41:14.078677 10461 net.cpp:129] Top shape: 128 384 13 13 (8306688)
I0506 16:41:14.078681 10461 net.cpp:137] Memory required for data: 936294400
I0506 16:41:14.078685 10461 layer_factory.hpp:77] Creating layer conv4
I0506 16:41:14.078696 10461 net.cpp:84] Creating Layer conv4
I0506 16:41:14.078701 10461 net.cpp:406] conv4 <- conv3
I0506 16:41:14.078706 10461 net.cpp:380] conv4 -> conv4
I0506 16:41:14.099118 10461 net.cpp:122] Setting up conv4
I0506 16:41:14.099136 10461 net.cpp:129] Top shape: 128 384 13 13 (8306688)
I0506 16:41:14.099140 10461 net.cpp:137] Memory required for data: 969521152
I0506 16:41:14.099149 10461 layer_factory.hpp:77] Creating layer relu4
I0506 16:41:14.099160 10461 net.cpp:84] Creating Layer relu4
I0506 16:41:14.099184 10461 net.cpp:406] relu4 <- conv4
I0506 16:41:14.099191 10461 net.cpp:367] relu4 -> conv4 (in-place)
I0506 16:41:14.101114 10461 net.cpp:122] Setting up relu4
I0506 16:41:14.101125 10461 net.cpp:129] Top shape: 128 384 13 13 (8306688)
I0506 16:41:14.101128 10461 net.cpp:137] Memory required for data: 1002747904
I0506 16:41:14.101131 10461 layer_factory.hpp:77] Creating layer conv5
I0506 16:41:14.101142 10461 net.cpp:84] Creating Layer conv5
I0506 16:41:14.101146 10461 net.cpp:406] conv5 <- conv4
I0506 16:41:14.101151 10461 net.cpp:380] conv5 -> conv5
I0506 16:41:14.120436 10461 net.cpp:122] Setting up conv5
I0506 16:41:14.120455 10461 net.cpp:129] Top shape: 128 256 13 13 (5537792)
I0506 16:41:14.120460 10461 net.cpp:137] Memory required for data: 1024899072
I0506 16:41:14.120474 10461 layer_factory.hpp:77] Creating layer relu5
I0506 16:41:14.120483 10461 net.cpp:84] Creating Layer relu5
I0506 16:41:14.120487 10461 net.cpp:406] relu5 <- conv5
I0506 16:41:14.120494 10461 net.cpp:367] relu5 -> conv5 (in-place)
I0506 16:41:14.121507 10461 net.cpp:122] Setting up relu5
I0506 16:41:14.121517 10461 net.cpp:129] Top shape: 128 256 13 13 (5537792)
I0506 16:41:14.121520 10461 net.cpp:137] Memory required for data: 1047050240
I0506 16:41:14.121526 10461 layer_factory.hpp:77] Creating layer pool5
I0506 16:41:14.121534 10461 net.cpp:84] Creating Layer pool5
I0506 16:41:14.121538 10461 net.cpp:406] pool5 <- conv5
I0506 16:41:14.121543 10461 net.cpp:380] pool5 -> pool5
I0506 16:41:14.121582 10461 net.cpp:122] Setting up pool5
I0506 16:41:14.121587 10461 net.cpp:129] Top shape: 128 256 6 6 (1179648)
I0506 16:41:14.121590 10461 net.cpp:137] Memory required for data: 1051768832
I0506 16:41:14.121594 10461 layer_factory.hpp:77] Creating layer fc6
I0506 16:41:14.121604 10461 net.cpp:84] Creating Layer fc6
I0506 16:41:14.121608 10461 net.cpp:406] fc6 <- pool5
I0506 16:41:14.121613 10461 net.cpp:380] fc6 -> fc6
I0506 16:41:14.554100 10461 net.cpp:122] Setting up fc6
I0506 16:41:14.554121 10461 net.cpp:129] Top shape: 128 4096 (524288)
I0506 16:41:14.554126 10461 net.cpp:137] Memory required for data: 1053865984
I0506 16:41:14.554137 10461 layer_factory.hpp:77] Creating layer relu6
I0506 16:41:14.554149 10461 net.cpp:84] Creating Layer relu6
I0506 16:41:14.554154 10461 net.cpp:406] relu6 <- fc6
I0506 16:41:14.554160 10461 net.cpp:367] relu6 -> fc6 (in-place)
I0506 16:41:14.558368 10461 net.cpp:122] Setting up relu6
I0506 16:41:14.558382 10461 net.cpp:129] Top shape: 128 4096 (524288)
I0506 16:41:14.558385 10461 net.cpp:137] Memory required for data: 1055963136
I0506 16:41:14.558389 10461 layer_factory.hpp:77] Creating layer drop6
I0506 16:41:14.558396 10461 net.cpp:84] Creating Layer drop6
I0506 16:41:14.558400 10461 net.cpp:406] drop6 <- fc6
I0506 16:41:14.558408 10461 net.cpp:367] drop6 -> fc6 (in-place)
I0506 16:41:14.558439 10461 net.cpp:122] Setting up drop6
I0506 16:41:14.558444 10461 net.cpp:129] Top shape: 128 4096 (524288)
I0506 16:41:14.558447 10461 net.cpp:137] Memory required for data: 1058060288
I0506 16:41:14.558450 10461 layer_factory.hpp:77] Creating layer fc7
I0506 16:41:14.558459 10461 net.cpp:84] Creating Layer fc7
I0506 16:41:14.558462 10461 net.cpp:406] fc7 <- fc6
I0506 16:41:14.558468 10461 net.cpp:380] fc7 -> fc7
I0506 16:41:14.795050 10461 net.cpp:122] Setting up fc7
I0506 16:41:14.795071 10461 net.cpp:129] Top shape: 128 4096 (524288)
I0506 16:41:14.795075 10461 net.cpp:137] Memory required for data: 1060157440
I0506 16:41:14.795084 10461 layer_factory.hpp:77] Creating layer relu7
I0506 16:41:14.795094 10461 net.cpp:84] Creating Layer relu7
I0506 16:41:14.795099 10461 net.cpp:406] relu7 <- fc7
I0506 16:41:14.795105 10461 net.cpp:367] relu7 -> fc7 (in-place)
I0506 16:41:14.881804 10461 net.cpp:122] Setting up relu7
I0506 16:41:14.881834 10461 net.cpp:129] Top shape: 128 4096 (524288)
I0506 16:41:14.881840 10461 net.cpp:137] Memory required for data: 1062254592
I0506 16:41:14.881848 10461 layer_factory.hpp:77] Creating layer drop7
I0506 16:41:14.881862 10461 net.cpp:84] Creating Layer drop7
I0506 16:41:14.881870 10461 net.cpp:406] drop7 <- fc7
I0506 16:41:14.882026 10461 net.cpp:367] drop7 -> fc7 (in-place)
I0506 16:41:14.882093 10461 net.cpp:122] Setting up drop7
I0506 16:41:14.882103 10461 net.cpp:129] Top shape: 128 4096 (524288)
I0506 16:41:14.882108 10461 net.cpp:137] Memory required for data: 1064351744
I0506 16:41:14.882113 10461 layer_factory.hpp:77] Creating layer fc8
I0506 16:41:14.882123 10461 net.cpp:84] Creating Layer fc8
I0506 16:41:14.882128 10461 net.cpp:406] fc8 <- fc7
I0506 16:41:14.882138 10461 net.cpp:380] fc8 -> fc8
I0506 16:41:14.915256 10461 net.cpp:122] Setting up fc8
I0506 16:41:14.915287 10461 net.cpp:129] Top shape: 128 196 (25088)
I0506 16:41:14.915294 10461 net.cpp:137] Memory required for data: 1064452096
I0506 16:41:14.915307 10461 layer_factory.hpp:77] Creating layer loss
I0506 16:41:14.915335 10461 net.cpp:84] Creating Layer loss
I0506 16:41:14.915344 10461 net.cpp:406] loss <- fc8
I0506 16:41:14.915352 10461 net.cpp:406] loss <- label
I0506 16:41:14.915365 10461 net.cpp:380] loss -> loss
I0506 16:41:14.915383 10461 layer_factory.hpp:77] Creating layer loss
…
I0506 16:41:14.941846 10461 solver.cpp:172] Creating test net (#0) specified by net file: train_val.prototxt
I0506 16:41:14.941902 10461 net.cpp:294] The NetState phase (1) differed from the phase (0) specified by a rule in layer train-data
I0506 16:41:14.942188 10461 net.cpp:51] Initializing net from parameters:
state {
phase: TEST
}
layer {
name: "val-data"
type: "Data"
top: "data"
top: "label"
include {
phase: TEST
}
transform_param {
crop_size: 227
mean_file: "/mnt/bigdisk/MANDIG3/digits/jobs/20200506-122416-e0ba/mean.binaryproto"
}
data_param {
source: "/mnt/bigdisk/MANDIG3/digits/jobs/20200506-122416-e0ba/val_db"
batch_size: 32
backend: LMDB
}
}
layer {
name: "conv1"
type: "Convolution"
bottom: "data"
top: "conv1"
param {
lr_mult: 1
decay_mult: 1
}
param {
lr_mult: 2
decay_mult: 0
}
convolution_param {
num_output: 96
kernel_size: 11
stride: 4
weight_filler {
type: "gaussian"
std: 0.01
}
bias_filler {
type: "constant"
value: 0
}
}
}
layer {
name: "relu1"
type: "ReLU"
bottom: "conv1"
top: "conv1"
}
layer {
name: "norm1"
type: "LRN"
bottom: "conv1"
top: "norm1"
lrn_param {
local_size: 5
alpha: 0.0001
beta: 0.75
}
}
layer {
name: "pool1"
type: "Pooling"
bottom: "norm1"
top: "pool1"
pooling_param {
pool: MAX
kernel_size: 3
stride: 2
}
}
layer {
name: "conv2"
type: "Convolution"
bottom: "pool1"
top: "conv2"
param {
lr_mult: 1
decay_mult: 1
}
param {
lr_mult: 2
decay_mult: 0
}
convolution_param {
num_output: 256
pad: 2
kernel_size: 5
group: 2
weight_filler {
type: "gaussian"
std: 0.01
}
bias_filler {
type: "constant"
value: 0.1
}
}
}
layer {
name: "relu2"
type: "ReLU"
bottom: "conv2"
top: "conv2"
}
layer {
name: "norm2"
type: "LRN"
bottom: "conv2"
top: "norm2"
lrn_param {
local_size: 5
alpha: 0.0001
beta: 0.75
}
}
layer {
name: "pool2"
type: "Pooling"
bottom: "norm2"
top: "pool2"
pooling_param {
pool: MAX
kernel_size: 3
stride: 2
}
}
layer {
name: "conv3"
type: "Convolution"
bottom: "pool2"
top: "conv3"
param {
lr_mult: 1
decay_mult: 1
}
param {
lr_mult: 2
decay_mult: 0
}
convolution_param {
num_output: 384
pad: 1
kernel_size: 3
weight_filler {
type: "gaussian"
std: 0.01
}
bias_filler {
type: "constant"
value: 0
}
}
}
layer {
name: "relu3"
type: "ReLU"
bottom: "conv3"
top: "conv3"
}
layer {
name: "conv4"
type: "Convolution"
bottom: "conv3"
top: "conv4"
param {
lr_mult: 1
decay_mult: 1
}
param {
lr_mult: 2
decay_mult: 0
}
convolution_param {
num_output: 384
pad: 1
kernel_size: 3
group: 2
weight_filler {
type: "gaussian"
std: 0.01
}
bias_filler {
type: "constant"
value: 0.1
}
}
}
layer {
name: "relu4"
type: "ReLU"
bottom: "conv4"
top: "conv4"
}
layer {
name: "conv5"
type: "Convolution"
bottom: "conv4"
top: "conv5"
param {
lr_mult: 1
decay_mult: 1
}
param {
lr_mult: 2
decay_mult: 0
}
convolution_param {
num_output: 256
pad: 1
kernel_size: 3
group: 2
weight_filler {
type: "gaussian"
std: 0.01
}
bias_filler {
type: "constant"
value: 0.1
}
}
}
layer {
name: "relu5"
type: "ReLU"
bottom: "conv5"
top: "conv5"
}
layer {
name: "pool5"
type: "Pooling"
bottom: "conv5"
top: "pool5"
pooling_param {
pool: MAX
kernel_size: 3
stride: 2
}
}
layer {
name: "fc6"
type: "InnerProduct"
bottom: "pool5"
top: "fc6"
param {
lr_mult: 1
decay_mult: 1
}
param {
lr_mult: 2
decay_mult: 0
}
inner_product_param {
num_output: 4096
weight_filler {
type: "gaussian"
std: 0.005
}
bias_filler {
type: "constant"
value: 0.1
}
}
}
layer {
name: "relu6"
type: "ReLU"
bottom: "fc6"
top: "fc6"
}
layer {
name: "drop6"
type: "Dropout"
bottom: "fc6"
top: "fc6"
dropout_param {
dropout_ratio: 0.5
}
}
layer {
name: "fc7"
type: "InnerProduct"
bottom: "fc6"
top: "fc7"
param {
lr_mult: 1
decay_mult: 1
}
param {
lr_mult: 2
decay_mult: 0
}
inner_product_param {
num_output: 4096
weight_filler {
type: "gaussian"
std: 0.005
}
bias_filler {
type: "constant"
value: 0.1
}
}
}
layer {
name: "relu7"
type: "ReLU"
bottom: "fc7"
top: "fc7"
}
layer {
name: "drop7"
type: "Dropout"
bottom: "fc7"
top: "fc7"
dropout_param {
dropout_ratio: 0.5
}
}
layer {
name: "fc8"
type: "InnerProduct"
bottom: "fc7"
top: "fc8"
param {
lr_mult: 1
decay_mult: 1
}
param {
lr_mult: 2
decay_mult: 0
}
inner_product_param {
num_output: 196
weight_filler {
type: "gaussian"
std: 0.01
}
bias_filler {
type: "constant"
value: 0
}
}
}
layer {
name: "accuracy"
type: "Accuracy"
bottom: "fc8"
bottom: "label"
top: "accuracy"
include {
phase: TEST
}
}
layer {
name: "loss"
type: "SoftmaxWithLoss"
bottom: "fc8"
bottom: "label"
top: "loss"
}
I0506 16:41:14.942378 10461 layer_factory.hpp:77] Creating layer val-data
I0506 16:41:15.091601 10461 db_lmdb.cpp:35] Opened lmdb /mnt/bigdisk/MANDIG3/digits/jobs/20200506-122416-e0ba/val_db
I0506 16:41:15.138584 10461 net.cpp:84] Creating Layer val-data
I0506 16:41:15.138614 10461 net.cpp:380] val-data -> data
I0506 16:41:15.138629 10461 net.cpp:380] val-data -> label
I0506 16:41:15.138638 10461 data_transformer.cpp:25] Loading mean file from: /mnt/bigdisk/MANDIG3/digits/jobs/20200506-122416-e0ba/mean.binaryproto
I0506 16:41:15.163766 10461 data_layer.cpp:45] output data size: 32,3,227,227
I0506 16:41:15.223593 10461 net.cpp:122] Setting up val-data
I0506 16:41:15.223625 10461 net.cpp:129] Top shape: 32 3 227 227 (4946784)
I0506 16:41:15.223632 10461 net.cpp:129] Top shape: 32 (32)
I0506 16:41:15.223639 10461 net.cpp:137] Memory required for data: 19787264
I0506 16:41:15.223645 10461 layer_factory.hpp:77] Creating layer label_val-data_1_split
I0506 16:41:15.223661 10461 net.cpp:84] Creating Layer label_val-data_1_split
I0506 16:41:15.223667 10461 net.cpp:406] label_val-data_1_split <- label
I0506 16:41:15.223677 10461 net.cpp:380] label_val-data_1_split -> label_val-data_1_split_0
I0506 16:41:15.223691 10461 net.cpp:380] label_val-data_1_split -> label_val-data_1_split_1
I0506 16:41:15.223810 10461 net.cpp:122] Setting up label_val-data_1_split
I0506 16:41:15.223821 10461 net.cpp:129] Top shape: 32 (32)
I0506 16:41:15.223829 10461 net.cpp:129] Top shape: 32 (32)
I0506 16:41:15.223834 10461 net.cpp:137] Memory required for data: 19787520
I0506 16:41:15.223839 10461 layer_factory.hpp:77] Creating layer conv1
I0506 16:41:15.223856 10461 net.cpp:84] Creating Layer conv1
I0506 16:41:15.223862 10461 net.cpp:406] conv1 <- data
I0506 16:41:15.223873 10461 net.cpp:380] conv1 -> conv1
I0506 16:41:15.226670 10461 net.cpp:122] Setting up conv1
I0506 16:41:15.226688 10461 net.cpp:129] Top shape: 32 96 55 55 (9292800)
I0506 16:41:15.226694 10461 net.cpp:137] Memory required for data: 56958720
I0506 16:41:15.226711 10461 layer_factory.hpp:77] Creating layer relu1
I0506 16:41:15.226722 10461 net.cpp:84] Creating Layer relu1
I0506 16:41:15.226728 10461 net.cpp:406] relu1 <- conv1
I0506 16:41:15.226737 10461 net.cpp:367] relu1 -> conv1 (in-place)
I0506 16:41:15.227181 10461 net.cpp:122] Setting up relu1
I0506 16:41:15.227195 10461 net.cpp:129] Top shape: 32 96 55 55 (9292800)
I0506 16:41:15.227201 10461 net.cpp:137] Memory required for data: 94129920
I0506 16:41:15.227206 10461 layer_factory.hpp:77] Creating layer norm1
I0506 16:41:15.227219 10461 net.cpp:84] Creating Layer norm1
I0506 16:41:15.227226 10461 net.cpp:406] norm1 <- conv1
I0506 16:41:15.227236 10461 net.cpp:380] norm1 -> norm1
I0506 16:41:15.229605 10461 net.cpp:122] Setting up norm1
I0506 16:41:15.229622 10461 net.cpp:129] Top shape: 32 96 55 55 (9292800)
I0506 16:41:15.229629 10461 net.cpp:137] Memory required for data: 131301120
I0506 16:41:15.229635 10461 layer_factory.hpp:77] Creating layer pool1
I0506 16:41:15.229645 10461 net.cpp:84] Creating Layer pool1
I0506 16:41:15.229652 10461 net.cpp:406] pool1 <- norm1
I0506 16:41:15.229661 10461 net.cpp:380] pool1 -> pool1
I0506 16:41:15.229715 10461 net.cpp:122] Setting up pool1
I0506 16:41:15.229727 10461 net.cpp:129] Top shape: 32 96 27 27 (2239488)
I0506 16:41:15.229733 10461 net.cpp:137] Memory required for data: 140259072
I0506 16:41:15.229739 10461 layer_factory.hpp:77] Creating layer conv2
I0506 16:41:15.229753 10461 net.cpp:84] Creating Layer conv2
I0506 16:41:15.229760 10461 net.cpp:406] conv2 <- pool1
I0506 16:41:15.229770 10461 net.cpp:380] conv2 -> conv2
I0506 16:41:15.244896 10461 net.cpp:122] Setting up conv2
I0506 16:41:15.244925 10461 net.cpp:129] Top shape: 32 256 27 27 (5971968)
I0506 16:41:15.244933 10461 net.cpp:137] Memory required for data: 164146944
I0506 16:41:15.244958 10461 layer_factory.hpp:77] Creating layer relu2
I0506 16:41:15.244974 10461 net.cpp:84] Creating Layer relu2
I0506 16:41:15.244982 10461 net.cpp:406] relu2 <- conv2
I0506 16:41:15.244997 10461 net.cpp:367] relu2 -> conv2 (in-place)
I0506 16:41:15.245782 10461 net.cpp:122] Setting up relu2
I0506 16:41:15.245797 10461 net.cpp:129] Top shape: 32 256 27 27 (5971968)
I0506 16:41:15.245805 10461 net.cpp:137] Memory required for data: 188034816
I0506 16:41:15.245810 10461 layer_factory.hpp:77] Creating layer norm2
I0506 16:41:15.245829 10461 net.cpp:84] Creating Layer norm2
I0506 16:41:15.245838 10461 net.cpp:406] norm2 <- conv2
I0506 16:41:15.245848 10461 net.cpp:380] norm2 -> norm2
I0506 16:41:15.246721 10461 net.cpp:122] Setting up norm2
I0506 16:41:15.246737 10461 net.cpp:129] Top shape: 32 256 27 27 (5971968)
I0506 16:41:15.246744 10461 net.cpp:137] Memory required for data: 211922688
I0506 16:41:15.246752 10461 layer_factory.hpp:77] Creating layer pool2
I0506 16:41:15.246770 10461 net.cpp:84] Creating Layer pool2
I0506 16:41:15.246779 10461 net.cpp:406] pool2 <- norm2
I0506 16:41:15.246788 10461 net.cpp:380] pool2 -> pool2
I0506 16:41:15.246850 10461 net.cpp:122] Setting up pool2
I0506 16:41:15.246862 10461 net.cpp:129] Top shape: 32 256 13 13 (1384448)
I0506 16:41:15.246870 10461 net.cpp:137] Memory required for data: 217460480
I0506 16:41:15.246876 10461 layer_factory.hpp:77] Creating layer conv3
I0506 16:41:15.246896 10461 net.cpp:84] Creating Layer conv3
I0506 16:41:15.246903 10461 net.cpp:406] conv3 <- pool2
I0506 16:41:15.246917 10461 net.cpp:380] conv3 -> conv3
I0506 16:41:15.277868 10461 net.cpp:122] Setting up conv3
I0506 16:41:15.277887 10461 net.cpp:129] Top shape: 32 384 13 13 (2076672)
I0506 16:41:15.277891 10461 net.cpp:137] Memory required for data: 225767168
I0506 16:41:15.277941 10461 layer_factory.hpp:77] Creating layer relu3
I0506 16:41:15.277952 10461 net.cpp:84] Creating Layer relu3
I0506 16:41:15.277957 10461 net.cpp:406] relu3 <- conv3
I0506 16:41:15.277966 10461 net.cpp:367] relu3 -> conv3 (in-place)
I0506 16:41:15.280143 10461 net.cpp:122] Setting up relu3
I0506 16:41:15.280155 10461 net.cpp:129] Top shape: 32 384 13 13 (2076672)
I0506 16:41:15.280160 10461 net.cpp:137] Memory required for data: 234073856
I0506 16:41:15.280164 10461 layer_factory.hpp:77] Creating layer conv4
I0506 16:41:15.280176 10461 net.cpp:84] Creating Layer conv4
I0506 16:41:15.280181 10461 net.cpp:406] conv4 <- conv3
I0506 16:41:15.280187 10461 net.cpp:380] conv4 -> conv4
I0506 16:41:15.291401 10461 net.cpp:122] Setting up conv4
I0506 16:41:15.291419 10461 net.cpp:129] Top shape: 32 384 13 13 (2076672)
I0506 16:41:15.291424 10461 net.cpp:137] Memory required for data: 242380544
I0506 16:41:15.291432 10461 layer_factory.hpp:77] Creating layer relu4
I0506 16:41:15.291441 10461 net.cpp:84] Creating Layer relu4
I0506 16:41:15.291446 10461 net.cpp:406] relu4 <- conv4
I0506 16:41:15.291453 10461 net.cpp:367] relu4 -> conv4 (in-place)
I0506 16:41:15.291889 10461 net.cpp:122] Setting up relu4
I0506 16:41:15.291936 10461 net.cpp:129] Top shape: 32 384 13 13 (2076672)
I0506 16:41:15.291940 10461 net.cpp:137] Memory required for data: 250687232
I0506 16:41:15.291945 10461 layer_factory.hpp:77] Creating layer conv5
I0506 16:41:15.291957 10461 net.cpp:84] Creating Layer conv5
I0506 16:41:15.291962 10461 net.cpp:406] conv5 <- conv4
I0506 16:41:15.291972 10461 net.cpp:380] conv5 -> conv5
I0506 16:41:15.309901 10461 net.cpp:122] Setting up conv5
I0506 16:41:15.309923 10461 net.cpp:129] Top shape: 32 256 13 13 (1384448)
I0506 16:41:15.309928 10461 net.cpp:137] Memory required for data: 256225024
I0506 16:41:15.309947 10461 layer_factory.hpp:77] Creating layer relu5
I0506 16:41:15.309958 10461 net.cpp:84] Creating Layer relu5
I0506 16:41:15.309964 10461 net.cpp:406] relu5 <- conv5
I0506 16:41:15.309993 10461 net.cpp:367] relu5 -> conv5 (in-place)
I0506 16:41:15.310674 10461 net.cpp:122] Setting up relu5
I0506 16:41:15.310691 10461 net.cpp:129] Top shape: 32 256 13 13 (1384448)
I0506 16:41:15.310696 10461 net.cpp:137] Memory required for data: 261762816
I0506 16:41:15.310703 10461 layer_factory.hpp:77] Creating layer pool5
I0506 16:41:15.310716 10461 net.cpp:84] Creating Layer pool5
I0506 16:41:15.310722 10461 net.cpp:406] pool5 <- conv5
I0506 16:41:15.310730 10461 net.cpp:380] pool5 -> pool5
I0506 16:41:15.310781 10461 net.cpp:122] Setting up pool5
I0506 16:41:15.310789 10461 net.cpp:129] Top shape: 32 256 6 6 (294912)
I0506 16:41:15.310793 10461 net.cpp:137] Memory required for data: 262942464
I0506 16:41:15.310799 10461 layer_factory.hpp:77] Creating layer fc6
I0506 16:41:15.310808 10461 net.cpp:84] Creating Layer fc6
I0506 16:41:15.310813 10461 net.cpp:406] fc6 <- pool5
I0506 16:41:15.310822 10461 net.cpp:380] fc6 -> fc6
I0506 16:41:16.273958 10461 net.cpp:122] Setting up fc6
I0506 16:41:16.273984 10461 net.cpp:129] Top shape: 32 4096 (131072)
I0506 16:41:16.273988 10461 net.cpp:137] Memory required for data: 263466752
I0506 16:41:16.273998 10461 layer_factory.hpp:77] Creating layer relu6
I0506 16:41:16.274008 10461 net.cpp:84] Creating Layer relu6
I0506 16:41:16.274013 10461 net.cpp:406] relu6 <- fc6
I0506 16:41:16.274019 10461 net.cpp:367] relu6 -> fc6 (in-place)
I0506 16:41:16.274914 10461 net.cpp:122] Setting up relu6
I0506 16:41:16.274925 10461 net.cpp:129] Top shape: 32 4096 (131072)
I0506 16:41:16.274929 10461 net.cpp:137] Memory required for data: 263991040
I0506 16:41:16.274932 10461 layer_factory.hpp:77] Creating layer drop6
I0506 16:41:16.274940 10461 net.cpp:84] Creating Layer drop6
I0506 16:41:16.274945 10461 net.cpp:406] drop6 <- fc6
I0506 16:41:16.274950 10461 net.cpp:367] drop6 -> fc6 (in-place)
I0506 16:41:16.274976 10461 net.cpp:122] Setting up drop6
I0506 16:41:16.274981 10461 net.cpp:129] Top shape: 32 4096 (131072)
I0506 16:41:16.274984 10461 net.cpp:137] Memory required for data: 264515328
I0506 16:41:16.274987 10461 layer_factory.hpp:77] Creating layer fc7
I0506 16:41:16.274996 10461 net.cpp:84] Creating Layer fc7
I0506 16:41:16.274999 10461 net.cpp:406] fc7 <- fc6
I0506 16:41:16.275004 10461 net.cpp:380] fc7 -> fc7
I0506 16:41:16.439545 10461 net.cpp:122] Setting up fc7
I0506 16:41:16.439568 10461 net.cpp:129] Top shape: 32 4096 (131072)
I0506 16:41:16.439571 10461 net.cpp:137] Memory required for data: 265039616
I0506 16:41:16.439581 10461 layer_factory.hpp:77] Creating layer relu7
I0506 16:41:16.439590 10461 net.cpp:84] Creating Layer relu7
I0506 16:41:16.439595 10461 net.cpp:406] relu7 <- fc7
I0506 16:41:16.439601 10461 net.cpp:367] relu7 -> fc7 (in-place)
I0506 16:41:16.440009 10461 net.cpp:122] Setting up relu7
I0506 16:41:16.440018 10461 net.cpp:129] Top shape: 32 4096 (131072)
I0506 16:41:16.440023 10461 net.cpp:137] Memory required for data: 265563904
I0506 16:41:16.440027 10461 layer_factory.hpp:77] Creating layer drop7
I0506 16:41:16.440034 10461 net.cpp:84] Creating Layer drop7
I0506 16:41:16.440038 10461 net.cpp:406] drop7 <- fc7
I0506 16:41:16.440043 10461 net.cpp:367] drop7 -> fc7 (in-place)
I0506 16:41:16.440068 10461 net.cpp:122] Setting up drop7
I0506 16:41:16.440073 10461 net.cpp:129] Top shape: 32 4096 (131072)
I0506 16:41:16.440075 10461 net.cpp:137] Memory required for data: 266088192
I0506 16:41:16.440078 10461 layer_factory.hpp:77] Creating layer fc8
I0506 16:41:16.440088 10461 net.cpp:84] Creating Layer fc8
I0506 16:41:16.440090 10461 net.cpp:406] fc8 <- fc7
I0506 16:41:16.440095 10461 net.cpp:380] fc8 -> fc8
I0506 16:41:16.448030 10461 net.cpp:122] Setting up fc8
I0506 16:41:16.448048 10461 net.cpp:129] Top shape: 32 196 (6272)
I0506 16:41:16.448051 10461 net.cpp:137] Memory required for data: 266113280
I0506 16:41:16.448060 10461 layer_factory.hpp:77] Creating layer fc8_fc8_0_split
I0506 16:41:16.448069 10461 net.cpp:84] Creating Layer fc8_fc8_0_split
I0506 16:41:16.448073 10461 net.cpp:406] fc8_fc8_0_split <- fc8
I0506 16:41:16.448081 10461 net.cpp:380] fc8_fc8_0_split -> fc8_fc8_0_split_0
I0506 16:41:16.448223 10461 net.cpp:380] fc8_fc8_0_split -> fc8_fc8_0_split_1
I0506 16:41:16.448290 10461 net.cpp:122] Setting up fc8_fc8_0_split
I0506 16:41:16.448297 10461 net.cpp:129] Top shape: 32 196 (6272)
I0506 16:41:16.448302 10461 net.cpp:129] Top shape: 32 196 (6272)
I0506 16:41:16.448305 10461 net.cpp:137] Memory required for data: 266163456
I0506 16:41:16.448309 10461 layer_factory.hpp:77] Creating layer accuracy
I0506 16:41:16.448318 10461 net.cpp:84] Creating Layer accuracy
I0506 16:41:16.448321 10461 net.cpp:406] accuracy <- fc8_fc8_0_split_0
I0506 16:41:16.448326 10461 net.cpp:406] accuracy <- label_val-data_1_split_0
I0506 16:41:16.448333 10461 net.cpp:380] accuracy -> accuracy
…
