…
I0429 17:44:23.023003  5892 net.cpp:294] The NetState phase (0) differed from the phase (1) specified by a rule in layer accuracy
I0429 17:44:23.023272  5892 net.cpp:51] Initializing net from parameters:
state {
phase: TRAIN
level: 0
stage: ""
}
layer {
name: "train-data"
type: "Data"
top: "data"
top: "label"
include {
phase: TRAIN
}
transform_param {
mirror: true
crop_size: 227
mean_file: "/mnt/bigdisk/MANDIG2/digits/jobs/20200428-132136-11fe/mean.binaryproto"
}
data_param {
source: "/mnt/bigdisk/MANDIG2/digits/jobs/20200428-132136-11fe/train_db"
batch_size: 128
backend: LMDB
}
}
layer {
name: "conv1"
type: "Convolution"
bottom: "data"
top: "conv1"
param {
lr_mult: 1
decay_mult: 1
}
param {
lr_mult: 2
decay_mult: 0
}
convolution_param {
num_output: 96
kernel_size: 11
stride: 4
weight_filler {
type: "gaussian"
std: 0.01
}
bias_filler {
type: "constant"
value: 0
}
}
}
layer {
name: "relu1"
type: "ReLU"
bottom: "conv1"
top: "conv1"
}
layer {
name: "norm1"
type: "LRN"
bottom: "conv1"
top: "norm1"
lrn_param {
local_size: 5
alpha: 0.0001
beta: 0.75
}
}
layer {
name: "pool1"
type: "Pooling"
bottom: "norm1"
top: "pool1"
pooling_param {
pool: MAX
kernel_size: 3
stride: 2
}
}
layer {
name: "conv2"
type: "Convolution"
bottom: "pool1"
top: "conv2"
param {
lr_mult: 1
decay_mult: 1
}
param {
lr_mult: 2
decay_mult: 0
}
convolution_param {
num_output: 256
pad: 2
kernel_size: 5
group: 2
weight_filler {
type: "gaussian"
std: 0.01
}
bias_filler {
type: "constant"
value: 0.1
}
}
}
layer {
name: "relu2"
type: "ReLU"
bottom: "conv2"
top: "conv2"
}
layer {
name: "norm2"
type: "LRN"
bottom: "conv2"
top: "norm2"
lrn_param {
local_size: 5
alpha: 0.0001
beta: 0.75
}
}
layer {
name: "pool2"
type: "Pooling"
bottom: "norm2"
top: "pool2"
pooling_param {
pool: MAX
kernel_size: 3
stride: 2
}
}
layer {
name: "conv3"
type: "Convolution"
bottom: "pool2"
top: "conv3"
param {
lr_mult: 1
decay_mult: 1
}
param {
lr_mult: 2
decay_mult: 0
}
convolution_param {
num_output: 384
pad: 1
kernel_size: 3
weight_filler {
type: "gaussian"
std: 0.01
}
bias_filler {
type: "constant"
value: 0
}
}
}
layer {
name: "relu3"
type: "ReLU"
bottom: "conv3"
top: "conv3"
}
layer {
name: "conv4"
type: "Convolution"
bottom: "conv3"
top: "conv4"
param {
lr_mult: 1
decay_mult: 1
}
param {
lr_mult: 2
decay_mult: 0
}
convolution_param {
num_output: 384
pad: 1
kernel_size: 3
group: 2
weight_filler {
type: "gaussian"
std: 0.01
}
bias_filler {
type: "constant"
value: 0.1
}
}
}
layer {
name: "relu4"
type: "ReLU"
bottom: "conv4"
top: "conv4"
}
layer {
name: "conv5"
type: "Convolution"
bottom: "conv4"
top: "conv5"
param {
lr_mult: 1
decay_mult: 1
}
param {
lr_mult: 2
decay_mult: 0
}
convolution_param {
num_output: 256
pad: 1
kernel_size: 3
group: 2
weight_filler {
type: "gaussian"
std: 0.01
}
bias_filler {
type: "constant"
value: 0.1
}
}
}
layer {
name: "relu5"
type: "ReLU"
bottom: "conv5"
top: "conv5"
}
layer {
name: "pool5"
type: "Pooling"
bottom: "conv5"
top: "pool5"
pooling_param {
pool: MAX
kernel_size: 3
stride: 2
}
}
layer {
name: "fc6"
type: "InnerProduct"
bottom: "pool5"
top: "fc6"
param {
lr_mult: 1
decay_mult: 1
}
param {
lr_mult: 2
decay_mult: 0
}
inner_product_param {
num_output: 4096
weight_filler {
type: "gaussian"
std: 0.005
}
bias_filler {
type: "constant"
value: 0.1
}
}
}
layer {
name: "relu6"
type: "ReLU"
bottom: "fc6"
top: "fc6"
}
layer {
name: "drop6"
type: "Dropout"
bottom: "fc6"
top: "fc6"
dropout_param {
dropout_ratio: 0.5
}
}
layer {
name: "fc7"
type: "InnerProduct"
bottom: "fc6"
top: "fc7"
param {
lr_mult: 1
decay_mult: 1
}
param {
lr_mult: 2
decay_mult: 0
}
inner_product_param {
num_output: 4096
weight_filler {
type: "gaussian"
std: 0.005
}
bias_filler {
type: "constant"
value: 0.1
}
}
}
layer {
name: "relu7"
type: "ReLU"
bottom: "fc7"
top: "fc7"
}
layer {
name: "drop7"
type: "Dropout"
bottom: "fc7"
top: "fc7"
dropout_param {
dropout_ratio: 0.5
}
}
layer {
name: "fc8"
type: "InnerProduct"
bottom: "fc7"
top: "fc8"
param {
lr_mult: 1
decay_mult: 1
}
param {
lr_mult: 2
decay_mult: 0
}
inner_product_param {
num_output: 196
weight_filler {
type: "gaussian"
std: 0.01
}
bias_filler {
type: "constant"
value: 0
}
}
}
layer {
name: "loss"
type: "SoftmaxWithLoss"
bottom: "fc8"
bottom: "label"
top: "loss"
}
I0429 17:44:23.023403  5892 layer_factory.hpp:77] Creating layer train-data
I0429 17:44:23.025609  5892 db_lmdb.cpp:35] Opened lmdb /mnt/bigdisk/MANDIG2/digits/jobs/20200428-132136-11fe/train_db
I0429 17:44:23.025794  5892 net.cpp:84] Creating Layer train-data
I0429 17:44:23.025815  5892 net.cpp:380] train-data -> data
I0429 17:44:23.025851  5892 net.cpp:380] train-data -> label
I0429 17:44:23.025872  5892 data_transformer.cpp:25] Loading mean file from: /mnt/bigdisk/MANDIG2/digits/jobs/20200428-132136-11fe/mean.binaryproto
I0429 17:44:23.081667  5892 data_layer.cpp:45] output data size: 128,3,227,227
I0429 17:44:23.324698  5892 net.cpp:122] Setting up train-data
I0429 17:44:23.324725  5892 net.cpp:129] Top shape: 128 3 227 227 (19787136)
I0429 17:44:23.324731  5892 net.cpp:129] Top shape: 128 (128)
I0429 17:44:23.324739  5892 net.cpp:137] Memory required for data: 79149056
I0429 17:44:23.324755  5892 layer_factory.hpp:77] Creating layer conv1
I0429 17:44:23.324779  5892 net.cpp:84] Creating Layer conv1
I0429 17:44:23.324790  5892 net.cpp:406] conv1 <- data
I0429 17:44:23.324801  5892 net.cpp:380] conv1 -> conv1
I0429 17:44:24.931448  5892 net.cpp:122] Setting up conv1
I0429 17:44:24.931481  5892 net.cpp:129] Top shape: 128 96 55 55 (37171200)
I0429 17:44:24.931500  5892 net.cpp:137] Memory required for data: 227833856
I0429 17:44:24.931536  5892 layer_factory.hpp:77] Creating layer relu1
I0429 17:44:24.931558  5892 net.cpp:84] Creating Layer relu1
I0429 17:44:24.931572  5892 net.cpp:406] relu1 <- conv1
I0429 17:44:24.931592  5892 net.cpp:367] relu1 -> conv1 (in-place)
I0429 17:44:24.932168  5892 net.cpp:122] Setting up relu1
I0429 17:44:24.932193  5892 net.cpp:129] Top shape: 128 96 55 55 (37171200)
I0429 17:44:24.932205  5892 net.cpp:137] Memory required for data: 376518656
I0429 17:44:24.932220  5892 layer_factory.hpp:77] Creating layer norm1
I0429 17:44:24.932243  5892 net.cpp:84] Creating Layer norm1
I0429 17:44:24.932253  5892 net.cpp:406] norm1 <- conv1
I0429 17:44:24.932305  5892 net.cpp:380] norm1 -> norm1
I0429 17:44:24.933244  5892 net.cpp:122] Setting up norm1
I0429 17:44:24.933264  5892 net.cpp:129] Top shape: 128 96 55 55 (37171200)
I0429 17:44:24.933274  5892 net.cpp:137] Memory required for data: 525203456
I0429 17:44:24.933287  5892 layer_factory.hpp:77] Creating layer pool1
I0429 17:44:24.933305  5892 net.cpp:84] Creating Layer pool1
I0429 17:44:24.933320  5892 net.cpp:406] pool1 <- norm1
I0429 17:44:24.933334  5892 net.cpp:380] pool1 -> pool1
I0429 17:44:24.933403  5892 net.cpp:122] Setting up pool1
I0429 17:44:24.933419  5892 net.cpp:129] Top shape: 128 96 27 27 (8957952)
I0429 17:44:24.933431  5892 net.cpp:137] Memory required for data: 561035264
I0429 17:44:24.933442  5892 layer_factory.hpp:77] Creating layer conv2
I0429 17:44:24.933467  5892 net.cpp:84] Creating Layer conv2
I0429 17:44:24.933478  5892 net.cpp:406] conv2 <- pool1
I0429 17:44:24.933495  5892 net.cpp:380] conv2 -> conv2
I0429 17:44:24.959640  5892 net.cpp:122] Setting up conv2
I0429 17:44:24.959674  5892 net.cpp:129] Top shape: 128 256 27 27 (23887872)
I0429 17:44:24.959686  5892 net.cpp:137] Memory required for data: 656586752
I0429 17:44:24.959718  5892 layer_factory.hpp:77] Creating layer relu2
I0429 17:44:24.959738  5892 net.cpp:84] Creating Layer relu2
I0429 17:44:24.959748  5892 net.cpp:406] relu2 <- conv2
I0429 17:44:24.959766  5892 net.cpp:367] relu2 -> conv2 (in-place)
I0429 17:44:24.960659  5892 net.cpp:122] Setting up relu2
I0429 17:44:24.960683  5892 net.cpp:129] Top shape: 128 256 27 27 (23887872)
I0429 17:44:24.960693  5892 net.cpp:137] Memory required for data: 752138240
I0429 17:44:24.960708  5892 layer_factory.hpp:77] Creating layer norm2
I0429 17:44:24.960729  5892 net.cpp:84] Creating Layer norm2
I0429 17:44:24.960745  5892 net.cpp:406] norm2 <- conv2
I0429 17:44:24.960762  5892 net.cpp:380] norm2 -> norm2
I0429 17:44:24.961351  5892 net.cpp:122] Setting up norm2
I0429 17:44:24.961370  5892 net.cpp:129] Top shape: 128 256 27 27 (23887872)
I0429 17:44:24.961380  5892 net.cpp:137] Memory required for data: 847689728
I0429 17:44:24.961393  5892 layer_factory.hpp:77] Creating layer pool2
I0429 17:44:24.961416  5892 net.cpp:84] Creating Layer pool2
I0429 17:44:24.961429  5892 net.cpp:406] pool2 <- norm2
I0429 17:44:24.961448  5892 net.cpp:380] pool2 -> pool2
I0429 17:44:24.961499  5892 net.cpp:122] Setting up pool2
I0429 17:44:24.961516  5892 net.cpp:129] Top shape: 128 256 13 13 (5537792)
I0429 17:44:24.961527  5892 net.cpp:137] Memory required for data: 869840896
I0429 17:44:24.961540  5892 layer_factory.hpp:77] Creating layer conv3
I0429 17:44:24.961563  5892 net.cpp:84] Creating Layer conv3
I0429 17:44:24.961580  5892 net.cpp:406] conv3 <- pool2
I0429 17:44:24.961599  5892 net.cpp:380] conv3 -> conv3
I0429 17:44:24.977558  5892 net.cpp:122] Setting up conv3
I0429 17:44:24.977599  5892 net.cpp:129] Top shape: 128 384 13 13 (8306688)
I0429 17:44:24.977612  5892 net.cpp:137] Memory required for data: 903067648
I0429 17:44:24.977640  5892 layer_factory.hpp:77] Creating layer relu3
I0429 17:44:24.977660  5892 net.cpp:84] Creating Layer relu3
I0429 17:44:24.977669  5892 net.cpp:406] relu3 <- conv3
I0429 17:44:24.977684  5892 net.cpp:367] relu3 -> conv3 (in-place)
I0429 17:44:24.978796  5892 net.cpp:122] Setting up relu3
I0429 17:44:24.978821  5892 net.cpp:129] Top shape: 128 384 13 13 (8306688)
I0429 17:44:24.978832  5892 net.cpp:137] Memory required for data: 936294400
I0429 17:44:24.978843  5892 layer_factory.hpp:77] Creating layer conv4
I0429 17:44:24.978865  5892 net.cpp:84] Creating Layer conv4
I0429 17:44:24.978879  5892 net.cpp:406] conv4 <- conv3
I0429 17:44:24.978895  5892 net.cpp:380] conv4 -> conv4
I0429 17:44:25.012128  5892 net.cpp:122] Setting up conv4
I0429 17:44:25.012166  5892 net.cpp:129] Top shape: 128 384 13 13 (8306688)
I0429 17:44:25.012176  5892 net.cpp:137] Memory required for data: 969521152
I0429 17:44:25.012202  5892 layer_factory.hpp:77] Creating layer relu4
I0429 17:44:25.012223  5892 net.cpp:84] Creating Layer relu4
I0429 17:44:25.012264  5892 net.cpp:406] relu4 <- conv4
I0429 17:44:25.012280  5892 net.cpp:367] relu4 -> conv4 (in-place)
I0429 17:44:25.013988  5892 net.cpp:122] Setting up relu4
I0429 17:44:25.014011  5892 net.cpp:129] Top shape: 128 384 13 13 (8306688)
I0429 17:44:25.014025  5892 net.cpp:137] Memory required for data: 1002747904
I0429 17:44:25.014045  5892 layer_factory.hpp:77] Creating layer conv5
I0429 17:44:25.014070  5892 net.cpp:84] Creating Layer conv5
I0429 17:44:25.014086  5892 net.cpp:406] conv5 <- conv4
I0429 17:44:25.014107  5892 net.cpp:380] conv5 -> conv5
I0429 17:44:25.064246  5892 net.cpp:122] Setting up conv5
I0429 17:44:25.064291  5892 net.cpp:129] Top shape: 128 256 13 13 (5537792)
I0429 17:44:25.064311  5892 net.cpp:137] Memory required for data: 1024899072
I0429 17:44:25.064338  5892 layer_factory.hpp:77] Creating layer relu5
I0429 17:44:25.064358  5892 net.cpp:84] Creating Layer relu5
I0429 17:44:25.064376  5892 net.cpp:406] relu5 <- conv5
I0429 17:44:25.064399  5892 net.cpp:367] relu5 -> conv5 (in-place)
I0429 17:44:25.065567  5892 net.cpp:122] Setting up relu5
I0429 17:44:25.065603  5892 net.cpp:129] Top shape: 128 256 13 13 (5537792)
I0429 17:44:25.065618  5892 net.cpp:137] Memory required for data: 1047050240
I0429 17:44:25.065634  5892 layer_factory.hpp:77] Creating layer pool5
I0429 17:44:25.065651  5892 net.cpp:84] Creating Layer pool5
I0429 17:44:25.065665  5892 net.cpp:406] pool5 <- conv5
I0429 17:44:25.065688  5892 net.cpp:380] pool5 -> pool5
I0429 17:44:25.065768  5892 net.cpp:122] Setting up pool5
I0429 17:44:25.065793  5892 net.cpp:129] Top shape: 128 256 6 6 (1179648)
I0429 17:44:25.065806  5892 net.cpp:137] Memory required for data: 1051768832
I0429 17:44:25.065821  5892 layer_factory.hpp:77] Creating layer fc6
I0429 17:44:25.065850  5892 net.cpp:84] Creating Layer fc6
I0429 17:44:25.065865  5892 net.cpp:406] fc6 <- pool5
I0429 17:44:25.065889  5892 net.cpp:380] fc6 -> fc6
I0429 17:44:25.526142  5892 net.cpp:122] Setting up fc6
I0429 17:44:25.526165  5892 net.cpp:129] Top shape: 128 4096 (524288)
I0429 17:44:25.526173  5892 net.cpp:137] Memory required for data: 1053865984
I0429 17:44:25.526186  5892 layer_factory.hpp:77] Creating layer relu6
I0429 17:44:25.526201  5892 net.cpp:84] Creating Layer relu6
I0429 17:44:25.526208  5892 net.cpp:406] relu6 <- fc6
I0429 17:44:25.526221  5892 net.cpp:367] relu6 -> fc6 (in-place)
I0429 17:44:25.605788  5892 net.cpp:122] Setting up relu6
I0429 17:44:25.605813  5892 net.cpp:129] Top shape: 128 4096 (524288)
I0429 17:44:25.605823  5892 net.cpp:137] Memory required for data: 1055963136
I0429 17:44:25.605834  5892 layer_factory.hpp:77] Creating layer drop6
I0429 17:44:25.605856  5892 net.cpp:84] Creating Layer drop6
I0429 17:44:25.605870  5892 net.cpp:406] drop6 <- fc6
I0429 17:44:25.605885  5892 net.cpp:367] drop6 -> fc6 (in-place)
I0429 17:44:25.605945  5892 net.cpp:122] Setting up drop6
I0429 17:44:25.605957  5892 net.cpp:129] Top shape: 128 4096 (524288)
I0429 17:44:25.605967  5892 net.cpp:137] Memory required for data: 1058060288
I0429 17:44:25.605978  5892 layer_factory.hpp:77] Creating layer fc7
I0429 17:44:25.605994  5892 net.cpp:84] Creating Layer fc7
I0429 17:44:25.606001  5892 net.cpp:406] fc7 <- fc6
I0429 17:44:25.606014  5892 net.cpp:380] fc7 -> fc7
I0429 17:44:25.821893  5892 net.cpp:122] Setting up fc7
I0429 17:44:25.821914  5892 net.cpp:129] Top shape: 128 4096 (524288)
I0429 17:44:25.821923  5892 net.cpp:137] Memory required for data: 1060157440
I0429 17:44:25.821935  5892 layer_factory.hpp:77] Creating layer relu7
I0429 17:44:25.821947  5892 net.cpp:84] Creating Layer relu7
I0429 17:44:25.821956  5892 net.cpp:406] relu7 <- fc7
I0429 17:44:25.821969  5892 net.cpp:367] relu7 -> fc7 (in-place)
I0429 17:44:25.822710  5892 net.cpp:122] Setting up relu7
I0429 17:44:25.822722  5892 net.cpp:129] Top shape: 128 4096 (524288)
I0429 17:44:25.822728  5892 net.cpp:137] Memory required for data: 1062254592
I0429 17:44:25.822733  5892 layer_factory.hpp:77] Creating layer drop7
I0429 17:44:25.822743  5892 net.cpp:84] Creating Layer drop7
I0429 17:44:25.822772  5892 net.cpp:406] drop7 <- fc7
I0429 17:44:25.822782  5892 net.cpp:367] drop7 -> fc7 (in-place)
I0429 17:44:25.822808  5892 net.cpp:122] Setting up drop7
I0429 17:44:25.822818  5892 net.cpp:129] Top shape: 128 4096 (524288)
I0429 17:44:25.822824  5892 net.cpp:137] Memory required for data: 1064351744
I0429 17:44:25.822829  5892 layer_factory.hpp:77] Creating layer fc8
I0429 17:44:25.822841  5892 net.cpp:84] Creating Layer fc8
I0429 17:44:25.822849  5892 net.cpp:406] fc8 <- fc7
I0429 17:44:25.822857  5892 net.cpp:380] fc8 -> fc8
I0429 17:44:25.855358  5892 net.cpp:122] Setting up fc8
I0429 17:44:25.855387  5892 net.cpp:129] Top shape: 128 196 (25088)
I0429 17:44:25.855396  5892 net.cpp:137] Memory required for data: 1064452096
I0429 17:44:25.855413  5892 layer_factory.hpp:77] Creating layer loss
I0429 17:44:25.855432  5892 net.cpp:84] Creating Layer loss
I0429 17:44:25.855440  5892 net.cpp:406] loss <- fc8
I0429 17:44:25.855450  5892 net.cpp:406] loss <- label
I0429 17:44:25.855465  5892 net.cpp:380] loss -> loss
I0429 17:44:25.855484  5892 layer_factory.hpp:77] Creating layer loss
…
I0429 17:44:25.864485  5892 solver.cpp:172] Creating test net (#0) specified by net file: train_val.prototxt
I0429 17:44:25.864540  5892 net.cpp:294] The NetState phase (1) differed from the phase (0) specified by a rule in layer train-data
I0429 17:44:25.864789  5892 net.cpp:51] Initializing net from parameters:
state {
phase: TEST
}
layer {
name: "val-data"
type: "Data"
top: "data"
top: "label"
include {
phase: TEST
}
transform_param {
crop_size: 227
mean_file: "/mnt/bigdisk/MANDIG2/digits/jobs/20200428-132136-11fe/mean.binaryproto"
}
data_param {
source: "/mnt/bigdisk/MANDIG2/digits/jobs/20200428-132136-11fe/val_db"
batch_size: 32
backend: LMDB
}
}
layer {
name: "conv1"
type: "Convolution"
bottom: "data"
top: "conv1"
param {
lr_mult: 1
decay_mult: 1
}
param {
lr_mult: 2
decay_mult: 0
}
convolution_param {
num_output: 96
kernel_size: 11
stride: 4
weight_filler {
type: "gaussian"
std: 0.01
}
bias_filler {
type: "constant"
value: 0
}
}
}
layer {
name: "relu1"
type: "ReLU"
bottom: "conv1"
top: "conv1"
}
layer {
name: "norm1"
type: "LRN"
bottom: "conv1"
top: "norm1"
lrn_param {
local_size: 5
alpha: 0.0001
beta: 0.75
}
}
layer {
name: "pool1"
type: "Pooling"
bottom: "norm1"
top: "pool1"
pooling_param {
pool: MAX
kernel_size: 3
stride: 2
}
}
layer {
name: "conv2"
type: "Convolution"
bottom: "pool1"
top: "conv2"
param {
lr_mult: 1
decay_mult: 1
}
param {
lr_mult: 2
decay_mult: 0
}
convolution_param {
num_output: 256
pad: 2
kernel_size: 5
group: 2
weight_filler {
type: "gaussian"
std: 0.01
}
bias_filler {
type: "constant"
value: 0.1
}
}
}
layer {
name: "relu2"
type: "ReLU"
bottom: "conv2"
top: "conv2"
}
layer {
name: "norm2"
type: "LRN"
bottom: "conv2"
top: "norm2"
lrn_param {
local_size: 5
alpha: 0.0001
beta: 0.75
}
}
layer {
name: "pool2"
type: "Pooling"
bottom: "norm2"
top: "pool2"
pooling_param {
pool: MAX
kernel_size: 3
stride: 2
}
}
layer {
name: "conv3"
type: "Convolution"
bottom: "pool2"
top: "conv3"
param {
lr_mult: 1
decay_mult: 1
}
param {
lr_mult: 2
decay_mult: 0
}
convolution_param {
num_output: 384
pad: 1
kernel_size: 3
weight_filler {
type: "gaussian"
std: 0.01
}
bias_filler {
type: "constant"
value: 0
}
}
}
layer {
name: "relu3"
type: "ReLU"
bottom: "conv3"
top: "conv3"
}
layer {
name: "conv4"
type: "Convolution"
bottom: "conv3"
top: "conv4"
param {
lr_mult: 1
decay_mult: 1
}
param {
lr_mult: 2
decay_mult: 0
}
convolution_param {
num_output: 384
pad: 1
kernel_size: 3
group: 2
weight_filler {
type: "gaussian"
std: 0.01
}
bias_filler {
type: "constant"
value: 0.1
}
}
}
layer {
name: "relu4"
type: "ReLU"
bottom: "conv4"
top: "conv4"
}
layer {
name: "conv5"
type: "Convolution"
bottom: "conv4"
top: "conv5"
param {
lr_mult: 1
decay_mult: 1
}
param {
lr_mult: 2
decay_mult: 0
}
convolution_param {
num_output: 256
pad: 1
kernel_size: 3
group: 2
weight_filler {
type: "gaussian"
std: 0.01
}
bias_filler {
type: "constant"
value: 0.1
}
}
}
layer {
name: "relu5"
type: "ReLU"
bottom: "conv5"
top: "conv5"
}
layer {
name: "pool5"
type: "Pooling"
bottom: "conv5"
top: "pool5"
pooling_param {
pool: MAX
kernel_size: 3
stride: 2
}
}
layer {
name: "fc6"
type: "InnerProduct"
bottom: "pool5"
top: "fc6"
param {
lr_mult: 1
decay_mult: 1
}
param {
lr_mult: 2
decay_mult: 0
}
inner_product_param {
num_output: 4096
weight_filler {
type: "gaussian"
std: 0.005
}
bias_filler {
type: "constant"
value: 0.1
}
}
}
layer {
name: "relu6"
type: "ReLU"
bottom: "fc6"
top: "fc6"
}
layer {
name: "drop6"
type: "Dropout"
bottom: "fc6"
top: "fc6"
dropout_param {
dropout_ratio: 0.5
}
}
layer {
name: "fc7"
type: "InnerProduct"
bottom: "fc6"
top: "fc7"
param {
lr_mult: 1
decay_mult: 1
}
param {
lr_mult: 2
decay_mult: 0
}
inner_product_param {
num_output: 4096
weight_filler {
type: "gaussian"
std: 0.005
}
bias_filler {
type: "constant"
value: 0.1
}
}
}
layer {
name: "relu7"
type: "ReLU"
bottom: "fc7"
top: "fc7"
}
layer {
name: "drop7"
type: "Dropout"
bottom: "fc7"
top: "fc7"
dropout_param {
dropout_ratio: 0.5
}
}
layer {
name: "fc8"
type: "InnerProduct"
bottom: "fc7"
top: "fc8"
param {
lr_mult: 1
decay_mult: 1
}
param {
lr_mult: 2
decay_mult: 0
}
inner_product_param {
num_output: 196
weight_filler {
type: "gaussian"
std: 0.01
}
bias_filler {
type: "constant"
value: 0
}
}
}
layer {
name: "accuracy"
type: "Accuracy"
bottom: "fc8"
bottom: "label"
top: "accuracy"
include {
phase: TEST
}
}
layer {
name: "loss"
type: "SoftmaxWithLoss"
bottom: "fc8"
bottom: "label"
top: "loss"
}
I0429 17:44:25.864964  5892 layer_factory.hpp:77] Creating layer val-data
I0429 17:44:26.014755  5892 db_lmdb.cpp:35] Opened lmdb /mnt/bigdisk/MANDIG2/digits/jobs/20200428-132136-11fe/val_db
I0429 17:44:26.014941  5892 net.cpp:84] Creating Layer val-data
I0429 17:44:26.014966  5892 net.cpp:380] val-data -> data
I0429 17:44:26.014983  5892 net.cpp:380] val-data -> label
I0429 17:44:26.014994  5892 data_transformer.cpp:25] Loading mean file from: /mnt/bigdisk/MANDIG2/digits/jobs/20200428-132136-11fe/mean.binaryproto
I0429 17:44:26.019150  5892 data_layer.cpp:45] output data size: 32,3,227,227
I0429 17:44:26.077280  5892 net.cpp:122] Setting up val-data
I0429 17:44:26.077309  5892 net.cpp:129] Top shape: 32 3 227 227 (4946784)
I0429 17:44:26.077318  5892 net.cpp:129] Top shape: 32 (32)
I0429 17:44:26.077324  5892 net.cpp:137] Memory required for data: 19787264
I0429 17:44:26.077335  5892 layer_factory.hpp:77] Creating layer label_val-data_1_split
I0429 17:44:26.077352  5892 net.cpp:84] Creating Layer label_val-data_1_split
I0429 17:44:26.077360  5892 net.cpp:406] label_val-data_1_split <- label
I0429 17:44:26.077369  5892 net.cpp:380] label_val-data_1_split -> label_val-data_1_split_0
I0429 17:44:26.077383  5892 net.cpp:380] label_val-data_1_split -> label_val-data_1_split_1
I0429 17:44:26.077436  5892 net.cpp:122] Setting up label_val-data_1_split
I0429 17:44:26.077448  5892 net.cpp:129] Top shape: 32 (32)
I0429 17:44:26.077457  5892 net.cpp:129] Top shape: 32 (32)
I0429 17:44:26.077463  5892 net.cpp:137] Memory required for data: 19787520
I0429 17:44:26.077469  5892 layer_factory.hpp:77] Creating layer conv1
I0429 17:44:26.077482  5892 net.cpp:84] Creating Layer conv1
I0429 17:44:26.077492  5892 net.cpp:406] conv1 <- data
I0429 17:44:26.077500  5892 net.cpp:380] conv1 -> conv1
I0429 17:44:26.080124  5892 net.cpp:122] Setting up conv1
I0429 17:44:26.080142  5892 net.cpp:129] Top shape: 32 96 55 55 (9292800)
I0429 17:44:26.080147  5892 net.cpp:137] Memory required for data: 56958720
I0429 17:44:26.080163  5892 layer_factory.hpp:77] Creating layer relu1
I0429 17:44:26.080171  5892 net.cpp:84] Creating Layer relu1
I0429 17:44:26.080178  5892 net.cpp:406] relu1 <- conv1
I0429 17:44:26.080185  5892 net.cpp:367] relu1 -> conv1 (in-place)
I0429 17:44:26.080868  5892 net.cpp:122] Setting up relu1
I0429 17:44:26.080883  5892 net.cpp:129] Top shape: 32 96 55 55 (9292800)
I0429 17:44:26.080890  5892 net.cpp:137] Memory required for data: 94129920
I0429 17:44:26.080900  5892 layer_factory.hpp:77] Creating layer norm1
I0429 17:44:26.080915  5892 net.cpp:84] Creating Layer norm1
I0429 17:44:26.080926  5892 net.cpp:406] norm1 <- conv1
I0429 17:44:26.080937  5892 net.cpp:380] norm1 -> norm1
I0429 17:44:26.083812  5892 net.cpp:122] Setting up norm1
I0429 17:44:26.083835  5892 net.cpp:129] Top shape: 32 96 55 55 (9292800)
I0429 17:44:26.083847  5892 net.cpp:137] Memory required for data: 131301120
I0429 17:44:26.083855  5892 layer_factory.hpp:77] Creating layer pool1
I0429 17:44:26.083871  5892 net.cpp:84] Creating Layer pool1
I0429 17:44:26.083884  5892 net.cpp:406] pool1 <- norm1
I0429 17:44:26.083896  5892 net.cpp:380] pool1 -> pool1
I0429 17:44:26.083950  5892 net.cpp:122] Setting up pool1
I0429 17:44:26.083963  5892 net.cpp:129] Top shape: 32 96 27 27 (2239488)
I0429 17:44:26.083972  5892 net.cpp:137] Memory required for data: 140259072
I0429 17:44:26.083983  5892 layer_factory.hpp:77] Creating layer conv2
I0429 17:44:26.084000  5892 net.cpp:84] Creating Layer conv2
I0429 17:44:26.084012  5892 net.cpp:406] conv2 <- pool1
I0429 17:44:26.084059  5892 net.cpp:380] conv2 -> conv2
I0429 17:44:26.114989  5892 net.cpp:122] Setting up conv2
I0429 17:44:26.115015  5892 net.cpp:129] Top shape: 32 256 27 27 (5971968)
I0429 17:44:26.115025  5892 net.cpp:137] Memory required for data: 164146944
I0429 17:44:26.115041  5892 layer_factory.hpp:77] Creating layer relu2
I0429 17:44:26.115054  5892 net.cpp:84] Creating Layer relu2
I0429 17:44:26.115062  5892 net.cpp:406] relu2 <- conv2
I0429 17:44:26.115075  5892 net.cpp:367] relu2 -> conv2 (in-place)
I0429 17:44:26.115725  5892 net.cpp:122] Setting up relu2
I0429 17:44:26.115742  5892 net.cpp:129] Top shape: 32 256 27 27 (5971968)
I0429 17:44:26.115749  5892 net.cpp:137] Memory required for data: 188034816
I0429 17:44:26.115757  5892 layer_factory.hpp:77] Creating layer norm2
I0429 17:44:26.115770  5892 net.cpp:84] Creating Layer norm2
I0429 17:44:26.115777  5892 net.cpp:406] norm2 <- conv2
I0429 17:44:26.115787  5892 net.cpp:380] norm2 -> norm2
I0429 17:44:26.116488  5892 net.cpp:122] Setting up norm2
I0429 17:44:26.116505  5892 net.cpp:129] Top shape: 32 256 27 27 (5971968)
I0429 17:44:26.116514  5892 net.cpp:137] Memory required for data: 211922688
I0429 17:44:26.116523  5892 layer_factory.hpp:77] Creating layer pool2
I0429 17:44:26.116539  5892 net.cpp:84] Creating Layer pool2
I0429 17:44:26.116546  5892 net.cpp:406] pool2 <- norm2
I0429 17:44:26.116555  5892 net.cpp:380] pool2 -> pool2
I0429 17:44:26.116595  5892 net.cpp:122] Setting up pool2
I0429 17:44:26.116606  5892 net.cpp:129] Top shape: 32 256 13 13 (1384448)
I0429 17:44:26.116613  5892 net.cpp:137] Memory required for data: 217460480
I0429 17:44:26.116618  5892 layer_factory.hpp:77] Creating layer conv3
I0429 17:44:26.116636  5892 net.cpp:84] Creating Layer conv3
I0429 17:44:26.116642  5892 net.cpp:406] conv3 <- pool2
I0429 17:44:26.116653  5892 net.cpp:380] conv3 -> conv3
I0429 17:44:26.129442  5892 net.cpp:122] Setting up conv3
I0429 17:44:26.129472  5892 net.cpp:129] Top shape: 32 384 13 13 (2076672)
I0429 17:44:26.129480  5892 net.cpp:137] Memory required for data: 225767168
I0429 17:44:26.129501  5892 layer_factory.hpp:77] Creating layer relu3
I0429 17:44:26.129516  5892 net.cpp:84] Creating Layer relu3
I0429 17:44:26.129526  5892 net.cpp:406] relu3 <- conv3
I0429 17:44:26.129539  5892 net.cpp:367] relu3 -> conv3 (in-place)
I0429 17:44:26.133510  5892 net.cpp:122] Setting up relu3
I0429 17:44:26.133528  5892 net.cpp:129] Top shape: 32 384 13 13 (2076672)
I0429 17:44:26.133536  5892 net.cpp:137] Memory required for data: 234073856
I0429 17:44:26.133544  5892 layer_factory.hpp:77] Creating layer conv4
I0429 17:44:26.133561  5892 net.cpp:84] Creating Layer conv4
I0429 17:44:26.133569  5892 net.cpp:406] conv4 <- conv3
I0429 17:44:26.133579  5892 net.cpp:380] conv4 -> conv4
I0429 17:44:26.163609  5892 net.cpp:122] Setting up conv4
I0429 17:44:26.163635  5892 net.cpp:129] Top shape: 32 384 13 13 (2076672)
I0429 17:44:26.163645  5892 net.cpp:137] Memory required for data: 242380544
I0429 17:44:26.163661  5892 layer_factory.hpp:77] Creating layer relu4
I0429 17:44:26.163676  5892 net.cpp:84] Creating Layer relu4
I0429 17:44:26.163686  5892 net.cpp:406] relu4 <- conv4
I0429 17:44:26.163700  5892 net.cpp:367] relu4 -> conv4 (in-place)
I0429 17:44:26.164324  5892 net.cpp:122] Setting up relu4
I0429 17:44:26.164341  5892 net.cpp:129] Top shape: 32 384 13 13 (2076672)
I0429 17:44:26.164351  5892 net.cpp:137] Memory required for data: 250687232
I0429 17:44:26.164361  5892 layer_factory.hpp:77] Creating layer conv5
I0429 17:44:26.164379  5892 net.cpp:84] Creating Layer conv5
I0429 17:44:26.164388  5892 net.cpp:406] conv5 <- conv4
I0429 17:44:26.164399  5892 net.cpp:380] conv5 -> conv5
I0429 17:44:26.180997  5892 net.cpp:122] Setting up conv5
I0429 17:44:26.181025  5892 net.cpp:129] Top shape: 32 256 13 13 (1384448)
I0429 17:44:26.181033  5892 net.cpp:137] Memory required for data: 256225024
I0429 17:44:26.181057  5892 layer_factory.hpp:77] Creating layer relu5
I0429 17:44:26.181075  5892 net.cpp:84] Creating Layer relu5
I0429 17:44:26.181082  5892 net.cpp:406] relu5 <- conv5
I0429 17:44:26.181123  5892 net.cpp:367] relu5 -> conv5 (in-place)
I0429 17:44:26.181988  5892 net.cpp:122] Setting up relu5
I0429 17:44:26.182003  5892 net.cpp:129] Top shape: 32 256 13 13 (1384448)
I0429 17:44:26.182011  5892 net.cpp:137] Memory required for data: 261762816
I0429 17:44:26.182021  5892 layer_factory.hpp:77] Creating layer pool5
I0429 17:44:26.182037  5892 net.cpp:84] Creating Layer pool5
I0429 17:44:26.182046  5892 net.cpp:406] pool5 <- conv5
I0429 17:44:26.182058  5892 net.cpp:380] pool5 -> pool5
I0429 17:44:26.182111  5892 net.cpp:122] Setting up pool5
I0429 17:44:26.182126  5892 net.cpp:129] Top shape: 32 256 6 6 (294912)
I0429 17:44:26.182133  5892 net.cpp:137] Memory required for data: 262942464
I0429 17:44:26.182140  5892 layer_factory.hpp:77] Creating layer fc6
I0429 17:44:26.182152  5892 net.cpp:84] Creating Layer fc6
I0429 17:44:26.182163  5892 net.cpp:406] fc6 <- pool5
I0429 17:44:26.182176  5892 net.cpp:380] fc6 -> fc6
I0429 17:44:26.640251  5892 net.cpp:122] Setting up fc6
I0429 17:44:26.640286  5892 net.cpp:129] Top shape: 32 4096 (131072)
I0429 17:44:26.640297  5892 net.cpp:137] Memory required for data: 263466752
I0429 17:44:26.640316  5892 layer_factory.hpp:77] Creating layer relu6
I0429 17:44:26.640332  5892 net.cpp:84] Creating Layer relu6
I0429 17:44:26.640344  5892 net.cpp:406] relu6 <- fc6
I0429 17:44:26.640357  5892 net.cpp:367] relu6 -> fc6 (in-place)
I0429 17:44:26.680739  5892 net.cpp:122] Setting up relu6
I0429 17:44:26.680768  5892 net.cpp:129] Top shape: 32 4096 (131072)
I0429 17:44:26.680778  5892 net.cpp:137] Memory required for data: 263991040
I0429 17:44:26.680789  5892 layer_factory.hpp:77] Creating layer drop6
I0429 17:44:26.680806  5892 net.cpp:84] Creating Layer drop6
I0429 17:44:26.680815  5892 net.cpp:406] drop6 <- fc6
I0429 17:44:26.680835  5892 net.cpp:367] drop6 -> fc6 (in-place)
I0429 17:44:26.680881  5892 net.cpp:122] Setting up drop6
I0429 17:44:26.680892  5892 net.cpp:129] Top shape: 32 4096 (131072)
I0429 17:44:26.680900  5892 net.cpp:137] Memory required for data: 264515328
I0429 17:44:26.680907  5892 layer_factory.hpp:77] Creating layer fc7
I0429 17:44:26.680922  5892 net.cpp:84] Creating Layer fc7
I0429 17:44:26.680932  5892 net.cpp:406] fc7 <- fc6
I0429 17:44:26.680944  5892 net.cpp:380] fc7 -> fc7
I0429 17:44:26.920766  5892 net.cpp:122] Setting up fc7
I0429 17:44:26.920799  5892 net.cpp:129] Top shape: 32 4096 (131072)
I0429 17:44:26.920810  5892 net.cpp:137] Memory required for data: 265039616
I0429 17:44:26.920831  5892 layer_factory.hpp:77] Creating layer relu7
I0429 17:44:26.920850  5892 net.cpp:84] Creating Layer relu7
I0429 17:44:26.920864  5892 net.cpp:406] relu7 <- fc7
I0429 17:44:26.920881  5892 net.cpp:367] relu7 -> fc7 (in-place)
I0429 17:44:26.921659  5892 net.cpp:122] Setting up relu7
I0429 17:44:26.921681  5892 net.cpp:129] Top shape: 32 4096 (131072)
I0429 17:44:26.921690  5892 net.cpp:137] Memory required for data: 265563904
I0429 17:44:26.921701  5892 layer_factory.hpp:77] Creating layer drop7
I0429 17:44:26.921713  5892 net.cpp:84] Creating Layer drop7
I0429 17:44:26.921723  5892 net.cpp:406] drop7 <- fc7
I0429 17:44:26.921734  5892 net.cpp:367] drop7 -> fc7 (in-place)
I0429 17:44:26.921777  5892 net.cpp:122] Setting up drop7
I0429 17:44:26.921792  5892 net.cpp:129] Top shape: 32 4096 (131072)
I0429 17:44:26.921802  5892 net.cpp:137] Memory required for data: 266088192
I0429 17:44:26.921813  5892 layer_factory.hpp:77] Creating layer fc8
I0429 17:44:26.921831  5892 net.cpp:84] Creating Layer fc8
I0429 17:44:26.921841  5892 net.cpp:406] fc8 <- fc7
I0429 17:44:26.921856  5892 net.cpp:380] fc8 -> fc8
I0429 17:44:26.934440  5892 net.cpp:122] Setting up fc8
I0429 17:44:26.934459  5892 net.cpp:129] Top shape: 32 196 (6272)
I0429 17:44:26.934468  5892 net.cpp:137] Memory required for data: 266113280
I0429 17:44:26.934522  5892 layer_factory.hpp:77] Creating layer fc8_fc8_0_split
I0429 17:44:26.934540  5892 net.cpp:84] Creating Layer fc8_fc8_0_split
I0429 17:44:26.934546  5892 net.cpp:406] fc8_fc8_0_split <- fc8
I0429 17:44:26.934587  5892 net.cpp:380] fc8_fc8_0_split -> fc8_fc8_0_split_0
I0429 17:44:26.934599  5892 net.cpp:380] fc8_fc8_0_split -> fc8_fc8_0_split_1
I0429 17:44:26.934653  5892 net.cpp:122] Setting up fc8_fc8_0_split
I0429 17:44:26.934660  5892 net.cpp:129] Top shape: 32 196 (6272)
I0429 17:44:26.934669  5892 net.cpp:129] Top shape: 32 196 (6272)
I0429 17:44:26.934675  5892 net.cpp:137] Memory required for data: 266163456
I0429 17:44:26.934684  5892 layer_factory.hpp:77] Creating layer accuracy
I0429 17:44:26.934696  5892 net.cpp:84] Creating Layer accuracy
I0429 17:44:26.934702  5892 net.cpp:406] accuracy <- fc8_fc8_0_split_0
I0429 17:44:26.934711  5892 net.cpp:406] accuracy <- label_val-data_1_split_0
I0429 17:44:26.934720  5892 net.cpp:380] accuracy -> accuracy
…
