…
I0501 17:56:09.646613 30632 net.cpp:294] The NetState phase (0) differed from the phase (1) specified by a rule in layer loss3/top-5
I0501 17:56:09.648124 30632 net.cpp:51] Initializing net from parameters:
state {
phase: TRAIN
level: 0
stage: ""
}
layer {
name: "train-data"
type: "Data"
top: "data"
top: "label"
include {
phase: TRAIN
}
transform_param {
mirror: true
crop_size: 224
mean_file: "/mnt/bigdisk/MANDIG2/digits/jobs/20200428-132136-11fe/mean.binaryproto"
}
data_param {
source: "/mnt/bigdisk/MANDIG2/digits/jobs/20200428-132136-11fe/train_db"
batch_size: 32
backend: LMDB
}
}
layer {
name: "conv1/7x7_s2"
type: "Convolution"
bottom: "data"
top: "conv1/7x7_s2"
param {
lr_mult: 1
decay_mult: 1
}
param {
lr_mult: 2
decay_mult: 0
}
convolution_param {
num_output: 64
pad: 3
kernel_size: 7
stride: 2
weight_filler {
type: "xavier"
std: 0.1
}
bias_filler {
type: "constant"
value: 0.2
}
}
}
layer {
name: "conv1/relu_7x7"
type: "ReLU"
bottom: "conv1/7x7_s2"
top: "conv1/7x7_s2"
}
layer {
name: "pool1/3x3_s2"
type: "Pooling"
bottom: "conv1/7x7_s2"
top: "pool1/3x3_s2"
pooling_param {
pool: MAX
kernel_size: 3
stride: 2
}
}
layer {
name: "pool1/norm1"
type: "LRN"
bottom: "pool1/3x3_s2"
top: "pool1/norm1"
lrn_param {
local_size: 5
alpha: 0.0001
beta: 0.75
}
}
layer {
name: "conv2/3x3_reduce"
type: "Convolution"
bottom: "pool1/norm1"
top: "conv2/3x3_reduce"
param {
lr_mult: 1
decay_mult: 1
}
param {
lr_mult: 2
decay_mult: 0
}
convolution_param {
num_output: 64
kernel_size: 1
weight_filler {
type: "xavier"
std: 0.1
}
bias_filler {
type: "constant"
value: 0.2
}
}
}
layer {
name: "conv2/relu_3x3_reduce"
type: "ReLU"
bottom: "conv2/3x3_reduce"
top: "conv2/3x3_reduce"
}
layer {
name: "conv2/3x3"
type: "Convolution"
bottom: "conv2/3x3_reduce"
top: "conv2/3x3"
param {
lr_mult: 1
decay_mult: 1
}
param {
lr_mult: 2
decay_mult: 0
}
convolution_param {
num_output: 192
pad: 1
kernel_size: 3
weight_filler {
type: "xavier"
std: 0.03
}
bias_filler {
type: "constant"
value: 0.2
}
}
}
layer {
name: "conv2/relu_3x3"
type: "ReLU"
bottom: "conv2/3x3"
top: "conv2/3x3"
}
layer {
name: "conv2/norm2"
type: "LRN"
bottom: "conv2/3x3"
top: "conv2/norm2"
lrn_param {
local_size: 5
alpha: 0.0001
beta: 0.75
}
}
layer {
name: "pool2/3x3_s2"
type: "Pooling"
bottom: "conv2/norm2"
top: "pool2/3x3_s2"
pooling_param {
pool: MAX
kernel_size: 3
stride: 2
}
}
layer {
name: "inception_3a/1x1"
type: "Convolution"
bottom: "pool2/3x3_s2"
top: "inception_3a/1x1"
param {
lr_mult: 1
decay_mult: 1
}
param {
lr_mult: 2
decay_mult: 0
}
convolution_param {
num_output: 64
kernel_size: 1
weight_filler {
type: "xavier"
std: 0.03
}
bias_filler {
type: "constant"
value: 0.2
}
}
}
layer {
name: "inception_3a/relu_1x1"
type: "ReLU"
bottom: "inception_3a/1x1"
top: "inception_3a/1x1"
}
layer {
name: "inception_3a/3x3_reduce"
type: "Convolution"
bottom: "pool2/3x3_s2"
top: "inception_3a/3x3_reduce"
param {
lr_mult: 1
decay_mult: 1
}
param {
lr_mult: 2
decay_mult: 0
}
convolution_param {
num_output: 96
kernel_size: 1
weight_filler {
type: "xavier"
std: 0.09
}
bias_filler {
type: "constant"
value: 0.2
}
}
}
layer {
name: "inception_3a/relu_3x3_reduce"
type: "ReLU"
bottom: "inception_3a/3x3_reduce"
top: "inception_3a/3x3_reduce"
}
layer {
name: "inception_3a/3x3"
type: "Convolution"
bottom: "inception_3a/3x3_reduce"
top: "inception_3a/3x3"
param {
lr_mult: 1
decay_mult: 1
}
param {
lr_mult: 2
decay_mult: 0
}
convolution_param {
num_output: 128
pad: 1
kernel_size: 3
weight_filler {
type: "xavier"
std: 0.03
}
bias_filler {
type: "constant"
value: 0.2
}
}
}
layer {
name: "inception_3a/relu_3x3"
type: "ReLU"
bottom: "inception_3a/3x3"
top: "inception_3a/3x3"
}
layer {
name: "inception_3a/5x5_reduce"
type: "Convolution"
bottom: "pool2/3x3_s2"
top: "inception_3a/5x5_reduce"
param {
lr_mult: 1
decay_mult: 1
}
param {
lr_mult: 2
decay_mult: 0
}
convolution_param {
num_output: 16
kernel_size: 1
weight_filler {
type: "xavier"
std: 0.2
}
bias_filler {
type: "constant"
value: 0.2
}
}
}
layer {
name: "inception_3a/relu_5x5_reduce"
type: "ReLU"
bottom: "inception_3a/5x5_reduce"
top: "inception_3a/5x5_reduce"
}
layer {
name: "inception_3a/5x5"
type: "Convolution"
bottom: "inception_3a/5x5_reduce"
top: "inception_3a/5x5"
param {
lr_mult: 1
decay_mult: 1
}
param {
lr_mult: 2
decay_mult: 0
}
convolution_param {
num_output: 32
pad: 2
kernel_size: 5
weight_filler {
type: "xavier"
std: 0.03
}
bias_filler {
type: "constant"
value: 0.2
}
}
}
layer {
name: "inception_3a/relu_5x5"
type: "ReLU"
bottom: "inception_3a/5x5"
top: "inception_3a/5x5"
}
layer {
name: "inception_3a/pool"
type: "Pooling"
bottom: "pool2/3x3_s2"
top: "inception_3a/pool"
pooling_param {
pool: MAX
kernel_size: 3
stride: 1
pad: 1
}
}
layer {
name: "inception_3a/pool_proj"
type: "Convolution"
bottom: "inception_3a/pool"
top: "inception_3a/pool_proj"
param {
lr_mult: 1
decay_mult: 1
}
param {
lr_mult: 2
decay_mult: 0
}
convolution_param {
num_output: 32
kernel_size: 1
weight_filler {
type: "xavier"
std: 0.1
}
bias_filler {
type: "constant"
value: 0.2
}
}
}
layer {
name: "inception_3a/relu_pool_proj"
type: "ReLU"
bottom: "inception_3a/pool_proj"
top: "inception_3a/pool_proj"
}
layer {
name: "inception_3a/output"
type: "Concat"
bottom: "inception_3a/1x1"
bottom: "inception_3a/3x3"
bottom: "inception_3a/5x5"
bottom: "inception_3a/pool_proj"
top: "inception_3a/output"
}
layer {
name: "inception_3b/1x1"
type: "Convolution"
bottom: "inception_3a/output"
top: "inception_3b/1x1"
param {
lr_mult: 1
decay_mult: 1
}
param {
lr_mult: 2
decay_mult: 0
}
convolution_param {
num_output: 128
kernel_size: 1
weight_filler {
type: "xavier"
std: 0.03
}
bias_filler {
type: "constant"
value: 0.2
}
}
}
layer {
name: "inception_3b/relu_1x1"
type: "ReLU"
bottom: "inception_3b/1x1"
top: "inception_3b/1x1"
}
layer {
name: "inception_3b/3x3_reduce"
type: "Convolution"
bottom: "inception_3a/output"
top: "inception_3b/3x3_reduce"
param {
lr_mult: 1
decay_mult: 1
}
param {
lr_mult: 2
decay_mult: 0
}
convolution_param {
num_output: 128
kernel_size: 1
weight_filler {
type: "xavier"
std: 0.09
}
bias_filler {
type: "constant"
value: 0.2
}
}
}
layer {
name: "inception_3b/relu_3x3_reduce"
type: "ReLU"
bottom: "inception_3b/3x3_reduce"
top: "inception_3b/3x3_reduce"
}
layer {
name: "inception_3b/3x3"
type: "Convolution"
bottom: "inception_3b/3x3_reduce"
top: "inception_3b/3x3"
param {
lr_mult: 1
decay_mult: 1
}
param {
lr_mult: 2
decay_mult: 0
}
convolution_param {
num_output: 192
pad: 1
kernel_size: 3
weight_filler {
type: "xavier"
std: 0.03
}
bias_filler {
type: "constant"
value: 0.2
}
}
}
layer {
name: "inception_3b/relu_3x3"
type: "ReLU"
bottom: "inception_3b/3x3"
top: "inception_3b/3x3"
}
layer {
name: "inception_3b/5x5_reduce"
type: "Convolution"
bottom: "inception_3a/output"
top: "inception_3b/5x5_reduce"
param {
lr_mult: 1
decay_mult: 1
}
param {
lr_mult: 2
decay_mult: 0
}
convolution_param {
num_output: 32
kernel_size: 1
weight_filler {
type: "xavier"
std: 0.2
}
bias_filler {
type: "constant"
value: 0.2
}
}
}
layer {
name: "inception_3b/relu_5x5_reduce"
type: "ReLU"
bottom: "inception_3b/5x5_reduce"
top: "inception_3b/5x5_reduce"
}
layer {
name: "inception_3b/5x5"
type: "Convolution"
bottom: "inception_3b/5x5_reduce"
top: "inception_3b/5x5"
param {
lr_mult: 1
decay_mult: 1
}
param {
lr_mult: 2
decay_mult: 0
}
convolution_param {
num_output: 96
pad: 2
kernel_size: 5
weight_filler {
type: "xavier"
std: 0.03
}
bias_filler {
type: "constant"
value: 0.2
}
}
}
layer {
name: "inception_3b/relu_5x5"
type: "ReLU"
bottom: "inception_3b/5x5"
top: "inception_3b/5x5"
}
layer {
name: "inception_3b/pool"
type: "Pooling"
bottom: "inception_3a/output"
top: "inception_3b/pool"
pooling_param {
pool: MAX
kernel_size: 3
stride: 1
pad: 1
}
}
layer {
name: "inception_3b/pool_proj"
type: "Convolution"
bottom: "inception_3b/pool"
top: "inception_3b/pool_proj"
param {
lr_mult: 1
decay_mult: 1
}
param {
lr_mult: 2
decay_mult: 0
}
convolution_param {
num_output: 64
kernel_size: 1
weight_filler {
type: "xavier"
std: 0.1
}
bias_filler {
type: "constant"
value: 0.2
}
}
}
layer {
name: "inception_3b/relu_pool_proj"
type: "ReLU"
bottom: "inception_3b/pool_proj"
top: "inception_3b/pool_proj"
}
layer {
name: "inception_3b/output"
type: "Concat"
bottom: "inception_3b/1x1"
bottom: "inception_3b/3x3"
bottom: "inception_3b/5x5"
bottom: "inception_3b/pool_proj"
top: "inception_3b/output"
}
layer {
name: "pool3/3x3_s2"
type: "Pooling"
bottom: "inception_3b/output"
top: "pool3/3x3_s2"
pooling_param {
pool: MAX
kernel_size: 3
stride: 2
}
}
layer {
name: "inception_4a/1x1"
type: "Convolution"
bottom: "pool3/3x3_s2"
top: "inception_4a/1x1"
param {
lr_mult: 1
decay_mult: 1
}
param {
lr_mult: 2
decay_mult: 0
}
convolution_param {
num_output: 192
kernel_size: 1
weight_filler {
type: "xavier"
std: 0.03
}
bias_filler {
type: "constant"
value: 0.2
}
}
}
layer {
name: "inception_4a/relu_1x1"
type: "ReLU"
bottom: "inception_4a/1x1"
top: "inception_4a/1x1"
}
layer {
name: "inception_4a/3x3_reduce"
type: "Convolution"
bottom: "pool3/3x3_s2"
top: "inception_4a/3x3_reduce"
param {
lr_mult: 1
decay_mult: 1
}
param {
lr_mult: 2
decay_mult: 0
}
convolution_param {
num_output: 96
kernel_size: 1
weight_filler {
type: "xavier"
std: 0.09
}
bias_filler {
type: "constant"
value: 0.2
}
}
}
layer {
name: "inception_4a/relu_3x3_reduce"
type: "ReLU"
bottom: "inception_4a/3x3_reduce"
top: "inception_4a/3x3_reduce"
}
layer {
name: "inception_4a/3x3"
type: "Convolution"
bottom: "inception_4a/3x3_reduce"
top: "inception_4a/3x3"
param {
lr_mult: 1
decay_mult: 1
}
param {
lr_mult: 2
decay_mult: 0
}
convolution_param {
num_output: 208
pad: 1
kernel_size: 3
weight_filler {
type: "xavier"
std: 0.03
}
bias_filler {
type: "constant"
value: 0.2
}
}
}
layer {
name: "inception_4a/relu_3x3"
type: "ReLU"
bottom: "inception_4a/3x3"
top: "inception_4a/3x3"
}
layer {
name: "inception_4a/5x5_reduce"
type: "Convolution"
bottom: "pool3/3x3_s2"
top: "inception_4a/5x5_reduce"
param {
lr_mult: 1
decay_mult: 1
}
param {
lr_mult: 2
decay_mult: 0
}
convolution_param {
num_output: 16
kernel_size: 1
weight_filler {
type: "xavier"
std: 0.2
}
bias_filler {
type: "constant"
value: 0.2
}
}
}
layer {
name: "inception_4a/relu_5x5_reduce"
type: "ReLU"
bottom: "inception_4a/5x5_reduce"
top: "inception_4a/5x5_reduce"
}
layer {
name: "inception_4a/5x5"
type: "Convolution"
bottom: "inception_4a/5x5_reduce"
top: "inception_4a/5x5"
param {
lr_mult: 1
decay_mult: 1
}
param {
lr_mult: 2
decay_mult: 0
}
convolution_param {
num_output: 48
pad: 2
kernel_size: 5
weight_filler {
type: "xavier"
std: 0.03
}
bias_filler {
type: "constant"
value: 0.2
}
}
}
layer {
name: "inception_4a/relu_5x5"
type: "ReLU"
bottom: "inception_4a/5x5"
top: "inception_4a/5x5"
}
layer {
name: "inception_4a/pool"
type: "Pooling"
bottom: "pool3/3x3_s2"
top: "inception_4a/pool"
pooling_param {
pool: MAX
kernel_size: 3
stride: 1
pad: 1
}
}
layer {
name: "inception_4a/pool_proj"
type: "Convolution"
bottom: "inception_4a/pool"
top: "inception_4a/pool_proj"
param {
lr_mult: 1
decay_mult: 1
}
param {
lr_mult: 2
decay_mult: 0
}
convolution_param {
num_output: 64
kernel_size: 1
weight_filler {
type: "xavier"
std: 0.1
}
bias_filler {
type: "constant"
value: 0.2
}
}
}
layer {
name: "inception_4a/relu_pool_proj"
type: "ReLU"
bottom: "inception_4a/pool_proj"
top: "inception_4a/pool_proj"
}
layer {
name: "inception_4a/output"
type: "Concat"
bottom: "inception_4a/1x1"
bottom: "inception_4a/3x3"
bottom: "inception_4a/5x5"
bottom: "inception_4a/pool_proj"
top: "inception_4a/output"
}
layer {
name: "loss1/ave_pool"
type: "Pooling"
bottom: "inception_4a/output"
top: "loss1/ave_pool"
pooling_param {
pool: AVE
kernel_size: 5
stride: 3
}
}
layer {
name: "loss1/conv"
type: "Convolution"
bottom: "loss1/ave_pool"
top: "loss1/conv"
param {
lr_mult: 1
decay_mult: 1
}
param {
lr_mult: 2
decay_mult: 0
}
convolution_param {
num_output: 128
kernel_size: 1
weight_filler {
type: "xavier"
std: 0.08
}
bias_filler {
type: "constant"
value: 0.2
}
}
}
layer {
name: "loss1/relu_conv"
type: "ReLU"
bottom: "loss1/conv"
top: "loss1/conv"
}
layer {
name: "loss1/fc"
type: "InnerProduct"
bottom: "loss1/conv"
top: "loss1/fc"
param {
lr_mult: 1
decay_mult: 1
}
param {
lr_mult: 2
decay_mult: 0
}
inner_product_param {
num_output: 1024
weight_filler {
type: "xavier"
std: 0.02
}
bias_filler {
type: "constant"
value: 0.2
}
}
}
layer {
name: "loss1/relu_fc"
type: "ReLU"
bottom: "loss1/fc"
top: "loss1/fc"
}
layer {
name: "loss1/drop_fc"
type: "Dropout"
bottom: "loss1/fc"
top: "loss1/fc"
dropout_param {
dropout_ratio: 0.7
}
}
layer {
name: "loss1/classifier"
type: "InnerProduct"
bottom: "loss1/fc"
top: "loss1/classifier"
param {
lr_mult: 1
decay_mult: 1
}
param {
lr_mult: 2
decay_mult: 0
}
inner_product_param {
num_output: 196
weight_filler {
type: "xavier"
std: 0.0009765625
}
bias_filler {
type: "constant"
value: 0
}
}
}
layer {
name: "loss1/loss"
type: "SoftmaxWithLoss"
bottom: "loss1/classifier"
bottom: "label"
top: "loss1/loss"
loss_weight: 0.3
}
layer {
name: "inception_4b/1x1"
type: "Convolution"
bottom: "inception_4a/output"
top: "inception_4b/1x1"
param {
lr_mult: 1
decay_mult: 1
}
param {
lr_mult: 2
decay_mult: 0
}
convolution_param {
num_output: 160
kernel_size: 1
weight_filler {
type: "xavier"
std: 0.03
}
bias_filler {
type: "constant"
value: 0.2
}
}
}
layer {
name: "inception_4b/relu_1x1"
type: "ReLU"
bottom: "inception_4b/1x1"
top: "inception_4b/1x1"
}
layer {
name: "inception_4b/3x3_reduce"
type: "Convolution"
bottom: "inception_4a/output"
top: "inception_4b/3x3_reduce"
param {
lr_mult: 1
decay_mult: 1
}
param {
lr_mult: 2
decay_mult: 0
}
convolution_param {
num_output: 112
kernel_size: 1
weight_filler {
type: "xavier"
std: 0.09
}
bias_filler {
type: "constant"
value: 0.2
}
}
}
layer {
name: "inception_4b/relu_3x3_reduce"
type: "ReLU"
bottom: "inception_4b/3x3_reduce"
top: "inception_4b/3x3_reduce"
}
layer {
name: "inception_4b/3x3"
type: "Convolution"
bottom: "inception_4b/3x3_reduce"
top: "inception_4b/3x3"
param {
lr_mult: 1
decay_mult: 1
}
param {
lr_mult: 2
decay_mult: 0
}
convolution_param {
num_output: 224
pad: 1
kernel_size: 3
weight_filler {
type: "xavier"
std: 0.03
}
bias_filler {
type: "constant"
value: 0.2
}
}
}
layer {
name: "inception_4b/relu_3x3"
type: "ReLU"
bottom: "inception_4b/3x3"
top: "inception_4b/3x3"
}
layer {
name: "inception_4b/5x5_reduce"
type: "Convolution"
bottom: "inception_4a/output"
top: "inception_4b/5x5_reduce"
param {
lr_mult: 1
decay_mult: 1
}
param {
lr_mult: 2
decay_mult: 0
}
convolution_param {
num_output: 24
kernel_size: 1
weight_filler {
type: "xavier"
std: 0.2
}
bias_filler {
type: "constant"
value: 0.2
}
}
}
layer {
name: "inception_4b/relu_5x5_reduce"
type: "ReLU"
bottom: "inception_4b/5x5_reduce"
top: "inception_4b/5x5_reduce"
}
layer {
name: "inception_4b/5x5"
type: "Convolution"
bottom: "inception_4b/5x5_reduce"
top: "inception_4b/5x5"
param {
lr_mult: 1
decay_mult: 1
}
param {
lr_mult: 2
decay_mult: 0
}
convolution_param {
num_output: 64
pad: 2
kernel_size: 5
weight_filler {
type: "xavier"
std: 0.03
}
bias_filler {
type: "constant"
value: 0.2
}
}
}
layer {
name: "inception_4b/relu_5x5"
type: "ReLU"
bottom: "inception_4b/5x5"
top: "inception_4b/5x5"
}
layer {
name: "inception_4b/pool"
type: "Pooling"
bottom: "inception_4a/output"
top: "inception_4b/pool"
pooling_param {
pool: MAX
kernel_size: 3
stride: 1
pad: 1
}
}
layer {
name: "inception_4b/pool_proj"
type: "Convolution"
bottom: "inception_4b/pool"
top: "inception_4b/pool_proj"
param {
lr_mult: 1
decay_mult: 1
}
param {
lr_mult: 2
decay_mult: 0
}
convolution_param {
num_output: 64
kernel_size: 1
weight_filler {
type: "xavier"
std: 0.1
}
bias_filler {
type: "constant"
value: 0.2
}
}
}
layer {
name: "inception_4b/relu_pool_proj"
type: "ReLU"
bottom: "inception_4b/pool_proj"
top: "inception_4b/pool_proj"
}
layer {
name: "inception_4b/output"
type: "Concat"
bottom: "inception_4b/1x1"
bottom: "inception_4b/3x3"
bottom: "inception_4b/5x5"
bottom: "inception_4b/pool_proj"
top: "inception_4b/output"
}
layer {
name: "inception_4c/1x1"
type: "Convolution"
bottom: "inception_4b/output"
top: "inception_4c/1x1"
param {
lr_mult: 1
decay_mult: 1
}
param {
lr_mult: 2
decay_mult: 0
}
convolution_param {
num_output: 128
kernel_size: 1
weight_filler {
type: "xavier"
std: 0.03
}
bias_filler {
type: "constant"
value: 0.2
}
}
}
layer {
name: "inception_4c/relu_1x1"
type: "ReLU"
bottom: "inception_4c/1x1"
top: "inception_4c/1x1"
}
layer {
name: "inception_4c/3x3_reduce"
type: "Convolution"
bottom: "inception_4b/output"
top: "inception_4c/3x3_reduce"
param {
lr_mult: 1
decay_mult: 1
}
param {
lr_mult: 2
decay_mult: 0
}
convolution_param {
num_output: 128
kernel_size: 1
weight_filler {
type: "xavier"
std: 0.09
}
bias_filler {
type: "constant"
value: 0.2
}
}
}
layer {
name: "inception_4c/relu_3x3_reduce"
type: "ReLU"
bottom: "inception_4c/3x3_reduce"
top: "inception_4c/3x3_reduce"
}
layer {
name: "inception_4c/3x3"
type: "Convolution"
bottom: "inception_4c/3x3_reduce"
top: "inception_4c/3x3"
param {
lr_mult: 1
decay_mult: 1
}
param {
lr_mult: 2
decay_mult: 0
}
convolution_param {
num_output: 256
pad: 1
kernel_size: 3
weight_filler {
type: "xavier"
std: 0.03
}
bias_filler {
type: "constant"
value: 0.2
}
}
}
layer {
name: "inception_4c/relu_3x3"
type: "ReLU"
bottom: "inception_4c/3x3"
top: "inception_4c/3x3"
}
layer {
name: "inception_4c/5x5_reduce"
type: "Convolution"
bottom: "inception_4b/output"
top: "inception_4c/5x5_reduce"
param {
lr_mult: 1
decay_mult: 1
}
param {
lr_mult: 2
decay_mult: 0
}
convolution_param {
num_output: 24
kernel_size: 1
weight_filler {
type: "xavier"
std: 0.2
}
bias_filler {
type: "constant"
value: 0.2
}
}
}
layer {
name: "inception_4c/relu_5x5_reduce"
type: "ReLU"
bottom: "inception_4c/5x5_reduce"
top: "inception_4c/5x5_reduce"
}
layer {
name: "inception_4c/5x5"
type: "Convolution"
bottom: "inception_4c/5x5_reduce"
top: "inception_4c/5x5"
param {
lr_mult: 1
decay_mult: 1
}
param {
lr_mult: 2
decay_mult: 0
}
convolution_param {
num_output: 64
pad: 2
kernel_size: 5
weight_filler {
type: "xavier"
std: 0.03
}
bias_filler {
type: "constant"
value: 0.2
}
}
}
layer {
name: "inception_4c/relu_5x5"
type: "ReLU"
bottom: "inception_4c/5x5"
top: "inception_4c/5x5"
}
layer {
name: "inception_4c/pool"
type: "Pooling"
bottom: "inception_4b/output"
top: "inception_4c/pool"
pooling_param {
pool: MAX
kernel_size: 3
stride: 1
pad: 1
}
}
layer {
name: "inception_4c/pool_proj"
type: "Convolution"
bottom: "inception_4c/pool"
top: "inception_4c/pool_proj"
param {
lr_mult: 1
decay_mult: 1
}
param {
lr_mult: 2
decay_mult: 0
}
convolution_param {
num_output: 64
kernel_size: 1
weight_filler {
type: "xavier"
std: 0.1
}
bias_filler {
type: "constant"
value: 0.2
}
}
}
layer {
name: "inception_4c/relu_pool_proj"
type: "ReLU"
bottom: "inception_4c/pool_proj"
top: "inception_4c/pool_proj"
}
layer {
name: "inception_4c/output"
type: "Concat"
bottom: "inception_4c/1x1"
bottom: "inception_4c/3x3"
bottom: "inception_4c/5x5"
bottom: "inception_4c/pool_proj"
top: "inception_4c/output"
}
layer {
name: "inception_4d/1x1"
type: "Convolution"
bottom: "inception_4c/output"
top: "inception_4d/1x1"
param {
lr_mult: 1
decay_mult: 1
}
param {
lr_mult: 2
decay_mult: 0
}
convolution_param {
num_output: 112
kernel_size: 1
weight_filler {
type: "xavier"
std: 0.03
}
bias_filler {
type: "constant"
value: 0.2
}
}
}
layer {
name: "inception_4d/relu_1x1"
type: "ReLU"
bottom: "inception_4d/1x1"
top: "inception_4d/1x1"
}
layer {
name: "inception_4d/3x3_reduce"
type: "Convolution"
bottom: "inception_4c/output"
top: "inception_4d/3x3_reduce"
param {
lr_mult: 1
decay_mult: 1
}
param {
lr_mult: 2
decay_mult: 0
}
convolution_param {
num_output: 144
kernel_size: 1
weight_filler {
type: "xavier"
std: 0.09
}
bias_filler {
type: "constant"
value: 0.2
}
}
}
layer {
name: "inception_4d/relu_3x3_reduce"
type: "ReLU"
bottom: "inception_4d/3x3_reduce"
top: "inception_4d/3x3_reduce"
}
layer {
name: "inception_4d/3x3"
type: "Convolution"
bottom: "inception_4d/3x3_reduce"
top: "inception_4d/3x3"
param {
lr_mult: 1
decay_mult: 1
}
param {
lr_mult: 2
decay_mult: 0
}
convolution_param {
num_output: 288
pad: 1
kernel_size: 3
weight_filler {
type: "xavier"
std: 0.03
}
bias_filler {
type: "constant"
value: 0.2
}
}
}
layer {
name: "inception_4d/relu_3x3"
type: "ReLU"
bottom: "inception_4d/3x3"
top: "inception_4d/3x3"
}
layer {
name: "inception_4d/5x5_reduce"
type: "Convolution"
bottom: "inception_4c/output"
top: "inception_4d/5x5_reduce"
param {
lr_mult: 1
decay_mult: 1
}
param {
lr_mult: 2
decay_mult: 0
}
convolution_param {
num_output: 32
kernel_size: 1
weight_filler {
type: "xavier"
std: 0.2
}
bias_filler {
type: "constant"
value: 0.2
}
}
}
layer {
name: "inception_4d/relu_5x5_reduce"
type: "ReLU"
bottom: "inception_4d/5x5_reduce"
top: "inception_4d/5x5_reduce"
}
layer {
name: "inception_4d/5x5"
type: "Convolution"
bottom: "inception_4d/5x5_reduce"
top: "inception_4d/5x5"
param {
lr_mult: 1
decay_mult: 1
}
param {
lr_mult: 2
decay_mult: 0
}
convolution_param {
num_output: 64
pad: 2
kernel_size: 5
weight_filler {
type: "xavier"
std: 0.03
}
bias_filler {
type: "constant"
value: 0.2
}
}
}
layer {
name: "inception_4d/relu_5x5"
type: "ReLU"
bottom: "inception_4d/5x5"
top: "inception_4d/5x5"
}
layer {
name: "inception_4d/pool"
type: "Pooling"
bottom: "inception_4c/output"
top: "inception_4d/pool"
pooling_param {
pool: MAX
kernel_size: 3
stride: 1
pad: 1
}
}
layer {
name: "inception_4d/pool_proj"
type: "Convolution"
bottom: "inception_4d/pool"
top: "inception_4d/pool_proj"
param {
lr_mult: 1
decay_mult: 1
}
param {
lr_mult: 2
decay_mult: 0
}
convolution_param {
num_output: 64
kernel_size: 1
weight_filler {
type: "xavier"
std: 0.1
}
bias_filler {
type: "constant"
value: 0.2
}
}
}
layer {
name: "inception_4d/relu_pool_proj"
type: "ReLU"
bottom: "inception_4d/pool_proj"
top: "inception_4d/pool_proj"
}
layer {
name: "inception_4d/output"
type: "Concat"
bottom: "inception_4d/1x1"
bottom: "inception_4d/3x3"
bottom: "inception_4d/5x5"
bottom: "inception_4d/pool_proj"
top: "inception_4d/output"
}
layer {
name: "loss2/ave_pool"
type: "Pooling"
bottom: "inception_4d/output"
top: "loss2/ave_pool"
pooling_param {
pool: AVE
kernel_size: 5
stride: 3
}
}
layer {
name: "loss2/conv"
type: "Convolution"
bottom: "loss2/ave_pool"
top: "loss2/conv"
param {
lr_mult: 1
decay_mult: 1
}
param {
lr_mult: 2
decay_mult: 0
}
convolution_param {
num_output: 128
kernel_size: 1
weight_filler {
type: "xavier"
std: 0.08
}
bias_filler {
type: "constant"
value: 0.2
}
}
}
layer {
name: "loss2/relu_conv"
type: "ReLU"
bottom: "loss2/conv"
top: "loss2/conv"
}
layer {
name: "loss2/fc"
type: "InnerProduct"
bottom: "loss2/conv"
top: "loss2/fc"
param {
lr_mult: 1
decay_mult: 1
}
param {
lr_mult: 2
decay_mult: 0
}
inner_product_param {
num_output: 1024
weight_filler {
type: "xavier"
std: 0.02
}
bias_filler {
type: "constant"
value: 0.2
}
}
}
layer {
name: "loss2/relu_fc"
type: "ReLU"
bottom: "loss2/fc"
top: "loss2/fc"
}
layer {
name: "loss2/drop_fc"
type: "Dropout"
bottom: "loss2/fc"
top: "loss2/fc"
dropout_param {
dropout_ratio: 0.7
}
}
layer {
name: "loss2/classifier"
type: "InnerProduct"
bottom: "loss2/fc"
top: "loss2/classifier"
param {
lr_mult: 1
decay_mult: 1
}
param {
lr_mult: 2
decay_mult: 0
}
inner_product_param {
num_output: 196
weight_filler {
type: "xavier"
std: 0.0009765625
}
bias_filler {
type: "constant"
value: 0
}
}
}
layer {
name: "loss2/loss"
type: "SoftmaxWithLoss"
bottom: "loss2/classifier"
bottom: "label"
top: "loss2/loss"
loss_weight: 0.3
}
layer {
name: "inception_4e/1x1"
type: "Convolution"
bottom: "inception_4d/output"
top: "inception_4e/1x1"
param {
lr_mult: 1
decay_mult: 1
}
param {
lr_mult: 2
decay_mult: 0
}
convolution_param {
num_output: 256
kernel_size: 1
weight_filler {
type: "xavier"
std: 0.03
}
bias_filler {
type: "constant"
value: 0.2
}
}
}
layer {
name: "inception_4e/relu_1x1"
type: "ReLU"
bottom: "inception_4e/1x1"
top: "inception_4e/1x1"
}
layer {
name: "inception_4e/3x3_reduce"
type: "Convolution"
bottom: "inception_4d/output"
top: "inception_4e/3x3_reduce"
param {
lr_mult: 1
decay_mult: 1
}
param {
lr_mult: 2
decay_mult: 0
}
convolution_param {
num_output: 160
kernel_size: 1
weight_filler {
type: "xavier"
std: 0.09
}
bias_filler {
type: "constant"
value: 0.2
}
}
}
layer {
name: "inception_4e/relu_3x3_reduce"
type: "ReLU"
bottom: "inception_4e/3x3_reduce"
top: "inception_4e/3x3_reduce"
}
layer {
name: "inception_4e/3x3"
type: "Convolution"
bottom: "inception_4e/3x3_reduce"
top: "inception_4e/3x3"
param {
lr_mult: 1
decay_mult: 1
}
param {
lr_mult: 2
decay_mult: 0
}
convolution_param {
num_output: 320
pad: 1
kernel_size: 3
weight_filler {
type: "xavier"
std: 0.03
}
bias_filler {
type: "constant"
value: 0.2
}
}
}
layer {
name: "inception_4e/relu_3x3"
type: "ReLU"
bottom: "inception_4e/3x3"
top: "inception_4e/3x3"
}
layer {
name: "inception_4e/5x5_reduce"
type: "Convolution"
bottom: "inception_4d/output"
top: "inception_4e/5x5_reduce"
param {
lr_mult: 1
decay_mult: 1
}
param {
lr_mult: 2
decay_mult: 0
}
convolution_param {
num_output: 32
kernel_size: 1
weight_filler {
type: "xavier"
std: 0.2
}
bias_filler {
type: "constant"
val
I0501 17:56:09.649083 30632 layer_factory.hpp:77] Creating layer train-data
I0501 17:56:09.651305 30632 db_lmdb.cpp:35] Opened lmdb /mnt/bigdisk/MANDIG2/digits/jobs/20200428-132136-11fe/train_db
I0501 17:56:09.651484 30632 net.cpp:84] Creating Layer train-data
I0501 17:56:09.651500 30632 net.cpp:380] train-data -> data
I0501 17:56:09.651527 30632 net.cpp:380] train-data -> label
I0501 17:56:09.651542 30632 data_transformer.cpp:25] Loading mean file from: /mnt/bigdisk/MANDIG2/digits/jobs/20200428-132136-11fe/mean.binaryproto
I0501 17:56:09.659392 30632 data_layer.cpp:45] output data size: 32,3,224,224
I0501 17:56:09.801847 30632 net.cpp:122] Setting up train-data
I0501 17:56:09.801877 30632 net.cpp:129] Top shape: 32 3 224 224 (4816896)
I0501 17:56:09.801882 30632 net.cpp:129] Top shape: 32 (32)
I0501 17:56:09.801887 30632 net.cpp:137] Memory required for data: 19267712
I0501 17:56:09.801899 30632 layer_factory.hpp:77] Creating layer label_train-data_1_split
I0501 17:56:09.801941 30632 net.cpp:84] Creating Layer label_train-data_1_split
I0501 17:56:09.801949 30632 net.cpp:406] label_train-data_1_split <- label
I0501 17:56:09.801964 30632 net.cpp:380] label_train-data_1_split -> label_train-data_1_split_0
I0501 17:56:09.801977 30632 net.cpp:380] label_train-data_1_split -> label_train-data_1_split_1
I0501 17:56:09.801986 30632 net.cpp:380] label_train-data_1_split -> label_train-data_1_split_2
I0501 17:56:09.802050 30632 net.cpp:122] Setting up label_train-data_1_split
I0501 17:56:09.802058 30632 net.cpp:129] Top shape: 32 (32)
I0501 17:56:09.802064 30632 net.cpp:129] Top shape: 32 (32)
I0501 17:56:09.802070 30632 net.cpp:129] Top shape: 32 (32)
I0501 17:56:09.802075 30632 net.cpp:137] Memory required for data: 19268096
I0501 17:56:09.802081 30632 layer_factory.hpp:77] Creating layer conv1/7x7_s2
I0501 17:56:09.802101 30632 net.cpp:84] Creating Layer conv1/7x7_s2
I0501 17:56:09.802107 30632 net.cpp:406] conv1/7x7_s2 <- data
I0501 17:56:09.802115 30632 net.cpp:380] conv1/7x7_s2 -> conv1/7x7_s2
I0501 17:56:12.634050 30632 net.cpp:122] Setting up conv1/7x7_s2
I0501 17:56:12.634084 30632 net.cpp:129] Top shape: 32 64 112 112 (25690112)
I0501 17:56:12.634091 30632 net.cpp:137] Memory required for data: 122028544
I0501 17:56:12.634120 30632 layer_factory.hpp:77] Creating layer conv1/relu_7x7
I0501 17:56:12.634136 30632 net.cpp:84] Creating Layer conv1/relu_7x7
I0501 17:56:12.634143 30632 net.cpp:406] conv1/relu_7x7 <- conv1/7x7_s2
I0501 17:56:12.634157 30632 net.cpp:367] conv1/relu_7x7 -> conv1/7x7_s2 (in-place)
I0501 17:56:12.634778 30632 net.cpp:122] Setting up conv1/relu_7x7
I0501 17:56:12.634799 30632 net.cpp:129] Top shape: 32 64 112 112 (25690112)
I0501 17:56:12.634804 30632 net.cpp:137] Memory required for data: 224788992
I0501 17:56:12.634810 30632 layer_factory.hpp:77] Creating layer pool1/3x3_s2
I0501 17:56:12.634824 30632 net.cpp:84] Creating Layer pool1/3x3_s2
I0501 17:56:12.634829 30632 net.cpp:406] pool1/3x3_s2 <- conv1/7x7_s2
I0501 17:56:12.634838 30632 net.cpp:380] pool1/3x3_s2 -> pool1/3x3_s2
I0501 17:56:12.639906 30632 net.cpp:122] Setting up pool1/3x3_s2
I0501 17:56:12.639935 30632 net.cpp:129] Top shape: 32 64 56 56 (6422528)
I0501 17:56:12.639940 30632 net.cpp:137] Memory required for data: 250479104
I0501 17:56:12.639947 30632 layer_factory.hpp:77] Creating layer pool1/norm1
I0501 17:56:12.639962 30632 net.cpp:84] Creating Layer pool1/norm1
I0501 17:56:12.639969 30632 net.cpp:406] pool1/norm1 <- pool1/3x3_s2
I0501 17:56:12.639982 30632 net.cpp:380] pool1/norm1 -> pool1/norm1
I0501 17:56:12.641121 30632 net.cpp:122] Setting up pool1/norm1
I0501 17:56:12.641136 30632 net.cpp:129] Top shape: 32 64 56 56 (6422528)
I0501 17:56:12.641142 30632 net.cpp:137] Memory required for data: 276169216
I0501 17:56:12.641149 30632 layer_factory.hpp:77] Creating layer conv2/3x3_reduce
I0501 17:56:12.641172 30632 net.cpp:84] Creating Layer conv2/3x3_reduce
I0501 17:56:12.641180 30632 net.cpp:406] conv2/3x3_reduce <- pool1/norm1
I0501 17:56:12.641191 30632 net.cpp:380] conv2/3x3_reduce -> conv2/3x3_reduce
I0501 17:56:12.643895 30632 net.cpp:122] Setting up conv2/3x3_reduce
I0501 17:56:12.643911 30632 net.cpp:129] Top shape: 32 64 56 56 (6422528)
I0501 17:56:12.643918 30632 net.cpp:137] Memory required for data: 301859328
I0501 17:56:12.643931 30632 layer_factory.hpp:77] Creating layer conv2/relu_3x3_reduce
I0501 17:56:12.643945 30632 net.cpp:84] Creating Layer conv2/relu_3x3_reduce
I0501 17:56:12.643951 30632 net.cpp:406] conv2/relu_3x3_reduce <- conv2/3x3_reduce
I0501 17:56:12.643960 30632 net.cpp:367] conv2/relu_3x3_reduce -> conv2/3x3_reduce (in-place)
I0501 17:56:12.644511 30632 net.cpp:122] Setting up conv2/relu_3x3_reduce
I0501 17:56:12.644524 30632 net.cpp:129] Top shape: 32 64 56 56 (6422528)
I0501 17:56:12.644531 30632 net.cpp:137] Memory required for data: 327549440
I0501 17:56:12.644536 30632 layer_factory.hpp:77] Creating layer conv2/3x3
I0501 17:56:12.644554 30632 net.cpp:84] Creating Layer conv2/3x3
I0501 17:56:12.644562 30632 net.cpp:406] conv2/3x3 <- conv2/3x3_reduce
I0501 17:56:12.644606 30632 net.cpp:380] conv2/3x3 -> conv2/3x3
I0501 17:56:12.663281 30632 net.cpp:122] Setting up conv2/3x3
I0501 17:56:12.663311 30632 net.cpp:129] Top shape: 32 192 56 56 (19267584)
I0501 17:56:12.663316 30632 net.cpp:137] Memory required for data: 404619776
I0501 17:56:12.663336 30632 layer_factory.hpp:77] Creating layer conv2/relu_3x3
I0501 17:56:12.663353 30632 net.cpp:84] Creating Layer conv2/relu_3x3
I0501 17:56:12.663362 30632 net.cpp:406] conv2/relu_3x3 <- conv2/3x3
I0501 17:56:12.663372 30632 net.cpp:367] conv2/relu_3x3 -> conv2/3x3 (in-place)
I0501 17:56:12.663923 30632 net.cpp:122] Setting up conv2/relu_3x3
I0501 17:56:12.663938 30632 net.cpp:129] Top shape: 32 192 56 56 (19267584)
I0501 17:56:12.663944 30632 net.cpp:137] Memory required for data: 481690112
I0501 17:56:12.663950 30632 layer_factory.hpp:77] Creating layer conv2/norm2
I0501 17:56:12.663960 30632 net.cpp:84] Creating Layer conv2/norm2
I0501 17:56:12.663967 30632 net.cpp:406] conv2/norm2 <- conv2/3x3
I0501 17:56:12.663978 30632 net.cpp:380] conv2/norm2 -> conv2/norm2
I0501 17:56:12.664790 30632 net.cpp:122] Setting up conv2/norm2
I0501 17:56:12.664804 30632 net.cpp:129] Top shape: 32 192 56 56 (19267584)
I0501 17:56:12.664809 30632 net.cpp:137] Memory required for data: 558760448
I0501 17:56:12.664815 30632 layer_factory.hpp:77] Creating layer pool2/3x3_s2
I0501 17:56:12.664829 30632 net.cpp:84] Creating Layer pool2/3x3_s2
I0501 17:56:12.664834 30632 net.cpp:406] pool2/3x3_s2 <- conv2/norm2
I0501 17:56:12.664844 30632 net.cpp:380] pool2/3x3_s2 -> pool2/3x3_s2
I0501 17:56:12.664901 30632 net.cpp:122] Setting up pool2/3x3_s2
I0501 17:56:12.664912 30632 net.cpp:129] Top shape: 32 192 28 28 (4816896)
I0501 17:56:12.664917 30632 net.cpp:137] Memory required for data: 578028032
I0501 17:56:12.664923 30632 layer_factory.hpp:77] Creating layer pool2/3x3_s2_pool2/3x3_s2_0_split
I0501 17:56:12.664932 30632 net.cpp:84] Creating Layer pool2/3x3_s2_pool2/3x3_s2_0_split
I0501 17:56:12.664939 30632 net.cpp:406] pool2/3x3_s2_pool2/3x3_s2_0_split <- pool2/3x3_s2
I0501 17:56:12.664950 30632 net.cpp:380] pool2/3x3_s2_pool2/3x3_s2_0_split -> pool2/3x3_s2_pool2/3x3_s2_0_split_0
I0501 17:56:12.664961 30632 net.cpp:380] pool2/3x3_s2_pool2/3x3_s2_0_split -> pool2/3x3_s2_pool2/3x3_s2_0_split_1
I0501 17:56:12.664970 30632 net.cpp:380] pool2/3x3_s2_pool2/3x3_s2_0_split -> pool2/3x3_s2_pool2/3x3_s2_0_split_2
I0501 17:56:12.664979 30632 net.cpp:380] pool2/3x3_s2_pool2/3x3_s2_0_split -> pool2/3x3_s2_pool2/3x3_s2_0_split_3
I0501 17:56:12.665060 30632 net.cpp:122] Setting up pool2/3x3_s2_pool2/3x3_s2_0_split
I0501 17:56:12.665072 30632 net.cpp:129] Top shape: 32 192 28 28 (4816896)
I0501 17:56:12.665079 30632 net.cpp:129] Top shape: 32 192 28 28 (4816896)
I0501 17:56:12.665086 30632 net.cpp:129] Top shape: 32 192 28 28 (4816896)
I0501 17:56:12.665092 30632 net.cpp:129] Top shape: 32 192 28 28 (4816896)
I0501 17:56:12.665097 30632 net.cpp:137] Memory required for data: 655098368
I0501 17:56:12.665103 30632 layer_factory.hpp:77] Creating layer inception_3a/1x1
I0501 17:56:12.665122 30632 net.cpp:84] Creating Layer inception_3a/1x1
I0501 17:56:12.665130 30632 net.cpp:406] inception_3a/1x1 <- pool2/3x3_s2_pool2/3x3_s2_0_split_0
I0501 17:56:12.665141 30632 net.cpp:380] inception_3a/1x1 -> inception_3a/1x1
I0501 17:56:12.667989 30632 net.cpp:122] Setting up inception_3a/1x1
I0501 17:56:12.668005 30632 net.cpp:129] Top shape: 32 64 28 28 (1605632)
I0501 17:56:12.668010 30632 net.cpp:137] Memory required for data: 661520896
I0501 17:56:12.668021 30632 layer_factory.hpp:77] Creating layer inception_3a/relu_1x1
I0501 17:56:12.668030 30632 net.cpp:84] Creating Layer inception_3a/relu_1x1
I0501 17:56:12.668036 30632 net.cpp:406] inception_3a/relu_1x1 <- inception_3a/1x1
I0501 17:56:12.668048 30632 net.cpp:367] inception_3a/relu_1x1 -> inception_3a/1x1 (in-place)
I0501 17:56:12.668587 30632 net.cpp:122] Setting up inception_3a/relu_1x1
I0501 17:56:12.668601 30632 net.cpp:129] Top shape: 32 64 28 28 (1605632)
I0501 17:56:12.668607 30632 net.cpp:137] Memory required for data: 667943424
I0501 17:56:12.668639 30632 layer_factory.hpp:77] Creating layer inception_3a/3x3_reduce
I0501 17:56:12.668658 30632 net.cpp:84] Creating Layer inception_3a/3x3_reduce
I0501 17:56:12.668665 30632 net.cpp:406] inception_3a/3x3_reduce <- pool2/3x3_s2_pool2/3x3_s2_0_split_1
I0501 17:56:12.668675 30632 net.cpp:380] inception_3a/3x3_reduce -> inception_3a/3x3_reduce
I0501 17:56:12.707796 30632 net.cpp:122] Setting up inception_3a/3x3_reduce
I0501 17:56:12.707821 30632 net.cpp:129] Top shape: 32 96 28 28 (2408448)
I0501 17:56:12.707828 30632 net.cpp:137] Memory required for data: 677577216
I0501 17:56:12.707846 30632 layer_factory.hpp:77] Creating layer inception_3a/relu_3x3_reduce
I0501 17:56:12.707865 30632 net.cpp:84] Creating Layer inception_3a/relu_3x3_reduce
I0501 17:56:12.707872 30632 net.cpp:406] inception_3a/relu_3x3_reduce <- inception_3a/3x3_reduce
I0501 17:56:12.707885 30632 net.cpp:367] inception_3a/relu_3x3_reduce -> inception_3a/3x3_reduce (in-place)
I0501 17:56:12.708889 30632 net.cpp:122] Setting up inception_3a/relu_3x3_reduce
I0501 17:56:12.708905 30632 net.cpp:129] Top shape: 32 96 28 28 (2408448)
I0501 17:56:12.708910 30632 net.cpp:137] Memory required for data: 687211008
I0501 17:56:12.708916 30632 layer_factory.hpp:77] Creating layer inception_3a/3x3
I0501 17:56:12.708935 30632 net.cpp:84] Creating Layer inception_3a/3x3
I0501 17:56:12.708940 30632 net.cpp:406] inception_3a/3x3 <- inception_3a/3x3_reduce
I0501 17:56:12.708950 30632 net.cpp:380] inception_3a/3x3 -> inception_3a/3x3
I0501 17:56:12.723536 30632 net.cpp:122] Setting up inception_3a/3x3
I0501 17:56:12.723567 30632 net.cpp:129] Top shape: 32 128 28 28 (3211264)
I0501 17:56:12.723573 30632 net.cpp:137] Memory required for data: 700056064
I0501 17:56:12.723587 30632 layer_factory.hpp:77] Creating layer inception_3a/relu_3x3
I0501 17:56:12.723604 30632 net.cpp:84] Creating Layer inception_3a/relu_3x3
I0501 17:56:12.723611 30632 net.cpp:406] inception_3a/relu_3x3 <- inception_3a/3x3
I0501 17:56:12.723623 30632 net.cpp:367] inception_3a/relu_3x3 -> inception_3a/3x3 (in-place)
I0501 17:56:12.724498 30632 net.cpp:122] Setting up inception_3a/relu_3x3
I0501 17:56:12.724510 30632 net.cpp:129] Top shape: 32 128 28 28 (3211264)
I0501 17:56:12.724515 30632 net.cpp:137] Memory required for data: 712901120
I0501 17:56:12.724520 30632 layer_factory.hpp:77] Creating layer inception_3a/5x5_reduce
I0501 17:56:12.724539 30632 net.cpp:84] Creating Layer inception_3a/5x5_reduce
I0501 17:56:12.724545 30632 net.cpp:406] inception_3a/5x5_reduce <- pool2/3x3_s2_pool2/3x3_s2_0_split_2
I0501 17:56:12.724555 30632 net.cpp:380] inception_3a/5x5_reduce -> inception_3a/5x5_reduce
I0501 17:56:12.741570 30632 net.cpp:122] Setting up inception_3a/5x5_reduce
I0501 17:56:12.741600 30632 net.cpp:129] Top shape: 32 16 28 28 (401408)
I0501 17:56:12.741607 30632 net.cpp:137] Memory required for data: 714506752
I0501 17:56:12.741621 30632 layer_factory.hpp:77] Creating layer inception_3a/relu_5x5_reduce
I0501 17:56:12.741636 30632 net.cpp:84] Creating Layer inception_3a/relu_5x5_reduce
I0501 17:56:12.741643 30632 net.cpp:406] inception_3a/relu_5x5_reduce <- inception_3a/5x5_reduce
I0501 17:56:12.741657 30632 net.cpp:367] inception_3a/relu_5x5_reduce -> inception_3a/5x5_reduce (in-place)
I0501 17:56:12.786003 30632 net.cpp:122] Setting up inception_3a/relu_5x5_reduce
I0501 17:56:12.786038 30632 net.cpp:129] Top shape: 32 16 28 28 (401408)
I0501 17:56:12.786046 30632 net.cpp:137] Memory required for data: 716112384
I0501 17:56:12.786056 30632 layer_factory.hpp:77] Creating layer inception_3a/5x5
I0501 17:56:12.786082 30632 net.cpp:84] Creating Layer inception_3a/5x5
I0501 17:56:12.786090 30632 net.cpp:406] inception_3a/5x5 <- inception_3a/5x5_reduce
I0501 17:56:12.786108 30632 net.cpp:380] inception_3a/5x5 -> inception_3a/5x5
I0501 17:56:12.790670 30632 net.cpp:122] Setting up inception_3a/5x5
I0501 17:56:12.790704 30632 net.cpp:129] Top shape: 32 32 28 28 (802816)
I0501 17:56:12.790711 30632 net.cpp:137] Memory required for data: 719323648
I0501 17:56:12.790755 30632 layer_factory.hpp:77] Creating layer inception_3a/relu_5x5
I0501 17:56:12.790771 30632 net.cpp:84] Creating Layer inception_3a/relu_5x5
I0501 17:56:12.790779 30632 net.cpp:406] inception_3a/relu_5x5 <- inception_3a/5x5
I0501 17:56:12.790789 30632 net.cpp:367] inception_3a/relu_5x5 -> inception_3a/5x5 (in-place)
I0501 17:56:12.808140 30632 net.cpp:122] Setting up inception_3a/relu_5x5
I0501 17:56:12.808174 30632 net.cpp:129] Top shape: 32 32 28 28 (802816)
I0501 17:56:12.808182 30632 net.cpp:137] Memory required for data: 722534912
I0501 17:56:12.808190 30632 layer_factory.hpp:77] Creating layer inception_3a/pool
I0501 17:56:12.808205 30632 net.cpp:84] Creating Layer inception_3a/pool
I0501 17:56:12.808214 30632 net.cpp:406] inception_3a/pool <- pool2/3x3_s2_pool2/3x3_s2_0_split_3
I0501 17:56:12.808228 30632 net.cpp:380] inception_3a/pool -> inception_3a/pool
I0501 17:56:12.808307 30632 net.cpp:122] Setting up inception_3a/pool
I0501 17:56:12.808320 30632 net.cpp:129] Top shape: 32 192 28 28 (4816896)
I0501 17:56:12.808326 30632 net.cpp:137] Memory required for data: 741802496
I0501 17:56:12.808332 30632 layer_factory.hpp:77] Creating layer inception_3a/pool_proj
I0501 17:56:12.808351 30632 net.cpp:84] Creating Layer inception_3a/pool_proj
I0501 17:56:12.808358 30632 net.cpp:406] inception_3a/pool_proj <- inception_3a/pool
I0501 17:56:12.808372 30632 net.cpp:380] inception_3a/pool_proj -> inception_3a/pool_proj
I0501 17:56:12.811965 30632 net.cpp:122] Setting up inception_3a/pool_proj
I0501 17:56:12.811982 30632 net.cpp:129] Top shape: 32 32 28 28 (802816)
I0501 17:56:12.811990 30632 net.cpp:137] Memory required for data: 745013760
I0501 17:56:12.812009 30632 layer_factory.hpp:77] Creating layer inception_3a/relu_pool_proj
I0501 17:56:12.812021 30632 net.cpp:84] Creating Layer inception_3a/relu_pool_proj
I0501 17:56:12.812028 30632 net.cpp:406] inception_3a/relu_pool_proj <- inception_3a/pool_proj
I0501 17:56:12.812041 30632 net.cpp:367] inception_3a/relu_pool_proj -> inception_3a/pool_proj (in-place)
I0501 17:56:12.812595 30632 net.cpp:122] Setting up inception_3a/relu_pool_proj
I0501 17:56:12.812609 30632 net.cpp:129] Top shape: 32 32 28 28 (802816)
I0501 17:56:12.812614 30632 net.cpp:137] Memory required for data: 748225024
I0501 17:56:12.812620 30632 layer_factory.hpp:77] Creating layer inception_3a/output
I0501 17:56:12.812633 30632 net.cpp:84] Creating Layer inception_3a/output
I0501 17:56:12.812639 30632 net.cpp:406] inception_3a/output <- inception_3a/1x1
I0501 17:56:12.812647 30632 net.cpp:406] inception_3a/output <- inception_3a/3x3
I0501 17:56:12.812654 30632 net.cpp:406] inception_3a/output <- inception_3a/5x5
I0501 17:56:12.812660 30632 net.cpp:406] inception_3a/output <- inception_3a/pool_proj
I0501 17:56:12.812669 30632 net.cpp:380] inception_3a/output -> inception_3a/output
I0501 17:56:12.812711 30632 net.cpp:122] Setting up inception_3a/output
I0501 17:56:12.812721 30632 net.cpp:129] Top shape: 32 256 28 28 (6422528)
I0501 17:56:12.812726 30632 net.cpp:137] Memory required for data: 773915136
I0501 17:56:12.812732 30632 layer_factory.hpp:77] Creating layer inception_3a/output_inception_3a/output_0_split
I0501 17:56:12.812744 30632 net.cpp:84] Creating Layer inception_3a/output_inception_3a/output_0_split
I0501 17:56:12.812752 30632 net.cpp:406] inception_3a/output_inception_3a/output_0_split <- inception_3a/output
I0501 17:56:12.812760 30632 net.cpp:380] inception_3a/output_inception_3a/output_0_split -> inception_3a/output_inception_3a/output_0_split_0
I0501 17:56:12.812773 30632 net.cpp:380] inception_3a/output_inception_3a/output_0_split -> inception_3a/output_inception_3a/output_0_split_1
I0501 17:56:12.812784 30632 net.cpp:380] inception_3a/output_inception_3a/output_0_split -> inception_3a/output_inception_3a/output_0_split_2
I0501 17:56:12.812793 30632 net.cpp:380] inception_3a/output_inception_3a/output_0_split -> inception_3a/output_inception_3a/output_0_split_3
I0501 17:56:12.812875 30632 net.cpp:122] Setting up inception_3a/output_inception_3a/output_0_split
I0501 17:56:12.812916 30632 net.cpp:129] Top shape: 32 256 28 28 (6422528)
I0501 17:56:12.812922 30632 net.cpp:129] Top shape: 32 256 28 28 (6422528)
I0501 17:56:12.812929 30632 net.cpp:129] Top shape: 32 256 28 28 (6422528)
I0501 17:56:12.812937 30632 net.cpp:129] Top shape: 32 256 28 28 (6422528)
I0501 17:56:12.812942 30632 net.cpp:137] Memory required for data: 876675584
I0501 17:56:12.812947 30632 layer_factory.hpp:77] Creating layer inception_3b/1x1
I0501 17:56:12.812960 30632 net.cpp:84] Creating Layer inception_3b/1x1
I0501 17:56:12.812966 30632 net.cpp:406] inception_3b/1x1 <- inception_3a/output_inception_3a/output_0_split_0
I0501 17:56:12.812983 30632 net.cpp:380] inception_3b/1x1 -> inception_3b/1x1
I0501 17:56:12.819824 30632 net.cpp:122] Setting up inception_3b/1x1
I0501 17:56:12.819854 30632 net.cpp:129] Top shape: 32 128 28 28 (3211264)
I0501 17:56:12.819860 30632 net.cpp:137] Memory required for data: 889520640
I0501 17:56:12.819876 30632 layer_factory.hpp:77] Creating layer inception_3b/relu_1x1
I0501 17:56:12.819893 30632 net.cpp:84] Creating Layer inception_3b/relu_1x1
I0501 17:56:12.819902 30632 net.cpp:406] inception_3b/relu_1x1 <- inception_3b/1x1
I0501 17:56:12.819912 30632 net.cpp:367] inception_3b/relu_1x1 -> inception_3b/1x1 (in-place)
I0501 17:56:12.820701 30632 net.cpp:122] Setting up inception_3b/relu_1x1
I0501 17:56:12.820715 30632 net.cpp:129] Top shape: 32 128 28 28 (3211264)
I0501 17:56:12.820721 30632 net.cpp:137] Memory required for data: 902365696
I0501 17:56:12.820727 30632 layer_factory.hpp:77] Creating layer inception_3b/3x3_reduce
I0501 17:56:12.834671 30632 net.cpp:84] Creating Layer inception_3b/3x3_reduce
I0501 17:56:12.834700 30632 net.cpp:406] inception_3b/3x3_reduce <- inception_3a/output_inception_3a/output_0_split_1
I0501 17:56:12.834722 30632 net.cpp:380] inception_3b/3x3_reduce -> inception_3b/3x3_reduce
I0501 17:56:12.845996 30632 net.cpp:122] Setting up inception_3b/3x3_reduce
I0501 17:56:12.846024 30632 net.cpp:129] Top shape: 32 128 28 28 (3211264)
I0501 17:56:12.846030 30632 net.cpp:137] Memory required for data: 915210752
I0501 17:56:12.846045 30632 layer_factory.hpp:77] Creating layer inception_3b/relu_3x3_reduce
I0501 17:56:12.846060 30632 net.cpp:84] Creating Layer inception_3b/relu_3x3_reduce
I0501 17:56:12.846067 30632 net.cpp:406] inception_3b/relu_3x3_reduce <- inception_3b/3x3_reduce
I0501 17:56:12.846079 30632 net.cpp:367] inception_3b/relu_3x3_reduce -> inception_3b/3x3_reduce (in-place)
I0501 17:56:12.875861 30632 net.cpp:122] Setting up inception_3b/relu_3x3_reduce
I0501 17:56:12.875887 30632 net.cpp:129] Top shape: 32 128 28 28 (3211264)
I0501 17:56:12.875893 30632 net.cpp:137] Memory required for data: 928055808
I0501 17:56:12.875902 30632 layer_factory.hpp:77] Creating layer inception_3b/3x3
I0501 17:56:12.875936 30632 net.cpp:84] Creating Layer inception_3b/3x3
I0501 17:56:12.875942 30632 net.cpp:406] inception_3b/3x3 <- inception_3b/3x3_reduce
I0501 17:56:12.875954 30632 net.cpp:380] inception_3b/3x3 -> inception_3b/3x3
I0501 17:56:12.887758 30632 net.cpp:122] Setting up inception_3b/3x3
I0501 17:56:12.887787 30632 net.cpp:129] Top shape: 32 192 28 28 (4816896)
I0501 17:56:12.887794 30632 net.cpp:137] Memory required for data: 947323392
I0501 17:56:12.887809 30632 layer_factory.hpp:77] Creating layer inception_3b/relu_3x3
I0501 17:56:12.887823 30632 net.cpp:84] Creating Layer inception_3b/relu_3x3
I0501 17:56:12.887831 30632 net.cpp:406] inception_3b/relu_3x3 <- inception_3b/3x3
I0501 17:56:12.887845 30632 net.cpp:367] inception_3b/relu_3x3 -> inception_3b/3x3 (in-place)
I0501 17:56:12.890854 30632 net.cpp:122] Setting up inception_3b/relu_3x3
I0501 17:56:12.890882 30632 net.cpp:129] Top shape: 32 192 28 28 (4816896)
I0501 17:56:12.890888 30632 net.cpp:137] Memory required for data: 966590976
I0501 17:56:12.890897 30632 layer_factory.hpp:77] Creating layer inception_3b/5x5_reduce
I0501 17:56:12.890920 30632 net.cpp:84] Creating Layer inception_3b/5x5_reduce
I0501 17:56:12.890930 30632 net.cpp:406] inception_3b/5x5_reduce <- inception_3a/output_inception_3a/output_0_split_2
I0501 17:56:12.890974 30632 net.cpp:380] inception_3b/5x5_reduce -> inception_3b/5x5_reduce
I0501 17:56:12.893543 30632 net.cpp:122] Setting up inception_3b/5x5_reduce
I0501 17:56:12.893559 30632 net.cpp:129] Top shape: 32 32 28 28 (802816)
I0501 17:56:12.893565 30632 net.cpp:137] Memory required for data: 969802240
I0501 17:56:12.893576 30632 layer_factory.hpp:77] Creating layer inception_3b/relu_5x5_reduce
I0501 17:56:12.893590 30632 net.cpp:84] Creating Layer inception_3b/relu_5x5_reduce
I0501 17:56:12.893596 30632 net.cpp:406] inception_3b/relu_5x5_reduce <- inception_3b/5x5_reduce
I0501 17:56:12.893606 30632 net.cpp:367] inception_3b/relu_5x5_reduce -> inception_3b/5x5_reduce (in-place)
I0501 17:56:12.896442 30632 net.cpp:122] Setting up inception_3b/relu_5x5_reduce
I0501 17:56:12.896466 30632 net.cpp:129] Top shape: 32 32 28 28 (802816)
I0501 17:56:12.896472 30632 net.cpp:137] Memory required for data: 973013504
I0501 17:56:12.896481 30632 layer_factory.hpp:77] Creating layer inception_3b/5x5
I0501 17:56:12.896503 30632 net.cpp:84] Creating Layer inception_3b/5x5
I0501 17:56:12.896512 30632 net.cpp:406] inception_3b/5x5 <- inception_3b/5x5_reduce
I0501 17:56:12.896524 30632 net.cpp:380] inception_3b/5x5 -> inception_3b/5x5
I0501 17:56:12.907348 30632 net.cpp:122] Setting up inception_3b/5x5
I0501 17:56:12.907379 30632 net.cpp:129] Top shape: 32 96 28 28 (2408448)
I0501 17:56:12.907387 30632 net.cpp:137] Memory required for data: 982647296
I0501 17:56:12.907402 30632 layer_factory.hpp:77] Creating layer inception_3b/relu_5x5
I0501 17:56:12.907418 30632 net.cpp:84] Creating Layer inception_3b/relu_5x5
I0501 17:56:12.907428 30632 net.cpp:406] inception_3b/relu_5x5 <- inception_3b/5x5
I0501 17:56:12.907438 30632 net.cpp:367] inception_3b/relu_5x5 -> inception_3b/5x5 (in-place)
I0501 17:56:12.908008 30632 net.cpp:122] Setting up inception_3b/relu_5x5
I0501 17:56:12.908025 30632 net.cpp:129] Top shape: 32 96 28 28 (2408448)
I0501 17:56:12.908030 30632 net.cpp:137] Memory required for data: 992281088
I0501 17:56:12.908035 30632 layer_factory.hpp:77] Creating layer inception_3b/pool
I0501 17:56:12.908046 30632 net.cpp:84] Creating Layer inception_3b/pool
I0501 17:56:12.908053 30632 net.cpp:406] inception_3b/pool <- inception_3a/output_inception_3a/output_0_split_3
I0501 17:56:12.908066 30632 net.cpp:380] inception_3b/pool -> inception_3b/pool
I0501 17:56:12.908128 30632 net.cpp:122] Setting up inception_3b/pool
I0501 17:56:12.908138 30632 net.cpp:129] Top shape: 32 256 28 28 (6422528)
I0501 17:56:12.908144 30632 net.cpp:137] Memory required for data: 1017971200
I0501 17:56:12.908149 30632 layer_factory.hpp:77] Creating layer inception_3b/pool_proj
I0501 17:56:12.908169 30632 net.cpp:84] Creating Layer inception_3b/pool_proj
I0501 17:56:12.908175 30632 net.cpp:406] inception_3b/pool_proj <- inception_3b/pool
I0501 17:56:12.908188 30632 net.cpp:380] inception_3b/pool_proj -> inception_3b/pool_proj
I0501 17:56:12.913507 30632 net.cpp:122] Setting up inception_3b/pool_proj
I0501 17:56:12.913535 30632 net.cpp:129] Top shape: 32 64 28 28 (1605632)
I0501 17:56:12.913542 30632 net.cpp:137] Memory required for data: 1024393728
I0501 17:56:12.913556 30632 layer_factory.hpp:77] Creating layer inception_3b/relu_pool_proj
I0501 17:56:12.913570 30632 net.cpp:84] Creating Layer inception_3b/relu_pool_proj
I0501 17:56:12.913578 30632 net.cpp:406] inception_3b/relu_pool_proj <- inception_3b/pool_proj
I0501 17:56:12.913589 30632 net.cpp:367] inception_3b/relu_pool_proj -> inception_3b/pool_proj (in-place)
I0501 17:56:12.914155 30632 net.cpp:122] Setting up inception_3b/relu_pool_proj
I0501 17:56:12.914167 30632 net.cpp:129] Top shape: 32 64 28 28 (1605632)
I0501 17:56:12.914173 30632 net.cpp:137] Memory required for data: 1030816256
I0501 17:56:12.914178 30632 layer_factory.hpp:77] Creating layer inception_3b/output
I0501 17:56:12.914188 30632 net.cpp:84] Creating Layer inception_3b/output
I0501 17:56:12.914196 30632 net.cpp:406] inception_3b/output <- inception_3b/1x1
I0501 17:56:12.914203 30632 net.cpp:406] inception_3b/output <- inception_3b/3x3
I0501 17:56:12.914238 30632 net.cpp:406] inception_3b/output <- inception_3b/5x5
I0501 17:56:12.914247 30632 net.cpp:406] inception_3b/output <- inception_3b/pool_proj
I0501 17:56:12.914258 30632 net.cpp:380] inception_3b/output -> inception_3b/output
I0501 17:56:12.914302 30632 net.cpp:122] Setting up inception_3b/output
I0501 17:56:12.914314 30632 net.cpp:129] Top shape: 32 480 28 28 (12042240)
I0501 17:56:12.914319 30632 net.cpp:137] Memory required for data: 1078985216
I0501 17:56:12.914324 30632 layer_factory.hpp:77] Creating layer pool3/3x3_s2
I0501 17:56:12.914333 30632 net.cpp:84] Creating Layer pool3/3x3_s2
I0501 17:56:12.914340 30632 net.cpp:406] pool3/3x3_s2 <- inception_3b/output
I0501 17:56:12.914352 30632 net.cpp:380] pool3/3x3_s2 -> pool3/3x3_s2
I0501 17:56:12.914453 30632 net.cpp:122] Setting up pool3/3x3_s2
I0501 17:56:12.914466 30632 net.cpp:129] Top shape: 32 480 14 14 (3010560)
I0501 17:56:12.914474 30632 net.cpp:137] Memory required for data: 1091027456
I0501 17:56:12.914479 30632 layer_factory.hpp:77] Creating layer pool3/3x3_s2_pool3/3x3_s2_0_split
I0501 17:56:12.914533 30632 net.cpp:84] Creating Layer pool3/3x3_s2_pool3/3x3_s2_0_split
I0501 17:56:12.914541 30632 net.cpp:406] pool3/3x3_s2_pool3/3x3_s2_0_split <- pool3/3x3_s2
I0501 17:56:12.914549 30632 net.cpp:380] pool3/3x3_s2_pool3/3x3_s2_0_split -> pool3/3x3_s2_pool3/3x3_s2_0_split_0
I0501 17:56:12.914563 30632 net.cpp:380] pool3/3x3_s2_pool3/3x3_s2_0_split -> pool3/3x3_s2_pool3/3x3_s2_0_split_1
I0501 17:56:12.914573 30632 net.cpp:380] pool3/3x3_s2_pool3/3x3_s2_0_split -> pool3/3x3_s2_pool3/3x3_s2_0_split_2
I0501 17:56:12.914583 30632 net.cpp:380] pool3/3x3_s2_pool3/3x3_s2_0_split -> pool3/3x3_s2_pool3/3x3_s2_0_split_3
I0501 17:56:12.914660 30632 net.cpp:122] Setting up pool3/3x3_s2_pool3/3x3_s2_0_split
I0501 17:56:12.914672 30632 net.cpp:129] Top shape: 32 480 14 14 (3010560)
I0501 17:56:12.914678 30632 net.cpp:129] Top shape: 32 480 14 14 (3010560)
I0501 17:56:12.914685 30632 net.cpp:129] Top shape: 32 480 14 14 (3010560)
I0501 17:56:12.914691 30632 net.cpp:129] Top shape: 32 480 14 14 (3010560)
I0501 17:56:12.914696 30632 net.cpp:137] Memory required for data: 1139196416
I0501 17:56:12.914702 30632 layer_factory.hpp:77] Creating layer inception_4a/1x1
I0501 17:56:12.914721 30632 net.cpp:84] Creating Layer inception_4a/1x1
I0501 17:56:12.914727 30632 net.cpp:406] inception_4a/1x1 <- pool3/3x3_s2_pool3/3x3_s2_0_split_0
I0501 17:56:12.914741 30632 net.cpp:380] inception_4a/1x1 -> inception_4a/1x1
I0501 17:56:12.929970 30632 net.cpp:122] Setting up inception_4a/1x1
I0501 17:56:12.929999 30632 net.cpp:129] Top shape: 32 192 14 14 (1204224)
I0501 17:56:12.930006 30632 net.cpp:137] Memory required for data: 1144013312
I0501 17:56:12.930022 30632 layer_factory.hpp:77] Creating layer inception_4a/relu_1x1
I0501 17:56:12.930035 30632 net.cpp:84] Creating Layer inception_4a/relu_1x1
I0501 17:56:12.930043 30632 net.cpp:406] inception_4a/relu_1x1 <- inception_4a/1x1
I0501 17:56:12.930056 30632 net.cpp:367] inception_4a/relu_1x1 -> inception_4a/1x1 (in-place)
I0501 17:56:12.930970 30632 net.cpp:122] Setting up inception_4a/relu_1x1
I0501 17:56:12.930986 30632 net.cpp:129] Top shape: 32 192 14 14 (1204224)
I0501 17:56:12.930992 30632 net.cpp:137] Memory required for data: 1148830208
I0501 17:56:12.930999 30632 layer_factory.hpp:77] Creating layer inception_4a/3x3_reduce
I0501 17:56:12.931025 30632 net.cpp:84] Creating Layer inception_4a/3x3_reduce
I0501 17:56:12.931035 30632 net.cpp:406] inception_4a/3x3_reduce <- pool3/3x3_s2_pool3/3x3_s2_0_split_1
I0501 17:56:12.931047 30632 net.cpp:380] inception_4a/3x3_reduce -> inception_4a/3x3_reduce
I0501 17:56:12.950047 30632 net.cpp:122] Setting up inception_4a/3x3_reduce
I0501 17:56:12.950078 30632 net.cpp:129] Top shape: 32 96 14 14 (602112)
I0501 17:56:12.950084 30632 net.cpp:137] Memory required for data: 1151238656
I0501 17:56:12.950109 30632 layer_factory.hpp:77] Creating layer inception_4a/relu_3x3_reduce
I0501 17:56:12.950126 30632 net.cpp:84] Creating Layer inception_4a/relu_3x3_reduce
I0501 17:56:12.950163 30632 net.cpp:406] inception_4a/relu_3x3_reduce <- inception_4a/3x3_reduce
I0501 17:56:12.950176 30632 net.cpp:367] inception_4a/relu_3x3_reduce -> inception_4a/3x3_reduce (in-place)
I0501 17:56:12.954933 30632 net.cpp:122] Setting up inception_4a/relu_3x3_reduce
I0501 17:56:12.954957 30632 net.cpp:129] Top shape: 32 96 14 14 (602112)
I0501 17:56:12.954963 30632 net.cpp:137] Memory required for data: 1153647104
I0501 17:56:12.954972 30632 layer_factory.hpp:77] Creating layer inception_4a/3x3
I0501 17:56:12.954995 30632 net.cpp:84] Creating Layer inception_4a/3x3
I0501 17:56:12.955005 30632 net.cpp:406] inception_4a/3x3 <- inception_4a/3x3_reduce
I0501 17:56:12.955019 30632 net.cpp:380] inception_4a/3x3 -> inception_4a/3x3
I0501 17:56:12.961072 30632 net.cpp:122] Setting up inception_4a/3x3
I0501 17:56:12.961102 30632 net.cpp:129] Top shape: 32 208 14 14 (1304576)
I0501 17:56:12.961109 30632 net.cpp:137] Memory required for data: 1158865408
I0501 17:56:12.961124 30632 layer_factory.hpp:77] Creating layer inception_4a/relu_3x3
I0501 17:56:12.961138 30632 net.cpp:84] Creating Layer inception_4a/relu_3x3
I0501 17:56:12.961145 30632 net.cpp:406] inception_4a/relu_3x3 <- inception_4a/3x3
I0501 17:56:12.961158 30632 net.cpp:367] inception_4a/relu_3x3 -> inception_4a/3x3 (in-place)
I0501 17:56:12.962659 30632 net.cpp:122] Setting up inception_4a/relu_3x3
I0501 17:56:12.962677 30632 net.cpp:129] Top shape: 32 208 14 14 (1304576)
I0501 17:56:12.962684 30632 net.cpp:137] Memory required for data: 1164083712
I0501 17:56:12.962690 30632 layer_factory.hpp:77] Creating layer inception_4a/5x5_reduce
I0501 17:56:12.962710 30632 net.cpp:84] Creating Layer inception_4a/5x5_reduce
I0501 17:56:12.962719 30632 net.cpp:406] inception_4a/5x5_reduce <- pool3/3x3_s2_pool3/3x3_s2_0_split_2
I0501 17:56:12.962733 30632 net.cpp:380] inception_4a/5x5_reduce -> inception_4a/5x5_reduce
I0501 17:56:12.965296 30632 net.cpp:122] Setting up inception_4a/5x5_reduce
I0501 17:56:12.965312 30632 net.cpp:129] Top shape: 32 16 14 14 (100352)
I0501 17:56:12.965318 30632 net.cpp:137] Memory required for data: 1164485120
I0501 17:56:12.967626 30632 layer_factory.hpp:77] Creating layer inception_4a/relu_5x5_reduce
I0501 17:56:12.967672 30632 net.cpp:84] Creating Layer inception_4a/relu_5x5_reduce
I0501 17:56:12.967682 30632 net.cpp:406] inception_4a/relu_5x5_reduce <- inception_4a/5x5_reduce
I0501 17:56:12.967695 30632 net.cpp:367] inception_4a/relu_5x5_reduce -> inception_4a/5x5_reduce (in-place)
I0501 17:56:12.983440 30632 net.cpp:122] Setting up inception_4a/relu_5x5_reduce
I0501 17:56:12.983470 30632 net.cpp:129] Top shape: 32 16 14 14 (100352)
I0501 17:56:12.983479 30632 net.cpp:137] Memory required for data: 1164886528
I0501 17:56:12.983487 30632 layer_factory.hpp:77] Creating layer inception_4a/5x5
I0501 17:56:12.983515 30632 net.cpp:84] Creating Layer inception_4a/5x5
I0501 17:56:12.983526 30632 net.cpp:406] inception_4a/5x5 <- inception_4a/5x5_reduce
I0501 17:56:12.983541 30632 net.cpp:380] inception_4a/5x5 -> inception_4a/5x5
I0501 17:56:12.988407 30632 net.cpp:122] Setting up inception_4a/5x5
I0501 17:56:12.988435 30632 net.cpp:129] Top shape: 32 48 14 14 (301056)
I0501 17:56:12.988441 30632 net.cpp:137] Memory required for data: 1166090752
I0501 17:56:12.988456 30632 layer_factory.hpp:77] Creating layer inception_4a/relu_5x5
I0501 17:56:12.988471 30632 net.cpp:84] Creating Layer inception_4a/relu_5x5
I0501 17:56:12.988478 30632 net.cpp:406] inception_4a/relu_5x5 <- inception_4a/5x5
I0501 17:56:12.988492 30632 net.cpp:367] inception_4a/relu_5x5 -> inception_4a/5x5 (in-place)
I0501 17:56:12.989065 30632 net.cpp:122] Setting up inception_4a/relu_5x5
I0501 17:56:12.989079 30632 net.cpp:129] Top shape: 32 48 14 14 (301056)
I0501 17:56:12.989085 30632 net.cpp:137] Memory required for data: 1167294976
I0501 17:56:12.989090 30632 layer_factory.hpp:77] Creating layer inception_4a/pool
I0501 17:56:12.989104 30632 net.cpp:84] Creating Layer inception_4a/pool
I0501 17:56:12.989111 30632 net.cpp:406] inception_4a/pool <- pool3/3x3_s2_pool3/3x3_s2_0_split_3
I0501 17:56:12.989150 30632 net.cpp:380] inception_4a/pool -> inception_4a/pool
I0501 17:56:12.989218 30632 net.cpp:122] Setting up inception_4a/pool
I0501 17:56:12.989231 30632 net.cpp:129] Top shape: 32 480 14 14 (3010560)
I0501 17:56:12.989236 30632 net.cpp:137] Memory required for data: 1179337216
I0501 17:56:12.989241 30632 layer_factory.hpp:77] Creating layer inception_4a/pool_proj
I0501 17:56:12.989260 30632 net.cpp:84] Creating Layer inception_4a/pool_proj
I0501 17:56:12.989267 30632 net.cpp:406] inception_4a/pool_proj <- inception_4a/pool
I0501 17:56:12.989280 30632 net.cpp:380] inception_4a/pool_proj -> inception_4a/pool_proj
I0501 17:56:12.992283 30632 net.cpp:122] Setting up inception_4a/pool_proj
I0501 17:56:12.992300 30632 net.cpp:129] Top shape: 32 64 14 14 (401408)
I0501 17:56:12.992305 30632 net.cpp:137] Memory required for data: 1180942848
I0501 17:56:12.992316 30632 layer_factory.hpp:77] Creating layer inception_4a/relu_pool_proj
I0501 17:56:12.992326 30632 net.cpp:84] Creating Layer inception_4a/relu_pool_proj
I0501 17:56:12.992333 30632 net.cpp:406] inception_4a/relu_pool_proj <- inception_4a/pool_proj
I0501 17:56:12.992344 30632 net.cpp:367] inception_4a/relu_pool_proj -> inception_4a/pool_proj (in-place)
I0501 17:56:13.006376 30632 net.cpp:122] Setting up inception_4a/relu_pool_proj
I0501 17:56:13.006403 30632 net.cpp:129] Top shape: 32 64 14 14 (401408)
I0501 17:56:13.006408 30632 net.cpp:137] Memory required for data: 1182548480
I0501 17:56:13.006417 30632 layer_factory.hpp:77] Creating layer inception_4a/output
I0501 17:56:13.006429 30632 net.cpp:84] Creating Layer inception_4a/output
I0501 17:56:13.006435 30632 net.cpp:406] inception_4a/output <- inception_4a/1x1
I0501 17:56:13.006445 30632 net.cpp:406] inception_4a/output <- inception_4a/3x3
I0501 17:56:13.006453 30632 net.cpp:406] inception_4a/output <- inception_4a/5x5
I0501 17:56:13.006458 30632 net.cpp:406] inception_4a/output <- inception_4a/pool_proj
I0501 17:56:13.006469 30632 net.cpp:380] inception_4a/output -> inception_4a/output
I0501 17:56:13.006556 30632 net.cpp:122] Setting up inception_4a/output
I0501 17:56:13.006564 30632 net.cpp:129] Top shape: 32 512 14 14 (3211264)
I0501 17:56:13.006570 30632 net.cpp:137] Memory required for data: 1195393536
I0501 17:56:13.006575 30632 layer_factory.hpp:77] Creating layer inception_4a/output_inception_4a/output_0_split
I0501 17:56:13.006587 30632 net.cpp:84] Creating Layer inception_4a/output_inception_4a/output_0_split
I0501 17:56:13.006592 30632 net.cpp:406] inception_4a/output_inception_4a/output_0_split <- inception_4a/output
I0501 17:56:13.006603 30632 net.cpp:380] inception_4a/output_inception_4a/output_0_split -> inception_4a/output_inception_4a/output_0_split_0
I0501 17:56:13.006611 30632 net.cpp:380] inception_4a/output_inception_4a/output_0_split -> inception_4a/output_inception_4a/output_0_split_1
I0501 17:56:13.006620 30632 net.cpp:380] inception_4a/output_inception_4a/output_0_split -> inception_4a/output_inception_4a/output_0_split_2
I0501 17:56:13.006630 30632 net.cpp:380] inception_4a/output_inception_4a/output_0_split -> inception_4a/output_inception_4a/output_0_split_3
I0501 17:56:13.006640 30632 net.cpp:380] inception_4a/output_inception_4a/output_0_split -> inception_4a/output_inception_4a/output_0_split_4
I0501 17:56:13.006724 30632 net.cpp:122] Setting up inception_4a/output_inception_4a/output_0_split
I0501 17:56:13.006732 30632 net.cpp:129] Top shape: 32 512 14 14 (3211264)
I0501 17:56:13.006739 30632 net.cpp:129] Top shape: 32 512 14 14 (3211264)
I0501 17:56:13.006747 30632 net.cpp:129] Top shape: 32 512 14 14 (3211264)
I0501 17:56:13.006752 30632 net.cpp:129] Top shape: 32 512 14 14 (3211264)
I0501 17:56:13.006759 30632 net.cpp:129] Top shape: 32 512 14 14 (3211264)
I0501 17:56:13.006764 30632 net.cpp:137] Memory required for data: 1259618816
I0501 17:56:13.006770 30632 layer_factory.hpp:77] Creating layer loss1/ave_pool
I0501 17:56:13.006779 30632 net.cpp:84] Creating Layer loss1/ave_pool
I0501 17:56:13.006784 30632 net.cpp:406] loss1/ave_pool <- inception_4a/output_inception_4a/output_0_split_0
I0501 17:56:13.006819 30632 net.cpp:380] loss1/ave_pool -> loss1/ave_pool
I0501 17:56:13.007345 30632 net.cpp:122] Setting up loss1/ave_pool
I0501 17:56:13.007356 30632 net.cpp:129] Top shape: 32 512 4 4 (262144)
I0501 17:56:13.007361 30632 net.cpp:137] Memory required for data: 1260667392
I0501 17:56:13.007367 30632 layer_factory.hpp:77] Creating layer loss1/conv
I0501 17:56:13.007383 30632 net.cpp:84] Creating Layer loss1/conv
I0501 17:56:13.007421 30632 net.cpp:406] loss1/conv <- loss1/ave_pool
I0501 17:56:13.007432 30632 net.cpp:380] loss1/conv -> loss1/conv
I0501 17:56:13.023675 30632 net.cpp:122] Setting up loss1/conv
I0501 17:56:13.023705 30632 net.cpp:129] Top shape: 32 128 4 4 (65536)
I0501 17:56:13.023711 30632 net.cpp:137] Memory required for data: 1260929536
I0501 17:56:13.023727 30632 layer_factory.hpp:77] Creating layer loss1/relu_conv
I0501 17:56:13.023741 30632 net.cpp:84] Creating Layer loss1/relu_conv
I0501 17:56:13.023749 30632 net.cpp:406] loss1/relu_conv <- loss1/conv
I0501 17:56:13.023762 30632 net.cpp:367] loss1/relu_conv -> loss1/conv (in-place)
I0501 17:56:13.024600 30632 net.cpp:122] Setting up loss1/relu_conv
I0501 17:56:13.024613 30632 net.cpp:129] Top shape: 32 128 4 4 (65536)
I0501 17:56:13.024619 30632 net.cpp:137] Memory required for data: 1261191680
I0501 17:56:13.024624 30632 layer_factory.hpp:77] Creating layer loss1/fc
I0501 17:56:13.024639 30632 net.cpp:84] Creating Layer loss1/fc
I0501 17:56:13.024646 30632 net.cpp:406] loss1/fc <- loss1/conv
I0501 17:56:13.024655 30632 net.cpp:380] loss1/fc -> loss1/fc
I0501 17:56:13.053619 30632 net.cpp:122] Setting up loss1/fc
I0501 17:56:13.053651 30632 net.cpp:129] Top shape: 32 1024 (32768)
I0501 17:56:13.053658 30632 net.cpp:137] Memory required for data: 1261322752
I0501 17:56:13.053673 30632 layer_factory.hpp:77] Creating layer loss1/relu_fc
I0501 17:56:13.053689 30632 net.cpp:84] Creating Layer loss1/relu_fc
I0501 17:56:13.053696 30632 net.cpp:406] loss1/relu_fc <- loss1/fc
I0501 17:56:13.053707 30632 net.cpp:367] loss1/relu_fc -> loss1/fc (in-place)
I0501 17:56:13.054370 30632 net.cpp:122] Setting up loss1/relu_fc
I0501 17:56:13.054383 30632 net.cpp:129] Top shape: 32 1024 (32768)
I0501 17:56:13.054388 30632 net.cpp:137] Memory required for data: 1261453824
I0501 17:56:13.054394 30632 layer_factory.hpp:77] Creating layer loss1/drop_fc
I0501 17:56:13.054426 30632 net.cpp:84] Creating Layer loss1/drop_fc
I0501 17:56:13.054433 30632 net.cpp:406] loss1/drop_fc <- loss1/fc
I0501 17:56:13.054441 30632 net.cpp:367] loss1/drop_fc -> loss1/fc (in-place)
I0501 17:56:13.054524 30632 net.cpp:122] Setting up loss1/drop_fc
I0501 17:56:13.054534 30632 net.cpp:129] Top shape: 32 1024 (32768)
I0501 17:56:13.054540 30632 net.cpp:137] Memory required for data: 1261584896
I0501 17:56:13.054546 30632 layer_factory.hpp:77] Creating layer loss1/classifier
I0501 17:56:13.054558 30632 net.cpp:84] Creating Layer loss1/classifier
I0501 17:56:13.054564 30632 net.cpp:406] loss1/classifier <- loss1/fc
I0501 17:56:13.054576 30632 net.cpp:380] loss1/classifier -> loss1/classifier
I0501 17:56:13.081418 30632 net.cpp:122] Setting up loss1/classifier
I0501 17:56:13.081445 30632 net.cpp:129] Top shape: 32 196 (6272)
I0501 17:56:13.081451 30632 net.cpp:137] Memory required for data: 1261609984
I0501 17:56:13.081466 30632 layer_factory.hpp:77] Creating layer loss1/loss
I0501 17:56:13.081490 30632 net.cpp:84] Creating Layer loss1/loss
I0501 17:56:13.081498 30632 net.cpp:406] loss1/loss <- loss1/classifier
I0501 17:56:13.081508 30632 net.cpp:406] loss1/loss <- label_train-data_1_split_0
I0501 17:56:13.081517 30632 net.cpp:380] loss1/loss -> loss1/loss
I0501 17:56:13.081534 30632 layer_factory.hpp:77] Creating layer loss1/loss
I0501 17:56:13.082617 30632 net.cpp:122] Setting up loss1/loss
I0501 17:56:13.082630 30632 net.cpp:129] Top shape: (1)
I0501 17:56:13.082635 30632 net.cpp:132]     with loss weight 0.3
I0501 17:56:13.082662 30632 net.cpp:137] Memory required for data: 1261609988
I0501 17:56:13.082669 30632 layer_factory.hpp:77] Creating layer inception_4b/1x1
I0501 17:56:13.082716 30632 net.cpp:84] Creating Layer inception_4b/1x1
I0501 17:56:13.082726 30632 net.cpp:406] inception_4b/1x1 <- inception_4a/output_inception_4a/output_0_split_1
I0501 17:56:13.082739 30632 net.cpp:380] inception_4b/1x1 -> inception_4b/1x1
I0501 17:56:13.086056 30632 net.cpp:122] Setting up inception_4b/1x1
I0501 17:56:13.086081 30632 net.cpp:129] Top shape: 32 160 14 14 (1003520)
I0501 17:56:13.086086 30632 net.cpp:137] Memory required for data: 1265624068
I0501 17:56:13.086098 30632 layer_factory.hpp:77] Creating layer inception_4b/relu_1x1
I0501 17:56:13.086112 30632 net.cpp:84] Creating Layer inception_4b/relu_1x1
I0501 17:56:13.086119 30632 net.cpp:406] inception_4b/relu_1x1 <- inception_4b/1x1
I0501 17:56:13.086133 30632 net.cpp:367] inception_4b/relu_1x1 -> inception_4b/1x1 (in-place)
I0501 17:56:13.098703 30632 net.cpp:122] Setting up inception_4b/relu_1x1
I0501 17:56:13.098737 30632 net.cpp:129] Top shape: 32 160 14 14 (1003520)
I0501 17:56:13.098745 30632 net.cpp:137] Memory required for data: 1269638148
I0501 17:56:13.098754 30632 layer_factory.hpp:77] Creating layer inception_4b/3x3_reduce
I0501 17:56:13.098778 30632 net.cpp:84] Creating Layer inception_4b/3x3_reduce
I0501 17:56:13.098788 30632 net.cpp:406] inception_4b/3x3_reduce <- inception_4a/output_inception_4a/output_0_split_2
I0501 17:56:13.098805 30632 net.cpp:380] inception_4b/3x3_reduce -> inception_4b/3x3_reduce
I0501 17:56:13.104332 30632 net.cpp:122] Setting up inception_4b/3x3_reduce
I0501 17:56:13.104357 30632 net.cpp:129] Top shape: 32 112 14 14 (702464)
I0501 17:56:13.104364 30632 net.cpp:137] Memory required for data: 1272448004
I0501 17:56:13.104377 30632 layer_factory.hpp:77] Creating layer inception_4b/relu_3x3_reduce
I0501 17:56:13.104388 30632 net.cpp:84] Creating Layer inception_4b/relu_3x3_reduce
I0501 17:56:13.104398 30632 net.cpp:406] inception_4b/relu_3x3_reduce <- inception_4b/3x3_reduce
I0501 17:56:13.104408 30632 net.cpp:367] inception_4b/relu_3x3_reduce -> inception_4b/3x3_reduce (in-place)
I0501 17:56:13.104987 30632 net.cpp:122] Setting up inception_4b/relu_3x3_reduce
I0501 17:56:13.105001 30632 net.cpp:129] Top shape: 32 112 14 14 (702464)
I0501 17:56:13.105007 30632 net.cpp:137] Memory required for data: 1275257860
I0501 17:56:13.105012 30632 layer_factory.hpp:77] Creating layer inception_4b/3x3
I0501 17:56:13.105029 30632 net.cpp:84] Creating Layer inception_4b/3x3
I0501 17:56:13.105037 30632 net.cpp:406] inception_4b/3x3 <- inception_4b/3x3_reduce
I0501 17:56:13.105051 30632 net.cpp:380] inception_4b/3x3 -> inception_4b/3x3
I0501 17:56:13.113555 30632 net.cpp:122] Setting up inception_4b/3x3
I0501 17:56:13.113580 30632 net.cpp:129] Top shape: 32 224 14 14 (1404928)
I0501 17:56:13.113587 30632 net.cpp:137] Memory required for data: 1280877572
I0501 17:56:13.113602 30632 layer_factory.hpp:77] Creating layer inception_4b/relu_3x3
I0501 17:56:13.113622 30632 net.cpp:84] Creating Layer inception_4b/relu_3x3
I0501 17:56:13.113632 30632 net.cpp:406] inception_4b/relu_3x3 <- inception_4b/3x3
I0501 17:56:13.113643 30632 net.cpp:367] inception_4b/relu_3x3 -> inception_4b/3x3 (in-place)
I0501 17:56:13.114450 30632 net.cpp:122] Setting up inception_4b/relu_3x3
I0501 17:56:13.114465 30632 net.cpp:129] Top shape: 32 224 14 14 (1404928)
I0501 17:56:13.114470 30632 net.cpp:137] Memory required for data: 1286497284
I0501 17:56:13.114477 30632 layer_factory.hpp:77] Creating layer inception_4b/5x5_reduce
I0501 17:56:13.114538 30632 net.cpp:84] Creating Layer inception_4b/5x5_reduce
I0501 17:56:13.114548 30632 net.cpp:406] inception_4b/5x5_reduce <- inception_4a/output_inception_4a/output_0_split_3
I0501 17:56:13.114562 30632 net.cpp:380] inception_4b/5x5_reduce -> inception_4b/5x5_reduce
I0501 17:56:13.142071 30632 net.cpp:122] Setting up inception_4b/5x5_reduce
I0501 17:56:13.142097 30632 net.cpp:129] Top shape: 32 24 14 14 (150528)
I0501 17:56:13.142102 30632 net.cpp:137] Memory required for data: 1287099396
I0501 17:56:13.142117 30632 layer_factory.hpp:77] Creating layer inception_4b/relu_5x5_reduce
I0501 17:56:13.142158 30632 net.cpp:84] Creating Layer inception_4b/relu_5x5_reduce
I0501 17:56:13.142166 30632 net.cpp:406] inception_4b/relu_5x5_reduce <- inception_4b/5x5_reduce
I0501 17:56:13.142175 30632 net.cpp:367] inception_4b/relu_5x5_reduce -> inception_4b/5x5_reduce (in-place)
I0501 17:56:13.142987 30632 net.cpp:122] Setting up inception_4b/relu_5x5_reduce
I0501 17:56:13.143002 30632 net.cpp:129] Top shape: 32 24 14 14 (150528)
I0501 17:56:13.143008 30632 net.cpp:137] Memory required for data: 1287701508
I0501 17:56:13.143015 30632 layer_factory.hpp:77] Creating layer inception_4b/5x5
I0501 17:56:13.143033 30632 net.cpp:84] Creating Layer inception_4b/5x5
I0501 17:56:13.143039 30632 net.cpp:406] inception_4b/5x5 <- inception_4b/5x5_reduce
I0501 17:56:13.143052 30632 net.cpp:380] inception_4b/5x5 -> inception_4b/5x5
I0501 17:56:13.147552 30632 net.cpp:122] Setting up inception_4b/5x5
I0501 17:56:13.147576 30632 net.cpp:129] Top shape: 32 64 14 14 (401408)
I0501 17:56:13.147581 30632 net.cpp:137] Memory required for data: 1289307140
I0501 17:56:13.147593 30632 layer_factory.hpp:77] Creating layer inception_4b/relu_5x5
I0501 17:56:13.147609 30632 net.cpp:84] Creating Layer inception_4b/relu_5x5
I0501 17:56:13.147616 30632 net.cpp:406] inception_4b/relu_5x5 <- inception_4b/5x5
I0501 17:56:13.147626 30632 net.cpp:367] inception_4b/relu_5x5 -> inception_4b/5x5 (in-place)
I0501 17:56:13.148404 30632 net.cpp:122] Setting up inception_4b/relu_5x5
I0501 17:56:13.148417 30632 net.cpp:129] Top shape: 32 64 14 14 (401408)
I0501 17:56:13.148423 30632 net.cpp:137] Memory required for data: 1290912772
I0501 17:56:13.148429 30632 layer_factory.hpp:77] Creating layer inception_4b/pool
I0501 17:56:13.148442 30632 net.cpp:84] Creating Layer inception_4b/pool
I0501 17:56:13.148448 30632 net.cpp:406] inception_4b/pool <- inception_4a/output_inception_4a/output_0_split_4
I0501 17:56:13.148458 30632 net.cpp:380] inception_4b/pool -> inception_4b/pool
I0501 17:56:13.148541 30632 net.cpp:122] Setting up inception_4b/pool
I0501 17:56:13.148555 30632 net.cpp:129] Top shape: 32 512 14 14 (3211264)
I0501 17:56:13.148560 30632 net.cpp:137] Memory required for data: 1303757828
I0501 17:56:13.148566 30632 layer_factory.hpp:77] Creating layer inception_4b/pool_proj
I0501 17:56:13.148581 30632 net.cpp:84] Creating Layer inception_4b/pool_proj
I0501 17:56:13.148586 30632 net.cpp:406] inception_4b/pool_proj <- inception_4b/pool
I0501 17:56:13.148595 30632 net.cpp:380] inception_4b/pool_proj -> inception_4b/pool_proj
I0501 17:56:13.164285 30632 net.cpp:122] Setting up inception_4b/pool_proj
I0501 17:56:13.164314 30632 net.cpp:129] Top shape: 32 64 14 14 (401408)
I0501 17:56:13.164321 30632 net.cpp:137] Memory required for data: 1305363460
I0501 17:56:13.164338 30632 layer_factory.hpp:77] Creating layer inception_4b/relu_pool_proj
I0501 17:56:13.164353 30632 net.cpp:84] Creating Layer inception_4b/relu_pool_proj
I0501 17:56:13.164363 30632 net.cpp:406] inception_4b/relu_pool_proj <- inception_4b/pool_proj
I0501 17:56:13.164376 30632 net.cpp:367] inception_4b/relu_pool_proj -> inception_4b/pool_proj (in-place)
I0501 17:56:13.165340 30632 net.cpp:122] Setting up inception_4b/relu_pool_proj
I0501 17:56:13.165359 30632 net.cpp:129] Top shape: 32 64 14 14 (401408)
I0501 17:56:13.165364 30632 net.cpp:137] Memory required for data: 1306969092
I0501 17:56:13.165370 30632 layer_factory.hpp:77] Creating layer inception_4b/output
I0501 17:56:13.165381 30632 net.cpp:84] Creating Layer inception_4b/output
I0501 17:56:13.165388 30632 net.cpp:406] inception_4b/output <- inception_4b/1x1
I0501 17:56:13.165397 30632 net.cpp:406] inception_4b/output <- inception_4b/3x3
I0501 17:56:13.165405 30632 net.cpp:406] inception_4b/output <- inception_4b/5x5
I0501 17:56:13.165411 30632 net.cpp:406] inception_4b/output <- inception_4b/pool_proj
I0501 17:56:13.165423 30632 net.cpp:380] inception_4b/output -> inception_4b/output
I0501 17:56:13.165473 30632 net.cpp:122] Setting up inception_4b/output
I0501 17:56:13.165483 30632 net.cpp:129] Top shape: 32 512 14 14 (3211264)
I0501 17:56:13.165514 30632 net.cpp:137] Memory required for data: 1319814148
I0501 17:56:13.165521 30632 layer_factory.hpp:77] Creating layer inception_4b/output_inception_4b/output_0_split
I0501 17:56:13.165532 30632 net.cpp:84] Creating Layer inception_4b/output_inception_4b/output_0_split
I0501 17:56:13.165539 30632 net.cpp:406] inception_4b/output_inception_4b/output_0_split <- inception_4b/output
I0501 17:56:13.165550 30632 net.cpp:380] inception_4b/output_inception_4b/output_0_split -> inception_4b/output_inception_4b/output_0_split_0
I0501 17:56:13.165562 30632 net.cpp:380] inception_4b/output_inception_4b/output_0_split -> inception_4b/output_inception_4b/output_0_split_1
I0501 17:56:13.165573 30632 net.cpp:380] inception_4b/output_inception_4b/output_0_split -> inception_4b/output_inception_4b/output_0_split_2
I0501 17:56:13.165585 30632 net.cpp:380] inception_4b/output_inception_4b/output_0_split -> inception_4b/output_inception_4b/output_0_split_3
I0501 17:56:13.165678 30632 net.cpp:122] Setting up inception_4b/output_inception_4b/output_0_split
I0501 17:56:13.165689 30632 net.cpp:129] Top shape: 32 512 14 14 (3211264)
I0501 17:56:13.165696 30632 net.cpp:129] Top shape: 32 512 14 14 (3211264)
I0501 17:56:13.165704 30632 net.cpp:129] Top shape: 32 512 14 14 (3211264)
I0501 17:56:13.165709 30632 net.cpp:129] Top shape: 32 512 14 14 (3211264)
I0501 17:56:13.165714 30632 net.cpp:137] Memory required for data: 1371194372
I0501 17:56:13.165719 30632 layer_factory.hpp:77] Creating layer inception_4c/1x1
I0501 17:56:13.165738 30632 net.cpp:84] Creating Layer inception_4c/1x1
I0501 17:56:13.165746 30632 net.cpp:406] inception_4c/1x1 <- inception_4b/output_inception_4b/output_0_split_0
I0501 17:56:13.165756 30632 net.cpp:380] inception_4c/1x1 -> inception_4c/1x1
I0501 17:56:13.214426 30632 net.cpp:122] Setting up inception_4c/1x1
I0501 17:56:13.214457 30632 net.cpp:129] Top shape: 32 128 14 14 (802816)
I0501 17:56:13.214466 30632 net.cpp:137] Memory required for data: 1374405636
I0501 17:56:13.214524 30632 layer_factory.hpp:77] Creating layer inception_4c/relu_1x1
I0501 17:56:13.214542 30632 net.cpp:84] Creating Layer inception_4c/relu_1x1
I0501 17:56:13.214551 30632 net.cpp:406] inception_4c/relu_1x1 <- inception_4c/1x1
I0501 17:56:13.214565 30632 net.cpp:367] inception_4c/relu_1x1 -> inception_4c/1x1 (in-place)
I0501 17:56:13.215173 30632 net.cpp:122] Setting up inception_4c/relu_1x1
I0501 17:56:13.215190 30632 net.cpp:129] Top shape: 32 128 14 14 (802816)
I0501 17:56:13.215196 30632 net.cpp:137] Memory required for data: 1377616900
I0501 17:56:13.215203 30632 layer_factory.hpp:77] Creating layer inception_4c/3x3_reduce
I0501 17:56:13.215224 30632 net.cpp:84] Creating Layer inception_4c/3x3_reduce
I0501 17:56:13.215237 30632 net.cpp:406] inception_4c/3x3_reduce <- inception_4b/output_inception_4b/output_0_split_1
I0501 17:56:13.215251 30632 net.cpp:380] inception_4c/3x3_reduce -> inception_4c/3x3_reduce
I0501 17:56:13.220832 30632 net.cpp:122] Setting up inception_4c/3x3_reduce
I0501 17:56:13.220855 30632 net.cpp:129] Top shape: 32 128 14 14 (802816)
I0501 17:56:13.220862 30632 net.cpp:137] Memory required for data: 1380828164
I0501 17:56:13.220875 30632 layer_factory.hpp:77] Creating layer inception_4c/relu_3x3_reduce
I0501 17:56:13.220887 30632 net.cpp:84] Creating Layer inception_4c/relu_3x3_reduce
I0501 17:56:13.220898 30632 net.cpp:406] inception_4c/relu_3x3_reduce <- inception_4c/3x3_reduce
I0501 17:56:13.220909 30632 net.cpp:367] inception_4c/relu_3x3_reduce -> inception_4c/3x3_reduce (in-place)
I0501 17:56:13.221757 30632 net.cpp:122] Setting up inception_4c/relu_3x3_reduce
I0501 17:56:13.221776 30632 net.cpp:129] Top shape: 32 128 14 14 (802816)
I0501 17:56:13.221784 30632 net.cpp:137] Memory required for data: 1384039428
I0501 17:56:13.221791 30632 layer_factory.hpp:77] Creating layer inception_4c/3x3
I0501 17:56:13.221807 30632 net.cpp:84] Creating Layer inception_4c/3x3
I0501 17:56:13.221815 30632 net.cpp:406] inception_4c/3x3 <- inception_4c/3x3_reduce
I0501 17:56:13.221829 30632 net.cpp:380] inception_4c/3x3 -> inception_4c/3x3
I0501 17:56:13.228366 30632 net.cpp:122] Setting up inception_4c/3x3
I0501 17:56:13.228397 30632 net.cpp:129] Top shape: 32 256 14 14 (1605632)
I0501 17:56:13.228404 30632 net.cpp:137] Memory required for data: 1390461956
I0501 17:56:13.228436 30632 layer_factory.hpp:77] Creating layer inception_4c/relu_3x3
I0501 17:56:13.228452 30632 net.cpp:84] Creating Layer inception_4c/relu_3x3
I0501 17:56:13.228461 30632 net.cpp:406] inception_4c/relu_3x3 <- inception_4c/3x3
I0501 17:56:13.228475 30632 net.cpp:367] inception_4c/relu_3x3 -> inception_4c/3x3 (in-place)
I0501 17:56:13.229982 30632 net.cpp:122] Setting up inception_4c/relu_3x3
I0501 17:56:13.229998 30632 net.cpp:129] Top shape: 32 256 14 14 (1605632)
I0501 17:56:13.230005 30632 net.cpp:137] Memory required for data: 1396884484
I0501 17:56:13.230010 30632 layer_factory.hpp:77] Creating layer inception_4c/5x5_reduce
I0501 17:56:13.230032 30632 net.cpp:84] Creating Layer inception_4c/5x5_reduce
I0501 17:56:13.230041 30632 net.cpp:406] inception_4c/5x5_reduce <- inception_4b/output_inception_4b/output_0_split_2
I0501 17:56:13.230051 30632 net.cpp:380] inception_4c/5x5_reduce -> inception_4c/5x5_reduce
I0501 17:56:13.254067 30632 net.cpp:122] Setting up inception_4c/5x5_reduce
I0501 17:56:13.254098 30632 net.cpp:129] Top shape: 32 24 14 14 (150528)
I0501 17:56:13.254104 30632 net.cpp:137] Memory required for data: 1397486596
I0501 17:56:13.254120 30632 layer_factory.hpp:77] Creating layer inception_4c/relu_5x5_reduce
I0501 17:56:13.254135 30632 net.cpp:84] Creating Layer inception_4c/relu_5x5_reduce
I0501 17:56:13.254145 30632 net.cpp:406] inception_4c/relu_5x5_reduce <- inception_4c/5x5_reduce
I0501 17:56:13.254169 30632 net.cpp:367] inception_4c/relu_5x5_reduce -> inception_4c/5x5_reduce (in-place)
I0501 17:56:13.255192 30632 net.cpp:122] Setting up inception_4c/relu_5x5_reduce
I0501 17:56:13.255205 30632 net.cpp:129] Top shape: 32 24 14 14 (150528)
I0501 17:56:13.255211 30632 net.cpp:137] Memory required for data: 1398088708
I0501 17:56:13.255218 30632 layer_factory.hpp:77] Creating layer inception_4c/5x5
I0501 17:56:13.255237 30632 net.cpp:84] Creating Layer inception_4c/5x5
I0501 17:56:13.255245 30632 net.cpp:406] inception_4c/5x5 <- inception_4c/5x5_reduce
I0501 17:56:13.255264 30632 net.cpp:380] inception_4c/5x5 -> inception_4c/5x5
I0501 17:56:13.260272 30632 net.cpp:122] Setting up inception_4c/5x5
I0501 17:56:13.260290 30632 net.cpp:129] Top shape: 32 64 14 14 (401408)
I0501 17:56:13.260295 30632 net.cpp:137] Memory required for data: 1399694340
I0501 17:56:13.260308 30632 layer_factory.hpp:77] Creating layer inception_4c/relu_5x5
I0501 17:56:13.260321 30632 net.cpp:84] Creating Layer inception_4c/relu_5x5
I0501 17:56:13.260329 30632 net.cpp:406] inception_4c/relu_5x5 <- inception_4c/5x5
I0501 17:56:13.260337 30632 net.cpp:367] inception_4c/relu_5x5 -> inception_4c/5x5 (in-place)
I0501 17:56:13.261075 30632 net.cpp:122] Setting up inception_4c/relu_5x5
I0501 17:56:13.261087 30632 net.cpp:129] Top shape: 32 64 14 14 (401408)
I0501 17:56:13.261092 30632 net.cpp:137] Memory required for data: 1401299972
I0501 17:56:13.261098 30632 layer_factory.hpp:77] Creating layer inception_4c/pool
I0501 17:56:13.261111 30632 net.cpp:84] Creating Layer inception_4c/pool
I0501 17:56:13.261116 30632 net.cpp:406] inception_4c/pool <- inception_4b/output_inception_4b/output_0_split_3
I0501 17:56:13.261126 30632 net.cpp:380] inception_4c/pool -> inception_4c/pool
I0501 17:56:13.261180 30632 net.cpp:122] Setting up inception_4c/pool
I0501 17:56:13.261188 30632 net.cpp:129] Top shape: 32 512 14 14 (3211264)
I0501 17:56:13.261193 30632 net.cpp:137] Memory required for data: 1414145028
I0501 17:56:13.261199 30632 layer_factory.hpp:77] Creating layer inception_4c/pool_proj
I0501 17:56:13.261214 30632 net.cpp:84] Creating Layer inception_4c/pool_proj
I0501 17:56:13.261219 30632 net.cpp:406] inception_4c/pool_proj <- inception_4c/pool
I0501 17:56:13.261229 30632 net.cpp:380] inception_4c/pool_proj -> inception_4c/pool_proj
I0501 17:56:13.273046 30632 net.cpp:122] Setting up inception_4c/pool_proj
I0501 17:56:13.273104 30632 net.cpp:129] Top shape: 32 64 14 14 (401408)
I0501 17:56:13.273113 30632 net.cpp:137] Memory required for data: 1415750660
I0501 17:56:13.273128 30632 layer_factory.hpp:77] Creating layer inception_4c/relu_pool_proj
I0501 17:56:13.273142 30632 net.cpp:84] Creating Layer inception_4c/relu_pool_proj
I0501 17:56:13.273154 30632 net.cpp:406] inception_4c/relu_pool_proj <- inception_4c/pool_proj
I0501 17:56:13.273164 30632 net.cpp:367] inception_4c/relu_pool_proj -> inception_4c/pool_proj (in-place)
I0501 17:56:13.273756 30632 net.cpp:122] Setting up inception_4c/relu_pool_proj
I0501 17:56:13.273772 30632 net.cpp:129] Top shape: 32 64 14 14 (401408)
I0501 17:56:13.273777 30632 net.cpp:137] Memory required for data: 1417356292
I0501 17:56:13.273783 30632 layer_factory.hpp:77] Creating layer inception_4c/output
I0501 17:56:13.273793 30632 net.cpp:84] Creating Layer inception_4c/output
I0501 17:56:13.273799 30632 net.cpp:406] inception_4c/output <- inception_4c/1x1
I0501 17:56:13.273808 30632 net.cpp:406] inception_4c/output <- inception_4c/3x3
I0501 17:56:13.273814 30632 net.cpp:406] inception_4c/output <- inception_4c/5x5
I0501 17:56:13.273821 30632 net.cpp:406] inception_4c/output <- inception_4c/pool_proj
I0501 17:56:13.273830 30632 net.cpp:380] inception_4c/output -> inception_4c/output
I0501 17:56:13.273875 30632 net.cpp:122] Setting up inception_4c/output
I0501 17:56:13.273886 30632 net.cpp:129] Top shape: 32 512 14 14 (3211264)
I0501 17:56:13.273891 30632 net.cpp:137] Memory required for data: 1430201348
I0501 17:56:13.273897 30632 layer_factory.hpp:77] Creating layer inception_4c/output_inception_4c/output_0_split
I0501 17:56:13.273910 30632 net.cpp:84] Creating Layer inception_4c/output_inception_4c/output_0_split
I0501 17:56:13.273917 30632 net.cpp:406] inception_4c/output_inception_4c/output_0_split <- inception_4c/output
I0501 17:56:13.273926 30632 net.cpp:380] inception_4c/output_inception_4c/output_0_split -> inception_4c/output_inception_4c/output_0_split_0
I0501 17:56:13.273941 30632 net.cpp:380] inception_4c/output_inception_4c/output_0_split -> inception_4c/output_inception_4c/output_0_split_1
I0501 17:56:13.273952 30632 net.cpp:380] inception_4c/output_inception_4c/output_0_split -> inception_4c/output_inception_4c/output_0_split_2
I0501 17:56:13.273960 30632 net.cpp:380] inception_4c/output_inception_4c/output_0_split -> inception_4c/output_inception_4c/output_0_split_3
I0501 17:56:13.274052 30632 net.cpp:122] Setting up inception_4c/output_inception_4c/output_0_split
I0501 17:56:13.274065 30632 net.cpp:129] Top shape: 32 512 14 14 (3211264)
I0501 17:56:13.274071 30632 net.cpp:129] Top shape: 32 512 14 14 (3211264)
I0501 17:56:13.274077 30632 net.cpp:129] Top shape: 32 512 14 14 (3211264)
I0501 17:56:13.274085 30632 net.cpp:129] Top shape: 32 512 14 14 (3211264)
I0501 17:56:13.274089 30632 net.cpp:137] Memory required for data: 1481581572
I0501 17:56:13.274096 30632 layer_factory.hpp:77] Creating layer inception_4d/1x1
I0501 17:56:13.274114 30632 net.cpp:84] Creating Layer inception_4d/1x1
I0501 17:56:13.274121 30632 net.cpp:406] inception_4d/1x1 <- inception_4c/output_inception_4c/output_0_split_0
I0501 17:56:13.274132 30632 net.cpp:380] inception_4d/1x1 -> inception_4d/1x1
I0501 17:56:13.313603 30632 net.cpp:122] Setting up inception_4d/1x1
I0501 17:56:13.313633 30632 net.cpp:129] Top shape: 32 112 14 14 (702464)
I0501 17:56:13.313639 30632 net.cpp:137] Memory required for data: 1484391428
I0501 17:56:13.313655 30632 layer_factory.hpp:77] Creating layer inception_4d/relu_1x1
I0501 17:56:13.313673 30632 net.cpp:84] Creating Layer inception_4d/relu_1x1
I0501 17:56:13.313681 30632 net.cpp:406] inception_4d/relu_1x1 <- inception_4d/1x1
I0501 17:56:13.313694 30632 net.cpp:367] inception_4d/relu_1x1 -> inception_4d/1x1 (in-place)
I0501 17:56:13.314270 30632 net.cpp:122] Setting up inception_4d/relu_1x1
I0501 17:56:13.314282 30632 net.cpp:129] Top shape: 32 112 14 14 (702464)
I0501 17:56:13.314288 30632 net.cpp:137] Memory required for data: 1487201284
I0501 17:56:13.314323 30632 layer_factory.hpp:77] Creating layer inception_4d/3x3_reduce
I0501 17:56:13.314344 30632 net.cpp:84] Creating Layer inception_4d/3x3_reduce
I0501 17:56:13.314353 30632 net.cpp:406] inception_4d/3x3_reduce <- inception_4c/output_inception_4c/output_0_split_1
I0501 17:56:13.314368 30632 net.cpp:380] inception_4d/3x3_reduce -> inception_4d/3x3_reduce
I0501 17:56:13.318703 30632 net.cpp:122] Setting up inception_4d/3x3_reduce
I0501 17:56:13.318722 30632 net.cpp:129] Top shape: 32 144 14 14 (903168)
I0501 17:56:13.318727 30632 net.cpp:137] Memory required for data: 1490813956
I0501 17:56:13.318739 30632 layer_factory.hpp:77] Creating layer inception_4d/relu_3x3_reduce
I0501 17:56:13.318753 30632 net.cpp:84] Creating Layer inception_4d/relu_3x3_reduce
I0501 17:56:13.318761 30632 net.cpp:406] inception_4d/relu_3x3_reduce <- inception_4d/3x3_reduce
I0501 17:56:13.318770 30632 net.cpp:367] inception_4d/relu_3x3_reduce -> inception_4d/3x3_reduce (in-place)
I0501 17:56:13.319804 30632 net.cpp:122] Setting up inception_4d/relu_3x3_reduce
I0501 17:56:13.319818 30632 net.cpp:129] Top shape: 32 144 14 14 (903168)
I0501 17:56:13.319823 30632 net.cpp:137] Memory required for data: 1494426628
I0501 17:56:13.319831 30632 layer_factory.hpp:77] Creating layer inception_4d/3x3
I0501 17:56:13.319849 30632 net.cpp:84] Creating Layer inception_4d/3x3
I0501 17:56:13.319856 30632 net.cpp:406] inception_4d/3x3 <- inception_4d/3x3_reduce
I0501 17:56:13.319870 30632 net.cpp:380] inception_4d/3x3 -> inception_4d/3x3
I0501 17:56:13.359572 30632 net.cpp:122] Setting up inception_4d/3x3
I0501 17:56:13.359604 30632 net.cpp:129] Top shape: 32 288 14 14 (1806336)
I0501 17:56:13.359612 30632 net.cpp:137] Memory required for data: 1501651972
I0501 17:56:13.359628 30632 layer_factory.hpp:77] Creating layer inception_4d/relu_3x3
I0501 17:56:13.359647 30632 net.cpp:84] Creating Layer inception_4d/relu_3x3
I0501 17:56:13.359656 30632 net.cpp:406] inception_4d/relu_3x3 <- inception_4d/3x3
I0501 17:56:13.359668 30632 net.cpp:367] inception_4d/relu_3x3 -> inception_4d/3x3 (in-place)
I0501 17:56:13.360631 30632 net.cpp:122] Setting up inception_4d/relu_3x3
I0501 17:56:13.360646 30632 net.cpp:129] Top shape: 32 288 14 14 (1806336)
I0501 17:56:13.360652 30632 net.cpp:137] Memory required for data: 1508877316
I0501 17:56:13.360658 30632 layer_factory.hpp:77] Creating layer inception_4d/5x5_reduce
I0501 17:56:13.360679 30632 net.cpp:84] Creating Layer inception_4d/5x5_reduce
I0501 17:56:13.360687 30632 net.cpp:406] inception_4d/5x5_reduce <- inception_4c/output_inception_4c/output_0_split_2
I0501 17:56:13.360699 30632 net.cpp:380] inception_4d/5x5_reduce -> inception_4d/5x5_reduce
I0501 17:56:13.364480 30632 net.cpp:122] Setting up inception_4d/5x5_reduce
I0501 17:56:13.364496 30632 net.cpp:129] Top shape: 32 32 14 14 (200704)
I0501 17:56:13.364502 30632 net.cpp:137] Memory required for data: 1509680132
I0501 17:56:13.364513 30632 layer_factory.hpp:77] Creating layer inception_4d/relu_5x5_reduce
I0501 17:56:13.364527 30632 net.cpp:84] Creating Layer inception_4d/relu_5x5_reduce
I0501 17:56:13.364534 30632 net.cpp:406] inception_4d/relu_5x5_reduce <- inception_4d/5x5_reduce
I0501 17:56:13.364543 30632 net.cpp:367] inception_4d/relu_5x5_reduce -> inception_4d/5x5_reduce (in-place)
I0501 17:56:13.381057 30632 net.cpp:122] Setting up inception_4d/relu_5x5_reduce
I0501 17:56:13.381084 30632 net.cpp:129] Top shape: 32 32 14 14 (200704)
I0501 17:56:13.381091 30632 net.cpp:137] Memory required for data: 1510482948
I0501 17:56:13.381100 30632 layer_factory.hpp:77] Creating layer inception_4d/5x5
I0501 17:56:13.381127 30632 net.cpp:84] Creating Layer inception_4d/5x5
I0501 17:56:13.381137 30632 net.cpp:406] inception_4d/5x5 <- inception_4d/5x5_reduce
I0501 17:56:13.381152 30632 net.cpp:380] inception_4d/5x5 -> inception_4d/5x5
I0501 17:56:13.383986 30632 net.cpp:122] Setting up inception_4d/5x5
I0501 17:56:13.384009 30632 net.cpp:129] Top shape: 32 64 14 14 (401408)
I0501 17:56:13.384014 30632 net.cpp:137] Memory required for data: 1512088580
I0501 17:56:13.384052 30632 layer_factory.hpp:77] Creating layer inception_4d/relu_5x5
I0501 17:56:13.384066 30632 net.cpp:84] Creating Layer inception_4d/relu_5x5
I0501 17:56:13.384074 30632 net.cpp:406] inception_4d/relu_5x5 <- inception_4d/5x5
I0501 17:56:13.384083 30632 net.cpp:367] inception_4d/relu_5x5 -> inception_4d/5x5 (in-place)
I0501 17:56:13.402829 30632 net.cpp:122] Setting up inception_4d/relu_5x5
I0501 17:56:13.402858 30632 net.cpp:129] Top shape: 32 64 14 14 (401408)
I0501 17:56:13.402864 30632 net.cpp:137] Memory required for data: 1513694212
I0501 17:56:13.402873 30632 layer_factory.hpp:77] Creating layer inception_4d/pool
I0501 17:56:13.402894 30632 net.cpp:84] Creating Layer inception_4d/pool
I0501 17:56:13.402904 30632 net.cpp:406] inception_4d/pool <- inception_4c/output_inception_4c/output_0_split_3
I0501 17:56:13.402915 30632 net.cpp:380] inception_4d/pool -> inception_4d/pool
I0501 17:56:13.402998 30632 net.cpp:122] Setting up inception_4d/pool
I0501 17:56:13.403010 30632 net.cpp:129] Top shape: 32 512 14 14 (3211264)
I0501 17:56:13.403017 30632 net.cpp:137] Memory required for data: 1526539268
I0501 17:56:13.403021 30632 layer_factory.hpp:77] Creating layer inception_4d/pool_proj
I0501 17:56:13.403041 30632 net.cpp:84] Creating Layer inception_4d/pool_proj
I0501 17:56:13.403048 30632 net.cpp:406] inception_4d/pool_proj <- inception_4d/pool
I0501 17:56:13.403064 30632 net.cpp:380] inception_4d/pool_proj -> inception_4d/pool_proj
I0501 17:56:13.407021 30632 net.cpp:122] Setting up inception_4d/pool_proj
I0501 17:56:13.407039 30632 net.cpp:129] Top shape: 32 64 14 14 (401408)
I0501 17:56:13.407045 30632 net.cpp:137] Memory required for data: 1528144900
I0501 17:56:13.407058 30632 layer_factory.hpp:77] Creating layer inception_4d/relu_pool_proj
I0501 17:56:13.407070 30632 net.cpp:84] Creating Layer inception_4d/relu_pool_proj
I0501 17:56:13.407078 30632 net.cpp:406] inception_4d/relu_pool_proj <- inception_4d/pool_proj
I0501 17:56:13.407086 30632 net.cpp:367] inception_4d/relu_pool_proj -> inception_4d/pool_proj (in-place)
I0501 17:56:13.407661 30632 net.cpp:122] Setting up inception_4d/relu_pool_proj
I0501 17:56:13.407677 30632 net.cpp:129] Top shape: 32 64 14 14 (401408)
I0501 17:56:13.407683 30632 net.cpp:137] Memory required for data: 1529750532
I0501 17:56:13.407688 30632 layer_factory.hpp:77] Creating layer inception_4d/output
I0501 17:56:13.407698 30632 net.cpp:84] Creating Layer inception_4d/output
I0501 17:56:13.407706 30632 net.cpp:406] inception_4d/output <- inception_4d/1x1
I0501 17:56:13.407712 30632 net.cpp:406] inception_4d/output <- inception_4d/3x3
I0501 17:56:13.407719 30632 net.cpp:406] inception_4d/output <- inception_4d/5x5
I0501 17:56:13.407725 30632 net.cpp:406] inception_4d/output <- inception_4d/pool_proj
I0501 17:56:13.407737 30632 net.cpp:380] inception_4d/output -> inception_4d/output
I0501 17:56:13.407778 30632 net.cpp:122] Setting up inception_4d/output
I0501 17:56:13.407789 30632 net.cpp:129] Top shape: 32 528 14 14 (3311616)
I0501 17:56:13.407794 30632 net.cpp:137] Memory required for data: 1542996996
I0501 17:56:13.407799 30632 layer_factory.hpp:77] Creating layer inception_4d/output_inception_4d/output_0_split
I0501 17:56:13.407812 30632 net.cpp:84] Creating Layer inception_4d/output_inception_4d/output_0_split
I0501 17:56:13.407819 30632 net.cpp:406] inception_4d/output_inception_4d/output_0_split <- inception_4d/output
I0501 17:56:13.407830 30632 net.cpp:380] inception_4d/output_inception_4d/output_0_split -> inception_4d/output_inception_4d/output_0_split_0
I0501 17:56:13.407842 30632 net.cpp:380] inception_4d/output_inception_4d/output_0_split -> inception_4d/output_inception_4d/output_0_split_1
I0501 17:56:13.407851 30632 net.cpp:380] inception_4d/output_inception_4d/output_0_split -> inception_4d/output_inception_4d/output_0_split_2
I0501 17:56:13.407861 30632 net.cpp:380] inception_4d/output_inception_4d/output_0_split -> inception_4d/output_inception_4d/output_0_split_3
I0501 17:56:13.407873 30632 net.cpp:380] inception_4d/output_inception_4d/output_0_split -> inception_4d/output_inception_4d/output_0_split_4
I0501 17:56:13.408005 30632 net.cpp:122] Setting up inception_4d/output_inception_4d/output_0_split
I0501 17:56:13.408017 30632 net.cpp:129] Top shape: 32 528 14 14 (3311616)
I0501 17:56:13.408023 30632 net.cpp:129] Top shape: 32 528 14 14 (3311616)
I0501 17:56:13.408030 30632 net.cpp:129] Top shape: 32 528 14 14 (3311616)
I0501 17:56:13.408036 30632 net.cpp:129] Top shape: 32 528 14 14 (3311616)
I0501 17:56:13.408042 30632 net.cpp:129] Top shape: 32 528 14 14 (3311616)
I0501 17:56:13.408047 30632 net.cpp:137] Memory required for data: 1609229316
I0501 17:56:13.408053 30632 layer_factory.hpp:77] Creating layer loss2/ave_pool
I0501 17:56:13.408063 30632 net.cpp:84] Creating Layer loss2/ave_pool
I0501 17:56:13.408069 30632 net.cpp:406] loss2/ave_pool <- inception_4d/output_inception_4d/output_0_split_0
I0501 17:56:13.408082 30632 net.cpp:380] loss2/ave_pool -> loss2/ave_pool
I0501 17:56:13.410246 30632 net.cpp:122] Setting up loss2/ave_pool
I0501 17:56:13.410261 30632 net.cpp:129] Top shape: 32 528 4 4 (270336)
I0501 17:56:13.410266 30632 net.cpp:137] Memory required for data: 1610310660
I0501 17:56:13.410272 30632 layer_factory.hpp:77] Creating layer loss2/conv
I0501 17:56:13.410290 30632 net.cpp:84] Creating Layer loss2/conv
I0501 17:56:13.410296 30632 net.cpp:406] loss2/conv <- loss2/ave_pool
I0501 17:56:13.410310 30632 net.cpp:380] loss2/conv -> loss2/conv
I0501 17:56:13.414445 30632 net.cpp:122] Setting up loss2/conv
I0501 17:56:13.414472 30632 net.cpp:129] Top shape: 32 128 4 4 (65536)
I0501 17:56:13.414479 30632 net.cpp:137] Memory required for data: 1610572804
I0501 17:56:13.414528 30632 layer_factory.hpp:77] Creating layer loss2/relu_conv
I0501 17:56:13.414543 30632 net.cpp:84] Creating Layer loss2/relu_conv
I0501 17:56:13.414551 30632 net.cpp:406] loss2/relu_conv <- loss2/conv
I0501 17:56:13.414559 30632 net.cpp:367] loss2/relu_conv -> loss2/conv (in-place)
I0501 17:56:13.415145 30632 net.cpp:122] Setting up loss2/relu_conv
I0501 17:56:13.415159 30632 net.cpp:129] Top shape: 32 128 4 4 (65536)
I0501 17:56:13.415165 30632 net.cpp:137] Memory required for data: 1610834948
I0501 17:56:13.415171 30632 layer_factory.hpp:77] Creating layer loss2/fc
I0501 17:56:13.415184 30632 net.cpp:84] Creating Layer loss2/fc
I0501 17:56:13.415190 30632 net.cpp:406] loss2/fc <- loss2/conv
I0501 17:56:13.415201 30632 net.cpp:380] loss2/fc -> loss2/fc
I0501 17:56:13.482311 30632 net.cpp:122] Setting up loss2/fc
I0501 17:56:13.482336 30632 net.cpp:129] Top shape: 32 1024 (32768)
I0501 17:56:13.482342 30632 net.cpp:137] Memory required for data: 1610966020
I0501 17:56:13.482355 30632 layer_factory.hpp:77] Creating layer loss2/relu_fc
I0501 17:56:13.482367 30632 net.cpp:84] Creating Layer loss2/relu_fc
I0501 17:56:13.482374 30632 net.cpp:406] loss2/relu_fc <- loss2/fc
I0501 17:56:13.482386 30632 net.cpp:367] loss2/relu_fc -> loss2/fc (in-place)
I0501 17:56:13.503396 30632 net.cpp:122] Setting up loss2/relu_fc
I0501 17:56:13.503423 30632 net.cpp:129] Top shape: 32 1024 (32768)
I0501 17:56:13.503428 30632 net.cpp:137] Memory required for data: 1611097092
I0501 17:56:13.503437 30632 layer_factory.hpp:77] Creating layer loss2/drop_fc
I0501 17:56:13.503449 30632 net.cpp:84] Creating Layer loss2/drop_fc
I0501 17:56:13.503458 30632 net.cpp:406] loss2/drop_fc <- loss2/fc
I0501 17:56:13.503468 30632 net.cpp:367] loss2/drop_fc -> loss2/fc (in-place)
I0501 17:56:13.503509 30632 net.cpp:122] Setting up loss2/drop_fc
I0501 17:56:13.503517 30632 net.cpp:129] Top shape: 32 1024 (32768)
I0501 17:56:13.503521 30632 net.cpp:137] Memory required for data: 1611228164
I0501 17:56:13.503526 30632 layer_factory.hpp:77] Creating layer loss2/classifier
I0501 17:56:13.503536 30632 net.cpp:84] Creating Layer loss2/classifier
I0501 17:56:13.503541 30632 net.cpp:406] loss2/classifier <- loss2/fc
I0501 17:56:13.503551 30632 net.cpp:380] loss2/classifier -> loss2/classifier
I0501 17:56:13.505347 30632 net.cpp:122] Setting up loss2/classifier
I0501 17:56:13.505362 30632 net.cpp:129] Top shape: 32 196 (6272)
I0501 17:56:13.505393 30632 net.cpp:137] Memory required for data: 1611253252
I0501 17:56:13.505404 30632 layer_factory.hpp:77] Creating layer loss2/loss
I0501 17:56:13.505414 30632 net.cpp:84] Creating Layer loss2/loss
I0501 17:56:13.505420 30632 net.cpp:406] loss2/loss <- loss2/classifier
I0501 17:56:13.505427 30632 net.cpp:406] loss2/loss <- label_train-data_1_split_1
I0501 17:56:13.505435 30632 net.cpp:380] loss2/loss -> loss2/loss
I0501 17:56:13.505447 30632 layer_factory.hpp:77] Creating layer loss2/loss
I0501 17:56:13.506294 30632 net.cpp:122] Setting up loss2/loss
I0501 17:56:13.506304 30632 net.cpp:129] Top shape: (1)
I0501 17:56:13.506309 30632 net.cpp:132]     with loss weight 0.3
I0501 17:56:13.506323 30632 net.cpp:137] Memory required for data: 1611253256
I0501 17:56:13.506330 30632 layer_factory.hpp:77] Creating layer inception_4e/1x1
I0501 17:56:13.506346 30632 net.cpp:84] Creating Layer inception_4e/1x1
I0501 17:56:13.506353 30632 net.cpp:406] inception_4e/1x1 <- inception_4d/output_inception_4d/output_0_split_1
I0501 17:56:13.506362 30632 net.cpp:380] inception_4e/1x1 -> inception_4e/1x1
I0501 17:56:13.511736 30632 net.cpp:122] Setting up inception_4e/1x1
I0501 17:56:13.511762 30632 net.cpp:129] Top shape: 32 256 14 14 (1605632)
I0501 17:56:13.511767 30632 net.cpp:137] Memory required for data: 1617675784
I0501 17:56:13.511780 30632 layer_factory.hpp:77] Creating layer inception_4e/relu_1x1
I0501 17:56:13.511792 30632 net.cpp:84] Creating Layer inception_4e/relu_1x1
I0501 17:56:13.511799 30632 net.cpp:406] inception_4e/relu_1x1 <- inception_4e/1x1
I0501 17:56:13.511811 30632 net.cpp:367] inception_4e/relu_1x1 -> inception_4e/1x1 (in-place)
I0501 17:56:13.512516 30632 net.cpp:122] Setting up inception_4e/relu_1x1
I0501 17:56:13.512527 30632 net.cpp:129] Top shape: 32 256 14 14 (1605632)
I0501 17:56:13.512532 30632 net.cpp:137] Memory required for data: 1624098312
I0501 17:56:13.512537 30632 layer_factory.hpp:77] Creating layer inception_4e/3x3_reduce
I0501 17:56:13.512553 30632 net.cpp:84] Creating Layer inception_4e/3x3_reduce
I0501 17:56:13.512559 30632 net.cpp:406] inception_4e/3x3_reduce <- inception_4d/output_inception_4d/output_0_split_2
I0501 17:56:13.512570 30632 net.cpp:380] inception_4e/3x3_reduce -> inception_4e/3x3_reduce
I0501 17:56:13.529331 30632 net.cpp:122] Setting up inception_4e/3x3_reduce
I0501 17:56:13.529356 30632 net.cpp:129] Top shape: 32 160 14 14 (1003520)
I0501 17:56:13.529361 30632 net.cpp:137] Memory required for data: 1628112392
I0501 17:56:13.529374 30632 layer_factory.hpp:77] Creating layer inception_4e/relu_3x3_reduce
I0501 17:56:13.529388 30632 net.cpp:84] Creating Layer inception_4e/relu_3x3_reduce
I0501 17:56:13.529395 30632 net.cpp:406] inception_4e/relu_3x3_reduce <- inception_4e/3x3_reduce
I0501 17:56:13.529407 30632 net.cpp:367] inception_4e/relu_3x3_reduce -> inception_4e/3x3_reduce (in-place)
I0501 17:56:13.530311 30632 net.cpp:122] Setting up inception_4e/relu_3x3_reduce
I0501 17:56:13.530324 30632 net.cpp:129] Top shape: 32 160 14 14 (1003520)
I0501 17:56:13.530329 30632 net.cpp:137] Memory required for data: 1632126472
I0501 17:56:13.530334 30632 layer_factory.hpp:77] Creating layer inception_4e/3x3
I0501 17:56:13.530350 30632 net.cpp:84] Creating Layer inception_4e/3x3
I0501 17:56:13.530357 30632 net.cpp:406] inception_4e/3x3 <- inception_4e/3x3_reduce
I0501 17:56:13.530367 30632 net.cpp:380] inception_4e/3x3 -> inception_4e/3x3
I0501 17:56:13.560124 30632 net.cpp:122] Setting up inception_4e/3x3
I0501 17:56:13.560151 30632 net.cpp:129] Top shape: 32 320 14 14 (2007040)
I0501 17:56:13.560156 30632 net.cpp:137] Memory required for data: 1640154632
I0501 17:56:13.560169 30632 layer_factory.hpp:77] Creating layer inception_4e/relu_3x3
I0501 17:56:13.560181 30632 net.cpp:84] Creating Layer inception_4e/relu_3x3
I0501 17:56:13.560189 30632 net.cpp:406] inception_4e/relu_3x3 <- inception_4e/3x3
I0501 17:56:13.560200 30632 net.cpp:367] inception_4e/relu_3x3 -> inception_4e/3x3 (in-place)
I0501 17:56:13.560700 30632 net.cpp:122] Setting up inception_4e/relu_3x3
I0501 17:56:13.560736 30632 net.cpp:129] Top shape: 32 320 14 14 (2007040)
I0501 17:56:13.560741 30632 net.cpp:137] Memory required for data: 1648182792
I0501 17:56:13.560746 30632 layer_factory.hpp:77] Creating layer inception_4e/5x5_reduce
I0501 17:56:13.560763 30632 net.cpp:84] Creating Layer inception_4e/5x5_reduce
I0501 17:56:13.560770 30632 net.cpp:406] inception_4e/5x5_reduce <- inception_4d/output_inception_4d/output_0_split_3
I0501 17:56:13.560781 30632 net.cpp:380] inception_4e/5x5_reduce -> inception_4e/5x5_reduce
I0501 17:56:13.564291 30632 net.cpp:122] Setting up inception_4e/5x5_reduce
I0501 17:56:13.564314 30632 net.cpp:129] Top shape: 32 32 14 14 (200704)
I0501 17:56:13.564319 30632 net.cpp:137] Memory required for data: 1648985608
I0501 17:56:13.564332 30632 layer_factory.hpp:77] Creating layer inception_4e/relu_5x5_reduce
I0501 17:56:13.564347 30632 net.cpp:84] Creating Layer inception_4e/relu_5x5_reduce
I0501 17:56:13.564353 30632 net.cpp:406] inception_4e/relu_5x5_reduce <- inception_4e/5x5_reduce
I0501 17:56:13.564363 30632 net.cpp:367] inception_4e/relu_5x5_reduce -> inception_4e/5x5_reduce (in-place)
I0501 17:56:13.565351 30632 net.cpp:122] Setting up inception_4e/relu_5x5_reduce
I0501 17:56:13.565364 30632 net.cpp:129] Top shape: 32 32 14 14 (200704)
I0501 17:56:13.565369 30632 net.cpp:137] Memory required for data: 1649788424
I0501 17:56:13.565376 30632 layer_factory.hpp:77] Creating layer inception_4e/5x5
I0501 17:56:13.565426 30632 net.cpp:84] Creating Layer inception_4e/5x5
I0501 17:56:13.565433 30632 net.cpp:406] inception_4e/5x5 <- inception_4e/5x5_reduce
I0501 17:56:13.565443 30632 net.cpp:380] inception_4e/5x5 -> inception_4e/5x5
I0501 17:56:13.599730 30632 net.cpp:122] Setting up inception_4e/5x5
I0501 17:56:13.599758 30632 net.cpp:129] Top shape: 32 128 14 14 (802816)
I0501 17:56:13.599766 30632 net.cpp:137] Memory required for data: 1652999688
I0501 17:56:13.599783 30632 layer_factory.hpp:77] Creating layer inception_4e/relu_5x5
I0501 17:56:13.599799 30632 net.cpp:84] Creating Layer inception_4e/relu_5x5
I0501 17:56:13.599808 30632 net.cpp:406] inception_4e/relu_5x5 <- inception_4e/5x5
I0501 17:56:13.599822 30632 net.cpp:367] inception_4e/relu_5x5 -> inception_4e/5x5 (in-place)
I0501 17:56:13.600674 30632 net.cpp:122] Setting up inception_4e/relu_5x5
I0501 17:56:13.600688 30632 net.cpp:129] Top shape: 32 128 14 14 (802816)
I0501 17:56:13.600694 30632 net.cpp:137] Memory required for data: 1656210952
I0501 17:56:13.600700 30632 layer_factory.hpp:77] Creating layer inception_4e/pool
I0501 17:56:13.600710 30632 net.cpp:84] Creating Layer inception_4e/pool
I0501 17:56:13.600718 30632 net.cpp:406] inception_4e/pool <- inception_4d/output_inception_4d/output_0_split_4
I0501 17:56:13.600730 30632 net.cpp:380] inception_4e/pool -> inception_4e/pool
I0501 17:56:13.600801 30632 net.cpp:122] Setting up inception_4e/pool
I0501 17:56:13.600813 30632 net.cpp:129] Top shape: 32 528 14 14 (3311616)
I0501 17:56:13.600819 30632 net.cpp:137] Memory required for data: 1669457416
I0501 17:56:13.600824 30632 layer_factory.hpp:77] Creating layer inception_4e/pool_proj
I0501 17:56:13.600845 30632 net.cpp:84] Creating Layer inception_4e/pool_proj
I0501 17:56:13.600852 30632 net.cpp:406] inception_4e/pool_proj <- inception_4e/pool
I0501 17:56:13.600863 30632 net.cpp:380] inception_4e/pool_proj -> inception_4e/pool_proj
I0501 17:56:13.604997 30632 net.cpp:122] Setting up inception_4e/pool_proj
I0501 17:56:13.605018 30632 net.cpp:129] Top shape: 32 128 14 14 (802816)
I0501 17:56:13.605024 30632 net.cpp:137] Memory required for data: 1672668680
I0501 17:56:13.605037 30632 layer_factory.hpp:77] Creating layer inception_4e/relu_pool_proj
I0501 17:56:13.605047 30632 net.cpp:84] Creating Layer inception_4e/relu_pool_proj
I0501 17:56:13.605054 30632 net.cpp:406] inception_4e/relu_pool_proj <- inception_4e/pool_proj
I0501 17:56:13.605063 30632 net.cpp:367] inception_4e/relu_pool_proj -> inception_4e/pool_proj (in-place)
I0501 17:56:13.605890 30632 net.cpp:122] Setting up inception_4e/relu_pool_proj
I0501 17:56:13.605902 30632 net.cpp:129] Top shape: 32 128 14 14 (802816)
I0501 17:56:13.605940 30632 net.cpp:137] Memory required for data: 1675879944
I0501 17:56:13.605948 30632 layer_factory.hpp:77] Creating layer inception_4e/output
I0501 17:56:13.605959 30632 net.cpp:84] Creating Layer inception_4e/output
I0501 17:56:13.605965 30632 net.cpp:406] inception_4e/output <- inception_4e/1x1
I0501 17:56:13.605973 30632 net.cpp:406] inception_4e/output <- inception_4e/3x3
I0501 17:56:13.605980 30632 net.cpp:406] inception_4e/output <- inception_4e/5x5
I0501 17:56:13.605988 30632 net.cpp:406] inception_4e/output <- inception_4e/pool_proj
I0501 17:56:13.605996 30632 net.cpp:380] inception_4e/output -> inception_4e/output
I0501 17:56:13.606043 30632 net.cpp:122] Setting up inception_4e/output
I0501 17:56:13.606055 30632 net.cpp:129] Top shape: 32 832 14 14 (5218304)
I0501 17:56:13.606060 30632 net.cpp:137] Memory required for data: 1696753160
I0501 17:56:13.606065 30632 layer_factory.hpp:77] Creating layer pool4/3x3_s2
I0501 17:56:13.606078 30632 net.cpp:84] Creating Layer pool4/3x3_s2
I0501 17:56:13.606086 30632 net.cpp:406] pool4/3x3_s2 <- inception_4e/output
I0501 17:56:13.606096 30632 net.cpp:380] pool4/3x3_s2 -> pool4/3x3_s2
I0501 17:56:13.606161 30632 net.cpp:122] Setting up pool4/3x3_s2
I0501 17:56:13.606173 30632 net.cpp:129] Top shape: 32 832 7 7 (1304576)
I0501 17:56:13.606178 30632 net.cpp:137] Memory required for data: 1701971464
I0501 17:56:13.606184 30632 layer_factory.hpp:77] Creating layer pool4/3x3_s2_pool4/3x3_s2_0_split
I0501 17:56:13.606192 30632 net.cpp:84] Creating Layer pool4/3x3_s2_pool4/3x3_s2_0_split
I0501 17:56:13.606199 30632 net.cpp:406] pool4/3x3_s2_pool4/3x3_s2_0_split <- pool4/3x3_s2
I0501 17:56:13.606211 30632 net.cpp:380] pool4/3x3_s2_pool4/3x3_s2_0_split -> pool4/3x3_s2_pool4/3x3_s2_0_split_0
I0501 17:56:13.606223 30632 net.cpp:380] pool4/3x3_s2_pool4/3x3_s2_0_split -> pool4/3x3_s2_pool4/3x3_s2_0_split_1
I0501 17:56:13.606235 30632 net.cpp:380] pool4/3x3_s2_pool4/3x3_s2_0_split -> pool4/3x3_s2_pool4/3x3_s2_0_split_2
I0501 17:56:13.606246 30632 net.cpp:380] pool4/3x3_s2_pool4/3x3_s2_0_split -> pool4/3x3_s2_pool4/3x3_s2_0_split_3
I0501 17:56:13.606335 30632 net.cpp:122] Setting up pool4/3x3_s2_pool4/3x3_s2_0_split
I0501 17:56:13.606348 30632 net.cpp:129] Top shape: 32 832 7 7 (1304576)
I0501 17:56:13.606353 30632 net.cpp:129] Top shape: 32 832 7 7 (1304576)
I0501 17:56:13.606360 30632 net.cpp:129] Top shape: 32 832 7 7 (1304576)
I0501 17:56:13.606367 30632 net.cpp:129] Top shape: 32 832 7 7 (1304576)
I0501 17:56:13.606372 30632 net.cpp:137] Memory required for data: 1722844680
I0501 17:56:13.606377 30632 layer_factory.hpp:77] Creating layer inception_5a/1x1
I0501 17:56:13.606396 30632 net.cpp:84] Creating Layer inception_5a/1x1
I0501 17:56:13.606403 30632 net.cpp:406] inception_5a/1x1 <- pool4/3x3_s2_pool4/3x3_s2_0_split_0
I0501 17:56:13.606416 30632 net.cpp:380] inception_5a/1x1 -> inception_5a/1x1
I0501 17:56:13.654342 30632 net.cpp:122] Setting up inception_5a/1x1
I0501 17:56:13.654372 30632 net.cpp:129] Top shape: 32 256 7 7 (401408)
I0501 17:56:13.654377 30632 net.cpp:137] Memory required for data: 1724450312
I0501 17:56:13.654392 30632 layer_factory.hpp:77] Creating layer inception_5a/relu_1x1
I0501 17:56:13.654405 30632 net.cpp:84] Creating Layer inception_5a/relu_1x1
I0501 17:56:13.654413 30632 net.cpp:406] inception_5a/relu_1x1 <- inception_5a/1x1
I0501 17:56:13.654424 30632 net.cpp:367] inception_5a/relu_1x1 -> inception_5a/1x1 (in-place)
I0501 17:56:13.658951 30632 net.cpp:122] Setting up inception_5a/relu_1x1
I0501 17:56:13.658978 30632 net.cpp:129] Top shape: 32 256 7 7 (401408)
I0501 17:56:13.658984 30632 net.cpp:137] Memory required for data: 1726055944
I0501 17:56:13.658991 30632 layer_factory.hpp:77] Creating layer inception_5a/3x3_reduce
I0501 17:56:13.659014 30632 net.cpp:84] Creating Layer inception_5a/3x3_reduce
I0501 17:56:13.659023 30632 net.cpp:406] inception_5a/3x3_reduce <- pool4/3x3_s2_pool4/3x3_s2_0_split_1
I0501 17:56:13.659037 30632 net.cpp:380] inception_5a/3x3_reduce -> inception_5a/3x3_reduce
I0501 17:56:13.670229 30632 net.cpp:122] Setting up inception_5a/3x3_reduce
I0501 17:56:13.670258 30632 net.cpp:129] Top shape: 32 160 7 7 (250880)
I0501 17:56:13.670264 30632 net.cpp:137] Memory required for data: 1727059464
I0501 17:56:13.670279 30632 layer_factory.hpp:77] Creating layer inception_5a/relu_3x3_reduce
I0501 17:56:13.670296 30632 net.cpp:84] Creating Layer inception_5a/relu_3x3_reduce
I0501 17:56:13.670305 30632 net.cpp:406] inception_5a/relu_3x3_reduce <- inception_5a/3x3_reduce
I0501 17:56:13.670315 30632 net.cpp:367] inception_5a/relu_3x3_reduce -> inception_5a/3x3_reduce (in-place)
I0501 17:56:13.670920 30632 net.cpp:122] Setting up inception_5a/relu_3x3_reduce
I0501 17:56:13.670938 30632 net.cpp:129] Top shape: 32 160 7 7 (250880)
I0501 17:56:13.670944 30632 net.cpp:137] Memory required for data: 1728062984
I0501 17:56:13.670950 30632 layer_factory.hpp:77] Creating layer inception_5a/3x3
I0501 17:56:13.670967 30632 net.cpp:84] Creating Layer inception_5a/3x3
I0501 17:56:13.670974 30632 net.cpp:406] inception_5a/3x3 <- inception_5a/3x3_reduce
I0501 17:56:13.670984 30632 net.cpp:380] inception_5a/3x3 -> inception_5a/3x3
I0501 17:56:13.696499 30632 net.cpp:122] Setting up inception_5a/3x3
I0501 17:56:13.703573 30632 net.cpp:129] Top shape: 32 320 7 7 (501760)
I0501 17:56:13.703593 30632 net.cpp:137] Memory required for data: 1730070024
I0501 17:56:13.703609 30632 layer_factory.hpp:77] Creating layer inception_5a/relu_3x3
I0501 17:56:13.703622 30632 net.cpp:84] Creating Layer inception_5a/relu_3x3
I0501 17:56:13.703630 30632 net.cpp:406] inception_5a/relu_3x3 <- inception_5a/3x3
I0501 17:56:13.703647 30632 net.cpp:367] inception_5a/relu_3x3 -> inception_5a/3x3 (in-place)
I0501 17:56:13.713932 30632 net.cpp:122] Setting up inception_5a/relu_3x3
I0501 17:56:13.713958 30632 net.cpp:129] Top shape: 32 320 7 7 (501760)
I0501 17:56:13.713963 30632 net.cpp:137] Memory required for data: 1732077064
I0501 17:56:13.713971 30632 layer_factory.hpp:77] Creating layer inception_5a/5x5_reduce
I0501 17:56:13.713992 30632 net.cpp:84] Creating Layer inception_5a/5x5_reduce
I0501 17:56:13.714000 30632 net.cpp:406] inception_5a/5x5_reduce <- pool4/3x3_s2_pool4/3x3_s2_0_split_2
I0501 17:56:13.714016 30632 net.cpp:380] inception_5a/5x5_reduce -> inception_5a/5x5_reduce
I0501 17:56:13.732048 30632 net.cpp:122] Setting up inception_5a/5x5_reduce
I0501 17:56:13.732075 30632 net.cpp:129] Top shape: 32 32 7 7 (50176)
I0501 17:56:13.732081 30632 net.cpp:137] Memory required for data: 1732277768
I0501 17:56:13.732095 30632 layer_factory.hpp:77] Creating layer inception_5a/relu_5x5_reduce
I0501 17:56:13.732110 30632 net.cpp:84] Creating Layer inception_5a/relu_5x5_reduce
I0501 17:56:13.732117 30632 net.cpp:406] inception_5a/relu_5x5_reduce <- inception_5a/5x5_reduce
I0501 17:56:13.732127 30632 net.cpp:367] inception_5a/relu_5x5_reduce -> inception_5a/5x5_reduce (in-place)
I0501 17:56:13.733011 30632 net.cpp:122] Setting up inception_5a/relu_5x5_reduce
I0501 17:56:13.733024 30632 net.cpp:129] Top shape: 32 32 7 7 (50176)
I0501 17:56:13.733031 30632 net.cpp:137] Memory required for data: 1732478472
I0501 17:56:13.733036 30632 layer_factory.hpp:77] Creating layer inception_5a/5x5
I0501 17:56:13.733054 30632 net.cpp:84] Creating Layer inception_5a/5x5
I0501 17:56:13.733062 30632 net.cpp:406] inception_5a/5x5 <- inception_5a/5x5_reduce
I0501 17:56:13.733072 30632 net.cpp:380] inception_5a/5x5 -> inception_5a/5x5
I0501 17:56:13.736413 30632 net.cpp:122] Setting up inception_5a/5x5
I0501 17:56:13.736429 30632 net.cpp:129] Top shape: 32 128 7 7 (200704)
I0501 17:56:13.736434 30632 net.cpp:137] Memory required for data: 1733281288
I0501 17:56:13.736444 30632 layer_factory.hpp:77] Creating layer inception_5a/relu_5x5
I0501 17:56:13.736457 30632 net.cpp:84] Creating Layer inception_5a/relu_5x5
I0501 17:56:13.736464 30632 net.cpp:406] inception_5a/relu_5x5 <- inception_5a/5x5
I0501 17:56:13.736471 30632 net.cpp:367] inception_5a/relu_5x5 -> inception_5a/5x5 (in-place)
I0501 17:56:13.755198 30632 net.cpp:122] Setting up inception_5a/relu_5x5
I0501 17:56:13.755259 30632 net.cpp:129] Top shape: 32 128 7 7 (200704)
I0501 17:56:13.755266 30632 net.cpp:137] Memory required for data: 1734084104
I0501 17:56:13.755275 30632 layer_factory.hpp:77] Creating layer inception_5a/pool
I0501 17:56:13.755290 30632 net.cpp:84] Creating Layer inception_5a/pool
I0501 17:56:13.755300 30632 net.cpp:406] inception_5a/pool <- pool4/3x3_s2_pool4/3x3_s2_0_split_3
I0501 17:56:13.755316 30632 net.cpp:380] inception_5a/pool -> inception_5a/pool
I0501 17:56:13.755403 30632 net.cpp:122] Setting up inception_5a/pool
I0501 17:56:13.755416 30632 net.cpp:129] Top shape: 32 832 7 7 (1304576)
I0501 17:56:13.755421 30632 net.cpp:137] Memory required for data: 1739302408
I0501 17:56:13.755426 30632 layer_factory.hpp:77] Creating layer inception_5a/pool_proj
I0501 17:56:13.755447 30632 net.cpp:84] Creating Layer inception_5a/pool_proj
I0501 17:56:13.755455 30632 net.cpp:406] inception_5a/pool_proj <- inception_5a/pool
I0501 17:56:13.755465 30632 net.cpp:380] inception_5a/pool_proj -> inception_5a/pool_proj
I0501 17:56:13.760569 30632 net.cpp:122] Setting up inception_5a/pool_proj
I0501 17:56:13.760596 30632 net.cpp:129] Top shape: 32 128 7 7 (200704)
I0501 17:56:13.760601 30632 net.cpp:137] Memory required for data: 1740105224
I0501 17:56:13.760613 30632 layer_factory.hpp:77] Creating layer inception_5a/relu_pool_proj
I0501 17:56:13.760627 30632 net.cpp:84] Creating Layer inception_5a/relu_pool_proj
I0501 17:56:13.760634 30632 net.cpp:406] inception_5a/relu_pool_proj <- inception_5a/pool_proj
I0501 17:56:13.760643 30632 net.cpp:367] inception_5a/relu_pool_proj -> inception_5a/pool_proj (in-place)
I0501 17:56:13.761415 30632 net.cpp:122] Setting up inception_5a/relu_pool_proj
I0501 17:56:13.761430 30632 net.cpp:129] Top shape: 32 128 7 7 (200704)
I0501 17:56:13.761435 30632 net.cpp:137] Memory required for data: 1740908040
I0501 17:56:13.761441 30632 layer_factory.hpp:77] Creating layer inception_5a/output
I0501 17:56:13.761451 30632 net.cpp:84] Creating Layer inception_5a/output
I0501 17:56:13.761456 30632 net.cpp:406] inception_5a/output <- inception_5a/1x1
I0501 17:56:13.761463 30632 net.cpp:406] inception_5a/output <- inception_5a/3x3
I0501 17:56:13.761469 30632 net.cpp:406] inception_5a/output <- inception_5a/5x5
I0501 17:56:13.761476 30632 net.cpp:406] inception_5a/output <- inception_5a/pool_proj
I0501 17:56:13.761484 30632 net.cpp:380] inception_5a/output -> inception_5a/output
I0501 17:56:13.761524 30632 net.cpp:122] Setting up inception_5a/output
I0501 17:56:13.761531 30632 net.cpp:129] Top shape: 32 832 7 7 (1304576)
I0501 17:56:13.761536 30632 net.cpp:137] Memory required for data: 1746126344
I0501 17:56:13.761541 30632 layer_factory.hpp:77] Creating layer inception_5a/output_inception_5a/output_0_split
I0501 17:56:13.761549 30632 net.cpp:84] Creating Layer inception_5a/output_inception_5a/output_0_split
I0501 17:56:13.761555 30632 net.cpp:406] inception_5a/output_inception_5a/output_0_split <- inception_5a/output
I0501 17:56:13.761564 30632 net.cpp:380] inception_5a/output_inception_5a/output_0_split -> inception_5a/output_inception_5a/output_0_split_0
I0501 17:56:13.761574 30632 net.cpp:380] inception_5a/output_inception_5a/output_0_split -> inception_5a/output_inception_5a/output_0_split_1
I0501 17:56:13.761584 30632 net.cpp:380] inception_5a/output_inception_5a/output_0_split -> inception_5a/output_inception_5a/output_0_split_2
I0501 17:56:13.761592 30632 net.cpp:380] inception_5a/output_inception_5a/output_0_split -> inception_5a/output_inception_5a/output_0_split_3
I0501 17:56:13.761663 30632 net.cpp:122] Setting up inception_5a/output_inception_5a/output_0_split
I0501 17:56:13.761672 30632 net.cpp:129] Top shape: 32 832 7 7 (1304576)
I0501 17:56:13.761677 30632 net.cpp:129] Top shape: 32 832 7 7 (1304576)
I0501 17:56:13.761683 30632 net.cpp:129] Top shape: 32 832 7 7 (1304576)
I0501 17:56:13.761689 30632 net.cpp:129] Top shape: 32 832 7 7 (1304576)
I0501 17:56:13.761693 30632 net.cpp:137] Memory required for data: 1766999560
I0501 17:56:13.761698 30632 layer_factory.hpp:77] Creating layer inception_5b/1x1
I0501 17:56:13.761739 30632 net.cpp:84] Creating Layer inception_5b/1x1
I0501 17:56:13.761744 30632 net.cpp:406] inception_5b/1x1 <- inception_5a/output_inception_5a/output_0_split_0
I0501 17:56:13.761754 30632 net.cpp:380] inception_5b/1x1 -> inception_5b/1x1
I0501 17:56:13.796669 30632 net.cpp:122] Setting up inception_5b/1x1
I0501 17:56:13.796700 30632 net.cpp:129] Top shape: 32 384 7 7 (602112)
I0501 17:56:13.796706 30632 net.cpp:137] Memory required for data: 1769408008
I0501 17:56:13.796721 30632 layer_factory.hpp:77] Creating layer inception_5b/relu_1x1
I0501 17:56:13.796739 30632 net.cpp:84] Creating Layer inception_5b/relu_1x1
I0501 17:56:13.796748 30632 net.cpp:406] inception_5b/relu_1x1 <- inception_5b/1x1
I0501 17:56:13.796759 30632 net.cpp:367] inception_5b/relu_1x1 -> inception_5b/1x1 (in-place)
I0501 17:56:13.797350 30632 net.cpp:122] Setting up inception_5b/relu_1x1
I0501 17:56:13.797366 30632 net.cpp:129] Top shape: 32 384 7 7 (602112)
I0501 17:56:13.797372 30632 net.cpp:137] Memory required for data: 1771816456
I0501 17:56:13.797379 30632 layer_factory.hpp:77] Creating layer inception_5b/3x3_reduce
I0501 17:56:13.797397 30632 net.cpp:84] Creating Layer inception_5b/3x3_reduce
I0501 17:56:13.797406 30632 net.cpp:406] inception_5b/3x3_reduce <- inception_5a/output_inception_5a/output_0_split_1
I0501 17:56:13.797418 30632 net.cpp:380] inception_5b/3x3_reduce -> inception_5b/3x3_reduce
I0501 17:56:13.806430 30632 net.cpp:122] Setting up inception_5b/3x3_reduce
I0501 17:56:13.806464 30632 net.cpp:129] Top shape: 32 192 7 7 (301056)
I0501 17:56:13.806473 30632 net.cpp:137] Memory required for data: 1773020680
I0501 17:56:13.806530 30632 layer_factory.hpp:77] Creating layer inception_5b/relu_3x3_reduce
I0501 17:56:13.806546 30632 net.cpp:84] Creating Layer inception_5b/relu_3x3_reduce
I0501 17:56:13.806555 30632 net.cpp:406] inception_5b/relu_3x3_reduce <- inception_5b/3x3_reduce
I0501 17:56:13.806565 30632 net.cpp:367] inception_5b/relu_3x3_reduce -> inception_5b/3x3_reduce (in-place)
I0501 17:56:13.807162 30632 net.cpp:122] Setting up inception_5b/relu_3x3_reduce
I0501 17:56:13.807174 30632 net.cpp:129] Top shape: 32 192 7 7 (301056)
I0501 17:56:13.807180 30632 net.cpp:137] Memory required for data: 1774224904
I0501 17:56:13.807186 30632 layer_factory.hpp:77] Creating layer inception_5b/3x3
I0501 17:56:13.807205 30632 net.cpp:84] Creating Layer inception_5b/3x3
I0501 17:56:13.807214 30632 net.cpp:406] inception_5b/3x3 <- inception_5b/3x3_reduce
I0501 17:56:13.807226 30632 net.cpp:380] inception_5b/3x3 -> inception_5b/3x3
I0501 17:56:13.835615 30632 net.cpp:122] Setting up inception_5b/3x3
I0501 17:56:13.835641 30632 net.cpp:129] Top shape: 32 384 7 7 (602112)
I0501 17:56:13.835646 30632 net.cpp:137] Memory required for data: 1776633352
I0501 17:56:13.835660 30632 layer_factory.hpp:77] Creating layer inception_5b/relu_3x3
I0501 17:56:13.835675 30632 net.cpp:84] Creating Layer inception_5b/relu_3x3
I0501 17:56:13.835683 30632 net.cpp:406] inception_5b/relu_3x3 <- inception_5b/3x3
I0501 17:56:13.835695 30632 net.cpp:367] inception_5b/relu_3x3 -> inception_5b/3x3 (in-place)
I0501 17:56:13.836410 30632 net.cpp:122] Setting up inception_5b/relu_3x3
I0501 17:56:13.836423 30632 net.cpp:129] Top shape: 32 384 7 7 (602112)
I0501 17:56:13.836428 30632 net.cpp:137] Memory required for data: 1779041800
I0501 17:56:13.836433 30632 layer_factory.hpp:77] Creating layer inception_5b/5x5_reduce
I0501 17:56:13.836452 30632 net.cpp:84] Creating Layer inception_5b/5x5_reduce
I0501 17:56:13.836457 30632 net.cpp:406] inception_5b/5x5_reduce <- inception_5a/output_inception_5a/output_0_split_2
I0501 17:56:13.836468 30632 net.cpp:380] inception_5b/5x5_reduce -> inception_5b/5x5_reduce
I0501 17:56:13.839319 30632 net.cpp:122] Setting up inception_5b/5x5_reduce
I0501 17:56:13.839340 30632 net.cpp:129] Top shape: 32 48 7 7 (75264)
I0501 17:56:13.839347 30632 net.cpp:137] Memory required for data: 1779342856
I0501 17:56:13.839361 30632 layer_factory.hpp:77] Creating layer inception_5b/relu_5x5_reduce
I0501 17:56:13.839409 30632 net.cpp:84] Creating Layer inception_5b/relu_5x5_reduce
I0501 17:56:13.839418 30632 net.cpp:406] inception_5b/relu_5x5_reduce <- inception_5b/5x5_reduce
I0501 17:56:13.839432 30632 net.cpp:367] inception_5b/relu_5x5_reduce -> inception_5b/5x5_reduce (in-place)
I0501 17:56:13.840319 30632 net.cpp:122] Setting up inception_5b/relu_5x5_reduce
I0501 17:56:13.840335 30632 net.cpp:129] Top shape: 32 48 7 7 (75264)
I0501 17:56:13.840342 30632 net.cpp:137] Memory required for data: 1779643912
I0501 17:56:13.840348 30632 layer_factory.hpp:77] Creating layer inception_5b/5x5
I0501 17:56:13.840366 30632 net.cpp:84] Creating Layer inception_5b/5x5
I0501 17:56:13.840374 30632 net.cpp:406] inception_5b/5x5 <- inception_5b/5x5_reduce
I0501 17:56:13.840385 30632 net.cpp:380] inception_5b/5x5 -> inception_5b/5x5
I0501 17:56:13.859369 30632 net.cpp:122] Setting up inception_5b/5x5
I0501 17:56:13.859397 30632 net.cpp:129] Top shape: 32 128 7 7 (200704)
I0501 17:56:13.859403 30632 net.cpp:137] Memory required for data: 1780446728
I0501 17:56:13.859417 30632 layer_factory.hpp:77] Creating layer inception_5b/relu_5x5
I0501 17:56:13.859431 30632 net.cpp:84] Creating Layer inception_5b/relu_5x5
I0501 17:56:13.859439 30632 net.cpp:406] inception_5b/relu_5x5 <- inception_5b/5x5
I0501 17:56:13.859452 30632 net.cpp:367] inception_5b/relu_5x5 -> inception_5b/5x5 (in-place)
I0501 17:56:13.861600 30632 net.cpp:122] Setting up inception_5b/relu_5x5
I0501 17:56:13.861619 30632 net.cpp:129] Top shape: 32 128 7 7 (200704)
I0501 17:56:13.861625 30632 net.cpp:137] Memory required for data: 1781249544
I0501 17:56:13.861634 30632 layer_factory.hpp:77] Creating layer inception_5b/pool
I0501 17:56:13.861647 30632 net.cpp:84] Creating Layer inception_5b/pool
I0501 17:56:13.861655 30632 net.cpp:406] inception_5b/pool <- inception_5a/output_inception_5a/output_0_split_3
I0501 17:56:13.861668 30632 net.cpp:380] inception_5b/pool -> inception_5b/pool
I0501 17:56:13.861732 30632 net.cpp:122] Setting up inception_5b/pool
I0501 17:56:13.861740 30632 net.cpp:129] Top shape: 32 832 7 7 (1304576)
I0501 17:56:13.861747 30632 net.cpp:137] Memory required for data: 1786467848
I0501 17:56:13.861752 30632 layer_factory.hpp:77] Creating layer inception_5b/pool_proj
I0501 17:56:13.861778 30632 net.cpp:84] Creating Layer inception_5b/pool_proj
I0501 17:56:13.861784 30632 net.cpp:406] inception_5b/pool_proj <- inception_5b/pool
I0501 17:56:13.861794 30632 net.cpp:380] inception_5b/pool_proj -> inception_5b/pool_proj
I0501 17:56:13.869853 30632 net.cpp:122] Setting up inception_5b/pool_proj
I0501 17:56:13.869880 30632 net.cpp:129] Top shape: 32 128 7 7 (200704)
I0501 17:56:13.869889 30632 net.cpp:137] Memory required for data: 1787270664
I0501 17:56:13.869902 30632 layer_factory.hpp:77] Creating layer inception_5b/relu_pool_proj
I0501 17:56:13.869920 30632 net.cpp:84] Creating Layer inception_5b/relu_pool_proj
I0501 17:56:13.869930 30632 net.cpp:406] inception_5b/relu_pool_proj <- inception_5b/pool_proj
I0501 17:56:13.869940 30632 net.cpp:367] inception_5b/relu_pool_proj -> inception_5b/pool_proj (in-place)
I0501 17:56:13.870754 30632 net.cpp:122] Setting up inception_5b/relu_pool_proj
I0501 17:56:13.870770 30632 net.cpp:129] Top shape: 32 128 7 7 (200704)
I0501 17:56:13.870777 30632 net.cpp:137] Memory required for data: 1788073480
I0501 17:56:13.870784 30632 layer_factory.hpp:77] Creating layer inception_5b/output
I0501 17:56:13.870796 30632 net.cpp:84] Creating Layer inception_5b/output
I0501 17:56:13.870803 30632 net.cpp:406] inception_5b/output <- inception_5b/1x1
I0501 17:56:13.870812 30632 net.cpp:406] inception_5b/output <- inception_5b/3x3
I0501 17:56:13.870820 30632 net.cpp:406] inception_5b/output <- inception_5b/5x5
I0501 17:56:13.870826 30632 net.cpp:406] inception_5b/output <- inception_5b/pool_proj
I0501 17:56:13.870836 30632 net.cpp:380] inception_5b/output -> inception_5b/output
I0501 17:56:13.870884 30632 net.cpp:122] Setting up inception_5b/output
I0501 17:56:13.870895 30632 net.cpp:129] Top shape: 32 1024 7 7 (1605632)
I0501 17:56:13.870903 30632 net.cpp:137] Memory required for data: 1794496008
I0501 17:56:13.870937 30632 layer_factory.hpp:77] Creating layer pool5/7x7_s1
I0501 17:56:13.870949 30632 net.cpp:84] Creating Layer pool5/7x7_s1
I0501 17:56:13.870956 30632 net.cpp:406] pool5/7x7_s1 <- inception_5b/output
I0501 17:56:13.870972 30632 net.cpp:380] pool5/7x7_s1 -> pool5/7x7_s1
I0501 17:56:13.871811 30632 net.cpp:122] Setting up pool5/7x7_s1
I0501 17:56:13.871829 30632 net.cpp:129] Top shape: 32 1024 1 1 (32768)
I0501 17:56:13.871835 30632 net.cpp:137] Memory required for data: 1794627080
I0501 17:56:13.871842 30632 layer_factory.hpp:77] Creating layer pool5/drop_7x7_s1
I0501 17:56:13.871852 30632 net.cpp:84] Creating Layer pool5/drop_7x7_s1
I0501 17:56:13.871858 30632 net.cpp:406] pool5/drop_7x7_s1 <- pool5/7x7_s1
I0501 17:56:13.871867 30632 net.cpp:367] pool5/drop_7x7_s1 -> pool5/7x7_s1 (in-place)
I0501 17:56:13.871908 30632 net.cpp:122] Setting up pool5/drop_7x7_s1
I0501 17:56:13.871920 30632 net.cpp:129] Top shape: 32 1024 1 1 (32768)
I0501 17:56:13.871927 30632 net.cpp:137] Memory required for data: 1794758152
I0501 17:56:13.871932 30632 layer_factory.hpp:77] Creating layer loss3/classifier
I0501 17:56:13.871946 30632 net.cpp:84] Creating Layer loss3/classifier
I0501 17:56:13.871954 30632 net.cpp:406] loss3/classifier <- pool5/7x7_s1
I0501 17:56:13.871965 30632 net.cpp:380] loss3/classifier -> loss3/classifier
I0501 17:56:13.873941 30632 net.cpp:122] Setting up loss3/classifier
I0501 17:56:13.873955 30632 net.cpp:129] Top shape: 32 196 (6272)
I0501 17:56:13.873960 30632 net.cpp:137] Memory required for data: 1794783240
I0501 17:56:13.873971 30632 layer_factory.hpp:77] Creating layer loss3/loss
I0501 17:56:13.873983 30632 net.cpp:84] Creating Layer loss3/loss
I0501 17:56:13.873989 30632 net.cpp:406] loss3/loss <- loss3/classifier
I0501 17:56:13.873998 30632 net.cpp:406] loss3/loss <- label_train-data_1_split_2
I0501 17:56:13.874011 30632 net.cpp:380] loss3/loss -> loss
…
I0501 17:56:13.990974 30632 net.cpp:294] The NetState phase (1) differed from the phase (0) specified by a rule in layer train-data
I0501 17:56:13.992599 30632 net.cpp:51] Initializing net from parameters:
state {
phase: TEST
}
layer {
name: "val-data"
type: "Data"
top: "data"
top: "label"
include {
phase: TEST
}
transform_param {
mirror: false
crop_size: 224
mean_file: "/mnt/bigdisk/MANDIG2/digits/jobs/20200428-132136-11fe/mean.binaryproto"
}
data_param {
source: "/mnt/bigdisk/MANDIG2/digits/jobs/20200428-132136-11fe/val_db"
batch_size: 16
backend: LMDB
}
}
layer {
name: "conv1/7x7_s2"
type: "Convolution"
bottom: "data"
top: "conv1/7x7_s2"
param {
lr_mult: 1
decay_mult: 1
}
param {
lr_mult: 2
decay_mult: 0
}
convolution_param {
num_output: 64
pad: 3
kernel_size: 7
stride: 2
weight_filler {
type: "xavier"
std: 0.1
}
bias_filler {
type: "constant"
value: 0.2
}
}
}
layer {
name: "conv1/relu_7x7"
type: "ReLU"
bottom: "conv1/7x7_s2"
top: "conv1/7x7_s2"
}
layer {
name: "pool1/3x3_s2"
type: "Pooling"
bottom: "conv1/7x7_s2"
top: "pool1/3x3_s2"
pooling_param {
pool: MAX
kernel_size: 3
stride: 2
}
}
layer {
name: "pool1/norm1"
type: "LRN"
bottom: "pool1/3x3_s2"
top: "pool1/norm1"
lrn_param {
local_size: 5
alpha: 0.0001
beta: 0.75
}
}
layer {
name: "conv2/3x3_reduce"
type: "Convolution"
bottom: "pool1/norm1"
top: "conv2/3x3_reduce"
param {
lr_mult: 1
decay_mult: 1
}
param {
lr_mult: 2
decay_mult: 0
}
convolution_param {
num_output: 64
kernel_size: 1
weight_filler {
type: "xavier"
std: 0.1
}
bias_filler {
type: "constant"
value: 0.2
}
}
}
layer {
name: "conv2/relu_3x3_reduce"
type: "ReLU"
bottom: "conv2/3x3_reduce"
top: "conv2/3x3_reduce"
}
layer {
name: "conv2/3x3"
type: "Convolution"
bottom: "conv2/3x3_reduce"
top: "conv2/3x3"
param {
lr_mult: 1
decay_mult: 1
}
param {
lr_mult: 2
decay_mult: 0
}
convolution_param {
num_output: 192
pad: 1
kernel_size: 3
weight_filler {
type: "xavier"
std: 0.03
}
bias_filler {
type: "constant"
value: 0.2
}
}
}
layer {
name: "conv2/relu_3x3"
type: "ReLU"
bottom: "conv2/3x3"
top: "conv2/3x3"
}
layer {
name: "conv2/norm2"
type: "LRN"
bottom: "conv2/3x3"
top: "conv2/norm2"
lrn_param {
local_size: 5
alpha: 0.0001
beta: 0.75
}
}
layer {
name: "pool2/3x3_s2"
type: "Pooling"
bottom: "conv2/norm2"
top: "pool2/3x3_s2"
pooling_param {
pool: MAX
kernel_size: 3
stride: 2
}
}
layer {
name: "inception_3a/1x1"
type: "Convolution"
bottom: "pool2/3x3_s2"
top: "inception_3a/1x1"
param {
lr_mult: 1
decay_mult: 1
}
param {
lr_mult: 2
decay_mult: 0
}
convolution_param {
num_output: 64
kernel_size: 1
weight_filler {
type: "xavier"
std: 0.03
}
bias_filler {
type: "constant"
value: 0.2
}
}
}
layer {
name: "inception_3a/relu_1x1"
type: "ReLU"
bottom: "inception_3a/1x1"
top: "inception_3a/1x1"
}
layer {
name: "inception_3a/3x3_reduce"
type: "Convolution"
bottom: "pool2/3x3_s2"
top: "inception_3a/3x3_reduce"
param {
lr_mult: 1
decay_mult: 1
}
param {
lr_mult: 2
decay_mult: 0
}
convolution_param {
num_output: 96
kernel_size: 1
weight_filler {
type: "xavier"
std: 0.09
}
bias_filler {
type: "constant"
value: 0.2
}
}
}
layer {
name: "inception_3a/relu_3x3_reduce"
type: "ReLU"
bottom: "inception_3a/3x3_reduce"
top: "inception_3a/3x3_reduce"
}
layer {
name: "inception_3a/3x3"
type: "Convolution"
bottom: "inception_3a/3x3_reduce"
top: "inception_3a/3x3"
param {
lr_mult: 1
decay_mult: 1
}
param {
lr_mult: 2
decay_mult: 0
}
convolution_param {
num_output: 128
pad: 1
kernel_size: 3
weight_filler {
type: "xavier"
std: 0.03
}
bias_filler {
type: "constant"
value: 0.2
}
}
}
layer {
name: "inception_3a/relu_3x3"
type: "ReLU"
bottom: "inception_3a/3x3"
top: "inception_3a/3x3"
}
layer {
name: "inception_3a/5x5_reduce"
type: "Convolution"
bottom: "pool2/3x3_s2"
top: "inception_3a/5x5_reduce"
param {
lr_mult: 1
decay_mult: 1
}
param {
lr_mult: 2
decay_mult: 0
}
convolution_param {
num_output: 16
kernel_size: 1
weight_filler {
type: "xavier"
std: 0.2
}
bias_filler {
type: "constant"
value: 0.2
}
}
}
layer {
name: "inception_3a/relu_5x5_reduce"
type: "ReLU"
bottom: "inception_3a/5x5_reduce"
top: "inception_3a/5x5_reduce"
}
layer {
name: "inception_3a/5x5"
type: "Convolution"
bottom: "inception_3a/5x5_reduce"
top: "inception_3a/5x5"
param {
lr_mult: 1
decay_mult: 1
}
param {
lr_mult: 2
decay_mult: 0
}
convolution_param {
num_output: 32
pad: 2
kernel_size: 5
weight_filler {
type: "xavier"
std: 0.03
}
bias_filler {
type: "constant"
value: 0.2
}
}
}
layer {
name: "inception_3a/relu_5x5"
type: "ReLU"
bottom: "inception_3a/5x5"
top: "inception_3a/5x5"
}
layer {
name: "inception_3a/pool"
type: "Pooling"
bottom: "pool2/3x3_s2"
top: "inception_3a/pool"
pooling_param {
pool: MAX
kernel_size: 3
stride: 1
pad: 1
}
}
layer {
name: "inception_3a/pool_proj"
type: "Convolution"
bottom: "inception_3a/pool"
top: "inception_3a/pool_proj"
param {
lr_mult: 1
decay_mult: 1
}
param {
lr_mult: 2
decay_mult: 0
}
convolution_param {
num_output: 32
kernel_size: 1
weight_filler {
type: "xavier"
std: 0.1
}
bias_filler {
type: "constant"
value: 0.2
}
}
}
layer {
name: "inception_3a/relu_pool_proj"
type: "ReLU"
bottom: "inception_3a/pool_proj"
top: "inception_3a/pool_proj"
}
layer {
name: "inception_3a/output"
type: "Concat"
bottom: "inception_3a/1x1"
bottom: "inception_3a/3x3"
bottom: "inception_3a/5x5"
bottom: "inception_3a/pool_proj"
top: "inception_3a/output"
}
layer {
name: "inception_3b/1x1"
type: "Convolution"
bottom: "inception_3a/output"
top: "inception_3b/1x1"
param {
lr_mult: 1
decay_mult: 1
}
param {
lr_mult: 2
decay_mult: 0
}
convolution_param {
num_output: 128
kernel_size: 1
weight_filler {
type: "xavier"
std: 0.03
}
bias_filler {
type: "constant"
value: 0.2
}
}
}
layer {
name: "inception_3b/relu_1x1"
type: "ReLU"
bottom: "inception_3b/1x1"
top: "inception_3b/1x1"
}
layer {
name: "inception_3b/3x3_reduce"
type: "Convolution"
bottom: "inception_3a/output"
top: "inception_3b/3x3_reduce"
param {
lr_mult: 1
decay_mult: 1
}
param {
lr_mult: 2
decay_mult: 0
}
convolution_param {
num_output: 128
kernel_size: 1
weight_filler {
type: "xavier"
std: 0.09
}
bias_filler {
type: "constant"
value: 0.2
}
}
}
layer {
name: "inception_3b/relu_3x3_reduce"
type: "ReLU"
bottom: "inception_3b/3x3_reduce"
top: "inception_3b/3x3_reduce"
}
layer {
name: "inception_3b/3x3"
type: "Convolution"
bottom: "inception_3b/3x3_reduce"
top: "inception_3b/3x3"
param {
lr_mult: 1
decay_mult: 1
}
param {
lr_mult: 2
decay_mult: 0
}
convolution_param {
num_output: 192
pad: 1
kernel_size: 3
weight_filler {
type: "xavier"
std: 0.03
}
bias_filler {
type: "constant"
value: 0.2
}
}
}
layer {
name: "inception_3b/relu_3x3"
type: "ReLU"
bottom: "inception_3b/3x3"
top: "inception_3b/3x3"
}
layer {
name: "inception_3b/5x5_reduce"
type: "Convolution"
bottom: "inception_3a/output"
top: "inception_3b/5x5_reduce"
param {
lr_mult: 1
decay_mult: 1
}
param {
lr_mult: 2
decay_mult: 0
}
convolution_param {
num_output: 32
kernel_size: 1
weight_filler {
type: "xavier"
std: 0.2
}
bias_filler {
type: "constant"
value: 0.2
}
}
}
layer {
name: "inception_3b/relu_5x5_reduce"
type: "ReLU"
bottom: "inception_3b/5x5_reduce"
top: "inception_3b/5x5_reduce"
}
layer {
name: "inception_3b/5x5"
type: "Convolution"
bottom: "inception_3b/5x5_reduce"
top: "inception_3b/5x5"
param {
lr_mult: 1
decay_mult: 1
}
param {
lr_mult: 2
decay_mult: 0
}
convolution_param {
num_output: 96
pad: 2
kernel_size: 5
weight_filler {
type: "xavier"
std: 0.03
}
bias_filler {
type: "constant"
value: 0.2
}
}
}
layer {
name: "inception_3b/relu_5x5"
type: "ReLU"
bottom: "inception_3b/5x5"
top: "inception_3b/5x5"
}
layer {
name: "inception_3b/pool"
type: "Pooling"
bottom: "inception_3a/output"
top: "inception_3b/pool"
pooling_param {
pool: MAX
kernel_size: 3
stride: 1
pad: 1
}
}
layer {
name: "inception_3b/pool_proj"
type: "Convolution"
bottom: "inception_3b/pool"
top: "inception_3b/pool_proj"
param {
lr_mult: 1
decay_mult: 1
}
param {
lr_mult: 2
decay_mult: 0
}
convolution_param {
num_output: 64
kernel_size: 1
weight_filler {
type: "xavier"
std: 0.1
}
bias_filler {
type: "constant"
value: 0.2
}
}
}
layer {
name: "inception_3b/relu_pool_proj"
type: "ReLU"
bottom: "inception_3b/pool_proj"
top: "inception_3b/pool_proj"
}
layer {
name: "inception_3b/output"
type: "Concat"
bottom: "inception_3b/1x1"
bottom: "inception_3b/3x3"
bottom: "inception_3b/5x5"
bottom: "inception_3b/pool_proj"
top: "inception_3b/output"
}
layer {
name: "pool3/3x3_s2"
type: "Pooling"
bottom: "inception_3b/output"
top: "pool3/3x3_s2"
pooling_param {
pool: MAX
kernel_size: 3
stride: 2
}
}
layer {
name: "inception_4a/1x1"
type: "Convolution"
bottom: "pool3/3x3_s2"
top: "inception_4a/1x1"
param {
lr_mult: 1
decay_mult: 1
}
param {
lr_mult: 2
decay_mult: 0
}
convolution_param {
num_output: 192
kernel_size: 1
weight_filler {
type: "xavier"
std: 0.03
}
bias_filler {
type: "constant"
value: 0.2
}
}
}
layer {
name: "inception_4a/relu_1x1"
type: "ReLU"
bottom: "inception_4a/1x1"
top: "inception_4a/1x1"
}
layer {
name: "inception_4a/3x3_reduce"
type: "Convolution"
bottom: "pool3/3x3_s2"
top: "inception_4a/3x3_reduce"
param {
lr_mult: 1
decay_mult: 1
}
param {
lr_mult: 2
decay_mult: 0
}
convolution_param {
num_output: 96
kernel_size: 1
weight_filler {
type: "xavier"
std: 0.09
}
bias_filler {
type: "constant"
value: 0.2
}
}
}
layer {
name: "inception_4a/relu_3x3_reduce"
type: "ReLU"
bottom: "inception_4a/3x3_reduce"
top: "inception_4a/3x3_reduce"
}
layer {
name: "inception_4a/3x3"
type: "Convolution"
bottom: "inception_4a/3x3_reduce"
top: "inception_4a/3x3"
param {
lr_mult: 1
decay_mult: 1
}
param {
lr_mult: 2
decay_mult: 0
}
convolution_param {
num_output: 208
pad: 1
kernel_size: 3
weight_filler {
type: "xavier"
std: 0.03
}
bias_filler {
type: "constant"
value: 0.2
}
}
}
layer {
name: "inception_4a/relu_3x3"
type: "ReLU"
bottom: "inception_4a/3x3"
top: "inception_4a/3x3"
}
layer {
name: "inception_4a/5x5_reduce"
type: "Convolution"
bottom: "pool3/3x3_s2"
top: "inception_4a/5x5_reduce"
param {
lr_mult: 1
decay_mult: 1
}
param {
lr_mult: 2
decay_mult: 0
}
convolution_param {
num_output: 16
kernel_size: 1
weight_filler {
type: "xavier"
std: 0.2
}
bias_filler {
type: "constant"
value: 0.2
}
}
}
layer {
name: "inception_4a/relu_5x5_reduce"
type: "ReLU"
bottom: "inception_4a/5x5_reduce"
top: "inception_4a/5x5_reduce"
}
layer {
name: "inception_4a/5x5"
type: "Convolution"
bottom: "inception_4a/5x5_reduce"
top: "inception_4a/5x5"
param {
lr_mult: 1
decay_mult: 1
}
param {
lr_mult: 2
decay_mult: 0
}
convolution_param {
num_output: 48
pad: 2
kernel_size: 5
weight_filler {
type: "xavier"
std: 0.03
}
bias_filler {
type: "constant"
value: 0.2
}
}
}
layer {
name: "inception_4a/relu_5x5"
type: "ReLU"
bottom: "inception_4a/5x5"
top: "inception_4a/5x5"
}
layer {
name: "inception_4a/pool"
type: "Pooling"
bottom: "pool3/3x3_s2"
top: "inception_4a/pool"
pooling_param {
pool: MAX
kernel_size: 3
stride: 1
pad: 1
}
}
layer {
name: "inception_4a/pool_proj"
type: "Convolution"
bottom: "inception_4a/pool"
top: "inception_4a/pool_proj"
param {
lr_mult: 1
decay_mult: 1
}
param {
lr_mult: 2
decay_mult: 0
}
convolution_param {
num_output: 64
kernel_size: 1
weight_filler {
type: "xavier"
std: 0.1
}
bias_filler {
type: "constant"
value: 0.2
}
}
}
layer {
name: "inception_4a/relu_pool_proj"
type: "ReLU"
bottom: "inception_4a/pool_proj"
top: "inception_4a/pool_proj"
}
layer {
name: "inception_4a/output"
type: "Concat"
bottom: "inception_4a/1x1"
bottom: "inception_4a/3x3"
bottom: "inception_4a/5x5"
bottom: "inception_4a/pool_proj"
top: "inception_4a/output"
}
layer {
name: "loss1/ave_pool"
type: "Pooling"
bottom: "inception_4a/output"
top: "loss1/ave_pool"
pooling_param {
pool: AVE
kernel_size: 5
stride: 3
}
}
layer {
name: "loss1/conv"
type: "Convolution"
bottom: "loss1/ave_pool"
top: "loss1/conv"
param {
lr_mult: 1
decay_mult: 1
}
param {
lr_mult: 2
decay_mult: 0
}
convolution_param {
num_output: 128
kernel_size: 1
weight_filler {
type: "xavier"
std: 0.08
}
bias_filler {
type: "constant"
value: 0.2
}
}
}
layer {
name: "loss1/relu_conv"
type: "ReLU"
bottom: "loss1/conv"
top: "loss1/conv"
}
layer {
name: "loss1/fc"
type: "InnerProduct"
bottom: "loss1/conv"
top: "loss1/fc"
param {
lr_mult: 1
decay_mult: 1
}
param {
lr_mult: 2
decay_mult: 0
}
inner_product_param {
num_output: 1024
weight_filler {
type: "xavier"
std: 0.02
}
bias_filler {
type: "constant"
value: 0.2
}
}
}
layer {
name: "loss1/relu_fc"
type: "ReLU"
bottom: "loss1/fc"
top: "loss1/fc"
}
layer {
name: "loss1/drop_fc"
type: "Dropout"
bottom: "loss1/fc"
top: "loss1/fc"
dropout_param {
dropout_ratio: 0.7
}
}
layer {
name: "loss1/classifier"
type: "InnerProduct"
bottom: "loss1/fc"
top: "loss1/classifier"
param {
lr_mult: 1
decay_mult: 1
}
param {
lr_mult: 2
decay_mult: 0
}
inner_product_param {
num_output: 196
weight_filler {
type: "xavier"
std: 0.0009765625
}
bias_filler {
type: "constant"
value: 0
}
}
}
layer {
name: "loss1/loss"
type: "SoftmaxWithLoss"
bottom: "loss1/classifier"
bottom: "label"
top: "loss1/loss"
loss_weight: 0.3
}
layer {
name: "loss1/top-1"
type: "Accuracy"
bottom: "loss1/classifier"
bottom: "label"
top: "loss1/accuracy"
include {
phase: TEST
}
}
layer {
name: "loss1/top-5"
type: "Accuracy"
bottom: "loss1/classifier"
bottom: "label"
top: "loss1/accuracy-top5"
include {
phase: TEST
}
accuracy_param {
top_k: 5
}
}
layer {
name: "inception_4b/1x1"
type: "Convolution"
bottom: "inception_4a/output"
top: "inception_4b/1x1"
param {
lr_mult: 1
decay_mult: 1
}
param {
lr_mult: 2
decay_mult: 0
}
convolution_param {
num_output: 160
kernel_size: 1
weight_filler {
type: "xavier"
std: 0.03
}
bias_filler {
type: "constant"
value: 0.2
}
}
}
layer {
name: "inception_4b/relu_1x1"
type: "ReLU"
bottom: "inception_4b/1x1"
top: "inception_4b/1x1"
}
layer {
name: "inception_4b/3x3_reduce"
type: "Convolution"
bottom: "inception_4a/output"
top: "inception_4b/3x3_reduce"
param {
lr_mult: 1
decay_mult: 1
}
param {
lr_mult: 2
decay_mult: 0
}
convolution_param {
num_output: 112
kernel_size: 1
weight_filler {
type: "xavier"
std: 0.09
}
bias_filler {
type: "constant"
value: 0.2
}
}
}
layer {
name: "inception_4b/relu_3x3_reduce"
type: "ReLU"
bottom: "inception_4b/3x3_reduce"
top: "inception_4b/3x3_reduce"
}
layer {
name: "inception_4b/3x3"
type: "Convolution"
bottom: "inception_4b/3x3_reduce"
top: "inception_4b/3x3"
param {
lr_mult: 1
decay_mult: 1
}
param {
lr_mult: 2
decay_mult: 0
}
convolution_param {
num_output: 224
pad: 1
kernel_size: 3
weight_filler {
type: "xavier"
std: 0.03
}
bias_filler {
type: "constant"
value: 0.2
}
}
}
layer {
name: "inception_4b/relu_3x3"
type: "ReLU"
bottom: "inception_4b/3x3"
top: "inception_4b/3x3"
}
layer {
name: "inception_4b/5x5_reduce"
type: "Convolution"
bottom: "inception_4a/output"
top: "inception_4b/5x5_reduce"
param {
lr_mult: 1
decay_mult: 1
}
param {
lr_mult: 2
decay_mult: 0
}
convolution_param {
num_output: 24
kernel_size: 1
weight_filler {
type: "xavier"
std: 0.2
}
bias_filler {
type: "constant"
value: 0.2
}
}
}
layer {
name: "inception_4b/relu_5x5_reduce"
type: "ReLU"
bottom: "inception_4b/5x5_reduce"
top: "inception_4b/5x5_reduce"
}
layer {
name: "inception_4b/5x5"
type: "Convolution"
bottom: "inception_4b/5x5_reduce"
top: "inception_4b/5x5"
param {
lr_mult: 1
decay_mult: 1
}
param {
lr_mult: 2
decay_mult: 0
}
convolution_param {
num_output: 64
pad: 2
kernel_size: 5
weight_filler {
type: "xavier"
std: 0.03
}
bias_filler {
type: "constant"
value: 0.2
}
}
}
layer {
name: "inception_4b/relu_5x5"
type: "ReLU"
bottom: "inception_4b/5x5"
top: "inception_4b/5x5"
}
layer {
name: "inception_4b/pool"
type: "Pooling"
bottom: "inception_4a/output"
top: "inception_4b/pool"
pooling_param {
pool: MAX
kernel_size: 3
stride: 1
pad: 1
}
}
layer {
name: "inception_4b/pool_proj"
type: "Convolution"
bottom: "inception_4b/pool"
top: "inception_4b/pool_proj"
param {
lr_mult: 1
decay_mult: 1
}
param {
lr_mult: 2
decay_mult: 0
}
convolution_param {
num_output: 64
kernel_size: 1
weight_filler {
type: "xavier"
std: 0.1
}
bias_filler {
type: "constant"
value: 0.2
}
}
}
layer {
name: "inception_4b/relu_pool_proj"
type: "ReLU"
bottom: "inception_4b/pool_proj"
top: "inception_4b/pool_proj"
}
layer {
name: "inception_4b/output"
type: "Concat"
bottom: "inception_4b/1x1"
bottom: "inception_4b/3x3"
bottom: "inception_4b/5x5"
bottom: "inception_4b/pool_proj"
top: "inception_4b/output"
}
layer {
name: "inception_4c/1x1"
type: "Convolution"
bottom: "inception_4b/output"
top: "inception_4c/1x1"
param {
lr_mult: 1
decay_mult: 1
}
param {
lr_mult: 2
decay_mult: 0
}
convolution_param {
num_output: 128
kernel_size: 1
weight_filler {
type: "xavier"
std: 0.03
}
bias_filler {
type: "constant"
value: 0.2
}
}
}
layer {
name: "inception_4c/relu_1x1"
type: "ReLU"
bottom: "inception_4c/1x1"
top: "inception_4c/1x1"
}
layer {
name: "inception_4c/3x3_reduce"
type: "Convolution"
bottom: "inception_4b/output"
top: "inception_4c/3x3_reduce"
param {
lr_mult: 1
decay_mult: 1
}
param {
lr_mult: 2
decay_mult: 0
}
convolution_param {
num_output: 128
kernel_size: 1
weight_filler {
type: "xavier"
std: 0.09
}
bias_filler {
type: "constant"
value: 0.2
}
}
}
layer {
name: "inception_4c/relu_3x3_reduce"
type: "ReLU"
bottom: "inception_4c/3x3_reduce"
top: "inception_4c/3x3_reduce"
}
layer {
name: "inception_4c/3x3"
type: "Convolution"
bottom: "inception_4c/3x3_reduce"
top: "inception_4c/3x3"
param {
lr_mult: 1
decay_mult: 1
}
param {
lr_mult: 2
decay_mult: 0
}
convolution_param {
num_output: 256
pad: 1
kernel_size: 3
weight_filler {
type: "xavier"
std: 0.03
}
bias_filler {
type: "constant"
value: 0.2
}
}
}
layer {
name: "inception_4c/relu_3x3"
type: "ReLU"
bottom: "inception_4c/3x3"
top: "inception_4c/3x3"
}
layer {
name: "inception_4c/5x5_reduce"
type: "Convolution"
bottom: "inception_4b/output"
top: "inception_4c/5x5_reduce"
param {
lr_mult: 1
decay_mult: 1
}
param {
lr_mult: 2
decay_mult: 0
}
convolution_param {
num_output: 24
kernel_size: 1
weight_filler {
type: "xavier"
std: 0.2
}
bias_filler {
type: "constant"
value: 0.2
}
}
}
layer {
name: "inception_4c/relu_5x5_reduce"
type: "ReLU"
bottom: "inception_4c/5x5_reduce"
top: "inception_4c/5x5_reduce"
}
layer {
name: "inception_4c/5x5"
type: "Convolution"
bottom: "inception_4c/5x5_reduce"
top: "inception_4c/5x5"
param {
lr_mult: 1
decay_mult: 1
}
param {
lr_mult: 2
decay_mult: 0
}
convolution_param {
num_output: 64
pad: 2
kernel_size: 5
weight_filler {
type: "xavier"
std: 0.03
}
bias_filler {
type: "constant"
value: 0.2
}
}
}
layer {
name: "inception_4c/relu_5x5"
type: "ReLU"
bottom: "inception_4c/5x5"
top: "inception_4c/5x5"
}
layer {
name: "inception_4c/pool"
type: "Pooling"
bottom: "inception_4b/output"
top: "inception_4c/pool"
pooling_param {
pool: MAX
kernel_size: 3
stride: 1
pad: 1
}
}
layer {
name: "inception_4c/pool_proj"
type: "Convolution"
bottom: "inception_4c/pool"
top: "inception_4c/pool_proj"
param {
lr_mult: 1
decay_mult: 1
}
param {
lr_mult: 2
decay_mult: 0
}
convolution_param {
num_output: 64
kernel_size: 1
weight_filler {
type: "xavier"
std: 0.1
}
bias_filler {
type: "constant"
value: 0.2
}
}
}
layer {
name: "inception_4c/relu_pool_proj"
type: "ReLU"
bottom: "inception_4c/pool_proj"
top: "inception_4c/pool_proj"
}
layer {
name: "inception_4c/output"
type: "Concat"
bottom: "inception_4c/1x1"
bottom: "inception_4c/3x3"
bottom: "inception_4c/5x5"
bottom: "inception_4c/pool_proj"
top: "inception_4c/output"
}
layer {
name: "inception_4d/1x1"
type: "Convolution"
bottom: "inception_4c/output"
top: "inception_4d/1x1"
param {
lr_mult: 1
decay_mult: 1
}
param {
lr_mult: 2
decay_mult: 0
}
convolution_param {
num_output: 112
kernel_size: 1
weight_filler {
type: "xavier"
std: 0.03
}
bias_filler {
type: "constant"
value: 0.2
}
}
}
layer {
name: "inception_4d/relu_1x1"
…
I0501 17:56:14.740612 30632 net.cpp:122] Setting up inception_4c/relu_5x5
I0501 17:56:14.740626 30632 net.cpp:129] Top shape: 16 64 14 14 (200704)
I0501 17:56:14.740631 30632 net.cpp:137] Memory required for data: 700688012
I0501 17:56:14.740638 30632 layer_factory.hpp:77] Creating layer inception_4c/pool
I0501 17:56:14.740649 30632 net.cpp:84] Creating Layer inception_4c/pool
I0501 17:56:14.740658 30632 net.cpp:406] inception_4c/pool <- inception_4b/output_inception_4b/output_0_split_3
I0501 17:56:14.740669 30632 net.cpp:380] inception_4c/pool -> inception_4c/pool
I0501 17:56:14.740739 30632 net.cpp:122] Setting up inception_4c/pool
I0501 17:56:14.740751 30632 net.cpp:129] Top shape: 16 512 14 14 (1605632)
I0501 17:56:14.740756 30632 net.cpp:137] Memory required for data: 707110540
I0501 17:56:14.740761 30632 layer_factory.hpp:77] Creating layer inception_4c/pool_proj
I0501 17:56:14.740780 30632 net.cpp:84] Creating Layer inception_4c/pool_proj
I0501 17:56:14.740787 30632 net.cpp:406] inception_4c/pool_proj <- inception_4c/pool
I0501 17:56:14.740798 30632 net.cpp:380] inception_4c/pool_proj -> inception_4c/pool_proj
I0501 17:56:14.747704 30632 net.cpp:122] Setting up inception_4c/pool_proj
I0501 17:56:14.747726 30632 net.cpp:129] Top shape: 16 64 14 14 (200704)
I0501 17:56:14.747732 30632 net.cpp:137] Memory required for data: 707913356
I0501 17:56:14.747745 30632 layer_factory.hpp:77] Creating layer inception_4c/relu_pool_proj
I0501 17:56:14.747759 30632 net.cpp:84] Creating Layer inception_4c/relu_pool_proj
I0501 17:56:14.747767 30632 net.cpp:406] inception_4c/relu_pool_proj <- inception_4c/pool_proj
I0501 17:56:14.747777 30632 net.cpp:367] inception_4c/relu_pool_proj -> inception_4c/pool_proj (in-place)
I0501 17:56:14.748528 30632 net.cpp:122] Setting up inception_4c/relu_pool_proj
I0501 17:56:14.748543 30632 net.cpp:129] Top shape: 16 64 14 14 (200704)
I0501 17:56:14.748548 30632 net.cpp:137] Memory required for data: 708716172
I0501 17:56:14.748553 30632 layer_factory.hpp:77] Creating layer inception_4c/output
I0501 17:56:14.748565 30632 net.cpp:84] Creating Layer inception_4c/output
I0501 17:56:14.748572 30632 net.cpp:406] inception_4c/output <- inception_4c/1x1
I0501 17:56:14.748607 30632 net.cpp:406] inception_4c/output <- inception_4c/3x3
I0501 17:56:14.748613 30632 net.cpp:406] inception_4c/output <- inception_4c/5x5
I0501 17:56:14.748620 30632 net.cpp:406] inception_4c/output <- inception_4c/pool_proj
I0501 17:56:14.748630 30632 net.cpp:380] inception_4c/output -> inception_4c/output
I0501 17:56:14.748669 30632 net.cpp:122] Setting up inception_4c/output
I0501 17:56:14.748677 30632 net.cpp:129] Top shape: 16 512 14 14 (1605632)
I0501 17:56:14.748682 30632 net.cpp:137] Memory required for data: 715138700
I0501 17:56:14.748687 30632 layer_factory.hpp:77] Creating layer inception_4c/output_inception_4c/output_0_split
I0501 17:56:14.748698 30632 net.cpp:84] Creating Layer inception_4c/output_inception_4c/output_0_split
I0501 17:56:14.748703 30632 net.cpp:406] inception_4c/output_inception_4c/output_0_split <- inception_4c/output
I0501 17:56:14.748711 30632 net.cpp:380] inception_4c/output_inception_4c/output_0_split -> inception_4c/output_inception_4c/output_0_split_0
I0501 17:56:14.748721 30632 net.cpp:380] inception_4c/output_inception_4c/output_0_split -> inception_4c/output_inception_4c/output_0_split_1
I0501 17:56:14.748730 30632 net.cpp:380] inception_4c/output_inception_4c/output_0_split -> inception_4c/output_inception_4c/output_0_split_2
I0501 17:56:14.748739 30632 net.cpp:380] inception_4c/output_inception_4c/output_0_split -> inception_4c/output_inception_4c/output_0_split_3
I0501 17:56:14.748809 30632 net.cpp:122] Setting up inception_4c/output_inception_4c/output_0_split
I0501 17:56:14.748818 30632 net.cpp:129] Top shape: 16 512 14 14 (1605632)
I0501 17:56:14.748826 30632 net.cpp:129] Top shape: 16 512 14 14 (1605632)
I0501 17:56:14.748831 30632 net.cpp:129] Top shape: 16 512 14 14 (1605632)
I0501 17:56:14.748837 30632 net.cpp:129] Top shape: 16 512 14 14 (1605632)
I0501 17:56:14.748843 30632 net.cpp:137] Memory required for data: 740828812
I0501 17:56:14.748848 30632 layer_factory.hpp:77] Creating layer inception_4d/1x1
I0501 17:56:14.748864 30632 net.cpp:84] Creating Layer inception_4d/1x1
I0501 17:56:14.748870 30632 net.cpp:406] inception_4d/1x1 <- inception_4c/output_inception_4c/output_0_split_0
I0501 17:56:14.748878 30632 net.cpp:380] inception_4d/1x1 -> inception_4d/1x1
I0501 17:56:14.762341 30632 net.cpp:122] Setting up inception_4d/1x1
I0501 17:56:14.762370 30632 net.cpp:129] Top shape: 16 112 14 14 (351232)
I0501 17:56:14.762377 30632 net.cpp:137] Memory required for data: 742233740
I0501 17:56:14.762392 30632 layer_factory.hpp:77] Creating layer inception_4d/relu_1x1
I0501 17:56:14.762406 30632 net.cpp:84] Creating Layer inception_4d/relu_1x1
I0501 17:56:14.762414 30632 net.cpp:406] inception_4d/relu_1x1 <- inception_4d/1x1
I0501 17:56:14.762428 30632 net.cpp:367] inception_4d/relu_1x1 -> inception_4d/1x1 (in-place)
I0501 17:56:14.763299 30632 net.cpp:122] Setting up inception_4d/relu_1x1
I0501 17:56:14.763316 30632 net.cpp:129] Top shape: 16 112 14 14 (351232)
I0501 17:56:14.763322 30632 net.cpp:137] Memory required for data: 743638668
I0501 17:56:14.763329 30632 layer_factory.hpp:77] Creating layer inception_4d/3x3_reduce
I0501 17:56:14.763347 30632 net.cpp:84] Creating Layer inception_4d/3x3_reduce
I0501 17:56:14.763355 30632 net.cpp:406] inception_4d/3x3_reduce <- inception_4c/output_inception_4c/output_0_split_1
I0501 17:56:14.763367 30632 net.cpp:380] inception_4d/3x3_reduce -> inception_4d/3x3_reduce
I0501 17:56:14.783227 30632 net.cpp:122] Setting up inception_4d/3x3_reduce
I0501 17:56:14.783257 30632 net.cpp:129] Top shape: 16 144 14 14 (451584)
I0501 17:56:14.783262 30632 net.cpp:137] Memory required for data: 745445004
I0501 17:56:14.783277 30632 layer_factory.hpp:77] Creating layer inception_4d/relu_3x3_reduce
I0501 17:56:14.783291 30632 net.cpp:84] Creating Layer inception_4d/relu_3x3_reduce
I0501 17:56:14.783300 30632 net.cpp:406] inception_4d/relu_3x3_reduce <- inception_4d/3x3_reduce
I0501 17:56:14.783310 30632 net.cpp:367] inception_4d/relu_3x3_reduce -> inception_4d/3x3_reduce (in-place)
I0501 17:56:14.783856 30632 net.cpp:122] Setting up inception_4d/relu_3x3_reduce
I0501 17:56:14.783893 30632 net.cpp:129] Top shape: 16 144 14 14 (451584)
I0501 17:56:14.783900 30632 net.cpp:137] Memory required for data: 747251340
I0501 17:56:14.783905 30632 layer_factory.hpp:77] Creating layer inception_4d/3x3
I0501 17:56:14.783926 30632 net.cpp:84] Creating Layer inception_4d/3x3
I0501 17:56:14.783931 30632 net.cpp:406] inception_4d/3x3 <- inception_4d/3x3_reduce
I0501 17:56:14.783944 30632 net.cpp:380] inception_4d/3x3 -> inception_4d/3x3
I0501 17:56:14.809434 30632 net.cpp:122] Setting up inception_4d/3x3
I0501 17:56:14.809468 30632 net.cpp:129] Top shape: 16 288 14 14 (903168)
I0501 17:56:14.809475 30632 net.cpp:137] Memory required for data: 750864012
I0501 17:56:14.809490 30632 layer_factory.hpp:77] Creating layer inception_4d/relu_3x3
I0501 17:56:14.809507 30632 net.cpp:84] Creating Layer inception_4d/relu_3x3
I0501 17:56:14.809520 30632 net.cpp:406] inception_4d/relu_3x3 <- inception_4d/3x3
I0501 17:56:14.809533 30632 net.cpp:367] inception_4d/relu_3x3 -> inception_4d/3x3 (in-place)
I0501 17:56:14.810210 30632 net.cpp:122] Setting up inception_4d/relu_3x3
I0501 17:56:14.810225 30632 net.cpp:129] Top shape: 16 288 14 14 (903168)
I0501 17:56:14.810230 30632 net.cpp:137] Memory required for data: 754476684
I0501 17:56:14.810237 30632 layer_factory.hpp:77] Creating layer inception_4d/5x5_reduce
I0501 17:56:14.810256 30632 net.cpp:84] Creating Layer inception_4d/5x5_reduce
I0501 17:56:14.810264 30632 net.cpp:406] inception_4d/5x5_reduce <- inception_4c/output_inception_4c/output_0_split_2
I0501 17:56:14.810278 30632 net.cpp:380] inception_4d/5x5_reduce -> inception_4d/5x5_reduce
I0501 17:56:14.816568 30632 net.cpp:122] Setting up inception_4d/5x5_reduce
I0501 17:56:14.816596 30632 net.cpp:129] Top shape: 16 32 14 14 (100352)
I0501 17:56:14.816603 30632 net.cpp:137] Memory required for data: 754878092
I0501 17:56:14.816618 30632 layer_factory.hpp:77] Creating layer inception_4d/relu_5x5_reduce
I0501 17:56:14.816632 30632 net.cpp:84] Creating Layer inception_4d/relu_5x5_reduce
I0501 17:56:14.816642 30632 net.cpp:406] inception_4d/relu_5x5_reduce <- inception_4d/5x5_reduce
I0501 17:56:14.816654 30632 net.cpp:367] inception_4d/relu_5x5_reduce -> inception_4d/5x5_reduce (in-place)
I0501 17:56:14.817492 30632 net.cpp:122] Setting up inception_4d/relu_5x5_reduce
I0501 17:56:14.817508 30632 net.cpp:129] Top shape: 16 32 14 14 (100352)
I0501 17:56:14.817514 30632 net.cpp:137] Memory required for data: 755279500
I0501 17:56:14.817520 30632 layer_factory.hpp:77] Creating layer inception_4d/5x5
I0501 17:56:14.817541 30632 net.cpp:84] Creating Layer inception_4d/5x5
I0501 17:56:14.817548 30632 net.cpp:406] inception_4d/5x5 <- inception_4d/5x5_reduce
I0501 17:56:14.817564 30632 net.cpp:380] inception_4d/5x5 -> inception_4d/5x5
I0501 17:56:14.853507 30632 net.cpp:122] Setting up inception_4d/5x5
I0501 17:56:14.853541 30632 net.cpp:129] Top shape: 16 64 14 14 (200704)
I0501 17:56:14.853547 30632 net.cpp:137] Memory required for data: 756082316
I0501 17:56:14.853562 30632 layer_factory.hpp:77] Creating layer inception_4d/relu_5x5
I0501 17:56:14.853579 30632 net.cpp:84] Creating Layer inception_4d/relu_5x5
I0501 17:56:14.853586 30632 net.cpp:406] inception_4d/relu_5x5 <- inception_4d/5x5
I0501 17:56:14.853596 30632 net.cpp:367] inception_4d/relu_5x5 -> inception_4d/5x5 (in-place)
I0501 17:56:14.854388 30632 net.cpp:122] Setting up inception_4d/relu_5x5
I0501 17:56:14.854403 30632 net.cpp:129] Top shape: 16 64 14 14 (200704)
I0501 17:56:14.854409 30632 net.cpp:137] Memory required for data: 756885132
I0501 17:56:14.854415 30632 layer_factory.hpp:77] Creating layer inception_4d/pool
I0501 17:56:14.854429 30632 net.cpp:84] Creating Layer inception_4d/pool
I0501 17:56:14.854436 30632 net.cpp:406] inception_4d/pool <- inception_4c/output_inception_4c/output_0_split_3
I0501 17:56:14.854445 30632 net.cpp:380] inception_4d/pool -> inception_4d/pool
I0501 17:56:14.856411 30632 net.cpp:122] Setting up inception_4d/pool
I0501 17:56:14.856431 30632 net.cpp:129] Top shape: 16 512 14 14 (1605632)
I0501 17:56:14.856462 30632 net.cpp:137] Memory required for data: 763307660
I0501 17:56:14.856469 30632 layer_factory.hpp:77] Creating layer inception_4d/pool_proj
I0501 17:56:14.856488 30632 net.cpp:84] Creating Layer inception_4d/pool_proj
I0501 17:56:15.032526 30632 net.cpp:406] inception_4d/pool_proj <- inception_4d/pool
I0501 17:56:15.032568 30632 net.cpp:380] inception_4d/pool_proj -> inception_4d/pool_proj
I0501 17:56:15.035842 30632 net.cpp:122] Setting up inception_4d/pool_proj
I0501 17:56:15.035864 30632 net.cpp:129] Top shape: 16 64 14 14 (200704)
I0501 17:56:15.035871 30632 net.cpp:137] Memory required for data: 764110476
I0501 17:56:15.035885 30632 layer_factory.hpp:77] Creating layer inception_4d/relu_pool_proj
I0501 17:56:15.035902 30632 net.cpp:84] Creating Layer inception_4d/relu_pool_proj
I0501 17:56:15.035910 30632 net.cpp:406] inception_4d/relu_pool_proj <- inception_4d/pool_proj
I0501 17:56:15.035920 30632 net.cpp:367] inception_4d/relu_pool_proj -> inception_4d/pool_proj (in-place)
I0501 17:56:15.036769 30632 net.cpp:122] Setting up inception_4d/relu_pool_proj
I0501 17:56:15.036783 30632 net.cpp:129] Top shape: 16 64 14 14 (200704)
I0501 17:56:15.036788 30632 net.cpp:137] Memory required for data: 764913292
I0501 17:56:15.036794 30632 layer_factory.hpp:77] Creating layer inception_4d/output
I0501 17:56:15.036804 30632 net.cpp:84] Creating Layer inception_4d/output
I0501 17:56:15.036811 30632 net.cpp:406] inception_4d/output <- inception_4d/1x1
I0501 17:56:15.036819 30632 net.cpp:406] inception_4d/output <- inception_4d/3x3
I0501 17:56:15.036829 30632 net.cpp:406] inception_4d/output <- inception_4d/5x5
I0501 17:56:15.036836 30632 net.cpp:406] inception_4d/output <- inception_4d/pool_proj
I0501 17:56:15.036844 30632 net.cpp:380] inception_4d/output -> inception_4d/output
I0501 17:56:15.036892 30632 net.cpp:122] Setting up inception_4d/output
I0501 17:56:15.036903 30632 net.cpp:129] Top shape: 16 528 14 14 (1655808)
I0501 17:56:15.036909 30632 net.cpp:137] Memory required for data: 771536524
I0501 17:56:15.036914 30632 layer_factory.hpp:77] Creating layer inception_4d/output_inception_4d/output_0_split
I0501 17:56:15.036926 30632 net.cpp:84] Creating Layer inception_4d/output_inception_4d/output_0_split
I0501 17:56:15.036931 30632 net.cpp:406] inception_4d/output_inception_4d/output_0_split <- inception_4d/output
I0501 17:56:15.036943 30632 net.cpp:380] inception_4d/output_inception_4d/output_0_split -> inception_4d/output_inception_4d/output_0_split_0
I0501 17:56:15.036955 30632 net.cpp:380] inception_4d/output_inception_4d/output_0_split -> inception_4d/output_inception_4d/output_0_split_1
I0501 17:56:15.036965 30632 net.cpp:380] inception_4d/output_inception_4d/output_0_split -> inception_4d/output_inception_4d/output_0_split_2
I0501 17:56:15.036978 30632 net.cpp:380] inception_4d/output_inception_4d/output_0_split -> inception_4d/output_inception_4d/output_0_split_3
I0501 17:56:15.036988 30632 net.cpp:380] inception_4d/output_inception_4d/output_0_split -> inception_4d/output_inception_4d/output_0_split_4
I0501 17:56:15.037101 30632 net.cpp:122] Setting up inception_4d/output_inception_4d/output_0_split
I0501 17:56:15.037112 30632 net.cpp:129] Top shape: 16 528 14 14 (1655808)
I0501 17:56:15.037119 30632 net.cpp:129] Top shape: 16 528 14 14 (1655808)
I0501 17:56:15.037127 30632 net.cpp:129] Top shape: 16 528 14 14 (1655808)
I0501 17:56:15.037132 30632 net.cpp:129] Top shape: 16 528 14 14 (1655808)
I0501 17:56:15.037139 30632 net.cpp:129] Top shape: 16 528 14 14 (1655808)
I0501 17:56:15.037144 30632 net.cpp:137] Memory required for data: 804652684
I0501 17:56:15.037150 30632 layer_factory.hpp:77] Creating layer loss2/ave_pool
I0501 17:56:15.037163 30632 net.cpp:84] Creating Layer loss2/ave_pool
I0501 17:56:15.037169 30632 net.cpp:406] loss2/ave_pool <- inception_4d/output_inception_4d/output_0_split_0
I0501 17:56:15.037179 30632 net.cpp:380] loss2/ave_pool -> loss2/ave_pool
I0501 17:56:15.042686 30632 net.cpp:122] Setting up loss2/ave_pool
I0501 17:56:15.042711 30632 net.cpp:129] Top shape: 16 528 4 4 (135168)
I0501 17:56:15.042742 30632 net.cpp:137] Memory required for data: 805193356
I0501 17:56:15.042752 30632 layer_factory.hpp:77] Creating layer loss2/conv
I0501 17:56:15.042774 30632 net.cpp:84] Creating Layer loss2/conv
I0501 17:56:15.042784 30632 net.cpp:406] loss2/conv <- loss2/ave_pool
I0501 17:56:15.042798 30632 net.cpp:380] loss2/conv -> loss2/conv
I0501 17:56:15.046326 30632 net.cpp:122] Setting up loss2/conv
I0501 17:56:15.046344 30632 net.cpp:129] Top shape: 16 128 4 4 (32768)
I0501 17:56:15.046350 30632 net.cpp:137] Memory required for data: 805324428
I0501 17:56:15.046361 30632 layer_factory.hpp:77] Creating layer loss2/relu_conv
I0501 17:56:15.046371 30632 net.cpp:84] Creating Layer loss2/relu_conv
I0501 17:56:15.046378 30632 net.cpp:406] loss2/relu_conv <- loss2/conv
I0501 17:56:15.046389 30632 net.cpp:367] loss2/relu_conv -> loss2/conv (in-place)
I0501 17:56:15.047235 30632 net.cpp:122] Setting up loss2/relu_conv
I0501 17:56:15.047252 30632 net.cpp:129] Top shape: 16 128 4 4 (32768)
I0501 17:56:15.047260 30632 net.cpp:137] Memory required for data: 805455500
I0501 17:56:15.047266 30632 layer_factory.hpp:77] Creating layer loss2/fc
I0501 17:56:15.047277 30632 net.cpp:84] Creating Layer loss2/fc
I0501 17:56:15.047284 30632 net.cpp:406] loss2/fc <- loss2/conv
I0501 17:56:15.047297 30632 net.cpp:380] loss2/fc -> loss2/fc
I0501 17:56:15.102051 30632 net.cpp:122] Setting up loss2/fc
I0501 17:56:15.102079 30632 net.cpp:129] Top shape: 16 1024 (16384)
I0501 17:56:15.102085 30632 net.cpp:137] Memory required for data: 805521036
I0501 17:56:15.102100 30632 layer_factory.hpp:77] Creating layer loss2/relu_fc
I0501 17:56:15.102113 30632 net.cpp:84] Creating Layer loss2/relu_fc
I0501 17:56:15.102123 30632 net.cpp:406] loss2/relu_fc <- loss2/fc
I0501 17:56:15.102135 30632 net.cpp:367] loss2/relu_fc -> loss2/fc (in-place)
I0501 17:56:15.115415 30632 net.cpp:122] Setting up loss2/relu_fc
I0501 17:56:15.115443 30632 net.cpp:129] Top shape: 16 1024 (16384)
I0501 17:56:15.115449 30632 net.cpp:137] Memory required for data: 805586572
I0501 17:56:15.115458 30632 layer_factory.hpp:77] Creating layer loss2/drop_fc
I0501 17:56:15.115473 30632 net.cpp:84] Creating Layer loss2/drop_fc
I0501 17:56:15.115481 30632 net.cpp:406] loss2/drop_fc <- loss2/fc
I0501 17:56:15.115497 30632 net.cpp:367] loss2/drop_fc -> loss2/fc (in-place)
I0501 17:56:15.115553 30632 net.cpp:122] Setting up loss2/drop_fc
I0501 17:56:15.115563 30632 net.cpp:129] Top shape: 16 1024 (16384)
I0501 17:56:15.115569 30632 net.cpp:137] Memory required for data: 805652108
I0501 17:56:15.115574 30632 layer_factory.hpp:77] Creating layer loss2/classifier
I0501 17:56:15.115590 30632 net.cpp:84] Creating Layer loss2/classifier
I0501 17:56:15.115597 30632 net.cpp:406] loss2/classifier <- loss2/fc
I0501 17:56:15.115608 30632 net.cpp:380] loss2/classifier -> loss2/classifier
I0501 17:56:15.118609 30632 net.cpp:122] Setting up loss2/classifier
I0501 17:56:15.118625 30632 net.cpp:129] Top shape: 16 196 (3136)
I0501 17:56:15.118631 30632 net.cpp:137] Memory required for data: 805664652
I0501 17:56:15.118643 30632 layer_factory.hpp:77] Creating layer loss2/classifier_loss2/classifier_0_split
I0501 17:56:15.118656 30632 net.cpp:84] Creating Layer loss2/classifier_loss2/classifier_0_split
I0501 17:56:15.118664 30632 net.cpp:406] loss2/classifier_loss2/classifier_0_split <- loss2/classifier
I0501 17:56:15.118674 30632 net.cpp:380] loss2/classifier_loss2/classifier_0_split -> loss2/classifier_loss2/classifier_0_split_0
I0501 17:56:15.118687 30632 net.cpp:380] loss2/classifier_loss2/classifier_0_split -> loss2/classifier_loss2/classifier_0_split_1
I0501 17:56:15.118698 30632 net.cpp:380] loss2/classifier_loss2/classifier_0_split -> loss2/classifier_loss2/classifier_0_split_2
I0501 17:56:15.118775 30632 net.cpp:122] Setting up loss2/classifier_loss2/classifier_0_split
I0501 17:56:15.118786 30632 net.cpp:129] Top shape: 16 196 (3136)
I0501 17:56:15.118793 30632 net.cpp:129] Top shape: 16 196 (3136)
I0501 17:56:15.118798 30632 net.cpp:129] Top shape: 16 196 (3136)
I0501 17:56:15.118830 30632 net.cpp:137] Memory required for data: 805702284
I0501 17:56:15.118837 30632 layer_factory.hpp:77] Creating layer loss2/loss
I0501 17:56:15.118850 30632 net.cpp:84] Creating Layer loss2/loss
I0501 17:56:15.118857 30632 net.cpp:406] loss2/loss <- loss2/classifier_loss2/classifier_0_split_0
I0501 17:56:15.118865 30632 net.cpp:406] loss2/loss <- label_val-data_1_split_3
…
I0501 17:56:15.119799 30632 net.cpp:122] Setting up loss2/top-5
I0501 17:56:15.119807 30632 net.cpp:129] Top shape: (1)
I0501 17:56:15.119812 30632 net.cpp:137] Memory required for data: 805702296
I0501 17:56:15.119817 30632 layer_factory.hpp:77] Creating layer inception_4e/1x1
I0501 17:56:15.119835 30632 net.cpp:84] Creating Layer inception_4e/1x1
I0501 17:56:15.119843 30632 net.cpp:406] inception_4e/1x1 <- inception_4d/output_inception_4d/output_0_split_1
I0501 17:56:15.119854 30632 net.cpp:380] inception_4e/1x1 -> inception_4e/1x1
I0501 17:56:15.126443 30632 net.cpp:122] Setting up inception_4e/1x1
I0501 17:56:15.126466 30632 net.cpp:129] Top shape: 16 256 14 14 (802816)
I0501 17:56:15.126472 30632 net.cpp:137] Memory required for data: 808913560
I0501 17:56:15.126528 30632 layer_factory.hpp:77] Creating layer inception_4e/relu_1x1
I0501 17:56:15.126544 30632 net.cpp:84] Creating Layer inception_4e/relu_1x1
I0501 17:56:15.126551 30632 net.cpp:406] inception_4e/relu_1x1 <- inception_4e/1x1
I0501 17:56:15.126564 30632 net.cpp:367] inception_4e/relu_1x1 -> inception_4e/1x1 (in-place)
I0501 17:56:15.129776 30632 net.cpp:122] Setting up inception_4e/relu_1x1
I0501 17:56:15.129799 30632 net.cpp:129] Top shape: 16 256 14 14 (802816)
I0501 17:56:15.129806 30632 net.cpp:137] Memory required for data: 812124824
I0501 17:56:15.129813 30632 layer_factory.hpp:77] Creating layer inception_4e/3x3_reduce
I0501 17:56:15.129870 30632 net.cpp:84] Creating Layer inception_4e/3x3_reduce
I0501 17:56:15.129880 30632 net.cpp:406] inception_4e/3x3_reduce <- inception_4d/output_inception_4d/output_0_split_2
I0501 17:56:15.129894 30632 net.cpp:380] inception_4e/3x3_reduce -> inception_4e/3x3_reduce
I0501 17:56:15.133368 30632 net.cpp:122] Setting up inception_4e/3x3_reduce
I0501 17:56:15.133388 30632 net.cpp:129] Top shape: 16 160 14 14 (501760)
I0501 17:56:15.133394 30632 net.cpp:137] Memory required for data: 814131864
I0501 17:56:15.133407 30632 layer_factory.hpp:77] Creating layer inception_4e/relu_3x3_reduce
I0501 17:56:15.133422 30632 net.cpp:84] Creating Layer inception_4e/relu_3x3_reduce
I0501 17:56:15.133430 30632 net.cpp:406] inception_4e/relu_3x3_reduce <- inception_4e/3x3_reduce
I0501 17:56:15.133440 30632 net.cpp:367] inception_4e/relu_3x3_reduce -> inception_4e/3x3_reduce (in-place)
I0501 17:56:15.134289 30632 net.cpp:122] Setting up inception_4e/relu_3x3_reduce
I0501 17:56:15.134302 30632 net.cpp:129] Top shape: 16 160 14 14 (501760)
I0501 17:56:15.134308 30632 net.cpp:137] Memory required for data: 816138904
I0501 17:56:15.134315 30632 layer_factory.hpp:77] Creating layer inception_4e/3x3
I0501 17:56:15.134331 30632 net.cpp:84] Creating Layer inception_4e/3x3
I0501 17:56:15.134338 30632 net.cpp:406] inception_4e/3x3 <- inception_4e/3x3_reduce
I0501 17:56:15.134352 30632 net.cpp:380] inception_4e/3x3 -> inception_4e/3x3
I0501 17:56:15.143767 30632 net.cpp:122] Setting up inception_4e/3x3
I0501 17:56:15.143795 30632 net.cpp:129] Top shape: 16 320 14 14 (1003520)
I0501 17:56:15.143802 30632 net.cpp:137] Memory required for data: 820152984
I0501 17:56:15.143818 30632 layer_factory.hpp:77] Creating layer inception_4e/relu_3x3
I0501 17:56:15.143832 30632 net.cpp:84] Creating Layer inception_4e/relu_3x3
I0501 17:56:15.143841 30632 net.cpp:406] inception_4e/relu_3x3 <- inception_4e/3x3
I0501 17:56:15.143855 30632 net.cpp:367] inception_4e/relu_3x3 -> inception_4e/3x3 (in-place)
I0501 17:56:15.144786 30632 net.cpp:122] Setting up inception_4e/relu_3x3
I0501 17:56:15.144800 30632 net.cpp:129] Top shape: 16 320 14 14 (1003520)
I0501 17:56:15.144806 30632 net.cpp:137] Memory required for data: 824167064
I0501 17:56:15.144812 30632 layer_factory.hpp:77] Creating layer inception_4e/5x5_reduce
I0501 17:56:15.144831 30632 net.cpp:84] Creating Layer inception_4e/5x5_reduce
I0501 17:56:15.144840 30632 net.cpp:406] inception_4e/5x5_reduce <- inception_4d/output_inception_4d/output_0_split_3
I0501 17:56:15.144852 30632 net.cpp:380] inception_4e/5x5_reduce -> inception_4e/5x5_reduce
I0501 17:56:15.150158 30632 net.cpp:122] Setting up inception_4e/5x5_reduce
I0501 17:56:15.150184 30632 net.cpp:129] Top shape: 16 32 14 14 (100352)
I0501 17:56:15.150192 30632 net.cpp:137] Memory required for data: 824568472
I0501 17:56:15.150205 30632 layer_factory.hpp:77] Creating layer inception_4e/relu_5x5_reduce
I0501 17:56:15.150223 30632 net.cpp:84] Creating Layer inception_4e/relu_5x5_reduce
I0501 17:56:15.150231 30632 net.cpp:406] inception_4e/relu_5x5_reduce <- inception_4e/5x5_reduce
I0501 17:56:15.150244 30632 net.cpp:367] inception_4e/relu_5x5_reduce -> inception_4e/5x5_reduce (in-place)
I0501 17:56:15.163281 30632 net.cpp:122] Setting up inception_4e/relu_5x5_reduce
I0501 17:56:15.163309 30632 net.cpp:129] Top shape: 16 32 14 14 (100352)
I0501 17:56:15.163316 30632 net.cpp:137] Memory required for data: 824969880
I0501 17:56:15.163324 30632 layer_factory.hpp:77] Creating layer inception_4e/5x5
I0501 17:56:15.163349 30632 net.cpp:84] Creating Layer inception_4e/5x5
I0501 17:56:15.163360 30632 net.cpp:406] inception_4e/5x5 <- inception_4e/5x5_reduce
I0501 17:56:15.163374 30632 net.cpp:380] inception_4e/5x5 -> inception_4e/5x5
I0501 17:56:15.167325 30632 net.cpp:122] Setting up inception_4e/5x5
I0501 17:56:15.167345 30632 net.cpp:129] Top shape: 16 128 14 14 (401408)
I0501 17:56:15.167351 30632 net.cpp:137] Memory required for data: 826575512
I0501 17:56:15.167363 30632 layer_factory.hpp:77] Creating layer inception_4e/relu_5x5
I0501 17:56:15.167374 30632 net.cpp:84] Creating Layer inception_4e/relu_5x5
I0501 17:56:15.167382 30632 net.cpp:406] inception_4e/relu_5x5 <- inception_4e/5x5
I0501 17:56:15.167392 30632 net.cpp:367] inception_4e/relu_5x5 -> inception_4e/5x5 (in-place)
I0501 17:56:15.167960 30632 net.cpp:122] Setting up inception_4e/relu_5x5
I0501 17:56:15.167974 30632 net.cpp:129] Top shape: 16 128 14 14 (401408)
I0501 17:56:15.167980 30632 net.cpp:137] Memory required for data: 828181144
I0501 17:56:15.167986 30632 layer_factory.hpp:77] Creating layer inception_4e/pool
I0501 17:56:15.167997 30632 net.cpp:84] Creating Layer inception_4e/pool
I0501 17:56:15.168004 30632 net.cpp:406] inception_4e/pool <- inception_4d/output_inception_4d/output_0_split_4
I0501 17:56:15.168017 30632 net.cpp:380] inception_4e/pool -> inception_4e/pool
I0501 17:56:15.168087 30632 net.cpp:122] Setting up inception_4e/pool
I0501 17:56:15.168126 30632 net.cpp:129] Top shape: 16 528 14 14 (1655808)
I0501 17:56:15.168133 30632 net.cpp:137] Memory required for data: 834804376
I0501 17:56:15.168139 30632 layer_factory.hpp:77] Creating layer inception_4e/pool_proj
I0501 17:56:15.168157 30632 net.cpp:84] Creating Layer inception_4e/pool_proj
I0501 17:56:15.168164 30632 net.cpp:406] inception_4e/pool_proj <- inception_4e/pool
I0501 17:56:15.168175 30632 net.cpp:380] inception_4e/pool_proj -> inception_4e/pool_proj
I0501 17:56:15.171684 30632 net.cpp:122] Setting up inception_4e/pool_proj
I0501 17:56:15.171705 30632 net.cpp:129] Top shape: 16 128 14 14 (401408)
I0501 17:56:15.171712 30632 net.cpp:137] Memory required for data: 836410008
I0501 17:56:15.171725 30632 layer_factory.hpp:77] Creating layer inception_4e/relu_pool_proj
I0501 17:56:15.171738 30632 net.cpp:84] Creating Layer inception_4e/relu_pool_proj
I0501 17:56:15.171746 30632 net.cpp:406] inception_4e/relu_pool_proj <- inception_4e/pool_proj
I0501 17:56:15.171756 30632 net.cpp:367] inception_4e/relu_pool_proj -> inception_4e/pool_proj (in-place)
I0501 17:56:15.190209 30632 net.cpp:122] Setting up inception_4e/relu_pool_proj
I0501 17:56:15.190239 30632 net.cpp:129] Top shape: 16 128 14 14 (401408)
I0501 17:56:15.190246 30632 net.cpp:137] Memory required for data: 838015640
I0501 17:56:15.190255 30632 layer_factory.hpp:77] Creating layer inception_4e/output
I0501 17:56:15.190273 30632 net.cpp:84] Creating Layer inception_4e/output
I0501 17:56:15.190281 30632 net.cpp:406] inception_4e/output <- inception_4e/1x1
I0501 17:56:15.190292 30632 net.cpp:406] inception_4e/output <- inception_4e/3x3
I0501 17:56:15.190300 30632 net.cpp:406] inception_4e/output <- inception_4e/5x5
I0501 17:56:15.190307 30632 net.cpp:406] inception_4e/output <- inception_4e/pool_proj
I0501 17:56:15.190317 30632 net.cpp:380] inception_4e/output -> inception_4e/output
I0501 17:56:15.190382 30632 net.cpp:122] Setting up inception_4e/output
I0501 17:56:15.190393 30632 net.cpp:129] Top shape: 16 832 14 14 (2609152)
I0501 17:56:15.190399 30632 net.cpp:137] Memory required for data: 848452248
I0501 17:56:15.190404 30632 layer_factory.hpp:77] Creating layer pool4/3x3_s2
I0501 17:56:15.190415 30632 net.cpp:84] Creating Layer pool4/3x3_s2
I0501 17:56:15.190423 30632 net.cpp:406] pool4/3x3_s2 <- inception_4e/output
I0501 17:56:15.190434 30632 net.cpp:380] pool4/3x3_s2 -> pool4/3x3_s2
I0501 17:56:15.190534 30632 net.cpp:122] Setting up pool4/3x3_s2
I0501 17:56:15.190546 30632 net.cpp:129] Top shape: 16 832 7 7 (652288)
I0501 17:56:15.190551 30632 net.cpp:137] Memory required for data: 851061400
I0501 17:56:15.190557 30632 layer_factory.hpp:77] Creating layer pool4/3x3_s2_pool4/3x3_s2_0_split
I0501 17:56:15.190569 30632 net.cpp:84] Creating Layer pool4/3x3_s2_pool4/3x3_s2_0_split
I0501 17:56:15.190575 30632 net.cpp:406] pool4/3x3_s2_pool4/3x3_s2_0_split <- pool4/3x3_s2
I0501 17:56:15.190587 30632 net.cpp:380] pool4/3x3_s2_pool4/3x3_s2_0_split -> pool4/3x3_s2_pool4/3x3_s2_0_split_0
I0501 17:56:15.190596 30632 net.cpp:380] pool4/3x3_s2_pool4/3x3_s2_0_split -> pool4/3x3_s2_pool4/3x3_s2_0_split_1
I0501 17:56:15.190605 30632 net.cpp:380] pool4/3x3_s2_pool4/3x3_s2_0_split -> pool4/3x3_s2_pool4/3x3_s2_0_split_2
I0501 17:56:15.190650 30632 net.cpp:380] pool4/3x3_s2_pool4/3x3_s2_0_split -> pool4/3x3_s2_pool4/3x3_s2_0_split_3
I0501 17:56:15.190733 30632 net.cpp:122] Setting up pool4/3x3_s2_pool4/3x3_s2_0_split
I0501 17:56:15.190745 30632 net.cpp:129] Top shape: 16 832 7 7 (652288)
I0501 17:56:15.190752 30632 net.cpp:129] Top shape: 16 832 7 7 (652288)
I0501 17:56:15.190760 30632 net.cpp:129] Top shape: 16 832 7 7 (652288)
I0501 17:56:15.190768 30632 net.cpp:129] Top shape: 16 832 7 7 (652288)
I0501 17:56:15.190773 30632 net.cpp:137] Memory required for data: 861498008
I0501 17:56:15.190778 30632 layer_factory.hpp:77] Creating layer inception_5a/1x1
I0501 17:56:15.190796 30632 net.cpp:84] Creating Layer inception_5a/1x1
I0501 17:56:15.190804 30632 net.cpp:406] inception_5a/1x1 <- pool4/3x3_s2_pool4/3x3_s2_0_split_0
I0501 17:56:15.190814 30632 net.cpp:380] inception_5a/1x1 -> inception_5a/1x1
I0501 17:56:15.240871 30632 net.cpp:122] Setting up inception_5a/1x1
I0501 17:56:15.240902 30632 net.cpp:129] Top shape: 16 256 7 7 (200704)
I0501 17:56:15.240909 30632 net.cpp:137] Memory required for data: 862300824
I0501 17:56:15.240924 30632 layer_factory.hpp:77] Creating layer inception_5a/relu_1x1
I0501 17:56:15.240938 30632 net.cpp:84] Creating Layer inception_5a/relu_1x1
I0501 17:56:15.240947 30632 net.cpp:406] inception_5a/relu_1x1 <- inception_5a/1x1
I0501 17:56:15.240957 30632 net.cpp:367] inception_5a/relu_1x1 -> inception_5a/1x1 (in-place)
I0501 17:56:15.242130 30632 net.cpp:122] Setting up inception_5a/relu_1x1
I0501 17:56:15.242146 30632 net.cpp:129] Top shape: 16 256 7 7 (200704)
I0501 17:56:15.242151 30632 net.cpp:137] Memory required for data: 863103640
I0501 17:56:15.242157 30632 layer_factory.hpp:77] Creating layer inception_5a/3x3_reduce
I0501 17:56:15.242177 30632 net.cpp:84] Creating Layer inception_5a/3x3_reduce
I0501 17:56:15.242185 30632 net.cpp:406] inception_5a/3x3_reduce <- pool4/3x3_s2_pool4/3x3_s2_0_split_1
I0501 17:56:15.242198 30632 net.cpp:380] inception_5a/3x3_reduce -> inception_5a/3x3_reduce
I0501 17:56:15.264974 30632 net.cpp:122] Setting up inception_5a/3x3_reduce
I0501 17:56:15.265003 30632 net.cpp:129] Top shape: 16 160 7 7 (125440)
I0501 17:56:15.265010 30632 net.cpp:137] Memory required for data: 863605400
I0501 17:56:15.265025 30632 layer_factory.hpp:77] Creating layer inception_5a/relu_3x3_reduce
I0501 17:56:15.265039 30632 net.cpp:84] Creating Layer inception_5a/relu_3x3_reduce
I0501 17:56:15.265048 30632 net.cpp:406] inception_5a/relu_3x3_reduce <- inception_5a/3x3_reduce
I0501 17:56:15.265061 30632 net.cpp:367] inception_5a/relu_3x3_reduce -> inception_5a/3x3_reduce (in-place)
I0501 17:56:15.266425 30632 net.cpp:122] Setting up inception_5a/relu_3x3_reduce
I0501 17:56:15.266439 30632 net.cpp:129] Top shape: 16 160 7 7 (125440)
I0501 17:56:15.266445 30632 net.cpp:137] Memory required for data: 864107160
I0501 17:56:15.266451 30632 layer_factory.hpp:77] Creating layer inception_5a/3x3
I0501 17:56:15.266470 30632 net.cpp:84] Creating Layer inception_5a/3x3
I0501 17:56:15.266477 30632 net.cpp:406] inception_5a/3x3 <- inception_5a/3x3_reduce
I0501 17:56:15.266528 30632 net.cpp:380] inception_5a/3x3 -> inception_5a/3x3
I0501 17:56:15.377029 30632 net.cpp:122] Setting up inception_5a/3x3
I0501 17:56:15.377064 30632 net.cpp:129] Top shape: 16 320 7 7 (250880)
I0501 17:56:15.377072 30632 net.cpp:137] Memory required for data: 865110680
I0501 17:56:15.377090 30632 layer_factory.hpp:77] Creating layer inception_5a/relu_3x3
I0501 17:56:15.377106 30632 net.cpp:84] Creating Layer inception_5a/relu_3x3
I0501 17:56:15.377116 30632 net.cpp:406] inception_5a/relu_3x3 <- inception_5a/3x3
I0501 17:56:15.377130 30632 net.cpp:367] inception_5a/relu_3x3 -> inception_5a/3x3 (in-place)
I0501 17:56:15.378332 30632 net.cpp:122] Setting up inception_5a/relu_3x3
I0501 17:56:15.378347 30632 net.cpp:129] Top shape: 16 320 7 7 (250880)
I0501 17:56:15.378353 30632 net.cpp:137] Memory required for data: 866114200
I0501 17:56:15.378360 30632 layer_factory.hpp:77] Creating layer inception_5a/5x5_reduce
I0501 17:56:15.378381 30632 net.cpp:84] Creating Layer inception_5a/5x5_reduce
I0501 17:56:15.378391 30632 net.cpp:406] inception_5a/5x5_reduce <- pool4/3x3_s2_pool4/3x3_s2_0_split_2
I0501 17:56:15.378402 30632 net.cpp:380] inception_5a/5x5_reduce -> inception_5a/5x5_reduce
I0501 17:56:15.388113 30632 net.cpp:122] Setting up inception_5a/5x5_reduce
I0501 17:56:15.388142 30632 net.cpp:129] Top shape: 16 32 7 7 (25088)
I0501 17:56:15.388149 30632 net.cpp:137] Memory required for data: 866214552
I0501 17:56:15.388164 30632 layer_factory.hpp:77] Creating layer inception_5a/relu_5x5_reduce
I0501 17:56:15.388182 30632 net.cpp:84] Creating Layer inception_5a/relu_5x5_reduce
I0501 17:56:15.388191 30632 net.cpp:406] inception_5a/relu_5x5_reduce <- inception_5a/5x5_reduce
I0501 17:56:15.388202 30632 net.cpp:367] inception_5a/relu_5x5_reduce -> inception_5a/5x5_reduce (in-place)
I0501 17:56:15.388820 30632 net.cpp:122] Setting up inception_5a/relu_5x5_reduce
I0501 17:56:15.388837 30632 net.cpp:129] Top shape: 16 32 7 7 (25088)
I0501 17:56:15.388844 30632 net.cpp:137] Memory required for data: 866314904
I0501 17:56:15.388849 30632 layer_factory.hpp:77] Creating layer inception_5a/5x5
I0501 17:56:15.388869 30632 net.cpp:84] Creating Layer inception_5a/5x5
I0501 17:56:15.388875 30632 net.cpp:406] inception_5a/5x5 <- inception_5a/5x5_reduce
I0501 17:56:15.388886 30632 net.cpp:380] inception_5a/5x5 -> inception_5a/5x5
I0501 17:56:15.393448 30632 net.cpp:122] Setting up inception_5a/5x5
I0501 17:56:15.393474 30632 net.cpp:129] Top shape: 16 128 7 7 (100352)
I0501 17:56:15.393481 30632 net.cpp:137] Memory required for data: 866716312
I0501 17:56:15.393496 30632 layer_factory.hpp:77] Creating layer inception_5a/relu_5x5
I0501 17:56:15.393510 30632 net.cpp:84] Creating Layer inception_5a/relu_5x5
I0501 17:56:15.393520 30632 net.cpp:406] inception_5a/relu_5x5 <- inception_5a/5x5
I0501 17:56:15.393530 30632 net.cpp:367] inception_5a/relu_5x5 -> inception_5a/5x5 (in-place)
I0501 17:56:15.406375 30632 net.cpp:122] Setting up inception_5a/relu_5x5
I0501 17:56:15.406404 30632 net.cpp:129] Top shape: 16 128 7 7 (100352)
I0501 17:56:15.406410 30632 net.cpp:137] Memory required for data: 867117720
I0501 17:56:15.406420 30632 layer_factory.hpp:77] Creating layer inception_5a/pool
I0501 17:56:15.406435 30632 net.cpp:84] Creating Layer inception_5a/pool
I0501 17:56:15.406445 30632 net.cpp:406] inception_5a/pool <- pool4/3x3_s2_pool4/3x3_s2_0_split_3
I0501 17:56:15.406461 30632 net.cpp:380] inception_5a/pool -> inception_5a/pool
I0501 17:56:15.406633 30632 net.cpp:122] Setting up inception_5a/pool
I0501 17:56:15.406647 30632 net.cpp:129] Top shape: 16 832 7 7 (652288)
I0501 17:56:15.406652 30632 net.cpp:137] Memory required for data: 869726872
I0501 17:56:15.406658 30632 layer_factory.hpp:77] Creating layer inception_5a/pool_proj
I0501 17:56:15.406677 30632 net.cpp:84] Creating Layer inception_5a/pool_proj
I0501 17:56:15.406683 30632 net.cpp:406] inception_5a/pool_proj <- inception_5a/pool
I0501 17:56:15.406697 30632 net.cpp:380] inception_5a/pool_proj -> inception_5a/pool_proj
I0501 17:56:15.419677 30632 net.cpp:122] Setting up inception_5a/pool_proj
I0501 17:56:15.419705 30632 net.cpp:129] Top shape: 16 128 7 7 (100352)
I0501 17:56:15.419713 30632 net.cpp:137] Memory required for data: 870128280
I0501 17:56:15.419728 30632 layer_factory.hpp:77] Creating layer inception_5a/relu_pool_proj
I0501 17:56:15.419745 30632 net.cpp:84] Creating Layer inception_5a/relu_pool_proj
I0501 17:56:15.419755 30632 net.cpp:406] inception_5a/relu_pool_proj <- inception_5a/pool_proj
I0501 17:56:15.419768 30632 net.cpp:367] inception_5a/relu_pool_proj -> inception_5a/pool_proj (in-place)
I0501 17:56:15.421224 30632 net.cpp:122] Setting up inception_5a/relu_pool_proj
I0501 17:56:15.421239 30632 net.cpp:129] Top shape: 16 128 7 7 (100352)
I0501 17:56:15.421245 30632 net.cpp:137] Memory required for data: 870529688
I0501 17:56:15.421252 30632 layer_factory.hpp:77] Creating layer inception_5a/output
I0501 17:56:15.421267 30632 net.cpp:84] Creating Layer inception_5a/output
I0501 17:56:15.421275 30632 net.cpp:406] inception_5a/output <- inception_5a/1x1
I0501 17:56:15.421284 30632 net.cpp:406] inception_5a/output <- inception_5a/3x3
I0501 17:56:15.421291 30632 net.cpp:406] inception_5a/output <- inception_5a/5x5
I0501 17:56:15.421298 30632 net.cpp:406] inception_5a/output <- inception_5a/pool_proj
I0501 17:56:15.421310 30632 net.cpp:380] inception_5a/output -> inception_5a/output
I0501 17:56:15.421357 30632 net.cpp:122] Setting up inception_5a/output
I0501 17:56:15.421368 30632 net.cpp:129] Top shape: 16 832 7 7 (652288)
I0501 17:56:15.421375 30632 net.cpp:137] Memory required for data: 873138840
I0501 17:56:15.421380 30632 layer_factory.hpp:77] Creating layer inception_5a/output_inception_5a/output_0_split
I0501 17:56:15.421393 30632 net.cpp:84] Creating Layer inception_5a/output_inception_5a/output_0_split
I0501 17:56:15.421401 30632 net.cpp:406] inception_5a/output_inception_5a/output_0_split <- inception_5a/output
I0501 17:56:15.421440 30632 net.cpp:380] inception_5a/output_inception_5a/output_0_split -> inception_5a/output_inception_5a/output_0_split_0
I0501 17:56:15.421456 30632 net.cpp:380] inception_5a/output_inception_5a/output_0_split -> inception_5a/output_inception_5a/output_0_split_1
I0501 17:56:15.421468 30632 net.cpp:380] inception_5a/output_inception_5a/output_0_split -> inception_5a/output_inception_5a/output_0_split_2
I0501 17:56:15.421478 30632 net.cpp:380] inception_5a/output_inception_5a/output_0_split -> inception_5a/output_inception_5a/output_0_split_3
I0501 17:56:15.421576 30632 net.cpp:122] Setting up inception_5a/output_inception_5a/output_0_split
I0501 17:56:15.421591 30632 net.cpp:129] Top shape: 16 832 7 7 (652288)
I0501 17:56:15.421598 30632 net.cpp:129] Top shape: 16 832 7 7 (652288)
I0501 17:56:15.421605 30632 net.cpp:129] Top shape: 16 832 7 7 (652288)
I0501 17:56:15.421612 30632 net.cpp:129] Top shape: 16 832 7 7 (652288)
I0501 17:56:15.421617 30632 net.cpp:137] Memory required for data: 883575448
I0501 17:56:15.421624 30632 layer_factory.hpp:77] Creating layer inception_5b/1x1
I0501 17:56:15.421643 30632 net.cpp:84] Creating Layer inception_5b/1x1
I0501 17:56:15.421649 30632 net.cpp:406] inception_5b/1x1 <- inception_5a/output_inception_5a/output_0_split_0
I0501 17:56:15.421660 30632 net.cpp:380] inception_5b/1x1 -> inception_5b/1x1
I0501 17:56:15.449642 30632 net.cpp:122] Setting up inception_5b/1x1
I0501 17:56:15.449673 30632 net.cpp:129] Top shape: 16 384 7 7 (301056)
I0501 17:56:15.449681 30632 net.cpp:137] Memory required for data: 884779672
I0501 17:56:15.449697 30632 layer_factory.hpp:77] Creating layer inception_5b/relu_1x1
I0501 17:56:15.449719 30632 net.cpp:84] Creating Layer inception_5b/relu_1x1
I0501 17:56:15.449730 30632 net.cpp:406] inception_5b/relu_1x1 <- inception_5b/1x1
I0501 17:56:15.449745 30632 net.cpp:367] inception_5b/relu_1x1 -> inception_5b/1x1 (in-place)
I0501 17:56:15.463774 30632 net.cpp:122] Setting up inception_5b/relu_1x1
I0501 17:56:15.463809 30632 net.cpp:129] Top shape: 16 384 7 7 (301056)
I0501 17:56:15.463815 30632 net.cpp:137] Memory required for data: 885983896
I0501 17:56:15.463824 30632 layer_factory.hpp:77] Creating layer inception_5b/3x3_reduce
I0501 17:56:15.463848 30632 net.cpp:84] Creating Layer inception_5b/3x3_reduce
I0501 17:56:15.463860 30632 net.cpp:406] inception_5b/3x3_reduce <- inception_5a/output_inception_5a/output_0_split_1
I0501 17:56:15.463876 30632 net.cpp:380] inception_5b/3x3_reduce -> inception_5b/3x3_reduce
I0501 17:56:15.475069 30632 net.cpp:122] Setting up inception_5b/3x3_reduce
I0501 17:56:15.475097 30632 net.cpp:129] Top shape: 16 192 7 7 (150528)
I0501 17:56:15.475106 30632 net.cpp:137] Memory required for data: 886586008
I0501 17:56:15.475121 30632 layer_factory.hpp:77] Creating layer inception_5b/relu_3x3_reduce
I0501 17:56:15.475138 30632 net.cpp:84] Creating Layer inception_5b/relu_3x3_reduce
I0501 17:56:15.475148 30632 net.cpp:406] inception_5b/relu_3x3_reduce <- inception_5b/3x3_reduce
I0501 17:56:15.475162 30632 net.cpp:367] inception_5b/relu_3x3_reduce -> inception_5b/3x3_reduce (in-place)
I0501 17:56:15.493072 30632 net.cpp:122] Setting up inception_5b/relu_3x3_reduce
I0501 17:56:15.493101 30632 net.cpp:129] Top shape: 16 192 7 7 (150528)
I0501 17:56:15.493108 30632 net.cpp:137] Memory required for data: 887188120
I0501 17:56:15.493117 30632 layer_factory.hpp:77] Creating layer inception_5b/3x3
I0501 17:56:15.493144 30632 net.cpp:84] Creating Layer inception_5b/3x3
I0501 17:56:15.493155 30632 net.cpp:406] inception_5b/3x3 <- inception_5b/3x3_reduce
I0501 17:56:15.493170 30632 net.cpp:380] inception_5b/3x3 -> inception_5b/3x3
I0501 17:56:15.528409 30632 net.cpp:122] Setting up inception_5b/3x3
I0501 17:56:15.528441 30632 net.cpp:129] Top shape: 16 384 7 7 (301056)
I0501 17:56:15.528446 30632 net.cpp:137] Memory required for data: 888392344
I0501 17:56:15.528462 30632 layer_factory.hpp:77] Creating layer inception_5b/relu_3x3
I0501 17:56:15.528507 30632 net.cpp:84] Creating Layer inception_5b/relu_3x3
I0501 17:56:15.528515 30632 net.cpp:406] inception_5b/relu_3x3 <- inception_5b/3x3
I0501 17:56:15.528527 30632 net.cpp:367] inception_5b/relu_3x3 -> inception_5b/3x3 (in-place)
I0501 17:56:15.529176 30632 net.cpp:122] Setting up inception_5b/relu_3x3
I0501 17:56:15.529191 30632 net.cpp:129] Top shape: 16 384 7 7 (301056)
I0501 17:56:15.529196 30632 net.cpp:137] Memory required for data: 889596568
I0501 17:56:15.529202 30632 layer_factory.hpp:77] Creating layer inception_5b/5x5_reduce
I0501 17:56:15.529220 30632 net.cpp:84] Creating Layer inception_5b/5x5_reduce
I0501 17:56:15.529227 30632 net.cpp:406] inception_5b/5x5_reduce <- inception_5a/output_inception_5a/output_0_split_2
I0501 17:56:15.529237 30632 net.cpp:380] inception_5b/5x5_reduce -> inception_5b/5x5_reduce
I0501 17:56:15.532526 30632 net.cpp:122] Setting up inception_5b/5x5_reduce
I0501 17:56:15.532546 30632 net.cpp:129] Top shape: 16 48 7 7 (37632)
I0501 17:56:15.532552 30632 net.cpp:137] Memory required for data: 889747096
I0501 17:56:15.532563 30632 layer_factory.hpp:77] Creating layer inception_5b/relu_5x5_reduce
I0501 17:56:15.532574 30632 net.cpp:84] Creating Layer inception_5b/relu_5x5_reduce
I0501 17:56:15.532582 30632 net.cpp:406] inception_5b/relu_5x5_reduce <- inception_5b/5x5_reduce
I0501 17:56:15.532589 30632 net.cpp:367] inception_5b/relu_5x5_reduce -> inception_5b/5x5_reduce (in-place)
I0501 17:56:15.533124 30632 net.cpp:122] Setting up inception_5b/relu_5x5_reduce
I0501 17:56:15.533138 30632 net.cpp:129] Top shape: 16 48 7 7 (37632)
I0501 17:56:15.533143 30632 net.cpp:137] Memory required for data: 889897624
I0501 17:56:15.533149 30632 layer_factory.hpp:77] Creating layer inception_5b/5x5
I0501 17:56:15.533164 30632 net.cpp:84] Creating Layer inception_5b/5x5
I0501 17:56:15.533170 30632 net.cpp:406] inception_5b/5x5 <- inception_5b/5x5_reduce
I0501 17:56:15.533179 30632 net.cpp:380] inception_5b/5x5 -> inception_5b/5x5
I0501 17:56:15.551072 30632 net.cpp:122] Setting up inception_5b/5x5
I0501 17:56:15.551101 30632 net.cpp:129] Top shape: 16 128 7 7 (100352)
I0501 17:56:15.551108 30632 net.cpp:137] Memory required for data: 890299032
I0501 17:56:15.551123 30632 layer_factory.hpp:77] Creating layer inception_5b/relu_5x5
I0501 17:56:15.551139 30632 net.cpp:84] Creating Layer inception_5b/relu_5x5
I0501 17:56:15.551148 30632 net.cpp:406] inception_5b/relu_5x5 <- inception_5b/5x5
I0501 17:56:15.551163 30632 net.cpp:367] inception_5b/relu_5x5 -> inception_5b/5x5 (in-place)
I0501 17:56:15.552008 30632 net.cpp:122] Setting up inception_5b/relu_5x5
I0501 17:56:15.552023 30632 net.cpp:129] Top shape: 16 128 7 7 (100352)
I0501 17:56:15.552029 30632 net.cpp:137] Memory required for data: 890700440
I0501 17:56:15.552036 30632 layer_factory.hpp:77] Creating layer inception_5b/pool
I0501 17:56:15.552047 30632 net.cpp:84] Creating Layer inception_5b/pool
I0501 17:56:15.552053 30632 net.cpp:406] inception_5b/pool <- inception_5a/output_inception_5a/output_0_split_3
I0501 17:56:15.552064 30632 net.cpp:380] inception_5b/pool -> inception_5b/pool
I0501 17:56:15.552127 30632 net.cpp:122] Setting up inception_5b/pool
I0501 17:56:15.552135 30632 net.cpp:129] Top shape: 16 832 7 7 (652288)
I0501 17:56:15.552140 30632 net.cpp:137] Memory required for data: 893309592
I0501 17:56:15.552145 30632 layer_factory.hpp:77] Creating layer inception_5b/pool_proj
I0501 17:56:15.552161 30632 net.cpp:84] Creating Layer inception_5b/pool_proj
I0501 17:56:15.552167 30632 net.cpp:406] inception_5b/pool_proj <- inception_5b/pool
I0501 17:56:15.552177 30632 net.cpp:380] inception_5b/pool_proj -> inception_5b/pool_proj
I0501 17:56:15.555367 30632 net.cpp:122] Setting up inception_5b/pool_proj
I0501 17:56:15.555383 30632 net.cpp:129] Top shape: 16 128 7 7 (100352)
I0501 17:56:15.555389 30632 net.cpp:137] Memory required for data: 893711000
I0501 17:56:15.555399 30632 layer_factory.hpp:77] Creating layer inception_5b/relu_pool_proj
I0501 17:56:15.555410 30632 net.cpp:84] Creating Layer inception_5b/relu_pool_proj
I0501 17:56:15.555444 30632 net.cpp:406] inception_5b/relu_pool_proj <- inception_5b/pool_proj
I0501 17:56:15.555454 30632 net.cpp:367] inception_5b/relu_pool_proj -> inception_5b/pool_proj (in-place)
I0501 17:56:15.556227 30632 net.cpp:122] Setting up inception_5b/relu_pool_proj
I0501 17:56:15.556242 30632 net.cpp:129] Top shape: 16 128 7 7 (100352)
I0501 17:56:15.556248 30632 net.cpp:137] Memory required for data: 894112408
I0501 17:56:15.556255 30632 layer_factory.hpp:77] Creating layer inception_5b/output
I0501 17:56:15.556267 30632 net.cpp:84] Creating Layer inception_5b/output
I0501 17:56:15.556275 30632 net.cpp:406] inception_5b/output <- inception_5b/1x1
I0501 17:56:15.556284 30632 net.cpp:406] inception_5b/output <- inception_5b/3x3
I0501 17:56:15.556293 30632 net.cpp:406] inception_5b/output <- inception_5b/5x5
I0501 17:56:15.556300 30632 net.cpp:406] inception_5b/output <- inception_5b/pool_proj
I0501 17:56:15.556313 30632 net.cpp:380] inception_5b/output -> inception_5b/output
I0501 17:56:15.556361 30632 net.cpp:122] Setting up inception_5b/output
I0501 17:56:15.556372 30632 net.cpp:129] Top shape: 16 1024 7 7 (802816)
I0501 17:56:15.556377 30632 net.cpp:137] Memory required for data: 897323672
I0501 17:56:15.556383 30632 layer_factory.hpp:77] Creating layer pool5/7x7_s1
I0501 17:56:15.556397 30632 net.cpp:84] Creating Layer pool5/7x7_s1
I0501 17:56:15.556404 30632 net.cpp:406] pool5/7x7_s1 <- inception_5b/output
I0501 17:56:15.556414 30632 net.cpp:380] pool5/7x7_s1 -> pool5/7x7_s1
I0501 17:56:15.557308 30632 net.cpp:122] Setting up pool5/7x7_s1
I0501 17:56:15.557327 30632 net.cpp:129] Top shape: 16 1024 1 1 (16384)
I0501 17:56:15.557333 30632 net.cpp:137] Memory required for data: 897389208
I0501 17:56:15.557341 30632 layer_factory.hpp:77] Creating layer pool5/drop_7x7_s1
I0501 17:56:15.557355 30632 net.cpp:84] Creating Layer pool5/drop_7x7_s1
I0501 17:56:15.557365 30632 net.cpp:406] pool5/drop_7x7_s1 <- pool5/7x7_s1
I0501 17:56:15.557379 30632 net.cpp:367] pool5/drop_7x7_s1 -> pool5/7x7_s1 (in-place)
I0501 17:56:15.557428 30632 net.cpp:122] Setting up pool5/drop_7x7_s1
I0501 17:56:15.557440 30632 net.cpp:129] Top shape: 16 1024 1 1 (16384)
I0501 17:56:15.557448 30632 net.cpp:137] Memory required for data: 897454744
I0501 17:56:15.557456 30632 layer_factory.hpp:77] Creating layer loss3/classifier
I0501 17:56:15.557476 30632 net.cpp:84] Creating Layer loss3/classifier
I0501 17:56:15.557487 30632 net.cpp:406] loss3/classifier <- pool5/7x7_s1
I0501 17:56:15.557503 30632 net.cpp:380] loss3/classifier -> loss3/classifier
I0501 17:56:15.597489 30632 net.cpp:122] Setting up loss3/classifier
I0501 17:56:15.597518 30632 net.cpp:129] Top shape: 16 196 (3136)
I0501 17:56:15.597523 30632 net.cpp:137] Memory required for data: 897467288
I0501 17:56:15.597537 30632 layer_factory.hpp:77] Creating layer loss3/classifier_loss3/classifier_0_split
I0501 17:56:15.597551 30632 net.cpp:84] Creating Layer loss3/classifier_loss3/classifier_0_split
I0501 17:56:15.597559 30632 net.cpp:406] loss3/classifier_loss3/classifier_0_split <- loss3/classifier
I0501 17:56:15.597571 30632 net.cpp:380] loss3/classifier_loss3/classifier_0_split -> loss3/classifier_loss3/classifier_0_split_0
I0501 17:56:15.597585 30632 net.cpp:380] loss3/classifier_loss3/classifier_0_split -> loss3/classifier_loss3/classifier_0_split_1
I0501 17:56:15.597595 30632 net.cpp:380] loss3/classifier_loss3/classifier_0_split -> loss3/classifier_loss3/classifier_0_split_2
I0501 17:56:15.597659 30632 net.cpp:122] Setting up loss3/classifier_loss3/classifier_0_split
I0501 17:56:15.597666 30632 net.cpp:129] Top shape: 16 196 (3136)
I0501 17:56:15.597672 30632 net.cpp:129] Top shape: 16 196 (3136)
I0501 17:56:15.597677 30632 net.cpp:129] Top shape: 16 196 (3136)
I0501 17:56:15.597682 30632 net.cpp:137] Memory required for data: 897504920
I0501 17:56:15.597687 30632 layer_factory.hpp:77] Creating layer loss3/loss
I0501 17:56:15.597697 30632 net.cpp:84] Creating Layer loss3/loss
I0501 17:56:15.597702 30632 net.cpp:406] loss3/loss <- loss3/classifier_loss3/classifier_0_split_0
I0501 17:56:15.597736 30632 net.cpp:406] loss3/loss <- label_val-data_1_split_6
…
