…
I0507 21:06:31.240139 16123 net.cpp:294] The NetState phase (0) differed from the phase (1) specified by a rule in layer accuracy
I0507 21:06:31.240288 16123 net.cpp:51] Initializing net from parameters:
state {
phase: TRAIN
level: 0
stage: ""
}
layer {
name: "train-data"
type: "Data"
top: "data"
top: "label"
include {
phase: TRAIN
}
transform_param {
mirror: true
crop_size: 227
mean_file: "/mnt/bigdisk/MANDIG4/digits/jobs/20200507-113634-e696/mean.binaryproto"
}
data_param {
source: "/mnt/bigdisk/MANDIG4/digits/jobs/20200507-113634-e696/train_db"
batch_size: 128
backend: LMDB
}
}
layer {
name: "conv1"
type: "Convolution"
bottom: "data"
top: "conv1"
param {
lr_mult: 1
decay_mult: 1
}
param {
lr_mult: 2
decay_mult: 0
}
convolution_param {
num_output: 96
kernel_size: 11
stride: 4
weight_filler {
type: "gaussian"
std: 0.01
}
bias_filler {
type: "constant"
value: 0
}
}
}
layer {
name: "relu1"
type: "ReLU"
bottom: "conv1"
top: "conv1"
}
layer {
name: "norm1"
type: "LRN"
bottom: "conv1"
top: "norm1"
lrn_param {
local_size: 5
alpha: 0.0001
beta: 0.75
}
}
layer {
name: "pool1"
type: "Pooling"
bottom: "norm1"
top: "pool1"
pooling_param {
pool: MAX
kernel_size: 3
stride: 2
}
}
layer {
name: "conv2"
type: "Convolution"
bottom: "pool1"
top: "conv2"
param {
lr_mult: 1
decay_mult: 1
}
param {
lr_mult: 2
decay_mult: 0
}
convolution_param {
num_output: 256
pad: 2
kernel_size: 5
group: 2
weight_filler {
type: "gaussian"
std: 0.01
}
bias_filler {
type: "constant"
value: 0.1
}
}
}
layer {
name: "relu2"
type: "ReLU"
bottom: "conv2"
top: "conv2"
}
layer {
name: "norm2"
type: "LRN"
bottom: "conv2"
top: "norm2"
lrn_param {
local_size: 5
alpha: 0.0001
beta: 0.75
}
}
layer {
name: "pool2"
type: "Pooling"
bottom: "norm2"
top: "pool2"
pooling_param {
pool: MAX
kernel_size: 3
stride: 2
}
}
layer {
name: "conv3"
type: "Convolution"
bottom: "pool2"
top: "conv3"
param {
lr_mult: 1
decay_mult: 1
}
param {
lr_mult: 2
decay_mult: 0
}
convolution_param {
num_output: 384
pad: 1
kernel_size: 3
weight_filler {
type: "gaussian"
std: 0.01
}
bias_filler {
type: "constant"
value: 0
}
}
}
layer {
name: "relu3"
type: "ReLU"
bottom: "conv3"
top: "conv3"
}
layer {
name: "conv4"
type: "Convolution"
bottom: "conv3"
top: "conv4"
param {
lr_mult: 1
decay_mult: 1
}
param {
lr_mult: 2
decay_mult: 0
}
convolution_param {
num_output: 384
pad: 1
kernel_size: 3
group: 2
weight_filler {
type: "gaussian"
std: 0.01
}
bias_filler {
type: "constant"
value: 0.1
}
}
}
layer {
name: "relu4"
type: "ReLU"
bottom: "conv4"
top: "conv4"
}
layer {
name: "conv5"
type: "Convolution"
bottom: "conv4"
top: "conv5"
param {
lr_mult: 1
decay_mult: 1
}
param {
lr_mult: 2
decay_mult: 0
}
convolution_param {
num_output: 256
pad: 1
kernel_size: 3
group: 2
weight_filler {
type: "gaussian"
std: 0.01
}
bias_filler {
type: "constant"
value: 0.1
}
}
}
layer {
name: "relu5"
type: "ReLU"
bottom: "conv5"
top: "conv5"
}
layer {
name: "pool5"
type: "Pooling"
bottom: "conv5"
top: "pool5"
pooling_param {
pool: MAX
kernel_size: 3
stride: 2
}
}
layer {
name: "fc6"
type: "InnerProduct"
bottom: "pool5"
top: "fc6"
param {
lr_mult: 1
decay_mult: 1
}
param {
lr_mult: 2
decay_mult: 0
}
inner_product_param {
num_output: 4096
weight_filler {
type: "gaussian"
std: 0.005
}
bias_filler {
type: "constant"
value: 0.1
}
}
}
layer {
name: "relu6"
type: "ReLU"
bottom: "fc6"
top: "fc6"
}
layer {
name: "drop6"
type: "Dropout"
bottom: "fc6"
top: "fc6"
dropout_param {
dropout_ratio: 0.5
}
}
layer {
name: "fc7"
type: "InnerProduct"
bottom: "fc6"
top: "fc7"
param {
lr_mult: 1
decay_mult: 1
}
param {
lr_mult: 2
decay_mult: 0
}
inner_product_param {
num_output: 4096
weight_filler {
type: "gaussian"
std: 0.005
}
bias_filler {
type: "constant"
value: 0.1
}
}
}
layer {
name: "relu7"
type: "ReLU"
bottom: "fc7"
top: "fc7"
}
layer {
name: "drop7"
type: "Dropout"
bottom: "fc7"
top: "fc7"
dropout_param {
dropout_ratio: 0.5
}
}
layer {
name: "fc8"
type: "InnerProduct"
bottom: "fc7"
top: "fc8"
param {
lr_mult: 1
decay_mult: 1
}
param {
lr_mult: 2
decay_mult: 0
}
inner_product_param {
num_output: 196
weight_filler {
type: "gaussian"
std: 0.01
}
bias_filler {
type: "constant"
value: 0
}
}
}
layer {
name: "loss"
type: "SoftmaxWithLoss"
bottom: "fc8"
bottom: "label"
top: "loss"
}
I0507 21:06:31.240386 16123 layer_factory.hpp:77] Creating layer train-data
I0507 21:06:31.273402 16123 db_lmdb.cpp:35] Opened lmdb /mnt/bigdisk/MANDIG4/digits/jobs/20200507-113634-e696/train_db
I0507 21:06:31.300071 16123 net.cpp:84] Creating Layer train-data
I0507 21:06:31.300099 16123 net.cpp:380] train-data -> data
I0507 21:06:31.300128 16123 net.cpp:380] train-data -> label
I0507 21:06:31.300143 16123 data_transformer.cpp:25] Loading mean file from: /mnt/bigdisk/MANDIG4/digits/jobs/20200507-113634-e696/mean.binaryproto
I0507 21:06:31.370337 16123 data_layer.cpp:45] output data size: 128,3,227,227
I0507 21:06:31.552721 16123 net.cpp:122] Setting up train-data
I0507 21:06:31.552747 16123 net.cpp:129] Top shape: 128 3 227 227 (19787136)
I0507 21:06:31.552753 16123 net.cpp:129] Top shape: 128 (128)
I0507 21:06:31.552757 16123 net.cpp:137] Memory required for data: 79149056
I0507 21:06:31.552767 16123 layer_factory.hpp:77] Creating layer conv1
I0507 21:06:31.552789 16123 net.cpp:84] Creating Layer conv1
I0507 21:06:31.552795 16123 net.cpp:406] conv1 <- data
I0507 21:06:31.552809 16123 net.cpp:380] conv1 -> conv1
I0507 21:06:32.545791 16123 net.cpp:122] Setting up conv1
I0507 21:06:32.545819 16123 net.cpp:129] Top shape: 128 96 55 55 (37171200)
I0507 21:06:32.545863 16123 net.cpp:137] Memory required for data: 227833856
I0507 21:06:32.545886 16123 layer_factory.hpp:77] Creating layer relu1
I0507 21:06:32.545898 16123 net.cpp:84] Creating Layer relu1
I0507 21:06:32.545904 16123 net.cpp:406] relu1 <- conv1
I0507 21:06:32.545912 16123 net.cpp:367] relu1 -> conv1 (in-place)
I0507 21:06:32.546358 16123 net.cpp:122] Setting up relu1
I0507 21:06:32.546414 16123 net.cpp:129] Top shape: 128 96 55 55 (37171200)
I0507 21:06:32.546422 16123 net.cpp:137] Memory required for data: 376518656
I0507 21:06:32.546425 16123 layer_factory.hpp:77] Creating layer norm1
I0507 21:06:32.546440 16123 net.cpp:84] Creating Layer norm1
I0507 21:06:32.546470 16123 net.cpp:406] norm1 <- conv1
I0507 21:06:32.546478 16123 net.cpp:380] norm1 -> norm1
I0507 21:06:32.547163 16123 net.cpp:122] Setting up norm1
I0507 21:06:32.547175 16123 net.cpp:129] Top shape: 128 96 55 55 (37171200)
I0507 21:06:32.547179 16123 net.cpp:137] Memory required for data: 525203456
I0507 21:06:32.547184 16123 layer_factory.hpp:77] Creating layer pool1
I0507 21:06:32.547195 16123 net.cpp:84] Creating Layer pool1
I0507 21:06:32.547201 16123 net.cpp:406] pool1 <- norm1
I0507 21:06:32.547209 16123 net.cpp:380] pool1 -> pool1
I0507 21:06:32.547250 16123 net.cpp:122] Setting up pool1
I0507 21:06:32.547258 16123 net.cpp:129] Top shape: 128 96 27 27 (8957952)
I0507 21:06:32.547262 16123 net.cpp:137] Memory required for data: 561035264
I0507 21:06:32.547267 16123 layer_factory.hpp:77] Creating layer conv2
I0507 21:06:32.547279 16123 net.cpp:84] Creating Layer conv2
I0507 21:06:32.547283 16123 net.cpp:406] conv2 <- pool1
I0507 21:06:32.547289 16123 net.cpp:380] conv2 -> conv2
I0507 21:06:32.555315 16123 net.cpp:122] Setting up conv2
I0507 21:06:32.555335 16123 net.cpp:129] Top shape: 128 256 27 27 (23887872)
I0507 21:06:32.555341 16123 net.cpp:137] Memory required for data: 656586752
I0507 21:06:32.555354 16123 layer_factory.hpp:77] Creating layer relu2
I0507 21:06:32.555367 16123 net.cpp:84] Creating Layer relu2
I0507 21:06:32.555372 16123 net.cpp:406] relu2 <- conv2
I0507 21:06:32.555379 16123 net.cpp:367] relu2 -> conv2 (in-place)
I0507 21:06:32.556032 16123 net.cpp:122] Setting up relu2
I0507 21:06:32.556062 16123 net.cpp:129] Top shape: 128 256 27 27 (23887872)
I0507 21:06:32.556067 16123 net.cpp:137] Memory required for data: 752138240
I0507 21:06:32.556073 16123 layer_factory.hpp:77] Creating layer norm2
I0507 21:06:32.556085 16123 net.cpp:84] Creating Layer norm2
I0507 21:06:32.556093 16123 net.cpp:406] norm2 <- conv2
I0507 21:06:32.556102 16123 net.cpp:380] norm2 -> norm2
I0507 21:06:32.556584 16123 net.cpp:122] Setting up norm2
I0507 21:06:32.556646 16123 net.cpp:129] Top shape: 128 256 27 27 (23887872)
I0507 21:06:32.556651 16123 net.cpp:137] Memory required for data: 847689728
I0507 21:06:32.556656 16123 layer_factory.hpp:77] Creating layer pool2
I0507 21:06:32.556670 16123 net.cpp:84] Creating Layer pool2
I0507 21:06:32.556676 16123 net.cpp:406] pool2 <- norm2
I0507 21:06:32.556684 16123 net.cpp:380] pool2 -> pool2
I0507 21:06:32.556720 16123 net.cpp:122] Setting up pool2
I0507 21:06:32.556727 16123 net.cpp:129] Top shape: 128 256 13 13 (5537792)
I0507 21:06:32.556731 16123 net.cpp:137] Memory required for data: 869840896
I0507 21:06:32.556738 16123 layer_factory.hpp:77] Creating layer conv3
I0507 21:06:32.556751 16123 net.cpp:84] Creating Layer conv3
I0507 21:06:32.556756 16123 net.cpp:406] conv3 <- pool2
I0507 21:06:32.556766 16123 net.cpp:380] conv3 -> conv3
I0507 21:06:32.570700 16123 net.cpp:122] Setting up conv3
I0507 21:06:32.570719 16123 net.cpp:129] Top shape: 128 384 13 13 (8306688)
I0507 21:06:32.570724 16123 net.cpp:137] Memory required for data: 903067648
I0507 21:06:32.570739 16123 layer_factory.hpp:77] Creating layer relu3
I0507 21:06:32.570749 16123 net.cpp:84] Creating Layer relu3
I0507 21:06:32.570753 16123 net.cpp:406] relu3 <- conv3
I0507 21:06:32.570761 16123 net.cpp:367] relu3 -> conv3 (in-place)
I0507 21:06:32.571280 16123 net.cpp:122] Setting up relu3
I0507 21:06:32.571290 16123 net.cpp:129] Top shape: 128 384 13 13 (8306688)
I0507 21:06:32.571295 16123 net.cpp:137] Memory required for data: 936294400
I0507 21:06:32.571300 16123 layer_factory.hpp:77] Creating layer conv4
I0507 21:06:32.571312 16123 net.cpp:84] Creating Layer conv4
I0507 21:06:32.571317 16123 net.cpp:406] conv4 <- conv3
I0507 21:06:32.571326 16123 net.cpp:380] conv4 -> conv4
I0507 21:06:32.583351 16123 net.cpp:122] Setting up conv4
I0507 21:06:32.583369 16123 net.cpp:129] Top shape: 128 384 13 13 (8306688)
I0507 21:06:32.583374 16123 net.cpp:137] Memory required for data: 969521152
I0507 21:06:32.583382 16123 layer_factory.hpp:77] Creating layer relu4
I0507 21:06:32.583395 16123 net.cpp:84] Creating Layer relu4
I0507 21:06:32.583417 16123 net.cpp:406] relu4 <- conv4
I0507 21:06:32.583425 16123 net.cpp:367] relu4 -> conv4 (in-place)
I0507 21:06:32.583827 16123 net.cpp:122] Setting up relu4
I0507 21:06:32.583837 16123 net.cpp:129] Top shape: 128 384 13 13 (8306688)
I0507 21:06:32.583840 16123 net.cpp:137] Memory required for data: 1002747904
I0507 21:06:32.583845 16123 layer_factory.hpp:77] Creating layer conv5
I0507 21:06:32.583856 16123 net.cpp:84] Creating Layer conv5
I0507 21:06:32.583860 16123 net.cpp:406] conv5 <- conv4
I0507 21:06:32.583868 16123 net.cpp:380] conv5 -> conv5
I0507 21:06:32.593482 16123 net.cpp:122] Setting up conv5
I0507 21:06:32.593502 16123 net.cpp:129] Top shape: 128 256 13 13 (5537792)
I0507 21:06:32.593506 16123 net.cpp:137] Memory required for data: 1024899072
I0507 21:06:32.593518 16123 layer_factory.hpp:77] Creating layer relu5
I0507 21:06:32.593528 16123 net.cpp:84] Creating Layer relu5
I0507 21:06:32.593533 16123 net.cpp:406] relu5 <- conv5
I0507 21:06:32.593542 16123 net.cpp:367] relu5 -> conv5 (in-place)
I0507 21:06:32.594038 16123 net.cpp:122] Setting up relu5
I0507 21:06:32.594050 16123 net.cpp:129] Top shape: 128 256 13 13 (5537792)
I0507 21:06:32.594054 16123 net.cpp:137] Memory required for data: 1047050240
I0507 21:06:32.594058 16123 layer_factory.hpp:77] Creating layer pool5
I0507 21:06:32.594065 16123 net.cpp:84] Creating Layer pool5
I0507 21:06:32.594069 16123 net.cpp:406] pool5 <- conv5
I0507 21:06:32.594075 16123 net.cpp:380] pool5 -> pool5
I0507 21:06:32.594115 16123 net.cpp:122] Setting up pool5
I0507 21:06:32.594121 16123 net.cpp:129] Top shape: 128 256 6 6 (1179648)
I0507 21:06:32.594125 16123 net.cpp:137] Memory required for data: 1051768832
I0507 21:06:32.594130 16123 layer_factory.hpp:77] Creating layer fc6
I0507 21:06:32.594142 16123 net.cpp:84] Creating Layer fc6
I0507 21:06:32.594147 16123 net.cpp:406] fc6 <- pool5
I0507 21:06:32.594153 16123 net.cpp:380] fc6 -> fc6
I0507 21:06:33.002827 16123 net.cpp:122] Setting up fc6
I0507 21:06:33.002851 16123 net.cpp:129] Top shape: 128 4096 (524288)
I0507 21:06:33.002856 16123 net.cpp:137] Memory required for data: 1053865984
I0507 21:06:33.002867 16123 layer_factory.hpp:77] Creating layer relu6
I0507 21:06:33.002878 16123 net.cpp:84] Creating Layer relu6
I0507 21:06:33.002884 16123 net.cpp:406] relu6 <- fc6
I0507 21:06:33.002893 16123 net.cpp:367] relu6 -> fc6 (in-place)
I0507 21:06:33.003521 16123 net.cpp:122] Setting up relu6
I0507 21:06:33.003531 16123 net.cpp:129] Top shape: 128 4096 (524288)
I0507 21:06:33.003535 16123 net.cpp:137] Memory required for data: 1055963136
I0507 21:06:33.003540 16123 layer_factory.hpp:77] Creating layer drop6
I0507 21:06:33.003547 16123 net.cpp:84] Creating Layer drop6
I0507 21:06:33.003551 16123 net.cpp:406] drop6 <- fc6
I0507 21:06:33.003558 16123 net.cpp:367] drop6 -> fc6 (in-place)
I0507 21:06:33.003587 16123 net.cpp:122] Setting up drop6
I0507 21:06:33.003592 16123 net.cpp:129] Top shape: 128 4096 (524288)
I0507 21:06:33.003597 16123 net.cpp:137] Memory required for data: 1058060288
I0507 21:06:33.003600 16123 layer_factory.hpp:77] Creating layer fc7
I0507 21:06:33.003610 16123 net.cpp:84] Creating Layer fc7
I0507 21:06:33.003614 16123 net.cpp:406] fc7 <- fc6
I0507 21:06:33.003621 16123 net.cpp:380] fc7 -> fc7
I0507 21:06:33.164398 16123 net.cpp:122] Setting up fc7
I0507 21:06:33.164422 16123 net.cpp:129] Top shape: 128 4096 (524288)
I0507 21:06:33.164425 16123 net.cpp:137] Memory required for data: 1060157440
I0507 21:06:33.164434 16123 layer_factory.hpp:77] Creating layer relu7
I0507 21:06:33.164443 16123 net.cpp:84] Creating Layer relu7
I0507 21:06:33.164448 16123 net.cpp:406] relu7 <- fc7
I0507 21:06:33.164456 16123 net.cpp:367] relu7 -> fc7 (in-place)
I0507 21:06:33.165060 16123 net.cpp:122] Setting up relu7
I0507 21:06:33.165073 16123 net.cpp:129] Top shape: 128 4096 (524288)
I0507 21:06:33.165077 16123 net.cpp:137] Memory required for data: 1062254592
I0507 21:06:33.165081 16123 layer_factory.hpp:77] Creating layer drop7
I0507 21:06:33.165087 16123 net.cpp:84] Creating Layer drop7
I0507 21:06:33.165112 16123 net.cpp:406] drop7 <- fc7
I0507 21:06:33.165118 16123 net.cpp:367] drop7 -> fc7 (in-place)
I0507 21:06:33.165144 16123 net.cpp:122] Setting up drop7
I0507 21:06:33.165149 16123 net.cpp:129] Top shape: 128 4096 (524288)
I0507 21:06:33.165153 16123 net.cpp:137] Memory required for data: 1064351744
I0507 21:06:33.165156 16123 layer_factory.hpp:77] Creating layer fc8
I0507 21:06:33.165165 16123 net.cpp:84] Creating Layer fc8
I0507 21:06:33.165169 16123 net.cpp:406] fc8 <- fc7
I0507 21:06:33.165174 16123 net.cpp:380] fc8 -> fc8
I0507 21:06:33.172996 16123 net.cpp:122] Setting up fc8
I0507 21:06:33.173010 16123 net.cpp:129] Top shape: 128 196 (25088)
I0507 21:06:33.173014 16123 net.cpp:137] Memory required for data: 1064452096
I0507 21:06:33.173022 16123 layer_factory.hpp:77] Creating layer loss
I0507 21:06:33.173029 16123 net.cpp:84] Creating Layer loss
I0507 21:06:33.173033 16123 net.cpp:406] loss <- fc8
I0507 21:06:33.173038 16123 net.cpp:406] loss <- label
I0507 21:06:33.173045 16123 net.cpp:380] loss -> loss
I0507 21:06:33.173056 16123 layer_factory.hpp:77] Creating layer loss
…
I0507 21:06:33.174549 16123 solver.cpp:172] Creating test net (#0) specified by net file: train_val.prototxt
I0507 21:06:33.174579 16123 net.cpp:294] The NetState phase (1) differed from the phase (0) specified by a rule in layer train-data
I0507 21:06:33.174719 16123 net.cpp:51] Initializing net from parameters:
state {
phase: TEST
}
layer {
name: "val-data"
type: "Data"
top: "data"
top: "label"
include {
phase: TEST
}
transform_param {
crop_size: 227
mean_file: "/mnt/bigdisk/MANDIG4/digits/jobs/20200507-113634-e696/mean.binaryproto"
}
data_param {
source: "/mnt/bigdisk/MANDIG4/digits/jobs/20200507-113634-e696/val_db"
batch_size: 32
backend: LMDB
}
}
layer {
name: "conv1"
type: "Convolution"
bottom: "data"
top: "conv1"
param {
lr_mult: 1
decay_mult: 1
}
param {
lr_mult: 2
decay_mult: 0
}
convolution_param {
num_output: 96
kernel_size: 11
stride: 4
weight_filler {
type: "gaussian"
std: 0.01
}
bias_filler {
type: "constant"
value: 0
}
}
}
layer {
name: "relu1"
type: "ReLU"
bottom: "conv1"
top: "conv1"
}
layer {
name: "norm1"
type: "LRN"
bottom: "conv1"
top: "norm1"
lrn_param {
local_size: 5
alpha: 0.0001
beta: 0.75
}
}
layer {
name: "pool1"
type: "Pooling"
bottom: "norm1"
top: "pool1"
pooling_param {
pool: MAX
kernel_size: 3
stride: 2
}
}
layer {
name: "conv2"
type: "Convolution"
bottom: "pool1"
top: "conv2"
param {
lr_mult: 1
decay_mult: 1
}
param {
lr_mult: 2
decay_mult: 0
}
convolution_param {
num_output: 256
pad: 2
kernel_size: 5
group: 2
weight_filler {
type: "gaussian"
std: 0.01
}
bias_filler {
type: "constant"
value: 0.1
}
}
}
layer {
name: "relu2"
type: "ReLU"
bottom: "conv2"
top: "conv2"
}
layer {
name: "norm2"
type: "LRN"
bottom: "conv2"
top: "norm2"
lrn_param {
local_size: 5
alpha: 0.0001
beta: 0.75
}
}
layer {
name: "pool2"
type: "Pooling"
bottom: "norm2"
top: "pool2"
pooling_param {
pool: MAX
kernel_size: 3
stride: 2
}
}
layer {
name: "conv3"
type: "Convolution"
bottom: "pool2"
top: "conv3"
param {
lr_mult: 1
decay_mult: 1
}
param {
lr_mult: 2
decay_mult: 0
}
convolution_param {
num_output: 384
pad: 1
kernel_size: 3
weight_filler {
type: "gaussian"
std: 0.01
}
bias_filler {
type: "constant"
value: 0
}
}
}
layer {
name: "relu3"
type: "ReLU"
bottom: "conv3"
top: "conv3"
}
layer {
name: "conv4"
type: "Convolution"
bottom: "conv3"
top: "conv4"
param {
lr_mult: 1
decay_mult: 1
}
param {
lr_mult: 2
decay_mult: 0
}
convolution_param {
num_output: 384
pad: 1
kernel_size: 3
group: 2
weight_filler {
type: "gaussian"
std: 0.01
}
bias_filler {
type: "constant"
value: 0.1
}
}
}
layer {
name: "relu4"
type: "ReLU"
bottom: "conv4"
top: "conv4"
}
layer {
name: "conv5"
type: "Convolution"
bottom: "conv4"
top: "conv5"
param {
lr_mult: 1
decay_mult: 1
}
param {
lr_mult: 2
decay_mult: 0
}
convolution_param {
num_output: 256
pad: 1
kernel_size: 3
group: 2
weight_filler {
type: "gaussian"
std: 0.01
}
bias_filler {
type: "constant"
value: 0.1
}
}
}
layer {
name: "relu5"
type: "ReLU"
bottom: "conv5"
top: "conv5"
}
layer {
name: "pool5"
type: "Pooling"
bottom: "conv5"
top: "pool5"
pooling_param {
pool: MAX
kernel_size: 3
stride: 2
}
}
layer {
name: "fc6"
type: "InnerProduct"
bottom: "pool5"
top: "fc6"
param {
lr_mult: 1
decay_mult: 1
}
param {
lr_mult: 2
decay_mult: 0
}
inner_product_param {
num_output: 4096
weight_filler {
type: "gaussian"
std: 0.005
}
bias_filler {
type: "constant"
value: 0.1
}
}
}
layer {
name: "relu6"
type: "ReLU"
bottom: "fc6"
top: "fc6"
}
layer {
name: "drop6"
type: "Dropout"
bottom: "fc6"
top: "fc6"
dropout_param {
dropout_ratio: 0.5
}
}
layer {
name: "fc7"
type: "InnerProduct"
bottom: "fc6"
top: "fc7"
param {
lr_mult: 1
decay_mult: 1
}
param {
lr_mult: 2
decay_mult: 0
}
inner_product_param {
num_output: 4096
weight_filler {
type: "gaussian"
std: 0.005
}
bias_filler {
type: "constant"
value: 0.1
}
}
}
layer {
name: "relu7"
type: "ReLU"
bottom: "fc7"
top: "fc7"
}
layer {
name: "drop7"
type: "Dropout"
bottom: "fc7"
top: "fc7"
dropout_param {
dropout_ratio: 0.5
}
}
layer {
name: "fc8"
type: "InnerProduct"
bottom: "fc7"
top: "fc8"
param {
lr_mult: 1
decay_mult: 1
}
param {
lr_mult: 2
decay_mult: 0
}
inner_product_param {
num_output: 196
weight_filler {
type: "gaussian"
std: 0.01
}
bias_filler {
type: "constant"
value: 0
}
}
}
layer {
name: "accuracy"
type: "Accuracy"
bottom: "fc8"
bottom: "label"
top: "accuracy"
include {
phase: TEST
}
}
layer {
name: "loss"
type: "SoftmaxWithLoss"
bottom: "fc8"
bottom: "label"
top: "loss"
}
I0507 21:06:33.174823 16123 layer_factory.hpp:77] Creating layer val-data
I0507 21:06:33.207351 16123 db_lmdb.cpp:35] Opened lmdb /mnt/bigdisk/MANDIG4/digits/jobs/20200507-113634-e696/val_db
I0507 21:06:33.239446 16123 net.cpp:84] Creating Layer val-data
I0507 21:06:33.239473 16123 net.cpp:380] val-data -> data
I0507 21:06:33.239486 16123 net.cpp:380] val-data -> label
I0507 21:06:33.239500 16123 data_transformer.cpp:25] Loading mean file from: /mnt/bigdisk/MANDIG4/digits/jobs/20200507-113634-e696/mean.binaryproto
I0507 21:06:33.245632 16123 data_layer.cpp:45] output data size: 32,3,227,227
I0507 21:06:33.278676 16123 net.cpp:122] Setting up val-data
I0507 21:06:33.278698 16123 net.cpp:129] Top shape: 32 3 227 227 (4946784)
I0507 21:06:33.278704 16123 net.cpp:129] Top shape: 32 (32)
I0507 21:06:33.278707 16123 net.cpp:137] Memory required for data: 19787264
I0507 21:06:33.278715 16123 layer_factory.hpp:77] Creating layer label_val-data_1_split
I0507 21:06:33.278728 16123 net.cpp:84] Creating Layer label_val-data_1_split
I0507 21:06:33.278733 16123 net.cpp:406] label_val-data_1_split <- label
I0507 21:06:33.278740 16123 net.cpp:380] label_val-data_1_split -> label_val-data_1_split_0
I0507 21:06:33.278750 16123 net.cpp:380] label_val-data_1_split -> label_val-data_1_split_1
I0507 21:06:33.278802 16123 net.cpp:122] Setting up label_val-data_1_split
I0507 21:06:33.278807 16123 net.cpp:129] Top shape: 32 (32)
I0507 21:06:33.278812 16123 net.cpp:129] Top shape: 32 (32)
I0507 21:06:33.278815 16123 net.cpp:137] Memory required for data: 19787520
I0507 21:06:33.278820 16123 layer_factory.hpp:77] Creating layer conv1
I0507 21:06:33.278831 16123 net.cpp:84] Creating Layer conv1
I0507 21:06:33.278836 16123 net.cpp:406] conv1 <- data
I0507 21:06:33.278841 16123 net.cpp:380] conv1 -> conv1
I0507 21:06:33.283854 16123 net.cpp:122] Setting up conv1
I0507 21:06:33.283869 16123 net.cpp:129] Top shape: 32 96 55 55 (9292800)
I0507 21:06:33.283872 16123 net.cpp:137] Memory required for data: 56958720
I0507 21:06:33.283883 16123 layer_factory.hpp:77] Creating layer relu1
I0507 21:06:33.283891 16123 net.cpp:84] Creating Layer relu1
I0507 21:06:33.283895 16123 net.cpp:406] relu1 <- conv1
I0507 21:06:33.283900 16123 net.cpp:367] relu1 -> conv1 (in-place)
I0507 21:06:33.284189 16123 net.cpp:122] Setting up relu1
I0507 21:06:33.284198 16123 net.cpp:129] Top shape: 32 96 55 55 (9292800)
I0507 21:06:33.284202 16123 net.cpp:137] Memory required for data: 94129920
I0507 21:06:33.284206 16123 layer_factory.hpp:77] Creating layer norm1
I0507 21:06:33.284215 16123 net.cpp:84] Creating Layer norm1
I0507 21:06:33.284219 16123 net.cpp:406] norm1 <- conv1
I0507 21:06:33.284224 16123 net.cpp:380] norm1 -> norm1
I0507 21:06:33.284716 16123 net.cpp:122] Setting up norm1
I0507 21:06:33.284726 16123 net.cpp:129] Top shape: 32 96 55 55 (9292800)
I0507 21:06:33.284730 16123 net.cpp:137] Memory required for data: 131301120
I0507 21:06:33.284734 16123 layer_factory.hpp:77] Creating layer pool1
I0507 21:06:33.284742 16123 net.cpp:84] Creating Layer pool1
I0507 21:06:33.284746 16123 net.cpp:406] pool1 <- norm1
I0507 21:06:33.284751 16123 net.cpp:380] pool1 -> pool1
I0507 21:06:33.284781 16123 net.cpp:122] Setting up pool1
I0507 21:06:33.284787 16123 net.cpp:129] Top shape: 32 96 27 27 (2239488)
I0507 21:06:33.284790 16123 net.cpp:137] Memory required for data: 140259072
I0507 21:06:33.284795 16123 layer_factory.hpp:77] Creating layer conv2
I0507 21:06:33.284803 16123 net.cpp:84] Creating Layer conv2
I0507 21:06:33.284806 16123 net.cpp:406] conv2 <- pool1
I0507 21:06:33.284834 16123 net.cpp:380] conv2 -> conv2
I0507 21:06:33.297906 16123 net.cpp:122] Setting up conv2
I0507 21:06:33.297928 16123 net.cpp:129] Top shape: 32 256 27 27 (5971968)
I0507 21:06:33.297936 16123 net.cpp:137] Memory required for data: 164146944
I0507 21:06:33.297957 16123 layer_factory.hpp:77] Creating layer relu2
I0507 21:06:33.297968 16123 net.cpp:84] Creating Layer relu2
I0507 21:06:33.297973 16123 net.cpp:406] relu2 <- conv2
I0507 21:06:33.297979 16123 net.cpp:367] relu2 -> conv2 (in-place)
I0507 21:06:33.298632 16123 net.cpp:122] Setting up relu2
I0507 21:06:33.298642 16123 net.cpp:129] Top shape: 32 256 27 27 (5971968)
I0507 21:06:33.298646 16123 net.cpp:137] Memory required for data: 188034816
I0507 21:06:33.298650 16123 layer_factory.hpp:77] Creating layer norm2
I0507 21:06:33.298660 16123 net.cpp:84] Creating Layer norm2
I0507 21:06:33.298665 16123 net.cpp:406] norm2 <- conv2
I0507 21:06:33.298672 16123 net.cpp:380] norm2 -> norm2
I0507 21:06:33.299281 16123 net.cpp:122] Setting up norm2
I0507 21:06:33.299291 16123 net.cpp:129] Top shape: 32 256 27 27 (5971968)
I0507 21:06:33.299295 16123 net.cpp:137] Memory required for data: 211922688
I0507 21:06:33.299300 16123 layer_factory.hpp:77] Creating layer pool2
I0507 21:06:33.299307 16123 net.cpp:84] Creating Layer pool2
I0507 21:06:33.299311 16123 net.cpp:406] pool2 <- norm2
I0507 21:06:33.299319 16123 net.cpp:380] pool2 -> pool2
I0507 21:06:33.299350 16123 net.cpp:122] Setting up pool2
I0507 21:06:33.299355 16123 net.cpp:129] Top shape: 32 256 13 13 (1384448)
I0507 21:06:33.299360 16123 net.cpp:137] Memory required for data: 217460480
I0507 21:06:33.299363 16123 layer_factory.hpp:77] Creating layer conv3
I0507 21:06:33.299374 16123 net.cpp:84] Creating Layer conv3
I0507 21:06:33.299378 16123 net.cpp:406] conv3 <- pool2
I0507 21:06:33.299384 16123 net.cpp:380] conv3 -> conv3
I0507 21:06:33.379272 16123 net.cpp:122] Setting up conv3
I0507 21:06:33.379292 16123 net.cpp:129] Top shape: 32 384 13 13 (2076672)
I0507 21:06:33.379297 16123 net.cpp:137] Memory required for data: 225767168
I0507 21:06:33.379312 16123 layer_factory.hpp:77] Creating layer relu3
I0507 21:06:33.379320 16123 net.cpp:84] Creating Layer relu3
I0507 21:06:33.379325 16123 net.cpp:406] relu3 <- conv3
I0507 21:06:33.379333 16123 net.cpp:367] relu3 -> conv3 (in-place)
I0507 21:06:33.379880 16123 net.cpp:122] Setting up relu3
I0507 21:06:33.379890 16123 net.cpp:129] Top shape: 32 384 13 13 (2076672)
I0507 21:06:33.379894 16123 net.cpp:137] Memory required for data: 234073856
I0507 21:06:33.379899 16123 layer_factory.hpp:77] Creating layer conv4
I0507 21:06:33.379912 16123 net.cpp:84] Creating Layer conv4
I0507 21:06:33.379916 16123 net.cpp:406] conv4 <- conv3
I0507 21:06:33.379922 16123 net.cpp:380] conv4 -> conv4
I0507 21:06:33.391012 16123 net.cpp:122] Setting up conv4
I0507 21:06:33.391036 16123 net.cpp:129] Top shape: 32 384 13 13 (2076672)
I0507 21:06:33.391039 16123 net.cpp:137] Memory required for data: 242380544
I0507 21:06:33.391049 16123 layer_factory.hpp:77] Creating layer relu4
I0507 21:06:33.391057 16123 net.cpp:84] Creating Layer relu4
I0507 21:06:33.391062 16123 net.cpp:406] relu4 <- conv4
I0507 21:06:33.391072 16123 net.cpp:367] relu4 -> conv4 (in-place)
I0507 21:06:33.391424 16123 net.cpp:122] Setting up relu4
I0507 21:06:33.391433 16123 net.cpp:129] Top shape: 32 384 13 13 (2076672)
I0507 21:06:33.391436 16123 net.cpp:137] Memory required for data: 250687232
I0507 21:06:33.391439 16123 layer_factory.hpp:77] Creating layer conv5
I0507 21:06:33.391451 16123 net.cpp:84] Creating Layer conv5
I0507 21:06:33.391455 16123 net.cpp:406] conv5 <- conv4
I0507 21:06:33.391463 16123 net.cpp:380] conv5 -> conv5
I0507 21:06:33.402693 16123 net.cpp:122] Setting up conv5
I0507 21:06:33.402715 16123 net.cpp:129] Top shape: 32 256 13 13 (1384448)
I0507 21:06:33.402719 16123 net.cpp:137] Memory required for data: 256225024
I0507 21:06:33.402734 16123 layer_factory.hpp:77] Creating layer relu5
I0507 21:06:33.402743 16123 net.cpp:84] Creating Layer relu5
I0507 21:06:33.402750 16123 net.cpp:406] relu5 <- conv5
I0507 21:06:33.402776 16123 net.cpp:367] relu5 -> conv5 (in-place)
I0507 21:06:33.403380 16123 net.cpp:122] Setting up relu5
I0507 21:06:33.403394 16123 net.cpp:129] Top shape: 32 256 13 13 (1384448)
I0507 21:06:33.403398 16123 net.cpp:137] Memory required for data: 261762816
I0507 21:06:33.403403 16123 layer_factory.hpp:77] Creating layer pool5
I0507 21:06:33.403414 16123 net.cpp:84] Creating Layer pool5
I0507 21:06:33.403419 16123 net.cpp:406] pool5 <- conv5
I0507 21:06:33.403425 16123 net.cpp:380] pool5 -> pool5
I0507 21:06:33.403468 16123 net.cpp:122] Setting up pool5
I0507 21:06:33.403476 16123 net.cpp:129] Top shape: 32 256 6 6 (294912)
I0507 21:06:33.403481 16123 net.cpp:137] Memory required for data: 262942464
I0507 21:06:33.403484 16123 layer_factory.hpp:77] Creating layer fc6
I0507 21:06:33.403492 16123 net.cpp:84] Creating Layer fc6
I0507 21:06:33.403496 16123 net.cpp:406] fc6 <- pool5
I0507 21:06:33.403503 16123 net.cpp:380] fc6 -> fc6
I0507 21:06:33.796386 16123 net.cpp:122] Setting up fc6
I0507 21:06:33.796408 16123 net.cpp:129] Top shape: 32 4096 (131072)
I0507 21:06:33.796412 16123 net.cpp:137] Memory required for data: 263466752
I0507 21:06:33.796422 16123 layer_factory.hpp:77] Creating layer relu6
I0507 21:06:33.796432 16123 net.cpp:84] Creating Layer relu6
I0507 21:06:33.796438 16123 net.cpp:406] relu6 <- fc6
I0507 21:06:33.796444 16123 net.cpp:367] relu6 -> fc6 (in-place)
I0507 21:06:33.797287 16123 net.cpp:122] Setting up relu6
I0507 21:06:33.797297 16123 net.cpp:129] Top shape: 32 4096 (131072)
I0507 21:06:33.797302 16123 net.cpp:137] Memory required for data: 263991040
I0507 21:06:33.797304 16123 layer_factory.hpp:77] Creating layer drop6
I0507 21:06:33.797313 16123 net.cpp:84] Creating Layer drop6
I0507 21:06:33.797317 16123 net.cpp:406] drop6 <- fc6
I0507 21:06:33.797322 16123 net.cpp:367] drop6 -> fc6 (in-place)
I0507 21:06:33.797348 16123 net.cpp:122] Setting up drop6
I0507 21:06:33.797354 16123 net.cpp:129] Top shape: 32 4096 (131072)
I0507 21:06:33.797358 16123 net.cpp:137] Memory required for data: 264515328
I0507 21:06:33.797361 16123 layer_factory.hpp:77] Creating layer fc7
I0507 21:06:33.797369 16123 net.cpp:84] Creating Layer fc7
I0507 21:06:33.797371 16123 net.cpp:406] fc7 <- fc6
I0507 21:06:33.797379 16123 net.cpp:380] fc7 -> fc7
I0507 21:06:33.956498 16123 net.cpp:122] Setting up fc7
I0507 21:06:33.956521 16123 net.cpp:129] Top shape: 32 4096 (131072)
I0507 21:06:33.956524 16123 net.cpp:137] Memory required for data: 265039616
I0507 21:06:33.956533 16123 layer_factory.hpp:77] Creating layer relu7
I0507 21:06:33.956547 16123 net.cpp:84] Creating Layer relu7
I0507 21:06:33.956552 16123 net.cpp:406] relu7 <- fc7
I0507 21:06:33.956557 16123 net.cpp:367] relu7 -> fc7 (in-place)
I0507 21:06:33.956974 16123 net.cpp:122] Setting up relu7
I0507 21:06:33.956984 16123 net.cpp:129] Top shape: 32 4096 (131072)
I0507 21:06:33.956987 16123 net.cpp:137] Memory required for data: 265563904
I0507 21:06:33.956990 16123 layer_factory.hpp:77] Creating layer drop7
I0507 21:06:33.957000 16123 net.cpp:84] Creating Layer drop7
I0507 21:06:33.957003 16123 net.cpp:406] drop7 <- fc7
I0507 21:06:33.957008 16123 net.cpp:367] drop7 -> fc7 (in-place)
I0507 21:06:33.957033 16123 net.cpp:122] Setting up drop7
I0507 21:06:33.957039 16123 net.cpp:129] Top shape: 32 4096 (131072)
I0507 21:06:33.957043 16123 net.cpp:137] Memory required for data: 266088192
I0507 21:06:33.957046 16123 layer_factory.hpp:77] Creating layer fc8
I0507 21:06:33.957053 16123 net.cpp:84] Creating Layer fc8
I0507 21:06:33.957057 16123 net.cpp:406] fc8 <- fc7
I0507 21:06:33.957064 16123 net.cpp:380] fc8 -> fc8
I0507 21:06:33.987285 16123 net.cpp:122] Setting up fc8
I0507 21:06:33.987308 16123 net.cpp:129] Top shape: 32 196 (6272)
I0507 21:06:33.987313 16123 net.cpp:137] Memory required for data: 266113280
I0507 21:06:33.987324 16123 layer_factory.hpp:77] Creating layer fc8_fc8_0_split
I0507 21:06:33.987335 16123 net.cpp:84] Creating Layer fc8_fc8_0_split
I0507 21:06:33.987341 16123 net.cpp:406] fc8_fc8_0_split <- fc8
I0507 21:06:33.987377 16123 net.cpp:380] fc8_fc8_0_split -> fc8_fc8_0_split_0
I0507 21:06:33.987390 16123 net.cpp:380] fc8_fc8_0_split -> fc8_fc8_0_split_1
I0507 21:06:33.987437 16123 net.cpp:122] Setting up fc8_fc8_0_split
I0507 21:06:33.987447 16123 net.cpp:129] Top shape: 32 196 (6272)
I0507 21:06:33.987452 16123 net.cpp:129] Top shape: 32 196 (6272)
I0507 21:06:33.987457 16123 net.cpp:137] Memory required for data: 266163456
I0507 21:06:33.987462 16123 layer_factory.hpp:77] Creating layer accuracy
I0507 21:06:33.987469 16123 net.cpp:84] Creating Layer accuracy
I0507 21:06:33.987474 16123 net.cpp:406] accuracy <- fc8_fc8_0_split_0
I0507 21:06:33.987480 16123 net.cpp:406] accuracy <- label_val-data_1_split_0
I0507 21:06:33.987488 16123 net.cpp:380] accuracy -> accuracy
…
