…
I0501 18:30:36.995923 11735 net.cpp:294] The NetState phase (0) differed from the phase (1) specified by a rule in layer loss3/top-5
I0501 18:30:36.997509 11735 net.cpp:51] Initializing net from parameters:
state {
phase: TRAIN
level: 0
stage: ""
}
layer {
name: "train-data"
type: "Data"
top: "data"
top: "label"
include {
phase: TRAIN
}
transform_param {
mirror: true
crop_size: 224
mean_file: "/mnt/bigdisk/MANDIG2/digits/jobs/20200428-132136-11fe/mean.binaryproto"
}
data_param {
source: "/mnt/bigdisk/MANDIG2/digits/jobs/20200428-132136-11fe/train_db"
batch_size: 32
backend: LMDB
}
}
layer {
name: "conv1/7x7_s2"
type: "Convolution"
bottom: "data"
top: "conv1/7x7_s2"
param {
lr_mult: 1
decay_mult: 1
}
param {
lr_mult: 2
decay_mult: 0
}
convolution_param {
num_output: 64
pad: 3
kernel_size: 7
stride: 2
weight_filler {
type: "xavier"
std: 0.1
}
bias_filler {
type: "constant"
value: 0.2
}
}
}
layer {
name: "conv1/relu_7x7"
type: "ReLU"
bottom: "conv1/7x7_s2"
top: "conv1/7x7_s2"
}
layer {
name: "pool1/3x3_s2"
type: "Pooling"
bottom: "conv1/7x7_s2"
top: "pool1/3x3_s2"
pooling_param {
pool: MAX
kernel_size: 3
stride: 2
}
}
layer {
name: "pool1/norm1"
type: "LRN"
bottom: "pool1/3x3_s2"
top: "pool1/norm1"
lrn_param {
local_size: 5
alpha: 0.0001
beta: 0.75
}
}
layer {
name: "conv2/3x3_reduce"
type: "Convolution"
bottom: "pool1/norm1"
top: "conv2/3x3_reduce"
param {
lr_mult: 1
decay_mult: 1
}
param {
lr_mult: 2
decay_mult: 0
}
convolution_param {
num_output: 64
kernel_size: 1
weight_filler {
type: "xavier"
std: 0.1
}
bias_filler {
type: "constant"
value: 0.2
}
}
}
layer {
name: "conv2/relu_3x3_reduce"
type: "ReLU"
bottom: "conv2/3x3_reduce"
top: "conv2/3x3_reduce"
}
layer {
name: "conv2/3x3"
type: "Convolution"
bottom: "conv2/3x3_reduce"
top: "conv2/3x3"
param {
lr_mult: 1
decay_mult: 1
}
param {
lr_mult: 2
decay_mult: 0
}
convolution_param {
num_output: 192
pad: 1
kernel_size: 3
weight_filler {
type: "xavier"
std: 0.03
}
bias_filler {
type: "constant"
value: 0.2
}
}
}
layer {
name: "conv2/relu_3x3"
type: "ReLU"
bottom: "conv2/3x3"
top: "conv2/3x3"
}
layer {
name: "conv2/norm2"
type: "LRN"
bottom: "conv2/3x3"
top: "conv2/norm2"
lrn_param {
local_size: 5
alpha: 0.0001
beta: 0.75
}
}
layer {
name: "pool2/3x3_s2"
type: "Pooling"
bottom: "conv2/norm2"
top: "pool2/3x3_s2"
pooling_param {
pool: MAX
kernel_size: 3
stride: 2
}
}
layer {
name: "inception_3a/1x1"
type: "Convolution"
bottom: "pool2/3x3_s2"
top: "inception_3a/1x1"
param {
lr_mult: 1
decay_mult: 1
}
param {
lr_mult: 2
decay_mult: 0
}
convolution_param {
num_output: 64
kernel_size: 1
weight_filler {
type: "xavier"
std: 0.03
}
bias_filler {
type: "constant"
value: 0.2
}
}
}
layer {
name: "inception_3a/relu_1x1"
type: "ReLU"
bottom: "inception_3a/1x1"
top: "inception_3a/1x1"
}
layer {
name: "inception_3a/3x3_reduce"
type: "Convolution"
bottom: "pool2/3x3_s2"
top: "inception_3a/3x3_reduce"
param {
lr_mult: 1
decay_mult: 1
}
param {
lr_mult: 2
decay_mult: 0
}
convolution_param {
num_output: 96
kernel_size: 1
weight_filler {
type: "xavier"
std: 0.09
}
bias_filler {
type: "constant"
value: 0.2
}
}
}
layer {
name: "inception_3a/relu_3x3_reduce"
type: "ReLU"
bottom: "inception_3a/3x3_reduce"
top: "inception_3a/3x3_reduce"
}
layer {
name: "inception_3a/3x3"
type: "Convolution"
bottom: "inception_3a/3x3_reduce"
top: "inception_3a/3x3"
param {
lr_mult: 1
decay_mult: 1
}
param {
lr_mult: 2
decay_mult: 0
}
convolution_param {
num_output: 128
pad: 1
kernel_size: 3
weight_filler {
type: "xavier"
std: 0.03
}
bias_filler {
type: "constant"
value: 0.2
}
}
}
layer {
name: "inception_3a/relu_3x3"
type: "ReLU"
bottom: "inception_3a/3x3"
top: "inception_3a/3x3"
}
layer {
name: "inception_3a/5x5_reduce"
type: "Convolution"
bottom: "pool2/3x3_s2"
top: "inception_3a/5x5_reduce"
param {
lr_mult: 1
decay_mult: 1
}
param {
lr_mult: 2
decay_mult: 0
}
convolution_param {
num_output: 16
kernel_size: 1
weight_filler {
type: "xavier"
std: 0.2
}
bias_filler {
type: "constant"
value: 0.2
}
}
}
layer {
name: "inception_3a/relu_5x5_reduce"
type: "ReLU"
bottom: "inception_3a/5x5_reduce"
top: "inception_3a/5x5_reduce"
}
layer {
name: "inception_3a/5x5"
type: "Convolution"
bottom: "inception_3a/5x5_reduce"
top: "inception_3a/5x5"
param {
lr_mult: 1
decay_mult: 1
}
param {
lr_mult: 2
decay_mult: 0
}
convolution_param {
num_output: 32
pad: 2
kernel_size: 5
weight_filler {
type: "xavier"
std: 0.03
}
bias_filler {
type: "constant"
value: 0.2
}
}
}
layer {
name: "inception_3a/relu_5x5"
type: "ReLU"
bottom: "inception_3a/5x5"
top: "inception_3a/5x5"
}
layer {
name: "inception_3a/pool"
type: "Pooling"
bottom: "pool2/3x3_s2"
top: "inception_3a/pool"
pooling_param {
pool: MAX
kernel_size: 3
stride: 1
pad: 1
}
}
layer {
name: "inception_3a/pool_proj"
type: "Convolution"
bottom: "inception_3a/pool"
top: "inception_3a/pool_proj"
param {
lr_mult: 1
decay_mult: 1
}
param {
lr_mult: 2
decay_mult: 0
}
convolution_param {
num_output: 32
kernel_size: 1
weight_filler {
type: "xavier"
std: 0.1
}
bias_filler {
type: "constant"
value: 0.2
}
}
}
layer {
name: "inception_3a/relu_pool_proj"
type: "ReLU"
bottom: "inception_3a/pool_proj"
top: "inception_3a/pool_proj"
}
layer {
name: "inception_3a/output"
type: "Concat"
bottom: "inception_3a/1x1"
bottom: "inception_3a/3x3"
bottom: "inception_3a/5x5"
bottom: "inception_3a/pool_proj"
top: "inception_3a/output"
}
layer {
name: "inception_3b/1x1"
type: "Convolution"
bottom: "inception_3a/output"
top: "inception_3b/1x1"
param {
lr_mult: 1
decay_mult: 1
}
param {
lr_mult: 2
decay_mult: 0
}
convolution_param {
num_output: 128
kernel_size: 1
weight_filler {
type: "xavier"
std: 0.03
}
bias_filler {
type: "constant"
value: 0.2
}
}
}
layer {
name: "inception_3b/relu_1x1"
type: "ReLU"
bottom: "inception_3b/1x1"
top: "inception_3b/1x1"
}
layer {
name: "inception_3b/3x3_reduce"
type: "Convolution"
bottom: "inception_3a/output"
top: "inception_3b/3x3_reduce"
param {
lr_mult: 1
decay_mult: 1
}
param {
lr_mult: 2
decay_mult: 0
}
convolution_param {
num_output: 128
kernel_size: 1
weight_filler {
type: "xavier"
std: 0.09
}
bias_filler {
type: "constant"
value: 0.2
}
}
}
layer {
name: "inception_3b/relu_3x3_reduce"
type: "ReLU"
bottom: "inception_3b/3x3_reduce"
top: "inception_3b/3x3_reduce"
}
layer {
name: "inception_3b/3x3"
type: "Convolution"
bottom: "inception_3b/3x3_reduce"
top: "inception_3b/3x3"
param {
lr_mult: 1
decay_mult: 1
}
param {
lr_mult: 2
decay_mult: 0
}
convolution_param {
num_output: 192
pad: 1
kernel_size: 3
weight_filler {
type: "xavier"
std: 0.03
}
bias_filler {
type: "constant"
value: 0.2
}
}
}
layer {
name: "inception_3b/relu_3x3"
type: "ReLU"
bottom: "inception_3b/3x3"
top: "inception_3b/3x3"
}
layer {
name: "inception_3b/5x5_reduce"
type: "Convolution"
bottom: "inception_3a/output"
top: "inception_3b/5x5_reduce"
param {
lr_mult: 1
decay_mult: 1
}
param {
lr_mult: 2
decay_mult: 0
}
convolution_param {
num_output: 32
kernel_size: 1
weight_filler {
type: "xavier"
std: 0.2
}
bias_filler {
type: "constant"
value: 0.2
}
}
}
layer {
name: "inception_3b/relu_5x5_reduce"
type: "ReLU"
bottom: "inception_3b/5x5_reduce"
top: "inception_3b/5x5_reduce"
}
layer {
name: "inception_3b/5x5"
type: "Convolution"
bottom: "inception_3b/5x5_reduce"
top: "inception_3b/5x5"
param {
lr_mult: 1
decay_mult: 1
}
param {
lr_mult: 2
decay_mult: 0
}
convolution_param {
num_output: 96
pad: 2
kernel_size: 5
weight_filler {
type: "xavier"
std: 0.03
}
bias_filler {
type: "constant"
value: 0.2
}
}
}
layer {
name: "inception_3b/relu_5x5"
type: "ReLU"
bottom: "inception_3b/5x5"
top: "inception_3b/5x5"
}
layer {
name: "inception_3b/pool"
type: "Pooling"
bottom: "inception_3a/output"
top: "inception_3b/pool"
pooling_param {
pool: MAX
kernel_size: 3
stride: 1
pad: 1
}
}
layer {
name: "inception_3b/pool_proj"
type: "Convolution"
bottom: "inception_3b/pool"
top: "inception_3b/pool_proj"
param {
lr_mult: 1
decay_mult: 1
}
param {
lr_mult: 2
decay_mult: 0
}
convolution_param {
num_output: 64
kernel_size: 1
weight_filler {
type: "xavier"
std: 0.1
}
bias_filler {
type: "constant"
value: 0.2
}
}
}
layer {
name: "inception_3b/relu_pool_proj"
type: "ReLU"
bottom: "inception_3b/pool_proj"
top: "inception_3b/pool_proj"
}
layer {
name: "inception_3b/output"
type: "Concat"
bottom: "inception_3b/1x1"
bottom: "inception_3b/3x3"
bottom: "inception_3b/5x5"
bottom: "inception_3b/pool_proj"
top: "inception_3b/output"
}
layer {
name: "pool3/3x3_s2"
type: "Pooling"
bottom: "inception_3b/output"
top: "pool3/3x3_s2"
pooling_param {
pool: MAX
kernel_size: 3
stride: 2
}
}
layer {
name: "inception_4a/1x1"
type: "Convolution"
bottom: "pool3/3x3_s2"
top: "inception_4a/1x1"
param {
lr_mult: 1
decay_mult: 1
}
param {
lr_mult: 2
decay_mult: 0
}
convolution_param {
num_output: 192
kernel_size: 1
weight_filler {
type: "xavier"
std: 0.03
}
bias_filler {
type: "constant"
value: 0.2
}
}
}
layer {
name: "inception_4a/relu_1x1"
type: "ReLU"
bottom: "inception_4a/1x1"
top: "inception_4a/1x1"
}
layer {
name: "inception_4a/3x3_reduce"
type: "Convolution"
bottom: "pool3/3x3_s2"
top: "inception_4a/3x3_reduce"
param {
lr_mult: 1
decay_mult: 1
}
param {
lr_mult: 2
decay_mult: 0
}
convolution_param {
num_output: 96
kernel_size: 1
weight_filler {
type: "xavier"
std: 0.09
}
bias_filler {
type: "constant"
value: 0.2
}
}
}
layer {
name: "inception_4a/relu_3x3_reduce"
type: "ReLU"
bottom: "inception_4a/3x3_reduce"
top: "inception_4a/3x3_reduce"
}
layer {
name: "inception_4a/3x3"
type: "Convolution"
bottom: "inception_4a/3x3_reduce"
top: "inception_4a/3x3"
param {
lr_mult: 1
decay_mult: 1
}
param {
lr_mult: 2
decay_mult: 0
}
convolution_param {
num_output: 208
pad: 1
kernel_size: 3
weight_filler {
type: "xavier"
std: 0.03
}
bias_filler {
type: "constant"
value: 0.2
}
}
}
layer {
name: "inception_4a/relu_3x3"
type: "ReLU"
bottom: "inception_4a/3x3"
top: "inception_4a/3x3"
}
layer {
name: "inception_4a/5x5_reduce"
type: "Convolution"
bottom: "pool3/3x3_s2"
top: "inception_4a/5x5_reduce"
param {
lr_mult: 1
decay_mult: 1
}
param {
lr_mult: 2
decay_mult: 0
}
convolution_param {
num_output: 16
kernel_size: 1
weight_filler {
type: "xavier"
std: 0.2
}
bias_filler {
type: "constant"
value: 0.2
}
}
}
layer {
name: "inception_4a/relu_5x5_reduce"
type: "ReLU"
bottom: "inception_4a/5x5_reduce"
top: "inception_4a/5x5_reduce"
}
layer {
name: "inception_4a/5x5"
type: "Convolution"
bottom: "inception_4a/5x5_reduce"
top: "inception_4a/5x5"
param {
lr_mult: 1
decay_mult: 1
}
param {
lr_mult: 2
decay_mult: 0
}
convolution_param {
num_output: 48
pad: 2
kernel_size: 5
weight_filler {
type: "xavier"
std: 0.03
}
bias_filler {
type: "constant"
value: 0.2
}
}
}
layer {
name: "inception_4a/relu_5x5"
type: "ReLU"
bottom: "inception_4a/5x5"
top: "inception_4a/5x5"
}
layer {
name: "inception_4a/pool"
type: "Pooling"
bottom: "pool3/3x3_s2"
top: "inception_4a/pool"
pooling_param {
pool: MAX
kernel_size: 3
stride: 1
pad: 1
}
}
layer {
name: "inception_4a/pool_proj"
type: "Convolution"
bottom: "inception_4a/pool"
top: "inception_4a/pool_proj"
param {
lr_mult: 1
decay_mult: 1
}
param {
lr_mult: 2
decay_mult: 0
}
convolution_param {
num_output: 64
kernel_size: 1
weight_filler {
type: "xavier"
std: 0.1
}
bias_filler {
type: "constant"
value: 0.2
}
}
}
layer {
name: "inception_4a/relu_pool_proj"
type: "ReLU"
bottom: "inception_4a/pool_proj"
top: "inception_4a/pool_proj"
}
layer {
name: "inception_4a/output"
type: "Concat"
bottom: "inception_4a/1x1"
bottom: "inception_4a/3x3"
bottom: "inception_4a/5x5"
bottom: "inception_4a/pool_proj"
top: "inception_4a/output"
}
layer {
name: "loss1/ave_pool"
type: "Pooling"
bottom: "inception_4a/output"
top: "loss1/ave_pool"
pooling_param {
pool: AVE
kernel_size: 5
stride: 3
}
}
layer {
name: "loss1/conv"
type: "Convolution"
bottom: "loss1/ave_pool"
top: "loss1/conv"
param {
lr_mult: 1
decay_mult: 1
}
param {
lr_mult: 2
decay_mult: 0
}
convolution_param {
num_output: 128
kernel_size: 1
weight_filler {
type: "xavier"
std: 0.08
}
bias_filler {
type: "constant"
value: 0.2
}
}
}
layer {
name: "loss1/relu_conv"
type: "ReLU"
bottom: "loss1/conv"
top: "loss1/conv"
}
layer {
name: "loss1/fc"
type: "InnerProduct"
bottom: "loss1/conv"
top: "loss1/fc"
param {
lr_mult: 1
decay_mult: 1
}
param {
lr_mult: 2
decay_mult: 0
}
inner_product_param {
num_output: 1024
weight_filler {
type: "xavier"
std: 0.02
}
bias_filler {
type: "constant"
value: 0.2
}
}
}
layer {
name: "loss1/relu_fc"
type: "ReLU"
bottom: "loss1/fc"
top: "loss1/fc"
}
layer {
name: "loss1/drop_fc"
type: "Dropout"
bottom: "loss1/fc"
top: "loss1/fc"
dropout_param {
dropout_ratio: 0.7
}
}
layer {
name: "loss1/classifier"
type: "InnerProduct"
bottom: "loss1/fc"
top: "loss1/classifier"
param {
lr_mult: 1
decay_mult: 1
}
param {
lr_mult: 2
decay_mult: 0
}
inner_product_param {
num_output: 196
weight_filler {
type: "xavier"
std: 0.0009765625
}
bias_filler {
type: "constant"
value: 0
}
}
}
layer {
name: "loss1/loss"
type: "SoftmaxWithLoss"
bottom: "loss1/classifier"
bottom: "label"
top: "loss1/loss"
loss_weight: 0.3
}
layer {
name: "inception_4b/1x1"
type: "Convolution"
bottom: "inception_4a/output"
top: "inception_4b/1x1"
param {
lr_mult: 1
decay_mult: 1
}
param {
lr_mult: 2
decay_mult: 0
}
convolution_param {
num_output: 160
kernel_size: 1
weight_filler {
type: "xavier"
std: 0.03
}
bias_filler {
type: "constant"
value: 0.2
}
}
}
layer {
name: "inception_4b/relu_1x1"
type: "ReLU"
bottom: "inception_4b/1x1"
top: "inception_4b/1x1"
}
layer {
name: "inception_4b/3x3_reduce"
type: "Convolution"
bottom: "inception_4a/output"
top: "inception_4b/3x3_reduce"
param {
lr_mult: 1
decay_mult: 1
}
param {
lr_mult: 2
decay_mult: 0
}
convolution_param {
num_output: 112
kernel_size: 1
weight_filler {
type: "xavier"
std: 0.09
}
bias_filler {
type: "constant"
value: 0.2
}
}
}
layer {
name: "inception_4b/relu_3x3_reduce"
type: "ReLU"
bottom: "inception_4b/3x3_reduce"
top: "inception_4b/3x3_reduce"
}
layer {
name: "inception_4b/3x3"
type: "Convolution"
bottom: "inception_4b/3x3_reduce"
top: "inception_4b/3x3"
param {
lr_mult: 1
decay_mult: 1
}
param {
lr_mult: 2
decay_mult: 0
}
convolution_param {
num_output: 224
pad: 1
kernel_size: 3
weight_filler {
type: "xavier"
std: 0.03
}
bias_filler {
type: "constant"
value: 0.2
}
}
}
layer {
name: "inception_4b/relu_3x3"
type: "ReLU"
bottom: "inception_4b/3x3"
top: "inception_4b/3x3"
}
layer {
name: "inception_4b/5x5_reduce"
type: "Convolution"
bottom: "inception_4a/output"
top: "inception_4b/5x5_reduce"
param {
lr_mult: 1
decay_mult: 1
}
param {
lr_mult: 2
decay_mult: 0
}
convolution_param {
num_output: 24
kernel_size: 1
weight_filler {
type: "xavier"
std: 0.2
}
bias_filler {
type: "constant"
value: 0.2
}
}
}
layer {
name: "inception_4b/relu_5x5_reduce"
type: "ReLU"
bottom: "inception_4b/5x5_reduce"
top: "inception_4b/5x5_reduce"
}
layer {
name: "inception_4b/5x5"
type: "Convolution"
bottom: "inception_4b/5x5_reduce"
top: "inception_4b/5x5"
param {
lr_mult: 1
decay_mult: 1
}
param {
lr_mult: 2
decay_mult: 0
}
convolution_param {
num_output: 64
pad: 2
kernel_size: 5
weight_filler {
type: "xavier"
std: 0.03
}
bias_filler {
type: "constant"
value: 0.2
}
}
}
layer {
name: "inception_4b/relu_5x5"
type: "ReLU"
bottom: "inception_4b/5x5"
top: "inception_4b/5x5"
}
layer {
name: "inception_4b/pool"
type: "Pooling"
bottom: "inception_4a/output"
top: "inception_4b/pool"
pooling_param {
pool: MAX
kernel_size: 3
stride: 1
pad: 1
}
}
layer {
name: "inception_4b/pool_proj"
type: "Convolution"
bottom: "inception_4b/pool"
top: "inception_4b/pool_proj"
param {
lr_mult: 1
decay_mult: 1
}
param {
lr_mult: 2
decay_mult: 0
}
convolution_param {
num_output: 64
kernel_size: 1
weight_filler {
type: "xavier"
std: 0.1
}
bias_filler {
type: "constant"
value: 0.2
}
}
}
layer {
name: "inception_4b/relu_pool_proj"
type: "ReLU"
bottom: "inception_4b/pool_proj"
top: "inception_4b/pool_proj"
}
layer {
name: "inception_4b/output"
type: "Concat"
bottom: "inception_4b/1x1"
bottom: "inception_4b/3x3"
bottom: "inception_4b/5x5"
bottom: "inception_4b/pool_proj"
top: "inception_4b/output"
}
layer {
name: "inception_4c/1x1"
type: "Convolution"
bottom: "inception_4b/output"
top: "inception_4c/1x1"
param {
lr_mult: 1
decay_mult: 1
}
param {
lr_mult: 2
decay_mult: 0
}
convolution_param {
num_output: 128
kernel_size: 1
weight_filler {
type: "xavier"
std: 0.03
}
bias_filler {
type: "constant"
value: 0.2
}
}
}
layer {
name: "inception_4c/relu_1x1"
type: "ReLU"
bottom: "inception_4c/1x1"
top: "inception_4c/1x1"
}
layer {
name: "inception_4c/3x3_reduce"
type: "Convolution"
bottom: "inception_4b/output"
top: "inception_4c/3x3_reduce"
param {
lr_mult: 1
decay_mult: 1
}
param {
lr_mult: 2
decay_mult: 0
}
convolution_param {
num_output: 128
kernel_size: 1
weight_filler {
type: "xavier"
std: 0.09
}
bias_filler {
type: "constant"
value: 0.2
}
}
}
layer {
name: "inception_4c/relu_3x3_reduce"
type: "ReLU"
bottom: "inception_4c/3x3_reduce"
top: "inception_4c/3x3_reduce"
}
layer {
name: "inception_4c/3x3"
type: "Convolution"
bottom: "inception_4c/3x3_reduce"
top: "inception_4c/3x3"
param {
lr_mult: 1
decay_mult: 1
}
param {
lr_mult: 2
decay_mult: 0
}
convolution_param {
num_output: 256
pad: 1
kernel_size: 3
weight_filler {
type: "xavier"
std: 0.03
}
bias_filler {
type: "constant"
value: 0.2
}
}
}
layer {
name: "inception_4c/relu_3x3"
type: "ReLU"
bottom: "inception_4c/3x3"
top: "inception_4c/3x3"
}
layer {
name: "inception_4c/5x5_reduce"
type: "Convolution"
bottom: "inception_4b/output"
top: "inception_4c/5x5_reduce"
param {
lr_mult: 1
decay_mult: 1
}
param {
lr_mult: 2
decay_mult: 0
}
convolution_param {
num_output: 24
kernel_size: 1
weight_filler {
type: "xavier"
std: 0.2
}
bias_filler {
type: "constant"
value: 0.2
}
}
}
layer {
name: "inception_4c/relu_5x5_reduce"
type: "ReLU"
bottom: "inception_4c/5x5_reduce"
top: "inception_4c/5x5_reduce"
}
layer {
name: "inception_4c/5x5"
type: "Convolution"
bottom: "inception_4c/5x5_reduce"
top: "inception_4c/5x5"
param {
lr_mult: 1
decay_mult: 1
}
param {
lr_mult: 2
decay_mult: 0
}
convolution_param {
num_output: 64
pad: 2
kernel_size: 5
weight_filler {
type: "xavier"
std: 0.03
}
bias_filler {
type: "constant"
value: 0.2
}
}
}
layer {
name: "inception_4c/relu_5x5"
type: "ReLU"
bottom: "inception_4c/5x5"
top: "inception_4c/5x5"
}
layer {
name: "inception_4c/pool"
type: "Pooling"
bottom: "inception_4b/output"
top: "inception_4c/pool"
pooling_param {
pool: MAX
kernel_size: 3
stride: 1
pad: 1
}
}
layer {
name: "inception_4c/pool_proj"
type: "Convolution"
bottom: "inception_4c/pool"
top: "inception_4c/pool_proj"
param {
lr_mult: 1
decay_mult: 1
}
param {
lr_mult: 2
decay_mult: 0
}
convolution_param {
num_output: 64
kernel_size: 1
weight_filler {
type: "xavier"
std: 0.1
}
bias_filler {
type: "constant"
value: 0.2
}
}
}
layer {
name: "inception_4c/relu_pool_proj"
type: "ReLU"
bottom: "inception_4c/pool_proj"
top: "inception_4c/pool_proj"
}
layer {
name: "inception_4c/output"
type: "Concat"
bottom: "inception_4c/1x1"
bottom: "inception_4c/3x3"
bottom: "inception_4c/5x5"
bottom: "inception_4c/pool_proj"
top: "inception_4c/output"
}
layer {
name: "inception_4d/1x1"
type: "Convolution"
bottom: "inception_4c/output"
top: "inception_4d/1x1"
param {
lr_mult: 1
decay_mult: 1
}
param {
lr_mult: 2
decay_mult: 0
}
convolution_param {
num_output: 112
kernel_size: 1
weight_filler {
type: "xavier"
std: 0.03
}
bias_filler {
type: "constant"
value: 0.2
}
}
}
layer {
name: "inception_4d/relu_1x1"
type: "ReLU"
bottom: "inception_4d/1x1"
top: "inception_4d/1x1"
}
layer {
name: "inception_4d/3x3_reduce"
type: "Convolution"
bottom: "inception_4c/output"
top: "inception_4d/3x3_reduce"
param {
lr_mult: 1
decay_mult: 1
}
param {
lr_mult: 2
decay_mult: 0
}
convolution_param {
num_output: 144
kernel_size: 1
weight_filler {
type: "xavier"
std: 0.09
}
bias_filler {
type: "constant"
value: 0.2
}
}
}
layer {
name: "inception_4d/relu_3x3_reduce"
type: "ReLU"
bottom: "inception_4d/3x3_reduce"
top: "inception_4d/3x3_reduce"
}
layer {
name: "inception_4d/3x3"
type: "Convolution"
bottom: "inception_4d/3x3_reduce"
top: "inception_4d/3x3"
param {
lr_mult: 1
decay_mult: 1
}
param {
lr_mult: 2
decay_mult: 0
}
convolution_param {
num_output: 288
pad: 1
kernel_size: 3
weight_filler {
type: "xavier"
std: 0.03
}
bias_filler {
type: "constant"
value: 0.2
}
}
}
layer {
name: "inception_4d/relu_3x3"
type: "ReLU"
bottom: "inception_4d/3x3"
top: "inception_4d/3x3"
}
layer {
name: "inception_4d/5x5_reduce"
type: "Convolution"
bottom: "inception_4c/output"
top: "inception_4d/5x5_reduce"
param {
lr_mult: 1
decay_mult: 1
}
param {
lr_mult: 2
decay_mult: 0
}
convolution_param {
num_output: 32
kernel_size: 1
weight_filler {
type: "xavier"
std: 0.2
}
bias_filler {
type: "constant"
value: 0.2
}
}
}
layer {
name: "inception_4d/relu_5x5_reduce"
type: "ReLU"
bottom: "inception_4d/5x5_reduce"
top: "inception_4d/5x5_reduce"
}
layer {
name: "inception_4d/5x5"
type: "Convolution"
bottom: "inception_4d/5x5_reduce"
top: "inception_4d/5x5"
param {
lr_mult: 1
decay_mult: 1
}
param {
lr_mult: 2
decay_mult: 0
}
convolution_param {
num_output: 64
pad: 2
kernel_size: 5
weight_filler {
type: "xavier"
std: 0.03
}
bias_filler {
type: "constant"
value: 0.2
}
}
}
layer {
name: "inception_4d/relu_5x5"
type: "ReLU"
bottom: "inception_4d/5x5"
top: "inception_4d/5x5"
}
layer {
name: "inception_4d/pool"
type: "Pooling"
bottom: "inception_4c/output"
top: "inception_4d/pool"
pooling_param {
pool: MAX
kernel_size: 3
stride: 1
pad: 1
}
}
layer {
name: "inception_4d/pool_proj"
type: "Convolution"
bottom: "inception_4d/pool"
top: "inception_4d/pool_proj"
param {
lr_mult: 1
decay_mult: 1
}
param {
lr_mult: 2
decay_mult: 0
}
convolution_param {
num_output: 64
kernel_size: 1
weight_filler {
type: "xavier"
std: 0.1
}
bias_filler {
type: "constant"
value: 0.2
}
}
}
layer {
name: "inception_4d/relu_pool_proj"
type: "ReLU"
bottom: "inception_4d/pool_proj"
top: "inception_4d/pool_proj"
}
layer {
name: "inception_4d/output"
type: "Concat"
bottom: "inception_4d/1x1"
bottom: "inception_4d/3x3"
bottom: "inception_4d/5x5"
bottom: "inception_4d/pool_proj"
top: "inception_4d/output"
}
layer {
name: "loss2/ave_pool"
type: "Pooling"
bottom: "inception_4d/output"
top: "loss2/ave_pool"
pooling_param {
pool: AVE
kernel_size: 5
stride: 3
}
}
layer {
name: "loss2/conv"
type: "Convolution"
bottom: "loss2/ave_pool"
top: "loss2/conv"
param {
lr_mult: 1
decay_mult: 1
}
param {
lr_mult: 2
decay_mult: 0
}
convolution_param {
num_output: 128
kernel_size: 1
weight_filler {
type: "xavier"
std: 0.08
}
bias_filler {
type: "constant"
value: 0.2
}
}
}
layer {
name: "loss2/relu_conv"
type: "ReLU"
bottom: "loss2/conv"
top: "loss2/conv"
}
layer {
name: "loss2/fc"
type: "InnerProduct"
bottom: "loss2/conv"
top: "loss2/fc"
param {
lr_mult: 1
decay_mult: 1
}
param {
lr_mult: 2
decay_mult: 0
}
inner_product_param {
num_output: 1024
weight_filler {
type: "xavier"
std: 0.02
}
bias_filler {
type: "constant"
value: 0.2
}
}
}
layer {
name: "loss2/relu_fc"
type: "ReLU"
bottom: "loss2/fc"
top: "loss2/fc"
}
layer {
name: "loss2/drop_fc"
type: "Dropout"
bottom: "loss2/fc"
top: "loss2/fc"
dropout_param {
dropout_ratio: 0.7
}
}
layer {
name: "loss2/classifier"
type: "InnerProduct"
bottom: "loss2/fc"
top: "loss2/classifier"
param {
lr_mult: 1
decay_mult: 1
}
param {
lr_mult: 2
decay_mult: 0
}
inner_product_param {
num_output: 196
weight_filler {
type: "xavier"
std: 0.0009765625
}
bias_filler {
type: "constant"
value: 0
}
}
}
layer {
name: "loss2/loss"
type: "SoftmaxWithLoss"
bottom: "loss2/classifier"
bottom: "label"
top: "loss2/loss"
loss_weight: 0.3
}
layer {
name: "inception_4e/1x1"
type: "Convolution"
bottom: "inception_4d/output"
top: "inception_4e/1x1"
param {
lr_mult: 1
decay_mult: 1
}
param {
lr_mult: 2
decay_mult: 0
}
convolution_param {
num_output: 256
kernel_size: 1
weight_filler {
type: "xavier"
std: 0.03
}
bias_filler {
type: "constant"
value: 0.2
}
}
}
layer {
name: "inception_4e/relu_1x1"
type: "ReLU"
bottom: "inception_4e/1x1"
top: "inception_4e/1x1"
}
layer {
name: "inception_4e/3x3_reduce"
type: "Convolution"
bottom: "inception_4d/output"
top: "inception_4e/3x3_reduce"
param {
lr_mult: 1
decay_mult: 1
}
param {
lr_mult: 2
decay_mult: 0
}
convolution_param {
num_output: 160
kernel_size: 1
weight_filler {
type: "xavier"
std: 0.09
}
bias_filler {
type: "constant"
value: 0.2
}
}
}
layer {
name: "inception_4e/relu_3x3_reduce"
type: "ReLU"
bottom: "inception_4e/3x3_reduce"
top: "inception_4e/3x3_reduce"
}
layer {
name: "inception_4e/3x3"
type: "Convolution"
bottom: "inception_4e/3x3_reduce"
top: "inception_4e/3x3"
param {
lr_mult: 1
decay_mult: 1
}
param {
lr_mult: 2
decay_mult: 0
}
convolution_param {
num_output: 320
pad: 1
kernel_size: 3
weight_filler {
type: "xavier"
std: 0.03
}
bias_filler {
type: "constant"
value: 0.2
}
}
}
layer {
name: "inception_4e/relu_3x3"
type: "ReLU"
bottom: "inception_4e/3x3"
top: "inception_4e/3x3"
}
layer {
name: "inception_4e/5x5_reduce"
type: "Convolution"
bottom: "inception_4d/output"
top: "inception_4e/5x5_reduce"
param {
lr_mult: 1
decay_mult: 1
}
param {
lr_mult: 2
decay_mult: 0
}
convolution_param {
num_output: 32
kernel_size: 1
weight_filler {
type: "xavier"
std: 0.2
}
bias_filler {
type: "constant"
val
I0501 18:30:36.998533 11735 layer_factory.hpp:77] Creating layer train-data
I0501 18:30:37.000303 11735 db_lmdb.cpp:35] Opened lmdb /mnt/bigdisk/MANDIG2/digits/jobs/20200428-132136-11fe/train_db
I0501 18:30:37.000507 11735 net.cpp:84] Creating Layer train-data
I0501 18:30:37.000524 11735 net.cpp:380] train-data -> data
I0501 18:30:37.000555 11735 net.cpp:380] train-data -> label
I0501 18:30:37.000574 11735 data_transformer.cpp:25] Loading mean file from: /mnt/bigdisk/MANDIG2/digits/jobs/20200428-132136-11fe/mean.binaryproto
I0501 18:30:37.009377 11735 data_layer.cpp:45] output data size: 32,3,224,224
I0501 18:30:37.111243 11735 net.cpp:122] Setting up train-data
I0501 18:30:37.111279 11735 net.cpp:129] Top shape: 32 3 224 224 (4816896)
I0501 18:30:37.111289 11735 net.cpp:129] Top shape: 32 (32)
I0501 18:30:37.111294 11735 net.cpp:137] Memory required for data: 19267712
I0501 18:30:37.111307 11735 layer_factory.hpp:77] Creating layer label_train-data_1_split
I0501 18:30:37.111357 11735 net.cpp:84] Creating Layer label_train-data_1_split
I0501 18:30:37.111368 11735 net.cpp:406] label_train-data_1_split <- label
I0501 18:30:37.111385 11735 net.cpp:380] label_train-data_1_split -> label_train-data_1_split_0
I0501 18:30:37.111402 11735 net.cpp:380] label_train-data_1_split -> label_train-data_1_split_1
I0501 18:30:37.111411 11735 net.cpp:380] label_train-data_1_split -> label_train-data_1_split_2
I0501 18:30:37.111490 11735 net.cpp:122] Setting up label_train-data_1_split
I0501 18:30:37.111500 11735 net.cpp:129] Top shape: 32 (32)
I0501 18:30:37.111507 11735 net.cpp:129] Top shape: 32 (32)
I0501 18:30:37.111513 11735 net.cpp:129] Top shape: 32 (32)
I0501 18:30:37.111518 11735 net.cpp:137] Memory required for data: 19268096
I0501 18:30:37.111524 11735 layer_factory.hpp:77] Creating layer conv1/7x7_s2
I0501 18:30:37.111547 11735 net.cpp:84] Creating Layer conv1/7x7_s2
I0501 18:30:37.111554 11735 net.cpp:406] conv1/7x7_s2 <- data
I0501 18:30:37.111565 11735 net.cpp:380] conv1/7x7_s2 -> conv1/7x7_s2
I0501 18:30:40.216287 11735 net.cpp:122] Setting up conv1/7x7_s2
I0501 18:30:40.216317 11735 net.cpp:129] Top shape: 32 64 112 112 (25690112)
I0501 18:30:40.216325 11735 net.cpp:137] Memory required for data: 122028544
I0501 18:30:40.216352 11735 layer_factory.hpp:77] Creating layer conv1/relu_7x7
I0501 18:30:40.216367 11735 net.cpp:84] Creating Layer conv1/relu_7x7
I0501 18:30:40.216374 11735 net.cpp:406] conv1/relu_7x7 <- conv1/7x7_s2
I0501 18:30:40.216383 11735 net.cpp:367] conv1/relu_7x7 -> conv1/7x7_s2 (in-place)
I0501 18:30:40.216794 11735 net.cpp:122] Setting up conv1/relu_7x7
I0501 18:30:40.216809 11735 net.cpp:129] Top shape: 32 64 112 112 (25690112)
I0501 18:30:40.216814 11735 net.cpp:137] Memory required for data: 224788992
I0501 18:30:40.216820 11735 layer_factory.hpp:77] Creating layer pool1/3x3_s2
I0501 18:30:40.216833 11735 net.cpp:84] Creating Layer pool1/3x3_s2
I0501 18:30:40.216840 11735 net.cpp:406] pool1/3x3_s2 <- conv1/7x7_s2
I0501 18:30:40.216847 11735 net.cpp:380] pool1/3x3_s2 -> pool1/3x3_s2
I0501 18:30:40.216912 11735 net.cpp:122] Setting up pool1/3x3_s2
I0501 18:30:40.216922 11735 net.cpp:129] Top shape: 32 64 56 56 (6422528)
I0501 18:30:40.216926 11735 net.cpp:137] Memory required for data: 250479104
I0501 18:30:40.216933 11735 layer_factory.hpp:77] Creating layer pool1/norm1
I0501 18:30:40.216945 11735 net.cpp:84] Creating Layer pool1/norm1
I0501 18:30:40.216953 11735 net.cpp:406] pool1/norm1 <- pool1/3x3_s2
I0501 18:30:40.216960 11735 net.cpp:380] pool1/norm1 -> pool1/norm1
I0501 18:30:40.217672 11735 net.cpp:122] Setting up pool1/norm1
I0501 18:30:40.217687 11735 net.cpp:129] Top shape: 32 64 56 56 (6422528)
I0501 18:30:40.217692 11735 net.cpp:137] Memory required for data: 276169216
I0501 18:30:40.217697 11735 layer_factory.hpp:77] Creating layer conv2/3x3_reduce
I0501 18:30:40.217712 11735 net.cpp:84] Creating Layer conv2/3x3_reduce
I0501 18:30:40.217718 11735 net.cpp:406] conv2/3x3_reduce <- pool1/norm1
I0501 18:30:40.217727 11735 net.cpp:380] conv2/3x3_reduce -> conv2/3x3_reduce
I0501 18:30:40.220151 11735 net.cpp:122] Setting up conv2/3x3_reduce
I0501 18:30:40.220168 11735 net.cpp:129] Top shape: 32 64 56 56 (6422528)
I0501 18:30:40.220175 11735 net.cpp:137] Memory required for data: 301859328
I0501 18:30:40.220187 11735 layer_factory.hpp:77] Creating layer conv2/relu_3x3_reduce
I0501 18:30:40.220197 11735 net.cpp:84] Creating Layer conv2/relu_3x3_reduce
I0501 18:30:40.220203 11735 net.cpp:406] conv2/relu_3x3_reduce <- conv2/3x3_reduce
I0501 18:30:40.220212 11735 net.cpp:367] conv2/relu_3x3_reduce -> conv2/3x3_reduce (in-place)
I0501 18:30:40.220635 11735 net.cpp:122] Setting up conv2/relu_3x3_reduce
I0501 18:30:40.220649 11735 net.cpp:129] Top shape: 32 64 56 56 (6422528)
I0501 18:30:40.220654 11735 net.cpp:137] Memory required for data: 327549440
I0501 18:30:40.220660 11735 layer_factory.hpp:77] Creating layer conv2/3x3
I0501 18:30:40.220676 11735 net.cpp:84] Creating Layer conv2/3x3
I0501 18:30:40.220683 11735 net.cpp:406] conv2/3x3 <- conv2/3x3_reduce
I0501 18:30:40.220726 11735 net.cpp:380] conv2/3x3 -> conv2/3x3
I0501 18:30:40.251965 11735 net.cpp:122] Setting up conv2/3x3
I0501 18:30:40.251993 11735 net.cpp:129] Top shape: 32 192 56 56 (19267584)
I0501 18:30:40.251998 11735 net.cpp:137] Memory required for data: 404619776
I0501 18:30:40.252017 11735 layer_factory.hpp:77] Creating layer conv2/relu_3x3
I0501 18:30:40.252028 11735 net.cpp:84] Creating Layer conv2/relu_3x3
I0501 18:30:40.252035 11735 net.cpp:406] conv2/relu_3x3 <- conv2/3x3
I0501 18:30:40.252044 11735 net.cpp:367] conv2/relu_3x3 -> conv2/3x3 (in-place)
I0501 18:30:40.252452 11735 net.cpp:122] Setting up conv2/relu_3x3
I0501 18:30:40.252465 11735 net.cpp:129] Top shape: 32 192 56 56 (19267584)
I0501 18:30:40.252470 11735 net.cpp:137] Memory required for data: 481690112
I0501 18:30:40.252475 11735 layer_factory.hpp:77] Creating layer conv2/norm2
I0501 18:30:40.252485 11735 net.cpp:84] Creating Layer conv2/norm2
I0501 18:30:40.252490 11735 net.cpp:406] conv2/norm2 <- conv2/3x3
I0501 18:30:40.252498 11735 net.cpp:380] conv2/norm2 -> conv2/norm2
I0501 18:30:40.253147 11735 net.cpp:122] Setting up conv2/norm2
I0501 18:30:40.253160 11735 net.cpp:129] Top shape: 32 192 56 56 (19267584)
I0501 18:30:40.253165 11735 net.cpp:137] Memory required for data: 558760448
I0501 18:30:40.253171 11735 layer_factory.hpp:77] Creating layer pool2/3x3_s2
I0501 18:30:40.253180 11735 net.cpp:84] Creating Layer pool2/3x3_s2
I0501 18:30:40.253185 11735 net.cpp:406] pool2/3x3_s2 <- conv2/norm2
I0501 18:30:40.253193 11735 net.cpp:380] pool2/3x3_s2 -> pool2/3x3_s2
I0501 18:30:40.253237 11735 net.cpp:122] Setting up pool2/3x3_s2
I0501 18:30:40.253245 11735 net.cpp:129] Top shape: 32 192 28 28 (4816896)
I0501 18:30:40.253249 11735 net.cpp:137] Memory required for data: 578028032
I0501 18:30:40.253254 11735 layer_factory.hpp:77] Creating layer pool2/3x3_s2_pool2/3x3_s2_0_split
I0501 18:30:40.253263 11735 net.cpp:84] Creating Layer pool2/3x3_s2_pool2/3x3_s2_0_split
I0501 18:30:40.253268 11735 net.cpp:406] pool2/3x3_s2_pool2/3x3_s2_0_split <- pool2/3x3_s2
I0501 18:30:40.253276 11735 net.cpp:380] pool2/3x3_s2_pool2/3x3_s2_0_split -> pool2/3x3_s2_pool2/3x3_s2_0_split_0
I0501 18:30:40.253286 11735 net.cpp:380] pool2/3x3_s2_pool2/3x3_s2_0_split -> pool2/3x3_s2_pool2/3x3_s2_0_split_1
I0501 18:30:40.253294 11735 net.cpp:380] pool2/3x3_s2_pool2/3x3_s2_0_split -> pool2/3x3_s2_pool2/3x3_s2_0_split_2
I0501 18:30:40.253302 11735 net.cpp:380] pool2/3x3_s2_pool2/3x3_s2_0_split -> pool2/3x3_s2_pool2/3x3_s2_0_split_3
I0501 18:30:40.253361 11735 net.cpp:122] Setting up pool2/3x3_s2_pool2/3x3_s2_0_split
I0501 18:30:40.253370 11735 net.cpp:129] Top shape: 32 192 28 28 (4816896)
I0501 18:30:40.253376 11735 net.cpp:129] Top shape: 32 192 28 28 (4816896)
I0501 18:30:40.253382 11735 net.cpp:129] Top shape: 32 192 28 28 (4816896)
I0501 18:30:40.253388 11735 net.cpp:129] Top shape: 32 192 28 28 (4816896)
I0501 18:30:40.253393 11735 net.cpp:137] Memory required for data: 655098368
I0501 18:30:40.253398 11735 layer_factory.hpp:77] Creating layer inception_3a/1x1
I0501 18:30:40.253414 11735 net.cpp:84] Creating Layer inception_3a/1x1
I0501 18:30:40.253419 11735 net.cpp:406] inception_3a/1x1 <- pool2/3x3_s2_pool2/3x3_s2_0_split_0
I0501 18:30:40.253427 11735 net.cpp:380] inception_3a/1x1 -> inception_3a/1x1
I0501 18:30:40.265015 11735 net.cpp:122] Setting up inception_3a/1x1
I0501 18:30:40.265043 11735 net.cpp:129] Top shape: 32 64 28 28 (1605632)
I0501 18:30:40.265048 11735 net.cpp:137] Memory required for data: 661520896
I0501 18:30:40.265060 11735 layer_factory.hpp:77] Creating layer inception_3a/relu_1x1
I0501 18:30:40.265074 11735 net.cpp:84] Creating Layer inception_3a/relu_1x1
I0501 18:30:40.265081 11735 net.cpp:406] inception_3a/relu_1x1 <- inception_3a/1x1
I0501 18:30:40.265094 11735 net.cpp:367] inception_3a/relu_1x1 -> inception_3a/1x1 (in-place)
I0501 18:30:40.265627 11735 net.cpp:122] Setting up inception_3a/relu_1x1
I0501 18:30:40.265640 11735 net.cpp:129] Top shape: 32 64 28 28 (1605632)
I0501 18:30:40.265645 11735 net.cpp:137] Memory required for data: 667943424
I0501 18:30:40.265678 11735 layer_factory.hpp:77] Creating layer inception_3a/3x3_reduce
I0501 18:30:40.265699 11735 net.cpp:84] Creating Layer inception_3a/3x3_reduce
I0501 18:30:40.265707 11735 net.cpp:406] inception_3a/3x3_reduce <- pool2/3x3_s2_pool2/3x3_s2_0_split_1
I0501 18:30:40.265715 11735 net.cpp:380] inception_3a/3x3_reduce -> inception_3a/3x3_reduce
I0501 18:30:40.284025 11735 net.cpp:122] Setting up inception_3a/3x3_reduce
I0501 18:30:40.284054 11735 net.cpp:129] Top shape: 32 96 28 28 (2408448)
I0501 18:30:40.284057 11735 net.cpp:137] Memory required for data: 677577216
I0501 18:30:40.284078 11735 layer_factory.hpp:77] Creating layer inception_3a/relu_3x3_reduce
I0501 18:30:40.284096 11735 net.cpp:84] Creating Layer inception_3a/relu_3x3_reduce
I0501 18:30:40.284103 11735 net.cpp:406] inception_3a/relu_3x3_reduce <- inception_3a/3x3_reduce
I0501 18:30:40.284112 11735 net.cpp:367] inception_3a/relu_3x3_reduce -> inception_3a/3x3_reduce (in-place)
I0501 18:30:40.284786 11735 net.cpp:122] Setting up inception_3a/relu_3x3_reduce
I0501 18:30:40.284799 11735 net.cpp:129] Top shape: 32 96 28 28 (2408448)
I0501 18:30:40.284804 11735 net.cpp:137] Memory required for data: 687211008
I0501 18:30:40.284809 11735 layer_factory.hpp:77] Creating layer inception_3a/3x3
I0501 18:30:40.284826 11735 net.cpp:84] Creating Layer inception_3a/3x3
I0501 18:30:40.284831 11735 net.cpp:406] inception_3a/3x3 <- inception_3a/3x3_reduce
I0501 18:30:40.284840 11735 net.cpp:380] inception_3a/3x3 -> inception_3a/3x3
I0501 18:30:40.292807 11735 net.cpp:122] Setting up inception_3a/3x3
I0501 18:30:40.292831 11735 net.cpp:129] Top shape: 32 128 28 28 (3211264)
I0501 18:30:40.292836 11735 net.cpp:137] Memory required for data: 700056064
I0501 18:30:40.292848 11735 layer_factory.hpp:77] Creating layer inception_3a/relu_3x3
I0501 18:30:40.292862 11735 net.cpp:84] Creating Layer inception_3a/relu_3x3
I0501 18:30:40.292868 11735 net.cpp:406] inception_3a/relu_3x3 <- inception_3a/3x3
I0501 18:30:40.292877 11735 net.cpp:367] inception_3a/relu_3x3 -> inception_3a/3x3 (in-place)
I0501 18:30:40.293545 11735 net.cpp:122] Setting up inception_3a/relu_3x3
I0501 18:30:40.293556 11735 net.cpp:129] Top shape: 32 128 28 28 (3211264)
I0501 18:30:40.293561 11735 net.cpp:137] Memory required for data: 712901120
I0501 18:30:40.293567 11735 layer_factory.hpp:77] Creating layer inception_3a/5x5_reduce
I0501 18:30:40.293583 11735 net.cpp:84] Creating Layer inception_3a/5x5_reduce
I0501 18:30:40.293589 11735 net.cpp:406] inception_3a/5x5_reduce <- pool2/3x3_s2_pool2/3x3_s2_0_split_2
I0501 18:30:40.293601 11735 net.cpp:380] inception_3a/5x5_reduce -> inception_3a/5x5_reduce
I0501 18:30:40.295725 11735 net.cpp:122] Setting up inception_3a/5x5_reduce
I0501 18:30:40.295740 11735 net.cpp:129] Top shape: 32 16 28 28 (401408)
I0501 18:30:40.295744 11735 net.cpp:137] Memory required for data: 714506752
I0501 18:30:40.295754 11735 layer_factory.hpp:77] Creating layer inception_3a/relu_5x5_reduce
I0501 18:30:40.295764 11735 net.cpp:84] Creating Layer inception_3a/relu_5x5_reduce
I0501 18:30:40.295770 11735 net.cpp:406] inception_3a/relu_5x5_reduce <- inception_3a/5x5_reduce
I0501 18:30:40.295780 11735 net.cpp:367] inception_3a/relu_5x5_reduce -> inception_3a/5x5_reduce (in-place)
I0501 18:30:40.304841 11735 net.cpp:122] Setting up inception_3a/relu_5x5_reduce
I0501 18:30:40.304867 11735 net.cpp:129] Top shape: 32 16 28 28 (401408)
I0501 18:30:40.304872 11735 net.cpp:137] Memory required for data: 716112384
I0501 18:30:40.304878 11735 layer_factory.hpp:77] Creating layer inception_3a/5x5
I0501 18:30:40.304900 11735 net.cpp:84] Creating Layer inception_3a/5x5
I0501 18:30:40.304908 11735 net.cpp:406] inception_3a/5x5 <- inception_3a/5x5_reduce
I0501 18:30:40.304922 11735 net.cpp:380] inception_3a/5x5 -> inception_3a/5x5
I0501 18:30:40.332953 11735 net.cpp:122] Setting up inception_3a/5x5
I0501 18:30:40.332979 11735 net.cpp:129] Top shape: 32 32 28 28 (802816)
I0501 18:30:40.332984 11735 net.cpp:137] Memory required for data: 719323648
I0501 18:30:40.333024 11735 layer_factory.hpp:77] Creating layer inception_3a/relu_5x5
I0501 18:30:40.333039 11735 net.cpp:84] Creating Layer inception_3a/relu_5x5
I0501 18:30:40.333046 11735 net.cpp:406] inception_3a/relu_5x5 <- inception_3a/5x5
I0501 18:30:40.333060 11735 net.cpp:367] inception_3a/relu_5x5 -> inception_3a/5x5 (in-place)
I0501 18:30:40.333788 11735 net.cpp:122] Setting up inception_3a/relu_5x5
I0501 18:30:40.333801 11735 net.cpp:129] Top shape: 32 32 28 28 (802816)
I0501 18:30:40.333806 11735 net.cpp:137] Memory required for data: 722534912
I0501 18:30:40.333812 11735 layer_factory.hpp:77] Creating layer inception_3a/pool
I0501 18:30:40.333823 11735 net.cpp:84] Creating Layer inception_3a/pool
I0501 18:30:40.333830 11735 net.cpp:406] inception_3a/pool <- pool2/3x3_s2_pool2/3x3_s2_0_split_3
I0501 18:30:40.333840 11735 net.cpp:380] inception_3a/pool -> inception_3a/pool
I0501 18:30:40.333894 11735 net.cpp:122] Setting up inception_3a/pool
I0501 18:30:40.333902 11735 net.cpp:129] Top shape: 32 192 28 28 (4816896)
I0501 18:30:40.333909 11735 net.cpp:137] Memory required for data: 741802496
I0501 18:30:40.333915 11735 layer_factory.hpp:77] Creating layer inception_3a/pool_proj
I0501 18:30:40.333930 11735 net.cpp:84] Creating Layer inception_3a/pool_proj
I0501 18:30:40.333937 11735 net.cpp:406] inception_3a/pool_proj <- inception_3a/pool
I0501 18:30:40.333946 11735 net.cpp:380] inception_3a/pool_proj -> inception_3a/pool_proj
I0501 18:30:40.336266 11735 net.cpp:122] Setting up inception_3a/pool_proj
I0501 18:30:40.336285 11735 net.cpp:129] Top shape: 32 32 28 28 (802816)
I0501 18:30:40.336292 11735 net.cpp:137] Memory required for data: 745013760
I0501 18:30:40.336309 11735 layer_factory.hpp:77] Creating layer inception_3a/relu_pool_proj
I0501 18:30:40.336321 11735 net.cpp:84] Creating Layer inception_3a/relu_pool_proj
I0501 18:30:40.336328 11735 net.cpp:406] inception_3a/relu_pool_proj <- inception_3a/pool_proj
I0501 18:30:40.336338 11735 net.cpp:367] inception_3a/relu_pool_proj -> inception_3a/pool_proj (in-place)
I0501 18:30:40.337584 11735 net.cpp:122] Setting up inception_3a/relu_pool_proj
I0501 18:30:40.337599 11735 net.cpp:129] Top shape: 32 32 28 28 (802816)
I0501 18:30:40.337604 11735 net.cpp:137] Memory required for data: 748225024
I0501 18:30:40.337610 11735 layer_factory.hpp:77] Creating layer inception_3a/output
I0501 18:30:40.337621 11735 net.cpp:84] Creating Layer inception_3a/output
I0501 18:30:40.337627 11735 net.cpp:406] inception_3a/output <- inception_3a/1x1
I0501 18:30:40.337635 11735 net.cpp:406] inception_3a/output <- inception_3a/3x3
I0501 18:30:40.337641 11735 net.cpp:406] inception_3a/output <- inception_3a/5x5
I0501 18:30:40.337647 11735 net.cpp:406] inception_3a/output <- inception_3a/pool_proj
I0501 18:30:40.337656 11735 net.cpp:380] inception_3a/output -> inception_3a/output
I0501 18:30:40.337695 11735 net.cpp:122] Setting up inception_3a/output
I0501 18:30:40.337704 11735 net.cpp:129] Top shape: 32 256 28 28 (6422528)
I0501 18:30:40.337709 11735 net.cpp:137] Memory required for data: 773915136
I0501 18:30:40.337714 11735 layer_factory.hpp:77] Creating layer inception_3a/output_inception_3a/output_0_split
I0501 18:30:40.337725 11735 net.cpp:84] Creating Layer inception_3a/output_inception_3a/output_0_split
I0501 18:30:40.337730 11735 net.cpp:406] inception_3a/output_inception_3a/output_0_split <- inception_3a/output
I0501 18:30:40.337740 11735 net.cpp:380] inception_3a/output_inception_3a/output_0_split -> inception_3a/output_inception_3a/output_0_split_0
I0501 18:30:40.337749 11735 net.cpp:380] inception_3a/output_inception_3a/output_0_split -> inception_3a/output_inception_3a/output_0_split_1
I0501 18:30:40.337759 11735 net.cpp:380] inception_3a/output_inception_3a/output_0_split -> inception_3a/output_inception_3a/output_0_split_2
I0501 18:30:40.337766 11735 net.cpp:380] inception_3a/output_inception_3a/output_0_split -> inception_3a/output_inception_3a/output_0_split_3
I0501 18:30:40.337834 11735 net.cpp:122] Setting up inception_3a/output_inception_3a/output_0_split
I0501 18:30:40.337867 11735 net.cpp:129] Top shape: 32 256 28 28 (6422528)
I0501 18:30:40.337874 11735 net.cpp:129] Top shape: 32 256 28 28 (6422528)
I0501 18:30:40.337880 11735 net.cpp:129] Top shape: 32 256 28 28 (6422528)
I0501 18:30:40.337886 11735 net.cpp:129] Top shape: 32 256 28 28 (6422528)
I0501 18:30:40.337891 11735 net.cpp:137] Memory required for data: 876675584
I0501 18:30:40.337896 11735 layer_factory.hpp:77] Creating layer inception_3b/1x1
I0501 18:30:40.337913 11735 net.cpp:84] Creating Layer inception_3b/1x1
I0501 18:30:40.337918 11735 net.cpp:406] inception_3b/1x1 <- inception_3a/output_inception_3a/output_0_split_0
I0501 18:30:40.337926 11735 net.cpp:380] inception_3b/1x1 -> inception_3b/1x1
I0501 18:30:40.342581 11735 net.cpp:122] Setting up inception_3b/1x1
I0501 18:30:40.343345 11735 net.cpp:129] Top shape: 32 128 28 28 (3211264)
I0501 18:30:40.343359 11735 net.cpp:137] Memory required for data: 889520640
I0501 18:30:40.343374 11735 layer_factory.hpp:77] Creating layer inception_3b/relu_1x1
I0501 18:30:40.343389 11735 net.cpp:84] Creating Layer inception_3b/relu_1x1
I0501 18:30:40.343396 11735 net.cpp:406] inception_3b/relu_1x1 <- inception_3b/1x1
I0501 18:30:40.343410 11735 net.cpp:367] inception_3b/relu_1x1 -> inception_3b/1x1 (in-place)
I0501 18:30:40.344161 11735 net.cpp:122] Setting up inception_3b/relu_1x1
I0501 18:30:40.344177 11735 net.cpp:129] Top shape: 32 128 28 28 (3211264)
I0501 18:30:40.344180 11735 net.cpp:137] Memory required for data: 902365696
I0501 18:30:40.344187 11735 layer_factory.hpp:77] Creating layer inception_3b/3x3_reduce
I0501 18:30:40.344204 11735 net.cpp:84] Creating Layer inception_3b/3x3_reduce
I0501 18:30:40.344211 11735 net.cpp:406] inception_3b/3x3_reduce <- inception_3a/output_inception_3a/output_0_split_1
I0501 18:30:40.344221 11735 net.cpp:380] inception_3b/3x3_reduce -> inception_3b/3x3_reduce
I0501 18:30:40.346774 11735 net.cpp:122] Setting up inception_3b/3x3_reduce
I0501 18:30:40.346789 11735 net.cpp:129] Top shape: 32 128 28 28 (3211264)
I0501 18:30:40.346794 11735 net.cpp:137] Memory required for data: 915210752
I0501 18:30:40.346804 11735 layer_factory.hpp:77] Creating layer inception_3b/relu_3x3_reduce
I0501 18:30:40.346813 11735 net.cpp:84] Creating Layer inception_3b/relu_3x3_reduce
I0501 18:30:40.346819 11735 net.cpp:406] inception_3b/relu_3x3_reduce <- inception_3b/3x3_reduce
I0501 18:30:40.346829 11735 net.cpp:367] inception_3b/relu_3x3_reduce -> inception_3b/3x3_reduce (in-place)
I0501 18:30:40.349704 11735 net.cpp:122] Setting up inception_3b/relu_3x3_reduce
I0501 18:30:40.349725 11735 net.cpp:129] Top shape: 32 128 28 28 (3211264)
I0501 18:30:40.349730 11735 net.cpp:137] Memory required for data: 928055808
I0501 18:30:40.349736 11735 layer_factory.hpp:77] Creating layer inception_3b/3x3
I0501 18:30:40.349768 11735 net.cpp:84] Creating Layer inception_3b/3x3
I0501 18:30:40.349776 11735 net.cpp:406] inception_3b/3x3 <- inception_3b/3x3_reduce
I0501 18:30:40.349787 11735 net.cpp:380] inception_3b/3x3 -> inception_3b/3x3
I0501 18:30:40.354051 11735 net.cpp:122] Setting up inception_3b/3x3
I0501 18:30:40.354077 11735 net.cpp:129] Top shape: 32 192 28 28 (4816896)
I0501 18:30:40.354082 11735 net.cpp:137] Memory required for data: 947323392
I0501 18:30:40.354095 11735 layer_factory.hpp:77] Creating layer inception_3b/relu_3x3
I0501 18:30:40.354108 11735 net.cpp:84] Creating Layer inception_3b/relu_3x3
I0501 18:30:40.368954 11735 net.cpp:406] inception_3b/relu_3x3 <- inception_3b/3x3
I0501 18:30:40.368983 11735 net.cpp:367] inception_3b/relu_3x3 -> inception_3b/3x3 (in-place)
I0501 18:30:40.371572 11735 net.cpp:122] Setting up inception_3b/relu_3x3
I0501 18:30:40.371593 11735 net.cpp:129] Top shape: 32 192 28 28 (4816896)
I0501 18:30:40.371599 11735 net.cpp:137] Memory required for data: 966590976
I0501 18:30:40.371606 11735 layer_factory.hpp:77] Creating layer inception_3b/5x5_reduce
I0501 18:30:40.371626 11735 net.cpp:84] Creating Layer inception_3b/5x5_reduce
I0501 18:30:40.371634 11735 net.cpp:406] inception_3b/5x5_reduce <- inception_3a/output_inception_3a/output_0_split_2
I0501 18:30:40.371672 11735 net.cpp:380] inception_3b/5x5_reduce -> inception_3b/5x5_reduce
I0501 18:30:40.376749 11735 net.cpp:122] Setting up inception_3b/5x5_reduce
I0501 18:30:40.376766 11735 net.cpp:129] Top shape: 32 32 28 28 (802816)
I0501 18:30:40.376771 11735 net.cpp:137] Memory required for data: 969802240
I0501 18:30:40.376782 11735 layer_factory.hpp:77] Creating layer inception_3b/relu_5x5_reduce
I0501 18:30:40.376793 11735 net.cpp:84] Creating Layer inception_3b/relu_5x5_reduce
I0501 18:30:40.376801 11735 net.cpp:406] inception_3b/relu_5x5_reduce <- inception_3b/5x5_reduce
I0501 18:30:40.376813 11735 net.cpp:367] inception_3b/relu_5x5_reduce -> inception_3b/5x5_reduce (in-place)
I0501 18:30:40.377573 11735 net.cpp:122] Setting up inception_3b/relu_5x5_reduce
I0501 18:30:40.377588 11735 net.cpp:129] Top shape: 32 32 28 28 (802816)
I0501 18:30:40.377593 11735 net.cpp:137] Memory required for data: 973013504
I0501 18:30:40.377599 11735 layer_factory.hpp:77] Creating layer inception_3b/5x5
I0501 18:30:40.377614 11735 net.cpp:84] Creating Layer inception_3b/5x5
I0501 18:30:40.377621 11735 net.cpp:406] inception_3b/5x5 <- inception_3b/5x5_reduce
I0501 18:30:40.377632 11735 net.cpp:380] inception_3b/5x5 -> inception_3b/5x5
I0501 18:30:40.389348 11735 net.cpp:122] Setting up inception_3b/5x5
I0501 18:30:40.389376 11735 net.cpp:129] Top shape: 32 96 28 28 (2408448)
I0501 18:30:40.389381 11735 net.cpp:137] Memory required for data: 982647296
I0501 18:30:40.389394 11735 layer_factory.hpp:77] Creating layer inception_3b/relu_5x5
I0501 18:30:40.389407 11735 net.cpp:84] Creating Layer inception_3b/relu_5x5
I0501 18:30:40.389415 11735 net.cpp:406] inception_3b/relu_5x5 <- inception_3b/5x5
I0501 18:30:40.389426 11735 net.cpp:367] inception_3b/relu_5x5 -> inception_3b/5x5 (in-place)
I0501 18:30:40.389956 11735 net.cpp:122] Setting up inception_3b/relu_5x5
I0501 18:30:40.389968 11735 net.cpp:129] Top shape: 32 96 28 28 (2408448)
I0501 18:30:40.389974 11735 net.cpp:137] Memory required for data: 992281088
I0501 18:30:40.389981 11735 layer_factory.hpp:77] Creating layer inception_3b/pool
I0501 18:30:40.389991 11735 net.cpp:84] Creating Layer inception_3b/pool
I0501 18:30:40.389997 11735 net.cpp:406] inception_3b/pool <- inception_3a/output_inception_3a/output_0_split_3
I0501 18:30:40.390005 11735 net.cpp:380] inception_3b/pool -> inception_3b/pool
I0501 18:30:40.390062 11735 net.cpp:122] Setting up inception_3b/pool
I0501 18:30:40.390070 11735 net.cpp:129] Top shape: 32 256 28 28 (6422528)
I0501 18:30:40.390075 11735 net.cpp:137] Memory required for data: 1017971200
I0501 18:30:40.390079 11735 layer_factory.hpp:77] Creating layer inception_3b/pool_proj
I0501 18:30:40.390095 11735 net.cpp:84] Creating Layer inception_3b/pool_proj
I0501 18:30:40.390100 11735 net.cpp:406] inception_3b/pool_proj <- inception_3b/pool
I0501 18:30:40.390110 11735 net.cpp:380] inception_3b/pool_proj -> inception_3b/pool_proj
I0501 18:30:40.421111 11735 net.cpp:122] Setting up inception_3b/pool_proj
I0501 18:30:40.421139 11735 net.cpp:129] Top shape: 32 64 28 28 (1605632)
I0501 18:30:40.421144 11735 net.cpp:137] Memory required for data: 1024393728
I0501 18:30:40.421157 11735 layer_factory.hpp:77] Creating layer inception_3b/relu_pool_proj
I0501 18:30:40.421171 11735 net.cpp:84] Creating Layer inception_3b/relu_pool_proj
I0501 18:30:40.421180 11735 net.cpp:406] inception_3b/relu_pool_proj <- inception_3b/pool_proj
I0501 18:30:40.421188 11735 net.cpp:367] inception_3b/relu_pool_proj -> inception_3b/pool_proj (in-place)
I0501 18:30:40.421736 11735 net.cpp:122] Setting up inception_3b/relu_pool_proj
I0501 18:30:40.421751 11735 net.cpp:129] Top shape: 32 64 28 28 (1605632)
I0501 18:30:40.421756 11735 net.cpp:137] Memory required for data: 1030816256
I0501 18:30:40.421761 11735 layer_factory.hpp:77] Creating layer inception_3b/output
I0501 18:30:40.421772 11735 net.cpp:84] Creating Layer inception_3b/output
I0501 18:30:40.421777 11735 net.cpp:406] inception_3b/output <- inception_3b/1x1
I0501 18:30:40.421785 11735 net.cpp:406] inception_3b/output <- inception_3b/3x3
I0501 18:30:40.421819 11735 net.cpp:406] inception_3b/output <- inception_3b/5x5
I0501 18:30:40.421825 11735 net.cpp:406] inception_3b/output <- inception_3b/pool_proj
I0501 18:30:40.421834 11735 net.cpp:380] inception_3b/output -> inception_3b/output
I0501 18:30:40.421875 11735 net.cpp:122] Setting up inception_3b/output
I0501 18:30:40.421882 11735 net.cpp:129] Top shape: 32 480 28 28 (12042240)
I0501 18:30:40.421886 11735 net.cpp:137] Memory required for data: 1078985216
I0501 18:30:40.421892 11735 layer_factory.hpp:77] Creating layer pool3/3x3_s2
I0501 18:30:40.421905 11735 net.cpp:84] Creating Layer pool3/3x3_s2
I0501 18:30:40.421911 11735 net.cpp:406] pool3/3x3_s2 <- inception_3b/output
I0501 18:30:40.421918 11735 net.cpp:380] pool3/3x3_s2 -> pool3/3x3_s2
I0501 18:30:40.421965 11735 net.cpp:122] Setting up pool3/3x3_s2
I0501 18:30:40.421973 11735 net.cpp:129] Top shape: 32 480 14 14 (3010560)
I0501 18:30:40.421978 11735 net.cpp:137] Memory required for data: 1091027456
I0501 18:30:40.421983 11735 layer_factory.hpp:77] Creating layer pool3/3x3_s2_pool3/3x3_s2_0_split
I0501 18:30:40.421993 11735 net.cpp:84] Creating Layer pool3/3x3_s2_pool3/3x3_s2_0_split
I0501 18:30:40.421998 11735 net.cpp:406] pool3/3x3_s2_pool3/3x3_s2_0_split <- pool3/3x3_s2
I0501 18:30:40.422006 11735 net.cpp:380] pool3/3x3_s2_pool3/3x3_s2_0_split -> pool3/3x3_s2_pool3/3x3_s2_0_split_0
I0501 18:30:40.422015 11735 net.cpp:380] pool3/3x3_s2_pool3/3x3_s2_0_split -> pool3/3x3_s2_pool3/3x3_s2_0_split_1
I0501 18:30:40.422025 11735 net.cpp:380] pool3/3x3_s2_pool3/3x3_s2_0_split -> pool3/3x3_s2_pool3/3x3_s2_0_split_2
I0501 18:30:40.422034 11735 net.cpp:380] pool3/3x3_s2_pool3/3x3_s2_0_split -> pool3/3x3_s2_pool3/3x3_s2_0_split_3
I0501 18:30:40.422099 11735 net.cpp:122] Setting up pool3/3x3_s2_pool3/3x3_s2_0_split
I0501 18:30:40.422107 11735 net.cpp:129] Top shape: 32 480 14 14 (3010560)
I0501 18:30:40.422113 11735 net.cpp:129] Top shape: 32 480 14 14 (3010560)
I0501 18:30:40.422120 11735 net.cpp:129] Top shape: 32 480 14 14 (3010560)
I0501 18:30:40.422127 11735 net.cpp:129] Top shape: 32 480 14 14 (3010560)
I0501 18:30:40.422132 11735 net.cpp:137] Memory required for data: 1139196416
I0501 18:30:40.422137 11735 layer_factory.hpp:77] Creating layer inception_4a/1x1
I0501 18:30:40.422155 11735 net.cpp:84] Creating Layer inception_4a/1x1
I0501 18:30:40.422161 11735 net.cpp:406] inception_4a/1x1 <- pool3/3x3_s2_pool3/3x3_s2_0_split_0
I0501 18:30:40.422171 11735 net.cpp:380] inception_4a/1x1 -> inception_4a/1x1
I0501 18:30:40.426692 11735 net.cpp:122] Setting up inception_4a/1x1
I0501 18:30:40.426712 11735 net.cpp:129] Top shape: 32 192 14 14 (1204224)
I0501 18:30:40.426718 11735 net.cpp:137] Memory required for data: 1144013312
I0501 18:30:40.426729 11735 layer_factory.hpp:77] Creating layer inception_4a/relu_1x1
I0501 18:30:40.426741 11735 net.cpp:84] Creating Layer inception_4a/relu_1x1
I0501 18:30:40.426748 11735 net.cpp:406] inception_4a/relu_1x1 <- inception_4a/1x1
I0501 18:30:40.426755 11735 net.cpp:367] inception_4a/relu_1x1 -> inception_4a/1x1 (in-place)
I0501 18:30:40.427582 11735 net.cpp:122] Setting up inception_4a/relu_1x1
I0501 18:30:40.427595 11735 net.cpp:129] Top shape: 32 192 14 14 (1204224)
I0501 18:30:40.427600 11735 net.cpp:137] Memory required for data: 1148830208
I0501 18:30:40.427606 11735 layer_factory.hpp:77] Creating layer inception_4a/3x3_reduce
I0501 18:30:40.427623 11735 net.cpp:84] Creating Layer inception_4a/3x3_reduce
I0501 18:30:40.427628 11735 net.cpp:406] inception_4a/3x3_reduce <- pool3/3x3_s2_pool3/3x3_s2_0_split_1
I0501 18:30:40.427641 11735 net.cpp:380] inception_4a/3x3_reduce -> inception_4a/3x3_reduce
I0501 18:30:40.433285 11735 net.cpp:122] Setting up inception_4a/3x3_reduce
I0501 18:30:40.433313 11735 net.cpp:129] Top shape: 32 96 14 14 (602112)
I0501 18:30:40.433318 11735 net.cpp:137] Memory required for data: 1151238656
I0501 18:30:40.433342 11735 layer_factory.hpp:77] Creating layer inception_4a/relu_3x3_reduce
I0501 18:30:40.433358 11735 net.cpp:84] Creating Layer inception_4a/relu_3x3_reduce
I0501 18:30:40.433393 11735 net.cpp:406] inception_4a/relu_3x3_reduce <- inception_4a/3x3_reduce
I0501 18:30:40.433405 11735 net.cpp:367] inception_4a/relu_3x3_reduce -> inception_4a/3x3_reduce (in-place)
I0501 18:30:40.435930 11735 net.cpp:122] Setting up inception_4a/relu_3x3_reduce
I0501 18:30:40.435954 11735 net.cpp:129] Top shape: 32 96 14 14 (602112)
I0501 18:30:40.435959 11735 net.cpp:137] Memory required for data: 1153647104
I0501 18:30:40.435967 11735 layer_factory.hpp:77] Creating layer inception_4a/3x3
I0501 18:30:40.435988 11735 net.cpp:84] Creating Layer inception_4a/3x3
I0501 18:30:40.435997 11735 net.cpp:406] inception_4a/3x3 <- inception_4a/3x3_reduce
I0501 18:30:40.436010 11735 net.cpp:380] inception_4a/3x3 -> inception_4a/3x3
I0501 18:30:40.477092 11735 net.cpp:122] Setting up inception_4a/3x3
I0501 18:30:40.477125 11735 net.cpp:129] Top shape: 32 208 14 14 (1304576)
I0501 18:30:40.477133 11735 net.cpp:137] Memory required for data: 1158865408
I0501 18:30:40.477149 11735 layer_factory.hpp:77] Creating layer inception_4a/relu_3x3
I0501 18:30:40.477165 11735 net.cpp:84] Creating Layer inception_4a/relu_3x3
I0501 18:30:40.477174 11735 net.cpp:406] inception_4a/relu_3x3 <- inception_4a/3x3
I0501 18:30:40.477188 11735 net.cpp:367] inception_4a/relu_3x3 -> inception_4a/3x3 (in-place)
I0501 18:30:40.478029 11735 net.cpp:122] Setting up inception_4a/relu_3x3
I0501 18:30:40.478044 11735 net.cpp:129] Top shape: 32 208 14 14 (1304576)
I0501 18:30:40.478050 11735 net.cpp:137] Memory required for data: 1164083712
I0501 18:30:40.478056 11735 layer_factory.hpp:77] Creating layer inception_4a/5x5_reduce
I0501 18:30:40.478081 11735 net.cpp:84] Creating Layer inception_4a/5x5_reduce
I0501 18:30:40.478091 11735 net.cpp:406] inception_4a/5x5_reduce <- pool3/3x3_s2_pool3/3x3_s2_0_split_2
I0501 18:30:40.478103 11735 net.cpp:380] inception_4a/5x5_reduce -> inception_4a/5x5_reduce
I0501 18:30:40.480836 11735 net.cpp:122] Setting up inception_4a/5x5_reduce
I0501 18:30:40.480854 11735 net.cpp:129] Top shape: 32 16 14 14 (100352)
I0501 18:30:40.480859 11735 net.cpp:137] Memory required for data: 1164485120
I0501 18:30:40.480870 11735 layer_factory.hpp:77] Creating layer inception_4a/relu_5x5_reduce
I0501 18:30:40.480882 11735 net.cpp:84] Creating Layer inception_4a/relu_5x5_reduce
I0501 18:30:40.480890 11735 net.cpp:406] inception_4a/relu_5x5_reduce <- inception_4a/5x5_reduce
I0501 18:30:40.480901 11735 net.cpp:367] inception_4a/relu_5x5_reduce -> inception_4a/5x5_reduce (in-place)
I0501 18:30:40.487279 11735 net.cpp:122] Setting up inception_4a/relu_5x5_reduce
I0501 18:30:40.487308 11735 net.cpp:129] Top shape: 32 16 14 14 (100352)
I0501 18:30:40.487314 11735 net.cpp:137] Memory required for data: 1164886528
I0501 18:30:40.487321 11735 layer_factory.hpp:77] Creating layer inception_4a/5x5
I0501 18:30:40.487344 11735 net.cpp:84] Creating Layer inception_4a/5x5
I0501 18:30:40.487351 11735 net.cpp:406] inception_4a/5x5 <- inception_4a/5x5_reduce
I0501 18:30:40.487365 11735 net.cpp:380] inception_4a/5x5 -> inception_4a/5x5
I0501 18:30:40.499351 11735 net.cpp:122] Setting up inception_4a/5x5
I0501 18:30:40.499379 11735 net.cpp:129] Top shape: 32 48 14 14 (301056)
I0501 18:30:40.499385 11735 net.cpp:137] Memory required for data: 1166090752
I0501 18:30:40.499400 11735 layer_factory.hpp:77] Creating layer inception_4a/relu_5x5
I0501 18:30:40.499415 11735 net.cpp:84] Creating Layer inception_4a/relu_5x5
I0501 18:30:40.499423 11735 net.cpp:406] inception_4a/relu_5x5 <- inception_4a/5x5
I0501 18:30:40.499436 11735 net.cpp:367] inception_4a/relu_5x5 -> inception_4a/5x5 (in-place)
I0501 18:30:40.500025 11735 net.cpp:122] Setting up inception_4a/relu_5x5
I0501 18:30:40.500039 11735 net.cpp:129] Top shape: 32 48 14 14 (301056)
I0501 18:30:40.500044 11735 net.cpp:137] Memory required for data: 1167294976
I0501 18:30:40.500051 11735 layer_factory.hpp:77] Creating layer inception_4a/pool
I0501 18:30:40.500064 11735 net.cpp:84] Creating Layer inception_4a/pool
I0501 18:30:40.500072 11735 net.cpp:406] inception_4a/pool <- pool3/3x3_s2_pool3/3x3_s2_0_split_3
I0501 18:30:40.500111 11735 net.cpp:380] inception_4a/pool -> inception_4a/pool
I0501 18:30:40.500178 11735 net.cpp:122] Setting up inception_4a/pool
I0501 18:30:40.500190 11735 net.cpp:129] Top shape: 32 480 14 14 (3010560)
I0501 18:30:40.500195 11735 net.cpp:137] Memory required for data: 1179337216
I0501 18:30:40.500201 11735 layer_factory.hpp:77] Creating layer inception_4a/pool_proj
I0501 18:30:40.500221 11735 net.cpp:84] Creating Layer inception_4a/pool_proj
I0501 18:30:40.500228 11735 net.cpp:406] inception_4a/pool_proj <- inception_4a/pool
I0501 18:30:40.500241 11735 net.cpp:380] inception_4a/pool_proj -> inception_4a/pool_proj
I0501 18:30:40.507320 11735 net.cpp:122] Setting up inception_4a/pool_proj
I0501 18:30:40.507339 11735 net.cpp:129] Top shape: 32 64 14 14 (401408)
I0501 18:30:40.507345 11735 net.cpp:137] Memory required for data: 1180942848
I0501 18:30:40.507359 11735 layer_factory.hpp:77] Creating layer inception_4a/relu_pool_proj
I0501 18:30:40.507370 11735 net.cpp:84] Creating Layer inception_4a/relu_pool_proj
I0501 18:30:40.507378 11735 net.cpp:406] inception_4a/relu_pool_proj <- inception_4a/pool_proj
I0501 18:30:40.507390 11735 net.cpp:367] inception_4a/relu_pool_proj -> inception_4a/pool_proj (in-place)
I0501 18:30:40.509122 11735 net.cpp:122] Setting up inception_4a/relu_pool_proj
I0501 18:30:40.509135 11735 net.cpp:129] Top shape: 32 64 14 14 (401408)
I0501 18:30:40.509141 11735 net.cpp:137] Memory required for data: 1182548480
I0501 18:30:40.509146 11735 layer_factory.hpp:77] Creating layer inception_4a/output
I0501 18:30:40.509156 11735 net.cpp:84] Creating Layer inception_4a/output
I0501 18:30:40.509162 11735 net.cpp:406] inception_4a/output <- inception_4a/1x1
I0501 18:30:40.509169 11735 net.cpp:406] inception_4a/output <- inception_4a/3x3
I0501 18:30:40.509176 11735 net.cpp:406] inception_4a/output <- inception_4a/5x5
I0501 18:30:40.509182 11735 net.cpp:406] inception_4a/output <- inception_4a/pool_proj
I0501 18:30:40.509196 11735 net.cpp:380] inception_4a/output -> inception_4a/output
I0501 18:30:40.509241 11735 net.cpp:122] Setting up inception_4a/output
I0501 18:30:40.509253 11735 net.cpp:129] Top shape: 32 512 14 14 (3211264)
I0501 18:30:40.509258 11735 net.cpp:137] Memory required for data: 1195393536
I0501 18:30:40.509263 11735 layer_factory.hpp:77] Creating layer inception_4a/output_inception_4a/output_0_split
I0501 18:30:40.509271 11735 net.cpp:84] Creating Layer inception_4a/output_inception_4a/output_0_split
I0501 18:30:40.509277 11735 net.cpp:406] inception_4a/output_inception_4a/output_0_split <- inception_4a/output
I0501 18:30:40.509289 11735 net.cpp:380] inception_4a/output_inception_4a/output_0_split -> inception_4a/output_inception_4a/output_0_split_0
I0501 18:30:40.509300 11735 net.cpp:380] inception_4a/output_inception_4a/output_0_split -> inception_4a/output_inception_4a/output_0_split_1
I0501 18:30:40.509310 11735 net.cpp:380] inception_4a/output_inception_4a/output_0_split -> inception_4a/output_inception_4a/output_0_split_2
I0501 18:30:40.509323 11735 net.cpp:380] inception_4a/output_inception_4a/output_0_split -> inception_4a/output_inception_4a/output_0_split_3
I0501 18:30:40.509332 11735 net.cpp:380] inception_4a/output_inception_4a/output_0_split -> inception_4a/output_inception_4a/output_0_split_4
I0501 18:30:40.509431 11735 net.cpp:122] Setting up inception_4a/output_inception_4a/output_0_split
I0501 18:30:40.509443 11735 net.cpp:129] Top shape: 32 512 14 14 (3211264)
I0501 18:30:40.509449 11735 net.cpp:129] Top shape: 32 512 14 14 (3211264)
I0501 18:30:40.509456 11735 net.cpp:129] Top shape: 32 512 14 14 (3211264)
I0501 18:30:40.509462 11735 net.cpp:129] Top shape: 32 512 14 14 (3211264)
I0501 18:30:40.509469 11735 net.cpp:129] Top shape: 32 512 14 14 (3211264)
I0501 18:30:40.509472 11735 net.cpp:137] Memory required for data: 1259618816
I0501 18:30:40.509479 11735 layer_factory.hpp:77] Creating layer loss1/ave_pool
I0501 18:30:40.509487 11735 net.cpp:84] Creating Layer loss1/ave_pool
I0501 18:30:40.509493 11735 net.cpp:406] loss1/ave_pool <- inception_4a/output_inception_4a/output_0_split_0
I0501 18:30:40.509529 11735 net.cpp:380] loss1/ave_pool -> loss1/ave_pool
I0501 18:30:40.510126 11735 net.cpp:122] Setting up loss1/ave_pool
I0501 18:30:40.510140 11735 net.cpp:129] Top shape: 32 512 4 4 (262144)
I0501 18:30:40.510146 11735 net.cpp:137] Memory required for data: 1260667392
I0501 18:30:40.510151 11735 layer_factory.hpp:77] Creating layer loss1/conv
I0501 18:30:40.510169 11735 net.cpp:84] Creating Layer loss1/conv
I0501 18:30:40.510174 11735 net.cpp:406] loss1/conv <- loss1/ave_pool
I0501 18:30:40.510186 11735 net.cpp:380] loss1/conv -> loss1/conv
I0501 18:30:40.611780 11735 net.cpp:122] Setting up loss1/conv
I0501 18:30:40.611807 11735 net.cpp:129] Top shape: 32 128 4 4 (65536)
I0501 18:30:40.611812 11735 net.cpp:137] Memory required for data: 1260929536
I0501 18:30:40.611826 11735 layer_factory.hpp:77] Creating layer loss1/relu_conv
I0501 18:30:40.611840 11735 net.cpp:84] Creating Layer loss1/relu_conv
I0501 18:30:40.611845 11735 net.cpp:406] loss1/relu_conv <- loss1/conv
I0501 18:30:40.611856 11735 net.cpp:367] loss1/relu_conv -> loss1/conv (in-place)
I0501 18:30:40.612731 11735 net.cpp:122] Setting up loss1/relu_conv
I0501 18:30:40.612746 11735 net.cpp:129] Top shape: 32 128 4 4 (65536)
I0501 18:30:40.612751 11735 net.cpp:137] Memory required for data: 1261191680
I0501 18:30:40.612756 11735 layer_factory.hpp:77] Creating layer loss1/fc
I0501 18:30:40.612767 11735 net.cpp:84] Creating Layer loss1/fc
I0501 18:30:40.612772 11735 net.cpp:406] loss1/fc <- loss1/conv
I0501 18:30:40.612782 11735 net.cpp:380] loss1/fc -> loss1/fc
I0501 18:30:40.648332 11735 net.cpp:122] Setting up loss1/fc
I0501 18:30:40.648360 11735 net.cpp:129] Top shape: 32 1024 (32768)
I0501 18:30:40.648366 11735 net.cpp:137] Memory required for data: 1261322752
I0501 18:30:40.648380 11735 layer_factory.hpp:77] Creating layer loss1/relu_fc
I0501 18:30:40.648392 11735 net.cpp:84] Creating Layer loss1/relu_fc
I0501 18:30:40.648401 11735 net.cpp:406] loss1/relu_fc <- loss1/fc
I0501 18:30:40.648414 11735 net.cpp:367] loss1/relu_fc -> loss1/fc (in-place)
I0501 18:30:40.649067 11735 net.cpp:122] Setting up loss1/relu_fc
I0501 18:30:40.649080 11735 net.cpp:129] Top shape: 32 1024 (32768)
I0501 18:30:40.649085 11735 net.cpp:137] Memory required for data: 1261453824
I0501 18:30:40.649091 11735 layer_factory.hpp:77] Creating layer loss1/drop_fc
I0501 18:30:40.649122 11735 net.cpp:84] Creating Layer loss1/drop_fc
I0501 18:30:40.649129 11735 net.cpp:406] loss1/drop_fc <- loss1/fc
I0501 18:30:40.649137 11735 net.cpp:367] loss1/drop_fc -> loss1/fc (in-place)
I0501 18:30:40.649180 11735 net.cpp:122] Setting up loss1/drop_fc
I0501 18:30:40.649191 11735 net.cpp:129] Top shape: 32 1024 (32768)
I0501 18:30:40.649195 11735 net.cpp:137] Memory required for data: 1261584896
I0501 18:30:40.649201 11735 layer_factory.hpp:77] Creating layer loss1/classifier
I0501 18:30:40.649214 11735 net.cpp:84] Creating Layer loss1/classifier
I0501 18:30:40.649219 11735 net.cpp:406] loss1/classifier <- loss1/fc
I0501 18:30:40.649230 11735 net.cpp:380] loss1/classifier -> loss1/classifier
I0501 18:30:40.655426 11735 net.cpp:122] Setting up loss1/classifier
I0501 18:30:40.655443 11735 net.cpp:129] Top shape: 32 196 (6272)
I0501 18:30:40.655448 11735 net.cpp:137] Memory required for data: 1261609984
I0501 18:30:40.655460 11735 layer_factory.hpp:77] Creating layer loss1/loss
I0501 18:30:40.655472 11735 net.cpp:84] Creating Layer loss1/loss
I0501 18:30:40.655478 11735 net.cpp:406] loss1/loss <- loss1/classifier
I0501 18:30:40.655486 11735 net.cpp:406] loss1/loss <- label_train-data_1_split_0
I0501 18:30:40.655493 11735 net.cpp:380] loss1/loss -> loss1/loss
I0501 18:30:40.655508 11735 layer_factory.hpp:77] Creating layer loss1/loss
I0501 18:30:40.656378 11735 net.cpp:122] Setting up loss1/loss
I0501 18:30:40.656389 11735 net.cpp:129] Top shape: (1)
I0501 18:30:40.656394 11735 net.cpp:132]     with loss weight 0.3
I0501 18:30:40.656416 11735 net.cpp:137] Memory required for data: 1261609988
I0501 18:30:40.656421 11735 layer_factory.hpp:77] Creating layer inception_4b/1x1
I0501 18:30:40.656462 11735 net.cpp:84] Creating Layer inception_4b/1x1
I0501 18:30:40.656469 11735 net.cpp:406] inception_4b/1x1 <- inception_4a/output_inception_4a/output_0_split_1
I0501 18:30:40.656478 11735 net.cpp:380] inception_4b/1x1 -> inception_4b/1x1
I0501 18:30:40.660071 11735 net.cpp:122] Setting up inception_4b/1x1
I0501 18:30:40.660094 11735 net.cpp:129] Top shape: 32 160 14 14 (1003520)
I0501 18:30:40.660099 11735 net.cpp:137] Memory required for data: 1265624068
I0501 18:30:40.660112 11735 layer_factory.hpp:77] Creating layer inception_4b/relu_1x1
I0501 18:30:40.660126 11735 net.cpp:84] Creating Layer inception_4b/relu_1x1
I0501 18:30:40.660132 11735 net.cpp:406] inception_4b/relu_1x1 <- inception_4b/1x1
I0501 18:30:40.660141 11735 net.cpp:367] inception_4b/relu_1x1 -> inception_4b/1x1 (in-place)
I0501 18:30:40.660854 11735 net.cpp:122] Setting up inception_4b/relu_1x1
I0501 18:30:40.660866 11735 net.cpp:129] Top shape: 32 160 14 14 (1003520)
I0501 18:30:40.660872 11735 net.cpp:137] Memory required for data: 1269638148
I0501 18:30:40.660877 11735 layer_factory.hpp:77] Creating layer inception_4b/3x3_reduce
I0501 18:30:40.660898 11735 net.cpp:84] Creating Layer inception_4b/3x3_reduce
I0501 18:30:40.660904 11735 net.cpp:406] inception_4b/3x3_reduce <- inception_4a/output_inception_4a/output_0_split_2
I0501 18:30:40.660917 11735 net.cpp:380] inception_4b/3x3_reduce -> inception_4b/3x3_reduce
I0501 18:30:40.666357 11735 net.cpp:122] Setting up inception_4b/3x3_reduce
I0501 18:30:40.666378 11735 net.cpp:129] Top shape: 32 112 14 14 (702464)
I0501 18:30:40.666383 11735 net.cpp:137] Memory required for data: 1272448004
I0501 18:30:40.666394 11735 layer_factory.hpp:77] Creating layer inception_4b/relu_3x3_reduce
I0501 18:30:40.666405 11735 net.cpp:84] Creating Layer inception_4b/relu_3x3_reduce
I0501 18:30:40.666414 11735 net.cpp:406] inception_4b/relu_3x3_reduce <- inception_4b/3x3_reduce
I0501 18:30:40.666424 11735 net.cpp:367] inception_4b/relu_3x3_reduce -> inception_4b/3x3_reduce (in-place)
I0501 18:30:40.666955 11735 net.cpp:122] Setting up inception_4b/relu_3x3_reduce
I0501 18:30:40.666966 11735 net.cpp:129] Top shape: 32 112 14 14 (702464)
I0501 18:30:40.666971 11735 net.cpp:137] Memory required for data: 1275257860
I0501 18:30:40.666977 11735 layer_factory.hpp:77] Creating layer inception_4b/3x3
I0501 18:30:40.666992 11735 net.cpp:84] Creating Layer inception_4b/3x3
I0501 18:30:40.666998 11735 net.cpp:406] inception_4b/3x3 <- inception_4b/3x3_reduce
I0501 18:30:40.667008 11735 net.cpp:380] inception_4b/3x3 -> inception_4b/3x3
I0501 18:30:40.681265 11735 net.cpp:122] Setting up inception_4b/3x3
I0501 18:30:40.681295 11735 net.cpp:129] Top shape: 32 224 14 14 (1404928)
I0501 18:30:40.681300 11735 net.cpp:137] Memory required for data: 1280877572
I0501 18:30:40.681314 11735 layer_factory.hpp:77] Creating layer inception_4b/relu_3x3
I0501 18:30:40.681329 11735 net.cpp:84] Creating Layer inception_4b/relu_3x3
I0501 18:30:40.681336 11735 net.cpp:406] inception_4b/relu_3x3 <- inception_4b/3x3
I0501 18:30:40.681345 11735 net.cpp:367] inception_4b/relu_3x3 -> inception_4b/3x3 (in-place)
I0501 18:30:40.682057 11735 net.cpp:122] Setting up inception_4b/relu_3x3
I0501 18:30:40.682075 11735 net.cpp:129] Top shape: 32 224 14 14 (1404928)
I0501 18:30:40.682078 11735 net.cpp:137] Memory required for data: 1286497284
I0501 18:30:40.682085 11735 layer_factory.hpp:77] Creating layer inception_4b/5x5_reduce
I0501 18:30:40.682104 11735 net.cpp:84] Creating Layer inception_4b/5x5_reduce
I0501 18:30:40.682111 11735 net.cpp:406] inception_4b/5x5_reduce <- inception_4a/output_inception_4a/output_0_split_3
I0501 18:30:40.682123 11735 net.cpp:380] inception_4b/5x5_reduce -> inception_4b/5x5_reduce
I0501 18:30:40.691180 11735 net.cpp:122] Setting up inception_4b/5x5_reduce
I0501 18:30:40.691210 11735 net.cpp:129] Top shape: 32 24 14 14 (150528)
I0501 18:30:40.691215 11735 net.cpp:137] Memory required for data: 1287099396
I0501 18:30:40.691229 11735 layer_factory.hpp:77] Creating layer inception_4b/relu_5x5_reduce
I0501 18:30:40.691267 11735 net.cpp:84] Creating Layer inception_4b/relu_5x5_reduce
I0501 18:30:40.691275 11735 net.cpp:406] inception_4b/relu_5x5_reduce <- inception_4b/5x5_reduce
I0501 18:30:40.691284 11735 net.cpp:367] inception_4b/relu_5x5_reduce -> inception_4b/5x5_reduce (in-place)
I0501 18:30:40.692077 11735 net.cpp:122] Setting up inception_4b/relu_5x5_reduce
I0501 18:30:40.692092 11735 net.cpp:129] Top shape: 32 24 14 14 (150528)
I0501 18:30:40.692097 11735 net.cpp:137] Memory required for data: 1287701508
I0501 18:30:40.692102 11735 layer_factory.hpp:77] Creating layer inception_4b/5x5
I0501 18:30:40.692121 11735 net.cpp:84] Creating Layer inception_4b/5x5
I0501 18:30:40.692128 11735 net.cpp:406] inception_4b/5x5 <- inception_4b/5x5_reduce
I0501 18:30:40.692138 11735 net.cpp:380] inception_4b/5x5 -> inception_4b/5x5
I0501 18:30:40.735752 11735 net.cpp:122] Setting up inception_4b/5x5
I0501 18:30:40.735777 11735 net.cpp:129] Top shape: 32 64 14 14 (401408)
I0501 18:30:40.735782 11735 net.cpp:137] Memory required for data: 1289307140
I0501 18:30:40.735795 11735 layer_factory.hpp:77] Creating layer inception_4b/relu_5x5
I0501 18:30:40.735807 11735 net.cpp:84] Creating Layer inception_4b/relu_5x5
I0501 18:30:40.735814 11735 net.cpp:406] inception_4b/relu_5x5 <- inception_4b/5x5
I0501 18:30:40.735827 11735 net.cpp:367] inception_4b/relu_5x5 -> inception_4b/5x5 (in-place)
I0501 18:30:40.736519 11735 net.cpp:122] Setting up inception_4b/relu_5x5
I0501 18:30:40.736532 11735 net.cpp:129] Top shape: 32 64 14 14 (401408)
I0501 18:30:40.736537 11735 net.cpp:137] Memory required for data: 1290912772
I0501 18:30:40.736542 11735 layer_factory.hpp:77] Creating layer inception_4b/pool
I0501 18:30:40.736552 11735 net.cpp:84] Creating Layer inception_4b/pool
I0501 18:30:40.736557 11735 net.cpp:406] inception_4b/pool <- inception_4a/output_inception_4a/output_0_split_4
I0501 18:30:40.736568 11735 net.cpp:380] inception_4b/pool -> inception_4b/pool
I0501 18:30:40.736636 11735 net.cpp:122] Setting up inception_4b/pool
I0501 18:30:40.736644 11735 net.cpp:129] Top shape: 32 512 14 14 (3211264)
I0501 18:30:40.736649 11735 net.cpp:137] Memory required for data: 1303757828
I0501 18:30:40.736654 11735 layer_factory.hpp:77] Creating layer inception_4b/pool_proj
I0501 18:30:40.736670 11735 net.cpp:84] Creating Layer inception_4b/pool_proj
I0501 18:30:40.736675 11735 net.cpp:406] inception_4b/pool_proj <- inception_4b/pool
I0501 18:30:40.736683 11735 net.cpp:380] inception_4b/pool_proj -> inception_4b/pool_proj
I0501 18:30:40.739078 11735 net.cpp:122] Setting up inception_4b/pool_proj
I0501 18:30:40.739091 11735 net.cpp:129] Top shape: 32 64 14 14 (401408)
I0501 18:30:40.739096 11735 net.cpp:137] Memory required for data: 1305363460
I0501 18:30:40.739105 11735 layer_factory.hpp:77] Creating layer inception_4b/relu_pool_proj
I0501 18:30:40.739114 11735 net.cpp:84] Creating Layer inception_4b/relu_pool_proj
I0501 18:30:40.739120 11735 net.cpp:406] inception_4b/relu_pool_proj <- inception_4b/pool_proj
I0501 18:30:40.739127 11735 net.cpp:367] inception_4b/relu_pool_proj -> inception_4b/pool_proj (in-place)
I0501 18:30:40.739812 11735 net.cpp:122] Setting up inception_4b/relu_pool_proj
I0501 18:30:40.739823 11735 net.cpp:129] Top shape: 32 64 14 14 (401408)
I0501 18:30:40.739830 11735 net.cpp:137] Memory required for data: 1306969092
I0501 18:30:40.739835 11735 layer_factory.hpp:77] Creating layer inception_4b/output
I0501 18:30:40.739843 11735 net.cpp:84] Creating Layer inception_4b/output
I0501 18:30:40.739850 11735 net.cpp:406] inception_4b/output <- inception_4b/1x1
I0501 18:30:40.739856 11735 net.cpp:406] inception_4b/output <- inception_4b/3x3
I0501 18:30:40.739861 11735 net.cpp:406] inception_4b/output <- inception_4b/5x5
I0501 18:30:40.739866 11735 net.cpp:406] inception_4b/output <- inception_4b/pool_proj
I0501 18:30:40.739873 11735 net.cpp:380] inception_4b/output -> inception_4b/output
I0501 18:30:40.739910 11735 net.cpp:122] Setting up inception_4b/output
I0501 18:30:40.739918 11735 net.cpp:129] Top shape: 32 512 14 14 (3211264)
I0501 18:30:40.739946 11735 net.cpp:137] Memory required for data: 1319814148
I0501 18:30:40.739951 11735 layer_factory.hpp:77] Creating layer inception_4b/output_inception_4b/output_0_split
I0501 18:30:40.739961 11735 net.cpp:84] Creating Layer inception_4b/output_inception_4b/output_0_split
I0501 18:30:40.739966 11735 net.cpp:406] inception_4b/output_inception_4b/output_0_split <- inception_4b/output
I0501 18:30:40.739974 11735 net.cpp:380] inception_4b/output_inception_4b/output_0_split -> inception_4b/output_inception_4b/output_0_split_0
I0501 18:30:40.739984 11735 net.cpp:380] inception_4b/output_inception_4b/output_0_split -> inception_4b/output_inception_4b/output_0_split_1
I0501 18:30:40.739993 11735 net.cpp:380] inception_4b/output_inception_4b/output_0_split -> inception_4b/output_inception_4b/output_0_split_2
I0501 18:30:40.740001 11735 net.cpp:380] inception_4b/output_inception_4b/output_0_split -> inception_4b/output_inception_4b/output_0_split_3
I0501 18:30:40.740069 11735 net.cpp:122] Setting up inception_4b/output_inception_4b/output_0_split
I0501 18:30:40.740077 11735 net.cpp:129] Top shape: 32 512 14 14 (3211264)
I0501 18:30:40.740082 11735 net.cpp:129] Top shape: 32 512 14 14 (3211264)
I0501 18:30:40.740088 11735 net.cpp:129] Top shape: 32 512 14 14 (3211264)
I0501 18:30:40.740094 11735 net.cpp:129] Top shape: 32 512 14 14 (3211264)
I0501 18:30:40.740098 11735 net.cpp:137] Memory required for data: 1371194372
I0501 18:30:40.740103 11735 layer_factory.hpp:77] Creating layer inception_4c/1x1
I0501 18:30:40.740116 11735 net.cpp:84] Creating Layer inception_4c/1x1
I0501 18:30:40.740121 11735 net.cpp:406] inception_4c/1x1 <- inception_4b/output_inception_4b/output_0_split_0
I0501 18:30:40.740129 11735 net.cpp:380] inception_4c/1x1 -> inception_4c/1x1
I0501 18:30:40.754689 11735 net.cpp:122] Setting up inception_4c/1x1
I0501 18:30:40.754715 11735 net.cpp:129] Top shape: 32 128 14 14 (802816)
I0501 18:30:40.754720 11735 net.cpp:137] Memory required for data: 1374405636
I0501 18:30:40.754734 11735 layer_factory.hpp:77] Creating layer inception_4c/relu_1x1
I0501 18:30:40.754746 11735 net.cpp:84] Creating Layer inception_4c/relu_1x1
I0501 18:30:40.754753 11735 net.cpp:406] inception_4c/relu_1x1 <- inception_4c/1x1
I0501 18:30:40.754763 11735 net.cpp:367] inception_4c/relu_1x1 -> inception_4c/1x1 (in-place)
I0501 18:30:40.755266 11735 net.cpp:122] Setting up inception_4c/relu_1x1
I0501 18:30:40.755277 11735 net.cpp:129] Top shape: 32 128 14 14 (802816)
I0501 18:30:40.755282 11735 net.cpp:137] Memory required for data: 1377616900
I0501 18:30:40.755287 11735 layer_factory.hpp:77] Creating layer inception_4c/3x3_reduce
I0501 18:30:40.755303 11735 net.cpp:84] Creating Layer inception_4c/3x3_reduce
I0501 18:30:40.755309 11735 net.cpp:406] inception_4c/3x3_reduce <- inception_4b/output_inception_4b/output_0_split_1
I0501 18:30:40.755321 11735 net.cpp:380] inception_4c/3x3_reduce -> inception_4c/3x3_reduce
I0501 18:30:40.760519 11735 net.cpp:122] Setting up inception_4c/3x3_reduce
I0501 18:30:40.760545 11735 net.cpp:129] Top shape: 32 128 14 14 (802816)
I0501 18:30:40.760550 11735 net.cpp:137] Memory required for data: 1380828164
I0501 18:30:40.760563 11735 layer_factory.hpp:77] Creating layer inception_4c/relu_3x3_reduce
I0501 18:30:40.760581 11735 net.cpp:84] Creating Layer inception_4c/relu_3x3_reduce
I0501 18:30:40.760589 11735 net.cpp:406] inception_4c/relu_3x3_reduce <- inception_4c/3x3_reduce
I0501 18:30:40.760599 11735 net.cpp:367] inception_4c/relu_3x3_reduce -> inception_4c/3x3_reduce (in-place)
I0501 18:30:40.761348 11735 net.cpp:122] Setting up inception_4c/relu_3x3_reduce
I0501 18:30:40.761366 11735 net.cpp:129] Top shape: 32 128 14 14 (802816)
I0501 18:30:40.761371 11735 net.cpp:137] Memory required for data: 1384039428
I0501 18:30:40.761379 11735 layer_factory.hpp:77] Creating layer inception_4c/3x3
I0501 18:30:40.761396 11735 net.cpp:84] Creating Layer inception_4c/3x3
I0501 18:30:40.761404 11735 net.cpp:406] inception_4c/3x3 <- inception_4c/3x3_reduce
I0501 18:30:40.761415 11735 net.cpp:380] inception_4c/3x3 -> inception_4c/3x3
I0501 18:30:40.781464 11735 net.cpp:122] Setting up inception_4c/3x3
I0501 18:30:40.781491 11735 net.cpp:129] Top shape: 32 256 14 14 (1605632)
I0501 18:30:40.781497 11735 net.cpp:137] Memory required for data: 1390461956
I0501 18:30:40.781524 11735 layer_factory.hpp:77] Creating layer inception_4c/relu_3x3
I0501 18:30:40.781538 11735 net.cpp:84] Creating Layer inception_4c/relu_3x3
I0501 18:30:40.781544 11735 net.cpp:406] inception_4c/relu_3x3 <- inception_4c/3x3
I0501 18:30:40.781554 11735 net.cpp:367] inception_4c/relu_3x3 -> inception_4c/3x3 (in-place)
I0501 18:30:40.782240 11735 net.cpp:122] Setting up inception_4c/relu_3x3
I0501 18:30:40.782253 11735 net.cpp:129] Top shape: 32 256 14 14 (1605632)
I0501 18:30:40.782258 11735 net.cpp:137] Memory required for data: 1396884484
I0501 18:30:40.782263 11735 layer_factory.hpp:77] Creating layer inception_4c/5x5_reduce
I0501 18:30:40.782279 11735 net.cpp:84] Creating Layer inception_4c/5x5_reduce
I0501 18:30:40.782284 11735 net.cpp:406] inception_4c/5x5_reduce <- inception_4b/output_inception_4b/output_0_split_2
I0501 18:30:40.782295 11735 net.cpp:380] inception_4c/5x5_reduce -> inception_4c/5x5_reduce
I0501 18:30:40.810856 11735 net.cpp:122] Setting up inception_4c/5x5_reduce
I0501 18:30:40.810881 11735 net.cpp:129] Top shape: 32 24 14 14 (150528)
I0501 18:30:40.810886 11735 net.cpp:137] Memory required for data: 1397486596
I0501 18:30:40.810899 11735 layer_factory.hpp:77] Creating layer inception_4c/relu_5x5_reduce
I0501 18:30:40.810911 11735 net.cpp:84] Creating Layer inception_4c/relu_5x5_reduce
I0501 18:30:40.810920 11735 net.cpp:406] inception_4c/relu_5x5_reduce <- inception_4c/5x5_reduce
I0501 18:30:40.810931 11735 net.cpp:367] inception_4c/relu_5x5_reduce -> inception_4c/5x5_reduce (in-place)
I0501 18:30:40.811627 11735 net.cpp:122] Setting up inception_4c/relu_5x5_reduce
I0501 18:30:40.811641 11735 net.cpp:129] Top shape: 32 24 14 14 (150528)
I0501 18:30:40.811646 11735 net.cpp:137] Memory required for data: 1398088708
I0501 18:30:40.811651 11735 layer_factory.hpp:77] Creating layer inception_4c/5x5
I0501 18:30:40.811668 11735 net.cpp:84] Creating Layer inception_4c/5x5
I0501 18:30:40.811673 11735 net.cpp:406] inception_4c/5x5 <- inception_4c/5x5_reduce
I0501 18:30:40.811683 11735 net.cpp:380] inception_4c/5x5 -> inception_4c/5x5
I0501 18:30:40.814337 11735 net.cpp:122] Setting up inception_4c/5x5
I0501 18:30:40.814357 11735 net.cpp:129] Top shape: 32 64 14 14 (401408)
I0501 18:30:40.814363 11735 net.cpp:137] Memory required for data: 1399694340
I0501 18:30:40.814373 11735 layer_factory.hpp:77] Creating layer inception_4c/relu_5x5
I0501 18:30:40.814384 11735 net.cpp:84] Creating Layer inception_4c/relu_5x5
I0501 18:30:40.814390 11735 net.cpp:406] inception_4c/relu_5x5 <- inception_4c/5x5
I0501 18:30:40.814401 11735 net.cpp:367] inception_4c/relu_5x5 -> inception_4c/5x5 (in-place)
I0501 18:30:40.817312 11735 net.cpp:122] Setting up inception_4c/relu_5x5
I0501 18:30:40.817334 11735 net.cpp:129] Top shape: 32 64 14 14 (401408)
I0501 18:30:40.817339 11735 net.cpp:137] Memory required for data: 1401299972
I0501 18:30:40.817346 11735 layer_factory.hpp:77] Creating layer inception_4c/pool
I0501 18:30:40.817361 11735 net.cpp:84] Creating Layer inception_4c/pool
I0501 18:30:40.817369 11735 net.cpp:406] inception_4c/pool <- inception_4b/output_inception_4b/output_0_split_3
I0501 18:30:40.817379 11735 net.cpp:380] inception_4c/pool -> inception_4c/pool
I0501 18:30:40.817446 11735 net.cpp:122] Setting up inception_4c/pool
I0501 18:30:40.817453 11735 net.cpp:129] Top shape: 32 512 14 14 (3211264)
I0501 18:30:40.817458 11735 net.cpp:137] Memory required for data: 1414145028
I0501 18:30:40.817463 11735 layer_factory.hpp:77] Creating layer inception_4c/pool_proj
I0501 18:30:40.817479 11735 net.cpp:84] Creating Layer inception_4c/pool_proj
I0501 18:30:40.817484 11735 net.cpp:406] inception_4c/pool_proj <- inception_4c/pool
I0501 18:30:40.817494 11735 net.cpp:380] inception_4c/pool_proj -> inception_4c/pool_proj
I0501 18:30:40.824566 11735 net.cpp:122] Setting up inception_4c/pool_proj
I0501 18:30:40.824615 11735 net.cpp:129] Top shape: 32 64 14 14 (401408)
I0501 18:30:40.824622 11735 net.cpp:137] Memory required for data: 1415750660
I0501 18:30:40.824637 11735 layer_factory.hpp:77] Creating layer inception_4c/relu_pool_proj
I0501 18:30:40.824651 11735 net.cpp:84] Creating Layer inception_4c/relu_pool_proj
I0501 18:30:40.824662 11735 net.cpp:406] inception_4c/relu_pool_proj <- inception_4c/pool_proj
I0501 18:30:40.824673 11735 net.cpp:367] inception_4c/relu_pool_proj -> inception_4c/pool_proj (in-place)
I0501 18:30:40.825271 11735 net.cpp:122] Setting up inception_4c/relu_pool_proj
I0501 18:30:40.825286 11735 net.cpp:129] Top shape: 32 64 14 14 (401408)
I0501 18:30:40.825292 11735 net.cpp:137] Memory required for data: 1417356292
I0501 18:30:40.825297 11735 layer_factory.hpp:77] Creating layer inception_4c/output
I0501 18:30:40.825307 11735 net.cpp:84] Creating Layer inception_4c/output
I0501 18:30:40.825314 11735 net.cpp:406] inception_4c/output <- inception_4c/1x1
I0501 18:30:40.825320 11735 net.cpp:406] inception_4c/output <- inception_4c/3x3
I0501 18:30:40.825327 11735 net.cpp:406] inception_4c/output <- inception_4c/5x5
I0501 18:30:40.825333 11735 net.cpp:406] inception_4c/output <- inception_4c/pool_proj
I0501 18:30:40.825340 11735 net.cpp:380] inception_4c/output -> inception_4c/output
I0501 18:30:40.825383 11735 net.cpp:122] Setting up inception_4c/output
I0501 18:30:40.825393 11735 net.cpp:129] Top shape: 32 512 14 14 (3211264)
I0501 18:30:40.825398 11735 net.cpp:137] Memory required for data: 1430201348
I0501 18:30:40.825403 11735 layer_factory.hpp:77] Creating layer inception_4c/output_inception_4c/output_0_split
I0501 18:30:40.825414 11735 net.cpp:84] Creating Layer inception_4c/output_inception_4c/output_0_split
I0501 18:30:40.825419 11735 net.cpp:406] inception_4c/output_inception_4c/output_0_split <- inception_4c/output
I0501 18:30:40.825428 11735 net.cpp:380] inception_4c/output_inception_4c/output_0_split -> inception_4c/output_inception_4c/output_0_split_0
I0501 18:30:40.825438 11735 net.cpp:380] inception_4c/output_inception_4c/output_0_split -> inception_4c/output_inception_4c/output_0_split_1
I0501 18:30:40.825446 11735 net.cpp:380] inception_4c/output_inception_4c/output_0_split -> inception_4c/output_inception_4c/output_0_split_2
I0501 18:30:40.825454 11735 net.cpp:380] inception_4c/output_inception_4c/output_0_split -> inception_4c/output_inception_4c/output_0_split_3
I0501 18:30:40.825523 11735 net.cpp:122] Setting up inception_4c/output_inception_4c/output_0_split
I0501 18:30:40.825531 11735 net.cpp:129] Top shape: 32 512 14 14 (3211264)
I0501 18:30:40.825537 11735 net.cpp:129] Top shape: 32 512 14 14 (3211264)
I0501 18:30:40.825542 11735 net.cpp:129] Top shape: 32 512 14 14 (3211264)
I0501 18:30:40.825548 11735 net.cpp:129] Top shape: 32 512 14 14 (3211264)
I0501 18:30:40.825552 11735 net.cpp:137] Memory required for data: 1481581572
I0501 18:30:40.825557 11735 layer_factory.hpp:77] Creating layer inception_4d/1x1
I0501 18:30:40.825572 11735 net.cpp:84] Creating Layer inception_4d/1x1
I0501 18:30:40.825578 11735 net.cpp:406] inception_4d/1x1 <- inception_4c/output_inception_4c/output_0_split_0
I0501 18:30:40.825585 11735 net.cpp:380] inception_4d/1x1 -> inception_4d/1x1
I0501 18:30:40.845841 11735 net.cpp:122] Setting up inception_4d/1x1
I0501 18:30:40.845865 11735 net.cpp:129] Top shape: 32 112 14 14 (702464)
I0501 18:30:40.845871 11735 net.cpp:137] Memory required for data: 1484391428
I0501 18:30:40.845885 11735 layer_factory.hpp:77] Creating layer inception_4d/relu_1x1
I0501 18:30:40.845899 11735 net.cpp:84] Creating Layer inception_4d/relu_1x1
I0501 18:30:40.845906 11735 net.cpp:406] inception_4d/relu_1x1 <- inception_4d/1x1
I0501 18:30:40.845918 11735 net.cpp:367] inception_4d/relu_1x1 -> inception_4d/1x1 (in-place)
I0501 18:30:40.846410 11735 net.cpp:122] Setting up inception_4d/relu_1x1
I0501 18:30:40.846421 11735 net.cpp:129] Top shape: 32 112 14 14 (702464)
I0501 18:30:40.846426 11735 net.cpp:137] Memory required for data: 1487201284
I0501 18:30:40.846451 11735 layer_factory.hpp:77] Creating layer inception_4d/3x3_reduce
I0501 18:30:40.846467 11735 net.cpp:84] Creating Layer inception_4d/3x3_reduce
I0501 18:30:40.846473 11735 net.cpp:406] inception_4d/3x3_reduce <- inception_4c/output_inception_4c/output_0_split_1
I0501 18:30:40.846520 11735 net.cpp:380] inception_4d/3x3_reduce -> inception_4d/3x3_reduce
I0501 18:30:40.850823 11735 net.cpp:122] Setting up inception_4d/3x3_reduce
I0501 18:30:40.850838 11735 net.cpp:129] Top shape: 32 144 14 14 (903168)
I0501 18:30:40.850843 11735 net.cpp:137] Memory required for data: 1490813956
I0501 18:30:40.850853 11735 layer_factory.hpp:77] Creating layer inception_4d/relu_3x3_reduce
I0501 18:30:40.850864 11735 net.cpp:84] Creating Layer inception_4d/relu_3x3_reduce
I0501 18:30:40.850872 11735 net.cpp:406] inception_4d/relu_3x3_reduce <- inception_4d/3x3_reduce
I0501 18:30:40.850880 11735 net.cpp:367] inception_4d/relu_3x3_reduce -> inception_4d/3x3_reduce (in-place)
I0501 18:30:40.851749 11735 net.cpp:122] Setting up inception_4d/relu_3x3_reduce
I0501 18:30:40.851761 11735 net.cpp:129] Top shape: 32 144 14 14 (903168)
I0501 18:30:40.851766 11735 net.cpp:137] Memory required for data: 1494426628
I0501 18:30:40.851775 11735 layer_factory.hpp:77] Creating layer inception_4d/3x3
I0501 18:30:40.851788 11735 net.cpp:84] Creating Layer inception_4d/3x3
I0501 18:30:40.851794 11735 net.cpp:406] inception_4d/3x3 <- inception_4d/3x3_reduce
I0501 18:30:40.851804 11735 net.cpp:380] inception_4d/3x3 -> inception_4d/3x3
I0501 18:30:40.861570 11735 net.cpp:122] Setting up inception_4d/3x3
I0501 18:30:40.861595 11735 net.cpp:129] Top shape: 32 288 14 14 (1806336)
I0501 18:30:40.861600 11735 net.cpp:137] Memory required for data: 1501651972
I0501 18:30:40.861614 11735 layer_factory.hpp:77] Creating layer inception_4d/relu_3x3
I0501 18:30:40.861627 11735 net.cpp:84] Creating Layer inception_4d/relu_3x3
I0501 18:30:40.861635 11735 net.cpp:406] inception_4d/relu_3x3 <- inception_4d/3x3
I0501 18:30:40.861646 11735 net.cpp:367] inception_4d/relu_3x3 -> inception_4d/3x3 (in-place)
I0501 18:30:40.862326 11735 net.cpp:122] Setting up inception_4d/relu_3x3
I0501 18:30:40.862339 11735 net.cpp:129] Top shape: 32 288 14 14 (1806336)
I0501 18:30:40.862344 11735 net.cpp:137] Memory required for data: 1508877316
I0501 18:30:40.862347 11735 layer_factory.hpp:77] Creating layer inception_4d/5x5_reduce
I0501 18:30:40.862363 11735 net.cpp:84] Creating Layer inception_4d/5x5_reduce
I0501 18:30:40.862370 11735 net.cpp:406] inception_4d/5x5_reduce <- inception_4c/output_inception_4c/output_0_split_2
I0501 18:30:40.862380 11735 net.cpp:380] inception_4d/5x5_reduce -> inception_4d/5x5_reduce
I0501 18:30:40.865618 11735 net.cpp:122] Setting up inception_4d/5x5_reduce
I0501 18:30:40.865638 11735 net.cpp:129] Top shape: 32 32 14 14 (200704)
I0501 18:30:40.865643 11735 net.cpp:137] Memory required for data: 1509680132
I0501 18:30:40.865653 11735 layer_factory.hpp:77] Creating layer inception_4d/relu_5x5_reduce
I0501 18:30:40.865665 11735 net.cpp:84] Creating Layer inception_4d/relu_5x5_reduce
I0501 18:30:40.865672 11735 net.cpp:406] inception_4d/relu_5x5_reduce <- inception_4d/5x5_reduce
I0501 18:30:40.865679 11735 net.cpp:367] inception_4d/relu_5x5_reduce -> inception_4d/5x5_reduce (in-place)
I0501 18:30:40.866417 11735 net.cpp:122] Setting up inception_4d/relu_5x5_reduce
I0501 18:30:40.866430 11735 net.cpp:129] Top shape: 32 32 14 14 (200704)
I0501 18:30:40.866436 11735 net.cpp:137] Memory required for data: 1510482948
I0501 18:30:40.866441 11735 layer_factory.hpp:77] Creating layer inception_4d/5x5
I0501 18:30:40.866456 11735 net.cpp:84] Creating Layer inception_4d/5x5
I0501 18:30:40.866461 11735 net.cpp:406] inception_4d/5x5 <- inception_4d/5x5_reduce
I0501 18:30:40.866472 11735 net.cpp:380] inception_4d/5x5 -> inception_4d/5x5
I0501 18:30:40.893435 11735 net.cpp:122] Setting up inception_4d/5x5
I0501 18:30:40.893460 11735 net.cpp:129] Top shape: 32 64 14 14 (401408)
I0501 18:30:40.893465 11735 net.cpp:137] Memory required for data: 1512088580
I0501 18:30:40.893501 11735 layer_factory.hpp:77] Creating layer inception_4d/relu_5x5
I0501 18:30:40.893513 11735 net.cpp:84] Creating Layer inception_4d/relu_5x5
I0501 18:30:40.893522 11735 net.cpp:406] inception_4d/relu_5x5 <- inception_4d/5x5
I0501 18:30:40.893532 11735 net.cpp:367] inception_4d/relu_5x5 -> inception_4d/5x5 (in-place)
I0501 18:30:40.896531 11735 net.cpp:122] Setting up inception_4d/relu_5x5
I0501 18:30:40.896548 11735 net.cpp:129] Top shape: 32 64 14 14 (401408)
I0501 18:30:40.896553 11735 net.cpp:137] Memory required for data: 1513694212
I0501 18:30:40.896558 11735 layer_factory.hpp:77] Creating layer inception_4d/pool
I0501 18:30:40.896569 11735 net.cpp:84] Creating Layer inception_4d/pool
I0501 18:30:40.896579 11735 net.cpp:406] inception_4d/pool <- inception_4c/output_inception_4c/output_0_split_3
I0501 18:30:40.896587 11735 net.cpp:380] inception_4d/pool -> inception_4d/pool
I0501 18:30:40.896646 11735 net.cpp:122] Setting up inception_4d/pool
I0501 18:30:40.896654 11735 net.cpp:129] Top shape: 32 512 14 14 (3211264)
I0501 18:30:40.896661 11735 net.cpp:137] Memory required for data: 1526539268
I0501 18:30:40.896665 11735 layer_factory.hpp:77] Creating layer inception_4d/pool_proj
I0501 18:30:40.896680 11735 net.cpp:84] Creating Layer inception_4d/pool_proj
I0501 18:30:40.896687 11735 net.cpp:406] inception_4d/pool_proj <- inception_4d/pool
I0501 18:30:40.896697 11735 net.cpp:380] inception_4d/pool_proj -> inception_4d/pool_proj
I0501 18:30:40.899330 11735 net.cpp:122] Setting up inception_4d/pool_proj
I0501 18:30:40.899343 11735 net.cpp:129] Top shape: 32 64 14 14 (401408)
I0501 18:30:40.899348 11735 net.cpp:137] Memory required for data: 1528144900
I0501 18:30:40.899356 11735 layer_factory.hpp:77] Creating layer inception_4d/relu_pool_proj
I0501 18:30:40.899366 11735 net.cpp:84] Creating Layer inception_4d/relu_pool_proj
I0501 18:30:40.899374 11735 net.cpp:406] inception_4d/relu_pool_proj <- inception_4d/pool_proj
I0501 18:30:40.899380 11735 net.cpp:367] inception_4d/relu_pool_proj -> inception_4d/pool_proj (in-place)
I0501 18:30:40.901768 11735 net.cpp:122] Setting up inception_4d/relu_pool_proj
I0501 18:30:40.901782 11735 net.cpp:129] Top shape: 32 64 14 14 (401408)
I0501 18:30:40.901787 11735 net.cpp:137] Memory required for data: 1529750532
I0501 18:30:40.901793 11735 layer_factory.hpp:77] Creating layer inception_4d/output
I0501 18:30:40.901801 11735 net.cpp:84] Creating Layer inception_4d/output
I0501 18:30:40.901806 11735 net.cpp:406] inception_4d/output <- inception_4d/1x1
I0501 18:30:40.901813 11735 net.cpp:406] inception_4d/output <- inception_4d/3x3
I0501 18:30:40.901818 11735 net.cpp:406] inception_4d/output <- inception_4d/5x5
I0501 18:30:40.901824 11735 net.cpp:406] inception_4d/output <- inception_4d/pool_proj
I0501 18:30:40.901836 11735 net.cpp:380] inception_4d/output -> inception_4d/output
I0501 18:30:40.901871 11735 net.cpp:122] Setting up inception_4d/output
I0501 18:30:40.901878 11735 net.cpp:129] Top shape: 32 528 14 14 (3311616)
I0501 18:30:40.901883 11735 net.cpp:137] Memory required for data: 1542996996
I0501 18:30:40.901888 11735 layer_factory.hpp:77] Creating layer inception_4d/output_inception_4d/output_0_split
I0501 18:30:40.901899 11735 net.cpp:84] Creating Layer inception_4d/output_inception_4d/output_0_split
I0501 18:30:40.901904 11735 net.cpp:406] inception_4d/output_inception_4d/output_0_split <- inception_4d/output
I0501 18:30:40.901913 11735 net.cpp:380] inception_4d/output_inception_4d/output_0_split -> inception_4d/output_inception_4d/output_0_split_0
I0501 18:30:40.901923 11735 net.cpp:380] inception_4d/output_inception_4d/output_0_split -> inception_4d/output_inception_4d/output_0_split_1
I0501 18:30:40.901932 11735 net.cpp:380] inception_4d/output_inception_4d/output_0_split -> inception_4d/output_inception_4d/output_0_split_2
I0501 18:30:40.901940 11735 net.cpp:380] inception_4d/output_inception_4d/output_0_split -> inception_4d/output_inception_4d/output_0_split_3
I0501 18:30:40.901949 11735 net.cpp:380] inception_4d/output_inception_4d/output_0_split -> inception_4d/output_inception_4d/output_0_split_4
I0501 18:30:40.902050 11735 net.cpp:122] Setting up inception_4d/output_inception_4d/output_0_split
I0501 18:30:40.902058 11735 net.cpp:129] Top shape: 32 528 14 14 (3311616)
I0501 18:30:40.902065 11735 net.cpp:129] Top shape: 32 528 14 14 (3311616)
I0501 18:30:40.902071 11735 net.cpp:129] Top shape: 32 528 14 14 (3311616)
I0501 18:30:40.902077 11735 net.cpp:129] Top shape: 32 528 14 14 (3311616)
I0501 18:30:40.902083 11735 net.cpp:129] Top shape: 32 528 14 14 (3311616)
I0501 18:30:40.902088 11735 net.cpp:137] Memory required for data: 1609229316
I0501 18:30:40.902093 11735 layer_factory.hpp:77] Creating layer loss2/ave_pool
I0501 18:30:40.902101 11735 net.cpp:84] Creating Layer loss2/ave_pool
I0501 18:30:40.902107 11735 net.cpp:406] loss2/ave_pool <- inception_4d/output_inception_4d/output_0_split_0
I0501 18:30:40.902115 11735 net.cpp:380] loss2/ave_pool -> loss2/ave_pool
I0501 18:30:40.902856 11735 net.cpp:122] Setting up loss2/ave_pool
I0501 18:30:40.902870 11735 net.cpp:129] Top shape: 32 528 4 4 (270336)
I0501 18:30:40.902874 11735 net.cpp:137] Memory required for data: 1610310660
I0501 18:30:40.902880 11735 layer_factory.hpp:77] Creating layer loss2/conv
I0501 18:30:40.902892 11735 net.cpp:84] Creating Layer loss2/conv
I0501 18:30:40.902899 11735 net.cpp:406] loss2/conv <- loss2/ave_pool
I0501 18:30:40.902906 11735 net.cpp:380] loss2/conv -> loss2/conv
I0501 18:30:40.905787 11735 net.cpp:122] Setting up loss2/conv
I0501 18:30:40.905799 11735 net.cpp:129] Top shape: 32 128 4 4 (65536)
I0501 18:30:40.905805 11735 net.cpp:137] Memory required for data: 1610572804
I0501 18:30:40.905814 11735 layer_factory.hpp:77] Creating layer loss2/relu_conv
I0501 18:30:40.905823 11735 net.cpp:84] Creating Layer loss2/relu_conv
I0501 18:30:40.905830 11735 net.cpp:406] loss2/relu_conv <- loss2/conv
I0501 18:30:40.905838 11735 net.cpp:367] loss2/relu_conv -> loss2/conv (in-place)
I0501 18:30:40.906324 11735 net.cpp:122] Setting up loss2/relu_conv
I0501 18:30:40.906337 11735 net.cpp:129] Top shape: 32 128 4 4 (65536)
I0501 18:30:40.906342 11735 net.cpp:137] Memory required for data: 1610834948
I0501 18:30:40.906347 11735 layer_factory.hpp:77] Creating layer loss2/fc
I0501 18:30:40.906356 11735 net.cpp:84] Creating Layer loss2/fc
I0501 18:30:40.906363 11735 net.cpp:406] loss2/fc <- loss2/conv
I0501 18:30:40.906371 11735 net.cpp:380] loss2/fc -> loss2/fc
I0501 18:30:40.952003 11735 net.cpp:122] Setting up loss2/fc
I0501 18:30:40.952030 11735 net.cpp:129] Top shape: 32 1024 (32768)
I0501 18:30:40.952035 11735 net.cpp:137] Memory required for data: 1610966020
I0501 18:30:40.952049 11735 layer_factory.hpp:77] Creating layer loss2/relu_fc
I0501 18:30:40.952061 11735 net.cpp:84] Creating Layer loss2/relu_fc
I0501 18:30:40.952069 11735 net.cpp:406] loss2/relu_fc <- loss2/fc
I0501 18:30:40.952076 11735 net.cpp:367] loss2/relu_fc -> loss2/fc (in-place)
I0501 18:30:40.955034 11735 net.cpp:122] Setting up loss2/relu_fc
I0501 18:30:40.955060 11735 net.cpp:129] Top shape: 32 1024 (32768)
I0501 18:30:40.955066 11735 net.cpp:137] Memory required for data: 1611097092
I0501 18:30:40.955075 11735 layer_factory.hpp:77] Creating layer loss2/drop_fc
I0501 18:30:40.955087 11735 net.cpp:84] Creating Layer loss2/drop_fc
I0501 18:30:40.955096 11735 net.cpp:406] loss2/drop_fc <- loss2/fc
I0501 18:30:40.955111 11735 net.cpp:367] loss2/drop_fc -> loss2/fc (in-place)
I0501 18:30:40.955165 11735 net.cpp:122] Setting up loss2/drop_fc
I0501 18:30:40.955175 11735 net.cpp:129] Top shape: 32 1024 (32768)
I0501 18:30:40.955181 11735 net.cpp:137] Memory required for data: 1611228164
I0501 18:30:40.955186 11735 layer_factory.hpp:77] Creating layer loss2/classifier
I0501 18:30:40.955202 11735 net.cpp:84] Creating Layer loss2/classifier
I0501 18:30:40.955209 11735 net.cpp:406] loss2/classifier <- loss2/fc
I0501 18:30:40.955221 11735 net.cpp:380] loss2/classifier -> loss2/classifier
I0501 18:30:40.957216 11735 net.cpp:122] Setting up loss2/classifier
I0501 18:30:40.957231 11735 net.cpp:129] Top shape: 32 196 (6272)
I0501 18:30:40.957265 11735 net.cpp:137] Memory required for data: 1611253252
I0501 18:30:40.957279 11735 layer_factory.hpp:77] Creating layer loss2/loss
I0501 18:30:40.957294 11735 net.cpp:84] Creating Layer loss2/loss
I0501 18:30:40.957303 11735 net.cpp:406] loss2/loss <- loss2/classifier
I0501 18:30:40.957310 11735 net.cpp:406] loss2/loss <- label_train-data_1_split_1
I0501 18:30:40.957319 11735 net.cpp:380] loss2/loss -> loss2/loss
I0501 18:30:40.957332 11735 layer_factory.hpp:77] Creating layer loss2/loss
I0501 18:30:40.958393 11735 net.cpp:122] Setting up loss2/loss
I0501 18:30:40.958406 11735 net.cpp:129] Top shape: (1)
I0501 18:30:40.958411 11735 net.cpp:132]     with loss weight 0.3
I0501 18:30:40.958426 11735 net.cpp:137] Memory required for data: 1611253256
I0501 18:30:40.958431 11735 layer_factory.hpp:77] Creating layer inception_4e/1x1
I0501 18:30:40.958451 11735 net.cpp:84] Creating Layer inception_4e/1x1
I0501 18:30:40.958459 11735 net.cpp:406] inception_4e/1x1 <- inception_4d/output_inception_4d/output_0_split_1
I0501 18:30:40.958470 11735 net.cpp:380] inception_4e/1x1 -> inception_4e/1x1
I0501 18:30:40.962234 11735 net.cpp:122] Setting up inception_4e/1x1
I0501 18:30:40.962249 11735 net.cpp:129] Top shape: 32 256 14 14 (1605632)
I0501 18:30:40.962255 11735 net.cpp:137] Memory required for data: 1617675784
I0501 18:30:40.962265 11735 layer_factory.hpp:77] Creating layer inception_4e/relu_1x1
I0501 18:30:40.962275 11735 net.cpp:84] Creating Layer inception_4e/relu_1x1
I0501 18:30:40.962280 11735 net.cpp:406] inception_4e/relu_1x1 <- inception_4e/1x1
I0501 18:30:40.962291 11735 net.cpp:367] inception_4e/relu_1x1 -> inception_4e/1x1 (in-place)
I0501 18:30:40.963124 11735 net.cpp:122] Setting up inception_4e/relu_1x1
I0501 18:30:40.963140 11735 net.cpp:129] Top shape: 32 256 14 14 (1605632)
I0501 18:30:40.963146 11735 net.cpp:137] Memory required for data: 1624098312
I0501 18:30:40.963151 11735 layer_factory.hpp:77] Creating layer inception_4e/3x3_reduce
I0501 18:30:40.963167 11735 net.cpp:84] Creating Layer inception_4e/3x3_reduce
I0501 18:30:40.963174 11735 net.cpp:406] inception_4e/3x3_reduce <- inception_4d/output_inception_4d/output_0_split_2
I0501 18:30:40.963186 11735 net.cpp:380] inception_4e/3x3_reduce -> inception_4e/3x3_reduce
I0501 18:30:40.969381 11735 net.cpp:122] Setting up inception_4e/3x3_reduce
I0501 18:30:40.969401 11735 net.cpp:129] Top shape: 32 160 14 14 (1003520)
I0501 18:30:40.969406 11735 net.cpp:137] Memory required for data: 1628112392
I0501 18:30:40.969417 11735 layer_factory.hpp:77] Creating layer inception_4e/relu_3x3_reduce
I0501 18:30:40.969430 11735 net.cpp:84] Creating Layer inception_4e/relu_3x3_reduce
I0501 18:30:40.969439 11735 net.cpp:406] inception_4e/relu_3x3_reduce <- inception_4e/3x3_reduce
I0501 18:30:40.969445 11735 net.cpp:367] inception_4e/relu_3x3_reduce -> inception_4e/3x3_reduce (in-place)
I0501 18:30:40.970134 11735 net.cpp:122] Setting up inception_4e/relu_3x3_reduce
I0501 18:30:40.970146 11735 net.cpp:129] Top shape: 32 160 14 14 (1003520)
I0501 18:30:40.970151 11735 net.cpp:137] Memory required for data: 1632126472
I0501 18:30:40.970157 11735 layer_factory.hpp:77] Creating layer inception_4e/3x3
I0501 18:30:40.970171 11735 net.cpp:84] Creating Layer inception_4e/3x3
I0501 18:30:40.970177 11735 net.cpp:406] inception_4e/3x3 <- inception_4e/3x3_reduce
I0501 18:30:40.970188 11735 net.cpp:380] inception_4e/3x3 -> inception_4e/3x3
I0501 18:30:41.004526 11735 net.cpp:122] Setting up inception_4e/3x3
I0501 18:30:41.004554 11735 net.cpp:129] Top shape: 32 320 14 14 (2007040)
I0501 18:30:41.004559 11735 net.cpp:137] Memory required for data: 1640154632
I0501 18:30:41.004573 11735 layer_factory.hpp:77] Creating layer inception_4e/relu_3x3
I0501 18:30:41.004585 11735 net.cpp:84] Creating Layer inception_4e/relu_3x3
I0501 18:30:41.004592 11735 net.cpp:406] inception_4e/relu_3x3 <- inception_4e/3x3
I0501 18:30:41.004603 11735 net.cpp:367] inception_4e/relu_3x3 -> inception_4e/3x3 (in-place)
I0501 18:30:41.005085 11735 net.cpp:122] Setting up inception_4e/relu_3x3
I0501 18:30:41.005096 11735 net.cpp:129] Top shape: 32 320 14 14 (2007040)
I0501 18:30:41.005125 11735 net.cpp:137] Memory required for data: 1648182792
I0501 18:30:41.005131 11735 layer_factory.hpp:77] Creating layer inception_4e/5x5_reduce
I0501 18:30:41.005146 11735 net.cpp:84] Creating Layer inception_4e/5x5_reduce
I0501 18:30:41.005152 11735 net.cpp:406] inception_4e/5x5_reduce <- inception_4d/output_inception_4d/output_0_split_3
I0501 18:30:41.005167 11735 net.cpp:380] inception_4e/5x5_reduce -> inception_4e/5x5_reduce
I0501 18:30:41.007696 11735 net.cpp:122] Setting up inception_4e/5x5_reduce
I0501 18:30:41.007709 11735 net.cpp:129] Top shape: 32 32 14 14 (200704)
I0501 18:30:41.007714 11735 net.cpp:137] Memory required for data: 1648985608
I0501 18:30:41.007724 11735 layer_factory.hpp:77] Creating layer inception_4e/relu_5x5_reduce
I0501 18:30:41.007733 11735 net.cpp:84] Creating Layer inception_4e/relu_5x5_reduce
I0501 18:30:41.007740 11735 net.cpp:406] inception_4e/relu_5x5_reduce <- inception_4e/5x5_reduce
I0501 18:30:41.007747 11735 net.cpp:367] inception_4e/relu_5x5_reduce -> inception_4e/5x5_reduce (in-place)
I0501 18:30:41.008424 11735 net.cpp:122] Setting up inception_4e/relu_5x5_reduce
I0501 18:30:41.008437 11735 net.cpp:129] Top shape: 32 32 14 14 (200704)
I0501 18:30:41.008441 11735 net.cpp:137] Memory required for data: 1649788424
I0501 18:30:41.008446 11735 layer_factory.hpp:77] Creating layer inception_4e/5x5
I0501 18:30:41.008492 11735 net.cpp:84] Creating Layer inception_4e/5x5
I0501 18:30:41.008499 11735 net.cpp:406] inception_4e/5x5 <- inception_4e/5x5_reduce
I0501 18:30:41.008507 11735 net.cpp:380] inception_4e/5x5 -> inception_4e/5x5
I0501 18:30:41.013887 11735 net.cpp:122] Setting up inception_4e/5x5
I0501 18:30:41.013911 11735 net.cpp:129] Top shape: 32 128 14 14 (802816)
I0501 18:30:41.013916 11735 net.cpp:137] Memory required for data: 1652999688
I0501 18:30:41.013929 11735 layer_factory.hpp:77] Creating layer inception_4e/relu_5x5
I0501 18:30:41.013942 11735 net.cpp:84] Creating Layer inception_4e/relu_5x5
I0501 18:30:41.013948 11735 net.cpp:406] inception_4e/relu_5x5 <- inception_4e/5x5
I0501 18:30:41.013958 11735 net.cpp:367] inception_4e/relu_5x5 -> inception_4e/5x5 (in-place)
I0501 18:30:41.014669 11735 net.cpp:122] Setting up inception_4e/relu_5x5
I0501 18:30:41.014683 11735 net.cpp:129] Top shape: 32 128 14 14 (802816)
I0501 18:30:41.014688 11735 net.cpp:137] Memory required for data: 1656210952
I0501 18:30:41.014694 11735 layer_factory.hpp:77] Creating layer inception_4e/pool
I0501 18:30:41.014703 11735 net.cpp:84] Creating Layer inception_4e/pool
I0501 18:30:41.014710 11735 net.cpp:406] inception_4e/pool <- inception_4d/output_inception_4d/output_0_split_4
I0501 18:30:41.014720 11735 net.cpp:380] inception_4e/pool -> inception_4e/pool
I0501 18:30:41.014775 11735 net.cpp:122] Setting up inception_4e/pool
I0501 18:30:41.014781 11735 net.cpp:129] Top shape: 32 528 14 14 (3311616)
I0501 18:30:41.014786 11735 net.cpp:137] Memory required for data: 1669457416
I0501 18:30:41.014791 11735 layer_factory.hpp:77] Creating layer inception_4e/pool_proj
I0501 18:30:41.014806 11735 net.cpp:84] Creating Layer inception_4e/pool_proj
I0501 18:30:41.014813 11735 net.cpp:406] inception_4e/pool_proj <- inception_4e/pool
I0501 18:30:41.014822 11735 net.cpp:380] inception_4e/pool_proj -> inception_4e/pool_proj
I0501 18:30:41.017469 11735 net.cpp:122] Setting up inception_4e/pool_proj
I0501 18:30:41.017485 11735 net.cpp:129] Top shape: 32 128 14 14 (802816)
I0501 18:30:41.017489 11735 net.cpp:137] Memory required for data: 1672668680
I0501 18:30:41.017499 11735 layer_factory.hpp:77] Creating layer inception_4e/relu_pool_proj
I0501 18:30:41.017510 11735 net.cpp:84] Creating Layer inception_4e/relu_pool_proj
I0501 18:30:41.017518 11735 net.cpp:406] inception_4e/relu_pool_proj <- inception_4e/pool_proj
I0501 18:30:41.017525 11735 net.cpp:367] inception_4e/relu_pool_proj -> inception_4e/pool_proj (in-place)
I0501 18:30:41.018198 11735 net.cpp:122] Setting up inception_4e/relu_pool_proj
I0501 18:30:41.018209 11735 net.cpp:129] Top shape: 32 128 14 14 (802816)
I0501 18:30:41.018239 11735 net.cpp:137] Memory required for data: 1675879944
I0501 18:30:41.018244 11735 layer_factory.hpp:77] Creating layer inception_4e/output
I0501 18:30:41.018254 11735 net.cpp:84] Creating Layer inception_4e/output
I0501 18:30:41.018260 11735 net.cpp:406] inception_4e/output <- inception_4e/1x1
I0501 18:30:41.018267 11735 net.cpp:406] inception_4e/output <- inception_4e/3x3
I0501 18:30:41.018272 11735 net.cpp:406] inception_4e/output <- inception_4e/5x5
I0501 18:30:41.018278 11735 net.cpp:406] inception_4e/output <- inception_4e/pool_proj
I0501 18:30:41.018285 11735 net.cpp:380] inception_4e/output -> inception_4e/output
I0501 18:30:41.018321 11735 net.cpp:122] Setting up inception_4e/output
I0501 18:30:41.018328 11735 net.cpp:129] Top shape: 32 832 14 14 (5218304)
I0501 18:30:41.018333 11735 net.cpp:137] Memory required for data: 1696753160
I0501 18:30:41.018338 11735 layer_factory.hpp:77] Creating layer pool4/3x3_s2
I0501 18:30:41.018347 11735 net.cpp:84] Creating Layer pool4/3x3_s2
I0501 18:30:41.018352 11735 net.cpp:406] pool4/3x3_s2 <- inception_4e/output
I0501 18:30:41.018360 11735 net.cpp:380] pool4/3x3_s2 -> pool4/3x3_s2
I0501 18:30:41.018404 11735 net.cpp:122] Setting up pool4/3x3_s2
I0501 18:30:41.018412 11735 net.cpp:129] Top shape: 32 832 7 7 (1304576)
I0501 18:30:41.018417 11735 net.cpp:137] Memory required for data: 1701971464
I0501 18:30:41.018421 11735 layer_factory.hpp:77] Creating layer pool4/3x3_s2_pool4/3x3_s2_0_split
I0501 18:30:41.018429 11735 net.cpp:84] Creating Layer pool4/3x3_s2_pool4/3x3_s2_0_split
I0501 18:30:41.018435 11735 net.cpp:406] pool4/3x3_s2_pool4/3x3_s2_0_split <- pool4/3x3_s2
I0501 18:30:41.018441 11735 net.cpp:380] pool4/3x3_s2_pool4/3x3_s2_0_split -> pool4/3x3_s2_pool4/3x3_s2_0_split_0
I0501 18:30:41.018451 11735 net.cpp:380] pool4/3x3_s2_pool4/3x3_s2_0_split -> pool4/3x3_s2_pool4/3x3_s2_0_split_1
I0501 18:30:41.018460 11735 net.cpp:380] pool4/3x3_s2_pool4/3x3_s2_0_split -> pool4/3x3_s2_pool4/3x3_s2_0_split_2
I0501 18:30:41.018466 11735 net.cpp:380] pool4/3x3_s2_pool4/3x3_s2_0_split -> pool4/3x3_s2_pool4/3x3_s2_0_split_3
I0501 18:30:41.018561 11735 net.cpp:122] Setting up pool4/3x3_s2_pool4/3x3_s2_0_split
I0501 18:30:41.018569 11735 net.cpp:129] Top shape: 32 832 7 7 (1304576)
I0501 18:30:41.018575 11735 net.cpp:129] Top shape: 32 832 7 7 (1304576)
I0501 18:30:41.018581 11735 net.cpp:129] Top shape: 32 832 7 7 (1304576)
I0501 18:30:41.018586 11735 net.cpp:129] Top shape: 32 832 7 7 (1304576)
I0501 18:30:41.018590 11735 net.cpp:137] Memory required for data: 1722844680
I0501 18:30:41.018595 11735 layer_factory.hpp:77] Creating layer inception_5a/1x1
I0501 18:30:41.018611 11735 net.cpp:84] Creating Layer inception_5a/1x1
I0501 18:30:41.018616 11735 net.cpp:406] inception_5a/1x1 <- pool4/3x3_s2_pool4/3x3_s2_0_split_0
I0501 18:30:41.018625 11735 net.cpp:380] inception_5a/1x1 -> inception_5a/1x1
I0501 18:30:41.035219 11735 net.cpp:122] Setting up inception_5a/1x1
I0501 18:30:41.035256 11735 net.cpp:129] Top shape: 32 256 7 7 (401408)
I0501 18:30:41.035269 11735 net.cpp:137] Memory required for data: 1724450312
I0501 18:30:41.035286 11735 layer_factory.hpp:77] Creating layer inception_5a/relu_1x1
I0501 18:30:41.035300 11735 net.cpp:84] Creating Layer inception_5a/relu_1x1
I0501 18:30:41.035308 11735 net.cpp:406] inception_5a/relu_1x1 <- inception_5a/1x1
I0501 18:30:41.037402 11735 net.cpp:367] inception_5a/relu_1x1 -> inception_5a/1x1 (in-place)
I0501 18:30:41.047399 11735 net.cpp:122] Setting up inception_5a/relu_1x1
I0501 18:30:41.047425 11735 net.cpp:129] Top shape: 32 256 7 7 (401408)
I0501 18:30:41.047430 11735 net.cpp:137] Memory required for data: 1726055944
I0501 18:30:41.047437 11735 layer_factory.hpp:77] Creating layer inception_5a/3x3_reduce
I0501 18:30:41.047457 11735 net.cpp:84] Creating Layer inception_5a/3x3_reduce
I0501 18:30:41.047466 11735 net.cpp:406] inception_5a/3x3_reduce <- pool4/3x3_s2_pool4/3x3_s2_0_split_1
I0501 18:30:41.047482 11735 net.cpp:380] inception_5a/3x3_reduce -> inception_5a/3x3_reduce
I0501 18:30:41.053627 11735 net.cpp:122] Setting up inception_5a/3x3_reduce
I0501 18:30:41.053655 11735 net.cpp:129] Top shape: 32 160 7 7 (250880)
I0501 18:30:41.053660 11735 net.cpp:137] Memory required for data: 1727059464
I0501 18:30:41.053673 11735 layer_factory.hpp:77] Creating layer inception_5a/relu_3x3_reduce
I0501 18:30:41.053689 11735 net.cpp:84] Creating Layer inception_5a/relu_3x3_reduce
I0501 18:30:41.053697 11735 net.cpp:406] inception_5a/relu_3x3_reduce <- inception_5a/3x3_reduce
I0501 18:30:41.053706 11735 net.cpp:367] inception_5a/relu_3x3_reduce -> inception_5a/3x3_reduce (in-place)
I0501 18:30:41.054225 11735 net.cpp:122] Setting up inception_5a/relu_3x3_reduce
I0501 18:30:41.054240 11735 net.cpp:129] Top shape: 32 160 7 7 (250880)
I0501 18:30:41.054246 11735 net.cpp:137] Memory required for data: 1728062984
I0501 18:30:41.054252 11735 layer_factory.hpp:77] Creating layer inception_5a/3x3
I0501 18:30:41.054271 11735 net.cpp:84] Creating Layer inception_5a/3x3
I0501 18:30:41.054278 11735 net.cpp:406] inception_5a/3x3 <- inception_5a/3x3_reduce
I0501 18:30:41.054288 11735 net.cpp:380] inception_5a/3x3 -> inception_5a/3x3
I0501 18:30:41.086164 11735 net.cpp:122] Setting up inception_5a/3x3
I0501 18:30:41.086194 11735 net.cpp:129] Top shape: 32 320 7 7 (501760)
I0501 18:30:41.086200 11735 net.cpp:137] Memory required for data: 1730070024
I0501 18:30:41.086216 11735 layer_factory.hpp:77] Creating layer inception_5a/relu_3x3
I0501 18:30:41.086230 11735 net.cpp:84] Creating Layer inception_5a/relu_3x3
I0501 18:30:41.086239 11735 net.cpp:406] inception_5a/relu_3x3 <- inception_5a/3x3
I0501 18:30:41.086252 11735 net.cpp:367] inception_5a/relu_3x3 -> inception_5a/3x3 (in-place)
I0501 18:30:41.087193 11735 net.cpp:122] Setting up inception_5a/relu_3x3
I0501 18:30:41.087210 11735 net.cpp:129] Top shape: 32 320 7 7 (501760)
I0501 18:30:41.087216 11735 net.cpp:137] Memory required for data: 1732077064
I0501 18:30:41.087221 11735 layer_factory.hpp:77] Creating layer inception_5a/5x5_reduce
I0501 18:30:41.087240 11735 net.cpp:84] Creating Layer inception_5a/5x5_reduce
I0501 18:30:41.087249 11735 net.cpp:406] inception_5a/5x5_reduce <- pool4/3x3_s2_pool4/3x3_s2_0_split_2
I0501 18:30:41.087260 11735 net.cpp:380] inception_5a/5x5_reduce -> inception_5a/5x5_reduce
I0501 18:30:41.102025 11735 net.cpp:122] Setting up inception_5a/5x5_reduce
I0501 18:30:41.102054 11735 net.cpp:129] Top shape: 32 32 7 7 (50176)
I0501 18:30:41.102061 11735 net.cpp:137] Memory required for data: 1732277768
I0501 18:30:41.102075 11735 layer_factory.hpp:77] Creating layer inception_5a/relu_5x5_reduce
I0501 18:30:41.102092 11735 net.cpp:84] Creating Layer inception_5a/relu_5x5_reduce
I0501 18:30:41.102102 11735 net.cpp:406] inception_5a/relu_5x5_reduce <- inception_5a/5x5_reduce
I0501 18:30:41.102113 11735 net.cpp:367] inception_5a/relu_5x5_reduce -> inception_5a/5x5_reduce (in-place)
I0501 18:30:41.103135 11735 net.cpp:122] Setting up inception_5a/relu_5x5_reduce
I0501 18:30:41.103152 11735 net.cpp:129] Top shape: 32 32 7 7 (50176)
I0501 18:30:41.103157 11735 net.cpp:137] Memory required for data: 1732478472
I0501 18:30:41.103163 11735 layer_factory.hpp:77] Creating layer inception_5a/5x5
I0501 18:30:41.103183 11735 net.cpp:84] Creating Layer inception_5a/5x5
I0501 18:30:41.103193 11735 net.cpp:406] inception_5a/5x5 <- inception_5a/5x5_reduce
I0501 18:30:41.103207 11735 net.cpp:380] inception_5a/5x5 -> inception_5a/5x5
I0501 18:30:41.112731 11735 net.cpp:122] Setting up inception_5a/5x5
I0501 18:30:41.112758 11735 net.cpp:129] Top shape: 32 128 7 7 (200704)
I0501 18:30:41.112766 11735 net.cpp:137] Memory required for data: 1733281288
I0501 18:30:41.112779 11735 layer_factory.hpp:77] Creating layer inception_5a/relu_5x5
I0501 18:30:41.112793 11735 net.cpp:84] Creating Layer inception_5a/relu_5x5
I0501 18:30:41.112803 11735 net.cpp:406] inception_5a/relu_5x5 <- inception_5a/5x5
I0501 18:30:41.112816 11735 net.cpp:367] inception_5a/relu_5x5 -> inception_5a/5x5 (in-place)
I0501 18:30:41.115326 11735 net.cpp:122] Setting up inception_5a/relu_5x5
I0501 18:30:41.115375 11735 net.cpp:129] Top shape: 32 128 7 7 (200704)
I0501 18:30:41.115381 11735 net.cpp:137] Memory required for data: 1734084104
I0501 18:30:41.115387 11735 layer_factory.hpp:77] Creating layer inception_5a/pool
I0501 18:30:41.115402 11735 net.cpp:84] Creating Layer inception_5a/pool
I0501 18:30:41.115412 11735 net.cpp:406] inception_5a/pool <- pool4/3x3_s2_pool4/3x3_s2_0_split_3
I0501 18:30:41.115423 11735 net.cpp:380] inception_5a/pool -> inception_5a/pool
I0501 18:30:41.115509 11735 net.cpp:122] Setting up inception_5a/pool
I0501 18:30:41.115520 11735 net.cpp:129] Top shape: 32 832 7 7 (1304576)
I0501 18:30:41.115525 11735 net.cpp:137] Memory required for data: 1739302408
I0501 18:30:41.115530 11735 layer_factory.hpp:77] Creating layer inception_5a/pool_proj
I0501 18:30:41.115550 11735 net.cpp:84] Creating Layer inception_5a/pool_proj
I0501 18:30:41.115556 11735 net.cpp:406] inception_5a/pool_proj <- inception_5a/pool
I0501 18:30:41.115568 11735 net.cpp:380] inception_5a/pool_proj -> inception_5a/pool_proj
I0501 18:30:41.131064 11735 net.cpp:122] Setting up inception_5a/pool_proj
I0501 18:30:41.131090 11735 net.cpp:129] Top shape: 32 128 7 7 (200704)
I0501 18:30:41.131095 11735 net.cpp:137] Memory required for data: 1740105224
I0501 18:30:41.131110 11735 layer_factory.hpp:77] Creating layer inception_5a/relu_pool_proj
I0501 18:30:41.131124 11735 net.cpp:84] Creating Layer inception_5a/relu_pool_proj
I0501 18:30:41.131131 11735 net.cpp:406] inception_5a/relu_pool_proj <- inception_5a/pool_proj
I0501 18:30:41.131144 11735 net.cpp:367] inception_5a/relu_pool_proj -> inception_5a/pool_proj (in-place)
I0501 18:30:41.131907 11735 net.cpp:122] Setting up inception_5a/relu_pool_proj
I0501 18:30:41.131922 11735 net.cpp:129] Top shape: 32 128 7 7 (200704)
I0501 18:30:41.131927 11735 net.cpp:137] Memory required for data: 1740908040
I0501 18:30:41.131932 11735 layer_factory.hpp:77] Creating layer inception_5a/output
I0501 18:30:41.131942 11735 net.cpp:84] Creating Layer inception_5a/output
I0501 18:30:41.131947 11735 net.cpp:406] inception_5a/output <- inception_5a/1x1
I0501 18:30:41.131955 11735 net.cpp:406] inception_5a/output <- inception_5a/3x3
I0501 18:30:41.131963 11735 net.cpp:406] inception_5a/output <- inception_5a/5x5
I0501 18:30:41.131968 11735 net.cpp:406] inception_5a/output <- inception_5a/pool_proj
I0501 18:30:41.131979 11735 net.cpp:380] inception_5a/output -> inception_5a/output
I0501 18:30:41.132025 11735 net.cpp:122] Setting up inception_5a/output
I0501 18:30:41.132035 11735 net.cpp:129] Top shape: 32 832 7 7 (1304576)
I0501 18:30:41.132040 11735 net.cpp:137] Memory required for data: 1746126344
I0501 18:30:41.132045 11735 layer_factory.hpp:77] Creating layer inception_5a/output_inception_5a/output_0_split
I0501 18:30:41.132055 11735 net.cpp:84] Creating Layer inception_5a/output_inception_5a/output_0_split
I0501 18:30:41.132061 11735 net.cpp:406] inception_5a/output_inception_5a/output_0_split <- inception_5a/output
I0501 18:30:41.132071 11735 net.cpp:380] inception_5a/output_inception_5a/output_0_split -> inception_5a/output_inception_5a/output_0_split_0
I0501 18:30:41.132081 11735 net.cpp:380] inception_5a/output_inception_5a/output_0_split -> inception_5a/output_inception_5a/output_0_split_1
I0501 18:30:41.132091 11735 net.cpp:380] inception_5a/output_inception_5a/output_0_split -> inception_5a/output_inception_5a/output_0_split_2
I0501 18:30:41.132103 11735 net.cpp:380] inception_5a/output_inception_5a/output_0_split -> inception_5a/output_inception_5a/output_0_split_3
I0501 18:30:41.132186 11735 net.cpp:122] Setting up inception_5a/output_inception_5a/output_0_split
I0501 18:30:41.132197 11735 net.cpp:129] Top shape: 32 832 7 7 (1304576)
I0501 18:30:41.132205 11735 net.cpp:129] Top shape: 32 832 7 7 (1304576)
I0501 18:30:41.132211 11735 net.cpp:129] Top shape: 32 832 7 7 (1304576)
I0501 18:30:41.132218 11735 net.cpp:129] Top shape: 32 832 7 7 (1304576)
I0501 18:30:41.132223 11735 net.cpp:137] Memory required for data: 1766999560
I0501 18:30:41.132228 11735 layer_factory.hpp:77] Creating layer inception_5b/1x1
I0501 18:30:41.132278 11735 net.cpp:84] Creating Layer inception_5b/1x1
I0501 18:30:41.132285 11735 net.cpp:406] inception_5b/1x1 <- inception_5a/output_inception_5a/output_0_split_0
I0501 18:30:41.132297 11735 net.cpp:380] inception_5b/1x1 -> inception_5b/1x1
I0501 18:30:41.176339 11735 net.cpp:122] Setting up inception_5b/1x1
I0501 18:30:41.176367 11735 net.cpp:129] Top shape: 32 384 7 7 (602112)
I0501 18:30:41.176373 11735 net.cpp:137] Memory required for data: 1769408008
I0501 18:30:41.176388 11735 layer_factory.hpp:77] Creating layer inception_5b/relu_1x1
I0501 18:30:41.176401 11735 net.cpp:84] Creating Layer inception_5b/relu_1x1
I0501 18:30:41.185643 11735 net.cpp:406] inception_5b/relu_1x1 <- inception_5b/1x1
I0501 18:30:41.185688 11735 net.cpp:367] inception_5b/relu_1x1 -> inception_5b/1x1 (in-place)
I0501 18:30:41.186415 11735 net.cpp:122] Setting up inception_5b/relu_1x1
I0501 18:30:41.186432 11735 net.cpp:129] Top shape: 32 384 7 7 (602112)
I0501 18:30:41.186439 11735 net.cpp:137] Memory required for data: 1771816456
I0501 18:30:41.186445 11735 layer_factory.hpp:77] Creating layer inception_5b/3x3_reduce
I0501 18:30:41.186472 11735 net.cpp:84] Creating Layer inception_5b/3x3_reduce
I0501 18:30:41.186525 11735 net.cpp:406] inception_5b/3x3_reduce <- inception_5a/output_inception_5a/output_0_split_1
I0501 18:30:41.186540 11735 net.cpp:380] inception_5b/3x3_reduce -> inception_5b/3x3_reduce
I0501 18:30:41.220819 11735 net.cpp:122] Setting up inception_5b/3x3_reduce
I0501 18:30:41.220847 11735 net.cpp:129] Top shape: 32 192 7 7 (301056)
I0501 18:30:41.220854 11735 net.cpp:137] Memory required for data: 1773020680
I0501 18:30:41.220870 11735 layer_factory.hpp:77] Creating layer inception_5b/relu_3x3_reduce
I0501 18:30:41.220887 11735 net.cpp:84] Creating Layer inception_5b/relu_3x3_reduce
I0501 18:30:41.220896 11735 net.cpp:406] inception_5b/relu_3x3_reduce <- inception_5b/3x3_reduce
I0501 18:30:41.220906 11735 net.cpp:367] inception_5b/relu_3x3_reduce -> inception_5b/3x3_reduce (in-place)
I0501 18:30:41.221474 11735 net.cpp:122] Setting up inception_5b/relu_3x3_reduce
I0501 18:30:41.221490 11735 net.cpp:129] Top shape: 32 192 7 7 (301056)
I0501 18:30:41.221496 11735 net.cpp:137] Memory required for data: 1774224904
I0501 18:30:41.221503 11735 layer_factory.hpp:77] Creating layer inception_5b/3x3
I0501 18:30:41.221523 11735 net.cpp:84] Creating Layer inception_5b/3x3
I0501 18:30:41.221530 11735 net.cpp:406] inception_5b/3x3 <- inception_5b/3x3_reduce
I0501 18:30:41.221544 11735 net.cpp:380] inception_5b/3x3 -> inception_5b/3x3
I0501 18:30:41.241768 11735 net.cpp:122] Setting up inception_5b/3x3
I0501 18:30:41.241801 11735 net.cpp:129] Top shape: 32 384 7 7 (602112)
I0501 18:30:41.241807 11735 net.cpp:137] Memory required for data: 1776633352
I0501 18:30:41.241822 11735 layer_factory.hpp:77] Creating layer inception_5b/relu_3x3
I0501 18:30:41.241840 11735 net.cpp:84] Creating Layer inception_5b/relu_3x3
I0501 18:30:41.241850 11735 net.cpp:406] inception_5b/relu_3x3 <- inception_5b/3x3
I0501 18:30:41.241861 11735 net.cpp:367] inception_5b/relu_3x3 -> inception_5b/3x3 (in-place)
I0501 18:30:41.242892 11735 net.cpp:122] Setting up inception_5b/relu_3x3
I0501 18:30:41.242908 11735 net.cpp:129] Top shape: 32 384 7 7 (602112)
I0501 18:30:41.242915 11735 net.cpp:137] Memory required for data: 1779041800
I0501 18:30:41.242921 11735 layer_factory.hpp:77] Creating layer inception_5b/5x5_reduce
I0501 18:30:41.242938 11735 net.cpp:84] Creating Layer inception_5b/5x5_reduce
I0501 18:30:41.242946 11735 net.cpp:406] inception_5b/5x5_reduce <- inception_5a/output_inception_5a/output_0_split_2
I0501 18:30:41.242959 11735 net.cpp:380] inception_5b/5x5_reduce -> inception_5b/5x5_reduce
I0501 18:30:41.245893 11735 net.cpp:122] Setting up inception_5b/5x5_reduce
I0501 18:30:41.245909 11735 net.cpp:129] Top shape: 32 48 7 7 (75264)
I0501 18:30:41.245915 11735 net.cpp:137] Memory required for data: 1779342856
I0501 18:30:41.245925 11735 layer_factory.hpp:77] Creating layer inception_5b/relu_5x5_reduce
I0501 18:30:41.245939 11735 net.cpp:84] Creating Layer inception_5b/relu_5x5_reduce
I0501 18:30:41.245975 11735 net.cpp:406] inception_5b/relu_5x5_reduce <- inception_5b/5x5_reduce
I0501 18:30:41.245985 11735 net.cpp:367] inception_5b/relu_5x5_reduce -> inception_5b/5x5_reduce (in-place)
I0501 18:30:41.256932 11735 net.cpp:122] Setting up inception_5b/relu_5x5_reduce
I0501 18:30:41.256959 11735 net.cpp:129] Top shape: 32 48 7 7 (75264)
I0501 18:30:41.256965 11735 net.cpp:137] Memory required for data: 1779643912
I0501 18:30:41.256974 11735 layer_factory.hpp:77] Creating layer inception_5b/5x5
I0501 18:30:41.257000 11735 net.cpp:84] Creating Layer inception_5b/5x5
I0501 18:30:41.257012 11735 net.cpp:406] inception_5b/5x5 <- inception_5b/5x5_reduce
I0501 18:30:41.257025 11735 net.cpp:380] inception_5b/5x5 -> inception_5b/5x5
I0501 18:30:41.276063 11735 net.cpp:122] Setting up inception_5b/5x5
I0501 18:30:41.276091 11735 net.cpp:129] Top shape: 32 128 7 7 (200704)
I0501 18:30:41.276098 11735 net.cpp:137] Memory required for data: 1780446728
I0501 18:30:41.276113 11735 layer_factory.hpp:77] Creating layer inception_5b/relu_5x5
I0501 18:30:41.276126 11735 net.cpp:84] Creating Layer inception_5b/relu_5x5
I0501 18:30:41.276135 11735 net.cpp:406] inception_5b/relu_5x5 <- inception_5b/5x5
I0501 18:30:41.276149 11735 net.cpp:367] inception_5b/relu_5x5 -> inception_5b/5x5 (in-place)
I0501 18:30:41.277236 11735 net.cpp:122] Setting up inception_5b/relu_5x5
I0501 18:30:41.277252 11735 net.cpp:129] Top shape: 32 128 7 7 (200704)
I0501 18:30:41.277257 11735 net.cpp:137] Memory required for data: 1781249544
I0501 18:30:41.277263 11735 layer_factory.hpp:77] Creating layer inception_5b/pool
I0501 18:30:41.277273 11735 net.cpp:84] Creating Layer inception_5b/pool
I0501 18:30:41.277281 11735 net.cpp:406] inception_5b/pool <- inception_5a/output_inception_5a/output_0_split_3
I0501 18:30:41.277292 11735 net.cpp:380] inception_5b/pool -> inception_5b/pool
I0501 18:30:41.277359 11735 net.cpp:122] Setting up inception_5b/pool
I0501 18:30:41.277371 11735 net.cpp:129] Top shape: 32 832 7 7 (1304576)
I0501 18:30:41.277376 11735 net.cpp:137] Memory required for data: 1786467848
I0501 18:30:41.277381 11735 layer_factory.hpp:77] Creating layer inception_5b/pool_proj
I0501 18:30:41.277401 11735 net.cpp:84] Creating Layer inception_5b/pool_proj
I0501 18:30:41.277410 11735 net.cpp:406] inception_5b/pool_proj <- inception_5b/pool
I0501 18:30:41.277420 11735 net.cpp:380] inception_5b/pool_proj -> inception_5b/pool_proj
I0501 18:30:41.316951 11735 net.cpp:122] Setting up inception_5b/pool_proj
I0501 18:30:41.316977 11735 net.cpp:129] Top shape: 32 128 7 7 (200704)
I0501 18:30:41.316984 11735 net.cpp:137] Memory required for data: 1787270664
I0501 18:30:41.316998 11735 layer_factory.hpp:77] Creating layer inception_5b/relu_pool_proj
I0501 18:30:41.317011 11735 net.cpp:84] Creating Layer inception_5b/relu_pool_proj
I0501 18:30:41.317019 11735 net.cpp:406] inception_5b/relu_pool_proj <- inception_5b/pool_proj
I0501 18:30:41.317034 11735 net.cpp:367] inception_5b/relu_pool_proj -> inception_5b/pool_proj (in-place)
I0501 18:30:41.318063 11735 net.cpp:122] Setting up inception_5b/relu_pool_proj
I0501 18:30:41.318078 11735 net.cpp:129] Top shape: 32 128 7 7 (200704)
I0501 18:30:41.318084 11735 net.cpp:137] Memory required for data: 1788073480
I0501 18:30:41.318089 11735 layer_factory.hpp:77] Creating layer inception_5b/output
I0501 18:30:41.318099 11735 net.cpp:84] Creating Layer inception_5b/output
I0501 18:30:41.318110 11735 net.cpp:406] inception_5b/output <- inception_5b/1x1
I0501 18:30:41.318120 11735 net.cpp:406] inception_5b/output <- inception_5b/3x3
I0501 18:30:41.318125 11735 net.cpp:406] inception_5b/output <- inception_5b/5x5
I0501 18:30:41.318131 11735 net.cpp:406] inception_5b/output <- inception_5b/pool_proj
I0501 18:30:41.318140 11735 net.cpp:380] inception_5b/output -> inception_5b/output
I0501 18:30:41.318187 11735 net.cpp:122] Setting up inception_5b/output
I0501 18:30:41.318198 11735 net.cpp:129] Top shape: 32 1024 7 7 (1605632)
I0501 18:30:41.318203 11735 net.cpp:137] Memory required for data: 1794496008
I0501 18:30:41.318238 11735 layer_factory.hpp:77] Creating layer pool5/7x7_s1
I0501 18:30:41.318249 11735 net.cpp:84] Creating Layer pool5/7x7_s1
I0501 18:30:41.318255 11735 net.cpp:406] pool5/7x7_s1 <- inception_5b/output
I0501 18:30:41.318269 11735 net.cpp:380] pool5/7x7_s1 -> pool5/7x7_s1
I0501 18:30:41.319298 11735 net.cpp:122] Setting up pool5/7x7_s1
I0501 18:30:41.319312 11735 net.cpp:129] Top shape: 32 1024 1 1 (32768)
I0501 18:30:41.319317 11735 net.cpp:137] Memory required for data: 1794627080
I0501 18:30:41.319324 11735 layer_factory.hpp:77] Creating layer pool5/drop_7x7_s1
I0501 18:30:41.319337 11735 net.cpp:84] Creating Layer pool5/drop_7x7_s1
I0501 18:30:41.319344 11735 net.cpp:406] pool5/drop_7x7_s1 <- pool5/7x7_s1
I0501 18:30:41.319352 11735 net.cpp:367] pool5/drop_7x7_s1 -> pool5/7x7_s1 (in-place)
I0501 18:30:41.319393 11735 net.cpp:122] Setting up pool5/drop_7x7_s1
I0501 18:30:41.319404 11735 net.cpp:129] Top shape: 32 1024 1 1 (32768)
I0501 18:30:41.319409 11735 net.cpp:137] Memory required for data: 1794758152
I0501 18:30:41.319414 11735 layer_factory.hpp:77] Creating layer loss3/classifier
I0501 18:30:41.319428 11735 net.cpp:84] Creating Layer loss3/classifier
I0501 18:30:41.319434 11735 net.cpp:406] loss3/classifier <- pool5/7x7_s1
I0501 18:30:41.319444 11735 net.cpp:380] loss3/classifier -> loss3/classifier
I0501 18:30:41.321421 11735 net.cpp:122] Setting up loss3/classifier
I0501 18:30:41.321434 11735 net.cpp:129] Top shape: 32 196 (6272)
I0501 18:30:41.321439 11735 net.cpp:137] Memory required for data: 1794783240
I0501 18:30:41.321450 11735 layer_factory.hpp:77] Creating layer loss3/loss
I0501 18:30:41.321460 11735 net.cpp:84] Creating Layer loss3/loss
I0501 18:30:41.321466 11735 net.cpp:406] loss3/loss <- loss3/classifier
I0501 18:30:41.321475 11735 net.cpp:406] loss3/loss <- label_train-data_1_split_2
I0501 18:30:41.321482 11735 net.cpp:380] loss3/loss -> loss
…
I0501 18:30:41.328902 11735 net.cpp:294] The NetState phase (1) differed from the phase (0) specified by a rule in layer train-data
I0501 18:30:41.334599 11735 net.cpp:51] Initializing net from parameters:
state {
phase: TEST
}
layer {
name: "val-data"
type: "Data"
top: "data"
top: "label"
include {
phase: TEST
}
transform_param {
mirror: false
crop_size: 224
mean_file: "/mnt/bigdisk/MANDIG2/digits/jobs/20200428-132136-11fe/mean.binaryproto"
}
data_param {
source: "/mnt/bigdisk/MANDIG2/digits/jobs/20200428-132136-11fe/val_db"
batch_size: 16
backend: LMDB
}
}
layer {
name: "conv1/7x7_s2"
type: "Convolution"
bottom: "data"
top: "conv1/7x7_s2"
param {
lr_mult: 1
decay_mult: 1
}
param {
lr_mult: 2
decay_mult: 0
}
convolution_param {
num_output: 64
pad: 3
kernel_size: 7
stride: 2
weight_filler {
type: "xavier"
std: 0.1
}
bias_filler {
type: "constant"
value: 0.2
}
}
}
layer {
name: "conv1/relu_7x7"
type: "ReLU"
bottom: "conv1/7x7_s2"
top: "conv1/7x7_s2"
}
layer {
name: "pool1/3x3_s2"
type: "Pooling"
bottom: "conv1/7x7_s2"
top: "pool1/3x3_s2"
pooling_param {
pool: MAX
kernel_size: 3
stride: 2
}
}
layer {
name: "pool1/norm1"
type: "LRN"
bottom: "pool1/3x3_s2"
top: "pool1/norm1"
lrn_param {
local_size: 5
alpha: 0.0001
beta: 0.75
}
}
layer {
name: "conv2/3x3_reduce"
type: "Convolution"
bottom: "pool1/norm1"
top: "conv2/3x3_reduce"
param {
lr_mult: 1
decay_mult: 1
}
param {
lr_mult: 2
decay_mult: 0
}
convolution_param {
num_output: 64
kernel_size: 1
weight_filler {
type: "xavier"
std: 0.1
}
bias_filler {
type: "constant"
value: 0.2
}
}
}
layer {
name: "conv2/relu_3x3_reduce"
type: "ReLU"
bottom: "conv2/3x3_reduce"
top: "conv2/3x3_reduce"
}
layer {
name: "conv2/3x3"
type: "Convolution"
bottom: "conv2/3x3_reduce"
top: "conv2/3x3"
param {
lr_mult: 1
decay_mult: 1
}
param {
lr_mult: 2
decay_mult: 0
}
convolution_param {
num_output: 192
pad: 1
kernel_size: 3
weight_filler {
type: "xavier"
std: 0.03
}
bias_filler {
type: "constant"
value: 0.2
}
}
}
layer {
name: "conv2/relu_3x3"
type: "ReLU"
bottom: "conv2/3x3"
top: "conv2/3x3"
}
layer {
name: "conv2/norm2"
type: "LRN"
bottom: "conv2/3x3"
top: "conv2/norm2"
lrn_param {
local_size: 5
alpha: 0.0001
beta: 0.75
}
}
layer {
name: "pool2/3x3_s2"
type: "Pooling"
bottom: "conv2/norm2"
top: "pool2/3x3_s2"
pooling_param {
pool: MAX
kernel_size: 3
stride: 2
}
}
layer {
name: "inception_3a/1x1"
type: "Convolution"
bottom: "pool2/3x3_s2"
top: "inception_3a/1x1"
param {
lr_mult: 1
decay_mult: 1
}
param {
lr_mult: 2
decay_mult: 0
}
convolution_param {
num_output: 64
kernel_size: 1
weight_filler {
type: "xavier"
std: 0.03
}
bias_filler {
type: "constant"
value: 0.2
}
}
}
layer {
name: "inception_3a/relu_1x1"
type: "ReLU"
bottom: "inception_3a/1x1"
top: "inception_3a/1x1"
}
layer {
name: "inception_3a/3x3_reduce"
type: "Convolution"
bottom: "pool2/3x3_s2"
top: "inception_3a/3x3_reduce"
param {
lr_mult: 1
decay_mult: 1
}
param {
lr_mult: 2
decay_mult: 0
}
convolution_param {
num_output: 96
kernel_size: 1
weight_filler {
type: "xavier"
std: 0.09
}
bias_filler {
type: "constant"
value: 0.2
}
}
}
layer {
name: "inception_3a/relu_3x3_reduce"
type: "ReLU"
bottom: "inception_3a/3x3_reduce"
top: "inception_3a/3x3_reduce"
}
layer {
name: "inception_3a/3x3"
type: "Convolution"
bottom: "inception_3a/3x3_reduce"
top: "inception_3a/3x3"
param {
lr_mult: 1
decay_mult: 1
}
param {
lr_mult: 2
decay_mult: 0
}
convolution_param {
num_output: 128
pad: 1
kernel_size: 3
weight_filler {
type: "xavier"
std: 0.03
}
bias_filler {
type: "constant"
value: 0.2
}
}
}
layer {
name: "inception_3a/relu_3x3"
type: "ReLU"
bottom: "inception_3a/3x3"
top: "inception_3a/3x3"
}
layer {
name: "inception_3a/5x5_reduce"
type: "Convolution"
bottom: "pool2/3x3_s2"
top: "inception_3a/5x5_reduce"
param {
lr_mult: 1
decay_mult: 1
}
param {
lr_mult: 2
decay_mult: 0
}
convolution_param {
num_output: 16
kernel_size: 1
weight_filler {
type: "xavier"
std: 0.2
}
bias_filler {
type: "constant"
value: 0.2
}
}
}
layer {
name: "inception_3a/relu_5x5_reduce"
type: "ReLU"
bottom: "inception_3a/5x5_reduce"
top: "inception_3a/5x5_reduce"
}
layer {
name: "inception_3a/5x5"
type: "Convolution"
bottom: "inception_3a/5x5_reduce"
top: "inception_3a/5x5"
param {
lr_mult: 1
decay_mult: 1
}
param {
lr_mult: 2
decay_mult: 0
}
convolution_param {
num_output: 32
pad: 2
kernel_size: 5
weight_filler {
type: "xavier"
std: 0.03
}
bias_filler {
type: "constant"
value: 0.2
}
}
}
layer {
name: "inception_3a/relu_5x5"
type: "ReLU"
bottom: "inception_3a/5x5"
top: "inception_3a/5x5"
}
layer {
name: "inception_3a/pool"
type: "Pooling"
bottom: "pool2/3x3_s2"
top: "inception_3a/pool"
pooling_param {
pool: MAX
kernel_size: 3
stride: 1
pad: 1
}
}
layer {
name: "inception_3a/pool_proj"
type: "Convolution"
bottom: "inception_3a/pool"
top: "inception_3a/pool_proj"
param {
lr_mult: 1
decay_mult: 1
}
param {
lr_mult: 2
decay_mult: 0
}
convolution_param {
num_output: 32
kernel_size: 1
weight_filler {
type: "xavier"
std: 0.1
}
bias_filler {
type: "constant"
value: 0.2
}
}
}
layer {
name: "inception_3a/relu_pool_proj"
type: "ReLU"
bottom: "inception_3a/pool_proj"
top: "inception_3a/pool_proj"
}
layer {
name: "inception_3a/output"
type: "Concat"
bottom: "inception_3a/1x1"
bottom: "inception_3a/3x3"
bottom: "inception_3a/5x5"
bottom: "inception_3a/pool_proj"
top: "inception_3a/output"
}
layer {
name: "inception_3b/1x1"
type: "Convolution"
bottom: "inception_3a/output"
top: "inception_3b/1x1"
param {
lr_mult: 1
decay_mult: 1
}
param {
lr_mult: 2
decay_mult: 0
}
convolution_param {
num_output: 128
kernel_size: 1
weight_filler {
type: "xavier"
std: 0.03
}
bias_filler {
type: "constant"
value: 0.2
}
}
}
layer {
name: "inception_3b/relu_1x1"
type: "ReLU"
bottom: "inception_3b/1x1"
top: "inception_3b/1x1"
}
layer {
name: "inception_3b/3x3_reduce"
type: "Convolution"
bottom: "inception_3a/output"
top: "inception_3b/3x3_reduce"
param {
lr_mult: 1
decay_mult: 1
}
param {
lr_mult: 2
decay_mult: 0
}
convolution_param {
num_output: 128
kernel_size: 1
weight_filler {
type: "xavier"
std: 0.09
}
bias_filler {
type: "constant"
value: 0.2
}
}
}
layer {
name: "inception_3b/relu_3x3_reduce"
type: "ReLU"
bottom: "inception_3b/3x3_reduce"
top: "inception_3b/3x3_reduce"
}
layer {
name: "inception_3b/3x3"
type: "Convolution"
bottom: "inception_3b/3x3_reduce"
top: "inception_3b/3x3"
param {
lr_mult: 1
decay_mult: 1
}
param {
lr_mult: 2
decay_mult: 0
}
convolution_param {
num_output: 192
pad: 1
kernel_size: 3
weight_filler {
type: "xavier"
std: 0.03
}
bias_filler {
type: "constant"
value: 0.2
}
}
}
layer {
name: "inception_3b/relu_3x3"
type: "ReLU"
bottom: "inception_3b/3x3"
top: "inception_3b/3x3"
}
layer {
name: "inception_3b/5x5_reduce"
type: "Convolution"
bottom: "inception_3a/output"
top: "inception_3b/5x5_reduce"
param {
lr_mult: 1
decay_mult: 1
}
param {
lr_mult: 2
decay_mult: 0
}
convolution_param {
num_output: 32
kernel_size: 1
weight_filler {
type: "xavier"
std: 0.2
}
bias_filler {
type: "constant"
value: 0.2
}
}
}
layer {
name: "inception_3b/relu_5x5_reduce"
type: "ReLU"
bottom: "inception_3b/5x5_reduce"
top: "inception_3b/5x5_reduce"
}
layer {
name: "inception_3b/5x5"
type: "Convolution"
bottom: "inception_3b/5x5_reduce"
top: "inception_3b/5x5"
param {
lr_mult: 1
decay_mult: 1
}
param {
lr_mult: 2
decay_mult: 0
}
convolution_param {
num_output: 96
pad: 2
kernel_size: 5
weight_filler {
type: "xavier"
std: 0.03
}
bias_filler {
type: "constant"
value: 0.2
}
}
}
layer {
name: "inception_3b/relu_5x5"
type: "ReLU"
bottom: "inception_3b/5x5"
top: "inception_3b/5x5"
}
layer {
name: "inception_3b/pool"
type: "Pooling"
bottom: "inception_3a/output"
top: "inception_3b/pool"
pooling_param {
pool: MAX
kernel_size: 3
stride: 1
pad: 1
}
}
layer {
name: "inception_3b/pool_proj"
type: "Convolution"
bottom: "inception_3b/pool"
top: "inception_3b/pool_proj"
param {
lr_mult: 1
decay_mult: 1
}
param {
lr_mult: 2
decay_mult: 0
}
convolution_param {
num_output: 64
kernel_size: 1
weight_filler {
type: "xavier"
std: 0.1
}
bias_filler {
type: "constant"
value: 0.2
}
}
}
layer {
name: "inception_3b/relu_pool_proj"
type: "ReLU"
bottom: "inception_3b/pool_proj"
top: "inception_3b/pool_proj"
}
layer {
name: "inception_3b/output"
type: "Concat"
bottom: "inception_3b/1x1"
bottom: "inception_3b/3x3"
bottom: "inception_3b/5x5"
bottom: "inception_3b/pool_proj"
top: "inception_3b/output"
}
layer {
name: "pool3/3x3_s2"
type: "Pooling"
bottom: "inception_3b/output"
top: "pool3/3x3_s2"
pooling_param {
pool: MAX
kernel_size: 3
stride: 2
}
}
layer {
name: "inception_4a/1x1"
type: "Convolution"
bottom: "pool3/3x3_s2"
top: "inception_4a/1x1"
param {
lr_mult: 1
decay_mult: 1
}
param {
lr_mult: 2
decay_mult: 0
}
convolution_param {
num_output: 192
kernel_size: 1
weight_filler {
type: "xavier"
std: 0.03
}
bias_filler {
type: "constant"
value: 0.2
}
}
}
layer {
name: "inception_4a/relu_1x1"
type: "ReLU"
bottom: "inception_4a/1x1"
top: "inception_4a/1x1"
}
layer {
name: "inception_4a/3x3_reduce"
type: "Convolution"
bottom: "pool3/3x3_s2"
top: "inception_4a/3x3_reduce"
param {
lr_mult: 1
decay_mult: 1
}
param {
lr_mult: 2
decay_mult: 0
}
convolution_param {
num_output: 96
kernel_size: 1
weight_filler {
type: "xavier"
std: 0.09
}
bias_filler {
type: "constant"
value: 0.2
}
}
}
layer {
name: "inception_4a/relu_3x3_reduce"
type: "ReLU"
bottom: "inception_4a/3x3_reduce"
top: "inception_4a/3x3_reduce"
}
layer {
name: "inception_4a/3x3"
type: "Convolution"
bottom: "inception_4a/3x3_reduce"
top: "inception_4a/3x3"
param {
lr_mult: 1
decay_mult: 1
}
param {
lr_mult: 2
decay_mult: 0
}
convolution_param {
num_output: 208
pad: 1
kernel_size: 3
weight_filler {
type: "xavier"
std: 0.03
}
bias_filler {
type: "constant"
value: 0.2
}
}
}
layer {
name: "inception_4a/relu_3x3"
type: "ReLU"
bottom: "inception_4a/3x3"
top: "inception_4a/3x3"
}
layer {
name: "inception_4a/5x5_reduce"
type: "Convolution"
bottom: "pool3/3x3_s2"
top: "inception_4a/5x5_reduce"
param {
lr_mult: 1
decay_mult: 1
}
param {
lr_mult: 2
decay_mult: 0
}
convolution_param {
num_output: 16
kernel_size: 1
weight_filler {
type: "xavier"
std: 0.2
}
bias_filler {
type: "constant"
value: 0.2
}
}
}
layer {
name: "inception_4a/relu_5x5_reduce"
type: "ReLU"
bottom: "inception_4a/5x5_reduce"
top: "inception_4a/5x5_reduce"
}
layer {
name: "inception_4a/5x5"
type: "Convolution"
bottom: "inception_4a/5x5_reduce"
top: "inception_4a/5x5"
param {
lr_mult: 1
decay_mult: 1
}
param {
lr_mult: 2
decay_mult: 0
}
convolution_param {
num_output: 48
pad: 2
kernel_size: 5
weight_filler {
type: "xavier"
std: 0.03
}
bias_filler {
type: "constant"
value: 0.2
}
}
}
layer {
name: "inception_4a/relu_5x5"
type: "ReLU"
bottom: "inception_4a/5x5"
top: "inception_4a/5x5"
}
layer {
name: "inception_4a/pool"
type: "Pooling"
bottom: "pool3/3x3_s2"
top: "inception_4a/pool"
pooling_param {
pool: MAX
kernel_size: 3
stride: 1
pad: 1
}
}
layer {
name: "inception_4a/pool_proj"
type: "Convolution"
bottom: "inception_4a/pool"
top: "inception_4a/pool_proj"
param {
lr_mult: 1
decay_mult: 1
}
param {
lr_mult: 2
decay_mult: 0
}
convolution_param {
num_output: 64
kernel_size: 1
weight_filler {
type: "xavier"
std: 0.1
}
bias_filler {
type: "constant"
value: 0.2
}
}
}
layer {
name: "inception_4a/relu_pool_proj"
type: "ReLU"
bottom: "inception_4a/pool_proj"
top: "inception_4a/pool_proj"
}
layer {
name: "inception_4a/output"
type: "Concat"
bottom: "inception_4a/1x1"
bottom: "inception_4a/3x3"
bottom: "inception_4a/5x5"
bottom: "inception_4a/pool_proj"
top: "inception_4a/output"
}
layer {
name: "loss1/ave_pool"
type: "Pooling"
bottom: "inception_4a/output"
top: "loss1/ave_pool"
pooling_param {
pool: AVE
kernel_size: 5
stride: 3
}
}
layer {
name: "loss1/conv"
type: "Convolution"
bottom: "loss1/ave_pool"
top: "loss1/conv"
param {
lr_mult: 1
decay_mult: 1
}
param {
lr_mult: 2
decay_mult: 0
}
convolution_param {
num_output: 128
kernel_size: 1
weight_filler {
type: "xavier"
std: 0.08
}
bias_filler {
type: "constant"
value: 0.2
}
}
}
layer {
name: "loss1/relu_conv"
type: "ReLU"
bottom: "loss1/conv"
top: "loss1/conv"
}
layer {
name: "loss1/fc"
type: "InnerProduct"
bottom: "loss1/conv"
top: "loss1/fc"
param {
lr_mult: 1
decay_mult: 1
}
param {
lr_mult: 2
decay_mult: 0
}
inner_product_param {
num_output: 1024
weight_filler {
type: "xavier"
std: 0.02
}
bias_filler {
type: "constant"
value: 0.2
}
}
}
layer {
name: "loss1/relu_fc"
type: "ReLU"
bottom: "loss1/fc"
top: "loss1/fc"
}
layer {
name: "loss1/drop_fc"
type: "Dropout"
bottom: "loss1/fc"
top: "loss1/fc"
dropout_param {
dropout_ratio: 0.7
}
}
layer {
name: "loss1/classifier"
type: "InnerProduct"
bottom: "loss1/fc"
top: "loss1/classifier"
param {
lr_mult: 1
decay_mult: 1
}
param {
lr_mult: 2
decay_mult: 0
}
inner_product_param {
num_output: 196
weight_filler {
type: "xavier"
std: 0.0009765625
}
bias_filler {
type: "constant"
value: 0
}
}
}
layer {
name: "loss1/loss"
type: "SoftmaxWithLoss"
bottom: "loss1/classifier"
bottom: "label"
top: "loss1/loss"
loss_weight: 0.3
}
layer {
name: "loss1/top-1"
type: "Accuracy"
bottom: "loss1/classifier"
bottom: "label"
top: "loss1/accuracy"
include {
phase: TEST
}
}
layer {
name: "loss1/top-5"
type: "Accuracy"
bottom: "loss1/classifier"
bottom: "label"
top: "loss1/accuracy-top5"
include {
phase: TEST
}
accuracy_param {
top_k: 5
}
}
layer {
name: "inception_4b/1x1"
type: "Convolution"
bottom: "inception_4a/output"
top: "inception_4b/1x1"
param {
lr_mult: 1
decay_mult: 1
}
param {
lr_mult: 2
decay_mult: 0
}
convolution_param {
num_output: 160
kernel_size: 1
weight_filler {
type: "xavier"
std: 0.03
}
bias_filler {
type: "constant"
value: 0.2
}
}
}
layer {
name: "inception_4b/relu_1x1"
type: "ReLU"
bottom: "inception_4b/1x1"
top: "inception_4b/1x1"
}
layer {
name: "inception_4b/3x3_reduce"
type: "Convolution"
bottom: "inception_4a/output"
top: "inception_4b/3x3_reduce"
param {
lr_mult: 1
decay_mult: 1
}
param {
lr_mult: 2
decay_mult: 0
}
convolution_param {
num_output: 112
kernel_size: 1
weight_filler {
type: "xavier"
std: 0.09
}
bias_filler {
type: "constant"
value: 0.2
}
}
}
layer {
name: "inception_4b/relu_3x3_reduce"
type: "ReLU"
bottom: "inception_4b/3x3_reduce"
top: "inception_4b/3x3_reduce"
}
layer {
name: "inception_4b/3x3"
type: "Convolution"
bottom: "inception_4b/3x3_reduce"
top: "inception_4b/3x3"
param {
lr_mult: 1
decay_mult: 1
}
param {
lr_mult: 2
decay_mult: 0
}
convolution_param {
num_output: 224
pad: 1
kernel_size: 3
weight_filler {
type: "xavier"
std: 0.03
}
bias_filler {
type: "constant"
value: 0.2
}
}
}
layer {
name: "inception_4b/relu_3x3"
type: "ReLU"
bottom: "inception_4b/3x3"
top: "inception_4b/3x3"
}
layer {
name: "inception_4b/5x5_reduce"
type: "Convolution"
bottom: "inception_4a/output"
top: "inception_4b/5x5_reduce"
param {
lr_mult: 1
decay_mult: 1
}
param {
lr_mult: 2
decay_mult: 0
}
convolution_param {
num_output: 24
kernel_size: 1
weight_filler {
type: "xavier"
std: 0.2
}
bias_filler {
type: "constant"
value: 0.2
}
}
}
layer {
name: "inception_4b/relu_5x5_reduce"
type: "ReLU"
bottom: "inception_4b/5x5_reduce"
top: "inception_4b/5x5_reduce"
}
layer {
name: "inception_4b/5x5"
type: "Convolution"
bottom: "inception_4b/5x5_reduce"
top: "inception_4b/5x5"
param {
lr_mult: 1
decay_mult: 1
}
param {
lr_mult: 2
decay_mult: 0
}
convolution_param {
num_output: 64
pad: 2
kernel_size: 5
weight_filler {
type: "xavier"
std: 0.03
}
bias_filler {
type: "constant"
value: 0.2
}
}
}
layer {
name: "inception_4b/relu_5x5"
type: "ReLU"
bottom: "inception_4b/5x5"
top: "inception_4b/5x5"
}
layer {
name: "inception_4b/pool"
type: "Pooling"
bottom: "inception_4a/output"
top: "inception_4b/pool"
pooling_param {
pool: MAX
kernel_size: 3
stride: 1
pad: 1
}
}
layer {
name: "inception_4b/pool_proj"
type: "Convolution"
bottom: "inception_4b/pool"
top: "inception_4b/pool_proj"
param {
lr_mult: 1
decay_mult: 1
}
param {
lr_mult: 2
decay_mult: 0
}
convolution_param {
num_output: 64
kernel_size: 1
weight_filler {
type: "xavier"
std: 0.1
}
bias_filler {
type: "constant"
value: 0.2
}
}
}
layer {
name: "inception_4b/relu_pool_proj"
type: "ReLU"
bottom: "inception_4b/pool_proj"
top: "inception_4b/pool_proj"
}
layer {
name: "inception_4b/output"
type: "Concat"
bottom: "inception_4b/1x1"
bottom: "inception_4b/3x3"
bottom: "inception_4b/5x5"
bottom: "inception_4b/pool_proj"
top: "inception_4b/output"
}
layer {
name: "inception_4c/1x1"
type: "Convolution"
bottom: "inception_4b/output"
top: "inception_4c/1x1"
param {
lr_mult: 1
decay_mult: 1
}
param {
lr_mult: 2
decay_mult: 0
}
convolution_param {
num_output: 128
kernel_size: 1
weight_filler {
type: "xavier"
std: 0.03
}
bias_filler {
type: "constant"
value: 0.2
}
}
}
layer {
name: "inception_4c/relu_1x1"
type: "ReLU"
bottom: "inception_4c/1x1"
top: "inception_4c/1x1"
}
layer {
name: "inception_4c/3x3_reduce"
type: "Convolution"
bottom: "inception_4b/output"
top: "inception_4c/3x3_reduce"
param {
lr_mult: 1
decay_mult: 1
}
param {
lr_mult: 2
decay_mult: 0
}
convolution_param {
num_output: 128
kernel_size: 1
weight_filler {
type: "xavier"
std: 0.09
}
bias_filler {
type: "constant"
value: 0.2
}
}
}
layer {
name: "inception_4c/relu_3x3_reduce"
type: "ReLU"
bottom: "inception_4c/3x3_reduce"
top: "inception_4c/3x3_reduce"
}
layer {
name: "inception_4c/3x3"
type: "Convolution"
bottom: "inception_4c/3x3_reduce"
top: "inception_4c/3x3"
param {
lr_mult: 1
decay_mult: 1
}
param {
lr_mult: 2
decay_mult: 0
}
convolution_param {
num_output: 256
pad: 1
kernel_size: 3
weight_filler {
type: "xavier"
std: 0.03
}
bias_filler {
type: "constant"
value: 0.2
}
}
}
layer {
name: "inception_4c/relu_3x3"
type: "ReLU"
bottom: "inception_4c/3x3"
top: "inception_4c/3x3"
}
layer {
name: "inception_4c/5x5_reduce"
type: "Convolution"
bottom: "inception_4b/output"
top: "inception_4c/5x5_reduce"
param {
lr_mult: 1
decay_mult: 1
}
param {
lr_mult: 2
decay_mult: 0
}
convolution_param {
num_output: 24
kernel_size: 1
weight_filler {
type: "xavier"
std: 0.2
}
bias_filler {
type: "constant"
value: 0.2
}
}
}
layer {
name: "inception_4c/relu_5x5_reduce"
type: "ReLU"
bottom: "inception_4c/5x5_reduce"
top: "inception_4c/5x5_reduce"
}
layer {
name: "inception_4c/5x5"
type: "Convolution"
bottom: "inception_4c/5x5_reduce"
top: "inception_4c/5x5"
param {
lr_mult: 1
decay_mult: 1
}
param {
lr_mult: 2
decay_mult: 0
}
convolution_param {
num_output: 64
pad: 2
kernel_size: 5
weight_filler {
type: "xavier"
std: 0.03
}
bias_filler {
type: "constant"
value: 0.2
}
}
}
layer {
name: "inception_4c/relu_5x5"
type: "ReLU"
bottom: "inception_4c/5x5"
top: "inception_4c/5x5"
}
layer {
name: "inception_4c/pool"
type: "Pooling"
bottom: "inception_4b/output"
top: "inception_4c/pool"
pooling_param {
pool: MAX
kernel_size: 3
stride: 1
pad: 1
}
}
layer {
name: "inception_4c/pool_proj"
type: "Convolution"
bottom: "inception_4c/pool"
top: "inception_4c/pool_proj"
param {
lr_mult: 1
decay_mult: 1
}
param {
lr_mult: 2
decay_mult: 0
}
convolution_param {
num_output: 64
kernel_size: 1
weight_filler {
type: "xavier"
std: 0.1
}
bias_filler {
type: "constant"
value: 0.2
}
}
}
layer {
name: "inception_4c/relu_pool_proj"
type: "ReLU"
bottom: "inception_4c/pool_proj"
top: "inception_4c/pool_proj"
}
layer {
name: "inception_4c/output"
type: "Concat"
bottom: "inception_4c/1x1"
bottom: "inception_4c/3x3"
bottom: "inception_4c/5x5"
bottom: "inception_4c/pool_proj"
top: "inception_4c/output"
}
layer {
name: "inception_4d/1x1"
type: "Convolution"
bottom: "inception_4c/output"
top: "inception_4d/1x1"
param {
lr_mult: 1
decay_mult: 1
}
param {
lr_mult: 2
decay_mult: 0
}
convolution_param {
num_output: 112
kernel_size: 1
weight_filler {
type: "xavier"
std: 0.03
}
bias_filler {
type: "constant"
value: 0.2
}
}
}
layer {
name: "inception_4d/relu_1x1"
…
I0501 18:30:42.556780 11735 net.cpp:122] Setting up inception_4c/relu_5x5
I0501 18:30:42.556794 11735 net.cpp:129] Top shape: 16 64 14 14 (200704)
I0501 18:30:42.556799 11735 net.cpp:137] Memory required for data: 700688012
I0501 18:30:42.556804 11735 layer_factory.hpp:77] Creating layer inception_4c/pool
I0501 18:30:42.556818 11735 net.cpp:84] Creating Layer inception_4c/pool
I0501 18:30:42.556825 11735 net.cpp:406] inception_4c/pool <- inception_4b/output_inception_4b/output_0_split_3
I0501 18:30:42.556835 11735 net.cpp:380] inception_4c/pool -> inception_4c/pool
I0501 18:30:42.556907 11735 net.cpp:122] Setting up inception_4c/pool
I0501 18:30:42.556918 11735 net.cpp:129] Top shape: 16 512 14 14 (1605632)
I0501 18:30:42.556924 11735 net.cpp:137] Memory required for data: 707110540
I0501 18:30:42.556929 11735 layer_factory.hpp:77] Creating layer inception_4c/pool_proj
I0501 18:30:42.556947 11735 net.cpp:84] Creating Layer inception_4c/pool_proj
I0501 18:30:42.556953 11735 net.cpp:406] inception_4c/pool_proj <- inception_4c/pool
I0501 18:30:42.556965 11735 net.cpp:380] inception_4c/pool_proj -> inception_4c/pool_proj
I0501 18:30:42.559868 11735 net.cpp:122] Setting up inception_4c/pool_proj
I0501 18:30:42.559883 11735 net.cpp:129] Top shape: 16 64 14 14 (200704)
I0501 18:30:42.559888 11735 net.cpp:137] Memory required for data: 707913356
I0501 18:30:42.559900 11735 layer_factory.hpp:77] Creating layer inception_4c/relu_pool_proj
I0501 18:30:42.559911 11735 net.cpp:84] Creating Layer inception_4c/relu_pool_proj
I0501 18:30:42.559918 11735 net.cpp:406] inception_4c/relu_pool_proj <- inception_4c/pool_proj
I0501 18:30:42.559926 11735 net.cpp:367] inception_4c/relu_pool_proj -> inception_4c/pool_proj (in-place)
I0501 18:30:42.560729 11735 net.cpp:122] Setting up inception_4c/relu_pool_proj
I0501 18:30:42.560741 11735 net.cpp:129] Top shape: 16 64 14 14 (200704)
I0501 18:30:42.560746 11735 net.cpp:137] Memory required for data: 708716172
I0501 18:30:42.560752 11735 layer_factory.hpp:77] Creating layer inception_4c/output
I0501 18:30:42.560765 11735 net.cpp:84] Creating Layer inception_4c/output
I0501 18:30:42.560770 11735 net.cpp:406] inception_4c/output <- inception_4c/1x1
I0501 18:30:42.560806 11735 net.cpp:406] inception_4c/output <- inception_4c/3x3
I0501 18:30:42.560815 11735 net.cpp:406] inception_4c/output <- inception_4c/5x5
I0501 18:30:42.560822 11735 net.cpp:406] inception_4c/output <- inception_4c/pool_proj
I0501 18:30:42.560830 11735 net.cpp:380] inception_4c/output -> inception_4c/output
I0501 18:30:42.560879 11735 net.cpp:122] Setting up inception_4c/output
I0501 18:30:42.560890 11735 net.cpp:129] Top shape: 16 512 14 14 (1605632)
I0501 18:30:42.560895 11735 net.cpp:137] Memory required for data: 715138700
I0501 18:30:42.560901 11735 layer_factory.hpp:77] Creating layer inception_4c/output_inception_4c/output_0_split
I0501 18:30:42.560910 11735 net.cpp:84] Creating Layer inception_4c/output_inception_4c/output_0_split
I0501 18:30:42.560916 11735 net.cpp:406] inception_4c/output_inception_4c/output_0_split <- inception_4c/output
I0501 18:30:42.560927 11735 net.cpp:380] inception_4c/output_inception_4c/output_0_split -> inception_4c/output_inception_4c/output_0_split_0
I0501 18:30:42.560938 11735 net.cpp:380] inception_4c/output_inception_4c/output_0_split -> inception_4c/output_inception_4c/output_0_split_1
I0501 18:30:42.560951 11735 net.cpp:380] inception_4c/output_inception_4c/output_0_split -> inception_4c/output_inception_4c/output_0_split_2
I0501 18:30:42.560961 11735 net.cpp:380] inception_4c/output_inception_4c/output_0_split -> inception_4c/output_inception_4c/output_0_split_3
I0501 18:30:42.561055 11735 net.cpp:122] Setting up inception_4c/output_inception_4c/output_0_split
I0501 18:30:42.561067 11735 net.cpp:129] Top shape: 16 512 14 14 (1605632)
I0501 18:30:42.561074 11735 net.cpp:129] Top shape: 16 512 14 14 (1605632)
I0501 18:30:42.561080 11735 net.cpp:129] Top shape: 16 512 14 14 (1605632)
I0501 18:30:42.561086 11735 net.cpp:129] Top shape: 16 512 14 14 (1605632)
I0501 18:30:42.561091 11735 net.cpp:137] Memory required for data: 740828812
I0501 18:30:42.561097 11735 layer_factory.hpp:77] Creating layer inception_4d/1x1
I0501 18:30:42.561112 11735 net.cpp:84] Creating Layer inception_4d/1x1
I0501 18:30:42.561120 11735 net.cpp:406] inception_4d/1x1 <- inception_4c/output_inception_4c/output_0_split_0
I0501 18:30:42.561131 11735 net.cpp:380] inception_4d/1x1 -> inception_4d/1x1
I0501 18:30:42.564100 11735 net.cpp:122] Setting up inception_4d/1x1
I0501 18:30:42.564113 11735 net.cpp:129] Top shape: 16 112 14 14 (351232)
I0501 18:30:42.564118 11735 net.cpp:137] Memory required for data: 742233740
I0501 18:30:42.564128 11735 layer_factory.hpp:77] Creating layer inception_4d/relu_1x1
I0501 18:30:42.564137 11735 net.cpp:84] Creating Layer inception_4d/relu_1x1
I0501 18:30:42.564143 11735 net.cpp:406] inception_4d/relu_1x1 <- inception_4d/1x1
I0501 18:30:42.564152 11735 net.cpp:367] inception_4d/relu_1x1 -> inception_4d/1x1 (in-place)
I0501 18:30:42.565287 11735 net.cpp:122] Setting up inception_4d/relu_1x1
I0501 18:30:42.565304 11735 net.cpp:129] Top shape: 16 112 14 14 (351232)
I0501 18:30:42.565310 11735 net.cpp:137] Memory required for data: 743638668
I0501 18:30:42.565315 11735 layer_factory.hpp:77] Creating layer inception_4d/3x3_reduce
I0501 18:30:42.565330 11735 net.cpp:84] Creating Layer inception_4d/3x3_reduce
I0501 18:30:42.565336 11735 net.cpp:406] inception_4d/3x3_reduce <- inception_4c/output_inception_4c/output_0_split_1
I0501 18:30:42.565346 11735 net.cpp:380] inception_4d/3x3_reduce -> inception_4d/3x3_reduce
I0501 18:30:42.584333 11735 net.cpp:122] Setting up inception_4d/3x3_reduce
I0501 18:30:42.584362 11735 net.cpp:129] Top shape: 16 144 14 14 (451584)
I0501 18:30:42.584367 11735 net.cpp:137] Memory required for data: 745445004
I0501 18:30:42.584380 11735 layer_factory.hpp:77] Creating layer inception_4d/relu_3x3_reduce
I0501 18:30:42.584393 11735 net.cpp:84] Creating Layer inception_4d/relu_3x3_reduce
I0501 18:30:42.584401 11735 net.cpp:406] inception_4d/relu_3x3_reduce <- inception_4d/3x3_reduce
I0501 18:30:42.584412 11735 net.cpp:367] inception_4d/relu_3x3_reduce -> inception_4d/3x3_reduce (in-place)
I0501 18:30:42.584921 11735 net.cpp:122] Setting up inception_4d/relu_3x3_reduce
I0501 18:30:42.584957 11735 net.cpp:129] Top shape: 16 144 14 14 (451584)
I0501 18:30:42.584962 11735 net.cpp:137] Memory required for data: 747251340
I0501 18:30:42.584967 11735 layer_factory.hpp:77] Creating layer inception_4d/3x3
I0501 18:30:42.584986 11735 net.cpp:84] Creating Layer inception_4d/3x3
I0501 18:30:42.584992 11735 net.cpp:406] inception_4d/3x3 <- inception_4d/3x3_reduce
I0501 18:30:42.585002 11735 net.cpp:380] inception_4d/3x3 -> inception_4d/3x3
I0501 18:30:42.614827 11735 net.cpp:122] Setting up inception_4d/3x3
I0501 18:30:42.614856 11735 net.cpp:129] Top shape: 16 288 14 14 (903168)
I0501 18:30:42.614861 11735 net.cpp:137] Memory required for data: 750864012
I0501 18:30:42.614876 11735 layer_factory.hpp:77] Creating layer inception_4d/relu_3x3
I0501 18:30:42.614890 11735 net.cpp:84] Creating Layer inception_4d/relu_3x3
I0501 18:30:42.614898 11735 net.cpp:406] inception_4d/relu_3x3 <- inception_4d/3x3
I0501 18:30:42.614912 11735 net.cpp:367] inception_4d/relu_3x3 -> inception_4d/3x3 (in-place)
I0501 18:30:42.615481 11735 net.cpp:122] Setting up inception_4d/relu_3x3
I0501 18:30:42.615495 11735 net.cpp:129] Top shape: 16 288 14 14 (903168)
I0501 18:30:42.615501 11735 net.cpp:137] Memory required for data: 754476684
I0501 18:30:42.615506 11735 layer_factory.hpp:77] Creating layer inception_4d/5x5_reduce
I0501 18:30:42.615525 11735 net.cpp:84] Creating Layer inception_4d/5x5_reduce
I0501 18:30:42.615533 11735 net.cpp:406] inception_4d/5x5_reduce <- inception_4c/output_inception_4c/output_0_split_2
I0501 18:30:42.615546 11735 net.cpp:380] inception_4d/5x5_reduce -> inception_4d/5x5_reduce
I0501 18:30:42.630722 11735 net.cpp:122] Setting up inception_4d/5x5_reduce
I0501 18:30:42.630754 11735 net.cpp:129] Top shape: 16 32 14 14 (100352)
I0501 18:30:42.630759 11735 net.cpp:137] Memory required for data: 754878092
I0501 18:30:42.630774 11735 layer_factory.hpp:77] Creating layer inception_4d/relu_5x5_reduce
I0501 18:30:42.630786 11735 net.cpp:84] Creating Layer inception_4d/relu_5x5_reduce
I0501 18:30:42.630793 11735 net.cpp:406] inception_4d/relu_5x5_reduce <- inception_4d/5x5_reduce
I0501 18:30:42.630803 11735 net.cpp:367] inception_4d/relu_5x5_reduce -> inception_4d/5x5_reduce (in-place)
I0501 18:30:42.633226 11735 net.cpp:122] Setting up inception_4d/relu_5x5_reduce
I0501 18:30:42.633249 11735 net.cpp:129] Top shape: 16 32 14 14 (100352)
I0501 18:30:42.633253 11735 net.cpp:137] Memory required for data: 755279500
I0501 18:30:42.633260 11735 layer_factory.hpp:77] Creating layer inception_4d/5x5
I0501 18:30:42.633281 11735 net.cpp:84] Creating Layer inception_4d/5x5
I0501 18:30:42.633291 11735 net.cpp:406] inception_4d/5x5 <- inception_4d/5x5_reduce
I0501 18:30:42.633301 11735 net.cpp:380] inception_4d/5x5 -> inception_4d/5x5
I0501 18:30:42.636729 11735 net.cpp:122] Setting up inception_4d/5x5
I0501 18:30:42.636756 11735 net.cpp:129] Top shape: 16 64 14 14 (200704)
I0501 18:30:42.636763 11735 net.cpp:137] Memory required for data: 756082316
I0501 18:30:42.636776 11735 layer_factory.hpp:77] Creating layer inception_4d/relu_5x5
I0501 18:30:42.636790 11735 net.cpp:84] Creating Layer inception_4d/relu_5x5
I0501 18:30:42.636804 11735 net.cpp:406] inception_4d/relu_5x5 <- inception_4d/5x5
I0501 18:30:42.636816 11735 net.cpp:367] inception_4d/relu_5x5 -> inception_4d/5x5 (in-place)
I0501 18:30:42.645224 11735 net.cpp:122] Setting up inception_4d/relu_5x5
I0501 18:30:42.645256 11735 net.cpp:129] Top shape: 16 64 14 14 (200704)
I0501 18:30:42.645262 11735 net.cpp:137] Memory required for data: 756885132
I0501 18:30:42.645270 11735 layer_factory.hpp:77] Creating layer inception_4d/pool
I0501 18:30:42.645285 11735 net.cpp:84] Creating Layer inception_4d/pool
I0501 18:30:42.645293 11735 net.cpp:406] inception_4d/pool <- inception_4c/output_inception_4c/output_0_split_3
I0501 18:30:42.645309 11735 net.cpp:380] inception_4d/pool -> inception_4d/pool
I0501 18:30:42.645437 11735 net.cpp:122] Setting up inception_4d/pool
I0501 18:30:42.645450 11735 net.cpp:129] Top shape: 16 512 14 14 (1605632)
I0501 18:30:42.645484 11735 net.cpp:137] Memory required for data: 763307660
I0501 18:30:42.645490 11735 layer_factory.hpp:77] Creating layer inception_4d/pool_proj
I0501 18:30:42.645509 11735 net.cpp:84] Creating Layer inception_4d/pool_proj
I0501 18:30:43.199892 11735 net.cpp:406] inception_4d/pool_proj <- inception_4d/pool
I0501 18:30:43.199928 11735 net.cpp:380] inception_4d/pool_proj -> inception_4d/pool_proj
I0501 18:30:43.203322 11735 net.cpp:122] Setting up inception_4d/pool_proj
I0501 18:30:43.203347 11735 net.cpp:129] Top shape: 16 64 14 14 (200704)
I0501 18:30:43.203354 11735 net.cpp:137] Memory required for data: 764110476
I0501 18:30:43.203367 11735 layer_factory.hpp:77] Creating layer inception_4d/relu_pool_proj
I0501 18:30:43.203382 11735 net.cpp:84] Creating Layer inception_4d/relu_pool_proj
I0501 18:30:43.203390 11735 net.cpp:406] inception_4d/relu_pool_proj <- inception_4d/pool_proj
I0501 18:30:43.203403 11735 net.cpp:367] inception_4d/relu_pool_proj -> inception_4d/pool_proj (in-place)
I0501 18:30:43.204262 11735 net.cpp:122] Setting up inception_4d/relu_pool_proj
I0501 18:30:43.204277 11735 net.cpp:129] Top shape: 16 64 14 14 (200704)
I0501 18:30:43.204283 11735 net.cpp:137] Memory required for data: 764913292
I0501 18:30:43.204289 11735 layer_factory.hpp:77] Creating layer inception_4d/output
I0501 18:30:43.204298 11735 net.cpp:84] Creating Layer inception_4d/output
I0501 18:30:43.204305 11735 net.cpp:406] inception_4d/output <- inception_4d/1x1
I0501 18:30:43.204313 11735 net.cpp:406] inception_4d/output <- inception_4d/3x3
I0501 18:30:43.204319 11735 net.cpp:406] inception_4d/output <- inception_4d/5x5
I0501 18:30:43.204325 11735 net.cpp:406] inception_4d/output <- inception_4d/pool_proj
I0501 18:30:43.204336 11735 net.cpp:380] inception_4d/output -> inception_4d/output
I0501 18:30:43.204382 11735 net.cpp:122] Setting up inception_4d/output
I0501 18:30:43.204393 11735 net.cpp:129] Top shape: 16 528 14 14 (1655808)
I0501 18:30:43.204398 11735 net.cpp:137] Memory required for data: 771536524
I0501 18:30:43.204403 11735 layer_factory.hpp:77] Creating layer inception_4d/output_inception_4d/output_0_split
I0501 18:30:43.204416 11735 net.cpp:84] Creating Layer inception_4d/output_inception_4d/output_0_split
I0501 18:30:43.204423 11735 net.cpp:406] inception_4d/output_inception_4d/output_0_split <- inception_4d/output
I0501 18:30:43.204434 11735 net.cpp:380] inception_4d/output_inception_4d/output_0_split -> inception_4d/output_inception_4d/output_0_split_0
I0501 18:30:43.204445 11735 net.cpp:380] inception_4d/output_inception_4d/output_0_split -> inception_4d/output_inception_4d/output_0_split_1
I0501 18:30:43.204455 11735 net.cpp:380] inception_4d/output_inception_4d/output_0_split -> inception_4d/output_inception_4d/output_0_split_2
I0501 18:30:43.204465 11735 net.cpp:380] inception_4d/output_inception_4d/output_0_split -> inception_4d/output_inception_4d/output_0_split_3
I0501 18:30:43.204476 11735 net.cpp:380] inception_4d/output_inception_4d/output_0_split -> inception_4d/output_inception_4d/output_0_split_4
I0501 18:30:43.204592 11735 net.cpp:122] Setting up inception_4d/output_inception_4d/output_0_split
I0501 18:30:43.204604 11735 net.cpp:129] Top shape: 16 528 14 14 (1655808)
I0501 18:30:43.204612 11735 net.cpp:129] Top shape: 16 528 14 14 (1655808)
I0501 18:30:43.204617 11735 net.cpp:129] Top shape: 16 528 14 14 (1655808)
I0501 18:30:43.204623 11735 net.cpp:129] Top shape: 16 528 14 14 (1655808)
I0501 18:30:43.204629 11735 net.cpp:129] Top shape: 16 528 14 14 (1655808)
I0501 18:30:43.204633 11735 net.cpp:137] Memory required for data: 804652684
I0501 18:30:43.204639 11735 layer_factory.hpp:77] Creating layer loss2/ave_pool
I0501 18:30:43.204649 11735 net.cpp:84] Creating Layer loss2/ave_pool
I0501 18:30:43.204655 11735 net.cpp:406] loss2/ave_pool <- inception_4d/output_inception_4d/output_0_split_0
I0501 18:30:43.204668 11735 net.cpp:380] loss2/ave_pool -> loss2/ave_pool
I0501 18:30:43.207959 11735 net.cpp:122] Setting up loss2/ave_pool
I0501 18:30:43.207979 11735 net.cpp:129] Top shape: 16 528 4 4 (135168)
I0501 18:30:43.208010 11735 net.cpp:137] Memory required for data: 805193356
I0501 18:30:43.208019 11735 layer_factory.hpp:77] Creating layer loss2/conv
I0501 18:30:43.208041 11735 net.cpp:84] Creating Layer loss2/conv
I0501 18:30:43.208050 11735 net.cpp:406] loss2/conv <- loss2/ave_pool
I0501 18:30:43.208060 11735 net.cpp:380] loss2/conv -> loss2/conv
I0501 18:30:43.211412 11735 net.cpp:122] Setting up loss2/conv
I0501 18:30:43.211431 11735 net.cpp:129] Top shape: 16 128 4 4 (32768)
I0501 18:30:43.211436 11735 net.cpp:137] Memory required for data: 805324428
I0501 18:30:43.211447 11735 layer_factory.hpp:77] Creating layer loss2/relu_conv
I0501 18:30:43.211455 11735 net.cpp:84] Creating Layer loss2/relu_conv
I0501 18:30:43.211462 11735 net.cpp:406] loss2/relu_conv <- loss2/conv
I0501 18:30:43.211472 11735 net.cpp:367] loss2/relu_conv -> loss2/conv (in-place)
I0501 18:30:43.212201 11735 net.cpp:122] Setting up loss2/relu_conv
I0501 18:30:43.212213 11735 net.cpp:129] Top shape: 16 128 4 4 (32768)
I0501 18:30:43.212218 11735 net.cpp:137] Memory required for data: 805455500
I0501 18:30:43.212224 11735 layer_factory.hpp:77] Creating layer loss2/fc
I0501 18:30:43.212235 11735 net.cpp:84] Creating Layer loss2/fc
I0501 18:30:43.212240 11735 net.cpp:406] loss2/fc <- loss2/conv
I0501 18:30:43.212255 11735 net.cpp:380] loss2/fc -> loss2/fc
I0501 18:30:43.262765 11735 net.cpp:122] Setting up loss2/fc
I0501 18:30:43.262796 11735 net.cpp:129] Top shape: 16 1024 (16384)
I0501 18:30:43.262800 11735 net.cpp:137] Memory required for data: 805521036
I0501 18:30:43.262817 11735 layer_factory.hpp:77] Creating layer loss2/relu_fc
I0501 18:30:43.262830 11735 net.cpp:84] Creating Layer loss2/relu_fc
I0501 18:30:43.262838 11735 net.cpp:406] loss2/relu_fc <- loss2/fc
I0501 18:30:43.264726 11735 net.cpp:367] loss2/relu_fc -> loss2/fc (in-place)
I0501 18:30:43.265823 11735 net.cpp:122] Setting up loss2/relu_fc
I0501 18:30:43.265842 11735 net.cpp:129] Top shape: 16 1024 (16384)
I0501 18:30:43.265847 11735 net.cpp:137] Memory required for data: 805586572
I0501 18:30:43.265854 11735 layer_factory.hpp:77] Creating layer loss2/drop_fc
I0501 18:30:43.265868 11735 net.cpp:84] Creating Layer loss2/drop_fc
I0501 18:30:43.265877 11735 net.cpp:406] loss2/drop_fc <- loss2/fc
I0501 18:30:43.265889 11735 net.cpp:367] loss2/drop_fc -> loss2/fc (in-place)
I0501 18:30:43.265940 11735 net.cpp:122] Setting up loss2/drop_fc
I0501 18:30:43.265950 11735 net.cpp:129] Top shape: 16 1024 (16384)
I0501 18:30:43.265955 11735 net.cpp:137] Memory required for data: 805652108
I0501 18:30:43.265961 11735 layer_factory.hpp:77] Creating layer loss2/classifier
I0501 18:30:43.265978 11735 net.cpp:84] Creating Layer loss2/classifier
I0501 18:30:43.265985 11735 net.cpp:406] loss2/classifier <- loss2/fc
I0501 18:30:43.265997 11735 net.cpp:380] loss2/classifier -> loss2/classifier
I0501 18:30:43.273231 11735 net.cpp:122] Setting up loss2/classifier
I0501 18:30:43.273257 11735 net.cpp:129] Top shape: 16 196 (3136)
I0501 18:30:43.273264 11735 net.cpp:137] Memory required for data: 805664652
I0501 18:30:43.273279 11735 layer_factory.hpp:77] Creating layer loss2/classifier_loss2/classifier_0_split
I0501 18:30:43.273293 11735 net.cpp:84] Creating Layer loss2/classifier_loss2/classifier_0_split
I0501 18:30:43.273301 11735 net.cpp:406] loss2/classifier_loss2/classifier_0_split <- loss2/classifier
I0501 18:30:43.273316 11735 net.cpp:380] loss2/classifier_loss2/classifier_0_split -> loss2/classifier_loss2/classifier_0_split_0
I0501 18:30:43.273331 11735 net.cpp:380] loss2/classifier_loss2/classifier_0_split -> loss2/classifier_loss2/classifier_0_split_1
I0501 18:30:43.273345 11735 net.cpp:380] loss2/classifier_loss2/classifier_0_split -> loss2/classifier_loss2/classifier_0_split_2
I0501 18:30:43.273432 11735 net.cpp:122] Setting up loss2/classifier_loss2/classifier_0_split
I0501 18:30:43.273442 11735 net.cpp:129] Top shape: 16 196 (3136)
I0501 18:30:43.273449 11735 net.cpp:129] Top shape: 16 196 (3136)
I0501 18:30:43.273454 11735 net.cpp:129] Top shape: 16 196 (3136)
I0501 18:30:43.273486 11735 net.cpp:137] Memory required for data: 805702284
I0501 18:30:43.273494 11735 layer_factory.hpp:77] Creating layer loss2/loss
I0501 18:30:43.273504 11735 net.cpp:84] Creating Layer loss2/loss
I0501 18:30:43.273510 11735 net.cpp:406] loss2/loss <- loss2/classifier_loss2/classifier_0_split_0
I0501 18:30:43.273519 11735 net.cpp:406] loss2/loss <- label_val-data_1_split_3
…
I0501 18:30:43.278568 11735 net.cpp:122] Setting up loss2/top-5
I0501 18:30:43.278589 11735 net.cpp:129] Top shape: (1)
I0501 18:30:43.278595 11735 net.cpp:137] Memory required for data: 805702296
I0501 18:30:43.278601 11735 layer_factory.hpp:77] Creating layer inception_4e/1x1
I0501 18:30:43.278626 11735 net.cpp:84] Creating Layer inception_4e/1x1
I0501 18:30:43.278635 11735 net.cpp:406] inception_4e/1x1 <- inception_4d/output_inception_4d/output_0_split_1
I0501 18:30:43.278656 11735 net.cpp:380] inception_4e/1x1 -> inception_4e/1x1
I0501 18:30:43.285267 11735 net.cpp:122] Setting up inception_4e/1x1
I0501 18:30:43.285288 11735 net.cpp:129] Top shape: 16 256 14 14 (802816)
I0501 18:30:43.285293 11735 net.cpp:137] Memory required for data: 808913560
I0501 18:30:43.285306 11735 layer_factory.hpp:77] Creating layer inception_4e/relu_1x1
I0501 18:30:43.285321 11735 net.cpp:84] Creating Layer inception_4e/relu_1x1
I0501 18:30:43.285329 11735 net.cpp:406] inception_4e/relu_1x1 <- inception_4e/1x1
I0501 18:30:43.285337 11735 net.cpp:367] inception_4e/relu_1x1 -> inception_4e/1x1 (in-place)
I0501 18:30:43.292888 11735 net.cpp:122] Setting up inception_4e/relu_1x1
I0501 18:30:43.292915 11735 net.cpp:129] Top shape: 16 256 14 14 (802816)
I0501 18:30:43.292924 11735 net.cpp:137] Memory required for data: 812124824
I0501 18:30:43.292933 11735 layer_factory.hpp:77] Creating layer inception_4e/3x3_reduce
I0501 18:30:43.292994 11735 net.cpp:84] Creating Layer inception_4e/3x3_reduce
I0501 18:30:43.293004 11735 net.cpp:406] inception_4e/3x3_reduce <- inception_4d/output_inception_4d/output_0_split_2
I0501 18:30:43.293018 11735 net.cpp:380] inception_4e/3x3_reduce -> inception_4e/3x3_reduce
I0501 18:30:43.308599 11735 net.cpp:122] Setting up inception_4e/3x3_reduce
I0501 18:30:43.308625 11735 net.cpp:129] Top shape: 16 160 14 14 (501760)
I0501 18:30:43.308630 11735 net.cpp:137] Memory required for data: 814131864
I0501 18:30:43.308645 11735 layer_factory.hpp:77] Creating layer inception_4e/relu_3x3_reduce
I0501 18:30:43.308658 11735 net.cpp:84] Creating Layer inception_4e/relu_3x3_reduce
I0501 18:30:43.308666 11735 net.cpp:406] inception_4e/relu_3x3_reduce <- inception_4e/3x3_reduce
I0501 18:30:43.308676 11735 net.cpp:367] inception_4e/relu_3x3_reduce -> inception_4e/3x3_reduce (in-place)
I0501 18:30:43.309501 11735 net.cpp:122] Setting up inception_4e/relu_3x3_reduce
I0501 18:30:43.309514 11735 net.cpp:129] Top shape: 16 160 14 14 (501760)
I0501 18:30:43.309520 11735 net.cpp:137] Memory required for data: 816138904
I0501 18:30:43.309525 11735 layer_factory.hpp:77] Creating layer inception_4e/3x3
I0501 18:30:43.309541 11735 net.cpp:84] Creating Layer inception_4e/3x3
I0501 18:30:43.309547 11735 net.cpp:406] inception_4e/3x3 <- inception_4e/3x3_reduce
I0501 18:30:43.309558 11735 net.cpp:380] inception_4e/3x3 -> inception_4e/3x3
I0501 18:30:43.325039 11735 net.cpp:122] Setting up inception_4e/3x3
I0501 18:30:43.325067 11735 net.cpp:129] Top shape: 16 320 14 14 (1003520)
I0501 18:30:43.325073 11735 net.cpp:137] Memory required for data: 820152984
I0501 18:30:43.325086 11735 layer_factory.hpp:77] Creating layer inception_4e/relu_3x3
I0501 18:30:43.325100 11735 net.cpp:84] Creating Layer inception_4e/relu_3x3
I0501 18:30:43.325109 11735 net.cpp:406] inception_4e/relu_3x3 <- inception_4e/3x3
I0501 18:30:43.325121 11735 net.cpp:367] inception_4e/relu_3x3 -> inception_4e/3x3 (in-place)
I0501 18:30:43.325892 11735 net.cpp:122] Setting up inception_4e/relu_3x3
I0501 18:30:43.325906 11735 net.cpp:129] Top shape: 16 320 14 14 (1003520)
I0501 18:30:43.325912 11735 net.cpp:137] Memory required for data: 824167064
I0501 18:30:43.325918 11735 layer_factory.hpp:77] Creating layer inception_4e/5x5_reduce
I0501 18:30:43.325934 11735 net.cpp:84] Creating Layer inception_4e/5x5_reduce
I0501 18:30:43.325940 11735 net.cpp:406] inception_4e/5x5_reduce <- inception_4d/output_inception_4d/output_0_split_3
I0501 18:30:43.325950 11735 net.cpp:380] inception_4e/5x5_reduce -> inception_4e/5x5_reduce
I0501 18:30:43.331274 11735 net.cpp:122] Setting up inception_4e/5x5_reduce
I0501 18:30:43.331300 11735 net.cpp:129] Top shape: 16 32 14 14 (100352)
I0501 18:30:43.331305 11735 net.cpp:137] Memory required for data: 824568472
I0501 18:30:43.331319 11735 layer_factory.hpp:77] Creating layer inception_4e/relu_5x5_reduce
I0501 18:30:43.331336 11735 net.cpp:84] Creating Layer inception_4e/relu_5x5_reduce
I0501 18:30:43.331346 11735 net.cpp:406] inception_4e/relu_5x5_reduce <- inception_4e/5x5_reduce
I0501 18:30:43.331357 11735 net.cpp:367] inception_4e/relu_5x5_reduce -> inception_4e/5x5_reduce (in-place)
I0501 18:30:43.332170 11735 net.cpp:122] Setting up inception_4e/relu_5x5_reduce
I0501 18:30:43.332182 11735 net.cpp:129] Top shape: 16 32 14 14 (100352)
I0501 18:30:43.332188 11735 net.cpp:137] Memory required for data: 824969880
I0501 18:30:43.332193 11735 layer_factory.hpp:77] Creating layer inception_4e/5x5
I0501 18:30:43.332212 11735 net.cpp:84] Creating Layer inception_4e/5x5
I0501 18:30:43.332219 11735 net.cpp:406] inception_4e/5x5 <- inception_4e/5x5_reduce
I0501 18:30:43.332231 11735 net.cpp:380] inception_4e/5x5 -> inception_4e/5x5
I0501 18:30:43.371644 11735 net.cpp:122] Setting up inception_4e/5x5
I0501 18:30:43.371673 11735 net.cpp:129] Top shape: 16 128 14 14 (401408)
I0501 18:30:43.371678 11735 net.cpp:137] Memory required for data: 826575512
I0501 18:30:43.371693 11735 layer_factory.hpp:77] Creating layer inception_4e/relu_5x5
I0501 18:30:43.371708 11735 net.cpp:84] Creating Layer inception_4e/relu_5x5
I0501 18:30:43.371716 11735 net.cpp:406] inception_4e/relu_5x5 <- inception_4e/5x5
I0501 18:30:43.371726 11735 net.cpp:367] inception_4e/relu_5x5 -> inception_4e/5x5 (in-place)
I0501 18:30:43.372292 11735 net.cpp:122] Setting up inception_4e/relu_5x5
I0501 18:30:43.372304 11735 net.cpp:129] Top shape: 16 128 14 14 (401408)
I0501 18:30:43.372309 11735 net.cpp:137] Memory required for data: 828181144
I0501 18:30:43.372315 11735 layer_factory.hpp:77] Creating layer inception_4e/pool
I0501 18:30:43.372324 11735 net.cpp:84] Creating Layer inception_4e/pool
I0501 18:30:43.372330 11735 net.cpp:406] inception_4e/pool <- inception_4d/output_inception_4d/output_0_split_4
I0501 18:30:43.372340 11735 net.cpp:380] inception_4e/pool -> inception_4e/pool
I0501 18:30:43.372401 11735 net.cpp:122] Setting up inception_4e/pool
I0501 18:30:43.372438 11735 net.cpp:129] Top shape: 16 528 14 14 (1655808)
I0501 18:30:43.372443 11735 net.cpp:137] Memory required for data: 834804376
I0501 18:30:43.372448 11735 layer_factory.hpp:77] Creating layer inception_4e/pool_proj
I0501 18:30:43.372464 11735 net.cpp:84] Creating Layer inception_4e/pool_proj
I0501 18:30:43.372471 11735 net.cpp:406] inception_4e/pool_proj <- inception_4e/pool
I0501 18:30:43.372479 11735 net.cpp:380] inception_4e/pool_proj -> inception_4e/pool_proj
I0501 18:30:43.375949 11735 net.cpp:122] Setting up inception_4e/pool_proj
I0501 18:30:43.375973 11735 net.cpp:129] Top shape: 16 128 14 14 (401408)
I0501 18:30:43.375978 11735 net.cpp:137] Memory required for data: 836410008
I0501 18:30:43.375989 11735 layer_factory.hpp:77] Creating layer inception_4e/relu_pool_proj
I0501 18:30:43.376001 11735 net.cpp:84] Creating Layer inception_4e/relu_pool_proj
I0501 18:30:43.376010 11735 net.cpp:406] inception_4e/relu_pool_proj <- inception_4e/pool_proj
I0501 18:30:43.376019 11735 net.cpp:367] inception_4e/relu_pool_proj -> inception_4e/pool_proj (in-place)
I0501 18:30:43.379529 11735 net.cpp:122] Setting up inception_4e/relu_pool_proj
I0501 18:30:43.379552 11735 net.cpp:129] Top shape: 16 128 14 14 (401408)
I0501 18:30:43.379557 11735 net.cpp:137] Memory required for data: 838015640
I0501 18:30:43.379565 11735 layer_factory.hpp:77] Creating layer inception_4e/output
I0501 18:30:43.379575 11735 net.cpp:84] Creating Layer inception_4e/output
I0501 18:30:43.379583 11735 net.cpp:406] inception_4e/output <- inception_4e/1x1
I0501 18:30:43.379592 11735 net.cpp:406] inception_4e/output <- inception_4e/3x3
I0501 18:30:43.379599 11735 net.cpp:406] inception_4e/output <- inception_4e/5x5
I0501 18:30:43.379606 11735 net.cpp:406] inception_4e/output <- inception_4e/pool_proj
I0501 18:30:43.379616 11735 net.cpp:380] inception_4e/output -> inception_4e/output
I0501 18:30:43.379663 11735 net.cpp:122] Setting up inception_4e/output
I0501 18:30:43.379671 11735 net.cpp:129] Top shape: 16 832 14 14 (2609152)
I0501 18:30:43.379676 11735 net.cpp:137] Memory required for data: 848452248
I0501 18:30:43.379681 11735 layer_factory.hpp:77] Creating layer pool4/3x3_s2
I0501 18:30:43.379691 11735 net.cpp:84] Creating Layer pool4/3x3_s2
I0501 18:30:43.379696 11735 net.cpp:406] pool4/3x3_s2 <- inception_4e/output
I0501 18:30:43.379706 11735 net.cpp:380] pool4/3x3_s2 -> pool4/3x3_s2
I0501 18:30:43.379763 11735 net.cpp:122] Setting up pool4/3x3_s2
I0501 18:30:43.379771 11735 net.cpp:129] Top shape: 16 832 7 7 (652288)
I0501 18:30:43.379776 11735 net.cpp:137] Memory required for data: 851061400
I0501 18:30:43.379781 11735 layer_factory.hpp:77] Creating layer pool4/3x3_s2_pool4/3x3_s2_0_split
I0501 18:30:43.379791 11735 net.cpp:84] Creating Layer pool4/3x3_s2_pool4/3x3_s2_0_split
I0501 18:30:43.379797 11735 net.cpp:406] pool4/3x3_s2_pool4/3x3_s2_0_split <- pool4/3x3_s2
I0501 18:30:43.379806 11735 net.cpp:380] pool4/3x3_s2_pool4/3x3_s2_0_split -> pool4/3x3_s2_pool4/3x3_s2_0_split_0
I0501 18:30:43.379815 11735 net.cpp:380] pool4/3x3_s2_pool4/3x3_s2_0_split -> pool4/3x3_s2_pool4/3x3_s2_0_split_1
I0501 18:30:43.379824 11735 net.cpp:380] pool4/3x3_s2_pool4/3x3_s2_0_split -> pool4/3x3_s2_pool4/3x3_s2_0_split_2
I0501 18:30:43.379865 11735 net.cpp:380] pool4/3x3_s2_pool4/3x3_s2_0_split -> pool4/3x3_s2_pool4/3x3_s2_0_split_3
I0501 18:30:43.379937 11735 net.cpp:122] Setting up pool4/3x3_s2_pool4/3x3_s2_0_split
I0501 18:30:43.379945 11735 net.cpp:129] Top shape: 16 832 7 7 (652288)
I0501 18:30:43.379952 11735 net.cpp:129] Top shape: 16 832 7 7 (652288)
I0501 18:30:43.379959 11735 net.cpp:129] Top shape: 16 832 7 7 (652288)
I0501 18:30:43.379966 11735 net.cpp:129] Top shape: 16 832 7 7 (652288)
I0501 18:30:43.379971 11735 net.cpp:137] Memory required for data: 861498008
I0501 18:30:43.379976 11735 layer_factory.hpp:77] Creating layer inception_5a/1x1
I0501 18:30:43.379988 11735 net.cpp:84] Creating Layer inception_5a/1x1
I0501 18:30:43.379993 11735 net.cpp:406] inception_5a/1x1 <- pool4/3x3_s2_pool4/3x3_s2_0_split_0
I0501 18:30:43.380004 11735 net.cpp:380] inception_5a/1x1 -> inception_5a/1x1
I0501 18:30:43.399044 11735 net.cpp:122] Setting up inception_5a/1x1
I0501 18:30:43.399072 11735 net.cpp:129] Top shape: 16 256 7 7 (200704)
I0501 18:30:43.399078 11735 net.cpp:137] Memory required for data: 862300824
I0501 18:30:43.399091 11735 layer_factory.hpp:77] Creating layer inception_5a/relu_1x1
I0501 18:30:43.399108 11735 net.cpp:84] Creating Layer inception_5a/relu_1x1
I0501 18:30:43.399118 11735 net.cpp:406] inception_5a/relu_1x1 <- inception_5a/1x1
I0501 18:30:43.399129 11735 net.cpp:367] inception_5a/relu_1x1 -> inception_5a/1x1 (in-place)
I0501 18:30:43.399955 11735 net.cpp:122] Setting up inception_5a/relu_1x1
I0501 18:30:43.399967 11735 net.cpp:129] Top shape: 16 256 7 7 (200704)
I0501 18:30:43.399973 11735 net.cpp:137] Memory required for data: 863103640
I0501 18:30:43.399978 11735 layer_factory.hpp:77] Creating layer inception_5a/3x3_reduce
I0501 18:30:43.399996 11735 net.cpp:84] Creating Layer inception_5a/3x3_reduce
I0501 18:30:43.400004 11735 net.cpp:406] inception_5a/3x3_reduce <- pool4/3x3_s2_pool4/3x3_s2_0_split_1
I0501 18:30:43.400018 11735 net.cpp:380] inception_5a/3x3_reduce -> inception_5a/3x3_reduce
I0501 18:30:43.404942 11735 net.cpp:122] Setting up inception_5a/3x3_reduce
I0501 18:30:43.404975 11735 net.cpp:129] Top shape: 16 160 7 7 (125440)
I0501 18:30:43.404983 11735 net.cpp:137] Memory required for data: 863605400
I0501 18:30:43.404997 11735 layer_factory.hpp:77] Creating layer inception_5a/relu_3x3_reduce
I0501 18:30:43.405011 11735 net.cpp:84] Creating Layer inception_5a/relu_3x3_reduce
I0501 18:30:43.405019 11735 net.cpp:406] inception_5a/relu_3x3_reduce <- inception_5a/3x3_reduce
I0501 18:30:43.405030 11735 net.cpp:367] inception_5a/relu_3x3_reduce -> inception_5a/3x3_reduce (in-place)
I0501 18:30:43.425030 11735 net.cpp:122] Setting up inception_5a/relu_3x3_reduce
I0501 18:30:43.425060 11735 net.cpp:129] Top shape: 16 160 7 7 (125440)
I0501 18:30:43.425065 11735 net.cpp:137] Memory required for data: 864107160
I0501 18:30:43.425072 11735 layer_factory.hpp:77] Creating layer inception_5a/3x3
I0501 18:30:43.425093 11735 net.cpp:84] Creating Layer inception_5a/3x3
I0501 18:30:43.425101 11735 net.cpp:406] inception_5a/3x3 <- inception_5a/3x3_reduce
I0501 18:30:43.425117 11735 net.cpp:380] inception_5a/3x3 -> inception_5a/3x3
I0501 18:30:43.437780 11735 net.cpp:122] Setting up inception_5a/3x3
I0501 18:30:43.437809 11735 net.cpp:129] Top shape: 16 320 7 7 (250880)
I0501 18:30:43.437817 11735 net.cpp:137] Memory required for data: 865110680
I0501 18:30:43.437832 11735 layer_factory.hpp:77] Creating layer inception_5a/relu_3x3
I0501 18:30:43.437850 11735 net.cpp:84] Creating Layer inception_5a/relu_3x3
I0501 18:30:43.437860 11735 net.cpp:406] inception_5a/relu_3x3 <- inception_5a/3x3
I0501 18:30:43.437870 11735 net.cpp:367] inception_5a/relu_3x3 -> inception_5a/3x3 (in-place)
I0501 18:30:43.438751 11735 net.cpp:122] Setting up inception_5a/relu_3x3
I0501 18:30:43.438766 11735 net.cpp:129] Top shape: 16 320 7 7 (250880)
I0501 18:30:43.438771 11735 net.cpp:137] Memory required for data: 866114200
I0501 18:30:43.438776 11735 layer_factory.hpp:77] Creating layer inception_5a/5x5_reduce
I0501 18:30:43.438796 11735 net.cpp:84] Creating Layer inception_5a/5x5_reduce
I0501 18:30:43.438804 11735 net.cpp:406] inception_5a/5x5_reduce <- pool4/3x3_s2_pool4/3x3_s2_0_split_2
I0501 18:30:43.438817 11735 net.cpp:380] inception_5a/5x5_reduce -> inception_5a/5x5_reduce
I0501 18:30:43.442225 11735 net.cpp:122] Setting up inception_5a/5x5_reduce
I0501 18:30:43.442247 11735 net.cpp:129] Top shape: 16 32 7 7 (25088)
I0501 18:30:43.442253 11735 net.cpp:137] Memory required for data: 866214552
I0501 18:30:43.442267 11735 layer_factory.hpp:77] Creating layer inception_5a/relu_5x5_reduce
I0501 18:30:43.442281 11735 net.cpp:84] Creating Layer inception_5a/relu_5x5_reduce
I0501 18:30:43.442289 11735 net.cpp:406] inception_5a/relu_5x5_reduce <- inception_5a/5x5_reduce
I0501 18:30:43.442302 11735 net.cpp:367] inception_5a/relu_5x5_reduce -> inception_5a/5x5_reduce (in-place)
I0501 18:30:43.442942 11735 net.cpp:122] Setting up inception_5a/relu_5x5_reduce
I0501 18:30:43.442957 11735 net.cpp:129] Top shape: 16 32 7 7 (25088)
I0501 18:30:43.442963 11735 net.cpp:137] Memory required for data: 866314904
I0501 18:30:43.442970 11735 layer_factory.hpp:77] Creating layer inception_5a/5x5
I0501 18:30:43.442986 11735 net.cpp:84] Creating Layer inception_5a/5x5
I0501 18:30:43.442994 11735 net.cpp:406] inception_5a/5x5 <- inception_5a/5x5_reduce
I0501 18:30:43.443007 11735 net.cpp:380] inception_5a/5x5 -> inception_5a/5x5
I0501 18:30:43.447647 11735 net.cpp:122] Setting up inception_5a/5x5
I0501 18:30:43.447679 11735 net.cpp:129] Top shape: 16 128 7 7 (100352)
I0501 18:30:43.447687 11735 net.cpp:137] Memory required for data: 866716312
I0501 18:30:43.447705 11735 layer_factory.hpp:77] Creating layer inception_5a/relu_5x5
I0501 18:30:43.447719 11735 net.cpp:84] Creating Layer inception_5a/relu_5x5
I0501 18:30:43.447729 11735 net.cpp:406] inception_5a/relu_5x5 <- inception_5a/5x5
I0501 18:30:43.447744 11735 net.cpp:367] inception_5a/relu_5x5 -> inception_5a/5x5 (in-place)
I0501 18:30:43.467257 11735 net.cpp:122] Setting up inception_5a/relu_5x5
I0501 18:30:43.467285 11735 net.cpp:129] Top shape: 16 128 7 7 (100352)
I0501 18:30:43.467290 11735 net.cpp:137] Memory required for data: 867117720
I0501 18:30:43.467298 11735 layer_factory.hpp:77] Creating layer inception_5a/pool
I0501 18:30:43.467312 11735 net.cpp:84] Creating Layer inception_5a/pool
I0501 18:30:43.467321 11735 net.cpp:406] inception_5a/pool <- pool4/3x3_s2_pool4/3x3_s2_0_split_3
I0501 18:30:43.467335 11735 net.cpp:380] inception_5a/pool -> inception_5a/pool
I0501 18:30:43.467408 11735 net.cpp:122] Setting up inception_5a/pool
I0501 18:30:43.467418 11735 net.cpp:129] Top shape: 16 832 7 7 (652288)
I0501 18:30:43.467422 11735 net.cpp:137] Memory required for data: 869726872
I0501 18:30:43.467427 11735 layer_factory.hpp:77] Creating layer inception_5a/pool_proj
I0501 18:30:43.467443 11735 net.cpp:84] Creating Layer inception_5a/pool_proj
I0501 18:30:43.467448 11735 net.cpp:406] inception_5a/pool_proj <- inception_5a/pool
I0501 18:30:43.467456 11735 net.cpp:380] inception_5a/pool_proj -> inception_5a/pool_proj
I0501 18:30:43.472535 11735 net.cpp:122] Setting up inception_5a/pool_proj
I0501 18:30:43.472561 11735 net.cpp:129] Top shape: 16 128 7 7 (100352)
I0501 18:30:43.472566 11735 net.cpp:137] Memory required for data: 870128280
I0501 18:30:43.472579 11735 layer_factory.hpp:77] Creating layer inception_5a/relu_pool_proj
I0501 18:30:43.472594 11735 net.cpp:84] Creating Layer inception_5a/relu_pool_proj
I0501 18:30:43.472601 11735 net.cpp:406] inception_5a/relu_pool_proj <- inception_5a/pool_proj
I0501 18:30:43.472610 11735 net.cpp:367] inception_5a/relu_pool_proj -> inception_5a/pool_proj (in-place)
I0501 18:30:43.473346 11735 net.cpp:122] Setting up inception_5a/relu_pool_proj
I0501 18:30:43.473358 11735 net.cpp:129] Top shape: 16 128 7 7 (100352)
I0501 18:30:43.473363 11735 net.cpp:137] Memory required for data: 870529688
I0501 18:30:43.473369 11735 layer_factory.hpp:77] Creating layer inception_5a/output
I0501 18:30:43.473379 11735 net.cpp:84] Creating Layer inception_5a/output
I0501 18:30:43.473385 11735 net.cpp:406] inception_5a/output <- inception_5a/1x1
I0501 18:30:43.473392 11735 net.cpp:406] inception_5a/output <- inception_5a/3x3
I0501 18:30:43.473398 11735 net.cpp:406] inception_5a/output <- inception_5a/5x5
I0501 18:30:43.473404 11735 net.cpp:406] inception_5a/output <- inception_5a/pool_proj
I0501 18:30:43.473410 11735 net.cpp:380] inception_5a/output -> inception_5a/output
I0501 18:30:43.473449 11735 net.cpp:122] Setting up inception_5a/output
I0501 18:30:43.473457 11735 net.cpp:129] Top shape: 16 832 7 7 (652288)
I0501 18:30:43.473461 11735 net.cpp:137] Memory required for data: 873138840
I0501 18:30:43.473465 11735 layer_factory.hpp:77] Creating layer inception_5a/output_inception_5a/output_0_split
I0501 18:30:43.473474 11735 net.cpp:84] Creating Layer inception_5a/output_inception_5a/output_0_split
I0501 18:30:43.473479 11735 net.cpp:406] inception_5a/output_inception_5a/output_0_split <- inception_5a/output
I0501 18:30:43.473515 11735 net.cpp:380] inception_5a/output_inception_5a/output_0_split -> inception_5a/output_inception_5a/output_0_split_0
I0501 18:30:43.473523 11735 net.cpp:380] inception_5a/output_inception_5a/output_0_split -> inception_5a/output_inception_5a/output_0_split_1
I0501 18:30:43.473533 11735 net.cpp:380] inception_5a/output_inception_5a/output_0_split -> inception_5a/output_inception_5a/output_0_split_2
I0501 18:30:43.473541 11735 net.cpp:380] inception_5a/output_inception_5a/output_0_split -> inception_5a/output_inception_5a/output_0_split_3
I0501 18:30:43.473610 11735 net.cpp:122] Setting up inception_5a/output_inception_5a/output_0_split
I0501 18:30:43.473618 11735 net.cpp:129] Top shape: 16 832 7 7 (652288)
I0501 18:30:43.473624 11735 net.cpp:129] Top shape: 16 832 7 7 (652288)
I0501 18:30:43.473629 11735 net.cpp:129] Top shape: 16 832 7 7 (652288)
I0501 18:30:43.473635 11735 net.cpp:129] Top shape: 16 832 7 7 (652288)
I0501 18:30:43.473639 11735 net.cpp:137] Memory required for data: 883575448
I0501 18:30:43.473645 11735 layer_factory.hpp:77] Creating layer inception_5b/1x1
I0501 18:30:43.473659 11735 net.cpp:84] Creating Layer inception_5b/1x1
I0501 18:30:43.473664 11735 net.cpp:406] inception_5b/1x1 <- inception_5a/output_inception_5a/output_0_split_0
I0501 18:30:43.473673 11735 net.cpp:380] inception_5b/1x1 -> inception_5b/1x1
I0501 18:30:43.488476 11735 net.cpp:122] Setting up inception_5b/1x1
I0501 18:30:43.488503 11735 net.cpp:129] Top shape: 16 384 7 7 (301056)
I0501 18:30:43.488509 11735 net.cpp:137] Memory required for data: 884779672
I0501 18:30:43.488523 11735 layer_factory.hpp:77] Creating layer inception_5b/relu_1x1
I0501 18:30:43.488541 11735 net.cpp:84] Creating Layer inception_5b/relu_1x1
I0501 18:30:43.488550 11735 net.cpp:406] inception_5b/relu_1x1 <- inception_5b/1x1
I0501 18:30:43.488564 11735 net.cpp:367] inception_5b/relu_1x1 -> inception_5b/1x1 (in-place)
I0501 18:30:43.489406 11735 net.cpp:122] Setting up inception_5b/relu_1x1
I0501 18:30:43.489420 11735 net.cpp:129] Top shape: 16 384 7 7 (301056)
I0501 18:30:43.489426 11735 net.cpp:137] Memory required for data: 885983896
I0501 18:30:43.489431 11735 layer_factory.hpp:77] Creating layer inception_5b/3x3_reduce
I0501 18:30:43.489451 11735 net.cpp:84] Creating Layer inception_5b/3x3_reduce
I0501 18:30:43.489459 11735 net.cpp:406] inception_5b/3x3_reduce <- inception_5a/output_inception_5a/output_0_split_1
I0501 18:30:43.489470 11735 net.cpp:380] inception_5b/3x3_reduce -> inception_5b/3x3_reduce
I0501 18:30:43.512768 11735 net.cpp:122] Setting up inception_5b/3x3_reduce
I0501 18:30:43.512797 11735 net.cpp:129] Top shape: 16 192 7 7 (150528)
I0501 18:30:43.512804 11735 net.cpp:137] Memory required for data: 886586008
I0501 18:30:43.512820 11735 layer_factory.hpp:77] Creating layer inception_5b/relu_3x3_reduce
I0501 18:30:43.512837 11735 net.cpp:84] Creating Layer inception_5b/relu_3x3_reduce
I0501 18:30:43.512847 11735 net.cpp:406] inception_5b/relu_3x3_reduce <- inception_5b/3x3_reduce
I0501 18:30:43.512857 11735 net.cpp:367] inception_5b/relu_3x3_reduce -> inception_5b/3x3_reduce (in-place)
I0501 18:30:43.513753 11735 net.cpp:122] Setting up inception_5b/relu_3x3_reduce
I0501 18:30:43.513769 11735 net.cpp:129] Top shape: 16 192 7 7 (150528)
I0501 18:30:43.513775 11735 net.cpp:137] Memory required for data: 887188120
I0501 18:30:43.513780 11735 layer_factory.hpp:77] Creating layer inception_5b/3x3
I0501 18:30:43.513801 11735 net.cpp:84] Creating Layer inception_5b/3x3
I0501 18:30:43.513809 11735 net.cpp:406] inception_5b/3x3 <- inception_5b/3x3_reduce
I0501 18:30:43.513823 11735 net.cpp:380] inception_5b/3x3 -> inception_5b/3x3
I0501 18:30:43.554867 11735 net.cpp:122] Setting up inception_5b/3x3
I0501 18:30:43.554893 11735 net.cpp:129] Top shape: 16 384 7 7 (301056)
I0501 18:30:43.554898 11735 net.cpp:137] Memory required for data: 888392344
I0501 18:30:43.554913 11735 layer_factory.hpp:77] Creating layer inception_5b/relu_3x3
I0501 18:30:43.554929 11735 net.cpp:84] Creating Layer inception_5b/relu_3x3
I0501 18:30:43.554963 11735 net.cpp:406] inception_5b/relu_3x3 <- inception_5b/3x3
I0501 18:30:43.554973 11735 net.cpp:367] inception_5b/relu_3x3 -> inception_5b/3x3 (in-place)
I0501 18:30:43.555477 11735 net.cpp:122] Setting up inception_5b/relu_3x3
I0501 18:30:43.555490 11735 net.cpp:129] Top shape: 16 384 7 7 (301056)
I0501 18:30:43.555493 11735 net.cpp:137] Memory required for data: 889596568
I0501 18:30:43.555498 11735 layer_factory.hpp:77] Creating layer inception_5b/5x5_reduce
I0501 18:30:43.555516 11735 net.cpp:84] Creating Layer inception_5b/5x5_reduce
I0501 18:30:43.555521 11735 net.cpp:406] inception_5b/5x5_reduce <- inception_5a/output_inception_5a/output_0_split_2
I0501 18:30:43.555532 11735 net.cpp:380] inception_5b/5x5_reduce -> inception_5b/5x5_reduce
I0501 18:30:43.559072 11735 net.cpp:122] Setting up inception_5b/5x5_reduce
I0501 18:30:43.559096 11735 net.cpp:129] Top shape: 16 48 7 7 (37632)
I0501 18:30:43.559101 11735 net.cpp:137] Memory required for data: 889747096
I0501 18:30:43.559113 11735 layer_factory.hpp:77] Creating layer inception_5b/relu_5x5_reduce
I0501 18:30:43.559124 11735 net.cpp:84] Creating Layer inception_5b/relu_5x5_reduce
I0501 18:30:43.559132 11735 net.cpp:406] inception_5b/relu_5x5_reduce <- inception_5b/5x5_reduce
I0501 18:30:43.559142 11735 net.cpp:367] inception_5b/relu_5x5_reduce -> inception_5b/5x5_reduce (in-place)
I0501 18:30:43.559645 11735 net.cpp:122] Setting up inception_5b/relu_5x5_reduce
I0501 18:30:43.559656 11735 net.cpp:129] Top shape: 16 48 7 7 (37632)
I0501 18:30:43.559661 11735 net.cpp:137] Memory required for data: 889897624
I0501 18:30:43.559666 11735 layer_factory.hpp:77] Creating layer inception_5b/5x5
I0501 18:30:43.559684 11735 net.cpp:84] Creating Layer inception_5b/5x5
I0501 18:30:43.559689 11735 net.cpp:406] inception_5b/5x5 <- inception_5b/5x5_reduce
I0501 18:30:43.559697 11735 net.cpp:380] inception_5b/5x5 -> inception_5b/5x5
I0501 18:30:43.585593 11735 net.cpp:122] Setting up inception_5b/5x5
I0501 18:30:43.585620 11735 net.cpp:129] Top shape: 16 128 7 7 (100352)
I0501 18:30:43.585626 11735 net.cpp:137] Memory required for data: 890299032
I0501 18:30:43.585639 11735 layer_factory.hpp:77] Creating layer inception_5b/relu_5x5
I0501 18:30:43.585654 11735 net.cpp:84] Creating Layer inception_5b/relu_5x5
I0501 18:30:43.585661 11735 net.cpp:406] inception_5b/relu_5x5 <- inception_5b/5x5
I0501 18:30:43.585672 11735 net.cpp:367] inception_5b/relu_5x5 -> inception_5b/5x5 (in-place)
I0501 18:30:43.586411 11735 net.cpp:122] Setting up inception_5b/relu_5x5
I0501 18:30:43.586423 11735 net.cpp:129] Top shape: 16 128 7 7 (100352)
I0501 18:30:43.586429 11735 net.cpp:137] Memory required for data: 890700440
I0501 18:30:43.586436 11735 layer_factory.hpp:77] Creating layer inception_5b/pool
I0501 18:30:43.586447 11735 net.cpp:84] Creating Layer inception_5b/pool
I0501 18:30:43.586453 11735 net.cpp:406] inception_5b/pool <- inception_5a/output_inception_5a/output_0_split_3
I0501 18:30:43.586462 11735 net.cpp:380] inception_5b/pool -> inception_5b/pool
I0501 18:30:43.586560 11735 net.cpp:122] Setting up inception_5b/pool
I0501 18:30:43.586570 11735 net.cpp:129] Top shape: 16 832 7 7 (652288)
I0501 18:30:43.586575 11735 net.cpp:137] Memory required for data: 893309592
I0501 18:30:43.586578 11735 layer_factory.hpp:77] Creating layer inception_5b/pool_proj
I0501 18:30:43.586594 11735 net.cpp:84] Creating Layer inception_5b/pool_proj
I0501 18:30:43.586601 11735 net.cpp:406] inception_5b/pool_proj <- inception_5b/pool
I0501 18:30:43.586611 11735 net.cpp:380] inception_5b/pool_proj -> inception_5b/pool_proj
I0501 18:30:43.589680 11735 net.cpp:122] Setting up inception_5b/pool_proj
I0501 18:30:43.589692 11735 net.cpp:129] Top shape: 16 128 7 7 (100352)
I0501 18:30:43.589697 11735 net.cpp:137] Memory required for data: 893711000
I0501 18:30:43.589706 11735 layer_factory.hpp:77] Creating layer inception_5b/relu_pool_proj
I0501 18:30:43.589716 11735 net.cpp:84] Creating Layer inception_5b/relu_pool_proj
I0501 18:30:43.589723 11735 net.cpp:406] inception_5b/relu_pool_proj <- inception_5b/pool_proj
I0501 18:30:43.589756 11735 net.cpp:367] inception_5b/relu_pool_proj -> inception_5b/pool_proj (in-place)
I0501 18:30:43.590466 11735 net.cpp:122] Setting up inception_5b/relu_pool_proj
I0501 18:30:43.590478 11735 net.cpp:129] Top shape: 16 128 7 7 (100352)
I0501 18:30:43.590529 11735 net.cpp:137] Memory required for data: 894112408
I0501 18:30:43.590534 11735 layer_factory.hpp:77] Creating layer inception_5b/output
I0501 18:30:43.590545 11735 net.cpp:84] Creating Layer inception_5b/output
I0501 18:30:43.590551 11735 net.cpp:406] inception_5b/output <- inception_5b/1x1
I0501 18:30:43.590559 11735 net.cpp:406] inception_5b/output <- inception_5b/3x3
I0501 18:30:43.590564 11735 net.cpp:406] inception_5b/output <- inception_5b/5x5
I0501 18:30:43.590569 11735 net.cpp:406] inception_5b/output <- inception_5b/pool_proj
I0501 18:30:43.590576 11735 net.cpp:380] inception_5b/output -> inception_5b/output
I0501 18:30:43.590615 11735 net.cpp:122] Setting up inception_5b/output
I0501 18:30:43.590624 11735 net.cpp:129] Top shape: 16 1024 7 7 (802816)
I0501 18:30:43.590629 11735 net.cpp:137] Memory required for data: 897323672
I0501 18:30:43.590634 11735 layer_factory.hpp:77] Creating layer pool5/7x7_s1
I0501 18:30:43.590642 11735 net.cpp:84] Creating Layer pool5/7x7_s1
I0501 18:30:43.590648 11735 net.cpp:406] pool5/7x7_s1 <- inception_5b/output
I0501 18:30:43.590658 11735 net.cpp:380] pool5/7x7_s1 -> pool5/7x7_s1
I0501 18:30:43.591590 11735 net.cpp:122] Setting up pool5/7x7_s1
I0501 18:30:43.591604 11735 net.cpp:129] Top shape: 16 1024 1 1 (16384)
I0501 18:30:43.591609 11735 net.cpp:137] Memory required for data: 897389208
I0501 18:30:43.591614 11735 layer_factory.hpp:77] Creating layer pool5/drop_7x7_s1
I0501 18:30:43.591625 11735 net.cpp:84] Creating Layer pool5/drop_7x7_s1
I0501 18:30:43.591631 11735 net.cpp:406] pool5/drop_7x7_s1 <- pool5/7x7_s1
I0501 18:30:43.591639 11735 net.cpp:367] pool5/drop_7x7_s1 -> pool5/7x7_s1 (in-place)
I0501 18:30:43.591675 11735 net.cpp:122] Setting up pool5/drop_7x7_s1
I0501 18:30:43.591683 11735 net.cpp:129] Top shape: 16 1024 1 1 (16384)
I0501 18:30:43.591687 11735 net.cpp:137] Memory required for data: 897454744
I0501 18:30:43.591692 11735 layer_factory.hpp:77] Creating layer loss3/classifier
I0501 18:30:43.591703 11735 net.cpp:84] Creating Layer loss3/classifier
I0501 18:30:43.591708 11735 net.cpp:406] loss3/classifier <- pool5/7x7_s1
I0501 18:30:43.591717 11735 net.cpp:380] loss3/classifier -> loss3/classifier
I0501 18:30:43.594548 11735 net.cpp:122] Setting up loss3/classifier
I0501 18:30:43.594571 11735 net.cpp:129] Top shape: 16 196 (3136)
I0501 18:30:43.594576 11735 net.cpp:137] Memory required for data: 897467288
I0501 18:30:43.594589 11735 layer_factory.hpp:77] Creating layer loss3/classifier_loss3/classifier_0_split
I0501 18:30:43.594600 11735 net.cpp:84] Creating Layer loss3/classifier_loss3/classifier_0_split
I0501 18:30:43.594607 11735 net.cpp:406] loss3/classifier_loss3/classifier_0_split <- loss3/classifier
I0501 18:30:43.594619 11735 net.cpp:380] loss3/classifier_loss3/classifier_0_split -> loss3/classifier_loss3/classifier_0_split_0
I0501 18:30:43.594630 11735 net.cpp:380] loss3/classifier_loss3/classifier_0_split -> loss3/classifier_loss3/classifier_0_split_1
I0501 18:30:43.594637 11735 net.cpp:380] loss3/classifier_loss3/classifier_0_split -> loss3/classifier_loss3/classifier_0_split_2
I0501 18:30:43.594703 11735 net.cpp:122] Setting up loss3/classifier_loss3/classifier_0_split
I0501 18:30:43.594710 11735 net.cpp:129] Top shape: 16 196 (3136)
I0501 18:30:43.594717 11735 net.cpp:129] Top shape: 16 196 (3136)
I0501 18:30:43.594722 11735 net.cpp:129] Top shape: 16 196 (3136)
I0501 18:30:43.594727 11735 net.cpp:137] Memory required for data: 897504920
I0501 18:30:43.594732 11735 layer_factory.hpp:77] Creating layer loss3/loss
I0501 18:30:43.594741 11735 net.cpp:84] Creating Layer loss3/loss
I0501 18:30:43.594746 11735 net.cpp:406] loss3/loss <- loss3/classifier_loss3/classifier_0_split_0
I0501 18:30:43.594754 11735 net.cpp:406] loss3/loss <- label_val-data_1_split_6
…
