…
I0430 14:20:09.344929 27945 net.cpp:294] The NetState phase (0) differed from the phase (1) specified by a rule in layer accuracy
I0430 14:20:09.345154 27945 net.cpp:51] Initializing net from parameters:
state {
phase: TRAIN
level: 0
stage: ""
}
layer {
name: "train-data"
type: "Data"
top: "data"
top: "label"
include {
phase: TRAIN
}
transform_param {
mirror: true
crop_size: 227
mean_file: "/mnt/bigdisk/MANDIG2/digits/jobs/20200428-132136-11fe/mean.binaryproto"
}
data_param {
source: "/mnt/bigdisk/MANDIG2/digits/jobs/20200428-132136-11fe/train_db"
batch_size: 128
backend: LMDB
}
}
layer {
name: "conv1"
type: "Convolution"
bottom: "data"
top: "conv1"
param {
lr_mult: 1
decay_mult: 1
}
param {
lr_mult: 2
decay_mult: 0
}
convolution_param {
num_output: 96
kernel_size: 11
stride: 4
weight_filler {
type: "gaussian"
std: 0.01
}
bias_filler {
type: "constant"
value: 0
}
}
}
layer {
name: "relu1"
type: "ReLU"
bottom: "conv1"
top: "conv1"
}
layer {
name: "norm1"
type: "LRN"
bottom: "conv1"
top: "norm1"
lrn_param {
local_size: 5
alpha: 0.0001
beta: 0.75
}
}
layer {
name: "pool1"
type: "Pooling"
bottom: "norm1"
top: "pool1"
pooling_param {
pool: MAX
kernel_size: 3
stride: 2
}
}
layer {
name: "conv2"
type: "Convolution"
bottom: "pool1"
top: "conv2"
param {
lr_mult: 1
decay_mult: 1
}
param {
lr_mult: 2
decay_mult: 0
}
convolution_param {
num_output: 256
pad: 2
kernel_size: 5
group: 2
weight_filler {
type: "gaussian"
std: 0.01
}
bias_filler {
type: "constant"
value: 0.1
}
}
}
layer {
name: "relu2"
type: "ReLU"
bottom: "conv2"
top: "conv2"
}
layer {
name: "norm2"
type: "LRN"
bottom: "conv2"
top: "norm2"
lrn_param {
local_size: 5
alpha: 0.0001
beta: 0.75
}
}
layer {
name: "pool2"
type: "Pooling"
bottom: "norm2"
top: "pool2"
pooling_param {
pool: MAX
kernel_size: 3
stride: 2
}
}
layer {
name: "conv3"
type: "Convolution"
bottom: "pool2"
top: "conv3"
param {
lr_mult: 1
decay_mult: 1
}
param {
lr_mult: 2
decay_mult: 0
}
convolution_param {
num_output: 384
pad: 1
kernel_size: 3
weight_filler {
type: "gaussian"
std: 0.01
}
bias_filler {
type: "constant"
value: 0
}
}
}
layer {
name: "relu3"
type: "ReLU"
bottom: "conv3"
top: "conv3"
}
layer {
name: "conv4"
type: "Convolution"
bottom: "conv3"
top: "conv4"
param {
lr_mult: 1
decay_mult: 1
}
param {
lr_mult: 2
decay_mult: 0
}
convolution_param {
num_output: 384
pad: 1
kernel_size: 3
group: 2
weight_filler {
type: "gaussian"
std: 0.01
}
bias_filler {
type: "constant"
value: 0.1
}
}
}
layer {
name: "relu4"
type: "ReLU"
bottom: "conv4"
top: "conv4"
}
layer {
name: "conv5"
type: "Convolution"
bottom: "conv4"
top: "conv5"
param {
lr_mult: 1
decay_mult: 1
}
param {
lr_mult: 2
decay_mult: 0
}
convolution_param {
num_output: 256
pad: 1
kernel_size: 3
group: 2
weight_filler {
type: "gaussian"
std: 0.01
}
bias_filler {
type: "constant"
value: 0.1
}
}
}
layer {
name: "relu5"
type: "ReLU"
bottom: "conv5"
top: "conv5"
}
layer {
name: "pool5"
type: "Pooling"
bottom: "conv5"
top: "pool5"
pooling_param {
pool: MAX
kernel_size: 3
stride: 2
}
}
layer {
name: "fc6"
type: "InnerProduct"
bottom: "pool5"
top: "fc6"
param {
lr_mult: 1
decay_mult: 1
}
param {
lr_mult: 2
decay_mult: 0
}
inner_product_param {
num_output: 4096
weight_filler {
type: "gaussian"
std: 0.005
}
bias_filler {
type: "constant"
value: 0.1
}
}
}
layer {
name: "relu6"
type: "ReLU"
bottom: "fc6"
top: "fc6"
}
layer {
name: "drop6"
type: "Dropout"
bottom: "fc6"
top: "fc6"
dropout_param {
dropout_ratio: 0.5
}
}
layer {
name: "fc7"
type: "InnerProduct"
bottom: "fc6"
top: "fc7"
param {
lr_mult: 1
decay_mult: 1
}
param {
lr_mult: 2
decay_mult: 0
}
inner_product_param {
num_output: 4096
weight_filler {
type: "gaussian"
std: 0.005
}
bias_filler {
type: "constant"
value: 0.1
}
}
}
layer {
name: "relu7"
type: "ReLU"
bottom: "fc7"
top: "fc7"
}
layer {
name: "drop7"
type: "Dropout"
bottom: "fc7"
top: "fc7"
dropout_param {
dropout_ratio: 0.5
}
}
layer {
name: "fc8"
type: "InnerProduct"
bottom: "fc7"
top: "fc8"
param {
lr_mult: 1
decay_mult: 1
}
param {
lr_mult: 2
decay_mult: 0
}
inner_product_param {
num_output: 196
weight_filler {
type: "gaussian"
std: 0.01
}
bias_filler {
type: "constant"
value: 0
}
}
}
layer {
name: "loss"
type: "SoftmaxWithLoss"
bottom: "fc8"
bottom: "label"
top: "loss"
}
I0430 14:20:09.345273 27945 layer_factory.hpp:77] Creating layer train-data
I0430 14:20:09.370927 27945 db_lmdb.cpp:35] Opened lmdb /mnt/bigdisk/MANDIG2/digits/jobs/20200428-132136-11fe/train_db
I0430 14:20:09.399262 27945 net.cpp:84] Creating Layer train-data
I0430 14:20:09.399292 27945 net.cpp:380] train-data -> data
I0430 14:20:09.399323 27945 net.cpp:380] train-data -> label
I0430 14:20:09.399340 27945 data_transformer.cpp:25] Loading mean file from: /mnt/bigdisk/MANDIG2/digits/jobs/20200428-132136-11fe/mean.binaryproto
I0430 14:20:09.462786 27945 data_layer.cpp:45] output data size: 128,3,227,227
I0430 14:20:09.746428 27945 net.cpp:122] Setting up train-data
I0430 14:20:09.746460 27945 net.cpp:129] Top shape: 128 3 227 227 (19787136)
I0430 14:20:09.746471 27945 net.cpp:129] Top shape: 128 (128)
I0430 14:20:09.746666 27945 net.cpp:137] Memory required for data: 79149056
I0430 14:20:09.746690 27945 layer_factory.hpp:77] Creating layer conv1
I0430 14:20:09.746721 27945 net.cpp:84] Creating Layer conv1
I0430 14:20:09.746732 27945 net.cpp:406] conv1 <- data
I0430 14:20:09.746749 27945 net.cpp:380] conv1 -> conv1
I0430 14:20:11.886742 27945 net.cpp:122] Setting up conv1
I0430 14:20:11.886783 27945 net.cpp:129] Top shape: 128 96 55 55 (37171200)
I0430 14:20:11.886796 27945 net.cpp:137] Memory required for data: 227833856
I0430 14:20:11.886828 27945 layer_factory.hpp:77] Creating layer relu1
I0430 14:20:11.886857 27945 net.cpp:84] Creating Layer relu1
I0430 14:20:11.886870 27945 net.cpp:406] relu1 <- conv1
I0430 14:20:11.886886 27945 net.cpp:367] relu1 -> conv1 (in-place)
I0430 14:20:11.887495 27945 net.cpp:122] Setting up relu1
I0430 14:20:11.887514 27945 net.cpp:129] Top shape: 128 96 55 55 (37171200)
I0430 14:20:11.887524 27945 net.cpp:137] Memory required for data: 376518656
I0430 14:20:11.887532 27945 layer_factory.hpp:77] Creating layer norm1
I0430 14:20:11.887557 27945 net.cpp:84] Creating Layer norm1
I0430 14:20:11.887571 27945 net.cpp:406] norm1 <- conv1
I0430 14:20:11.887620 27945 net.cpp:380] norm1 -> norm1
I0430 14:20:11.888623 27945 net.cpp:122] Setting up norm1
I0430 14:20:11.888643 27945 net.cpp:129] Top shape: 128 96 55 55 (37171200)
I0430 14:20:11.888653 27945 net.cpp:137] Memory required for data: 525203456
I0430 14:20:11.888664 27945 layer_factory.hpp:77] Creating layer pool1
I0430 14:20:11.888679 27945 net.cpp:84] Creating Layer pool1
I0430 14:20:11.888693 27945 net.cpp:406] pool1 <- norm1
I0430 14:20:11.888711 27945 net.cpp:380] pool1 -> pool1
I0430 14:20:11.888792 27945 net.cpp:122] Setting up pool1
I0430 14:20:11.888808 27945 net.cpp:129] Top shape: 128 96 27 27 (8957952)
I0430 14:20:11.888815 27945 net.cpp:137] Memory required for data: 561035264
I0430 14:20:11.888825 27945 layer_factory.hpp:77] Creating layer conv2
I0430 14:20:11.888854 27945 net.cpp:84] Creating Layer conv2
I0430 14:20:11.888865 27945 net.cpp:406] conv2 <- pool1
I0430 14:20:11.888881 27945 net.cpp:380] conv2 -> conv2
I0430 14:20:11.905861 27945 net.cpp:122] Setting up conv2
I0430 14:20:11.905884 27945 net.cpp:129] Top shape: 128 256 27 27 (23887872)
I0430 14:20:11.905894 27945 net.cpp:137] Memory required for data: 656586752
I0430 14:20:11.905913 27945 layer_factory.hpp:77] Creating layer relu2
I0430 14:20:11.905934 27945 net.cpp:84] Creating Layer relu2
I0430 14:20:11.905947 27945 net.cpp:406] relu2 <- conv2
I0430 14:20:11.905963 27945 net.cpp:367] relu2 -> conv2 (in-place)
I0430 14:20:11.921960 27945 net.cpp:122] Setting up relu2
I0430 14:20:11.921985 27945 net.cpp:129] Top shape: 128 256 27 27 (23887872)
I0430 14:20:11.921995 27945 net.cpp:137] Memory required for data: 752138240
I0430 14:20:11.922005 27945 layer_factory.hpp:77] Creating layer norm2
I0430 14:20:11.922029 27945 net.cpp:84] Creating Layer norm2
I0430 14:20:11.922039 27945 net.cpp:406] norm2 <- conv2
I0430 14:20:11.922052 27945 net.cpp:380] norm2 -> norm2
I0430 14:20:11.922724 27945 net.cpp:122] Setting up norm2
I0430 14:20:11.922740 27945 net.cpp:129] Top shape: 128 256 27 27 (23887872)
I0430 14:20:11.922749 27945 net.cpp:137] Memory required for data: 847689728
I0430 14:20:11.922758 27945 layer_factory.hpp:77] Creating layer pool2
I0430 14:20:11.922778 27945 net.cpp:84] Creating Layer pool2
I0430 14:20:11.922789 27945 net.cpp:406] pool2 <- norm2
I0430 14:20:11.922801 27945 net.cpp:380] pool2 -> pool2
I0430 14:20:11.922860 27945 net.cpp:122] Setting up pool2
I0430 14:20:11.922874 27945 net.cpp:129] Top shape: 128 256 13 13 (5537792)
I0430 14:20:11.922879 27945 net.cpp:137] Memory required for data: 869840896
I0430 14:20:11.922888 27945 layer_factory.hpp:77] Creating layer conv3
I0430 14:20:11.922904 27945 net.cpp:84] Creating Layer conv3
I0430 14:20:11.922910 27945 net.cpp:406] conv3 <- pool2
I0430 14:20:11.922928 27945 net.cpp:380] conv3 -> conv3
I0430 14:20:11.946941 27945 net.cpp:122] Setting up conv3
I0430 14:20:11.946975 27945 net.cpp:129] Top shape: 128 384 13 13 (8306688)
I0430 14:20:11.946987 27945 net.cpp:137] Memory required for data: 903067648
I0430 14:20:11.947013 27945 layer_factory.hpp:77] Creating layer relu3
I0430 14:20:11.947031 27945 net.cpp:84] Creating Layer relu3
I0430 14:20:11.947041 27945 net.cpp:406] relu3 <- conv3
I0430 14:20:11.947055 27945 net.cpp:367] relu3 -> conv3 (in-place)
I0430 14:20:11.947928 27945 net.cpp:122] Setting up relu3
I0430 14:20:11.947948 27945 net.cpp:129] Top shape: 128 384 13 13 (8306688)
I0430 14:20:11.947957 27945 net.cpp:137] Memory required for data: 936294400
I0430 14:20:11.947968 27945 layer_factory.hpp:77] Creating layer conv4
I0430 14:20:11.947990 27945 net.cpp:84] Creating Layer conv4
I0430 14:20:11.947999 27945 net.cpp:406] conv4 <- conv3
I0430 14:20:11.948012 27945 net.cpp:380] conv4 -> conv4
I0430 14:20:11.971657 27945 net.cpp:122] Setting up conv4
I0430 14:20:11.971688 27945 net.cpp:129] Top shape: 128 384 13 13 (8306688)
I0430 14:20:11.971696 27945 net.cpp:137] Memory required for data: 969521152
I0430 14:20:11.971715 27945 layer_factory.hpp:77] Creating layer relu4
I0430 14:20:11.971735 27945 net.cpp:84] Creating Layer relu4
I0430 14:20:11.971767 27945 net.cpp:406] relu4 <- conv4
I0430 14:20:11.971779 27945 net.cpp:367] relu4 -> conv4 (in-place)
I0430 14:20:11.972327 27945 net.cpp:122] Setting up relu4
I0430 14:20:11.972344 27945 net.cpp:129] Top shape: 128 384 13 13 (8306688)
I0430 14:20:11.972352 27945 net.cpp:137] Memory required for data: 1002747904
I0430 14:20:11.972360 27945 layer_factory.hpp:77] Creating layer conv5
I0430 14:20:11.972384 27945 net.cpp:84] Creating Layer conv5
I0430 14:20:11.972395 27945 net.cpp:406] conv5 <- conv4
I0430 14:20:11.972406 27945 net.cpp:380] conv5 -> conv5
I0430 14:20:11.986042 27945 net.cpp:122] Setting up conv5
I0430 14:20:11.986065 27945 net.cpp:129] Top shape: 128 256 13 13 (5537792)
I0430 14:20:11.986073 27945 net.cpp:137] Memory required for data: 1024899072
I0430 14:20:11.986093 27945 layer_factory.hpp:77] Creating layer relu5
I0430 14:20:11.986109 27945 net.cpp:84] Creating Layer relu5
I0430 14:20:11.986119 27945 net.cpp:406] relu5 <- conv5
I0430 14:20:11.986130 27945 net.cpp:367] relu5 -> conv5 (in-place)
I0430 14:20:11.986778 27945 net.cpp:122] Setting up relu5
I0430 14:20:11.986794 27945 net.cpp:129] Top shape: 128 256 13 13 (5537792)
I0430 14:20:11.986800 27945 net.cpp:137] Memory required for data: 1047050240
I0430 14:20:11.986809 27945 layer_factory.hpp:77] Creating layer pool5
I0430 14:20:11.986819 27945 net.cpp:84] Creating Layer pool5
I0430 14:20:11.986827 27945 net.cpp:406] pool5 <- conv5
I0430 14:20:11.986838 27945 net.cpp:380] pool5 -> pool5
I0430 14:20:11.986881 27945 net.cpp:122] Setting up pool5
I0430 14:20:11.986893 27945 net.cpp:129] Top shape: 128 256 6 6 (1179648)
I0430 14:20:11.986899 27945 net.cpp:137] Memory required for data: 1051768832
I0430 14:20:11.986907 27945 layer_factory.hpp:77] Creating layer fc6
I0430 14:20:11.986925 27945 net.cpp:84] Creating Layer fc6
I0430 14:20:11.986932 27945 net.cpp:406] fc6 <- pool5
I0430 14:20:11.986941 27945 net.cpp:380] fc6 -> fc6
I0430 14:20:12.361973 27945 net.cpp:122] Setting up fc6
I0430 14:20:12.362000 27945 net.cpp:129] Top shape: 128 4096 (524288)
I0430 14:20:12.362007 27945 net.cpp:137] Memory required for data: 1053865984
I0430 14:20:12.362021 27945 layer_factory.hpp:77] Creating layer relu6
I0430 14:20:12.362036 27945 net.cpp:84] Creating Layer relu6
I0430 14:20:12.362043 27945 net.cpp:406] relu6 <- fc6
I0430 14:20:12.362054 27945 net.cpp:367] relu6 -> fc6 (in-place)
I0430 14:20:12.362926 27945 net.cpp:122] Setting up relu6
I0430 14:20:12.362941 27945 net.cpp:129] Top shape: 128 4096 (524288)
I0430 14:20:12.362946 27945 net.cpp:137] Memory required for data: 1055963136
I0430 14:20:12.362953 27945 layer_factory.hpp:77] Creating layer drop6
I0430 14:20:12.362964 27945 net.cpp:84] Creating Layer drop6
I0430 14:20:12.362970 27945 net.cpp:406] drop6 <- fc6
I0430 14:20:12.362979 27945 net.cpp:367] drop6 -> fc6 (in-place)
I0430 14:20:12.363011 27945 net.cpp:122] Setting up drop6
I0430 14:20:12.363021 27945 net.cpp:129] Top shape: 128 4096 (524288)
I0430 14:20:12.363029 27945 net.cpp:137] Memory required for data: 1058060288
I0430 14:20:12.363036 27945 layer_factory.hpp:77] Creating layer fc7
I0430 14:20:12.363049 27945 net.cpp:84] Creating Layer fc7
I0430 14:20:12.363054 27945 net.cpp:406] fc7 <- fc6
I0430 14:20:12.363065 27945 net.cpp:380] fc7 -> fc7
I0430 14:20:12.575889 27945 net.cpp:122] Setting up fc7
I0430 14:20:12.575911 27945 net.cpp:129] Top shape: 128 4096 (524288)
I0430 14:20:12.575917 27945 net.cpp:137] Memory required for data: 1060157440
I0430 14:20:12.575929 27945 layer_factory.hpp:77] Creating layer relu7
I0430 14:20:12.575942 27945 net.cpp:84] Creating Layer relu7
I0430 14:20:12.575947 27945 net.cpp:406] relu7 <- fc7
I0430 14:20:12.575954 27945 net.cpp:367] relu7 -> fc7 (in-place)
I0430 14:20:12.595436 27945 net.cpp:122] Setting up relu7
I0430 14:20:12.595458 27945 net.cpp:129] Top shape: 128 4096 (524288)
I0430 14:20:12.595464 27945 net.cpp:137] Memory required for data: 1062254592
I0430 14:20:12.595474 27945 layer_factory.hpp:77] Creating layer drop7
I0430 14:20:12.595484 27945 net.cpp:84] Creating Layer drop7
I0430 14:20:12.595513 27945 net.cpp:406] drop7 <- fc7
I0430 14:20:12.595528 27945 net.cpp:367] drop7 -> fc7 (in-place)
I0430 14:20:12.595568 27945 net.cpp:122] Setting up drop7
I0430 14:20:12.595577 27945 net.cpp:129] Top shape: 128 4096 (524288)
I0430 14:20:12.595582 27945 net.cpp:137] Memory required for data: 1064351744
I0430 14:20:12.595588 27945 layer_factory.hpp:77] Creating layer fc8
I0430 14:20:12.595599 27945 net.cpp:84] Creating Layer fc8
I0430 14:20:12.595605 27945 net.cpp:406] fc8 <- fc7
I0430 14:20:12.595616 27945 net.cpp:380] fc8 -> fc8
I0430 14:20:12.609532 27945 net.cpp:122] Setting up fc8
I0430 14:20:12.609550 27945 net.cpp:129] Top shape: 128 196 (25088)
I0430 14:20:12.609557 27945 net.cpp:137] Memory required for data: 1064452096
I0430 14:20:12.609567 27945 layer_factory.hpp:77] Creating layer loss
I0430 14:20:12.609578 27945 net.cpp:84] Creating Layer loss
I0430 14:20:12.609586 27945 net.cpp:406] loss <- fc8
I0430 14:20:12.609593 27945 net.cpp:406] loss <- label
I0430 14:20:12.609603 27945 net.cpp:380] loss -> loss
I0430 14:20:12.609619 27945 layer_factory.hpp:77] Creating layer loss
…
I0430 14:20:12.619427 27945 solver.cpp:172] Creating test net (#0) specified by net file: train_val.prototxt
I0430 14:20:12.619459 27945 net.cpp:294] The NetState phase (1) differed from the phase (0) specified by a rule in layer train-data
I0430 14:20:12.619598 27945 net.cpp:51] Initializing net from parameters:
state {
phase: TEST
}
layer {
name: "val-data"
type: "Data"
top: "data"
top: "label"
include {
phase: TEST
}
transform_param {
crop_size: 227
mean_file: "/mnt/bigdisk/MANDIG2/digits/jobs/20200428-132136-11fe/mean.binaryproto"
}
data_param {
source: "/mnt/bigdisk/MANDIG2/digits/jobs/20200428-132136-11fe/val_db"
batch_size: 32
backend: LMDB
}
}
layer {
name: "conv1"
type: "Convolution"
bottom: "data"
top: "conv1"
param {
lr_mult: 1
decay_mult: 1
}
param {
lr_mult: 2
decay_mult: 0
}
convolution_param {
num_output: 96
kernel_size: 11
stride: 4
weight_filler {
type: "gaussian"
std: 0.01
}
bias_filler {
type: "constant"
value: 0
}
}
}
layer {
name: "relu1"
type: "ReLU"
bottom: "conv1"
top: "conv1"
}
layer {
name: "norm1"
type: "LRN"
bottom: "conv1"
top: "norm1"
lrn_param {
local_size: 5
alpha: 0.0001
beta: 0.75
}
}
layer {
name: "pool1"
type: "Pooling"
bottom: "norm1"
top: "pool1"
pooling_param {
pool: MAX
kernel_size: 3
stride: 2
}
}
layer {
name: "conv2"
type: "Convolution"
bottom: "pool1"
top: "conv2"
param {
lr_mult: 1
decay_mult: 1
}
param {
lr_mult: 2
decay_mult: 0
}
convolution_param {
num_output: 256
pad: 2
kernel_size: 5
group: 2
weight_filler {
type: "gaussian"
std: 0.01
}
bias_filler {
type: "constant"
value: 0.1
}
}
}
layer {
name: "relu2"
type: "ReLU"
bottom: "conv2"
top: "conv2"
}
layer {
name: "norm2"
type: "LRN"
bottom: "conv2"
top: "norm2"
lrn_param {
local_size: 5
alpha: 0.0001
beta: 0.75
}
}
layer {
name: "pool2"
type: "Pooling"
bottom: "norm2"
top: "pool2"
pooling_param {
pool: MAX
kernel_size: 3
stride: 2
}
}
layer {
name: "conv3"
type: "Convolution"
bottom: "pool2"
top: "conv3"
param {
lr_mult: 1
decay_mult: 1
}
param {
lr_mult: 2
decay_mult: 0
}
convolution_param {
num_output: 384
pad: 1
kernel_size: 3
weight_filler {
type: "gaussian"
std: 0.01
}
bias_filler {
type: "constant"
value: 0
}
}
}
layer {
name: "relu3"
type: "ReLU"
bottom: "conv3"
top: "conv3"
}
layer {
name: "conv4"
type: "Convolution"
bottom: "conv3"
top: "conv4"
param {
lr_mult: 1
decay_mult: 1
}
param {
lr_mult: 2
decay_mult: 0
}
convolution_param {
num_output: 384
pad: 1
kernel_size: 3
group: 2
weight_filler {
type: "gaussian"
std: 0.01
}
bias_filler {
type: "constant"
value: 0.1
}
}
}
layer {
name: "relu4"
type: "ReLU"
bottom: "conv4"
top: "conv4"
}
layer {
name: "conv5"
type: "Convolution"
bottom: "conv4"
top: "conv5"
param {
lr_mult: 1
decay_mult: 1
}
param {
lr_mult: 2
decay_mult: 0
}
convolution_param {
num_output: 256
pad: 1
kernel_size: 3
group: 2
weight_filler {
type: "gaussian"
std: 0.01
}
bias_filler {
type: "constant"
value: 0.1
}
}
}
layer {
name: "relu5"
type: "ReLU"
bottom: "conv5"
top: "conv5"
}
layer {
name: "pool5"
type: "Pooling"
bottom: "conv5"
top: "pool5"
pooling_param {
pool: MAX
kernel_size: 3
stride: 2
}
}
layer {
name: "fc6"
type: "InnerProduct"
bottom: "pool5"
top: "fc6"
param {
lr_mult: 1
decay_mult: 1
}
param {
lr_mult: 2
decay_mult: 0
}
inner_product_param {
num_output: 4096
weight_filler {
type: "gaussian"
std: 0.005
}
bias_filler {
type: "constant"
value: 0.1
}
}
}
layer {
name: "relu6"
type: "ReLU"
bottom: "fc6"
top: "fc6"
}
layer {
name: "drop6"
type: "Dropout"
bottom: "fc6"
top: "fc6"
dropout_param {
dropout_ratio: 0.5
}
}
layer {
name: "fc7"
type: "InnerProduct"
bottom: "fc6"
top: "fc7"
param {
lr_mult: 1
decay_mult: 1
}
param {
lr_mult: 2
decay_mult: 0
}
inner_product_param {
num_output: 4096
weight_filler {
type: "gaussian"
std: 0.005
}
bias_filler {
type: "constant"
value: 0.1
}
}
}
layer {
name: "relu7"
type: "ReLU"
bottom: "fc7"
top: "fc7"
}
layer {
name: "drop7"
type: "Dropout"
bottom: "fc7"
top: "fc7"
dropout_param {
dropout_ratio: 0.5
}
}
layer {
name: "fc8"
type: "InnerProduct"
bottom: "fc7"
top: "fc8"
param {
lr_mult: 1
decay_mult: 1
}
param {
lr_mult: 2
decay_mult: 0
}
inner_product_param {
num_output: 196
weight_filler {
type: "gaussian"
std: 0.01
}
bias_filler {
type: "constant"
value: 0
}
}
}
layer {
name: "accuracy"
type: "Accuracy"
bottom: "fc8"
bottom: "label"
top: "accuracy"
include {
phase: TEST
}
}
layer {
name: "loss"
type: "SoftmaxWithLoss"
bottom: "fc8"
bottom: "label"
top: "loss"
}
I0430 14:20:12.619706 27945 layer_factory.hpp:77] Creating layer val-data
I0430 14:20:12.653184 27945 db_lmdb.cpp:35] Opened lmdb /mnt/bigdisk/MANDIG2/digits/jobs/20200428-132136-11fe/val_db
I0430 14:20:12.681349 27945 net.cpp:84] Creating Layer val-data
I0430 14:20:12.681378 27945 net.cpp:380] val-data -> data
I0430 14:20:12.681399 27945 net.cpp:380] val-data -> label
I0430 14:20:12.681411 27945 data_transformer.cpp:25] Loading mean file from: /mnt/bigdisk/MANDIG2/digits/jobs/20200428-132136-11fe/mean.binaryproto
I0430 14:20:12.688638 27945 data_layer.cpp:45] output data size: 32,3,227,227
I0430 14:20:12.754048 27945 net.cpp:122] Setting up val-data
I0430 14:20:12.754074 27945 net.cpp:129] Top shape: 32 3 227 227 (4946784)
I0430 14:20:12.754082 27945 net.cpp:129] Top shape: 32 (32)
I0430 14:20:12.754088 27945 net.cpp:137] Memory required for data: 19787264
I0430 14:20:12.754097 27945 layer_factory.hpp:77] Creating layer label_val-data_1_split
I0430 14:20:12.754112 27945 net.cpp:84] Creating Layer label_val-data_1_split
I0430 14:20:12.754120 27945 net.cpp:406] label_val-data_1_split <- label
I0430 14:20:12.754128 27945 net.cpp:380] label_val-data_1_split -> label_val-data_1_split_0
I0430 14:20:12.754139 27945 net.cpp:380] label_val-data_1_split -> label_val-data_1_split_1
I0430 14:20:12.754196 27945 net.cpp:122] Setting up label_val-data_1_split
I0430 14:20:12.754205 27945 net.cpp:129] Top shape: 32 (32)
I0430 14:20:12.754210 27945 net.cpp:129] Top shape: 32 (32)
I0430 14:20:12.754217 27945 net.cpp:137] Memory required for data: 19787520
I0430 14:20:12.754223 27945 layer_factory.hpp:77] Creating layer conv1
I0430 14:20:12.754238 27945 net.cpp:84] Creating Layer conv1
I0430 14:20:12.754245 27945 net.cpp:406] conv1 <- data
I0430 14:20:12.754254 27945 net.cpp:380] conv1 -> conv1
I0430 14:20:12.756606 27945 net.cpp:122] Setting up conv1
I0430 14:20:12.756619 27945 net.cpp:129] Top shape: 32 96 55 55 (9292800)
I0430 14:20:12.756628 27945 net.cpp:137] Memory required for data: 56958720
I0430 14:20:12.756639 27945 layer_factory.hpp:77] Creating layer relu1
I0430 14:20:12.756649 27945 net.cpp:84] Creating Layer relu1
I0430 14:20:12.756656 27945 net.cpp:406] relu1 <- conv1
I0430 14:20:12.756664 27945 net.cpp:367] relu1 -> conv1 (in-place)
I0430 14:20:12.757273 27945 net.cpp:122] Setting up relu1
I0430 14:20:12.757284 27945 net.cpp:129] Top shape: 32 96 55 55 (9292800)
I0430 14:20:12.757292 27945 net.cpp:137] Memory required for data: 94129920
I0430 14:20:12.757298 27945 layer_factory.hpp:77] Creating layer norm1
I0430 14:20:12.757313 27945 net.cpp:84] Creating Layer norm1
I0430 14:20:12.757318 27945 net.cpp:406] norm1 <- conv1
I0430 14:20:12.757326 27945 net.cpp:380] norm1 -> norm1
I0430 14:20:12.760015 27945 net.cpp:122] Setting up norm1
I0430 14:20:12.760028 27945 net.cpp:129] Top shape: 32 96 55 55 (9292800)
I0430 14:20:12.760032 27945 net.cpp:137] Memory required for data: 131301120
I0430 14:20:12.760040 27945 layer_factory.hpp:77] Creating layer pool1
I0430 14:20:12.760048 27945 net.cpp:84] Creating Layer pool1
I0430 14:20:12.760053 27945 net.cpp:406] pool1 <- norm1
I0430 14:20:12.760061 27945 net.cpp:380] pool1 -> pool1
I0430 14:20:12.760090 27945 net.cpp:122] Setting up pool1
I0430 14:20:12.760097 27945 net.cpp:129] Top shape: 32 96 27 27 (2239488)
I0430 14:20:12.760102 27945 net.cpp:137] Memory required for data: 140259072
I0430 14:20:12.760107 27945 layer_factory.hpp:77] Creating layer conv2
I0430 14:20:12.760116 27945 net.cpp:84] Creating Layer conv2
I0430 14:20:12.760121 27945 net.cpp:406] conv2 <- pool1
I0430 14:20:12.760151 27945 net.cpp:380] conv2 -> conv2
I0430 14:20:12.786021 27945 net.cpp:122] Setting up conv2
I0430 14:20:12.786049 27945 net.cpp:129] Top shape: 32 256 27 27 (5971968)
I0430 14:20:12.786058 27945 net.cpp:137] Memory required for data: 164146944
I0430 14:20:12.786078 27945 layer_factory.hpp:77] Creating layer relu2
I0430 14:20:12.786098 27945 net.cpp:84] Creating Layer relu2
I0430 14:20:12.786108 27945 net.cpp:406] relu2 <- conv2
I0430 14:20:12.786119 27945 net.cpp:367] relu2 -> conv2 (in-place)
I0430 14:20:12.786947 27945 net.cpp:122] Setting up relu2
I0430 14:20:12.786967 27945 net.cpp:129] Top shape: 32 256 27 27 (5971968)
I0430 14:20:12.786975 27945 net.cpp:137] Memory required for data: 188034816
I0430 14:20:12.786985 27945 layer_factory.hpp:77] Creating layer norm2
I0430 14:20:12.787005 27945 net.cpp:84] Creating Layer norm2
I0430 14:20:12.787016 27945 net.cpp:406] norm2 <- conv2
I0430 14:20:12.787031 27945 net.cpp:380] norm2 -> norm2
I0430 14:20:12.787864 27945 net.cpp:122] Setting up norm2
I0430 14:20:12.787885 27945 net.cpp:129] Top shape: 32 256 27 27 (5971968)
I0430 14:20:12.787894 27945 net.cpp:137] Memory required for data: 211922688
I0430 14:20:12.787905 27945 layer_factory.hpp:77] Creating layer pool2
I0430 14:20:12.787916 27945 net.cpp:84] Creating Layer pool2
I0430 14:20:12.787928 27945 net.cpp:406] pool2 <- norm2
I0430 14:20:12.787945 27945 net.cpp:380] pool2 -> pool2
I0430 14:20:12.787998 27945 net.cpp:122] Setting up pool2
I0430 14:20:12.788013 27945 net.cpp:129] Top shape: 32 256 13 13 (1384448)
I0430 14:20:12.788022 27945 net.cpp:137] Memory required for data: 217460480
I0430 14:20:12.788033 27945 layer_factory.hpp:77] Creating layer conv3
I0430 14:20:12.788055 27945 net.cpp:84] Creating Layer conv3
I0430 14:20:12.788064 27945 net.cpp:406] conv3 <- pool2
I0430 14:20:12.788079 27945 net.cpp:380] conv3 -> conv3
I0430 14:20:12.807612 27945 net.cpp:122] Setting up conv3
I0430 14:20:12.807643 27945 net.cpp:129] Top shape: 32 384 13 13 (2076672)
I0430 14:20:12.807657 27945 net.cpp:137] Memory required for data: 225767168
I0430 14:20:12.807682 27945 layer_factory.hpp:77] Creating layer relu3
I0430 14:20:12.807700 27945 net.cpp:84] Creating Layer relu3
I0430 14:20:12.807710 27945 net.cpp:406] relu3 <- conv3
I0430 14:20:12.807727 27945 net.cpp:367] relu3 -> conv3 (in-place)
I0430 14:20:12.808843 27945 net.cpp:122] Setting up relu3
I0430 14:20:12.808861 27945 net.cpp:129] Top shape: 32 384 13 13 (2076672)
I0430 14:20:12.808876 27945 net.cpp:137] Memory required for data: 234073856
I0430 14:20:12.808888 27945 layer_factory.hpp:77] Creating layer conv4
I0430 14:20:12.808912 27945 net.cpp:84] Creating Layer conv4
I0430 14:20:12.808921 27945 net.cpp:406] conv4 <- conv3
I0430 14:20:12.808941 27945 net.cpp:380] conv4 -> conv4
I0430 14:20:12.823513 27945 net.cpp:122] Setting up conv4
I0430 14:20:12.823536 27945 net.cpp:129] Top shape: 32 384 13 13 (2076672)
I0430 14:20:12.823544 27945 net.cpp:137] Memory required for data: 242380544
I0430 14:20:12.823556 27945 layer_factory.hpp:77] Creating layer relu4
I0430 14:20:12.823565 27945 net.cpp:84] Creating Layer relu4
I0430 14:20:12.823575 27945 net.cpp:406] relu4 <- conv4
I0430 14:20:12.823583 27945 net.cpp:367] relu4 -> conv4 (in-place)
I0430 14:20:12.823964 27945 net.cpp:122] Setting up relu4
I0430 14:20:12.823981 27945 net.cpp:129] Top shape: 32 384 13 13 (2076672)
I0430 14:20:12.823985 27945 net.cpp:137] Memory required for data: 250687232
I0430 14:20:12.823994 27945 layer_factory.hpp:77] Creating layer conv5
I0430 14:20:12.824008 27945 net.cpp:84] Creating Layer conv5
I0430 14:20:12.824018 27945 net.cpp:406] conv5 <- conv4
I0430 14:20:12.824029 27945 net.cpp:380] conv5 -> conv5
I0430 14:20:12.851994 27945 net.cpp:122] Setting up conv5
I0430 14:20:12.852015 27945 net.cpp:129] Top shape: 32 256 13 13 (1384448)
I0430 14:20:12.852021 27945 net.cpp:137] Memory required for data: 256225024
I0430 14:20:12.852037 27945 layer_factory.hpp:77] Creating layer relu5
I0430 14:20:12.852051 27945 net.cpp:84] Creating Layer relu5
I0430 14:20:12.852056 27945 net.cpp:406] relu5 <- conv5
I0430 14:20:12.852085 27945 net.cpp:367] relu5 -> conv5 (in-place)
I0430 14:20:12.852771 27945 net.cpp:122] Setting up relu5
I0430 14:20:12.852787 27945 net.cpp:129] Top shape: 32 256 13 13 (1384448)
I0430 14:20:12.852793 27945 net.cpp:137] Memory required for data: 261762816
I0430 14:20:12.852803 27945 layer_factory.hpp:77] Creating layer pool5
I0430 14:20:12.852818 27945 net.cpp:84] Creating Layer pool5
I0430 14:20:12.852824 27945 net.cpp:406] pool5 <- conv5
I0430 14:20:12.852834 27945 net.cpp:380] pool5 -> pool5
I0430 14:20:12.852878 27945 net.cpp:122] Setting up pool5
I0430 14:20:12.852886 27945 net.cpp:129] Top shape: 32 256 6 6 (294912)
I0430 14:20:12.852892 27945 net.cpp:137] Memory required for data: 262942464
I0430 14:20:12.852897 27945 layer_factory.hpp:77] Creating layer fc6
I0430 14:20:12.852911 27945 net.cpp:84] Creating Layer fc6
I0430 14:20:12.852916 27945 net.cpp:406] fc6 <- pool5
I0430 14:20:12.852924 27945 net.cpp:380] fc6 -> fc6
I0430 14:20:13.236634 27945 net.cpp:122] Setting up fc6
I0430 14:20:13.236658 27945 net.cpp:129] Top shape: 32 4096 (131072)
I0430 14:20:13.236666 27945 net.cpp:137] Memory required for data: 263466752
I0430 14:20:13.236677 27945 layer_factory.hpp:77] Creating layer relu6
I0430 14:20:13.236690 27945 net.cpp:84] Creating Layer relu6
I0430 14:20:13.236696 27945 net.cpp:406] relu6 <- fc6
I0430 14:20:13.236704 27945 net.cpp:367] relu6 -> fc6 (in-place)
I0430 14:20:13.362213 27945 net.cpp:122] Setting up relu6
I0430 14:20:13.362246 27945 net.cpp:129] Top shape: 32 4096 (131072)
I0430 14:20:13.362253 27945 net.cpp:137] Memory required for data: 263991040
I0430 14:20:13.362267 27945 layer_factory.hpp:77] Creating layer drop6
I0430 14:20:13.362289 27945 net.cpp:84] Creating Layer drop6
I0430 14:20:13.362301 27945 net.cpp:406] drop6 <- fc6
I0430 14:20:13.362318 27945 net.cpp:367] drop6 -> fc6 (in-place)
I0430 14:20:13.362375 27945 net.cpp:122] Setting up drop6
I0430 14:20:13.362388 27945 net.cpp:129] Top shape: 32 4096 (131072)
I0430 14:20:13.362397 27945 net.cpp:137] Memory required for data: 264515328
I0430 14:20:13.362408 27945 layer_factory.hpp:77] Creating layer fc7
I0430 14:20:13.362421 27945 net.cpp:84] Creating Layer fc7
I0430 14:20:13.362430 27945 net.cpp:406] fc7 <- fc6
I0430 14:20:13.362445 27945 net.cpp:380] fc7 -> fc7
I0430 14:20:13.631917 27945 net.cpp:122] Setting up fc7
I0430 14:20:13.631950 27945 net.cpp:129] Top shape: 32 4096 (131072)
I0430 14:20:13.631960 27945 net.cpp:137] Memory required for data: 265039616
I0430 14:20:13.631978 27945 layer_factory.hpp:77] Creating layer relu7
I0430 14:20:13.631994 27945 net.cpp:84] Creating Layer relu7
I0430 14:20:13.632001 27945 net.cpp:406] relu7 <- fc7
I0430 14:20:13.632014 27945 net.cpp:367] relu7 -> fc7 (in-place)
I0430 14:20:13.632573 27945 net.cpp:122] Setting up relu7
I0430 14:20:13.632589 27945 net.cpp:129] Top shape: 32 4096 (131072)
I0430 14:20:13.632597 27945 net.cpp:137] Memory required for data: 265563904
I0430 14:20:13.632607 27945 layer_factory.hpp:77] Creating layer drop7
I0430 14:20:13.632618 27945 net.cpp:84] Creating Layer drop7
I0430 14:20:13.632627 27945 net.cpp:406] drop7 <- fc7
I0430 14:20:13.632639 27945 net.cpp:367] drop7 -> fc7 (in-place)
I0430 14:20:13.632673 27945 net.cpp:122] Setting up drop7
I0430 14:20:13.632688 27945 net.cpp:129] Top shape: 32 4096 (131072)
I0430 14:20:13.632699 27945 net.cpp:137] Memory required for data: 266088192
I0430 14:20:13.632705 27945 layer_factory.hpp:77] Creating layer fc8
I0430 14:20:13.632721 27945 net.cpp:84] Creating Layer fc8
I0430 14:20:13.632728 27945 net.cpp:406] fc8 <- fc7
I0430 14:20:13.632741 27945 net.cpp:380] fc8 -> fc8
I0430 14:20:13.642153 27945 net.cpp:122] Setting up fc8
I0430 14:20:13.642168 27945 net.cpp:129] Top shape: 32 196 (6272)
I0430 14:20:13.642174 27945 net.cpp:137] Memory required for data: 266113280
I0430 14:20:13.642184 27945 layer_factory.hpp:77] Creating layer fc8_fc8_0_split
I0430 14:20:13.642197 27945 net.cpp:84] Creating Layer fc8_fc8_0_split
I0430 14:20:13.642204 27945 net.cpp:406] fc8_fc8_0_split <- fc8
I0430 14:20:13.642235 27945 net.cpp:380] fc8_fc8_0_split -> fc8_fc8_0_split_0
I0430 14:20:13.642247 27945 net.cpp:380] fc8_fc8_0_split -> fc8_fc8_0_split_1
I0430 14:20:13.642282 27945 net.cpp:122] Setting up fc8_fc8_0_split
I0430 14:20:13.642290 27945 net.cpp:129] Top shape: 32 196 (6272)
I0430 14:20:13.642297 27945 net.cpp:129] Top shape: 32 196 (6272)
I0430 14:20:13.642303 27945 net.cpp:137] Memory required for data: 266163456
I0430 14:20:13.642310 27945 layer_factory.hpp:77] Creating layer accuracy
I0430 14:20:13.642319 27945 net.cpp:84] Creating Layer accuracy
I0430 14:20:13.642324 27945 net.cpp:406] accuracy <- fc8_fc8_0_split_0
I0430 14:20:13.642333 27945 net.cpp:406] accuracy <- label_val-data_1_split_0
I0430 14:20:13.642340 27945 net.cpp:380] accuracy -> accuracy
…
