…
I0512 15:58:35.949398  5963 net.cpp:294] The NetState phase (0) differed from the phase (1) specified by a rule in layer loss3/top-5
I0512 15:58:35.950845  5963 net.cpp:51] Initializing net from parameters:
state {
phase: TRAIN
level: 0
stage: ""
}
layer {
name: "train-data"
type: "Data"
top: "data"
top: "label"
include {
phase: TRAIN
}
transform_param {
mirror: true
crop_size: 224
mean_value: 116.08698
mean_value: 117.34767
mean_value: 119.99612
}
data_param {
source: "/mnt/bigdisk/AMBDIG9/digits/jobs/20200512-151006-0de8/train_db"
batch_size: 32
backend: LMDB
}
}
layer {
name: "conv1/7x7_s2"
type: "Convolution"
bottom: "data"
top: "conv1/7x7_s2"
param {
lr_mult: 1
decay_mult: 1
}
param {
lr_mult: 2
decay_mult: 0
}
convolution_param {
num_output: 64
pad: 3
kernel_size: 7
stride: 2
weight_filler {
type: "xavier"
std: 0.1
}
bias_filler {
type: "constant"
value: 0.2
}
}
}
layer {
name: "conv1/relu_7x7"
type: "ReLU"
bottom: "conv1/7x7_s2"
top: "conv1/7x7_s2"
}
layer {
name: "pool1/3x3_s2"
type: "Pooling"
bottom: "conv1/7x7_s2"
top: "pool1/3x3_s2"
pooling_param {
pool: MAX
kernel_size: 3
stride: 2
}
}
layer {
name: "pool1/norm1"
type: "LRN"
bottom: "pool1/3x3_s2"
top: "pool1/norm1"
lrn_param {
local_size: 5
alpha: 0.0001
beta: 0.75
}
}
layer {
name: "conv2/3x3_reduce"
type: "Convolution"
bottom: "pool1/norm1"
top: "conv2/3x3_reduce"
param {
lr_mult: 1
decay_mult: 1
}
param {
lr_mult: 2
decay_mult: 0
}
convolution_param {
num_output: 64
kernel_size: 1
weight_filler {
type: "xavier"
std: 0.1
}
bias_filler {
type: "constant"
value: 0.2
}
}
}
layer {
name: "conv2/relu_3x3_reduce"
type: "ReLU"
bottom: "conv2/3x3_reduce"
top: "conv2/3x3_reduce"
}
layer {
name: "conv2/3x3"
type: "Convolution"
bottom: "conv2/3x3_reduce"
top: "conv2/3x3"
param {
lr_mult: 1
decay_mult: 1
}
param {
lr_mult: 2
decay_mult: 0
}
convolution_param {
num_output: 192
pad: 1
kernel_size: 3
weight_filler {
type: "xavier"
std: 0.03
}
bias_filler {
type: "constant"
value: 0.2
}
}
}
layer {
name: "conv2/relu_3x3"
type: "ReLU"
bottom: "conv2/3x3"
top: "conv2/3x3"
}
layer {
name: "conv2/norm2"
type: "LRN"
bottom: "conv2/3x3"
top: "conv2/norm2"
lrn_param {
local_size: 5
alpha: 0.0001
beta: 0.75
}
}
layer {
name: "pool2/3x3_s2"
type: "Pooling"
bottom: "conv2/norm2"
top: "pool2/3x3_s2"
pooling_param {
pool: MAX
kernel_size: 3
stride: 2
}
}
layer {
name: "inception_3a/1x1"
type: "Convolution"
bottom: "pool2/3x3_s2"
top: "inception_3a/1x1"
param {
lr_mult: 1
decay_mult: 1
}
param {
lr_mult: 2
decay_mult: 0
}
convolution_param {
num_output: 64
kernel_size: 1
weight_filler {
type: "xavier"
std: 0.03
}
bias_filler {
type: "constant"
value: 0.2
}
}
}
layer {
name: "inception_3a/relu_1x1"
type: "ReLU"
bottom: "inception_3a/1x1"
top: "inception_3a/1x1"
}
layer {
name: "inception_3a/3x3_reduce"
type: "Convolution"
bottom: "pool2/3x3_s2"
top: "inception_3a/3x3_reduce"
param {
lr_mult: 1
decay_mult: 1
}
param {
lr_mult: 2
decay_mult: 0
}
convolution_param {
num_output: 96
kernel_size: 1
weight_filler {
type: "xavier"
std: 0.09
}
bias_filler {
type: "constant"
value: 0.2
}
}
}
layer {
name: "inception_3a/relu_3x3_reduce"
type: "ReLU"
bottom: "inception_3a/3x3_reduce"
top: "inception_3a/3x3_reduce"
}
layer {
name: "inception_3a/3x3"
type: "Convolution"
bottom: "inception_3a/3x3_reduce"
top: "inception_3a/3x3"
param {
lr_mult: 1
decay_mult: 1
}
param {
lr_mult: 2
decay_mult: 0
}
convolution_param {
num_output: 128
pad: 1
kernel_size: 3
weight_filler {
type: "xavier"
std: 0.03
}
bias_filler {
type: "constant"
value: 0.2
}
}
}
layer {
name: "inception_3a/relu_3x3"
type: "ReLU"
bottom: "inception_3a/3x3"
top: "inception_3a/3x3"
}
layer {
name: "inception_3a/5x5_reduce"
type: "Convolution"
bottom: "pool2/3x3_s2"
top: "inception_3a/5x5_reduce"
param {
lr_mult: 1
decay_mult: 1
}
param {
lr_mult: 2
decay_mult: 0
}
convolution_param {
num_output: 16
kernel_size: 1
weight_filler {
type: "xavier"
std: 0.2
}
bias_filler {
type: "constant"
value: 0.2
}
}
}
layer {
name: "inception_3a/relu_5x5_reduce"
type: "ReLU"
bottom: "inception_3a/5x5_reduce"
top: "inception_3a/5x5_reduce"
}
layer {
name: "inception_3a/5x5"
type: "Convolution"
bottom: "inception_3a/5x5_reduce"
top: "inception_3a/5x5"
param {
lr_mult: 1
decay_mult: 1
}
param {
lr_mult: 2
decay_mult: 0
}
convolution_param {
num_output: 32
pad: 2
kernel_size: 5
weight_filler {
type: "xavier"
std: 0.03
}
bias_filler {
type: "constant"
value: 0.2
}
}
}
layer {
name: "inception_3a/relu_5x5"
type: "ReLU"
bottom: "inception_3a/5x5"
top: "inception_3a/5x5"
}
layer {
name: "inception_3a/pool"
type: "Pooling"
bottom: "pool2/3x3_s2"
top: "inception_3a/pool"
pooling_param {
pool: MAX
kernel_size: 3
stride: 1
pad: 1
}
}
layer {
name: "inception_3a/pool_proj"
type: "Convolution"
bottom: "inception_3a/pool"
top: "inception_3a/pool_proj"
param {
lr_mult: 1
decay_mult: 1
}
param {
lr_mult: 2
decay_mult: 0
}
convolution_param {
num_output: 32
kernel_size: 1
weight_filler {
type: "xavier"
std: 0.1
}
bias_filler {
type: "constant"
value: 0.2
}
}
}
layer {
name: "inception_3a/relu_pool_proj"
type: "ReLU"
bottom: "inception_3a/pool_proj"
top: "inception_3a/pool_proj"
}
layer {
name: "inception_3a/output"
type: "Concat"
bottom: "inception_3a/1x1"
bottom: "inception_3a/3x3"
bottom: "inception_3a/5x5"
bottom: "inception_3a/pool_proj"
top: "inception_3a/output"
}
layer {
name: "inception_3b/1x1"
type: "Convolution"
bottom: "inception_3a/output"
top: "inception_3b/1x1"
param {
lr_mult: 1
decay_mult: 1
}
param {
lr_mult: 2
decay_mult: 0
}
convolution_param {
num_output: 128
kernel_size: 1
weight_filler {
type: "xavier"
std: 0.03
}
bias_filler {
type: "constant"
value: 0.2
}
}
}
layer {
name: "inception_3b/relu_1x1"
type: "ReLU"
bottom: "inception_3b/1x1"
top: "inception_3b/1x1"
}
layer {
name: "inception_3b/3x3_reduce"
type: "Convolution"
bottom: "inception_3a/output"
top: "inception_3b/3x3_reduce"
param {
lr_mult: 1
decay_mult: 1
}
param {
lr_mult: 2
decay_mult: 0
}
convolution_param {
num_output: 128
kernel_size: 1
weight_filler {
type: "xavier"
std: 0.09
}
bias_filler {
type: "constant"
value: 0.2
}
}
}
layer {
name: "inception_3b/relu_3x3_reduce"
type: "ReLU"
bottom: "inception_3b/3x3_reduce"
top: "inception_3b/3x3_reduce"
}
layer {
name: "inception_3b/3x3"
type: "Convolution"
bottom: "inception_3b/3x3_reduce"
top: "inception_3b/3x3"
param {
lr_mult: 1
decay_mult: 1
}
param {
lr_mult: 2
decay_mult: 0
}
convolution_param {
num_output: 192
pad: 1
kernel_size: 3
weight_filler {
type: "xavier"
std: 0.03
}
bias_filler {
type: "constant"
value: 0.2
}
}
}
layer {
name: "inception_3b/relu_3x3"
type: "ReLU"
bottom: "inception_3b/3x3"
top: "inception_3b/3x3"
}
layer {
name: "inception_3b/5x5_reduce"
type: "Convolution"
bottom: "inception_3a/output"
top: "inception_3b/5x5_reduce"
param {
lr_mult: 1
decay_mult: 1
}
param {
lr_mult: 2
decay_mult: 0
}
convolution_param {
num_output: 32
kernel_size: 1
weight_filler {
type: "xavier"
std: 0.2
}
bias_filler {
type: "constant"
value: 0.2
}
}
}
layer {
name: "inception_3b/relu_5x5_reduce"
type: "ReLU"
bottom: "inception_3b/5x5_reduce"
top: "inception_3b/5x5_reduce"
}
layer {
name: "inception_3b/5x5"
type: "Convolution"
bottom: "inception_3b/5x5_reduce"
top: "inception_3b/5x5"
param {
lr_mult: 1
decay_mult: 1
}
param {
lr_mult: 2
decay_mult: 0
}
convolution_param {
num_output: 96
pad: 2
kernel_size: 5
weight_filler {
type: "xavier"
std: 0.03
}
bias_filler {
type: "constant"
value: 0.2
}
}
}
layer {
name: "inception_3b/relu_5x5"
type: "ReLU"
bottom: "inception_3b/5x5"
top: "inception_3b/5x5"
}
layer {
name: "inception_3b/pool"
type: "Pooling"
bottom: "inception_3a/output"
top: "inception_3b/pool"
pooling_param {
pool: MAX
kernel_size: 3
stride: 1
pad: 1
}
}
layer {
name: "inception_3b/pool_proj"
type: "Convolution"
bottom: "inception_3b/pool"
top: "inception_3b/pool_proj"
param {
lr_mult: 1
decay_mult: 1
}
param {
lr_mult: 2
decay_mult: 0
}
convolution_param {
num_output: 64
kernel_size: 1
weight_filler {
type: "xavier"
std: 0.1
}
bias_filler {
type: "constant"
value: 0.2
}
}
}
layer {
name: "inception_3b/relu_pool_proj"
type: "ReLU"
bottom: "inception_3b/pool_proj"
top: "inception_3b/pool_proj"
}
layer {
name: "inception_3b/output"
type: "Concat"
bottom: "inception_3b/1x1"
bottom: "inception_3b/3x3"
bottom: "inception_3b/5x5"
bottom: "inception_3b/pool_proj"
top: "inception_3b/output"
}
layer {
name: "pool3/3x3_s2"
type: "Pooling"
bottom: "inception_3b/output"
top: "pool3/3x3_s2"
pooling_param {
pool: MAX
kernel_size: 3
stride: 2
}
}
layer {
name: "inception_4a/1x1"
type: "Convolution"
bottom: "pool3/3x3_s2"
top: "inception_4a/1x1"
param {
lr_mult: 1
decay_mult: 1
}
param {
lr_mult: 2
decay_mult: 0
}
convolution_param {
num_output: 192
kernel_size: 1
weight_filler {
type: "xavier"
std: 0.03
}
bias_filler {
type: "constant"
value: 0.2
}
}
}
layer {
name: "inception_4a/relu_1x1"
type: "ReLU"
bottom: "inception_4a/1x1"
top: "inception_4a/1x1"
}
layer {
name: "inception_4a/3x3_reduce"
type: "Convolution"
bottom: "pool3/3x3_s2"
top: "inception_4a/3x3_reduce"
param {
lr_mult: 1
decay_mult: 1
}
param {
lr_mult: 2
decay_mult: 0
}
convolution_param {
num_output: 96
kernel_size: 1
weight_filler {
type: "xavier"
std: 0.09
}
bias_filler {
type: "constant"
value: 0.2
}
}
}
layer {
name: "inception_4a/relu_3x3_reduce"
type: "ReLU"
bottom: "inception_4a/3x3_reduce"
top: "inception_4a/3x3_reduce"
}
layer {
name: "inception_4a/3x3"
type: "Convolution"
bottom: "inception_4a/3x3_reduce"
top: "inception_4a/3x3"
param {
lr_mult: 1
decay_mult: 1
}
param {
lr_mult: 2
decay_mult: 0
}
convolution_param {
num_output: 208
pad: 1
kernel_size: 3
weight_filler {
type: "xavier"
std: 0.03
}
bias_filler {
type: "constant"
value: 0.2
}
}
}
layer {
name: "inception_4a/relu_3x3"
type: "ReLU"
bottom: "inception_4a/3x3"
top: "inception_4a/3x3"
}
layer {
name: "inception_4a/5x5_reduce"
type: "Convolution"
bottom: "pool3/3x3_s2"
top: "inception_4a/5x5_reduce"
param {
lr_mult: 1
decay_mult: 1
}
param {
lr_mult: 2
decay_mult: 0
}
convolution_param {
num_output: 16
kernel_size: 1
weight_filler {
type: "xavier"
std: 0.2
}
bias_filler {
type: "constant"
value: 0.2
}
}
}
layer {
name: "inception_4a/relu_5x5_reduce"
type: "ReLU"
bottom: "inception_4a/5x5_reduce"
top: "inception_4a/5x5_reduce"
}
layer {
name: "inception_4a/5x5"
type: "Convolution"
bottom: "inception_4a/5x5_reduce"
top: "inception_4a/5x5"
param {
lr_mult: 1
decay_mult: 1
}
param {
lr_mult: 2
decay_mult: 0
}
convolution_param {
num_output: 48
pad: 2
kernel_size: 5
weight_filler {
type: "xavier"
std: 0.03
}
bias_filler {
type: "constant"
value: 0.2
}
}
}
layer {
name: "inception_4a/relu_5x5"
type: "ReLU"
bottom: "inception_4a/5x5"
top: "inception_4a/5x5"
}
layer {
name: "inception_4a/pool"
type: "Pooling"
bottom: "pool3/3x3_s2"
top: "inception_4a/pool"
pooling_param {
pool: MAX
kernel_size: 3
stride: 1
pad: 1
}
}
layer {
name: "inception_4a/pool_proj"
type: "Convolution"
bottom: "inception_4a/pool"
top: "inception_4a/pool_proj"
param {
lr_mult: 1
decay_mult: 1
}
param {
lr_mult: 2
decay_mult: 0
}
convolution_param {
num_output: 64
kernel_size: 1
weight_filler {
type: "xavier"
std: 0.1
}
bias_filler {
type: "constant"
value: 0.2
}
}
}
layer {
name: "inception_4a/relu_pool_proj"
type: "ReLU"
bottom: "inception_4a/pool_proj"
top: "inception_4a/pool_proj"
}
layer {
name: "inception_4a/output"
type: "Concat"
bottom: "inception_4a/1x1"
bottom: "inception_4a/3x3"
bottom: "inception_4a/5x5"
bottom: "inception_4a/pool_proj"
top: "inception_4a/output"
}
layer {
name: "loss1/ave_pool"
type: "Pooling"
bottom: "inception_4a/output"
top: "loss1/ave_pool"
pooling_param {
pool: AVE
kernel_size: 5
stride: 3
}
}
layer {
name: "loss1/conv"
type: "Convolution"
bottom: "loss1/ave_pool"
top: "loss1/conv"
param {
lr_mult: 1
decay_mult: 1
}
param {
lr_mult: 2
decay_mult: 0
}
convolution_param {
num_output: 128
kernel_size: 1
weight_filler {
type: "xavier"
std: 0.08
}
bias_filler {
type: "constant"
value: 0.2
}
}
}
layer {
name: "loss1/relu_conv"
type: "ReLU"
bottom: "loss1/conv"
top: "loss1/conv"
}
layer {
name: "loss1/fc"
type: "InnerProduct"
bottom: "loss1/conv"
top: "loss1/fc"
param {
lr_mult: 1
decay_mult: 1
}
param {
lr_mult: 2
decay_mult: 0
}
inner_product_param {
num_output: 1024
weight_filler {
type: "xavier"
std: 0.02
}
bias_filler {
type: "constant"
value: 0.2
}
}
}
layer {
name: "loss1/relu_fc"
type: "ReLU"
bottom: "loss1/fc"
top: "loss1/fc"
}
layer {
name: "loss1/drop_fc"
type: "Dropout"
bottom: "loss1/fc"
top: "loss1/fc"
dropout_param {
dropout_ratio: 0.7
}
}
layer {
name: "loss1/classifier"
type: "InnerProduct"
bottom: "loss1/fc"
top: "loss1/classifier"
param {
lr_mult: 1
decay_mult: 1
}
param {
lr_mult: 2
decay_mult: 0
}
inner_product_param {
num_output: 196
weight_filler {
type: "xavier"
std: 0.0009765625
}
bias_filler {
type: "constant"
value: 0
}
}
}
layer {
name: "loss1/loss"
type: "SoftmaxWithLoss"
bottom: "loss1/classifier"
bottom: "label"
top: "loss1/loss"
loss_weight: 0.3
}
layer {
name: "inception_4b/1x1"
type: "Convolution"
bottom: "inception_4a/output"
top: "inception_4b/1x1"
param {
lr_mult: 1
decay_mult: 1
}
param {
lr_mult: 2
decay_mult: 0
}
convolution_param {
num_output: 160
kernel_size: 1
weight_filler {
type: "xavier"
std: 0.03
}
bias_filler {
type: "constant"
value: 0.2
}
}
}
layer {
name: "inception_4b/relu_1x1"
type: "ReLU"
bottom: "inception_4b/1x1"
top: "inception_4b/1x1"
}
layer {
name: "inception_4b/3x3_reduce"
type: "Convolution"
bottom: "inception_4a/output"
top: "inception_4b/3x3_reduce"
param {
lr_mult: 1
decay_mult: 1
}
param {
lr_mult: 2
decay_mult: 0
}
convolution_param {
num_output: 112
kernel_size: 1
weight_filler {
type: "xavier"
std: 0.09
}
bias_filler {
type: "constant"
value: 0.2
}
}
}
layer {
name: "inception_4b/relu_3x3_reduce"
type: "ReLU"
bottom: "inception_4b/3x3_reduce"
top: "inception_4b/3x3_reduce"
}
layer {
name: "inception_4b/3x3"
type: "Convolution"
bottom: "inception_4b/3x3_reduce"
top: "inception_4b/3x3"
param {
lr_mult: 1
decay_mult: 1
}
param {
lr_mult: 2
decay_mult: 0
}
convolution_param {
num_output: 224
pad: 1
kernel_size: 3
weight_filler {
type: "xavier"
std: 0.03
}
bias_filler {
type: "constant"
value: 0.2
}
}
}
layer {
name: "inception_4b/relu_3x3"
type: "ReLU"
bottom: "inception_4b/3x3"
top: "inception_4b/3x3"
}
layer {
name: "inception_4b/5x5_reduce"
type: "Convolution"
bottom: "inception_4a/output"
top: "inception_4b/5x5_reduce"
param {
lr_mult: 1
decay_mult: 1
}
param {
lr_mult: 2
decay_mult: 0
}
convolution_param {
num_output: 24
kernel_size: 1
weight_filler {
type: "xavier"
std: 0.2
}
bias_filler {
type: "constant"
value: 0.2
}
}
}
layer {
name: "inception_4b/relu_5x5_reduce"
type: "ReLU"
bottom: "inception_4b/5x5_reduce"
top: "inception_4b/5x5_reduce"
}
layer {
name: "inception_4b/5x5"
type: "Convolution"
bottom: "inception_4b/5x5_reduce"
top: "inception_4b/5x5"
param {
lr_mult: 1
decay_mult: 1
}
param {
lr_mult: 2
decay_mult: 0
}
convolution_param {
num_output: 64
pad: 2
kernel_size: 5
weight_filler {
type: "xavier"
std: 0.03
}
bias_filler {
type: "constant"
value: 0.2
}
}
}
layer {
name: "inception_4b/relu_5x5"
type: "ReLU"
bottom: "inception_4b/5x5"
top: "inception_4b/5x5"
}
layer {
name: "inception_4b/pool"
type: "Pooling"
bottom: "inception_4a/output"
top: "inception_4b/pool"
pooling_param {
pool: MAX
kernel_size: 3
stride: 1
pad: 1
}
}
layer {
name: "inception_4b/pool_proj"
type: "Convolution"
bottom: "inception_4b/pool"
top: "inception_4b/pool_proj"
param {
lr_mult: 1
decay_mult: 1
}
param {
lr_mult: 2
decay_mult: 0
}
convolution_param {
num_output: 64
kernel_size: 1
weight_filler {
type: "xavier"
std: 0.1
}
bias_filler {
type: "constant"
value: 0.2
}
}
}
layer {
name: "inception_4b/relu_pool_proj"
type: "ReLU"
bottom: "inception_4b/pool_proj"
top: "inception_4b/pool_proj"
}
layer {
name: "inception_4b/output"
type: "Concat"
bottom: "inception_4b/1x1"
bottom: "inception_4b/3x3"
bottom: "inception_4b/5x5"
bottom: "inception_4b/pool_proj"
top: "inception_4b/output"
}
layer {
name: "inception_4c/1x1"
type: "Convolution"
bottom: "inception_4b/output"
top: "inception_4c/1x1"
param {
lr_mult: 1
decay_mult: 1
}
param {
lr_mult: 2
decay_mult: 0
}
convolution_param {
num_output: 128
kernel_size: 1
weight_filler {
type: "xavier"
std: 0.03
}
bias_filler {
type: "constant"
value: 0.2
}
}
}
layer {
name: "inception_4c/relu_1x1"
type: "ReLU"
bottom: "inception_4c/1x1"
top: "inception_4c/1x1"
}
layer {
name: "inception_4c/3x3_reduce"
type: "Convolution"
bottom: "inception_4b/output"
top: "inception_4c/3x3_reduce"
param {
lr_mult: 1
decay_mult: 1
}
param {
lr_mult: 2
decay_mult: 0
}
convolution_param {
num_output: 128
kernel_size: 1
weight_filler {
type: "xavier"
std: 0.09
}
bias_filler {
type: "constant"
value: 0.2
}
}
}
layer {
name: "inception_4c/relu_3x3_reduce"
type: "ReLU"
bottom: "inception_4c/3x3_reduce"
top: "inception_4c/3x3_reduce"
}
layer {
name: "inception_4c/3x3"
type: "Convolution"
bottom: "inception_4c/3x3_reduce"
top: "inception_4c/3x3"
param {
lr_mult: 1
decay_mult: 1
}
param {
lr_mult: 2
decay_mult: 0
}
convolution_param {
num_output: 256
pad: 1
kernel_size: 3
weight_filler {
type: "xavier"
std: 0.03
}
bias_filler {
type: "constant"
value: 0.2
}
}
}
layer {
name: "inception_4c/relu_3x3"
type: "ReLU"
bottom: "inception_4c/3x3"
top: "inception_4c/3x3"
}
layer {
name: "inception_4c/5x5_reduce"
type: "Convolution"
bottom: "inception_4b/output"
top: "inception_4c/5x5_reduce"
param {
lr_mult: 1
decay_mult: 1
}
param {
lr_mult: 2
decay_mult: 0
}
convolution_param {
num_output: 24
kernel_size: 1
weight_filler {
type: "xavier"
std: 0.2
}
bias_filler {
type: "constant"
value: 0.2
}
}
}
layer {
name: "inception_4c/relu_5x5_reduce"
type: "ReLU"
bottom: "inception_4c/5x5_reduce"
top: "inception_4c/5x5_reduce"
}
layer {
name: "inception_4c/5x5"
type: "Convolution"
bottom: "inception_4c/5x5_reduce"
top: "inception_4c/5x5"
param {
lr_mult: 1
decay_mult: 1
}
param {
lr_mult: 2
decay_mult: 0
}
convolution_param {
num_output: 64
pad: 2
kernel_size: 5
weight_filler {
type: "xavier"
std: 0.03
}
bias_filler {
type: "constant"
value: 0.2
}
}
}
layer {
name: "inception_4c/relu_5x5"
type: "ReLU"
bottom: "inception_4c/5x5"
top: "inception_4c/5x5"
}
layer {
name: "inception_4c/pool"
type: "Pooling"
bottom: "inception_4b/output"
top: "inception_4c/pool"
pooling_param {
pool: MAX
kernel_size: 3
stride: 1
pad: 1
}
}
layer {
name: "inception_4c/pool_proj"
type: "Convolution"
bottom: "inception_4c/pool"
top: "inception_4c/pool_proj"
param {
lr_mult: 1
decay_mult: 1
}
param {
lr_mult: 2
decay_mult: 0
}
convolution_param {
num_output: 64
kernel_size: 1
weight_filler {
type: "xavier"
std: 0.1
}
bias_filler {
type: "constant"
value: 0.2
}
}
}
layer {
name: "inception_4c/relu_pool_proj"
type: "ReLU"
bottom: "inception_4c/pool_proj"
top: "inception_4c/pool_proj"
}
layer {
name: "inception_4c/output"
type: "Concat"
bottom: "inception_4c/1x1"
bottom: "inception_4c/3x3"
bottom: "inception_4c/5x5"
bottom: "inception_4c/pool_proj"
top: "inception_4c/output"
}
layer {
name: "inception_4d/1x1"
type: "Convolution"
bottom: "inception_4c/output"
top: "inception_4d/1x1"
param {
lr_mult: 1
decay_mult: 1
}
param {
lr_mult: 2
decay_mult: 0
}
convolution_param {
num_output: 112
kernel_size: 1
weight_filler {
type: "xavier"
std: 0.03
}
bias_filler {
type: "constant"
value: 0.2
}
}
}
layer {
name: "inception_4d/relu_1x1"
type: "ReLU"
bottom: "inception_4d/1x1"
top: "inception_4d/1x1"
}
layer {
name: "inception_4d/3x3_reduce"
type: "Convolution"
bottom: "inception_4c/output"
top: "inception_4d/3x3_reduce"
param {
lr_mult: 1
decay_mult: 1
}
param {
lr_mult: 2
decay_mult: 0
}
convolution_param {
num_output: 144
kernel_size: 1
weight_filler {
type: "xavier"
std: 0.09
}
bias_filler {
type: "constant"
value: 0.2
}
}
}
layer {
name: "inception_4d/relu_3x3_reduce"
type: "ReLU"
bottom: "inception_4d/3x3_reduce"
top: "inception_4d/3x3_reduce"
}
layer {
name: "inception_4d/3x3"
type: "Convolution"
bottom: "inception_4d/3x3_reduce"
top: "inception_4d/3x3"
param {
lr_mult: 1
decay_mult: 1
}
param {
lr_mult: 2
decay_mult: 0
}
convolution_param {
num_output: 288
pad: 1
kernel_size: 3
weight_filler {
type: "xavier"
std: 0.03
}
bias_filler {
type: "constant"
value: 0.2
}
}
}
layer {
name: "inception_4d/relu_3x3"
type: "ReLU"
bottom: "inception_4d/3x3"
top: "inception_4d/3x3"
}
layer {
name: "inception_4d/5x5_reduce"
type: "Convolution"
bottom: "inception_4c/output"
top: "inception_4d/5x5_reduce"
param {
lr_mult: 1
decay_mult: 1
}
param {
lr_mult: 2
decay_mult: 0
}
convolution_param {
num_output: 32
kernel_size: 1
weight_filler {
type: "xavier"
std: 0.2
}
bias_filler {
type: "constant"
value: 0.2
}
}
}
layer {
name: "inception_4d/relu_5x5_reduce"
type: "ReLU"
bottom: "inception_4d/5x5_reduce"
top: "inception_4d/5x5_reduce"
}
layer {
name: "inception_4d/5x5"
type: "Convolution"
bottom: "inception_4d/5x5_reduce"
top: "inception_4d/5x5"
param {
lr_mult: 1
decay_mult: 1
}
param {
lr_mult: 2
decay_mult: 0
}
convolution_param {
num_output: 64
pad: 2
kernel_size: 5
weight_filler {
type: "xavier"
std: 0.03
}
bias_filler {
type: "constant"
value: 0.2
}
}
}
layer {
name: "inception_4d/relu_5x5"
type: "ReLU"
bottom: "inception_4d/5x5"
top: "inception_4d/5x5"
}
layer {
name: "inception_4d/pool"
type: "Pooling"
bottom: "inception_4c/output"
top: "inception_4d/pool"
pooling_param {
pool: MAX
kernel_size: 3
stride: 1
pad: 1
}
}
layer {
name: "inception_4d/pool_proj"
type: "Convolution"
bottom: "inception_4d/pool"
top: "inception_4d/pool_proj"
param {
lr_mult: 1
decay_mult: 1
}
param {
lr_mult: 2
decay_mult: 0
}
convolution_param {
num_output: 64
kernel_size: 1
weight_filler {
type: "xavier"
std: 0.1
}
bias_filler {
type: "constant"
value: 0.2
}
}
}
layer {
name: "inception_4d/relu_pool_proj"
type: "ReLU"
bottom: "inception_4d/pool_proj"
top: "inception_4d/pool_proj"
}
layer {
name: "inception_4d/output"
type: "Concat"
bottom: "inception_4d/1x1"
bottom: "inception_4d/3x3"
bottom: "inception_4d/5x5"
bottom: "inception_4d/pool_proj"
top: "inception_4d/output"
}
layer {
name: "loss2/ave_pool"
type: "Pooling"
bottom: "inception_4d/output"
top: "loss2/ave_pool"
pooling_param {
pool: AVE
kernel_size: 5
stride: 3
}
}
layer {
name: "loss2/conv"
type: "Convolution"
bottom: "loss2/ave_pool"
top: "loss2/conv"
param {
lr_mult: 1
decay_mult: 1
}
param {
lr_mult: 2
decay_mult: 0
}
convolution_param {
num_output: 128
kernel_size: 1
weight_filler {
type: "xavier"
std: 0.08
}
bias_filler {
type: "constant"
value: 0.2
}
}
}
layer {
name: "loss2/relu_conv"
type: "ReLU"
bottom: "loss2/conv"
top: "loss2/conv"
}
layer {
name: "loss2/fc"
type: "InnerProduct"
bottom: "loss2/conv"
top: "loss2/fc"
param {
lr_mult: 1
decay_mult: 1
}
param {
lr_mult: 2
decay_mult: 0
}
inner_product_param {
num_output: 1024
weight_filler {
type: "xavier"
std: 0.02
}
bias_filler {
type: "constant"
value: 0.2
}
}
}
layer {
name: "loss2/relu_fc"
type: "ReLU"
bottom: "loss2/fc"
top: "loss2/fc"
}
layer {
name: "loss2/drop_fc"
type: "Dropout"
bottom: "loss2/fc"
top: "loss2/fc"
dropout_param {
dropout_ratio: 0.7
}
}
layer {
name: "loss2/classifier"
type: "InnerProduct"
bottom: "loss2/fc"
top: "loss2/classifier"
param {
lr_mult: 1
decay_mult: 1
}
param {
lr_mult: 2
decay_mult: 0
}
inner_product_param {
num_output: 196
weight_filler {
type: "xavier"
std: 0.0009765625
}
bias_filler {
type: "constant"
value: 0
}
}
}
layer {
name: "loss2/loss"
type: "SoftmaxWithLoss"
bottom: "loss2/classifier"
bottom: "label"
top: "loss2/loss"
loss_weight: 0.3
}
layer {
name: "inception_4e/1x1"
type: "Convolution"
bottom: "inception_4d/output"
top: "inception_4e/1x1"
param {
lr_mult: 1
decay_mult: 1
}
param {
lr_mult: 2
decay_mult: 0
}
convolution_param {
num_output: 256
kernel_size: 1
weight_filler {
type: "xavier"
std: 0.03
}
bias_filler {
type: "constant"
value: 0.2
}
}
}
layer {
name: "inception_4e/relu_1x1"
type: "ReLU"
bottom: "inception_4e/1x1"
top: "inception_4e/1x1"
}
layer {
name: "inception_4e/3x3_reduce"
type: "Convolution"
bottom: "inception_4d/output"
top: "inception_4e/3x3_reduce"
param {
lr_mult: 1
decay_mult: 1
}
param {
lr_mult: 2
decay_mult: 0
}
convolution_param {
num_output: 160
kernel_size: 1
weight_filler {
type: "xavier"
std: 0.09
}
bias_filler {
type: "constant"
value: 0.2
}
}
}
layer {
name: "inception_4e/relu_3x3_reduce"
type: "ReLU"
bottom: "inception_4e/3x3_reduce"
top: "inception_4e/3x3_reduce"
}
layer {
name: "inception_4e/3x3"
type: "Convolution"
bottom: "inception_4e/3x3_reduce"
top: "inception_4e/3x3"
param {
lr_mult: 1
decay_mult: 1
}
param {
lr_mult: 2
decay_mult: 0
}
convolution_param {
num_output: 320
pad: 1
kernel_size: 3
weight_filler {
type: "xavier"
std: 0.03
}
bias_filler {
type: "constant"
value: 0.2
}
}
}
layer {
name: "inception_4e/relu_3x3"
type: "ReLU"
bottom: "inception_4e/3x3"
top: "inception_4e/3x3"
}
layer {
name: "inception_4e/5x5_reduce"
type: "Convolution"
bottom: "inception_4d/output"
top: "inception_4e/5x5_reduce"
param {
lr_mult: 1
decay_mult: 1
}
param {
lr_mult: 2
decay_mult: 0
}
convolution_param {
num_output: 32
kernel_size: 1
weight_filler {
type: "xavier"
std: 0.2
}
bias_filler {
type: "constant"
value: 0.2
I0512 15:58:35.951679  5963 layer_factory.hpp:77] Creating layer train-data
I0512 15:58:35.962249  5963 db_lmdb.cpp:35] Opened lmdb /mnt/bigdisk/AMBDIG9/digits/jobs/20200512-151006-0de8/train_db
I0512 15:58:35.962980  5963 net.cpp:84] Creating Layer train-data
I0512 15:58:35.962999  5963 net.cpp:380] train-data -> data
I0512 15:58:35.963029  5963 net.cpp:380] train-data -> label
I0512 15:58:35.966773  5963 data_layer.cpp:45] output data size: 32,3,224,224
I0512 15:58:36.008846  5963 net.cpp:122] Setting up train-data
I0512 15:58:36.008882  5963 net.cpp:129] Top shape: 32 3 224 224 (4816896)
I0512 15:58:36.008888  5963 net.cpp:129] Top shape: 32 (32)
I0512 15:58:36.008893  5963 net.cpp:137] Memory required for data: 19267712
I0512 15:58:36.008904  5963 layer_factory.hpp:77] Creating layer label_train-data_1_split
I0512 15:58:36.008920  5963 net.cpp:84] Creating Layer label_train-data_1_split
I0512 15:58:36.008927  5963 net.cpp:406] label_train-data_1_split <- label
I0512 15:58:36.008978  5963 net.cpp:380] label_train-data_1_split -> label_train-data_1_split_0
I0512 15:58:36.008992  5963 net.cpp:380] label_train-data_1_split -> label_train-data_1_split_1
I0512 15:58:36.009001  5963 net.cpp:380] label_train-data_1_split -> label_train-data_1_split_2
I0512 15:58:36.009073  5963 net.cpp:122] Setting up label_train-data_1_split
I0512 15:58:36.009079  5963 net.cpp:129] Top shape: 32 (32)
I0512 15:58:36.009084  5963 net.cpp:129] Top shape: 32 (32)
I0512 15:58:36.009089  5963 net.cpp:129] Top shape: 32 (32)
I0512 15:58:36.009093  5963 net.cpp:137] Memory required for data: 19268096
I0512 15:58:36.009099  5963 layer_factory.hpp:77] Creating layer conv1/7x7_s2
I0512 15:58:36.009119  5963 net.cpp:84] Creating Layer conv1/7x7_s2
I0512 15:58:36.009124  5963 net.cpp:406] conv1/7x7_s2 <- data
I0512 15:58:36.009131  5963 net.cpp:380] conv1/7x7_s2 -> conv1/7x7_s2
I0512 15:58:37.808491  5963 net.cpp:122] Setting up conv1/7x7_s2
I0512 15:58:37.808521  5963 net.cpp:129] Top shape: 32 64 112 112 (25690112)
I0512 15:58:37.808524  5963 net.cpp:137] Memory required for data: 122028544
I0512 15:58:37.808543  5963 layer_factory.hpp:77] Creating layer conv1/relu_7x7
I0512 15:58:37.808553  5963 net.cpp:84] Creating Layer conv1/relu_7x7
I0512 15:58:37.808557  5963 net.cpp:406] conv1/relu_7x7 <- conv1/7x7_s2
I0512 15:58:37.808562  5963 net.cpp:367] conv1/relu_7x7 -> conv1/7x7_s2 (in-place)
I0512 15:58:37.808876  5963 net.cpp:122] Setting up conv1/relu_7x7
I0512 15:58:37.808887  5963 net.cpp:129] Top shape: 32 64 112 112 (25690112)
I0512 15:58:37.808888  5963 net.cpp:137] Memory required for data: 224788992
I0512 15:58:37.808892  5963 layer_factory.hpp:77] Creating layer pool1/3x3_s2
I0512 15:58:37.808900  5963 net.cpp:84] Creating Layer pool1/3x3_s2
I0512 15:58:37.808903  5963 net.cpp:406] pool1/3x3_s2 <- conv1/7x7_s2
I0512 15:58:37.808908  5963 net.cpp:380] pool1/3x3_s2 -> pool1/3x3_s2
I0512 15:58:37.808949  5963 net.cpp:122] Setting up pool1/3x3_s2
I0512 15:58:37.808955  5963 net.cpp:129] Top shape: 32 64 56 56 (6422528)
I0512 15:58:37.808959  5963 net.cpp:137] Memory required for data: 250479104
I0512 15:58:37.808960  5963 layer_factory.hpp:77] Creating layer pool1/norm1
I0512 15:58:37.808969  5963 net.cpp:84] Creating Layer pool1/norm1
I0512 15:58:37.808971  5963 net.cpp:406] pool1/norm1 <- pool1/3x3_s2
I0512 15:58:37.808975  5963 net.cpp:380] pool1/norm1 -> pool1/norm1
I0512 15:58:37.809484  5963 net.cpp:122] Setting up pool1/norm1
I0512 15:58:37.809494  5963 net.cpp:129] Top shape: 32 64 56 56 (6422528)
I0512 15:58:37.809497  5963 net.cpp:137] Memory required for data: 276169216
I0512 15:58:37.809500  5963 layer_factory.hpp:77] Creating layer conv2/3x3_reduce
I0512 15:58:37.809511  5963 net.cpp:84] Creating Layer conv2/3x3_reduce
I0512 15:58:37.809514  5963 net.cpp:406] conv2/3x3_reduce <- pool1/norm1
I0512 15:58:37.809520  5963 net.cpp:380] conv2/3x3_reduce -> conv2/3x3_reduce
I0512 15:58:37.811451  5963 net.cpp:122] Setting up conv2/3x3_reduce
I0512 15:58:37.811461  5963 net.cpp:129] Top shape: 32 64 56 56 (6422528)
I0512 15:58:37.811465  5963 net.cpp:137] Memory required for data: 301859328
I0512 15:58:37.811472  5963 layer_factory.hpp:77] Creating layer conv2/relu_3x3_reduce
I0512 15:58:37.811478  5963 net.cpp:84] Creating Layer conv2/relu_3x3_reduce
I0512 15:58:37.811481  5963 net.cpp:406] conv2/relu_3x3_reduce <- conv2/3x3_reduce
I0512 15:58:37.811486  5963 net.cpp:367] conv2/relu_3x3_reduce -> conv2/3x3_reduce (in-place)
I0512 15:58:37.811797  5963 net.cpp:122] Setting up conv2/relu_3x3_reduce
I0512 15:58:37.811806  5963 net.cpp:129] Top shape: 32 64 56 56 (6422528)
I0512 15:58:37.811810  5963 net.cpp:137] Memory required for data: 327549440
I0512 15:58:37.811812  5963 layer_factory.hpp:77] Creating layer conv2/3x3
I0512 15:58:37.811822  5963 net.cpp:84] Creating Layer conv2/3x3
I0512 15:58:37.811825  5963 net.cpp:406] conv2/3x3 <- conv2/3x3_reduce
I0512 15:58:37.811830  5963 net.cpp:380] conv2/3x3 -> conv2/3x3
I0512 15:58:37.816354  5963 net.cpp:122] Setting up conv2/3x3
I0512 15:58:37.816409  5963 net.cpp:129] Top shape: 32 192 56 56 (19267584)
I0512 15:58:37.816416  5963 net.cpp:137] Memory required for data: 404619776
I0512 15:58:37.816431  5963 layer_factory.hpp:77] Creating layer conv2/relu_3x3
I0512 15:58:37.816440  5963 net.cpp:84] Creating Layer conv2/relu_3x3
I0512 15:58:37.816447  5963 net.cpp:406] conv2/relu_3x3 <- conv2/3x3
I0512 15:58:37.816454  5963 net.cpp:367] conv2/relu_3x3 -> conv2/3x3 (in-place)
I0512 15:58:37.817044  5963 net.cpp:122] Setting up conv2/relu_3x3
I0512 15:58:37.817059  5963 net.cpp:129] Top shape: 32 192 56 56 (19267584)
I0512 15:58:37.817065  5963 net.cpp:137] Memory required for data: 481690112
I0512 15:58:37.817070  5963 layer_factory.hpp:77] Creating layer conv2/norm2
I0512 15:58:37.817080  5963 net.cpp:84] Creating Layer conv2/norm2
I0512 15:58:37.817086  5963 net.cpp:406] conv2/norm2 <- conv2/3x3
I0512 15:58:37.817095  5963 net.cpp:380] conv2/norm2 -> conv2/norm2
I0512 15:58:37.817966  5963 net.cpp:122] Setting up conv2/norm2
I0512 15:58:37.817981  5963 net.cpp:129] Top shape: 32 192 56 56 (19267584)
I0512 15:58:37.817986  5963 net.cpp:137] Memory required for data: 558760448
I0512 15:58:37.817992  5963 layer_factory.hpp:77] Creating layer pool2/3x3_s2
I0512 15:58:37.818001  5963 net.cpp:84] Creating Layer pool2/3x3_s2
I0512 15:58:37.818007  5963 net.cpp:406] pool2/3x3_s2 <- conv2/norm2
I0512 15:58:37.818015  5963 net.cpp:380] pool2/3x3_s2 -> pool2/3x3_s2
I0512 15:58:37.818064  5963 net.cpp:122] Setting up pool2/3x3_s2
I0512 15:58:37.818073  5963 net.cpp:129] Top shape: 32 192 28 28 (4816896)
I0512 15:58:37.818078  5963 net.cpp:137] Memory required for data: 578028032
I0512 15:58:37.818084  5963 layer_factory.hpp:77] Creating layer pool2/3x3_s2_pool2/3x3_s2_0_split
I0512 15:58:37.818091  5963 net.cpp:84] Creating Layer pool2/3x3_s2_pool2/3x3_s2_0_split
I0512 15:58:37.818097  5963 net.cpp:406] pool2/3x3_s2_pool2/3x3_s2_0_split <- pool2/3x3_s2
I0512 15:58:37.818105  5963 net.cpp:380] pool2/3x3_s2_pool2/3x3_s2_0_split -> pool2/3x3_s2_pool2/3x3_s2_0_split_0
I0512 15:58:37.818115  5963 net.cpp:380] pool2/3x3_s2_pool2/3x3_s2_0_split -> pool2/3x3_s2_pool2/3x3_s2_0_split_1
I0512 15:58:37.818125  5963 net.cpp:380] pool2/3x3_s2_pool2/3x3_s2_0_split -> pool2/3x3_s2_pool2/3x3_s2_0_split_2
I0512 15:58:37.818135  5963 net.cpp:380] pool2/3x3_s2_pool2/3x3_s2_0_split -> pool2/3x3_s2_pool2/3x3_s2_0_split_3
I0512 15:58:37.818204  5963 net.cpp:122] Setting up pool2/3x3_s2_pool2/3x3_s2_0_split
I0512 15:58:37.818213  5963 net.cpp:129] Top shape: 32 192 28 28 (4816896)
I0512 15:58:37.818220  5963 net.cpp:129] Top shape: 32 192 28 28 (4816896)
I0512 15:58:37.818226  5963 net.cpp:129] Top shape: 32 192 28 28 (4816896)
I0512 15:58:37.818233  5963 net.cpp:129] Top shape: 32 192 28 28 (4816896)
I0512 15:58:37.818238  5963 net.cpp:137] Memory required for data: 655098368
I0512 15:58:37.818243  5963 layer_factory.hpp:77] Creating layer inception_3a/1x1
I0512 15:58:37.818255  5963 net.cpp:84] Creating Layer inception_3a/1x1
I0512 15:58:37.818261  5963 net.cpp:406] inception_3a/1x1 <- pool2/3x3_s2_pool2/3x3_s2_0_split_0
I0512 15:58:37.818270  5963 net.cpp:380] inception_3a/1x1 -> inception_3a/1x1
I0512 15:58:37.821727  5963 net.cpp:122] Setting up inception_3a/1x1
I0512 15:58:37.821744  5963 net.cpp:129] Top shape: 32 64 28 28 (1605632)
I0512 15:58:37.821749  5963 net.cpp:137] Memory required for data: 661520896
I0512 15:58:37.821760  5963 layer_factory.hpp:77] Creating layer inception_3a/relu_1x1
I0512 15:58:37.821769  5963 net.cpp:84] Creating Layer inception_3a/relu_1x1
I0512 15:58:37.821775  5963 net.cpp:406] inception_3a/relu_1x1 <- inception_3a/1x1
I0512 15:58:37.821784  5963 net.cpp:367] inception_3a/relu_1x1 -> inception_3a/1x1 (in-place)
I0512 15:58:37.822341  5963 net.cpp:122] Setting up inception_3a/relu_1x1
I0512 15:58:37.822355  5963 net.cpp:129] Top shape: 32 64 28 28 (1605632)
I0512 15:58:37.822360  5963 net.cpp:137] Memory required for data: 667943424
I0512 15:58:37.822366  5963 layer_factory.hpp:77] Creating layer inception_3a/3x3_reduce
I0512 15:58:37.822396  5963 net.cpp:84] Creating Layer inception_3a/3x3_reduce
I0512 15:58:37.822402  5963 net.cpp:406] inception_3a/3x3_reduce <- pool2/3x3_s2_pool2/3x3_s2_0_split_1
I0512 15:58:37.822412  5963 net.cpp:380] inception_3a/3x3_reduce -> inception_3a/3x3_reduce
I0512 15:58:37.827761  5963 net.cpp:122] Setting up inception_3a/3x3_reduce
I0512 15:58:37.827780  5963 net.cpp:129] Top shape: 32 96 28 28 (2408448)
I0512 15:58:37.827785  5963 net.cpp:137] Memory required for data: 677577216
I0512 15:58:37.827800  5963 layer_factory.hpp:77] Creating layer inception_3a/relu_3x3_reduce
I0512 15:58:37.827817  5963 net.cpp:84] Creating Layer inception_3a/relu_3x3_reduce
I0512 15:58:37.827823  5963 net.cpp:406] inception_3a/relu_3x3_reduce <- inception_3a/3x3_reduce
I0512 15:58:37.827832  5963 net.cpp:367] inception_3a/relu_3x3_reduce -> inception_3a/3x3_reduce (in-place)
I0512 15:58:37.828795  5963 net.cpp:122] Setting up inception_3a/relu_3x3_reduce
I0512 15:58:37.828812  5963 net.cpp:129] Top shape: 32 96 28 28 (2408448)
I0512 15:58:37.828817  5963 net.cpp:137] Memory required for data: 687211008
I0512 15:58:37.828824  5963 layer_factory.hpp:77] Creating layer inception_3a/3x3
I0512 15:58:37.828840  5963 net.cpp:84] Creating Layer inception_3a/3x3
I0512 15:58:37.828845  5963 net.cpp:406] inception_3a/3x3 <- inception_3a/3x3_reduce
I0512 15:58:37.828857  5963 net.cpp:380] inception_3a/3x3 -> inception_3a/3x3
I0512 15:58:37.832576  5963 net.cpp:122] Setting up inception_3a/3x3
I0512 15:58:37.832587  5963 net.cpp:129] Top shape: 32 128 28 28 (3211264)
I0512 15:58:37.832590  5963 net.cpp:137] Memory required for data: 700056064
I0512 15:58:37.832597  5963 layer_factory.hpp:77] Creating layer inception_3a/relu_3x3
I0512 15:58:37.832603  5963 net.cpp:84] Creating Layer inception_3a/relu_3x3
I0512 15:58:37.832607  5963 net.cpp:406] inception_3a/relu_3x3 <- inception_3a/3x3
I0512 15:58:37.832614  5963 net.cpp:367] inception_3a/relu_3x3 -> inception_3a/3x3 (in-place)
I0512 15:58:37.833207  5963 net.cpp:122] Setting up inception_3a/relu_3x3
I0512 15:58:37.833222  5963 net.cpp:129] Top shape: 32 128 28 28 (3211264)
I0512 15:58:37.833227  5963 net.cpp:137] Memory required for data: 712901120
I0512 15:58:37.833231  5963 layer_factory.hpp:77] Creating layer inception_3a/5x5_reduce
I0512 15:58:37.833246  5963 net.cpp:84] Creating Layer inception_3a/5x5_reduce
I0512 15:58:37.833252  5963 net.cpp:406] inception_3a/5x5_reduce <- pool2/3x3_s2_pool2/3x3_s2_0_split_2
I0512 15:58:37.833262  5963 net.cpp:380] inception_3a/5x5_reduce -> inception_3a/5x5_reduce
I0512 15:58:37.835912  5963 net.cpp:122] Setting up inception_3a/5x5_reduce
I0512 15:58:37.835922  5963 net.cpp:129] Top shape: 32 16 28 28 (401408)
I0512 15:58:37.835925  5963 net.cpp:137] Memory required for data: 714506752
I0512 15:58:37.835932  5963 layer_factory.hpp:77] Creating layer inception_3a/relu_5x5_reduce
I0512 15:58:37.835938  5963 net.cpp:84] Creating Layer inception_3a/relu_5x5_reduce
I0512 15:58:37.835942  5963 net.cpp:406] inception_3a/relu_5x5_reduce <- inception_3a/5x5_reduce
I0512 15:58:37.835947  5963 net.cpp:367] inception_3a/relu_5x5_reduce -> inception_3a/5x5_reduce (in-place)
I0512 15:58:37.837613  5963 net.cpp:122] Setting up inception_3a/relu_5x5_reduce
I0512 15:58:37.837623  5963 net.cpp:129] Top shape: 32 16 28 28 (401408)
I0512 15:58:37.837626  5963 net.cpp:137] Memory required for data: 716112384
I0512 15:58:37.837630  5963 layer_factory.hpp:77] Creating layer inception_3a/5x5
I0512 15:58:37.837641  5963 net.cpp:84] Creating Layer inception_3a/5x5
I0512 15:58:37.837644  5963 net.cpp:406] inception_3a/5x5 <- inception_3a/5x5_reduce
I0512 15:58:37.837651  5963 net.cpp:380] inception_3a/5x5 -> inception_3a/5x5
I0512 15:58:37.839671  5963 net.cpp:122] Setting up inception_3a/5x5
I0512 15:58:37.839682  5963 net.cpp:129] Top shape: 32 32 28 28 (802816)
I0512 15:58:37.839685  5963 net.cpp:137] Memory required for data: 719323648
I0512 15:58:37.839691  5963 layer_factory.hpp:77] Creating layer inception_3a/relu_5x5
I0512 15:58:37.839699  5963 net.cpp:84] Creating Layer inception_3a/relu_5x5
I0512 15:58:37.839720  5963 net.cpp:406] inception_3a/relu_5x5 <- inception_3a/5x5
I0512 15:58:37.839725  5963 net.cpp:367] inception_3a/relu_5x5 -> inception_3a/5x5 (in-place)
I0512 15:58:37.840281  5963 net.cpp:122] Setting up inception_3a/relu_5x5
I0512 15:58:37.840291  5963 net.cpp:129] Top shape: 32 32 28 28 (802816)
I0512 15:58:37.840293  5963 net.cpp:137] Memory required for data: 722534912
I0512 15:58:37.840296  5963 layer_factory.hpp:77] Creating layer inception_3a/pool
I0512 15:58:37.840304  5963 net.cpp:84] Creating Layer inception_3a/pool
I0512 15:58:37.840308  5963 net.cpp:406] inception_3a/pool <- pool2/3x3_s2_pool2/3x3_s2_0_split_3
I0512 15:58:37.840313  5963 net.cpp:380] inception_3a/pool -> inception_3a/pool
I0512 15:58:37.840356  5963 net.cpp:122] Setting up inception_3a/pool
I0512 15:58:37.840361  5963 net.cpp:129] Top shape: 32 192 28 28 (4816896)
I0512 15:58:37.840364  5963 net.cpp:137] Memory required for data: 741802496
I0512 15:58:37.840368  5963 layer_factory.hpp:77] Creating layer inception_3a/pool_proj
I0512 15:58:37.840376  5963 net.cpp:84] Creating Layer inception_3a/pool_proj
I0512 15:58:37.840379  5963 net.cpp:406] inception_3a/pool_proj <- inception_3a/pool
I0512 15:58:37.840385  5963 net.cpp:380] inception_3a/pool_proj -> inception_3a/pool_proj
I0512 15:58:37.842727  5963 net.cpp:122] Setting up inception_3a/pool_proj
I0512 15:58:37.842737  5963 net.cpp:129] Top shape: 32 32 28 28 (802816)
I0512 15:58:37.842741  5963 net.cpp:137] Memory required for data: 745013760
I0512 15:58:37.842753  5963 layer_factory.hpp:77] Creating layer inception_3a/relu_pool_proj
I0512 15:58:37.842761  5963 net.cpp:84] Creating Layer inception_3a/relu_pool_proj
I0512 15:58:37.842763  5963 net.cpp:406] inception_3a/relu_pool_proj <- inception_3a/pool_proj
I0512 15:58:37.842768  5963 net.cpp:367] inception_3a/relu_pool_proj -> inception_3a/pool_proj (in-place)
I0512 15:58:37.843142  5963 net.cpp:122] Setting up inception_3a/relu_pool_proj
I0512 15:58:37.843152  5963 net.cpp:129] Top shape: 32 32 28 28 (802816)
I0512 15:58:37.843154  5963 net.cpp:137] Memory required for data: 748225024
I0512 15:58:37.843158  5963 layer_factory.hpp:77] Creating layer inception_3a/output
I0512 15:58:37.843165  5963 net.cpp:84] Creating Layer inception_3a/output
I0512 15:58:37.843168  5963 net.cpp:406] inception_3a/output <- inception_3a/1x1
I0512 15:58:37.843173  5963 net.cpp:406] inception_3a/output <- inception_3a/3x3
I0512 15:58:37.843175  5963 net.cpp:406] inception_3a/output <- inception_3a/5x5
I0512 15:58:37.843179  5963 net.cpp:406] inception_3a/output <- inception_3a/pool_proj
I0512 15:58:37.843185  5963 net.cpp:380] inception_3a/output -> inception_3a/output
I0512 15:58:37.843211  5963 net.cpp:122] Setting up inception_3a/output
I0512 15:58:37.843216  5963 net.cpp:129] Top shape: 32 256 28 28 (6422528)
I0512 15:58:37.843219  5963 net.cpp:137] Memory required for data: 773915136
I0512 15:58:37.843221  5963 layer_factory.hpp:77] Creating layer inception_3a/output_inception_3a/output_0_split
I0512 15:58:37.843230  5963 net.cpp:84] Creating Layer inception_3a/output_inception_3a/output_0_split
I0512 15:58:37.843233  5963 net.cpp:406] inception_3a/output_inception_3a/output_0_split <- inception_3a/output
I0512 15:58:37.843240  5963 net.cpp:380] inception_3a/output_inception_3a/output_0_split -> inception_3a/output_inception_3a/output_0_split_0
I0512 15:58:37.843246  5963 net.cpp:380] inception_3a/output_inception_3a/output_0_split -> inception_3a/output_inception_3a/output_0_split_1
I0512 15:58:37.843251  5963 net.cpp:380] inception_3a/output_inception_3a/output_0_split -> inception_3a/output_inception_3a/output_0_split_2
I0512 15:58:37.843256  5963 net.cpp:380] inception_3a/output_inception_3a/output_0_split -> inception_3a/output_inception_3a/output_0_split_3
I0512 15:58:37.843303  5963 net.cpp:122] Setting up inception_3a/output_inception_3a/output_0_split
I0512 15:58:37.843309  5963 net.cpp:129] Top shape: 32 256 28 28 (6422528)
I0512 15:58:37.843313  5963 net.cpp:129] Top shape: 32 256 28 28 (6422528)
I0512 15:58:37.843327  5963 net.cpp:129] Top shape: 32 256 28 28 (6422528)
I0512 15:58:37.843330  5963 net.cpp:129] Top shape: 32 256 28 28 (6422528)
I0512 15:58:37.843333  5963 net.cpp:137] Memory required for data: 876675584
I0512 15:58:37.843336  5963 layer_factory.hpp:77] Creating layer inception_3b/1x1
I0512 15:58:37.843345  5963 net.cpp:84] Creating Layer inception_3b/1x1
I0512 15:58:37.843348  5963 net.cpp:406] inception_3b/1x1 <- inception_3a/output_inception_3a/output_0_split_0
I0512 15:58:37.843354  5963 net.cpp:380] inception_3b/1x1 -> inception_3b/1x1
I0512 15:58:37.846721  5963 net.cpp:122] Setting up inception_3b/1x1
I0512 15:58:37.846732  5963 net.cpp:129] Top shape: 32 128 28 28 (3211264)
I0512 15:58:37.846735  5963 net.cpp:137] Memory required for data: 889520640
I0512 15:58:37.846741  5963 layer_factory.hpp:77] Creating layer inception_3b/relu_1x1
I0512 15:58:37.846747  5963 net.cpp:84] Creating Layer inception_3b/relu_1x1
I0512 15:58:37.846750  5963 net.cpp:406] inception_3b/relu_1x1 <- inception_3b/1x1
I0512 15:58:37.846757  5963 net.cpp:367] inception_3b/relu_1x1 -> inception_3b/1x1 (in-place)
I0512 15:58:37.847299  5963 net.cpp:122] Setting up inception_3b/relu_1x1
I0512 15:58:37.847309  5963 net.cpp:129] Top shape: 32 128 28 28 (3211264)
I0512 15:58:37.847311  5963 net.cpp:137] Memory required for data: 902365696
I0512 15:58:37.847314  5963 layer_factory.hpp:77] Creating layer inception_3b/3x3_reduce
I0512 15:58:37.847324  5963 net.cpp:84] Creating Layer inception_3b/3x3_reduce
I0512 15:58:37.847327  5963 net.cpp:406] inception_3b/3x3_reduce <- inception_3a/output_inception_3a/output_0_split_1
I0512 15:58:37.847334  5963 net.cpp:380] inception_3b/3x3_reduce -> inception_3b/3x3_reduce
I0512 15:58:37.849448  5963 net.cpp:122] Setting up inception_3b/3x3_reduce
I0512 15:58:37.849458  5963 net.cpp:129] Top shape: 32 128 28 28 (3211264)
I0512 15:58:37.849462  5963 net.cpp:137] Memory required for data: 915210752
I0512 15:58:37.849467  5963 layer_factory.hpp:77] Creating layer inception_3b/relu_3x3_reduce
I0512 15:58:37.849473  5963 net.cpp:84] Creating Layer inception_3b/relu_3x3_reduce
I0512 15:58:37.849476  5963 net.cpp:406] inception_3b/relu_3x3_reduce <- inception_3b/3x3_reduce
I0512 15:58:37.849483  5963 net.cpp:367] inception_3b/relu_3x3_reduce -> inception_3b/3x3_reduce (in-place)
I0512 15:58:37.850031  5963 net.cpp:122] Setting up inception_3b/relu_3x3_reduce
I0512 15:58:37.850040  5963 net.cpp:129] Top shape: 32 128 28 28 (3211264)
I0512 15:58:37.850044  5963 net.cpp:137] Memory required for data: 928055808
I0512 15:58:37.850046  5963 layer_factory.hpp:77] Creating layer inception_3b/3x3
I0512 15:58:37.850065  5963 net.cpp:84] Creating Layer inception_3b/3x3
I0512 15:58:37.850069  5963 net.cpp:406] inception_3b/3x3 <- inception_3b/3x3_reduce
I0512 15:58:37.850075  5963 net.cpp:380] inception_3b/3x3 -> inception_3b/3x3
I0512 15:58:37.854060  5963 net.cpp:122] Setting up inception_3b/3x3
I0512 15:58:37.854071  5963 net.cpp:129] Top shape: 32 192 28 28 (4816896)
I0512 15:58:37.854074  5963 net.cpp:137] Memory required for data: 947323392
I0512 15:58:37.854080  5963 layer_factory.hpp:77] Creating layer inception_3b/relu_3x3
I0512 15:58:37.854089  5963 net.cpp:84] Creating Layer inception_3b/relu_3x3
I0512 15:58:37.854092  5963 net.cpp:406] inception_3b/relu_3x3 <- inception_3b/3x3
I0512 15:58:37.854096  5963 net.cpp:367] inception_3b/relu_3x3 -> inception_3b/3x3 (in-place)
I0512 15:58:37.855669  5963 net.cpp:122] Setting up inception_3b/relu_3x3
I0512 15:58:37.855679  5963 net.cpp:129] Top shape: 32 192 28 28 (4816896)
I0512 15:58:37.855680  5963 net.cpp:137] Memory required for data: 966590976
I0512 15:58:37.855684  5963 layer_factory.hpp:77] Creating layer inception_3b/5x5_reduce
I0512 15:58:37.855695  5963 net.cpp:84] Creating Layer inception_3b/5x5_reduce
I0512 15:58:37.855698  5963 net.cpp:406] inception_3b/5x5_reduce <- inception_3a/output_inception_3a/output_0_split_2
I0512 15:58:37.855705  5963 net.cpp:380] inception_3b/5x5_reduce -> inception_3b/5x5_reduce
I0512 15:58:37.857730  5963 net.cpp:122] Setting up inception_3b/5x5_reduce
I0512 15:58:37.857758  5963 net.cpp:129] Top shape: 32 32 28 28 (802816)
I0512 15:58:37.857760  5963 net.cpp:137] Memory required for data: 969802240
I0512 15:58:37.857766  5963 layer_factory.hpp:77] Creating layer inception_3b/relu_5x5_reduce
I0512 15:58:37.857774  5963 net.cpp:84] Creating Layer inception_3b/relu_5x5_reduce
I0512 15:58:37.857779  5963 net.cpp:406] inception_3b/relu_5x5_reduce <- inception_3b/5x5_reduce
I0512 15:58:37.857782  5963 net.cpp:367] inception_3b/relu_5x5_reduce -> inception_3b/5x5_reduce (in-place)
I0512 15:58:37.858336  5963 net.cpp:122] Setting up inception_3b/relu_5x5_reduce
I0512 15:58:37.858345  5963 net.cpp:129] Top shape: 32 32 28 28 (802816)
I0512 15:58:37.858348  5963 net.cpp:137] Memory required for data: 973013504
I0512 15:58:37.858351  5963 layer_factory.hpp:77] Creating layer inception_3b/5x5
I0512 15:58:37.858361  5963 net.cpp:84] Creating Layer inception_3b/5x5
I0512 15:58:37.858364  5963 net.cpp:406] inception_3b/5x5 <- inception_3b/5x5_reduce
I0512 15:58:37.858372  5963 net.cpp:380] inception_3b/5x5 -> inception_3b/5x5
I0512 15:58:37.860886  5963 net.cpp:122] Setting up inception_3b/5x5
I0512 15:58:37.860898  5963 net.cpp:129] Top shape: 32 96 28 28 (2408448)
I0512 15:58:37.860901  5963 net.cpp:137] Memory required for data: 982647296
I0512 15:58:37.860908  5963 layer_factory.hpp:77] Creating layer inception_3b/relu_5x5
I0512 15:58:37.860913  5963 net.cpp:84] Creating Layer inception_3b/relu_5x5
I0512 15:58:37.860918  5963 net.cpp:406] inception_3b/relu_5x5 <- inception_3b/5x5
I0512 15:58:37.860921  5963 net.cpp:367] inception_3b/relu_5x5 -> inception_3b/5x5 (in-place)
I0512 15:58:37.861300  5963 net.cpp:122] Setting up inception_3b/relu_5x5
I0512 15:58:37.861311  5963 net.cpp:129] Top shape: 32 96 28 28 (2408448)
I0512 15:58:37.861315  5963 net.cpp:137] Memory required for data: 992281088
I0512 15:58:37.861317  5963 layer_factory.hpp:77] Creating layer inception_3b/pool
I0512 15:58:37.861323  5963 net.cpp:84] Creating Layer inception_3b/pool
I0512 15:58:37.861326  5963 net.cpp:406] inception_3b/pool <- inception_3a/output_inception_3a/output_0_split_3
I0512 15:58:37.861333  5963 net.cpp:380] inception_3b/pool -> inception_3b/pool
I0512 15:58:37.861372  5963 net.cpp:122] Setting up inception_3b/pool
I0512 15:58:37.861377  5963 net.cpp:129] Top shape: 32 256 28 28 (6422528)
I0512 15:58:37.861380  5963 net.cpp:137] Memory required for data: 1017971200
I0512 15:58:37.861382  5963 layer_factory.hpp:77] Creating layer inception_3b/pool_proj
I0512 15:58:37.861392  5963 net.cpp:84] Creating Layer inception_3b/pool_proj
I0512 15:58:37.861394  5963 net.cpp:406] inception_3b/pool_proj <- inception_3b/pool
I0512 15:58:37.861402  5963 net.cpp:380] inception_3b/pool_proj -> inception_3b/pool_proj
I0512 15:58:37.864892  5963 net.cpp:122] Setting up inception_3b/pool_proj
I0512 15:58:37.864904  5963 net.cpp:129] Top shape: 32 64 28 28 (1605632)
I0512 15:58:37.864907  5963 net.cpp:137] Memory required for data: 1024393728
I0512 15:58:37.864913  5963 layer_factory.hpp:77] Creating layer inception_3b/relu_pool_proj
I0512 15:58:37.864920  5963 net.cpp:84] Creating Layer inception_3b/relu_pool_proj
I0512 15:58:37.864924  5963 net.cpp:406] inception_3b/relu_pool_proj <- inception_3b/pool_proj
I0512 15:58:37.864930  5963 net.cpp:367] inception_3b/relu_pool_proj -> inception_3b/pool_proj (in-place)
I0512 15:58:37.865314  5963 net.cpp:122] Setting up inception_3b/relu_pool_proj
I0512 15:58:37.865322  5963 net.cpp:129] Top shape: 32 64 28 28 (1605632)
I0512 15:58:37.865325  5963 net.cpp:137] Memory required for data: 1030816256
I0512 15:58:37.865329  5963 layer_factory.hpp:77] Creating layer inception_3b/output
I0512 15:58:37.865335  5963 net.cpp:84] Creating Layer inception_3b/output
I0512 15:58:37.865339  5963 net.cpp:406] inception_3b/output <- inception_3b/1x1
I0512 15:58:37.865343  5963 net.cpp:406] inception_3b/output <- inception_3b/3x3
I0512 15:58:37.865346  5963 net.cpp:406] inception_3b/output <- inception_3b/5x5
I0512 15:58:37.865350  5963 net.cpp:406] inception_3b/output <- inception_3b/pool_proj
I0512 15:58:37.865368  5963 net.cpp:380] inception_3b/output -> inception_3b/output
I0512 15:58:37.865397  5963 net.cpp:122] Setting up inception_3b/output
I0512 15:58:37.865403  5963 net.cpp:129] Top shape: 32 480 28 28 (12042240)
I0512 15:58:37.865406  5963 net.cpp:137] Memory required for data: 1078985216
I0512 15:58:37.865408  5963 layer_factory.hpp:77] Creating layer pool3/3x3_s2
I0512 15:58:37.865413  5963 net.cpp:84] Creating Layer pool3/3x3_s2
I0512 15:58:37.865417  5963 net.cpp:406] pool3/3x3_s2 <- inception_3b/output
I0512 15:58:37.865422  5963 net.cpp:380] pool3/3x3_s2 -> pool3/3x3_s2
I0512 15:58:37.865453  5963 net.cpp:122] Setting up pool3/3x3_s2
I0512 15:58:37.865459  5963 net.cpp:129] Top shape: 32 480 14 14 (3010560)
I0512 15:58:37.865463  5963 net.cpp:137] Memory required for data: 1091027456
I0512 15:58:37.865464  5963 layer_factory.hpp:77] Creating layer pool3/3x3_s2_pool3/3x3_s2_0_split
I0512 15:58:37.865470  5963 net.cpp:84] Creating Layer pool3/3x3_s2_pool3/3x3_s2_0_split
I0512 15:58:37.865473  5963 net.cpp:406] pool3/3x3_s2_pool3/3x3_s2_0_split <- pool3/3x3_s2
I0512 15:58:37.865478  5963 net.cpp:380] pool3/3x3_s2_pool3/3x3_s2_0_split -> pool3/3x3_s2_pool3/3x3_s2_0_split_0
I0512 15:58:37.865484  5963 net.cpp:380] pool3/3x3_s2_pool3/3x3_s2_0_split -> pool3/3x3_s2_pool3/3x3_s2_0_split_1
I0512 15:58:37.865489  5963 net.cpp:380] pool3/3x3_s2_pool3/3x3_s2_0_split -> pool3/3x3_s2_pool3/3x3_s2_0_split_2
I0512 15:58:37.865494  5963 net.cpp:380] pool3/3x3_s2_pool3/3x3_s2_0_split -> pool3/3x3_s2_pool3/3x3_s2_0_split_3
I0512 15:58:37.865540  5963 net.cpp:122] Setting up pool3/3x3_s2_pool3/3x3_s2_0_split
I0512 15:58:37.865545  5963 net.cpp:129] Top shape: 32 480 14 14 (3010560)
I0512 15:58:37.865547  5963 net.cpp:129] Top shape: 32 480 14 14 (3010560)
I0512 15:58:37.865550  5963 net.cpp:129] Top shape: 32 480 14 14 (3010560)
I0512 15:58:37.865553  5963 net.cpp:129] Top shape: 32 480 14 14 (3010560)
I0512 15:58:37.865556  5963 net.cpp:137] Memory required for data: 1139196416
I0512 15:58:37.865559  5963 layer_factory.hpp:77] Creating layer inception_4a/1x1
I0512 15:58:37.865568  5963 net.cpp:84] Creating Layer inception_4a/1x1
I0512 15:58:37.865572  5963 net.cpp:406] inception_4a/1x1 <- pool3/3x3_s2_pool3/3x3_s2_0_split_0
I0512 15:58:37.865577  5963 net.cpp:380] inception_4a/1x1 -> inception_4a/1x1
I0512 15:58:37.868146  5963 net.cpp:122] Setting up inception_4a/1x1
I0512 15:58:37.868156  5963 net.cpp:129] Top shape: 32 192 14 14 (1204224)
I0512 15:58:37.868160  5963 net.cpp:137] Memory required for data: 1144013312
I0512 15:58:37.868165  5963 layer_factory.hpp:77] Creating layer inception_4a/relu_1x1
I0512 15:58:37.868172  5963 net.cpp:84] Creating Layer inception_4a/relu_1x1
I0512 15:58:37.868176  5963 net.cpp:406] inception_4a/relu_1x1 <- inception_4a/1x1
I0512 15:58:37.868180  5963 net.cpp:367] inception_4a/relu_1x1 -> inception_4a/1x1 (in-place)
I0512 15:58:37.868769  5963 net.cpp:122] Setting up inception_4a/relu_1x1
I0512 15:58:37.868780  5963 net.cpp:129] Top shape: 32 192 14 14 (1204224)
I0512 15:58:37.868784  5963 net.cpp:137] Memory required for data: 1148830208
I0512 15:58:37.868788  5963 layer_factory.hpp:77] Creating layer inception_4a/3x3_reduce
I0512 15:58:37.868796  5963 net.cpp:84] Creating Layer inception_4a/3x3_reduce
I0512 15:58:37.868800  5963 net.cpp:406] inception_4a/3x3_reduce <- pool3/3x3_s2_pool3/3x3_s2_0_split_1
I0512 15:58:37.868806  5963 net.cpp:380] inception_4a/3x3_reduce -> inception_4a/3x3_reduce
I0512 15:58:37.871011  5963 net.cpp:122] Setting up inception_4a/3x3_reduce
I0512 15:58:37.871019  5963 net.cpp:129] Top shape: 32 96 14 14 (602112)
I0512 15:58:37.871022  5963 net.cpp:137] Memory required for data: 1151238656
I0512 15:58:37.871037  5963 layer_factory.hpp:77] Creating layer inception_4a/relu_3x3_reduce
I0512 15:58:37.871042  5963 net.cpp:84] Creating Layer inception_4a/relu_3x3_reduce
I0512 15:58:37.871047  5963 net.cpp:406] inception_4a/relu_3x3_reduce <- inception_4a/3x3_reduce
I0512 15:58:37.871052  5963 net.cpp:367] inception_4a/relu_3x3_reduce -> inception_4a/3x3_reduce (in-place)
I0512 15:58:37.872720  5963 net.cpp:122] Setting up inception_4a/relu_3x3_reduce
I0512 15:58:37.872730  5963 net.cpp:129] Top shape: 32 96 14 14 (602112)
I0512 15:58:37.872733  5963 net.cpp:137] Memory required for data: 1153647104
I0512 15:58:37.872736  5963 layer_factory.hpp:77] Creating layer inception_4a/3x3
I0512 15:58:37.872746  5963 net.cpp:84] Creating Layer inception_4a/3x3
I0512 15:58:37.872750  5963 net.cpp:406] inception_4a/3x3 <- inception_4a/3x3_reduce
I0512 15:58:37.872757  5963 net.cpp:380] inception_4a/3x3 -> inception_4a/3x3
I0512 15:58:37.876572  5963 net.cpp:122] Setting up inception_4a/3x3
I0512 15:58:37.876585  5963 net.cpp:129] Top shape: 32 208 14 14 (1304576)
I0512 15:58:37.876587  5963 net.cpp:137] Memory required for data: 1158865408
I0512 15:58:37.876593  5963 layer_factory.hpp:77] Creating layer inception_4a/relu_3x3
I0512 15:58:37.876600  5963 net.cpp:84] Creating Layer inception_4a/relu_3x3
I0512 15:58:37.876603  5963 net.cpp:406] inception_4a/relu_3x3 <- inception_4a/3x3
I0512 15:58:37.876610  5963 net.cpp:367] inception_4a/relu_3x3 -> inception_4a/3x3 (in-place)
I0512 15:58:37.877171  5963 net.cpp:122] Setting up inception_4a/relu_3x3
I0512 15:58:37.877184  5963 net.cpp:129] Top shape: 32 208 14 14 (1304576)
I0512 15:58:37.877187  5963 net.cpp:137] Memory required for data: 1164083712
I0512 15:58:37.877190  5963 layer_factory.hpp:77] Creating layer inception_4a/5x5_reduce
I0512 15:58:37.877200  5963 net.cpp:84] Creating Layer inception_4a/5x5_reduce
I0512 15:58:37.877204  5963 net.cpp:406] inception_4a/5x5_reduce <- pool3/3x3_s2_pool3/3x3_s2_0_split_2
I0512 15:58:37.877210  5963 net.cpp:380] inception_4a/5x5_reduce -> inception_4a/5x5_reduce
I0512 15:58:37.879240  5963 net.cpp:122] Setting up inception_4a/5x5_reduce
I0512 15:58:37.879249  5963 net.cpp:129] Top shape: 32 16 14 14 (100352)
I0512 15:58:37.879251  5963 net.cpp:137] Memory required for data: 1164485120
I0512 15:58:37.879257  5963 layer_factory.hpp:77] Creating layer inception_4a/relu_5x5_reduce
I0512 15:58:37.879263  5963 net.cpp:84] Creating Layer inception_4a/relu_5x5_reduce
I0512 15:58:37.879267  5963 net.cpp:406] inception_4a/relu_5x5_reduce <- inception_4a/5x5_reduce
I0512 15:58:37.879272  5963 net.cpp:367] inception_4a/relu_5x5_reduce -> inception_4a/5x5_reduce (in-place)
I0512 15:58:37.879825  5963 net.cpp:122] Setting up inception_4a/relu_5x5_reduce
I0512 15:58:37.879835  5963 net.cpp:129] Top shape: 32 16 14 14 (100352)
I0512 15:58:37.879837  5963 net.cpp:137] Memory required for data: 1164886528
I0512 15:58:37.879842  5963 layer_factory.hpp:77] Creating layer inception_4a/5x5
I0512 15:58:37.879851  5963 net.cpp:84] Creating Layer inception_4a/5x5
I0512 15:58:37.879855  5963 net.cpp:406] inception_4a/5x5 <- inception_4a/5x5_reduce
I0512 15:58:37.879861  5963 net.cpp:380] inception_4a/5x5 -> inception_4a/5x5
I0512 15:58:37.883303  5963 net.cpp:122] Setting up inception_4a/5x5
I0512 15:58:37.883314  5963 net.cpp:129] Top shape: 32 48 14 14 (301056)
I0512 15:58:37.883318  5963 net.cpp:137] Memory required for data: 1166090752
I0512 15:58:37.883324  5963 layer_factory.hpp:77] Creating layer inception_4a/relu_5x5
I0512 15:58:37.883330  5963 net.cpp:84] Creating Layer inception_4a/relu_5x5
I0512 15:58:37.883333  5963 net.cpp:406] inception_4a/relu_5x5 <- inception_4a/5x5
I0512 15:58:37.883339  5963 net.cpp:367] inception_4a/relu_5x5 -> inception_4a/5x5 (in-place)
I0512 15:58:37.883714  5963 net.cpp:122] Setting up inception_4a/relu_5x5
I0512 15:58:37.883724  5963 net.cpp:129] Top shape: 32 48 14 14 (301056)
I0512 15:58:37.883726  5963 net.cpp:137] Memory required for data: 1167294976
I0512 15:58:37.883729  5963 layer_factory.hpp:77] Creating layer inception_4a/pool
I0512 15:58:37.883736  5963 net.cpp:84] Creating Layer inception_4a/pool
I0512 15:58:37.883739  5963 net.cpp:406] inception_4a/pool <- pool3/3x3_s2_pool3/3x3_s2_0_split_3
I0512 15:58:37.883746  5963 net.cpp:380] inception_4a/pool -> inception_4a/pool
I0512 15:58:37.883785  5963 net.cpp:122] Setting up inception_4a/pool
I0512 15:58:37.883810  5963 net.cpp:129] Top shape: 32 480 14 14 (3010560)
I0512 15:58:37.883812  5963 net.cpp:137] Memory required for data: 1179337216
I0512 15:58:37.883814  5963 layer_factory.hpp:77] Creating layer inception_4a/pool_proj
I0512 15:58:37.883824  5963 net.cpp:84] Creating Layer inception_4a/pool_proj
I0512 15:58:37.883828  5963 net.cpp:406] inception_4a/pool_proj <- inception_4a/pool
I0512 15:58:37.883836  5963 net.cpp:380] inception_4a/pool_proj -> inception_4a/pool_proj
I0512 15:58:37.886289  5963 net.cpp:122] Setting up inception_4a/pool_proj
I0512 15:58:37.886299  5963 net.cpp:129] Top shape: 32 64 14 14 (401408)
I0512 15:58:37.886302  5963 net.cpp:137] Memory required for data: 1180942848
I0512 15:58:37.886308  5963 layer_factory.hpp:77] Creating layer inception_4a/relu_pool_proj
I0512 15:58:37.886314  5963 net.cpp:84] Creating Layer inception_4a/relu_pool_proj
I0512 15:58:37.886318  5963 net.cpp:406] inception_4a/relu_pool_proj <- inception_4a/pool_proj
I0512 15:58:37.886324  5963 net.cpp:367] inception_4a/relu_pool_proj -> inception_4a/pool_proj (in-place)
I0512 15:58:37.886878  5963 net.cpp:122] Setting up inception_4a/relu_pool_proj
I0512 15:58:37.886888  5963 net.cpp:129] Top shape: 32 64 14 14 (401408)
I0512 15:58:37.886889  5963 net.cpp:137] Memory required for data: 1182548480
I0512 15:58:37.886893  5963 layer_factory.hpp:77] Creating layer inception_4a/output
I0512 15:58:37.886899  5963 net.cpp:84] Creating Layer inception_4a/output
I0512 15:58:37.886904  5963 net.cpp:406] inception_4a/output <- inception_4a/1x1
I0512 15:58:37.886907  5963 net.cpp:406] inception_4a/output <- inception_4a/3x3
I0512 15:58:37.886911  5963 net.cpp:406] inception_4a/output <- inception_4a/5x5
I0512 15:58:37.886914  5963 net.cpp:406] inception_4a/output <- inception_4a/pool_proj
I0512 15:58:37.886919  5963 net.cpp:380] inception_4a/output -> inception_4a/output
I0512 15:58:37.886947  5963 net.cpp:122] Setting up inception_4a/output
I0512 15:58:37.886952  5963 net.cpp:129] Top shape: 32 512 14 14 (3211264)
I0512 15:58:37.886955  5963 net.cpp:137] Memory required for data: 1195393536
I0512 15:58:37.886958  5963 layer_factory.hpp:77] Creating layer inception_4a/output_inception_4a/output_0_split
I0512 15:58:37.886965  5963 net.cpp:84] Creating Layer inception_4a/output_inception_4a/output_0_split
I0512 15:58:37.886968  5963 net.cpp:406] inception_4a/output_inception_4a/output_0_split <- inception_4a/output
I0512 15:58:37.886973  5963 net.cpp:380] inception_4a/output_inception_4a/output_0_split -> inception_4a/output_inception_4a/output_0_split_0
I0512 15:58:37.886981  5963 net.cpp:380] inception_4a/output_inception_4a/output_0_split -> inception_4a/output_inception_4a/output_0_split_1
I0512 15:58:37.886986  5963 net.cpp:380] inception_4a/output_inception_4a/output_0_split -> inception_4a/output_inception_4a/output_0_split_2
I0512 15:58:37.886992  5963 net.cpp:380] inception_4a/output_inception_4a/output_0_split -> inception_4a/output_inception_4a/output_0_split_3
I0512 15:58:37.886997  5963 net.cpp:380] inception_4a/output_inception_4a/output_0_split -> inception_4a/output_inception_4a/output_0_split_4
I0512 15:58:37.887053  5963 net.cpp:122] Setting up inception_4a/output_inception_4a/output_0_split
I0512 15:58:37.887060  5963 net.cpp:129] Top shape: 32 512 14 14 (3211264)
I0512 15:58:37.887063  5963 net.cpp:129] Top shape: 32 512 14 14 (3211264)
I0512 15:58:37.887066  5963 net.cpp:129] Top shape: 32 512 14 14 (3211264)
I0512 15:58:37.887070  5963 net.cpp:129] Top shape: 32 512 14 14 (3211264)
I0512 15:58:37.887073  5963 net.cpp:129] Top shape: 32 512 14 14 (3211264)
I0512 15:58:37.887075  5963 net.cpp:137] Memory required for data: 1259618816
I0512 15:58:37.887079  5963 layer_factory.hpp:77] Creating layer loss1/ave_pool
I0512 15:58:37.887084  5963 net.cpp:84] Creating Layer loss1/ave_pool
I0512 15:58:37.887086  5963 net.cpp:406] loss1/ave_pool <- inception_4a/output_inception_4a/output_0_split_0
I0512 15:58:37.887090  5963 net.cpp:380] loss1/ave_pool -> loss1/ave_pool
I0512 15:58:37.887498  5963 net.cpp:122] Setting up loss1/ave_pool
I0512 15:58:37.887509  5963 net.cpp:129] Top shape: 32 512 4 4 (262144)
I0512 15:58:37.887512  5963 net.cpp:137] Memory required for data: 1260667392
I0512 15:58:37.887516  5963 layer_factory.hpp:77] Creating layer loss1/conv
I0512 15:58:37.887524  5963 net.cpp:84] Creating Layer loss1/conv
I0512 15:58:37.887528  5963 net.cpp:406] loss1/conv <- loss1/ave_pool
I0512 15:58:37.887533  5963 net.cpp:380] loss1/conv -> loss1/conv
I0512 15:58:37.891157  5963 net.cpp:122] Setting up loss1/conv
I0512 15:58:37.891170  5963 net.cpp:129] Top shape: 32 128 4 4 (65536)
I0512 15:58:37.891172  5963 net.cpp:137] Memory required for data: 1260929536
I0512 15:58:37.891180  5963 layer_factory.hpp:77] Creating layer loss1/relu_conv
I0512 15:58:37.891185  5963 net.cpp:84] Creating Layer loss1/relu_conv
I0512 15:58:37.891188  5963 net.cpp:406] loss1/relu_conv <- loss1/conv
I0512 15:58:37.891194  5963 net.cpp:367] loss1/relu_conv -> loss1/conv (in-place)
I0512 15:58:37.891746  5963 net.cpp:122] Setting up loss1/relu_conv
I0512 15:58:37.891757  5963 net.cpp:129] Top shape: 32 128 4 4 (65536)
I0512 15:58:37.891760  5963 net.cpp:137] Memory required for data: 1261191680
I0512 15:58:37.891763  5963 layer_factory.hpp:77] Creating layer loss1/fc
I0512 15:58:37.891770  5963 net.cpp:84] Creating Layer loss1/fc
I0512 15:58:37.891773  5963 net.cpp:406] loss1/fc <- loss1/conv
I0512 15:58:37.891779  5963 net.cpp:380] loss1/fc -> loss1/fc
I0512 15:58:37.903707  5963 net.cpp:122] Setting up loss1/fc
I0512 15:58:37.903723  5963 net.cpp:129] Top shape: 32 1024 (32768)
I0512 15:58:37.903726  5963 net.cpp:137] Memory required for data: 1261322752
I0512 15:58:37.903735  5963 layer_factory.hpp:77] Creating layer loss1/relu_fc
I0512 15:58:37.903744  5963 net.cpp:84] Creating Layer loss1/relu_fc
I0512 15:58:37.903748  5963 net.cpp:406] loss1/relu_fc <- loss1/fc
I0512 15:58:37.903755  5963 net.cpp:367] loss1/relu_fc -> loss1/fc (in-place)
I0512 15:58:37.904244  5963 net.cpp:122] Setting up loss1/relu_fc
I0512 15:58:37.904254  5963 net.cpp:129] Top shape: 32 1024 (32768)
I0512 15:58:37.904256  5963 net.cpp:137] Memory required for data: 1261453824
I0512 15:58:37.904259  5963 layer_factory.hpp:77] Creating layer loss1/drop_fc
I0512 15:58:37.904280  5963 net.cpp:84] Creating Layer loss1/drop_fc
I0512 15:58:37.904285  5963 net.cpp:406] loss1/drop_fc <- loss1/fc
I0512 15:58:37.904289  5963 net.cpp:367] loss1/drop_fc -> loss1/fc (in-place)
I0512 15:58:37.904318  5963 net.cpp:122] Setting up loss1/drop_fc
I0512 15:58:37.904323  5963 net.cpp:129] Top shape: 32 1024 (32768)
I0512 15:58:37.904325  5963 net.cpp:137] Memory required for data: 1261584896
I0512 15:58:37.904328  5963 layer_factory.hpp:77] Creating layer loss1/classifier
I0512 15:58:37.904335  5963 net.cpp:84] Creating Layer loss1/classifier
I0512 15:58:37.904337  5963 net.cpp:406] loss1/classifier <- loss1/fc
I0512 15:58:37.904342  5963 net.cpp:380] loss1/classifier -> loss1/classifier
I0512 15:58:37.905376  5963 net.cpp:122] Setting up loss1/classifier
I0512 15:58:37.905385  5963 net.cpp:129] Top shape: 32 196 (6272)
I0512 15:58:37.905387  5963 net.cpp:137] Memory required for data: 1261609984
I0512 15:58:37.905392  5963 layer_factory.hpp:77] Creating layer loss1/loss
I0512 15:58:37.905398  5963 net.cpp:84] Creating Layer loss1/loss
I0512 15:58:37.905401  5963 net.cpp:406] loss1/loss <- loss1/classifier
I0512 15:58:37.905405  5963 net.cpp:406] loss1/loss <- label_train-data_1_split_0
I0512 15:58:37.905411  5963 net.cpp:380] loss1/loss -> loss1/loss
I0512 15:58:37.905417  5963 layer_factory.hpp:77] Creating layer loss1/loss
I0512 15:58:37.906111  5963 net.cpp:122] Setting up loss1/loss
I0512 15:58:37.906121  5963 net.cpp:129] Top shape: (1)
I0512 15:58:37.906123  5963 net.cpp:132]     with loss weight 0.3
I0512 15:58:37.906139  5963 net.cpp:137] Memory required for data: 1261609988
I0512 15:58:37.906142  5963 layer_factory.hpp:77] Creating layer inception_4b/1x1
I0512 15:58:37.906154  5963 net.cpp:84] Creating Layer inception_4b/1x1
I0512 15:58:37.906158  5963 net.cpp:406] inception_4b/1x1 <- inception_4a/output_inception_4a/output_0_split_1
I0512 15:58:37.906183  5963 net.cpp:380] inception_4b/1x1 -> inception_4b/1x1
I0512 15:58:37.908805  5963 net.cpp:122] Setting up inception_4b/1x1
I0512 15:58:37.908821  5963 net.cpp:129] Top shape: 32 160 14 14 (1003520)
I0512 15:58:37.908824  5963 net.cpp:137] Memory required for data: 1265624068
I0512 15:58:37.908831  5963 layer_factory.hpp:77] Creating layer inception_4b/relu_1x1
I0512 15:58:37.908838  5963 net.cpp:84] Creating Layer inception_4b/relu_1x1
I0512 15:58:37.908840  5963 net.cpp:406] inception_4b/relu_1x1 <- inception_4b/1x1
I0512 15:58:37.908845  5963 net.cpp:367] inception_4b/relu_1x1 -> inception_4b/1x1 (in-place)
I0512 15:58:37.909413  5963 net.cpp:122] Setting up inception_4b/relu_1x1
I0512 15:58:37.909422  5963 net.cpp:129] Top shape: 32 160 14 14 (1003520)
I0512 15:58:37.909425  5963 net.cpp:137] Memory required for data: 1269638148
I0512 15:58:37.909428  5963 layer_factory.hpp:77] Creating layer inception_4b/3x3_reduce
I0512 15:58:37.909440  5963 net.cpp:84] Creating Layer inception_4b/3x3_reduce
I0512 15:58:37.909442  5963 net.cpp:406] inception_4b/3x3_reduce <- inception_4a/output_inception_4a/output_0_split_2
I0512 15:58:37.909448  5963 net.cpp:380] inception_4b/3x3_reduce -> inception_4b/3x3_reduce
I0512 15:58:37.913120  5963 net.cpp:122] Setting up inception_4b/3x3_reduce
I0512 15:58:37.913132  5963 net.cpp:129] Top shape: 32 112 14 14 (702464)
I0512 15:58:37.913136  5963 net.cpp:137] Memory required for data: 1272448004
I0512 15:58:37.913142  5963 layer_factory.hpp:77] Creating layer inception_4b/relu_3x3_reduce
I0512 15:58:37.913148  5963 net.cpp:84] Creating Layer inception_4b/relu_3x3_reduce
I0512 15:58:37.913152  5963 net.cpp:406] inception_4b/relu_3x3_reduce <- inception_4b/3x3_reduce
I0512 15:58:37.913161  5963 net.cpp:367] inception_4b/relu_3x3_reduce -> inception_4b/3x3_reduce (in-place)
I0512 15:58:37.913542  5963 net.cpp:122] Setting up inception_4b/relu_3x3_reduce
I0512 15:58:37.913552  5963 net.cpp:129] Top shape: 32 112 14 14 (702464)
I0512 15:58:37.913555  5963 net.cpp:137] Memory required for data: 1275257860
I0512 15:58:37.913558  5963 layer_factory.hpp:77] Creating layer inception_4b/3x3
I0512 15:58:37.913568  5963 net.cpp:84] Creating Layer inception_4b/3x3
I0512 15:58:37.913573  5963 net.cpp:406] inception_4b/3x3 <- inception_4b/3x3_reduce
I0512 15:58:37.913578  5963 net.cpp:380] inception_4b/3x3 -> inception_4b/3x3
I0512 15:58:37.917620  5963 net.cpp:122] Setting up inception_4b/3x3
I0512 15:58:37.917632  5963 net.cpp:129] Top shape: 32 224 14 14 (1404928)
I0512 15:58:37.917635  5963 net.cpp:137] Memory required for data: 1280877572
I0512 15:58:37.917641  5963 layer_factory.hpp:77] Creating layer inception_4b/relu_3x3
I0512 15:58:37.917647  5963 net.cpp:84] Creating Layer inception_4b/relu_3x3
I0512 15:58:37.917651  5963 net.cpp:406] inception_4b/relu_3x3 <- inception_4b/3x3
I0512 15:58:37.917655  5963 net.cpp:367] inception_4b/relu_3x3 -> inception_4b/3x3 (in-place)
I0512 15:58:37.918202  5963 net.cpp:122] Setting up inception_4b/relu_3x3
I0512 15:58:37.918212  5963 net.cpp:129] Top shape: 32 224 14 14 (1404928)
I0512 15:58:37.918215  5963 net.cpp:137] Memory required for data: 1286497284
I0512 15:58:37.918217  5963 layer_factory.hpp:77] Creating layer inception_4b/5x5_reduce
I0512 15:58:37.918227  5963 net.cpp:84] Creating Layer inception_4b/5x5_reduce
I0512 15:58:37.918231  5963 net.cpp:406] inception_4b/5x5_reduce <- inception_4a/output_inception_4a/output_0_split_3
I0512 15:58:37.918238  5963 net.cpp:380] inception_4b/5x5_reduce -> inception_4b/5x5_reduce
I0512 15:58:37.920451  5963 net.cpp:122] Setting up inception_4b/5x5_reduce
I0512 15:58:37.920460  5963 net.cpp:129] Top shape: 32 24 14 14 (150528)
I0512 15:58:37.920464  5963 net.cpp:137] Memory required for data: 1287099396
I0512 15:58:37.920470  5963 layer_factory.hpp:77] Creating layer inception_4b/relu_5x5_reduce
I0512 15:58:37.920476  5963 net.cpp:84] Creating Layer inception_4b/relu_5x5_reduce
I0512 15:58:37.920480  5963 net.cpp:406] inception_4b/relu_5x5_reduce <- inception_4b/5x5_reduce
I0512 15:58:37.920513  5963 net.cpp:367] inception_4b/relu_5x5_reduce -> inception_4b/5x5_reduce (in-place)
I0512 15:58:37.921064  5963 net.cpp:122] Setting up inception_4b/relu_5x5_reduce
I0512 15:58:37.921077  5963 net.cpp:129] Top shape: 32 24 14 14 (150528)
I0512 15:58:37.921080  5963 net.cpp:137] Memory required for data: 1287701508
I0512 15:58:37.921083  5963 layer_factory.hpp:77] Creating layer inception_4b/5x5
I0512 15:58:37.921093  5963 net.cpp:84] Creating Layer inception_4b/5x5
I0512 15:58:37.921097  5963 net.cpp:406] inception_4b/5x5 <- inception_4b/5x5_reduce
I0512 15:58:37.921104  5963 net.cpp:380] inception_4b/5x5 -> inception_4b/5x5
I0512 15:58:37.924484  5963 net.cpp:122] Setting up inception_4b/5x5
I0512 15:58:37.924502  5963 net.cpp:129] Top shape: 32 64 14 14 (401408)
I0512 15:58:37.924505  5963 net.cpp:137] Memory required for data: 1289307140
I0512 15:58:37.924512  5963 layer_factory.hpp:77] Creating layer inception_4b/relu_5x5
I0512 15:58:37.924518  5963 net.cpp:84] Creating Layer inception_4b/relu_5x5
I0512 15:58:37.924522  5963 net.cpp:406] inception_4b/relu_5x5 <- inception_4b/5x5
I0512 15:58:37.924530  5963 net.cpp:367] inception_4b/relu_5x5 -> inception_4b/5x5 (in-place)
I0512 15:58:37.925076  5963 net.cpp:122] Setting up inception_4b/relu_5x5
I0512 15:58:37.925086  5963 net.cpp:129] Top shape: 32 64 14 14 (401408)
I0512 15:58:37.925087  5963 net.cpp:137] Memory required for data: 1290912772
I0512 15:58:37.925091  5963 layer_factory.hpp:77] Creating layer inception_4b/pool
I0512 15:58:37.925099  5963 net.cpp:84] Creating Layer inception_4b/pool
I0512 15:58:37.925103  5963 net.cpp:406] inception_4b/pool <- inception_4a/output_inception_4a/output_0_split_4
I0512 15:58:37.925108  5963 net.cpp:380] inception_4b/pool -> inception_4b/pool
I0512 15:58:37.925163  5963 net.cpp:122] Setting up inception_4b/pool
I0512 15:58:37.925169  5963 net.cpp:129] Top shape: 32 512 14 14 (3211264)
I0512 15:58:37.925171  5963 net.cpp:137] Memory required for data: 1303757828
I0512 15:58:37.925174  5963 layer_factory.hpp:77] Creating layer inception_4b/pool_proj
I0512 15:58:37.925184  5963 net.cpp:84] Creating Layer inception_4b/pool_proj
I0512 15:58:37.925186  5963 net.cpp:406] inception_4b/pool_proj <- inception_4b/pool
I0512 15:58:37.925192  5963 net.cpp:380] inception_4b/pool_proj -> inception_4b/pool_proj
I0512 15:58:37.927306  5963 net.cpp:122] Setting up inception_4b/pool_proj
I0512 15:58:37.927316  5963 net.cpp:129] Top shape: 32 64 14 14 (401408)
I0512 15:58:37.927320  5963 net.cpp:137] Memory required for data: 1305363460
I0512 15:58:37.927325  5963 layer_factory.hpp:77] Creating layer inception_4b/relu_pool_proj
I0512 15:58:37.927333  5963 net.cpp:84] Creating Layer inception_4b/relu_pool_proj
I0512 15:58:37.927337  5963 net.cpp:406] inception_4b/relu_pool_proj <- inception_4b/pool_proj
I0512 15:58:37.927341  5963 net.cpp:367] inception_4b/relu_pool_proj -> inception_4b/pool_proj (in-place)
I0512 15:58:37.927891  5963 net.cpp:122] Setting up inception_4b/relu_pool_proj
I0512 15:58:37.927901  5963 net.cpp:129] Top shape: 32 64 14 14 (401408)
I0512 15:58:37.927903  5963 net.cpp:137] Memory required for data: 1306969092
I0512 15:58:37.927906  5963 layer_factory.hpp:77] Creating layer inception_4b/output
I0512 15:58:37.927914  5963 net.cpp:84] Creating Layer inception_4b/output
I0512 15:58:37.927917  5963 net.cpp:406] inception_4b/output <- inception_4b/1x1
I0512 15:58:37.927922  5963 net.cpp:406] inception_4b/output <- inception_4b/3x3
I0512 15:58:37.927925  5963 net.cpp:406] inception_4b/output <- inception_4b/5x5
I0512 15:58:37.927929  5963 net.cpp:406] inception_4b/output <- inception_4b/pool_proj
I0512 15:58:37.927933  5963 net.cpp:380] inception_4b/output -> inception_4b/output
I0512 15:58:37.927963  5963 net.cpp:122] Setting up inception_4b/output
I0512 15:58:37.927968  5963 net.cpp:129] Top shape: 32 512 14 14 (3211264)
I0512 15:58:37.927971  5963 net.cpp:137] Memory required for data: 1319814148
I0512 15:58:37.927973  5963 layer_factory.hpp:77] Creating layer inception_4b/output_inception_4b/output_0_split
I0512 15:58:37.927996  5963 net.cpp:84] Creating Layer inception_4b/output_inception_4b/output_0_split
I0512 15:58:37.928001  5963 net.cpp:406] inception_4b/output_inception_4b/output_0_split <- inception_4b/output
I0512 15:58:37.928006  5963 net.cpp:380] inception_4b/output_inception_4b/output_0_split -> inception_4b/output_inception_4b/output_0_split_0
I0512 15:58:37.928012  5963 net.cpp:380] inception_4b/output_inception_4b/output_0_split -> inception_4b/output_inception_4b/output_0_split_1
I0512 15:58:37.928020  5963 net.cpp:380] inception_4b/output_inception_4b/output_0_split -> inception_4b/output_inception_4b/output_0_split_2
I0512 15:58:37.928025  5963 net.cpp:380] inception_4b/output_inception_4b/output_0_split -> inception_4b/output_inception_4b/output_0_split_3
I0512 15:58:37.928074  5963 net.cpp:122] Setting up inception_4b/output_inception_4b/output_0_split
I0512 15:58:37.928079  5963 net.cpp:129] Top shape: 32 512 14 14 (3211264)
I0512 15:58:37.928083  5963 net.cpp:129] Top shape: 32 512 14 14 (3211264)
I0512 15:58:37.928086  5963 net.cpp:129] Top shape: 32 512 14 14 (3211264)
I0512 15:58:37.928089  5963 net.cpp:129] Top shape: 32 512 14 14 (3211264)
I0512 15:58:37.928092  5963 net.cpp:137] Memory required for data: 1371194372
I0512 15:58:37.928094  5963 layer_factory.hpp:77] Creating layer inception_4c/1x1
I0512 15:58:37.928103  5963 net.cpp:84] Creating Layer inception_4c/1x1
I0512 15:58:37.928107  5963 net.cpp:406] inception_4c/1x1 <- inception_4b/output_inception_4b/output_0_split_0
I0512 15:58:37.928113  5963 net.cpp:380] inception_4c/1x1 -> inception_4c/1x1
I0512 15:58:37.931931  5963 net.cpp:122] Setting up inception_4c/1x1
I0512 15:58:37.931943  5963 net.cpp:129] Top shape: 32 128 14 14 (802816)
I0512 15:58:37.931946  5963 net.cpp:137] Memory required for data: 1374405636
I0512 15:58:37.931953  5963 layer_factory.hpp:77] Creating layer inception_4c/relu_1x1
I0512 15:58:37.931962  5963 net.cpp:84] Creating Layer inception_4c/relu_1x1
I0512 15:58:37.931965  5963 net.cpp:406] inception_4c/relu_1x1 <- inception_4c/1x1
I0512 15:58:37.931970  5963 net.cpp:367] inception_4c/relu_1x1 -> inception_4c/1x1 (in-place)
I0512 15:58:37.932348  5963 net.cpp:122] Setting up inception_4c/relu_1x1
I0512 15:58:37.932358  5963 net.cpp:129] Top shape: 32 128 14 14 (802816)
I0512 15:58:37.932359  5963 net.cpp:137] Memory required for data: 1377616900
I0512 15:58:37.932363  5963 layer_factory.hpp:77] Creating layer inception_4c/3x3_reduce
I0512 15:58:37.932373  5963 net.cpp:84] Creating Layer inception_4c/3x3_reduce
I0512 15:58:37.932376  5963 net.cpp:406] inception_4c/3x3_reduce <- inception_4b/output_inception_4b/output_0_split_1
I0512 15:58:37.932384  5963 net.cpp:380] inception_4c/3x3_reduce -> inception_4c/3x3_reduce
I0512 15:58:37.934866  5963 net.cpp:122] Setting up inception_4c/3x3_reduce
I0512 15:58:37.934877  5963 net.cpp:129] Top shape: 32 128 14 14 (802816)
I0512 15:58:37.934880  5963 net.cpp:137] Memory required for data: 1380828164
I0512 15:58:37.934885  5963 layer_factory.hpp:77] Creating layer inception_4c/relu_3x3_reduce
I0512 15:58:37.934895  5963 net.cpp:84] Creating Layer inception_4c/relu_3x3_reduce
I0512 15:58:37.934898  5963 net.cpp:406] inception_4c/relu_3x3_reduce <- inception_4c/3x3_reduce
I0512 15:58:37.934903  5963 net.cpp:367] inception_4c/relu_3x3_reduce -> inception_4c/3x3_reduce (in-place)
I0512 15:58:37.935464  5963 net.cpp:122] Setting up inception_4c/relu_3x3_reduce
I0512 15:58:37.935473  5963 net.cpp:129] Top shape: 32 128 14 14 (802816)
I0512 15:58:37.935477  5963 net.cpp:137] Memory required for data: 1384039428
I0512 15:58:37.935479  5963 layer_factory.hpp:77] Creating layer inception_4c/3x3
I0512 15:58:37.935489  5963 net.cpp:84] Creating Layer inception_4c/3x3
I0512 15:58:37.935492  5963 net.cpp:406] inception_4c/3x3 <- inception_4c/3x3_reduce
I0512 15:58:37.935499  5963 net.cpp:380] inception_4c/3x3 -> inception_4c/3x3
I0512 15:58:37.939682  5963 net.cpp:122] Setting up inception_4c/3x3
I0512 15:58:37.939693  5963 net.cpp:129] Top shape: 32 256 14 14 (1605632)
I0512 15:58:37.939714  5963 net.cpp:137] Memory required for data: 1390461956
I0512 15:58:37.939733  5963 layer_factory.hpp:77] Creating layer inception_4c/relu_3x3
I0512 15:58:37.939740  5963 net.cpp:84] Creating Layer inception_4c/relu_3x3
I0512 15:58:37.939744  5963 net.cpp:406] inception_4c/relu_3x3 <- inception_4c/3x3
I0512 15:58:37.939749  5963 net.cpp:367] inception_4c/relu_3x3 -> inception_4c/3x3 (in-place)
I0512 15:58:37.940305  5963 net.cpp:122] Setting up inception_4c/relu_3x3
I0512 15:58:37.940318  5963 net.cpp:129] Top shape: 32 256 14 14 (1605632)
I0512 15:58:37.940321  5963 net.cpp:137] Memory required for data: 1396884484
I0512 15:58:37.940325  5963 layer_factory.hpp:77] Creating layer inception_4c/5x5_reduce
I0512 15:58:37.940335  5963 net.cpp:84] Creating Layer inception_4c/5x5_reduce
I0512 15:58:37.940338  5963 net.cpp:406] inception_4c/5x5_reduce <- inception_4b/output_inception_4b/output_0_split_2
I0512 15:58:37.940346  5963 net.cpp:380] inception_4c/5x5_reduce -> inception_4c/5x5_reduce
I0512 15:58:37.943678  5963 net.cpp:122] Setting up inception_4c/5x5_reduce
I0512 15:58:37.943691  5963 net.cpp:129] Top shape: 32 24 14 14 (150528)
I0512 15:58:37.943693  5963 net.cpp:137] Memory required for data: 1397486596
I0512 15:58:37.943701  5963 layer_factory.hpp:77] Creating layer inception_4c/relu_5x5_reduce
I0512 15:58:37.943709  5963 net.cpp:84] Creating Layer inception_4c/relu_5x5_reduce
I0512 15:58:37.943714  5963 net.cpp:406] inception_4c/relu_5x5_reduce <- inception_4c/5x5_reduce
I0512 15:58:37.943719  5963 net.cpp:367] inception_4c/relu_5x5_reduce -> inception_4c/5x5_reduce (in-place)
I0512 15:58:37.944438  5963 net.cpp:122] Setting up inception_4c/relu_5x5_reduce
I0512 15:58:37.944449  5963 net.cpp:129] Top shape: 32 24 14 14 (150528)
I0512 15:58:37.944451  5963 net.cpp:137] Memory required for data: 1398088708
I0512 15:58:37.944455  5963 layer_factory.hpp:77] Creating layer inception_4c/5x5
I0512 15:58:37.944464  5963 net.cpp:84] Creating Layer inception_4c/5x5
I0512 15:58:37.944468  5963 net.cpp:406] inception_4c/5x5 <- inception_4c/5x5_reduce
I0512 15:58:37.944478  5963 net.cpp:380] inception_4c/5x5 -> inception_4c/5x5
I0512 15:58:37.946707  5963 net.cpp:122] Setting up inception_4c/5x5
I0512 15:58:37.946717  5963 net.cpp:129] Top shape: 32 64 14 14 (401408)
I0512 15:58:37.946720  5963 net.cpp:137] Memory required for data: 1399694340
I0512 15:58:37.946727  5963 layer_factory.hpp:77] Creating layer inception_4c/relu_5x5
I0512 15:58:37.946733  5963 net.cpp:84] Creating Layer inception_4c/relu_5x5
I0512 15:58:37.946736  5963 net.cpp:406] inception_4c/relu_5x5 <- inception_4c/5x5
I0512 15:58:37.946743  5963 net.cpp:367] inception_4c/relu_5x5 -> inception_4c/5x5 (in-place)
I0512 15:58:37.947304  5963 net.cpp:122] Setting up inception_4c/relu_5x5
I0512 15:58:37.947314  5963 net.cpp:129] Top shape: 32 64 14 14 (401408)
I0512 15:58:37.947316  5963 net.cpp:137] Memory required for data: 1401299972
I0512 15:58:37.947319  5963 layer_factory.hpp:77] Creating layer inception_4c/pool
I0512 15:58:37.947329  5963 net.cpp:84] Creating Layer inception_4c/pool
I0512 15:58:37.947331  5963 net.cpp:406] inception_4c/pool <- inception_4b/output_inception_4b/output_0_split_3
I0512 15:58:37.947337  5963 net.cpp:380] inception_4c/pool -> inception_4c/pool
I0512 15:58:37.947379  5963 net.cpp:122] Setting up inception_4c/pool
I0512 15:58:37.947386  5963 net.cpp:129] Top shape: 32 512 14 14 (3211264)
I0512 15:58:37.947387  5963 net.cpp:137] Memory required for data: 1414145028
I0512 15:58:37.947391  5963 layer_factory.hpp:77] Creating layer inception_4c/pool_proj
I0512 15:58:37.947399  5963 net.cpp:84] Creating Layer inception_4c/pool_proj
I0512 15:58:37.947402  5963 net.cpp:406] inception_4c/pool_proj <- inception_4c/pool
I0512 15:58:37.947409  5963 net.cpp:380] inception_4c/pool_proj -> inception_4c/pool_proj
I0512 15:58:37.951000  5963 net.cpp:122] Setting up inception_4c/pool_proj
I0512 15:58:37.951011  5963 net.cpp:129] Top shape: 32 64 14 14 (401408)
I0512 15:58:37.951014  5963 net.cpp:137] Memory required for data: 1415750660
I0512 15:58:37.951040  5963 layer_factory.hpp:77] Creating layer inception_4c/relu_pool_proj
I0512 15:58:37.951047  5963 net.cpp:84] Creating Layer inception_4c/relu_pool_proj
I0512 15:58:37.951051  5963 net.cpp:406] inception_4c/relu_pool_proj <- inception_4c/pool_proj
I0512 15:58:37.951056  5963 net.cpp:367] inception_4c/relu_pool_proj -> inception_4c/pool_proj (in-place)
I0512 15:58:37.951438  5963 net.cpp:122] Setting up inception_4c/relu_pool_proj
I0512 15:58:37.951447  5963 net.cpp:129] Top shape: 32 64 14 14 (401408)
I0512 15:58:37.951450  5963 net.cpp:137] Memory required for data: 1417356292
I0512 15:58:37.951453  5963 layer_factory.hpp:77] Creating layer inception_4c/output
I0512 15:58:37.951458  5963 net.cpp:84] Creating Layer inception_4c/output
I0512 15:58:37.951462  5963 net.cpp:406] inception_4c/output <- inception_4c/1x1
I0512 15:58:37.951467  5963 net.cpp:406] inception_4c/output <- inception_4c/3x3
I0512 15:58:37.951470  5963 net.cpp:406] inception_4c/output <- inception_4c/5x5
I0512 15:58:37.951473  5963 net.cpp:406] inception_4c/output <- inception_4c/pool_proj
I0512 15:58:37.951483  5963 net.cpp:380] inception_4c/output -> inception_4c/output
I0512 15:58:37.951511  5963 net.cpp:122] Setting up inception_4c/output
I0512 15:58:37.951516  5963 net.cpp:129] Top shape: 32 512 14 14 (3211264)
I0512 15:58:37.951519  5963 net.cpp:137] Memory required for data: 1430201348
I0512 15:58:37.951522  5963 layer_factory.hpp:77] Creating layer inception_4c/output_inception_4c/output_0_split
I0512 15:58:37.951527  5963 net.cpp:84] Creating Layer inception_4c/output_inception_4c/output_0_split
I0512 15:58:37.951530  5963 net.cpp:406] inception_4c/output_inception_4c/output_0_split <- inception_4c/output
I0512 15:58:37.951536  5963 net.cpp:380] inception_4c/output_inception_4c/output_0_split -> inception_4c/output_inception_4c/output_0_split_0
I0512 15:58:37.951544  5963 net.cpp:380] inception_4c/output_inception_4c/output_0_split -> inception_4c/output_inception_4c/output_0_split_1
I0512 15:58:37.951548  5963 net.cpp:380] inception_4c/output_inception_4c/output_0_split -> inception_4c/output_inception_4c/output_0_split_2
I0512 15:58:37.951555  5963 net.cpp:380] inception_4c/output_inception_4c/output_0_split -> inception_4c/output_inception_4c/output_0_split_3
I0512 15:58:37.951604  5963 net.cpp:122] Setting up inception_4c/output_inception_4c/output_0_split
I0512 15:58:37.951609  5963 net.cpp:129] Top shape: 32 512 14 14 (3211264)
I0512 15:58:37.951612  5963 net.cpp:129] Top shape: 32 512 14 14 (3211264)
I0512 15:58:37.951615  5963 net.cpp:129] Top shape: 32 512 14 14 (3211264)
I0512 15:58:37.951619  5963 net.cpp:129] Top shape: 32 512 14 14 (3211264)
I0512 15:58:37.951622  5963 net.cpp:137] Memory required for data: 1481581572
I0512 15:58:37.951624  5963 layer_factory.hpp:77] Creating layer inception_4d/1x1
I0512 15:58:37.951632  5963 net.cpp:84] Creating Layer inception_4d/1x1
I0512 15:58:37.951637  5963 net.cpp:406] inception_4d/1x1 <- inception_4c/output_inception_4c/output_0_split_0
I0512 15:58:37.951643  5963 net.cpp:380] inception_4d/1x1 -> inception_4d/1x1
I0512 15:58:37.954063  5963 net.cpp:122] Setting up inception_4d/1x1
I0512 15:58:37.954074  5963 net.cpp:129] Top shape: 32 112 14 14 (702464)
I0512 15:58:37.954077  5963 net.cpp:137] Memory required for data: 1484391428
I0512 15:58:37.954084  5963 layer_factory.hpp:77] Creating layer inception_4d/relu_1x1
I0512 15:58:37.954090  5963 net.cpp:84] Creating Layer inception_4d/relu_1x1
I0512 15:58:37.954093  5963 net.cpp:406] inception_4d/relu_1x1 <- inception_4d/1x1
I0512 15:58:37.954098  5963 net.cpp:367] inception_4d/relu_1x1 -> inception_4d/1x1 (in-place)
I0512 15:58:37.954641  5963 net.cpp:122] Setting up inception_4d/relu_1x1
I0512 15:58:37.954653  5963 net.cpp:129] Top shape: 32 112 14 14 (702464)
I0512 15:58:37.954655  5963 net.cpp:137] Memory required for data: 1487201284
I0512 15:58:37.954658  5963 layer_factory.hpp:77] Creating layer inception_4d/3x3_reduce
I0512 15:58:37.954668  5963 net.cpp:84] Creating Layer inception_4d/3x3_reduce
I0512 15:58:37.954682  5963 net.cpp:406] inception_4d/3x3_reduce <- inception_4c/output_inception_4c/output_0_split_1
I0512 15:58:37.954689  5963 net.cpp:380] inception_4d/3x3_reduce -> inception_4d/3x3_reduce
I0512 15:58:37.957233  5963 net.cpp:122] Setting up inception_4d/3x3_reduce
I0512 15:58:37.957243  5963 net.cpp:129] Top shape: 32 144 14 14 (903168)
I0512 15:58:37.957247  5963 net.cpp:137] Memory required for data: 1490813956
I0512 15:58:37.957252  5963 layer_factory.hpp:77] Creating layer inception_4d/relu_3x3_reduce
I0512 15:58:37.957258  5963 net.cpp:84] Creating Layer inception_4d/relu_3x3_reduce
I0512 15:58:37.957262  5963 net.cpp:406] inception_4d/relu_3x3_reduce <- inception_4d/3x3_reduce
I0512 15:58:37.957268  5963 net.cpp:367] inception_4d/relu_3x3_reduce -> inception_4d/3x3_reduce (in-place)
I0512 15:58:37.957820  5963 net.cpp:122] Setting up inception_4d/relu_3x3_reduce
I0512 15:58:37.957831  5963 net.cpp:129] Top shape: 32 144 14 14 (903168)
I0512 15:58:37.957834  5963 net.cpp:137] Memory required for data: 1494426628
I0512 15:58:37.957836  5963 layer_factory.hpp:77] Creating layer inception_4d/3x3
I0512 15:58:37.957846  5963 net.cpp:84] Creating Layer inception_4d/3x3
I0512 15:58:37.957850  5963 net.cpp:406] inception_4d/3x3 <- inception_4d/3x3_reduce
I0512 15:58:37.957857  5963 net.cpp:380] inception_4d/3x3 -> inception_4d/3x3
I0512 15:58:37.963711  5963 net.cpp:122] Setting up inception_4d/3x3
I0512 15:58:37.963723  5963 net.cpp:129] Top shape: 32 288 14 14 (1806336)
I0512 15:58:37.963726  5963 net.cpp:137] Memory required for data: 1501651972
I0512 15:58:37.963733  5963 layer_factory.hpp:77] Creating layer inception_4d/relu_3x3
I0512 15:58:37.963740  5963 net.cpp:84] Creating Layer inception_4d/relu_3x3
I0512 15:58:37.963744  5963 net.cpp:406] inception_4d/relu_3x3 <- inception_4d/3x3
I0512 15:58:37.963752  5963 net.cpp:367] inception_4d/relu_3x3 -> inception_4d/3x3 (in-place)
I0512 15:58:37.964293  5963 net.cpp:122] Setting up inception_4d/relu_3x3
I0512 15:58:37.964303  5963 net.cpp:129] Top shape: 32 288 14 14 (1806336)
I0512 15:58:37.964305  5963 net.cpp:137] Memory required for data: 1508877316
I0512 15:58:37.964308  5963 layer_factory.hpp:77] Creating layer inception_4d/5x5_reduce
I0512 15:58:37.964318  5963 net.cpp:84] Creating Layer inception_4d/5x5_reduce
I0512 15:58:37.964323  5963 net.cpp:406] inception_4d/5x5_reduce <- inception_4c/output_inception_4c/output_0_split_2
I0512 15:58:37.964329  5963 net.cpp:380] inception_4d/5x5_reduce -> inception_4d/5x5_reduce
I0512 15:58:37.966385  5963 net.cpp:122] Setting up inception_4d/5x5_reduce
I0512 15:58:37.966395  5963 net.cpp:129] Top shape: 32 32 14 14 (200704)
I0512 15:58:37.966398  5963 net.cpp:137] Memory required for data: 1509680132
I0512 15:58:37.966404  5963 layer_factory.hpp:77] Creating layer inception_4d/relu_5x5_reduce
I0512 15:58:37.966410  5963 net.cpp:84] Creating Layer inception_4d/relu_5x5_reduce
I0512 15:58:37.966414  5963 net.cpp:406] inception_4d/relu_5x5_reduce <- inception_4d/5x5_reduce
I0512 15:58:37.966420  5963 net.cpp:367] inception_4d/relu_5x5_reduce -> inception_4d/5x5_reduce (in-place)
I0512 15:58:37.967134  5963 net.cpp:122] Setting up inception_4d/relu_5x5_reduce
I0512 15:58:37.967144  5963 net.cpp:129] Top shape: 32 32 14 14 (200704)
I0512 15:58:37.967146  5963 net.cpp:137] Memory required for data: 1510482948
I0512 15:58:37.967150  5963 layer_factory.hpp:77] Creating layer inception_4d/5x5
I0512 15:58:37.967164  5963 net.cpp:84] Creating Layer inception_4d/5x5
I0512 15:58:37.967167  5963 net.cpp:406] inception_4d/5x5 <- inception_4d/5x5_reduce
I0512 15:58:37.967173  5963 net.cpp:380] inception_4d/5x5 -> inception_4d/5x5
I0512 15:58:37.969401  5963 net.cpp:122] Setting up inception_4d/5x5
I0512 15:58:37.969413  5963 net.cpp:129] Top shape: 32 64 14 14 (401408)
I0512 15:58:37.969415  5963 net.cpp:137] Memory required for data: 1512088580
I0512 15:58:37.969422  5963 layer_factory.hpp:77] Creating layer inception_4d/relu_5x5
I0512 15:58:37.969429  5963 net.cpp:84] Creating Layer inception_4d/relu_5x5
I0512 15:58:37.969449  5963 net.cpp:406] inception_4d/relu_5x5 <- inception_4d/5x5
I0512 15:58:37.969455  5963 net.cpp:367] inception_4d/relu_5x5 -> inception_4d/5x5 (in-place)
I0512 15:58:37.971683  5963 net.cpp:122] Setting up inception_4d/relu_5x5
I0512 15:58:37.971693  5963 net.cpp:129] Top shape: 32 64 14 14 (401408)
I0512 15:58:37.971696  5963 net.cpp:137] Memory required for data: 1513694212
I0512 15:58:37.971699  5963 layer_factory.hpp:77] Creating layer inception_4d/pool
I0512 15:58:37.971709  5963 net.cpp:84] Creating Layer inception_4d/pool
I0512 15:58:37.971714  5963 net.cpp:406] inception_4d/pool <- inception_4c/output_inception_4c/output_0_split_3
I0512 15:58:37.971719  5963 net.cpp:380] inception_4d/pool -> inception_4d/pool
I0512 15:58:37.971765  5963 net.cpp:122] Setting up inception_4d/pool
I0512 15:58:37.971771  5963 net.cpp:129] Top shape: 32 512 14 14 (3211264)
I0512 15:58:37.971772  5963 net.cpp:137] Memory required for data: 1526539268
I0512 15:58:37.971776  5963 layer_factory.hpp:77] Creating layer inception_4d/pool_proj
I0512 15:58:37.971784  5963 net.cpp:84] Creating Layer inception_4d/pool_proj
I0512 15:58:37.971788  5963 net.cpp:406] inception_4d/pool_proj <- inception_4d/pool
I0512 15:58:37.971794  5963 net.cpp:380] inception_4d/pool_proj -> inception_4d/pool_proj
I0512 15:58:37.974164  5963 net.cpp:122] Setting up inception_4d/pool_proj
I0512 15:58:37.974174  5963 net.cpp:129] Top shape: 32 64 14 14 (401408)
I0512 15:58:37.974177  5963 net.cpp:137] Memory required for data: 1528144900
I0512 15:58:37.974184  5963 layer_factory.hpp:77] Creating layer inception_4d/relu_pool_proj
I0512 15:58:37.974192  5963 net.cpp:84] Creating Layer inception_4d/relu_pool_proj
I0512 15:58:37.974196  5963 net.cpp:406] inception_4d/relu_pool_proj <- inception_4d/pool_proj
I0512 15:58:37.974200  5963 net.cpp:367] inception_4d/relu_pool_proj -> inception_4d/pool_proj (in-place)
I0512 15:58:37.974578  5963 net.cpp:122] Setting up inception_4d/relu_pool_proj
I0512 15:58:37.974587  5963 net.cpp:129] Top shape: 32 64 14 14 (401408)
I0512 15:58:37.974591  5963 net.cpp:137] Memory required for data: 1529750532
I0512 15:58:37.974593  5963 layer_factory.hpp:77] Creating layer inception_4d/output
I0512 15:58:37.974601  5963 net.cpp:84] Creating Layer inception_4d/output
I0512 15:58:37.974603  5963 net.cpp:406] inception_4d/output <- inception_4d/1x1
I0512 15:58:37.974608  5963 net.cpp:406] inception_4d/output <- inception_4d/3x3
I0512 15:58:37.974612  5963 net.cpp:406] inception_4d/output <- inception_4d/5x5
I0512 15:58:37.974615  5963 net.cpp:406] inception_4d/output <- inception_4d/pool_proj
I0512 15:58:37.974622  5963 net.cpp:380] inception_4d/output -> inception_4d/output
I0512 15:58:37.974648  5963 net.cpp:122] Setting up inception_4d/output
I0512 15:58:37.974653  5963 net.cpp:129] Top shape: 32 528 14 14 (3311616)
I0512 15:58:37.974656  5963 net.cpp:137] Memory required for data: 1542996996
I0512 15:58:37.974658  5963 layer_factory.hpp:77] Creating layer inception_4d/output_inception_4d/output_0_split
I0512 15:58:37.974666  5963 net.cpp:84] Creating Layer inception_4d/output_inception_4d/output_0_split
I0512 15:58:37.974669  5963 net.cpp:406] inception_4d/output_inception_4d/output_0_split <- inception_4d/output
I0512 15:58:37.974675  5963 net.cpp:380] inception_4d/output_inception_4d/output_0_split -> inception_4d/output_inception_4d/output_0_split_0
I0512 15:58:37.974681  5963 net.cpp:380] inception_4d/output_inception_4d/output_0_split -> inception_4d/output_inception_4d/output_0_split_1
I0512 15:58:37.974687  5963 net.cpp:380] inception_4d/output_inception_4d/output_0_split -> inception_4d/output_inception_4d/output_0_split_2
I0512 15:58:37.974692  5963 net.cpp:380] inception_4d/output_inception_4d/output_0_split -> inception_4d/output_inception_4d/output_0_split_3
I0512 15:58:37.974697  5963 net.cpp:380] inception_4d/output_inception_4d/output_0_split -> inception_4d/output_inception_4d/output_0_split_4
I0512 15:58:37.974757  5963 net.cpp:122] Setting up inception_4d/output_inception_4d/output_0_split
I0512 15:58:37.974781  5963 net.cpp:129] Top shape: 32 528 14 14 (3311616)
I0512 15:58:37.974784  5963 net.cpp:129] Top shape: 32 528 14 14 (3311616)
I0512 15:58:37.974787  5963 net.cpp:129] Top shape: 32 528 14 14 (3311616)
I0512 15:58:37.974790  5963 net.cpp:129] Top shape: 32 528 14 14 (3311616)
I0512 15:58:37.974794  5963 net.cpp:129] Top shape: 32 528 14 14 (3311616)
I0512 15:58:37.974797  5963 net.cpp:137] Memory required for data: 1609229316
I0512 15:58:37.974799  5963 layer_factory.hpp:77] Creating layer loss2/ave_pool
I0512 15:58:37.974804  5963 net.cpp:84] Creating Layer loss2/ave_pool
I0512 15:58:37.974808  5963 net.cpp:406] loss2/ave_pool <- inception_4d/output_inception_4d/output_0_split_0
I0512 15:58:37.974814  5963 net.cpp:380] loss2/ave_pool -> loss2/ave_pool
I0512 15:58:37.975400  5963 net.cpp:122] Setting up loss2/ave_pool
I0512 15:58:37.975409  5963 net.cpp:129] Top shape: 32 528 4 4 (270336)
I0512 15:58:37.975412  5963 net.cpp:137] Memory required for data: 1610310660
I0512 15:58:37.975415  5963 layer_factory.hpp:77] Creating layer loss2/conv
I0512 15:58:37.975425  5963 net.cpp:84] Creating Layer loss2/conv
I0512 15:58:37.975428  5963 net.cpp:406] loss2/conv <- loss2/ave_pool
I0512 15:58:37.975435  5963 net.cpp:380] loss2/conv -> loss2/conv
I0512 15:58:37.978155  5963 net.cpp:122] Setting up loss2/conv
I0512 15:58:37.978165  5963 net.cpp:129] Top shape: 32 128 4 4 (65536)
I0512 15:58:37.978168  5963 net.cpp:137] Memory required for data: 1610572804
I0512 15:58:37.978174  5963 layer_factory.hpp:77] Creating layer loss2/relu_conv
I0512 15:58:37.978183  5963 net.cpp:84] Creating Layer loss2/relu_conv
I0512 15:58:37.978186  5963 net.cpp:406] loss2/relu_conv <- loss2/conv
I0512 15:58:37.978190  5963 net.cpp:367] loss2/relu_conv -> loss2/conv (in-place)
I0512 15:58:37.978579  5963 net.cpp:122] Setting up loss2/relu_conv
I0512 15:58:37.978588  5963 net.cpp:129] Top shape: 32 128 4 4 (65536)
I0512 15:58:37.978591  5963 net.cpp:137] Memory required for data: 1610834948
I0512 15:58:37.978595  5963 layer_factory.hpp:77] Creating layer loss2/fc
I0512 15:58:37.978605  5963 net.cpp:84] Creating Layer loss2/fc
I0512 15:58:37.978608  5963 net.cpp:406] loss2/fc <- loss2/conv
I0512 15:58:37.978615  5963 net.cpp:380] loss2/fc -> loss2/fc
I0512 15:58:37.990578  5963 net.cpp:122] Setting up loss2/fc
I0512 15:58:37.990595  5963 net.cpp:129] Top shape: 32 1024 (32768)
I0512 15:58:37.990598  5963 net.cpp:137] Memory required for data: 1610966020
I0512 15:58:37.990607  5963 layer_factory.hpp:77] Creating layer loss2/relu_fc
I0512 15:58:37.990613  5963 net.cpp:84] Creating Layer loss2/relu_fc
I0512 15:58:37.990618  5963 net.cpp:406] loss2/relu_fc <- loss2/fc
I0512 15:58:37.990623  5963 net.cpp:367] loss2/relu_fc -> loss2/fc (in-place)
I0512 15:58:37.992662  5963 net.cpp:122] Setting up loss2/relu_fc
I0512 15:58:37.992676  5963 net.cpp:129] Top shape: 32 1024 (32768)
I0512 15:58:37.992677  5963 net.cpp:137] Memory required for data: 1611097092
I0512 15:58:37.992681  5963 layer_factory.hpp:77] Creating layer loss2/drop_fc
I0512 15:58:37.992689  5963 net.cpp:84] Creating Layer loss2/drop_fc
I0512 15:58:37.992693  5963 net.cpp:406] loss2/drop_fc <- loss2/fc
I0512 15:58:37.992699  5963 net.cpp:367] loss2/drop_fc -> loss2/fc (in-place)
I0512 15:58:37.992730  5963 net.cpp:122] Setting up loss2/drop_fc
I0512 15:58:37.992735  5963 net.cpp:129] Top shape: 32 1024 (32768)
I0512 15:58:37.992738  5963 net.cpp:137] Memory required for data: 1611228164
I0512 15:58:37.992740  5963 layer_factory.hpp:77] Creating layer loss2/classifier
I0512 15:58:37.992748  5963 net.cpp:84] Creating Layer loss2/classifier
I0512 15:58:37.992751  5963 net.cpp:406] loss2/classifier <- loss2/fc
I0512 15:58:37.992756  5963 net.cpp:380] loss2/classifier -> loss2/classifier
I0512 15:58:37.994448  5963 net.cpp:122] Setting up loss2/classifier
I0512 15:58:37.994457  5963 net.cpp:129] Top shape: 32 196 (6272)
I0512 15:58:37.994459  5963 net.cpp:137] Memory required for data: 1611253252
I0512 15:58:37.994467  5963 layer_factory.hpp:77] Creating layer loss2/loss
I0512 15:58:37.994493  5963 net.cpp:84] Creating Layer loss2/loss
I0512 15:58:37.994495  5963 net.cpp:406] loss2/loss <- loss2/classifier
I0512 15:58:37.994500  5963 net.cpp:406] loss2/loss <- label_train-data_1_split_1
I0512 15:58:37.994505  5963 net.cpp:380] loss2/loss -> loss2/loss
I0512 15:58:37.994515  5963 layer_factory.hpp:77] Creating layer loss2/loss
I0512 15:58:37.995165  5963 net.cpp:122] Setting up loss2/loss
I0512 15:58:37.995174  5963 net.cpp:129] Top shape: (1)
I0512 15:58:37.995177  5963 net.cpp:132]     with loss weight 0.3
I0512 15:58:37.995187  5963 net.cpp:137] Memory required for data: 1611253256
I0512 15:58:37.995190  5963 layer_factory.hpp:77] Creating layer inception_4e/1x1
I0512 15:58:37.995203  5963 net.cpp:84] Creating Layer inception_4e/1x1
I0512 15:58:37.995208  5963 net.cpp:406] inception_4e/1x1 <- inception_4d/output_inception_4d/output_0_split_1
I0512 15:58:37.995213  5963 net.cpp:380] inception_4e/1x1 -> inception_4e/1x1
I0512 15:58:37.997867  5963 net.cpp:122] Setting up inception_4e/1x1
I0512 15:58:37.997877  5963 net.cpp:129] Top shape: 32 256 14 14 (1605632)
I0512 15:58:37.997880  5963 net.cpp:137] Memory required for data: 1617675784
I0512 15:58:37.997886  5963 layer_factory.hpp:77] Creating layer inception_4e/relu_1x1
I0512 15:58:37.997895  5963 net.cpp:84] Creating Layer inception_4e/relu_1x1
I0512 15:58:37.997898  5963 net.cpp:406] inception_4e/relu_1x1 <- inception_4e/1x1
I0512 15:58:37.997902  5963 net.cpp:367] inception_4e/relu_1x1 -> inception_4e/1x1 (in-place)
I0512 15:58:37.998489  5963 net.cpp:122] Setting up inception_4e/relu_1x1
I0512 15:58:37.998498  5963 net.cpp:129] Top shape: 32 256 14 14 (1605632)
I0512 15:58:37.998502  5963 net.cpp:137] Memory required for data: 1624098312
I0512 15:58:37.998504  5963 layer_factory.hpp:77] Creating layer inception_4e/3x3_reduce
I0512 15:58:37.998513  5963 net.cpp:84] Creating Layer inception_4e/3x3_reduce
I0512 15:58:37.998517  5963 net.cpp:406] inception_4e/3x3_reduce <- inception_4d/output_inception_4d/output_0_split_2
I0512 15:58:37.998525  5963 net.cpp:380] inception_4e/3x3_reduce -> inception_4e/3x3_reduce
I0512 15:58:38.000902  5963 net.cpp:122] Setting up inception_4e/3x3_reduce
I0512 15:58:38.000912  5963 net.cpp:129] Top shape: 32 160 14 14 (1003520)
I0512 15:58:38.000916  5963 net.cpp:137] Memory required for data: 1628112392
I0512 15:58:38.000921  5963 layer_factory.hpp:77] Creating layer inception_4e/relu_3x3_reduce
I0512 15:58:38.000927  5963 net.cpp:84] Creating Layer inception_4e/relu_3x3_reduce
I0512 15:58:38.000931  5963 net.cpp:406] inception_4e/relu_3x3_reduce <- inception_4e/3x3_reduce
I0512 15:58:38.000937  5963 net.cpp:367] inception_4e/relu_3x3_reduce -> inception_4e/3x3_reduce (in-place)
I0512 15:58:38.001494  5963 net.cpp:122] Setting up inception_4e/relu_3x3_reduce
I0512 15:58:38.001505  5963 net.cpp:129] Top shape: 32 160 14 14 (1003520)
I0512 15:58:38.001508  5963 net.cpp:137] Memory required for data: 1632126472
I0512 15:58:38.001511  5963 layer_factory.hpp:77] Creating layer inception_4e/3x3
I0512 15:58:38.001520  5963 net.cpp:84] Creating Layer inception_4e/3x3
I0512 15:58:38.001524  5963 net.cpp:406] inception_4e/3x3 <- inception_4e/3x3_reduce
I0512 15:58:38.001531  5963 net.cpp:380] inception_4e/3x3 -> inception_4e/3x3
I0512 15:58:38.008178  5963 net.cpp:122] Setting up inception_4e/3x3
I0512 15:58:38.008193  5963 net.cpp:129] Top shape: 32 320 14 14 (2007040)
I0512 15:58:38.008195  5963 net.cpp:137] Memory required for data: 1640154632
I0512 15:58:38.008203  5963 layer_factory.hpp:77] Creating layer inception_4e/relu_3x3
I0512 15:58:38.008213  5963 net.cpp:84] Creating Layer inception_4e/relu_3x3
I0512 15:58:38.008216  5963 net.cpp:406] inception_4e/relu_3x3 <- inception_4e/3x3
I0512 15:58:38.008222  5963 net.cpp:367] inception_4e/relu_3x3 -> inception_4e/3x3 (in-place)
I0512 15:58:38.008633  5963 net.cpp:122] Setting up inception_4e/relu_3x3
I0512 15:58:38.008644  5963 net.cpp:129] Top shape: 32 320 14 14 (2007040)
I0512 15:58:38.008647  5963 net.cpp:137] Memory required for data: 1648182792
I0512 15:58:38.008669  5963 layer_factory.hpp:77] Creating layer inception_4e/5x5_reduce
I0512 15:58:38.008680  5963 net.cpp:84] Creating Layer inception_4e/5x5_reduce
I0512 15:58:38.008684  5963 net.cpp:406] inception_4e/5x5_reduce <- inception_4d/output_inception_4d/output_0_split_3
I0512 15:58:38.008692  5963 net.cpp:380] inception_4e/5x5_reduce -> inception_4e/5x5_reduce
I0512 15:58:38.011070  5963 net.cpp:122] Setting up inception_4e/5x5_reduce
I0512 15:58:38.011080  5963 net.cpp:129] Top shape: 32 32 14 14 (200704)
I0512 15:58:38.011082  5963 net.cpp:137] Memory required for data: 1648985608
I0512 15:58:38.011090  5963 layer_factory.hpp:77] Creating layer inception_4e/relu_5x5_reduce
I0512 15:58:38.011097  5963 net.cpp:84] Creating Layer inception_4e/relu_5x5_reduce
I0512 15:58:38.011101  5963 net.cpp:406] inception_4e/relu_5x5_reduce <- inception_4e/5x5_reduce
I0512 15:58:38.011106  5963 net.cpp:367] inception_4e/relu_5x5_reduce -> inception_4e/5x5_reduce (in-place)
I0512 15:58:38.011672  5963 net.cpp:122] Setting up inception_4e/relu_5x5_reduce
I0512 15:58:38.011682  5963 net.cpp:129] Top shape: 32 32 14 14 (200704)
I0512 15:58:38.011684  5963 net.cpp:137] Memory required for data: 1649788424
I0512 15:58:38.011688  5963 layer_factory.hpp:77] Creating layer inception_4e/5x5
I0512 15:58:38.011725  5963 net.cpp:84] Creating Layer inception_4e/5x5
I0512 15:58:38.011729  5963 net.cpp:406] inception_4e/5x5 <- inception_4e/5x5_reduce
I0512 15:58:38.011735  5963 net.cpp:380] inception_4e/5x5 -> inception_4e/5x5
I0512 15:58:38.015537  5963 net.cpp:122] Setting up inception_4e/5x5
I0512 15:58:38.015547  5963 net.cpp:129] Top shape: 32 128 14 14 (802816)
I0512 15:58:38.015550  5963 net.cpp:137] Memory required for data: 1652999688
I0512 15:58:38.015558  5963 layer_factory.hpp:77] Creating layer inception_4e/relu_5x5
I0512 15:58:38.015563  5963 net.cpp:84] Creating Layer inception_4e/relu_5x5
I0512 15:58:38.015568  5963 net.cpp:406] inception_4e/relu_5x5 <- inception_4e/5x5
I0512 15:58:38.015573  5963 net.cpp:367] inception_4e/relu_5x5 -> inception_4e/5x5 (in-place)
I0512 15:58:38.016134  5963 net.cpp:122] Setting up inception_4e/relu_5x5
I0512 15:58:38.016146  5963 net.cpp:129] Top shape: 32 128 14 14 (802816)
I0512 15:58:38.016149  5963 net.cpp:137] Memory required for data: 1656210952
I0512 15:58:38.016152  5963 layer_factory.hpp:77] Creating layer inception_4e/pool
I0512 15:58:38.016160  5963 net.cpp:84] Creating Layer inception_4e/pool
I0512 15:58:38.016163  5963 net.cpp:406] inception_4e/pool <- inception_4d/output_inception_4d/output_0_split_4
I0512 15:58:38.016170  5963 net.cpp:380] inception_4e/pool -> inception_4e/pool
I0512 15:58:38.016211  5963 net.cpp:122] Setting up inception_4e/pool
I0512 15:58:38.016218  5963 net.cpp:129] Top shape: 32 528 14 14 (3311616)
I0512 15:58:38.016222  5963 net.cpp:137] Memory required for data: 1669457416
I0512 15:58:38.016224  5963 layer_factory.hpp:77] Creating layer inception_4e/pool_proj
I0512 15:58:38.016233  5963 net.cpp:84] Creating Layer inception_4e/pool_proj
I0512 15:58:38.016237  5963 net.cpp:406] inception_4e/pool_proj <- inception_4e/pool
I0512 15:58:38.016242  5963 net.cpp:380] inception_4e/pool_proj -> inception_4e/pool_proj
I0512 15:58:38.019404  5963 net.cpp:122] Setting up inception_4e/pool_proj
I0512 15:58:38.019414  5963 net.cpp:129] Top shape: 32 128 14 14 (802816)
I0512 15:58:38.019418  5963 net.cpp:137] Memory required for data: 1672668680
I0512 15:58:38.019424  5963 layer_factory.hpp:77] Creating layer inception_4e/relu_pool_proj
I0512 15:58:38.019429  5963 net.cpp:84] Creating Layer inception_4e/relu_pool_proj
I0512 15:58:38.019433  5963 net.cpp:406] inception_4e/relu_pool_proj <- inception_4e/pool_proj
I0512 15:58:38.019440  5963 net.cpp:367] inception_4e/relu_pool_proj -> inception_4e/pool_proj (in-place)
I0512 15:58:38.020005  5963 net.cpp:122] Setting up inception_4e/relu_pool_proj
I0512 15:58:38.020018  5963 net.cpp:129] Top shape: 32 128 14 14 (802816)
I0512 15:58:38.020021  5963 net.cpp:137] Memory required for data: 1675879944
I0512 15:58:38.020025  5963 layer_factory.hpp:77] Creating layer inception_4e/output
I0512 15:58:38.020048  5963 net.cpp:84] Creating Layer inception_4e/output
I0512 15:58:38.020052  5963 net.cpp:406] inception_4e/output <- inception_4e/1x1
I0512 15:58:38.020057  5963 net.cpp:406] inception_4e/output <- inception_4e/3x3
I0512 15:58:38.020061  5963 net.cpp:406] inception_4e/output <- inception_4e/5x5
I0512 15:58:38.020064  5963 net.cpp:406] inception_4e/output <- inception_4e/pool_proj
I0512 15:58:38.020072  5963 net.cpp:380] inception_4e/output -> inception_4e/output
I0512 15:58:38.020103  5963 net.cpp:122] Setting up inception_4e/output
I0512 15:58:38.020108  5963 net.cpp:129] Top shape: 32 832 14 14 (5218304)
I0512 15:58:38.020112  5963 net.cpp:137] Memory required for data: 1696753160
I0512 15:58:38.020114  5963 layer_factory.hpp:77] Creating layer pool4/3x3_s2
I0512 15:58:38.020119  5963 net.cpp:84] Creating Layer pool4/3x3_s2
I0512 15:58:38.020123  5963 net.cpp:406] pool4/3x3_s2 <- inception_4e/output
I0512 15:58:38.020128  5963 net.cpp:380] pool4/3x3_s2 -> pool4/3x3_s2
I0512 15:58:38.020161  5963 net.cpp:122] Setting up pool4/3x3_s2
I0512 15:58:38.020166  5963 net.cpp:129] Top shape: 32 832 7 7 (1304576)
I0512 15:58:38.020169  5963 net.cpp:137] Memory required for data: 1701971464
I0512 15:58:38.020171  5963 layer_factory.hpp:77] Creating layer pool4/3x3_s2_pool4/3x3_s2_0_split
I0512 15:58:38.020179  5963 net.cpp:84] Creating Layer pool4/3x3_s2_pool4/3x3_s2_0_split
I0512 15:58:38.020181  5963 net.cpp:406] pool4/3x3_s2_pool4/3x3_s2_0_split <- pool4/3x3_s2
I0512 15:58:38.020185  5963 net.cpp:380] pool4/3x3_s2_pool4/3x3_s2_0_split -> pool4/3x3_s2_pool4/3x3_s2_0_split_0
I0512 15:58:38.020191  5963 net.cpp:380] pool4/3x3_s2_pool4/3x3_s2_0_split -> pool4/3x3_s2_pool4/3x3_s2_0_split_1
I0512 15:58:38.020197  5963 net.cpp:380] pool4/3x3_s2_pool4/3x3_s2_0_split -> pool4/3x3_s2_pool4/3x3_s2_0_split_2
I0512 15:58:38.020202  5963 net.cpp:380] pool4/3x3_s2_pool4/3x3_s2_0_split -> pool4/3x3_s2_pool4/3x3_s2_0_split_3
I0512 15:58:38.020251  5963 net.cpp:122] Setting up pool4/3x3_s2_pool4/3x3_s2_0_split
I0512 15:58:38.020256  5963 net.cpp:129] Top shape: 32 832 7 7 (1304576)
I0512 15:58:38.020259  5963 net.cpp:129] Top shape: 32 832 7 7 (1304576)
I0512 15:58:38.020262  5963 net.cpp:129] Top shape: 32 832 7 7 (1304576)
I0512 15:58:38.020265  5963 net.cpp:129] Top shape: 32 832 7 7 (1304576)
I0512 15:58:38.020268  5963 net.cpp:137] Memory required for data: 1722844680
I0512 15:58:38.020270  5963 layer_factory.hpp:77] Creating layer inception_5a/1x1
I0512 15:58:38.020280  5963 net.cpp:84] Creating Layer inception_5a/1x1
I0512 15:58:38.020283  5963 net.cpp:406] inception_5a/1x1 <- pool4/3x3_s2_pool4/3x3_s2_0_split_0
I0512 15:58:38.020289  5963 net.cpp:380] inception_5a/1x1 -> inception_5a/1x1
I0512 15:58:38.023262  5963 net.cpp:122] Setting up inception_5a/1x1
I0512 15:58:38.023272  5963 net.cpp:129] Top shape: 32 256 7 7 (401408)
I0512 15:58:38.023275  5963 net.cpp:137] Memory required for data: 1724450312
I0512 15:58:38.023281  5963 layer_factory.hpp:77] Creating layer inception_5a/relu_1x1
I0512 15:58:38.023288  5963 net.cpp:84] Creating Layer inception_5a/relu_1x1
I0512 15:58:38.023291  5963 net.cpp:406] inception_5a/relu_1x1 <- inception_5a/1x1
I0512 15:58:38.023298  5963 net.cpp:367] inception_5a/relu_1x1 -> inception_5a/1x1 (in-place)
I0512 15:58:38.023857  5963 net.cpp:122] Setting up inception_5a/relu_1x1
I0512 15:58:38.023866  5963 net.cpp:129] Top shape: 32 256 7 7 (401408)
I0512 15:58:38.023869  5963 net.cpp:137] Memory required for data: 1726055944
I0512 15:58:38.023874  5963 layer_factory.hpp:77] Creating layer inception_5a/3x3_reduce
I0512 15:58:38.023883  5963 net.cpp:84] Creating Layer inception_5a/3x3_reduce
I0512 15:58:38.023887  5963 net.cpp:406] inception_5a/3x3_reduce <- pool4/3x3_s2_pool4/3x3_s2_0_split_1
I0512 15:58:38.023895  5963 net.cpp:380] inception_5a/3x3_reduce -> inception_5a/3x3_reduce
I0512 15:58:38.028930  5963 net.cpp:122] Setting up inception_5a/3x3_reduce
I0512 15:58:38.028949  5963 net.cpp:129] Top shape: 32 160 7 7 (250880)
I0512 15:58:38.028980  5963 net.cpp:137] Memory required for data: 1727059464
I0512 15:58:38.028993  5963 layer_factory.hpp:77] Creating layer inception_5a/relu_3x3_reduce
I0512 15:58:38.029003  5963 net.cpp:84] Creating Layer inception_5a/relu_3x3_reduce
I0512 15:58:38.029009  5963 net.cpp:406] inception_5a/relu_3x3_reduce <- inception_5a/3x3_reduce
I0512 15:58:38.029018  5963 net.cpp:367] inception_5a/relu_3x3_reduce -> inception_5a/3x3_reduce (in-place)
I0512 15:58:38.029711  5963 net.cpp:122] Setting up inception_5a/relu_3x3_reduce
I0512 15:58:38.029731  5963 net.cpp:129] Top shape: 32 160 7 7 (250880)
I0512 15:58:38.029736  5963 net.cpp:137] Memory required for data: 1728062984
I0512 15:58:38.029742  5963 layer_factory.hpp:77] Creating layer inception_5a/3x3
I0512 15:58:38.029759  5963 net.cpp:84] Creating Layer inception_5a/3x3
I0512 15:58:38.029765  5963 net.cpp:406] inception_5a/3x3 <- inception_5a/3x3_reduce
I0512 15:58:38.029776  5963 net.cpp:380] inception_5a/3x3 -> inception_5a/3x3
I0512 15:58:38.040293  5963 net.cpp:122] Setting up inception_5a/3x3
I0512 15:58:38.040310  5963 net.cpp:129] Top shape: 32 320 7 7 (501760)
I0512 15:58:38.040316  5963 net.cpp:137] Memory required for data: 1730070024
I0512 15:58:38.040328  5963 layer_factory.hpp:77] Creating layer inception_5a/relu_3x3
I0512 15:58:38.040338  5963 net.cpp:84] Creating Layer inception_5a/relu_3x3
I0512 15:58:38.040346  5963 net.cpp:406] inception_5a/relu_3x3 <- inception_5a/3x3
I0512 15:58:38.040357  5963 net.cpp:367] inception_5a/relu_3x3 -> inception_5a/3x3 (in-place)
I0512 15:58:38.041373  5963 net.cpp:122] Setting up inception_5a/relu_3x3
I0512 15:58:38.041393  5963 net.cpp:129] Top shape: 32 320 7 7 (501760)
I0512 15:58:38.041399  5963 net.cpp:137] Memory required for data: 1732077064
I0512 15:58:38.041405  5963 layer_factory.hpp:77] Creating layer inception_5a/5x5_reduce
I0512 15:58:38.041422  5963 net.cpp:84] Creating Layer inception_5a/5x5_reduce
I0512 15:58:38.041429  5963 net.cpp:406] inception_5a/5x5_reduce <- pool4/3x3_s2_pool4/3x3_s2_0_split_2
I0512 15:58:38.041442  5963 net.cpp:380] inception_5a/5x5_reduce -> inception_5a/5x5_reduce
I0512 15:58:38.045760  5963 net.cpp:122] Setting up inception_5a/5x5_reduce
I0512 15:58:38.045779  5963 net.cpp:129] Top shape: 32 32 7 7 (50176)
I0512 15:58:38.045784  5963 net.cpp:137] Memory required for data: 1732277768
I0512 15:58:38.045799  5963 layer_factory.hpp:77] Creating layer inception_5a/relu_5x5_reduce
I0512 15:58:38.045809  5963 net.cpp:84] Creating Layer inception_5a/relu_5x5_reduce
I0512 15:58:38.045816  5963 net.cpp:406] inception_5a/relu_5x5_reduce <- inception_5a/5x5_reduce
I0512 15:58:38.045828  5963 net.cpp:367] inception_5a/relu_5x5_reduce -> inception_5a/5x5_reduce (in-place)
I0512 15:58:38.046697  5963 net.cpp:122] Setting up inception_5a/relu_5x5_reduce
I0512 15:58:38.046712  5963 net.cpp:129] Top shape: 32 32 7 7 (50176)
I0512 15:58:38.046717  5963 net.cpp:137] Memory required for data: 1732478472
I0512 15:58:38.046722  5963 layer_factory.hpp:77] Creating layer inception_5a/5x5
I0512 15:58:38.046737  5963 net.cpp:84] Creating Layer inception_5a/5x5
I0512 15:58:38.046746  5963 net.cpp:406] inception_5a/5x5 <- inception_5a/5x5_reduce
I0512 15:58:38.046754  5963 net.cpp:380] inception_5a/5x5 -> inception_5a/5x5
I0512 15:58:38.049587  5963 net.cpp:122] Setting up inception_5a/5x5
I0512 15:58:38.049597  5963 net.cpp:129] Top shape: 32 128 7 7 (200704)
I0512 15:58:38.049600  5963 net.cpp:137] Memory required for data: 1733281288
I0512 15:58:38.049607  5963 layer_factory.hpp:77] Creating layer inception_5a/relu_5x5
I0512 15:58:38.049613  5963 net.cpp:84] Creating Layer inception_5a/relu_5x5
I0512 15:58:38.049616  5963 net.cpp:406] inception_5a/relu_5x5 <- inception_5a/5x5
I0512 15:58:38.049623  5963 net.cpp:367] inception_5a/relu_5x5 -> inception_5a/5x5 (in-place)
I0512 15:58:38.050179  5963 net.cpp:122] Setting up inception_5a/relu_5x5
I0512 15:58:38.050192  5963 net.cpp:129] Top shape: 32 128 7 7 (200704)
I0512 15:58:38.050195  5963 net.cpp:137] Memory required for data: 1734084104
I0512 15:58:38.050218  5963 layer_factory.hpp:77] Creating layer inception_5a/pool
I0512 15:58:38.050225  5963 net.cpp:84] Creating Layer inception_5a/pool
I0512 15:58:38.050230  5963 net.cpp:406] inception_5a/pool <- pool4/3x3_s2_pool4/3x3_s2_0_split_3
I0512 15:58:38.050237  5963 net.cpp:380] inception_5a/pool -> inception_5a/pool
I0512 15:58:38.050279  5963 net.cpp:122] Setting up inception_5a/pool
I0512 15:58:38.050287  5963 net.cpp:129] Top shape: 32 832 7 7 (1304576)
I0512 15:58:38.050289  5963 net.cpp:137] Memory required for data: 1739302408
I0512 15:58:38.050292  5963 layer_factory.hpp:77] Creating layer inception_5a/pool_proj
I0512 15:58:38.050300  5963 net.cpp:84] Creating Layer inception_5a/pool_proj
I0512 15:58:38.050303  5963 net.cpp:406] inception_5a/pool_proj <- inception_5a/pool
I0512 15:58:38.050309  5963 net.cpp:380] inception_5a/pool_proj -> inception_5a/pool_proj
I0512 15:58:38.053642  5963 net.cpp:122] Setting up inception_5a/pool_proj
I0512 15:58:38.053651  5963 net.cpp:129] Top shape: 32 128 7 7 (200704)
I0512 15:58:38.053655  5963 net.cpp:137] Memory required for data: 1740105224
I0512 15:58:38.053661  5963 layer_factory.hpp:77] Creating layer inception_5a/relu_pool_proj
I0512 15:58:38.053669  5963 net.cpp:84] Creating Layer inception_5a/relu_pool_proj
I0512 15:58:38.053673  5963 net.cpp:406] inception_5a/relu_pool_proj <- inception_5a/pool_proj
I0512 15:58:38.053678  5963 net.cpp:367] inception_5a/relu_pool_proj -> inception_5a/pool_proj (in-place)
I0512 15:58:38.054250  5963 net.cpp:122] Setting up inception_5a/relu_pool_proj
I0512 15:58:38.054260  5963 net.cpp:129] Top shape: 32 128 7 7 (200704)
I0512 15:58:38.054262  5963 net.cpp:137] Memory required for data: 1740908040
I0512 15:58:38.054265  5963 layer_factory.hpp:77] Creating layer inception_5a/output
I0512 15:58:38.054273  5963 net.cpp:84] Creating Layer inception_5a/output
I0512 15:58:38.054277  5963 net.cpp:406] inception_5a/output <- inception_5a/1x1
I0512 15:58:38.054281  5963 net.cpp:406] inception_5a/output <- inception_5a/3x3
I0512 15:58:38.054286  5963 net.cpp:406] inception_5a/output <- inception_5a/5x5
I0512 15:58:38.054289  5963 net.cpp:406] inception_5a/output <- inception_5a/pool_proj
I0512 15:58:38.054293  5963 net.cpp:380] inception_5a/output -> inception_5a/output
I0512 15:58:38.054323  5963 net.cpp:122] Setting up inception_5a/output
I0512 15:58:38.054328  5963 net.cpp:129] Top shape: 32 832 7 7 (1304576)
I0512 15:58:38.054332  5963 net.cpp:137] Memory required for data: 1746126344
I0512 15:58:38.054333  5963 layer_factory.hpp:77] Creating layer inception_5a/output_inception_5a/output_0_split
I0512 15:58:38.054340  5963 net.cpp:84] Creating Layer inception_5a/output_inception_5a/output_0_split
I0512 15:58:38.054343  5963 net.cpp:406] inception_5a/output_inception_5a/output_0_split <- inception_5a/output
I0512 15:58:38.054348  5963 net.cpp:380] inception_5a/output_inception_5a/output_0_split -> inception_5a/output_inception_5a/output_0_split_0
I0512 15:58:38.054354  5963 net.cpp:380] inception_5a/output_inception_5a/output_0_split -> inception_5a/output_inception_5a/output_0_split_1
I0512 15:58:38.054361  5963 net.cpp:380] inception_5a/output_inception_5a/output_0_split -> inception_5a/output_inception_5a/output_0_split_2
I0512 15:58:38.054366  5963 net.cpp:380] inception_5a/output_inception_5a/output_0_split -> inception_5a/output_inception_5a/output_0_split_3
I0512 15:58:38.054415  5963 net.cpp:122] Setting up inception_5a/output_inception_5a/output_0_split
I0512 15:58:38.054420  5963 net.cpp:129] Top shape: 32 832 7 7 (1304576)
I0512 15:58:38.054423  5963 net.cpp:129] Top shape: 32 832 7 7 (1304576)
I0512 15:58:38.054427  5963 net.cpp:129] Top shape: 32 832 7 7 (1304576)
I0512 15:58:38.054430  5963 net.cpp:129] Top shape: 32 832 7 7 (1304576)
I0512 15:58:38.054432  5963 net.cpp:137] Memory required for data: 1766999560
I0512 15:58:38.054435  5963 layer_factory.hpp:77] Creating layer inception_5b/1x1
I0512 15:58:38.054445  5963 net.cpp:84] Creating Layer inception_5b/1x1
I0512 15:58:38.054447  5963 net.cpp:406] inception_5b/1x1 <- inception_5a/output_inception_5a/output_0_split_0
I0512 15:58:38.054468  5963 net.cpp:380] inception_5b/1x1 -> inception_5b/1x1
I0512 15:58:38.059527  5963 net.cpp:122] Setting up inception_5b/1x1
I0512 15:58:38.059541  5963 net.cpp:129] Top shape: 32 384 7 7 (602112)
I0512 15:58:38.059545  5963 net.cpp:137] Memory required for data: 1769408008
I0512 15:58:38.059551  5963 layer_factory.hpp:77] Creating layer inception_5b/relu_1x1
I0512 15:58:38.059557  5963 net.cpp:84] Creating Layer inception_5b/relu_1x1
I0512 15:58:38.059561  5963 net.cpp:406] inception_5b/relu_1x1 <- inception_5b/1x1
I0512 15:58:38.059567  5963 net.cpp:367] inception_5b/relu_1x1 -> inception_5b/1x1 (in-place)
I0512 15:58:38.059952  5963 net.cpp:122] Setting up inception_5b/relu_1x1
I0512 15:58:38.059962  5963 net.cpp:129] Top shape: 32 384 7 7 (602112)
I0512 15:58:38.059965  5963 net.cpp:137] Memory required for data: 1771816456
I0512 15:58:38.059968  5963 layer_factory.hpp:77] Creating layer inception_5b/3x3_reduce
I0512 15:58:38.059978  5963 net.cpp:84] Creating Layer inception_5b/3x3_reduce
I0512 15:58:38.059983  5963 net.cpp:406] inception_5b/3x3_reduce <- inception_5a/output_inception_5a/output_0_split_1
I0512 15:58:38.059990  5963 net.cpp:380] inception_5b/3x3_reduce -> inception_5b/3x3_reduce
I0512 15:58:38.063649  5963 net.cpp:122] Setting up inception_5b/3x3_reduce
I0512 15:58:38.063659  5963 net.cpp:129] Top shape: 32 192 7 7 (301056)
I0512 15:58:38.063663  5963 net.cpp:137] Memory required for data: 1773020680
I0512 15:58:38.063669  5963 layer_factory.hpp:77] Creating layer inception_5b/relu_3x3_reduce
I0512 15:58:38.063678  5963 net.cpp:84] Creating Layer inception_5b/relu_3x3_reduce
I0512 15:58:38.063681  5963 net.cpp:406] inception_5b/relu_3x3_reduce <- inception_5b/3x3_reduce
I0512 15:58:38.063686  5963 net.cpp:367] inception_5b/relu_3x3_reduce -> inception_5b/3x3_reduce (in-place)
I0512 15:58:38.064069  5963 net.cpp:122] Setting up inception_5b/relu_3x3_reduce
I0512 15:58:38.064079  5963 net.cpp:129] Top shape: 32 192 7 7 (301056)
I0512 15:58:38.064081  5963 net.cpp:137] Memory required for data: 1774224904
I0512 15:58:38.064085  5963 layer_factory.hpp:77] Creating layer inception_5b/3x3
I0512 15:58:38.064095  5963 net.cpp:84] Creating Layer inception_5b/3x3
I0512 15:58:38.064098  5963 net.cpp:406] inception_5b/3x3 <- inception_5b/3x3_reduce
I0512 15:58:38.064105  5963 net.cpp:380] inception_5b/3x3 -> inception_5b/3x3
I0512 15:58:38.071985  5963 net.cpp:122] Setting up inception_5b/3x3
I0512 15:58:38.072000  5963 net.cpp:129] Top shape: 32 384 7 7 (602112)
I0512 15:58:38.072003  5963 net.cpp:137] Memory required for data: 1776633352
I0512 15:58:38.072011  5963 layer_factory.hpp:77] Creating layer inception_5b/relu_3x3
I0512 15:58:38.072018  5963 net.cpp:84] Creating Layer inception_5b/relu_3x3
I0512 15:58:38.072022  5963 net.cpp:406] inception_5b/relu_3x3 <- inception_5b/3x3
I0512 15:58:38.072031  5963 net.cpp:367] inception_5b/relu_3x3 -> inception_5b/3x3 (in-place)
I0512 15:58:38.072616  5963 net.cpp:122] Setting up inception_5b/relu_3x3
I0512 15:58:38.072629  5963 net.cpp:129] Top shape: 32 384 7 7 (602112)
I0512 15:58:38.072633  5963 net.cpp:137] Memory required for data: 1779041800
I0512 15:58:38.072636  5963 layer_factory.hpp:77] Creating layer inception_5b/5x5_reduce
I0512 15:58:38.072646  5963 net.cpp:84] Creating Layer inception_5b/5x5_reduce
I0512 15:58:38.072651  5963 net.cpp:406] inception_5b/5x5_reduce <- inception_5a/output_inception_5a/output_0_split_2
I0512 15:58:38.072657  5963 net.cpp:380] inception_5b/5x5_reduce -> inception_5b/5x5_reduce
I0512 15:58:38.074867  5963 net.cpp:122] Setting up inception_5b/5x5_reduce
I0512 15:58:38.074878  5963 net.cpp:129] Top shape: 32 48 7 7 (75264)
I0512 15:58:38.074882  5963 net.cpp:137] Memory required for data: 1779342856
I0512 15:58:38.074887  5963 layer_factory.hpp:77] Creating layer inception_5b/relu_5x5_reduce
I0512 15:58:38.074893  5963 net.cpp:84] Creating Layer inception_5b/relu_5x5_reduce
I0512 15:58:38.074898  5963 net.cpp:406] inception_5b/relu_5x5_reduce <- inception_5b/5x5_reduce
I0512 15:58:38.074923  5963 net.cpp:367] inception_5b/relu_5x5_reduce -> inception_5b/5x5_reduce (in-place)
I0512 15:58:38.075486  5963 net.cpp:122] Setting up inception_5b/relu_5x5_reduce
I0512 15:58:38.075495  5963 net.cpp:129] Top shape: 32 48 7 7 (75264)
I0512 15:58:38.075498  5963 net.cpp:137] Memory required for data: 1779643912
I0512 15:58:38.075501  5963 layer_factory.hpp:77] Creating layer inception_5b/5x5
I0512 15:58:38.075513  5963 net.cpp:84] Creating Layer inception_5b/5x5
I0512 15:58:38.075517  5963 net.cpp:406] inception_5b/5x5 <- inception_5b/5x5_reduce
I0512 15:58:38.075525  5963 net.cpp:380] inception_5b/5x5 -> inception_5b/5x5
I0512 15:58:38.078244  5963 net.cpp:122] Setting up inception_5b/5x5
I0512 15:58:38.078254  5963 net.cpp:129] Top shape: 32 128 7 7 (200704)
I0512 15:58:38.078258  5963 net.cpp:137] Memory required for data: 1780446728
I0512 15:58:38.078263  5963 layer_factory.hpp:77] Creating layer inception_5b/relu_5x5
I0512 15:58:38.078270  5963 net.cpp:84] Creating Layer inception_5b/relu_5x5
I0512 15:58:38.078274  5963 net.cpp:406] inception_5b/relu_5x5 <- inception_5b/5x5
I0512 15:58:38.078282  5963 net.cpp:367] inception_5b/relu_5x5 -> inception_5b/5x5 (in-place)
I0512 15:58:38.078846  5963 net.cpp:122] Setting up inception_5b/relu_5x5
I0512 15:58:38.078856  5963 net.cpp:129] Top shape: 32 128 7 7 (200704)
I0512 15:58:38.078860  5963 net.cpp:137] Memory required for data: 1781249544
I0512 15:58:38.078862  5963 layer_factory.hpp:77] Creating layer inception_5b/pool
I0512 15:58:38.078868  5963 net.cpp:84] Creating Layer inception_5b/pool
I0512 15:58:38.078872  5963 net.cpp:406] inception_5b/pool <- inception_5a/output_inception_5a/output_0_split_3
I0512 15:58:38.078879  5963 net.cpp:380] inception_5b/pool -> inception_5b/pool
I0512 15:58:38.078920  5963 net.cpp:122] Setting up inception_5b/pool
I0512 15:58:38.078927  5963 net.cpp:129] Top shape: 32 832 7 7 (1304576)
I0512 15:58:38.078929  5963 net.cpp:137] Memory required for data: 1786467848
I0512 15:58:38.078932  5963 layer_factory.hpp:77] Creating layer inception_5b/pool_proj
I0512 15:58:38.078943  5963 net.cpp:84] Creating Layer inception_5b/pool_proj
I0512 15:58:38.078945  5963 net.cpp:406] inception_5b/pool_proj <- inception_5b/pool
I0512 15:58:38.078951  5963 net.cpp:380] inception_5b/pool_proj -> inception_5b/pool_proj
I0512 15:58:38.082965  5963 net.cpp:122] Setting up inception_5b/pool_proj
I0512 15:58:38.082976  5963 net.cpp:129] Top shape: 32 128 7 7 (200704)
I0512 15:58:38.082979  5963 net.cpp:137] Memory required for data: 1787270664
I0512 15:58:38.082985  5963 layer_factory.hpp:77] Creating layer inception_5b/relu_pool_proj
I0512 15:58:38.082993  5963 net.cpp:84] Creating Layer inception_5b/relu_pool_proj
I0512 15:58:38.082998  5963 net.cpp:406] inception_5b/relu_pool_proj <- inception_5b/pool_proj
I0512 15:58:38.083001  5963 net.cpp:367] inception_5b/relu_pool_proj -> inception_5b/pool_proj (in-place)
I0512 15:58:38.083575  5963 net.cpp:122] Setting up inception_5b/relu_pool_proj
I0512 15:58:38.083583  5963 net.cpp:129] Top shape: 32 128 7 7 (200704)
I0512 15:58:38.083586  5963 net.cpp:137] Memory required for data: 1788073480
I0512 15:58:38.083590  5963 layer_factory.hpp:77] Creating layer inception_5b/output
I0512 15:58:38.083596  5963 net.cpp:84] Creating Layer inception_5b/output
I0512 15:58:38.083600  5963 net.cpp:406] inception_5b/output <- inception_5b/1x1
I0512 15:58:38.083606  5963 net.cpp:406] inception_5b/output <- inception_5b/3x3
I0512 15:58:38.083608  5963 net.cpp:406] inception_5b/output <- inception_5b/5x5
I0512 15:58:38.083612  5963 net.cpp:406] inception_5b/output <- inception_5b/pool_proj
I0512 15:58:38.083616  5963 net.cpp:380] inception_5b/output -> inception_5b/output
I0512 15:58:38.083647  5963 net.cpp:122] Setting up inception_5b/output
I0512 15:58:38.083652  5963 net.cpp:129] Top shape: 32 1024 7 7 (1605632)
I0512 15:58:38.083654  5963 net.cpp:137] Memory required for data: 1794496008
I0512 15:58:38.083657  5963 layer_factory.hpp:77] Creating layer pool5/7x7_s1
I0512 15:58:38.083680  5963 net.cpp:84] Creating Layer pool5/7x7_s1
I0512 15:58:38.083683  5963 net.cpp:406] pool5/7x7_s1 <- inception_5b/output
I0512 15:58:38.083691  5963 net.cpp:380] pool5/7x7_s1 -> pool5/7x7_s1
I0512 15:58:38.084257  5963 net.cpp:122] Setting up pool5/7x7_s1
I0512 15:58:38.084267  5963 net.cpp:129] Top shape: 32 1024 1 1 (32768)
I0512 15:58:38.084270  5963 net.cpp:137] Memory required for data: 1794627080
I0512 15:58:38.084273  5963 layer_factory.hpp:77] Creating layer pool5/drop_7x7_s1
I0512 15:58:38.084280  5963 net.cpp:84] Creating Layer pool5/drop_7x7_s1
I0512 15:58:38.084285  5963 net.cpp:406] pool5/drop_7x7_s1 <- pool5/7x7_s1
I0512 15:58:38.084288  5963 net.cpp:367] pool5/drop_7x7_s1 -> pool5/7x7_s1 (in-place)
I0512 15:58:38.084312  5963 net.cpp:122] Setting up pool5/drop_7x7_s1
I0512 15:58:38.084317  5963 net.cpp:129] Top shape: 32 1024 1 1 (32768)
I0512 15:58:38.084321  5963 net.cpp:137] Memory required for data: 1794758152
I0512 15:58:38.084323  5963 layer_factory.hpp:77] Creating layer loss3/classifier
I0512 15:58:38.084329  5963 net.cpp:84] Creating Layer loss3/classifier
I0512 15:58:38.084332  5963 net.cpp:406] loss3/classifier <- pool5/7x7_s1
I0512 15:58:38.084339  5963 net.cpp:380] loss3/classifier -> loss3/classifier
I0512 15:58:38.086055  5963 net.cpp:122] Setting up loss3/classifier
I0512 15:58:38.086064  5963 net.cpp:129] Top shape: 32 196 (6272)
I0512 15:58:38.086066  5963 net.cpp:137] Memory required for data: 1794783240
I0512 15:58:38.086072  5963 layer_factory.hpp:77] Creating layer loss3/loss
I0512 15:58:38.086078  5963 net.cpp:84] Creating Layer loss3/loss
I0512 15:58:38.086081  5963 net.cpp:406] loss3/loss <- loss3/classifier
I0512 15:58:38.086086  5963 net.cpp:406] loss3/loss <- label_train-data_1_split_2
I0512 15:58:38.086092  5963 net.cpp:380] loss3/loss -> loss
…
I0512 15:58:38.088994  5963 solver.cpp:172] Creating test net (#0) specified by net file: train_val.prototxt
I0512 15:58:38.089112  5963 net.cpp:294] The NetState phase (1) differed from the phase (0) specified by a rule in layer train-data
I0512 15:58:38.089962  5963 net.cpp:51] Initializing net from parameters:
state {
phase: TEST
}
layer {
name: "val-data"
type: "Data"
top: "data"
top: "label"
include {
phase: TEST
}
transform_param {
mirror: false
crop_size: 224
mean_value: 116.08698
mean_value: 117.34767
mean_value: 119.99612
}
data_param {
source: "/mnt/bigdisk/AMBDIG9/digits/jobs/20200512-151006-0de8/val_db"
batch_size: 16
backend: LMDB
}
}
layer {
name: "conv1/7x7_s2"
type: "Convolution"
bottom: "data"
top: "conv1/7x7_s2"
param {
lr_mult: 1
decay_mult: 1
}
param {
lr_mult: 2
decay_mult: 0
}
convolution_param {
num_output: 64
pad: 3
kernel_size: 7
stride: 2
weight_filler {
type: "xavier"
std: 0.1
}
bias_filler {
type: "constant"
value: 0.2
}
}
}
layer {
name: "conv1/relu_7x7"
type: "ReLU"
bottom: "conv1/7x7_s2"
top: "conv1/7x7_s2"
}
layer {
name: "pool1/3x3_s2"
type: "Pooling"
bottom: "conv1/7x7_s2"
top: "pool1/3x3_s2"
pooling_param {
pool: MAX
kernel_size: 3
stride: 2
}
}
layer {
name: "pool1/norm1"
type: "LRN"
bottom: "pool1/3x3_s2"
top: "pool1/norm1"
lrn_param {
local_size: 5
alpha: 0.0001
beta: 0.75
}
}
layer {
name: "conv2/3x3_reduce"
type: "Convolution"
bottom: "pool1/norm1"
top: "conv2/3x3_reduce"
param {
lr_mult: 1
decay_mult: 1
}
param {
lr_mult: 2
decay_mult: 0
}
convolution_param {
num_output: 64
kernel_size: 1
weight_filler {
type: "xavier"
std: 0.1
}
bias_filler {
type: "constant"
value: 0.2
}
}
}
layer {
name: "conv2/relu_3x3_reduce"
type: "ReLU"
bottom: "conv2/3x3_reduce"
top: "conv2/3x3_reduce"
}
layer {
name: "conv2/3x3"
type: "Convolution"
bottom: "conv2/3x3_reduce"
top: "conv2/3x3"
param {
lr_mult: 1
decay_mult: 1
}
param {
lr_mult: 2
decay_mult: 0
}
convolution_param {
num_output: 192
pad: 1
kernel_size: 3
weight_filler {
type: "xavier"
std: 0.03
}
bias_filler {
type: "constant"
value: 0.2
}
}
}
layer {
name: "conv2/relu_3x3"
type: "ReLU"
bottom: "conv2/3x3"
top: "conv2/3x3"
}
layer {
name: "conv2/norm2"
type: "LRN"
bottom: "conv2/3x3"
top: "conv2/norm2"
lrn_param {
local_size: 5
alpha: 0.0001
beta: 0.75
}
}
layer {
name: "pool2/3x3_s2"
type: "Pooling"
bottom: "conv2/norm2"
top: "pool2/3x3_s2"
pooling_param {
pool: MAX
kernel_size: 3
stride: 2
}
}
layer {
name: "inception_3a/1x1"
type: "Convolution"
bottom: "pool2/3x3_s2"
top: "inception_3a/1x1"
param {
lr_mult: 1
decay_mult: 1
}
param {
lr_mult: 2
decay_mult: 0
}
convolution_param {
num_output: 64
kernel_size: 1
weight_filler {
type: "xavier"
std: 0.03
}
bias_filler {
type: "constant"
value: 0.2
}
}
}
layer {
name: "inception_3a/relu_1x1"
type: "ReLU"
bottom: "inception_3a/1x1"
top: "inception_3a/1x1"
}
layer {
name: "inception_3a/3x3_reduce"
type: "Convolution"
bottom: "pool2/3x3_s2"
top: "inception_3a/3x3_reduce"
param {
lr_mult: 1
decay_mult: 1
}
param {
lr_mult: 2
decay_mult: 0
}
convolution_param {
num_output: 96
kernel_size: 1
weight_filler {
type: "xavier"
std: 0.09
}
bias_filler {
type: "constant"
value: 0.2
}
}
}
layer {
name: "inception_3a/relu_3x3_reduce"
type: "ReLU"
bottom: "inception_3a/3x3_reduce"
top: "inception_3a/3x3_reduce"
}
layer {
name: "inception_3a/3x3"
type: "Convolution"
bottom: "inception_3a/3x3_reduce"
top: "inception_3a/3x3"
param {
lr_mult: 1
decay_mult: 1
}
param {
lr_mult: 2
decay_mult: 0
}
convolution_param {
num_output: 128
pad: 1
kernel_size: 3
weight_filler {
type: "xavier"
std: 0.03
}
bias_filler {
type: "constant"
value: 0.2
}
}
}
layer {
name: "inception_3a/relu_3x3"
type: "ReLU"
bottom: "inception_3a/3x3"
top: "inception_3a/3x3"
}
layer {
name: "inception_3a/5x5_reduce"
type: "Convolution"
bottom: "pool2/3x3_s2"
top: "inception_3a/5x5_reduce"
param {
lr_mult: 1
decay_mult: 1
}
param {
lr_mult: 2
decay_mult: 0
}
convolution_param {
num_output: 16
kernel_size: 1
weight_filler {
type: "xavier"
std: 0.2
}
bias_filler {
type: "constant"
value: 0.2
}
}
}
layer {
name: "inception_3a/relu_5x5_reduce"
type: "ReLU"
bottom: "inception_3a/5x5_reduce"
top: "inception_3a/5x5_reduce"
}
layer {
name: "inception_3a/5x5"
type: "Convolution"
bottom: "inception_3a/5x5_reduce"
top: "inception_3a/5x5"
param {
lr_mult: 1
decay_mult: 1
}
param {
lr_mult: 2
decay_mult: 0
}
convolution_param {
num_output: 32
pad: 2
kernel_size: 5
weight_filler {
type: "xavier"
std: 0.03
}
bias_filler {
type: "constant"
value: 0.2
}
}
}
layer {
name: "inception_3a/relu_5x5"
type: "ReLU"
bottom: "inception_3a/5x5"
top: "inception_3a/5x5"
}
layer {
name: "inception_3a/pool"
type: "Pooling"
bottom: "pool2/3x3_s2"
top: "inception_3a/pool"
pooling_param {
pool: MAX
kernel_size: 3
stride: 1
pad: 1
}
}
layer {
name: "inception_3a/pool_proj"
type: "Convolution"
bottom: "inception_3a/pool"
top: "inception_3a/pool_proj"
param {
lr_mult: 1
decay_mult: 1
}
param {
lr_mult: 2
decay_mult: 0
}
convolution_param {
num_output: 32
kernel_size: 1
weight_filler {
type: "xavier"
std: 0.1
}
bias_filler {
type: "constant"
value: 0.2
}
}
}
layer {
name: "inception_3a/relu_pool_proj"
type: "ReLU"
bottom: "inception_3a/pool_proj"
top: "inception_3a/pool_proj"
}
layer {
name: "inception_3a/output"
type: "Concat"
bottom: "inception_3a/1x1"
bottom: "inception_3a/3x3"
bottom: "inception_3a/5x5"
bottom: "inception_3a/pool_proj"
top: "inception_3a/output"
}
layer {
name: "inception_3b/1x1"
type: "Convolution"
bottom: "inception_3a/output"
top: "inception_3b/1x1"
param {
lr_mult: 1
decay_mult: 1
}
param {
lr_mult: 2
decay_mult: 0
}
convolution_param {
num_output: 128
kernel_size: 1
weight_filler {
type: "xavier"
std: 0.03
}
bias_filler {
type: "constant"
value: 0.2
}
}
}
layer {
name: "inception_3b/relu_1x1"
type: "ReLU"
bottom: "inception_3b/1x1"
top: "inception_3b/1x1"
}
layer {
name: "inception_3b/3x3_reduce"
type: "Convolution"
bottom: "inception_3a/output"
top: "inception_3b/3x3_reduce"
param {
lr_mult: 1
decay_mult: 1
}
param {
lr_mult: 2
decay_mult: 0
}
convolution_param {
num_output: 128
kernel_size: 1
weight_filler {
type: "xavier"
std: 0.09
}
bias_filler {
type: "constant"
value: 0.2
}
}
}
layer {
name: "inception_3b/relu_3x3_reduce"
type: "ReLU"
bottom: "inception_3b/3x3_reduce"
top: "inception_3b/3x3_reduce"
}
layer {
name: "inception_3b/3x3"
type: "Convolution"
bottom: "inception_3b/3x3_reduce"
top: "inception_3b/3x3"
param {
lr_mult: 1
decay_mult: 1
}
param {
lr_mult: 2
decay_mult: 0
}
convolution_param {
num_output: 192
pad: 1
kernel_size: 3
weight_filler {
type: "xavier"
std: 0.03
}
bias_filler {
type: "constant"
value: 0.2
}
}
}
layer {
name: "inception_3b/relu_3x3"
type: "ReLU"
bottom: "inception_3b/3x3"
top: "inception_3b/3x3"
}
layer {
name: "inception_3b/5x5_reduce"
type: "Convolution"
bottom: "inception_3a/output"
top: "inception_3b/5x5_reduce"
param {
lr_mult: 1
decay_mult: 1
}
param {
lr_mult: 2
decay_mult: 0
}
convolution_param {
num_output: 32
kernel_size: 1
weight_filler {
type: "xavier"
std: 0.2
}
bias_filler {
type: "constant"
value: 0.2
}
}
}
layer {
name: "inception_3b/relu_5x5_reduce"
type: "ReLU"
bottom: "inception_3b/5x5_reduce"
top: "inception_3b/5x5_reduce"
}
layer {
name: "inception_3b/5x5"
type: "Convolution"
bottom: "inception_3b/5x5_reduce"
top: "inception_3b/5x5"
param {
lr_mult: 1
decay_mult: 1
}
param {
lr_mult: 2
decay_mult: 0
}
convolution_param {
num_output: 96
pad: 2
kernel_size: 5
weight_filler {
type: "xavier"
std: 0.03
}
bias_filler {
type: "constant"
value: 0.2
}
}
}
layer {
name: "inception_3b/relu_5x5"
type: "ReLU"
bottom: "inception_3b/5x5"
top: "inception_3b/5x5"
}
layer {
name: "inception_3b/pool"
type: "Pooling"
bottom: "inception_3a/output"
top: "inception_3b/pool"
pooling_param {
pool: MAX
kernel_size: 3
stride: 1
pad: 1
}
}
layer {
name: "inception_3b/pool_proj"
type: "Convolution"
bottom: "inception_3b/pool"
top: "inception_3b/pool_proj"
param {
lr_mult: 1
decay_mult: 1
}
param {
lr_mult: 2
decay_mult: 0
}
convolution_param {
num_output: 64
kernel_size: 1
weight_filler {
type: "xavier"
std: 0.1
}
bias_filler {
type: "constant"
value: 0.2
}
}
}
layer {
name: "inception_3b/relu_pool_proj"
type: "ReLU"
bottom: "inception_3b/pool_proj"
top: "inception_3b/pool_proj"
}
layer {
name: "inception_3b/output"
type: "Concat"
bottom: "inception_3b/1x1"
bottom: "inception_3b/3x3"
bottom: "inception_3b/5x5"
bottom: "inception_3b/pool_proj"
top: "inception_3b/output"
}
layer {
name: "pool3/3x3_s2"
type: "Pooling"
bottom: "inception_3b/output"
top: "pool3/3x3_s2"
pooling_param {
pool: MAX
kernel_size: 3
stride: 2
}
}
layer {
name: "inception_4a/1x1"
type: "Convolution"
bottom: "pool3/3x3_s2"
top: "inception_4a/1x1"
param {
lr_mult: 1
decay_mult: 1
}
param {
lr_mult: 2
decay_mult: 0
}
convolution_param {
num_output: 192
kernel_size: 1
weight_filler {
type: "xavier"
std: 0.03
}
bias_filler {
type: "constant"
value: 0.2
}
}
}
layer {
name: "inception_4a/relu_1x1"
type: "ReLU"
bottom: "inception_4a/1x1"
top: "inception_4a/1x1"
}
layer {
name: "inception_4a/3x3_reduce"
type: "Convolution"
bottom: "pool3/3x3_s2"
top: "inception_4a/3x3_reduce"
param {
lr_mult: 1
decay_mult: 1
}
param {
lr_mult: 2
decay_mult: 0
}
convolution_param {
num_output: 96
kernel_size: 1
weight_filler {
type: "xavier"
std: 0.09
}
bias_filler {
type: "constant"
value: 0.2
}
}
}
layer {
name: "inception_4a/relu_3x3_reduce"
type: "ReLU"
bottom: "inception_4a/3x3_reduce"
top: "inception_4a/3x3_reduce"
}
layer {
name: "inception_4a/3x3"
type: "Convolution"
bottom: "inception_4a/3x3_reduce"
top: "inception_4a/3x3"
param {
lr_mult: 1
decay_mult: 1
}
param {
lr_mult: 2
decay_mult: 0
}
convolution_param {
num_output: 208
pad: 1
kernel_size: 3
weight_filler {
type: "xavier"
std: 0.03
}
bias_filler {
type: "constant"
value: 0.2
}
}
}
layer {
name: "inception_4a/relu_3x3"
type: "ReLU"
bottom: "inception_4a/3x3"
top: "inception_4a/3x3"
}
layer {
name: "inception_4a/5x5_reduce"
type: "Convolution"
bottom: "pool3/3x3_s2"
top: "inception_4a/5x5_reduce"
param {
lr_mult: 1
decay_mult: 1
}
param {
lr_mult: 2
decay_mult: 0
}
convolution_param {
num_output: 16
kernel_size: 1
weight_filler {
type: "xavier"
std: 0.2
}
bias_filler {
type: "constant"
value: 0.2
}
}
}
layer {
name: "inception_4a/relu_5x5_reduce"
type: "ReLU"
bottom: "inception_4a/5x5_reduce"
top: "inception_4a/5x5_reduce"
}
layer {
name: "inception_4a/5x5"
type: "Convolution"
bottom: "inception_4a/5x5_reduce"
top: "inception_4a/5x5"
param {
lr_mult: 1
decay_mult: 1
}
param {
lr_mult: 2
decay_mult: 0
}
convolution_param {
num_output: 48
pad: 2
kernel_size: 5
weight_filler {
type: "xavier"
std: 0.03
}
bias_filler {
type: "constant"
value: 0.2
}
}
}
layer {
name: "inception_4a/relu_5x5"
type: "ReLU"
bottom: "inception_4a/5x5"
top: "inception_4a/5x5"
}
layer {
name: "inception_4a/pool"
type: "Pooling"
bottom: "pool3/3x3_s2"
top: "inception_4a/pool"
pooling_param {
pool: MAX
kernel_size: 3
stride: 1
pad: 1
}
}
layer {
name: "inception_4a/pool_proj"
type: "Convolution"
bottom: "inception_4a/pool"
top: "inception_4a/pool_proj"
param {
lr_mult: 1
decay_mult: 1
}
param {
lr_mult: 2
decay_mult: 0
}
convolution_param {
num_output: 64
kernel_size: 1
weight_filler {
type: "xavier"
std: 0.1
}
bias_filler {
type: "constant"
value: 0.2
}
}
}
layer {
name: "inception_4a/relu_pool_proj"
type: "ReLU"
bottom: "inception_4a/pool_proj"
top: "inception_4a/pool_proj"
}
layer {
name: "inception_4a/output"
type: "Concat"
bottom: "inception_4a/1x1"
bottom: "inception_4a/3x3"
bottom: "inception_4a/5x5"
bottom: "inception_4a/pool_proj"
top: "inception_4a/output"
}
layer {
name: "loss1/ave_pool"
type: "Pooling"
bottom: "inception_4a/output"
top: "loss1/ave_pool"
pooling_param {
pool: AVE
kernel_size: 5
stride: 3
}
}
layer {
name: "loss1/conv"
type: "Convolution"
bottom: "loss1/ave_pool"
top: "loss1/conv"
param {
lr_mult: 1
decay_mult: 1
}
param {
lr_mult: 2
decay_mult: 0
}
convolution_param {
num_output: 128
kernel_size: 1
weight_filler {
type: "xavier"
std: 0.08
}
bias_filler {
type: "constant"
value: 0.2
}
}
}
layer {
name: "loss1/relu_conv"
type: "ReLU"
bottom: "loss1/conv"
top: "loss1/conv"
}
layer {
name: "loss1/fc"
type: "InnerProduct"
bottom: "loss1/conv"
top: "loss1/fc"
param {
lr_mult: 1
decay_mult: 1
}
param {
lr_mult: 2
decay_mult: 0
}
inner_product_param {
num_output: 1024
weight_filler {
type: "xavier"
std: 0.02
}
bias_filler {
type: "constant"
value: 0.2
}
}
}
layer {
name: "loss1/relu_fc"
type: "ReLU"
bottom: "loss1/fc"
top: "loss1/fc"
}
layer {
name: "loss1/drop_fc"
type: "Dropout"
bottom: "loss1/fc"
top: "loss1/fc"
dropout_param {
dropout_ratio: 0.7
}
}
layer {
name: "loss1/classifier"
type: "InnerProduct"
bottom: "loss1/fc"
top: "loss1/classifier"
param {
lr_mult: 1
decay_mult: 1
}
param {
lr_mult: 2
decay_mult: 0
}
inner_product_param {
num_output: 196
weight_filler {
type: "xavier"
std: 0.0009765625
}
bias_filler {
type: "constant"
value: 0
}
}
}
layer {
name: "loss1/loss"
type: "SoftmaxWithLoss"
bottom: "loss1/classifier"
bottom: "label"
top: "loss1/loss"
loss_weight: 0.3
}
layer {
name: "loss1/top-1"
type: "Accuracy"
bottom: "loss1/classifier"
bottom: "label"
top: "loss1/accuracy"
include {
phase: TEST
}
}
layer {
name: "loss1/top-5"
type: "Accuracy"
bottom: "loss1/classifier"
bottom: "label"
top: "loss1/accuracy-top5"
include {
phase: TEST
}
accuracy_param {
top_k: 5
}
}
layer {
name: "inception_4b/1x1"
type: "Convolution"
bottom: "inception_4a/output"
top: "inception_4b/1x1"
param {
lr_mult: 1
decay_mult: 1
}
param {
lr_mult: 2
decay_mult: 0
}
convolution_param {
num_output: 160
kernel_size: 1
weight_filler {
type: "xavier"
std: 0.03
}
bias_filler {
type: "constant"
value: 0.2
}
}
}
layer {
name: "inception_4b/relu_1x1"
type: "ReLU"
bottom: "inception_4b/1x1"
top: "inception_4b/1x1"
}
layer {
name: "inception_4b/3x3_reduce"
type: "Convolution"
bottom: "inception_4a/output"
top: "inception_4b/3x3_reduce"
param {
lr_mult: 1
decay_mult: 1
}
param {
lr_mult: 2
decay_mult: 0
}
convolution_param {
num_output: 112
kernel_size: 1
weight_filler {
type: "xavier"
std: 0.09
}
bias_filler {
type: "constant"
value: 0.2
}
}
}
layer {
name: "inception_4b/relu_3x3_reduce"
type: "ReLU"
bottom: "inception_4b/3x3_reduce"
top: "inception_4b/3x3_reduce"
}
layer {
name: "inception_4b/3x3"
type: "Convolution"
bottom: "inception_4b/3x3_reduce"
top: "inception_4b/3x3"
param {
lr_mult: 1
decay_mult: 1
}
param {
lr_mult: 2
decay_mult: 0
}
convolution_param {
num_output: 224
pad: 1
kernel_size: 3
weight_filler {
type: "xavier"
std: 0.03
}
bias_filler {
type: "constant"
value: 0.2
}
}
}
layer {
name: "inception_4b/relu_3x3"
type: "ReLU"
bottom: "inception_4b/3x3"
top: "inception_4b/3x3"
}
layer {
name: "inception_4b/5x5_reduce"
type: "Convolution"
bottom: "inception_4a/output"
top: "inception_4b/5x5_reduce"
param {
lr_mult: 1
decay_mult: 1
}
param {
lr_mult: 2
decay_mult: 0
}
convolution_param {
num_output: 24
kernel_size: 1
weight_filler {
type: "xavier"
std: 0.2
}
bias_filler {
type: "constant"
value: 0.2
}
}
}
layer {
name: "inception_4b/relu_5x5_reduce"
type: "ReLU"
bottom: "inception_4b/5x5_reduce"
top: "inception_4b/5x5_reduce"
}
layer {
name: "inception_4b/5x5"
type: "Convolution"
bottom: "inception_4b/5x5_reduce"
top: "inception_4b/5x5"
param {
lr_mult: 1
decay_mult: 1
}
param {
lr_mult: 2
decay_mult: 0
}
convolution_param {
num_output: 64
pad: 2
kernel_size: 5
weight_filler {
type: "xavier"
std: 0.03
}
bias_filler {
type: "constant"
value: 0.2
}
}
}
layer {
name: "inception_4b/relu_5x5"
type: "ReLU"
bottom: "inception_4b/5x5"
top: "inception_4b/5x5"
}
layer {
name: "inception_4b/pool"
type: "Pooling"
bottom: "inception_4a/output"
top: "inception_4b/pool"
pooling_param {
pool: MAX
kernel_size: 3
stride: 1
pad: 1
}
}
layer {
name: "inception_4b/pool_proj"
type: "Convolution"
bottom: "inception_4b/pool"
top: "inception_4b/pool_proj"
param {
lr_mult: 1
decay_mult: 1
}
param {
lr_mult: 2
decay_mult: 0
}
convolution_param {
num_output: 64
kernel_size: 1
weight_filler {
type: "xavier"
std: 0.1
}
bias_filler {
type: "constant"
value: 0.2
}
}
}
layer {
name: "inception_4b/relu_pool_proj"
type: "ReLU"
bottom: "inception_4b/pool_proj"
top: "inception_4b/pool_proj"
}
layer {
name: "inception_4b/output"
type: "Concat"
bottom: "inception_4b/1x1"
bottom: "inception_4b/3x3"
bottom: "inception_4b/5x5"
bottom: "inception_4b/pool_proj"
top: "inception_4b/output"
}
layer {
name: "inception_4c/1x1"
type: "Convolution"
bottom: "inception_4b/output"
top: "inception_4c/1x1"
param {
lr_mult: 1
decay_mult: 1
}
param {
lr_mult: 2
decay_mult: 0
}
convolution_param {
num_output: 128
kernel_size: 1
weight_filler {
type: "xavier"
std: 0.03
}
bias_filler {
type: "constant"
value: 0.2
}
}
}
layer {
name: "inception_4c/relu_1x1"
type: "ReLU"
bottom: "inception_4c/1x1"
top: "inception_4c/1x1"
}
layer {
name: "inception_4c/3x3_reduce"
type: "Convolution"
bottom: "inception_4b/output"
top: "inception_4c/3x3_reduce"
param {
lr_mult: 1
decay_mult: 1
}
param {
lr_mult: 2
decay_mult: 0
}
convolution_param {
num_output: 128
kernel_size: 1
weight_filler {
type: "xavier"
std: 0.09
}
bias_filler {
type: "constant"
value: 0.2
}
}
}
layer {
name: "inception_4c/relu_3x3_reduce"
type: "ReLU"
bottom: "inception_4c/3x3_reduce"
top: "inception_4c/3x3_reduce"
}
layer {
name: "inception_4c/3x3"
type: "Convolution"
bottom: "inception_4c/3x3_reduce"
top: "inception_4c/3x3"
param {
lr_mult: 1
decay_mult: 1
}
param {
lr_mult: 2
decay_mult: 0
}
convolution_param {
num_output: 256
pad: 1
kernel_size: 3
weight_filler {
type: "xavier"
std: 0.03
}
bias_filler {
type: "constant"
value: 0.2
}
}
}
layer {
name: "inception_4c/relu_3x3"
type: "ReLU"
bottom: "inception_4c/3x3"
top: "inception_4c/3x3"
}
layer {
name: "inception_4c/5x5_reduce"
type: "Convolution"
bottom: "inception_4b/output"
top: "inception_4c/5x5_reduce"
param {
lr_mult: 1
decay_mult: 1
}
param {
lr_mult: 2
decay_mult: 0
}
convolution_param {
num_output: 24
kernel_size: 1
weight_filler {
type: "xavier"
std: 0.2
}
bias_filler {
type: "constant"
value: 0.2
}
}
}
layer {
name: "inception_4c/relu_5x5_reduce"
type: "ReLU"
bottom: "inception_4c/5x5_reduce"
top: "inception_4c/5x5_reduce"
}
layer {
name: "inception_4c/5x5"
type: "Convolution"
bottom: "inception_4c/5x5_reduce"
top: "inception_4c/5x5"
param {
lr_mult: 1
decay_mult: 1
}
param {
lr_mult: 2
decay_mult: 0
}
convolution_param {
num_output: 64
pad: 2
kernel_size: 5
weight_filler {
type: "xavier"
std: 0.03
}
bias_filler {
type: "constant"
value: 0.2
}
}
}
layer {
name: "inception_4c/relu_5x5"
type: "ReLU"
bottom: "inception_4c/5x5"
top: "inception_4c/5x5"
}
layer {
name: "inception_4c/pool"
type: "Pooling"
bottom: "inception_4b/output"
top: "inception_4c/pool"
pooling_param {
pool: MAX
kernel_size: 3
stride: 1
pad: 1
}
}
layer {
name: "inception_4c/pool_proj"
type: "Convolution"
bottom: "inception_4c/pool"
top: "inception_4c/pool_proj"
param {
lr_mult: 1
decay_mult: 1
}
param {
lr_mult: 2
decay_mult: 0
}
convolution_param {
num_output: 64
kernel_size: 1
weight_filler {
type: "xavier"
std: 0.1
}
bias_filler {
type: "constant"
value: 0.2
}
}
}
layer {
name: "inception_4c/relu_pool_proj"
type: "ReLU"
bottom: "inception_4c/pool_proj"
top: "inception_4c/pool_proj"
}
layer {
name: "inception_4c/output"
type: "Concat"
bottom: "inception_4c/1x1"
bottom: "inception_4c/3x3"
bottom: "inception_4c/5x5"
bottom: "inception_4c/pool_proj"
top: "inception_4c/output"
}
layer {
name: "inception_4d/1x1"
type: "Convolution"
bottom: "inception_4c/output"
top: "inception_4d/1x1"
param {
lr_mult: 1
decay_mult: 1
}
param {
lr_mult: 2
decay_mult: 0
}
convolution_param {
num_output: 112
kernel_size: 1
weight_filler {
type: "xavier"
std: 0.03
}
bias_filler {
type: "constant"
value: 0.2
}
}
}
layer {
name: "inception_4d/relu_1x1"
type: "ReLU"
bottom: "inception_4d/1x1"
top: "inception_4d/1x1"
}
layer {
…
I0512 15:58:38.303826  5963 net.cpp:122] Setting up inception_4c/relu_5x5
I0512 15:58:38.303843  5963 net.cpp:129] Top shape: 16 64 14 14 (200704)
I0512 15:58:38.303848  5963 net.cpp:137] Memory required for data: 700688012
I0512 15:58:38.303854  5963 layer_factory.hpp:77] Creating layer inception_4c/pool
I0512 15:58:38.303866  5963 net.cpp:84] Creating Layer inception_4c/pool
I0512 15:58:38.303872  5963 net.cpp:406] inception_4c/pool <- inception_4b/output_inception_4b/output_0_split_3
I0512 15:58:38.303887  5963 net.cpp:380] inception_4c/pool -> inception_4c/pool
I0512 15:58:38.303966  5963 net.cpp:122] Setting up inception_4c/pool
I0512 15:58:38.303980  5963 net.cpp:129] Top shape: 16 512 14 14 (1605632)
I0512 15:58:38.303987  5963 net.cpp:137] Memory required for data: 707110540
I0512 15:58:38.303992  5963 layer_factory.hpp:77] Creating layer inception_4c/pool_proj
I0512 15:58:38.304009  5963 net.cpp:84] Creating Layer inception_4c/pool_proj
I0512 15:58:38.304015  5963 net.cpp:406] inception_4c/pool_proj <- inception_4c/pool
I0512 15:58:38.304026  5963 net.cpp:380] inception_4c/pool_proj -> inception_4c/pool_proj
I0512 15:58:38.308266  5963 net.cpp:122] Setting up inception_4c/pool_proj
I0512 15:58:38.308284  5963 net.cpp:129] Top shape: 16 64 14 14 (200704)
I0512 15:58:38.308290  5963 net.cpp:137] Memory required for data: 707913356
I0512 15:58:38.308301  5963 layer_factory.hpp:77] Creating layer inception_4c/relu_pool_proj
I0512 15:58:38.308312  5963 net.cpp:84] Creating Layer inception_4c/relu_pool_proj
I0512 15:58:38.308318  5963 net.cpp:406] inception_4c/relu_pool_proj <- inception_4c/pool_proj
I0512 15:58:38.308331  5963 net.cpp:367] inception_4c/relu_pool_proj -> inception_4c/pool_proj (in-place)
I0512 15:58:38.309397  5963 net.cpp:122] Setting up inception_4c/relu_pool_proj
I0512 15:58:38.309413  5963 net.cpp:129] Top shape: 16 64 14 14 (200704)
I0512 15:58:38.309419  5963 net.cpp:137] Memory required for data: 708716172
I0512 15:58:38.309425  5963 layer_factory.hpp:77] Creating layer inception_4c/output
I0512 15:58:38.309440  5963 net.cpp:84] Creating Layer inception_4c/output
I0512 15:58:38.309448  5963 net.cpp:406] inception_4c/output <- inception_4c/1x1
I0512 15:58:38.309455  5963 net.cpp:406] inception_4c/output <- inception_4c/3x3
I0512 15:58:38.309463  5963 net.cpp:406] inception_4c/output <- inception_4c/5x5
I0512 15:58:38.309469  5963 net.cpp:406] inception_4c/output <- inception_4c/pool_proj
I0512 15:58:38.309478  5963 net.cpp:380] inception_4c/output -> inception_4c/output
I0512 15:58:38.309559  5963 net.cpp:122] Setting up inception_4c/output
I0512 15:58:38.309571  5963 net.cpp:129] Top shape: 16 512 14 14 (1605632)
I0512 15:58:38.309576  5963 net.cpp:137] Memory required for data: 715138700
I0512 15:58:38.309581  5963 layer_factory.hpp:77] Creating layer inception_4c/output_inception_4c/output_0_split
I0512 15:58:38.309593  5963 net.cpp:84] Creating Layer inception_4c/output_inception_4c/output_0_split
I0512 15:58:38.309599  5963 net.cpp:406] inception_4c/output_inception_4c/output_0_split <- inception_4c/output
I0512 15:58:38.309608  5963 net.cpp:380] inception_4c/output_inception_4c/output_0_split -> inception_4c/output_inception_4c/output_0_split_0
I0512 15:58:38.309623  5963 net.cpp:380] inception_4c/output_inception_4c/output_0_split -> inception_4c/output_inception_4c/output_0_split_1
I0512 15:58:38.309633  5963 net.cpp:380] inception_4c/output_inception_4c/output_0_split -> inception_4c/output_inception_4c/output_0_split_2
I0512 15:58:38.309644  5963 net.cpp:380] inception_4c/output_inception_4c/output_0_split -> inception_4c/output_inception_4c/output_0_split_3
I0512 15:58:38.309744  5963 net.cpp:122] Setting up inception_4c/output_inception_4c/output_0_split
I0512 15:58:38.309756  5963 net.cpp:129] Top shape: 16 512 14 14 (1605632)
I0512 15:58:38.309762  5963 net.cpp:129] Top shape: 16 512 14 14 (1605632)
I0512 15:58:38.309769  5963 net.cpp:129] Top shape: 16 512 14 14 (1605632)
I0512 15:58:38.309777  5963 net.cpp:129] Top shape: 16 512 14 14 (1605632)
I0512 15:58:38.309782  5963 net.cpp:137] Memory required for data: 740828812
I0512 15:58:38.309787  5963 layer_factory.hpp:77] Creating layer inception_4d/1x1
I0512 15:58:38.309806  5963 net.cpp:84] Creating Layer inception_4d/1x1
I0512 15:58:38.309813  5963 net.cpp:406] inception_4d/1x1 <- inception_4c/output_inception_4c/output_0_split_0
I0512 15:58:38.309823  5963 net.cpp:380] inception_4d/1x1 -> inception_4d/1x1
I0512 15:58:38.314677  5963 net.cpp:122] Setting up inception_4d/1x1
I0512 15:58:38.314694  5963 net.cpp:129] Top shape: 16 112 14 14 (351232)
I0512 15:58:38.314699  5963 net.cpp:137] Memory required for data: 742233740
I0512 15:58:38.314711  5963 layer_factory.hpp:77] Creating layer inception_4d/relu_1x1
I0512 15:58:38.314723  5963 net.cpp:84] Creating Layer inception_4d/relu_1x1
I0512 15:58:38.314729  5963 net.cpp:406] inception_4d/relu_1x1 <- inception_4d/1x1
I0512 15:58:38.314743  5963 net.cpp:367] inception_4d/relu_1x1 -> inception_4d/1x1 (in-place)
I0512 15:58:38.315757  5963 net.cpp:122] Setting up inception_4d/relu_1x1
I0512 15:58:38.315773  5963 net.cpp:129] Top shape: 16 112 14 14 (351232)
I0512 15:58:38.315778  5963 net.cpp:137] Memory required for data: 743638668
I0512 15:58:38.315785  5963 layer_factory.hpp:77] Creating layer inception_4d/3x3_reduce
I0512 15:58:38.315804  5963 net.cpp:84] Creating Layer inception_4d/3x3_reduce
I0512 15:58:38.315810  5963 net.cpp:406] inception_4d/3x3_reduce <- inception_4c/output_inception_4c/output_0_split_1
I0512 15:58:38.315824  5963 net.cpp:380] inception_4d/3x3_reduce -> inception_4d/3x3_reduce
I0512 15:58:38.323812  5963 net.cpp:122] Setting up inception_4d/3x3_reduce
I0512 15:58:38.323835  5963 net.cpp:129] Top shape: 16 144 14 14 (451584)
I0512 15:58:38.323841  5963 net.cpp:137] Memory required for data: 745445004
I0512 15:58:38.323854  5963 layer_factory.hpp:77] Creating layer inception_4d/relu_3x3_reduce
I0512 15:58:38.323866  5963 net.cpp:84] Creating Layer inception_4d/relu_3x3_reduce
I0512 15:58:38.323873  5963 net.cpp:406] inception_4d/relu_3x3_reduce <- inception_4d/3x3_reduce
I0512 15:58:38.323887  5963 net.cpp:367] inception_4d/relu_3x3_reduce -> inception_4d/3x3_reduce (in-place)
I0512 15:58:38.324640  5963 net.cpp:122] Setting up inception_4d/relu_3x3_reduce
I0512 15:58:38.324656  5963 net.cpp:129] Top shape: 16 144 14 14 (451584)
I0512 15:58:38.324661  5963 net.cpp:137] Memory required for data: 747251340
I0512 15:58:38.324667  5963 layer_factory.hpp:77] Creating layer inception_4d/3x3
I0512 15:58:38.324718  5963 net.cpp:84] Creating Layer inception_4d/3x3
I0512 15:58:38.324726  5963 net.cpp:406] inception_4d/3x3 <- inception_4d/3x3_reduce
I0512 15:58:38.324740  5963 net.cpp:380] inception_4d/3x3 -> inception_4d/3x3
I0512 15:58:38.334861  5963 net.cpp:122] Setting up inception_4d/3x3
I0512 15:58:38.334884  5963 net.cpp:129] Top shape: 16 288 14 14 (903168)
I0512 15:58:38.334889  5963 net.cpp:137] Memory required for data: 750864012
I0512 15:58:38.334903  5963 layer_factory.hpp:77] Creating layer inception_4d/relu_3x3
I0512 15:58:38.334918  5963 net.cpp:84] Creating Layer inception_4d/relu_3x3
I0512 15:58:38.334925  5963 net.cpp:406] inception_4d/relu_3x3 <- inception_4d/3x3
I0512 15:58:38.334939  5963 net.cpp:367] inception_4d/relu_3x3 -> inception_4d/3x3 (in-place)
I0512 15:58:38.335685  5963 net.cpp:122] Setting up inception_4d/relu_3x3
I0512 15:58:38.335700  5963 net.cpp:129] Top shape: 16 288 14 14 (903168)
I0512 15:58:38.335706  5963 net.cpp:137] Memory required for data: 754476684
I0512 15:58:38.335711  5963 layer_factory.hpp:77] Creating layer inception_4d/5x5_reduce
I0512 15:58:38.335729  5963 net.cpp:84] Creating Layer inception_4d/5x5_reduce
I0512 15:58:38.335737  5963 net.cpp:406] inception_4d/5x5_reduce <- inception_4c/output_inception_4c/output_0_split_2
I0512 15:58:38.335752  5963 net.cpp:380] inception_4d/5x5_reduce -> inception_4d/5x5_reduce
I0512 15:58:38.351025  5963 net.cpp:122] Setting up inception_4d/5x5_reduce
I0512 15:58:38.351058  5963 net.cpp:129] Top shape: 16 32 14 14 (100352)
I0512 15:58:38.351063  5963 net.cpp:137] Memory required for data: 754878092
I0512 15:58:38.351080  5963 layer_factory.hpp:77] Creating layer inception_4d/relu_5x5_reduce
I0512 15:58:38.351099  5963 net.cpp:84] Creating Layer inception_4d/relu_5x5_reduce
I0512 15:58:38.351106  5963 net.cpp:406] inception_4d/relu_5x5_reduce <- inception_4d/5x5_reduce
I0512 15:58:38.351119  5963 net.cpp:367] inception_4d/relu_5x5_reduce -> inception_4d/5x5_reduce (in-place)
I0512 15:58:38.352268  5963 net.cpp:122] Setting up inception_4d/relu_5x5_reduce
I0512 15:58:38.352288  5963 net.cpp:129] Top shape: 16 32 14 14 (100352)
I0512 15:58:38.352293  5963 net.cpp:137] Memory required for data: 755279500
I0512 15:58:38.352299  5963 layer_factory.hpp:77] Creating layer inception_4d/5x5
I0512 15:58:38.352319  5963 net.cpp:84] Creating Layer inception_4d/5x5
I0512 15:58:38.352326  5963 net.cpp:406] inception_4d/5x5 <- inception_4d/5x5_reduce
I0512 15:58:38.352340  5963 net.cpp:380] inception_4d/5x5 -> inception_4d/5x5
I0512 15:58:38.356846  5963 net.cpp:122] Setting up inception_4d/5x5
I0512 15:58:38.356864  5963 net.cpp:129] Top shape: 16 64 14 14 (200704)
I0512 15:58:38.356869  5963 net.cpp:137] Memory required for data: 756082316
I0512 15:58:38.356881  5963 layer_factory.hpp:77] Creating layer inception_4d/relu_5x5
I0512 15:58:38.356892  5963 net.cpp:84] Creating Layer inception_4d/relu_5x5
I0512 15:58:38.356899  5963 net.cpp:406] inception_4d/relu_5x5 <- inception_4d/5x5
I0512 15:58:38.356911  5963 net.cpp:367] inception_4d/relu_5x5 -> inception_4d/5x5 (in-place)
I0512 15:58:38.357965  5963 net.cpp:122] Setting up inception_4d/relu_5x5
I0512 15:58:38.357982  5963 net.cpp:129] Top shape: 16 64 14 14 (200704)
I0512 15:58:38.357988  5963 net.cpp:137] Memory required for data: 756885132
I0512 15:58:38.357995  5963 layer_factory.hpp:77] Creating layer inception_4d/pool
I0512 15:58:38.358011  5963 net.cpp:84] Creating Layer inception_4d/pool
I0512 15:58:38.358019  5963 net.cpp:406] inception_4d/pool <- inception_4c/output_inception_4c/output_0_split_3
I0512 15:58:38.358031  5963 net.cpp:380] inception_4d/pool -> inception_4d/pool
I0512 15:58:38.358112  5963 net.cpp:122] Setting up inception_4d/pool
I0512 15:58:38.358124  5963 net.cpp:129] Top shape: 16 512 14 14 (1605632)
I0512 15:58:38.358129  5963 net.cpp:137] Memory required for data: 763307660
I0512 15:58:38.358134  5963 layer_factory.hpp:77] Creating layer inception_4d/pool_proj
I0512 15:58:38.358150  5963 net.cpp:84] Creating Layer inception_4d/pool_proj
I0512 15:58:38.358156  5963 net.cpp:406] inception_4d/pool_proj <- inception_4d/pool
I0512 15:58:38.358202  5963 net.cpp:380] inception_4d/pool_proj -> inception_4d/pool_proj
I0512 15:58:38.362453  5963 net.cpp:122] Setting up inception_4d/pool_proj
I0512 15:58:38.362470  5963 net.cpp:129] Top shape: 16 64 14 14 (200704)
I0512 15:58:38.362476  5963 net.cpp:137] Memory required for data: 764110476
I0512 15:58:38.362488  5963 layer_factory.hpp:77] Creating layer inception_4d/relu_pool_proj
I0512 15:58:38.362498  5963 net.cpp:84] Creating Layer inception_4d/relu_pool_proj
I0512 15:58:38.362505  5963 net.cpp:406] inception_4d/relu_pool_proj <- inception_4d/pool_proj
I0512 15:58:38.362517  5963 net.cpp:367] inception_4d/relu_pool_proj -> inception_4d/pool_proj (in-place)
I0512 15:58:38.363581  5963 net.cpp:122] Setting up inception_4d/relu_pool_proj
I0512 15:58:38.363605  5963 net.cpp:129] Top shape: 16 64 14 14 (200704)
I0512 15:58:38.363610  5963 net.cpp:137] Memory required for data: 764913292
I0512 15:58:38.363615  5963 layer_factory.hpp:77] Creating layer inception_4d/output
I0512 15:58:38.363626  5963 net.cpp:84] Creating Layer inception_4d/output
I0512 15:58:38.363633  5963 net.cpp:406] inception_4d/output <- inception_4d/1x1
I0512 15:58:38.363641  5963 net.cpp:406] inception_4d/output <- inception_4d/3x3
I0512 15:58:38.363648  5963 net.cpp:406] inception_4d/output <- inception_4d/5x5
I0512 15:58:38.363656  5963 net.cpp:406] inception_4d/output <- inception_4d/pool_proj
I0512 15:58:38.363667  5963 net.cpp:380] inception_4d/output -> inception_4d/output
I0512 15:58:38.363724  5963 net.cpp:122] Setting up inception_4d/output
I0512 15:58:38.363734  5963 net.cpp:129] Top shape: 16 528 14 14 (1655808)
I0512 15:58:38.363739  5963 net.cpp:137] Memory required for data: 771536524
I0512 15:58:38.363745  5963 layer_factory.hpp:77] Creating layer inception_4d/output_inception_4d/output_0_split
I0512 15:58:38.363755  5963 net.cpp:84] Creating Layer inception_4d/output_inception_4d/output_0_split
I0512 15:58:38.363761  5963 net.cpp:406] inception_4d/output_inception_4d/output_0_split <- inception_4d/output
I0512 15:58:38.363773  5963 net.cpp:380] inception_4d/output_inception_4d/output_0_split -> inception_4d/output_inception_4d/output_0_split_0
I0512 15:58:38.363785  5963 net.cpp:380] inception_4d/output_inception_4d/output_0_split -> inception_4d/output_inception_4d/output_0_split_1
I0512 15:58:38.363797  5963 net.cpp:380] inception_4d/output_inception_4d/output_0_split -> inception_4d/output_inception_4d/output_0_split_2
I0512 15:58:38.363811  5963 net.cpp:380] inception_4d/output_inception_4d/output_0_split -> inception_4d/output_inception_4d/output_0_split_3
I0512 15:58:38.363822  5963 net.cpp:380] inception_4d/output_inception_4d/output_0_split -> inception_4d/output_inception_4d/output_0_split_4
I0512 15:58:38.363939  5963 net.cpp:122] Setting up inception_4d/output_inception_4d/output_0_split
I0512 15:58:38.363948  5963 net.cpp:129] Top shape: 16 528 14 14 (1655808)
I0512 15:58:38.363955  5963 net.cpp:129] Top shape: 16 528 14 14 (1655808)
I0512 15:58:38.363962  5963 net.cpp:129] Top shape: 16 528 14 14 (1655808)
I0512 15:58:38.363970  5963 net.cpp:129] Top shape: 16 528 14 14 (1655808)
I0512 15:58:38.363977  5963 net.cpp:129] Top shape: 16 528 14 14 (1655808)
I0512 15:58:38.363982  5963 net.cpp:137] Memory required for data: 804652684
I0512 15:58:38.363987  5963 layer_factory.hpp:77] Creating layer loss2/ave_pool
I0512 15:58:38.363996  5963 net.cpp:84] Creating Layer loss2/ave_pool
I0512 15:58:38.364001  5963 net.cpp:406] loss2/ave_pool <- inception_4d/output_inception_4d/output_0_split_0
I0512 15:58:38.364013  5963 net.cpp:380] loss2/ave_pool -> loss2/ave_pool
I0512 15:58:38.368295  5963 net.cpp:122] Setting up loss2/ave_pool
I0512 15:58:38.368317  5963 net.cpp:129] Top shape: 16 528 4 4 (135168)
I0512 15:58:38.368324  5963 net.cpp:137] Memory required for data: 805193356
I0512 15:58:38.368330  5963 layer_factory.hpp:77] Creating layer loss2/conv
I0512 15:58:38.368352  5963 net.cpp:84] Creating Layer loss2/conv
I0512 15:58:38.368360  5963 net.cpp:406] loss2/conv <- loss2/ave_pool
I0512 15:58:38.368400  5963 net.cpp:380] loss2/conv -> loss2/conv
I0512 15:58:38.373745  5963 net.cpp:122] Setting up loss2/conv
I0512 15:58:38.373769  5963 net.cpp:129] Top shape: 16 128 4 4 (32768)
I0512 15:58:38.373775  5963 net.cpp:137] Memory required for data: 805324428
I0512 15:58:38.373787  5963 layer_factory.hpp:77] Creating layer loss2/relu_conv
I0512 15:58:38.373800  5963 net.cpp:84] Creating Layer loss2/relu_conv
I0512 15:58:38.373806  5963 net.cpp:406] loss2/relu_conv <- loss2/conv
I0512 15:58:38.373816  5963 net.cpp:367] loss2/relu_conv -> loss2/conv (in-place)
I0512 15:58:38.374897  5963 net.cpp:122] Setting up loss2/relu_conv
I0512 15:58:38.374912  5963 net.cpp:129] Top shape: 16 128 4 4 (32768)
I0512 15:58:38.374918  5963 net.cpp:137] Memory required for data: 805455500
I0512 15:58:38.374924  5963 layer_factory.hpp:77] Creating layer loss2/fc
I0512 15:58:38.374938  5963 net.cpp:84] Creating Layer loss2/fc
I0512 15:58:38.374944  5963 net.cpp:406] loss2/fc <- loss2/conv
I0512 15:58:38.374956  5963 net.cpp:380] loss2/fc -> loss2/fc
I0512 15:58:38.403470  5963 net.cpp:122] Setting up loss2/fc
I0512 15:58:38.403502  5963 net.cpp:129] Top shape: 16 1024 (16384)
I0512 15:58:38.403507  5963 net.cpp:137] Memory required for data: 805521036
I0512 15:58:38.403523  5963 layer_factory.hpp:77] Creating layer loss2/relu_fc
I0512 15:58:38.403542  5963 net.cpp:84] Creating Layer loss2/relu_fc
I0512 15:58:38.403550  5963 net.cpp:406] loss2/relu_fc <- loss2/fc
I0512 15:58:38.403561  5963 net.cpp:367] loss2/relu_fc -> loss2/fc (in-place)
I0512 15:58:38.404968  5963 net.cpp:122] Setting up loss2/relu_fc
I0512 15:58:38.404987  5963 net.cpp:129] Top shape: 16 1024 (16384)
I0512 15:58:38.404994  5963 net.cpp:137] Memory required for data: 805586572
I0512 15:58:38.404999  5963 layer_factory.hpp:77] Creating layer loss2/drop_fc
I0512 15:58:38.405010  5963 net.cpp:84] Creating Layer loss2/drop_fc
I0512 15:58:38.405016  5963 net.cpp:406] loss2/drop_fc <- loss2/fc
I0512 15:58:38.405025  5963 net.cpp:367] loss2/drop_fc -> loss2/fc (in-place)
I0512 15:58:38.405076  5963 net.cpp:122] Setting up loss2/drop_fc
I0512 15:58:38.405084  5963 net.cpp:129] Top shape: 16 1024 (16384)
I0512 15:58:38.405089  5963 net.cpp:137] Memory required for data: 805652108
I0512 15:58:38.405094  5963 layer_factory.hpp:77] Creating layer loss2/classifier
I0512 15:58:38.405109  5963 net.cpp:84] Creating Layer loss2/classifier
I0512 15:58:38.405115  5963 net.cpp:406] loss2/classifier <- loss2/fc
I0512 15:58:38.405124  5963 net.cpp:380] loss2/classifier -> loss2/classifier
I0512 15:58:38.408972  5963 net.cpp:122] Setting up loss2/classifier
I0512 15:58:38.408990  5963 net.cpp:129] Top shape: 16 196 (3136)
I0512 15:58:38.408995  5963 net.cpp:137] Memory required for data: 805664652
I0512 15:58:38.409008  5963 layer_factory.hpp:77] Creating layer loss2/classifier_loss2/classifier_0_split
I0512 15:58:38.409021  5963 net.cpp:84] Creating Layer loss2/classifier_loss2/classifier_0_split
I0512 15:58:38.409027  5963 net.cpp:406] loss2/classifier_loss2/classifier_0_split <- loss2/classifier
I0512 15:58:38.409040  5963 net.cpp:380] loss2/classifier_loss2/classifier_0_split -> loss2/classifier_loss2/classifier_0_split_0
I0512 15:58:38.409054  5963 net.cpp:380] loss2/classifier_loss2/classifier_0_split -> loss2/classifier_loss2/classifier_0_split_1
I0512 15:58:38.409065  5963 net.cpp:380] loss2/classifier_loss2/classifier_0_split -> loss2/classifier_loss2/classifier_0_split_2
I0512 15:58:38.409155  5963 net.cpp:122] Setting up loss2/classifier_loss2/classifier_0_split
I0512 15:58:38.409164  5963 net.cpp:129] Top shape: 16 196 (3136)
I0512 15:58:38.409171  5963 net.cpp:129] Top shape: 16 196 (3136)
I0512 15:58:38.409178  5963 net.cpp:129] Top shape: 16 196 (3136)
I0512 15:58:38.409183  5963 net.cpp:137] Memory required for data: 805702284
I0512 15:58:38.409188  5963 layer_factory.hpp:77] Creating layer loss2/loss
I0512 15:58:38.409198  5963 net.cpp:84] Creating Layer loss2/loss
I0512 15:58:38.409204  5963 net.cpp:406] loss2/loss <- loss2/classifier_loss2/classifier_0_split_0
I0512 15:58:38.409246  5963 net.cpp:406] loss2/loss <- label_val-data_1_split_3
…
I0512 15:58:38.410359  5963 net.cpp:122] Setting up loss2/top-5
I0512 15:58:38.410367  5963 net.cpp:129] Top shape: (1)
I0512 15:58:38.410372  5963 net.cpp:137] Memory required for data: 805702296
I0512 15:58:38.410377  5963 layer_factory.hpp:77] Creating layer inception_4e/1x1
I0512 15:58:38.410395  5963 net.cpp:84] Creating Layer inception_4e/1x1
I0512 15:58:38.410401  5963 net.cpp:406] inception_4e/1x1 <- inception_4d/output_inception_4d/output_0_split_1
I0512 15:58:38.410414  5963 net.cpp:380] inception_4e/1x1 -> inception_4e/1x1
I0512 15:58:38.416232  5963 net.cpp:122] Setting up inception_4e/1x1
I0512 15:58:38.416250  5963 net.cpp:129] Top shape: 16 256 14 14 (802816)
I0512 15:58:38.416256  5963 net.cpp:137] Memory required for data: 808913560
I0512 15:58:38.416268  5963 layer_factory.hpp:77] Creating layer inception_4e/relu_1x1
I0512 15:58:38.416278  5963 net.cpp:84] Creating Layer inception_4e/relu_1x1
I0512 15:58:38.416285  5963 net.cpp:406] inception_4e/relu_1x1 <- inception_4e/1x1
I0512 15:58:38.416294  5963 net.cpp:367] inception_4e/relu_1x1 -> inception_4e/1x1 (in-place)
I0512 15:58:38.419314  5963 net.cpp:122] Setting up inception_4e/relu_1x1
I0512 15:58:38.419327  5963 net.cpp:129] Top shape: 16 256 14 14 (802816)
I0512 15:58:38.419330  5963 net.cpp:137] Memory required for data: 812124824
I0512 15:58:38.419334  5963 layer_factory.hpp:77] Creating layer inception_4e/3x3_reduce
I0512 15:58:38.419370  5963 net.cpp:84] Creating Layer inception_4e/3x3_reduce
I0512 15:58:38.419376  5963 net.cpp:406] inception_4e/3x3_reduce <- inception_4d/output_inception_4d/output_0_split_2
I0512 15:58:38.419382  5963 net.cpp:380] inception_4e/3x3_reduce -> inception_4e/3x3_reduce
I0512 15:58:38.422026  5963 net.cpp:122] Setting up inception_4e/3x3_reduce
I0512 15:58:38.422036  5963 net.cpp:129] Top shape: 16 160 14 14 (501760)
I0512 15:58:38.422039  5963 net.cpp:137] Memory required for data: 814131864
I0512 15:58:38.422046  5963 layer_factory.hpp:77] Creating layer inception_4e/relu_3x3_reduce
I0512 15:58:38.422052  5963 net.cpp:84] Creating Layer inception_4e/relu_3x3_reduce
I0512 15:58:38.422056  5963 net.cpp:406] inception_4e/relu_3x3_reduce <- inception_4e/3x3_reduce
I0512 15:58:38.422062  5963 net.cpp:367] inception_4e/relu_3x3_reduce -> inception_4e/3x3_reduce (in-place)
I0512 15:58:38.422631  5963 net.cpp:122] Setting up inception_4e/relu_3x3_reduce
I0512 15:58:38.422641  5963 net.cpp:129] Top shape: 16 160 14 14 (501760)
I0512 15:58:38.422643  5963 net.cpp:137] Memory required for data: 816138904
I0512 15:58:38.422647  5963 layer_factory.hpp:77] Creating layer inception_4e/3x3
I0512 15:58:38.422674  5963 net.cpp:84] Creating Layer inception_4e/3x3
I0512 15:58:38.422678  5963 net.cpp:406] inception_4e/3x3 <- inception_4e/3x3_reduce
I0512 15:58:38.422684  5963 net.cpp:380] inception_4e/3x3 -> inception_4e/3x3
I0512 15:58:38.427700  5963 net.cpp:122] Setting up inception_4e/3x3
I0512 15:58:38.427709  5963 net.cpp:129] Top shape: 16 320 14 14 (1003520)
I0512 15:58:38.427712  5963 net.cpp:137] Memory required for data: 820152984
I0512 15:58:38.427718  5963 layer_factory.hpp:77] Creating layer inception_4e/relu_3x3
I0512 15:58:38.427724  5963 net.cpp:84] Creating Layer inception_4e/relu_3x3
I0512 15:58:38.427728  5963 net.cpp:406] inception_4e/relu_3x3 <- inception_4e/3x3
I0512 15:58:38.427734  5963 net.cpp:367] inception_4e/relu_3x3 -> inception_4e/3x3 (in-place)
I0512 15:58:38.428310  5963 net.cpp:122] Setting up inception_4e/relu_3x3
I0512 15:58:38.428319  5963 net.cpp:129] Top shape: 16 320 14 14 (1003520)
I0512 15:58:38.428323  5963 net.cpp:137] Memory required for data: 824167064
I0512 15:58:38.428326  5963 layer_factory.hpp:77] Creating layer inception_4e/5x5_reduce
I0512 15:58:38.428336  5963 net.cpp:84] Creating Layer inception_4e/5x5_reduce
I0512 15:58:38.428339  5963 net.cpp:406] inception_4e/5x5_reduce <- inception_4d/output_inception_4d/output_0_split_3
I0512 15:58:38.428347  5963 net.cpp:380] inception_4e/5x5_reduce -> inception_4e/5x5_reduce
I0512 15:58:38.432188  5963 net.cpp:122] Setting up inception_4e/5x5_reduce
I0512 15:58:38.432200  5963 net.cpp:129] Top shape: 16 32 14 14 (100352)
I0512 15:58:38.432202  5963 net.cpp:137] Memory required for data: 824568472
I0512 15:58:38.432210  5963 layer_factory.hpp:77] Creating layer inception_4e/relu_5x5_reduce
I0512 15:58:38.432217  5963 net.cpp:84] Creating Layer inception_4e/relu_5x5_reduce
I0512 15:58:38.432220  5963 net.cpp:406] inception_4e/relu_5x5_reduce <- inception_4e/5x5_reduce
I0512 15:58:38.432227  5963 net.cpp:367] inception_4e/relu_5x5_reduce -> inception_4e/5x5_reduce (in-place)
I0512 15:58:38.432811  5963 net.cpp:122] Setting up inception_4e/relu_5x5_reduce
I0512 15:58:38.432821  5963 net.cpp:129] Top shape: 16 32 14 14 (100352)
I0512 15:58:38.432823  5963 net.cpp:137] Memory required for data: 824969880
I0512 15:58:38.432826  5963 layer_factory.hpp:77] Creating layer inception_4e/5x5
I0512 15:58:38.432837  5963 net.cpp:84] Creating Layer inception_4e/5x5
I0512 15:58:38.432840  5963 net.cpp:406] inception_4e/5x5 <- inception_4e/5x5_reduce
I0512 15:58:38.432847  5963 net.cpp:380] inception_4e/5x5 -> inception_4e/5x5
I0512 15:58:38.435711  5963 net.cpp:122] Setting up inception_4e/5x5
I0512 15:58:38.435721  5963 net.cpp:129] Top shape: 16 128 14 14 (401408)
I0512 15:58:38.435724  5963 net.cpp:137] Memory required for data: 826575512
I0512 15:58:38.435730  5963 layer_factory.hpp:77] Creating layer inception_4e/relu_5x5
I0512 15:58:38.435737  5963 net.cpp:84] Creating Layer inception_4e/relu_5x5
I0512 15:58:38.435741  5963 net.cpp:406] inception_4e/relu_5x5 <- inception_4e/5x5
I0512 15:58:38.435746  5963 net.cpp:367] inception_4e/relu_5x5 -> inception_4e/5x5 (in-place)
I0512 15:58:38.436131  5963 net.cpp:122] Setting up inception_4e/relu_5x5
I0512 15:58:38.436141  5963 net.cpp:129] Top shape: 16 128 14 14 (401408)
I0512 15:58:38.436144  5963 net.cpp:137] Memory required for data: 828181144
I0512 15:58:38.436147  5963 layer_factory.hpp:77] Creating layer inception_4e/pool
I0512 15:58:38.436154  5963 net.cpp:84] Creating Layer inception_4e/pool
I0512 15:58:38.436157  5963 net.cpp:406] inception_4e/pool <- inception_4d/output_inception_4d/output_0_split_4
I0512 15:58:38.436164  5963 net.cpp:380] inception_4e/pool -> inception_4e/pool
I0512 15:58:38.436206  5963 net.cpp:122] Setting up inception_4e/pool
I0512 15:58:38.436213  5963 net.cpp:129] Top shape: 16 528 14 14 (1655808)
I0512 15:58:38.436214  5963 net.cpp:137] Memory required for data: 834804376
I0512 15:58:38.436218  5963 layer_factory.hpp:77] Creating layer inception_4e/pool_proj
I0512 15:58:38.436226  5963 net.cpp:84] Creating Layer inception_4e/pool_proj
I0512 15:58:38.436247  5963 net.cpp:406] inception_4e/pool_proj <- inception_4e/pool
I0512 15:58:38.436255  5963 net.cpp:380] inception_4e/pool_proj -> inception_4e/pool_proj
I0512 15:58:38.439508  5963 net.cpp:122] Setting up inception_4e/pool_proj
I0512 15:58:38.439518  5963 net.cpp:129] Top shape: 16 128 14 14 (401408)
I0512 15:58:38.439522  5963 net.cpp:137] Memory required for data: 836410008
I0512 15:58:38.439527  5963 layer_factory.hpp:77] Creating layer inception_4e/relu_pool_proj
I0512 15:58:38.439534  5963 net.cpp:84] Creating Layer inception_4e/relu_pool_proj
I0512 15:58:38.439538  5963 net.cpp:406] inception_4e/relu_pool_proj <- inception_4e/pool_proj
I0512 15:58:38.439543  5963 net.cpp:367] inception_4e/relu_pool_proj -> inception_4e/pool_proj (in-place)
I0512 15:58:38.441824  5963 net.cpp:122] Setting up inception_4e/relu_pool_proj
I0512 15:58:38.441834  5963 net.cpp:129] Top shape: 16 128 14 14 (401408)
I0512 15:58:38.441838  5963 net.cpp:137] Memory required for data: 838015640
I0512 15:58:38.441840  5963 layer_factory.hpp:77] Creating layer inception_4e/output
I0512 15:58:38.441848  5963 net.cpp:84] Creating Layer inception_4e/output
I0512 15:58:38.441853  5963 net.cpp:406] inception_4e/output <- inception_4e/1x1
I0512 15:58:38.441857  5963 net.cpp:406] inception_4e/output <- inception_4e/3x3
I0512 15:58:38.441861  5963 net.cpp:406] inception_4e/output <- inception_4e/5x5
I0512 15:58:38.441864  5963 net.cpp:406] inception_4e/output <- inception_4e/pool_proj
I0512 15:58:38.441870  5963 net.cpp:380] inception_4e/output -> inception_4e/output
I0512 15:58:38.441902  5963 net.cpp:122] Setting up inception_4e/output
I0512 15:58:38.441907  5963 net.cpp:129] Top shape: 16 832 14 14 (2609152)
I0512 15:58:38.441910  5963 net.cpp:137] Memory required for data: 848452248
I0512 15:58:38.441912  5963 layer_factory.hpp:77] Creating layer pool4/3x3_s2
I0512 15:58:38.441920  5963 net.cpp:84] Creating Layer pool4/3x3_s2
I0512 15:58:38.441923  5963 net.cpp:406] pool4/3x3_s2 <- inception_4e/output
I0512 15:58:38.441928  5963 net.cpp:380] pool4/3x3_s2 -> pool4/3x3_s2
I0512 15:58:38.441964  5963 net.cpp:122] Setting up pool4/3x3_s2
I0512 15:58:38.441969  5963 net.cpp:129] Top shape: 16 832 7 7 (652288)
I0512 15:58:38.441972  5963 net.cpp:137] Memory required for data: 851061400
I0512 15:58:38.441974  5963 layer_factory.hpp:77] Creating layer pool4/3x3_s2_pool4/3x3_s2_0_split
I0512 15:58:38.441979  5963 net.cpp:84] Creating Layer pool4/3x3_s2_pool4/3x3_s2_0_split
I0512 15:58:38.441982  5963 net.cpp:406] pool4/3x3_s2_pool4/3x3_s2_0_split <- pool4/3x3_s2
I0512 15:58:38.441988  5963 net.cpp:380] pool4/3x3_s2_pool4/3x3_s2_0_split -> pool4/3x3_s2_pool4/3x3_s2_0_split_0
I0512 15:58:38.441994  5963 net.cpp:380] pool4/3x3_s2_pool4/3x3_s2_0_split -> pool4/3x3_s2_pool4/3x3_s2_0_split_1
I0512 15:58:38.441999  5963 net.cpp:380] pool4/3x3_s2_pool4/3x3_s2_0_split -> pool4/3x3_s2_pool4/3x3_s2_0_split_2
I0512 15:58:38.442030  5963 net.cpp:380] pool4/3x3_s2_pool4/3x3_s2_0_split -> pool4/3x3_s2_pool4/3x3_s2_0_split_3
I0512 15:58:38.442076  5963 net.cpp:122] Setting up pool4/3x3_s2_pool4/3x3_s2_0_split
I0512 15:58:38.442081  5963 net.cpp:129] Top shape: 16 832 7 7 (652288)
I0512 15:58:38.442085  5963 net.cpp:129] Top shape: 16 832 7 7 (652288)
I0512 15:58:38.442088  5963 net.cpp:129] Top shape: 16 832 7 7 (652288)
I0512 15:58:38.442091  5963 net.cpp:129] Top shape: 16 832 7 7 (652288)
I0512 15:58:38.442095  5963 net.cpp:137] Memory required for data: 861498008
I0512 15:58:38.442096  5963 layer_factory.hpp:77] Creating layer inception_5a/1x1
I0512 15:58:38.442106  5963 net.cpp:84] Creating Layer inception_5a/1x1
I0512 15:58:38.442109  5963 net.cpp:406] inception_5a/1x1 <- pool4/3x3_s2_pool4/3x3_s2_0_split_0
I0512 15:58:38.442114  5963 net.cpp:380] inception_5a/1x1 -> inception_5a/1x1
I0512 15:58:38.445163  5963 net.cpp:122] Setting up inception_5a/1x1
I0512 15:58:38.445173  5963 net.cpp:129] Top shape: 16 256 7 7 (200704)
I0512 15:58:38.445175  5963 net.cpp:137] Memory required for data: 862300824
I0512 15:58:38.445183  5963 layer_factory.hpp:77] Creating layer inception_5a/relu_1x1
I0512 15:58:38.445206  5963 net.cpp:84] Creating Layer inception_5a/relu_1x1
I0512 15:58:38.445210  5963 net.cpp:406] inception_5a/relu_1x1 <- inception_5a/1x1
I0512 15:58:38.445217  5963 net.cpp:367] inception_5a/relu_1x1 -> inception_5a/1x1 (in-place)
I0512 15:58:38.445798  5963 net.cpp:122] Setting up inception_5a/relu_1x1
I0512 15:58:38.445809  5963 net.cpp:129] Top shape: 16 256 7 7 (200704)
I0512 15:58:38.445812  5963 net.cpp:137] Memory required for data: 863103640
I0512 15:58:38.445816  5963 layer_factory.hpp:77] Creating layer inception_5a/3x3_reduce
I0512 15:58:38.445824  5963 net.cpp:84] Creating Layer inception_5a/3x3_reduce
I0512 15:58:38.445828  5963 net.cpp:406] inception_5a/3x3_reduce <- pool4/3x3_s2_pool4/3x3_s2_0_split_1
I0512 15:58:38.445834  5963 net.cpp:380] inception_5a/3x3_reduce -> inception_5a/3x3_reduce
I0512 15:58:38.448709  5963 net.cpp:122] Setting up inception_5a/3x3_reduce
I0512 15:58:38.448720  5963 net.cpp:129] Top shape: 16 160 7 7 (125440)
I0512 15:58:38.448724  5963 net.cpp:137] Memory required for data: 863605400
I0512 15:58:38.448729  5963 layer_factory.hpp:77] Creating layer inception_5a/relu_3x3_reduce
I0512 15:58:38.448735  5963 net.cpp:84] Creating Layer inception_5a/relu_3x3_reduce
I0512 15:58:38.448738  5963 net.cpp:406] inception_5a/relu_3x3_reduce <- inception_5a/3x3_reduce
I0512 15:58:38.448745  5963 net.cpp:367] inception_5a/relu_3x3_reduce -> inception_5a/3x3_reduce (in-place)
I0512 15:58:38.449324  5963 net.cpp:122] Setting up inception_5a/relu_3x3_reduce
I0512 15:58:38.449334  5963 net.cpp:129] Top shape: 16 160 7 7 (125440)
I0512 15:58:38.449337  5963 net.cpp:137] Memory required for data: 864107160
I0512 15:58:38.449339  5963 layer_factory.hpp:77] Creating layer inception_5a/3x3
I0512 15:58:38.449349  5963 net.cpp:84] Creating Layer inception_5a/3x3
I0512 15:58:38.449353  5963 net.cpp:406] inception_5a/3x3 <- inception_5a/3x3_reduce
I0512 15:58:38.449360  5963 net.cpp:380] inception_5a/3x3 -> inception_5a/3x3
I0512 15:58:38.456144  5963 net.cpp:122] Setting up inception_5a/3x3
I0512 15:58:38.456159  5963 net.cpp:129] Top shape: 16 320 7 7 (250880)
I0512 15:58:38.456162  5963 net.cpp:137] Memory required for data: 865110680
I0512 15:58:38.456169  5963 layer_factory.hpp:77] Creating layer inception_5a/relu_3x3
I0512 15:58:38.456176  5963 net.cpp:84] Creating Layer inception_5a/relu_3x3
I0512 15:58:38.456179  5963 net.cpp:406] inception_5a/relu_3x3 <- inception_5a/3x3
I0512 15:58:38.456187  5963 net.cpp:367] inception_5a/relu_3x3 -> inception_5a/3x3 (in-place)
I0512 15:58:38.456763  5963 net.cpp:122] Setting up inception_5a/relu_3x3
I0512 15:58:38.456773  5963 net.cpp:129] Top shape: 16 320 7 7 (250880)
I0512 15:58:38.456781  5963 net.cpp:137] Memory required for data: 866114200
I0512 15:58:38.456785  5963 layer_factory.hpp:77] Creating layer inception_5a/5x5_reduce
I0512 15:58:38.456795  5963 net.cpp:84] Creating Layer inception_5a/5x5_reduce
I0512 15:58:38.456799  5963 net.cpp:406] inception_5a/5x5_reduce <- pool4/3x3_s2_pool4/3x3_s2_0_split_2
I0512 15:58:38.456809  5963 net.cpp:380] inception_5a/5x5_reduce -> inception_5a/5x5_reduce
I0512 15:58:38.459187  5963 net.cpp:122] Setting up inception_5a/5x5_reduce
I0512 15:58:38.459197  5963 net.cpp:129] Top shape: 16 32 7 7 (25088)
I0512 15:58:38.459200  5963 net.cpp:137] Memory required for data: 866214552
I0512 15:58:38.459206  5963 layer_factory.hpp:77] Creating layer inception_5a/relu_5x5_reduce
I0512 15:58:38.459213  5963 net.cpp:84] Creating Layer inception_5a/relu_5x5_reduce
I0512 15:58:38.459216  5963 net.cpp:406] inception_5a/relu_5x5_reduce <- inception_5a/5x5_reduce
I0512 15:58:38.459220  5963 net.cpp:367] inception_5a/relu_5x5_reduce -> inception_5a/5x5_reduce (in-place)
I0512 15:58:38.459606  5963 net.cpp:122] Setting up inception_5a/relu_5x5_reduce
I0512 15:58:38.459619  5963 net.cpp:129] Top shape: 16 32 7 7 (25088)
I0512 15:58:38.459620  5963 net.cpp:137] Memory required for data: 866314904
I0512 15:58:38.459623  5963 layer_factory.hpp:77] Creating layer inception_5a/5x5
I0512 15:58:38.459651  5963 net.cpp:84] Creating Layer inception_5a/5x5
I0512 15:58:38.459656  5963 net.cpp:406] inception_5a/5x5 <- inception_5a/5x5_reduce
I0512 15:58:38.459663  5963 net.cpp:380] inception_5a/5x5 -> inception_5a/5x5
I0512 15:58:38.462555  5963 net.cpp:122] Setting up inception_5a/5x5
I0512 15:58:38.462565  5963 net.cpp:129] Top shape: 16 128 7 7 (100352)
I0512 15:58:38.462568  5963 net.cpp:137] Memory required for data: 866716312
I0512 15:58:38.462574  5963 layer_factory.hpp:77] Creating layer inception_5a/relu_5x5
I0512 15:58:38.462580  5963 net.cpp:84] Creating Layer inception_5a/relu_5x5
I0512 15:58:38.462584  5963 net.cpp:406] inception_5a/relu_5x5 <- inception_5a/5x5
I0512 15:58:38.462590  5963 net.cpp:367] inception_5a/relu_5x5 -> inception_5a/5x5 (in-place)
I0512 15:58:38.464783  5963 net.cpp:122] Setting up inception_5a/relu_5x5
I0512 15:58:38.464797  5963 net.cpp:129] Top shape: 16 128 7 7 (100352)
I0512 15:58:38.464799  5963 net.cpp:137] Memory required for data: 867117720
I0512 15:58:38.464802  5963 layer_factory.hpp:77] Creating layer inception_5a/pool
I0512 15:58:38.464809  5963 net.cpp:84] Creating Layer inception_5a/pool
I0512 15:58:38.464814  5963 net.cpp:406] inception_5a/pool <- pool4/3x3_s2_pool4/3x3_s2_0_split_3
I0512 15:58:38.464821  5963 net.cpp:380] inception_5a/pool -> inception_5a/pool
I0512 15:58:38.464869  5963 net.cpp:122] Setting up inception_5a/pool
I0512 15:58:38.464874  5963 net.cpp:129] Top shape: 16 832 7 7 (652288)
I0512 15:58:38.464876  5963 net.cpp:137] Memory required for data: 869726872
I0512 15:58:38.464879  5963 layer_factory.hpp:77] Creating layer inception_5a/pool_proj
I0512 15:58:38.464890  5963 net.cpp:84] Creating Layer inception_5a/pool_proj
I0512 15:58:38.464893  5963 net.cpp:406] inception_5a/pool_proj <- inception_5a/pool
I0512 15:58:38.464898  5963 net.cpp:380] inception_5a/pool_proj -> inception_5a/pool_proj
I0512 15:58:38.468150  5963 net.cpp:122] Setting up inception_5a/pool_proj
I0512 15:58:38.468161  5963 net.cpp:129] Top shape: 16 128 7 7 (100352)
I0512 15:58:38.468164  5963 net.cpp:137] Memory required for data: 870128280
I0512 15:58:38.468171  5963 layer_factory.hpp:77] Creating layer inception_5a/relu_pool_proj
I0512 15:58:38.468178  5963 net.cpp:84] Creating Layer inception_5a/relu_pool_proj
I0512 15:58:38.468180  5963 net.cpp:406] inception_5a/relu_pool_proj <- inception_5a/pool_proj
I0512 15:58:38.468185  5963 net.cpp:367] inception_5a/relu_pool_proj -> inception_5a/pool_proj (in-place)
I0512 15:58:38.468801  5963 net.cpp:122] Setting up inception_5a/relu_pool_proj
I0512 15:58:38.468811  5963 net.cpp:129] Top shape: 16 128 7 7 (100352)
I0512 15:58:38.468814  5963 net.cpp:137] Memory required for data: 870529688
I0512 15:58:38.468817  5963 layer_factory.hpp:77] Creating layer inception_5a/output
I0512 15:58:38.468823  5963 net.cpp:84] Creating Layer inception_5a/output
I0512 15:58:38.468827  5963 net.cpp:406] inception_5a/output <- inception_5a/1x1
I0512 15:58:38.468832  5963 net.cpp:406] inception_5a/output <- inception_5a/3x3
I0512 15:58:38.468835  5963 net.cpp:406] inception_5a/output <- inception_5a/5x5
I0512 15:58:38.468838  5963 net.cpp:406] inception_5a/output <- inception_5a/pool_proj
I0512 15:58:38.468847  5963 net.cpp:380] inception_5a/output -> inception_5a/output
I0512 15:58:38.468875  5963 net.cpp:122] Setting up inception_5a/output
I0512 15:58:38.468880  5963 net.cpp:129] Top shape: 16 832 7 7 (652288)
I0512 15:58:38.468883  5963 net.cpp:137] Memory required for data: 873138840
I0512 15:58:38.468885  5963 layer_factory.hpp:77] Creating layer inception_5a/output_inception_5a/output_0_split
I0512 15:58:38.468892  5963 net.cpp:84] Creating Layer inception_5a/output_inception_5a/output_0_split
I0512 15:58:38.468896  5963 net.cpp:406] inception_5a/output_inception_5a/output_0_split <- inception_5a/output
I0512 15:58:38.468902  5963 net.cpp:380] inception_5a/output_inception_5a/output_0_split -> inception_5a/output_inception_5a/output_0_split_0
I0512 15:58:38.468909  5963 net.cpp:380] inception_5a/output_inception_5a/output_0_split -> inception_5a/output_inception_5a/output_0_split_1
I0512 15:58:38.468931  5963 net.cpp:380] inception_5a/output_inception_5a/output_0_split -> inception_5a/output_inception_5a/output_0_split_2
I0512 15:58:38.468937  5963 net.cpp:380] inception_5a/output_inception_5a/output_0_split -> inception_5a/output_inception_5a/output_0_split_3
I0512 15:58:38.468991  5963 net.cpp:122] Setting up inception_5a/output_inception_5a/output_0_split
I0512 15:58:38.468998  5963 net.cpp:129] Top shape: 16 832 7 7 (652288)
I0512 15:58:38.469002  5963 net.cpp:129] Top shape: 16 832 7 7 (652288)
I0512 15:58:38.469004  5963 net.cpp:129] Top shape: 16 832 7 7 (652288)
I0512 15:58:38.469007  5963 net.cpp:129] Top shape: 16 832 7 7 (652288)
I0512 15:58:38.469010  5963 net.cpp:137] Memory required for data: 883575448
I0512 15:58:38.469012  5963 layer_factory.hpp:77] Creating layer inception_5b/1x1
I0512 15:58:38.469022  5963 net.cpp:84] Creating Layer inception_5b/1x1
I0512 15:58:38.469027  5963 net.cpp:406] inception_5b/1x1 <- inception_5a/output_inception_5a/output_0_split_0
I0512 15:58:38.469031  5963 net.cpp:380] inception_5b/1x1 -> inception_5b/1x1
I0512 15:58:38.472543  5963 net.cpp:122] Setting up inception_5b/1x1
I0512 15:58:38.472553  5963 net.cpp:129] Top shape: 16 384 7 7 (301056)
I0512 15:58:38.472555  5963 net.cpp:137] Memory required for data: 884779672
I0512 15:58:38.472561  5963 layer_factory.hpp:77] Creating layer inception_5b/relu_1x1
I0512 15:58:38.472569  5963 net.cpp:84] Creating Layer inception_5b/relu_1x1
I0512 15:58:38.472573  5963 net.cpp:406] inception_5b/relu_1x1 <- inception_5b/1x1
I0512 15:58:38.472579  5963 net.cpp:367] inception_5b/relu_1x1 -> inception_5b/1x1 (in-place)
I0512 15:58:38.473162  5963 net.cpp:122] Setting up inception_5b/relu_1x1
I0512 15:58:38.473172  5963 net.cpp:129] Top shape: 16 384 7 7 (301056)
I0512 15:58:38.473174  5963 net.cpp:137] Memory required for data: 885983896
I0512 15:58:38.473178  5963 layer_factory.hpp:77] Creating layer inception_5b/3x3_reduce
I0512 15:58:38.473187  5963 net.cpp:84] Creating Layer inception_5b/3x3_reduce
I0512 15:58:38.473191  5963 net.cpp:406] inception_5b/3x3_reduce <- inception_5a/output_inception_5a/output_0_split_1
I0512 15:58:38.473202  5963 net.cpp:380] inception_5b/3x3_reduce -> inception_5b/3x3_reduce
I0512 15:58:38.478791  5963 net.cpp:122] Setting up inception_5b/3x3_reduce
I0512 15:58:38.478808  5963 net.cpp:129] Top shape: 16 192 7 7 (150528)
I0512 15:58:38.478812  5963 net.cpp:137] Memory required for data: 886586008
I0512 15:58:38.478819  5963 layer_factory.hpp:77] Creating layer inception_5b/relu_3x3_reduce
I0512 15:58:38.478828  5963 net.cpp:84] Creating Layer inception_5b/relu_3x3_reduce
I0512 15:58:38.478833  5963 net.cpp:406] inception_5b/relu_3x3_reduce <- inception_5b/3x3_reduce
I0512 15:58:38.478838  5963 net.cpp:367] inception_5b/relu_3x3_reduce -> inception_5b/3x3_reduce (in-place)
I0512 15:58:38.479439  5963 net.cpp:122] Setting up inception_5b/relu_3x3_reduce
I0512 15:58:38.479450  5963 net.cpp:129] Top shape: 16 192 7 7 (150528)
I0512 15:58:38.479452  5963 net.cpp:137] Memory required for data: 887188120
I0512 15:58:38.479456  5963 layer_factory.hpp:77] Creating layer inception_5b/3x3
I0512 15:58:38.479467  5963 net.cpp:84] Creating Layer inception_5b/3x3
I0512 15:58:38.479471  5963 net.cpp:406] inception_5b/3x3 <- inception_5b/3x3_reduce
I0512 15:58:38.479480  5963 net.cpp:380] inception_5b/3x3 -> inception_5b/3x3
I0512 15:58:38.485610  5963 net.cpp:122] Setting up inception_5b/3x3
I0512 15:58:38.485621  5963 net.cpp:129] Top shape: 16 384 7 7 (301056)
I0512 15:58:38.485625  5963 net.cpp:137] Memory required for data: 888392344
I0512 15:58:38.485632  5963 layer_factory.hpp:77] Creating layer inception_5b/relu_3x3
I0512 15:58:38.485638  5963 net.cpp:84] Creating Layer inception_5b/relu_3x3
I0512 15:58:38.485644  5963 net.cpp:406] inception_5b/relu_3x3 <- inception_5b/3x3
I0512 15:58:38.485649  5963 net.cpp:367] inception_5b/relu_3x3 -> inception_5b/3x3 (in-place)
I0512 15:58:38.486045  5963 net.cpp:122] Setting up inception_5b/relu_3x3
I0512 15:58:38.486073  5963 net.cpp:129] Top shape: 16 384 7 7 (301056)
I0512 15:58:38.486076  5963 net.cpp:137] Memory required for data: 889596568
I0512 15:58:38.486079  5963 layer_factory.hpp:77] Creating layer inception_5b/5x5_reduce
I0512 15:58:38.486091  5963 net.cpp:84] Creating Layer inception_5b/5x5_reduce
I0512 15:58:38.486095  5963 net.cpp:406] inception_5b/5x5_reduce <- inception_5a/output_inception_5a/output_0_split_2
I0512 15:58:38.486101  5963 net.cpp:380] inception_5b/5x5_reduce -> inception_5b/5x5_reduce
I0512 15:58:38.488569  5963 net.cpp:122] Setting up inception_5b/5x5_reduce
I0512 15:58:38.488579  5963 net.cpp:129] Top shape: 16 48 7 7 (37632)
I0512 15:58:38.488582  5963 net.cpp:137] Memory required for data: 889747096
I0512 15:58:38.488588  5963 layer_factory.hpp:77] Creating layer inception_5b/relu_5x5_reduce
I0512 15:58:38.488595  5963 net.cpp:84] Creating Layer inception_5b/relu_5x5_reduce
I0512 15:58:38.488598  5963 net.cpp:406] inception_5b/relu_5x5_reduce <- inception_5b/5x5_reduce
I0512 15:58:38.488605  5963 net.cpp:367] inception_5b/relu_5x5_reduce -> inception_5b/5x5_reduce (in-place)
I0512 15:58:38.488989  5963 net.cpp:122] Setting up inception_5b/relu_5x5_reduce
I0512 15:58:38.488998  5963 net.cpp:129] Top shape: 16 48 7 7 (37632)
I0512 15:58:38.489001  5963 net.cpp:137] Memory required for data: 889897624
I0512 15:58:38.489004  5963 layer_factory.hpp:77] Creating layer inception_5b/5x5
I0512 15:58:38.489017  5963 net.cpp:84] Creating Layer inception_5b/5x5
I0512 15:58:38.489020  5963 net.cpp:406] inception_5b/5x5 <- inception_5b/5x5_reduce
I0512 15:58:38.489027  5963 net.cpp:380] inception_5b/5x5 -> inception_5b/5x5
I0512 15:58:38.494289  5963 net.cpp:122] Setting up inception_5b/5x5
I0512 15:58:38.494304  5963 net.cpp:129] Top shape: 16 128 7 7 (100352)
I0512 15:58:38.494307  5963 net.cpp:137] Memory required for data: 890299032
I0512 15:58:38.494315  5963 layer_factory.hpp:77] Creating layer inception_5b/relu_5x5
I0512 15:58:38.494323  5963 net.cpp:84] Creating Layer inception_5b/relu_5x5
I0512 15:58:38.494326  5963 net.cpp:406] inception_5b/relu_5x5 <- inception_5b/5x5
I0512 15:58:38.494333  5963 net.cpp:367] inception_5b/relu_5x5 -> inception_5b/5x5 (in-place)
I0512 15:58:38.494917  5963 net.cpp:122] Setting up inception_5b/relu_5x5
I0512 15:58:38.494930  5963 net.cpp:129] Top shape: 16 128 7 7 (100352)
I0512 15:58:38.494933  5963 net.cpp:137] Memory required for data: 890700440
I0512 15:58:38.494936  5963 layer_factory.hpp:77] Creating layer inception_5b/pool
I0512 15:58:38.494943  5963 net.cpp:84] Creating Layer inception_5b/pool
I0512 15:58:38.494947  5963 net.cpp:406] inception_5b/pool <- inception_5a/output_inception_5a/output_0_split_3
I0512 15:58:38.494954  5963 net.cpp:380] inception_5b/pool -> inception_5b/pool
I0512 15:58:38.494998  5963 net.cpp:122] Setting up inception_5b/pool
I0512 15:58:38.495004  5963 net.cpp:129] Top shape: 16 832 7 7 (652288)
I0512 15:58:38.495007  5963 net.cpp:137] Memory required for data: 893309592
I0512 15:58:38.495009  5963 layer_factory.hpp:77] Creating layer inception_5b/pool_proj
I0512 15:58:38.495019  5963 net.cpp:84] Creating Layer inception_5b/pool_proj
I0512 15:58:38.495023  5963 net.cpp:406] inception_5b/pool_proj <- inception_5b/pool
I0512 15:58:38.495030  5963 net.cpp:380] inception_5b/pool_proj -> inception_5b/pool_proj
I0512 15:58:38.497601  5963 net.cpp:122] Setting up inception_5b/pool_proj
I0512 15:58:38.497611  5963 net.cpp:129] Top shape: 16 128 7 7 (100352)
I0512 15:58:38.497614  5963 net.cpp:137] Memory required for data: 893711000
I0512 15:58:38.497620  5963 layer_factory.hpp:77] Creating layer inception_5b/relu_pool_proj
I0512 15:58:38.497627  5963 net.cpp:84] Creating Layer inception_5b/relu_pool_proj
I0512 15:58:38.497630  5963 net.cpp:406] inception_5b/relu_pool_proj <- inception_5b/pool_proj
I0512 15:58:38.497637  5963 net.cpp:367] inception_5b/relu_pool_proj -> inception_5b/pool_proj (in-place)
I0512 15:58:38.498216  5963 net.cpp:122] Setting up inception_5b/relu_pool_proj
I0512 15:58:38.498230  5963 net.cpp:129] Top shape: 16 128 7 7 (100352)
I0512 15:58:38.498250  5963 net.cpp:137] Memory required for data: 894112408
I0512 15:58:38.498252  5963 layer_factory.hpp:77] Creating layer inception_5b/output
I0512 15:58:38.498258  5963 net.cpp:84] Creating Layer inception_5b/output
I0512 15:58:38.498262  5963 net.cpp:406] inception_5b/output <- inception_5b/1x1
I0512 15:58:38.498266  5963 net.cpp:406] inception_5b/output <- inception_5b/3x3
I0512 15:58:38.498270  5963 net.cpp:406] inception_5b/output <- inception_5b/5x5
I0512 15:58:38.498275  5963 net.cpp:406] inception_5b/output <- inception_5b/pool_proj
I0512 15:58:38.498281  5963 net.cpp:380] inception_5b/output -> inception_5b/output
I0512 15:58:38.498309  5963 net.cpp:122] Setting up inception_5b/output
I0512 15:58:38.498315  5963 net.cpp:129] Top shape: 16 1024 7 7 (802816)
I0512 15:58:38.498317  5963 net.cpp:137] Memory required for data: 897323672
I0512 15:58:38.498320  5963 layer_factory.hpp:77] Creating layer pool5/7x7_s1
I0512 15:58:38.498327  5963 net.cpp:84] Creating Layer pool5/7x7_s1
I0512 15:58:38.498330  5963 net.cpp:406] pool5/7x7_s1 <- inception_5b/output
I0512 15:58:38.498337  5963 net.cpp:380] pool5/7x7_s1 -> pool5/7x7_s1
I0512 15:58:38.498922  5963 net.cpp:122] Setting up pool5/7x7_s1
I0512 15:58:38.498931  5963 net.cpp:129] Top shape: 16 1024 1 1 (16384)
I0512 15:58:38.498934  5963 net.cpp:137] Memory required for data: 897389208
I0512 15:58:38.498937  5963 layer_factory.hpp:77] Creating layer pool5/drop_7x7_s1
I0512 15:58:38.498944  5963 net.cpp:84] Creating Layer pool5/drop_7x7_s1
I0512 15:58:38.498946  5963 net.cpp:406] pool5/drop_7x7_s1 <- pool5/7x7_s1
I0512 15:58:38.498955  5963 net.cpp:367] pool5/drop_7x7_s1 -> pool5/7x7_s1 (in-place)
I0512 15:58:38.498977  5963 net.cpp:122] Setting up pool5/drop_7x7_s1
I0512 15:58:38.498983  5963 net.cpp:129] Top shape: 16 1024 1 1 (16384)
I0512 15:58:38.498986  5963 net.cpp:137] Memory required for data: 897454744
I0512 15:58:38.498988  5963 layer_factory.hpp:77] Creating layer loss3/classifier
I0512 15:58:38.498994  5963 net.cpp:84] Creating Layer loss3/classifier
I0512 15:58:38.498997  5963 net.cpp:406] loss3/classifier <- pool5/7x7_s1
I0512 15:58:38.499006  5963 net.cpp:380] loss3/classifier -> loss3/classifier
I0512 15:58:38.500718  5963 net.cpp:122] Setting up loss3/classifier
I0512 15:58:38.500727  5963 net.cpp:129] Top shape: 16 196 (3136)
I0512 15:58:38.500730  5963 net.cpp:137] Memory required for data: 897467288
I0512 15:58:38.500736  5963 layer_factory.hpp:77] Creating layer loss3/classifier_loss3/classifier_0_split
I0512 15:58:38.500744  5963 net.cpp:84] Creating Layer loss3/classifier_loss3/classifier_0_split
I0512 15:58:38.500754  5963 net.cpp:406] loss3/classifier_loss3/classifier_0_split <- loss3/classifier
I0512 15:58:38.500759  5963 net.cpp:380] loss3/classifier_loss3/classifier_0_split -> loss3/classifier_loss3/classifier_0_split_0
I0512 15:58:38.500766  5963 net.cpp:380] loss3/classifier_loss3/classifier_0_split -> loss3/classifier_loss3/classifier_0_split_1
I0512 15:58:38.500773  5963 net.cpp:380] loss3/classifier_loss3/classifier_0_split -> loss3/classifier_loss3/classifier_0_split_2
I0512 15:58:38.500821  5963 net.cpp:122] Setting up loss3/classifier_loss3/classifier_0_split
I0512 15:58:38.500826  5963 net.cpp:129] Top shape: 16 196 (3136)
I0512 15:58:38.500829  5963 net.cpp:129] Top shape: 16 196 (3136)
I0512 15:58:38.500833  5963 net.cpp:129] Top shape: 16 196 (3136)
I0512 15:58:38.500834  5963 net.cpp:137] Memory required for data: 897504920
I0512 15:58:38.500838  5963 layer_factory.hpp:77] Creating layer loss3/loss
I0512 15:58:38.500842  5963 net.cpp:84] Creating Layer loss3/loss
I0512 15:58:38.500845  5963 net.cpp:406] loss3/loss <- loss3/classifier_loss3/classifier_0_split_0
I0512 15:58:38.500849  5963 net.cpp:406] loss3/loss <- label_val-data_1_split_6
…
