…
I0509 21:39:27.400626 19026 net.cpp:294] The NetState phase (0) differed from the phase (1) specified by a rule in layer accuracy
I0509 21:39:27.400758 19026 net.cpp:51] Initializing net from parameters:
state {
phase: TRAIN
level: 0
stage: ""
}
layer {
name: "train-data"
type: "Data"
top: "data"
top: "label"
include {
phase: TRAIN
}
transform_param {
mirror: true
crop_size: 227
mean_value: 115.96062
mean_value: 117.19437
mean_value: 119.79225
}
data_param {
source: "/mnt/bigdisk/AMBDIG8/digits/jobs/20200509-183908-c8eb/train_db"
batch_size: 128
backend: LMDB
}
}
layer {
name: "conv1"
type: "Convolution"
bottom: "data"
top: "conv1"
param {
lr_mult: 1
decay_mult: 1
}
param {
lr_mult: 2
decay_mult: 0
}
convolution_param {
num_output: 96
kernel_size: 11
stride: 4
weight_filler {
type: "gaussian"
std: 0.01
}
bias_filler {
type: "constant"
value: 0
}
}
}
layer {
name: "relu1"
type: "ReLU"
bottom: "conv1"
top: "conv1"
}
layer {
name: "norm1"
type: "LRN"
bottom: "conv1"
top: "norm1"
lrn_param {
local_size: 5
alpha: 0.0001
beta: 0.75
}
}
layer {
name: "pool1"
type: "Pooling"
bottom: "norm1"
top: "pool1"
pooling_param {
pool: MAX
kernel_size: 3
stride: 2
}
}
layer {
name: "conv2"
type: "Convolution"
bottom: "pool1"
top: "conv2"
param {
lr_mult: 1
decay_mult: 1
}
param {
lr_mult: 2
decay_mult: 0
}
convolution_param {
num_output: 256
pad: 2
kernel_size: 5
group: 2
weight_filler {
type: "gaussian"
std: 0.01
}
bias_filler {
type: "constant"
value: 0.1
}
}
}
layer {
name: "relu2"
type: "ReLU"
bottom: "conv2"
top: "conv2"
}
layer {
name: "norm2"
type: "LRN"
bottom: "conv2"
top: "norm2"
lrn_param {
local_size: 5
alpha: 0.0001
beta: 0.75
}
}
layer {
name: "pool2"
type: "Pooling"
bottom: "norm2"
top: "pool2"
pooling_param {
pool: MAX
kernel_size: 3
stride: 2
}
}
layer {
name: "conv3"
type: "Convolution"
bottom: "pool2"
top: "conv3"
param {
lr_mult: 1
decay_mult: 1
}
param {
lr_mult: 2
decay_mult: 0
}
convolution_param {
num_output: 384
pad: 1
kernel_size: 3
weight_filler {
type: "gaussian"
std: 0.01
}
bias_filler {
type: "constant"
value: 0
}
}
}
layer {
name: "relu3"
type: "ReLU"
bottom: "conv3"
top: "conv3"
}
layer {
name: "conv4"
type: "Convolution"
bottom: "conv3"
top: "conv4"
param {
lr_mult: 1
decay_mult: 1
}
param {
lr_mult: 2
decay_mult: 0
}
convolution_param {
num_output: 384
pad: 1
kernel_size: 3
group: 2
weight_filler {
type: "gaussian"
std: 0.01
}
bias_filler {
type: "constant"
value: 0.1
}
}
}
layer {
name: "relu4"
type: "ReLU"
bottom: "conv4"
top: "conv4"
}
layer {
name: "conv5"
type: "Convolution"
bottom: "conv4"
top: "conv5"
param {
lr_mult: 1
decay_mult: 1
}
param {
lr_mult: 2
decay_mult: 0
}
convolution_param {
num_output: 256
pad: 1
kernel_size: 3
group: 2
weight_filler {
type: "gaussian"
std: 0.01
}
bias_filler {
type: "constant"
value: 0.1
}
}
}
layer {
name: "relu5"
type: "ReLU"
bottom: "conv5"
top: "conv5"
}
layer {
name: "pool5"
type: "Pooling"
bottom: "conv5"
top: "pool5"
pooling_param {
pool: MAX
kernel_size: 3
stride: 2
}
}
layer {
name: "fc6"
type: "InnerProduct"
bottom: "pool5"
top: "fc6"
param {
lr_mult: 1
decay_mult: 1
}
param {
lr_mult: 2
decay_mult: 0
}
inner_product_param {
num_output: 4096
weight_filler {
type: "gaussian"
std: 0.005
}
bias_filler {
type: "constant"
value: 0.1
}
}
}
layer {
name: "relu6"
type: "ReLU"
bottom: "fc6"
top: "fc6"
}
layer {
name: "drop6"
type: "Dropout"
bottom: "fc6"
top: "fc6"
dropout_param {
dropout_ratio: 0.5
}
}
layer {
name: "fc7"
type: "InnerProduct"
bottom: "fc6"
top: "fc7"
param {
lr_mult: 1
decay_mult: 1
}
param {
lr_mult: 2
decay_mult: 0
}
inner_product_param {
num_output: 4096
weight_filler {
type: "gaussian"
std: 0.005
}
bias_filler {
type: "constant"
value: 0.1
}
}
}
layer {
name: "relu7"
type: "ReLU"
bottom: "fc7"
top: "fc7"
}
layer {
name: "drop7"
type: "Dropout"
bottom: "fc7"
top: "fc7"
dropout_param {
dropout_ratio: 0.5
}
}
layer {
name: "fc8"
type: "InnerProduct"
bottom: "fc7"
top: "fc8"
param {
lr_mult: 1
decay_mult: 1
}
param {
lr_mult: 2
decay_mult: 0
}
inner_product_param {
num_output: 196
weight_filler {
type: "gaussian"
std: 0.01
}
bias_filler {
type: "constant"
value: 0
}
}
}
layer {
name: "loss"
type: "SoftmaxWithLoss"
bottom: "fc8"
bottom: "label"
top: "loss"
}
I0509 21:39:27.400846 19026 layer_factory.hpp:77] Creating layer train-data
I0509 21:39:27.402773 19026 db_lmdb.cpp:35] Opened lmdb /mnt/bigdisk/AMBDIG8/digits/jobs/20200509-183908-c8eb/train_db
I0509 21:39:27.403412 19026 net.cpp:84] Creating Layer train-data
I0509 21:39:27.403424 19026 net.cpp:380] train-data -> data
I0509 21:39:27.403442 19026 net.cpp:380] train-data -> label
I0509 21:39:27.405758 19026 data_layer.cpp:45] output data size: 128,3,227,227
I0509 21:39:27.544507 19026 net.cpp:122] Setting up train-data
I0509 21:39:27.544530 19026 net.cpp:129] Top shape: 128 3 227 227 (19787136)
I0509 21:39:27.544535 19026 net.cpp:129] Top shape: 128 (128)
I0509 21:39:27.544538 19026 net.cpp:137] Memory required for data: 79149056
I0509 21:39:27.544548 19026 layer_factory.hpp:77] Creating layer conv1
I0509 21:39:27.544569 19026 net.cpp:84] Creating Layer conv1
I0509 21:39:27.544574 19026 net.cpp:406] conv1 <- data
I0509 21:39:27.544585 19026 net.cpp:380] conv1 -> conv1
I0509 21:39:28.956269 19026 net.cpp:122] Setting up conv1
I0509 21:39:28.956290 19026 net.cpp:129] Top shape: 128 96 55 55 (37171200)
I0509 21:39:28.956293 19026 net.cpp:137] Memory required for data: 227833856
I0509 21:39:28.956312 19026 layer_factory.hpp:77] Creating layer relu1
I0509 21:39:28.956326 19026 net.cpp:84] Creating Layer relu1
I0509 21:39:28.956329 19026 net.cpp:406] relu1 <- conv1
I0509 21:39:28.956334 19026 net.cpp:367] relu1 -> conv1 (in-place)
I0509 21:39:28.956739 19026 net.cpp:122] Setting up relu1
I0509 21:39:28.956749 19026 net.cpp:129] Top shape: 128 96 55 55 (37171200)
I0509 21:39:28.956751 19026 net.cpp:137] Memory required for data: 376518656
I0509 21:39:28.956754 19026 layer_factory.hpp:77] Creating layer norm1
I0509 21:39:28.956763 19026 net.cpp:84] Creating Layer norm1
I0509 21:39:28.956766 19026 net.cpp:406] norm1 <- conv1
I0509 21:39:28.956773 19026 net.cpp:380] norm1 -> norm1
I0509 21:39:28.957371 19026 net.cpp:122] Setting up norm1
I0509 21:39:28.957408 19026 net.cpp:129] Top shape: 128 96 55 55 (37171200)
I0509 21:39:28.957412 19026 net.cpp:137] Memory required for data: 525203456
I0509 21:39:28.957415 19026 layer_factory.hpp:77] Creating layer pool1
I0509 21:39:28.957423 19026 net.cpp:84] Creating Layer pool1
I0509 21:39:28.957427 19026 net.cpp:406] pool1 <- norm1
I0509 21:39:28.957432 19026 net.cpp:380] pool1 -> pool1
I0509 21:39:28.957473 19026 net.cpp:122] Setting up pool1
I0509 21:39:28.957479 19026 net.cpp:129] Top shape: 128 96 27 27 (8957952)
I0509 21:39:28.957481 19026 net.cpp:137] Memory required for data: 561035264
I0509 21:39:28.957484 19026 layer_factory.hpp:77] Creating layer conv2
I0509 21:39:28.957495 19026 net.cpp:84] Creating Layer conv2
I0509 21:39:28.957499 19026 net.cpp:406] conv2 <- pool1
I0509 21:39:28.957505 19026 net.cpp:380] conv2 -> conv2
I0509 21:39:28.965131 19026 net.cpp:122] Setting up conv2
I0509 21:39:28.965145 19026 net.cpp:129] Top shape: 128 256 27 27 (23887872)
I0509 21:39:28.965148 19026 net.cpp:137] Memory required for data: 656586752
I0509 21:39:28.965158 19026 layer_factory.hpp:77] Creating layer relu2
I0509 21:39:28.965167 19026 net.cpp:84] Creating Layer relu2
I0509 21:39:28.965170 19026 net.cpp:406] relu2 <- conv2
I0509 21:39:28.965175 19026 net.cpp:367] relu2 -> conv2 (in-place)
I0509 21:39:28.965744 19026 net.cpp:122] Setting up relu2
I0509 21:39:28.965752 19026 net.cpp:129] Top shape: 128 256 27 27 (23887872)
I0509 21:39:28.965755 19026 net.cpp:137] Memory required for data: 752138240
I0509 21:39:28.965759 19026 layer_factory.hpp:77] Creating layer norm2
I0509 21:39:28.965766 19026 net.cpp:84] Creating Layer norm2
I0509 21:39:28.965770 19026 net.cpp:406] norm2 <- conv2
I0509 21:39:28.965775 19026 net.cpp:380] norm2 -> norm2
I0509 21:39:28.966183 19026 net.cpp:122] Setting up norm2
I0509 21:39:28.966193 19026 net.cpp:129] Top shape: 128 256 27 27 (23887872)
I0509 21:39:28.966195 19026 net.cpp:137] Memory required for data: 847689728
I0509 21:39:28.966199 19026 layer_factory.hpp:77] Creating layer pool2
I0509 21:39:28.966207 19026 net.cpp:84] Creating Layer pool2
I0509 21:39:28.966212 19026 net.cpp:406] pool2 <- norm2
I0509 21:39:28.966219 19026 net.cpp:380] pool2 -> pool2
I0509 21:39:28.966253 19026 net.cpp:122] Setting up pool2
I0509 21:39:28.966259 19026 net.cpp:129] Top shape: 128 256 13 13 (5537792)
I0509 21:39:28.966261 19026 net.cpp:137] Memory required for data: 869840896
I0509 21:39:28.966264 19026 layer_factory.hpp:77] Creating layer conv3
I0509 21:39:28.966274 19026 net.cpp:84] Creating Layer conv3
I0509 21:39:28.966277 19026 net.cpp:406] conv3 <- pool2
I0509 21:39:28.966284 19026 net.cpp:380] conv3 -> conv3
I0509 21:39:28.977161 19026 net.cpp:122] Setting up conv3
I0509 21:39:28.977178 19026 net.cpp:129] Top shape: 128 384 13 13 (8306688)
I0509 21:39:28.977181 19026 net.cpp:137] Memory required for data: 903067648
I0509 21:39:28.977190 19026 layer_factory.hpp:77] Creating layer relu3
I0509 21:39:28.977198 19026 net.cpp:84] Creating Layer relu3
I0509 21:39:28.977201 19026 net.cpp:406] relu3 <- conv3
I0509 21:39:28.977210 19026 net.cpp:367] relu3 -> conv3 (in-place)
I0509 21:39:28.977778 19026 net.cpp:122] Setting up relu3
I0509 21:39:28.977787 19026 net.cpp:129] Top shape: 128 384 13 13 (8306688)
I0509 21:39:28.977790 19026 net.cpp:137] Memory required for data: 936294400
I0509 21:39:28.977793 19026 layer_factory.hpp:77] Creating layer conv4
I0509 21:39:28.977804 19026 net.cpp:84] Creating Layer conv4
I0509 21:39:28.977808 19026 net.cpp:406] conv4 <- conv3
I0509 21:39:28.977815 19026 net.cpp:380] conv4 -> conv4
I0509 21:39:28.989770 19026 net.cpp:122] Setting up conv4
I0509 21:39:28.989790 19026 net.cpp:129] Top shape: 128 384 13 13 (8306688)
I0509 21:39:28.989794 19026 net.cpp:137] Memory required for data: 969521152
I0509 21:39:28.989802 19026 layer_factory.hpp:77] Creating layer relu4
I0509 21:39:28.989811 19026 net.cpp:84] Creating Layer relu4
I0509 21:39:28.989814 19026 net.cpp:406] relu4 <- conv4
I0509 21:39:28.989820 19026 net.cpp:367] relu4 -> conv4 (in-place)
I0509 21:39:28.990469 19026 net.cpp:122] Setting up relu4
I0509 21:39:28.990505 19026 net.cpp:129] Top shape: 128 384 13 13 (8306688)
I0509 21:39:28.990509 19026 net.cpp:137] Memory required for data: 1002747904
I0509 21:39:28.990512 19026 layer_factory.hpp:77] Creating layer conv5
I0509 21:39:28.990523 19026 net.cpp:84] Creating Layer conv5
I0509 21:39:28.990527 19026 net.cpp:406] conv5 <- conv4
I0509 21:39:28.990533 19026 net.cpp:380] conv5 -> conv5
I0509 21:39:29.000253 19026 net.cpp:122] Setting up conv5
I0509 21:39:29.000269 19026 net.cpp:129] Top shape: 128 256 13 13 (5537792)
I0509 21:39:29.000272 19026 net.cpp:137] Memory required for data: 1024899072
I0509 21:39:29.000285 19026 layer_factory.hpp:77] Creating layer relu5
I0509 21:39:29.000293 19026 net.cpp:84] Creating Layer relu5
I0509 21:39:29.000298 19026 net.cpp:406] relu5 <- conv5
I0509 21:39:29.000304 19026 net.cpp:367] relu5 -> conv5 (in-place)
I0509 21:39:29.000856 19026 net.cpp:122] Setting up relu5
I0509 21:39:29.000869 19026 net.cpp:129] Top shape: 128 256 13 13 (5537792)
I0509 21:39:29.000871 19026 net.cpp:137] Memory required for data: 1047050240
I0509 21:39:29.000874 19026 layer_factory.hpp:77] Creating layer pool5
I0509 21:39:29.000881 19026 net.cpp:84] Creating Layer pool5
I0509 21:39:29.000885 19026 net.cpp:406] pool5 <- conv5
I0509 21:39:29.000888 19026 net.cpp:380] pool5 -> pool5
I0509 21:39:29.000927 19026 net.cpp:122] Setting up pool5
I0509 21:39:29.000933 19026 net.cpp:129] Top shape: 128 256 6 6 (1179648)
I0509 21:39:29.000936 19026 net.cpp:137] Memory required for data: 1051768832
I0509 21:39:29.000938 19026 layer_factory.hpp:77] Creating layer fc6
I0509 21:39:29.000952 19026 net.cpp:84] Creating Layer fc6
I0509 21:39:29.000954 19026 net.cpp:406] fc6 <- pool5
I0509 21:39:29.000959 19026 net.cpp:380] fc6 -> fc6
I0509 21:39:29.363235 19026 net.cpp:122] Setting up fc6
I0509 21:39:29.363258 19026 net.cpp:129] Top shape: 128 4096 (524288)
I0509 21:39:29.363261 19026 net.cpp:137] Memory required for data: 1053865984
I0509 21:39:29.363270 19026 layer_factory.hpp:77] Creating layer relu6
I0509 21:39:29.363279 19026 net.cpp:84] Creating Layer relu6
I0509 21:39:29.363282 19026 net.cpp:406] relu6 <- fc6
I0509 21:39:29.363291 19026 net.cpp:367] relu6 -> fc6 (in-place)
I0509 21:39:29.364048 19026 net.cpp:122] Setting up relu6
I0509 21:39:29.364056 19026 net.cpp:129] Top shape: 128 4096 (524288)
I0509 21:39:29.364059 19026 net.cpp:137] Memory required for data: 1055963136
I0509 21:39:29.364063 19026 layer_factory.hpp:77] Creating layer drop6
I0509 21:39:29.364070 19026 net.cpp:84] Creating Layer drop6
I0509 21:39:29.364074 19026 net.cpp:406] drop6 <- fc6
I0509 21:39:29.364079 19026 net.cpp:367] drop6 -> fc6 (in-place)
I0509 21:39:29.364110 19026 net.cpp:122] Setting up drop6
I0509 21:39:29.364115 19026 net.cpp:129] Top shape: 128 4096 (524288)
I0509 21:39:29.364118 19026 net.cpp:137] Memory required for data: 1058060288
I0509 21:39:29.364120 19026 layer_factory.hpp:77] Creating layer fc7
I0509 21:39:29.364127 19026 net.cpp:84] Creating Layer fc7
I0509 21:39:29.364130 19026 net.cpp:406] fc7 <- fc6
I0509 21:39:29.364136 19026 net.cpp:380] fc7 -> fc7
I0509 21:39:29.524353 19026 net.cpp:122] Setting up fc7
I0509 21:39:29.524374 19026 net.cpp:129] Top shape: 128 4096 (524288)
I0509 21:39:29.524376 19026 net.cpp:137] Memory required for data: 1060157440
I0509 21:39:29.524385 19026 layer_factory.hpp:77] Creating layer relu7
I0509 21:39:29.524394 19026 net.cpp:84] Creating Layer relu7
I0509 21:39:29.524396 19026 net.cpp:406] relu7 <- fc7
I0509 21:39:29.524405 19026 net.cpp:367] relu7 -> fc7 (in-place)
I0509 21:39:29.524901 19026 net.cpp:122] Setting up relu7
I0509 21:39:29.524919 19026 net.cpp:129] Top shape: 128 4096 (524288)
I0509 21:39:29.524922 19026 net.cpp:137] Memory required for data: 1062254592
I0509 21:39:29.524926 19026 layer_factory.hpp:77] Creating layer drop7
I0509 21:39:29.524933 19026 net.cpp:84] Creating Layer drop7
I0509 21:39:29.524936 19026 net.cpp:406] drop7 <- fc7
I0509 21:39:29.524941 19026 net.cpp:367] drop7 -> fc7 (in-place)
I0509 21:39:29.524971 19026 net.cpp:122] Setting up drop7
I0509 21:39:29.524998 19026 net.cpp:129] Top shape: 128 4096 (524288)
I0509 21:39:29.525002 19026 net.cpp:137] Memory required for data: 1064351744
I0509 21:39:29.525004 19026 layer_factory.hpp:77] Creating layer fc8
I0509 21:39:29.525013 19026 net.cpp:84] Creating Layer fc8
I0509 21:39:29.525017 19026 net.cpp:406] fc8 <- fc7
I0509 21:39:29.525022 19026 net.cpp:380] fc8 -> fc8
I0509 21:39:29.532891 19026 net.cpp:122] Setting up fc8
I0509 21:39:29.532903 19026 net.cpp:129] Top shape: 128 196 (25088)
I0509 21:39:29.532907 19026 net.cpp:137] Memory required for data: 1064452096
I0509 21:39:29.532912 19026 layer_factory.hpp:77] Creating layer loss
I0509 21:39:29.532919 19026 net.cpp:84] Creating Layer loss
I0509 21:39:29.532923 19026 net.cpp:406] loss <- fc8
I0509 21:39:29.532927 19026 net.cpp:406] loss <- label
I0509 21:39:29.532934 19026 net.cpp:380] loss -> loss
I0509 21:39:29.532944 19026 layer_factory.hpp:77] Creating layer loss
…
I0509 21:39:29.542665 19026 solver.cpp:172] Creating test net (#0) specified by net file: train_val.prototxt
I0509 21:39:29.542702 19026 net.cpp:294] The NetState phase (1) differed from the phase (0) specified by a rule in layer train-data
I0509 21:39:29.542892 19026 net.cpp:51] Initializing net from parameters:
state {
phase: TEST
}
layer {
name: "val-data"
type: "Data"
top: "data"
top: "label"
include {
phase: TEST
}
transform_param {
crop_size: 227
mean_value: 115.96062
mean_value: 117.19437
mean_value: 119.79225
}
data_param {
source: "/mnt/bigdisk/AMBDIG8/digits/jobs/20200509-183908-c8eb/val_db"
batch_size: 32
backend: LMDB
}
}
layer {
name: "conv1"
type: "Convolution"
bottom: "data"
top: "conv1"
param {
lr_mult: 1
decay_mult: 1
}
param {
lr_mult: 2
decay_mult: 0
}
convolution_param {
num_output: 96
kernel_size: 11
stride: 4
weight_filler {
type: "gaussian"
std: 0.01
}
bias_filler {
type: "constant"
value: 0
}
}
}
layer {
name: "relu1"
type: "ReLU"
bottom: "conv1"
top: "conv1"
}
layer {
name: "norm1"
type: "LRN"
bottom: "conv1"
top: "norm1"
lrn_param {
local_size: 5
alpha: 0.0001
beta: 0.75
}
}
layer {
name: "pool1"
type: "Pooling"
bottom: "norm1"
top: "pool1"
pooling_param {
pool: MAX
kernel_size: 3
stride: 2
}
}
layer {
name: "conv2"
type: "Convolution"
bottom: "pool1"
top: "conv2"
param {
lr_mult: 1
decay_mult: 1
}
param {
lr_mult: 2
decay_mult: 0
}
convolution_param {
num_output: 256
pad: 2
kernel_size: 5
group: 2
weight_filler {
type: "gaussian"
std: 0.01
}
bias_filler {
type: "constant"
value: 0.1
}
}
}
layer {
name: "relu2"
type: "ReLU"
bottom: "conv2"
top: "conv2"
}
layer {
name: "norm2"
type: "LRN"
bottom: "conv2"
top: "norm2"
lrn_param {
local_size: 5
alpha: 0.0001
beta: 0.75
}
}
layer {
name: "pool2"
type: "Pooling"
bottom: "norm2"
top: "pool2"
pooling_param {
pool: MAX
kernel_size: 3
stride: 2
}
}
layer {
name: "conv3"
type: "Convolution"
bottom: "pool2"
top: "conv3"
param {
lr_mult: 1
decay_mult: 1
}
param {
lr_mult: 2
decay_mult: 0
}
convolution_param {
num_output: 384
pad: 1
kernel_size: 3
weight_filler {
type: "gaussian"
std: 0.01
}
bias_filler {
type: "constant"
value: 0
}
}
}
layer {
name: "relu3"
type: "ReLU"
bottom: "conv3"
top: "conv3"
}
layer {
name: "conv4"
type: "Convolution"
bottom: "conv3"
top: "conv4"
param {
lr_mult: 1
decay_mult: 1
}
param {
lr_mult: 2
decay_mult: 0
}
convolution_param {
num_output: 384
pad: 1
kernel_size: 3
group: 2
weight_filler {
type: "gaussian"
std: 0.01
}
bias_filler {
type: "constant"
value: 0.1
}
}
}
layer {
name: "relu4"
type: "ReLU"
bottom: "conv4"
top: "conv4"
}
layer {
name: "conv5"
type: "Convolution"
bottom: "conv4"
top: "conv5"
param {
lr_mult: 1
decay_mult: 1
}
param {
lr_mult: 2
decay_mult: 0
}
convolution_param {
num_output: 256
pad: 1
kernel_size: 3
group: 2
weight_filler {
type: "gaussian"
std: 0.01
}
bias_filler {
type: "constant"
value: 0.1
}
}
}
layer {
name: "relu5"
type: "ReLU"
bottom: "conv5"
top: "conv5"
}
layer {
name: "pool5"
type: "Pooling"
bottom: "conv5"
top: "pool5"
pooling_param {
pool: MAX
kernel_size: 3
stride: 2
}
}
layer {
name: "fc6"
type: "InnerProduct"
bottom: "pool5"
top: "fc6"
param {
lr_mult: 1
decay_mult: 1
}
param {
lr_mult: 2
decay_mult: 0
}
inner_product_param {
num_output: 4096
weight_filler {
type: "gaussian"
std: 0.005
}
bias_filler {
type: "constant"
value: 0.1
}
}
}
layer {
name: "relu6"
type: "ReLU"
bottom: "fc6"
top: "fc6"
}
layer {
name: "drop6"
type: "Dropout"
bottom: "fc6"
top: "fc6"
dropout_param {
dropout_ratio: 0.5
}
}
layer {
name: "fc7"
type: "InnerProduct"
bottom: "fc6"
top: "fc7"
param {
lr_mult: 1
decay_mult: 1
}
param {
lr_mult: 2
decay_mult: 0
}
inner_product_param {
num_output: 4096
weight_filler {
type: "gaussian"
std: 0.005
}
bias_filler {
type: "constant"
value: 0.1
}
}
}
layer {
name: "relu7"
type: "ReLU"
bottom: "fc7"
top: "fc7"
}
layer {
name: "drop7"
type: "Dropout"
bottom: "fc7"
top: "fc7"
dropout_param {
dropout_ratio: 0.5
}
}
layer {
name: "fc8"
type: "InnerProduct"
bottom: "fc7"
top: "fc8"
param {
lr_mult: 1
decay_mult: 1
}
param {
lr_mult: 2
decay_mult: 0
}
inner_product_param {
num_output: 196
weight_filler {
type: "gaussian"
std: 0.01
}
bias_filler {
type: "constant"
value: 0
}
}
}
layer {
name: "accuracy"
type: "Accuracy"
bottom: "fc8"
bottom: "label"
top: "accuracy"
include {
phase: TEST
}
}
layer {
name: "loss"
type: "SoftmaxWithLoss"
bottom: "fc8"
bottom: "label"
top: "loss"
}
I0509 21:39:29.543028 19026 layer_factory.hpp:77] Creating layer val-data
I0509 21:39:29.544900 19026 db_lmdb.cpp:35] Opened lmdb /mnt/bigdisk/AMBDIG8/digits/jobs/20200509-183908-c8eb/val_db
I0509 21:39:29.545558 19026 net.cpp:84] Creating Layer val-data
I0509 21:39:29.545570 19026 net.cpp:380] val-data -> data
I0509 21:39:29.545580 19026 net.cpp:380] val-data -> label
I0509 21:39:29.548874 19026 data_layer.cpp:45] output data size: 32,3,227,227
I0509 21:39:29.584673 19026 net.cpp:122] Setting up val-data
I0509 21:39:29.584692 19026 net.cpp:129] Top shape: 32 3 227 227 (4946784)
I0509 21:39:29.584697 19026 net.cpp:129] Top shape: 32 (32)
I0509 21:39:29.584699 19026 net.cpp:137] Memory required for data: 19787264
I0509 21:39:29.584704 19026 layer_factory.hpp:77] Creating layer label_val-data_1_split
I0509 21:39:29.584717 19026 net.cpp:84] Creating Layer label_val-data_1_split
I0509 21:39:29.584720 19026 net.cpp:406] label_val-data_1_split <- label
I0509 21:39:29.584726 19026 net.cpp:380] label_val-data_1_split -> label_val-data_1_split_0
I0509 21:39:29.584734 19026 net.cpp:380] label_val-data_1_split -> label_val-data_1_split_1
I0509 21:39:29.584779 19026 net.cpp:122] Setting up label_val-data_1_split
I0509 21:39:29.584784 19026 net.cpp:129] Top shape: 32 (32)
I0509 21:39:29.584786 19026 net.cpp:129] Top shape: 32 (32)
I0509 21:39:29.584789 19026 net.cpp:137] Memory required for data: 19787520
I0509 21:39:29.584791 19026 layer_factory.hpp:77] Creating layer conv1
I0509 21:39:29.584802 19026 net.cpp:84] Creating Layer conv1
I0509 21:39:29.584805 19026 net.cpp:406] conv1 <- data
I0509 21:39:29.584810 19026 net.cpp:380] conv1 -> conv1
I0509 21:39:29.588174 19026 net.cpp:122] Setting up conv1
I0509 21:39:29.588186 19026 net.cpp:129] Top shape: 32 96 55 55 (9292800)
I0509 21:39:29.588188 19026 net.cpp:137] Memory required for data: 56958720
I0509 21:39:29.588197 19026 layer_factory.hpp:77] Creating layer relu1
I0509 21:39:29.588207 19026 net.cpp:84] Creating Layer relu1
I0509 21:39:29.588212 19026 net.cpp:406] relu1 <- conv1
I0509 21:39:29.588215 19026 net.cpp:367] relu1 -> conv1 (in-place)
I0509 21:39:29.588611 19026 net.cpp:122] Setting up relu1
I0509 21:39:29.588623 19026 net.cpp:129] Top shape: 32 96 55 55 (9292800)
I0509 21:39:29.588625 19026 net.cpp:137] Memory required for data: 94129920
I0509 21:39:29.588629 19026 layer_factory.hpp:77] Creating layer norm1
I0509 21:39:29.588636 19026 net.cpp:84] Creating Layer norm1
I0509 21:39:29.588639 19026 net.cpp:406] norm1 <- conv1
I0509 21:39:29.588645 19026 net.cpp:380] norm1 -> norm1
I0509 21:39:29.589227 19026 net.cpp:122] Setting up norm1
I0509 21:39:29.589237 19026 net.cpp:129] Top shape: 32 96 55 55 (9292800)
I0509 21:39:29.589239 19026 net.cpp:137] Memory required for data: 131301120
I0509 21:39:29.589242 19026 layer_factory.hpp:77] Creating layer pool1
I0509 21:39:29.589251 19026 net.cpp:84] Creating Layer pool1
I0509 21:39:29.589254 19026 net.cpp:406] pool1 <- norm1
I0509 21:39:29.589259 19026 net.cpp:380] pool1 -> pool1
I0509 21:39:29.589291 19026 net.cpp:122] Setting up pool1
I0509 21:39:29.589298 19026 net.cpp:129] Top shape: 32 96 27 27 (2239488)
I0509 21:39:29.589299 19026 net.cpp:137] Memory required for data: 140259072
I0509 21:39:29.589303 19026 layer_factory.hpp:77] Creating layer conv2
I0509 21:39:29.589311 19026 net.cpp:84] Creating Layer conv2
I0509 21:39:29.589315 19026 net.cpp:406] conv2 <- pool1
I0509 21:39:29.589321 19026 net.cpp:380] conv2 -> conv2
I0509 21:39:29.599076 19026 net.cpp:122] Setting up conv2
I0509 21:39:29.599094 19026 net.cpp:129] Top shape: 32 256 27 27 (5971968)
I0509 21:39:29.599097 19026 net.cpp:137] Memory required for data: 164146944
I0509 21:39:29.599107 19026 layer_factory.hpp:77] Creating layer relu2
I0509 21:39:29.599136 19026 net.cpp:84] Creating Layer relu2
I0509 21:39:29.599140 19026 net.cpp:406] relu2 <- conv2
I0509 21:39:29.599146 19026 net.cpp:367] relu2 -> conv2 (in-place)
I0509 21:39:29.599697 19026 net.cpp:122] Setting up relu2
I0509 21:39:29.599709 19026 net.cpp:129] Top shape: 32 256 27 27 (5971968)
I0509 21:39:29.599711 19026 net.cpp:137] Memory required for data: 188034816
I0509 21:39:29.599714 19026 layer_factory.hpp:77] Creating layer norm2
I0509 21:39:29.599725 19026 net.cpp:84] Creating Layer norm2
I0509 21:39:29.599730 19026 net.cpp:406] norm2 <- conv2
I0509 21:39:29.599735 19026 net.cpp:380] norm2 -> norm2
I0509 21:39:29.600472 19026 net.cpp:122] Setting up norm2
I0509 21:39:29.600481 19026 net.cpp:129] Top shape: 32 256 27 27 (5971968)
I0509 21:39:29.600484 19026 net.cpp:137] Memory required for data: 211922688
I0509 21:39:29.600487 19026 layer_factory.hpp:77] Creating layer pool2
I0509 21:39:29.600500 19026 net.cpp:84] Creating Layer pool2
I0509 21:39:29.600503 19026 net.cpp:406] pool2 <- norm2
I0509 21:39:29.600508 19026 net.cpp:380] pool2 -> pool2
I0509 21:39:29.600541 19026 net.cpp:122] Setting up pool2
I0509 21:39:29.600548 19026 net.cpp:129] Top shape: 32 256 13 13 (1384448)
I0509 21:39:29.600549 19026 net.cpp:137] Memory required for data: 217460480
I0509 21:39:29.600553 19026 layer_factory.hpp:77] Creating layer conv3
I0509 21:39:29.600562 19026 net.cpp:84] Creating Layer conv3
I0509 21:39:29.600565 19026 net.cpp:406] conv3 <- pool2
I0509 21:39:29.600571 19026 net.cpp:380] conv3 -> conv3
I0509 21:39:29.612378 19026 net.cpp:122] Setting up conv3
I0509 21:39:29.612397 19026 net.cpp:129] Top shape: 32 384 13 13 (2076672)
I0509 21:39:29.612401 19026 net.cpp:137] Memory required for data: 225767168
I0509 21:39:29.612414 19026 layer_factory.hpp:77] Creating layer relu3
I0509 21:39:29.612422 19026 net.cpp:84] Creating Layer relu3
I0509 21:39:29.612426 19026 net.cpp:406] relu3 <- conv3
I0509 21:39:29.612432 19026 net.cpp:367] relu3 -> conv3 (in-place)
I0509 21:39:29.613010 19026 net.cpp:122] Setting up relu3
I0509 21:39:29.613020 19026 net.cpp:129] Top shape: 32 384 13 13 (2076672)
I0509 21:39:29.613023 19026 net.cpp:137] Memory required for data: 234073856
I0509 21:39:29.613026 19026 layer_factory.hpp:77] Creating layer conv4
I0509 21:39:29.613039 19026 net.cpp:84] Creating Layer conv4
I0509 21:39:29.613044 19026 net.cpp:406] conv4 <- conv3
I0509 21:39:29.613050 19026 net.cpp:380] conv4 -> conv4
I0509 21:39:29.623358 19026 net.cpp:122] Setting up conv4
I0509 21:39:29.623371 19026 net.cpp:129] Top shape: 32 384 13 13 (2076672)
I0509 21:39:29.623374 19026 net.cpp:137] Memory required for data: 242380544
I0509 21:39:29.623380 19026 layer_factory.hpp:77] Creating layer relu4
I0509 21:39:29.623389 19026 net.cpp:84] Creating Layer relu4
I0509 21:39:29.623394 19026 net.cpp:406] relu4 <- conv4
I0509 21:39:29.623399 19026 net.cpp:367] relu4 -> conv4 (in-place)
I0509 21:39:29.623769 19026 net.cpp:122] Setting up relu4
I0509 21:39:29.623780 19026 net.cpp:129] Top shape: 32 384 13 13 (2076672)
I0509 21:39:29.623782 19026 net.cpp:137] Memory required for data: 250687232
I0509 21:39:29.623785 19026 layer_factory.hpp:77] Creating layer conv5
I0509 21:39:29.623796 19026 net.cpp:84] Creating Layer conv5
I0509 21:39:29.623800 19026 net.cpp:406] conv5 <- conv4
I0509 21:39:29.623806 19026 net.cpp:380] conv5 -> conv5
I0509 21:39:29.633579 19026 net.cpp:122] Setting up conv5
I0509 21:39:29.633595 19026 net.cpp:129] Top shape: 32 256 13 13 (1384448)
I0509 21:39:29.633599 19026 net.cpp:137] Memory required for data: 256225024
I0509 21:39:29.633610 19026 layer_factory.hpp:77] Creating layer relu5
I0509 21:39:29.633620 19026 net.cpp:84] Creating Layer relu5
I0509 21:39:29.633625 19026 net.cpp:406] relu5 <- conv5
I0509 21:39:29.633630 19026 net.cpp:367] relu5 -> conv5 (in-place)
I0509 21:39:29.634178 19026 net.cpp:122] Setting up relu5
I0509 21:39:29.634187 19026 net.cpp:129] Top shape: 32 256 13 13 (1384448)
I0509 21:39:29.634191 19026 net.cpp:137] Memory required for data: 261762816
I0509 21:39:29.634193 19026 layer_factory.hpp:77] Creating layer pool5
I0509 21:39:29.634225 19026 net.cpp:84] Creating Layer pool5
I0509 21:39:29.634230 19026 net.cpp:406] pool5 <- conv5
I0509 21:39:29.634235 19026 net.cpp:380] pool5 -> pool5
I0509 21:39:29.634277 19026 net.cpp:122] Setting up pool5
I0509 21:39:29.634284 19026 net.cpp:129] Top shape: 32 256 6 6 (294912)
I0509 21:39:29.634285 19026 net.cpp:137] Memory required for data: 262942464
I0509 21:39:29.634289 19026 layer_factory.hpp:77] Creating layer fc6
I0509 21:39:29.634295 19026 net.cpp:84] Creating Layer fc6
I0509 21:39:29.634299 19026 net.cpp:406] fc6 <- pool5
I0509 21:39:29.634305 19026 net.cpp:380] fc6 -> fc6
I0509 21:39:29.993893 19026 net.cpp:122] Setting up fc6
I0509 21:39:29.993917 19026 net.cpp:129] Top shape: 32 4096 (131072)
I0509 21:39:29.993921 19026 net.cpp:137] Memory required for data: 263466752
I0509 21:39:29.993929 19026 layer_factory.hpp:77] Creating layer relu6
I0509 21:39:29.993938 19026 net.cpp:84] Creating Layer relu6
I0509 21:39:29.993942 19026 net.cpp:406] relu6 <- fc6
I0509 21:39:29.993947 19026 net.cpp:367] relu6 -> fc6 (in-place)
I0509 21:39:29.994688 19026 net.cpp:122] Setting up relu6
I0509 21:39:29.994697 19026 net.cpp:129] Top shape: 32 4096 (131072)
I0509 21:39:29.994700 19026 net.cpp:137] Memory required for data: 263991040
I0509 21:39:29.994704 19026 layer_factory.hpp:77] Creating layer drop6
I0509 21:39:29.994710 19026 net.cpp:84] Creating Layer drop6
I0509 21:39:29.994714 19026 net.cpp:406] drop6 <- fc6
I0509 21:39:29.994721 19026 net.cpp:367] drop6 -> fc6 (in-place)
I0509 21:39:29.994745 19026 net.cpp:122] Setting up drop6
I0509 21:39:29.994750 19026 net.cpp:129] Top shape: 32 4096 (131072)
I0509 21:39:29.994752 19026 net.cpp:137] Memory required for data: 264515328
I0509 21:39:29.994755 19026 layer_factory.hpp:77] Creating layer fc7
I0509 21:39:29.994765 19026 net.cpp:84] Creating Layer fc7
I0509 21:39:29.994767 19026 net.cpp:406] fc7 <- fc6
I0509 21:39:29.994772 19026 net.cpp:380] fc7 -> fc7
I0509 21:39:30.154791 19026 net.cpp:122] Setting up fc7
I0509 21:39:30.154810 19026 net.cpp:129] Top shape: 32 4096 (131072)
I0509 21:39:30.154814 19026 net.cpp:137] Memory required for data: 265039616
I0509 21:39:30.154822 19026 layer_factory.hpp:77] Creating layer relu7
I0509 21:39:30.154834 19026 net.cpp:84] Creating Layer relu7
I0509 21:39:30.154839 19026 net.cpp:406] relu7 <- fc7
I0509 21:39:30.154844 19026 net.cpp:367] relu7 -> fc7 (in-place)
I0509 21:39:30.155329 19026 net.cpp:122] Setting up relu7
I0509 21:39:30.155339 19026 net.cpp:129] Top shape: 32 4096 (131072)
I0509 21:39:30.155344 19026 net.cpp:137] Memory required for data: 265563904
I0509 21:39:30.155346 19026 layer_factory.hpp:77] Creating layer drop7
I0509 21:39:30.155352 19026 net.cpp:84] Creating Layer drop7
I0509 21:39:30.155355 19026 net.cpp:406] drop7 <- fc7
I0509 21:39:30.155359 19026 net.cpp:367] drop7 -> fc7 (in-place)
I0509 21:39:30.155385 19026 net.cpp:122] Setting up drop7
I0509 21:39:30.155390 19026 net.cpp:129] Top shape: 32 4096 (131072)
I0509 21:39:30.155393 19026 net.cpp:137] Memory required for data: 266088192
I0509 21:39:30.155395 19026 layer_factory.hpp:77] Creating layer fc8
I0509 21:39:30.155403 19026 net.cpp:84] Creating Layer fc8
I0509 21:39:30.155407 19026 net.cpp:406] fc8 <- fc7
I0509 21:39:30.155411 19026 net.cpp:380] fc8 -> fc8
I0509 21:39:30.163254 19026 net.cpp:122] Setting up fc8
I0509 21:39:30.163265 19026 net.cpp:129] Top shape: 32 196 (6272)
I0509 21:39:30.163269 19026 net.cpp:137] Memory required for data: 266113280
I0509 21:39:30.163275 19026 layer_factory.hpp:77] Creating layer fc8_fc8_0_split
I0509 21:39:30.163280 19026 net.cpp:84] Creating Layer fc8_fc8_0_split
I0509 21:39:30.163285 19026 net.cpp:406] fc8_fc8_0_split <- fc8
I0509 21:39:30.163290 19026 net.cpp:380] fc8_fc8_0_split -> fc8_fc8_0_split_0
I0509 21:39:30.163297 19026 net.cpp:380] fc8_fc8_0_split -> fc8_fc8_0_split_1
I0509 21:39:30.163329 19026 net.cpp:122] Setting up fc8_fc8_0_split
I0509 21:39:30.163336 19026 net.cpp:129] Top shape: 32 196 (6272)
I0509 21:39:30.163339 19026 net.cpp:129] Top shape: 32 196 (6272)
I0509 21:39:30.163362 19026 net.cpp:137] Memory required for data: 266163456
I0509 21:39:30.163365 19026 layer_factory.hpp:77] Creating layer accuracy
I0509 21:39:30.163372 19026 net.cpp:84] Creating Layer accuracy
I0509 21:39:30.163375 19026 net.cpp:406] accuracy <- fc8_fc8_0_split_0
I0509 21:39:30.163379 19026 net.cpp:406] accuracy <- label_val-data_1_split_0
I0509 21:39:30.163383 19026 net.cpp:380] accuracy -> accuracy
…
