…
I0430 15:24:16.302695 21101 net.cpp:294] The NetState phase (0) differed from the phase (1) specified by a rule in layer accuracy
I0430 15:24:16.302881 21101 net.cpp:51] Initializing net from parameters:
state {
phase: TRAIN
level: 0
stage: ""
}
layer {
name: "train-data"
type: "Data"
top: "data"
top: "label"
include {
phase: TRAIN
}
transform_param {
mirror: true
crop_size: 227
mean_file: "/mnt/bigdisk/MANDIG2/digits/jobs/20200428-132136-11fe/mean.binaryproto"
}
data_param {
source: "/mnt/bigdisk/MANDIG2/digits/jobs/20200428-132136-11fe/train_db"
batch_size: 128
backend: LMDB
}
}
layer {
name: "conv1"
type: "Convolution"
bottom: "data"
top: "conv1"
param {
lr_mult: 1
decay_mult: 1
}
param {
lr_mult: 2
decay_mult: 0
}
convolution_param {
num_output: 96
kernel_size: 11
stride: 4
weight_filler {
type: "gaussian"
std: 0.01
}
bias_filler {
type: "constant"
value: 0
}
}
}
layer {
name: "relu1"
type: "ReLU"
bottom: "conv1"
top: "conv1"
}
layer {
name: "norm1"
type: "LRN"
bottom: "conv1"
top: "norm1"
lrn_param {
local_size: 5
alpha: 0.0001
beta: 0.75
}
}
layer {
name: "pool1"
type: "Pooling"
bottom: "norm1"
top: "pool1"
pooling_param {
pool: MAX
kernel_size: 3
stride: 2
}
}
layer {
name: "conv2"
type: "Convolution"
bottom: "pool1"
top: "conv2"
param {
lr_mult: 1
decay_mult: 1
}
param {
lr_mult: 2
decay_mult: 0
}
convolution_param {
num_output: 256
pad: 2
kernel_size: 5
group: 2
weight_filler {
type: "gaussian"
std: 0.01
}
bias_filler {
type: "constant"
value: 0.1
}
}
}
layer {
name: "relu2"
type: "ReLU"
bottom: "conv2"
top: "conv2"
}
layer {
name: "norm2"
type: "LRN"
bottom: "conv2"
top: "norm2"
lrn_param {
local_size: 5
alpha: 0.0001
beta: 0.75
}
}
layer {
name: "pool2"
type: "Pooling"
bottom: "norm2"
top: "pool2"
pooling_param {
pool: MAX
kernel_size: 3
stride: 2
}
}
layer {
name: "conv3"
type: "Convolution"
bottom: "pool2"
top: "conv3"
param {
lr_mult: 1
decay_mult: 1
}
param {
lr_mult: 2
decay_mult: 0
}
convolution_param {
num_output: 384
pad: 1
kernel_size: 3
weight_filler {
type: "gaussian"
std: 0.01
}
bias_filler {
type: "constant"
value: 0
}
}
}
layer {
name: "relu3"
type: "ReLU"
bottom: "conv3"
top: "conv3"
}
layer {
name: "conv4"
type: "Convolution"
bottom: "conv3"
top: "conv4"
param {
lr_mult: 1
decay_mult: 1
}
param {
lr_mult: 2
decay_mult: 0
}
convolution_param {
num_output: 384
pad: 1
kernel_size: 3
group: 2
weight_filler {
type: "gaussian"
std: 0.01
}
bias_filler {
type: "constant"
value: 0.1
}
}
}
layer {
name: "relu4"
type: "ReLU"
bottom: "conv4"
top: "conv4"
}
layer {
name: "conv5"
type: "Convolution"
bottom: "conv4"
top: "conv5"
param {
lr_mult: 1
decay_mult: 1
}
param {
lr_mult: 2
decay_mult: 0
}
convolution_param {
num_output: 256
pad: 1
kernel_size: 3
group: 2
weight_filler {
type: "gaussian"
std: 0.01
}
bias_filler {
type: "constant"
value: 0.1
}
}
}
layer {
name: "relu5"
type: "ReLU"
bottom: "conv5"
top: "conv5"
}
layer {
name: "pool5"
type: "Pooling"
bottom: "conv5"
top: "pool5"
pooling_param {
pool: MAX
kernel_size: 3
stride: 2
}
}
layer {
name: "fc6"
type: "InnerProduct"
bottom: "pool5"
top: "fc6"
param {
lr_mult: 1
decay_mult: 1
}
param {
lr_mult: 2
decay_mult: 0
}
inner_product_param {
num_output: 4096
weight_filler {
type: "gaussian"
std: 0.005
}
bias_filler {
type: "constant"
value: 0.1
}
}
}
layer {
name: "relu6"
type: "ReLU"
bottom: "fc6"
top: "fc6"
}
layer {
name: "drop6"
type: "Dropout"
bottom: "fc6"
top: "fc6"
dropout_param {
dropout_ratio: 0.5
}
}
layer {
name: "fc7"
type: "InnerProduct"
bottom: "fc6"
top: "fc7"
param {
lr_mult: 1
decay_mult: 1
}
param {
lr_mult: 2
decay_mult: 0
}
inner_product_param {
num_output: 4096
weight_filler {
type: "gaussian"
std: 0.005
}
bias_filler {
type: "constant"
value: 0.1
}
}
}
layer {
name: "relu7"
type: "ReLU"
bottom: "fc7"
top: "fc7"
}
layer {
name: "drop7"
type: "Dropout"
bottom: "fc7"
top: "fc7"
dropout_param {
dropout_ratio: 0.5
}
}
layer {
name: "fc8"
type: "InnerProduct"
bottom: "fc7"
top: "fc8"
param {
lr_mult: 1
decay_mult: 1
}
param {
lr_mult: 2
decay_mult: 0
}
inner_product_param {
num_output: 196
weight_filler {
type: "gaussian"
std: 0.01
}
bias_filler {
type: "constant"
value: 0
}
}
}
layer {
name: "loss"
type: "SoftmaxWithLoss"
bottom: "fc8"
bottom: "label"
top: "loss"
}
I0430 15:24:16.303033 21101 layer_factory.hpp:77] Creating layer train-data
I0430 15:24:16.319509 21101 db_lmdb.cpp:35] Opened lmdb /mnt/bigdisk/MANDIG2/digits/jobs/20200428-132136-11fe/train_db
I0430 15:24:16.319933 21101 net.cpp:84] Creating Layer train-data
I0430 15:24:16.319959 21101 net.cpp:380] train-data -> data
I0430 15:24:16.319991 21101 net.cpp:380] train-data -> label
I0430 15:24:16.320013 21101 data_transformer.cpp:25] Loading mean file from: /mnt/bigdisk/MANDIG2/digits/jobs/20200428-132136-11fe/mean.binaryproto
I0430 15:24:16.351063 21101 data_layer.cpp:45] output data size: 128,3,227,227
I0430 15:24:16.515779 21101 net.cpp:122] Setting up train-data
I0430 15:24:16.515806 21101 net.cpp:129] Top shape: 128 3 227 227 (19787136)
I0430 15:24:16.515816 21101 net.cpp:129] Top shape: 128 (128)
I0430 15:24:16.515823 21101 net.cpp:137] Memory required for data: 79149056
I0430 15:24:16.515836 21101 layer_factory.hpp:77] Creating layer conv1
I0430 15:24:16.515863 21101 net.cpp:84] Creating Layer conv1
I0430 15:24:16.515872 21101 net.cpp:406] conv1 <- data
I0430 15:24:16.515888 21101 net.cpp:380] conv1 -> conv1
I0430 15:24:18.667059 21101 net.cpp:122] Setting up conv1
I0430 15:24:18.667083 21101 net.cpp:129] Top shape: 128 96 55 55 (37171200)
I0430 15:24:18.667086 21101 net.cpp:137] Memory required for data: 227833856
I0430 15:24:18.667109 21101 layer_factory.hpp:77] Creating layer relu1
I0430 15:24:18.667120 21101 net.cpp:84] Creating Layer relu1
I0430 15:24:18.667124 21101 net.cpp:406] relu1 <- conv1
I0430 15:24:18.667131 21101 net.cpp:367] relu1 -> conv1 (in-place)
I0430 15:24:18.667500 21101 net.cpp:122] Setting up relu1
I0430 15:24:18.667510 21101 net.cpp:129] Top shape: 128 96 55 55 (37171200)
I0430 15:24:18.667515 21101 net.cpp:137] Memory required for data: 376518656
I0430 15:24:18.667518 21101 layer_factory.hpp:77] Creating layer norm1
I0430 15:24:18.667529 21101 net.cpp:84] Creating Layer norm1
I0430 15:24:18.667533 21101 net.cpp:406] norm1 <- conv1
I0430 15:24:18.667560 21101 net.cpp:380] norm1 -> norm1
I0430 15:24:18.669361 21101 net.cpp:122] Setting up norm1
I0430 15:24:18.669373 21101 net.cpp:129] Top shape: 128 96 55 55 (37171200)
I0430 15:24:18.669379 21101 net.cpp:137] Memory required for data: 525203456
I0430 15:24:18.669385 21101 layer_factory.hpp:77] Creating layer pool1
I0430 15:24:18.669394 21101 net.cpp:84] Creating Layer pool1
I0430 15:24:18.669401 21101 net.cpp:406] pool1 <- norm1
I0430 15:24:18.669409 21101 net.cpp:380] pool1 -> pool1
I0430 15:24:18.669450 21101 net.cpp:122] Setting up pool1
I0430 15:24:18.669459 21101 net.cpp:129] Top shape: 128 96 27 27 (8957952)
I0430 15:24:18.669466 21101 net.cpp:137] Memory required for data: 561035264
I0430 15:24:18.669471 21101 layer_factory.hpp:77] Creating layer conv2
I0430 15:24:18.669483 21101 net.cpp:84] Creating Layer conv2
I0430 15:24:18.669488 21101 net.cpp:406] conv2 <- pool1
I0430 15:24:18.669495 21101 net.cpp:380] conv2 -> conv2
I0430 15:24:18.711760 21101 net.cpp:122] Setting up conv2
I0430 15:24:18.711786 21101 net.cpp:129] Top shape: 128 256 27 27 (23887872)
I0430 15:24:18.711796 21101 net.cpp:137] Memory required for data: 656586752
I0430 15:24:18.711818 21101 layer_factory.hpp:77] Creating layer relu2
I0430 15:24:18.711838 21101 net.cpp:84] Creating Layer relu2
I0430 15:24:18.711846 21101 net.cpp:406] relu2 <- conv2
I0430 15:24:18.711863 21101 net.cpp:367] relu2 -> conv2 (in-place)
I0430 15:24:18.712612 21101 net.cpp:122] Setting up relu2
I0430 15:24:18.712630 21101 net.cpp:129] Top shape: 128 256 27 27 (23887872)
I0430 15:24:18.712638 21101 net.cpp:137] Memory required for data: 752138240
I0430 15:24:18.712649 21101 layer_factory.hpp:77] Creating layer norm2
I0430 15:24:18.712666 21101 net.cpp:84] Creating Layer norm2
I0430 15:24:18.712674 21101 net.cpp:406] norm2 <- conv2
I0430 15:24:18.712687 21101 net.cpp:380] norm2 -> norm2
I0430 15:24:18.713974 21101 net.cpp:122] Setting up norm2
I0430 15:24:18.713989 21101 net.cpp:129] Top shape: 128 256 27 27 (23887872)
I0430 15:24:18.713999 21101 net.cpp:137] Memory required for data: 847689728
I0430 15:24:18.714007 21101 layer_factory.hpp:77] Creating layer pool2
I0430 15:24:18.714023 21101 net.cpp:84] Creating Layer pool2
I0430 15:24:18.714035 21101 net.cpp:406] pool2 <- norm2
I0430 15:24:18.714047 21101 net.cpp:380] pool2 -> pool2
I0430 15:24:18.714095 21101 net.cpp:122] Setting up pool2
I0430 15:24:18.714109 21101 net.cpp:129] Top shape: 128 256 13 13 (5537792)
I0430 15:24:18.714118 21101 net.cpp:137] Memory required for data: 869840896
I0430 15:24:18.714123 21101 layer_factory.hpp:77] Creating layer conv3
I0430 15:24:18.714144 21101 net.cpp:84] Creating Layer conv3
I0430 15:24:18.714154 21101 net.cpp:406] conv3 <- pool2
I0430 15:24:18.714169 21101 net.cpp:380] conv3 -> conv3
I0430 15:24:18.731220 21101 net.cpp:122] Setting up conv3
I0430 15:24:18.731243 21101 net.cpp:129] Top shape: 128 384 13 13 (8306688)
I0430 15:24:18.731249 21101 net.cpp:137] Memory required for data: 903067648
I0430 15:24:18.731267 21101 layer_factory.hpp:77] Creating layer relu3
I0430 15:24:18.731279 21101 net.cpp:84] Creating Layer relu3
I0430 15:24:18.731285 21101 net.cpp:406] relu3 <- conv3
I0430 15:24:18.731293 21101 net.cpp:367] relu3 -> conv3 (in-place)
I0430 15:24:18.733126 21101 net.cpp:122] Setting up relu3
I0430 15:24:18.733139 21101 net.cpp:129] Top shape: 128 384 13 13 (8306688)
I0430 15:24:18.733146 21101 net.cpp:137] Memory required for data: 936294400
I0430 15:24:18.733155 21101 layer_factory.hpp:77] Creating layer conv4
I0430 15:24:18.733170 21101 net.cpp:84] Creating Layer conv4
I0430 15:24:18.733178 21101 net.cpp:406] conv4 <- conv3
I0430 15:24:18.733187 21101 net.cpp:380] conv4 -> conv4
I0430 15:24:18.763031 21101 net.cpp:122] Setting up conv4
I0430 15:24:18.763058 21101 net.cpp:129] Top shape: 128 384 13 13 (8306688)
I0430 15:24:18.763064 21101 net.cpp:137] Memory required for data: 969521152
I0430 15:24:18.763078 21101 layer_factory.hpp:77] Creating layer relu4
I0430 15:24:18.763092 21101 net.cpp:84] Creating Layer relu4
I0430 15:24:18.763123 21101 net.cpp:406] relu4 <- conv4
I0430 15:24:18.763134 21101 net.cpp:367] relu4 -> conv4 (in-place)
I0430 15:24:18.763667 21101 net.cpp:122] Setting up relu4
I0430 15:24:18.763681 21101 net.cpp:129] Top shape: 128 384 13 13 (8306688)
I0430 15:24:18.763686 21101 net.cpp:137] Memory required for data: 1002747904
I0430 15:24:18.763691 21101 layer_factory.hpp:77] Creating layer conv5
I0430 15:24:18.763707 21101 net.cpp:84] Creating Layer conv5
I0430 15:24:18.763713 21101 net.cpp:406] conv5 <- conv4
I0430 15:24:18.763722 21101 net.cpp:380] conv5 -> conv5
I0430 15:24:18.782773 21101 net.cpp:122] Setting up conv5
I0430 15:24:18.782796 21101 net.cpp:129] Top shape: 128 256 13 13 (5537792)
I0430 15:24:18.782802 21101 net.cpp:137] Memory required for data: 1024899072
I0430 15:24:18.782820 21101 layer_factory.hpp:77] Creating layer relu5
I0430 15:24:18.782832 21101 net.cpp:84] Creating Layer relu5
I0430 15:24:18.782838 21101 net.cpp:406] relu5 <- conv5
I0430 15:24:18.782850 21101 net.cpp:367] relu5 -> conv5 (in-place)
I0430 15:24:18.783562 21101 net.cpp:122] Setting up relu5
I0430 15:24:18.783578 21101 net.cpp:129] Top shape: 128 256 13 13 (5537792)
I0430 15:24:18.783584 21101 net.cpp:137] Memory required for data: 1047050240
I0430 15:24:18.783591 21101 layer_factory.hpp:77] Creating layer pool5
I0430 15:24:18.783601 21101 net.cpp:84] Creating Layer pool5
I0430 15:24:18.783607 21101 net.cpp:406] pool5 <- conv5
I0430 15:24:18.783615 21101 net.cpp:380] pool5 -> pool5
I0430 15:24:18.783669 21101 net.cpp:122] Setting up pool5
I0430 15:24:18.783679 21101 net.cpp:129] Top shape: 128 256 6 6 (1179648)
I0430 15:24:18.783685 21101 net.cpp:137] Memory required for data: 1051768832
I0430 15:24:18.783691 21101 layer_factory.hpp:77] Creating layer fc6
I0430 15:24:18.783707 21101 net.cpp:84] Creating Layer fc6
I0430 15:24:18.783713 21101 net.cpp:406] fc6 <- pool5
I0430 15:24:18.783723 21101 net.cpp:380] fc6 -> fc6
I0430 15:24:19.257115 21101 net.cpp:122] Setting up fc6
I0430 15:24:19.257143 21101 net.cpp:129] Top shape: 128 4096 (524288)
I0430 15:24:19.257150 21101 net.cpp:137] Memory required for data: 1053865984
I0430 15:24:19.257164 21101 layer_factory.hpp:77] Creating layer relu6
I0430 15:24:19.257175 21101 net.cpp:84] Creating Layer relu6
I0430 15:24:19.257184 21101 net.cpp:406] relu6 <- fc6
I0430 15:24:19.257195 21101 net.cpp:367] relu6 -> fc6 (in-place)
I0430 15:24:19.394583 21101 net.cpp:122] Setting up relu6
I0430 15:24:19.394608 21101 net.cpp:129] Top shape: 128 4096 (524288)
I0430 15:24:19.394614 21101 net.cpp:137] Memory required for data: 1055963136
I0430 15:24:19.394623 21101 layer_factory.hpp:77] Creating layer drop6
I0430 15:24:19.394639 21101 net.cpp:84] Creating Layer drop6
I0430 15:24:19.394645 21101 net.cpp:406] drop6 <- fc6
I0430 15:24:19.394655 21101 net.cpp:367] drop6 -> fc6 (in-place)
I0430 15:24:19.394696 21101 net.cpp:122] Setting up drop6
I0430 15:24:19.394703 21101 net.cpp:129] Top shape: 128 4096 (524288)
I0430 15:24:19.394711 21101 net.cpp:137] Memory required for data: 1058060288
I0430 15:24:19.394717 21101 layer_factory.hpp:77] Creating layer fc7
I0430 15:24:19.394731 21101 net.cpp:84] Creating Layer fc7
I0430 15:24:19.394735 21101 net.cpp:406] fc7 <- fc6
I0430 15:24:19.394745 21101 net.cpp:380] fc7 -> fc7
I0430 15:24:19.638340 21101 net.cpp:122] Setting up fc7
I0430 15:24:19.638371 21101 net.cpp:129] Top shape: 128 4096 (524288)
I0430 15:24:19.638378 21101 net.cpp:137] Memory required for data: 1060157440
I0430 15:24:19.638393 21101 layer_factory.hpp:77] Creating layer relu7
I0430 15:24:19.638406 21101 net.cpp:84] Creating Layer relu7
I0430 15:24:19.638414 21101 net.cpp:406] relu7 <- fc7
I0430 15:24:19.638427 21101 net.cpp:367] relu7 -> fc7 (in-place)
I0430 15:24:19.639339 21101 net.cpp:122] Setting up relu7
I0430 15:24:19.639358 21101 net.cpp:129] Top shape: 128 4096 (524288)
I0430 15:24:19.639365 21101 net.cpp:137] Memory required for data: 1062254592
I0430 15:24:19.639372 21101 layer_factory.hpp:77] Creating layer drop7
I0430 15:24:19.639382 21101 net.cpp:84] Creating Layer drop7
I0430 15:24:19.639389 21101 net.cpp:406] drop7 <- fc7
I0430 15:24:19.639428 21101 net.cpp:367] drop7 -> fc7 (in-place)
I0430 15:24:19.639474 21101 net.cpp:122] Setting up drop7
I0430 15:24:19.639482 21101 net.cpp:129] Top shape: 128 4096 (524288)
I0430 15:24:19.639489 21101 net.cpp:137] Memory required for data: 1064351744
I0430 15:24:19.639495 21101 layer_factory.hpp:77] Creating layer fc8
I0430 15:24:19.639506 21101 net.cpp:84] Creating Layer fc8
I0430 15:24:19.639513 21101 net.cpp:406] fc8 <- fc7
I0430 15:24:19.639521 21101 net.cpp:380] fc8 -> fc8
I0430 15:24:19.650204 21101 net.cpp:122] Setting up fc8
I0430 15:24:19.650228 21101 net.cpp:129] Top shape: 128 196 (25088)
I0430 15:24:19.650231 21101 net.cpp:137] Memory required for data: 1064452096
I0430 15:24:19.650241 21101 layer_factory.hpp:77] Creating layer loss
I0430 15:24:19.650249 21101 net.cpp:84] Creating Layer loss
I0430 15:24:19.650254 21101 net.cpp:406] loss <- fc8
I0430 15:24:19.650260 21101 net.cpp:406] loss <- label
I0430 15:24:19.650269 21101 net.cpp:380] loss -> loss
I0430 15:24:19.650281 21101 layer_factory.hpp:77] Creating layer loss
…
I0430 15:24:19.655055 21101 solver.cpp:172] Creating test net (#0) specified by net file: train_val.prototxt
I0430 15:24:19.655104 21101 net.cpp:294] The NetState phase (1) differed from the phase (0) specified by a rule in layer train-data
I0430 15:24:19.655318 21101 net.cpp:51] Initializing net from parameters:
state {
phase: TEST
}
layer {
name: "val-data"
type: "Data"
top: "data"
top: "label"
include {
phase: TEST
}
transform_param {
crop_size: 227
mean_file: "/mnt/bigdisk/MANDIG2/digits/jobs/20200428-132136-11fe/mean.binaryproto"
}
data_param {
source: "/mnt/bigdisk/MANDIG2/digits/jobs/20200428-132136-11fe/val_db"
batch_size: 32
backend: LMDB
}
}
layer {
name: "conv1"
type: "Convolution"
bottom: "data"
top: "conv1"
param {
lr_mult: 1
decay_mult: 1
}
param {
lr_mult: 2
decay_mult: 0
}
convolution_param {
num_output: 96
kernel_size: 11
stride: 4
weight_filler {
type: "gaussian"
std: 0.01
}
bias_filler {
type: "constant"
value: 0
}
}
}
layer {
name: "relu1"
type: "ReLU"
bottom: "conv1"
top: "conv1"
}
layer {
name: "norm1"
type: "LRN"
bottom: "conv1"
top: "norm1"
lrn_param {
local_size: 5
alpha: 0.0001
beta: 0.75
}
}
layer {
name: "pool1"
type: "Pooling"
bottom: "norm1"
top: "pool1"
pooling_param {
pool: MAX
kernel_size: 3
stride: 2
}
}
layer {
name: "conv2"
type: "Convolution"
bottom: "pool1"
top: "conv2"
param {
lr_mult: 1
decay_mult: 1
}
param {
lr_mult: 2
decay_mult: 0
}
convolution_param {
num_output: 256
pad: 2
kernel_size: 5
group: 2
weight_filler {
type: "gaussian"
std: 0.01
}
bias_filler {
type: "constant"
value: 0.1
}
}
}
layer {
name: "relu2"
type: "ReLU"
bottom: "conv2"
top: "conv2"
}
layer {
name: "norm2"
type: "LRN"
bottom: "conv2"
top: "norm2"
lrn_param {
local_size: 5
alpha: 0.0001
beta: 0.75
}
}
layer {
name: "pool2"
type: "Pooling"
bottom: "norm2"
top: "pool2"
pooling_param {
pool: MAX
kernel_size: 3
stride: 2
}
}
layer {
name: "conv3"
type: "Convolution"
bottom: "pool2"
top: "conv3"
param {
lr_mult: 1
decay_mult: 1
}
param {
lr_mult: 2
decay_mult: 0
}
convolution_param {
num_output: 384
pad: 1
kernel_size: 3
weight_filler {
type: "gaussian"
std: 0.01
}
bias_filler {
type: "constant"
value: 0
}
}
}
layer {
name: "relu3"
type: "ReLU"
bottom: "conv3"
top: "conv3"
}
layer {
name: "conv4"
type: "Convolution"
bottom: "conv3"
top: "conv4"
param {
lr_mult: 1
decay_mult: 1
}
param {
lr_mult: 2
decay_mult: 0
}
convolution_param {
num_output: 384
pad: 1
kernel_size: 3
group: 2
weight_filler {
type: "gaussian"
std: 0.01
}
bias_filler {
type: "constant"
value: 0.1
}
}
}
layer {
name: "relu4"
type: "ReLU"
bottom: "conv4"
top: "conv4"
}
layer {
name: "conv5"
type: "Convolution"
bottom: "conv4"
top: "conv5"
param {
lr_mult: 1
decay_mult: 1
}
param {
lr_mult: 2
decay_mult: 0
}
convolution_param {
num_output: 256
pad: 1
kernel_size: 3
group: 2
weight_filler {
type: "gaussian"
std: 0.01
}
bias_filler {
type: "constant"
value: 0.1
}
}
}
layer {
name: "relu5"
type: "ReLU"
bottom: "conv5"
top: "conv5"
}
layer {
name: "pool5"
type: "Pooling"
bottom: "conv5"
top: "pool5"
pooling_param {
pool: MAX
kernel_size: 3
stride: 2
}
}
layer {
name: "fc6"
type: "InnerProduct"
bottom: "pool5"
top: "fc6"
param {
lr_mult: 1
decay_mult: 1
}
param {
lr_mult: 2
decay_mult: 0
}
inner_product_param {
num_output: 4096
weight_filler {
type: "gaussian"
std: 0.005
}
bias_filler {
type: "constant"
value: 0.1
}
}
}
layer {
name: "relu6"
type: "ReLU"
bottom: "fc6"
top: "fc6"
}
layer {
name: "drop6"
type: "Dropout"
bottom: "fc6"
top: "fc6"
dropout_param {
dropout_ratio: 0.5
}
}
layer {
name: "fc7"
type: "InnerProduct"
bottom: "fc6"
top: "fc7"
param {
lr_mult: 1
decay_mult: 1
}
param {
lr_mult: 2
decay_mult: 0
}
inner_product_param {
num_output: 4096
weight_filler {
type: "gaussian"
std: 0.005
}
bias_filler {
type: "constant"
value: 0.1
}
}
}
layer {
name: "relu7"
type: "ReLU"
bottom: "fc7"
top: "fc7"
}
layer {
name: "drop7"
type: "Dropout"
bottom: "fc7"
top: "fc7"
dropout_param {
dropout_ratio: 0.5
}
}
layer {
name: "fc8"
type: "InnerProduct"
bottom: "fc7"
top: "fc8"
param {
lr_mult: 1
decay_mult: 1
}
param {
lr_mult: 2
decay_mult: 0
}
inner_product_param {
num_output: 196
weight_filler {
type: "gaussian"
std: 0.01
}
bias_filler {
type: "constant"
value: 0
}
}
}
layer {
name: "accuracy"
type: "Accuracy"
bottom: "fc8"
bottom: "label"
top: "accuracy"
include {
phase: TEST
}
}
layer {
name: "loss"
type: "SoftmaxWithLoss"
bottom: "fc8"
bottom: "label"
top: "loss"
}
I0430 15:24:19.655448 21101 layer_factory.hpp:77] Creating layer val-data
I0430 15:24:19.657048 21101 db_lmdb.cpp:35] Opened lmdb /mnt/bigdisk/MANDIG2/digits/jobs/20200428-132136-11fe/val_db
I0430 15:24:19.657258 21101 net.cpp:84] Creating Layer val-data
I0430 15:24:19.657272 21101 net.cpp:380] val-data -> data
I0430 15:24:19.657289 21101 net.cpp:380] val-data -> label
I0430 15:24:19.657305 21101 data_transformer.cpp:25] Loading mean file from: /mnt/bigdisk/MANDIG2/digits/jobs/20200428-132136-11fe/mean.binaryproto
I0430 15:24:19.661317 21101 data_layer.cpp:45] output data size: 32,3,227,227
I0430 15:24:19.738219 21101 net.cpp:122] Setting up val-data
I0430 15:24:19.738255 21101 net.cpp:129] Top shape: 32 3 227 227 (4946784)
I0430 15:24:19.738265 21101 net.cpp:129] Top shape: 32 (32)
I0430 15:24:19.738281 21101 net.cpp:137] Memory required for data: 19787264
I0430 15:24:19.738296 21101 layer_factory.hpp:77] Creating layer label_val-data_1_split
I0430 15:24:19.738314 21101 net.cpp:84] Creating Layer label_val-data_1_split
I0430 15:24:19.738329 21101 net.cpp:406] label_val-data_1_split <- label
I0430 15:24:19.738345 21101 net.cpp:380] label_val-data_1_split -> label_val-data_1_split_0
I0430 15:24:19.738364 21101 net.cpp:380] label_val-data_1_split -> label_val-data_1_split_1
I0430 15:24:19.738445 21101 net.cpp:122] Setting up label_val-data_1_split
I0430 15:24:19.738462 21101 net.cpp:129] Top shape: 32 (32)
I0430 15:24:19.738471 21101 net.cpp:129] Top shape: 32 (32)
I0430 15:24:19.738528 21101 net.cpp:137] Memory required for data: 19787520
I0430 15:24:19.738538 21101 layer_factory.hpp:77] Creating layer conv1
I0430 15:24:19.738564 21101 net.cpp:84] Creating Layer conv1
I0430 15:24:19.738579 21101 net.cpp:406] conv1 <- data
I0430 15:24:19.738593 21101 net.cpp:380] conv1 -> conv1
I0430 15:24:19.747833 21101 net.cpp:122] Setting up conv1
I0430 15:24:19.747859 21101 net.cpp:129] Top shape: 32 96 55 55 (9292800)
I0430 15:24:19.747869 21101 net.cpp:137] Memory required for data: 56958720
I0430 15:24:19.747889 21101 layer_factory.hpp:77] Creating layer relu1
I0430 15:24:19.747902 21101 net.cpp:84] Creating Layer relu1
I0430 15:24:19.747913 21101 net.cpp:406] relu1 <- conv1
I0430 15:24:19.747923 21101 net.cpp:367] relu1 -> conv1 (in-place)
I0430 15:24:19.748315 21101 net.cpp:122] Setting up relu1
I0430 15:24:19.748328 21101 net.cpp:129] Top shape: 32 96 55 55 (9292800)
I0430 15:24:19.748337 21101 net.cpp:137] Memory required for data: 94129920
I0430 15:24:19.748345 21101 layer_factory.hpp:77] Creating layer norm1
I0430 15:24:19.748363 21101 net.cpp:84] Creating Layer norm1
I0430 15:24:19.748369 21101 net.cpp:406] norm1 <- conv1
I0430 15:24:19.748380 21101 net.cpp:380] norm1 -> norm1
I0430 15:24:19.762985 21101 net.cpp:122] Setting up norm1
I0430 15:24:19.763015 21101 net.cpp:129] Top shape: 32 96 55 55 (9292800)
I0430 15:24:19.763023 21101 net.cpp:137] Memory required for data: 131301120
I0430 15:24:19.763036 21101 layer_factory.hpp:77] Creating layer pool1
I0430 15:24:19.763054 21101 net.cpp:84] Creating Layer pool1
I0430 15:24:19.763063 21101 net.cpp:406] pool1 <- norm1
I0430 15:24:19.763077 21101 net.cpp:380] pool1 -> pool1
I0430 15:24:19.763131 21101 net.cpp:122] Setting up pool1
I0430 15:24:19.763145 21101 net.cpp:129] Top shape: 32 96 27 27 (2239488)
I0430 15:24:19.763154 21101 net.cpp:137] Memory required for data: 140259072
I0430 15:24:19.763164 21101 layer_factory.hpp:77] Creating layer conv2
I0430 15:24:19.763182 21101 net.cpp:84] Creating Layer conv2
I0430 15:24:19.763190 21101 net.cpp:406] conv2 <- pool1
I0430 15:24:19.763203 21101 net.cpp:380] conv2 -> conv2
I0430 15:24:19.784220 21101 net.cpp:122] Setting up conv2
I0430 15:24:19.784248 21101 net.cpp:129] Top shape: 32 256 27 27 (5971968)
I0430 15:24:19.784258 21101 net.cpp:137] Memory required for data: 164146944
I0430 15:24:19.784289 21101 layer_factory.hpp:77] Creating layer relu2
I0430 15:24:19.784308 21101 net.cpp:84] Creating Layer relu2
I0430 15:24:19.784322 21101 net.cpp:406] relu2 <- conv2
I0430 15:24:19.784335 21101 net.cpp:367] relu2 -> conv2 (in-place)
I0430 15:24:19.786393 21101 net.cpp:122] Setting up relu2
I0430 15:24:19.786412 21101 net.cpp:129] Top shape: 32 256 27 27 (5971968)
I0430 15:24:19.786420 21101 net.cpp:137] Memory required for data: 188034816
I0430 15:24:19.786429 21101 layer_factory.hpp:77] Creating layer norm2
I0430 15:24:19.786448 21101 net.cpp:84] Creating Layer norm2
I0430 15:24:19.786460 21101 net.cpp:406] norm2 <- conv2
I0430 15:24:19.786470 21101 net.cpp:380] norm2 -> norm2
I0430 15:24:19.788645 21101 net.cpp:122] Setting up norm2
I0430 15:24:19.788666 21101 net.cpp:129] Top shape: 32 256 27 27 (5971968)
I0430 15:24:19.788672 21101 net.cpp:137] Memory required for data: 211922688
I0430 15:24:19.788684 21101 layer_factory.hpp:77] Creating layer pool2
I0430 15:24:19.788700 21101 net.cpp:84] Creating Layer pool2
I0430 15:24:19.788714 21101 net.cpp:406] pool2 <- norm2
I0430 15:24:19.788728 21101 net.cpp:380] pool2 -> pool2
I0430 15:24:19.788775 21101 net.cpp:122] Setting up pool2
I0430 15:24:19.788794 21101 net.cpp:129] Top shape: 32 256 13 13 (1384448)
I0430 15:24:19.788802 21101 net.cpp:137] Memory required for data: 217460480
I0430 15:24:19.788810 21101 layer_factory.hpp:77] Creating layer conv3
I0430 15:24:19.788839 21101 net.cpp:84] Creating Layer conv3
I0430 15:24:19.788852 21101 net.cpp:406] conv3 <- pool2
I0430 15:24:19.788866 21101 net.cpp:380] conv3 -> conv3
I0430 15:24:19.809835 21101 net.cpp:122] Setting up conv3
I0430 15:24:19.809862 21101 net.cpp:129] Top shape: 32 384 13 13 (2076672)
I0430 15:24:19.809870 21101 net.cpp:137] Memory required for data: 225767168
I0430 15:24:19.809890 21101 layer_factory.hpp:77] Creating layer relu3
I0430 15:24:19.809907 21101 net.cpp:84] Creating Layer relu3
I0430 15:24:19.809919 21101 net.cpp:406] relu3 <- conv3
I0430 15:24:19.809932 21101 net.cpp:367] relu3 -> conv3 (in-place)
I0430 15:24:19.813246 21101 net.cpp:122] Setting up relu3
I0430 15:24:19.813266 21101 net.cpp:129] Top shape: 32 384 13 13 (2076672)
I0430 15:24:19.813272 21101 net.cpp:137] Memory required for data: 234073856
I0430 15:24:19.813277 21101 layer_factory.hpp:77] Creating layer conv4
I0430 15:24:19.813292 21101 net.cpp:84] Creating Layer conv4
I0430 15:24:19.813299 21101 net.cpp:406] conv4 <- conv3
I0430 15:24:19.813308 21101 net.cpp:380] conv4 -> conv4
I0430 15:24:19.836696 21101 net.cpp:122] Setting up conv4
I0430 15:24:19.836721 21101 net.cpp:129] Top shape: 32 384 13 13 (2076672)
I0430 15:24:19.836728 21101 net.cpp:137] Memory required for data: 242380544
I0430 15:24:19.836745 21101 layer_factory.hpp:77] Creating layer relu4
I0430 15:24:19.836761 21101 net.cpp:84] Creating Layer relu4
I0430 15:24:19.836772 21101 net.cpp:406] relu4 <- conv4
I0430 15:24:19.836786 21101 net.cpp:367] relu4 -> conv4 (in-place)
I0430 15:24:19.837316 21101 net.cpp:122] Setting up relu4
I0430 15:24:19.837335 21101 net.cpp:129] Top shape: 32 384 13 13 (2076672)
I0430 15:24:19.837347 21101 net.cpp:137] Memory required for data: 250687232
I0430 15:24:19.837355 21101 layer_factory.hpp:77] Creating layer conv5
I0430 15:24:19.837375 21101 net.cpp:84] Creating Layer conv5
I0430 15:24:19.837385 21101 net.cpp:406] conv5 <- conv4
I0430 15:24:19.837404 21101 net.cpp:380] conv5 -> conv5
I0430 15:24:19.874083 21101 net.cpp:122] Setting up conv5
I0430 15:24:19.874112 21101 net.cpp:129] Top shape: 32 256 13 13 (1384448)
I0430 15:24:19.874120 21101 net.cpp:137] Memory required for data: 256225024
I0430 15:24:19.874143 21101 layer_factory.hpp:77] Creating layer relu5
I0430 15:24:19.874161 21101 net.cpp:84] Creating Layer relu5
I0430 15:24:19.874171 21101 net.cpp:406] relu5 <- conv5
I0430 15:24:19.874217 21101 net.cpp:367] relu5 -> conv5 (in-place)
I0430 15:24:19.875938 21101 net.cpp:122] Setting up relu5
I0430 15:24:19.875962 21101 net.cpp:129] Top shape: 32 256 13 13 (1384448)
I0430 15:24:19.875972 21101 net.cpp:137] Memory required for data: 261762816
I0430 15:24:19.875982 21101 layer_factory.hpp:77] Creating layer pool5
I0430 15:24:19.876003 21101 net.cpp:84] Creating Layer pool5
I0430 15:24:19.876014 21101 net.cpp:406] pool5 <- conv5
I0430 15:24:19.876030 21101 net.cpp:380] pool5 -> pool5
I0430 15:24:19.876088 21101 net.cpp:122] Setting up pool5
I0430 15:24:19.876103 21101 net.cpp:129] Top shape: 32 256 6 6 (294912)
I0430 15:24:19.876111 21101 net.cpp:137] Memory required for data: 262942464
I0430 15:24:19.876119 21101 layer_factory.hpp:77] Creating layer fc6
I0430 15:24:19.876132 21101 net.cpp:84] Creating Layer fc6
I0430 15:24:19.876139 21101 net.cpp:406] fc6 <- pool5
I0430 15:24:19.876152 21101 net.cpp:380] fc6 -> fc6
I0430 15:24:20.283903 21101 net.cpp:122] Setting up fc6
I0430 15:24:20.283929 21101 net.cpp:129] Top shape: 32 4096 (131072)
I0430 15:24:20.283937 21101 net.cpp:137] Memory required for data: 263466752
I0430 15:24:20.283957 21101 layer_factory.hpp:77] Creating layer relu6
I0430 15:24:20.283973 21101 net.cpp:84] Creating Layer relu6
I0430 15:24:20.283982 21101 net.cpp:406] relu6 <- fc6
I0430 15:24:20.283991 21101 net.cpp:367] relu6 -> fc6 (in-place)
I0430 15:24:20.340474 21101 net.cpp:122] Setting up relu6
I0430 15:24:20.340507 21101 net.cpp:129] Top shape: 32 4096 (131072)
I0430 15:24:20.340517 21101 net.cpp:137] Memory required for data: 263991040
I0430 15:24:20.340526 21101 layer_factory.hpp:77] Creating layer drop6
I0430 15:24:20.340543 21101 net.cpp:84] Creating Layer drop6
I0430 15:24:20.340553 21101 net.cpp:406] drop6 <- fc6
I0430 15:24:20.340566 21101 net.cpp:367] drop6 -> fc6 (in-place)
I0430 15:24:20.340637 21101 net.cpp:122] Setting up drop6
I0430 15:24:20.340651 21101 net.cpp:129] Top shape: 32 4096 (131072)
I0430 15:24:20.340657 21101 net.cpp:137] Memory required for data: 264515328
I0430 15:24:20.340664 21101 layer_factory.hpp:77] Creating layer fc7
I0430 15:24:20.340684 21101 net.cpp:84] Creating Layer fc7
I0430 15:24:20.340692 21101 net.cpp:406] fc7 <- fc6
I0430 15:24:20.340703 21101 net.cpp:380] fc7 -> fc7
I0430 15:24:20.533118 21101 net.cpp:122] Setting up fc7
I0430 15:24:20.533151 21101 net.cpp:129] Top shape: 32 4096 (131072)
I0430 15:24:20.533164 21101 net.cpp:137] Memory required for data: 265039616
I0430 15:24:20.533185 21101 layer_factory.hpp:77] Creating layer relu7
I0430 15:24:20.533208 21101 net.cpp:84] Creating Layer relu7
I0430 15:24:20.533221 21101 net.cpp:406] relu7 <- fc7
I0430 15:24:20.533237 21101 net.cpp:367] relu7 -> fc7 (in-place)
I0430 15:24:20.533890 21101 net.cpp:122] Setting up relu7
I0430 15:24:20.533913 21101 net.cpp:129] Top shape: 32 4096 (131072)
I0430 15:24:20.533924 21101 net.cpp:137] Memory required for data: 265563904
I0430 15:24:20.533936 21101 layer_factory.hpp:77] Creating layer drop7
I0430 15:24:20.533953 21101 net.cpp:84] Creating Layer drop7
I0430 15:24:20.533969 21101 net.cpp:406] drop7 <- fc7
I0430 15:24:20.533988 21101 net.cpp:367] drop7 -> fc7 (in-place)
I0430 15:24:20.534036 21101 net.cpp:122] Setting up drop7
I0430 15:24:20.534052 21101 net.cpp:129] Top shape: 32 4096 (131072)
I0430 15:24:20.534065 21101 net.cpp:137] Memory required for data: 266088192
I0430 15:24:20.534075 21101 layer_factory.hpp:77] Creating layer fc8
I0430 15:24:20.534094 21101 net.cpp:84] Creating Layer fc8
I0430 15:24:20.534108 21101 net.cpp:406] fc8 <- fc7
I0430 15:24:20.534130 21101 net.cpp:380] fc8 -> fc8
I0430 15:24:20.548938 21101 net.cpp:122] Setting up fc8
I0430 15:24:20.548970 21101 net.cpp:129] Top shape: 32 196 (6272)
I0430 15:24:20.548981 21101 net.cpp:137] Memory required for data: 266113280
I0430 15:24:20.549005 21101 layer_factory.hpp:77] Creating layer fc8_fc8_0_split
I0430 15:24:20.549022 21101 net.cpp:84] Creating Layer fc8_fc8_0_split
I0430 15:24:20.549032 21101 net.cpp:406] fc8_fc8_0_split <- fc8
I0430 15:24:20.549054 21101 net.cpp:380] fc8_fc8_0_split -> fc8_fc8_0_split_0
I0430 15:24:20.549103 21101 net.cpp:380] fc8_fc8_0_split -> fc8_fc8_0_split_1
I0430 15:24:20.549162 21101 net.cpp:122] Setting up fc8_fc8_0_split
I0430 15:24:20.549178 21101 net.cpp:129] Top shape: 32 196 (6272)
I0430 15:24:20.549194 21101 net.cpp:129] Top shape: 32 196 (6272)
I0430 15:24:20.549206 21101 net.cpp:137] Memory required for data: 266163456
I0430 15:24:20.549226 21101 layer_factory.hpp:77] Creating layer accuracy
I0430 15:24:20.549242 21101 net.cpp:84] Creating Layer accuracy
I0430 15:24:20.549250 21101 net.cpp:406] accuracy <- fc8_fc8_0_split_0
I0430 15:24:20.549265 21101 net.cpp:406] accuracy <- label_val-data_1_split_0
I0430 15:24:20.549276 21101 net.cpp:380] accuracy -> accuracy
…
