…
I0502 12:42:01.761574 32481 net.cpp:294] The NetState phase (0) differed from the phase (1) specified by a rule in layer accuracy
I0502 12:42:01.761811 32481 net.cpp:51] Initializing net from parameters:
state {
phase: TRAIN
level: 0
stage: ""
}
layer {
name: "train-data"
type: "Data"
top: "data"
top: "label"
include {
phase: TRAIN
}
transform_param {
mirror: true
crop_size: 227
mean_file: "/mnt/bigdisk/MANDIG2/digits/jobs/20200428-132136-11fe/mean.binaryproto"
}
data_param {
source: "/mnt/bigdisk/MANDIG2/digits/jobs/20200428-132136-11fe/train_db"
batch_size: 128
backend: LMDB
}
}
layer {
name: "conv1"
type: "Convolution"
bottom: "data"
top: "conv1"
param {
lr_mult: 1
decay_mult: 1
}
param {
lr_mult: 2
decay_mult: 0
}
convolution_param {
num_output: 96
kernel_size: 11
stride: 4
weight_filler {
type: "gaussian"
std: 0.01
}
bias_filler {
type: "constant"
value: 0
}
}
}
layer {
name: "relu1"
type: "ReLU"
bottom: "conv1"
top: "conv1"
}
layer {
name: "norm1"
type: "LRN"
bottom: "conv1"
top: "norm1"
lrn_param {
local_size: 5
alpha: 0.0001
beta: 0.75
}
}
layer {
name: "pool1"
type: "Pooling"
bottom: "norm1"
top: "pool1"
pooling_param {
pool: MAX
kernel_size: 3
stride: 2
}
}
layer {
name: "conv2"
type: "Convolution"
bottom: "pool1"
top: "conv2"
param {
lr_mult: 1
decay_mult: 1
}
param {
lr_mult: 2
decay_mult: 0
}
convolution_param {
num_output: 256
pad: 2
kernel_size: 5
group: 2
weight_filler {
type: "gaussian"
std: 0.01
}
bias_filler {
type: "constant"
value: 0.1
}
}
}
layer {
name: "relu2"
type: "ReLU"
bottom: "conv2"
top: "conv2"
}
layer {
name: "norm2"
type: "LRN"
bottom: "conv2"
top: "norm2"
lrn_param {
local_size: 5
alpha: 0.0001
beta: 0.75
}
}
layer {
name: "pool2"
type: "Pooling"
bottom: "norm2"
top: "pool2"
pooling_param {
pool: MAX
kernel_size: 3
stride: 2
}
}
layer {
name: "conv3"
type: "Convolution"
bottom: "pool2"
top: "conv3"
param {
lr_mult: 1
decay_mult: 1
}
param {
lr_mult: 2
decay_mult: 0
}
convolution_param {
num_output: 384
pad: 1
kernel_size: 3
weight_filler {
type: "gaussian"
std: 0.01
}
bias_filler {
type: "constant"
value: 0
}
}
}
layer {
name: "relu3"
type: "ReLU"
bottom: "conv3"
top: "conv3"
}
layer {
name: "conv4"
type: "Convolution"
bottom: "conv3"
top: "conv4"
param {
lr_mult: 1
decay_mult: 1
}
param {
lr_mult: 2
decay_mult: 0
}
convolution_param {
num_output: 384
pad: 1
kernel_size: 3
group: 2
weight_filler {
type: "gaussian"
std: 0.01
}
bias_filler {
type: "constant"
value: 0.1
}
}
}
layer {
name: "relu4"
type: "ReLU"
bottom: "conv4"
top: "conv4"
}
layer {
name: "conv5"
type: "Convolution"
bottom: "conv4"
top: "conv5"
param {
lr_mult: 1
decay_mult: 1
}
param {
lr_mult: 2
decay_mult: 0
}
convolution_param {
num_output: 256
pad: 1
kernel_size: 3
group: 2
weight_filler {
type: "gaussian"
std: 0.01
}
bias_filler {
type: "constant"
value: 0.1
}
}
}
layer {
name: "relu5"
type: "ReLU"
bottom: "conv5"
top: "conv5"
}
layer {
name: "pool5"
type: "Pooling"
bottom: "conv5"
top: "pool5"
pooling_param {
pool: MAX
kernel_size: 3
stride: 2
}
}
layer {
name: "fc6"
type: "InnerProduct"
bottom: "pool5"
top: "fc6"
param {
lr_mult: 1
decay_mult: 1
}
param {
lr_mult: 2
decay_mult: 0
}
inner_product_param {
num_output: 4096
weight_filler {
type: "gaussian"
std: 0.005
}
bias_filler {
type: "constant"
value: 0.1
}
}
}
layer {
name: "relu6"
type: "ReLU"
bottom: "fc6"
top: "fc6"
}
layer {
name: "drop6"
type: "Dropout"
bottom: "fc6"
top: "fc6"
dropout_param {
dropout_ratio: 0.5
}
}
layer {
name: "fc7"
type: "InnerProduct"
bottom: "fc6"
top: "fc7"
param {
lr_mult: 1
decay_mult: 1
}
param {
lr_mult: 2
decay_mult: 0
}
inner_product_param {
num_output: 4096
weight_filler {
type: "gaussian"
std: 0.005
}
bias_filler {
type: "constant"
value: 0.1
}
}
}
layer {
name: "relu7"
type: "ReLU"
bottom: "fc7"
top: "fc7"
}
layer {
name: "drop7"
type: "Dropout"
bottom: "fc7"
top: "fc7"
dropout_param {
dropout_ratio: 0.5
}
}
layer {
name: "fc8"
type: "InnerProduct"
bottom: "fc7"
top: "fc8"
param {
lr_mult: 1
decay_mult: 1
}
param {
lr_mult: 2
decay_mult: 0
}
inner_product_param {
num_output: 196
weight_filler {
type: "gaussian"
std: 0.01
}
bias_filler {
type: "constant"
value: 0
}
}
}
layer {
name: "loss"
type: "SoftmaxWithLoss"
bottom: "fc8"
bottom: "label"
top: "loss"
}
I0502 12:42:01.761960 32481 layer_factory.hpp:77] Creating layer train-data
I0502 12:42:01.763931 32481 db_lmdb.cpp:35] Opened lmdb /mnt/bigdisk/MANDIG2/digits/jobs/20200428-132136-11fe/train_db
I0502 12:42:01.764145 32481 net.cpp:84] Creating Layer train-data
I0502 12:42:01.764163 32481 net.cpp:380] train-data -> data
I0502 12:42:01.764189 32481 net.cpp:380] train-data -> label
I0502 12:42:01.764204 32481 data_transformer.cpp:25] Loading mean file from: /mnt/bigdisk/MANDIG2/digits/jobs/20200428-132136-11fe/mean.binaryproto
I0502 12:42:01.829586 32481 data_layer.cpp:45] output data size: 128,3,227,227
I0502 12:42:02.044311 32481 net.cpp:122] Setting up train-data
I0502 12:42:02.044339 32481 net.cpp:129] Top shape: 128 3 227 227 (19787136)
I0502 12:42:02.044348 32481 net.cpp:129] Top shape: 128 (128)
I0502 12:42:02.044353 32481 net.cpp:137] Memory required for data: 79149056
I0502 12:42:02.044364 32481 layer_factory.hpp:77] Creating layer conv1
I0502 12:42:02.044390 32481 net.cpp:84] Creating Layer conv1
I0502 12:42:02.044399 32481 net.cpp:406] conv1 <- data
I0502 12:42:02.044414 32481 net.cpp:380] conv1 -> conv1
I0502 12:42:04.505429 32481 net.cpp:122] Setting up conv1
I0502 12:42:04.505458 32481 net.cpp:129] Top shape: 128 96 55 55 (37171200)
I0502 12:42:04.505465 32481 net.cpp:137] Memory required for data: 227833856
I0502 12:42:04.505491 32481 layer_factory.hpp:77] Creating layer relu1
I0502 12:42:04.505506 32481 net.cpp:84] Creating Layer relu1
I0502 12:42:04.505512 32481 net.cpp:406] relu1 <- conv1
I0502 12:42:04.505522 32481 net.cpp:367] relu1 -> conv1 (in-place)
I0502 12:42:04.507537 32481 net.cpp:122] Setting up relu1
I0502 12:42:04.507551 32481 net.cpp:129] Top shape: 128 96 55 55 (37171200)
I0502 12:42:04.507556 32481 net.cpp:137] Memory required for data: 376518656
I0502 12:42:04.507562 32481 layer_factory.hpp:77] Creating layer norm1
I0502 12:42:04.507575 32481 net.cpp:84] Creating Layer norm1
I0502 12:42:04.507581 32481 net.cpp:406] norm1 <- conv1
I0502 12:42:04.507617 32481 net.cpp:380] norm1 -> norm1
I0502 12:42:04.509907 32481 net.cpp:122] Setting up norm1
I0502 12:42:04.509923 32481 net.cpp:129] Top shape: 128 96 55 55 (37171200)
I0502 12:42:04.509929 32481 net.cpp:137] Memory required for data: 525203456
I0502 12:42:04.509935 32481 layer_factory.hpp:77] Creating layer pool1
I0502 12:42:04.509946 32481 net.cpp:84] Creating Layer pool1
I0502 12:42:04.509953 32481 net.cpp:406] pool1 <- norm1
I0502 12:42:04.509960 32481 net.cpp:380] pool1 -> pool1
I0502 12:42:04.510012 32481 net.cpp:122] Setting up pool1
I0502 12:42:04.510022 32481 net.cpp:129] Top shape: 128 96 27 27 (8957952)
I0502 12:42:04.510026 32481 net.cpp:137] Memory required for data: 561035264
I0502 12:42:04.510032 32481 layer_factory.hpp:77] Creating layer conv2
I0502 12:42:04.510046 32481 net.cpp:84] Creating Layer conv2
I0502 12:42:04.510052 32481 net.cpp:406] conv2 <- pool1
I0502 12:42:04.510061 32481 net.cpp:380] conv2 -> conv2
I0502 12:42:04.539317 32481 net.cpp:122] Setting up conv2
I0502 12:42:04.539345 32481 net.cpp:129] Top shape: 128 256 27 27 (23887872)
I0502 12:42:04.539350 32481 net.cpp:137] Memory required for data: 656586752
I0502 12:42:04.539367 32481 layer_factory.hpp:77] Creating layer relu2
I0502 12:42:04.539381 32481 net.cpp:84] Creating Layer relu2
I0502 12:42:04.539388 32481 net.cpp:406] relu2 <- conv2
I0502 12:42:04.539398 32481 net.cpp:367] relu2 -> conv2 (in-place)
I0502 12:42:04.541471 32481 net.cpp:122] Setting up relu2
I0502 12:42:04.541486 32481 net.cpp:129] Top shape: 128 256 27 27 (23887872)
I0502 12:42:04.541491 32481 net.cpp:137] Memory required for data: 752138240
I0502 12:42:04.541496 32481 layer_factory.hpp:77] Creating layer norm2
I0502 12:42:04.541507 32481 net.cpp:84] Creating Layer norm2
I0502 12:42:04.541513 32481 net.cpp:406] norm2 <- conv2
I0502 12:42:04.541523 32481 net.cpp:380] norm2 -> norm2
I0502 12:42:04.543819 32481 net.cpp:122] Setting up norm2
I0502 12:42:04.543833 32481 net.cpp:129] Top shape: 128 256 27 27 (23887872)
I0502 12:42:04.543838 32481 net.cpp:137] Memory required for data: 847689728
I0502 12:42:04.543844 32481 layer_factory.hpp:77] Creating layer pool2
I0502 12:42:04.543856 32481 net.cpp:84] Creating Layer pool2
I0502 12:42:04.543862 32481 net.cpp:406] pool2 <- norm2
I0502 12:42:04.543872 32481 net.cpp:380] pool2 -> pool2
I0502 12:42:04.543915 32481 net.cpp:122] Setting up pool2
I0502 12:42:04.543925 32481 net.cpp:129] Top shape: 128 256 13 13 (5537792)
I0502 12:42:04.543931 32481 net.cpp:137] Memory required for data: 869840896
I0502 12:42:04.543937 32481 layer_factory.hpp:77] Creating layer conv3
I0502 12:42:04.543956 32481 net.cpp:84] Creating Layer conv3
I0502 12:42:04.543963 32481 net.cpp:406] conv3 <- pool2
I0502 12:42:04.543973 32481 net.cpp:380] conv3 -> conv3
I0502 12:42:04.575666 32481 net.cpp:122] Setting up conv3
I0502 12:42:04.575691 32481 net.cpp:129] Top shape: 128 384 13 13 (8306688)
I0502 12:42:04.575697 32481 net.cpp:137] Memory required for data: 903067648
I0502 12:42:04.575714 32481 layer_factory.hpp:77] Creating layer relu3
I0502 12:42:04.575727 32481 net.cpp:84] Creating Layer relu3
I0502 12:42:04.575734 32481 net.cpp:406] relu3 <- conv3
I0502 12:42:04.575745 32481 net.cpp:367] relu3 -> conv3 (in-place)
I0502 12:42:04.583273 32481 net.cpp:122] Setting up relu3
I0502 12:42:04.583298 32481 net.cpp:129] Top shape: 128 384 13 13 (8306688)
I0502 12:42:04.583303 32481 net.cpp:137] Memory required for data: 936294400
I0502 12:42:04.583310 32481 layer_factory.hpp:77] Creating layer conv4
I0502 12:42:04.583328 32481 net.cpp:84] Creating Layer conv4
I0502 12:42:04.583331 32481 net.cpp:406] conv4 <- conv3
I0502 12:42:04.583341 32481 net.cpp:380] conv4 -> conv4
I0502 12:42:04.610664 32481 net.cpp:122] Setting up conv4
I0502 12:42:04.610687 32481 net.cpp:129] Top shape: 128 384 13 13 (8306688)
I0502 12:42:04.610692 32481 net.cpp:137] Memory required for data: 969521152
I0502 12:42:04.610703 32481 layer_factory.hpp:77] Creating layer relu4
I0502 12:42:04.610714 32481 net.cpp:84] Creating Layer relu4
I0502 12:42:04.610741 32481 net.cpp:406] relu4 <- conv4
I0502 12:42:04.610750 32481 net.cpp:367] relu4 -> conv4 (in-place)
I0502 12:42:04.612504 32481 net.cpp:122] Setting up relu4
I0502 12:42:04.612519 32481 net.cpp:129] Top shape: 128 384 13 13 (8306688)
I0502 12:42:04.612521 32481 net.cpp:137] Memory required for data: 1002747904
I0502 12:42:04.612525 32481 layer_factory.hpp:77] Creating layer conv5
I0502 12:42:04.612540 32481 net.cpp:84] Creating Layer conv5
I0502 12:42:04.612543 32481 net.cpp:406] conv5 <- conv4
I0502 12:42:04.612551 32481 net.cpp:380] conv5 -> conv5
I0502 12:42:04.643306 32481 net.cpp:122] Setting up conv5
I0502 12:42:04.643328 32481 net.cpp:129] Top shape: 128 256 13 13 (5537792)
I0502 12:42:04.643332 32481 net.cpp:137] Memory required for data: 1024899072
I0502 12:42:04.643347 32481 layer_factory.hpp:77] Creating layer relu5
I0502 12:42:04.643358 32481 net.cpp:84] Creating Layer relu5
I0502 12:42:04.643362 32481 net.cpp:406] relu5 <- conv5
I0502 12:42:04.643369 32481 net.cpp:367] relu5 -> conv5 (in-place)
I0502 12:42:04.644913 32481 net.cpp:122] Setting up relu5
I0502 12:42:04.644923 32481 net.cpp:129] Top shape: 128 256 13 13 (5537792)
I0502 12:42:04.644927 32481 net.cpp:137] Memory required for data: 1047050240
I0502 12:42:04.644933 32481 layer_factory.hpp:77] Creating layer pool5
I0502 12:42:04.644942 32481 net.cpp:84] Creating Layer pool5
I0502 12:42:04.644945 32481 net.cpp:406] pool5 <- conv5
I0502 12:42:04.644954 32481 net.cpp:380] pool5 -> pool5
I0502 12:42:04.644991 32481 net.cpp:122] Setting up pool5
I0502 12:42:04.644999 32481 net.cpp:129] Top shape: 128 256 6 6 (1179648)
I0502 12:42:04.645004 32481 net.cpp:137] Memory required for data: 1051768832
I0502 12:42:04.645006 32481 layer_factory.hpp:77] Creating layer fc6
I0502 12:42:04.645023 32481 net.cpp:84] Creating Layer fc6
I0502 12:42:04.645028 32481 net.cpp:406] fc6 <- pool5
I0502 12:42:04.645035 32481 net.cpp:380] fc6 -> fc6
I0502 12:42:05.134253 32481 net.cpp:122] Setting up fc6
I0502 12:42:05.134284 32481 net.cpp:129] Top shape: 128 4096 (524288)
I0502 12:42:05.134287 32481 net.cpp:137] Memory required for data: 1053865984
I0502 12:42:05.134299 32481 layer_factory.hpp:77] Creating layer relu6
I0502 12:42:05.134311 32481 net.cpp:84] Creating Layer relu6
I0502 12:42:05.134316 32481 net.cpp:406] relu6 <- fc6
I0502 12:42:05.134325 32481 net.cpp:367] relu6 -> fc6 (in-place)
I0502 12:42:05.144551 32481 net.cpp:122] Setting up relu6
I0502 12:42:05.144572 32481 net.cpp:129] Top shape: 128 4096 (524288)
I0502 12:42:05.144577 32481 net.cpp:137] Memory required for data: 1055963136
I0502 12:42:05.144582 32481 layer_factory.hpp:77] Creating layer drop6
I0502 12:42:05.144596 32481 net.cpp:84] Creating Layer drop6
I0502 12:42:05.144603 32481 net.cpp:406] drop6 <- fc6
I0502 12:42:05.144610 32481 net.cpp:367] drop6 -> fc6 (in-place)
I0502 12:42:05.144652 32481 net.cpp:122] Setting up drop6
I0502 12:42:05.144659 32481 net.cpp:129] Top shape: 128 4096 (524288)
I0502 12:42:05.144663 32481 net.cpp:137] Memory required for data: 1058060288
I0502 12:42:05.144667 32481 layer_factory.hpp:77] Creating layer fc7
I0502 12:42:05.144678 32481 net.cpp:84] Creating Layer fc7
I0502 12:42:05.144682 32481 net.cpp:406] fc7 <- fc6
I0502 12:42:05.144688 32481 net.cpp:380] fc7 -> fc7
I0502 12:42:05.307615 32481 net.cpp:122] Setting up fc7
I0502 12:42:05.307638 32481 net.cpp:129] Top shape: 128 4096 (524288)
I0502 12:42:05.307642 32481 net.cpp:137] Memory required for data: 1060157440
I0502 12:42:05.307651 32481 layer_factory.hpp:77] Creating layer relu7
I0502 12:42:05.307662 32481 net.cpp:84] Creating Layer relu7
I0502 12:42:05.307667 32481 net.cpp:406] relu7 <- fc7
I0502 12:42:05.307673 32481 net.cpp:367] relu7 -> fc7 (in-place)
I0502 12:42:05.314226 32481 net.cpp:122] Setting up relu7
I0502 12:42:05.314242 32481 net.cpp:129] Top shape: 128 4096 (524288)
I0502 12:42:05.314246 32481 net.cpp:137] Memory required for data: 1062254592
I0502 12:42:05.314251 32481 layer_factory.hpp:77] Creating layer drop7
I0502 12:42:05.314260 32481 net.cpp:84] Creating Layer drop7
I0502 12:42:05.314287 32481 net.cpp:406] drop7 <- fc7
I0502 12:42:05.314297 32481 net.cpp:367] drop7 -> fc7 (in-place)
I0502 12:42:05.314332 32481 net.cpp:122] Setting up drop7
I0502 12:42:05.314339 32481 net.cpp:129] Top shape: 128 4096 (524288)
I0502 12:42:05.314342 32481 net.cpp:137] Memory required for data: 1064351744
I0502 12:42:05.314345 32481 layer_factory.hpp:77] Creating layer fc8
I0502 12:42:05.314353 32481 net.cpp:84] Creating Layer fc8
I0502 12:42:05.314357 32481 net.cpp:406] fc8 <- fc7
I0502 12:42:05.314364 32481 net.cpp:380] fc8 -> fc8
I0502 12:42:05.322336 32481 net.cpp:122] Setting up fc8
I0502 12:42:05.322355 32481 net.cpp:129] Top shape: 128 196 (25088)
I0502 12:42:05.322358 32481 net.cpp:137] Memory required for data: 1064452096
I0502 12:42:05.322366 32481 layer_factory.hpp:77] Creating layer loss
I0502 12:42:05.322377 32481 net.cpp:84] Creating Layer loss
I0502 12:42:05.322381 32481 net.cpp:406] loss <- fc8
I0502 12:42:05.322387 32481 net.cpp:406] loss <- label
I0502 12:42:05.322394 32481 net.cpp:380] loss -> loss
I0502 12:42:05.322407 32481 layer_factory.hpp:77] Creating layer loss
…
I0502 12:42:05.342332 32481 solver.cpp:172] Creating test net (#0) specified by net file: train_val.prototxt
I0502 12:42:05.342366 32481 net.cpp:294] The NetState phase (1) differed from the phase (0) specified by a rule in layer train-data
I0502 12:42:05.342555 32481 net.cpp:51] Initializing net from parameters:
state {
phase: TEST
}
layer {
name: "val-data"
type: "Data"
top: "data"
top: "label"
include {
phase: TEST
}
transform_param {
crop_size: 227
mean_file: "/mnt/bigdisk/MANDIG2/digits/jobs/20200428-132136-11fe/mean.binaryproto"
}
data_param {
source: "/mnt/bigdisk/MANDIG2/digits/jobs/20200428-132136-11fe/val_db"
batch_size: 32
backend: LMDB
}
}
layer {
name: "conv1"
type: "Convolution"
bottom: "data"
top: "conv1"
param {
lr_mult: 1
decay_mult: 1
}
param {
lr_mult: 2
decay_mult: 0
}
convolution_param {
num_output: 96
kernel_size: 11
stride: 4
weight_filler {
type: "gaussian"
std: 0.01
}
bias_filler {
type: "constant"
value: 0
}
}
}
layer {
name: "relu1"
type: "ReLU"
bottom: "conv1"
top: "conv1"
}
layer {
name: "norm1"
type: "LRN"
bottom: "conv1"
top: "norm1"
lrn_param {
local_size: 5
alpha: 0.0001
beta: 0.75
}
}
layer {
name: "pool1"
type: "Pooling"
bottom: "norm1"
top: "pool1"
pooling_param {
pool: MAX
kernel_size: 3
stride: 2
}
}
layer {
name: "conv2"
type: "Convolution"
bottom: "pool1"
top: "conv2"
param {
lr_mult: 1
decay_mult: 1
}
param {
lr_mult: 2
decay_mult: 0
}
convolution_param {
num_output: 256
pad: 2
kernel_size: 5
group: 2
weight_filler {
type: "gaussian"
std: 0.01
}
bias_filler {
type: "constant"
value: 0.1
}
}
}
layer {
name: "relu2"
type: "ReLU"
bottom: "conv2"
top: "conv2"
}
layer {
name: "norm2"
type: "LRN"
bottom: "conv2"
top: "norm2"
lrn_param {
local_size: 5
alpha: 0.0001
beta: 0.75
}
}
layer {
name: "pool2"
type: "Pooling"
bottom: "norm2"
top: "pool2"
pooling_param {
pool: MAX
kernel_size: 3
stride: 2
}
}
layer {
name: "conv3"
type: "Convolution"
bottom: "pool2"
top: "conv3"
param {
lr_mult: 1
decay_mult: 1
}
param {
lr_mult: 2
decay_mult: 0
}
convolution_param {
num_output: 384
pad: 1
kernel_size: 3
weight_filler {
type: "gaussian"
std: 0.01
}
bias_filler {
type: "constant"
value: 0
}
}
}
layer {
name: "relu3"
type: "ReLU"
bottom: "conv3"
top: "conv3"
}
layer {
name: "conv4"
type: "Convolution"
bottom: "conv3"
top: "conv4"
param {
lr_mult: 1
decay_mult: 1
}
param {
lr_mult: 2
decay_mult: 0
}
convolution_param {
num_output: 384
pad: 1
kernel_size: 3
group: 2
weight_filler {
type: "gaussian"
std: 0.01
}
bias_filler {
type: "constant"
value: 0.1
}
}
}
layer {
name: "relu4"
type: "ReLU"
bottom: "conv4"
top: "conv4"
}
layer {
name: "conv5"
type: "Convolution"
bottom: "conv4"
top: "conv5"
param {
lr_mult: 1
decay_mult: 1
}
param {
lr_mult: 2
decay_mult: 0
}
convolution_param {
num_output: 256
pad: 1
kernel_size: 3
group: 2
weight_filler {
type: "gaussian"
std: 0.01
}
bias_filler {
type: "constant"
value: 0.1
}
}
}
layer {
name: "relu5"
type: "ReLU"
bottom: "conv5"
top: "conv5"
}
layer {
name: "pool5"
type: "Pooling"
bottom: "conv5"
top: "pool5"
pooling_param {
pool: MAX
kernel_size: 3
stride: 2
}
}
layer {
name: "fc6"
type: "InnerProduct"
bottom: "pool5"
top: "fc6"
param {
lr_mult: 1
decay_mult: 1
}
param {
lr_mult: 2
decay_mult: 0
}
inner_product_param {
num_output: 4096
weight_filler {
type: "gaussian"
std: 0.005
}
bias_filler {
type: "constant"
value: 0.1
}
}
}
layer {
name: "relu6"
type: "ReLU"
bottom: "fc6"
top: "fc6"
}
layer {
name: "drop6"
type: "Dropout"
bottom: "fc6"
top: "fc6"
dropout_param {
dropout_ratio: 0.5
}
}
layer {
name: "fc7"
type: "InnerProduct"
bottom: "fc6"
top: "fc7"
param {
lr_mult: 1
decay_mult: 1
}
param {
lr_mult: 2
decay_mult: 0
}
inner_product_param {
num_output: 4096
weight_filler {
type: "gaussian"
std: 0.005
}
bias_filler {
type: "constant"
value: 0.1
}
}
}
layer {
name: "relu7"
type: "ReLU"
bottom: "fc7"
top: "fc7"
}
layer {
name: "drop7"
type: "Dropout"
bottom: "fc7"
top: "fc7"
dropout_param {
dropout_ratio: 0.5
}
}
layer {
name: "fc8"
type: "InnerProduct"
bottom: "fc7"
top: "fc8"
param {
lr_mult: 1
decay_mult: 1
}
param {
lr_mult: 2
decay_mult: 0
}
inner_product_param {
num_output: 196
weight_filler {
type: "gaussian"
std: 0.01
}
bias_filler {
type: "constant"
value: 0
}
}
}
layer {
name: "accuracy"
type: "Accuracy"
bottom: "fc8"
bottom: "label"
top: "accuracy"
include {
phase: TEST
}
}
layer {
name: "loss"
type: "SoftmaxWithLoss"
bottom: "fc8"
bottom: "label"
top: "loss"
}
I0502 12:42:05.342669 32481 layer_factory.hpp:77] Creating layer val-data
I0502 12:42:05.349457 32481 db_lmdb.cpp:35] Opened lmdb /mnt/bigdisk/MANDIG2/digits/jobs/20200428-132136-11fe/val_db
I0502 12:42:05.349727 32481 net.cpp:84] Creating Layer val-data
I0502 12:42:05.349740 32481 net.cpp:380] val-data -> data
I0502 12:42:05.349751 32481 net.cpp:380] val-data -> label
I0502 12:42:05.349761 32481 data_transformer.cpp:25] Loading mean file from: /mnt/bigdisk/MANDIG2/digits/jobs/20200428-132136-11fe/mean.binaryproto
I0502 12:42:05.354557 32481 data_layer.cpp:45] output data size: 32,3,227,227
I0502 12:42:05.421546 32481 net.cpp:122] Setting up val-data
I0502 12:42:05.421568 32481 net.cpp:129] Top shape: 32 3 227 227 (4946784)
I0502 12:42:05.421574 32481 net.cpp:129] Top shape: 32 (32)
I0502 12:42:05.421578 32481 net.cpp:137] Memory required for data: 19787264
I0502 12:42:05.421586 32481 layer_factory.hpp:77] Creating layer label_val-data_1_split
I0502 12:42:05.421598 32481 net.cpp:84] Creating Layer label_val-data_1_split
I0502 12:42:05.421603 32481 net.cpp:406] label_val-data_1_split <- label
I0502 12:42:05.421612 32481 net.cpp:380] label_val-data_1_split -> label_val-data_1_split_0
I0502 12:42:05.421620 32481 net.cpp:380] label_val-data_1_split -> label_val-data_1_split_1
I0502 12:42:05.421674 32481 net.cpp:122] Setting up label_val-data_1_split
I0502 12:42:05.421679 32481 net.cpp:129] Top shape: 32 (32)
I0502 12:42:05.421684 32481 net.cpp:129] Top shape: 32 (32)
I0502 12:42:05.421686 32481 net.cpp:137] Memory required for data: 19787520
I0502 12:42:05.421690 32481 layer_factory.hpp:77] Creating layer conv1
I0502 12:42:05.421701 32481 net.cpp:84] Creating Layer conv1
I0502 12:42:05.421705 32481 net.cpp:406] conv1 <- data
I0502 12:42:05.421711 32481 net.cpp:380] conv1 -> conv1
I0502 12:42:05.440085 32481 net.cpp:122] Setting up conv1
I0502 12:42:05.440116 32481 net.cpp:129] Top shape: 32 96 55 55 (9292800)
I0502 12:42:05.440122 32481 net.cpp:137] Memory required for data: 56958720
I0502 12:42:05.440141 32481 layer_factory.hpp:77] Creating layer relu1
I0502 12:42:05.440155 32481 net.cpp:84] Creating Layer relu1
I0502 12:42:05.440162 32481 net.cpp:406] relu1 <- conv1
I0502 12:42:05.440172 32481 net.cpp:367] relu1 -> conv1 (in-place)
I0502 12:42:05.440793 32481 net.cpp:122] Setting up relu1
I0502 12:42:05.440805 32481 net.cpp:129] Top shape: 32 96 55 55 (9292800)
I0502 12:42:05.440812 32481 net.cpp:137] Memory required for data: 94129920
I0502 12:42:05.440819 32481 layer_factory.hpp:77] Creating layer norm1
I0502 12:42:05.440831 32481 net.cpp:84] Creating Layer norm1
I0502 12:42:05.440837 32481 net.cpp:406] norm1 <- conv1
I0502 12:42:05.440845 32481 net.cpp:380] norm1 -> norm1
I0502 12:42:05.444974 32481 net.cpp:122] Setting up norm1
I0502 12:42:05.444990 32481 net.cpp:129] Top shape: 32 96 55 55 (9292800)
I0502 12:42:05.444995 32481 net.cpp:137] Memory required for data: 131301120
I0502 12:42:05.445000 32481 layer_factory.hpp:77] Creating layer pool1
I0502 12:42:05.445009 32481 net.cpp:84] Creating Layer pool1
I0502 12:42:05.445013 32481 net.cpp:406] pool1 <- norm1
I0502 12:42:05.445020 32481 net.cpp:380] pool1 -> pool1
I0502 12:42:05.445050 32481 net.cpp:122] Setting up pool1
I0502 12:42:05.445056 32481 net.cpp:129] Top shape: 32 96 27 27 (2239488)
I0502 12:42:05.445060 32481 net.cpp:137] Memory required for data: 140259072
I0502 12:42:05.445065 32481 layer_factory.hpp:77] Creating layer conv2
I0502 12:42:05.445075 32481 net.cpp:84] Creating Layer conv2
I0502 12:42:05.445078 32481 net.cpp:406] conv2 <- pool1
I0502 12:42:05.445104 32481 net.cpp:380] conv2 -> conv2
I0502 12:42:05.464772 32481 net.cpp:122] Setting up conv2
I0502 12:42:05.464794 32481 net.cpp:129] Top shape: 32 256 27 27 (5971968)
I0502 12:42:05.464799 32481 net.cpp:137] Memory required for data: 164146944
I0502 12:42:05.464813 32481 layer_factory.hpp:77] Creating layer relu2
I0502 12:42:05.464823 32481 net.cpp:84] Creating Layer relu2
I0502 12:42:05.464828 32481 net.cpp:406] relu2 <- conv2
I0502 12:42:05.464838 32481 net.cpp:367] relu2 -> conv2 (in-place)
I0502 12:42:05.466990 32481 net.cpp:122] Setting up relu2
I0502 12:42:05.467001 32481 net.cpp:129] Top shape: 32 256 27 27 (5971968)
I0502 12:42:05.467005 32481 net.cpp:137] Memory required for data: 188034816
I0502 12:42:05.467008 32481 layer_factory.hpp:77] Creating layer norm2
I0502 12:42:05.467021 32481 net.cpp:84] Creating Layer norm2
I0502 12:42:05.467025 32481 net.cpp:406] norm2 <- conv2
I0502 12:42:05.467031 32481 net.cpp:380] norm2 -> norm2
I0502 12:42:05.469435 32481 net.cpp:122] Setting up norm2
I0502 12:42:05.469453 32481 net.cpp:129] Top shape: 32 256 27 27 (5971968)
I0502 12:42:05.469458 32481 net.cpp:137] Memory required for data: 211922688
I0502 12:42:05.469465 32481 layer_factory.hpp:77] Creating layer pool2
I0502 12:42:05.469475 32481 net.cpp:84] Creating Layer pool2
I0502 12:42:05.469480 32481 net.cpp:406] pool2 <- norm2
I0502 12:42:05.469487 32481 net.cpp:380] pool2 -> pool2
I0502 12:42:05.469532 32481 net.cpp:122] Setting up pool2
I0502 12:42:05.469540 32481 net.cpp:129] Top shape: 32 256 13 13 (1384448)
I0502 12:42:05.469545 32481 net.cpp:137] Memory required for data: 217460480
I0502 12:42:05.469549 32481 layer_factory.hpp:77] Creating layer conv3
I0502 12:42:05.469563 32481 net.cpp:84] Creating Layer conv3
I0502 12:42:05.469568 32481 net.cpp:406] conv3 <- pool2
I0502 12:42:05.469578 32481 net.cpp:380] conv3 -> conv3
I0502 12:42:05.516521 32481 net.cpp:122] Setting up conv3
I0502 12:42:05.516548 32481 net.cpp:129] Top shape: 32 384 13 13 (2076672)
I0502 12:42:05.516556 32481 net.cpp:137] Memory required for data: 225767168
I0502 12:42:05.516572 32481 layer_factory.hpp:77] Creating layer relu3
I0502 12:42:05.516584 32481 net.cpp:84] Creating Layer relu3
I0502 12:42:05.516592 32481 net.cpp:406] relu3 <- conv3
I0502 12:42:05.516607 32481 net.cpp:367] relu3 -> conv3 (in-place)
I0502 12:42:05.518290 32481 net.cpp:122] Setting up relu3
I0502 12:42:05.518302 32481 net.cpp:129] Top shape: 32 384 13 13 (2076672)
I0502 12:42:05.518307 32481 net.cpp:137] Memory required for data: 234073856
I0502 12:42:05.518312 32481 layer_factory.hpp:77] Creating layer conv4
I0502 12:42:05.518326 32481 net.cpp:84] Creating Layer conv4
I0502 12:42:05.518330 32481 net.cpp:406] conv4 <- conv3
I0502 12:42:05.518339 32481 net.cpp:380] conv4 -> conv4
I0502 12:42:05.681149 32481 net.cpp:122] Setting up conv4
I0502 12:42:05.681171 32481 net.cpp:129] Top shape: 32 384 13 13 (2076672)
I0502 12:42:05.681176 32481 net.cpp:137] Memory required for data: 242380544
I0502 12:42:05.681186 32481 layer_factory.hpp:77] Creating layer relu4
I0502 12:42:05.681196 32481 net.cpp:84] Creating Layer relu4
I0502 12:42:05.681202 32481 net.cpp:406] relu4 <- conv4
I0502 12:42:05.681210 32481 net.cpp:367] relu4 -> conv4 (in-place)
I0502 12:42:05.683111 32481 net.cpp:122] Setting up relu4
I0502 12:42:05.683125 32481 net.cpp:129] Top shape: 32 384 13 13 (2076672)
I0502 12:42:05.683130 32481 net.cpp:137] Memory required for data: 250687232
I0502 12:42:05.683135 32481 layer_factory.hpp:77] Creating layer conv5
I0502 12:42:05.683148 32481 net.cpp:84] Creating Layer conv5
I0502 12:42:05.683152 32481 net.cpp:406] conv5 <- conv4
I0502 12:42:05.683161 32481 net.cpp:380] conv5 -> conv5
I0502 12:42:05.712502 32481 net.cpp:122] Setting up conv5
I0502 12:42:05.712527 32481 net.cpp:129] Top shape: 32 256 13 13 (1384448)
I0502 12:42:05.712532 32481 net.cpp:137] Memory required for data: 256225024
I0502 12:42:05.712551 32481 layer_factory.hpp:77] Creating layer relu5
I0502 12:42:05.712564 32481 net.cpp:84] Creating Layer relu5
I0502 12:42:05.712570 32481 net.cpp:406] relu5 <- conv5
I0502 12:42:05.712611 32481 net.cpp:367] relu5 -> conv5 (in-place)
I0502 12:42:05.713393 32481 net.cpp:122] Setting up relu5
I0502 12:42:05.713407 32481 net.cpp:129] Top shape: 32 256 13 13 (1384448)
I0502 12:42:05.713412 32481 net.cpp:137] Memory required for data: 261762816
I0502 12:42:05.713418 32481 layer_factory.hpp:77] Creating layer pool5
I0502 12:42:05.713433 32481 net.cpp:84] Creating Layer pool5
I0502 12:42:05.713438 32481 net.cpp:406] pool5 <- conv5
I0502 12:42:05.713447 32481 net.cpp:380] pool5 -> pool5
I0502 12:42:05.713505 32481 net.cpp:122] Setting up pool5
I0502 12:42:05.713515 32481 net.cpp:129] Top shape: 32 256 6 6 (294912)
I0502 12:42:05.713521 32481 net.cpp:137] Memory required for data: 262942464
I0502 12:42:05.713526 32481 layer_factory.hpp:77] Creating layer fc6
I0502 12:42:05.713537 32481 net.cpp:84] Creating Layer fc6
I0502 12:42:05.713542 32481 net.cpp:406] fc6 <- pool5
I0502 12:42:05.713551 32481 net.cpp:380] fc6 -> fc6
I0502 12:42:06.260663 32481 net.cpp:122] Setting up fc6
I0502 12:42:06.260689 32481 net.cpp:129] Top shape: 32 4096 (131072)
I0502 12:42:06.260692 32481 net.cpp:137] Memory required for data: 263466752
I0502 12:42:06.260702 32481 layer_factory.hpp:77] Creating layer relu6
I0502 12:42:06.260712 32481 net.cpp:84] Creating Layer relu6
I0502 12:42:06.260718 32481 net.cpp:406] relu6 <- fc6
I0502 12:42:06.260725 32481 net.cpp:367] relu6 -> fc6 (in-place)
I0502 12:42:06.265084 32481 net.cpp:122] Setting up relu6
I0502 12:42:06.265102 32481 net.cpp:129] Top shape: 32 4096 (131072)
I0502 12:42:06.265110 32481 net.cpp:137] Memory required for data: 263991040
I0502 12:42:06.265115 32481 layer_factory.hpp:77] Creating layer drop6
I0502 12:42:06.265127 32481 net.cpp:84] Creating Layer drop6
I0502 12:42:06.265133 32481 net.cpp:406] drop6 <- fc6
I0502 12:42:06.265146 32481 net.cpp:367] drop6 -> fc6 (in-place)
I0502 12:42:06.265187 32481 net.cpp:122] Setting up drop6
I0502 12:42:06.265199 32481 net.cpp:129] Top shape: 32 4096 (131072)
I0502 12:42:06.265204 32481 net.cpp:137] Memory required for data: 264515328
I0502 12:42:06.265208 32481 layer_factory.hpp:77] Creating layer fc7
I0502 12:42:06.265219 32481 net.cpp:84] Creating Layer fc7
I0502 12:42:06.265226 32481 net.cpp:406] fc7 <- fc6
I0502 12:42:06.265236 32481 net.cpp:380] fc7 -> fc7
I0502 12:42:06.431979 32481 net.cpp:122] Setting up fc7
I0502 12:42:06.432003 32481 net.cpp:129] Top shape: 32 4096 (131072)
I0502 12:42:06.432008 32481 net.cpp:137] Memory required for data: 265039616
I0502 12:42:06.432018 32481 layer_factory.hpp:77] Creating layer relu7
I0502 12:42:06.432027 32481 net.cpp:84] Creating Layer relu7
I0502 12:42:06.432034 32481 net.cpp:406] relu7 <- fc7
I0502 12:42:06.432040 32481 net.cpp:367] relu7 -> fc7 (in-place)
I0502 12:42:06.432461 32481 net.cpp:122] Setting up relu7
I0502 12:42:06.432471 32481 net.cpp:129] Top shape: 32 4096 (131072)
I0502 12:42:06.432476 32481 net.cpp:137] Memory required for data: 265563904
I0502 12:42:06.432482 32481 layer_factory.hpp:77] Creating layer drop7
I0502 12:42:06.432488 32481 net.cpp:84] Creating Layer drop7
I0502 12:42:06.432493 32481 net.cpp:406] drop7 <- fc7
I0502 12:42:06.432499 32481 net.cpp:367] drop7 -> fc7 (in-place)
I0502 12:42:06.432523 32481 net.cpp:122] Setting up drop7
I0502 12:42:06.432529 32481 net.cpp:129] Top shape: 32 4096 (131072)
I0502 12:42:06.432533 32481 net.cpp:137] Memory required for data: 266088192
I0502 12:42:06.432538 32481 layer_factory.hpp:77] Creating layer fc8
I0502 12:42:06.432546 32481 net.cpp:84] Creating Layer fc8
I0502 12:42:06.432551 32481 net.cpp:406] fc8 <- fc7
I0502 12:42:06.432557 32481 net.cpp:380] fc8 -> fc8
I0502 12:42:06.442771 32481 net.cpp:122] Setting up fc8
I0502 12:42:06.442798 32481 net.cpp:129] Top shape: 32 196 (6272)
I0502 12:42:06.442803 32481 net.cpp:137] Memory required for data: 266113280
I0502 12:42:06.442817 32481 layer_factory.hpp:77] Creating layer fc8_fc8_0_split
I0502 12:42:06.442831 32481 net.cpp:84] Creating Layer fc8_fc8_0_split
I0502 12:42:06.442838 32481 net.cpp:406] fc8_fc8_0_split <- fc8
I0502 12:42:06.442848 32481 net.cpp:380] fc8_fc8_0_split -> fc8_fc8_0_split_0
I0502 12:42:06.442886 32481 net.cpp:380] fc8_fc8_0_split -> fc8_fc8_0_split_1
I0502 12:42:06.442939 32481 net.cpp:122] Setting up fc8_fc8_0_split
I0502 12:42:06.442947 32481 net.cpp:129] Top shape: 32 196 (6272)
I0502 12:42:06.442955 32481 net.cpp:129] Top shape: 32 196 (6272)
I0502 12:42:06.442960 32481 net.cpp:137] Memory required for data: 266163456
I0502 12:42:06.442966 32481 layer_factory.hpp:77] Creating layer accuracy
I0502 12:42:06.442976 32481 net.cpp:84] Creating Layer accuracy
I0502 12:42:06.442982 32481 net.cpp:406] accuracy <- fc8_fc8_0_split_0
I0502 12:42:06.442989 32481 net.cpp:406] accuracy <- label_val-data_1_split_0
I0502 12:42:06.442997 32481 net.cpp:380] accuracy -> accuracy
…
