…
I0509 10:06:07.542928 16884 net.cpp:294] The NetState phase (0) differed from the phase (1) specified by a rule in layer accuracy
I0509 10:06:07.543071 16884 net.cpp:51] Initializing net from parameters:
state {
phase: TRAIN
level: 0
stage: ""
}
layer {
name: "train-data"
type: "Data"
top: "data"
top: "label"
include {
phase: TRAIN
}
transform_param {
mirror: true
crop_size: 227
mean_file: "/mnt/bigdisk/AINDIG4/digits/jobs/20200509-095611-5492/mean.binaryproto"
}
data_param {
source: "/mnt/bigdisk/AINDIG4/digits/jobs/20200509-095611-5492/train_db"
batch_size: 50
backend: LMDB
}
}
layer {
name: "conv1"
type: "Convolution"
bottom: "data"
top: "conv1"
param {
lr_mult: 1
decay_mult: 1
}
param {
lr_mult: 2
decay_mult: 0
}
convolution_param {
num_output: 96
kernel_size: 11
stride: 4
weight_filler {
type: "gaussian"
std: 0.01
}
bias_filler {
type: "constant"
value: 0
}
}
}
layer {
name: "relu1"
type: "ReLU"
bottom: "conv1"
top: "conv1"
}
layer {
name: "norm1"
type: "LRN"
bottom: "conv1"
top: "norm1"
lrn_param {
local_size: 5
alpha: 0.0001
beta: 0.75
}
}
layer {
name: "pool1"
type: "Pooling"
bottom: "norm1"
top: "pool1"
pooling_param {
pool: MAX
kernel_size: 3
stride: 2
}
}
layer {
name: "conv2"
type: "Convolution"
bottom: "pool1"
top: "conv2"
param {
lr_mult: 1
decay_mult: 1
}
param {
lr_mult: 2
decay_mult: 0
}
convolution_param {
num_output: 256
pad: 2
kernel_size: 5
group: 2
weight_filler {
type: "gaussian"
std: 0.01
}
bias_filler {
type: "constant"
value: 0.1
}
}
}
layer {
name: "relu2"
type: "ReLU"
bottom: "conv2"
top: "conv2"
}
layer {
name: "norm2"
type: "LRN"
bottom: "conv2"
top: "norm2"
lrn_param {
local_size: 5
alpha: 0.0001
beta: 0.75
}
}
layer {
name: "pool2"
type: "Pooling"
bottom: "norm2"
top: "pool2"
pooling_param {
pool: MAX
kernel_size: 3
stride: 2
}
}
layer {
name: "conv3"
type: "Convolution"
bottom: "pool2"
top: "conv3"
param {
lr_mult: 1
decay_mult: 1
}
param {
lr_mult: 2
decay_mult: 0
}
convolution_param {
num_output: 384
pad: 1
kernel_size: 3
weight_filler {
type: "gaussian"
std: 0.01
}
bias_filler {
type: "constant"
value: 0
}
}
}
layer {
name: "relu3"
type: "ReLU"
bottom: "conv3"
top: "conv3"
}
layer {
name: "conv4"
type: "Convolution"
bottom: "conv3"
top: "conv4"
param {
lr_mult: 1
decay_mult: 1
}
param {
lr_mult: 2
decay_mult: 0
}
convolution_param {
num_output: 384
pad: 1
kernel_size: 3
group: 2
weight_filler {
type: "gaussian"
std: 0.01
}
bias_filler {
type: "constant"
value: 0.1
}
}
}
layer {
name: "relu4"
type: "ReLU"
bottom: "conv4"
top: "conv4"
}
layer {
name: "conv5"
type: "Convolution"
bottom: "conv4"
top: "conv5"
param {
lr_mult: 1
decay_mult: 1
}
param {
lr_mult: 2
decay_mult: 0
}
convolution_param {
num_output: 256
pad: 1
kernel_size: 3
group: 2
weight_filler {
type: "gaussian"
std: 0.01
}
bias_filler {
type: "constant"
value: 0.1
}
}
}
layer {
name: "relu5"
type: "ReLU"
bottom: "conv5"
top: "conv5"
}
layer {
name: "pool5"
type: "Pooling"
bottom: "conv5"
top: "pool5"
pooling_param {
pool: MAX
kernel_size: 3
stride: 2
}
}
layer {
name: "fc6"
type: "InnerProduct"
bottom: "pool5"
top: "fc6"
param {
lr_mult: 1
decay_mult: 1
}
param {
lr_mult: 2
decay_mult: 0
}
inner_product_param {
num_output: 4096
weight_filler {
type: "gaussian"
std: 0.005
}
bias_filler {
type: "constant"
value: 0.1
}
}
}
layer {
name: "relu6"
type: "ReLU"
bottom: "fc6"
top: "fc6"
}
layer {
name: "drop6"
type: "Dropout"
bottom: "fc6"
top: "fc6"
dropout_param {
dropout_ratio: 0.5
}
}
layer {
name: "fc7"
type: "InnerProduct"
bottom: "fc6"
top: "fc7"
param {
lr_mult: 1
decay_mult: 1
}
param {
lr_mult: 2
decay_mult: 0
}
inner_product_param {
num_output: 4096
weight_filler {
type: "gaussian"
std: 0.005
}
bias_filler {
type: "constant"
value: 0.1
}
}
}
layer {
name: "relu7"
type: "ReLU"
bottom: "fc7"
top: "fc7"
}
layer {
name: "drop7"
type: "Dropout"
bottom: "fc7"
top: "fc7"
dropout_param {
dropout_ratio: 0.5
}
}
layer {
name: "fc8"
type: "InnerProduct"
bottom: "fc7"
top: "fc8"
param {
lr_mult: 1
decay_mult: 1
}
param {
lr_mult: 2
decay_mult: 0
}
inner_product_param {
num_output: 196
weight_filler {
type: "gaussian"
std: 0.01
}
bias_filler {
type: "constant"
value: 0
}
}
}
layer {
name: "loss"
type: "SoftmaxWithLoss"
bottom: "fc8"
bottom: "label"
top: "loss"
}
I0509 10:06:07.543154 16884 layer_factory.hpp:77] Creating layer train-data
I0509 10:06:07.545859 16884 db_lmdb.cpp:35] Opened lmdb /mnt/bigdisk/AINDIG4/digits/jobs/20200509-095611-5492/train_db
I0509 10:06:07.546043 16884 net.cpp:84] Creating Layer train-data
I0509 10:06:07.546056 16884 net.cpp:380] train-data -> data
I0509 10:06:07.546073 16884 net.cpp:380] train-data -> label
I0509 10:06:07.546082 16884 data_transformer.cpp:25] Loading mean file from: /mnt/bigdisk/AINDIG4/digits/jobs/20200509-095611-5492/mean.binaryproto
I0509 10:06:07.549985 16884 data_layer.cpp:45] output data size: 50,3,227,227
I0509 10:06:07.602671 16884 net.cpp:122] Setting up train-data
I0509 10:06:07.602694 16884 net.cpp:129] Top shape: 50 3 227 227 (7729350)
I0509 10:06:07.602697 16884 net.cpp:129] Top shape: 50 (50)
I0509 10:06:07.602699 16884 net.cpp:137] Memory required for data: 30917600
I0509 10:06:07.602707 16884 layer_factory.hpp:77] Creating layer conv1
I0509 10:06:07.602726 16884 net.cpp:84] Creating Layer conv1
I0509 10:06:07.602731 16884 net.cpp:406] conv1 <- data
I0509 10:06:07.602741 16884 net.cpp:380] conv1 -> conv1
I0509 10:06:08.476382 16884 net.cpp:122] Setting up conv1
I0509 10:06:08.476402 16884 net.cpp:129] Top shape: 50 96 55 55 (14520000)
I0509 10:06:08.476404 16884 net.cpp:137] Memory required for data: 88997600
I0509 10:06:08.476423 16884 layer_factory.hpp:77] Creating layer relu1
I0509 10:06:08.476433 16884 net.cpp:84] Creating Layer relu1
I0509 10:06:08.476436 16884 net.cpp:406] relu1 <- conv1
I0509 10:06:08.476440 16884 net.cpp:367] relu1 -> conv1 (in-place)
I0509 10:06:08.476756 16884 net.cpp:122] Setting up relu1
I0509 10:06:08.476764 16884 net.cpp:129] Top shape: 50 96 55 55 (14520000)
I0509 10:06:08.476766 16884 net.cpp:137] Memory required for data: 147077600
I0509 10:06:08.476769 16884 layer_factory.hpp:77] Creating layer norm1
I0509 10:06:08.476778 16884 net.cpp:84] Creating Layer norm1
I0509 10:06:08.476781 16884 net.cpp:406] norm1 <- conv1
I0509 10:06:08.476809 16884 net.cpp:380] norm1 -> norm1
I0509 10:06:08.477388 16884 net.cpp:122] Setting up norm1
I0509 10:06:08.477396 16884 net.cpp:129] Top shape: 50 96 55 55 (14520000)
I0509 10:06:08.477398 16884 net.cpp:137] Memory required for data: 205157600
I0509 10:06:08.477401 16884 layer_factory.hpp:77] Creating layer pool1
I0509 10:06:08.477408 16884 net.cpp:84] Creating Layer pool1
I0509 10:06:08.477411 16884 net.cpp:406] pool1 <- norm1
I0509 10:06:08.477416 16884 net.cpp:380] pool1 -> pool1
I0509 10:06:08.477449 16884 net.cpp:122] Setting up pool1
I0509 10:06:08.477453 16884 net.cpp:129] Top shape: 50 96 27 27 (3499200)
I0509 10:06:08.477455 16884 net.cpp:137] Memory required for data: 219154400
I0509 10:06:08.477458 16884 layer_factory.hpp:77] Creating layer conv2
I0509 10:06:08.477468 16884 net.cpp:84] Creating Layer conv2
I0509 10:06:08.477469 16884 net.cpp:406] conv2 <- pool1
I0509 10:06:08.477473 16884 net.cpp:380] conv2 -> conv2
I0509 10:06:08.484195 16884 net.cpp:122] Setting up conv2
I0509 10:06:08.484215 16884 net.cpp:129] Top shape: 50 256 27 27 (9331200)
I0509 10:06:08.484216 16884 net.cpp:137] Memory required for data: 256479200
I0509 10:06:08.484226 16884 layer_factory.hpp:77] Creating layer relu2
I0509 10:06:08.484234 16884 net.cpp:84] Creating Layer relu2
I0509 10:06:08.484237 16884 net.cpp:406] relu2 <- conv2
I0509 10:06:08.484243 16884 net.cpp:367] relu2 -> conv2 (in-place)
I0509 10:06:08.484793 16884 net.cpp:122] Setting up relu2
I0509 10:06:08.484802 16884 net.cpp:129] Top shape: 50 256 27 27 (9331200)
I0509 10:06:08.484803 16884 net.cpp:137] Memory required for data: 293804000
I0509 10:06:08.484805 16884 layer_factory.hpp:77] Creating layer norm2
I0509 10:06:08.484813 16884 net.cpp:84] Creating Layer norm2
I0509 10:06:08.484817 16884 net.cpp:406] norm2 <- conv2
I0509 10:06:08.484820 16884 net.cpp:380] norm2 -> norm2
I0509 10:06:08.485133 16884 net.cpp:122] Setting up norm2
I0509 10:06:08.485141 16884 net.cpp:129] Top shape: 50 256 27 27 (9331200)
I0509 10:06:08.485142 16884 net.cpp:137] Memory required for data: 331128800
I0509 10:06:08.485146 16884 layer_factory.hpp:77] Creating layer pool2
I0509 10:06:08.485153 16884 net.cpp:84] Creating Layer pool2
I0509 10:06:08.485155 16884 net.cpp:406] pool2 <- norm2
I0509 10:06:08.485159 16884 net.cpp:380] pool2 -> pool2
I0509 10:06:08.485185 16884 net.cpp:122] Setting up pool2
I0509 10:06:08.485188 16884 net.cpp:129] Top shape: 50 256 13 13 (2163200)
I0509 10:06:08.485190 16884 net.cpp:137] Memory required for data: 339781600
I0509 10:06:08.485193 16884 layer_factory.hpp:77] Creating layer conv3
I0509 10:06:08.485201 16884 net.cpp:84] Creating Layer conv3
I0509 10:06:08.485203 16884 net.cpp:406] conv3 <- pool2
I0509 10:06:08.485208 16884 net.cpp:380] conv3 -> conv3
I0509 10:06:08.495389 16884 net.cpp:122] Setting up conv3
I0509 10:06:08.495407 16884 net.cpp:129] Top shape: 50 384 13 13 (3244800)
I0509 10:06:08.495410 16884 net.cpp:137] Memory required for data: 352760800
I0509 10:06:08.495420 16884 layer_factory.hpp:77] Creating layer relu3
I0509 10:06:08.495427 16884 net.cpp:84] Creating Layer relu3
I0509 10:06:08.495430 16884 net.cpp:406] relu3 <- conv3
I0509 10:06:08.495438 16884 net.cpp:367] relu3 -> conv3 (in-place)
I0509 10:06:08.495980 16884 net.cpp:122] Setting up relu3
I0509 10:06:08.495988 16884 net.cpp:129] Top shape: 50 384 13 13 (3244800)
I0509 10:06:08.495990 16884 net.cpp:137] Memory required for data: 365740000
I0509 10:06:08.495993 16884 layer_factory.hpp:77] Creating layer conv4
I0509 10:06:08.496002 16884 net.cpp:84] Creating Layer conv4
I0509 10:06:08.496006 16884 net.cpp:406] conv4 <- conv3
I0509 10:06:08.496011 16884 net.cpp:380] conv4 -> conv4
I0509 10:06:08.505872 16884 net.cpp:122] Setting up conv4
I0509 10:06:08.505894 16884 net.cpp:129] Top shape: 50 384 13 13 (3244800)
I0509 10:06:08.505897 16884 net.cpp:137] Memory required for data: 378719200
I0509 10:06:08.505905 16884 layer_factory.hpp:77] Creating layer relu4
I0509 10:06:08.505913 16884 net.cpp:84] Creating Layer relu4
I0509 10:06:08.505934 16884 net.cpp:406] relu4 <- conv4
I0509 10:06:08.505939 16884 net.cpp:367] relu4 -> conv4 (in-place)
I0509 10:06:08.506253 16884 net.cpp:122] Setting up relu4
I0509 10:06:08.506259 16884 net.cpp:129] Top shape: 50 384 13 13 (3244800)
I0509 10:06:08.506261 16884 net.cpp:137] Memory required for data: 391698400
I0509 10:06:08.506264 16884 layer_factory.hpp:77] Creating layer conv5
I0509 10:06:08.506274 16884 net.cpp:84] Creating Layer conv5
I0509 10:06:08.506278 16884 net.cpp:406] conv5 <- conv4
I0509 10:06:08.506283 16884 net.cpp:380] conv5 -> conv5
I0509 10:06:08.514170 16884 net.cpp:122] Setting up conv5
I0509 10:06:08.514189 16884 net.cpp:129] Top shape: 50 256 13 13 (2163200)
I0509 10:06:08.514191 16884 net.cpp:137] Memory required for data: 400351200
I0509 10:06:08.514202 16884 layer_factory.hpp:77] Creating layer relu5
I0509 10:06:08.514210 16884 net.cpp:84] Creating Layer relu5
I0509 10:06:08.514214 16884 net.cpp:406] relu5 <- conv5
I0509 10:06:08.514219 16884 net.cpp:367] relu5 -> conv5 (in-place)
I0509 10:06:08.514746 16884 net.cpp:122] Setting up relu5
I0509 10:06:08.514755 16884 net.cpp:129] Top shape: 50 256 13 13 (2163200)
I0509 10:06:08.514756 16884 net.cpp:137] Memory required for data: 409004000
I0509 10:06:08.514758 16884 layer_factory.hpp:77] Creating layer pool5
I0509 10:06:08.514765 16884 net.cpp:84] Creating Layer pool5
I0509 10:06:08.514767 16884 net.cpp:406] pool5 <- conv5
I0509 10:06:08.514771 16884 net.cpp:380] pool5 -> pool5
I0509 10:06:08.514803 16884 net.cpp:122] Setting up pool5
I0509 10:06:08.514807 16884 net.cpp:129] Top shape: 50 256 6 6 (460800)
I0509 10:06:08.514809 16884 net.cpp:137] Memory required for data: 410847200
I0509 10:06:08.514812 16884 layer_factory.hpp:77] Creating layer fc6
I0509 10:06:08.514820 16884 net.cpp:84] Creating Layer fc6
I0509 10:06:08.514822 16884 net.cpp:406] fc6 <- pool5
I0509 10:06:08.514827 16884 net.cpp:380] fc6 -> fc6
I0509 10:06:08.844128 16884 net.cpp:122] Setting up fc6
I0509 10:06:08.844148 16884 net.cpp:129] Top shape: 50 4096 (204800)
I0509 10:06:08.844151 16884 net.cpp:137] Memory required for data: 411666400
I0509 10:06:08.844159 16884 layer_factory.hpp:77] Creating layer relu6
I0509 10:06:08.844167 16884 net.cpp:84] Creating Layer relu6
I0509 10:06:08.844171 16884 net.cpp:406] relu6 <- fc6
I0509 10:06:08.844175 16884 net.cpp:367] relu6 -> fc6 (in-place)
I0509 10:06:08.844857 16884 net.cpp:122] Setting up relu6
I0509 10:06:08.844867 16884 net.cpp:129] Top shape: 50 4096 (204800)
I0509 10:06:08.844869 16884 net.cpp:137] Memory required for data: 412485600
I0509 10:06:08.844872 16884 layer_factory.hpp:77] Creating layer drop6
I0509 10:06:08.844877 16884 net.cpp:84] Creating Layer drop6
I0509 10:06:08.844880 16884 net.cpp:406] drop6 <- fc6
I0509 10:06:08.844884 16884 net.cpp:367] drop6 -> fc6 (in-place)
I0509 10:06:08.844907 16884 net.cpp:122] Setting up drop6
I0509 10:06:08.844911 16884 net.cpp:129] Top shape: 50 4096 (204800)
I0509 10:06:08.844913 16884 net.cpp:137] Memory required for data: 413304800
I0509 10:06:08.844915 16884 layer_factory.hpp:77] Creating layer fc7
I0509 10:06:08.844921 16884 net.cpp:84] Creating Layer fc7
I0509 10:06:08.844923 16884 net.cpp:406] fc7 <- fc6
I0509 10:06:08.844928 16884 net.cpp:380] fc7 -> fc7
I0509 10:06:09.022727 16884 net.cpp:122] Setting up fc7
I0509 10:06:09.022747 16884 net.cpp:129] Top shape: 50 4096 (204800)
I0509 10:06:09.022750 16884 net.cpp:137] Memory required for data: 414124000
I0509 10:06:09.022758 16884 layer_factory.hpp:77] Creating layer relu7
I0509 10:06:09.022766 16884 net.cpp:84] Creating Layer relu7
I0509 10:06:09.022770 16884 net.cpp:406] relu7 <- fc7
I0509 10:06:09.022774 16884 net.cpp:367] relu7 -> fc7 (in-place)
I0509 10:06:09.023146 16884 net.cpp:122] Setting up relu7
I0509 10:06:09.023159 16884 net.cpp:129] Top shape: 50 4096 (204800)
I0509 10:06:09.023162 16884 net.cpp:137] Memory required for data: 414943200
I0509 10:06:09.023165 16884 layer_factory.hpp:77] Creating layer drop7
I0509 10:06:09.023172 16884 net.cpp:84] Creating Layer drop7
I0509 10:06:09.023175 16884 net.cpp:406] drop7 <- fc7
I0509 10:06:09.023195 16884 net.cpp:367] drop7 -> fc7 (in-place)
I0509 10:06:09.023226 16884 net.cpp:122] Setting up drop7
I0509 10:06:09.023232 16884 net.cpp:129] Top shape: 50 4096 (204800)
I0509 10:06:09.023236 16884 net.cpp:137] Memory required for data: 415762400
I0509 10:06:09.023239 16884 layer_factory.hpp:77] Creating layer fc8
I0509 10:06:09.023248 16884 net.cpp:84] Creating Layer fc8
I0509 10:06:09.023252 16884 net.cpp:406] fc8 <- fc7
I0509 10:06:09.023257 16884 net.cpp:380] fc8 -> fc8
I0509 10:06:09.030421 16884 net.cpp:122] Setting up fc8
I0509 10:06:09.030438 16884 net.cpp:129] Top shape: 50 196 (9800)
I0509 10:06:09.030441 16884 net.cpp:137] Memory required for data: 415801600
I0509 10:06:09.030449 16884 layer_factory.hpp:77] Creating layer loss
I0509 10:06:09.030457 16884 net.cpp:84] Creating Layer loss
I0509 10:06:09.030460 16884 net.cpp:406] loss <- fc8
I0509 10:06:09.030465 16884 net.cpp:406] loss <- label
I0509 10:06:09.030470 16884 net.cpp:380] loss -> loss
I0509 10:06:09.030480 16884 layer_factory.hpp:77] Creating layer loss
…
I0509 10:06:09.031847 16884 solver.cpp:172] Creating test net (#0) specified by net file: train_val.prototxt
I0509 10:06:09.031877 16884 net.cpp:294] The NetState phase (1) differed from the phase (0) specified by a rule in layer train-data
I0509 10:06:09.032011 16884 net.cpp:51] Initializing net from parameters:
state {
phase: TEST
}
layer {
name: "val-data"
type: "Data"
top: "data"
top: "label"
include {
phase: TEST
}
transform_param {
crop_size: 227
mean_file: "/mnt/bigdisk/AINDIG4/digits/jobs/20200509-095611-5492/mean.binaryproto"
}
data_param {
source: "/mnt/bigdisk/AINDIG4/digits/jobs/20200509-095611-5492/val_db"
batch_size: 50
backend: LMDB
}
}
layer {
name: "conv1"
type: "Convolution"
bottom: "data"
top: "conv1"
param {
lr_mult: 1
decay_mult: 1
}
param {
lr_mult: 2
decay_mult: 0
}
convolution_param {
num_output: 96
kernel_size: 11
stride: 4
weight_filler {
type: "gaussian"
std: 0.01
}
bias_filler {
type: "constant"
value: 0
}
}
}
layer {
name: "relu1"
type: "ReLU"
bottom: "conv1"
top: "conv1"
}
layer {
name: "norm1"
type: "LRN"
bottom: "conv1"
top: "norm1"
lrn_param {
local_size: 5
alpha: 0.0001
beta: 0.75
}
}
layer {
name: "pool1"
type: "Pooling"
bottom: "norm1"
top: "pool1"
pooling_param {
pool: MAX
kernel_size: 3
stride: 2
}
}
layer {
name: "conv2"
type: "Convolution"
bottom: "pool1"
top: "conv2"
param {
lr_mult: 1
decay_mult: 1
}
param {
lr_mult: 2
decay_mult: 0
}
convolution_param {
num_output: 256
pad: 2
kernel_size: 5
group: 2
weight_filler {
type: "gaussian"
std: 0.01
}
bias_filler {
type: "constant"
value: 0.1
}
}
}
layer {
name: "relu2"
type: "ReLU"
bottom: "conv2"
top: "conv2"
}
layer {
name: "norm2"
type: "LRN"
bottom: "conv2"
top: "norm2"
lrn_param {
local_size: 5
alpha: 0.0001
beta: 0.75
}
}
layer {
name: "pool2"
type: "Pooling"
bottom: "norm2"
top: "pool2"
pooling_param {
pool: MAX
kernel_size: 3
stride: 2
}
}
layer {
name: "conv3"
type: "Convolution"
bottom: "pool2"
top: "conv3"
param {
lr_mult: 1
decay_mult: 1
}
param {
lr_mult: 2
decay_mult: 0
}
convolution_param {
num_output: 384
pad: 1
kernel_size: 3
weight_filler {
type: "gaussian"
std: 0.01
}
bias_filler {
type: "constant"
value: 0
}
}
}
layer {
name: "relu3"
type: "ReLU"
bottom: "conv3"
top: "conv3"
}
layer {
name: "conv4"
type: "Convolution"
bottom: "conv3"
top: "conv4"
param {
lr_mult: 1
decay_mult: 1
}
param {
lr_mult: 2
decay_mult: 0
}
convolution_param {
num_output: 384
pad: 1
kernel_size: 3
group: 2
weight_filler {
type: "gaussian"
std: 0.01
}
bias_filler {
type: "constant"
value: 0.1
}
}
}
layer {
name: "relu4"
type: "ReLU"
bottom: "conv4"
top: "conv4"
}
layer {
name: "conv5"
type: "Convolution"
bottom: "conv4"
top: "conv5"
param {
lr_mult: 1
decay_mult: 1
}
param {
lr_mult: 2
decay_mult: 0
}
convolution_param {
num_output: 256
pad: 1
kernel_size: 3
group: 2
weight_filler {
type: "gaussian"
std: 0.01
}
bias_filler {
type: "constant"
value: 0.1
}
}
}
layer {
name: "relu5"
type: "ReLU"
bottom: "conv5"
top: "conv5"
}
layer {
name: "pool5"
type: "Pooling"
bottom: "conv5"
top: "pool5"
pooling_param {
pool: MAX
kernel_size: 3
stride: 2
}
}
layer {
name: "fc6"
type: "InnerProduct"
bottom: "pool5"
top: "fc6"
param {
lr_mult: 1
decay_mult: 1
}
param {
lr_mult: 2
decay_mult: 0
}
inner_product_param {
num_output: 4096
weight_filler {
type: "gaussian"
std: 0.005
}
bias_filler {
type: "constant"
value: 0.1
}
}
}
layer {
name: "relu6"
type: "ReLU"
bottom: "fc6"
top: "fc6"
}
layer {
name: "drop6"
type: "Dropout"
bottom: "fc6"
top: "fc6"
dropout_param {
dropout_ratio: 0.5
}
}
layer {
name: "fc7"
type: "InnerProduct"
bottom: "fc6"
top: "fc7"
param {
lr_mult: 1
decay_mult: 1
}
param {
lr_mult: 2
decay_mult: 0
}
inner_product_param {
num_output: 4096
weight_filler {
type: "gaussian"
std: 0.005
}
bias_filler {
type: "constant"
value: 0.1
}
}
}
layer {
name: "relu7"
type: "ReLU"
bottom: "fc7"
top: "fc7"
}
layer {
name: "drop7"
type: "Dropout"
bottom: "fc7"
top: "fc7"
dropout_param {
dropout_ratio: 0.5
}
}
layer {
name: "fc8"
type: "InnerProduct"
bottom: "fc7"
top: "fc8"
param {
lr_mult: 1
decay_mult: 1
}
param {
lr_mult: 2
decay_mult: 0
}
inner_product_param {
num_output: 196
weight_filler {
type: "gaussian"
std: 0.01
}
bias_filler {
type: "constant"
value: 0
}
}
}
layer {
name: "accuracy"
type: "Accuracy"
bottom: "fc8"
bottom: "label"
top: "accuracy"
include {
phase: TEST
}
}
layer {
name: "loss"
type: "SoftmaxWithLoss"
bottom: "fc8"
bottom: "label"
top: "loss"
}
I0509 10:06:09.032114 16884 layer_factory.hpp:77] Creating layer val-data
I0509 10:06:09.034406 16884 db_lmdb.cpp:35] Opened lmdb /mnt/bigdisk/AINDIG4/digits/jobs/20200509-095611-5492/val_db
I0509 10:06:09.034646 16884 net.cpp:84] Creating Layer val-data
I0509 10:06:09.034660 16884 net.cpp:380] val-data -> data
I0509 10:06:09.034672 16884 net.cpp:380] val-data -> label
I0509 10:06:09.034680 16884 data_transformer.cpp:25] Loading mean file from: /mnt/bigdisk/AINDIG4/digits/jobs/20200509-095611-5492/mean.binaryproto
I0509 10:06:09.039593 16884 data_layer.cpp:45] output data size: 50,3,227,227
I0509 10:06:09.101346 16884 net.cpp:122] Setting up val-data
I0509 10:06:09.101369 16884 net.cpp:129] Top shape: 50 3 227 227 (7729350)
I0509 10:06:09.101374 16884 net.cpp:129] Top shape: 50 (50)
I0509 10:06:09.101378 16884 net.cpp:137] Memory required for data: 30917600
I0509 10:06:09.101385 16884 layer_factory.hpp:77] Creating layer label_val-data_1_split
I0509 10:06:09.101399 16884 net.cpp:84] Creating Layer label_val-data_1_split
I0509 10:06:09.101404 16884 net.cpp:406] label_val-data_1_split <- label
I0509 10:06:09.101411 16884 net.cpp:380] label_val-data_1_split -> label_val-data_1_split_0
I0509 10:06:09.101423 16884 net.cpp:380] label_val-data_1_split -> label_val-data_1_split_1
I0509 10:06:09.101477 16884 net.cpp:122] Setting up label_val-data_1_split
I0509 10:06:09.101485 16884 net.cpp:129] Top shape: 50 (50)
I0509 10:06:09.101488 16884 net.cpp:129] Top shape: 50 (50)
I0509 10:06:09.101491 16884 net.cpp:137] Memory required for data: 30918000
I0509 10:06:09.101495 16884 layer_factory.hpp:77] Creating layer conv1
I0509 10:06:09.101509 16884 net.cpp:84] Creating Layer conv1
I0509 10:06:09.101512 16884 net.cpp:406] conv1 <- data
I0509 10:06:09.101519 16884 net.cpp:380] conv1 -> conv1
I0509 10:06:09.105398 16884 net.cpp:122] Setting up conv1
I0509 10:06:09.105413 16884 net.cpp:129] Top shape: 50 96 55 55 (14520000)
I0509 10:06:09.105417 16884 net.cpp:137] Memory required for data: 88998000
I0509 10:06:09.105429 16884 layer_factory.hpp:77] Creating layer relu1
I0509 10:06:09.105437 16884 net.cpp:84] Creating Layer relu1
I0509 10:06:09.105440 16884 net.cpp:406] relu1 <- conv1
I0509 10:06:09.105446 16884 net.cpp:367] relu1 -> conv1 (in-place)
I0509 10:06:09.108327 16884 net.cpp:122] Setting up relu1
I0509 10:06:09.108343 16884 net.cpp:129] Top shape: 50 96 55 55 (14520000)
I0509 10:06:09.108347 16884 net.cpp:137] Memory required for data: 147078000
I0509 10:06:09.108351 16884 layer_factory.hpp:77] Creating layer norm1
I0509 10:06:09.108362 16884 net.cpp:84] Creating Layer norm1
I0509 10:06:09.108366 16884 net.cpp:406] norm1 <- conv1
I0509 10:06:09.108372 16884 net.cpp:380] norm1 -> norm1
I0509 10:06:09.109081 16884 net.cpp:122] Setting up norm1
I0509 10:06:09.109091 16884 net.cpp:129] Top shape: 50 96 55 55 (14520000)
I0509 10:06:09.109094 16884 net.cpp:137] Memory required for data: 205158000
I0509 10:06:09.109098 16884 layer_factory.hpp:77] Creating layer pool1
I0509 10:06:09.109105 16884 net.cpp:84] Creating Layer pool1
I0509 10:06:09.109109 16884 net.cpp:406] pool1 <- norm1
I0509 10:06:09.109114 16884 net.cpp:380] pool1 -> pool1
I0509 10:06:09.109145 16884 net.cpp:122] Setting up pool1
I0509 10:06:09.109151 16884 net.cpp:129] Top shape: 50 96 27 27 (3499200)
I0509 10:06:09.109154 16884 net.cpp:137] Memory required for data: 219154800
I0509 10:06:09.109158 16884 layer_factory.hpp:77] Creating layer conv2
I0509 10:06:09.109166 16884 net.cpp:84] Creating Layer conv2
I0509 10:06:09.109169 16884 net.cpp:406] conv2 <- pool1
I0509 10:06:09.109175 16884 net.cpp:380] conv2 -> conv2
I0509 10:06:09.118867 16884 net.cpp:122] Setting up conv2
I0509 10:06:09.118890 16884 net.cpp:129] Top shape: 50 256 27 27 (9331200)
I0509 10:06:09.118893 16884 net.cpp:137] Memory required for data: 256479600
I0509 10:06:09.118908 16884 layer_factory.hpp:77] Creating layer relu2
I0509 10:06:09.118918 16884 net.cpp:84] Creating Layer relu2
I0509 10:06:09.118922 16884 net.cpp:406] relu2 <- conv2
I0509 10:06:09.118929 16884 net.cpp:367] relu2 -> conv2 (in-place)
I0509 10:06:09.119768 16884 net.cpp:122] Setting up relu2
I0509 10:06:09.119781 16884 net.cpp:129] Top shape: 50 256 27 27 (9331200)
I0509 10:06:09.119784 16884 net.cpp:137] Memory required for data: 293804400
I0509 10:06:09.119788 16884 layer_factory.hpp:77] Creating layer norm2
I0509 10:06:09.119801 16884 net.cpp:84] Creating Layer norm2
I0509 10:06:09.119805 16884 net.cpp:406] norm2 <- conv2
I0509 10:06:09.119812 16884 net.cpp:380] norm2 -> norm2
I0509 10:06:09.120659 16884 net.cpp:122] Setting up norm2
I0509 10:06:09.120672 16884 net.cpp:129] Top shape: 50 256 27 27 (9331200)
I0509 10:06:09.120676 16884 net.cpp:137] Memory required for data: 331129200
I0509 10:06:09.120680 16884 layer_factory.hpp:77] Creating layer pool2
I0509 10:06:09.120688 16884 net.cpp:84] Creating Layer pool2
I0509 10:06:09.120692 16884 net.cpp:406] pool2 <- norm2
I0509 10:06:09.120697 16884 net.cpp:380] pool2 -> pool2
I0509 10:06:09.120738 16884 net.cpp:122] Setting up pool2
I0509 10:06:09.120745 16884 net.cpp:129] Top shape: 50 256 13 13 (2163200)
I0509 10:06:09.120748 16884 net.cpp:137] Memory required for data: 339782000
I0509 10:06:09.120752 16884 layer_factory.hpp:77] Creating layer conv3
I0509 10:06:09.120764 16884 net.cpp:84] Creating Layer conv3
I0509 10:06:09.120769 16884 net.cpp:406] conv3 <- pool2
I0509 10:06:09.120776 16884 net.cpp:380] conv3 -> conv3
I0509 10:06:09.137042 16884 net.cpp:122] Setting up conv3
I0509 10:06:09.137068 16884 net.cpp:129] Top shape: 50 384 13 13 (3244800)
I0509 10:06:09.137071 16884 net.cpp:137] Memory required for data: 352761200
I0509 10:06:09.137089 16884 layer_factory.hpp:77] Creating layer relu3
I0509 10:06:09.137104 16884 net.cpp:84] Creating Layer relu3
I0509 10:06:09.137110 16884 net.cpp:406] relu3 <- conv3
I0509 10:06:09.137118 16884 net.cpp:367] relu3 -> conv3 (in-place)
I0509 10:06:09.138065 16884 net.cpp:122] Setting up relu3
I0509 10:06:09.138080 16884 net.cpp:129] Top shape: 50 384 13 13 (3244800)
I0509 10:06:09.138083 16884 net.cpp:137] Memory required for data: 365740400
I0509 10:06:09.138088 16884 layer_factory.hpp:77] Creating layer conv4
I0509 10:06:09.138103 16884 net.cpp:84] Creating Layer conv4
I0509 10:06:09.138108 16884 net.cpp:406] conv4 <- conv3
I0509 10:06:09.138118 16884 net.cpp:380] conv4 -> conv4
I0509 10:06:09.153683 16884 net.cpp:122] Setting up conv4
I0509 10:06:09.153707 16884 net.cpp:129] Top shape: 50 384 13 13 (3244800)
I0509 10:06:09.153712 16884 net.cpp:137] Memory required for data: 378719600
I0509 10:06:09.153723 16884 layer_factory.hpp:77] Creating layer relu4
I0509 10:06:09.153734 16884 net.cpp:84] Creating Layer relu4
I0509 10:06:09.153740 16884 net.cpp:406] relu4 <- conv4
I0509 10:06:09.153748 16884 net.cpp:367] relu4 -> conv4 (in-place)
I0509 10:06:09.154250 16884 net.cpp:122] Setting up relu4
I0509 10:06:09.154263 16884 net.cpp:129] Top shape: 50 384 13 13 (3244800)
I0509 10:06:09.154266 16884 net.cpp:137] Memory required for data: 391698800
I0509 10:06:09.154270 16884 layer_factory.hpp:77] Creating layer conv5
I0509 10:06:09.154285 16884 net.cpp:84] Creating Layer conv5
I0509 10:06:09.154291 16884 net.cpp:406] conv5 <- conv4
I0509 10:06:09.154299 16884 net.cpp:380] conv5 -> conv5
I0509 10:06:09.167459 16884 net.cpp:122] Setting up conv5
I0509 10:06:09.167484 16884 net.cpp:129] Top shape: 50 256 13 13 (2163200)
I0509 10:06:09.167487 16884 net.cpp:137] Memory required for data: 400351600
I0509 10:06:09.167505 16884 layer_factory.hpp:77] Creating layer relu5
I0509 10:06:09.167516 16884 net.cpp:84] Creating Layer relu5
I0509 10:06:09.167521 16884 net.cpp:406] relu5 <- conv5
I0509 10:06:09.167531 16884 net.cpp:367] relu5 -> conv5 (in-place)
I0509 10:06:09.168375 16884 net.cpp:122] Setting up relu5
I0509 10:06:09.168387 16884 net.cpp:129] Top shape: 50 256 13 13 (2163200)
I0509 10:06:09.168391 16884 net.cpp:137] Memory required for data: 409004400
I0509 10:06:09.168395 16884 layer_factory.hpp:77] Creating layer pool5
I0509 10:06:09.168408 16884 net.cpp:84] Creating Layer pool5
I0509 10:06:09.168412 16884 net.cpp:406] pool5 <- conv5
I0509 10:06:09.168418 16884 net.cpp:380] pool5 -> pool5
I0509 10:06:09.168467 16884 net.cpp:122] Setting up pool5
I0509 10:06:09.168473 16884 net.cpp:129] Top shape: 50 256 6 6 (460800)
I0509 10:06:09.168476 16884 net.cpp:137] Memory required for data: 410847600
I0509 10:06:09.168479 16884 layer_factory.hpp:77] Creating layer fc6
I0509 10:06:09.168488 16884 net.cpp:84] Creating Layer fc6
I0509 10:06:09.168491 16884 net.cpp:406] fc6 <- pool5
I0509 10:06:09.168498 16884 net.cpp:380] fc6 -> fc6
I0509 10:06:09.587443 16884 net.cpp:122] Setting up fc6
I0509 10:06:09.587466 16884 net.cpp:129] Top shape: 50 4096 (204800)
I0509 10:06:09.587468 16884 net.cpp:137] Memory required for data: 411666800
I0509 10:06:09.587477 16884 layer_factory.hpp:77] Creating layer relu6
I0509 10:06:09.587486 16884 net.cpp:84] Creating Layer relu6
I0509 10:06:09.587489 16884 net.cpp:406] relu6 <- fc6
I0509 10:06:09.587496 16884 net.cpp:367] relu6 -> fc6 (in-place)
I0509 10:06:09.588272 16884 net.cpp:122] Setting up relu6
I0509 10:06:09.588282 16884 net.cpp:129] Top shape: 50 4096 (204800)
I0509 10:06:09.588285 16884 net.cpp:137] Memory required for data: 412486000
I0509 10:06:09.588287 16884 layer_factory.hpp:77] Creating layer drop6
I0509 10:06:09.588294 16884 net.cpp:84] Creating Layer drop6
I0509 10:06:09.588296 16884 net.cpp:406] drop6 <- fc6
I0509 10:06:09.588302 16884 net.cpp:367] drop6 -> fc6 (in-place)
I0509 10:06:09.588325 16884 net.cpp:122] Setting up drop6
I0509 10:06:09.588330 16884 net.cpp:129] Top shape: 50 4096 (204800)
I0509 10:06:09.588331 16884 net.cpp:137] Memory required for data: 413305200
I0509 10:06:09.588333 16884 layer_factory.hpp:77] Creating layer fc7
I0509 10:06:09.588340 16884 net.cpp:84] Creating Layer fc7
I0509 10:06:09.588341 16884 net.cpp:406] fc7 <- fc6
I0509 10:06:09.588346 16884 net.cpp:380] fc7 -> fc7
I0509 10:06:09.777760 16884 net.cpp:122] Setting up fc7
I0509 10:06:09.777786 16884 net.cpp:129] Top shape: 50 4096 (204800)
I0509 10:06:09.777791 16884 net.cpp:137] Memory required for data: 414124400
I0509 10:06:09.777801 16884 layer_factory.hpp:77] Creating layer relu7
I0509 10:06:09.777814 16884 net.cpp:84] Creating Layer relu7
I0509 10:06:09.777818 16884 net.cpp:406] relu7 <- fc7
I0509 10:06:09.777827 16884 net.cpp:367] relu7 -> fc7 (in-place)
I0509 10:06:09.778333 16884 net.cpp:122] Setting up relu7
I0509 10:06:09.778344 16884 net.cpp:129] Top shape: 50 4096 (204800)
I0509 10:06:09.778347 16884 net.cpp:137] Memory required for data: 414943600
I0509 10:06:09.778352 16884 layer_factory.hpp:77] Creating layer drop7
I0509 10:06:09.778360 16884 net.cpp:84] Creating Layer drop7
I0509 10:06:09.778364 16884 net.cpp:406] drop7 <- fc7
I0509 10:06:09.778369 16884 net.cpp:367] drop7 -> fc7 (in-place)
I0509 10:06:09.778399 16884 net.cpp:122] Setting up drop7
I0509 10:06:09.778405 16884 net.cpp:129] Top shape: 50 4096 (204800)
I0509 10:06:09.778409 16884 net.cpp:137] Memory required for data: 415762800
I0509 10:06:09.778411 16884 layer_factory.hpp:77] Creating layer fc8
I0509 10:06:09.778419 16884 net.cpp:84] Creating Layer fc8
I0509 10:06:09.778422 16884 net.cpp:406] fc8 <- fc7
I0509 10:06:09.778429 16884 net.cpp:380] fc8 -> fc8
I0509 10:06:09.790024 16884 net.cpp:122] Setting up fc8
I0509 10:06:09.790045 16884 net.cpp:129] Top shape: 50 196 (9800)
I0509 10:06:09.790050 16884 net.cpp:137] Memory required for data: 415802000
I0509 10:06:09.790060 16884 layer_factory.hpp:77] Creating layer fc8_fc8_0_split
I0509 10:06:09.790071 16884 net.cpp:84] Creating Layer fc8_fc8_0_split
I0509 10:06:09.790076 16884 net.cpp:406] fc8_fc8_0_split <- fc8
I0509 10:06:09.790082 16884 net.cpp:380] fc8_fc8_0_split -> fc8_fc8_0_split_0
I0509 10:06:09.790118 16884 net.cpp:380] fc8_fc8_0_split -> fc8_fc8_0_split_1
I0509 10:06:09.790161 16884 net.cpp:122] Setting up fc8_fc8_0_split
I0509 10:06:09.790168 16884 net.cpp:129] Top shape: 50 196 (9800)
I0509 10:06:09.790171 16884 net.cpp:129] Top shape: 50 196 (9800)
I0509 10:06:09.790174 16884 net.cpp:137] Memory required for data: 415880400
I0509 10:06:09.790179 16884 layer_factory.hpp:77] Creating layer accuracy
I0509 10:06:09.790186 16884 net.cpp:84] Creating Layer accuracy
I0509 10:06:09.790190 16884 net.cpp:406] accuracy <- fc8_fc8_0_split_0
I0509 10:06:09.790194 16884 net.cpp:406] accuracy <- label_val-data_1_split_0
I0509 10:06:09.790200 16884 net.cpp:380] accuracy -> accuracy
…
