…
I0501 17:07:36.010257 13961 net.cpp:294] The NetState phase (0) differed from the phase (1) specified by a rule in layer loss3/top-5
I0501 17:07:36.011600 13961 net.cpp:51] Initializing net from parameters:
state {
phase: TRAIN
level: 0
stage: ""
}
layer {
name: "train-data"
type: "Data"
top: "data"
top: "label"
include {
phase: TRAIN
}
transform_param {
mirror: true
crop_size: 224
mean_file: "/mnt/bigdisk/MANDIG2/digits/jobs/20200428-132136-11fe/mean.binaryproto"
}
data_param {
source: "/mnt/bigdisk/MANDIG2/digits/jobs/20200428-132136-11fe/train_db"
batch_size: 32
backend: LMDB
}
}
layer {
name: "conv1/7x7_s2"
type: "Convolution"
bottom: "data"
top: "conv1/7x7_s2"
param {
lr_mult: 1
decay_mult: 1
}
param {
lr_mult: 2
decay_mult: 0
}
convolution_param {
num_output: 64
pad: 3
kernel_size: 7
stride: 2
weight_filler {
type: "xavier"
std: 0.1
}
bias_filler {
type: "constant"
value: 0.2
}
}
}
layer {
name: "conv1/relu_7x7"
type: "ReLU"
bottom: "conv1/7x7_s2"
top: "conv1/7x7_s2"
}
layer {
name: "pool1/3x3_s2"
type: "Pooling"
bottom: "conv1/7x7_s2"
top: "pool1/3x3_s2"
pooling_param {
pool: MAX
kernel_size: 3
stride: 2
}
}
layer {
name: "pool1/norm1"
type: "LRN"
bottom: "pool1/3x3_s2"
top: "pool1/norm1"
lrn_param {
local_size: 5
alpha: 0.0001
beta: 0.75
}
}
layer {
name: "conv2/3x3_reduce"
type: "Convolution"
bottom: "pool1/norm1"
top: "conv2/3x3_reduce"
param {
lr_mult: 1
decay_mult: 1
}
param {
lr_mult: 2
decay_mult: 0
}
convolution_param {
num_output: 64
kernel_size: 1
weight_filler {
type: "xavier"
std: 0.1
}
bias_filler {
type: "constant"
value: 0.2
}
}
}
layer {
name: "conv2/relu_3x3_reduce"
type: "ReLU"
bottom: "conv2/3x3_reduce"
top: "conv2/3x3_reduce"
}
layer {
name: "conv2/3x3"
type: "Convolution"
bottom: "conv2/3x3_reduce"
top: "conv2/3x3"
param {
lr_mult: 1
decay_mult: 1
}
param {
lr_mult: 2
decay_mult: 0
}
convolution_param {
num_output: 192
pad: 1
kernel_size: 3
weight_filler {
type: "xavier"
std: 0.03
}
bias_filler {
type: "constant"
value: 0.2
}
}
}
layer {
name: "conv2/relu_3x3"
type: "ReLU"
bottom: "conv2/3x3"
top: "conv2/3x3"
}
layer {
name: "conv2/norm2"
type: "LRN"
bottom: "conv2/3x3"
top: "conv2/norm2"
lrn_param {
local_size: 5
alpha: 0.0001
beta: 0.75
}
}
layer {
name: "pool2/3x3_s2"
type: "Pooling"
bottom: "conv2/norm2"
top: "pool2/3x3_s2"
pooling_param {
pool: MAX
kernel_size: 3
stride: 2
}
}
layer {
name: "inception_3a/1x1"
type: "Convolution"
bottom: "pool2/3x3_s2"
top: "inception_3a/1x1"
param {
lr_mult: 1
decay_mult: 1
}
param {
lr_mult: 2
decay_mult: 0
}
convolution_param {
num_output: 64
kernel_size: 1
weight_filler {
type: "xavier"
std: 0.03
}
bias_filler {
type: "constant"
value: 0.2
}
}
}
layer {
name: "inception_3a/relu_1x1"
type: "ReLU"
bottom: "inception_3a/1x1"
top: "inception_3a/1x1"
}
layer {
name: "inception_3a/3x3_reduce"
type: "Convolution"
bottom: "pool2/3x3_s2"
top: "inception_3a/3x3_reduce"
param {
lr_mult: 1
decay_mult: 1
}
param {
lr_mult: 2
decay_mult: 0
}
convolution_param {
num_output: 96
kernel_size: 1
weight_filler {
type: "xavier"
std: 0.09
}
bias_filler {
type: "constant"
value: 0.2
}
}
}
layer {
name: "inception_3a/relu_3x3_reduce"
type: "ReLU"
bottom: "inception_3a/3x3_reduce"
top: "inception_3a/3x3_reduce"
}
layer {
name: "inception_3a/3x3"
type: "Convolution"
bottom: "inception_3a/3x3_reduce"
top: "inception_3a/3x3"
param {
lr_mult: 1
decay_mult: 1
}
param {
lr_mult: 2
decay_mult: 0
}
convolution_param {
num_output: 128
pad: 1
kernel_size: 3
weight_filler {
type: "xavier"
std: 0.03
}
bias_filler {
type: "constant"
value: 0.2
}
}
}
layer {
name: "inception_3a/relu_3x3"
type: "ReLU"
bottom: "inception_3a/3x3"
top: "inception_3a/3x3"
}
layer {
name: "inception_3a/5x5_reduce"
type: "Convolution"
bottom: "pool2/3x3_s2"
top: "inception_3a/5x5_reduce"
param {
lr_mult: 1
decay_mult: 1
}
param {
lr_mult: 2
decay_mult: 0
}
convolution_param {
num_output: 16
kernel_size: 1
weight_filler {
type: "xavier"
std: 0.2
}
bias_filler {
type: "constant"
value: 0.2
}
}
}
layer {
name: "inception_3a/relu_5x5_reduce"
type: "ReLU"
bottom: "inception_3a/5x5_reduce"
top: "inception_3a/5x5_reduce"
}
layer {
name: "inception_3a/5x5"
type: "Convolution"
bottom: "inception_3a/5x5_reduce"
top: "inception_3a/5x5"
param {
lr_mult: 1
decay_mult: 1
}
param {
lr_mult: 2
decay_mult: 0
}
convolution_param {
num_output: 32
pad: 2
kernel_size: 5
weight_filler {
type: "xavier"
std: 0.03
}
bias_filler {
type: "constant"
value: 0.2
}
}
}
layer {
name: "inception_3a/relu_5x5"
type: "ReLU"
bottom: "inception_3a/5x5"
top: "inception_3a/5x5"
}
layer {
name: "inception_3a/pool"
type: "Pooling"
bottom: "pool2/3x3_s2"
top: "inception_3a/pool"
pooling_param {
pool: MAX
kernel_size: 3
stride: 1
pad: 1
}
}
layer {
name: "inception_3a/pool_proj"
type: "Convolution"
bottom: "inception_3a/pool"
top: "inception_3a/pool_proj"
param {
lr_mult: 1
decay_mult: 1
}
param {
lr_mult: 2
decay_mult: 0
}
convolution_param {
num_output: 32
kernel_size: 1
weight_filler {
type: "xavier"
std: 0.1
}
bias_filler {
type: "constant"
value: 0.2
}
}
}
layer {
name: "inception_3a/relu_pool_proj"
type: "ReLU"
bottom: "inception_3a/pool_proj"
top: "inception_3a/pool_proj"
}
layer {
name: "inception_3a/output"
type: "Concat"
bottom: "inception_3a/1x1"
bottom: "inception_3a/3x3"
bottom: "inception_3a/5x5"
bottom: "inception_3a/pool_proj"
top: "inception_3a/output"
}
layer {
name: "inception_3b/1x1"
type: "Convolution"
bottom: "inception_3a/output"
top: "inception_3b/1x1"
param {
lr_mult: 1
decay_mult: 1
}
param {
lr_mult: 2
decay_mult: 0
}
convolution_param {
num_output: 128
kernel_size: 1
weight_filler {
type: "xavier"
std: 0.03
}
bias_filler {
type: "constant"
value: 0.2
}
}
}
layer {
name: "inception_3b/relu_1x1"
type: "ReLU"
bottom: "inception_3b/1x1"
top: "inception_3b/1x1"
}
layer {
name: "inception_3b/3x3_reduce"
type: "Convolution"
bottom: "inception_3a/output"
top: "inception_3b/3x3_reduce"
param {
lr_mult: 1
decay_mult: 1
}
param {
lr_mult: 2
decay_mult: 0
}
convolution_param {
num_output: 128
kernel_size: 1
weight_filler {
type: "xavier"
std: 0.09
}
bias_filler {
type: "constant"
value: 0.2
}
}
}
layer {
name: "inception_3b/relu_3x3_reduce"
type: "ReLU"
bottom: "inception_3b/3x3_reduce"
top: "inception_3b/3x3_reduce"
}
layer {
name: "inception_3b/3x3"
type: "Convolution"
bottom: "inception_3b/3x3_reduce"
top: "inception_3b/3x3"
param {
lr_mult: 1
decay_mult: 1
}
param {
lr_mult: 2
decay_mult: 0
}
convolution_param {
num_output: 192
pad: 1
kernel_size: 3
weight_filler {
type: "xavier"
std: 0.03
}
bias_filler {
type: "constant"
value: 0.2
}
}
}
layer {
name: "inception_3b/relu_3x3"
type: "ReLU"
bottom: "inception_3b/3x3"
top: "inception_3b/3x3"
}
layer {
name: "inception_3b/5x5_reduce"
type: "Convolution"
bottom: "inception_3a/output"
top: "inception_3b/5x5_reduce"
param {
lr_mult: 1
decay_mult: 1
}
param {
lr_mult: 2
decay_mult: 0
}
convolution_param {
num_output: 32
kernel_size: 1
weight_filler {
type: "xavier"
std: 0.2
}
bias_filler {
type: "constant"
value: 0.2
}
}
}
layer {
name: "inception_3b/relu_5x5_reduce"
type: "ReLU"
bottom: "inception_3b/5x5_reduce"
top: "inception_3b/5x5_reduce"
}
layer {
name: "inception_3b/5x5"
type: "Convolution"
bottom: "inception_3b/5x5_reduce"
top: "inception_3b/5x5"
param {
lr_mult: 1
decay_mult: 1
}
param {
lr_mult: 2
decay_mult: 0
}
convolution_param {
num_output: 96
pad: 2
kernel_size: 5
weight_filler {
type: "xavier"
std: 0.03
}
bias_filler {
type: "constant"
value: 0.2
}
}
}
layer {
name: "inception_3b/relu_5x5"
type: "ReLU"
bottom: "inception_3b/5x5"
top: "inception_3b/5x5"
}
layer {
name: "inception_3b/pool"
type: "Pooling"
bottom: "inception_3a/output"
top: "inception_3b/pool"
pooling_param {
pool: MAX
kernel_size: 3
stride: 1
pad: 1
}
}
layer {
name: "inception_3b/pool_proj"
type: "Convolution"
bottom: "inception_3b/pool"
top: "inception_3b/pool_proj"
param {
lr_mult: 1
decay_mult: 1
}
param {
lr_mult: 2
decay_mult: 0
}
convolution_param {
num_output: 64
kernel_size: 1
weight_filler {
type: "xavier"
std: 0.1
}
bias_filler {
type: "constant"
value: 0.2
}
}
}
layer {
name: "inception_3b/relu_pool_proj"
type: "ReLU"
bottom: "inception_3b/pool_proj"
top: "inception_3b/pool_proj"
}
layer {
name: "inception_3b/output"
type: "Concat"
bottom: "inception_3b/1x1"
bottom: "inception_3b/3x3"
bottom: "inception_3b/5x5"
bottom: "inception_3b/pool_proj"
top: "inception_3b/output"
}
layer {
name: "pool3/3x3_s2"
type: "Pooling"
bottom: "inception_3b/output"
top: "pool3/3x3_s2"
pooling_param {
pool: MAX
kernel_size: 3
stride: 2
}
}
layer {
name: "inception_4a/1x1"
type: "Convolution"
bottom: "pool3/3x3_s2"
top: "inception_4a/1x1"
param {
lr_mult: 1
decay_mult: 1
}
param {
lr_mult: 2
decay_mult: 0
}
convolution_param {
num_output: 192
kernel_size: 1
weight_filler {
type: "xavier"
std: 0.03
}
bias_filler {
type: "constant"
value: 0.2
}
}
}
layer {
name: "inception_4a/relu_1x1"
type: "ReLU"
bottom: "inception_4a/1x1"
top: "inception_4a/1x1"
}
layer {
name: "inception_4a/3x3_reduce"
type: "Convolution"
bottom: "pool3/3x3_s2"
top: "inception_4a/3x3_reduce"
param {
lr_mult: 1
decay_mult: 1
}
param {
lr_mult: 2
decay_mult: 0
}
convolution_param {
num_output: 96
kernel_size: 1
weight_filler {
type: "xavier"
std: 0.09
}
bias_filler {
type: "constant"
value: 0.2
}
}
}
layer {
name: "inception_4a/relu_3x3_reduce"
type: "ReLU"
bottom: "inception_4a/3x3_reduce"
top: "inception_4a/3x3_reduce"
}
layer {
name: "inception_4a/3x3"
type: "Convolution"
bottom: "inception_4a/3x3_reduce"
top: "inception_4a/3x3"
param {
lr_mult: 1
decay_mult: 1
}
param {
lr_mult: 2
decay_mult: 0
}
convolution_param {
num_output: 208
pad: 1
kernel_size: 3
weight_filler {
type: "xavier"
std: 0.03
}
bias_filler {
type: "constant"
value: 0.2
}
}
}
layer {
name: "inception_4a/relu_3x3"
type: "ReLU"
bottom: "inception_4a/3x3"
top: "inception_4a/3x3"
}
layer {
name: "inception_4a/5x5_reduce"
type: "Convolution"
bottom: "pool3/3x3_s2"
top: "inception_4a/5x5_reduce"
param {
lr_mult: 1
decay_mult: 1
}
param {
lr_mult: 2
decay_mult: 0
}
convolution_param {
num_output: 16
kernel_size: 1
weight_filler {
type: "xavier"
std: 0.2
}
bias_filler {
type: "constant"
value: 0.2
}
}
}
layer {
name: "inception_4a/relu_5x5_reduce"
type: "ReLU"
bottom: "inception_4a/5x5_reduce"
top: "inception_4a/5x5_reduce"
}
layer {
name: "inception_4a/5x5"
type: "Convolution"
bottom: "inception_4a/5x5_reduce"
top: "inception_4a/5x5"
param {
lr_mult: 1
decay_mult: 1
}
param {
lr_mult: 2
decay_mult: 0
}
convolution_param {
num_output: 48
pad: 2
kernel_size: 5
weight_filler {
type: "xavier"
std: 0.03
}
bias_filler {
type: "constant"
value: 0.2
}
}
}
layer {
name: "inception_4a/relu_5x5"
type: "ReLU"
bottom: "inception_4a/5x5"
top: "inception_4a/5x5"
}
layer {
name: "inception_4a/pool"
type: "Pooling"
bottom: "pool3/3x3_s2"
top: "inception_4a/pool"
pooling_param {
pool: MAX
kernel_size: 3
stride: 1
pad: 1
}
}
layer {
name: "inception_4a/pool_proj"
type: "Convolution"
bottom: "inception_4a/pool"
top: "inception_4a/pool_proj"
param {
lr_mult: 1
decay_mult: 1
}
param {
lr_mult: 2
decay_mult: 0
}
convolution_param {
num_output: 64
kernel_size: 1
weight_filler {
type: "xavier"
std: 0.1
}
bias_filler {
type: "constant"
value: 0.2
}
}
}
layer {
name: "inception_4a/relu_pool_proj"
type: "ReLU"
bottom: "inception_4a/pool_proj"
top: "inception_4a/pool_proj"
}
layer {
name: "inception_4a/output"
type: "Concat"
bottom: "inception_4a/1x1"
bottom: "inception_4a/3x3"
bottom: "inception_4a/5x5"
bottom: "inception_4a/pool_proj"
top: "inception_4a/output"
}
layer {
name: "loss1/ave_pool"
type: "Pooling"
bottom: "inception_4a/output"
top: "loss1/ave_pool"
pooling_param {
pool: AVE
kernel_size: 5
stride: 3
}
}
layer {
name: "loss1/conv"
type: "Convolution"
bottom: "loss1/ave_pool"
top: "loss1/conv"
param {
lr_mult: 1
decay_mult: 1
}
param {
lr_mult: 2
decay_mult: 0
}
convolution_param {
num_output: 128
kernel_size: 1
weight_filler {
type: "xavier"
std: 0.08
}
bias_filler {
type: "constant"
value: 0.2
}
}
}
layer {
name: "loss1/relu_conv"
type: "ReLU"
bottom: "loss1/conv"
top: "loss1/conv"
}
layer {
name: "loss1/fc"
type: "InnerProduct"
bottom: "loss1/conv"
top: "loss1/fc"
param {
lr_mult: 1
decay_mult: 1
}
param {
lr_mult: 2
decay_mult: 0
}
inner_product_param {
num_output: 1024
weight_filler {
type: "xavier"
std: 0.02
}
bias_filler {
type: "constant"
value: 0.2
}
}
}
layer {
name: "loss1/relu_fc"
type: "ReLU"
bottom: "loss1/fc"
top: "loss1/fc"
}
layer {
name: "loss1/drop_fc"
type: "Dropout"
bottom: "loss1/fc"
top: "loss1/fc"
dropout_param {
dropout_ratio: 0.7
}
}
layer {
name: "loss1/classifier"
type: "InnerProduct"
bottom: "loss1/fc"
top: "loss1/classifier"
param {
lr_mult: 1
decay_mult: 1
}
param {
lr_mult: 2
decay_mult: 0
}
inner_product_param {
num_output: 196
weight_filler {
type: "xavier"
std: 0.0009765625
}
bias_filler {
type: "constant"
value: 0
}
}
}
layer {
name: "loss1/loss"
type: "SoftmaxWithLoss"
bottom: "loss1/classifier"
bottom: "label"
top: "loss1/loss"
loss_weight: 0.3
}
layer {
name: "inception_4b/1x1"
type: "Convolution"
bottom: "inception_4a/output"
top: "inception_4b/1x1"
param {
lr_mult: 1
decay_mult: 1
}
param {
lr_mult: 2
decay_mult: 0
}
convolution_param {
num_output: 160
kernel_size: 1
weight_filler {
type: "xavier"
std: 0.03
}
bias_filler {
type: "constant"
value: 0.2
}
}
}
layer {
name: "inception_4b/relu_1x1"
type: "ReLU"
bottom: "inception_4b/1x1"
top: "inception_4b/1x1"
}
layer {
name: "inception_4b/3x3_reduce"
type: "Convolution"
bottom: "inception_4a/output"
top: "inception_4b/3x3_reduce"
param {
lr_mult: 1
decay_mult: 1
}
param {
lr_mult: 2
decay_mult: 0
}
convolution_param {
num_output: 112
kernel_size: 1
weight_filler {
type: "xavier"
std: 0.09
}
bias_filler {
type: "constant"
value: 0.2
}
}
}
layer {
name: "inception_4b/relu_3x3_reduce"
type: "ReLU"
bottom: "inception_4b/3x3_reduce"
top: "inception_4b/3x3_reduce"
}
layer {
name: "inception_4b/3x3"
type: "Convolution"
bottom: "inception_4b/3x3_reduce"
top: "inception_4b/3x3"
param {
lr_mult: 1
decay_mult: 1
}
param {
lr_mult: 2
decay_mult: 0
}
convolution_param {
num_output: 224
pad: 1
kernel_size: 3
weight_filler {
type: "xavier"
std: 0.03
}
bias_filler {
type: "constant"
value: 0.2
}
}
}
layer {
name: "inception_4b/relu_3x3"
type: "ReLU"
bottom: "inception_4b/3x3"
top: "inception_4b/3x3"
}
layer {
name: "inception_4b/5x5_reduce"
type: "Convolution"
bottom: "inception_4a/output"
top: "inception_4b/5x5_reduce"
param {
lr_mult: 1
decay_mult: 1
}
param {
lr_mult: 2
decay_mult: 0
}
convolution_param {
num_output: 24
kernel_size: 1
weight_filler {
type: "xavier"
std: 0.2
}
bias_filler {
type: "constant"
value: 0.2
}
}
}
layer {
name: "inception_4b/relu_5x5_reduce"
type: "ReLU"
bottom: "inception_4b/5x5_reduce"
top: "inception_4b/5x5_reduce"
}
layer {
name: "inception_4b/5x5"
type: "Convolution"
bottom: "inception_4b/5x5_reduce"
top: "inception_4b/5x5"
param {
lr_mult: 1
decay_mult: 1
}
param {
lr_mult: 2
decay_mult: 0
}
convolution_param {
num_output: 64
pad: 2
kernel_size: 5
weight_filler {
type: "xavier"
std: 0.03
}
bias_filler {
type: "constant"
value: 0.2
}
}
}
layer {
name: "inception_4b/relu_5x5"
type: "ReLU"
bottom: "inception_4b/5x5"
top: "inception_4b/5x5"
}
layer {
name: "inception_4b/pool"
type: "Pooling"
bottom: "inception_4a/output"
top: "inception_4b/pool"
pooling_param {
pool: MAX
kernel_size: 3
stride: 1
pad: 1
}
}
layer {
name: "inception_4b/pool_proj"
type: "Convolution"
bottom: "inception_4b/pool"
top: "inception_4b/pool_proj"
param {
lr_mult: 1
decay_mult: 1
}
param {
lr_mult: 2
decay_mult: 0
}
convolution_param {
num_output: 64
kernel_size: 1
weight_filler {
type: "xavier"
std: 0.1
}
bias_filler {
type: "constant"
value: 0.2
}
}
}
layer {
name: "inception_4b/relu_pool_proj"
type: "ReLU"
bottom: "inception_4b/pool_proj"
top: "inception_4b/pool_proj"
}
layer {
name: "inception_4b/output"
type: "Concat"
bottom: "inception_4b/1x1"
bottom: "inception_4b/3x3"
bottom: "inception_4b/5x5"
bottom: "inception_4b/pool_proj"
top: "inception_4b/output"
}
layer {
name: "inception_4c/1x1"
type: "Convolution"
bottom: "inception_4b/output"
top: "inception_4c/1x1"
param {
lr_mult: 1
decay_mult: 1
}
param {
lr_mult: 2
decay_mult: 0
}
convolution_param {
num_output: 128
kernel_size: 1
weight_filler {
type: "xavier"
std: 0.03
}
bias_filler {
type: "constant"
value: 0.2
}
}
}
layer {
name: "inception_4c/relu_1x1"
type: "ReLU"
bottom: "inception_4c/1x1"
top: "inception_4c/1x1"
}
layer {
name: "inception_4c/3x3_reduce"
type: "Convolution"
bottom: "inception_4b/output"
top: "inception_4c/3x3_reduce"
param {
lr_mult: 1
decay_mult: 1
}
param {
lr_mult: 2
decay_mult: 0
}
convolution_param {
num_output: 128
kernel_size: 1
weight_filler {
type: "xavier"
std: 0.09
}
bias_filler {
type: "constant"
value: 0.2
}
}
}
layer {
name: "inception_4c/relu_3x3_reduce"
type: "ReLU"
bottom: "inception_4c/3x3_reduce"
top: "inception_4c/3x3_reduce"
}
layer {
name: "inception_4c/3x3"
type: "Convolution"
bottom: "inception_4c/3x3_reduce"
top: "inception_4c/3x3"
param {
lr_mult: 1
decay_mult: 1
}
param {
lr_mult: 2
decay_mult: 0
}
convolution_param {
num_output: 256
pad: 1
kernel_size: 3
weight_filler {
type: "xavier"
std: 0.03
}
bias_filler {
type: "constant"
value: 0.2
}
}
}
layer {
name: "inception_4c/relu_3x3"
type: "ReLU"
bottom: "inception_4c/3x3"
top: "inception_4c/3x3"
}
layer {
name: "inception_4c/5x5_reduce"
type: "Convolution"
bottom: "inception_4b/output"
top: "inception_4c/5x5_reduce"
param {
lr_mult: 1
decay_mult: 1
}
param {
lr_mult: 2
decay_mult: 0
}
convolution_param {
num_output: 24
kernel_size: 1
weight_filler {
type: "xavier"
std: 0.2
}
bias_filler {
type: "constant"
value: 0.2
}
}
}
layer {
name: "inception_4c/relu_5x5_reduce"
type: "ReLU"
bottom: "inception_4c/5x5_reduce"
top: "inception_4c/5x5_reduce"
}
layer {
name: "inception_4c/5x5"
type: "Convolution"
bottom: "inception_4c/5x5_reduce"
top: "inception_4c/5x5"
param {
lr_mult: 1
decay_mult: 1
}
param {
lr_mult: 2
decay_mult: 0
}
convolution_param {
num_output: 64
pad: 2
kernel_size: 5
weight_filler {
type: "xavier"
std: 0.03
}
bias_filler {
type: "constant"
value: 0.2
}
}
}
layer {
name: "inception_4c/relu_5x5"
type: "ReLU"
bottom: "inception_4c/5x5"
top: "inception_4c/5x5"
}
layer {
name: "inception_4c/pool"
type: "Pooling"
bottom: "inception_4b/output"
top: "inception_4c/pool"
pooling_param {
pool: MAX
kernel_size: 3
stride: 1
pad: 1
}
}
layer {
name: "inception_4c/pool_proj"
type: "Convolution"
bottom: "inception_4c/pool"
top: "inception_4c/pool_proj"
param {
lr_mult: 1
decay_mult: 1
}
param {
lr_mult: 2
decay_mult: 0
}
convolution_param {
num_output: 64
kernel_size: 1
weight_filler {
type: "xavier"
std: 0.1
}
bias_filler {
type: "constant"
value: 0.2
}
}
}
layer {
name: "inception_4c/relu_pool_proj"
type: "ReLU"
bottom: "inception_4c/pool_proj"
top: "inception_4c/pool_proj"
}
layer {
name: "inception_4c/output"
type: "Concat"
bottom: "inception_4c/1x1"
bottom: "inception_4c/3x3"
bottom: "inception_4c/5x5"
bottom: "inception_4c/pool_proj"
top: "inception_4c/output"
}
layer {
name: "inception_4d/1x1"
type: "Convolution"
bottom: "inception_4c/output"
top: "inception_4d/1x1"
param {
lr_mult: 1
decay_mult: 1
}
param {
lr_mult: 2
decay_mult: 0
}
convolution_param {
num_output: 112
kernel_size: 1
weight_filler {
type: "xavier"
std: 0.03
}
bias_filler {
type: "constant"
value: 0.2
}
}
}
layer {
name: "inception_4d/relu_1x1"
type: "ReLU"
bottom: "inception_4d/1x1"
top: "inception_4d/1x1"
}
layer {
name: "inception_4d/3x3_reduce"
type: "Convolution"
bottom: "inception_4c/output"
top: "inception_4d/3x3_reduce"
param {
lr_mult: 1
decay_mult: 1
}
param {
lr_mult: 2
decay_mult: 0
}
convolution_param {
num_output: 144
kernel_size: 1
weight_filler {
type: "xavier"
std: 0.09
}
bias_filler {
type: "constant"
value: 0.2
}
}
}
layer {
name: "inception_4d/relu_3x3_reduce"
type: "ReLU"
bottom: "inception_4d/3x3_reduce"
top: "inception_4d/3x3_reduce"
}
layer {
name: "inception_4d/3x3"
type: "Convolution"
bottom: "inception_4d/3x3_reduce"
top: "inception_4d/3x3"
param {
lr_mult: 1
decay_mult: 1
}
param {
lr_mult: 2
decay_mult: 0
}
convolution_param {
num_output: 288
pad: 1
kernel_size: 3
weight_filler {
type: "xavier"
std: 0.03
}
bias_filler {
type: "constant"
value: 0.2
}
}
}
layer {
name: "inception_4d/relu_3x3"
type: "ReLU"
bottom: "inception_4d/3x3"
top: "inception_4d/3x3"
}
layer {
name: "inception_4d/5x5_reduce"
type: "Convolution"
bottom: "inception_4c/output"
top: "inception_4d/5x5_reduce"
param {
lr_mult: 1
decay_mult: 1
}
param {
lr_mult: 2
decay_mult: 0
}
convolution_param {
num_output: 32
kernel_size: 1
weight_filler {
type: "xavier"
std: 0.2
}
bias_filler {
type: "constant"
value: 0.2
}
}
}
layer {
name: "inception_4d/relu_5x5_reduce"
type: "ReLU"
bottom: "inception_4d/5x5_reduce"
top: "inception_4d/5x5_reduce"
}
layer {
name: "inception_4d/5x5"
type: "Convolution"
bottom: "inception_4d/5x5_reduce"
top: "inception_4d/5x5"
param {
lr_mult: 1
decay_mult: 1
}
param {
lr_mult: 2
decay_mult: 0
}
convolution_param {
num_output: 64
pad: 2
kernel_size: 5
weight_filler {
type: "xavier"
std: 0.03
}
bias_filler {
type: "constant"
value: 0.2
}
}
}
layer {
name: "inception_4d/relu_5x5"
type: "ReLU"
bottom: "inception_4d/5x5"
top: "inception_4d/5x5"
}
layer {
name: "inception_4d/pool"
type: "Pooling"
bottom: "inception_4c/output"
top: "inception_4d/pool"
pooling_param {
pool: MAX
kernel_size: 3
stride: 1
pad: 1
}
}
layer {
name: "inception_4d/pool_proj"
type: "Convolution"
bottom: "inception_4d/pool"
top: "inception_4d/pool_proj"
param {
lr_mult: 1
decay_mult: 1
}
param {
lr_mult: 2
decay_mult: 0
}
convolution_param {
num_output: 64
kernel_size: 1
weight_filler {
type: "xavier"
std: 0.1
}
bias_filler {
type: "constant"
value: 0.2
}
}
}
layer {
name: "inception_4d/relu_pool_proj"
type: "ReLU"
bottom: "inception_4d/pool_proj"
top: "inception_4d/pool_proj"
}
layer {
name: "inception_4d/output"
type: "Concat"
bottom: "inception_4d/1x1"
bottom: "inception_4d/3x3"
bottom: "inception_4d/5x5"
bottom: "inception_4d/pool_proj"
top: "inception_4d/output"
}
layer {
name: "loss2/ave_pool"
type: "Pooling"
bottom: "inception_4d/output"
top: "loss2/ave_pool"
pooling_param {
pool: AVE
kernel_size: 5
stride: 3
}
}
layer {
name: "loss2/conv"
type: "Convolution"
bottom: "loss2/ave_pool"
top: "loss2/conv"
param {
lr_mult: 1
decay_mult: 1
}
param {
lr_mult: 2
decay_mult: 0
}
convolution_param {
num_output: 128
kernel_size: 1
weight_filler {
type: "xavier"
std: 0.08
}
bias_filler {
type: "constant"
value: 0.2
}
}
}
layer {
name: "loss2/relu_conv"
type: "ReLU"
bottom: "loss2/conv"
top: "loss2/conv"
}
layer {
name: "loss2/fc"
type: "InnerProduct"
bottom: "loss2/conv"
top: "loss2/fc"
param {
lr_mult: 1
decay_mult: 1
}
param {
lr_mult: 2
decay_mult: 0
}
inner_product_param {
num_output: 1024
weight_filler {
type: "xavier"
std: 0.02
}
bias_filler {
type: "constant"
value: 0.2
}
}
}
layer {
name: "loss2/relu_fc"
type: "ReLU"
bottom: "loss2/fc"
top: "loss2/fc"
}
layer {
name: "loss2/drop_fc"
type: "Dropout"
bottom: "loss2/fc"
top: "loss2/fc"
dropout_param {
dropout_ratio: 0.7
}
}
layer {
name: "loss2/classifier"
type: "InnerProduct"
bottom: "loss2/fc"
top: "loss2/classifier"
param {
lr_mult: 1
decay_mult: 1
}
param {
lr_mult: 2
decay_mult: 0
}
inner_product_param {
num_output: 196
weight_filler {
type: "xavier"
std: 0.0009765625
}
bias_filler {
type: "constant"
value: 0
}
}
}
layer {
name: "loss2/loss"
type: "SoftmaxWithLoss"
bottom: "loss2/classifier"
bottom: "label"
top: "loss2/loss"
loss_weight: 0.3
}
layer {
name: "inception_4e/1x1"
type: "Convolution"
bottom: "inception_4d/output"
top: "inception_4e/1x1"
param {
lr_mult: 1
decay_mult: 1
}
param {
lr_mult: 2
decay_mult: 0
}
convolution_param {
num_output: 256
kernel_size: 1
weight_filler {
type: "xavier"
std: 0.03
}
bias_filler {
type: "constant"
value: 0.2
}
}
}
layer {
name: "inception_4e/relu_1x1"
type: "ReLU"
bottom: "inception_4e/1x1"
top: "inception_4e/1x1"
}
layer {
name: "inception_4e/3x3_reduce"
type: "Convolution"
bottom: "inception_4d/output"
top: "inception_4e/3x3_reduce"
param {
lr_mult: 1
decay_mult: 1
}
param {
lr_mult: 2
decay_mult: 0
}
convolution_param {
num_output: 160
kernel_size: 1
weight_filler {
type: "xavier"
std: 0.09
}
bias_filler {
type: "constant"
value: 0.2
}
}
}
layer {
name: "inception_4e/relu_3x3_reduce"
type: "ReLU"
bottom: "inception_4e/3x3_reduce"
top: "inception_4e/3x3_reduce"
}
layer {
name: "inception_4e/3x3"
type: "Convolution"
bottom: "inception_4e/3x3_reduce"
top: "inception_4e/3x3"
param {
lr_mult: 1
decay_mult: 1
}
param {
lr_mult: 2
decay_mult: 0
}
convolution_param {
num_output: 320
pad: 1
kernel_size: 3
weight_filler {
type: "xavier"
std: 0.03
}
bias_filler {
type: "constant"
value: 0.2
}
}
}
layer {
name: "inception_4e/relu_3x3"
type: "ReLU"
bottom: "inception_4e/3x3"
top: "inception_4e/3x3"
}
layer {
name: "inception_4e/5x5_reduce"
type: "Convolution"
bottom: "inception_4d/output"
top: "inception_4e/5x5_reduce"
param {
lr_mult: 1
decay_mult: 1
}
param {
lr_mult: 2
decay_mult: 0
}
convolution_param {
num_output: 32
kernel_size: 1
weight_filler {
type: "xavier"
std: 0.2
}
bias_filler {
type: "constant"
val
I0501 17:07:36.012421 13961 layer_factory.hpp:77] Creating layer train-data
I0501 17:07:36.049767 13961 db_lmdb.cpp:35] Opened lmdb /mnt/bigdisk/MANDIG2/digits/jobs/20200428-132136-11fe/train_db
I0501 17:07:36.075700 13961 net.cpp:84] Creating Layer train-data
I0501 17:07:36.075736 13961 net.cpp:380] train-data -> data
I0501 17:07:36.075765 13961 net.cpp:380] train-data -> label
I0501 17:07:36.075784 13961 data_transformer.cpp:25] Loading mean file from: /mnt/bigdisk/MANDIG2/digits/jobs/20200428-132136-11fe/mean.binaryproto
I0501 17:07:36.084273 13961 data_layer.cpp:45] output data size: 32,3,224,224
I0501 17:07:36.224712 13961 net.cpp:122] Setting up train-data
I0501 17:07:36.224743 13961 net.cpp:129] Top shape: 32 3 224 224 (4816896)
I0501 17:07:36.224756 13961 net.cpp:129] Top shape: 32 (32)
I0501 17:07:36.224764 13961 net.cpp:137] Memory required for data: 19267712
I0501 17:07:36.224779 13961 layer_factory.hpp:77] Creating layer label_train-data_1_split
I0501 17:07:36.224828 13961 net.cpp:84] Creating Layer label_train-data_1_split
I0501 17:07:36.224843 13961 net.cpp:406] label_train-data_1_split <- label
I0501 17:07:36.224866 13961 net.cpp:380] label_train-data_1_split -> label_train-data_1_split_0
I0501 17:07:36.224885 13961 net.cpp:380] label_train-data_1_split -> label_train-data_1_split_1
I0501 17:07:36.224897 13961 net.cpp:380] label_train-data_1_split -> label_train-data_1_split_2
I0501 17:07:36.224974 13961 net.cpp:122] Setting up label_train-data_1_split
I0501 17:07:36.224987 13961 net.cpp:129] Top shape: 32 (32)
I0501 17:07:36.224997 13961 net.cpp:129] Top shape: 32 (32)
I0501 17:07:36.225005 13961 net.cpp:129] Top shape: 32 (32)
I0501 17:07:36.225011 13961 net.cpp:137] Memory required for data: 19268096
I0501 17:07:36.225019 13961 layer_factory.hpp:77] Creating layer conv1/7x7_s2
I0501 17:07:36.225045 13961 net.cpp:84] Creating Layer conv1/7x7_s2
I0501 17:07:36.225054 13961 net.cpp:406] conv1/7x7_s2 <- data
I0501 17:07:36.225067 13961 net.cpp:380] conv1/7x7_s2 -> conv1/7x7_s2
I0501 17:07:39.322280 13961 net.cpp:122] Setting up conv1/7x7_s2
I0501 17:07:39.322309 13961 net.cpp:129] Top shape: 32 64 112 112 (25690112)
I0501 17:07:39.322314 13961 net.cpp:137] Memory required for data: 122028544
I0501 17:07:39.322340 13961 layer_factory.hpp:77] Creating layer conv1/relu_7x7
I0501 17:07:39.322355 13961 net.cpp:84] Creating Layer conv1/relu_7x7
I0501 17:07:39.322361 13961 net.cpp:406] conv1/relu_7x7 <- conv1/7x7_s2
I0501 17:07:39.322369 13961 net.cpp:367] conv1/relu_7x7 -> conv1/7x7_s2 (in-place)
I0501 17:07:39.328176 13961 net.cpp:122] Setting up conv1/relu_7x7
I0501 17:07:39.328204 13961 net.cpp:129] Top shape: 32 64 112 112 (25690112)
I0501 17:07:39.328209 13961 net.cpp:137] Memory required for data: 224788992
I0501 17:07:39.328217 13961 layer_factory.hpp:77] Creating layer pool1/3x3_s2
I0501 17:07:39.328235 13961 net.cpp:84] Creating Layer pool1/3x3_s2
I0501 17:07:39.328241 13961 net.cpp:406] pool1/3x3_s2 <- conv1/7x7_s2
I0501 17:07:39.328250 13961 net.cpp:380] pool1/3x3_s2 -> pool1/3x3_s2
I0501 17:07:39.328344 13961 net.cpp:122] Setting up pool1/3x3_s2
I0501 17:07:39.328354 13961 net.cpp:129] Top shape: 32 64 56 56 (6422528)
I0501 17:07:39.328358 13961 net.cpp:137] Memory required for data: 250479104
I0501 17:07:39.328363 13961 layer_factory.hpp:77] Creating layer pool1/norm1
I0501 17:07:39.328377 13961 net.cpp:84] Creating Layer pool1/norm1
I0501 17:07:39.328382 13961 net.cpp:406] pool1/norm1 <- pool1/3x3_s2
I0501 17:07:39.328389 13961 net.cpp:380] pool1/norm1 -> pool1/norm1
I0501 17:07:39.330293 13961 net.cpp:122] Setting up pool1/norm1
I0501 17:07:39.330308 13961 net.cpp:129] Top shape: 32 64 56 56 (6422528)
I0501 17:07:39.330313 13961 net.cpp:137] Memory required for data: 276169216
I0501 17:07:39.330319 13961 layer_factory.hpp:77] Creating layer conv2/3x3_reduce
I0501 17:07:39.330336 13961 net.cpp:84] Creating Layer conv2/3x3_reduce
I0501 17:07:39.330343 13961 net.cpp:406] conv2/3x3_reduce <- pool1/norm1
I0501 17:07:39.330353 13961 net.cpp:380] conv2/3x3_reduce -> conv2/3x3_reduce
I0501 17:07:39.333510 13961 net.cpp:122] Setting up conv2/3x3_reduce
I0501 17:07:39.333534 13961 net.cpp:129] Top shape: 32 64 56 56 (6422528)
I0501 17:07:39.333541 13961 net.cpp:137] Memory required for data: 301859328
I0501 17:07:39.333561 13961 layer_factory.hpp:77] Creating layer conv2/relu_3x3_reduce
I0501 17:07:39.333573 13961 net.cpp:84] Creating Layer conv2/relu_3x3_reduce
I0501 17:07:39.333582 13961 net.cpp:406] conv2/relu_3x3_reduce <- conv2/3x3_reduce
I0501 17:07:39.333592 13961 net.cpp:367] conv2/relu_3x3_reduce -> conv2/3x3_reduce (in-place)
I0501 17:07:39.334111 13961 net.cpp:122] Setting up conv2/relu_3x3_reduce
I0501 17:07:39.334125 13961 net.cpp:129] Top shape: 32 64 56 56 (6422528)
I0501 17:07:39.334131 13961 net.cpp:137] Memory required for data: 327549440
I0501 17:07:39.334137 13961 layer_factory.hpp:77] Creating layer conv2/3x3
I0501 17:07:39.334158 13961 net.cpp:84] Creating Layer conv2/3x3
I0501 17:07:39.334164 13961 net.cpp:406] conv2/3x3 <- conv2/3x3_reduce
I0501 17:07:39.334201 13961 net.cpp:380] conv2/3x3 -> conv2/3x3
I0501 17:07:39.344242 13961 net.cpp:122] Setting up conv2/3x3
I0501 17:07:39.344269 13961 net.cpp:129] Top shape: 32 192 56 56 (19267584)
I0501 17:07:39.344274 13961 net.cpp:137] Memory required for data: 404619776
I0501 17:07:39.344291 13961 layer_factory.hpp:77] Creating layer conv2/relu_3x3
I0501 17:07:39.344303 13961 net.cpp:84] Creating Layer conv2/relu_3x3
I0501 17:07:39.344310 13961 net.cpp:406] conv2/relu_3x3 <- conv2/3x3
I0501 17:07:39.344321 13961 net.cpp:367] conv2/relu_3x3 -> conv2/3x3 (in-place)
I0501 17:07:39.344856 13961 net.cpp:122] Setting up conv2/relu_3x3
I0501 17:07:39.344866 13961 net.cpp:129] Top shape: 32 192 56 56 (19267584)
I0501 17:07:39.344871 13961 net.cpp:137] Memory required for data: 481690112
I0501 17:07:39.344877 13961 layer_factory.hpp:77] Creating layer conv2/norm2
I0501 17:07:39.344889 13961 net.cpp:84] Creating Layer conv2/norm2
I0501 17:07:39.344894 13961 net.cpp:406] conv2/norm2 <- conv2/3x3
I0501 17:07:39.344902 13961 net.cpp:380] conv2/norm2 -> conv2/norm2
I0501 17:07:39.345788 13961 net.cpp:122] Setting up conv2/norm2
I0501 17:07:39.345803 13961 net.cpp:129] Top shape: 32 192 56 56 (19267584)
I0501 17:07:39.345808 13961 net.cpp:137] Memory required for data: 558760448
I0501 17:07:39.345814 13961 layer_factory.hpp:77] Creating layer pool2/3x3_s2
I0501 17:07:39.345824 13961 net.cpp:84] Creating Layer pool2/3x3_s2
I0501 17:07:39.345829 13961 net.cpp:406] pool2/3x3_s2 <- conv2/norm2
I0501 17:07:39.345836 13961 net.cpp:380] pool2/3x3_s2 -> pool2/3x3_s2
I0501 17:07:39.345883 13961 net.cpp:122] Setting up pool2/3x3_s2
I0501 17:07:39.345891 13961 net.cpp:129] Top shape: 32 192 28 28 (4816896)
I0501 17:07:39.345896 13961 net.cpp:137] Memory required for data: 578028032
I0501 17:07:39.345901 13961 layer_factory.hpp:77] Creating layer pool2/3x3_s2_pool2/3x3_s2_0_split
I0501 17:07:39.345911 13961 net.cpp:84] Creating Layer pool2/3x3_s2_pool2/3x3_s2_0_split
I0501 17:07:39.345934 13961 net.cpp:406] pool2/3x3_s2_pool2/3x3_s2_0_split <- pool2/3x3_s2
I0501 17:07:39.346019 13961 net.cpp:380] pool2/3x3_s2_pool2/3x3_s2_0_split -> pool2/3x3_s2_pool2/3x3_s2_0_split_0
I0501 17:07:39.346030 13961 net.cpp:380] pool2/3x3_s2_pool2/3x3_s2_0_split -> pool2/3x3_s2_pool2/3x3_s2_0_split_1
I0501 17:07:39.346040 13961 net.cpp:380] pool2/3x3_s2_pool2/3x3_s2_0_split -> pool2/3x3_s2_pool2/3x3_s2_0_split_2
I0501 17:07:39.346048 13961 net.cpp:380] pool2/3x3_s2_pool2/3x3_s2_0_split -> pool2/3x3_s2_pool2/3x3_s2_0_split_3
I0501 17:07:39.346174 13961 net.cpp:122] Setting up pool2/3x3_s2_pool2/3x3_s2_0_split
I0501 17:07:39.346184 13961 net.cpp:129] Top shape: 32 192 28 28 (4816896)
I0501 17:07:39.346190 13961 net.cpp:129] Top shape: 32 192 28 28 (4816896)
I0501 17:07:39.346196 13961 net.cpp:129] Top shape: 32 192 28 28 (4816896)
I0501 17:07:39.346204 13961 net.cpp:129] Top shape: 32 192 28 28 (4816896)
I0501 17:07:39.346207 13961 net.cpp:137] Memory required for data: 655098368
I0501 17:07:39.346213 13961 layer_factory.hpp:77] Creating layer inception_3a/1x1
I0501 17:07:39.346230 13961 net.cpp:84] Creating Layer inception_3a/1x1
I0501 17:07:39.346235 13961 net.cpp:406] inception_3a/1x1 <- pool2/3x3_s2_pool2/3x3_s2_0_split_0
I0501 17:07:39.346244 13961 net.cpp:380] inception_3a/1x1 -> inception_3a/1x1
I0501 17:07:39.367033 13961 net.cpp:122] Setting up inception_3a/1x1
I0501 17:07:39.367058 13961 net.cpp:129] Top shape: 32 64 28 28 (1605632)
I0501 17:07:39.367063 13961 net.cpp:137] Memory required for data: 661520896
I0501 17:07:39.367076 13961 layer_factory.hpp:77] Creating layer inception_3a/relu_1x1
I0501 17:07:39.367091 13961 net.cpp:84] Creating Layer inception_3a/relu_1x1
I0501 17:07:39.367097 13961 net.cpp:406] inception_3a/relu_1x1 <- inception_3a/1x1
I0501 17:07:39.367106 13961 net.cpp:367] inception_3a/relu_1x1 -> inception_3a/1x1 (in-place)
I0501 17:07:39.367635 13961 net.cpp:122] Setting up inception_3a/relu_1x1
I0501 17:07:39.367646 13961 net.cpp:129] Top shape: 32 64 28 28 (1605632)
I0501 17:07:39.367651 13961 net.cpp:137] Memory required for data: 667943424
I0501 17:07:39.367681 13961 layer_factory.hpp:77] Creating layer inception_3a/3x3_reduce
I0501 17:07:39.367697 13961 net.cpp:84] Creating Layer inception_3a/3x3_reduce
I0501 17:07:39.367703 13961 net.cpp:406] inception_3a/3x3_reduce <- pool2/3x3_s2_pool2/3x3_s2_0_split_1
I0501 17:07:39.367715 13961 net.cpp:380] inception_3a/3x3_reduce -> inception_3a/3x3_reduce
I0501 17:07:39.374874 13961 net.cpp:122] Setting up inception_3a/3x3_reduce
I0501 17:07:39.374903 13961 net.cpp:129] Top shape: 32 96 28 28 (2408448)
I0501 17:07:39.374908 13961 net.cpp:137] Memory required for data: 677577216
I0501 17:07:39.374927 13961 layer_factory.hpp:77] Creating layer inception_3a/relu_3x3_reduce
I0501 17:07:39.374946 13961 net.cpp:84] Creating Layer inception_3a/relu_3x3_reduce
I0501 17:07:39.374953 13961 net.cpp:406] inception_3a/relu_3x3_reduce <- inception_3a/3x3_reduce
I0501 17:07:39.374963 13961 net.cpp:367] inception_3a/relu_3x3_reduce -> inception_3a/3x3_reduce (in-place)
I0501 17:07:39.375686 13961 net.cpp:122] Setting up inception_3a/relu_3x3_reduce
I0501 17:07:39.375701 13961 net.cpp:129] Top shape: 32 96 28 28 (2408448)
I0501 17:07:39.375706 13961 net.cpp:137] Memory required for data: 687211008
I0501 17:07:39.375711 13961 layer_factory.hpp:77] Creating layer inception_3a/3x3
I0501 17:07:39.375727 13961 net.cpp:84] Creating Layer inception_3a/3x3
I0501 17:07:39.375732 13961 net.cpp:406] inception_3a/3x3 <- inception_3a/3x3_reduce
I0501 17:07:39.375742 13961 net.cpp:380] inception_3a/3x3 -> inception_3a/3x3
I0501 17:07:39.429136 13961 net.cpp:122] Setting up inception_3a/3x3
I0501 17:07:39.429163 13961 net.cpp:129] Top shape: 32 128 28 28 (3211264)
I0501 17:07:39.429169 13961 net.cpp:137] Memory required for data: 700056064
I0501 17:07:39.429183 13961 layer_factory.hpp:77] Creating layer inception_3a/relu_3x3
I0501 17:07:39.429198 13961 net.cpp:84] Creating Layer inception_3a/relu_3x3
I0501 17:07:39.429205 13961 net.cpp:406] inception_3a/relu_3x3 <- inception_3a/3x3
I0501 17:07:39.429217 13961 net.cpp:367] inception_3a/relu_3x3 -> inception_3a/3x3 (in-place)
I0501 17:07:39.430140 13961 net.cpp:122] Setting up inception_3a/relu_3x3
I0501 17:07:39.430160 13961 net.cpp:129] Top shape: 32 128 28 28 (3211264)
I0501 17:07:39.430166 13961 net.cpp:137] Memory required for data: 712901120
I0501 17:07:39.430171 13961 layer_factory.hpp:77] Creating layer inception_3a/5x5_reduce
I0501 17:07:39.430191 13961 net.cpp:84] Creating Layer inception_3a/5x5_reduce
I0501 17:07:39.430198 13961 net.cpp:406] inception_3a/5x5_reduce <- pool2/3x3_s2_pool2/3x3_s2_0_split_2
I0501 17:07:39.430210 13961 net.cpp:380] inception_3a/5x5_reduce -> inception_3a/5x5_reduce
I0501 17:07:39.432915 13961 net.cpp:122] Setting up inception_3a/5x5_reduce
I0501 17:07:39.432934 13961 net.cpp:129] Top shape: 32 16 28 28 (401408)
I0501 17:07:39.432940 13961 net.cpp:137] Memory required for data: 714506752
I0501 17:07:39.432952 13961 layer_factory.hpp:77] Creating layer inception_3a/relu_5x5_reduce
I0501 17:07:39.432965 13961 net.cpp:84] Creating Layer inception_3a/relu_5x5_reduce
I0501 17:07:39.432972 13961 net.cpp:406] inception_3a/relu_5x5_reduce <- inception_3a/5x5_reduce
I0501 17:07:39.432981 13961 net.cpp:367] inception_3a/relu_5x5_reduce -> inception_3a/5x5_reduce (in-place)
I0501 17:07:39.435658 13961 net.cpp:122] Setting up inception_3a/relu_5x5_reduce
I0501 17:07:39.435684 13961 net.cpp:129] Top shape: 32 16 28 28 (401408)
I0501 17:07:39.435689 13961 net.cpp:137] Memory required for data: 716112384
I0501 17:07:39.435696 13961 layer_factory.hpp:77] Creating layer inception_3a/5x5
I0501 17:07:39.435716 13961 net.cpp:84] Creating Layer inception_3a/5x5
I0501 17:07:39.435724 13961 net.cpp:406] inception_3a/5x5 <- inception_3a/5x5_reduce
I0501 17:07:39.435737 13961 net.cpp:380] inception_3a/5x5 -> inception_3a/5x5
I0501 17:07:39.500995 13961 net.cpp:122] Setting up inception_3a/5x5
I0501 17:07:39.501021 13961 net.cpp:129] Top shape: 32 32 28 28 (802816)
I0501 17:07:39.501026 13961 net.cpp:137] Memory required for data: 719323648
I0501 17:07:39.501066 13961 layer_factory.hpp:77] Creating layer inception_3a/relu_5x5
I0501 17:07:39.501080 13961 net.cpp:84] Creating Layer inception_3a/relu_5x5
I0501 17:07:39.501087 13961 net.cpp:406] inception_3a/relu_5x5 <- inception_3a/5x5
I0501 17:07:39.501098 13961 net.cpp:367] inception_3a/relu_5x5 -> inception_3a/5x5 (in-place)
I0501 17:07:39.502007 13961 net.cpp:122] Setting up inception_3a/relu_5x5
I0501 17:07:39.502020 13961 net.cpp:129] Top shape: 32 32 28 28 (802816)
I0501 17:07:39.502025 13961 net.cpp:137] Memory required for data: 722534912
I0501 17:07:39.502032 13961 layer_factory.hpp:77] Creating layer inception_3a/pool
I0501 17:07:39.502041 13961 net.cpp:84] Creating Layer inception_3a/pool
I0501 17:07:39.502048 13961 net.cpp:406] inception_3a/pool <- pool2/3x3_s2_pool2/3x3_s2_0_split_3
I0501 17:07:39.502058 13961 net.cpp:380] inception_3a/pool -> inception_3a/pool
I0501 17:07:39.502110 13961 net.cpp:122] Setting up inception_3a/pool
I0501 17:07:39.502117 13961 net.cpp:129] Top shape: 32 192 28 28 (4816896)
I0501 17:07:39.502123 13961 net.cpp:137] Memory required for data: 741802496
I0501 17:07:39.502128 13961 layer_factory.hpp:77] Creating layer inception_3a/pool_proj
I0501 17:07:39.502146 13961 net.cpp:84] Creating Layer inception_3a/pool_proj
I0501 17:07:39.502151 13961 net.cpp:406] inception_3a/pool_proj <- inception_3a/pool
I0501 17:07:39.502161 13961 net.cpp:380] inception_3a/pool_proj -> inception_3a/pool_proj
I0501 17:07:39.506839 13961 net.cpp:122] Setting up inception_3a/pool_proj
I0501 17:07:39.506865 13961 net.cpp:129] Top shape: 32 32 28 28 (802816)
I0501 17:07:39.506871 13961 net.cpp:137] Memory required for data: 745013760
I0501 17:07:39.506891 13961 layer_factory.hpp:77] Creating layer inception_3a/relu_pool_proj
I0501 17:07:39.506906 13961 net.cpp:84] Creating Layer inception_3a/relu_pool_proj
I0501 17:07:39.506913 13961 net.cpp:406] inception_3a/relu_pool_proj <- inception_3a/pool_proj
I0501 17:07:39.506922 13961 net.cpp:367] inception_3a/relu_pool_proj -> inception_3a/pool_proj (in-place)
I0501 17:07:39.507434 13961 net.cpp:122] Setting up inception_3a/relu_pool_proj
I0501 17:07:39.507448 13961 net.cpp:129] Top shape: 32 32 28 28 (802816)
I0501 17:07:39.507455 13961 net.cpp:137] Memory required for data: 748225024
I0501 17:07:39.507462 13961 layer_factory.hpp:77] Creating layer inception_3a/output
I0501 17:07:39.507472 13961 net.cpp:84] Creating Layer inception_3a/output
I0501 17:07:39.507478 13961 net.cpp:406] inception_3a/output <- inception_3a/1x1
I0501 17:07:39.507486 13961 net.cpp:406] inception_3a/output <- inception_3a/3x3
I0501 17:07:39.507493 13961 net.cpp:406] inception_3a/output <- inception_3a/5x5
I0501 17:07:39.507499 13961 net.cpp:406] inception_3a/output <- inception_3a/pool_proj
I0501 17:07:39.507509 13961 net.cpp:380] inception_3a/output -> inception_3a/output
I0501 17:07:39.507545 13961 net.cpp:122] Setting up inception_3a/output
I0501 17:07:39.507553 13961 net.cpp:129] Top shape: 32 256 28 28 (6422528)
I0501 17:07:39.507560 13961 net.cpp:137] Memory required for data: 773915136
I0501 17:07:39.507565 13961 layer_factory.hpp:77] Creating layer inception_3a/output_inception_3a/output_0_split
I0501 17:07:39.507577 13961 net.cpp:84] Creating Layer inception_3a/output_inception_3a/output_0_split
I0501 17:07:39.507583 13961 net.cpp:406] inception_3a/output_inception_3a/output_0_split <- inception_3a/output
I0501 17:07:39.507594 13961 net.cpp:380] inception_3a/output_inception_3a/output_0_split -> inception_3a/output_inception_3a/output_0_split_0
I0501 17:07:39.507604 13961 net.cpp:380] inception_3a/output_inception_3a/output_0_split -> inception_3a/output_inception_3a/output_0_split_1
I0501 17:07:39.507613 13961 net.cpp:380] inception_3a/output_inception_3a/output_0_split -> inception_3a/output_inception_3a/output_0_split_2
I0501 17:07:39.507622 13961 net.cpp:380] inception_3a/output_inception_3a/output_0_split -> inception_3a/output_inception_3a/output_0_split_3
I0501 17:07:39.507686 13961 net.cpp:122] Setting up inception_3a/output_inception_3a/output_0_split
I0501 17:07:39.507720 13961 net.cpp:129] Top shape: 32 256 28 28 (6422528)
I0501 17:07:39.507728 13961 net.cpp:129] Top shape: 32 256 28 28 (6422528)
I0501 17:07:39.507735 13961 net.cpp:129] Top shape: 32 256 28 28 (6422528)
I0501 17:07:39.507741 13961 net.cpp:129] Top shape: 32 256 28 28 (6422528)
I0501 17:07:39.507748 13961 net.cpp:137] Memory required for data: 876675584
I0501 17:07:39.507753 13961 layer_factory.hpp:77] Creating layer inception_3b/1x1
I0501 17:07:39.507772 13961 net.cpp:84] Creating Layer inception_3b/1x1
I0501 17:07:39.507778 13961 net.cpp:406] inception_3b/1x1 <- inception_3a/output_inception_3a/output_0_split_0
I0501 17:07:39.507789 13961 net.cpp:380] inception_3b/1x1 -> inception_3b/1x1
I0501 17:07:39.531548 13961 net.cpp:122] Setting up inception_3b/1x1
I0501 17:07:39.531577 13961 net.cpp:129] Top shape: 32 128 28 28 (3211264)
I0501 17:07:39.531584 13961 net.cpp:137] Memory required for data: 889520640
I0501 17:07:39.531597 13961 layer_factory.hpp:77] Creating layer inception_3b/relu_1x1
I0501 17:07:39.531612 13961 net.cpp:84] Creating Layer inception_3b/relu_1x1
I0501 17:07:39.531620 13961 net.cpp:406] inception_3b/relu_1x1 <- inception_3b/1x1
I0501 17:07:39.531630 13961 net.cpp:367] inception_3b/relu_1x1 -> inception_3b/1x1 (in-place)
I0501 17:07:39.532464 13961 net.cpp:122] Setting up inception_3b/relu_1x1
I0501 17:07:39.532477 13961 net.cpp:129] Top shape: 32 128 28 28 (3211264)
I0501 17:07:39.532485 13961 net.cpp:137] Memory required for data: 902365696
I0501 17:07:39.532490 13961 layer_factory.hpp:77] Creating layer inception_3b/3x3_reduce
I0501 17:07:39.532510 13961 net.cpp:84] Creating Layer inception_3b/3x3_reduce
I0501 17:07:39.532516 13961 net.cpp:406] inception_3b/3x3_reduce <- inception_3a/output_inception_3a/output_0_split_1
I0501 17:07:39.532526 13961 net.cpp:380] inception_3b/3x3_reduce -> inception_3b/3x3_reduce
I0501 17:07:39.550141 13961 net.cpp:122] Setting up inception_3b/3x3_reduce
I0501 17:07:39.550169 13961 net.cpp:129] Top shape: 32 128 28 28 (3211264)
I0501 17:07:39.550174 13961 net.cpp:137] Memory required for data: 915210752
I0501 17:07:39.550189 13961 layer_factory.hpp:77] Creating layer inception_3b/relu_3x3_reduce
I0501 17:07:39.550202 13961 net.cpp:84] Creating Layer inception_3b/relu_3x3_reduce
I0501 17:07:39.550212 13961 net.cpp:406] inception_3b/relu_3x3_reduce <- inception_3b/3x3_reduce
I0501 17:07:39.550222 13961 net.cpp:367] inception_3b/relu_3x3_reduce -> inception_3b/3x3_reduce (in-place)
I0501 17:07:39.551132 13961 net.cpp:122] Setting up inception_3b/relu_3x3_reduce
I0501 17:07:39.551147 13961 net.cpp:129] Top shape: 32 128 28 28 (3211264)
I0501 17:07:39.551154 13961 net.cpp:137] Memory required for data: 928055808
I0501 17:07:39.551160 13961 layer_factory.hpp:77] Creating layer inception_3b/3x3
I0501 17:07:39.551192 13961 net.cpp:84] Creating Layer inception_3b/3x3
I0501 17:07:39.551198 13961 net.cpp:406] inception_3b/3x3 <- inception_3b/3x3_reduce
I0501 17:07:39.551209 13961 net.cpp:380] inception_3b/3x3 -> inception_3b/3x3
I0501 17:07:39.556466 13961 net.cpp:122] Setting up inception_3b/3x3
I0501 17:07:39.556488 13961 net.cpp:129] Top shape: 32 192 28 28 (4816896)
I0501 17:07:39.556495 13961 net.cpp:137] Memory required for data: 947323392
I0501 17:07:39.556509 13961 layer_factory.hpp:77] Creating layer inception_3b/relu_3x3
I0501 17:07:39.556522 13961 net.cpp:84] Creating Layer inception_3b/relu_3x3
I0501 17:07:39.556532 13961 net.cpp:406] inception_3b/relu_3x3 <- inception_3b/3x3
I0501 17:07:39.556545 13961 net.cpp:367] inception_3b/relu_3x3 -> inception_3b/3x3 (in-place)
I0501 17:07:39.558686 13961 net.cpp:122] Setting up inception_3b/relu_3x3
I0501 17:07:39.558699 13961 net.cpp:129] Top shape: 32 192 28 28 (4816896)
I0501 17:07:39.558704 13961 net.cpp:137] Memory required for data: 966590976
I0501 17:07:39.558709 13961 layer_factory.hpp:77] Creating layer inception_3b/5x5_reduce
I0501 17:07:39.558727 13961 net.cpp:84] Creating Layer inception_3b/5x5_reduce
I0501 17:07:39.558733 13961 net.cpp:406] inception_3b/5x5_reduce <- inception_3a/output_inception_3a/output_0_split_2
I0501 17:07:39.558771 13961 net.cpp:380] inception_3b/5x5_reduce -> inception_3b/5x5_reduce
I0501 17:07:39.560892 13961 net.cpp:122] Setting up inception_3b/5x5_reduce
I0501 17:07:39.560909 13961 net.cpp:129] Top shape: 32 32 28 28 (802816)
I0501 17:07:39.560914 13961 net.cpp:137] Memory required for data: 969802240
I0501 17:07:39.560925 13961 layer_factory.hpp:77] Creating layer inception_3b/relu_5x5_reduce
I0501 17:07:39.560935 13961 net.cpp:84] Creating Layer inception_3b/relu_5x5_reduce
I0501 17:07:39.560942 13961 net.cpp:406] inception_3b/relu_5x5_reduce <- inception_3b/5x5_reduce
I0501 17:07:39.560956 13961 net.cpp:367] inception_3b/relu_5x5_reduce -> inception_3b/5x5_reduce (in-place)
I0501 17:07:39.562171 13961 net.cpp:122] Setting up inception_3b/relu_5x5_reduce
I0501 17:07:39.562188 13961 net.cpp:129] Top shape: 32 32 28 28 (802816)
I0501 17:07:39.562193 13961 net.cpp:137] Memory required for data: 973013504
I0501 17:07:39.562201 13961 layer_factory.hpp:77] Creating layer inception_3b/5x5
I0501 17:07:39.562214 13961 net.cpp:84] Creating Layer inception_3b/5x5
I0501 17:07:39.562220 13961 net.cpp:406] inception_3b/5x5 <- inception_3b/5x5_reduce
I0501 17:07:39.562229 13961 net.cpp:380] inception_3b/5x5 -> inception_3b/5x5
I0501 17:07:39.575299 13961 net.cpp:122] Setting up inception_3b/5x5
I0501 17:07:39.575331 13961 net.cpp:129] Top shape: 32 96 28 28 (2408448)
I0501 17:07:39.575340 13961 net.cpp:137] Memory required for data: 982647296
I0501 17:07:39.575353 13961 layer_factory.hpp:77] Creating layer inception_3b/relu_5x5
I0501 17:07:39.575371 13961 net.cpp:84] Creating Layer inception_3b/relu_5x5
I0501 17:07:39.575379 13961 net.cpp:406] inception_3b/relu_5x5 <- inception_3b/5x5
I0501 17:07:39.575393 13961 net.cpp:367] inception_3b/relu_5x5 -> inception_3b/5x5 (in-place)
I0501 17:07:39.575860 13961 net.cpp:122] Setting up inception_3b/relu_5x5
I0501 17:07:39.575875 13961 net.cpp:129] Top shape: 32 96 28 28 (2408448)
I0501 17:07:39.575881 13961 net.cpp:137] Memory required for data: 992281088
I0501 17:07:39.575889 13961 layer_factory.hpp:77] Creating layer inception_3b/pool
I0501 17:07:39.575901 13961 net.cpp:84] Creating Layer inception_3b/pool
I0501 17:07:39.575911 13961 net.cpp:406] inception_3b/pool <- inception_3a/output_inception_3a/output_0_split_3
I0501 17:07:39.575925 13961 net.cpp:380] inception_3b/pool -> inception_3b/pool
I0501 17:07:39.575974 13961 net.cpp:122] Setting up inception_3b/pool
I0501 17:07:39.575985 13961 net.cpp:129] Top shape: 32 256 28 28 (6422528)
I0501 17:07:39.575994 13961 net.cpp:137] Memory required for data: 1017971200
I0501 17:07:39.576001 13961 layer_factory.hpp:77] Creating layer inception_3b/pool_proj
I0501 17:07:39.576021 13961 net.cpp:84] Creating Layer inception_3b/pool_proj
I0501 17:07:39.576030 13961 net.cpp:406] inception_3b/pool_proj <- inception_3b/pool
I0501 17:07:39.576040 13961 net.cpp:380] inception_3b/pool_proj -> inception_3b/pool_proj
I0501 17:07:39.592746 13961 net.cpp:122] Setting up inception_3b/pool_proj
I0501 17:07:39.592775 13961 net.cpp:129] Top shape: 32 64 28 28 (1605632)
I0501 17:07:39.592783 13961 net.cpp:137] Memory required for data: 1024393728
I0501 17:07:39.592801 13961 layer_factory.hpp:77] Creating layer inception_3b/relu_pool_proj
I0501 17:07:39.592818 13961 net.cpp:84] Creating Layer inception_3b/relu_pool_proj
I0501 17:07:39.592828 13961 net.cpp:406] inception_3b/relu_pool_proj <- inception_3b/pool_proj
I0501 17:07:39.592846 13961 net.cpp:367] inception_3b/relu_pool_proj -> inception_3b/pool_proj (in-place)
I0501 17:07:39.593328 13961 net.cpp:122] Setting up inception_3b/relu_pool_proj
I0501 17:07:39.593340 13961 net.cpp:129] Top shape: 32 64 28 28 (1605632)
I0501 17:07:39.593351 13961 net.cpp:137] Memory required for data: 1030816256
I0501 17:07:39.593361 13961 layer_factory.hpp:77] Creating layer inception_3b/output
I0501 17:07:39.593376 13961 net.cpp:84] Creating Layer inception_3b/output
I0501 17:07:39.593386 13961 net.cpp:406] inception_3b/output <- inception_3b/1x1
I0501 17:07:39.593397 13961 net.cpp:406] inception_3b/output <- inception_3b/3x3
I0501 17:07:39.593431 13961 net.cpp:406] inception_3b/output <- inception_3b/5x5
I0501 17:07:39.593439 13961 net.cpp:406] inception_3b/output <- inception_3b/pool_proj
I0501 17:07:39.593451 13961 net.cpp:380] inception_3b/output -> inception_3b/output
I0501 17:07:39.593490 13961 net.cpp:122] Setting up inception_3b/output
I0501 17:07:39.593502 13961 net.cpp:129] Top shape: 32 480 28 28 (12042240)
I0501 17:07:39.593509 13961 net.cpp:137] Memory required for data: 1078985216
I0501 17:07:39.593516 13961 layer_factory.hpp:77] Creating layer pool3/3x3_s2
I0501 17:07:39.593529 13961 net.cpp:84] Creating Layer pool3/3x3_s2
I0501 17:07:39.593538 13961 net.cpp:406] pool3/3x3_s2 <- inception_3b/output
I0501 17:07:39.593552 13961 net.cpp:380] pool3/3x3_s2 -> pool3/3x3_s2
I0501 17:07:39.593597 13961 net.cpp:122] Setting up pool3/3x3_s2
I0501 17:07:39.593607 13961 net.cpp:129] Top shape: 32 480 14 14 (3010560)
I0501 17:07:39.593616 13961 net.cpp:137] Memory required for data: 1091027456
I0501 17:07:39.593621 13961 layer_factory.hpp:77] Creating layer pool3/3x3_s2_pool3/3x3_s2_0_split
I0501 17:07:39.593632 13961 net.cpp:84] Creating Layer pool3/3x3_s2_pool3/3x3_s2_0_split
I0501 17:07:39.593639 13961 net.cpp:406] pool3/3x3_s2_pool3/3x3_s2_0_split <- pool3/3x3_s2
I0501 17:07:39.593650 13961 net.cpp:380] pool3/3x3_s2_pool3/3x3_s2_0_split -> pool3/3x3_s2_pool3/3x3_s2_0_split_0
I0501 17:07:39.593659 13961 net.cpp:380] pool3/3x3_s2_pool3/3x3_s2_0_split -> pool3/3x3_s2_pool3/3x3_s2_0_split_1
I0501 17:07:39.593670 13961 net.cpp:380] pool3/3x3_s2_pool3/3x3_s2_0_split -> pool3/3x3_s2_pool3/3x3_s2_0_split_2
I0501 17:07:39.593681 13961 net.cpp:380] pool3/3x3_s2_pool3/3x3_s2_0_split -> pool3/3x3_s2_pool3/3x3_s2_0_split_3
I0501 17:07:39.593744 13961 net.cpp:122] Setting up pool3/3x3_s2_pool3/3x3_s2_0_split
I0501 17:07:39.593757 13961 net.cpp:129] Top shape: 32 480 14 14 (3010560)
I0501 17:07:39.593765 13961 net.cpp:129] Top shape: 32 480 14 14 (3010560)
I0501 17:07:39.593773 13961 net.cpp:129] Top shape: 32 480 14 14 (3010560)
I0501 17:07:39.593784 13961 net.cpp:129] Top shape: 32 480 14 14 (3010560)
I0501 17:07:39.593791 13961 net.cpp:137] Memory required for data: 1139196416
I0501 17:07:39.593801 13961 layer_factory.hpp:77] Creating layer inception_4a/1x1
I0501 17:07:39.593816 13961 net.cpp:84] Creating Layer inception_4a/1x1
I0501 17:07:39.593827 13961 net.cpp:406] inception_4a/1x1 <- pool3/3x3_s2_pool3/3x3_s2_0_split_0
I0501 17:07:39.593840 13961 net.cpp:380] inception_4a/1x1 -> inception_4a/1x1
I0501 17:07:39.597312 13961 net.cpp:122] Setting up inception_4a/1x1
I0501 17:07:39.597328 13961 net.cpp:129] Top shape: 32 192 14 14 (1204224)
I0501 17:07:39.597334 13961 net.cpp:137] Memory required for data: 1144013312
I0501 17:07:39.597344 13961 layer_factory.hpp:77] Creating layer inception_4a/relu_1x1
I0501 17:07:39.597354 13961 net.cpp:84] Creating Layer inception_4a/relu_1x1
I0501 17:07:39.597362 13961 net.cpp:406] inception_4a/relu_1x1 <- inception_4a/1x1
I0501 17:07:39.597373 13961 net.cpp:367] inception_4a/relu_1x1 -> inception_4a/1x1 (in-place)
I0501 17:07:39.598166 13961 net.cpp:122] Setting up inception_4a/relu_1x1
I0501 17:07:39.598183 13961 net.cpp:129] Top shape: 32 192 14 14 (1204224)
I0501 17:07:39.598189 13961 net.cpp:137] Memory required for data: 1148830208
I0501 17:07:39.598196 13961 layer_factory.hpp:77] Creating layer inception_4a/3x3_reduce
I0501 17:07:39.598210 13961 net.cpp:84] Creating Layer inception_4a/3x3_reduce
I0501 17:07:39.598217 13961 net.cpp:406] inception_4a/3x3_reduce <- pool3/3x3_s2_pool3/3x3_s2_0_split_1
I0501 17:07:39.598227 13961 net.cpp:380] inception_4a/3x3_reduce -> inception_4a/3x3_reduce
I0501 17:07:39.601773 13961 net.cpp:122] Setting up inception_4a/3x3_reduce
I0501 17:07:39.601791 13961 net.cpp:129] Top shape: 32 96 14 14 (602112)
I0501 17:07:39.601797 13961 net.cpp:137] Memory required for data: 1151238656
I0501 17:07:39.601822 13961 layer_factory.hpp:77] Creating layer inception_4a/relu_3x3_reduce
I0501 17:07:39.601835 13961 net.cpp:84] Creating Layer inception_4a/relu_3x3_reduce
I0501 17:07:39.601866 13961 net.cpp:406] inception_4a/relu_3x3_reduce <- inception_4a/3x3_reduce
I0501 17:07:39.601881 13961 net.cpp:367] inception_4a/relu_3x3_reduce -> inception_4a/3x3_reduce (in-place)
I0501 17:07:39.627092 13961 net.cpp:122] Setting up inception_4a/relu_3x3_reduce
I0501 17:07:39.627123 13961 net.cpp:129] Top shape: 32 96 14 14 (602112)
I0501 17:07:39.627133 13961 net.cpp:137] Memory required for data: 1153647104
I0501 17:07:39.627142 13961 layer_factory.hpp:77] Creating layer inception_4a/3x3
I0501 17:07:39.627166 13961 net.cpp:84] Creating Layer inception_4a/3x3
I0501 17:07:39.627177 13961 net.cpp:406] inception_4a/3x3 <- inception_4a/3x3_reduce
I0501 17:07:39.627192 13961 net.cpp:380] inception_4a/3x3 -> inception_4a/3x3
I0501 17:07:39.631691 13961 net.cpp:122] Setting up inception_4a/3x3
I0501 17:07:39.631717 13961 net.cpp:129] Top shape: 32 208 14 14 (1304576)
I0501 17:07:39.631726 13961 net.cpp:137] Memory required for data: 1158865408
I0501 17:07:39.631747 13961 layer_factory.hpp:77] Creating layer inception_4a/relu_3x3
I0501 17:07:39.631757 13961 net.cpp:84] Creating Layer inception_4a/relu_3x3
I0501 17:07:39.631767 13961 net.cpp:406] inception_4a/relu_3x3 <- inception_4a/3x3
I0501 17:07:39.631780 13961 net.cpp:367] inception_4a/relu_3x3 -> inception_4a/3x3 (in-place)
I0501 17:07:39.632445 13961 net.cpp:122] Setting up inception_4a/relu_3x3
I0501 17:07:39.632459 13961 net.cpp:129] Top shape: 32 208 14 14 (1304576)
I0501 17:07:39.632469 13961 net.cpp:137] Memory required for data: 1164083712
I0501 17:07:39.632477 13961 layer_factory.hpp:77] Creating layer inception_4a/5x5_reduce
I0501 17:07:39.632493 13961 net.cpp:84] Creating Layer inception_4a/5x5_reduce
I0501 17:07:39.632501 13961 net.cpp:406] inception_4a/5x5_reduce <- pool3/3x3_s2_pool3/3x3_s2_0_split_2
I0501 17:07:39.632515 13961 net.cpp:380] inception_4a/5x5_reduce -> inception_4a/5x5_reduce
I0501 17:07:39.634723 13961 net.cpp:122] Setting up inception_4a/5x5_reduce
I0501 17:07:39.634749 13961 net.cpp:129] Top shape: 32 16 14 14 (100352)
I0501 17:07:39.634758 13961 net.cpp:137] Memory required for data: 1164485120
I0501 17:07:39.634774 13961 layer_factory.hpp:77] Creating layer inception_4a/relu_5x5_reduce
I0501 17:07:39.634786 13961 net.cpp:84] Creating Layer inception_4a/relu_5x5_reduce
I0501 17:07:39.634794 13961 net.cpp:406] inception_4a/relu_5x5_reduce <- inception_4a/5x5_reduce
I0501 17:07:39.634806 13961 net.cpp:367] inception_4a/relu_5x5_reduce -> inception_4a/5x5_reduce (in-place)
I0501 17:07:39.635525 13961 net.cpp:122] Setting up inception_4a/relu_5x5_reduce
I0501 17:07:39.635538 13961 net.cpp:129] Top shape: 32 16 14 14 (100352)
I0501 17:07:39.635545 13961 net.cpp:137] Memory required for data: 1164886528
I0501 17:07:39.635552 13961 layer_factory.hpp:77] Creating layer inception_4a/5x5
I0501 17:07:39.635567 13961 net.cpp:84] Creating Layer inception_4a/5x5
I0501 17:07:39.635574 13961 net.cpp:406] inception_4a/5x5 <- inception_4a/5x5_reduce
I0501 17:07:39.635587 13961 net.cpp:380] inception_4a/5x5 -> inception_4a/5x5
I0501 17:07:39.679818 13961 net.cpp:122] Setting up inception_4a/5x5
I0501 17:07:39.679844 13961 net.cpp:129] Top shape: 32 48 14 14 (301056)
I0501 17:07:39.679849 13961 net.cpp:137] Memory required for data: 1166090752
I0501 17:07:39.679863 13961 layer_factory.hpp:77] Creating layer inception_4a/relu_5x5
I0501 17:07:39.679878 13961 net.cpp:84] Creating Layer inception_4a/relu_5x5
I0501 17:07:39.679886 13961 net.cpp:406] inception_4a/relu_5x5 <- inception_4a/5x5
I0501 17:07:39.679896 13961 net.cpp:367] inception_4a/relu_5x5 -> inception_4a/5x5 (in-place)
I0501 17:07:39.680428 13961 net.cpp:122] Setting up inception_4a/relu_5x5
I0501 17:07:39.680440 13961 net.cpp:129] Top shape: 32 48 14 14 (301056)
I0501 17:07:39.680445 13961 net.cpp:137] Memory required for data: 1167294976
I0501 17:07:39.680450 13961 layer_factory.hpp:77] Creating layer inception_4a/pool
I0501 17:07:39.680459 13961 net.cpp:84] Creating Layer inception_4a/pool
I0501 17:07:39.680465 13961 net.cpp:406] inception_4a/pool <- pool3/3x3_s2_pool3/3x3_s2_0_split_3
I0501 17:07:39.680500 13961 net.cpp:380] inception_4a/pool -> inception_4a/pool
I0501 17:07:39.680555 13961 net.cpp:122] Setting up inception_4a/pool
I0501 17:07:39.680564 13961 net.cpp:129] Top shape: 32 480 14 14 (3010560)
I0501 17:07:39.680569 13961 net.cpp:137] Memory required for data: 1179337216
I0501 17:07:39.680574 13961 layer_factory.hpp:77] Creating layer inception_4a/pool_proj
I0501 17:07:39.680590 13961 net.cpp:84] Creating Layer inception_4a/pool_proj
I0501 17:07:39.680595 13961 net.cpp:406] inception_4a/pool_proj <- inception_4a/pool
I0501 17:07:39.680605 13961 net.cpp:380] inception_4a/pool_proj -> inception_4a/pool_proj
I0501 17:07:39.683336 13961 net.cpp:122] Setting up inception_4a/pool_proj
I0501 17:07:39.683349 13961 net.cpp:129] Top shape: 32 64 14 14 (401408)
I0501 17:07:39.683354 13961 net.cpp:137] Memory required for data: 1180942848
I0501 17:07:39.683364 13961 layer_factory.hpp:77] Creating layer inception_4a/relu_pool_proj
I0501 17:07:39.683374 13961 net.cpp:84] Creating Layer inception_4a/relu_pool_proj
I0501 17:07:39.683382 13961 net.cpp:406] inception_4a/relu_pool_proj <- inception_4a/pool_proj
I0501 17:07:39.683389 13961 net.cpp:367] inception_4a/relu_pool_proj -> inception_4a/pool_proj (in-place)
I0501 17:07:39.684103 13961 net.cpp:122] Setting up inception_4a/relu_pool_proj
I0501 17:07:39.684116 13961 net.cpp:129] Top shape: 32 64 14 14 (401408)
I0501 17:07:39.684123 13961 net.cpp:137] Memory required for data: 1182548480
I0501 17:07:39.684128 13961 layer_factory.hpp:77] Creating layer inception_4a/output
I0501 17:07:39.684137 13961 net.cpp:84] Creating Layer inception_4a/output
I0501 17:07:39.684144 13961 net.cpp:406] inception_4a/output <- inception_4a/1x1
I0501 17:07:39.684150 13961 net.cpp:406] inception_4a/output <- inception_4a/3x3
I0501 17:07:39.684156 13961 net.cpp:406] inception_4a/output <- inception_4a/5x5
I0501 17:07:39.684161 13961 net.cpp:406] inception_4a/output <- inception_4a/pool_proj
I0501 17:07:39.684168 13961 net.cpp:380] inception_4a/output -> inception_4a/output
I0501 17:07:39.684204 13961 net.cpp:122] Setting up inception_4a/output
I0501 17:07:39.684212 13961 net.cpp:129] Top shape: 32 512 14 14 (3211264)
I0501 17:07:39.684217 13961 net.cpp:137] Memory required for data: 1195393536
I0501 17:07:39.684222 13961 layer_factory.hpp:77] Creating layer inception_4a/output_inception_4a/output_0_split
I0501 17:07:39.684231 13961 net.cpp:84] Creating Layer inception_4a/output_inception_4a/output_0_split
I0501 17:07:39.684237 13961 net.cpp:406] inception_4a/output_inception_4a/output_0_split <- inception_4a/output
I0501 17:07:39.684247 13961 net.cpp:380] inception_4a/output_inception_4a/output_0_split -> inception_4a/output_inception_4a/output_0_split_0
I0501 17:07:39.684255 13961 net.cpp:380] inception_4a/output_inception_4a/output_0_split -> inception_4a/output_inception_4a/output_0_split_1
I0501 17:07:39.684264 13961 net.cpp:380] inception_4a/output_inception_4a/output_0_split -> inception_4a/output_inception_4a/output_0_split_2
I0501 17:07:39.684275 13961 net.cpp:380] inception_4a/output_inception_4a/output_0_split -> inception_4a/output_inception_4a/output_0_split_3
I0501 17:07:39.684284 13961 net.cpp:380] inception_4a/output_inception_4a/output_0_split -> inception_4a/output_inception_4a/output_0_split_4
I0501 17:07:39.684363 13961 net.cpp:122] Setting up inception_4a/output_inception_4a/output_0_split
I0501 17:07:39.684371 13961 net.cpp:129] Top shape: 32 512 14 14 (3211264)
I0501 17:07:39.684378 13961 net.cpp:129] Top shape: 32 512 14 14 (3211264)
I0501 17:07:39.684384 13961 net.cpp:129] Top shape: 32 512 14 14 (3211264)
I0501 17:07:39.684391 13961 net.cpp:129] Top shape: 32 512 14 14 (3211264)
I0501 17:07:39.684397 13961 net.cpp:129] Top shape: 32 512 14 14 (3211264)
I0501 17:07:39.684402 13961 net.cpp:137] Memory required for data: 1259618816
I0501 17:07:39.684407 13961 layer_factory.hpp:77] Creating layer loss1/ave_pool
I0501 17:07:39.684417 13961 net.cpp:84] Creating Layer loss1/ave_pool
I0501 17:07:39.684422 13961 net.cpp:406] loss1/ave_pool <- inception_4a/output_inception_4a/output_0_split_0
I0501 17:07:39.684443 13961 net.cpp:380] loss1/ave_pool -> loss1/ave_pool
I0501 17:07:39.684981 13961 net.cpp:122] Setting up loss1/ave_pool
I0501 17:07:39.684993 13961 net.cpp:129] Top shape: 32 512 4 4 (262144)
I0501 17:07:39.684998 13961 net.cpp:137] Memory required for data: 1260667392
I0501 17:07:39.685003 13961 layer_factory.hpp:77] Creating layer loss1/conv
I0501 17:07:39.685016 13961 net.cpp:84] Creating Layer loss1/conv
I0501 17:07:39.685021 13961 net.cpp:406] loss1/conv <- loss1/ave_pool
I0501 17:07:39.685031 13961 net.cpp:380] loss1/conv -> loss1/conv
I0501 17:07:39.704071 13961 net.cpp:122] Setting up loss1/conv
I0501 17:07:39.704099 13961 net.cpp:129] Top shape: 32 128 4 4 (65536)
I0501 17:07:39.704107 13961 net.cpp:137] Memory required for data: 1260929536
I0501 17:07:39.704121 13961 layer_factory.hpp:77] Creating layer loss1/relu_conv
I0501 17:07:39.704138 13961 net.cpp:84] Creating Layer loss1/relu_conv
I0501 17:07:39.704145 13961 net.cpp:406] loss1/relu_conv <- loss1/conv
I0501 17:07:39.704157 13961 net.cpp:367] loss1/relu_conv -> loss1/conv (in-place)
I0501 17:07:39.704922 13961 net.cpp:122] Setting up loss1/relu_conv
I0501 17:07:39.704938 13961 net.cpp:129] Top shape: 32 128 4 4 (65536)
I0501 17:07:39.704944 13961 net.cpp:137] Memory required for data: 1261191680
I0501 17:07:39.704952 13961 layer_factory.hpp:77] Creating layer loss1/fc
I0501 17:07:39.704963 13961 net.cpp:84] Creating Layer loss1/fc
I0501 17:07:39.704969 13961 net.cpp:406] loss1/fc <- loss1/conv
I0501 17:07:39.704979 13961 net.cpp:380] loss1/fc -> loss1/fc
I0501 17:07:39.775799 13961 net.cpp:122] Setting up loss1/fc
I0501 17:07:39.775826 13961 net.cpp:129] Top shape: 32 1024 (32768)
I0501 17:07:39.775831 13961 net.cpp:137] Memory required for data: 1261322752
I0501 17:07:39.775846 13961 layer_factory.hpp:77] Creating layer loss1/relu_fc
I0501 17:07:39.775859 13961 net.cpp:84] Creating Layer loss1/relu_fc
I0501 17:07:39.775866 13961 net.cpp:406] loss1/relu_fc <- loss1/fc
I0501 17:07:39.775878 13961 net.cpp:367] loss1/relu_fc -> loss1/fc (in-place)
I0501 17:07:39.776471 13961 net.cpp:122] Setting up loss1/relu_fc
I0501 17:07:39.776482 13961 net.cpp:129] Top shape: 32 1024 (32768)
I0501 17:07:39.776486 13961 net.cpp:137] Memory required for data: 1261453824
I0501 17:07:39.776492 13961 layer_factory.hpp:77] Creating layer loss1/drop_fc
I0501 17:07:39.776523 13961 net.cpp:84] Creating Layer loss1/drop_fc
I0501 17:07:39.776528 13961 net.cpp:406] loss1/drop_fc <- loss1/fc
I0501 17:07:39.776536 13961 net.cpp:367] loss1/drop_fc -> loss1/fc (in-place)
I0501 17:07:39.776571 13961 net.cpp:122] Setting up loss1/drop_fc
I0501 17:07:39.776577 13961 net.cpp:129] Top shape: 32 1024 (32768)
I0501 17:07:39.776582 13961 net.cpp:137] Memory required for data: 1261584896
I0501 17:07:39.776587 13961 layer_factory.hpp:77] Creating layer loss1/classifier
I0501 17:07:39.776598 13961 net.cpp:84] Creating Layer loss1/classifier
I0501 17:07:39.776603 13961 net.cpp:406] loss1/classifier <- loss1/fc
I0501 17:07:39.776612 13961 net.cpp:380] loss1/classifier -> loss1/classifier
I0501 17:07:39.779625 13961 net.cpp:122] Setting up loss1/classifier
I0501 17:07:39.779644 13961 net.cpp:129] Top shape: 32 196 (6272)
I0501 17:07:39.779649 13961 net.cpp:137] Memory required for data: 1261609984
I0501 17:07:39.779659 13961 layer_factory.hpp:77] Creating layer loss1/loss
I0501 17:07:39.779670 13961 net.cpp:84] Creating Layer loss1/loss
I0501 17:07:39.779676 13961 net.cpp:406] loss1/loss <- loss1/classifier
I0501 17:07:39.779685 13961 net.cpp:406] loss1/loss <- label_train-data_1_split_0
I0501 17:07:39.779693 13961 net.cpp:380] loss1/loss -> loss1/loss
I0501 17:07:39.779706 13961 layer_factory.hpp:77] Creating layer loss1/loss
I0501 17:07:39.780552 13961 net.cpp:122] Setting up loss1/loss
I0501 17:07:39.780566 13961 net.cpp:129] Top shape: (1)
I0501 17:07:39.780571 13961 net.cpp:132]     with loss weight 0.3
I0501 17:07:39.780596 13961 net.cpp:137] Memory required for data: 1261609988
I0501 17:07:39.780602 13961 layer_factory.hpp:77] Creating layer inception_4b/1x1
I0501 17:07:39.780642 13961 net.cpp:84] Creating Layer inception_4b/1x1
I0501 17:07:39.780650 13961 net.cpp:406] inception_4b/1x1 <- inception_4a/output_inception_4a/output_0_split_1
I0501 17:07:39.780663 13961 net.cpp:380] inception_4b/1x1 -> inception_4b/1x1
I0501 17:07:39.813879 13961 net.cpp:122] Setting up inception_4b/1x1
I0501 17:07:39.813905 13961 net.cpp:129] Top shape: 32 160 14 14 (1003520)
I0501 17:07:39.813910 13961 net.cpp:137] Memory required for data: 1265624068
I0501 17:07:39.813923 13961 layer_factory.hpp:77] Creating layer inception_4b/relu_1x1
I0501 17:07:39.813939 13961 net.cpp:84] Creating Layer inception_4b/relu_1x1
I0501 17:07:39.813946 13961 net.cpp:406] inception_4b/relu_1x1 <- inception_4b/1x1
I0501 17:07:39.813959 13961 net.cpp:367] inception_4b/relu_1x1 -> inception_4b/1x1 (in-place)
I0501 17:07:39.814736 13961 net.cpp:122] Setting up inception_4b/relu_1x1
I0501 17:07:39.814749 13961 net.cpp:129] Top shape: 32 160 14 14 (1003520)
I0501 17:07:39.814754 13961 net.cpp:137] Memory required for data: 1269638148
I0501 17:07:39.814760 13961 layer_factory.hpp:77] Creating layer inception_4b/3x3_reduce
I0501 17:07:39.814777 13961 net.cpp:84] Creating Layer inception_4b/3x3_reduce
I0501 17:07:39.814783 13961 net.cpp:406] inception_4b/3x3_reduce <- inception_4a/output_inception_4a/output_0_split_2
I0501 17:07:39.814795 13961 net.cpp:380] inception_4b/3x3_reduce -> inception_4b/3x3_reduce
I0501 17:07:39.819772 13961 net.cpp:122] Setting up inception_4b/3x3_reduce
I0501 17:07:39.819793 13961 net.cpp:129] Top shape: 32 112 14 14 (702464)
I0501 17:07:39.819798 13961 net.cpp:137] Memory required for data: 1272448004
I0501 17:07:39.819811 13961 layer_factory.hpp:77] Creating layer inception_4b/relu_3x3_reduce
I0501 17:07:39.819824 13961 net.cpp:84] Creating Layer inception_4b/relu_3x3_reduce
I0501 17:07:39.819830 13961 net.cpp:406] inception_4b/relu_3x3_reduce <- inception_4b/3x3_reduce
I0501 17:07:39.819842 13961 net.cpp:367] inception_4b/relu_3x3_reduce -> inception_4b/3x3_reduce (in-place)
I0501 17:07:39.820389 13961 net.cpp:122] Setting up inception_4b/relu_3x3_reduce
I0501 17:07:39.820400 13961 net.cpp:129] Top shape: 32 112 14 14 (702464)
I0501 17:07:39.820405 13961 net.cpp:137] Memory required for data: 1275257860
I0501 17:07:39.820411 13961 layer_factory.hpp:77] Creating layer inception_4b/3x3
I0501 17:07:39.820427 13961 net.cpp:84] Creating Layer inception_4b/3x3
I0501 17:07:39.820433 13961 net.cpp:406] inception_4b/3x3 <- inception_4b/3x3_reduce
I0501 17:07:39.820444 13961 net.cpp:380] inception_4b/3x3 -> inception_4b/3x3
I0501 17:07:39.825345 13961 net.cpp:122] Setting up inception_4b/3x3
I0501 17:07:39.825366 13961 net.cpp:129] Top shape: 32 224 14 14 (1404928)
I0501 17:07:39.825371 13961 net.cpp:137] Memory required for data: 1280877572
I0501 17:07:39.825381 13961 layer_factory.hpp:77] Creating layer inception_4b/relu_3x3
I0501 17:07:39.825393 13961 net.cpp:84] Creating Layer inception_4b/relu_3x3
I0501 17:07:39.825400 13961 net.cpp:406] inception_4b/relu_3x3 <- inception_4b/3x3
I0501 17:07:39.825410 13961 net.cpp:367] inception_4b/relu_3x3 -> inception_4b/3x3 (in-place)
I0501 17:07:39.828982 13961 net.cpp:122] Setting up inception_4b/relu_3x3
I0501 17:07:39.828997 13961 net.cpp:129] Top shape: 32 224 14 14 (1404928)
I0501 17:07:39.829002 13961 net.cpp:137] Memory required for data: 1286497284
I0501 17:07:39.829008 13961 layer_factory.hpp:77] Creating layer inception_4b/5x5_reduce
I0501 17:07:39.829025 13961 net.cpp:84] Creating Layer inception_4b/5x5_reduce
I0501 17:07:39.829030 13961 net.cpp:406] inception_4b/5x5_reduce <- inception_4a/output_inception_4a/output_0_split_3
I0501 17:07:39.829042 13961 net.cpp:380] inception_4b/5x5_reduce -> inception_4b/5x5_reduce
I0501 17:07:39.836356 13961 net.cpp:122] Setting up inception_4b/5x5_reduce
I0501 17:07:39.836383 13961 net.cpp:129] Top shape: 32 24 14 14 (150528)
I0501 17:07:39.836388 13961 net.cpp:137] Memory required for data: 1287099396
I0501 17:07:39.836402 13961 layer_factory.hpp:77] Creating layer inception_4b/relu_5x5_reduce
I0501 17:07:39.836441 13961 net.cpp:84] Creating Layer inception_4b/relu_5x5_reduce
I0501 17:07:39.836449 13961 net.cpp:406] inception_4b/relu_5x5_reduce <- inception_4b/5x5_reduce
I0501 17:07:39.836462 13961 net.cpp:367] inception_4b/relu_5x5_reduce -> inception_4b/5x5_reduce (in-place)
I0501 17:07:39.838218 13961 net.cpp:122] Setting up inception_4b/relu_5x5_reduce
I0501 17:07:39.838238 13961 net.cpp:129] Top shape: 32 24 14 14 (150528)
I0501 17:07:39.838243 13961 net.cpp:137] Memory required for data: 1287701508
I0501 17:07:39.838249 13961 layer_factory.hpp:77] Creating layer inception_4b/5x5
I0501 17:07:39.838268 13961 net.cpp:84] Creating Layer inception_4b/5x5
I0501 17:07:39.838276 13961 net.cpp:406] inception_4b/5x5 <- inception_4b/5x5_reduce
I0501 17:07:39.838289 13961 net.cpp:380] inception_4b/5x5 -> inception_4b/5x5
I0501 17:07:39.846974 13961 net.cpp:122] Setting up inception_4b/5x5
I0501 17:07:39.846994 13961 net.cpp:129] Top shape: 32 64 14 14 (401408)
I0501 17:07:39.846999 13961 net.cpp:137] Memory required for data: 1289307140
I0501 17:07:39.847012 13961 layer_factory.hpp:77] Creating layer inception_4b/relu_5x5
I0501 17:07:39.847026 13961 net.cpp:84] Creating Layer inception_4b/relu_5x5
I0501 17:07:39.847033 13961 net.cpp:406] inception_4b/relu_5x5 <- inception_4b/5x5
I0501 17:07:39.847045 13961 net.cpp:367] inception_4b/relu_5x5 -> inception_4b/5x5 (in-place)
I0501 17:07:39.847889 13961 net.cpp:122] Setting up inception_4b/relu_5x5
I0501 17:07:39.847904 13961 net.cpp:129] Top shape: 32 64 14 14 (401408)
I0501 17:07:39.847909 13961 net.cpp:137] Memory required for data: 1290912772
I0501 17:07:39.847914 13961 layer_factory.hpp:77] Creating layer inception_4b/pool
I0501 17:07:39.847924 13961 net.cpp:84] Creating Layer inception_4b/pool
I0501 17:07:39.847930 13961 net.cpp:406] inception_4b/pool <- inception_4a/output_inception_4a/output_0_split_4
I0501 17:07:39.847940 13961 net.cpp:380] inception_4b/pool -> inception_4b/pool
I0501 17:07:39.848012 13961 net.cpp:122] Setting up inception_4b/pool
I0501 17:07:39.848021 13961 net.cpp:129] Top shape: 32 512 14 14 (3211264)
I0501 17:07:39.848026 13961 net.cpp:137] Memory required for data: 1303757828
I0501 17:07:39.848031 13961 layer_factory.hpp:77] Creating layer inception_4b/pool_proj
I0501 17:07:39.848045 13961 net.cpp:84] Creating Layer inception_4b/pool_proj
I0501 17:07:39.848050 13961 net.cpp:406] inception_4b/pool_proj <- inception_4b/pool
I0501 17:07:39.848060 13961 net.cpp:380] inception_4b/pool_proj -> inception_4b/pool_proj
I0501 17:07:39.853854 13961 net.cpp:122] Setting up inception_4b/pool_proj
I0501 17:07:39.853876 13961 net.cpp:129] Top shape: 32 64 14 14 (401408)
I0501 17:07:39.853881 13961 net.cpp:137] Memory required for data: 1305363460
I0501 17:07:39.853893 13961 layer_factory.hpp:77] Creating layer inception_4b/relu_pool_proj
I0501 17:07:39.853906 13961 net.cpp:84] Creating Layer inception_4b/relu_pool_proj
I0501 17:07:39.853914 13961 net.cpp:406] inception_4b/relu_pool_proj <- inception_4b/pool_proj
I0501 17:07:39.853921 13961 net.cpp:367] inception_4b/relu_pool_proj -> inception_4b/pool_proj (in-place)
I0501 17:07:39.859153 13961 net.cpp:122] Setting up inception_4b/relu_pool_proj
I0501 17:07:39.859179 13961 net.cpp:129] Top shape: 32 64 14 14 (401408)
I0501 17:07:39.859184 13961 net.cpp:137] Memory required for data: 1306969092
I0501 17:07:39.859191 13961 layer_factory.hpp:77] Creating layer inception_4b/output
I0501 17:07:39.859203 13961 net.cpp:84] Creating Layer inception_4b/output
I0501 17:07:39.859211 13961 net.cpp:406] inception_4b/output <- inception_4b/1x1
I0501 17:07:39.859221 13961 net.cpp:406] inception_4b/output <- inception_4b/3x3
I0501 17:07:39.859227 13961 net.cpp:406] inception_4b/output <- inception_4b/5x5
I0501 17:07:39.859233 13961 net.cpp:406] inception_4b/output <- inception_4b/pool_proj
I0501 17:07:39.859241 13961 net.cpp:380] inception_4b/output -> inception_4b/output
I0501 17:07:39.859292 13961 net.cpp:122] Setting up inception_4b/output
I0501 17:07:39.859302 13961 net.cpp:129] Top shape: 32 512 14 14 (3211264)
I0501 17:07:39.859331 13961 net.cpp:137] Memory required for data: 1319814148
I0501 17:07:39.859336 13961 layer_factory.hpp:77] Creating layer inception_4b/output_inception_4b/output_0_split
I0501 17:07:39.859346 13961 net.cpp:84] Creating Layer inception_4b/output_inception_4b/output_0_split
I0501 17:07:39.859351 13961 net.cpp:406] inception_4b/output_inception_4b/output_0_split <- inception_4b/output
I0501 17:07:39.859360 13961 net.cpp:380] inception_4b/output_inception_4b/output_0_split -> inception_4b/output_inception_4b/output_0_split_0
I0501 17:07:39.859370 13961 net.cpp:380] inception_4b/output_inception_4b/output_0_split -> inception_4b/output_inception_4b/output_0_split_1
I0501 17:07:39.859380 13961 net.cpp:380] inception_4b/output_inception_4b/output_0_split -> inception_4b/output_inception_4b/output_0_split_2
I0501 17:07:39.859390 13961 net.cpp:380] inception_4b/output_inception_4b/output_0_split -> inception_4b/output_inception_4b/output_0_split_3
I0501 17:07:39.859464 13961 net.cpp:122] Setting up inception_4b/output_inception_4b/output_0_split
I0501 17:07:39.859473 13961 net.cpp:129] Top shape: 32 512 14 14 (3211264)
I0501 17:07:39.859479 13961 net.cpp:129] Top shape: 32 512 14 14 (3211264)
I0501 17:07:39.859485 13961 net.cpp:129] Top shape: 32 512 14 14 (3211264)
I0501 17:07:39.859491 13961 net.cpp:129] Top shape: 32 512 14 14 (3211264)
I0501 17:07:39.859495 13961 net.cpp:137] Memory required for data: 1371194372
I0501 17:07:39.859500 13961 layer_factory.hpp:77] Creating layer inception_4c/1x1
I0501 17:07:39.859515 13961 net.cpp:84] Creating Layer inception_4c/1x1
I0501 17:07:39.859521 13961 net.cpp:406] inception_4c/1x1 <- inception_4b/output_inception_4b/output_0_split_0
I0501 17:07:39.859530 13961 net.cpp:380] inception_4c/1x1 -> inception_4c/1x1
I0501 17:07:39.887148 13961 net.cpp:122] Setting up inception_4c/1x1
I0501 17:07:39.887179 13961 net.cpp:129] Top shape: 32 128 14 14 (802816)
I0501 17:07:39.887184 13961 net.cpp:137] Memory required for data: 1374405636
I0501 17:07:39.887198 13961 layer_factory.hpp:77] Creating layer inception_4c/relu_1x1
I0501 17:07:39.887210 13961 net.cpp:84] Creating Layer inception_4c/relu_1x1
I0501 17:07:39.887217 13961 net.cpp:406] inception_4c/relu_1x1 <- inception_4c/1x1
I0501 17:07:39.887229 13961 net.cpp:367] inception_4c/relu_1x1 -> inception_4c/1x1 (in-place)
I0501 17:07:39.887792 13961 net.cpp:122] Setting up inception_4c/relu_1x1
I0501 17:07:39.887806 13961 net.cpp:129] Top shape: 32 128 14 14 (802816)
I0501 17:07:39.887811 13961 net.cpp:137] Memory required for data: 1377616900
I0501 17:07:39.887816 13961 layer_factory.hpp:77] Creating layer inception_4c/3x3_reduce
I0501 17:07:39.887835 13961 net.cpp:84] Creating Layer inception_4c/3x3_reduce
I0501 17:07:39.887840 13961 net.cpp:406] inception_4c/3x3_reduce <- inception_4b/output_inception_4b/output_0_split_1
I0501 17:07:39.887850 13961 net.cpp:380] inception_4c/3x3_reduce -> inception_4c/3x3_reduce
I0501 17:07:39.904513 13961 net.cpp:122] Setting up inception_4c/3x3_reduce
I0501 17:07:39.904549 13961 net.cpp:129] Top shape: 32 128 14 14 (802816)
I0501 17:07:39.904559 13961 net.cpp:137] Memory required for data: 1380828164
I0501 17:07:39.904577 13961 layer_factory.hpp:77] Creating layer inception_4c/relu_3x3_reduce
I0501 17:07:39.904590 13961 net.cpp:84] Creating Layer inception_4c/relu_3x3_reduce
I0501 17:07:39.904600 13961 net.cpp:406] inception_4c/relu_3x3_reduce <- inception_4c/3x3_reduce
I0501 17:07:39.904613 13961 net.cpp:367] inception_4c/relu_3x3_reduce -> inception_4c/3x3_reduce (in-place)
I0501 17:07:39.905287 13961 net.cpp:122] Setting up inception_4c/relu_3x3_reduce
I0501 17:07:39.905300 13961 net.cpp:129] Top shape: 32 128 14 14 (802816)
I0501 17:07:39.905308 13961 net.cpp:137] Memory required for data: 1384039428
I0501 17:07:39.905318 13961 layer_factory.hpp:77] Creating layer inception_4c/3x3
I0501 17:07:39.905337 13961 net.cpp:84] Creating Layer inception_4c/3x3
I0501 17:07:39.905347 13961 net.cpp:406] inception_4c/3x3 <- inception_4c/3x3_reduce
I0501 17:07:39.905361 13961 net.cpp:380] inception_4c/3x3 -> inception_4c/3x3
I0501 17:07:39.911460 13961 net.cpp:122] Setting up inception_4c/3x3
I0501 17:07:39.911482 13961 net.cpp:129] Top shape: 32 256 14 14 (1605632)
I0501 17:07:39.911489 13961 net.cpp:137] Memory required for data: 1390461956
I0501 17:07:39.911511 13961 layer_factory.hpp:77] Creating layer inception_4c/relu_3x3
I0501 17:07:39.911525 13961 net.cpp:84] Creating Layer inception_4c/relu_3x3
I0501 17:07:39.911532 13961 net.cpp:406] inception_4c/relu_3x3 <- inception_4c/3x3
I0501 17:07:39.911540 13961 net.cpp:367] inception_4c/relu_3x3 -> inception_4c/3x3 (in-place)
I0501 17:07:39.912293 13961 net.cpp:122] Setting up inception_4c/relu_3x3
I0501 17:07:39.912310 13961 net.cpp:129] Top shape: 32 256 14 14 (1605632)
I0501 17:07:39.912315 13961 net.cpp:137] Memory required for data: 1396884484
I0501 17:07:39.912322 13961 layer_factory.hpp:77] Creating layer inception_4c/5x5_reduce
I0501 17:07:39.912339 13961 net.cpp:84] Creating Layer inception_4c/5x5_reduce
I0501 17:07:39.912346 13961 net.cpp:406] inception_4c/5x5_reduce <- inception_4b/output_inception_4b/output_0_split_2
I0501 17:07:39.912360 13961 net.cpp:380] inception_4c/5x5_reduce -> inception_4c/5x5_reduce
I0501 17:07:39.943434 13961 net.cpp:122] Setting up inception_4c/5x5_reduce
I0501 17:07:39.943466 13961 net.cpp:129] Top shape: 32 24 14 14 (150528)
I0501 17:07:39.943475 13961 net.cpp:137] Memory required for data: 1397486596
I0501 17:07:39.943495 13961 layer_factory.hpp:77] Creating layer inception_4c/relu_5x5_reduce
I0501 17:07:39.943513 13961 net.cpp:84] Creating Layer inception_4c/relu_5x5_reduce
I0501 17:07:39.943522 13961 net.cpp:406] inception_4c/relu_5x5_reduce <- inception_4c/5x5_reduce
I0501 17:07:39.943536 13961 net.cpp:367] inception_4c/relu_5x5_reduce -> inception_4c/5x5_reduce (in-place)
I0501 17:07:39.944334 13961 net.cpp:122] Setting up inception_4c/relu_5x5_reduce
I0501 17:07:39.944351 13961 net.cpp:129] Top shape: 32 24 14 14 (150528)
I0501 17:07:39.944360 13961 net.cpp:137] Memory required for data: 1398088708
I0501 17:07:39.944368 13961 layer_factory.hpp:77] Creating layer inception_4c/5x5
I0501 17:07:39.944389 13961 net.cpp:84] Creating Layer inception_4c/5x5
I0501 17:07:39.944398 13961 net.cpp:406] inception_4c/5x5 <- inception_4c/5x5_reduce
I0501 17:07:39.944411 13961 net.cpp:380] inception_4c/5x5 -> inception_4c/5x5
I0501 17:07:39.947085 13961 net.cpp:122] Setting up inception_4c/5x5
I0501 17:07:39.947103 13961 net.cpp:129] Top shape: 32 64 14 14 (401408)
I0501 17:07:39.947108 13961 net.cpp:137] Memory required for data: 1399694340
I0501 17:07:39.947122 13961 layer_factory.hpp:77] Creating layer inception_4c/relu_5x5
I0501 17:07:39.947135 13961 net.cpp:84] Creating Layer inception_4c/relu_5x5
I0501 17:07:39.947145 13961 net.cpp:406] inception_4c/relu_5x5 <- inception_4c/5x5
I0501 17:07:39.947160 13961 net.cpp:367] inception_4c/relu_5x5 -> inception_4c/5x5 (in-place)
I0501 17:07:39.947860 13961 net.cpp:122] Setting up inception_4c/relu_5x5
I0501 17:07:39.947878 13961 net.cpp:129] Top shape: 32 64 14 14 (401408)
I0501 17:07:39.947888 13961 net.cpp:137] Memory required for data: 1401299972
I0501 17:07:39.947898 13961 layer_factory.hpp:77] Creating layer inception_4c/pool
I0501 17:07:39.947911 13961 net.cpp:84] Creating Layer inception_4c/pool
I0501 17:07:39.947921 13961 net.cpp:406] inception_4c/pool <- inception_4b/output_inception_4b/output_0_split_3
I0501 17:07:39.947933 13961 net.cpp:380] inception_4c/pool -> inception_4c/pool
I0501 17:07:39.947991 13961 net.cpp:122] Setting up inception_4c/pool
I0501 17:07:39.948004 13961 net.cpp:129] Top shape: 32 512 14 14 (3211264)
I0501 17:07:39.948009 13961 net.cpp:137] Memory required for data: 1414145028
I0501 17:07:39.948019 13961 layer_factory.hpp:77] Creating layer inception_4c/pool_proj
I0501 17:07:39.948088 13961 net.cpp:84] Creating Layer inception_4c/pool_proj
I0501 17:07:39.948098 13961 net.cpp:406] inception_4c/pool_proj <- inception_4c/pool
I0501 17:07:39.948114 13961 net.cpp:380] inception_4c/pool_proj -> inception_4c/pool_proj
I0501 17:07:39.960407 13961 net.cpp:122] Setting up inception_4c/pool_proj
I0501 17:07:39.960464 13961 net.cpp:129] Top shape: 32 64 14 14 (401408)
I0501 17:07:39.960469 13961 net.cpp:137] Memory required for data: 1415750660
I0501 17:07:39.960484 13961 layer_factory.hpp:77] Creating layer inception_4c/relu_pool_proj
I0501 17:07:39.960496 13961 net.cpp:84] Creating Layer inception_4c/relu_pool_proj
I0501 17:07:39.960503 13961 net.cpp:406] inception_4c/relu_pool_proj <- inception_4c/pool_proj
I0501 17:07:39.960515 13961 net.cpp:367] inception_4c/relu_pool_proj -> inception_4c/pool_proj (in-place)
I0501 17:07:39.961010 13961 net.cpp:122] Setting up inception_4c/relu_pool_proj
I0501 17:07:39.961021 13961 net.cpp:129] Top shape: 32 64 14 14 (401408)
I0501 17:07:39.961026 13961 net.cpp:137] Memory required for data: 1417356292
I0501 17:07:39.961032 13961 layer_factory.hpp:77] Creating layer inception_4c/output
I0501 17:07:39.961042 13961 net.cpp:84] Creating Layer inception_4c/output
I0501 17:07:39.961050 13961 net.cpp:406] inception_4c/output <- inception_4c/1x1
I0501 17:07:39.961057 13961 net.cpp:406] inception_4c/output <- inception_4c/3x3
I0501 17:07:39.961064 13961 net.cpp:406] inception_4c/output <- inception_4c/5x5
I0501 17:07:39.961072 13961 net.cpp:406] inception_4c/output <- inception_4c/pool_proj
I0501 17:07:39.961082 13961 net.cpp:380] inception_4c/output -> inception_4c/output
I0501 17:07:39.961118 13961 net.cpp:122] Setting up inception_4c/output
I0501 17:07:39.961125 13961 net.cpp:129] Top shape: 32 512 14 14 (3211264)
I0501 17:07:39.961131 13961 net.cpp:137] Memory required for data: 1430201348
I0501 17:07:39.961136 13961 layer_factory.hpp:77] Creating layer inception_4c/output_inception_4c/output_0_split
I0501 17:07:39.961145 13961 net.cpp:84] Creating Layer inception_4c/output_inception_4c/output_0_split
I0501 17:07:39.961153 13961 net.cpp:406] inception_4c/output_inception_4c/output_0_split <- inception_4c/output
I0501 17:07:39.961161 13961 net.cpp:380] inception_4c/output_inception_4c/output_0_split -> inception_4c/output_inception_4c/output_0_split_0
I0501 17:07:39.961170 13961 net.cpp:380] inception_4c/output_inception_4c/output_0_split -> inception_4c/output_inception_4c/output_0_split_1
I0501 17:07:39.961179 13961 net.cpp:380] inception_4c/output_inception_4c/output_0_split -> inception_4c/output_inception_4c/output_0_split_2
I0501 17:07:39.961189 13961 net.cpp:380] inception_4c/output_inception_4c/output_0_split -> inception_4c/output_inception_4c/output_0_split_3
I0501 17:07:39.961254 13961 net.cpp:122] Setting up inception_4c/output_inception_4c/output_0_split
I0501 17:07:39.961263 13961 net.cpp:129] Top shape: 32 512 14 14 (3211264)
I0501 17:07:39.961269 13961 net.cpp:129] Top shape: 32 512 14 14 (3211264)
I0501 17:07:39.961275 13961 net.cpp:129] Top shape: 32 512 14 14 (3211264)
I0501 17:07:39.961282 13961 net.cpp:129] Top shape: 32 512 14 14 (3211264)
I0501 17:07:39.961288 13961 net.cpp:137] Memory required for data: 1481581572
I0501 17:07:39.961292 13961 layer_factory.hpp:77] Creating layer inception_4d/1x1
I0501 17:07:39.961309 13961 net.cpp:84] Creating Layer inception_4d/1x1
I0501 17:07:39.961315 13961 net.cpp:406] inception_4d/1x1 <- inception_4c/output_inception_4c/output_0_split_0
I0501 17:07:39.961326 13961 net.cpp:380] inception_4d/1x1 -> inception_4d/1x1
I0501 17:07:39.965041 13961 net.cpp:122] Setting up inception_4d/1x1
I0501 17:07:39.965061 13961 net.cpp:129] Top shape: 32 112 14 14 (702464)
I0501 17:07:39.965068 13961 net.cpp:137] Memory required for data: 1484391428
I0501 17:07:39.965078 13961 layer_factory.hpp:77] Creating layer inception_4d/relu_1x1
I0501 17:07:39.965090 13961 net.cpp:84] Creating Layer inception_4d/relu_1x1
I0501 17:07:39.965096 13961 net.cpp:406] inception_4d/relu_1x1 <- inception_4d/1x1
I0501 17:07:39.965107 13961 net.cpp:367] inception_4d/relu_1x1 -> inception_4d/1x1 (in-place)
I0501 17:07:39.965574 13961 net.cpp:122] Setting up inception_4d/relu_1x1
I0501 17:07:39.965586 13961 net.cpp:129] Top shape: 32 112 14 14 (702464)
I0501 17:07:39.965592 13961 net.cpp:137] Memory required for data: 1487201284
I0501 17:07:39.965620 13961 layer_factory.hpp:77] Creating layer inception_4d/3x3_reduce
I0501 17:07:39.965636 13961 net.cpp:84] Creating Layer inception_4d/3x3_reduce
I0501 17:07:39.965642 13961 net.cpp:406] inception_4d/3x3_reduce <- inception_4c/output_inception_4c/output_0_split_1
I0501 17:07:39.965656 13961 net.cpp:380] inception_4d/3x3_reduce -> inception_4d/3x3_reduce
I0501 17:07:39.968773 13961 net.cpp:122] Setting up inception_4d/3x3_reduce
I0501 17:07:39.968791 13961 net.cpp:129] Top shape: 32 144 14 14 (903168)
I0501 17:07:39.968801 13961 net.cpp:137] Memory required for data: 1490813956
I0501 17:07:39.968816 13961 layer_factory.hpp:77] Creating layer inception_4d/relu_3x3_reduce
I0501 17:07:39.968829 13961 net.cpp:84] Creating Layer inception_4d/relu_3x3_reduce
I0501 17:07:39.968837 13961 net.cpp:406] inception_4d/relu_3x3_reduce <- inception_4d/3x3_reduce
I0501 17:07:39.968848 13961 net.cpp:367] inception_4d/relu_3x3_reduce -> inception_4d/3x3_reduce (in-place)
I0501 17:07:39.969732 13961 net.cpp:122] Setting up inception_4d/relu_3x3_reduce
I0501 17:07:39.969748 13961 net.cpp:129] Top shape: 32 144 14 14 (903168)
I0501 17:07:39.969754 13961 net.cpp:137] Memory required for data: 1494426628
I0501 17:07:39.969764 13961 layer_factory.hpp:77] Creating layer inception_4d/3x3
I0501 17:07:39.969780 13961 net.cpp:84] Creating Layer inception_4d/3x3
I0501 17:07:39.969789 13961 net.cpp:406] inception_4d/3x3 <- inception_4d/3x3_reduce
I0501 17:07:39.969800 13961 net.cpp:380] inception_4d/3x3 -> inception_4d/3x3
I0501 17:07:40.001914 13961 net.cpp:122] Setting up inception_4d/3x3
I0501 17:07:40.001941 13961 net.cpp:129] Top shape: 32 288 14 14 (1806336)
I0501 17:07:40.001947 13961 net.cpp:137] Memory required for data: 1501651972
I0501 17:07:40.001962 13961 layer_factory.hpp:77] Creating layer inception_4d/relu_3x3
I0501 17:07:40.001976 13961 net.cpp:84] Creating Layer inception_4d/relu_3x3
I0501 17:07:40.001982 13961 net.cpp:406] inception_4d/relu_3x3 <- inception_4d/3x3
I0501 17:07:40.001994 13961 net.cpp:367] inception_4d/relu_3x3 -> inception_4d/3x3 (in-place)
I0501 17:07:40.002748 13961 net.cpp:122] Setting up inception_4d/relu_3x3
I0501 17:07:40.002763 13961 net.cpp:129] Top shape: 32 288 14 14 (1806336)
I0501 17:07:40.002768 13961 net.cpp:137] Memory required for data: 1508877316
I0501 17:07:40.002773 13961 layer_factory.hpp:77] Creating layer inception_4d/5x5_reduce
I0501 17:07:40.002789 13961 net.cpp:84] Creating Layer inception_4d/5x5_reduce
I0501 17:07:40.002794 13961 net.cpp:406] inception_4d/5x5_reduce <- inception_4c/output_inception_4c/output_0_split_2
I0501 17:07:40.002806 13961 net.cpp:380] inception_4d/5x5_reduce -> inception_4d/5x5_reduce
I0501 17:07:40.020583 13961 net.cpp:122] Setting up inception_4d/5x5_reduce
I0501 17:07:40.020612 13961 net.cpp:129] Top shape: 32 32 14 14 (200704)
I0501 17:07:40.020618 13961 net.cpp:137] Memory required for data: 1509680132
I0501 17:07:40.020633 13961 layer_factory.hpp:77] Creating layer inception_4d/relu_5x5_reduce
I0501 17:07:40.020646 13961 net.cpp:84] Creating Layer inception_4d/relu_5x5_reduce
I0501 17:07:40.020654 13961 net.cpp:406] inception_4d/relu_5x5_reduce <- inception_4d/5x5_reduce
I0501 17:07:40.020668 13961 net.cpp:367] inception_4d/relu_5x5_reduce -> inception_4d/5x5_reduce (in-place)
I0501 17:07:40.021519 13961 net.cpp:122] Setting up inception_4d/relu_5x5_reduce
I0501 17:07:40.021535 13961 net.cpp:129] Top shape: 32 32 14 14 (200704)
I0501 17:07:40.021540 13961 net.cpp:137] Memory required for data: 1510482948
I0501 17:07:40.021546 13961 layer_factory.hpp:77] Creating layer inception_4d/5x5
I0501 17:07:40.021564 13961 net.cpp:84] Creating Layer inception_4d/5x5
I0501 17:07:40.021570 13961 net.cpp:406] inception_4d/5x5 <- inception_4d/5x5_reduce
I0501 17:07:40.021581 13961 net.cpp:380] inception_4d/5x5 -> inception_4d/5x5
I0501 17:07:40.025171 13961 net.cpp:122] Setting up inception_4d/5x5
I0501 17:07:40.025188 13961 net.cpp:129] Top shape: 32 64 14 14 (401408)
I0501 17:07:40.025194 13961 net.cpp:137] Memory required for data: 1512088580
I0501 17:07:40.025231 13961 layer_factory.hpp:77] Creating layer inception_4d/relu_5x5
I0501 17:07:40.025243 13961 net.cpp:84] Creating Layer inception_4d/relu_5x5
I0501 17:07:40.025250 13961 net.cpp:406] inception_4d/relu_5x5 <- inception_4d/5x5
I0501 17:07:40.025260 13961 net.cpp:367] inception_4d/relu_5x5 -> inception_4d/5x5 (in-place)
I0501 17:07:40.028376 13961 net.cpp:122] Setting up inception_4d/relu_5x5
I0501 17:07:40.028396 13961 net.cpp:129] Top shape: 32 64 14 14 (401408)
I0501 17:07:41.089409 13961 net.cpp:137] Memory required for data: 1513694212
I0501 17:07:41.089432 13961 layer_factory.hpp:77] Creating layer inception_4d/pool
I0501 17:07:41.089453 13961 net.cpp:84] Creating Layer inception_4d/pool
I0501 17:07:41.089464 13961 net.cpp:406] inception_4d/pool <- inception_4c/output_inception_4c/output_0_split_3
I0501 17:07:41.089478 13961 net.cpp:380] inception_4d/pool -> inception_4d/pool
I0501 17:07:41.089588 13961 net.cpp:122] Setting up inception_4d/pool
I0501 17:07:41.089601 13961 net.cpp:129] Top shape: 32 512 14 14 (3211264)
I0501 17:07:41.089607 13961 net.cpp:137] Memory required for data: 1526539268
I0501 17:07:41.089613 13961 layer_factory.hpp:77] Creating layer inception_4d/pool_proj
I0501 17:07:41.089630 13961 net.cpp:84] Creating Layer inception_4d/pool_proj
I0501 17:07:41.089638 13961 net.cpp:406] inception_4d/pool_proj <- inception_4d/pool
I0501 17:07:41.089649 13961 net.cpp:380] inception_4d/pool_proj -> inception_4d/pool_proj
I0501 17:07:41.104585 13961 net.cpp:122] Setting up inception_4d/pool_proj
I0501 17:07:41.104614 13961 net.cpp:129] Top shape: 32 64 14 14 (401408)
I0501 17:07:41.104619 13961 net.cpp:137] Memory required for data: 1528144900
I0501 17:07:41.104634 13961 layer_factory.hpp:77] Creating layer inception_4d/relu_pool_proj
I0501 17:07:41.104650 13961 net.cpp:84] Creating Layer inception_4d/relu_pool_proj
I0501 17:07:41.104660 13961 net.cpp:406] inception_4d/relu_pool_proj <- inception_4d/pool_proj
I0501 17:07:41.104669 13961 net.cpp:367] inception_4d/relu_pool_proj -> inception_4d/pool_proj (in-place)
I0501 17:07:41.105247 13961 net.cpp:122] Setting up inception_4d/relu_pool_proj
I0501 17:07:41.105262 13961 net.cpp:129] Top shape: 32 64 14 14 (401408)
I0501 17:07:41.105268 13961 net.cpp:137] Memory required for data: 1529750532
I0501 17:07:41.105273 13961 layer_factory.hpp:77] Creating layer inception_4d/output
I0501 17:07:41.105283 13961 net.cpp:84] Creating Layer inception_4d/output
I0501 17:07:41.105288 13961 net.cpp:406] inception_4d/output <- inception_4d/1x1
I0501 17:07:41.105295 13961 net.cpp:406] inception_4d/output <- inception_4d/3x3
I0501 17:07:41.105302 13961 net.cpp:406] inception_4d/output <- inception_4d/5x5
I0501 17:07:41.105309 13961 net.cpp:406] inception_4d/output <- inception_4d/pool_proj
I0501 17:07:41.105319 13961 net.cpp:380] inception_4d/output -> inception_4d/output
I0501 17:07:41.105360 13961 net.cpp:122] Setting up inception_4d/output
I0501 17:07:41.105371 13961 net.cpp:129] Top shape: 32 528 14 14 (3311616)
I0501 17:07:41.105376 13961 net.cpp:137] Memory required for data: 1542996996
I0501 17:07:41.105381 13961 layer_factory.hpp:77] Creating layer inception_4d/output_inception_4d/output_0_split
I0501 17:07:41.105394 13961 net.cpp:84] Creating Layer inception_4d/output_inception_4d/output_0_split
I0501 17:07:41.105401 13961 net.cpp:406] inception_4d/output_inception_4d/output_0_split <- inception_4d/output
I0501 17:07:41.105412 13961 net.cpp:380] inception_4d/output_inception_4d/output_0_split -> inception_4d/output_inception_4d/output_0_split_0
I0501 17:07:41.105422 13961 net.cpp:380] inception_4d/output_inception_4d/output_0_split -> inception_4d/output_inception_4d/output_0_split_1
I0501 17:07:41.105432 13961 net.cpp:380] inception_4d/output_inception_4d/output_0_split -> inception_4d/output_inception_4d/output_0_split_2
I0501 17:07:41.105443 13961 net.cpp:380] inception_4d/output_inception_4d/output_0_split -> inception_4d/output_inception_4d/output_0_split_3
I0501 17:07:41.105451 13961 net.cpp:380] inception_4d/output_inception_4d/output_0_split -> inception_4d/output_inception_4d/output_0_split_4
I0501 17:07:41.105592 13961 net.cpp:122] Setting up inception_4d/output_inception_4d/output_0_split
I0501 17:07:41.105603 13961 net.cpp:129] Top shape: 32 528 14 14 (3311616)
I0501 17:07:41.105610 13961 net.cpp:129] Top shape: 32 528 14 14 (3311616)
I0501 17:07:41.105617 13961 net.cpp:129] Top shape: 32 528 14 14 (3311616)
I0501 17:07:41.105623 13961 net.cpp:129] Top shape: 32 528 14 14 (3311616)
I0501 17:07:41.105628 13961 net.cpp:129] Top shape: 32 528 14 14 (3311616)
I0501 17:07:41.105633 13961 net.cpp:137] Memory required for data: 1609229316
I0501 17:07:41.105638 13961 layer_factory.hpp:77] Creating layer loss2/ave_pool
I0501 17:07:41.105648 13961 net.cpp:84] Creating Layer loss2/ave_pool
I0501 17:07:41.105654 13961 net.cpp:406] loss2/ave_pool <- inception_4d/output_inception_4d/output_0_split_0
I0501 17:07:41.105665 13961 net.cpp:380] loss2/ave_pool -> loss2/ave_pool
I0501 17:07:41.106518 13961 net.cpp:122] Setting up loss2/ave_pool
I0501 17:07:41.106535 13961 net.cpp:129] Top shape: 32 528 4 4 (270336)
I0501 17:07:41.106541 13961 net.cpp:137] Memory required for data: 1610310660
I0501 17:07:41.106547 13961 layer_factory.hpp:77] Creating layer loss2/conv
I0501 17:07:41.106564 13961 net.cpp:84] Creating Layer loss2/conv
I0501 17:07:41.106571 13961 net.cpp:406] loss2/conv <- loss2/ave_pool
I0501 17:07:41.106581 13961 net.cpp:380] loss2/conv -> loss2/conv
I0501 17:07:41.115073 13961 net.cpp:122] Setting up loss2/conv
I0501 17:07:41.115103 13961 net.cpp:129] Top shape: 32 128 4 4 (65536)
I0501 17:07:41.115108 13961 net.cpp:137] Memory required for data: 1610572804
I0501 17:07:41.115123 13961 layer_factory.hpp:77] Creating layer loss2/relu_conv
I0501 17:07:41.115139 13961 net.cpp:84] Creating Layer loss2/relu_conv
I0501 17:07:41.115149 13961 net.cpp:406] loss2/relu_conv <- loss2/conv
I0501 17:07:41.115159 13961 net.cpp:367] loss2/relu_conv -> loss2/conv (in-place)
I0501 17:07:41.115849 13961 net.cpp:122] Setting up loss2/relu_conv
I0501 17:07:41.115862 13961 net.cpp:129] Top shape: 32 128 4 4 (65536)
I0501 17:07:41.115867 13961 net.cpp:137] Memory required for data: 1610834948
I0501 17:07:41.115872 13961 layer_factory.hpp:77] Creating layer loss2/fc
I0501 17:07:41.115885 13961 net.cpp:84] Creating Layer loss2/fc
I0501 17:07:41.115895 13961 net.cpp:406] loss2/fc <- loss2/conv
I0501 17:07:41.115906 13961 net.cpp:380] loss2/fc -> loss2/fc
I0501 17:07:41.172089 13961 net.cpp:122] Setting up loss2/fc
I0501 17:07:41.172116 13961 net.cpp:129] Top shape: 32 1024 (32768)
I0501 17:07:41.172122 13961 net.cpp:137] Memory required for data: 1610966020
I0501 17:07:41.172137 13961 layer_factory.hpp:77] Creating layer loss2/relu_fc
I0501 17:07:41.172150 13961 net.cpp:84] Creating Layer loss2/relu_fc
I0501 17:07:41.172158 13961 net.cpp:406] loss2/relu_fc <- loss2/fc
I0501 17:07:41.172171 13961 net.cpp:367] loss2/relu_fc -> loss2/fc (in-place)
I0501 17:07:41.175248 13961 net.cpp:122] Setting up loss2/relu_fc
I0501 17:07:41.175266 13961 net.cpp:129] Top shape: 32 1024 (32768)
I0501 17:07:41.175272 13961 net.cpp:137] Memory required for data: 1611097092
I0501 17:07:41.175278 13961 layer_factory.hpp:77] Creating layer loss2/drop_fc
I0501 17:07:41.175292 13961 net.cpp:84] Creating Layer loss2/drop_fc
I0501 17:07:41.175298 13961 net.cpp:406] loss2/drop_fc <- loss2/fc
I0501 17:07:41.175308 13961 net.cpp:367] loss2/drop_fc -> loss2/fc (in-place)
I0501 17:07:41.175352 13961 net.cpp:122] Setting up loss2/drop_fc
I0501 17:07:41.175361 13961 net.cpp:129] Top shape: 32 1024 (32768)
I0501 17:07:41.175367 13961 net.cpp:137] Memory required for data: 1611228164
I0501 17:07:41.175372 13961 layer_factory.hpp:77] Creating layer loss2/classifier
I0501 17:07:41.175384 13961 net.cpp:84] Creating Layer loss2/classifier
I0501 17:07:41.175392 13961 net.cpp:406] loss2/classifier <- loss2/fc
I0501 17:07:41.175401 13961 net.cpp:380] loss2/classifier -> loss2/classifier
I0501 17:07:41.179822 13961 net.cpp:122] Setting up loss2/classifier
I0501 17:07:41.179841 13961 net.cpp:129] Top shape: 32 196 (6272)
I0501 17:07:41.179870 13961 net.cpp:137] Memory required for data: 1611253252
I0501 17:07:41.179881 13961 layer_factory.hpp:77] Creating layer loss2/loss
I0501 17:07:41.179891 13961 net.cpp:84] Creating Layer loss2/loss
I0501 17:07:41.179898 13961 net.cpp:406] loss2/loss <- loss2/classifier
I0501 17:07:41.179904 13961 net.cpp:406] loss2/loss <- label_train-data_1_split_1
I0501 17:07:41.179911 13961 net.cpp:380] loss2/loss -> loss2/loss
I0501 17:07:41.179922 13961 layer_factory.hpp:77] Creating layer loss2/loss
I0501 17:07:41.184465 13961 net.cpp:122] Setting up loss2/loss
I0501 17:07:41.184495 13961 net.cpp:129] Top shape: (1)
I0501 17:07:41.184502 13961 net.cpp:132]     with loss weight 0.3
I0501 17:07:41.184518 13961 net.cpp:137] Memory required for data: 1611253256
I0501 17:07:41.184527 13961 layer_factory.hpp:77] Creating layer inception_4e/1x1
I0501 17:07:41.184551 13961 net.cpp:84] Creating Layer inception_4e/1x1
I0501 17:07:41.184561 13961 net.cpp:406] inception_4e/1x1 <- inception_4d/output_inception_4d/output_0_split_1
I0501 17:07:41.184576 13961 net.cpp:380] inception_4e/1x1 -> inception_4e/1x1
I0501 17:07:41.190330 13961 net.cpp:122] Setting up inception_4e/1x1
I0501 17:07:41.190357 13961 net.cpp:129] Top shape: 32 256 14 14 (1605632)
I0501 17:07:41.190363 13961 net.cpp:137] Memory required for data: 1617675784
I0501 17:07:41.190376 13961 layer_factory.hpp:77] Creating layer inception_4e/relu_1x1
I0501 17:07:41.190387 13961 net.cpp:84] Creating Layer inception_4e/relu_1x1
I0501 17:07:41.190395 13961 net.cpp:406] inception_4e/relu_1x1 <- inception_4e/1x1
I0501 17:07:41.190405 13961 net.cpp:367] inception_4e/relu_1x1 -> inception_4e/1x1 (in-place)
I0501 17:07:41.191323 13961 net.cpp:122] Setting up inception_4e/relu_1x1
I0501 17:07:41.191337 13961 net.cpp:129] Top shape: 32 256 14 14 (1605632)
I0501 17:07:41.191342 13961 net.cpp:137] Memory required for data: 1624098312
I0501 17:07:41.191349 13961 layer_factory.hpp:77] Creating layer inception_4e/3x3_reduce
I0501 17:07:41.191365 13961 net.cpp:84] Creating Layer inception_4e/3x3_reduce
I0501 17:07:41.191370 13961 net.cpp:406] inception_4e/3x3_reduce <- inception_4d/output_inception_4d/output_0_split_2
I0501 17:07:41.191382 13961 net.cpp:380] inception_4e/3x3_reduce -> inception_4e/3x3_reduce
I0501 17:07:41.197798 13961 net.cpp:122] Setting up inception_4e/3x3_reduce
I0501 17:07:41.197821 13961 net.cpp:129] Top shape: 32 160 14 14 (1003520)
I0501 17:07:41.197826 13961 net.cpp:137] Memory required for data: 1628112392
I0501 17:07:41.197840 13961 layer_factory.hpp:77] Creating layer inception_4e/relu_3x3_reduce
I0501 17:07:41.197854 13961 net.cpp:84] Creating Layer inception_4e/relu_3x3_reduce
I0501 17:07:41.197860 13961 net.cpp:406] inception_4e/relu_3x3_reduce <- inception_4e/3x3_reduce
I0501 17:07:41.197870 13961 net.cpp:367] inception_4e/relu_3x3_reduce -> inception_4e/3x3_reduce (in-place)
I0501 17:07:41.198633 13961 net.cpp:122] Setting up inception_4e/relu_3x3_reduce
I0501 17:07:41.198647 13961 net.cpp:129] Top shape: 32 160 14 14 (1003520)
I0501 17:07:41.198652 13961 net.cpp:137] Memory required for data: 1632126472
I0501 17:07:41.198658 13961 layer_factory.hpp:77] Creating layer inception_4e/3x3
I0501 17:07:41.198673 13961 net.cpp:84] Creating Layer inception_4e/3x3
I0501 17:07:41.198679 13961 net.cpp:406] inception_4e/3x3 <- inception_4e/3x3_reduce
I0501 17:07:41.198690 13961 net.cpp:380] inception_4e/3x3 -> inception_4e/3x3
I0501 17:07:41.230317 13961 net.cpp:122] Setting up inception_4e/3x3
I0501 17:07:41.230347 13961 net.cpp:129] Top shape: 32 320 14 14 (2007040)
I0501 17:07:41.230353 13961 net.cpp:137] Memory required for data: 1640154632
I0501 17:07:41.230367 13961 layer_factory.hpp:77] Creating layer inception_4e/relu_3x3
I0501 17:07:41.230381 13961 net.cpp:84] Creating Layer inception_4e/relu_3x3
I0501 17:07:41.230389 13961 net.cpp:406] inception_4e/relu_3x3 <- inception_4e/3x3
I0501 17:07:41.230401 13961 net.cpp:367] inception_4e/relu_3x3 -> inception_4e/3x3 (in-place)
I0501 17:07:41.231078 13961 net.cpp:122] Setting up inception_4e/relu_3x3
I0501 17:07:41.231091 13961 net.cpp:129] Top shape: 32 320 14 14 (2007040)
I0501 17:07:41.231124 13961 net.cpp:137] Memory required for data: 1648182792
I0501 17:07:41.231129 13961 layer_factory.hpp:77] Creating layer inception_4e/5x5_reduce
I0501 17:07:41.231146 13961 net.cpp:84] Creating Layer inception_4e/5x5_reduce
I0501 17:07:41.231153 13961 net.cpp:406] inception_4e/5x5_reduce <- inception_4d/output_inception_4d/output_0_split_3
I0501 17:07:41.231164 13961 net.cpp:380] inception_4e/5x5_reduce -> inception_4e/5x5_reduce
I0501 17:07:41.268152 13961 net.cpp:122] Setting up inception_4e/5x5_reduce
I0501 17:07:41.268183 13961 net.cpp:129] Top shape: 32 32 14 14 (200704)
I0501 17:07:41.268189 13961 net.cpp:137] Memory required for data: 1648985608
I0501 17:07:41.268206 13961 layer_factory.hpp:77] Creating layer inception_4e/relu_5x5_reduce
I0501 17:07:41.268224 13961 net.cpp:84] Creating Layer inception_4e/relu_5x5_reduce
I0501 17:07:41.268234 13961 net.cpp:406] inception_4e/relu_5x5_reduce <- inception_4e/5x5_reduce
I0501 17:07:41.268251 13961 net.cpp:367] inception_4e/relu_5x5_reduce -> inception_4e/5x5_reduce (in-place)
I0501 17:07:41.268944 13961 net.cpp:122] Setting up inception_4e/relu_5x5_reduce
I0501 17:07:41.268963 13961 net.cpp:129] Top shape: 32 32 14 14 (200704)
I0501 17:07:41.268970 13961 net.cpp:137] Memory required for data: 1649788424
I0501 17:07:41.268977 13961 layer_factory.hpp:77] Creating layer inception_4e/5x5
I0501 17:07:41.269027 13961 net.cpp:84] Creating Layer inception_4e/5x5
I0501 17:07:41.269038 13961 net.cpp:406] inception_4e/5x5 <- inception_4e/5x5_reduce
I0501 17:07:41.269049 13961 net.cpp:380] inception_4e/5x5 -> inception_4e/5x5
I0501 17:07:41.273921 13961 net.cpp:122] Setting up inception_4e/5x5
I0501 17:07:41.273949 13961 net.cpp:129] Top shape: 32 128 14 14 (802816)
I0501 17:07:41.273957 13961 net.cpp:137] Memory required for data: 1652999688
I0501 17:07:41.273972 13961 layer_factory.hpp:77] Creating layer inception_4e/relu_5x5
I0501 17:07:41.273983 13961 net.cpp:84] Creating Layer inception_4e/relu_5x5
I0501 17:07:41.273993 13961 net.cpp:406] inception_4e/relu_5x5 <- inception_4e/5x5
I0501 17:07:41.274003 13961 net.cpp:367] inception_4e/relu_5x5 -> inception_4e/5x5 (in-place)
I0501 17:07:41.274731 13961 net.cpp:122] Setting up inception_4e/relu_5x5
I0501 17:07:41.274747 13961 net.cpp:129] Top shape: 32 128 14 14 (802816)
I0501 17:07:41.274755 13961 net.cpp:137] Memory required for data: 1656210952
I0501 17:07:41.274765 13961 layer_factory.hpp:77] Creating layer inception_4e/pool
I0501 17:07:41.274777 13961 net.cpp:84] Creating Layer inception_4e/pool
I0501 17:07:41.274788 13961 net.cpp:406] inception_4e/pool <- inception_4d/output_inception_4d/output_0_split_4
I0501 17:07:41.274803 13961 net.cpp:380] inception_4e/pool -> inception_4e/pool
I0501 17:07:41.274860 13961 net.cpp:122] Setting up inception_4e/pool
I0501 17:07:41.274871 13961 net.cpp:129] Top shape: 32 528 14 14 (3311616)
I0501 17:07:41.274878 13961 net.cpp:137] Memory required for data: 1669457416
I0501 17:07:41.274886 13961 layer_factory.hpp:77] Creating layer inception_4e/pool_proj
I0501 17:07:41.274904 13961 net.cpp:84] Creating Layer inception_4e/pool_proj
I0501 17:07:41.274911 13961 net.cpp:406] inception_4e/pool_proj <- inception_4e/pool
I0501 17:07:41.274921 13961 net.cpp:380] inception_4e/pool_proj -> inception_4e/pool_proj
I0501 17:07:41.294297 13961 net.cpp:122] Setting up inception_4e/pool_proj
I0501 17:07:41.294330 13961 net.cpp:129] Top shape: 32 128 14 14 (802816)
I0501 17:07:41.294340 13961 net.cpp:137] Memory required for data: 1672668680
I0501 17:07:41.294356 13961 layer_factory.hpp:77] Creating layer inception_4e/relu_pool_proj
I0501 17:07:41.294373 13961 net.cpp:84] Creating Layer inception_4e/relu_pool_proj
I0501 17:07:41.294384 13961 net.cpp:406] inception_4e/relu_pool_proj <- inception_4e/pool_proj
I0501 17:07:41.294394 13961 net.cpp:367] inception_4e/relu_pool_proj -> inception_4e/pool_proj (in-place)
I0501 17:07:41.295250 13961 net.cpp:122] Setting up inception_4e/relu_pool_proj
I0501 17:07:41.295269 13961 net.cpp:129] Top shape: 32 128 14 14 (802816)
I0501 17:07:41.295310 13961 net.cpp:137] Memory required for data: 1675879944
I0501 17:07:41.295321 13961 layer_factory.hpp:77] Creating layer inception_4e/output
I0501 17:07:41.295333 13961 net.cpp:84] Creating Layer inception_4e/output
I0501 17:07:41.295343 13961 net.cpp:406] inception_4e/output <- inception_4e/1x1
I0501 17:07:41.295354 13961 net.cpp:406] inception_4e/output <- inception_4e/3x3
I0501 17:07:41.295362 13961 net.cpp:406] inception_4e/output <- inception_4e/5x5
I0501 17:07:41.295370 13961 net.cpp:406] inception_4e/output <- inception_4e/pool_proj
I0501 17:07:41.295379 13961 net.cpp:380] inception_4e/output -> inception_4e/output
I0501 17:07:41.295419 13961 net.cpp:122] Setting up inception_4e/output
I0501 17:07:41.295430 13961 net.cpp:129] Top shape: 32 832 14 14 (5218304)
I0501 17:07:41.295436 13961 net.cpp:137] Memory required for data: 1696753160
I0501 17:07:41.295444 13961 layer_factory.hpp:77] Creating layer pool4/3x3_s2
I0501 17:07:41.295455 13961 net.cpp:84] Creating Layer pool4/3x3_s2
I0501 17:07:41.295461 13961 net.cpp:406] pool4/3x3_s2 <- inception_4e/output
I0501 17:07:41.295470 13961 net.cpp:380] pool4/3x3_s2 -> pool4/3x3_s2
I0501 17:07:41.295524 13961 net.cpp:122] Setting up pool4/3x3_s2
I0501 17:07:41.295536 13961 net.cpp:129] Top shape: 32 832 7 7 (1304576)
I0501 17:07:41.295543 13961 net.cpp:137] Memory required for data: 1701971464
I0501 17:07:41.295549 13961 layer_factory.hpp:77] Creating layer pool4/3x3_s2_pool4/3x3_s2_0_split
I0501 17:07:41.295560 13961 net.cpp:84] Creating Layer pool4/3x3_s2_pool4/3x3_s2_0_split
I0501 17:07:41.295574 13961 net.cpp:406] pool4/3x3_s2_pool4/3x3_s2_0_split <- pool4/3x3_s2
I0501 17:07:41.295586 13961 net.cpp:380] pool4/3x3_s2_pool4/3x3_s2_0_split -> pool4/3x3_s2_pool4/3x3_s2_0_split_0
I0501 17:07:41.295598 13961 net.cpp:380] pool4/3x3_s2_pool4/3x3_s2_0_split -> pool4/3x3_s2_pool4/3x3_s2_0_split_1
I0501 17:07:41.295610 13961 net.cpp:380] pool4/3x3_s2_pool4/3x3_s2_0_split -> pool4/3x3_s2_pool4/3x3_s2_0_split_2
I0501 17:07:41.295621 13961 net.cpp:380] pool4/3x3_s2_pool4/3x3_s2_0_split -> pool4/3x3_s2_pool4/3x3_s2_0_split_3
I0501 17:07:41.295686 13961 net.cpp:122] Setting up pool4/3x3_s2_pool4/3x3_s2_0_split
I0501 17:07:41.295694 13961 net.cpp:129] Top shape: 32 832 7 7 (1304576)
I0501 17:07:41.295703 13961 net.cpp:129] Top shape: 32 832 7 7 (1304576)
I0501 17:07:41.295713 13961 net.cpp:129] Top shape: 32 832 7 7 (1304576)
I0501 17:07:41.295724 13961 net.cpp:129] Top shape: 32 832 7 7 (1304576)
I0501 17:07:41.295733 13961 net.cpp:137] Memory required for data: 1722844680
I0501 17:07:41.295742 13961 layer_factory.hpp:77] Creating layer inception_5a/1x1
I0501 17:07:41.295759 13961 net.cpp:84] Creating Layer inception_5a/1x1
I0501 17:07:41.295768 13961 net.cpp:406] inception_5a/1x1 <- pool4/3x3_s2_pool4/3x3_s2_0_split_0
I0501 17:07:41.295780 13961 net.cpp:380] inception_5a/1x1 -> inception_5a/1x1
I0501 17:07:41.300617 13961 net.cpp:122] Setting up inception_5a/1x1
I0501 17:07:41.300640 13961 net.cpp:129] Top shape: 32 256 7 7 (401408)
I0501 17:07:41.300649 13961 net.cpp:137] Memory required for data: 1724450312
I0501 17:07:41.300662 13961 layer_factory.hpp:77] Creating layer inception_5a/relu_1x1
I0501 17:07:41.300674 13961 net.cpp:84] Creating Layer inception_5a/relu_1x1
I0501 17:07:41.300683 13961 net.cpp:406] inception_5a/relu_1x1 <- inception_5a/1x1
I0501 17:07:41.300694 13961 net.cpp:367] inception_5a/relu_1x1 -> inception_5a/1x1 (in-place)
I0501 17:07:41.306234 13961 net.cpp:122] Setting up inception_5a/relu_1x1
I0501 17:07:41.306257 13961 net.cpp:129] Top shape: 32 256 7 7 (401408)
I0501 17:07:41.306267 13961 net.cpp:137] Memory required for data: 1726055944
I0501 17:07:41.306277 13961 layer_factory.hpp:77] Creating layer inception_5a/3x3_reduce
I0501 17:07:41.306296 13961 net.cpp:84] Creating Layer inception_5a/3x3_reduce
I0501 17:07:41.306308 13961 net.cpp:406] inception_5a/3x3_reduce <- pool4/3x3_s2_pool4/3x3_s2_0_split_1
I0501 17:07:41.306321 13961 net.cpp:380] inception_5a/3x3_reduce -> inception_5a/3x3_reduce
I0501 17:07:41.313622 13961 net.cpp:122] Setting up inception_5a/3x3_reduce
I0501 17:07:41.313654 13961 net.cpp:129] Top shape: 32 160 7 7 (250880)
I0501 17:07:41.313663 13961 net.cpp:137] Memory required for data: 1727059464
I0501 17:07:41.313683 13961 layer_factory.hpp:77] Creating layer inception_5a/relu_3x3_reduce
I0501 17:07:41.313699 13961 net.cpp:84] Creating Layer inception_5a/relu_3x3_reduce
I0501 17:07:41.313712 13961 net.cpp:406] inception_5a/relu_3x3_reduce <- inception_5a/3x3_reduce
I0501 17:07:41.313727 13961 net.cpp:367] inception_5a/relu_3x3_reduce -> inception_5a/3x3_reduce (in-place)
I0501 17:07:41.314285 13961 net.cpp:122] Setting up inception_5a/relu_3x3_reduce
I0501 17:07:41.314302 13961 net.cpp:129] Top shape: 32 160 7 7 (250880)
I0501 17:07:41.314308 13961 net.cpp:137] Memory required for data: 1728062984
I0501 17:07:41.314316 13961 layer_factory.hpp:77] Creating layer inception_5a/3x3
I0501 17:07:41.314337 13961 net.cpp:84] Creating Layer inception_5a/3x3
I0501 17:07:41.314343 13961 net.cpp:406] inception_5a/3x3 <- inception_5a/3x3_reduce
I0501 17:07:41.314357 13961 net.cpp:380] inception_5a/3x3 -> inception_5a/3x3
I0501 17:07:41.365490 13961 net.cpp:122] Setting up inception_5a/3x3
I0501 17:07:41.365520 13961 net.cpp:129] Top shape: 32 320 7 7 (501760)
I0501 17:07:41.365530 13961 net.cpp:137] Memory required for data: 1730070024
I0501 17:07:41.365547 13961 layer_factory.hpp:77] Creating layer inception_5a/relu_3x3
I0501 17:07:41.365561 13961 net.cpp:84] Creating Layer inception_5a/relu_3x3
I0501 17:07:41.365573 13961 net.cpp:406] inception_5a/relu_3x3 <- inception_5a/3x3
I0501 17:07:41.365590 13961 net.cpp:367] inception_5a/relu_3x3 -> inception_5a/3x3 (in-place)
I0501 17:07:41.366413 13961 net.cpp:122] Setting up inception_5a/relu_3x3
I0501 17:07:41.366431 13961 net.cpp:129] Top shape: 32 320 7 7 (501760)
I0501 17:07:41.366439 13961 net.cpp:137] Memory required for data: 1732077064
I0501 17:07:41.366447 13961 layer_factory.hpp:77] Creating layer inception_5a/5x5_reduce
I0501 17:07:41.366467 13961 net.cpp:84] Creating Layer inception_5a/5x5_reduce
I0501 17:07:41.366477 13961 net.cpp:406] inception_5a/5x5_reduce <- pool4/3x3_s2_pool4/3x3_s2_0_split_2
I0501 17:07:41.366530 13961 net.cpp:380] inception_5a/5x5_reduce -> inception_5a/5x5_reduce
I0501 17:07:41.377288 13961 net.cpp:122] Setting up inception_5a/5x5_reduce
I0501 17:07:41.377318 13961 net.cpp:129] Top shape: 32 32 7 7 (50176)
I0501 17:07:41.377326 13961 net.cpp:137] Memory required for data: 1732277768
I0501 17:07:41.377343 13961 layer_factory.hpp:77] Creating layer inception_5a/relu_5x5_reduce
I0501 17:07:41.377362 13961 net.cpp:84] Creating Layer inception_5a/relu_5x5_reduce
I0501 17:07:41.377372 13961 net.cpp:406] inception_5a/relu_5x5_reduce <- inception_5a/5x5_reduce
I0501 17:07:41.377384 13961 net.cpp:367] inception_5a/relu_5x5_reduce -> inception_5a/5x5_reduce (in-place)
I0501 17:07:41.380481 13961 net.cpp:122] Setting up inception_5a/relu_5x5_reduce
I0501 17:07:41.380497 13961 net.cpp:129] Top shape: 32 32 7 7 (50176)
I0501 17:07:41.380506 13961 net.cpp:137] Memory required for data: 1732478472
I0501 17:07:41.380513 13961 layer_factory.hpp:77] Creating layer inception_5a/5x5
I0501 17:07:41.380537 13961 net.cpp:84] Creating Layer inception_5a/5x5
I0501 17:07:41.380548 13961 net.cpp:406] inception_5a/5x5 <- inception_5a/5x5_reduce
I0501 17:07:41.380563 13961 net.cpp:380] inception_5a/5x5 -> inception_5a/5x5
I0501 17:07:41.385242 13961 net.cpp:122] Setting up inception_5a/5x5
I0501 17:07:41.385272 13961 net.cpp:129] Top shape: 32 128 7 7 (200704)
I0501 17:07:41.385282 13961 net.cpp:137] Memory required for data: 1733281288
I0501 17:07:41.385298 13961 layer_factory.hpp:77] Creating layer inception_5a/relu_5x5
I0501 17:07:41.385319 13961 net.cpp:84] Creating Layer inception_5a/relu_5x5
I0501 17:07:41.385329 13961 net.cpp:406] inception_5a/relu_5x5 <- inception_5a/5x5
I0501 17:07:41.385342 13961 net.cpp:367] inception_5a/relu_5x5 -> inception_5a/5x5 (in-place)
I0501 17:07:41.386180 13961 net.cpp:122] Setting up inception_5a/relu_5x5
I0501 17:07:41.386227 13961 net.cpp:129] Top shape: 32 128 7 7 (200704)
I0501 17:07:41.386237 13961 net.cpp:137] Memory required for data: 1734084104
I0501 17:07:41.386245 13961 layer_factory.hpp:77] Creating layer inception_5a/pool
I0501 17:07:41.386260 13961 net.cpp:84] Creating Layer inception_5a/pool
I0501 17:07:41.386268 13961 net.cpp:406] inception_5a/pool <- pool4/3x3_s2_pool4/3x3_s2_0_split_3
I0501 17:07:41.386284 13961 net.cpp:380] inception_5a/pool -> inception_5a/pool
I0501 17:07:41.386356 13961 net.cpp:122] Setting up inception_5a/pool
I0501 17:07:41.386370 13961 net.cpp:129] Top shape: 32 832 7 7 (1304576)
I0501 17:07:41.386379 13961 net.cpp:137] Memory required for data: 1739302408
I0501 17:07:41.386389 13961 layer_factory.hpp:77] Creating layer inception_5a/pool_proj
I0501 17:07:41.386410 13961 net.cpp:84] Creating Layer inception_5a/pool_proj
I0501 17:07:41.386420 13961 net.cpp:406] inception_5a/pool_proj <- inception_5a/pool
I0501 17:07:41.386435 13961 net.cpp:380] inception_5a/pool_proj -> inception_5a/pool_proj
I0501 17:07:41.390933 13961 net.cpp:122] Setting up inception_5a/pool_proj
I0501 17:07:41.390950 13961 net.cpp:129] Top shape: 32 128 7 7 (200704)
I0501 17:07:41.390959 13961 net.cpp:137] Memory required for data: 1740105224
I0501 17:07:41.390970 13961 layer_factory.hpp:77] Creating layer inception_5a/relu_pool_proj
I0501 17:07:41.390986 13961 net.cpp:84] Creating Layer inception_5a/relu_pool_proj
I0501 17:07:41.390998 13961 net.cpp:406] inception_5a/relu_pool_proj <- inception_5a/pool_proj
I0501 17:07:41.391011 13961 net.cpp:367] inception_5a/relu_pool_proj -> inception_5a/pool_proj (in-place)
I0501 17:07:41.391821 13961 net.cpp:122] Setting up inception_5a/relu_pool_proj
I0501 17:07:41.391839 13961 net.cpp:129] Top shape: 32 128 7 7 (200704)
I0501 17:07:41.391845 13961 net.cpp:137] Memory required for data: 1740908040
I0501 17:07:41.391852 13961 layer_factory.hpp:77] Creating layer inception_5a/output
I0501 17:07:41.391866 13961 net.cpp:84] Creating Layer inception_5a/output
I0501 17:07:41.391875 13961 net.cpp:406] inception_5a/output <- inception_5a/1x1
I0501 17:07:41.391885 13961 net.cpp:406] inception_5a/output <- inception_5a/3x3
I0501 17:07:41.391896 13961 net.cpp:406] inception_5a/output <- inception_5a/5x5
I0501 17:07:41.391904 13961 net.cpp:406] inception_5a/output <- inception_5a/pool_proj
I0501 17:07:41.391916 13961 net.cpp:380] inception_5a/output -> inception_5a/output
I0501 17:07:41.391963 13961 net.cpp:122] Setting up inception_5a/output
I0501 17:07:41.391976 13961 net.cpp:129] Top shape: 32 832 7 7 (1304576)
I0501 17:07:41.391985 13961 net.cpp:137] Memory required for data: 1746126344
I0501 17:07:41.391991 13961 layer_factory.hpp:77] Creating layer inception_5a/output_inception_5a/output_0_split
I0501 17:07:41.392002 13961 net.cpp:84] Creating Layer inception_5a/output_inception_5a/output_0_split
I0501 17:07:41.392010 13961 net.cpp:406] inception_5a/output_inception_5a/output_0_split <- inception_5a/output
I0501 17:07:41.392022 13961 net.cpp:380] inception_5a/output_inception_5a/output_0_split -> inception_5a/output_inception_5a/output_0_split_0
I0501 17:07:41.392037 13961 net.cpp:380] inception_5a/output_inception_5a/output_0_split -> inception_5a/output_inception_5a/output_0_split_1
I0501 17:07:41.392051 13961 net.cpp:380] inception_5a/output_inception_5a/output_0_split -> inception_5a/output_inception_5a/output_0_split_2
I0501 17:07:41.392066 13961 net.cpp:380] inception_5a/output_inception_5a/output_0_split -> inception_5a/output_inception_5a/output_0_split_3
I0501 17:07:41.392156 13961 net.cpp:122] Setting up inception_5a/output_inception_5a/output_0_split
I0501 17:07:41.392169 13961 net.cpp:129] Top shape: 32 832 7 7 (1304576)
I0501 17:07:41.392180 13961 net.cpp:129] Top shape: 32 832 7 7 (1304576)
I0501 17:07:41.392189 13961 net.cpp:129] Top shape: 32 832 7 7 (1304576)
I0501 17:07:41.392199 13961 net.cpp:129] Top shape: 32 832 7 7 (1304576)
I0501 17:07:41.392205 13961 net.cpp:137] Memory required for data: 1766999560
I0501 17:07:41.392212 13961 layer_factory.hpp:77] Creating layer inception_5b/1x1
I0501 17:07:41.392248 13961 net.cpp:84] Creating Layer inception_5b/1x1
I0501 17:07:41.392257 13961 net.cpp:406] inception_5b/1x1 <- inception_5a/output_inception_5a/output_0_split_0
I0501 17:07:41.392272 13961 net.cpp:380] inception_5b/1x1 -> inception_5b/1x1
I0501 17:07:41.418642 13961 net.cpp:122] Setting up inception_5b/1x1
I0501 17:07:41.418670 13961 net.cpp:129] Top shape: 32 384 7 7 (602112)
I0501 17:07:41.418678 13961 net.cpp:137] Memory required for data: 1769408008
I0501 17:07:41.418692 13961 layer_factory.hpp:77] Creating layer inception_5b/relu_1x1
I0501 17:07:41.418709 13961 net.cpp:84] Creating Layer inception_5b/relu_1x1
I0501 17:07:41.418718 13961 net.cpp:406] inception_5b/relu_1x1 <- inception_5b/1x1
I0501 17:07:41.418730 13961 net.cpp:367] inception_5b/relu_1x1 -> inception_5b/1x1 (in-place)
I0501 17:07:41.419308 13961 net.cpp:122] Setting up inception_5b/relu_1x1
I0501 17:07:41.419323 13961 net.cpp:129] Top shape: 32 384 7 7 (602112)
I0501 17:07:41.419329 13961 net.cpp:137] Memory required for data: 1771816456
I0501 17:07:41.419335 13961 layer_factory.hpp:77] Creating layer inception_5b/3x3_reduce
I0501 17:07:41.419354 13961 net.cpp:84] Creating Layer inception_5b/3x3_reduce
I0501 17:07:41.419361 13961 net.cpp:406] inception_5b/3x3_reduce <- inception_5a/output_inception_5a/output_0_split_1
I0501 17:07:41.419373 13961 net.cpp:380] inception_5b/3x3_reduce -> inception_5b/3x3_reduce
I0501 17:07:41.424922 13961 net.cpp:122] Setting up inception_5b/3x3_reduce
I0501 17:07:41.424957 13961 net.cpp:129] Top shape: 32 192 7 7 (301056)
I0501 17:07:41.424964 13961 net.cpp:137] Memory required for data: 1773020680
I0501 17:07:41.424979 13961 layer_factory.hpp:77] Creating layer inception_5b/relu_3x3_reduce
I0501 17:07:41.424994 13961 net.cpp:84] Creating Layer inception_5b/relu_3x3_reduce
I0501 17:07:41.425004 13961 net.cpp:406] inception_5b/relu_3x3_reduce <- inception_5b/3x3_reduce
I0501 17:07:41.425014 13961 net.cpp:367] inception_5b/relu_3x3_reduce -> inception_5b/3x3_reduce (in-place)
I0501 17:07:41.425595 13961 net.cpp:122] Setting up inception_5b/relu_3x3_reduce
I0501 17:07:41.425611 13961 net.cpp:129] Top shape: 32 192 7 7 (301056)
I0501 17:07:41.425616 13961 net.cpp:137] Memory required for data: 1774224904
I0501 17:07:41.425622 13961 layer_factory.hpp:77] Creating layer inception_5b/3x3
I0501 17:07:41.425642 13961 net.cpp:84] Creating Layer inception_5b/3x3
I0501 17:07:41.425649 13961 net.cpp:406] inception_5b/3x3 <- inception_5b/3x3_reduce
I0501 17:07:41.425663 13961 net.cpp:380] inception_5b/3x3 -> inception_5b/3x3
I0501 17:07:41.520401 13961 net.cpp:122] Setting up inception_5b/3x3
I0501 17:07:41.520433 13961 net.cpp:129] Top shape: 32 384 7 7 (602112)
I0501 17:07:41.520440 13961 net.cpp:137] Memory required for data: 1776633352
I0501 17:07:41.520455 13961 layer_factory.hpp:77] Creating layer inception_5b/relu_3x3
I0501 17:07:41.520473 13961 net.cpp:84] Creating Layer inception_5b/relu_3x3
I0501 17:07:41.520483 13961 net.cpp:406] inception_5b/relu_3x3 <- inception_5b/3x3
I0501 17:07:41.520493 13961 net.cpp:367] inception_5b/relu_3x3 -> inception_5b/3x3 (in-place)
I0501 17:07:41.521556 13961 net.cpp:122] Setting up inception_5b/relu_3x3
I0501 17:07:41.521572 13961 net.cpp:129] Top shape: 32 384 7 7 (602112)
I0501 17:07:41.521577 13961 net.cpp:137] Memory required for data: 1779041800
I0501 17:07:41.521584 13961 layer_factory.hpp:77] Creating layer inception_5b/5x5_reduce
I0501 17:07:41.521603 13961 net.cpp:84] Creating Layer inception_5b/5x5_reduce
I0501 17:07:41.521611 13961 net.cpp:406] inception_5b/5x5_reduce <- inception_5a/output_inception_5a/output_0_split_2
I0501 17:07:41.521625 13961 net.cpp:380] inception_5b/5x5_reduce -> inception_5b/5x5_reduce
I0501 17:07:41.525734 13961 net.cpp:122] Setting up inception_5b/5x5_reduce
I0501 17:07:41.525755 13961 net.cpp:129] Top shape: 32 48 7 7 (75264)
I0501 17:07:41.525760 13961 net.cpp:137] Memory required for data: 1779342856
I0501 17:07:41.525771 13961 layer_factory.hpp:77] Creating layer inception_5b/relu_5x5_reduce
I0501 17:07:41.525782 13961 net.cpp:84] Creating Layer inception_5b/relu_5x5_reduce
I0501 17:07:41.525815 13961 net.cpp:406] inception_5b/relu_5x5_reduce <- inception_5b/5x5_reduce
I0501 17:07:41.525826 13961 net.cpp:367] inception_5b/relu_5x5_reduce -> inception_5b/5x5_reduce (in-place)
I0501 17:07:41.526669 13961 net.cpp:122] Setting up inception_5b/relu_5x5_reduce
I0501 17:07:41.526688 13961 net.cpp:129] Top shape: 32 48 7 7 (75264)
I0501 17:07:41.526695 13961 net.cpp:137] Memory required for data: 1779643912
I0501 17:07:41.526701 13961 layer_factory.hpp:77] Creating layer inception_5b/5x5
I0501 17:07:41.526720 13961 net.cpp:84] Creating Layer inception_5b/5x5
I0501 17:07:41.526727 13961 net.cpp:406] inception_5b/5x5 <- inception_5b/5x5_reduce
I0501 17:07:41.526738 13961 net.cpp:380] inception_5b/5x5 -> inception_5b/5x5
I0501 17:07:41.531553 13961 net.cpp:122] Setting up inception_5b/5x5
I0501 17:07:41.531580 13961 net.cpp:129] Top shape: 32 128 7 7 (200704)
I0501 17:07:41.531586 13961 net.cpp:137] Memory required for data: 1780446728
I0501 17:07:41.531601 13961 layer_factory.hpp:77] Creating layer inception_5b/relu_5x5
I0501 17:07:41.531615 13961 net.cpp:84] Creating Layer inception_5b/relu_5x5
I0501 17:07:41.531625 13961 net.cpp:406] inception_5b/relu_5x5 <- inception_5b/5x5
I0501 17:07:41.531641 13961 net.cpp:367] inception_5b/relu_5x5 -> inception_5b/5x5 (in-place)
I0501 17:07:41.532490 13961 net.cpp:122] Setting up inception_5b/relu_5x5
I0501 17:07:41.532506 13961 net.cpp:129] Top shape: 32 128 7 7 (200704)
I0501 17:07:41.532512 13961 net.cpp:137] Memory required for data: 1781249544
I0501 17:07:41.532518 13961 layer_factory.hpp:77] Creating layer inception_5b/pool
I0501 17:07:41.532531 13961 net.cpp:84] Creating Layer inception_5b/pool
I0501 17:07:41.532537 13961 net.cpp:406] inception_5b/pool <- inception_5a/output_inception_5a/output_0_split_3
I0501 17:07:41.532550 13961 net.cpp:380] inception_5b/pool -> inception_5b/pool
I0501 17:07:41.532622 13961 net.cpp:122] Setting up inception_5b/pool
I0501 17:07:41.532635 13961 net.cpp:129] Top shape: 32 832 7 7 (1304576)
I0501 17:07:41.532641 13961 net.cpp:137] Memory required for data: 1786467848
I0501 17:07:41.532647 13961 layer_factory.hpp:77] Creating layer inception_5b/pool_proj
I0501 17:07:41.532670 13961 net.cpp:84] Creating Layer inception_5b/pool_proj
I0501 17:07:41.532676 13961 net.cpp:406] inception_5b/pool_proj <- inception_5b/pool
I0501 17:07:41.532687 13961 net.cpp:380] inception_5b/pool_proj -> inception_5b/pool_proj
I0501 17:07:41.575507 13961 net.cpp:122] Setting up inception_5b/pool_proj
I0501 17:07:41.575537 13961 net.cpp:129] Top shape: 32 128 7 7 (200704)
I0501 17:07:41.575544 13961 net.cpp:137] Memory required for data: 1787270664
I0501 17:07:41.575557 13961 layer_factory.hpp:77] Creating layer inception_5b/relu_pool_proj
I0501 17:07:41.575573 13961 net.cpp:84] Creating Layer inception_5b/relu_pool_proj
I0501 17:07:41.575582 13961 net.cpp:406] inception_5b/relu_pool_proj <- inception_5b/pool_proj
I0501 17:07:41.575592 13961 net.cpp:367] inception_5b/relu_pool_proj -> inception_5b/pool_proj (in-place)
I0501 17:07:41.576437 13961 net.cpp:122] Setting up inception_5b/relu_pool_proj
I0501 17:07:41.576454 13961 net.cpp:129] Top shape: 32 128 7 7 (200704)
I0501 17:07:41.576460 13961 net.cpp:137] Memory required for data: 1788073480
I0501 17:07:41.576467 13961 layer_factory.hpp:77] Creating layer inception_5b/output
I0501 17:07:41.576480 13961 net.cpp:84] Creating Layer inception_5b/output
I0501 17:07:41.576488 13961 net.cpp:406] inception_5b/output <- inception_5b/1x1
I0501 17:07:41.576495 13961 net.cpp:406] inception_5b/output <- inception_5b/3x3
I0501 17:07:41.576501 13961 net.cpp:406] inception_5b/output <- inception_5b/5x5
I0501 17:07:41.576508 13961 net.cpp:406] inception_5b/output <- inception_5b/pool_proj
I0501 17:07:41.576515 13961 net.cpp:380] inception_5b/output -> inception_5b/output
I0501 17:07:41.576567 13961 net.cpp:122] Setting up inception_5b/output
I0501 17:07:41.576578 13961 net.cpp:129] Top shape: 32 1024 7 7 (1605632)
I0501 17:07:41.576583 13961 net.cpp:137] Memory required for data: 1794496008
I0501 17:07:41.576617 13961 layer_factory.hpp:77] Creating layer pool5/7x7_s1
I0501 17:07:41.576630 13961 net.cpp:84] Creating Layer pool5/7x7_s1
I0501 17:07:41.576637 13961 net.cpp:406] pool5/7x7_s1 <- inception_5b/output
I0501 17:07:41.576645 13961 net.cpp:380] pool5/7x7_s1 -> pool5/7x7_s1
I0501 17:07:41.579341 13961 net.cpp:122] Setting up pool5/7x7_s1
I0501 17:07:41.579362 13961 net.cpp:129] Top shape: 32 1024 1 1 (32768)
I0501 17:07:41.579368 13961 net.cpp:137] Memory required for data: 1794627080
I0501 17:07:41.579375 13961 layer_factory.hpp:77] Creating layer pool5/drop_7x7_s1
I0501 17:07:41.579385 13961 net.cpp:84] Creating Layer pool5/drop_7x7_s1
I0501 17:07:41.579391 13961 net.cpp:406] pool5/drop_7x7_s1 <- pool5/7x7_s1
I0501 17:07:41.579399 13961 net.cpp:367] pool5/drop_7x7_s1 -> pool5/7x7_s1 (in-place)
I0501 17:07:41.579440 13961 net.cpp:122] Setting up pool5/drop_7x7_s1
I0501 17:07:41.579452 13961 net.cpp:129] Top shape: 32 1024 1 1 (32768)
I0501 17:07:41.579455 13961 net.cpp:137] Memory required for data: 1794758152
I0501 17:07:41.579461 13961 layer_factory.hpp:77] Creating layer loss3/classifier
I0501 17:07:41.579475 13961 net.cpp:84] Creating Layer loss3/classifier
I0501 17:07:41.579481 13961 net.cpp:406] loss3/classifier <- pool5/7x7_s1
I0501 17:07:41.579490 13961 net.cpp:380] loss3/classifier -> loss3/classifier
I0501 17:07:41.581393 13961 net.cpp:122] Setting up loss3/classifier
I0501 17:07:41.581405 13961 net.cpp:129] Top shape: 32 196 (6272)
I0501 17:07:41.581410 13961 net.cpp:137] Memory required for data: 1794783240
I0501 17:07:41.581420 13961 layer_factory.hpp:77] Creating layer loss3/loss
I0501 17:07:41.581429 13961 net.cpp:84] Creating Layer loss3/loss
I0501 17:07:41.581435 13961 net.cpp:406] loss3/loss <- loss3/classifier
I0501 17:07:41.581442 13961 net.cpp:406] loss3/loss <- label_train-data_1_split_2
I0501 17:07:41.581450 13961 net.cpp:380] loss3/loss -> loss
…
I0501 17:07:41.591899 13961 net.cpp:294] The NetState phase (1) differed from the phase (0) specified by a rule in layer train-data
I0501 17:07:41.593684 13961 net.cpp:51] Initializing net from parameters:
state {
phase: TEST
}
layer {
name: "val-data"
type: "Data"
top: "data"
top: "label"
include {
phase: TEST
}
transform_param {
mirror: false
crop_size: 224
mean_file: "/mnt/bigdisk/MANDIG2/digits/jobs/20200428-132136-11fe/mean.binaryproto"
}
data_param {
source: "/mnt/bigdisk/MANDIG2/digits/jobs/20200428-132136-11fe/val_db"
batch_size: 16
backend: LMDB
}
}
layer {
name: "conv1/7x7_s2"
type: "Convolution"
bottom: "data"
top: "conv1/7x7_s2"
param {
lr_mult: 1
decay_mult: 1
}
param {
lr_mult: 2
decay_mult: 0
}
convolution_param {
num_output: 64
pad: 3
kernel_size: 7
stride: 2
weight_filler {
type: "xavier"
std: 0.1
}
bias_filler {
type: "constant"
value: 0.2
}
}
}
layer {
name: "conv1/relu_7x7"
type: "ReLU"
bottom: "conv1/7x7_s2"
top: "conv1/7x7_s2"
}
layer {
name: "pool1/3x3_s2"
type: "Pooling"
bottom: "conv1/7x7_s2"
top: "pool1/3x3_s2"
pooling_param {
pool: MAX
kernel_size: 3
stride: 2
}
}
layer {
name: "pool1/norm1"
type: "LRN"
bottom: "pool1/3x3_s2"
top: "pool1/norm1"
lrn_param {
local_size: 5
alpha: 0.0001
beta: 0.75
}
}
layer {
name: "conv2/3x3_reduce"
type: "Convolution"
bottom: "pool1/norm1"
top: "conv2/3x3_reduce"
param {
lr_mult: 1
decay_mult: 1
}
param {
lr_mult: 2
decay_mult: 0
}
convolution_param {
num_output: 64
kernel_size: 1
weight_filler {
type: "xavier"
std: 0.1
}
bias_filler {
type: "constant"
value: 0.2
}
}
}
layer {
name: "conv2/relu_3x3_reduce"
type: "ReLU"
bottom: "conv2/3x3_reduce"
top: "conv2/3x3_reduce"
}
layer {
name: "conv2/3x3"
type: "Convolution"
bottom: "conv2/3x3_reduce"
top: "conv2/3x3"
param {
lr_mult: 1
decay_mult: 1
}
param {
lr_mult: 2
decay_mult: 0
}
convolution_param {
num_output: 192
pad: 1
kernel_size: 3
weight_filler {
type: "xavier"
std: 0.03
}
bias_filler {
type: "constant"
value: 0.2
}
}
}
layer {
name: "conv2/relu_3x3"
type: "ReLU"
bottom: "conv2/3x3"
top: "conv2/3x3"
}
layer {
name: "conv2/norm2"
type: "LRN"
bottom: "conv2/3x3"
top: "conv2/norm2"
lrn_param {
local_size: 5
alpha: 0.0001
beta: 0.75
}
}
layer {
name: "pool2/3x3_s2"
type: "Pooling"
bottom: "conv2/norm2"
top: "pool2/3x3_s2"
pooling_param {
pool: MAX
kernel_size: 3
stride: 2
}
}
layer {
name: "inception_3a/1x1"
type: "Convolution"
bottom: "pool2/3x3_s2"
top: "inception_3a/1x1"
param {
lr_mult: 1
decay_mult: 1
}
param {
lr_mult: 2
decay_mult: 0
}
convolution_param {
num_output: 64
kernel_size: 1
weight_filler {
type: "xavier"
std: 0.03
}
bias_filler {
type: "constant"
value: 0.2
}
}
}
layer {
name: "inception_3a/relu_1x1"
type: "ReLU"
bottom: "inception_3a/1x1"
top: "inception_3a/1x1"
}
layer {
name: "inception_3a/3x3_reduce"
type: "Convolution"
bottom: "pool2/3x3_s2"
top: "inception_3a/3x3_reduce"
param {
lr_mult: 1
decay_mult: 1
}
param {
lr_mult: 2
decay_mult: 0
}
convolution_param {
num_output: 96
kernel_size: 1
weight_filler {
type: "xavier"
std: 0.09
}
bias_filler {
type: "constant"
value: 0.2
}
}
}
layer {
name: "inception_3a/relu_3x3_reduce"
type: "ReLU"
bottom: "inception_3a/3x3_reduce"
top: "inception_3a/3x3_reduce"
}
layer {
name: "inception_3a/3x3"
type: "Convolution"
bottom: "inception_3a/3x3_reduce"
top: "inception_3a/3x3"
param {
lr_mult: 1
decay_mult: 1
}
param {
lr_mult: 2
decay_mult: 0
}
convolution_param {
num_output: 128
pad: 1
kernel_size: 3
weight_filler {
type: "xavier"
std: 0.03
}
bias_filler {
type: "constant"
value: 0.2
}
}
}
layer {
name: "inception_3a/relu_3x3"
type: "ReLU"
bottom: "inception_3a/3x3"
top: "inception_3a/3x3"
}
layer {
name: "inception_3a/5x5_reduce"
type: "Convolution"
bottom: "pool2/3x3_s2"
top: "inception_3a/5x5_reduce"
param {
lr_mult: 1
decay_mult: 1
}
param {
lr_mult: 2
decay_mult: 0
}
convolution_param {
num_output: 16
kernel_size: 1
weight_filler {
type: "xavier"
std: 0.2
}
bias_filler {
type: "constant"
value: 0.2
}
}
}
layer {
name: "inception_3a/relu_5x5_reduce"
type: "ReLU"
bottom: "inception_3a/5x5_reduce"
top: "inception_3a/5x5_reduce"
}
layer {
name: "inception_3a/5x5"
type: "Convolution"
bottom: "inception_3a/5x5_reduce"
top: "inception_3a/5x5"
param {
lr_mult: 1
decay_mult: 1
}
param {
lr_mult: 2
decay_mult: 0
}
convolution_param {
num_output: 32
pad: 2
kernel_size: 5
weight_filler {
type: "xavier"
std: 0.03
}
bias_filler {
type: "constant"
value: 0.2
}
}
}
layer {
name: "inception_3a/relu_5x5"
type: "ReLU"
bottom: "inception_3a/5x5"
top: "inception_3a/5x5"
}
layer {
name: "inception_3a/pool"
type: "Pooling"
bottom: "pool2/3x3_s2"
top: "inception_3a/pool"
pooling_param {
pool: MAX
kernel_size: 3
stride: 1
pad: 1
}
}
layer {
name: "inception_3a/pool_proj"
type: "Convolution"
bottom: "inception_3a/pool"
top: "inception_3a/pool_proj"
param {
lr_mult: 1
decay_mult: 1
}
param {
lr_mult: 2
decay_mult: 0
}
convolution_param {
num_output: 32
kernel_size: 1
weight_filler {
type: "xavier"
std: 0.1
}
bias_filler {
type: "constant"
value: 0.2
}
}
}
layer {
name: "inception_3a/relu_pool_proj"
type: "ReLU"
bottom: "inception_3a/pool_proj"
top: "inception_3a/pool_proj"
}
layer {
name: "inception_3a/output"
type: "Concat"
bottom: "inception_3a/1x1"
bottom: "inception_3a/3x3"
bottom: "inception_3a/5x5"
bottom: "inception_3a/pool_proj"
top: "inception_3a/output"
}
layer {
name: "inception_3b/1x1"
type: "Convolution"
bottom: "inception_3a/output"
top: "inception_3b/1x1"
param {
lr_mult: 1
decay_mult: 1
}
param {
lr_mult: 2
decay_mult: 0
}
convolution_param {
num_output: 128
kernel_size: 1
weight_filler {
type: "xavier"
std: 0.03
}
bias_filler {
type: "constant"
value: 0.2
}
}
}
layer {
name: "inception_3b/relu_1x1"
type: "ReLU"
bottom: "inception_3b/1x1"
top: "inception_3b/1x1"
}
layer {
name: "inception_3b/3x3_reduce"
type: "Convolution"
bottom: "inception_3a/output"
top: "inception_3b/3x3_reduce"
param {
lr_mult: 1
decay_mult: 1
}
param {
lr_mult: 2
decay_mult: 0
}
convolution_param {
num_output: 128
kernel_size: 1
weight_filler {
type: "xavier"
std: 0.09
}
bias_filler {
type: "constant"
value: 0.2
}
}
}
layer {
name: "inception_3b/relu_3x3_reduce"
type: "ReLU"
bottom: "inception_3b/3x3_reduce"
top: "inception_3b/3x3_reduce"
}
layer {
name: "inception_3b/3x3"
type: "Convolution"
bottom: "inception_3b/3x3_reduce"
top: "inception_3b/3x3"
param {
lr_mult: 1
decay_mult: 1
}
param {
lr_mult: 2
decay_mult: 0
}
convolution_param {
num_output: 192
pad: 1
kernel_size: 3
weight_filler {
type: "xavier"
std: 0.03
}
bias_filler {
type: "constant"
value: 0.2
}
}
}
layer {
name: "inception_3b/relu_3x3"
type: "ReLU"
bottom: "inception_3b/3x3"
top: "inception_3b/3x3"
}
layer {
name: "inception_3b/5x5_reduce"
type: "Convolution"
bottom: "inception_3a/output"
top: "inception_3b/5x5_reduce"
param {
lr_mult: 1
decay_mult: 1
}
param {
lr_mult: 2
decay_mult: 0
}
convolution_param {
num_output: 32
kernel_size: 1
weight_filler {
type: "xavier"
std: 0.2
}
bias_filler {
type: "constant"
value: 0.2
}
}
}
layer {
name: "inception_3b/relu_5x5_reduce"
type: "ReLU"
bottom: "inception_3b/5x5_reduce"
top: "inception_3b/5x5_reduce"
}
layer {
name: "inception_3b/5x5"
type: "Convolution"
bottom: "inception_3b/5x5_reduce"
top: "inception_3b/5x5"
param {
lr_mult: 1
decay_mult: 1
}
param {
lr_mult: 2
decay_mult: 0
}
convolution_param {
num_output: 96
pad: 2
kernel_size: 5
weight_filler {
type: "xavier"
std: 0.03
}
bias_filler {
type: "constant"
value: 0.2
}
}
}
layer {
name: "inception_3b/relu_5x5"
type: "ReLU"
bottom: "inception_3b/5x5"
top: "inception_3b/5x5"
}
layer {
name: "inception_3b/pool"
type: "Pooling"
bottom: "inception_3a/output"
top: "inception_3b/pool"
pooling_param {
pool: MAX
kernel_size: 3
stride: 1
pad: 1
}
}
layer {
name: "inception_3b/pool_proj"
type: "Convolution"
bottom: "inception_3b/pool"
top: "inception_3b/pool_proj"
param {
lr_mult: 1
decay_mult: 1
}
param {
lr_mult: 2
decay_mult: 0
}
convolution_param {
num_output: 64
kernel_size: 1
weight_filler {
type: "xavier"
std: 0.1
}
bias_filler {
type: "constant"
value: 0.2
}
}
}
layer {
name: "inception_3b/relu_pool_proj"
type: "ReLU"
bottom: "inception_3b/pool_proj"
top: "inception_3b/pool_proj"
}
layer {
name: "inception_3b/output"
type: "Concat"
bottom: "inception_3b/1x1"
bottom: "inception_3b/3x3"
bottom: "inception_3b/5x5"
bottom: "inception_3b/pool_proj"
top: "inception_3b/output"
}
layer {
name: "pool3/3x3_s2"
type: "Pooling"
bottom: "inception_3b/output"
top: "pool3/3x3_s2"
pooling_param {
pool: MAX
kernel_size: 3
stride: 2
}
}
layer {
name: "inception_4a/1x1"
type: "Convolution"
bottom: "pool3/3x3_s2"
top: "inception_4a/1x1"
param {
lr_mult: 1
decay_mult: 1
}
param {
lr_mult: 2
decay_mult: 0
}
convolution_param {
num_output: 192
kernel_size: 1
weight_filler {
type: "xavier"
std: 0.03
}
bias_filler {
type: "constant"
value: 0.2
}
}
}
layer {
name: "inception_4a/relu_1x1"
type: "ReLU"
bottom: "inception_4a/1x1"
top: "inception_4a/1x1"
}
layer {
name: "inception_4a/3x3_reduce"
type: "Convolution"
bottom: "pool3/3x3_s2"
top: "inception_4a/3x3_reduce"
param {
lr_mult: 1
decay_mult: 1
}
param {
lr_mult: 2
decay_mult: 0
}
convolution_param {
num_output: 96
kernel_size: 1
weight_filler {
type: "xavier"
std: 0.09
}
bias_filler {
type: "constant"
value: 0.2
}
}
}
layer {
name: "inception_4a/relu_3x3_reduce"
type: "ReLU"
bottom: "inception_4a/3x3_reduce"
top: "inception_4a/3x3_reduce"
}
layer {
name: "inception_4a/3x3"
type: "Convolution"
bottom: "inception_4a/3x3_reduce"
top: "inception_4a/3x3"
param {
lr_mult: 1
decay_mult: 1
}
param {
lr_mult: 2
decay_mult: 0
}
convolution_param {
num_output: 208
pad: 1
kernel_size: 3
weight_filler {
type: "xavier"
std: 0.03
}
bias_filler {
type: "constant"
value: 0.2
}
}
}
layer {
name: "inception_4a/relu_3x3"
type: "ReLU"
bottom: "inception_4a/3x3"
top: "inception_4a/3x3"
}
layer {
name: "inception_4a/5x5_reduce"
type: "Convolution"
bottom: "pool3/3x3_s2"
top: "inception_4a/5x5_reduce"
param {
lr_mult: 1
decay_mult: 1
}
param {
lr_mult: 2
decay_mult: 0
}
convolution_param {
num_output: 16
kernel_size: 1
weight_filler {
type: "xavier"
std: 0.2
}
bias_filler {
type: "constant"
value: 0.2
}
}
}
layer {
name: "inception_4a/relu_5x5_reduce"
type: "ReLU"
bottom: "inception_4a/5x5_reduce"
top: "inception_4a/5x5_reduce"
}
layer {
name: "inception_4a/5x5"
type: "Convolution"
bottom: "inception_4a/5x5_reduce"
top: "inception_4a/5x5"
param {
lr_mult: 1
decay_mult: 1
}
param {
lr_mult: 2
decay_mult: 0
}
convolution_param {
num_output: 48
pad: 2
kernel_size: 5
weight_filler {
type: "xavier"
std: 0.03
}
bias_filler {
type: "constant"
value: 0.2
}
}
}
layer {
name: "inception_4a/relu_5x5"
type: "ReLU"
bottom: "inception_4a/5x5"
top: "inception_4a/5x5"
}
layer {
name: "inception_4a/pool"
type: "Pooling"
bottom: "pool3/3x3_s2"
top: "inception_4a/pool"
pooling_param {
pool: MAX
kernel_size: 3
stride: 1
pad: 1
}
}
layer {
name: "inception_4a/pool_proj"
type: "Convolution"
bottom: "inception_4a/pool"
top: "inception_4a/pool_proj"
param {
lr_mult: 1
decay_mult: 1
}
param {
lr_mult: 2
decay_mult: 0
}
convolution_param {
num_output: 64
kernel_size: 1
weight_filler {
type: "xavier"
std: 0.1
}
bias_filler {
type: "constant"
value: 0.2
}
}
}
layer {
name: "inception_4a/relu_pool_proj"
type: "ReLU"
bottom: "inception_4a/pool_proj"
top: "inception_4a/pool_proj"
}
layer {
name: "inception_4a/output"
type: "Concat"
bottom: "inception_4a/1x1"
bottom: "inception_4a/3x3"
bottom: "inception_4a/5x5"
bottom: "inception_4a/pool_proj"
top: "inception_4a/output"
}
layer {
name: "loss1/ave_pool"
type: "Pooling"
bottom: "inception_4a/output"
top: "loss1/ave_pool"
pooling_param {
pool: AVE
kernel_size: 5
stride: 3
}
}
layer {
name: "loss1/conv"
type: "Convolution"
bottom: "loss1/ave_pool"
top: "loss1/conv"
param {
lr_mult: 1
decay_mult: 1
}
param {
lr_mult: 2
decay_mult: 0
}
convolution_param {
num_output: 128
kernel_size: 1
weight_filler {
type: "xavier"
std: 0.08
}
bias_filler {
type: "constant"
value: 0.2
}
}
}
layer {
name: "loss1/relu_conv"
type: "ReLU"
bottom: "loss1/conv"
top: "loss1/conv"
}
layer {
name: "loss1/fc"
type: "InnerProduct"
bottom: "loss1/conv"
top: "loss1/fc"
param {
lr_mult: 1
decay_mult: 1
}
param {
lr_mult: 2
decay_mult: 0
}
inner_product_param {
num_output: 1024
weight_filler {
type: "xavier"
std: 0.02
}
bias_filler {
type: "constant"
value: 0.2
}
}
}
layer {
name: "loss1/relu_fc"
type: "ReLU"
bottom: "loss1/fc"
top: "loss1/fc"
}
layer {
name: "loss1/drop_fc"
type: "Dropout"
bottom: "loss1/fc"
top: "loss1/fc"
dropout_param {
dropout_ratio: 0.7
}
}
layer {
name: "loss1/classifier"
type: "InnerProduct"
bottom: "loss1/fc"
top: "loss1/classifier"
param {
lr_mult: 1
decay_mult: 1
}
param {
lr_mult: 2
decay_mult: 0
}
inner_product_param {
num_output: 196
weight_filler {
type: "xavier"
std: 0.0009765625
}
bias_filler {
type: "constant"
value: 0
}
}
}
layer {
name: "loss1/loss"
type: "SoftmaxWithLoss"
bottom: "loss1/classifier"
bottom: "label"
top: "loss1/loss"
loss_weight: 0.3
}
layer {
name: "loss1/top-1"
type: "Accuracy"
bottom: "loss1/classifier"
bottom: "label"
top: "loss1/accuracy"
include {
phase: TEST
}
}
layer {
name: "loss1/top-5"
type: "Accuracy"
bottom: "loss1/classifier"
bottom: "label"
top: "loss1/accuracy-top5"
include {
phase: TEST
}
accuracy_param {
top_k: 5
}
}
layer {
name: "inception_4b/1x1"
type: "Convolution"
bottom: "inception_4a/output"
top: "inception_4b/1x1"
param {
lr_mult: 1
decay_mult: 1
}
param {
lr_mult: 2
decay_mult: 0
}
convolution_param {
num_output: 160
kernel_size: 1
weight_filler {
type: "xavier"
std: 0.03
}
bias_filler {
type: "constant"
value: 0.2
}
}
}
layer {
name: "inception_4b/relu_1x1"
type: "ReLU"
bottom: "inception_4b/1x1"
top: "inception_4b/1x1"
}
layer {
name: "inception_4b/3x3_reduce"
type: "Convolution"
bottom: "inception_4a/output"
top: "inception_4b/3x3_reduce"
param {
lr_mult: 1
decay_mult: 1
}
param {
lr_mult: 2
decay_mult: 0
}
convolution_param {
num_output: 112
kernel_size: 1
weight_filler {
type: "xavier"
std: 0.09
}
bias_filler {
type: "constant"
value: 0.2
}
}
}
layer {
name: "inception_4b/relu_3x3_reduce"
type: "ReLU"
bottom: "inception_4b/3x3_reduce"
top: "inception_4b/3x3_reduce"
}
layer {
name: "inception_4b/3x3"
type: "Convolution"
bottom: "inception_4b/3x3_reduce"
top: "inception_4b/3x3"
param {
lr_mult: 1
decay_mult: 1
}
param {
lr_mult: 2
decay_mult: 0
}
convolution_param {
num_output: 224
pad: 1
kernel_size: 3
weight_filler {
type: "xavier"
std: 0.03
}
bias_filler {
type: "constant"
value: 0.2
}
}
}
layer {
name: "inception_4b/relu_3x3"
type: "ReLU"
bottom: "inception_4b/3x3"
top: "inception_4b/3x3"
}
layer {
name: "inception_4b/5x5_reduce"
type: "Convolution"
bottom: "inception_4a/output"
top: "inception_4b/5x5_reduce"
param {
lr_mult: 1
decay_mult: 1
}
param {
lr_mult: 2
decay_mult: 0
}
convolution_param {
num_output: 24
kernel_size: 1
weight_filler {
type: "xavier"
std: 0.2
}
bias_filler {
type: "constant"
value: 0.2
}
}
}
layer {
name: "inception_4b/relu_5x5_reduce"
type: "ReLU"
bottom: "inception_4b/5x5_reduce"
top: "inception_4b/5x5_reduce"
}
layer {
name: "inception_4b/5x5"
type: "Convolution"
bottom: "inception_4b/5x5_reduce"
top: "inception_4b/5x5"
param {
lr_mult: 1
decay_mult: 1
}
param {
lr_mult: 2
decay_mult: 0
}
convolution_param {
num_output: 64
pad: 2
kernel_size: 5
weight_filler {
type: "xavier"
std: 0.03
}
bias_filler {
type: "constant"
value: 0.2
}
}
}
layer {
name: "inception_4b/relu_5x5"
type: "ReLU"
bottom: "inception_4b/5x5"
top: "inception_4b/5x5"
}
layer {
name: "inception_4b/pool"
type: "Pooling"
bottom: "inception_4a/output"
top: "inception_4b/pool"
pooling_param {
pool: MAX
kernel_size: 3
stride: 1
pad: 1
}
}
layer {
name: "inception_4b/pool_proj"
type: "Convolution"
bottom: "inception_4b/pool"
top: "inception_4b/pool_proj"
param {
lr_mult: 1
decay_mult: 1
}
param {
lr_mult: 2
decay_mult: 0
}
convolution_param {
num_output: 64
kernel_size: 1
weight_filler {
type: "xavier"
std: 0.1
}
bias_filler {
type: "constant"
value: 0.2
}
}
}
layer {
name: "inception_4b/relu_pool_proj"
type: "ReLU"
bottom: "inception_4b/pool_proj"
top: "inception_4b/pool_proj"
}
layer {
name: "inception_4b/output"
type: "Concat"
bottom: "inception_4b/1x1"
bottom: "inception_4b/3x3"
bottom: "inception_4b/5x5"
bottom: "inception_4b/pool_proj"
top: "inception_4b/output"
}
layer {
name: "inception_4c/1x1"
type: "Convolution"
bottom: "inception_4b/output"
top: "inception_4c/1x1"
param {
lr_mult: 1
decay_mult: 1
}
param {
lr_mult: 2
decay_mult: 0
}
convolution_param {
num_output: 128
kernel_size: 1
weight_filler {
type: "xavier"
std: 0.03
}
bias_filler {
type: "constant"
value: 0.2
}
}
}
layer {
name: "inception_4c/relu_1x1"
type: "ReLU"
bottom: "inception_4c/1x1"
top: "inception_4c/1x1"
}
layer {
name: "inception_4c/3x3_reduce"
type: "Convolution"
bottom: "inception_4b/output"
top: "inception_4c/3x3_reduce"
param {
lr_mult: 1
decay_mult: 1
}
param {
lr_mult: 2
decay_mult: 0
}
convolution_param {
num_output: 128
kernel_size: 1
weight_filler {
type: "xavier"
std: 0.09
}
bias_filler {
type: "constant"
value: 0.2
}
}
}
layer {
name: "inception_4c/relu_3x3_reduce"
type: "ReLU"
bottom: "inception_4c/3x3_reduce"
top: "inception_4c/3x3_reduce"
}
layer {
name: "inception_4c/3x3"
type: "Convolution"
bottom: "inception_4c/3x3_reduce"
top: "inception_4c/3x3"
param {
lr_mult: 1
decay_mult: 1
}
param {
lr_mult: 2
decay_mult: 0
}
convolution_param {
num_output: 256
pad: 1
kernel_size: 3
weight_filler {
type: "xavier"
std: 0.03
}
bias_filler {
type: "constant"
value: 0.2
}
}
}
layer {
name: "inception_4c/relu_3x3"
type: "ReLU"
bottom: "inception_4c/3x3"
top: "inception_4c/3x3"
}
layer {
name: "inception_4c/5x5_reduce"
type: "Convolution"
bottom: "inception_4b/output"
top: "inception_4c/5x5_reduce"
param {
lr_mult: 1
decay_mult: 1
}
param {
lr_mult: 2
decay_mult: 0
}
convolution_param {
num_output: 24
kernel_size: 1
weight_filler {
type: "xavier"
std: 0.2
}
bias_filler {
type: "constant"
value: 0.2
}
}
}
layer {
name: "inception_4c/relu_5x5_reduce"
type: "ReLU"
bottom: "inception_4c/5x5_reduce"
top: "inception_4c/5x5_reduce"
}
layer {
name: "inception_4c/5x5"
type: "Convolution"
bottom: "inception_4c/5x5_reduce"
top: "inception_4c/5x5"
param {
lr_mult: 1
decay_mult: 1
}
param {
lr_mult: 2
decay_mult: 0
}
convolution_param {
num_output: 64
pad: 2
kernel_size: 5
weight_filler {
type: "xavier"
std: 0.03
}
bias_filler {
type: "constant"
value: 0.2
}
}
}
layer {
name: "inception_4c/relu_5x5"
type: "ReLU"
bottom: "inception_4c/5x5"
top: "inception_4c/5x5"
}
layer {
name: "inception_4c/pool"
type: "Pooling"
bottom: "inception_4b/output"
top: "inception_4c/pool"
pooling_param {
pool: MAX
kernel_size: 3
stride: 1
pad: 1
}
}
layer {
name: "inception_4c/pool_proj"
type: "Convolution"
bottom: "inception_4c/pool"
top: "inception_4c/pool_proj"
param {
lr_mult: 1
decay_mult: 1
}
param {
lr_mult: 2
decay_mult: 0
}
convolution_param {
num_output: 64
kernel_size: 1
weight_filler {
type: "xavier"
std: 0.1
}
bias_filler {
type: "constant"
value: 0.2
}
}
}
layer {
name: "inception_4c/relu_pool_proj"
type: "ReLU"
bottom: "inception_4c/pool_proj"
top: "inception_4c/pool_proj"
}
layer {
name: "inception_4c/output"
type: "Concat"
bottom: "inception_4c/1x1"
bottom: "inception_4c/3x3"
bottom: "inception_4c/5x5"
bottom: "inception_4c/pool_proj"
top: "inception_4c/output"
}
layer {
name: "inception_4d/1x1"
type: "Convolution"
bottom: "inception_4c/output"
top: "inception_4d/1x1"
param {
lr_mult: 1
decay_mult: 1
}
param {
lr_mult: 2
decay_mult: 0
}
convolution_param {
num_output: 112
kernel_size: 1
weight_filler {
type: "xavier"
std: 0.03
}
bias_filler {
type: "constant"
value: 0.2
}
}
}
layer {
name: "inception_4d/relu_1x1"
…
I0501 17:07:44.666957 13961 net.cpp:122] Setting up inception_4c/relu_5x5
I0501 17:07:44.666985 13961 net.cpp:129] Top shape: 16 64 14 14 (200704)
I0501 17:07:44.666990 13961 net.cpp:137] Memory required for data: 700688012
I0501 17:07:44.666998 13961 layer_factory.hpp:77] Creating layer inception_4c/pool
I0501 17:07:44.667014 13961 net.cpp:84] Creating Layer inception_4c/pool
I0501 17:07:44.667022 13961 net.cpp:406] inception_4c/pool <- inception_4b/output_inception_4b/output_0_split_3
I0501 17:07:44.667034 13961 net.cpp:380] inception_4c/pool -> inception_4c/pool
I0501 17:07:44.667111 13961 net.cpp:122] Setting up inception_4c/pool
I0501 17:07:44.667121 13961 net.cpp:129] Top shape: 16 512 14 14 (1605632)
I0501 17:07:44.667126 13961 net.cpp:137] Memory required for data: 707110540
I0501 17:07:44.667131 13961 layer_factory.hpp:77] Creating layer inception_4c/pool_proj
I0501 17:07:44.667148 13961 net.cpp:84] Creating Layer inception_4c/pool_proj
I0501 17:07:44.667155 13961 net.cpp:406] inception_4c/pool_proj <- inception_4c/pool
I0501 17:07:44.667166 13961 net.cpp:380] inception_4c/pool_proj -> inception_4c/pool_proj
I0501 17:07:44.696769 13961 net.cpp:122] Setting up inception_4c/pool_proj
I0501 17:07:44.696797 13961 net.cpp:129] Top shape: 16 64 14 14 (200704)
I0501 17:07:44.696802 13961 net.cpp:137] Memory required for data: 707913356
I0501 17:07:44.696816 13961 layer_factory.hpp:77] Creating layer inception_4c/relu_pool_proj
I0501 17:07:44.696831 13961 net.cpp:84] Creating Layer inception_4c/relu_pool_proj
I0501 17:07:44.696839 13961 net.cpp:406] inception_4c/relu_pool_proj <- inception_4c/pool_proj
I0501 17:07:44.696848 13961 net.cpp:367] inception_4c/relu_pool_proj -> inception_4c/pool_proj (in-place)
I0501 17:07:44.699103 13961 net.cpp:122] Setting up inception_4c/relu_pool_proj
I0501 17:07:44.699117 13961 net.cpp:129] Top shape: 16 64 14 14 (200704)
I0501 17:07:44.699122 13961 net.cpp:137] Memory required for data: 708716172
I0501 17:07:44.699128 13961 layer_factory.hpp:77] Creating layer inception_4c/output
I0501 17:07:44.699139 13961 net.cpp:84] Creating Layer inception_4c/output
I0501 17:07:44.699146 13961 net.cpp:406] inception_4c/output <- inception_4c/1x1
I0501 17:07:44.699177 13961 net.cpp:406] inception_4c/output <- inception_4c/3x3
I0501 17:07:44.699184 13961 net.cpp:406] inception_4c/output <- inception_4c/5x5
I0501 17:07:44.699190 13961 net.cpp:406] inception_4c/output <- inception_4c/pool_proj
I0501 17:07:44.699198 13961 net.cpp:380] inception_4c/output -> inception_4c/output
I0501 17:07:44.699241 13961 net.cpp:122] Setting up inception_4c/output
I0501 17:07:44.699249 13961 net.cpp:129] Top shape: 16 512 14 14 (1605632)
I0501 17:07:44.699254 13961 net.cpp:137] Memory required for data: 715138700
I0501 17:07:44.699260 13961 layer_factory.hpp:77] Creating layer inception_4c/output_inception_4c/output_0_split
I0501 17:07:44.699270 13961 net.cpp:84] Creating Layer inception_4c/output_inception_4c/output_0_split
I0501 17:07:44.699275 13961 net.cpp:406] inception_4c/output_inception_4c/output_0_split <- inception_4c/output
I0501 17:07:44.699285 13961 net.cpp:380] inception_4c/output_inception_4c/output_0_split -> inception_4c/output_inception_4c/output_0_split_0
I0501 17:07:44.699293 13961 net.cpp:380] inception_4c/output_inception_4c/output_0_split -> inception_4c/output_inception_4c/output_0_split_1
I0501 17:07:44.699302 13961 net.cpp:380] inception_4c/output_inception_4c/output_0_split -> inception_4c/output_inception_4c/output_0_split_2
I0501 17:07:44.699312 13961 net.cpp:380] inception_4c/output_inception_4c/output_0_split -> inception_4c/output_inception_4c/output_0_split_3
I0501 17:07:44.699389 13961 net.cpp:122] Setting up inception_4c/output_inception_4c/output_0_split
I0501 17:07:44.699398 13961 net.cpp:129] Top shape: 16 512 14 14 (1605632)
I0501 17:07:44.699404 13961 net.cpp:129] Top shape: 16 512 14 14 (1605632)
I0501 17:07:44.699410 13961 net.cpp:129] Top shape: 16 512 14 14 (1605632)
I0501 17:07:44.699417 13961 net.cpp:129] Top shape: 16 512 14 14 (1605632)
I0501 17:07:44.699422 13961 net.cpp:137] Memory required for data: 740828812
I0501 17:07:44.699427 13961 layer_factory.hpp:77] Creating layer inception_4d/1x1
I0501 17:07:44.699442 13961 net.cpp:84] Creating Layer inception_4d/1x1
I0501 17:07:44.699447 13961 net.cpp:406] inception_4d/1x1 <- inception_4c/output_inception_4c/output_0_split_0
I0501 17:07:44.699457 13961 net.cpp:380] inception_4d/1x1 -> inception_4d/1x1
I0501 17:07:44.735472 13961 net.cpp:122] Setting up inception_4d/1x1
I0501 17:07:44.735499 13961 net.cpp:129] Top shape: 16 112 14 14 (351232)
I0501 17:07:44.735504 13961 net.cpp:137] Memory required for data: 742233740
I0501 17:07:44.735517 13961 layer_factory.hpp:77] Creating layer inception_4d/relu_1x1
I0501 17:07:44.735532 13961 net.cpp:84] Creating Layer inception_4d/relu_1x1
I0501 17:07:44.735539 13961 net.cpp:406] inception_4d/relu_1x1 <- inception_4d/1x1
I0501 17:07:44.735548 13961 net.cpp:367] inception_4d/relu_1x1 -> inception_4d/1x1 (in-place)
I0501 17:07:44.736457 13961 net.cpp:122] Setting up inception_4d/relu_1x1
I0501 17:07:44.736471 13961 net.cpp:129] Top shape: 16 112 14 14 (351232)
I0501 17:07:44.736477 13961 net.cpp:137] Memory required for data: 743638668
I0501 17:07:44.736483 13961 layer_factory.hpp:77] Creating layer inception_4d/3x3_reduce
I0501 17:07:44.736500 13961 net.cpp:84] Creating Layer inception_4d/3x3_reduce
I0501 17:07:44.736507 13961 net.cpp:406] inception_4d/3x3_reduce <- inception_4c/output_inception_4c/output_0_split_1
I0501 17:07:44.736516 13961 net.cpp:380] inception_4d/3x3_reduce -> inception_4d/3x3_reduce
I0501 17:07:44.743058 13961 net.cpp:122] Setting up inception_4d/3x3_reduce
I0501 17:07:44.743084 13961 net.cpp:129] Top shape: 16 144 14 14 (451584)
I0501 17:07:44.743089 13961 net.cpp:137] Memory required for data: 745445004
I0501 17:07:44.743103 13961 layer_factory.hpp:77] Creating layer inception_4d/relu_3x3_reduce
I0501 17:07:44.743115 13961 net.cpp:84] Creating Layer inception_4d/relu_3x3_reduce
I0501 17:07:44.743122 13961 net.cpp:406] inception_4d/relu_3x3_reduce <- inception_4d/3x3_reduce
I0501 17:07:44.743134 13961 net.cpp:367] inception_4d/relu_3x3_reduce -> inception_4d/3x3_reduce (in-place)
I0501 17:07:44.746857 13961 net.cpp:122] Setting up inception_4d/relu_3x3_reduce
I0501 17:07:44.746901 13961 net.cpp:129] Top shape: 16 144 14 14 (451584)
I0501 17:07:44.746906 13961 net.cpp:137] Memory required for data: 747251340
I0501 17:07:44.746912 13961 layer_factory.hpp:77] Creating layer inception_4d/3x3
I0501 17:07:44.746930 13961 net.cpp:84] Creating Layer inception_4d/3x3
I0501 17:07:44.746937 13961 net.cpp:406] inception_4d/3x3 <- inception_4d/3x3_reduce
I0501 17:07:44.746948 13961 net.cpp:380] inception_4d/3x3 -> inception_4d/3x3
I0501 17:07:44.793592 13961 net.cpp:122] Setting up inception_4d/3x3
I0501 17:07:44.793622 13961 net.cpp:129] Top shape: 16 288 14 14 (903168)
I0501 17:07:44.793628 13961 net.cpp:137] Memory required for data: 750864012
I0501 17:07:44.793642 13961 layer_factory.hpp:77] Creating layer inception_4d/relu_3x3
I0501 17:07:44.793656 13961 net.cpp:84] Creating Layer inception_4d/relu_3x3
I0501 17:07:44.793664 13961 net.cpp:406] inception_4d/relu_3x3 <- inception_4d/3x3
I0501 17:07:44.793678 13961 net.cpp:367] inception_4d/relu_3x3 -> inception_4d/3x3 (in-place)
I0501 17:07:44.794275 13961 net.cpp:122] Setting up inception_4d/relu_3x3
I0501 17:07:44.794287 13961 net.cpp:129] Top shape: 16 288 14 14 (903168)
I0501 17:07:44.794293 13961 net.cpp:137] Memory required for data: 754476684
I0501 17:07:44.794298 13961 layer_factory.hpp:77] Creating layer inception_4d/5x5_reduce
I0501 17:07:44.794317 13961 net.cpp:84] Creating Layer inception_4d/5x5_reduce
I0501 17:07:44.794325 13961 net.cpp:406] inception_4d/5x5_reduce <- inception_4c/output_inception_4c/output_0_split_2
I0501 17:07:44.794339 13961 net.cpp:380] inception_4d/5x5_reduce -> inception_4d/5x5_reduce
I0501 17:07:44.801273 13961 net.cpp:122] Setting up inception_4d/5x5_reduce
I0501 17:07:44.801298 13961 net.cpp:129] Top shape: 16 32 14 14 (100352)
I0501 17:07:44.801306 13961 net.cpp:137] Memory required for data: 754878092
I0501 17:07:44.801319 13961 layer_factory.hpp:77] Creating layer inception_4d/relu_5x5_reduce
I0501 17:07:44.801337 13961 net.cpp:84] Creating Layer inception_4d/relu_5x5_reduce
I0501 17:07:44.801345 13961 net.cpp:406] inception_4d/relu_5x5_reduce <- inception_4d/5x5_reduce
I0501 17:07:44.801357 13961 net.cpp:367] inception_4d/relu_5x5_reduce -> inception_4d/5x5_reduce (in-place)
I0501 17:07:44.802191 13961 net.cpp:122] Setting up inception_4d/relu_5x5_reduce
I0501 17:07:44.802206 13961 net.cpp:129] Top shape: 16 32 14 14 (100352)
I0501 17:07:44.802211 13961 net.cpp:137] Memory required for data: 755279500
I0501 17:07:44.802218 13961 layer_factory.hpp:77] Creating layer inception_4d/5x5
I0501 17:07:44.802240 13961 net.cpp:84] Creating Layer inception_4d/5x5
I0501 17:07:44.802249 13961 net.cpp:406] inception_4d/5x5 <- inception_4d/5x5_reduce
I0501 17:07:45.659248 13961 net.cpp:380] inception_4d/5x5 -> inception_4d/5x5
I0501 17:07:45.662328 13961 net.cpp:122] Setting up inception_4d/5x5
I0501 17:07:45.662351 13961 net.cpp:129] Top shape: 16 64 14 14 (200704)
I0501 17:07:45.662358 13961 net.cpp:137] Memory required for data: 756082316
I0501 17:07:45.662371 13961 layer_factory.hpp:77] Creating layer inception_4d/relu_5x5
I0501 17:07:45.662384 13961 net.cpp:84] Creating Layer inception_4d/relu_5x5
I0501 17:07:45.662394 13961 net.cpp:406] inception_4d/relu_5x5 <- inception_4d/5x5
I0501 17:07:45.662405 13961 net.cpp:367] inception_4d/relu_5x5 -> inception_4d/5x5 (in-place)
I0501 17:07:45.663303 13961 net.cpp:122] Setting up inception_4d/relu_5x5
I0501 17:07:45.663321 13961 net.cpp:129] Top shape: 16 64 14 14 (200704)
I0501 17:07:45.663326 13961 net.cpp:137] Memory required for data: 756885132
I0501 17:07:45.663332 13961 layer_factory.hpp:77] Creating layer inception_4d/pool
I0501 17:07:45.663342 13961 net.cpp:84] Creating Layer inception_4d/pool
I0501 17:07:45.663352 13961 net.cpp:406] inception_4d/pool <- inception_4c/output_inception_4c/output_0_split_3
I0501 17:07:45.663368 13961 net.cpp:380] inception_4d/pool -> inception_4d/pool
I0501 17:07:45.663448 13961 net.cpp:122] Setting up inception_4d/pool
I0501 17:07:45.663463 13961 net.cpp:129] Top shape: 16 512 14 14 (1605632)
I0501 17:07:45.663498 13961 net.cpp:137] Memory required for data: 763307660
I0501 17:07:45.663507 13961 layer_factory.hpp:77] Creating layer inception_4d/pool_proj
I0501 17:07:45.663535 13961 net.cpp:84] Creating Layer inception_4d/pool_proj
I0501 17:07:45.663542 13961 net.cpp:406] inception_4d/pool_proj <- inception_4d/pool
I0501 17:07:45.663555 13961 net.cpp:380] inception_4d/pool_proj -> inception_4d/pool_proj
I0501 17:07:45.666640 13961 net.cpp:122] Setting up inception_4d/pool_proj
I0501 17:07:45.666666 13961 net.cpp:129] Top shape: 16 64 14 14 (200704)
I0501 17:07:45.666671 13961 net.cpp:137] Memory required for data: 764110476
I0501 17:07:45.666684 13961 layer_factory.hpp:77] Creating layer inception_4d/relu_pool_proj
I0501 17:07:45.666697 13961 net.cpp:84] Creating Layer inception_4d/relu_pool_proj
I0501 17:07:45.666705 13961 net.cpp:406] inception_4d/relu_pool_proj <- inception_4d/pool_proj
I0501 17:07:45.666718 13961 net.cpp:367] inception_4d/relu_pool_proj -> inception_4d/pool_proj (in-place)
I0501 17:07:45.667573 13961 net.cpp:122] Setting up inception_4d/relu_pool_proj
I0501 17:07:45.667589 13961 net.cpp:129] Top shape: 16 64 14 14 (200704)
I0501 17:07:45.667595 13961 net.cpp:137] Memory required for data: 764913292
I0501 17:07:45.667603 13961 layer_factory.hpp:77] Creating layer inception_4d/output
I0501 17:07:45.667613 13961 net.cpp:84] Creating Layer inception_4d/output
I0501 17:07:45.667619 13961 net.cpp:406] inception_4d/output <- inception_4d/1x1
I0501 17:07:45.667627 13961 net.cpp:406] inception_4d/output <- inception_4d/3x3
I0501 17:07:45.667635 13961 net.cpp:406] inception_4d/output <- inception_4d/5x5
I0501 17:07:45.667642 13961 net.cpp:406] inception_4d/output <- inception_4d/pool_proj
I0501 17:07:45.667652 13961 net.cpp:380] inception_4d/output -> inception_4d/output
I0501 17:07:45.667701 13961 net.cpp:122] Setting up inception_4d/output
I0501 17:07:45.667714 13961 net.cpp:129] Top shape: 16 528 14 14 (1655808)
I0501 17:07:45.667721 13961 net.cpp:137] Memory required for data: 771536524
I0501 17:07:45.667726 13961 layer_factory.hpp:77] Creating layer inception_4d/output_inception_4d/output_0_split
I0501 17:07:45.667737 13961 net.cpp:84] Creating Layer inception_4d/output_inception_4d/output_0_split
I0501 17:07:45.667743 13961 net.cpp:406] inception_4d/output_inception_4d/output_0_split <- inception_4d/output
I0501 17:07:45.667755 13961 net.cpp:380] inception_4d/output_inception_4d/output_0_split -> inception_4d/output_inception_4d/output_0_split_0
I0501 17:07:45.667768 13961 net.cpp:380] inception_4d/output_inception_4d/output_0_split -> inception_4d/output_inception_4d/output_0_split_1
I0501 17:07:45.667779 13961 net.cpp:380] inception_4d/output_inception_4d/output_0_split -> inception_4d/output_inception_4d/output_0_split_2
I0501 17:07:45.667789 13961 net.cpp:380] inception_4d/output_inception_4d/output_0_split -> inception_4d/output_inception_4d/output_0_split_3
I0501 17:07:45.667801 13961 net.cpp:380] inception_4d/output_inception_4d/output_0_split -> inception_4d/output_inception_4d/output_0_split_4
I0501 17:07:45.667912 13961 net.cpp:122] Setting up inception_4d/output_inception_4d/output_0_split
I0501 17:07:45.667924 13961 net.cpp:129] Top shape: 16 528 14 14 (1655808)
I0501 17:07:45.667932 13961 net.cpp:129] Top shape: 16 528 14 14 (1655808)
I0501 17:07:45.667938 13961 net.cpp:129] Top shape: 16 528 14 14 (1655808)
I0501 17:07:45.667945 13961 net.cpp:129] Top shape: 16 528 14 14 (1655808)
I0501 17:07:45.667951 13961 net.cpp:129] Top shape: 16 528 14 14 (1655808)
I0501 17:07:45.667956 13961 net.cpp:137] Memory required for data: 804652684
I0501 17:07:45.667963 13961 layer_factory.hpp:77] Creating layer loss2/ave_pool
I0501 17:07:45.667973 13961 net.cpp:84] Creating Layer loss2/ave_pool
I0501 17:07:45.667979 13961 net.cpp:406] loss2/ave_pool <- inception_4d/output_inception_4d/output_0_split_0
I0501 17:07:45.667990 13961 net.cpp:380] loss2/ave_pool -> loss2/ave_pool
I0501 17:07:45.671427 13961 net.cpp:122] Setting up loss2/ave_pool
I0501 17:07:45.671458 13961 net.cpp:129] Top shape: 16 528 4 4 (135168)
I0501 17:07:45.671491 13961 net.cpp:137] Memory required for data: 805193356
I0501 17:07:45.671500 13961 layer_factory.hpp:77] Creating layer loss2/conv
I0501 17:07:45.671523 13961 net.cpp:84] Creating Layer loss2/conv
I0501 17:07:45.671535 13961 net.cpp:406] loss2/conv <- loss2/ave_pool
I0501 17:07:45.671548 13961 net.cpp:380] loss2/conv -> loss2/conv
I0501 17:07:45.690433 13961 net.cpp:122] Setting up loss2/conv
I0501 17:07:45.690461 13961 net.cpp:129] Top shape: 16 128 4 4 (32768)
I0501 17:07:45.690469 13961 net.cpp:137] Memory required for data: 805324428
I0501 17:07:45.690482 13961 layer_factory.hpp:77] Creating layer loss2/relu_conv
I0501 17:07:45.690537 13961 net.cpp:84] Creating Layer loss2/relu_conv
I0501 17:07:45.690546 13961 net.cpp:406] loss2/relu_conv <- loss2/conv
I0501 17:07:45.690557 13961 net.cpp:367] loss2/relu_conv -> loss2/conv (in-place)
I0501 17:07:45.691498 13961 net.cpp:122] Setting up loss2/relu_conv
I0501 17:07:45.691511 13961 net.cpp:129] Top shape: 16 128 4 4 (32768)
I0501 17:07:45.691516 13961 net.cpp:137] Memory required for data: 805455500
I0501 17:07:45.691522 13961 layer_factory.hpp:77] Creating layer loss2/fc
I0501 17:07:45.691537 13961 net.cpp:84] Creating Layer loss2/fc
I0501 17:07:45.691545 13961 net.cpp:406] loss2/fc <- loss2/conv
I0501 17:07:45.691555 13961 net.cpp:380] loss2/fc -> loss2/fc
I0501 17:07:45.813827 13961 net.cpp:122] Setting up loss2/fc
I0501 17:07:45.813855 13961 net.cpp:129] Top shape: 16 1024 (16384)
I0501 17:07:45.813863 13961 net.cpp:137] Memory required for data: 805521036
I0501 17:07:45.813875 13961 layer_factory.hpp:77] Creating layer loss2/relu_fc
I0501 17:07:45.813892 13961 net.cpp:84] Creating Layer loss2/relu_fc
I0501 17:07:45.813902 13961 net.cpp:406] loss2/relu_fc <- loss2/fc
I0501 17:07:45.813912 13961 net.cpp:367] loss2/relu_fc -> loss2/fc (in-place)
I0501 17:07:45.832351 13961 net.cpp:122] Setting up loss2/relu_fc
I0501 17:07:45.832383 13961 net.cpp:129] Top shape: 16 1024 (16384)
I0501 17:07:45.832391 13961 net.cpp:137] Memory required for data: 805586572
I0501 17:07:45.832399 13961 layer_factory.hpp:77] Creating layer loss2/drop_fc
I0501 17:07:45.832413 13961 net.cpp:84] Creating Layer loss2/drop_fc
I0501 17:07:45.832422 13961 net.cpp:406] loss2/drop_fc <- loss2/fc
I0501 17:07:45.832432 13961 net.cpp:367] loss2/drop_fc -> loss2/fc (in-place)
I0501 17:07:45.832489 13961 net.cpp:122] Setting up loss2/drop_fc
I0501 17:07:45.832499 13961 net.cpp:129] Top shape: 16 1024 (16384)
I0501 17:07:45.832505 13961 net.cpp:137] Memory required for data: 805652108
I0501 17:07:45.832510 13961 layer_factory.hpp:77] Creating layer loss2/classifier
I0501 17:07:45.832525 13961 net.cpp:84] Creating Layer loss2/classifier
I0501 17:07:45.832531 13961 net.cpp:406] loss2/classifier <- loss2/fc
I0501 17:07:45.832542 13961 net.cpp:380] loss2/classifier -> loss2/classifier
I0501 17:07:45.837445 13961 net.cpp:122] Setting up loss2/classifier
I0501 17:07:45.837466 13961 net.cpp:129] Top shape: 16 196 (3136)
I0501 17:07:45.837472 13961 net.cpp:137] Memory required for data: 805664652
I0501 17:07:45.837486 13961 layer_factory.hpp:77] Creating layer loss2/classifier_loss2/classifier_0_split
I0501 17:07:45.837497 13961 net.cpp:84] Creating Layer loss2/classifier_loss2/classifier_0_split
I0501 17:07:45.837505 13961 net.cpp:406] loss2/classifier_loss2/classifier_0_split <- loss2/classifier
I0501 17:07:45.837518 13961 net.cpp:380] loss2/classifier_loss2/classifier_0_split -> loss2/classifier_loss2/classifier_0_split_0
I0501 17:07:45.837532 13961 net.cpp:380] loss2/classifier_loss2/classifier_0_split -> loss2/classifier_loss2/classifier_0_split_1
I0501 17:07:45.837543 13961 net.cpp:380] loss2/classifier_loss2/classifier_0_split -> loss2/classifier_loss2/classifier_0_split_2
I0501 17:07:45.837618 13961 net.cpp:122] Setting up loss2/classifier_loss2/classifier_0_split
I0501 17:07:45.837628 13961 net.cpp:129] Top shape: 16 196 (3136)
I0501 17:07:45.837635 13961 net.cpp:129] Top shape: 16 196 (3136)
I0501 17:07:45.837641 13961 net.cpp:129] Top shape: 16 196 (3136)
I0501 17:07:45.837671 13961 net.cpp:137] Memory required for data: 805702284
I0501 17:07:45.837677 13961 layer_factory.hpp:77] Creating layer loss2/loss
I0501 17:07:45.837687 13961 net.cpp:84] Creating Layer loss2/loss
I0501 17:07:45.837693 13961 net.cpp:406] loss2/loss <- loss2/classifier_loss2/classifier_0_split_0
I0501 17:07:45.837702 13961 net.cpp:406] loss2/loss <- label_val-data_1_split_3
…
I0501 17:07:45.838788 13961 net.cpp:122] Setting up loss2/top-5
I0501 17:07:45.838795 13961 net.cpp:129] Top shape: (1)
I0501 17:07:45.838800 13961 net.cpp:137] Memory required for data: 805702296
I0501 17:07:45.838806 13961 layer_factory.hpp:77] Creating layer inception_4e/1x1
I0501 17:07:45.838822 13961 net.cpp:84] Creating Layer inception_4e/1x1
I0501 17:07:45.838829 13961 net.cpp:406] inception_4e/1x1 <- inception_4d/output_inception_4d/output_0_split_1
I0501 17:07:45.838840 13961 net.cpp:380] inception_4e/1x1 -> inception_4e/1x1
I0501 17:07:45.859760 13961 net.cpp:122] Setting up inception_4e/1x1
I0501 17:07:45.859791 13961 net.cpp:129] Top shape: 16 256 14 14 (802816)
I0501 17:07:45.859798 13961 net.cpp:137] Memory required for data: 808913560
I0501 17:07:45.859812 13961 layer_factory.hpp:77] Creating layer inception_4e/relu_1x1
I0501 17:07:45.859830 13961 net.cpp:84] Creating Layer inception_4e/relu_1x1
I0501 17:07:45.859840 13961 net.cpp:406] inception_4e/relu_1x1 <- inception_4e/1x1
I0501 17:07:45.859853 13961 net.cpp:367] inception_4e/relu_1x1 -> inception_4e/1x1 (in-place)
I0501 17:07:45.863629 13961 net.cpp:122] Setting up inception_4e/relu_1x1
I0501 17:07:45.863662 13961 net.cpp:129] Top shape: 16 256 14 14 (802816)
I0501 17:07:45.863668 13961 net.cpp:137] Memory required for data: 812124824
I0501 17:07:45.863677 13961 layer_factory.hpp:77] Creating layer inception_4e/3x3_reduce
I0501 17:07:45.863741 13961 net.cpp:84] Creating Layer inception_4e/3x3_reduce
I0501 17:07:45.863754 13961 net.cpp:406] inception_4e/3x3_reduce <- inception_4d/output_inception_4d/output_0_split_2
I0501 17:07:45.863770 13961 net.cpp:380] inception_4e/3x3_reduce -> inception_4e/3x3_reduce
I0501 17:07:45.897810 13961 net.cpp:122] Setting up inception_4e/3x3_reduce
I0501 17:07:45.897840 13961 net.cpp:129] Top shape: 16 160 14 14 (501760)
I0501 17:07:45.897846 13961 net.cpp:137] Memory required for data: 814131864
I0501 17:07:45.897863 13961 layer_factory.hpp:77] Creating layer inception_4e/relu_3x3_reduce
I0501 17:07:45.897878 13961 net.cpp:84] Creating Layer inception_4e/relu_3x3_reduce
I0501 17:07:45.897887 13961 net.cpp:406] inception_4e/relu_3x3_reduce <- inception_4e/3x3_reduce
I0501 17:07:45.897902 13961 net.cpp:367] inception_4e/relu_3x3_reduce -> inception_4e/3x3_reduce (in-place)
I0501 17:07:45.898798 13961 net.cpp:122] Setting up inception_4e/relu_3x3_reduce
I0501 17:07:45.898814 13961 net.cpp:129] Top shape: 16 160 14 14 (501760)
I0501 17:07:45.898820 13961 net.cpp:137] Memory required for data: 816138904
I0501 17:07:45.898826 13961 layer_factory.hpp:77] Creating layer inception_4e/3x3
I0501 17:07:45.898845 13961 net.cpp:84] Creating Layer inception_4e/3x3
I0501 17:07:45.898854 13961 net.cpp:406] inception_4e/3x3 <- inception_4e/3x3_reduce
I0501 17:07:45.898865 13961 net.cpp:380] inception_4e/3x3 -> inception_4e/3x3
I0501 17:07:45.907104 13961 net.cpp:122] Setting up inception_4e/3x3
I0501 17:07:45.907140 13961 net.cpp:129] Top shape: 16 320 14 14 (1003520)
I0501 17:07:45.907148 13961 net.cpp:137] Memory required for data: 820152984
I0501 17:07:45.907163 13961 layer_factory.hpp:77] Creating layer inception_4e/relu_3x3
I0501 17:07:45.907179 13961 net.cpp:84] Creating Layer inception_4e/relu_3x3
I0501 17:07:45.907187 13961 net.cpp:406] inception_4e/relu_3x3 <- inception_4e/3x3
I0501 17:07:45.907203 13961 net.cpp:367] inception_4e/relu_3x3 -> inception_4e/3x3 (in-place)
I0501 17:07:45.927304 13961 net.cpp:122] Setting up inception_4e/relu_3x3
I0501 17:07:45.927335 13961 net.cpp:129] Top shape: 16 320 14 14 (1003520)
I0501 17:07:45.927341 13961 net.cpp:137] Memory required for data: 824167064
I0501 17:07:45.927351 13961 layer_factory.hpp:77] Creating layer inception_4e/5x5_reduce
I0501 17:07:45.927376 13961 net.cpp:84] Creating Layer inception_4e/5x5_reduce
I0501 17:07:45.927384 13961 net.cpp:406] inception_4e/5x5_reduce <- inception_4d/output_inception_4d/output_0_split_3
I0501 17:07:45.927398 13961 net.cpp:380] inception_4e/5x5_reduce -> inception_4e/5x5_reduce
I0501 17:07:45.937477 13961 net.cpp:122] Setting up inception_4e/5x5_reduce
I0501 17:07:45.937508 13961 net.cpp:129] Top shape: 16 32 14 14 (100352)
I0501 17:07:45.937516 13961 net.cpp:137] Memory required for data: 824568472
I0501 17:07:45.937530 13961 layer_factory.hpp:77] Creating layer inception_4e/relu_5x5_reduce
I0501 17:07:45.937546 13961 net.cpp:84] Creating Layer inception_4e/relu_5x5_reduce
I0501 17:07:45.937556 13961 net.cpp:406] inception_4e/relu_5x5_reduce <- inception_4e/5x5_reduce
I0501 17:07:45.937566 13961 net.cpp:367] inception_4e/relu_5x5_reduce -> inception_4e/5x5_reduce (in-place)
I0501 17:07:45.939415 13961 net.cpp:122] Setting up inception_4e/relu_5x5_reduce
I0501 17:07:45.939430 13961 net.cpp:129] Top shape: 16 32 14 14 (100352)
I0501 17:07:45.939436 13961 net.cpp:137] Memory required for data: 824969880
I0501 17:07:45.939443 13961 layer_factory.hpp:77] Creating layer inception_4e/5x5
I0501 17:07:45.939460 13961 net.cpp:84] Creating Layer inception_4e/5x5
I0501 17:07:45.939467 13961 net.cpp:406] inception_4e/5x5 <- inception_4e/5x5_reduce
I0501 17:07:45.939478 13961 net.cpp:380] inception_4e/5x5 -> inception_4e/5x5
I0501 17:07:45.956363 13961 net.cpp:122] Setting up inception_4e/5x5
I0501 17:07:45.956393 13961 net.cpp:129] Top shape: 16 128 14 14 (401408)
I0501 17:07:45.956398 13961 net.cpp:137] Memory required for data: 826575512
I0501 17:07:45.956413 13961 layer_factory.hpp:77] Creating layer inception_4e/relu_5x5
I0501 17:07:45.956426 13961 net.cpp:84] Creating Layer inception_4e/relu_5x5
I0501 17:07:45.956434 13961 net.cpp:406] inception_4e/relu_5x5 <- inception_4e/5x5
I0501 17:07:45.956445 13961 net.cpp:367] inception_4e/relu_5x5 -> inception_4e/5x5 (in-place)
I0501 17:07:45.956955 13961 net.cpp:122] Setting up inception_4e/relu_5x5
I0501 17:07:45.956966 13961 net.cpp:129] Top shape: 16 128 14 14 (401408)
I0501 17:07:45.956971 13961 net.cpp:137] Memory required for data: 828181144
I0501 17:07:45.956976 13961 layer_factory.hpp:77] Creating layer inception_4e/pool
I0501 17:07:45.956987 13961 net.cpp:84] Creating Layer inception_4e/pool
I0501 17:07:45.956993 13961 net.cpp:406] inception_4e/pool <- inception_4d/output_inception_4d/output_0_split_4
I0501 17:07:45.957003 13961 net.cpp:380] inception_4e/pool -> inception_4e/pool
I0501 17:07:45.957058 13961 net.cpp:122] Setting up inception_4e/pool
I0501 17:07:45.957093 13961 net.cpp:129] Top shape: 16 528 14 14 (1655808)
I0501 17:07:45.957098 13961 net.cpp:137] Memory required for data: 834804376
I0501 17:07:45.957103 13961 layer_factory.hpp:77] Creating layer inception_4e/pool_proj
I0501 17:07:45.957118 13961 net.cpp:84] Creating Layer inception_4e/pool_proj
I0501 17:07:45.957123 13961 net.cpp:406] inception_4e/pool_proj <- inception_4e/pool
I0501 17:07:45.957132 13961 net.cpp:380] inception_4e/pool_proj -> inception_4e/pool_proj
I0501 17:07:45.962849 13961 net.cpp:122] Setting up inception_4e/pool_proj
I0501 17:07:45.962882 13961 net.cpp:129] Top shape: 16 128 14 14 (401408)
I0501 17:07:45.962888 13961 net.cpp:137] Memory required for data: 836410008
I0501 17:07:45.962901 13961 layer_factory.hpp:77] Creating layer inception_4e/relu_pool_proj
I0501 17:07:45.962913 13961 net.cpp:84] Creating Layer inception_4e/relu_pool_proj
I0501 17:07:45.962921 13961 net.cpp:406] inception_4e/relu_pool_proj <- inception_4e/pool_proj
I0501 17:07:45.962931 13961 net.cpp:367] inception_4e/relu_pool_proj -> inception_4e/pool_proj (in-place)
I0501 17:07:45.966009 13961 net.cpp:122] Setting up inception_4e/relu_pool_proj
I0501 17:07:45.966037 13961 net.cpp:129] Top shape: 16 128 14 14 (401408)
I0501 17:07:45.966042 13961 net.cpp:137] Memory required for data: 838015640
I0501 17:07:45.966050 13961 layer_factory.hpp:77] Creating layer inception_4e/output
I0501 17:07:45.966063 13961 net.cpp:84] Creating Layer inception_4e/output
I0501 17:07:45.966069 13961 net.cpp:406] inception_4e/output <- inception_4e/1x1
I0501 17:07:45.966078 13961 net.cpp:406] inception_4e/output <- inception_4e/3x3
I0501 17:07:45.966085 13961 net.cpp:406] inception_4e/output <- inception_4e/5x5
I0501 17:07:45.966091 13961 net.cpp:406] inception_4e/output <- inception_4e/pool_proj
I0501 17:07:45.966100 13961 net.cpp:380] inception_4e/output -> inception_4e/output
I0501 17:07:45.966150 13961 net.cpp:122] Setting up inception_4e/output
I0501 17:07:45.966157 13961 net.cpp:129] Top shape: 16 832 14 14 (2609152)
I0501 17:07:45.966162 13961 net.cpp:137] Memory required for data: 848452248
I0501 17:07:45.966167 13961 layer_factory.hpp:77] Creating layer pool4/3x3_s2
I0501 17:07:45.966176 13961 net.cpp:84] Creating Layer pool4/3x3_s2
I0501 17:07:45.966181 13961 net.cpp:406] pool4/3x3_s2 <- inception_4e/output
I0501 17:07:45.966190 13961 net.cpp:380] pool4/3x3_s2 -> pool4/3x3_s2
I0501 17:07:45.966243 13961 net.cpp:122] Setting up pool4/3x3_s2
I0501 17:07:45.966251 13961 net.cpp:129] Top shape: 16 832 7 7 (652288)
I0501 17:07:45.966256 13961 net.cpp:137] Memory required for data: 851061400
I0501 17:07:45.966261 13961 layer_factory.hpp:77] Creating layer pool4/3x3_s2_pool4/3x3_s2_0_split
I0501 17:07:45.966271 13961 net.cpp:84] Creating Layer pool4/3x3_s2_pool4/3x3_s2_0_split
I0501 17:07:45.966276 13961 net.cpp:406] pool4/3x3_s2_pool4/3x3_s2_0_split <- pool4/3x3_s2
I0501 17:07:45.966284 13961 net.cpp:380] pool4/3x3_s2_pool4/3x3_s2_0_split -> pool4/3x3_s2_pool4/3x3_s2_0_split_0
I0501 17:07:45.966292 13961 net.cpp:380] pool4/3x3_s2_pool4/3x3_s2_0_split -> pool4/3x3_s2_pool4/3x3_s2_0_split_1
I0501 17:07:45.966301 13961 net.cpp:380] pool4/3x3_s2_pool4/3x3_s2_0_split -> pool4/3x3_s2_pool4/3x3_s2_0_split_2
I0501 17:07:45.966341 13961 net.cpp:380] pool4/3x3_s2_pool4/3x3_s2_0_split -> pool4/3x3_s2_pool4/3x3_s2_0_split_3
I0501 17:07:45.966404 13961 net.cpp:122] Setting up pool4/3x3_s2_pool4/3x3_s2_0_split
I0501 17:07:45.966413 13961 net.cpp:129] Top shape: 16 832 7 7 (652288)
I0501 17:07:45.966418 13961 net.cpp:129] Top shape: 16 832 7 7 (652288)
I0501 17:07:45.966428 13961 net.cpp:129] Top shape: 16 832 7 7 (652288)
I0501 17:07:45.966434 13961 net.cpp:129] Top shape: 16 832 7 7 (652288)
I0501 17:07:45.966439 13961 net.cpp:137] Memory required for data: 861498008
I0501 17:07:45.966444 13961 layer_factory.hpp:77] Creating layer inception_5a/1x1
I0501 17:07:45.966457 13961 net.cpp:84] Creating Layer inception_5a/1x1
I0501 17:07:45.966462 13961 net.cpp:406] inception_5a/1x1 <- pool4/3x3_s2_pool4/3x3_s2_0_split_0
I0501 17:07:45.966470 13961 net.cpp:380] inception_5a/1x1 -> inception_5a/1x1
I0501 17:07:45.971448 13961 net.cpp:122] Setting up inception_5a/1x1
I0501 17:07:45.971473 13961 net.cpp:129] Top shape: 16 256 7 7 (200704)
I0501 17:07:45.971479 13961 net.cpp:137] Memory required for data: 862300824
I0501 17:07:45.971491 13961 layer_factory.hpp:77] Creating layer inception_5a/relu_1x1
I0501 17:07:45.971503 13961 net.cpp:84] Creating Layer inception_5a/relu_1x1
I0501 17:07:45.971509 13961 net.cpp:406] inception_5a/relu_1x1 <- inception_5a/1x1
I0501 17:07:45.971519 13961 net.cpp:367] inception_5a/relu_1x1 -> inception_5a/1x1 (in-place)
I0501 17:07:45.972214 13961 net.cpp:122] Setting up inception_5a/relu_1x1
I0501 17:07:45.972226 13961 net.cpp:129] Top shape: 16 256 7 7 (200704)
I0501 17:07:45.972231 13961 net.cpp:137] Memory required for data: 863103640
I0501 17:07:45.972236 13961 layer_factory.hpp:77] Creating layer inception_5a/3x3_reduce
I0501 17:07:45.972252 13961 net.cpp:84] Creating Layer inception_5a/3x3_reduce
I0501 17:07:45.972259 13961 net.cpp:406] inception_5a/3x3_reduce <- pool4/3x3_s2_pool4/3x3_s2_0_split_1
I0501 17:07:45.972270 13961 net.cpp:380] inception_5a/3x3_reduce -> inception_5a/3x3_reduce
I0501 17:07:45.979166 13961 net.cpp:122] Setting up inception_5a/3x3_reduce
I0501 17:07:45.979192 13961 net.cpp:129] Top shape: 16 160 7 7 (125440)
I0501 17:07:45.979198 13961 net.cpp:137] Memory required for data: 863605400
I0501 17:07:45.979212 13961 layer_factory.hpp:77] Creating layer inception_5a/relu_3x3_reduce
I0501 17:07:45.979228 13961 net.cpp:84] Creating Layer inception_5a/relu_3x3_reduce
I0501 17:07:45.979235 13961 net.cpp:406] inception_5a/relu_3x3_reduce <- inception_5a/3x3_reduce
I0501 17:07:45.979243 13961 net.cpp:367] inception_5a/relu_3x3_reduce -> inception_5a/3x3_reduce (in-place)
I0501 17:07:45.983055 13961 net.cpp:122] Setting up inception_5a/relu_3x3_reduce
I0501 17:07:45.983080 13961 net.cpp:129] Top shape: 16 160 7 7 (125440)
I0501 17:07:45.983085 13961 net.cpp:137] Memory required for data: 864107160
I0501 17:07:45.983093 13961 layer_factory.hpp:77] Creating layer inception_5a/3x3
I0501 17:07:45.983114 13961 net.cpp:84] Creating Layer inception_5a/3x3
I0501 17:07:45.983120 13961 net.cpp:406] inception_5a/3x3 <- inception_5a/3x3_reduce
I0501 17:07:45.983132 13961 net.cpp:380] inception_5a/3x3 -> inception_5a/3x3
I0501 17:07:46.009958 13961 net.cpp:122] Setting up inception_5a/3x3
I0501 17:07:46.009987 13961 net.cpp:129] Top shape: 16 320 7 7 (250880)
I0501 17:07:46.009994 13961 net.cpp:137] Memory required for data: 865110680
I0501 17:07:46.010008 13961 layer_factory.hpp:77] Creating layer inception_5a/relu_3x3
I0501 17:07:46.010026 13961 net.cpp:84] Creating Layer inception_5a/relu_3x3
I0501 17:07:46.010035 13961 net.cpp:406] inception_5a/relu_3x3 <- inception_5a/3x3
I0501 17:07:46.010046 13961 net.cpp:367] inception_5a/relu_3x3 -> inception_5a/3x3 (in-place)
I0501 17:07:46.016628 13961 net.cpp:122] Setting up inception_5a/relu_3x3
I0501 17:07:46.016657 13961 net.cpp:129] Top shape: 16 320 7 7 (250880)
I0501 17:07:46.016664 13961 net.cpp:137] Memory required for data: 866114200
I0501 17:07:46.016670 13961 layer_factory.hpp:77] Creating layer inception_5a/5x5_reduce
I0501 17:07:46.016693 13961 net.cpp:84] Creating Layer inception_5a/5x5_reduce
I0501 17:07:46.016702 13961 net.cpp:406] inception_5a/5x5_reduce <- pool4/3x3_s2_pool4/3x3_s2_0_split_2
I0501 17:07:46.016721 13961 net.cpp:380] inception_5a/5x5_reduce -> inception_5a/5x5_reduce
I0501 17:07:46.060104 13961 net.cpp:122] Setting up inception_5a/5x5_reduce
I0501 17:07:46.060135 13961 net.cpp:129] Top shape: 16 32 7 7 (25088)
I0501 17:07:46.060140 13961 net.cpp:137] Memory required for data: 866214552
I0501 17:07:46.060153 13961 layer_factory.hpp:77] Creating layer inception_5a/relu_5x5_reduce
I0501 17:07:46.060166 13961 net.cpp:84] Creating Layer inception_5a/relu_5x5_reduce
I0501 17:07:46.060174 13961 net.cpp:406] inception_5a/relu_5x5_reduce <- inception_5a/5x5_reduce
I0501 17:07:46.060185 13961 net.cpp:367] inception_5a/relu_5x5_reduce -> inception_5a/5x5_reduce (in-place)
I0501 17:07:46.060711 13961 net.cpp:122] Setting up inception_5a/relu_5x5_reduce
I0501 17:07:46.060722 13961 net.cpp:129] Top shape: 16 32 7 7 (25088)
I0501 17:07:46.060727 13961 net.cpp:137] Memory required for data: 866314904
I0501 17:07:46.060732 13961 layer_factory.hpp:77] Creating layer inception_5a/5x5
I0501 17:07:46.060750 13961 net.cpp:84] Creating Layer inception_5a/5x5
I0501 17:07:46.060755 13961 net.cpp:406] inception_5a/5x5 <- inception_5a/5x5_reduce
I0501 17:07:46.060765 13961 net.cpp:380] inception_5a/5x5 -> inception_5a/5x5
I0501 17:07:46.064049 13961 net.cpp:122] Setting up inception_5a/5x5
I0501 17:07:46.064066 13961 net.cpp:129] Top shape: 16 128 7 7 (100352)
I0501 17:07:46.064072 13961 net.cpp:137] Memory required for data: 866716312
I0501 17:07:46.064082 13961 layer_factory.hpp:77] Creating layer inception_5a/relu_5x5
I0501 17:07:46.064091 13961 net.cpp:84] Creating Layer inception_5a/relu_5x5
I0501 17:07:46.064098 13961 net.cpp:406] inception_5a/relu_5x5 <- inception_5a/5x5
I0501 17:07:46.064107 13961 net.cpp:367] inception_5a/relu_5x5 -> inception_5a/5x5 (in-place)
I0501 17:07:46.067128 13961 net.cpp:122] Setting up inception_5a/relu_5x5
I0501 17:07:46.067152 13961 net.cpp:129] Top shape: 16 128 7 7 (100352)
I0501 17:07:46.067157 13961 net.cpp:137] Memory required for data: 867117720
I0501 17:07:46.067164 13961 layer_factory.hpp:77] Creating layer inception_5a/pool
I0501 17:07:46.067175 13961 net.cpp:84] Creating Layer inception_5a/pool
I0501 17:07:46.067183 13961 net.cpp:406] inception_5a/pool <- pool4/3x3_s2_pool4/3x3_s2_0_split_3
I0501 17:07:46.067193 13961 net.cpp:380] inception_5a/pool -> inception_5a/pool
I0501 17:07:46.067258 13961 net.cpp:122] Setting up inception_5a/pool
I0501 17:07:46.067266 13961 net.cpp:129] Top shape: 16 832 7 7 (652288)
I0501 17:07:46.067271 13961 net.cpp:137] Memory required for data: 869726872
I0501 17:07:46.067276 13961 layer_factory.hpp:77] Creating layer inception_5a/pool_proj
I0501 17:07:46.067291 13961 net.cpp:84] Creating Layer inception_5a/pool_proj
I0501 17:07:46.067297 13961 net.cpp:406] inception_5a/pool_proj <- inception_5a/pool
I0501 17:07:46.067306 13961 net.cpp:380] inception_5a/pool_proj -> inception_5a/pool_proj
I0501 17:07:46.071446 13961 net.cpp:122] Setting up inception_5a/pool_proj
I0501 17:07:46.071465 13961 net.cpp:129] Top shape: 16 128 7 7 (100352)
I0501 17:07:46.071470 13961 net.cpp:137] Memory required for data: 870128280
I0501 17:07:46.071480 13961 layer_factory.hpp:77] Creating layer inception_5a/relu_pool_proj
I0501 17:07:46.071493 13961 net.cpp:84] Creating Layer inception_5a/relu_pool_proj
I0501 17:07:46.071501 13961 net.cpp:406] inception_5a/relu_pool_proj <- inception_5a/pool_proj
I0501 17:07:46.071507 13961 net.cpp:367] inception_5a/relu_pool_proj -> inception_5a/pool_proj (in-place)
I0501 17:07:46.080906 13961 net.cpp:122] Setting up inception_5a/relu_pool_proj
I0501 17:07:46.080938 13961 net.cpp:129] Top shape: 16 128 7 7 (100352)
I0501 17:07:46.080945 13961 net.cpp:137] Memory required for data: 870529688
I0501 17:07:46.080953 13961 layer_factory.hpp:77] Creating layer inception_5a/output
I0501 17:07:46.080971 13961 net.cpp:84] Creating Layer inception_5a/output
I0501 17:07:46.080981 13961 net.cpp:406] inception_5a/output <- inception_5a/1x1
I0501 17:07:46.080991 13961 net.cpp:406] inception_5a/output <- inception_5a/3x3
I0501 17:07:46.080998 13961 net.cpp:406] inception_5a/output <- inception_5a/5x5
I0501 17:07:46.081004 13961 net.cpp:406] inception_5a/output <- inception_5a/pool_proj
I0501 17:07:46.081014 13961 net.cpp:380] inception_5a/output -> inception_5a/output
I0501 17:07:46.081077 13961 net.cpp:122] Setting up inception_5a/output
I0501 17:07:46.081090 13961 net.cpp:129] Top shape: 16 832 7 7 (652288)
I0501 17:07:46.081096 13961 net.cpp:137] Memory required for data: 873138840
I0501 17:07:46.081102 13961 layer_factory.hpp:77] Creating layer inception_5a/output_inception_5a/output_0_split
I0501 17:07:46.081113 13961 net.cpp:84] Creating Layer inception_5a/output_inception_5a/output_0_split
I0501 17:07:46.081120 13961 net.cpp:406] inception_5a/output_inception_5a/output_0_split <- inception_5a/output
I0501 17:07:46.081162 13961 net.cpp:380] inception_5a/output_inception_5a/output_0_split -> inception_5a/output_inception_5a/output_0_split_0
I0501 17:07:46.081176 13961 net.cpp:380] inception_5a/output_inception_5a/output_0_split -> inception_5a/output_inception_5a/output_0_split_1
I0501 17:07:46.081187 13961 net.cpp:380] inception_5a/output_inception_5a/output_0_split -> inception_5a/output_inception_5a/output_0_split_2
I0501 17:07:46.081200 13961 net.cpp:380] inception_5a/output_inception_5a/output_0_split -> inception_5a/output_inception_5a/output_0_split_3
I0501 17:07:46.081318 13961 net.cpp:122] Setting up inception_5a/output_inception_5a/output_0_split
I0501 17:07:46.081331 13961 net.cpp:129] Top shape: 16 832 7 7 (652288)
I0501 17:07:46.081337 13961 net.cpp:129] Top shape: 16 832 7 7 (652288)
I0501 17:07:46.081343 13961 net.cpp:129] Top shape: 16 832 7 7 (652288)
I0501 17:07:46.081351 13961 net.cpp:129] Top shape: 16 832 7 7 (652288)
I0501 17:07:46.081355 13961 net.cpp:137] Memory required for data: 883575448
I0501 17:07:46.081362 13961 layer_factory.hpp:77] Creating layer inception_5b/1x1
I0501 17:07:46.081382 13961 net.cpp:84] Creating Layer inception_5b/1x1
I0501 17:07:46.081390 13961 net.cpp:406] inception_5b/1x1 <- inception_5a/output_inception_5a/output_0_split_0
I0501 17:07:46.081403 13961 net.cpp:380] inception_5b/1x1 -> inception_5b/1x1
I0501 17:07:46.087401 13961 net.cpp:122] Setting up inception_5b/1x1
I0501 17:07:46.087430 13961 net.cpp:129] Top shape: 16 384 7 7 (301056)
I0501 17:07:46.087435 13961 net.cpp:137] Memory required for data: 884779672
I0501 17:07:46.087450 13961 layer_factory.hpp:77] Creating layer inception_5b/relu_1x1
I0501 17:07:46.087463 13961 net.cpp:84] Creating Layer inception_5b/relu_1x1
I0501 17:07:46.087471 13961 net.cpp:406] inception_5b/relu_1x1 <- inception_5b/1x1
I0501 17:07:46.087481 13961 net.cpp:367] inception_5b/relu_1x1 -> inception_5b/1x1 (in-place)
I0501 17:07:46.088249 13961 net.cpp:122] Setting up inception_5b/relu_1x1
I0501 17:07:46.088263 13961 net.cpp:129] Top shape: 16 384 7 7 (301056)
I0501 17:07:46.088268 13961 net.cpp:137] Memory required for data: 885983896
I0501 17:07:46.088274 13961 layer_factory.hpp:77] Creating layer inception_5b/3x3_reduce
I0501 17:07:46.088291 13961 net.cpp:84] Creating Layer inception_5b/3x3_reduce
I0501 17:07:46.088297 13961 net.cpp:406] inception_5b/3x3_reduce <- inception_5a/output_inception_5a/output_0_split_1
I0501 17:07:46.088310 13961 net.cpp:380] inception_5b/3x3_reduce -> inception_5b/3x3_reduce
I0501 17:07:46.104825 13961 net.cpp:122] Setting up inception_5b/3x3_reduce
I0501 17:07:46.104851 13961 net.cpp:129] Top shape: 16 192 7 7 (150528)
I0501 17:07:46.104857 13961 net.cpp:137] Memory required for data: 886586008
I0501 17:07:46.104871 13961 layer_factory.hpp:77] Creating layer inception_5b/relu_3x3_reduce
I0501 17:07:46.104885 13961 net.cpp:84] Creating Layer inception_5b/relu_3x3_reduce
I0501 17:07:46.104894 13961 net.cpp:406] inception_5b/relu_3x3_reduce <- inception_5b/3x3_reduce
I0501 17:07:46.104904 13961 net.cpp:367] inception_5b/relu_3x3_reduce -> inception_5b/3x3_reduce (in-place)
I0501 17:07:46.106323 13961 net.cpp:122] Setting up inception_5b/relu_3x3_reduce
I0501 17:07:46.106336 13961 net.cpp:129] Top shape: 16 192 7 7 (150528)
I0501 17:07:46.106341 13961 net.cpp:137] Memory required for data: 887188120
I0501 17:07:46.106348 13961 layer_factory.hpp:77] Creating layer inception_5b/3x3
I0501 17:07:46.106364 13961 net.cpp:84] Creating Layer inception_5b/3x3
I0501 17:07:46.106372 13961 net.cpp:406] inception_5b/3x3 <- inception_5b/3x3_reduce
I0501 17:07:46.106384 13961 net.cpp:380] inception_5b/3x3 -> inception_5b/3x3
I0501 17:07:46.146272 13961 net.cpp:122] Setting up inception_5b/3x3
I0501 17:07:46.146301 13961 net.cpp:129] Top shape: 16 384 7 7 (301056)
I0501 17:07:46.146306 13961 net.cpp:137] Memory required for data: 888392344
I0501 17:07:46.146319 13961 layer_factory.hpp:77] Creating layer inception_5b/relu_3x3
I0501 17:07:46.146334 13961 net.cpp:84] Creating Layer inception_5b/relu_3x3
I0501 17:07:46.146368 13961 net.cpp:406] inception_5b/relu_3x3 <- inception_5b/3x3
I0501 17:07:46.146380 13961 net.cpp:367] inception_5b/relu_3x3 -> inception_5b/3x3 (in-place)
I0501 17:07:46.146961 13961 net.cpp:122] Setting up inception_5b/relu_3x3
I0501 17:07:46.146975 13961 net.cpp:129] Top shape: 16 384 7 7 (301056)
I0501 17:07:46.146980 13961 net.cpp:137] Memory required for data: 889596568
I0501 17:07:46.146986 13961 layer_factory.hpp:77] Creating layer inception_5b/5x5_reduce
I0501 17:07:46.147004 13961 net.cpp:84] Creating Layer inception_5b/5x5_reduce
I0501 17:07:46.147011 13961 net.cpp:406] inception_5b/5x5_reduce <- inception_5a/output_inception_5a/output_0_split_2
I0501 17:07:46.147022 13961 net.cpp:380] inception_5b/5x5_reduce -> inception_5b/5x5_reduce
I0501 17:07:46.151003 13961 net.cpp:122] Setting up inception_5b/5x5_reduce
I0501 17:07:46.151026 13961 net.cpp:129] Top shape: 16 48 7 7 (37632)
I0501 17:07:46.151031 13961 net.cpp:137] Memory required for data: 889747096
I0501 17:07:46.151043 13961 layer_factory.hpp:77] Creating layer inception_5b/relu_5x5_reduce
I0501 17:07:46.151057 13961 net.cpp:84] Creating Layer inception_5b/relu_5x5_reduce
I0501 17:07:46.151063 13961 net.cpp:406] inception_5b/relu_5x5_reduce <- inception_5b/5x5_reduce
I0501 17:07:46.151073 13961 net.cpp:367] inception_5b/relu_5x5_reduce -> inception_5b/5x5_reduce (in-place)
I0501 17:07:46.151612 13961 net.cpp:122] Setting up inception_5b/relu_5x5_reduce
I0501 17:07:46.151623 13961 net.cpp:129] Top shape: 16 48 7 7 (37632)
I0501 17:07:46.151628 13961 net.cpp:137] Memory required for data: 889897624
I0501 17:07:46.151633 13961 layer_factory.hpp:77] Creating layer inception_5b/5x5
I0501 17:07:46.151648 13961 net.cpp:84] Creating Layer inception_5b/5x5
I0501 17:07:46.151654 13961 net.cpp:406] inception_5b/5x5 <- inception_5b/5x5_reduce
I0501 17:07:46.151665 13961 net.cpp:380] inception_5b/5x5 -> inception_5b/5x5
I0501 17:07:46.165333 13961 net.cpp:122] Setting up inception_5b/5x5
I0501 17:07:46.165366 13961 net.cpp:129] Top shape: 16 128 7 7 (100352)
I0501 17:07:46.165371 13961 net.cpp:137] Memory required for data: 890299032
I0501 17:07:46.165385 13961 layer_factory.hpp:77] Creating layer inception_5b/relu_5x5
I0501 17:07:46.165398 13961 net.cpp:84] Creating Layer inception_5b/relu_5x5
I0501 17:07:46.165406 13961 net.cpp:406] inception_5b/relu_5x5 <- inception_5b/5x5
I0501 17:07:46.165416 13961 net.cpp:367] inception_5b/relu_5x5 -> inception_5b/5x5 (in-place)
I0501 17:07:46.166216 13961 net.cpp:122] Setting up inception_5b/relu_5x5
I0501 17:07:46.166231 13961 net.cpp:129] Top shape: 16 128 7 7 (100352)
I0501 17:07:46.166237 13961 net.cpp:137] Memory required for data: 890700440
I0501 17:07:46.166242 13961 layer_factory.hpp:77] Creating layer inception_5b/pool
I0501 17:07:46.166257 13961 net.cpp:84] Creating Layer inception_5b/pool
I0501 17:07:46.166265 13961 net.cpp:406] inception_5b/pool <- inception_5a/output_inception_5a/output_0_split_3
I0501 17:07:46.166273 13961 net.cpp:380] inception_5b/pool -> inception_5b/pool
I0501 17:07:46.166337 13961 net.cpp:122] Setting up inception_5b/pool
I0501 17:07:46.166347 13961 net.cpp:129] Top shape: 16 832 7 7 (652288)
I0501 17:07:46.166352 13961 net.cpp:137] Memory required for data: 893309592
I0501 17:07:46.166357 13961 layer_factory.hpp:77] Creating layer inception_5b/pool_proj
I0501 17:07:46.166373 13961 net.cpp:84] Creating Layer inception_5b/pool_proj
I0501 17:07:46.166378 13961 net.cpp:406] inception_5b/pool_proj <- inception_5b/pool
I0501 17:07:46.166388 13961 net.cpp:380] inception_5b/pool_proj -> inception_5b/pool_proj
I0501 17:07:46.224030 13961 net.cpp:122] Setting up inception_5b/pool_proj
I0501 17:07:46.224059 13961 net.cpp:129] Top shape: 16 128 7 7 (100352)
I0501 17:07:46.224066 13961 net.cpp:137] Memory required for data: 893711000
I0501 17:07:46.224081 13961 layer_factory.hpp:77] Creating layer inception_5b/relu_pool_proj
I0501 17:07:46.224097 13961 net.cpp:84] Creating Layer inception_5b/relu_pool_proj
I0501 17:07:46.224105 13961 net.cpp:406] inception_5b/relu_pool_proj <- inception_5b/pool_proj
I0501 17:07:46.224145 13961 net.cpp:367] inception_5b/relu_pool_proj -> inception_5b/pool_proj (in-place)
I0501 17:07:46.275650 13961 net.cpp:122] Setting up inception_5b/relu_pool_proj
I0501 17:07:46.275682 13961 net.cpp:129] Top shape: 16 128 7 7 (100352)
I0501 17:07:46.275687 13961 net.cpp:137] Memory required for data: 894112408
I0501 17:07:46.275696 13961 layer_factory.hpp:77] Creating layer inception_5b/output
I0501 17:07:46.275710 13961 net.cpp:84] Creating Layer inception_5b/output
I0501 17:07:46.275722 13961 net.cpp:406] inception_5b/output <- inception_5b/1x1
I0501 17:07:46.275732 13961 net.cpp:406] inception_5b/output <- inception_5b/3x3
I0501 17:07:46.275738 13961 net.cpp:406] inception_5b/output <- inception_5b/5x5
I0501 17:07:46.283876 13961 net.cpp:406] inception_5b/output <- inception_5b/pool_proj
I0501 17:07:46.283900 13961 net.cpp:380] inception_5b/output -> inception_5b/output
I0501 17:07:46.284008 13961 net.cpp:122] Setting up inception_5b/output
I0501 17:07:46.284021 13961 net.cpp:129] Top shape: 16 1024 7 7 (802816)
I0501 17:07:46.284030 13961 net.cpp:137] Memory required for data: 897323672
I0501 17:07:46.284037 13961 layer_factory.hpp:77] Creating layer pool5/7x7_s1
I0501 17:07:46.284049 13961 net.cpp:84] Creating Layer pool5/7x7_s1
I0501 17:07:46.284055 13961 net.cpp:406] pool5/7x7_s1 <- inception_5b/output
I0501 17:07:46.284070 13961 net.cpp:380] pool5/7x7_s1 -> pool5/7x7_s1
I0501 17:07:46.292647 13961 net.cpp:122] Setting up pool5/7x7_s1
I0501 17:07:46.292677 13961 net.cpp:129] Top shape: 16 1024 1 1 (16384)
I0501 17:07:46.292683 13961 net.cpp:137] Memory required for data: 897389208
I0501 17:07:46.292691 13961 layer_factory.hpp:77] Creating layer pool5/drop_7x7_s1
I0501 17:07:46.292707 13961 net.cpp:84] Creating Layer pool5/drop_7x7_s1
I0501 17:07:46.292716 13961 net.cpp:406] pool5/drop_7x7_s1 <- pool5/7x7_s1
I0501 17:07:46.292728 13961 net.cpp:367] pool5/drop_7x7_s1 -> pool5/7x7_s1 (in-place)
I0501 17:07:46.292774 13961 net.cpp:122] Setting up pool5/drop_7x7_s1
I0501 17:07:46.292785 13961 net.cpp:129] Top shape: 16 1024 1 1 (16384)
I0501 17:07:46.292790 13961 net.cpp:137] Memory required for data: 897454744
I0501 17:07:46.292796 13961 layer_factory.hpp:77] Creating layer loss3/classifier
I0501 17:07:46.292810 13961 net.cpp:84] Creating Layer loss3/classifier
I0501 17:07:46.292816 13961 net.cpp:406] loss3/classifier <- pool5/7x7_s1
I0501 17:07:46.292826 13961 net.cpp:380] loss3/classifier -> loss3/classifier
I0501 17:07:46.296324 13961 net.cpp:122] Setting up loss3/classifier
I0501 17:07:46.296348 13961 net.cpp:129] Top shape: 16 196 (3136)
I0501 17:07:46.296355 13961 net.cpp:137] Memory required for data: 897467288
I0501 17:07:46.296367 13961 layer_factory.hpp:77] Creating layer loss3/classifier_loss3/classifier_0_split
I0501 17:07:46.296383 13961 net.cpp:84] Creating Layer loss3/classifier_loss3/classifier_0_split
I0501 17:07:46.296392 13961 net.cpp:406] loss3/classifier_loss3/classifier_0_split <- loss3/classifier
I0501 17:07:46.296406 13961 net.cpp:380] loss3/classifier_loss3/classifier_0_split -> loss3/classifier_loss3/classifier_0_split_0
I0501 17:07:46.296418 13961 net.cpp:380] loss3/classifier_loss3/classifier_0_split -> loss3/classifier_loss3/classifier_0_split_1
I0501 17:07:46.296428 13961 net.cpp:380] loss3/classifier_loss3/classifier_0_split -> loss3/classifier_loss3/classifier_0_split_2
I0501 17:07:46.296519 13961 net.cpp:122] Setting up loss3/classifier_loss3/classifier_0_split
I0501 17:07:46.296530 13961 net.cpp:129] Top shape: 16 196 (3136)
I0501 17:07:46.296537 13961 net.cpp:129] Top shape: 16 196 (3136)
I0501 17:07:46.296543 13961 net.cpp:129] Top shape: 16 196 (3136)
I0501 17:07:46.296547 13961 net.cpp:137] Memory required for data: 897504920
I0501 17:07:46.296552 13961 layer_factory.hpp:77] Creating layer loss3/loss
I0501 17:07:46.296566 13961 net.cpp:84] Creating Layer loss3/loss
I0501 17:07:46.296571 13961 net.cpp:406] loss3/loss <- loss3/classifier_loss3/classifier_0_split_0
I0501 17:07:46.296579 13961 net.cpp:406] loss3/loss <- label_val-data_1_split_6
…
