…
I0507 12:51:43.688591 23756 net.cpp:294] The NetState phase (0) differed from the phase (1) specified by a rule in layer accuracy
I0507 12:51:43.688740 23756 net.cpp:51] Initializing net from parameters:
state {
phase: TRAIN
level: 0
stage: ""
}
layer {
name: "train-data"
type: "Data"
top: "data"
top: "label"
include {
phase: TRAIN
}
transform_param {
mirror: true
crop_size: 227
mean_file: "/mnt/bigdisk/MANDIG4/digits/jobs/20200507-113634-e696/mean.binaryproto"
}
data_param {
source: "/mnt/bigdisk/MANDIG4/digits/jobs/20200507-113634-e696/train_db"
batch_size: 128
backend: LMDB
}
}
layer {
name: "conv1"
type: "Convolution"
bottom: "data"
top: "conv1"
param {
lr_mult: 1
decay_mult: 1
}
param {
lr_mult: 2
decay_mult: 0
}
convolution_param {
num_output: 96
kernel_size: 11
stride: 4
weight_filler {
type: "gaussian"
std: 0.01
}
bias_filler {
type: "constant"
value: 0
}
}
}
layer {
name: "relu1"
type: "ReLU"
bottom: "conv1"
top: "conv1"
}
layer {
name: "norm1"
type: "LRN"
bottom: "conv1"
top: "norm1"
lrn_param {
local_size: 5
alpha: 0.0001
beta: 0.75
}
}
layer {
name: "pool1"
type: "Pooling"
bottom: "norm1"
top: "pool1"
pooling_param {
pool: MAX
kernel_size: 3
stride: 2
}
}
layer {
name: "conv2"
type: "Convolution"
bottom: "pool1"
top: "conv2"
param {
lr_mult: 1
decay_mult: 1
}
param {
lr_mult: 2
decay_mult: 0
}
convolution_param {
num_output: 256
pad: 2
kernel_size: 5
group: 2
weight_filler {
type: "gaussian"
std: 0.01
}
bias_filler {
type: "constant"
value: 0.1
}
}
}
layer {
name: "relu2"
type: "ReLU"
bottom: "conv2"
top: "conv2"
}
layer {
name: "norm2"
type: "LRN"
bottom: "conv2"
top: "norm2"
lrn_param {
local_size: 5
alpha: 0.0001
beta: 0.75
}
}
layer {
name: "pool2"
type: "Pooling"
bottom: "norm2"
top: "pool2"
pooling_param {
pool: MAX
kernel_size: 3
stride: 2
}
}
layer {
name: "conv3"
type: "Convolution"
bottom: "pool2"
top: "conv3"
param {
lr_mult: 1
decay_mult: 1
}
param {
lr_mult: 2
decay_mult: 0
}
convolution_param {
num_output: 384
pad: 1
kernel_size: 3
weight_filler {
type: "gaussian"
std: 0.01
}
bias_filler {
type: "constant"
value: 0
}
}
}
layer {
name: "relu3"
type: "ReLU"
bottom: "conv3"
top: "conv3"
}
layer {
name: "conv4"
type: "Convolution"
bottom: "conv3"
top: "conv4"
param {
lr_mult: 1
decay_mult: 1
}
param {
lr_mult: 2
decay_mult: 0
}
convolution_param {
num_output: 384
pad: 1
kernel_size: 3
group: 2
weight_filler {
type: "gaussian"
std: 0.01
}
bias_filler {
type: "constant"
value: 0.1
}
}
}
layer {
name: "relu4"
type: "ReLU"
bottom: "conv4"
top: "conv4"
}
layer {
name: "conv5"
type: "Convolution"
bottom: "conv4"
top: "conv5"
param {
lr_mult: 1
decay_mult: 1
}
param {
lr_mult: 2
decay_mult: 0
}
convolution_param {
num_output: 256
pad: 1
kernel_size: 3
group: 2
weight_filler {
type: "gaussian"
std: 0.01
}
bias_filler {
type: "constant"
value: 0.1
}
}
}
layer {
name: "relu5"
type: "ReLU"
bottom: "conv5"
top: "conv5"
}
layer {
name: "pool5"
type: "Pooling"
bottom: "conv5"
top: "pool5"
pooling_param {
pool: MAX
kernel_size: 3
stride: 2
}
}
layer {
name: "fc6"
type: "InnerProduct"
bottom: "pool5"
top: "fc6"
param {
lr_mult: 1
decay_mult: 1
}
param {
lr_mult: 2
decay_mult: 0
}
inner_product_param {
num_output: 4096
weight_filler {
type: "gaussian"
std: 0.005
}
bias_filler {
type: "constant"
value: 0.1
}
}
}
layer {
name: "relu6"
type: "ReLU"
bottom: "fc6"
top: "fc6"
}
layer {
name: "drop6"
type: "Dropout"
bottom: "fc6"
top: "fc6"
dropout_param {
dropout_ratio: 0.5
}
}
layer {
name: "fc7"
type: "InnerProduct"
bottom: "fc6"
top: "fc7"
param {
lr_mult: 1
decay_mult: 1
}
param {
lr_mult: 2
decay_mult: 0
}
inner_product_param {
num_output: 4096
weight_filler {
type: "gaussian"
std: 0.005
}
bias_filler {
type: "constant"
value: 0.1
}
}
}
layer {
name: "relu7"
type: "ReLU"
bottom: "fc7"
top: "fc7"
}
layer {
name: "drop7"
type: "Dropout"
bottom: "fc7"
top: "fc7"
dropout_param {
dropout_ratio: 0.5
}
}
layer {
name: "fc8"
type: "InnerProduct"
bottom: "fc7"
top: "fc8"
param {
lr_mult: 1
decay_mult: 1
}
param {
lr_mult: 2
decay_mult: 0
}
inner_product_param {
num_output: 196
weight_filler {
type: "gaussian"
std: 0.01
}
bias_filler {
type: "constant"
value: 0
}
}
}
layer {
name: "loss"
type: "SoftmaxWithLoss"
bottom: "fc8"
bottom: "label"
top: "loss"
}
I0507 12:51:43.688838 23756 layer_factory.hpp:77] Creating layer train-data
I0507 12:51:43.690280 23756 db_lmdb.cpp:35] Opened lmdb /mnt/bigdisk/MANDIG4/digits/jobs/20200507-113634-e696/train_db
I0507 12:51:43.690469 23756 net.cpp:84] Creating Layer train-data
I0507 12:51:43.690505 23756 net.cpp:380] train-data -> data
I0507 12:51:43.690526 23756 net.cpp:380] train-data -> label
I0507 12:51:43.690537 23756 data_transformer.cpp:25] Loading mean file from: /mnt/bigdisk/MANDIG4/digits/jobs/20200507-113634-e696/mean.binaryproto
I0507 12:51:43.698274 23756 data_layer.cpp:45] output data size: 128,3,227,227
I0507 12:51:43.878525 23756 net.cpp:122] Setting up train-data
I0507 12:51:43.878549 23756 net.cpp:129] Top shape: 128 3 227 227 (19787136)
I0507 12:51:43.878556 23756 net.cpp:129] Top shape: 128 (128)
I0507 12:51:43.878559 23756 net.cpp:137] Memory required for data: 79149056
I0507 12:51:43.878569 23756 layer_factory.hpp:77] Creating layer conv1
I0507 12:51:43.878592 23756 net.cpp:84] Creating Layer conv1
I0507 12:51:43.878597 23756 net.cpp:406] conv1 <- data
I0507 12:51:43.878609 23756 net.cpp:380] conv1 -> conv1
I0507 12:51:45.039084 23756 net.cpp:122] Setting up conv1
I0507 12:51:45.039108 23756 net.cpp:129] Top shape: 128 96 55 55 (37171200)
I0507 12:51:45.039111 23756 net.cpp:137] Memory required for data: 227833856
I0507 12:51:45.039131 23756 layer_factory.hpp:77] Creating layer relu1
I0507 12:51:45.039142 23756 net.cpp:84] Creating Layer relu1
I0507 12:51:45.039146 23756 net.cpp:406] relu1 <- conv1
I0507 12:51:45.039151 23756 net.cpp:367] relu1 -> conv1 (in-place)
I0507 12:51:45.039433 23756 net.cpp:122] Setting up relu1
I0507 12:51:45.039441 23756 net.cpp:129] Top shape: 128 96 55 55 (37171200)
I0507 12:51:45.039444 23756 net.cpp:137] Memory required for data: 376518656
I0507 12:51:45.039448 23756 layer_factory.hpp:77] Creating layer norm1
I0507 12:51:45.039458 23756 net.cpp:84] Creating Layer norm1
I0507 12:51:45.039460 23756 net.cpp:406] norm1 <- conv1
I0507 12:51:45.039487 23756 net.cpp:380] norm1 -> norm1
I0507 12:51:45.039932 23756 net.cpp:122] Setting up norm1
I0507 12:51:45.039942 23756 net.cpp:129] Top shape: 128 96 55 55 (37171200)
I0507 12:51:45.039944 23756 net.cpp:137] Memory required for data: 525203456
I0507 12:51:45.039948 23756 layer_factory.hpp:77] Creating layer pool1
I0507 12:51:45.039957 23756 net.cpp:84] Creating Layer pool1
I0507 12:51:45.039959 23756 net.cpp:406] pool1 <- norm1
I0507 12:51:45.039964 23756 net.cpp:380] pool1 -> pool1
I0507 12:51:45.040000 23756 net.cpp:122] Setting up pool1
I0507 12:51:45.040006 23756 net.cpp:129] Top shape: 128 96 27 27 (8957952)
I0507 12:51:45.040009 23756 net.cpp:137] Memory required for data: 561035264
I0507 12:51:45.040012 23756 layer_factory.hpp:77] Creating layer conv2
I0507 12:51:45.040022 23756 net.cpp:84] Creating Layer conv2
I0507 12:51:45.040025 23756 net.cpp:406] conv2 <- pool1
I0507 12:51:45.040030 23756 net.cpp:380] conv2 -> conv2
I0507 12:51:45.046921 23756 net.cpp:122] Setting up conv2
I0507 12:51:45.046937 23756 net.cpp:129] Top shape: 128 256 27 27 (23887872)
I0507 12:51:45.046941 23756 net.cpp:137] Memory required for data: 656586752
I0507 12:51:45.046952 23756 layer_factory.hpp:77] Creating layer relu2
I0507 12:51:45.046959 23756 net.cpp:84] Creating Layer relu2
I0507 12:51:45.046963 23756 net.cpp:406] relu2 <- conv2
I0507 12:51:45.046970 23756 net.cpp:367] relu2 -> conv2 (in-place)
I0507 12:51:45.047464 23756 net.cpp:122] Setting up relu2
I0507 12:51:45.047475 23756 net.cpp:129] Top shape: 128 256 27 27 (23887872)
I0507 12:51:45.047478 23756 net.cpp:137] Memory required for data: 752138240
I0507 12:51:45.047482 23756 layer_factory.hpp:77] Creating layer norm2
I0507 12:51:45.047489 23756 net.cpp:84] Creating Layer norm2
I0507 12:51:45.047493 23756 net.cpp:406] norm2 <- conv2
I0507 12:51:45.047499 23756 net.cpp:380] norm2 -> norm2
I0507 12:51:45.047852 23756 net.cpp:122] Setting up norm2
I0507 12:51:45.047860 23756 net.cpp:129] Top shape: 128 256 27 27 (23887872)
I0507 12:51:45.047863 23756 net.cpp:137] Memory required for data: 847689728
I0507 12:51:45.047868 23756 layer_factory.hpp:77] Creating layer pool2
I0507 12:51:45.047875 23756 net.cpp:84] Creating Layer pool2
I0507 12:51:45.047878 23756 net.cpp:406] pool2 <- norm2
I0507 12:51:45.047885 23756 net.cpp:380] pool2 -> pool2
I0507 12:51:45.047914 23756 net.cpp:122] Setting up pool2
I0507 12:51:45.047919 23756 net.cpp:129] Top shape: 128 256 13 13 (5537792)
I0507 12:51:45.047922 23756 net.cpp:137] Memory required for data: 869840896
I0507 12:51:45.047925 23756 layer_factory.hpp:77] Creating layer conv3
I0507 12:51:45.047937 23756 net.cpp:84] Creating Layer conv3
I0507 12:51:45.047941 23756 net.cpp:406] conv3 <- pool2
I0507 12:51:45.047946 23756 net.cpp:380] conv3 -> conv3
I0507 12:51:45.058020 23756 net.cpp:122] Setting up conv3
I0507 12:51:45.058037 23756 net.cpp:129] Top shape: 128 384 13 13 (8306688)
I0507 12:51:45.058041 23756 net.cpp:137] Memory required for data: 903067648
I0507 12:51:45.058051 23756 layer_factory.hpp:77] Creating layer relu3
I0507 12:51:45.058059 23756 net.cpp:84] Creating Layer relu3
I0507 12:51:45.058064 23756 net.cpp:406] relu3 <- conv3
I0507 12:51:45.058070 23756 net.cpp:367] relu3 -> conv3 (in-place)
I0507 12:51:45.059522 23756 net.cpp:122] Setting up relu3
I0507 12:51:45.059533 23756 net.cpp:129] Top shape: 128 384 13 13 (8306688)
I0507 12:51:45.059536 23756 net.cpp:137] Memory required for data: 936294400
I0507 12:51:45.059540 23756 layer_factory.hpp:77] Creating layer conv4
I0507 12:51:45.059551 23756 net.cpp:84] Creating Layer conv4
I0507 12:51:45.059554 23756 net.cpp:406] conv4 <- conv3
I0507 12:51:45.059561 23756 net.cpp:380] conv4 -> conv4
I0507 12:51:45.073622 23756 net.cpp:122] Setting up conv4
I0507 12:51:45.073643 23756 net.cpp:129] Top shape: 128 384 13 13 (8306688)
I0507 12:51:45.073647 23756 net.cpp:137] Memory required for data: 969521152
I0507 12:51:45.073657 23756 layer_factory.hpp:77] Creating layer relu4
I0507 12:51:45.073666 23756 net.cpp:84] Creating Layer relu4
I0507 12:51:45.073690 23756 net.cpp:406] relu4 <- conv4
I0507 12:51:45.073696 23756 net.cpp:367] relu4 -> conv4 (in-place)
I0507 12:51:45.074033 23756 net.cpp:122] Setting up relu4
I0507 12:51:45.074043 23756 net.cpp:129] Top shape: 128 384 13 13 (8306688)
I0507 12:51:45.074045 23756 net.cpp:137] Memory required for data: 1002747904
I0507 12:51:45.074049 23756 layer_factory.hpp:77] Creating layer conv5
I0507 12:51:45.074059 23756 net.cpp:84] Creating Layer conv5
I0507 12:51:45.074064 23756 net.cpp:406] conv5 <- conv4
I0507 12:51:45.074069 23756 net.cpp:380] conv5 -> conv5
I0507 12:51:45.082983 23756 net.cpp:122] Setting up conv5
I0507 12:51:45.083000 23756 net.cpp:129] Top shape: 128 256 13 13 (5537792)
I0507 12:51:45.083003 23756 net.cpp:137] Memory required for data: 1024899072
I0507 12:51:45.083019 23756 layer_factory.hpp:77] Creating layer relu5
I0507 12:51:45.083029 23756 net.cpp:84] Creating Layer relu5
I0507 12:51:45.083032 23756 net.cpp:406] relu5 <- conv5
I0507 12:51:45.083037 23756 net.cpp:367] relu5 -> conv5 (in-place)
I0507 12:51:45.083518 23756 net.cpp:122] Setting up relu5
I0507 12:51:45.083526 23756 net.cpp:129] Top shape: 128 256 13 13 (5537792)
I0507 12:51:45.083529 23756 net.cpp:137] Memory required for data: 1047050240
I0507 12:51:45.083534 23756 layer_factory.hpp:77] Creating layer pool5
I0507 12:51:45.083540 23756 net.cpp:84] Creating Layer pool5
I0507 12:51:45.083544 23756 net.cpp:406] pool5 <- conv5
I0507 12:51:45.083550 23756 net.cpp:380] pool5 -> pool5
I0507 12:51:45.083588 23756 net.cpp:122] Setting up pool5
I0507 12:51:45.083595 23756 net.cpp:129] Top shape: 128 256 6 6 (1179648)
I0507 12:51:45.083600 23756 net.cpp:137] Memory required for data: 1051768832
I0507 12:51:45.083602 23756 layer_factory.hpp:77] Creating layer fc6
I0507 12:51:45.083612 23756 net.cpp:84] Creating Layer fc6
I0507 12:51:45.083616 23756 net.cpp:406] fc6 <- pool5
I0507 12:51:45.083621 23756 net.cpp:380] fc6 -> fc6
I0507 12:51:45.441427 23756 net.cpp:122] Setting up fc6
I0507 12:51:45.441448 23756 net.cpp:129] Top shape: 128 4096 (524288)
I0507 12:51:45.441452 23756 net.cpp:137] Memory required for data: 1053865984
I0507 12:51:45.441462 23756 layer_factory.hpp:77] Creating layer relu6
I0507 12:51:45.441471 23756 net.cpp:84] Creating Layer relu6
I0507 12:51:45.441475 23756 net.cpp:406] relu6 <- fc6
I0507 12:51:45.441481 23756 net.cpp:367] relu6 -> fc6 (in-place)
I0507 12:51:45.457739 23756 net.cpp:122] Setting up relu6
I0507 12:51:45.457756 23756 net.cpp:129] Top shape: 128 4096 (524288)
I0507 12:51:45.457760 23756 net.cpp:137] Memory required for data: 1055963136
I0507 12:51:45.457767 23756 layer_factory.hpp:77] Creating layer drop6
I0507 12:51:45.457777 23756 net.cpp:84] Creating Layer drop6
I0507 12:51:45.457780 23756 net.cpp:406] drop6 <- fc6
I0507 12:51:45.457787 23756 net.cpp:367] drop6 -> fc6 (in-place)
I0507 12:51:45.457821 23756 net.cpp:122] Setting up drop6
I0507 12:51:45.457826 23756 net.cpp:129] Top shape: 128 4096 (524288)
I0507 12:51:45.457830 23756 net.cpp:137] Memory required for data: 1058060288
I0507 12:51:45.457834 23756 layer_factory.hpp:77] Creating layer fc7
I0507 12:51:45.457841 23756 net.cpp:84] Creating Layer fc7
I0507 12:51:45.457845 23756 net.cpp:406] fc7 <- fc6
I0507 12:51:45.457850 23756 net.cpp:380] fc7 -> fc7
I0507 12:51:45.630260 23756 net.cpp:122] Setting up fc7
I0507 12:51:45.630283 23756 net.cpp:129] Top shape: 128 4096 (524288)
I0507 12:51:45.630287 23756 net.cpp:137] Memory required for data: 1060157440
I0507 12:51:45.630297 23756 layer_factory.hpp:77] Creating layer relu7
I0507 12:51:45.630306 23756 net.cpp:84] Creating Layer relu7
I0507 12:51:45.630311 23756 net.cpp:406] relu7 <- fc7
I0507 12:51:45.630317 23756 net.cpp:367] relu7 -> fc7 (in-place)
I0507 12:51:45.630950 23756 net.cpp:122] Setting up relu7
I0507 12:51:45.630960 23756 net.cpp:129] Top shape: 128 4096 (524288)
I0507 12:51:45.630964 23756 net.cpp:137] Memory required for data: 1062254592
I0507 12:51:45.630968 23756 layer_factory.hpp:77] Creating layer drop7
I0507 12:51:45.630977 23756 net.cpp:84] Creating Layer drop7
I0507 12:51:45.630981 23756 net.cpp:406] drop7 <- fc7
I0507 12:51:45.631008 23756 net.cpp:367] drop7 -> fc7 (in-place)
I0507 12:51:45.631036 23756 net.cpp:122] Setting up drop7
I0507 12:51:45.631042 23756 net.cpp:129] Top shape: 128 4096 (524288)
I0507 12:51:45.631045 23756 net.cpp:137] Memory required for data: 1064351744
I0507 12:51:45.631048 23756 layer_factory.hpp:77] Creating layer fc8
I0507 12:51:45.631057 23756 net.cpp:84] Creating Layer fc8
I0507 12:51:45.631059 23756 net.cpp:406] fc8 <- fc7
I0507 12:51:45.631067 23756 net.cpp:380] fc8 -> fc8
I0507 12:51:45.638904 23756 net.cpp:122] Setting up fc8
I0507 12:51:45.638922 23756 net.cpp:129] Top shape: 128 196 (25088)
I0507 12:51:45.638927 23756 net.cpp:137] Memory required for data: 1064452096
I0507 12:51:45.638936 23756 layer_factory.hpp:77] Creating layer loss
I0507 12:51:45.638945 23756 net.cpp:84] Creating Layer loss
I0507 12:51:45.638950 23756 net.cpp:406] loss <- fc8
I0507 12:51:45.638955 23756 net.cpp:406] loss <- label
I0507 12:51:45.638962 23756 net.cpp:380] loss -> loss
I0507 12:51:45.638972 23756 layer_factory.hpp:77] Creating layer loss
…
I0507 12:51:45.649682 23756 solver.cpp:172] Creating test net (#0) specified by net file: train_val.prototxt
I0507 12:51:45.649714 23756 net.cpp:294] The NetState phase (1) differed from the phase (0) specified by a rule in layer train-data
I0507 12:51:45.649853 23756 net.cpp:51] Initializing net from parameters:
state {
phase: TEST
}
layer {
name: "val-data"
type: "Data"
top: "data"
top: "label"
include {
phase: TEST
}
transform_param {
crop_size: 227
mean_file: "/mnt/bigdisk/MANDIG4/digits/jobs/20200507-113634-e696/mean.binaryproto"
}
data_param {
source: "/mnt/bigdisk/MANDIG4/digits/jobs/20200507-113634-e696/val_db"
batch_size: 32
backend: LMDB
}
}
layer {
name: "conv1"
type: "Convolution"
bottom: "data"
top: "conv1"
param {
lr_mult: 1
decay_mult: 1
}
param {
lr_mult: 2
decay_mult: 0
}
convolution_param {
num_output: 96
kernel_size: 11
stride: 4
weight_filler {
type: "gaussian"
std: 0.01
}
bias_filler {
type: "constant"
value: 0
}
}
}
layer {
name: "relu1"
type: "ReLU"
bottom: "conv1"
top: "conv1"
}
layer {
name: "norm1"
type: "LRN"
bottom: "conv1"
top: "norm1"
lrn_param {
local_size: 5
alpha: 0.0001
beta: 0.75
}
}
layer {
name: "pool1"
type: "Pooling"
bottom: "norm1"
top: "pool1"
pooling_param {
pool: MAX
kernel_size: 3
stride: 2
}
}
layer {
name: "conv2"
type: "Convolution"
bottom: "pool1"
top: "conv2"
param {
lr_mult: 1
decay_mult: 1
}
param {
lr_mult: 2
decay_mult: 0
}
convolution_param {
num_output: 256
pad: 2
kernel_size: 5
group: 2
weight_filler {
type: "gaussian"
std: 0.01
}
bias_filler {
type: "constant"
value: 0.1
}
}
}
layer {
name: "relu2"
type: "ReLU"
bottom: "conv2"
top: "conv2"
}
layer {
name: "norm2"
type: "LRN"
bottom: "conv2"
top: "norm2"
lrn_param {
local_size: 5
alpha: 0.0001
beta: 0.75
}
}
layer {
name: "pool2"
type: "Pooling"
bottom: "norm2"
top: "pool2"
pooling_param {
pool: MAX
kernel_size: 3
stride: 2
}
}
layer {
name: "conv3"
type: "Convolution"
bottom: "pool2"
top: "conv3"
param {
lr_mult: 1
decay_mult: 1
}
param {
lr_mult: 2
decay_mult: 0
}
convolution_param {
num_output: 384
pad: 1
kernel_size: 3
weight_filler {
type: "gaussian"
std: 0.01
}
bias_filler {
type: "constant"
value: 0
}
}
}
layer {
name: "relu3"
type: "ReLU"
bottom: "conv3"
top: "conv3"
}
layer {
name: "conv4"
type: "Convolution"
bottom: "conv3"
top: "conv4"
param {
lr_mult: 1
decay_mult: 1
}
param {
lr_mult: 2
decay_mult: 0
}
convolution_param {
num_output: 384
pad: 1
kernel_size: 3
group: 2
weight_filler {
type: "gaussian"
std: 0.01
}
bias_filler {
type: "constant"
value: 0.1
}
}
}
layer {
name: "relu4"
type: "ReLU"
bottom: "conv4"
top: "conv4"
}
layer {
name: "conv5"
type: "Convolution"
bottom: "conv4"
top: "conv5"
param {
lr_mult: 1
decay_mult: 1
}
param {
lr_mult: 2
decay_mult: 0
}
convolution_param {
num_output: 256
pad: 1
kernel_size: 3
group: 2
weight_filler {
type: "gaussian"
std: 0.01
}
bias_filler {
type: "constant"
value: 0.1
}
}
}
layer {
name: "relu5"
type: "ReLU"
bottom: "conv5"
top: "conv5"
}
layer {
name: "pool5"
type: "Pooling"
bottom: "conv5"
top: "pool5"
pooling_param {
pool: MAX
kernel_size: 3
stride: 2
}
}
layer {
name: "fc6"
type: "InnerProduct"
bottom: "pool5"
top: "fc6"
param {
lr_mult: 1
decay_mult: 1
}
param {
lr_mult: 2
decay_mult: 0
}
inner_product_param {
num_output: 4096
weight_filler {
type: "gaussian"
std: 0.005
}
bias_filler {
type: "constant"
value: 0.1
}
}
}
layer {
name: "relu6"
type: "ReLU"
bottom: "fc6"
top: "fc6"
}
layer {
name: "drop6"
type: "Dropout"
bottom: "fc6"
top: "fc6"
dropout_param {
dropout_ratio: 0.5
}
}
layer {
name: "fc7"
type: "InnerProduct"
bottom: "fc6"
top: "fc7"
param {
lr_mult: 1
decay_mult: 1
}
param {
lr_mult: 2
decay_mult: 0
}
inner_product_param {
num_output: 4096
weight_filler {
type: "gaussian"
std: 0.005
}
bias_filler {
type: "constant"
value: 0.1
}
}
}
layer {
name: "relu7"
type: "ReLU"
bottom: "fc7"
top: "fc7"
}
layer {
name: "drop7"
type: "Dropout"
bottom: "fc7"
top: "fc7"
dropout_param {
dropout_ratio: 0.5
}
}
layer {
name: "fc8"
type: "InnerProduct"
bottom: "fc7"
top: "fc8"
param {
lr_mult: 1
decay_mult: 1
}
param {
lr_mult: 2
decay_mult: 0
}
inner_product_param {
num_output: 196
weight_filler {
type: "gaussian"
std: 0.01
}
bias_filler {
type: "constant"
value: 0
}
}
}
layer {
name: "accuracy"
type: "Accuracy"
bottom: "fc8"
bottom: "label"
top: "accuracy"
include {
phase: TEST
}
}
layer {
name: "loss"
type: "SoftmaxWithLoss"
bottom: "fc8"
bottom: "label"
top: "loss"
}
I0507 12:51:45.649960 23756 layer_factory.hpp:77] Creating layer val-data
I0507 12:51:45.651425 23756 db_lmdb.cpp:35] Opened lmdb /mnt/bigdisk/MANDIG4/digits/jobs/20200507-113634-e696/val_db
I0507 12:51:45.651587 23756 net.cpp:84] Creating Layer val-data
I0507 12:51:45.651597 23756 net.cpp:380] val-data -> data
I0507 12:51:45.651605 23756 net.cpp:380] val-data -> label
I0507 12:51:45.651613 23756 data_transformer.cpp:25] Loading mean file from: /mnt/bigdisk/MANDIG4/digits/jobs/20200507-113634-e696/mean.binaryproto
I0507 12:51:45.655429 23756 data_layer.cpp:45] output data size: 32,3,227,227
I0507 12:51:45.687386 23756 net.cpp:122] Setting up val-data
I0507 12:51:45.687412 23756 net.cpp:129] Top shape: 32 3 227 227 (4946784)
I0507 12:51:45.687417 23756 net.cpp:129] Top shape: 32 (32)
I0507 12:51:45.687420 23756 net.cpp:137] Memory required for data: 19787264
I0507 12:51:45.687427 23756 layer_factory.hpp:77] Creating layer label_val-data_1_split
I0507 12:51:45.687441 23756 net.cpp:84] Creating Layer label_val-data_1_split
I0507 12:51:45.687448 23756 net.cpp:406] label_val-data_1_split <- label
I0507 12:51:45.687455 23756 net.cpp:380] label_val-data_1_split -> label_val-data_1_split_0
I0507 12:51:45.687466 23756 net.cpp:380] label_val-data_1_split -> label_val-data_1_split_1
I0507 12:51:45.687517 23756 net.cpp:122] Setting up label_val-data_1_split
I0507 12:51:45.687525 23756 net.cpp:129] Top shape: 32 (32)
I0507 12:51:45.687530 23756 net.cpp:129] Top shape: 32 (32)
I0507 12:51:45.687532 23756 net.cpp:137] Memory required for data: 19787520
I0507 12:51:45.687536 23756 layer_factory.hpp:77] Creating layer conv1
I0507 12:51:45.687548 23756 net.cpp:84] Creating Layer conv1
I0507 12:51:45.687554 23756 net.cpp:406] conv1 <- data
I0507 12:51:45.687561 23756 net.cpp:380] conv1 -> conv1
I0507 12:51:45.689522 23756 net.cpp:122] Setting up conv1
I0507 12:51:45.689534 23756 net.cpp:129] Top shape: 32 96 55 55 (9292800)
I0507 12:51:45.689539 23756 net.cpp:137] Memory required for data: 56958720
I0507 12:51:45.689550 23756 layer_factory.hpp:77] Creating layer relu1
I0507 12:51:45.689558 23756 net.cpp:84] Creating Layer relu1
I0507 12:51:45.689563 23756 net.cpp:406] relu1 <- conv1
I0507 12:51:45.689568 23756 net.cpp:367] relu1 -> conv1 (in-place)
I0507 12:51:45.689846 23756 net.cpp:122] Setting up relu1
I0507 12:51:45.689854 23756 net.cpp:129] Top shape: 32 96 55 55 (9292800)
I0507 12:51:45.689858 23756 net.cpp:137] Memory required for data: 94129920
I0507 12:51:45.689863 23756 layer_factory.hpp:77] Creating layer norm1
I0507 12:51:45.689872 23756 net.cpp:84] Creating Layer norm1
I0507 12:51:45.689875 23756 net.cpp:406] norm1 <- conv1
I0507 12:51:45.689880 23756 net.cpp:380] norm1 -> norm1
I0507 12:51:45.690331 23756 net.cpp:122] Setting up norm1
I0507 12:51:45.690341 23756 net.cpp:129] Top shape: 32 96 55 55 (9292800)
I0507 12:51:45.690346 23756 net.cpp:137] Memory required for data: 131301120
I0507 12:51:45.690349 23756 layer_factory.hpp:77] Creating layer pool1
I0507 12:51:45.690356 23756 net.cpp:84] Creating Layer pool1
I0507 12:51:45.690361 23756 net.cpp:406] pool1 <- norm1
I0507 12:51:45.690366 23756 net.cpp:380] pool1 -> pool1
I0507 12:51:45.690393 23756 net.cpp:122] Setting up pool1
I0507 12:51:45.690399 23756 net.cpp:129] Top shape: 32 96 27 27 (2239488)
I0507 12:51:45.690402 23756 net.cpp:137] Memory required for data: 140259072
I0507 12:51:45.690405 23756 layer_factory.hpp:77] Creating layer conv2
I0507 12:51:45.690414 23756 net.cpp:84] Creating Layer conv2
I0507 12:51:45.690418 23756 net.cpp:406] conv2 <- pool1
I0507 12:51:45.690423 23756 net.cpp:380] conv2 -> conv2
I0507 12:51:45.706802 23756 net.cpp:122] Setting up conv2
I0507 12:51:45.706820 23756 net.cpp:129] Top shape: 32 256 27 27 (5971968)
I0507 12:51:45.706823 23756 net.cpp:137] Memory required for data: 164146944
I0507 12:51:45.706838 23756 layer_factory.hpp:77] Creating layer relu2
I0507 12:51:45.706847 23756 net.cpp:84] Creating Layer relu2
I0507 12:51:45.706851 23756 net.cpp:406] relu2 <- conv2
I0507 12:51:45.706857 23756 net.cpp:367] relu2 -> conv2 (in-place)
I0507 12:51:45.707358 23756 net.cpp:122] Setting up relu2
I0507 12:51:45.707367 23756 net.cpp:129] Top shape: 32 256 27 27 (5971968)
I0507 12:51:45.707371 23756 net.cpp:137] Memory required for data: 188034816
I0507 12:51:45.707374 23756 layer_factory.hpp:77] Creating layer norm2
I0507 12:51:45.707386 23756 net.cpp:84] Creating Layer norm2
I0507 12:51:45.707389 23756 net.cpp:406] norm2 <- conv2
I0507 12:51:45.707396 23756 net.cpp:380] norm2 -> norm2
I0507 12:51:45.707909 23756 net.cpp:122] Setting up norm2
I0507 12:51:45.707919 23756 net.cpp:129] Top shape: 32 256 27 27 (5971968)
I0507 12:51:45.707922 23756 net.cpp:137] Memory required for data: 211922688
I0507 12:51:45.707926 23756 layer_factory.hpp:77] Creating layer pool2
I0507 12:51:45.707934 23756 net.cpp:84] Creating Layer pool2
I0507 12:51:45.707938 23756 net.cpp:406] pool2 <- norm2
I0507 12:51:45.707944 23756 net.cpp:380] pool2 -> pool2
I0507 12:51:45.707975 23756 net.cpp:122] Setting up pool2
I0507 12:51:45.707981 23756 net.cpp:129] Top shape: 32 256 13 13 (1384448)
I0507 12:51:45.707984 23756 net.cpp:137] Memory required for data: 217460480
I0507 12:51:45.707988 23756 layer_factory.hpp:77] Creating layer conv3
I0507 12:51:45.707998 23756 net.cpp:84] Creating Layer conv3
I0507 12:51:45.708001 23756 net.cpp:406] conv3 <- pool2
I0507 12:51:45.708007 23756 net.cpp:380] conv3 -> conv3
I0507 12:51:45.723850 23756 net.cpp:122] Setting up conv3
I0507 12:51:45.723870 23756 net.cpp:129] Top shape: 32 384 13 13 (2076672)
I0507 12:51:45.723875 23756 net.cpp:137] Memory required for data: 225767168
I0507 12:51:45.723888 23756 layer_factory.hpp:77] Creating layer relu3
I0507 12:51:45.723897 23756 net.cpp:84] Creating Layer relu3
I0507 12:51:45.723901 23756 net.cpp:406] relu3 <- conv3
I0507 12:51:45.723909 23756 net.cpp:367] relu3 -> conv3 (in-place)
I0507 12:51:45.724418 23756 net.cpp:122] Setting up relu3
I0507 12:51:45.724428 23756 net.cpp:129] Top shape: 32 384 13 13 (2076672)
I0507 12:51:45.724431 23756 net.cpp:137] Memory required for data: 234073856
I0507 12:51:45.724436 23756 layer_factory.hpp:77] Creating layer conv4
I0507 12:51:45.724448 23756 net.cpp:84] Creating Layer conv4
I0507 12:51:45.724452 23756 net.cpp:406] conv4 <- conv3
I0507 12:51:45.724457 23756 net.cpp:380] conv4 -> conv4
I0507 12:51:45.733901 23756 net.cpp:122] Setting up conv4
I0507 12:51:45.733916 23756 net.cpp:129] Top shape: 32 384 13 13 (2076672)
I0507 12:51:45.733920 23756 net.cpp:137] Memory required for data: 242380544
I0507 12:51:45.733927 23756 layer_factory.hpp:77] Creating layer relu4
I0507 12:51:45.733935 23756 net.cpp:84] Creating Layer relu4
I0507 12:51:45.733939 23756 net.cpp:406] relu4 <- conv4
I0507 12:51:45.733945 23756 net.cpp:367] relu4 -> conv4 (in-place)
I0507 12:51:45.734282 23756 net.cpp:122] Setting up relu4
I0507 12:51:45.734290 23756 net.cpp:129] Top shape: 32 384 13 13 (2076672)
I0507 12:51:45.734294 23756 net.cpp:137] Memory required for data: 250687232
I0507 12:51:45.734297 23756 layer_factory.hpp:77] Creating layer conv5
I0507 12:51:45.734308 23756 net.cpp:84] Creating Layer conv5
I0507 12:51:45.734313 23756 net.cpp:406] conv5 <- conv4
I0507 12:51:45.734319 23756 net.cpp:380] conv5 -> conv5
I0507 12:51:45.745007 23756 net.cpp:122] Setting up conv5
I0507 12:51:45.745023 23756 net.cpp:129] Top shape: 32 256 13 13 (1384448)
I0507 12:51:45.745028 23756 net.cpp:137] Memory required for data: 256225024
I0507 12:51:45.745040 23756 layer_factory.hpp:77] Creating layer relu5
I0507 12:51:45.745049 23756 net.cpp:84] Creating Layer relu5
I0507 12:51:45.745054 23756 net.cpp:406] relu5 <- conv5
I0507 12:51:45.745079 23756 net.cpp:367] relu5 -> conv5 (in-place)
I0507 12:51:45.745561 23756 net.cpp:122] Setting up relu5
I0507 12:51:45.745573 23756 net.cpp:129] Top shape: 32 256 13 13 (1384448)
I0507 12:51:45.745575 23756 net.cpp:137] Memory required for data: 261762816
I0507 12:51:45.745579 23756 layer_factory.hpp:77] Creating layer pool5
I0507 12:51:45.745590 23756 net.cpp:84] Creating Layer pool5
I0507 12:51:45.745594 23756 net.cpp:406] pool5 <- conv5
I0507 12:51:45.745600 23756 net.cpp:380] pool5 -> pool5
I0507 12:51:45.745636 23756 net.cpp:122] Setting up pool5
I0507 12:51:45.745643 23756 net.cpp:129] Top shape: 32 256 6 6 (294912)
I0507 12:51:45.745646 23756 net.cpp:137] Memory required for data: 262942464
I0507 12:51:45.745649 23756 layer_factory.hpp:77] Creating layer fc6
I0507 12:51:45.745656 23756 net.cpp:84] Creating Layer fc6
I0507 12:51:45.745659 23756 net.cpp:406] fc6 <- pool5
I0507 12:51:45.745666 23756 net.cpp:380] fc6 -> fc6
I0507 12:51:46.101912 23756 net.cpp:122] Setting up fc6
I0507 12:51:46.101934 23756 net.cpp:129] Top shape: 32 4096 (131072)
I0507 12:51:46.101939 23756 net.cpp:137] Memory required for data: 263466752
I0507 12:51:46.101950 23756 layer_factory.hpp:77] Creating layer relu6
I0507 12:51:46.101963 23756 net.cpp:84] Creating Layer relu6
I0507 12:51:46.101967 23756 net.cpp:406] relu6 <- fc6
I0507 12:51:46.101974 23756 net.cpp:367] relu6 -> fc6 (in-place)
I0507 12:51:46.114780 23756 net.cpp:122] Setting up relu6
I0507 12:51:46.114795 23756 net.cpp:129] Top shape: 32 4096 (131072)
I0507 12:51:46.114800 23756 net.cpp:137] Memory required for data: 263991040
I0507 12:51:46.114806 23756 layer_factory.hpp:77] Creating layer drop6
I0507 12:51:46.114814 23756 net.cpp:84] Creating Layer drop6
I0507 12:51:46.114820 23756 net.cpp:406] drop6 <- fc6
I0507 12:51:46.114826 23756 net.cpp:367] drop6 -> fc6 (in-place)
I0507 12:51:46.114856 23756 net.cpp:122] Setting up drop6
I0507 12:51:46.114862 23756 net.cpp:129] Top shape: 32 4096 (131072)
I0507 12:51:46.114866 23756 net.cpp:137] Memory required for data: 264515328
I0507 12:51:46.114869 23756 layer_factory.hpp:77] Creating layer fc7
I0507 12:51:46.114879 23756 net.cpp:84] Creating Layer fc7
I0507 12:51:46.114883 23756 net.cpp:406] fc7 <- fc6
I0507 12:51:46.114889 23756 net.cpp:380] fc7 -> fc7
I0507 12:51:46.295519 23756 net.cpp:122] Setting up fc7
I0507 12:51:46.295547 23756 net.cpp:129] Top shape: 32 4096 (131072)
I0507 12:51:46.295552 23756 net.cpp:137] Memory required for data: 265039616
I0507 12:51:46.295565 23756 layer_factory.hpp:77] Creating layer relu7
I0507 12:51:46.295578 23756 net.cpp:84] Creating Layer relu7
I0507 12:51:46.295584 23756 net.cpp:406] relu7 <- fc7
I0507 12:51:46.295593 23756 net.cpp:367] relu7 -> fc7 (in-place)
I0507 12:51:46.296126 23756 net.cpp:122] Setting up relu7
I0507 12:51:46.296137 23756 net.cpp:129] Top shape: 32 4096 (131072)
I0507 12:51:46.296141 23756 net.cpp:137] Memory required for data: 265563904
I0507 12:51:46.296146 23756 layer_factory.hpp:77] Creating layer drop7
I0507 12:51:46.296156 23756 net.cpp:84] Creating Layer drop7
I0507 12:51:46.296161 23756 net.cpp:406] drop7 <- fc7
I0507 12:51:46.296167 23756 net.cpp:367] drop7 -> fc7 (in-place)
I0507 12:51:46.296197 23756 net.cpp:122] Setting up drop7
I0507 12:51:46.296205 23756 net.cpp:129] Top shape: 32 4096 (131072)
I0507 12:51:46.296209 23756 net.cpp:137] Memory required for data: 266088192
I0507 12:51:46.296213 23756 layer_factory.hpp:77] Creating layer fc8
I0507 12:51:46.296222 23756 net.cpp:84] Creating Layer fc8
I0507 12:51:46.296226 23756 net.cpp:406] fc8 <- fc7
I0507 12:51:46.296236 23756 net.cpp:380] fc8 -> fc8
I0507 12:51:46.305510 23756 net.cpp:122] Setting up fc8
I0507 12:51:46.305526 23756 net.cpp:129] Top shape: 32 196 (6272)
I0507 12:51:46.305531 23756 net.cpp:137] Memory required for data: 266113280
I0507 12:51:46.305542 23756 layer_factory.hpp:77] Creating layer fc8_fc8_0_split
I0507 12:51:46.305552 23756 net.cpp:84] Creating Layer fc8_fc8_0_split
I0507 12:51:46.305557 23756 net.cpp:406] fc8_fc8_0_split <- fc8
I0507 12:51:46.305567 23756 net.cpp:380] fc8_fc8_0_split -> fc8_fc8_0_split_0
I0507 12:51:46.305600 23756 net.cpp:380] fc8_fc8_0_split -> fc8_fc8_0_split_1
I0507 12:51:46.305644 23756 net.cpp:122] Setting up fc8_fc8_0_split
I0507 12:51:46.305652 23756 net.cpp:129] Top shape: 32 196 (6272)
I0507 12:51:46.305657 23756 net.cpp:129] Top shape: 32 196 (6272)
I0507 12:51:46.305661 23756 net.cpp:137] Memory required for data: 266163456
I0507 12:51:46.305666 23756 layer_factory.hpp:77] Creating layer accuracy
I0507 12:51:46.305675 23756 net.cpp:84] Creating Layer accuracy
I0507 12:51:46.305680 23756 net.cpp:406] accuracy <- fc8_fc8_0_split_0
I0507 12:51:46.305686 23756 net.cpp:406] accuracy <- label_val-data_1_split_0
I0507 12:51:46.305693 23756 net.cpp:380] accuracy -> accuracy
…
