…
I0502 21:12:15.172827  2835 net.cpp:294] The NetState phase (0) differed from the phase (1) specified by a rule in layer accuracy
I0502 21:12:15.172971  2835 net.cpp:51] Initializing net from parameters:
state {
phase: TRAIN
level: 0
stage: ""
}
layer {
name: "train-data"
type: "Data"
top: "data"
top: "label"
include {
phase: TRAIN
}
transform_param {
mirror: true
crop_size: 227
mean_value: 116.0869
mean_value: 117.34734
mean_value: 119.99591
}
data_param {
source: "/mnt/bigdisk/MANDIG2/digits/jobs/20200428-132136-11fe/train_db"
batch_size: 128
backend: LMDB
}
}
layer {
name: "conv1"
type: "Convolution"
bottom: "data"
top: "conv1"
param {
lr_mult: 1
decay_mult: 1
}
param {
lr_mult: 2
decay_mult: 0
}
convolution_param {
num_output: 96
kernel_size: 11
stride: 4
weight_filler {
type: "gaussian"
std: 0.01
}
bias_filler {
type: "constant"
value: 0
}
}
}
layer {
name: "relu1"
type: "ReLU"
bottom: "conv1"
top: "conv1"
}
layer {
name: "norm1"
type: "LRN"
bottom: "conv1"
top: "norm1"
lrn_param {
local_size: 5
alpha: 0.0001
beta: 0.75
}
}
layer {
name: "pool1"
type: "Pooling"
bottom: "norm1"
top: "pool1"
pooling_param {
pool: MAX
kernel_size: 3
stride: 2
}
}
layer {
name: "conv2"
type: "Convolution"
bottom: "pool1"
top: "conv2"
param {
lr_mult: 1
decay_mult: 1
}
param {
lr_mult: 2
decay_mult: 0
}
convolution_param {
num_output: 256
pad: 2
kernel_size: 5
group: 2
weight_filler {
type: "gaussian"
std: 0.01
}
bias_filler {
type: "constant"
value: 0.1
}
}
}
layer {
name: "relu2"
type: "ReLU"
bottom: "conv2"
top: "conv2"
}
layer {
name: "norm2"
type: "LRN"
bottom: "conv2"
top: "norm2"
lrn_param {
local_size: 5
alpha: 0.0001
beta: 0.75
}
}
layer {
name: "pool2"
type: "Pooling"
bottom: "norm2"
top: "pool2"
pooling_param {
pool: MAX
kernel_size: 3
stride: 2
}
}
layer {
name: "conv3"
type: "Convolution"
bottom: "pool2"
top: "conv3"
param {
lr_mult: 1
decay_mult: 1
}
param {
lr_mult: 2
decay_mult: 0
}
convolution_param {
num_output: 384
pad: 1
kernel_size: 3
weight_filler {
type: "gaussian"
std: 0.01
}
bias_filler {
type: "constant"
value: 0
}
}
}
layer {
name: "relu3"
type: "ReLU"
bottom: "conv3"
top: "conv3"
}
layer {
name: "conv4"
type: "Convolution"
bottom: "conv3"
top: "conv4"
param {
lr_mult: 1
decay_mult: 1
}
param {
lr_mult: 2
decay_mult: 0
}
convolution_param {
num_output: 384
pad: 1
kernel_size: 3
group: 2
weight_filler {
type: "gaussian"
std: 0.01
}
bias_filler {
type: "constant"
value: 0.1
}
}
}
layer {
name: "relu4"
type: "ReLU"
bottom: "conv4"
top: "conv4"
}
layer {
name: "conv5"
type: "Convolution"
bottom: "conv4"
top: "conv5"
param {
lr_mult: 1
decay_mult: 1
}
param {
lr_mult: 2
decay_mult: 0
}
convolution_param {
num_output: 256
pad: 1
kernel_size: 3
group: 2
weight_filler {
type: "gaussian"
std: 0.01
}
bias_filler {
type: "constant"
value: 0.1
}
}
}
layer {
name: "relu5"
type: "ReLU"
bottom: "conv5"
top: "conv5"
}
layer {
name: "pool5"
type: "Pooling"
bottom: "conv5"
top: "pool5"
pooling_param {
pool: MAX
kernel_size: 3
stride: 2
}
}
layer {
name: "fc6"
type: "InnerProduct"
bottom: "pool5"
top: "fc6"
param {
lr_mult: 1
decay_mult: 1
}
param {
lr_mult: 2
decay_mult: 0
}
inner_product_param {
num_output: 4096
weight_filler {
type: "gaussian"
std: 0.005
}
bias_filler {
type: "constant"
value: 0.1
}
}
}
layer {
name: "relu6"
type: "ReLU"
bottom: "fc6"
top: "fc6"
}
layer {
name: "drop6"
type: "Dropout"
bottom: "fc6"
top: "fc6"
dropout_param {
dropout_ratio: 0.5
}
}
layer {
name: "fc7"
type: "InnerProduct"
bottom: "fc6"
top: "fc7"
param {
lr_mult: 1
decay_mult: 1
}
param {
lr_mult: 2
decay_mult: 0
}
inner_product_param {
num_output: 4096
weight_filler {
type: "gaussian"
std: 0.005
}
bias_filler {
type: "constant"
value: 0.1
}
}
}
layer {
name: "relu7"
type: "ReLU"
bottom: "fc7"
top: "fc7"
}
layer {
name: "drop7"
type: "Dropout"
bottom: "fc7"
top: "fc7"
dropout_param {
dropout_ratio: 0.5
}
}
layer {
name: "fc8"
type: "InnerProduct"
bottom: "fc7"
top: "fc8"
param {
lr_mult: 1
decay_mult: 1
}
param {
lr_mult: 2
decay_mult: 0
}
inner_product_param {
num_output: 196
weight_filler {
type: "gaussian"
std: 0.01
}
bias_filler {
type: "constant"
value: 0
}
}
}
layer {
name: "loss"
type: "SoftmaxWithLoss"
bottom: "fc8"
bottom: "label"
top: "loss"
}
I0502 21:12:15.173059  2835 layer_factory.hpp:77] Creating layer train-data
I0502 21:12:15.176421  2835 db_lmdb.cpp:35] Opened lmdb /mnt/bigdisk/MANDIG2/digits/jobs/20200428-132136-11fe/train_db
I0502 21:12:15.176668  2835 net.cpp:84] Creating Layer train-data
I0502 21:12:15.176682  2835 net.cpp:380] train-data -> data
I0502 21:12:15.176704  2835 net.cpp:380] train-data -> label
I0502 21:12:15.187369  2835 data_layer.cpp:45] output data size: 128,3,227,227
I0502 21:12:15.463655  2835 net.cpp:122] Setting up train-data
I0502 21:12:15.463685  2835 net.cpp:129] Top shape: 128 3 227 227 (19787136)
I0502 21:12:15.463691  2835 net.cpp:129] Top shape: 128 (128)
I0502 21:12:15.463697  2835 net.cpp:137] Memory required for data: 79149056
I0502 21:12:15.463709  2835 layer_factory.hpp:77] Creating layer conv1
I0502 21:12:15.463735  2835 net.cpp:84] Creating Layer conv1
I0502 21:12:15.463743  2835 net.cpp:406] conv1 <- data
I0502 21:12:15.463759  2835 net.cpp:380] conv1 -> conv1
I0502 21:12:17.169625  2835 net.cpp:122] Setting up conv1
I0502 21:12:17.169646  2835 net.cpp:129] Top shape: 128 96 55 55 (37171200)
I0502 21:12:17.169651  2835 net.cpp:137] Memory required for data: 227833856
I0502 21:12:17.169669  2835 layer_factory.hpp:77] Creating layer relu1
I0502 21:12:17.169682  2835 net.cpp:84] Creating Layer relu1
I0502 21:12:17.169687  2835 net.cpp:406] relu1 <- conv1
I0502 21:12:17.169692  2835 net.cpp:367] relu1 -> conv1 (in-place)
I0502 21:12:17.169971  2835 net.cpp:122] Setting up relu1
I0502 21:12:17.169981  2835 net.cpp:129] Top shape: 128 96 55 55 (37171200)
I0502 21:12:17.169986  2835 net.cpp:137] Memory required for data: 376518656
I0502 21:12:17.169989  2835 layer_factory.hpp:77] Creating layer norm1
I0502 21:12:17.169999  2835 net.cpp:84] Creating Layer norm1
I0502 21:12:17.170003  2835 net.cpp:406] norm1 <- conv1
I0502 21:12:17.170008  2835 net.cpp:380] norm1 -> norm1
I0502 21:12:17.170449  2835 net.cpp:122] Setting up norm1
I0502 21:12:17.170457  2835 net.cpp:129] Top shape: 128 96 55 55 (37171200)
I0502 21:12:17.170519  2835 net.cpp:137] Memory required for data: 525203456
I0502 21:12:17.170524  2835 layer_factory.hpp:77] Creating layer pool1
I0502 21:12:17.170533  2835 net.cpp:84] Creating Layer pool1
I0502 21:12:17.170537  2835 net.cpp:406] pool1 <- norm1
I0502 21:12:17.170543  2835 net.cpp:380] pool1 -> pool1
I0502 21:12:17.170583  2835 net.cpp:122] Setting up pool1
I0502 21:12:17.170589  2835 net.cpp:129] Top shape: 128 96 27 27 (8957952)
I0502 21:12:17.170594  2835 net.cpp:137] Memory required for data: 561035264
I0502 21:12:17.170598  2835 layer_factory.hpp:77] Creating layer conv2
I0502 21:12:17.170609  2835 net.cpp:84] Creating Layer conv2
I0502 21:12:17.170614  2835 net.cpp:406] conv2 <- pool1
I0502 21:12:17.170619  2835 net.cpp:380] conv2 -> conv2
I0502 21:12:17.177664  2835 net.cpp:122] Setting up conv2
I0502 21:12:17.177677  2835 net.cpp:129] Top shape: 128 256 27 27 (23887872)
I0502 21:12:17.177682  2835 net.cpp:137] Memory required for data: 656586752
I0502 21:12:17.177692  2835 layer_factory.hpp:77] Creating layer relu2
I0502 21:12:17.177703  2835 net.cpp:84] Creating Layer relu2
I0502 21:12:17.177709  2835 net.cpp:406] relu2 <- conv2
I0502 21:12:17.177716  2835 net.cpp:367] relu2 -> conv2 (in-place)
I0502 21:12:17.178230  2835 net.cpp:122] Setting up relu2
I0502 21:12:17.178242  2835 net.cpp:129] Top shape: 128 256 27 27 (23887872)
I0502 21:12:17.178247  2835 net.cpp:137] Memory required for data: 752138240
I0502 21:12:17.178253  2835 layer_factory.hpp:77] Creating layer norm2
I0502 21:12:17.178262  2835 net.cpp:84] Creating Layer norm2
I0502 21:12:17.178267  2835 net.cpp:406] norm2 <- conv2
I0502 21:12:17.178274  2835 net.cpp:380] norm2 -> norm2
I0502 21:12:17.178683  2835 net.cpp:122] Setting up norm2
I0502 21:12:17.178692  2835 net.cpp:129] Top shape: 128 256 27 27 (23887872)
I0502 21:12:17.178696  2835 net.cpp:137] Memory required for data: 847689728
I0502 21:12:17.178701  2835 layer_factory.hpp:77] Creating layer pool2
I0502 21:12:17.178712  2835 net.cpp:84] Creating Layer pool2
I0502 21:12:17.178719  2835 net.cpp:406] pool2 <- norm2
I0502 21:12:17.178725  2835 net.cpp:380] pool2 -> pool2
I0502 21:12:17.178756  2835 net.cpp:122] Setting up pool2
I0502 21:12:17.178763  2835 net.cpp:129] Top shape: 128 256 13 13 (5537792)
I0502 21:12:17.178767  2835 net.cpp:137] Memory required for data: 869840896
I0502 21:12:17.178772  2835 layer_factory.hpp:77] Creating layer conv3
I0502 21:12:17.178783  2835 net.cpp:84] Creating Layer conv3
I0502 21:12:17.178788  2835 net.cpp:406] conv3 <- pool2
I0502 21:12:17.178797  2835 net.cpp:380] conv3 -> conv3
I0502 21:12:17.210827  2835 net.cpp:122] Setting up conv3
I0502 21:12:17.210855  2835 net.cpp:129] Top shape: 128 384 13 13 (8306688)
I0502 21:12:17.210861  2835 net.cpp:137] Memory required for data: 903067648
I0502 21:12:17.210881  2835 layer_factory.hpp:77] Creating layer relu3
I0502 21:12:17.210896  2835 net.cpp:84] Creating Layer relu3
I0502 21:12:17.210903  2835 net.cpp:406] relu3 <- conv3
I0502 21:12:17.210912  2835 net.cpp:367] relu3 -> conv3 (in-place)
I0502 21:12:17.211576  2835 net.cpp:122] Setting up relu3
I0502 21:12:17.211586  2835 net.cpp:129] Top shape: 128 384 13 13 (8306688)
I0502 21:12:17.211591  2835 net.cpp:137] Memory required for data: 936294400
I0502 21:12:17.211596  2835 layer_factory.hpp:77] Creating layer conv4
I0502 21:12:17.211608  2835 net.cpp:84] Creating Layer conv4
I0502 21:12:17.211613  2835 net.cpp:406] conv4 <- conv3
I0502 21:12:17.211621  2835 net.cpp:380] conv4 -> conv4
I0502 21:12:17.223142  2835 net.cpp:122] Setting up conv4
I0502 21:12:17.223163  2835 net.cpp:129] Top shape: 128 384 13 13 (8306688)
I0502 21:12:17.223168  2835 net.cpp:137] Memory required for data: 969521152
I0502 21:12:17.223181  2835 layer_factory.hpp:77] Creating layer relu4
I0502 21:12:17.223191  2835 net.cpp:84] Creating Layer relu4
I0502 21:12:17.223197  2835 net.cpp:406] relu4 <- conv4
I0502 21:12:17.223207  2835 net.cpp:367] relu4 -> conv4 (in-place)
I0502 21:12:17.223560  2835 net.cpp:122] Setting up relu4
I0502 21:12:17.223589  2835 net.cpp:129] Top shape: 128 384 13 13 (8306688)
I0502 21:12:17.223593  2835 net.cpp:137] Memory required for data: 1002747904
I0502 21:12:17.223600  2835 layer_factory.hpp:77] Creating layer conv5
I0502 21:12:17.223614  2835 net.cpp:84] Creating Layer conv5
I0502 21:12:17.223619  2835 net.cpp:406] conv5 <- conv4
I0502 21:12:17.223628  2835 net.cpp:380] conv5 -> conv5
I0502 21:12:17.234133  2835 net.cpp:122] Setting up conv5
I0502 21:12:17.234158  2835 net.cpp:129] Top shape: 128 256 13 13 (5537792)
I0502 21:12:17.234165  2835 net.cpp:137] Memory required for data: 1024899072
I0502 21:12:17.234184  2835 layer_factory.hpp:77] Creating layer relu5
I0502 21:12:17.234200  2835 net.cpp:84] Creating Layer relu5
I0502 21:12:17.234206  2835 net.cpp:406] relu5 <- conv5
I0502 21:12:17.234215  2835 net.cpp:367] relu5 -> conv5 (in-place)
I0502 21:12:17.234984  2835 net.cpp:122] Setting up relu5
I0502 21:12:17.234998  2835 net.cpp:129] Top shape: 128 256 13 13 (5537792)
I0502 21:12:17.235003  2835 net.cpp:137] Memory required for data: 1047050240
I0502 21:12:17.235009  2835 layer_factory.hpp:77] Creating layer pool5
I0502 21:12:17.235023  2835 net.cpp:84] Creating Layer pool5
I0502 21:12:17.235028  2835 net.cpp:406] pool5 <- conv5
I0502 21:12:17.235036  2835 net.cpp:380] pool5 -> pool5
I0502 21:12:17.235093  2835 net.cpp:122] Setting up pool5
I0502 21:12:17.235103  2835 net.cpp:129] Top shape: 128 256 6 6 (1179648)
I0502 21:12:17.235110  2835 net.cpp:137] Memory required for data: 1051768832
I0502 21:12:17.235114  2835 layer_factory.hpp:77] Creating layer fc6
I0502 21:12:17.235129  2835 net.cpp:84] Creating Layer fc6
I0502 21:12:17.235136  2835 net.cpp:406] fc6 <- pool5
I0502 21:12:17.235144  2835 net.cpp:380] fc6 -> fc6
I0502 21:12:17.660136  2835 net.cpp:122] Setting up fc6
I0502 21:12:17.660158  2835 net.cpp:129] Top shape: 128 4096 (524288)
I0502 21:12:17.660163  2835 net.cpp:137] Memory required for data: 1053865984
I0502 21:12:17.660173  2835 layer_factory.hpp:77] Creating layer relu6
I0502 21:12:17.660183  2835 net.cpp:84] Creating Layer relu6
I0502 21:12:17.660189  2835 net.cpp:406] relu6 <- fc6
I0502 21:12:17.660197  2835 net.cpp:367] relu6 -> fc6 (in-place)
I0502 21:12:17.662673  2835 net.cpp:122] Setting up relu6
I0502 21:12:17.662684  2835 net.cpp:129] Top shape: 128 4096 (524288)
I0502 21:12:17.662688  2835 net.cpp:137] Memory required for data: 1055963136
I0502 21:12:17.662693  2835 layer_factory.hpp:77] Creating layer drop6
I0502 21:12:17.662700  2835 net.cpp:84] Creating Layer drop6
I0502 21:12:17.662705  2835 net.cpp:406] drop6 <- fc6
I0502 21:12:17.662712  2835 net.cpp:367] drop6 -> fc6 (in-place)
I0502 21:12:17.662740  2835 net.cpp:122] Setting up drop6
I0502 21:12:17.662747  2835 net.cpp:129] Top shape: 128 4096 (524288)
I0502 21:12:17.662752  2835 net.cpp:137] Memory required for data: 1058060288
I0502 21:12:17.662756  2835 layer_factory.hpp:77] Creating layer fc7
I0502 21:12:17.662765  2835 net.cpp:84] Creating Layer fc7
I0502 21:12:17.662768  2835 net.cpp:406] fc7 <- fc6
I0502 21:12:17.662777  2835 net.cpp:380] fc7 -> fc7
I0502 21:12:17.895957  2835 net.cpp:122] Setting up fc7
I0502 21:12:17.895980  2835 net.cpp:129] Top shape: 128 4096 (524288)
I0502 21:12:17.895984  2835 net.cpp:137] Memory required for data: 1060157440
I0502 21:12:17.895993  2835 layer_factory.hpp:77] Creating layer relu7
I0502 21:12:17.896003  2835 net.cpp:84] Creating Layer relu7
I0502 21:12:17.896008  2835 net.cpp:406] relu7 <- fc7
I0502 21:12:17.896015  2835 net.cpp:367] relu7 -> fc7 (in-place)
I0502 21:12:17.920544  2835 net.cpp:122] Setting up relu7
I0502 21:12:17.920567  2835 net.cpp:129] Top shape: 128 4096 (524288)
I0502 21:12:17.920573  2835 net.cpp:137] Memory required for data: 1062254592
I0502 21:12:17.920579  2835 layer_factory.hpp:77] Creating layer drop7
I0502 21:12:17.920590  2835 net.cpp:84] Creating Layer drop7
I0502 21:12:17.920595  2835 net.cpp:406] drop7 <- fc7
I0502 21:12:17.920603  2835 net.cpp:367] drop7 -> fc7 (in-place)
I0502 21:12:17.920647  2835 net.cpp:122] Setting up drop7
I0502 21:12:17.920676  2835 net.cpp:129] Top shape: 128 4096 (524288)
I0502 21:12:17.920680  2835 net.cpp:137] Memory required for data: 1064351744
I0502 21:12:17.920684  2835 layer_factory.hpp:77] Creating layer fc8
I0502 21:12:17.920694  2835 net.cpp:84] Creating Layer fc8
I0502 21:12:17.920698  2835 net.cpp:406] fc8 <- fc7
I0502 21:12:17.920703  2835 net.cpp:380] fc8 -> fc8
I0502 21:12:17.938450  2835 net.cpp:122] Setting up fc8
I0502 21:12:17.938519  2835 net.cpp:129] Top shape: 128 196 (25088)
I0502 21:12:17.938525  2835 net.cpp:137] Memory required for data: 1064452096
I0502 21:12:17.938540  2835 layer_factory.hpp:77] Creating layer loss
I0502 21:12:17.938556  2835 net.cpp:84] Creating Layer loss
I0502 21:12:17.938565  2835 net.cpp:406] loss <- fc8
I0502 21:12:17.938572  2835 net.cpp:406] loss <- label
I0502 21:12:17.938581  2835 net.cpp:380] loss -> loss
I0502 21:12:17.938596  2835 layer_factory.hpp:77] Creating layer loss
…
I0502 21:12:17.945240  2835 solver.cpp:172] Creating test net (#0) specified by net file: train_val.prototxt
I0502 21:12:17.945282  2835 net.cpp:294] The NetState phase (1) differed from the phase (0) specified by a rule in layer train-data
I0502 21:12:17.945524  2835 net.cpp:51] Initializing net from parameters:
state {
phase: TEST
}
layer {
name: "val-data"
type: "Data"
top: "data"
top: "label"
include {
phase: TEST
}
transform_param {
crop_size: 227
mean_value: 116.0869
mean_value: 117.34734
mean_value: 119.99591
}
data_param {
source: "/mnt/bigdisk/MANDIG2/digits/jobs/20200428-132136-11fe/val_db"
batch_size: 32
backend: LMDB
}
}
layer {
name: "conv1"
type: "Convolution"
bottom: "data"
top: "conv1"
param {
lr_mult: 1
decay_mult: 1
}
param {
lr_mult: 2
decay_mult: 0
}
convolution_param {
num_output: 96
kernel_size: 11
stride: 4
weight_filler {
type: "gaussian"
std: 0.01
}
bias_filler {
type: "constant"
value: 0
}
}
}
layer {
name: "relu1"
type: "ReLU"
bottom: "conv1"
top: "conv1"
}
layer {
name: "norm1"
type: "LRN"
bottom: "conv1"
top: "norm1"
lrn_param {
local_size: 5
alpha: 0.0001
beta: 0.75
}
}
layer {
name: "pool1"
type: "Pooling"
bottom: "norm1"
top: "pool1"
pooling_param {
pool: MAX
kernel_size: 3
stride: 2
}
}
layer {
name: "conv2"
type: "Convolution"
bottom: "pool1"
top: "conv2"
param {
lr_mult: 1
decay_mult: 1
}
param {
lr_mult: 2
decay_mult: 0
}
convolution_param {
num_output: 256
pad: 2
kernel_size: 5
group: 2
weight_filler {
type: "gaussian"
std: 0.01
}
bias_filler {
type: "constant"
value: 0.1
}
}
}
layer {
name: "relu2"
type: "ReLU"
bottom: "conv2"
top: "conv2"
}
layer {
name: "norm2"
type: "LRN"
bottom: "conv2"
top: "norm2"
lrn_param {
local_size: 5
alpha: 0.0001
beta: 0.75
}
}
layer {
name: "pool2"
type: "Pooling"
bottom: "norm2"
top: "pool2"
pooling_param {
pool: MAX
kernel_size: 3
stride: 2
}
}
layer {
name: "conv3"
type: "Convolution"
bottom: "pool2"
top: "conv3"
param {
lr_mult: 1
decay_mult: 1
}
param {
lr_mult: 2
decay_mult: 0
}
convolution_param {
num_output: 384
pad: 1
kernel_size: 3
weight_filler {
type: "gaussian"
std: 0.01
}
bias_filler {
type: "constant"
value: 0
}
}
}
layer {
name: "relu3"
type: "ReLU"
bottom: "conv3"
top: "conv3"
}
layer {
name: "conv4"
type: "Convolution"
bottom: "conv3"
top: "conv4"
param {
lr_mult: 1
decay_mult: 1
}
param {
lr_mult: 2
decay_mult: 0
}
convolution_param {
num_output: 384
pad: 1
kernel_size: 3
group: 2
weight_filler {
type: "gaussian"
std: 0.01
}
bias_filler {
type: "constant"
value: 0.1
}
}
}
layer {
name: "relu4"
type: "ReLU"
bottom: "conv4"
top: "conv4"
}
layer {
name: "conv5"
type: "Convolution"
bottom: "conv4"
top: "conv5"
param {
lr_mult: 1
decay_mult: 1
}
param {
lr_mult: 2
decay_mult: 0
}
convolution_param {
num_output: 256
pad: 1
kernel_size: 3
group: 2
weight_filler {
type: "gaussian"
std: 0.01
}
bias_filler {
type: "constant"
value: 0.1
}
}
}
layer {
name: "relu5"
type: "ReLU"
bottom: "conv5"
top: "conv5"
}
layer {
name: "pool5"
type: "Pooling"
bottom: "conv5"
top: "pool5"
pooling_param {
pool: MAX
kernel_size: 3
stride: 2
}
}
layer {
name: "fc6"
type: "InnerProduct"
bottom: "pool5"
top: "fc6"
param {
lr_mult: 1
decay_mult: 1
}
param {
lr_mult: 2
decay_mult: 0
}
inner_product_param {
num_output: 4096
weight_filler {
type: "gaussian"
std: 0.005
}
bias_filler {
type: "constant"
value: 0.1
}
}
}
layer {
name: "relu6"
type: "ReLU"
bottom: "fc6"
top: "fc6"
}
layer {
name: "drop6"
type: "Dropout"
bottom: "fc6"
top: "fc6"
dropout_param {
dropout_ratio: 0.5
}
}
layer {
name: "fc7"
type: "InnerProduct"
bottom: "fc6"
top: "fc7"
param {
lr_mult: 1
decay_mult: 1
}
param {
lr_mult: 2
decay_mult: 0
}
inner_product_param {
num_output: 4096
weight_filler {
type: "gaussian"
std: 0.005
}
bias_filler {
type: "constant"
value: 0.1
}
}
}
layer {
name: "relu7"
type: "ReLU"
bottom: "fc7"
top: "fc7"
}
layer {
name: "drop7"
type: "Dropout"
bottom: "fc7"
top: "fc7"
dropout_param {
dropout_ratio: 0.5
}
}
layer {
name: "fc8"
type: "InnerProduct"
bottom: "fc7"
top: "fc8"
param {
lr_mult: 1
decay_mult: 1
}
param {
lr_mult: 2
decay_mult: 0
}
inner_product_param {
num_output: 196
weight_filler {
type: "gaussian"
std: 0.01
}
bias_filler {
type: "constant"
value: 0
}
}
}
layer {
name: "accuracy"
type: "Accuracy"
bottom: "fc8"
bottom: "label"
top: "accuracy"
include {
phase: TEST
}
}
layer {
name: "loss"
type: "SoftmaxWithLoss"
bottom: "fc8"
bottom: "label"
top: "loss"
}
I0502 21:12:17.945686  2835 layer_factory.hpp:77] Creating layer val-data
I0502 21:12:17.948421  2835 db_lmdb.cpp:35] Opened lmdb /mnt/bigdisk/MANDIG2/digits/jobs/20200428-132136-11fe/val_db
I0502 21:12:17.948642  2835 net.cpp:84] Creating Layer val-data
I0502 21:12:17.948658  2835 net.cpp:380] val-data -> data
I0502 21:12:17.948673  2835 net.cpp:380] val-data -> label
I0502 21:12:17.952147  2835 data_layer.cpp:45] output data size: 32,3,227,227
I0502 21:12:18.009863  2835 net.cpp:122] Setting up val-data
I0502 21:12:18.009891  2835 net.cpp:129] Top shape: 32 3 227 227 (4946784)
I0502 21:12:18.009898  2835 net.cpp:129] Top shape: 32 (32)
I0502 21:12:18.009902  2835 net.cpp:137] Memory required for data: 19787264
I0502 21:12:18.009912  2835 layer_factory.hpp:77] Creating layer label_val-data_1_split
I0502 21:12:18.009928  2835 net.cpp:84] Creating Layer label_val-data_1_split
I0502 21:12:18.009933  2835 net.cpp:406] label_val-data_1_split <- label
I0502 21:12:18.009943  2835 net.cpp:380] label_val-data_1_split -> label_val-data_1_split_0
I0502 21:12:18.009955  2835 net.cpp:380] label_val-data_1_split -> label_val-data_1_split_1
I0502 21:12:18.010020  2835 net.cpp:122] Setting up label_val-data_1_split
I0502 21:12:18.010028  2835 net.cpp:129] Top shape: 32 (32)
I0502 21:12:18.010033  2835 net.cpp:129] Top shape: 32 (32)
I0502 21:12:18.010038  2835 net.cpp:137] Memory required for data: 19787520
I0502 21:12:18.010042  2835 layer_factory.hpp:77] Creating layer conv1
I0502 21:12:18.010061  2835 net.cpp:84] Creating Layer conv1
I0502 21:12:18.010064  2835 net.cpp:406] conv1 <- data
I0502 21:12:18.010072  2835 net.cpp:380] conv1 -> conv1
I0502 21:12:18.015574  2835 net.cpp:122] Setting up conv1
I0502 21:12:18.015594  2835 net.cpp:129] Top shape: 32 96 55 55 (9292800)
I0502 21:12:18.015600  2835 net.cpp:137] Memory required for data: 56958720
I0502 21:12:18.015616  2835 layer_factory.hpp:77] Creating layer relu1
I0502 21:12:18.015630  2835 net.cpp:84] Creating Layer relu1
I0502 21:12:18.015635  2835 net.cpp:406] relu1 <- conv1
I0502 21:12:18.015645  2835 net.cpp:367] relu1 -> conv1 (in-place)
I0502 21:12:18.016059  2835 net.cpp:122] Setting up relu1
I0502 21:12:18.016070  2835 net.cpp:129] Top shape: 32 96 55 55 (9292800)
I0502 21:12:18.016074  2835 net.cpp:137] Memory required for data: 94129920
I0502 21:12:18.016078  2835 layer_factory.hpp:77] Creating layer norm1
I0502 21:12:18.016088  2835 net.cpp:84] Creating Layer norm1
I0502 21:12:18.016091  2835 net.cpp:406] norm1 <- conv1
I0502 21:12:18.016098  2835 net.cpp:380] norm1 -> norm1
I0502 21:12:18.031721  2835 net.cpp:122] Setting up norm1
I0502 21:12:18.031744  2835 net.cpp:129] Top shape: 32 96 55 55 (9292800)
I0502 21:12:18.031749  2835 net.cpp:137] Memory required for data: 131301120
I0502 21:12:18.031754  2835 layer_factory.hpp:77] Creating layer pool1
I0502 21:12:18.031769  2835 net.cpp:84] Creating Layer pool1
I0502 21:12:18.031774  2835 net.cpp:406] pool1 <- norm1
I0502 21:12:18.031780  2835 net.cpp:380] pool1 -> pool1
I0502 21:12:18.031816  2835 net.cpp:122] Setting up pool1
I0502 21:12:18.031821  2835 net.cpp:129] Top shape: 32 96 27 27 (2239488)
I0502 21:12:18.031824  2835 net.cpp:137] Memory required for data: 140259072
I0502 21:12:18.031827  2835 layer_factory.hpp:77] Creating layer conv2
I0502 21:12:18.031841  2835 net.cpp:84] Creating Layer conv2
I0502 21:12:18.031846  2835 net.cpp:406] conv2 <- pool1
I0502 21:12:18.031852  2835 net.cpp:380] conv2 -> conv2
I0502 21:12:18.039793  2835 net.cpp:122] Setting up conv2
I0502 21:12:18.039813  2835 net.cpp:129] Top shape: 32 256 27 27 (5971968)
I0502 21:12:18.039816  2835 net.cpp:137] Memory required for data: 164146944
I0502 21:12:18.039827  2835 layer_factory.hpp:77] Creating layer relu2
I0502 21:12:18.039857  2835 net.cpp:84] Creating Layer relu2
I0502 21:12:18.039862  2835 net.cpp:406] relu2 <- conv2
I0502 21:12:18.039870  2835 net.cpp:367] relu2 -> conv2 (in-place)
I0502 21:12:18.040372  2835 net.cpp:122] Setting up relu2
I0502 21:12:18.040383  2835 net.cpp:129] Top shape: 32 256 27 27 (5971968)
I0502 21:12:18.040387  2835 net.cpp:137] Memory required for data: 188034816
I0502 21:12:18.040392  2835 layer_factory.hpp:77] Creating layer norm2
I0502 21:12:18.040403  2835 net.cpp:84] Creating Layer norm2
I0502 21:12:18.040408  2835 net.cpp:406] norm2 <- conv2
I0502 21:12:18.040416  2835 net.cpp:380] norm2 -> norm2
I0502 21:12:18.040942  2835 net.cpp:122] Setting up norm2
I0502 21:12:18.040952  2835 net.cpp:129] Top shape: 32 256 27 27 (5971968)
I0502 21:12:18.040957  2835 net.cpp:137] Memory required for data: 211922688
I0502 21:12:18.040961  2835 layer_factory.hpp:77] Creating layer pool2
I0502 21:12:18.040969  2835 net.cpp:84] Creating Layer pool2
I0502 21:12:18.040973  2835 net.cpp:406] pool2 <- norm2
I0502 21:12:18.040978  2835 net.cpp:380] pool2 -> pool2
I0502 21:12:18.041010  2835 net.cpp:122] Setting up pool2
I0502 21:12:18.041016  2835 net.cpp:129] Top shape: 32 256 13 13 (1384448)
I0502 21:12:18.041019  2835 net.cpp:137] Memory required for data: 217460480
I0502 21:12:18.041023  2835 layer_factory.hpp:77] Creating layer conv3
I0502 21:12:18.041033  2835 net.cpp:84] Creating Layer conv3
I0502 21:12:18.041038  2835 net.cpp:406] conv3 <- pool2
I0502 21:12:18.041043  2835 net.cpp:380] conv3 -> conv3
I0502 21:12:18.060922  2835 net.cpp:122] Setting up conv3
I0502 21:12:18.060945  2835 net.cpp:129] Top shape: 32 384 13 13 (2076672)
I0502 21:12:18.060948  2835 net.cpp:137] Memory required for data: 225767168
I0502 21:12:18.060963  2835 layer_factory.hpp:77] Creating layer relu3
I0502 21:12:18.060974  2835 net.cpp:84] Creating Layer relu3
I0502 21:12:18.060979  2835 net.cpp:406] relu3 <- conv3
I0502 21:12:18.060986  2835 net.cpp:367] relu3 -> conv3 (in-place)
I0502 21:12:18.075402  2835 net.cpp:122] Setting up relu3
I0502 21:12:18.075423  2835 net.cpp:129] Top shape: 32 384 13 13 (2076672)
I0502 21:12:18.075429  2835 net.cpp:137] Memory required for data: 234073856
I0502 21:12:18.075436  2835 layer_factory.hpp:77] Creating layer conv4
I0502 21:12:18.075453  2835 net.cpp:84] Creating Layer conv4
I0502 21:12:18.075459  2835 net.cpp:406] conv4 <- conv3
I0502 21:12:18.075469  2835 net.cpp:380] conv4 -> conv4
I0502 21:12:18.085497  2835 net.cpp:122] Setting up conv4
I0502 21:12:18.085520  2835 net.cpp:129] Top shape: 32 384 13 13 (2076672)
I0502 21:12:18.085525  2835 net.cpp:137] Memory required for data: 242380544
I0502 21:12:18.085536  2835 layer_factory.hpp:77] Creating layer relu4
I0502 21:12:18.085546  2835 net.cpp:84] Creating Layer relu4
I0502 21:12:18.085553  2835 net.cpp:406] relu4 <- conv4
I0502 21:12:18.085561  2835 net.cpp:367] relu4 -> conv4 (in-place)
I0502 21:12:18.085907  2835 net.cpp:122] Setting up relu4
I0502 21:12:18.085917  2835 net.cpp:129] Top shape: 32 384 13 13 (2076672)
I0502 21:12:18.085922  2835 net.cpp:137] Memory required for data: 250687232
I0502 21:12:18.085927  2835 layer_factory.hpp:77] Creating layer conv5
I0502 21:12:18.085938  2835 net.cpp:84] Creating Layer conv5
I0502 21:12:18.085943  2835 net.cpp:406] conv5 <- conv4
I0502 21:12:18.085952  2835 net.cpp:380] conv5 -> conv5
I0502 21:12:18.094879  2835 net.cpp:122] Setting up conv5
I0502 21:12:18.094898  2835 net.cpp:129] Top shape: 32 256 13 13 (1384448)
I0502 21:12:18.094902  2835 net.cpp:137] Memory required for data: 256225024
I0502 21:12:18.094918  2835 layer_factory.hpp:77] Creating layer relu5
I0502 21:12:18.094926  2835 net.cpp:84] Creating Layer relu5
I0502 21:12:18.094931  2835 net.cpp:406] relu5 <- conv5
I0502 21:12:18.094938  2835 net.cpp:367] relu5 -> conv5 (in-place)
I0502 21:12:18.095443  2835 net.cpp:122] Setting up relu5
I0502 21:12:18.095453  2835 net.cpp:129] Top shape: 32 256 13 13 (1384448)
I0502 21:12:18.095458  2835 net.cpp:137] Memory required for data: 261762816
I0502 21:12:18.095463  2835 layer_factory.hpp:77] Creating layer pool5
I0502 21:12:18.095494  2835 net.cpp:84] Creating Layer pool5
I0502 21:12:18.095499  2835 net.cpp:406] pool5 <- conv5
I0502 21:12:18.095504  2835 net.cpp:380] pool5 -> pool5
I0502 21:12:18.095544  2835 net.cpp:122] Setting up pool5
I0502 21:12:18.095551  2835 net.cpp:129] Top shape: 32 256 6 6 (294912)
I0502 21:12:18.095558  2835 net.cpp:137] Memory required for data: 262942464
I0502 21:12:18.095562  2835 layer_factory.hpp:77] Creating layer fc6
I0502 21:12:18.095571  2835 net.cpp:84] Creating Layer fc6
I0502 21:12:18.095575  2835 net.cpp:406] fc6 <- pool5
I0502 21:12:18.095582  2835 net.cpp:380] fc6 -> fc6
I0502 21:12:18.497000  2835 net.cpp:122] Setting up fc6
I0502 21:12:18.497025  2835 net.cpp:129] Top shape: 32 4096 (131072)
I0502 21:12:18.497030  2835 net.cpp:137] Memory required for data: 263466752
I0502 21:12:18.497040  2835 layer_factory.hpp:77] Creating layer relu6
I0502 21:12:18.497048  2835 net.cpp:84] Creating Layer relu6
I0502 21:12:18.497053  2835 net.cpp:406] relu6 <- fc6
I0502 21:12:18.497061  2835 net.cpp:367] relu6 -> fc6 (in-place)
I0502 21:12:18.500136  2835 net.cpp:122] Setting up relu6
I0502 21:12:18.500149  2835 net.cpp:129] Top shape: 32 4096 (131072)
I0502 21:12:18.500154  2835 net.cpp:137] Memory required for data: 263991040
I0502 21:12:18.500157  2835 layer_factory.hpp:77] Creating layer drop6
I0502 21:12:18.500165  2835 net.cpp:84] Creating Layer drop6
I0502 21:12:18.500169  2835 net.cpp:406] drop6 <- fc6
I0502 21:12:18.500176  2835 net.cpp:367] drop6 -> fc6 (in-place)
I0502 21:12:18.500205  2835 net.cpp:122] Setting up drop6
I0502 21:12:18.500210  2835 net.cpp:129] Top shape: 32 4096 (131072)
I0502 21:12:18.500214  2835 net.cpp:137] Memory required for data: 264515328
I0502 21:12:18.500218  2835 layer_factory.hpp:77] Creating layer fc7
I0502 21:12:18.500228  2835 net.cpp:84] Creating Layer fc7
I0502 21:12:18.500232  2835 net.cpp:406] fc7 <- fc6
I0502 21:12:18.500238  2835 net.cpp:380] fc7 -> fc7
I0502 21:12:18.709029  2835 net.cpp:122] Setting up fc7
I0502 21:12:18.709053  2835 net.cpp:129] Top shape: 32 4096 (131072)
I0502 21:12:18.709058  2835 net.cpp:137] Memory required for data: 265039616
I0502 21:12:18.709069  2835 layer_factory.hpp:77] Creating layer relu7
I0502 21:12:18.709079  2835 net.cpp:84] Creating Layer relu7
I0502 21:12:18.709084  2835 net.cpp:406] relu7 <- fc7
I0502 21:12:18.709092  2835 net.cpp:367] relu7 -> fc7 (in-place)
I0502 21:12:18.709518  2835 net.cpp:122] Setting up relu7
I0502 21:12:18.709528  2835 net.cpp:129] Top shape: 32 4096 (131072)
I0502 21:12:18.709532  2835 net.cpp:137] Memory required for data: 265563904
I0502 21:12:18.709537  2835 layer_factory.hpp:77] Creating layer drop7
I0502 21:12:18.709545  2835 net.cpp:84] Creating Layer drop7
I0502 21:12:18.709549  2835 net.cpp:406] drop7 <- fc7
I0502 21:12:18.709554  2835 net.cpp:367] drop7 -> fc7 (in-place)
I0502 21:12:18.709579  2835 net.cpp:122] Setting up drop7
I0502 21:12:18.709585  2835 net.cpp:129] Top shape: 32 4096 (131072)
I0502 21:12:18.709589  2835 net.cpp:137] Memory required for data: 266088192
I0502 21:12:18.709591  2835 layer_factory.hpp:77] Creating layer fc8
I0502 21:12:18.709600  2835 net.cpp:84] Creating Layer fc8
I0502 21:12:18.709604  2835 net.cpp:406] fc8 <- fc7
I0502 21:12:18.709609  2835 net.cpp:380] fc8 -> fc8
I0502 21:12:18.727181  2835 net.cpp:122] Setting up fc8
I0502 21:12:18.727203  2835 net.cpp:129] Top shape: 32 196 (6272)
I0502 21:12:18.727208  2835 net.cpp:137] Memory required for data: 266113280
I0502 21:12:18.727218  2835 layer_factory.hpp:77] Creating layer fc8_fc8_0_split
I0502 21:12:18.727231  2835 net.cpp:84] Creating Layer fc8_fc8_0_split
I0502 21:12:18.727237  2835 net.cpp:406] fc8_fc8_0_split <- fc8
I0502 21:12:18.727247  2835 net.cpp:380] fc8_fc8_0_split -> fc8_fc8_0_split_0
I0502 21:12:18.727258  2835 net.cpp:380] fc8_fc8_0_split -> fc8_fc8_0_split_1
I0502 21:12:18.727296  2835 net.cpp:122] Setting up fc8_fc8_0_split
I0502 21:12:18.727303  2835 net.cpp:129] Top shape: 32 196 (6272)
I0502 21:12:18.727308  2835 net.cpp:129] Top shape: 32 196 (6272)
I0502 21:12:18.727336  2835 net.cpp:137] Memory required for data: 266163456
I0502 21:12:18.727344  2835 layer_factory.hpp:77] Creating layer accuracy
I0502 21:12:18.727351  2835 net.cpp:84] Creating Layer accuracy
I0502 21:12:18.727356  2835 net.cpp:406] accuracy <- fc8_fc8_0_split_0
I0502 21:12:18.727363  2835 net.cpp:406] accuracy <- label_val-data_1_split_0
I0502 21:12:18.727372  2835 net.cpp:380] accuracy -> accuracy
…
