…
I0509 20:57:58.963169 17858 net.cpp:294] The NetState phase (0) differed from the phase (1) specified by a rule in layer loss3/top-5
I0509 20:57:58.963953 17858 net.cpp:51] Initializing net from parameters:
state {
phase: TRAIN
level: 0
stage: ""
}
layer {
name: "train-data"
type: "Data"
top: "data"
top: "label"
include {
phase: TRAIN
}
transform_param {
mirror: true
crop_size: 224
mean_value: 115.96062
mean_value: 117.19437
mean_value: 119.79225
}
data_param {
source: "/mnt/bigdisk/AMBDIG8/digits/jobs/20200509-183908-c8eb/train_db"
batch_size: 50
backend: LMDB
}
}
layer {
name: "conv1/7x7_s2"
type: "Convolution"
bottom: "data"
top: "conv1/7x7_s2"
param {
lr_mult: 1
decay_mult: 1
}
param {
lr_mult: 2
decay_mult: 0
}
convolution_param {
num_output: 64
pad: 3
kernel_size: 7
stride: 2
weight_filler {
type: "xavier"
std: 0.1
}
bias_filler {
type: "constant"
value: 0.2
}
}
}
layer {
name: "conv1/relu_7x7"
type: "ReLU"
bottom: "conv1/7x7_s2"
top: "conv1/7x7_s2"
}
layer {
name: "pool1/3x3_s2"
type: "Pooling"
bottom: "conv1/7x7_s2"
top: "pool1/3x3_s2"
pooling_param {
pool: MAX
kernel_size: 3
stride: 2
}
}
layer {
name: "pool1/norm1"
type: "LRN"
bottom: "pool1/3x3_s2"
top: "pool1/norm1"
lrn_param {
local_size: 5
alpha: 0.0001
beta: 0.75
}
}
layer {
name: "conv2/3x3_reduce"
type: "Convolution"
bottom: "pool1/norm1"
top: "conv2/3x3_reduce"
param {
lr_mult: 1
decay_mult: 1
}
param {
lr_mult: 2
decay_mult: 0
}
convolution_param {
num_output: 64
kernel_size: 1
weight_filler {
type: "xavier"
std: 0.1
}
bias_filler {
type: "constant"
value: 0.2
}
}
}
layer {
name: "conv2/relu_3x3_reduce"
type: "ReLU"
bottom: "conv2/3x3_reduce"
top: "conv2/3x3_reduce"
}
layer {
name: "conv2/3x3"
type: "Convolution"
bottom: "conv2/3x3_reduce"
top: "conv2/3x3"
param {
lr_mult: 1
decay_mult: 1
}
param {
lr_mult: 2
decay_mult: 0
}
convolution_param {
num_output: 192
pad: 1
kernel_size: 3
weight_filler {
type: "xavier"
std: 0.03
}
bias_filler {
type: "constant"
value: 0.2
}
}
}
layer {
name: "conv2/relu_3x3"
type: "ReLU"
bottom: "conv2/3x3"
top: "conv2/3x3"
}
layer {
name: "conv2/norm2"
type: "LRN"
bottom: "conv2/3x3"
top: "conv2/norm2"
lrn_param {
local_size: 5
alpha: 0.0001
beta: 0.75
}
}
layer {
name: "pool2/3x3_s2"
type: "Pooling"
bottom: "conv2/norm2"
top: "pool2/3x3_s2"
pooling_param {
pool: MAX
kernel_size: 3
stride: 2
}
}
layer {
name: "inception_3a/1x1"
type: "Convolution"
bottom: "pool2/3x3_s2"
top: "inception_3a/1x1"
param {
lr_mult: 1
decay_mult: 1
}
param {
lr_mult: 2
decay_mult: 0
}
convolution_param {
num_output: 64
kernel_size: 1
weight_filler {
type: "xavier"
std: 0.03
}
bias_filler {
type: "constant"
value: 0.2
}
}
}
layer {
name: "inception_3a/relu_1x1"
type: "ReLU"
bottom: "inception_3a/1x1"
top: "inception_3a/1x1"
}
layer {
name: "inception_3a/3x3_reduce"
type: "Convolution"
bottom: "pool2/3x3_s2"
top: "inception_3a/3x3_reduce"
param {
lr_mult: 1
decay_mult: 1
}
param {
lr_mult: 2
decay_mult: 0
}
convolution_param {
num_output: 96
kernel_size: 1
weight_filler {
type: "xavier"
std: 0.09
}
bias_filler {
type: "constant"
value: 0.2
}
}
}
layer {
name: "inception_3a/relu_3x3_reduce"
type: "ReLU"
bottom: "inception_3a/3x3_reduce"
top: "inception_3a/3x3_reduce"
}
layer {
name: "inception_3a/3x3"
type: "Convolution"
bottom: "inception_3a/3x3_reduce"
top: "inception_3a/3x3"
param {
lr_mult: 1
decay_mult: 1
}
param {
lr_mult: 2
decay_mult: 0
}
convolution_param {
num_output: 128
pad: 1
kernel_size: 3
weight_filler {
type: "xavier"
std: 0.03
}
bias_filler {
type: "constant"
value: 0.2
}
}
}
layer {
name: "inception_3a/relu_3x3"
type: "ReLU"
bottom: "inception_3a/3x3"
top: "inception_3a/3x3"
}
layer {
name: "inception_3a/5x5_reduce"
type: "Convolution"
bottom: "pool2/3x3_s2"
top: "inception_3a/5x5_reduce"
param {
lr_mult: 1
decay_mult: 1
}
param {
lr_mult: 2
decay_mult: 0
}
convolution_param {
num_output: 16
kernel_size: 1
weight_filler {
type: "xavier"
std: 0.2
}
bias_filler {
type: "constant"
value: 0.2
}
}
}
layer {
name: "inception_3a/relu_5x5_reduce"
type: "ReLU"
bottom: "inception_3a/5x5_reduce"
top: "inception_3a/5x5_reduce"
}
layer {
name: "inception_3a/5x5"
type: "Convolution"
bottom: "inception_3a/5x5_reduce"
top: "inception_3a/5x5"
param {
lr_mult: 1
decay_mult: 1
}
param {
lr_mult: 2
decay_mult: 0
}
convolution_param {
num_output: 32
pad: 2
kernel_size: 5
weight_filler {
type: "xavier"
std: 0.03
}
bias_filler {
type: "constant"
value: 0.2
}
}
}
layer {
name: "inception_3a/relu_5x5"
type: "ReLU"
bottom: "inception_3a/5x5"
top: "inception_3a/5x5"
}
layer {
name: "inception_3a/pool"
type: "Pooling"
bottom: "pool2/3x3_s2"
top: "inception_3a/pool"
pooling_param {
pool: MAX
kernel_size: 3
stride: 1
pad: 1
}
}
layer {
name: "inception_3a/pool_proj"
type: "Convolution"
bottom: "inception_3a/pool"
top: "inception_3a/pool_proj"
param {
lr_mult: 1
decay_mult: 1
}
param {
lr_mult: 2
decay_mult: 0
}
convolution_param {
num_output: 32
kernel_size: 1
weight_filler {
type: "xavier"
std: 0.1
}
bias_filler {
type: "constant"
value: 0.2
}
}
}
layer {
name: "inception_3a/relu_pool_proj"
type: "ReLU"
bottom: "inception_3a/pool_proj"
top: "inception_3a/pool_proj"
}
layer {
name: "inception_3a/output"
type: "Concat"
bottom: "inception_3a/1x1"
bottom: "inception_3a/3x3"
bottom: "inception_3a/5x5"
bottom: "inception_3a/pool_proj"
top: "inception_3a/output"
}
layer {
name: "inception_3b/1x1"
type: "Convolution"
bottom: "inception_3a/output"
top: "inception_3b/1x1"
param {
lr_mult: 1
decay_mult: 1
}
param {
lr_mult: 2
decay_mult: 0
}
convolution_param {
num_output: 128
kernel_size: 1
weight_filler {
type: "xavier"
std: 0.03
}
bias_filler {
type: "constant"
value: 0.2
}
}
}
layer {
name: "inception_3b/relu_1x1"
type: "ReLU"
bottom: "inception_3b/1x1"
top: "inception_3b/1x1"
}
layer {
name: "inception_3b/3x3_reduce"
type: "Convolution"
bottom: "inception_3a/output"
top: "inception_3b/3x3_reduce"
param {
lr_mult: 1
decay_mult: 1
}
param {
lr_mult: 2
decay_mult: 0
}
convolution_param {
num_output: 128
kernel_size: 1
weight_filler {
type: "xavier"
std: 0.09
}
bias_filler {
type: "constant"
value: 0.2
}
}
}
layer {
name: "inception_3b/relu_3x3_reduce"
type: "ReLU"
bottom: "inception_3b/3x3_reduce"
top: "inception_3b/3x3_reduce"
}
layer {
name: "inception_3b/3x3"
type: "Convolution"
bottom: "inception_3b/3x3_reduce"
top: "inception_3b/3x3"
param {
lr_mult: 1
decay_mult: 1
}
param {
lr_mult: 2
decay_mult: 0
}
convolution_param {
num_output: 192
pad: 1
kernel_size: 3
weight_filler {
type: "xavier"
std: 0.03
}
bias_filler {
type: "constant"
value: 0.2
}
}
}
layer {
name: "inception_3b/relu_3x3"
type: "ReLU"
bottom: "inception_3b/3x3"
top: "inception_3b/3x3"
}
layer {
name: "inception_3b/5x5_reduce"
type: "Convolution"
bottom: "inception_3a/output"
top: "inception_3b/5x5_reduce"
param {
lr_mult: 1
decay_mult: 1
}
param {
lr_mult: 2
decay_mult: 0
}
convolution_param {
num_output: 32
kernel_size: 1
weight_filler {
type: "xavier"
std: 0.2
}
bias_filler {
type: "constant"
value: 0.2
}
}
}
layer {
name: "inception_3b/relu_5x5_reduce"
type: "ReLU"
bottom: "inception_3b/5x5_reduce"
top: "inception_3b/5x5_reduce"
}
layer {
name: "inception_3b/5x5"
type: "Convolution"
bottom: "inception_3b/5x5_reduce"
top: "inception_3b/5x5"
param {
lr_mult: 1
decay_mult: 1
}
param {
lr_mult: 2
decay_mult: 0
}
convolution_param {
num_output: 96
pad: 2
kernel_size: 5
weight_filler {
type: "xavier"
std: 0.03
}
bias_filler {
type: "constant"
value: 0.2
}
}
}
layer {
name: "inception_3b/relu_5x5"
type: "ReLU"
bottom: "inception_3b/5x5"
top: "inception_3b/5x5"
}
layer {
name: "inception_3b/pool"
type: "Pooling"
bottom: "inception_3a/output"
top: "inception_3b/pool"
pooling_param {
pool: MAX
kernel_size: 3
stride: 1
pad: 1
}
}
layer {
name: "inception_3b/pool_proj"
type: "Convolution"
bottom: "inception_3b/pool"
top: "inception_3b/pool_proj"
param {
lr_mult: 1
decay_mult: 1
}
param {
lr_mult: 2
decay_mult: 0
}
convolution_param {
num_output: 64
kernel_size: 1
weight_filler {
type: "xavier"
std: 0.1
}
bias_filler {
type: "constant"
value: 0.2
}
}
}
layer {
name: "inception_3b/relu_pool_proj"
type: "ReLU"
bottom: "inception_3b/pool_proj"
top: "inception_3b/pool_proj"
}
layer {
name: "inception_3b/output"
type: "Concat"
bottom: "inception_3b/1x1"
bottom: "inception_3b/3x3"
bottom: "inception_3b/5x5"
bottom: "inception_3b/pool_proj"
top: "inception_3b/output"
}
layer {
name: "pool3/3x3_s2"
type: "Pooling"
bottom: "inception_3b/output"
top: "pool3/3x3_s2"
pooling_param {
pool: MAX
kernel_size: 3
stride: 2
}
}
layer {
name: "inception_4a/1x1"
type: "Convolution"
bottom: "pool3/3x3_s2"
top: "inception_4a/1x1"
param {
lr_mult: 1
decay_mult: 1
}
param {
lr_mult: 2
decay_mult: 0
}
convolution_param {
num_output: 192
kernel_size: 1
weight_filler {
type: "xavier"
std: 0.03
}
bias_filler {
type: "constant"
value: 0.2
}
}
}
layer {
name: "inception_4a/relu_1x1"
type: "ReLU"
bottom: "inception_4a/1x1"
top: "inception_4a/1x1"
}
layer {
name: "inception_4a/3x3_reduce"
type: "Convolution"
bottom: "pool3/3x3_s2"
top: "inception_4a/3x3_reduce"
param {
lr_mult: 1
decay_mult: 1
}
param {
lr_mult: 2
decay_mult: 0
}
convolution_param {
num_output: 96
kernel_size: 1
weight_filler {
type: "xavier"
std: 0.09
}
bias_filler {
type: "constant"
value: 0.2
}
}
}
layer {
name: "inception_4a/relu_3x3_reduce"
type: "ReLU"
bottom: "inception_4a/3x3_reduce"
top: "inception_4a/3x3_reduce"
}
layer {
name: "inception_4a/3x3"
type: "Convolution"
bottom: "inception_4a/3x3_reduce"
top: "inception_4a/3x3"
param {
lr_mult: 1
decay_mult: 1
}
param {
lr_mult: 2
decay_mult: 0
}
convolution_param {
num_output: 208
pad: 1
kernel_size: 3
weight_filler {
type: "xavier"
std: 0.03
}
bias_filler {
type: "constant"
value: 0.2
}
}
}
layer {
name: "inception_4a/relu_3x3"
type: "ReLU"
bottom: "inception_4a/3x3"
top: "inception_4a/3x3"
}
layer {
name: "inception_4a/5x5_reduce"
type: "Convolution"
bottom: "pool3/3x3_s2"
top: "inception_4a/5x5_reduce"
param {
lr_mult: 1
decay_mult: 1
}
param {
lr_mult: 2
decay_mult: 0
}
convolution_param {
num_output: 16
kernel_size: 1
weight_filler {
type: "xavier"
std: 0.2
}
bias_filler {
type: "constant"
value: 0.2
}
}
}
layer {
name: "inception_4a/relu_5x5_reduce"
type: "ReLU"
bottom: "inception_4a/5x5_reduce"
top: "inception_4a/5x5_reduce"
}
layer {
name: "inception_4a/5x5"
type: "Convolution"
bottom: "inception_4a/5x5_reduce"
top: "inception_4a/5x5"
param {
lr_mult: 1
decay_mult: 1
}
param {
lr_mult: 2
decay_mult: 0
}
convolution_param {
num_output: 48
pad: 2
kernel_size: 5
weight_filler {
type: "xavier"
std: 0.03
}
bias_filler {
type: "constant"
value: 0.2
}
}
}
layer {
name: "inception_4a/relu_5x5"
type: "ReLU"
bottom: "inception_4a/5x5"
top: "inception_4a/5x5"
}
layer {
name: "inception_4a/pool"
type: "Pooling"
bottom: "pool3/3x3_s2"
top: "inception_4a/pool"
pooling_param {
pool: MAX
kernel_size: 3
stride: 1
pad: 1
}
}
layer {
name: "inception_4a/pool_proj"
type: "Convolution"
bottom: "inception_4a/pool"
top: "inception_4a/pool_proj"
param {
lr_mult: 1
decay_mult: 1
}
param {
lr_mult: 2
decay_mult: 0
}
convolution_param {
num_output: 64
kernel_size: 1
weight_filler {
type: "xavier"
std: 0.1
}
bias_filler {
type: "constant"
value: 0.2
}
}
}
layer {
name: "inception_4a/relu_pool_proj"
type: "ReLU"
bottom: "inception_4a/pool_proj"
top: "inception_4a/pool_proj"
}
layer {
name: "inception_4a/output"
type: "Concat"
bottom: "inception_4a/1x1"
bottom: "inception_4a/3x3"
bottom: "inception_4a/5x5"
bottom: "inception_4a/pool_proj"
top: "inception_4a/output"
}
layer {
name: "loss1/ave_pool"
type: "Pooling"
bottom: "inception_4a/output"
top: "loss1/ave_pool"
pooling_param {
pool: AVE
kernel_size: 5
stride: 3
}
}
layer {
name: "loss1/conv"
type: "Convolution"
bottom: "loss1/ave_pool"
top: "loss1/conv"
param {
lr_mult: 1
decay_mult: 1
}
param {
lr_mult: 2
decay_mult: 0
}
convolution_param {
num_output: 128
kernel_size: 1
weight_filler {
type: "xavier"
std: 0.08
}
bias_filler {
type: "constant"
value: 0.2
}
}
}
layer {
name: "loss1/relu_conv"
type: "ReLU"
bottom: "loss1/conv"
top: "loss1/conv"
}
layer {
name: "loss1/fc"
type: "InnerProduct"
bottom: "loss1/conv"
top: "loss1/fc"
param {
lr_mult: 1
decay_mult: 1
}
param {
lr_mult: 2
decay_mult: 0
}
inner_product_param {
num_output: 1024
weight_filler {
type: "xavier"
std: 0.02
}
bias_filler {
type: "constant"
value: 0.2
}
}
}
layer {
name: "loss1/relu_fc"
type: "ReLU"
bottom: "loss1/fc"
top: "loss1/fc"
}
layer {
name: "loss1/drop_fc"
type: "Dropout"
bottom: "loss1/fc"
top: "loss1/fc"
dropout_param {
dropout_ratio: 0.7
}
}
layer {
name: "loss1/classifier"
type: "InnerProduct"
bottom: "loss1/fc"
top: "loss1/classifier"
param {
lr_mult: 1
decay_mult: 1
}
param {
lr_mult: 2
decay_mult: 0
}
inner_product_param {
num_output: 196
weight_filler {
type: "xavier"
std: 0.0009765625
}
bias_filler {
type: "constant"
value: 0
}
}
}
layer {
name: "loss1/loss"
type: "SoftmaxWithLoss"
bottom: "loss1/classifier"
bottom: "label"
top: "loss1/loss"
loss_weight: 0.3
}
layer {
name: "inception_4b/1x1"
type: "Convolution"
bottom: "inception_4a/output"
top: "inception_4b/1x1"
param {
lr_mult: 1
decay_mult: 1
}
param {
lr_mult: 2
decay_mult: 0
}
convolution_param {
num_output: 160
kernel_size: 1
weight_filler {
type: "xavier"
std: 0.03
}
bias_filler {
type: "constant"
value: 0.2
}
}
}
layer {
name: "inception_4b/relu_1x1"
type: "ReLU"
bottom: "inception_4b/1x1"
top: "inception_4b/1x1"
}
layer {
name: "inception_4b/3x3_reduce"
type: "Convolution"
bottom: "inception_4a/output"
top: "inception_4b/3x3_reduce"
param {
lr_mult: 1
decay_mult: 1
}
param {
lr_mult: 2
decay_mult: 0
}
convolution_param {
num_output: 112
kernel_size: 1
weight_filler {
type: "xavier"
std: 0.09
}
bias_filler {
type: "constant"
value: 0.2
}
}
}
layer {
name: "inception_4b/relu_3x3_reduce"
type: "ReLU"
bottom: "inception_4b/3x3_reduce"
top: "inception_4b/3x3_reduce"
}
layer {
name: "inception_4b/3x3"
type: "Convolution"
bottom: "inception_4b/3x3_reduce"
top: "inception_4b/3x3"
param {
lr_mult: 1
decay_mult: 1
}
param {
lr_mult: 2
decay_mult: 0
}
convolution_param {
num_output: 224
pad: 1
kernel_size: 3
weight_filler {
type: "xavier"
std: 0.03
}
bias_filler {
type: "constant"
value: 0.2
}
}
}
layer {
name: "inception_4b/relu_3x3"
type: "ReLU"
bottom: "inception_4b/3x3"
top: "inception_4b/3x3"
}
layer {
name: "inception_4b/5x5_reduce"
type: "Convolution"
bottom: "inception_4a/output"
top: "inception_4b/5x5_reduce"
param {
lr_mult: 1
decay_mult: 1
}
param {
lr_mult: 2
decay_mult: 0
}
convolution_param {
num_output: 24
kernel_size: 1
weight_filler {
type: "xavier"
std: 0.2
}
bias_filler {
type: "constant"
value: 0.2
}
}
}
layer {
name: "inception_4b/relu_5x5_reduce"
type: "ReLU"
bottom: "inception_4b/5x5_reduce"
top: "inception_4b/5x5_reduce"
}
layer {
name: "inception_4b/5x5"
type: "Convolution"
bottom: "inception_4b/5x5_reduce"
top: "inception_4b/5x5"
param {
lr_mult: 1
decay_mult: 1
}
param {
lr_mult: 2
decay_mult: 0
}
convolution_param {
num_output: 64
pad: 2
kernel_size: 5
weight_filler {
type: "xavier"
std: 0.03
}
bias_filler {
type: "constant"
value: 0.2
}
}
}
layer {
name: "inception_4b/relu_5x5"
type: "ReLU"
bottom: "inception_4b/5x5"
top: "inception_4b/5x5"
}
layer {
name: "inception_4b/pool"
type: "Pooling"
bottom: "inception_4a/output"
top: "inception_4b/pool"
pooling_param {
pool: MAX
kernel_size: 3
stride: 1
pad: 1
}
}
layer {
name: "inception_4b/pool_proj"
type: "Convolution"
bottom: "inception_4b/pool"
top: "inception_4b/pool_proj"
param {
lr_mult: 1
decay_mult: 1
}
param {
lr_mult: 2
decay_mult: 0
}
convolution_param {
num_output: 64
kernel_size: 1
weight_filler {
type: "xavier"
std: 0.1
}
bias_filler {
type: "constant"
value: 0.2
}
}
}
layer {
name: "inception_4b/relu_pool_proj"
type: "ReLU"
bottom: "inception_4b/pool_proj"
top: "inception_4b/pool_proj"
}
layer {
name: "inception_4b/output"
type: "Concat"
bottom: "inception_4b/1x1"
bottom: "inception_4b/3x3"
bottom: "inception_4b/5x5"
bottom: "inception_4b/pool_proj"
top: "inception_4b/output"
}
layer {
name: "inception_4c/1x1"
type: "Convolution"
bottom: "inception_4b/output"
top: "inception_4c/1x1"
param {
lr_mult: 1
decay_mult: 1
}
param {
lr_mult: 2
decay_mult: 0
}
convolution_param {
num_output: 128
kernel_size: 1
weight_filler {
type: "xavier"
std: 0.03
}
bias_filler {
type: "constant"
value: 0.2
}
}
}
layer {
name: "inception_4c/relu_1x1"
type: "ReLU"
bottom: "inception_4c/1x1"
top: "inception_4c/1x1"
}
layer {
name: "inception_4c/3x3_reduce"
type: "Convolution"
bottom: "inception_4b/output"
top: "inception_4c/3x3_reduce"
param {
lr_mult: 1
decay_mult: 1
}
param {
lr_mult: 2
decay_mult: 0
}
convolution_param {
num_output: 128
kernel_size: 1
weight_filler {
type: "xavier"
std: 0.09
}
bias_filler {
type: "constant"
value: 0.2
}
}
}
layer {
name: "inception_4c/relu_3x3_reduce"
type: "ReLU"
bottom: "inception_4c/3x3_reduce"
top: "inception_4c/3x3_reduce"
}
layer {
name: "inception_4c/3x3"
type: "Convolution"
bottom: "inception_4c/3x3_reduce"
top: "inception_4c/3x3"
param {
lr_mult: 1
decay_mult: 1
}
param {
lr_mult: 2
decay_mult: 0
}
convolution_param {
num_output: 256
pad: 1
kernel_size: 3
weight_filler {
type: "xavier"
std: 0.03
}
bias_filler {
type: "constant"
value: 0.2
}
}
}
layer {
name: "inception_4c/relu_3x3"
type: "ReLU"
bottom: "inception_4c/3x3"
top: "inception_4c/3x3"
}
layer {
name: "inception_4c/5x5_reduce"
type: "Convolution"
bottom: "inception_4b/output"
top: "inception_4c/5x5_reduce"
param {
lr_mult: 1
decay_mult: 1
}
param {
lr_mult: 2
decay_mult: 0
}
convolution_param {
num_output: 24
kernel_size: 1
weight_filler {
type: "xavier"
std: 0.2
}
bias_filler {
type: "constant"
value: 0.2
}
}
}
layer {
name: "inception_4c/relu_5x5_reduce"
type: "ReLU"
bottom: "inception_4c/5x5_reduce"
top: "inception_4c/5x5_reduce"
}
layer {
name: "inception_4c/5x5"
type: "Convolution"
bottom: "inception_4c/5x5_reduce"
top: "inception_4c/5x5"
param {
lr_mult: 1
decay_mult: 1
}
param {
lr_mult: 2
decay_mult: 0
}
convolution_param {
num_output: 64
pad: 2
kernel_size: 5
weight_filler {
type: "xavier"
std: 0.03
}
bias_filler {
type: "constant"
value: 0.2
}
}
}
layer {
name: "inception_4c/relu_5x5"
type: "ReLU"
bottom: "inception_4c/5x5"
top: "inception_4c/5x5"
}
layer {
name: "inception_4c/pool"
type: "Pooling"
bottom: "inception_4b/output"
top: "inception_4c/pool"
pooling_param {
pool: MAX
kernel_size: 3
stride: 1
pad: 1
}
}
layer {
name: "inception_4c/pool_proj"
type: "Convolution"
bottom: "inception_4c/pool"
top: "inception_4c/pool_proj"
param {
lr_mult: 1
decay_mult: 1
}
param {
lr_mult: 2
decay_mult: 0
}
convolution_param {
num_output: 64
kernel_size: 1
weight_filler {
type: "xavier"
std: 0.1
}
bias_filler {
type: "constant"
value: 0.2
}
}
}
layer {
name: "inception_4c/relu_pool_proj"
type: "ReLU"
bottom: "inception_4c/pool_proj"
top: "inception_4c/pool_proj"
}
layer {
name: "inception_4c/output"
type: "Concat"
bottom: "inception_4c/1x1"
bottom: "inception_4c/3x3"
bottom: "inception_4c/5x5"
bottom: "inception_4c/pool_proj"
top: "inception_4c/output"
}
layer {
name: "inception_4d/1x1"
type: "Convolution"
bottom: "inception_4c/output"
top: "inception_4d/1x1"
param {
lr_mult: 1
decay_mult: 1
}
param {
lr_mult: 2
decay_mult: 0
}
convolution_param {
num_output: 112
kernel_size: 1
weight_filler {
type: "xavier"
std: 0.03
}
bias_filler {
type: "constant"
value: 0.2
}
}
}
layer {
name: "inception_4d/relu_1x1"
type: "ReLU"
bottom: "inception_4d/1x1"
top: "inception_4d/1x1"
}
layer {
name: "inception_4d/3x3_reduce"
type: "Convolution"
bottom: "inception_4c/output"
top: "inception_4d/3x3_reduce"
param {
lr_mult: 1
decay_mult: 1
}
param {
lr_mult: 2
decay_mult: 0
}
convolution_param {
num_output: 144
kernel_size: 1
weight_filler {
type: "xavier"
std: 0.09
}
bias_filler {
type: "constant"
value: 0.2
}
}
}
layer {
name: "inception_4d/relu_3x3_reduce"
type: "ReLU"
bottom: "inception_4d/3x3_reduce"
top: "inception_4d/3x3_reduce"
}
layer {
name: "inception_4d/3x3"
type: "Convolution"
bottom: "inception_4d/3x3_reduce"
top: "inception_4d/3x3"
param {
lr_mult: 1
decay_mult: 1
}
param {
lr_mult: 2
decay_mult: 0
}
convolution_param {
num_output: 288
pad: 1
kernel_size: 3
weight_filler {
type: "xavier"
std: 0.03
}
bias_filler {
type: "constant"
value: 0.2
}
}
}
layer {
name: "inception_4d/relu_3x3"
type: "ReLU"
bottom: "inception_4d/3x3"
top: "inception_4d/3x3"
}
layer {
name: "inception_4d/5x5_reduce"
type: "Convolution"
bottom: "inception_4c/output"
top: "inception_4d/5x5_reduce"
param {
lr_mult: 1
decay_mult: 1
}
param {
lr_mult: 2
decay_mult: 0
}
convolution_param {
num_output: 32
kernel_size: 1
weight_filler {
type: "xavier"
std: 0.2
}
bias_filler {
type: "constant"
value: 0.2
}
}
}
layer {
name: "inception_4d/relu_5x5_reduce"
type: "ReLU"
bottom: "inception_4d/5x5_reduce"
top: "inception_4d/5x5_reduce"
}
layer {
name: "inception_4d/5x5"
type: "Convolution"
bottom: "inception_4d/5x5_reduce"
top: "inception_4d/5x5"
param {
lr_mult: 1
decay_mult: 1
}
param {
lr_mult: 2
decay_mult: 0
}
convolution_param {
num_output: 64
pad: 2
kernel_size: 5
weight_filler {
type: "xavier"
std: 0.03
}
bias_filler {
type: "constant"
value: 0.2
}
}
}
layer {
name: "inception_4d/relu_5x5"
type: "ReLU"
bottom: "inception_4d/5x5"
top: "inception_4d/5x5"
}
layer {
name: "inception_4d/pool"
type: "Pooling"
bottom: "inception_4c/output"
top: "inception_4d/pool"
pooling_param {
pool: MAX
kernel_size: 3
stride: 1
pad: 1
}
}
layer {
name: "inception_4d/pool_proj"
type: "Convolution"
bottom: "inception_4d/pool"
top: "inception_4d/pool_proj"
param {
lr_mult: 1
decay_mult: 1
}
param {
lr_mult: 2
decay_mult: 0
}
convolution_param {
num_output: 64
kernel_size: 1
weight_filler {
type: "xavier"
std: 0.1
}
bias_filler {
type: "constant"
value: 0.2
}
}
}
layer {
name: "inception_4d/relu_pool_proj"
type: "ReLU"
bottom: "inception_4d/pool_proj"
top: "inception_4d/pool_proj"
}
layer {
name: "inception_4d/output"
type: "Concat"
bottom: "inception_4d/1x1"
bottom: "inception_4d/3x3"
bottom: "inception_4d/5x5"
bottom: "inception_4d/pool_proj"
top: "inception_4d/output"
}
layer {
name: "loss2/ave_pool"
type: "Pooling"
bottom: "inception_4d/output"
top: "loss2/ave_pool"
pooling_param {
pool: AVE
kernel_size: 5
stride: 3
}
}
layer {
name: "loss2/conv"
type: "Convolution"
bottom: "loss2/ave_pool"
top: "loss2/conv"
param {
lr_mult: 1
decay_mult: 1
}
param {
lr_mult: 2
decay_mult: 0
}
convolution_param {
num_output: 128
kernel_size: 1
weight_filler {
type: "xavier"
std: 0.08
}
bias_filler {
type: "constant"
value: 0.2
}
}
}
layer {
name: "loss2/relu_conv"
type: "ReLU"
bottom: "loss2/conv"
top: "loss2/conv"
}
layer {
name: "loss2/fc"
type: "InnerProduct"
bottom: "loss2/conv"
top: "loss2/fc"
param {
lr_mult: 1
decay_mult: 1
}
param {
lr_mult: 2
decay_mult: 0
}
inner_product_param {
num_output: 1024
weight_filler {
type: "xavier"
std: 0.02
}
bias_filler {
type: "constant"
value: 0.2
}
}
}
layer {
name: "loss2/relu_fc"
type: "ReLU"
bottom: "loss2/fc"
top: "loss2/fc"
}
layer {
name: "loss2/drop_fc"
type: "Dropout"
bottom: "loss2/fc"
top: "loss2/fc"
dropout_param {
dropout_ratio: 0.7
}
}
layer {
name: "loss2/classifier"
type: "InnerProduct"
bottom: "loss2/fc"
top: "loss2/classifier"
param {
lr_mult: 1
decay_mult: 1
}
param {
lr_mult: 2
decay_mult: 0
}
inner_product_param {
num_output: 196
weight_filler {
type: "xavier"
std: 0.0009765625
}
bias_filler {
type: "constant"
value: 0
}
}
}
layer {
name: "loss2/loss"
type: "SoftmaxWithLoss"
bottom: "loss2/classifier"
bottom: "label"
top: "loss2/loss"
loss_weight: 0.3
}
layer {
name: "inception_4e/1x1"
type: "Convolution"
bottom: "inception_4d/output"
top: "inception_4e/1x1"
param {
lr_mult: 1
decay_mult: 1
}
param {
lr_mult: 2
decay_mult: 0
}
convolution_param {
num_output: 256
kernel_size: 1
weight_filler {
type: "xavier"
std: 0.03
}
bias_filler {
type: "constant"
value: 0.2
}
}
}
layer {
name: "inception_4e/relu_1x1"
type: "ReLU"
bottom: "inception_4e/1x1"
top: "inception_4e/1x1"
}
layer {
name: "inception_4e/3x3_reduce"
type: "Convolution"
bottom: "inception_4d/output"
top: "inception_4e/3x3_reduce"
param {
lr_mult: 1
decay_mult: 1
}
param {
lr_mult: 2
decay_mult: 0
}
convolution_param {
num_output: 160
kernel_size: 1
weight_filler {
type: "xavier"
std: 0.09
}
bias_filler {
type: "constant"
value: 0.2
}
}
}
layer {
name: "inception_4e/relu_3x3_reduce"
type: "ReLU"
bottom: "inception_4e/3x3_reduce"
top: "inception_4e/3x3_reduce"
}
layer {
name: "inception_4e/3x3"
type: "Convolution"
bottom: "inception_4e/3x3_reduce"
top: "inception_4e/3x3"
param {
lr_mult: 1
decay_mult: 1
}
param {
lr_mult: 2
decay_mult: 0
}
convolution_param {
num_output: 320
pad: 1
kernel_size: 3
weight_filler {
type: "xavier"
std: 0.03
}
bias_filler {
type: "constant"
value: 0.2
}
}
}
layer {
name: "inception_4e/relu_3x3"
type: "ReLU"
bottom: "inception_4e/3x3"
top: "inception_4e/3x3"
}
layer {
name: "inception_4e/5x5_reduce"
type: "Convolution"
bottom: "inception_4d/output"
top: "inception_4e/5x5_reduce"
param {
lr_mult: 1
decay_mult: 1
}
param {
lr_mult: 2
decay_mult: 0
}
convolution_param {
num_output: 32
kernel_size: 1
weight_filler {
type: "xavier"
std: 0.2
}
bias_filler {
type: "constant"
value: 0.2
I0509 20:57:58.964457 17858 layer_factory.hpp:77] Creating layer train-data
I0509 20:57:58.966150 17858 db_lmdb.cpp:35] Opened lmdb /mnt/bigdisk/AMBDIG8/digits/jobs/20200509-183908-c8eb/train_db
I0509 20:57:58.966831 17858 net.cpp:84] Creating Layer train-data
I0509 20:57:58.966841 17858 net.cpp:380] train-data -> data
I0509 20:57:58.966861 17858 net.cpp:380] train-data -> label
I0509 20:57:58.969136 17858 data_layer.cpp:45] output data size: 50,3,224,224
I0509 20:57:59.022608 17858 net.cpp:122] Setting up train-data
I0509 20:57:59.022630 17858 net.cpp:129] Top shape: 50 3 224 224 (7526400)
I0509 20:57:59.022635 17858 net.cpp:129] Top shape: 50 (50)
I0509 20:57:59.022639 17858 net.cpp:137] Memory required for data: 30105800
I0509 20:57:59.022647 17858 layer_factory.hpp:77] Creating layer label_train-data_1_split
I0509 20:57:59.022660 17858 net.cpp:84] Creating Layer label_train-data_1_split
I0509 20:57:59.022665 17858 net.cpp:406] label_train-data_1_split <- label
I0509 20:57:59.022699 17858 net.cpp:380] label_train-data_1_split -> label_train-data_1_split_0
I0509 20:57:59.022709 17858 net.cpp:380] label_train-data_1_split -> label_train-data_1_split_1
I0509 20:57:59.022714 17858 net.cpp:380] label_train-data_1_split -> label_train-data_1_split_2
I0509 20:57:59.022820 17858 net.cpp:122] Setting up label_train-data_1_split
I0509 20:57:59.022826 17858 net.cpp:129] Top shape: 50 (50)
I0509 20:57:59.022830 17858 net.cpp:129] Top shape: 50 (50)
I0509 20:57:59.022833 17858 net.cpp:129] Top shape: 50 (50)
I0509 20:57:59.022835 17858 net.cpp:137] Memory required for data: 30106400
I0509 20:57:59.022838 17858 layer_factory.hpp:77] Creating layer conv1/7x7_s2
I0509 20:57:59.022855 17858 net.cpp:84] Creating Layer conv1/7x7_s2
I0509 20:57:59.022857 17858 net.cpp:406] conv1/7x7_s2 <- data
I0509 20:57:59.022863 17858 net.cpp:380] conv1/7x7_s2 -> conv1/7x7_s2
I0509 20:58:00.393689 17858 net.cpp:122] Setting up conv1/7x7_s2
I0509 20:58:00.393712 17858 net.cpp:129] Top shape: 50 64 112 112 (40140800)
I0509 20:58:00.393715 17858 net.cpp:137] Memory required for data: 190669600
I0509 20:58:00.393735 17858 layer_factory.hpp:77] Creating layer conv1/relu_7x7
I0509 20:58:00.393744 17858 net.cpp:84] Creating Layer conv1/relu_7x7
I0509 20:58:00.393748 17858 net.cpp:406] conv1/relu_7x7 <- conv1/7x7_s2
I0509 20:58:00.393754 17858 net.cpp:367] conv1/relu_7x7 -> conv1/7x7_s2 (in-place)
I0509 20:58:00.394062 17858 net.cpp:122] Setting up conv1/relu_7x7
I0509 20:58:00.394070 17858 net.cpp:129] Top shape: 50 64 112 112 (40140800)
I0509 20:58:00.394073 17858 net.cpp:137] Memory required for data: 351232800
I0509 20:58:00.394076 17858 layer_factory.hpp:77] Creating layer pool1/3x3_s2
I0509 20:58:00.394084 17858 net.cpp:84] Creating Layer pool1/3x3_s2
I0509 20:58:00.394088 17858 net.cpp:406] pool1/3x3_s2 <- conv1/7x7_s2
I0509 20:58:00.394093 17858 net.cpp:380] pool1/3x3_s2 -> pool1/3x3_s2
I0509 20:58:00.394134 17858 net.cpp:122] Setting up pool1/3x3_s2
I0509 20:58:00.394140 17858 net.cpp:129] Top shape: 50 64 56 56 (10035200)
I0509 20:58:00.394142 17858 net.cpp:137] Memory required for data: 391373600
I0509 20:58:00.394145 17858 layer_factory.hpp:77] Creating layer pool1/norm1
I0509 20:58:00.394153 17858 net.cpp:84] Creating Layer pool1/norm1
I0509 20:58:00.394156 17858 net.cpp:406] pool1/norm1 <- pool1/3x3_s2
I0509 20:58:00.394160 17858 net.cpp:380] pool1/norm1 -> pool1/norm1
I0509 20:58:00.394757 17858 net.cpp:122] Setting up pool1/norm1
I0509 20:58:00.394768 17858 net.cpp:129] Top shape: 50 64 56 56 (10035200)
I0509 20:58:00.394771 17858 net.cpp:137] Memory required for data: 431514400
I0509 20:58:00.394774 17858 layer_factory.hpp:77] Creating layer conv2/3x3_reduce
I0509 20:58:00.394785 17858 net.cpp:84] Creating Layer conv2/3x3_reduce
I0509 20:58:00.394789 17858 net.cpp:406] conv2/3x3_reduce <- pool1/norm1
I0509 20:58:00.394794 17858 net.cpp:380] conv2/3x3_reduce -> conv2/3x3_reduce
I0509 20:58:00.396998 17858 net.cpp:122] Setting up conv2/3x3_reduce
I0509 20:58:00.397008 17858 net.cpp:129] Top shape: 50 64 56 56 (10035200)
I0509 20:58:00.397011 17858 net.cpp:137] Memory required for data: 471655200
I0509 20:58:00.397019 17858 layer_factory.hpp:77] Creating layer conv2/relu_3x3_reduce
I0509 20:58:00.397027 17858 net.cpp:84] Creating Layer conv2/relu_3x3_reduce
I0509 20:58:00.397029 17858 net.cpp:406] conv2/relu_3x3_reduce <- conv2/3x3_reduce
I0509 20:58:00.397034 17858 net.cpp:367] conv2/relu_3x3_reduce -> conv2/3x3_reduce (in-place)
I0509 20:58:00.397411 17858 net.cpp:122] Setting up conv2/relu_3x3_reduce
I0509 20:58:00.397421 17858 net.cpp:129] Top shape: 50 64 56 56 (10035200)
I0509 20:58:00.397424 17858 net.cpp:137] Memory required for data: 511796000
I0509 20:58:00.397428 17858 layer_factory.hpp:77] Creating layer conv2/3x3
I0509 20:58:00.397440 17858 net.cpp:84] Creating Layer conv2/3x3
I0509 20:58:00.397444 17858 net.cpp:406] conv2/3x3 <- conv2/3x3_reduce
I0509 20:58:00.397450 17858 net.cpp:380] conv2/3x3 -> conv2/3x3
I0509 20:58:00.401672 17858 net.cpp:122] Setting up conv2/3x3
I0509 20:58:00.401705 17858 net.cpp:129] Top shape: 50 192 56 56 (30105600)
I0509 20:58:00.401710 17858 net.cpp:137] Memory required for data: 632218400
I0509 20:58:00.401716 17858 layer_factory.hpp:77] Creating layer conv2/relu_3x3
I0509 20:58:00.401722 17858 net.cpp:84] Creating Layer conv2/relu_3x3
I0509 20:58:00.401726 17858 net.cpp:406] conv2/relu_3x3 <- conv2/3x3
I0509 20:58:00.401729 17858 net.cpp:367] conv2/relu_3x3 -> conv2/3x3 (in-place)
I0509 20:58:00.402118 17858 net.cpp:122] Setting up conv2/relu_3x3
I0509 20:58:00.402132 17858 net.cpp:129] Top shape: 50 192 56 56 (30105600)
I0509 20:58:00.402134 17858 net.cpp:137] Memory required for data: 752640800
I0509 20:58:00.402137 17858 layer_factory.hpp:77] Creating layer conv2/norm2
I0509 20:58:00.402143 17858 net.cpp:84] Creating Layer conv2/norm2
I0509 20:58:00.402145 17858 net.cpp:406] conv2/norm2 <- conv2/3x3
I0509 20:58:00.402151 17858 net.cpp:380] conv2/norm2 -> conv2/norm2
I0509 20:58:00.402737 17858 net.cpp:122] Setting up conv2/norm2
I0509 20:58:00.402746 17858 net.cpp:129] Top shape: 50 192 56 56 (30105600)
I0509 20:58:00.402750 17858 net.cpp:137] Memory required for data: 873063200
I0509 20:58:00.402752 17858 layer_factory.hpp:77] Creating layer pool2/3x3_s2
I0509 20:58:00.402760 17858 net.cpp:84] Creating Layer pool2/3x3_s2
I0509 20:58:00.402763 17858 net.cpp:406] pool2/3x3_s2 <- conv2/norm2
I0509 20:58:00.402767 17858 net.cpp:380] pool2/3x3_s2 -> pool2/3x3_s2
I0509 20:58:00.402798 17858 net.cpp:122] Setting up pool2/3x3_s2
I0509 20:58:00.402803 17858 net.cpp:129] Top shape: 50 192 28 28 (7526400)
I0509 20:58:00.402806 17858 net.cpp:137] Memory required for data: 903168800
I0509 20:58:00.402808 17858 layer_factory.hpp:77] Creating layer pool2/3x3_s2_pool2/3x3_s2_0_split
I0509 20:58:00.402813 17858 net.cpp:84] Creating Layer pool2/3x3_s2_pool2/3x3_s2_0_split
I0509 20:58:00.402817 17858 net.cpp:406] pool2/3x3_s2_pool2/3x3_s2_0_split <- pool2/3x3_s2
I0509 20:58:00.402822 17858 net.cpp:380] pool2/3x3_s2_pool2/3x3_s2_0_split -> pool2/3x3_s2_pool2/3x3_s2_0_split_0
I0509 20:58:00.402827 17858 net.cpp:380] pool2/3x3_s2_pool2/3x3_s2_0_split -> pool2/3x3_s2_pool2/3x3_s2_0_split_1
I0509 20:58:00.402832 17858 net.cpp:380] pool2/3x3_s2_pool2/3x3_s2_0_split -> pool2/3x3_s2_pool2/3x3_s2_0_split_2
I0509 20:58:00.402838 17858 net.cpp:380] pool2/3x3_s2_pool2/3x3_s2_0_split -> pool2/3x3_s2_pool2/3x3_s2_0_split_3
I0509 20:58:00.402880 17858 net.cpp:122] Setting up pool2/3x3_s2_pool2/3x3_s2_0_split
I0509 20:58:00.402884 17858 net.cpp:129] Top shape: 50 192 28 28 (7526400)
I0509 20:58:00.402889 17858 net.cpp:129] Top shape: 50 192 28 28 (7526400)
I0509 20:58:00.402891 17858 net.cpp:129] Top shape: 50 192 28 28 (7526400)
I0509 20:58:00.402894 17858 net.cpp:129] Top shape: 50 192 28 28 (7526400)
I0509 20:58:00.402897 17858 net.cpp:137] Memory required for data: 1023591200
I0509 20:58:00.402899 17858 layer_factory.hpp:77] Creating layer inception_3a/1x1
I0509 20:58:00.402909 17858 net.cpp:84] Creating Layer inception_3a/1x1
I0509 20:58:00.402911 17858 net.cpp:406] inception_3a/1x1 <- pool2/3x3_s2_pool2/3x3_s2_0_split_0
I0509 20:58:00.402917 17858 net.cpp:380] inception_3a/1x1 -> inception_3a/1x1
I0509 20:58:00.405122 17858 net.cpp:122] Setting up inception_3a/1x1
I0509 20:58:00.405131 17858 net.cpp:129] Top shape: 50 64 28 28 (2508800)
I0509 20:58:00.405134 17858 net.cpp:137] Memory required for data: 1033626400
I0509 20:58:00.405140 17858 layer_factory.hpp:77] Creating layer inception_3a/relu_1x1
I0509 20:58:00.405146 17858 net.cpp:84] Creating Layer inception_3a/relu_1x1
I0509 20:58:00.405149 17858 net.cpp:406] inception_3a/relu_1x1 <- inception_3a/1x1
I0509 20:58:00.405155 17858 net.cpp:367] inception_3a/relu_1x1 -> inception_3a/1x1 (in-place)
I0509 20:58:00.405531 17858 net.cpp:122] Setting up inception_3a/relu_1x1
I0509 20:58:00.405540 17858 net.cpp:129] Top shape: 50 64 28 28 (2508800)
I0509 20:58:00.405544 17858 net.cpp:137] Memory required for data: 1043661600
I0509 20:58:00.405546 17858 layer_factory.hpp:77] Creating layer inception_3a/3x3_reduce
I0509 20:58:00.405566 17858 net.cpp:84] Creating Layer inception_3a/3x3_reduce
I0509 20:58:00.405570 17858 net.cpp:406] inception_3a/3x3_reduce <- pool2/3x3_s2_pool2/3x3_s2_0_split_1
I0509 20:58:00.405576 17858 net.cpp:380] inception_3a/3x3_reduce -> inception_3a/3x3_reduce
I0509 20:58:00.408900 17858 net.cpp:122] Setting up inception_3a/3x3_reduce
I0509 20:58:00.408910 17858 net.cpp:129] Top shape: 50 96 28 28 (3763200)
I0509 20:58:00.408913 17858 net.cpp:137] Memory required for data: 1058714400
I0509 20:58:00.408922 17858 layer_factory.hpp:77] Creating layer inception_3a/relu_3x3_reduce
I0509 20:58:00.408933 17858 net.cpp:84] Creating Layer inception_3a/relu_3x3_reduce
I0509 20:58:00.408937 17858 net.cpp:406] inception_3a/relu_3x3_reduce <- inception_3a/3x3_reduce
I0509 20:58:00.408944 17858 net.cpp:367] inception_3a/relu_3x3_reduce -> inception_3a/3x3_reduce (in-place)
I0509 20:58:00.409495 17858 net.cpp:122] Setting up inception_3a/relu_3x3_reduce
I0509 20:58:00.409505 17858 net.cpp:129] Top shape: 50 96 28 28 (3763200)
I0509 20:58:00.409508 17858 net.cpp:137] Memory required for data: 1073767200
I0509 20:58:00.409512 17858 layer_factory.hpp:77] Creating layer inception_3a/3x3
I0509 20:58:00.409523 17858 net.cpp:84] Creating Layer inception_3a/3x3
I0509 20:58:00.409525 17858 net.cpp:406] inception_3a/3x3 <- inception_3a/3x3_reduce
I0509 20:58:00.409530 17858 net.cpp:380] inception_3a/3x3 -> inception_3a/3x3
I0509 20:58:00.412429 17858 net.cpp:122] Setting up inception_3a/3x3
I0509 20:58:00.412439 17858 net.cpp:129] Top shape: 50 128 28 28 (5017600)
I0509 20:58:00.412442 17858 net.cpp:137] Memory required for data: 1093837600
I0509 20:58:00.412448 17858 layer_factory.hpp:77] Creating layer inception_3a/relu_3x3
I0509 20:58:00.412454 17858 net.cpp:84] Creating Layer inception_3a/relu_3x3
I0509 20:58:00.412457 17858 net.cpp:406] inception_3a/relu_3x3 <- inception_3a/3x3
I0509 20:58:00.412464 17858 net.cpp:367] inception_3a/relu_3x3 -> inception_3a/3x3 (in-place)
I0509 20:58:00.413038 17858 net.cpp:122] Setting up inception_3a/relu_3x3
I0509 20:58:00.413048 17858 net.cpp:129] Top shape: 50 128 28 28 (5017600)
I0509 20:58:00.413051 17858 net.cpp:137] Memory required for data: 1113908000
I0509 20:58:00.413054 17858 layer_factory.hpp:77] Creating layer inception_3a/5x5_reduce
I0509 20:58:00.413064 17858 net.cpp:84] Creating Layer inception_3a/5x5_reduce
I0509 20:58:00.413067 17858 net.cpp:406] inception_3a/5x5_reduce <- pool2/3x3_s2_pool2/3x3_s2_0_split_2
I0509 20:58:00.413074 17858 net.cpp:380] inception_3a/5x5_reduce -> inception_3a/5x5_reduce
I0509 20:58:00.415073 17858 net.cpp:122] Setting up inception_3a/5x5_reduce
I0509 20:58:00.415082 17858 net.cpp:129] Top shape: 50 16 28 28 (627200)
I0509 20:58:00.415086 17858 net.cpp:137] Memory required for data: 1116416800
I0509 20:58:00.415091 17858 layer_factory.hpp:77] Creating layer inception_3a/relu_5x5_reduce
I0509 20:58:00.415097 17858 net.cpp:84] Creating Layer inception_3a/relu_5x5_reduce
I0509 20:58:00.415100 17858 net.cpp:406] inception_3a/relu_5x5_reduce <- inception_3a/5x5_reduce
I0509 20:58:00.415107 17858 net.cpp:367] inception_3a/relu_5x5_reduce -> inception_3a/5x5_reduce (in-place)
I0509 20:58:00.416759 17858 net.cpp:122] Setting up inception_3a/relu_5x5_reduce
I0509 20:58:00.416769 17858 net.cpp:129] Top shape: 50 16 28 28 (627200)
I0509 20:58:00.416772 17858 net.cpp:137] Memory required for data: 1118925600
I0509 20:58:00.416775 17858 layer_factory.hpp:77] Creating layer inception_3a/5x5
I0509 20:58:00.416785 17858 net.cpp:84] Creating Layer inception_3a/5x5
I0509 20:58:00.416788 17858 net.cpp:406] inception_3a/5x5 <- inception_3a/5x5_reduce
I0509 20:58:00.416795 17858 net.cpp:380] inception_3a/5x5 -> inception_3a/5x5
I0509 20:58:00.418946 17858 net.cpp:122] Setting up inception_3a/5x5
I0509 20:58:00.418956 17858 net.cpp:129] Top shape: 50 32 28 28 (1254400)
I0509 20:58:00.418959 17858 net.cpp:137] Memory required for data: 1123943200
I0509 20:58:00.418964 17858 layer_factory.hpp:77] Creating layer inception_3a/relu_5x5
I0509 20:58:00.418970 17858 net.cpp:84] Creating Layer inception_3a/relu_5x5
I0509 20:58:00.418990 17858 net.cpp:406] inception_3a/relu_5x5 <- inception_3a/5x5
I0509 20:58:00.418998 17858 net.cpp:367] inception_3a/relu_5x5 -> inception_3a/5x5 (in-place)
I0509 20:58:00.419561 17858 net.cpp:122] Setting up inception_3a/relu_5x5
I0509 20:58:00.419571 17858 net.cpp:129] Top shape: 50 32 28 28 (1254400)
I0509 20:58:00.419574 17858 net.cpp:137] Memory required for data: 1128960800
I0509 20:58:00.419577 17858 layer_factory.hpp:77] Creating layer inception_3a/pool
I0509 20:58:00.419584 17858 net.cpp:84] Creating Layer inception_3a/pool
I0509 20:58:00.419589 17858 net.cpp:406] inception_3a/pool <- pool2/3x3_s2_pool2/3x3_s2_0_split_3
I0509 20:58:00.419595 17858 net.cpp:380] inception_3a/pool -> inception_3a/pool
I0509 20:58:00.419636 17858 net.cpp:122] Setting up inception_3a/pool
I0509 20:58:00.419641 17858 net.cpp:129] Top shape: 50 192 28 28 (7526400)
I0509 20:58:00.419643 17858 net.cpp:137] Memory required for data: 1159066400
I0509 20:58:00.419646 17858 layer_factory.hpp:77] Creating layer inception_3a/pool_proj
I0509 20:58:00.419656 17858 net.cpp:84] Creating Layer inception_3a/pool_proj
I0509 20:58:00.419658 17858 net.cpp:406] inception_3a/pool_proj <- inception_3a/pool
I0509 20:58:00.419665 17858 net.cpp:380] inception_3a/pool_proj -> inception_3a/pool_proj
I0509 20:58:00.422019 17858 net.cpp:122] Setting up inception_3a/pool_proj
I0509 20:58:00.422029 17858 net.cpp:129] Top shape: 50 32 28 28 (1254400)
I0509 20:58:00.422032 17858 net.cpp:137] Memory required for data: 1164084000
I0509 20:58:00.422044 17858 layer_factory.hpp:77] Creating layer inception_3a/relu_pool_proj
I0509 20:58:00.422049 17858 net.cpp:84] Creating Layer inception_3a/relu_pool_proj
I0509 20:58:00.422053 17858 net.cpp:406] inception_3a/relu_pool_proj <- inception_3a/pool_proj
I0509 20:58:00.422058 17858 net.cpp:367] inception_3a/relu_pool_proj -> inception_3a/pool_proj (in-place)
I0509 20:58:00.422439 17858 net.cpp:122] Setting up inception_3a/relu_pool_proj
I0509 20:58:00.422452 17858 net.cpp:129] Top shape: 50 32 28 28 (1254400)
I0509 20:58:00.422454 17858 net.cpp:137] Memory required for data: 1169101600
I0509 20:58:00.422458 17858 layer_factory.hpp:77] Creating layer inception_3a/output
I0509 20:58:00.422464 17858 net.cpp:84] Creating Layer inception_3a/output
I0509 20:58:00.422467 17858 net.cpp:406] inception_3a/output <- inception_3a/1x1
I0509 20:58:00.422472 17858 net.cpp:406] inception_3a/output <- inception_3a/3x3
I0509 20:58:00.422474 17858 net.cpp:406] inception_3a/output <- inception_3a/5x5
I0509 20:58:00.422478 17858 net.cpp:406] inception_3a/output <- inception_3a/pool_proj
I0509 20:58:00.422483 17858 net.cpp:380] inception_3a/output -> inception_3a/output
I0509 20:58:00.422509 17858 net.cpp:122] Setting up inception_3a/output
I0509 20:58:00.422514 17858 net.cpp:129] Top shape: 50 256 28 28 (10035200)
I0509 20:58:00.422516 17858 net.cpp:137] Memory required for data: 1209242400
I0509 20:58:00.422519 17858 layer_factory.hpp:77] Creating layer inception_3a/output_inception_3a/output_0_split
I0509 20:58:00.422526 17858 net.cpp:84] Creating Layer inception_3a/output_inception_3a/output_0_split
I0509 20:58:00.422529 17858 net.cpp:406] inception_3a/output_inception_3a/output_0_split <- inception_3a/output
I0509 20:58:00.422534 17858 net.cpp:380] inception_3a/output_inception_3a/output_0_split -> inception_3a/output_inception_3a/output_0_split_0
I0509 20:58:00.422540 17858 net.cpp:380] inception_3a/output_inception_3a/output_0_split -> inception_3a/output_inception_3a/output_0_split_1
I0509 20:58:00.422545 17858 net.cpp:380] inception_3a/output_inception_3a/output_0_split -> inception_3a/output_inception_3a/output_0_split_2
I0509 20:58:00.422550 17858 net.cpp:380] inception_3a/output_inception_3a/output_0_split -> inception_3a/output_inception_3a/output_0_split_3
I0509 20:58:00.422596 17858 net.cpp:122] Setting up inception_3a/output_inception_3a/output_0_split
I0509 20:58:00.422601 17858 net.cpp:129] Top shape: 50 256 28 28 (10035200)
I0509 20:58:00.422605 17858 net.cpp:129] Top shape: 50 256 28 28 (10035200)
I0509 20:58:00.422618 17858 net.cpp:129] Top shape: 50 256 28 28 (10035200)
I0509 20:58:00.422621 17858 net.cpp:129] Top shape: 50 256 28 28 (10035200)
I0509 20:58:00.422623 17858 net.cpp:137] Memory required for data: 1369805600
I0509 20:58:00.422626 17858 layer_factory.hpp:77] Creating layer inception_3b/1x1
I0509 20:58:00.422636 17858 net.cpp:84] Creating Layer inception_3b/1x1
I0509 20:58:00.422638 17858 net.cpp:406] inception_3b/1x1 <- inception_3a/output_inception_3a/output_0_split_0
I0509 20:58:00.422646 17858 net.cpp:380] inception_3b/1x1 -> inception_3b/1x1
I0509 20:58:00.426172 17858 net.cpp:122] Setting up inception_3b/1x1
I0509 20:58:00.426183 17858 net.cpp:129] Top shape: 50 128 28 28 (5017600)
I0509 20:58:00.426187 17858 net.cpp:137] Memory required for data: 1389876000
I0509 20:58:00.426192 17858 layer_factory.hpp:77] Creating layer inception_3b/relu_1x1
I0509 20:58:00.426199 17858 net.cpp:84] Creating Layer inception_3b/relu_1x1
I0509 20:58:00.426203 17858 net.cpp:406] inception_3b/relu_1x1 <- inception_3b/1x1
I0509 20:58:00.426210 17858 net.cpp:367] inception_3b/relu_1x1 -> inception_3b/1x1 (in-place)
I0509 20:58:00.426765 17858 net.cpp:122] Setting up inception_3b/relu_1x1
I0509 20:58:00.426776 17858 net.cpp:129] Top shape: 50 128 28 28 (5017600)
I0509 20:58:00.426779 17858 net.cpp:137] Memory required for data: 1409946400
I0509 20:58:00.426782 17858 layer_factory.hpp:77] Creating layer inception_3b/3x3_reduce
I0509 20:58:00.426792 17858 net.cpp:84] Creating Layer inception_3b/3x3_reduce
I0509 20:58:00.426795 17858 net.cpp:406] inception_3b/3x3_reduce <- inception_3a/output_inception_3a/output_0_split_1
I0509 20:58:00.426802 17858 net.cpp:380] inception_3b/3x3_reduce -> inception_3b/3x3_reduce
I0509 20:58:00.428962 17858 net.cpp:122] Setting up inception_3b/3x3_reduce
I0509 20:58:00.428972 17858 net.cpp:129] Top shape: 50 128 28 28 (5017600)
I0509 20:58:00.428975 17858 net.cpp:137] Memory required for data: 1430016800
I0509 20:58:00.428982 17858 layer_factory.hpp:77] Creating layer inception_3b/relu_3x3_reduce
I0509 20:58:00.428987 17858 net.cpp:84] Creating Layer inception_3b/relu_3x3_reduce
I0509 20:58:00.428989 17858 net.cpp:406] inception_3b/relu_3x3_reduce <- inception_3b/3x3_reduce
I0509 20:58:00.428997 17858 net.cpp:367] inception_3b/relu_3x3_reduce -> inception_3b/3x3_reduce (in-place)
I0509 20:58:00.429549 17858 net.cpp:122] Setting up inception_3b/relu_3x3_reduce
I0509 20:58:00.429558 17858 net.cpp:129] Top shape: 50 128 28 28 (5017600)
I0509 20:58:00.429560 17858 net.cpp:137] Memory required for data: 1450087200
I0509 20:58:00.429564 17858 layer_factory.hpp:77] Creating layer inception_3b/3x3
I0509 20:58:00.429582 17858 net.cpp:84] Creating Layer inception_3b/3x3
I0509 20:58:00.429586 17858 net.cpp:406] inception_3b/3x3 <- inception_3b/3x3_reduce
I0509 20:58:00.429591 17858 net.cpp:380] inception_3b/3x3 -> inception_3b/3x3
I0509 20:58:00.433691 17858 net.cpp:122] Setting up inception_3b/3x3
I0509 20:58:00.433701 17858 net.cpp:129] Top shape: 50 192 28 28 (7526400)
I0509 20:58:00.433704 17858 net.cpp:137] Memory required for data: 1480192800
I0509 20:58:00.433710 17858 layer_factory.hpp:77] Creating layer inception_3b/relu_3x3
I0509 20:58:00.433717 17858 net.cpp:84] Creating Layer inception_3b/relu_3x3
I0509 20:58:00.433720 17858 net.cpp:406] inception_3b/relu_3x3 <- inception_3b/3x3
I0509 20:58:00.433727 17858 net.cpp:367] inception_3b/relu_3x3 -> inception_3b/3x3 (in-place)
I0509 20:58:00.435530 17858 net.cpp:122] Setting up inception_3b/relu_3x3
I0509 20:58:00.435540 17858 net.cpp:129] Top shape: 50 192 28 28 (7526400)
I0509 20:58:00.435544 17858 net.cpp:137] Memory required for data: 1510298400
I0509 20:58:00.435547 17858 layer_factory.hpp:77] Creating layer inception_3b/5x5_reduce
I0509 20:58:00.435559 17858 net.cpp:84] Creating Layer inception_3b/5x5_reduce
I0509 20:58:00.435562 17858 net.cpp:406] inception_3b/5x5_reduce <- inception_3a/output_inception_3a/output_0_split_2
I0509 20:58:00.435570 17858 net.cpp:380] inception_3b/5x5_reduce -> inception_3b/5x5_reduce
I0509 20:58:00.437630 17858 net.cpp:122] Setting up inception_3b/5x5_reduce
I0509 20:58:00.437640 17858 net.cpp:129] Top shape: 50 32 28 28 (1254400)
I0509 20:58:00.437644 17858 net.cpp:137] Memory required for data: 1515316000
I0509 20:58:00.437649 17858 layer_factory.hpp:77] Creating layer inception_3b/relu_5x5_reduce
I0509 20:58:00.437655 17858 net.cpp:84] Creating Layer inception_3b/relu_5x5_reduce
I0509 20:58:00.437659 17858 net.cpp:406] inception_3b/relu_5x5_reduce <- inception_3b/5x5_reduce
I0509 20:58:00.437665 17858 net.cpp:367] inception_3b/relu_5x5_reduce -> inception_3b/5x5_reduce (in-place)
I0509 20:58:00.438228 17858 net.cpp:122] Setting up inception_3b/relu_5x5_reduce
I0509 20:58:00.438237 17858 net.cpp:129] Top shape: 50 32 28 28 (1254400)
I0509 20:58:00.438241 17858 net.cpp:137] Memory required for data: 1520333600
I0509 20:58:00.438243 17858 layer_factory.hpp:77] Creating layer inception_3b/5x5
I0509 20:58:00.438252 17858 net.cpp:84] Creating Layer inception_3b/5x5
I0509 20:58:00.438256 17858 net.cpp:406] inception_3b/5x5 <- inception_3b/5x5_reduce
I0509 20:58:00.438263 17858 net.cpp:380] inception_3b/5x5 -> inception_3b/5x5
I0509 20:58:00.440821 17858 net.cpp:122] Setting up inception_3b/5x5
I0509 20:58:00.440834 17858 net.cpp:129] Top shape: 50 96 28 28 (3763200)
I0509 20:58:00.440836 17858 net.cpp:137] Memory required for data: 1535386400
I0509 20:58:00.440842 17858 layer_factory.hpp:77] Creating layer inception_3b/relu_5x5
I0509 20:58:00.440848 17858 net.cpp:84] Creating Layer inception_3b/relu_5x5
I0509 20:58:00.440851 17858 net.cpp:406] inception_3b/relu_5x5 <- inception_3b/5x5
I0509 20:58:00.440856 17858 net.cpp:367] inception_3b/relu_5x5 -> inception_3b/5x5 (in-place)
I0509 20:58:00.441242 17858 net.cpp:122] Setting up inception_3b/relu_5x5
I0509 20:58:00.441252 17858 net.cpp:129] Top shape: 50 96 28 28 (3763200)
I0509 20:58:00.441256 17858 net.cpp:137] Memory required for data: 1550439200
I0509 20:58:00.441258 17858 layer_factory.hpp:77] Creating layer inception_3b/pool
I0509 20:58:00.441264 17858 net.cpp:84] Creating Layer inception_3b/pool
I0509 20:58:00.441267 17858 net.cpp:406] inception_3b/pool <- inception_3a/output_inception_3a/output_0_split_3
I0509 20:58:00.441274 17858 net.cpp:380] inception_3b/pool -> inception_3b/pool
I0509 20:58:00.441313 17858 net.cpp:122] Setting up inception_3b/pool
I0509 20:58:00.441318 17858 net.cpp:129] Top shape: 50 256 28 28 (10035200)
I0509 20:58:00.441320 17858 net.cpp:137] Memory required for data: 1590580000
I0509 20:58:00.441323 17858 layer_factory.hpp:77] Creating layer inception_3b/pool_proj
I0509 20:58:00.441331 17858 net.cpp:84] Creating Layer inception_3b/pool_proj
I0509 20:58:00.441334 17858 net.cpp:406] inception_3b/pool_proj <- inception_3b/pool
I0509 20:58:00.441341 17858 net.cpp:380] inception_3b/pool_proj -> inception_3b/pool_proj
I0509 20:58:00.444952 17858 net.cpp:122] Setting up inception_3b/pool_proj
I0509 20:58:00.444963 17858 net.cpp:129] Top shape: 50 64 28 28 (2508800)
I0509 20:58:00.444967 17858 net.cpp:137] Memory required for data: 1600615200
I0509 20:58:00.444972 17858 layer_factory.hpp:77] Creating layer inception_3b/relu_pool_proj
I0509 20:58:00.444978 17858 net.cpp:84] Creating Layer inception_3b/relu_pool_proj
I0509 20:58:00.444981 17858 net.cpp:406] inception_3b/relu_pool_proj <- inception_3b/pool_proj
I0509 20:58:00.444988 17858 net.cpp:367] inception_3b/relu_pool_proj -> inception_3b/pool_proj (in-place)
I0509 20:58:00.445374 17858 net.cpp:122] Setting up inception_3b/relu_pool_proj
I0509 20:58:00.445384 17858 net.cpp:129] Top shape: 50 64 28 28 (2508800)
I0509 20:58:00.445386 17858 net.cpp:137] Memory required for data: 1610650400
I0509 20:58:00.445389 17858 layer_factory.hpp:77] Creating layer inception_3b/output
I0509 20:58:00.445396 17858 net.cpp:84] Creating Layer inception_3b/output
I0509 20:58:00.445400 17858 net.cpp:406] inception_3b/output <- inception_3b/1x1
I0509 20:58:00.445405 17858 net.cpp:406] inception_3b/output <- inception_3b/3x3
I0509 20:58:00.445407 17858 net.cpp:406] inception_3b/output <- inception_3b/5x5
I0509 20:58:00.445427 17858 net.cpp:406] inception_3b/output <- inception_3b/pool_proj
I0509 20:58:00.445432 17858 net.cpp:380] inception_3b/output -> inception_3b/output
I0509 20:58:00.445461 17858 net.cpp:122] Setting up inception_3b/output
I0509 20:58:00.445466 17858 net.cpp:129] Top shape: 50 480 28 28 (18816000)
I0509 20:58:00.445468 17858 net.cpp:137] Memory required for data: 1685914400
I0509 20:58:00.445472 17858 layer_factory.hpp:77] Creating layer pool3/3x3_s2
I0509 20:58:00.445477 17858 net.cpp:84] Creating Layer pool3/3x3_s2
I0509 20:58:00.445479 17858 net.cpp:406] pool3/3x3_s2 <- inception_3b/output
I0509 20:58:00.445485 17858 net.cpp:380] pool3/3x3_s2 -> pool3/3x3_s2
I0509 20:58:00.445514 17858 net.cpp:122] Setting up pool3/3x3_s2
I0509 20:58:00.445520 17858 net.cpp:129] Top shape: 50 480 14 14 (4704000)
I0509 20:58:00.445523 17858 net.cpp:137] Memory required for data: 1704730400
I0509 20:58:00.445525 17858 layer_factory.hpp:77] Creating layer pool3/3x3_s2_pool3/3x3_s2_0_split
I0509 20:58:00.445530 17858 net.cpp:84] Creating Layer pool3/3x3_s2_pool3/3x3_s2_0_split
I0509 20:58:00.445533 17858 net.cpp:406] pool3/3x3_s2_pool3/3x3_s2_0_split <- pool3/3x3_s2
I0509 20:58:00.445538 17858 net.cpp:380] pool3/3x3_s2_pool3/3x3_s2_0_split -> pool3/3x3_s2_pool3/3x3_s2_0_split_0
I0509 20:58:00.445544 17858 net.cpp:380] pool3/3x3_s2_pool3/3x3_s2_0_split -> pool3/3x3_s2_pool3/3x3_s2_0_split_1
I0509 20:58:00.445549 17858 net.cpp:380] pool3/3x3_s2_pool3/3x3_s2_0_split -> pool3/3x3_s2_pool3/3x3_s2_0_split_2
I0509 20:58:00.445554 17858 net.cpp:380] pool3/3x3_s2_pool3/3x3_s2_0_split -> pool3/3x3_s2_pool3/3x3_s2_0_split_3
I0509 20:58:00.445598 17858 net.cpp:122] Setting up pool3/3x3_s2_pool3/3x3_s2_0_split
I0509 20:58:00.445602 17858 net.cpp:129] Top shape: 50 480 14 14 (4704000)
I0509 20:58:00.445606 17858 net.cpp:129] Top shape: 50 480 14 14 (4704000)
I0509 20:58:00.445610 17858 net.cpp:129] Top shape: 50 480 14 14 (4704000)
I0509 20:58:00.445612 17858 net.cpp:129] Top shape: 50 480 14 14 (4704000)
I0509 20:58:00.445614 17858 net.cpp:137] Memory required for data: 1779994400
I0509 20:58:00.445617 17858 layer_factory.hpp:77] Creating layer inception_4a/1x1
I0509 20:58:00.445627 17858 net.cpp:84] Creating Layer inception_4a/1x1
I0509 20:58:00.445631 17858 net.cpp:406] inception_4a/1x1 <- pool3/3x3_s2_pool3/3x3_s2_0_split_0
I0509 20:58:00.445636 17858 net.cpp:380] inception_4a/1x1 -> inception_4a/1x1
I0509 20:58:00.448223 17858 net.cpp:122] Setting up inception_4a/1x1
I0509 20:58:00.448233 17858 net.cpp:129] Top shape: 50 192 14 14 (1881600)
I0509 20:58:00.448236 17858 net.cpp:137] Memory required for data: 1787520800
I0509 20:58:00.448242 17858 layer_factory.hpp:77] Creating layer inception_4a/relu_1x1
I0509 20:58:00.448247 17858 net.cpp:84] Creating Layer inception_4a/relu_1x1
I0509 20:58:00.448251 17858 net.cpp:406] inception_4a/relu_1x1 <- inception_4a/1x1
I0509 20:58:00.448257 17858 net.cpp:367] inception_4a/relu_1x1 -> inception_4a/1x1 (in-place)
I0509 20:58:00.448833 17858 net.cpp:122] Setting up inception_4a/relu_1x1
I0509 20:58:00.448844 17858 net.cpp:129] Top shape: 50 192 14 14 (1881600)
I0509 20:58:00.448848 17858 net.cpp:137] Memory required for data: 1795047200
I0509 20:58:00.448850 17858 layer_factory.hpp:77] Creating layer inception_4a/3x3_reduce
I0509 20:58:00.448860 17858 net.cpp:84] Creating Layer inception_4a/3x3_reduce
I0509 20:58:00.448864 17858 net.cpp:406] inception_4a/3x3_reduce <- pool3/3x3_s2_pool3/3x3_s2_0_split_1
I0509 20:58:00.448873 17858 net.cpp:380] inception_4a/3x3_reduce -> inception_4a/3x3_reduce
I0509 20:58:00.451082 17858 net.cpp:122] Setting up inception_4a/3x3_reduce
I0509 20:58:00.451092 17858 net.cpp:129] Top shape: 50 96 14 14 (940800)
I0509 20:58:00.451094 17858 net.cpp:137] Memory required for data: 1798810400
I0509 20:58:00.451105 17858 layer_factory.hpp:77] Creating layer inception_4a/relu_3x3_reduce
I0509 20:58:00.451113 17858 net.cpp:84] Creating Layer inception_4a/relu_3x3_reduce
I0509 20:58:00.451117 17858 net.cpp:406] inception_4a/relu_3x3_reduce <- inception_4a/3x3_reduce
I0509 20:58:00.451131 17858 net.cpp:367] inception_4a/relu_3x3_reduce -> inception_4a/3x3_reduce (in-place)
I0509 20:58:00.452868 17858 net.cpp:122] Setting up inception_4a/relu_3x3_reduce
I0509 20:58:00.452878 17858 net.cpp:129] Top shape: 50 96 14 14 (940800)
I0509 20:58:00.452881 17858 net.cpp:137] Memory required for data: 1802573600
I0509 20:58:00.452884 17858 layer_factory.hpp:77] Creating layer inception_4a/3x3
I0509 20:58:00.452894 17858 net.cpp:84] Creating Layer inception_4a/3x3
I0509 20:58:00.452898 17858 net.cpp:406] inception_4a/3x3 <- inception_4a/3x3_reduce
I0509 20:58:00.452904 17858 net.cpp:380] inception_4a/3x3 -> inception_4a/3x3
I0509 20:58:00.456833 17858 net.cpp:122] Setting up inception_4a/3x3
I0509 20:58:00.456845 17858 net.cpp:129] Top shape: 50 208 14 14 (2038400)
I0509 20:58:00.456847 17858 net.cpp:137] Memory required for data: 1810727200
I0509 20:58:00.456853 17858 layer_factory.hpp:77] Creating layer inception_4a/relu_3x3
I0509 20:58:00.456861 17858 net.cpp:84] Creating Layer inception_4a/relu_3x3
I0509 20:58:00.456864 17858 net.cpp:406] inception_4a/relu_3x3 <- inception_4a/3x3
I0509 20:58:00.456869 17858 net.cpp:367] inception_4a/relu_3x3 -> inception_4a/3x3 (in-place)
I0509 20:58:00.457453 17858 net.cpp:122] Setting up inception_4a/relu_3x3
I0509 20:58:00.457463 17858 net.cpp:129] Top shape: 50 208 14 14 (2038400)
I0509 20:58:00.457464 17858 net.cpp:137] Memory required for data: 1818880800
I0509 20:58:00.457468 17858 layer_factory.hpp:77] Creating layer inception_4a/5x5_reduce
I0509 20:58:00.457479 17858 net.cpp:84] Creating Layer inception_4a/5x5_reduce
I0509 20:58:00.457481 17858 net.cpp:406] inception_4a/5x5_reduce <- pool3/3x3_s2_pool3/3x3_s2_0_split_2
I0509 20:58:00.457490 17858 net.cpp:380] inception_4a/5x5_reduce -> inception_4a/5x5_reduce
I0509 20:58:00.459607 17858 net.cpp:122] Setting up inception_4a/5x5_reduce
I0509 20:58:00.459617 17858 net.cpp:129] Top shape: 50 16 14 14 (156800)
I0509 20:58:00.459620 17858 net.cpp:137] Memory required for data: 1819508000
I0509 20:58:00.459625 17858 layer_factory.hpp:77] Creating layer inception_4a/relu_5x5_reduce
I0509 20:58:00.459632 17858 net.cpp:84] Creating Layer inception_4a/relu_5x5_reduce
I0509 20:58:00.459635 17858 net.cpp:406] inception_4a/relu_5x5_reduce <- inception_4a/5x5_reduce
I0509 20:58:00.459645 17858 net.cpp:367] inception_4a/relu_5x5_reduce -> inception_4a/5x5_reduce (in-place)
I0509 20:58:00.460206 17858 net.cpp:122] Setting up inception_4a/relu_5x5_reduce
I0509 20:58:00.460217 17858 net.cpp:129] Top shape: 50 16 14 14 (156800)
I0509 20:58:00.460220 17858 net.cpp:137] Memory required for data: 1820135200
I0509 20:58:00.460223 17858 layer_factory.hpp:77] Creating layer inception_4a/5x5
I0509 20:58:00.460232 17858 net.cpp:84] Creating Layer inception_4a/5x5
I0509 20:58:00.460237 17858 net.cpp:406] inception_4a/5x5 <- inception_4a/5x5_reduce
I0509 20:58:00.460242 17858 net.cpp:380] inception_4a/5x5 -> inception_4a/5x5
I0509 20:58:00.463680 17858 net.cpp:122] Setting up inception_4a/5x5
I0509 20:58:00.463692 17858 net.cpp:129] Top shape: 50 48 14 14 (470400)
I0509 20:58:00.463696 17858 net.cpp:137] Memory required for data: 1822016800
I0509 20:58:00.463706 17858 layer_factory.hpp:77] Creating layer inception_4a/relu_5x5
I0509 20:58:00.463713 17858 net.cpp:84] Creating Layer inception_4a/relu_5x5
I0509 20:58:00.463718 17858 net.cpp:406] inception_4a/relu_5x5 <- inception_4a/5x5
I0509 20:58:00.463729 17858 net.cpp:367] inception_4a/relu_5x5 -> inception_4a/5x5 (in-place)
I0509 20:58:00.464110 17858 net.cpp:122] Setting up inception_4a/relu_5x5
I0509 20:58:00.464119 17858 net.cpp:129] Top shape: 50 48 14 14 (470400)
I0509 20:58:00.464123 17858 net.cpp:137] Memory required for data: 1823898400
I0509 20:58:00.464125 17858 layer_factory.hpp:77] Creating layer inception_4a/pool
I0509 20:58:00.464133 17858 net.cpp:84] Creating Layer inception_4a/pool
I0509 20:58:00.464136 17858 net.cpp:406] inception_4a/pool <- pool3/3x3_s2_pool3/3x3_s2_0_split_3
I0509 20:58:00.464141 17858 net.cpp:380] inception_4a/pool -> inception_4a/pool
I0509 20:58:00.464196 17858 net.cpp:122] Setting up inception_4a/pool
I0509 20:58:00.464202 17858 net.cpp:129] Top shape: 50 480 14 14 (4704000)
I0509 20:58:00.464205 17858 net.cpp:137] Memory required for data: 1842714400
I0509 20:58:00.464207 17858 layer_factory.hpp:77] Creating layer inception_4a/pool_proj
I0509 20:58:00.464216 17858 net.cpp:84] Creating Layer inception_4a/pool_proj
I0509 20:58:00.464220 17858 net.cpp:406] inception_4a/pool_proj <- inception_4a/pool
I0509 20:58:00.464227 17858 net.cpp:380] inception_4a/pool_proj -> inception_4a/pool_proj
I0509 20:58:00.466770 17858 net.cpp:122] Setting up inception_4a/pool_proj
I0509 20:58:00.466781 17858 net.cpp:129] Top shape: 50 64 14 14 (627200)
I0509 20:58:00.466784 17858 net.cpp:137] Memory required for data: 1845223200
I0509 20:58:00.466790 17858 layer_factory.hpp:77] Creating layer inception_4a/relu_pool_proj
I0509 20:58:00.466795 17858 net.cpp:84] Creating Layer inception_4a/relu_pool_proj
I0509 20:58:00.466799 17858 net.cpp:406] inception_4a/relu_pool_proj <- inception_4a/pool_proj
I0509 20:58:00.466805 17858 net.cpp:367] inception_4a/relu_pool_proj -> inception_4a/pool_proj (in-place)
I0509 20:58:00.467368 17858 net.cpp:122] Setting up inception_4a/relu_pool_proj
I0509 20:58:00.467377 17858 net.cpp:129] Top shape: 50 64 14 14 (627200)
I0509 20:58:00.467381 17858 net.cpp:137] Memory required for data: 1847732000
I0509 20:58:00.467383 17858 layer_factory.hpp:77] Creating layer inception_4a/output
I0509 20:58:00.467391 17858 net.cpp:84] Creating Layer inception_4a/output
I0509 20:58:00.467394 17858 net.cpp:406] inception_4a/output <- inception_4a/1x1
I0509 20:58:00.467398 17858 net.cpp:406] inception_4a/output <- inception_4a/3x3
I0509 20:58:00.467402 17858 net.cpp:406] inception_4a/output <- inception_4a/5x5
I0509 20:58:00.467406 17858 net.cpp:406] inception_4a/output <- inception_4a/pool_proj
I0509 20:58:00.467409 17858 net.cpp:380] inception_4a/output -> inception_4a/output
I0509 20:58:00.467437 17858 net.cpp:122] Setting up inception_4a/output
I0509 20:58:00.467442 17858 net.cpp:129] Top shape: 50 512 14 14 (5017600)
I0509 20:58:00.467444 17858 net.cpp:137] Memory required for data: 1867802400
I0509 20:58:00.467447 17858 layer_factory.hpp:77] Creating layer inception_4a/output_inception_4a/output_0_split
I0509 20:58:00.467454 17858 net.cpp:84] Creating Layer inception_4a/output_inception_4a/output_0_split
I0509 20:58:00.467458 17858 net.cpp:406] inception_4a/output_inception_4a/output_0_split <- inception_4a/output
I0509 20:58:00.467463 17858 net.cpp:380] inception_4a/output_inception_4a/output_0_split -> inception_4a/output_inception_4a/output_0_split_0
I0509 20:58:00.467469 17858 net.cpp:380] inception_4a/output_inception_4a/output_0_split -> inception_4a/output_inception_4a/output_0_split_1
I0509 20:58:00.467474 17858 net.cpp:380] inception_4a/output_inception_4a/output_0_split -> inception_4a/output_inception_4a/output_0_split_2
I0509 20:58:00.467479 17858 net.cpp:380] inception_4a/output_inception_4a/output_0_split -> inception_4a/output_inception_4a/output_0_split_3
I0509 20:58:00.467484 17858 net.cpp:380] inception_4a/output_inception_4a/output_0_split -> inception_4a/output_inception_4a/output_0_split_4
I0509 20:58:00.467540 17858 net.cpp:122] Setting up inception_4a/output_inception_4a/output_0_split
I0509 20:58:00.467545 17858 net.cpp:129] Top shape: 50 512 14 14 (5017600)
I0509 20:58:00.467550 17858 net.cpp:129] Top shape: 50 512 14 14 (5017600)
I0509 20:58:00.467553 17858 net.cpp:129] Top shape: 50 512 14 14 (5017600)
I0509 20:58:00.467556 17858 net.cpp:129] Top shape: 50 512 14 14 (5017600)
I0509 20:58:00.467559 17858 net.cpp:129] Top shape: 50 512 14 14 (5017600)
I0509 20:58:00.467562 17858 net.cpp:137] Memory required for data: 1968154400
I0509 20:58:00.467564 17858 layer_factory.hpp:77] Creating layer loss1/ave_pool
I0509 20:58:00.467571 17858 net.cpp:84] Creating Layer loss1/ave_pool
I0509 20:58:00.467574 17858 net.cpp:406] loss1/ave_pool <- inception_4a/output_inception_4a/output_0_split_0
I0509 20:58:00.467578 17858 net.cpp:380] loss1/ave_pool -> loss1/ave_pool
I0509 20:58:00.467998 17858 net.cpp:122] Setting up loss1/ave_pool
I0509 20:58:00.468006 17858 net.cpp:129] Top shape: 50 512 4 4 (409600)
I0509 20:58:00.468009 17858 net.cpp:137] Memory required for data: 1969792800
I0509 20:58:00.468012 17858 layer_factory.hpp:77] Creating layer loss1/conv
I0509 20:58:00.468022 17858 net.cpp:84] Creating Layer loss1/conv
I0509 20:58:00.468026 17858 net.cpp:406] loss1/conv <- loss1/ave_pool
I0509 20:58:00.468031 17858 net.cpp:380] loss1/conv -> loss1/conv
I0509 20:58:00.471603 17858 net.cpp:122] Setting up loss1/conv
I0509 20:58:00.471613 17858 net.cpp:129] Top shape: 50 128 4 4 (102400)
I0509 20:58:00.471616 17858 net.cpp:137] Memory required for data: 1970202400
I0509 20:58:00.471622 17858 layer_factory.hpp:77] Creating layer loss1/relu_conv
I0509 20:58:00.471628 17858 net.cpp:84] Creating Layer loss1/relu_conv
I0509 20:58:00.471632 17858 net.cpp:406] loss1/relu_conv <- loss1/conv
I0509 20:58:00.471637 17858 net.cpp:367] loss1/relu_conv -> loss1/conv (in-place)
I0509 20:58:00.472204 17858 net.cpp:122] Setting up loss1/relu_conv
I0509 20:58:00.472214 17858 net.cpp:129] Top shape: 50 128 4 4 (102400)
I0509 20:58:00.472216 17858 net.cpp:137] Memory required for data: 1970612000
I0509 20:58:00.472220 17858 layer_factory.hpp:77] Creating layer loss1/fc
I0509 20:58:00.472231 17858 net.cpp:84] Creating Layer loss1/fc
I0509 20:58:00.472234 17858 net.cpp:406] loss1/fc <- loss1/conv
I0509 20:58:00.472241 17858 net.cpp:380] loss1/fc -> loss1/fc
I0509 20:58:00.484259 17858 net.cpp:122] Setting up loss1/fc
I0509 20:58:00.484273 17858 net.cpp:129] Top shape: 50 1024 (51200)
I0509 20:58:00.484277 17858 net.cpp:137] Memory required for data: 1970816800
I0509 20:58:00.484282 17858 layer_factory.hpp:77] Creating layer loss1/relu_fc
I0509 20:58:00.484288 17858 net.cpp:84] Creating Layer loss1/relu_fc
I0509 20:58:00.484292 17858 net.cpp:406] loss1/relu_fc <- loss1/fc
I0509 20:58:00.484297 17858 net.cpp:367] loss1/relu_fc -> loss1/fc (in-place)
I0509 20:58:00.484719 17858 net.cpp:122] Setting up loss1/relu_fc
I0509 20:58:00.484728 17858 net.cpp:129] Top shape: 50 1024 (51200)
I0509 20:58:00.484730 17858 net.cpp:137] Memory required for data: 1971021600
I0509 20:58:00.484733 17858 layer_factory.hpp:77] Creating layer loss1/drop_fc
I0509 20:58:00.484755 17858 net.cpp:84] Creating Layer loss1/drop_fc
I0509 20:58:00.484758 17858 net.cpp:406] loss1/drop_fc <- loss1/fc
I0509 20:58:00.484763 17858 net.cpp:367] loss1/drop_fc -> loss1/fc (in-place)
I0509 20:58:00.484789 17858 net.cpp:122] Setting up loss1/drop_fc
I0509 20:58:00.484794 17858 net.cpp:129] Top shape: 50 1024 (51200)
I0509 20:58:00.484797 17858 net.cpp:137] Memory required for data: 1971226400
I0509 20:58:00.484800 17858 layer_factory.hpp:77] Creating layer loss1/classifier
I0509 20:58:00.484807 17858 net.cpp:84] Creating Layer loss1/classifier
I0509 20:58:00.484809 17858 net.cpp:406] loss1/classifier <- loss1/fc
I0509 20:58:00.484817 17858 net.cpp:380] loss1/classifier -> loss1/classifier
I0509 20:58:00.485841 17858 net.cpp:122] Setting up loss1/classifier
I0509 20:58:00.485846 17858 net.cpp:129] Top shape: 50 196 (9800)
I0509 20:58:00.485849 17858 net.cpp:137] Memory required for data: 1971265600
I0509 20:58:00.485854 17858 layer_factory.hpp:77] Creating layer loss1/loss
I0509 20:58:00.485862 17858 net.cpp:84] Creating Layer loss1/loss
I0509 20:58:00.485864 17858 net.cpp:406] loss1/loss <- loss1/classifier
I0509 20:58:00.485868 17858 net.cpp:406] loss1/loss <- label_train-data_1_split_0
I0509 20:58:00.485872 17858 net.cpp:380] loss1/loss -> loss1/loss
I0509 20:58:00.485880 17858 layer_factory.hpp:77] Creating layer loss1/loss
I0509 20:58:00.486546 17858 net.cpp:122] Setting up loss1/loss
I0509 20:58:00.486554 17858 net.cpp:129] Top shape: (1)
I0509 20:58:00.486557 17858 net.cpp:132]     with loss weight 0.3
I0509 20:58:00.486574 17858 net.cpp:137] Memory required for data: 1971265604
I0509 20:58:00.486577 17858 layer_factory.hpp:77] Creating layer inception_4b/1x1
I0509 20:58:00.486590 17858 net.cpp:84] Creating Layer inception_4b/1x1
I0509 20:58:00.486609 17858 net.cpp:406] inception_4b/1x1 <- inception_4a/output_inception_4a/output_0_split_1
I0509 20:58:00.486616 17858 net.cpp:380] inception_4b/1x1 -> inception_4b/1x1
I0509 20:58:00.489177 17858 net.cpp:122] Setting up inception_4b/1x1
I0509 20:58:00.489187 17858 net.cpp:129] Top shape: 50 160 14 14 (1568000)
I0509 20:58:00.489190 17858 net.cpp:137] Memory required for data: 1977537604
I0509 20:58:00.489197 17858 layer_factory.hpp:77] Creating layer inception_4b/relu_1x1
I0509 20:58:00.489202 17858 net.cpp:84] Creating Layer inception_4b/relu_1x1
I0509 20:58:00.489207 17858 net.cpp:406] inception_4b/relu_1x1 <- inception_4b/1x1
I0509 20:58:00.489212 17858 net.cpp:367] inception_4b/relu_1x1 -> inception_4b/1x1 (in-place)
I0509 20:58:00.489789 17858 net.cpp:122] Setting up inception_4b/relu_1x1
I0509 20:58:00.489797 17858 net.cpp:129] Top shape: 50 160 14 14 (1568000)
I0509 20:58:00.489800 17858 net.cpp:137] Memory required for data: 1983809604
I0509 20:58:00.489804 17858 layer_factory.hpp:77] Creating layer inception_4b/3x3_reduce
I0509 20:58:00.489814 17858 net.cpp:84] Creating Layer inception_4b/3x3_reduce
I0509 20:58:00.489816 17858 net.cpp:406] inception_4b/3x3_reduce <- inception_4a/output_inception_4a/output_0_split_2
I0509 20:58:00.489823 17858 net.cpp:380] inception_4b/3x3_reduce -> inception_4b/3x3_reduce
I0509 20:58:00.493629 17858 net.cpp:122] Setting up inception_4b/3x3_reduce
I0509 20:58:00.493639 17858 net.cpp:129] Top shape: 50 112 14 14 (1097600)
I0509 20:58:00.493643 17858 net.cpp:137] Memory required for data: 1988200004
I0509 20:58:00.493649 17858 layer_factory.hpp:77] Creating layer inception_4b/relu_3x3_reduce
I0509 20:58:00.493656 17858 net.cpp:84] Creating Layer inception_4b/relu_3x3_reduce
I0509 20:58:00.493660 17858 net.cpp:406] inception_4b/relu_3x3_reduce <- inception_4b/3x3_reduce
I0509 20:58:00.493665 17858 net.cpp:367] inception_4b/relu_3x3_reduce -> inception_4b/3x3_reduce (in-place)
I0509 20:58:00.494043 17858 net.cpp:122] Setting up inception_4b/relu_3x3_reduce
I0509 20:58:00.494052 17858 net.cpp:129] Top shape: 50 112 14 14 (1097600)
I0509 20:58:00.494055 17858 net.cpp:137] Memory required for data: 1992590404
I0509 20:58:00.494058 17858 layer_factory.hpp:77] Creating layer inception_4b/3x3
I0509 20:58:00.494068 17858 net.cpp:84] Creating Layer inception_4b/3x3
I0509 20:58:00.494071 17858 net.cpp:406] inception_4b/3x3 <- inception_4b/3x3_reduce
I0509 20:58:00.494078 17858 net.cpp:380] inception_4b/3x3 -> inception_4b/3x3
I0509 20:58:00.498188 17858 net.cpp:122] Setting up inception_4b/3x3
I0509 20:58:00.498198 17858 net.cpp:129] Top shape: 50 224 14 14 (2195200)
I0509 20:58:00.498201 17858 net.cpp:137] Memory required for data: 2001371204
I0509 20:58:00.498208 17858 layer_factory.hpp:77] Creating layer inception_4b/relu_3x3
I0509 20:58:00.498214 17858 net.cpp:84] Creating Layer inception_4b/relu_3x3
I0509 20:58:00.498217 17858 net.cpp:406] inception_4b/relu_3x3 <- inception_4b/3x3
I0509 20:58:00.498224 17858 net.cpp:367] inception_4b/relu_3x3 -> inception_4b/3x3 (in-place)
I0509 20:58:00.498776 17858 net.cpp:122] Setting up inception_4b/relu_3x3
I0509 20:58:00.498785 17858 net.cpp:129] Top shape: 50 224 14 14 (2195200)
I0509 20:58:00.498788 17858 net.cpp:137] Memory required for data: 2010152004
I0509 20:58:00.498791 17858 layer_factory.hpp:77] Creating layer inception_4b/5x5_reduce
I0509 20:58:00.498801 17858 net.cpp:84] Creating Layer inception_4b/5x5_reduce
I0509 20:58:00.498805 17858 net.cpp:406] inception_4b/5x5_reduce <- inception_4a/output_inception_4a/output_0_split_3
I0509 20:58:00.498812 17858 net.cpp:380] inception_4b/5x5_reduce -> inception_4b/5x5_reduce
I0509 20:58:00.501068 17858 net.cpp:122] Setting up inception_4b/5x5_reduce
I0509 20:58:00.501080 17858 net.cpp:129] Top shape: 50 24 14 14 (235200)
I0509 20:58:00.501082 17858 net.cpp:137] Memory required for data: 2011092804
I0509 20:58:00.501088 17858 layer_factory.hpp:77] Creating layer inception_4b/relu_5x5_reduce
I0509 20:58:00.501093 17858 net.cpp:84] Creating Layer inception_4b/relu_5x5_reduce
I0509 20:58:00.501113 17858 net.cpp:406] inception_4b/relu_5x5_reduce <- inception_4b/5x5_reduce
I0509 20:58:00.501121 17858 net.cpp:367] inception_4b/relu_5x5_reduce -> inception_4b/5x5_reduce (in-place)
I0509 20:58:00.501735 17858 net.cpp:122] Setting up inception_4b/relu_5x5_reduce
I0509 20:58:00.501745 17858 net.cpp:129] Top shape: 50 24 14 14 (235200)
I0509 20:58:00.501747 17858 net.cpp:137] Memory required for data: 2012033604
I0509 20:58:00.501751 17858 layer_factory.hpp:77] Creating layer inception_4b/5x5
I0509 20:58:00.501761 17858 net.cpp:84] Creating Layer inception_4b/5x5
I0509 20:58:00.501765 17858 net.cpp:406] inception_4b/5x5 <- inception_4b/5x5_reduce
I0509 20:58:00.501771 17858 net.cpp:380] inception_4b/5x5 -> inception_4b/5x5
I0509 20:58:00.505234 17858 net.cpp:122] Setting up inception_4b/5x5
I0509 20:58:00.505245 17858 net.cpp:129] Top shape: 50 64 14 14 (627200)
I0509 20:58:00.505249 17858 net.cpp:137] Memory required for data: 2014542404
I0509 20:58:00.505254 17858 layer_factory.hpp:77] Creating layer inception_4b/relu_5x5
I0509 20:58:00.505260 17858 net.cpp:84] Creating Layer inception_4b/relu_5x5
I0509 20:58:00.505264 17858 net.cpp:406] inception_4b/relu_5x5 <- inception_4b/5x5
I0509 20:58:00.505270 17858 net.cpp:367] inception_4b/relu_5x5 -> inception_4b/5x5 (in-place)
I0509 20:58:00.505829 17858 net.cpp:122] Setting up inception_4b/relu_5x5
I0509 20:58:00.505841 17858 net.cpp:129] Top shape: 50 64 14 14 (627200)
I0509 20:58:00.505842 17858 net.cpp:137] Memory required for data: 2017051204
I0509 20:58:00.505846 17858 layer_factory.hpp:77] Creating layer inception_4b/pool
I0509 20:58:00.505852 17858 net.cpp:84] Creating Layer inception_4b/pool
I0509 20:58:00.505856 17858 net.cpp:406] inception_4b/pool <- inception_4a/output_inception_4a/output_0_split_4
I0509 20:58:00.505867 17858 net.cpp:380] inception_4b/pool -> inception_4b/pool
I0509 20:58:00.505920 17858 net.cpp:122] Setting up inception_4b/pool
I0509 20:58:00.505925 17858 net.cpp:129] Top shape: 50 512 14 14 (5017600)
I0509 20:58:00.505928 17858 net.cpp:137] Memory required for data: 2037121604
I0509 20:58:00.505931 17858 layer_factory.hpp:77] Creating layer inception_4b/pool_proj
I0509 20:58:00.505939 17858 net.cpp:84] Creating Layer inception_4b/pool_proj
I0509 20:58:00.505942 17858 net.cpp:406] inception_4b/pool_proj <- inception_4b/pool
I0509 20:58:00.505949 17858 net.cpp:380] inception_4b/pool_proj -> inception_4b/pool_proj
I0509 20:58:00.508100 17858 net.cpp:122] Setting up inception_4b/pool_proj
I0509 20:58:00.508110 17858 net.cpp:129] Top shape: 50 64 14 14 (627200)
I0509 20:58:00.508112 17858 net.cpp:137] Memory required for data: 2039630404
I0509 20:58:00.508118 17858 layer_factory.hpp:77] Creating layer inception_4b/relu_pool_proj
I0509 20:58:00.508126 17858 net.cpp:84] Creating Layer inception_4b/relu_pool_proj
I0509 20:58:00.508129 17858 net.cpp:406] inception_4b/relu_pool_proj <- inception_4b/pool_proj
I0509 20:58:00.508133 17858 net.cpp:367] inception_4b/relu_pool_proj -> inception_4b/pool_proj (in-place)
I0509 20:58:00.508699 17858 net.cpp:122] Setting up inception_4b/relu_pool_proj
I0509 20:58:00.508709 17858 net.cpp:129] Top shape: 50 64 14 14 (627200)
I0509 20:58:00.508711 17858 net.cpp:137] Memory required for data: 2042139204
I0509 20:58:00.508714 17858 layer_factory.hpp:77] Creating layer inception_4b/output
I0509 20:58:00.508720 17858 net.cpp:84] Creating Layer inception_4b/output
I0509 20:58:00.508725 17858 net.cpp:406] inception_4b/output <- inception_4b/1x1
I0509 20:58:00.508730 17858 net.cpp:406] inception_4b/output <- inception_4b/3x3
I0509 20:58:00.508733 17858 net.cpp:406] inception_4b/output <- inception_4b/5x5
I0509 20:58:00.508738 17858 net.cpp:406] inception_4b/output <- inception_4b/pool_proj
I0509 20:58:00.508741 17858 net.cpp:380] inception_4b/output -> inception_4b/output
I0509 20:58:00.508772 17858 net.cpp:122] Setting up inception_4b/output
I0509 20:58:00.508777 17858 net.cpp:129] Top shape: 50 512 14 14 (5017600)
I0509 20:58:00.508780 17858 net.cpp:137] Memory required for data: 2062209604
I0509 20:58:00.508795 17858 layer_factory.hpp:77] Creating layer inception_4b/output_inception_4b/output_0_split
I0509 20:58:00.508801 17858 net.cpp:84] Creating Layer inception_4b/output_inception_4b/output_0_split
I0509 20:58:00.508805 17858 net.cpp:406] inception_4b/output_inception_4b/output_0_split <- inception_4b/output
I0509 20:58:00.508810 17858 net.cpp:380] inception_4b/output_inception_4b/output_0_split -> inception_4b/output_inception_4b/output_0_split_0
I0509 20:58:00.508816 17858 net.cpp:380] inception_4b/output_inception_4b/output_0_split -> inception_4b/output_inception_4b/output_0_split_1
I0509 20:58:00.508822 17858 net.cpp:380] inception_4b/output_inception_4b/output_0_split -> inception_4b/output_inception_4b/output_0_split_2
I0509 20:58:00.508828 17858 net.cpp:380] inception_4b/output_inception_4b/output_0_split -> inception_4b/output_inception_4b/output_0_split_3
I0509 20:58:00.508879 17858 net.cpp:122] Setting up inception_4b/output_inception_4b/output_0_split
I0509 20:58:00.508884 17858 net.cpp:129] Top shape: 50 512 14 14 (5017600)
I0509 20:58:00.508888 17858 net.cpp:129] Top shape: 50 512 14 14 (5017600)
I0509 20:58:00.508891 17858 net.cpp:129] Top shape: 50 512 14 14 (5017600)
I0509 20:58:00.508894 17858 net.cpp:129] Top shape: 50 512 14 14 (5017600)
I0509 20:58:00.508898 17858 net.cpp:137] Memory required for data: 2142491204
I0509 20:58:00.508899 17858 layer_factory.hpp:77] Creating layer inception_4c/1x1
I0509 20:58:00.508908 17858 net.cpp:84] Creating Layer inception_4c/1x1
I0509 20:58:00.508911 17858 net.cpp:406] inception_4c/1x1 <- inception_4b/output_inception_4b/output_0_split_0
I0509 20:58:00.508918 17858 net.cpp:380] inception_4c/1x1 -> inception_4c/1x1
I0509 20:58:00.512843 17858 net.cpp:122] Setting up inception_4c/1x1
I0509 20:58:00.512856 17858 net.cpp:129] Top shape: 50 128 14 14 (1254400)
I0509 20:58:00.512859 17858 net.cpp:137] Memory required for data: 2147508804
I0509 20:58:00.512866 17858 layer_factory.hpp:77] Creating layer inception_4c/relu_1x1
I0509 20:58:00.512872 17858 net.cpp:84] Creating Layer inception_4c/relu_1x1
I0509 20:58:00.512876 17858 net.cpp:406] inception_4c/relu_1x1 <- inception_4c/1x1
I0509 20:58:00.512883 17858 net.cpp:367] inception_4c/relu_1x1 -> inception_4c/1x1 (in-place)
I0509 20:58:00.513272 17858 net.cpp:122] Setting up inception_4c/relu_1x1
I0509 20:58:00.513281 17858 net.cpp:129] Top shape: 50 128 14 14 (1254400)
I0509 20:58:00.513284 17858 net.cpp:137] Memory required for data: 2152526404
I0509 20:58:00.513288 17858 layer_factory.hpp:77] Creating layer inception_4c/3x3_reduce
I0509 20:58:00.513298 17858 net.cpp:84] Creating Layer inception_4c/3x3_reduce
I0509 20:58:00.513301 17858 net.cpp:406] inception_4c/3x3_reduce <- inception_4b/output_inception_4b/output_0_split_1
I0509 20:58:00.513306 17858 net.cpp:380] inception_4c/3x3_reduce -> inception_4c/3x3_reduce
I0509 20:58:00.516074 17858 net.cpp:122] Setting up inception_4c/3x3_reduce
I0509 20:58:00.516084 17858 net.cpp:129] Top shape: 50 128 14 14 (1254400)
I0509 20:58:00.516088 17858 net.cpp:137] Memory required for data: 2157544004
I0509 20:58:00.516093 17858 layer_factory.hpp:77] Creating layer inception_4c/relu_3x3_reduce
I0509 20:58:00.516099 17858 net.cpp:84] Creating Layer inception_4c/relu_3x3_reduce
I0509 20:58:00.516103 17858 net.cpp:406] inception_4c/relu_3x3_reduce <- inception_4c/3x3_reduce
I0509 20:58:00.516109 17858 net.cpp:367] inception_4c/relu_3x3_reduce -> inception_4c/3x3_reduce (in-place)
I0509 20:58:00.516683 17858 net.cpp:122] Setting up inception_4c/relu_3x3_reduce
I0509 20:58:00.516693 17858 net.cpp:129] Top shape: 50 128 14 14 (1254400)
I0509 20:58:00.516696 17858 net.cpp:137] Memory required for data: 2162561604
I0509 20:58:00.516700 17858 layer_factory.hpp:77] Creating layer inception_4c/3x3
I0509 20:58:00.516716 17858 net.cpp:84] Creating Layer inception_4c/3x3
I0509 20:58:00.516719 17858 net.cpp:406] inception_4c/3x3 <- inception_4c/3x3_reduce
I0509 20:58:00.516724 17858 net.cpp:380] inception_4c/3x3 -> inception_4c/3x3
I0509 20:58:00.521109 17858 net.cpp:122] Setting up inception_4c/3x3
I0509 20:58:00.521140 17858 net.cpp:129] Top shape: 50 256 14 14 (2508800)
I0509 20:58:00.521143 17858 net.cpp:137] Memory required for data: 2172596804
I0509 20:58:00.521162 17858 layer_factory.hpp:77] Creating layer inception_4c/relu_3x3
I0509 20:58:00.521169 17858 net.cpp:84] Creating Layer inception_4c/relu_3x3
I0509 20:58:00.521173 17858 net.cpp:406] inception_4c/relu_3x3 <- inception_4c/3x3
I0509 20:58:00.521178 17858 net.cpp:367] inception_4c/relu_3x3 -> inception_4c/3x3 (in-place)
I0509 20:58:00.521889 17858 net.cpp:122] Setting up inception_4c/relu_3x3
I0509 20:58:00.521899 17858 net.cpp:129] Top shape: 50 256 14 14 (2508800)
I0509 20:58:00.521903 17858 net.cpp:137] Memory required for data: 2182632004
I0509 20:58:00.521905 17858 layer_factory.hpp:77] Creating layer inception_4c/5x5_reduce
I0509 20:58:00.521915 17858 net.cpp:84] Creating Layer inception_4c/5x5_reduce
I0509 20:58:00.521919 17858 net.cpp:406] inception_4c/5x5_reduce <- inception_4b/output_inception_4b/output_0_split_2
I0509 20:58:00.521926 17858 net.cpp:380] inception_4c/5x5_reduce -> inception_4c/5x5_reduce
I0509 20:58:00.525494 17858 net.cpp:122] Setting up inception_4c/5x5_reduce
I0509 20:58:00.525508 17858 net.cpp:129] Top shape: 50 24 14 14 (235200)
I0509 20:58:00.525512 17858 net.cpp:137] Memory required for data: 2183572804
I0509 20:58:00.525518 17858 layer_factory.hpp:77] Creating layer inception_4c/relu_5x5_reduce
I0509 20:58:00.525524 17858 net.cpp:84] Creating Layer inception_4c/relu_5x5_reduce
I0509 20:58:00.525528 17858 net.cpp:406] inception_4c/relu_5x5_reduce <- inception_4c/5x5_reduce
I0509 20:58:00.525533 17858 net.cpp:367] inception_4c/relu_5x5_reduce -> inception_4c/5x5_reduce (in-place)
I0509 20:58:00.526253 17858 net.cpp:122] Setting up inception_4c/relu_5x5_reduce
I0509 20:58:00.526262 17858 net.cpp:129] Top shape: 50 24 14 14 (235200)
I0509 20:58:00.526265 17858 net.cpp:137] Memory required for data: 2184513604
I0509 20:58:00.526268 17858 layer_factory.hpp:77] Creating layer inception_4c/5x5
I0509 20:58:00.526278 17858 net.cpp:84] Creating Layer inception_4c/5x5
I0509 20:58:00.526281 17858 net.cpp:406] inception_4c/5x5 <- inception_4c/5x5_reduce
I0509 20:58:00.526289 17858 net.cpp:380] inception_4c/5x5 -> inception_4c/5x5
I0509 20:58:00.528512 17858 net.cpp:122] Setting up inception_4c/5x5
I0509 20:58:00.528522 17858 net.cpp:129] Top shape: 50 64 14 14 (627200)
I0509 20:58:00.528525 17858 net.cpp:137] Memory required for data: 2187022404
I0509 20:58:00.528532 17858 layer_factory.hpp:77] Creating layer inception_4c/relu_5x5
I0509 20:58:00.528537 17858 net.cpp:84] Creating Layer inception_4c/relu_5x5
I0509 20:58:00.528542 17858 net.cpp:406] inception_4c/relu_5x5 <- inception_4c/5x5
I0509 20:58:00.528548 17858 net.cpp:367] inception_4c/relu_5x5 -> inception_4c/5x5 (in-place)
I0509 20:58:00.529125 17858 net.cpp:122] Setting up inception_4c/relu_5x5
I0509 20:58:00.529134 17858 net.cpp:129] Top shape: 50 64 14 14 (627200)
I0509 20:58:00.529137 17858 net.cpp:137] Memory required for data: 2189531204
I0509 20:58:00.529140 17858 layer_factory.hpp:77] Creating layer inception_4c/pool
I0509 20:58:00.529147 17858 net.cpp:84] Creating Layer inception_4c/pool
I0509 20:58:00.529150 17858 net.cpp:406] inception_4c/pool <- inception_4b/output_inception_4b/output_0_split_3
I0509 20:58:00.529157 17858 net.cpp:380] inception_4c/pool -> inception_4c/pool
I0509 20:58:00.529201 17858 net.cpp:122] Setting up inception_4c/pool
I0509 20:58:00.529206 17858 net.cpp:129] Top shape: 50 512 14 14 (5017600)
I0509 20:58:00.529209 17858 net.cpp:137] Memory required for data: 2209601604
I0509 20:58:00.529212 17858 layer_factory.hpp:77] Creating layer inception_4c/pool_proj
I0509 20:58:00.529220 17858 net.cpp:84] Creating Layer inception_4c/pool_proj
I0509 20:58:00.529223 17858 net.cpp:406] inception_4c/pool_proj <- inception_4c/pool
I0509 20:58:00.529230 17858 net.cpp:380] inception_4c/pool_proj -> inception_4c/pool_proj
I0509 20:58:00.532873 17858 net.cpp:122] Setting up inception_4c/pool_proj
I0509 20:58:00.532886 17858 net.cpp:129] Top shape: 50 64 14 14 (627200)
I0509 20:58:00.532907 17858 net.cpp:137] Memory required for data: 2212110404
I0509 20:58:00.532914 17858 layer_factory.hpp:77] Creating layer inception_4c/relu_pool_proj
I0509 20:58:00.532920 17858 net.cpp:84] Creating Layer inception_4c/relu_pool_proj
I0509 20:58:00.532923 17858 net.cpp:406] inception_4c/relu_pool_proj <- inception_4c/pool_proj
I0509 20:58:00.532930 17858 net.cpp:367] inception_4c/relu_pool_proj -> inception_4c/pool_proj (in-place)
I0509 20:58:00.533315 17858 net.cpp:122] Setting up inception_4c/relu_pool_proj
I0509 20:58:00.533324 17858 net.cpp:129] Top shape: 50 64 14 14 (627200)
I0509 20:58:00.533326 17858 net.cpp:137] Memory required for data: 2214619204
I0509 20:58:00.533330 17858 layer_factory.hpp:77] Creating layer inception_4c/output
I0509 20:58:00.533336 17858 net.cpp:84] Creating Layer inception_4c/output
I0509 20:58:00.533339 17858 net.cpp:406] inception_4c/output <- inception_4c/1x1
I0509 20:58:00.533351 17858 net.cpp:406] inception_4c/output <- inception_4c/3x3
I0509 20:58:00.533355 17858 net.cpp:406] inception_4c/output <- inception_4c/5x5
I0509 20:58:00.533360 17858 net.cpp:406] inception_4c/output <- inception_4c/pool_proj
I0509 20:58:00.533363 17858 net.cpp:380] inception_4c/output -> inception_4c/output
I0509 20:58:00.533392 17858 net.cpp:122] Setting up inception_4c/output
I0509 20:58:00.533397 17858 net.cpp:129] Top shape: 50 512 14 14 (5017600)
I0509 20:58:00.533401 17858 net.cpp:137] Memory required for data: 2234689604
I0509 20:58:00.533402 17858 layer_factory.hpp:77] Creating layer inception_4c/output_inception_4c/output_0_split
I0509 20:58:00.533409 17858 net.cpp:84] Creating Layer inception_4c/output_inception_4c/output_0_split
I0509 20:58:00.533412 17858 net.cpp:406] inception_4c/output_inception_4c/output_0_split <- inception_4c/output
I0509 20:58:00.533418 17858 net.cpp:380] inception_4c/output_inception_4c/output_0_split -> inception_4c/output_inception_4c/output_0_split_0
I0509 20:58:00.533424 17858 net.cpp:380] inception_4c/output_inception_4c/output_0_split -> inception_4c/output_inception_4c/output_0_split_1
I0509 20:58:00.533432 17858 net.cpp:380] inception_4c/output_inception_4c/output_0_split -> inception_4c/output_inception_4c/output_0_split_2
I0509 20:58:00.533437 17858 net.cpp:380] inception_4c/output_inception_4c/output_0_split -> inception_4c/output_inception_4c/output_0_split_3
I0509 20:58:00.533484 17858 net.cpp:122] Setting up inception_4c/output_inception_4c/output_0_split
I0509 20:58:00.533489 17858 net.cpp:129] Top shape: 50 512 14 14 (5017600)
I0509 20:58:00.533493 17858 net.cpp:129] Top shape: 50 512 14 14 (5017600)
I0509 20:58:00.533496 17858 net.cpp:129] Top shape: 50 512 14 14 (5017600)
I0509 20:58:00.533499 17858 net.cpp:129] Top shape: 50 512 14 14 (5017600)
I0509 20:58:00.533501 17858 net.cpp:137] Memory required for data: 2314971204
I0509 20:58:00.533504 17858 layer_factory.hpp:77] Creating layer inception_4d/1x1
I0509 20:58:00.533514 17858 net.cpp:84] Creating Layer inception_4d/1x1
I0509 20:58:00.533516 17858 net.cpp:406] inception_4d/1x1 <- inception_4c/output_inception_4c/output_0_split_0
I0509 20:58:00.533524 17858 net.cpp:380] inception_4d/1x1 -> inception_4d/1x1
I0509 20:58:00.536067 17858 net.cpp:122] Setting up inception_4d/1x1
I0509 20:58:00.536077 17858 net.cpp:129] Top shape: 50 112 14 14 (1097600)
I0509 20:58:00.536080 17858 net.cpp:137] Memory required for data: 2319361604
I0509 20:58:00.536087 17858 layer_factory.hpp:77] Creating layer inception_4d/relu_1x1
I0509 20:58:00.536094 17858 net.cpp:84] Creating Layer inception_4d/relu_1x1
I0509 20:58:00.536098 17858 net.cpp:406] inception_4d/relu_1x1 <- inception_4d/1x1
I0509 20:58:00.536103 17858 net.cpp:367] inception_4d/relu_1x1 -> inception_4d/1x1 (in-place)
I0509 20:58:00.536682 17858 net.cpp:122] Setting up inception_4d/relu_1x1
I0509 20:58:00.536692 17858 net.cpp:129] Top shape: 50 112 14 14 (1097600)
I0509 20:58:00.536695 17858 net.cpp:137] Memory required for data: 2323752004
I0509 20:58:00.536698 17858 layer_factory.hpp:77] Creating layer inception_4d/3x3_reduce
I0509 20:58:00.536721 17858 net.cpp:84] Creating Layer inception_4d/3x3_reduce
I0509 20:58:00.536725 17858 net.cpp:406] inception_4d/3x3_reduce <- inception_4c/output_inception_4c/output_0_split_1
I0509 20:58:00.536733 17858 net.cpp:380] inception_4d/3x3_reduce -> inception_4d/3x3_reduce
I0509 20:58:00.539294 17858 net.cpp:122] Setting up inception_4d/3x3_reduce
I0509 20:58:00.539304 17858 net.cpp:129] Top shape: 50 144 14 14 (1411200)
I0509 20:58:00.539306 17858 net.cpp:137] Memory required for data: 2329396804
I0509 20:58:00.539312 17858 layer_factory.hpp:77] Creating layer inception_4d/relu_3x3_reduce
I0509 20:58:00.539317 17858 net.cpp:84] Creating Layer inception_4d/relu_3x3_reduce
I0509 20:58:00.539321 17858 net.cpp:406] inception_4d/relu_3x3_reduce <- inception_4d/3x3_reduce
I0509 20:58:00.539327 17858 net.cpp:367] inception_4d/relu_3x3_reduce -> inception_4d/3x3_reduce (in-place)
I0509 20:58:00.539894 17858 net.cpp:122] Setting up inception_4d/relu_3x3_reduce
I0509 20:58:00.539906 17858 net.cpp:129] Top shape: 50 144 14 14 (1411200)
I0509 20:58:00.539908 17858 net.cpp:137] Memory required for data: 2335041604
I0509 20:58:00.539911 17858 layer_factory.hpp:77] Creating layer inception_4d/3x3
I0509 20:58:00.539923 17858 net.cpp:84] Creating Layer inception_4d/3x3
I0509 20:58:00.539927 17858 net.cpp:406] inception_4d/3x3 <- inception_4d/3x3_reduce
I0509 20:58:00.539934 17858 net.cpp:380] inception_4d/3x3 -> inception_4d/3x3
I0509 20:58:00.546372 17858 net.cpp:122] Setting up inception_4d/3x3
I0509 20:58:00.546388 17858 net.cpp:129] Top shape: 50 288 14 14 (2822400)
I0509 20:58:00.546391 17858 net.cpp:137] Memory required for data: 2346331204
I0509 20:58:00.546398 17858 layer_factory.hpp:77] Creating layer inception_4d/relu_3x3
I0509 20:58:00.546406 17858 net.cpp:84] Creating Layer inception_4d/relu_3x3
I0509 20:58:00.546411 17858 net.cpp:406] inception_4d/relu_3x3 <- inception_4d/3x3
I0509 20:58:00.546417 17858 net.cpp:367] inception_4d/relu_3x3 -> inception_4d/3x3 (in-place)
I0509 20:58:00.546967 17858 net.cpp:122] Setting up inception_4d/relu_3x3
I0509 20:58:00.546977 17858 net.cpp:129] Top shape: 50 288 14 14 (2822400)
I0509 20:58:00.546981 17858 net.cpp:137] Memory required for data: 2357620804
I0509 20:58:00.546984 17858 layer_factory.hpp:77] Creating layer inception_4d/5x5_reduce
I0509 20:58:00.546995 17858 net.cpp:84] Creating Layer inception_4d/5x5_reduce
I0509 20:58:00.546999 17858 net.cpp:406] inception_4d/5x5_reduce <- inception_4c/output_inception_4c/output_0_split_2
I0509 20:58:00.547005 17858 net.cpp:380] inception_4d/5x5_reduce -> inception_4d/5x5_reduce
I0509 20:58:00.549105 17858 net.cpp:122] Setting up inception_4d/5x5_reduce
I0509 20:58:00.549115 17858 net.cpp:129] Top shape: 50 32 14 14 (313600)
I0509 20:58:00.549118 17858 net.cpp:137] Memory required for data: 2358875204
I0509 20:58:00.549124 17858 layer_factory.hpp:77] Creating layer inception_4d/relu_5x5_reduce
I0509 20:58:00.549130 17858 net.cpp:84] Creating Layer inception_4d/relu_5x5_reduce
I0509 20:58:00.549134 17858 net.cpp:406] inception_4d/relu_5x5_reduce <- inception_4d/5x5_reduce
I0509 20:58:00.549141 17858 net.cpp:367] inception_4d/relu_5x5_reduce -> inception_4d/5x5_reduce (in-place)
I0509 20:58:00.549873 17858 net.cpp:122] Setting up inception_4d/relu_5x5_reduce
I0509 20:58:00.549885 17858 net.cpp:129] Top shape: 50 32 14 14 (313600)
I0509 20:58:00.549887 17858 net.cpp:137] Memory required for data: 2360129604
I0509 20:58:00.549890 17858 layer_factory.hpp:77] Creating layer inception_4d/5x5
I0509 20:58:00.549901 17858 net.cpp:84] Creating Layer inception_4d/5x5
I0509 20:58:00.549904 17858 net.cpp:406] inception_4d/5x5 <- inception_4d/5x5_reduce
I0509 20:58:00.549909 17858 net.cpp:380] inception_4d/5x5 -> inception_4d/5x5
I0509 20:58:00.552162 17858 net.cpp:122] Setting up inception_4d/5x5
I0509 20:58:00.552171 17858 net.cpp:129] Top shape: 50 64 14 14 (627200)
I0509 20:58:00.552175 17858 net.cpp:137] Memory required for data: 2362638404
I0509 20:58:00.552181 17858 layer_factory.hpp:77] Creating layer inception_4d/relu_5x5
I0509 20:58:00.552206 17858 net.cpp:84] Creating Layer inception_4d/relu_5x5
I0509 20:58:00.552211 17858 net.cpp:406] inception_4d/relu_5x5 <- inception_4d/5x5
I0509 20:58:00.552217 17858 net.cpp:367] inception_4d/relu_5x5 -> inception_4d/5x5 (in-place)
I0509 20:58:00.554426 17858 net.cpp:122] Setting up inception_4d/relu_5x5
I0509 20:58:00.554437 17858 net.cpp:129] Top shape: 50 64 14 14 (627200)
I0509 20:58:00.554440 17858 net.cpp:137] Memory required for data: 2365147204
I0509 20:58:00.554443 17858 layer_factory.hpp:77] Creating layer inception_4d/pool
I0509 20:58:00.554452 17858 net.cpp:84] Creating Layer inception_4d/pool
I0509 20:58:00.554456 17858 net.cpp:406] inception_4d/pool <- inception_4c/output_inception_4c/output_0_split_3
I0509 20:58:00.554462 17858 net.cpp:380] inception_4d/pool -> inception_4d/pool
I0509 20:58:00.554503 17858 net.cpp:122] Setting up inception_4d/pool
I0509 20:58:00.554509 17858 net.cpp:129] Top shape: 50 512 14 14 (5017600)
I0509 20:58:00.554512 17858 net.cpp:137] Memory required for data: 2385217604
I0509 20:58:00.554514 17858 layer_factory.hpp:77] Creating layer inception_4d/pool_proj
I0509 20:58:00.554523 17858 net.cpp:84] Creating Layer inception_4d/pool_proj
I0509 20:58:00.554527 17858 net.cpp:406] inception_4d/pool_proj <- inception_4d/pool
I0509 20:58:00.554533 17858 net.cpp:380] inception_4d/pool_proj -> inception_4d/pool_proj
I0509 20:58:00.556869 17858 net.cpp:122] Setting up inception_4d/pool_proj
I0509 20:58:00.556880 17858 net.cpp:129] Top shape: 50 64 14 14 (627200)
I0509 20:58:00.556883 17858 net.cpp:137] Memory required for data: 2387726404
I0509 20:58:00.556888 17858 layer_factory.hpp:77] Creating layer inception_4d/relu_pool_proj
I0509 20:58:00.556895 17858 net.cpp:84] Creating Layer inception_4d/relu_pool_proj
I0509 20:58:00.556898 17858 net.cpp:406] inception_4d/relu_pool_proj <- inception_4d/pool_proj
I0509 20:58:00.556905 17858 net.cpp:367] inception_4d/relu_pool_proj -> inception_4d/pool_proj (in-place)
I0509 20:58:00.557284 17858 net.cpp:122] Setting up inception_4d/relu_pool_proj
I0509 20:58:00.557292 17858 net.cpp:129] Top shape: 50 64 14 14 (627200)
I0509 20:58:00.557296 17858 net.cpp:137] Memory required for data: 2390235204
I0509 20:58:00.557298 17858 layer_factory.hpp:77] Creating layer inception_4d/output
I0509 20:58:00.557305 17858 net.cpp:84] Creating Layer inception_4d/output
I0509 20:58:00.557309 17858 net.cpp:406] inception_4d/output <- inception_4d/1x1
I0509 20:58:00.557313 17858 net.cpp:406] inception_4d/output <- inception_4d/3x3
I0509 20:58:00.557317 17858 net.cpp:406] inception_4d/output <- inception_4d/5x5
I0509 20:58:00.557320 17858 net.cpp:406] inception_4d/output <- inception_4d/pool_proj
I0509 20:58:00.557324 17858 net.cpp:380] inception_4d/output -> inception_4d/output
I0509 20:58:00.557351 17858 net.cpp:122] Setting up inception_4d/output
I0509 20:58:00.557356 17858 net.cpp:129] Top shape: 50 528 14 14 (5174400)
I0509 20:58:00.557359 17858 net.cpp:137] Memory required for data: 2410932804
I0509 20:58:00.557361 17858 layer_factory.hpp:77] Creating layer inception_4d/output_inception_4d/output_0_split
I0509 20:58:00.557368 17858 net.cpp:84] Creating Layer inception_4d/output_inception_4d/output_0_split
I0509 20:58:00.557371 17858 net.cpp:406] inception_4d/output_inception_4d/output_0_split <- inception_4d/output
I0509 20:58:00.557376 17858 net.cpp:380] inception_4d/output_inception_4d/output_0_split -> inception_4d/output_inception_4d/output_0_split_0
I0509 20:58:00.557386 17858 net.cpp:380] inception_4d/output_inception_4d/output_0_split -> inception_4d/output_inception_4d/output_0_split_1
I0509 20:58:00.557392 17858 net.cpp:380] inception_4d/output_inception_4d/output_0_split -> inception_4d/output_inception_4d/output_0_split_2
I0509 20:58:00.557397 17858 net.cpp:380] inception_4d/output_inception_4d/output_0_split -> inception_4d/output_inception_4d/output_0_split_3
I0509 20:58:00.557402 17858 net.cpp:380] inception_4d/output_inception_4d/output_0_split -> inception_4d/output_inception_4d/output_0_split_4
I0509 20:58:00.557457 17858 net.cpp:122] Setting up inception_4d/output_inception_4d/output_0_split
I0509 20:58:00.557476 17858 net.cpp:129] Top shape: 50 528 14 14 (5174400)
I0509 20:58:00.557479 17858 net.cpp:129] Top shape: 50 528 14 14 (5174400)
I0509 20:58:00.557483 17858 net.cpp:129] Top shape: 50 528 14 14 (5174400)
I0509 20:58:00.557487 17858 net.cpp:129] Top shape: 50 528 14 14 (5174400)
I0509 20:58:00.557489 17858 net.cpp:129] Top shape: 50 528 14 14 (5174400)
I0509 20:58:00.557492 17858 net.cpp:137] Memory required for data: 2514420804
I0509 20:58:00.557494 17858 layer_factory.hpp:77] Creating layer loss2/ave_pool
I0509 20:58:00.557499 17858 net.cpp:84] Creating Layer loss2/ave_pool
I0509 20:58:00.557502 17858 net.cpp:406] loss2/ave_pool <- inception_4d/output_inception_4d/output_0_split_0
I0509 20:58:00.557507 17858 net.cpp:380] loss2/ave_pool -> loss2/ave_pool
I0509 20:58:00.558086 17858 net.cpp:122] Setting up loss2/ave_pool
I0509 20:58:00.558095 17858 net.cpp:129] Top shape: 50 528 4 4 (422400)
I0509 20:58:00.558099 17858 net.cpp:137] Memory required for data: 2516110404
I0509 20:58:00.558101 17858 layer_factory.hpp:77] Creating layer loss2/conv
I0509 20:58:00.558110 17858 net.cpp:84] Creating Layer loss2/conv
I0509 20:58:00.558115 17858 net.cpp:406] loss2/conv <- loss2/ave_pool
I0509 20:58:00.558120 17858 net.cpp:380] loss2/conv -> loss2/conv
I0509 20:58:00.560796 17858 net.cpp:122] Setting up loss2/conv
I0509 20:58:00.560806 17858 net.cpp:129] Top shape: 50 128 4 4 (102400)
I0509 20:58:00.560808 17858 net.cpp:137] Memory required for data: 2516520004
I0509 20:58:00.560814 17858 layer_factory.hpp:77] Creating layer loss2/relu_conv
I0509 20:58:00.560819 17858 net.cpp:84] Creating Layer loss2/relu_conv
I0509 20:58:00.560823 17858 net.cpp:406] loss2/relu_conv <- loss2/conv
I0509 20:58:00.560828 17858 net.cpp:367] loss2/relu_conv -> loss2/conv (in-place)
I0509 20:58:00.561218 17858 net.cpp:122] Setting up loss2/relu_conv
I0509 20:58:00.561225 17858 net.cpp:129] Top shape: 50 128 4 4 (102400)
I0509 20:58:00.561228 17858 net.cpp:137] Memory required for data: 2516929604
I0509 20:58:00.561231 17858 layer_factory.hpp:77] Creating layer loss2/fc
I0509 20:58:00.561239 17858 net.cpp:84] Creating Layer loss2/fc
I0509 20:58:00.561244 17858 net.cpp:406] loss2/fc <- loss2/conv
I0509 20:58:00.561249 17858 net.cpp:380] loss2/fc -> loss2/fc
I0509 20:58:00.573319 17858 net.cpp:122] Setting up loss2/fc
I0509 20:58:00.573333 17858 net.cpp:129] Top shape: 50 1024 (51200)
I0509 20:58:00.573336 17858 net.cpp:137] Memory required for data: 2517134404
I0509 20:58:00.573343 17858 layer_factory.hpp:77] Creating layer loss2/relu_fc
I0509 20:58:00.573352 17858 net.cpp:84] Creating Layer loss2/relu_fc
I0509 20:58:00.573357 17858 net.cpp:406] loss2/relu_fc <- loss2/fc
I0509 20:58:00.573361 17858 net.cpp:367] loss2/relu_fc -> loss2/fc (in-place)
I0509 20:58:00.575414 17858 net.cpp:122] Setting up loss2/relu_fc
I0509 20:58:00.575424 17858 net.cpp:129] Top shape: 50 1024 (51200)
I0509 20:58:00.575428 17858 net.cpp:137] Memory required for data: 2517339204
I0509 20:58:00.575430 17858 layer_factory.hpp:77] Creating layer loss2/drop_fc
I0509 20:58:00.575436 17858 net.cpp:84] Creating Layer loss2/drop_fc
I0509 20:58:00.575439 17858 net.cpp:406] loss2/drop_fc <- loss2/fc
I0509 20:58:00.575446 17858 net.cpp:367] loss2/drop_fc -> loss2/fc (in-place)
I0509 20:58:00.575474 17858 net.cpp:122] Setting up loss2/drop_fc
I0509 20:58:00.575479 17858 net.cpp:129] Top shape: 50 1024 (51200)
I0509 20:58:00.575480 17858 net.cpp:137] Memory required for data: 2517544004
I0509 20:58:00.575484 17858 layer_factory.hpp:77] Creating layer loss2/classifier
I0509 20:58:00.575490 17858 net.cpp:84] Creating Layer loss2/classifier
I0509 20:58:00.575493 17858 net.cpp:406] loss2/classifier <- loss2/fc
I0509 20:58:00.575500 17858 net.cpp:380] loss2/classifier -> loss2/classifier
I0509 20:58:00.577234 17858 net.cpp:122] Setting up loss2/classifier
I0509 20:58:00.577242 17858 net.cpp:129] Top shape: 50 196 (9800)
I0509 20:58:00.577245 17858 net.cpp:137] Memory required for data: 2517583204
I0509 20:58:00.577267 17858 layer_factory.hpp:77] Creating layer loss2/loss
I0509 20:58:00.577275 17858 net.cpp:84] Creating Layer loss2/loss
I0509 20:58:00.577280 17858 net.cpp:406] loss2/loss <- loss2/classifier
I0509 20:58:00.577283 17858 net.cpp:406] loss2/loss <- label_train-data_1_split_1
I0509 20:58:00.577288 17858 net.cpp:380] loss2/loss -> loss2/loss
I0509 20:58:00.577296 17858 layer_factory.hpp:77] Creating layer loss2/loss
I0509 20:58:00.577944 17858 net.cpp:122] Setting up loss2/loss
I0509 20:58:00.577955 17858 net.cpp:129] Top shape: (1)
I0509 20:58:00.577957 17858 net.cpp:132]     with loss weight 0.3
I0509 20:58:00.577966 17858 net.cpp:137] Memory required for data: 2517583208
I0509 20:58:00.577970 17858 layer_factory.hpp:77] Creating layer inception_4e/1x1
I0509 20:58:00.577980 17858 net.cpp:84] Creating Layer inception_4e/1x1
I0509 20:58:00.577984 17858 net.cpp:406] inception_4e/1x1 <- inception_4d/output_inception_4d/output_0_split_1
I0509 20:58:00.577991 17858 net.cpp:380] inception_4e/1x1 -> inception_4e/1x1
I0509 20:58:00.580643 17858 net.cpp:122] Setting up inception_4e/1x1
I0509 20:58:00.580653 17858 net.cpp:129] Top shape: 50 256 14 14 (2508800)
I0509 20:58:00.580657 17858 net.cpp:137] Memory required for data: 2527618408
I0509 20:58:00.580662 17858 layer_factory.hpp:77] Creating layer inception_4e/relu_1x1
I0509 20:58:00.580670 17858 net.cpp:84] Creating Layer inception_4e/relu_1x1
I0509 20:58:00.580674 17858 net.cpp:406] inception_4e/relu_1x1 <- inception_4e/1x1
I0509 20:58:00.580679 17858 net.cpp:367] inception_4e/relu_1x1 -> inception_4e/1x1 (in-place)
I0509 20:58:00.581249 17858 net.cpp:122] Setting up inception_4e/relu_1x1
I0509 20:58:00.581259 17858 net.cpp:129] Top shape: 50 256 14 14 (2508800)
I0509 20:58:00.581262 17858 net.cpp:137] Memory required for data: 2537653608
I0509 20:58:00.581265 17858 layer_factory.hpp:77] Creating layer inception_4e/3x3_reduce
I0509 20:58:00.581274 17858 net.cpp:84] Creating Layer inception_4e/3x3_reduce
I0509 20:58:00.581279 17858 net.cpp:406] inception_4e/3x3_reduce <- inception_4d/output_inception_4d/output_0_split_2
I0509 20:58:00.581285 17858 net.cpp:380] inception_4e/3x3_reduce -> inception_4e/3x3_reduce
I0509 20:58:00.583711 17858 net.cpp:122] Setting up inception_4e/3x3_reduce
I0509 20:58:00.583721 17858 net.cpp:129] Top shape: 50 160 14 14 (1568000)
I0509 20:58:00.583724 17858 net.cpp:137] Memory required for data: 2543925608
I0509 20:58:00.583731 17858 layer_factory.hpp:77] Creating layer inception_4e/relu_3x3_reduce
I0509 20:58:00.583737 17858 net.cpp:84] Creating Layer inception_4e/relu_3x3_reduce
I0509 20:58:00.583741 17858 net.cpp:406] inception_4e/relu_3x3_reduce <- inception_4e/3x3_reduce
I0509 20:58:00.583747 17858 net.cpp:367] inception_4e/relu_3x3_reduce -> inception_4e/3x3_reduce (in-place)
I0509 20:58:00.584357 17858 net.cpp:122] Setting up inception_4e/relu_3x3_reduce
I0509 20:58:00.584367 17858 net.cpp:129] Top shape: 50 160 14 14 (1568000)
I0509 20:58:00.584370 17858 net.cpp:137] Memory required for data: 2550197608
I0509 20:58:00.584373 17858 layer_factory.hpp:77] Creating layer inception_4e/3x3
I0509 20:58:00.584383 17858 net.cpp:84] Creating Layer inception_4e/3x3
I0509 20:58:00.584386 17858 net.cpp:406] inception_4e/3x3 <- inception_4e/3x3_reduce
I0509 20:58:00.584394 17858 net.cpp:380] inception_4e/3x3 -> inception_4e/3x3
I0509 20:58:00.591223 17858 net.cpp:122] Setting up inception_4e/3x3
I0509 20:58:00.591238 17858 net.cpp:129] Top shape: 50 320 14 14 (3136000)
I0509 20:58:00.591243 17858 net.cpp:137] Memory required for data: 2562741608
I0509 20:58:00.591248 17858 layer_factory.hpp:77] Creating layer inception_4e/relu_3x3
I0509 20:58:00.591255 17858 net.cpp:84] Creating Layer inception_4e/relu_3x3
I0509 20:58:00.591260 17858 net.cpp:406] inception_4e/relu_3x3 <- inception_4e/3x3
I0509 20:58:00.591267 17858 net.cpp:367] inception_4e/relu_3x3 -> inception_4e/3x3 (in-place)
I0509 20:58:00.591655 17858 net.cpp:122] Setting up inception_4e/relu_3x3
I0509 20:58:00.591668 17858 net.cpp:129] Top shape: 50 320 14 14 (3136000)
I0509 20:58:00.591671 17858 net.cpp:137] Memory required for data: 2575285608
I0509 20:58:00.591691 17858 layer_factory.hpp:77] Creating layer inception_4e/5x5_reduce
I0509 20:58:00.591701 17858 net.cpp:84] Creating Layer inception_4e/5x5_reduce
I0509 20:58:00.591706 17858 net.cpp:406] inception_4e/5x5_reduce <- inception_4d/output_inception_4d/output_0_split_3
I0509 20:58:00.591715 17858 net.cpp:380] inception_4e/5x5_reduce -> inception_4e/5x5_reduce
I0509 20:58:00.594033 17858 net.cpp:122] Setting up inception_4e/5x5_reduce
I0509 20:58:00.594043 17858 net.cpp:129] Top shape: 50 32 14 14 (313600)
I0509 20:58:00.594046 17858 net.cpp:137] Memory required for data: 2576540008
I0509 20:58:00.594053 17858 layer_factory.hpp:77] Creating layer inception_4e/relu_5x5_reduce
I0509 20:58:00.594058 17858 net.cpp:84] Creating Layer inception_4e/relu_5x5_reduce
I0509 20:58:00.594063 17858 net.cpp:406] inception_4e/relu_5x5_reduce <- inception_4e/5x5_reduce
I0509 20:58:00.594067 17858 net.cpp:367] inception_4e/relu_5x5_reduce -> inception_4e/5x5_reduce (in-place)
I0509 20:58:00.594641 17858 net.cpp:122] Setting up inception_4e/relu_5x5_reduce
I0509 20:58:00.594651 17858 net.cpp:129] Top shape: 50 32 14 14 (313600)
I0509 20:58:00.594653 17858 net.cpp:137] Memory required for data: 2577794408
I0509 20:58:00.594657 17858 layer_factory.hpp:77] Creating layer inception_4e/5x5
I0509 20:58:00.594700 17858 net.cpp:84] Creating Layer inception_4e/5x5
I0509 20:58:00.594705 17858 net.cpp:406] inception_4e/5x5 <- inception_4e/5x5_reduce
I0509 20:58:00.594710 17858 net.cpp:380] inception_4e/5x5 -> inception_4e/5x5
I0509 20:58:00.598671 17858 net.cpp:122] Setting up inception_4e/5x5
I0509 20:58:00.598685 17858 net.cpp:129] Top shape: 50 128 14 14 (1254400)
I0509 20:58:00.598688 17858 net.cpp:137] Memory required for data: 2582812008
I0509 20:58:00.598696 17858 layer_factory.hpp:77] Creating layer inception_4e/relu_5x5
I0509 20:58:00.598702 17858 net.cpp:84] Creating Layer inception_4e/relu_5x5
I0509 20:58:00.598706 17858 net.cpp:406] inception_4e/relu_5x5 <- inception_4e/5x5
I0509 20:58:00.598713 17858 net.cpp:367] inception_4e/relu_5x5 -> inception_4e/5x5 (in-place)
I0509 20:58:00.599273 17858 net.cpp:122] Setting up inception_4e/relu_5x5
I0509 20:58:00.599283 17858 net.cpp:129] Top shape: 50 128 14 14 (1254400)
I0509 20:58:00.599287 17858 net.cpp:137] Memory required for data: 2587829608
I0509 20:58:00.599289 17858 layer_factory.hpp:77] Creating layer inception_4e/pool
I0509 20:58:00.599298 17858 net.cpp:84] Creating Layer inception_4e/pool
I0509 20:58:00.599300 17858 net.cpp:406] inception_4e/pool <- inception_4d/output_inception_4d/output_0_split_4
I0509 20:58:00.599306 17858 net.cpp:380] inception_4e/pool -> inception_4e/pool
I0509 20:58:00.599349 17858 net.cpp:122] Setting up inception_4e/pool
I0509 20:58:00.599354 17858 net.cpp:129] Top shape: 50 528 14 14 (5174400)
I0509 20:58:00.599356 17858 net.cpp:137] Memory required for data: 2608527208
I0509 20:58:00.599359 17858 layer_factory.hpp:77] Creating layer inception_4e/pool_proj
I0509 20:58:00.599370 17858 net.cpp:84] Creating Layer inception_4e/pool_proj
I0509 20:58:00.599373 17858 net.cpp:406] inception_4e/pool_proj <- inception_4e/pool
I0509 20:58:00.599380 17858 net.cpp:380] inception_4e/pool_proj -> inception_4e/pool_proj
I0509 20:58:00.602627 17858 net.cpp:122] Setting up inception_4e/pool_proj
I0509 20:58:00.602638 17858 net.cpp:129] Top shape: 50 128 14 14 (1254400)
I0509 20:58:00.602641 17858 net.cpp:137] Memory required for data: 2613544808
I0509 20:58:00.602648 17858 layer_factory.hpp:77] Creating layer inception_4e/relu_pool_proj
I0509 20:58:00.602653 17858 net.cpp:84] Creating Layer inception_4e/relu_pool_proj
I0509 20:58:00.602658 17858 net.cpp:406] inception_4e/relu_pool_proj <- inception_4e/pool_proj
I0509 20:58:00.602661 17858 net.cpp:367] inception_4e/relu_pool_proj -> inception_4e/pool_proj (in-place)
I0509 20:58:00.603240 17858 net.cpp:122] Setting up inception_4e/relu_pool_proj
I0509 20:58:00.603250 17858 net.cpp:129] Top shape: 50 128 14 14 (1254400)
I0509 20:58:00.603251 17858 net.cpp:137] Memory required for data: 2618562408
I0509 20:58:00.603273 17858 layer_factory.hpp:77] Creating layer inception_4e/output
I0509 20:58:00.603283 17858 net.cpp:84] Creating Layer inception_4e/output
I0509 20:58:00.603287 17858 net.cpp:406] inception_4e/output <- inception_4e/1x1
I0509 20:58:00.603291 17858 net.cpp:406] inception_4e/output <- inception_4e/3x3
I0509 20:58:00.603296 17858 net.cpp:406] inception_4e/output <- inception_4e/5x5
I0509 20:58:00.603298 17858 net.cpp:406] inception_4e/output <- inception_4e/pool_proj
I0509 20:58:00.603303 17858 net.cpp:380] inception_4e/output -> inception_4e/output
I0509 20:58:00.603332 17858 net.cpp:122] Setting up inception_4e/output
I0509 20:58:00.603338 17858 net.cpp:129] Top shape: 50 832 14 14 (8153600)
I0509 20:58:00.603340 17858 net.cpp:137] Memory required for data: 2651176808
I0509 20:58:00.603343 17858 layer_factory.hpp:77] Creating layer pool4/3x3_s2
I0509 20:58:00.603348 17858 net.cpp:84] Creating Layer pool4/3x3_s2
I0509 20:58:00.603351 17858 net.cpp:406] pool4/3x3_s2 <- inception_4e/output
I0509 20:58:00.603358 17858 net.cpp:380] pool4/3x3_s2 -> pool4/3x3_s2
I0509 20:58:00.603389 17858 net.cpp:122] Setting up pool4/3x3_s2
I0509 20:58:00.603394 17858 net.cpp:129] Top shape: 50 832 7 7 (2038400)
I0509 20:58:00.603397 17858 net.cpp:137] Memory required for data: 2659330408
I0509 20:58:00.603399 17858 layer_factory.hpp:77] Creating layer pool4/3x3_s2_pool4/3x3_s2_0_split
I0509 20:58:00.603406 17858 net.cpp:84] Creating Layer pool4/3x3_s2_pool4/3x3_s2_0_split
I0509 20:58:00.603410 17858 net.cpp:406] pool4/3x3_s2_pool4/3x3_s2_0_split <- pool4/3x3_s2
I0509 20:58:00.603415 17858 net.cpp:380] pool4/3x3_s2_pool4/3x3_s2_0_split -> pool4/3x3_s2_pool4/3x3_s2_0_split_0
I0509 20:58:00.603420 17858 net.cpp:380] pool4/3x3_s2_pool4/3x3_s2_0_split -> pool4/3x3_s2_pool4/3x3_s2_0_split_1
I0509 20:58:00.603425 17858 net.cpp:380] pool4/3x3_s2_pool4/3x3_s2_0_split -> pool4/3x3_s2_pool4/3x3_s2_0_split_2
I0509 20:58:00.603430 17858 net.cpp:380] pool4/3x3_s2_pool4/3x3_s2_0_split -> pool4/3x3_s2_pool4/3x3_s2_0_split_3
I0509 20:58:00.603475 17858 net.cpp:122] Setting up pool4/3x3_s2_pool4/3x3_s2_0_split
I0509 20:58:00.603483 17858 net.cpp:129] Top shape: 50 832 7 7 (2038400)
I0509 20:58:00.603487 17858 net.cpp:129] Top shape: 50 832 7 7 (2038400)
I0509 20:58:00.603490 17858 net.cpp:129] Top shape: 50 832 7 7 (2038400)
I0509 20:58:00.603493 17858 net.cpp:129] Top shape: 50 832 7 7 (2038400)
I0509 20:58:00.603495 17858 net.cpp:137] Memory required for data: 2691944808
I0509 20:58:00.603498 17858 layer_factory.hpp:77] Creating layer inception_5a/1x1
I0509 20:58:00.603507 17858 net.cpp:84] Creating Layer inception_5a/1x1
I0509 20:58:00.603510 17858 net.cpp:406] inception_5a/1x1 <- pool4/3x3_s2_pool4/3x3_s2_0_split_0
I0509 20:58:00.603515 17858 net.cpp:380] inception_5a/1x1 -> inception_5a/1x1
I0509 20:58:00.606518 17858 net.cpp:122] Setting up inception_5a/1x1
I0509 20:58:00.606528 17858 net.cpp:129] Top shape: 50 256 7 7 (627200)
I0509 20:58:00.606531 17858 net.cpp:137] Memory required for data: 2694453608
I0509 20:58:00.606537 17858 layer_factory.hpp:77] Creating layer inception_5a/relu_1x1
I0509 20:58:00.606542 17858 net.cpp:84] Creating Layer inception_5a/relu_1x1
I0509 20:58:00.606546 17858 net.cpp:406] inception_5a/relu_1x1 <- inception_5a/1x1
I0509 20:58:00.606554 17858 net.cpp:367] inception_5a/relu_1x1 -> inception_5a/1x1 (in-place)
I0509 20:58:00.607123 17858 net.cpp:122] Setting up inception_5a/relu_1x1
I0509 20:58:00.607132 17858 net.cpp:129] Top shape: 50 256 7 7 (627200)
I0509 20:58:00.607136 17858 net.cpp:137] Memory required for data: 2696962408
I0509 20:58:00.607138 17858 layer_factory.hpp:77] Creating layer inception_5a/3x3_reduce
I0509 20:58:00.607151 17858 net.cpp:84] Creating Layer inception_5a/3x3_reduce
I0509 20:58:00.607154 17858 net.cpp:406] inception_5a/3x3_reduce <- pool4/3x3_s2_pool4/3x3_s2_0_split_1
I0509 20:58:00.607161 17858 net.cpp:380] inception_5a/3x3_reduce -> inception_5a/3x3_reduce
I0509 20:58:00.611451 17858 net.cpp:122] Setting up inception_5a/3x3_reduce
I0509 20:58:00.611479 17858 net.cpp:129] Top shape: 50 160 7 7 (392000)
I0509 20:58:00.611482 17858 net.cpp:137] Memory required for data: 2698530408
I0509 20:58:00.611488 17858 layer_factory.hpp:77] Creating layer inception_5a/relu_3x3_reduce
I0509 20:58:00.611495 17858 net.cpp:84] Creating Layer inception_5a/relu_3x3_reduce
I0509 20:58:00.611500 17858 net.cpp:406] inception_5a/relu_3x3_reduce <- inception_5a/3x3_reduce
I0509 20:58:00.611507 17858 net.cpp:367] inception_5a/relu_3x3_reduce -> inception_5a/3x3_reduce (in-place)
I0509 20:58:00.611896 17858 net.cpp:122] Setting up inception_5a/relu_3x3_reduce
I0509 20:58:00.611904 17858 net.cpp:129] Top shape: 50 160 7 7 (392000)
I0509 20:58:00.611909 17858 net.cpp:137] Memory required for data: 2700098408
I0509 20:58:00.611912 17858 layer_factory.hpp:77] Creating layer inception_5a/3x3
I0509 20:58:00.611922 17858 net.cpp:84] Creating Layer inception_5a/3x3
I0509 20:58:00.611927 17858 net.cpp:406] inception_5a/3x3 <- inception_5a/3x3_reduce
I0509 20:58:00.611932 17858 net.cpp:380] inception_5a/3x3 -> inception_5a/3x3
I0509 20:58:00.617336 17858 net.cpp:122] Setting up inception_5a/3x3
I0509 20:58:00.617347 17858 net.cpp:129] Top shape: 50 320 7 7 (784000)
I0509 20:58:00.617349 17858 net.cpp:137] Memory required for data: 2703234408
I0509 20:58:00.617355 17858 layer_factory.hpp:77] Creating layer inception_5a/relu_3x3
I0509 20:58:00.617362 17858 net.cpp:84] Creating Layer inception_5a/relu_3x3
I0509 20:58:00.617367 17858 net.cpp:406] inception_5a/relu_3x3 <- inception_5a/3x3
I0509 20:58:00.617372 17858 net.cpp:367] inception_5a/relu_3x3 -> inception_5a/3x3 (in-place)
I0509 20:58:00.617935 17858 net.cpp:122] Setting up inception_5a/relu_3x3
I0509 20:58:00.617944 17858 net.cpp:129] Top shape: 50 320 7 7 (784000)
I0509 20:58:00.617947 17858 net.cpp:137] Memory required for data: 2706370408
I0509 20:58:00.617950 17858 layer_factory.hpp:77] Creating layer inception_5a/5x5_reduce
I0509 20:58:00.617960 17858 net.cpp:84] Creating Layer inception_5a/5x5_reduce
I0509 20:58:00.617964 17858 net.cpp:406] inception_5a/5x5_reduce <- pool4/3x3_s2_pool4/3x3_s2_0_split_2
I0509 20:58:00.617972 17858 net.cpp:380] inception_5a/5x5_reduce -> inception_5a/5x5_reduce
I0509 20:58:00.621604 17858 net.cpp:122] Setting up inception_5a/5x5_reduce
I0509 20:58:00.621615 17858 net.cpp:129] Top shape: 50 32 7 7 (78400)
I0509 20:58:00.621618 17858 net.cpp:137] Memory required for data: 2706684008
I0509 20:58:00.621624 17858 layer_factory.hpp:77] Creating layer inception_5a/relu_5x5_reduce
I0509 20:58:00.621630 17858 net.cpp:84] Creating Layer inception_5a/relu_5x5_reduce
I0509 20:58:00.621634 17858 net.cpp:406] inception_5a/relu_5x5_reduce <- inception_5a/5x5_reduce
I0509 20:58:00.621641 17858 net.cpp:367] inception_5a/relu_5x5_reduce -> inception_5a/5x5_reduce (in-place)
I0509 20:58:00.622234 17858 net.cpp:122] Setting up inception_5a/relu_5x5_reduce
I0509 20:58:00.622243 17858 net.cpp:129] Top shape: 50 32 7 7 (78400)
I0509 20:58:00.622246 17858 net.cpp:137] Memory required for data: 2706997608
I0509 20:58:00.622249 17858 layer_factory.hpp:77] Creating layer inception_5a/5x5
I0509 20:58:00.622258 17858 net.cpp:84] Creating Layer inception_5a/5x5
I0509 20:58:00.622262 17858 net.cpp:406] inception_5a/5x5 <- inception_5a/5x5_reduce
I0509 20:58:00.622269 17858 net.cpp:380] inception_5a/5x5 -> inception_5a/5x5
I0509 20:58:00.624763 17858 net.cpp:122] Setting up inception_5a/5x5
I0509 20:58:00.624773 17858 net.cpp:129] Top shape: 50 128 7 7 (313600)
I0509 20:58:00.624776 17858 net.cpp:137] Memory required for data: 2708252008
I0509 20:58:00.624783 17858 layer_factory.hpp:77] Creating layer inception_5a/relu_5x5
I0509 20:58:00.624789 17858 net.cpp:84] Creating Layer inception_5a/relu_5x5
I0509 20:58:00.624794 17858 net.cpp:406] inception_5a/relu_5x5 <- inception_5a/5x5
I0509 20:58:00.624799 17858 net.cpp:367] inception_5a/relu_5x5 -> inception_5a/5x5 (in-place)
I0509 20:58:00.625365 17858 net.cpp:122] Setting up inception_5a/relu_5x5
I0509 20:58:00.625373 17858 net.cpp:129] Top shape: 50 128 7 7 (313600)
I0509 20:58:00.625394 17858 net.cpp:137] Memory required for data: 2709506408
I0509 20:58:00.625398 17858 layer_factory.hpp:77] Creating layer inception_5a/pool
I0509 20:58:00.625404 17858 net.cpp:84] Creating Layer inception_5a/pool
I0509 20:58:00.625408 17858 net.cpp:406] inception_5a/pool <- pool4/3x3_s2_pool4/3x3_s2_0_split_3
I0509 20:58:00.625416 17858 net.cpp:380] inception_5a/pool -> inception_5a/pool
I0509 20:58:00.625460 17858 net.cpp:122] Setting up inception_5a/pool
I0509 20:58:00.625465 17858 net.cpp:129] Top shape: 50 832 7 7 (2038400)
I0509 20:58:00.625468 17858 net.cpp:137] Memory required for data: 2717660008
I0509 20:58:00.625470 17858 layer_factory.hpp:77] Creating layer inception_5a/pool_proj
I0509 20:58:00.625480 17858 net.cpp:84] Creating Layer inception_5a/pool_proj
I0509 20:58:00.625484 17858 net.cpp:406] inception_5a/pool_proj <- inception_5a/pool
I0509 20:58:00.625489 17858 net.cpp:380] inception_5a/pool_proj -> inception_5a/pool_proj
I0509 20:58:00.630492 17858 net.cpp:122] Setting up inception_5a/pool_proj
I0509 20:58:00.630506 17858 net.cpp:129] Top shape: 50 128 7 7 (313600)
I0509 20:58:00.630511 17858 net.cpp:137] Memory required for data: 2718914408
I0509 20:58:00.630519 17858 layer_factory.hpp:77] Creating layer inception_5a/relu_pool_proj
I0509 20:58:00.630528 17858 net.cpp:84] Creating Layer inception_5a/relu_pool_proj
I0509 20:58:00.630534 17858 net.cpp:406] inception_5a/relu_pool_proj <- inception_5a/pool_proj
I0509 20:58:00.630542 17858 net.cpp:367] inception_5a/relu_pool_proj -> inception_5a/pool_proj (in-place)
I0509 20:58:00.631394 17858 net.cpp:122] Setting up inception_5a/relu_pool_proj
I0509 20:58:00.631407 17858 net.cpp:129] Top shape: 50 128 7 7 (313600)
I0509 20:58:00.631412 17858 net.cpp:137] Memory required for data: 2720168808
I0509 20:58:00.631417 17858 layer_factory.hpp:77] Creating layer inception_5a/output
I0509 20:58:00.631428 17858 net.cpp:84] Creating Layer inception_5a/output
I0509 20:58:00.631434 17858 net.cpp:406] inception_5a/output <- inception_5a/1x1
I0509 20:58:00.631443 17858 net.cpp:406] inception_5a/output <- inception_5a/3x3
I0509 20:58:00.631448 17858 net.cpp:406] inception_5a/output <- inception_5a/5x5
I0509 20:58:00.631453 17858 net.cpp:406] inception_5a/output <- inception_5a/pool_proj
I0509 20:58:00.631462 17858 net.cpp:380] inception_5a/output -> inception_5a/output
I0509 20:58:00.631502 17858 net.cpp:122] Setting up inception_5a/output
I0509 20:58:00.631511 17858 net.cpp:129] Top shape: 50 832 7 7 (2038400)
I0509 20:58:00.631515 17858 net.cpp:137] Memory required for data: 2728322408
I0509 20:58:00.631520 17858 layer_factory.hpp:77] Creating layer inception_5a/output_inception_5a/output_0_split
I0509 20:58:00.631531 17858 net.cpp:84] Creating Layer inception_5a/output_inception_5a/output_0_split
I0509 20:58:00.631537 17858 net.cpp:406] inception_5a/output_inception_5a/output_0_split <- inception_5a/output
I0509 20:58:00.631544 17858 net.cpp:380] inception_5a/output_inception_5a/output_0_split -> inception_5a/output_inception_5a/output_0_split_0
I0509 20:58:00.631558 17858 net.cpp:380] inception_5a/output_inception_5a/output_0_split -> inception_5a/output_inception_5a/output_0_split_1
I0509 20:58:00.631568 17858 net.cpp:380] inception_5a/output_inception_5a/output_0_split -> inception_5a/output_inception_5a/output_0_split_2
I0509 20:58:00.631577 17858 net.cpp:380] inception_5a/output_inception_5a/output_0_split -> inception_5a/output_inception_5a/output_0_split_3
I0509 20:58:00.631661 17858 net.cpp:122] Setting up inception_5a/output_inception_5a/output_0_split
I0509 20:58:00.631672 17858 net.cpp:129] Top shape: 50 832 7 7 (2038400)
I0509 20:58:00.631678 17858 net.cpp:129] Top shape: 50 832 7 7 (2038400)
I0509 20:58:00.631685 17858 net.cpp:129] Top shape: 50 832 7 7 (2038400)
I0509 20:58:00.631690 17858 net.cpp:129] Top shape: 50 832 7 7 (2038400)
I0509 20:58:00.631693 17858 net.cpp:137] Memory required for data: 2760936808
I0509 20:58:00.631698 17858 layer_factory.hpp:77] Creating layer inception_5b/1x1
I0509 20:58:00.631711 17858 net.cpp:84] Creating Layer inception_5b/1x1
I0509 20:58:00.631731 17858 net.cpp:406] inception_5b/1x1 <- inception_5a/output_inception_5a/output_0_split_0
I0509 20:58:00.631739 17858 net.cpp:380] inception_5b/1x1 -> inception_5b/1x1
I0509 20:58:00.639825 17858 net.cpp:122] Setting up inception_5b/1x1
I0509 20:58:00.639842 17858 net.cpp:129] Top shape: 50 384 7 7 (940800)
I0509 20:58:00.639847 17858 net.cpp:137] Memory required for data: 2764700008
I0509 20:58:00.639856 17858 layer_factory.hpp:77] Creating layer inception_5b/relu_1x1
I0509 20:58:00.639865 17858 net.cpp:84] Creating Layer inception_5b/relu_1x1
I0509 20:58:00.639871 17858 net.cpp:406] inception_5b/relu_1x1 <- inception_5b/1x1
I0509 20:58:00.639883 17858 net.cpp:367] inception_5b/relu_1x1 -> inception_5b/1x1 (in-place)
I0509 20:58:00.640339 17858 net.cpp:122] Setting up inception_5b/relu_1x1
I0509 20:58:00.640349 17858 net.cpp:129] Top shape: 50 384 7 7 (940800)
I0509 20:58:00.640352 17858 net.cpp:137] Memory required for data: 2768463208
I0509 20:58:00.640355 17858 layer_factory.hpp:77] Creating layer inception_5b/3x3_reduce
I0509 20:58:00.640365 17858 net.cpp:84] Creating Layer inception_5b/3x3_reduce
I0509 20:58:00.640368 17858 net.cpp:406] inception_5b/3x3_reduce <- inception_5a/output_inception_5a/output_0_split_1
I0509 20:58:00.640377 17858 net.cpp:380] inception_5b/3x3_reduce -> inception_5b/3x3_reduce
I0509 20:58:00.644057 17858 net.cpp:122] Setting up inception_5b/3x3_reduce
I0509 20:58:00.644068 17858 net.cpp:129] Top shape: 50 192 7 7 (470400)
I0509 20:58:00.644070 17858 net.cpp:137] Memory required for data: 2770344808
I0509 20:58:00.644076 17858 layer_factory.hpp:77] Creating layer inception_5b/relu_3x3_reduce
I0509 20:58:00.644083 17858 net.cpp:84] Creating Layer inception_5b/relu_3x3_reduce
I0509 20:58:00.644085 17858 net.cpp:406] inception_5b/relu_3x3_reduce <- inception_5b/3x3_reduce
I0509 20:58:00.644090 17858 net.cpp:367] inception_5b/relu_3x3_reduce -> inception_5b/3x3_reduce (in-place)
I0509 20:58:00.644482 17858 net.cpp:122] Setting up inception_5b/relu_3x3_reduce
I0509 20:58:00.644491 17858 net.cpp:129] Top shape: 50 192 7 7 (470400)
I0509 20:58:00.644500 17858 net.cpp:137] Memory required for data: 2772226408
I0509 20:58:00.644503 17858 layer_factory.hpp:77] Creating layer inception_5b/3x3
I0509 20:58:00.644513 17858 net.cpp:84] Creating Layer inception_5b/3x3
I0509 20:58:00.644516 17858 net.cpp:406] inception_5b/3x3 <- inception_5b/3x3_reduce
I0509 20:58:00.644523 17858 net.cpp:380] inception_5b/3x3 -> inception_5b/3x3
I0509 20:58:00.652418 17858 net.cpp:122] Setting up inception_5b/3x3
I0509 20:58:00.652434 17858 net.cpp:129] Top shape: 50 384 7 7 (940800)
I0509 20:58:00.652437 17858 net.cpp:137] Memory required for data: 2775989608
I0509 20:58:00.652444 17858 layer_factory.hpp:77] Creating layer inception_5b/relu_3x3
I0509 20:58:00.652451 17858 net.cpp:84] Creating Layer inception_5b/relu_3x3
I0509 20:58:00.652456 17858 net.cpp:406] inception_5b/relu_3x3 <- inception_5b/3x3
I0509 20:58:00.652460 17858 net.cpp:367] inception_5b/relu_3x3 -> inception_5b/3x3 (in-place)
I0509 20:58:00.653123 17858 net.cpp:122] Setting up inception_5b/relu_3x3
I0509 20:58:00.653132 17858 net.cpp:129] Top shape: 50 384 7 7 (940800)
I0509 20:58:00.653136 17858 net.cpp:137] Memory required for data: 2779752808
I0509 20:58:00.653139 17858 layer_factory.hpp:77] Creating layer inception_5b/5x5_reduce
I0509 20:58:00.653149 17858 net.cpp:84] Creating Layer inception_5b/5x5_reduce
I0509 20:58:00.653153 17858 net.cpp:406] inception_5b/5x5_reduce <- inception_5a/output_inception_5a/output_0_split_2
I0509 20:58:00.653160 17858 net.cpp:380] inception_5b/5x5_reduce -> inception_5b/5x5_reduce
I0509 20:58:00.655403 17858 net.cpp:122] Setting up inception_5b/5x5_reduce
I0509 20:58:00.655413 17858 net.cpp:129] Top shape: 50 48 7 7 (117600)
I0509 20:58:00.655416 17858 net.cpp:137] Memory required for data: 2780223208
I0509 20:58:00.655422 17858 layer_factory.hpp:77] Creating layer inception_5b/relu_5x5_reduce
I0509 20:58:00.655429 17858 net.cpp:84] Creating Layer inception_5b/relu_5x5_reduce
I0509 20:58:00.655452 17858 net.cpp:406] inception_5b/relu_5x5_reduce <- inception_5b/5x5_reduce
I0509 20:58:00.655457 17858 net.cpp:367] inception_5b/relu_5x5_reduce -> inception_5b/5x5_reduce (in-place)
I0509 20:58:00.656023 17858 net.cpp:122] Setting up inception_5b/relu_5x5_reduce
I0509 20:58:00.656035 17858 net.cpp:129] Top shape: 50 48 7 7 (117600)
I0509 20:58:00.656038 17858 net.cpp:137] Memory required for data: 2780693608
I0509 20:58:00.656041 17858 layer_factory.hpp:77] Creating layer inception_5b/5x5
I0509 20:58:00.656050 17858 net.cpp:84] Creating Layer inception_5b/5x5
I0509 20:58:00.656054 17858 net.cpp:406] inception_5b/5x5 <- inception_5b/5x5_reduce
I0509 20:58:00.656062 17858 net.cpp:380] inception_5b/5x5 -> inception_5b/5x5
I0509 20:58:00.658833 17858 net.cpp:122] Setting up inception_5b/5x5
I0509 20:58:00.658843 17858 net.cpp:129] Top shape: 50 128 7 7 (313600)
I0509 20:58:00.658845 17858 net.cpp:137] Memory required for data: 2781948008
I0509 20:58:00.658851 17858 layer_factory.hpp:77] Creating layer inception_5b/relu_5x5
I0509 20:58:00.658857 17858 net.cpp:84] Creating Layer inception_5b/relu_5x5
I0509 20:58:00.658861 17858 net.cpp:406] inception_5b/relu_5x5 <- inception_5b/5x5
I0509 20:58:00.658867 17858 net.cpp:367] inception_5b/relu_5x5 -> inception_5b/5x5 (in-place)
I0509 20:58:00.659432 17858 net.cpp:122] Setting up inception_5b/relu_5x5
I0509 20:58:00.659442 17858 net.cpp:129] Top shape: 50 128 7 7 (313600)
I0509 20:58:00.659446 17858 net.cpp:137] Memory required for data: 2783202408
I0509 20:58:00.659448 17858 layer_factory.hpp:77] Creating layer inception_5b/pool
I0509 20:58:00.659459 17858 net.cpp:84] Creating Layer inception_5b/pool
I0509 20:58:00.659462 17858 net.cpp:406] inception_5b/pool <- inception_5a/output_inception_5a/output_0_split_3
I0509 20:58:00.659469 17858 net.cpp:380] inception_5b/pool -> inception_5b/pool
I0509 20:58:00.659513 17858 net.cpp:122] Setting up inception_5b/pool
I0509 20:58:00.659518 17858 net.cpp:129] Top shape: 50 832 7 7 (2038400)
I0509 20:58:00.659521 17858 net.cpp:137] Memory required for data: 2791356008
I0509 20:58:00.659523 17858 layer_factory.hpp:77] Creating layer inception_5b/pool_proj
I0509 20:58:00.659533 17858 net.cpp:84] Creating Layer inception_5b/pool_proj
I0509 20:58:00.659535 17858 net.cpp:406] inception_5b/pool_proj <- inception_5b/pool
I0509 20:58:00.659543 17858 net.cpp:380] inception_5b/pool_proj -> inception_5b/pool_proj
I0509 20:58:00.663619 17858 net.cpp:122] Setting up inception_5b/pool_proj
I0509 20:58:00.663630 17858 net.cpp:129] Top shape: 50 128 7 7 (313600)
I0509 20:58:00.663632 17858 net.cpp:137] Memory required for data: 2792610408
I0509 20:58:00.663638 17858 layer_factory.hpp:77] Creating layer inception_5b/relu_pool_proj
I0509 20:58:00.663645 17858 net.cpp:84] Creating Layer inception_5b/relu_pool_proj
I0509 20:58:00.663648 17858 net.cpp:406] inception_5b/relu_pool_proj <- inception_5b/pool_proj
I0509 20:58:00.663655 17858 net.cpp:367] inception_5b/relu_pool_proj -> inception_5b/pool_proj (in-place)
I0509 20:58:00.664242 17858 net.cpp:122] Setting up inception_5b/relu_pool_proj
I0509 20:58:00.664252 17858 net.cpp:129] Top shape: 50 128 7 7 (313600)
I0509 20:58:00.664255 17858 net.cpp:137] Memory required for data: 2793864808
I0509 20:58:00.664258 17858 layer_factory.hpp:77] Creating layer inception_5b/output
I0509 20:58:00.664264 17858 net.cpp:84] Creating Layer inception_5b/output
I0509 20:58:00.664268 17858 net.cpp:406] inception_5b/output <- inception_5b/1x1
I0509 20:58:00.664273 17858 net.cpp:406] inception_5b/output <- inception_5b/3x3
I0509 20:58:00.664275 17858 net.cpp:406] inception_5b/output <- inception_5b/5x5
I0509 20:58:00.664278 17858 net.cpp:406] inception_5b/output <- inception_5b/pool_proj
I0509 20:58:00.664285 17858 net.cpp:380] inception_5b/output -> inception_5b/output
I0509 20:58:00.664314 17858 net.cpp:122] Setting up inception_5b/output
I0509 20:58:00.664319 17858 net.cpp:129] Top shape: 50 1024 7 7 (2508800)
I0509 20:58:00.664320 17858 net.cpp:137] Memory required for data: 2803900008
I0509 20:58:00.664324 17858 layer_factory.hpp:77] Creating layer pool5/7x7_s1
I0509 20:58:00.664342 17858 net.cpp:84] Creating Layer pool5/7x7_s1
I0509 20:58:00.664345 17858 net.cpp:406] pool5/7x7_s1 <- inception_5b/output
I0509 20:58:00.664350 17858 net.cpp:380] pool5/7x7_s1 -> pool5/7x7_s1
I0509 20:58:00.664945 17858 net.cpp:122] Setting up pool5/7x7_s1
I0509 20:58:00.664955 17858 net.cpp:129] Top shape: 50 1024 1 1 (51200)
I0509 20:58:00.664958 17858 net.cpp:137] Memory required for data: 2804104808
I0509 20:58:00.664960 17858 layer_factory.hpp:77] Creating layer pool5/drop_7x7_s1
I0509 20:58:00.664968 17858 net.cpp:84] Creating Layer pool5/drop_7x7_s1
I0509 20:58:00.664970 17858 net.cpp:406] pool5/drop_7x7_s1 <- pool5/7x7_s1
I0509 20:58:00.664976 17858 net.cpp:367] pool5/drop_7x7_s1 -> pool5/7x7_s1 (in-place)
I0509 20:58:00.664999 17858 net.cpp:122] Setting up pool5/drop_7x7_s1
I0509 20:58:00.665004 17858 net.cpp:129] Top shape: 50 1024 1 1 (51200)
I0509 20:58:00.665006 17858 net.cpp:137] Memory required for data: 2804309608
I0509 20:58:00.665009 17858 layer_factory.hpp:77] Creating layer loss3/classifier
I0509 20:58:00.665015 17858 net.cpp:84] Creating Layer loss3/classifier
I0509 20:58:00.665019 17858 net.cpp:406] loss3/classifier <- pool5/7x7_s1
I0509 20:58:00.665024 17858 net.cpp:380] loss3/classifier -> loss3/classifier
I0509 20:58:00.666751 17858 net.cpp:122] Setting up loss3/classifier
I0509 20:58:00.666759 17858 net.cpp:129] Top shape: 50 196 (9800)
I0509 20:58:00.666762 17858 net.cpp:137] Memory required for data: 2804348808
I0509 20:58:00.666769 17858 layer_factory.hpp:77] Creating layer loss3/loss
I0509 20:58:00.666775 17858 net.cpp:84] Creating Layer loss3/loss
I0509 20:58:00.666779 17858 net.cpp:406] loss3/loss <- loss3/classifier
I0509 20:58:00.666783 17858 net.cpp:406] loss3/loss <- label_train-data_1_split_2
I0509 20:58:00.666788 17858 net.cpp:380] loss3/loss -> loss
…
I0509 20:58:00.669876 17858 solver.cpp:172] Creating test net (#0) specified by net file: train_val.prototxt
I0509 20:58:00.670002 17858 net.cpp:294] The NetState phase (1) differed from the phase (0) specified by a rule in layer train-data
I0509 20:58:00.670861 17858 net.cpp:51] Initializing net from parameters:
state {
phase: TEST
}
layer {
name: "val-data"
type: "Data"
top: "data"
top: "label"
include {
phase: TEST
}
transform_param {
mirror: false
crop_size: 224
mean_value: 115.96062
mean_value: 117.19437
mean_value: 119.79225
}
data_param {
source: "/mnt/bigdisk/AMBDIG8/digits/jobs/20200509-183908-c8eb/val_db"
batch_size: 50
backend: LMDB
}
}
layer {
name: "conv1/7x7_s2"
type: "Convolution"
bottom: "data"
top: "conv1/7x7_s2"
param {
lr_mult: 1
decay_mult: 1
}
param {
lr_mult: 2
decay_mult: 0
}
convolution_param {
num_output: 64
pad: 3
kernel_size: 7
stride: 2
weight_filler {
type: "xavier"
std: 0.1
}
bias_filler {
type: "constant"
value: 0.2
}
}
}
layer {
name: "conv1/relu_7x7"
type: "ReLU"
bottom: "conv1/7x7_s2"
top: "conv1/7x7_s2"
}
layer {
name: "pool1/3x3_s2"
type: "Pooling"
bottom: "conv1/7x7_s2"
top: "pool1/3x3_s2"
pooling_param {
pool: MAX
kernel_size: 3
stride: 2
}
}
layer {
name: "pool1/norm1"
type: "LRN"
bottom: "pool1/3x3_s2"
top: "pool1/norm1"
lrn_param {
local_size: 5
alpha: 0.0001
beta: 0.75
}
}
layer {
name: "conv2/3x3_reduce"
type: "Convolution"
bottom: "pool1/norm1"
top: "conv2/3x3_reduce"
param {
lr_mult: 1
decay_mult: 1
}
param {
lr_mult: 2
decay_mult: 0
}
convolution_param {
num_output: 64
kernel_size: 1
weight_filler {
type: "xavier"
std: 0.1
}
bias_filler {
type: "constant"
value: 0.2
}
}
}
layer {
name: "conv2/relu_3x3_reduce"
type: "ReLU"
bottom: "conv2/3x3_reduce"
top: "conv2/3x3_reduce"
}
layer {
name: "conv2/3x3"
type: "Convolution"
bottom: "conv2/3x3_reduce"
top: "conv2/3x3"
param {
lr_mult: 1
decay_mult: 1
}
param {
lr_mult: 2
decay_mult: 0
}
convolution_param {
num_output: 192
pad: 1
kernel_size: 3
weight_filler {
type: "xavier"
std: 0.03
}
bias_filler {
type: "constant"
value: 0.2
}
}
}
layer {
name: "conv2/relu_3x3"
type: "ReLU"
bottom: "conv2/3x3"
top: "conv2/3x3"
}
layer {
name: "conv2/norm2"
type: "LRN"
bottom: "conv2/3x3"
top: "conv2/norm2"
lrn_param {
local_size: 5
alpha: 0.0001
beta: 0.75
}
}
layer {
name: "pool2/3x3_s2"
type: "Pooling"
bottom: "conv2/norm2"
top: "pool2/3x3_s2"
pooling_param {
pool: MAX
kernel_size: 3
stride: 2
}
}
layer {
name: "inception_3a/1x1"
type: "Convolution"
bottom: "pool2/3x3_s2"
top: "inception_3a/1x1"
param {
lr_mult: 1
decay_mult: 1
}
param {
lr_mult: 2
decay_mult: 0
}
convolution_param {
num_output: 64
kernel_size: 1
weight_filler {
type: "xavier"
std: 0.03
}
bias_filler {
type: "constant"
value: 0.2
}
}
}
layer {
name: "inception_3a/relu_1x1"
type: "ReLU"
bottom: "inception_3a/1x1"
top: "inception_3a/1x1"
}
layer {
name: "inception_3a/3x3_reduce"
type: "Convolution"
bottom: "pool2/3x3_s2"
top: "inception_3a/3x3_reduce"
param {
lr_mult: 1
decay_mult: 1
}
param {
lr_mult: 2
decay_mult: 0
}
convolution_param {
num_output: 96
kernel_size: 1
weight_filler {
type: "xavier"
std: 0.09
}
bias_filler {
type: "constant"
value: 0.2
}
}
}
layer {
name: "inception_3a/relu_3x3_reduce"
type: "ReLU"
bottom: "inception_3a/3x3_reduce"
top: "inception_3a/3x3_reduce"
}
layer {
name: "inception_3a/3x3"
type: "Convolution"
bottom: "inception_3a/3x3_reduce"
top: "inception_3a/3x3"
param {
lr_mult: 1
decay_mult: 1
}
param {
lr_mult: 2
decay_mult: 0
}
convolution_param {
num_output: 128
pad: 1
kernel_size: 3
weight_filler {
type: "xavier"
std: 0.03
}
bias_filler {
type: "constant"
value: 0.2
}
}
}
layer {
name: "inception_3a/relu_3x3"
type: "ReLU"
bottom: "inception_3a/3x3"
top: "inception_3a/3x3"
}
layer {
name: "inception_3a/5x5_reduce"
type: "Convolution"
bottom: "pool2/3x3_s2"
top: "inception_3a/5x5_reduce"
param {
lr_mult: 1
decay_mult: 1
}
param {
lr_mult: 2
decay_mult: 0
}
convolution_param {
num_output: 16
kernel_size: 1
weight_filler {
type: "xavier"
std: 0.2
}
bias_filler {
type: "constant"
value: 0.2
}
}
}
layer {
name: "inception_3a/relu_5x5_reduce"
type: "ReLU"
bottom: "inception_3a/5x5_reduce"
top: "inception_3a/5x5_reduce"
}
layer {
name: "inception_3a/5x5"
type: "Convolution"
bottom: "inception_3a/5x5_reduce"
top: "inception_3a/5x5"
param {
lr_mult: 1
decay_mult: 1
}
param {
lr_mult: 2
decay_mult: 0
}
convolution_param {
num_output: 32
pad: 2
kernel_size: 5
weight_filler {
type: "xavier"
std: 0.03
}
bias_filler {
type: "constant"
value: 0.2
}
}
}
layer {
name: "inception_3a/relu_5x5"
type: "ReLU"
bottom: "inception_3a/5x5"
top: "inception_3a/5x5"
}
layer {
name: "inception_3a/pool"
type: "Pooling"
bottom: "pool2/3x3_s2"
top: "inception_3a/pool"
pooling_param {
pool: MAX
kernel_size: 3
stride: 1
pad: 1
}
}
layer {
name: "inception_3a/pool_proj"
type: "Convolution"
bottom: "inception_3a/pool"
top: "inception_3a/pool_proj"
param {
lr_mult: 1
decay_mult: 1
}
param {
lr_mult: 2
decay_mult: 0
}
convolution_param {
num_output: 32
kernel_size: 1
weight_filler {
type: "xavier"
std: 0.1
}
bias_filler {
type: "constant"
value: 0.2
}
}
}
layer {
name: "inception_3a/relu_pool_proj"
type: "ReLU"
bottom: "inception_3a/pool_proj"
top: "inception_3a/pool_proj"
}
layer {
name: "inception_3a/output"
type: "Concat"
bottom: "inception_3a/1x1"
bottom: "inception_3a/3x3"
bottom: "inception_3a/5x5"
bottom: "inception_3a/pool_proj"
top: "inception_3a/output"
}
layer {
name: "inception_3b/1x1"
type: "Convolution"
bottom: "inception_3a/output"
top: "inception_3b/1x1"
param {
lr_mult: 1
decay_mult: 1
}
param {
lr_mult: 2
decay_mult: 0
}
convolution_param {
num_output: 128
kernel_size: 1
weight_filler {
type: "xavier"
std: 0.03
}
bias_filler {
type: "constant"
value: 0.2
}
}
}
layer {
name: "inception_3b/relu_1x1"
type: "ReLU"
bottom: "inception_3b/1x1"
top: "inception_3b/1x1"
}
layer {
name: "inception_3b/3x3_reduce"
type: "Convolution"
bottom: "inception_3a/output"
top: "inception_3b/3x3_reduce"
param {
lr_mult: 1
decay_mult: 1
}
param {
lr_mult: 2
decay_mult: 0
}
convolution_param {
num_output: 128
kernel_size: 1
weight_filler {
type: "xavier"
std: 0.09
}
bias_filler {
type: "constant"
value: 0.2
}
}
}
layer {
name: "inception_3b/relu_3x3_reduce"
type: "ReLU"
bottom: "inception_3b/3x3_reduce"
top: "inception_3b/3x3_reduce"
}
layer {
name: "inception_3b/3x3"
type: "Convolution"
bottom: "inception_3b/3x3_reduce"
top: "inception_3b/3x3"
param {
lr_mult: 1
decay_mult: 1
}
param {
lr_mult: 2
decay_mult: 0
}
convolution_param {
num_output: 192
pad: 1
kernel_size: 3
weight_filler {
type: "xavier"
std: 0.03
}
bias_filler {
type: "constant"
value: 0.2
}
}
}
layer {
name: "inception_3b/relu_3x3"
type: "ReLU"
bottom: "inception_3b/3x3"
top: "inception_3b/3x3"
}
layer {
name: "inception_3b/5x5_reduce"
type: "Convolution"
bottom: "inception_3a/output"
top: "inception_3b/5x5_reduce"
param {
lr_mult: 1
decay_mult: 1
}
param {
lr_mult: 2
decay_mult: 0
}
convolution_param {
num_output: 32
kernel_size: 1
weight_filler {
type: "xavier"
std: 0.2
}
bias_filler {
type: "constant"
value: 0.2
}
}
}
layer {
name: "inception_3b/relu_5x5_reduce"
type: "ReLU"
bottom: "inception_3b/5x5_reduce"
top: "inception_3b/5x5_reduce"
}
layer {
name: "inception_3b/5x5"
type: "Convolution"
bottom: "inception_3b/5x5_reduce"
top: "inception_3b/5x5"
param {
lr_mult: 1
decay_mult: 1
}
param {
lr_mult: 2
decay_mult: 0
}
convolution_param {
num_output: 96
pad: 2
kernel_size: 5
weight_filler {
type: "xavier"
std: 0.03
}
bias_filler {
type: "constant"
value: 0.2
}
}
}
layer {
name: "inception_3b/relu_5x5"
type: "ReLU"
bottom: "inception_3b/5x5"
top: "inception_3b/5x5"
}
layer {
name: "inception_3b/pool"
type: "Pooling"
bottom: "inception_3a/output"
top: "inception_3b/pool"
pooling_param {
pool: MAX
kernel_size: 3
stride: 1
pad: 1
}
}
layer {
name: "inception_3b/pool_proj"
type: "Convolution"
bottom: "inception_3b/pool"
top: "inception_3b/pool_proj"
param {
lr_mult: 1
decay_mult: 1
}
param {
lr_mult: 2
decay_mult: 0
}
convolution_param {
num_output: 64
kernel_size: 1
weight_filler {
type: "xavier"
std: 0.1
}
bias_filler {
type: "constant"
value: 0.2
}
}
}
layer {
name: "inception_3b/relu_pool_proj"
type: "ReLU"
bottom: "inception_3b/pool_proj"
top: "inception_3b/pool_proj"
}
layer {
name: "inception_3b/output"
type: "Concat"
bottom: "inception_3b/1x1"
bottom: "inception_3b/3x3"
bottom: "inception_3b/5x5"
bottom: "inception_3b/pool_proj"
top: "inception_3b/output"
}
layer {
name: "pool3/3x3_s2"
type: "Pooling"
bottom: "inception_3b/output"
top: "pool3/3x3_s2"
pooling_param {
pool: MAX
kernel_size: 3
stride: 2
}
}
layer {
name: "inception_4a/1x1"
type: "Convolution"
bottom: "pool3/3x3_s2"
top: "inception_4a/1x1"
param {
lr_mult: 1
decay_mult: 1
}
param {
lr_mult: 2
decay_mult: 0
}
convolution_param {
num_output: 192
kernel_size: 1
weight_filler {
type: "xavier"
std: 0.03
}
bias_filler {
type: "constant"
value: 0.2
}
}
}
layer {
name: "inception_4a/relu_1x1"
type: "ReLU"
bottom: "inception_4a/1x1"
top: "inception_4a/1x1"
}
layer {
name: "inception_4a/3x3_reduce"
type: "Convolution"
bottom: "pool3/3x3_s2"
top: "inception_4a/3x3_reduce"
param {
lr_mult: 1
decay_mult: 1
}
param {
lr_mult: 2
decay_mult: 0
}
convolution_param {
num_output: 96
kernel_size: 1
weight_filler {
type: "xavier"
std: 0.09
}
bias_filler {
type: "constant"
value: 0.2
}
}
}
layer {
name: "inception_4a/relu_3x3_reduce"
type: "ReLU"
bottom: "inception_4a/3x3_reduce"
top: "inception_4a/3x3_reduce"
}
layer {
name: "inception_4a/3x3"
type: "Convolution"
bottom: "inception_4a/3x3_reduce"
top: "inception_4a/3x3"
param {
lr_mult: 1
decay_mult: 1
}
param {
lr_mult: 2
decay_mult: 0
}
convolution_param {
num_output: 208
pad: 1
kernel_size: 3
weight_filler {
type: "xavier"
std: 0.03
}
bias_filler {
type: "constant"
value: 0.2
}
}
}
layer {
name: "inception_4a/relu_3x3"
type: "ReLU"
bottom: "inception_4a/3x3"
top: "inception_4a/3x3"
}
layer {
name: "inception_4a/5x5_reduce"
type: "Convolution"
bottom: "pool3/3x3_s2"
top: "inception_4a/5x5_reduce"
param {
lr_mult: 1
decay_mult: 1
}
param {
lr_mult: 2
decay_mult: 0
}
convolution_param {
num_output: 16
kernel_size: 1
weight_filler {
type: "xavier"
std: 0.2
}
bias_filler {
type: "constant"
value: 0.2
}
}
}
layer {
name: "inception_4a/relu_5x5_reduce"
type: "ReLU"
bottom: "inception_4a/5x5_reduce"
top: "inception_4a/5x5_reduce"
}
layer {
name: "inception_4a/5x5"
type: "Convolution"
bottom: "inception_4a/5x5_reduce"
top: "inception_4a/5x5"
param {
lr_mult: 1
decay_mult: 1
}
param {
lr_mult: 2
decay_mult: 0
}
convolution_param {
num_output: 48
pad: 2
kernel_size: 5
weight_filler {
type: "xavier"
std: 0.03
}
bias_filler {
type: "constant"
value: 0.2
}
}
}
layer {
name: "inception_4a/relu_5x5"
type: "ReLU"
bottom: "inception_4a/5x5"
top: "inception_4a/5x5"
}
layer {
name: "inception_4a/pool"
type: "Pooling"
bottom: "pool3/3x3_s2"
top: "inception_4a/pool"
pooling_param {
pool: MAX
kernel_size: 3
stride: 1
pad: 1
}
}
layer {
name: "inception_4a/pool_proj"
type: "Convolution"
bottom: "inception_4a/pool"
top: "inception_4a/pool_proj"
param {
lr_mult: 1
decay_mult: 1
}
param {
lr_mult: 2
decay_mult: 0
}
convolution_param {
num_output: 64
kernel_size: 1
weight_filler {
type: "xavier"
std: 0.1
}
bias_filler {
type: "constant"
value: 0.2
}
}
}
layer {
name: "inception_4a/relu_pool_proj"
type: "ReLU"
bottom: "inception_4a/pool_proj"
top: "inception_4a/pool_proj"
}
layer {
name: "inception_4a/output"
type: "Concat"
bottom: "inception_4a/1x1"
bottom: "inception_4a/3x3"
bottom: "inception_4a/5x5"
bottom: "inception_4a/pool_proj"
top: "inception_4a/output"
}
layer {
name: "loss1/ave_pool"
type: "Pooling"
bottom: "inception_4a/output"
top: "loss1/ave_pool"
pooling_param {
pool: AVE
kernel_size: 5
stride: 3
}
}
layer {
name: "loss1/conv"
type: "Convolution"
bottom: "loss1/ave_pool"
top: "loss1/conv"
param {
lr_mult: 1
decay_mult: 1
}
param {
lr_mult: 2
decay_mult: 0
}
convolution_param {
num_output: 128
kernel_size: 1
weight_filler {
type: "xavier"
std: 0.08
}
bias_filler {
type: "constant"
value: 0.2
}
}
}
layer {
name: "loss1/relu_conv"
type: "ReLU"
bottom: "loss1/conv"
top: "loss1/conv"
}
layer {
name: "loss1/fc"
type: "InnerProduct"
bottom: "loss1/conv"
top: "loss1/fc"
param {
lr_mult: 1
decay_mult: 1
}
param {
lr_mult: 2
decay_mult: 0
}
inner_product_param {
num_output: 1024
weight_filler {
type: "xavier"
std: 0.02
}
bias_filler {
type: "constant"
value: 0.2
}
}
}
layer {
name: "loss1/relu_fc"
type: "ReLU"
bottom: "loss1/fc"
top: "loss1/fc"
}
layer {
name: "loss1/drop_fc"
type: "Dropout"
bottom: "loss1/fc"
top: "loss1/fc"
dropout_param {
dropout_ratio: 0.7
}
}
layer {
name: "loss1/classifier"
type: "InnerProduct"
bottom: "loss1/fc"
top: "loss1/classifier"
param {
lr_mult: 1
decay_mult: 1
}
param {
lr_mult: 2
decay_mult: 0
}
inner_product_param {
num_output: 196
weight_filler {
type: "xavier"
std: 0.0009765625
}
bias_filler {
type: "constant"
value: 0
}
}
}
layer {
name: "loss1/loss"
type: "SoftmaxWithLoss"
bottom: "loss1/classifier"
bottom: "label"
top: "loss1/loss"
loss_weight: 0.3
}
layer {
name: "loss1/top-1"
type: "Accuracy"
bottom: "loss1/classifier"
bottom: "label"
top: "loss1/accuracy"
include {
phase: TEST
}
}
layer {
name: "loss1/top-5"
type: "Accuracy"
bottom: "loss1/classifier"
bottom: "label"
top: "loss1/accuracy-top5"
include {
phase: TEST
}
accuracy_param {
top_k: 5
}
}
layer {
name: "inception_4b/1x1"
type: "Convolution"
bottom: "inception_4a/output"
top: "inception_4b/1x1"
param {
lr_mult: 1
decay_mult: 1
}
param {
lr_mult: 2
decay_mult: 0
}
convolution_param {
num_output: 160
kernel_size: 1
weight_filler {
type: "xavier"
std: 0.03
}
bias_filler {
type: "constant"
value: 0.2
}
}
}
layer {
name: "inception_4b/relu_1x1"
type: "ReLU"
bottom: "inception_4b/1x1"
top: "inception_4b/1x1"
}
layer {
name: "inception_4b/3x3_reduce"
type: "Convolution"
bottom: "inception_4a/output"
top: "inception_4b/3x3_reduce"
param {
lr_mult: 1
decay_mult: 1
}
param {
lr_mult: 2
decay_mult: 0
}
convolution_param {
num_output: 112
kernel_size: 1
weight_filler {
type: "xavier"
std: 0.09
}
bias_filler {
type: "constant"
value: 0.2
}
}
}
layer {
name: "inception_4b/relu_3x3_reduce"
type: "ReLU"
bottom: "inception_4b/3x3_reduce"
top: "inception_4b/3x3_reduce"
}
layer {
name: "inception_4b/3x3"
type: "Convolution"
bottom: "inception_4b/3x3_reduce"
top: "inception_4b/3x3"
param {
lr_mult: 1
decay_mult: 1
}
param {
lr_mult: 2
decay_mult: 0
}
convolution_param {
num_output: 224
pad: 1
kernel_size: 3
weight_filler {
type: "xavier"
std: 0.03
}
bias_filler {
type: "constant"
value: 0.2
}
}
}
layer {
name: "inception_4b/relu_3x3"
type: "ReLU"
bottom: "inception_4b/3x3"
top: "inception_4b/3x3"
}
layer {
name: "inception_4b/5x5_reduce"
type: "Convolution"
bottom: "inception_4a/output"
top: "inception_4b/5x5_reduce"
param {
lr_mult: 1
decay_mult: 1
}
param {
lr_mult: 2
decay_mult: 0
}
convolution_param {
num_output: 24
kernel_size: 1
weight_filler {
type: "xavier"
std: 0.2
}
bias_filler {
type: "constant"
value: 0.2
}
}
}
layer {
name: "inception_4b/relu_5x5_reduce"
type: "ReLU"
bottom: "inception_4b/5x5_reduce"
top: "inception_4b/5x5_reduce"
}
layer {
name: "inception_4b/5x5"
type: "Convolution"
bottom: "inception_4b/5x5_reduce"
top: "inception_4b/5x5"
param {
lr_mult: 1
decay_mult: 1
}
param {
lr_mult: 2
decay_mult: 0
}
convolution_param {
num_output: 64
pad: 2
kernel_size: 5
weight_filler {
type: "xavier"
std: 0.03
}
bias_filler {
type: "constant"
value: 0.2
}
}
}
layer {
name: "inception_4b/relu_5x5"
type: "ReLU"
bottom: "inception_4b/5x5"
top: "inception_4b/5x5"
}
layer {
name: "inception_4b/pool"
type: "Pooling"
bottom: "inception_4a/output"
top: "inception_4b/pool"
pooling_param {
pool: MAX
kernel_size: 3
stride: 1
pad: 1
}
}
layer {
name: "inception_4b/pool_proj"
type: "Convolution"
bottom: "inception_4b/pool"
top: "inception_4b/pool_proj"
param {
lr_mult: 1
decay_mult: 1
}
param {
lr_mult: 2
decay_mult: 0
}
convolution_param {
num_output: 64
kernel_size: 1
weight_filler {
type: "xavier"
std: 0.1
}
bias_filler {
type: "constant"
value: 0.2
}
}
}
layer {
name: "inception_4b/relu_pool_proj"
type: "ReLU"
bottom: "inception_4b/pool_proj"
top: "inception_4b/pool_proj"
}
layer {
name: "inception_4b/output"
type: "Concat"
bottom: "inception_4b/1x1"
bottom: "inception_4b/3x3"
bottom: "inception_4b/5x5"
bottom: "inception_4b/pool_proj"
top: "inception_4b/output"
}
layer {
name: "inception_4c/1x1"
type: "Convolution"
bottom: "inception_4b/output"
top: "inception_4c/1x1"
param {
lr_mult: 1
decay_mult: 1
}
param {
lr_mult: 2
decay_mult: 0
}
convolution_param {
num_output: 128
kernel_size: 1
weight_filler {
type: "xavier"
std: 0.03
}
bias_filler {
type: "constant"
value: 0.2
}
}
}
layer {
name: "inception_4c/relu_1x1"
type: "ReLU"
bottom: "inception_4c/1x1"
top: "inception_4c/1x1"
}
layer {
name: "inception_4c/3x3_reduce"
type: "Convolution"
bottom: "inception_4b/output"
top: "inception_4c/3x3_reduce"
param {
lr_mult: 1
decay_mult: 1
}
param {
lr_mult: 2
decay_mult: 0
}
convolution_param {
num_output: 128
kernel_size: 1
weight_filler {
type: "xavier"
std: 0.09
}
bias_filler {
type: "constant"
value: 0.2
}
}
}
layer {
name: "inception_4c/relu_3x3_reduce"
type: "ReLU"
bottom: "inception_4c/3x3_reduce"
top: "inception_4c/3x3_reduce"
}
layer {
name: "inception_4c/3x3"
type: "Convolution"
bottom: "inception_4c/3x3_reduce"
top: "inception_4c/3x3"
param {
lr_mult: 1
decay_mult: 1
}
param {
lr_mult: 2
decay_mult: 0
}
convolution_param {
num_output: 256
pad: 1
kernel_size: 3
weight_filler {
type: "xavier"
std: 0.03
}
bias_filler {
type: "constant"
value: 0.2
}
}
}
layer {
name: "inception_4c/relu_3x3"
type: "ReLU"
bottom: "inception_4c/3x3"
top: "inception_4c/3x3"
}
layer {
name: "inception_4c/5x5_reduce"
type: "Convolution"
bottom: "inception_4b/output"
top: "inception_4c/5x5_reduce"
param {
lr_mult: 1
decay_mult: 1
}
param {
lr_mult: 2
decay_mult: 0
}
convolution_param {
num_output: 24
kernel_size: 1
weight_filler {
type: "xavier"
std: 0.2
}
bias_filler {
type: "constant"
value: 0.2
}
}
}
layer {
name: "inception_4c/relu_5x5_reduce"
type: "ReLU"
bottom: "inception_4c/5x5_reduce"
top: "inception_4c/5x5_reduce"
}
layer {
name: "inception_4c/5x5"
type: "Convolution"
bottom: "inception_4c/5x5_reduce"
top: "inception_4c/5x5"
param {
lr_mult: 1
decay_mult: 1
}
param {
lr_mult: 2
decay_mult: 0
}
convolution_param {
num_output: 64
pad: 2
kernel_size: 5
weight_filler {
type: "xavier"
std: 0.03
}
bias_filler {
type: "constant"
value: 0.2
}
}
}
layer {
name: "inception_4c/relu_5x5"
type: "ReLU"
bottom: "inception_4c/5x5"
top: "inception_4c/5x5"
}
layer {
name: "inception_4c/pool"
type: "Pooling"
bottom: "inception_4b/output"
top: "inception_4c/pool"
pooling_param {
pool: MAX
kernel_size: 3
stride: 1
pad: 1
}
}
layer {
name: "inception_4c/pool_proj"
type: "Convolution"
bottom: "inception_4c/pool"
top: "inception_4c/pool_proj"
param {
lr_mult: 1
decay_mult: 1
}
param {
lr_mult: 2
decay_mult: 0
}
convolution_param {
num_output: 64
kernel_size: 1
weight_filler {
type: "xavier"
std: 0.1
}
bias_filler {
type: "constant"
value: 0.2
}
}
}
layer {
name: "inception_4c/relu_pool_proj"
type: "ReLU"
bottom: "inception_4c/pool_proj"
top: "inception_4c/pool_proj"
}
layer {
name: "inception_4c/output"
type: "Concat"
bottom: "inception_4c/1x1"
bottom: "inception_4c/3x3"
bottom: "inception_4c/5x5"
bottom: "inception_4c/pool_proj"
top: "inception_4c/output"
}
layer {
name: "inception_4d/1x1"
type: "Convolution"
bottom: "inception_4c/output"
top: "inception_4d/1x1"
param {
lr_mult: 1
decay_mult: 1
}
param {
lr_mult: 2
decay_mult: 0
}
convolution_param {
num_output: 112
kernel_size: 1
weight_filler {
type: "xavier"
std: 0.03
}
bias_filler {
type: "constant"
value: 0.2
}
}
}
layer {
name: "inception_4d/relu_1x1"
type: "ReLU"
…
I0509 20:58:00.883451 17858 net.cpp:129] Top shape: 50 64 14 14 (627200)
I0509 20:58:00.883455 17858 net.cpp:137] Memory required for data: 2189650012
I0509 20:58:00.883457 17858 layer_factory.hpp:77] Creating layer inception_4c/pool
I0509 20:58:00.883464 17858 net.cpp:84] Creating Layer inception_4c/pool
I0509 20:58:00.883468 17858 net.cpp:406] inception_4c/pool <- inception_4b/output_inception_4b/output_0_split_3
I0509 20:58:00.883476 17858 net.cpp:380] inception_4c/pool -> inception_4c/pool
I0509 20:58:00.883518 17858 net.cpp:122] Setting up inception_4c/pool
I0509 20:58:00.883523 17858 net.cpp:129] Top shape: 50 512 14 14 (5017600)
I0509 20:58:00.883527 17858 net.cpp:137] Memory required for data: 2209720412
I0509 20:58:00.883529 17858 layer_factory.hpp:77] Creating layer inception_4c/pool_proj
I0509 20:58:00.883540 17858 net.cpp:84] Creating Layer inception_4c/pool_proj
I0509 20:58:00.883543 17858 net.cpp:406] inception_4c/pool_proj <- inception_4c/pool
I0509 20:58:00.883548 17858 net.cpp:380] inception_4c/pool_proj -> inception_4c/pool_proj
I0509 20:58:00.885772 17858 net.cpp:122] Setting up inception_4c/pool_proj
I0509 20:58:00.885782 17858 net.cpp:129] Top shape: 50 64 14 14 (627200)
I0509 20:58:00.885785 17858 net.cpp:137] Memory required for data: 2212229212
I0509 20:58:00.885792 17858 layer_factory.hpp:77] Creating layer inception_4c/relu_pool_proj
I0509 20:58:00.885797 17858 net.cpp:84] Creating Layer inception_4c/relu_pool_proj
I0509 20:58:00.885802 17858 net.cpp:406] inception_4c/relu_pool_proj <- inception_4c/pool_proj
I0509 20:58:00.885805 17858 net.cpp:367] inception_4c/relu_pool_proj -> inception_4c/pool_proj (in-place)
I0509 20:58:00.886565 17858 net.cpp:122] Setting up inception_4c/relu_pool_proj
I0509 20:58:00.886574 17858 net.cpp:129] Top shape: 50 64 14 14 (627200)
I0509 20:58:00.886577 17858 net.cpp:137] Memory required for data: 2214738012
I0509 20:58:00.886580 17858 layer_factory.hpp:77] Creating layer inception_4c/output
I0509 20:58:00.886590 17858 net.cpp:84] Creating Layer inception_4c/output
I0509 20:58:00.886593 17858 net.cpp:406] inception_4c/output <- inception_4c/1x1
I0509 20:58:00.886597 17858 net.cpp:406] inception_4c/output <- inception_4c/3x3
I0509 20:58:00.886620 17858 net.cpp:406] inception_4c/output <- inception_4c/5x5
I0509 20:58:00.886623 17858 net.cpp:406] inception_4c/output <- inception_4c/pool_proj
I0509 20:58:00.886628 17858 net.cpp:380] inception_4c/output -> inception_4c/output
I0509 20:58:00.886658 17858 net.cpp:122] Setting up inception_4c/output
I0509 20:58:00.886664 17858 net.cpp:129] Top shape: 50 512 14 14 (5017600)
I0509 20:58:00.886667 17858 net.cpp:137] Memory required for data: 2234808412
I0509 20:58:00.886669 17858 layer_factory.hpp:77] Creating layer inception_4c/output_inception_4c/output_0_split
I0509 20:58:00.886675 17858 net.cpp:84] Creating Layer inception_4c/output_inception_4c/output_0_split
I0509 20:58:00.886678 17858 net.cpp:406] inception_4c/output_inception_4c/output_0_split <- inception_4c/output
I0509 20:58:00.886683 17858 net.cpp:380] inception_4c/output_inception_4c/output_0_split -> inception_4c/output_inception_4c/output_0_split_0
I0509 20:58:00.886689 17858 net.cpp:380] inception_4c/output_inception_4c/output_0_split -> inception_4c/output_inception_4c/output_0_split_1
I0509 20:58:00.886696 17858 net.cpp:380] inception_4c/output_inception_4c/output_0_split -> inception_4c/output_inception_4c/output_0_split_2
I0509 20:58:00.886701 17858 net.cpp:380] inception_4c/output_inception_4c/output_0_split -> inception_4c/output_inception_4c/output_0_split_3
I0509 20:58:00.886754 17858 net.cpp:122] Setting up inception_4c/output_inception_4c/output_0_split
I0509 20:58:00.886759 17858 net.cpp:129] Top shape: 50 512 14 14 (5017600)
I0509 20:58:00.886763 17858 net.cpp:129] Top shape: 50 512 14 14 (5017600)
I0509 20:58:00.886766 17858 net.cpp:129] Top shape: 50 512 14 14 (5017600)
I0509 20:58:00.886770 17858 net.cpp:129] Top shape: 50 512 14 14 (5017600)
I0509 20:58:00.886772 17858 net.cpp:137] Memory required for data: 2315090012
I0509 20:58:00.886775 17858 layer_factory.hpp:77] Creating layer inception_4d/1x1
I0509 20:58:00.886783 17858 net.cpp:84] Creating Layer inception_4d/1x1
I0509 20:58:00.886786 17858 net.cpp:406] inception_4d/1x1 <- inception_4c/output_inception_4c/output_0_split_0
I0509 20:58:00.886792 17858 net.cpp:380] inception_4d/1x1 -> inception_4d/1x1
I0509 20:58:00.889127 17858 net.cpp:122] Setting up inception_4d/1x1
I0509 20:58:00.889139 17858 net.cpp:129] Top shape: 50 112 14 14 (1097600)
I0509 20:58:00.889142 17858 net.cpp:137] Memory required for data: 2319480412
I0509 20:58:00.889148 17858 layer_factory.hpp:77] Creating layer inception_4d/relu_1x1
I0509 20:58:00.889153 17858 net.cpp:84] Creating Layer inception_4d/relu_1x1
I0509 20:58:00.889158 17858 net.cpp:406] inception_4d/relu_1x1 <- inception_4d/1x1
I0509 20:58:00.889163 17858 net.cpp:367] inception_4d/relu_1x1 -> inception_4d/1x1 (in-place)
I0509 20:58:00.889751 17858 net.cpp:122] Setting up inception_4d/relu_1x1
I0509 20:58:00.889760 17858 net.cpp:129] Top shape: 50 112 14 14 (1097600)
I0509 20:58:00.889762 17858 net.cpp:137] Memory required for data: 2323870812
I0509 20:58:00.889766 17858 layer_factory.hpp:77] Creating layer inception_4d/3x3_reduce
I0509 20:58:00.889775 17858 net.cpp:84] Creating Layer inception_4d/3x3_reduce
I0509 20:58:00.889780 17858 net.cpp:406] inception_4d/3x3_reduce <- inception_4c/output_inception_4c/output_0_split_1
I0509 20:58:00.889786 17858 net.cpp:380] inception_4d/3x3_reduce -> inception_4d/3x3_reduce
I0509 20:58:00.894106 17858 net.cpp:122] Setting up inception_4d/3x3_reduce
I0509 20:58:00.894117 17858 net.cpp:129] Top shape: 50 144 14 14 (1411200)
I0509 20:58:00.894120 17858 net.cpp:137] Memory required for data: 2329515612
I0509 20:58:00.894126 17858 layer_factory.hpp:77] Creating layer inception_4d/relu_3x3_reduce
I0509 20:58:00.894134 17858 net.cpp:84] Creating Layer inception_4d/relu_3x3_reduce
I0509 20:58:00.894138 17858 net.cpp:406] inception_4d/relu_3x3_reduce <- inception_4d/3x3_reduce
I0509 20:58:00.894143 17858 net.cpp:367] inception_4d/relu_3x3_reduce -> inception_4d/3x3_reduce (in-place)
I0509 20:58:00.894531 17858 net.cpp:122] Setting up inception_4d/relu_3x3_reduce
I0509 20:58:00.894542 17858 net.cpp:129] Top shape: 50 144 14 14 (1411200)
I0509 20:58:00.894560 17858 net.cpp:137] Memory required for data: 2335160412
I0509 20:58:00.894564 17858 layer_factory.hpp:77] Creating layer inception_4d/3x3
I0509 20:58:00.894578 17858 net.cpp:84] Creating Layer inception_4d/3x3
I0509 20:58:00.894582 17858 net.cpp:406] inception_4d/3x3 <- inception_4d/3x3_reduce
I0509 20:58:00.894588 17858 net.cpp:380] inception_4d/3x3 -> inception_4d/3x3
I0509 20:58:00.899495 17858 net.cpp:122] Setting up inception_4d/3x3
I0509 20:58:00.899507 17858 net.cpp:129] Top shape: 50 288 14 14 (2822400)
I0509 20:58:00.899510 17858 net.cpp:137] Memory required for data: 2346450012
I0509 20:58:00.899516 17858 layer_factory.hpp:77] Creating layer inception_4d/relu_3x3
I0509 20:58:00.899523 17858 net.cpp:84] Creating Layer inception_4d/relu_3x3
I0509 20:58:00.899526 17858 net.cpp:406] inception_4d/relu_3x3 <- inception_4d/3x3
I0509 20:58:00.899531 17858 net.cpp:367] inception_4d/relu_3x3 -> inception_4d/3x3 (in-place)
I0509 20:58:00.899919 17858 net.cpp:122] Setting up inception_4d/relu_3x3
I0509 20:58:00.899931 17858 net.cpp:129] Top shape: 50 288 14 14 (2822400)
I0509 20:58:00.899933 17858 net.cpp:137] Memory required for data: 2357739612
I0509 20:58:00.899937 17858 layer_factory.hpp:77] Creating layer inception_4d/5x5_reduce
I0509 20:58:00.899946 17858 net.cpp:84] Creating Layer inception_4d/5x5_reduce
I0509 20:58:00.899951 17858 net.cpp:406] inception_4d/5x5_reduce <- inception_4c/output_inception_4c/output_0_split_2
I0509 20:58:00.899957 17858 net.cpp:380] inception_4d/5x5_reduce -> inception_4d/5x5_reduce
I0509 20:58:00.904259 17858 net.cpp:122] Setting up inception_4d/5x5_reduce
I0509 20:58:00.904271 17858 net.cpp:129] Top shape: 50 32 14 14 (313600)
I0509 20:58:00.904274 17858 net.cpp:137] Memory required for data: 2358994012
I0509 20:58:00.904281 17858 layer_factory.hpp:77] Creating layer inception_4d/relu_5x5_reduce
I0509 20:58:00.904287 17858 net.cpp:84] Creating Layer inception_4d/relu_5x5_reduce
I0509 20:58:00.904291 17858 net.cpp:406] inception_4d/relu_5x5_reduce <- inception_4d/5x5_reduce
I0509 20:58:00.904296 17858 net.cpp:367] inception_4d/relu_5x5_reduce -> inception_4d/5x5_reduce (in-place)
I0509 20:58:00.904881 17858 net.cpp:122] Setting up inception_4d/relu_5x5_reduce
I0509 20:58:00.904891 17858 net.cpp:129] Top shape: 50 32 14 14 (313600)
I0509 20:58:00.904893 17858 net.cpp:137] Memory required for data: 2360248412
I0509 20:58:00.904896 17858 layer_factory.hpp:77] Creating layer inception_4d/5x5
I0509 20:58:00.904907 17858 net.cpp:84] Creating Layer inception_4d/5x5
I0509 20:58:00.904911 17858 net.cpp:406] inception_4d/5x5 <- inception_4d/5x5_reduce
I0509 20:58:00.904917 17858 net.cpp:380] inception_4d/5x5 -> inception_4d/5x5
I0509 20:58:00.907243 17858 net.cpp:122] Setting up inception_4d/5x5
I0509 20:58:00.907253 17858 net.cpp:129] Top shape: 50 64 14 14 (627200)
I0509 20:58:00.907255 17858 net.cpp:137] Memory required for data: 2362757212
I0509 20:58:00.907261 17858 layer_factory.hpp:77] Creating layer inception_4d/relu_5x5
I0509 20:58:00.907267 17858 net.cpp:84] Creating Layer inception_4d/relu_5x5
I0509 20:58:00.907272 17858 net.cpp:406] inception_4d/relu_5x5 <- inception_4d/5x5
I0509 20:58:00.907277 17858 net.cpp:367] inception_4d/relu_5x5 -> inception_4d/5x5 (in-place)
I0509 20:58:00.907852 17858 net.cpp:122] Setting up inception_4d/relu_5x5
I0509 20:58:00.907861 17858 net.cpp:129] Top shape: 50 64 14 14 (627200)
I0509 20:58:00.907863 17858 net.cpp:137] Memory required for data: 2365266012
I0509 20:58:00.907867 17858 layer_factory.hpp:77] Creating layer inception_4d/pool
I0509 20:58:00.907873 17858 net.cpp:84] Creating Layer inception_4d/pool
I0509 20:58:00.907877 17858 net.cpp:406] inception_4d/pool <- inception_4c/output_inception_4c/output_0_split_3
I0509 20:58:00.907884 17858 net.cpp:380] inception_4d/pool -> inception_4d/pool
I0509 20:58:00.907927 17858 net.cpp:122] Setting up inception_4d/pool
I0509 20:58:00.907932 17858 net.cpp:129] Top shape: 50 512 14 14 (5017600)
I0509 20:58:00.907934 17858 net.cpp:137] Memory required for data: 2385336412
I0509 20:58:00.907954 17858 layer_factory.hpp:77] Creating layer inception_4d/pool_proj
I0509 20:58:00.907964 17858 net.cpp:84] Creating Layer inception_4d/pool_proj
I0509 20:58:00.907968 17858 net.cpp:406] inception_4d/pool_proj <- inception_4d/pool
I0509 20:58:00.907974 17858 net.cpp:380] inception_4d/pool_proj -> inception_4d/pool_proj
I0509 20:58:00.910162 17858 net.cpp:122] Setting up inception_4d/pool_proj
I0509 20:58:00.910172 17858 net.cpp:129] Top shape: 50 64 14 14 (627200)
I0509 20:58:00.910176 17858 net.cpp:137] Memory required for data: 2387845212
I0509 20:58:00.910181 17858 layer_factory.hpp:77] Creating layer inception_4d/relu_pool_proj
I0509 20:58:00.910187 17858 net.cpp:84] Creating Layer inception_4d/relu_pool_proj
I0509 20:58:00.910190 17858 net.cpp:406] inception_4d/relu_pool_proj <- inception_4d/pool_proj
I0509 20:58:00.910195 17858 net.cpp:367] inception_4d/relu_pool_proj -> inception_4d/pool_proj (in-place)
I0509 20:58:00.910768 17858 net.cpp:122] Setting up inception_4d/relu_pool_proj
I0509 20:58:00.910776 17858 net.cpp:129] Top shape: 50 64 14 14 (627200)
I0509 20:58:00.910779 17858 net.cpp:137] Memory required for data: 2390354012
I0509 20:58:00.910782 17858 layer_factory.hpp:77] Creating layer inception_4d/output
I0509 20:58:00.910792 17858 net.cpp:84] Creating Layer inception_4d/output
I0509 20:58:00.910796 17858 net.cpp:406] inception_4d/output <- inception_4d/1x1
I0509 20:58:00.910800 17858 net.cpp:406] inception_4d/output <- inception_4d/3x3
I0509 20:58:00.910804 17858 net.cpp:406] inception_4d/output <- inception_4d/5x5
I0509 20:58:00.910807 17858 net.cpp:406] inception_4d/output <- inception_4d/pool_proj
I0509 20:58:00.910811 17858 net.cpp:380] inception_4d/output -> inception_4d/output
I0509 20:58:00.910841 17858 net.cpp:122] Setting up inception_4d/output
I0509 20:58:00.910846 17858 net.cpp:129] Top shape: 50 528 14 14 (5174400)
I0509 20:58:00.910849 17858 net.cpp:137] Memory required for data: 2411051612
I0509 20:58:00.910851 17858 layer_factory.hpp:77] Creating layer inception_4d/output_inception_4d/output_0_split
I0509 20:58:00.910859 17858 net.cpp:84] Creating Layer inception_4d/output_inception_4d/output_0_split
I0509 20:58:00.910862 17858 net.cpp:406] inception_4d/output_inception_4d/output_0_split <- inception_4d/output
I0509 20:58:00.910867 17858 net.cpp:380] inception_4d/output_inception_4d/output_0_split -> inception_4d/output_inception_4d/output_0_split_0
I0509 20:58:00.910874 17858 net.cpp:380] inception_4d/output_inception_4d/output_0_split -> inception_4d/output_inception_4d/output_0_split_1
I0509 20:58:00.910879 17858 net.cpp:380] inception_4d/output_inception_4d/output_0_split -> inception_4d/output_inception_4d/output_0_split_2
I0509 20:58:00.910885 17858 net.cpp:380] inception_4d/output_inception_4d/output_0_split -> inception_4d/output_inception_4d/output_0_split_3
I0509 20:58:00.910890 17858 net.cpp:380] inception_4d/output_inception_4d/output_0_split -> inception_4d/output_inception_4d/output_0_split_4
I0509 20:58:00.910950 17858 net.cpp:122] Setting up inception_4d/output_inception_4d/output_0_split
I0509 20:58:00.910955 17858 net.cpp:129] Top shape: 50 528 14 14 (5174400)
I0509 20:58:00.910959 17858 net.cpp:129] Top shape: 50 528 14 14 (5174400)
I0509 20:58:00.910962 17858 net.cpp:129] Top shape: 50 528 14 14 (5174400)
I0509 20:58:00.910965 17858 net.cpp:129] Top shape: 50 528 14 14 (5174400)
I0509 20:58:00.910969 17858 net.cpp:129] Top shape: 50 528 14 14 (5174400)
I0509 20:58:00.910971 17858 net.cpp:137] Memory required for data: 2514539612
I0509 20:58:00.910974 17858 layer_factory.hpp:77] Creating layer loss2/ave_pool
I0509 20:58:00.910979 17858 net.cpp:84] Creating Layer loss2/ave_pool
I0509 20:58:00.910982 17858 net.cpp:406] loss2/ave_pool <- inception_4d/output_inception_4d/output_0_split_0
I0509 20:58:00.910987 17858 net.cpp:380] loss2/ave_pool -> loss2/ave_pool
I0509 20:58:00.913460 17858 net.cpp:122] Setting up loss2/ave_pool
I0509 20:58:00.913471 17858 net.cpp:129] Top shape: 50 528 4 4 (422400)
I0509 20:58:00.913475 17858 net.cpp:137] Memory required for data: 2516229212
I0509 20:58:00.913492 17858 layer_factory.hpp:77] Creating layer loss2/conv
I0509 20:58:00.913502 17858 net.cpp:84] Creating Layer loss2/conv
I0509 20:58:00.913507 17858 net.cpp:406] loss2/conv <- loss2/ave_pool
I0509 20:58:00.913514 17858 net.cpp:380] loss2/conv -> loss2/conv
I0509 20:58:00.915982 17858 net.cpp:122] Setting up loss2/conv
I0509 20:58:00.915992 17858 net.cpp:129] Top shape: 50 128 4 4 (102400)
I0509 20:58:00.915994 17858 net.cpp:137] Memory required for data: 2516638812
I0509 20:58:00.916000 17858 layer_factory.hpp:77] Creating layer loss2/relu_conv
I0509 20:58:00.916007 17858 net.cpp:84] Creating Layer loss2/relu_conv
I0509 20:58:00.916009 17858 net.cpp:406] loss2/relu_conv <- loss2/conv
I0509 20:58:00.916016 17858 net.cpp:367] loss2/relu_conv -> loss2/conv (in-place)
I0509 20:58:00.916605 17858 net.cpp:122] Setting up loss2/relu_conv
I0509 20:58:00.916615 17858 net.cpp:129] Top shape: 50 128 4 4 (102400)
I0509 20:58:00.916618 17858 net.cpp:137] Memory required for data: 2517048412
I0509 20:58:00.916621 17858 layer_factory.hpp:77] Creating layer loss2/fc
I0509 20:58:00.916630 17858 net.cpp:84] Creating Layer loss2/fc
I0509 20:58:00.916632 17858 net.cpp:406] loss2/fc <- loss2/conv
I0509 20:58:00.916640 17858 net.cpp:380] loss2/fc -> loss2/fc
I0509 20:58:00.928599 17858 net.cpp:122] Setting up loss2/fc
I0509 20:58:00.928619 17858 net.cpp:129] Top shape: 50 1024 (51200)
I0509 20:58:00.928622 17858 net.cpp:137] Memory required for data: 2517253212
I0509 20:58:00.928629 17858 layer_factory.hpp:77] Creating layer loss2/relu_fc
I0509 20:58:00.928637 17858 net.cpp:84] Creating Layer loss2/relu_fc
I0509 20:58:00.928642 17858 net.cpp:406] loss2/relu_fc <- loss2/fc
I0509 20:58:00.928649 17858 net.cpp:367] loss2/relu_fc -> loss2/fc (in-place)
I0509 20:58:00.929383 17858 net.cpp:122] Setting up loss2/relu_fc
I0509 20:58:00.929392 17858 net.cpp:129] Top shape: 50 1024 (51200)
I0509 20:58:00.929395 17858 net.cpp:137] Memory required for data: 2517458012
I0509 20:58:00.929399 17858 layer_factory.hpp:77] Creating layer loss2/drop_fc
I0509 20:58:00.929405 17858 net.cpp:84] Creating Layer loss2/drop_fc
I0509 20:58:00.929409 17858 net.cpp:406] loss2/drop_fc <- loss2/fc
I0509 20:58:00.929414 17858 net.cpp:367] loss2/drop_fc -> loss2/fc (in-place)
I0509 20:58:00.929440 17858 net.cpp:122] Setting up loss2/drop_fc
I0509 20:58:00.929445 17858 net.cpp:129] Top shape: 50 1024 (51200)
I0509 20:58:00.929447 17858 net.cpp:137] Memory required for data: 2517662812
I0509 20:58:00.929450 17858 layer_factory.hpp:77] Creating layer loss2/classifier
I0509 20:58:00.929458 17858 net.cpp:84] Creating Layer loss2/classifier
I0509 20:58:00.929461 17858 net.cpp:406] loss2/classifier <- loss2/fc
I0509 20:58:00.929466 17858 net.cpp:380] loss2/classifier -> loss2/classifier
I0509 20:58:00.931200 17858 net.cpp:122] Setting up loss2/classifier
I0509 20:58:00.931207 17858 net.cpp:129] Top shape: 50 196 (9800)
I0509 20:58:00.931210 17858 net.cpp:137] Memory required for data: 2517702012
I0509 20:58:00.931216 17858 layer_factory.hpp:77] Creating layer loss2/classifier_loss2/classifier_0_split
I0509 20:58:00.931223 17858 net.cpp:84] Creating Layer loss2/classifier_loss2/classifier_0_split
I0509 20:58:00.931227 17858 net.cpp:406] loss2/classifier_loss2/classifier_0_split <- loss2/classifier
I0509 20:58:00.931232 17858 net.cpp:380] loss2/classifier_loss2/classifier_0_split -> loss2/classifier_loss2/classifier_0_split_0
I0509 20:58:00.931241 17858 net.cpp:380] loss2/classifier_loss2/classifier_0_split -> loss2/classifier_loss2/classifier_0_split_1
I0509 20:58:00.931246 17858 net.cpp:380] loss2/classifier_loss2/classifier_0_split -> loss2/classifier_loss2/classifier_0_split_2
I0509 20:58:00.931288 17858 net.cpp:122] Setting up loss2/classifier_loss2/classifier_0_split
I0509 20:58:00.931293 17858 net.cpp:129] Top shape: 50 196 (9800)
I0509 20:58:00.931295 17858 net.cpp:129] Top shape: 50 196 (9800)
I0509 20:58:00.931298 17858 net.cpp:129] Top shape: 50 196 (9800)
I0509 20:58:00.931300 17858 net.cpp:137] Memory required for data: 2517819612
I0509 20:58:00.931322 17858 layer_factory.hpp:77] Creating layer loss2/loss
I0509 20:58:00.931330 17858 net.cpp:84] Creating Layer loss2/loss
I0509 20:58:00.931334 17858 net.cpp:406] loss2/loss <- loss2/classifier_loss2/classifier_0_split_0
I0509 20:58:00.931339 17858 net.cpp:406] loss2/loss <- label_val-data_1_split_3
…
I0509 20:58:00.931900 17858 net.cpp:122] Setting up loss2/top-5
I0509 20:58:00.931905 17858 net.cpp:129] Top shape: (1)
I0509 20:58:00.931906 17858 net.cpp:137] Memory required for data: 2517819624
I0509 20:58:00.931910 17858 layer_factory.hpp:77] Creating layer inception_4e/1x1
I0509 20:58:00.931918 17858 net.cpp:84] Creating Layer inception_4e/1x1
I0509 20:58:00.931921 17858 net.cpp:406] inception_4e/1x1 <- inception_4d/output_inception_4d/output_0_split_1
I0509 20:58:00.931927 17858 net.cpp:380] inception_4e/1x1 -> inception_4e/1x1
I0509 20:58:00.934820 17858 net.cpp:122] Setting up inception_4e/1x1
I0509 20:58:00.934830 17858 net.cpp:129] Top shape: 50 256 14 14 (2508800)
I0509 20:58:00.934834 17858 net.cpp:137] Memory required for data: 2527854824
I0509 20:58:00.934839 17858 layer_factory.hpp:77] Creating layer inception_4e/relu_1x1
I0509 20:58:00.934847 17858 net.cpp:84] Creating Layer inception_4e/relu_1x1
I0509 20:58:00.934850 17858 net.cpp:406] inception_4e/relu_1x1 <- inception_4e/1x1
I0509 20:58:00.934855 17858 net.cpp:367] inception_4e/relu_1x1 -> inception_4e/1x1 (in-place)
I0509 20:58:00.937240 17858 net.cpp:122] Setting up inception_4e/relu_1x1
I0509 20:58:00.937252 17858 net.cpp:129] Top shape: 50 256 14 14 (2508800)
I0509 20:58:00.937255 17858 net.cpp:137] Memory required for data: 2537890024
I0509 20:58:00.937258 17858 layer_factory.hpp:77] Creating layer inception_4e/3x3_reduce
I0509 20:58:00.937299 17858 net.cpp:84] Creating Layer inception_4e/3x3_reduce
I0509 20:58:00.937304 17858 net.cpp:406] inception_4e/3x3_reduce <- inception_4d/output_inception_4d/output_0_split_2
I0509 20:58:00.937311 17858 net.cpp:380] inception_4e/3x3_reduce -> inception_4e/3x3_reduce
I0509 20:58:00.939940 17858 net.cpp:122] Setting up inception_4e/3x3_reduce
I0509 20:58:00.939950 17858 net.cpp:129] Top shape: 50 160 14 14 (1568000)
I0509 20:58:00.939954 17858 net.cpp:137] Memory required for data: 2544162024
I0509 20:58:00.939960 17858 layer_factory.hpp:77] Creating layer inception_4e/relu_3x3_reduce
I0509 20:58:00.939966 17858 net.cpp:84] Creating Layer inception_4e/relu_3x3_reduce
I0509 20:58:00.939970 17858 net.cpp:406] inception_4e/relu_3x3_reduce <- inception_4e/3x3_reduce
I0509 20:58:00.939977 17858 net.cpp:367] inception_4e/relu_3x3_reduce -> inception_4e/3x3_reduce (in-place)
I0509 20:58:00.940562 17858 net.cpp:122] Setting up inception_4e/relu_3x3_reduce
I0509 20:58:00.940589 17858 net.cpp:129] Top shape: 50 160 14 14 (1568000)
I0509 20:58:00.940593 17858 net.cpp:137] Memory required for data: 2550434024
I0509 20:58:00.940595 17858 layer_factory.hpp:77] Creating layer inception_4e/3x3
I0509 20:58:00.940605 17858 net.cpp:84] Creating Layer inception_4e/3x3
I0509 20:58:00.940609 17858 net.cpp:406] inception_4e/3x3 <- inception_4e/3x3_reduce
I0509 20:58:00.940616 17858 net.cpp:380] inception_4e/3x3 -> inception_4e/3x3
I0509 20:58:00.945684 17858 net.cpp:122] Setting up inception_4e/3x3
I0509 20:58:00.945698 17858 net.cpp:129] Top shape: 50 320 14 14 (3136000)
I0509 20:58:00.945701 17858 net.cpp:137] Memory required for data: 2562978024
I0509 20:58:00.945708 17858 layer_factory.hpp:77] Creating layer inception_4e/relu_3x3
I0509 20:58:00.945715 17858 net.cpp:84] Creating Layer inception_4e/relu_3x3
I0509 20:58:00.945719 17858 net.cpp:406] inception_4e/relu_3x3 <- inception_4e/3x3
I0509 20:58:00.945724 17858 net.cpp:367] inception_4e/relu_3x3 -> inception_4e/3x3 (in-place)
I0509 20:58:00.946296 17858 net.cpp:122] Setting up inception_4e/relu_3x3
I0509 20:58:00.946306 17858 net.cpp:129] Top shape: 50 320 14 14 (3136000)
I0509 20:58:00.946308 17858 net.cpp:137] Memory required for data: 2575522024
I0509 20:58:00.946311 17858 layer_factory.hpp:77] Creating layer inception_4e/5x5_reduce
I0509 20:58:00.946322 17858 net.cpp:84] Creating Layer inception_4e/5x5_reduce
I0509 20:58:00.946326 17858 net.cpp:406] inception_4e/5x5_reduce <- inception_4d/output_inception_4d/output_0_split_3
I0509 20:58:00.946334 17858 net.cpp:380] inception_4e/5x5_reduce -> inception_4e/5x5_reduce
I0509 20:58:00.950301 17858 net.cpp:122] Setting up inception_4e/5x5_reduce
I0509 20:58:00.950316 17858 net.cpp:129] Top shape: 50 32 14 14 (313600)
I0509 20:58:00.950320 17858 net.cpp:137] Memory required for data: 2576776424
I0509 20:58:00.950326 17858 layer_factory.hpp:77] Creating layer inception_4e/relu_5x5_reduce
I0509 20:58:00.950333 17858 net.cpp:84] Creating Layer inception_4e/relu_5x5_reduce
I0509 20:58:00.950338 17858 net.cpp:406] inception_4e/relu_5x5_reduce <- inception_4e/5x5_reduce
I0509 20:58:00.950343 17858 net.cpp:367] inception_4e/relu_5x5_reduce -> inception_4e/5x5_reduce (in-place)
I0509 20:58:00.950928 17858 net.cpp:122] Setting up inception_4e/relu_5x5_reduce
I0509 20:58:00.950937 17858 net.cpp:129] Top shape: 50 32 14 14 (313600)
I0509 20:58:00.950940 17858 net.cpp:137] Memory required for data: 2578030824
I0509 20:58:00.950943 17858 layer_factory.hpp:77] Creating layer inception_4e/5x5
I0509 20:58:00.950954 17858 net.cpp:84] Creating Layer inception_4e/5x5
I0509 20:58:00.950958 17858 net.cpp:406] inception_4e/5x5 <- inception_4e/5x5_reduce
I0509 20:58:00.950965 17858 net.cpp:380] inception_4e/5x5 -> inception_4e/5x5
I0509 20:58:00.953863 17858 net.cpp:122] Setting up inception_4e/5x5
I0509 20:58:00.953873 17858 net.cpp:129] Top shape: 50 128 14 14 (1254400)
I0509 20:58:00.953876 17858 net.cpp:137] Memory required for data: 2583048424
I0509 20:58:00.953882 17858 layer_factory.hpp:77] Creating layer inception_4e/relu_5x5
I0509 20:58:00.953888 17858 net.cpp:84] Creating Layer inception_4e/relu_5x5
I0509 20:58:00.953892 17858 net.cpp:406] inception_4e/relu_5x5 <- inception_4e/5x5
I0509 20:58:00.953898 17858 net.cpp:367] inception_4e/relu_5x5 -> inception_4e/5x5 (in-place)
I0509 20:58:00.954296 17858 net.cpp:122] Setting up inception_4e/relu_5x5
I0509 20:58:00.954305 17858 net.cpp:129] Top shape: 50 128 14 14 (1254400)
I0509 20:58:00.954308 17858 net.cpp:137] Memory required for data: 2588066024
I0509 20:58:00.954311 17858 layer_factory.hpp:77] Creating layer inception_4e/pool
I0509 20:58:00.954318 17858 net.cpp:84] Creating Layer inception_4e/pool
I0509 20:58:00.954321 17858 net.cpp:406] inception_4e/pool <- inception_4d/output_inception_4d/output_0_split_4
I0509 20:58:00.954329 17858 net.cpp:380] inception_4e/pool -> inception_4e/pool
I0509 20:58:00.954375 17858 net.cpp:122] Setting up inception_4e/pool
I0509 20:58:00.954380 17858 net.cpp:129] Top shape: 50 528 14 14 (5174400)
I0509 20:58:00.954402 17858 net.cpp:137] Memory required for data: 2608763624
I0509 20:58:00.954406 17858 layer_factory.hpp:77] Creating layer inception_4e/pool_proj
I0509 20:58:00.954414 17858 net.cpp:84] Creating Layer inception_4e/pool_proj
I0509 20:58:00.954419 17858 net.cpp:406] inception_4e/pool_proj <- inception_4e/pool
I0509 20:58:00.954425 17858 net.cpp:380] inception_4e/pool_proj -> inception_4e/pool_proj
I0509 20:58:00.957661 17858 net.cpp:122] Setting up inception_4e/pool_proj
I0509 20:58:00.957671 17858 net.cpp:129] Top shape: 50 128 14 14 (1254400)
I0509 20:58:00.957674 17858 net.cpp:137] Memory required for data: 2613781224
I0509 20:58:00.957680 17858 layer_factory.hpp:77] Creating layer inception_4e/relu_pool_proj
I0509 20:58:00.957686 17858 net.cpp:84] Creating Layer inception_4e/relu_pool_proj
I0509 20:58:00.957690 17858 net.cpp:406] inception_4e/relu_pool_proj <- inception_4e/pool_proj
I0509 20:58:00.957696 17858 net.cpp:367] inception_4e/relu_pool_proj -> inception_4e/pool_proj (in-place)
I0509 20:58:00.960101 17858 net.cpp:122] Setting up inception_4e/relu_pool_proj
I0509 20:58:00.960111 17858 net.cpp:129] Top shape: 50 128 14 14 (1254400)
I0509 20:58:00.960114 17858 net.cpp:137] Memory required for data: 2618798824
I0509 20:58:00.960119 17858 layer_factory.hpp:77] Creating layer inception_4e/output
I0509 20:58:00.960124 17858 net.cpp:84] Creating Layer inception_4e/output
I0509 20:58:00.960129 17858 net.cpp:406] inception_4e/output <- inception_4e/1x1
I0509 20:58:00.960134 17858 net.cpp:406] inception_4e/output <- inception_4e/3x3
I0509 20:58:00.960136 17858 net.cpp:406] inception_4e/output <- inception_4e/5x5
I0509 20:58:00.960140 17858 net.cpp:406] inception_4e/output <- inception_4e/pool_proj
I0509 20:58:00.960146 17858 net.cpp:380] inception_4e/output -> inception_4e/output
I0509 20:58:00.960176 17858 net.cpp:122] Setting up inception_4e/output
I0509 20:58:00.960181 17858 net.cpp:129] Top shape: 50 832 14 14 (8153600)
I0509 20:58:00.960184 17858 net.cpp:137] Memory required for data: 2651413224
I0509 20:58:00.960186 17858 layer_factory.hpp:77] Creating layer pool4/3x3_s2
I0509 20:58:00.960192 17858 net.cpp:84] Creating Layer pool4/3x3_s2
I0509 20:58:00.960196 17858 net.cpp:406] pool4/3x3_s2 <- inception_4e/output
I0509 20:58:00.960201 17858 net.cpp:380] pool4/3x3_s2 -> pool4/3x3_s2
I0509 20:58:00.960235 17858 net.cpp:122] Setting up pool4/3x3_s2
I0509 20:58:00.960240 17858 net.cpp:129] Top shape: 50 832 7 7 (2038400)
I0509 20:58:00.960242 17858 net.cpp:137] Memory required for data: 2659566824
I0509 20:58:00.960245 17858 layer_factory.hpp:77] Creating layer pool4/3x3_s2_pool4/3x3_s2_0_split
I0509 20:58:00.960252 17858 net.cpp:84] Creating Layer pool4/3x3_s2_pool4/3x3_s2_0_split
I0509 20:58:00.960254 17858 net.cpp:406] pool4/3x3_s2_pool4/3x3_s2_0_split <- pool4/3x3_s2
I0509 20:58:00.960259 17858 net.cpp:380] pool4/3x3_s2_pool4/3x3_s2_0_split -> pool4/3x3_s2_pool4/3x3_s2_0_split_0
I0509 20:58:00.960266 17858 net.cpp:380] pool4/3x3_s2_pool4/3x3_s2_0_split -> pool4/3x3_s2_pool4/3x3_s2_0_split_1
I0509 20:58:00.960271 17858 net.cpp:380] pool4/3x3_s2_pool4/3x3_s2_0_split -> pool4/3x3_s2_pool4/3x3_s2_0_split_2
I0509 20:58:00.960299 17858 net.cpp:380] pool4/3x3_s2_pool4/3x3_s2_0_split -> pool4/3x3_s2_pool4/3x3_s2_0_split_3
I0509 20:58:00.960345 17858 net.cpp:122] Setting up pool4/3x3_s2_pool4/3x3_s2_0_split
I0509 20:58:00.960350 17858 net.cpp:129] Top shape: 50 832 7 7 (2038400)
I0509 20:58:00.960352 17858 net.cpp:129] Top shape: 50 832 7 7 (2038400)
I0509 20:58:00.960356 17858 net.cpp:129] Top shape: 50 832 7 7 (2038400)
I0509 20:58:00.960359 17858 net.cpp:129] Top shape: 50 832 7 7 (2038400)
I0509 20:58:00.960362 17858 net.cpp:137] Memory required for data: 2692181224
I0509 20:58:00.960364 17858 layer_factory.hpp:77] Creating layer inception_5a/1x1
I0509 20:58:00.960372 17858 net.cpp:84] Creating Layer inception_5a/1x1
I0509 20:58:00.960376 17858 net.cpp:406] inception_5a/1x1 <- pool4/3x3_s2_pool4/3x3_s2_0_split_0
I0509 20:58:00.960382 17858 net.cpp:380] inception_5a/1x1 -> inception_5a/1x1
I0509 20:58:00.963456 17858 net.cpp:122] Setting up inception_5a/1x1
I0509 20:58:00.963469 17858 net.cpp:129] Top shape: 50 256 7 7 (627200)
I0509 20:58:00.963471 17858 net.cpp:137] Memory required for data: 2694690024
I0509 20:58:00.963477 17858 layer_factory.hpp:77] Creating layer inception_5a/relu_1x1
I0509 20:58:00.963483 17858 net.cpp:84] Creating Layer inception_5a/relu_1x1
I0509 20:58:00.963487 17858 net.cpp:406] inception_5a/relu_1x1 <- inception_5a/1x1
I0509 20:58:00.963492 17858 net.cpp:367] inception_5a/relu_1x1 -> inception_5a/1x1 (in-place)
I0509 20:58:00.964067 17858 net.cpp:122] Setting up inception_5a/relu_1x1
I0509 20:58:00.964076 17858 net.cpp:129] Top shape: 50 256 7 7 (627200)
I0509 20:58:00.964079 17858 net.cpp:137] Memory required for data: 2697198824
I0509 20:58:00.964082 17858 layer_factory.hpp:77] Creating layer inception_5a/3x3_reduce
I0509 20:58:00.964092 17858 net.cpp:84] Creating Layer inception_5a/3x3_reduce
I0509 20:58:00.964095 17858 net.cpp:406] inception_5a/3x3_reduce <- pool4/3x3_s2_pool4/3x3_s2_0_split_1
I0509 20:58:00.964102 17858 net.cpp:380] inception_5a/3x3_reduce -> inception_5a/3x3_reduce
I0509 20:58:00.966974 17858 net.cpp:122] Setting up inception_5a/3x3_reduce
I0509 20:58:00.966984 17858 net.cpp:129] Top shape: 50 160 7 7 (392000)
I0509 20:58:00.966986 17858 net.cpp:137] Memory required for data: 2698766824
I0509 20:58:00.966992 17858 layer_factory.hpp:77] Creating layer inception_5a/relu_3x3_reduce
I0509 20:58:00.967000 17858 net.cpp:84] Creating Layer inception_5a/relu_3x3_reduce
I0509 20:58:00.967003 17858 net.cpp:406] inception_5a/relu_3x3_reduce <- inception_5a/3x3_reduce
I0509 20:58:00.967007 17858 net.cpp:367] inception_5a/relu_3x3_reduce -> inception_5a/3x3_reduce (in-place)
I0509 20:58:00.967581 17858 net.cpp:122] Setting up inception_5a/relu_3x3_reduce
I0509 20:58:00.967589 17858 net.cpp:129] Top shape: 50 160 7 7 (392000)
I0509 20:58:00.967592 17858 net.cpp:137] Memory required for data: 2700334824
I0509 20:58:00.967595 17858 layer_factory.hpp:77] Creating layer inception_5a/3x3
I0509 20:58:00.967604 17858 net.cpp:84] Creating Layer inception_5a/3x3
I0509 20:58:00.967608 17858 net.cpp:406] inception_5a/3x3 <- inception_5a/3x3_reduce
I0509 20:58:00.967615 17858 net.cpp:380] inception_5a/3x3 -> inception_5a/3x3
I0509 20:58:00.974618 17858 net.cpp:122] Setting up inception_5a/3x3
I0509 20:58:00.974635 17858 net.cpp:129] Top shape: 50 320 7 7 (784000)
I0509 20:58:00.974638 17858 net.cpp:137] Memory required for data: 2703470824
I0509 20:58:00.974645 17858 layer_factory.hpp:77] Creating layer inception_5a/relu_3x3
I0509 20:58:00.974653 17858 net.cpp:84] Creating Layer inception_5a/relu_3x3
I0509 20:58:00.974658 17858 net.cpp:406] inception_5a/relu_3x3 <- inception_5a/3x3
I0509 20:58:00.974663 17858 net.cpp:367] inception_5a/relu_3x3 -> inception_5a/3x3 (in-place)
I0509 20:58:00.975242 17858 net.cpp:122] Setting up inception_5a/relu_3x3
I0509 20:58:00.975251 17858 net.cpp:129] Top shape: 50 320 7 7 (784000)
I0509 20:58:00.975255 17858 net.cpp:137] Memory required for data: 2706606824
I0509 20:58:00.975257 17858 layer_factory.hpp:77] Creating layer inception_5a/5x5_reduce
I0509 20:58:00.975268 17858 net.cpp:84] Creating Layer inception_5a/5x5_reduce
I0509 20:58:00.975272 17858 net.cpp:406] inception_5a/5x5_reduce <- pool4/3x3_s2_pool4/3x3_s2_0_split_2
I0509 20:58:00.975280 17858 net.cpp:380] inception_5a/5x5_reduce -> inception_5a/5x5_reduce
I0509 20:58:00.977655 17858 net.cpp:122] Setting up inception_5a/5x5_reduce
I0509 20:58:00.977665 17858 net.cpp:129] Top shape: 50 32 7 7 (78400)
I0509 20:58:00.977669 17858 net.cpp:137] Memory required for data: 2706920424
I0509 20:58:00.977674 17858 layer_factory.hpp:77] Creating layer inception_5a/relu_5x5_reduce
I0509 20:58:00.977681 17858 net.cpp:84] Creating Layer inception_5a/relu_5x5_reduce
I0509 20:58:00.977685 17858 net.cpp:406] inception_5a/relu_5x5_reduce <- inception_5a/5x5_reduce
I0509 20:58:00.977690 17858 net.cpp:367] inception_5a/relu_5x5_reduce -> inception_5a/5x5_reduce (in-place)
I0509 20:58:00.978096 17858 net.cpp:122] Setting up inception_5a/relu_5x5_reduce
I0509 20:58:00.978104 17858 net.cpp:129] Top shape: 50 32 7 7 (78400)
I0509 20:58:00.978106 17858 net.cpp:137] Memory required for data: 2707234024
I0509 20:58:00.978111 17858 layer_factory.hpp:77] Creating layer inception_5a/5x5
I0509 20:58:00.978119 17858 net.cpp:84] Creating Layer inception_5a/5x5
I0509 20:58:00.978123 17858 net.cpp:406] inception_5a/5x5 <- inception_5a/5x5_reduce
I0509 20:58:00.978130 17858 net.cpp:380] inception_5a/5x5 -> inception_5a/5x5
I0509 20:58:00.981027 17858 net.cpp:122] Setting up inception_5a/5x5
I0509 20:58:00.981037 17858 net.cpp:129] Top shape: 50 128 7 7 (313600)
I0509 20:58:00.981040 17858 net.cpp:137] Memory required for data: 2708488424
I0509 20:58:00.981047 17858 layer_factory.hpp:77] Creating layer inception_5a/relu_5x5
I0509 20:58:00.981055 17858 net.cpp:84] Creating Layer inception_5a/relu_5x5
I0509 20:58:00.981058 17858 net.cpp:406] inception_5a/relu_5x5 <- inception_5a/5x5
I0509 20:58:00.981063 17858 net.cpp:367] inception_5a/relu_5x5 -> inception_5a/5x5 (in-place)
I0509 20:58:00.983474 17858 net.cpp:122] Setting up inception_5a/relu_5x5
I0509 20:58:00.983484 17858 net.cpp:129] Top shape: 50 128 7 7 (313600)
I0509 20:58:00.983487 17858 net.cpp:137] Memory required for data: 2709742824
I0509 20:58:00.983490 17858 layer_factory.hpp:77] Creating layer inception_5a/pool
I0509 20:58:00.983500 17858 net.cpp:84] Creating Layer inception_5a/pool
I0509 20:58:00.983505 17858 net.cpp:406] inception_5a/pool <- pool4/3x3_s2_pool4/3x3_s2_0_split_3
I0509 20:58:00.983512 17858 net.cpp:380] inception_5a/pool -> inception_5a/pool
I0509 20:58:00.983558 17858 net.cpp:122] Setting up inception_5a/pool
I0509 20:58:00.983564 17858 net.cpp:129] Top shape: 50 832 7 7 (2038400)
I0509 20:58:00.983566 17858 net.cpp:137] Memory required for data: 2717896424
I0509 20:58:00.983569 17858 layer_factory.hpp:77] Creating layer inception_5a/pool_proj
I0509 20:58:00.983578 17858 net.cpp:84] Creating Layer inception_5a/pool_proj
I0509 20:58:00.983582 17858 net.cpp:406] inception_5a/pool_proj <- inception_5a/pool
I0509 20:58:00.983588 17858 net.cpp:380] inception_5a/pool_proj -> inception_5a/pool_proj
I0509 20:58:00.986878 17858 net.cpp:122] Setting up inception_5a/pool_proj
I0509 20:58:00.986888 17858 net.cpp:129] Top shape: 50 128 7 7 (313600)
I0509 20:58:00.986891 17858 net.cpp:137] Memory required for data: 2719150824
I0509 20:58:00.986897 17858 layer_factory.hpp:77] Creating layer inception_5a/relu_pool_proj
I0509 20:58:00.986905 17858 net.cpp:84] Creating Layer inception_5a/relu_pool_proj
I0509 20:58:00.986909 17858 net.cpp:406] inception_5a/relu_pool_proj <- inception_5a/pool_proj
I0509 20:58:00.986914 17858 net.cpp:367] inception_5a/relu_pool_proj -> inception_5a/pool_proj (in-place)
I0509 20:58:00.987493 17858 net.cpp:122] Setting up inception_5a/relu_pool_proj
I0509 20:58:00.987502 17858 net.cpp:129] Top shape: 50 128 7 7 (313600)
I0509 20:58:00.987505 17858 net.cpp:137] Memory required for data: 2720405224
I0509 20:58:00.987509 17858 layer_factory.hpp:77] Creating layer inception_5a/output
I0509 20:58:00.987515 17858 net.cpp:84] Creating Layer inception_5a/output
I0509 20:58:00.987519 17858 net.cpp:406] inception_5a/output <- inception_5a/1x1
I0509 20:58:00.987524 17858 net.cpp:406] inception_5a/output <- inception_5a/3x3
I0509 20:58:00.987527 17858 net.cpp:406] inception_5a/output <- inception_5a/5x5
I0509 20:58:00.987531 17858 net.cpp:406] inception_5a/output <- inception_5a/pool_proj
I0509 20:58:00.987535 17858 net.cpp:380] inception_5a/output -> inception_5a/output
I0509 20:58:00.987565 17858 net.cpp:122] Setting up inception_5a/output
I0509 20:58:00.987569 17858 net.cpp:129] Top shape: 50 832 7 7 (2038400)
I0509 20:58:00.987572 17858 net.cpp:137] Memory required for data: 2728558824
I0509 20:58:00.987574 17858 layer_factory.hpp:77] Creating layer inception_5a/output_inception_5a/output_0_split
I0509 20:58:00.987581 17858 net.cpp:84] Creating Layer inception_5a/output_inception_5a/output_0_split
I0509 20:58:00.987584 17858 net.cpp:406] inception_5a/output_inception_5a/output_0_split <- inception_5a/output
I0509 20:58:00.987607 17858 net.cpp:380] inception_5a/output_inception_5a/output_0_split -> inception_5a/output_inception_5a/output_0_split_0
I0509 20:58:00.987613 17858 net.cpp:380] inception_5a/output_inception_5a/output_0_split -> inception_5a/output_inception_5a/output_0_split_1
I0509 20:58:00.987619 17858 net.cpp:380] inception_5a/output_inception_5a/output_0_split -> inception_5a/output_inception_5a/output_0_split_2
I0509 20:58:00.987624 17858 net.cpp:380] inception_5a/output_inception_5a/output_0_split -> inception_5a/output_inception_5a/output_0_split_3
I0509 20:58:00.987679 17858 net.cpp:122] Setting up inception_5a/output_inception_5a/output_0_split
I0509 20:58:00.987684 17858 net.cpp:129] Top shape: 50 832 7 7 (2038400)
I0509 20:58:00.987687 17858 net.cpp:129] Top shape: 50 832 7 7 (2038400)
I0509 20:58:00.987690 17858 net.cpp:129] Top shape: 50 832 7 7 (2038400)
I0509 20:58:00.987694 17858 net.cpp:129] Top shape: 50 832 7 7 (2038400)
I0509 20:58:00.987696 17858 net.cpp:137] Memory required for data: 2761173224
I0509 20:58:00.987699 17858 layer_factory.hpp:77] Creating layer inception_5b/1x1
I0509 20:58:00.987707 17858 net.cpp:84] Creating Layer inception_5b/1x1
I0509 20:58:00.987711 17858 net.cpp:406] inception_5b/1x1 <- inception_5a/output_inception_5a/output_0_split_0
I0509 20:58:00.987717 17858 net.cpp:380] inception_5b/1x1 -> inception_5b/1x1
I0509 20:58:00.991240 17858 net.cpp:122] Setting up inception_5b/1x1
I0509 20:58:00.991250 17858 net.cpp:129] Top shape: 50 384 7 7 (940800)
I0509 20:58:00.991253 17858 net.cpp:137] Memory required for data: 2764936424
I0509 20:58:00.991259 17858 layer_factory.hpp:77] Creating layer inception_5b/relu_1x1
I0509 20:58:00.991266 17858 net.cpp:84] Creating Layer inception_5b/relu_1x1
I0509 20:58:00.991268 17858 net.cpp:406] inception_5b/relu_1x1 <- inception_5b/1x1
I0509 20:58:00.991273 17858 net.cpp:367] inception_5b/relu_1x1 -> inception_5b/1x1 (in-place)
I0509 20:58:00.991852 17858 net.cpp:122] Setting up inception_5b/relu_1x1
I0509 20:58:00.991861 17858 net.cpp:129] Top shape: 50 384 7 7 (940800)
I0509 20:58:00.991863 17858 net.cpp:137] Memory required for data: 2768699624
I0509 20:58:00.991868 17858 layer_factory.hpp:77] Creating layer inception_5b/3x3_reduce
I0509 20:58:00.991881 17858 net.cpp:84] Creating Layer inception_5b/3x3_reduce
I0509 20:58:00.991885 17858 net.cpp:406] inception_5b/3x3_reduce <- inception_5a/output_inception_5a/output_0_split_1
I0509 20:58:00.991891 17858 net.cpp:380] inception_5b/3x3_reduce -> inception_5b/3x3_reduce
I0509 20:58:00.997445 17858 net.cpp:122] Setting up inception_5b/3x3_reduce
I0509 20:58:00.997462 17858 net.cpp:129] Top shape: 50 192 7 7 (470400)
I0509 20:58:00.997464 17858 net.cpp:137] Memory required for data: 2770581224
I0509 20:58:00.997471 17858 layer_factory.hpp:77] Creating layer inception_5b/relu_3x3_reduce
I0509 20:58:00.997480 17858 net.cpp:84] Creating Layer inception_5b/relu_3x3_reduce
I0509 20:58:00.997485 17858 net.cpp:406] inception_5b/relu_3x3_reduce <- inception_5b/3x3_reduce
I0509 20:58:00.997491 17858 net.cpp:367] inception_5b/relu_3x3_reduce -> inception_5b/3x3_reduce (in-place)
I0509 20:58:00.998103 17858 net.cpp:122] Setting up inception_5b/relu_3x3_reduce
I0509 20:58:00.998113 17858 net.cpp:129] Top shape: 50 192 7 7 (470400)
I0509 20:58:00.998116 17858 net.cpp:137] Memory required for data: 2772462824
I0509 20:58:00.998119 17858 layer_factory.hpp:77] Creating layer inception_5b/3x3
I0509 20:58:00.998131 17858 net.cpp:84] Creating Layer inception_5b/3x3
I0509 20:58:00.998136 17858 net.cpp:406] inception_5b/3x3 <- inception_5b/3x3_reduce
I0509 20:58:00.998142 17858 net.cpp:380] inception_5b/3x3 -> inception_5b/3x3
I0509 20:58:01.004549 17858 net.cpp:122] Setting up inception_5b/3x3
I0509 20:58:01.004561 17858 net.cpp:129] Top shape: 50 384 7 7 (940800)
I0509 20:58:01.004565 17858 net.cpp:137] Memory required for data: 2776226024
I0509 20:58:01.004572 17858 layer_factory.hpp:77] Creating layer inception_5b/relu_3x3
I0509 20:58:01.004599 17858 net.cpp:84] Creating Layer inception_5b/relu_3x3
I0509 20:58:01.004604 17858 net.cpp:406] inception_5b/relu_3x3 <- inception_5b/3x3
I0509 20:58:01.004611 17858 net.cpp:367] inception_5b/relu_3x3 -> inception_5b/3x3 (in-place)
I0509 20:58:01.005005 17858 net.cpp:122] Setting up inception_5b/relu_3x3
I0509 20:58:01.005014 17858 net.cpp:129] Top shape: 50 384 7 7 (940800)
I0509 20:58:01.005017 17858 net.cpp:137] Memory required for data: 2779989224
I0509 20:58:01.005020 17858 layer_factory.hpp:77] Creating layer inception_5b/5x5_reduce
I0509 20:58:01.005031 17858 net.cpp:84] Creating Layer inception_5b/5x5_reduce
I0509 20:58:01.005035 17858 net.cpp:406] inception_5b/5x5_reduce <- inception_5a/output_inception_5a/output_0_split_2
I0509 20:58:01.005043 17858 net.cpp:380] inception_5b/5x5_reduce -> inception_5b/5x5_reduce
I0509 20:58:01.008070 17858 net.cpp:122] Setting up inception_5b/5x5_reduce
I0509 20:58:01.008080 17858 net.cpp:129] Top shape: 50 48 7 7 (117600)
I0509 20:58:01.008083 17858 net.cpp:137] Memory required for data: 2780459624
I0509 20:58:01.008090 17858 layer_factory.hpp:77] Creating layer inception_5b/relu_5x5_reduce
I0509 20:58:01.008096 17858 net.cpp:84] Creating Layer inception_5b/relu_5x5_reduce
I0509 20:58:01.008100 17858 net.cpp:406] inception_5b/relu_5x5_reduce <- inception_5b/5x5_reduce
I0509 20:58:01.008106 17858 net.cpp:367] inception_5b/relu_5x5_reduce -> inception_5b/5x5_reduce (in-place)
I0509 20:58:01.008510 17858 net.cpp:122] Setting up inception_5b/relu_5x5_reduce
I0509 20:58:01.008519 17858 net.cpp:129] Top shape: 50 48 7 7 (117600)
I0509 20:58:01.008522 17858 net.cpp:137] Memory required for data: 2780930024
I0509 20:58:01.008525 17858 layer_factory.hpp:77] Creating layer inception_5b/5x5
I0509 20:58:01.008535 17858 net.cpp:84] Creating Layer inception_5b/5x5
I0509 20:58:01.008539 17858 net.cpp:406] inception_5b/5x5 <- inception_5b/5x5_reduce
I0509 20:58:01.008546 17858 net.cpp:380] inception_5b/5x5 -> inception_5b/5x5
I0509 20:58:01.016094 17858 net.cpp:122] Setting up inception_5b/5x5
I0509 20:58:01.016114 17858 net.cpp:129] Top shape: 50 128 7 7 (313600)
I0509 20:58:01.016117 17858 net.cpp:137] Memory required for data: 2782184424
I0509 20:58:01.016129 17858 layer_factory.hpp:77] Creating layer inception_5b/relu_5x5
I0509 20:58:01.016139 17858 net.cpp:84] Creating Layer inception_5b/relu_5x5
I0509 20:58:01.016145 17858 net.cpp:406] inception_5b/relu_5x5 <- inception_5b/5x5
I0509 20:58:01.016151 17858 net.cpp:367] inception_5b/relu_5x5 -> inception_5b/5x5 (in-place)
I0509 20:58:01.016758 17858 net.cpp:122] Setting up inception_5b/relu_5x5
I0509 20:58:01.016769 17858 net.cpp:129] Top shape: 50 128 7 7 (313600)
I0509 20:58:01.016772 17858 net.cpp:137] Memory required for data: 2783438824
I0509 20:58:01.016775 17858 layer_factory.hpp:77] Creating layer inception_5b/pool
I0509 20:58:01.016782 17858 net.cpp:84] Creating Layer inception_5b/pool
I0509 20:58:01.016786 17858 net.cpp:406] inception_5b/pool <- inception_5a/output_inception_5a/output_0_split_3
I0509 20:58:01.016793 17858 net.cpp:380] inception_5b/pool -> inception_5b/pool
I0509 20:58:01.016837 17858 net.cpp:122] Setting up inception_5b/pool
I0509 20:58:01.016844 17858 net.cpp:129] Top shape: 50 832 7 7 (2038400)
I0509 20:58:01.016847 17858 net.cpp:137] Memory required for data: 2791592424
I0509 20:58:01.016850 17858 layer_factory.hpp:77] Creating layer inception_5b/pool_proj
I0509 20:58:01.016860 17858 net.cpp:84] Creating Layer inception_5b/pool_proj
I0509 20:58:01.016865 17858 net.cpp:406] inception_5b/pool_proj <- inception_5b/pool
I0509 20:58:01.016870 17858 net.cpp:380] inception_5b/pool_proj -> inception_5b/pool_proj
I0509 20:58:01.019484 17858 net.cpp:122] Setting up inception_5b/pool_proj
I0509 20:58:01.019495 17858 net.cpp:129] Top shape: 50 128 7 7 (313600)
I0509 20:58:01.019497 17858 net.cpp:137] Memory required for data: 2792846824
I0509 20:58:01.019503 17858 layer_factory.hpp:77] Creating layer inception_5b/relu_pool_proj
I0509 20:58:01.019510 17858 net.cpp:84] Creating Layer inception_5b/relu_pool_proj
I0509 20:58:01.019536 17858 net.cpp:406] inception_5b/relu_pool_proj <- inception_5b/pool_proj
I0509 20:58:01.019542 17858 net.cpp:367] inception_5b/relu_pool_proj -> inception_5b/pool_proj (in-place)
I0509 20:58:01.020136 17858 net.cpp:122] Setting up inception_5b/relu_pool_proj
I0509 20:58:01.020148 17858 net.cpp:129] Top shape: 50 128 7 7 (313600)
I0509 20:58:01.020150 17858 net.cpp:137] Memory required for data: 2794101224
I0509 20:58:01.020153 17858 layer_factory.hpp:77] Creating layer inception_5b/output
I0509 20:58:01.020159 17858 net.cpp:84] Creating Layer inception_5b/output
I0509 20:58:01.020162 17858 net.cpp:406] inception_5b/output <- inception_5b/1x1
I0509 20:58:01.020167 17858 net.cpp:406] inception_5b/output <- inception_5b/3x3
I0509 20:58:01.020170 17858 net.cpp:406] inception_5b/output <- inception_5b/5x5
I0509 20:58:01.020174 17858 net.cpp:406] inception_5b/output <- inception_5b/pool_proj
I0509 20:58:01.020180 17858 net.cpp:380] inception_5b/output -> inception_5b/output
I0509 20:58:01.020208 17858 net.cpp:122] Setting up inception_5b/output
I0509 20:58:01.020215 17858 net.cpp:129] Top shape: 50 1024 7 7 (2508800)
I0509 20:58:01.020217 17858 net.cpp:137] Memory required for data: 2804136424
I0509 20:58:01.020220 17858 layer_factory.hpp:77] Creating layer pool5/7x7_s1
I0509 20:58:01.020226 17858 net.cpp:84] Creating Layer pool5/7x7_s1
I0509 20:58:01.020228 17858 net.cpp:406] pool5/7x7_s1 <- inception_5b/output
I0509 20:58:01.020233 17858 net.cpp:380] pool5/7x7_s1 -> pool5/7x7_s1
I0509 20:58:01.020853 17858 net.cpp:122] Setting up pool5/7x7_s1
I0509 20:58:01.020862 17858 net.cpp:129] Top shape: 50 1024 1 1 (51200)
I0509 20:58:01.020865 17858 net.cpp:137] Memory required for data: 2804341224
I0509 20:58:01.020869 17858 layer_factory.hpp:77] Creating layer pool5/drop_7x7_s1
I0509 20:58:01.020876 17858 net.cpp:84] Creating Layer pool5/drop_7x7_s1
I0509 20:58:01.020879 17858 net.cpp:406] pool5/drop_7x7_s1 <- pool5/7x7_s1
I0509 20:58:01.020885 17858 net.cpp:367] pool5/drop_7x7_s1 -> pool5/7x7_s1 (in-place)
I0509 20:58:01.020908 17858 net.cpp:122] Setting up pool5/drop_7x7_s1
I0509 20:58:01.020913 17858 net.cpp:129] Top shape: 50 1024 1 1 (51200)
I0509 20:58:01.020916 17858 net.cpp:137] Memory required for data: 2804546024
I0509 20:58:01.020920 17858 layer_factory.hpp:77] Creating layer loss3/classifier
I0509 20:58:01.020927 17858 net.cpp:84] Creating Layer loss3/classifier
I0509 20:58:01.020931 17858 net.cpp:406] loss3/classifier <- pool5/7x7_s1
I0509 20:58:01.020937 17858 net.cpp:380] loss3/classifier -> loss3/classifier
I0509 20:58:01.022686 17858 net.cpp:122] Setting up loss3/classifier
I0509 20:58:01.022696 17858 net.cpp:129] Top shape: 50 196 (9800)
I0509 20:58:01.022698 17858 net.cpp:137] Memory required for data: 2804585224
I0509 20:58:01.022704 17858 layer_factory.hpp:77] Creating layer loss3/classifier_loss3/classifier_0_split
I0509 20:58:01.022711 17858 net.cpp:84] Creating Layer loss3/classifier_loss3/classifier_0_split
I0509 20:58:01.022714 17858 net.cpp:406] loss3/classifier_loss3/classifier_0_split <- loss3/classifier
I0509 20:58:01.022723 17858 net.cpp:380] loss3/classifier_loss3/classifier_0_split -> loss3/classifier_loss3/classifier_0_split_0
I0509 20:58:01.022730 17858 net.cpp:380] loss3/classifier_loss3/classifier_0_split -> loss3/classifier_loss3/classifier_0_split_1
I0509 20:58:01.022735 17858 net.cpp:380] loss3/classifier_loss3/classifier_0_split -> loss3/classifier_loss3/classifier_0_split_2
I0509 20:58:01.022786 17858 net.cpp:122] Setting up loss3/classifier_loss3/classifier_0_split
I0509 20:58:01.022791 17858 net.cpp:129] Top shape: 50 196 (9800)
I0509 20:58:01.022794 17858 net.cpp:129] Top shape: 50 196 (9800)
I0509 20:58:01.022797 17858 net.cpp:129] Top shape: 50 196 (9800)
I0509 20:58:01.022800 17858 net.cpp:137] Memory required for data: 2804702824
I0509 20:58:01.022802 17858 layer_factory.hpp:77] Creating layer loss3/loss
I0509 20:58:01.022807 17858 net.cpp:84] Creating Layer loss3/loss
I0509 20:58:01.022811 17858 net.cpp:406] loss3/loss <- loss3/classifier_loss3/classifier_0_split_0
I0509 20:58:01.022827 17858 net.cpp:406] loss3/loss <- label_val-data_1_split_6
…
