…
I0502 20:28:45.385331 18630 net.cpp:294] The NetState phase (0) differed from the phase (1) specified by a rule in layer accuracy
I0502 20:28:45.385479 18630 net.cpp:51] Initializing net from parameters:
state {
phase: TRAIN
level: 0
stage: ""
}
layer {
name: "train-data"
type: "Data"
top: "data"
top: "label"
include {
phase: TRAIN
}
transform_param {
mirror: true
crop_size: 227
mean_file: "/mnt/bigdisk/MANDIG2/digits/jobs/20200428-132136-11fe/mean.binaryproto"
}
data_param {
source: "/mnt/bigdisk/MANDIG2/digits/jobs/20200428-132136-11fe/train_db"
batch_size: 128
backend: LMDB
}
}
layer {
name: "conv1"
type: "Convolution"
bottom: "data"
top: "conv1"
param {
lr_mult: 1
decay_mult: 1
}
param {
lr_mult: 2
decay_mult: 0
}
convolution_param {
num_output: 96
kernel_size: 11
stride: 4
weight_filler {
type: "gaussian"
std: 0.01
}
bias_filler {
type: "constant"
value: 0
}
}
}
layer {
name: "relu1"
type: "ReLU"
bottom: "conv1"
top: "conv1"
}
layer {
name: "norm1"
type: "LRN"
bottom: "conv1"
top: "norm1"
lrn_param {
local_size: 5
alpha: 0.0001
beta: 0.75
}
}
layer {
name: "pool1"
type: "Pooling"
bottom: "norm1"
top: "pool1"
pooling_param {
pool: MAX
kernel_size: 3
stride: 2
}
}
layer {
name: "conv2"
type: "Convolution"
bottom: "pool1"
top: "conv2"
param {
lr_mult: 1
decay_mult: 1
}
param {
lr_mult: 2
decay_mult: 0
}
convolution_param {
num_output: 256
pad: 2
kernel_size: 5
group: 2
weight_filler {
type: "gaussian"
std: 0.01
}
bias_filler {
type: "constant"
value: 0.1
}
}
}
layer {
name: "relu2"
type: "ReLU"
bottom: "conv2"
top: "conv2"
}
layer {
name: "norm2"
type: "LRN"
bottom: "conv2"
top: "norm2"
lrn_param {
local_size: 5
alpha: 0.0001
beta: 0.75
}
}
layer {
name: "pool2"
type: "Pooling"
bottom: "norm2"
top: "pool2"
pooling_param {
pool: MAX
kernel_size: 3
stride: 2
}
}
layer {
name: "conv3"
type: "Convolution"
bottom: "pool2"
top: "conv3"
param {
lr_mult: 1
decay_mult: 1
}
param {
lr_mult: 2
decay_mult: 0
}
convolution_param {
num_output: 384
pad: 1
kernel_size: 3
weight_filler {
type: "gaussian"
std: 0.01
}
bias_filler {
type: "constant"
value: 0
}
}
}
layer {
name: "relu3"
type: "ReLU"
bottom: "conv3"
top: "conv3"
}
layer {
name: "conv4"
type: "Convolution"
bottom: "conv3"
top: "conv4"
param {
lr_mult: 1
decay_mult: 1
}
param {
lr_mult: 2
decay_mult: 0
}
convolution_param {
num_output: 384
pad: 1
kernel_size: 3
group: 2
weight_filler {
type: "gaussian"
std: 0.01
}
bias_filler {
type: "constant"
value: 0.1
}
}
}
layer {
name: "relu4"
type: "ReLU"
bottom: "conv4"
top: "conv4"
}
layer {
name: "conv5"
type: "Convolution"
bottom: "conv4"
top: "conv5"
param {
lr_mult: 1
decay_mult: 1
}
param {
lr_mult: 2
decay_mult: 0
}
convolution_param {
num_output: 256
pad: 1
kernel_size: 3
group: 2
weight_filler {
type: "gaussian"
std: 0.01
}
bias_filler {
type: "constant"
value: 0.1
}
}
}
layer {
name: "relu5"
type: "ReLU"
bottom: "conv5"
top: "conv5"
}
layer {
name: "pool5"
type: "Pooling"
bottom: "conv5"
top: "pool5"
pooling_param {
pool: MAX
kernel_size: 3
stride: 2
}
}
layer {
name: "fc6"
type: "InnerProduct"
bottom: "pool5"
top: "fc6"
param {
lr_mult: 1
decay_mult: 1
}
param {
lr_mult: 2
decay_mult: 0
}
inner_product_param {
num_output: 4096
weight_filler {
type: "gaussian"
std: 0.005
}
bias_filler {
type: "constant"
value: 0.1
}
}
}
layer {
name: "relu6"
type: "ReLU"
bottom: "fc6"
top: "fc6"
}
layer {
name: "drop6"
type: "Dropout"
bottom: "fc6"
top: "fc6"
dropout_param {
dropout_ratio: 0.5
}
}
layer {
name: "fc7"
type: "InnerProduct"
bottom: "fc6"
top: "fc7"
param {
lr_mult: 1
decay_mult: 1
}
param {
lr_mult: 2
decay_mult: 0
}
inner_product_param {
num_output: 4096
weight_filler {
type: "gaussian"
std: 0.005
}
bias_filler {
type: "constant"
value: 0.1
}
}
}
layer {
name: "relu7"
type: "ReLU"
bottom: "fc7"
top: "fc7"
}
layer {
name: "drop7"
type: "Dropout"
bottom: "fc7"
top: "fc7"
dropout_param {
dropout_ratio: 0.5
}
}
layer {
name: "fc8"
type: "InnerProduct"
bottom: "fc7"
top: "fc8"
param {
lr_mult: 1
decay_mult: 1
}
param {
lr_mult: 2
decay_mult: 0
}
inner_product_param {
num_output: 196
weight_filler {
type: "gaussian"
std: 0.01
}
bias_filler {
type: "constant"
value: 0
}
}
}
layer {
name: "loss"
type: "SoftmaxWithLoss"
bottom: "fc8"
bottom: "label"
top: "loss"
}
I0502 20:28:45.385571 18630 layer_factory.hpp:77] Creating layer train-data
I0502 20:28:45.389070 18630 db_lmdb.cpp:35] Opened lmdb /mnt/bigdisk/MANDIG2/digits/jobs/20200428-132136-11fe/train_db
I0502 20:28:45.389245 18630 net.cpp:84] Creating Layer train-data
I0502 20:28:45.389256 18630 net.cpp:380] train-data -> data
I0502 20:28:45.389276 18630 net.cpp:380] train-data -> label
I0502 20:28:45.389289 18630 data_transformer.cpp:25] Loading mean file from: /mnt/bigdisk/MANDIG2/digits/jobs/20200428-132136-11fe/mean.binaryproto
I0502 20:28:45.395943 18630 data_layer.cpp:45] output data size: 128,3,227,227
I0502 20:28:45.571576 18630 net.cpp:122] Setting up train-data
I0502 20:28:45.571606 18630 net.cpp:129] Top shape: 128 3 227 227 (19787136)
I0502 20:28:45.571614 18630 net.cpp:129] Top shape: 128 (128)
I0502 20:28:45.571619 18630 net.cpp:137] Memory required for data: 79149056
I0502 20:28:45.571630 18630 layer_factory.hpp:77] Creating layer conv1
I0502 20:28:45.571655 18630 net.cpp:84] Creating Layer conv1
I0502 20:28:45.571661 18630 net.cpp:406] conv1 <- data
I0502 20:28:45.571676 18630 net.cpp:380] conv1 -> conv1
I0502 20:28:46.954285 18630 net.cpp:122] Setting up conv1
I0502 20:28:46.954311 18630 net.cpp:129] Top shape: 128 96 55 55 (37171200)
I0502 20:28:46.954318 18630 net.cpp:137] Memory required for data: 227833856
I0502 20:28:46.954342 18630 layer_factory.hpp:77] Creating layer relu1
I0502 20:28:46.954356 18630 net.cpp:84] Creating Layer relu1
I0502 20:28:46.954361 18630 net.cpp:406] relu1 <- conv1
I0502 20:28:46.954370 18630 net.cpp:367] relu1 -> conv1 (in-place)
I0502 20:28:46.954797 18630 net.cpp:122] Setting up relu1
I0502 20:28:46.954809 18630 net.cpp:129] Top shape: 128 96 55 55 (37171200)
I0502 20:28:46.954814 18630 net.cpp:137] Memory required for data: 376518656
I0502 20:28:46.954820 18630 layer_factory.hpp:77] Creating layer norm1
I0502 20:28:46.954831 18630 net.cpp:84] Creating Layer norm1
I0502 20:28:46.954864 18630 net.cpp:406] norm1 <- conv1
I0502 20:28:46.954871 18630 net.cpp:380] norm1 -> norm1
I0502 20:28:46.955533 18630 net.cpp:122] Setting up norm1
I0502 20:28:46.955547 18630 net.cpp:129] Top shape: 128 96 55 55 (37171200)
I0502 20:28:46.955552 18630 net.cpp:137] Memory required for data: 525203456
I0502 20:28:46.955557 18630 layer_factory.hpp:77] Creating layer pool1
I0502 20:28:46.955567 18630 net.cpp:84] Creating Layer pool1
I0502 20:28:46.955574 18630 net.cpp:406] pool1 <- norm1
I0502 20:28:46.955580 18630 net.cpp:380] pool1 -> pool1
I0502 20:28:46.955624 18630 net.cpp:122] Setting up pool1
I0502 20:28:46.955632 18630 net.cpp:129] Top shape: 128 96 27 27 (8957952)
I0502 20:28:46.955637 18630 net.cpp:137] Memory required for data: 561035264
I0502 20:28:46.955642 18630 layer_factory.hpp:77] Creating layer conv2
I0502 20:28:46.955655 18630 net.cpp:84] Creating Layer conv2
I0502 20:28:46.955662 18630 net.cpp:406] conv2 <- pool1
I0502 20:28:46.955668 18630 net.cpp:380] conv2 -> conv2
I0502 20:28:46.965945 18630 net.cpp:122] Setting up conv2
I0502 20:28:46.965968 18630 net.cpp:129] Top shape: 128 256 27 27 (23887872)
I0502 20:28:46.965975 18630 net.cpp:137] Memory required for data: 656586752
I0502 20:28:46.965991 18630 layer_factory.hpp:77] Creating layer relu2
I0502 20:28:46.966004 18630 net.cpp:84] Creating Layer relu2
I0502 20:28:46.966010 18630 net.cpp:406] relu2 <- conv2
I0502 20:28:46.966019 18630 net.cpp:367] relu2 -> conv2 (in-place)
I0502 20:28:46.967856 18630 net.cpp:122] Setting up relu2
I0502 20:28:46.967871 18630 net.cpp:129] Top shape: 128 256 27 27 (23887872)
I0502 20:28:46.967875 18630 net.cpp:137] Memory required for data: 752138240
I0502 20:28:46.967881 18630 layer_factory.hpp:77] Creating layer norm2
I0502 20:28:46.967892 18630 net.cpp:84] Creating Layer norm2
I0502 20:28:46.967897 18630 net.cpp:406] norm2 <- conv2
I0502 20:28:46.967905 18630 net.cpp:380] norm2 -> norm2
I0502 20:28:46.968415 18630 net.cpp:122] Setting up norm2
I0502 20:28:46.968425 18630 net.cpp:129] Top shape: 128 256 27 27 (23887872)
I0502 20:28:46.968430 18630 net.cpp:137] Memory required for data: 847689728
I0502 20:28:46.968436 18630 layer_factory.hpp:77] Creating layer pool2
I0502 20:28:46.968447 18630 net.cpp:84] Creating Layer pool2
I0502 20:28:46.968452 18630 net.cpp:406] pool2 <- norm2
I0502 20:28:46.968459 18630 net.cpp:380] pool2 -> pool2
I0502 20:28:46.968500 18630 net.cpp:122] Setting up pool2
I0502 20:28:46.968508 18630 net.cpp:129] Top shape: 128 256 13 13 (5537792)
I0502 20:28:46.968513 18630 net.cpp:137] Memory required for data: 869840896
I0502 20:28:46.968516 18630 layer_factory.hpp:77] Creating layer conv3
I0502 20:28:46.968531 18630 net.cpp:84] Creating Layer conv3
I0502 20:28:46.968536 18630 net.cpp:406] conv3 <- pool2
I0502 20:28:46.968545 18630 net.cpp:380] conv3 -> conv3
I0502 20:28:46.995664 18630 net.cpp:122] Setting up conv3
I0502 20:28:46.995687 18630 net.cpp:129] Top shape: 128 384 13 13 (8306688)
I0502 20:28:46.995692 18630 net.cpp:137] Memory required for data: 903067648
I0502 20:28:46.995707 18630 layer_factory.hpp:77] Creating layer relu3
I0502 20:28:46.995716 18630 net.cpp:84] Creating Layer relu3
I0502 20:28:46.995721 18630 net.cpp:406] relu3 <- conv3
I0502 20:28:46.995728 18630 net.cpp:367] relu3 -> conv3 (in-place)
I0502 20:28:46.996255 18630 net.cpp:122] Setting up relu3
I0502 20:28:46.996265 18630 net.cpp:129] Top shape: 128 384 13 13 (8306688)
I0502 20:28:46.996270 18630 net.cpp:137] Memory required for data: 936294400
I0502 20:28:46.996275 18630 layer_factory.hpp:77] Creating layer conv4
I0502 20:28:46.996287 18630 net.cpp:84] Creating Layer conv4
I0502 20:28:46.996291 18630 net.cpp:406] conv4 <- conv3
I0502 20:28:46.996297 18630 net.cpp:380] conv4 -> conv4
I0502 20:28:47.011780 18630 net.cpp:122] Setting up conv4
I0502 20:28:47.011799 18630 net.cpp:129] Top shape: 128 384 13 13 (8306688)
I0502 20:28:47.011804 18630 net.cpp:137] Memory required for data: 969521152
I0502 20:28:47.011814 18630 layer_factory.hpp:77] Creating layer relu4
I0502 20:28:47.011826 18630 net.cpp:84] Creating Layer relu4
I0502 20:28:47.011852 18630 net.cpp:406] relu4 <- conv4
I0502 20:28:47.011857 18630 net.cpp:367] relu4 -> conv4 (in-place)
I0502 20:28:47.012197 18630 net.cpp:122] Setting up relu4
I0502 20:28:47.012207 18630 net.cpp:129] Top shape: 128 384 13 13 (8306688)
I0502 20:28:47.012212 18630 net.cpp:137] Memory required for data: 1002747904
I0502 20:28:47.012215 18630 layer_factory.hpp:77] Creating layer conv5
I0502 20:28:47.012228 18630 net.cpp:84] Creating Layer conv5
I0502 20:28:47.012231 18630 net.cpp:406] conv5 <- conv4
I0502 20:28:47.012238 18630 net.cpp:380] conv5 -> conv5
I0502 20:28:47.039696 18630 net.cpp:122] Setting up conv5
I0502 20:28:47.039719 18630 net.cpp:129] Top shape: 128 256 13 13 (5537792)
I0502 20:28:47.039723 18630 net.cpp:137] Memory required for data: 1024899072
I0502 20:28:47.039739 18630 layer_factory.hpp:77] Creating layer relu5
I0502 20:28:47.039748 18630 net.cpp:84] Creating Layer relu5
I0502 20:28:47.039753 18630 net.cpp:406] relu5 <- conv5
I0502 20:28:47.039760 18630 net.cpp:367] relu5 -> conv5 (in-place)
I0502 20:28:47.040266 18630 net.cpp:122] Setting up relu5
I0502 20:28:47.040277 18630 net.cpp:129] Top shape: 128 256 13 13 (5537792)
I0502 20:28:47.040282 18630 net.cpp:137] Memory required for data: 1047050240
I0502 20:28:47.040285 18630 layer_factory.hpp:77] Creating layer pool5
I0502 20:28:47.040292 18630 net.cpp:84] Creating Layer pool5
I0502 20:28:47.040297 18630 net.cpp:406] pool5 <- conv5
I0502 20:28:47.040302 18630 net.cpp:380] pool5 -> pool5
I0502 20:28:47.040339 18630 net.cpp:122] Setting up pool5
I0502 20:28:47.040345 18630 net.cpp:129] Top shape: 128 256 6 6 (1179648)
I0502 20:28:47.040349 18630 net.cpp:137] Memory required for data: 1051768832
I0502 20:28:47.040352 18630 layer_factory.hpp:77] Creating layer fc6
I0502 20:28:47.040362 18630 net.cpp:84] Creating Layer fc6
I0502 20:28:47.040365 18630 net.cpp:406] fc6 <- pool5
I0502 20:28:47.040372 18630 net.cpp:380] fc6 -> fc6
I0502 20:28:47.414247 18630 net.cpp:122] Setting up fc6
I0502 20:28:47.414280 18630 net.cpp:129] Top shape: 128 4096 (524288)
I0502 20:28:47.414285 18630 net.cpp:137] Memory required for data: 1053865984
I0502 20:28:47.414294 18630 layer_factory.hpp:77] Creating layer relu6
I0502 20:28:47.414305 18630 net.cpp:84] Creating Layer relu6
I0502 20:28:47.414310 18630 net.cpp:406] relu6 <- fc6
I0502 20:28:47.414319 18630 net.cpp:367] relu6 -> fc6 (in-place)
I0502 20:28:47.415021 18630 net.cpp:122] Setting up relu6
I0502 20:28:47.415032 18630 net.cpp:129] Top shape: 128 4096 (524288)
I0502 20:28:47.415036 18630 net.cpp:137] Memory required for data: 1055963136
I0502 20:28:47.415040 18630 layer_factory.hpp:77] Creating layer drop6
I0502 20:28:47.415047 18630 net.cpp:84] Creating Layer drop6
I0502 20:28:47.415051 18630 net.cpp:406] drop6 <- fc6
I0502 20:28:47.415058 18630 net.cpp:367] drop6 -> fc6 (in-place)
I0502 20:28:47.415086 18630 net.cpp:122] Setting up drop6
I0502 20:28:47.415092 18630 net.cpp:129] Top shape: 128 4096 (524288)
I0502 20:28:47.415096 18630 net.cpp:137] Memory required for data: 1058060288
I0502 20:28:47.415100 18630 layer_factory.hpp:77] Creating layer fc7
I0502 20:28:47.415107 18630 net.cpp:84] Creating Layer fc7
I0502 20:28:47.415112 18630 net.cpp:406] fc7 <- fc6
I0502 20:28:47.415117 18630 net.cpp:380] fc7 -> fc7
I0502 20:28:47.573428 18630 net.cpp:122] Setting up fc7
I0502 20:28:47.573448 18630 net.cpp:129] Top shape: 128 4096 (524288)
I0502 20:28:47.573452 18630 net.cpp:137] Memory required for data: 1060157440
I0502 20:28:47.573462 18630 layer_factory.hpp:77] Creating layer relu7
I0502 20:28:47.573472 18630 net.cpp:84] Creating Layer relu7
I0502 20:28:47.573477 18630 net.cpp:406] relu7 <- fc7
I0502 20:28:47.573484 18630 net.cpp:367] relu7 -> fc7 (in-place)
I0502 20:28:47.574105 18630 net.cpp:122] Setting up relu7
I0502 20:28:47.574116 18630 net.cpp:129] Top shape: 128 4096 (524288)
I0502 20:28:47.574120 18630 net.cpp:137] Memory required for data: 1062254592
I0502 20:28:47.574123 18630 layer_factory.hpp:77] Creating layer drop7
I0502 20:28:47.574131 18630 net.cpp:84] Creating Layer drop7
I0502 20:28:47.574156 18630 net.cpp:406] drop7 <- fc7
I0502 20:28:47.574160 18630 net.cpp:367] drop7 -> fc7 (in-place)
I0502 20:28:47.574187 18630 net.cpp:122] Setting up drop7
I0502 20:28:47.574193 18630 net.cpp:129] Top shape: 128 4096 (524288)
I0502 20:28:47.574198 18630 net.cpp:137] Memory required for data: 1064351744
I0502 20:28:47.574203 18630 layer_factory.hpp:77] Creating layer fc8
I0502 20:28:47.574213 18630 net.cpp:84] Creating Layer fc8
I0502 20:28:47.574216 18630 net.cpp:406] fc8 <- fc7
I0502 20:28:47.574221 18630 net.cpp:380] fc8 -> fc8
I0502 20:28:47.581976 18630 net.cpp:122] Setting up fc8
I0502 20:28:47.581995 18630 net.cpp:129] Top shape: 128 196 (25088)
I0502 20:28:47.581997 18630 net.cpp:137] Memory required for data: 1064452096
I0502 20:28:47.582005 18630 layer_factory.hpp:77] Creating layer loss
I0502 20:28:47.582015 18630 net.cpp:84] Creating Layer loss
I0502 20:28:47.582018 18630 net.cpp:406] loss <- fc8
I0502 20:28:47.582023 18630 net.cpp:406] loss <- label
I0502 20:28:47.582032 18630 net.cpp:380] loss -> loss
I0502 20:28:47.582042 18630 layer_factory.hpp:77] Creating layer loss
…
I0502 20:28:47.583331 18630 solver.cpp:172] Creating test net (#0) specified by net file: train_val.prototxt
I0502 20:28:47.583361 18630 net.cpp:294] The NetState phase (1) differed from the phase (0) specified by a rule in layer train-data
I0502 20:28:47.583500 18630 net.cpp:51] Initializing net from parameters:
state {
phase: TEST
}
layer {
name: "val-data"
type: "Data"
top: "data"
top: "label"
include {
phase: TEST
}
transform_param {
crop_size: 227
mean_file: "/mnt/bigdisk/MANDIG2/digits/jobs/20200428-132136-11fe/mean.binaryproto"
}
data_param {
source: "/mnt/bigdisk/MANDIG2/digits/jobs/20200428-132136-11fe/val_db"
batch_size: 32
backend: LMDB
}
}
layer {
name: "conv1"
type: "Convolution"
bottom: "data"
top: "conv1"
param {
lr_mult: 1
decay_mult: 1
}
param {
lr_mult: 2
decay_mult: 0
}
convolution_param {
num_output: 96
kernel_size: 11
stride: 4
weight_filler {
type: "gaussian"
std: 0.01
}
bias_filler {
type: "constant"
value: 0
}
}
}
layer {
name: "relu1"
type: "ReLU"
bottom: "conv1"
top: "conv1"
}
layer {
name: "norm1"
type: "LRN"
bottom: "conv1"
top: "norm1"
lrn_param {
local_size: 5
alpha: 0.0001
beta: 0.75
}
}
layer {
name: "pool1"
type: "Pooling"
bottom: "norm1"
top: "pool1"
pooling_param {
pool: MAX
kernel_size: 3
stride: 2
}
}
layer {
name: "conv2"
type: "Convolution"
bottom: "pool1"
top: "conv2"
param {
lr_mult: 1
decay_mult: 1
}
param {
lr_mult: 2
decay_mult: 0
}
convolution_param {
num_output: 256
pad: 2
kernel_size: 5
group: 2
weight_filler {
type: "gaussian"
std: 0.01
}
bias_filler {
type: "constant"
value: 0.1
}
}
}
layer {
name: "relu2"
type: "ReLU"
bottom: "conv2"
top: "conv2"
}
layer {
name: "norm2"
type: "LRN"
bottom: "conv2"
top: "norm2"
lrn_param {
local_size: 5
alpha: 0.0001
beta: 0.75
}
}
layer {
name: "pool2"
type: "Pooling"
bottom: "norm2"
top: "pool2"
pooling_param {
pool: MAX
kernel_size: 3
stride: 2
}
}
layer {
name: "conv3"
type: "Convolution"
bottom: "pool2"
top: "conv3"
param {
lr_mult: 1
decay_mult: 1
}
param {
lr_mult: 2
decay_mult: 0
}
convolution_param {
num_output: 384
pad: 1
kernel_size: 3
weight_filler {
type: "gaussian"
std: 0.01
}
bias_filler {
type: "constant"
value: 0
}
}
}
layer {
name: "relu3"
type: "ReLU"
bottom: "conv3"
top: "conv3"
}
layer {
name: "conv4"
type: "Convolution"
bottom: "conv3"
top: "conv4"
param {
lr_mult: 1
decay_mult: 1
}
param {
lr_mult: 2
decay_mult: 0
}
convolution_param {
num_output: 384
pad: 1
kernel_size: 3
group: 2
weight_filler {
type: "gaussian"
std: 0.01
}
bias_filler {
type: "constant"
value: 0.1
}
}
}
layer {
name: "relu4"
type: "ReLU"
bottom: "conv4"
top: "conv4"
}
layer {
name: "conv5"
type: "Convolution"
bottom: "conv4"
top: "conv5"
param {
lr_mult: 1
decay_mult: 1
}
param {
lr_mult: 2
decay_mult: 0
}
convolution_param {
num_output: 256
pad: 1
kernel_size: 3
group: 2
weight_filler {
type: "gaussian"
std: 0.01
}
bias_filler {
type: "constant"
value: 0.1
}
}
}
layer {
name: "relu5"
type: "ReLU"
bottom: "conv5"
top: "conv5"
}
layer {
name: "pool5"
type: "Pooling"
bottom: "conv5"
top: "pool5"
pooling_param {
pool: MAX
kernel_size: 3
stride: 2
}
}
layer {
name: "fc6"
type: "InnerProduct"
bottom: "pool5"
top: "fc6"
param {
lr_mult: 1
decay_mult: 1
}
param {
lr_mult: 2
decay_mult: 0
}
inner_product_param {
num_output: 4096
weight_filler {
type: "gaussian"
std: 0.005
}
bias_filler {
type: "constant"
value: 0.1
}
}
}
layer {
name: "relu6"
type: "ReLU"
bottom: "fc6"
top: "fc6"
}
layer {
name: "drop6"
type: "Dropout"
bottom: "fc6"
top: "fc6"
dropout_param {
dropout_ratio: 0.5
}
}
layer {
name: "fc7"
type: "InnerProduct"
bottom: "fc6"
top: "fc7"
param {
lr_mult: 1
decay_mult: 1
}
param {
lr_mult: 2
decay_mult: 0
}
inner_product_param {
num_output: 4096
weight_filler {
type: "gaussian"
std: 0.005
}
bias_filler {
type: "constant"
value: 0.1
}
}
}
layer {
name: "relu7"
type: "ReLU"
bottom: "fc7"
top: "fc7"
}
layer {
name: "drop7"
type: "Dropout"
bottom: "fc7"
top: "fc7"
dropout_param {
dropout_ratio: 0.5
}
}
layer {
name: "fc8"
type: "InnerProduct"
bottom: "fc7"
top: "fc8"
param {
lr_mult: 1
decay_mult: 1
}
param {
lr_mult: 2
decay_mult: 0
}
inner_product_param {
num_output: 196
weight_filler {
type: "gaussian"
std: 0.01
}
bias_filler {
type: "constant"
value: 0
}
}
}
layer {
name: "accuracy"
type: "Accuracy"
bottom: "fc8"
bottom: "label"
top: "accuracy"
include {
phase: TEST
}
}
layer {
name: "loss"
type: "SoftmaxWithLoss"
bottom: "fc8"
bottom: "label"
top: "loss"
}
I0502 20:28:47.583607 18630 layer_factory.hpp:77] Creating layer val-data
I0502 20:28:47.585142 18630 db_lmdb.cpp:35] Opened lmdb /mnt/bigdisk/MANDIG2/digits/jobs/20200428-132136-11fe/val_db
I0502 20:28:47.585312 18630 net.cpp:84] Creating Layer val-data
I0502 20:28:47.585320 18630 net.cpp:380] val-data -> data
I0502 20:28:47.585330 18630 net.cpp:380] val-data -> label
I0502 20:28:47.585337 18630 data_transformer.cpp:25] Loading mean file from: /mnt/bigdisk/MANDIG2/digits/jobs/20200428-132136-11fe/mean.binaryproto
I0502 20:28:47.589074 18630 data_layer.cpp:45] output data size: 32,3,227,227
I0502 20:28:47.650008 18630 net.cpp:122] Setting up val-data
I0502 20:28:47.650029 18630 net.cpp:129] Top shape: 32 3 227 227 (4946784)
I0502 20:28:47.650034 18630 net.cpp:129] Top shape: 32 (32)
I0502 20:28:47.650038 18630 net.cpp:137] Memory required for data: 19787264
I0502 20:28:47.650044 18630 layer_factory.hpp:77] Creating layer label_val-data_1_split
I0502 20:28:47.650056 18630 net.cpp:84] Creating Layer label_val-data_1_split
I0502 20:28:47.650061 18630 net.cpp:406] label_val-data_1_split <- label
I0502 20:28:47.650068 18630 net.cpp:380] label_val-data_1_split -> label_val-data_1_split_0
I0502 20:28:47.650079 18630 net.cpp:380] label_val-data_1_split -> label_val-data_1_split_1
I0502 20:28:47.650130 18630 net.cpp:122] Setting up label_val-data_1_split
I0502 20:28:47.650136 18630 net.cpp:129] Top shape: 32 (32)
I0502 20:28:47.650140 18630 net.cpp:129] Top shape: 32 (32)
I0502 20:28:47.650142 18630 net.cpp:137] Memory required for data: 19787520
I0502 20:28:47.650146 18630 layer_factory.hpp:77] Creating layer conv1
I0502 20:28:47.650157 18630 net.cpp:84] Creating Layer conv1
I0502 20:28:47.650161 18630 net.cpp:406] conv1 <- data
I0502 20:28:47.650167 18630 net.cpp:380] conv1 -> conv1
I0502 20:28:47.662839 18630 net.cpp:122] Setting up conv1
I0502 20:28:47.662855 18630 net.cpp:129] Top shape: 32 96 55 55 (9292800)
I0502 20:28:47.662861 18630 net.cpp:137] Memory required for data: 56958720
I0502 20:28:47.662873 18630 layer_factory.hpp:77] Creating layer relu1
I0502 20:28:47.662883 18630 net.cpp:84] Creating Layer relu1
I0502 20:28:47.662889 18630 net.cpp:406] relu1 <- conv1
I0502 20:28:47.662894 18630 net.cpp:367] relu1 -> conv1 (in-place)
I0502 20:28:47.663179 18630 net.cpp:122] Setting up relu1
I0502 20:28:47.663187 18630 net.cpp:129] Top shape: 32 96 55 55 (9292800)
I0502 20:28:47.663190 18630 net.cpp:137] Memory required for data: 94129920
I0502 20:28:47.663194 18630 layer_factory.hpp:77] Creating layer norm1
I0502 20:28:47.663203 18630 net.cpp:84] Creating Layer norm1
I0502 20:28:47.663208 18630 net.cpp:406] norm1 <- conv1
I0502 20:28:47.663213 18630 net.cpp:380] norm1 -> norm1
I0502 20:28:47.663686 18630 net.cpp:122] Setting up norm1
I0502 20:28:47.663697 18630 net.cpp:129] Top shape: 32 96 55 55 (9292800)
I0502 20:28:47.663702 18630 net.cpp:137] Memory required for data: 131301120
I0502 20:28:47.663705 18630 layer_factory.hpp:77] Creating layer pool1
I0502 20:28:47.663712 18630 net.cpp:84] Creating Layer pool1
I0502 20:28:47.663717 18630 net.cpp:406] pool1 <- norm1
I0502 20:28:47.663722 18630 net.cpp:380] pool1 -> pool1
I0502 20:28:47.663749 18630 net.cpp:122] Setting up pool1
I0502 20:28:47.663755 18630 net.cpp:129] Top shape: 32 96 27 27 (2239488)
I0502 20:28:47.663758 18630 net.cpp:137] Memory required for data: 140259072
I0502 20:28:47.663763 18630 layer_factory.hpp:77] Creating layer conv2
I0502 20:28:47.663770 18630 net.cpp:84] Creating Layer conv2
I0502 20:28:47.663774 18630 net.cpp:406] conv2 <- pool1
I0502 20:28:47.663800 18630 net.cpp:380] conv2 -> conv2
I0502 20:28:47.671722 18630 net.cpp:122] Setting up conv2
I0502 20:28:47.671737 18630 net.cpp:129] Top shape: 32 256 27 27 (5971968)
I0502 20:28:47.671741 18630 net.cpp:137] Memory required for data: 164146944
I0502 20:28:47.671751 18630 layer_factory.hpp:77] Creating layer relu2
I0502 20:28:47.671758 18630 net.cpp:84] Creating Layer relu2
I0502 20:28:47.671762 18630 net.cpp:406] relu2 <- conv2
I0502 20:28:47.671768 18630 net.cpp:367] relu2 -> conv2 (in-place)
I0502 20:28:47.672286 18630 net.cpp:122] Setting up relu2
I0502 20:28:47.672297 18630 net.cpp:129] Top shape: 32 256 27 27 (5971968)
I0502 20:28:47.672302 18630 net.cpp:137] Memory required for data: 188034816
I0502 20:28:47.672305 18630 layer_factory.hpp:77] Creating layer norm2
I0502 20:28:47.672314 18630 net.cpp:84] Creating Layer norm2
I0502 20:28:47.672318 18630 net.cpp:406] norm2 <- conv2
I0502 20:28:47.672325 18630 net.cpp:380] norm2 -> norm2
I0502 20:28:47.680542 18630 net.cpp:122] Setting up norm2
I0502 20:28:47.680557 18630 net.cpp:129] Top shape: 32 256 27 27 (5971968)
I0502 20:28:47.680560 18630 net.cpp:137] Memory required for data: 211922688
I0502 20:28:47.680564 18630 layer_factory.hpp:77] Creating layer pool2
I0502 20:28:47.680573 18630 net.cpp:84] Creating Layer pool2
I0502 20:28:47.680577 18630 net.cpp:406] pool2 <- norm2
I0502 20:28:47.680583 18630 net.cpp:380] pool2 -> pool2
I0502 20:28:47.680616 18630 net.cpp:122] Setting up pool2
I0502 20:28:47.680622 18630 net.cpp:129] Top shape: 32 256 13 13 (1384448)
I0502 20:28:47.680625 18630 net.cpp:137] Memory required for data: 217460480
I0502 20:28:47.680629 18630 layer_factory.hpp:77] Creating layer conv3
I0502 20:28:47.680639 18630 net.cpp:84] Creating Layer conv3
I0502 20:28:47.680642 18630 net.cpp:406] conv3 <- pool2
I0502 20:28:47.680649 18630 net.cpp:380] conv3 -> conv3
I0502 20:28:47.706034 18630 net.cpp:122] Setting up conv3
I0502 20:28:47.706056 18630 net.cpp:129] Top shape: 32 384 13 13 (2076672)
I0502 20:28:47.706059 18630 net.cpp:137] Memory required for data: 225767168
I0502 20:28:47.706073 18630 layer_factory.hpp:77] Creating layer relu3
I0502 20:28:47.706081 18630 net.cpp:84] Creating Layer relu3
I0502 20:28:47.706085 18630 net.cpp:406] relu3 <- conv3
I0502 20:28:47.706094 18630 net.cpp:367] relu3 -> conv3 (in-place)
I0502 20:28:47.706719 18630 net.cpp:122] Setting up relu3
I0502 20:28:47.706732 18630 net.cpp:129] Top shape: 32 384 13 13 (2076672)
I0502 20:28:47.706734 18630 net.cpp:137] Memory required for data: 234073856
I0502 20:28:47.706738 18630 layer_factory.hpp:77] Creating layer conv4
I0502 20:28:47.706749 18630 net.cpp:84] Creating Layer conv4
I0502 20:28:47.706753 18630 net.cpp:406] conv4 <- conv3
I0502 20:28:47.706759 18630 net.cpp:380] conv4 -> conv4
I0502 20:28:47.727231 18630 net.cpp:122] Setting up conv4
I0502 20:28:47.727254 18630 net.cpp:129] Top shape: 32 384 13 13 (2076672)
I0502 20:28:47.727259 18630 net.cpp:137] Memory required for data: 242380544
I0502 20:28:47.727270 18630 layer_factory.hpp:77] Creating layer relu4
I0502 20:28:47.727280 18630 net.cpp:84] Creating Layer relu4
I0502 20:28:47.727286 18630 net.cpp:406] relu4 <- conv4
I0502 20:28:47.727294 18630 net.cpp:367] relu4 -> conv4 (in-place)
I0502 20:28:47.727640 18630 net.cpp:122] Setting up relu4
I0502 20:28:47.727648 18630 net.cpp:129] Top shape: 32 384 13 13 (2076672)
I0502 20:28:47.727653 18630 net.cpp:137] Memory required for data: 250687232
I0502 20:28:47.727656 18630 layer_factory.hpp:77] Creating layer conv5
I0502 20:28:47.727669 18630 net.cpp:84] Creating Layer conv5
I0502 20:28:47.727672 18630 net.cpp:406] conv5 <- conv4
I0502 20:28:47.727679 18630 net.cpp:380] conv5 -> conv5
I0502 20:28:47.736658 18630 net.cpp:122] Setting up conv5
I0502 20:28:47.736687 18630 net.cpp:129] Top shape: 32 256 13 13 (1384448)
I0502 20:28:47.736691 18630 net.cpp:137] Memory required for data: 256225024
I0502 20:28:47.736706 18630 layer_factory.hpp:77] Creating layer relu5
I0502 20:28:47.736713 18630 net.cpp:84] Creating Layer relu5
I0502 20:28:47.736719 18630 net.cpp:406] relu5 <- conv5
I0502 20:28:47.736747 18630 net.cpp:367] relu5 -> conv5 (in-place)
I0502 20:28:47.737254 18630 net.cpp:122] Setting up relu5
I0502 20:28:47.737264 18630 net.cpp:129] Top shape: 32 256 13 13 (1384448)
I0502 20:28:47.737269 18630 net.cpp:137] Memory required for data: 261762816
I0502 20:28:47.737274 18630 layer_factory.hpp:77] Creating layer pool5
I0502 20:28:47.737285 18630 net.cpp:84] Creating Layer pool5
I0502 20:28:47.737290 18630 net.cpp:406] pool5 <- conv5
I0502 20:28:47.737296 18630 net.cpp:380] pool5 -> pool5
I0502 20:28:47.737335 18630 net.cpp:122] Setting up pool5
I0502 20:28:47.737341 18630 net.cpp:129] Top shape: 32 256 6 6 (294912)
I0502 20:28:47.737345 18630 net.cpp:137] Memory required for data: 262942464
I0502 20:28:47.737349 18630 layer_factory.hpp:77] Creating layer fc6
I0502 20:28:47.737357 18630 net.cpp:84] Creating Layer fc6
I0502 20:28:47.737362 18630 net.cpp:406] fc6 <- pool5
I0502 20:28:47.737368 18630 net.cpp:380] fc6 -> fc6
I0502 20:28:48.164249 18630 net.cpp:122] Setting up fc6
I0502 20:28:48.164273 18630 net.cpp:129] Top shape: 32 4096 (131072)
I0502 20:28:48.164276 18630 net.cpp:137] Memory required for data: 263466752
I0502 20:28:48.164286 18630 layer_factory.hpp:77] Creating layer relu6
I0502 20:28:48.164297 18630 net.cpp:84] Creating Layer relu6
I0502 20:28:48.164302 18630 net.cpp:406] relu6 <- fc6
I0502 20:28:48.164309 18630 net.cpp:367] relu6 -> fc6 (in-place)
I0502 20:28:48.173827 18630 net.cpp:122] Setting up relu6
I0502 20:28:48.173846 18630 net.cpp:129] Top shape: 32 4096 (131072)
I0502 20:28:48.173851 18630 net.cpp:137] Memory required for data: 263991040
I0502 20:28:48.173856 18630 layer_factory.hpp:77] Creating layer drop6
I0502 20:28:48.173866 18630 net.cpp:84] Creating Layer drop6
I0502 20:28:48.173871 18630 net.cpp:406] drop6 <- fc6
I0502 20:28:48.173877 18630 net.cpp:367] drop6 -> fc6 (in-place)
I0502 20:28:48.173910 18630 net.cpp:122] Setting up drop6
I0502 20:28:48.173916 18630 net.cpp:129] Top shape: 32 4096 (131072)
I0502 20:28:48.173919 18630 net.cpp:137] Memory required for data: 264515328
I0502 20:28:48.173923 18630 layer_factory.hpp:77] Creating layer fc7
I0502 20:28:48.173933 18630 net.cpp:84] Creating Layer fc7
I0502 20:28:48.173936 18630 net.cpp:406] fc7 <- fc6
I0502 20:28:48.173941 18630 net.cpp:380] fc7 -> fc7
I0502 20:28:48.349195 18630 net.cpp:122] Setting up fc7
I0502 20:28:48.349221 18630 net.cpp:129] Top shape: 32 4096 (131072)
I0502 20:28:48.349225 18630 net.cpp:137] Memory required for data: 265039616
I0502 20:28:48.349234 18630 layer_factory.hpp:77] Creating layer relu7
I0502 20:28:48.349246 18630 net.cpp:84] Creating Layer relu7
I0502 20:28:48.349251 18630 net.cpp:406] relu7 <- fc7
I0502 20:28:48.349256 18630 net.cpp:367] relu7 -> fc7 (in-place)
I0502 20:28:48.349674 18630 net.cpp:122] Setting up relu7
I0502 20:28:48.349684 18630 net.cpp:129] Top shape: 32 4096 (131072)
I0502 20:28:48.349687 18630 net.cpp:137] Memory required for data: 265563904
I0502 20:28:48.349691 18630 layer_factory.hpp:77] Creating layer drop7
I0502 20:28:48.349699 18630 net.cpp:84] Creating Layer drop7
I0502 20:28:48.349704 18630 net.cpp:406] drop7 <- fc7
I0502 20:28:48.349709 18630 net.cpp:367] drop7 -> fc7 (in-place)
I0502 20:28:48.349732 18630 net.cpp:122] Setting up drop7
I0502 20:28:48.349738 18630 net.cpp:129] Top shape: 32 4096 (131072)
I0502 20:28:48.349741 18630 net.cpp:137] Memory required for data: 266088192
I0502 20:28:48.349745 18630 layer_factory.hpp:77] Creating layer fc8
I0502 20:28:48.349751 18630 net.cpp:84] Creating Layer fc8
I0502 20:28:48.349756 18630 net.cpp:406] fc8 <- fc7
I0502 20:28:48.349761 18630 net.cpp:380] fc8 -> fc8
I0502 20:28:48.362427 18630 net.cpp:122] Setting up fc8
I0502 20:28:48.362450 18630 net.cpp:129] Top shape: 32 196 (6272)
I0502 20:28:48.362457 18630 net.cpp:137] Memory required for data: 266113280
I0502 20:28:48.362468 18630 layer_factory.hpp:77] Creating layer fc8_fc8_0_split
I0502 20:28:48.362511 18630 net.cpp:84] Creating Layer fc8_fc8_0_split
I0502 20:28:48.362521 18630 net.cpp:406] fc8_fc8_0_split <- fc8
I0502 20:28:48.362561 18630 net.cpp:380] fc8_fc8_0_split -> fc8_fc8_0_split_0
I0502 20:28:48.362573 18630 net.cpp:380] fc8_fc8_0_split -> fc8_fc8_0_split_1
I0502 20:28:48.362627 18630 net.cpp:122] Setting up fc8_fc8_0_split
I0502 20:28:48.362635 18630 net.cpp:129] Top shape: 32 196 (6272)
I0502 20:28:48.362640 18630 net.cpp:129] Top shape: 32 196 (6272)
I0502 20:28:48.362644 18630 net.cpp:137] Memory required for data: 266163456
I0502 20:28:48.362649 18630 layer_factory.hpp:77] Creating layer accuracy
I0502 20:28:48.362661 18630 net.cpp:84] Creating Layer accuracy
I0502 20:28:48.362666 18630 net.cpp:406] accuracy <- fc8_fc8_0_split_0
I0502 20:28:48.362673 18630 net.cpp:406] accuracy <- label_val-data_1_split_0
I0502 20:28:48.362680 18630 net.cpp:380] accuracy -> accuracy
…
