…
I0509 14:27:16.703943 14869 net.cpp:294] The NetState phase (0) differed from the phase (1) specified by a rule in layer loss3/top-5
I0509 14:27:16.704780 14869 net.cpp:51] Initializing net from parameters:
state {
phase: TRAIN
level: 0
stage: ""
}
layer {
name: "train-data"
type: "Data"
top: "data"
top: "label"
include {
phase: TRAIN
}
transform_param {
mirror: true
crop_size: 224
mean_file: "/mnt/bigdisk/AMBDIG8/digits/jobs/20200508-231203-8394/mean.binaryproto"
}
data_param {
source: "/mnt/bigdisk/AMBDIG8/digits/jobs/20200508-231203-8394/train_db"
batch_size: 50
backend: LMDB
}
}
layer {
name: "conv1/7x7_s2"
type: "Convolution"
bottom: "data"
top: "conv1/7x7_s2"
param {
lr_mult: 1
decay_mult: 1
}
param {
lr_mult: 2
decay_mult: 0
}
convolution_param {
num_output: 64
pad: 3
kernel_size: 7
stride: 2
weight_filler {
type: "xavier"
std: 0.1
}
bias_filler {
type: "constant"
value: 0.2
}
}
}
layer {
name: "conv1/relu_7x7"
type: "ReLU"
bottom: "conv1/7x7_s2"
top: "conv1/7x7_s2"
}
layer {
name: "pool1/3x3_s2"
type: "Pooling"
bottom: "conv1/7x7_s2"
top: "pool1/3x3_s2"
pooling_param {
pool: MAX
kernel_size: 3
stride: 2
}
}
layer {
name: "pool1/norm1"
type: "LRN"
bottom: "pool1/3x3_s2"
top: "pool1/norm1"
lrn_param {
local_size: 5
alpha: 0.0001
beta: 0.75
}
}
layer {
name: "conv2/3x3_reduce"
type: "Convolution"
bottom: "pool1/norm1"
top: "conv2/3x3_reduce"
param {
lr_mult: 1
decay_mult: 1
}
param {
lr_mult: 2
decay_mult: 0
}
convolution_param {
num_output: 64
kernel_size: 1
weight_filler {
type: "xavier"
std: 0.1
}
bias_filler {
type: "constant"
value: 0.2
}
}
}
layer {
name: "conv2/relu_3x3_reduce"
type: "ReLU"
bottom: "conv2/3x3_reduce"
top: "conv2/3x3_reduce"
}
layer {
name: "conv2/3x3"
type: "Convolution"
bottom: "conv2/3x3_reduce"
top: "conv2/3x3"
param {
lr_mult: 1
decay_mult: 1
}
param {
lr_mult: 2
decay_mult: 0
}
convolution_param {
num_output: 192
pad: 1
kernel_size: 3
weight_filler {
type: "xavier"
std: 0.03
}
bias_filler {
type: "constant"
value: 0.2
}
}
}
layer {
name: "conv2/relu_3x3"
type: "ReLU"
bottom: "conv2/3x3"
top: "conv2/3x3"
}
layer {
name: "conv2/norm2"
type: "LRN"
bottom: "conv2/3x3"
top: "conv2/norm2"
lrn_param {
local_size: 5
alpha: 0.0001
beta: 0.75
}
}
layer {
name: "pool2/3x3_s2"
type: "Pooling"
bottom: "conv2/norm2"
top: "pool2/3x3_s2"
pooling_param {
pool: MAX
kernel_size: 3
stride: 2
}
}
layer {
name: "inception_3a/1x1"
type: "Convolution"
bottom: "pool2/3x3_s2"
top: "inception_3a/1x1"
param {
lr_mult: 1
decay_mult: 1
}
param {
lr_mult: 2
decay_mult: 0
}
convolution_param {
num_output: 64
kernel_size: 1
weight_filler {
type: "xavier"
std: 0.03
}
bias_filler {
type: "constant"
value: 0.2
}
}
}
layer {
name: "inception_3a/relu_1x1"
type: "ReLU"
bottom: "inception_3a/1x1"
top: "inception_3a/1x1"
}
layer {
name: "inception_3a/3x3_reduce"
type: "Convolution"
bottom: "pool2/3x3_s2"
top: "inception_3a/3x3_reduce"
param {
lr_mult: 1
decay_mult: 1
}
param {
lr_mult: 2
decay_mult: 0
}
convolution_param {
num_output: 96
kernel_size: 1
weight_filler {
type: "xavier"
std: 0.09
}
bias_filler {
type: "constant"
value: 0.2
}
}
}
layer {
name: "inception_3a/relu_3x3_reduce"
type: "ReLU"
bottom: "inception_3a/3x3_reduce"
top: "inception_3a/3x3_reduce"
}
layer {
name: "inception_3a/3x3"
type: "Convolution"
bottom: "inception_3a/3x3_reduce"
top: "inception_3a/3x3"
param {
lr_mult: 1
decay_mult: 1
}
param {
lr_mult: 2
decay_mult: 0
}
convolution_param {
num_output: 128
pad: 1
kernel_size: 3
weight_filler {
type: "xavier"
std: 0.03
}
bias_filler {
type: "constant"
value: 0.2
}
}
}
layer {
name: "inception_3a/relu_3x3"
type: "ReLU"
bottom: "inception_3a/3x3"
top: "inception_3a/3x3"
}
layer {
name: "inception_3a/5x5_reduce"
type: "Convolution"
bottom: "pool2/3x3_s2"
top: "inception_3a/5x5_reduce"
param {
lr_mult: 1
decay_mult: 1
}
param {
lr_mult: 2
decay_mult: 0
}
convolution_param {
num_output: 16
kernel_size: 1
weight_filler {
type: "xavier"
std: 0.2
}
bias_filler {
type: "constant"
value: 0.2
}
}
}
layer {
name: "inception_3a/relu_5x5_reduce"
type: "ReLU"
bottom: "inception_3a/5x5_reduce"
top: "inception_3a/5x5_reduce"
}
layer {
name: "inception_3a/5x5"
type: "Convolution"
bottom: "inception_3a/5x5_reduce"
top: "inception_3a/5x5"
param {
lr_mult: 1
decay_mult: 1
}
param {
lr_mult: 2
decay_mult: 0
}
convolution_param {
num_output: 32
pad: 2
kernel_size: 5
weight_filler {
type: "xavier"
std: 0.03
}
bias_filler {
type: "constant"
value: 0.2
}
}
}
layer {
name: "inception_3a/relu_5x5"
type: "ReLU"
bottom: "inception_3a/5x5"
top: "inception_3a/5x5"
}
layer {
name: "inception_3a/pool"
type: "Pooling"
bottom: "pool2/3x3_s2"
top: "inception_3a/pool"
pooling_param {
pool: MAX
kernel_size: 3
stride: 1
pad: 1
}
}
layer {
name: "inception_3a/pool_proj"
type: "Convolution"
bottom: "inception_3a/pool"
top: "inception_3a/pool_proj"
param {
lr_mult: 1
decay_mult: 1
}
param {
lr_mult: 2
decay_mult: 0
}
convolution_param {
num_output: 32
kernel_size: 1
weight_filler {
type: "xavier"
std: 0.1
}
bias_filler {
type: "constant"
value: 0.2
}
}
}
layer {
name: "inception_3a/relu_pool_proj"
type: "ReLU"
bottom: "inception_3a/pool_proj"
top: "inception_3a/pool_proj"
}
layer {
name: "inception_3a/output"
type: "Concat"
bottom: "inception_3a/1x1"
bottom: "inception_3a/3x3"
bottom: "inception_3a/5x5"
bottom: "inception_3a/pool_proj"
top: "inception_3a/output"
}
layer {
name: "inception_3b/1x1"
type: "Convolution"
bottom: "inception_3a/output"
top: "inception_3b/1x1"
param {
lr_mult: 1
decay_mult: 1
}
param {
lr_mult: 2
decay_mult: 0
}
convolution_param {
num_output: 128
kernel_size: 1
weight_filler {
type: "xavier"
std: 0.03
}
bias_filler {
type: "constant"
value: 0.2
}
}
}
layer {
name: "inception_3b/relu_1x1"
type: "ReLU"
bottom: "inception_3b/1x1"
top: "inception_3b/1x1"
}
layer {
name: "inception_3b/3x3_reduce"
type: "Convolution"
bottom: "inception_3a/output"
top: "inception_3b/3x3_reduce"
param {
lr_mult: 1
decay_mult: 1
}
param {
lr_mult: 2
decay_mult: 0
}
convolution_param {
num_output: 128
kernel_size: 1
weight_filler {
type: "xavier"
std: 0.09
}
bias_filler {
type: "constant"
value: 0.2
}
}
}
layer {
name: "inception_3b/relu_3x3_reduce"
type: "ReLU"
bottom: "inception_3b/3x3_reduce"
top: "inception_3b/3x3_reduce"
}
layer {
name: "inception_3b/3x3"
type: "Convolution"
bottom: "inception_3b/3x3_reduce"
top: "inception_3b/3x3"
param {
lr_mult: 1
decay_mult: 1
}
param {
lr_mult: 2
decay_mult: 0
}
convolution_param {
num_output: 192
pad: 1
kernel_size: 3
weight_filler {
type: "xavier"
std: 0.03
}
bias_filler {
type: "constant"
value: 0.2
}
}
}
layer {
name: "inception_3b/relu_3x3"
type: "ReLU"
bottom: "inception_3b/3x3"
top: "inception_3b/3x3"
}
layer {
name: "inception_3b/5x5_reduce"
type: "Convolution"
bottom: "inception_3a/output"
top: "inception_3b/5x5_reduce"
param {
lr_mult: 1
decay_mult: 1
}
param {
lr_mult: 2
decay_mult: 0
}
convolution_param {
num_output: 32
kernel_size: 1
weight_filler {
type: "xavier"
std: 0.2
}
bias_filler {
type: "constant"
value: 0.2
}
}
}
layer {
name: "inception_3b/relu_5x5_reduce"
type: "ReLU"
bottom: "inception_3b/5x5_reduce"
top: "inception_3b/5x5_reduce"
}
layer {
name: "inception_3b/5x5"
type: "Convolution"
bottom: "inception_3b/5x5_reduce"
top: "inception_3b/5x5"
param {
lr_mult: 1
decay_mult: 1
}
param {
lr_mult: 2
decay_mult: 0
}
convolution_param {
num_output: 96
pad: 2
kernel_size: 5
weight_filler {
type: "xavier"
std: 0.03
}
bias_filler {
type: "constant"
value: 0.2
}
}
}
layer {
name: "inception_3b/relu_5x5"
type: "ReLU"
bottom: "inception_3b/5x5"
top: "inception_3b/5x5"
}
layer {
name: "inception_3b/pool"
type: "Pooling"
bottom: "inception_3a/output"
top: "inception_3b/pool"
pooling_param {
pool: MAX
kernel_size: 3
stride: 1
pad: 1
}
}
layer {
name: "inception_3b/pool_proj"
type: "Convolution"
bottom: "inception_3b/pool"
top: "inception_3b/pool_proj"
param {
lr_mult: 1
decay_mult: 1
}
param {
lr_mult: 2
decay_mult: 0
}
convolution_param {
num_output: 64
kernel_size: 1
weight_filler {
type: "xavier"
std: 0.1
}
bias_filler {
type: "constant"
value: 0.2
}
}
}
layer {
name: "inception_3b/relu_pool_proj"
type: "ReLU"
bottom: "inception_3b/pool_proj"
top: "inception_3b/pool_proj"
}
layer {
name: "inception_3b/output"
type: "Concat"
bottom: "inception_3b/1x1"
bottom: "inception_3b/3x3"
bottom: "inception_3b/5x5"
bottom: "inception_3b/pool_proj"
top: "inception_3b/output"
}
layer {
name: "pool3/3x3_s2"
type: "Pooling"
bottom: "inception_3b/output"
top: "pool3/3x3_s2"
pooling_param {
pool: MAX
kernel_size: 3
stride: 2
}
}
layer {
name: "inception_4a/1x1"
type: "Convolution"
bottom: "pool3/3x3_s2"
top: "inception_4a/1x1"
param {
lr_mult: 1
decay_mult: 1
}
param {
lr_mult: 2
decay_mult: 0
}
convolution_param {
num_output: 192
kernel_size: 1
weight_filler {
type: "xavier"
std: 0.03
}
bias_filler {
type: "constant"
value: 0.2
}
}
}
layer {
name: "inception_4a/relu_1x1"
type: "ReLU"
bottom: "inception_4a/1x1"
top: "inception_4a/1x1"
}
layer {
name: "inception_4a/3x3_reduce"
type: "Convolution"
bottom: "pool3/3x3_s2"
top: "inception_4a/3x3_reduce"
param {
lr_mult: 1
decay_mult: 1
}
param {
lr_mult: 2
decay_mult: 0
}
convolution_param {
num_output: 96
kernel_size: 1
weight_filler {
type: "xavier"
std: 0.09
}
bias_filler {
type: "constant"
value: 0.2
}
}
}
layer {
name: "inception_4a/relu_3x3_reduce"
type: "ReLU"
bottom: "inception_4a/3x3_reduce"
top: "inception_4a/3x3_reduce"
}
layer {
name: "inception_4a/3x3"
type: "Convolution"
bottom: "inception_4a/3x3_reduce"
top: "inception_4a/3x3"
param {
lr_mult: 1
decay_mult: 1
}
param {
lr_mult: 2
decay_mult: 0
}
convolution_param {
num_output: 208
pad: 1
kernel_size: 3
weight_filler {
type: "xavier"
std: 0.03
}
bias_filler {
type: "constant"
value: 0.2
}
}
}
layer {
name: "inception_4a/relu_3x3"
type: "ReLU"
bottom: "inception_4a/3x3"
top: "inception_4a/3x3"
}
layer {
name: "inception_4a/5x5_reduce"
type: "Convolution"
bottom: "pool3/3x3_s2"
top: "inception_4a/5x5_reduce"
param {
lr_mult: 1
decay_mult: 1
}
param {
lr_mult: 2
decay_mult: 0
}
convolution_param {
num_output: 16
kernel_size: 1
weight_filler {
type: "xavier"
std: 0.2
}
bias_filler {
type: "constant"
value: 0.2
}
}
}
layer {
name: "inception_4a/relu_5x5_reduce"
type: "ReLU"
bottom: "inception_4a/5x5_reduce"
top: "inception_4a/5x5_reduce"
}
layer {
name: "inception_4a/5x5"
type: "Convolution"
bottom: "inception_4a/5x5_reduce"
top: "inception_4a/5x5"
param {
lr_mult: 1
decay_mult: 1
}
param {
lr_mult: 2
decay_mult: 0
}
convolution_param {
num_output: 48
pad: 2
kernel_size: 5
weight_filler {
type: "xavier"
std: 0.03
}
bias_filler {
type: "constant"
value: 0.2
}
}
}
layer {
name: "inception_4a/relu_5x5"
type: "ReLU"
bottom: "inception_4a/5x5"
top: "inception_4a/5x5"
}
layer {
name: "inception_4a/pool"
type: "Pooling"
bottom: "pool3/3x3_s2"
top: "inception_4a/pool"
pooling_param {
pool: MAX
kernel_size: 3
stride: 1
pad: 1
}
}
layer {
name: "inception_4a/pool_proj"
type: "Convolution"
bottom: "inception_4a/pool"
top: "inception_4a/pool_proj"
param {
lr_mult: 1
decay_mult: 1
}
param {
lr_mult: 2
decay_mult: 0
}
convolution_param {
num_output: 64
kernel_size: 1
weight_filler {
type: "xavier"
std: 0.1
}
bias_filler {
type: "constant"
value: 0.2
}
}
}
layer {
name: "inception_4a/relu_pool_proj"
type: "ReLU"
bottom: "inception_4a/pool_proj"
top: "inception_4a/pool_proj"
}
layer {
name: "inception_4a/output"
type: "Concat"
bottom: "inception_4a/1x1"
bottom: "inception_4a/3x3"
bottom: "inception_4a/5x5"
bottom: "inception_4a/pool_proj"
top: "inception_4a/output"
}
layer {
name: "loss1/ave_pool"
type: "Pooling"
bottom: "inception_4a/output"
top: "loss1/ave_pool"
pooling_param {
pool: AVE
kernel_size: 5
stride: 3
}
}
layer {
name: "loss1/conv"
type: "Convolution"
bottom: "loss1/ave_pool"
top: "loss1/conv"
param {
lr_mult: 1
decay_mult: 1
}
param {
lr_mult: 2
decay_mult: 0
}
convolution_param {
num_output: 128
kernel_size: 1
weight_filler {
type: "xavier"
std: 0.08
}
bias_filler {
type: "constant"
value: 0.2
}
}
}
layer {
name: "loss1/relu_conv"
type: "ReLU"
bottom: "loss1/conv"
top: "loss1/conv"
}
layer {
name: "loss1/fc"
type: "InnerProduct"
bottom: "loss1/conv"
top: "loss1/fc"
param {
lr_mult: 1
decay_mult: 1
}
param {
lr_mult: 2
decay_mult: 0
}
inner_product_param {
num_output: 1024
weight_filler {
type: "xavier"
std: 0.02
}
bias_filler {
type: "constant"
value: 0.2
}
}
}
layer {
name: "loss1/relu_fc"
type: "ReLU"
bottom: "loss1/fc"
top: "loss1/fc"
}
layer {
name: "loss1/drop_fc"
type: "Dropout"
bottom: "loss1/fc"
top: "loss1/fc"
dropout_param {
dropout_ratio: 0.7
}
}
layer {
name: "loss1/classifier"
type: "InnerProduct"
bottom: "loss1/fc"
top: "loss1/classifier"
param {
lr_mult: 1
decay_mult: 1
}
param {
lr_mult: 2
decay_mult: 0
}
inner_product_param {
num_output: 196
weight_filler {
type: "xavier"
std: 0.0009765625
}
bias_filler {
type: "constant"
value: 0
}
}
}
layer {
name: "loss1/loss"
type: "SoftmaxWithLoss"
bottom: "loss1/classifier"
bottom: "label"
top: "loss1/loss"
loss_weight: 0.3
}
layer {
name: "inception_4b/1x1"
type: "Convolution"
bottom: "inception_4a/output"
top: "inception_4b/1x1"
param {
lr_mult: 1
decay_mult: 1
}
param {
lr_mult: 2
decay_mult: 0
}
convolution_param {
num_output: 160
kernel_size: 1
weight_filler {
type: "xavier"
std: 0.03
}
bias_filler {
type: "constant"
value: 0.2
}
}
}
layer {
name: "inception_4b/relu_1x1"
type: "ReLU"
bottom: "inception_4b/1x1"
top: "inception_4b/1x1"
}
layer {
name: "inception_4b/3x3_reduce"
type: "Convolution"
bottom: "inception_4a/output"
top: "inception_4b/3x3_reduce"
param {
lr_mult: 1
decay_mult: 1
}
param {
lr_mult: 2
decay_mult: 0
}
convolution_param {
num_output: 112
kernel_size: 1
weight_filler {
type: "xavier"
std: 0.09
}
bias_filler {
type: "constant"
value: 0.2
}
}
}
layer {
name: "inception_4b/relu_3x3_reduce"
type: "ReLU"
bottom: "inception_4b/3x3_reduce"
top: "inception_4b/3x3_reduce"
}
layer {
name: "inception_4b/3x3"
type: "Convolution"
bottom: "inception_4b/3x3_reduce"
top: "inception_4b/3x3"
param {
lr_mult: 1
decay_mult: 1
}
param {
lr_mult: 2
decay_mult: 0
}
convolution_param {
num_output: 224
pad: 1
kernel_size: 3
weight_filler {
type: "xavier"
std: 0.03
}
bias_filler {
type: "constant"
value: 0.2
}
}
}
layer {
name: "inception_4b/relu_3x3"
type: "ReLU"
bottom: "inception_4b/3x3"
top: "inception_4b/3x3"
}
layer {
name: "inception_4b/5x5_reduce"
type: "Convolution"
bottom: "inception_4a/output"
top: "inception_4b/5x5_reduce"
param {
lr_mult: 1
decay_mult: 1
}
param {
lr_mult: 2
decay_mult: 0
}
convolution_param {
num_output: 24
kernel_size: 1
weight_filler {
type: "xavier"
std: 0.2
}
bias_filler {
type: "constant"
value: 0.2
}
}
}
layer {
name: "inception_4b/relu_5x5_reduce"
type: "ReLU"
bottom: "inception_4b/5x5_reduce"
top: "inception_4b/5x5_reduce"
}
layer {
name: "inception_4b/5x5"
type: "Convolution"
bottom: "inception_4b/5x5_reduce"
top: "inception_4b/5x5"
param {
lr_mult: 1
decay_mult: 1
}
param {
lr_mult: 2
decay_mult: 0
}
convolution_param {
num_output: 64
pad: 2
kernel_size: 5
weight_filler {
type: "xavier"
std: 0.03
}
bias_filler {
type: "constant"
value: 0.2
}
}
}
layer {
name: "inception_4b/relu_5x5"
type: "ReLU"
bottom: "inception_4b/5x5"
top: "inception_4b/5x5"
}
layer {
name: "inception_4b/pool"
type: "Pooling"
bottom: "inception_4a/output"
top: "inception_4b/pool"
pooling_param {
pool: MAX
kernel_size: 3
stride: 1
pad: 1
}
}
layer {
name: "inception_4b/pool_proj"
type: "Convolution"
bottom: "inception_4b/pool"
top: "inception_4b/pool_proj"
param {
lr_mult: 1
decay_mult: 1
}
param {
lr_mult: 2
decay_mult: 0
}
convolution_param {
num_output: 64
kernel_size: 1
weight_filler {
type: "xavier"
std: 0.1
}
bias_filler {
type: "constant"
value: 0.2
}
}
}
layer {
name: "inception_4b/relu_pool_proj"
type: "ReLU"
bottom: "inception_4b/pool_proj"
top: "inception_4b/pool_proj"
}
layer {
name: "inception_4b/output"
type: "Concat"
bottom: "inception_4b/1x1"
bottom: "inception_4b/3x3"
bottom: "inception_4b/5x5"
bottom: "inception_4b/pool_proj"
top: "inception_4b/output"
}
layer {
name: "inception_4c/1x1"
type: "Convolution"
bottom: "inception_4b/output"
top: "inception_4c/1x1"
param {
lr_mult: 1
decay_mult: 1
}
param {
lr_mult: 2
decay_mult: 0
}
convolution_param {
num_output: 128
kernel_size: 1
weight_filler {
type: "xavier"
std: 0.03
}
bias_filler {
type: "constant"
value: 0.2
}
}
}
layer {
name: "inception_4c/relu_1x1"
type: "ReLU"
bottom: "inception_4c/1x1"
top: "inception_4c/1x1"
}
layer {
name: "inception_4c/3x3_reduce"
type: "Convolution"
bottom: "inception_4b/output"
top: "inception_4c/3x3_reduce"
param {
lr_mult: 1
decay_mult: 1
}
param {
lr_mult: 2
decay_mult: 0
}
convolution_param {
num_output: 128
kernel_size: 1
weight_filler {
type: "xavier"
std: 0.09
}
bias_filler {
type: "constant"
value: 0.2
}
}
}
layer {
name: "inception_4c/relu_3x3_reduce"
type: "ReLU"
bottom: "inception_4c/3x3_reduce"
top: "inception_4c/3x3_reduce"
}
layer {
name: "inception_4c/3x3"
type: "Convolution"
bottom: "inception_4c/3x3_reduce"
top: "inception_4c/3x3"
param {
lr_mult: 1
decay_mult: 1
}
param {
lr_mult: 2
decay_mult: 0
}
convolution_param {
num_output: 256
pad: 1
kernel_size: 3
weight_filler {
type: "xavier"
std: 0.03
}
bias_filler {
type: "constant"
value: 0.2
}
}
}
layer {
name: "inception_4c/relu_3x3"
type: "ReLU"
bottom: "inception_4c/3x3"
top: "inception_4c/3x3"
}
layer {
name: "inception_4c/5x5_reduce"
type: "Convolution"
bottom: "inception_4b/output"
top: "inception_4c/5x5_reduce"
param {
lr_mult: 1
decay_mult: 1
}
param {
lr_mult: 2
decay_mult: 0
}
convolution_param {
num_output: 24
kernel_size: 1
weight_filler {
type: "xavier"
std: 0.2
}
bias_filler {
type: "constant"
value: 0.2
}
}
}
layer {
name: "inception_4c/relu_5x5_reduce"
type: "ReLU"
bottom: "inception_4c/5x5_reduce"
top: "inception_4c/5x5_reduce"
}
layer {
name: "inception_4c/5x5"
type: "Convolution"
bottom: "inception_4c/5x5_reduce"
top: "inception_4c/5x5"
param {
lr_mult: 1
decay_mult: 1
}
param {
lr_mult: 2
decay_mult: 0
}
convolution_param {
num_output: 64
pad: 2
kernel_size: 5
weight_filler {
type: "xavier"
std: 0.03
}
bias_filler {
type: "constant"
value: 0.2
}
}
}
layer {
name: "inception_4c/relu_5x5"
type: "ReLU"
bottom: "inception_4c/5x5"
top: "inception_4c/5x5"
}
layer {
name: "inception_4c/pool"
type: "Pooling"
bottom: "inception_4b/output"
top: "inception_4c/pool"
pooling_param {
pool: MAX
kernel_size: 3
stride: 1
pad: 1
}
}
layer {
name: "inception_4c/pool_proj"
type: "Convolution"
bottom: "inception_4c/pool"
top: "inception_4c/pool_proj"
param {
lr_mult: 1
decay_mult: 1
}
param {
lr_mult: 2
decay_mult: 0
}
convolution_param {
num_output: 64
kernel_size: 1
weight_filler {
type: "xavier"
std: 0.1
}
bias_filler {
type: "constant"
value: 0.2
}
}
}
layer {
name: "inception_4c/relu_pool_proj"
type: "ReLU"
bottom: "inception_4c/pool_proj"
top: "inception_4c/pool_proj"
}
layer {
name: "inception_4c/output"
type: "Concat"
bottom: "inception_4c/1x1"
bottom: "inception_4c/3x3"
bottom: "inception_4c/5x5"
bottom: "inception_4c/pool_proj"
top: "inception_4c/output"
}
layer {
name: "inception_4d/1x1"
type: "Convolution"
bottom: "inception_4c/output"
top: "inception_4d/1x1"
param {
lr_mult: 1
decay_mult: 1
}
param {
lr_mult: 2
decay_mult: 0
}
convolution_param {
num_output: 112
kernel_size: 1
weight_filler {
type: "xavier"
std: 0.03
}
bias_filler {
type: "constant"
value: 0.2
}
}
}
layer {
name: "inception_4d/relu_1x1"
type: "ReLU"
bottom: "inception_4d/1x1"
top: "inception_4d/1x1"
}
layer {
name: "inception_4d/3x3_reduce"
type: "Convolution"
bottom: "inception_4c/output"
top: "inception_4d/3x3_reduce"
param {
lr_mult: 1
decay_mult: 1
}
param {
lr_mult: 2
decay_mult: 0
}
convolution_param {
num_output: 144
kernel_size: 1
weight_filler {
type: "xavier"
std: 0.09
}
bias_filler {
type: "constant"
value: 0.2
}
}
}
layer {
name: "inception_4d/relu_3x3_reduce"
type: "ReLU"
bottom: "inception_4d/3x3_reduce"
top: "inception_4d/3x3_reduce"
}
layer {
name: "inception_4d/3x3"
type: "Convolution"
bottom: "inception_4d/3x3_reduce"
top: "inception_4d/3x3"
param {
lr_mult: 1
decay_mult: 1
}
param {
lr_mult: 2
decay_mult: 0
}
convolution_param {
num_output: 288
pad: 1
kernel_size: 3
weight_filler {
type: "xavier"
std: 0.03
}
bias_filler {
type: "constant"
value: 0.2
}
}
}
layer {
name: "inception_4d/relu_3x3"
type: "ReLU"
bottom: "inception_4d/3x3"
top: "inception_4d/3x3"
}
layer {
name: "inception_4d/5x5_reduce"
type: "Convolution"
bottom: "inception_4c/output"
top: "inception_4d/5x5_reduce"
param {
lr_mult: 1
decay_mult: 1
}
param {
lr_mult: 2
decay_mult: 0
}
convolution_param {
num_output: 32
kernel_size: 1
weight_filler {
type: "xavier"
std: 0.2
}
bias_filler {
type: "constant"
value: 0.2
}
}
}
layer {
name: "inception_4d/relu_5x5_reduce"
type: "ReLU"
bottom: "inception_4d/5x5_reduce"
top: "inception_4d/5x5_reduce"
}
layer {
name: "inception_4d/5x5"
type: "Convolution"
bottom: "inception_4d/5x5_reduce"
top: "inception_4d/5x5"
param {
lr_mult: 1
decay_mult: 1
}
param {
lr_mult: 2
decay_mult: 0
}
convolution_param {
num_output: 64
pad: 2
kernel_size: 5
weight_filler {
type: "xavier"
std: 0.03
}
bias_filler {
type: "constant"
value: 0.2
}
}
}
layer {
name: "inception_4d/relu_5x5"
type: "ReLU"
bottom: "inception_4d/5x5"
top: "inception_4d/5x5"
}
layer {
name: "inception_4d/pool"
type: "Pooling"
bottom: "inception_4c/output"
top: "inception_4d/pool"
pooling_param {
pool: MAX
kernel_size: 3
stride: 1
pad: 1
}
}
layer {
name: "inception_4d/pool_proj"
type: "Convolution"
bottom: "inception_4d/pool"
top: "inception_4d/pool_proj"
param {
lr_mult: 1
decay_mult: 1
}
param {
lr_mult: 2
decay_mult: 0
}
convolution_param {
num_output: 64
kernel_size: 1
weight_filler {
type: "xavier"
std: 0.1
}
bias_filler {
type: "constant"
value: 0.2
}
}
}
layer {
name: "inception_4d/relu_pool_proj"
type: "ReLU"
bottom: "inception_4d/pool_proj"
top: "inception_4d/pool_proj"
}
layer {
name: "inception_4d/output"
type: "Concat"
bottom: "inception_4d/1x1"
bottom: "inception_4d/3x3"
bottom: "inception_4d/5x5"
bottom: "inception_4d/pool_proj"
top: "inception_4d/output"
}
layer {
name: "loss2/ave_pool"
type: "Pooling"
bottom: "inception_4d/output"
top: "loss2/ave_pool"
pooling_param {
pool: AVE
kernel_size: 5
stride: 3
}
}
layer {
name: "loss2/conv"
type: "Convolution"
bottom: "loss2/ave_pool"
top: "loss2/conv"
param {
lr_mult: 1
decay_mult: 1
}
param {
lr_mult: 2
decay_mult: 0
}
convolution_param {
num_output: 128
kernel_size: 1
weight_filler {
type: "xavier"
std: 0.08
}
bias_filler {
type: "constant"
value: 0.2
}
}
}
layer {
name: "loss2/relu_conv"
type: "ReLU"
bottom: "loss2/conv"
top: "loss2/conv"
}
layer {
name: "loss2/fc"
type: "InnerProduct"
bottom: "loss2/conv"
top: "loss2/fc"
param {
lr_mult: 1
decay_mult: 1
}
param {
lr_mult: 2
decay_mult: 0
}
inner_product_param {
num_output: 1024
weight_filler {
type: "xavier"
std: 0.02
}
bias_filler {
type: "constant"
value: 0.2
}
}
}
layer {
name: "loss2/relu_fc"
type: "ReLU"
bottom: "loss2/fc"
top: "loss2/fc"
}
layer {
name: "loss2/drop_fc"
type: "Dropout"
bottom: "loss2/fc"
top: "loss2/fc"
dropout_param {
dropout_ratio: 0.7
}
}
layer {
name: "loss2/classifier"
type: "InnerProduct"
bottom: "loss2/fc"
top: "loss2/classifier"
param {
lr_mult: 1
decay_mult: 1
}
param {
lr_mult: 2
decay_mult: 0
}
inner_product_param {
num_output: 196
weight_filler {
type: "xavier"
std: 0.0009765625
}
bias_filler {
type: "constant"
value: 0
}
}
}
layer {
name: "loss2/loss"
type: "SoftmaxWithLoss"
bottom: "loss2/classifier"
bottom: "label"
top: "loss2/loss"
loss_weight: 0.3
}
layer {
name: "inception_4e/1x1"
type: "Convolution"
bottom: "inception_4d/output"
top: "inception_4e/1x1"
param {
lr_mult: 1
decay_mult: 1
}
param {
lr_mult: 2
decay_mult: 0
}
convolution_param {
num_output: 256
kernel_size: 1
weight_filler {
type: "xavier"
std: 0.03
}
bias_filler {
type: "constant"
value: 0.2
}
}
}
layer {
name: "inception_4e/relu_1x1"
type: "ReLU"
bottom: "inception_4e/1x1"
top: "inception_4e/1x1"
}
layer {
name: "inception_4e/3x3_reduce"
type: "Convolution"
bottom: "inception_4d/output"
top: "inception_4e/3x3_reduce"
param {
lr_mult: 1
decay_mult: 1
}
param {
lr_mult: 2
decay_mult: 0
}
convolution_param {
num_output: 160
kernel_size: 1
weight_filler {
type: "xavier"
std: 0.09
}
bias_filler {
type: "constant"
value: 0.2
}
}
}
layer {
name: "inception_4e/relu_3x3_reduce"
type: "ReLU"
bottom: "inception_4e/3x3_reduce"
top: "inception_4e/3x3_reduce"
}
layer {
name: "inception_4e/3x3"
type: "Convolution"
bottom: "inception_4e/3x3_reduce"
top: "inception_4e/3x3"
param {
lr_mult: 1
decay_mult: 1
}
param {
lr_mult: 2
decay_mult: 0
}
convolution_param {
num_output: 320
pad: 1
kernel_size: 3
weight_filler {
type: "xavier"
std: 0.03
}
bias_filler {
type: "constant"
value: 0.2
}
}
}
layer {
name: "inception_4e/relu_3x3"
type: "ReLU"
bottom: "inception_4e/3x3"
top: "inception_4e/3x3"
}
layer {
name: "inception_4e/5x5_reduce"
type: "Convolution"
bottom: "inception_4d/output"
top: "inception_4e/5x5_reduce"
param {
lr_mult: 1
decay_mult: 1
}
param {
lr_mult: 2
decay_mult: 0
}
convolution_param {
num_output: 32
kernel_size: 1
weight_filler {
type: "xavier"
std: 0.2
}
bias_filler {
type: "constant"
val
I0509 14:27:16.705364 14869 layer_factory.hpp:77] Creating layer train-data
I0509 14:27:16.725585 14869 db_lmdb.cpp:35] Opened lmdb /mnt/bigdisk/AMBDIG8/digits/jobs/20200508-231203-8394/train_db
I0509 14:27:16.726366 14869 net.cpp:84] Creating Layer train-data
I0509 14:27:16.726390 14869 net.cpp:380] train-data -> data
I0509 14:27:16.726423 14869 net.cpp:380] train-data -> label
I0509 14:27:16.726441 14869 data_transformer.cpp:25] Loading mean file from: /mnt/bigdisk/AMBDIG8/digits/jobs/20200508-231203-8394/mean.binaryproto
I0509 14:27:16.735519 14869 data_layer.cpp:45] output data size: 50,3,224,224
I0509 14:27:16.789038 14869 net.cpp:122] Setting up train-data
I0509 14:27:16.789060 14869 net.cpp:129] Top shape: 50 3 224 224 (7526400)
I0509 14:27:16.789064 14869 net.cpp:129] Top shape: 50 (50)
I0509 14:27:16.789067 14869 net.cpp:137] Memory required for data: 30105800
I0509 14:27:16.789075 14869 layer_factory.hpp:77] Creating layer label_train-data_1_split
I0509 14:27:16.789105 14869 net.cpp:84] Creating Layer label_train-data_1_split
I0509 14:27:16.789110 14869 net.cpp:406] label_train-data_1_split <- label
I0509 14:27:16.789124 14869 net.cpp:380] label_train-data_1_split -> label_train-data_1_split_0
I0509 14:27:16.789132 14869 net.cpp:380] label_train-data_1_split -> label_train-data_1_split_1
I0509 14:27:16.789137 14869 net.cpp:380] label_train-data_1_split -> label_train-data_1_split_2
I0509 14:27:16.789188 14869 net.cpp:122] Setting up label_train-data_1_split
I0509 14:27:16.789193 14869 net.cpp:129] Top shape: 50 (50)
I0509 14:27:16.789196 14869 net.cpp:129] Top shape: 50 (50)
I0509 14:27:16.789199 14869 net.cpp:129] Top shape: 50 (50)
I0509 14:27:16.789201 14869 net.cpp:137] Memory required for data: 30106400
I0509 14:27:16.789204 14869 layer_factory.hpp:77] Creating layer conv1/7x7_s2
I0509 14:27:16.789224 14869 net.cpp:84] Creating Layer conv1/7x7_s2
I0509 14:27:16.789227 14869 net.cpp:406] conv1/7x7_s2 <- data
I0509 14:27:16.789233 14869 net.cpp:380] conv1/7x7_s2 -> conv1/7x7_s2
I0509 14:27:18.144073 14869 net.cpp:122] Setting up conv1/7x7_s2
I0509 14:27:18.144093 14869 net.cpp:129] Top shape: 50 64 112 112 (40140800)
I0509 14:27:18.144095 14869 net.cpp:137] Memory required for data: 190669600
I0509 14:27:18.144115 14869 layer_factory.hpp:77] Creating layer conv1/relu_7x7
I0509 14:27:18.144124 14869 net.cpp:84] Creating Layer conv1/relu_7x7
I0509 14:27:18.144129 14869 net.cpp:406] conv1/relu_7x7 <- conv1/7x7_s2
I0509 14:27:18.144135 14869 net.cpp:367] conv1/relu_7x7 -> conv1/7x7_s2 (in-place)
I0509 14:27:18.144522 14869 net.cpp:122] Setting up conv1/relu_7x7
I0509 14:27:18.144531 14869 net.cpp:129] Top shape: 50 64 112 112 (40140800)
I0509 14:27:18.144534 14869 net.cpp:137] Memory required for data: 351232800
I0509 14:27:18.144537 14869 layer_factory.hpp:77] Creating layer pool1/3x3_s2
I0509 14:27:18.144546 14869 net.cpp:84] Creating Layer pool1/3x3_s2
I0509 14:27:18.144549 14869 net.cpp:406] pool1/3x3_s2 <- conv1/7x7_s2
I0509 14:27:18.144554 14869 net.cpp:380] pool1/3x3_s2 -> pool1/3x3_s2
I0509 14:27:18.144598 14869 net.cpp:122] Setting up pool1/3x3_s2
I0509 14:27:18.144605 14869 net.cpp:129] Top shape: 50 64 56 56 (10035200)
I0509 14:27:18.144608 14869 net.cpp:137] Memory required for data: 391373600
I0509 14:27:18.144610 14869 layer_factory.hpp:77] Creating layer pool1/norm1
I0509 14:27:18.144619 14869 net.cpp:84] Creating Layer pool1/norm1
I0509 14:27:18.144623 14869 net.cpp:406] pool1/norm1 <- pool1/3x3_s2
I0509 14:27:18.144629 14869 net.cpp:380] pool1/norm1 -> pool1/norm1
I0509 14:27:18.145220 14869 net.cpp:122] Setting up pool1/norm1
I0509 14:27:18.145228 14869 net.cpp:129] Top shape: 50 64 56 56 (10035200)
I0509 14:27:18.145231 14869 net.cpp:137] Memory required for data: 431514400
I0509 14:27:18.145234 14869 layer_factory.hpp:77] Creating layer conv2/3x3_reduce
I0509 14:27:18.145247 14869 net.cpp:84] Creating Layer conv2/3x3_reduce
I0509 14:27:18.145251 14869 net.cpp:406] conv2/3x3_reduce <- pool1/norm1
I0509 14:27:18.145257 14869 net.cpp:380] conv2/3x3_reduce -> conv2/3x3_reduce
I0509 14:27:18.147428 14869 net.cpp:122] Setting up conv2/3x3_reduce
I0509 14:27:18.147437 14869 net.cpp:129] Top shape: 50 64 56 56 (10035200)
I0509 14:27:18.147440 14869 net.cpp:137] Memory required for data: 471655200
I0509 14:27:18.147447 14869 layer_factory.hpp:77] Creating layer conv2/relu_3x3_reduce
I0509 14:27:18.147454 14869 net.cpp:84] Creating Layer conv2/relu_3x3_reduce
I0509 14:27:18.147457 14869 net.cpp:406] conv2/relu_3x3_reduce <- conv2/3x3_reduce
I0509 14:27:18.147464 14869 net.cpp:367] conv2/relu_3x3_reduce -> conv2/3x3_reduce (in-place)
I0509 14:27:18.147838 14869 net.cpp:122] Setting up conv2/relu_3x3_reduce
I0509 14:27:18.147847 14869 net.cpp:129] Top shape: 50 64 56 56 (10035200)
I0509 14:27:18.147851 14869 net.cpp:137] Memory required for data: 511796000
I0509 14:27:18.147855 14869 layer_factory.hpp:77] Creating layer conv2/3x3
I0509 14:27:18.147866 14869 net.cpp:84] Creating Layer conv2/3x3
I0509 14:27:18.147868 14869 net.cpp:406] conv2/3x3 <- conv2/3x3_reduce
I0509 14:27:18.147893 14869 net.cpp:380] conv2/3x3 -> conv2/3x3
I0509 14:27:18.152087 14869 net.cpp:122] Setting up conv2/3x3
I0509 14:27:18.152098 14869 net.cpp:129] Top shape: 50 192 56 56 (30105600)
I0509 14:27:18.152101 14869 net.cpp:137] Memory required for data: 632218400
I0509 14:27:18.152112 14869 layer_factory.hpp:77] Creating layer conv2/relu_3x3
I0509 14:27:18.152117 14869 net.cpp:84] Creating Layer conv2/relu_3x3
I0509 14:27:18.152120 14869 net.cpp:406] conv2/relu_3x3 <- conv2/3x3
I0509 14:27:18.152125 14869 net.cpp:367] conv2/relu_3x3 -> conv2/3x3 (in-place)
I0509 14:27:18.152521 14869 net.cpp:122] Setting up conv2/relu_3x3
I0509 14:27:18.152531 14869 net.cpp:129] Top shape: 50 192 56 56 (30105600)
I0509 14:27:18.152534 14869 net.cpp:137] Memory required for data: 752640800
I0509 14:27:18.152537 14869 layer_factory.hpp:77] Creating layer conv2/norm2
I0509 14:27:18.152547 14869 net.cpp:84] Creating Layer conv2/norm2
I0509 14:27:18.152551 14869 net.cpp:406] conv2/norm2 <- conv2/3x3
I0509 14:27:18.152557 14869 net.cpp:380] conv2/norm2 -> conv2/norm2
I0509 14:27:18.153134 14869 net.cpp:122] Setting up conv2/norm2
I0509 14:27:18.153143 14869 net.cpp:129] Top shape: 50 192 56 56 (30105600)
I0509 14:27:18.153146 14869 net.cpp:137] Memory required for data: 873063200
I0509 14:27:18.153149 14869 layer_factory.hpp:77] Creating layer pool2/3x3_s2
I0509 14:27:18.153156 14869 net.cpp:84] Creating Layer pool2/3x3_s2
I0509 14:27:18.153159 14869 net.cpp:406] pool2/3x3_s2 <- conv2/norm2
I0509 14:27:18.153164 14869 net.cpp:380] pool2/3x3_s2 -> pool2/3x3_s2
I0509 14:27:18.153194 14869 net.cpp:122] Setting up pool2/3x3_s2
I0509 14:27:18.153200 14869 net.cpp:129] Top shape: 50 192 28 28 (7526400)
I0509 14:27:18.153203 14869 net.cpp:137] Memory required for data: 903168800
I0509 14:27:18.153205 14869 layer_factory.hpp:77] Creating layer pool2/3x3_s2_pool2/3x3_s2_0_split
I0509 14:27:18.153211 14869 net.cpp:84] Creating Layer pool2/3x3_s2_pool2/3x3_s2_0_split
I0509 14:27:18.153213 14869 net.cpp:406] pool2/3x3_s2_pool2/3x3_s2_0_split <- pool2/3x3_s2
I0509 14:27:18.153219 14869 net.cpp:380] pool2/3x3_s2_pool2/3x3_s2_0_split -> pool2/3x3_s2_pool2/3x3_s2_0_split_0
I0509 14:27:18.153225 14869 net.cpp:380] pool2/3x3_s2_pool2/3x3_s2_0_split -> pool2/3x3_s2_pool2/3x3_s2_0_split_1
I0509 14:27:18.153230 14869 net.cpp:380] pool2/3x3_s2_pool2/3x3_s2_0_split -> pool2/3x3_s2_pool2/3x3_s2_0_split_2
I0509 14:27:18.153234 14869 net.cpp:380] pool2/3x3_s2_pool2/3x3_s2_0_split -> pool2/3x3_s2_pool2/3x3_s2_0_split_3
I0509 14:27:18.153278 14869 net.cpp:122] Setting up pool2/3x3_s2_pool2/3x3_s2_0_split
I0509 14:27:18.153282 14869 net.cpp:129] Top shape: 50 192 28 28 (7526400)
I0509 14:27:18.153286 14869 net.cpp:129] Top shape: 50 192 28 28 (7526400)
I0509 14:27:18.153290 14869 net.cpp:129] Top shape: 50 192 28 28 (7526400)
I0509 14:27:18.153292 14869 net.cpp:129] Top shape: 50 192 28 28 (7526400)
I0509 14:27:18.153295 14869 net.cpp:137] Memory required for data: 1023591200
I0509 14:27:18.153297 14869 layer_factory.hpp:77] Creating layer inception_3a/1x1
I0509 14:27:18.153309 14869 net.cpp:84] Creating Layer inception_3a/1x1
I0509 14:27:18.153313 14869 net.cpp:406] inception_3a/1x1 <- pool2/3x3_s2_pool2/3x3_s2_0_split_0
I0509 14:27:18.153318 14869 net.cpp:380] inception_3a/1x1 -> inception_3a/1x1
I0509 14:27:18.155508 14869 net.cpp:122] Setting up inception_3a/1x1
I0509 14:27:18.155517 14869 net.cpp:129] Top shape: 50 64 28 28 (2508800)
I0509 14:27:18.155520 14869 net.cpp:137] Memory required for data: 1033626400
I0509 14:27:18.155526 14869 layer_factory.hpp:77] Creating layer inception_3a/relu_1x1
I0509 14:27:18.155532 14869 net.cpp:84] Creating Layer inception_3a/relu_1x1
I0509 14:27:18.155535 14869 net.cpp:406] inception_3a/relu_1x1 <- inception_3a/1x1
I0509 14:27:18.155540 14869 net.cpp:367] inception_3a/relu_1x1 -> inception_3a/1x1 (in-place)
I0509 14:27:18.155915 14869 net.cpp:122] Setting up inception_3a/relu_1x1
I0509 14:27:18.155923 14869 net.cpp:129] Top shape: 50 64 28 28 (2508800)
I0509 14:27:18.155939 14869 net.cpp:137] Memory required for data: 1043661600
I0509 14:27:18.155943 14869 layer_factory.hpp:77] Creating layer inception_3a/3x3_reduce
I0509 14:27:18.155953 14869 net.cpp:84] Creating Layer inception_3a/3x3_reduce
I0509 14:27:18.155956 14869 net.cpp:406] inception_3a/3x3_reduce <- pool2/3x3_s2_pool2/3x3_s2_0_split_1
I0509 14:27:18.155963 14869 net.cpp:380] inception_3a/3x3_reduce -> inception_3a/3x3_reduce
I0509 14:27:18.159307 14869 net.cpp:122] Setting up inception_3a/3x3_reduce
I0509 14:27:18.159319 14869 net.cpp:129] Top shape: 50 96 28 28 (3763200)
I0509 14:27:18.159322 14869 net.cpp:137] Memory required for data: 1058714400
I0509 14:27:18.159332 14869 layer_factory.hpp:77] Creating layer inception_3a/relu_3x3_reduce
I0509 14:27:18.159343 14869 net.cpp:84] Creating Layer inception_3a/relu_3x3_reduce
I0509 14:27:18.159345 14869 net.cpp:406] inception_3a/relu_3x3_reduce <- inception_3a/3x3_reduce
I0509 14:27:18.159353 14869 net.cpp:367] inception_3a/relu_3x3_reduce -> inception_3a/3x3_reduce (in-place)
I0509 14:27:18.159904 14869 net.cpp:122] Setting up inception_3a/relu_3x3_reduce
I0509 14:27:18.159914 14869 net.cpp:129] Top shape: 50 96 28 28 (3763200)
I0509 14:27:18.159916 14869 net.cpp:137] Memory required for data: 1073767200
I0509 14:27:18.159920 14869 layer_factory.hpp:77] Creating layer inception_3a/3x3
I0509 14:27:18.159929 14869 net.cpp:84] Creating Layer inception_3a/3x3
I0509 14:27:18.159934 14869 net.cpp:406] inception_3a/3x3 <- inception_3a/3x3_reduce
I0509 14:27:18.159940 14869 net.cpp:380] inception_3a/3x3 -> inception_3a/3x3
I0509 14:27:18.162768 14869 net.cpp:122] Setting up inception_3a/3x3
I0509 14:27:18.162778 14869 net.cpp:129] Top shape: 50 128 28 28 (5017600)
I0509 14:27:18.162781 14869 net.cpp:137] Memory required for data: 1093837600
I0509 14:27:18.162788 14869 layer_factory.hpp:77] Creating layer inception_3a/relu_3x3
I0509 14:27:18.162796 14869 net.cpp:84] Creating Layer inception_3a/relu_3x3
I0509 14:27:18.162798 14869 net.cpp:406] inception_3a/relu_3x3 <- inception_3a/3x3
I0509 14:27:18.162804 14869 net.cpp:367] inception_3a/relu_3x3 -> inception_3a/3x3 (in-place)
I0509 14:27:18.163368 14869 net.cpp:122] Setting up inception_3a/relu_3x3
I0509 14:27:18.163378 14869 net.cpp:129] Top shape: 50 128 28 28 (5017600)
I0509 14:27:18.163380 14869 net.cpp:137] Memory required for data: 1113908000
I0509 14:27:18.163383 14869 layer_factory.hpp:77] Creating layer inception_3a/5x5_reduce
I0509 14:27:18.163393 14869 net.cpp:84] Creating Layer inception_3a/5x5_reduce
I0509 14:27:18.163398 14869 net.cpp:406] inception_3a/5x5_reduce <- pool2/3x3_s2_pool2/3x3_s2_0_split_2
I0509 14:27:18.163404 14869 net.cpp:380] inception_3a/5x5_reduce -> inception_3a/5x5_reduce
I0509 14:27:18.165405 14869 net.cpp:122] Setting up inception_3a/5x5_reduce
I0509 14:27:18.165416 14869 net.cpp:129] Top shape: 50 16 28 28 (627200)
I0509 14:27:18.165417 14869 net.cpp:137] Memory required for data: 1116416800
I0509 14:27:18.165423 14869 layer_factory.hpp:77] Creating layer inception_3a/relu_5x5_reduce
I0509 14:27:18.165431 14869 net.cpp:84] Creating Layer inception_3a/relu_5x5_reduce
I0509 14:27:18.165434 14869 net.cpp:406] inception_3a/relu_5x5_reduce <- inception_3a/5x5_reduce
I0509 14:27:18.165439 14869 net.cpp:367] inception_3a/relu_5x5_reduce -> inception_3a/5x5_reduce (in-place)
I0509 14:27:18.167100 14869 net.cpp:122] Setting up inception_3a/relu_5x5_reduce
I0509 14:27:18.167111 14869 net.cpp:129] Top shape: 50 16 28 28 (627200)
I0509 14:27:18.167114 14869 net.cpp:137] Memory required for data: 1118925600
I0509 14:27:18.167117 14869 layer_factory.hpp:77] Creating layer inception_3a/5x5
I0509 14:27:18.167127 14869 net.cpp:84] Creating Layer inception_3a/5x5
I0509 14:27:18.167130 14869 net.cpp:406] inception_3a/5x5 <- inception_3a/5x5_reduce
I0509 14:27:18.167136 14869 net.cpp:380] inception_3a/5x5 -> inception_3a/5x5
I0509 14:27:18.169888 14869 net.cpp:122] Setting up inception_3a/5x5
I0509 14:27:18.169898 14869 net.cpp:129] Top shape: 50 32 28 28 (1254400)
I0509 14:27:18.169900 14869 net.cpp:137] Memory required for data: 1123943200
I0509 14:27:18.169926 14869 layer_factory.hpp:77] Creating layer inception_3a/relu_5x5
I0509 14:27:18.169934 14869 net.cpp:84] Creating Layer inception_3a/relu_5x5
I0509 14:27:18.169939 14869 net.cpp:406] inception_3a/relu_5x5 <- inception_3a/5x5
I0509 14:27:18.169943 14869 net.cpp:367] inception_3a/relu_5x5 -> inception_3a/5x5 (in-place)
I0509 14:27:18.170500 14869 net.cpp:122] Setting up inception_3a/relu_5x5
I0509 14:27:18.170509 14869 net.cpp:129] Top shape: 50 32 28 28 (1254400)
I0509 14:27:18.170512 14869 net.cpp:137] Memory required for data: 1128960800
I0509 14:27:18.170516 14869 layer_factory.hpp:77] Creating layer inception_3a/pool
I0509 14:27:18.170523 14869 net.cpp:84] Creating Layer inception_3a/pool
I0509 14:27:18.170526 14869 net.cpp:406] inception_3a/pool <- pool2/3x3_s2_pool2/3x3_s2_0_split_3
I0509 14:27:18.170531 14869 net.cpp:380] inception_3a/pool -> inception_3a/pool
I0509 14:27:18.170574 14869 net.cpp:122] Setting up inception_3a/pool
I0509 14:27:18.170579 14869 net.cpp:129] Top shape: 50 192 28 28 (7526400)
I0509 14:27:18.170581 14869 net.cpp:137] Memory required for data: 1159066400
I0509 14:27:18.170584 14869 layer_factory.hpp:77] Creating layer inception_3a/pool_proj
I0509 14:27:18.170593 14869 net.cpp:84] Creating Layer inception_3a/pool_proj
I0509 14:27:18.170595 14869 net.cpp:406] inception_3a/pool_proj <- inception_3a/pool
I0509 14:27:18.170603 14869 net.cpp:380] inception_3a/pool_proj -> inception_3a/pool_proj
I0509 14:27:18.172940 14869 net.cpp:122] Setting up inception_3a/pool_proj
I0509 14:27:18.172950 14869 net.cpp:129] Top shape: 50 32 28 28 (1254400)
I0509 14:27:18.172952 14869 net.cpp:137] Memory required for data: 1164084000
I0509 14:27:18.172961 14869 layer_factory.hpp:77] Creating layer inception_3a/relu_pool_proj
I0509 14:27:18.172969 14869 net.cpp:84] Creating Layer inception_3a/relu_pool_proj
I0509 14:27:18.172972 14869 net.cpp:406] inception_3a/relu_pool_proj <- inception_3a/pool_proj
I0509 14:27:18.172978 14869 net.cpp:367] inception_3a/relu_pool_proj -> inception_3a/pool_proj (in-place)
I0509 14:27:18.173357 14869 net.cpp:122] Setting up inception_3a/relu_pool_proj
I0509 14:27:18.173368 14869 net.cpp:129] Top shape: 50 32 28 28 (1254400)
I0509 14:27:18.173372 14869 net.cpp:137] Memory required for data: 1169101600
I0509 14:27:18.173374 14869 layer_factory.hpp:77] Creating layer inception_3a/output
I0509 14:27:18.173379 14869 net.cpp:84] Creating Layer inception_3a/output
I0509 14:27:18.173383 14869 net.cpp:406] inception_3a/output <- inception_3a/1x1
I0509 14:27:18.173388 14869 net.cpp:406] inception_3a/output <- inception_3a/3x3
I0509 14:27:18.173390 14869 net.cpp:406] inception_3a/output <- inception_3a/5x5
I0509 14:27:18.173394 14869 net.cpp:406] inception_3a/output <- inception_3a/pool_proj
I0509 14:27:18.173398 14869 net.cpp:380] inception_3a/output -> inception_3a/output
I0509 14:27:18.173425 14869 net.cpp:122] Setting up inception_3a/output
I0509 14:27:18.173431 14869 net.cpp:129] Top shape: 50 256 28 28 (10035200)
I0509 14:27:18.173434 14869 net.cpp:137] Memory required for data: 1209242400
I0509 14:27:18.173436 14869 layer_factory.hpp:77] Creating layer inception_3a/output_inception_3a/output_0_split
I0509 14:27:18.173442 14869 net.cpp:84] Creating Layer inception_3a/output_inception_3a/output_0_split
I0509 14:27:18.173445 14869 net.cpp:406] inception_3a/output_inception_3a/output_0_split <- inception_3a/output
I0509 14:27:18.173449 14869 net.cpp:380] inception_3a/output_inception_3a/output_0_split -> inception_3a/output_inception_3a/output_0_split_0
I0509 14:27:18.173456 14869 net.cpp:380] inception_3a/output_inception_3a/output_0_split -> inception_3a/output_inception_3a/output_0_split_1
I0509 14:27:18.173461 14869 net.cpp:380] inception_3a/output_inception_3a/output_0_split -> inception_3a/output_inception_3a/output_0_split_2
I0509 14:27:18.173466 14869 net.cpp:380] inception_3a/output_inception_3a/output_0_split -> inception_3a/output_inception_3a/output_0_split_3
I0509 14:27:18.173514 14869 net.cpp:122] Setting up inception_3a/output_inception_3a/output_0_split
I0509 14:27:18.173529 14869 net.cpp:129] Top shape: 50 256 28 28 (10035200)
I0509 14:27:18.173533 14869 net.cpp:129] Top shape: 50 256 28 28 (10035200)
I0509 14:27:18.173537 14869 net.cpp:129] Top shape: 50 256 28 28 (10035200)
I0509 14:27:18.173539 14869 net.cpp:129] Top shape: 50 256 28 28 (10035200)
I0509 14:27:18.173542 14869 net.cpp:137] Memory required for data: 1369805600
I0509 14:27:18.173544 14869 layer_factory.hpp:77] Creating layer inception_3b/1x1
I0509 14:27:18.173554 14869 net.cpp:84] Creating Layer inception_3b/1x1
I0509 14:27:18.173557 14869 net.cpp:406] inception_3b/1x1 <- inception_3a/output_inception_3a/output_0_split_0
I0509 14:27:18.173563 14869 net.cpp:380] inception_3b/1x1 -> inception_3b/1x1
I0509 14:27:18.177170 14869 net.cpp:122] Setting up inception_3b/1x1
I0509 14:27:18.177181 14869 net.cpp:129] Top shape: 50 128 28 28 (5017600)
I0509 14:27:18.177183 14869 net.cpp:137] Memory required for data: 1389876000
I0509 14:27:18.177189 14869 layer_factory.hpp:77] Creating layer inception_3b/relu_1x1
I0509 14:27:18.177196 14869 net.cpp:84] Creating Layer inception_3b/relu_1x1
I0509 14:27:18.177198 14869 net.cpp:406] inception_3b/relu_1x1 <- inception_3b/1x1
I0509 14:27:18.177203 14869 net.cpp:367] inception_3b/relu_1x1 -> inception_3b/1x1 (in-place)
I0509 14:27:18.177749 14869 net.cpp:122] Setting up inception_3b/relu_1x1
I0509 14:27:18.177758 14869 net.cpp:129] Top shape: 50 128 28 28 (5017600)
I0509 14:27:18.177762 14869 net.cpp:137] Memory required for data: 1409946400
I0509 14:27:18.177764 14869 layer_factory.hpp:77] Creating layer inception_3b/3x3_reduce
I0509 14:27:18.177774 14869 net.cpp:84] Creating Layer inception_3b/3x3_reduce
I0509 14:27:18.177778 14869 net.cpp:406] inception_3b/3x3_reduce <- inception_3a/output_inception_3a/output_0_split_1
I0509 14:27:18.177784 14869 net.cpp:380] inception_3b/3x3_reduce -> inception_3b/3x3_reduce
I0509 14:27:18.179896 14869 net.cpp:122] Setting up inception_3b/3x3_reduce
I0509 14:27:18.179908 14869 net.cpp:129] Top shape: 50 128 28 28 (5017600)
I0509 14:27:18.179911 14869 net.cpp:137] Memory required for data: 1430016800
I0509 14:27:18.179917 14869 layer_factory.hpp:77] Creating layer inception_3b/relu_3x3_reduce
I0509 14:27:18.179924 14869 net.cpp:84] Creating Layer inception_3b/relu_3x3_reduce
I0509 14:27:18.179926 14869 net.cpp:406] inception_3b/relu_3x3_reduce <- inception_3b/3x3_reduce
I0509 14:27:18.179931 14869 net.cpp:367] inception_3b/relu_3x3_reduce -> inception_3b/3x3_reduce (in-place)
I0509 14:27:18.180480 14869 net.cpp:122] Setting up inception_3b/relu_3x3_reduce
I0509 14:27:18.180490 14869 net.cpp:129] Top shape: 50 128 28 28 (5017600)
I0509 14:27:18.180500 14869 net.cpp:137] Memory required for data: 1450087200
I0509 14:27:18.180502 14869 layer_factory.hpp:77] Creating layer inception_3b/3x3
I0509 14:27:18.180523 14869 net.cpp:84] Creating Layer inception_3b/3x3
I0509 14:27:18.180527 14869 net.cpp:406] inception_3b/3x3 <- inception_3b/3x3_reduce
I0509 14:27:18.180533 14869 net.cpp:380] inception_3b/3x3 -> inception_3b/3x3
I0509 14:27:18.183840 14869 net.cpp:122] Setting up inception_3b/3x3
I0509 14:27:18.183851 14869 net.cpp:129] Top shape: 50 192 28 28 (7526400)
I0509 14:27:18.183853 14869 net.cpp:137] Memory required for data: 1480192800
I0509 14:27:18.183859 14869 layer_factory.hpp:77] Creating layer inception_3b/relu_3x3
I0509 14:27:18.183866 14869 net.cpp:84] Creating Layer inception_3b/relu_3x3
I0509 14:27:18.183868 14869 net.cpp:406] inception_3b/relu_3x3 <- inception_3b/3x3
I0509 14:27:18.183876 14869 net.cpp:367] inception_3b/relu_3x3 -> inception_3b/3x3 (in-place)
I0509 14:27:18.185547 14869 net.cpp:122] Setting up inception_3b/relu_3x3
I0509 14:27:18.185559 14869 net.cpp:129] Top shape: 50 192 28 28 (7526400)
I0509 14:27:18.185561 14869 net.cpp:137] Memory required for data: 1510298400
I0509 14:27:18.185565 14869 layer_factory.hpp:77] Creating layer inception_3b/5x5_reduce
I0509 14:27:18.185575 14869 net.cpp:84] Creating Layer inception_3b/5x5_reduce
I0509 14:27:18.185578 14869 net.cpp:406] inception_3b/5x5_reduce <- inception_3a/output_inception_3a/output_0_split_2
I0509 14:27:18.185602 14869 net.cpp:380] inception_3b/5x5_reduce -> inception_3b/5x5_reduce
I0509 14:27:18.187610 14869 net.cpp:122] Setting up inception_3b/5x5_reduce
I0509 14:27:18.187619 14869 net.cpp:129] Top shape: 50 32 28 28 (1254400)
I0509 14:27:18.187623 14869 net.cpp:137] Memory required for data: 1515316000
I0509 14:27:18.187628 14869 layer_factory.hpp:77] Creating layer inception_3b/relu_5x5_reduce
I0509 14:27:18.187636 14869 net.cpp:84] Creating Layer inception_3b/relu_5x5_reduce
I0509 14:27:18.187639 14869 net.cpp:406] inception_3b/relu_5x5_reduce <- inception_3b/5x5_reduce
I0509 14:27:18.187644 14869 net.cpp:367] inception_3b/relu_5x5_reduce -> inception_3b/5x5_reduce (in-place)
I0509 14:27:18.188192 14869 net.cpp:122] Setting up inception_3b/relu_5x5_reduce
I0509 14:27:18.188202 14869 net.cpp:129] Top shape: 50 32 28 28 (1254400)
I0509 14:27:18.188205 14869 net.cpp:137] Memory required for data: 1520333600
I0509 14:27:18.188208 14869 layer_factory.hpp:77] Creating layer inception_3b/5x5
I0509 14:27:18.188217 14869 net.cpp:84] Creating Layer inception_3b/5x5
I0509 14:27:18.188221 14869 net.cpp:406] inception_3b/5x5 <- inception_3b/5x5_reduce
I0509 14:27:18.188228 14869 net.cpp:380] inception_3b/5x5 -> inception_3b/5x5
I0509 14:27:18.190752 14869 net.cpp:122] Setting up inception_3b/5x5
I0509 14:27:18.190762 14869 net.cpp:129] Top shape: 50 96 28 28 (3763200)
I0509 14:27:18.190765 14869 net.cpp:137] Memory required for data: 1535386400
I0509 14:27:18.190771 14869 layer_factory.hpp:77] Creating layer inception_3b/relu_5x5
I0509 14:27:18.190778 14869 net.cpp:84] Creating Layer inception_3b/relu_5x5
I0509 14:27:18.190780 14869 net.cpp:406] inception_3b/relu_5x5 <- inception_3b/5x5
I0509 14:27:18.190788 14869 net.cpp:367] inception_3b/relu_5x5 -> inception_3b/5x5 (in-place)
I0509 14:27:18.191164 14869 net.cpp:122] Setting up inception_3b/relu_5x5
I0509 14:27:18.191172 14869 net.cpp:129] Top shape: 50 96 28 28 (3763200)
I0509 14:27:18.191174 14869 net.cpp:137] Memory required for data: 1550439200
I0509 14:27:18.191179 14869 layer_factory.hpp:77] Creating layer inception_3b/pool
I0509 14:27:18.191185 14869 net.cpp:84] Creating Layer inception_3b/pool
I0509 14:27:18.191188 14869 net.cpp:406] inception_3b/pool <- inception_3a/output_inception_3a/output_0_split_3
I0509 14:27:18.191193 14869 net.cpp:380] inception_3b/pool -> inception_3b/pool
I0509 14:27:18.191233 14869 net.cpp:122] Setting up inception_3b/pool
I0509 14:27:18.191238 14869 net.cpp:129] Top shape: 50 256 28 28 (10035200)
I0509 14:27:18.191241 14869 net.cpp:137] Memory required for data: 1590580000
I0509 14:27:18.191243 14869 layer_factory.hpp:77] Creating layer inception_3b/pool_proj
I0509 14:27:18.191251 14869 net.cpp:84] Creating Layer inception_3b/pool_proj
I0509 14:27:18.191254 14869 net.cpp:406] inception_3b/pool_proj <- inception_3b/pool
I0509 14:27:18.191262 14869 net.cpp:380] inception_3b/pool_proj -> inception_3b/pool_proj
I0509 14:27:18.194707 14869 net.cpp:122] Setting up inception_3b/pool_proj
I0509 14:27:18.194720 14869 net.cpp:129] Top shape: 50 64 28 28 (2508800)
I0509 14:27:18.194722 14869 net.cpp:137] Memory required for data: 1600615200
I0509 14:27:18.194728 14869 layer_factory.hpp:77] Creating layer inception_3b/relu_pool_proj
I0509 14:27:18.194734 14869 net.cpp:84] Creating Layer inception_3b/relu_pool_proj
I0509 14:27:18.194737 14869 net.cpp:406] inception_3b/relu_pool_proj <- inception_3b/pool_proj
I0509 14:27:18.194742 14869 net.cpp:367] inception_3b/relu_pool_proj -> inception_3b/pool_proj (in-place)
I0509 14:27:18.195127 14869 net.cpp:122] Setting up inception_3b/relu_pool_proj
I0509 14:27:18.195138 14869 net.cpp:129] Top shape: 50 64 28 28 (2508800)
I0509 14:27:18.195142 14869 net.cpp:137] Memory required for data: 1610650400
I0509 14:27:18.195144 14869 layer_factory.hpp:77] Creating layer inception_3b/output
I0509 14:27:18.195150 14869 net.cpp:84] Creating Layer inception_3b/output
I0509 14:27:18.195154 14869 net.cpp:406] inception_3b/output <- inception_3b/1x1
I0509 14:27:18.195170 14869 net.cpp:406] inception_3b/output <- inception_3b/3x3
I0509 14:27:18.195174 14869 net.cpp:406] inception_3b/output <- inception_3b/5x5
I0509 14:27:18.195178 14869 net.cpp:406] inception_3b/output <- inception_3b/pool_proj
I0509 14:27:18.195184 14869 net.cpp:380] inception_3b/output -> inception_3b/output
I0509 14:27:18.195210 14869 net.cpp:122] Setting up inception_3b/output
I0509 14:27:18.195215 14869 net.cpp:129] Top shape: 50 480 28 28 (18816000)
I0509 14:27:18.195217 14869 net.cpp:137] Memory required for data: 1685914400
I0509 14:27:18.195220 14869 layer_factory.hpp:77] Creating layer pool3/3x3_s2
I0509 14:27:18.195226 14869 net.cpp:84] Creating Layer pool3/3x3_s2
I0509 14:27:18.195230 14869 net.cpp:406] pool3/3x3_s2 <- inception_3b/output
I0509 14:27:18.195235 14869 net.cpp:380] pool3/3x3_s2 -> pool3/3x3_s2
I0509 14:27:18.195264 14869 net.cpp:122] Setting up pool3/3x3_s2
I0509 14:27:18.195269 14869 net.cpp:129] Top shape: 50 480 14 14 (4704000)
I0509 14:27:18.195271 14869 net.cpp:137] Memory required for data: 1704730400
I0509 14:27:18.195274 14869 layer_factory.hpp:77] Creating layer pool3/3x3_s2_pool3/3x3_s2_0_split
I0509 14:27:18.195279 14869 net.cpp:84] Creating Layer pool3/3x3_s2_pool3/3x3_s2_0_split
I0509 14:27:18.195282 14869 net.cpp:406] pool3/3x3_s2_pool3/3x3_s2_0_split <- pool3/3x3_s2
I0509 14:27:18.195288 14869 net.cpp:380] pool3/3x3_s2_pool3/3x3_s2_0_split -> pool3/3x3_s2_pool3/3x3_s2_0_split_0
I0509 14:27:18.195293 14869 net.cpp:380] pool3/3x3_s2_pool3/3x3_s2_0_split -> pool3/3x3_s2_pool3/3x3_s2_0_split_1
I0509 14:27:18.195298 14869 net.cpp:380] pool3/3x3_s2_pool3/3x3_s2_0_split -> pool3/3x3_s2_pool3/3x3_s2_0_split_2
I0509 14:27:18.195304 14869 net.cpp:380] pool3/3x3_s2_pool3/3x3_s2_0_split -> pool3/3x3_s2_pool3/3x3_s2_0_split_3
I0509 14:27:18.195346 14869 net.cpp:122] Setting up pool3/3x3_s2_pool3/3x3_s2_0_split
I0509 14:27:18.195350 14869 net.cpp:129] Top shape: 50 480 14 14 (4704000)
I0509 14:27:18.195354 14869 net.cpp:129] Top shape: 50 480 14 14 (4704000)
I0509 14:27:18.195358 14869 net.cpp:129] Top shape: 50 480 14 14 (4704000)
I0509 14:27:18.195360 14869 net.cpp:129] Top shape: 50 480 14 14 (4704000)
I0509 14:27:18.195363 14869 net.cpp:137] Memory required for data: 1779994400
I0509 14:27:18.195365 14869 layer_factory.hpp:77] Creating layer inception_4a/1x1
I0509 14:27:18.195374 14869 net.cpp:84] Creating Layer inception_4a/1x1
I0509 14:27:18.195377 14869 net.cpp:406] inception_4a/1x1 <- pool3/3x3_s2_pool3/3x3_s2_0_split_0
I0509 14:27:18.195384 14869 net.cpp:380] inception_4a/1x1 -> inception_4a/1x1
I0509 14:27:18.198053 14869 net.cpp:122] Setting up inception_4a/1x1
I0509 14:27:18.198065 14869 net.cpp:129] Top shape: 50 192 14 14 (1881600)
I0509 14:27:18.198068 14869 net.cpp:137] Memory required for data: 1787520800
I0509 14:27:18.198074 14869 layer_factory.hpp:77] Creating layer inception_4a/relu_1x1
I0509 14:27:18.198086 14869 net.cpp:84] Creating Layer inception_4a/relu_1x1
I0509 14:27:18.198088 14869 net.cpp:406] inception_4a/relu_1x1 <- inception_4a/1x1
I0509 14:27:18.198094 14869 net.cpp:367] inception_4a/relu_1x1 -> inception_4a/1x1 (in-place)
I0509 14:27:18.198688 14869 net.cpp:122] Setting up inception_4a/relu_1x1
I0509 14:27:18.198696 14869 net.cpp:129] Top shape: 50 192 14 14 (1881600)
I0509 14:27:18.198699 14869 net.cpp:137] Memory required for data: 1795047200
I0509 14:27:18.198702 14869 layer_factory.hpp:77] Creating layer inception_4a/3x3_reduce
I0509 14:27:18.198712 14869 net.cpp:84] Creating Layer inception_4a/3x3_reduce
I0509 14:27:18.198716 14869 net.cpp:406] inception_4a/3x3_reduce <- pool3/3x3_s2_pool3/3x3_s2_0_split_1
I0509 14:27:18.198725 14869 net.cpp:380] inception_4a/3x3_reduce -> inception_4a/3x3_reduce
I0509 14:27:18.201740 14869 net.cpp:122] Setting up inception_4a/3x3_reduce
I0509 14:27:18.201751 14869 net.cpp:129] Top shape: 50 96 14 14 (940800)
I0509 14:27:18.201755 14869 net.cpp:137] Memory required for data: 1798810400
I0509 14:27:18.201767 14869 layer_factory.hpp:77] Creating layer inception_4a/relu_3x3_reduce
I0509 14:27:18.201774 14869 net.cpp:84] Creating Layer inception_4a/relu_3x3_reduce
I0509 14:27:18.201790 14869 net.cpp:406] inception_4a/relu_3x3_reduce <- inception_4a/3x3_reduce
I0509 14:27:18.201797 14869 net.cpp:367] inception_4a/relu_3x3_reduce -> inception_4a/3x3_reduce (in-place)
I0509 14:27:18.203544 14869 net.cpp:122] Setting up inception_4a/relu_3x3_reduce
I0509 14:27:18.203557 14869 net.cpp:129] Top shape: 50 96 14 14 (940800)
I0509 14:27:18.203559 14869 net.cpp:137] Memory required for data: 1802573600
I0509 14:27:18.203563 14869 layer_factory.hpp:77] Creating layer inception_4a/3x3
I0509 14:27:18.203572 14869 net.cpp:84] Creating Layer inception_4a/3x3
I0509 14:27:18.203577 14869 net.cpp:406] inception_4a/3x3 <- inception_4a/3x3_reduce
I0509 14:27:18.203583 14869 net.cpp:380] inception_4a/3x3 -> inception_4a/3x3
I0509 14:27:18.206743 14869 net.cpp:122] Setting up inception_4a/3x3
I0509 14:27:18.206754 14869 net.cpp:129] Top shape: 50 208 14 14 (2038400)
I0509 14:27:18.206758 14869 net.cpp:137] Memory required for data: 1810727200
I0509 14:27:18.206763 14869 layer_factory.hpp:77] Creating layer inception_4a/relu_3x3
I0509 14:27:18.206769 14869 net.cpp:84] Creating Layer inception_4a/relu_3x3
I0509 14:27:18.206773 14869 net.cpp:406] inception_4a/relu_3x3 <- inception_4a/3x3
I0509 14:27:18.206779 14869 net.cpp:367] inception_4a/relu_3x3 -> inception_4a/3x3 (in-place)
I0509 14:27:18.207337 14869 net.cpp:122] Setting up inception_4a/relu_3x3
I0509 14:27:18.207353 14869 net.cpp:129] Top shape: 50 208 14 14 (2038400)
I0509 14:27:18.207356 14869 net.cpp:137] Memory required for data: 1818880800
I0509 14:27:18.207360 14869 layer_factory.hpp:77] Creating layer inception_4a/5x5_reduce
I0509 14:27:18.207370 14869 net.cpp:84] Creating Layer inception_4a/5x5_reduce
I0509 14:27:18.207373 14869 net.cpp:406] inception_4a/5x5_reduce <- pool3/3x3_s2_pool3/3x3_s2_0_split_2
I0509 14:27:18.207379 14869 net.cpp:380] inception_4a/5x5_reduce -> inception_4a/5x5_reduce
I0509 14:27:18.209416 14869 net.cpp:122] Setting up inception_4a/5x5_reduce
I0509 14:27:18.209426 14869 net.cpp:129] Top shape: 50 16 14 14 (156800)
I0509 14:27:18.209429 14869 net.cpp:137] Memory required for data: 1819508000
I0509 14:27:18.209435 14869 layer_factory.hpp:77] Creating layer inception_4a/relu_5x5_reduce
I0509 14:27:18.209441 14869 net.cpp:84] Creating Layer inception_4a/relu_5x5_reduce
I0509 14:27:18.209446 14869 net.cpp:406] inception_4a/relu_5x5_reduce <- inception_4a/5x5_reduce
I0509 14:27:18.209451 14869 net.cpp:367] inception_4a/relu_5x5_reduce -> inception_4a/5x5_reduce (in-place)
I0509 14:27:18.210009 14869 net.cpp:122] Setting up inception_4a/relu_5x5_reduce
I0509 14:27:18.210018 14869 net.cpp:129] Top shape: 50 16 14 14 (156800)
I0509 14:27:18.210021 14869 net.cpp:137] Memory required for data: 1820135200
I0509 14:27:18.210024 14869 layer_factory.hpp:77] Creating layer inception_4a/5x5
I0509 14:27:18.210036 14869 net.cpp:84] Creating Layer inception_4a/5x5
I0509 14:27:18.210038 14869 net.cpp:406] inception_4a/5x5 <- inception_4a/5x5_reduce
I0509 14:27:18.210047 14869 net.cpp:380] inception_4a/5x5 -> inception_4a/5x5
I0509 14:27:18.213549 14869 net.cpp:122] Setting up inception_4a/5x5
I0509 14:27:18.213560 14869 net.cpp:129] Top shape: 50 48 14 14 (470400)
I0509 14:27:18.213563 14869 net.cpp:137] Memory required for data: 1822016800
I0509 14:27:18.213570 14869 layer_factory.hpp:77] Creating layer inception_4a/relu_5x5
I0509 14:27:18.213577 14869 net.cpp:84] Creating Layer inception_4a/relu_5x5
I0509 14:27:18.213580 14869 net.cpp:406] inception_4a/relu_5x5 <- inception_4a/5x5
I0509 14:27:18.213585 14869 net.cpp:367] inception_4a/relu_5x5 -> inception_4a/5x5 (in-place)
I0509 14:27:18.213979 14869 net.cpp:122] Setting up inception_4a/relu_5x5
I0509 14:27:18.213987 14869 net.cpp:129] Top shape: 50 48 14 14 (470400)
I0509 14:27:18.213990 14869 net.cpp:137] Memory required for data: 1823898400
I0509 14:27:18.213994 14869 layer_factory.hpp:77] Creating layer inception_4a/pool
I0509 14:27:18.213999 14869 net.cpp:84] Creating Layer inception_4a/pool
I0509 14:27:18.214004 14869 net.cpp:406] inception_4a/pool <- pool3/3x3_s2_pool3/3x3_s2_0_split_3
I0509 14:27:18.214025 14869 net.cpp:380] inception_4a/pool -> inception_4a/pool
I0509 14:27:18.214071 14869 net.cpp:122] Setting up inception_4a/pool
I0509 14:27:18.214076 14869 net.cpp:129] Top shape: 50 480 14 14 (4704000)
I0509 14:27:18.214078 14869 net.cpp:137] Memory required for data: 1842714400
I0509 14:27:18.214082 14869 layer_factory.hpp:77] Creating layer inception_4a/pool_proj
I0509 14:27:18.214092 14869 net.cpp:84] Creating Layer inception_4a/pool_proj
I0509 14:27:18.214094 14869 net.cpp:406] inception_4a/pool_proj <- inception_4a/pool
I0509 14:27:18.214102 14869 net.cpp:380] inception_4a/pool_proj -> inception_4a/pool_proj
I0509 14:27:18.216599 14869 net.cpp:122] Setting up inception_4a/pool_proj
I0509 14:27:18.216610 14869 net.cpp:129] Top shape: 50 64 14 14 (627200)
I0509 14:27:18.216614 14869 net.cpp:137] Memory required for data: 1845223200
I0509 14:27:18.216619 14869 layer_factory.hpp:77] Creating layer inception_4a/relu_pool_proj
I0509 14:27:18.216625 14869 net.cpp:84] Creating Layer inception_4a/relu_pool_proj
I0509 14:27:18.216629 14869 net.cpp:406] inception_4a/relu_pool_proj <- inception_4a/pool_proj
I0509 14:27:18.216634 14869 net.cpp:367] inception_4a/relu_pool_proj -> inception_4a/pool_proj (in-place)
I0509 14:27:18.217197 14869 net.cpp:122] Setting up inception_4a/relu_pool_proj
I0509 14:27:18.217207 14869 net.cpp:129] Top shape: 50 64 14 14 (627200)
I0509 14:27:18.217209 14869 net.cpp:137] Memory required for data: 1847732000
I0509 14:27:18.217212 14869 layer_factory.hpp:77] Creating layer inception_4a/output
I0509 14:27:18.217218 14869 net.cpp:84] Creating Layer inception_4a/output
I0509 14:27:18.217222 14869 net.cpp:406] inception_4a/output <- inception_4a/1x1
I0509 14:27:18.217226 14869 net.cpp:406] inception_4a/output <- inception_4a/3x3
I0509 14:27:18.217231 14869 net.cpp:406] inception_4a/output <- inception_4a/5x5
I0509 14:27:18.217233 14869 net.cpp:406] inception_4a/output <- inception_4a/pool_proj
I0509 14:27:18.217242 14869 net.cpp:380] inception_4a/output -> inception_4a/output
I0509 14:27:18.217270 14869 net.cpp:122] Setting up inception_4a/output
I0509 14:27:18.217275 14869 net.cpp:129] Top shape: 50 512 14 14 (5017600)
I0509 14:27:18.217278 14869 net.cpp:137] Memory required for data: 1867802400
I0509 14:27:18.217280 14869 layer_factory.hpp:77] Creating layer inception_4a/output_inception_4a/output_0_split
I0509 14:27:18.217285 14869 net.cpp:84] Creating Layer inception_4a/output_inception_4a/output_0_split
I0509 14:27:18.217288 14869 net.cpp:406] inception_4a/output_inception_4a/output_0_split <- inception_4a/output
I0509 14:27:18.217294 14869 net.cpp:380] inception_4a/output_inception_4a/output_0_split -> inception_4a/output_inception_4a/output_0_split_0
I0509 14:27:18.217300 14869 net.cpp:380] inception_4a/output_inception_4a/output_0_split -> inception_4a/output_inception_4a/output_0_split_1
I0509 14:27:18.217308 14869 net.cpp:380] inception_4a/output_inception_4a/output_0_split -> inception_4a/output_inception_4a/output_0_split_2
I0509 14:27:18.217312 14869 net.cpp:380] inception_4a/output_inception_4a/output_0_split -> inception_4a/output_inception_4a/output_0_split_3
I0509 14:27:18.217317 14869 net.cpp:380] inception_4a/output_inception_4a/output_0_split -> inception_4a/output_inception_4a/output_0_split_4
I0509 14:27:18.217375 14869 net.cpp:122] Setting up inception_4a/output_inception_4a/output_0_split
I0509 14:27:18.217380 14869 net.cpp:129] Top shape: 50 512 14 14 (5017600)
I0509 14:27:18.217382 14869 net.cpp:129] Top shape: 50 512 14 14 (5017600)
I0509 14:27:18.217386 14869 net.cpp:129] Top shape: 50 512 14 14 (5017600)
I0509 14:27:18.217388 14869 net.cpp:129] Top shape: 50 512 14 14 (5017600)
I0509 14:27:18.217392 14869 net.cpp:129] Top shape: 50 512 14 14 (5017600)
I0509 14:27:18.217394 14869 net.cpp:137] Memory required for data: 1968154400
I0509 14:27:18.217397 14869 layer_factory.hpp:77] Creating layer loss1/ave_pool
I0509 14:27:18.217402 14869 net.cpp:84] Creating Layer loss1/ave_pool
I0509 14:27:18.217414 14869 net.cpp:406] loss1/ave_pool <- inception_4a/output_inception_4a/output_0_split_0
I0509 14:27:18.217422 14869 net.cpp:380] loss1/ave_pool -> loss1/ave_pool
I0509 14:27:18.217828 14869 net.cpp:122] Setting up loss1/ave_pool
I0509 14:27:18.217835 14869 net.cpp:129] Top shape: 50 512 4 4 (409600)
I0509 14:27:18.217839 14869 net.cpp:137] Memory required for data: 1969792800
I0509 14:27:18.217841 14869 layer_factory.hpp:77] Creating layer loss1/conv
I0509 14:27:18.217851 14869 net.cpp:84] Creating Layer loss1/conv
I0509 14:27:18.217854 14869 net.cpp:406] loss1/conv <- loss1/ave_pool
I0509 14:27:18.217861 14869 net.cpp:380] loss1/conv -> loss1/conv
I0509 14:27:18.221520 14869 net.cpp:122] Setting up loss1/conv
I0509 14:27:18.221530 14869 net.cpp:129] Top shape: 50 128 4 4 (102400)
I0509 14:27:18.221534 14869 net.cpp:137] Memory required for data: 1970202400
I0509 14:27:18.221540 14869 layer_factory.hpp:77] Creating layer loss1/relu_conv
I0509 14:27:18.221545 14869 net.cpp:84] Creating Layer loss1/relu_conv
I0509 14:27:18.221549 14869 net.cpp:406] loss1/relu_conv <- loss1/conv
I0509 14:27:18.221554 14869 net.cpp:367] loss1/relu_conv -> loss1/conv (in-place)
I0509 14:27:18.222116 14869 net.cpp:122] Setting up loss1/relu_conv
I0509 14:27:18.222126 14869 net.cpp:129] Top shape: 50 128 4 4 (102400)
I0509 14:27:18.222129 14869 net.cpp:137] Memory required for data: 1970612000
I0509 14:27:18.222132 14869 layer_factory.hpp:77] Creating layer loss1/fc
I0509 14:27:18.222143 14869 net.cpp:84] Creating Layer loss1/fc
I0509 14:27:18.222146 14869 net.cpp:406] loss1/fc <- loss1/conv
I0509 14:27:18.222152 14869 net.cpp:380] loss1/fc -> loss1/fc
I0509 14:27:18.234167 14869 net.cpp:122] Setting up loss1/fc
I0509 14:27:18.234179 14869 net.cpp:129] Top shape: 50 1024 (51200)
I0509 14:27:18.234182 14869 net.cpp:137] Memory required for data: 1970816800
I0509 14:27:18.234189 14869 layer_factory.hpp:77] Creating layer loss1/relu_fc
I0509 14:27:18.234197 14869 net.cpp:84] Creating Layer loss1/relu_fc
I0509 14:27:18.234201 14869 net.cpp:406] loss1/relu_fc <- loss1/fc
I0509 14:27:18.234206 14869 net.cpp:367] loss1/relu_fc -> loss1/fc (in-place)
I0509 14:27:18.234624 14869 net.cpp:122] Setting up loss1/relu_fc
I0509 14:27:18.234633 14869 net.cpp:129] Top shape: 50 1024 (51200)
I0509 14:27:18.234637 14869 net.cpp:137] Memory required for data: 1971021600
I0509 14:27:18.234640 14869 layer_factory.hpp:77] Creating layer loss1/drop_fc
I0509 14:27:18.234663 14869 net.cpp:84] Creating Layer loss1/drop_fc
I0509 14:27:18.234665 14869 net.cpp:406] loss1/drop_fc <- loss1/fc
I0509 14:27:18.234670 14869 net.cpp:367] loss1/drop_fc -> loss1/fc (in-place)
I0509 14:27:18.234699 14869 net.cpp:122] Setting up loss1/drop_fc
I0509 14:27:18.234704 14869 net.cpp:129] Top shape: 50 1024 (51200)
I0509 14:27:18.234706 14869 net.cpp:137] Memory required for data: 1971226400
I0509 14:27:18.234709 14869 layer_factory.hpp:77] Creating layer loss1/classifier
I0509 14:27:18.234715 14869 net.cpp:84] Creating Layer loss1/classifier
I0509 14:27:18.234719 14869 net.cpp:406] loss1/classifier <- loss1/fc
I0509 14:27:18.234726 14869 net.cpp:380] loss1/classifier -> loss1/classifier
I0509 14:27:18.236488 14869 net.cpp:122] Setting up loss1/classifier
I0509 14:27:18.236505 14869 net.cpp:129] Top shape: 50 196 (9800)
I0509 14:27:18.236508 14869 net.cpp:137] Memory required for data: 1971265600
I0509 14:27:18.236515 14869 layer_factory.hpp:77] Creating layer loss1/loss
I0509 14:27:18.236521 14869 net.cpp:84] Creating Layer loss1/loss
I0509 14:27:18.236524 14869 net.cpp:406] loss1/loss <- loss1/classifier
I0509 14:27:18.236529 14869 net.cpp:406] loss1/loss <- label_train-data_1_split_0
I0509 14:27:18.236536 14869 net.cpp:380] loss1/loss -> loss1/loss
I0509 14:27:18.236544 14869 layer_factory.hpp:77] Creating layer loss1/loss
I0509 14:27:18.237227 14869 net.cpp:122] Setting up loss1/loss
I0509 14:27:18.237236 14869 net.cpp:129] Top shape: (1)
I0509 14:27:18.237238 14869 net.cpp:132]     with loss weight 0.3
I0509 14:27:18.237254 14869 net.cpp:137] Memory required for data: 1971265604
I0509 14:27:18.237277 14869 layer_factory.hpp:77] Creating layer inception_4b/1x1
I0509 14:27:18.237288 14869 net.cpp:84] Creating Layer inception_4b/1x1
I0509 14:27:18.237293 14869 net.cpp:406] inception_4b/1x1 <- inception_4a/output_inception_4a/output_0_split_1
I0509 14:27:18.237299 14869 net.cpp:380] inception_4b/1x1 -> inception_4b/1x1
I0509 14:27:18.240250 14869 net.cpp:122] Setting up inception_4b/1x1
I0509 14:27:18.240260 14869 net.cpp:129] Top shape: 50 160 14 14 (1568000)
I0509 14:27:18.240263 14869 net.cpp:137] Memory required for data: 1977537604
I0509 14:27:18.240269 14869 layer_factory.hpp:77] Creating layer inception_4b/relu_1x1
I0509 14:27:18.240278 14869 net.cpp:84] Creating Layer inception_4b/relu_1x1
I0509 14:27:18.240281 14869 net.cpp:406] inception_4b/relu_1x1 <- inception_4b/1x1
I0509 14:27:18.240286 14869 net.cpp:367] inception_4b/relu_1x1 -> inception_4b/1x1 (in-place)
I0509 14:27:18.240877 14869 net.cpp:122] Setting up inception_4b/relu_1x1
I0509 14:27:18.240887 14869 net.cpp:129] Top shape: 50 160 14 14 (1568000)
I0509 14:27:18.240890 14869 net.cpp:137] Memory required for data: 1983809604
I0509 14:27:18.240893 14869 layer_factory.hpp:77] Creating layer inception_4b/3x3_reduce
I0509 14:27:18.240902 14869 net.cpp:84] Creating Layer inception_4b/3x3_reduce
I0509 14:27:18.240906 14869 net.cpp:406] inception_4b/3x3_reduce <- inception_4a/output_inception_4a/output_0_split_2
I0509 14:27:18.240913 14869 net.cpp:380] inception_4b/3x3_reduce -> inception_4b/3x3_reduce
I0509 14:27:18.244709 14869 net.cpp:122] Setting up inception_4b/3x3_reduce
I0509 14:27:18.244719 14869 net.cpp:129] Top shape: 50 112 14 14 (1097600)
I0509 14:27:18.244724 14869 net.cpp:137] Memory required for data: 1988200004
I0509 14:27:18.244729 14869 layer_factory.hpp:77] Creating layer inception_4b/relu_3x3_reduce
I0509 14:27:18.244735 14869 net.cpp:84] Creating Layer inception_4b/relu_3x3_reduce
I0509 14:27:18.244740 14869 net.cpp:406] inception_4b/relu_3x3_reduce <- inception_4b/3x3_reduce
I0509 14:27:18.244745 14869 net.cpp:367] inception_4b/relu_3x3_reduce -> inception_4b/3x3_reduce (in-place)
I0509 14:27:18.245131 14869 net.cpp:122] Setting up inception_4b/relu_3x3_reduce
I0509 14:27:18.245144 14869 net.cpp:129] Top shape: 50 112 14 14 (1097600)
I0509 14:27:18.245147 14869 net.cpp:137] Memory required for data: 1992590404
I0509 14:27:18.245151 14869 layer_factory.hpp:77] Creating layer inception_4b/3x3
I0509 14:27:18.245159 14869 net.cpp:84] Creating Layer inception_4b/3x3
I0509 14:27:18.245163 14869 net.cpp:406] inception_4b/3x3 <- inception_4b/3x3_reduce
I0509 14:27:18.245169 14869 net.cpp:380] inception_4b/3x3 -> inception_4b/3x3
I0509 14:27:18.248580 14869 net.cpp:122] Setting up inception_4b/3x3
I0509 14:27:18.248590 14869 net.cpp:129] Top shape: 50 224 14 14 (2195200)
I0509 14:27:18.248594 14869 net.cpp:137] Memory required for data: 2001371204
I0509 14:27:18.248600 14869 layer_factory.hpp:77] Creating layer inception_4b/relu_3x3
I0509 14:27:18.248606 14869 net.cpp:84] Creating Layer inception_4b/relu_3x3
I0509 14:27:18.248610 14869 net.cpp:406] inception_4b/relu_3x3 <- inception_4b/3x3
I0509 14:27:18.248615 14869 net.cpp:367] inception_4b/relu_3x3 -> inception_4b/3x3 (in-place)
I0509 14:27:18.249177 14869 net.cpp:122] Setting up inception_4b/relu_3x3
I0509 14:27:18.249186 14869 net.cpp:129] Top shape: 50 224 14 14 (2195200)
I0509 14:27:18.249189 14869 net.cpp:137] Memory required for data: 2010152004
I0509 14:27:18.249192 14869 layer_factory.hpp:77] Creating layer inception_4b/5x5_reduce
I0509 14:27:18.249202 14869 net.cpp:84] Creating Layer inception_4b/5x5_reduce
I0509 14:27:18.249205 14869 net.cpp:406] inception_4b/5x5_reduce <- inception_4a/output_inception_4a/output_0_split_3
I0509 14:27:18.249213 14869 net.cpp:380] inception_4b/5x5_reduce -> inception_4b/5x5_reduce
I0509 14:27:18.251439 14869 net.cpp:122] Setting up inception_4b/5x5_reduce
I0509 14:27:18.251448 14869 net.cpp:129] Top shape: 50 24 14 14 (235200)
I0509 14:27:18.251451 14869 net.cpp:137] Memory required for data: 2011092804
I0509 14:27:18.251457 14869 layer_factory.hpp:77] Creating layer inception_4b/relu_5x5_reduce
I0509 14:27:18.251480 14869 net.cpp:84] Creating Layer inception_4b/relu_5x5_reduce
I0509 14:27:18.251484 14869 net.cpp:406] inception_4b/relu_5x5_reduce <- inception_4b/5x5_reduce
I0509 14:27:18.251492 14869 net.cpp:367] inception_4b/relu_5x5_reduce -> inception_4b/5x5_reduce (in-place)
I0509 14:27:18.252194 14869 net.cpp:122] Setting up inception_4b/relu_5x5_reduce
I0509 14:27:18.252204 14869 net.cpp:129] Top shape: 50 24 14 14 (235200)
I0509 14:27:18.252207 14869 net.cpp:137] Memory required for data: 2012033604
I0509 14:27:18.252210 14869 layer_factory.hpp:77] Creating layer inception_4b/5x5
I0509 14:27:18.252220 14869 net.cpp:84] Creating Layer inception_4b/5x5
I0509 14:27:18.252224 14869 net.cpp:406] inception_4b/5x5 <- inception_4b/5x5_reduce
I0509 14:27:18.252231 14869 net.cpp:380] inception_4b/5x5 -> inception_4b/5x5
I0509 14:27:18.255595 14869 net.cpp:122] Setting up inception_4b/5x5
I0509 14:27:18.255605 14869 net.cpp:129] Top shape: 50 64 14 14 (627200)
I0509 14:27:18.255609 14869 net.cpp:137] Memory required for data: 2014542404
I0509 14:27:18.255614 14869 layer_factory.hpp:77] Creating layer inception_4b/relu_5x5
I0509 14:27:18.255620 14869 net.cpp:84] Creating Layer inception_4b/relu_5x5
I0509 14:27:18.255623 14869 net.cpp:406] inception_4b/relu_5x5 <- inception_4b/5x5
I0509 14:27:18.255630 14869 net.cpp:367] inception_4b/relu_5x5 -> inception_4b/5x5 (in-place)
I0509 14:27:18.256186 14869 net.cpp:122] Setting up inception_4b/relu_5x5
I0509 14:27:18.256196 14869 net.cpp:129] Top shape: 50 64 14 14 (627200)
I0509 14:27:18.256199 14869 net.cpp:137] Memory required for data: 2017051204
I0509 14:27:18.256202 14869 layer_factory.hpp:77] Creating layer inception_4b/pool
I0509 14:27:18.256209 14869 net.cpp:84] Creating Layer inception_4b/pool
I0509 14:27:18.256212 14869 net.cpp:406] inception_4b/pool <- inception_4a/output_inception_4a/output_0_split_4
I0509 14:27:18.256219 14869 net.cpp:380] inception_4b/pool -> inception_4b/pool
I0509 14:27:18.256271 14869 net.cpp:122] Setting up inception_4b/pool
I0509 14:27:18.256278 14869 net.cpp:129] Top shape: 50 512 14 14 (5017600)
I0509 14:27:18.256280 14869 net.cpp:137] Memory required for data: 2037121604
I0509 14:27:18.256283 14869 layer_factory.hpp:77] Creating layer inception_4b/pool_proj
I0509 14:27:18.256290 14869 net.cpp:84] Creating Layer inception_4b/pool_proj
I0509 14:27:18.256294 14869 net.cpp:406] inception_4b/pool_proj <- inception_4b/pool
I0509 14:27:18.256300 14869 net.cpp:380] inception_4b/pool_proj -> inception_4b/pool_proj
I0509 14:27:18.258450 14869 net.cpp:122] Setting up inception_4b/pool_proj
I0509 14:27:18.258460 14869 net.cpp:129] Top shape: 50 64 14 14 (627200)
I0509 14:27:18.258462 14869 net.cpp:137] Memory required for data: 2039630404
I0509 14:27:18.258467 14869 layer_factory.hpp:77] Creating layer inception_4b/relu_pool_proj
I0509 14:27:18.258473 14869 net.cpp:84] Creating Layer inception_4b/relu_pool_proj
I0509 14:27:18.258477 14869 net.cpp:406] inception_4b/relu_pool_proj <- inception_4b/pool_proj
I0509 14:27:18.258483 14869 net.cpp:367] inception_4b/relu_pool_proj -> inception_4b/pool_proj (in-place)
I0509 14:27:18.259047 14869 net.cpp:122] Setting up inception_4b/relu_pool_proj
I0509 14:27:18.259057 14869 net.cpp:129] Top shape: 50 64 14 14 (627200)
I0509 14:27:18.259059 14869 net.cpp:137] Memory required for data: 2042139204
I0509 14:27:18.259063 14869 layer_factory.hpp:77] Creating layer inception_4b/output
I0509 14:27:18.259069 14869 net.cpp:84] Creating Layer inception_4b/output
I0509 14:27:18.259073 14869 net.cpp:406] inception_4b/output <- inception_4b/1x1
I0509 14:27:18.259078 14869 net.cpp:406] inception_4b/output <- inception_4b/3x3
I0509 14:27:18.259080 14869 net.cpp:406] inception_4b/output <- inception_4b/5x5
I0509 14:27:18.259084 14869 net.cpp:406] inception_4b/output <- inception_4b/pool_proj
I0509 14:27:18.259089 14869 net.cpp:380] inception_4b/output -> inception_4b/output
I0509 14:27:18.259117 14869 net.cpp:122] Setting up inception_4b/output
I0509 14:27:18.259133 14869 net.cpp:129] Top shape: 50 512 14 14 (5017600)
I0509 14:27:18.259136 14869 net.cpp:137] Memory required for data: 2062209604
I0509 14:27:18.259138 14869 layer_factory.hpp:77] Creating layer inception_4b/output_inception_4b/output_0_split
I0509 14:27:18.259145 14869 net.cpp:84] Creating Layer inception_4b/output_inception_4b/output_0_split
I0509 14:27:18.259147 14869 net.cpp:406] inception_4b/output_inception_4b/output_0_split <- inception_4b/output
I0509 14:27:18.259155 14869 net.cpp:380] inception_4b/output_inception_4b/output_0_split -> inception_4b/output_inception_4b/output_0_split_0
I0509 14:27:18.259160 14869 net.cpp:380] inception_4b/output_inception_4b/output_0_split -> inception_4b/output_inception_4b/output_0_split_1
I0509 14:27:18.259166 14869 net.cpp:380] inception_4b/output_inception_4b/output_0_split -> inception_4b/output_inception_4b/output_0_split_2
I0509 14:27:18.259172 14869 net.cpp:380] inception_4b/output_inception_4b/output_0_split -> inception_4b/output_inception_4b/output_0_split_3
I0509 14:27:18.259222 14869 net.cpp:122] Setting up inception_4b/output_inception_4b/output_0_split
I0509 14:27:18.259227 14869 net.cpp:129] Top shape: 50 512 14 14 (5017600)
I0509 14:27:18.259229 14869 net.cpp:129] Top shape: 50 512 14 14 (5017600)
I0509 14:27:18.259232 14869 net.cpp:129] Top shape: 50 512 14 14 (5017600)
I0509 14:27:18.259236 14869 net.cpp:129] Top shape: 50 512 14 14 (5017600)
I0509 14:27:18.259238 14869 net.cpp:137] Memory required for data: 2142491204
I0509 14:27:18.259241 14869 layer_factory.hpp:77] Creating layer inception_4c/1x1
I0509 14:27:18.259250 14869 net.cpp:84] Creating Layer inception_4c/1x1
I0509 14:27:18.259253 14869 net.cpp:406] inception_4c/1x1 <- inception_4b/output_inception_4b/output_0_split_0
I0509 14:27:18.259260 14869 net.cpp:380] inception_4c/1x1 -> inception_4c/1x1
I0509 14:27:18.263808 14869 net.cpp:122] Setting up inception_4c/1x1
I0509 14:27:18.263821 14869 net.cpp:129] Top shape: 50 128 14 14 (1254400)
I0509 14:27:18.263824 14869 net.cpp:137] Memory required for data: 2147508804
I0509 14:27:18.263831 14869 layer_factory.hpp:77] Creating layer inception_4c/relu_1x1
I0509 14:27:18.263839 14869 net.cpp:84] Creating Layer inception_4c/relu_1x1
I0509 14:27:18.263842 14869 net.cpp:406] inception_4c/relu_1x1 <- inception_4c/1x1
I0509 14:27:18.263847 14869 net.cpp:367] inception_4c/relu_1x1 -> inception_4c/1x1 (in-place)
I0509 14:27:18.264230 14869 net.cpp:122] Setting up inception_4c/relu_1x1
I0509 14:27:18.264241 14869 net.cpp:129] Top shape: 50 128 14 14 (1254400)
I0509 14:27:18.264245 14869 net.cpp:137] Memory required for data: 2152526404
I0509 14:27:18.264247 14869 layer_factory.hpp:77] Creating layer inception_4c/3x3_reduce
I0509 14:27:18.264258 14869 net.cpp:84] Creating Layer inception_4c/3x3_reduce
I0509 14:27:18.264262 14869 net.cpp:406] inception_4c/3x3_reduce <- inception_4b/output_inception_4b/output_0_split_1
I0509 14:27:18.264268 14869 net.cpp:380] inception_4c/3x3_reduce -> inception_4c/3x3_reduce
I0509 14:27:18.267884 14869 net.cpp:122] Setting up inception_4c/3x3_reduce
I0509 14:27:18.267895 14869 net.cpp:129] Top shape: 50 128 14 14 (1254400)
I0509 14:27:18.267899 14869 net.cpp:137] Memory required for data: 2157544004
I0509 14:27:18.267904 14869 layer_factory.hpp:77] Creating layer inception_4c/relu_3x3_reduce
I0509 14:27:18.267911 14869 net.cpp:84] Creating Layer inception_4c/relu_3x3_reduce
I0509 14:27:18.267915 14869 net.cpp:406] inception_4c/relu_3x3_reduce <- inception_4c/3x3_reduce
I0509 14:27:18.267925 14869 net.cpp:367] inception_4c/relu_3x3_reduce -> inception_4c/3x3_reduce (in-place)
I0509 14:27:18.268502 14869 net.cpp:122] Setting up inception_4c/relu_3x3_reduce
I0509 14:27:18.268514 14869 net.cpp:129] Top shape: 50 128 14 14 (1254400)
I0509 14:27:18.268517 14869 net.cpp:137] Memory required for data: 2162561604
I0509 14:27:18.268520 14869 layer_factory.hpp:77] Creating layer inception_4c/3x3
I0509 14:27:18.268532 14869 net.cpp:84] Creating Layer inception_4c/3x3
I0509 14:27:18.268535 14869 net.cpp:406] inception_4c/3x3 <- inception_4c/3x3_reduce
I0509 14:27:18.268556 14869 net.cpp:380] inception_4c/3x3 -> inception_4c/3x3
I0509 14:27:18.272114 14869 net.cpp:122] Setting up inception_4c/3x3
I0509 14:27:18.272123 14869 net.cpp:129] Top shape: 50 256 14 14 (2508800)
I0509 14:27:18.272126 14869 net.cpp:137] Memory required for data: 2172596804
I0509 14:27:18.272145 14869 layer_factory.hpp:77] Creating layer inception_4c/relu_3x3
I0509 14:27:18.272151 14869 net.cpp:84] Creating Layer inception_4c/relu_3x3
I0509 14:27:18.272156 14869 net.cpp:406] inception_4c/relu_3x3 <- inception_4c/3x3
I0509 14:27:18.272161 14869 net.cpp:367] inception_4c/relu_3x3 -> inception_4c/3x3 (in-place)
I0509 14:27:18.272735 14869 net.cpp:122] Setting up inception_4c/relu_3x3
I0509 14:27:18.272747 14869 net.cpp:129] Top shape: 50 256 14 14 (2508800)
I0509 14:27:18.272749 14869 net.cpp:137] Memory required for data: 2182632004
I0509 14:27:18.272753 14869 layer_factory.hpp:77] Creating layer inception_4c/5x5_reduce
I0509 14:27:18.272763 14869 net.cpp:84] Creating Layer inception_4c/5x5_reduce
I0509 14:27:18.272766 14869 net.cpp:406] inception_4c/5x5_reduce <- inception_4b/output_inception_4b/output_0_split_2
I0509 14:27:18.272773 14869 net.cpp:380] inception_4c/5x5_reduce -> inception_4c/5x5_reduce
I0509 14:27:18.276160 14869 net.cpp:122] Setting up inception_4c/5x5_reduce
I0509 14:27:18.276170 14869 net.cpp:129] Top shape: 50 24 14 14 (235200)
I0509 14:27:18.276173 14869 net.cpp:137] Memory required for data: 2183572804
I0509 14:27:18.276180 14869 layer_factory.hpp:77] Creating layer inception_4c/relu_5x5_reduce
I0509 14:27:18.276186 14869 net.cpp:84] Creating Layer inception_4c/relu_5x5_reduce
I0509 14:27:18.276190 14869 net.cpp:406] inception_4c/relu_5x5_reduce <- inception_4c/5x5_reduce
I0509 14:27:18.276198 14869 net.cpp:367] inception_4c/relu_5x5_reduce -> inception_4c/5x5_reduce (in-place)
I0509 14:27:18.276923 14869 net.cpp:122] Setting up inception_4c/relu_5x5_reduce
I0509 14:27:18.276933 14869 net.cpp:129] Top shape: 50 24 14 14 (235200)
I0509 14:27:18.276935 14869 net.cpp:137] Memory required for data: 2184513604
I0509 14:27:18.276939 14869 layer_factory.hpp:77] Creating layer inception_4c/5x5
I0509 14:27:18.276950 14869 net.cpp:84] Creating Layer inception_4c/5x5
I0509 14:27:18.276954 14869 net.cpp:406] inception_4c/5x5 <- inception_4c/5x5_reduce
I0509 14:27:18.276960 14869 net.cpp:380] inception_4c/5x5 -> inception_4c/5x5
I0509 14:27:18.279170 14869 net.cpp:122] Setting up inception_4c/5x5
I0509 14:27:18.279179 14869 net.cpp:129] Top shape: 50 64 14 14 (627200)
I0509 14:27:18.279182 14869 net.cpp:137] Memory required for data: 2187022404
I0509 14:27:18.279188 14869 layer_factory.hpp:77] Creating layer inception_4c/relu_5x5
I0509 14:27:18.279194 14869 net.cpp:84] Creating Layer inception_4c/relu_5x5
I0509 14:27:18.279197 14869 net.cpp:406] inception_4c/relu_5x5 <- inception_4c/5x5
I0509 14:27:18.279204 14869 net.cpp:367] inception_4c/relu_5x5 -> inception_4c/5x5 (in-place)
I0509 14:27:18.279781 14869 net.cpp:122] Setting up inception_4c/relu_5x5
I0509 14:27:18.279791 14869 net.cpp:129] Top shape: 50 64 14 14 (627200)
I0509 14:27:18.279794 14869 net.cpp:137] Memory required for data: 2189531204
I0509 14:27:18.279798 14869 layer_factory.hpp:77] Creating layer inception_4c/pool
I0509 14:27:18.279804 14869 net.cpp:84] Creating Layer inception_4c/pool
I0509 14:27:18.279808 14869 net.cpp:406] inception_4c/pool <- inception_4b/output_inception_4b/output_0_split_3
I0509 14:27:18.279815 14869 net.cpp:380] inception_4c/pool -> inception_4c/pool
I0509 14:27:18.279856 14869 net.cpp:122] Setting up inception_4c/pool
I0509 14:27:18.279861 14869 net.cpp:129] Top shape: 50 512 14 14 (5017600)
I0509 14:27:18.279865 14869 net.cpp:137] Memory required for data: 2209601604
I0509 14:27:18.279866 14869 layer_factory.hpp:77] Creating layer inception_4c/pool_proj
I0509 14:27:18.279875 14869 net.cpp:84] Creating Layer inception_4c/pool_proj
I0509 14:27:18.279880 14869 net.cpp:406] inception_4c/pool_proj <- inception_4c/pool
I0509 14:27:18.279886 14869 net.cpp:380] inception_4c/pool_proj -> inception_4c/pool_proj
I0509 14:27:18.283561 14869 net.cpp:122] Setting up inception_4c/pool_proj
I0509 14:27:18.283573 14869 net.cpp:129] Top shape: 50 64 14 14 (627200)
I0509 14:27:18.283576 14869 net.cpp:137] Memory required for data: 2212110404
I0509 14:27:18.283583 14869 layer_factory.hpp:77] Creating layer inception_4c/relu_pool_proj
I0509 14:27:18.283591 14869 net.cpp:84] Creating Layer inception_4c/relu_pool_proj
I0509 14:27:18.283596 14869 net.cpp:406] inception_4c/relu_pool_proj <- inception_4c/pool_proj
I0509 14:27:18.283601 14869 net.cpp:367] inception_4c/relu_pool_proj -> inception_4c/pool_proj (in-place)
I0509 14:27:18.283993 14869 net.cpp:122] Setting up inception_4c/relu_pool_proj
I0509 14:27:18.284003 14869 net.cpp:129] Top shape: 50 64 14 14 (627200)
I0509 14:27:18.284006 14869 net.cpp:137] Memory required for data: 2214619204
I0509 14:27:18.284009 14869 layer_factory.hpp:77] Creating layer inception_4c/output
I0509 14:27:18.284015 14869 net.cpp:84] Creating Layer inception_4c/output
I0509 14:27:18.284019 14869 net.cpp:406] inception_4c/output <- inception_4c/1x1
I0509 14:27:18.284024 14869 net.cpp:406] inception_4c/output <- inception_4c/3x3
I0509 14:27:18.284027 14869 net.cpp:406] inception_4c/output <- inception_4c/5x5
I0509 14:27:18.284030 14869 net.cpp:406] inception_4c/output <- inception_4c/pool_proj
I0509 14:27:18.284036 14869 net.cpp:380] inception_4c/output -> inception_4c/output
I0509 14:27:18.284063 14869 net.cpp:122] Setting up inception_4c/output
I0509 14:27:18.284070 14869 net.cpp:129] Top shape: 50 512 14 14 (5017600)
I0509 14:27:18.284072 14869 net.cpp:137] Memory required for data: 2234689604
I0509 14:27:18.284075 14869 layer_factory.hpp:77] Creating layer inception_4c/output_inception_4c/output_0_split
I0509 14:27:18.284080 14869 net.cpp:84] Creating Layer inception_4c/output_inception_4c/output_0_split
I0509 14:27:18.284083 14869 net.cpp:406] inception_4c/output_inception_4c/output_0_split <- inception_4c/output
I0509 14:27:18.284090 14869 net.cpp:380] inception_4c/output_inception_4c/output_0_split -> inception_4c/output_inception_4c/output_0_split_0
I0509 14:27:18.284096 14869 net.cpp:380] inception_4c/output_inception_4c/output_0_split -> inception_4c/output_inception_4c/output_0_split_1
I0509 14:27:18.284101 14869 net.cpp:380] inception_4c/output_inception_4c/output_0_split -> inception_4c/output_inception_4c/output_0_split_2
I0509 14:27:18.284106 14869 net.cpp:380] inception_4c/output_inception_4c/output_0_split -> inception_4c/output_inception_4c/output_0_split_3
I0509 14:27:18.284152 14869 net.cpp:122] Setting up inception_4c/output_inception_4c/output_0_split
I0509 14:27:18.284157 14869 net.cpp:129] Top shape: 50 512 14 14 (5017600)
I0509 14:27:18.284160 14869 net.cpp:129] Top shape: 50 512 14 14 (5017600)
I0509 14:27:18.284163 14869 net.cpp:129] Top shape: 50 512 14 14 (5017600)
I0509 14:27:18.284168 14869 net.cpp:129] Top shape: 50 512 14 14 (5017600)
I0509 14:27:18.284169 14869 net.cpp:137] Memory required for data: 2314971204
I0509 14:27:18.284173 14869 layer_factory.hpp:77] Creating layer inception_4d/1x1
I0509 14:27:18.284183 14869 net.cpp:84] Creating Layer inception_4d/1x1
I0509 14:27:18.284186 14869 net.cpp:406] inception_4d/1x1 <- inception_4c/output_inception_4c/output_0_split_0
I0509 14:27:18.284191 14869 net.cpp:380] inception_4d/1x1 -> inception_4d/1x1
I0509 14:27:18.287389 14869 net.cpp:122] Setting up inception_4d/1x1
I0509 14:27:18.287400 14869 net.cpp:129] Top shape: 50 112 14 14 (1097600)
I0509 14:27:18.287402 14869 net.cpp:137] Memory required for data: 2319361604
I0509 14:27:18.287408 14869 layer_factory.hpp:77] Creating layer inception_4d/relu_1x1
I0509 14:27:18.287416 14869 net.cpp:84] Creating Layer inception_4d/relu_1x1
I0509 14:27:18.287420 14869 net.cpp:406] inception_4d/relu_1x1 <- inception_4d/1x1
I0509 14:27:18.287425 14869 net.cpp:367] inception_4d/relu_1x1 -> inception_4d/1x1 (in-place)
I0509 14:27:18.287979 14869 net.cpp:122] Setting up inception_4d/relu_1x1
I0509 14:27:18.287991 14869 net.cpp:129] Top shape: 50 112 14 14 (1097600)
I0509 14:27:18.288007 14869 net.cpp:137] Memory required for data: 2323752004
I0509 14:27:18.288010 14869 layer_factory.hpp:77] Creating layer inception_4d/3x3_reduce
I0509 14:27:18.288022 14869 net.cpp:84] Creating Layer inception_4d/3x3_reduce
I0509 14:27:18.288025 14869 net.cpp:406] inception_4d/3x3_reduce <- inception_4c/output_inception_4c/output_0_split_1
I0509 14:27:18.288031 14869 net.cpp:380] inception_4d/3x3_reduce -> inception_4d/3x3_reduce
I0509 14:27:18.290596 14869 net.cpp:122] Setting up inception_4d/3x3_reduce
I0509 14:27:18.290606 14869 net.cpp:129] Top shape: 50 144 14 14 (1411200)
I0509 14:27:18.290608 14869 net.cpp:137] Memory required for data: 2329396804
I0509 14:27:18.290614 14869 layer_factory.hpp:77] Creating layer inception_4d/relu_3x3_reduce
I0509 14:27:18.290621 14869 net.cpp:84] Creating Layer inception_4d/relu_3x3_reduce
I0509 14:27:18.290624 14869 net.cpp:406] inception_4d/relu_3x3_reduce <- inception_4d/3x3_reduce
I0509 14:27:18.290630 14869 net.cpp:367] inception_4d/relu_3x3_reduce -> inception_4d/3x3_reduce (in-place)
I0509 14:27:18.291198 14869 net.cpp:122] Setting up inception_4d/relu_3x3_reduce
I0509 14:27:18.291210 14869 net.cpp:129] Top shape: 50 144 14 14 (1411200)
I0509 14:27:18.291213 14869 net.cpp:137] Memory required for data: 2335041604
I0509 14:27:18.291216 14869 layer_factory.hpp:77] Creating layer inception_4d/3x3
I0509 14:27:18.291225 14869 net.cpp:84] Creating Layer inception_4d/3x3
I0509 14:27:18.291229 14869 net.cpp:406] inception_4d/3x3 <- inception_4d/3x3_reduce
I0509 14:27:18.291235 14869 net.cpp:380] inception_4d/3x3 -> inception_4d/3x3
I0509 14:27:18.296505 14869 net.cpp:122] Setting up inception_4d/3x3
I0509 14:27:18.296517 14869 net.cpp:129] Top shape: 50 288 14 14 (2822400)
I0509 14:27:18.296520 14869 net.cpp:137] Memory required for data: 2346331204
I0509 14:27:18.296527 14869 layer_factory.hpp:77] Creating layer inception_4d/relu_3x3
I0509 14:27:18.296535 14869 net.cpp:84] Creating Layer inception_4d/relu_3x3
I0509 14:27:18.296540 14869 net.cpp:406] inception_4d/relu_3x3 <- inception_4d/3x3
I0509 14:27:18.296545 14869 net.cpp:367] inception_4d/relu_3x3 -> inception_4d/3x3 (in-place)
I0509 14:27:18.297104 14869 net.cpp:122] Setting up inception_4d/relu_3x3
I0509 14:27:18.297114 14869 net.cpp:129] Top shape: 50 288 14 14 (2822400)
I0509 14:27:18.297116 14869 net.cpp:137] Memory required for data: 2357620804
I0509 14:27:18.297119 14869 layer_factory.hpp:77] Creating layer inception_4d/5x5_reduce
I0509 14:27:18.297129 14869 net.cpp:84] Creating Layer inception_4d/5x5_reduce
I0509 14:27:18.297133 14869 net.cpp:406] inception_4d/5x5_reduce <- inception_4c/output_inception_4c/output_0_split_2
I0509 14:27:18.297142 14869 net.cpp:380] inception_4d/5x5_reduce -> inception_4d/5x5_reduce
I0509 14:27:18.299985 14869 net.cpp:122] Setting up inception_4d/5x5_reduce
I0509 14:27:18.299994 14869 net.cpp:129] Top shape: 50 32 14 14 (313600)
I0509 14:27:18.299998 14869 net.cpp:137] Memory required for data: 2358875204
I0509 14:27:18.300004 14869 layer_factory.hpp:77] Creating layer inception_4d/relu_5x5_reduce
I0509 14:27:18.300009 14869 net.cpp:84] Creating Layer inception_4d/relu_5x5_reduce
I0509 14:27:18.300014 14869 net.cpp:406] inception_4d/relu_5x5_reduce <- inception_4d/5x5_reduce
I0509 14:27:18.300020 14869 net.cpp:367] inception_4d/relu_5x5_reduce -> inception_4d/5x5_reduce (in-place)
I0509 14:27:18.300755 14869 net.cpp:122] Setting up inception_4d/relu_5x5_reduce
I0509 14:27:18.300765 14869 net.cpp:129] Top shape: 50 32 14 14 (313600)
I0509 14:27:18.300767 14869 net.cpp:137] Memory required for data: 2360129604
I0509 14:27:18.300771 14869 layer_factory.hpp:77] Creating layer inception_4d/5x5
I0509 14:27:18.300781 14869 net.cpp:84] Creating Layer inception_4d/5x5
I0509 14:27:18.300784 14869 net.cpp:406] inception_4d/5x5 <- inception_4d/5x5_reduce
I0509 14:27:18.300796 14869 net.cpp:380] inception_4d/5x5 -> inception_4d/5x5
I0509 14:27:18.303083 14869 net.cpp:122] Setting up inception_4d/5x5
I0509 14:27:18.303092 14869 net.cpp:129] Top shape: 50 64 14 14 (627200)
I0509 14:27:18.303113 14869 net.cpp:137] Memory required for data: 2362638404
I0509 14:27:18.303120 14869 layer_factory.hpp:77] Creating layer inception_4d/relu_5x5
I0509 14:27:18.303126 14869 net.cpp:84] Creating Layer inception_4d/relu_5x5
I0509 14:27:18.303129 14869 net.cpp:406] inception_4d/relu_5x5 <- inception_4d/5x5
I0509 14:27:18.303136 14869 net.cpp:367] inception_4d/relu_5x5 -> inception_4d/5x5 (in-place)
I0509 14:27:18.305485 14869 net.cpp:122] Setting up inception_4d/relu_5x5
I0509 14:27:18.305495 14869 net.cpp:129] Top shape: 50 64 14 14 (627200)
I0509 14:27:18.305498 14869 net.cpp:137] Memory required for data: 2365147204
I0509 14:27:18.305501 14869 layer_factory.hpp:77] Creating layer inception_4d/pool
I0509 14:27:18.305507 14869 net.cpp:84] Creating Layer inception_4d/pool
I0509 14:27:18.305512 14869 net.cpp:406] inception_4d/pool <- inception_4c/output_inception_4c/output_0_split_3
I0509 14:27:18.305519 14869 net.cpp:380] inception_4d/pool -> inception_4d/pool
I0509 14:27:18.305562 14869 net.cpp:122] Setting up inception_4d/pool
I0509 14:27:18.305567 14869 net.cpp:129] Top shape: 50 512 14 14 (5017600)
I0509 14:27:18.305570 14869 net.cpp:137] Memory required for data: 2385217604
I0509 14:27:18.305572 14869 layer_factory.hpp:77] Creating layer inception_4d/pool_proj
I0509 14:27:18.305583 14869 net.cpp:84] Creating Layer inception_4d/pool_proj
I0509 14:27:18.305588 14869 net.cpp:406] inception_4d/pool_proj <- inception_4d/pool
I0509 14:27:18.305593 14869 net.cpp:380] inception_4d/pool_proj -> inception_4d/pool_proj
I0509 14:27:18.308086 14869 net.cpp:122] Setting up inception_4d/pool_proj
I0509 14:27:18.308096 14869 net.cpp:129] Top shape: 50 64 14 14 (627200)
I0509 14:27:18.308099 14869 net.cpp:137] Memory required for data: 2387726404
I0509 14:27:18.308106 14869 layer_factory.hpp:77] Creating layer inception_4d/relu_pool_proj
I0509 14:27:18.308113 14869 net.cpp:84] Creating Layer inception_4d/relu_pool_proj
I0509 14:27:18.308117 14869 net.cpp:406] inception_4d/relu_pool_proj <- inception_4d/pool_proj
I0509 14:27:18.308123 14869 net.cpp:367] inception_4d/relu_pool_proj -> inception_4d/pool_proj (in-place)
I0509 14:27:18.308533 14869 net.cpp:122] Setting up inception_4d/relu_pool_proj
I0509 14:27:18.308543 14869 net.cpp:129] Top shape: 50 64 14 14 (627200)
I0509 14:27:18.308545 14869 net.cpp:137] Memory required for data: 2390235204
I0509 14:27:18.308548 14869 layer_factory.hpp:77] Creating layer inception_4d/output
I0509 14:27:18.308555 14869 net.cpp:84] Creating Layer inception_4d/output
I0509 14:27:18.308559 14869 net.cpp:406] inception_4d/output <- inception_4d/1x1
I0509 14:27:18.308563 14869 net.cpp:406] inception_4d/output <- inception_4d/3x3
I0509 14:27:18.308568 14869 net.cpp:406] inception_4d/output <- inception_4d/5x5
I0509 14:27:18.308570 14869 net.cpp:406] inception_4d/output <- inception_4d/pool_proj
I0509 14:27:18.308576 14869 net.cpp:380] inception_4d/output -> inception_4d/output
I0509 14:27:18.308605 14869 net.cpp:122] Setting up inception_4d/output
I0509 14:27:18.308610 14869 net.cpp:129] Top shape: 50 528 14 14 (5174400)
I0509 14:27:18.308614 14869 net.cpp:137] Memory required for data: 2410932804
I0509 14:27:18.308615 14869 layer_factory.hpp:77] Creating layer inception_4d/output_inception_4d/output_0_split
I0509 14:27:18.308622 14869 net.cpp:84] Creating Layer inception_4d/output_inception_4d/output_0_split
I0509 14:27:18.308625 14869 net.cpp:406] inception_4d/output_inception_4d/output_0_split <- inception_4d/output
I0509 14:27:18.308632 14869 net.cpp:380] inception_4d/output_inception_4d/output_0_split -> inception_4d/output_inception_4d/output_0_split_0
I0509 14:27:18.308638 14869 net.cpp:380] inception_4d/output_inception_4d/output_0_split -> inception_4d/output_inception_4d/output_0_split_1
I0509 14:27:18.308645 14869 net.cpp:380] inception_4d/output_inception_4d/output_0_split -> inception_4d/output_inception_4d/output_0_split_2
I0509 14:27:18.308650 14869 net.cpp:380] inception_4d/output_inception_4d/output_0_split -> inception_4d/output_inception_4d/output_0_split_3
I0509 14:27:18.308655 14869 net.cpp:380] inception_4d/output_inception_4d/output_0_split -> inception_4d/output_inception_4d/output_0_split_4
I0509 14:27:18.308730 14869 net.cpp:122] Setting up inception_4d/output_inception_4d/output_0_split
I0509 14:27:18.308735 14869 net.cpp:129] Top shape: 50 528 14 14 (5174400)
I0509 14:27:18.308738 14869 net.cpp:129] Top shape: 50 528 14 14 (5174400)
I0509 14:27:18.308742 14869 net.cpp:129] Top shape: 50 528 14 14 (5174400)
I0509 14:27:18.308745 14869 net.cpp:129] Top shape: 50 528 14 14 (5174400)
I0509 14:27:18.308748 14869 net.cpp:129] Top shape: 50 528 14 14 (5174400)
I0509 14:27:18.308750 14869 net.cpp:137] Memory required for data: 2514420804
I0509 14:27:18.308753 14869 layer_factory.hpp:77] Creating layer loss2/ave_pool
I0509 14:27:18.308758 14869 net.cpp:84] Creating Layer loss2/ave_pool
I0509 14:27:18.308761 14869 net.cpp:406] loss2/ave_pool <- inception_4d/output_inception_4d/output_0_split_0
I0509 14:27:18.308770 14869 net.cpp:380] loss2/ave_pool -> loss2/ave_pool
I0509 14:27:18.309474 14869 net.cpp:122] Setting up loss2/ave_pool
I0509 14:27:18.309484 14869 net.cpp:129] Top shape: 50 528 4 4 (422400)
I0509 14:27:18.309486 14869 net.cpp:137] Memory required for data: 2516110404
I0509 14:27:18.309489 14869 layer_factory.hpp:77] Creating layer loss2/conv
I0509 14:27:18.309499 14869 net.cpp:84] Creating Layer loss2/conv
I0509 14:27:18.309504 14869 net.cpp:406] loss2/conv <- loss2/ave_pool
I0509 14:27:18.309509 14869 net.cpp:380] loss2/conv -> loss2/conv
I0509 14:27:18.312177 14869 net.cpp:122] Setting up loss2/conv
I0509 14:27:18.312187 14869 net.cpp:129] Top shape: 50 128 4 4 (102400)
I0509 14:27:18.312191 14869 net.cpp:137] Memory required for data: 2516520004
I0509 14:27:18.312196 14869 layer_factory.hpp:77] Creating layer loss2/relu_conv
I0509 14:27:18.312203 14869 net.cpp:84] Creating Layer loss2/relu_conv
I0509 14:27:18.312206 14869 net.cpp:406] loss2/relu_conv <- loss2/conv
I0509 14:27:18.312211 14869 net.cpp:367] loss2/relu_conv -> loss2/conv (in-place)
I0509 14:27:18.312615 14869 net.cpp:122] Setting up loss2/relu_conv
I0509 14:27:18.312624 14869 net.cpp:129] Top shape: 50 128 4 4 (102400)
I0509 14:27:18.312628 14869 net.cpp:137] Memory required for data: 2516929604
I0509 14:27:18.312630 14869 layer_factory.hpp:77] Creating layer loss2/fc
I0509 14:27:18.312638 14869 net.cpp:84] Creating Layer loss2/fc
I0509 14:27:18.312640 14869 net.cpp:406] loss2/fc <- loss2/conv
I0509 14:27:18.312647 14869 net.cpp:380] loss2/fc -> loss2/fc
I0509 14:27:18.324828 14869 net.cpp:122] Setting up loss2/fc
I0509 14:27:18.324848 14869 net.cpp:129] Top shape: 50 1024 (51200)
I0509 14:27:18.324851 14869 net.cpp:137] Memory required for data: 2517134404
I0509 14:27:18.324859 14869 layer_factory.hpp:77] Creating layer loss2/relu_fc
I0509 14:27:18.324867 14869 net.cpp:84] Creating Layer loss2/relu_fc
I0509 14:27:18.324872 14869 net.cpp:406] loss2/relu_fc <- loss2/fc
I0509 14:27:18.324878 14869 net.cpp:367] loss2/relu_fc -> loss2/fc (in-place)
I0509 14:27:18.327041 14869 net.cpp:122] Setting up loss2/relu_fc
I0509 14:27:18.327051 14869 net.cpp:129] Top shape: 50 1024 (51200)
I0509 14:27:18.327054 14869 net.cpp:137] Memory required for data: 2517339204
I0509 14:27:18.327059 14869 layer_factory.hpp:77] Creating layer loss2/drop_fc
I0509 14:27:18.327064 14869 net.cpp:84] Creating Layer loss2/drop_fc
I0509 14:27:18.327069 14869 net.cpp:406] loss2/drop_fc <- loss2/fc
I0509 14:27:18.327075 14869 net.cpp:367] loss2/drop_fc -> loss2/fc (in-place)
I0509 14:27:18.327101 14869 net.cpp:122] Setting up loss2/drop_fc
I0509 14:27:18.327106 14869 net.cpp:129] Top shape: 50 1024 (51200)
I0509 14:27:18.327108 14869 net.cpp:137] Memory required for data: 2517544004
I0509 14:27:18.327111 14869 layer_factory.hpp:77] Creating layer loss2/classifier
I0509 14:27:18.327121 14869 net.cpp:84] Creating Layer loss2/classifier
I0509 14:27:18.327123 14869 net.cpp:406] loss2/classifier <- loss2/fc
I0509 14:27:18.327129 14869 net.cpp:380] loss2/classifier -> loss2/classifier
I0509 14:27:18.328171 14869 net.cpp:122] Setting up loss2/classifier
I0509 14:27:18.328197 14869 net.cpp:129] Top shape: 50 196 (9800)
I0509 14:27:18.328200 14869 net.cpp:137] Memory required for data: 2517583204
I0509 14:27:18.328207 14869 layer_factory.hpp:77] Creating layer loss2/loss
I0509 14:27:18.328214 14869 net.cpp:84] Creating Layer loss2/loss
I0509 14:27:18.328217 14869 net.cpp:406] loss2/loss <- loss2/classifier
I0509 14:27:18.328222 14869 net.cpp:406] loss2/loss <- label_train-data_1_split_1
I0509 14:27:18.328227 14869 net.cpp:380] loss2/loss -> loss2/loss
I0509 14:27:18.328233 14869 layer_factory.hpp:77] Creating layer loss2/loss
I0509 14:27:18.328923 14869 net.cpp:122] Setting up loss2/loss
I0509 14:27:18.328933 14869 net.cpp:129] Top shape: (1)
I0509 14:27:18.328935 14869 net.cpp:132]     with loss weight 0.3
I0509 14:27:18.328944 14869 net.cpp:137] Memory required for data: 2517583208
I0509 14:27:18.328948 14869 layer_factory.hpp:77] Creating layer inception_4e/1x1
I0509 14:27:18.328961 14869 net.cpp:84] Creating Layer inception_4e/1x1
I0509 14:27:18.328966 14869 net.cpp:406] inception_4e/1x1 <- inception_4d/output_inception_4d/output_0_split_1
I0509 14:27:18.328974 14869 net.cpp:380] inception_4e/1x1 -> inception_4e/1x1
I0509 14:27:18.331653 14869 net.cpp:122] Setting up inception_4e/1x1
I0509 14:27:18.331663 14869 net.cpp:129] Top shape: 50 256 14 14 (2508800)
I0509 14:27:18.331666 14869 net.cpp:137] Memory required for data: 2527618408
I0509 14:27:18.331672 14869 layer_factory.hpp:77] Creating layer inception_4e/relu_1x1
I0509 14:27:18.331678 14869 net.cpp:84] Creating Layer inception_4e/relu_1x1
I0509 14:27:18.331682 14869 net.cpp:406] inception_4e/relu_1x1 <- inception_4e/1x1
I0509 14:27:18.331689 14869 net.cpp:367] inception_4e/relu_1x1 -> inception_4e/1x1 (in-place)
I0509 14:27:18.332263 14869 net.cpp:122] Setting up inception_4e/relu_1x1
I0509 14:27:18.332273 14869 net.cpp:129] Top shape: 50 256 14 14 (2508800)
I0509 14:27:18.332276 14869 net.cpp:137] Memory required for data: 2537653608
I0509 14:27:18.332279 14869 layer_factory.hpp:77] Creating layer inception_4e/3x3_reduce
I0509 14:27:18.332293 14869 net.cpp:84] Creating Layer inception_4e/3x3_reduce
I0509 14:27:18.332298 14869 net.cpp:406] inception_4e/3x3_reduce <- inception_4d/output_inception_4d/output_0_split_2
I0509 14:27:18.332304 14869 net.cpp:380] inception_4e/3x3_reduce -> inception_4e/3x3_reduce
I0509 14:27:18.335783 14869 net.cpp:122] Setting up inception_4e/3x3_reduce
I0509 14:27:18.335794 14869 net.cpp:129] Top shape: 50 160 14 14 (1568000)
I0509 14:27:18.335798 14869 net.cpp:137] Memory required for data: 2543925608
I0509 14:27:18.335803 14869 layer_factory.hpp:77] Creating layer inception_4e/relu_3x3_reduce
I0509 14:27:18.335809 14869 net.cpp:84] Creating Layer inception_4e/relu_3x3_reduce
I0509 14:27:18.335813 14869 net.cpp:406] inception_4e/relu_3x3_reduce <- inception_4e/3x3_reduce
I0509 14:27:18.335820 14869 net.cpp:367] inception_4e/relu_3x3_reduce -> inception_4e/3x3_reduce (in-place)
I0509 14:27:18.336490 14869 net.cpp:122] Setting up inception_4e/relu_3x3_reduce
I0509 14:27:18.336510 14869 net.cpp:129] Top shape: 50 160 14 14 (1568000)
I0509 14:27:18.336515 14869 net.cpp:137] Memory required for data: 2550197608
I0509 14:27:18.336519 14869 layer_factory.hpp:77] Creating layer inception_4e/3x3
I0509 14:27:18.336529 14869 net.cpp:84] Creating Layer inception_4e/3x3
I0509 14:27:18.336532 14869 net.cpp:406] inception_4e/3x3 <- inception_4e/3x3_reduce
I0509 14:27:18.336539 14869 net.cpp:380] inception_4e/3x3 -> inception_4e/3x3
I0509 14:27:18.343396 14869 net.cpp:122] Setting up inception_4e/3x3
I0509 14:27:18.343411 14869 net.cpp:129] Top shape: 50 320 14 14 (3136000)
I0509 14:27:18.343415 14869 net.cpp:137] Memory required for data: 2562741608
I0509 14:27:18.343422 14869 layer_factory.hpp:77] Creating layer inception_4e/relu_3x3
I0509 14:27:18.343432 14869 net.cpp:84] Creating Layer inception_4e/relu_3x3
I0509 14:27:18.343437 14869 net.cpp:406] inception_4e/relu_3x3 <- inception_4e/3x3
I0509 14:27:18.343444 14869 net.cpp:367] inception_4e/relu_3x3 -> inception_4e/3x3 (in-place)
I0509 14:27:18.343842 14869 net.cpp:122] Setting up inception_4e/relu_3x3
I0509 14:27:18.343870 14869 net.cpp:129] Top shape: 50 320 14 14 (3136000)
I0509 14:27:18.343873 14869 net.cpp:137] Memory required for data: 2575285608
I0509 14:27:18.343876 14869 layer_factory.hpp:77] Creating layer inception_4e/5x5_reduce
I0509 14:27:18.343888 14869 net.cpp:84] Creating Layer inception_4e/5x5_reduce
I0509 14:27:18.343890 14869 net.cpp:406] inception_4e/5x5_reduce <- inception_4d/output_inception_4d/output_0_split_3
I0509 14:27:18.343897 14869 net.cpp:380] inception_4e/5x5_reduce -> inception_4e/5x5_reduce
I0509 14:27:18.346206 14869 net.cpp:122] Setting up inception_4e/5x5_reduce
I0509 14:27:18.346216 14869 net.cpp:129] Top shape: 50 32 14 14 (313600)
I0509 14:27:18.346220 14869 net.cpp:137] Memory required for data: 2576540008
I0509 14:27:18.346225 14869 layer_factory.hpp:77] Creating layer inception_4e/relu_5x5_reduce
I0509 14:27:18.346231 14869 net.cpp:84] Creating Layer inception_4e/relu_5x5_reduce
I0509 14:27:18.346235 14869 net.cpp:406] inception_4e/relu_5x5_reduce <- inception_4e/5x5_reduce
I0509 14:27:18.346240 14869 net.cpp:367] inception_4e/relu_5x5_reduce -> inception_4e/5x5_reduce (in-place)
I0509 14:27:18.346815 14869 net.cpp:122] Setting up inception_4e/relu_5x5_reduce
I0509 14:27:18.346825 14869 net.cpp:129] Top shape: 50 32 14 14 (313600)
I0509 14:27:18.346828 14869 net.cpp:137] Memory required for data: 2577794408
I0509 14:27:18.346832 14869 layer_factory.hpp:77] Creating layer inception_4e/5x5
I0509 14:27:18.346868 14869 net.cpp:84] Creating Layer inception_4e/5x5
I0509 14:27:18.346873 14869 net.cpp:406] inception_4e/5x5 <- inception_4e/5x5_reduce
I0509 14:27:18.346879 14869 net.cpp:380] inception_4e/5x5 -> inception_4e/5x5
I0509 14:27:18.350730 14869 net.cpp:122] Setting up inception_4e/5x5
I0509 14:27:18.350742 14869 net.cpp:129] Top shape: 50 128 14 14 (1254400)
I0509 14:27:18.350745 14869 net.cpp:137] Memory required for data: 2582812008
I0509 14:27:18.350752 14869 layer_factory.hpp:77] Creating layer inception_4e/relu_5x5
I0509 14:27:18.350759 14869 net.cpp:84] Creating Layer inception_4e/relu_5x5
I0509 14:27:18.350762 14869 net.cpp:406] inception_4e/relu_5x5 <- inception_4e/5x5
I0509 14:27:18.350769 14869 net.cpp:367] inception_4e/relu_5x5 -> inception_4e/5x5 (in-place)
I0509 14:27:18.351351 14869 net.cpp:122] Setting up inception_4e/relu_5x5
I0509 14:27:18.351361 14869 net.cpp:129] Top shape: 50 128 14 14 (1254400)
I0509 14:27:18.351364 14869 net.cpp:137] Memory required for data: 2587829608
I0509 14:27:18.351367 14869 layer_factory.hpp:77] Creating layer inception_4e/pool
I0509 14:27:18.351377 14869 net.cpp:84] Creating Layer inception_4e/pool
I0509 14:27:18.351382 14869 net.cpp:406] inception_4e/pool <- inception_4d/output_inception_4d/output_0_split_4
I0509 14:27:18.351387 14869 net.cpp:380] inception_4e/pool -> inception_4e/pool
I0509 14:27:18.351429 14869 net.cpp:122] Setting up inception_4e/pool
I0509 14:27:18.351434 14869 net.cpp:129] Top shape: 50 528 14 14 (5174400)
I0509 14:27:18.351438 14869 net.cpp:137] Memory required for data: 2608527208
I0509 14:27:18.351439 14869 layer_factory.hpp:77] Creating layer inception_4e/pool_proj
I0509 14:27:18.351449 14869 net.cpp:84] Creating Layer inception_4e/pool_proj
I0509 14:27:18.351452 14869 net.cpp:406] inception_4e/pool_proj <- inception_4e/pool
I0509 14:27:18.351459 14869 net.cpp:380] inception_4e/pool_proj -> inception_4e/pool_proj
I0509 14:27:18.353948 14869 net.cpp:122] Setting up inception_4e/pool_proj
I0509 14:27:18.353960 14869 net.cpp:129] Top shape: 50 128 14 14 (1254400)
I0509 14:27:18.353962 14869 net.cpp:137] Memory required for data: 2613544808
I0509 14:27:18.353968 14869 layer_factory.hpp:77] Creating layer inception_4e/relu_pool_proj
I0509 14:27:18.353974 14869 net.cpp:84] Creating Layer inception_4e/relu_pool_proj
I0509 14:27:18.353977 14869 net.cpp:406] inception_4e/relu_pool_proj <- inception_4e/pool_proj
I0509 14:27:18.353984 14869 net.cpp:367] inception_4e/relu_pool_proj -> inception_4e/pool_proj (in-place)
I0509 14:27:18.354547 14869 net.cpp:122] Setting up inception_4e/relu_pool_proj
I0509 14:27:18.354574 14869 net.cpp:129] Top shape: 50 128 14 14 (1254400)
I0509 14:27:18.354578 14869 net.cpp:137] Memory required for data: 2618562408
I0509 14:27:18.354580 14869 layer_factory.hpp:77] Creating layer inception_4e/output
I0509 14:27:18.354586 14869 net.cpp:84] Creating Layer inception_4e/output
I0509 14:27:18.354589 14869 net.cpp:406] inception_4e/output <- inception_4e/1x1
I0509 14:27:18.354594 14869 net.cpp:406] inception_4e/output <- inception_4e/3x3
I0509 14:27:18.354598 14869 net.cpp:406] inception_4e/output <- inception_4e/5x5
I0509 14:27:18.354601 14869 net.cpp:406] inception_4e/output <- inception_4e/pool_proj
I0509 14:27:18.354607 14869 net.cpp:380] inception_4e/output -> inception_4e/output
I0509 14:27:18.354635 14869 net.cpp:122] Setting up inception_4e/output
I0509 14:27:18.354641 14869 net.cpp:129] Top shape: 50 832 14 14 (8153600)
I0509 14:27:18.354645 14869 net.cpp:137] Memory required for data: 2651176808
I0509 14:27:18.354647 14869 layer_factory.hpp:77] Creating layer pool4/3x3_s2
I0509 14:27:18.354652 14869 net.cpp:84] Creating Layer pool4/3x3_s2
I0509 14:27:18.354655 14869 net.cpp:406] pool4/3x3_s2 <- inception_4e/output
I0509 14:27:18.354660 14869 net.cpp:380] pool4/3x3_s2 -> pool4/3x3_s2
I0509 14:27:18.354694 14869 net.cpp:122] Setting up pool4/3x3_s2
I0509 14:27:18.354701 14869 net.cpp:129] Top shape: 50 832 7 7 (2038400)
I0509 14:27:18.354702 14869 net.cpp:137] Memory required for data: 2659330408
I0509 14:27:18.354705 14869 layer_factory.hpp:77] Creating layer pool4/3x3_s2_pool4/3x3_s2_0_split
I0509 14:27:18.354710 14869 net.cpp:84] Creating Layer pool4/3x3_s2_pool4/3x3_s2_0_split
I0509 14:27:18.354713 14869 net.cpp:406] pool4/3x3_s2_pool4/3x3_s2_0_split <- pool4/3x3_s2
I0509 14:27:18.354719 14869 net.cpp:380] pool4/3x3_s2_pool4/3x3_s2_0_split -> pool4/3x3_s2_pool4/3x3_s2_0_split_0
I0509 14:27:18.354725 14869 net.cpp:380] pool4/3x3_s2_pool4/3x3_s2_0_split -> pool4/3x3_s2_pool4/3x3_s2_0_split_1
I0509 14:27:18.354730 14869 net.cpp:380] pool4/3x3_s2_pool4/3x3_s2_0_split -> pool4/3x3_s2_pool4/3x3_s2_0_split_2
I0509 14:27:18.354737 14869 net.cpp:380] pool4/3x3_s2_pool4/3x3_s2_0_split -> pool4/3x3_s2_pool4/3x3_s2_0_split_3
I0509 14:27:18.354782 14869 net.cpp:122] Setting up pool4/3x3_s2_pool4/3x3_s2_0_split
I0509 14:27:18.354786 14869 net.cpp:129] Top shape: 50 832 7 7 (2038400)
I0509 14:27:18.354790 14869 net.cpp:129] Top shape: 50 832 7 7 (2038400)
I0509 14:27:18.354794 14869 net.cpp:129] Top shape: 50 832 7 7 (2038400)
I0509 14:27:18.354796 14869 net.cpp:129] Top shape: 50 832 7 7 (2038400)
I0509 14:27:18.354799 14869 net.cpp:137] Memory required for data: 2691944808
I0509 14:27:18.354801 14869 layer_factory.hpp:77] Creating layer inception_5a/1x1
I0509 14:27:18.354809 14869 net.cpp:84] Creating Layer inception_5a/1x1
I0509 14:27:18.354813 14869 net.cpp:406] inception_5a/1x1 <- pool4/3x3_s2_pool4/3x3_s2_0_split_0
I0509 14:27:18.354820 14869 net.cpp:380] inception_5a/1x1 -> inception_5a/1x1
I0509 14:27:18.357821 14869 net.cpp:122] Setting up inception_5a/1x1
I0509 14:27:18.357831 14869 net.cpp:129] Top shape: 50 256 7 7 (627200)
I0509 14:27:18.357834 14869 net.cpp:137] Memory required for data: 2694453608
I0509 14:27:18.357841 14869 layer_factory.hpp:77] Creating layer inception_5a/relu_1x1
I0509 14:27:18.357847 14869 net.cpp:84] Creating Layer inception_5a/relu_1x1
I0509 14:27:18.357851 14869 net.cpp:406] inception_5a/relu_1x1 <- inception_5a/1x1
I0509 14:27:18.357856 14869 net.cpp:367] inception_5a/relu_1x1 -> inception_5a/1x1 (in-place)
I0509 14:27:18.358425 14869 net.cpp:122] Setting up inception_5a/relu_1x1
I0509 14:27:18.358434 14869 net.cpp:129] Top shape: 50 256 7 7 (627200)
I0509 14:27:18.358438 14869 net.cpp:137] Memory required for data: 2696962408
I0509 14:27:18.358440 14869 layer_factory.hpp:77] Creating layer inception_5a/3x3_reduce
I0509 14:27:18.358449 14869 net.cpp:84] Creating Layer inception_5a/3x3_reduce
I0509 14:27:18.358453 14869 net.cpp:406] inception_5a/3x3_reduce <- pool4/3x3_s2_pool4/3x3_s2_0_split_1
I0509 14:27:18.358460 14869 net.cpp:380] inception_5a/3x3_reduce -> inception_5a/3x3_reduce
I0509 14:27:18.363420 14869 net.cpp:122] Setting up inception_5a/3x3_reduce
I0509 14:27:18.363433 14869 net.cpp:129] Top shape: 50 160 7 7 (392000)
I0509 14:27:18.363436 14869 net.cpp:137] Memory required for data: 2698530408
I0509 14:27:18.363443 14869 layer_factory.hpp:77] Creating layer inception_5a/relu_3x3_reduce
I0509 14:27:18.363451 14869 net.cpp:84] Creating Layer inception_5a/relu_3x3_reduce
I0509 14:27:18.363454 14869 net.cpp:406] inception_5a/relu_3x3_reduce <- inception_5a/3x3_reduce
I0509 14:27:18.363461 14869 net.cpp:367] inception_5a/relu_3x3_reduce -> inception_5a/3x3_reduce (in-place)
I0509 14:27:18.363840 14869 net.cpp:122] Setting up inception_5a/relu_3x3_reduce
I0509 14:27:18.363849 14869 net.cpp:129] Top shape: 50 160 7 7 (392000)
I0509 14:27:18.363852 14869 net.cpp:137] Memory required for data: 2700098408
I0509 14:27:18.363855 14869 layer_factory.hpp:77] Creating layer inception_5a/3x3
I0509 14:27:18.363869 14869 net.cpp:84] Creating Layer inception_5a/3x3
I0509 14:27:18.363873 14869 net.cpp:406] inception_5a/3x3 <- inception_5a/3x3_reduce
I0509 14:27:18.363878 14869 net.cpp:380] inception_5a/3x3 -> inception_5a/3x3
I0509 14:27:18.369196 14869 net.cpp:122] Setting up inception_5a/3x3
I0509 14:27:18.369207 14869 net.cpp:129] Top shape: 50 320 7 7 (784000)
I0509 14:27:18.369210 14869 net.cpp:137] Memory required for data: 2703234408
I0509 14:27:18.369216 14869 layer_factory.hpp:77] Creating layer inception_5a/relu_3x3
I0509 14:27:18.369222 14869 net.cpp:84] Creating Layer inception_5a/relu_3x3
I0509 14:27:18.369226 14869 net.cpp:406] inception_5a/relu_3x3 <- inception_5a/3x3
I0509 14:27:18.369233 14869 net.cpp:367] inception_5a/relu_3x3 -> inception_5a/3x3 (in-place)
I0509 14:27:18.369789 14869 net.cpp:122] Setting up inception_5a/relu_3x3
I0509 14:27:18.369802 14869 net.cpp:129] Top shape: 50 320 7 7 (784000)
I0509 14:27:18.369805 14869 net.cpp:137] Memory required for data: 2706370408
I0509 14:27:18.369809 14869 layer_factory.hpp:77] Creating layer inception_5a/5x5_reduce
I0509 14:27:18.369818 14869 net.cpp:84] Creating Layer inception_5a/5x5_reduce
I0509 14:27:18.369822 14869 net.cpp:406] inception_5a/5x5_reduce <- pool4/3x3_s2_pool4/3x3_s2_0_split_2
I0509 14:27:18.369832 14869 net.cpp:380] inception_5a/5x5_reduce -> inception_5a/5x5_reduce
I0509 14:27:18.373425 14869 net.cpp:122] Setting up inception_5a/5x5_reduce
I0509 14:27:18.373437 14869 net.cpp:129] Top shape: 50 32 7 7 (78400)
I0509 14:27:18.373440 14869 net.cpp:137] Memory required for data: 2706684008
I0509 14:27:18.373446 14869 layer_factory.hpp:77] Creating layer inception_5a/relu_5x5_reduce
I0509 14:27:18.373454 14869 net.cpp:84] Creating Layer inception_5a/relu_5x5_reduce
I0509 14:27:18.373459 14869 net.cpp:406] inception_5a/relu_5x5_reduce <- inception_5a/5x5_reduce
I0509 14:27:18.373464 14869 net.cpp:367] inception_5a/relu_5x5_reduce -> inception_5a/5x5_reduce (in-place)
I0509 14:27:18.374045 14869 net.cpp:122] Setting up inception_5a/relu_5x5_reduce
I0509 14:27:18.374055 14869 net.cpp:129] Top shape: 50 32 7 7 (78400)
I0509 14:27:18.374058 14869 net.cpp:137] Memory required for data: 2706997608
I0509 14:27:18.374061 14869 layer_factory.hpp:77] Creating layer inception_5a/5x5
I0509 14:27:18.374070 14869 net.cpp:84] Creating Layer inception_5a/5x5
I0509 14:27:18.374074 14869 net.cpp:406] inception_5a/5x5 <- inception_5a/5x5_reduce
I0509 14:27:18.374083 14869 net.cpp:380] inception_5a/5x5 -> inception_5a/5x5
I0509 14:27:18.376559 14869 net.cpp:122] Setting up inception_5a/5x5
I0509 14:27:18.376569 14869 net.cpp:129] Top shape: 50 128 7 7 (313600)
I0509 14:27:18.376572 14869 net.cpp:137] Memory required for data: 2708252008
I0509 14:27:18.376579 14869 layer_factory.hpp:77] Creating layer inception_5a/relu_5x5
I0509 14:27:18.376585 14869 net.cpp:84] Creating Layer inception_5a/relu_5x5
I0509 14:27:18.376588 14869 net.cpp:406] inception_5a/relu_5x5 <- inception_5a/5x5
I0509 14:27:18.376595 14869 net.cpp:367] inception_5a/relu_5x5 -> inception_5a/5x5 (in-place)
I0509 14:27:18.377166 14869 net.cpp:122] Setting up inception_5a/relu_5x5
I0509 14:27:18.377177 14869 net.cpp:129] Top shape: 50 128 7 7 (313600)
I0509 14:27:18.377179 14869 net.cpp:137] Memory required for data: 2709506408
I0509 14:27:18.377182 14869 layer_factory.hpp:77] Creating layer inception_5a/pool
I0509 14:27:18.377193 14869 net.cpp:84] Creating Layer inception_5a/pool
I0509 14:27:18.377197 14869 net.cpp:406] inception_5a/pool <- pool4/3x3_s2_pool4/3x3_s2_0_split_3
I0509 14:27:18.377205 14869 net.cpp:380] inception_5a/pool -> inception_5a/pool
I0509 14:27:18.377245 14869 net.cpp:122] Setting up inception_5a/pool
I0509 14:27:18.377250 14869 net.cpp:129] Top shape: 50 832 7 7 (2038400)
I0509 14:27:18.377254 14869 net.cpp:137] Memory required for data: 2717660008
I0509 14:27:18.377256 14869 layer_factory.hpp:77] Creating layer inception_5a/pool_proj
I0509 14:27:18.377264 14869 net.cpp:84] Creating Layer inception_5a/pool_proj
I0509 14:27:18.377269 14869 net.cpp:406] inception_5a/pool_proj <- inception_5a/pool
I0509 14:27:18.377274 14869 net.cpp:380] inception_5a/pool_proj -> inception_5a/pool_proj
I0509 14:27:18.379948 14869 net.cpp:122] Setting up inception_5a/pool_proj
I0509 14:27:18.379959 14869 net.cpp:129] Top shape: 50 128 7 7 (313600)
I0509 14:27:18.379962 14869 net.cpp:137] Memory required for data: 2718914408
I0509 14:27:18.379968 14869 layer_factory.hpp:77] Creating layer inception_5a/relu_pool_proj
I0509 14:27:18.379974 14869 net.cpp:84] Creating Layer inception_5a/relu_pool_proj
I0509 14:27:18.379978 14869 net.cpp:406] inception_5a/relu_pool_proj <- inception_5a/pool_proj
I0509 14:27:18.379983 14869 net.cpp:367] inception_5a/relu_pool_proj -> inception_5a/pool_proj (in-place)
I0509 14:27:18.380563 14869 net.cpp:122] Setting up inception_5a/relu_pool_proj
I0509 14:27:18.380573 14869 net.cpp:129] Top shape: 50 128 7 7 (313600)
I0509 14:27:18.380575 14869 net.cpp:137] Memory required for data: 2720168808
I0509 14:27:18.380578 14869 layer_factory.hpp:77] Creating layer inception_5a/output
I0509 14:27:18.380585 14869 net.cpp:84] Creating Layer inception_5a/output
I0509 14:27:18.380589 14869 net.cpp:406] inception_5a/output <- inception_5a/1x1
I0509 14:27:18.380594 14869 net.cpp:406] inception_5a/output <- inception_5a/3x3
I0509 14:27:18.380597 14869 net.cpp:406] inception_5a/output <- inception_5a/5x5
I0509 14:27:18.380601 14869 net.cpp:406] inception_5a/output <- inception_5a/pool_proj
I0509 14:27:18.380605 14869 net.cpp:380] inception_5a/output -> inception_5a/output
I0509 14:27:18.380635 14869 net.cpp:122] Setting up inception_5a/output
I0509 14:27:18.380640 14869 net.cpp:129] Top shape: 50 832 7 7 (2038400)
I0509 14:27:18.380642 14869 net.cpp:137] Memory required for data: 2728322408
I0509 14:27:18.380645 14869 layer_factory.hpp:77] Creating layer inception_5a/output_inception_5a/output_0_split
I0509 14:27:18.380650 14869 net.cpp:84] Creating Layer inception_5a/output_inception_5a/output_0_split
I0509 14:27:18.380653 14869 net.cpp:406] inception_5a/output_inception_5a/output_0_split <- inception_5a/output
I0509 14:27:18.380661 14869 net.cpp:380] inception_5a/output_inception_5a/output_0_split -> inception_5a/output_inception_5a/output_0_split_0
I0509 14:27:18.380666 14869 net.cpp:380] inception_5a/output_inception_5a/output_0_split -> inception_5a/output_inception_5a/output_0_split_1
I0509 14:27:18.380674 14869 net.cpp:380] inception_5a/output_inception_5a/output_0_split -> inception_5a/output_inception_5a/output_0_split_2
I0509 14:27:18.380681 14869 net.cpp:380] inception_5a/output_inception_5a/output_0_split -> inception_5a/output_inception_5a/output_0_split_3
I0509 14:27:18.380728 14869 net.cpp:122] Setting up inception_5a/output_inception_5a/output_0_split
I0509 14:27:18.380733 14869 net.cpp:129] Top shape: 50 832 7 7 (2038400)
I0509 14:27:18.380736 14869 net.cpp:129] Top shape: 50 832 7 7 (2038400)
I0509 14:27:18.380739 14869 net.cpp:129] Top shape: 50 832 7 7 (2038400)
I0509 14:27:18.380743 14869 net.cpp:129] Top shape: 50 832 7 7 (2038400)
I0509 14:27:18.380745 14869 net.cpp:137] Memory required for data: 2760936808
I0509 14:27:18.380758 14869 layer_factory.hpp:77] Creating layer inception_5b/1x1
I0509 14:27:18.380766 14869 net.cpp:84] Creating Layer inception_5b/1x1
I0509 14:27:18.380770 14869 net.cpp:406] inception_5b/1x1 <- inception_5a/output_inception_5a/output_0_split_0
I0509 14:27:18.380776 14869 net.cpp:380] inception_5b/1x1 -> inception_5b/1x1
I0509 14:27:18.386577 14869 net.cpp:122] Setting up inception_5b/1x1
I0509 14:27:18.386592 14869 net.cpp:129] Top shape: 50 384 7 7 (940800)
I0509 14:27:18.386595 14869 net.cpp:137] Memory required for data: 2764700008
I0509 14:27:18.386602 14869 layer_factory.hpp:77] Creating layer inception_5b/relu_1x1
I0509 14:27:18.386610 14869 net.cpp:84] Creating Layer inception_5b/relu_1x1
I0509 14:27:18.386615 14869 net.cpp:406] inception_5b/relu_1x1 <- inception_5b/1x1
I0509 14:27:18.386622 14869 net.cpp:367] inception_5b/relu_1x1 -> inception_5b/1x1 (in-place)
I0509 14:27:18.387012 14869 net.cpp:122] Setting up inception_5b/relu_1x1
I0509 14:27:18.387022 14869 net.cpp:129] Top shape: 50 384 7 7 (940800)
I0509 14:27:18.387023 14869 net.cpp:137] Memory required for data: 2768463208
I0509 14:27:18.387027 14869 layer_factory.hpp:77] Creating layer inception_5b/3x3_reduce
I0509 14:27:18.387037 14869 net.cpp:84] Creating Layer inception_5b/3x3_reduce
I0509 14:27:18.387042 14869 net.cpp:406] inception_5b/3x3_reduce <- inception_5a/output_inception_5a/output_0_split_1
I0509 14:27:18.387049 14869 net.cpp:380] inception_5b/3x3_reduce -> inception_5b/3x3_reduce
I0509 14:27:18.389986 14869 net.cpp:122] Setting up inception_5b/3x3_reduce
I0509 14:27:18.389997 14869 net.cpp:129] Top shape: 50 192 7 7 (470400)
I0509 14:27:18.389999 14869 net.cpp:137] Memory required for data: 2770344808
I0509 14:27:18.390005 14869 layer_factory.hpp:77] Creating layer inception_5b/relu_3x3_reduce
I0509 14:27:18.390013 14869 net.cpp:84] Creating Layer inception_5b/relu_3x3_reduce
I0509 14:27:18.390017 14869 net.cpp:406] inception_5b/relu_3x3_reduce <- inception_5b/3x3_reduce
I0509 14:27:18.390022 14869 net.cpp:367] inception_5b/relu_3x3_reduce -> inception_5b/3x3_reduce (in-place)
I0509 14:27:18.390403 14869 net.cpp:122] Setting up inception_5b/relu_3x3_reduce
I0509 14:27:18.390411 14869 net.cpp:129] Top shape: 50 192 7 7 (470400)
I0509 14:27:18.390414 14869 net.cpp:137] Memory required for data: 2772226408
I0509 14:27:18.390417 14869 layer_factory.hpp:77] Creating layer inception_5b/3x3
I0509 14:27:18.390430 14869 net.cpp:84] Creating Layer inception_5b/3x3
I0509 14:27:18.390434 14869 net.cpp:406] inception_5b/3x3 <- inception_5b/3x3_reduce
I0509 14:27:18.390439 14869 net.cpp:380] inception_5b/3x3 -> inception_5b/3x3
I0509 14:27:18.398332 14869 net.cpp:122] Setting up inception_5b/3x3
I0509 14:27:18.398350 14869 net.cpp:129] Top shape: 50 384 7 7 (940800)
I0509 14:27:18.398352 14869 net.cpp:137] Memory required for data: 2775989608
I0509 14:27:18.398360 14869 layer_factory.hpp:77] Creating layer inception_5b/relu_3x3
I0509 14:27:18.398366 14869 net.cpp:84] Creating Layer inception_5b/relu_3x3
I0509 14:27:18.398371 14869 net.cpp:406] inception_5b/relu_3x3 <- inception_5b/3x3
I0509 14:27:18.398380 14869 net.cpp:367] inception_5b/relu_3x3 -> inception_5b/3x3 (in-place)
I0509 14:27:18.398942 14869 net.cpp:122] Setting up inception_5b/relu_3x3
I0509 14:27:18.398955 14869 net.cpp:129] Top shape: 50 384 7 7 (940800)
I0509 14:27:18.398958 14869 net.cpp:137] Memory required for data: 2779752808
I0509 14:27:18.398962 14869 layer_factory.hpp:77] Creating layer inception_5b/5x5_reduce
I0509 14:27:18.398972 14869 net.cpp:84] Creating Layer inception_5b/5x5_reduce
I0509 14:27:18.398977 14869 net.cpp:406] inception_5b/5x5_reduce <- inception_5a/output_inception_5a/output_0_split_2
I0509 14:27:18.398984 14869 net.cpp:380] inception_5b/5x5_reduce -> inception_5b/5x5_reduce
I0509 14:27:18.401211 14869 net.cpp:122] Setting up inception_5b/5x5_reduce
I0509 14:27:18.401221 14869 net.cpp:129] Top shape: 50 48 7 7 (117600)
I0509 14:27:18.401223 14869 net.cpp:137] Memory required for data: 2780223208
I0509 14:27:18.401229 14869 layer_factory.hpp:77] Creating layer inception_5b/relu_5x5_reduce
I0509 14:27:18.401252 14869 net.cpp:84] Creating Layer inception_5b/relu_5x5_reduce
I0509 14:27:18.401257 14869 net.cpp:406] inception_5b/relu_5x5_reduce <- inception_5b/5x5_reduce
I0509 14:27:18.401262 14869 net.cpp:367] inception_5b/relu_5x5_reduce -> inception_5b/5x5_reduce (in-place)
I0509 14:27:18.401820 14869 net.cpp:122] Setting up inception_5b/relu_5x5_reduce
I0509 14:27:18.401830 14869 net.cpp:129] Top shape: 50 48 7 7 (117600)
I0509 14:27:18.401834 14869 net.cpp:137] Memory required for data: 2780693608
I0509 14:27:18.401836 14869 layer_factory.hpp:77] Creating layer inception_5b/5x5
I0509 14:27:18.401849 14869 net.cpp:84] Creating Layer inception_5b/5x5
I0509 14:27:18.401854 14869 net.cpp:406] inception_5b/5x5 <- inception_5b/5x5_reduce
I0509 14:27:18.401859 14869 net.cpp:380] inception_5b/5x5 -> inception_5b/5x5
I0509 14:27:18.404599 14869 net.cpp:122] Setting up inception_5b/5x5
I0509 14:27:18.404609 14869 net.cpp:129] Top shape: 50 128 7 7 (313600)
I0509 14:27:18.404613 14869 net.cpp:137] Memory required for data: 2781948008
I0509 14:27:18.404618 14869 layer_factory.hpp:77] Creating layer inception_5b/relu_5x5
I0509 14:27:18.404624 14869 net.cpp:84] Creating Layer inception_5b/relu_5x5
I0509 14:27:18.404628 14869 net.cpp:406] inception_5b/relu_5x5 <- inception_5b/5x5
I0509 14:27:18.404633 14869 net.cpp:367] inception_5b/relu_5x5 -> inception_5b/5x5 (in-place)
I0509 14:27:18.405195 14869 net.cpp:122] Setting up inception_5b/relu_5x5
I0509 14:27:18.405205 14869 net.cpp:129] Top shape: 50 128 7 7 (313600)
I0509 14:27:18.405206 14869 net.cpp:137] Memory required for data: 2783202408
I0509 14:27:18.405210 14869 layer_factory.hpp:77] Creating layer inception_5b/pool
I0509 14:27:18.405220 14869 net.cpp:84] Creating Layer inception_5b/pool
I0509 14:27:18.405225 14869 net.cpp:406] inception_5b/pool <- inception_5a/output_inception_5a/output_0_split_3
I0509 14:27:18.405230 14869 net.cpp:380] inception_5b/pool -> inception_5b/pool
I0509 14:27:18.405272 14869 net.cpp:122] Setting up inception_5b/pool
I0509 14:27:18.405277 14869 net.cpp:129] Top shape: 50 832 7 7 (2038400)
I0509 14:27:18.405279 14869 net.cpp:137] Memory required for data: 2791356008
I0509 14:27:18.405282 14869 layer_factory.hpp:77] Creating layer inception_5b/pool_proj
I0509 14:27:18.405290 14869 net.cpp:84] Creating Layer inception_5b/pool_proj
I0509 14:27:18.405293 14869 net.cpp:406] inception_5b/pool_proj <- inception_5b/pool
I0509 14:27:18.405301 14869 net.cpp:380] inception_5b/pool_proj -> inception_5b/pool_proj
I0509 14:27:18.410162 14869 net.cpp:122] Setting up inception_5b/pool_proj
I0509 14:27:18.410176 14869 net.cpp:129] Top shape: 50 128 7 7 (313600)
I0509 14:27:18.410179 14869 net.cpp:137] Memory required for data: 2792610408
I0509 14:27:18.410187 14869 layer_factory.hpp:77] Creating layer inception_5b/relu_pool_proj
I0509 14:27:18.410194 14869 net.cpp:84] Creating Layer inception_5b/relu_pool_proj
I0509 14:27:18.410198 14869 net.cpp:406] inception_5b/relu_pool_proj <- inception_5b/pool_proj
I0509 14:27:18.410207 14869 net.cpp:367] inception_5b/relu_pool_proj -> inception_5b/pool_proj (in-place)
I0509 14:27:18.410780 14869 net.cpp:122] Setting up inception_5b/relu_pool_proj
I0509 14:27:18.410790 14869 net.cpp:129] Top shape: 50 128 7 7 (313600)
I0509 14:27:18.410794 14869 net.cpp:137] Memory required for data: 2793864808
I0509 14:27:18.410796 14869 layer_factory.hpp:77] Creating layer inception_5b/output
I0509 14:27:18.410802 14869 net.cpp:84] Creating Layer inception_5b/output
I0509 14:27:18.410805 14869 net.cpp:406] inception_5b/output <- inception_5b/1x1
I0509 14:27:18.410810 14869 net.cpp:406] inception_5b/output <- inception_5b/3x3
I0509 14:27:18.410815 14869 net.cpp:406] inception_5b/output <- inception_5b/5x5
I0509 14:27:18.410817 14869 net.cpp:406] inception_5b/output <- inception_5b/pool_proj
I0509 14:27:18.410823 14869 net.cpp:380] inception_5b/output -> inception_5b/output
I0509 14:27:18.410852 14869 net.cpp:122] Setting up inception_5b/output
I0509 14:27:18.410857 14869 net.cpp:129] Top shape: 50 1024 7 7 (2508800)
I0509 14:27:18.410874 14869 net.cpp:137] Memory required for data: 2803900008
I0509 14:27:18.410877 14869 layer_factory.hpp:77] Creating layer pool5/7x7_s1
I0509 14:27:18.410882 14869 net.cpp:84] Creating Layer pool5/7x7_s1
I0509 14:27:18.410885 14869 net.cpp:406] pool5/7x7_s1 <- inception_5b/output
I0509 14:27:18.410892 14869 net.cpp:380] pool5/7x7_s1 -> pool5/7x7_s1
I0509 14:27:18.411469 14869 net.cpp:122] Setting up pool5/7x7_s1
I0509 14:27:18.411478 14869 net.cpp:129] Top shape: 50 1024 1 1 (51200)
I0509 14:27:18.411481 14869 net.cpp:137] Memory required for data: 2804104808
I0509 14:27:18.411484 14869 layer_factory.hpp:77] Creating layer pool5/drop_7x7_s1
I0509 14:27:18.411489 14869 net.cpp:84] Creating Layer pool5/drop_7x7_s1
I0509 14:27:18.411494 14869 net.cpp:406] pool5/drop_7x7_s1 <- pool5/7x7_s1
I0509 14:27:18.411499 14869 net.cpp:367] pool5/drop_7x7_s1 -> pool5/7x7_s1 (in-place)
I0509 14:27:18.411520 14869 net.cpp:122] Setting up pool5/drop_7x7_s1
I0509 14:27:18.411525 14869 net.cpp:129] Top shape: 50 1024 1 1 (51200)
I0509 14:27:18.411527 14869 net.cpp:137] Memory required for data: 2804309608
I0509 14:27:18.411530 14869 layer_factory.hpp:77] Creating layer loss3/classifier
I0509 14:27:18.411537 14869 net.cpp:84] Creating Layer loss3/classifier
I0509 14:27:18.411540 14869 net.cpp:406] loss3/classifier <- pool5/7x7_s1
I0509 14:27:18.411547 14869 net.cpp:380] loss3/classifier -> loss3/classifier
I0509 14:27:18.412571 14869 net.cpp:122] Setting up loss3/classifier
I0509 14:27:18.412577 14869 net.cpp:129] Top shape: 50 196 (9800)
I0509 14:27:18.412580 14869 net.cpp:137] Memory required for data: 2804348808
I0509 14:27:18.412585 14869 layer_factory.hpp:77] Creating layer loss3/loss
I0509 14:27:18.412593 14869 net.cpp:84] Creating Layer loss3/loss
I0509 14:27:18.412596 14869 net.cpp:406] loss3/loss <- loss3/classifier
I0509 14:27:18.412600 14869 net.cpp:406] loss3/loss <- label_train-data_1_split_2
I0509 14:27:18.412606 14869 net.cpp:380] loss3/loss -> loss
…
I0509 14:27:18.415623 14869 net.cpp:294] The NetState phase (1) differed from the phase (0) specified by a rule in layer train-data
I0509 14:27:18.416483 14869 net.cpp:51] Initializing net from parameters:
state {
phase: TEST
}
layer {
name: "val-data"
type: "Data"
top: "data"
top: "label"
include {
phase: TEST
}
transform_param {
mirror: false
crop_size: 224
mean_file: "/mnt/bigdisk/AMBDIG8/digits/jobs/20200508-231203-8394/mean.binaryproto"
}
data_param {
source: "/mnt/bigdisk/AMBDIG8/digits/jobs/20200508-231203-8394/val_db"
batch_size: 50
backend: LMDB
}
}
layer {
name: "conv1/7x7_s2"
type: "Convolution"
bottom: "data"
top: "conv1/7x7_s2"
param {
lr_mult: 1
decay_mult: 1
}
param {
lr_mult: 2
decay_mult: 0
}
convolution_param {
num_output: 64
pad: 3
kernel_size: 7
stride: 2
weight_filler {
type: "xavier"
std: 0.1
}
bias_filler {
type: "constant"
value: 0.2
}
}
}
layer {
name: "conv1/relu_7x7"
type: "ReLU"
bottom: "conv1/7x7_s2"
top: "conv1/7x7_s2"
}
layer {
name: "pool1/3x3_s2"
type: "Pooling"
bottom: "conv1/7x7_s2"
top: "pool1/3x3_s2"
pooling_param {
pool: MAX
kernel_size: 3
stride: 2
}
}
layer {
name: "pool1/norm1"
type: "LRN"
bottom: "pool1/3x3_s2"
top: "pool1/norm1"
lrn_param {
local_size: 5
alpha: 0.0001
beta: 0.75
}
}
layer {
name: "conv2/3x3_reduce"
type: "Convolution"
bottom: "pool1/norm1"
top: "conv2/3x3_reduce"
param {
lr_mult: 1
decay_mult: 1
}
param {
lr_mult: 2
decay_mult: 0
}
convolution_param {
num_output: 64
kernel_size: 1
weight_filler {
type: "xavier"
std: 0.1
}
bias_filler {
type: "constant"
value: 0.2
}
}
}
layer {
name: "conv2/relu_3x3_reduce"
type: "ReLU"
bottom: "conv2/3x3_reduce"
top: "conv2/3x3_reduce"
}
layer {
name: "conv2/3x3"
type: "Convolution"
bottom: "conv2/3x3_reduce"
top: "conv2/3x3"
param {
lr_mult: 1
decay_mult: 1
}
param {
lr_mult: 2
decay_mult: 0
}
convolution_param {
num_output: 192
pad: 1
kernel_size: 3
weight_filler {
type: "xavier"
std: 0.03
}
bias_filler {
type: "constant"
value: 0.2
}
}
}
layer {
name: "conv2/relu_3x3"
type: "ReLU"
bottom: "conv2/3x3"
top: "conv2/3x3"
}
layer {
name: "conv2/norm2"
type: "LRN"
bottom: "conv2/3x3"
top: "conv2/norm2"
lrn_param {
local_size: 5
alpha: 0.0001
beta: 0.75
}
}
layer {
name: "pool2/3x3_s2"
type: "Pooling"
bottom: "conv2/norm2"
top: "pool2/3x3_s2"
pooling_param {
pool: MAX
kernel_size: 3
stride: 2
}
}
layer {
name: "inception_3a/1x1"
type: "Convolution"
bottom: "pool2/3x3_s2"
top: "inception_3a/1x1"
param {
lr_mult: 1
decay_mult: 1
}
param {
lr_mult: 2
decay_mult: 0
}
convolution_param {
num_output: 64
kernel_size: 1
weight_filler {
type: "xavier"
std: 0.03
}
bias_filler {
type: "constant"
value: 0.2
}
}
}
layer {
name: "inception_3a/relu_1x1"
type: "ReLU"
bottom: "inception_3a/1x1"
top: "inception_3a/1x1"
}
layer {
name: "inception_3a/3x3_reduce"
type: "Convolution"
bottom: "pool2/3x3_s2"
top: "inception_3a/3x3_reduce"
param {
lr_mult: 1
decay_mult: 1
}
param {
lr_mult: 2
decay_mult: 0
}
convolution_param {
num_output: 96
kernel_size: 1
weight_filler {
type: "xavier"
std: 0.09
}
bias_filler {
type: "constant"
value: 0.2
}
}
}
layer {
name: "inception_3a/relu_3x3_reduce"
type: "ReLU"
bottom: "inception_3a/3x3_reduce"
top: "inception_3a/3x3_reduce"
}
layer {
name: "inception_3a/3x3"
type: "Convolution"
bottom: "inception_3a/3x3_reduce"
top: "inception_3a/3x3"
param {
lr_mult: 1
decay_mult: 1
}
param {
lr_mult: 2
decay_mult: 0
}
convolution_param {
num_output: 128
pad: 1
kernel_size: 3
weight_filler {
type: "xavier"
std: 0.03
}
bias_filler {
type: "constant"
value: 0.2
}
}
}
layer {
name: "inception_3a/relu_3x3"
type: "ReLU"
bottom: "inception_3a/3x3"
top: "inception_3a/3x3"
}
layer {
name: "inception_3a/5x5_reduce"
type: "Convolution"
bottom: "pool2/3x3_s2"
top: "inception_3a/5x5_reduce"
param {
lr_mult: 1
decay_mult: 1
}
param {
lr_mult: 2
decay_mult: 0
}
convolution_param {
num_output: 16
kernel_size: 1
weight_filler {
type: "xavier"
std: 0.2
}
bias_filler {
type: "constant"
value: 0.2
}
}
}
layer {
name: "inception_3a/relu_5x5_reduce"
type: "ReLU"
bottom: "inception_3a/5x5_reduce"
top: "inception_3a/5x5_reduce"
}
layer {
name: "inception_3a/5x5"
type: "Convolution"
bottom: "inception_3a/5x5_reduce"
top: "inception_3a/5x5"
param {
lr_mult: 1
decay_mult: 1
}
param {
lr_mult: 2
decay_mult: 0
}
convolution_param {
num_output: 32
pad: 2
kernel_size: 5
weight_filler {
type: "xavier"
std: 0.03
}
bias_filler {
type: "constant"
value: 0.2
}
}
}
layer {
name: "inception_3a/relu_5x5"
type: "ReLU"
bottom: "inception_3a/5x5"
top: "inception_3a/5x5"
}
layer {
name: "inception_3a/pool"
type: "Pooling"
bottom: "pool2/3x3_s2"
top: "inception_3a/pool"
pooling_param {
pool: MAX
kernel_size: 3
stride: 1
pad: 1
}
}
layer {
name: "inception_3a/pool_proj"
type: "Convolution"
bottom: "inception_3a/pool"
top: "inception_3a/pool_proj"
param {
lr_mult: 1
decay_mult: 1
}
param {
lr_mult: 2
decay_mult: 0
}
convolution_param {
num_output: 32
kernel_size: 1
weight_filler {
type: "xavier"
std: 0.1
}
bias_filler {
type: "constant"
value: 0.2
}
}
}
layer {
name: "inception_3a/relu_pool_proj"
type: "ReLU"
bottom: "inception_3a/pool_proj"
top: "inception_3a/pool_proj"
}
layer {
name: "inception_3a/output"
type: "Concat"
bottom: "inception_3a/1x1"
bottom: "inception_3a/3x3"
bottom: "inception_3a/5x5"
bottom: "inception_3a/pool_proj"
top: "inception_3a/output"
}
layer {
name: "inception_3b/1x1"
type: "Convolution"
bottom: "inception_3a/output"
top: "inception_3b/1x1"
param {
lr_mult: 1
decay_mult: 1
}
param {
lr_mult: 2
decay_mult: 0
}
convolution_param {
num_output: 128
kernel_size: 1
weight_filler {
type: "xavier"
std: 0.03
}
bias_filler {
type: "constant"
value: 0.2
}
}
}
layer {
name: "inception_3b/relu_1x1"
type: "ReLU"
bottom: "inception_3b/1x1"
top: "inception_3b/1x1"
}
layer {
name: "inception_3b/3x3_reduce"
type: "Convolution"
bottom: "inception_3a/output"
top: "inception_3b/3x3_reduce"
param {
lr_mult: 1
decay_mult: 1
}
param {
lr_mult: 2
decay_mult: 0
}
convolution_param {
num_output: 128
kernel_size: 1
weight_filler {
type: "xavier"
std: 0.09
}
bias_filler {
type: "constant"
value: 0.2
}
}
}
layer {
name: "inception_3b/relu_3x3_reduce"
type: "ReLU"
bottom: "inception_3b/3x3_reduce"
top: "inception_3b/3x3_reduce"
}
layer {
name: "inception_3b/3x3"
type: "Convolution"
bottom: "inception_3b/3x3_reduce"
top: "inception_3b/3x3"
param {
lr_mult: 1
decay_mult: 1
}
param {
lr_mult: 2
decay_mult: 0
}
convolution_param {
num_output: 192
pad: 1
kernel_size: 3
weight_filler {
type: "xavier"
std: 0.03
}
bias_filler {
type: "constant"
value: 0.2
}
}
}
layer {
name: "inception_3b/relu_3x3"
type: "ReLU"
bottom: "inception_3b/3x3"
top: "inception_3b/3x3"
}
layer {
name: "inception_3b/5x5_reduce"
type: "Convolution"
bottom: "inception_3a/output"
top: "inception_3b/5x5_reduce"
param {
lr_mult: 1
decay_mult: 1
}
param {
lr_mult: 2
decay_mult: 0
}
convolution_param {
num_output: 32
kernel_size: 1
weight_filler {
type: "xavier"
std: 0.2
}
bias_filler {
type: "constant"
value: 0.2
}
}
}
layer {
name: "inception_3b/relu_5x5_reduce"
type: "ReLU"
bottom: "inception_3b/5x5_reduce"
top: "inception_3b/5x5_reduce"
}
layer {
name: "inception_3b/5x5"
type: "Convolution"
bottom: "inception_3b/5x5_reduce"
top: "inception_3b/5x5"
param {
lr_mult: 1
decay_mult: 1
}
param {
lr_mult: 2
decay_mult: 0
}
convolution_param {
num_output: 96
pad: 2
kernel_size: 5
weight_filler {
type: "xavier"
std: 0.03
}
bias_filler {
type: "constant"
value: 0.2
}
}
}
layer {
name: "inception_3b/relu_5x5"
type: "ReLU"
bottom: "inception_3b/5x5"
top: "inception_3b/5x5"
}
layer {
name: "inception_3b/pool"
type: "Pooling"
bottom: "inception_3a/output"
top: "inception_3b/pool"
pooling_param {
pool: MAX
kernel_size: 3
stride: 1
pad: 1
}
}
layer {
name: "inception_3b/pool_proj"
type: "Convolution"
bottom: "inception_3b/pool"
top: "inception_3b/pool_proj"
param {
lr_mult: 1
decay_mult: 1
}
param {
lr_mult: 2
decay_mult: 0
}
convolution_param {
num_output: 64
kernel_size: 1
weight_filler {
type: "xavier"
std: 0.1
}
bias_filler {
type: "constant"
value: 0.2
}
}
}
layer {
name: "inception_3b/relu_pool_proj"
type: "ReLU"
bottom: "inception_3b/pool_proj"
top: "inception_3b/pool_proj"
}
layer {
name: "inception_3b/output"
type: "Concat"
bottom: "inception_3b/1x1"
bottom: "inception_3b/3x3"
bottom: "inception_3b/5x5"
bottom: "inception_3b/pool_proj"
top: "inception_3b/output"
}
layer {
name: "pool3/3x3_s2"
type: "Pooling"
bottom: "inception_3b/output"
top: "pool3/3x3_s2"
pooling_param {
pool: MAX
kernel_size: 3
stride: 2
}
}
layer {
name: "inception_4a/1x1"
type: "Convolution"
bottom: "pool3/3x3_s2"
top: "inception_4a/1x1"
param {
lr_mult: 1
decay_mult: 1
}
param {
lr_mult: 2
decay_mult: 0
}
convolution_param {
num_output: 192
kernel_size: 1
weight_filler {
type: "xavier"
std: 0.03
}
bias_filler {
type: "constant"
value: 0.2
}
}
}
layer {
name: "inception_4a/relu_1x1"
type: "ReLU"
bottom: "inception_4a/1x1"
top: "inception_4a/1x1"
}
layer {
name: "inception_4a/3x3_reduce"
type: "Convolution"
bottom: "pool3/3x3_s2"
top: "inception_4a/3x3_reduce"
param {
lr_mult: 1
decay_mult: 1
}
param {
lr_mult: 2
decay_mult: 0
}
convolution_param {
num_output: 96
kernel_size: 1
weight_filler {
type: "xavier"
std: 0.09
}
bias_filler {
type: "constant"
value: 0.2
}
}
}
layer {
name: "inception_4a/relu_3x3_reduce"
type: "ReLU"
bottom: "inception_4a/3x3_reduce"
top: "inception_4a/3x3_reduce"
}
layer {
name: "inception_4a/3x3"
type: "Convolution"
bottom: "inception_4a/3x3_reduce"
top: "inception_4a/3x3"
param {
lr_mult: 1
decay_mult: 1
}
param {
lr_mult: 2
decay_mult: 0
}
convolution_param {
num_output: 208
pad: 1
kernel_size: 3
weight_filler {
type: "xavier"
std: 0.03
}
bias_filler {
type: "constant"
value: 0.2
}
}
}
layer {
name: "inception_4a/relu_3x3"
type: "ReLU"
bottom: "inception_4a/3x3"
top: "inception_4a/3x3"
}
layer {
name: "inception_4a/5x5_reduce"
type: "Convolution"
bottom: "pool3/3x3_s2"
top: "inception_4a/5x5_reduce"
param {
lr_mult: 1
decay_mult: 1
}
param {
lr_mult: 2
decay_mult: 0
}
convolution_param {
num_output: 16
kernel_size: 1
weight_filler {
type: "xavier"
std: 0.2
}
bias_filler {
type: "constant"
value: 0.2
}
}
}
layer {
name: "inception_4a/relu_5x5_reduce"
type: "ReLU"
bottom: "inception_4a/5x5_reduce"
top: "inception_4a/5x5_reduce"
}
layer {
name: "inception_4a/5x5"
type: "Convolution"
bottom: "inception_4a/5x5_reduce"
top: "inception_4a/5x5"
param {
lr_mult: 1
decay_mult: 1
}
param {
lr_mult: 2
decay_mult: 0
}
convolution_param {
num_output: 48
pad: 2
kernel_size: 5
weight_filler {
type: "xavier"
std: 0.03
}
bias_filler {
type: "constant"
value: 0.2
}
}
}
layer {
name: "inception_4a/relu_5x5"
type: "ReLU"
bottom: "inception_4a/5x5"
top: "inception_4a/5x5"
}
layer {
name: "inception_4a/pool"
type: "Pooling"
bottom: "pool3/3x3_s2"
top: "inception_4a/pool"
pooling_param {
pool: MAX
kernel_size: 3
stride: 1
pad: 1
}
}
layer {
name: "inception_4a/pool_proj"
type: "Convolution"
bottom: "inception_4a/pool"
top: "inception_4a/pool_proj"
param {
lr_mult: 1
decay_mult: 1
}
param {
lr_mult: 2
decay_mult: 0
}
convolution_param {
num_output: 64
kernel_size: 1
weight_filler {
type: "xavier"
std: 0.1
}
bias_filler {
type: "constant"
value: 0.2
}
}
}
layer {
name: "inception_4a/relu_pool_proj"
type: "ReLU"
bottom: "inception_4a/pool_proj"
top: "inception_4a/pool_proj"
}
layer {
name: "inception_4a/output"
type: "Concat"
bottom: "inception_4a/1x1"
bottom: "inception_4a/3x3"
bottom: "inception_4a/5x5"
bottom: "inception_4a/pool_proj"
top: "inception_4a/output"
}
layer {
name: "loss1/ave_pool"
type: "Pooling"
bottom: "inception_4a/output"
top: "loss1/ave_pool"
pooling_param {
pool: AVE
kernel_size: 5
stride: 3
}
}
layer {
name: "loss1/conv"
type: "Convolution"
bottom: "loss1/ave_pool"
top: "loss1/conv"
param {
lr_mult: 1
decay_mult: 1
}
param {
lr_mult: 2
decay_mult: 0
}
convolution_param {
num_output: 128
kernel_size: 1
weight_filler {
type: "xavier"
std: 0.08
}
bias_filler {
type: "constant"
value: 0.2
}
}
}
layer {
name: "loss1/relu_conv"
type: "ReLU"
bottom: "loss1/conv"
top: "loss1/conv"
}
layer {
name: "loss1/fc"
type: "InnerProduct"
bottom: "loss1/conv"
top: "loss1/fc"
param {
lr_mult: 1
decay_mult: 1
}
param {
lr_mult: 2
decay_mult: 0
}
inner_product_param {
num_output: 1024
weight_filler {
type: "xavier"
std: 0.02
}
bias_filler {
type: "constant"
value: 0.2
}
}
}
layer {
name: "loss1/relu_fc"
type: "ReLU"
bottom: "loss1/fc"
top: "loss1/fc"
}
layer {
name: "loss1/drop_fc"
type: "Dropout"
bottom: "loss1/fc"
top: "loss1/fc"
dropout_param {
dropout_ratio: 0.7
}
}
layer {
name: "loss1/classifier"
type: "InnerProduct"
bottom: "loss1/fc"
top: "loss1/classifier"
param {
lr_mult: 1
decay_mult: 1
}
param {
lr_mult: 2
decay_mult: 0
}
inner_product_param {
num_output: 196
weight_filler {
type: "xavier"
std: 0.0009765625
}
bias_filler {
type: "constant"
value: 0
}
}
}
layer {
name: "loss1/loss"
type: "SoftmaxWithLoss"
bottom: "loss1/classifier"
bottom: "label"
top: "loss1/loss"
loss_weight: 0.3
}
layer {
name: "loss1/top-1"
type: "Accuracy"
bottom: "loss1/classifier"
bottom: "label"
top: "loss1/accuracy"
include {
phase: TEST
}
}
layer {
name: "loss1/top-5"
type: "Accuracy"
bottom: "loss1/classifier"
bottom: "label"
top: "loss1/accuracy-top5"
include {
phase: TEST
}
accuracy_param {
top_k: 5
}
}
layer {
name: "inception_4b/1x1"
type: "Convolution"
bottom: "inception_4a/output"
top: "inception_4b/1x1"
param {
lr_mult: 1
decay_mult: 1
}
param {
lr_mult: 2
decay_mult: 0
}
convolution_param {
num_output: 160
kernel_size: 1
weight_filler {
type: "xavier"
std: 0.03
}
bias_filler {
type: "constant"
value: 0.2
}
}
}
layer {
name: "inception_4b/relu_1x1"
type: "ReLU"
bottom: "inception_4b/1x1"
top: "inception_4b/1x1"
}
layer {
name: "inception_4b/3x3_reduce"
type: "Convolution"
bottom: "inception_4a/output"
top: "inception_4b/3x3_reduce"
param {
lr_mult: 1
decay_mult: 1
}
param {
lr_mult: 2
decay_mult: 0
}
convolution_param {
num_output: 112
kernel_size: 1
weight_filler {
type: "xavier"
std: 0.09
}
bias_filler {
type: "constant"
value: 0.2
}
}
}
layer {
name: "inception_4b/relu_3x3_reduce"
type: "ReLU"
bottom: "inception_4b/3x3_reduce"
top: "inception_4b/3x3_reduce"
}
layer {
name: "inception_4b/3x3"
type: "Convolution"
bottom: "inception_4b/3x3_reduce"
top: "inception_4b/3x3"
param {
lr_mult: 1
decay_mult: 1
}
param {
lr_mult: 2
decay_mult: 0
}
convolution_param {
num_output: 224
pad: 1
kernel_size: 3
weight_filler {
type: "xavier"
std: 0.03
}
bias_filler {
type: "constant"
value: 0.2
}
}
}
layer {
name: "inception_4b/relu_3x3"
type: "ReLU"
bottom: "inception_4b/3x3"
top: "inception_4b/3x3"
}
layer {
name: "inception_4b/5x5_reduce"
type: "Convolution"
bottom: "inception_4a/output"
top: "inception_4b/5x5_reduce"
param {
lr_mult: 1
decay_mult: 1
}
param {
lr_mult: 2
decay_mult: 0
}
convolution_param {
num_output: 24
kernel_size: 1
weight_filler {
type: "xavier"
std: 0.2
}
bias_filler {
type: "constant"
value: 0.2
}
}
}
layer {
name: "inception_4b/relu_5x5_reduce"
type: "ReLU"
bottom: "inception_4b/5x5_reduce"
top: "inception_4b/5x5_reduce"
}
layer {
name: "inception_4b/5x5"
type: "Convolution"
bottom: "inception_4b/5x5_reduce"
top: "inception_4b/5x5"
param {
lr_mult: 1
decay_mult: 1
}
param {
lr_mult: 2
decay_mult: 0
}
convolution_param {
num_output: 64
pad: 2
kernel_size: 5
weight_filler {
type: "xavier"
std: 0.03
}
bias_filler {
type: "constant"
value: 0.2
}
}
}
layer {
name: "inception_4b/relu_5x5"
type: "ReLU"
bottom: "inception_4b/5x5"
top: "inception_4b/5x5"
}
layer {
name: "inception_4b/pool"
type: "Pooling"
bottom: "inception_4a/output"
top: "inception_4b/pool"
pooling_param {
pool: MAX
kernel_size: 3
stride: 1
pad: 1
}
}
layer {
name: "inception_4b/pool_proj"
type: "Convolution"
bottom: "inception_4b/pool"
top: "inception_4b/pool_proj"
param {
lr_mult: 1
decay_mult: 1
}
param {
lr_mult: 2
decay_mult: 0
}
convolution_param {
num_output: 64
kernel_size: 1
weight_filler {
type: "xavier"
std: 0.1
}
bias_filler {
type: "constant"
value: 0.2
}
}
}
layer {
name: "inception_4b/relu_pool_proj"
type: "ReLU"
bottom: "inception_4b/pool_proj"
top: "inception_4b/pool_proj"
}
layer {
name: "inception_4b/output"
type: "Concat"
bottom: "inception_4b/1x1"
bottom: "inception_4b/3x3"
bottom: "inception_4b/5x5"
bottom: "inception_4b/pool_proj"
top: "inception_4b/output"
}
layer {
name: "inception_4c/1x1"
type: "Convolution"
bottom: "inception_4b/output"
top: "inception_4c/1x1"
param {
lr_mult: 1
decay_mult: 1
}
param {
lr_mult: 2
decay_mult: 0
}
convolution_param {
num_output: 128
kernel_size: 1
weight_filler {
type: "xavier"
std: 0.03
}
bias_filler {
type: "constant"
value: 0.2
}
}
}
layer {
name: "inception_4c/relu_1x1"
type: "ReLU"
bottom: "inception_4c/1x1"
top: "inception_4c/1x1"
}
layer {
name: "inception_4c/3x3_reduce"
type: "Convolution"
bottom: "inception_4b/output"
top: "inception_4c/3x3_reduce"
param {
lr_mult: 1
decay_mult: 1
}
param {
lr_mult: 2
decay_mult: 0
}
convolution_param {
num_output: 128
kernel_size: 1
weight_filler {
type: "xavier"
std: 0.09
}
bias_filler {
type: "constant"
value: 0.2
}
}
}
layer {
name: "inception_4c/relu_3x3_reduce"
type: "ReLU"
bottom: "inception_4c/3x3_reduce"
top: "inception_4c/3x3_reduce"
}
layer {
name: "inception_4c/3x3"
type: "Convolution"
bottom: "inception_4c/3x3_reduce"
top: "inception_4c/3x3"
param {
lr_mult: 1
decay_mult: 1
}
param {
lr_mult: 2
decay_mult: 0
}
convolution_param {
num_output: 256
pad: 1
kernel_size: 3
weight_filler {
type: "xavier"
std: 0.03
}
bias_filler {
type: "constant"
value: 0.2
}
}
}
layer {
name: "inception_4c/relu_3x3"
type: "ReLU"
bottom: "inception_4c/3x3"
top: "inception_4c/3x3"
}
layer {
name: "inception_4c/5x5_reduce"
type: "Convolution"
bottom: "inception_4b/output"
top: "inception_4c/5x5_reduce"
param {
lr_mult: 1
decay_mult: 1
}
param {
lr_mult: 2
decay_mult: 0
}
convolution_param {
num_output: 24
kernel_size: 1
weight_filler {
type: "xavier"
std: 0.2
}
bias_filler {
type: "constant"
value: 0.2
}
}
}
layer {
name: "inception_4c/relu_5x5_reduce"
type: "ReLU"
bottom: "inception_4c/5x5_reduce"
top: "inception_4c/5x5_reduce"
}
layer {
name: "inception_4c/5x5"
type: "Convolution"
bottom: "inception_4c/5x5_reduce"
top: "inception_4c/5x5"
param {
lr_mult: 1
decay_mult: 1
}
param {
lr_mult: 2
decay_mult: 0
}
convolution_param {
num_output: 64
pad: 2
kernel_size: 5
weight_filler {
type: "xavier"
std: 0.03
}
bias_filler {
type: "constant"
value: 0.2
}
}
}
layer {
name: "inception_4c/relu_5x5"
type: "ReLU"
bottom: "inception_4c/5x5"
top: "inception_4c/5x5"
}
layer {
name: "inception_4c/pool"
type: "Pooling"
bottom: "inception_4b/output"
top: "inception_4c/pool"
pooling_param {
pool: MAX
kernel_size: 3
stride: 1
pad: 1
}
}
layer {
name: "inception_4c/pool_proj"
type: "Convolution"
bottom: "inception_4c/pool"
top: "inception_4c/pool_proj"
param {
lr_mult: 1
decay_mult: 1
}
param {
lr_mult: 2
decay_mult: 0
}
convolution_param {
num_output: 64
kernel_size: 1
weight_filler {
type: "xavier"
std: 0.1
}
bias_filler {
type: "constant"
value: 0.2
}
}
}
layer {
name: "inception_4c/relu_pool_proj"
type: "ReLU"
bottom: "inception_4c/pool_proj"
top: "inception_4c/pool_proj"
}
layer {
name: "inception_4c/output"
type: "Concat"
bottom: "inception_4c/1x1"
bottom: "inception_4c/3x3"
bottom: "inception_4c/5x5"
bottom: "inception_4c/pool_proj"
top: "inception_4c/output"
}
layer {
name: "inception_4d/1x1"
type: "Convolution"
bottom: "inception_4c/output"
top: "inception_4d/1x1"
param {
lr_mult: 1
decay_mult: 1
}
param {
lr_mult: 2
decay_mult: 0
}
convolution_param {
num_output: 112
kernel_size: 1
weight_filler {
type: "xavier"
std: 0.03
}
bias_filler {
type: "constant"
…
I0509 14:27:18.644459 14869 net.cpp:129] Top shape: 50 64 14 14 (627200)
I0509 14:27:18.644462 14869 net.cpp:137] Memory required for data: 2189650012
I0509 14:27:18.644465 14869 layer_factory.hpp:77] Creating layer inception_4c/pool
I0509 14:27:18.644479 14869 net.cpp:84] Creating Layer inception_4c/pool
I0509 14:27:18.644482 14869 net.cpp:406] inception_4c/pool <- inception_4b/output_inception_4b/output_0_split_3
I0509 14:27:18.644488 14869 net.cpp:380] inception_4c/pool -> inception_4c/pool
I0509 14:27:18.644539 14869 net.cpp:122] Setting up inception_4c/pool
I0509 14:27:18.644546 14869 net.cpp:129] Top shape: 50 512 14 14 (5017600)
I0509 14:27:18.644549 14869 net.cpp:137] Memory required for data: 2209720412
I0509 14:27:18.644552 14869 layer_factory.hpp:77] Creating layer inception_4c/pool_proj
I0509 14:27:18.644562 14869 net.cpp:84] Creating Layer inception_4c/pool_proj
I0509 14:27:18.644565 14869 net.cpp:406] inception_4c/pool_proj <- inception_4c/pool
I0509 14:27:18.644572 14869 net.cpp:380] inception_4c/pool_proj -> inception_4c/pool_proj
I0509 14:27:18.646759 14869 net.cpp:122] Setting up inception_4c/pool_proj
I0509 14:27:18.646770 14869 net.cpp:129] Top shape: 50 64 14 14 (627200)
I0509 14:27:18.646772 14869 net.cpp:137] Memory required for data: 2212229212
I0509 14:27:18.646778 14869 layer_factory.hpp:77] Creating layer inception_4c/relu_pool_proj
I0509 14:27:18.646785 14869 net.cpp:84] Creating Layer inception_4c/relu_pool_proj
I0509 14:27:18.646790 14869 net.cpp:406] inception_4c/relu_pool_proj <- inception_4c/pool_proj
I0509 14:27:18.646795 14869 net.cpp:367] inception_4c/relu_pool_proj -> inception_4c/pool_proj (in-place)
I0509 14:27:18.647544 14869 net.cpp:122] Setting up inception_4c/relu_pool_proj
I0509 14:27:18.647553 14869 net.cpp:129] Top shape: 50 64 14 14 (627200)
I0509 14:27:18.647557 14869 net.cpp:137] Memory required for data: 2214738012
I0509 14:27:18.647559 14869 layer_factory.hpp:77] Creating layer inception_4c/output
I0509 14:27:18.647583 14869 net.cpp:84] Creating Layer inception_4c/output
I0509 14:27:18.647586 14869 net.cpp:406] inception_4c/output <- inception_4c/1x1
I0509 14:27:18.647591 14869 net.cpp:406] inception_4c/output <- inception_4c/3x3
I0509 14:27:18.647594 14869 net.cpp:406] inception_4c/output <- inception_4c/5x5
I0509 14:27:18.647598 14869 net.cpp:406] inception_4c/output <- inception_4c/pool_proj
I0509 14:27:18.647604 14869 net.cpp:380] inception_4c/output -> inception_4c/output
I0509 14:27:18.647635 14869 net.cpp:122] Setting up inception_4c/output
I0509 14:27:18.647641 14869 net.cpp:129] Top shape: 50 512 14 14 (5017600)
I0509 14:27:18.647644 14869 net.cpp:137] Memory required for data: 2234808412
I0509 14:27:18.647646 14869 layer_factory.hpp:77] Creating layer inception_4c/output_inception_4c/output_0_split
I0509 14:27:18.647652 14869 net.cpp:84] Creating Layer inception_4c/output_inception_4c/output_0_split
I0509 14:27:18.647655 14869 net.cpp:406] inception_4c/output_inception_4c/output_0_split <- inception_4c/output
I0509 14:27:18.647665 14869 net.cpp:380] inception_4c/output_inception_4c/output_0_split -> inception_4c/output_inception_4c/output_0_split_0
I0509 14:27:18.647671 14869 net.cpp:380] inception_4c/output_inception_4c/output_0_split -> inception_4c/output_inception_4c/output_0_split_1
I0509 14:27:18.647676 14869 net.cpp:380] inception_4c/output_inception_4c/output_0_split -> inception_4c/output_inception_4c/output_0_split_2
I0509 14:27:18.647683 14869 net.cpp:380] inception_4c/output_inception_4c/output_0_split -> inception_4c/output_inception_4c/output_0_split_3
I0509 14:27:18.647733 14869 net.cpp:122] Setting up inception_4c/output_inception_4c/output_0_split
I0509 14:27:18.647738 14869 net.cpp:129] Top shape: 50 512 14 14 (5017600)
I0509 14:27:18.647742 14869 net.cpp:129] Top shape: 50 512 14 14 (5017600)
I0509 14:27:18.647744 14869 net.cpp:129] Top shape: 50 512 14 14 (5017600)
I0509 14:27:18.647747 14869 net.cpp:129] Top shape: 50 512 14 14 (5017600)
I0509 14:27:18.647750 14869 net.cpp:137] Memory required for data: 2315090012
I0509 14:27:18.647753 14869 layer_factory.hpp:77] Creating layer inception_4d/1x1
I0509 14:27:18.647761 14869 net.cpp:84] Creating Layer inception_4d/1x1
I0509 14:27:18.647764 14869 net.cpp:406] inception_4d/1x1 <- inception_4c/output_inception_4c/output_0_split_0
I0509 14:27:18.647770 14869 net.cpp:380] inception_4d/1x1 -> inception_4d/1x1
I0509 14:27:18.650792 14869 net.cpp:122] Setting up inception_4d/1x1
I0509 14:27:18.650802 14869 net.cpp:129] Top shape: 50 112 14 14 (1097600)
I0509 14:27:18.650805 14869 net.cpp:137] Memory required for data: 2319480412
I0509 14:27:18.650811 14869 layer_factory.hpp:77] Creating layer inception_4d/relu_1x1
I0509 14:27:18.650818 14869 net.cpp:84] Creating Layer inception_4d/relu_1x1
I0509 14:27:18.650821 14869 net.cpp:406] inception_4d/relu_1x1 <- inception_4d/1x1
I0509 14:27:18.650830 14869 net.cpp:367] inception_4d/relu_1x1 -> inception_4d/1x1 (in-place)
I0509 14:27:18.651410 14869 net.cpp:122] Setting up inception_4d/relu_1x1
I0509 14:27:18.651422 14869 net.cpp:129] Top shape: 50 112 14 14 (1097600)
I0509 14:27:18.651424 14869 net.cpp:137] Memory required for data: 2323870812
I0509 14:27:18.651427 14869 layer_factory.hpp:77] Creating layer inception_4d/3x3_reduce
I0509 14:27:18.651437 14869 net.cpp:84] Creating Layer inception_4d/3x3_reduce
I0509 14:27:18.651440 14869 net.cpp:406] inception_4d/3x3_reduce <- inception_4c/output_inception_4c/output_0_split_1
I0509 14:27:18.651451 14869 net.cpp:380] inception_4d/3x3_reduce -> inception_4d/3x3_reduce
I0509 14:27:18.658525 14869 net.cpp:122] Setting up inception_4d/3x3_reduce
I0509 14:27:18.658540 14869 net.cpp:129] Top shape: 50 144 14 14 (1411200)
I0509 14:27:18.658541 14869 net.cpp:137] Memory required for data: 2329515612
I0509 14:27:18.658548 14869 layer_factory.hpp:77] Creating layer inception_4d/relu_3x3_reduce
I0509 14:27:18.658556 14869 net.cpp:84] Creating Layer inception_4d/relu_3x3_reduce
I0509 14:27:18.658560 14869 net.cpp:406] inception_4d/relu_3x3_reduce <- inception_4d/3x3_reduce
I0509 14:27:18.658581 14869 net.cpp:367] inception_4d/relu_3x3_reduce -> inception_4d/3x3_reduce (in-place)
I0509 14:27:18.658973 14869 net.cpp:122] Setting up inception_4d/relu_3x3_reduce
I0509 14:27:18.658984 14869 net.cpp:129] Top shape: 50 144 14 14 (1411200)
I0509 14:27:18.658987 14869 net.cpp:137] Memory required for data: 2335160412
I0509 14:27:18.658990 14869 layer_factory.hpp:77] Creating layer inception_4d/3x3
I0509 14:27:18.659000 14869 net.cpp:84] Creating Layer inception_4d/3x3
I0509 14:27:18.659003 14869 net.cpp:406] inception_4d/3x3 <- inception_4d/3x3_reduce
I0509 14:27:18.659011 14869 net.cpp:380] inception_4d/3x3 -> inception_4d/3x3
I0509 14:27:18.663846 14869 net.cpp:122] Setting up inception_4d/3x3
I0509 14:27:18.663856 14869 net.cpp:129] Top shape: 50 288 14 14 (2822400)
I0509 14:27:18.663858 14869 net.cpp:137] Memory required for data: 2346450012
I0509 14:27:18.663864 14869 layer_factory.hpp:77] Creating layer inception_4d/relu_3x3
I0509 14:27:18.663870 14869 net.cpp:84] Creating Layer inception_4d/relu_3x3
I0509 14:27:18.663874 14869 net.cpp:406] inception_4d/relu_3x3 <- inception_4d/3x3
I0509 14:27:18.663882 14869 net.cpp:367] inception_4d/relu_3x3 -> inception_4d/3x3 (in-place)
I0509 14:27:18.664270 14869 net.cpp:122] Setting up inception_4d/relu_3x3
I0509 14:27:18.664279 14869 net.cpp:129] Top shape: 50 288 14 14 (2822400)
I0509 14:27:18.664283 14869 net.cpp:137] Memory required for data: 2357739612
I0509 14:27:18.664285 14869 layer_factory.hpp:77] Creating layer inception_4d/5x5_reduce
I0509 14:27:18.664295 14869 net.cpp:84] Creating Layer inception_4d/5x5_reduce
I0509 14:27:18.664299 14869 net.cpp:406] inception_4d/5x5_reduce <- inception_4c/output_inception_4c/output_0_split_2
I0509 14:27:18.664307 14869 net.cpp:380] inception_4d/5x5_reduce -> inception_4d/5x5_reduce
I0509 14:27:18.668467 14869 net.cpp:122] Setting up inception_4d/5x5_reduce
I0509 14:27:18.668478 14869 net.cpp:129] Top shape: 50 32 14 14 (313600)
I0509 14:27:18.668481 14869 net.cpp:137] Memory required for data: 2358994012
I0509 14:27:18.668488 14869 layer_factory.hpp:77] Creating layer inception_4d/relu_5x5_reduce
I0509 14:27:18.668500 14869 net.cpp:84] Creating Layer inception_4d/relu_5x5_reduce
I0509 14:27:18.668505 14869 net.cpp:406] inception_4d/relu_5x5_reduce <- inception_4d/5x5_reduce
I0509 14:27:18.668512 14869 net.cpp:367] inception_4d/relu_5x5_reduce -> inception_4d/5x5_reduce (in-place)
I0509 14:27:18.669121 14869 net.cpp:122] Setting up inception_4d/relu_5x5_reduce
I0509 14:27:18.669131 14869 net.cpp:129] Top shape: 50 32 14 14 (313600)
I0509 14:27:18.669132 14869 net.cpp:137] Memory required for data: 2360248412
I0509 14:27:18.669137 14869 layer_factory.hpp:77] Creating layer inception_4d/5x5
I0509 14:27:18.669147 14869 net.cpp:84] Creating Layer inception_4d/5x5
I0509 14:27:18.669150 14869 net.cpp:406] inception_4d/5x5 <- inception_4d/5x5_reduce
I0509 14:27:18.669157 14869 net.cpp:380] inception_4d/5x5 -> inception_4d/5x5
I0509 14:27:18.671480 14869 net.cpp:122] Setting up inception_4d/5x5
I0509 14:27:18.671491 14869 net.cpp:129] Top shape: 50 64 14 14 (627200)
I0509 14:27:18.671494 14869 net.cpp:137] Memory required for data: 2362757212
I0509 14:27:18.671500 14869 layer_factory.hpp:77] Creating layer inception_4d/relu_5x5
I0509 14:27:18.671507 14869 net.cpp:84] Creating Layer inception_4d/relu_5x5
I0509 14:27:18.671510 14869 net.cpp:406] inception_4d/relu_5x5 <- inception_4d/5x5
I0509 14:27:18.671517 14869 net.cpp:367] inception_4d/relu_5x5 -> inception_4d/5x5 (in-place)
I0509 14:27:18.672116 14869 net.cpp:122] Setting up inception_4d/relu_5x5
I0509 14:27:18.672125 14869 net.cpp:129] Top shape: 50 64 14 14 (627200)
I0509 14:27:18.672127 14869 net.cpp:137] Memory required for data: 2365266012
I0509 14:27:18.672132 14869 layer_factory.hpp:77] Creating layer inception_4d/pool
I0509 14:27:18.672144 14869 net.cpp:84] Creating Layer inception_4d/pool
I0509 14:27:18.672148 14869 net.cpp:406] inception_4d/pool <- inception_4c/output_inception_4c/output_0_split_3
I0509 14:27:18.672171 14869 net.cpp:380] inception_4d/pool -> inception_4d/pool
I0509 14:27:18.672216 14869 net.cpp:122] Setting up inception_4d/pool
I0509 14:27:18.672221 14869 net.cpp:129] Top shape: 50 512 14 14 (5017600)
I0509 14:27:18.672224 14869 net.cpp:137] Memory required for data: 2385336412
I0509 14:27:18.672227 14869 layer_factory.hpp:77] Creating layer inception_4d/pool_proj
I0509 14:27:18.672235 14869 net.cpp:84] Creating Layer inception_4d/pool_proj
I0509 14:27:18.672240 14869 net.cpp:406] inception_4d/pool_proj <- inception_4d/pool
I0509 14:27:18.672245 14869 net.cpp:380] inception_4d/pool_proj -> inception_4d/pool_proj
I0509 14:27:18.674513 14869 net.cpp:122] Setting up inception_4d/pool_proj
I0509 14:27:18.674523 14869 net.cpp:129] Top shape: 50 64 14 14 (627200)
I0509 14:27:18.674526 14869 net.cpp:137] Memory required for data: 2387845212
I0509 14:27:18.674532 14869 layer_factory.hpp:77] Creating layer inception_4d/relu_pool_proj
I0509 14:27:18.674540 14869 net.cpp:84] Creating Layer inception_4d/relu_pool_proj
I0509 14:27:18.674543 14869 net.cpp:406] inception_4d/relu_pool_proj <- inception_4d/pool_proj
I0509 14:27:18.674548 14869 net.cpp:367] inception_4d/relu_pool_proj -> inception_4d/pool_proj (in-place)
I0509 14:27:18.675128 14869 net.cpp:122] Setting up inception_4d/relu_pool_proj
I0509 14:27:18.675137 14869 net.cpp:129] Top shape: 50 64 14 14 (627200)
I0509 14:27:18.675140 14869 net.cpp:137] Memory required for data: 2390354012
I0509 14:27:18.675143 14869 layer_factory.hpp:77] Creating layer inception_4d/output
I0509 14:27:18.675149 14869 net.cpp:84] Creating Layer inception_4d/output
I0509 14:27:18.675158 14869 net.cpp:406] inception_4d/output <- inception_4d/1x1
I0509 14:27:18.675161 14869 net.cpp:406] inception_4d/output <- inception_4d/3x3
I0509 14:27:18.675165 14869 net.cpp:406] inception_4d/output <- inception_4d/5x5
I0509 14:27:18.675169 14869 net.cpp:406] inception_4d/output <- inception_4d/pool_proj
I0509 14:27:18.675173 14869 net.cpp:380] inception_4d/output -> inception_4d/output
I0509 14:27:18.675204 14869 net.cpp:122] Setting up inception_4d/output
I0509 14:27:18.675209 14869 net.cpp:129] Top shape: 50 528 14 14 (5174400)
I0509 14:27:18.675212 14869 net.cpp:137] Memory required for data: 2411051612
I0509 14:27:18.675215 14869 layer_factory.hpp:77] Creating layer inception_4d/output_inception_4d/output_0_split
I0509 14:27:18.675221 14869 net.cpp:84] Creating Layer inception_4d/output_inception_4d/output_0_split
I0509 14:27:18.675225 14869 net.cpp:406] inception_4d/output_inception_4d/output_0_split <- inception_4d/output
I0509 14:27:18.675230 14869 net.cpp:380] inception_4d/output_inception_4d/output_0_split -> inception_4d/output_inception_4d/output_0_split_0
I0509 14:27:18.675237 14869 net.cpp:380] inception_4d/output_inception_4d/output_0_split -> inception_4d/output_inception_4d/output_0_split_1
I0509 14:27:18.675242 14869 net.cpp:380] inception_4d/output_inception_4d/output_0_split -> inception_4d/output_inception_4d/output_0_split_2
I0509 14:27:18.675249 14869 net.cpp:380] inception_4d/output_inception_4d/output_0_split -> inception_4d/output_inception_4d/output_0_split_3
I0509 14:27:18.675254 14869 net.cpp:380] inception_4d/output_inception_4d/output_0_split -> inception_4d/output_inception_4d/output_0_split_4
I0509 14:27:18.675315 14869 net.cpp:122] Setting up inception_4d/output_inception_4d/output_0_split
I0509 14:27:18.675319 14869 net.cpp:129] Top shape: 50 528 14 14 (5174400)
I0509 14:27:18.675323 14869 net.cpp:129] Top shape: 50 528 14 14 (5174400)
I0509 14:27:18.675326 14869 net.cpp:129] Top shape: 50 528 14 14 (5174400)
I0509 14:27:18.675329 14869 net.cpp:129] Top shape: 50 528 14 14 (5174400)
I0509 14:27:18.675333 14869 net.cpp:129] Top shape: 50 528 14 14 (5174400)
I0509 14:27:18.675335 14869 net.cpp:137] Memory required for data: 2514539612
I0509 14:27:18.675338 14869 layer_factory.hpp:77] Creating layer loss2/ave_pool
I0509 14:27:18.675344 14869 net.cpp:84] Creating Layer loss2/ave_pool
I0509 14:27:18.675348 14869 net.cpp:406] loss2/ave_pool <- inception_4d/output_inception_4d/output_0_split_0
I0509 14:27:18.675364 14869 net.cpp:380] loss2/ave_pool -> loss2/ave_pool
I0509 14:27:18.677814 14869 net.cpp:122] Setting up loss2/ave_pool
I0509 14:27:18.677825 14869 net.cpp:129] Top shape: 50 528 4 4 (422400)
I0509 14:27:18.677829 14869 net.cpp:137] Memory required for data: 2516229212
I0509 14:27:18.677832 14869 layer_factory.hpp:77] Creating layer loss2/conv
I0509 14:27:18.677842 14869 net.cpp:84] Creating Layer loss2/conv
I0509 14:27:18.677847 14869 net.cpp:406] loss2/conv <- loss2/ave_pool
I0509 14:27:18.677853 14869 net.cpp:380] loss2/conv -> loss2/conv
I0509 14:27:18.680255 14869 net.cpp:122] Setting up loss2/conv
I0509 14:27:18.680265 14869 net.cpp:129] Top shape: 50 128 4 4 (102400)
I0509 14:27:18.680269 14869 net.cpp:137] Memory required for data: 2516638812
I0509 14:27:18.680274 14869 layer_factory.hpp:77] Creating layer loss2/relu_conv
I0509 14:27:18.680280 14869 net.cpp:84] Creating Layer loss2/relu_conv
I0509 14:27:18.680284 14869 net.cpp:406] loss2/relu_conv <- loss2/conv
I0509 14:27:18.680289 14869 net.cpp:367] loss2/relu_conv -> loss2/conv (in-place)
I0509 14:27:18.680888 14869 net.cpp:122] Setting up loss2/relu_conv
I0509 14:27:18.680898 14869 net.cpp:129] Top shape: 50 128 4 4 (102400)
I0509 14:27:18.680902 14869 net.cpp:137] Memory required for data: 2517048412
I0509 14:27:18.680904 14869 layer_factory.hpp:77] Creating layer loss2/fc
I0509 14:27:18.680915 14869 net.cpp:84] Creating Layer loss2/fc
I0509 14:27:18.680919 14869 net.cpp:406] loss2/fc <- loss2/conv
I0509 14:27:18.680925 14869 net.cpp:380] loss2/fc -> loss2/fc
I0509 14:27:18.693028 14869 net.cpp:122] Setting up loss2/fc
I0509 14:27:18.693045 14869 net.cpp:129] Top shape: 50 1024 (51200)
I0509 14:27:18.693048 14869 net.cpp:137] Memory required for data: 2517253212
I0509 14:27:18.693056 14869 layer_factory.hpp:77] Creating layer loss2/relu_fc
I0509 14:27:18.693064 14869 net.cpp:84] Creating Layer loss2/relu_fc
I0509 14:27:18.693069 14869 net.cpp:406] loss2/relu_fc <- loss2/fc
I0509 14:27:18.693078 14869 net.cpp:367] loss2/relu_fc -> loss2/fc (in-place)
I0509 14:27:18.693852 14869 net.cpp:122] Setting up loss2/relu_fc
I0509 14:27:18.693862 14869 net.cpp:129] Top shape: 50 1024 (51200)
I0509 14:27:18.693866 14869 net.cpp:137] Memory required for data: 2517458012
I0509 14:27:18.693868 14869 layer_factory.hpp:77] Creating layer loss2/drop_fc
I0509 14:27:18.693876 14869 net.cpp:84] Creating Layer loss2/drop_fc
I0509 14:27:18.693878 14869 net.cpp:406] loss2/drop_fc <- loss2/fc
I0509 14:27:18.693883 14869 net.cpp:367] loss2/drop_fc -> loss2/fc (in-place)
I0509 14:27:18.693912 14869 net.cpp:122] Setting up loss2/drop_fc
I0509 14:27:18.693917 14869 net.cpp:129] Top shape: 50 1024 (51200)
I0509 14:27:18.693919 14869 net.cpp:137] Memory required for data: 2517662812
I0509 14:27:18.693922 14869 layer_factory.hpp:77] Creating layer loss2/classifier
I0509 14:27:18.693929 14869 net.cpp:84] Creating Layer loss2/classifier
I0509 14:27:18.693933 14869 net.cpp:406] loss2/classifier <- loss2/fc
I0509 14:27:18.693938 14869 net.cpp:380] loss2/classifier -> loss2/classifier
I0509 14:27:18.695686 14869 net.cpp:122] Setting up loss2/classifier
I0509 14:27:18.695695 14869 net.cpp:129] Top shape: 50 196 (9800)
I0509 14:27:18.695698 14869 net.cpp:137] Memory required for data: 2517702012
I0509 14:27:18.695704 14869 layer_factory.hpp:77] Creating layer loss2/classifier_loss2/classifier_0_split
I0509 14:27:18.695710 14869 net.cpp:84] Creating Layer loss2/classifier_loss2/classifier_0_split
I0509 14:27:18.695714 14869 net.cpp:406] loss2/classifier_loss2/classifier_0_split <- loss2/classifier
I0509 14:27:18.695721 14869 net.cpp:380] loss2/classifier_loss2/classifier_0_split -> loss2/classifier_loss2/classifier_0_split_0
I0509 14:27:18.695727 14869 net.cpp:380] loss2/classifier_loss2/classifier_0_split -> loss2/classifier_loss2/classifier_0_split_1
I0509 14:27:18.695734 14869 net.cpp:380] loss2/classifier_loss2/classifier_0_split -> loss2/classifier_loss2/classifier_0_split_2
I0509 14:27:18.695780 14869 net.cpp:122] Setting up loss2/classifier_loss2/classifier_0_split
I0509 14:27:18.695801 14869 net.cpp:129] Top shape: 50 196 (9800)
I0509 14:27:18.695804 14869 net.cpp:129] Top shape: 50 196 (9800)
I0509 14:27:18.695807 14869 net.cpp:129] Top shape: 50 196 (9800)
I0509 14:27:18.695809 14869 net.cpp:137] Memory required for data: 2517819612
I0509 14:27:18.695812 14869 layer_factory.hpp:77] Creating layer loss2/loss
I0509 14:27:18.695818 14869 net.cpp:84] Creating Layer loss2/loss
I0509 14:27:18.695822 14869 net.cpp:406] loss2/loss <- loss2/classifier_loss2/classifier_0_split_0
I0509 14:27:18.695827 14869 net.cpp:406] loss2/loss <- label_val-data_1_split_3
…
I0509 14:27:18.696410 14869 net.cpp:122] Setting up loss2/top-5
I0509 14:27:18.696413 14869 net.cpp:129] Top shape: (1)
I0509 14:27:18.696416 14869 net.cpp:137] Memory required for data: 2517819624
I0509 14:27:18.696419 14869 layer_factory.hpp:77] Creating layer inception_4e/1x1
I0509 14:27:18.696429 14869 net.cpp:84] Creating Layer inception_4e/1x1
I0509 14:27:18.696431 14869 net.cpp:406] inception_4e/1x1 <- inception_4d/output_inception_4d/output_0_split_1
I0509 14:27:18.696439 14869 net.cpp:380] inception_4e/1x1 -> inception_4e/1x1
I0509 14:27:18.699360 14869 net.cpp:122] Setting up inception_4e/1x1
I0509 14:27:18.699370 14869 net.cpp:129] Top shape: 50 256 14 14 (2508800)
I0509 14:27:18.699373 14869 net.cpp:137] Memory required for data: 2527854824
I0509 14:27:18.699379 14869 layer_factory.hpp:77] Creating layer inception_4e/relu_1x1
I0509 14:27:18.699385 14869 net.cpp:84] Creating Layer inception_4e/relu_1x1
I0509 14:27:18.699388 14869 net.cpp:406] inception_4e/relu_1x1 <- inception_4e/1x1
I0509 14:27:18.699395 14869 net.cpp:367] inception_4e/relu_1x1 -> inception_4e/1x1 (in-place)
I0509 14:27:18.701768 14869 net.cpp:122] Setting up inception_4e/relu_1x1
I0509 14:27:18.701781 14869 net.cpp:129] Top shape: 50 256 14 14 (2508800)
I0509 14:27:18.701784 14869 net.cpp:137] Memory required for data: 2537890024
I0509 14:27:18.701787 14869 layer_factory.hpp:77] Creating layer inception_4e/3x3_reduce
I0509 14:27:18.701823 14869 net.cpp:84] Creating Layer inception_4e/3x3_reduce
I0509 14:27:18.701828 14869 net.cpp:406] inception_4e/3x3_reduce <- inception_4d/output_inception_4d/output_0_split_2
I0509 14:27:18.701834 14869 net.cpp:380] inception_4e/3x3_reduce -> inception_4e/3x3_reduce
I0509 14:27:18.704500 14869 net.cpp:122] Setting up inception_4e/3x3_reduce
I0509 14:27:18.704510 14869 net.cpp:129] Top shape: 50 160 14 14 (1568000)
I0509 14:27:18.704514 14869 net.cpp:137] Memory required for data: 2544162024
I0509 14:27:18.704519 14869 layer_factory.hpp:77] Creating layer inception_4e/relu_3x3_reduce
I0509 14:27:18.704527 14869 net.cpp:84] Creating Layer inception_4e/relu_3x3_reduce
I0509 14:27:18.704548 14869 net.cpp:406] inception_4e/relu_3x3_reduce <- inception_4e/3x3_reduce
I0509 14:27:18.704555 14869 net.cpp:367] inception_4e/relu_3x3_reduce -> inception_4e/3x3_reduce (in-place)
I0509 14:27:18.705137 14869 net.cpp:122] Setting up inception_4e/relu_3x3_reduce
I0509 14:27:18.705147 14869 net.cpp:129] Top shape: 50 160 14 14 (1568000)
I0509 14:27:18.705149 14869 net.cpp:137] Memory required for data: 2550434024
I0509 14:27:18.705152 14869 layer_factory.hpp:77] Creating layer inception_4e/3x3
I0509 14:27:18.705163 14869 net.cpp:84] Creating Layer inception_4e/3x3
I0509 14:27:18.705168 14869 net.cpp:406] inception_4e/3x3 <- inception_4e/3x3_reduce
I0509 14:27:18.705173 14869 net.cpp:380] inception_4e/3x3 -> inception_4e/3x3
I0509 14:27:18.710281 14869 net.cpp:122] Setting up inception_4e/3x3
I0509 14:27:18.710292 14869 net.cpp:129] Top shape: 50 320 14 14 (3136000)
I0509 14:27:18.710295 14869 net.cpp:137] Memory required for data: 2562978024
I0509 14:27:18.710301 14869 layer_factory.hpp:77] Creating layer inception_4e/relu_3x3
I0509 14:27:18.710309 14869 net.cpp:84] Creating Layer inception_4e/relu_3x3
I0509 14:27:18.710314 14869 net.cpp:406] inception_4e/relu_3x3 <- inception_4e/3x3
I0509 14:27:18.710319 14869 net.cpp:367] inception_4e/relu_3x3 -> inception_4e/3x3 (in-place)
I0509 14:27:18.710897 14869 net.cpp:122] Setting up inception_4e/relu_3x3
I0509 14:27:18.710906 14869 net.cpp:129] Top shape: 50 320 14 14 (3136000)
I0509 14:27:18.710909 14869 net.cpp:137] Memory required for data: 2575522024
I0509 14:27:18.710912 14869 layer_factory.hpp:77] Creating layer inception_4e/5x5_reduce
I0509 14:27:18.710922 14869 net.cpp:84] Creating Layer inception_4e/5x5_reduce
I0509 14:27:18.710927 14869 net.cpp:406] inception_4e/5x5_reduce <- inception_4d/output_inception_4d/output_0_split_3
I0509 14:27:18.710933 14869 net.cpp:380] inception_4e/5x5_reduce -> inception_4e/5x5_reduce
I0509 14:27:18.714869 14869 net.cpp:122] Setting up inception_4e/5x5_reduce
I0509 14:27:18.714882 14869 net.cpp:129] Top shape: 50 32 14 14 (313600)
I0509 14:27:18.714885 14869 net.cpp:137] Memory required for data: 2576776424
I0509 14:27:18.714893 14869 layer_factory.hpp:77] Creating layer inception_4e/relu_5x5_reduce
I0509 14:27:18.714900 14869 net.cpp:84] Creating Layer inception_4e/relu_5x5_reduce
I0509 14:27:18.714905 14869 net.cpp:406] inception_4e/relu_5x5_reduce <- inception_4e/5x5_reduce
I0509 14:27:18.714912 14869 net.cpp:367] inception_4e/relu_5x5_reduce -> inception_4e/5x5_reduce (in-place)
I0509 14:27:18.715488 14869 net.cpp:122] Setting up inception_4e/relu_5x5_reduce
I0509 14:27:18.715498 14869 net.cpp:129] Top shape: 50 32 14 14 (313600)
I0509 14:27:18.715500 14869 net.cpp:137] Memory required for data: 2578030824
I0509 14:27:18.715504 14869 layer_factory.hpp:77] Creating layer inception_4e/5x5
I0509 14:27:18.715518 14869 net.cpp:84] Creating Layer inception_4e/5x5
I0509 14:27:18.715523 14869 net.cpp:406] inception_4e/5x5 <- inception_4e/5x5_reduce
I0509 14:27:18.715528 14869 net.cpp:380] inception_4e/5x5 -> inception_4e/5x5
I0509 14:27:18.718436 14869 net.cpp:122] Setting up inception_4e/5x5
I0509 14:27:18.718447 14869 net.cpp:129] Top shape: 50 128 14 14 (1254400)
I0509 14:27:18.718451 14869 net.cpp:137] Memory required for data: 2583048424
I0509 14:27:18.718456 14869 layer_factory.hpp:77] Creating layer inception_4e/relu_5x5
I0509 14:27:18.718462 14869 net.cpp:84] Creating Layer inception_4e/relu_5x5
I0509 14:27:18.718466 14869 net.cpp:406] inception_4e/relu_5x5 <- inception_4e/5x5
I0509 14:27:18.718470 14869 net.cpp:367] inception_4e/relu_5x5 -> inception_4e/5x5 (in-place)
I0509 14:27:18.718863 14869 net.cpp:122] Setting up inception_4e/relu_5x5
I0509 14:27:18.718873 14869 net.cpp:129] Top shape: 50 128 14 14 (1254400)
I0509 14:27:18.718876 14869 net.cpp:137] Memory required for data: 2588066024
I0509 14:27:18.718879 14869 layer_factory.hpp:77] Creating layer inception_4e/pool
I0509 14:27:18.718885 14869 net.cpp:84] Creating Layer inception_4e/pool
I0509 14:27:18.718909 14869 net.cpp:406] inception_4e/pool <- inception_4d/output_inception_4d/output_0_split_4
I0509 14:27:18.718916 14869 net.cpp:380] inception_4e/pool -> inception_4e/pool
I0509 14:27:18.718960 14869 net.cpp:122] Setting up inception_4e/pool
I0509 14:27:18.718966 14869 net.cpp:129] Top shape: 50 528 14 14 (5174400)
I0509 14:27:18.718968 14869 net.cpp:137] Memory required for data: 2608763624
I0509 14:27:18.718971 14869 layer_factory.hpp:77] Creating layer inception_4e/pool_proj
I0509 14:27:18.718981 14869 net.cpp:84] Creating Layer inception_4e/pool_proj
I0509 14:27:18.718983 14869 net.cpp:406] inception_4e/pool_proj <- inception_4e/pool
I0509 14:27:18.718988 14869 net.cpp:380] inception_4e/pool_proj -> inception_4e/pool_proj
I0509 14:27:18.721571 14869 net.cpp:122] Setting up inception_4e/pool_proj
I0509 14:27:18.721581 14869 net.cpp:129] Top shape: 50 128 14 14 (1254400)
I0509 14:27:18.721585 14869 net.cpp:137] Memory required for data: 2613781224
I0509 14:27:18.721590 14869 layer_factory.hpp:77] Creating layer inception_4e/relu_pool_proj
I0509 14:27:18.721596 14869 net.cpp:84] Creating Layer inception_4e/relu_pool_proj
I0509 14:27:18.721601 14869 net.cpp:406] inception_4e/relu_pool_proj <- inception_4e/pool_proj
I0509 14:27:18.721607 14869 net.cpp:367] inception_4e/relu_pool_proj -> inception_4e/pool_proj (in-place)
I0509 14:27:18.724021 14869 net.cpp:122] Setting up inception_4e/relu_pool_proj
I0509 14:27:18.724033 14869 net.cpp:129] Top shape: 50 128 14 14 (1254400)
I0509 14:27:18.724036 14869 net.cpp:137] Memory required for data: 2618798824
I0509 14:27:18.724040 14869 layer_factory.hpp:77] Creating layer inception_4e/output
I0509 14:27:18.724048 14869 net.cpp:84] Creating Layer inception_4e/output
I0509 14:27:18.724052 14869 net.cpp:406] inception_4e/output <- inception_4e/1x1
I0509 14:27:18.724057 14869 net.cpp:406] inception_4e/output <- inception_4e/3x3
I0509 14:27:18.724061 14869 net.cpp:406] inception_4e/output <- inception_4e/5x5
I0509 14:27:18.724064 14869 net.cpp:406] inception_4e/output <- inception_4e/pool_proj
I0509 14:27:18.724069 14869 net.cpp:380] inception_4e/output -> inception_4e/output
I0509 14:27:18.724102 14869 net.cpp:122] Setting up inception_4e/output
I0509 14:27:18.724107 14869 net.cpp:129] Top shape: 50 832 14 14 (8153600)
I0509 14:27:18.724109 14869 net.cpp:137] Memory required for data: 2651413224
I0509 14:27:18.724112 14869 layer_factory.hpp:77] Creating layer pool4/3x3_s2
I0509 14:27:18.724119 14869 net.cpp:84] Creating Layer pool4/3x3_s2
I0509 14:27:18.724123 14869 net.cpp:406] pool4/3x3_s2 <- inception_4e/output
I0509 14:27:18.724128 14869 net.cpp:380] pool4/3x3_s2 -> pool4/3x3_s2
I0509 14:27:18.724162 14869 net.cpp:122] Setting up pool4/3x3_s2
I0509 14:27:18.724169 14869 net.cpp:129] Top shape: 50 832 7 7 (2038400)
I0509 14:27:18.724171 14869 net.cpp:137] Memory required for data: 2659566824
I0509 14:27:18.724174 14869 layer_factory.hpp:77] Creating layer pool4/3x3_s2_pool4/3x3_s2_0_split
I0509 14:27:18.724179 14869 net.cpp:84] Creating Layer pool4/3x3_s2_pool4/3x3_s2_0_split
I0509 14:27:18.724182 14869 net.cpp:406] pool4/3x3_s2_pool4/3x3_s2_0_split <- pool4/3x3_s2
I0509 14:27:18.724191 14869 net.cpp:380] pool4/3x3_s2_pool4/3x3_s2_0_split -> pool4/3x3_s2_pool4/3x3_s2_0_split_0
I0509 14:27:18.724196 14869 net.cpp:380] pool4/3x3_s2_pool4/3x3_s2_0_split -> pool4/3x3_s2_pool4/3x3_s2_0_split_1
I0509 14:27:18.724201 14869 net.cpp:380] pool4/3x3_s2_pool4/3x3_s2_0_split -> pool4/3x3_s2_pool4/3x3_s2_0_split_2
I0509 14:27:18.724231 14869 net.cpp:380] pool4/3x3_s2_pool4/3x3_s2_0_split -> pool4/3x3_s2_pool4/3x3_s2_0_split_3
I0509 14:27:18.724275 14869 net.cpp:122] Setting up pool4/3x3_s2_pool4/3x3_s2_0_split
I0509 14:27:18.724280 14869 net.cpp:129] Top shape: 50 832 7 7 (2038400)
I0509 14:27:18.724283 14869 net.cpp:129] Top shape: 50 832 7 7 (2038400)
I0509 14:27:18.724289 14869 net.cpp:129] Top shape: 50 832 7 7 (2038400)
I0509 14:27:18.724292 14869 net.cpp:129] Top shape: 50 832 7 7 (2038400)
I0509 14:27:18.724295 14869 net.cpp:137] Memory required for data: 2692181224
I0509 14:27:18.724315 14869 layer_factory.hpp:77] Creating layer inception_5a/1x1
I0509 14:27:18.724323 14869 net.cpp:84] Creating Layer inception_5a/1x1
I0509 14:27:18.724328 14869 net.cpp:406] inception_5a/1x1 <- pool4/3x3_s2_pool4/3x3_s2_0_split_0
I0509 14:27:18.724332 14869 net.cpp:380] inception_5a/1x1 -> inception_5a/1x1
I0509 14:27:18.735278 14869 net.cpp:122] Setting up inception_5a/1x1
I0509 14:27:18.735292 14869 net.cpp:129] Top shape: 50 256 7 7 (627200)
I0509 14:27:18.735294 14869 net.cpp:137] Memory required for data: 2694690024
I0509 14:27:18.735302 14869 layer_factory.hpp:77] Creating layer inception_5a/relu_1x1
I0509 14:27:18.735311 14869 net.cpp:84] Creating Layer inception_5a/relu_1x1
I0509 14:27:18.735314 14869 net.cpp:406] inception_5a/relu_1x1 <- inception_5a/1x1
I0509 14:27:18.735321 14869 net.cpp:367] inception_5a/relu_1x1 -> inception_5a/1x1 (in-place)
I0509 14:27:18.735908 14869 net.cpp:122] Setting up inception_5a/relu_1x1
I0509 14:27:18.735918 14869 net.cpp:129] Top shape: 50 256 7 7 (627200)
I0509 14:27:18.735921 14869 net.cpp:137] Memory required for data: 2697198824
I0509 14:27:18.735924 14869 layer_factory.hpp:77] Creating layer inception_5a/3x3_reduce
I0509 14:27:18.735935 14869 net.cpp:84] Creating Layer inception_5a/3x3_reduce
I0509 14:27:18.735939 14869 net.cpp:406] inception_5a/3x3_reduce <- pool4/3x3_s2_pool4/3x3_s2_0_split_1
I0509 14:27:18.735946 14869 net.cpp:380] inception_5a/3x3_reduce -> inception_5a/3x3_reduce
I0509 14:27:18.739416 14869 net.cpp:122] Setting up inception_5a/3x3_reduce
I0509 14:27:18.739429 14869 net.cpp:129] Top shape: 50 160 7 7 (392000)
I0509 14:27:18.739434 14869 net.cpp:137] Memory required for data: 2698766824
I0509 14:27:18.739442 14869 layer_factory.hpp:77] Creating layer inception_5a/relu_3x3_reduce
I0509 14:27:18.739450 14869 net.cpp:84] Creating Layer inception_5a/relu_3x3_reduce
I0509 14:27:18.739454 14869 net.cpp:406] inception_5a/relu_3x3_reduce <- inception_5a/3x3_reduce
I0509 14:27:18.739464 14869 net.cpp:367] inception_5a/relu_3x3_reduce -> inception_5a/3x3_reduce (in-place)
I0509 14:27:18.740217 14869 net.cpp:122] Setting up inception_5a/relu_3x3_reduce
I0509 14:27:18.740231 14869 net.cpp:129] Top shape: 50 160 7 7 (392000)
I0509 14:27:18.740236 14869 net.cpp:137] Memory required for data: 2700334824
I0509 14:27:18.740239 14869 layer_factory.hpp:77] Creating layer inception_5a/3x3
I0509 14:27:18.740252 14869 net.cpp:84] Creating Layer inception_5a/3x3
I0509 14:27:18.740257 14869 net.cpp:406] inception_5a/3x3 <- inception_5a/3x3_reduce
I0509 14:27:18.740265 14869 net.cpp:380] inception_5a/3x3 -> inception_5a/3x3
I0509 14:27:18.749186 14869 net.cpp:122] Setting up inception_5a/3x3
I0509 14:27:18.749202 14869 net.cpp:129] Top shape: 50 320 7 7 (784000)
I0509 14:27:18.749205 14869 net.cpp:137] Memory required for data: 2703470824
I0509 14:27:18.749213 14869 layer_factory.hpp:77] Creating layer inception_5a/relu_3x3
I0509 14:27:18.749223 14869 net.cpp:84] Creating Layer inception_5a/relu_3x3
I0509 14:27:18.749228 14869 net.cpp:406] inception_5a/relu_3x3 <- inception_5a/3x3
I0509 14:27:18.749234 14869 net.cpp:367] inception_5a/relu_3x3 -> inception_5a/3x3 (in-place)
I0509 14:27:18.749821 14869 net.cpp:122] Setting up inception_5a/relu_3x3
I0509 14:27:18.749830 14869 net.cpp:129] Top shape: 50 320 7 7 (784000)
I0509 14:27:18.749833 14869 net.cpp:137] Memory required for data: 2706606824
I0509 14:27:18.749836 14869 layer_factory.hpp:77] Creating layer inception_5a/5x5_reduce
I0509 14:27:18.749847 14869 net.cpp:84] Creating Layer inception_5a/5x5_reduce
I0509 14:27:18.749852 14869 net.cpp:406] inception_5a/5x5_reduce <- pool4/3x3_s2_pool4/3x3_s2_0_split_2
I0509 14:27:18.749861 14869 net.cpp:380] inception_5a/5x5_reduce -> inception_5a/5x5_reduce
I0509 14:27:18.752266 14869 net.cpp:122] Setting up inception_5a/5x5_reduce
I0509 14:27:18.752276 14869 net.cpp:129] Top shape: 50 32 7 7 (78400)
I0509 14:27:18.752279 14869 net.cpp:137] Memory required for data: 2706920424
I0509 14:27:18.752285 14869 layer_factory.hpp:77] Creating layer inception_5a/relu_5x5_reduce
I0509 14:27:18.752308 14869 net.cpp:84] Creating Layer inception_5a/relu_5x5_reduce
I0509 14:27:18.752312 14869 net.cpp:406] inception_5a/relu_5x5_reduce <- inception_5a/5x5_reduce
I0509 14:27:18.752317 14869 net.cpp:367] inception_5a/relu_5x5_reduce -> inception_5a/5x5_reduce (in-place)
I0509 14:27:18.752720 14869 net.cpp:122] Setting up inception_5a/relu_5x5_reduce
I0509 14:27:18.752729 14869 net.cpp:129] Top shape: 50 32 7 7 (78400)
I0509 14:27:18.752732 14869 net.cpp:137] Memory required for data: 2707234024
I0509 14:27:18.752735 14869 layer_factory.hpp:77] Creating layer inception_5a/5x5
I0509 14:27:18.752745 14869 net.cpp:84] Creating Layer inception_5a/5x5
I0509 14:27:18.752749 14869 net.cpp:406] inception_5a/5x5 <- inception_5a/5x5_reduce
I0509 14:27:18.752756 14869 net.cpp:380] inception_5a/5x5 -> inception_5a/5x5
I0509 14:27:18.755662 14869 net.cpp:122] Setting up inception_5a/5x5
I0509 14:27:18.755671 14869 net.cpp:129] Top shape: 50 128 7 7 (313600)
I0509 14:27:18.755674 14869 net.cpp:137] Memory required for data: 2708488424
I0509 14:27:18.755681 14869 layer_factory.hpp:77] Creating layer inception_5a/relu_5x5
I0509 14:27:18.755686 14869 net.cpp:84] Creating Layer inception_5a/relu_5x5
I0509 14:27:18.755690 14869 net.cpp:406] inception_5a/relu_5x5 <- inception_5a/5x5
I0509 14:27:18.755697 14869 net.cpp:367] inception_5a/relu_5x5 -> inception_5a/5x5 (in-place)
I0509 14:27:18.758129 14869 net.cpp:122] Setting up inception_5a/relu_5x5
I0509 14:27:18.758141 14869 net.cpp:129] Top shape: 50 128 7 7 (313600)
I0509 14:27:18.758144 14869 net.cpp:137] Memory required for data: 2709742824
I0509 14:27:18.758148 14869 layer_factory.hpp:77] Creating layer inception_5a/pool
I0509 14:27:18.758155 14869 net.cpp:84] Creating Layer inception_5a/pool
I0509 14:27:18.758160 14869 net.cpp:406] inception_5a/pool <- pool4/3x3_s2_pool4/3x3_s2_0_split_3
I0509 14:27:18.758168 14869 net.cpp:380] inception_5a/pool -> inception_5a/pool
I0509 14:27:18.758215 14869 net.cpp:122] Setting up inception_5a/pool
I0509 14:27:18.758221 14869 net.cpp:129] Top shape: 50 832 7 7 (2038400)
I0509 14:27:18.758224 14869 net.cpp:137] Memory required for data: 2717896424
I0509 14:27:18.758226 14869 layer_factory.hpp:77] Creating layer inception_5a/pool_proj
I0509 14:27:18.758237 14869 net.cpp:84] Creating Layer inception_5a/pool_proj
I0509 14:27:18.758241 14869 net.cpp:406] inception_5a/pool_proj <- inception_5a/pool
I0509 14:27:18.758246 14869 net.cpp:380] inception_5a/pool_proj -> inception_5a/pool_proj
I0509 14:27:18.761608 14869 net.cpp:122] Setting up inception_5a/pool_proj
I0509 14:27:18.761620 14869 net.cpp:129] Top shape: 50 128 7 7 (313600)
I0509 14:27:18.761623 14869 net.cpp:137] Memory required for data: 2719150824
I0509 14:27:18.761631 14869 layer_factory.hpp:77] Creating layer inception_5a/relu_pool_proj
I0509 14:27:18.761636 14869 net.cpp:84] Creating Layer inception_5a/relu_pool_proj
I0509 14:27:18.761641 14869 net.cpp:406] inception_5a/relu_pool_proj <- inception_5a/pool_proj
I0509 14:27:18.761646 14869 net.cpp:367] inception_5a/relu_pool_proj -> inception_5a/pool_proj (in-place)
I0509 14:27:18.762259 14869 net.cpp:122] Setting up inception_5a/relu_pool_proj
I0509 14:27:18.762274 14869 net.cpp:129] Top shape: 50 128 7 7 (313600)
I0509 14:27:18.762276 14869 net.cpp:137] Memory required for data: 2720405224
I0509 14:27:18.762279 14869 layer_factory.hpp:77] Creating layer inception_5a/output
I0509 14:27:18.762286 14869 net.cpp:84] Creating Layer inception_5a/output
I0509 14:27:18.762290 14869 net.cpp:406] inception_5a/output <- inception_5a/1x1
I0509 14:27:18.762295 14869 net.cpp:406] inception_5a/output <- inception_5a/3x3
I0509 14:27:18.762297 14869 net.cpp:406] inception_5a/output <- inception_5a/5x5
I0509 14:27:18.762301 14869 net.cpp:406] inception_5a/output <- inception_5a/pool_proj
I0509 14:27:18.762307 14869 net.cpp:380] inception_5a/output -> inception_5a/output
I0509 14:27:18.762336 14869 net.cpp:122] Setting up inception_5a/output
I0509 14:27:18.762341 14869 net.cpp:129] Top shape: 50 832 7 7 (2038400)
I0509 14:27:18.762343 14869 net.cpp:137] Memory required for data: 2728558824
I0509 14:27:18.762363 14869 layer_factory.hpp:77] Creating layer inception_5a/output_inception_5a/output_0_split
I0509 14:27:18.762370 14869 net.cpp:84] Creating Layer inception_5a/output_inception_5a/output_0_split
I0509 14:27:18.762374 14869 net.cpp:406] inception_5a/output_inception_5a/output_0_split <- inception_5a/output
I0509 14:27:18.762380 14869 net.cpp:380] inception_5a/output_inception_5a/output_0_split -> inception_5a/output_inception_5a/output_0_split_0
I0509 14:27:18.762387 14869 net.cpp:380] inception_5a/output_inception_5a/output_0_split -> inception_5a/output_inception_5a/output_0_split_1
I0509 14:27:18.762392 14869 net.cpp:380] inception_5a/output_inception_5a/output_0_split -> inception_5a/output_inception_5a/output_0_split_2
I0509 14:27:18.762398 14869 net.cpp:380] inception_5a/output_inception_5a/output_0_split -> inception_5a/output_inception_5a/output_0_split_3
I0509 14:27:18.762449 14869 net.cpp:122] Setting up inception_5a/output_inception_5a/output_0_split
I0509 14:27:18.762454 14869 net.cpp:129] Top shape: 50 832 7 7 (2038400)
I0509 14:27:18.762459 14869 net.cpp:129] Top shape: 50 832 7 7 (2038400)
I0509 14:27:18.762461 14869 net.cpp:129] Top shape: 50 832 7 7 (2038400)
I0509 14:27:18.762465 14869 net.cpp:129] Top shape: 50 832 7 7 (2038400)
I0509 14:27:18.762467 14869 net.cpp:137] Memory required for data: 2761173224
I0509 14:27:18.762470 14869 layer_factory.hpp:77] Creating layer inception_5b/1x1
I0509 14:27:18.762480 14869 net.cpp:84] Creating Layer inception_5b/1x1
I0509 14:27:18.762482 14869 net.cpp:406] inception_5b/1x1 <- inception_5a/output_inception_5a/output_0_split_0
I0509 14:27:18.762490 14869 net.cpp:380] inception_5b/1x1 -> inception_5b/1x1
I0509 14:27:18.766034 14869 net.cpp:122] Setting up inception_5b/1x1
I0509 14:27:18.766046 14869 net.cpp:129] Top shape: 50 384 7 7 (940800)
I0509 14:27:18.766048 14869 net.cpp:137] Memory required for data: 2764936424
I0509 14:27:18.766055 14869 layer_factory.hpp:77] Creating layer inception_5b/relu_1x1
I0509 14:27:18.766063 14869 net.cpp:84] Creating Layer inception_5b/relu_1x1
I0509 14:27:18.766067 14869 net.cpp:406] inception_5b/relu_1x1 <- inception_5b/1x1
I0509 14:27:18.766072 14869 net.cpp:367] inception_5b/relu_1x1 -> inception_5b/1x1 (in-place)
I0509 14:27:18.766649 14869 net.cpp:122] Setting up inception_5b/relu_1x1
I0509 14:27:18.766659 14869 net.cpp:129] Top shape: 50 384 7 7 (940800)
I0509 14:27:18.766661 14869 net.cpp:137] Memory required for data: 2768699624
I0509 14:27:18.766664 14869 layer_factory.hpp:77] Creating layer inception_5b/3x3_reduce
I0509 14:27:18.766674 14869 net.cpp:84] Creating Layer inception_5b/3x3_reduce
I0509 14:27:18.766678 14869 net.cpp:406] inception_5b/3x3_reduce <- inception_5a/output_inception_5a/output_0_split_1
I0509 14:27:18.766688 14869 net.cpp:380] inception_5b/3x3_reduce -> inception_5b/3x3_reduce
I0509 14:27:18.772289 14869 net.cpp:122] Setting up inception_5b/3x3_reduce
I0509 14:27:18.772307 14869 net.cpp:129] Top shape: 50 192 7 7 (470400)
I0509 14:27:18.772310 14869 net.cpp:137] Memory required for data: 2770581224
I0509 14:27:18.772320 14869 layer_factory.hpp:77] Creating layer inception_5b/relu_3x3_reduce
I0509 14:27:18.772327 14869 net.cpp:84] Creating Layer inception_5b/relu_3x3_reduce
I0509 14:27:18.772331 14869 net.cpp:406] inception_5b/relu_3x3_reduce <- inception_5b/3x3_reduce
I0509 14:27:18.772337 14869 net.cpp:367] inception_5b/relu_3x3_reduce -> inception_5b/3x3_reduce (in-place)
I0509 14:27:18.772945 14869 net.cpp:122] Setting up inception_5b/relu_3x3_reduce
I0509 14:27:18.772955 14869 net.cpp:129] Top shape: 50 192 7 7 (470400)
I0509 14:27:18.772958 14869 net.cpp:137] Memory required for data: 2772462824
I0509 14:27:18.772961 14869 layer_factory.hpp:77] Creating layer inception_5b/3x3
I0509 14:27:18.772971 14869 net.cpp:84] Creating Layer inception_5b/3x3
I0509 14:27:18.772975 14869 net.cpp:406] inception_5b/3x3 <- inception_5b/3x3_reduce
I0509 14:27:18.772982 14869 net.cpp:380] inception_5b/3x3 -> inception_5b/3x3
I0509 14:27:18.779384 14869 net.cpp:122] Setting up inception_5b/3x3
I0509 14:27:18.779415 14869 net.cpp:129] Top shape: 50 384 7 7 (940800)
I0509 14:27:18.779418 14869 net.cpp:137] Memory required for data: 2776226024
I0509 14:27:18.779425 14869 layer_factory.hpp:77] Creating layer inception_5b/relu_3x3
I0509 14:27:18.779433 14869 net.cpp:84] Creating Layer inception_5b/relu_3x3
I0509 14:27:18.779436 14869 net.cpp:406] inception_5b/relu_3x3 <- inception_5b/3x3
I0509 14:27:18.779443 14869 net.cpp:367] inception_5b/relu_3x3 -> inception_5b/3x3 (in-place)
I0509 14:27:18.779837 14869 net.cpp:122] Setting up inception_5b/relu_3x3
I0509 14:27:18.779846 14869 net.cpp:129] Top shape: 50 384 7 7 (940800)
I0509 14:27:18.779848 14869 net.cpp:137] Memory required for data: 2779989224
I0509 14:27:18.779852 14869 layer_factory.hpp:77] Creating layer inception_5b/5x5_reduce
I0509 14:27:18.779861 14869 net.cpp:84] Creating Layer inception_5b/5x5_reduce
I0509 14:27:18.779865 14869 net.cpp:406] inception_5b/5x5_reduce <- inception_5a/output_inception_5a/output_0_split_2
I0509 14:27:18.779873 14869 net.cpp:380] inception_5b/5x5_reduce -> inception_5b/5x5_reduce
I0509 14:27:18.782380 14869 net.cpp:122] Setting up inception_5b/5x5_reduce
I0509 14:27:18.782392 14869 net.cpp:129] Top shape: 50 48 7 7 (117600)
I0509 14:27:18.782394 14869 net.cpp:137] Memory required for data: 2780459624
I0509 14:27:18.782402 14869 layer_factory.hpp:77] Creating layer inception_5b/relu_5x5_reduce
I0509 14:27:18.782409 14869 net.cpp:84] Creating Layer inception_5b/relu_5x5_reduce
I0509 14:27:18.782413 14869 net.cpp:406] inception_5b/relu_5x5_reduce <- inception_5b/5x5_reduce
I0509 14:27:18.782418 14869 net.cpp:367] inception_5b/relu_5x5_reduce -> inception_5b/5x5_reduce (in-place)
I0509 14:27:18.782814 14869 net.cpp:122] Setting up inception_5b/relu_5x5_reduce
I0509 14:27:18.782822 14869 net.cpp:129] Top shape: 50 48 7 7 (117600)
I0509 14:27:18.782825 14869 net.cpp:137] Memory required for data: 2780930024
I0509 14:27:18.782829 14869 layer_factory.hpp:77] Creating layer inception_5b/5x5
I0509 14:27:18.782838 14869 net.cpp:84] Creating Layer inception_5b/5x5
I0509 14:27:18.782841 14869 net.cpp:406] inception_5b/5x5 <- inception_5b/5x5_reduce
I0509 14:27:18.782850 14869 net.cpp:380] inception_5b/5x5 -> inception_5b/5x5
I0509 14:27:18.788261 14869 net.cpp:122] Setting up inception_5b/5x5
I0509 14:27:18.788276 14869 net.cpp:129] Top shape: 50 128 7 7 (313600)
I0509 14:27:18.788280 14869 net.cpp:137] Memory required for data: 2782184424
I0509 14:27:18.788287 14869 layer_factory.hpp:77] Creating layer inception_5b/relu_5x5
I0509 14:27:18.788295 14869 net.cpp:84] Creating Layer inception_5b/relu_5x5
I0509 14:27:18.788300 14869 net.cpp:406] inception_5b/relu_5x5 <- inception_5b/5x5
I0509 14:27:18.788307 14869 net.cpp:367] inception_5b/relu_5x5 -> inception_5b/5x5 (in-place)
I0509 14:27:18.788935 14869 net.cpp:122] Setting up inception_5b/relu_5x5
I0509 14:27:18.788945 14869 net.cpp:129] Top shape: 50 128 7 7 (313600)
I0509 14:27:18.788949 14869 net.cpp:137] Memory required for data: 2783438824
I0509 14:27:18.788951 14869 layer_factory.hpp:77] Creating layer inception_5b/pool
I0509 14:27:18.788957 14869 net.cpp:84] Creating Layer inception_5b/pool
I0509 14:27:18.788961 14869 net.cpp:406] inception_5b/pool <- inception_5a/output_inception_5a/output_0_split_3
I0509 14:27:18.788969 14869 net.cpp:380] inception_5b/pool -> inception_5b/pool
I0509 14:27:18.789013 14869 net.cpp:122] Setting up inception_5b/pool
I0509 14:27:18.789019 14869 net.cpp:129] Top shape: 50 832 7 7 (2038400)
I0509 14:27:18.789021 14869 net.cpp:137] Memory required for data: 2791592424
I0509 14:27:18.789024 14869 layer_factory.hpp:77] Creating layer inception_5b/pool_proj
I0509 14:27:18.789033 14869 net.cpp:84] Creating Layer inception_5b/pool_proj
I0509 14:27:18.789036 14869 net.cpp:406] inception_5b/pool_proj <- inception_5b/pool
I0509 14:27:18.789043 14869 net.cpp:380] inception_5b/pool_proj -> inception_5b/pool_proj
I0509 14:27:18.791626 14869 net.cpp:122] Setting up inception_5b/pool_proj
I0509 14:27:18.791635 14869 net.cpp:129] Top shape: 50 128 7 7 (313600)
I0509 14:27:18.791657 14869 net.cpp:137] Memory required for data: 2792846824
I0509 14:27:18.791664 14869 layer_factory.hpp:77] Creating layer inception_5b/relu_pool_proj
I0509 14:27:18.791671 14869 net.cpp:84] Creating Layer inception_5b/relu_pool_proj
I0509 14:27:18.791673 14869 net.cpp:406] inception_5b/relu_pool_proj <- inception_5b/pool_proj
I0509 14:27:18.791678 14869 net.cpp:367] inception_5b/relu_pool_proj -> inception_5b/pool_proj (in-place)
I0509 14:27:18.792327 14869 net.cpp:122] Setting up inception_5b/relu_pool_proj
I0509 14:27:18.792337 14869 net.cpp:129] Top shape: 50 128 7 7 (313600)
I0509 14:27:18.792340 14869 net.cpp:137] Memory required for data: 2794101224
I0509 14:27:18.792342 14869 layer_factory.hpp:77] Creating layer inception_5b/output
I0509 14:27:18.792351 14869 net.cpp:84] Creating Layer inception_5b/output
I0509 14:27:18.792354 14869 net.cpp:406] inception_5b/output <- inception_5b/1x1
I0509 14:27:18.792358 14869 net.cpp:406] inception_5b/output <- inception_5b/3x3
I0509 14:27:18.792362 14869 net.cpp:406] inception_5b/output <- inception_5b/5x5
I0509 14:27:18.792366 14869 net.cpp:406] inception_5b/output <- inception_5b/pool_proj
I0509 14:27:18.792371 14869 net.cpp:380] inception_5b/output -> inception_5b/output
I0509 14:27:18.792400 14869 net.cpp:122] Setting up inception_5b/output
I0509 14:27:18.792407 14869 net.cpp:129] Top shape: 50 1024 7 7 (2508800)
I0509 14:27:18.792408 14869 net.cpp:137] Memory required for data: 2804136424
I0509 14:27:18.792412 14869 layer_factory.hpp:77] Creating layer pool5/7x7_s1
I0509 14:27:18.792415 14869 net.cpp:84] Creating Layer pool5/7x7_s1
I0509 14:27:18.792418 14869 net.cpp:406] pool5/7x7_s1 <- inception_5b/output
I0509 14:27:18.792426 14869 net.cpp:380] pool5/7x7_s1 -> pool5/7x7_s1
I0509 14:27:18.793385 14869 net.cpp:122] Setting up pool5/7x7_s1
I0509 14:27:18.793395 14869 net.cpp:129] Top shape: 50 1024 1 1 (51200)
I0509 14:27:18.793397 14869 net.cpp:137] Memory required for data: 2804341224
I0509 14:27:18.793401 14869 layer_factory.hpp:77] Creating layer pool5/drop_7x7_s1
I0509 14:27:18.793408 14869 net.cpp:84] Creating Layer pool5/drop_7x7_s1
I0509 14:27:18.793411 14869 net.cpp:406] pool5/drop_7x7_s1 <- pool5/7x7_s1
I0509 14:27:18.793416 14869 net.cpp:367] pool5/drop_7x7_s1 -> pool5/7x7_s1 (in-place)
I0509 14:27:18.793442 14869 net.cpp:122] Setting up pool5/drop_7x7_s1
I0509 14:27:18.793445 14869 net.cpp:129] Top shape: 50 1024 1 1 (51200)
I0509 14:27:18.793448 14869 net.cpp:137] Memory required for data: 2804546024
I0509 14:27:18.793450 14869 layer_factory.hpp:77] Creating layer loss3/classifier
I0509 14:27:18.793459 14869 net.cpp:84] Creating Layer loss3/classifier
I0509 14:27:18.793462 14869 net.cpp:406] loss3/classifier <- pool5/7x7_s1
I0509 14:27:18.793467 14869 net.cpp:380] loss3/classifier -> loss3/classifier
I0509 14:27:18.795477 14869 net.cpp:122] Setting up loss3/classifier
I0509 14:27:18.795486 14869 net.cpp:129] Top shape: 50 196 (9800)
I0509 14:27:18.795488 14869 net.cpp:137] Memory required for data: 2804585224
I0509 14:27:18.795495 14869 layer_factory.hpp:77] Creating layer loss3/classifier_loss3/classifier_0_split
I0509 14:27:18.795502 14869 net.cpp:84] Creating Layer loss3/classifier_loss3/classifier_0_split
I0509 14:27:18.795506 14869 net.cpp:406] loss3/classifier_loss3/classifier_0_split <- loss3/classifier
I0509 14:27:18.795512 14869 net.cpp:380] loss3/classifier_loss3/classifier_0_split -> loss3/classifier_loss3/classifier_0_split_0
I0509 14:27:18.795518 14869 net.cpp:380] loss3/classifier_loss3/classifier_0_split -> loss3/classifier_loss3/classifier_0_split_1
I0509 14:27:18.795524 14869 net.cpp:380] loss3/classifier_loss3/classifier_0_split -> loss3/classifier_loss3/classifier_0_split_2
I0509 14:27:18.795569 14869 net.cpp:122] Setting up loss3/classifier_loss3/classifier_0_split
I0509 14:27:18.795574 14869 net.cpp:129] Top shape: 50 196 (9800)
I0509 14:27:18.795578 14869 net.cpp:129] Top shape: 50 196 (9800)
I0509 14:27:18.795580 14869 net.cpp:129] Top shape: 50 196 (9800)
I0509 14:27:18.795583 14869 net.cpp:137] Memory required for data: 2804702824
I0509 14:27:18.795599 14869 layer_factory.hpp:77] Creating layer loss3/loss
I0509 14:27:18.795606 14869 net.cpp:84] Creating Layer loss3/loss
I0509 14:27:18.795609 14869 net.cpp:406] loss3/loss <- loss3/classifier_loss3/classifier_0_split_0
I0509 14:27:18.795614 14869 net.cpp:406] loss3/loss <- label_val-data_1_split_6
…
