…
I0502 12:14:47.470613 22699 net.cpp:294] The NetState phase (0) differed from the phase (1) specified by a rule in layer accuracy
I0502 12:14:47.470844 22699 net.cpp:51] Initializing net from parameters:
state {
phase: TRAIN
level: 0
stage: ""
}
layer {
name: "train-data"
type: "Data"
top: "data"
top: "label"
include {
phase: TRAIN
}
transform_param {
mirror: true
crop_size: 227
mean_file: "/mnt/bigdisk/MANDIG2/digits/jobs/20200428-132136-11fe/mean.binaryproto"
}
data_param {
source: "/mnt/bigdisk/MANDIG2/digits/jobs/20200428-132136-11fe/train_db"
batch_size: 128
backend: LMDB
}
}
layer {
name: "conv1"
type: "Convolution"
bottom: "data"
top: "conv1"
param {
lr_mult: 1
decay_mult: 1
}
param {
lr_mult: 2
decay_mult: 0
}
convolution_param {
num_output: 96
kernel_size: 11
stride: 4
weight_filler {
type: "gaussian"
std: 0.01
}
bias_filler {
type: "constant"
value: 0
}
}
}
layer {
name: "relu1"
type: "ReLU"
bottom: "conv1"
top: "conv1"
}
layer {
name: "norm1"
type: "LRN"
bottom: "conv1"
top: "norm1"
lrn_param {
local_size: 5
alpha: 0.0001
beta: 0.75
}
}
layer {
name: "pool1"
type: "Pooling"
bottom: "norm1"
top: "pool1"
pooling_param {
pool: MAX
kernel_size: 3
stride: 2
}
}
layer {
name: "conv2"
type: "Convolution"
bottom: "pool1"
top: "conv2"
param {
lr_mult: 1
decay_mult: 1
}
param {
lr_mult: 2
decay_mult: 0
}
convolution_param {
num_output: 256
pad: 2
kernel_size: 5
group: 2
weight_filler {
type: "gaussian"
std: 0.01
}
bias_filler {
type: "constant"
value: 0.1
}
}
}
layer {
name: "relu2"
type: "ReLU"
bottom: "conv2"
top: "conv2"
}
layer {
name: "norm2"
type: "LRN"
bottom: "conv2"
top: "norm2"
lrn_param {
local_size: 5
alpha: 0.0001
beta: 0.75
}
}
layer {
name: "pool2"
type: "Pooling"
bottom: "norm2"
top: "pool2"
pooling_param {
pool: MAX
kernel_size: 3
stride: 2
}
}
layer {
name: "conv3"
type: "Convolution"
bottom: "pool2"
top: "conv3"
param {
lr_mult: 1
decay_mult: 1
}
param {
lr_mult: 2
decay_mult: 0
}
convolution_param {
num_output: 384
pad: 1
kernel_size: 3
weight_filler {
type: "gaussian"
std: 0.01
}
bias_filler {
type: "constant"
value: 0
}
}
}
layer {
name: "relu3"
type: "ReLU"
bottom: "conv3"
top: "conv3"
}
layer {
name: "conv4"
type: "Convolution"
bottom: "conv3"
top: "conv4"
param {
lr_mult: 1
decay_mult: 1
}
param {
lr_mult: 2
decay_mult: 0
}
convolution_param {
num_output: 384
pad: 1
kernel_size: 3
group: 2
weight_filler {
type: "gaussian"
std: 0.01
}
bias_filler {
type: "constant"
value: 0.1
}
}
}
layer {
name: "relu4"
type: "ReLU"
bottom: "conv4"
top: "conv4"
}
layer {
name: "conv5"
type: "Convolution"
bottom: "conv4"
top: "conv5"
param {
lr_mult: 1
decay_mult: 1
}
param {
lr_mult: 2
decay_mult: 0
}
convolution_param {
num_output: 256
pad: 1
kernel_size: 3
group: 2
weight_filler {
type: "gaussian"
std: 0.01
}
bias_filler {
type: "constant"
value: 0.1
}
}
}
layer {
name: "relu5"
type: "ReLU"
bottom: "conv5"
top: "conv5"
}
layer {
name: "pool5"
type: "Pooling"
bottom: "conv5"
top: "pool5"
pooling_param {
pool: MAX
kernel_size: 3
stride: 2
}
}
layer {
name: "fc6"
type: "InnerProduct"
bottom: "pool5"
top: "fc6"
param {
lr_mult: 1
decay_mult: 1
}
param {
lr_mult: 2
decay_mult: 0
}
inner_product_param {
num_output: 4096
weight_filler {
type: "gaussian"
std: 0.005
}
bias_filler {
type: "constant"
value: 0.1
}
}
}
layer {
name: "relu6"
type: "ReLU"
bottom: "fc6"
top: "fc6"
}
layer {
name: "drop6"
type: "Dropout"
bottom: "fc6"
top: "fc6"
dropout_param {
dropout_ratio: 0.5
}
}
layer {
name: "fc7"
type: "InnerProduct"
bottom: "fc6"
top: "fc7"
param {
lr_mult: 1
decay_mult: 1
}
param {
lr_mult: 2
decay_mult: 0
}
inner_product_param {
num_output: 4096
weight_filler {
type: "gaussian"
std: 0.005
}
bias_filler {
type: "constant"
value: 0.1
}
}
}
layer {
name: "relu7"
type: "ReLU"
bottom: "fc7"
top: "fc7"
}
layer {
name: "drop7"
type: "Dropout"
bottom: "fc7"
top: "fc7"
dropout_param {
dropout_ratio: 0.5
}
}
layer {
name: "fc8"
type: "InnerProduct"
bottom: "fc7"
top: "fc8"
param {
lr_mult: 1
decay_mult: 1
}
param {
lr_mult: 2
decay_mult: 0
}
inner_product_param {
num_output: 196
weight_filler {
type: "gaussian"
std: 0.01
}
bias_filler {
type: "constant"
value: 0
}
}
}
layer {
name: "loss"
type: "SoftmaxWithLoss"
bottom: "fc8"
bottom: "label"
top: "loss"
}
I0502 12:14:47.470973 22699 layer_factory.hpp:77] Creating layer train-data
I0502 12:14:47.513959 22699 db_lmdb.cpp:35] Opened lmdb /mnt/bigdisk/MANDIG2/digits/jobs/20200428-132136-11fe/train_db
I0502 12:14:47.546577 22699 net.cpp:84] Creating Layer train-data
I0502 12:14:47.546618 22699 net.cpp:380] train-data -> data
I0502 12:14:47.546654 22699 net.cpp:380] train-data -> label
I0502 12:14:47.546686 22699 data_transformer.cpp:25] Loading mean file from: /mnt/bigdisk/MANDIG2/digits/jobs/20200428-132136-11fe/mean.binaryproto
I0502 12:14:47.749598 22699 data_layer.cpp:45] output data size: 128,3,227,227
I0502 12:14:48.050361 22699 net.cpp:122] Setting up train-data
I0502 12:14:48.050395 22699 net.cpp:129] Top shape: 128 3 227 227 (19787136)
I0502 12:14:48.050403 22699 net.cpp:129] Top shape: 128 (128)
I0502 12:14:48.050410 22699 net.cpp:137] Memory required for data: 79149056
I0502 12:14:48.050426 22699 layer_factory.hpp:77] Creating layer conv1
I0502 12:14:48.050457 22699 net.cpp:84] Creating Layer conv1
I0502 12:14:48.050464 22699 net.cpp:406] conv1 <- data
I0502 12:14:48.050523 22699 net.cpp:380] conv1 -> conv1
I0502 12:14:50.932548 22699 net.cpp:122] Setting up conv1
I0502 12:14:50.932577 22699 net.cpp:129] Top shape: 128 96 55 55 (37171200)
I0502 12:14:50.932584 22699 net.cpp:137] Memory required for data: 227833856
I0502 12:14:50.932611 22699 layer_factory.hpp:77] Creating layer relu1
I0502 12:14:50.932626 22699 net.cpp:84] Creating Layer relu1
I0502 12:14:50.932632 22699 net.cpp:406] relu1 <- conv1
I0502 12:14:50.932642 22699 net.cpp:367] relu1 -> conv1 (in-place)
I0502 12:14:50.934651 22699 net.cpp:122] Setting up relu1
I0502 12:14:50.934665 22699 net.cpp:129] Top shape: 128 96 55 55 (37171200)
I0502 12:14:50.934671 22699 net.cpp:137] Memory required for data: 376518656
I0502 12:14:50.934679 22699 layer_factory.hpp:77] Creating layer norm1
I0502 12:14:50.934692 22699 net.cpp:84] Creating Layer norm1
I0502 12:14:50.934700 22699 net.cpp:406] norm1 <- conv1
I0502 12:14:50.934736 22699 net.cpp:380] norm1 -> norm1
I0502 12:14:50.936988 22699 net.cpp:122] Setting up norm1
I0502 12:14:50.937003 22699 net.cpp:129] Top shape: 128 96 55 55 (37171200)
I0502 12:14:50.937011 22699 net.cpp:137] Memory required for data: 525203456
I0502 12:14:50.937018 22699 layer_factory.hpp:77] Creating layer pool1
I0502 12:14:50.937032 22699 net.cpp:84] Creating Layer pool1
I0502 12:14:50.937041 22699 net.cpp:406] pool1 <- norm1
I0502 12:14:50.937048 22699 net.cpp:380] pool1 -> pool1
I0502 12:14:50.937098 22699 net.cpp:122] Setting up pool1
I0502 12:14:50.937109 22699 net.cpp:129] Top shape: 128 96 27 27 (8957952)
I0502 12:14:50.937116 22699 net.cpp:137] Memory required for data: 561035264
I0502 12:14:50.937124 22699 layer_factory.hpp:77] Creating layer conv2
I0502 12:14:50.937139 22699 net.cpp:84] Creating Layer conv2
I0502 12:14:50.937146 22699 net.cpp:406] conv2 <- pool1
I0502 12:14:50.937157 22699 net.cpp:380] conv2 -> conv2
I0502 12:14:50.977538 22699 net.cpp:122] Setting up conv2
I0502 12:14:50.977564 22699 net.cpp:129] Top shape: 128 256 27 27 (23887872)
I0502 12:14:50.977569 22699 net.cpp:137] Memory required for data: 656586752
I0502 12:14:50.977586 22699 layer_factory.hpp:77] Creating layer relu2
I0502 12:14:50.977599 22699 net.cpp:84] Creating Layer relu2
I0502 12:14:50.977605 22699 net.cpp:406] relu2 <- conv2
I0502 12:14:50.977615 22699 net.cpp:367] relu2 -> conv2 (in-place)
I0502 12:14:50.979038 22699 net.cpp:122] Setting up relu2
I0502 12:14:50.979049 22699 net.cpp:129] Top shape: 128 256 27 27 (23887872)
I0502 12:14:50.979054 22699 net.cpp:137] Memory required for data: 752138240
I0502 12:14:50.979059 22699 layer_factory.hpp:77] Creating layer norm2
I0502 12:14:50.979071 22699 net.cpp:84] Creating Layer norm2
I0502 12:14:50.979077 22699 net.cpp:406] norm2 <- conv2
I0502 12:14:50.979086 22699 net.cpp:380] norm2 -> norm2
I0502 12:14:50.981365 22699 net.cpp:122] Setting up norm2
I0502 12:14:50.981376 22699 net.cpp:129] Top shape: 128 256 27 27 (23887872)
I0502 12:14:50.981384 22699 net.cpp:137] Memory required for data: 847689728
I0502 12:14:50.981389 22699 layer_factory.hpp:77] Creating layer pool2
I0502 12:14:50.981401 22699 net.cpp:84] Creating Layer pool2
I0502 12:14:50.981410 22699 net.cpp:406] pool2 <- norm2
I0502 12:14:50.981415 22699 net.cpp:380] pool2 -> pool2
I0502 12:14:50.981446 22699 net.cpp:122] Setting up pool2
I0502 12:14:50.981453 22699 net.cpp:129] Top shape: 128 256 13 13 (5537792)
I0502 12:14:50.981460 22699 net.cpp:137] Memory required for data: 869840896
I0502 12:14:50.981467 22699 layer_factory.hpp:77] Creating layer conv3
I0502 12:14:50.981482 22699 net.cpp:84] Creating Layer conv3
I0502 12:14:50.981487 22699 net.cpp:406] conv3 <- pool2
I0502 12:14:50.981496 22699 net.cpp:380] conv3 -> conv3
I0502 12:14:50.999274 22699 net.cpp:122] Setting up conv3
I0502 12:14:50.999296 22699 net.cpp:129] Top shape: 128 384 13 13 (8306688)
I0502 12:14:50.999305 22699 net.cpp:137] Memory required for data: 903067648
I0502 12:14:50.999318 22699 layer_factory.hpp:77] Creating layer relu3
I0502 12:14:50.999330 22699 net.cpp:84] Creating Layer relu3
I0502 12:14:50.999336 22699 net.cpp:406] relu3 <- conv3
I0502 12:14:50.999344 22699 net.cpp:367] relu3 -> conv3 (in-place)
I0502 12:14:51.001343 22699 net.cpp:122] Setting up relu3
I0502 12:14:51.001356 22699 net.cpp:129] Top shape: 128 384 13 13 (8306688)
I0502 12:14:51.001363 22699 net.cpp:137] Memory required for data: 936294400
I0502 12:14:51.001377 22699 layer_factory.hpp:77] Creating layer conv4
I0502 12:14:51.001394 22699 net.cpp:84] Creating Layer conv4
I0502 12:14:51.001401 22699 net.cpp:406] conv4 <- conv3
I0502 12:14:51.001410 22699 net.cpp:380] conv4 -> conv4
I0502 12:14:51.036190 22699 net.cpp:122] Setting up conv4
I0502 12:14:51.036217 22699 net.cpp:129] Top shape: 128 384 13 13 (8306688)
I0502 12:14:51.036223 22699 net.cpp:137] Memory required for data: 969521152
I0502 12:14:51.036237 22699 layer_factory.hpp:77] Creating layer relu4
I0502 12:14:51.036254 22699 net.cpp:84] Creating Layer relu4
I0502 12:14:51.036286 22699 net.cpp:406] relu4 <- conv4
I0502 12:14:51.036298 22699 net.cpp:367] relu4 -> conv4 (in-place)
I0502 12:14:51.037324 22699 net.cpp:122] Setting up relu4
I0502 12:14:51.037338 22699 net.cpp:129] Top shape: 128 384 13 13 (8306688)
I0502 12:14:51.037343 22699 net.cpp:137] Memory required for data: 1002747904
I0502 12:14:51.037348 22699 layer_factory.hpp:77] Creating layer conv5
I0502 12:14:51.037366 22699 net.cpp:84] Creating Layer conv5
I0502 12:14:51.037374 22699 net.cpp:406] conv5 <- conv4
I0502 12:14:51.037382 22699 net.cpp:380] conv5 -> conv5
I0502 12:14:51.062616 22699 net.cpp:122] Setting up conv5
I0502 12:14:51.062640 22699 net.cpp:129] Top shape: 128 256 13 13 (5537792)
I0502 12:14:51.062645 22699 net.cpp:137] Memory required for data: 1024899072
I0502 12:14:51.062662 22699 layer_factory.hpp:77] Creating layer relu5
I0502 12:14:51.062674 22699 net.cpp:84] Creating Layer relu5
I0502 12:14:51.062680 22699 net.cpp:406] relu5 <- conv5
I0502 12:14:51.062688 22699 net.cpp:367] relu5 -> conv5 (in-place)
I0502 12:14:51.064360 22699 net.cpp:122] Setting up relu5
I0502 12:14:51.064373 22699 net.cpp:129] Top shape: 128 256 13 13 (5537792)
I0502 12:14:51.064378 22699 net.cpp:137] Memory required for data: 1047050240
I0502 12:14:51.064383 22699 layer_factory.hpp:77] Creating layer pool5
I0502 12:14:51.064393 22699 net.cpp:84] Creating Layer pool5
I0502 12:14:51.064399 22699 net.cpp:406] pool5 <- conv5
I0502 12:14:51.064406 22699 net.cpp:380] pool5 -> pool5
I0502 12:14:51.064445 22699 net.cpp:122] Setting up pool5
I0502 12:14:51.064452 22699 net.cpp:129] Top shape: 128 256 6 6 (1179648)
I0502 12:14:51.064456 22699 net.cpp:137] Memory required for data: 1051768832
I0502 12:14:51.064462 22699 layer_factory.hpp:77] Creating layer fc6
I0502 12:14:51.064474 22699 net.cpp:84] Creating Layer fc6
I0502 12:14:51.064481 22699 net.cpp:406] fc6 <- pool5
I0502 12:14:51.064486 22699 net.cpp:380] fc6 -> fc6
I0502 12:14:51.440605 22699 net.cpp:122] Setting up fc6
I0502 12:14:51.440629 22699 net.cpp:129] Top shape: 128 4096 (524288)
I0502 12:14:51.440634 22699 net.cpp:137] Memory required for data: 1053865984
I0502 12:14:51.440644 22699 layer_factory.hpp:77] Creating layer relu6
I0502 12:14:51.440654 22699 net.cpp:84] Creating Layer relu6
I0502 12:14:51.440660 22699 net.cpp:406] relu6 <- fc6
I0502 12:14:51.440667 22699 net.cpp:367] relu6 -> fc6 (in-place)
I0502 12:14:51.461118 22699 net.cpp:122] Setting up relu6
I0502 12:14:51.461140 22699 net.cpp:129] Top shape: 128 4096 (524288)
I0502 12:14:51.461145 22699 net.cpp:137] Memory required for data: 1055963136
I0502 12:14:51.461153 22699 layer_factory.hpp:77] Creating layer drop6
I0502 12:14:51.461164 22699 net.cpp:84] Creating Layer drop6
I0502 12:14:51.461170 22699 net.cpp:406] drop6 <- fc6
I0502 12:14:51.461179 22699 net.cpp:367] drop6 -> fc6 (in-place)
I0502 12:14:51.461215 22699 net.cpp:122] Setting up drop6
I0502 12:14:51.461221 22699 net.cpp:129] Top shape: 128 4096 (524288)
I0502 12:14:51.461225 22699 net.cpp:137] Memory required for data: 1058060288
I0502 12:14:51.461230 22699 layer_factory.hpp:77] Creating layer fc7
I0502 12:14:51.461239 22699 net.cpp:84] Creating Layer fc7
I0502 12:14:51.461244 22699 net.cpp:406] fc7 <- fc6
I0502 12:14:51.461252 22699 net.cpp:380] fc7 -> fc7
I0502 12:14:51.754128 22699 net.cpp:122] Setting up fc7
I0502 12:14:51.754156 22699 net.cpp:129] Top shape: 128 4096 (524288)
I0502 12:14:51.754163 22699 net.cpp:137] Memory required for data: 1060157440
I0502 12:14:51.754178 22699 layer_factory.hpp:77] Creating layer relu7
I0502 12:14:51.754194 22699 net.cpp:84] Creating Layer relu7
I0502 12:14:51.754201 22699 net.cpp:406] relu7 <- fc7
I0502 12:14:51.754210 22699 net.cpp:367] relu7 -> fc7 (in-place)
I0502 12:14:51.755008 22699 net.cpp:122] Setting up relu7
I0502 12:14:51.755023 22699 net.cpp:129] Top shape: 128 4096 (524288)
I0502 12:14:51.755028 22699 net.cpp:137] Memory required for data: 1062254592
I0502 12:14:51.755034 22699 layer_factory.hpp:77] Creating layer drop7
I0502 12:14:51.755046 22699 net.cpp:84] Creating Layer drop7
I0502 12:14:51.755086 22699 net.cpp:406] drop7 <- fc7
I0502 12:14:51.755097 22699 net.cpp:367] drop7 -> fc7 (in-place)
I0502 12:14:51.755131 22699 net.cpp:122] Setting up drop7
I0502 12:14:51.755146 22699 net.cpp:129] Top shape: 128 4096 (524288)
I0502 12:14:51.755151 22699 net.cpp:137] Memory required for data: 1064351744
I0502 12:14:51.755157 22699 layer_factory.hpp:77] Creating layer fc8
I0502 12:14:51.755169 22699 net.cpp:84] Creating Layer fc8
I0502 12:14:51.755175 22699 net.cpp:406] fc8 <- fc7
I0502 12:14:51.755187 22699 net.cpp:380] fc8 -> fc8
I0502 12:14:51.766975 22699 net.cpp:122] Setting up fc8
I0502 12:14:51.767002 22699 net.cpp:129] Top shape: 128 196 (25088)
I0502 12:14:51.767007 22699 net.cpp:137] Memory required for data: 1064452096
I0502 12:14:51.767021 22699 layer_factory.hpp:77] Creating layer loss
I0502 12:14:51.767035 22699 net.cpp:84] Creating Layer loss
I0502 12:14:51.767042 22699 net.cpp:406] loss <- fc8
I0502 12:14:51.767051 22699 net.cpp:406] loss <- label
I0502 12:14:51.767061 22699 net.cpp:380] loss -> loss
I0502 12:14:51.767076 22699 layer_factory.hpp:77] Creating layer loss
…
I0502 12:14:51.778239 22699 solver.cpp:172] Creating test net (#0) specified by net file: train_val.prototxt
I0502 12:14:51.778282 22699 net.cpp:294] The NetState phase (1) differed from the phase (0) specified by a rule in layer train-data
I0502 12:14:51.778554 22699 net.cpp:51] Initializing net from parameters:
state {
phase: TEST
}
layer {
name: "val-data"
type: "Data"
top: "data"
top: "label"
include {
phase: TEST
}
transform_param {
crop_size: 227
mean_file: "/mnt/bigdisk/MANDIG2/digits/jobs/20200428-132136-11fe/mean.binaryproto"
}
data_param {
source: "/mnt/bigdisk/MANDIG2/digits/jobs/20200428-132136-11fe/val_db"
batch_size: 32
backend: LMDB
}
}
layer {
name: "conv1"
type: "Convolution"
bottom: "data"
top: "conv1"
param {
lr_mult: 1
decay_mult: 1
}
param {
lr_mult: 2
decay_mult: 0
}
convolution_param {
num_output: 96
kernel_size: 11
stride: 4
weight_filler {
type: "gaussian"
std: 0.01
}
bias_filler {
type: "constant"
value: 0
}
}
}
layer {
name: "relu1"
type: "ReLU"
bottom: "conv1"
top: "conv1"
}
layer {
name: "norm1"
type: "LRN"
bottom: "conv1"
top: "norm1"
lrn_param {
local_size: 5
alpha: 0.0001
beta: 0.75
}
}
layer {
name: "pool1"
type: "Pooling"
bottom: "norm1"
top: "pool1"
pooling_param {
pool: MAX
kernel_size: 3
stride: 2
}
}
layer {
name: "conv2"
type: "Convolution"
bottom: "pool1"
top: "conv2"
param {
lr_mult: 1
decay_mult: 1
}
param {
lr_mult: 2
decay_mult: 0
}
convolution_param {
num_output: 256
pad: 2
kernel_size: 5
group: 2
weight_filler {
type: "gaussian"
std: 0.01
}
bias_filler {
type: "constant"
value: 0.1
}
}
}
layer {
name: "relu2"
type: "ReLU"
bottom: "conv2"
top: "conv2"
}
layer {
name: "norm2"
type: "LRN"
bottom: "conv2"
top: "norm2"
lrn_param {
local_size: 5
alpha: 0.0001
beta: 0.75
}
}
layer {
name: "pool2"
type: "Pooling"
bottom: "norm2"
top: "pool2"
pooling_param {
pool: MAX
kernel_size: 3
stride: 2
}
}
layer {
name: "conv3"
type: "Convolution"
bottom: "pool2"
top: "conv3"
param {
lr_mult: 1
decay_mult: 1
}
param {
lr_mult: 2
decay_mult: 0
}
convolution_param {
num_output: 384
pad: 1
kernel_size: 3
weight_filler {
type: "gaussian"
std: 0.01
}
bias_filler {
type: "constant"
value: 0
}
}
}
layer {
name: "relu3"
type: "ReLU"
bottom: "conv3"
top: "conv3"
}
layer {
name: "conv4"
type: "Convolution"
bottom: "conv3"
top: "conv4"
param {
lr_mult: 1
decay_mult: 1
}
param {
lr_mult: 2
decay_mult: 0
}
convolution_param {
num_output: 384
pad: 1
kernel_size: 3
group: 2
weight_filler {
type: "gaussian"
std: 0.01
}
bias_filler {
type: "constant"
value: 0.1
}
}
}
layer {
name: "relu4"
type: "ReLU"
bottom: "conv4"
top: "conv4"
}
layer {
name: "conv5"
type: "Convolution"
bottom: "conv4"
top: "conv5"
param {
lr_mult: 1
decay_mult: 1
}
param {
lr_mult: 2
decay_mult: 0
}
convolution_param {
num_output: 256
pad: 1
kernel_size: 3
group: 2
weight_filler {
type: "gaussian"
std: 0.01
}
bias_filler {
type: "constant"
value: 0.1
}
}
}
layer {
name: "relu5"
type: "ReLU"
bottom: "conv5"
top: "conv5"
}
layer {
name: "pool5"
type: "Pooling"
bottom: "conv5"
top: "pool5"
pooling_param {
pool: MAX
kernel_size: 3
stride: 2
}
}
layer {
name: "fc6"
type: "InnerProduct"
bottom: "pool5"
top: "fc6"
param {
lr_mult: 1
decay_mult: 1
}
param {
lr_mult: 2
decay_mult: 0
}
inner_product_param {
num_output: 4096
weight_filler {
type: "gaussian"
std: 0.005
}
bias_filler {
type: "constant"
value: 0.1
}
}
}
layer {
name: "relu6"
type: "ReLU"
bottom: "fc6"
top: "fc6"
}
layer {
name: "drop6"
type: "Dropout"
bottom: "fc6"
top: "fc6"
dropout_param {
dropout_ratio: 0.5
}
}
layer {
name: "fc7"
type: "InnerProduct"
bottom: "fc6"
top: "fc7"
param {
lr_mult: 1
decay_mult: 1
}
param {
lr_mult: 2
decay_mult: 0
}
inner_product_param {
num_output: 4096
weight_filler {
type: "gaussian"
std: 0.005
}
bias_filler {
type: "constant"
value: 0.1
}
}
}
layer {
name: "relu7"
type: "ReLU"
bottom: "fc7"
top: "fc7"
}
layer {
name: "drop7"
type: "Dropout"
bottom: "fc7"
top: "fc7"
dropout_param {
dropout_ratio: 0.5
}
}
layer {
name: "fc8"
type: "InnerProduct"
bottom: "fc7"
top: "fc8"
param {
lr_mult: 1
decay_mult: 1
}
param {
lr_mult: 2
decay_mult: 0
}
inner_product_param {
num_output: 196
weight_filler {
type: "gaussian"
std: 0.01
}
bias_filler {
type: "constant"
value: 0
}
}
}
layer {
name: "accuracy"
type: "Accuracy"
bottom: "fc8"
bottom: "label"
top: "accuracy"
include {
phase: TEST
}
}
layer {
name: "loss"
type: "SoftmaxWithLoss"
bottom: "fc8"
bottom: "label"
top: "loss"
}
I0502 12:14:51.778718 22699 layer_factory.hpp:77] Creating layer val-data
I0502 12:14:51.840540 22699 db_lmdb.cpp:35] Opened lmdb /mnt/bigdisk/MANDIG2/digits/jobs/20200428-132136-11fe/val_db
I0502 12:14:51.879513 22699 net.cpp:84] Creating Layer val-data
I0502 12:14:51.879546 22699 net.cpp:380] val-data -> data
I0502 12:14:51.879561 22699 net.cpp:380] val-data -> label
I0502 12:14:51.879570 22699 data_transformer.cpp:25] Loading mean file from: /mnt/bigdisk/MANDIG2/digits/jobs/20200428-132136-11fe/mean.binaryproto
I0502 12:14:51.886173 22699 data_layer.cpp:45] output data size: 32,3,227,227
I0502 12:14:51.956691 22699 net.cpp:122] Setting up val-data
I0502 12:14:51.956725 22699 net.cpp:129] Top shape: 32 3 227 227 (4946784)
I0502 12:14:51.956734 22699 net.cpp:129] Top shape: 32 (32)
I0502 12:14:51.956740 22699 net.cpp:137] Memory required for data: 19787264
I0502 12:14:51.956753 22699 layer_factory.hpp:77] Creating layer label_val-data_1_split
I0502 12:14:51.956769 22699 net.cpp:84] Creating Layer label_val-data_1_split
I0502 12:14:51.956780 22699 net.cpp:406] label_val-data_1_split <- label
I0502 12:14:51.956791 22699 net.cpp:380] label_val-data_1_split -> label_val-data_1_split_0
I0502 12:14:51.956806 22699 net.cpp:380] label_val-data_1_split -> label_val-data_1_split_1
I0502 12:14:51.956900 22699 net.cpp:122] Setting up label_val-data_1_split
I0502 12:14:51.956912 22699 net.cpp:129] Top shape: 32 (32)
I0502 12:14:51.956919 22699 net.cpp:129] Top shape: 32 (32)
I0502 12:14:51.956926 22699 net.cpp:137] Memory required for data: 19787520
I0502 12:14:51.956936 22699 layer_factory.hpp:77] Creating layer conv1
I0502 12:14:51.956955 22699 net.cpp:84] Creating Layer conv1
I0502 12:14:51.956964 22699 net.cpp:406] conv1 <- data
I0502 12:14:51.956975 22699 net.cpp:380] conv1 -> conv1
I0502 12:14:51.977541 22699 net.cpp:122] Setting up conv1
I0502 12:14:51.977567 22699 net.cpp:129] Top shape: 32 96 55 55 (9292800)
I0502 12:14:51.977572 22699 net.cpp:137] Memory required for data: 56958720
I0502 12:14:51.977591 22699 layer_factory.hpp:77] Creating layer relu1
I0502 12:14:51.977603 22699 net.cpp:84] Creating Layer relu1
I0502 12:14:51.977610 22699 net.cpp:406] relu1 <- conv1
I0502 12:14:51.977618 22699 net.cpp:367] relu1 -> conv1 (in-place)
I0502 12:14:51.983561 22699 net.cpp:122] Setting up relu1
I0502 12:14:51.983582 22699 net.cpp:129] Top shape: 32 96 55 55 (9292800)
I0502 12:14:51.983588 22699 net.cpp:137] Memory required for data: 94129920
I0502 12:14:51.983595 22699 layer_factory.hpp:77] Creating layer norm1
I0502 12:14:51.983610 22699 net.cpp:84] Creating Layer norm1
I0502 12:14:51.983616 22699 net.cpp:406] norm1 <- conv1
I0502 12:14:51.983624 22699 net.cpp:380] norm1 -> norm1
I0502 12:14:51.984283 22699 net.cpp:122] Setting up norm1
I0502 12:14:51.984297 22699 net.cpp:129] Top shape: 32 96 55 55 (9292800)
I0502 12:14:51.984302 22699 net.cpp:137] Memory required for data: 131301120
I0502 12:14:51.984308 22699 layer_factory.hpp:77] Creating layer pool1
I0502 12:14:51.984318 22699 net.cpp:84] Creating Layer pool1
I0502 12:14:51.984324 22699 net.cpp:406] pool1 <- norm1
I0502 12:14:51.984333 22699 net.cpp:380] pool1 -> pool1
I0502 12:14:51.984371 22699 net.cpp:122] Setting up pool1
I0502 12:14:51.984380 22699 net.cpp:129] Top shape: 32 96 27 27 (2239488)
I0502 12:14:51.984385 22699 net.cpp:137] Memory required for data: 140259072
I0502 12:14:51.984390 22699 layer_factory.hpp:77] Creating layer conv2
I0502 12:14:51.984402 22699 net.cpp:84] Creating Layer conv2
I0502 12:14:51.984407 22699 net.cpp:406] conv2 <- pool1
I0502 12:14:51.984445 22699 net.cpp:380] conv2 -> conv2
I0502 12:14:52.008641 22699 net.cpp:122] Setting up conv2
I0502 12:14:52.008667 22699 net.cpp:129] Top shape: 32 256 27 27 (5971968)
I0502 12:14:52.008673 22699 net.cpp:137] Memory required for data: 164146944
I0502 12:14:52.008689 22699 layer_factory.hpp:77] Creating layer relu2
I0502 12:14:52.008705 22699 net.cpp:84] Creating Layer relu2
I0502 12:14:52.008713 22699 net.cpp:406] relu2 <- conv2
I0502 12:14:52.008723 22699 net.cpp:367] relu2 -> conv2 (in-place)
I0502 12:14:52.023355 22699 net.cpp:122] Setting up relu2
I0502 12:14:52.023376 22699 net.cpp:129] Top shape: 32 256 27 27 (5971968)
I0502 12:14:52.023381 22699 net.cpp:137] Memory required for data: 188034816
I0502 12:14:52.023388 22699 layer_factory.hpp:77] Creating layer norm2
I0502 12:14:52.023404 22699 net.cpp:84] Creating Layer norm2
I0502 12:14:52.023411 22699 net.cpp:406] norm2 <- conv2
I0502 12:14:52.023422 22699 net.cpp:380] norm2 -> norm2
I0502 12:14:52.024103 22699 net.cpp:122] Setting up norm2
I0502 12:14:52.024114 22699 net.cpp:129] Top shape: 32 256 27 27 (5971968)
I0502 12:14:52.024119 22699 net.cpp:137] Memory required for data: 211922688
I0502 12:14:52.024124 22699 layer_factory.hpp:77] Creating layer pool2
I0502 12:14:52.024137 22699 net.cpp:84] Creating Layer pool2
I0502 12:14:52.024142 22699 net.cpp:406] pool2 <- norm2
I0502 12:14:52.024148 22699 net.cpp:380] pool2 -> pool2
I0502 12:14:52.024183 22699 net.cpp:122] Setting up pool2
I0502 12:14:52.024189 22699 net.cpp:129] Top shape: 32 256 13 13 (1384448)
I0502 12:14:52.024194 22699 net.cpp:137] Memory required for data: 217460480
I0502 12:14:52.024199 22699 layer_factory.hpp:77] Creating layer conv3
I0502 12:14:52.024211 22699 net.cpp:84] Creating Layer conv3
I0502 12:14:52.024216 22699 net.cpp:406] conv3 <- pool2
I0502 12:14:52.024222 22699 net.cpp:380] conv3 -> conv3
I0502 12:14:52.040102 22699 net.cpp:122] Setting up conv3
I0502 12:14:52.040124 22699 net.cpp:129] Top shape: 32 384 13 13 (2076672)
I0502 12:14:52.040128 22699 net.cpp:137] Memory required for data: 225767168
I0502 12:14:52.040145 22699 layer_factory.hpp:77] Creating layer relu3
I0502 12:14:52.040156 22699 net.cpp:84] Creating Layer relu3
I0502 12:14:52.040161 22699 net.cpp:406] relu3 <- conv3
I0502 12:14:52.040169 22699 net.cpp:367] relu3 -> conv3 (in-place)
I0502 12:14:52.042094 22699 net.cpp:122] Setting up relu3
I0502 12:14:52.042105 22699 net.cpp:129] Top shape: 32 384 13 13 (2076672)
I0502 12:14:52.042112 22699 net.cpp:137] Memory required for data: 234073856
I0502 12:14:52.042119 22699 layer_factory.hpp:77] Creating layer conv4
I0502 12:14:52.042131 22699 net.cpp:84] Creating Layer conv4
I0502 12:14:52.042137 22699 net.cpp:406] conv4 <- conv3
I0502 12:14:52.042148 22699 net.cpp:380] conv4 -> conv4
I0502 12:14:52.079625 22699 net.cpp:122] Setting up conv4
I0502 12:14:52.079654 22699 net.cpp:129] Top shape: 32 384 13 13 (2076672)
I0502 12:14:52.079660 22699 net.cpp:137] Memory required for data: 242380544
I0502 12:14:52.079677 22699 layer_factory.hpp:77] Creating layer relu4
I0502 12:14:52.079692 22699 net.cpp:84] Creating Layer relu4
I0502 12:14:52.079701 22699 net.cpp:406] relu4 <- conv4
I0502 12:14:52.079715 22699 net.cpp:367] relu4 -> conv4 (in-place)
I0502 12:14:52.081522 22699 net.cpp:122] Setting up relu4
I0502 12:14:52.081538 22699 net.cpp:129] Top shape: 32 384 13 13 (2076672)
I0502 12:14:52.081545 22699 net.cpp:137] Memory required for data: 250687232
I0502 12:14:52.081552 22699 layer_factory.hpp:77] Creating layer conv5
I0502 12:14:52.081570 22699 net.cpp:84] Creating Layer conv5
I0502 12:14:52.081578 22699 net.cpp:406] conv5 <- conv4
I0502 12:14:52.081591 22699 net.cpp:380] conv5 -> conv5
I0502 12:14:52.116710 22699 net.cpp:122] Setting up conv5
I0502 12:14:52.116747 22699 net.cpp:129] Top shape: 32 256 13 13 (1384448)
I0502 12:14:52.116762 22699 net.cpp:137] Memory required for data: 256225024
I0502 12:14:52.116789 22699 layer_factory.hpp:77] Creating layer relu5
I0502 12:14:52.116811 22699 net.cpp:84] Creating Layer relu5
I0502 12:14:52.116818 22699 net.cpp:406] relu5 <- conv5
I0502 12:14:52.116864 22699 net.cpp:367] relu5 -> conv5 (in-place)
I0502 12:14:52.118149 22699 net.cpp:122] Setting up relu5
I0502 12:14:52.118168 22699 net.cpp:129] Top shape: 32 256 13 13 (1384448)
I0502 12:14:52.118176 22699 net.cpp:137] Memory required for data: 261762816
I0502 12:14:52.118183 22699 layer_factory.hpp:77] Creating layer pool5
I0502 12:14:52.118201 22699 net.cpp:84] Creating Layer pool5
I0502 12:14:52.118212 22699 net.cpp:406] pool5 <- conv5
I0502 12:14:52.118225 22699 net.cpp:380] pool5 -> pool5
I0502 12:14:52.118290 22699 net.cpp:122] Setting up pool5
I0502 12:14:52.118305 22699 net.cpp:129] Top shape: 32 256 6 6 (294912)
I0502 12:14:52.118315 22699 net.cpp:137] Memory required for data: 262942464
I0502 12:14:52.118322 22699 layer_factory.hpp:77] Creating layer fc6
I0502 12:14:52.118337 22699 net.cpp:84] Creating Layer fc6
I0502 12:14:52.118346 22699 net.cpp:406] fc6 <- pool5
I0502 12:14:52.118360 22699 net.cpp:380] fc6 -> fc6
I0502 12:14:52.511497 22699 net.cpp:122] Setting up fc6
I0502 12:14:52.511523 22699 net.cpp:129] Top shape: 32 4096 (131072)
I0502 12:14:52.511526 22699 net.cpp:137] Memory required for data: 263466752
I0502 12:14:52.511536 22699 layer_factory.hpp:77] Creating layer relu6
I0502 12:14:52.511546 22699 net.cpp:84] Creating Layer relu6
I0502 12:14:52.511552 22699 net.cpp:406] relu6 <- fc6
I0502 12:14:52.511561 22699 net.cpp:367] relu6 -> fc6 (in-place)
I0502 12:14:52.536715 22699 net.cpp:122] Setting up relu6
I0502 12:14:52.536741 22699 net.cpp:129] Top shape: 32 4096 (131072)
I0502 12:14:52.536746 22699 net.cpp:137] Memory required for data: 263991040
I0502 12:14:52.536752 22699 layer_factory.hpp:77] Creating layer drop6
I0502 12:14:52.536768 22699 net.cpp:84] Creating Layer drop6
I0502 12:14:52.536774 22699 net.cpp:406] drop6 <- fc6
I0502 12:14:52.536783 22699 net.cpp:367] drop6 -> fc6 (in-place)
I0502 12:14:52.536820 22699 net.cpp:122] Setting up drop6
I0502 12:14:52.536826 22699 net.cpp:129] Top shape: 32 4096 (131072)
I0502 12:14:52.536831 22699 net.cpp:137] Memory required for data: 264515328
I0502 12:14:52.536836 22699 layer_factory.hpp:77] Creating layer fc7
I0502 12:14:52.536845 22699 net.cpp:84] Creating Layer fc7
I0502 12:14:52.536851 22699 net.cpp:406] fc7 <- fc6
I0502 12:14:52.536861 22699 net.cpp:380] fc7 -> fc7
I0502 12:14:52.994307 22699 net.cpp:122] Setting up fc7
I0502 12:14:52.994331 22699 net.cpp:129] Top shape: 32 4096 (131072)
I0502 12:14:52.994336 22699 net.cpp:137] Memory required for data: 265039616
I0502 12:14:52.994347 22699 layer_factory.hpp:77] Creating layer relu7
I0502 12:14:52.994359 22699 net.cpp:84] Creating Layer relu7
I0502 12:14:52.994364 22699 net.cpp:406] relu7 <- fc7
I0502 12:14:52.994371 22699 net.cpp:367] relu7 -> fc7 (in-place)
I0502 12:14:52.994837 22699 net.cpp:122] Setting up relu7
I0502 12:14:52.994848 22699 net.cpp:129] Top shape: 32 4096 (131072)
I0502 12:14:52.994851 22699 net.cpp:137] Memory required for data: 265563904
I0502 12:14:52.994856 22699 layer_factory.hpp:77] Creating layer drop7
I0502 12:14:52.994865 22699 net.cpp:84] Creating Layer drop7
I0502 12:14:52.994870 22699 net.cpp:406] drop7 <- fc7
I0502 12:14:52.994875 22699 net.cpp:367] drop7 -> fc7 (in-place)
I0502 12:14:52.994901 22699 net.cpp:122] Setting up drop7
I0502 12:14:52.994906 22699 net.cpp:129] Top shape: 32 4096 (131072)
I0502 12:14:52.994911 22699 net.cpp:137] Memory required for data: 266088192
I0502 12:14:52.994915 22699 layer_factory.hpp:77] Creating layer fc8
I0502 12:14:52.994925 22699 net.cpp:84] Creating Layer fc8
I0502 12:14:52.994930 22699 net.cpp:406] fc8 <- fc7
I0502 12:14:52.994938 22699 net.cpp:380] fc8 -> fc8
I0502 12:14:53.013509 22699 net.cpp:122] Setting up fc8
I0502 12:14:53.013538 22699 net.cpp:129] Top shape: 32 196 (6272)
I0502 12:14:53.013543 22699 net.cpp:137] Memory required for data: 266113280
I0502 12:14:53.013557 22699 layer_factory.hpp:77] Creating layer fc8_fc8_0_split
I0502 12:14:53.013572 22699 net.cpp:84] Creating Layer fc8_fc8_0_split
I0502 12:14:53.013579 22699 net.cpp:406] fc8_fc8_0_split <- fc8
I0502 12:14:53.013590 22699 net.cpp:380] fc8_fc8_0_split -> fc8_fc8_0_split_0
I0502 12:14:53.013629 22699 net.cpp:380] fc8_fc8_0_split -> fc8_fc8_0_split_1
I0502 12:14:53.013676 22699 net.cpp:122] Setting up fc8_fc8_0_split
I0502 12:14:53.013686 22699 net.cpp:129] Top shape: 32 196 (6272)
I0502 12:14:53.013695 22699 net.cpp:129] Top shape: 32 196 (6272)
I0502 12:14:53.013700 22699 net.cpp:137] Memory required for data: 266163456
I0502 12:14:53.013705 22699 layer_factory.hpp:77] Creating layer accuracy
I0502 12:14:53.013715 22699 net.cpp:84] Creating Layer accuracy
I0502 12:14:53.013722 22699 net.cpp:406] accuracy <- fc8_fc8_0_split_0
I0502 12:14:53.013729 22699 net.cpp:406] accuracy <- label_val-data_1_split_0
I0502 12:14:53.013737 22699 net.cpp:380] accuracy -> accuracy
…
