…
I0507 15:48:23.785684  7142 net.cpp:294] The NetState phase (0) differed from the phase (1) specified by a rule in layer loss3/top-5
I0507 15:48:23.786545  7142 net.cpp:51] Initializing net from parameters:
state {
phase: TRAIN
level: 0
stage: ""
}
layer {
name: "train-data"
type: "Data"
top: "data"
top: "label"
include {
phase: TRAIN
}
transform_param {
mirror: true
crop_size: 224
mean_file: "/mnt/bigdisk/MANDIG4/digits/jobs/20200507-113700-33e0/mean.binaryproto"
}
data_param {
source: "/mnt/bigdisk/MANDIG4/digits/jobs/20200507-113700-33e0/train_db"
batch_size: 32
backend: LMDB
}
}
layer {
name: "conv1/7x7_s2"
type: "Convolution"
bottom: "data"
top: "conv1/7x7_s2"
param {
lr_mult: 1
decay_mult: 1
}
param {
lr_mult: 2
decay_mult: 0
}
convolution_param {
num_output: 64
pad: 3
kernel_size: 7
stride: 2
weight_filler {
type: "xavier"
std: 0.1
}
bias_filler {
type: "constant"
value: 0.2
}
}
}
layer {
name: "conv1/relu_7x7"
type: "ReLU"
bottom: "conv1/7x7_s2"
top: "conv1/7x7_s2"
}
layer {
name: "pool1/3x3_s2"
type: "Pooling"
bottom: "conv1/7x7_s2"
top: "pool1/3x3_s2"
pooling_param {
pool: MAX
kernel_size: 3
stride: 2
}
}
layer {
name: "pool1/norm1"
type: "LRN"
bottom: "pool1/3x3_s2"
top: "pool1/norm1"
lrn_param {
local_size: 5
alpha: 0.0001
beta: 0.75
}
}
layer {
name: "conv2/3x3_reduce"
type: "Convolution"
bottom: "pool1/norm1"
top: "conv2/3x3_reduce"
param {
lr_mult: 1
decay_mult: 1
}
param {
lr_mult: 2
decay_mult: 0
}
convolution_param {
num_output: 64
kernel_size: 1
weight_filler {
type: "xavier"
std: 0.1
}
bias_filler {
type: "constant"
value: 0.2
}
}
}
layer {
name: "conv2/relu_3x3_reduce"
type: "ReLU"
bottom: "conv2/3x3_reduce"
top: "conv2/3x3_reduce"
}
layer {
name: "conv2/3x3"
type: "Convolution"
bottom: "conv2/3x3_reduce"
top: "conv2/3x3"
param {
lr_mult: 1
decay_mult: 1
}
param {
lr_mult: 2
decay_mult: 0
}
convolution_param {
num_output: 192
pad: 1
kernel_size: 3
weight_filler {
type: "xavier"
std: 0.03
}
bias_filler {
type: "constant"
value: 0.2
}
}
}
layer {
name: "conv2/relu_3x3"
type: "ReLU"
bottom: "conv2/3x3"
top: "conv2/3x3"
}
layer {
name: "conv2/norm2"
type: "LRN"
bottom: "conv2/3x3"
top: "conv2/norm2"
lrn_param {
local_size: 5
alpha: 0.0001
beta: 0.75
}
}
layer {
name: "pool2/3x3_s2"
type: "Pooling"
bottom: "conv2/norm2"
top: "pool2/3x3_s2"
pooling_param {
pool: MAX
kernel_size: 3
stride: 2
}
}
layer {
name: "inception_3a/1x1"
type: "Convolution"
bottom: "pool2/3x3_s2"
top: "inception_3a/1x1"
param {
lr_mult: 1
decay_mult: 1
}
param {
lr_mult: 2
decay_mult: 0
}
convolution_param {
num_output: 64
kernel_size: 1
weight_filler {
type: "xavier"
std: 0.03
}
bias_filler {
type: "constant"
value: 0.2
}
}
}
layer {
name: "inception_3a/relu_1x1"
type: "ReLU"
bottom: "inception_3a/1x1"
top: "inception_3a/1x1"
}
layer {
name: "inception_3a/3x3_reduce"
type: "Convolution"
bottom: "pool2/3x3_s2"
top: "inception_3a/3x3_reduce"
param {
lr_mult: 1
decay_mult: 1
}
param {
lr_mult: 2
decay_mult: 0
}
convolution_param {
num_output: 96
kernel_size: 1
weight_filler {
type: "xavier"
std: 0.09
}
bias_filler {
type: "constant"
value: 0.2
}
}
}
layer {
name: "inception_3a/relu_3x3_reduce"
type: "ReLU"
bottom: "inception_3a/3x3_reduce"
top: "inception_3a/3x3_reduce"
}
layer {
name: "inception_3a/3x3"
type: "Convolution"
bottom: "inception_3a/3x3_reduce"
top: "inception_3a/3x3"
param {
lr_mult: 1
decay_mult: 1
}
param {
lr_mult: 2
decay_mult: 0
}
convolution_param {
num_output: 128
pad: 1
kernel_size: 3
weight_filler {
type: "xavier"
std: 0.03
}
bias_filler {
type: "constant"
value: 0.2
}
}
}
layer {
name: "inception_3a/relu_3x3"
type: "ReLU"
bottom: "inception_3a/3x3"
top: "inception_3a/3x3"
}
layer {
name: "inception_3a/5x5_reduce"
type: "Convolution"
bottom: "pool2/3x3_s2"
top: "inception_3a/5x5_reduce"
param {
lr_mult: 1
decay_mult: 1
}
param {
lr_mult: 2
decay_mult: 0
}
convolution_param {
num_output: 16
kernel_size: 1
weight_filler {
type: "xavier"
std: 0.2
}
bias_filler {
type: "constant"
value: 0.2
}
}
}
layer {
name: "inception_3a/relu_5x5_reduce"
type: "ReLU"
bottom: "inception_3a/5x5_reduce"
top: "inception_3a/5x5_reduce"
}
layer {
name: "inception_3a/5x5"
type: "Convolution"
bottom: "inception_3a/5x5_reduce"
top: "inception_3a/5x5"
param {
lr_mult: 1
decay_mult: 1
}
param {
lr_mult: 2
decay_mult: 0
}
convolution_param {
num_output: 32
pad: 2
kernel_size: 5
weight_filler {
type: "xavier"
std: 0.03
}
bias_filler {
type: "constant"
value: 0.2
}
}
}
layer {
name: "inception_3a/relu_5x5"
type: "ReLU"
bottom: "inception_3a/5x5"
top: "inception_3a/5x5"
}
layer {
name: "inception_3a/pool"
type: "Pooling"
bottom: "pool2/3x3_s2"
top: "inception_3a/pool"
pooling_param {
pool: MAX
kernel_size: 3
stride: 1
pad: 1
}
}
layer {
name: "inception_3a/pool_proj"
type: "Convolution"
bottom: "inception_3a/pool"
top: "inception_3a/pool_proj"
param {
lr_mult: 1
decay_mult: 1
}
param {
lr_mult: 2
decay_mult: 0
}
convolution_param {
num_output: 32
kernel_size: 1
weight_filler {
type: "xavier"
std: 0.1
}
bias_filler {
type: "constant"
value: 0.2
}
}
}
layer {
name: "inception_3a/relu_pool_proj"
type: "ReLU"
bottom: "inception_3a/pool_proj"
top: "inception_3a/pool_proj"
}
layer {
name: "inception_3a/output"
type: "Concat"
bottom: "inception_3a/1x1"
bottom: "inception_3a/3x3"
bottom: "inception_3a/5x5"
bottom: "inception_3a/pool_proj"
top: "inception_3a/output"
}
layer {
name: "inception_3b/1x1"
type: "Convolution"
bottom: "inception_3a/output"
top: "inception_3b/1x1"
param {
lr_mult: 1
decay_mult: 1
}
param {
lr_mult: 2
decay_mult: 0
}
convolution_param {
num_output: 128
kernel_size: 1
weight_filler {
type: "xavier"
std: 0.03
}
bias_filler {
type: "constant"
value: 0.2
}
}
}
layer {
name: "inception_3b/relu_1x1"
type: "ReLU"
bottom: "inception_3b/1x1"
top: "inception_3b/1x1"
}
layer {
name: "inception_3b/3x3_reduce"
type: "Convolution"
bottom: "inception_3a/output"
top: "inception_3b/3x3_reduce"
param {
lr_mult: 1
decay_mult: 1
}
param {
lr_mult: 2
decay_mult: 0
}
convolution_param {
num_output: 128
kernel_size: 1
weight_filler {
type: "xavier"
std: 0.09
}
bias_filler {
type: "constant"
value: 0.2
}
}
}
layer {
name: "inception_3b/relu_3x3_reduce"
type: "ReLU"
bottom: "inception_3b/3x3_reduce"
top: "inception_3b/3x3_reduce"
}
layer {
name: "inception_3b/3x3"
type: "Convolution"
bottom: "inception_3b/3x3_reduce"
top: "inception_3b/3x3"
param {
lr_mult: 1
decay_mult: 1
}
param {
lr_mult: 2
decay_mult: 0
}
convolution_param {
num_output: 192
pad: 1
kernel_size: 3
weight_filler {
type: "xavier"
std: 0.03
}
bias_filler {
type: "constant"
value: 0.2
}
}
}
layer {
name: "inception_3b/relu_3x3"
type: "ReLU"
bottom: "inception_3b/3x3"
top: "inception_3b/3x3"
}
layer {
name: "inception_3b/5x5_reduce"
type: "Convolution"
bottom: "inception_3a/output"
top: "inception_3b/5x5_reduce"
param {
lr_mult: 1
decay_mult: 1
}
param {
lr_mult: 2
decay_mult: 0
}
convolution_param {
num_output: 32
kernel_size: 1
weight_filler {
type: "xavier"
std: 0.2
}
bias_filler {
type: "constant"
value: 0.2
}
}
}
layer {
name: "inception_3b/relu_5x5_reduce"
type: "ReLU"
bottom: "inception_3b/5x5_reduce"
top: "inception_3b/5x5_reduce"
}
layer {
name: "inception_3b/5x5"
type: "Convolution"
bottom: "inception_3b/5x5_reduce"
top: "inception_3b/5x5"
param {
lr_mult: 1
decay_mult: 1
}
param {
lr_mult: 2
decay_mult: 0
}
convolution_param {
num_output: 96
pad: 2
kernel_size: 5
weight_filler {
type: "xavier"
std: 0.03
}
bias_filler {
type: "constant"
value: 0.2
}
}
}
layer {
name: "inception_3b/relu_5x5"
type: "ReLU"
bottom: "inception_3b/5x5"
top: "inception_3b/5x5"
}
layer {
name: "inception_3b/pool"
type: "Pooling"
bottom: "inception_3a/output"
top: "inception_3b/pool"
pooling_param {
pool: MAX
kernel_size: 3
stride: 1
pad: 1
}
}
layer {
name: "inception_3b/pool_proj"
type: "Convolution"
bottom: "inception_3b/pool"
top: "inception_3b/pool_proj"
param {
lr_mult: 1
decay_mult: 1
}
param {
lr_mult: 2
decay_mult: 0
}
convolution_param {
num_output: 64
kernel_size: 1
weight_filler {
type: "xavier"
std: 0.1
}
bias_filler {
type: "constant"
value: 0.2
}
}
}
layer {
name: "inception_3b/relu_pool_proj"
type: "ReLU"
bottom: "inception_3b/pool_proj"
top: "inception_3b/pool_proj"
}
layer {
name: "inception_3b/output"
type: "Concat"
bottom: "inception_3b/1x1"
bottom: "inception_3b/3x3"
bottom: "inception_3b/5x5"
bottom: "inception_3b/pool_proj"
top: "inception_3b/output"
}
layer {
name: "pool3/3x3_s2"
type: "Pooling"
bottom: "inception_3b/output"
top: "pool3/3x3_s2"
pooling_param {
pool: MAX
kernel_size: 3
stride: 2
}
}
layer {
name: "inception_4a/1x1"
type: "Convolution"
bottom: "pool3/3x3_s2"
top: "inception_4a/1x1"
param {
lr_mult: 1
decay_mult: 1
}
param {
lr_mult: 2
decay_mult: 0
}
convolution_param {
num_output: 192
kernel_size: 1
weight_filler {
type: "xavier"
std: 0.03
}
bias_filler {
type: "constant"
value: 0.2
}
}
}
layer {
name: "inception_4a/relu_1x1"
type: "ReLU"
bottom: "inception_4a/1x1"
top: "inception_4a/1x1"
}
layer {
name: "inception_4a/3x3_reduce"
type: "Convolution"
bottom: "pool3/3x3_s2"
top: "inception_4a/3x3_reduce"
param {
lr_mult: 1
decay_mult: 1
}
param {
lr_mult: 2
decay_mult: 0
}
convolution_param {
num_output: 96
kernel_size: 1
weight_filler {
type: "xavier"
std: 0.09
}
bias_filler {
type: "constant"
value: 0.2
}
}
}
layer {
name: "inception_4a/relu_3x3_reduce"
type: "ReLU"
bottom: "inception_4a/3x3_reduce"
top: "inception_4a/3x3_reduce"
}
layer {
name: "inception_4a/3x3"
type: "Convolution"
bottom: "inception_4a/3x3_reduce"
top: "inception_4a/3x3"
param {
lr_mult: 1
decay_mult: 1
}
param {
lr_mult: 2
decay_mult: 0
}
convolution_param {
num_output: 208
pad: 1
kernel_size: 3
weight_filler {
type: "xavier"
std: 0.03
}
bias_filler {
type: "constant"
value: 0.2
}
}
}
layer {
name: "inception_4a/relu_3x3"
type: "ReLU"
bottom: "inception_4a/3x3"
top: "inception_4a/3x3"
}
layer {
name: "inception_4a/5x5_reduce"
type: "Convolution"
bottom: "pool3/3x3_s2"
top: "inception_4a/5x5_reduce"
param {
lr_mult: 1
decay_mult: 1
}
param {
lr_mult: 2
decay_mult: 0
}
convolution_param {
num_output: 16
kernel_size: 1
weight_filler {
type: "xavier"
std: 0.2
}
bias_filler {
type: "constant"
value: 0.2
}
}
}
layer {
name: "inception_4a/relu_5x5_reduce"
type: "ReLU"
bottom: "inception_4a/5x5_reduce"
top: "inception_4a/5x5_reduce"
}
layer {
name: "inception_4a/5x5"
type: "Convolution"
bottom: "inception_4a/5x5_reduce"
top: "inception_4a/5x5"
param {
lr_mult: 1
decay_mult: 1
}
param {
lr_mult: 2
decay_mult: 0
}
convolution_param {
num_output: 48
pad: 2
kernel_size: 5
weight_filler {
type: "xavier"
std: 0.03
}
bias_filler {
type: "constant"
value: 0.2
}
}
}
layer {
name: "inception_4a/relu_5x5"
type: "ReLU"
bottom: "inception_4a/5x5"
top: "inception_4a/5x5"
}
layer {
name: "inception_4a/pool"
type: "Pooling"
bottom: "pool3/3x3_s2"
top: "inception_4a/pool"
pooling_param {
pool: MAX
kernel_size: 3
stride: 1
pad: 1
}
}
layer {
name: "inception_4a/pool_proj"
type: "Convolution"
bottom: "inception_4a/pool"
top: "inception_4a/pool_proj"
param {
lr_mult: 1
decay_mult: 1
}
param {
lr_mult: 2
decay_mult: 0
}
convolution_param {
num_output: 64
kernel_size: 1
weight_filler {
type: "xavier"
std: 0.1
}
bias_filler {
type: "constant"
value: 0.2
}
}
}
layer {
name: "inception_4a/relu_pool_proj"
type: "ReLU"
bottom: "inception_4a/pool_proj"
top: "inception_4a/pool_proj"
}
layer {
name: "inception_4a/output"
type: "Concat"
bottom: "inception_4a/1x1"
bottom: "inception_4a/3x3"
bottom: "inception_4a/5x5"
bottom: "inception_4a/pool_proj"
top: "inception_4a/output"
}
layer {
name: "loss1/ave_pool"
type: "Pooling"
bottom: "inception_4a/output"
top: "loss1/ave_pool"
pooling_param {
pool: AVE
kernel_size: 5
stride: 3
}
}
layer {
name: "loss1/conv"
type: "Convolution"
bottom: "loss1/ave_pool"
top: "loss1/conv"
param {
lr_mult: 1
decay_mult: 1
}
param {
lr_mult: 2
decay_mult: 0
}
convolution_param {
num_output: 128
kernel_size: 1
weight_filler {
type: "xavier"
std: 0.08
}
bias_filler {
type: "constant"
value: 0.2
}
}
}
layer {
name: "loss1/relu_conv"
type: "ReLU"
bottom: "loss1/conv"
top: "loss1/conv"
}
layer {
name: "loss1/fc"
type: "InnerProduct"
bottom: "loss1/conv"
top: "loss1/fc"
param {
lr_mult: 1
decay_mult: 1
}
param {
lr_mult: 2
decay_mult: 0
}
inner_product_param {
num_output: 1024
weight_filler {
type: "xavier"
std: 0.02
}
bias_filler {
type: "constant"
value: 0.2
}
}
}
layer {
name: "loss1/relu_fc"
type: "ReLU"
bottom: "loss1/fc"
top: "loss1/fc"
}
layer {
name: "loss1/drop_fc"
type: "Dropout"
bottom: "loss1/fc"
top: "loss1/fc"
dropout_param {
dropout_ratio: 0.7
}
}
layer {
name: "loss1/classifier"
type: "InnerProduct"
bottom: "loss1/fc"
top: "loss1/classifier"
param {
lr_mult: 1
decay_mult: 1
}
param {
lr_mult: 2
decay_mult: 0
}
inner_product_param {
num_output: 196
weight_filler {
type: "xavier"
std: 0.0009765625
}
bias_filler {
type: "constant"
value: 0
}
}
}
layer {
name: "loss1/loss"
type: "SoftmaxWithLoss"
bottom: "loss1/classifier"
bottom: "label"
top: "loss1/loss"
loss_weight: 0.3
}
layer {
name: "inception_4b/1x1"
type: "Convolution"
bottom: "inception_4a/output"
top: "inception_4b/1x1"
param {
lr_mult: 1
decay_mult: 1
}
param {
lr_mult: 2
decay_mult: 0
}
convolution_param {
num_output: 160
kernel_size: 1
weight_filler {
type: "xavier"
std: 0.03
}
bias_filler {
type: "constant"
value: 0.2
}
}
}
layer {
name: "inception_4b/relu_1x1"
type: "ReLU"
bottom: "inception_4b/1x1"
top: "inception_4b/1x1"
}
layer {
name: "inception_4b/3x3_reduce"
type: "Convolution"
bottom: "inception_4a/output"
top: "inception_4b/3x3_reduce"
param {
lr_mult: 1
decay_mult: 1
}
param {
lr_mult: 2
decay_mult: 0
}
convolution_param {
num_output: 112
kernel_size: 1
weight_filler {
type: "xavier"
std: 0.09
}
bias_filler {
type: "constant"
value: 0.2
}
}
}
layer {
name: "inception_4b/relu_3x3_reduce"
type: "ReLU"
bottom: "inception_4b/3x3_reduce"
top: "inception_4b/3x3_reduce"
}
layer {
name: "inception_4b/3x3"
type: "Convolution"
bottom: "inception_4b/3x3_reduce"
top: "inception_4b/3x3"
param {
lr_mult: 1
decay_mult: 1
}
param {
lr_mult: 2
decay_mult: 0
}
convolution_param {
num_output: 224
pad: 1
kernel_size: 3
weight_filler {
type: "xavier"
std: 0.03
}
bias_filler {
type: "constant"
value: 0.2
}
}
}
layer {
name: "inception_4b/relu_3x3"
type: "ReLU"
bottom: "inception_4b/3x3"
top: "inception_4b/3x3"
}
layer {
name: "inception_4b/5x5_reduce"
type: "Convolution"
bottom: "inception_4a/output"
top: "inception_4b/5x5_reduce"
param {
lr_mult: 1
decay_mult: 1
}
param {
lr_mult: 2
decay_mult: 0
}
convolution_param {
num_output: 24
kernel_size: 1
weight_filler {
type: "xavier"
std: 0.2
}
bias_filler {
type: "constant"
value: 0.2
}
}
}
layer {
name: "inception_4b/relu_5x5_reduce"
type: "ReLU"
bottom: "inception_4b/5x5_reduce"
top: "inception_4b/5x5_reduce"
}
layer {
name: "inception_4b/5x5"
type: "Convolution"
bottom: "inception_4b/5x5_reduce"
top: "inception_4b/5x5"
param {
lr_mult: 1
decay_mult: 1
}
param {
lr_mult: 2
decay_mult: 0
}
convolution_param {
num_output: 64
pad: 2
kernel_size: 5
weight_filler {
type: "xavier"
std: 0.03
}
bias_filler {
type: "constant"
value: 0.2
}
}
}
layer {
name: "inception_4b/relu_5x5"
type: "ReLU"
bottom: "inception_4b/5x5"
top: "inception_4b/5x5"
}
layer {
name: "inception_4b/pool"
type: "Pooling"
bottom: "inception_4a/output"
top: "inception_4b/pool"
pooling_param {
pool: MAX
kernel_size: 3
stride: 1
pad: 1
}
}
layer {
name: "inception_4b/pool_proj"
type: "Convolution"
bottom: "inception_4b/pool"
top: "inception_4b/pool_proj"
param {
lr_mult: 1
decay_mult: 1
}
param {
lr_mult: 2
decay_mult: 0
}
convolution_param {
num_output: 64
kernel_size: 1
weight_filler {
type: "xavier"
std: 0.1
}
bias_filler {
type: "constant"
value: 0.2
}
}
}
layer {
name: "inception_4b/relu_pool_proj"
type: "ReLU"
bottom: "inception_4b/pool_proj"
top: "inception_4b/pool_proj"
}
layer {
name: "inception_4b/output"
type: "Concat"
bottom: "inception_4b/1x1"
bottom: "inception_4b/3x3"
bottom: "inception_4b/5x5"
bottom: "inception_4b/pool_proj"
top: "inception_4b/output"
}
layer {
name: "inception_4c/1x1"
type: "Convolution"
bottom: "inception_4b/output"
top: "inception_4c/1x1"
param {
lr_mult: 1
decay_mult: 1
}
param {
lr_mult: 2
decay_mult: 0
}
convolution_param {
num_output: 128
kernel_size: 1
weight_filler {
type: "xavier"
std: 0.03
}
bias_filler {
type: "constant"
value: 0.2
}
}
}
layer {
name: "inception_4c/relu_1x1"
type: "ReLU"
bottom: "inception_4c/1x1"
top: "inception_4c/1x1"
}
layer {
name: "inception_4c/3x3_reduce"
type: "Convolution"
bottom: "inception_4b/output"
top: "inception_4c/3x3_reduce"
param {
lr_mult: 1
decay_mult: 1
}
param {
lr_mult: 2
decay_mult: 0
}
convolution_param {
num_output: 128
kernel_size: 1
weight_filler {
type: "xavier"
std: 0.09
}
bias_filler {
type: "constant"
value: 0.2
}
}
}
layer {
name: "inception_4c/relu_3x3_reduce"
type: "ReLU"
bottom: "inception_4c/3x3_reduce"
top: "inception_4c/3x3_reduce"
}
layer {
name: "inception_4c/3x3"
type: "Convolution"
bottom: "inception_4c/3x3_reduce"
top: "inception_4c/3x3"
param {
lr_mult: 1
decay_mult: 1
}
param {
lr_mult: 2
decay_mult: 0
}
convolution_param {
num_output: 256
pad: 1
kernel_size: 3
weight_filler {
type: "xavier"
std: 0.03
}
bias_filler {
type: "constant"
value: 0.2
}
}
}
layer {
name: "inception_4c/relu_3x3"
type: "ReLU"
bottom: "inception_4c/3x3"
top: "inception_4c/3x3"
}
layer {
name: "inception_4c/5x5_reduce"
type: "Convolution"
bottom: "inception_4b/output"
top: "inception_4c/5x5_reduce"
param {
lr_mult: 1
decay_mult: 1
}
param {
lr_mult: 2
decay_mult: 0
}
convolution_param {
num_output: 24
kernel_size: 1
weight_filler {
type: "xavier"
std: 0.2
}
bias_filler {
type: "constant"
value: 0.2
}
}
}
layer {
name: "inception_4c/relu_5x5_reduce"
type: "ReLU"
bottom: "inception_4c/5x5_reduce"
top: "inception_4c/5x5_reduce"
}
layer {
name: "inception_4c/5x5"
type: "Convolution"
bottom: "inception_4c/5x5_reduce"
top: "inception_4c/5x5"
param {
lr_mult: 1
decay_mult: 1
}
param {
lr_mult: 2
decay_mult: 0
}
convolution_param {
num_output: 64
pad: 2
kernel_size: 5
weight_filler {
type: "xavier"
std: 0.03
}
bias_filler {
type: "constant"
value: 0.2
}
}
}
layer {
name: "inception_4c/relu_5x5"
type: "ReLU"
bottom: "inception_4c/5x5"
top: "inception_4c/5x5"
}
layer {
name: "inception_4c/pool"
type: "Pooling"
bottom: "inception_4b/output"
top: "inception_4c/pool"
pooling_param {
pool: MAX
kernel_size: 3
stride: 1
pad: 1
}
}
layer {
name: "inception_4c/pool_proj"
type: "Convolution"
bottom: "inception_4c/pool"
top: "inception_4c/pool_proj"
param {
lr_mult: 1
decay_mult: 1
}
param {
lr_mult: 2
decay_mult: 0
}
convolution_param {
num_output: 64
kernel_size: 1
weight_filler {
type: "xavier"
std: 0.1
}
bias_filler {
type: "constant"
value: 0.2
}
}
}
layer {
name: "inception_4c/relu_pool_proj"
type: "ReLU"
bottom: "inception_4c/pool_proj"
top: "inception_4c/pool_proj"
}
layer {
name: "inception_4c/output"
type: "Concat"
bottom: "inception_4c/1x1"
bottom: "inception_4c/3x3"
bottom: "inception_4c/5x5"
bottom: "inception_4c/pool_proj"
top: "inception_4c/output"
}
layer {
name: "inception_4d/1x1"
type: "Convolution"
bottom: "inception_4c/output"
top: "inception_4d/1x1"
param {
lr_mult: 1
decay_mult: 1
}
param {
lr_mult: 2
decay_mult: 0
}
convolution_param {
num_output: 112
kernel_size: 1
weight_filler {
type: "xavier"
std: 0.03
}
bias_filler {
type: "constant"
value: 0.2
}
}
}
layer {
name: "inception_4d/relu_1x1"
type: "ReLU"
bottom: "inception_4d/1x1"
top: "inception_4d/1x1"
}
layer {
name: "inception_4d/3x3_reduce"
type: "Convolution"
bottom: "inception_4c/output"
top: "inception_4d/3x3_reduce"
param {
lr_mult: 1
decay_mult: 1
}
param {
lr_mult: 2
decay_mult: 0
}
convolution_param {
num_output: 144
kernel_size: 1
weight_filler {
type: "xavier"
std: 0.09
}
bias_filler {
type: "constant"
value: 0.2
}
}
}
layer {
name: "inception_4d/relu_3x3_reduce"
type: "ReLU"
bottom: "inception_4d/3x3_reduce"
top: "inception_4d/3x3_reduce"
}
layer {
name: "inception_4d/3x3"
type: "Convolution"
bottom: "inception_4d/3x3_reduce"
top: "inception_4d/3x3"
param {
lr_mult: 1
decay_mult: 1
}
param {
lr_mult: 2
decay_mult: 0
}
convolution_param {
num_output: 288
pad: 1
kernel_size: 3
weight_filler {
type: "xavier"
std: 0.03
}
bias_filler {
type: "constant"
value: 0.2
}
}
}
layer {
name: "inception_4d/relu_3x3"
type: "ReLU"
bottom: "inception_4d/3x3"
top: "inception_4d/3x3"
}
layer {
name: "inception_4d/5x5_reduce"
type: "Convolution"
bottom: "inception_4c/output"
top: "inception_4d/5x5_reduce"
param {
lr_mult: 1
decay_mult: 1
}
param {
lr_mult: 2
decay_mult: 0
}
convolution_param {
num_output: 32
kernel_size: 1
weight_filler {
type: "xavier"
std: 0.2
}
bias_filler {
type: "constant"
value: 0.2
}
}
}
layer {
name: "inception_4d/relu_5x5_reduce"
type: "ReLU"
bottom: "inception_4d/5x5_reduce"
top: "inception_4d/5x5_reduce"
}
layer {
name: "inception_4d/5x5"
type: "Convolution"
bottom: "inception_4d/5x5_reduce"
top: "inception_4d/5x5"
param {
lr_mult: 1
decay_mult: 1
}
param {
lr_mult: 2
decay_mult: 0
}
convolution_param {
num_output: 64
pad: 2
kernel_size: 5
weight_filler {
type: "xavier"
std: 0.03
}
bias_filler {
type: "constant"
value: 0.2
}
}
}
layer {
name: "inception_4d/relu_5x5"
type: "ReLU"
bottom: "inception_4d/5x5"
top: "inception_4d/5x5"
}
layer {
name: "inception_4d/pool"
type: "Pooling"
bottom: "inception_4c/output"
top: "inception_4d/pool"
pooling_param {
pool: MAX
kernel_size: 3
stride: 1
pad: 1
}
}
layer {
name: "inception_4d/pool_proj"
type: "Convolution"
bottom: "inception_4d/pool"
top: "inception_4d/pool_proj"
param {
lr_mult: 1
decay_mult: 1
}
param {
lr_mult: 2
decay_mult: 0
}
convolution_param {
num_output: 64
kernel_size: 1
weight_filler {
type: "xavier"
std: 0.1
}
bias_filler {
type: "constant"
value: 0.2
}
}
}
layer {
name: "inception_4d/relu_pool_proj"
type: "ReLU"
bottom: "inception_4d/pool_proj"
top: "inception_4d/pool_proj"
}
layer {
name: "inception_4d/output"
type: "Concat"
bottom: "inception_4d/1x1"
bottom: "inception_4d/3x3"
bottom: "inception_4d/5x5"
bottom: "inception_4d/pool_proj"
top: "inception_4d/output"
}
layer {
name: "loss2/ave_pool"
type: "Pooling"
bottom: "inception_4d/output"
top: "loss2/ave_pool"
pooling_param {
pool: AVE
kernel_size: 5
stride: 3
}
}
layer {
name: "loss2/conv"
type: "Convolution"
bottom: "loss2/ave_pool"
top: "loss2/conv"
param {
lr_mult: 1
decay_mult: 1
}
param {
lr_mult: 2
decay_mult: 0
}
convolution_param {
num_output: 128
kernel_size: 1
weight_filler {
type: "xavier"
std: 0.08
}
bias_filler {
type: "constant"
value: 0.2
}
}
}
layer {
name: "loss2/relu_conv"
type: "ReLU"
bottom: "loss2/conv"
top: "loss2/conv"
}
layer {
name: "loss2/fc"
type: "InnerProduct"
bottom: "loss2/conv"
top: "loss2/fc"
param {
lr_mult: 1
decay_mult: 1
}
param {
lr_mult: 2
decay_mult: 0
}
inner_product_param {
num_output: 1024
weight_filler {
type: "xavier"
std: 0.02
}
bias_filler {
type: "constant"
value: 0.2
}
}
}
layer {
name: "loss2/relu_fc"
type: "ReLU"
bottom: "loss2/fc"
top: "loss2/fc"
}
layer {
name: "loss2/drop_fc"
type: "Dropout"
bottom: "loss2/fc"
top: "loss2/fc"
dropout_param {
dropout_ratio: 0.7
}
}
layer {
name: "loss2/classifier"
type: "InnerProduct"
bottom: "loss2/fc"
top: "loss2/classifier"
param {
lr_mult: 1
decay_mult: 1
}
param {
lr_mult: 2
decay_mult: 0
}
inner_product_param {
num_output: 196
weight_filler {
type: "xavier"
std: 0.0009765625
}
bias_filler {
type: "constant"
value: 0
}
}
}
layer {
name: "loss2/loss"
type: "SoftmaxWithLoss"
bottom: "loss2/classifier"
bottom: "label"
top: "loss2/loss"
loss_weight: 0.3
}
layer {
name: "inception_4e/1x1"
type: "Convolution"
bottom: "inception_4d/output"
top: "inception_4e/1x1"
param {
lr_mult: 1
decay_mult: 1
}
param {
lr_mult: 2
decay_mult: 0
}
convolution_param {
num_output: 256
kernel_size: 1
weight_filler {
type: "xavier"
std: 0.03
}
bias_filler {
type: "constant"
value: 0.2
}
}
}
layer {
name: "inception_4e/relu_1x1"
type: "ReLU"
bottom: "inception_4e/1x1"
top: "inception_4e/1x1"
}
layer {
name: "inception_4e/3x3_reduce"
type: "Convolution"
bottom: "inception_4d/output"
top: "inception_4e/3x3_reduce"
param {
lr_mult: 1
decay_mult: 1
}
param {
lr_mult: 2
decay_mult: 0
}
convolution_param {
num_output: 160
kernel_size: 1
weight_filler {
type: "xavier"
std: 0.09
}
bias_filler {
type: "constant"
value: 0.2
}
}
}
layer {
name: "inception_4e/relu_3x3_reduce"
type: "ReLU"
bottom: "inception_4e/3x3_reduce"
top: "inception_4e/3x3_reduce"
}
layer {
name: "inception_4e/3x3"
type: "Convolution"
bottom: "inception_4e/3x3_reduce"
top: "inception_4e/3x3"
param {
lr_mult: 1
decay_mult: 1
}
param {
lr_mult: 2
decay_mult: 0
}
convolution_param {
num_output: 320
pad: 1
kernel_size: 3
weight_filler {
type: "xavier"
std: 0.03
}
bias_filler {
type: "constant"
value: 0.2
}
}
}
layer {
name: "inception_4e/relu_3x3"
type: "ReLU"
bottom: "inception_4e/3x3"
top: "inception_4e/3x3"
}
layer {
name: "inception_4e/5x5_reduce"
type: "Convolution"
bottom: "inception_4d/output"
top: "inception_4e/5x5_reduce"
param {
lr_mult: 1
decay_mult: 1
}
param {
lr_mult: 2
decay_mult: 0
}
convolution_param {
num_output: 32
kernel_size: 1
weight_filler {
type: "xavier"
std: 0.2
}
bias_filler {
type: "constant"
val
I0507 15:48:23.787142  7142 layer_factory.hpp:77] Creating layer train-data
I0507 15:48:23.791659  7142 db_lmdb.cpp:35] Opened lmdb /mnt/bigdisk/MANDIG4/digits/jobs/20200507-113700-33e0/train_db
I0507 15:48:23.791802  7142 net.cpp:84] Creating Layer train-data
I0507 15:48:23.791812  7142 net.cpp:380] train-data -> data
I0507 15:48:23.791831  7142 net.cpp:380] train-data -> label
I0507 15:48:23.791842  7142 data_transformer.cpp:25] Loading mean file from: /mnt/bigdisk/MANDIG4/digits/jobs/20200507-113700-33e0/mean.binaryproto
I0507 15:48:23.813194  7142 data_layer.cpp:45] output data size: 32,3,224,224
I0507 15:48:23.848417  7142 net.cpp:122] Setting up train-data
I0507 15:48:23.848441  7142 net.cpp:129] Top shape: 32 3 224 224 (4816896)
I0507 15:48:23.848446  7142 net.cpp:129] Top shape: 32 (32)
I0507 15:48:23.848449  7142 net.cpp:137] Memory required for data: 19267712
I0507 15:48:23.848459  7142 layer_factory.hpp:77] Creating layer label_train-data_1_split
I0507 15:48:23.848492  7142 net.cpp:84] Creating Layer label_train-data_1_split
I0507 15:48:23.848498  7142 net.cpp:406] label_train-data_1_split <- label
I0507 15:48:23.848510  7142 net.cpp:380] label_train-data_1_split -> label_train-data_1_split_0
I0507 15:48:23.848518  7142 net.cpp:380] label_train-data_1_split -> label_train-data_1_split_1
I0507 15:48:23.848525  7142 net.cpp:380] label_train-data_1_split -> label_train-data_1_split_2
I0507 15:48:23.848583  7142 net.cpp:122] Setting up label_train-data_1_split
I0507 15:48:23.848589  7142 net.cpp:129] Top shape: 32 (32)
I0507 15:48:23.848593  7142 net.cpp:129] Top shape: 32 (32)
I0507 15:48:23.848598  7142 net.cpp:129] Top shape: 32 (32)
I0507 15:48:23.848599  7142 net.cpp:137] Memory required for data: 19268096
I0507 15:48:23.848603  7142 layer_factory.hpp:77] Creating layer conv1/7x7_s2
I0507 15:48:23.848619  7142 net.cpp:84] Creating Layer conv1/7x7_s2
I0507 15:48:23.848623  7142 net.cpp:406] conv1/7x7_s2 <- data
I0507 15:48:23.848628  7142 net.cpp:380] conv1/7x7_s2 -> conv1/7x7_s2
I0507 15:48:24.793570  7142 net.cpp:122] Setting up conv1/7x7_s2
I0507 15:48:24.793592  7142 net.cpp:129] Top shape: 32 64 112 112 (25690112)
I0507 15:48:24.793596  7142 net.cpp:137] Memory required for data: 122028544
I0507 15:48:24.793618  7142 layer_factory.hpp:77] Creating layer conv1/relu_7x7
I0507 15:48:24.793628  7142 net.cpp:84] Creating Layer conv1/relu_7x7
I0507 15:48:24.793632  7142 net.cpp:406] conv1/relu_7x7 <- conv1/7x7_s2
I0507 15:48:24.793639  7142 net.cpp:367] conv1/relu_7x7 -> conv1/7x7_s2 (in-place)
I0507 15:48:24.793993  7142 net.cpp:122] Setting up conv1/relu_7x7
I0507 15:48:24.794001  7142 net.cpp:129] Top shape: 32 64 112 112 (25690112)
I0507 15:48:24.794005  7142 net.cpp:137] Memory required for data: 224788992
I0507 15:48:24.794009  7142 layer_factory.hpp:77] Creating layer pool1/3x3_s2
I0507 15:48:24.794019  7142 net.cpp:84] Creating Layer pool1/3x3_s2
I0507 15:48:24.794023  7142 net.cpp:406] pool1/3x3_s2 <- conv1/7x7_s2
I0507 15:48:24.794028  7142 net.cpp:380] pool1/3x3_s2 -> pool1/3x3_s2
I0507 15:48:24.794070  7142 net.cpp:122] Setting up pool1/3x3_s2
I0507 15:48:24.794078  7142 net.cpp:129] Top shape: 32 64 56 56 (6422528)
I0507 15:48:24.794081  7142 net.cpp:137] Memory required for data: 250479104
I0507 15:48:24.794085  7142 layer_factory.hpp:77] Creating layer pool1/norm1
I0507 15:48:24.794092  7142 net.cpp:84] Creating Layer pool1/norm1
I0507 15:48:24.794095  7142 net.cpp:406] pool1/norm1 <- pool1/3x3_s2
I0507 15:48:24.794101  7142 net.cpp:380] pool1/norm1 -> pool1/norm1
I0507 15:48:24.794646  7142 net.cpp:122] Setting up pool1/norm1
I0507 15:48:24.794656  7142 net.cpp:129] Top shape: 32 64 56 56 (6422528)
I0507 15:48:24.794658  7142 net.cpp:137] Memory required for data: 276169216
I0507 15:48:24.794662  7142 layer_factory.hpp:77] Creating layer conv2/3x3_reduce
I0507 15:48:24.794675  7142 net.cpp:84] Creating Layer conv2/3x3_reduce
I0507 15:48:24.794679  7142 net.cpp:406] conv2/3x3_reduce <- pool1/norm1
I0507 15:48:24.794688  7142 net.cpp:380] conv2/3x3_reduce -> conv2/3x3_reduce
I0507 15:48:24.796366  7142 net.cpp:122] Setting up conv2/3x3_reduce
I0507 15:48:24.796376  7142 net.cpp:129] Top shape: 32 64 56 56 (6422528)
I0507 15:48:24.796380  7142 net.cpp:137] Memory required for data: 301859328
I0507 15:48:24.796387  7142 layer_factory.hpp:77] Creating layer conv2/relu_3x3_reduce
I0507 15:48:24.796393  7142 net.cpp:84] Creating Layer conv2/relu_3x3_reduce
I0507 15:48:24.796397  7142 net.cpp:406] conv2/relu_3x3_reduce <- conv2/3x3_reduce
I0507 15:48:24.796403  7142 net.cpp:367] conv2/relu_3x3_reduce -> conv2/3x3_reduce (in-place)
I0507 15:48:24.796751  7142 net.cpp:122] Setting up conv2/relu_3x3_reduce
I0507 15:48:24.796764  7142 net.cpp:129] Top shape: 32 64 56 56 (6422528)
I0507 15:48:24.796767  7142 net.cpp:137] Memory required for data: 327549440
I0507 15:48:24.796770  7142 layer_factory.hpp:77] Creating layer conv2/3x3
I0507 15:48:24.796782  7142 net.cpp:84] Creating Layer conv2/3x3
I0507 15:48:24.796785  7142 net.cpp:406] conv2/3x3 <- conv2/3x3_reduce
I0507 15:48:24.796813  7142 net.cpp:380] conv2/3x3 -> conv2/3x3
I0507 15:48:24.802100  7142 net.cpp:122] Setting up conv2/3x3
I0507 15:48:24.802114  7142 net.cpp:129] Top shape: 32 192 56 56 (19267584)
I0507 15:48:24.802117  7142 net.cpp:137] Memory required for data: 404619776
I0507 15:48:24.802126  7142 layer_factory.hpp:77] Creating layer conv2/relu_3x3
I0507 15:48:24.802132  7142 net.cpp:84] Creating Layer conv2/relu_3x3
I0507 15:48:24.802136  7142 net.cpp:406] conv2/relu_3x3 <- conv2/3x3
I0507 15:48:24.802143  7142 net.cpp:367] conv2/relu_3x3 -> conv2/3x3 (in-place)
I0507 15:48:24.802507  7142 net.cpp:122] Setting up conv2/relu_3x3
I0507 15:48:24.802516  7142 net.cpp:129] Top shape: 32 192 56 56 (19267584)
I0507 15:48:24.802520  7142 net.cpp:137] Memory required for data: 481690112
I0507 15:48:24.802522  7142 layer_factory.hpp:77] Creating layer conv2/norm2
I0507 15:48:24.802531  7142 net.cpp:84] Creating Layer conv2/norm2
I0507 15:48:24.802534  7142 net.cpp:406] conv2/norm2 <- conv2/3x3
I0507 15:48:24.802541  7142 net.cpp:380] conv2/norm2 -> conv2/norm2
I0507 15:48:24.803066  7142 net.cpp:122] Setting up conv2/norm2
I0507 15:48:24.803074  7142 net.cpp:129] Top shape: 32 192 56 56 (19267584)
I0507 15:48:24.803077  7142 net.cpp:137] Memory required for data: 558760448
I0507 15:48:24.803081  7142 layer_factory.hpp:77] Creating layer pool2/3x3_s2
I0507 15:48:24.803089  7142 net.cpp:84] Creating Layer pool2/3x3_s2
I0507 15:48:24.803093  7142 net.cpp:406] pool2/3x3_s2 <- conv2/norm2
I0507 15:48:24.803099  7142 net.cpp:380] pool2/3x3_s2 -> pool2/3x3_s2
I0507 15:48:24.803130  7142 net.cpp:122] Setting up pool2/3x3_s2
I0507 15:48:24.803136  7142 net.cpp:129] Top shape: 32 192 28 28 (4816896)
I0507 15:48:24.803139  7142 net.cpp:137] Memory required for data: 578028032
I0507 15:48:24.803143  7142 layer_factory.hpp:77] Creating layer pool2/3x3_s2_pool2/3x3_s2_0_split
I0507 15:48:24.803150  7142 net.cpp:84] Creating Layer pool2/3x3_s2_pool2/3x3_s2_0_split
I0507 15:48:24.803154  7142 net.cpp:406] pool2/3x3_s2_pool2/3x3_s2_0_split <- pool2/3x3_s2
I0507 15:48:24.803158  7142 net.cpp:380] pool2/3x3_s2_pool2/3x3_s2_0_split -> pool2/3x3_s2_pool2/3x3_s2_0_split_0
I0507 15:48:24.803166  7142 net.cpp:380] pool2/3x3_s2_pool2/3x3_s2_0_split -> pool2/3x3_s2_pool2/3x3_s2_0_split_1
I0507 15:48:24.803171  7142 net.cpp:380] pool2/3x3_s2_pool2/3x3_s2_0_split -> pool2/3x3_s2_pool2/3x3_s2_0_split_2
I0507 15:48:24.803177  7142 net.cpp:380] pool2/3x3_s2_pool2/3x3_s2_0_split -> pool2/3x3_s2_pool2/3x3_s2_0_split_3
I0507 15:48:24.803220  7142 net.cpp:122] Setting up pool2/3x3_s2_pool2/3x3_s2_0_split
I0507 15:48:24.803225  7142 net.cpp:129] Top shape: 32 192 28 28 (4816896)
I0507 15:48:24.803230  7142 net.cpp:129] Top shape: 32 192 28 28 (4816896)
I0507 15:48:24.803232  7142 net.cpp:129] Top shape: 32 192 28 28 (4816896)
I0507 15:48:24.803236  7142 net.cpp:129] Top shape: 32 192 28 28 (4816896)
I0507 15:48:24.803239  7142 net.cpp:137] Memory required for data: 655098368
I0507 15:48:24.803242  7142 layer_factory.hpp:77] Creating layer inception_3a/1x1
I0507 15:48:24.803252  7142 net.cpp:84] Creating Layer inception_3a/1x1
I0507 15:48:24.803256  7142 net.cpp:406] inception_3a/1x1 <- pool2/3x3_s2_pool2/3x3_s2_0_split_0
I0507 15:48:24.803261  7142 net.cpp:380] inception_3a/1x1 -> inception_3a/1x1
I0507 15:48:24.804962  7142 net.cpp:122] Setting up inception_3a/1x1
I0507 15:48:24.804973  7142 net.cpp:129] Top shape: 32 64 28 28 (1605632)
I0507 15:48:24.804976  7142 net.cpp:137] Memory required for data: 661520896
I0507 15:48:24.804983  7142 layer_factory.hpp:77] Creating layer inception_3a/relu_1x1
I0507 15:48:24.804989  7142 net.cpp:84] Creating Layer inception_3a/relu_1x1
I0507 15:48:24.804993  7142 net.cpp:406] inception_3a/relu_1x1 <- inception_3a/1x1
I0507 15:48:24.804999  7142 net.cpp:367] inception_3a/relu_1x1 -> inception_3a/1x1 (in-place)
I0507 15:48:24.805342  7142 net.cpp:122] Setting up inception_3a/relu_1x1
I0507 15:48:24.805351  7142 net.cpp:129] Top shape: 32 64 28 28 (1605632)
I0507 15:48:24.805372  7142 net.cpp:137] Memory required for data: 667943424
I0507 15:48:24.805377  7142 layer_factory.hpp:77] Creating layer inception_3a/3x3_reduce
I0507 15:48:24.805387  7142 net.cpp:84] Creating Layer inception_3a/3x3_reduce
I0507 15:48:24.805390  7142 net.cpp:406] inception_3a/3x3_reduce <- pool2/3x3_s2_pool2/3x3_s2_0_split_1
I0507 15:48:24.805397  7142 net.cpp:380] inception_3a/3x3_reduce -> inception_3a/3x3_reduce
I0507 15:48:24.819604  7142 net.cpp:122] Setting up inception_3a/3x3_reduce
I0507 15:48:24.819624  7142 net.cpp:129] Top shape: 32 96 28 28 (2408448)
I0507 15:48:24.819628  7142 net.cpp:137] Memory required for data: 677577216
I0507 15:48:24.819640  7142 layer_factory.hpp:77] Creating layer inception_3a/relu_3x3_reduce
I0507 15:48:24.819653  7142 net.cpp:84] Creating Layer inception_3a/relu_3x3_reduce
I0507 15:48:24.819656  7142 net.cpp:406] inception_3a/relu_3x3_reduce <- inception_3a/3x3_reduce
I0507 15:48:24.819662  7142 net.cpp:367] inception_3a/relu_3x3_reduce -> inception_3a/3x3_reduce (in-place)
I0507 15:48:24.820165  7142 net.cpp:122] Setting up inception_3a/relu_3x3_reduce
I0507 15:48:24.820175  7142 net.cpp:129] Top shape: 32 96 28 28 (2408448)
I0507 15:48:24.820178  7142 net.cpp:137] Memory required for data: 687211008
I0507 15:48:24.820183  7142 layer_factory.hpp:77] Creating layer inception_3a/3x3
I0507 15:48:24.820194  7142 net.cpp:84] Creating Layer inception_3a/3x3
I0507 15:48:24.820197  7142 net.cpp:406] inception_3a/3x3 <- inception_3a/3x3_reduce
I0507 15:48:24.820204  7142 net.cpp:380] inception_3a/3x3 -> inception_3a/3x3
I0507 15:48:24.822448  7142 net.cpp:122] Setting up inception_3a/3x3
I0507 15:48:24.822461  7142 net.cpp:129] Top shape: 32 128 28 28 (3211264)
I0507 15:48:24.822468  7142 net.cpp:137] Memory required for data: 700056064
I0507 15:48:24.822476  7142 layer_factory.hpp:77] Creating layer inception_3a/relu_3x3
I0507 15:48:24.822512  7142 net.cpp:84] Creating Layer inception_3a/relu_3x3
I0507 15:48:24.822518  7142 net.cpp:406] inception_3a/relu_3x3 <- inception_3a/3x3
I0507 15:48:24.822528  7142 net.cpp:367] inception_3a/relu_3x3 -> inception_3a/3x3 (in-place)
I0507 15:48:24.823177  7142 net.cpp:122] Setting up inception_3a/relu_3x3
I0507 15:48:24.823189  7142 net.cpp:129] Top shape: 32 128 28 28 (3211264)
I0507 15:48:24.823194  7142 net.cpp:137] Memory required for data: 712901120
I0507 15:48:24.823199  7142 layer_factory.hpp:77] Creating layer inception_3a/5x5_reduce
I0507 15:48:24.823211  7142 net.cpp:84] Creating Layer inception_3a/5x5_reduce
I0507 15:48:24.823217  7142 net.cpp:406] inception_3a/5x5_reduce <- pool2/3x3_s2_pool2/3x3_s2_0_split_2
I0507 15:48:24.823227  7142 net.cpp:380] inception_3a/5x5_reduce -> inception_3a/5x5_reduce
I0507 15:48:24.825074  7142 net.cpp:122] Setting up inception_3a/5x5_reduce
I0507 15:48:24.825085  7142 net.cpp:129] Top shape: 32 16 28 28 (401408)
I0507 15:48:24.825089  7142 net.cpp:137] Memory required for data: 714506752
I0507 15:48:24.825096  7142 layer_factory.hpp:77] Creating layer inception_3a/relu_5x5_reduce
I0507 15:48:24.825103  7142 net.cpp:84] Creating Layer inception_3a/relu_5x5_reduce
I0507 15:48:24.825107  7142 net.cpp:406] inception_3a/relu_5x5_reduce <- inception_3a/5x5_reduce
I0507 15:48:24.825114  7142 net.cpp:367] inception_3a/relu_5x5_reduce -> inception_3a/5x5_reduce (in-place)
I0507 15:48:24.828213  7142 net.cpp:122] Setting up inception_3a/relu_5x5_reduce
I0507 15:48:24.828224  7142 net.cpp:129] Top shape: 32 16 28 28 (401408)
I0507 15:48:24.828228  7142 net.cpp:137] Memory required for data: 716112384
I0507 15:48:24.828233  7142 layer_factory.hpp:77] Creating layer inception_3a/5x5
I0507 15:48:24.828243  7142 net.cpp:84] Creating Layer inception_3a/5x5
I0507 15:48:24.828248  7142 net.cpp:406] inception_3a/5x5 <- inception_3a/5x5_reduce
I0507 15:48:24.828256  7142 net.cpp:380] inception_3a/5x5 -> inception_3a/5x5
I0507 15:48:24.830618  7142 net.cpp:122] Setting up inception_3a/5x5
I0507 15:48:24.830629  7142 net.cpp:129] Top shape: 32 32 28 28 (802816)
I0507 15:48:24.830633  7142 net.cpp:137] Memory required for data: 719323648
I0507 15:48:24.830657  7142 layer_factory.hpp:77] Creating layer inception_3a/relu_5x5
I0507 15:48:24.830665  7142 net.cpp:84] Creating Layer inception_3a/relu_5x5
I0507 15:48:24.830669  7142 net.cpp:406] inception_3a/relu_5x5 <- inception_3a/5x5
I0507 15:48:24.830674  7142 net.cpp:367] inception_3a/relu_5x5 -> inception_3a/5x5 (in-place)
I0507 15:48:24.831205  7142 net.cpp:122] Setting up inception_3a/relu_5x5
I0507 15:48:24.831218  7142 net.cpp:129] Top shape: 32 32 28 28 (802816)
I0507 15:48:24.831221  7142 net.cpp:137] Memory required for data: 722534912
I0507 15:48:24.831224  7142 layer_factory.hpp:77] Creating layer inception_3a/pool
I0507 15:48:24.831234  7142 net.cpp:84] Creating Layer inception_3a/pool
I0507 15:48:24.831239  7142 net.cpp:406] inception_3a/pool <- pool2/3x3_s2_pool2/3x3_s2_0_split_3
I0507 15:48:24.831245  7142 net.cpp:380] inception_3a/pool -> inception_3a/pool
I0507 15:48:24.831288  7142 net.cpp:122] Setting up inception_3a/pool
I0507 15:48:24.831295  7142 net.cpp:129] Top shape: 32 192 28 28 (4816896)
I0507 15:48:24.831297  7142 net.cpp:137] Memory required for data: 741802496
I0507 15:48:24.831301  7142 layer_factory.hpp:77] Creating layer inception_3a/pool_proj
I0507 15:48:24.831310  7142 net.cpp:84] Creating Layer inception_3a/pool_proj
I0507 15:48:24.831315  7142 net.cpp:406] inception_3a/pool_proj <- inception_3a/pool
I0507 15:48:24.831321  7142 net.cpp:380] inception_3a/pool_proj -> inception_3a/pool_proj
I0507 15:48:24.833039  7142 net.cpp:122] Setting up inception_3a/pool_proj
I0507 15:48:24.833048  7142 net.cpp:129] Top shape: 32 32 28 28 (802816)
I0507 15:48:24.833051  7142 net.cpp:137] Memory required for data: 745013760
I0507 15:48:24.833063  7142 layer_factory.hpp:77] Creating layer inception_3a/relu_pool_proj
I0507 15:48:24.833070  7142 net.cpp:84] Creating Layer inception_3a/relu_pool_proj
I0507 15:48:24.833073  7142 net.cpp:406] inception_3a/relu_pool_proj <- inception_3a/pool_proj
I0507 15:48:24.833079  7142 net.cpp:367] inception_3a/relu_pool_proj -> inception_3a/pool_proj (in-place)
I0507 15:48:24.833422  7142 net.cpp:122] Setting up inception_3a/relu_pool_proj
I0507 15:48:24.833431  7142 net.cpp:129] Top shape: 32 32 28 28 (802816)
I0507 15:48:24.833433  7142 net.cpp:137] Memory required for data: 748225024
I0507 15:48:24.833437  7142 layer_factory.hpp:77] Creating layer inception_3a/output
I0507 15:48:24.833443  7142 net.cpp:84] Creating Layer inception_3a/output
I0507 15:48:24.833446  7142 net.cpp:406] inception_3a/output <- inception_3a/1x1
I0507 15:48:24.833451  7142 net.cpp:406] inception_3a/output <- inception_3a/3x3
I0507 15:48:24.833456  7142 net.cpp:406] inception_3a/output <- inception_3a/5x5
I0507 15:48:24.833458  7142 net.cpp:406] inception_3a/output <- inception_3a/pool_proj
I0507 15:48:24.833464  7142 net.cpp:380] inception_3a/output -> inception_3a/output
I0507 15:48:24.833489  7142 net.cpp:122] Setting up inception_3a/output
I0507 15:48:24.833495  7142 net.cpp:129] Top shape: 32 256 28 28 (6422528)
I0507 15:48:24.833498  7142 net.cpp:137] Memory required for data: 773915136
I0507 15:48:24.833501  7142 layer_factory.hpp:77] Creating layer inception_3a/output_inception_3a/output_0_split
I0507 15:48:24.833508  7142 net.cpp:84] Creating Layer inception_3a/output_inception_3a/output_0_split
I0507 15:48:24.833511  7142 net.cpp:406] inception_3a/output_inception_3a/output_0_split <- inception_3a/output
I0507 15:48:24.833518  7142 net.cpp:380] inception_3a/output_inception_3a/output_0_split -> inception_3a/output_inception_3a/output_0_split_0
I0507 15:48:24.833523  7142 net.cpp:380] inception_3a/output_inception_3a/output_0_split -> inception_3a/output_inception_3a/output_0_split_1
I0507 15:48:24.833530  7142 net.cpp:380] inception_3a/output_inception_3a/output_0_split -> inception_3a/output_inception_3a/output_0_split_2
I0507 15:48:24.833535  7142 net.cpp:380] inception_3a/output_inception_3a/output_0_split -> inception_3a/output_inception_3a/output_0_split_3
I0507 15:48:24.833578  7142 net.cpp:122] Setting up inception_3a/output_inception_3a/output_0_split
I0507 15:48:24.833595  7142 net.cpp:129] Top shape: 32 256 28 28 (6422528)
I0507 15:48:24.833600  7142 net.cpp:129] Top shape: 32 256 28 28 (6422528)
I0507 15:48:24.833603  7142 net.cpp:129] Top shape: 32 256 28 28 (6422528)
I0507 15:48:24.833607  7142 net.cpp:129] Top shape: 32 256 28 28 (6422528)
I0507 15:48:24.833611  7142 net.cpp:137] Memory required for data: 876675584
I0507 15:48:24.833613  7142 layer_factory.hpp:77] Creating layer inception_3b/1x1
I0507 15:48:24.833622  7142 net.cpp:84] Creating Layer inception_3b/1x1
I0507 15:48:24.833626  7142 net.cpp:406] inception_3b/1x1 <- inception_3a/output_inception_3a/output_0_split_0
I0507 15:48:24.833633  7142 net.cpp:380] inception_3b/1x1 -> inception_3b/1x1
I0507 15:48:24.836743  7142 net.cpp:122] Setting up inception_3b/1x1
I0507 15:48:24.836755  7142 net.cpp:129] Top shape: 32 128 28 28 (3211264)
I0507 15:48:24.836758  7142 net.cpp:137] Memory required for data: 889520640
I0507 15:48:24.836766  7142 layer_factory.hpp:77] Creating layer inception_3b/relu_1x1
I0507 15:48:24.836772  7142 net.cpp:84] Creating Layer inception_3b/relu_1x1
I0507 15:48:24.836776  7142 net.cpp:406] inception_3b/relu_1x1 <- inception_3b/1x1
I0507 15:48:24.836783  7142 net.cpp:367] inception_3b/relu_1x1 -> inception_3b/1x1 (in-place)
I0507 15:48:24.837281  7142 net.cpp:122] Setting up inception_3b/relu_1x1
I0507 15:48:24.837291  7142 net.cpp:129] Top shape: 32 128 28 28 (3211264)
I0507 15:48:24.837294  7142 net.cpp:137] Memory required for data: 902365696
I0507 15:48:24.837298  7142 layer_factory.hpp:77] Creating layer inception_3b/3x3_reduce
I0507 15:48:24.837308  7142 net.cpp:84] Creating Layer inception_3b/3x3_reduce
I0507 15:48:24.837312  7142 net.cpp:406] inception_3b/3x3_reduce <- inception_3a/output_inception_3a/output_0_split_1
I0507 15:48:24.837319  7142 net.cpp:380] inception_3b/3x3_reduce -> inception_3b/3x3_reduce
I0507 15:48:24.839032  7142 net.cpp:122] Setting up inception_3b/3x3_reduce
I0507 15:48:24.839042  7142 net.cpp:129] Top shape: 32 128 28 28 (3211264)
I0507 15:48:24.839046  7142 net.cpp:137] Memory required for data: 915210752
I0507 15:48:24.839052  7142 layer_factory.hpp:77] Creating layer inception_3b/relu_3x3_reduce
I0507 15:48:24.839059  7142 net.cpp:84] Creating Layer inception_3b/relu_3x3_reduce
I0507 15:48:24.839063  7142 net.cpp:406] inception_3b/relu_3x3_reduce <- inception_3b/3x3_reduce
I0507 15:48:24.839068  7142 net.cpp:367] inception_3b/relu_3x3_reduce -> inception_3b/3x3_reduce (in-place)
I0507 15:48:24.839565  7142 net.cpp:122] Setting up inception_3b/relu_3x3_reduce
I0507 15:48:24.839574  7142 net.cpp:129] Top shape: 32 128 28 28 (3211264)
I0507 15:48:24.839577  7142 net.cpp:137] Memory required for data: 928055808
I0507 15:48:24.839581  7142 layer_factory.hpp:77] Creating layer inception_3b/3x3
I0507 15:48:24.839597  7142 net.cpp:84] Creating Layer inception_3b/3x3
I0507 15:48:24.839601  7142 net.cpp:406] inception_3b/3x3 <- inception_3b/3x3_reduce
I0507 15:48:24.839608  7142 net.cpp:380] inception_3b/3x3 -> inception_3b/3x3
I0507 15:48:24.843972  7142 net.cpp:122] Setting up inception_3b/3x3
I0507 15:48:24.843995  7142 net.cpp:129] Top shape: 32 192 28 28 (4816896)
I0507 15:48:24.844004  7142 net.cpp:137] Memory required for data: 947323392
I0507 15:48:24.844017  7142 layer_factory.hpp:77] Creating layer inception_3b/relu_3x3
I0507 15:48:24.844029  7142 net.cpp:84] Creating Layer inception_3b/relu_3x3
I0507 15:48:24.844036  7142 net.cpp:406] inception_3b/relu_3x3 <- inception_3b/3x3
I0507 15:48:24.844045  7142 net.cpp:367] inception_3b/relu_3x3 -> inception_3b/3x3 (in-place)
I0507 15:48:24.848771  7142 net.cpp:122] Setting up inception_3b/relu_3x3
I0507 15:48:24.848791  7142 net.cpp:129] Top shape: 32 192 28 28 (4816896)
I0507 15:48:24.848798  7142 net.cpp:137] Memory required for data: 966590976
I0507 15:48:24.848804  7142 layer_factory.hpp:77] Creating layer inception_3b/5x5_reduce
I0507 15:48:24.848825  7142 net.cpp:84] Creating Layer inception_3b/5x5_reduce
I0507 15:48:24.848832  7142 net.cpp:406] inception_3b/5x5_reduce <- inception_3a/output_inception_3a/output_0_split_2
I0507 15:48:24.848875  7142 net.cpp:380] inception_3b/5x5_reduce -> inception_3b/5x5_reduce
I0507 15:48:24.853389  7142 net.cpp:122] Setting up inception_3b/5x5_reduce
I0507 15:48:24.853407  7142 net.cpp:129] Top shape: 32 32 28 28 (802816)
I0507 15:48:24.853413  7142 net.cpp:137] Memory required for data: 969802240
I0507 15:48:24.853425  7142 layer_factory.hpp:77] Creating layer inception_3b/relu_5x5_reduce
I0507 15:48:24.853435  7142 net.cpp:84] Creating Layer inception_3b/relu_5x5_reduce
I0507 15:48:24.853442  7142 net.cpp:406] inception_3b/relu_5x5_reduce <- inception_3b/5x5_reduce
I0507 15:48:24.853453  7142 net.cpp:367] inception_3b/relu_5x5_reduce -> inception_3b/5x5_reduce (in-place)
I0507 15:48:24.865929  7142 net.cpp:122] Setting up inception_3b/relu_5x5_reduce
I0507 15:48:24.865949  7142 net.cpp:129] Top shape: 32 32 28 28 (802816)
I0507 15:48:24.865955  7142 net.cpp:137] Memory required for data: 973013504
I0507 15:48:24.865962  7142 layer_factory.hpp:77] Creating layer inception_3b/5x5
I0507 15:48:24.865981  7142 net.cpp:84] Creating Layer inception_3b/5x5
I0507 15:48:24.865988  7142 net.cpp:406] inception_3b/5x5 <- inception_3b/5x5_reduce
I0507 15:48:24.866003  7142 net.cpp:380] inception_3b/5x5 -> inception_3b/5x5
I0507 15:48:24.886847  7142 net.cpp:122] Setting up inception_3b/5x5
I0507 15:48:24.886871  7142 net.cpp:129] Top shape: 32 96 28 28 (2408448)
I0507 15:48:24.886878  7142 net.cpp:137] Memory required for data: 982647296
I0507 15:48:24.886890  7142 layer_factory.hpp:77] Creating layer inception_3b/relu_5x5
I0507 15:48:24.886902  7142 net.cpp:84] Creating Layer inception_3b/relu_5x5
I0507 15:48:24.886909  7142 net.cpp:406] inception_3b/relu_5x5 <- inception_3b/5x5
I0507 15:48:24.886920  7142 net.cpp:367] inception_3b/relu_5x5 -> inception_3b/5x5 (in-place)
I0507 15:48:24.887493  7142 net.cpp:122] Setting up inception_3b/relu_5x5
I0507 15:48:24.887504  7142 net.cpp:129] Top shape: 32 96 28 28 (2408448)
I0507 15:48:24.887509  7142 net.cpp:137] Memory required for data: 992281088
I0507 15:48:24.887514  7142 layer_factory.hpp:77] Creating layer inception_3b/pool
I0507 15:48:24.887526  7142 net.cpp:84] Creating Layer inception_3b/pool
I0507 15:48:24.887532  7142 net.cpp:406] inception_3b/pool <- inception_3a/output_inception_3a/output_0_split_3
I0507 15:48:24.887542  7142 net.cpp:380] inception_3b/pool -> inception_3b/pool
I0507 15:48:24.887600  7142 net.cpp:122] Setting up inception_3b/pool
I0507 15:48:24.887609  7142 net.cpp:129] Top shape: 32 256 28 28 (6422528)
I0507 15:48:24.887612  7142 net.cpp:137] Memory required for data: 1017971200
I0507 15:48:24.887617  7142 layer_factory.hpp:77] Creating layer inception_3b/pool_proj
I0507 15:48:24.887632  7142 net.cpp:84] Creating Layer inception_3b/pool_proj
I0507 15:48:24.887637  7142 net.cpp:406] inception_3b/pool_proj <- inception_3b/pool
I0507 15:48:24.887648  7142 net.cpp:380] inception_3b/pool_proj -> inception_3b/pool_proj
I0507 15:48:24.894786  7142 net.cpp:122] Setting up inception_3b/pool_proj
I0507 15:48:24.894806  7142 net.cpp:129] Top shape: 32 64 28 28 (1605632)
I0507 15:48:24.894811  7142 net.cpp:137] Memory required for data: 1024393728
I0507 15:48:24.894822  7142 layer_factory.hpp:77] Creating layer inception_3b/relu_pool_proj
I0507 15:48:24.894835  7142 net.cpp:84] Creating Layer inception_3b/relu_pool_proj
I0507 15:48:24.894842  7142 net.cpp:406] inception_3b/relu_pool_proj <- inception_3b/pool_proj
I0507 15:48:24.894850  7142 net.cpp:367] inception_3b/relu_pool_proj -> inception_3b/pool_proj (in-place)
I0507 15:48:24.895398  7142 net.cpp:122] Setting up inception_3b/relu_pool_proj
I0507 15:48:24.895413  7142 net.cpp:129] Top shape: 32 64 28 28 (1605632)
I0507 15:48:24.895417  7142 net.cpp:137] Memory required for data: 1030816256
I0507 15:48:24.895422  7142 layer_factory.hpp:77] Creating layer inception_3b/output
I0507 15:48:24.895431  7142 net.cpp:84] Creating Layer inception_3b/output
I0507 15:48:24.895437  7142 net.cpp:406] inception_3b/output <- inception_3b/1x1
I0507 15:48:24.895444  7142 net.cpp:406] inception_3b/output <- inception_3b/3x3
I0507 15:48:24.895473  7142 net.cpp:406] inception_3b/output <- inception_3b/5x5
I0507 15:48:24.895478  7142 net.cpp:406] inception_3b/output <- inception_3b/pool_proj
I0507 15:48:24.895488  7142 net.cpp:380] inception_3b/output -> inception_3b/output
I0507 15:48:24.895525  7142 net.cpp:122] Setting up inception_3b/output
I0507 15:48:24.895534  7142 net.cpp:129] Top shape: 32 480 28 28 (12042240)
I0507 15:48:24.895539  7142 net.cpp:137] Memory required for data: 1078985216
I0507 15:48:24.895543  7142 layer_factory.hpp:77] Creating layer pool3/3x3_s2
I0507 15:48:24.895552  7142 net.cpp:84] Creating Layer pool3/3x3_s2
I0507 15:48:24.895557  7142 net.cpp:406] pool3/3x3_s2 <- inception_3b/output
I0507 15:48:24.895565  7142 net.cpp:380] pool3/3x3_s2 -> pool3/3x3_s2
I0507 15:48:24.895613  7142 net.cpp:122] Setting up pool3/3x3_s2
I0507 15:48:24.895620  7142 net.cpp:129] Top shape: 32 480 14 14 (3010560)
I0507 15:48:24.895624  7142 net.cpp:137] Memory required for data: 1091027456
I0507 15:48:24.895629  7142 layer_factory.hpp:77] Creating layer pool3/3x3_s2_pool3/3x3_s2_0_split
I0507 15:48:24.895638  7142 net.cpp:84] Creating Layer pool3/3x3_s2_pool3/3x3_s2_0_split
I0507 15:48:24.895642  7142 net.cpp:406] pool3/3x3_s2_pool3/3x3_s2_0_split <- pool3/3x3_s2
I0507 15:48:24.895651  7142 net.cpp:380] pool3/3x3_s2_pool3/3x3_s2_0_split -> pool3/3x3_s2_pool3/3x3_s2_0_split_0
I0507 15:48:24.895660  7142 net.cpp:380] pool3/3x3_s2_pool3/3x3_s2_0_split -> pool3/3x3_s2_pool3/3x3_s2_0_split_1
I0507 15:48:24.895668  7142 net.cpp:380] pool3/3x3_s2_pool3/3x3_s2_0_split -> pool3/3x3_s2_pool3/3x3_s2_0_split_2
I0507 15:48:24.895678  7142 net.cpp:380] pool3/3x3_s2_pool3/3x3_s2_0_split -> pool3/3x3_s2_pool3/3x3_s2_0_split_3
I0507 15:48:24.895746  7142 net.cpp:122] Setting up pool3/3x3_s2_pool3/3x3_s2_0_split
I0507 15:48:24.895753  7142 net.cpp:129] Top shape: 32 480 14 14 (3010560)
I0507 15:48:24.895759  7142 net.cpp:129] Top shape: 32 480 14 14 (3010560)
I0507 15:48:24.895766  7142 net.cpp:129] Top shape: 32 480 14 14 (3010560)
I0507 15:48:24.895771  7142 net.cpp:129] Top shape: 32 480 14 14 (3010560)
I0507 15:48:24.895774  7142 net.cpp:137] Memory required for data: 1139196416
I0507 15:48:24.895779  7142 layer_factory.hpp:77] Creating layer inception_4a/1x1
I0507 15:48:24.895792  7142 net.cpp:84] Creating Layer inception_4a/1x1
I0507 15:48:24.895797  7142 net.cpp:406] inception_4a/1x1 <- pool3/3x3_s2_pool3/3x3_s2_0_split_0
I0507 15:48:24.895807  7142 net.cpp:380] inception_4a/1x1 -> inception_4a/1x1
I0507 15:48:24.899291  7142 net.cpp:122] Setting up inception_4a/1x1
I0507 15:48:24.899307  7142 net.cpp:129] Top shape: 32 192 14 14 (1204224)
I0507 15:48:24.899312  7142 net.cpp:137] Memory required for data: 1144013312
I0507 15:48:24.899320  7142 layer_factory.hpp:77] Creating layer inception_4a/relu_1x1
I0507 15:48:24.899332  7142 net.cpp:84] Creating Layer inception_4a/relu_1x1
I0507 15:48:24.899338  7142 net.cpp:406] inception_4a/relu_1x1 <- inception_4a/1x1
I0507 15:48:24.899344  7142 net.cpp:367] inception_4a/relu_1x1 -> inception_4a/1x1 (in-place)
I0507 15:48:24.900187  7142 net.cpp:122] Setting up inception_4a/relu_1x1
I0507 15:48:24.900202  7142 net.cpp:129] Top shape: 32 192 14 14 (1204224)
I0507 15:48:24.900205  7142 net.cpp:137] Memory required for data: 1148830208
I0507 15:48:24.900210  7142 layer_factory.hpp:77] Creating layer inception_4a/3x3_reduce
I0507 15:48:24.900225  7142 net.cpp:84] Creating Layer inception_4a/3x3_reduce
I0507 15:48:24.900230  7142 net.cpp:406] inception_4a/3x3_reduce <- pool3/3x3_s2_pool3/3x3_s2_0_split_1
I0507 15:48:24.900246  7142 net.cpp:380] inception_4a/3x3_reduce -> inception_4a/3x3_reduce
I0507 15:48:24.905697  7142 net.cpp:122] Setting up inception_4a/3x3_reduce
I0507 15:48:24.905714  7142 net.cpp:129] Top shape: 32 96 14 14 (602112)
I0507 15:48:24.905719  7142 net.cpp:137] Memory required for data: 1151238656
I0507 15:48:24.905741  7142 layer_factory.hpp:77] Creating layer inception_4a/relu_3x3_reduce
I0507 15:48:24.905751  7142 net.cpp:84] Creating Layer inception_4a/relu_3x3_reduce
I0507 15:48:24.905776  7142 net.cpp:406] inception_4a/relu_3x3_reduce <- inception_4a/3x3_reduce
I0507 15:48:24.905786  7142 net.cpp:367] inception_4a/relu_3x3_reduce -> inception_4a/3x3_reduce (in-place)
I0507 15:48:24.908138  7142 net.cpp:122] Setting up inception_4a/relu_3x3_reduce
I0507 15:48:24.908154  7142 net.cpp:129] Top shape: 32 96 14 14 (602112)
I0507 15:48:24.908159  7142 net.cpp:137] Memory required for data: 1153647104
I0507 15:48:24.908164  7142 layer_factory.hpp:77] Creating layer inception_4a/3x3
I0507 15:48:24.908180  7142 net.cpp:84] Creating Layer inception_4a/3x3
I0507 15:48:24.908185  7142 net.cpp:406] inception_4a/3x3 <- inception_4a/3x3_reduce
I0507 15:48:24.908196  7142 net.cpp:380] inception_4a/3x3 -> inception_4a/3x3
I0507 15:48:24.912130  7142 net.cpp:122] Setting up inception_4a/3x3
I0507 15:48:24.912145  7142 net.cpp:129] Top shape: 32 208 14 14 (1304576)
I0507 15:48:24.912150  7142 net.cpp:137] Memory required for data: 1158865408
I0507 15:48:24.912159  7142 layer_factory.hpp:77] Creating layer inception_4a/relu_3x3
I0507 15:48:24.912169  7142 net.cpp:84] Creating Layer inception_4a/relu_3x3
I0507 15:48:24.912175  7142 net.cpp:406] inception_4a/relu_3x3 <- inception_4a/3x3
I0507 15:48:24.912183  7142 net.cpp:367] inception_4a/relu_3x3 -> inception_4a/3x3 (in-place)
I0507 15:48:24.912911  7142 net.cpp:122] Setting up inception_4a/relu_3x3
I0507 15:48:24.912923  7142 net.cpp:129] Top shape: 32 208 14 14 (1304576)
I0507 15:48:24.912928  7142 net.cpp:137] Memory required for data: 1164083712
I0507 15:48:24.912933  7142 layer_factory.hpp:77] Creating layer inception_4a/5x5_reduce
I0507 15:48:24.912946  7142 net.cpp:84] Creating Layer inception_4a/5x5_reduce
I0507 15:48:24.912952  7142 net.cpp:406] inception_4a/5x5_reduce <- pool3/3x3_s2_pool3/3x3_s2_0_split_2
I0507 15:48:24.912963  7142 net.cpp:380] inception_4a/5x5_reduce -> inception_4a/5x5_reduce
I0507 15:48:24.915318  7142 net.cpp:122] Setting up inception_4a/5x5_reduce
I0507 15:48:24.915333  7142 net.cpp:129] Top shape: 32 16 14 14 (100352)
I0507 15:48:24.915338  7142 net.cpp:137] Memory required for data: 1164485120
I0507 15:48:24.915346  7142 layer_factory.hpp:77] Creating layer inception_4a/relu_5x5_reduce
I0507 15:48:24.915355  7142 net.cpp:84] Creating Layer inception_4a/relu_5x5_reduce
I0507 15:48:24.915360  7142 net.cpp:406] inception_4a/relu_5x5_reduce <- inception_4a/5x5_reduce
I0507 15:48:24.915369  7142 net.cpp:367] inception_4a/relu_5x5_reduce -> inception_4a/5x5_reduce (in-place)
I0507 15:48:24.916108  7142 net.cpp:122] Setting up inception_4a/relu_5x5_reduce
I0507 15:48:24.916121  7142 net.cpp:129] Top shape: 32 16 14 14 (100352)
I0507 15:48:24.916126  7142 net.cpp:137] Memory required for data: 1164886528
I0507 15:48:24.916131  7142 layer_factory.hpp:77] Creating layer inception_4a/5x5
I0507 15:48:24.916144  7142 net.cpp:84] Creating Layer inception_4a/5x5
I0507 15:48:24.916149  7142 net.cpp:406] inception_4a/5x5 <- inception_4a/5x5_reduce
I0507 15:48:24.916159  7142 net.cpp:380] inception_4a/5x5 -> inception_4a/5x5
I0507 15:48:24.920351  7142 net.cpp:122] Setting up inception_4a/5x5
I0507 15:48:24.920367  7142 net.cpp:129] Top shape: 32 48 14 14 (301056)
I0507 15:48:24.920372  7142 net.cpp:137] Memory required for data: 1166090752
I0507 15:48:24.920380  7142 layer_factory.hpp:77] Creating layer inception_4a/relu_5x5
I0507 15:48:24.920392  7142 net.cpp:84] Creating Layer inception_4a/relu_5x5
I0507 15:48:24.920397  7142 net.cpp:406] inception_4a/relu_5x5 <- inception_4a/5x5
I0507 15:48:24.920405  7142 net.cpp:367] inception_4a/relu_5x5 -> inception_4a/5x5 (in-place)
I0507 15:48:24.920938  7142 net.cpp:122] Setting up inception_4a/relu_5x5
I0507 15:48:24.920949  7142 net.cpp:129] Top shape: 32 48 14 14 (301056)
I0507 15:48:24.920953  7142 net.cpp:137] Memory required for data: 1167294976
I0507 15:48:24.920959  7142 layer_factory.hpp:77] Creating layer inception_4a/pool
I0507 15:48:24.920967  7142 net.cpp:84] Creating Layer inception_4a/pool
I0507 15:48:24.920974  7142 net.cpp:406] inception_4a/pool <- pool3/3x3_s2_pool3/3x3_s2_0_split_3
I0507 15:48:24.921005  7142 net.cpp:380] inception_4a/pool -> inception_4a/pool
I0507 15:48:24.921061  7142 net.cpp:122] Setting up inception_4a/pool
I0507 15:48:24.921072  7142 net.cpp:129] Top shape: 32 480 14 14 (3010560)
I0507 15:48:24.921075  7142 net.cpp:137] Memory required for data: 1179337216
I0507 15:48:24.921079  7142 layer_factory.hpp:77] Creating layer inception_4a/pool_proj
I0507 15:48:24.921092  7142 net.cpp:84] Creating Layer inception_4a/pool_proj
I0507 15:48:24.921097  7142 net.cpp:406] inception_4a/pool_proj <- inception_4a/pool
I0507 15:48:24.921105  7142 net.cpp:380] inception_4a/pool_proj -> inception_4a/pool_proj
I0507 15:48:24.924859  7142 net.cpp:122] Setting up inception_4a/pool_proj
I0507 15:48:24.924872  7142 net.cpp:129] Top shape: 32 64 14 14 (401408)
I0507 15:48:24.924876  7142 net.cpp:137] Memory required for data: 1180942848
I0507 15:48:24.924885  7142 layer_factory.hpp:77] Creating layer inception_4a/relu_pool_proj
I0507 15:48:24.924898  7142 net.cpp:84] Creating Layer inception_4a/relu_pool_proj
I0507 15:48:24.924903  7142 net.cpp:406] inception_4a/relu_pool_proj <- inception_4a/pool_proj
I0507 15:48:24.924912  7142 net.cpp:367] inception_4a/relu_pool_proj -> inception_4a/pool_proj (in-place)
I0507 15:48:24.925618  7142 net.cpp:122] Setting up inception_4a/relu_pool_proj
I0507 15:48:24.925631  7142 net.cpp:129] Top shape: 32 64 14 14 (401408)
I0507 15:48:24.925635  7142 net.cpp:137] Memory required for data: 1182548480
I0507 15:48:24.925640  7142 layer_factory.hpp:77] Creating layer inception_4a/output
I0507 15:48:24.925650  7142 net.cpp:84] Creating Layer inception_4a/output
I0507 15:48:24.925655  7142 net.cpp:406] inception_4a/output <- inception_4a/1x1
I0507 15:48:24.925662  7142 net.cpp:406] inception_4a/output <- inception_4a/3x3
I0507 15:48:24.925668  7142 net.cpp:406] inception_4a/output <- inception_4a/5x5
I0507 15:48:24.925673  7142 net.cpp:406] inception_4a/output <- inception_4a/pool_proj
I0507 15:48:24.925681  7142 net.cpp:380] inception_4a/output -> inception_4a/output
I0507 15:48:24.925717  7142 net.cpp:122] Setting up inception_4a/output
I0507 15:48:24.925724  7142 net.cpp:129] Top shape: 32 512 14 14 (3211264)
I0507 15:48:24.925729  7142 net.cpp:137] Memory required for data: 1195393536
I0507 15:48:24.925732  7142 layer_factory.hpp:77] Creating layer inception_4a/output_inception_4a/output_0_split
I0507 15:48:24.925742  7142 net.cpp:84] Creating Layer inception_4a/output_inception_4a/output_0_split
I0507 15:48:24.925747  7142 net.cpp:406] inception_4a/output_inception_4a/output_0_split <- inception_4a/output
I0507 15:48:24.925755  7142 net.cpp:380] inception_4a/output_inception_4a/output_0_split -> inception_4a/output_inception_4a/output_0_split_0
I0507 15:48:24.925765  7142 net.cpp:380] inception_4a/output_inception_4a/output_0_split -> inception_4a/output_inception_4a/output_0_split_1
I0507 15:48:24.925773  7142 net.cpp:380] inception_4a/output_inception_4a/output_0_split -> inception_4a/output_inception_4a/output_0_split_2
I0507 15:48:24.925782  7142 net.cpp:380] inception_4a/output_inception_4a/output_0_split -> inception_4a/output_inception_4a/output_0_split_3
I0507 15:48:24.925789  7142 net.cpp:380] inception_4a/output_inception_4a/output_0_split -> inception_4a/output_inception_4a/output_0_split_4
I0507 15:48:24.925870  7142 net.cpp:122] Setting up inception_4a/output_inception_4a/output_0_split
I0507 15:48:24.925876  7142 net.cpp:129] Top shape: 32 512 14 14 (3211264)
I0507 15:48:24.925882  7142 net.cpp:129] Top shape: 32 512 14 14 (3211264)
I0507 15:48:24.925887  7142 net.cpp:129] Top shape: 32 512 14 14 (3211264)
I0507 15:48:24.925892  7142 net.cpp:129] Top shape: 32 512 14 14 (3211264)
I0507 15:48:24.925899  7142 net.cpp:129] Top shape: 32 512 14 14 (3211264)
I0507 15:48:24.925902  7142 net.cpp:137] Memory required for data: 1259618816
I0507 15:48:24.925906  7142 layer_factory.hpp:77] Creating layer loss1/ave_pool
I0507 15:48:24.925915  7142 net.cpp:84] Creating Layer loss1/ave_pool
I0507 15:48:24.925920  7142 net.cpp:406] loss1/ave_pool <- inception_4a/output_inception_4a/output_0_split_0
I0507 15:48:24.925942  7142 net.cpp:380] loss1/ave_pool -> loss1/ave_pool
I0507 15:48:24.926466  7142 net.cpp:122] Setting up loss1/ave_pool
I0507 15:48:24.926478  7142 net.cpp:129] Top shape: 32 512 4 4 (262144)
I0507 15:48:24.926530  7142 net.cpp:137] Memory required for data: 1260667392
I0507 15:48:24.926537  7142 layer_factory.hpp:77] Creating layer loss1/conv
I0507 15:48:24.926549  7142 net.cpp:84] Creating Layer loss1/conv
I0507 15:48:24.926554  7142 net.cpp:406] loss1/conv <- loss1/ave_pool
I0507 15:48:24.926563  7142 net.cpp:380] loss1/conv -> loss1/conv
I0507 15:48:24.930946  7142 net.cpp:122] Setting up loss1/conv
I0507 15:48:24.930964  7142 net.cpp:129] Top shape: 32 128 4 4 (65536)
I0507 15:48:24.930969  7142 net.cpp:137] Memory required for data: 1260929536
I0507 15:48:24.930979  7142 layer_factory.hpp:77] Creating layer loss1/relu_conv
I0507 15:48:24.930986  7142 net.cpp:84] Creating Layer loss1/relu_conv
I0507 15:48:24.930992  7142 net.cpp:406] loss1/relu_conv <- loss1/conv
I0507 15:48:24.930999  7142 net.cpp:367] loss1/relu_conv -> loss1/conv (in-place)
I0507 15:48:24.931707  7142 net.cpp:122] Setting up loss1/relu_conv
I0507 15:48:24.931720  7142 net.cpp:129] Top shape: 32 128 4 4 (65536)
I0507 15:48:24.931725  7142 net.cpp:137] Memory required for data: 1261191680
I0507 15:48:24.931730  7142 layer_factory.hpp:77] Creating layer loss1/fc
I0507 15:48:24.931740  7142 net.cpp:84] Creating Layer loss1/fc
I0507 15:48:24.931744  7142 net.cpp:406] loss1/fc <- loss1/conv
I0507 15:48:24.931753  7142 net.cpp:380] loss1/fc -> loss1/fc
I0507 15:48:24.948799  7142 net.cpp:122] Setting up loss1/fc
I0507 15:48:24.948822  7142 net.cpp:129] Top shape: 32 1024 (32768)
I0507 15:48:24.948827  7142 net.cpp:137] Memory required for data: 1261322752
I0507 15:48:24.948837  7142 layer_factory.hpp:77] Creating layer loss1/relu_fc
I0507 15:48:24.948848  7142 net.cpp:84] Creating Layer loss1/relu_fc
I0507 15:48:24.948853  7142 net.cpp:406] loss1/relu_fc <- loss1/fc
I0507 15:48:24.948861  7142 net.cpp:367] loss1/relu_fc -> loss1/fc (in-place)
I0507 15:48:24.949381  7142 net.cpp:122] Setting up loss1/relu_fc
I0507 15:48:24.949391  7142 net.cpp:129] Top shape: 32 1024 (32768)
I0507 15:48:24.949395  7142 net.cpp:137] Memory required for data: 1261453824
I0507 15:48:24.949399  7142 layer_factory.hpp:77] Creating layer loss1/drop_fc
I0507 15:48:24.949425  7142 net.cpp:84] Creating Layer loss1/drop_fc
I0507 15:48:24.949430  7142 net.cpp:406] loss1/drop_fc <- loss1/fc
I0507 15:48:24.949436  7142 net.cpp:367] loss1/drop_fc -> loss1/fc (in-place)
I0507 15:48:24.949470  7142 net.cpp:122] Setting up loss1/drop_fc
I0507 15:48:24.949476  7142 net.cpp:129] Top shape: 32 1024 (32768)
I0507 15:48:24.949479  7142 net.cpp:137] Memory required for data: 1261584896
I0507 15:48:24.949483  7142 layer_factory.hpp:77] Creating layer loss1/classifier
I0507 15:48:24.949493  7142 net.cpp:84] Creating Layer loss1/classifier
I0507 15:48:24.949497  7142 net.cpp:406] loss1/classifier <- loss1/fc
I0507 15:48:24.949506  7142 net.cpp:380] loss1/classifier -> loss1/classifier
I0507 15:48:24.951933  7142 net.cpp:122] Setting up loss1/classifier
I0507 15:48:24.951946  7142 net.cpp:129] Top shape: 32 196 (6272)
I0507 15:48:24.951951  7142 net.cpp:137] Memory required for data: 1261609984
I0507 15:48:24.951958  7142 layer_factory.hpp:77] Creating layer loss1/loss
I0507 15:48:24.951967  7142 net.cpp:84] Creating Layer loss1/loss
I0507 15:48:24.951972  7142 net.cpp:406] loss1/loss <- loss1/classifier
I0507 15:48:24.951978  7142 net.cpp:406] loss1/loss <- label_train-data_1_split_0
I0507 15:48:24.951987  7142 net.cpp:380] loss1/loss -> loss1/loss
I0507 15:48:24.951997  7142 layer_factory.hpp:77] Creating layer loss1/loss
I0507 15:48:24.952790  7142 net.cpp:122] Setting up loss1/loss
I0507 15:48:24.952802  7142 net.cpp:129] Top shape: (1)
I0507 15:48:24.952806  7142 net.cpp:132]     with loss weight 0.3
I0507 15:48:24.952826  7142 net.cpp:137] Memory required for data: 1261609988
I0507 15:48:24.952831  7142 layer_factory.hpp:77] Creating layer inception_4b/1x1
I0507 15:48:24.952867  7142 net.cpp:84] Creating Layer inception_4b/1x1
I0507 15:48:24.952872  7142 net.cpp:406] inception_4b/1x1 <- inception_4a/output_inception_4a/output_0_split_1
I0507 15:48:24.952879  7142 net.cpp:380] inception_4b/1x1 -> inception_4b/1x1
I0507 15:48:24.955476  7142 net.cpp:122] Setting up inception_4b/1x1
I0507 15:48:24.955492  7142 net.cpp:129] Top shape: 32 160 14 14 (1003520)
I0507 15:48:24.955497  7142 net.cpp:137] Memory required for data: 1265624068
I0507 15:48:24.955504  7142 layer_factory.hpp:77] Creating layer inception_4b/relu_1x1
I0507 15:48:24.955513  7142 net.cpp:84] Creating Layer inception_4b/relu_1x1
I0507 15:48:24.955518  7142 net.cpp:406] inception_4b/relu_1x1 <- inception_4b/1x1
I0507 15:48:24.955523  7142 net.cpp:367] inception_4b/relu_1x1 -> inception_4b/1x1 (in-place)
I0507 15:48:24.956178  7142 net.cpp:122] Setting up inception_4b/relu_1x1
I0507 15:48:24.956190  7142 net.cpp:129] Top shape: 32 160 14 14 (1003520)
I0507 15:48:24.956194  7142 net.cpp:137] Memory required for data: 1269638148
I0507 15:48:24.956198  7142 layer_factory.hpp:77] Creating layer inception_4b/3x3_reduce
I0507 15:48:24.956212  7142 net.cpp:84] Creating Layer inception_4b/3x3_reduce
I0507 15:48:24.956216  7142 net.cpp:406] inception_4b/3x3_reduce <- inception_4a/output_inception_4a/output_0_split_2
I0507 15:48:24.956225  7142 net.cpp:380] inception_4b/3x3_reduce -> inception_4b/3x3_reduce
I0507 15:48:24.960575  7142 net.cpp:122] Setting up inception_4b/3x3_reduce
I0507 15:48:24.960595  7142 net.cpp:129] Top shape: 32 112 14 14 (702464)
I0507 15:48:24.960600  7142 net.cpp:137] Memory required for data: 1272448004
I0507 15:48:24.960609  7142 layer_factory.hpp:77] Creating layer inception_4b/relu_3x3_reduce
I0507 15:48:24.960618  7142 net.cpp:84] Creating Layer inception_4b/relu_3x3_reduce
I0507 15:48:24.960623  7142 net.cpp:406] inception_4b/relu_3x3_reduce <- inception_4b/3x3_reduce
I0507 15:48:24.960629  7142 net.cpp:367] inception_4b/relu_3x3_reduce -> inception_4b/3x3_reduce (in-place)
I0507 15:48:24.961093  7142 net.cpp:122] Setting up inception_4b/relu_3x3_reduce
I0507 15:48:24.961104  7142 net.cpp:129] Top shape: 32 112 14 14 (702464)
I0507 15:48:24.961107  7142 net.cpp:137] Memory required for data: 1275257860
I0507 15:48:24.961112  7142 layer_factory.hpp:77] Creating layer inception_4b/3x3
I0507 15:48:24.961124  7142 net.cpp:84] Creating Layer inception_4b/3x3
I0507 15:48:24.961129  7142 net.cpp:406] inception_4b/3x3 <- inception_4b/3x3_reduce
I0507 15:48:24.961138  7142 net.cpp:380] inception_4b/3x3 -> inception_4b/3x3
I0507 15:48:24.965524  7142 net.cpp:122] Setting up inception_4b/3x3
I0507 15:48:24.965538  7142 net.cpp:129] Top shape: 32 224 14 14 (1404928)
I0507 15:48:24.965543  7142 net.cpp:137] Memory required for data: 1280877572
I0507 15:48:24.965550  7142 layer_factory.hpp:77] Creating layer inception_4b/relu_3x3
I0507 15:48:24.965559  7142 net.cpp:84] Creating Layer inception_4b/relu_3x3
I0507 15:48:24.965564  7142 net.cpp:406] inception_4b/relu_3x3 <- inception_4b/3x3
I0507 15:48:24.965570  7142 net.cpp:367] inception_4b/relu_3x3 -> inception_4b/3x3 (in-place)
I0507 15:48:24.966202  7142 net.cpp:122] Setting up inception_4b/relu_3x3
I0507 15:48:24.966212  7142 net.cpp:129] Top shape: 32 224 14 14 (1404928)
I0507 15:48:24.966217  7142 net.cpp:137] Memory required for data: 1286497284
I0507 15:48:24.966220  7142 layer_factory.hpp:77] Creating layer inception_4b/5x5_reduce
I0507 15:48:24.966233  7142 net.cpp:84] Creating Layer inception_4b/5x5_reduce
I0507 15:48:24.966238  7142 net.cpp:406] inception_4b/5x5_reduce <- inception_4a/output_inception_4a/output_0_split_3
I0507 15:48:24.966248  7142 net.cpp:380] inception_4b/5x5_reduce -> inception_4b/5x5_reduce
I0507 15:48:24.968336  7142 net.cpp:122] Setting up inception_4b/5x5_reduce
I0507 15:48:24.968350  7142 net.cpp:129] Top shape: 32 24 14 14 (150528)
I0507 15:48:24.968354  7142 net.cpp:137] Memory required for data: 1287099396
I0507 15:48:24.968361  7142 layer_factory.hpp:77] Creating layer inception_4b/relu_5x5_reduce
I0507 15:48:24.968389  7142 net.cpp:84] Creating Layer inception_4b/relu_5x5_reduce
I0507 15:48:24.968394  7142 net.cpp:406] inception_4b/relu_5x5_reduce <- inception_4b/5x5_reduce
I0507 15:48:24.968401  7142 net.cpp:367] inception_4b/relu_5x5_reduce -> inception_4b/5x5_reduce (in-place)
I0507 15:48:24.969038  7142 net.cpp:122] Setting up inception_4b/relu_5x5_reduce
I0507 15:48:24.969048  7142 net.cpp:129] Top shape: 32 24 14 14 (150528)
I0507 15:48:24.969053  7142 net.cpp:137] Memory required for data: 1287701508
I0507 15:48:24.969058  7142 layer_factory.hpp:77] Creating layer inception_4b/5x5
I0507 15:48:24.969069  7142 net.cpp:84] Creating Layer inception_4b/5x5
I0507 15:48:24.969074  7142 net.cpp:406] inception_4b/5x5 <- inception_4b/5x5_reduce
I0507 15:48:24.969084  7142 net.cpp:380] inception_4b/5x5 -> inception_4b/5x5
I0507 15:48:24.972786  7142 net.cpp:122] Setting up inception_4b/5x5
I0507 15:48:24.972800  7142 net.cpp:129] Top shape: 32 64 14 14 (401408)
I0507 15:48:24.972805  7142 net.cpp:137] Memory required for data: 1289307140
I0507 15:48:24.972813  7142 layer_factory.hpp:77] Creating layer inception_4b/relu_5x5
I0507 15:48:24.972824  7142 net.cpp:84] Creating Layer inception_4b/relu_5x5
I0507 15:48:24.972829  7142 net.cpp:406] inception_4b/relu_5x5 <- inception_4b/5x5
I0507 15:48:24.972836  7142 net.cpp:367] inception_4b/relu_5x5 -> inception_4b/5x5 (in-place)
I0507 15:48:24.973457  7142 net.cpp:122] Setting up inception_4b/relu_5x5
I0507 15:48:24.973469  7142 net.cpp:129] Top shape: 32 64 14 14 (401408)
I0507 15:48:24.973472  7142 net.cpp:137] Memory required for data: 1290912772
I0507 15:48:24.973477  7142 layer_factory.hpp:77] Creating layer inception_4b/pool
I0507 15:48:24.973487  7142 net.cpp:84] Creating Layer inception_4b/pool
I0507 15:48:24.973492  7142 net.cpp:406] inception_4b/pool <- inception_4a/output_inception_4a/output_0_split_4
I0507 15:48:24.973500  7142 net.cpp:380] inception_4b/pool -> inception_4b/pool
I0507 15:48:24.973564  7142 net.cpp:122] Setting up inception_4b/pool
I0507 15:48:24.973573  7142 net.cpp:129] Top shape: 32 512 14 14 (3211264)
I0507 15:48:24.973577  7142 net.cpp:137] Memory required for data: 1303757828
I0507 15:48:24.973582  7142 layer_factory.hpp:77] Creating layer inception_4b/pool_proj
I0507 15:48:24.973592  7142 net.cpp:84] Creating Layer inception_4b/pool_proj
I0507 15:48:24.973596  7142 net.cpp:406] inception_4b/pool_proj <- inception_4b/pool
I0507 15:48:24.973603  7142 net.cpp:380] inception_4b/pool_proj -> inception_4b/pool_proj
I0507 15:48:24.975709  7142 net.cpp:122] Setting up inception_4b/pool_proj
I0507 15:48:24.975721  7142 net.cpp:129] Top shape: 32 64 14 14 (401408)
I0507 15:48:24.975726  7142 net.cpp:137] Memory required for data: 1305363460
I0507 15:48:24.975733  7142 layer_factory.hpp:77] Creating layer inception_4b/relu_pool_proj
I0507 15:48:24.975741  7142 net.cpp:84] Creating Layer inception_4b/relu_pool_proj
I0507 15:48:24.975746  7142 net.cpp:406] inception_4b/relu_pool_proj <- inception_4b/pool_proj
I0507 15:48:24.975754  7142 net.cpp:367] inception_4b/relu_pool_proj -> inception_4b/pool_proj (in-place)
I0507 15:48:24.976375  7142 net.cpp:122] Setting up inception_4b/relu_pool_proj
I0507 15:48:24.976387  7142 net.cpp:129] Top shape: 32 64 14 14 (401408)
I0507 15:48:24.976392  7142 net.cpp:137] Memory required for data: 1306969092
I0507 15:48:24.976397  7142 layer_factory.hpp:77] Creating layer inception_4b/output
I0507 15:48:24.976404  7142 net.cpp:84] Creating Layer inception_4b/output
I0507 15:48:24.976409  7142 net.cpp:406] inception_4b/output <- inception_4b/1x1
I0507 15:48:24.976415  7142 net.cpp:406] inception_4b/output <- inception_4b/3x3
I0507 15:48:24.976420  7142 net.cpp:406] inception_4b/output <- inception_4b/5x5
I0507 15:48:24.976426  7142 net.cpp:406] inception_4b/output <- inception_4b/pool_proj
I0507 15:48:24.976434  7142 net.cpp:380] inception_4b/output -> inception_4b/output
I0507 15:48:24.976469  7142 net.cpp:122] Setting up inception_4b/output
I0507 15:48:24.976475  7142 net.cpp:129] Top shape: 32 512 14 14 (3211264)
I0507 15:48:24.976493  7142 net.cpp:137] Memory required for data: 1319814148
I0507 15:48:24.976498  7142 layer_factory.hpp:77] Creating layer inception_4b/output_inception_4b/output_0_split
I0507 15:48:24.976505  7142 net.cpp:84] Creating Layer inception_4b/output_inception_4b/output_0_split
I0507 15:48:24.976511  7142 net.cpp:406] inception_4b/output_inception_4b/output_0_split <- inception_4b/output
I0507 15:48:24.976518  7142 net.cpp:380] inception_4b/output_inception_4b/output_0_split -> inception_4b/output_inception_4b/output_0_split_0
I0507 15:48:24.976526  7142 net.cpp:380] inception_4b/output_inception_4b/output_0_split -> inception_4b/output_inception_4b/output_0_split_1
I0507 15:48:24.976533  7142 net.cpp:380] inception_4b/output_inception_4b/output_0_split -> inception_4b/output_inception_4b/output_0_split_2
I0507 15:48:24.976541  7142 net.cpp:380] inception_4b/output_inception_4b/output_0_split -> inception_4b/output_inception_4b/output_0_split_3
I0507 15:48:24.976603  7142 net.cpp:122] Setting up inception_4b/output_inception_4b/output_0_split
I0507 15:48:24.976608  7142 net.cpp:129] Top shape: 32 512 14 14 (3211264)
I0507 15:48:24.976613  7142 net.cpp:129] Top shape: 32 512 14 14 (3211264)
I0507 15:48:24.976619  7142 net.cpp:129] Top shape: 32 512 14 14 (3211264)
I0507 15:48:24.976624  7142 net.cpp:129] Top shape: 32 512 14 14 (3211264)
I0507 15:48:24.976629  7142 net.cpp:137] Memory required for data: 1371194372
I0507 15:48:24.976632  7142 layer_factory.hpp:77] Creating layer inception_4c/1x1
I0507 15:48:24.976645  7142 net.cpp:84] Creating Layer inception_4c/1x1
I0507 15:48:24.976649  7142 net.cpp:406] inception_4c/1x1 <- inception_4b/output_inception_4b/output_0_split_0
I0507 15:48:24.976656  7142 net.cpp:380] inception_4c/1x1 -> inception_4c/1x1
I0507 15:48:24.989297  7142 net.cpp:122] Setting up inception_4c/1x1
I0507 15:48:24.989315  7142 net.cpp:129] Top shape: 32 128 14 14 (802816)
I0507 15:48:24.989320  7142 net.cpp:137] Memory required for data: 1374405636
I0507 15:48:24.989329  7142 layer_factory.hpp:77] Creating layer inception_4c/relu_1x1
I0507 15:48:24.989338  7142 net.cpp:84] Creating Layer inception_4c/relu_1x1
I0507 15:48:24.989344  7142 net.cpp:406] inception_4c/relu_1x1 <- inception_4c/1x1
I0507 15:48:24.989353  7142 net.cpp:367] inception_4c/relu_1x1 -> inception_4c/1x1 (in-place)
I0507 15:48:24.989787  7142 net.cpp:122] Setting up inception_4c/relu_1x1
I0507 15:48:24.989796  7142 net.cpp:129] Top shape: 32 128 14 14 (802816)
I0507 15:48:24.989800  7142 net.cpp:137] Memory required for data: 1377616900
I0507 15:48:24.989805  7142 layer_factory.hpp:77] Creating layer inception_4c/3x3_reduce
I0507 15:48:24.989818  7142 net.cpp:84] Creating Layer inception_4c/3x3_reduce
I0507 15:48:24.989823  7142 net.cpp:406] inception_4c/3x3_reduce <- inception_4b/output_inception_4b/output_0_split_1
I0507 15:48:24.989832  7142 net.cpp:380] inception_4c/3x3_reduce -> inception_4c/3x3_reduce
I0507 15:48:24.992267  7142 net.cpp:122] Setting up inception_4c/3x3_reduce
I0507 15:48:24.992280  7142 net.cpp:129] Top shape: 32 128 14 14 (802816)
I0507 15:48:24.992285  7142 net.cpp:137] Memory required for data: 1380828164
I0507 15:48:24.992291  7142 layer_factory.hpp:77] Creating layer inception_4c/relu_3x3_reduce
I0507 15:48:24.992298  7142 net.cpp:84] Creating Layer inception_4c/relu_3x3_reduce
I0507 15:48:24.992305  7142 net.cpp:406] inception_4c/relu_3x3_reduce <- inception_4c/3x3_reduce
I0507 15:48:24.992312  7142 net.cpp:367] inception_4c/relu_3x3_reduce -> inception_4c/3x3_reduce (in-place)
I0507 15:48:24.992913  7142 net.cpp:122] Setting up inception_4c/relu_3x3_reduce
I0507 15:48:24.992924  7142 net.cpp:129] Top shape: 32 128 14 14 (802816)
I0507 15:48:24.992928  7142 net.cpp:137] Memory required for data: 1384039428
I0507 15:48:24.992933  7142 layer_factory.hpp:77] Creating layer inception_4c/3x3
I0507 15:48:24.992944  7142 net.cpp:84] Creating Layer inception_4c/3x3
I0507 15:48:24.992949  7142 net.cpp:406] inception_4c/3x3 <- inception_4c/3x3_reduce
I0507 15:48:24.992959  7142 net.cpp:380] inception_4c/3x3 -> inception_4c/3x3
I0507 15:48:24.996660  7142 net.cpp:122] Setting up inception_4c/3x3
I0507 15:48:24.996672  7142 net.cpp:129] Top shape: 32 256 14 14 (1605632)
I0507 15:48:24.996677  7142 net.cpp:137] Memory required for data: 1390461956
I0507 15:48:24.996699  7142 layer_factory.hpp:77] Creating layer inception_4c/relu_3x3
I0507 15:48:24.996706  7142 net.cpp:84] Creating Layer inception_4c/relu_3x3
I0507 15:48:24.996711  7142 net.cpp:406] inception_4c/relu_3x3 <- inception_4c/3x3
I0507 15:48:24.996719  7142 net.cpp:367] inception_4c/relu_3x3 -> inception_4c/3x3 (in-place)
I0507 15:48:24.997305  7142 net.cpp:122] Setting up inception_4c/relu_3x3
I0507 15:48:24.997315  7142 net.cpp:129] Top shape: 32 256 14 14 (1605632)
I0507 15:48:24.997319  7142 net.cpp:137] Memory required for data: 1396884484
I0507 15:48:24.997324  7142 layer_factory.hpp:77] Creating layer inception_4c/5x5_reduce
I0507 15:48:24.997336  7142 net.cpp:84] Creating Layer inception_4c/5x5_reduce
I0507 15:48:24.997341  7142 net.cpp:406] inception_4c/5x5_reduce <- inception_4b/output_inception_4b/output_0_split_2
I0507 15:48:24.997350  7142 net.cpp:380] inception_4c/5x5_reduce -> inception_4c/5x5_reduce
I0507 15:48:25.000618  7142 net.cpp:122] Setting up inception_4c/5x5_reduce
I0507 15:48:25.000631  7142 net.cpp:129] Top shape: 32 24 14 14 (150528)
I0507 15:48:25.000635  7142 net.cpp:137] Memory required for data: 1397486596
I0507 15:48:25.000643  7142 layer_factory.hpp:77] Creating layer inception_4c/relu_5x5_reduce
I0507 15:48:25.000651  7142 net.cpp:84] Creating Layer inception_4c/relu_5x5_reduce
I0507 15:48:25.000656  7142 net.cpp:406] inception_4c/relu_5x5_reduce <- inception_4c/5x5_reduce
I0507 15:48:25.000665  7142 net.cpp:367] inception_4c/relu_5x5_reduce -> inception_4c/5x5_reduce (in-place)
I0507 15:48:25.001245  7142 net.cpp:122] Setting up inception_4c/relu_5x5_reduce
I0507 15:48:25.001256  7142 net.cpp:129] Top shape: 32 24 14 14 (150528)
I0507 15:48:25.001260  7142 net.cpp:137] Memory required for data: 1398088708
I0507 15:48:25.001266  7142 layer_factory.hpp:77] Creating layer inception_4c/5x5
I0507 15:48:25.001277  7142 net.cpp:84] Creating Layer inception_4c/5x5
I0507 15:48:25.001281  7142 net.cpp:406] inception_4c/5x5 <- inception_4c/5x5_reduce
I0507 15:48:25.001291  7142 net.cpp:380] inception_4c/5x5 -> inception_4c/5x5
I0507 15:48:25.003430  7142 net.cpp:122] Setting up inception_4c/5x5
I0507 15:48:25.003443  7142 net.cpp:129] Top shape: 32 64 14 14 (401408)
I0507 15:48:25.003446  7142 net.cpp:137] Memory required for data: 1399694340
I0507 15:48:25.003453  7142 layer_factory.hpp:77] Creating layer inception_4c/relu_5x5
I0507 15:48:25.003463  7142 net.cpp:84] Creating Layer inception_4c/relu_5x5
I0507 15:48:25.003468  7142 net.cpp:406] inception_4c/relu_5x5 <- inception_4c/5x5
I0507 15:48:25.003474  7142 net.cpp:367] inception_4c/relu_5x5 -> inception_4c/5x5 (in-place)
I0507 15:48:25.004070  7142 net.cpp:122] Setting up inception_4c/relu_5x5
I0507 15:48:25.004079  7142 net.cpp:129] Top shape: 32 64 14 14 (401408)
I0507 15:48:25.004084  7142 net.cpp:137] Memory required for data: 1401299972
I0507 15:48:25.004088  7142 layer_factory.hpp:77] Creating layer inception_4c/pool
I0507 15:48:25.004098  7142 net.cpp:84] Creating Layer inception_4c/pool
I0507 15:48:25.004103  7142 net.cpp:406] inception_4c/pool <- inception_4b/output_inception_4b/output_0_split_3
I0507 15:48:25.004109  7142 net.cpp:380] inception_4c/pool -> inception_4c/pool
I0507 15:48:25.004155  7142 net.cpp:122] Setting up inception_4c/pool
I0507 15:48:25.004161  7142 net.cpp:129] Top shape: 32 512 14 14 (3211264)
I0507 15:48:25.004165  7142 net.cpp:137] Memory required for data: 1414145028
I0507 15:48:25.004170  7142 layer_factory.hpp:77] Creating layer inception_4c/pool_proj
I0507 15:48:25.004181  7142 net.cpp:84] Creating Layer inception_4c/pool_proj
I0507 15:48:25.004185  7142 net.cpp:406] inception_4c/pool_proj <- inception_4c/pool
I0507 15:48:25.004194  7142 net.cpp:380] inception_4c/pool_proj -> inception_4c/pool_proj
I0507 15:48:25.008992  7142 net.cpp:122] Setting up inception_4c/pool_proj
I0507 15:48:25.009004  7142 net.cpp:129] Top shape: 32 64 14 14 (401408)
I0507 15:48:25.009008  7142 net.cpp:137] Memory required for data: 1415750660
I0507 15:48:25.009016  7142 layer_factory.hpp:77] Creating layer inception_4c/relu_pool_proj
I0507 15:48:25.009024  7142 net.cpp:84] Creating Layer inception_4c/relu_pool_proj
I0507 15:48:25.009029  7142 net.cpp:406] inception_4c/relu_pool_proj <- inception_4c/pool_proj
I0507 15:48:25.009037  7142 net.cpp:367] inception_4c/relu_pool_proj -> inception_4c/pool_proj (in-place)
I0507 15:48:25.009443  7142 net.cpp:122] Setting up inception_4c/relu_pool_proj
I0507 15:48:25.009452  7142 net.cpp:129] Top shape: 32 64 14 14 (401408)
I0507 15:48:25.009456  7142 net.cpp:137] Memory required for data: 1417356292
I0507 15:48:25.009461  7142 layer_factory.hpp:77] Creating layer inception_4c/output
I0507 15:48:25.009469  7142 net.cpp:84] Creating Layer inception_4c/output
I0507 15:48:25.009475  7142 net.cpp:406] inception_4c/output <- inception_4c/1x1
I0507 15:48:25.009480  7142 net.cpp:406] inception_4c/output <- inception_4c/3x3
I0507 15:48:25.009485  7142 net.cpp:406] inception_4c/output <- inception_4c/5x5
I0507 15:48:25.009490  7142 net.cpp:406] inception_4c/output <- inception_4c/pool_proj
I0507 15:48:25.009496  7142 net.cpp:380] inception_4c/output -> inception_4c/output
I0507 15:48:25.009526  7142 net.cpp:122] Setting up inception_4c/output
I0507 15:48:25.009532  7142 net.cpp:129] Top shape: 32 512 14 14 (3211264)
I0507 15:48:25.009536  7142 net.cpp:137] Memory required for data: 1430201348
I0507 15:48:25.009541  7142 layer_factory.hpp:77] Creating layer inception_4c/output_inception_4c/output_0_split
I0507 15:48:25.009550  7142 net.cpp:84] Creating Layer inception_4c/output_inception_4c/output_0_split
I0507 15:48:25.009554  7142 net.cpp:406] inception_4c/output_inception_4c/output_0_split <- inception_4c/output
I0507 15:48:25.009560  7142 net.cpp:380] inception_4c/output_inception_4c/output_0_split -> inception_4c/output_inception_4c/output_0_split_0
I0507 15:48:25.009568  7142 net.cpp:380] inception_4c/output_inception_4c/output_0_split -> inception_4c/output_inception_4c/output_0_split_1
I0507 15:48:25.009577  7142 net.cpp:380] inception_4c/output_inception_4c/output_0_split -> inception_4c/output_inception_4c/output_0_split_2
I0507 15:48:25.009583  7142 net.cpp:380] inception_4c/output_inception_4c/output_0_split -> inception_4c/output_inception_4c/output_0_split_3
I0507 15:48:25.009640  7142 net.cpp:122] Setting up inception_4c/output_inception_4c/output_0_split
I0507 15:48:25.009646  7142 net.cpp:129] Top shape: 32 512 14 14 (3211264)
I0507 15:48:25.009651  7142 net.cpp:129] Top shape: 32 512 14 14 (3211264)
I0507 15:48:25.009656  7142 net.cpp:129] Top shape: 32 512 14 14 (3211264)
I0507 15:48:25.009660  7142 net.cpp:129] Top shape: 32 512 14 14 (3211264)
I0507 15:48:25.009665  7142 net.cpp:137] Memory required for data: 1481581572
I0507 15:48:25.009670  7142 layer_factory.hpp:77] Creating layer inception_4d/1x1
I0507 15:48:25.009682  7142 net.cpp:84] Creating Layer inception_4d/1x1
I0507 15:48:25.009687  7142 net.cpp:406] inception_4d/1x1 <- inception_4c/output_inception_4c/output_0_split_0
I0507 15:48:25.009693  7142 net.cpp:380] inception_4d/1x1 -> inception_4d/1x1
I0507 15:48:25.012689  7142 net.cpp:122] Setting up inception_4d/1x1
I0507 15:48:25.012701  7142 net.cpp:129] Top shape: 32 112 14 14 (702464)
I0507 15:48:25.012706  7142 net.cpp:137] Memory required for data: 1484391428
I0507 15:48:25.012714  7142 layer_factory.hpp:77] Creating layer inception_4d/relu_1x1
I0507 15:48:25.012722  7142 net.cpp:84] Creating Layer inception_4d/relu_1x1
I0507 15:48:25.012727  7142 net.cpp:406] inception_4d/relu_1x1 <- inception_4d/1x1
I0507 15:48:25.012735  7142 net.cpp:367] inception_4d/relu_1x1 -> inception_4d/1x1 (in-place)
I0507 15:48:25.013137  7142 net.cpp:122] Setting up inception_4d/relu_1x1
I0507 15:48:25.013147  7142 net.cpp:129] Top shape: 32 112 14 14 (702464)
I0507 15:48:25.013151  7142 net.cpp:137] Memory required for data: 1487201284
I0507 15:48:25.013173  7142 layer_factory.hpp:77] Creating layer inception_4d/3x3_reduce
I0507 15:48:25.013185  7142 net.cpp:84] Creating Layer inception_4d/3x3_reduce
I0507 15:48:25.013190  7142 net.cpp:406] inception_4d/3x3_reduce <- inception_4c/output_inception_4c/output_0_split_1
I0507 15:48:25.013200  7142 net.cpp:380] inception_4d/3x3_reduce -> inception_4d/3x3_reduce
I0507 15:48:25.015501  7142 net.cpp:122] Setting up inception_4d/3x3_reduce
I0507 15:48:25.015512  7142 net.cpp:129] Top shape: 32 144 14 14 (903168)
I0507 15:48:25.015516  7142 net.cpp:137] Memory required for data: 1490813956
I0507 15:48:25.015524  7142 layer_factory.hpp:77] Creating layer inception_4d/relu_3x3_reduce
I0507 15:48:25.015533  7142 net.cpp:84] Creating Layer inception_4d/relu_3x3_reduce
I0507 15:48:25.015538  7142 net.cpp:406] inception_4d/relu_3x3_reduce <- inception_4d/3x3_reduce
I0507 15:48:25.015545  7142 net.cpp:367] inception_4d/relu_3x3_reduce -> inception_4d/3x3_reduce (in-place)
I0507 15:48:25.016240  7142 net.cpp:122] Setting up inception_4d/relu_3x3_reduce
I0507 15:48:25.016252  7142 net.cpp:129] Top shape: 32 144 14 14 (903168)
I0507 15:48:25.016255  7142 net.cpp:137] Memory required for data: 1494426628
I0507 15:48:25.016260  7142 layer_factory.hpp:77] Creating layer inception_4d/3x3
I0507 15:48:25.016271  7142 net.cpp:84] Creating Layer inception_4d/3x3
I0507 15:48:25.016275  7142 net.cpp:406] inception_4d/3x3 <- inception_4d/3x3_reduce
I0507 15:48:25.016284  7142 net.cpp:380] inception_4d/3x3 -> inception_4d/3x3
I0507 15:48:25.021701  7142 net.cpp:122] Setting up inception_4d/3x3
I0507 15:48:25.021715  7142 net.cpp:129] Top shape: 32 288 14 14 (1806336)
I0507 15:48:25.021720  7142 net.cpp:137] Memory required for data: 1501651972
I0507 15:48:25.021728  7142 layer_factory.hpp:77] Creating layer inception_4d/relu_3x3
I0507 15:48:25.021736  7142 net.cpp:84] Creating Layer inception_4d/relu_3x3
I0507 15:48:25.021742  7142 net.cpp:406] inception_4d/relu_3x3 <- inception_4d/3x3
I0507 15:48:25.021749  7142 net.cpp:367] inception_4d/relu_3x3 -> inception_4d/3x3 (in-place)
I0507 15:48:25.022341  7142 net.cpp:122] Setting up inception_4d/relu_3x3
I0507 15:48:25.022352  7142 net.cpp:129] Top shape: 32 288 14 14 (1806336)
I0507 15:48:25.022356  7142 net.cpp:137] Memory required for data: 1508877316
I0507 15:48:25.022361  7142 layer_factory.hpp:77] Creating layer inception_4d/5x5_reduce
I0507 15:48:25.022373  7142 net.cpp:84] Creating Layer inception_4d/5x5_reduce
I0507 15:48:25.022379  7142 net.cpp:406] inception_4d/5x5_reduce <- inception_4c/output_inception_4c/output_0_split_2
I0507 15:48:25.022389  7142 net.cpp:380] inception_4d/5x5_reduce -> inception_4d/5x5_reduce
I0507 15:48:25.024919  7142 net.cpp:122] Setting up inception_4d/5x5_reduce
I0507 15:48:25.024930  7142 net.cpp:129] Top shape: 32 32 14 14 (200704)
I0507 15:48:25.024933  7142 net.cpp:137] Memory required for data: 1509680132
I0507 15:48:25.024940  7142 layer_factory.hpp:77] Creating layer inception_4d/relu_5x5_reduce
I0507 15:48:25.024947  7142 net.cpp:84] Creating Layer inception_4d/relu_5x5_reduce
I0507 15:48:25.024952  7142 net.cpp:406] inception_4d/relu_5x5_reduce <- inception_4d/5x5_reduce
I0507 15:48:25.024957  7142 net.cpp:367] inception_4d/relu_5x5_reduce -> inception_4d/5x5_reduce (in-place)
I0507 15:48:25.025504  7142 net.cpp:122] Setting up inception_4d/relu_5x5_reduce
I0507 15:48:25.025513  7142 net.cpp:129] Top shape: 32 32 14 14 (200704)
I0507 15:48:25.025517  7142 net.cpp:137] Memory required for data: 1510482948
I0507 15:48:25.025521  7142 layer_factory.hpp:77] Creating layer inception_4d/5x5
I0507 15:48:25.025532  7142 net.cpp:84] Creating Layer inception_4d/5x5
I0507 15:48:25.025537  7142 net.cpp:406] inception_4d/5x5 <- inception_4d/5x5_reduce
I0507 15:48:25.025543  7142 net.cpp:380] inception_4d/5x5 -> inception_4d/5x5
I0507 15:48:25.027495  7142 net.cpp:122] Setting up inception_4d/5x5
I0507 15:48:25.027505  7142 net.cpp:129] Top shape: 32 64 14 14 (401408)
I0507 15:48:25.027509  7142 net.cpp:137] Memory required for data: 1512088580
I0507 15:48:25.027534  7142 layer_factory.hpp:77] Creating layer inception_4d/relu_5x5
I0507 15:48:25.027541  7142 net.cpp:84] Creating Layer inception_4d/relu_5x5
I0507 15:48:25.027545  7142 net.cpp:406] inception_4d/relu_5x5 <- inception_4d/5x5
I0507 15:48:25.027552  7142 net.cpp:367] inception_4d/relu_5x5 -> inception_4d/5x5 (in-place)
I0507 15:48:25.029881  7142 net.cpp:122] Setting up inception_4d/relu_5x5
I0507 15:48:25.029892  7142 net.cpp:129] Top shape: 32 64 14 14 (401408)
I0507 15:48:25.029896  7142 net.cpp:137] Memory required for data: 1513694212
I0507 15:48:25.029899  7142 layer_factory.hpp:77] Creating layer inception_4d/pool
I0507 15:48:25.029907  7142 net.cpp:84] Creating Layer inception_4d/pool
I0507 15:48:25.029912  7142 net.cpp:406] inception_4d/pool <- inception_4c/output_inception_4c/output_0_split_3
I0507 15:48:25.029920  7142 net.cpp:380] inception_4d/pool -> inception_4d/pool
I0507 15:48:25.029966  7142 net.cpp:122] Setting up inception_4d/pool
I0507 15:48:25.029973  7142 net.cpp:129] Top shape: 32 512 14 14 (3211264)
I0507 15:48:25.029975  7142 net.cpp:137] Memory required for data: 1526539268
I0507 15:48:25.029979  7142 layer_factory.hpp:77] Creating layer inception_4d/pool_proj
I0507 15:48:25.029990  7142 net.cpp:84] Creating Layer inception_4d/pool_proj
I0507 15:48:25.029994  7142 net.cpp:406] inception_4d/pool_proj <- inception_4d/pool
I0507 15:48:25.030000  7142 net.cpp:380] inception_4d/pool_proj -> inception_4d/pool_proj
I0507 15:48:25.032035  7142 net.cpp:122] Setting up inception_4d/pool_proj
I0507 15:48:25.032047  7142 net.cpp:129] Top shape: 32 64 14 14 (401408)
I0507 15:48:25.032050  7142 net.cpp:137] Memory required for data: 1528144900
I0507 15:48:25.032058  7142 layer_factory.hpp:77] Creating layer inception_4d/relu_pool_proj
I0507 15:48:25.032063  7142 net.cpp:84] Creating Layer inception_4d/relu_pool_proj
I0507 15:48:25.032068  7142 net.cpp:406] inception_4d/relu_pool_proj <- inception_4d/pool_proj
I0507 15:48:25.032074  7142 net.cpp:367] inception_4d/relu_pool_proj -> inception_4d/pool_proj (in-place)
I0507 15:48:25.032449  7142 net.cpp:122] Setting up inception_4d/relu_pool_proj
I0507 15:48:25.032459  7142 net.cpp:129] Top shape: 32 64 14 14 (401408)
I0507 15:48:25.032462  7142 net.cpp:137] Memory required for data: 1529750532
I0507 15:48:25.032466  7142 layer_factory.hpp:77] Creating layer inception_4d/output
I0507 15:48:25.032474  7142 net.cpp:84] Creating Layer inception_4d/output
I0507 15:48:25.032478  7142 net.cpp:406] inception_4d/output <- inception_4d/1x1
I0507 15:48:25.032483  7142 net.cpp:406] inception_4d/output <- inception_4d/3x3
I0507 15:48:25.032488  7142 net.cpp:406] inception_4d/output <- inception_4d/5x5
I0507 15:48:25.032492  7142 net.cpp:406] inception_4d/output <- inception_4d/pool_proj
I0507 15:48:25.032497  7142 net.cpp:380] inception_4d/output -> inception_4d/output
I0507 15:48:25.032526  7142 net.cpp:122] Setting up inception_4d/output
I0507 15:48:25.032531  7142 net.cpp:129] Top shape: 32 528 14 14 (3311616)
I0507 15:48:25.032534  7142 net.cpp:137] Memory required for data: 1542996996
I0507 15:48:25.032538  7142 layer_factory.hpp:77] Creating layer inception_4d/output_inception_4d/output_0_split
I0507 15:48:25.032546  7142 net.cpp:84] Creating Layer inception_4d/output_inception_4d/output_0_split
I0507 15:48:25.032550  7142 net.cpp:406] inception_4d/output_inception_4d/output_0_split <- inception_4d/output
I0507 15:48:25.032557  7142 net.cpp:380] inception_4d/output_inception_4d/output_0_split -> inception_4d/output_inception_4d/output_0_split_0
I0507 15:48:25.032564  7142 net.cpp:380] inception_4d/output_inception_4d/output_0_split -> inception_4d/output_inception_4d/output_0_split_1
I0507 15:48:25.032572  7142 net.cpp:380] inception_4d/output_inception_4d/output_0_split -> inception_4d/output_inception_4d/output_0_split_2
I0507 15:48:25.032577  7142 net.cpp:380] inception_4d/output_inception_4d/output_0_split -> inception_4d/output_inception_4d/output_0_split_3
I0507 15:48:25.032582  7142 net.cpp:380] inception_4d/output_inception_4d/output_0_split -> inception_4d/output_inception_4d/output_0_split_4
I0507 15:48:25.032667  7142 net.cpp:122] Setting up inception_4d/output_inception_4d/output_0_split
I0507 15:48:25.032675  7142 net.cpp:129] Top shape: 32 528 14 14 (3311616)
I0507 15:48:25.032678  7142 net.cpp:129] Top shape: 32 528 14 14 (3311616)
I0507 15:48:25.032682  7142 net.cpp:129] Top shape: 32 528 14 14 (3311616)
I0507 15:48:25.032686  7142 net.cpp:129] Top shape: 32 528 14 14 (3311616)
I0507 15:48:25.032691  7142 net.cpp:129] Top shape: 32 528 14 14 (3311616)
I0507 15:48:25.032693  7142 net.cpp:137] Memory required for data: 1609229316
I0507 15:48:25.032697  7142 layer_factory.hpp:77] Creating layer loss2/ave_pool
I0507 15:48:25.032704  7142 net.cpp:84] Creating Layer loss2/ave_pool
I0507 15:48:25.032708  7142 net.cpp:406] loss2/ave_pool <- inception_4d/output_inception_4d/output_0_split_0
I0507 15:48:25.032714  7142 net.cpp:380] loss2/ave_pool -> loss2/ave_pool
I0507 15:48:25.033274  7142 net.cpp:122] Setting up loss2/ave_pool
I0507 15:48:25.033284  7142 net.cpp:129] Top shape: 32 528 4 4 (270336)
I0507 15:48:25.033288  7142 net.cpp:137] Memory required for data: 1610310660
I0507 15:48:25.033291  7142 layer_factory.hpp:77] Creating layer loss2/conv
I0507 15:48:25.033301  7142 net.cpp:84] Creating Layer loss2/conv
I0507 15:48:25.033306  7142 net.cpp:406] loss2/conv <- loss2/ave_pool
I0507 15:48:25.033314  7142 net.cpp:380] loss2/conv -> loss2/conv
I0507 15:48:25.035533  7142 net.cpp:122] Setting up loss2/conv
I0507 15:48:25.035544  7142 net.cpp:129] Top shape: 32 128 4 4 (65536)
I0507 15:48:25.035548  7142 net.cpp:137] Memory required for data: 1610572804
I0507 15:48:25.035555  7142 layer_factory.hpp:77] Creating layer loss2/relu_conv
I0507 15:48:25.035562  7142 net.cpp:84] Creating Layer loss2/relu_conv
I0507 15:48:25.035567  7142 net.cpp:406] loss2/relu_conv <- loss2/conv
I0507 15:48:25.035573  7142 net.cpp:367] loss2/relu_conv -> loss2/conv (in-place)
I0507 15:48:25.035953  7142 net.cpp:122] Setting up loss2/relu_conv
I0507 15:48:25.035962  7142 net.cpp:129] Top shape: 32 128 4 4 (65536)
I0507 15:48:25.035965  7142 net.cpp:137] Memory required for data: 1610834948
I0507 15:48:25.035969  7142 layer_factory.hpp:77] Creating layer loss2/fc
I0507 15:48:25.035979  7142 net.cpp:84] Creating Layer loss2/fc
I0507 15:48:25.035984  7142 net.cpp:406] loss2/fc <- loss2/conv
I0507 15:48:25.035990  7142 net.cpp:380] loss2/fc -> loss2/fc
I0507 15:48:25.049129  7142 net.cpp:122] Setting up loss2/fc
I0507 15:48:25.049147  7142 net.cpp:129] Top shape: 32 1024 (32768)
I0507 15:48:25.049151  7142 net.cpp:137] Memory required for data: 1610966020
I0507 15:48:25.049160  7142 layer_factory.hpp:77] Creating layer loss2/relu_fc
I0507 15:48:25.049168  7142 net.cpp:84] Creating Layer loss2/relu_fc
I0507 15:48:25.049175  7142 net.cpp:406] loss2/relu_fc <- loss2/fc
I0507 15:48:25.049180  7142 net.cpp:367] loss2/relu_fc -> loss2/fc (in-place)
I0507 15:48:25.053947  7142 net.cpp:122] Setting up loss2/relu_fc
I0507 15:48:25.053961  7142 net.cpp:129] Top shape: 32 1024 (32768)
I0507 15:48:25.053964  7142 net.cpp:137] Memory required for data: 1611097092
I0507 15:48:25.053970  7142 layer_factory.hpp:77] Creating layer loss2/drop_fc
I0507 15:48:25.053979  7142 net.cpp:84] Creating Layer loss2/drop_fc
I0507 15:48:25.053985  7142 net.cpp:406] loss2/drop_fc <- loss2/fc
I0507 15:48:25.053992  7142 net.cpp:367] loss2/drop_fc -> loss2/fc (in-place)
I0507 15:48:25.054023  7142 net.cpp:122] Setting up loss2/drop_fc
I0507 15:48:25.054028  7142 net.cpp:129] Top shape: 32 1024 (32768)
I0507 15:48:25.054030  7142 net.cpp:137] Memory required for data: 1611228164
I0507 15:48:25.054033  7142 layer_factory.hpp:77] Creating layer loss2/classifier
I0507 15:48:25.054044  7142 net.cpp:84] Creating Layer loss2/classifier
I0507 15:48:25.054049  7142 net.cpp:406] loss2/classifier <- loss2/fc
I0507 15:48:25.054055  7142 net.cpp:380] loss2/classifier -> loss2/classifier
I0507 15:48:25.055215  7142 net.cpp:122] Setting up loss2/classifier
I0507 15:48:25.055222  7142 net.cpp:129] Top shape: 32 196 (6272)
I0507 15:48:25.055244  7142 net.cpp:137] Memory required for data: 1611253252
I0507 15:48:25.055253  7142 layer_factory.hpp:77] Creating layer loss2/loss
I0507 15:48:25.055261  7142 net.cpp:84] Creating Layer loss2/loss
I0507 15:48:25.055265  7142 net.cpp:406] loss2/loss <- loss2/classifier
I0507 15:48:25.055270  7142 net.cpp:406] loss2/loss <- label_train-data_1_split_1
I0507 15:48:25.055275  7142 net.cpp:380] loss2/loss -> loss2/loss
I0507 15:48:25.055284  7142 layer_factory.hpp:77] Creating layer loss2/loss
I0507 15:48:25.055908  7142 net.cpp:122] Setting up loss2/loss
I0507 15:48:25.055918  7142 net.cpp:129] Top shape: (1)
I0507 15:48:25.055922  7142 net.cpp:132]     with loss weight 0.3
I0507 15:48:25.055932  7142 net.cpp:137] Memory required for data: 1611253256
I0507 15:48:25.055938  7142 layer_factory.hpp:77] Creating layer inception_4e/1x1
I0507 15:48:25.055950  7142 net.cpp:84] Creating Layer inception_4e/1x1
I0507 15:48:25.055955  7142 net.cpp:406] inception_4e/1x1 <- inception_4d/output_inception_4d/output_0_split_1
I0507 15:48:25.055961  7142 net.cpp:380] inception_4e/1x1 -> inception_4e/1x1
I0507 15:48:25.058339  7142 net.cpp:122] Setting up inception_4e/1x1
I0507 15:48:25.058351  7142 net.cpp:129] Top shape: 32 256 14 14 (1605632)
I0507 15:48:25.058353  7142 net.cpp:137] Memory required for data: 1617675784
I0507 15:48:25.058360  7142 layer_factory.hpp:77] Creating layer inception_4e/relu_1x1
I0507 15:48:25.058367  7142 net.cpp:84] Creating Layer inception_4e/relu_1x1
I0507 15:48:25.058372  7142 net.cpp:406] inception_4e/relu_1x1 <- inception_4e/1x1
I0507 15:48:25.058378  7142 net.cpp:367] inception_4e/relu_1x1 -> inception_4e/1x1 (in-place)
I0507 15:48:25.058948  7142 net.cpp:122] Setting up inception_4e/relu_1x1
I0507 15:48:25.058959  7142 net.cpp:129] Top shape: 32 256 14 14 (1605632)
I0507 15:48:25.058964  7142 net.cpp:137] Memory required for data: 1624098312
I0507 15:48:25.058967  7142 layer_factory.hpp:77] Creating layer inception_4e/3x3_reduce
I0507 15:48:25.058977  7142 net.cpp:84] Creating Layer inception_4e/3x3_reduce
I0507 15:48:25.058981  7142 net.cpp:406] inception_4e/3x3_reduce <- inception_4d/output_inception_4d/output_0_split_2
I0507 15:48:25.058988  7142 net.cpp:380] inception_4e/3x3_reduce -> inception_4e/3x3_reduce
I0507 15:48:25.061805  7142 net.cpp:122] Setting up inception_4e/3x3_reduce
I0507 15:48:25.061816  7142 net.cpp:129] Top shape: 32 160 14 14 (1003520)
I0507 15:48:25.061820  7142 net.cpp:137] Memory required for data: 1628112392
I0507 15:48:25.061828  7142 layer_factory.hpp:77] Creating layer inception_4e/relu_3x3_reduce
I0507 15:48:25.061836  7142 net.cpp:84] Creating Layer inception_4e/relu_3x3_reduce
I0507 15:48:25.061841  7142 net.cpp:406] inception_4e/relu_3x3_reduce <- inception_4e/3x3_reduce
I0507 15:48:25.061846  7142 net.cpp:367] inception_4e/relu_3x3_reduce -> inception_4e/3x3_reduce (in-place)
I0507 15:48:25.062392  7142 net.cpp:122] Setting up inception_4e/relu_3x3_reduce
I0507 15:48:25.062402  7142 net.cpp:129] Top shape: 32 160 14 14 (1003520)
I0507 15:48:25.062405  7142 net.cpp:137] Memory required for data: 1632126472
I0507 15:48:25.062410  7142 layer_factory.hpp:77] Creating layer inception_4e/3x3
I0507 15:48:25.062422  7142 net.cpp:84] Creating Layer inception_4e/3x3
I0507 15:48:25.062427  7142 net.cpp:406] inception_4e/3x3 <- inception_4e/3x3_reduce
I0507 15:48:25.062435  7142 net.cpp:380] inception_4e/3x3 -> inception_4e/3x3
I0507 15:48:25.068876  7142 net.cpp:122] Setting up inception_4e/3x3
I0507 15:48:25.068889  7142 net.cpp:129] Top shape: 32 320 14 14 (2007040)
I0507 15:48:25.068895  7142 net.cpp:137] Memory required for data: 1640154632
I0507 15:48:25.068902  7142 layer_factory.hpp:77] Creating layer inception_4e/relu_3x3
I0507 15:48:25.068910  7142 net.cpp:84] Creating Layer inception_4e/relu_3x3
I0507 15:48:25.068914  7142 net.cpp:406] inception_4e/relu_3x3 <- inception_4e/3x3
I0507 15:48:25.068922  7142 net.cpp:367] inception_4e/relu_3x3 -> inception_4e/3x3 (in-place)
I0507 15:48:25.069305  7142 net.cpp:122] Setting up inception_4e/relu_3x3
I0507 15:48:25.069335  7142 net.cpp:129] Top shape: 32 320 14 14 (2007040)
I0507 15:48:25.069339  7142 net.cpp:137] Memory required for data: 1648182792
I0507 15:48:25.069344  7142 layer_factory.hpp:77] Creating layer inception_4e/5x5_reduce
I0507 15:48:25.069355  7142 net.cpp:84] Creating Layer inception_4e/5x5_reduce
I0507 15:48:25.069360  7142 net.cpp:406] inception_4e/5x5_reduce <- inception_4d/output_inception_4d/output_0_split_3
I0507 15:48:25.069368  7142 net.cpp:380] inception_4e/5x5_reduce -> inception_4e/5x5_reduce
I0507 15:48:25.071334  7142 net.cpp:122] Setting up inception_4e/5x5_reduce
I0507 15:48:25.071346  7142 net.cpp:129] Top shape: 32 32 14 14 (200704)
I0507 15:48:25.071350  7142 net.cpp:137] Memory required for data: 1648985608
I0507 15:48:25.071358  7142 layer_factory.hpp:77] Creating layer inception_4e/relu_5x5_reduce
I0507 15:48:25.071367  7142 net.cpp:84] Creating Layer inception_4e/relu_5x5_reduce
I0507 15:48:25.071372  7142 net.cpp:406] inception_4e/relu_5x5_reduce <- inception_4e/5x5_reduce
I0507 15:48:25.071379  7142 net.cpp:367] inception_4e/relu_5x5_reduce -> inception_4e/5x5_reduce (in-place)
I0507 15:48:25.071954  7142 net.cpp:122] Setting up inception_4e/relu_5x5_reduce
I0507 15:48:25.071965  7142 net.cpp:129] Top shape: 32 32 14 14 (200704)
I0507 15:48:25.071969  7142 net.cpp:137] Memory required for data: 1649788424
I0507 15:48:25.071974  7142 layer_factory.hpp:77] Creating layer inception_4e/5x5
I0507 15:48:25.072016  7142 net.cpp:84] Creating Layer inception_4e/5x5
I0507 15:48:25.072021  7142 net.cpp:406] inception_4e/5x5 <- inception_4e/5x5_reduce
I0507 15:48:25.072027  7142 net.cpp:380] inception_4e/5x5 -> inception_4e/5x5
I0507 15:48:25.075618  7142 net.cpp:122] Setting up inception_4e/5x5
I0507 15:48:25.075631  7142 net.cpp:129] Top shape: 32 128 14 14 (802816)
I0507 15:48:25.075635  7142 net.cpp:137] Memory required for data: 1652999688
I0507 15:48:25.075644  7142 layer_factory.hpp:77] Creating layer inception_4e/relu_5x5
I0507 15:48:25.075651  7142 net.cpp:84] Creating Layer inception_4e/relu_5x5
I0507 15:48:25.075656  7142 net.cpp:406] inception_4e/relu_5x5 <- inception_4e/5x5
I0507 15:48:25.075662  7142 net.cpp:367] inception_4e/relu_5x5 -> inception_4e/5x5 (in-place)
I0507 15:48:25.076207  7142 net.cpp:122] Setting up inception_4e/relu_5x5
I0507 15:48:25.076218  7142 net.cpp:129] Top shape: 32 128 14 14 (802816)
I0507 15:48:25.076222  7142 net.cpp:137] Memory required for data: 1656210952
I0507 15:48:25.076227  7142 layer_factory.hpp:77] Creating layer inception_4e/pool
I0507 15:48:25.076234  7142 net.cpp:84] Creating Layer inception_4e/pool
I0507 15:48:25.076239  7142 net.cpp:406] inception_4e/pool <- inception_4d/output_inception_4d/output_0_split_4
I0507 15:48:25.076246  7142 net.cpp:380] inception_4e/pool -> inception_4e/pool
I0507 15:48:25.076289  7142 net.cpp:122] Setting up inception_4e/pool
I0507 15:48:25.076295  7142 net.cpp:129] Top shape: 32 528 14 14 (3311616)
I0507 15:48:25.076298  7142 net.cpp:137] Memory required for data: 1669457416
I0507 15:48:25.076303  7142 layer_factory.hpp:77] Creating layer inception_4e/pool_proj
I0507 15:48:25.076311  7142 net.cpp:84] Creating Layer inception_4e/pool_proj
I0507 15:48:25.076315  7142 net.cpp:406] inception_4e/pool_proj <- inception_4e/pool
I0507 15:48:25.076323  7142 net.cpp:380] inception_4e/pool_proj -> inception_4e/pool_proj
I0507 15:48:25.078330  7142 net.cpp:122] Setting up inception_4e/pool_proj
I0507 15:48:25.078341  7142 net.cpp:129] Top shape: 32 128 14 14 (802816)
I0507 15:48:25.078346  7142 net.cpp:137] Memory required for data: 1672668680
I0507 15:48:25.078352  7142 layer_factory.hpp:77] Creating layer inception_4e/relu_pool_proj
I0507 15:48:25.078361  7142 net.cpp:84] Creating Layer inception_4e/relu_pool_proj
I0507 15:48:25.078364  7142 net.cpp:406] inception_4e/relu_pool_proj <- inception_4e/pool_proj
I0507 15:48:25.078370  7142 net.cpp:367] inception_4e/relu_pool_proj -> inception_4e/pool_proj (in-place)
I0507 15:48:25.083092  7142 net.cpp:122] Setting up inception_4e/relu_pool_proj
I0507 15:48:25.083102  7142 net.cpp:129] Top shape: 32 128 14 14 (802816)
I0507 15:48:25.083124  7142 net.cpp:137] Memory required for data: 1675879944
I0507 15:48:25.083128  7142 layer_factory.hpp:77] Creating layer inception_4e/output
I0507 15:48:25.083137  7142 net.cpp:84] Creating Layer inception_4e/output
I0507 15:48:25.083142  7142 net.cpp:406] inception_4e/output <- inception_4e/1x1
I0507 15:48:25.083148  7142 net.cpp:406] inception_4e/output <- inception_4e/3x3
I0507 15:48:25.083151  7142 net.cpp:406] inception_4e/output <- inception_4e/5x5
I0507 15:48:25.083155  7142 net.cpp:406] inception_4e/output <- inception_4e/pool_proj
I0507 15:48:25.083160  7142 net.cpp:380] inception_4e/output -> inception_4e/output
I0507 15:48:25.083194  7142 net.cpp:122] Setting up inception_4e/output
I0507 15:48:25.083199  7142 net.cpp:129] Top shape: 32 832 14 14 (5218304)
I0507 15:48:25.083202  7142 net.cpp:137] Memory required for data: 1696753160
I0507 15:48:25.083206  7142 layer_factory.hpp:77] Creating layer pool4/3x3_s2
I0507 15:48:25.083214  7142 net.cpp:84] Creating Layer pool4/3x3_s2
I0507 15:48:25.083217  7142 net.cpp:406] pool4/3x3_s2 <- inception_4e/output
I0507 15:48:25.083225  7142 net.cpp:380] pool4/3x3_s2 -> pool4/3x3_s2
I0507 15:48:25.083259  7142 net.cpp:122] Setting up pool4/3x3_s2
I0507 15:48:25.083266  7142 net.cpp:129] Top shape: 32 832 7 7 (1304576)
I0507 15:48:25.083268  7142 net.cpp:137] Memory required for data: 1701971464
I0507 15:48:25.083272  7142 layer_factory.hpp:77] Creating layer pool4/3x3_s2_pool4/3x3_s2_0_split
I0507 15:48:25.083281  7142 net.cpp:84] Creating Layer pool4/3x3_s2_pool4/3x3_s2_0_split
I0507 15:48:25.083284  7142 net.cpp:406] pool4/3x3_s2_pool4/3x3_s2_0_split <- pool4/3x3_s2
I0507 15:48:25.083289  7142 net.cpp:380] pool4/3x3_s2_pool4/3x3_s2_0_split -> pool4/3x3_s2_pool4/3x3_s2_0_split_0
I0507 15:48:25.083297  7142 net.cpp:380] pool4/3x3_s2_pool4/3x3_s2_0_split -> pool4/3x3_s2_pool4/3x3_s2_0_split_1
I0507 15:48:25.083303  7142 net.cpp:380] pool4/3x3_s2_pool4/3x3_s2_0_split -> pool4/3x3_s2_pool4/3x3_s2_0_split_2
I0507 15:48:25.083308  7142 net.cpp:380] pool4/3x3_s2_pool4/3x3_s2_0_split -> pool4/3x3_s2_pool4/3x3_s2_0_split_3
I0507 15:48:25.083359  7142 net.cpp:122] Setting up pool4/3x3_s2_pool4/3x3_s2_0_split
I0507 15:48:25.083364  7142 net.cpp:129] Top shape: 32 832 7 7 (1304576)
I0507 15:48:25.083369  7142 net.cpp:129] Top shape: 32 832 7 7 (1304576)
I0507 15:48:25.083374  7142 net.cpp:129] Top shape: 32 832 7 7 (1304576)
I0507 15:48:25.083377  7142 net.cpp:129] Top shape: 32 832 7 7 (1304576)
I0507 15:48:25.083380  7142 net.cpp:137] Memory required for data: 1722844680
I0507 15:48:25.083384  7142 layer_factory.hpp:77] Creating layer inception_5a/1x1
I0507 15:48:25.083395  7142 net.cpp:84] Creating Layer inception_5a/1x1
I0507 15:48:25.083400  7142 net.cpp:406] inception_5a/1x1 <- pool4/3x3_s2_pool4/3x3_s2_0_split_0
I0507 15:48:25.083405  7142 net.cpp:380] inception_5a/1x1 -> inception_5a/1x1
I0507 15:48:25.086145  7142 net.cpp:122] Setting up inception_5a/1x1
I0507 15:48:25.086156  7142 net.cpp:129] Top shape: 32 256 7 7 (401408)
I0507 15:48:25.086160  7142 net.cpp:137] Memory required for data: 1724450312
I0507 15:48:25.086167  7142 layer_factory.hpp:77] Creating layer inception_5a/relu_1x1
I0507 15:48:25.086174  7142 net.cpp:84] Creating Layer inception_5a/relu_1x1
I0507 15:48:25.086179  7142 net.cpp:406] inception_5a/relu_1x1 <- inception_5a/1x1
I0507 15:48:25.086186  7142 net.cpp:367] inception_5a/relu_1x1 -> inception_5a/1x1 (in-place)
I0507 15:48:25.086758  7142 net.cpp:122] Setting up inception_5a/relu_1x1
I0507 15:48:25.086771  7142 net.cpp:129] Top shape: 32 256 7 7 (401408)
I0507 15:48:25.086776  7142 net.cpp:137] Memory required for data: 1726055944
I0507 15:48:25.086781  7142 layer_factory.hpp:77] Creating layer inception_5a/3x3_reduce
I0507 15:48:25.086791  7142 net.cpp:84] Creating Layer inception_5a/3x3_reduce
I0507 15:48:25.086796  7142 net.cpp:406] inception_5a/3x3_reduce <- pool4/3x3_s2_pool4/3x3_s2_0_split_1
I0507 15:48:25.086802  7142 net.cpp:380] inception_5a/3x3_reduce -> inception_5a/3x3_reduce
I0507 15:48:25.091429  7142 net.cpp:122] Setting up inception_5a/3x3_reduce
I0507 15:48:25.091442  7142 net.cpp:129] Top shape: 32 160 7 7 (250880)
I0507 15:48:25.091446  7142 net.cpp:137] Memory required for data: 1727059464
I0507 15:48:25.091454  7142 layer_factory.hpp:77] Creating layer inception_5a/relu_3x3_reduce
I0507 15:48:25.091460  7142 net.cpp:84] Creating Layer inception_5a/relu_3x3_reduce
I0507 15:48:25.091465  7142 net.cpp:406] inception_5a/relu_3x3_reduce <- inception_5a/3x3_reduce
I0507 15:48:25.091472  7142 net.cpp:367] inception_5a/relu_3x3_reduce -> inception_5a/3x3_reduce (in-place)
I0507 15:48:25.091854  7142 net.cpp:122] Setting up inception_5a/relu_3x3_reduce
I0507 15:48:25.091863  7142 net.cpp:129] Top shape: 32 160 7 7 (250880)
I0507 15:48:25.091867  7142 net.cpp:137] Memory required for data: 1728062984
I0507 15:48:25.091871  7142 layer_factory.hpp:77] Creating layer inception_5a/3x3
I0507 15:48:25.091882  7142 net.cpp:84] Creating Layer inception_5a/3x3
I0507 15:48:25.091886  7142 net.cpp:406] inception_5a/3x3 <- inception_5a/3x3_reduce
I0507 15:48:25.091892  7142 net.cpp:380] inception_5a/3x3 -> inception_5a/3x3
I0507 15:48:25.098189  7142 net.cpp:122] Setting up inception_5a/3x3
I0507 15:48:25.098202  7142 net.cpp:129] Top shape: 32 320 7 7 (501760)
I0507 15:48:25.098207  7142 net.cpp:137] Memory required for data: 1730070024
I0507 15:48:25.098215  7142 layer_factory.hpp:77] Creating layer inception_5a/relu_3x3
I0507 15:48:25.098223  7142 net.cpp:84] Creating Layer inception_5a/relu_3x3
I0507 15:48:25.098228  7142 net.cpp:406] inception_5a/relu_3x3 <- inception_5a/3x3
I0507 15:48:25.098235  7142 net.cpp:367] inception_5a/relu_3x3 -> inception_5a/3x3 (in-place)
I0507 15:48:25.098801  7142 net.cpp:122] Setting up inception_5a/relu_3x3
I0507 15:48:25.098812  7142 net.cpp:129] Top shape: 32 320 7 7 (501760)
I0507 15:48:25.098816  7142 net.cpp:137] Memory required for data: 1732077064
I0507 15:48:25.098820  7142 layer_factory.hpp:77] Creating layer inception_5a/5x5_reduce
I0507 15:48:25.098832  7142 net.cpp:84] Creating Layer inception_5a/5x5_reduce
I0507 15:48:25.098839  7142 net.cpp:406] inception_5a/5x5_reduce <- pool4/3x3_s2_pool4/3x3_s2_0_split_2
I0507 15:48:25.098845  7142 net.cpp:380] inception_5a/5x5_reduce -> inception_5a/5x5_reduce
I0507 15:48:25.102126  7142 net.cpp:122] Setting up inception_5a/5x5_reduce
I0507 15:48:25.102138  7142 net.cpp:129] Top shape: 32 32 7 7 (50176)
I0507 15:48:25.102142  7142 net.cpp:137] Memory required for data: 1732277768
I0507 15:48:25.102149  7142 layer_factory.hpp:77] Creating layer inception_5a/relu_5x5_reduce
I0507 15:48:25.102157  7142 net.cpp:84] Creating Layer inception_5a/relu_5x5_reduce
I0507 15:48:25.102162  7142 net.cpp:406] inception_5a/relu_5x5_reduce <- inception_5a/5x5_reduce
I0507 15:48:25.102169  7142 net.cpp:367] inception_5a/relu_5x5_reduce -> inception_5a/5x5_reduce (in-place)
I0507 15:48:25.102738  7142 net.cpp:122] Setting up inception_5a/relu_5x5_reduce
I0507 15:48:25.102749  7142 net.cpp:129] Top shape: 32 32 7 7 (50176)
I0507 15:48:25.102753  7142 net.cpp:137] Memory required for data: 1732478472
I0507 15:48:25.102757  7142 layer_factory.hpp:77] Creating layer inception_5a/5x5
I0507 15:48:25.102768  7142 net.cpp:84] Creating Layer inception_5a/5x5
I0507 15:48:25.102773  7142 net.cpp:406] inception_5a/5x5 <- inception_5a/5x5_reduce
I0507 15:48:25.102782  7142 net.cpp:380] inception_5a/5x5 -> inception_5a/5x5
I0507 15:48:25.104974  7142 net.cpp:122] Setting up inception_5a/5x5
I0507 15:48:25.104984  7142 net.cpp:129] Top shape: 32 128 7 7 (200704)
I0507 15:48:25.104988  7142 net.cpp:137] Memory required for data: 1733281288
I0507 15:48:25.104995  7142 layer_factory.hpp:77] Creating layer inception_5a/relu_5x5
I0507 15:48:25.105001  7142 net.cpp:84] Creating Layer inception_5a/relu_5x5
I0507 15:48:25.105006  7142 net.cpp:406] inception_5a/relu_5x5 <- inception_5a/5x5
I0507 15:48:25.105013  7142 net.cpp:367] inception_5a/relu_5x5 -> inception_5a/5x5 (in-place)
I0507 15:48:25.105576  7142 net.cpp:122] Setting up inception_5a/relu_5x5
I0507 15:48:25.105602  7142 net.cpp:129] Top shape: 32 128 7 7 (200704)
I0507 15:48:25.105607  7142 net.cpp:137] Memory required for data: 1734084104
I0507 15:48:25.105612  7142 layer_factory.hpp:77] Creating layer inception_5a/pool
I0507 15:48:25.105621  7142 net.cpp:84] Creating Layer inception_5a/pool
I0507 15:48:25.105626  7142 net.cpp:406] inception_5a/pool <- pool4/3x3_s2_pool4/3x3_s2_0_split_3
I0507 15:48:25.105633  7142 net.cpp:380] inception_5a/pool -> inception_5a/pool
I0507 15:48:25.105677  7142 net.cpp:122] Setting up inception_5a/pool
I0507 15:48:25.105684  7142 net.cpp:129] Top shape: 32 832 7 7 (1304576)
I0507 15:48:25.105687  7142 net.cpp:137] Memory required for data: 1739302408
I0507 15:48:25.105691  7142 layer_factory.hpp:77] Creating layer inception_5a/pool_proj
I0507 15:48:25.105701  7142 net.cpp:84] Creating Layer inception_5a/pool_proj
I0507 15:48:25.105705  7142 net.cpp:406] inception_5a/pool_proj <- inception_5a/pool
I0507 15:48:25.105712  7142 net.cpp:380] inception_5a/pool_proj -> inception_5a/pool_proj
I0507 15:48:25.108150  7142 net.cpp:122] Setting up inception_5a/pool_proj
I0507 15:48:25.108161  7142 net.cpp:129] Top shape: 32 128 7 7 (200704)
I0507 15:48:25.108165  7142 net.cpp:137] Memory required for data: 1740105224
I0507 15:48:25.108172  7142 layer_factory.hpp:77] Creating layer inception_5a/relu_pool_proj
I0507 15:48:25.108178  7142 net.cpp:84] Creating Layer inception_5a/relu_pool_proj
I0507 15:48:25.108183  7142 net.cpp:406] inception_5a/relu_pool_proj <- inception_5a/pool_proj
I0507 15:48:25.108191  7142 net.cpp:367] inception_5a/relu_pool_proj -> inception_5a/pool_proj (in-place)
I0507 15:48:25.108754  7142 net.cpp:122] Setting up inception_5a/relu_pool_proj
I0507 15:48:25.108765  7142 net.cpp:129] Top shape: 32 128 7 7 (200704)
I0507 15:48:25.108768  7142 net.cpp:137] Memory required for data: 1740908040
I0507 15:48:25.108772  7142 layer_factory.hpp:77] Creating layer inception_5a/output
I0507 15:48:25.108779  7142 net.cpp:84] Creating Layer inception_5a/output
I0507 15:48:25.108784  7142 net.cpp:406] inception_5a/output <- inception_5a/1x1
I0507 15:48:25.108789  7142 net.cpp:406] inception_5a/output <- inception_5a/3x3
I0507 15:48:25.108793  7142 net.cpp:406] inception_5a/output <- inception_5a/5x5
I0507 15:48:25.108798  7142 net.cpp:406] inception_5a/output <- inception_5a/pool_proj
I0507 15:48:25.108804  7142 net.cpp:380] inception_5a/output -> inception_5a/output
I0507 15:48:25.108836  7142 net.cpp:122] Setting up inception_5a/output
I0507 15:48:25.108842  7142 net.cpp:129] Top shape: 32 832 7 7 (1304576)
I0507 15:48:25.108845  7142 net.cpp:137] Memory required for data: 1746126344
I0507 15:48:25.108850  7142 layer_factory.hpp:77] Creating layer inception_5a/output_inception_5a/output_0_split
I0507 15:48:25.108856  7142 net.cpp:84] Creating Layer inception_5a/output_inception_5a/output_0_split
I0507 15:48:25.108860  7142 net.cpp:406] inception_5a/output_inception_5a/output_0_split <- inception_5a/output
I0507 15:48:25.108866  7142 net.cpp:380] inception_5a/output_inception_5a/output_0_split -> inception_5a/output_inception_5a/output_0_split_0
I0507 15:48:25.108873  7142 net.cpp:380] inception_5a/output_inception_5a/output_0_split -> inception_5a/output_inception_5a/output_0_split_1
I0507 15:48:25.108880  7142 net.cpp:380] inception_5a/output_inception_5a/output_0_split -> inception_5a/output_inception_5a/output_0_split_2
I0507 15:48:25.108886  7142 net.cpp:380] inception_5a/output_inception_5a/output_0_split -> inception_5a/output_inception_5a/output_0_split_3
I0507 15:48:25.108942  7142 net.cpp:122] Setting up inception_5a/output_inception_5a/output_0_split
I0507 15:48:25.108947  7142 net.cpp:129] Top shape: 32 832 7 7 (1304576)
I0507 15:48:25.108952  7142 net.cpp:129] Top shape: 32 832 7 7 (1304576)
I0507 15:48:25.108955  7142 net.cpp:129] Top shape: 32 832 7 7 (1304576)
I0507 15:48:25.108959  7142 net.cpp:129] Top shape: 32 832 7 7 (1304576)
I0507 15:48:25.108963  7142 net.cpp:137] Memory required for data: 1766999560
I0507 15:48:25.108965  7142 layer_factory.hpp:77] Creating layer inception_5b/1x1
I0507 15:48:25.108989  7142 net.cpp:84] Creating Layer inception_5b/1x1
I0507 15:48:25.108994  7142 net.cpp:406] inception_5b/1x1 <- inception_5a/output_inception_5a/output_0_split_0
I0507 15:48:25.109000  7142 net.cpp:380] inception_5b/1x1 -> inception_5b/1x1
I0507 15:48:25.115036  7142 net.cpp:122] Setting up inception_5b/1x1
I0507 15:48:25.115049  7142 net.cpp:129] Top shape: 32 384 7 7 (602112)
I0507 15:48:25.115054  7142 net.cpp:137] Memory required for data: 1769408008
I0507 15:48:25.115062  7142 layer_factory.hpp:77] Creating layer inception_5b/relu_1x1
I0507 15:48:25.115069  7142 net.cpp:84] Creating Layer inception_5b/relu_1x1
I0507 15:48:25.115077  7142 net.cpp:406] inception_5b/relu_1x1 <- inception_5b/1x1
I0507 15:48:25.115083  7142 net.cpp:367] inception_5b/relu_1x1 -> inception_5b/1x1 (in-place)
I0507 15:48:25.115469  7142 net.cpp:122] Setting up inception_5b/relu_1x1
I0507 15:48:25.115478  7142 net.cpp:129] Top shape: 32 384 7 7 (602112)
I0507 15:48:25.115483  7142 net.cpp:137] Memory required for data: 1771816456
I0507 15:48:25.115487  7142 layer_factory.hpp:77] Creating layer inception_5b/3x3_reduce
I0507 15:48:25.115500  7142 net.cpp:84] Creating Layer inception_5b/3x3_reduce
I0507 15:48:25.115506  7142 net.cpp:406] inception_5b/3x3_reduce <- inception_5a/output_inception_5a/output_0_split_1
I0507 15:48:25.115512  7142 net.cpp:380] inception_5b/3x3_reduce -> inception_5b/3x3_reduce
I0507 15:48:25.121116  7142 net.cpp:122] Setting up inception_5b/3x3_reduce
I0507 15:48:25.121127  7142 net.cpp:129] Top shape: 32 192 7 7 (301056)
I0507 15:48:25.121131  7142 net.cpp:137] Memory required for data: 1773020680
I0507 15:48:25.121140  7142 layer_factory.hpp:77] Creating layer inception_5b/relu_3x3_reduce
I0507 15:48:25.121147  7142 net.cpp:84] Creating Layer inception_5b/relu_3x3_reduce
I0507 15:48:25.121153  7142 net.cpp:406] inception_5b/relu_3x3_reduce <- inception_5b/3x3_reduce
I0507 15:48:25.121158  7142 net.cpp:367] inception_5b/relu_3x3_reduce -> inception_5b/3x3_reduce (in-place)
I0507 15:48:25.121541  7142 net.cpp:122] Setting up inception_5b/relu_3x3_reduce
I0507 15:48:25.121551  7142 net.cpp:129] Top shape: 32 192 7 7 (301056)
I0507 15:48:25.121556  7142 net.cpp:137] Memory required for data: 1774224904
I0507 15:48:25.121559  7142 layer_factory.hpp:77] Creating layer inception_5b/3x3
I0507 15:48:25.121570  7142 net.cpp:84] Creating Layer inception_5b/3x3
I0507 15:48:25.121575  7142 net.cpp:406] inception_5b/3x3 <- inception_5b/3x3_reduce
I0507 15:48:25.121582  7142 net.cpp:380] inception_5b/3x3 -> inception_5b/3x3
I0507 15:48:25.130049  7142 net.cpp:122] Setting up inception_5b/3x3
I0507 15:48:25.130070  7142 net.cpp:129] Top shape: 32 384 7 7 (602112)
I0507 15:48:25.130074  7142 net.cpp:137] Memory required for data: 1776633352
I0507 15:48:25.130082  7142 layer_factory.hpp:77] Creating layer inception_5b/relu_3x3
I0507 15:48:25.130091  7142 net.cpp:84] Creating Layer inception_5b/relu_3x3
I0507 15:48:25.130096  7142 net.cpp:406] inception_5b/relu_3x3 <- inception_5b/3x3
I0507 15:48:25.130105  7142 net.cpp:367] inception_5b/relu_3x3 -> inception_5b/3x3 (in-place)
I0507 15:48:25.130674  7142 net.cpp:122] Setting up inception_5b/relu_3x3
I0507 15:48:25.130686  7142 net.cpp:129] Top shape: 32 384 7 7 (602112)
I0507 15:48:25.130689  7142 net.cpp:137] Memory required for data: 1779041800
I0507 15:48:25.130693  7142 layer_factory.hpp:77] Creating layer inception_5b/5x5_reduce
I0507 15:48:25.130705  7142 net.cpp:84] Creating Layer inception_5b/5x5_reduce
I0507 15:48:25.130709  7142 net.cpp:406] inception_5b/5x5_reduce <- inception_5a/output_inception_5a/output_0_split_2
I0507 15:48:25.130717  7142 net.cpp:380] inception_5b/5x5_reduce -> inception_5b/5x5_reduce
I0507 15:48:25.132655  7142 net.cpp:122] Setting up inception_5b/5x5_reduce
I0507 15:48:25.132665  7142 net.cpp:129] Top shape: 32 48 7 7 (75264)
I0507 15:48:25.132669  7142 net.cpp:137] Memory required for data: 1779342856
I0507 15:48:25.132675  7142 layer_factory.hpp:77] Creating layer inception_5b/relu_5x5_reduce
I0507 15:48:25.132702  7142 net.cpp:84] Creating Layer inception_5b/relu_5x5_reduce
I0507 15:48:25.132707  7142 net.cpp:406] inception_5b/relu_5x5_reduce <- inception_5b/5x5_reduce
I0507 15:48:25.132712  7142 net.cpp:367] inception_5b/relu_5x5_reduce -> inception_5b/5x5_reduce (in-place)
I0507 15:48:25.133260  7142 net.cpp:122] Setting up inception_5b/relu_5x5_reduce
I0507 15:48:25.133270  7142 net.cpp:129] Top shape: 32 48 7 7 (75264)
I0507 15:48:25.133273  7142 net.cpp:137] Memory required for data: 1779643912
I0507 15:48:25.133278  7142 layer_factory.hpp:77] Creating layer inception_5b/5x5
I0507 15:48:25.133289  7142 net.cpp:84] Creating Layer inception_5b/5x5
I0507 15:48:25.133294  7142 net.cpp:406] inception_5b/5x5 <- inception_5b/5x5_reduce
I0507 15:48:25.133301  7142 net.cpp:380] inception_5b/5x5 -> inception_5b/5x5
I0507 15:48:25.135810  7142 net.cpp:122] Setting up inception_5b/5x5
I0507 15:48:25.135821  7142 net.cpp:129] Top shape: 32 128 7 7 (200704)
I0507 15:48:25.135824  7142 net.cpp:137] Memory required for data: 1780446728
I0507 15:48:25.135831  7142 layer_factory.hpp:77] Creating layer inception_5b/relu_5x5
I0507 15:48:25.135838  7142 net.cpp:84] Creating Layer inception_5b/relu_5x5
I0507 15:48:25.135841  7142 net.cpp:406] inception_5b/relu_5x5 <- inception_5b/5x5
I0507 15:48:25.135848  7142 net.cpp:367] inception_5b/relu_5x5 -> inception_5b/5x5 (in-place)
I0507 15:48:25.136399  7142 net.cpp:122] Setting up inception_5b/relu_5x5
I0507 15:48:25.136409  7142 net.cpp:129] Top shape: 32 128 7 7 (200704)
I0507 15:48:25.136412  7142 net.cpp:137] Memory required for data: 1781249544
I0507 15:48:25.136416  7142 layer_factory.hpp:77] Creating layer inception_5b/pool
I0507 15:48:25.136423  7142 net.cpp:84] Creating Layer inception_5b/pool
I0507 15:48:25.136428  7142 net.cpp:406] inception_5b/pool <- inception_5a/output_inception_5a/output_0_split_3
I0507 15:48:25.136435  7142 net.cpp:380] inception_5b/pool -> inception_5b/pool
I0507 15:48:25.136479  7142 net.cpp:122] Setting up inception_5b/pool
I0507 15:48:25.136485  7142 net.cpp:129] Top shape: 32 832 7 7 (1304576)
I0507 15:48:25.136488  7142 net.cpp:137] Memory required for data: 1786467848
I0507 15:48:25.136492  7142 layer_factory.hpp:77] Creating layer inception_5b/pool_proj
I0507 15:48:25.136502  7142 net.cpp:84] Creating Layer inception_5b/pool_proj
I0507 15:48:25.136507  7142 net.cpp:406] inception_5b/pool_proj <- inception_5b/pool
I0507 15:48:25.136512  7142 net.cpp:380] inception_5b/pool_proj -> inception_5b/pool_proj
I0507 15:48:25.141086  7142 net.cpp:122] Setting up inception_5b/pool_proj
I0507 15:48:25.141101  7142 net.cpp:129] Top shape: 32 128 7 7 (200704)
I0507 15:48:25.141104  7142 net.cpp:137] Memory required for data: 1787270664
I0507 15:48:25.141113  7142 layer_factory.hpp:77] Creating layer inception_5b/relu_pool_proj
I0507 15:48:25.141119  7142 net.cpp:84] Creating Layer inception_5b/relu_pool_proj
I0507 15:48:25.141124  7142 net.cpp:406] inception_5b/relu_pool_proj <- inception_5b/pool_proj
I0507 15:48:25.141132  7142 net.cpp:367] inception_5b/relu_pool_proj -> inception_5b/pool_proj (in-place)
I0507 15:48:25.141703  7142 net.cpp:122] Setting up inception_5b/relu_pool_proj
I0507 15:48:25.141712  7142 net.cpp:129] Top shape: 32 128 7 7 (200704)
I0507 15:48:25.141716  7142 net.cpp:137] Memory required for data: 1788073480
I0507 15:48:25.141721  7142 layer_factory.hpp:77] Creating layer inception_5b/output
I0507 15:48:25.141727  7142 net.cpp:84] Creating Layer inception_5b/output
I0507 15:48:25.141731  7142 net.cpp:406] inception_5b/output <- inception_5b/1x1
I0507 15:48:25.141736  7142 net.cpp:406] inception_5b/output <- inception_5b/3x3
I0507 15:48:25.141741  7142 net.cpp:406] inception_5b/output <- inception_5b/5x5
I0507 15:48:25.141746  7142 net.cpp:406] inception_5b/output <- inception_5b/pool_proj
I0507 15:48:25.141752  7142 net.cpp:380] inception_5b/output -> inception_5b/output
I0507 15:48:25.141782  7142 net.cpp:122] Setting up inception_5b/output
I0507 15:48:25.141788  7142 net.cpp:129] Top shape: 32 1024 7 7 (1605632)
I0507 15:48:25.141809  7142 net.cpp:137] Memory required for data: 1794496008
I0507 15:48:25.141813  7142 layer_factory.hpp:77] Creating layer pool5/7x7_s1
I0507 15:48:25.141819  7142 net.cpp:84] Creating Layer pool5/7x7_s1
I0507 15:48:25.141824  7142 net.cpp:406] pool5/7x7_s1 <- inception_5b/output
I0507 15:48:25.141831  7142 net.cpp:380] pool5/7x7_s1 -> pool5/7x7_s1
I0507 15:48:25.142400  7142 net.cpp:122] Setting up pool5/7x7_s1
I0507 15:48:25.142408  7142 net.cpp:129] Top shape: 32 1024 1 1 (32768)
I0507 15:48:25.142412  7142 net.cpp:137] Memory required for data: 1794627080
I0507 15:48:25.142416  7142 layer_factory.hpp:77] Creating layer pool5/drop_7x7_s1
I0507 15:48:25.142426  7142 net.cpp:84] Creating Layer pool5/drop_7x7_s1
I0507 15:48:25.142429  7142 net.cpp:406] pool5/drop_7x7_s1 <- pool5/7x7_s1
I0507 15:48:25.142434  7142 net.cpp:367] pool5/drop_7x7_s1 -> pool5/7x7_s1 (in-place)
I0507 15:48:25.142458  7142 net.cpp:122] Setting up pool5/drop_7x7_s1
I0507 15:48:25.142463  7142 net.cpp:129] Top shape: 32 1024 1 1 (32768)
I0507 15:48:25.142467  7142 net.cpp:137] Memory required for data: 1794758152
I0507 15:48:25.142470  7142 layer_factory.hpp:77] Creating layer loss3/classifier
I0507 15:48:25.142478  7142 net.cpp:84] Creating Layer loss3/classifier
I0507 15:48:25.142495  7142 net.cpp:406] loss3/classifier <- pool5/7x7_s1
I0507 15:48:25.142503  7142 net.cpp:380] loss3/classifier -> loss3/classifier
I0507 15:48:25.143636  7142 net.cpp:122] Setting up loss3/classifier
I0507 15:48:25.143644  7142 net.cpp:129] Top shape: 32 196 (6272)
I0507 15:48:25.143647  7142 net.cpp:137] Memory required for data: 1794783240
I0507 15:48:25.143653  7142 layer_factory.hpp:77] Creating layer loss3/loss
I0507 15:48:25.143661  7142 net.cpp:84] Creating Layer loss3/loss
I0507 15:48:25.143664  7142 net.cpp:406] loss3/loss <- loss3/classifier
I0507 15:48:25.143669  7142 net.cpp:406] loss3/loss <- label_train-data_1_split_2
I0507 15:48:25.143674  7142 net.cpp:380] loss3/loss -> loss
…
I0507 15:48:25.147083  7142 net.cpp:294] The NetState phase (1) differed from the phase (0) specified by a rule in layer train-data
I0507 15:48:25.148041  7142 net.cpp:51] Initializing net from parameters:
state {
phase: TEST
}
layer {
name: "val-data"
type: "Data"
top: "data"
top: "label"
include {
phase: TEST
}
transform_param {
mirror: false
crop_size: 224
mean_file: "/mnt/bigdisk/MANDIG4/digits/jobs/20200507-113700-33e0/mean.binaryproto"
}
data_param {
source: "/mnt/bigdisk/MANDIG4/digits/jobs/20200507-113700-33e0/val_db"
batch_size: 16
backend: LMDB
}
}
layer {
name: "conv1/7x7_s2"
type: "Convolution"
bottom: "data"
top: "conv1/7x7_s2"
param {
lr_mult: 1
decay_mult: 1
}
param {
lr_mult: 2
decay_mult: 0
}
convolution_param {
num_output: 64
pad: 3
kernel_size: 7
stride: 2
weight_filler {
type: "xavier"
std: 0.1
}
bias_filler {
type: "constant"
value: 0.2
}
}
}
layer {
name: "conv1/relu_7x7"
type: "ReLU"
bottom: "conv1/7x7_s2"
top: "conv1/7x7_s2"
}
layer {
name: "pool1/3x3_s2"
type: "Pooling"
bottom: "conv1/7x7_s2"
top: "pool1/3x3_s2"
pooling_param {
pool: MAX
kernel_size: 3
stride: 2
}
}
layer {
name: "pool1/norm1"
type: "LRN"
bottom: "pool1/3x3_s2"
top: "pool1/norm1"
lrn_param {
local_size: 5
alpha: 0.0001
beta: 0.75
}
}
layer {
name: "conv2/3x3_reduce"
type: "Convolution"
bottom: "pool1/norm1"
top: "conv2/3x3_reduce"
param {
lr_mult: 1
decay_mult: 1
}
param {
lr_mult: 2
decay_mult: 0
}
convolution_param {
num_output: 64
kernel_size: 1
weight_filler {
type: "xavier"
std: 0.1
}
bias_filler {
type: "constant"
value: 0.2
}
}
}
layer {
name: "conv2/relu_3x3_reduce"
type: "ReLU"
bottom: "conv2/3x3_reduce"
top: "conv2/3x3_reduce"
}
layer {
name: "conv2/3x3"
type: "Convolution"
bottom: "conv2/3x3_reduce"
top: "conv2/3x3"
param {
lr_mult: 1
decay_mult: 1
}
param {
lr_mult: 2
decay_mult: 0
}
convolution_param {
num_output: 192
pad: 1
kernel_size: 3
weight_filler {
type: "xavier"
std: 0.03
}
bias_filler {
type: "constant"
value: 0.2
}
}
}
layer {
name: "conv2/relu_3x3"
type: "ReLU"
bottom: "conv2/3x3"
top: "conv2/3x3"
}
layer {
name: "conv2/norm2"
type: "LRN"
bottom: "conv2/3x3"
top: "conv2/norm2"
lrn_param {
local_size: 5
alpha: 0.0001
beta: 0.75
}
}
layer {
name: "pool2/3x3_s2"
type: "Pooling"
bottom: "conv2/norm2"
top: "pool2/3x3_s2"
pooling_param {
pool: MAX
kernel_size: 3
stride: 2
}
}
layer {
name: "inception_3a/1x1"
type: "Convolution"
bottom: "pool2/3x3_s2"
top: "inception_3a/1x1"
param {
lr_mult: 1
decay_mult: 1
}
param {
lr_mult: 2
decay_mult: 0
}
convolution_param {
num_output: 64
kernel_size: 1
weight_filler {
type: "xavier"
std: 0.03
}
bias_filler {
type: "constant"
value: 0.2
}
}
}
layer {
name: "inception_3a/relu_1x1"
type: "ReLU"
bottom: "inception_3a/1x1"
top: "inception_3a/1x1"
}
layer {
name: "inception_3a/3x3_reduce"
type: "Convolution"
bottom: "pool2/3x3_s2"
top: "inception_3a/3x3_reduce"
param {
lr_mult: 1
decay_mult: 1
}
param {
lr_mult: 2
decay_mult: 0
}
convolution_param {
num_output: 96
kernel_size: 1
weight_filler {
type: "xavier"
std: 0.09
}
bias_filler {
type: "constant"
value: 0.2
}
}
}
layer {
name: "inception_3a/relu_3x3_reduce"
type: "ReLU"
bottom: "inception_3a/3x3_reduce"
top: "inception_3a/3x3_reduce"
}
layer {
name: "inception_3a/3x3"
type: "Convolution"
bottom: "inception_3a/3x3_reduce"
top: "inception_3a/3x3"
param {
lr_mult: 1
decay_mult: 1
}
param {
lr_mult: 2
decay_mult: 0
}
convolution_param {
num_output: 128
pad: 1
kernel_size: 3
weight_filler {
type: "xavier"
std: 0.03
}
bias_filler {
type: "constant"
value: 0.2
}
}
}
layer {
name: "inception_3a/relu_3x3"
type: "ReLU"
bottom: "inception_3a/3x3"
top: "inception_3a/3x3"
}
layer {
name: "inception_3a/5x5_reduce"
type: "Convolution"
bottom: "pool2/3x3_s2"
top: "inception_3a/5x5_reduce"
param {
lr_mult: 1
decay_mult: 1
}
param {
lr_mult: 2
decay_mult: 0
}
convolution_param {
num_output: 16
kernel_size: 1
weight_filler {
type: "xavier"
std: 0.2
}
bias_filler {
type: "constant"
value: 0.2
}
}
}
layer {
name: "inception_3a/relu_5x5_reduce"
type: "ReLU"
bottom: "inception_3a/5x5_reduce"
top: "inception_3a/5x5_reduce"
}
layer {
name: "inception_3a/5x5"
type: "Convolution"
bottom: "inception_3a/5x5_reduce"
top: "inception_3a/5x5"
param {
lr_mult: 1
decay_mult: 1
}
param {
lr_mult: 2
decay_mult: 0
}
convolution_param {
num_output: 32
pad: 2
kernel_size: 5
weight_filler {
type: "xavier"
std: 0.03
}
bias_filler {
type: "constant"
value: 0.2
}
}
}
layer {
name: "inception_3a/relu_5x5"
type: "ReLU"
bottom: "inception_3a/5x5"
top: "inception_3a/5x5"
}
layer {
name: "inception_3a/pool"
type: "Pooling"
bottom: "pool2/3x3_s2"
top: "inception_3a/pool"
pooling_param {
pool: MAX
kernel_size: 3
stride: 1
pad: 1
}
}
layer {
name: "inception_3a/pool_proj"
type: "Convolution"
bottom: "inception_3a/pool"
top: "inception_3a/pool_proj"
param {
lr_mult: 1
decay_mult: 1
}
param {
lr_mult: 2
decay_mult: 0
}
convolution_param {
num_output: 32
kernel_size: 1
weight_filler {
type: "xavier"
std: 0.1
}
bias_filler {
type: "constant"
value: 0.2
}
}
}
layer {
name: "inception_3a/relu_pool_proj"
type: "ReLU"
bottom: "inception_3a/pool_proj"
top: "inception_3a/pool_proj"
}
layer {
name: "inception_3a/output"
type: "Concat"
bottom: "inception_3a/1x1"
bottom: "inception_3a/3x3"
bottom: "inception_3a/5x5"
bottom: "inception_3a/pool_proj"
top: "inception_3a/output"
}
layer {
name: "inception_3b/1x1"
type: "Convolution"
bottom: "inception_3a/output"
top: "inception_3b/1x1"
param {
lr_mult: 1
decay_mult: 1
}
param {
lr_mult: 2
decay_mult: 0
}
convolution_param {
num_output: 128
kernel_size: 1
weight_filler {
type: "xavier"
std: 0.03
}
bias_filler {
type: "constant"
value: 0.2
}
}
}
layer {
name: "inception_3b/relu_1x1"
type: "ReLU"
bottom: "inception_3b/1x1"
top: "inception_3b/1x1"
}
layer {
name: "inception_3b/3x3_reduce"
type: "Convolution"
bottom: "inception_3a/output"
top: "inception_3b/3x3_reduce"
param {
lr_mult: 1
decay_mult: 1
}
param {
lr_mult: 2
decay_mult: 0
}
convolution_param {
num_output: 128
kernel_size: 1
weight_filler {
type: "xavier"
std: 0.09
}
bias_filler {
type: "constant"
value: 0.2
}
}
}
layer {
name: "inception_3b/relu_3x3_reduce"
type: "ReLU"
bottom: "inception_3b/3x3_reduce"
top: "inception_3b/3x3_reduce"
}
layer {
name: "inception_3b/3x3"
type: "Convolution"
bottom: "inception_3b/3x3_reduce"
top: "inception_3b/3x3"
param {
lr_mult: 1
decay_mult: 1
}
param {
lr_mult: 2
decay_mult: 0
}
convolution_param {
num_output: 192
pad: 1
kernel_size: 3
weight_filler {
type: "xavier"
std: 0.03
}
bias_filler {
type: "constant"
value: 0.2
}
}
}
layer {
name: "inception_3b/relu_3x3"
type: "ReLU"
bottom: "inception_3b/3x3"
top: "inception_3b/3x3"
}
layer {
name: "inception_3b/5x5_reduce"
type: "Convolution"
bottom: "inception_3a/output"
top: "inception_3b/5x5_reduce"
param {
lr_mult: 1
decay_mult: 1
}
param {
lr_mult: 2
decay_mult: 0
}
convolution_param {
num_output: 32
kernel_size: 1
weight_filler {
type: "xavier"
std: 0.2
}
bias_filler {
type: "constant"
value: 0.2
}
}
}
layer {
name: "inception_3b/relu_5x5_reduce"
type: "ReLU"
bottom: "inception_3b/5x5_reduce"
top: "inception_3b/5x5_reduce"
}
layer {
name: "inception_3b/5x5"
type: "Convolution"
bottom: "inception_3b/5x5_reduce"
top: "inception_3b/5x5"
param {
lr_mult: 1
decay_mult: 1
}
param {
lr_mult: 2
decay_mult: 0
}
convolution_param {
num_output: 96
pad: 2
kernel_size: 5
weight_filler {
type: "xavier"
std: 0.03
}
bias_filler {
type: "constant"
value: 0.2
}
}
}
layer {
name: "inception_3b/relu_5x5"
type: "ReLU"
bottom: "inception_3b/5x5"
top: "inception_3b/5x5"
}
layer {
name: "inception_3b/pool"
type: "Pooling"
bottom: "inception_3a/output"
top: "inception_3b/pool"
pooling_param {
pool: MAX
kernel_size: 3
stride: 1
pad: 1
}
}
layer {
name: "inception_3b/pool_proj"
type: "Convolution"
bottom: "inception_3b/pool"
top: "inception_3b/pool_proj"
param {
lr_mult: 1
decay_mult: 1
}
param {
lr_mult: 2
decay_mult: 0
}
convolution_param {
num_output: 64
kernel_size: 1
weight_filler {
type: "xavier"
std: 0.1
}
bias_filler {
type: "constant"
value: 0.2
}
}
}
layer {
name: "inception_3b/relu_pool_proj"
type: "ReLU"
bottom: "inception_3b/pool_proj"
top: "inception_3b/pool_proj"
}
layer {
name: "inception_3b/output"
type: "Concat"
bottom: "inception_3b/1x1"
bottom: "inception_3b/3x3"
bottom: "inception_3b/5x5"
bottom: "inception_3b/pool_proj"
top: "inception_3b/output"
}
layer {
name: "pool3/3x3_s2"
type: "Pooling"
bottom: "inception_3b/output"
top: "pool3/3x3_s2"
pooling_param {
pool: MAX
kernel_size: 3
stride: 2
}
}
layer {
name: "inception_4a/1x1"
type: "Convolution"
bottom: "pool3/3x3_s2"
top: "inception_4a/1x1"
param {
lr_mult: 1
decay_mult: 1
}
param {
lr_mult: 2
decay_mult: 0
}
convolution_param {
num_output: 192
kernel_size: 1
weight_filler {
type: "xavier"
std: 0.03
}
bias_filler {
type: "constant"
value: 0.2
}
}
}
layer {
name: "inception_4a/relu_1x1"
type: "ReLU"
bottom: "inception_4a/1x1"
top: "inception_4a/1x1"
}
layer {
name: "inception_4a/3x3_reduce"
type: "Convolution"
bottom: "pool3/3x3_s2"
top: "inception_4a/3x3_reduce"
param {
lr_mult: 1
decay_mult: 1
}
param {
lr_mult: 2
decay_mult: 0
}
convolution_param {
num_output: 96
kernel_size: 1
weight_filler {
type: "xavier"
std: 0.09
}
bias_filler {
type: "constant"
value: 0.2
}
}
}
layer {
name: "inception_4a/relu_3x3_reduce"
type: "ReLU"
bottom: "inception_4a/3x3_reduce"
top: "inception_4a/3x3_reduce"
}
layer {
name: "inception_4a/3x3"
type: "Convolution"
bottom: "inception_4a/3x3_reduce"
top: "inception_4a/3x3"
param {
lr_mult: 1
decay_mult: 1
}
param {
lr_mult: 2
decay_mult: 0
}
convolution_param {
num_output: 208
pad: 1
kernel_size: 3
weight_filler {
type: "xavier"
std: 0.03
}
bias_filler {
type: "constant"
value: 0.2
}
}
}
layer {
name: "inception_4a/relu_3x3"
type: "ReLU"
bottom: "inception_4a/3x3"
top: "inception_4a/3x3"
}
layer {
name: "inception_4a/5x5_reduce"
type: "Convolution"
bottom: "pool3/3x3_s2"
top: "inception_4a/5x5_reduce"
param {
lr_mult: 1
decay_mult: 1
}
param {
lr_mult: 2
decay_mult: 0
}
convolution_param {
num_output: 16
kernel_size: 1
weight_filler {
type: "xavier"
std: 0.2
}
bias_filler {
type: "constant"
value: 0.2
}
}
}
layer {
name: "inception_4a/relu_5x5_reduce"
type: "ReLU"
bottom: "inception_4a/5x5_reduce"
top: "inception_4a/5x5_reduce"
}
layer {
name: "inception_4a/5x5"
type: "Convolution"
bottom: "inception_4a/5x5_reduce"
top: "inception_4a/5x5"
param {
lr_mult: 1
decay_mult: 1
}
param {
lr_mult: 2
decay_mult: 0
}
convolution_param {
num_output: 48
pad: 2
kernel_size: 5
weight_filler {
type: "xavier"
std: 0.03
}
bias_filler {
type: "constant"
value: 0.2
}
}
}
layer {
name: "inception_4a/relu_5x5"
type: "ReLU"
bottom: "inception_4a/5x5"
top: "inception_4a/5x5"
}
layer {
name: "inception_4a/pool"
type: "Pooling"
bottom: "pool3/3x3_s2"
top: "inception_4a/pool"
pooling_param {
pool: MAX
kernel_size: 3
stride: 1
pad: 1
}
}
layer {
name: "inception_4a/pool_proj"
type: "Convolution"
bottom: "inception_4a/pool"
top: "inception_4a/pool_proj"
param {
lr_mult: 1
decay_mult: 1
}
param {
lr_mult: 2
decay_mult: 0
}
convolution_param {
num_output: 64
kernel_size: 1
weight_filler {
type: "xavier"
std: 0.1
}
bias_filler {
type: "constant"
value: 0.2
}
}
}
layer {
name: "inception_4a/relu_pool_proj"
type: "ReLU"
bottom: "inception_4a/pool_proj"
top: "inception_4a/pool_proj"
}
layer {
name: "inception_4a/output"
type: "Concat"
bottom: "inception_4a/1x1"
bottom: "inception_4a/3x3"
bottom: "inception_4a/5x5"
bottom: "inception_4a/pool_proj"
top: "inception_4a/output"
}
layer {
name: "loss1/ave_pool"
type: "Pooling"
bottom: "inception_4a/output"
top: "loss1/ave_pool"
pooling_param {
pool: AVE
kernel_size: 5
stride: 3
}
}
layer {
name: "loss1/conv"
type: "Convolution"
bottom: "loss1/ave_pool"
top: "loss1/conv"
param {
lr_mult: 1
decay_mult: 1
}
param {
lr_mult: 2
decay_mult: 0
}
convolution_param {
num_output: 128
kernel_size: 1
weight_filler {
type: "xavier"
std: 0.08
}
bias_filler {
type: "constant"
value: 0.2
}
}
}
layer {
name: "loss1/relu_conv"
type: "ReLU"
bottom: "loss1/conv"
top: "loss1/conv"
}
layer {
name: "loss1/fc"
type: "InnerProduct"
bottom: "loss1/conv"
top: "loss1/fc"
param {
lr_mult: 1
decay_mult: 1
}
param {
lr_mult: 2
decay_mult: 0
}
inner_product_param {
num_output: 1024
weight_filler {
type: "xavier"
std: 0.02
}
bias_filler {
type: "constant"
value: 0.2
}
}
}
layer {
name: "loss1/relu_fc"
type: "ReLU"
bottom: "loss1/fc"
top: "loss1/fc"
}
layer {
name: "loss1/drop_fc"
type: "Dropout"
bottom: "loss1/fc"
top: "loss1/fc"
dropout_param {
dropout_ratio: 0.7
}
}
layer {
name: "loss1/classifier"
type: "InnerProduct"
bottom: "loss1/fc"
top: "loss1/classifier"
param {
lr_mult: 1
decay_mult: 1
}
param {
lr_mult: 2
decay_mult: 0
}
inner_product_param {
num_output: 196
weight_filler {
type: "xavier"
std: 0.0009765625
}
bias_filler {
type: "constant"
value: 0
}
}
}
layer {
name: "loss1/loss"
type: "SoftmaxWithLoss"
bottom: "loss1/classifier"
bottom: "label"
top: "loss1/loss"
loss_weight: 0.3
}
layer {
name: "loss1/top-1"
type: "Accuracy"
bottom: "loss1/classifier"
bottom: "label"
top: "loss1/accuracy"
include {
phase: TEST
}
}
layer {
name: "loss1/top-5"
type: "Accuracy"
bottom: "loss1/classifier"
bottom: "label"
top: "loss1/accuracy-top5"
include {
phase: TEST
}
accuracy_param {
top_k: 5
}
}
layer {
name: "inception_4b/1x1"
type: "Convolution"
bottom: "inception_4a/output"
top: "inception_4b/1x1"
param {
lr_mult: 1
decay_mult: 1
}
param {
lr_mult: 2
decay_mult: 0
}
convolution_param {
num_output: 160
kernel_size: 1
weight_filler {
type: "xavier"
std: 0.03
}
bias_filler {
type: "constant"
value: 0.2
}
}
}
layer {
name: "inception_4b/relu_1x1"
type: "ReLU"
bottom: "inception_4b/1x1"
top: "inception_4b/1x1"
}
layer {
name: "inception_4b/3x3_reduce"
type: "Convolution"
bottom: "inception_4a/output"
top: "inception_4b/3x3_reduce"
param {
lr_mult: 1
decay_mult: 1
}
param {
lr_mult: 2
decay_mult: 0
}
convolution_param {
num_output: 112
kernel_size: 1
weight_filler {
type: "xavier"
std: 0.09
}
bias_filler {
type: "constant"
value: 0.2
}
}
}
layer {
name: "inception_4b/relu_3x3_reduce"
type: "ReLU"
bottom: "inception_4b/3x3_reduce"
top: "inception_4b/3x3_reduce"
}
layer {
name: "inception_4b/3x3"
type: "Convolution"
bottom: "inception_4b/3x3_reduce"
top: "inception_4b/3x3"
param {
lr_mult: 1
decay_mult: 1
}
param {
lr_mult: 2
decay_mult: 0
}
convolution_param {
num_output: 224
pad: 1
kernel_size: 3
weight_filler {
type: "xavier"
std: 0.03
}
bias_filler {
type: "constant"
value: 0.2
}
}
}
layer {
name: "inception_4b/relu_3x3"
type: "ReLU"
bottom: "inception_4b/3x3"
top: "inception_4b/3x3"
}
layer {
name: "inception_4b/5x5_reduce"
type: "Convolution"
bottom: "inception_4a/output"
top: "inception_4b/5x5_reduce"
param {
lr_mult: 1
decay_mult: 1
}
param {
lr_mult: 2
decay_mult: 0
}
convolution_param {
num_output: 24
kernel_size: 1
weight_filler {
type: "xavier"
std: 0.2
}
bias_filler {
type: "constant"
value: 0.2
}
}
}
layer {
name: "inception_4b/relu_5x5_reduce"
type: "ReLU"
bottom: "inception_4b/5x5_reduce"
top: "inception_4b/5x5_reduce"
}
layer {
name: "inception_4b/5x5"
type: "Convolution"
bottom: "inception_4b/5x5_reduce"
top: "inception_4b/5x5"
param {
lr_mult: 1
decay_mult: 1
}
param {
lr_mult: 2
decay_mult: 0
}
convolution_param {
num_output: 64
pad: 2
kernel_size: 5
weight_filler {
type: "xavier"
std: 0.03
}
bias_filler {
type: "constant"
value: 0.2
}
}
}
layer {
name: "inception_4b/relu_5x5"
type: "ReLU"
bottom: "inception_4b/5x5"
top: "inception_4b/5x5"
}
layer {
name: "inception_4b/pool"
type: "Pooling"
bottom: "inception_4a/output"
top: "inception_4b/pool"
pooling_param {
pool: MAX
kernel_size: 3
stride: 1
pad: 1
}
}
layer {
name: "inception_4b/pool_proj"
type: "Convolution"
bottom: "inception_4b/pool"
top: "inception_4b/pool_proj"
param {
lr_mult: 1
decay_mult: 1
}
param {
lr_mult: 2
decay_mult: 0
}
convolution_param {
num_output: 64
kernel_size: 1
weight_filler {
type: "xavier"
std: 0.1
}
bias_filler {
type: "constant"
value: 0.2
}
}
}
layer {
name: "inception_4b/relu_pool_proj"
type: "ReLU"
bottom: "inception_4b/pool_proj"
top: "inception_4b/pool_proj"
}
layer {
name: "inception_4b/output"
type: "Concat"
bottom: "inception_4b/1x1"
bottom: "inception_4b/3x3"
bottom: "inception_4b/5x5"
bottom: "inception_4b/pool_proj"
top: "inception_4b/output"
}
layer {
name: "inception_4c/1x1"
type: "Convolution"
bottom: "inception_4b/output"
top: "inception_4c/1x1"
param {
lr_mult: 1
decay_mult: 1
}
param {
lr_mult: 2
decay_mult: 0
}
convolution_param {
num_output: 128
kernel_size: 1
weight_filler {
type: "xavier"
std: 0.03
}
bias_filler {
type: "constant"
value: 0.2
}
}
}
layer {
name: "inception_4c/relu_1x1"
type: "ReLU"
bottom: "inception_4c/1x1"
top: "inception_4c/1x1"
}
layer {
name: "inception_4c/3x3_reduce"
type: "Convolution"
bottom: "inception_4b/output"
top: "inception_4c/3x3_reduce"
param {
lr_mult: 1
decay_mult: 1
}
param {
lr_mult: 2
decay_mult: 0
}
convolution_param {
num_output: 128
kernel_size: 1
weight_filler {
type: "xavier"
std: 0.09
}
bias_filler {
type: "constant"
value: 0.2
}
}
}
layer {
name: "inception_4c/relu_3x3_reduce"
type: "ReLU"
bottom: "inception_4c/3x3_reduce"
top: "inception_4c/3x3_reduce"
}
layer {
name: "inception_4c/3x3"
type: "Convolution"
bottom: "inception_4c/3x3_reduce"
top: "inception_4c/3x3"
param {
lr_mult: 1
decay_mult: 1
}
param {
lr_mult: 2
decay_mult: 0
}
convolution_param {
num_output: 256
pad: 1
kernel_size: 3
weight_filler {
type: "xavier"
std: 0.03
}
bias_filler {
type: "constant"
value: 0.2
}
}
}
layer {
name: "inception_4c/relu_3x3"
type: "ReLU"
bottom: "inception_4c/3x3"
top: "inception_4c/3x3"
}
layer {
name: "inception_4c/5x5_reduce"
type: "Convolution"
bottom: "inception_4b/output"
top: "inception_4c/5x5_reduce"
param {
lr_mult: 1
decay_mult: 1
}
param {
lr_mult: 2
decay_mult: 0
}
convolution_param {
num_output: 24
kernel_size: 1
weight_filler {
type: "xavier"
std: 0.2
}
bias_filler {
type: "constant"
value: 0.2
}
}
}
layer {
name: "inception_4c/relu_5x5_reduce"
type: "ReLU"
bottom: "inception_4c/5x5_reduce"
top: "inception_4c/5x5_reduce"
}
layer {
name: "inception_4c/5x5"
type: "Convolution"
bottom: "inception_4c/5x5_reduce"
top: "inception_4c/5x5"
param {
lr_mult: 1
decay_mult: 1
}
param {
lr_mult: 2
decay_mult: 0
}
convolution_param {
num_output: 64
pad: 2
kernel_size: 5
weight_filler {
type: "xavier"
std: 0.03
}
bias_filler {
type: "constant"
value: 0.2
}
}
}
layer {
name: "inception_4c/relu_5x5"
type: "ReLU"
bottom: "inception_4c/5x5"
top: "inception_4c/5x5"
}
layer {
name: "inception_4c/pool"
type: "Pooling"
bottom: "inception_4b/output"
top: "inception_4c/pool"
pooling_param {
pool: MAX
kernel_size: 3
stride: 1
pad: 1
}
}
layer {
name: "inception_4c/pool_proj"
type: "Convolution"
bottom: "inception_4c/pool"
top: "inception_4c/pool_proj"
param {
lr_mult: 1
decay_mult: 1
}
param {
lr_mult: 2
decay_mult: 0
}
convolution_param {
num_output: 64
kernel_size: 1
weight_filler {
type: "xavier"
std: 0.1
}
bias_filler {
type: "constant"
value: 0.2
}
}
}
layer {
name: "inception_4c/relu_pool_proj"
type: "ReLU"
bottom: "inception_4c/pool_proj"
top: "inception_4c/pool_proj"
}
layer {
name: "inception_4c/output"
type: "Concat"
bottom: "inception_4c/1x1"
bottom: "inception_4c/3x3"
bottom: "inception_4c/5x5"
bottom: "inception_4c/pool_proj"
top: "inception_4c/output"
}
layer {
name: "inception_4d/1x1"
type: "Convolution"
bottom: "inception_4c/output"
top: "inception_4d/1x1"
param {
lr_mult: 1
decay_mult: 1
}
param {
lr_mult: 2
decay_mult: 0
}
convolution_param {
num_output: 112
kernel_size: 1
weight_filler {
type: "xavier"
std: 0.03
}
bias_filler {
type: "constant"
value: 0.2
}
}
}
layer {
name: "inception_4d/relu_1x1"
…
I0507 15:48:25.336860  7142 net.cpp:122] Setting up inception_4c/relu_5x5
I0507 15:48:25.336870  7142 net.cpp:129] Top shape: 16 64 14 14 (200704)
I0507 15:48:25.336874  7142 net.cpp:137] Memory required for data: 700688012
I0507 15:48:25.336877  7142 layer_factory.hpp:77] Creating layer inception_4c/pool
I0507 15:48:25.336886  7142 net.cpp:84] Creating Layer inception_4c/pool
I0507 15:48:25.336890  7142 net.cpp:406] inception_4c/pool <- inception_4b/output_inception_4b/output_0_split_3
I0507 15:48:25.336897  7142 net.cpp:380] inception_4c/pool -> inception_4c/pool
I0507 15:48:25.336942  7142 net.cpp:122] Setting up inception_4c/pool
I0507 15:48:25.336948  7142 net.cpp:129] Top shape: 16 512 14 14 (1605632)
I0507 15:48:25.336951  7142 net.cpp:137] Memory required for data: 707110540
I0507 15:48:25.336954  7142 layer_factory.hpp:77] Creating layer inception_4c/pool_proj
I0507 15:48:25.336966  7142 net.cpp:84] Creating Layer inception_4c/pool_proj
I0507 15:48:25.336971  7142 net.cpp:406] inception_4c/pool_proj <- inception_4c/pool
I0507 15:48:25.336978  7142 net.cpp:380] inception_4c/pool_proj -> inception_4c/pool_proj
I0507 15:48:25.338909  7142 net.cpp:122] Setting up inception_4c/pool_proj
I0507 15:48:25.338920  7142 net.cpp:129] Top shape: 16 64 14 14 (200704)
I0507 15:48:25.338923  7142 net.cpp:137] Memory required for data: 707913356
I0507 15:48:25.338930  7142 layer_factory.hpp:77] Creating layer inception_4c/relu_pool_proj
I0507 15:48:25.338938  7142 net.cpp:84] Creating Layer inception_4c/relu_pool_proj
I0507 15:48:25.338943  7142 net.cpp:406] inception_4c/relu_pool_proj <- inception_4c/pool_proj
I0507 15:48:25.338948  7142 net.cpp:367] inception_4c/relu_pool_proj -> inception_4c/pool_proj (in-place)
I0507 15:48:25.340764  7142 net.cpp:122] Setting up inception_4c/relu_pool_proj
I0507 15:48:25.340773  7142 net.cpp:129] Top shape: 16 64 14 14 (200704)
I0507 15:48:25.340776  7142 net.cpp:137] Memory required for data: 708716172
I0507 15:48:25.340780  7142 layer_factory.hpp:77] Creating layer inception_4c/output
I0507 15:48:25.340790  7142 net.cpp:84] Creating Layer inception_4c/output
I0507 15:48:25.340795  7142 net.cpp:406] inception_4c/output <- inception_4c/1x1
I0507 15:48:25.340818  7142 net.cpp:406] inception_4c/output <- inception_4c/3x3
I0507 15:48:25.340822  7142 net.cpp:406] inception_4c/output <- inception_4c/5x5
I0507 15:48:25.340826  7142 net.cpp:406] inception_4c/output <- inception_4c/pool_proj
I0507 15:48:25.340832  7142 net.cpp:380] inception_4c/output -> inception_4c/output
I0507 15:48:25.340864  7142 net.cpp:122] Setting up inception_4c/output
I0507 15:48:25.340869  7142 net.cpp:129] Top shape: 16 512 14 14 (1605632)
I0507 15:48:25.340873  7142 net.cpp:137] Memory required for data: 715138700
I0507 15:48:25.340876  7142 layer_factory.hpp:77] Creating layer inception_4c/output_inception_4c/output_0_split
I0507 15:48:25.340883  7142 net.cpp:84] Creating Layer inception_4c/output_inception_4c/output_0_split
I0507 15:48:25.340886  7142 net.cpp:406] inception_4c/output_inception_4c/output_0_split <- inception_4c/output
I0507 15:48:25.340893  7142 net.cpp:380] inception_4c/output_inception_4c/output_0_split -> inception_4c/output_inception_4c/output_0_split_0
I0507 15:48:25.340900  7142 net.cpp:380] inception_4c/output_inception_4c/output_0_split -> inception_4c/output_inception_4c/output_0_split_1
I0507 15:48:25.340907  7142 net.cpp:380] inception_4c/output_inception_4c/output_0_split -> inception_4c/output_inception_4c/output_0_split_2
I0507 15:48:25.340914  7142 net.cpp:380] inception_4c/output_inception_4c/output_0_split -> inception_4c/output_inception_4c/output_0_split_3
I0507 15:48:25.340967  7142 net.cpp:122] Setting up inception_4c/output_inception_4c/output_0_split
I0507 15:48:25.340973  7142 net.cpp:129] Top shape: 16 512 14 14 (1605632)
I0507 15:48:25.340977  7142 net.cpp:129] Top shape: 16 512 14 14 (1605632)
I0507 15:48:25.340981  7142 net.cpp:129] Top shape: 16 512 14 14 (1605632)
I0507 15:48:25.340986  7142 net.cpp:129] Top shape: 16 512 14 14 (1605632)
I0507 15:48:25.340988  7142 net.cpp:137] Memory required for data: 740828812
I0507 15:48:25.340992  7142 layer_factory.hpp:77] Creating layer inception_4d/1x1
I0507 15:48:25.341002  7142 net.cpp:84] Creating Layer inception_4d/1x1
I0507 15:48:25.341006  7142 net.cpp:406] inception_4d/1x1 <- inception_4c/output_inception_4c/output_0_split_0
I0507 15:48:25.341013  7142 net.cpp:380] inception_4d/1x1 -> inception_4d/1x1
I0507 15:48:25.343158  7142 net.cpp:122] Setting up inception_4d/1x1
I0507 15:48:25.343170  7142 net.cpp:129] Top shape: 16 112 14 14 (351232)
I0507 15:48:25.343173  7142 net.cpp:137] Memory required for data: 742233740
I0507 15:48:25.343180  7142 layer_factory.hpp:77] Creating layer inception_4d/relu_1x1
I0507 15:48:25.343187  7142 net.cpp:84] Creating Layer inception_4d/relu_1x1
I0507 15:48:25.343191  7142 net.cpp:406] inception_4d/relu_1x1 <- inception_4d/1x1
I0507 15:48:25.343199  7142 net.cpp:367] inception_4d/relu_1x1 -> inception_4d/1x1 (in-place)
I0507 15:48:25.343761  7142 net.cpp:122] Setting up inception_4d/relu_1x1
I0507 15:48:25.343771  7142 net.cpp:129] Top shape: 16 112 14 14 (351232)
I0507 15:48:25.343775  7142 net.cpp:137] Memory required for data: 743638668
I0507 15:48:25.343780  7142 layer_factory.hpp:77] Creating layer inception_4d/3x3_reduce
I0507 15:48:25.343791  7142 net.cpp:84] Creating Layer inception_4d/3x3_reduce
I0507 15:48:25.343796  7142 net.cpp:406] inception_4d/3x3_reduce <- inception_4c/output_inception_4c/output_0_split_1
I0507 15:48:25.343802  7142 net.cpp:380] inception_4d/3x3_reduce -> inception_4d/3x3_reduce
I0507 15:48:25.347894  7142 net.cpp:122] Setting up inception_4d/3x3_reduce
I0507 15:48:25.347909  7142 net.cpp:129] Top shape: 16 144 14 14 (451584)
I0507 15:48:25.347913  7142 net.cpp:137] Memory required for data: 745445004
I0507 15:48:25.347921  7142 layer_factory.hpp:77] Creating layer inception_4d/relu_3x3_reduce
I0507 15:48:25.347929  7142 net.cpp:84] Creating Layer inception_4d/relu_3x3_reduce
I0507 15:48:25.347934  7142 net.cpp:406] inception_4d/relu_3x3_reduce <- inception_4d/3x3_reduce
I0507 15:48:25.347942  7142 net.cpp:367] inception_4d/relu_3x3_reduce -> inception_4d/3x3_reduce (in-place)
I0507 15:48:25.348330  7142 net.cpp:122] Setting up inception_4d/relu_3x3_reduce
I0507 15:48:25.348354  7142 net.cpp:129] Top shape: 16 144 14 14 (451584)
I0507 15:48:25.348358  7142 net.cpp:137] Memory required for data: 747251340
I0507 15:48:25.348362  7142 layer_factory.hpp:77] Creating layer inception_4d/3x3
I0507 15:48:25.348373  7142 net.cpp:84] Creating Layer inception_4d/3x3
I0507 15:48:25.348377  7142 net.cpp:406] inception_4d/3x3 <- inception_4d/3x3_reduce
I0507 15:48:25.348385  7142 net.cpp:380] inception_4d/3x3 -> inception_4d/3x3
I0507 15:48:25.358146  7142 net.cpp:122] Setting up inception_4d/3x3
I0507 15:48:25.358165  7142 net.cpp:129] Top shape: 16 288 14 14 (903168)
I0507 15:48:25.358168  7142 net.cpp:137] Memory required for data: 750864012
I0507 15:48:25.358177  7142 layer_factory.hpp:77] Creating layer inception_4d/relu_3x3
I0507 15:48:25.358187  7142 net.cpp:84] Creating Layer inception_4d/relu_3x3
I0507 15:48:25.358193  7142 net.cpp:406] inception_4d/relu_3x3 <- inception_4d/3x3
I0507 15:48:25.358201  7142 net.cpp:367] inception_4d/relu_3x3 -> inception_4d/3x3 (in-place)
I0507 15:48:25.358615  7142 net.cpp:122] Setting up inception_4d/relu_3x3
I0507 15:48:25.358624  7142 net.cpp:129] Top shape: 16 288 14 14 (903168)
I0507 15:48:25.358628  7142 net.cpp:137] Memory required for data: 754476684
I0507 15:48:25.358633  7142 layer_factory.hpp:77] Creating layer inception_4d/5x5_reduce
I0507 15:48:25.358644  7142 net.cpp:84] Creating Layer inception_4d/5x5_reduce
I0507 15:48:25.358649  7142 net.cpp:406] inception_4d/5x5_reduce <- inception_4c/output_inception_4c/output_0_split_2
I0507 15:48:25.358657  7142 net.cpp:380] inception_4d/5x5_reduce -> inception_4d/5x5_reduce
I0507 15:48:25.362432  7142 net.cpp:122] Setting up inception_4d/5x5_reduce
I0507 15:48:25.362447  7142 net.cpp:129] Top shape: 16 32 14 14 (100352)
I0507 15:48:25.362452  7142 net.cpp:137] Memory required for data: 754878092
I0507 15:48:25.362459  7142 layer_factory.hpp:77] Creating layer inception_4d/relu_5x5_reduce
I0507 15:48:25.362468  7142 net.cpp:84] Creating Layer inception_4d/relu_5x5_reduce
I0507 15:48:25.362474  7142 net.cpp:406] inception_4d/relu_5x5_reduce <- inception_4d/5x5_reduce
I0507 15:48:25.362500  7142 net.cpp:367] inception_4d/relu_5x5_reduce -> inception_4d/5x5_reduce (in-place)
I0507 15:48:25.363075  7142 net.cpp:122] Setting up inception_4d/relu_5x5_reduce
I0507 15:48:25.363085  7142 net.cpp:129] Top shape: 16 32 14 14 (100352)
I0507 15:48:25.363090  7142 net.cpp:137] Memory required for data: 755279500
I0507 15:48:25.363093  7142 layer_factory.hpp:77] Creating layer inception_4d/5x5
I0507 15:48:25.363106  7142 net.cpp:84] Creating Layer inception_4d/5x5
I0507 15:48:25.363109  7142 net.cpp:406] inception_4d/5x5 <- inception_4d/5x5_reduce
I0507 15:48:25.363116  7142 net.cpp:380] inception_4d/5x5 -> inception_4d/5x5
I0507 15:48:25.365118  7142 net.cpp:122] Setting up inception_4d/5x5
I0507 15:48:25.365128  7142 net.cpp:129] Top shape: 16 64 14 14 (200704)
I0507 15:48:25.365131  7142 net.cpp:137] Memory required for data: 756082316
I0507 15:48:25.365139  7142 layer_factory.hpp:77] Creating layer inception_4d/relu_5x5
I0507 15:48:25.365144  7142 net.cpp:84] Creating Layer inception_4d/relu_5x5
I0507 15:48:25.365149  7142 net.cpp:406] inception_4d/relu_5x5 <- inception_4d/5x5
I0507 15:48:25.365155  7142 net.cpp:367] inception_4d/relu_5x5 -> inception_4d/5x5 (in-place)
I0507 15:48:25.365713  7142 net.cpp:122] Setting up inception_4d/relu_5x5
I0507 15:48:25.365722  7142 net.cpp:129] Top shape: 16 64 14 14 (200704)
I0507 15:48:25.365726  7142 net.cpp:137] Memory required for data: 756885132
I0507 15:48:25.365731  7142 layer_factory.hpp:77] Creating layer inception_4d/pool
I0507 15:48:25.365737  7142 net.cpp:84] Creating Layer inception_4d/pool
I0507 15:48:25.365742  7142 net.cpp:406] inception_4d/pool <- inception_4c/output_inception_4c/output_0_split_3
I0507 15:48:25.365751  7142 net.cpp:380] inception_4d/pool -> inception_4d/pool
I0507 15:48:25.365795  7142 net.cpp:122] Setting up inception_4d/pool
I0507 15:48:25.365803  7142 net.cpp:129] Top shape: 16 512 14 14 (1605632)
I0507 15:48:25.365823  7142 net.cpp:137] Memory required for data: 763307660
I0507 15:48:25.365828  7142 layer_factory.hpp:77] Creating layer inception_4d/pool_proj
I0507 15:48:25.365836  7142 net.cpp:84] Creating Layer inception_4d/pool_proj
I0507 15:48:25.365840  7142 net.cpp:406] inception_4d/pool_proj <- inception_4d/pool
I0507 15:48:25.365847  7142 net.cpp:380] inception_4d/pool_proj -> inception_4d/pool_proj
I0507 15:48:25.367741  7142 net.cpp:122] Setting up inception_4d/pool_proj
I0507 15:48:25.367753  7142 net.cpp:129] Top shape: 16 64 14 14 (200704)
I0507 15:48:25.367756  7142 net.cpp:137] Memory required for data: 764110476
I0507 15:48:25.367763  7142 layer_factory.hpp:77] Creating layer inception_4d/relu_pool_proj
I0507 15:48:25.367769  7142 net.cpp:84] Creating Layer inception_4d/relu_pool_proj
I0507 15:48:25.367774  7142 net.cpp:406] inception_4d/relu_pool_proj <- inception_4d/pool_proj
I0507 15:48:25.367780  7142 net.cpp:367] inception_4d/relu_pool_proj -> inception_4d/pool_proj (in-place)
I0507 15:48:25.368379  7142 net.cpp:122] Setting up inception_4d/relu_pool_proj
I0507 15:48:25.368391  7142 net.cpp:129] Top shape: 16 64 14 14 (200704)
I0507 15:48:25.368396  7142 net.cpp:137] Memory required for data: 764913292
I0507 15:48:25.368400  7142 layer_factory.hpp:77] Creating layer inception_4d/output
I0507 15:48:25.368407  7142 net.cpp:84] Creating Layer inception_4d/output
I0507 15:48:25.368412  7142 net.cpp:406] inception_4d/output <- inception_4d/1x1
I0507 15:48:25.368417  7142 net.cpp:406] inception_4d/output <- inception_4d/3x3
I0507 15:48:25.368423  7142 net.cpp:406] inception_4d/output <- inception_4d/5x5
I0507 15:48:25.368427  7142 net.cpp:406] inception_4d/output <- inception_4d/pool_proj
I0507 15:48:25.368434  7142 net.cpp:380] inception_4d/output -> inception_4d/output
I0507 15:48:25.368465  7142 net.cpp:122] Setting up inception_4d/output
I0507 15:48:25.368470  7142 net.cpp:129] Top shape: 16 528 14 14 (1655808)
I0507 15:48:25.368475  7142 net.cpp:137] Memory required for data: 771536524
I0507 15:48:25.368479  7142 layer_factory.hpp:77] Creating layer inception_4d/output_inception_4d/output_0_split
I0507 15:48:25.368489  7142 net.cpp:84] Creating Layer inception_4d/output_inception_4d/output_0_split
I0507 15:48:25.368492  7142 net.cpp:406] inception_4d/output_inception_4d/output_0_split <- inception_4d/output
I0507 15:48:25.368499  7142 net.cpp:380] inception_4d/output_inception_4d/output_0_split -> inception_4d/output_inception_4d/output_0_split_0
I0507 15:48:25.368507  7142 net.cpp:380] inception_4d/output_inception_4d/output_0_split -> inception_4d/output_inception_4d/output_0_split_1
I0507 15:48:25.368515  7142 net.cpp:380] inception_4d/output_inception_4d/output_0_split -> inception_4d/output_inception_4d/output_0_split_2
I0507 15:48:25.368521  7142 net.cpp:380] inception_4d/output_inception_4d/output_0_split -> inception_4d/output_inception_4d/output_0_split_3
I0507 15:48:25.368528  7142 net.cpp:380] inception_4d/output_inception_4d/output_0_split -> inception_4d/output_inception_4d/output_0_split_4
I0507 15:48:25.368597  7142 net.cpp:122] Setting up inception_4d/output_inception_4d/output_0_split
I0507 15:48:25.368602  7142 net.cpp:129] Top shape: 16 528 14 14 (1655808)
I0507 15:48:25.368607  7142 net.cpp:129] Top shape: 16 528 14 14 (1655808)
I0507 15:48:25.368611  7142 net.cpp:129] Top shape: 16 528 14 14 (1655808)
I0507 15:48:25.368615  7142 net.cpp:129] Top shape: 16 528 14 14 (1655808)
I0507 15:48:25.368619  7142 net.cpp:129] Top shape: 16 528 14 14 (1655808)
I0507 15:48:25.368623  7142 net.cpp:137] Memory required for data: 804652684
I0507 15:48:25.368628  7142 layer_factory.hpp:77] Creating layer loss2/ave_pool
I0507 15:48:25.368633  7142 net.cpp:84] Creating Layer loss2/ave_pool
I0507 15:48:25.368638  7142 net.cpp:406] loss2/ave_pool <- inception_4d/output_inception_4d/output_0_split_0
I0507 15:48:25.368645  7142 net.cpp:380] loss2/ave_pool -> loss2/ave_pool
I0507 15:48:25.370952  7142 net.cpp:122] Setting up loss2/ave_pool
I0507 15:48:25.370965  7142 net.cpp:129] Top shape: 16 528 4 4 (135168)
I0507 15:48:25.370985  7142 net.cpp:137] Memory required for data: 805193356
I0507 15:48:25.370990  7142 layer_factory.hpp:77] Creating layer loss2/conv
I0507 15:48:25.371003  7142 net.cpp:84] Creating Layer loss2/conv
I0507 15:48:25.371008  7142 net.cpp:406] loss2/conv <- loss2/ave_pool
I0507 15:48:25.371016  7142 net.cpp:380] loss2/conv -> loss2/conv
I0507 15:48:25.373306  7142 net.cpp:122] Setting up loss2/conv
I0507 15:48:25.373317  7142 net.cpp:129] Top shape: 16 128 4 4 (32768)
I0507 15:48:25.373320  7142 net.cpp:137] Memory required for data: 805324428
I0507 15:48:25.373327  7142 layer_factory.hpp:77] Creating layer loss2/relu_conv
I0507 15:48:25.373333  7142 net.cpp:84] Creating Layer loss2/relu_conv
I0507 15:48:25.373337  7142 net.cpp:406] loss2/relu_conv <- loss2/conv
I0507 15:48:25.373344  7142 net.cpp:367] loss2/relu_conv -> loss2/conv (in-place)
I0507 15:48:25.373904  7142 net.cpp:122] Setting up loss2/relu_conv
I0507 15:48:25.373914  7142 net.cpp:129] Top shape: 16 128 4 4 (32768)
I0507 15:48:25.373917  7142 net.cpp:137] Memory required for data: 805455500
I0507 15:48:25.373921  7142 layer_factory.hpp:77] Creating layer loss2/fc
I0507 15:48:25.373930  7142 net.cpp:84] Creating Layer loss2/fc
I0507 15:48:25.373934  7142 net.cpp:406] loss2/fc <- loss2/conv
I0507 15:48:25.373942  7142 net.cpp:380] loss2/fc -> loss2/fc
I0507 15:48:25.387538  7142 net.cpp:122] Setting up loss2/fc
I0507 15:48:25.387558  7142 net.cpp:129] Top shape: 16 1024 (16384)
I0507 15:48:25.387562  7142 net.cpp:137] Memory required for data: 805521036
I0507 15:48:25.387571  7142 layer_factory.hpp:77] Creating layer loss2/relu_fc
I0507 15:48:25.387579  7142 net.cpp:84] Creating Layer loss2/relu_fc
I0507 15:48:25.387585  7142 net.cpp:406] loss2/relu_fc <- loss2/fc
I0507 15:48:25.387591  7142 net.cpp:367] loss2/relu_fc -> loss2/fc (in-place)
I0507 15:48:25.388268  7142 net.cpp:122] Setting up loss2/relu_fc
I0507 15:48:25.388278  7142 net.cpp:129] Top shape: 16 1024 (16384)
I0507 15:48:25.388280  7142 net.cpp:137] Memory required for data: 805586572
I0507 15:48:25.388284  7142 layer_factory.hpp:77] Creating layer loss2/drop_fc
I0507 15:48:25.388293  7142 net.cpp:84] Creating Layer loss2/drop_fc
I0507 15:48:25.388298  7142 net.cpp:406] loss2/drop_fc <- loss2/fc
I0507 15:48:25.388303  7142 net.cpp:367] loss2/drop_fc -> loss2/fc (in-place)
I0507 15:48:25.388330  7142 net.cpp:122] Setting up loss2/drop_fc
I0507 15:48:25.388335  7142 net.cpp:129] Top shape: 16 1024 (16384)
I0507 15:48:25.388339  7142 net.cpp:137] Memory required for data: 805652108
I0507 15:48:25.388342  7142 layer_factory.hpp:77] Creating layer loss2/classifier
I0507 15:48:25.388351  7142 net.cpp:84] Creating Layer loss2/classifier
I0507 15:48:25.388355  7142 net.cpp:406] loss2/classifier <- loss2/fc
I0507 15:48:25.388361  7142 net.cpp:380] loss2/classifier -> loss2/classifier
I0507 15:48:25.390146  7142 net.cpp:122] Setting up loss2/classifier
I0507 15:48:25.390156  7142 net.cpp:129] Top shape: 16 196 (3136)
I0507 15:48:25.390159  7142 net.cpp:137] Memory required for data: 805664652
I0507 15:48:25.390166  7142 layer_factory.hpp:77] Creating layer loss2/classifier_loss2/classifier_0_split
I0507 15:48:25.390173  7142 net.cpp:84] Creating Layer loss2/classifier_loss2/classifier_0_split
I0507 15:48:25.390177  7142 net.cpp:406] loss2/classifier_loss2/classifier_0_split <- loss2/classifier
I0507 15:48:25.390184  7142 net.cpp:380] loss2/classifier_loss2/classifier_0_split -> loss2/classifier_loss2/classifier_0_split_0
I0507 15:48:25.390192  7142 net.cpp:380] loss2/classifier_loss2/classifier_0_split -> loss2/classifier_loss2/classifier_0_split_1
I0507 15:48:25.390200  7142 net.cpp:380] loss2/classifier_loss2/classifier_0_split -> loss2/classifier_loss2/classifier_0_split_2
I0507 15:48:25.390244  7142 net.cpp:122] Setting up loss2/classifier_loss2/classifier_0_split
I0507 15:48:25.390249  7142 net.cpp:129] Top shape: 16 196 (3136)
I0507 15:48:25.390254  7142 net.cpp:129] Top shape: 16 196 (3136)
I0507 15:48:25.390256  7142 net.cpp:129] Top shape: 16 196 (3136)
I0507 15:48:25.390277  7142 net.cpp:137] Memory required for data: 805702284
I0507 15:48:25.390281  7142 layer_factory.hpp:77] Creating layer loss2/loss
I0507 15:48:25.390287  7142 net.cpp:84] Creating Layer loss2/loss
I0507 15:48:25.390291  7142 net.cpp:406] loss2/loss <- loss2/classifier_loss2/classifier_0_split_0
I0507 15:48:25.390297  7142 net.cpp:406] loss2/loss <- label_val-data_1_split_3
…
I0507 15:48:25.390888  7142 net.cpp:122] Setting up loss2/top-5
I0507 15:48:25.390892  7142 net.cpp:129] Top shape: (1)
I0507 15:48:25.390895  7142 net.cpp:137] Memory required for data: 805702296
I0507 15:48:25.390899  7142 layer_factory.hpp:77] Creating layer inception_4e/1x1
I0507 15:48:25.390908  7142 net.cpp:84] Creating Layer inception_4e/1x1
I0507 15:48:25.390913  7142 net.cpp:406] inception_4e/1x1 <- inception_4d/output_inception_4d/output_0_split_1
I0507 15:48:25.390920  7142 net.cpp:380] inception_4e/1x1 -> inception_4e/1x1
I0507 15:48:25.393530  7142 net.cpp:122] Setting up inception_4e/1x1
I0507 15:48:25.393543  7142 net.cpp:129] Top shape: 16 256 14 14 (802816)
I0507 15:48:25.393546  7142 net.cpp:137] Memory required for data: 808913560
I0507 15:48:25.393553  7142 layer_factory.hpp:77] Creating layer inception_4e/relu_1x1
I0507 15:48:25.393561  7142 net.cpp:84] Creating Layer inception_4e/relu_1x1
I0507 15:48:25.393566  7142 net.cpp:406] inception_4e/relu_1x1 <- inception_4e/1x1
I0507 15:48:25.393571  7142 net.cpp:367] inception_4e/relu_1x1 -> inception_4e/1x1 (in-place)
I0507 15:48:25.396159  7142 net.cpp:122] Setting up inception_4e/relu_1x1
I0507 15:48:25.396173  7142 net.cpp:129] Top shape: 16 256 14 14 (802816)
I0507 15:48:25.396178  7142 net.cpp:137] Memory required for data: 812124824
I0507 15:48:25.396183  7142 layer_factory.hpp:77] Creating layer inception_4e/3x3_reduce
I0507 15:48:25.396226  7142 net.cpp:84] Creating Layer inception_4e/3x3_reduce
I0507 15:48:25.396231  7142 net.cpp:406] inception_4e/3x3_reduce <- inception_4d/output_inception_4d/output_0_split_2
I0507 15:48:25.396239  7142 net.cpp:380] inception_4e/3x3_reduce -> inception_4e/3x3_reduce
I0507 15:48:25.400813  7142 net.cpp:122] Setting up inception_4e/3x3_reduce
I0507 15:48:25.400826  7142 net.cpp:129] Top shape: 16 160 14 14 (501760)
I0507 15:48:25.400830  7142 net.cpp:137] Memory required for data: 814131864
I0507 15:48:25.400840  7142 layer_factory.hpp:77] Creating layer inception_4e/relu_3x3_reduce
I0507 15:48:25.400846  7142 net.cpp:84] Creating Layer inception_4e/relu_3x3_reduce
I0507 15:48:25.400851  7142 net.cpp:406] inception_4e/relu_3x3_reduce <- inception_4e/3x3_reduce
I0507 15:48:25.400861  7142 net.cpp:367] inception_4e/relu_3x3_reduce -> inception_4e/3x3_reduce (in-place)
I0507 15:48:25.401532  7142 net.cpp:122] Setting up inception_4e/relu_3x3_reduce
I0507 15:48:25.401542  7142 net.cpp:129] Top shape: 16 160 14 14 (501760)
I0507 15:48:25.401546  7142 net.cpp:137] Memory required for data: 816138904
I0507 15:48:25.401551  7142 layer_factory.hpp:77] Creating layer inception_4e/3x3
I0507 15:48:25.401561  7142 net.cpp:84] Creating Layer inception_4e/3x3
I0507 15:48:25.401566  7142 net.cpp:406] inception_4e/3x3 <- inception_4e/3x3_reduce
I0507 15:48:25.401574  7142 net.cpp:380] inception_4e/3x3 -> inception_4e/3x3
I0507 15:48:25.406546  7142 net.cpp:122] Setting up inception_4e/3x3
I0507 15:48:25.406563  7142 net.cpp:129] Top shape: 16 320 14 14 (1003520)
I0507 15:48:25.406566  7142 net.cpp:137] Memory required for data: 820152984
I0507 15:48:25.406574  7142 layer_factory.hpp:77] Creating layer inception_4e/relu_3x3
I0507 15:48:25.406582  7142 net.cpp:84] Creating Layer inception_4e/relu_3x3
I0507 15:48:25.406587  7142 net.cpp:406] inception_4e/relu_3x3 <- inception_4e/3x3
I0507 15:48:25.406594  7142 net.cpp:367] inception_4e/relu_3x3 -> inception_4e/3x3 (in-place)
I0507 15:48:25.407299  7142 net.cpp:122] Setting up inception_4e/relu_3x3
I0507 15:48:25.407310  7142 net.cpp:129] Top shape: 16 320 14 14 (1003520)
I0507 15:48:25.407315  7142 net.cpp:137] Memory required for data: 824167064
I0507 15:48:25.407320  7142 layer_factory.hpp:77] Creating layer inception_4e/5x5_reduce
I0507 15:48:25.407330  7142 net.cpp:84] Creating Layer inception_4e/5x5_reduce
I0507 15:48:25.407335  7142 net.cpp:406] inception_4e/5x5_reduce <- inception_4d/output_inception_4d/output_0_split_3
I0507 15:48:25.407341  7142 net.cpp:380] inception_4e/5x5_reduce -> inception_4e/5x5_reduce
I0507 15:48:25.410974  7142 net.cpp:122] Setting up inception_4e/5x5_reduce
I0507 15:48:25.410989  7142 net.cpp:129] Top shape: 16 32 14 14 (100352)
I0507 15:48:25.410992  7142 net.cpp:137] Memory required for data: 824568472
I0507 15:48:25.411000  7142 layer_factory.hpp:77] Creating layer inception_4e/relu_5x5_reduce
I0507 15:48:25.411010  7142 net.cpp:84] Creating Layer inception_4e/relu_5x5_reduce
I0507 15:48:25.411015  7142 net.cpp:406] inception_4e/relu_5x5_reduce <- inception_4e/5x5_reduce
I0507 15:48:25.411021  7142 net.cpp:367] inception_4e/relu_5x5_reduce -> inception_4e/5x5_reduce (in-place)
I0507 15:48:25.411592  7142 net.cpp:122] Setting up inception_4e/relu_5x5_reduce
I0507 15:48:25.411602  7142 net.cpp:129] Top shape: 16 32 14 14 (100352)
I0507 15:48:25.411605  7142 net.cpp:137] Memory required for data: 824969880
I0507 15:48:25.411609  7142 layer_factory.hpp:77] Creating layer inception_4e/5x5
I0507 15:48:25.411621  7142 net.cpp:84] Creating Layer inception_4e/5x5
I0507 15:48:25.411625  7142 net.cpp:406] inception_4e/5x5 <- inception_4e/5x5_reduce
I0507 15:48:25.411633  7142 net.cpp:380] inception_4e/5x5 -> inception_4e/5x5
I0507 15:48:25.414188  7142 net.cpp:122] Setting up inception_4e/5x5
I0507 15:48:25.414198  7142 net.cpp:129] Top shape: 16 128 14 14 (401408)
I0507 15:48:25.414202  7142 net.cpp:137] Memory required for data: 826575512
I0507 15:48:25.414208  7142 layer_factory.hpp:77] Creating layer inception_4e/relu_5x5
I0507 15:48:25.414217  7142 net.cpp:84] Creating Layer inception_4e/relu_5x5
I0507 15:48:25.414222  7142 net.cpp:406] inception_4e/relu_5x5 <- inception_4e/5x5
I0507 15:48:25.414227  7142 net.cpp:367] inception_4e/relu_5x5 -> inception_4e/5x5 (in-place)
I0507 15:48:25.414638  7142 net.cpp:122] Setting up inception_4e/relu_5x5
I0507 15:48:25.414649  7142 net.cpp:129] Top shape: 16 128 14 14 (401408)
I0507 15:48:25.414652  7142 net.cpp:137] Memory required for data: 828181144
I0507 15:48:25.414656  7142 layer_factory.hpp:77] Creating layer inception_4e/pool
I0507 15:48:25.414664  7142 net.cpp:84] Creating Layer inception_4e/pool
I0507 15:48:25.414669  7142 net.cpp:406] inception_4e/pool <- inception_4d/output_inception_4d/output_0_split_4
I0507 15:48:25.414675  7142 net.cpp:380] inception_4e/pool -> inception_4e/pool
I0507 15:48:25.414721  7142 net.cpp:122] Setting up inception_4e/pool
I0507 15:48:25.414746  7142 net.cpp:129] Top shape: 16 528 14 14 (1655808)
I0507 15:48:25.414749  7142 net.cpp:137] Memory required for data: 834804376
I0507 15:48:25.414752  7142 layer_factory.hpp:77] Creating layer inception_4e/pool_proj
I0507 15:48:25.414762  7142 net.cpp:84] Creating Layer inception_4e/pool_proj
I0507 15:48:25.414767  7142 net.cpp:406] inception_4e/pool_proj <- inception_4e/pool
I0507 15:48:25.414774  7142 net.cpp:380] inception_4e/pool_proj -> inception_4e/pool_proj
I0507 15:48:25.417028  7142 net.cpp:122] Setting up inception_4e/pool_proj
I0507 15:48:25.417039  7142 net.cpp:129] Top shape: 16 128 14 14 (401408)
I0507 15:48:25.417043  7142 net.cpp:137] Memory required for data: 836410008
I0507 15:48:25.417050  7142 layer_factory.hpp:77] Creating layer inception_4e/relu_pool_proj
I0507 15:48:25.417057  7142 net.cpp:84] Creating Layer inception_4e/relu_pool_proj
I0507 15:48:25.417062  7142 net.cpp:406] inception_4e/relu_pool_proj <- inception_4e/pool_proj
I0507 15:48:25.417068  7142 net.cpp:367] inception_4e/relu_pool_proj -> inception_4e/pool_proj (in-place)
I0507 15:48:25.421167  7142 net.cpp:122] Setting up inception_4e/relu_pool_proj
I0507 15:48:25.421182  7142 net.cpp:129] Top shape: 16 128 14 14 (401408)
I0507 15:48:25.421186  7142 net.cpp:137] Memory required for data: 838015640
I0507 15:48:25.421192  7142 layer_factory.hpp:77] Creating layer inception_4e/output
I0507 15:48:25.421201  7142 net.cpp:84] Creating Layer inception_4e/output
I0507 15:48:25.421206  7142 net.cpp:406] inception_4e/output <- inception_4e/1x1
I0507 15:48:25.421212  7142 net.cpp:406] inception_4e/output <- inception_4e/3x3
I0507 15:48:25.421218  7142 net.cpp:406] inception_4e/output <- inception_4e/5x5
I0507 15:48:25.421223  7142 net.cpp:406] inception_4e/output <- inception_4e/pool_proj
I0507 15:48:25.421231  7142 net.cpp:380] inception_4e/output -> inception_4e/output
I0507 15:48:25.421269  7142 net.cpp:122] Setting up inception_4e/output
I0507 15:48:25.421277  7142 net.cpp:129] Top shape: 16 832 14 14 (2609152)
I0507 15:48:25.421280  7142 net.cpp:137] Memory required for data: 848452248
I0507 15:48:25.421284  7142 layer_factory.hpp:77] Creating layer pool4/3x3_s2
I0507 15:48:25.421291  7142 net.cpp:84] Creating Layer pool4/3x3_s2
I0507 15:48:25.421295  7142 net.cpp:406] pool4/3x3_s2 <- inception_4e/output
I0507 15:48:25.421303  7142 net.cpp:380] pool4/3x3_s2 -> pool4/3x3_s2
I0507 15:48:25.421342  7142 net.cpp:122] Setting up pool4/3x3_s2
I0507 15:48:25.421348  7142 net.cpp:129] Top shape: 16 832 7 7 (652288)
I0507 15:48:25.421352  7142 net.cpp:137] Memory required for data: 851061400
I0507 15:48:25.421356  7142 layer_factory.hpp:77] Creating layer pool4/3x3_s2_pool4/3x3_s2_0_split
I0507 15:48:25.421365  7142 net.cpp:84] Creating Layer pool4/3x3_s2_pool4/3x3_s2_0_split
I0507 15:48:25.421368  7142 net.cpp:406] pool4/3x3_s2_pool4/3x3_s2_0_split <- pool4/3x3_s2
I0507 15:48:25.421375  7142 net.cpp:380] pool4/3x3_s2_pool4/3x3_s2_0_split -> pool4/3x3_s2_pool4/3x3_s2_0_split_0
I0507 15:48:25.421382  7142 net.cpp:380] pool4/3x3_s2_pool4/3x3_s2_0_split -> pool4/3x3_s2_pool4/3x3_s2_0_split_1
I0507 15:48:25.421388  7142 net.cpp:380] pool4/3x3_s2_pool4/3x3_s2_0_split -> pool4/3x3_s2_pool4/3x3_s2_0_split_2
I0507 15:48:25.421423  7142 net.cpp:380] pool4/3x3_s2_pool4/3x3_s2_0_split -> pool4/3x3_s2_pool4/3x3_s2_0_split_3
I0507 15:48:25.421474  7142 net.cpp:122] Setting up pool4/3x3_s2_pool4/3x3_s2_0_split
I0507 15:48:25.421480  7142 net.cpp:129] Top shape: 16 832 7 7 (652288)
I0507 15:48:25.421484  7142 net.cpp:129] Top shape: 16 832 7 7 (652288)
I0507 15:48:25.421489  7142 net.cpp:129] Top shape: 16 832 7 7 (652288)
I0507 15:48:25.421494  7142 net.cpp:129] Top shape: 16 832 7 7 (652288)
I0507 15:48:25.421497  7142 net.cpp:137] Memory required for data: 861498008
I0507 15:48:25.421502  7142 layer_factory.hpp:77] Creating layer inception_5a/1x1
I0507 15:48:25.421511  7142 net.cpp:84] Creating Layer inception_5a/1x1
I0507 15:48:25.421516  7142 net.cpp:406] inception_5a/1x1 <- pool4/3x3_s2_pool4/3x3_s2_0_split_0
I0507 15:48:25.421541  7142 net.cpp:380] inception_5a/1x1 -> inception_5a/1x1
I0507 15:48:25.425417  7142 net.cpp:122] Setting up inception_5a/1x1
I0507 15:48:25.425429  7142 net.cpp:129] Top shape: 16 256 7 7 (200704)
I0507 15:48:25.425433  7142 net.cpp:137] Memory required for data: 862300824
I0507 15:48:25.425441  7142 layer_factory.hpp:77] Creating layer inception_5a/relu_1x1
I0507 15:48:25.425451  7142 net.cpp:84] Creating Layer inception_5a/relu_1x1
I0507 15:48:25.425456  7142 net.cpp:406] inception_5a/relu_1x1 <- inception_5a/1x1
I0507 15:48:25.425460  7142 net.cpp:367] inception_5a/relu_1x1 -> inception_5a/1x1 (in-place)
I0507 15:48:25.427662  7142 net.cpp:122] Setting up inception_5a/relu_1x1
I0507 15:48:25.427672  7142 net.cpp:129] Top shape: 16 256 7 7 (200704)
I0507 15:48:25.427676  7142 net.cpp:137] Memory required for data: 863103640
I0507 15:48:25.427681  7142 layer_factory.hpp:77] Creating layer inception_5a/3x3_reduce
I0507 15:48:25.427691  7142 net.cpp:84] Creating Layer inception_5a/3x3_reduce
I0507 15:48:25.427696  7142 net.cpp:406] inception_5a/3x3_reduce <- pool4/3x3_s2_pool4/3x3_s2_0_split_1
I0507 15:48:25.427704  7142 net.cpp:380] inception_5a/3x3_reduce -> inception_5a/3x3_reduce
I0507 15:48:25.455356  7142 net.cpp:122] Setting up inception_5a/3x3_reduce
I0507 15:48:25.455380  7142 net.cpp:129] Top shape: 16 160 7 7 (125440)
I0507 15:48:25.455385  7142 net.cpp:137] Memory required for data: 863605400
I0507 15:48:25.455395  7142 layer_factory.hpp:77] Creating layer inception_5a/relu_3x3_reduce
I0507 15:48:25.455405  7142 net.cpp:84] Creating Layer inception_5a/relu_3x3_reduce
I0507 15:48:25.455412  7142 net.cpp:406] inception_5a/relu_3x3_reduce <- inception_5a/3x3_reduce
I0507 15:48:25.455420  7142 net.cpp:367] inception_5a/relu_3x3_reduce -> inception_5a/3x3_reduce (in-place)
I0507 15:48:25.466012  7142 net.cpp:122] Setting up inception_5a/relu_3x3_reduce
I0507 15:48:25.466033  7142 net.cpp:129] Top shape: 16 160 7 7 (125440)
I0507 15:48:25.466038  7142 net.cpp:137] Memory required for data: 864107160
I0507 15:48:25.466048  7142 layer_factory.hpp:77] Creating layer inception_5a/3x3
I0507 15:48:25.466065  7142 net.cpp:84] Creating Layer inception_5a/3x3
I0507 15:48:25.466073  7142 net.cpp:406] inception_5a/3x3 <- inception_5a/3x3_reduce
I0507 15:48:25.466090  7142 net.cpp:380] inception_5a/3x3 -> inception_5a/3x3
I0507 15:48:25.498391  7142 net.cpp:122] Setting up inception_5a/3x3
I0507 15:48:25.498414  7142 net.cpp:129] Top shape: 16 320 7 7 (250880)
I0507 15:48:25.498420  7142 net.cpp:137] Memory required for data: 865110680
I0507 15:48:25.498432  7142 layer_factory.hpp:77] Creating layer inception_5a/relu_3x3
I0507 15:48:25.498445  7142 net.cpp:84] Creating Layer inception_5a/relu_3x3
I0507 15:48:25.498453  7142 net.cpp:406] inception_5a/relu_3x3 <- inception_5a/3x3
I0507 15:48:25.498462  7142 net.cpp:367] inception_5a/relu_3x3 -> inception_5a/3x3 (in-place)
I0507 15:48:25.499153  7142 net.cpp:122] Setting up inception_5a/relu_3x3
I0507 15:48:25.499166  7142 net.cpp:129] Top shape: 16 320 7 7 (250880)
I0507 15:48:25.499171  7142 net.cpp:137] Memory required for data: 866114200
I0507 15:48:25.499176  7142 layer_factory.hpp:77] Creating layer inception_5a/5x5_reduce
I0507 15:48:25.499192  7142 net.cpp:84] Creating Layer inception_5a/5x5_reduce
I0507 15:48:25.499199  7142 net.cpp:406] inception_5a/5x5_reduce <- pool4/3x3_s2_pool4/3x3_s2_0_split_2
I0507 15:48:25.499210  7142 net.cpp:380] inception_5a/5x5_reduce -> inception_5a/5x5_reduce
I0507 15:48:25.501672  7142 net.cpp:122] Setting up inception_5a/5x5_reduce
I0507 15:48:25.501686  7142 net.cpp:129] Top shape: 16 32 7 7 (25088)
I0507 15:48:25.501691  7142 net.cpp:137] Memory required for data: 866214552
I0507 15:48:25.501700  7142 layer_factory.hpp:77] Creating layer inception_5a/relu_5x5_reduce
I0507 15:48:25.501708  7142 net.cpp:84] Creating Layer inception_5a/relu_5x5_reduce
I0507 15:48:25.501713  7142 net.cpp:406] inception_5a/relu_5x5_reduce <- inception_5a/5x5_reduce
I0507 15:48:25.501722  7142 net.cpp:367] inception_5a/relu_5x5_reduce -> inception_5a/5x5_reduce (in-place)
I0507 15:48:25.502202  7142 net.cpp:122] Setting up inception_5a/relu_5x5_reduce
I0507 15:48:25.502213  7142 net.cpp:129] Top shape: 16 32 7 7 (25088)
I0507 15:48:25.502218  7142 net.cpp:137] Memory required for data: 866314904
I0507 15:48:25.502223  7142 layer_factory.hpp:77] Creating layer inception_5a/5x5
I0507 15:48:25.502235  7142 net.cpp:84] Creating Layer inception_5a/5x5
I0507 15:48:25.502243  7142 net.cpp:406] inception_5a/5x5 <- inception_5a/5x5_reduce
I0507 15:48:25.502251  7142 net.cpp:380] inception_5a/5x5 -> inception_5a/5x5
I0507 15:48:25.505113  7142 net.cpp:122] Setting up inception_5a/5x5
I0507 15:48:25.505127  7142 net.cpp:129] Top shape: 16 128 7 7 (100352)
I0507 15:48:25.505132  7142 net.cpp:137] Memory required for data: 866716312
I0507 15:48:25.505141  7142 layer_factory.hpp:77] Creating layer inception_5a/relu_5x5
I0507 15:48:25.505148  7142 net.cpp:84] Creating Layer inception_5a/relu_5x5
I0507 15:48:25.505153  7142 net.cpp:406] inception_5a/relu_5x5 <- inception_5a/5x5
I0507 15:48:25.505162  7142 net.cpp:367] inception_5a/relu_5x5 -> inception_5a/5x5 (in-place)
I0507 15:48:25.507724  7142 net.cpp:122] Setting up inception_5a/relu_5x5
I0507 15:48:25.507740  7142 net.cpp:129] Top shape: 16 128 7 7 (100352)
I0507 15:48:25.507745  7142 net.cpp:137] Memory required for data: 867117720
I0507 15:48:25.507750  7142 layer_factory.hpp:77] Creating layer inception_5a/pool
I0507 15:48:25.507759  7142 net.cpp:84] Creating Layer inception_5a/pool
I0507 15:48:25.507767  7142 net.cpp:406] inception_5a/pool <- pool4/3x3_s2_pool4/3x3_s2_0_split_3
I0507 15:48:25.507776  7142 net.cpp:380] inception_5a/pool -> inception_5a/pool
I0507 15:48:25.507829  7142 net.cpp:122] Setting up inception_5a/pool
I0507 15:48:25.507838  7142 net.cpp:129] Top shape: 16 832 7 7 (652288)
I0507 15:48:25.507843  7142 net.cpp:137] Memory required for data: 869726872
I0507 15:48:25.507846  7142 layer_factory.hpp:77] Creating layer inception_5a/pool_proj
I0507 15:48:25.507858  7142 net.cpp:84] Creating Layer inception_5a/pool_proj
I0507 15:48:25.507863  7142 net.cpp:406] inception_5a/pool_proj <- inception_5a/pool
I0507 15:48:25.507871  7142 net.cpp:380] inception_5a/pool_proj -> inception_5a/pool_proj
I0507 15:48:25.511246  7142 net.cpp:122] Setting up inception_5a/pool_proj
I0507 15:48:25.511258  7142 net.cpp:129] Top shape: 16 128 7 7 (100352)
I0507 15:48:25.511265  7142 net.cpp:137] Memory required for data: 870128280
I0507 15:48:25.511272  7142 layer_factory.hpp:77] Creating layer inception_5a/relu_pool_proj
I0507 15:48:25.511281  7142 net.cpp:84] Creating Layer inception_5a/relu_pool_proj
I0507 15:48:25.511287  7142 net.cpp:406] inception_5a/relu_pool_proj <- inception_5a/pool_proj
I0507 15:48:25.511294  7142 net.cpp:367] inception_5a/relu_pool_proj -> inception_5a/pool_proj (in-place)
I0507 15:48:25.511934  7142 net.cpp:122] Setting up inception_5a/relu_pool_proj
I0507 15:48:25.511946  7142 net.cpp:129] Top shape: 16 128 7 7 (100352)
I0507 15:48:25.511950  7142 net.cpp:137] Memory required for data: 870529688
I0507 15:48:25.511955  7142 layer_factory.hpp:77] Creating layer inception_5a/output
I0507 15:48:25.511965  7142 net.cpp:84] Creating Layer inception_5a/output
I0507 15:48:25.511970  7142 net.cpp:406] inception_5a/output <- inception_5a/1x1
I0507 15:48:25.511976  7142 net.cpp:406] inception_5a/output <- inception_5a/3x3
I0507 15:48:25.511981  7142 net.cpp:406] inception_5a/output <- inception_5a/5x5
I0507 15:48:25.511987  7142 net.cpp:406] inception_5a/output <- inception_5a/pool_proj
I0507 15:48:25.511993  7142 net.cpp:380] inception_5a/output -> inception_5a/output
I0507 15:48:25.512030  7142 net.cpp:122] Setting up inception_5a/output
I0507 15:48:25.512037  7142 net.cpp:129] Top shape: 16 832 7 7 (652288)
I0507 15:48:25.512042  7142 net.cpp:137] Memory required for data: 873138840
I0507 15:48:25.512045  7142 layer_factory.hpp:77] Creating layer inception_5a/output_inception_5a/output_0_split
I0507 15:48:25.512053  7142 net.cpp:84] Creating Layer inception_5a/output_inception_5a/output_0_split
I0507 15:48:25.512079  7142 net.cpp:406] inception_5a/output_inception_5a/output_0_split <- inception_5a/output
I0507 15:48:25.512087  7142 net.cpp:380] inception_5a/output_inception_5a/output_0_split -> inception_5a/output_inception_5a/output_0_split_0
I0507 15:48:25.512096  7142 net.cpp:380] inception_5a/output_inception_5a/output_0_split -> inception_5a/output_inception_5a/output_0_split_1
I0507 15:48:25.512105  7142 net.cpp:380] inception_5a/output_inception_5a/output_0_split -> inception_5a/output_inception_5a/output_0_split_2
I0507 15:48:25.512113  7142 net.cpp:380] inception_5a/output_inception_5a/output_0_split -> inception_5a/output_inception_5a/output_0_split_3
I0507 15:48:25.512179  7142 net.cpp:122] Setting up inception_5a/output_inception_5a/output_0_split
I0507 15:48:25.512187  7142 net.cpp:129] Top shape: 16 832 7 7 (652288)
I0507 15:48:25.512192  7142 net.cpp:129] Top shape: 16 832 7 7 (652288)
I0507 15:48:25.512197  7142 net.cpp:129] Top shape: 16 832 7 7 (652288)
I0507 15:48:25.512202  7142 net.cpp:129] Top shape: 16 832 7 7 (652288)
I0507 15:48:25.512207  7142 net.cpp:137] Memory required for data: 883575448
I0507 15:48:25.512210  7142 layer_factory.hpp:77] Creating layer inception_5b/1x1
I0507 15:48:25.512223  7142 net.cpp:84] Creating Layer inception_5b/1x1
I0507 15:48:25.512226  7142 net.cpp:406] inception_5b/1x1 <- inception_5a/output_inception_5a/output_0_split_0
I0507 15:48:25.512235  7142 net.cpp:380] inception_5b/1x1 -> inception_5b/1x1
I0507 15:48:25.516736  7142 net.cpp:122] Setting up inception_5b/1x1
I0507 15:48:25.516748  7142 net.cpp:129] Top shape: 16 384 7 7 (301056)
I0507 15:48:25.516753  7142 net.cpp:137] Memory required for data: 884779672
I0507 15:48:25.516762  7142 layer_factory.hpp:77] Creating layer inception_5b/relu_1x1
I0507 15:48:25.516772  7142 net.cpp:84] Creating Layer inception_5b/relu_1x1
I0507 15:48:25.516777  7142 net.cpp:406] inception_5b/relu_1x1 <- inception_5b/1x1
I0507 15:48:25.516783  7142 net.cpp:367] inception_5b/relu_1x1 -> inception_5b/1x1 (in-place)
I0507 15:48:25.517417  7142 net.cpp:122] Setting up inception_5b/relu_1x1
I0507 15:48:25.517429  7142 net.cpp:129] Top shape: 16 384 7 7 (301056)
I0507 15:48:25.517433  7142 net.cpp:137] Memory required for data: 885983896
I0507 15:48:25.517439  7142 layer_factory.hpp:77] Creating layer inception_5b/3x3_reduce
I0507 15:48:25.517452  7142 net.cpp:84] Creating Layer inception_5b/3x3_reduce
I0507 15:48:25.517457  7142 net.cpp:406] inception_5b/3x3_reduce <- inception_5a/output_inception_5a/output_0_split_1
I0507 15:48:25.517465  7142 net.cpp:380] inception_5b/3x3_reduce -> inception_5b/3x3_reduce
I0507 15:48:25.527431  7142 net.cpp:122] Setting up inception_5b/3x3_reduce
I0507 15:48:25.527451  7142 net.cpp:129] Top shape: 16 192 7 7 (150528)
I0507 15:48:25.527456  7142 net.cpp:137] Memory required for data: 886586008
I0507 15:48:25.527467  7142 layer_factory.hpp:77] Creating layer inception_5b/relu_3x3_reduce
I0507 15:48:25.527478  7142 net.cpp:84] Creating Layer inception_5b/relu_3x3_reduce
I0507 15:48:25.527485  7142 net.cpp:406] inception_5b/relu_3x3_reduce <- inception_5b/3x3_reduce
I0507 15:48:25.527492  7142 net.cpp:367] inception_5b/relu_3x3_reduce -> inception_5b/3x3_reduce (in-place)
I0507 15:48:25.528192  7142 net.cpp:122] Setting up inception_5b/relu_3x3_reduce
I0507 15:48:25.528203  7142 net.cpp:129] Top shape: 16 192 7 7 (150528)
I0507 15:48:25.528206  7142 net.cpp:137] Memory required for data: 887188120
I0507 15:48:25.528210  7142 layer_factory.hpp:77] Creating layer inception_5b/3x3
I0507 15:48:25.528224  7142 net.cpp:84] Creating Layer inception_5b/3x3
I0507 15:48:25.528229  7142 net.cpp:406] inception_5b/3x3 <- inception_5b/3x3_reduce
I0507 15:48:25.528237  7142 net.cpp:380] inception_5b/3x3 -> inception_5b/3x3
I0507 15:48:25.535229  7142 net.cpp:122] Setting up inception_5b/3x3
I0507 15:48:25.535244  7142 net.cpp:129] Top shape: 16 384 7 7 (301056)
I0507 15:48:25.535249  7142 net.cpp:137] Memory required for data: 888392344
I0507 15:48:25.535259  7142 layer_factory.hpp:77] Creating layer inception_5b/relu_3x3
I0507 15:48:25.535287  7142 net.cpp:84] Creating Layer inception_5b/relu_3x3
I0507 15:48:25.535292  7142 net.cpp:406] inception_5b/relu_3x3 <- inception_5b/3x3
I0507 15:48:25.535300  7142 net.cpp:367] inception_5b/relu_3x3 -> inception_5b/3x3 (in-place)
I0507 15:48:25.535710  7142 net.cpp:122] Setting up inception_5b/relu_3x3
I0507 15:48:25.535719  7142 net.cpp:129] Top shape: 16 384 7 7 (301056)
I0507 15:48:25.535722  7142 net.cpp:137] Memory required for data: 889596568
I0507 15:48:25.535727  7142 layer_factory.hpp:77] Creating layer inception_5b/5x5_reduce
I0507 15:48:25.535738  7142 net.cpp:84] Creating Layer inception_5b/5x5_reduce
I0507 15:48:25.535743  7142 net.cpp:406] inception_5b/5x5_reduce <- inception_5a/output_inception_5a/output_0_split_2
I0507 15:48:25.535753  7142 net.cpp:380] inception_5b/5x5_reduce -> inception_5b/5x5_reduce
I0507 15:48:25.538096  7142 net.cpp:122] Setting up inception_5b/5x5_reduce
I0507 15:48:25.538107  7142 net.cpp:129] Top shape: 16 48 7 7 (37632)
I0507 15:48:25.538111  7142 net.cpp:137] Memory required for data: 889747096
I0507 15:48:25.538118  7142 layer_factory.hpp:77] Creating layer inception_5b/relu_5x5_reduce
I0507 15:48:25.538126  7142 net.cpp:84] Creating Layer inception_5b/relu_5x5_reduce
I0507 15:48:25.538130  7142 net.cpp:406] inception_5b/relu_5x5_reduce <- inception_5b/5x5_reduce
I0507 15:48:25.538137  7142 net.cpp:367] inception_5b/relu_5x5_reduce -> inception_5b/5x5_reduce (in-place)
I0507 15:48:25.538568  7142 net.cpp:122] Setting up inception_5b/relu_5x5_reduce
I0507 15:48:25.538578  7142 net.cpp:129] Top shape: 16 48 7 7 (37632)
I0507 15:48:25.538581  7142 net.cpp:137] Memory required for data: 889897624
I0507 15:48:25.538585  7142 layer_factory.hpp:77] Creating layer inception_5b/5x5
I0507 15:48:25.538599  7142 net.cpp:84] Creating Layer inception_5b/5x5
I0507 15:48:25.538604  7142 net.cpp:406] inception_5b/5x5 <- inception_5b/5x5_reduce
I0507 15:48:25.538609  7142 net.cpp:380] inception_5b/5x5 -> inception_5b/5x5
I0507 15:48:25.544189  7142 net.cpp:122] Setting up inception_5b/5x5
I0507 15:48:25.544207  7142 net.cpp:129] Top shape: 16 128 7 7 (100352)
I0507 15:48:25.544211  7142 net.cpp:137] Memory required for data: 890299032
I0507 15:48:25.544220  7142 layer_factory.hpp:77] Creating layer inception_5b/relu_5x5
I0507 15:48:25.544231  7142 net.cpp:84] Creating Layer inception_5b/relu_5x5
I0507 15:48:25.544237  7142 net.cpp:406] inception_5b/relu_5x5 <- inception_5b/5x5
I0507 15:48:25.544245  7142 net.cpp:367] inception_5b/relu_5x5 -> inception_5b/5x5 (in-place)
I0507 15:48:25.544843  7142 net.cpp:122] Setting up inception_5b/relu_5x5
I0507 15:48:25.544853  7142 net.cpp:129] Top shape: 16 128 7 7 (100352)
I0507 15:48:25.544857  7142 net.cpp:137] Memory required for data: 890700440
I0507 15:48:25.544862  7142 layer_factory.hpp:77] Creating layer inception_5b/pool
I0507 15:48:25.544872  7142 net.cpp:84] Creating Layer inception_5b/pool
I0507 15:48:25.544876  7142 net.cpp:406] inception_5b/pool <- inception_5a/output_inception_5a/output_0_split_3
I0507 15:48:25.544883  7142 net.cpp:380] inception_5b/pool -> inception_5b/pool
I0507 15:48:25.544934  7142 net.cpp:122] Setting up inception_5b/pool
I0507 15:48:25.544941  7142 net.cpp:129] Top shape: 16 832 7 7 (652288)
I0507 15:48:25.544945  7142 net.cpp:137] Memory required for data: 893309592
I0507 15:48:25.544950  7142 layer_factory.hpp:77] Creating layer inception_5b/pool_proj
I0507 15:48:25.544960  7142 net.cpp:84] Creating Layer inception_5b/pool_proj
I0507 15:48:25.544965  7142 net.cpp:406] inception_5b/pool_proj <- inception_5b/pool
I0507 15:48:25.544972  7142 net.cpp:380] inception_5b/pool_proj -> inception_5b/pool_proj
I0507 15:48:25.547405  7142 net.cpp:122] Setting up inception_5b/pool_proj
I0507 15:48:25.547416  7142 net.cpp:129] Top shape: 16 128 7 7 (100352)
I0507 15:48:25.547420  7142 net.cpp:137] Memory required for data: 893711000
I0507 15:48:25.547427  7142 layer_factory.hpp:77] Creating layer inception_5b/relu_pool_proj
I0507 15:48:25.547435  7142 net.cpp:84] Creating Layer inception_5b/relu_pool_proj
I0507 15:48:25.547459  7142 net.cpp:406] inception_5b/relu_pool_proj <- inception_5b/pool_proj
I0507 15:48:25.547466  7142 net.cpp:367] inception_5b/relu_pool_proj -> inception_5b/pool_proj (in-place)
I0507 15:48:25.548070  7142 net.cpp:122] Setting up inception_5b/relu_pool_proj
I0507 15:48:25.548081  7142 net.cpp:129] Top shape: 16 128 7 7 (100352)
I0507 15:48:25.548085  7142 net.cpp:137] Memory required for data: 894112408
I0507 15:48:25.548089  7142 layer_factory.hpp:77] Creating layer inception_5b/output
I0507 15:48:25.548099  7142 net.cpp:84] Creating Layer inception_5b/output
I0507 15:48:25.548103  7142 net.cpp:406] inception_5b/output <- inception_5b/1x1
I0507 15:48:25.548110  7142 net.cpp:406] inception_5b/output <- inception_5b/3x3
I0507 15:48:25.548115  7142 net.cpp:406] inception_5b/output <- inception_5b/5x5
I0507 15:48:25.548118  7142 net.cpp:406] inception_5b/output <- inception_5b/pool_proj
I0507 15:48:25.548125  7142 net.cpp:380] inception_5b/output -> inception_5b/output
I0507 15:48:25.548159  7142 net.cpp:122] Setting up inception_5b/output
I0507 15:48:25.548166  7142 net.cpp:129] Top shape: 16 1024 7 7 (802816)
I0507 15:48:25.548169  7142 net.cpp:137] Memory required for data: 897323672
I0507 15:48:25.548173  7142 layer_factory.hpp:77] Creating layer pool5/7x7_s1
I0507 15:48:25.548179  7142 net.cpp:84] Creating Layer pool5/7x7_s1
I0507 15:48:25.548184  7142 net.cpp:406] pool5/7x7_s1 <- inception_5b/output
I0507 15:48:25.548192  7142 net.cpp:380] pool5/7x7_s1 -> pool5/7x7_s1
I0507 15:48:25.550786  7142 net.cpp:122] Setting up pool5/7x7_s1
I0507 15:48:25.550799  7142 net.cpp:129] Top shape: 16 1024 1 1 (16384)
I0507 15:48:25.550803  7142 net.cpp:137] Memory required for data: 897389208
I0507 15:48:25.550808  7142 layer_factory.hpp:77] Creating layer pool5/drop_7x7_s1
I0507 15:48:25.550817  7142 net.cpp:84] Creating Layer pool5/drop_7x7_s1
I0507 15:48:25.550822  7142 net.cpp:406] pool5/drop_7x7_s1 <- pool5/7x7_s1
I0507 15:48:25.550828  7142 net.cpp:367] pool5/drop_7x7_s1 -> pool5/7x7_s1 (in-place)
I0507 15:48:25.550856  7142 net.cpp:122] Setting up pool5/drop_7x7_s1
I0507 15:48:25.550863  7142 net.cpp:129] Top shape: 16 1024 1 1 (16384)
I0507 15:48:25.550868  7142 net.cpp:137] Memory required for data: 897454744
I0507 15:48:25.550871  7142 layer_factory.hpp:77] Creating layer loss3/classifier
I0507 15:48:25.550881  7142 net.cpp:84] Creating Layer loss3/classifier
I0507 15:48:25.550885  7142 net.cpp:406] loss3/classifier <- pool5/7x7_s1
I0507 15:48:25.550892  7142 net.cpp:380] loss3/classifier -> loss3/classifier
I0507 15:48:25.552827  7142 net.cpp:122] Setting up loss3/classifier
I0507 15:48:25.552837  7142 net.cpp:129] Top shape: 16 196 (3136)
I0507 15:48:25.552841  7142 net.cpp:137] Memory required for data: 897467288
I0507 15:48:25.552850  7142 layer_factory.hpp:77] Creating layer loss3/classifier_loss3/classifier_0_split
I0507 15:48:25.552857  7142 net.cpp:84] Creating Layer loss3/classifier_loss3/classifier_0_split
I0507 15:48:25.552862  7142 net.cpp:406] loss3/classifier_loss3/classifier_0_split <- loss3/classifier
I0507 15:48:25.552871  7142 net.cpp:380] loss3/classifier_loss3/classifier_0_split -> loss3/classifier_loss3/classifier_0_split_0
I0507 15:48:25.552881  7142 net.cpp:380] loss3/classifier_loss3/classifier_0_split -> loss3/classifier_loss3/classifier_0_split_1
I0507 15:48:25.552887  7142 net.cpp:380] loss3/classifier_loss3/classifier_0_split -> loss3/classifier_loss3/classifier_0_split_2
I0507 15:48:25.552938  7142 net.cpp:122] Setting up loss3/classifier_loss3/classifier_0_split
I0507 15:48:25.552944  7142 net.cpp:129] Top shape: 16 196 (3136)
I0507 15:48:25.552948  7142 net.cpp:129] Top shape: 16 196 (3136)
I0507 15:48:25.552951  7142 net.cpp:129] Top shape: 16 196 (3136)
I0507 15:48:25.552955  7142 net.cpp:137] Memory required for data: 897504920
I0507 15:48:25.552959  7142 layer_factory.hpp:77] Creating layer loss3/loss
I0507 15:48:25.552965  7142 net.cpp:84] Creating Layer loss3/loss
I0507 15:48:25.552970  7142 net.cpp:406] loss3/loss <- loss3/classifier_loss3/classifier_0_split_0
I0507 15:48:25.552994  7142 net.cpp:406] loss3/loss <- label_val-data_1_split_6
…
