…
I0505 13:42:00.661079 31306 net.cpp:294] The NetState phase (0) differed from the phase (1) specified by a rule in layer accuracy
I0505 13:42:00.661229 31306 net.cpp:51] Initializing net from parameters:
state {
phase: TRAIN
level: 0
stage: ""
}
layer {
name: "train-data"
type: "Data"
top: "data"
top: "label"
include {
phase: TRAIN
}
transform_param {
mirror: true
crop_size: 227
mean_value: 116.0869
mean_value: 117.34734
mean_value: 119.99591
}
data_param {
source: "/mnt/bigdisk/MANDIG2/digits/jobs/20200428-132136-11fe/train_db"
batch_size: 128
backend: LMDB
}
}
layer {
name: "conv1"
type: "Convolution"
bottom: "data"
top: "conv1"
param {
lr_mult: 1
decay_mult: 1
}
param {
lr_mult: 2
decay_mult: 0
}
convolution_param {
num_output: 96
kernel_size: 11
stride: 4
weight_filler {
type: "gaussian"
std: 0.01
}
bias_filler {
type: "constant"
value: 0
}
}
}
layer {
name: "relu1"
type: "ReLU"
bottom: "conv1"
top: "conv1"
}
layer {
name: "norm1"
type: "LRN"
bottom: "conv1"
top: "norm1"
lrn_param {
local_size: 5
alpha: 0.0001
beta: 0.75
}
}
layer {
name: "pool1"
type: "Pooling"
bottom: "norm1"
top: "pool1"
pooling_param {
pool: MAX
kernel_size: 3
stride: 2
}
}
layer {
name: "conv2"
type: "Convolution"
bottom: "pool1"
top: "conv2"
param {
lr_mult: 1
decay_mult: 1
}
param {
lr_mult: 2
decay_mult: 0
}
convolution_param {
num_output: 256
pad: 2
kernel_size: 5
group: 2
weight_filler {
type: "gaussian"
std: 0.01
}
bias_filler {
type: "constant"
value: 0.1
}
}
}
layer {
name: "relu2"
type: "ReLU"
bottom: "conv2"
top: "conv2"
}
layer {
name: "norm2"
type: "LRN"
bottom: "conv2"
top: "norm2"
lrn_param {
local_size: 5
alpha: 0.0001
beta: 0.75
}
}
layer {
name: "pool2"
type: "Pooling"
bottom: "norm2"
top: "pool2"
pooling_param {
pool: MAX
kernel_size: 3
stride: 2
}
}
layer {
name: "conv3"
type: "Convolution"
bottom: "pool2"
top: "conv3"
param {
lr_mult: 1
decay_mult: 1
}
param {
lr_mult: 2
decay_mult: 0
}
convolution_param {
num_output: 384
pad: 1
kernel_size: 3
weight_filler {
type: "gaussian"
std: 0.01
}
bias_filler {
type: "constant"
value: 0
}
}
}
layer {
name: "relu3"
type: "ReLU"
bottom: "conv3"
top: "conv3"
}
layer {
name: "conv4"
type: "Convolution"
bottom: "conv3"
top: "conv4"
param {
lr_mult: 1
decay_mult: 1
}
param {
lr_mult: 2
decay_mult: 0
}
convolution_param {
num_output: 384
pad: 1
kernel_size: 3
group: 2
weight_filler {
type: "gaussian"
std: 0.01
}
bias_filler {
type: "constant"
value: 0.1
}
}
}
layer {
name: "relu4"
type: "ReLU"
bottom: "conv4"
top: "conv4"
}
layer {
name: "conv5"
type: "Convolution"
bottom: "conv4"
top: "conv5"
param {
lr_mult: 1
decay_mult: 1
}
param {
lr_mult: 2
decay_mult: 0
}
convolution_param {
num_output: 256
pad: 1
kernel_size: 3
group: 2
weight_filler {
type: "gaussian"
std: 0.01
}
bias_filler {
type: "constant"
value: 0.1
}
}
}
layer {
name: "relu5"
type: "ReLU"
bottom: "conv5"
top: "conv5"
}
layer {
name: "pool5"
type: "Pooling"
bottom: "conv5"
top: "pool5"
pooling_param {
pool: MAX
kernel_size: 3
stride: 2
}
}
layer {
name: "fc6"
type: "InnerProduct"
bottom: "pool5"
top: "fc6"
param {
lr_mult: 1
decay_mult: 1
}
param {
lr_mult: 2
decay_mult: 0
}
inner_product_param {
num_output: 4096
weight_filler {
type: "gaussian"
std: 0.005
}
bias_filler {
type: "constant"
value: 0.1
}
}
}
layer {
name: "relu6"
type: "ReLU"
bottom: "fc6"
top: "fc6"
}
layer {
name: "drop6"
type: "Dropout"
bottom: "fc6"
top: "fc6"
dropout_param {
dropout_ratio: 0.5
}
}
layer {
name: "fc7"
type: "InnerProduct"
bottom: "fc6"
top: "fc7"
param {
lr_mult: 1
decay_mult: 1
}
param {
lr_mult: 2
decay_mult: 0
}
inner_product_param {
num_output: 4096
weight_filler {
type: "gaussian"
std: 0.005
}
bias_filler {
type: "constant"
value: 0.1
}
}
}
layer {
name: "relu7"
type: "ReLU"
bottom: "fc7"
top: "fc7"
}
layer {
name: "drop7"
type: "Dropout"
bottom: "fc7"
top: "fc7"
dropout_param {
dropout_ratio: 0.5
}
}
layer {
name: "fc8"
type: "InnerProduct"
bottom: "fc7"
top: "fc8"
param {
lr_mult: 1
decay_mult: 1
}
param {
lr_mult: 2
decay_mult: 0
}
inner_product_param {
num_output: 196
weight_filler {
type: "gaussian"
std: 0.01
}
bias_filler {
type: "constant"
value: 0
}
}
}
layer {
name: "loss"
type: "SoftmaxWithLoss"
bottom: "fc8"
bottom: "label"
top: "loss"
}
I0505 13:42:00.661352 31306 layer_factory.hpp:77] Creating layer train-data
I0505 13:42:00.662896 31306 db_lmdb.cpp:35] Opened lmdb /mnt/bigdisk/MANDIG2/digits/jobs/20200428-132136-11fe/train_db
I0505 13:42:00.663087 31306 net.cpp:84] Creating Layer train-data
I0505 13:42:00.663103 31306 net.cpp:380] train-data -> data
I0505 13:42:00.663130 31306 net.cpp:380] train-data -> label
I0505 13:42:00.668721 31306 data_layer.cpp:45] output data size: 128,3,227,227
I0505 13:42:00.891947 31306 net.cpp:122] Setting up train-data
I0505 13:42:00.891975 31306 net.cpp:129] Top shape: 128 3 227 227 (19787136)
I0505 13:42:00.891983 31306 net.cpp:129] Top shape: 128 (128)
I0505 13:42:00.891989 31306 net.cpp:137] Memory required for data: 79149056
I0505 13:42:00.892002 31306 layer_factory.hpp:77] Creating layer conv1
I0505 13:42:00.892029 31306 net.cpp:84] Creating Layer conv1
I0505 13:42:00.892036 31306 net.cpp:406] conv1 <- data
I0505 13:42:00.892052 31306 net.cpp:380] conv1 -> conv1
I0505 13:42:02.244212 31306 net.cpp:122] Setting up conv1
I0505 13:42:02.244238 31306 net.cpp:129] Top shape: 128 96 55 55 (37171200)
I0505 13:42:02.244244 31306 net.cpp:137] Memory required for data: 227833856
I0505 13:42:02.244271 31306 layer_factory.hpp:77] Creating layer relu1
I0505 13:42:02.244283 31306 net.cpp:84] Creating Layer relu1
I0505 13:42:02.244290 31306 net.cpp:406] relu1 <- conv1
I0505 13:42:02.244298 31306 net.cpp:367] relu1 -> conv1 (in-place)
I0505 13:42:02.244719 31306 net.cpp:122] Setting up relu1
I0505 13:42:02.244731 31306 net.cpp:129] Top shape: 128 96 55 55 (37171200)
I0505 13:42:02.244736 31306 net.cpp:137] Memory required for data: 376518656
I0505 13:42:02.244742 31306 layer_factory.hpp:77] Creating layer norm1
I0505 13:42:02.244755 31306 net.cpp:84] Creating Layer norm1
I0505 13:42:02.244761 31306 net.cpp:406] norm1 <- conv1
I0505 13:42:02.244769 31306 net.cpp:380] norm1 -> norm1
I0505 13:42:02.247388 31306 net.cpp:122] Setting up norm1
I0505 13:42:02.247429 31306 net.cpp:129] Top shape: 128 96 55 55 (37171200)
I0505 13:42:02.247437 31306 net.cpp:137] Memory required for data: 525203456
I0505 13:42:02.247445 31306 layer_factory.hpp:77] Creating layer pool1
I0505 13:42:02.247462 31306 net.cpp:84] Creating Layer pool1
I0505 13:42:02.247470 31306 net.cpp:406] pool1 <- norm1
I0505 13:42:02.247478 31306 net.cpp:380] pool1 -> pool1
I0505 13:42:02.247526 31306 net.cpp:122] Setting up pool1
I0505 13:42:02.247534 31306 net.cpp:129] Top shape: 128 96 27 27 (8957952)
I0505 13:42:02.247539 31306 net.cpp:137] Memory required for data: 561035264
I0505 13:42:02.247545 31306 layer_factory.hpp:77] Creating layer conv2
I0505 13:42:02.247555 31306 net.cpp:84] Creating Layer conv2
I0505 13:42:02.247560 31306 net.cpp:406] conv2 <- pool1
I0505 13:42:02.247568 31306 net.cpp:380] conv2 -> conv2
I0505 13:42:02.276463 31306 net.cpp:122] Setting up conv2
I0505 13:42:02.276489 31306 net.cpp:129] Top shape: 128 256 27 27 (23887872)
I0505 13:42:02.276496 31306 net.cpp:137] Memory required for data: 656586752
I0505 13:42:02.276515 31306 layer_factory.hpp:77] Creating layer relu2
I0505 13:42:02.276528 31306 net.cpp:84] Creating Layer relu2
I0505 13:42:02.276536 31306 net.cpp:406] relu2 <- conv2
I0505 13:42:02.276552 31306 net.cpp:367] relu2 -> conv2 (in-place)
I0505 13:42:02.277354 31306 net.cpp:122] Setting up relu2
I0505 13:42:02.277371 31306 net.cpp:129] Top shape: 128 256 27 27 (23887872)
I0505 13:42:02.277377 31306 net.cpp:137] Memory required for data: 752138240
I0505 13:42:02.277384 31306 layer_factory.hpp:77] Creating layer norm2
I0505 13:42:02.277395 31306 net.cpp:84] Creating Layer norm2
I0505 13:42:02.277401 31306 net.cpp:406] norm2 <- conv2
I0505 13:42:02.277412 31306 net.cpp:380] norm2 -> norm2
I0505 13:42:02.277988 31306 net.cpp:122] Setting up norm2
I0505 13:42:02.278002 31306 net.cpp:129] Top shape: 128 256 27 27 (23887872)
I0505 13:42:02.278008 31306 net.cpp:137] Memory required for data: 847689728
I0505 13:42:02.278013 31306 layer_factory.hpp:77] Creating layer pool2
I0505 13:42:02.278028 31306 net.cpp:84] Creating Layer pool2
I0505 13:42:02.278035 31306 net.cpp:406] pool2 <- norm2
I0505 13:42:02.278044 31306 net.cpp:380] pool2 -> pool2
I0505 13:42:02.278095 31306 net.cpp:122] Setting up pool2
I0505 13:42:02.278107 31306 net.cpp:129] Top shape: 128 256 13 13 (5537792)
I0505 13:42:02.278115 31306 net.cpp:137] Memory required for data: 869840896
I0505 13:42:02.278120 31306 layer_factory.hpp:77] Creating layer conv3
I0505 13:42:02.278137 31306 net.cpp:84] Creating Layer conv3
I0505 13:42:02.278146 31306 net.cpp:406] conv3 <- pool2
I0505 13:42:02.278156 31306 net.cpp:380] conv3 -> conv3
I0505 13:42:02.295858 31306 net.cpp:122] Setting up conv3
I0505 13:42:02.295883 31306 net.cpp:129] Top shape: 128 384 13 13 (8306688)
I0505 13:42:02.295891 31306 net.cpp:137] Memory required for data: 903067648
I0505 13:42:02.295908 31306 layer_factory.hpp:77] Creating layer relu3
I0505 13:42:02.295925 31306 net.cpp:84] Creating Layer relu3
I0505 13:42:02.295933 31306 net.cpp:406] relu3 <- conv3
I0505 13:42:02.295943 31306 net.cpp:367] relu3 -> conv3 (in-place)
I0505 13:42:02.296643 31306 net.cpp:122] Setting up relu3
I0505 13:42:02.296658 31306 net.cpp:129] Top shape: 128 384 13 13 (8306688)
I0505 13:42:02.296664 31306 net.cpp:137] Memory required for data: 936294400
I0505 13:42:02.296670 31306 layer_factory.hpp:77] Creating layer conv4
I0505 13:42:02.296687 31306 net.cpp:84] Creating Layer conv4
I0505 13:42:02.296696 31306 net.cpp:406] conv4 <- conv3
I0505 13:42:02.296710 31306 net.cpp:380] conv4 -> conv4
I0505 13:42:02.311359 31306 net.cpp:122] Setting up conv4
I0505 13:42:02.311379 31306 net.cpp:129] Top shape: 128 384 13 13 (8306688)
I0505 13:42:02.311384 31306 net.cpp:137] Memory required for data: 969521152
I0505 13:42:02.311393 31306 layer_factory.hpp:77] Creating layer relu4
I0505 13:42:02.311403 31306 net.cpp:84] Creating Layer relu4
I0505 13:42:02.311408 31306 net.cpp:406] relu4 <- conv4
I0505 13:42:02.311416 31306 net.cpp:367] relu4 -> conv4 (in-place)
I0505 13:42:02.311758 31306 net.cpp:122] Setting up relu4
I0505 13:42:02.311785 31306 net.cpp:129] Top shape: 128 384 13 13 (8306688)
I0505 13:42:02.311789 31306 net.cpp:137] Memory required for data: 1002747904
I0505 13:42:02.311794 31306 layer_factory.hpp:77] Creating layer conv5
I0505 13:42:02.311807 31306 net.cpp:84] Creating Layer conv5
I0505 13:42:02.311811 31306 net.cpp:406] conv5 <- conv4
I0505 13:42:02.311820 31306 net.cpp:380] conv5 -> conv5
I0505 13:42:02.341511 31306 net.cpp:122] Setting up conv5
I0505 13:42:02.341529 31306 net.cpp:129] Top shape: 128 256 13 13 (5537792)
I0505 13:42:02.341534 31306 net.cpp:137] Memory required for data: 1024899072
I0505 13:42:02.341550 31306 layer_factory.hpp:77] Creating layer relu5
I0505 13:42:02.341560 31306 net.cpp:84] Creating Layer relu5
I0505 13:42:02.341567 31306 net.cpp:406] relu5 <- conv5
I0505 13:42:02.341573 31306 net.cpp:367] relu5 -> conv5 (in-place)
I0505 13:42:02.342069 31306 net.cpp:122] Setting up relu5
I0505 13:42:02.342079 31306 net.cpp:129] Top shape: 128 256 13 13 (5537792)
I0505 13:42:02.342083 31306 net.cpp:137] Memory required for data: 1047050240
I0505 13:42:02.342087 31306 layer_factory.hpp:77] Creating layer pool5
I0505 13:42:02.342094 31306 net.cpp:84] Creating Layer pool5
I0505 13:42:02.342098 31306 net.cpp:406] pool5 <- conv5
I0505 13:42:02.342106 31306 net.cpp:380] pool5 -> pool5
I0505 13:42:02.342144 31306 net.cpp:122] Setting up pool5
I0505 13:42:02.342150 31306 net.cpp:129] Top shape: 128 256 6 6 (1179648)
I0505 13:42:02.342154 31306 net.cpp:137] Memory required for data: 1051768832
I0505 13:42:02.342159 31306 layer_factory.hpp:77] Creating layer fc6
I0505 13:42:02.342170 31306 net.cpp:84] Creating Layer fc6
I0505 13:42:02.342173 31306 net.cpp:406] fc6 <- pool5
I0505 13:42:02.342180 31306 net.cpp:380] fc6 -> fc6
I0505 13:42:02.729046 31306 net.cpp:122] Setting up fc6
I0505 13:42:02.729068 31306 net.cpp:129] Top shape: 128 4096 (524288)
I0505 13:42:02.729072 31306 net.cpp:137] Memory required for data: 1053865984
I0505 13:42:02.729084 31306 layer_factory.hpp:77] Creating layer relu6
I0505 13:42:02.729095 31306 net.cpp:84] Creating Layer relu6
I0505 13:42:02.729100 31306 net.cpp:406] relu6 <- fc6
I0505 13:42:02.729110 31306 net.cpp:367] relu6 -> fc6 (in-place)
I0505 13:42:02.731330 31306 net.cpp:122] Setting up relu6
I0505 13:42:02.731345 31306 net.cpp:129] Top shape: 128 4096 (524288)
I0505 13:42:02.731350 31306 net.cpp:137] Memory required for data: 1055963136
I0505 13:42:02.731356 31306 layer_factory.hpp:77] Creating layer drop6
I0505 13:42:02.731365 31306 net.cpp:84] Creating Layer drop6
I0505 13:42:02.731369 31306 net.cpp:406] drop6 <- fc6
I0505 13:42:02.731377 31306 net.cpp:367] drop6 -> fc6 (in-place)
I0505 13:42:02.731416 31306 net.cpp:122] Setting up drop6
I0505 13:42:02.731426 31306 net.cpp:129] Top shape: 128 4096 (524288)
I0505 13:42:02.731431 31306 net.cpp:137] Memory required for data: 1058060288
I0505 13:42:02.731437 31306 layer_factory.hpp:77] Creating layer fc7
I0505 13:42:02.731451 31306 net.cpp:84] Creating Layer fc7
I0505 13:42:02.731458 31306 net.cpp:406] fc7 <- fc6
I0505 13:42:02.731467 31306 net.cpp:380] fc7 -> fc7
I0505 13:42:02.905236 31306 net.cpp:122] Setting up fc7
I0505 13:42:02.905258 31306 net.cpp:129] Top shape: 128 4096 (524288)
I0505 13:42:02.905263 31306 net.cpp:137] Memory required for data: 1060157440
I0505 13:42:02.905275 31306 layer_factory.hpp:77] Creating layer relu7
I0505 13:42:02.905287 31306 net.cpp:84] Creating Layer relu7
I0505 13:42:02.905294 31306 net.cpp:406] relu7 <- fc7
I0505 13:42:02.905303 31306 net.cpp:367] relu7 -> fc7 (in-place)
I0505 13:42:02.905910 31306 net.cpp:122] Setting up relu7
I0505 13:42:02.905921 31306 net.cpp:129] Top shape: 128 4096 (524288)
I0505 13:42:02.905928 31306 net.cpp:137] Memory required for data: 1062254592
I0505 13:42:02.905937 31306 layer_factory.hpp:77] Creating layer drop7
I0505 13:42:02.905948 31306 net.cpp:84] Creating Layer drop7
I0505 13:42:02.905956 31306 net.cpp:406] drop7 <- fc7
I0505 13:42:02.905962 31306 net.cpp:367] drop7 -> fc7 (in-place)
I0505 13:42:02.905992 31306 net.cpp:122] Setting up drop7
I0505 13:42:02.906023 31306 net.cpp:129] Top shape: 128 4096 (524288)
I0505 13:42:02.906030 31306 net.cpp:137] Memory required for data: 1064351744
I0505 13:42:02.906036 31306 layer_factory.hpp:77] Creating layer fc8
I0505 13:42:02.906046 31306 net.cpp:84] Creating Layer fc8
I0505 13:42:02.906055 31306 net.cpp:406] fc8 <- fc7
I0505 13:42:02.906064 31306 net.cpp:380] fc8 -> fc8
I0505 13:42:02.914407 31306 net.cpp:122] Setting up fc8
I0505 13:42:02.914427 31306 net.cpp:129] Top shape: 128 196 (25088)
I0505 13:42:02.914433 31306 net.cpp:137] Memory required for data: 1064452096
I0505 13:42:02.914445 31306 layer_factory.hpp:77] Creating layer loss
I0505 13:42:02.914458 31306 net.cpp:84] Creating Layer loss
I0505 13:42:02.914463 31306 net.cpp:406] loss <- fc8
I0505 13:42:02.914471 31306 net.cpp:406] loss <- label
I0505 13:42:02.914508 31306 net.cpp:380] loss -> loss
I0505 13:42:02.914525 31306 layer_factory.hpp:77] Creating layer loss
…
I0505 13:42:02.921078 31306 solver.cpp:172] Creating test net (#0) specified by net file: train_val.prototxt
I0505 13:42:02.921120 31306 net.cpp:294] The NetState phase (1) differed from the phase (0) specified by a rule in layer train-data
I0505 13:42:02.921324 31306 net.cpp:51] Initializing net from parameters:
state {
phase: TEST
}
layer {
name: "val-data"
type: "Data"
top: "data"
top: "label"
include {
phase: TEST
}
transform_param {
crop_size: 227
mean_value: 116.0869
mean_value: 117.34734
mean_value: 119.99591
}
data_param {
source: "/mnt/bigdisk/MANDIG2/digits/jobs/20200428-132136-11fe/val_db"
batch_size: 32
backend: LMDB
}
}
layer {
name: "conv1"
type: "Convolution"
bottom: "data"
top: "conv1"
param {
lr_mult: 1
decay_mult: 1
}
param {
lr_mult: 2
decay_mult: 0
}
convolution_param {
num_output: 96
kernel_size: 11
stride: 4
weight_filler {
type: "gaussian"
std: 0.01
}
bias_filler {
type: "constant"
value: 0
}
}
}
layer {
name: "relu1"
type: "ReLU"
bottom: "conv1"
top: "conv1"
}
layer {
name: "norm1"
type: "LRN"
bottom: "conv1"
top: "norm1"
lrn_param {
local_size: 5
alpha: 0.0001
beta: 0.75
}
}
layer {
name: "pool1"
type: "Pooling"
bottom: "norm1"
top: "pool1"
pooling_param {
pool: MAX
kernel_size: 3
stride: 2
}
}
layer {
name: "conv2"
type: "Convolution"
bottom: "pool1"
top: "conv2"
param {
lr_mult: 1
decay_mult: 1
}
param {
lr_mult: 2
decay_mult: 0
}
convolution_param {
num_output: 256
pad: 2
kernel_size: 5
group: 2
weight_filler {
type: "gaussian"
std: 0.01
}
bias_filler {
type: "constant"
value: 0.1
}
}
}
layer {
name: "relu2"
type: "ReLU"
bottom: "conv2"
top: "conv2"
}
layer {
name: "norm2"
type: "LRN"
bottom: "conv2"
top: "norm2"
lrn_param {
local_size: 5
alpha: 0.0001
beta: 0.75
}
}
layer {
name: "pool2"
type: "Pooling"
bottom: "norm2"
top: "pool2"
pooling_param {
pool: MAX
kernel_size: 3
stride: 2
}
}
layer {
name: "conv3"
type: "Convolution"
bottom: "pool2"
top: "conv3"
param {
lr_mult: 1
decay_mult: 1
}
param {
lr_mult: 2
decay_mult: 0
}
convolution_param {
num_output: 384
pad: 1
kernel_size: 3
weight_filler {
type: "gaussian"
std: 0.01
}
bias_filler {
type: "constant"
value: 0
}
}
}
layer {
name: "relu3"
type: "ReLU"
bottom: "conv3"
top: "conv3"
}
layer {
name: "conv4"
type: "Convolution"
bottom: "conv3"
top: "conv4"
param {
lr_mult: 1
decay_mult: 1
}
param {
lr_mult: 2
decay_mult: 0
}
convolution_param {
num_output: 384
pad: 1
kernel_size: 3
group: 2
weight_filler {
type: "gaussian"
std: 0.01
}
bias_filler {
type: "constant"
value: 0.1
}
}
}
layer {
name: "relu4"
type: "ReLU"
bottom: "conv4"
top: "conv4"
}
layer {
name: "conv5"
type: "Convolution"
bottom: "conv4"
top: "conv5"
param {
lr_mult: 1
decay_mult: 1
}
param {
lr_mult: 2
decay_mult: 0
}
convolution_param {
num_output: 256
pad: 1
kernel_size: 3
group: 2
weight_filler {
type: "gaussian"
std: 0.01
}
bias_filler {
type: "constant"
value: 0.1
}
}
}
layer {
name: "relu5"
type: "ReLU"
bottom: "conv5"
top: "conv5"
}
layer {
name: "pool5"
type: "Pooling"
bottom: "conv5"
top: "pool5"
pooling_param {
pool: MAX
kernel_size: 3
stride: 2
}
}
layer {
name: "fc6"
type: "InnerProduct"
bottom: "pool5"
top: "fc6"
param {
lr_mult: 1
decay_mult: 1
}
param {
lr_mult: 2
decay_mult: 0
}
inner_product_param {
num_output: 4096
weight_filler {
type: "gaussian"
std: 0.005
}
bias_filler {
type: "constant"
value: 0.1
}
}
}
layer {
name: "relu6"
type: "ReLU"
bottom: "fc6"
top: "fc6"
}
layer {
name: "drop6"
type: "Dropout"
bottom: "fc6"
top: "fc6"
dropout_param {
dropout_ratio: 0.5
}
}
layer {
name: "fc7"
type: "InnerProduct"
bottom: "fc6"
top: "fc7"
param {
lr_mult: 1
decay_mult: 1
}
param {
lr_mult: 2
decay_mult: 0
}
inner_product_param {
num_output: 4096
weight_filler {
type: "gaussian"
std: 0.005
}
bias_filler {
type: "constant"
value: 0.1
}
}
}
layer {
name: "relu7"
type: "ReLU"
bottom: "fc7"
top: "fc7"
}
layer {
name: "drop7"
type: "Dropout"
bottom: "fc7"
top: "fc7"
dropout_param {
dropout_ratio: 0.5
}
}
layer {
name: "fc8"
type: "InnerProduct"
bottom: "fc7"
top: "fc8"
param {
lr_mult: 1
decay_mult: 1
}
param {
lr_mult: 2
decay_mult: 0
}
inner_product_param {
num_output: 196
weight_filler {
type: "gaussian"
std: 0.01
}
bias_filler {
type: "constant"
value: 0
}
}
}
layer {
name: "accuracy"
type: "Accuracy"
bottom: "fc8"
bottom: "label"
top: "accuracy"
include {
phase: TEST
}
}
layer {
name: "loss"
type: "SoftmaxWithLoss"
bottom: "fc8"
bottom: "label"
top: "loss"
}
I0505 13:42:02.921461 31306 layer_factory.hpp:77] Creating layer val-data
I0505 13:42:02.922912 31306 db_lmdb.cpp:35] Opened lmdb /mnt/bigdisk/MANDIG2/digits/jobs/20200428-132136-11fe/val_db
I0505 13:42:02.923086 31306 net.cpp:84] Creating Layer val-data
I0505 13:42:02.923100 31306 net.cpp:380] val-data -> data
I0505 13:42:02.923112 31306 net.cpp:380] val-data -> label
I0505 13:42:02.925918 31306 data_layer.cpp:45] output data size: 32,3,227,227
I0505 13:42:02.974967 31306 net.cpp:122] Setting up val-data
I0505 13:42:02.974987 31306 net.cpp:129] Top shape: 32 3 227 227 (4946784)
I0505 13:42:02.974992 31306 net.cpp:129] Top shape: 32 (32)
I0505 13:42:02.974995 31306 net.cpp:137] Memory required for data: 19787264
I0505 13:42:02.975003 31306 layer_factory.hpp:77] Creating layer label_val-data_1_split
I0505 13:42:02.975013 31306 net.cpp:84] Creating Layer label_val-data_1_split
I0505 13:42:02.975018 31306 net.cpp:406] label_val-data_1_split <- label
I0505 13:42:02.975025 31306 net.cpp:380] label_val-data_1_split -> label_val-data_1_split_0
I0505 13:42:02.975034 31306 net.cpp:380] label_val-data_1_split -> label_val-data_1_split_1
I0505 13:42:02.975081 31306 net.cpp:122] Setting up label_val-data_1_split
I0505 13:42:02.975087 31306 net.cpp:129] Top shape: 32 (32)
I0505 13:42:02.975093 31306 net.cpp:129] Top shape: 32 (32)
I0505 13:42:02.975098 31306 net.cpp:137] Memory required for data: 19787520
I0505 13:42:02.975103 31306 layer_factory.hpp:77] Creating layer conv1
I0505 13:42:02.975118 31306 net.cpp:84] Creating Layer conv1
I0505 13:42:02.975123 31306 net.cpp:406] conv1 <- data
I0505 13:42:02.975131 31306 net.cpp:380] conv1 -> conv1
I0505 13:42:02.977344 31306 net.cpp:122] Setting up conv1
I0505 13:42:02.977356 31306 net.cpp:129] Top shape: 32 96 55 55 (9292800)
I0505 13:42:02.977361 31306 net.cpp:137] Memory required for data: 56958720
I0505 13:42:02.977371 31306 layer_factory.hpp:77] Creating layer relu1
I0505 13:42:02.977380 31306 net.cpp:84] Creating Layer relu1
I0505 13:42:02.977383 31306 net.cpp:406] relu1 <- conv1
I0505 13:42:02.977391 31306 net.cpp:367] relu1 -> conv1 (in-place)
I0505 13:42:02.977746 31306 net.cpp:122] Setting up relu1
I0505 13:42:02.977753 31306 net.cpp:129] Top shape: 32 96 55 55 (9292800)
I0505 13:42:02.977758 31306 net.cpp:137] Memory required for data: 94129920
I0505 13:42:02.977763 31306 layer_factory.hpp:77] Creating layer norm1
I0505 13:42:02.977773 31306 net.cpp:84] Creating Layer norm1
I0505 13:42:02.977778 31306 net.cpp:406] norm1 <- conv1
I0505 13:42:02.977785 31306 net.cpp:380] norm1 -> norm1
I0505 13:42:02.978612 31306 net.cpp:122] Setting up norm1
I0505 13:42:02.978647 31306 net.cpp:129] Top shape: 32 96 55 55 (9292800)
I0505 13:42:02.978668 31306 net.cpp:137] Memory required for data: 131301120
I0505 13:42:02.978677 31306 layer_factory.hpp:77] Creating layer pool1
I0505 13:42:02.978688 31306 net.cpp:84] Creating Layer pool1
I0505 13:42:02.978693 31306 net.cpp:406] pool1 <- norm1
I0505 13:42:02.978706 31306 net.cpp:380] pool1 -> pool1
I0505 13:42:02.978744 31306 net.cpp:122] Setting up pool1
I0505 13:42:02.978751 31306 net.cpp:129] Top shape: 32 96 27 27 (2239488)
I0505 13:42:02.978755 31306 net.cpp:137] Memory required for data: 140259072
I0505 13:42:02.978760 31306 layer_factory.hpp:77] Creating layer conv2
I0505 13:42:02.978770 31306 net.cpp:84] Creating Layer conv2
I0505 13:42:02.978775 31306 net.cpp:406] conv2 <- pool1
I0505 13:42:02.978780 31306 net.cpp:380] conv2 -> conv2
I0505 13:42:02.988242 31306 net.cpp:122] Setting up conv2
I0505 13:42:02.988261 31306 net.cpp:129] Top shape: 32 256 27 27 (5971968)
I0505 13:42:02.988265 31306 net.cpp:137] Memory required for data: 164146944
I0505 13:42:02.988278 31306 layer_factory.hpp:77] Creating layer relu2
I0505 13:42:02.988306 31306 net.cpp:84] Creating Layer relu2
I0505 13:42:02.988312 31306 net.cpp:406] relu2 <- conv2
I0505 13:42:02.988320 31306 net.cpp:367] relu2 -> conv2 (in-place)
I0505 13:42:02.988827 31306 net.cpp:122] Setting up relu2
I0505 13:42:02.988838 31306 net.cpp:129] Top shape: 32 256 27 27 (5971968)
I0505 13:42:02.988842 31306 net.cpp:137] Memory required for data: 188034816
I0505 13:42:02.988847 31306 layer_factory.hpp:77] Creating layer norm2
I0505 13:42:02.988859 31306 net.cpp:84] Creating Layer norm2
I0505 13:42:02.988863 31306 net.cpp:406] norm2 <- conv2
I0505 13:42:02.988869 31306 net.cpp:380] norm2 -> norm2
I0505 13:42:02.989392 31306 net.cpp:122] Setting up norm2
I0505 13:42:02.989403 31306 net.cpp:129] Top shape: 32 256 27 27 (5971968)
I0505 13:42:02.989408 31306 net.cpp:137] Memory required for data: 211922688
I0505 13:42:02.989413 31306 layer_factory.hpp:77] Creating layer pool2
I0505 13:42:02.989421 31306 net.cpp:84] Creating Layer pool2
I0505 13:42:02.989428 31306 net.cpp:406] pool2 <- norm2
I0505 13:42:02.989434 31306 net.cpp:380] pool2 -> pool2
I0505 13:42:02.989470 31306 net.cpp:122] Setting up pool2
I0505 13:42:02.989475 31306 net.cpp:129] Top shape: 32 256 13 13 (1384448)
I0505 13:42:02.989480 31306 net.cpp:137] Memory required for data: 217460480
I0505 13:42:02.989485 31306 layer_factory.hpp:77] Creating layer conv3
I0505 13:42:02.989496 31306 net.cpp:84] Creating Layer conv3
I0505 13:42:02.989500 31306 net.cpp:406] conv3 <- pool2
I0505 13:42:02.989507 31306 net.cpp:380] conv3 -> conv3
I0505 13:42:03.007231 31306 net.cpp:122] Setting up conv3
I0505 13:42:03.007256 31306 net.cpp:129] Top shape: 32 384 13 13 (2076672)
I0505 13:42:03.007263 31306 net.cpp:137] Memory required for data: 225767168
I0505 13:42:03.007282 31306 layer_factory.hpp:77] Creating layer relu3
I0505 13:42:03.007297 31306 net.cpp:84] Creating Layer relu3
I0505 13:42:03.007304 31306 net.cpp:406] relu3 <- conv3
I0505 13:42:03.007314 31306 net.cpp:367] relu3 -> conv3 (in-place)
I0505 13:42:03.008095 31306 net.cpp:122] Setting up relu3
I0505 13:42:03.008107 31306 net.cpp:129] Top shape: 32 384 13 13 (2076672)
I0505 13:42:03.008112 31306 net.cpp:137] Memory required for data: 234073856
I0505 13:42:03.008118 31306 layer_factory.hpp:77] Creating layer conv4
I0505 13:42:03.008136 31306 net.cpp:84] Creating Layer conv4
I0505 13:42:03.008141 31306 net.cpp:406] conv4 <- conv3
I0505 13:42:03.008153 31306 net.cpp:380] conv4 -> conv4
I0505 13:42:03.025302 31306 net.cpp:122] Setting up conv4
I0505 13:42:03.025324 31306 net.cpp:129] Top shape: 32 384 13 13 (2076672)
I0505 13:42:03.025328 31306 net.cpp:137] Memory required for data: 242380544
I0505 13:42:03.025339 31306 layer_factory.hpp:77] Creating layer relu4
I0505 13:42:03.025348 31306 net.cpp:84] Creating Layer relu4
I0505 13:42:03.025353 31306 net.cpp:406] relu4 <- conv4
I0505 13:42:03.025359 31306 net.cpp:367] relu4 -> conv4 (in-place)
I0505 13:42:03.025828 31306 net.cpp:122] Setting up relu4
I0505 13:42:03.025841 31306 net.cpp:129] Top shape: 32 384 13 13 (2076672)
I0505 13:42:03.025846 31306 net.cpp:137] Memory required for data: 250687232
I0505 13:42:03.025853 31306 layer_factory.hpp:77] Creating layer conv5
I0505 13:42:03.025871 31306 net.cpp:84] Creating Layer conv5
I0505 13:42:03.025876 31306 net.cpp:406] conv5 <- conv4
I0505 13:42:03.025887 31306 net.cpp:380] conv5 -> conv5
I0505 13:42:03.047266 31306 net.cpp:122] Setting up conv5
I0505 13:42:03.047292 31306 net.cpp:129] Top shape: 32 256 13 13 (1384448)
I0505 13:42:03.047299 31306 net.cpp:137] Memory required for data: 256225024
I0505 13:42:03.047322 31306 layer_factory.hpp:77] Creating layer relu5
I0505 13:42:03.047338 31306 net.cpp:84] Creating Layer relu5
I0505 13:42:03.047348 31306 net.cpp:406] relu5 <- conv5
I0505 13:42:03.047364 31306 net.cpp:367] relu5 -> conv5 (in-place)
I0505 13:42:03.048079 31306 net.cpp:122] Setting up relu5
I0505 13:42:03.048094 31306 net.cpp:129] Top shape: 32 256 13 13 (1384448)
I0505 13:42:03.048102 31306 net.cpp:137] Memory required for data: 261762816
I0505 13:42:03.048108 31306 layer_factory.hpp:77] Creating layer pool5
I0505 13:42:03.048151 31306 net.cpp:84] Creating Layer pool5
I0505 13:42:03.048158 31306 net.cpp:406] pool5 <- conv5
I0505 13:42:03.048168 31306 net.cpp:380] pool5 -> pool5
I0505 13:42:03.048230 31306 net.cpp:122] Setting up pool5
I0505 13:42:03.048245 31306 net.cpp:129] Top shape: 32 256 6 6 (294912)
I0505 13:42:03.048254 31306 net.cpp:137] Memory required for data: 262942464
I0505 13:42:03.048259 31306 layer_factory.hpp:77] Creating layer fc6
I0505 13:42:03.048271 31306 net.cpp:84] Creating Layer fc6
I0505 13:42:03.048280 31306 net.cpp:406] fc6 <- pool5
I0505 13:42:03.048292 31306 net.cpp:380] fc6 -> fc6
I0505 13:42:03.418707 31306 net.cpp:122] Setting up fc6
I0505 13:42:03.418730 31306 net.cpp:129] Top shape: 32 4096 (131072)
I0505 13:42:03.418733 31306 net.cpp:137] Memory required for data: 263466752
I0505 13:42:03.418742 31306 layer_factory.hpp:77] Creating layer relu6
I0505 13:42:03.418752 31306 net.cpp:84] Creating Layer relu6
I0505 13:42:03.418757 31306 net.cpp:406] relu6 <- fc6
I0505 13:42:03.418764 31306 net.cpp:367] relu6 -> fc6 (in-place)
I0505 13:42:03.422403 31306 net.cpp:122] Setting up relu6
I0505 13:42:03.422415 31306 net.cpp:129] Top shape: 32 4096 (131072)
I0505 13:42:03.422420 31306 net.cpp:137] Memory required for data: 263991040
I0505 13:42:03.422423 31306 layer_factory.hpp:77] Creating layer drop6
I0505 13:42:03.422433 31306 net.cpp:84] Creating Layer drop6
I0505 13:42:03.422437 31306 net.cpp:406] drop6 <- fc6
I0505 13:42:03.422443 31306 net.cpp:367] drop6 -> fc6 (in-place)
I0505 13:42:03.422473 31306 net.cpp:122] Setting up drop6
I0505 13:42:03.422528 31306 net.cpp:129] Top shape: 32 4096 (131072)
I0505 13:42:03.422534 31306 net.cpp:137] Memory required for data: 264515328
I0505 13:42:03.422538 31306 layer_factory.hpp:77] Creating layer fc7
I0505 13:42:03.422546 31306 net.cpp:84] Creating Layer fc7
I0505 13:42:03.422550 31306 net.cpp:406] fc7 <- fc6
I0505 13:42:03.422557 31306 net.cpp:380] fc7 -> fc7
I0505 13:42:03.631386 31306 net.cpp:122] Setting up fc7
I0505 13:42:03.631407 31306 net.cpp:129] Top shape: 32 4096 (131072)
I0505 13:42:03.631413 31306 net.cpp:137] Memory required for data: 265039616
I0505 13:42:03.631428 31306 layer_factory.hpp:77] Creating layer relu7
I0505 13:42:03.631439 31306 net.cpp:84] Creating Layer relu7
I0505 13:42:03.631448 31306 net.cpp:406] relu7 <- fc7
I0505 13:42:03.631458 31306 net.cpp:367] relu7 -> fc7 (in-place)
I0505 13:42:03.631882 31306 net.cpp:122] Setting up relu7
I0505 13:42:03.631896 31306 net.cpp:129] Top shape: 32 4096 (131072)
I0505 13:42:03.631902 31306 net.cpp:137] Memory required for data: 265563904
I0505 13:42:03.631908 31306 layer_factory.hpp:77] Creating layer drop7
I0505 13:42:03.631918 31306 net.cpp:84] Creating Layer drop7
I0505 13:42:03.631925 31306 net.cpp:406] drop7 <- fc7
I0505 13:42:03.631934 31306 net.cpp:367] drop7 -> fc7 (in-place)
I0505 13:42:03.631961 31306 net.cpp:122] Setting up drop7
I0505 13:42:03.631970 31306 net.cpp:129] Top shape: 32 4096 (131072)
I0505 13:42:03.631978 31306 net.cpp:137] Memory required for data: 266088192
I0505 13:42:03.631984 31306 layer_factory.hpp:77] Creating layer fc8
I0505 13:42:03.631995 31306 net.cpp:84] Creating Layer fc8
I0505 13:42:03.632001 31306 net.cpp:406] fc8 <- fc7
I0505 13:42:03.632011 31306 net.cpp:380] fc8 -> fc8
I0505 13:42:03.639948 31306 net.cpp:122] Setting up fc8
I0505 13:42:03.639971 31306 net.cpp:129] Top shape: 32 196 (6272)
I0505 13:42:03.639974 31306 net.cpp:137] Memory required for data: 266113280
I0505 13:42:03.639986 31306 layer_factory.hpp:77] Creating layer fc8_fc8_0_split
I0505 13:42:03.639997 31306 net.cpp:84] Creating Layer fc8_fc8_0_split
I0505 13:42:03.640002 31306 net.cpp:406] fc8_fc8_0_split <- fc8
I0505 13:42:03.640012 31306 net.cpp:380] fc8_fc8_0_split -> fc8_fc8_0_split_0
I0505 13:42:03.640020 31306 net.cpp:380] fc8_fc8_0_split -> fc8_fc8_0_split_1
I0505 13:42:03.640055 31306 net.cpp:122] Setting up fc8_fc8_0_split
I0505 13:42:03.640060 31306 net.cpp:129] Top shape: 32 196 (6272)
I0505 13:42:03.640064 31306 net.cpp:129] Top shape: 32 196 (6272)
I0505 13:42:03.640089 31306 net.cpp:137] Memory required for data: 266163456
I0505 13:42:03.640094 31306 layer_factory.hpp:77] Creating layer accuracy
I0505 13:42:03.640101 31306 net.cpp:84] Creating Layer accuracy
I0505 13:42:03.640105 31306 net.cpp:406] accuracy <- fc8_fc8_0_split_0
I0505 13:42:03.640110 31306 net.cpp:406] accuracy <- label_val-data_1_split_0
I0505 13:42:03.640117 31306 net.cpp:380] accuracy -> accuracy
…
