…
I0502 12:39:57.322175 31746 net.cpp:294] The NetState phase (0) differed from the phase (1) specified by a rule in layer accuracy
I0502 12:39:57.322417 31746 net.cpp:51] Initializing net from parameters:
state {
phase: TRAIN
level: 0
stage: ""
}
layer {
name: "train-data"
type: "Data"
top: "data"
top: "label"
include {
phase: TRAIN
}
transform_param {
mirror: true
crop_size: 227
mean_file: "/mnt/bigdisk/MANDIG2/digits/jobs/20200428-132136-11fe/mean.binaryproto"
}
data_param {
source: "/mnt/bigdisk/MANDIG2/digits/jobs/20200428-132136-11fe/train_db"
batch_size: 128
backend: LMDB
}
}
layer {
name: "conv1"
type: "Convolution"
bottom: "data"
top: "conv1"
param {
lr_mult: 1
decay_mult: 1
}
param {
lr_mult: 2
decay_mult: 0
}
convolution_param {
num_output: 96
kernel_size: 11
stride: 4
weight_filler {
type: "gaussian"
std: 0.01
}
bias_filler {
type: "constant"
value: 0
}
}
}
layer {
name: "relu1"
type: "ReLU"
bottom: "conv1"
top: "conv1"
}
layer {
name: "norm1"
type: "LRN"
bottom: "conv1"
top: "norm1"
lrn_param {
local_size: 5
alpha: 0.0001
beta: 0.75
}
}
layer {
name: "pool1"
type: "Pooling"
bottom: "norm1"
top: "pool1"
pooling_param {
pool: MAX
kernel_size: 3
stride: 2
}
}
layer {
name: "conv2"
type: "Convolution"
bottom: "pool1"
top: "conv2"
param {
lr_mult: 1
decay_mult: 1
}
param {
lr_mult: 2
decay_mult: 0
}
convolution_param {
num_output: 256
pad: 2
kernel_size: 5
group: 2
weight_filler {
type: "gaussian"
std: 0.01
}
bias_filler {
type: "constant"
value: 0.1
}
}
}
layer {
name: "relu2"
type: "ReLU"
bottom: "conv2"
top: "conv2"
}
layer {
name: "norm2"
type: "LRN"
bottom: "conv2"
top: "norm2"
lrn_param {
local_size: 5
alpha: 0.0001
beta: 0.75
}
}
layer {
name: "pool2"
type: "Pooling"
bottom: "norm2"
top: "pool2"
pooling_param {
pool: MAX
kernel_size: 3
stride: 2
}
}
layer {
name: "conv3"
type: "Convolution"
bottom: "pool2"
top: "conv3"
param {
lr_mult: 1
decay_mult: 1
}
param {
lr_mult: 2
decay_mult: 0
}
convolution_param {
num_output: 384
pad: 1
kernel_size: 3
weight_filler {
type: "gaussian"
std: 0.01
}
bias_filler {
type: "constant"
value: 0
}
}
}
layer {
name: "relu3"
type: "ReLU"
bottom: "conv3"
top: "conv3"
}
layer {
name: "conv4"
type: "Convolution"
bottom: "conv3"
top: "conv4"
param {
lr_mult: 1
decay_mult: 1
}
param {
lr_mult: 2
decay_mult: 0
}
convolution_param {
num_output: 384
pad: 1
kernel_size: 3
group: 2
weight_filler {
type: "gaussian"
std: 0.01
}
bias_filler {
type: "constant"
value: 0.1
}
}
}
layer {
name: "relu4"
type: "ReLU"
bottom: "conv4"
top: "conv4"
}
layer {
name: "conv5"
type: "Convolution"
bottom: "conv4"
top: "conv5"
param {
lr_mult: 1
decay_mult: 1
}
param {
lr_mult: 2
decay_mult: 0
}
convolution_param {
num_output: 256
pad: 1
kernel_size: 3
group: 2
weight_filler {
type: "gaussian"
std: 0.01
}
bias_filler {
type: "constant"
value: 0.1
}
}
}
layer {
name: "relu5"
type: "ReLU"
bottom: "conv5"
top: "conv5"
}
layer {
name: "pool5"
type: "Pooling"
bottom: "conv5"
top: "pool5"
pooling_param {
pool: MAX
kernel_size: 3
stride: 2
}
}
layer {
name: "fc6"
type: "InnerProduct"
bottom: "pool5"
top: "fc6"
param {
lr_mult: 1
decay_mult: 1
}
param {
lr_mult: 2
decay_mult: 0
}
inner_product_param {
num_output: 4096
weight_filler {
type: "gaussian"
std: 0.005
}
bias_filler {
type: "constant"
value: 0.1
}
}
}
layer {
name: "relu6"
type: "ReLU"
bottom: "fc6"
top: "fc6"
}
layer {
name: "drop6"
type: "Dropout"
bottom: "fc6"
top: "fc6"
dropout_param {
dropout_ratio: 0.5
}
}
layer {
name: "fc7"
type: "InnerProduct"
bottom: "fc6"
top: "fc7"
param {
lr_mult: 1
decay_mult: 1
}
param {
lr_mult: 2
decay_mult: 0
}
inner_product_param {
num_output: 4096
weight_filler {
type: "gaussian"
std: 0.005
}
bias_filler {
type: "constant"
value: 0.1
}
}
}
layer {
name: "relu7"
type: "ReLU"
bottom: "fc7"
top: "fc7"
}
layer {
name: "drop7"
type: "Dropout"
bottom: "fc7"
top: "fc7"
dropout_param {
dropout_ratio: 0.5
}
}
layer {
name: "fc8"
type: "InnerProduct"
bottom: "fc7"
top: "fc8"
param {
lr_mult: 1
decay_mult: 1
}
param {
lr_mult: 2
decay_mult: 0
}
inner_product_param {
num_output: 196
weight_filler {
type: "gaussian"
std: 0.01
}
bias_filler {
type: "constant"
value: 0
}
}
}
layer {
name: "loss"
type: "SoftmaxWithLoss"
bottom: "fc8"
bottom: "label"
top: "loss"
}
I0502 12:39:57.322578 31746 layer_factory.hpp:77] Creating layer train-data
I0502 12:39:57.338177 31746 db_lmdb.cpp:35] Opened lmdb /mnt/bigdisk/MANDIG2/digits/jobs/20200428-132136-11fe/train_db
I0502 12:39:57.338438 31746 net.cpp:84] Creating Layer train-data
I0502 12:39:57.338462 31746 net.cpp:380] train-data -> data
I0502 12:39:57.338531 31746 net.cpp:380] train-data -> label
I0502 12:39:57.338549 31746 data_transformer.cpp:25] Loading mean file from: /mnt/bigdisk/MANDIG2/digits/jobs/20200428-132136-11fe/mean.binaryproto
I0502 12:39:57.434705 31746 data_layer.cpp:45] output data size: 128,3,227,227
I0502 12:39:57.633714 31746 net.cpp:122] Setting up train-data
I0502 12:39:57.633740 31746 net.cpp:129] Top shape: 128 3 227 227 (19787136)
I0502 12:39:57.633745 31746 net.cpp:129] Top shape: 128 (128)
I0502 12:39:57.633749 31746 net.cpp:137] Memory required for data: 79149056
I0502 12:39:57.633759 31746 layer_factory.hpp:77] Creating layer conv1
I0502 12:39:57.633942 31746 net.cpp:84] Creating Layer conv1
I0502 12:39:57.633950 31746 net.cpp:406] conv1 <- data
I0502 12:39:57.633965 31746 net.cpp:380] conv1 -> conv1
I0502 12:39:59.086900 31746 net.cpp:122] Setting up conv1
I0502 12:39:59.086942 31746 net.cpp:129] Top shape: 128 96 55 55 (37171200)
I0502 12:39:59.086949 31746 net.cpp:137] Memory required for data: 227833856
I0502 12:39:59.086978 31746 layer_factory.hpp:77] Creating layer relu1
I0502 12:39:59.086994 31746 net.cpp:84] Creating Layer relu1
I0502 12:39:59.087000 31746 net.cpp:406] relu1 <- conv1
I0502 12:39:59.087009 31746 net.cpp:367] relu1 -> conv1 (in-place)
I0502 12:39:59.087452 31746 net.cpp:122] Setting up relu1
I0502 12:39:59.087466 31746 net.cpp:129] Top shape: 128 96 55 55 (37171200)
I0502 12:39:59.087471 31746 net.cpp:137] Memory required for data: 376518656
I0502 12:39:59.087477 31746 layer_factory.hpp:77] Creating layer norm1
I0502 12:39:59.087489 31746 net.cpp:84] Creating Layer norm1
I0502 12:39:59.087496 31746 net.cpp:406] norm1 <- conv1
I0502 12:39:59.087530 31746 net.cpp:380] norm1 -> norm1
I0502 12:39:59.088234 31746 net.cpp:122] Setting up norm1
I0502 12:39:59.088248 31746 net.cpp:129] Top shape: 128 96 55 55 (37171200)
I0502 12:39:59.088253 31746 net.cpp:137] Memory required for data: 525203456
I0502 12:39:59.088258 31746 layer_factory.hpp:77] Creating layer pool1
I0502 12:39:59.088269 31746 net.cpp:84] Creating Layer pool1
I0502 12:39:59.088274 31746 net.cpp:406] pool1 <- norm1
I0502 12:39:59.088282 31746 net.cpp:380] pool1 -> pool1
I0502 12:39:59.088335 31746 net.cpp:122] Setting up pool1
I0502 12:39:59.088344 31746 net.cpp:129] Top shape: 128 96 27 27 (8957952)
I0502 12:39:59.088349 31746 net.cpp:137] Memory required for data: 561035264
I0502 12:39:59.088356 31746 layer_factory.hpp:77] Creating layer conv2
I0502 12:39:59.088369 31746 net.cpp:84] Creating Layer conv2
I0502 12:39:59.088374 31746 net.cpp:406] conv2 <- pool1
I0502 12:39:59.088383 31746 net.cpp:380] conv2 -> conv2
I0502 12:39:59.100980 31746 net.cpp:122] Setting up conv2
I0502 12:39:59.101004 31746 net.cpp:129] Top shape: 128 256 27 27 (23887872)
I0502 12:39:59.101011 31746 net.cpp:137] Memory required for data: 656586752
I0502 12:39:59.101027 31746 layer_factory.hpp:77] Creating layer relu2
I0502 12:39:59.101040 31746 net.cpp:84] Creating Layer relu2
I0502 12:39:59.101047 31746 net.cpp:406] relu2 <- conv2
I0502 12:39:59.101055 31746 net.cpp:367] relu2 -> conv2 (in-place)
I0502 12:39:59.101837 31746 net.cpp:122] Setting up relu2
I0502 12:39:59.101851 31746 net.cpp:129] Top shape: 128 256 27 27 (23887872)
I0502 12:39:59.101856 31746 net.cpp:137] Memory required for data: 752138240
I0502 12:39:59.101863 31746 layer_factory.hpp:77] Creating layer norm2
I0502 12:39:59.101884 31746 net.cpp:84] Creating Layer norm2
I0502 12:39:59.101891 31746 net.cpp:406] norm2 <- conv2
I0502 12:39:59.101898 31746 net.cpp:380] norm2 -> norm2
I0502 12:39:59.102335 31746 net.cpp:122] Setting up norm2
I0502 12:39:59.102347 31746 net.cpp:129] Top shape: 128 256 27 27 (23887872)
I0502 12:39:59.102352 31746 net.cpp:137] Memory required for data: 847689728
I0502 12:39:59.102358 31746 layer_factory.hpp:77] Creating layer pool2
I0502 12:39:59.102370 31746 net.cpp:84] Creating Layer pool2
I0502 12:39:59.102375 31746 net.cpp:406] pool2 <- norm2
I0502 12:39:59.102382 31746 net.cpp:380] pool2 -> pool2
I0502 12:39:59.102439 31746 net.cpp:122] Setting up pool2
I0502 12:39:59.102448 31746 net.cpp:129] Top shape: 128 256 13 13 (5537792)
I0502 12:39:59.102453 31746 net.cpp:137] Memory required for data: 869840896
I0502 12:39:59.102458 31746 layer_factory.hpp:77] Creating layer conv3
I0502 12:39:59.102474 31746 net.cpp:84] Creating Layer conv3
I0502 12:39:59.102479 31746 net.cpp:406] conv3 <- pool2
I0502 12:39:59.102514 31746 net.cpp:380] conv3 -> conv3
I0502 12:39:59.130277 31746 net.cpp:122] Setting up conv3
I0502 12:39:59.130306 31746 net.cpp:129] Top shape: 128 384 13 13 (8306688)
I0502 12:39:59.130312 31746 net.cpp:137] Memory required for data: 903067648
I0502 12:39:59.130329 31746 layer_factory.hpp:77] Creating layer relu3
I0502 12:39:59.130342 31746 net.cpp:84] Creating Layer relu3
I0502 12:39:59.130348 31746 net.cpp:406] relu3 <- conv3
I0502 12:39:59.130357 31746 net.cpp:367] relu3 -> conv3 (in-place)
I0502 12:39:59.131000 31746 net.cpp:122] Setting up relu3
I0502 12:39:59.131011 31746 net.cpp:129] Top shape: 128 384 13 13 (8306688)
I0502 12:39:59.131016 31746 net.cpp:137] Memory required for data: 936294400
I0502 12:39:59.131019 31746 layer_factory.hpp:77] Creating layer conv4
I0502 12:39:59.131031 31746 net.cpp:84] Creating Layer conv4
I0502 12:39:59.131036 31746 net.cpp:406] conv4 <- conv3
I0502 12:39:59.131042 31746 net.cpp:380] conv4 -> conv4
I0502 12:39:59.156389 31746 net.cpp:122] Setting up conv4
I0502 12:39:59.156411 31746 net.cpp:129] Top shape: 128 384 13 13 (8306688)
I0502 12:39:59.156415 31746 net.cpp:137] Memory required for data: 969521152
I0502 12:39:59.156426 31746 layer_factory.hpp:77] Creating layer relu4
I0502 12:39:59.156436 31746 net.cpp:84] Creating Layer relu4
I0502 12:39:59.156463 31746 net.cpp:406] relu4 <- conv4
I0502 12:39:59.156471 31746 net.cpp:367] relu4 -> conv4 (in-place)
I0502 12:39:59.156746 31746 net.cpp:122] Setting up relu4
I0502 12:39:59.156754 31746 net.cpp:129] Top shape: 128 384 13 13 (8306688)
I0502 12:39:59.156759 31746 net.cpp:137] Memory required for data: 1002747904
I0502 12:39:59.156762 31746 layer_factory.hpp:77] Creating layer conv5
I0502 12:39:59.156774 31746 net.cpp:84] Creating Layer conv5
I0502 12:39:59.156777 31746 net.cpp:406] conv5 <- conv4
I0502 12:39:59.156783 31746 net.cpp:380] conv5 -> conv5
I0502 12:39:59.165398 31746 net.cpp:122] Setting up conv5
I0502 12:39:59.165418 31746 net.cpp:129] Top shape: 128 256 13 13 (5537792)
I0502 12:39:59.165423 31746 net.cpp:137] Memory required for data: 1024899072
I0502 12:39:59.165438 31746 layer_factory.hpp:77] Creating layer relu5
I0502 12:39:59.165449 31746 net.cpp:84] Creating Layer relu5
I0502 12:39:59.165454 31746 net.cpp:406] relu5 <- conv5
I0502 12:39:59.165460 31746 net.cpp:367] relu5 -> conv5 (in-place)
I0502 12:39:59.165904 31746 net.cpp:122] Setting up relu5
I0502 12:39:59.165913 31746 net.cpp:129] Top shape: 128 256 13 13 (5537792)
I0502 12:39:59.165917 31746 net.cpp:137] Memory required for data: 1047050240
I0502 12:39:59.165921 31746 layer_factory.hpp:77] Creating layer pool5
I0502 12:39:59.165928 31746 net.cpp:84] Creating Layer pool5
I0502 12:39:59.165932 31746 net.cpp:406] pool5 <- conv5
I0502 12:39:59.165938 31746 net.cpp:380] pool5 -> pool5
I0502 12:39:59.165973 31746 net.cpp:122] Setting up pool5
I0502 12:39:59.165979 31746 net.cpp:129] Top shape: 128 256 6 6 (1179648)
I0502 12:39:59.165982 31746 net.cpp:137] Memory required for data: 1051768832
I0502 12:39:59.165987 31746 layer_factory.hpp:77] Creating layer fc6
I0502 12:39:59.165995 31746 net.cpp:84] Creating Layer fc6
I0502 12:39:59.165999 31746 net.cpp:406] fc6 <- pool5
I0502 12:39:59.166007 31746 net.cpp:380] fc6 -> fc6
I0502 12:39:59.543267 31746 net.cpp:122] Setting up fc6
I0502 12:39:59.543299 31746 net.cpp:129] Top shape: 128 4096 (524288)
I0502 12:39:59.543306 31746 net.cpp:137] Memory required for data: 1053865984
I0502 12:39:59.543320 31746 layer_factory.hpp:77] Creating layer relu6
I0502 12:39:59.543332 31746 net.cpp:84] Creating Layer relu6
I0502 12:39:59.543339 31746 net.cpp:406] relu6 <- fc6
I0502 12:39:59.543349 31746 net.cpp:367] relu6 -> fc6 (in-place)
I0502 12:39:59.544143 31746 net.cpp:122] Setting up relu6
I0502 12:39:59.544158 31746 net.cpp:129] Top shape: 128 4096 (524288)
I0502 12:39:59.544163 31746 net.cpp:137] Memory required for data: 1055963136
I0502 12:39:59.544169 31746 layer_factory.hpp:77] Creating layer drop6
I0502 12:39:59.544180 31746 net.cpp:84] Creating Layer drop6
I0502 12:39:59.544185 31746 net.cpp:406] drop6 <- fc6
I0502 12:39:59.544193 31746 net.cpp:367] drop6 -> fc6 (in-place)
I0502 12:39:59.544230 31746 net.cpp:122] Setting up drop6
I0502 12:39:59.544239 31746 net.cpp:129] Top shape: 128 4096 (524288)
I0502 12:39:59.544243 31746 net.cpp:137] Memory required for data: 1058060288
I0502 12:39:59.544248 31746 layer_factory.hpp:77] Creating layer fc7
I0502 12:39:59.544260 31746 net.cpp:84] Creating Layer fc7
I0502 12:39:59.544265 31746 net.cpp:406] fc7 <- fc6
I0502 12:39:59.544273 31746 net.cpp:380] fc7 -> fc7
I0502 12:39:59.717898 31746 net.cpp:122] Setting up fc7
I0502 12:39:59.717923 31746 net.cpp:129] Top shape: 128 4096 (524288)
I0502 12:39:59.717929 31746 net.cpp:137] Memory required for data: 1060157440
I0502 12:39:59.717941 31746 layer_factory.hpp:77] Creating layer relu7
I0502 12:39:59.717952 31746 net.cpp:84] Creating Layer relu7
I0502 12:39:59.717958 31746 net.cpp:406] relu7 <- fc7
I0502 12:39:59.717967 31746 net.cpp:367] relu7 -> fc7 (in-place)
I0502 12:39:59.718629 31746 net.cpp:122] Setting up relu7
I0502 12:39:59.718641 31746 net.cpp:129] Top shape: 128 4096 (524288)
I0502 12:39:59.718644 31746 net.cpp:137] Memory required for data: 1062254592
I0502 12:39:59.718648 31746 layer_factory.hpp:77] Creating layer drop7
I0502 12:39:59.718655 31746 net.cpp:84] Creating Layer drop7
I0502 12:39:59.718680 31746 net.cpp:406] drop7 <- fc7
I0502 12:39:59.718688 31746 net.cpp:367] drop7 -> fc7 (in-place)
I0502 12:39:59.718713 31746 net.cpp:122] Setting up drop7
I0502 12:39:59.718719 31746 net.cpp:129] Top shape: 128 4096 (524288)
I0502 12:39:59.718724 31746 net.cpp:137] Memory required for data: 1064351744
I0502 12:39:59.718729 31746 layer_factory.hpp:77] Creating layer fc8
I0502 12:39:59.718735 31746 net.cpp:84] Creating Layer fc8
I0502 12:39:59.718739 31746 net.cpp:406] fc8 <- fc7
I0502 12:39:59.718744 31746 net.cpp:380] fc8 -> fc8
I0502 12:39:59.726650 31746 net.cpp:122] Setting up fc8
I0502 12:39:59.726661 31746 net.cpp:129] Top shape: 128 196 (25088)
I0502 12:39:59.726666 31746 net.cpp:137] Memory required for data: 1064452096
I0502 12:39:59.726675 31746 layer_factory.hpp:77] Creating layer loss
I0502 12:39:59.726682 31746 net.cpp:84] Creating Layer loss
I0502 12:39:59.726687 31746 net.cpp:406] loss <- fc8
I0502 12:39:59.726692 31746 net.cpp:406] loss <- label
I0502 12:39:59.726699 31746 net.cpp:380] loss -> loss
I0502 12:39:59.726711 31746 layer_factory.hpp:77] Creating layer loss
…
I0502 12:39:59.729823 31746 solver.cpp:172] Creating test net (#0) specified by net file: train_val.prototxt
I0502 12:39:59.729856 31746 net.cpp:294] The NetState phase (1) differed from the phase (0) specified by a rule in layer train-data
I0502 12:39:59.729996 31746 net.cpp:51] Initializing net from parameters:
state {
phase: TEST
}
layer {
name: "val-data"
type: "Data"
top: "data"
top: "label"
include {
phase: TEST
}
transform_param {
crop_size: 227
mean_file: "/mnt/bigdisk/MANDIG2/digits/jobs/20200428-132136-11fe/mean.binaryproto"
}
data_param {
source: "/mnt/bigdisk/MANDIG2/digits/jobs/20200428-132136-11fe/val_db"
batch_size: 32
backend: LMDB
}
}
layer {
name: "conv1"
type: "Convolution"
bottom: "data"
top: "conv1"
param {
lr_mult: 1
decay_mult: 1
}
param {
lr_mult: 2
decay_mult: 0
}
convolution_param {
num_output: 96
kernel_size: 11
stride: 4
weight_filler {
type: "gaussian"
std: 0.01
}
bias_filler {
type: "constant"
value: 0
}
}
}
layer {
name: "relu1"
type: "ReLU"
bottom: "conv1"
top: "conv1"
}
layer {
name: "norm1"
type: "LRN"
bottom: "conv1"
top: "norm1"
lrn_param {
local_size: 5
alpha: 0.0001
beta: 0.75
}
}
layer {
name: "pool1"
type: "Pooling"
bottom: "norm1"
top: "pool1"
pooling_param {
pool: MAX
kernel_size: 3
stride: 2
}
}
layer {
name: "conv2"
type: "Convolution"
bottom: "pool1"
top: "conv2"
param {
lr_mult: 1
decay_mult: 1
}
param {
lr_mult: 2
decay_mult: 0
}
convolution_param {
num_output: 256
pad: 2
kernel_size: 5
group: 2
weight_filler {
type: "gaussian"
std: 0.01
}
bias_filler {
type: "constant"
value: 0.1
}
}
}
layer {
name: "relu2"
type: "ReLU"
bottom: "conv2"
top: "conv2"
}
layer {
name: "norm2"
type: "LRN"
bottom: "conv2"
top: "norm2"
lrn_param {
local_size: 5
alpha: 0.0001
beta: 0.75
}
}
layer {
name: "pool2"
type: "Pooling"
bottom: "norm2"
top: "pool2"
pooling_param {
pool: MAX
kernel_size: 3
stride: 2
}
}
layer {
name: "conv3"
type: "Convolution"
bottom: "pool2"
top: "conv3"
param {
lr_mult: 1
decay_mult: 1
}
param {
lr_mult: 2
decay_mult: 0
}
convolution_param {
num_output: 384
pad: 1
kernel_size: 3
weight_filler {
type: "gaussian"
std: 0.01
}
bias_filler {
type: "constant"
value: 0
}
}
}
layer {
name: "relu3"
type: "ReLU"
bottom: "conv3"
top: "conv3"
}
layer {
name: "conv4"
type: "Convolution"
bottom: "conv3"
top: "conv4"
param {
lr_mult: 1
decay_mult: 1
}
param {
lr_mult: 2
decay_mult: 0
}
convolution_param {
num_output: 384
pad: 1
kernel_size: 3
group: 2
weight_filler {
type: "gaussian"
std: 0.01
}
bias_filler {
type: "constant"
value: 0.1
}
}
}
layer {
name: "relu4"
type: "ReLU"
bottom: "conv4"
top: "conv4"
}
layer {
name: "conv5"
type: "Convolution"
bottom: "conv4"
top: "conv5"
param {
lr_mult: 1
decay_mult: 1
}
param {
lr_mult: 2
decay_mult: 0
}
convolution_param {
num_output: 256
pad: 1
kernel_size: 3
group: 2
weight_filler {
type: "gaussian"
std: 0.01
}
bias_filler {
type: "constant"
value: 0.1
}
}
}
layer {
name: "relu5"
type: "ReLU"
bottom: "conv5"
top: "conv5"
}
layer {
name: "pool5"
type: "Pooling"
bottom: "conv5"
top: "pool5"
pooling_param {
pool: MAX
kernel_size: 3
stride: 2
}
}
layer {
name: "fc6"
type: "InnerProduct"
bottom: "pool5"
top: "fc6"
param {
lr_mult: 1
decay_mult: 1
}
param {
lr_mult: 2
decay_mult: 0
}
inner_product_param {
num_output: 4096
weight_filler {
type: "gaussian"
std: 0.005
}
bias_filler {
type: "constant"
value: 0.1
}
}
}
layer {
name: "relu6"
type: "ReLU"
bottom: "fc6"
top: "fc6"
}
layer {
name: "drop6"
type: "Dropout"
bottom: "fc6"
top: "fc6"
dropout_param {
dropout_ratio: 0.5
}
}
layer {
name: "fc7"
type: "InnerProduct"
bottom: "fc6"
top: "fc7"
param {
lr_mult: 1
decay_mult: 1
}
param {
lr_mult: 2
decay_mult: 0
}
inner_product_param {
num_output: 4096
weight_filler {
type: "gaussian"
std: 0.005
}
bias_filler {
type: "constant"
value: 0.1
}
}
}
layer {
name: "relu7"
type: "ReLU"
bottom: "fc7"
top: "fc7"
}
layer {
name: "drop7"
type: "Dropout"
bottom: "fc7"
top: "fc7"
dropout_param {
dropout_ratio: 0.5
}
}
layer {
name: "fc8"
type: "InnerProduct"
bottom: "fc7"
top: "fc8"
param {
lr_mult: 1
decay_mult: 1
}
param {
lr_mult: 2
decay_mult: 0
}
inner_product_param {
num_output: 196
weight_filler {
type: "gaussian"
std: 0.01
}
bias_filler {
type: "constant"
value: 0
}
}
}
layer {
name: "accuracy"
type: "Accuracy"
bottom: "fc8"
bottom: "label"
top: "accuracy"
include {
phase: TEST
}
}
layer {
name: "loss"
type: "SoftmaxWithLoss"
bottom: "fc8"
bottom: "label"
top: "loss"
}
I0502 12:39:59.730096 31746 layer_factory.hpp:77] Creating layer val-data
I0502 12:39:59.753569 31746 db_lmdb.cpp:35] Opened lmdb /mnt/bigdisk/MANDIG2/digits/jobs/20200428-132136-11fe/val_db
I0502 12:39:59.753882 31746 net.cpp:84] Creating Layer val-data
I0502 12:39:59.753896 31746 net.cpp:380] val-data -> data
I0502 12:39:59.753909 31746 net.cpp:380] val-data -> label
I0502 12:39:59.753917 31746 data_transformer.cpp:25] Loading mean file from: /mnt/bigdisk/MANDIG2/digits/jobs/20200428-132136-11fe/mean.binaryproto
I0502 12:39:59.757520 31746 data_layer.cpp:45] output data size: 32,3,227,227
I0502 12:39:59.812753 31746 net.cpp:122] Setting up val-data
I0502 12:39:59.812777 31746 net.cpp:129] Top shape: 32 3 227 227 (4946784)
I0502 12:39:59.812781 31746 net.cpp:129] Top shape: 32 (32)
I0502 12:39:59.812784 31746 net.cpp:137] Memory required for data: 19787264
I0502 12:39:59.812791 31746 layer_factory.hpp:77] Creating layer label_val-data_1_split
I0502 12:39:59.812804 31746 net.cpp:84] Creating Layer label_val-data_1_split
I0502 12:39:59.812809 31746 net.cpp:406] label_val-data_1_split <- label
I0502 12:39:59.812816 31746 net.cpp:380] label_val-data_1_split -> label_val-data_1_split_0
I0502 12:39:59.812825 31746 net.cpp:380] label_val-data_1_split -> label_val-data_1_split_1
I0502 12:39:59.812912 31746 net.cpp:122] Setting up label_val-data_1_split
I0502 12:39:59.812918 31746 net.cpp:129] Top shape: 32 (32)
I0502 12:39:59.812922 31746 net.cpp:129] Top shape: 32 (32)
I0502 12:39:59.812927 31746 net.cpp:137] Memory required for data: 19787520
I0502 12:39:59.812929 31746 layer_factory.hpp:77] Creating layer conv1
I0502 12:39:59.812943 31746 net.cpp:84] Creating Layer conv1
I0502 12:39:59.812947 31746 net.cpp:406] conv1 <- data
I0502 12:39:59.812953 31746 net.cpp:380] conv1 -> conv1
I0502 12:39:59.815042 31746 net.cpp:122] Setting up conv1
I0502 12:39:59.815054 31746 net.cpp:129] Top shape: 32 96 55 55 (9292800)
I0502 12:39:59.815058 31746 net.cpp:137] Memory required for data: 56958720
I0502 12:39:59.815068 31746 layer_factory.hpp:77] Creating layer relu1
I0502 12:39:59.815075 31746 net.cpp:84] Creating Layer relu1
I0502 12:39:59.815079 31746 net.cpp:406] relu1 <- conv1
I0502 12:39:59.815083 31746 net.cpp:367] relu1 -> conv1 (in-place)
I0502 12:39:59.815363 31746 net.cpp:122] Setting up relu1
I0502 12:39:59.815372 31746 net.cpp:129] Top shape: 32 96 55 55 (9292800)
I0502 12:39:59.815376 31746 net.cpp:137] Memory required for data: 94129920
I0502 12:39:59.815379 31746 layer_factory.hpp:77] Creating layer norm1
I0502 12:39:59.815387 31746 net.cpp:84] Creating Layer norm1
I0502 12:39:59.815390 31746 net.cpp:406] norm1 <- conv1
I0502 12:39:59.815397 31746 net.cpp:380] norm1 -> norm1
I0502 12:39:59.815876 31746 net.cpp:122] Setting up norm1
I0502 12:39:59.815884 31746 net.cpp:129] Top shape: 32 96 55 55 (9292800)
I0502 12:39:59.815888 31746 net.cpp:137] Memory required for data: 131301120
I0502 12:39:59.815891 31746 layer_factory.hpp:77] Creating layer pool1
I0502 12:39:59.815898 31746 net.cpp:84] Creating Layer pool1
I0502 12:39:59.815902 31746 net.cpp:406] pool1 <- norm1
I0502 12:39:59.815907 31746 net.cpp:380] pool1 -> pool1
I0502 12:39:59.815937 31746 net.cpp:122] Setting up pool1
I0502 12:39:59.815943 31746 net.cpp:129] Top shape: 32 96 27 27 (2239488)
I0502 12:39:59.815945 31746 net.cpp:137] Memory required for data: 140259072
I0502 12:39:59.815948 31746 layer_factory.hpp:77] Creating layer conv2
I0502 12:39:59.815956 31746 net.cpp:84] Creating Layer conv2
I0502 12:39:59.815960 31746 net.cpp:406] conv2 <- pool1
I0502 12:39:59.815989 31746 net.cpp:380] conv2 -> conv2
I0502 12:39:59.837095 31746 net.cpp:122] Setting up conv2
I0502 12:39:59.837116 31746 net.cpp:129] Top shape: 32 256 27 27 (5971968)
I0502 12:39:59.837119 31746 net.cpp:137] Memory required for data: 164146944
I0502 12:39:59.837133 31746 layer_factory.hpp:77] Creating layer relu2
I0502 12:39:59.837142 31746 net.cpp:84] Creating Layer relu2
I0502 12:39:59.837146 31746 net.cpp:406] relu2 <- conv2
I0502 12:39:59.837155 31746 net.cpp:367] relu2 -> conv2 (in-place)
I0502 12:39:59.837687 31746 net.cpp:122] Setting up relu2
I0502 12:39:59.837697 31746 net.cpp:129] Top shape: 32 256 27 27 (5971968)
I0502 12:39:59.837702 31746 net.cpp:137] Memory required for data: 188034816
I0502 12:39:59.837705 31746 layer_factory.hpp:77] Creating layer norm2
I0502 12:39:59.837716 31746 net.cpp:84] Creating Layer norm2
I0502 12:39:59.837720 31746 net.cpp:406] norm2 <- conv2
I0502 12:39:59.837726 31746 net.cpp:380] norm2 -> norm2
I0502 12:39:59.838271 31746 net.cpp:122] Setting up norm2
I0502 12:39:59.838282 31746 net.cpp:129] Top shape: 32 256 27 27 (5971968)
I0502 12:39:59.838285 31746 net.cpp:137] Memory required for data: 211922688
I0502 12:39:59.838289 31746 layer_factory.hpp:77] Creating layer pool2
I0502 12:39:59.838296 31746 net.cpp:84] Creating Layer pool2
I0502 12:39:59.838300 31746 net.cpp:406] pool2 <- norm2
I0502 12:39:59.838306 31746 net.cpp:380] pool2 -> pool2
I0502 12:39:59.838338 31746 net.cpp:122] Setting up pool2
I0502 12:39:59.838344 31746 net.cpp:129] Top shape: 32 256 13 13 (1384448)
I0502 12:39:59.838347 31746 net.cpp:137] Memory required for data: 217460480
I0502 12:39:59.838351 31746 layer_factory.hpp:77] Creating layer conv3
I0502 12:39:59.838364 31746 net.cpp:84] Creating Layer conv3
I0502 12:39:59.838368 31746 net.cpp:406] conv3 <- pool2
I0502 12:39:59.838376 31746 net.cpp:380] conv3 -> conv3
I0502 12:39:59.850266 31746 net.cpp:122] Setting up conv3
I0502 12:39:59.850287 31746 net.cpp:129] Top shape: 32 384 13 13 (2076672)
I0502 12:39:59.850291 31746 net.cpp:137] Memory required for data: 225767168
I0502 12:39:59.850304 31746 layer_factory.hpp:77] Creating layer relu3
I0502 12:39:59.850314 31746 net.cpp:84] Creating Layer relu3
I0502 12:39:59.850319 31746 net.cpp:406] relu3 <- conv3
I0502 12:39:59.850327 31746 net.cpp:367] relu3 -> conv3 (in-place)
I0502 12:39:59.850915 31746 net.cpp:122] Setting up relu3
I0502 12:39:59.850925 31746 net.cpp:129] Top shape: 32 384 13 13 (2076672)
I0502 12:39:59.850929 31746 net.cpp:137] Memory required for data: 234073856
I0502 12:39:59.850934 31746 layer_factory.hpp:77] Creating layer conv4
I0502 12:39:59.850945 31746 net.cpp:84] Creating Layer conv4
I0502 12:39:59.850950 31746 net.cpp:406] conv4 <- conv3
I0502 12:39:59.850957 31746 net.cpp:380] conv4 -> conv4
I0502 12:39:59.860921 31746 net.cpp:122] Setting up conv4
I0502 12:39:59.860944 31746 net.cpp:129] Top shape: 32 384 13 13 (2076672)
I0502 12:39:59.860949 31746 net.cpp:137] Memory required for data: 242380544
I0502 12:39:59.860961 31746 layer_factory.hpp:77] Creating layer relu4
I0502 12:39:59.860975 31746 net.cpp:84] Creating Layer relu4
I0502 12:39:59.860981 31746 net.cpp:406] relu4 <- conv4
I0502 12:39:59.860993 31746 net.cpp:367] relu4 -> conv4 (in-place)
I0502 12:39:59.861359 31746 net.cpp:122] Setting up relu4
I0502 12:39:59.861368 31746 net.cpp:129] Top shape: 32 384 13 13 (2076672)
I0502 12:39:59.861371 31746 net.cpp:137] Memory required for data: 250687232
I0502 12:39:59.861376 31746 layer_factory.hpp:77] Creating layer conv5
I0502 12:39:59.861387 31746 net.cpp:84] Creating Layer conv5
I0502 12:39:59.861392 31746 net.cpp:406] conv5 <- conv4
I0502 12:39:59.861399 31746 net.cpp:380] conv5 -> conv5
I0502 12:39:59.891566 31746 net.cpp:122] Setting up conv5
I0502 12:39:59.891587 31746 net.cpp:129] Top shape: 32 256 13 13 (1384448)
I0502 12:39:59.891592 31746 net.cpp:137] Memory required for data: 256225024
I0502 12:39:59.891607 31746 layer_factory.hpp:77] Creating layer relu5
I0502 12:39:59.891616 31746 net.cpp:84] Creating Layer relu5
I0502 12:39:59.891621 31746 net.cpp:406] relu5 <- conv5
I0502 12:39:59.891652 31746 net.cpp:367] relu5 -> conv5 (in-place)
I0502 12:39:59.892179 31746 net.cpp:122] Setting up relu5
I0502 12:39:59.892189 31746 net.cpp:129] Top shape: 32 256 13 13 (1384448)
I0502 12:39:59.892194 31746 net.cpp:137] Memory required for data: 261762816
I0502 12:39:59.892197 31746 layer_factory.hpp:77] Creating layer pool5
I0502 12:39:59.892208 31746 net.cpp:84] Creating Layer pool5
I0502 12:39:59.892212 31746 net.cpp:406] pool5 <- conv5
I0502 12:39:59.892220 31746 net.cpp:380] pool5 -> pool5
I0502 12:39:59.892259 31746 net.cpp:122] Setting up pool5
I0502 12:39:59.892266 31746 net.cpp:129] Top shape: 32 256 6 6 (294912)
I0502 12:39:59.892271 31746 net.cpp:137] Memory required for data: 262942464
I0502 12:39:59.892273 31746 layer_factory.hpp:77] Creating layer fc6
I0502 12:39:59.892282 31746 net.cpp:84] Creating Layer fc6
I0502 12:39:59.892285 31746 net.cpp:406] fc6 <- pool5
I0502 12:39:59.892292 31746 net.cpp:380] fc6 -> fc6
I0502 12:40:00.370632 31746 net.cpp:122] Setting up fc6
I0502 12:40:00.370661 31746 net.cpp:129] Top shape: 32 4096 (131072)
I0502 12:40:00.370667 31746 net.cpp:137] Memory required for data: 263466752
I0502 12:40:00.370682 31746 layer_factory.hpp:77] Creating layer relu6
I0502 12:40:00.370697 31746 net.cpp:84] Creating Layer relu6
I0502 12:40:00.370702 31746 net.cpp:406] relu6 <- fc6
I0502 12:40:00.370712 31746 net.cpp:367] relu6 -> fc6 (in-place)
I0502 12:40:00.388375 31746 net.cpp:122] Setting up relu6
I0502 12:40:00.388402 31746 net.cpp:129] Top shape: 32 4096 (131072)
I0502 12:40:00.388407 31746 net.cpp:137] Memory required for data: 263991040
I0502 12:40:00.388417 31746 layer_factory.hpp:77] Creating layer drop6
I0502 12:40:00.388428 31746 net.cpp:84] Creating Layer drop6
I0502 12:40:00.388435 31746 net.cpp:406] drop6 <- fc6
I0502 12:40:00.388448 31746 net.cpp:367] drop6 -> fc6 (in-place)
I0502 12:40:00.388492 31746 net.cpp:122] Setting up drop6
I0502 12:40:00.388504 31746 net.cpp:129] Top shape: 32 4096 (131072)
I0502 12:40:00.388509 31746 net.cpp:137] Memory required for data: 264515328
I0502 12:40:00.388514 31746 layer_factory.hpp:77] Creating layer fc7
I0502 12:40:00.388525 31746 net.cpp:84] Creating Layer fc7
I0502 12:40:00.388530 31746 net.cpp:406] fc7 <- fc6
I0502 12:40:00.388540 31746 net.cpp:380] fc7 -> fc7
I0502 12:40:00.600556 31746 net.cpp:122] Setting up fc7
I0502 12:40:00.600579 31746 net.cpp:129] Top shape: 32 4096 (131072)
I0502 12:40:00.600584 31746 net.cpp:137] Memory required for data: 265039616
I0502 12:40:00.600594 31746 layer_factory.hpp:77] Creating layer relu7
I0502 12:40:00.600605 31746 net.cpp:84] Creating Layer relu7
I0502 12:40:00.600611 31746 net.cpp:406] relu7 <- fc7
I0502 12:40:00.600617 31746 net.cpp:367] relu7 -> fc7 (in-place)
I0502 12:40:00.601050 31746 net.cpp:122] Setting up relu7
I0502 12:40:00.601060 31746 net.cpp:129] Top shape: 32 4096 (131072)
I0502 12:40:00.601064 31746 net.cpp:137] Memory required for data: 265563904
I0502 12:40:00.601069 31746 layer_factory.hpp:77] Creating layer drop7
I0502 12:40:00.601076 31746 net.cpp:84] Creating Layer drop7
I0502 12:40:00.601080 31746 net.cpp:406] drop7 <- fc7
I0502 12:40:00.601085 31746 net.cpp:367] drop7 -> fc7 (in-place)
I0502 12:40:00.601111 31746 net.cpp:122] Setting up drop7
I0502 12:40:00.601116 31746 net.cpp:129] Top shape: 32 4096 (131072)
I0502 12:40:00.601120 31746 net.cpp:137] Memory required for data: 266088192
I0502 12:40:00.601125 31746 layer_factory.hpp:77] Creating layer fc8
I0502 12:40:00.601133 31746 net.cpp:84] Creating Layer fc8
I0502 12:40:00.601137 31746 net.cpp:406] fc8 <- fc7
I0502 12:40:00.601142 31746 net.cpp:380] fc8 -> fc8
I0502 12:40:00.613200 31746 net.cpp:122] Setting up fc8
I0502 12:40:00.613219 31746 net.cpp:129] Top shape: 32 196 (6272)
I0502 12:40:00.613224 31746 net.cpp:137] Memory required for data: 266113280
I0502 12:40:00.613232 31746 layer_factory.hpp:77] Creating layer fc8_fc8_0_split
I0502 12:40:00.613240 31746 net.cpp:84] Creating Layer fc8_fc8_0_split
I0502 12:40:00.613245 31746 net.cpp:406] fc8_fc8_0_split <- fc8
I0502 12:40:00.613252 31746 net.cpp:380] fc8_fc8_0_split -> fc8_fc8_0_split_0
I0502 12:40:00.613281 31746 net.cpp:380] fc8_fc8_0_split -> fc8_fc8_0_split_1
I0502 12:40:00.613318 31746 net.cpp:122] Setting up fc8_fc8_0_split
I0502 12:40:00.613324 31746 net.cpp:129] Top shape: 32 196 (6272)
I0502 12:40:00.613327 31746 net.cpp:129] Top shape: 32 196 (6272)
I0502 12:40:00.613330 31746 net.cpp:137] Memory required for data: 266163456
I0502 12:40:00.613334 31746 layer_factory.hpp:77] Creating layer accuracy
I0502 12:40:00.613342 31746 net.cpp:84] Creating Layer accuracy
I0502 12:40:00.613345 31746 net.cpp:406] accuracy <- fc8_fc8_0_split_0
I0502 12:40:00.613349 31746 net.cpp:406] accuracy <- label_val-data_1_split_0
I0502 12:40:00.613354 31746 net.cpp:380] accuracy -> accuracy
…
